…
  name: "data"
  type: "ImageLabelmapData"
  top: "data_unaugmented"
  top: "label_unaugmented"
  include {
    phase: TRAIN
  }
  transform_param {
    mean_value: 104.00699
    mean_value: 116.66877
    mean_value: 122.67892
  }
  image_data_param {
    source: "/media/compute/homes/galberding/FleckDetect/Datasets/FleckDataSet/train/image_to_label_map.txt"
    batch_size: 1
    shuffle: true
    new_height: 500
    new_width: 500
    root_folder: "/media/compute/homes/galberding/FleckDetect/Datasets/FleckDataSet/train/"
    normalize: true
  }
}
layer {
  name: "augmentation"
  type: "Python"
  bottom: "data_unaugmented"
  bottom: "label_unaugmented"
  top: "data"
  top: "label"
  include {
    phase: TRAIN
  }
  python_param {
    module: "data_augmentation"
    layer: "DataAugmentation"
  }
}
layer {
  name: "conv1_1"
  type: "Convolution"
  bottom: "data"
  top: "conv1_1"
  param {
    lr_mult: 1
    decay_mult: 1
  }
  param {
    lr_mult: 2
    decay_mult: 0
  }
  convolution_param {
    num_output: 64
    pad: 1
    kernel_size: 3
    engine: CUDNN
  }
}
layer {
  name: "relu1_1"
  type: "ReLU"
  bottom: "conv1_1"
  top: "conv1_1"
}
layer {
  name: "conv1_2"
  type: "Convolution"
  bottom: "conv1_1"
  top: "conv1_2"
  param {
    lr_mult: 1
    decay_mult: 1
  }
  param {
    lr_mult: 2
    decay_mult: 0
  }
  convolution_param {
    num_output: 64
    pad: 1
    kernel_size: 3
    engine: CUDNN
  }
}
layer {
  name: "relu1_2"
  type: "ReLU"
  bottom: "conv1_2"
  top: "conv1_2"
}
layer {
  name: "pool1"
  type: "Pooling"
  bottom: "conv1_2"
  top: "pool1"
  pooling_param {
    pool: MAX
    kernel_size: 2
    stride: 2
  }
}
layer {
  name: "conv2_1"
  type: "Convolution"
  bottom: "pool1"
  top: "conv2_1"
  param {
    lr_mult: 1
    decay_mult: 1
  }
  param {
    lr_mult: 2
    decay_mult: 0
  }
  convolution_param {
    num_output: 128
    pad: 1
    kernel_size: 3
    engine: CUDNN
  }
}
layer {
  name: "relu2_1"
  type: "ReLU"
  bottom: "conv2_1"
  top: "conv2_1"
}
layer {
  name: "conv2_2"
  type: "Convolution"
  bottom: "conv2_1"
  top: "conv2_2"
  param {
    lr_mult: 1
    decay_mult: 1
  }
  param {
    lr_mult: 2
    decay_mult: 0
  }
  convolution_param {
    num_output: 128
    pad: 1
    kernel_size: 3
    engine: CUDNN
  }
}
layer {
  name: "relu2_2"
  type: "ReLU"
  bottom: "conv2_2"
  top: "conv2_2"
}
layer {
  name: "pool2"
  type: "Pooling"
  bottom: "conv2_2"
  top: "pool2"
  pooling_param {
    pool: MAX
    kernel_size: 2
    stride: 2
  }
}
layer {
  name: "conv3_1"
  type: "Convolution"
  bottom: "pool2"
  top: "conv3_1"
  param {
    lr_mult: 1
    decay_mult: 1
  }
  param {
    lr_mult: 2
    decay_mult: 0
  }
  convolution_param {
    num_output: 256
    pad: 1
    kernel_size: 3
    engine: CUDNN
  }
}
layer {
  name: "relu3_1"
  type: "ReLU"
  bottom: "conv3_1"
  top: "conv3_1"
}
layer {
  name: "conv3_2"
  type: "Convolution"
  bottom: "conv3_1"
  top: "conv3_2"
  param {
    lr_mult: 1
    decay_mult: 1
  }
  param {
    lr_mult: 2
    decay_mult: 0
  }
  convolution_param {
    num_output: 256
    pad: 1
    kernel_size: 3
    engine: CUDNN
  }
}
layer {
  name: "relu3_2"
  type: "ReLU"
  bottom: "conv3_2"
  top: "conv3_2"
}
layer {
  name: "conv3_3"
  type: "Convolution"
  bottom: "conv3_2"
  top: "conv3_3"
  param {
    lr_mult: 1
    decay_mult: 1
  }
  param {
    lr_mult: 2
    decay_mult: 0
  }
  convolution_param {
    num_output: 256
    pad: 1
    kernel_size: 3
    engine: CUDNN
  }
}
layer {
  name: "relu3_3"
  type: "ReLU"
  bottom: "conv3_3"
  top: "conv3_3"
}
layer {
  name: "pool3"
  type: "Pooling"
  bottom: "conv3_3"
  top: "pool3"
  pooling_param {
    pool: MAX
    kernel_size: 2
    stride: 2
  }
}
layer {
  name: "conv4_1"
  type: "Convolution"
  bottom: "pool3"
  top: "conv4_1"
  param {
    lr_mult: 1
    decay_mult: 1
  }
  param {
    lr_mult: 2
    decay_mult: 0
  }
  convolution_param {
    num_output: 512
    pad: 1
    kernel_size: 3
    engine: CUDNN
  }
}
layer {
  name: "relu4_1"
  type: "ReLU"
  bottom: "conv4_1"
  top: "conv4_1"
}
layer {
  name: "conv4_2"
  type: "Convolution"
  bottom: "conv4_1"
  top: "conv4_2"
  param {
    lr_mult: 1
    decay_mult: 1
  }
  param {
    lr_mult: 2
    decay_mult: 0
  }
  convolution_param {
    num_output: 512
    pad: 1
    kernel_size: 3
    engine: CUDNN
  }
}
layer {
  name: "relu4_2"
  type: "ReLU"
  bottom: "conv4_2"
  top: "conv4_2"
}
layer {
  name: "conv4_3"
  type: "Convolution"
  bottom: "conv4_2"
  top: "conv4_3"
  param {
    lr_mult: 1
    decay_mult: 1
  }
  param {
    lr_mult: 2
    decay_mult: 0
  }
  convolution_param {
    num_output: 512
    pad: 1
    kernel_size: 3
    engine: CUDNN
  }
}
layer {
  name: "relu4_3"
  type: "ReLU"
  bottom: "conv4_3"
  top: "conv4_3"
}
layer {
  name: "pool4"
  type: "Pooling"
  bottom: "conv4_3"
  top: "pool4"
  pooling_param {
    pool: MAX
    kernel_size: 3
    stride: 2
    pad: 1
  }
}
layer {
  name: "conv5_1"
  type: "Convolution"
  bottom: "pool4"
  top: "conv5_1"
  param {
    lr_mult: 1
    decay_mult: 1
  }
  param {
    lr_mult: 2
    decay_mult: 0
  }
  convolution_param {
    num_output: 512
    pad: 1
    kernel_size: 3
    engine: CUDNN
  }
}
layer {
  name: "relu5_1"
  type: "ReLU"
  bottom: "conv5_1"
  top: "conv5_1"
}
layer {
  name: "conv5_2"
  type: "Convolution"
  bottom: "conv5_1"
  top: "conv5_2"
  param {
    lr_mult: 1
    decay_mult: 1
  }
  param {
    lr_mult: 2
    decay_mult: 0
  }
  convolution_param {
    num_output: 512
    pad: 1
    kernel_size: 3
    engine: CUDNN
  }
}
layer {
  name: "relu5_2"
  type: "ReLU"
  bottom: "conv5_2"
  top: "conv5_2"
}
layer {
  name: "conv5_3"
  type: "Convolution"
  bottom: "conv5_2"
  top: "conv5_3"
  param {
    lr_mult: 1
    decay_mult: 1
  }
  param {
    lr_mult: 2
    decay_mult: 0
  }
  convolution_param {
    num_output: 512
    pad: 1
    kernel_size: 3
    engine: CUDNN
  }
}
layer {
  name: "relu5_3"
  type: "ReLU"
  bottom: "conv5_3"
  top: "conv5_3"
}
layer {
  name: "pool5"
  type: "Pooling"
  bottom: "conv5_3"
  top: "pool5"
  pooling_param {
    pool: MAX
    kernel_size: 3
    stride: 2
    pad: 1
  }
}
layer {
  name: "conv1-dsn6"
  type: "Convolution"
  bottom: "pool5"
  top: "conv1-dsn6"
  param {
    lr_mult: 1
    decay_mult: 1
  }
  param {
    lr_mult: 2
    decay_mult: 0
  }
  convolution_param {
    num_output: 256
    kernel_size: 1
    weight_filler {
      type: "gaussian"
      std: 0.01
    }
    bias_filler {
      type: "constant"
      value: 0
    }
    engine: CUDNN
  }
}
layer {
  name: "conv2-dsn6"
  type: "Convolution"
  bottom: "conv1-dsn6"
  top: "conv2-dsn6"
  param {
    lr_mult: 1
    decay_mult: 1
  }
  param {
    lr_mult: 2
    decay_mult: 0
  }
  convolution_param {
    num_output: 256
    pad: 2
    kernel_size: 5
    weight_filler {
      type: "gaussian"
      std: 0.01
    }
    bias_filler {
      type: "constant"
      value: 0
    }
    engine: CUDNN
  }
}
layer {
  name: "relu1-dsn6"
  type: "ReLU"
  bottom: "conv2-dsn6"
  top: "conv2-dsn6"
}
layer {
  name: "conv3-dsn6"
  type: "Convolution"
  bottom: "conv2-dsn6"
  top: "conv3-dsn6"
  param {
    lr_mult: 1
    decay_mult: 1
  }
  param {
    lr_mult: 2
    decay_mult: 0
  }
  convolution_param {
    num_output: 256
    pad: 2
    kernel_size: 5
    weight_filler {
      type: "gaussian"
      std: 0.01
    }
    bias_filler {
      type: "constant"
      value: 0
    }
    engine: CUDNN
  }
}
layer {
  name: "relu2-dsn6"
  type: "ReLU"
  bottom: "conv3-dsn6"
  top: "conv3-dsn6"
}
layer {
  name: "conv4-dsn6"
  type: "Convolution"
  bottom: "conv3-dsn6"
  top: "conv4-dsn6"
  param {
    lr_mult: 1
    decay_mult: 1
  }
  param {
    lr_mult: 2
    decay_mult: 0
  }
  convolution_param {
    num_output: 256
    pad: 2
    kernel_size: 5
    weight_filler {
      type: "gaussian"
      std: 0.01
    }
    bias_filler {
      type: "constant"
      value: 0
    }
    engine: CUDNN
  }
}
layer {
  name: "relu3-dsn6"
  type: "ReLU"
  bottom: "conv4-dsn6"
  top: "conv4-dsn6"
}
layer {
  name: "conv5-dsn6"
  type: "Convolution"
  bottom: "conv4-dsn6"
  top: "conv5-dsn6"
  param {
    lr_mult: 0.1
    decay_mult: 1
  }
  param {
    lr_mult: 0.2
    decay_mult: 0
  }
  convolution_param {
    num_output: 1
    kernel_size: 1
    weight_filler {
      type: "gaussian"
      std: 0.01
    }
    bias_filler {
      type: "constant"
      value: 0
    }
    engine: CUDNN
  }
}
layer {
  name: "upsample32_dsn6"
  type: "Deconvolution"
  bottom: "conv5-dsn6"
  top: "conv5-dsn6-up"
  param {
    lr_mult: 0
    decay_mult: 1
  }
  param {
    lr_mult: 0
    decay_mult: 0
  }
  convolution_param {
    num_output: 1
    kernel_size: 64
    stride: 32
  }
}
layer {
  name: "crop-dsn6"
  type: "Crop"
  bottom: "conv5-dsn6-up"
  bottom: "data"
  top: "upscore-dsn6"
}
layer {
  name: "loss6-score"
  type: "SigmoidCrossEntropyLoss"
  bottom: "upscore-dsn6"
  bottom: "label"
  top: "loss6-score"
  loss_weight: 1
}
layer {
  name: "upsample2_dsn5"
  type: "Deconvolution"
  bottom: "conv5-dsn6"
  top: "conv5-dsn6-5"
  param {
    lr_mult: 0
    decay_mult: 1
  }
  param {
    lr_mult: 0
    decay_mult: 0
  }
  convolution_param {
    num_output: 1
    kernel_size: 4
    stride: 2
  }
}
layer {
  name: "crop1-dsn5"
  type: "Crop"
  bottom: "conv5-dsn6-5"
  bottom: "conv5_3"
  top: "weight-dsn6-5"
}
layer {
  name: "sigmoid-dsn5"
  type: "Sigmoid"
  bottom: "weight-dsn6-5"
  top: "sigmoid-dsn5"
}
layer {
  name: "rev-dsn5"
  type: "Power"
  bottom: "sigmoid-dsn5"
  top: "rev-dsn5"
  power_param {
    power: 1
    scale: -1
    shift: 1
  }
}
layer {
  name: "tile-dsn5"
  type: "Tile"
  bottom: "rev-dsn5"
  top: "weight-dsn5"
  tile_param {
    tiles: 512
  }
}
layer {
  name: "prod1-dsn5"
  type: "Eltwise"
  bottom: "conv5_3"
  bottom: "weight-dsn5"
  top: "prod1-dsn5"
  eltwise_param {
    operation: PROD
  }
}
layer {
  name: "conv1-dsn5"
  type: "Convolution"
  bottom: "prod1-dsn5"
  top: "conv1-dsn5"
  param {
    lr_mult: 1
    decay_mult: 1
  }
  param {
    lr_mult: 2
    decay_mult: 0
  }
  convolution_param {
    num_output: 64
    kernel_size: 1
    weight_filler {
      type: "gaussian"
      std: 0.01
    }
    bias_filler {
      type: "constant"
      value: 0
    }
    engine: CUDNN
  }
}
layer {
  name: "conv2-dsn5"
  type: "Convolution"
  bottom: "conv1-dsn5"
  top: "conv2-dsn5"
  param {
    lr_mult: 1
    decay_mult: 1
  }
  param {
    lr_mult: 2
    decay_mult: 0
  }
  convolution_param {
    num_output: 64
    pad: 1
    kernel_size: 3
    weight_filler {
      type: "gaussian"
      std: 0.01
    }
    bias_filler {
      type: "constant"
      value: 0
    }
    engine: CUDNN
  }
}
layer {
  name: "relu1-dsn5"
  type: "ReLU"
  bottom: "conv2-dsn5"
  top: "conv2-dsn5"
}
layer {
  name: "conv3-dsn5"
  type: "Convolution"
  bottom: "conv2-dsn5"
  top: "conv3-dsn5"
  param {
    lr_mult: 1
    decay_mult: 1
  }
  param {
    lr_mult: 2
    decay_mult: 0
  }
  convolution_param {
    num_output: 64
    pad: 1
    kernel_size: 3
    weight_filler {
      type: "gaussian"
      std: 0.01
    }
    bias_filler {
      type: "constant"
      value: 0
    }
    engine: CUDNN
  }
}
layer {
  name: "relu2-dsn5"
  type: "ReLU"
  bottom: "conv3-dsn5"
  top: "conv3-dsn5"
}
layer {
  name: "conv4-dsn5"
  type: "Convolution"
  bottom: "conv3-dsn5"
  top: "conv4-dsn5"
  param {
    lr_mult: 1
    decay_mult: 1
  }
  param {
    lr_mult: 2
    decay_mult: 0
  }
  convolution_param {
    num_output: 1
    pad: 1
    kernel_size: 3
    weight_filler {
      type: "gaussian"
      std: 0.01
    }
    bias_filler {
      type: "constant"
      value: 0
    }
    engine: CUDNN
  }
}
layer {
  name: "sum-dsn5"
  type: "Eltwise"
  bottom: "conv4-dsn5"
  bottom: "weight-dsn6-5"
  top: "sum-dsn5"
  eltwise_param {
    operation: SUM
  }
}
layer {
  name: "upsample16_dsn5"
  type: "Deconvolution"
  bottom: "sum-dsn5"
  top: "sum-dsn5-up"
  param {
    lr_mult: 0
    decay_mult: 1
  }
  param {
    lr_mult: 0
    decay_mult: 0
  }
  convolution_param {
    num_output: 1
    kernel_size: 32
    stride: 16
  }
}
layer {
  name: "crop2-dsn5"
  type: "Crop"
  bottom: "sum-dsn5-up"
  bottom: "data"
  top: "upscore-dsn5"
}
layer {
  name: "loss5-score"
  type: "SigmoidCrossEntropyLoss"
  bottom: "upscore-dsn5"
  bottom: "label"
  top: "loss5-score"
  loss_weight: 1
}
layer {
  name: "upsample2_dsn4"
  type: "Deconvolution"
  bottom: "sum-dsn5"
  top: "sum-dsn5-4"
  param {
    lr_mult: 0
    decay_mult: 1
  }
  param {
    lr_mult: 0
    decay_mult: 0
  }
  convolution_param {
    num_output: 1
    kernel_size: 4
    stride: 2
  }
}
layer {
  name: "crop1-dsn4"
  type: "Crop"
  bottom: "sum-dsn5-4"
  bottom: "conv4_3"
  top: "weight-dsn5-4"
}
layer {
  name: "sigmoid-dsn4"
  type: "Sigmoid"
  bottom: "weight-dsn5-4"
  top: "sigmoid-dsn4"
}
layer {
  name: "rev-dsn4"
  type: "Power"
  bottom: "sigmoid-dsn4"
  top: "rev-dsn4"
  power_param {
    power: 1
    scale: -1
    shift: 1
  }
}
layer {
  name: "tile-dsn4"
  type: "Tile"
  bottom: "rev-dsn4"
  top: "weight-dsn4"
  tile_param {
    tiles: 512
  }
}
layer {
  name: "prod1-dsn4"
  type: "Eltwise"
  bottom: "conv4_3"
  bottom: "weight-dsn4"
  top: "prod1-dsn4"
  eltwise_param {
    operation: PROD
  }
}
layer {
  name: "conv1-dsn4"
  type: "Convolution"
  bottom: "prod1-dsn4"
  top: "conv1-dsn4"
  param {
    lr_mult: 1
    decay_mult: 1
  }
  param {
    lr_mult: 2
    decay_mult: 0
  }
  convolution_param {
    num_output: 64
    kernel_size: 1
    weight_filler {
      type: "gaussian"
      std: 0.01
    }
    bias_filler {
      type: "constant"
      value: 0
    }
    engine: CUDNN
  }
}
layer {
  name: "conv2-dsn4"
  type: "Convolution"
  bottom: "conv1-dsn4"
  top: "conv2-dsn4"
  param {
    lr_mult: 1
    decay_mult: 1
  }
  param {
    lr_mult: 2
    decay_mult: 0
  }
  convolution_param {
    num_output: 64
    pad: 1
    kernel_size: 3
    weight_filler {
      type: "gaussian"
      std: 0.01
    }
    bias_filler {
      type: "constant"
      value: 0
    }
    engine: CUDNN
  }
}
layer {
  name: "relu1-dsn4"
  type: "ReLU"
  bottom: "conv2-dsn4"
  top: "conv2-dsn4"
}
layer {
  name: "conv3-dsn4"
  type: "Convolution"
  bottom: "conv2-dsn4"
  top: "conv3-dsn4"
  param {
    lr_mult: 1
    decay_mult: 1
  }
  param {
    lr_mult: 2
    decay_mult: 0
  }
  convolution_param {
    num_output: 64
    pad: 1
    kernel_size: 3
    weight_filler {
      type: "gaussian"
      std: 0.01
    }
    bias_filler {
      type: "constant"
      value: 0
    }
    engine: CUDNN
  }
}
layer {
  name: "relu2-dsn4"
  type: "ReLU"
  bottom: "conv3-dsn4"
  top: "conv3-dsn4"
}
layer {
  name: "conv4-dsn4"
  type: "Convolution"
  bottom: "conv3-dsn4"
  top: "conv4-dsn4"
  param {
    lr_mult: 1
    decay_mult: 1
  }
  param {
    lr_mult: 2
    decay_mult: 0
  }
  convolution_param {
    num_output: 1
    pad: 1
    kernel_size: 3
    weight_filler {
      type: "gaussian"
      std: 0.01
    }
    bias_filler {
      type: "constant"
      value: 0
    }
    engine: CUDNN
  }
}
layer {
  name: "sum-dsn4"
  type: "Eltwise"
  bottom: "conv4-dsn4"
  bottom: "weight-dsn5-4"
  top: "sum-dsn4"
  eltwise_param {
    operation: SUM
  }
}
layer {
  name: "upsample8_dsn4"
  type: "Deconvolution"
  bottom: "sum-dsn4"
  top: "sum-dsn4-up"
  param {
    lr_mult: 0
    decay_mult: 1
  }
  param {
    lr_mult: 0
    decay_mult: 0
  }
  convolution_param {
    num_output: 1
    kernel_size: 16
    stride: 8
  }
}
layer {
  name: "crop2-dsn4"
  type: "Crop"
  bottom: "sum-dsn4-up"
  bottom: "data"
  top: "upscore-dsn4"
}
layer {
  name: "loss4-score"
  type: "SigmoidCrossEntropyLoss"
  bottom: "upscore-dsn4"
  bottom: "label"
  top: "loss4-score"
  loss_weight: 1
}
layer {
  name: "upsample2_dsn3"
  type: "Deconvolution"
  bottom: "sum-dsn4"
  top: "sum-dsn4-3"
  param {
    lr_mult: 0
    decay_mult: 1
  }
  param {
    lr_mult: 0
    decay_mult: 0
  }
  convolution_param {
    num_output: 1
    kernel_size: 4
    stride: 2
  }
}
layer {
  name: "crop1-dsn3"
  type: "Crop"
  bottom: "sum-dsn4-3"
  bottom: "conv3_3"
  top: "weight-dsn4-3"
}
layer {
  name: "sigmoid-dsn3"
  type: "Sigmoid"
  bottom: "weight-dsn4-3"
  top: "sigmoid-dsn3"
}
layer {
  name: "rev-dsn3"
  type: "Power"
  bottom: "sigmoid-dsn3"
  top: "rev-dsn3"
  power_param {
    power: 1
    scale: -1
    shift: 1
  }
}
layer {
  name: "tile-dsn3"
  type: "Tile"
  bottom: "rev-dsn3"
  top: "weight-dsn3"
  tile_param {
    tiles: 256
  }
}
layer {
  name: "prod1-dsn3"
  type: "Eltwise"
  bottom: "conv3_3"
  bottom: "weight-dsn3"
  top: "prod1-dsn3"
  eltwise_param {
    operation: PROD
  }
}
layer {
  name: "conv1-dsn3"
  type: "Convolution"
  bottom: "prod1-dsn3"
  top: "conv1-dsn3"
  param {
    lr_mult: 1
    decay_mult: 1
  }
  param {
    lr_mult: 2
    decay_mult: 0
  }
  convolution_param {
    num_output: 64
    kernel_size: 1
    weight_filler {
      type: "gaussian"
      std: 0.01
    }
    bias_filler {
      type: "constant"
      value: 0
    }
    engine: CUDNN
  }
}
layer {
  name: "conv2-dsn3"
  type: "Convolution"
  bottom: "conv1-dsn3"
  top: "conv2-dsn3"
  param {
    lr_mult: 1
    decay_mult: 1
  }
  param {
    lr_mult: 2
    decay_mult: 0
  }
  convolution_param {
    num_output: 64
    pad: 1
    kernel_size: 3
    weight_filler {
      type: "gaussian"
      std: 0.01
    }
    bias_filler {
      type: "constant"
      value: 0
    }
    engine: CUDNN
  }
}
layer {
  name: "relu1-dsn3"
  type: "ReLU"
  bottom: "conv2-dsn3"
  top: "conv2-dsn3"
}
layer {
  name: "conv3-dsn3"
  type: "Convolution"
  bottom: "conv2-dsn3"
  top: "conv3-dsn3"
  param {
    lr_mult: 1
    decay_mult: 1
  }
  param {
    lr_mult: 2
    decay_mult: 0
  }
  convolution_param {
    num_output: 64
    pad: 1
    kernel_size: 3
    weight_filler {
      type: "gaussian"
      std: 0.01
    }
    bias_filler {
      type: "constant"
      value: 0
    }
    engine: CUDNN
  }
}
layer {
  name: "relu2-dsn3"
  type: "ReLU"
  bottom: "conv3-dsn3"
  top: "conv3-dsn3"
}
layer {
  name: "conv4-dsn3"
  type: "Convolution"
  bottom: "conv3-dsn3"
  top: "conv4-dsn3"
  param {
    lr_mult: 1
    decay_mult: 1
  }
  param {
    lr_mult: 2
    decay_mult: 0
  }
  convolution_param {
    num_output: 1
    pad: 1
    kernel_size: 3
    weight_filler {
      type: "gaussian"
      std: 0.01
    }
    bias_filler {
      type: "constant"
      value: 0
    }
    engine: CUDNN
  }
}
layer {
  name: "sum-dsn3"
  type: "Eltwise"
  bottom: "conv4-dsn3"
  bottom: "weight-dsn4-3"
  top: "sum-dsn3"
  eltwise_param {
    operation: SUM
  }
}
layer {
  name: "upsample4_dsn3"
  type: "Deconvolution"
  bottom: "sum-dsn3"
  top: "sum-dsn3-up"
  param {
    lr_mult: 0
    decay_mult: 1
  }
  param {
    lr_mult: 0
    decay_mult: 0
  }
  convolution_param {
    num_output: 1
    kernel_size: 8
    stride: 4
  }
}
layer {
  name: "crop2-dsn3"
  type: "Crop"
  bottom: "sum-dsn3-up"
  bottom: "data"
  top: "upscore-dsn3"
}
layer {
  name: "loss3-score"
  type: "SigmoidCrossEntropyLoss"
  bottom: "upscore-dsn3"
  bottom: "label"
  top: "loss3-score"
  loss_weight: 1
}
layer {
  name: "upsample2_1-dsn2"
  type: "Deconvolution"
  bottom: "sum-dsn3"
  top: "sum-dsn3-2"
  param {
    lr_mult: 0
    decay_mult: 1
  }
  param {
    lr_mult: 0
    decay_mult: 0
  }
  convolution_param {
    num_output: 1
    kernel_size: 4
    stride: 2
  }
}
layer {
  name: "crop1-dsn2"
  type: "Crop"
  bottom: "sum-dsn3-2"
  bottom: "conv2_2"
  top: "weight-dsn3-2"
}
layer {
  name: "sigmoid-dsn2"
  type: "Sigmoid"
  bottom: "weight-dsn3-2"
  top: "sigmoid-dsn2"
}
layer {
  name: "rev-dsn2"
  type: "Power"
  bottom: "sigmoid-dsn2"
  top: "rev-dsn2"
  power_param {
    power: 1
    scale: -1
    shift: 1
  }
}
layer {
  name: "tile-dsn2"
  type: "Tile"
  bottom: "rev-dsn2"
  top: "weight-dsn2"
  tile_param {
    tiles: 128
  }
}
layer {
  name: "prod1-dsn2"
  type: "Eltwise"
  bottom: "conv2_2"
  bottom: "weight-dsn2"
  top: "prod1-dsn2"
  eltwise_param {
    operation: PROD
  }
}
layer {
  name: "conv1-dsn2"
  type: "Convolution"
  bottom: "prod1-dsn2"
  top: "conv1-dsn2"
  param {
    lr_mult: 1
    decay_mult: 1
  }
  param {
    lr_mult: 2
    decay_mult: 0
  }
  convolution_param {
    num_output: 64
    kernel_size: 1
    weight_filler {
      type: "gaussian"
      std: 0.01
    }
    bias_filler {
      type: "constant"
      value: 0
    }
    engine: CUDNN
  }
}
layer {
  name: "conv2-dsn2"
  type: "Convolution"
  bottom: "conv1-dsn2"
  top: "conv2-dsn2"
  param {
    lr_mult: 1
    decay_mult: 1
  }
  param {
    lr_mult: 2
    decay_mult: 0
  }
  convolution_param {
    num_output: 64
    pad: 1
    kernel_size: 3
    weight_filler {
      type: "gaussian"
      std: 0.01
    }
    bias_filler {
      type: "constant"
      value: 0
    }
    engine: CUDNN
  }
}
layer {
  name: "relu1-dsn2"
  type: "ReLU"
  bottom: "conv2-dsn2"
  top: "conv2-dsn2"
}
layer {
  name: "conv3-dsn2"
  type: "Convolution"
  bottom: "conv2-dsn2"
  top: "conv3-dsn2"
  param {
    lr_mult: 1
    decay_mult: 1
  }
  param {
    lr_mult: 2
    decay_mult: 0
  }
  convolution_param {
    num_output: 64
    pad: 1
    kernel_size: 3
    weight_filler {
      type: "gaussian"
      std: 0.01
    }
    bias_filler {
      type: "constant"
      value: 0
    }
    engine: CUDNN
  }
}
layer {
  name: "relu2-dsn2"
  type: "ReLU"
  bottom: "conv3-dsn2"
  top: "conv3-dsn2"
}
layer {
  name: "conv4-dsn2"
  type: "Convolution"
  bottom: "conv3-dsn2"
  top: "conv4-dsn2"
  param {
    lr_mult: 1
    decay_mult: 1
  }
  param {
    lr_mult: 2
    decay_mult: 0
  }
  convolution_param {
    num_output: 1
    pad: 1
    kernel_size: 3
    weight_filler {
      type: "gaussian"
      std: 0.01
    }
    bias_filler {
      type: "constant"
      value: 0
    }
    engine: CUDNN
  }
}
layer {
  name: "sum-dsn2"
  type: "Eltwise"
  bottom: "conv4-dsn2"
  bottom: "weight-dsn3-2"
  top: "sum-dsn2"
  eltwise_param {
    operation: SUM
  }
}
layer {
  name: "upsample2_2-dsn2"
  type: "Deconvolution"
  bottom: "sum-dsn2"
  top: "sum-dsn2-up"
  param {
    lr_mult: 0
    decay_mult: 1
  }
  param {
    lr_mult: 0
    decay_mult: 0
  }
  convolution_param {
    num_output: 1
    kernel_size: 4
    stride: 2
  }
}
layer {
  name: "crop2-dsn2"
  type: "Crop"
  bottom: "sum-dsn2-up"
  bottom: "data"
  top: "upscore-dsn2"
}
layer {
  name: "loss2-score"
  type: "SigmoidCrossEntropyLoss"
  bottom: "upscore-dsn2"
  bottom: "label"
  top: "loss2-score"
  loss_weight: 1
}
layer {
  name: "sigmoid-dsn1"
  type: "Sigmoid"
  bottom: "upscore-dsn2"
  top: "sigmoid-dsn1"
}
layer {
  name: "rev-dsn1"
  type: "Power"
  bottom: "sigmoid-dsn1"
  top: "rev-dsn1"
  power_param {
    power: 1
    scale: -1
    shift: 1
  }
}
layer {
  name: "tile-dsn1"
  type: "Tile"
  bottom: "rev-dsn1"
  top: "weight-dsn1"
  tile_param {
    tiles: 64
  }
}
layer {
  name: "prod1-dsn1"
  type: "Eltwise"
  bottom: "conv1_2"
  bottom: "weight-dsn1"
  top: "prod1-dsn1"
  eltwise_param {
    operation: PROD
  }
}
layer {
  name: "conv1-dsn1"
  type: "Convolution"
  bottom: "prod1-dsn1"
  top: "conv1-dsn1"
  param {
    lr_mult: 1
    decay_mult: 1
  }
  param {
    lr_mult: 2
    decay_mult: 0
  }
  convolution_param {
    num_output: 64
    kernel_size: 1
    weight_filler {
      type: "gaussian"
      std: 0.01
    }
    bias_filler {
      type: "constant"
      value: 0
    }
    engine: CUDNN
  }
}
layer {
  name: "conv2-dsn1"
  type: "Convolution"
  bottom: "conv1-dsn1"
  top: "conv2-dsn1"
  param {
    lr_mult: 1
    decay_mult: 1
  }
  param {
    lr_mult: 2
    decay_mult: 0
  }
  convolution_param {
    num_output: 64
    pad: 1
    kernel_size: 3
    weight_filler {
      type: "gaussian"
      std: 0.01
    }
    bias_filler {
      type: "constant"
      value: 0
    }
    engine: CUDNN
  }
}
layer {
  name: "relu1-dsn1"
  type: "ReLU"
  bottom: "conv2-dsn1"
  top: "conv2-dsn1"
}
layer {
  name: "conv3-dsn1"
  type: "Convolution"
  bottom: "conv2-dsn1"
  top: "conv3-dsn1"
  param {
    lr_mult: 1
    decay_mult: 1
  }
  param {
    lr_mult: 2
    decay_mult: 0
  }
  convolution_param {
    num_output: 64
    pad: 1
    kernel_size: 3
    weight_filler {
      type: "gaussian"
      std: 0.01
    }
    bias_filler {
      type: "constant"
      value: 0
    }
    engine: CUDNN
  }
}
layer {
  name: "relu2-dsn1"
  type: "ReLU"
  bottom: "conv3-dsn1"
  top: "conv3-dsn1"
}
layer {
  name: "conv4-dsn1"
  type: "Convolution"
  bottom: "conv3-dsn1"
  top: "conv4-dsn1"
  param {
    lr_mult: 1
    decay_mult: 1
  }
  param {
    lr_mult: 2
    decay_mult: 0
  }
  convolution_param {
    num_output: 1
    pad: 1
    kernel_size: 3
    weight_filler {
      type: "gaussian"
      std: 0.01
    }
    bias_filler {
      type: "constant"
      value: 0
    }
    engine: CUDNN
  }
}
layer {
  name: "sum-dsn1"
  type: "Eltwise"
  bottom: "conv4-dsn1"
  bottom: "upscore-dsn2"
  top: "sum-dsn1"
  eltwise_param {
    operation: SUM
  }
}
layer {
  name: "crop2-dsn1"
  type: "Crop"
  bottom: "sum-dsn1"
  bottom: "data"
  top: "upscore-dsn1"
}
layer {
  name: "loss1-score"
  type: "SigmoidCrossEntropyLoss"
  bottom: "upscore-dsn1"
  bottom: "label"
  top: "loss1-score"
  loss_weight: 1
}
I1112 17:42:05.779253 21117 layer_factory.hpp:77] Creating layer data
I1112 17:42:05.779289 21117 net.cpp:100] Creating Layer data
I1112 17:42:05.779299 21117 net.cpp:408] data -> data_unaugmented
I1112 17:42:05.779317 21117 net.cpp:408] data -> label_unaugmented
I1112 17:42:05.779350 21117 image_labelmap_data_layer.cpp:41] Opening file /media/compute/homes/galberding/FleckDetect/Datasets/FleckDataSet/train/image_to_label_map.txt
I1112 17:42:05.782177 21117 image_labelmap_data_layer.cpp:51] Shuffling data
I1112 17:42:05.782426 21117 image_labelmap_data_layer.cpp:56] A total of 294 images.
I1112 17:42:06.259935 21117 image_labelmap_data_layer.cpp:110] output data size: 1,3,500,500
I1112 17:42:06.259961 21117 image_labelmap_data_layer.cpp:113] output label size: 1,1,500,500
I1112 17:42:06.271807 21117 net.cpp:150] Setting up data
I1112 17:42:06.271848 21117 net.cpp:157] Top shape: 1 3 500 500 (750000)
I1112 17:42:06.271852 21117 net.cpp:157] Top shape: 1 1 500 500 (250000)
I1112 17:42:06.271854 21117 net.cpp:165] Memory required for data: 4000000
I1112 17:42:06.271863 21117 layer_factory.hpp:77] Creating layer augmentation
I1112 17:42:06.279458 21117 net.cpp:100] Creating Layer augmentation
I1112 17:42:06.279474 21117 net.cpp:434] augmentation <- data_unaugmented
I1112 17:42:06.279481 21117 net.cpp:434] augmentation <- label_unaugmented
I1112 17:42:06.279489 21117 net.cpp:408] augmentation -> data
I1112 17:42:06.279500 21117 net.cpp:408] augmentation -> label
I1112 17:42:06.281710 21117 net.cpp:150] Setting up augmentation
I1112 17:42:06.281728 21117 net.cpp:157] Top shape: 1 3 500 500 (750000)
I1112 17:42:06.281733 21117 net.cpp:157] Top shape: 1 1 500 500 (250000)
I1112 17:42:06.281736 21117 net.cpp:165] Memory required for data: 8000000
I1112 17:42:06.281740 21117 layer_factory.hpp:77] Creating layer data_augmentation_0_split
I1112 17:42:06.281752 21117 net.cpp:100] Creating Layer data_augmentation_0_split
I1112 17:42:06.281756 21117 net.cpp:434] data_augmentation_0_split <- data
I1112 17:42:06.281764 21117 net.cpp:408] data_augmentation_0_split -> data_augmentation_0_split_0
I1112 17:42:06.281775 21117 net.cpp:408] data_augmentation_0_split -> data_augmentation_0_split_1
I1112 17:42:06.281783 21117 net.cpp:408] data_augmentation_0_split -> data_augmentation_0_split_2
I1112 17:42:06.281790 21117 net.cpp:408] data_augmentation_0_split -> data_augmentation_0_split_3
I1112 17:42:06.281796 21117 net.cpp:408] data_augmentation_0_split -> data_augmentation_0_split_4
I1112 17:42:06.281805 21117 net.cpp:408] data_augmentation_0_split -> data_augmentation_0_split_5
I1112 17:42:06.281811 21117 net.cpp:408] data_augmentation_0_split -> data_augmentation_0_split_6
I1112 17:42:06.281925 21117 net.cpp:150] Setting up data_augmentation_0_split
I1112 17:42:06.281934 21117 net.cpp:157] Top shape: 1 3 500 500 (750000)
I1112 17:42:06.281939 21117 net.cpp:157] Top shape: 1 3 500 500 (750000)
I1112 17:42:06.281942 21117 net.cpp:157] Top shape: 1 3 500 500 (750000)
I1112 17:42:06.281945 21117 net.cpp:157] Top shape: 1 3 500 500 (750000)
I1112 17:42:06.281949 21117 net.cpp:157] Top shape: 1 3 500 500 (750000)
I1112 17:42:06.281953 21117 net.cpp:157] Top shape: 1 3 500 500 (750000)
I1112 17:42:06.281957 21117 net.cpp:157] Top shape: 1 3 500 500 (750000)
I1112 17:42:06.281960 21117 net.cpp:165] Memory required for data: 29000000
I1112 17:42:06.281963 21117 layer_factory.hpp:77] Creating layer label_augmentation_1_split
I1112 17:42:06.281971 21117 net.cpp:100] Creating Layer label_augmentation_1_split
I1112 17:42:06.281975 21117 net.cpp:434] label_augmentation_1_split <- label
I1112 17:42:06.281981 21117 net.cpp:408] label_augmentation_1_split -> label_augmentation_1_split_0
I1112 17:42:06.281989 21117 net.cpp:408] label_augmentation_1_split -> label_augmentation_1_split_1
I1112 17:42:06.281996 21117 net.cpp:408] label_augmentation_1_split -> label_augmentation_1_split_2
I1112 17:42:06.282002 21117 net.cpp:408] label_augmentation_1_split -> label_augmentation_1_split_3
I1112 17:42:06.282009 21117 net.cpp:408] label_augmentation_1_split -> label_augmentation_1_split_4
I1112 17:42:06.282016 21117 net.cpp:408] label_augmentation_1_split -> label_augmentation_1_split_5
I1112 17:42:06.282094 21117 net.cpp:150] Setting up label_augmentation_1_split
I1112 17:42:06.282100 21117 net.cpp:157] Top shape: 1 1 500 500 (250000)
I1112 17:42:06.282104 21117 net.cpp:157] Top shape: 1 1 500 500 (250000)
I1112 17:42:06.282109 21117 net.cpp:157] Top shape: 1 1 500 500 (250000)
I1112 17:42:06.282111 21117 net.cpp:157] Top shape: 1 1 500 500 (250000)
I1112 17:42:06.282115 21117 net.cpp:157] Top shape: 1 1 500 500 (250000)
I1112 17:42:06.282119 21117 net.cpp:157] Top shape: 1 1 500 500 (250000)
I1112 17:42:06.282122 21117 net.cpp:165] Memory required for data: 35000000
I1112 17:42:06.282131 21117 layer_factory.hpp:77] Creating layer conv1_1
I1112 17:42:06.282145 21117 net.cpp:100] Creating Layer conv1_1
I1112 17:42:06.282148 21117 net.cpp:434] conv1_1 <- data_augmentation_0_split_0
I1112 17:42:06.282155 21117 net.cpp:408] conv1_1 -> conv1_1
I1112 17:42:06.585985 21117 net.cpp:150] Setting up conv1_1
I1112 17:42:06.586019 21117 net.cpp:157] Top shape: 1 64 500 500 (16000000)
I1112 17:42:06.586024 21117 net.cpp:165] Memory required for data: 99000000
I1112 17:42:06.586045 21117 layer_factory.hpp:77] Creating layer relu1_1
I1112 17:42:06.586056 21117 net.cpp:100] Creating Layer relu1_1
I1112 17:42:06.586061 21117 net.cpp:434] relu1_1 <- conv1_1
I1112 17:42:06.586066 21117 net.cpp:395] relu1_1 -> conv1_1 (in-place)
I1112 17:42:06.586263 21117 net.cpp:150] Setting up relu1_1
I1112 17:42:06.586273 21117 net.cpp:157] Top shape: 1 64 500 500 (16000000)
I1112 17:42:06.586275 21117 net.cpp:165] Memory required for data: 163000000
I1112 17:42:06.586279 21117 layer_factory.hpp:77] Creating layer conv1_2
I1112 17:42:06.586290 21117 net.cpp:100] Creating Layer conv1_2
I1112 17:42:06.586293 21117 net.cpp:434] conv1_2 <- conv1_1
I1112 17:42:06.586299 21117 net.cpp:408] conv1_2 -> conv1_2
I1112 17:42:06.588835 21117 net.cpp:150] Setting up conv1_2
I1112 17:42:06.588850 21117 net.cpp:157] Top shape: 1 64 500 500 (16000000)
I1112 17:42:06.588855 21117 net.cpp:165] Memory required for data: 227000000
I1112 17:42:06.588863 21117 layer_factory.hpp:77] Creating layer relu1_2
I1112 17:42:06.588871 21117 net.cpp:100] Creating Layer relu1_2
I1112 17:42:06.588873 21117 net.cpp:434] relu1_2 <- conv1_2
I1112 17:42:06.588879 21117 net.cpp:395] relu1_2 -> conv1_2 (in-place)
I1112 17:42:06.589049 21117 net.cpp:150] Setting up relu1_2
I1112 17:42:06.589057 21117 net.cpp:157] Top shape: 1 64 500 500 (16000000)
I1112 17:42:06.589061 21117 net.cpp:165] Memory required for data: 291000000
I1112 17:42:06.589064 21117 layer_factory.hpp:77] Creating layer conv1_2_relu1_2_0_split
I1112 17:42:06.589073 21117 net.cpp:100] Creating Layer conv1_2_relu1_2_0_split
I1112 17:42:06.589076 21117 net.cpp:434] conv1_2_relu1_2_0_split <- conv1_2
I1112 17:42:06.589082 21117 net.cpp:408] conv1_2_relu1_2_0_split -> conv1_2_relu1_2_0_split_0
I1112 17:42:06.589088 21117 net.cpp:408] conv1_2_relu1_2_0_split -> conv1_2_relu1_2_0_split_1
I1112 17:42:06.589134 21117 net.cpp:150] Setting up conv1_2_relu1_2_0_split
I1112 17:42:06.589143 21117 net.cpp:157] Top shape: 1 64 500 500 (16000000)
I1112 17:42:06.589146 21117 net.cpp:157] Top shape: 1 64 500 500 (16000000)
I1112 17:42:06.589148 21117 net.cpp:165] Memory required for data: 419000000
I1112 17:42:06.589151 21117 layer_factory.hpp:77] Creating layer pool1
I1112 17:42:06.589159 21117 net.cpp:100] Creating Layer pool1
I1112 17:42:06.589162 21117 net.cpp:434] pool1 <- conv1_2_relu1_2_0_split_0
I1112 17:42:06.589167 21117 net.cpp:408] pool1 -> pool1
I1112 17:42:06.589205 21117 net.cpp:150] Setting up pool1
I1112 17:42:06.589211 21117 net.cpp:157] Top shape: 1 64 250 250 (4000000)
I1112 17:42:06.589215 21117 net.cpp:165] Memory required for data: 435000000
I1112 17:42:06.589217 21117 layer_factory.hpp:77] Creating layer conv2_1
I1112 17:42:06.589226 21117 net.cpp:100] Creating Layer conv2_1
I1112 17:42:06.589228 21117 net.cpp:434] conv2_1 <- pool1
I1112 17:42:06.589236 21117 net.cpp:408] conv2_1 -> conv2_1
I1112 17:42:06.591922 21117 net.cpp:150] Setting up conv2_1
I1112 17:42:06.591938 21117 net.cpp:157] Top shape: 1 128 250 250 (8000000)
I1112 17:42:06.591940 21117 net.cpp:165] Memory required for data: 467000000
I1112 17:42:06.591950 21117 layer_factory.hpp:77] Creating layer relu2_1
I1112 17:42:06.591956 21117 net.cpp:100] Creating Layer relu2_1
I1112 17:42:06.591960 21117 net.cpp:434] relu2_1 <- conv2_1
I1112 17:42:06.591965 21117 net.cpp:395] relu2_1 -> conv2_1 (in-place)
I1112 17:42:06.592150 21117 net.cpp:150] Setting up relu2_1
I1112 17:42:06.592159 21117 net.cpp:157] Top shape: 1 128 250 250 (8000000)
I1112 17:42:06.592162 21117 net.cpp:165] Memory required for data: 499000000
I1112 17:42:06.592165 21117 layer_factory.hpp:77] Creating layer conv2_2
I1112 17:42:06.592175 21117 net.cpp:100] Creating Layer conv2_2
I1112 17:42:06.592177 21117 net.cpp:434] conv2_2 <- conv2_1
I1112 17:42:06.592185 21117 net.cpp:408] conv2_2 -> conv2_2
I1112 17:42:06.593729 21117 net.cpp:150] Setting up conv2_2
I1112 17:42:06.593744 21117 net.cpp:157] Top shape: 1 128 250 250 (8000000)
I1112 17:42:06.593747 21117 net.cpp:165] Memory required for data: 531000000
I1112 17:42:06.593755 21117 layer_factory.hpp:77] Creating layer relu2_2
I1112 17:42:06.593760 21117 net.cpp:100] Creating Layer relu2_2
I1112 17:42:06.593763 21117 net.cpp:434] relu2_2 <- conv2_2
I1112 17:42:06.593770 21117 net.cpp:395] relu2_2 -> conv2_2 (in-place)
I1112 17:42:06.593946 21117 net.cpp:150] Setting up relu2_2
I1112 17:42:06.593955 21117 net.cpp:157] Top shape: 1 128 250 250 (8000000)
I1112 17:42:06.593957 21117 net.cpp:165] Memory required for data: 563000000
I1112 17:42:06.593961 21117 layer_factory.hpp:77] Creating layer conv2_2_relu2_2_0_split
I1112 17:42:06.593966 21117 net.cpp:100] Creating Layer conv2_2_relu2_2_0_split
I1112 17:42:06.593969 21117 net.cpp:434] conv2_2_relu2_2_0_split <- conv2_2
I1112 17:42:06.593976 21117 net.cpp:408] conv2_2_relu2_2_0_split -> conv2_2_relu2_2_0_split_0
I1112 17:42:06.593982 21117 net.cpp:408] conv2_2_relu2_2_0_split -> conv2_2_relu2_2_0_split_1
I1112 17:42:06.593989 21117 net.cpp:408] conv2_2_relu2_2_0_split -> conv2_2_relu2_2_0_split_2
I1112 17:42:06.594041 21117 net.cpp:150] Setting up conv2_2_relu2_2_0_split
I1112 17:42:06.594048 21117 net.cpp:157] Top shape: 1 128 250 250 (8000000)
I1112 17:42:06.594053 21117 net.cpp:157] Top shape: 1 128 250 250 (8000000)
I1112 17:42:06.594056 21117 net.cpp:157] Top shape: 1 128 250 250 (8000000)
I1112 17:42:06.594058 21117 net.cpp:165] Memory required for data: 659000000
I1112 17:42:06.594061 21117 layer_factory.hpp:77] Creating layer pool2
I1112 17:42:06.594067 21117 net.cpp:100] Creating Layer pool2
I1112 17:42:06.594070 21117 net.cpp:434] pool2 <- conv2_2_relu2_2_0_split_0
I1112 17:42:06.594075 21117 net.cpp:408] pool2 -> pool2
I1112 17:42:06.594111 21117 net.cpp:150] Setting up pool2
I1112 17:42:06.594118 21117 net.cpp:157] Top shape: 1 128 125 125 (2000000)
I1112 17:42:06.594120 21117 net.cpp:165] Memory required for data: 667000000
I1112 17:42:06.594123 21117 layer_factory.hpp:77] Creating layer conv3_1
I1112 17:42:06.594146 21117 net.cpp:100] Creating Layer conv3_1
I1112 17:42:06.594149 21117 net.cpp:434] conv3_1 <- pool2
I1112 17:42:06.594154 21117 net.cpp:408] conv3_1 -> conv3_1
I1112 17:42:06.596980 21117 net.cpp:150] Setting up conv3_1
I1112 17:42:06.596997 21117 net.cpp:157] Top shape: 1 256 125 125 (4000000)
I1112 17:42:06.596999 21117 net.cpp:165] Memory required for data: 683000000
I1112 17:42:06.597010 21117 layer_factory.hpp:77] Creating layer relu3_1
I1112 17:42:06.597016 21117 net.cpp:100] Creating Layer relu3_1
I1112 17:42:06.597020 21117 net.cpp:434] relu3_1 <- conv3_1
I1112 17:42:06.597025 21117 net.cpp:395] relu3_1 -> conv3_1 (in-place)
I1112 17:42:06.597528 21117 net.cpp:150] Setting up relu3_1
I1112 17:42:06.597542 21117 net.cpp:157] Top shape: 1 256 125 125 (4000000)
I1112 17:42:06.597545 21117 net.cpp:165] Memory required for data: 699000000
I1112 17:42:06.597548 21117 layer_factory.hpp:77] Creating layer conv3_2
I1112 17:42:06.597558 21117 net.cpp:100] Creating Layer conv3_2
I1112 17:42:06.597561 21117 net.cpp:434] conv3_2 <- conv3_1
I1112 17:42:06.597568 21117 net.cpp:408] conv3_2 -> conv3_2
I1112 17:42:06.600491 21117 net.cpp:150] Setting up conv3_2
I1112 17:42:06.600505 21117 net.cpp:157] Top shape: 1 256 125 125 (4000000)
I1112 17:42:06.600508 21117 net.cpp:165] Memory required for data: 715000000
I1112 17:42:06.600517 21117 layer_factory.hpp:77] Creating layer relu3_2
I1112 17:42:06.600523 21117 net.cpp:100] Creating Layer relu3_2
I1112 17:42:06.600526 21117 net.cpp:434] relu3_2 <- conv3_2
I1112 17:42:06.600533 21117 net.cpp:395] relu3_2 -> conv3_2 (in-place)
I1112 17:42:06.601008 21117 net.cpp:150] Setting up relu3_2
I1112 17:42:06.601022 21117 net.cpp:157] Top shape: 1 256 125 125 (4000000)
I1112 17:42:06.601024 21117 net.cpp:165] Memory required for data: 731000000
I1112 17:42:06.601027 21117 layer_factory.hpp:77] Creating layer conv3_3
I1112 17:42:06.601037 21117 net.cpp:100] Creating Layer conv3_3
I1112 17:42:06.601042 21117 net.cpp:434] conv3_3 <- conv3_2
I1112 17:42:06.601048 21117 net.cpp:408] conv3_3 -> conv3_3
I1112 17:42:06.604357 21117 net.cpp:150] Setting up conv3_3
I1112 17:42:06.604372 21117 net.cpp:157] Top shape: 1 256 125 125 (4000000)
I1112 17:42:06.604375 21117 net.cpp:165] Memory required for data: 747000000
I1112 17:42:06.604382 21117 layer_factory.hpp:77] Creating layer relu3_3
I1112 17:42:06.604389 21117 net.cpp:100] Creating Layer relu3_3
I1112 17:42:06.604393 21117 net.cpp:434] relu3_3 <- conv3_3
I1112 17:42:06.604399 21117 net.cpp:395] relu3_3 -> conv3_3 (in-place)
I1112 17:42:06.604584 21117 net.cpp:150] Setting up relu3_3
I1112 17:42:06.604594 21117 net.cpp:157] Top shape: 1 256 125 125 (4000000)
I1112 17:42:06.604598 21117 net.cpp:165] Memory required for data: 763000000
I1112 17:42:06.604600 21117 layer_factory.hpp:77] Creating layer conv3_3_relu3_3_0_split
I1112 17:42:06.604607 21117 net.cpp:100] Creating Layer conv3_3_relu3_3_0_split
I1112 17:42:06.604610 21117 net.cpp:434] conv3_3_relu3_3_0_split <- conv3_3
I1112 17:42:06.604617 21117 net.cpp:408] conv3_3_relu3_3_0_split -> conv3_3_relu3_3_0_split_0
I1112 17:42:06.604625 21117 net.cpp:408] conv3_3_relu3_3_0_split -> conv3_3_relu3_3_0_split_1
I1112 17:42:06.604638 21117 net.cpp:408] conv3_3_relu3_3_0_split -> conv3_3_relu3_3_0_split_2
I1112 17:42:06.604712 21117 net.cpp:150] Setting up conv3_3_relu3_3_0_split
I1112 17:42:06.604719 21117 net.cpp:157] Top shape: 1 256 125 125 (4000000)
I1112 17:42:06.604724 21117 net.cpp:157] Top shape: 1 256 125 125 (4000000)
I1112 17:42:06.604728 21117 net.cpp:157] Top shape: 1 256 125 125 (4000000)
I1112 17:42:06.604730 21117 net.cpp:165] Memory required for data: 811000000
I1112 17:42:06.604734 21117 layer_factory.hpp:77] Creating layer pool3
I1112 17:42:06.604741 21117 net.cpp:100] Creating Layer pool3
I1112 17:42:06.604745 21117 net.cpp:434] pool3 <- conv3_3_relu3_3_0_split_0
I1112 17:42:06.604751 21117 net.cpp:408] pool3 -> pool3
I1112 17:42:06.604790 21117 net.cpp:150] Setting up pool3
I1112 17:42:06.604797 21117 net.cpp:157] Top shape: 1 256 63 63 (1016064)
I1112 17:42:06.604799 21117 net.cpp:165] Memory required for data: 815064256
I1112 17:42:06.604802 21117 layer_factory.hpp:77] Creating layer conv4_1
I1112 17:42:06.604811 21117 net.cpp:100] Creating Layer conv4_1
I1112 17:42:06.604815 21117 net.cpp:434] conv4_1 <- pool3
I1112 17:42:06.604821 21117 net.cpp:408] conv4_1 -> conv4_1
I1112 17:42:06.610844 21117 net.cpp:150] Setting up conv4_1
I1112 17:42:06.610862 21117 net.cpp:157] Top shape: 1 512 63 63 (2032128)
I1112 17:42:06.610867 21117 net.cpp:165] Memory required for data: 823192768
I1112 17:42:06.610874 21117 layer_factory.hpp:77] Creating layer relu4_1
I1112 17:42:06.610882 21117 net.cpp:100] Creating Layer relu4_1
I1112 17:42:06.610886 21117 net.cpp:434] relu4_1 <- conv4_1
I1112 17:42:06.610893 21117 net.cpp:395] relu4_1 -> conv4_1 (in-place)
I1112 17:42:06.611088 21117 net.cpp:150] Setting up relu4_1
I1112 17:42:06.611097 21117 net.cpp:157] Top shape: 1 512 63 63 (2032128)
I1112 17:42:06.611101 21117 net.cpp:165] Memory required for data: 831321280
I1112 17:42:06.611104 21117 layer_factory.hpp:77] Creating layer conv4_2
I1112 17:42:06.611114 21117 net.cpp:100] Creating Layer conv4_2
I1112 17:42:06.611117 21117 net.cpp:434] conv4_2 <- conv4_1
I1112 17:42:06.611130 21117 net.cpp:408] conv4_2 -> conv4_2
I1112 17:42:06.618834 21117 net.cpp:150] Setting up conv4_2
I1112 17:42:06.618850 21117 net.cpp:157] Top shape: 1 512 63 63 (2032128)
I1112 17:42:06.618854 21117 net.cpp:165] Memory required for data: 839449792
I1112 17:42:06.618867 21117 layer_factory.hpp:77] Creating layer relu4_2
I1112 17:42:06.618875 21117 net.cpp:100] Creating Layer relu4_2
I1112 17:42:06.618880 21117 net.cpp:434] relu4_2 <- conv4_2
I1112 17:42:06.618885 21117 net.cpp:395] relu4_2 -> conv4_2 (in-place)
I1112 17:42:06.619074 21117 net.cpp:150] Setting up relu4_2
I1112 17:42:06.619084 21117 net.cpp:157] Top shape: 1 512 63 63 (2032128)
I1112 17:42:06.619087 21117 net.cpp:165] Memory required for data: 847578304
I1112 17:42:06.619091 21117 layer_factory.hpp:77] Creating layer conv4_3
I1112 17:42:06.619101 21117 net.cpp:100] Creating Layer conv4_3
I1112 17:42:06.619103 21117 net.cpp:434] conv4_3 <- conv4_2
I1112 17:42:06.619110 21117 net.cpp:408] conv4_3 -> conv4_3
I1112 17:42:06.626658 21117 net.cpp:150] Setting up conv4_3
I1112 17:42:06.626677 21117 net.cpp:157] Top shape: 1 512 63 63 (2032128)
I1112 17:42:06.626679 21117 net.cpp:165] Memory required for data: 855706816
I1112 17:42:06.626688 21117 layer_factory.hpp:77] Creating layer relu4_3
I1112 17:42:06.626694 21117 net.cpp:100] Creating Layer relu4_3
I1112 17:42:06.626698 21117 net.cpp:434] relu4_3 <- conv4_3
I1112 17:42:06.626704 21117 net.cpp:395] relu4_3 -> conv4_3 (in-place)
I1112 17:42:06.626858 21117 net.cpp:150] Setting up relu4_3
I1112 17:42:06.626866 21117 net.cpp:157] Top shape: 1 512 63 63 (2032128)
I1112 17:42:06.626869 21117 net.cpp:165] Memory required for data: 863835328
I1112 17:42:06.626873 21117 layer_factory.hpp:77] Creating layer conv4_3_relu4_3_0_split
I1112 17:42:06.626878 21117 net.cpp:100] Creating Layer conv4_3_relu4_3_0_split
I1112 17:42:06.626881 21117 net.cpp:434] conv4_3_relu4_3_0_split <- conv4_3
I1112 17:42:06.626886 21117 net.cpp:408] conv4_3_relu4_3_0_split -> conv4_3_relu4_3_0_split_0
I1112 17:42:06.626893 21117 net.cpp:408] conv4_3_relu4_3_0_split -> conv4_3_relu4_3_0_split_1
I1112 17:42:06.626897 21117 net.cpp:408] conv4_3_relu4_3_0_split -> conv4_3_relu4_3_0_split_2
I1112 17:42:06.626950 21117 net.cpp:150] Setting up conv4_3_relu4_3_0_split
I1112 17:42:06.626955 21117 net.cpp:157] Top shape: 1 512 63 63 (2032128)
I1112 17:42:06.626968 21117 net.cpp:157] Top shape: 1 512 63 63 (2032128)
I1112 17:42:06.626971 21117 net.cpp:157] Top shape: 1 512 63 63 (2032128)
I1112 17:42:06.626972 21117 net.cpp:165] Memory required for data: 888220864
I1112 17:42:06.626976 21117 layer_factory.hpp:77] Creating layer pool4
I1112 17:42:06.626981 21117 net.cpp:100] Creating Layer pool4
I1112 17:42:06.626984 21117 net.cpp:434] pool4 <- conv4_3_relu4_3_0_split_0
I1112 17:42:06.626988 21117 net.cpp:408] pool4 -> pool4
I1112 17:42:06.627019 21117 net.cpp:150] Setting up pool4
I1112 17:42:06.627025 21117 net.cpp:157] Top shape: 1 512 32 32 (524288)
I1112 17:42:06.627027 21117 net.cpp:165] Memory required for data: 890318016
I1112 17:42:06.627029 21117 layer_factory.hpp:77] Creating layer conv5_1
I1112 17:42:06.627043 21117 net.cpp:100] Creating Layer conv5_1
I1112 17:42:06.627044 21117 net.cpp:434] conv5_1 <- pool4
I1112 17:42:06.627048 21117 net.cpp:408] conv5_1 -> conv5_1
I1112 17:42:06.633242 21117 net.cpp:150] Setting up conv5_1
I1112 17:42:06.633261 21117 net.cpp:157] Top shape: 1 512 32 32 (524288)
I1112 17:42:06.633265 21117 net.cpp:165] Memory required for data: 892415168
I1112 17:42:06.633270 21117 layer_factory.hpp:77] Creating layer relu5_1
I1112 17:42:06.633276 21117 net.cpp:100] Creating Layer relu5_1
I1112 17:42:06.633280 21117 net.cpp:434] relu5_1 <- conv5_1
I1112 17:42:06.633285 21117 net.cpp:395] relu5_1 -> conv5_1 (in-place)
I1112 17:42:06.633704 21117 net.cpp:150] Setting up relu5_1
I1112 17:42:06.633715 21117 net.cpp:157] Top shape: 1 512 32 32 (524288)
I1112 17:42:06.633718 21117 net.cpp:165] Memory required for data: 894512320
I1112 17:42:06.633720 21117 layer_factory.hpp:77] Creating layer conv5_2
I1112 17:42:06.633728 21117 net.cpp:100] Creating Layer conv5_2
I1112 17:42:06.633730 21117 net.cpp:434] conv5_2 <- conv5_1
I1112 17:42:06.633736 21117 net.cpp:408] conv5_2 -> conv5_2
I1112 17:42:06.639490 21117 net.cpp:150] Setting up conv5_2
I1112 17:42:06.639504 21117 net.cpp:157] Top shape: 1 512 32 32 (524288)
I1112 17:42:06.639523 21117 net.cpp:165] Memory required for data: 896609472
I1112 17:42:06.639529 21117 layer_factory.hpp:77] Creating layer relu5_2
I1112 17:42:06.639534 21117 net.cpp:100] Creating Layer relu5_2
I1112 17:42:06.639539 21117 net.cpp:434] relu5_2 <- conv5_2
I1112 17:42:06.639544 21117 net.cpp:395] relu5_2 -> conv5_2 (in-place)
I1112 17:42:06.639979 21117 net.cpp:150] Setting up relu5_2
I1112 17:42:06.639989 21117 net.cpp:157] Top shape: 1 512 32 32 (524288)
I1112 17:42:06.640007 21117 net.cpp:165] Memory required for data: 898706624
I1112 17:42:06.640010 21117 layer_factory.hpp:77] Creating layer conv5_3
I1112 17:42:06.640018 21117 net.cpp:100] Creating Layer conv5_3
I1112 17:42:06.640022 21117 net.cpp:434] conv5_3 <- conv5_2
I1112 17:42:06.640028 21117 net.cpp:408] conv5_3 -> conv5_3
I1112 17:42:06.645931 21117 net.cpp:150] Setting up conv5_3
I1112 17:42:06.645946 21117 net.cpp:157] Top shape: 1 512 32 32 (524288)
I1112 17:42:06.645947 21117 net.cpp:165] Memory required for data: 900803776
I1112 17:42:06.645953 21117 layer_factory.hpp:77] Creating layer relu5_3
I1112 17:42:06.645959 21117 net.cpp:100] Creating Layer relu5_3
I1112 17:42:06.645963 21117 net.cpp:434] relu5_3 <- conv5_3
I1112 17:42:06.645968 21117 net.cpp:395] relu5_3 -> conv5_3 (in-place)
I1112 17:42:06.646108 21117 net.cpp:150] Setting up relu5_3
I1112 17:42:06.646116 21117 net.cpp:157] Top shape: 1 512 32 32 (524288)
I1112 17:42:06.646118 21117 net.cpp:165] Memory required for data: 902900928
I1112 17:42:06.646122 21117 layer_factory.hpp:77] Creating layer conv5_3_relu5_3_0_split
I1112 17:42:06.646133 21117 net.cpp:100] Creating Layer conv5_3_relu5_3_0_split
I1112 17:42:06.646136 21117 net.cpp:434] conv5_3_relu5_3_0_split <- conv5_3
I1112 17:42:06.646142 21117 net.cpp:408] conv5_3_relu5_3_0_split -> conv5_3_relu5_3_0_split_0
I1112 17:42:06.646148 21117 net.cpp:408] conv5_3_relu5_3_0_split -> conv5_3_relu5_3_0_split_1
I1112 17:42:06.646153 21117 net.cpp:408] conv5_3_relu5_3_0_split -> conv5_3_relu5_3_0_split_2
I1112 17:42:06.646198 21117 net.cpp:150] Setting up conv5_3_relu5_3_0_split
I1112 17:42:06.646205 21117 net.cpp:157] Top shape: 1 512 32 32 (524288)
I1112 17:42:06.646209 21117 net.cpp:157] Top shape: 1 512 32 32 (524288)
I1112 17:42:06.646211 21117 net.cpp:157] Top shape: 1 512 32 32 (524288)
I1112 17:42:06.646212 21117 net.cpp:165] Memory required for data: 909192384
I1112 17:42:06.646215 21117 layer_factory.hpp:77] Creating layer pool5
I1112 17:42:06.646221 21117 net.cpp:100] Creating Layer pool5
I1112 17:42:06.646224 21117 net.cpp:434] pool5 <- conv5_3_relu5_3_0_split_0
I1112 17:42:06.646229 21117 net.cpp:408] pool5 -> pool5
I1112 17:42:06.646261 21117 net.cpp:150] Setting up pool5
I1112 17:42:06.646267 21117 net.cpp:157] Top shape: 1 512 17 17 (147968)
I1112 17:42:06.646270 21117 net.cpp:165] Memory required for data: 909784256
I1112 17:42:06.646271 21117 layer_factory.hpp:77] Creating layer conv1-dsn6
I1112 17:42:06.646281 21117 net.cpp:100] Creating Layer conv1-dsn6
I1112 17:42:06.646283 21117 net.cpp:434] conv1-dsn6 <- pool5
I1112 17:42:06.646287 21117 net.cpp:408] conv1-dsn6 -> conv1-dsn6
I1112 17:42:06.649488 21117 net.cpp:150] Setting up conv1-dsn6
I1112 17:42:06.649500 21117 net.cpp:157] Top shape: 1 256 17 17 (73984)
I1112 17:42:06.649502 21117 net.cpp:165] Memory required for data: 910080192
I1112 17:42:06.649508 21117 layer_factory.hpp:77] Creating layer conv2-dsn6
I1112 17:42:06.649516 21117 net.cpp:100] Creating Layer conv2-dsn6
I1112 17:42:06.649519 21117 net.cpp:434] conv2-dsn6 <- conv1-dsn6
I1112 17:42:06.649525 21117 net.cpp:408] conv2-dsn6 -> conv2-dsn6
I1112 17:42:06.665632 21117 net.cpp:150] Setting up conv2-dsn6
I1112 17:42:06.665644 21117 net.cpp:157] Top shape: 1 256 17 17 (73984)
I1112 17:42:06.665647 21117 net.cpp:165] Memory required for data: 910376128
I1112 17:42:06.665652 21117 layer_factory.hpp:77] Creating layer relu1-dsn6
I1112 17:42:06.665657 21117 net.cpp:100] Creating Layer relu1-dsn6
I1112 17:42:06.665659 21117 net.cpp:434] relu1-dsn6 <- conv2-dsn6
I1112 17:42:06.665664 21117 net.cpp:395] relu1-dsn6 -> conv2-dsn6 (in-place)
I1112 17:42:06.665807 21117 net.cpp:150] Setting up relu1-dsn6
I1112 17:42:06.665813 21117 net.cpp:157] Top shape: 1 256 17 17 (73984)
I1112 17:42:06.665815 21117 net.cpp:165] Memory required for data: 910672064
I1112 17:42:06.665819 21117 layer_factory.hpp:77] Creating layer conv3-dsn6
I1112 17:42:06.665827 21117 net.cpp:100] Creating Layer conv3-dsn6
I1112 17:42:06.665829 21117 net.cpp:434] conv3-dsn6 <- conv2-dsn6
I1112 17:42:06.665835 21117 net.cpp:408] conv3-dsn6 -> conv3-dsn6
I1112 17:42:06.682719 21117 net.cpp:150] Setting up conv3-dsn6
I1112 17:42:06.682750 21117 net.cpp:157] Top shape: 1 256 17 17 (73984)
I1112 17:42:06.682754 21117 net.cpp:165] Memory required for data: 910968000
I1112 17:42:06.682760 21117 layer_factory.hpp:77] Creating layer relu2-dsn6
I1112 17:42:06.682766 21117 net.cpp:100] Creating Layer relu2-dsn6
I1112 17:42:06.682770 21117 net.cpp:434] relu2-dsn6 <- conv3-dsn6
I1112 17:42:06.682775 21117 net.cpp:395] relu2-dsn6 -> conv3-dsn6 (in-place)
I1112 17:42:06.682924 21117 net.cpp:150] Setting up relu2-dsn6
I1112 17:42:06.682932 21117 net.cpp:157] Top shape: 1 256 17 17 (73984)
I1112 17:42:06.682934 21117 net.cpp:165] Memory required for data: 911263936
I1112 17:42:06.682938 21117 layer_factory.hpp:77] Creating layer conv4-dsn6
I1112 17:42:06.682947 21117 net.cpp:100] Creating Layer conv4-dsn6
I1112 17:42:06.682950 21117 net.cpp:434] conv4-dsn6 <- conv3-dsn6
I1112 17:42:06.682955 21117 net.cpp:408] conv4-dsn6 -> conv4-dsn6
I1112 17:42:06.699054 21117 net.cpp:150] Setting up conv4-dsn6
I1112 17:42:06.699065 21117 net.cpp:157] Top shape: 1 256 17 17 (73984)
I1112 17:42:06.699084 21117 net.cpp:165] Memory required for data: 911559872
I1112 17:42:06.699097 21117 layer_factory.hpp:77] Creating layer relu3-dsn6
I1112 17:42:06.699103 21117 net.cpp:100] Creating Layer relu3-dsn6
I1112 17:42:06.699106 21117 net.cpp:434] relu3-dsn6 <- conv4-dsn6
I1112 17:42:06.699111 21117 net.cpp:395] relu3-dsn6 -> conv4-dsn6 (in-place)
I1112 17:42:06.699260 21117 net.cpp:150] Setting up relu3-dsn6
I1112 17:42:06.699270 21117 net.cpp:157] Top shape: 1 256 17 17 (73984)
I1112 17:42:06.699271 21117 net.cpp:165] Memory required for data: 911855808
I1112 17:42:06.699275 21117 layer_factory.hpp:77] Creating layer conv5-dsn6
I1112 17:42:06.699282 21117 net.cpp:100] Creating Layer conv5-dsn6
I1112 17:42:06.699285 21117 net.cpp:434] conv5-dsn6 <- conv4-dsn6
I1112 17:42:06.699290 21117 net.cpp:408] conv5-dsn6 -> conv5-dsn6
I1112 17:42:06.700191 21117 net.cpp:150] Setting up conv5-dsn6
I1112 17:42:06.700201 21117 net.cpp:157] Top shape: 1 1 17 17 (289)
I1112 17:42:06.700218 21117 net.cpp:165] Memory required for data: 911856964
I1112 17:42:06.700223 21117 layer_factory.hpp:77] Creating layer conv5-dsn6_conv5-dsn6_0_split
I1112 17:42:06.700230 21117 net.cpp:100] Creating Layer conv5-dsn6_conv5-dsn6_0_split
I1112 17:42:06.700233 21117 net.cpp:434] conv5-dsn6_conv5-dsn6_0_split <- conv5-dsn6
I1112 17:42:06.700238 21117 net.cpp:408] conv5-dsn6_conv5-dsn6_0_split -> conv5-dsn6_conv5-dsn6_0_split_0
I1112 17:42:06.700244 21117 net.cpp:408] conv5-dsn6_conv5-dsn6_0_split -> conv5-dsn6_conv5-dsn6_0_split_1
I1112 17:42:06.700280 21117 net.cpp:150] Setting up conv5-dsn6_conv5-dsn6_0_split
I1112 17:42:06.700284 21117 net.cpp:157] Top shape: 1 1 17 17 (289)
I1112 17:42:06.700287 21117 net.cpp:157] Top shape: 1 1 17 17 (289)
I1112 17:42:06.700289 21117 net.cpp:165] Memory required for data: 911859276
I1112 17:42:06.700291 21117 layer_factory.hpp:77] Creating layer upsample32_dsn6
I1112 17:42:06.700299 21117 net.cpp:100] Creating Layer upsample32_dsn6
I1112 17:42:06.700301 21117 net.cpp:434] upsample32_dsn6 <- conv5-dsn6_conv5-dsn6_0_split_0
I1112 17:42:06.700306 21117 net.cpp:408] upsample32_dsn6 -> conv5-dsn6-up
I1112 17:42:06.700843 21117 net.cpp:150] Setting up upsample32_dsn6
I1112 17:42:06.700850 21117 net.cpp:157] Top shape: 1 1 576 576 (331776)
I1112 17:42:06.700852 21117 net.cpp:165] Memory required for data: 913186380
I1112 17:42:06.700871 21117 layer_factory.hpp:77] Creating layer crop-dsn6
I1112 17:42:06.700877 21117 net.cpp:100] Creating Layer crop-dsn6
I1112 17:42:06.700879 21117 net.cpp:434] crop-dsn6 <- conv5-dsn6-up
I1112 17:42:06.700883 21117 net.cpp:434] crop-dsn6 <- data_augmentation_0_split_1
I1112 17:42:06.700888 21117 net.cpp:408] crop-dsn6 -> upscore-dsn6
I1112 17:42:06.700914 21117 net.cpp:150] Setting up crop-dsn6
I1112 17:42:06.700919 21117 net.cpp:157] Top shape: 1 1 500 500 (250000)
I1112 17:42:06.700922 21117 net.cpp:165] Memory required for data: 914186380
I1112 17:42:06.700923 21117 layer_factory.hpp:77] Creating layer loss6-score
I1112 17:42:06.700930 21117 net.cpp:100] Creating Layer loss6-score
I1112 17:42:06.700933 21117 net.cpp:434] loss6-score <- upscore-dsn6
I1112 17:42:06.700937 21117 net.cpp:434] loss6-score <- label_augmentation_1_split_0
I1112 17:42:06.700940 21117 net.cpp:408] loss6-score -> loss6-score
I1112 17:42:06.702147 21117 net.cpp:150] Setting up loss6-score
I1112 17:42:06.702157 21117 net.cpp:157] Top shape: (1)
I1112 17:42:06.702174 21117 net.cpp:160]     with loss weight 1
I1112 17:42:06.702184 21117 net.cpp:165] Memory required for data: 914186384
I1112 17:42:06.702188 21117 layer_factory.hpp:77] Creating layer upsample2_dsn5
I1112 17:42:06.702194 21117 net.cpp:100] Creating Layer upsample2_dsn5
I1112 17:42:06.702198 21117 net.cpp:434] upsample2_dsn5 <- conv5-dsn6_conv5-dsn6_0_split_1
I1112 17:42:06.702203 21117 net.cpp:408] upsample2_dsn5 -> conv5-dsn6-5
I1112 17:42:06.702410 21117 net.cpp:150] Setting up upsample2_dsn5
I1112 17:42:06.702417 21117 net.cpp:157] Top shape: 1 1 36 36 (1296)
I1112 17:42:06.702419 21117 net.cpp:165] Memory required for data: 914191568
I1112 17:42:06.702423 21117 layer_factory.hpp:77] Creating layer crop1-dsn5
I1112 17:42:06.702430 21117 net.cpp:100] Creating Layer crop1-dsn5
I1112 17:42:06.702431 21117 net.cpp:434] crop1-dsn5 <- conv5-dsn6-5
I1112 17:42:06.702435 21117 net.cpp:434] crop1-dsn5 <- conv5_3_relu5_3_0_split_1
I1112 17:42:06.702440 21117 net.cpp:408] crop1-dsn5 -> weight-dsn6-5
I1112 17:42:06.702462 21117 net.cpp:150] Setting up crop1-dsn5
I1112 17:42:06.702468 21117 net.cpp:157] Top shape: 1 1 32 32 (1024)
I1112 17:42:06.702471 21117 net.cpp:165] Memory required for data: 914195664
I1112 17:42:06.702472 21117 layer_factory.hpp:77] Creating layer weight-dsn6-5_crop1-dsn5_0_split
I1112 17:42:06.702478 21117 net.cpp:100] Creating Layer weight-dsn6-5_crop1-dsn5_0_split
I1112 17:42:06.702481 21117 net.cpp:434] weight-dsn6-5_crop1-dsn5_0_split <- weight-dsn6-5
I1112 17:42:06.702486 21117 net.cpp:408] weight-dsn6-5_crop1-dsn5_0_split -> weight-dsn6-5_crop1-dsn5_0_split_0
I1112 17:42:06.702489 21117 net.cpp:408] weight-dsn6-5_crop1-dsn5_0_split -> weight-dsn6-5_crop1-dsn5_0_split_1
I1112 17:42:06.702518 21117 net.cpp:150] Setting up weight-dsn6-5_crop1-dsn5_0_split
I1112 17:42:06.702523 21117 net.cpp:157] Top shape: 1 1 32 32 (1024)
I1112 17:42:06.702527 21117 net.cpp:157] Top shape: 1 1 32 32 (1024)
I1112 17:42:06.702527 21117 net.cpp:165] Memory required for data: 914203856
I1112 17:42:06.702530 21117 layer_factory.hpp:77] Creating layer sigmoid-dsn5
I1112 17:42:06.702535 21117 net.cpp:100] Creating Layer sigmoid-dsn5
I1112 17:42:06.702538 21117 net.cpp:434] sigmoid-dsn5 <- weight-dsn6-5_crop1-dsn5_0_split_0
I1112 17:42:06.702541 21117 net.cpp:408] sigmoid-dsn5 -> sigmoid-dsn5
I1112 17:42:06.702706 21117 net.cpp:150] Setting up sigmoid-dsn5
I1112 17:42:06.702713 21117 net.cpp:157] Top shape: 1 1 32 32 (1024)
I1112 17:42:06.702715 21117 net.cpp:165] Memory required for data: 914207952
I1112 17:42:06.702718 21117 layer_factory.hpp:77] Creating layer rev-dsn5
I1112 17:42:06.702724 21117 net.cpp:100] Creating Layer rev-dsn5
I1112 17:42:06.702728 21117 net.cpp:434] rev-dsn5 <- sigmoid-dsn5
I1112 17:42:06.702733 21117 net.cpp:408] rev-dsn5 -> rev-dsn5
I1112 17:42:06.702761 21117 net.cpp:150] Setting up rev-dsn5
I1112 17:42:06.702767 21117 net.cpp:157] Top shape: 1 1 32 32 (1024)
I1112 17:42:06.702769 21117 net.cpp:165] Memory required for data: 914212048
I1112 17:42:06.702771 21117 layer_factory.hpp:77] Creating layer tile-dsn5
I1112 17:42:06.702776 21117 net.cpp:100] Creating Layer tile-dsn5
I1112 17:42:06.702780 21117 net.cpp:434] tile-dsn5 <- rev-dsn5
I1112 17:42:06.702783 21117 net.cpp:408] tile-dsn5 -> weight-dsn5
I1112 17:42:06.702802 21117 net.cpp:150] Setting up tile-dsn5
I1112 17:42:06.702806 21117 net.cpp:157] Top shape: 1 512 32 32 (524288)
I1112 17:42:06.702808 21117 net.cpp:165] Memory required for data: 916309200
I1112 17:42:06.702811 21117 layer_factory.hpp:77] Creating layer prod1-dsn5
I1112 17:42:06.702817 21117 net.cpp:100] Creating Layer prod1-dsn5
I1112 17:42:06.702819 21117 net.cpp:434] prod1-dsn5 <- conv5_3_relu5_3_0_split_2
I1112 17:42:06.702823 21117 net.cpp:434] prod1-dsn5 <- weight-dsn5
I1112 17:42:06.702828 21117 net.cpp:408] prod1-dsn5 -> prod1-dsn5
I1112 17:42:06.702847 21117 net.cpp:150] Setting up prod1-dsn5
I1112 17:42:06.702852 21117 net.cpp:157] Top shape: 1 512 32 32 (524288)
I1112 17:42:06.702854 21117 net.cpp:165] Memory required for data: 918406352
I1112 17:42:06.702857 21117 layer_factory.hpp:77] Creating layer conv1-dsn5
I1112 17:42:06.702864 21117 net.cpp:100] Creating Layer conv1-dsn5
I1112 17:42:06.702867 21117 net.cpp:434] conv1-dsn5 <- prod1-dsn5
I1112 17:42:06.702872 21117 net.cpp:408] conv1-dsn5 -> conv1-dsn5
I1112 17:42:06.704121 21117 net.cpp:150] Setting up conv1-dsn5
I1112 17:42:06.704136 21117 net.cpp:157] Top shape: 1 64 32 32 (65536)
I1112 17:42:06.704154 21117 net.cpp:165] Memory required for data: 918668496
I1112 17:42:06.704160 21117 layer_factory.hpp:77] Creating layer conv2-dsn5
I1112 17:42:06.704169 21117 net.cpp:100] Creating Layer conv2-dsn5
I1112 17:42:06.704171 21117 net.cpp:434] conv2-dsn5 <- conv1-dsn5
I1112 17:42:06.704178 21117 net.cpp:408] conv2-dsn5 -> conv2-dsn5
I1112 17:42:06.705406 21117 net.cpp:150] Setting up conv2-dsn5
I1112 17:42:06.705416 21117 net.cpp:157] Top shape: 1 64 32 32 (65536)
I1112 17:42:06.705435 21117 net.cpp:165] Memory required for data: 918930640
I1112 17:42:06.705440 21117 layer_factory.hpp:77] Creating layer relu1-dsn5
I1112 17:42:06.705446 21117 net.cpp:100] Creating Layer relu1-dsn5
I1112 17:42:06.705448 21117 net.cpp:434] relu1-dsn5 <- conv2-dsn5
I1112 17:42:06.705453 21117 net.cpp:395] relu1-dsn5 -> conv2-dsn5 (in-place)
I1112 17:42:06.705878 21117 net.cpp:150] Setting up relu1-dsn5
I1112 17:42:06.705888 21117 net.cpp:157] Top shape: 1 64 32 32 (65536)
I1112 17:42:06.705890 21117 net.cpp:165] Memory required for data: 919192784
I1112 17:42:06.705907 21117 layer_factory.hpp:77] Creating layer conv3-dsn5
I1112 17:42:06.705917 21117 net.cpp:100] Creating Layer conv3-dsn5
I1112 17:42:06.705920 21117 net.cpp:434] conv3-dsn5 <- conv2-dsn5
I1112 17:42:06.705926 21117 net.cpp:408] conv3-dsn5 -> conv3-dsn5
I1112 17:42:06.706869 21117 net.cpp:150] Setting up conv3-dsn5
I1112 17:42:06.706878 21117 net.cpp:157] Top shape: 1 64 32 32 (65536)
I1112 17:42:06.706897 21117 net.cpp:165] Memory required for data: 919454928
I1112 17:42:06.706902 21117 layer_factory.hpp:77] Creating layer relu2-dsn5
I1112 17:42:06.706907 21117 net.cpp:100] Creating Layer relu2-dsn5
I1112 17:42:06.706908 21117 net.cpp:434] relu2-dsn5 <- conv3-dsn5
I1112 17:42:06.706913 21117 net.cpp:395] relu2-dsn5 -> conv3-dsn5 (in-place)
I1112 17:42:06.707365 21117 net.cpp:150] Setting up relu2-dsn5
I1112 17:42:06.707376 21117 net.cpp:157] Top shape: 1 64 32 32 (65536)
I1112 17:42:06.707393 21117 net.cpp:165] Memory required for data: 919717072
I1112 17:42:06.707396 21117 layer_factory.hpp:77] Creating layer conv4-dsn5
I1112 17:42:06.707412 21117 net.cpp:100] Creating Layer conv4-dsn5
I1112 17:42:06.707415 21117 net.cpp:434] conv4-dsn5 <- conv3-dsn5
I1112 17:42:06.707420 21117 net.cpp:408] conv4-dsn5 -> conv4-dsn5
I1112 17:42:06.708386 21117 net.cpp:150] Setting up conv4-dsn5
I1112 17:42:06.708397 21117 net.cpp:157] Top shape: 1 1 32 32 (1024)
I1112 17:42:06.708415 21117 net.cpp:165] Memory required for data: 919721168
I1112 17:42:06.708421 21117 layer_factory.hpp:77] Creating layer sum-dsn5
I1112 17:42:06.708427 21117 net.cpp:100] Creating Layer sum-dsn5
I1112 17:42:06.708431 21117 net.cpp:434] sum-dsn5 <- conv4-dsn5
I1112 17:42:06.708434 21117 net.cpp:434] sum-dsn5 <- weight-dsn6-5_crop1-dsn5_0_split_1
I1112 17:42:06.708439 21117 net.cpp:408] sum-dsn5 -> sum-dsn5
I1112 17:42:06.708480 21117 net.cpp:150] Setting up sum-dsn5
I1112 17:42:06.708484 21117 net.cpp:157] Top shape: 1 1 32 32 (1024)
I1112 17:42:06.708487 21117 net.cpp:165] Memory required for data: 919725264
I1112 17:42:06.708489 21117 layer_factory.hpp:77] Creating layer sum-dsn5_sum-dsn5_0_split
I1112 17:42:06.708495 21117 net.cpp:100] Creating Layer sum-dsn5_sum-dsn5_0_split
I1112 17:42:06.708498 21117 net.cpp:434] sum-dsn5_sum-dsn5_0_split <- sum-dsn5
I1112 17:42:06.708503 21117 net.cpp:408] sum-dsn5_sum-dsn5_0_split -> sum-dsn5_sum-dsn5_0_split_0
I1112 17:42:06.708508 21117 net.cpp:408] sum-dsn5_sum-dsn5_0_split -> sum-dsn5_sum-dsn5_0_split_1
I1112 17:42:06.708539 21117 net.cpp:150] Setting up sum-dsn5_sum-dsn5_0_split
I1112 17:42:06.708544 21117 net.cpp:157] Top shape: 1 1 32 32 (1024)
I1112 17:42:06.708547 21117 net.cpp:157] Top shape: 1 1 32 32 (1024)
I1112 17:42:06.708549 21117 net.cpp:165] Memory required for data: 919733456
I1112 17:42:06.708551 21117 layer_factory.hpp:77] Creating layer upsample16_dsn5
I1112 17:42:06.708557 21117 net.cpp:100] Creating Layer upsample16_dsn5
I1112 17:42:06.708560 21117 net.cpp:434] upsample16_dsn5 <- sum-dsn5_sum-dsn5_0_split_0
I1112 17:42:06.708564 21117 net.cpp:408] upsample16_dsn5 -> sum-dsn5-up
I1112 17:42:06.709916 21117 net.cpp:150] Setting up upsample16_dsn5
I1112 17:42:06.709926 21117 net.cpp:157] Top shape: 1 1 528 528 (278784)
I1112 17:42:06.709944 21117 net.cpp:165] Memory required for data: 920848592
I1112 17:42:06.709949 21117 layer_factory.hpp:77] Creating layer crop2-dsn5
I1112 17:42:06.709955 21117 net.cpp:100] Creating Layer crop2-dsn5
I1112 17:42:06.709959 21117 net.cpp:434] crop2-dsn5 <- sum-dsn5-up
I1112 17:42:06.709962 21117 net.cpp:434] crop2-dsn5 <- data_augmentation_0_split_2
I1112 17:42:06.709967 21117 net.cpp:408] crop2-dsn5 -> upscore-dsn5
I1112 17:42:06.709995 21117 net.cpp:150] Setting up crop2-dsn5
I1112 17:42:06.710000 21117 net.cpp:157] Top shape: 1 1 500 500 (250000)
I1112 17:42:06.710002 21117 net.cpp:165] Memory required for data: 921848592
I1112 17:42:06.710005 21117 layer_factory.hpp:77] Creating layer loss5-score
I1112 17:42:06.710012 21117 net.cpp:100] Creating Layer loss5-score
I1112 17:42:06.710014 21117 net.cpp:434] loss5-score <- upscore-dsn5
I1112 17:42:06.710018 21117 net.cpp:434] loss5-score <- label_augmentation_1_split_1
I1112 17:42:06.710022 21117 net.cpp:408] loss5-score -> loss5-score
I1112 17:42:06.710209 21117 net.cpp:150] Setting up loss5-score
I1112 17:42:06.710216 21117 net.cpp:157] Top shape: (1)
I1112 17:42:06.710218 21117 net.cpp:160]     with loss weight 1
I1112 17:42:06.710224 21117 net.cpp:165] Memory required for data: 921848596
I1112 17:42:06.710227 21117 layer_factory.hpp:77] Creating layer upsample2_dsn4
I1112 17:42:06.710233 21117 net.cpp:100] Creating Layer upsample2_dsn4
I1112 17:42:06.710235 21117 net.cpp:434] upsample2_dsn4 <- sum-dsn5_sum-dsn5_0_split_1
I1112 17:42:06.710242 21117 net.cpp:408] upsample2_dsn4 -> sum-dsn5-4
I1112 17:42:06.710450 21117 net.cpp:150] Setting up upsample2_dsn4
I1112 17:42:06.710456 21117 net.cpp:157] Top shape: 1 1 66 66 (4356)
I1112 17:42:06.710458 21117 net.cpp:165] Memory required for data: 921866020
I1112 17:42:06.710464 21117 layer_factory.hpp:77] Creating layer crop1-dsn4
I1112 17:42:06.710469 21117 net.cpp:100] Creating Layer crop1-dsn4
I1112 17:42:06.710472 21117 net.cpp:434] crop1-dsn4 <- sum-dsn5-4
I1112 17:42:06.710475 21117 net.cpp:434] crop1-dsn4 <- conv4_3_relu4_3_0_split_1
I1112 17:42:06.710480 21117 net.cpp:408] crop1-dsn4 -> weight-dsn5-4
I1112 17:42:06.710501 21117 net.cpp:150] Setting up crop1-dsn4
I1112 17:42:06.710505 21117 net.cpp:157] Top shape: 1 1 63 63 (3969)
I1112 17:42:06.710508 21117 net.cpp:165] Memory required for data: 921881896
I1112 17:42:06.710510 21117 layer_factory.hpp:77] Creating layer weight-dsn5-4_crop1-dsn4_0_split
I1112 17:42:06.710515 21117 net.cpp:100] Creating Layer weight-dsn5-4_crop1-dsn4_0_split
I1112 17:42:06.710518 21117 net.cpp:434] weight-dsn5-4_crop1-dsn4_0_split <- weight-dsn5-4
I1112 17:42:06.710522 21117 net.cpp:408] weight-dsn5-4_crop1-dsn4_0_split -> weight-dsn5-4_crop1-dsn4_0_split_0
I1112 17:42:06.710527 21117 net.cpp:408] weight-dsn5-4_crop1-dsn4_0_split -> weight-dsn5-4_crop1-dsn4_0_split_1
I1112 17:42:06.710557 21117 net.cpp:150] Setting up weight-dsn5-4_crop1-dsn4_0_split
I1112 17:42:06.710562 21117 net.cpp:157] Top shape: 1 1 63 63 (3969)
I1112 17:42:06.710566 21117 net.cpp:157] Top shape: 1 1 63 63 (3969)
I1112 17:42:06.710567 21117 net.cpp:165] Memory required for data: 921913648
I1112 17:42:06.710570 21117 layer_factory.hpp:77] Creating layer sigmoid-dsn4
I1112 17:42:06.710574 21117 net.cpp:100] Creating Layer sigmoid-dsn4
I1112 17:42:06.710577 21117 net.cpp:434] sigmoid-dsn4 <- weight-dsn5-4_crop1-dsn4_0_split_0
I1112 17:42:06.710580 21117 net.cpp:408] sigmoid-dsn4 -> sigmoid-dsn4
I1112 17:42:06.710745 21117 net.cpp:150] Setting up sigmoid-dsn4
I1112 17:42:06.710753 21117 net.cpp:157] Top shape: 1 1 63 63 (3969)
I1112 17:42:06.710755 21117 net.cpp:165] Memory required for data: 921929524
I1112 17:42:06.710758 21117 layer_factory.hpp:77] Creating layer rev-dsn4
I1112 17:42:06.710763 21117 net.cpp:100] Creating Layer rev-dsn4
I1112 17:42:06.710767 21117 net.cpp:434] rev-dsn4 <- sigmoid-dsn4
I1112 17:42:06.710770 21117 net.cpp:408] rev-dsn4 -> rev-dsn4
I1112 17:42:06.710793 21117 net.cpp:150] Setting up rev-dsn4
I1112 17:42:06.710796 21117 net.cpp:157] Top shape: 1 1 63 63 (3969)
I1112 17:42:06.710798 21117 net.cpp:165] Memory required for data: 921945400
I1112 17:42:06.710800 21117 layer_factory.hpp:77] Creating layer tile-dsn4
I1112 17:42:06.710805 21117 net.cpp:100] Creating Layer tile-dsn4
I1112 17:42:06.710808 21117 net.cpp:434] tile-dsn4 <- rev-dsn4
I1112 17:42:06.710813 21117 net.cpp:408] tile-dsn4 -> weight-dsn4
I1112 17:42:06.710829 21117 net.cpp:150] Setting up tile-dsn4
I1112 17:42:06.710834 21117 net.cpp:157] Top shape: 1 512 63 63 (2032128)
I1112 17:42:06.710837 21117 net.cpp:165] Memory required for data: 930073912
I1112 17:42:06.710839 21117 layer_factory.hpp:77] Creating layer prod1-dsn4
I1112 17:42:06.710844 21117 net.cpp:100] Creating Layer prod1-dsn4
I1112 17:42:06.710847 21117 net.cpp:434] prod1-dsn4 <- conv4_3_relu4_3_0_split_2
I1112 17:42:06.710850 21117 net.cpp:434] prod1-dsn4 <- weight-dsn4
I1112 17:42:06.710855 21117 net.cpp:408] prod1-dsn4 -> prod1-dsn4
I1112 17:42:06.710872 21117 net.cpp:150] Setting up prod1-dsn4
I1112 17:42:06.710877 21117 net.cpp:157] Top shape: 1 512 63 63 (2032128)
I1112 17:42:06.710880 21117 net.cpp:165] Memory required for data: 938202424
I1112 17:42:06.710881 21117 layer_factory.hpp:77] Creating layer conv1-dsn4
I1112 17:42:06.710888 21117 net.cpp:100] Creating Layer conv1-dsn4
I1112 17:42:06.710891 21117 net.cpp:434] conv1-dsn4 <- prod1-dsn4
I1112 17:42:06.710896 21117 net.cpp:408] conv1-dsn4 -> conv1-dsn4
I1112 17:42:06.712092 21117 net.cpp:150] Setting up conv1-dsn4
I1112 17:42:06.712103 21117 net.cpp:157] Top shape: 1 64 63 63 (254016)
I1112 17:42:06.712121 21117 net.cpp:165] Memory required for data: 939218488
I1112 17:42:06.712146 21117 layer_factory.hpp:77] Creating layer conv2-dsn4
I1112 17:42:06.712157 21117 net.cpp:100] Creating Layer conv2-dsn4
I1112 17:42:06.712159 21117 net.cpp:434] conv2-dsn4 <- conv1-dsn4
I1112 17:42:06.712164 21117 net.cpp:408] conv2-dsn4 -> conv2-dsn4
I1112 17:42:06.713666 21117 net.cpp:150] Setting up conv2-dsn4
I1112 17:42:06.713676 21117 net.cpp:157] Top shape: 1 64 63 63 (254016)
I1112 17:42:06.713694 21117 net.cpp:165] Memory required for data: 940234552
I1112 17:42:06.713701 21117 layer_factory.hpp:77] Creating layer relu1-dsn4
I1112 17:42:06.713706 21117 net.cpp:100] Creating Layer relu1-dsn4
I1112 17:42:06.713708 21117 net.cpp:434] relu1-dsn4 <- conv2-dsn4
I1112 17:42:06.713713 21117 net.cpp:395] relu1-dsn4 -> conv2-dsn4 (in-place)
I1112 17:42:06.713865 21117 net.cpp:150] Setting up relu1-dsn4
I1112 17:42:06.713873 21117 net.cpp:157] Top shape: 1 64 63 63 (254016)
I1112 17:42:06.713876 21117 net.cpp:165] Memory required for data: 941250616
I1112 17:42:06.713877 21117 layer_factory.hpp:77] Creating layer conv3-dsn4
I1112 17:42:06.713886 21117 net.cpp:100] Creating Layer conv3-dsn4
I1112 17:42:06.713888 21117 net.cpp:434] conv3-dsn4 <- conv2-dsn4
I1112 17:42:06.713893 21117 net.cpp:408] conv3-dsn4 -> conv3-dsn4
I1112 17:42:06.715140 21117 net.cpp:150] Setting up conv3-dsn4
I1112 17:42:06.715150 21117 net.cpp:157] Top shape: 1 64 63 63 (254016)
I1112 17:42:06.715168 21117 net.cpp:165] Memory required for data: 942266680
I1112 17:42:06.715173 21117 layer_factory.hpp:77] Creating layer relu2-dsn4
I1112 17:42:06.715178 21117 net.cpp:100] Creating Layer relu2-dsn4
I1112 17:42:06.715181 21117 net.cpp:434] relu2-dsn4 <- conv3-dsn4
I1112 17:42:06.715186 21117 net.cpp:395] relu2-dsn4 -> conv3-dsn4 (in-place)
I1112 17:42:06.715325 21117 net.cpp:150] Setting up relu2-dsn4
I1112 17:42:06.715332 21117 net.cpp:157] Top shape: 1 64 63 63 (254016)
I1112 17:42:06.715334 21117 net.cpp:165] Memory required for data: 943282744
I1112 17:42:06.715338 21117 layer_factory.hpp:77] Creating layer conv4-dsn4
I1112 17:42:06.715345 21117 net.cpp:100] Creating Layer conv4-dsn4
I1112 17:42:06.715348 21117 net.cpp:434] conv4-dsn4 <- conv3-dsn4
I1112 17:42:06.715353 21117 net.cpp:408] conv4-dsn4 -> conv4-dsn4
I1112 17:42:06.716297 21117 net.cpp:150] Setting up conv4-dsn4
I1112 17:42:06.716308 21117 net.cpp:157] Top shape: 1 1 63 63 (3969)
I1112 17:42:06.716325 21117 net.cpp:165] Memory required for data: 943298620
I1112 17:42:06.716331 21117 layer_factory.hpp:77] Creating layer sum-dsn4
I1112 17:42:06.716337 21117 net.cpp:100] Creating Layer sum-dsn4
I1112 17:42:06.716341 21117 net.cpp:434] sum-dsn4 <- conv4-dsn4
I1112 17:42:06.716344 21117 net.cpp:434] sum-dsn4 <- weight-dsn5-4_crop1-dsn4_0_split_1
I1112 17:42:06.716348 21117 net.cpp:408] sum-dsn4 -> sum-dsn4
I1112 17:42:06.716375 21117 net.cpp:150] Setting up sum-dsn4
I1112 17:42:06.716379 21117 net.cpp:157] Top shape: 1 1 63 63 (3969)
I1112 17:42:06.716382 21117 net.cpp:165] Memory required for data: 943314496
I1112 17:42:06.716384 21117 layer_factory.hpp:77] Creating layer sum-dsn4_sum-dsn4_0_split
I1112 17:42:06.716389 21117 net.cpp:100] Creating Layer sum-dsn4_sum-dsn4_0_split
I1112 17:42:06.716392 21117 net.cpp:434] sum-dsn4_sum-dsn4_0_split <- sum-dsn4
I1112 17:42:06.716398 21117 net.cpp:408] sum-dsn4_sum-dsn4_0_split -> sum-dsn4_sum-dsn4_0_split_0
I1112 17:42:06.716403 21117 net.cpp:408] sum-dsn4_sum-dsn4_0_split -> sum-dsn4_sum-dsn4_0_split_1
I1112 17:42:06.716435 21117 net.cpp:150] Setting up sum-dsn4_sum-dsn4_0_split
I1112 17:42:06.716440 21117 net.cpp:157] Top shape: 1 1 63 63 (3969)
I1112 17:42:06.716444 21117 net.cpp:157] Top shape: 1 1 63 63 (3969)
I1112 17:42:06.716460 21117 net.cpp:165] Memory required for data: 943346248
I1112 17:42:06.716462 21117 layer_factory.hpp:77] Creating layer upsample8_dsn4
I1112 17:42:06.716468 21117 net.cpp:100] Creating Layer upsample8_dsn4
I1112 17:42:06.716471 21117 net.cpp:434] upsample8_dsn4 <- sum-dsn4_sum-dsn4_0_split_0
I1112 17:42:06.716476 21117 net.cpp:408] upsample8_dsn4 -> sum-dsn4-up
I1112 17:42:06.717865 21117 net.cpp:150] Setting up upsample8_dsn4
I1112 17:42:06.717875 21117 net.cpp:157] Top shape: 1 1 512 512 (262144)
I1112 17:42:06.717893 21117 net.cpp:165] Memory required for data: 944394824
I1112 17:42:06.717898 21117 layer_factory.hpp:77] Creating layer crop2-dsn4
I1112 17:42:06.717905 21117 net.cpp:100] Creating Layer crop2-dsn4
I1112 17:42:06.717907 21117 net.cpp:434] crop2-dsn4 <- sum-dsn4-up
I1112 17:42:06.717911 21117 net.cpp:434] crop2-dsn4 <- data_augmentation_0_split_3
I1112 17:42:06.717916 21117 net.cpp:408] crop2-dsn4 -> upscore-dsn4
I1112 17:42:06.717947 21117 net.cpp:150] Setting up crop2-dsn4
I1112 17:42:06.717950 21117 net.cpp:157] Top shape: 1 1 500 500 (250000)
I1112 17:42:06.717953 21117 net.cpp:165] Memory required for data: 945394824
I1112 17:42:06.717955 21117 layer_factory.hpp:77] Creating layer loss4-score
I1112 17:42:06.717962 21117 net.cpp:100] Creating Layer loss4-score
I1112 17:42:06.717964 21117 net.cpp:434] loss4-score <- upscore-dsn4
I1112 17:42:06.717967 21117 net.cpp:434] loss4-score <- label_augmentation_1_split_2
I1112 17:42:06.717973 21117 net.cpp:408] loss4-score -> loss4-score
I1112 17:42:06.718154 21117 net.cpp:150] Setting up loss4-score
I1112 17:42:06.718160 21117 net.cpp:157] Top shape: (1)
I1112 17:42:06.718163 21117 net.cpp:160]     with loss weight 1
I1112 17:42:06.718168 21117 net.cpp:165] Memory required for data: 945394828
I1112 17:42:06.718170 21117 layer_factory.hpp:77] Creating layer upsample2_dsn3
I1112 17:42:06.718176 21117 net.cpp:100] Creating Layer upsample2_dsn3
I1112 17:42:06.718179 21117 net.cpp:434] upsample2_dsn3 <- sum-dsn4_sum-dsn4_0_split_1
I1112 17:42:06.718185 21117 net.cpp:408] upsample2_dsn3 -> sum-dsn4-3
I1112 17:42:06.718412 21117 net.cpp:150] Setting up upsample2_dsn3
I1112 17:42:06.718418 21117 net.cpp:157] Top shape: 1 1 128 128 (16384)
I1112 17:42:06.718420 21117 net.cpp:165] Memory required for data: 945460364
I1112 17:42:06.718426 21117 layer_factory.hpp:77] Creating layer crop1-dsn3
I1112 17:42:06.718431 21117 net.cpp:100] Creating Layer crop1-dsn3
I1112 17:42:06.718433 21117 net.cpp:434] crop1-dsn3 <- sum-dsn4-3
I1112 17:42:06.718436 21117 net.cpp:434] crop1-dsn3 <- conv3_3_relu3_3_0_split_1
I1112 17:42:06.718441 21117 net.cpp:408] crop1-dsn3 -> weight-dsn4-3
I1112 17:42:06.718466 21117 net.cpp:150] Setting up crop1-dsn3
I1112 17:42:06.718472 21117 net.cpp:157] Top shape: 1 1 125 125 (15625)
I1112 17:42:06.718473 21117 net.cpp:165] Memory required for data: 945522864
I1112 17:42:06.718477 21117 layer_factory.hpp:77] Creating layer weight-dsn4-3_crop1-dsn3_0_split
I1112 17:42:06.718482 21117 net.cpp:100] Creating Layer weight-dsn4-3_crop1-dsn3_0_split
I1112 17:42:06.718484 21117 net.cpp:434] weight-dsn4-3_crop1-dsn3_0_split <- weight-dsn4-3
I1112 17:42:06.718488 21117 net.cpp:408] weight-dsn4-3_crop1-dsn3_0_split -> weight-dsn4-3_crop1-dsn3_0_split_0
I1112 17:42:06.718493 21117 net.cpp:408] weight-dsn4-3_crop1-dsn3_0_split -> weight-dsn4-3_crop1-dsn3_0_split_1
I1112 17:42:06.718524 21117 net.cpp:150] Setting up weight-dsn4-3_crop1-dsn3_0_split
I1112 17:42:06.718529 21117 net.cpp:157] Top shape: 1 1 125 125 (15625)
I1112 17:42:06.718533 21117 net.cpp:157] Top shape: 1 1 125 125 (15625)
I1112 17:42:06.718534 21117 net.cpp:165] Memory required for data: 945647864
I1112 17:42:06.718536 21117 layer_factory.hpp:77] Creating layer sigmoid-dsn3
I1112 17:42:06.718540 21117 net.cpp:100] Creating Layer sigmoid-dsn3
I1112 17:42:06.718544 21117 net.cpp:434] sigmoid-dsn3 <- weight-dsn4-3_crop1-dsn3_0_split_0
I1112 17:42:06.718549 21117 net.cpp:408] sigmoid-dsn3 -> sigmoid-dsn3
I1112 17:42:06.718715 21117 net.cpp:150] Setting up sigmoid-dsn3
I1112 17:42:06.718722 21117 net.cpp:157] Top shape: 1 1 125 125 (15625)
I1112 17:42:06.718724 21117 net.cpp:165] Memory required for data: 945710364
I1112 17:42:06.718727 21117 layer_factory.hpp:77] Creating layer rev-dsn3
I1112 17:42:06.718732 21117 net.cpp:100] Creating Layer rev-dsn3
I1112 17:42:06.718735 21117 net.cpp:434] rev-dsn3 <- sigmoid-dsn3
I1112 17:42:06.718739 21117 net.cpp:408] rev-dsn3 -> rev-dsn3
I1112 17:42:06.718760 21117 net.cpp:150] Setting up rev-dsn3
I1112 17:42:06.718767 21117 net.cpp:157] Top shape: 1 1 125 125 (15625)
I1112 17:42:06.718770 21117 net.cpp:165] Memory required for data: 945772864
I1112 17:42:06.718771 21117 layer_factory.hpp:77] Creating layer tile-dsn3
I1112 17:42:06.718776 21117 net.cpp:100] Creating Layer tile-dsn3
I1112 17:42:06.718778 21117 net.cpp:434] tile-dsn3 <- rev-dsn3
I1112 17:42:06.718783 21117 net.cpp:408] tile-dsn3 -> weight-dsn3
I1112 17:42:06.718803 21117 net.cpp:150] Setting up tile-dsn3
I1112 17:42:06.718808 21117 net.cpp:157] Top shape: 1 256 125 125 (4000000)
I1112 17:42:06.718811 21117 net.cpp:165] Memory required for data: 961772864
I1112 17:42:06.718812 21117 layer_factory.hpp:77] Creating layer prod1-dsn3
I1112 17:42:06.718816 21117 net.cpp:100] Creating Layer prod1-dsn3
I1112 17:42:06.718819 21117 net.cpp:434] prod1-dsn3 <- conv3_3_relu3_3_0_split_2
I1112 17:42:06.718823 21117 net.cpp:434] prod1-dsn3 <- weight-dsn3
I1112 17:42:06.718827 21117 net.cpp:408] prod1-dsn3 -> prod1-dsn3
I1112 17:42:06.718847 21117 net.cpp:150] Setting up prod1-dsn3
I1112 17:42:06.718850 21117 net.cpp:157] Top shape: 1 256 125 125 (4000000)
I1112 17:42:06.718852 21117 net.cpp:165] Memory required for data: 977772864
I1112 17:42:06.718854 21117 layer_factory.hpp:77] Creating layer conv1-dsn3
I1112 17:42:06.718863 21117 net.cpp:100] Creating Layer conv1-dsn3
I1112 17:42:06.718865 21117 net.cpp:434] conv1-dsn3 <- prod1-dsn3
I1112 17:42:06.718870 21117 net.cpp:408] conv1-dsn3 -> conv1-dsn3
I1112 17:42:06.720207 21117 net.cpp:150] Setting up conv1-dsn3
I1112 17:42:06.720219 21117 net.cpp:157] Top shape: 1 64 125 125 (1000000)
I1112 17:42:06.720221 21117 net.cpp:165] Memory required for data: 981772864
I1112 17:42:06.720250 21117 layer_factory.hpp:77] Creating layer conv2-dsn3
I1112 17:42:06.720259 21117 net.cpp:100] Creating Layer conv2-dsn3
I1112 17:42:06.720263 21117 net.cpp:434] conv2-dsn3 <- conv1-dsn3
I1112 17:42:06.720268 21117 net.cpp:408] conv2-dsn3 -> conv2-dsn3
I1112 17:42:06.721586 21117 net.cpp:150] Setting up conv2-dsn3
I1112 17:42:06.721596 21117 net.cpp:157] Top shape: 1 64 125 125 (1000000)
I1112 17:42:06.721613 21117 net.cpp:165] Memory required for data: 985772864
I1112 17:42:06.721618 21117 layer_factory.hpp:77] Creating layer relu1-dsn3
I1112 17:42:06.721623 21117 net.cpp:100] Creating Layer relu1-dsn3
I1112 17:42:06.721626 21117 net.cpp:434] relu1-dsn3 <- conv2-dsn3
I1112 17:42:06.721632 21117 net.cpp:395] relu1-dsn3 -> conv2-dsn3 (in-place)
I1112 17:42:06.721783 21117 net.cpp:150] Setting up relu1-dsn3
I1112 17:42:06.721791 21117 net.cpp:157] Top shape: 1 64 125 125 (1000000)
I1112 17:42:06.721792 21117 net.cpp:165] Memory required for data: 989772864
I1112 17:42:06.721796 21117 layer_factory.hpp:77] Creating layer conv3-dsn3
I1112 17:42:06.721803 21117 net.cpp:100] Creating Layer conv3-dsn3
I1112 17:42:06.721807 21117 net.cpp:434] conv3-dsn3 <- conv2-dsn3
I1112 17:42:06.721812 21117 net.cpp:408] conv3-dsn3 -> conv3-dsn3
I1112 17:42:06.723156 21117 net.cpp:150] Setting up conv3-dsn3
I1112 17:42:06.723167 21117 net.cpp:157] Top shape: 1 64 125 125 (1000000)
I1112 17:42:06.723184 21117 net.cpp:165] Memory required for data: 993772864
I1112 17:42:06.723189 21117 layer_factory.hpp:77] Creating layer relu2-dsn3
I1112 17:42:06.723194 21117 net.cpp:100] Creating Layer relu2-dsn3
I1112 17:42:06.723196 21117 net.cpp:434] relu2-dsn3 <- conv3-dsn3
I1112 17:42:06.723202 21117 net.cpp:395] relu2-dsn3 -> conv3-dsn3 (in-place)
I1112 17:42:06.723636 21117 net.cpp:150] Setting up relu2-dsn3
I1112 17:42:06.723646 21117 net.cpp:157] Top shape: 1 64 125 125 (1000000)
I1112 17:42:06.723664 21117 net.cpp:165] Memory required for data: 997772864
I1112 17:42:06.723667 21117 layer_factory.hpp:77] Creating layer conv4-dsn3
I1112 17:42:06.723676 21117 net.cpp:100] Creating Layer conv4-dsn3
I1112 17:42:06.723678 21117 net.cpp:434] conv4-dsn3 <- conv3-dsn3
I1112 17:42:06.723683 21117 net.cpp:408] conv4-dsn3 -> conv4-dsn3
I1112 17:42:06.724671 21117 net.cpp:150] Setting up conv4-dsn3
I1112 17:42:06.724681 21117 net.cpp:157] Top shape: 1 1 125 125 (15625)
I1112 17:42:06.724699 21117 net.cpp:165] Memory required for data: 997835364
I1112 17:42:06.724704 21117 layer_factory.hpp:77] Creating layer sum-dsn3
I1112 17:42:06.724709 21117 net.cpp:100] Creating Layer sum-dsn3
I1112 17:42:06.724712 21117 net.cpp:434] sum-dsn3 <- conv4-dsn3
I1112 17:42:06.724717 21117 net.cpp:434] sum-dsn3 <- weight-dsn4-3_crop1-dsn3_0_split_1
I1112 17:42:06.724721 21117 net.cpp:408] sum-dsn3 -> sum-dsn3
I1112 17:42:06.724753 21117 net.cpp:150] Setting up sum-dsn3
I1112 17:42:06.724758 21117 net.cpp:157] Top shape: 1 1 125 125 (15625)
I1112 17:42:06.724761 21117 net.cpp:165] Memory required for data: 997897864
I1112 17:42:06.724762 21117 layer_factory.hpp:77] Creating layer sum-dsn3_sum-dsn3_0_split
I1112 17:42:06.724767 21117 net.cpp:100] Creating Layer sum-dsn3_sum-dsn3_0_split
I1112 17:42:06.724769 21117 net.cpp:434] sum-dsn3_sum-dsn3_0_split <- sum-dsn3
I1112 17:42:06.724774 21117 net.cpp:408] sum-dsn3_sum-dsn3_0_split -> sum-dsn3_sum-dsn3_0_split_0
I1112 17:42:06.724781 21117 net.cpp:408] sum-dsn3_sum-dsn3_0_split -> sum-dsn3_sum-dsn3_0_split_1
I1112 17:42:06.724817 21117 net.cpp:150] Setting up sum-dsn3_sum-dsn3_0_split
I1112 17:42:06.724822 21117 net.cpp:157] Top shape: 1 1 125 125 (15625)
I1112 17:42:06.724824 21117 net.cpp:157] Top shape: 1 1 125 125 (15625)
I1112 17:42:06.724826 21117 net.cpp:165] Memory required for data: 998022864
I1112 17:42:06.724829 21117 layer_factory.hpp:77] Creating layer upsample4_dsn3
I1112 17:42:06.724835 21117 net.cpp:100] Creating Layer upsample4_dsn3
I1112 17:42:06.724838 21117 net.cpp:434] upsample4_dsn3 <- sum-dsn3_sum-dsn3_0_split_0
I1112 17:42:06.724841 21117 net.cpp:408] upsample4_dsn3 -> sum-dsn3-up
I1112 17:42:06.726486 21117 net.cpp:150] Setting up upsample4_dsn3
I1112 17:42:06.726496 21117 net.cpp:157] Top shape: 1 1 504 504 (254016)
I1112 17:42:06.726498 21117 net.cpp:165] Memory required for data: 999038928
I1112 17:42:06.726505 21117 layer_factory.hpp:77] Creating layer crop2-dsn3
I1112 17:42:06.726510 21117 net.cpp:100] Creating Layer crop2-dsn3
I1112 17:42:06.726512 21117 net.cpp:434] crop2-dsn3 <- sum-dsn3-up
I1112 17:42:06.726516 21117 net.cpp:434] crop2-dsn3 <- data_augmentation_0_split_4
I1112 17:42:06.726522 21117 net.cpp:408] crop2-dsn3 -> upscore-dsn3
I1112 17:42:06.726552 21117 net.cpp:150] Setting up crop2-dsn3
I1112 17:42:06.726557 21117 net.cpp:157] Top shape: 1 1 500 500 (250000)
I1112 17:42:06.726558 21117 net.cpp:165] Memory required for data: 1000038928
I1112 17:42:06.726560 21117 layer_factory.hpp:77] Creating layer loss3-score
I1112 17:42:06.726569 21117 net.cpp:100] Creating Layer loss3-score
I1112 17:42:06.726572 21117 net.cpp:434] loss3-score <- upscore-dsn3
I1112 17:42:06.726575 21117 net.cpp:434] loss3-score <- label_augmentation_1_split_3
I1112 17:42:06.726579 21117 net.cpp:408] loss3-score -> loss3-score
I1112 17:42:06.726929 21117 net.cpp:150] Setting up loss3-score
I1112 17:42:06.726934 21117 net.cpp:157] Top shape: (1)
I1112 17:42:06.726935 21117 net.cpp:160]     with loss weight 1
I1112 17:42:06.726955 21117 net.cpp:165] Memory required for data: 1000038932
I1112 17:42:06.726958 21117 layer_factory.hpp:77] Creating layer upsample2_1-dsn2
I1112 17:42:06.726966 21117 net.cpp:100] Creating Layer upsample2_1-dsn2
I1112 17:42:06.726969 21117 net.cpp:434] upsample2_1-dsn2 <- sum-dsn3_sum-dsn3_0_split_1
I1112 17:42:06.726974 21117 net.cpp:408] upsample2_1-dsn2 -> sum-dsn3-2
I1112 17:42:06.727290 21117 net.cpp:150] Setting up upsample2_1-dsn2
I1112 17:42:06.727313 21117 net.cpp:157] Top shape: 1 1 252 252 (63504)
I1112 17:42:06.727315 21117 net.cpp:165] Memory required for data: 1000292948
I1112 17:42:06.727334 21117 layer_factory.hpp:77] Creating layer crop1-dsn2
I1112 17:42:06.727339 21117 net.cpp:100] Creating Layer crop1-dsn2
I1112 17:42:06.727341 21117 net.cpp:434] crop1-dsn2 <- sum-dsn3-2
I1112 17:42:06.727344 21117 net.cpp:434] crop1-dsn2 <- conv2_2_relu2_2_0_split_1
I1112 17:42:06.727349 21117 net.cpp:408] crop1-dsn2 -> weight-dsn3-2
I1112 17:42:06.727375 21117 net.cpp:150] Setting up crop1-dsn2
I1112 17:42:06.727378 21117 net.cpp:157] Top shape: 1 1 250 250 (62500)
I1112 17:42:06.727380 21117 net.cpp:165] Memory required for data: 1000542948
I1112 17:42:06.727396 21117 layer_factory.hpp:77] Creating layer weight-dsn3-2_crop1-dsn2_0_split
I1112 17:42:06.727402 21117 net.cpp:100] Creating Layer weight-dsn3-2_crop1-dsn2_0_split
I1112 17:42:06.727404 21117 net.cpp:434] weight-dsn3-2_crop1-dsn2_0_split <- weight-dsn3-2
I1112 17:42:06.727408 21117 net.cpp:408] weight-dsn3-2_crop1-dsn2_0_split -> weight-dsn3-2_crop1-dsn2_0_split_0
I1112 17:42:06.727412 21117 net.cpp:408] weight-dsn3-2_crop1-dsn2_0_split -> weight-dsn3-2_crop1-dsn2_0_split_1
I1112 17:42:06.727444 21117 net.cpp:150] Setting up weight-dsn3-2_crop1-dsn2_0_split
I1112 17:42:06.727449 21117 net.cpp:157] Top shape: 1 1 250 250 (62500)
I1112 17:42:06.727452 21117 net.cpp:157] Top shape: 1 1 250 250 (62500)
I1112 17:42:06.727453 21117 net.cpp:165] Memory required for data: 1001042948
I1112 17:42:06.727455 21117 layer_factory.hpp:77] Creating layer sigmoid-dsn2
I1112 17:42:06.727459 21117 net.cpp:100] Creating Layer sigmoid-dsn2
I1112 17:42:06.727461 21117 net.cpp:434] sigmoid-dsn2 <- weight-dsn3-2_crop1-dsn2_0_split_0
I1112 17:42:06.727466 21117 net.cpp:408] sigmoid-dsn2 -> sigmoid-dsn2
I1112 17:42:06.727979 21117 net.cpp:150] Setting up sigmoid-dsn2
I1112 17:42:06.727989 21117 net.cpp:157] Top shape: 1 1 250 250 (62500)
I1112 17:42:06.728003 21117 net.cpp:165] Memory required for data: 1001292948
I1112 17:42:06.728005 21117 layer_factory.hpp:77] Creating layer rev-dsn2
I1112 17:42:06.728009 21117 net.cpp:100] Creating Layer rev-dsn2
I1112 17:42:06.728013 21117 net.cpp:434] rev-dsn2 <- sigmoid-dsn2
I1112 17:42:06.728016 21117 net.cpp:408] rev-dsn2 -> rev-dsn2
I1112 17:42:06.728040 21117 net.cpp:150] Setting up rev-dsn2
I1112 17:42:06.728044 21117 net.cpp:157] Top shape: 1 1 250 250 (62500)
I1112 17:42:06.728046 21117 net.cpp:165] Memory required for data: 1001542948
I1112 17:42:06.728049 21117 layer_factory.hpp:77] Creating layer tile-dsn2
I1112 17:42:06.728052 21117 net.cpp:100] Creating Layer tile-dsn2
I1112 17:42:06.728055 21117 net.cpp:434] tile-dsn2 <- rev-dsn2
I1112 17:42:06.728058 21117 net.cpp:408] tile-dsn2 -> weight-dsn2
I1112 17:42:06.728077 21117 net.cpp:150] Setting up tile-dsn2
I1112 17:42:06.728082 21117 net.cpp:157] Top shape: 1 128 250 250 (8000000)
I1112 17:42:06.728085 21117 net.cpp:165] Memory required for data: 1033542948
I1112 17:42:06.728087 21117 layer_factory.hpp:77] Creating layer prod1-dsn2
I1112 17:42:06.728091 21117 net.cpp:100] Creating Layer prod1-dsn2
I1112 17:42:06.728093 21117 net.cpp:434] prod1-dsn2 <- conv2_2_relu2_2_0_split_2
I1112 17:42:06.728097 21117 net.cpp:434] prod1-dsn2 <- weight-dsn2
I1112 17:42:06.728101 21117 net.cpp:408] prod1-dsn2 -> prod1-dsn2
I1112 17:42:06.728121 21117 net.cpp:150] Setting up prod1-dsn2
I1112 17:42:06.728123 21117 net.cpp:157] Top shape: 1 128 250 250 (8000000)
I1112 17:42:06.728132 21117 net.cpp:165] Memory required for data: 1065542948
I1112 17:42:06.728133 21117 layer_factory.hpp:77] Creating layer conv1-dsn2
I1112 17:42:06.728140 21117 net.cpp:100] Creating Layer conv1-dsn2
I1112 17:42:06.728142 21117 net.cpp:434] conv1-dsn2 <- prod1-dsn2
I1112 17:42:06.728147 21117 net.cpp:408] conv1-dsn2 -> conv1-dsn2
I1112 17:42:06.730279 21117 net.cpp:150] Setting up conv1-dsn2
I1112 17:42:06.730291 21117 net.cpp:157] Top shape: 1 64 250 250 (4000000)
I1112 17:42:06.730304 21117 net.cpp:165] Memory required for data: 1081542948
I1112 17:42:06.730310 21117 layer_factory.hpp:77] Creating layer conv2-dsn2
I1112 17:42:06.730321 21117 net.cpp:100] Creating Layer conv2-dsn2
I1112 17:42:06.730324 21117 net.cpp:434] conv2-dsn2 <- conv1-dsn2
I1112 17:42:06.730329 21117 net.cpp:408] conv2-dsn2 -> conv2-dsn2
I1112 17:42:06.731962 21117 net.cpp:150] Setting up conv2-dsn2
I1112 17:42:06.731992 21117 net.cpp:157] Top shape: 1 64 250 250 (4000000)
I1112 17:42:06.731994 21117 net.cpp:165] Memory required for data: 1097542948
I1112 17:42:06.731999 21117 layer_factory.hpp:77] Creating layer relu1-dsn2
I1112 17:42:06.732004 21117 net.cpp:100] Creating Layer relu1-dsn2
I1112 17:42:06.732007 21117 net.cpp:434] relu1-dsn2 <- conv2-dsn2
I1112 17:42:06.732013 21117 net.cpp:395] relu1-dsn2 -> conv2-dsn2 (in-place)
I1112 17:42:06.732447 21117 net.cpp:150] Setting up relu1-dsn2
I1112 17:42:06.732460 21117 net.cpp:157] Top shape: 1 64 250 250 (4000000)
I1112 17:42:06.732476 21117 net.cpp:165] Memory required for data: 1113542948
I1112 17:42:06.732479 21117 layer_factory.hpp:77] Creating layer conv3-dsn2
I1112 17:42:06.732488 21117 net.cpp:100] Creating Layer conv3-dsn2
I1112 17:42:06.732491 21117 net.cpp:434] conv3-dsn2 <- conv2-dsn2
I1112 17:42:06.732496 21117 net.cpp:408] conv3-dsn2 -> conv3-dsn2
I1112 17:42:06.733810 21117 net.cpp:150] Setting up conv3-dsn2
I1112 17:42:06.733837 21117 net.cpp:157] Top shape: 1 64 250 250 (4000000)
I1112 17:42:06.733840 21117 net.cpp:165] Memory required for data: 1129542948
I1112 17:42:06.733844 21117 layer_factory.hpp:77] Creating layer relu2-dsn2
I1112 17:42:06.733850 21117 net.cpp:100] Creating Layer relu2-dsn2
I1112 17:42:06.733851 21117 net.cpp:434] relu2-dsn2 <- conv3-dsn2
I1112 17:42:06.733856 21117 net.cpp:395] relu2-dsn2 -> conv3-dsn2 (in-place)
I1112 17:42:06.734007 21117 net.cpp:150] Setting up relu2-dsn2
I1112 17:42:06.734014 21117 net.cpp:157] Top shape: 1 64 250 250 (4000000)
I1112 17:42:06.734016 21117 net.cpp:165] Memory required for data: 1145542948
I1112 17:42:06.734019 21117 layer_factory.hpp:77] Creating layer conv4-dsn2
I1112 17:42:06.734030 21117 net.cpp:100] Creating Layer conv4-dsn2
I1112 17:42:06.734032 21117 net.cpp:434] conv4-dsn2 <- conv3-dsn2
I1112 17:42:06.734036 21117 net.cpp:408] conv4-dsn2 -> conv4-dsn2
I1112 17:42:06.735076 21117 net.cpp:150] Setting up conv4-dsn2
I1112 17:42:06.735105 21117 net.cpp:157] Top shape: 1 1 250 250 (62500)
I1112 17:42:06.735106 21117 net.cpp:165] Memory required for data: 1145792948
I1112 17:42:06.735111 21117 layer_factory.hpp:77] Creating layer sum-dsn2
I1112 17:42:06.735118 21117 net.cpp:100] Creating Layer sum-dsn2
I1112 17:42:06.735121 21117 net.cpp:434] sum-dsn2 <- conv4-dsn2
I1112 17:42:06.735131 21117 net.cpp:434] sum-dsn2 <- weight-dsn3-2_crop1-dsn2_0_split_1
I1112 17:42:06.735149 21117 net.cpp:408] sum-dsn2 -> sum-dsn2
I1112 17:42:06.735180 21117 net.cpp:150] Setting up sum-dsn2
I1112 17:42:06.735184 21117 net.cpp:157] Top shape: 1 1 250 250 (62500)
I1112 17:42:06.735186 21117 net.cpp:165] Memory required for data: 1146042948
I1112 17:42:06.735188 21117 layer_factory.hpp:77] Creating layer upsample2_2-dsn2
I1112 17:42:06.735195 21117 net.cpp:100] Creating Layer upsample2_2-dsn2
I1112 17:42:06.735198 21117 net.cpp:434] upsample2_2-dsn2 <- sum-dsn2
I1112 17:42:06.735203 21117 net.cpp:408] upsample2_2-dsn2 -> sum-dsn2-up
I1112 17:42:06.736665 21117 net.cpp:150] Setting up upsample2_2-dsn2
I1112 17:42:06.736676 21117 net.cpp:157] Top shape: 1 1 502 502 (252004)
I1112 17:42:06.736693 21117 net.cpp:165] Memory required for data: 1147050964
I1112 17:42:06.736699 21117 layer_factory.hpp:77] Creating layer crop2-dsn2
I1112 17:42:06.736706 21117 net.cpp:100] Creating Layer crop2-dsn2
I1112 17:42:06.736709 21117 net.cpp:434] crop2-dsn2 <- sum-dsn2-up
I1112 17:42:06.736713 21117 net.cpp:434] crop2-dsn2 <- data_augmentation_0_split_5
I1112 17:42:06.736717 21117 net.cpp:408] crop2-dsn2 -> upscore-dsn2
I1112 17:42:06.736748 21117 net.cpp:150] Setting up crop2-dsn2
I1112 17:42:06.736752 21117 net.cpp:157] Top shape: 1 1 500 500 (250000)
I1112 17:42:06.736754 21117 net.cpp:165] Memory required for data: 1148050964
I1112 17:42:06.736757 21117 layer_factory.hpp:77] Creating layer upscore-dsn2_crop2-dsn2_0_split
I1112 17:42:06.736763 21117 net.cpp:100] Creating Layer upscore-dsn2_crop2-dsn2_0_split
I1112 17:42:06.736766 21117 net.cpp:434] upscore-dsn2_crop2-dsn2_0_split <- upscore-dsn2
I1112 17:42:06.736770 21117 net.cpp:408] upscore-dsn2_crop2-dsn2_0_split -> upscore-dsn2_crop2-dsn2_0_split_0
I1112 17:42:06.736797 21117 net.cpp:408] upscore-dsn2_crop2-dsn2_0_split -> upscore-dsn2_crop2-dsn2_0_split_1
I1112 17:42:06.736804 21117 net.cpp:408] upscore-dsn2_crop2-dsn2_0_split -> upscore-dsn2_crop2-dsn2_0_split_2
I1112 17:42:06.736848 21117 net.cpp:150] Setting up upscore-dsn2_crop2-dsn2_0_split
I1112 17:42:06.736855 21117 net.cpp:157] Top shape: 1 1 500 500 (250000)
I1112 17:42:06.736856 21117 net.cpp:157] Top shape: 1 1 500 500 (250000)
I1112 17:42:06.736860 21117 net.cpp:157] Top shape: 1 1 500 500 (250000)
I1112 17:42:06.736861 21117 net.cpp:165] Memory required for data: 1151050964
I1112 17:42:06.736863 21117 layer_factory.hpp:77] Creating layer loss2-score
I1112 17:42:06.736869 21117 net.cpp:100] Creating Layer loss2-score
I1112 17:42:06.736871 21117 net.cpp:434] loss2-score <- upscore-dsn2_crop2-dsn2_0_split_0
I1112 17:42:06.736876 21117 net.cpp:434] loss2-score <- label_augmentation_1_split_4
I1112 17:42:06.736879 21117 net.cpp:408] loss2-score -> loss2-score
I1112 17:42:06.737059 21117 net.cpp:150] Setting up loss2-score
I1112 17:42:06.737066 21117 net.cpp:157] Top shape: (1)
I1112 17:42:06.737067 21117 net.cpp:160]     with loss weight 1
I1112 17:42:06.737076 21117 net.cpp:165] Memory required for data: 1151050968
I1112 17:42:06.737078 21117 layer_factory.hpp:77] Creating layer sigmoid-dsn1
I1112 17:42:06.737085 21117 net.cpp:100] Creating Layer sigmoid-dsn1
I1112 17:42:06.737088 21117 net.cpp:434] sigmoid-dsn1 <- upscore-dsn2_crop2-dsn2_0_split_1
I1112 17:42:06.737093 21117 net.cpp:408] sigmoid-dsn1 -> sigmoid-dsn1
I1112 17:42:06.737284 21117 net.cpp:150] Setting up sigmoid-dsn1
I1112 17:42:06.737294 21117 net.cpp:157] Top shape: 1 1 500 500 (250000)
I1112 17:42:06.737298 21117 net.cpp:165] Memory required for data: 1152050968
I1112 17:42:06.737299 21117 layer_factory.hpp:77] Creating layer rev-dsn1
I1112 17:42:06.737303 21117 net.cpp:100] Creating Layer rev-dsn1
I1112 17:42:06.737306 21117 net.cpp:434] rev-dsn1 <- sigmoid-dsn1
I1112 17:42:06.737310 21117 net.cpp:408] rev-dsn1 -> rev-dsn1
I1112 17:42:06.737336 21117 net.cpp:150] Setting up rev-dsn1
I1112 17:42:06.737341 21117 net.cpp:157] Top shape: 1 1 500 500 (250000)
I1112 17:42:06.737344 21117 net.cpp:165] Memory required for data: 1153050968
I1112 17:42:06.737346 21117 layer_factory.hpp:77] Creating layer tile-dsn1
I1112 17:42:06.737354 21117 net.cpp:100] Creating Layer tile-dsn1
I1112 17:42:06.737355 21117 net.cpp:434] tile-dsn1 <- rev-dsn1
I1112 17:42:06.737359 21117 net.cpp:408] tile-dsn1 -> weight-dsn1
I1112 17:42:06.737381 21117 net.cpp:150] Setting up tile-dsn1
I1112 17:42:06.737386 21117 net.cpp:157] Top shape: 1 64 500 500 (16000000)
I1112 17:42:06.737388 21117 net.cpp:165] Memory required for data: 1217050968
I1112 17:42:06.737391 21117 layer_factory.hpp:77] Creating layer prod1-dsn1
I1112 17:42:06.737396 21117 net.cpp:100] Creating Layer prod1-dsn1
I1112 17:42:06.737398 21117 net.cpp:434] prod1-dsn1 <- conv1_2_relu1_2_0_split_1
I1112 17:42:06.737402 21117 net.cpp:434] prod1-dsn1 <- weight-dsn1
I1112 17:42:06.737407 21117 net.cpp:408] prod1-dsn1 -> prod1-dsn1
I1112 17:42:06.737429 21117 net.cpp:150] Setting up prod1-dsn1
I1112 17:42:06.737433 21117 net.cpp:157] Top shape: 1 64 500 500 (16000000)
I1112 17:42:06.737435 21117 net.cpp:165] Memory required for data: 1281050968
I1112 17:42:06.737437 21117 layer_factory.hpp:77] Creating layer conv1-dsn1
I1112 17:42:06.737463 21117 net.cpp:100] Creating Layer conv1-dsn1
I1112 17:42:06.737465 21117 net.cpp:434] conv1-dsn1 <- prod1-dsn1
I1112 17:42:06.737470 21117 net.cpp:408] conv1-dsn1 -> conv1-dsn1
I1112 17:42:06.739964 21117 net.cpp:150] Setting up conv1-dsn1
I1112 17:42:06.739975 21117 net.cpp:157] Top shape: 1 64 500 500 (16000000)
I1112 17:42:06.739993 21117 net.cpp:165] Memory required for data: 1345050968
I1112 17:42:06.739998 21117 layer_factory.hpp:77] Creating layer conv2-dsn1
I1112 17:42:06.740007 21117 net.cpp:100] Creating Layer conv2-dsn1
I1112 17:42:06.740011 21117 net.cpp:434] conv2-dsn1 <- conv1-dsn1
I1112 17:42:06.740017 21117 net.cpp:408] conv2-dsn1 -> conv2-dsn1
I1112 17:42:06.741509 21117 net.cpp:150] Setting up conv2-dsn1
I1112 17:42:06.741521 21117 net.cpp:157] Top shape: 1 64 500 500 (16000000)
I1112 17:42:06.741535 21117 net.cpp:165] Memory required for data: 1409050968
I1112 17:42:06.741540 21117 layer_factory.hpp:77] Creating layer relu1-dsn1
I1112 17:42:06.741545 21117 net.cpp:100] Creating Layer relu1-dsn1
I1112 17:42:06.741547 21117 net.cpp:434] relu1-dsn1 <- conv2-dsn1
I1112 17:42:06.741551 21117 net.cpp:395] relu1-dsn1 -> conv2-dsn1 (in-place)
I1112 17:42:06.741708 21117 net.cpp:150] Setting up relu1-dsn1
I1112 17:42:06.741715 21117 net.cpp:157] Top shape: 1 64 500 500 (16000000)
I1112 17:42:06.741717 21117 net.cpp:165] Memory required for data: 1473050968
I1112 17:42:06.741720 21117 layer_factory.hpp:77] Creating layer conv3-dsn1
I1112 17:42:06.741730 21117 net.cpp:100] Creating Layer conv3-dsn1
I1112 17:42:06.741732 21117 net.cpp:434] conv3-dsn1 <- conv2-dsn1
I1112 17:42:06.741737 21117 net.cpp:408] conv3-dsn1 -> conv3-dsn1
I1112 17:42:06.744169 21117 net.cpp:150] Setting up conv3-dsn1
I1112 17:42:06.744180 21117 net.cpp:157] Top shape: 1 64 500 500 (16000000)
I1112 17:42:06.744197 21117 net.cpp:165] Memory required for data: 1537050968
I1112 17:42:06.744202 21117 layer_factory.hpp:77] Creating layer relu2-dsn1
I1112 17:42:06.744210 21117 net.cpp:100] Creating Layer relu2-dsn1
I1112 17:42:06.744212 21117 net.cpp:434] relu2-dsn1 <- conv3-dsn1
I1112 17:42:06.744216 21117 net.cpp:395] relu2-dsn1 -> conv3-dsn1 (in-place)
I1112 17:42:06.744385 21117 net.cpp:150] Setting up relu2-dsn1
I1112 17:42:06.744393 21117 net.cpp:157] Top shape: 1 64 500 500 (16000000)
I1112 17:42:06.744395 21117 net.cpp:165] Memory required for data: 1601050968
I1112 17:42:06.744397 21117 layer_factory.hpp:77] Creating layer conv4-dsn1
I1112 17:42:06.744406 21117 net.cpp:100] Creating Layer conv4-dsn1
I1112 17:42:06.744410 21117 net.cpp:434] conv4-dsn1 <- conv3-dsn1
I1112 17:42:06.744415 21117 net.cpp:408] conv4-dsn1 -> conv4-dsn1
I1112 17:42:06.745620 21117 net.cpp:150] Setting up conv4-dsn1
I1112 17:42:06.745632 21117 net.cpp:157] Top shape: 1 1 500 500 (250000)
I1112 17:42:06.745651 21117 net.cpp:165] Memory required for data: 1602050968
I1112 17:42:06.745656 21117 layer_factory.hpp:77] Creating layer sum-dsn1
I1112 17:42:06.745661 21117 net.cpp:100] Creating Layer sum-dsn1
I1112 17:42:06.745663 21117 net.cpp:434] sum-dsn1 <- conv4-dsn1
I1112 17:42:06.745667 21117 net.cpp:434] sum-dsn1 <- upscore-dsn2_crop2-dsn2_0_split_2
I1112 17:42:06.745672 21117 net.cpp:408] sum-dsn1 -> sum-dsn1
I1112 17:42:06.745699 21117 net.cpp:150] Setting up sum-dsn1
I1112 17:42:06.745704 21117 net.cpp:157] Top shape: 1 1 500 500 (250000)
I1112 17:42:06.745707 21117 net.cpp:165] Memory required for data: 1603050968
I1112 17:42:06.745708 21117 layer_factory.hpp:77] Creating layer crop2-dsn1
I1112 17:42:06.745713 21117 net.cpp:100] Creating Layer crop2-dsn1
I1112 17:42:06.745716 21117 net.cpp:434] crop2-dsn1 <- sum-dsn1
I1112 17:42:06.745719 21117 net.cpp:434] crop2-dsn1 <- data_augmentation_0_split_6
I1112 17:42:06.745723 21117 net.cpp:408] crop2-dsn1 -> upscore-dsn1
I1112 17:42:06.745746 21117 net.cpp:150] Setting up crop2-dsn1
I1112 17:42:06.745750 21117 net.cpp:157] Top shape: 1 1 500 500 (250000)
I1112 17:42:06.745754 21117 net.cpp:165] Memory required for data: 1604050968
I1112 17:42:06.745755 21117 layer_factory.hpp:77] Creating layer loss1-score
I1112 17:42:06.745761 21117 net.cpp:100] Creating Layer loss1-score
I1112 17:42:06.745764 21117 net.cpp:434] loss1-score <- upscore-dsn1
I1112 17:42:06.745767 21117 net.cpp:434] loss1-score <- label_augmentation_1_split_5
I1112 17:42:06.745772 21117 net.cpp:408] loss1-score -> loss1-score
…
I1112 17:42:06.750228 21117 net.cpp:58] Initializing net from parameters: 
name: "RAS"
state {
  phase: TEST
}
layer {
  name: "data"
  type: "ImageLabelmapData"
  top: "data"
  top: "label"
  include {
    phase: TEST
  }
  transform_param {
    mean_value: 104.00699
    mean_value: 116.66877
    mean_value: 122.67892
  }
  image_data_param {
    source: "/media/compute/homes/galberding/FleckDetect/Datasets/FleckDataSet/val/image_to_label_map.txt"
    batch_size: 1
    new_height: 500
    new_width: 500
    root_folder: "/media/compute/homes/galberding/FleckDetect/Datasets/FleckDataSet/val/"
    normalize: true
  }
}
layer {
  name: "conv1_1"
  type: "Convolution"
  bottom: "data"
  top: "conv1_1"
  param {
    lr_mult: 1
    decay_mult: 1
  }
  param {
    lr_mult: 2
    decay_mult: 0
  }
  convolution_param {
    num_output: 64
    pad: 1
    kernel_size: 3
    engine: CUDNN
  }
}
layer {
  name: "relu1_1"
  type: "ReLU"
  bottom: "conv1_1"
  top: "conv1_1"
}
layer {
  name: "conv1_2"
  type: "Convolution"
  bottom: "conv1_1"
  top: "conv1_2"
  param {
    lr_mult: 1
    decay_mult: 1
  }
  param {
    lr_mult: 2
    decay_mult: 0
  }
  convolution_param {
    num_output: 64
    pad: 1
    kernel_size: 3
    engine: CUDNN
  }
}
layer {
  name: "relu1_2"
  type: "ReLU"
  bottom: "conv1_2"
  top: "conv1_2"
}
layer {
  name: "pool1"
  type: "Pooling"
  bottom: "conv1_2"
  top: "pool1"
  pooling_param {
    pool: MAX
    kernel_size: 2
    stride: 2
  }
}
layer {
  name: "conv2_1"
  type: "Convolution"
  bottom: "pool1"
  top: "conv2_1"
  param {
    lr_mult: 1
    decay_mult: 1
  }
  param {
    lr_mult: 2
    decay_mult: 0
  }
  convolution_param {
    num_output: 128
    pad: 1
    kernel_size: 3
    engine: CUDNN
  }
}
layer {
  name: "relu2_1"
  type: "ReLU"
  bottom: "conv2_1"
  top: "conv2_1"
}
layer {
  name: "conv2_2"
  type: "Convolution"
  bottom: "conv2_1"
  top: "conv2_2"
  param {
    lr_mult: 1
    decay_mult: 1
  }
  param {
    lr_mult: 2
    decay_mult: 0
  }
  convolution_param {
    num_output: 128
    pad: 1
    kernel_size: 3
    engine: CUDNN
  }
}
layer {
  name: "relu2_2"
  type: "ReLU"
  bottom: "conv2_2"
  top: "conv2_2"
}
layer {
  name: "pool2"
  type: "Pooling"
  bottom: "conv2_2"
  top: "pool2"
  pooling_param {
    pool: MAX
    kernel_size: 2
    stride: 2
  }
}
layer {
  name: "conv3_1"
  type: "Convolution"
  bottom: "pool2"
  top: "conv3_1"
  param {
    lr_mult: 1
    decay_mult: 1
  }
  param {
    lr_mult: 2
    decay_mult: 0
  }
  convolution_param {
    num_output: 256
    pad: 1
    kernel_size: 3
    engine: CUDNN
  }
}
layer {
  name: "relu3_1"
  type: "ReLU"
  bottom: "conv3_1"
  top: "conv3_1"
}
layer {
  name: "conv3_2"
  type: "Convolution"
  bottom: "conv3_1"
  top: "conv3_2"
  param {
    lr_mult: 1
    decay_mult: 1
  }
  param {
    lr_mult: 2
    decay_mult: 0
  }
  convolution_param {
    num_output: 256
    pad: 1
    kernel_size: 3
    engine: CUDNN
  }
}
layer {
  name: "relu3_2"
  type: "ReLU"
  bottom: "conv3_2"
  top: "conv3_2"
}
layer {
  name: "conv3_3"
  type: "Convolution"
  bottom: "conv3_2"
  top: "conv3_3"
  param {
    lr_mult: 1
    decay_mult: 1
  }
  param {
    lr_mult: 2
    decay_mult: 0
  }
  convolution_param {
    num_output: 256
    pad: 1
    kernel_size: 3
    engine: CUDNN
  }
}
layer {
  name: "relu3_3"
  type: "ReLU"
  bottom: "conv3_3"
  top: "conv3_3"
}
layer {
  name: "pool3"
  type: "Pooling"
  bottom: "conv3_3"
  top: "pool3"
  pooling_param {
    pool: MAX
    kernel_size: 2
    stride: 2
  }
}
layer {
  name: "conv4_1"
  type: "Convolution"
  bottom: "pool3"
  top: "conv4_1"
  param {
    lr_mult: 1
    decay_mult: 1
  }
  param {
    lr_mult: 2
    decay_mult: 0
  }
  convolution_param {
    num_output: 512
    pad: 1
    kernel_size: 3
    engine: CUDNN
  }
}
layer {
  name: "relu4_1"
  type: "ReLU"
  bottom: "conv4_1"
  top: "conv4_1"
}
layer {
  name: "conv4_2"
  type: "Convolution"
  bottom: "conv4_1"
  top: "conv4_2"
  param {
    lr_mult: 1
    decay_mult: 1
  }
  param {
    lr_mult: 2
    decay_mult: 0
  }
  convolution_param {
    num_output: 512
    pad: 1
    kernel_size: 3
    engine: CUDNN
  }
}
layer {
  name: "relu4_2"
  type: "ReLU"
  bottom: "conv4_2"
  top: "conv4_2"
}
layer {
  name: "conv4_3"
  type: "Convolution"
  bottom: "conv4_2"
  top: "conv4_3"
  param {
    lr_mult: 1
    decay_mult: 1
  }
  param {
    lr_mult: 2
    decay_mult: 0
  }
  convolution_param {
    num_output: 512
    pad: 1
    kernel_size: 3
    engine: CUDNN
  }
}
layer {
  name: "relu4_3"
  type: "ReLU"
  bottom: "conv4_3"
  top: "conv4_3"
}
layer {
  name: "pool4"
  type: "Pooling"
  bottom: "conv4_3"
  top: "pool4"
  pooling_param {
    pool: MAX
    kernel_size: 3
    stride: 2
    pad: 1
  }
}
layer {
  name: "conv5_1"
  type: "Convolution"
  bottom: "pool4"
  top: "conv5_1"
  param {
    lr_mult: 1
    decay_mult: 1
  }
  param {
    lr_mult: 2
    decay_mult: 0
  }
  convolution_param {
    num_output: 512
    pad: 1
    kernel_size: 3
    engine: CUDNN
  }
}
layer {
  name: "relu5_1"
  type: "ReLU"
  bottom: "conv5_1"
  top: "conv5_1"
}
layer {
  name: "conv5_2"
  type: "Convolution"
  bottom: "conv5_1"
  top: "conv5_2"
  param {
    lr_mult: 1
    decay_mult: 1
  }
  param {
    lr_mult: 2
    decay_mult: 0
  }
  convolution_param {
    num_output: 512
    pad: 1
    kernel_size: 3
    engine: CUDNN
  }
}
layer {
  name: "relu5_2"
  type: "ReLU"
  bottom: "conv5_2"
  top: "conv5_2"
}
layer {
  name: "conv5_3"
  type: "Convolution"
  bottom: "conv5_2"
  top: "conv5_3"
  param {
    lr_mult: 1
    decay_mult: 1
  }
  param {
    lr_mult: 2
    decay_mult: 0
  }
  convolution_param {
    num_output: 512
    pad: 1
    kernel_size: 3
    engine: CUDNN
  }
}
layer {
  name: "relu5_3"
  type: "ReLU"
  bottom: "conv5_3"
  top: "conv5_3"
}
layer {
  name: "pool5"
  type: "Pooling"
  bottom: "conv5_3"
  top: "pool5"
  pooling_param {
    pool: MAX
    kernel_size: 3
    stride: 2
    pad: 1
  }
}
layer {
  name: "conv1-dsn6"
  type: "Convolution"
  bottom: "pool5"
  top: "conv1-dsn6"
  param {
    lr_mult: 1
    decay_mult: 1
  }
  param {
    lr_mult: 2
    decay_mult: 0
  }
  convolution_param {
    num_output: 256
    kernel_size: 1
    weight_filler {
      type: "gaussian"
      std: 0.01
    }
    bias_filler {
      type: "constant"
      value: 0
    }
    engine: CUDNN
  }
}
layer {
  name: "conv2-dsn6"
  type: "Convolution"
  bottom: "conv1-dsn6"
  top: "conv2-dsn6"
  param {
    lr_mult: 1
    decay_mult: 1
  }
  param {
    lr_mult: 2
    decay_mult: 0
  }
  convolution_param {
    num_output: 256
    pad: 2
    kernel_size: 5
    weight_filler {
      type: "gaussian"
      std: 0.01
    }
    bias_filler {
      type: "constant"
      value: 0
    }
    engine: CUDNN
  }
}
layer {
  name: "relu1-dsn6"
  type: "ReLU"
  bottom: "conv2-dsn6"
  top: "conv2-dsn6"
}
layer {
  name: "conv3-dsn6"
  type: "Convolution"
  bottom: "conv2-dsn6"
  top: "conv3-dsn6"
  param {
    lr_mult: 1
    decay_mult: 1
  }
  param {
    lr_mult: 2
    decay_mult: 0
  }
  convolution_param {
    num_output: 256
    pad: 2
    kernel_size: 5
    weight_filler {
      type: "gaussian"
      std: 0.01
    }
    bias_filler {
      type: "constant"
      value: 0
    }
    engine: CUDNN
  }
}
layer {
  name: "relu2-dsn6"
  type: "ReLU"
  bottom: "conv3-dsn6"
  top: "conv3-dsn6"
}
layer {
  name: "conv4-dsn6"
  type: "Convolution"
  bottom: "conv3-dsn6"
  top: "conv4-dsn6"
  param {
    lr_mult: 1
    decay_mult: 1
  }
  param {
    lr_mult: 2
    decay_mult: 0
  }
  convolution_param {
    num_output: 256
    pad: 2
    kernel_size: 5
    weight_filler {
      type: "gaussian"
      std: 0.01
    }
    bias_filler {
      type: "constant"
      value: 0
    }
    engine: CUDNN
  }
}
layer {
  name: "relu3-dsn6"
  type: "ReLU"
  bottom: "conv4-dsn6"
  top: "conv4-dsn6"
}
layer {
  name: "conv5-dsn6"
  type: "Convolution"
  bottom: "conv4-dsn6"
  top: "conv5-dsn6"
  param {
    lr_mult: 0.1
    decay_mult: 1
  }
  param {
    lr_mult: 0.2
    decay_mult: 0
  }
  convolution_param {
    num_output: 1
    kernel_size: 1
    weight_filler {
      type: "gaussian"
      std: 0.01
    }
    bias_filler {
      type: "constant"
      value: 0
    }
    engine: CUDNN
  }
}
layer {
  name: "upsample32_dsn6"
  type: "Deconvolution"
  bottom: "conv5-dsn6"
  top: "conv5-dsn6-up"
  param {
    lr_mult: 0
    decay_mult: 1
  }
  param {
    lr_mult: 0
    decay_mult: 0
  }
  convolution_param {
    num_output: 1
    kernel_size: 64
    stride: 32
  }
}
layer {
  name: "crop-dsn6"
  type: "Crop"
  bottom: "conv5-dsn6-up"
  bottom: "data"
  top: "upscore-dsn6"
}
layer {
  name: "loss6-score"
  type: "SigmoidCrossEntropyLoss"
  bottom: "upscore-dsn6"
  bottom: "label"
  top: "loss6-score"
  loss_weight: 1
}
layer {
  name: "upsample2_dsn5"
  type: "Deconvolution"
  bottom: "conv5-dsn6"
  top: "conv5-dsn6-5"
  param {
    lr_mult: 0
    decay_mult: 1
  }
  param {
    lr_mult: 0
    decay_mult: 0
  }
  convolution_param {
    num_output: 1
    kernel_size: 4
    stride: 2
  }
}
layer {
  name: "crop1-dsn5"
  type: "Crop"
  bottom: "conv5-dsn6-5"
  bottom: "conv5_3"
  top: "weight-dsn6-5"
}
layer {
  name: "sigmoid-dsn5"
  type: "Sigmoid"
  bottom: "weight-dsn6-5"
  top: "sigmoid-dsn5"
}
layer {
  name: "rev-dsn5"
  type: "Power"
  bottom: "sigmoid-dsn5"
  top: "rev-dsn5"
  power_param {
    power: 1
    scale: -1
    shift: 1
  }
}
layer {
  name: "tile-dsn5"
  type: "Tile"
  bottom: "rev-dsn5"
  top: "weight-dsn5"
  tile_param {
    tiles: 512
  }
}
layer {
  name: "prod1-dsn5"
  type: "Eltwise"
  bottom: "conv5_3"
  bottom: "weight-dsn5"
  top: "prod1-dsn5"
  eltwise_param {
    operation: PROD
  }
}
layer {
  name: "conv1-dsn5"
  type: "Convolution"
  bottom: "prod1-dsn5"
  top: "conv1-dsn5"
  param {
    lr_mult: 1
    decay_mult: 1
  }
  param {
    lr_mult: 2
    decay_mult: 0
  }
  convolution_param {
    num_output: 64
    kernel_size: 1
    weight_filler {
      type: "gaussian"
      std: 0.01
    }
    bias_filler {
      type: "constant"
      value: 0
    }
    engine: CUDNN
  }
}
layer {
  name: "conv2-dsn5"
  type: "Convolution"
  bottom: "conv1-dsn5"
  top: "conv2-dsn5"
  param {
    lr_mult: 1
    decay_mult: 1
  }
  param {
    lr_mult: 2
    decay_mult: 0
  }
  convolution_param {
    num_output: 64
    pad: 1
    kernel_size: 3
    weight_filler {
      type: "gaussian"
      std: 0.01
    }
    bias_filler {
      type: "constant"
      value: 0
    }
    engine: CUDNN
  }
}
layer {
  name: "relu1-dsn5"
  type: "ReLU"
  bottom: "conv2-dsn5"
  top: "conv2-dsn5"
}
layer {
  name: "conv3-dsn5"
  type: "Convolution"
  bottom: "conv2-dsn5"
  top: "conv3-dsn5"
  param {
    lr_mult: 1
    decay_mult: 1
  }
  param {
    lr_mult: 2
    decay_mult: 0
  }
  convolution_param {
    num_output: 64
    pad: 1
    kernel_size: 3
    weight_filler {
      type: "gaussian"
      std: 0.01
    }
    bias_filler {
      type: "constant"
      value: 0
    }
    engine: CUDNN
  }
}
layer {
  name: "relu2-dsn5"
  type: "ReLU"
  bottom: "conv3-dsn5"
  top: "conv3-dsn5"
}
layer {
  name: "conv4-dsn5"
  type: "Convolution"
  bottom: "conv3-dsn5"
  top: "conv4-dsn5"
  param {
    lr_mult: 1
    decay_mult: 1
  }
  param {
    lr_mult: 2
    decay_mult: 0
  }
  convolution_param {
    num_output: 1
    pad: 1
    kernel_size: 3
    weight_filler {
      type: "gaussian"
      std: 0.01
    }
    bias_filler {
      type: "constant"
      value: 0
    }
    engine: CUDNN
  }
}
layer {
  name: "sum-dsn5"
  type: "Eltwise"
  bottom: "conv4-dsn5"
  bottom: "weight-dsn6-5"
  top: "sum-dsn5"
  eltwise_param {
    operation: SUM
  }
}
layer {
  name: "upsample16_dsn5"
  type: "Deconvolution"
  bottom: "sum-dsn5"
  top: "sum-dsn5-up"
  param {
    lr_mult: 0
    decay_mult: 1
  }
  param {
    lr_mult: 0
    decay_mult: 0
  }
  convolution_param {
    num_output: 1
    kernel_size: 32
    stride: 16
  }
}
layer {
  name: "crop2-dsn5"
  type: "Crop"
  bottom: "sum-dsn5-up"
  bottom: "data"
  top: "upscore-dsn5"
}
layer {
  name: "loss5-score"
  type: "SigmoidCrossEntropyLoss"
  bottom: "upscore-dsn5"
  bottom: "label"
  top: "loss5-score"
  loss_weight: 1
}
layer {
  name: "upsample2_dsn4"
  type: "Deconvolution"
  bottom: "sum-dsn5"
  top: "sum-dsn5-4"
  param {
    lr_mult: 0
    decay_mult: 1
  }
  param {
    lr_mult: 0
    decay_mult: 0
  }
  convolution_param {
    num_output: 1
    kernel_size: 4
    stride: 2
  }
}
layer {
  name: "crop1-dsn4"
  type: "Crop"
  bottom: "sum-dsn5-4"
  bottom: "conv4_3"
  top: "weight-dsn5-4"
}
layer {
  name: "sigmoid-dsn4"
  type: "Sigmoid"
  bottom: "weight-dsn5-4"
  top: "sigmoid-dsn4"
}
layer {
  name: "rev-dsn4"
  type: "Power"
  bottom: "sigmoid-dsn4"
  top: "rev-dsn4"
  power_param {
    power: 1
    scale: -1
    shift: 1
  }
}
layer {
  name: "tile-dsn4"
  type: "Tile"
  bottom: "rev-dsn4"
  top: "weight-dsn4"
  tile_param {
    tiles: 512
  }
}
layer {
  name: "prod1-dsn4"
  type: "Eltwise"
  bottom: "conv4_3"
  bottom: "weight-dsn4"
  top: "prod1-dsn4"
  eltwise_param {
    operation: PROD
  }
}
layer {
  name: "conv1-dsn4"
  type: "Convolution"
  bottom: "prod1-dsn4"
  top: "conv1-dsn4"
  param {
    lr_mult: 1
    decay_mult: 1
  }
  param {
    lr_mult: 2
    decay_mult: 0
  }
  convolution_param {
    num_output: 64
    kernel_size: 1
    weight_filler {
      type: "gaussian"
      std: 0.01
    }
    bias_filler {
      type: "constant"
      value: 0
    }
    engine: CUDNN
  }
}
layer {
  name: "conv2-dsn4"
  type: "Convolution"
  bottom: "conv1-dsn4"
  top: "conv2-dsn4"
  param {
    lr_mult: 1
    decay_mult: 1
  }
  param {
    lr_mult: 2
    decay_mult: 0
  }
  convolution_param {
    num_output: 64
    pad: 1
    kernel_size: 3
    weight_filler {
      type: "gaussian"
      std: 0.01
    }
    bias_filler {
      type: "constant"
      value: 0
    }
    engine: CUDNN
  }
}
layer {
  name: "relu1-dsn4"
  type: "ReLU"
  bottom: "conv2-dsn4"
  top: "conv2-dsn4"
}
layer {
  name: "conv3-dsn4"
  type: "Convolution"
  bottom: "conv2-dsn4"
  top: "conv3-dsn4"
  param {
    lr_mult: 1
    decay_mult: 1
  }
  param {
    lr_mult: 2
    decay_mult: 0
  }
  convolution_param {
    num_output: 64
    pad: 1
    kernel_size: 3
    weight_filler {
      type: "gaussian"
      std: 0.01
    }
    bias_filler {
      type: "constant"
      value: 0
    }
    engine: CUDNN
  }
}
layer {
  name: "relu2-dsn4"
  type: "ReLU"
  bottom: "conv3-dsn4"
  top: "conv3-dsn4"
}
layer {
  name: "conv4-dsn4"
  type: "Convolution"
  bottom: "conv3-dsn4"
  top: "conv4-dsn4"
  param {
    lr_mult: 1
    decay_mult: 1
  }
  param {
    lr_mult: 2
    decay_mult: 0
  }
  convolution_param {
    num_output: 1
    pad: 1
    kernel_size: 3
    weight_filler {
      type: "gaussian"
      std: 0.01
    }
    bias_filler {
      type: "constant"
      value: 0
    }
    engine: CUDNN
  }
}
layer {
  name: "sum-dsn4"
  type: "Eltwise"
  bottom: "conv4-dsn4"
  bottom: "weight-dsn5-4"
  top: "sum-dsn4"
  eltwise_param {
    operation: SUM
  }
}
layer {
  name: "upsample8_dsn4"
  type: "Deconvolution"
  bottom: "sum-dsn4"
  top: "sum-dsn4-up"
  param {
    lr_mult: 0
    decay_mult: 1
  }
  param {
    lr_mult: 0
    decay_mult: 0
  }
  convolution_param {
    num_output: 1
    kernel_size: 16
    stride: 8
  }
}
layer {
  name: "crop2-dsn4"
  type: "Crop"
  bottom: "sum-dsn4-up"
  bottom: "data"
  top: "upscore-dsn4"
}
layer {
  name: "loss4-score"
  type: "SigmoidCrossEntropyLoss"
  bottom: "upscore-dsn4"
  bottom: "label"
  top: "loss4-score"
  loss_weight: 1
}
layer {
  name: "upsample2_dsn3"
  type: "Deconvolution"
  bottom: "sum-dsn4"
  top: "sum-dsn4-3"
  param {
    lr_mult: 0
    decay_mult: 1
  }
  param {
    lr_mult: 0
    decay_mult: 0
  }
  convolution_param {
    num_output: 1
    kernel_size: 4
    stride: 2
  }
}
layer {
  name: "crop1-dsn3"
  type: "Crop"
  bottom: "sum-dsn4-3"
  bottom: "conv3_3"
  top: "weight-dsn4-3"
}
layer {
  name: "sigmoid-dsn3"
  type: "Sigmoid"
  bottom: "weight-dsn4-3"
  top: "sigmoid-dsn3"
}
layer {
  name: "rev-dsn3"
  type: "Power"
  bottom: "sigmoid-dsn3"
  top: "rev-dsn3"
  power_param {
    power: 1
    scale: -1
    shift: 1
  }
}
layer {
  name: "tile-dsn3"
  type: "Tile"
  bottom: "rev-dsn3"
  top: "weight-dsn3"
  tile_param {
    tiles: 256
  }
}
layer {
  name: "prod1-dsn3"
  type: "Eltwise"
  bottom: "conv3_3"
  bottom: "weight-dsn3"
  top: "prod1-dsn3"
  eltwise_param {
    operation: PROD
  }
}
layer {
  name: "conv1-dsn3"
  type: "Convolution"
  bottom: "prod1-dsn3"
  top: "conv1-dsn3"
  param {
    lr_mult: 1
    decay_mult: 1
  }
  param {
    lr_mult: 2
    decay_mult: 0
  }
  convolution_param {
    num_output: 64
    kernel_size: 1
    weight_filler {
      type: "gaussian"
      std: 0.01
    }
    bias_filler {
      type: "constant"
      value: 0
    }
    engine: CUDNN
  }
}
layer {
  name: "conv2-dsn3"
  type: "Convolution"
  bottom: "conv1-dsn3"
  top: "conv2-dsn3"
  param {
    lr_mult: 1
    decay_mult: 1
  }
  param {
    lr_mult: 2
    decay_mult: 0
  }
  convolution_param {
    num_output: 64
    pad: 1
    kernel_size: 3
    weight_filler {
      type: "gaussian"
      std: 0.01
    }
    bias_filler {
      type: "constant"
      value: 0
    }
    engine: CUDNN
  }
}
layer {
  name: "relu1-dsn3"
  type: "ReLU"
  bottom: "conv2-dsn3"
  top: "conv2-dsn3"
}
layer {
  name: "conv3-dsn3"
  type: "Convolution"
  bottom: "conv2-dsn3"
  top: "conv3-dsn3"
  param {
    lr_mult: 1
    decay_mult: 1
  }
  param {
    lr_mult: 2
    decay_mult: 0
  }
  convolution_param {
    num_output: 64
    pad: 1
    kernel_size: 3
    weight_filler {
      type: "gaussian"
      std: 0.01
    }
    bias_filler {
      type: "constant"
      value: 0
    }
    engine: CUDNN
  }
}
layer {
  name: "relu2-dsn3"
  type: "ReLU"
  bottom: "conv3-dsn3"
  top: "conv3-dsn3"
}
layer {
  name: "conv4-dsn3"
  type: "Convolution"
  bottom: "conv3-dsn3"
  top: "conv4-dsn3"
  param {
    lr_mult: 1
    decay_mult: 1
  }
  param {
    lr_mult: 2
    decay_mult: 0
  }
  convolution_param {
    num_output: 1
    pad: 1
    kernel_size: 3
    weight_filler {
      type: "gaussian"
      std: 0.01
    }
    bias_filler {
      type: "constant"
      value: 0
    }
    engine: CUDNN
  }
}
layer {
  name: "sum-dsn3"
  type: "Eltwise"
  bottom: "conv4-dsn3"
  bottom: "weight-dsn4-3"
  top: "sum-dsn3"
  eltwise_param {
    operation: SUM
  }
}
layer {
  name: "upsample4_dsn3"
  type: "Deconvolution"
  bottom: "sum-dsn3"
  top: "sum-dsn3-up"
  param {
    lr_mult: 0
    decay_mult: 1
  }
  param {
    lr_mult: 0
    decay_mult: 0
  }
  convolution_param {
    num_output: 1
    kernel_size: 8
    stride: 4
  }
}
layer {
  name: "crop2-dsn3"
  type: "Crop"
  bottom: "sum-dsn3-up"
  bottom: "data"
  top: "upscore-dsn3"
}
layer {
  name: "loss3-score"
  type: "SigmoidCrossEntropyLoss"
  bottom: "upscore-dsn3"
  bottom: "label"
  top: "loss3-score"
  loss_weight: 1
}
layer {
  name: "upsample2_1-dsn2"
  type: "Deconvolution"
  bottom: "sum-dsn3"
  top: "sum-dsn3-2"
  param {
    lr_mult: 0
    decay_mult: 1
  }
  param {
    lr_mult: 0
    decay_mult: 0
  }
  convolution_param {
    num_output: 1
    kernel_size: 4
    stride: 2
  }
}
layer {
  name: "crop1-dsn2"
  type: "Crop"
  bottom: "sum-dsn3-2"
  bottom: "conv2_2"
  top: "weight-dsn3-2"
}
layer {
  name: "sigmoid-dsn2"
  type: "Sigmoid"
  bottom: "weight-dsn3-2"
  top: "sigmoid-dsn2"
}
layer {
  name: "rev-dsn2"
  type: "Power"
  bottom: "sigmoid-dsn2"
  top: "rev-dsn2"
  power_param {
    power: 1
    scale: -1
    shift: 1
  }
}
layer {
  name: "tile-dsn2"
  type: "Tile"
  bottom: "rev-dsn2"
  top: "weight-dsn2"
  tile_param {
    tiles: 128
  }
}
layer {
  name: "prod1-dsn2"
  type: "Eltwise"
  bottom: "conv2_2"
  bottom: "weight-dsn2"
  top: "prod1-dsn2"
  eltwise_param {
    operation: PROD
  }
}
layer {
  name: "conv1-dsn2"
  type: "Convolution"
  bottom: "prod1-dsn2"
  top: "conv1-dsn2"
  param {
    lr_mult: 1
    decay_mult: 1
  }
  param {
    lr_mult: 2
    decay_mult: 0
  }
  convolution_param {
    num_output: 64
    kernel_size: 1
    weight_filler {
      type: "gaussian"
      std: 0.01
    }
    bias_filler {
      type: "constant"
      value: 0
    }
    engine: CUDNN
  }
}
layer {
  name: "conv2-dsn2"
  type: "Convolution"
  bottom: "conv1-dsn2"
  top: "conv2-dsn2"
  param {
    lr_mult: 1
    decay_mult: 1
  }
  param {
    lr_mult: 2
    decay_mult: 0
  }
  convolution_param {
    num_output: 64
    pad: 1
    kernel_size: 3
    weight_filler {
      type: "gaussian"
      std: 0.01
    }
    bias_filler {
      type: "constant"
      value: 0
    }
    engine: CUDNN
  }
}
layer {
  name: "relu1-dsn2"
  type: "ReLU"
  bottom: "conv2-dsn2"
  top: "conv2-dsn2"
}
layer {
  name: "conv3-dsn2"
  type: "Convolution"
  bottom: "conv2-dsn2"
  top: "conv3-dsn2"
  param {
    lr_mult: 1
    decay_mult: 1
  }
  param {
    lr_mult: 2
    decay_mult: 0
  }
  convolution_param {
    num_output: 64
    pad: 1
    kernel_size: 3
    weight_filler {
      type: "gaussian"
      std: 0.01
    }
    bias_filler {
      type: "constant"
      value: 0
    }
    engine: CUDNN
  }
}
layer {
  name: "relu2-dsn2"
  type: "ReLU"
  bottom: "conv3-dsn2"
  top: "conv3-dsn2"
}
layer {
  name: "conv4-dsn2"
  type: "Convolution"
  bottom: "conv3-dsn2"
  top: "conv4-dsn2"
  param {
    lr_mult: 1
    decay_mult: 1
  }
  param {
    lr_mult: 2
    decay_mult: 0
  }
  convolution_param {
    num_output: 1
    pad: 1
    kernel_size: 3
    weight_filler {
      type: "gaussian"
      std: 0.01
    }
    bias_filler {
      type: "constant"
      value: 0
    }
    engine: CUDNN
  }
}
layer {
  name: "sum-dsn2"
  type: "Eltwise"
  bottom: "conv4-dsn2"
  bottom: "weight-dsn3-2"
  top: "sum-dsn2"
  eltwise_param {
    operation: SUM
  }
}
layer {
  name: "upsample2_2-dsn2"
  type: "Deconvolution"
  bottom: "sum-dsn2"
  top: "sum-dsn2-up"
  param {
    lr_mult: 0
    decay_mult: 1
  }
  param {
    lr_mult: 0
    decay_mult: 0
  }
  convolution_param {
    num_output: 1
    kernel_size: 4
    stride: 2
  }
}
layer {
  name: "crop2-dsn2"
  type: "Crop"
  bottom: "sum-dsn2-up"
  bottom: "data"
  top: "upscore-dsn2"
}
layer {
  name: "loss2-score"
  type: "SigmoidCrossEntropyLoss"
  bottom: "upscore-dsn2"
  bottom: "label"
  top: "loss2-score"
  loss_weight: 1
}
layer {
  name: "sigmoid-dsn1"
  type: "Sigmoid"
  bottom: "upscore-dsn2"
  top: "sigmoid-dsn1"
}
layer {
  name: "rev-dsn1"
  type: "Power"
  bottom: "sigmoid-dsn1"
  top: "rev-dsn1"
  power_param {
    power: 1
    scale: -1
    shift: 1
  }
}
layer {
  name: "tile-dsn1"
  type: "Tile"
  bottom: "rev-dsn1"
  top: "weight-dsn1"
  tile_param {
    tiles: 64
  }
}
layer {
  name: "prod1-dsn1"
  type: "Eltwise"
  bottom: "conv1_2"
  bottom: "weight-dsn1"
  top: "prod1-dsn1"
  eltwise_param {
    operation: PROD
  }
}
layer {
  name: "conv1-dsn1"
  type: "Convolution"
  bottom: "prod1-dsn1"
  top: "conv1-dsn1"
  param {
    lr_mult: 1
    decay_mult: 1
  }
  param {
    lr_mult: 2
    decay_mult: 0
  }
  convolution_param {
    num_output: 64
    kernel_size: 1
    weight_filler {
      type: "gaussian"
      std: 0.01
    }
    bias_filler {
      type: "constant"
      value: 0
    }
    engine: CUDNN
  }
}
layer {
  name: "conv2-dsn1"
  type: "Convolution"
  bottom: "conv1-dsn1"
  top: "conv2-dsn1"
  param {
    lr_mult: 1
    decay_mult: 1
  }
  param {
    lr_mult: 2
    decay_mult: 0
  }
  convolution_param {
    num_output: 64
    pad: 1
    kernel_size: 3
    weight_filler {
      type: "gaussian"
      std: 0.01
    }
    bias_filler {
      type: "constant"
      value: 0
    }
    engine: CUDNN
  }
}
layer {
  name: "relu1-dsn1"
  type: "ReLU"
  bottom: "conv2-dsn1"
  top: "conv2-dsn1"
}
layer {
  name: "conv3-dsn1"
  type: "Convolution"
  bottom: "conv2-dsn1"
  top: "conv3-dsn1"
  param {
    lr_mult: 1
    decay_mult: 1
  }
  param {
    lr_mult: 2
    decay_mult: 0
  }
  convolution_param {
    num_output: 64
    pad: 1
    kernel_size: 3
    weight_filler {
      type: "gaussian"
      std: 0.01
    }
    bias_filler {
      type: "constant"
      value: 0
    }
    engine: CUDNN
  }
}
layer {
  name: "relu2-dsn1"
  type: "ReLU"
  bottom: "conv3-dsn1"
  top: "conv3-dsn1"
}
layer {
  name: "conv4-dsn1"
  type: "Convolution"
  bottom: "conv3-dsn1"
  top: "conv4-dsn1"
  param {
    lr_mult: 1
    decay_mult: 1
  }
  param {
    lr_mult: 2
    decay_mult: 0
  }
  convolution_param {
    num_output: 1
    pad: 1
    kernel_size: 3
    weight_filler {
      type: "gaussian"
      std: 0.01
    }
    bias_filler {
      type: "constant"
      value: 0
    }
    engine: CUDNN
  }
}
layer {
  name: "sum-dsn1"
  type: "Eltwise"
  bottom: "conv4-dsn1"
  bottom: "upscore-dsn2"
  top: "sum-dsn1"
  eltwise_param {
    operation: SUM
  }
}
layer {
  name: "crop2-dsn1"
  type: "Crop"
  bottom: "sum-dsn1"
  bottom: "data"
  top: "upscore-dsn1"
}
layer {
  name: "loss1-score"
  type: "SigmoidCrossEntropyLoss"
  bottom: "upscore-dsn1"
  bottom: "label"
  top: "loss1-score"
  loss_weight: 1
}
I1112 17:42:06.750619 21117 layer_factory.hpp:77] Creating layer data
I1112 17:42:06.750633 21117 net.cpp:100] Creating Layer data
I1112 17:42:06.750636 21117 net.cpp:408] data -> data
I1112 17:42:06.750644 21117 net.cpp:408] data -> label
I1112 17:42:06.750651 21117 image_labelmap_data_layer.cpp:41] Opening file /media/compute/homes/galberding/FleckDetect/Datasets/FleckDataSet/val/image_to_label_map.txt
I1112 17:42:06.752506 21117 image_labelmap_data_layer.cpp:56] A total of 54 images.
I1112 17:42:06.801417 21117 image_labelmap_data_layer.cpp:110] output data size: 1,3,500,500
I1112 17:42:06.801453 21117 image_labelmap_data_layer.cpp:113] output label size: 1,1,500,500
I1112 17:42:06.810003 21117 net.cpp:150] Setting up data
I1112 17:42:06.810022 21117 net.cpp:157] Top shape: 1 3 500 500 (750000)
I1112 17:42:06.810025 21117 net.cpp:157] Top shape: 1 1 500 500 (250000)
I1112 17:42:06.810027 21117 net.cpp:165] Memory required for data: 4000000
I1112 17:42:06.810034 21117 layer_factory.hpp:77] Creating layer data_data_0_split
I1112 17:42:06.810047 21117 net.cpp:100] Creating Layer data_data_0_split
I1112 17:42:06.810051 21117 net.cpp:434] data_data_0_split <- data
I1112 17:42:06.810058 21117 net.cpp:408] data_data_0_split -> data_data_0_split_0
I1112 17:42:06.810067 21117 net.cpp:408] data_data_0_split -> data_data_0_split_1
I1112 17:42:06.810073 21117 net.cpp:408] data_data_0_split -> data_data_0_split_2
I1112 17:42:06.810078 21117 net.cpp:408] data_data_0_split -> data_data_0_split_3
I1112 17:42:06.810083 21117 net.cpp:408] data_data_0_split -> data_data_0_split_4
I1112 17:42:06.810088 21117 net.cpp:408] data_data_0_split -> data_data_0_split_5
I1112 17:42:06.810092 21117 net.cpp:408] data_data_0_split -> data_data_0_split_6
I1112 17:42:06.810247 21117 net.cpp:150] Setting up data_data_0_split
I1112 17:42:06.810254 21117 net.cpp:157] Top shape: 1 3 500 500 (750000)
I1112 17:42:06.810257 21117 net.cpp:157] Top shape: 1 3 500 500 (750000)
I1112 17:42:06.810261 21117 net.cpp:157] Top shape: 1 3 500 500 (750000)
I1112 17:42:06.810263 21117 net.cpp:157] Top shape: 1 3 500 500 (750000)
I1112 17:42:06.810266 21117 net.cpp:157] Top shape: 1 3 500 500 (750000)
I1112 17:42:06.810268 21117 net.cpp:157] Top shape: 1 3 500 500 (750000)
I1112 17:42:06.810271 21117 net.cpp:157] Top shape: 1 3 500 500 (750000)
I1112 17:42:06.810273 21117 net.cpp:165] Memory required for data: 25000000
I1112 17:42:06.810277 21117 layer_factory.hpp:77] Creating layer label_data_1_split
I1112 17:42:06.810283 21117 net.cpp:100] Creating Layer label_data_1_split
I1112 17:42:06.810286 21117 net.cpp:434] label_data_1_split <- label
I1112 17:42:06.810292 21117 net.cpp:408] label_data_1_split -> label_data_1_split_0
I1112 17:42:06.810298 21117 net.cpp:408] label_data_1_split -> label_data_1_split_1
I1112 17:42:06.810302 21117 net.cpp:408] label_data_1_split -> label_data_1_split_2
I1112 17:42:06.810307 21117 net.cpp:408] label_data_1_split -> label_data_1_split_3
I1112 17:42:06.810312 21117 net.cpp:408] label_data_1_split -> label_data_1_split_4
I1112 17:42:06.810315 21117 net.cpp:408] label_data_1_split -> label_data_1_split_5
I1112 17:42:06.810470 21117 net.cpp:150] Setting up label_data_1_split
I1112 17:42:06.810477 21117 net.cpp:157] Top shape: 1 1 500 500 (250000)
I1112 17:42:06.810479 21117 net.cpp:157] Top shape: 1 1 500 500 (250000)
I1112 17:42:06.810482 21117 net.cpp:157] Top shape: 1 1 500 500 (250000)
I1112 17:42:06.810484 21117 net.cpp:157] Top shape: 1 1 500 500 (250000)
I1112 17:42:06.810487 21117 net.cpp:157] Top shape: 1 1 500 500 (250000)
I1112 17:42:06.810489 21117 net.cpp:157] Top shape: 1 1 500 500 (250000)
I1112 17:42:06.810492 21117 net.cpp:165] Memory required for data: 31000000
I1112 17:42:06.810493 21117 layer_factory.hpp:77] Creating layer conv1_1
I1112 17:42:06.810503 21117 net.cpp:100] Creating Layer conv1_1
I1112 17:42:06.810504 21117 net.cpp:434] conv1_1 <- data_data_0_split_0
I1112 17:42:06.810510 21117 net.cpp:408] conv1_1 -> conv1_1
I1112 17:42:06.813372 21117 net.cpp:150] Setting up conv1_1
I1112 17:42:06.813383 21117 net.cpp:157] Top shape: 1 64 500 500 (16000000)
I1112 17:42:06.813385 21117 net.cpp:165] Memory required for data: 95000000
I1112 17:42:06.813395 21117 layer_factory.hpp:77] Creating layer relu1_1
I1112 17:42:06.813401 21117 net.cpp:100] Creating Layer relu1_1
I1112 17:42:06.813405 21117 net.cpp:434] relu1_1 <- conv1_1
I1112 17:42:06.813410 21117 net.cpp:395] relu1_1 -> conv1_1 (in-place)
I1112 17:42:06.813570 21117 net.cpp:150] Setting up relu1_1
I1112 17:42:06.813578 21117 net.cpp:157] Top shape: 1 64 500 500 (16000000)
I1112 17:42:06.813580 21117 net.cpp:165] Memory required for data: 159000000
I1112 17:42:06.813582 21117 layer_factory.hpp:77] Creating layer conv1_2
I1112 17:42:06.813589 21117 net.cpp:100] Creating Layer conv1_2
I1112 17:42:06.813592 21117 net.cpp:434] conv1_2 <- conv1_1
I1112 17:42:06.813597 21117 net.cpp:408] conv1_2 -> conv1_2
I1112 17:42:06.814798 21117 net.cpp:150] Setting up conv1_2
I1112 17:42:06.814810 21117 net.cpp:157] Top shape: 1 64 500 500 (16000000)
I1112 17:42:06.814813 21117 net.cpp:165] Memory required for data: 223000000
I1112 17:42:06.814821 21117 layer_factory.hpp:77] Creating layer relu1_2
I1112 17:42:06.814826 21117 net.cpp:100] Creating Layer relu1_2
I1112 17:42:06.814827 21117 net.cpp:434] relu1_2 <- conv1_2
I1112 17:42:06.814832 21117 net.cpp:395] relu1_2 -> conv1_2 (in-place)
I1112 17:42:06.815276 21117 net.cpp:150] Setting up relu1_2
I1112 17:42:06.815286 21117 net.cpp:157] Top shape: 1 64 500 500 (16000000)
I1112 17:42:06.815304 21117 net.cpp:165] Memory required for data: 287000000
I1112 17:42:06.815307 21117 layer_factory.hpp:77] Creating layer conv1_2_relu1_2_0_split
I1112 17:42:06.815312 21117 net.cpp:100] Creating Layer conv1_2_relu1_2_0_split
I1112 17:42:06.815315 21117 net.cpp:434] conv1_2_relu1_2_0_split <- conv1_2
I1112 17:42:06.815320 21117 net.cpp:408] conv1_2_relu1_2_0_split -> conv1_2_relu1_2_0_split_0
I1112 17:42:06.815326 21117 net.cpp:408] conv1_2_relu1_2_0_split -> conv1_2_relu1_2_0_split_1
I1112 17:42:06.815368 21117 net.cpp:150] Setting up conv1_2_relu1_2_0_split
I1112 17:42:06.815374 21117 net.cpp:157] Top shape: 1 64 500 500 (16000000)
I1112 17:42:06.815377 21117 net.cpp:157] Top shape: 1 64 500 500 (16000000)
I1112 17:42:06.815379 21117 net.cpp:165] Memory required for data: 415000000
I1112 17:42:06.815382 21117 layer_factory.hpp:77] Creating layer pool1
I1112 17:42:06.815389 21117 net.cpp:100] Creating Layer pool1
I1112 17:42:06.815392 21117 net.cpp:434] pool1 <- conv1_2_relu1_2_0_split_0
I1112 17:42:06.815397 21117 net.cpp:408] pool1 -> pool1
I1112 17:42:06.815449 21117 net.cpp:150] Setting up pool1
I1112 17:42:06.815454 21117 net.cpp:157] Top shape: 1 64 250 250 (4000000)
I1112 17:42:06.815456 21117 net.cpp:165] Memory required for data: 431000000
I1112 17:42:06.815459 21117 layer_factory.hpp:77] Creating layer conv2_1
I1112 17:42:06.815464 21117 net.cpp:100] Creating Layer conv2_1
I1112 17:42:06.815466 21117 net.cpp:434] conv2_1 <- pool1
I1112 17:42:06.815471 21117 net.cpp:408] conv2_1 -> conv2_1
I1112 17:42:06.816529 21117 net.cpp:150] Setting up conv2_1
I1112 17:42:06.816538 21117 net.cpp:157] Top shape: 1 128 250 250 (8000000)
I1112 17:42:06.816541 21117 net.cpp:165] Memory required for data: 463000000
I1112 17:42:06.816548 21117 layer_factory.hpp:77] Creating layer relu2_1
I1112 17:42:06.816553 21117 net.cpp:100] Creating Layer relu2_1
I1112 17:42:06.816555 21117 net.cpp:434] relu2_1 <- conv2_1
I1112 17:42:06.816560 21117 net.cpp:395] relu2_1 -> conv2_1 (in-place)
I1112 17:42:06.816963 21117 net.cpp:150] Setting up relu2_1
I1112 17:42:06.816973 21117 net.cpp:157] Top shape: 1 128 250 250 (8000000)
I1112 17:42:06.816975 21117 net.cpp:165] Memory required for data: 495000000
I1112 17:42:06.816978 21117 layer_factory.hpp:77] Creating layer conv2_2
I1112 17:42:06.816984 21117 net.cpp:100] Creating Layer conv2_2
I1112 17:42:06.816987 21117 net.cpp:434] conv2_2 <- conv2_1
I1112 17:42:06.816990 21117 net.cpp:408] conv2_2 -> conv2_2
I1112 17:42:06.819975 21117 net.cpp:150] Setting up conv2_2
I1112 17:42:06.819985 21117 net.cpp:157] Top shape: 1 128 250 250 (8000000)
I1112 17:42:06.819988 21117 net.cpp:165] Memory required for data: 527000000
I1112 17:42:06.819993 21117 layer_factory.hpp:77] Creating layer relu2_2
I1112 17:42:06.819998 21117 net.cpp:100] Creating Layer relu2_2
I1112 17:42:06.820001 21117 net.cpp:434] relu2_2 <- conv2_2
I1112 17:42:06.820005 21117 net.cpp:395] relu2_2 -> conv2_2 (in-place)
I1112 17:42:06.820202 21117 net.cpp:150] Setting up relu2_2
I1112 17:42:06.820210 21117 net.cpp:157] Top shape: 1 128 250 250 (8000000)
I1112 17:42:06.820212 21117 net.cpp:165] Memory required for data: 559000000
I1112 17:42:06.820215 21117 layer_factory.hpp:77] Creating layer conv2_2_relu2_2_0_split
I1112 17:42:06.820220 21117 net.cpp:100] Creating Layer conv2_2_relu2_2_0_split
I1112 17:42:06.820224 21117 net.cpp:434] conv2_2_relu2_2_0_split <- conv2_2
I1112 17:42:06.820228 21117 net.cpp:408] conv2_2_relu2_2_0_split -> conv2_2_relu2_2_0_split_0
I1112 17:42:06.820235 21117 net.cpp:408] conv2_2_relu2_2_0_split -> conv2_2_relu2_2_0_split_1
I1112 17:42:06.820240 21117 net.cpp:408] conv2_2_relu2_2_0_split -> conv2_2_relu2_2_0_split_2
I1112 17:42:06.820295 21117 net.cpp:150] Setting up conv2_2_relu2_2_0_split
I1112 17:42:06.820302 21117 net.cpp:157] Top shape: 1 128 250 250 (8000000)
I1112 17:42:06.820304 21117 net.cpp:157] Top shape: 1 128 250 250 (8000000)
I1112 17:42:06.820307 21117 net.cpp:157] Top shape: 1 128 250 250 (8000000)
I1112 17:42:06.820309 21117 net.cpp:165] Memory required for data: 655000000
I1112 17:42:06.820312 21117 layer_factory.hpp:77] Creating layer pool2
I1112 17:42:06.820317 21117 net.cpp:100] Creating Layer pool2
I1112 17:42:06.820319 21117 net.cpp:434] pool2 <- conv2_2_relu2_2_0_split_0
I1112 17:42:06.820323 21117 net.cpp:408] pool2 -> pool2
I1112 17:42:06.820360 21117 net.cpp:150] Setting up pool2
I1112 17:42:06.820365 21117 net.cpp:157] Top shape: 1 128 125 125 (2000000)
I1112 17:42:06.820367 21117 net.cpp:165] Memory required for data: 663000000
I1112 17:42:06.820369 21117 layer_factory.hpp:77] Creating layer conv3_1
I1112 17:42:06.820376 21117 net.cpp:100] Creating Layer conv3_1
I1112 17:42:06.820379 21117 net.cpp:434] conv3_1 <- pool2
I1112 17:42:06.820384 21117 net.cpp:408] conv3_1 -> conv3_1
I1112 17:42:06.822858 21117 net.cpp:150] Setting up conv3_1
I1112 17:42:06.822870 21117 net.cpp:157] Top shape: 1 256 125 125 (4000000)
I1112 17:42:06.822872 21117 net.cpp:165] Memory required for data: 679000000
I1112 17:42:06.822880 21117 layer_factory.hpp:77] Creating layer relu3_1
I1112 17:42:06.822887 21117 net.cpp:100] Creating Layer relu3_1
I1112 17:42:06.822890 21117 net.cpp:434] relu3_1 <- conv3_1
I1112 17:42:06.822894 21117 net.cpp:395] relu3_1 -> conv3_1 (in-place)
I1112 17:42:06.823045 21117 net.cpp:150] Setting up relu3_1
I1112 17:42:06.823051 21117 net.cpp:157] Top shape: 1 256 125 125 (4000000)
I1112 17:42:06.823055 21117 net.cpp:165] Memory required for data: 695000000
I1112 17:42:06.823056 21117 layer_factory.hpp:77] Creating layer conv3_2
I1112 17:42:06.823063 21117 net.cpp:100] Creating Layer conv3_2
I1112 17:42:06.823066 21117 net.cpp:434] conv3_2 <- conv3_1
I1112 17:42:06.823071 21117 net.cpp:408] conv3_2 -> conv3_2
I1112 17:42:06.826501 21117 net.cpp:150] Setting up conv3_2
I1112 17:42:06.826512 21117 net.cpp:157] Top shape: 1 256 125 125 (4000000)
I1112 17:42:06.826514 21117 net.cpp:165] Memory required for data: 711000000
I1112 17:42:06.826520 21117 layer_factory.hpp:77] Creating layer relu3_2
I1112 17:42:06.826524 21117 net.cpp:100] Creating Layer relu3_2
I1112 17:42:06.826527 21117 net.cpp:434] relu3_2 <- conv3_2
I1112 17:42:06.826532 21117 net.cpp:395] relu3_2 -> conv3_2 (in-place)
I1112 17:42:06.826694 21117 net.cpp:150] Setting up relu3_2
I1112 17:42:06.826700 21117 net.cpp:157] Top shape: 1 256 125 125 (4000000)
I1112 17:42:06.826702 21117 net.cpp:165] Memory required for data: 727000000
I1112 17:42:06.826705 21117 layer_factory.hpp:77] Creating layer conv3_3
I1112 17:42:06.826714 21117 net.cpp:100] Creating Layer conv3_3
I1112 17:42:06.826715 21117 net.cpp:434] conv3_3 <- conv3_2
I1112 17:42:06.826721 21117 net.cpp:408] conv3_3 -> conv3_3
I1112 17:42:06.829939 21117 net.cpp:150] Setting up conv3_3
I1112 17:42:06.829952 21117 net.cpp:157] Top shape: 1 256 125 125 (4000000)
I1112 17:42:06.829953 21117 net.cpp:165] Memory required for data: 743000000
I1112 17:42:06.829958 21117 layer_factory.hpp:77] Creating layer relu3_3
I1112 17:42:06.829963 21117 net.cpp:100] Creating Layer relu3_3
I1112 17:42:06.829967 21117 net.cpp:434] relu3_3 <- conv3_3
I1112 17:42:06.829972 21117 net.cpp:395] relu3_3 -> conv3_3 (in-place)
I1112 17:42:06.830124 21117 net.cpp:150] Setting up relu3_3
I1112 17:42:06.830137 21117 net.cpp:157] Top shape: 1 256 125 125 (4000000)
I1112 17:42:06.830139 21117 net.cpp:165] Memory required for data: 759000000
I1112 17:42:06.830142 21117 layer_factory.hpp:77] Creating layer conv3_3_relu3_3_0_split
I1112 17:42:06.830147 21117 net.cpp:100] Creating Layer conv3_3_relu3_3_0_split
I1112 17:42:06.830148 21117 net.cpp:434] conv3_3_relu3_3_0_split <- conv3_3
I1112 17:42:06.830154 21117 net.cpp:408] conv3_3_relu3_3_0_split -> conv3_3_relu3_3_0_split_0
I1112 17:42:06.830159 21117 net.cpp:408] conv3_3_relu3_3_0_split -> conv3_3_relu3_3_0_split_1
I1112 17:42:06.830164 21117 net.cpp:408] conv3_3_relu3_3_0_split -> conv3_3_relu3_3_0_split_2
I1112 17:42:06.830224 21117 net.cpp:150] Setting up conv3_3_relu3_3_0_split
I1112 17:42:06.830229 21117 net.cpp:157] Top shape: 1 256 125 125 (4000000)
I1112 17:42:06.830231 21117 net.cpp:157] Top shape: 1 256 125 125 (4000000)
I1112 17:42:06.830235 21117 net.cpp:157] Top shape: 1 256 125 125 (4000000)
I1112 17:42:06.830235 21117 net.cpp:165] Memory required for data: 807000000
I1112 17:42:06.830238 21117 layer_factory.hpp:77] Creating layer pool3
I1112 17:42:06.830242 21117 net.cpp:100] Creating Layer pool3
I1112 17:42:06.830245 21117 net.cpp:434] pool3 <- conv3_3_relu3_3_0_split_0
I1112 17:42:06.830250 21117 net.cpp:408] pool3 -> pool3
I1112 17:42:06.830288 21117 net.cpp:150] Setting up pool3
I1112 17:42:06.830294 21117 net.cpp:157] Top shape: 1 256 63 63 (1016064)
I1112 17:42:06.830296 21117 net.cpp:165] Memory required for data: 811064256
I1112 17:42:06.830298 21117 layer_factory.hpp:77] Creating layer conv4_1
I1112 17:42:06.830304 21117 net.cpp:100] Creating Layer conv4_1
I1112 17:42:06.830307 21117 net.cpp:434] conv4_1 <- pool3
I1112 17:42:06.830312 21117 net.cpp:408] conv4_1 -> conv4_1
I1112 17:42:06.834467 21117 net.cpp:150] Setting up conv4_1
I1112 17:42:06.834480 21117 net.cpp:157] Top shape: 1 512 63 63 (2032128)
I1112 17:42:06.834482 21117 net.cpp:165] Memory required for data: 819192768
I1112 17:42:06.834487 21117 layer_factory.hpp:77] Creating layer relu4_1
I1112 17:42:06.834492 21117 net.cpp:100] Creating Layer relu4_1
I1112 17:42:06.834496 21117 net.cpp:434] relu4_1 <- conv4_1
I1112 17:42:06.834501 21117 net.cpp:395] relu4_1 -> conv4_1 (in-place)
I1112 17:42:06.834939 21117 net.cpp:150] Setting up relu4_1
I1112 17:42:06.834949 21117 net.cpp:157] Top shape: 1 512 63 63 (2032128)
I1112 17:42:06.834950 21117 net.cpp:165] Memory required for data: 827321280
I1112 17:42:06.834954 21117 layer_factory.hpp:77] Creating layer conv4_2
I1112 17:42:06.834959 21117 net.cpp:100] Creating Layer conv4_2
I1112 17:42:06.834962 21117 net.cpp:434] conv4_2 <- conv4_1
I1112 17:42:06.834967 21117 net.cpp:408] conv4_2 -> conv4_2
I1112 17:42:06.840548 21117 net.cpp:150] Setting up conv4_2
I1112 17:42:06.840560 21117 net.cpp:157] Top shape: 1 512 63 63 (2032128)
I1112 17:42:06.840562 21117 net.cpp:165] Memory required for data: 835449792
I1112 17:42:06.840571 21117 layer_factory.hpp:77] Creating layer relu4_2
I1112 17:42:06.840576 21117 net.cpp:100] Creating Layer relu4_2
I1112 17:42:06.840579 21117 net.cpp:434] relu4_2 <- conv4_2
I1112 17:42:06.840584 21117 net.cpp:395] relu4_2 -> conv4_2 (in-place)
I1112 17:42:06.841027 21117 net.cpp:150] Setting up relu4_2
I1112 17:42:06.841037 21117 net.cpp:157] Top shape: 1 512 63 63 (2032128)
I1112 17:42:06.841040 21117 net.cpp:165] Memory required for data: 843578304
I1112 17:42:06.841042 21117 layer_factory.hpp:77] Creating layer conv4_3
I1112 17:42:06.841049 21117 net.cpp:100] Creating Layer conv4_3
I1112 17:42:06.841053 21117 net.cpp:434] conv4_3 <- conv4_2
I1112 17:42:06.841058 21117 net.cpp:408] conv4_3 -> conv4_3
I1112 17:42:06.847113 21117 net.cpp:150] Setting up conv4_3
I1112 17:42:06.847129 21117 net.cpp:157] Top shape: 1 512 63 63 (2032128)
I1112 17:42:06.847132 21117 net.cpp:165] Memory required for data: 851706816
I1112 17:42:06.847137 21117 layer_factory.hpp:77] Creating layer relu4_3
I1112 17:42:06.847159 21117 net.cpp:100] Creating Layer relu4_3
I1112 17:42:06.847162 21117 net.cpp:434] relu4_3 <- conv4_3
I1112 17:42:06.847167 21117 net.cpp:395] relu4_3 -> conv4_3 (in-place)
I1112 17:42:06.847332 21117 net.cpp:150] Setting up relu4_3
I1112 17:42:06.847339 21117 net.cpp:157] Top shape: 1 512 63 63 (2032128)
I1112 17:42:06.847342 21117 net.cpp:165] Memory required for data: 859835328
I1112 17:42:06.847344 21117 layer_factory.hpp:77] Creating layer conv4_3_relu4_3_0_split
I1112 17:42:06.847350 21117 net.cpp:100] Creating Layer conv4_3_relu4_3_0_split
I1112 17:42:06.847352 21117 net.cpp:434] conv4_3_relu4_3_0_split <- conv4_3
I1112 17:42:06.847357 21117 net.cpp:408] conv4_3_relu4_3_0_split -> conv4_3_relu4_3_0_split_0
I1112 17:42:06.847364 21117 net.cpp:408] conv4_3_relu4_3_0_split -> conv4_3_relu4_3_0_split_1
I1112 17:42:06.847369 21117 net.cpp:408] conv4_3_relu4_3_0_split -> conv4_3_relu4_3_0_split_2
I1112 17:42:06.847427 21117 net.cpp:150] Setting up conv4_3_relu4_3_0_split
I1112 17:42:06.847434 21117 net.cpp:157] Top shape: 1 512 63 63 (2032128)
I1112 17:42:06.847436 21117 net.cpp:157] Top shape: 1 512 63 63 (2032128)
I1112 17:42:06.847438 21117 net.cpp:157] Top shape: 1 512 63 63 (2032128)
I1112 17:42:06.847440 21117 net.cpp:165] Memory required for data: 884220864
I1112 17:42:06.847443 21117 layer_factory.hpp:77] Creating layer pool4
I1112 17:42:06.847463 21117 net.cpp:100] Creating Layer pool4
I1112 17:42:06.847465 21117 net.cpp:434] pool4 <- conv4_3_relu4_3_0_split_0
I1112 17:42:06.847470 21117 net.cpp:408] pool4 -> pool4
I1112 17:42:06.847510 21117 net.cpp:150] Setting up pool4
I1112 17:42:06.847515 21117 net.cpp:157] Top shape: 1 512 32 32 (524288)
I1112 17:42:06.847517 21117 net.cpp:165] Memory required for data: 886318016
I1112 17:42:06.847519 21117 layer_factory.hpp:77] Creating layer conv5_1
I1112 17:42:06.847525 21117 net.cpp:100] Creating Layer conv5_1
I1112 17:42:06.847528 21117 net.cpp:434] conv5_1 <- pool4
I1112 17:42:06.847532 21117 net.cpp:408] conv5_1 -> conv5_1
I1112 17:42:06.853282 21117 net.cpp:150] Setting up conv5_1
I1112 17:42:06.853293 21117 net.cpp:157] Top shape: 1 512 32 32 (524288)
I1112 17:42:06.853296 21117 net.cpp:165] Memory required for data: 888415168
I1112 17:42:06.853302 21117 layer_factory.hpp:77] Creating layer relu5_1
I1112 17:42:06.853312 21117 net.cpp:100] Creating Layer relu5_1
I1112 17:42:06.853313 21117 net.cpp:434] relu5_1 <- conv5_1
I1112 17:42:06.853318 21117 net.cpp:395] relu5_1 -> conv5_1 (in-place)
I1112 17:42:06.853468 21117 net.cpp:150] Setting up relu5_1
I1112 17:42:06.853476 21117 net.cpp:157] Top shape: 1 512 32 32 (524288)
I1112 17:42:06.853477 21117 net.cpp:165] Memory required for data: 890512320
I1112 17:42:06.853480 21117 layer_factory.hpp:77] Creating layer conv5_2
I1112 17:42:06.853487 21117 net.cpp:100] Creating Layer conv5_2
I1112 17:42:06.853488 21117 net.cpp:434] conv5_2 <- conv5_1
I1112 17:42:06.853493 21117 net.cpp:408] conv5_2 -> conv5_2
I1112 17:42:06.859279 21117 net.cpp:150] Setting up conv5_2
I1112 17:42:06.859292 21117 net.cpp:157] Top shape: 1 512 32 32 (524288)
I1112 17:42:06.859294 21117 net.cpp:165] Memory required for data: 892609472
I1112 17:42:06.859299 21117 layer_factory.hpp:77] Creating layer relu5_2
I1112 17:42:06.859305 21117 net.cpp:100] Creating Layer relu5_2
I1112 17:42:06.859308 21117 net.cpp:434] relu5_2 <- conv5_2
I1112 17:42:06.859313 21117 net.cpp:395] relu5_2 -> conv5_2 (in-place)
I1112 17:42:06.859457 21117 net.cpp:150] Setting up relu5_2
I1112 17:42:06.859464 21117 net.cpp:157] Top shape: 1 512 32 32 (524288)
I1112 17:42:06.859467 21117 net.cpp:165] Memory required for data: 894706624
I1112 17:42:06.859469 21117 layer_factory.hpp:77] Creating layer conv5_3
I1112 17:42:06.859475 21117 net.cpp:100] Creating Layer conv5_3
I1112 17:42:06.859478 21117 net.cpp:434] conv5_3 <- conv5_2
I1112 17:42:06.859483 21117 net.cpp:408] conv5_3 -> conv5_3
I1112 17:42:06.865276 21117 net.cpp:150] Setting up conv5_3
I1112 17:42:06.865289 21117 net.cpp:157] Top shape: 1 512 32 32 (524288)
I1112 17:42:06.865291 21117 net.cpp:165] Memory required for data: 896803776
I1112 17:42:06.865296 21117 layer_factory.hpp:77] Creating layer relu5_3
I1112 17:42:06.865301 21117 net.cpp:100] Creating Layer relu5_3
I1112 17:42:06.865304 21117 net.cpp:434] relu5_3 <- conv5_3
I1112 17:42:06.865309 21117 net.cpp:395] relu5_3 -> conv5_3 (in-place)
I1112 17:42:06.865453 21117 net.cpp:150] Setting up relu5_3
I1112 17:42:06.865458 21117 net.cpp:157] Top shape: 1 512 32 32 (524288)
I1112 17:42:06.865460 21117 net.cpp:165] Memory required for data: 898900928
I1112 17:42:06.865463 21117 layer_factory.hpp:77] Creating layer conv5_3_relu5_3_0_split
I1112 17:42:06.865468 21117 net.cpp:100] Creating Layer conv5_3_relu5_3_0_split
I1112 17:42:06.865470 21117 net.cpp:434] conv5_3_relu5_3_0_split <- conv5_3
I1112 17:42:06.865475 21117 net.cpp:408] conv5_3_relu5_3_0_split -> conv5_3_relu5_3_0_split_0
I1112 17:42:06.865481 21117 net.cpp:408] conv5_3_relu5_3_0_split -> conv5_3_relu5_3_0_split_1
I1112 17:42:06.865486 21117 net.cpp:408] conv5_3_relu5_3_0_split -> conv5_3_relu5_3_0_split_2
I1112 17:42:06.865550 21117 net.cpp:150] Setting up conv5_3_relu5_3_0_split
I1112 17:42:06.865555 21117 net.cpp:157] Top shape: 1 512 32 32 (524288)
I1112 17:42:06.865557 21117 net.cpp:157] Top shape: 1 512 32 32 (524288)
I1112 17:42:06.865559 21117 net.cpp:157] Top shape: 1 512 32 32 (524288)
I1112 17:42:06.865561 21117 net.cpp:165] Memory required for data: 905192384
I1112 17:42:06.865563 21117 layer_factory.hpp:77] Creating layer pool5
I1112 17:42:06.865571 21117 net.cpp:100] Creating Layer pool5
I1112 17:42:06.865573 21117 net.cpp:434] pool5 <- conv5_3_relu5_3_0_split_0
I1112 17:42:06.865577 21117 net.cpp:408] pool5 -> pool5
I1112 17:42:06.865617 21117 net.cpp:150] Setting up pool5
…
I1112 17:42:06.917346 21117 net.cpp:165] Memory required for data: 907559872
I1112 17:42:06.917356 21117 layer_factory.hpp:77] Creating layer relu3-dsn6
I1112 17:42:06.917362 21117 net.cpp:100] Creating Layer relu3-dsn6
I1112 17:42:06.917366 21117 net.cpp:434] relu3-dsn6 <- conv4-dsn6
I1112 17:42:06.917369 21117 net.cpp:395] relu3-dsn6 -> conv4-dsn6 (in-place)
I1112 17:42:06.917517 21117 net.cpp:150] Setting up relu3-dsn6
I1112 17:42:06.917524 21117 net.cpp:157] Top shape: 1 256 17 17 (73984)
I1112 17:42:06.917526 21117 net.cpp:165] Memory required for data: 907855808
I1112 17:42:06.917528 21117 layer_factory.hpp:77] Creating layer conv5-dsn6
I1112 17:42:06.917536 21117 net.cpp:100] Creating Layer conv5-dsn6
I1112 17:42:06.917538 21117 net.cpp:434] conv5-dsn6 <- conv4-dsn6
I1112 17:42:06.917544 21117 net.cpp:408] conv5-dsn6 -> conv5-dsn6
I1112 17:42:06.918560 21117 net.cpp:150] Setting up conv5-dsn6
I1112 17:42:06.918570 21117 net.cpp:157] Top shape: 1 1 17 17 (289)
I1112 17:42:06.918571 21117 net.cpp:165] Memory required for data: 907856964
I1112 17:42:06.918576 21117 layer_factory.hpp:77] Creating layer conv5-dsn6_conv5-dsn6_0_split
I1112 17:42:06.918582 21117 net.cpp:100] Creating Layer conv5-dsn6_conv5-dsn6_0_split
I1112 17:42:06.918586 21117 net.cpp:434] conv5-dsn6_conv5-dsn6_0_split <- conv5-dsn6
I1112 17:42:06.918591 21117 net.cpp:408] conv5-dsn6_conv5-dsn6_0_split -> conv5-dsn6_conv5-dsn6_0_split_0
I1112 17:42:06.918597 21117 net.cpp:408] conv5-dsn6_conv5-dsn6_0_split -> conv5-dsn6_conv5-dsn6_0_split_1
I1112 17:42:06.918639 21117 net.cpp:150] Setting up conv5-dsn6_conv5-dsn6_0_split
I1112 17:42:06.918648 21117 net.cpp:157] Top shape: 1 1 17 17 (289)
I1112 17:42:06.918650 21117 net.cpp:157] Top shape: 1 1 17 17 (289)
I1112 17:42:06.918651 21117 net.cpp:165] Memory required for data: 907859276
I1112 17:42:06.918653 21117 layer_factory.hpp:77] Creating layer upsample32_dsn6
I1112 17:42:06.918660 21117 net.cpp:100] Creating Layer upsample32_dsn6
I1112 17:42:06.918663 21117 net.cpp:434] upsample32_dsn6 <- conv5-dsn6_conv5-dsn6_0_split_0
I1112 17:42:06.918668 21117 net.cpp:408] upsample32_dsn6 -> conv5-dsn6-up
I1112 17:42:06.920506 21117 net.cpp:150] Setting up upsample32_dsn6
I1112 17:42:06.920536 21117 net.cpp:157] Top shape: 1 1 576 576 (331776)
I1112 17:42:06.920539 21117 net.cpp:165] Memory required for data: 909186380
I1112 17:42:06.920547 21117 layer_factory.hpp:77] Creating layer crop-dsn6
I1112 17:42:06.920555 21117 net.cpp:100] Creating Layer crop-dsn6
I1112 17:42:06.920560 21117 net.cpp:434] crop-dsn6 <- conv5-dsn6-up
I1112 17:42:06.920567 21117 net.cpp:434] crop-dsn6 <- data_data_0_split_1
I1112 17:42:06.920573 21117 net.cpp:408] crop-dsn6 -> upscore-dsn6
I1112 17:42:06.920620 21117 net.cpp:150] Setting up crop-dsn6
I1112 17:42:06.920629 21117 net.cpp:157] Top shape: 1 1 500 500 (250000)
I1112 17:42:06.920632 21117 net.cpp:165] Memory required for data: 910186380
I1112 17:42:06.920636 21117 layer_factory.hpp:77] Creating layer loss6-score
I1112 17:42:06.920646 21117 net.cpp:100] Creating Layer loss6-score
I1112 17:42:06.920650 21117 net.cpp:434] loss6-score <- upscore-dsn6
I1112 17:42:06.920656 21117 net.cpp:434] loss6-score <- label_data_1_split_0
I1112 17:42:06.920662 21117 net.cpp:408] loss6-score -> loss6-score
I1112 17:42:06.922488 21117 net.cpp:150] Setting up loss6-score
I1112 17:42:06.922502 21117 net.cpp:157] Top shape: (1)
I1112 17:42:06.922519 21117 net.cpp:160]     with loss weight 1
I1112 17:42:06.922534 21117 net.cpp:165] Memory required for data: 910186384
I1112 17:42:06.922538 21117 layer_factory.hpp:77] Creating layer upsample2_dsn5
I1112 17:42:06.922549 21117 net.cpp:100] Creating Layer upsample2_dsn5
I1112 17:42:06.922554 21117 net.cpp:434] upsample2_dsn5 <- conv5-dsn6_conv5-dsn6_0_split_1
I1112 17:42:06.922561 21117 net.cpp:408] upsample2_dsn5 -> conv5-dsn6-5
I1112 17:42:06.922976 21117 net.cpp:150] Setting up upsample2_dsn5
I1112 17:42:06.922986 21117 net.cpp:157] Top shape: 1 1 36 36 (1296)
I1112 17:42:06.923004 21117 net.cpp:165] Memory required for data: 910191568
I1112 17:42:06.923012 21117 layer_factory.hpp:77] Creating layer crop1-dsn5
I1112 17:42:06.923018 21117 net.cpp:100] Creating Layer crop1-dsn5
I1112 17:42:06.923024 21117 net.cpp:434] crop1-dsn5 <- conv5-dsn6-5
I1112 17:42:06.923029 21117 net.cpp:434] crop1-dsn5 <- conv5_3_relu5_3_0_split_1
I1112 17:42:06.923040 21117 net.cpp:408] crop1-dsn5 -> weight-dsn6-5
I1112 17:42:06.923077 21117 net.cpp:150] Setting up crop1-dsn5
I1112 17:42:06.923084 21117 net.cpp:157] Top shape: 1 1 32 32 (1024)
I1112 17:42:06.923087 21117 net.cpp:165] Memory required for data: 910195664
I1112 17:42:06.923091 21117 layer_factory.hpp:77] Creating layer weight-dsn6-5_crop1-dsn5_0_split
I1112 17:42:06.923099 21117 net.cpp:100] Creating Layer weight-dsn6-5_crop1-dsn5_0_split
I1112 17:42:06.923102 21117 net.cpp:434] weight-dsn6-5_crop1-dsn5_0_split <- weight-dsn6-5
I1112 17:42:06.923110 21117 net.cpp:408] weight-dsn6-5_crop1-dsn5_0_split -> weight-dsn6-5_crop1-dsn5_0_split_0
I1112 17:42:06.923117 21117 net.cpp:408] weight-dsn6-5_crop1-dsn5_0_split -> weight-dsn6-5_crop1-dsn5_0_split_1
I1112 17:42:06.923182 21117 net.cpp:150] Setting up weight-dsn6-5_crop1-dsn5_0_split
I1112 17:42:06.923192 21117 net.cpp:157] Top shape: 1 1 32 32 (1024)
I1112 17:42:06.923197 21117 net.cpp:157] Top shape: 1 1 32 32 (1024)
I1112 17:42:06.923200 21117 net.cpp:165] Memory required for data: 910203856
I1112 17:42:06.923204 21117 layer_factory.hpp:77] Creating layer sigmoid-dsn5
I1112 17:42:06.923213 21117 net.cpp:100] Creating Layer sigmoid-dsn5
I1112 17:42:06.923216 21117 net.cpp:434] sigmoid-dsn5 <- weight-dsn6-5_crop1-dsn5_0_split_0
I1112 17:42:06.923223 21117 net.cpp:408] sigmoid-dsn5 -> sigmoid-dsn5
I1112 17:42:06.923494 21117 net.cpp:150] Setting up sigmoid-dsn5
I1112 17:42:06.923506 21117 net.cpp:157] Top shape: 1 1 32 32 (1024)
I1112 17:42:06.923508 21117 net.cpp:165] Memory required for data: 910207952
I1112 17:42:06.923512 21117 layer_factory.hpp:77] Creating layer rev-dsn5
I1112 17:42:06.923521 21117 net.cpp:100] Creating Layer rev-dsn5
I1112 17:42:06.923525 21117 net.cpp:434] rev-dsn5 <- sigmoid-dsn5
I1112 17:42:06.923532 21117 net.cpp:408] rev-dsn5 -> rev-dsn5
I1112 17:42:06.923569 21117 net.cpp:150] Setting up rev-dsn5
I1112 17:42:06.923578 21117 net.cpp:157] Top shape: 1 1 32 32 (1024)
I1112 17:42:06.923581 21117 net.cpp:165] Memory required for data: 910212048
I1112 17:42:06.923585 21117 layer_factory.hpp:77] Creating layer tile-dsn5
I1112 17:42:06.923593 21117 net.cpp:100] Creating Layer tile-dsn5
I1112 17:42:06.923597 21117 net.cpp:434] tile-dsn5 <- rev-dsn5
I1112 17:42:06.923604 21117 net.cpp:408] tile-dsn5 -> weight-dsn5
I1112 17:42:06.923640 21117 net.cpp:150] Setting up tile-dsn5
I1112 17:42:06.923647 21117 net.cpp:157] Top shape: 1 512 32 32 (524288)
I1112 17:42:06.923651 21117 net.cpp:165] Memory required for data: 912309200
I1112 17:42:06.923655 21117 layer_factory.hpp:77] Creating layer prod1-dsn5
I1112 17:42:06.923663 21117 net.cpp:100] Creating Layer prod1-dsn5
I1112 17:42:06.923667 21117 net.cpp:434] prod1-dsn5 <- conv5_3_relu5_3_0_split_2
I1112 17:42:06.923673 21117 net.cpp:434] prod1-dsn5 <- weight-dsn5
I1112 17:42:06.923679 21117 net.cpp:408] prod1-dsn5 -> prod1-dsn5
I1112 17:42:06.923727 21117 net.cpp:150] Setting up prod1-dsn5
I1112 17:42:06.923736 21117 net.cpp:157] Top shape: 1 512 32 32 (524288)
I1112 17:42:06.923740 21117 net.cpp:165] Memory required for data: 914406352
I1112 17:42:06.923744 21117 layer_factory.hpp:77] Creating layer conv1-dsn5
I1112 17:42:06.923754 21117 net.cpp:100] Creating Layer conv1-dsn5
I1112 17:42:06.923759 21117 net.cpp:434] conv1-dsn5 <- prod1-dsn5
I1112 17:42:06.923768 21117 net.cpp:408] conv1-dsn5 -> conv1-dsn5
I1112 17:42:06.925887 21117 net.cpp:150] Setting up conv1-dsn5
I1112 17:42:06.925917 21117 net.cpp:157] Top shape: 1 64 32 32 (65536)
I1112 17:42:06.925921 21117 net.cpp:165] Memory required for data: 914668496
I1112 17:42:06.925930 21117 layer_factory.hpp:77] Creating layer conv2-dsn5
I1112 17:42:06.925941 21117 net.cpp:100] Creating Layer conv2-dsn5
I1112 17:42:06.925945 21117 net.cpp:434] conv2-dsn5 <- conv1-dsn5
I1112 17:42:06.925956 21117 net.cpp:408] conv2-dsn5 -> conv2-dsn5
I1112 17:42:06.928094 21117 net.cpp:150] Setting up conv2-dsn5
I1112 17:42:06.928129 21117 net.cpp:157] Top shape: 1 64 32 32 (65536)
I1112 17:42:06.928134 21117 net.cpp:165] Memory required for data: 914930640
I1112 17:42:06.928143 21117 layer_factory.hpp:77] Creating layer relu1-dsn5
I1112 17:42:06.928149 21117 net.cpp:100] Creating Layer relu1-dsn5
I1112 17:42:06.928154 21117 net.cpp:434] relu1-dsn5 <- conv2-dsn5
I1112 17:42:06.928161 21117 net.cpp:395] relu1-dsn5 -> conv2-dsn5 (in-place)
I1112 17:42:06.928380 21117 net.cpp:150] Setting up relu1-dsn5
I1112 17:42:06.928390 21117 net.cpp:157] Top shape: 1 64 32 32 (65536)
I1112 17:42:06.928395 21117 net.cpp:165] Memory required for data: 915192784
I1112 17:42:06.928398 21117 layer_factory.hpp:77] Creating layer conv3-dsn5
I1112 17:42:06.928409 21117 net.cpp:100] Creating Layer conv3-dsn5
I1112 17:42:06.928413 21117 net.cpp:434] conv3-dsn5 <- conv2-dsn5
I1112 17:42:06.928422 21117 net.cpp:408] conv3-dsn5 -> conv3-dsn5
I1112 17:42:06.930567 21117 net.cpp:150] Setting up conv3-dsn5
I1112 17:42:06.930598 21117 net.cpp:157] Top shape: 1 64 32 32 (65536)
I1112 17:42:06.930601 21117 net.cpp:165] Memory required for data: 915454928
I1112 17:42:06.930609 21117 layer_factory.hpp:77] Creating layer relu2-dsn5
I1112 17:42:06.930616 21117 net.cpp:100] Creating Layer relu2-dsn5
I1112 17:42:06.930620 21117 net.cpp:434] relu2-dsn5 <- conv3-dsn5
I1112 17:42:06.930627 21117 net.cpp:395] relu2-dsn5 -> conv3-dsn5 (in-place)
I1112 17:42:06.930855 21117 net.cpp:150] Setting up relu2-dsn5
I1112 17:42:06.930864 21117 net.cpp:157] Top shape: 1 64 32 32 (65536)
I1112 17:42:06.930868 21117 net.cpp:165] Memory required for data: 915717072
I1112 17:42:06.930872 21117 layer_factory.hpp:77] Creating layer conv4-dsn5
I1112 17:42:06.930883 21117 net.cpp:100] Creating Layer conv4-dsn5
I1112 17:42:06.930887 21117 net.cpp:434] conv4-dsn5 <- conv3-dsn5
I1112 17:42:06.930896 21117 net.cpp:408] conv4-dsn5 -> conv4-dsn5
I1112 17:42:06.932531 21117 net.cpp:150] Setting up conv4-dsn5
I1112 17:42:06.932548 21117 net.cpp:157] Top shape: 1 1 32 32 (1024)
I1112 17:42:06.932566 21117 net.cpp:165] Memory required for data: 915721168
I1112 17:42:06.932574 21117 layer_factory.hpp:77] Creating layer sum-dsn5
I1112 17:42:06.932591 21117 net.cpp:100] Creating Layer sum-dsn5
I1112 17:42:06.932596 21117 net.cpp:434] sum-dsn5 <- conv4-dsn5
I1112 17:42:06.932602 21117 net.cpp:434] sum-dsn5 <- weight-dsn6-5_crop1-dsn5_0_split_1
I1112 17:42:06.932608 21117 net.cpp:408] sum-dsn5 -> sum-dsn5
I1112 17:42:06.932657 21117 net.cpp:150] Setting up sum-dsn5
I1112 17:42:06.932665 21117 net.cpp:157] Top shape: 1 1 32 32 (1024)
I1112 17:42:06.932668 21117 net.cpp:165] Memory required for data: 915725264
I1112 17:42:06.932673 21117 layer_factory.hpp:77] Creating layer sum-dsn5_sum-dsn5_0_split
I1112 17:42:06.932680 21117 net.cpp:100] Creating Layer sum-dsn5_sum-dsn5_0_split
I1112 17:42:06.932684 21117 net.cpp:434] sum-dsn5_sum-dsn5_0_split <- sum-dsn5
I1112 17:42:06.932693 21117 net.cpp:408] sum-dsn5_sum-dsn5_0_split -> sum-dsn5_sum-dsn5_0_split_0
I1112 17:42:06.932700 21117 net.cpp:408] sum-dsn5_sum-dsn5_0_split -> sum-dsn5_sum-dsn5_0_split_1
I1112 17:42:06.932760 21117 net.cpp:150] Setting up sum-dsn5_sum-dsn5_0_split
I1112 17:42:06.932768 21117 net.cpp:157] Top shape: 1 1 32 32 (1024)
I1112 17:42:06.932773 21117 net.cpp:157] Top shape: 1 1 32 32 (1024)
I1112 17:42:06.932776 21117 net.cpp:165] Memory required for data: 915733456
I1112 17:42:06.932780 21117 layer_factory.hpp:77] Creating layer upsample16_dsn5
I1112 17:42:06.932790 21117 net.cpp:100] Creating Layer upsample16_dsn5
I1112 17:42:06.932793 21117 net.cpp:434] upsample16_dsn5 <- sum-dsn5_sum-dsn5_0_split_0
I1112 17:42:06.932801 21117 net.cpp:408] upsample16_dsn5 -> sum-dsn5-up
I1112 17:42:06.934836 21117 net.cpp:150] Setting up upsample16_dsn5
I1112 17:42:06.934847 21117 net.cpp:157] Top shape: 1 1 528 528 (278784)
I1112 17:42:06.934865 21117 net.cpp:165] Memory required for data: 916848592
I1112 17:42:06.934870 21117 layer_factory.hpp:77] Creating layer crop2-dsn5
I1112 17:42:06.934875 21117 net.cpp:100] Creating Layer crop2-dsn5
I1112 17:42:06.934878 21117 net.cpp:434] crop2-dsn5 <- sum-dsn5-up
I1112 17:42:06.934882 21117 net.cpp:434] crop2-dsn5 <- data_data_0_split_2
I1112 17:42:06.934888 21117 net.cpp:408] crop2-dsn5 -> upscore-dsn5
I1112 17:42:06.934922 21117 net.cpp:150] Setting up crop2-dsn5
I1112 17:42:06.934927 21117 net.cpp:157] Top shape: 1 1 500 500 (250000)
I1112 17:42:06.934929 21117 net.cpp:165] Memory required for data: 917848592
I1112 17:42:06.934931 21117 layer_factory.hpp:77] Creating layer loss5-score
I1112 17:42:06.934939 21117 net.cpp:100] Creating Layer loss5-score
I1112 17:42:06.934942 21117 net.cpp:434] loss5-score <- upscore-dsn5
I1112 17:42:06.934945 21117 net.cpp:434] loss5-score <- label_data_1_split_1
I1112 17:42:06.934950 21117 net.cpp:408] loss5-score -> loss5-score
I1112 17:42:06.935171 21117 net.cpp:150] Setting up loss5-score
I1112 17:42:06.935181 21117 net.cpp:157] Top shape: (1)
I1112 17:42:06.935184 21117 net.cpp:160]     with loss weight 1
I1112 17:42:06.935192 21117 net.cpp:165] Memory required for data: 917848596
I1112 17:42:06.935195 21117 layer_factory.hpp:77] Creating layer upsample2_dsn4
I1112 17:42:06.935201 21117 net.cpp:100] Creating Layer upsample2_dsn4
I1112 17:42:06.935204 21117 net.cpp:434] upsample2_dsn4 <- sum-dsn5_sum-dsn5_0_split_1
I1112 17:42:06.935209 21117 net.cpp:408] upsample2_dsn4 -> sum-dsn5-4
I1112 17:42:06.935482 21117 net.cpp:150] Setting up upsample2_dsn4
I1112 17:42:06.935488 21117 net.cpp:157] Top shape: 1 1 66 66 (4356)
I1112 17:42:06.935490 21117 net.cpp:165] Memory required for data: 917866020
I1112 17:42:06.935494 21117 layer_factory.hpp:77] Creating layer crop1-dsn4
I1112 17:42:06.935499 21117 net.cpp:100] Creating Layer crop1-dsn4
I1112 17:42:06.935503 21117 net.cpp:434] crop1-dsn4 <- sum-dsn5-4
I1112 17:42:06.935505 21117 net.cpp:434] crop1-dsn4 <- conv4_3_relu4_3_0_split_1
I1112 17:42:06.935510 21117 net.cpp:408] crop1-dsn4 -> weight-dsn5-4
I1112 17:42:06.935536 21117 net.cpp:150] Setting up crop1-dsn4
I1112 17:42:06.935542 21117 net.cpp:157] Top shape: 1 1 63 63 (3969)
I1112 17:42:06.935544 21117 net.cpp:165] Memory required for data: 917881896
I1112 17:42:06.935547 21117 layer_factory.hpp:77] Creating layer weight-dsn5-4_crop1-dsn4_0_split
I1112 17:42:06.935551 21117 net.cpp:100] Creating Layer weight-dsn5-4_crop1-dsn4_0_split
I1112 17:42:06.935554 21117 net.cpp:434] weight-dsn5-4_crop1-dsn4_0_split <- weight-dsn5-4
I1112 17:42:06.935566 21117 net.cpp:408] weight-dsn5-4_crop1-dsn4_0_split -> weight-dsn5-4_crop1-dsn4_0_split_0
I1112 17:42:06.935571 21117 net.cpp:408] weight-dsn5-4_crop1-dsn4_0_split -> weight-dsn5-4_crop1-dsn4_0_split_1
I1112 17:42:06.935608 21117 net.cpp:150] Setting up weight-dsn5-4_crop1-dsn4_0_split
I1112 17:42:06.935613 21117 net.cpp:157] Top shape: 1 1 63 63 (3969)
I1112 17:42:06.935616 21117 net.cpp:157] Top shape: 1 1 63 63 (3969)
I1112 17:42:06.935618 21117 net.cpp:165] Memory required for data: 917913648
I1112 17:42:06.935621 21117 layer_factory.hpp:77] Creating layer sigmoid-dsn4
I1112 17:42:06.935626 21117 net.cpp:100] Creating Layer sigmoid-dsn4
I1112 17:42:06.935628 21117 net.cpp:434] sigmoid-dsn4 <- weight-dsn5-4_crop1-dsn4_0_split_0
I1112 17:42:06.935632 21117 net.cpp:408] sigmoid-dsn4 -> sigmoid-dsn4
I1112 17:42:06.935812 21117 net.cpp:150] Setting up sigmoid-dsn4
I1112 17:42:06.935820 21117 net.cpp:157] Top shape: 1 1 63 63 (3969)
I1112 17:42:06.935822 21117 net.cpp:165] Memory required for data: 917929524
I1112 17:42:06.935825 21117 layer_factory.hpp:77] Creating layer rev-dsn4
I1112 17:42:06.935830 21117 net.cpp:100] Creating Layer rev-dsn4
I1112 17:42:06.935833 21117 net.cpp:434] rev-dsn4 <- sigmoid-dsn4
I1112 17:42:06.935838 21117 net.cpp:408] rev-dsn4 -> rev-dsn4
I1112 17:42:06.935873 21117 net.cpp:150] Setting up rev-dsn4
I1112 17:42:06.935878 21117 net.cpp:157] Top shape: 1 1 63 63 (3969)
I1112 17:42:06.935879 21117 net.cpp:165] Memory required for data: 917945400
I1112 17:42:06.935883 21117 layer_factory.hpp:77] Creating layer tile-dsn4
I1112 17:42:06.935887 21117 net.cpp:100] Creating Layer tile-dsn4
I1112 17:42:06.935889 21117 net.cpp:434] tile-dsn4 <- rev-dsn4
I1112 17:42:06.935894 21117 net.cpp:408] tile-dsn4 -> weight-dsn4
I1112 17:42:06.935919 21117 net.cpp:150] Setting up tile-dsn4
I1112 17:42:06.935923 21117 net.cpp:157] Top shape: 1 512 63 63 (2032128)
I1112 17:42:06.935925 21117 net.cpp:165] Memory required for data: 926073912
I1112 17:42:06.935928 21117 layer_factory.hpp:77] Creating layer prod1-dsn4
I1112 17:42:06.935932 21117 net.cpp:100] Creating Layer prod1-dsn4
I1112 17:42:06.935935 21117 net.cpp:434] prod1-dsn4 <- conv4_3_relu4_3_0_split_2
I1112 17:42:06.935938 21117 net.cpp:434] prod1-dsn4 <- weight-dsn4
I1112 17:42:06.935943 21117 net.cpp:408] prod1-dsn4 -> prod1-dsn4
I1112 17:42:06.935966 21117 net.cpp:150] Setting up prod1-dsn4
I1112 17:42:06.935971 21117 net.cpp:157] Top shape: 1 512 63 63 (2032128)
I1112 17:42:06.935973 21117 net.cpp:165] Memory required for data: 934202424
I1112 17:42:06.935976 21117 layer_factory.hpp:77] Creating layer conv1-dsn4
I1112 17:42:06.935983 21117 net.cpp:100] Creating Layer conv1-dsn4
I1112 17:42:06.935986 21117 net.cpp:434] conv1-dsn4 <- prod1-dsn4
I1112 17:42:06.935992 21117 net.cpp:408] conv1-dsn4 -> conv1-dsn4
I1112 17:42:06.938081 21117 net.cpp:150] Setting up conv1-dsn4
I1112 17:42:06.938110 21117 net.cpp:157] Top shape: 1 64 63 63 (254016)
I1112 17:42:06.938114 21117 net.cpp:165] Memory required for data: 935218488
I1112 17:42:06.938122 21117 layer_factory.hpp:77] Creating layer conv2-dsn4
I1112 17:42:06.938150 21117 net.cpp:100] Creating Layer conv2-dsn4
I1112 17:42:06.938154 21117 net.cpp:434] conv2-dsn4 <- conv1-dsn4
I1112 17:42:06.938163 21117 net.cpp:408] conv2-dsn4 -> conv2-dsn4
I1112 17:42:06.940587 21117 net.cpp:150] Setting up conv2-dsn4
I1112 17:42:06.940613 21117 net.cpp:157] Top shape: 1 64 63 63 (254016)
I1112 17:42:06.940618 21117 net.cpp:165] Memory required for data: 936234552
I1112 17:42:06.940625 21117 layer_factory.hpp:77] Creating layer relu1-dsn4
I1112 17:42:06.940632 21117 net.cpp:100] Creating Layer relu1-dsn4
I1112 17:42:06.940636 21117 net.cpp:434] relu1-dsn4 <- conv2-dsn4
I1112 17:42:06.940644 21117 net.cpp:395] relu1-dsn4 -> conv2-dsn4 (in-place)
I1112 17:42:06.940876 21117 net.cpp:150] Setting up relu1-dsn4
I1112 17:42:06.940887 21117 net.cpp:157] Top shape: 1 64 63 63 (254016)
I1112 17:42:06.940891 21117 net.cpp:165] Memory required for data: 937250616
I1112 17:42:06.940894 21117 layer_factory.hpp:77] Creating layer conv3-dsn4
I1112 17:42:06.940903 21117 net.cpp:100] Creating Layer conv3-dsn4
I1112 17:42:06.940907 21117 net.cpp:434] conv3-dsn4 <- conv2-dsn4
I1112 17:42:06.940915 21117 net.cpp:408] conv3-dsn4 -> conv3-dsn4
I1112 17:42:06.942910 21117 net.cpp:150] Setting up conv3-dsn4
I1112 17:42:06.942939 21117 net.cpp:157] Top shape: 1 64 63 63 (254016)
I1112 17:42:06.942942 21117 net.cpp:165] Memory required for data: 938266680
I1112 17:42:06.942951 21117 layer_factory.hpp:77] Creating layer relu2-dsn4
I1112 17:42:06.942958 21117 net.cpp:100] Creating Layer relu2-dsn4
I1112 17:42:06.942962 21117 net.cpp:434] relu2-dsn4 <- conv3-dsn4
I1112 17:42:06.942968 21117 net.cpp:395] relu2-dsn4 -> conv3-dsn4 (in-place)
I1112 17:42:06.943796 21117 net.cpp:150] Setting up relu2-dsn4
I1112 17:42:06.943807 21117 net.cpp:157] Top shape: 1 64 63 63 (254016)
I1112 17:42:06.943825 21117 net.cpp:165] Memory required for data: 939282744
I1112 17:42:06.943827 21117 layer_factory.hpp:77] Creating layer conv4-dsn4
I1112 17:42:06.943835 21117 net.cpp:100] Creating Layer conv4-dsn4
I1112 17:42:06.943838 21117 net.cpp:434] conv4-dsn4 <- conv3-dsn4
I1112 17:42:06.943845 21117 net.cpp:408] conv4-dsn4 -> conv4-dsn4
I1112 17:42:06.944973 21117 net.cpp:150] Setting up conv4-dsn4
I1112 17:42:06.944984 21117 net.cpp:157] Top shape: 1 1 63 63 (3969)
I1112 17:42:06.945003 21117 net.cpp:165] Memory required for data: 939298620
I1112 17:42:06.945008 21117 layer_factory.hpp:77] Creating layer sum-dsn4
I1112 17:42:06.945013 21117 net.cpp:100] Creating Layer sum-dsn4
I1112 17:42:06.945015 21117 net.cpp:434] sum-dsn4 <- conv4-dsn4
I1112 17:42:06.945019 21117 net.cpp:434] sum-dsn4 <- weight-dsn5-4_crop1-dsn4_0_split_1
I1112 17:42:06.945024 21117 net.cpp:408] sum-dsn4 -> sum-dsn4
I1112 17:42:06.945053 21117 net.cpp:150] Setting up sum-dsn4
I1112 17:42:06.945058 21117 net.cpp:157] Top shape: 1 1 63 63 (3969)
I1112 17:42:06.945060 21117 net.cpp:165] Memory required for data: 939314496
I1112 17:42:06.945062 21117 layer_factory.hpp:77] Creating layer sum-dsn4_sum-dsn4_0_split
I1112 17:42:06.945066 21117 net.cpp:100] Creating Layer sum-dsn4_sum-dsn4_0_split
I1112 17:42:06.945070 21117 net.cpp:434] sum-dsn4_sum-dsn4_0_split <- sum-dsn4
I1112 17:42:06.945080 21117 net.cpp:408] sum-dsn4_sum-dsn4_0_split -> sum-dsn4_sum-dsn4_0_split_0
I1112 17:42:06.945086 21117 net.cpp:408] sum-dsn4_sum-dsn4_0_split -> sum-dsn4_sum-dsn4_0_split_1
I1112 17:42:06.945139 21117 net.cpp:150] Setting up sum-dsn4_sum-dsn4_0_split
I1112 17:42:06.945145 21117 net.cpp:157] Top shape: 1 1 63 63 (3969)
I1112 17:42:06.945148 21117 net.cpp:157] Top shape: 1 1 63 63 (3969)
I1112 17:42:06.945152 21117 net.cpp:165] Memory required for data: 939346248
I1112 17:42:06.945153 21117 layer_factory.hpp:77] Creating layer upsample8_dsn4
I1112 17:42:06.945159 21117 net.cpp:100] Creating Layer upsample8_dsn4
I1112 17:42:06.945163 21117 net.cpp:434] upsample8_dsn4 <- sum-dsn4_sum-dsn4_0_split_0
I1112 17:42:06.945166 21117 net.cpp:408] upsample8_dsn4 -> sum-dsn4-up
I1112 17:42:06.946609 21117 net.cpp:150] Setting up upsample8_dsn4
I1112 17:42:06.946620 21117 net.cpp:157] Top shape: 1 1 512 512 (262144)
I1112 17:42:06.946622 21117 net.cpp:165] Memory required for data: 940394824
I1112 17:42:06.946627 21117 layer_factory.hpp:77] Creating layer crop2-dsn4
I1112 17:42:06.946632 21117 net.cpp:100] Creating Layer crop2-dsn4
I1112 17:42:06.946635 21117 net.cpp:434] crop2-dsn4 <- sum-dsn4-up
I1112 17:42:06.946638 21117 net.cpp:434] crop2-dsn4 <- data_data_0_split_3
I1112 17:42:06.946643 21117 net.cpp:408] crop2-dsn4 -> upscore-dsn4
I1112 17:42:06.946676 21117 net.cpp:150] Setting up crop2-dsn4
I1112 17:42:06.946681 21117 net.cpp:157] Top shape: 1 1 500 500 (250000)
I1112 17:42:06.946683 21117 net.cpp:165] Memory required for data: 941394824
I1112 17:42:06.946686 21117 layer_factory.hpp:77] Creating layer loss4-score
I1112 17:42:06.946691 21117 net.cpp:100] Creating Layer loss4-score
I1112 17:42:06.946694 21117 net.cpp:434] loss4-score <- upscore-dsn4
I1112 17:42:06.946697 21117 net.cpp:434] loss4-score <- label_data_1_split_2
I1112 17:42:06.946702 21117 net.cpp:408] loss4-score -> loss4-score
I1112 17:42:06.946877 21117 net.cpp:150] Setting up loss4-score
I1112 17:42:06.946882 21117 net.cpp:157] Top shape: (1)
I1112 17:42:06.946883 21117 net.cpp:160]     with loss weight 1
I1112 17:42:06.946889 21117 net.cpp:165] Memory required for data: 941394828
I1112 17:42:06.946892 21117 layer_factory.hpp:77] Creating layer upsample2_dsn3
I1112 17:42:06.946898 21117 net.cpp:100] Creating Layer upsample2_dsn3
I1112 17:42:06.946900 21117 net.cpp:434] upsample2_dsn3 <- sum-dsn4_sum-dsn4_0_split_1
I1112 17:42:06.946905 21117 net.cpp:408] upsample2_dsn3 -> sum-dsn4-3
I1112 17:42:06.947182 21117 net.cpp:150] Setting up upsample2_dsn3
I1112 17:42:06.947188 21117 net.cpp:157] Top shape: 1 1 128 128 (16384)
I1112 17:42:06.947190 21117 net.cpp:165] Memory required for data: 941460364
I1112 17:42:06.947194 21117 layer_factory.hpp:77] Creating layer crop1-dsn3
I1112 17:42:06.947199 21117 net.cpp:100] Creating Layer crop1-dsn3
I1112 17:42:06.947201 21117 net.cpp:434] crop1-dsn3 <- sum-dsn4-3
I1112 17:42:06.947204 21117 net.cpp:434] crop1-dsn3 <- conv3_3_relu3_3_0_split_1
I1112 17:42:06.947209 21117 net.cpp:408] crop1-dsn3 -> weight-dsn4-3
I1112 17:42:06.947237 21117 net.cpp:150] Setting up crop1-dsn3
I1112 17:42:06.947240 21117 net.cpp:157] Top shape: 1 1 125 125 (15625)
I1112 17:42:06.947242 21117 net.cpp:165] Memory required for data: 941522864
I1112 17:42:06.947244 21117 layer_factory.hpp:77] Creating layer weight-dsn4-3_crop1-dsn3_0_split
I1112 17:42:06.947249 21117 net.cpp:100] Creating Layer weight-dsn4-3_crop1-dsn3_0_split
I1112 17:42:06.947252 21117 net.cpp:434] weight-dsn4-3_crop1-dsn3_0_split <- weight-dsn4-3
I1112 17:42:06.947257 21117 net.cpp:408] weight-dsn4-3_crop1-dsn3_0_split -> weight-dsn4-3_crop1-dsn3_0_split_0
I1112 17:42:06.947261 21117 net.cpp:408] weight-dsn4-3_crop1-dsn3_0_split -> weight-dsn4-3_crop1-dsn3_0_split_1
I1112 17:42:06.947296 21117 net.cpp:150] Setting up weight-dsn4-3_crop1-dsn3_0_split
I1112 17:42:06.947300 21117 net.cpp:157] Top shape: 1 1 125 125 (15625)
I1112 17:42:06.947304 21117 net.cpp:157] Top shape: 1 1 125 125 (15625)
I1112 17:42:06.947305 21117 net.cpp:165] Memory required for data: 941647864
I1112 17:42:06.947306 21117 layer_factory.hpp:77] Creating layer sigmoid-dsn3
I1112 17:42:06.947311 21117 net.cpp:100] Creating Layer sigmoid-dsn3
I1112 17:42:06.947314 21117 net.cpp:434] sigmoid-dsn3 <- weight-dsn4-3_crop1-dsn3_0_split_0
I1112 17:42:06.947317 21117 net.cpp:408] sigmoid-dsn3 -> sigmoid-dsn3
I1112 17:42:06.947490 21117 net.cpp:150] Setting up sigmoid-dsn3
I1112 17:42:06.947499 21117 net.cpp:157] Top shape: 1 1 125 125 (15625)
I1112 17:42:06.947500 21117 net.cpp:165] Memory required for data: 941710364
I1112 17:42:06.947502 21117 layer_factory.hpp:77] Creating layer rev-dsn3
I1112 17:42:06.947507 21117 net.cpp:100] Creating Layer rev-dsn3
I1112 17:42:06.947510 21117 net.cpp:434] rev-dsn3 <- sigmoid-dsn3
I1112 17:42:06.947513 21117 net.cpp:408] rev-dsn3 -> rev-dsn3
I1112 17:42:06.947538 21117 net.cpp:150] Setting up rev-dsn3
I1112 17:42:06.947541 21117 net.cpp:157] Top shape: 1 1 125 125 (15625)
I1112 17:42:06.947544 21117 net.cpp:165] Memory required for data: 941772864
I1112 17:42:06.947546 21117 layer_factory.hpp:77] Creating layer tile-dsn3
I1112 17:42:06.947551 21117 net.cpp:100] Creating Layer tile-dsn3
I1112 17:42:06.947553 21117 net.cpp:434] tile-dsn3 <- rev-dsn3
I1112 17:42:06.947557 21117 net.cpp:408] tile-dsn3 -> weight-dsn3
I1112 17:42:06.947577 21117 net.cpp:150] Setting up tile-dsn3
I1112 17:42:06.947582 21117 net.cpp:157] Top shape: 1 256 125 125 (4000000)
I1112 17:42:06.947584 21117 net.cpp:165] Memory required for data: 957772864
I1112 17:42:06.947587 21117 layer_factory.hpp:77] Creating layer prod1-dsn3
I1112 17:42:06.947592 21117 net.cpp:100] Creating Layer prod1-dsn3
I1112 17:42:06.947594 21117 net.cpp:434] prod1-dsn3 <- conv3_3_relu3_3_0_split_2
I1112 17:42:06.947598 21117 net.cpp:434] prod1-dsn3 <- weight-dsn3
I1112 17:42:06.947602 21117 net.cpp:408] prod1-dsn3 -> prod1-dsn3
I1112 17:42:06.947624 21117 net.cpp:150] Setting up prod1-dsn3
I1112 17:42:06.947629 21117 net.cpp:157] Top shape: 1 256 125 125 (4000000)
I1112 17:42:06.947631 21117 net.cpp:165] Memory required for data: 973772864
I1112 17:42:06.947633 21117 layer_factory.hpp:77] Creating layer conv1-dsn3
I1112 17:42:06.947641 21117 net.cpp:100] Creating Layer conv1-dsn3
I1112 17:42:06.947643 21117 net.cpp:434] conv1-dsn3 <- prod1-dsn3
I1112 17:42:06.947647 21117 net.cpp:408] conv1-dsn3 -> conv1-dsn3
I1112 17:42:06.949146 21117 net.cpp:150] Setting up conv1-dsn3
I1112 17:42:06.949156 21117 net.cpp:157] Top shape: 1 64 125 125 (1000000)
I1112 17:42:06.949158 21117 net.cpp:165] Memory required for data: 977772864
I1112 17:42:06.949172 21117 layer_factory.hpp:77] Creating layer conv2-dsn3
I1112 17:42:06.949182 21117 net.cpp:100] Creating Layer conv2-dsn3
I1112 17:42:06.949184 21117 net.cpp:434] conv2-dsn3 <- conv1-dsn3
I1112 17:42:06.949190 21117 net.cpp:408] conv2-dsn3 -> conv2-dsn3
I1112 17:42:06.950568 21117 net.cpp:150] Setting up conv2-dsn3
I1112 17:42:06.950579 21117 net.cpp:157] Top shape: 1 64 125 125 (1000000)
I1112 17:42:06.950582 21117 net.cpp:165] Memory required for data: 981772864
I1112 17:42:06.950587 21117 layer_factory.hpp:77] Creating layer relu1-dsn3
I1112 17:42:06.950592 21117 net.cpp:100] Creating Layer relu1-dsn3
I1112 17:42:06.950594 21117 net.cpp:434] relu1-dsn3 <- conv2-dsn3
I1112 17:42:06.950598 21117 net.cpp:395] relu1-dsn3 -> conv2-dsn3 (in-place)
I1112 17:42:06.950752 21117 net.cpp:150] Setting up relu1-dsn3
I1112 17:42:06.950759 21117 net.cpp:157] Top shape: 1 64 125 125 (1000000)
I1112 17:42:06.950762 21117 net.cpp:165] Memory required for data: 985772864
I1112 17:42:06.950763 21117 layer_factory.hpp:77] Creating layer conv3-dsn3
I1112 17:42:06.950770 21117 net.cpp:100] Creating Layer conv3-dsn3
I1112 17:42:06.950773 21117 net.cpp:434] conv3-dsn3 <- conv2-dsn3
I1112 17:42:06.950778 21117 net.cpp:408] conv3-dsn3 -> conv3-dsn3
I1112 17:42:06.952139 21117 net.cpp:150] Setting up conv3-dsn3
I1112 17:42:06.952155 21117 net.cpp:157] Top shape: 1 64 125 125 (1000000)
I1112 17:42:06.952157 21117 net.cpp:165] Memory required for data: 989772864
I1112 17:42:06.952162 21117 layer_factory.hpp:77] Creating layer relu2-dsn3
I1112 17:42:06.952167 21117 net.cpp:100] Creating Layer relu2-dsn3
I1112 17:42:06.952169 21117 net.cpp:434] relu2-dsn3 <- conv3-dsn3
I1112 17:42:06.952189 21117 net.cpp:395] relu2-dsn3 -> conv3-dsn3 (in-place)
I1112 17:42:06.952338 21117 net.cpp:150] Setting up relu2-dsn3
I1112 17:42:06.952345 21117 net.cpp:157] Top shape: 1 64 125 125 (1000000)
I1112 17:42:06.952347 21117 net.cpp:165] Memory required for data: 993772864
I1112 17:42:06.952350 21117 layer_factory.hpp:77] Creating layer conv4-dsn3
I1112 17:42:06.952358 21117 net.cpp:100] Creating Layer conv4-dsn3
I1112 17:42:06.952360 21117 net.cpp:434] conv4-dsn3 <- conv3-dsn3
I1112 17:42:06.952365 21117 net.cpp:408] conv4-dsn3 -> conv4-dsn3
I1112 17:42:06.953738 21117 net.cpp:150] Setting up conv4-dsn3
I1112 17:42:06.953748 21117 net.cpp:157] Top shape: 1 1 125 125 (15625)
I1112 17:42:06.953752 21117 net.cpp:165] Memory required for data: 993835364
I1112 17:42:06.953757 21117 layer_factory.hpp:77] Creating layer sum-dsn3
I1112 17:42:06.953761 21117 net.cpp:100] Creating Layer sum-dsn3
I1112 17:42:06.953764 21117 net.cpp:434] sum-dsn3 <- conv4-dsn3
I1112 17:42:06.953768 21117 net.cpp:434] sum-dsn3 <- weight-dsn4-3_crop1-dsn3_0_split_1
I1112 17:42:06.953773 21117 net.cpp:408] sum-dsn3 -> sum-dsn3
I1112 17:42:06.953804 21117 net.cpp:150] Setting up sum-dsn3
I1112 17:42:06.953809 21117 net.cpp:157] Top shape: 1 1 125 125 (15625)
I1112 17:42:06.953809 21117 net.cpp:165] Memory required for data: 993897864
I1112 17:42:06.953812 21117 layer_factory.hpp:77] Creating layer sum-dsn3_sum-dsn3_0_split
I1112 17:42:06.953816 21117 net.cpp:100] Creating Layer sum-dsn3_sum-dsn3_0_split
I1112 17:42:06.953819 21117 net.cpp:434] sum-dsn3_sum-dsn3_0_split <- sum-dsn3
I1112 17:42:06.953824 21117 net.cpp:408] sum-dsn3_sum-dsn3_0_split -> sum-dsn3_sum-dsn3_0_split_0
I1112 17:42:06.953830 21117 net.cpp:408] sum-dsn3_sum-dsn3_0_split -> sum-dsn3_sum-dsn3_0_split_1
I1112 17:42:06.953866 21117 net.cpp:150] Setting up sum-dsn3_sum-dsn3_0_split
I1112 17:42:06.953871 21117 net.cpp:157] Top shape: 1 1 125 125 (15625)
I1112 17:42:06.953874 21117 net.cpp:157] Top shape: 1 1 125 125 (15625)
I1112 17:42:06.953876 21117 net.cpp:165] Memory required for data: 994022864
I1112 17:42:06.953878 21117 layer_factory.hpp:77] Creating layer upsample4_dsn3
I1112 17:42:06.953883 21117 net.cpp:100] Creating Layer upsample4_dsn3
I1112 17:42:06.953886 21117 net.cpp:434] upsample4_dsn3 <- sum-dsn3_sum-dsn3_0_split_0
I1112 17:42:06.953891 21117 net.cpp:408] upsample4_dsn3 -> sum-dsn3-up
I1112 17:42:06.955322 21117 net.cpp:150] Setting up upsample4_dsn3
I1112 17:42:06.955332 21117 net.cpp:157] Top shape: 1 1 504 504 (254016)
I1112 17:42:06.955349 21117 net.cpp:165] Memory required for data: 995038928
I1112 17:42:06.955354 21117 layer_factory.hpp:77] Creating layer crop2-dsn3
I1112 17:42:06.955359 21117 net.cpp:100] Creating Layer crop2-dsn3
I1112 17:42:06.955363 21117 net.cpp:434] crop2-dsn3 <- sum-dsn3-up
I1112 17:42:06.955366 21117 net.cpp:434] crop2-dsn3 <- data_data_0_split_4
I1112 17:42:06.955371 21117 net.cpp:408] crop2-dsn3 -> upscore-dsn3
I1112 17:42:06.955405 21117 net.cpp:150] Setting up crop2-dsn3
I1112 17:42:06.955410 21117 net.cpp:157] Top shape: 1 1 500 500 (250000)
I1112 17:42:06.955412 21117 net.cpp:165] Memory required for data: 996038928
I1112 17:42:06.955415 21117 layer_factory.hpp:77] Creating layer loss3-score
I1112 17:42:06.955435 21117 net.cpp:100] Creating Layer loss3-score
I1112 17:42:06.955437 21117 net.cpp:434] loss3-score <- upscore-dsn3
I1112 17:42:06.955456 21117 net.cpp:434] loss3-score <- label_data_1_split_3
I1112 17:42:06.955461 21117 net.cpp:408] loss3-score -> loss3-score
I1112 17:42:06.955648 21117 net.cpp:150] Setting up loss3-score
I1112 17:42:06.955654 21117 net.cpp:157] Top shape: (1)
I1112 17:42:06.955657 21117 net.cpp:160]     with loss weight 1
I1112 17:42:06.955662 21117 net.cpp:165] Memory required for data: 996038932
I1112 17:42:06.955663 21117 layer_factory.hpp:77] Creating layer upsample2_1-dsn2
I1112 17:42:06.955670 21117 net.cpp:100] Creating Layer upsample2_1-dsn2
I1112 17:42:06.955673 21117 net.cpp:434] upsample2_1-dsn2 <- sum-dsn3_sum-dsn3_0_split_1
I1112 17:42:06.955678 21117 net.cpp:408] upsample2_1-dsn2 -> sum-dsn3-2
I1112 17:42:06.955996 21117 net.cpp:150] Setting up upsample2_1-dsn2
I1112 17:42:06.956001 21117 net.cpp:157] Top shape: 1 1 252 252 (63504)
I1112 17:42:06.956003 21117 net.cpp:165] Memory required for data: 996292948
I1112 17:42:06.956007 21117 layer_factory.hpp:77] Creating layer crop1-dsn2
I1112 17:42:06.956012 21117 net.cpp:100] Creating Layer crop1-dsn2
I1112 17:42:06.956014 21117 net.cpp:434] crop1-dsn2 <- sum-dsn3-2
I1112 17:42:06.956017 21117 net.cpp:434] crop1-dsn2 <- conv2_2_relu2_2_0_split_1
I1112 17:42:06.956022 21117 net.cpp:408] crop1-dsn2 -> weight-dsn3-2
I1112 17:42:06.956050 21117 net.cpp:150] Setting up crop1-dsn2
I1112 17:42:06.956054 21117 net.cpp:157] Top shape: 1 1 250 250 (62500)
I1112 17:42:06.956056 21117 net.cpp:165] Memory required for data: 996542948
I1112 17:42:06.956058 21117 layer_factory.hpp:77] Creating layer weight-dsn3-2_crop1-dsn2_0_split
I1112 17:42:06.956063 21117 net.cpp:100] Creating Layer weight-dsn3-2_crop1-dsn2_0_split
I1112 17:42:06.956066 21117 net.cpp:434] weight-dsn3-2_crop1-dsn2_0_split <- weight-dsn3-2
I1112 17:42:06.956070 21117 net.cpp:408] weight-dsn3-2_crop1-dsn2_0_split -> weight-dsn3-2_crop1-dsn2_0_split_0
I1112 17:42:06.956075 21117 net.cpp:408] weight-dsn3-2_crop1-dsn2_0_split -> weight-dsn3-2_crop1-dsn2_0_split_1
I1112 17:42:06.956110 21117 net.cpp:150] Setting up weight-dsn3-2_crop1-dsn2_0_split
I1112 17:42:06.956115 21117 net.cpp:157] Top shape: 1 1 250 250 (62500)
I1112 17:42:06.956118 21117 net.cpp:157] Top shape: 1 1 250 250 (62500)
I1112 17:42:06.956120 21117 net.cpp:165] Memory required for data: 997042948
I1112 17:42:06.956121 21117 layer_factory.hpp:77] Creating layer sigmoid-dsn2
I1112 17:42:06.956131 21117 net.cpp:100] Creating Layer sigmoid-dsn2
I1112 17:42:06.956133 21117 net.cpp:434] sigmoid-dsn2 <- weight-dsn3-2_crop1-dsn2_0_split_0
I1112 17:42:06.956146 21117 net.cpp:408] sigmoid-dsn2 -> sigmoid-dsn2
I1112 17:42:06.956337 21117 net.cpp:150] Setting up sigmoid-dsn2
I1112 17:42:06.956346 21117 net.cpp:157] Top shape: 1 1 250 250 (62500)
I1112 17:42:06.956347 21117 net.cpp:165] Memory required for data: 997292948
I1112 17:42:06.956351 21117 layer_factory.hpp:77] Creating layer rev-dsn2
I1112 17:42:06.956354 21117 net.cpp:100] Creating Layer rev-dsn2
I1112 17:42:06.956357 21117 net.cpp:434] rev-dsn2 <- sigmoid-dsn2
I1112 17:42:06.956362 21117 net.cpp:408] rev-dsn2 -> rev-dsn2
I1112 17:42:06.956387 21117 net.cpp:150] Setting up rev-dsn2
I1112 17:42:06.956391 21117 net.cpp:157] Top shape: 1 1 250 250 (62500)
I1112 17:42:06.956393 21117 net.cpp:165] Memory required for data: 997542948
I1112 17:42:06.956395 21117 layer_factory.hpp:77] Creating layer tile-dsn2
I1112 17:42:06.956400 21117 net.cpp:100] Creating Layer tile-dsn2
I1112 17:42:06.956403 21117 net.cpp:434] tile-dsn2 <- rev-dsn2
I1112 17:42:06.956406 21117 net.cpp:408] tile-dsn2 -> weight-dsn2
I1112 17:42:06.956434 21117 net.cpp:150] Setting up tile-dsn2
I1112 17:42:06.956439 21117 net.cpp:157] Top shape: 1 128 250 250 (8000000)
I1112 17:42:06.956441 21117 net.cpp:165] Memory required for data: 1029542948
I1112 17:42:06.956444 21117 layer_factory.hpp:77] Creating layer prod1-dsn2
I1112 17:42:06.956449 21117 net.cpp:100] Creating Layer prod1-dsn2
I1112 17:42:06.956451 21117 net.cpp:434] prod1-dsn2 <- conv2_2_relu2_2_0_split_2
I1112 17:42:06.956454 21117 net.cpp:434] prod1-dsn2 <- weight-dsn2
I1112 17:42:06.956459 21117 net.cpp:408] prod1-dsn2 -> prod1-dsn2
I1112 17:42:06.956482 21117 net.cpp:150] Setting up prod1-dsn2
I1112 17:42:06.956487 21117 net.cpp:157] Top shape: 1 128 250 250 (8000000)
I1112 17:42:06.956490 21117 net.cpp:165] Memory required for data: 1061542948
I1112 17:42:06.956492 21117 layer_factory.hpp:77] Creating layer conv1-dsn2
I1112 17:42:06.956499 21117 net.cpp:100] Creating Layer conv1-dsn2
I1112 17:42:06.956501 21117 net.cpp:434] conv1-dsn2 <- prod1-dsn2
I1112 17:42:06.956506 21117 net.cpp:408] conv1-dsn2 -> conv1-dsn2
I1112 17:42:06.957671 21117 net.cpp:150] Setting up conv1-dsn2
I1112 17:42:06.957682 21117 net.cpp:157] Top shape: 1 64 250 250 (4000000)
I1112 17:42:06.957685 21117 net.cpp:165] Memory required for data: 1077542948
I1112 17:42:06.957690 21117 layer_factory.hpp:77] Creating layer conv2-dsn2
I1112 17:42:06.957697 21117 net.cpp:100] Creating Layer conv2-dsn2
I1112 17:42:06.957700 21117 net.cpp:434] conv2-dsn2 <- conv1-dsn2
I1112 17:42:06.957706 21117 net.cpp:408] conv2-dsn2 -> conv2-dsn2
I1112 17:42:06.961064 21117 net.cpp:150] Setting up conv2-dsn2
I1112 17:42:06.961076 21117 net.cpp:157] Top shape: 1 64 250 250 (4000000)
I1112 17:42:06.961078 21117 net.cpp:165] Memory required for data: 1093542948
I1112 17:42:06.961084 21117 layer_factory.hpp:77] Creating layer relu1-dsn2
I1112 17:42:06.961089 21117 net.cpp:100] Creating Layer relu1-dsn2
I1112 17:42:06.961092 21117 net.cpp:434] relu1-dsn2 <- conv2-dsn2
I1112 17:42:06.961097 21117 net.cpp:395] relu1-dsn2 -> conv2-dsn2 (in-place)
I1112 17:42:06.961262 21117 net.cpp:150] Setting up relu1-dsn2
I1112 17:42:06.961271 21117 net.cpp:157] Top shape: 1 64 250 250 (4000000)
I1112 17:42:06.961272 21117 net.cpp:165] Memory required for data: 1109542948
I1112 17:42:06.961274 21117 layer_factory.hpp:77] Creating layer conv3-dsn2
I1112 17:42:06.961282 21117 net.cpp:100] Creating Layer conv3-dsn2
I1112 17:42:06.961284 21117 net.cpp:434] conv3-dsn2 <- conv2-dsn2
I1112 17:42:06.961290 21117 net.cpp:408] conv3-dsn2 -> conv3-dsn2
I1112 17:42:06.962647 21117 net.cpp:150] Setting up conv3-dsn2
I1112 17:42:06.962658 21117 net.cpp:157] Top shape: 1 64 250 250 (4000000)
I1112 17:42:06.962661 21117 net.cpp:165] Memory required for data: 1125542948
I1112 17:42:06.962666 21117 layer_factory.hpp:77] Creating layer relu2-dsn2
I1112 17:42:06.962671 21117 net.cpp:100] Creating Layer relu2-dsn2
I1112 17:42:06.962673 21117 net.cpp:434] relu2-dsn2 <- conv3-dsn2
I1112 17:42:06.962677 21117 net.cpp:395] relu2-dsn2 -> conv3-dsn2 (in-place)
I1112 17:42:06.962826 21117 net.cpp:150] Setting up relu2-dsn2
I1112 17:42:06.962832 21117 net.cpp:157] Top shape: 1 64 250 250 (4000000)
I1112 17:42:06.962834 21117 net.cpp:165] Memory required for data: 1141542948
I1112 17:42:06.962837 21117 layer_factory.hpp:77] Creating layer conv4-dsn2
I1112 17:42:06.962844 21117 net.cpp:100] Creating Layer conv4-dsn2
I1112 17:42:06.962847 21117 net.cpp:434] conv4-dsn2 <- conv3-dsn2
I1112 17:42:06.962852 21117 net.cpp:408] conv4-dsn2 -> conv4-dsn2
I1112 17:42:06.963908 21117 net.cpp:150] Setting up conv4-dsn2
I1112 17:42:06.963919 21117 net.cpp:157] Top shape: 1 1 250 250 (62500)
I1112 17:42:06.963922 21117 net.cpp:165] Memory required for data: 1141792948
I1112 17:42:06.963927 21117 layer_factory.hpp:77] Creating layer sum-dsn2
I1112 17:42:06.963932 21117 net.cpp:100] Creating Layer sum-dsn2
I1112 17:42:06.963935 21117 net.cpp:434] sum-dsn2 <- conv4-dsn2
I1112 17:42:06.963938 21117 net.cpp:434] sum-dsn2 <- weight-dsn3-2_crop1-dsn2_0_split_1
I1112 17:42:06.963943 21117 net.cpp:408] sum-dsn2 -> sum-dsn2
I1112 17:42:06.963973 21117 net.cpp:150] Setting up sum-dsn2
I1112 17:42:06.963976 21117 net.cpp:157] Top shape: 1 1 250 250 (62500)
I1112 17:42:06.963979 21117 net.cpp:165] Memory required for data: 1142042948
I1112 17:42:06.963980 21117 layer_factory.hpp:77] Creating layer upsample2_2-dsn2
I1112 17:42:06.963986 21117 net.cpp:100] Creating Layer upsample2_2-dsn2
I1112 17:42:06.963989 21117 net.cpp:434] upsample2_2-dsn2 <- sum-dsn2
I1112 17:42:06.963994 21117 net.cpp:408] upsample2_2-dsn2 -> sum-dsn2-up
I1112 17:42:06.965410 21117 net.cpp:150] Setting up upsample2_2-dsn2
I1112 17:42:06.965421 21117 net.cpp:157] Top shape: 1 1 502 502 (252004)
I1112 17:42:06.965423 21117 net.cpp:165] Memory required for data: 1143050964
I1112 17:42:06.965428 21117 layer_factory.hpp:77] Creating layer crop2-dsn2
I1112 17:42:06.965433 21117 net.cpp:100] Creating Layer crop2-dsn2
I1112 17:42:06.965436 21117 net.cpp:434] crop2-dsn2 <- sum-dsn2-up
I1112 17:42:06.965440 21117 net.cpp:434] crop2-dsn2 <- data_data_0_split_5
I1112 17:42:06.965445 21117 net.cpp:408] crop2-dsn2 -> upscore-dsn2
I1112 17:42:06.965478 21117 net.cpp:150] Setting up crop2-dsn2
I1112 17:42:06.965483 21117 net.cpp:157] Top shape: 1 1 500 500 (250000)
I1112 17:42:06.965485 21117 net.cpp:165] Memory required for data: 1144050964
I1112 17:42:06.965487 21117 layer_factory.hpp:77] Creating layer upscore-dsn2_crop2-dsn2_0_split
I1112 17:42:06.965492 21117 net.cpp:100] Creating Layer upscore-dsn2_crop2-dsn2_0_split
I1112 17:42:06.965494 21117 net.cpp:434] upscore-dsn2_crop2-dsn2_0_split <- upscore-dsn2
I1112 17:42:06.965499 21117 net.cpp:408] upscore-dsn2_crop2-dsn2_0_split -> upscore-dsn2_crop2-dsn2_0_split_0
I1112 17:42:06.965505 21117 net.cpp:408] upscore-dsn2_crop2-dsn2_0_split -> upscore-dsn2_crop2-dsn2_0_split_1
I1112 17:42:06.965509 21117 net.cpp:408] upscore-dsn2_crop2-dsn2_0_split -> upscore-dsn2_crop2-dsn2_0_split_2
I1112 17:42:06.965572 21117 net.cpp:150] Setting up upscore-dsn2_crop2-dsn2_0_split
I1112 17:42:06.965579 21117 net.cpp:157] Top shape: 1 1 500 500 (250000)
I1112 17:42:06.965580 21117 net.cpp:157] Top shape: 1 1 500 500 (250000)
I1112 17:42:06.965584 21117 net.cpp:157] Top shape: 1 1 500 500 (250000)
I1112 17:42:06.965586 21117 net.cpp:165] Memory required for data: 1147050964
I1112 17:42:06.965589 21117 layer_factory.hpp:77] Creating layer loss2-score
I1112 17:42:06.965595 21117 net.cpp:100] Creating Layer loss2-score
I1112 17:42:06.965597 21117 net.cpp:434] loss2-score <- upscore-dsn2_crop2-dsn2_0_split_0
I1112 17:42:06.965600 21117 net.cpp:434] loss2-score <- label_data_1_split_4
I1112 17:42:06.965605 21117 net.cpp:408] loss2-score -> loss2-score
I1112 17:42:06.965786 21117 net.cpp:150] Setting up loss2-score
I1112 17:42:06.965791 21117 net.cpp:157] Top shape: (1)
I1112 17:42:06.965793 21117 net.cpp:160]     with loss weight 1
I1112 17:42:06.965798 21117 net.cpp:165] Memory required for data: 1147050968
I1112 17:42:06.965801 21117 layer_factory.hpp:77] Creating layer sigmoid-dsn1
I1112 17:42:06.965806 21117 net.cpp:100] Creating Layer sigmoid-dsn1
I1112 17:42:06.965807 21117 net.cpp:434] sigmoid-dsn1 <- upscore-dsn2_crop2-dsn2_0_split_1
I1112 17:42:06.965812 21117 net.cpp:408] sigmoid-dsn1 -> sigmoid-dsn1
I1112 17:42:06.966321 21117 net.cpp:150] Setting up sigmoid-dsn1
I1112 17:42:06.966331 21117 net.cpp:157] Top shape: 1 1 500 500 (250000)
I1112 17:42:06.966333 21117 net.cpp:165] Memory required for data: 1148050968
I1112 17:42:06.966336 21117 layer_factory.hpp:77] Creating layer rev-dsn1
I1112 17:42:06.966341 21117 net.cpp:100] Creating Layer rev-dsn1
I1112 17:42:06.966344 21117 net.cpp:434] rev-dsn1 <- sigmoid-dsn1
I1112 17:42:06.966349 21117 net.cpp:408] rev-dsn1 -> rev-dsn1
I1112 17:42:06.966377 21117 net.cpp:150] Setting up rev-dsn1
I1112 17:42:06.966382 21117 net.cpp:157] Top shape: 1 1 500 500 (250000)
I1112 17:42:06.966383 21117 net.cpp:165] Memory required for data: 1149050968
I1112 17:42:06.966385 21117 layer_factory.hpp:77] Creating layer tile-dsn1
I1112 17:42:06.966392 21117 net.cpp:100] Creating Layer tile-dsn1
I1112 17:42:06.966393 21117 net.cpp:434] tile-dsn1 <- rev-dsn1
I1112 17:42:06.966398 21117 net.cpp:408] tile-dsn1 -> weight-dsn1
I1112 17:42:06.966421 21117 net.cpp:150] Setting up tile-dsn1
I1112 17:42:06.966425 21117 net.cpp:157] Top shape: 1 64 500 500 (16000000)
I1112 17:42:06.966428 21117 net.cpp:165] Memory required for data: 1213050968
I1112 17:42:06.966429 21117 layer_factory.hpp:77] Creating layer prod1-dsn1
I1112 17:42:06.966434 21117 net.cpp:100] Creating Layer prod1-dsn1
I1112 17:42:06.966437 21117 net.cpp:434] prod1-dsn1 <- conv1_2_relu1_2_0_split_1
I1112 17:42:06.966440 21117 net.cpp:434] prod1-dsn1 <- weight-dsn1
I1112 17:42:06.966444 21117 net.cpp:408] prod1-dsn1 -> prod1-dsn1
I1112 17:42:06.966468 21117 net.cpp:150] Setting up prod1-dsn1
I1112 17:42:06.966477 21117 net.cpp:157] Top shape: 1 64 500 500 (16000000)
I1112 17:42:06.966478 21117 net.cpp:165] Memory required for data: 1277050968
I1112 17:42:06.966481 21117 layer_factory.hpp:77] Creating layer conv1-dsn1
I1112 17:42:06.966488 21117 net.cpp:100] Creating Layer conv1-dsn1
I1112 17:42:06.966491 21117 net.cpp:434] conv1-dsn1 <- prod1-dsn1
I1112 17:42:06.966497 21117 net.cpp:408] conv1-dsn1 -> conv1-dsn1
I1112 17:42:06.968698 21117 net.cpp:150] Setting up conv1-dsn1
I1112 17:42:06.968708 21117 net.cpp:157] Top shape: 1 64 500 500 (16000000)
I1112 17:42:06.968711 21117 net.cpp:165] Memory required for data: 1341050968
I1112 17:42:06.968716 21117 layer_factory.hpp:77] Creating layer conv2-dsn1
I1112 17:42:06.968736 21117 net.cpp:100] Creating Layer conv2-dsn1
I1112 17:42:06.968739 21117 net.cpp:434] conv2-dsn1 <- conv1-dsn1
I1112 17:42:06.968744 21117 net.cpp:408] conv2-dsn1 -> conv2-dsn1
I1112 17:42:06.970188 21117 net.cpp:150] Setting up conv2-dsn1
I1112 17:42:06.970199 21117 net.cpp:157] Top shape: 1 64 500 500 (16000000)
I1112 17:42:06.970201 21117 net.cpp:165] Memory required for data: 1405050968
I1112 17:42:06.970207 21117 layer_factory.hpp:77] Creating layer relu1-dsn1
I1112 17:42:06.970211 21117 net.cpp:100] Creating Layer relu1-dsn1
I1112 17:42:06.970214 21117 net.cpp:434] relu1-dsn1 <- conv2-dsn1
I1112 17:42:06.970218 21117 net.cpp:395] relu1-dsn1 -> conv2-dsn1 (in-place)
I1112 17:42:06.970687 21117 net.cpp:150] Setting up relu1-dsn1
I1112 17:42:06.970697 21117 net.cpp:157] Top shape: 1 64 500 500 (16000000)
I1112 17:42:06.970700 21117 net.cpp:165] Memory required for data: 1469050968
I1112 17:42:06.970701 21117 layer_factory.hpp:77] Creating layer conv3-dsn1
I1112 17:42:06.970710 21117 net.cpp:100] Creating Layer conv3-dsn1
I1112 17:42:06.970711 21117 net.cpp:434] conv3-dsn1 <- conv2-dsn1
I1112 17:42:06.970716 21117 net.cpp:408] conv3-dsn1 -> conv3-dsn1
I1112 17:42:06.973198 21117 net.cpp:150] Setting up conv3-dsn1
I1112 17:42:06.973209 21117 net.cpp:157] Top shape: 1 64 500 500 (16000000)
I1112 17:42:06.973212 21117 net.cpp:165] Memory required for data: 1533050968
I1112 17:42:06.973217 21117 layer_factory.hpp:77] Creating layer relu2-dsn1
I1112 17:42:06.973222 21117 net.cpp:100] Creating Layer relu2-dsn1
I1112 17:42:06.973224 21117 net.cpp:434] relu2-dsn1 <- conv3-dsn1
I1112 17:42:06.973229 21117 net.cpp:395] relu2-dsn1 -> conv3-dsn1 (in-place)
I1112 17:42:06.973384 21117 net.cpp:150] Setting up relu2-dsn1
I1112 17:42:06.973392 21117 net.cpp:157] Top shape: 1 64 500 500 (16000000)
I1112 17:42:06.973394 21117 net.cpp:165] Memory required for data: 1597050968
I1112 17:42:06.973397 21117 layer_factory.hpp:77] Creating layer conv4-dsn1
I1112 17:42:06.973404 21117 net.cpp:100] Creating Layer conv4-dsn1
I1112 17:42:06.973407 21117 net.cpp:434] conv4-dsn1 <- conv3-dsn1
I1112 17:42:06.973412 21117 net.cpp:408] conv4-dsn1 -> conv4-dsn1
I1112 17:42:06.974598 21117 net.cpp:150] Setting up conv4-dsn1
I1112 17:42:06.974609 21117 net.cpp:157] Top shape: 1 1 500 500 (250000)
I1112 17:42:06.974611 21117 net.cpp:165] Memory required for data: 1598050968
I1112 17:42:06.974617 21117 layer_factory.hpp:77] Creating layer sum-dsn1
I1112 17:42:06.974622 21117 net.cpp:100] Creating Layer sum-dsn1
I1112 17:42:06.974624 21117 net.cpp:434] sum-dsn1 <- conv4-dsn1
I1112 17:42:06.974628 21117 net.cpp:434] sum-dsn1 <- upscore-dsn2_crop2-dsn2_0_split_2
I1112 17:42:06.974632 21117 net.cpp:408] sum-dsn1 -> sum-dsn1
I1112 17:42:06.974663 21117 net.cpp:150] Setting up sum-dsn1
I1112 17:42:06.974668 21117 net.cpp:157] Top shape: 1 1 500 500 (250000)
I1112 17:42:06.974669 21117 net.cpp:165] Memory required for data: 1599050968
I1112 17:42:06.974673 21117 layer_factory.hpp:77] Creating layer crop2-dsn1
I1112 17:42:06.974676 21117 net.cpp:100] Creating Layer crop2-dsn1
I1112 17:42:06.974678 21117 net.cpp:434] crop2-dsn1 <- sum-dsn1
I1112 17:42:06.974681 21117 net.cpp:434] crop2-dsn1 <- data_data_0_split_6
I1112 17:42:06.974685 21117 net.cpp:408] crop2-dsn1 -> upscore-dsn1
I1112 17:42:06.974711 21117 net.cpp:150] Setting up crop2-dsn1
I1112 17:42:06.974716 21117 net.cpp:157] Top shape: 1 1 500 500 (250000)
I1112 17:42:06.974719 21117 net.cpp:165] Memory required for data: 1600050968
I1112 17:42:06.974720 21117 layer_factory.hpp:77] Creating layer loss1-score
I1112 17:42:06.974726 21117 net.cpp:100] Creating Layer loss1-score
I1112 17:42:06.974730 21117 net.cpp:434] loss1-score <- upscore-dsn1
I1112 17:42:06.974732 21117 net.cpp:434] loss1-score <- label_data_1_split_5
I1112 17:42:06.974736 21117 net.cpp:408] loss1-score -> loss1-score
…
