…
  name: "data"
  type: "ImageLabelmapData"
  top: "data_unaugmented"
  top: "label_unaugmented"
  include {
    phase: TRAIN
  }
  transform_param {
    mean_value: 104.00699
    mean_value: 116.66877
    mean_value: 122.67892
  }
  image_data_param {
    source: "/media/compute/homes/galberding/FleckDetect/Datasets/FleckDataSet/train/image_to_label_map.txt"
    batch_size: 1
    shuffle: true
    new_height: 500
    new_width: 500
    root_folder: "/media/compute/homes/galberding/FleckDetect/Datasets/FleckDataSet/train/"
    normalize: true
  }
}
layer {
  name: "augmentation"
  type: "Python"
  bottom: "data_unaugmented"
  bottom: "label_unaugmented"
  top: "data"
  top: "label"
  include {
    phase: TRAIN
  }
  python_param {
    module: "data_augmentation"
    layer: "DataAugmentation"
  }
}
layer {
  name: "conv1_1"
  type: "Convolution"
  bottom: "data"
  top: "conv1_1"
  param {
    lr_mult: 1
    decay_mult: 1
  }
  param {
    lr_mult: 2
    decay_mult: 0
  }
  convolution_param {
    num_output: 64
    pad: 1
    kernel_size: 3
    engine: CUDNN
  }
}
layer {
  name: "relu1_1"
  type: "ReLU"
  bottom: "conv1_1"
  top: "conv1_1"
}
layer {
  name: "conv1_2"
  type: "Convolution"
  bottom: "conv1_1"
  top: "conv1_2"
  param {
    lr_mult: 1
    decay_mult: 1
  }
  param {
    lr_mult: 2
    decay_mult: 0
  }
  convolution_param {
    num_output: 64
    pad: 1
    kernel_size: 3
    engine: CUDNN
  }
}
layer {
  name: "relu1_2"
  type: "ReLU"
  bottom: "conv1_2"
  top: "conv1_2"
}
layer {
  name: "pool1"
  type: "Pooling"
  bottom: "conv1_2"
  top: "pool1"
  pooling_param {
    pool: MAX
    kernel_size: 2
    stride: 2
  }
}
layer {
  name: "conv2_1"
  type: "Convolution"
  bottom: "pool1"
  top: "conv2_1"
  param {
    lr_mult: 1
    decay_mult: 1
  }
  param {
    lr_mult: 2
    decay_mult: 0
  }
  convolution_param {
    num_output: 128
    pad: 1
    kernel_size: 3
    engine: CUDNN
  }
}
layer {
  name: "relu2_1"
  type: "ReLU"
  bottom: "conv2_1"
  top: "conv2_1"
}
layer {
  name: "conv2_2"
  type: "Convolution"
  bottom: "conv2_1"
  top: "conv2_2"
  param {
    lr_mult: 1
    decay_mult: 1
  }
  param {
    lr_mult: 2
    decay_mult: 0
  }
  convolution_param {
    num_output: 128
    pad: 1
    kernel_size: 3
    engine: CUDNN
  }
}
layer {
  name: "relu2_2"
  type: "ReLU"
  bottom: "conv2_2"
  top: "conv2_2"
}
layer {
  name: "pool2"
  type: "Pooling"
  bottom: "conv2_2"
  top: "pool2"
  pooling_param {
    pool: MAX
    kernel_size: 2
    stride: 2
  }
}
layer {
  name: "conv3_1"
  type: "Convolution"
  bottom: "pool2"
  top: "conv3_1"
  param {
    lr_mult: 1
    decay_mult: 1
  }
  param {
    lr_mult: 2
    decay_mult: 0
  }
  convolution_param {
    num_output: 256
    pad: 1
    kernel_size: 3
    engine: CUDNN
  }
}
layer {
  name: "relu3_1"
  type: "ReLU"
  bottom: "conv3_1"
  top: "conv3_1"
}
layer {
  name: "conv3_2"
  type: "Convolution"
  bottom: "conv3_1"
  top: "conv3_2"
  param {
    lr_mult: 1
    decay_mult: 1
  }
  param {
    lr_mult: 2
    decay_mult: 0
  }
  convolution_param {
    num_output: 256
    pad: 1
    kernel_size: 3
    engine: CUDNN
  }
}
layer {
  name: "relu3_2"
  type: "ReLU"
  bottom: "conv3_2"
  top: "conv3_2"
}
layer {
  name: "conv3_3"
  type: "Convolution"
  bottom: "conv3_2"
  top: "conv3_3"
  param {
    lr_mult: 1
    decay_mult: 1
  }
  param {
    lr_mult: 2
    decay_mult: 0
  }
  convolution_param {
    num_output: 256
    pad: 1
    kernel_size: 3
    engine: CUDNN
  }
}
layer {
  name: "relu3_3"
  type: "ReLU"
  bottom: "conv3_3"
  top: "conv3_3"
}
layer {
  name: "pool3"
  type: "Pooling"
  bottom: "conv3_3"
  top: "pool3"
  pooling_param {
    pool: MAX
    kernel_size: 2
    stride: 2
  }
}
layer {
  name: "conv4_1"
  type: "Convolution"
  bottom: "pool3"
  top: "conv4_1"
  param {
    lr_mult: 1
    decay_mult: 1
  }
  param {
    lr_mult: 2
    decay_mult: 0
  }
  convolution_param {
    num_output: 512
    pad: 1
    kernel_size: 3
    engine: CUDNN
  }
}
layer {
  name: "relu4_1"
  type: "ReLU"
  bottom: "conv4_1"
  top: "conv4_1"
}
layer {
  name: "conv4_2"
  type: "Convolution"
  bottom: "conv4_1"
  top: "conv4_2"
  param {
    lr_mult: 1
    decay_mult: 1
  }
  param {
    lr_mult: 2
    decay_mult: 0
  }
  convolution_param {
    num_output: 512
    pad: 1
    kernel_size: 3
    engine: CUDNN
  }
}
layer {
  name: "relu4_2"
  type: "ReLU"
  bottom: "conv4_2"
  top: "conv4_2"
}
layer {
  name: "conv4_3"
  type: "Convolution"
  bottom: "conv4_2"
  top: "conv4_3"
  param {
    lr_mult: 1
    decay_mult: 1
  }
  param {
    lr_mult: 2
    decay_mult: 0
  }
  convolution_param {
    num_output: 512
    pad: 1
    kernel_size: 3
    engine: CUDNN
  }
}
layer {
  name: "relu4_3"
  type: "ReLU"
  bottom: "conv4_3"
  top: "conv4_3"
}
layer {
  name: "pool4"
  type: "Pooling"
  bottom: "conv4_3"
  top: "pool4"
  pooling_param {
    pool: MAX
    kernel_size: 3
    stride: 2
    pad: 1
  }
}
layer {
  name: "conv5_1"
  type: "Convolution"
  bottom: "pool4"
  top: "conv5_1"
  param {
    lr_mult: 1
    decay_mult: 1
  }
  param {
    lr_mult: 2
    decay_mult: 0
  }
  convolution_param {
    num_output: 512
    pad: 1
    kernel_size: 3
    engine: CUDNN
  }
}
layer {
  name: "relu5_1"
  type: "ReLU"
  bottom: "conv5_1"
  top: "conv5_1"
}
layer {
  name: "conv5_2"
  type: "Convolution"
  bottom: "conv5_1"
  top: "conv5_2"
  param {
    lr_mult: 1
    decay_mult: 1
  }
  param {
    lr_mult: 2
    decay_mult: 0
  }
  convolution_param {
    num_output: 512
    pad: 1
    kernel_size: 3
    engine: CUDNN
  }
}
layer {
  name: "relu5_2"
  type: "ReLU"
  bottom: "conv5_2"
  top: "conv5_2"
}
layer {
  name: "conv5_3"
  type: "Convolution"
  bottom: "conv5_2"
  top: "conv5_3"
  param {
    lr_mult: 1
    decay_mult: 1
  }
  param {
    lr_mult: 2
    decay_mult: 0
  }
  convolution_param {
    num_output: 512
    pad: 1
    kernel_size: 3
    engine: CUDNN
  }
}
layer {
  name: "relu5_3"
  type: "ReLU"
  bottom: "conv5_3"
  top: "conv5_3"
}
layer {
  name: "pool5"
  type: "Pooling"
  bottom: "conv5_3"
  top: "pool5"
  pooling_param {
    pool: MAX
    kernel_size: 3
    stride: 2
    pad: 1
  }
}
layer {
  name: "conv1-dsn6"
  type: "Convolution"
  bottom: "pool5"
  top: "conv1-dsn6"
  param {
    lr_mult: 1
    decay_mult: 1
  }
  param {
    lr_mult: 2
    decay_mult: 0
  }
  convolution_param {
    num_output: 256
    kernel_size: 1
    weight_filler {
      type: "gaussian"
      std: 0.01
    }
    bias_filler {
      type: "constant"
      value: 0
    }
    engine: CUDNN
  }
}
layer {
  name: "conv2-dsn6"
  type: "Convolution"
  bottom: "conv1-dsn6"
  top: "conv2-dsn6"
  param {
    lr_mult: 1
    decay_mult: 1
  }
  param {
    lr_mult: 2
    decay_mult: 0
  }
  convolution_param {
    num_output: 256
    pad: 2
    kernel_size: 5
    weight_filler {
      type: "gaussian"
      std: 0.01
    }
    bias_filler {
      type: "constant"
      value: 0
    }
    engine: CUDNN
  }
}
layer {
  name: "relu1-dsn6"
  type: "ReLU"
  bottom: "conv2-dsn6"
  top: "conv2-dsn6"
}
layer {
  name: "conv3-dsn6"
  type: "Convolution"
  bottom: "conv2-dsn6"
  top: "conv3-dsn6"
  param {
    lr_mult: 1
    decay_mult: 1
  }
  param {
    lr_mult: 2
    decay_mult: 0
  }
  convolution_param {
    num_output: 256
    pad: 2
    kernel_size: 5
    weight_filler {
      type: "gaussian"
      std: 0.01
    }
    bias_filler {
      type: "constant"
      value: 0
    }
    engine: CUDNN
  }
}
layer {
  name: "relu2-dsn6"
  type: "ReLU"
  bottom: "conv3-dsn6"
  top: "conv3-dsn6"
}
layer {
  name: "conv4-dsn6"
  type: "Convolution"
  bottom: "conv3-dsn6"
  top: "conv4-dsn6"
  param {
    lr_mult: 1
    decay_mult: 1
  }
  param {
    lr_mult: 2
    decay_mult: 0
  }
  convolution_param {
    num_output: 256
    pad: 2
    kernel_size: 5
    weight_filler {
      type: "gaussian"
      std: 0.01
    }
    bias_filler {
      type: "constant"
      value: 0
    }
    engine: CUDNN
  }
}
layer {
  name: "relu3-dsn6"
  type: "ReLU"
  bottom: "conv4-dsn6"
  top: "conv4-dsn6"
}
layer {
  name: "conv5-dsn6"
  type: "Convolution"
  bottom: "conv4-dsn6"
  top: "conv5-dsn6"
  param {
    lr_mult: 0.1
    decay_mult: 1
  }
  param {
    lr_mult: 0.2
    decay_mult: 0
  }
  convolution_param {
    num_output: 1
    kernel_size: 1
    weight_filler {
      type: "gaussian"
      std: 0.01
    }
    bias_filler {
      type: "constant"
      value: 0
    }
    engine: CUDNN
  }
}
layer {
  name: "upsample32_dsn6"
  type: "Deconvolution"
  bottom: "conv5-dsn6"
  top: "conv5-dsn6-up"
  param {
    lr_mult: 0
    decay_mult: 1
  }
  param {
    lr_mult: 0
    decay_mult: 0
  }
  convolution_param {
    num_output: 1
    kernel_size: 64
    stride: 32
  }
}
layer {
  name: "crop-dsn6"
  type: "Crop"
  bottom: "conv5-dsn6-up"
  bottom: "data"
  top: "upscore-dsn6"
}
layer {
  name: "loss6-score"
  type: "SigmoidCrossEntropyLoss"
  bottom: "upscore-dsn6"
  bottom: "label"
  top: "loss6-score"
  loss_weight: 1
}
layer {
  name: "upsample2_dsn5"
  type: "Deconvolution"
  bottom: "conv5-dsn6"
  top: "conv5-dsn6-5"
  param {
    lr_mult: 0
    decay_mult: 1
  }
  param {
    lr_mult: 0
    decay_mult: 0
  }
  convolution_param {
    num_output: 1
    kernel_size: 4
    stride: 2
  }
}
layer {
  name: "crop1-dsn5"
  type: "Crop"
  bottom: "conv5-dsn6-5"
  bottom: "conv5_3"
  top: "weight-dsn6-5"
}
layer {
  name: "sigmoid-dsn5"
  type: "Sigmoid"
  bottom: "weight-dsn6-5"
  top: "sigmoid-dsn5"
}
layer {
  name: "rev-dsn5"
  type: "Power"
  bottom: "sigmoid-dsn5"
  top: "rev-dsn5"
  power_param {
    power: 1
    scale: -1
    shift: 1
  }
}
layer {
  name: "tile-dsn5"
  type: "Tile"
  bottom: "rev-dsn5"
  top: "weight-dsn5"
  tile_param {
    tiles: 512
  }
}
layer {
  name: "prod1-dsn5"
  type: "Eltwise"
  bottom: "conv5_3"
  bottom: "weight-dsn5"
  top: "prod1-dsn5"
  eltwise_param {
    operation: PROD
  }
}
layer {
  name: "conv1-dsn5"
  type: "Convolution"
  bottom: "prod1-dsn5"
  top: "conv1-dsn5"
  param {
    lr_mult: 1
    decay_mult: 1
  }
  param {
    lr_mult: 2
    decay_mult: 0
  }
  convolution_param {
    num_output: 64
    kernel_size: 1
    weight_filler {
      type: "gaussian"
      std: 0.01
    }
    bias_filler {
      type: "constant"
      value: 0
    }
    engine: CUDNN
  }
}
layer {
  name: "conv2-dsn5"
  type: "Convolution"
  bottom: "conv1-dsn5"
  top: "conv2-dsn5"
  param {
    lr_mult: 1
    decay_mult: 1
  }
  param {
    lr_mult: 2
    decay_mult: 0
  }
  convolution_param {
    num_output: 64
    pad: 1
    kernel_size: 3
    weight_filler {
      type: "gaussian"
      std: 0.01
    }
    bias_filler {
      type: "constant"
      value: 0
    }
    engine: CUDNN
  }
}
layer {
  name: "relu1-dsn5"
  type: "ReLU"
  bottom: "conv2-dsn5"
  top: "conv2-dsn5"
}
layer {
  name: "conv3-dsn5"
  type: "Convolution"
  bottom: "conv2-dsn5"
  top: "conv3-dsn5"
  param {
    lr_mult: 1
    decay_mult: 1
  }
  param {
    lr_mult: 2
    decay_mult: 0
  }
  convolution_param {
    num_output: 64
    pad: 1
    kernel_size: 3
    weight_filler {
      type: "gaussian"
      std: 0.01
    }
    bias_filler {
      type: "constant"
      value: 0
    }
    engine: CUDNN
  }
}
layer {
  name: "relu2-dsn5"
  type: "ReLU"
  bottom: "conv3-dsn5"
  top: "conv3-dsn5"
}
layer {
  name: "conv4-dsn5"
  type: "Convolution"
  bottom: "conv3-dsn5"
  top: "conv4-dsn5"
  param {
    lr_mult: 1
    decay_mult: 1
  }
  param {
    lr_mult: 2
    decay_mult: 0
  }
  convolution_param {
    num_output: 1
    pad: 1
    kernel_size: 3
    weight_filler {
      type: "gaussian"
      std: 0.01
    }
    bias_filler {
      type: "constant"
      value: 0
    }
    engine: CUDNN
  }
}
layer {
  name: "sum-dsn5"
  type: "Eltwise"
  bottom: "conv4-dsn5"
  bottom: "weight-dsn6-5"
  top: "sum-dsn5"
  eltwise_param {
    operation: SUM
  }
}
layer {
  name: "upsample16_dsn5"
  type: "Deconvolution"
  bottom: "sum-dsn5"
  top: "sum-dsn5-up"
  param {
    lr_mult: 0
    decay_mult: 1
  }
  param {
    lr_mult: 0
    decay_mult: 0
  }
  convolution_param {
    num_output: 1
    kernel_size: 32
    stride: 16
  }
}
layer {
  name: "crop2-dsn5"
  type: "Crop"
  bottom: "sum-dsn5-up"
  bottom: "data"
  top: "upscore-dsn5"
}
layer {
  name: "loss5-score"
  type: "SigmoidCrossEntropyLoss"
  bottom: "upscore-dsn5"
  bottom: "label"
  top: "loss5-score"
  loss_weight: 1
}
layer {
  name: "upsample2_dsn4"
  type: "Deconvolution"
  bottom: "sum-dsn5"
  top: "sum-dsn5-4"
  param {
    lr_mult: 0
    decay_mult: 1
  }
  param {
    lr_mult: 0
    decay_mult: 0
  }
  convolution_param {
    num_output: 1
    kernel_size: 4
    stride: 2
  }
}
layer {
  name: "crop1-dsn4"
  type: "Crop"
  bottom: "sum-dsn5-4"
  bottom: "conv4_3"
  top: "weight-dsn5-4"
}
layer {
  name: "sigmoid-dsn4"
  type: "Sigmoid"
  bottom: "weight-dsn5-4"
  top: "sigmoid-dsn4"
}
layer {
  name: "rev-dsn4"
  type: "Power"
  bottom: "sigmoid-dsn4"
  top: "rev-dsn4"
  power_param {
    power: 1
    scale: -1
    shift: 1
  }
}
layer {
  name: "tile-dsn4"
  type: "Tile"
  bottom: "rev-dsn4"
  top: "weight-dsn4"
  tile_param {
    tiles: 512
  }
}
layer {
  name: "prod1-dsn4"
  type: "Eltwise"
  bottom: "conv4_3"
  bottom: "weight-dsn4"
  top: "prod1-dsn4"
  eltwise_param {
    operation: PROD
  }
}
layer {
  name: "conv1-dsn4"
  type: "Convolution"
  bottom: "prod1-dsn4"
  top: "conv1-dsn4"
  param {
    lr_mult: 1
    decay_mult: 1
  }
  param {
    lr_mult: 2
    decay_mult: 0
  }
  convolution_param {
    num_output: 64
    kernel_size: 1
    weight_filler {
      type: "gaussian"
      std: 0.01
    }
    bias_filler {
      type: "constant"
      value: 0
    }
    engine: CUDNN
  }
}
layer {
  name: "conv2-dsn4"
  type: "Convolution"
  bottom: "conv1-dsn4"
  top: "conv2-dsn4"
  param {
    lr_mult: 1
    decay_mult: 1
  }
  param {
    lr_mult: 2
    decay_mult: 0
  }
  convolution_param {
    num_output: 64
    pad: 1
    kernel_size: 3
    weight_filler {
      type: "gaussian"
      std: 0.01
    }
    bias_filler {
      type: "constant"
      value: 0
    }
    engine: CUDNN
  }
}
layer {
  name: "relu1-dsn4"
  type: "ReLU"
  bottom: "conv2-dsn4"
  top: "conv2-dsn4"
}
layer {
  name: "conv3-dsn4"
  type: "Convolution"
  bottom: "conv2-dsn4"
  top: "conv3-dsn4"
  param {
    lr_mult: 1
    decay_mult: 1
  }
  param {
    lr_mult: 2
    decay_mult: 0
  }
  convolution_param {
    num_output: 64
    pad: 1
    kernel_size: 3
    weight_filler {
      type: "gaussian"
      std: 0.01
    }
    bias_filler {
      type: "constant"
      value: 0
    }
    engine: CUDNN
  }
}
layer {
  name: "relu2-dsn4"
  type: "ReLU"
  bottom: "conv3-dsn4"
  top: "conv3-dsn4"
}
layer {
  name: "conv4-dsn4"
  type: "Convolution"
  bottom: "conv3-dsn4"
  top: "conv4-dsn4"
  param {
    lr_mult: 1
    decay_mult: 1
  }
  param {
    lr_mult: 2
    decay_mult: 0
  }
  convolution_param {
    num_output: 1
    pad: 1
    kernel_size: 3
    weight_filler {
      type: "gaussian"
      std: 0.01
    }
    bias_filler {
      type: "constant"
      value: 0
    }
    engine: CUDNN
  }
}
layer {
  name: "sum-dsn4"
  type: "Eltwise"
  bottom: "conv4-dsn4"
  bottom: "weight-dsn5-4"
  top: "sum-dsn4"
  eltwise_param {
    operation: SUM
  }
}
layer {
  name: "upsample8_dsn4"
  type: "Deconvolution"
  bottom: "sum-dsn4"
  top: "sum-dsn4-up"
  param {
    lr_mult: 0
    decay_mult: 1
  }
  param {
    lr_mult: 0
    decay_mult: 0
  }
  convolution_param {
    num_output: 1
    kernel_size: 16
    stride: 8
  }
}
layer {
  name: "crop2-dsn4"
  type: "Crop"
  bottom: "sum-dsn4-up"
  bottom: "data"
  top: "upscore-dsn4"
}
layer {
  name: "loss4-score"
  type: "SigmoidCrossEntropyLoss"
  bottom: "upscore-dsn4"
  bottom: "label"
  top: "loss4-score"
  loss_weight: 1
}
layer {
  name: "upsample2_dsn3"
  type: "Deconvolution"
  bottom: "sum-dsn4"
  top: "sum-dsn4-3"
  param {
    lr_mult: 0
    decay_mult: 1
  }
  param {
    lr_mult: 0
    decay_mult: 0
  }
  convolution_param {
    num_output: 1
    kernel_size: 4
    stride: 2
  }
}
layer {
  name: "crop1-dsn3"
  type: "Crop"
  bottom: "sum-dsn4-3"
  bottom: "conv3_3"
  top: "weight-dsn4-3"
}
layer {
  name: "sigmoid-dsn3"
  type: "Sigmoid"
  bottom: "weight-dsn4-3"
  top: "sigmoid-dsn3"
}
layer {
  name: "rev-dsn3"
  type: "Power"
  bottom: "sigmoid-dsn3"
  top: "rev-dsn3"
  power_param {
    power: 1
    scale: -1
    shift: 1
  }
}
layer {
  name: "tile-dsn3"
  type: "Tile"
  bottom: "rev-dsn3"
  top: "weight-dsn3"
  tile_param {
    tiles: 256
  }
}
layer {
  name: "prod1-dsn3"
  type: "Eltwise"
  bottom: "conv3_3"
  bottom: "weight-dsn3"
  top: "prod1-dsn3"
  eltwise_param {
    operation: PROD
  }
}
layer {
  name: "conv1-dsn3"
  type: "Convolution"
  bottom: "prod1-dsn3"
  top: "conv1-dsn3"
  param {
    lr_mult: 1
    decay_mult: 1
  }
  param {
    lr_mult: 2
    decay_mult: 0
  }
  convolution_param {
    num_output: 64
    kernel_size: 1
    weight_filler {
      type: "gaussian"
      std: 0.01
    }
    bias_filler {
      type: "constant"
      value: 0
    }
    engine: CUDNN
  }
}
layer {
  name: "conv2-dsn3"
  type: "Convolution"
  bottom: "conv1-dsn3"
  top: "conv2-dsn3"
  param {
    lr_mult: 1
    decay_mult: 1
  }
  param {
    lr_mult: 2
    decay_mult: 0
  }
  convolution_param {
    num_output: 64
    pad: 1
    kernel_size: 3
    weight_filler {
      type: "gaussian"
      std: 0.01
    }
    bias_filler {
      type: "constant"
      value: 0
    }
    engine: CUDNN
  }
}
layer {
  name: "relu1-dsn3"
  type: "ReLU"
  bottom: "conv2-dsn3"
  top: "conv2-dsn3"
}
layer {
  name: "conv3-dsn3"
  type: "Convolution"
  bottom: "conv2-dsn3"
  top: "conv3-dsn3"
  param {
    lr_mult: 1
    decay_mult: 1
  }
  param {
    lr_mult: 2
    decay_mult: 0
  }
  convolution_param {
    num_output: 64
    pad: 1
    kernel_size: 3
    weight_filler {
      type: "gaussian"
      std: 0.01
    }
    bias_filler {
      type: "constant"
      value: 0
    }
    engine: CUDNN
  }
}
layer {
  name: "relu2-dsn3"
  type: "ReLU"
  bottom: "conv3-dsn3"
  top: "conv3-dsn3"
}
layer {
  name: "conv4-dsn3"
  type: "Convolution"
  bottom: "conv3-dsn3"
  top: "conv4-dsn3"
  param {
    lr_mult: 1
    decay_mult: 1
  }
  param {
    lr_mult: 2
    decay_mult: 0
  }
  convolution_param {
    num_output: 1
    pad: 1
    kernel_size: 3
    weight_filler {
      type: "gaussian"
      std: 0.01
    }
    bias_filler {
      type: "constant"
      value: 0
    }
    engine: CUDNN
  }
}
layer {
  name: "sum-dsn3"
  type: "Eltwise"
  bottom: "conv4-dsn3"
  bottom: "weight-dsn4-3"
  top: "sum-dsn3"
  eltwise_param {
    operation: SUM
  }
}
layer {
  name: "upsample4_dsn3"
  type: "Deconvolution"
  bottom: "sum-dsn3"
  top: "sum-dsn3-up"
  param {
    lr_mult: 0
    decay_mult: 1
  }
  param {
    lr_mult: 0
    decay_mult: 0
  }
  convolution_param {
    num_output: 1
    kernel_size: 8
    stride: 4
  }
}
layer {
  name: "crop2-dsn3"
  type: "Crop"
  bottom: "sum-dsn3-up"
  bottom: "data"
  top: "upscore-dsn3"
}
layer {
  name: "loss3-score"
  type: "SigmoidCrossEntropyLoss"
  bottom: "upscore-dsn3"
  bottom: "label"
  top: "loss3-score"
  loss_weight: 1
}
layer {
  name: "upsample2_1-dsn2"
  type: "Deconvolution"
  bottom: "sum-dsn3"
  top: "sum-dsn3-2"
  param {
    lr_mult: 0
    decay_mult: 1
  }
  param {
    lr_mult: 0
    decay_mult: 0
  }
  convolution_param {
    num_output: 1
    kernel_size: 4
    stride: 2
  }
}
layer {
  name: "crop1-dsn2"
  type: "Crop"
  bottom: "sum-dsn3-2"
  bottom: "conv2_2"
  top: "weight-dsn3-2"
}
layer {
  name: "sigmoid-dsn2"
  type: "Sigmoid"
  bottom: "weight-dsn3-2"
  top: "sigmoid-dsn2"
}
layer {
  name: "rev-dsn2"
  type: "Power"
  bottom: "sigmoid-dsn2"
  top: "rev-dsn2"
  power_param {
    power: 1
    scale: -1
    shift: 1
  }
}
layer {
  name: "tile-dsn2"
  type: "Tile"
  bottom: "rev-dsn2"
  top: "weight-dsn2"
  tile_param {
    tiles: 128
  }
}
layer {
  name: "prod1-dsn2"
  type: "Eltwise"
  bottom: "conv2_2"
  bottom: "weight-dsn2"
  top: "prod1-dsn2"
  eltwise_param {
    operation: PROD
  }
}
layer {
  name: "conv1-dsn2"
  type: "Convolution"
  bottom: "prod1-dsn2"
  top: "conv1-dsn2"
  param {
    lr_mult: 1
    decay_mult: 1
  }
  param {
    lr_mult: 2
    decay_mult: 0
  }
  convolution_param {
    num_output: 64
    kernel_size: 1
    weight_filler {
      type: "gaussian"
      std: 0.01
    }
    bias_filler {
      type: "constant"
      value: 0
    }
    engine: CUDNN
  }
}
layer {
  name: "conv2-dsn2"
  type: "Convolution"
  bottom: "conv1-dsn2"
  top: "conv2-dsn2"
  param {
    lr_mult: 1
    decay_mult: 1
  }
  param {
    lr_mult: 2
    decay_mult: 0
  }
  convolution_param {
    num_output: 64
    pad: 1
    kernel_size: 3
    weight_filler {
      type: "gaussian"
      std: 0.01
    }
    bias_filler {
      type: "constant"
      value: 0
    }
    engine: CUDNN
  }
}
layer {
  name: "relu1-dsn2"
  type: "ReLU"
  bottom: "conv2-dsn2"
  top: "conv2-dsn2"
}
layer {
  name: "conv3-dsn2"
  type: "Convolution"
  bottom: "conv2-dsn2"
  top: "conv3-dsn2"
  param {
    lr_mult: 1
    decay_mult: 1
  }
  param {
    lr_mult: 2
    decay_mult: 0
  }
  convolution_param {
    num_output: 64
    pad: 1
    kernel_size: 3
    weight_filler {
      type: "gaussian"
      std: 0.01
    }
    bias_filler {
      type: "constant"
      value: 0
    }
    engine: CUDNN
  }
}
layer {
  name: "relu2-dsn2"
  type: "ReLU"
  bottom: "conv3-dsn2"
  top: "conv3-dsn2"
}
layer {
  name: "conv4-dsn2"
  type: "Convolution"
  bottom: "conv3-dsn2"
  top: "conv4-dsn2"
  param {
    lr_mult: 1
    decay_mult: 1
  }
  param {
    lr_mult: 2
    decay_mult: 0
  }
  convolution_param {
    num_output: 1
    pad: 1
    kernel_size: 3
    weight_filler {
      type: "gaussian"
      std: 0.01
    }
    bias_filler {
      type: "constant"
      value: 0
    }
    engine: CUDNN
  }
}
layer {
  name: "sum-dsn2"
  type: "Eltwise"
  bottom: "conv4-dsn2"
  bottom: "weight-dsn3-2"
  top: "sum-dsn2"
  eltwise_param {
    operation: SUM
  }
}
layer {
  name: "upsample2_2-dsn2"
  type: "Deconvolution"
  bottom: "sum-dsn2"
  top: "sum-dsn2-up"
  param {
    lr_mult: 0
    decay_mult: 1
  }
  param {
    lr_mult: 0
    decay_mult: 0
  }
  convolution_param {
    num_output: 1
    kernel_size: 4
    stride: 2
  }
}
layer {
  name: "crop2-dsn2"
  type: "Crop"
  bottom: "sum-dsn2-up"
  bottom: "data"
  top: "upscore-dsn2"
}
layer {
  name: "loss2-score"
  type: "SigmoidCrossEntropyLoss"
  bottom: "upscore-dsn2"
  bottom: "label"
  top: "loss2-score"
  loss_weight: 1
}
layer {
  name: "sigmoid-dsn1"
  type: "Sigmoid"
  bottom: "upscore-dsn2"
  top: "sigmoid-dsn1"
}
layer {
  name: "rev-dsn1"
  type: "Power"
  bottom: "sigmoid-dsn1"
  top: "rev-dsn1"
  power_param {
    power: 1
    scale: -1
    shift: 1
  }
}
layer {
  name: "tile-dsn1"
  type: "Tile"
  bottom: "rev-dsn1"
  top: "weight-dsn1"
  tile_param {
    tiles: 64
  }
}
layer {
  name: "prod1-dsn1"
  type: "Eltwise"
  bottom: "conv1_2"
  bottom: "weight-dsn1"
  top: "prod1-dsn1"
  eltwise_param {
    operation: PROD
  }
}
layer {
  name: "conv1-dsn1"
  type: "Convolution"
  bottom: "prod1-dsn1"
  top: "conv1-dsn1"
  param {
    lr_mult: 1
    decay_mult: 1
  }
  param {
    lr_mult: 2
    decay_mult: 0
  }
  convolution_param {
    num_output: 64
    kernel_size: 1
    weight_filler {
      type: "gaussian"
      std: 0.01
    }
    bias_filler {
      type: "constant"
      value: 0
    }
    engine: CUDNN
  }
}
layer {
  name: "conv2-dsn1"
  type: "Convolution"
  bottom: "conv1-dsn1"
  top: "conv2-dsn1"
  param {
    lr_mult: 1
    decay_mult: 1
  }
  param {
    lr_mult: 2
    decay_mult: 0
  }
  convolution_param {
    num_output: 64
    pad: 1
    kernel_size: 3
    weight_filler {
      type: "gaussian"
      std: 0.01
    }
    bias_filler {
      type: "constant"
      value: 0
    }
    engine: CUDNN
  }
}
layer {
  name: "relu1-dsn1"
  type: "ReLU"
  bottom: "conv2-dsn1"
  top: "conv2-dsn1"
}
layer {
  name: "conv3-dsn1"
  type: "Convolution"
  bottom: "conv2-dsn1"
  top: "conv3-dsn1"
  param {
    lr_mult: 1
    decay_mult: 1
  }
  param {
    lr_mult: 2
    decay_mult: 0
  }
  convolution_param {
    num_output: 64
    pad: 1
    kernel_size: 3
    weight_filler {
      type: "gaussian"
      std: 0.01
    }
    bias_filler {
      type: "constant"
      value: 0
    }
    engine: CUDNN
  }
}
layer {
  name: "relu2-dsn1"
  type: "ReLU"
  bottom: "conv3-dsn1"
  top: "conv3-dsn1"
}
layer {
  name: "conv4-dsn1"
  type: "Convolution"
  bottom: "conv3-dsn1"
  top: "conv4-dsn1"
  param {
    lr_mult: 1
    decay_mult: 1
  }
  param {
    lr_mult: 2
    decay_mult: 0
  }
  convolution_param {
    num_output: 1
    pad: 1
    kernel_size: 3
    weight_filler {
      type: "gaussian"
      std: 0.01
    }
    bias_filler {
      type: "constant"
      value: 0
    }
    engine: CUDNN
  }
}
layer {
  name: "sum-dsn1"
  type: "Eltwise"
  bottom: "conv4-dsn1"
  bottom: "upscore-dsn2"
  top: "sum-dsn1"
  eltwise_param {
    operation: SUM
  }
}
layer {
  name: "crop2-dsn1"
  type: "Crop"
  bottom: "sum-dsn1"
  bottom: "data"
  top: "upscore-dsn1"
}
layer {
  name: "loss1-score"
  type: "SigmoidCrossEntropyLoss"
  bottom: "upscore-dsn1"
  bottom: "label"
  top: "loss1-score"
  loss_weight: 1
}
I1118 18:13:15.827548  2467 layer_factory.hpp:77] Creating layer data
I1118 18:13:15.827585  2467 net.cpp:100] Creating Layer data
I1118 18:13:15.827594  2467 net.cpp:408] data -> data_unaugmented
I1118 18:13:15.827608  2467 net.cpp:408] data -> label_unaugmented
I1118 18:13:15.827620  2467 image_labelmap_data_layer.cpp:41] Opening file /media/compute/homes/galberding/FleckDetect/Datasets/FleckDataSet/train/image_to_label_map.txt
I1118 18:13:15.829885  2467 image_labelmap_data_layer.cpp:51] Shuffling data
I1118 18:13:15.830049  2467 image_labelmap_data_layer.cpp:56] A total of 294 images.
I1118 18:13:16.133427  2467 image_labelmap_data_layer.cpp:110] output data size: 1,3,500,500
I1118 18:13:16.133468  2467 image_labelmap_data_layer.cpp:113] output label size: 1,1,500,500
I1118 18:13:16.142676  2467 net.cpp:150] Setting up data
I1118 18:13:16.142706  2467 net.cpp:157] Top shape: 1 3 500 500 (750000)
I1118 18:13:16.142712  2467 net.cpp:157] Top shape: 1 1 500 500 (250000)
I1118 18:13:16.142715  2467 net.cpp:165] Memory required for data: 4000000
I1118 18:13:16.142726  2467 layer_factory.hpp:77] Creating layer augmentation
I1118 18:13:16.149593  2467 net.cpp:100] Creating Layer augmentation
I1118 18:13:16.149605  2467 net.cpp:434] augmentation <- data_unaugmented
I1118 18:13:16.149627  2467 net.cpp:434] augmentation <- label_unaugmented
I1118 18:13:16.149634  2467 net.cpp:408] augmentation -> data
I1118 18:13:16.149642  2467 net.cpp:408] augmentation -> label
I1118 18:13:16.151358  2467 net.cpp:150] Setting up augmentation
I1118 18:13:16.151371  2467 net.cpp:157] Top shape: 1 3 500 500 (750000)
I1118 18:13:16.151373  2467 net.cpp:157] Top shape: 1 1 500 500 (250000)
I1118 18:13:16.151376  2467 net.cpp:165] Memory required for data: 8000000
I1118 18:13:16.151378  2467 layer_factory.hpp:77] Creating layer data_augmentation_0_split
I1118 18:13:16.151386  2467 net.cpp:100] Creating Layer data_augmentation_0_split
I1118 18:13:16.151389  2467 net.cpp:434] data_augmentation_0_split <- data
I1118 18:13:16.151396  2467 net.cpp:408] data_augmentation_0_split -> data_augmentation_0_split_0
I1118 18:13:16.151403  2467 net.cpp:408] data_augmentation_0_split -> data_augmentation_0_split_1
I1118 18:13:16.151407  2467 net.cpp:408] data_augmentation_0_split -> data_augmentation_0_split_2
I1118 18:13:16.151412  2467 net.cpp:408] data_augmentation_0_split -> data_augmentation_0_split_3
I1118 18:13:16.151417  2467 net.cpp:408] data_augmentation_0_split -> data_augmentation_0_split_4
I1118 18:13:16.151422  2467 net.cpp:408] data_augmentation_0_split -> data_augmentation_0_split_5
I1118 18:13:16.151427  2467 net.cpp:408] data_augmentation_0_split -> data_augmentation_0_split_6
I1118 18:13:16.151487  2467 net.cpp:150] Setting up data_augmentation_0_split
I1118 18:13:16.151494  2467 net.cpp:157] Top shape: 1 3 500 500 (750000)
I1118 18:13:16.151497  2467 net.cpp:157] Top shape: 1 3 500 500 (750000)
I1118 18:13:16.151499  2467 net.cpp:157] Top shape: 1 3 500 500 (750000)
I1118 18:13:16.151502  2467 net.cpp:157] Top shape: 1 3 500 500 (750000)
I1118 18:13:16.151505  2467 net.cpp:157] Top shape: 1 3 500 500 (750000)
I1118 18:13:16.151509  2467 net.cpp:157] Top shape: 1 3 500 500 (750000)
I1118 18:13:16.151510  2467 net.cpp:157] Top shape: 1 3 500 500 (750000)
I1118 18:13:16.151512  2467 net.cpp:165] Memory required for data: 29000000
I1118 18:13:16.151515  2467 layer_factory.hpp:77] Creating layer label_augmentation_1_split
I1118 18:13:16.151520  2467 net.cpp:100] Creating Layer label_augmentation_1_split
I1118 18:13:16.151521  2467 net.cpp:434] label_augmentation_1_split <- label
I1118 18:13:16.151526  2467 net.cpp:408] label_augmentation_1_split -> label_augmentation_1_split_0
I1118 18:13:16.151531  2467 net.cpp:408] label_augmentation_1_split -> label_augmentation_1_split_1
I1118 18:13:16.151535  2467 net.cpp:408] label_augmentation_1_split -> label_augmentation_1_split_2
I1118 18:13:16.151540  2467 net.cpp:408] label_augmentation_1_split -> label_augmentation_1_split_3
I1118 18:13:16.151545  2467 net.cpp:408] label_augmentation_1_split -> label_augmentation_1_split_4
I1118 18:13:16.151548  2467 net.cpp:408] label_augmentation_1_split -> label_augmentation_1_split_5
I1118 18:13:16.151616  2467 net.cpp:150] Setting up label_augmentation_1_split
I1118 18:13:16.151623  2467 net.cpp:157] Top shape: 1 1 500 500 (250000)
I1118 18:13:16.151625  2467 net.cpp:157] Top shape: 1 1 500 500 (250000)
I1118 18:13:16.151630  2467 net.cpp:157] Top shape: 1 1 500 500 (250000)
I1118 18:13:16.151634  2467 net.cpp:157] Top shape: 1 1 500 500 (250000)
I1118 18:13:16.151638  2467 net.cpp:157] Top shape: 1 1 500 500 (250000)
I1118 18:13:16.151641  2467 net.cpp:157] Top shape: 1 1 500 500 (250000)
I1118 18:13:16.151643  2467 net.cpp:165] Memory required for data: 35000000
I1118 18:13:16.151646  2467 layer_factory.hpp:77] Creating layer conv1_1
I1118 18:13:16.151656  2467 net.cpp:100] Creating Layer conv1_1
I1118 18:13:16.151659  2467 net.cpp:434] conv1_1 <- data_augmentation_0_split_0
I1118 18:13:16.151664  2467 net.cpp:408] conv1_1 -> conv1_1
I1118 18:13:16.490059  2467 net.cpp:150] Setting up conv1_1
I1118 18:13:16.490092  2467 net.cpp:157] Top shape: 1 64 500 500 (16000000)
I1118 18:13:16.490095  2467 net.cpp:165] Memory required for data: 99000000
I1118 18:13:16.490113  2467 layer_factory.hpp:77] Creating layer relu1_1
I1118 18:13:16.490125  2467 net.cpp:100] Creating Layer relu1_1
I1118 18:13:16.490144  2467 net.cpp:434] relu1_1 <- conv1_1
I1118 18:13:16.490149  2467 net.cpp:395] relu1_1 -> conv1_1 (in-place)
I1118 18:13:16.490217  2467 net.cpp:150] Setting up relu1_1
I1118 18:13:16.490226  2467 net.cpp:157] Top shape: 1 64 500 500 (16000000)
I1118 18:13:16.490229  2467 net.cpp:165] Memory required for data: 163000000
I1118 18:13:16.490231  2467 layer_factory.hpp:77] Creating layer conv1_2
I1118 18:13:16.490242  2467 net.cpp:100] Creating Layer conv1_2
I1118 18:13:16.490244  2467 net.cpp:434] conv1_2 <- conv1_1
I1118 18:13:16.490248  2467 net.cpp:408] conv1_2 -> conv1_2
I1118 18:13:16.491758  2467 net.cpp:150] Setting up conv1_2
I1118 18:13:16.491770  2467 net.cpp:157] Top shape: 1 64 500 500 (16000000)
I1118 18:13:16.491771  2467 net.cpp:165] Memory required for data: 227000000
I1118 18:13:16.491778  2467 layer_factory.hpp:77] Creating layer relu1_2
I1118 18:13:16.491783  2467 net.cpp:100] Creating Layer relu1_2
I1118 18:13:16.491786  2467 net.cpp:434] relu1_2 <- conv1_2
I1118 18:13:16.491789  2467 net.cpp:395] relu1_2 -> conv1_2 (in-place)
I1118 18:13:16.491845  2467 net.cpp:150] Setting up relu1_2
I1118 18:13:16.491852  2467 net.cpp:157] Top shape: 1 64 500 500 (16000000)
I1118 18:13:16.491853  2467 net.cpp:165] Memory required for data: 291000000
I1118 18:13:16.491856  2467 layer_factory.hpp:77] Creating layer conv1_2_relu1_2_0_split
I1118 18:13:16.491865  2467 net.cpp:100] Creating Layer conv1_2_relu1_2_0_split
I1118 18:13:16.491868  2467 net.cpp:434] conv1_2_relu1_2_0_split <- conv1_2
I1118 18:13:16.491873  2467 net.cpp:408] conv1_2_relu1_2_0_split -> conv1_2_relu1_2_0_split_0
I1118 18:13:16.491876  2467 net.cpp:408] conv1_2_relu1_2_0_split -> conv1_2_relu1_2_0_split_1
I1118 18:13:16.491904  2467 net.cpp:150] Setting up conv1_2_relu1_2_0_split
I1118 18:13:16.491909  2467 net.cpp:157] Top shape: 1 64 500 500 (16000000)
I1118 18:13:16.491911  2467 net.cpp:157] Top shape: 1 64 500 500 (16000000)
I1118 18:13:16.491914  2467 net.cpp:165] Memory required for data: 419000000
I1118 18:13:16.491915  2467 layer_factory.hpp:77] Creating layer pool1
I1118 18:13:16.491920  2467 net.cpp:100] Creating Layer pool1
I1118 18:13:16.491922  2467 net.cpp:434] pool1 <- conv1_2_relu1_2_0_split_0
I1118 18:13:16.491925  2467 net.cpp:408] pool1 -> pool1
I1118 18:13:16.491950  2467 net.cpp:150] Setting up pool1
I1118 18:13:16.491971  2467 net.cpp:157] Top shape: 1 64 250 250 (4000000)
I1118 18:13:16.491972  2467 net.cpp:165] Memory required for data: 435000000
I1118 18:13:16.491976  2467 layer_factory.hpp:77] Creating layer conv2_1
I1118 18:13:16.491981  2467 net.cpp:100] Creating Layer conv2_1
I1118 18:13:16.491983  2467 net.cpp:434] conv2_1 <- pool1
I1118 18:13:16.491987  2467 net.cpp:408] conv2_1 -> conv2_1
I1118 18:13:16.492619  2467 net.cpp:150] Setting up conv2_1
I1118 18:13:16.492630  2467 net.cpp:157] Top shape: 1 128 250 250 (8000000)
I1118 18:13:16.492631  2467 net.cpp:165] Memory required for data: 467000000
I1118 18:13:16.492640  2467 layer_factory.hpp:77] Creating layer relu2_1
I1118 18:13:16.492643  2467 net.cpp:100] Creating Layer relu2_1
I1118 18:13:16.492645  2467 net.cpp:434] relu2_1 <- conv2_1
I1118 18:13:16.492650  2467 net.cpp:395] relu2_1 -> conv2_1 (in-place)
I1118 18:13:16.492775  2467 net.cpp:150] Setting up relu2_1
I1118 18:13:16.492784  2467 net.cpp:157] Top shape: 1 128 250 250 (8000000)
I1118 18:13:16.492786  2467 net.cpp:165] Memory required for data: 499000000
I1118 18:13:16.492789  2467 layer_factory.hpp:77] Creating layer conv2_2
I1118 18:13:16.492795  2467 net.cpp:100] Creating Layer conv2_2
I1118 18:13:16.492799  2467 net.cpp:434] conv2_2 <- conv2_1
I1118 18:13:16.492817  2467 net.cpp:408] conv2_2 -> conv2_2
I1118 18:13:16.494448  2467 net.cpp:150] Setting up conv2_2
I1118 18:13:16.494460  2467 net.cpp:157] Top shape: 1 128 250 250 (8000000)
I1118 18:13:16.494478  2467 net.cpp:165] Memory required for data: 531000000
I1118 18:13:16.494483  2467 layer_factory.hpp:77] Creating layer relu2_2
I1118 18:13:16.494489  2467 net.cpp:100] Creating Layer relu2_2
I1118 18:13:16.494493  2467 net.cpp:434] relu2_2 <- conv2_2
I1118 18:13:16.494498  2467 net.cpp:395] relu2_2 -> conv2_2 (in-place)
I1118 18:13:16.494640  2467 net.cpp:150] Setting up relu2_2
I1118 18:13:16.494664  2467 net.cpp:157] Top shape: 1 128 250 250 (8000000)
I1118 18:13:16.494668  2467 net.cpp:165] Memory required for data: 563000000
I1118 18:13:16.494669  2467 layer_factory.hpp:77] Creating layer conv2_2_relu2_2_0_split
I1118 18:13:16.494675  2467 net.cpp:100] Creating Layer conv2_2_relu2_2_0_split
I1118 18:13:16.494678  2467 net.cpp:434] conv2_2_relu2_2_0_split <- conv2_2
I1118 18:13:16.494684  2467 net.cpp:408] conv2_2_relu2_2_0_split -> conv2_2_relu2_2_0_split_0
I1118 18:13:16.494689  2467 net.cpp:408] conv2_2_relu2_2_0_split -> conv2_2_relu2_2_0_split_1
I1118 18:13:16.494695  2467 net.cpp:408] conv2_2_relu2_2_0_split -> conv2_2_relu2_2_0_split_2
I1118 18:13:16.494738  2467 net.cpp:150] Setting up conv2_2_relu2_2_0_split
I1118 18:13:16.494743  2467 net.cpp:157] Top shape: 1 128 250 250 (8000000)
I1118 18:13:16.494746  2467 net.cpp:157] Top shape: 1 128 250 250 (8000000)
I1118 18:13:16.494750  2467 net.cpp:157] Top shape: 1 128 250 250 (8000000)
I1118 18:13:16.494751  2467 net.cpp:165] Memory required for data: 659000000
I1118 18:13:16.494755  2467 layer_factory.hpp:77] Creating layer pool2
I1118 18:13:16.494760  2467 net.cpp:100] Creating Layer pool2
I1118 18:13:16.494761  2467 net.cpp:434] pool2 <- conv2_2_relu2_2_0_split_0
I1118 18:13:16.494767  2467 net.cpp:408] pool2 -> pool2
I1118 18:13:16.494792  2467 net.cpp:150] Setting up pool2
I1118 18:13:16.494797  2467 net.cpp:157] Top shape: 1 128 125 125 (2000000)
I1118 18:13:16.494799  2467 net.cpp:165] Memory required for data: 667000000
I1118 18:13:16.494801  2467 layer_factory.hpp:77] Creating layer conv3_1
I1118 18:13:16.494812  2467 net.cpp:100] Creating Layer conv3_1
I1118 18:13:16.494815  2467 net.cpp:434] conv3_1 <- pool2
I1118 18:13:16.494820  2467 net.cpp:408] conv3_1 -> conv3_1
I1118 18:13:16.496270  2467 net.cpp:150] Setting up conv3_1
I1118 18:13:16.496302  2467 net.cpp:157] Top shape: 1 256 125 125 (4000000)
I1118 18:13:16.496305  2467 net.cpp:165] Memory required for data: 683000000
I1118 18:13:16.496313  2467 layer_factory.hpp:77] Creating layer relu3_1
I1118 18:13:16.496317  2467 net.cpp:100] Creating Layer relu3_1
I1118 18:13:16.496320  2467 net.cpp:434] relu3_1 <- conv3_1
I1118 18:13:16.496328  2467 net.cpp:395] relu3_1 -> conv3_1 (in-place)
I1118 18:13:16.496500  2467 net.cpp:150] Setting up relu3_1
I1118 18:13:16.496512  2467 net.cpp:157] Top shape: 1 256 125 125 (4000000)
I1118 18:13:16.496515  2467 net.cpp:165] Memory required for data: 699000000
I1118 18:13:16.496517  2467 layer_factory.hpp:77] Creating layer conv3_2
I1118 18:13:16.496523  2467 net.cpp:100] Creating Layer conv3_2
I1118 18:13:16.496526  2467 net.cpp:434] conv3_2 <- conv3_1
I1118 18:13:16.496532  2467 net.cpp:408] conv3_2 -> conv3_2
I1118 18:13:16.498350  2467 net.cpp:150] Setting up conv3_2
I1118 18:13:16.498361  2467 net.cpp:157] Top shape: 1 256 125 125 (4000000)
I1118 18:13:16.498379  2467 net.cpp:165] Memory required for data: 715000000
I1118 18:13:16.498385  2467 layer_factory.hpp:77] Creating layer relu3_2
I1118 18:13:16.498389  2467 net.cpp:100] Creating Layer relu3_2
I1118 18:13:16.498392  2467 net.cpp:434] relu3_2 <- conv3_2
I1118 18:13:16.498399  2467 net.cpp:395] relu3_2 -> conv3_2 (in-place)
I1118 18:13:16.498473  2467 net.cpp:150] Setting up relu3_2
I1118 18:13:16.498482  2467 net.cpp:157] Top shape: 1 256 125 125 (4000000)
I1118 18:13:16.498484  2467 net.cpp:165] Memory required for data: 731000000
I1118 18:13:16.498486  2467 layer_factory.hpp:77] Creating layer conv3_3
I1118 18:13:16.498492  2467 net.cpp:100] Creating Layer conv3_3
I1118 18:13:16.498495  2467 net.cpp:434] conv3_3 <- conv3_2
I1118 18:13:16.498502  2467 net.cpp:408] conv3_3 -> conv3_3
I1118 18:13:16.500362  2467 net.cpp:150] Setting up conv3_3
I1118 18:13:16.500373  2467 net.cpp:157] Top shape: 1 256 125 125 (4000000)
I1118 18:13:16.500391  2467 net.cpp:165] Memory required for data: 747000000
I1118 18:13:16.500396  2467 layer_factory.hpp:77] Creating layer relu3_3
I1118 18:13:16.500401  2467 net.cpp:100] Creating Layer relu3_3
I1118 18:13:16.500404  2467 net.cpp:434] relu3_3 <- conv3_3
I1118 18:13:16.500409  2467 net.cpp:395] relu3_3 -> conv3_3 (in-place)
I1118 18:13:16.500480  2467 net.cpp:150] Setting up relu3_3
I1118 18:13:16.500488  2467 net.cpp:157] Top shape: 1 256 125 125 (4000000)
I1118 18:13:16.500490  2467 net.cpp:165] Memory required for data: 763000000
I1118 18:13:16.500494  2467 layer_factory.hpp:77] Creating layer conv3_3_relu3_3_0_split
I1118 18:13:16.500499  2467 net.cpp:100] Creating Layer conv3_3_relu3_3_0_split
I1118 18:13:16.500502  2467 net.cpp:434] conv3_3_relu3_3_0_split <- conv3_3
I1118 18:13:16.500506  2467 net.cpp:408] conv3_3_relu3_3_0_split -> conv3_3_relu3_3_0_split_0
I1118 18:13:16.500511  2467 net.cpp:408] conv3_3_relu3_3_0_split -> conv3_3_relu3_3_0_split_1
I1118 18:13:16.500524  2467 net.cpp:408] conv3_3_relu3_3_0_split -> conv3_3_relu3_3_0_split_2
I1118 18:13:16.500563  2467 net.cpp:150] Setting up conv3_3_relu3_3_0_split
I1118 18:13:16.500568  2467 net.cpp:157] Top shape: 1 256 125 125 (4000000)
I1118 18:13:16.500572  2467 net.cpp:157] Top shape: 1 256 125 125 (4000000)
I1118 18:13:16.500576  2467 net.cpp:157] Top shape: 1 256 125 125 (4000000)
I1118 18:13:16.500577  2467 net.cpp:165] Memory required for data: 811000000
I1118 18:13:16.500579  2467 layer_factory.hpp:77] Creating layer pool3
I1118 18:13:16.500586  2467 net.cpp:100] Creating Layer pool3
I1118 18:13:16.500589  2467 net.cpp:434] pool3 <- conv3_3_relu3_3_0_split_0
I1118 18:13:16.500593  2467 net.cpp:408] pool3 -> pool3
I1118 18:13:16.500620  2467 net.cpp:150] Setting up pool3
I1118 18:13:16.500625  2467 net.cpp:157] Top shape: 1 256 63 63 (1016064)
I1118 18:13:16.500627  2467 net.cpp:165] Memory required for data: 815064256
I1118 18:13:16.500629  2467 layer_factory.hpp:77] Creating layer conv4_1
I1118 18:13:16.500638  2467 net.cpp:100] Creating Layer conv4_1
I1118 18:13:16.500639  2467 net.cpp:434] conv4_1 <- pool3
I1118 18:13:16.500643  2467 net.cpp:408] conv4_1 -> conv4_1
I1118 18:13:16.504575  2467 net.cpp:150] Setting up conv4_1
I1118 18:13:16.504586  2467 net.cpp:157] Top shape: 1 512 63 63 (2032128)
I1118 18:13:16.504590  2467 net.cpp:165] Memory required for data: 823192768
I1118 18:13:16.504593  2467 layer_factory.hpp:77] Creating layer relu4_1
I1118 18:13:16.504598  2467 net.cpp:100] Creating Layer relu4_1
I1118 18:13:16.504601  2467 net.cpp:434] relu4_1 <- conv4_1
I1118 18:13:16.504604  2467 net.cpp:395] relu4_1 -> conv4_1 (in-place)
I1118 18:13:16.504667  2467 net.cpp:150] Setting up relu4_1
I1118 18:13:16.504675  2467 net.cpp:157] Top shape: 1 512 63 63 (2032128)
I1118 18:13:16.504678  2467 net.cpp:165] Memory required for data: 831321280
I1118 18:13:16.504681  2467 layer_factory.hpp:77] Creating layer conv4_2
I1118 18:13:16.504688  2467 net.cpp:100] Creating Layer conv4_2
I1118 18:13:16.504689  2467 net.cpp:434] conv4_2 <- conv4_1
I1118 18:13:16.504698  2467 net.cpp:408] conv4_2 -> conv4_2
I1118 18:13:16.509729  2467 net.cpp:150] Setting up conv4_2
I1118 18:13:16.509740  2467 net.cpp:157] Top shape: 1 512 63 63 (2032128)
I1118 18:13:16.509743  2467 net.cpp:165] Memory required for data: 839449792
I1118 18:13:16.509753  2467 layer_factory.hpp:77] Creating layer relu4_2
I1118 18:13:16.509759  2467 net.cpp:100] Creating Layer relu4_2
I1118 18:13:16.509763  2467 net.cpp:434] relu4_2 <- conv4_2
I1118 18:13:16.509765  2467 net.cpp:395] relu4_2 -> conv4_2 (in-place)
I1118 18:13:16.509940  2467 net.cpp:150] Setting up relu4_2
I1118 18:13:16.509951  2467 net.cpp:157] Top shape: 1 512 63 63 (2032128)
I1118 18:13:16.509953  2467 net.cpp:165] Memory required for data: 847578304
I1118 18:13:16.509956  2467 layer_factory.hpp:77] Creating layer conv4_3
I1118 18:13:16.509964  2467 net.cpp:100] Creating Layer conv4_3
I1118 18:13:16.509966  2467 net.cpp:434] conv4_3 <- conv4_2
I1118 18:13:16.509971  2467 net.cpp:408] conv4_3 -> conv4_3
I1118 18:13:16.514905  2467 net.cpp:150] Setting up conv4_3
I1118 18:13:16.514917  2467 net.cpp:157] Top shape: 1 512 63 63 (2032128)
I1118 18:13:16.514935  2467 net.cpp:165] Memory required for data: 855706816
I1118 18:13:16.514940  2467 layer_factory.hpp:77] Creating layer relu4_3
I1118 18:13:16.514946  2467 net.cpp:100] Creating Layer relu4_3
I1118 18:13:16.514950  2467 net.cpp:434] relu4_3 <- conv4_3
I1118 18:13:16.514955  2467 net.cpp:395] relu4_3 -> conv4_3 (in-place)
I1118 18:13:16.515105  2467 net.cpp:150] Setting up relu4_3
I1118 18:13:16.515113  2467 net.cpp:157] Top shape: 1 512 63 63 (2032128)
I1118 18:13:16.515115  2467 net.cpp:165] Memory required for data: 863835328
I1118 18:13:16.515118  2467 layer_factory.hpp:77] Creating layer conv4_3_relu4_3_0_split
I1118 18:13:16.515125  2467 net.cpp:100] Creating Layer conv4_3_relu4_3_0_split
I1118 18:13:16.515128  2467 net.cpp:434] conv4_3_relu4_3_0_split <- conv4_3
I1118 18:13:16.515132  2467 net.cpp:408] conv4_3_relu4_3_0_split -> conv4_3_relu4_3_0_split_0
I1118 18:13:16.515141  2467 net.cpp:408] conv4_3_relu4_3_0_split -> conv4_3_relu4_3_0_split_1
I1118 18:13:16.515144  2467 net.cpp:408] conv4_3_relu4_3_0_split -> conv4_3_relu4_3_0_split_2
I1118 18:13:16.515202  2467 net.cpp:150] Setting up conv4_3_relu4_3_0_split
I1118 18:13:16.515208  2467 net.cpp:157] Top shape: 1 512 63 63 (2032128)
I1118 18:13:16.515211  2467 net.cpp:157] Top shape: 1 512 63 63 (2032128)
I1118 18:13:16.515214  2467 net.cpp:157] Top shape: 1 512 63 63 (2032128)
I1118 18:13:16.515215  2467 net.cpp:165] Memory required for data: 888220864
I1118 18:13:16.515218  2467 layer_factory.hpp:77] Creating layer pool4
I1118 18:13:16.515225  2467 net.cpp:100] Creating Layer pool4
I1118 18:13:16.515228  2467 net.cpp:434] pool4 <- conv4_3_relu4_3_0_split_0
I1118 18:13:16.515231  2467 net.cpp:408] pool4 -> pool4
I1118 18:13:16.515261  2467 net.cpp:150] Setting up pool4
I1118 18:13:16.515265  2467 net.cpp:157] Top shape: 1 512 32 32 (524288)
I1118 18:13:16.515267  2467 net.cpp:165] Memory required for data: 890318016
I1118 18:13:16.515269  2467 layer_factory.hpp:77] Creating layer conv5_1
I1118 18:13:16.515283  2467 net.cpp:100] Creating Layer conv5_1
I1118 18:13:16.515285  2467 net.cpp:434] conv5_1 <- pool4
I1118 18:13:16.515290  2467 net.cpp:408] conv5_1 -> conv5_1
I1118 18:13:16.521530  2467 net.cpp:150] Setting up conv5_1
I1118 18:13:16.521564  2467 net.cpp:157] Top shape: 1 512 32 32 (524288)
I1118 18:13:16.521565  2467 net.cpp:165] Memory required for data: 892415168
I1118 18:13:16.521571  2467 layer_factory.hpp:77] Creating layer relu5_1
I1118 18:13:16.521577  2467 net.cpp:100] Creating Layer relu5_1
I1118 18:13:16.521581  2467 net.cpp:434] relu5_1 <- conv5_1
I1118 18:13:16.521587  2467 net.cpp:395] relu5_1 -> conv5_1 (in-place)
I1118 18:13:16.521662  2467 net.cpp:150] Setting up relu5_1
I1118 18:13:16.521669  2467 net.cpp:157] Top shape: 1 512 32 32 (524288)
I1118 18:13:16.521672  2467 net.cpp:165] Memory required for data: 894512320
I1118 18:13:16.521674  2467 layer_factory.hpp:77] Creating layer conv5_2
I1118 18:13:16.521682  2467 net.cpp:100] Creating Layer conv5_2
I1118 18:13:16.521684  2467 net.cpp:434] conv5_2 <- conv5_1
I1118 18:13:16.521689  2467 net.cpp:408] conv5_2 -> conv5_2
I1118 18:13:16.527099  2467 net.cpp:150] Setting up conv5_2
I1118 18:13:16.527132  2467 net.cpp:157] Top shape: 1 512 32 32 (524288)
I1118 18:13:16.527133  2467 net.cpp:165] Memory required for data: 896609472
I1118 18:13:16.527139  2467 layer_factory.hpp:77] Creating layer relu5_2
I1118 18:13:16.527146  2467 net.cpp:100] Creating Layer relu5_2
I1118 18:13:16.527149  2467 net.cpp:434] relu5_2 <- conv5_2
I1118 18:13:16.527153  2467 net.cpp:395] relu5_2 -> conv5_2 (in-place)
I1118 18:13:16.527223  2467 net.cpp:150] Setting up relu5_2
I1118 18:13:16.527236  2467 net.cpp:157] Top shape: 1 512 32 32 (524288)
I1118 18:13:16.527238  2467 net.cpp:165] Memory required for data: 898706624
I1118 18:13:16.527240  2467 layer_factory.hpp:77] Creating layer conv5_3
I1118 18:13:16.527251  2467 net.cpp:100] Creating Layer conv5_3
I1118 18:13:16.527254  2467 net.cpp:434] conv5_3 <- conv5_2
I1118 18:13:16.527258  2467 net.cpp:408] conv5_3 -> conv5_3
I1118 18:13:16.532282  2467 net.cpp:150] Setting up conv5_3
I1118 18:13:16.532294  2467 net.cpp:157] Top shape: 1 512 32 32 (524288)
I1118 18:13:16.532296  2467 net.cpp:165] Memory required for data: 900803776
I1118 18:13:16.532308  2467 layer_factory.hpp:77] Creating layer relu5_3
I1118 18:13:16.532313  2467 net.cpp:100] Creating Layer relu5_3
I1118 18:13:16.532316  2467 net.cpp:434] relu5_3 <- conv5_3
I1118 18:13:16.532321  2467 net.cpp:395] relu5_3 -> conv5_3 (in-place)
I1118 18:13:16.532390  2467 net.cpp:150] Setting up relu5_3
I1118 18:13:16.532397  2467 net.cpp:157] Top shape: 1 512 32 32 (524288)
I1118 18:13:16.532399  2467 net.cpp:165] Memory required for data: 902900928
I1118 18:13:16.532402  2467 layer_factory.hpp:77] Creating layer conv5_3_relu5_3_0_split
I1118 18:13:16.532407  2467 net.cpp:100] Creating Layer conv5_3_relu5_3_0_split
I1118 18:13:16.532409  2467 net.cpp:434] conv5_3_relu5_3_0_split <- conv5_3
I1118 18:13:16.532413  2467 net.cpp:408] conv5_3_relu5_3_0_split -> conv5_3_relu5_3_0_split_0
I1118 18:13:16.532418  2467 net.cpp:408] conv5_3_relu5_3_0_split -> conv5_3_relu5_3_0_split_1
I1118 18:13:16.532423  2467 net.cpp:408] conv5_3_relu5_3_0_split -> conv5_3_relu5_3_0_split_2
I1118 18:13:16.532454  2467 net.cpp:150] Setting up conv5_3_relu5_3_0_split
I1118 18:13:16.532459  2467 net.cpp:157] Top shape: 1 512 32 32 (524288)
I1118 18:13:16.532461  2467 net.cpp:157] Top shape: 1 512 32 32 (524288)
I1118 18:13:16.532464  2467 net.cpp:157] Top shape: 1 512 32 32 (524288)
I1118 18:13:16.532465  2467 net.cpp:165] Memory required for data: 909192384
I1118 18:13:16.532467  2467 layer_factory.hpp:77] Creating layer pool5
I1118 18:13:16.532490  2467 net.cpp:100] Creating Layer pool5
I1118 18:13:16.532492  2467 net.cpp:434] pool5 <- conv5_3_relu5_3_0_split_0
I1118 18:13:16.532498  2467 net.cpp:408] pool5 -> pool5
I1118 18:13:16.532526  2467 net.cpp:150] Setting up pool5
I1118 18:13:16.532528  2467 net.cpp:157] Top shape: 1 512 17 17 (147968)
I1118 18:13:16.532531  2467 net.cpp:165] Memory required for data: 909784256
I1118 18:13:16.532532  2467 layer_factory.hpp:77] Creating layer conv1-dsn6
I1118 18:13:16.532541  2467 net.cpp:100] Creating Layer conv1-dsn6
I1118 18:13:16.532543  2467 net.cpp:434] conv1-dsn6 <- pool5
I1118 18:13:16.532564  2467 net.cpp:408] conv1-dsn6 -> conv1-dsn6
I1118 18:13:16.534173  2467 net.cpp:150] Setting up conv1-dsn6
I1118 18:13:16.534183  2467 net.cpp:157] Top shape: 1 256 17 17 (73984)
I1118 18:13:16.534185  2467 net.cpp:165] Memory required for data: 910080192
I1118 18:13:16.534190  2467 layer_factory.hpp:77] Creating layer conv2-dsn6
I1118 18:13:16.534198  2467 net.cpp:100] Creating Layer conv2-dsn6
I1118 18:13:16.534201  2467 net.cpp:434] conv2-dsn6 <- conv1-dsn6
I1118 18:13:16.534207  2467 net.cpp:408] conv2-dsn6 -> conv2-dsn6
I1118 18:13:16.550670  2467 net.cpp:150] Setting up conv2-dsn6
I1118 18:13:16.550681  2467 net.cpp:157] Top shape: 1 256 17 17 (73984)
I1118 18:13:16.550684  2467 net.cpp:165] Memory required for data: 910376128
I1118 18:13:16.550689  2467 layer_factory.hpp:77] Creating layer relu1-dsn6
I1118 18:13:16.550695  2467 net.cpp:100] Creating Layer relu1-dsn6
I1118 18:13:16.550698  2467 net.cpp:434] relu1-dsn6 <- conv2-dsn6
I1118 18:13:16.550702  2467 net.cpp:395] relu1-dsn6 -> conv2-dsn6 (in-place)
I1118 18:13:16.550765  2467 net.cpp:150] Setting up relu1-dsn6
I1118 18:13:16.550771  2467 net.cpp:157] Top shape: 1 256 17 17 (73984)
I1118 18:13:16.550774  2467 net.cpp:165] Memory required for data: 910672064
I1118 18:13:16.550778  2467 layer_factory.hpp:77] Creating layer conv3-dsn6
I1118 18:13:16.550787  2467 net.cpp:100] Creating Layer conv3-dsn6
I1118 18:13:16.550791  2467 net.cpp:434] conv3-dsn6 <- conv2-dsn6
I1118 18:13:16.550794  2467 net.cpp:408] conv3-dsn6 -> conv3-dsn6
I1118 18:13:16.566102  2467 net.cpp:150] Setting up conv3-dsn6
I1118 18:13:16.566112  2467 net.cpp:157] Top shape: 1 256 17 17 (73984)
I1118 18:13:16.566114  2467 net.cpp:165] Memory required for data: 910968000
I1118 18:13:16.566119  2467 layer_factory.hpp:77] Creating layer relu2-dsn6
I1118 18:13:16.566124  2467 net.cpp:100] Creating Layer relu2-dsn6
I1118 18:13:16.566126  2467 net.cpp:434] relu2-dsn6 <- conv3-dsn6
I1118 18:13:16.566131  2467 net.cpp:395] relu2-dsn6 -> conv3-dsn6 (in-place)
I1118 18:13:16.566195  2467 net.cpp:150] Setting up relu2-dsn6
I1118 18:13:16.566200  2467 net.cpp:157] Top shape: 1 256 17 17 (73984)
I1118 18:13:16.566203  2467 net.cpp:165] Memory required for data: 911263936
I1118 18:13:16.566206  2467 layer_factory.hpp:77] Creating layer conv4-dsn6
I1118 18:13:16.566215  2467 net.cpp:100] Creating Layer conv4-dsn6
I1118 18:13:16.566218  2467 net.cpp:434] conv4-dsn6 <- conv3-dsn6
I1118 18:13:16.566223  2467 net.cpp:408] conv4-dsn6 -> conv4-dsn6
I1118 18:13:16.581971  2467 net.cpp:150] Setting up conv4-dsn6
I1118 18:13:16.581982  2467 net.cpp:157] Top shape: 1 256 17 17 (73984)
I1118 18:13:16.582001  2467 net.cpp:165] Memory required for data: 911559872
I1118 18:13:16.582015  2467 layer_factory.hpp:77] Creating layer relu3-dsn6
I1118 18:13:16.582022  2467 net.cpp:100] Creating Layer relu3-dsn6
I1118 18:13:16.582026  2467 net.cpp:434] relu3-dsn6 <- conv4-dsn6
I1118 18:13:16.582029  2467 net.cpp:395] relu3-dsn6 -> conv4-dsn6 (in-place)
I1118 18:13:16.582178  2467 net.cpp:150] Setting up relu3-dsn6
I1118 18:13:16.582202  2467 net.cpp:157] Top shape: 1 256 17 17 (73984)
I1118 18:13:16.582204  2467 net.cpp:165] Memory required for data: 911855808
I1118 18:13:16.582208  2467 layer_factory.hpp:77] Creating layer conv5-dsn6
I1118 18:13:16.582217  2467 net.cpp:100] Creating Layer conv5-dsn6
I1118 18:13:16.582221  2467 net.cpp:434] conv5-dsn6 <- conv4-dsn6
I1118 18:13:16.582226  2467 net.cpp:408] conv5-dsn6 -> conv5-dsn6
I1118 18:13:16.582752  2467 net.cpp:150] Setting up conv5-dsn6
I1118 18:13:16.582777  2467 net.cpp:157] Top shape: 1 1 17 17 (289)
I1118 18:13:16.582793  2467 net.cpp:165] Memory required for data: 911856964
I1118 18:13:16.582798  2467 layer_factory.hpp:77] Creating layer conv5-dsn6_conv5-dsn6_0_split
I1118 18:13:16.582804  2467 net.cpp:100] Creating Layer conv5-dsn6_conv5-dsn6_0_split
I1118 18:13:16.582806  2467 net.cpp:434] conv5-dsn6_conv5-dsn6_0_split <- conv5-dsn6
I1118 18:13:16.582813  2467 net.cpp:408] conv5-dsn6_conv5-dsn6_0_split -> conv5-dsn6_conv5-dsn6_0_split_0
I1118 18:13:16.582819  2467 net.cpp:408] conv5-dsn6_conv5-dsn6_0_split -> conv5-dsn6_conv5-dsn6_0_split_1
I1118 18:13:16.582851  2467 net.cpp:150] Setting up conv5-dsn6_conv5-dsn6_0_split
I1118 18:13:16.582854  2467 net.cpp:157] Top shape: 1 1 17 17 (289)
I1118 18:13:16.582857  2467 net.cpp:157] Top shape: 1 1 17 17 (289)
I1118 18:13:16.582859  2467 net.cpp:165] Memory required for data: 911859276
I1118 18:13:16.582861  2467 layer_factory.hpp:77] Creating layer upsample32_dsn6
I1118 18:13:16.582868  2467 net.cpp:100] Creating Layer upsample32_dsn6
I1118 18:13:16.582871  2467 net.cpp:434] upsample32_dsn6 <- conv5-dsn6_conv5-dsn6_0_split_0
I1118 18:13:16.582875  2467 net.cpp:408] upsample32_dsn6 -> conv5-dsn6-up
I1118 18:13:16.584069  2467 net.cpp:150] Setting up upsample32_dsn6
I1118 18:13:16.584077  2467 net.cpp:157] Top shape: 1 1 576 576 (331776)
I1118 18:13:16.584095  2467 net.cpp:165] Memory required for data: 913186380
I1118 18:13:16.584100  2467 layer_factory.hpp:77] Creating layer crop-dsn6
I1118 18:13:16.584106  2467 net.cpp:100] Creating Layer crop-dsn6
I1118 18:13:16.584108  2467 net.cpp:434] crop-dsn6 <- conv5-dsn6-up
I1118 18:13:16.584112  2467 net.cpp:434] crop-dsn6 <- data_augmentation_0_split_1
I1118 18:13:16.584121  2467 net.cpp:408] crop-dsn6 -> upscore-dsn6
I1118 18:13:16.584147  2467 net.cpp:150] Setting up crop-dsn6
I1118 18:13:16.584151  2467 net.cpp:157] Top shape: 1 1 500 500 (250000)
I1118 18:13:16.584153  2467 net.cpp:165] Memory required for data: 914186380
I1118 18:13:16.584156  2467 layer_factory.hpp:77] Creating layer loss6-score
I1118 18:13:16.584162  2467 net.cpp:100] Creating Layer loss6-score
I1118 18:13:16.584165  2467 net.cpp:434] loss6-score <- upscore-dsn6
I1118 18:13:16.584168  2467 net.cpp:434] loss6-score <- label_augmentation_1_split_0
I1118 18:13:16.584172  2467 net.cpp:408] loss6-score -> loss6-score
I1118 18:13:16.585211  2467 net.cpp:150] Setting up loss6-score
I1118 18:13:16.585218  2467 net.cpp:157] Top shape: (1)
I1118 18:13:16.585237  2467 net.cpp:160]     with loss weight 1
I1118 18:13:16.585250  2467 net.cpp:165] Memory required for data: 914186384
I1118 18:13:16.585253  2467 layer_factory.hpp:77] Creating layer upsample2_dsn5
I1118 18:13:16.585261  2467 net.cpp:100] Creating Layer upsample2_dsn5
I1118 18:13:16.585263  2467 net.cpp:434] upsample2_dsn5 <- conv5-dsn6_conv5-dsn6_0_split_1
I1118 18:13:16.585270  2467 net.cpp:408] upsample2_dsn5 -> conv5-dsn6-5
I1118 18:13:16.585474  2467 net.cpp:150] Setting up upsample2_dsn5
I1118 18:13:16.585480  2467 net.cpp:157] Top shape: 1 1 36 36 (1296)
I1118 18:13:16.585498  2467 net.cpp:165] Memory required for data: 914191568
I1118 18:13:16.585502  2467 layer_factory.hpp:77] Creating layer crop1-dsn5
I1118 18:13:16.585508  2467 net.cpp:100] Creating Layer crop1-dsn5
I1118 18:13:16.585511  2467 net.cpp:434] crop1-dsn5 <- conv5-dsn6-5
I1118 18:13:16.585515  2467 net.cpp:434] crop1-dsn5 <- conv5_3_relu5_3_0_split_1
I1118 18:13:16.585520  2467 net.cpp:408] crop1-dsn5 -> weight-dsn6-5
I1118 18:13:16.585538  2467 net.cpp:150] Setting up crop1-dsn5
I1118 18:13:16.585544  2467 net.cpp:157] Top shape: 1 1 32 32 (1024)
I1118 18:13:16.585546  2467 net.cpp:165] Memory required for data: 914195664
I1118 18:13:16.585549  2467 layer_factory.hpp:77] Creating layer weight-dsn6-5_crop1-dsn5_0_split
I1118 18:13:16.585553  2467 net.cpp:100] Creating Layer weight-dsn6-5_crop1-dsn5_0_split
I1118 18:13:16.585556  2467 net.cpp:434] weight-dsn6-5_crop1-dsn5_0_split <- weight-dsn6-5
I1118 18:13:16.585562  2467 net.cpp:408] weight-dsn6-5_crop1-dsn5_0_split -> weight-dsn6-5_crop1-dsn5_0_split_0
I1118 18:13:16.585567  2467 net.cpp:408] weight-dsn6-5_crop1-dsn5_0_split -> weight-dsn6-5_crop1-dsn5_0_split_1
I1118 18:13:16.585594  2467 net.cpp:150] Setting up weight-dsn6-5_crop1-dsn5_0_split
I1118 18:13:16.585599  2467 net.cpp:157] Top shape: 1 1 32 32 (1024)
I1118 18:13:16.585602  2467 net.cpp:157] Top shape: 1 1 32 32 (1024)
I1118 18:13:16.585604  2467 net.cpp:165] Memory required for data: 914203856
I1118 18:13:16.585608  2467 layer_factory.hpp:77] Creating layer sigmoid-dsn5
I1118 18:13:16.585611  2467 net.cpp:100] Creating Layer sigmoid-dsn5
I1118 18:13:16.585613  2467 net.cpp:434] sigmoid-dsn5 <- weight-dsn6-5_crop1-dsn5_0_split_0
I1118 18:13:16.585618  2467 net.cpp:408] sigmoid-dsn5 -> sigmoid-dsn5
I1118 18:13:16.585800  2467 net.cpp:150] Setting up sigmoid-dsn5
I1118 18:13:16.585810  2467 net.cpp:157] Top shape: 1 1 32 32 (1024)
I1118 18:13:16.585813  2467 net.cpp:165] Memory required for data: 914207952
I1118 18:13:16.585815  2467 layer_factory.hpp:77] Creating layer rev-dsn5
I1118 18:13:16.585822  2467 net.cpp:100] Creating Layer rev-dsn5
I1118 18:13:16.585825  2467 net.cpp:434] rev-dsn5 <- sigmoid-dsn5
I1118 18:13:16.585829  2467 net.cpp:408] rev-dsn5 -> rev-dsn5
I1118 18:13:16.585863  2467 net.cpp:150] Setting up rev-dsn5
I1118 18:13:16.585870  2467 net.cpp:157] Top shape: 1 1 32 32 (1024)
I1118 18:13:16.585871  2467 net.cpp:165] Memory required for data: 914212048
I1118 18:13:16.585875  2467 layer_factory.hpp:77] Creating layer tile-dsn5
I1118 18:13:16.585878  2467 net.cpp:100] Creating Layer tile-dsn5
I1118 18:13:16.585881  2467 net.cpp:434] tile-dsn5 <- rev-dsn5
I1118 18:13:16.585886  2467 net.cpp:408] tile-dsn5 -> weight-dsn5
I1118 18:13:16.585901  2467 net.cpp:150] Setting up tile-dsn5
I1118 18:13:16.585906  2467 net.cpp:157] Top shape: 1 512 32 32 (524288)
I1118 18:13:16.585907  2467 net.cpp:165] Memory required for data: 916309200
I1118 18:13:16.585909  2467 layer_factory.hpp:77] Creating layer prod1-dsn5
I1118 18:13:16.585916  2467 net.cpp:100] Creating Layer prod1-dsn5
I1118 18:13:16.585919  2467 net.cpp:434] prod1-dsn5 <- conv5_3_relu5_3_0_split_2
I1118 18:13:16.585923  2467 net.cpp:434] prod1-dsn5 <- weight-dsn5
I1118 18:13:16.585928  2467 net.cpp:408] prod1-dsn5 -> prod1-dsn5
I1118 18:13:16.585945  2467 net.cpp:150] Setting up prod1-dsn5
I1118 18:13:16.585952  2467 net.cpp:157] Top shape: 1 512 32 32 (524288)
I1118 18:13:16.585953  2467 net.cpp:165] Memory required for data: 918406352
I1118 18:13:16.585955  2467 layer_factory.hpp:77] Creating layer conv1-dsn5
I1118 18:13:16.585964  2467 net.cpp:100] Creating Layer conv1-dsn5
I1118 18:13:16.585966  2467 net.cpp:434] conv1-dsn5 <- prod1-dsn5
I1118 18:13:16.585973  2467 net.cpp:408] conv1-dsn5 -> conv1-dsn5
I1118 18:13:16.588030  2467 net.cpp:150] Setting up conv1-dsn5
I1118 18:13:16.588042  2467 net.cpp:157] Top shape: 1 64 32 32 (65536)
I1118 18:13:16.588043  2467 net.cpp:165] Memory required for data: 918668496
I1118 18:13:16.588064  2467 layer_factory.hpp:77] Creating layer conv2-dsn5
I1118 18:13:16.588073  2467 net.cpp:100] Creating Layer conv2-dsn5
I1118 18:13:16.588076  2467 net.cpp:434] conv2-dsn5 <- conv1-dsn5
I1118 18:13:16.588083  2467 net.cpp:408] conv2-dsn5 -> conv2-dsn5
I1118 18:13:16.589004  2467 net.cpp:150] Setting up conv2-dsn5
I1118 18:13:16.589015  2467 net.cpp:157] Top shape: 1 64 32 32 (65536)
I1118 18:13:16.589032  2467 net.cpp:165] Memory required for data: 918930640
I1118 18:13:16.589036  2467 layer_factory.hpp:77] Creating layer relu1-dsn5
I1118 18:13:16.589041  2467 net.cpp:100] Creating Layer relu1-dsn5
I1118 18:13:16.589045  2467 net.cpp:434] relu1-dsn5 <- conv2-dsn5
I1118 18:13:16.589049  2467 net.cpp:395] relu1-dsn5 -> conv2-dsn5 (in-place)
I1118 18:13:16.589197  2467 net.cpp:150] Setting up relu1-dsn5
I1118 18:13:16.589208  2467 net.cpp:157] Top shape: 1 64 32 32 (65536)
I1118 18:13:16.589210  2467 net.cpp:165] Memory required for data: 919192784
I1118 18:13:16.589213  2467 layer_factory.hpp:77] Creating layer conv3-dsn5
I1118 18:13:16.589221  2467 net.cpp:100] Creating Layer conv3-dsn5
I1118 18:13:16.589224  2467 net.cpp:434] conv3-dsn5 <- conv2-dsn5
I1118 18:13:16.589229  2467 net.cpp:408] conv3-dsn5 -> conv3-dsn5
I1118 18:13:16.590044  2467 net.cpp:150] Setting up conv3-dsn5
I1118 18:13:16.590052  2467 net.cpp:157] Top shape: 1 64 32 32 (65536)
I1118 18:13:16.590070  2467 net.cpp:165] Memory required for data: 919454928
I1118 18:13:16.590075  2467 layer_factory.hpp:77] Creating layer relu2-dsn5
I1118 18:13:16.590080  2467 net.cpp:100] Creating Layer relu2-dsn5
I1118 18:13:16.590082  2467 net.cpp:434] relu2-dsn5 <- conv3-dsn5
I1118 18:13:16.590088  2467 net.cpp:395] relu2-dsn5 -> conv3-dsn5 (in-place)
I1118 18:13:16.590236  2467 net.cpp:150] Setting up relu2-dsn5
I1118 18:13:16.590245  2467 net.cpp:157] Top shape: 1 64 32 32 (65536)
I1118 18:13:16.590247  2467 net.cpp:165] Memory required for data: 919717072
I1118 18:13:16.590250  2467 layer_factory.hpp:77] Creating layer conv4-dsn5
I1118 18:13:16.590270  2467 net.cpp:100] Creating Layer conv4-dsn5
I1118 18:13:16.590273  2467 net.cpp:434] conv4-dsn5 <- conv3-dsn5
I1118 18:13:16.590278  2467 net.cpp:408] conv4-dsn5 -> conv4-dsn5
I1118 18:13:16.590926  2467 net.cpp:150] Setting up conv4-dsn5
I1118 18:13:16.590936  2467 net.cpp:157] Top shape: 1 1 32 32 (1024)
I1118 18:13:16.590939  2467 net.cpp:165] Memory required for data: 919721168
I1118 18:13:16.590943  2467 layer_factory.hpp:77] Creating layer sum-dsn5
I1118 18:13:16.590950  2467 net.cpp:100] Creating Layer sum-dsn5
I1118 18:13:16.590953  2467 net.cpp:434] sum-dsn5 <- conv4-dsn5
I1118 18:13:16.590956  2467 net.cpp:434] sum-dsn5 <- weight-dsn6-5_crop1-dsn5_0_split_1
I1118 18:13:16.590960  2467 net.cpp:408] sum-dsn5 -> sum-dsn5
I1118 18:13:16.590977  2467 net.cpp:150] Setting up sum-dsn5
I1118 18:13:16.590981  2467 net.cpp:157] Top shape: 1 1 32 32 (1024)
I1118 18:13:16.590982  2467 net.cpp:165] Memory required for data: 919725264
I1118 18:13:16.590984  2467 layer_factory.hpp:77] Creating layer sum-dsn5_sum-dsn5_0_split
I1118 18:13:16.590988  2467 net.cpp:100] Creating Layer sum-dsn5_sum-dsn5_0_split
I1118 18:13:16.590991  2467 net.cpp:434] sum-dsn5_sum-dsn5_0_split <- sum-dsn5
I1118 18:13:16.590996  2467 net.cpp:408] sum-dsn5_sum-dsn5_0_split -> sum-dsn5_sum-dsn5_0_split_0
I1118 18:13:16.590999  2467 net.cpp:408] sum-dsn5_sum-dsn5_0_split -> sum-dsn5_sum-dsn5_0_split_1
I1118 18:13:16.591024  2467 net.cpp:150] Setting up sum-dsn5_sum-dsn5_0_split
I1118 18:13:16.591027  2467 net.cpp:157] Top shape: 1 1 32 32 (1024)
I1118 18:13:16.591029  2467 net.cpp:157] Top shape: 1 1 32 32 (1024)
I1118 18:13:16.591032  2467 net.cpp:165] Memory required for data: 919733456
I1118 18:13:16.591035  2467 layer_factory.hpp:77] Creating layer upsample16_dsn5
I1118 18:13:16.591042  2467 net.cpp:100] Creating Layer upsample16_dsn5
I1118 18:13:16.591044  2467 net.cpp:434] upsample16_dsn5 <- sum-dsn5_sum-dsn5_0_split_0
I1118 18:13:16.591048  2467 net.cpp:408] upsample16_dsn5 -> sum-dsn5-up
I1118 18:13:16.592437  2467 net.cpp:150] Setting up upsample16_dsn5
I1118 18:13:16.592447  2467 net.cpp:157] Top shape: 1 1 528 528 (278784)
I1118 18:13:16.592449  2467 net.cpp:165] Memory required for data: 920848592
I1118 18:13:16.592454  2467 layer_factory.hpp:77] Creating layer crop2-dsn5
I1118 18:13:16.592461  2467 net.cpp:100] Creating Layer crop2-dsn5
I1118 18:13:16.592464  2467 net.cpp:434] crop2-dsn5 <- sum-dsn5-up
I1118 18:13:16.592468  2467 net.cpp:434] crop2-dsn5 <- data_augmentation_0_split_2
I1118 18:13:16.592471  2467 net.cpp:408] crop2-dsn5 -> upscore-dsn5
I1118 18:13:16.592496  2467 net.cpp:150] Setting up crop2-dsn5
I1118 18:13:16.592499  2467 net.cpp:157] Top shape: 1 1 500 500 (250000)
I1118 18:13:16.592501  2467 net.cpp:165] Memory required for data: 921848592
I1118 18:13:16.592504  2467 layer_factory.hpp:77] Creating layer loss5-score
I1118 18:13:16.592510  2467 net.cpp:100] Creating Layer loss5-score
I1118 18:13:16.592512  2467 net.cpp:434] loss5-score <- upscore-dsn5
I1118 18:13:16.592515  2467 net.cpp:434] loss5-score <- label_augmentation_1_split_1
I1118 18:13:16.592521  2467 net.cpp:408] loss5-score -> loss5-score
I1118 18:13:16.592717  2467 net.cpp:150] Setting up loss5-score
I1118 18:13:16.592722  2467 net.cpp:157] Top shape: (1)
I1118 18:13:16.592725  2467 net.cpp:160]     with loss weight 1
I1118 18:13:16.592732  2467 net.cpp:165] Memory required for data: 921848596
I1118 18:13:16.592736  2467 layer_factory.hpp:77] Creating layer upsample2_dsn4
I1118 18:13:16.592742  2467 net.cpp:100] Creating Layer upsample2_dsn4
I1118 18:13:16.592746  2467 net.cpp:434] upsample2_dsn4 <- sum-dsn5_sum-dsn5_0_split_1
I1118 18:13:16.592749  2467 net.cpp:408] upsample2_dsn4 -> sum-dsn5-4
I1118 18:13:16.592931  2467 net.cpp:150] Setting up upsample2_dsn4
I1118 18:13:16.592936  2467 net.cpp:157] Top shape: 1 1 66 66 (4356)
I1118 18:13:16.592938  2467 net.cpp:165] Memory required for data: 921866020
I1118 18:13:16.592943  2467 layer_factory.hpp:77] Creating layer crop1-dsn4
I1118 18:13:16.592947  2467 net.cpp:100] Creating Layer crop1-dsn4
I1118 18:13:16.592950  2467 net.cpp:434] crop1-dsn4 <- sum-dsn5-4
I1118 18:13:16.592953  2467 net.cpp:434] crop1-dsn4 <- conv4_3_relu4_3_0_split_1
I1118 18:13:16.592958  2467 net.cpp:408] crop1-dsn4 -> weight-dsn5-4
I1118 18:13:16.592974  2467 net.cpp:150] Setting up crop1-dsn4
I1118 18:13:16.592978  2467 net.cpp:157] Top shape: 1 1 63 63 (3969)
I1118 18:13:16.592980  2467 net.cpp:165] Memory required for data: 921881896
I1118 18:13:16.592983  2467 layer_factory.hpp:77] Creating layer weight-dsn5-4_crop1-dsn4_0_split
I1118 18:13:16.592988  2467 net.cpp:100] Creating Layer weight-dsn5-4_crop1-dsn4_0_split
I1118 18:13:16.592990  2467 net.cpp:434] weight-dsn5-4_crop1-dsn4_0_split <- weight-dsn5-4
I1118 18:13:16.592994  2467 net.cpp:408] weight-dsn5-4_crop1-dsn4_0_split -> weight-dsn5-4_crop1-dsn4_0_split_0
I1118 18:13:16.593000  2467 net.cpp:408] weight-dsn5-4_crop1-dsn4_0_split -> weight-dsn5-4_crop1-dsn4_0_split_1
I1118 18:13:16.593024  2467 net.cpp:150] Setting up weight-dsn5-4_crop1-dsn4_0_split
I1118 18:13:16.593027  2467 net.cpp:157] Top shape: 1 1 63 63 (3969)
I1118 18:13:16.593030  2467 net.cpp:157] Top shape: 1 1 63 63 (3969)
I1118 18:13:16.593032  2467 net.cpp:165] Memory required for data: 921913648
I1118 18:13:16.593034  2467 layer_factory.hpp:77] Creating layer sigmoid-dsn4
I1118 18:13:16.593042  2467 net.cpp:100] Creating Layer sigmoid-dsn4
I1118 18:13:16.593044  2467 net.cpp:434] sigmoid-dsn4 <- weight-dsn5-4_crop1-dsn4_0_split_0
I1118 18:13:16.593047  2467 net.cpp:408] sigmoid-dsn4 -> sigmoid-dsn4
I1118 18:13:16.593124  2467 net.cpp:150] Setting up sigmoid-dsn4
I1118 18:13:16.593132  2467 net.cpp:157] Top shape: 1 1 63 63 (3969)
I1118 18:13:16.593133  2467 net.cpp:165] Memory required for data: 921929524
I1118 18:13:16.593135  2467 layer_factory.hpp:77] Creating layer rev-dsn4
I1118 18:13:16.593140  2467 net.cpp:100] Creating Layer rev-dsn4
I1118 18:13:16.593143  2467 net.cpp:434] rev-dsn4 <- sigmoid-dsn4
I1118 18:13:16.593149  2467 net.cpp:408] rev-dsn4 -> rev-dsn4
I1118 18:13:16.593165  2467 net.cpp:150] Setting up rev-dsn4
I1118 18:13:16.593168  2467 net.cpp:157] Top shape: 1 1 63 63 (3969)
I1118 18:13:16.593170  2467 net.cpp:165] Memory required for data: 921945400
I1118 18:13:16.593173  2467 layer_factory.hpp:77] Creating layer tile-dsn4
I1118 18:13:16.593179  2467 net.cpp:100] Creating Layer tile-dsn4
I1118 18:13:16.593183  2467 net.cpp:434] tile-dsn4 <- rev-dsn4
I1118 18:13:16.593185  2467 net.cpp:408] tile-dsn4 -> weight-dsn4
I1118 18:13:16.593202  2467 net.cpp:150] Setting up tile-dsn4
I1118 18:13:16.593205  2467 net.cpp:157] Top shape: 1 512 63 63 (2032128)
I1118 18:13:16.593209  2467 net.cpp:165] Memory required for data: 930073912
I1118 18:13:16.593210  2467 layer_factory.hpp:77] Creating layer prod1-dsn4
I1118 18:13:16.593215  2467 net.cpp:100] Creating Layer prod1-dsn4
I1118 18:13:16.593219  2467 net.cpp:434] prod1-dsn4 <- conv4_3_relu4_3_0_split_2
I1118 18:13:16.593222  2467 net.cpp:434] prod1-dsn4 <- weight-dsn4
I1118 18:13:16.593226  2467 net.cpp:408] prod1-dsn4 -> prod1-dsn4
I1118 18:13:16.593245  2467 net.cpp:150] Setting up prod1-dsn4
I1118 18:13:16.593247  2467 net.cpp:157] Top shape: 1 512 63 63 (2032128)
I1118 18:13:16.593250  2467 net.cpp:165] Memory required for data: 938202424
I1118 18:13:16.593252  2467 layer_factory.hpp:77] Creating layer conv1-dsn4
I1118 18:13:16.593259  2467 net.cpp:100] Creating Layer conv1-dsn4
I1118 18:13:16.593262  2467 net.cpp:434] conv1-dsn4 <- prod1-dsn4
I1118 18:13:16.593268  2467 net.cpp:408] conv1-dsn4 -> conv1-dsn4
I1118 18:13:16.595176  2467 net.cpp:150] Setting up conv1-dsn4
I1118 18:13:16.595204  2467 net.cpp:157] Top shape: 1 64 63 63 (254016)
I1118 18:13:16.595207  2467 net.cpp:165] Memory required for data: 939218488
I1118 18:13:16.595212  2467 layer_factory.hpp:77] Creating layer conv2-dsn4
I1118 18:13:16.595221  2467 net.cpp:100] Creating Layer conv2-dsn4
I1118 18:13:16.595224  2467 net.cpp:434] conv2-dsn4 <- conv1-dsn4
I1118 18:13:16.595229  2467 net.cpp:408] conv2-dsn4 -> conv2-dsn4
I1118 18:13:16.596036  2467 net.cpp:150] Setting up conv2-dsn4
I1118 18:13:16.596045  2467 net.cpp:157] Top shape: 1 64 63 63 (254016)
I1118 18:13:16.596047  2467 net.cpp:165] Memory required for data: 940234552
I1118 18:13:16.596068  2467 layer_factory.hpp:77] Creating layer relu1-dsn4
I1118 18:13:16.596073  2467 net.cpp:100] Creating Layer relu1-dsn4
I1118 18:13:16.596076  2467 net.cpp:434] relu1-dsn4 <- conv2-dsn4
I1118 18:13:16.596081  2467 net.cpp:395] relu1-dsn4 -> conv2-dsn4 (in-place)
I1118 18:13:16.596227  2467 net.cpp:150] Setting up relu1-dsn4
I1118 18:13:16.596236  2467 net.cpp:157] Top shape: 1 64 63 63 (254016)
I1118 18:13:16.596238  2467 net.cpp:165] Memory required for data: 941250616
I1118 18:13:16.596241  2467 layer_factory.hpp:77] Creating layer conv3-dsn4
I1118 18:13:16.596249  2467 net.cpp:100] Creating Layer conv3-dsn4
I1118 18:13:16.596252  2467 net.cpp:434] conv3-dsn4 <- conv2-dsn4
I1118 18:13:16.596258  2467 net.cpp:408] conv3-dsn4 -> conv3-dsn4
I1118 18:13:16.597188  2467 net.cpp:150] Setting up conv3-dsn4
I1118 18:13:16.597198  2467 net.cpp:157] Top shape: 1 64 63 63 (254016)
I1118 18:13:16.597216  2467 net.cpp:165] Memory required for data: 942266680
I1118 18:13:16.597220  2467 layer_factory.hpp:77] Creating layer relu2-dsn4
I1118 18:13:16.597225  2467 net.cpp:100] Creating Layer relu2-dsn4
I1118 18:13:16.597227  2467 net.cpp:434] relu2-dsn4 <- conv3-dsn4
I1118 18:13:16.597234  2467 net.cpp:395] relu2-dsn4 -> conv3-dsn4 (in-place)
I1118 18:13:16.597311  2467 net.cpp:150] Setting up relu2-dsn4
I1118 18:13:16.597318  2467 net.cpp:157] Top shape: 1 64 63 63 (254016)
I1118 18:13:16.597321  2467 net.cpp:165] Memory required for data: 943282744
I1118 18:13:16.597324  2467 layer_factory.hpp:77] Creating layer conv4-dsn4
I1118 18:13:16.597332  2467 net.cpp:100] Creating Layer conv4-dsn4
I1118 18:13:16.597335  2467 net.cpp:434] conv4-dsn4 <- conv3-dsn4
I1118 18:13:16.597342  2467 net.cpp:408] conv4-dsn4 -> conv4-dsn4
I1118 18:13:16.597910  2467 net.cpp:150] Setting up conv4-dsn4
I1118 18:13:16.597920  2467 net.cpp:157] Top shape: 1 1 63 63 (3969)
I1118 18:13:16.597937  2467 net.cpp:165] Memory required for data: 943298620
I1118 18:13:16.597942  2467 layer_factory.hpp:77] Creating layer sum-dsn4
I1118 18:13:16.597947  2467 net.cpp:100] Creating Layer sum-dsn4
I1118 18:13:16.597949  2467 net.cpp:434] sum-dsn4 <- conv4-dsn4
I1118 18:13:16.597954  2467 net.cpp:434] sum-dsn4 <- weight-dsn5-4_crop1-dsn4_0_split_1
I1118 18:13:16.597959  2467 net.cpp:408] sum-dsn4 -> sum-dsn4
I1118 18:13:16.597980  2467 net.cpp:150] Setting up sum-dsn4
I1118 18:13:16.597983  2467 net.cpp:157] Top shape: 1 1 63 63 (3969)
I1118 18:13:16.597985  2467 net.cpp:165] Memory required for data: 943314496
I1118 18:13:16.597987  2467 layer_factory.hpp:77] Creating layer sum-dsn4_sum-dsn4_0_split
I1118 18:13:16.597991  2467 net.cpp:100] Creating Layer sum-dsn4_sum-dsn4_0_split
I1118 18:13:16.597993  2467 net.cpp:434] sum-dsn4_sum-dsn4_0_split <- sum-dsn4
I1118 18:13:16.597998  2467 net.cpp:408] sum-dsn4_sum-dsn4_0_split -> sum-dsn4_sum-dsn4_0_split_0
I1118 18:13:16.598003  2467 net.cpp:408] sum-dsn4_sum-dsn4_0_split -> sum-dsn4_sum-dsn4_0_split_1
I1118 18:13:16.598031  2467 net.cpp:150] Setting up sum-dsn4_sum-dsn4_0_split
I1118 18:13:16.598035  2467 net.cpp:157] Top shape: 1 1 63 63 (3969)
I1118 18:13:16.598038  2467 net.cpp:157] Top shape: 1 1 63 63 (3969)
I1118 18:13:16.598040  2467 net.cpp:165] Memory required for data: 943346248
I1118 18:13:16.598043  2467 layer_factory.hpp:77] Creating layer upsample8_dsn4
I1118 18:13:16.598053  2467 net.cpp:100] Creating Layer upsample8_dsn4
I1118 18:13:16.598057  2467 net.cpp:434] upsample8_dsn4 <- sum-dsn4_sum-dsn4_0_split_0
I1118 18:13:16.598060  2467 net.cpp:408] upsample8_dsn4 -> sum-dsn4-up
I1118 18:13:16.599174  2467 net.cpp:150] Setting up upsample8_dsn4
I1118 18:13:16.599182  2467 net.cpp:157] Top shape: 1 1 512 512 (262144)
I1118 18:13:16.599200  2467 net.cpp:165] Memory required for data: 944394824
I1118 18:13:16.599205  2467 layer_factory.hpp:77] Creating layer crop2-dsn4
I1118 18:13:16.599210  2467 net.cpp:100] Creating Layer crop2-dsn4
I1118 18:13:16.599212  2467 net.cpp:434] crop2-dsn4 <- sum-dsn4-up
I1118 18:13:16.599215  2467 net.cpp:434] crop2-dsn4 <- data_augmentation_0_split_3
I1118 18:13:16.599221  2467 net.cpp:408] crop2-dsn4 -> upscore-dsn4
I1118 18:13:16.599243  2467 net.cpp:150] Setting up crop2-dsn4
I1118 18:13:16.599247  2467 net.cpp:157] Top shape: 1 1 500 500 (250000)
I1118 18:13:16.599249  2467 net.cpp:165] Memory required for data: 945394824
I1118 18:13:16.599251  2467 layer_factory.hpp:77] Creating layer loss4-score
I1118 18:13:16.599259  2467 net.cpp:100] Creating Layer loss4-score
I1118 18:13:16.599262  2467 net.cpp:434] loss4-score <- upscore-dsn4
I1118 18:13:16.599265  2467 net.cpp:434] loss4-score <- label_augmentation_1_split_2
I1118 18:13:16.599268  2467 net.cpp:408] loss4-score -> loss4-score
I1118 18:13:16.599459  2467 net.cpp:150] Setting up loss4-score
I1118 18:13:16.599467  2467 net.cpp:157] Top shape: (1)
I1118 18:13:16.599468  2467 net.cpp:160]     with loss weight 1
I1118 18:13:16.599473  2467 net.cpp:165] Memory required for data: 945394828
I1118 18:13:16.599475  2467 layer_factory.hpp:77] Creating layer upsample2_dsn3
I1118 18:13:16.599483  2467 net.cpp:100] Creating Layer upsample2_dsn3
I1118 18:13:16.599485  2467 net.cpp:434] upsample2_dsn3 <- sum-dsn4_sum-dsn4_0_split_1
I1118 18:13:16.599490  2467 net.cpp:408] upsample2_dsn3 -> sum-dsn4-3
I1118 18:13:16.599678  2467 net.cpp:150] Setting up upsample2_dsn3
I1118 18:13:16.599684  2467 net.cpp:157] Top shape: 1 1 128 128 (16384)
I1118 18:13:16.599685  2467 net.cpp:165] Memory required for data: 945460364
I1118 18:13:16.599690  2467 layer_factory.hpp:77] Creating layer crop1-dsn3
I1118 18:13:16.599696  2467 net.cpp:100] Creating Layer crop1-dsn3
I1118 18:13:16.599699  2467 net.cpp:434] crop1-dsn3 <- sum-dsn4-3
I1118 18:13:16.599702  2467 net.cpp:434] crop1-dsn3 <- conv3_3_relu3_3_0_split_1
I1118 18:13:16.599706  2467 net.cpp:408] crop1-dsn3 -> weight-dsn4-3
I1118 18:13:16.599720  2467 net.cpp:150] Setting up crop1-dsn3
I1118 18:13:16.599726  2467 net.cpp:157] Top shape: 1 1 125 125 (15625)
I1118 18:13:16.599728  2467 net.cpp:165] Memory required for data: 945522864
I1118 18:13:16.599730  2467 layer_factory.hpp:77] Creating layer weight-dsn4-3_crop1-dsn3_0_split
I1118 18:13:16.599735  2467 net.cpp:100] Creating Layer weight-dsn4-3_crop1-dsn3_0_split
I1118 18:13:16.599736  2467 net.cpp:434] weight-dsn4-3_crop1-dsn3_0_split <- weight-dsn4-3
I1118 18:13:16.599740  2467 net.cpp:408] weight-dsn4-3_crop1-dsn3_0_split -> weight-dsn4-3_crop1-dsn3_0_split_0
I1118 18:13:16.599746  2467 net.cpp:408] weight-dsn4-3_crop1-dsn3_0_split -> weight-dsn4-3_crop1-dsn3_0_split_1
I1118 18:13:16.599772  2467 net.cpp:150] Setting up weight-dsn4-3_crop1-dsn3_0_split
I1118 18:13:16.599777  2467 net.cpp:157] Top shape: 1 1 125 125 (15625)
I1118 18:13:16.599781  2467 net.cpp:157] Top shape: 1 1 125 125 (15625)
I1118 18:13:16.599782  2467 net.cpp:165] Memory required for data: 945647864
I1118 18:13:16.599784  2467 layer_factory.hpp:77] Creating layer sigmoid-dsn3
I1118 18:13:16.599790  2467 net.cpp:100] Creating Layer sigmoid-dsn3
I1118 18:13:16.599792  2467 net.cpp:434] sigmoid-dsn3 <- weight-dsn4-3_crop1-dsn3_0_split_0
I1118 18:13:16.599795  2467 net.cpp:408] sigmoid-dsn3 -> sigmoid-dsn3
I1118 18:13:16.599877  2467 net.cpp:150] Setting up sigmoid-dsn3
I1118 18:13:16.599884  2467 net.cpp:157] Top shape: 1 1 125 125 (15625)
I1118 18:13:16.599886  2467 net.cpp:165] Memory required for data: 945710364
I1118 18:13:16.599889  2467 layer_factory.hpp:77] Creating layer rev-dsn3
I1118 18:13:16.599894  2467 net.cpp:100] Creating Layer rev-dsn3
I1118 18:13:16.599895  2467 net.cpp:434] rev-dsn3 <- sigmoid-dsn3
I1118 18:13:16.599900  2467 net.cpp:408] rev-dsn3 -> rev-dsn3
I1118 18:13:16.599916  2467 net.cpp:150] Setting up rev-dsn3
I1118 18:13:16.599920  2467 net.cpp:157] Top shape: 1 1 125 125 (15625)
I1118 18:13:16.599922  2467 net.cpp:165] Memory required for data: 945772864
I1118 18:13:16.599925  2467 layer_factory.hpp:77] Creating layer tile-dsn3
I1118 18:13:16.599928  2467 net.cpp:100] Creating Layer tile-dsn3
I1118 18:13:16.599931  2467 net.cpp:434] tile-dsn3 <- rev-dsn3
I1118 18:13:16.599934  2467 net.cpp:408] tile-dsn3 -> weight-dsn3
I1118 18:13:16.599948  2467 net.cpp:150] Setting up tile-dsn3
I1118 18:13:16.599951  2467 net.cpp:157] Top shape: 1 256 125 125 (4000000)
I1118 18:13:16.599953  2467 net.cpp:165] Memory required for data: 961772864
I1118 18:13:16.599956  2467 layer_factory.hpp:77] Creating layer prod1-dsn3
I1118 18:13:16.599962  2467 net.cpp:100] Creating Layer prod1-dsn3
I1118 18:13:16.599964  2467 net.cpp:434] prod1-dsn3 <- conv3_3_relu3_3_0_split_2
I1118 18:13:16.599968  2467 net.cpp:434] prod1-dsn3 <- weight-dsn3
I1118 18:13:16.599972  2467 net.cpp:408] prod1-dsn3 -> prod1-dsn3
I1118 18:13:16.599987  2467 net.cpp:150] Setting up prod1-dsn3
I1118 18:13:16.599990  2467 net.cpp:157] Top shape: 1 256 125 125 (4000000)
I1118 18:13:16.599992  2467 net.cpp:165] Memory required for data: 977772864
I1118 18:13:16.599994  2467 layer_factory.hpp:77] Creating layer conv1-dsn3
I1118 18:13:16.600003  2467 net.cpp:100] Creating Layer conv1-dsn3
I1118 18:13:16.600005  2467 net.cpp:434] conv1-dsn3 <- prod1-dsn3
I1118 18:13:16.600013  2467 net.cpp:408] conv1-dsn3 -> conv1-dsn3
I1118 18:13:16.601758  2467 net.cpp:150] Setting up conv1-dsn3
I1118 18:13:16.601769  2467 net.cpp:157] Top shape: 1 64 125 125 (1000000)
I1118 18:13:16.601783  2467 net.cpp:165] Memory required for data: 981772864
I1118 18:13:16.601801  2467 layer_factory.hpp:77] Creating layer conv2-dsn3
I1118 18:13:16.601810  2467 net.cpp:100] Creating Layer conv2-dsn3
I1118 18:13:16.601814  2467 net.cpp:434] conv2-dsn3 <- conv1-dsn3
I1118 18:13:16.601819  2467 net.cpp:408] conv2-dsn3 -> conv2-dsn3
I1118 18:13:16.602708  2467 net.cpp:150] Setting up conv2-dsn3
I1118 18:13:16.602718  2467 net.cpp:157] Top shape: 1 64 125 125 (1000000)
I1118 18:13:16.602730  2467 net.cpp:165] Memory required for data: 985772864
I1118 18:13:16.602735  2467 layer_factory.hpp:77] Creating layer relu1-dsn3
I1118 18:13:16.602742  2467 net.cpp:100] Creating Layer relu1-dsn3
I1118 18:13:16.602746  2467 net.cpp:434] relu1-dsn3 <- conv2-dsn3
I1118 18:13:16.602749  2467 net.cpp:395] relu1-dsn3 -> conv2-dsn3 (in-place)
I1118 18:13:16.602816  2467 net.cpp:150] Setting up relu1-dsn3
I1118 18:13:16.602824  2467 net.cpp:157] Top shape: 1 64 125 125 (1000000)
I1118 18:13:16.602826  2467 net.cpp:165] Memory required for data: 989772864
I1118 18:13:16.602828  2467 layer_factory.hpp:77] Creating layer conv3-dsn3
I1118 18:13:16.602836  2467 net.cpp:100] Creating Layer conv3-dsn3
I1118 18:13:16.602839  2467 net.cpp:434] conv3-dsn3 <- conv2-dsn3
I1118 18:13:16.602845  2467 net.cpp:408] conv3-dsn3 -> conv3-dsn3
I1118 18:13:16.603763  2467 net.cpp:150] Setting up conv3-dsn3
I1118 18:13:16.603773  2467 net.cpp:157] Top shape: 1 64 125 125 (1000000)
I1118 18:13:16.603776  2467 net.cpp:165] Memory required for data: 993772864
I1118 18:13:16.603780  2467 layer_factory.hpp:77] Creating layer relu2-dsn3
I1118 18:13:16.603786  2467 net.cpp:100] Creating Layer relu2-dsn3
I1118 18:13:16.603790  2467 net.cpp:434] relu2-dsn3 <- conv3-dsn3
I1118 18:13:16.603792  2467 net.cpp:395] relu2-dsn3 -> conv3-dsn3 (in-place)
I1118 18:13:16.603863  2467 net.cpp:150] Setting up relu2-dsn3
I1118 18:13:16.603870  2467 net.cpp:157] Top shape: 1 64 125 125 (1000000)
I1118 18:13:16.603873  2467 net.cpp:165] Memory required for data: 997772864
I1118 18:13:16.603874  2467 layer_factory.hpp:77] Creating layer conv4-dsn3
I1118 18:13:16.603883  2467 net.cpp:100] Creating Layer conv4-dsn3
I1118 18:13:16.603885  2467 net.cpp:434] conv4-dsn3 <- conv3-dsn3
I1118 18:13:16.603889  2467 net.cpp:408] conv4-dsn3 -> conv4-dsn3
I1118 18:13:16.604508  2467 net.cpp:150] Setting up conv4-dsn3
I1118 18:13:16.604521  2467 net.cpp:157] Top shape: 1 1 125 125 (15625)
I1118 18:13:16.604522  2467 net.cpp:165] Memory required for data: 997835364
I1118 18:13:16.604526  2467 layer_factory.hpp:77] Creating layer sum-dsn3
I1118 18:13:16.604532  2467 net.cpp:100] Creating Layer sum-dsn3
I1118 18:13:16.604534  2467 net.cpp:434] sum-dsn3 <- conv4-dsn3
I1118 18:13:16.604538  2467 net.cpp:434] sum-dsn3 <- weight-dsn4-3_crop1-dsn3_0_split_1
I1118 18:13:16.604542  2467 net.cpp:408] sum-dsn3 -> sum-dsn3
I1118 18:13:16.604563  2467 net.cpp:150] Setting up sum-dsn3
I1118 18:13:16.604566  2467 net.cpp:157] Top shape: 1 1 125 125 (15625)
I1118 18:13:16.604568  2467 net.cpp:165] Memory required for data: 997897864
I1118 18:13:16.604570  2467 layer_factory.hpp:77] Creating layer sum-dsn3_sum-dsn3_0_split
I1118 18:13:16.604576  2467 net.cpp:100] Creating Layer sum-dsn3_sum-dsn3_0_split
I1118 18:13:16.604579  2467 net.cpp:434] sum-dsn3_sum-dsn3_0_split <- sum-dsn3
I1118 18:13:16.604584  2467 net.cpp:408] sum-dsn3_sum-dsn3_0_split -> sum-dsn3_sum-dsn3_0_split_0
I1118 18:13:16.604589  2467 net.cpp:408] sum-dsn3_sum-dsn3_0_split -> sum-dsn3_sum-dsn3_0_split_1
I1118 18:13:16.604615  2467 net.cpp:150] Setting up sum-dsn3_sum-dsn3_0_split
I1118 18:13:16.604620  2467 net.cpp:157] Top shape: 1 1 125 125 (15625)
I1118 18:13:16.604624  2467 net.cpp:157] Top shape: 1 1 125 125 (15625)
I1118 18:13:16.604625  2467 net.cpp:165] Memory required for data: 998022864
I1118 18:13:16.604627  2467 layer_factory.hpp:77] Creating layer upsample4_dsn3
I1118 18:13:16.604634  2467 net.cpp:100] Creating Layer upsample4_dsn3
I1118 18:13:16.604635  2467 net.cpp:434] upsample4_dsn3 <- sum-dsn3_sum-dsn3_0_split_0
I1118 18:13:16.604640  2467 net.cpp:408] upsample4_dsn3 -> sum-dsn3-up
I1118 18:13:16.605769  2467 net.cpp:150] Setting up upsample4_dsn3
I1118 18:13:16.605778  2467 net.cpp:157] Top shape: 1 1 504 504 (254016)
I1118 18:13:16.605780  2467 net.cpp:165] Memory required for data: 999038928
I1118 18:13:16.605785  2467 layer_factory.hpp:77] Creating layer crop2-dsn3
I1118 18:13:16.605792  2467 net.cpp:100] Creating Layer crop2-dsn3
I1118 18:13:16.605794  2467 net.cpp:434] crop2-dsn3 <- sum-dsn3-up
I1118 18:13:16.605798  2467 net.cpp:434] crop2-dsn3 <- data_augmentation_0_split_4
I1118 18:13:16.605801  2467 net.cpp:408] crop2-dsn3 -> upscore-dsn3
I1118 18:13:16.605824  2467 net.cpp:150] Setting up crop2-dsn3
I1118 18:13:16.605829  2467 net.cpp:157] Top shape: 1 1 500 500 (250000)
I1118 18:13:16.605830  2467 net.cpp:165] Memory required for data: 1000038928
I1118 18:13:16.605832  2467 layer_factory.hpp:77] Creating layer loss3-score
I1118 18:13:16.605839  2467 net.cpp:100] Creating Layer loss3-score
I1118 18:13:16.605842  2467 net.cpp:434] loss3-score <- upscore-dsn3
I1118 18:13:16.605846  2467 net.cpp:434] loss3-score <- label_augmentation_1_split_3
I1118 18:13:16.605851  2467 net.cpp:408] loss3-score -> loss3-score
I1118 18:13:16.606050  2467 net.cpp:150] Setting up loss3-score
I1118 18:13:16.606056  2467 net.cpp:157] Top shape: (1)
I1118 18:13:16.606058  2467 net.cpp:160]     with loss weight 1
I1118 18:13:16.606063  2467 net.cpp:165] Memory required for data: 1000038932
I1118 18:13:16.606065  2467 layer_factory.hpp:77] Creating layer upsample2_1-dsn2
I1118 18:13:16.606073  2467 net.cpp:100] Creating Layer upsample2_1-dsn2
I1118 18:13:16.606076  2467 net.cpp:434] upsample2_1-dsn2 <- sum-dsn3_sum-dsn3_0_split_1
I1118 18:13:16.606081  2467 net.cpp:408] upsample2_1-dsn2 -> sum-dsn3-2
I1118 18:13:16.606305  2467 net.cpp:150] Setting up upsample2_1-dsn2
I1118 18:13:16.606312  2467 net.cpp:157] Top shape: 1 1 252 252 (63504)
I1118 18:13:16.606314  2467 net.cpp:165] Memory required for data: 1000292948
I1118 18:13:16.606319  2467 layer_factory.hpp:77] Creating layer crop1-dsn2
I1118 18:13:16.606323  2467 net.cpp:100] Creating Layer crop1-dsn2
I1118 18:13:16.606326  2467 net.cpp:434] crop1-dsn2 <- sum-dsn3-2
I1118 18:13:16.606330  2467 net.cpp:434] crop1-dsn2 <- conv2_2_relu2_2_0_split_1
I1118 18:13:16.606335  2467 net.cpp:408] crop1-dsn2 -> weight-dsn3-2
I1118 18:13:16.606353  2467 net.cpp:150] Setting up crop1-dsn2
I1118 18:13:16.606361  2467 net.cpp:157] Top shape: 1 1 250 250 (62500)
I1118 18:13:16.606364  2467 net.cpp:165] Memory required for data: 1000542948
I1118 18:13:16.606365  2467 layer_factory.hpp:77] Creating layer weight-dsn3-2_crop1-dsn2_0_split
I1118 18:13:16.606369  2467 net.cpp:100] Creating Layer weight-dsn3-2_crop1-dsn2_0_split
I1118 18:13:16.606371  2467 net.cpp:434] weight-dsn3-2_crop1-dsn2_0_split <- weight-dsn3-2
I1118 18:13:16.606375  2467 net.cpp:408] weight-dsn3-2_crop1-dsn2_0_split -> weight-dsn3-2_crop1-dsn2_0_split_0
I1118 18:13:16.606381  2467 net.cpp:408] weight-dsn3-2_crop1-dsn2_0_split -> weight-dsn3-2_crop1-dsn2_0_split_1
I1118 18:13:16.606407  2467 net.cpp:150] Setting up weight-dsn3-2_crop1-dsn2_0_split
I1118 18:13:16.606411  2467 net.cpp:157] Top shape: 1 1 250 250 (62500)
I1118 18:13:16.606415  2467 net.cpp:157] Top shape: 1 1 250 250 (62500)
I1118 18:13:16.606416  2467 net.cpp:165] Memory required for data: 1001042948
I1118 18:13:16.606418  2467 layer_factory.hpp:77] Creating layer sigmoid-dsn2
I1118 18:13:16.606425  2467 net.cpp:100] Creating Layer sigmoid-dsn2
I1118 18:13:16.606426  2467 net.cpp:434] sigmoid-dsn2 <- weight-dsn3-2_crop1-dsn2_0_split_0
I1118 18:13:16.606429  2467 net.cpp:408] sigmoid-dsn2 -> sigmoid-dsn2
I1118 18:13:16.607650  2467 net.cpp:150] Setting up sigmoid-dsn2
I1118 18:13:16.607661  2467 net.cpp:157] Top shape: 1 1 250 250 (62500)
I1118 18:13:16.607678  2467 net.cpp:165] Memory required for data: 1001292948
I1118 18:13:16.607681  2467 layer_factory.hpp:77] Creating layer rev-dsn2
I1118 18:13:16.607686  2467 net.cpp:100] Creating Layer rev-dsn2
I1118 18:13:16.607689  2467 net.cpp:434] rev-dsn2 <- sigmoid-dsn2
I1118 18:13:16.607693  2467 net.cpp:408] rev-dsn2 -> rev-dsn2
I1118 18:13:16.607712  2467 net.cpp:150] Setting up rev-dsn2
I1118 18:13:16.607715  2467 net.cpp:157] Top shape: 1 1 250 250 (62500)
I1118 18:13:16.607717  2467 net.cpp:165] Memory required for data: 1001542948
I1118 18:13:16.607719  2467 layer_factory.hpp:77] Creating layer tile-dsn2
I1118 18:13:16.607723  2467 net.cpp:100] Creating Layer tile-dsn2
I1118 18:13:16.607725  2467 net.cpp:434] tile-dsn2 <- rev-dsn2
I1118 18:13:16.607728  2467 net.cpp:408] tile-dsn2 -> weight-dsn2
I1118 18:13:16.607743  2467 net.cpp:150] Setting up tile-dsn2
I1118 18:13:16.607746  2467 net.cpp:157] Top shape: 1 128 250 250 (8000000)
I1118 18:13:16.607748  2467 net.cpp:165] Memory required for data: 1033542948
I1118 18:13:16.607750  2467 layer_factory.hpp:77] Creating layer prod1-dsn2
I1118 18:13:16.607754  2467 net.cpp:100] Creating Layer prod1-dsn2
I1118 18:13:16.607758  2467 net.cpp:434] prod1-dsn2 <- conv2_2_relu2_2_0_split_2
I1118 18:13:16.607761  2467 net.cpp:434] prod1-dsn2 <- weight-dsn2
I1118 18:13:16.607766  2467 net.cpp:408] prod1-dsn2 -> prod1-dsn2
I1118 18:13:16.607784  2467 net.cpp:150] Setting up prod1-dsn2
I1118 18:13:16.607789  2467 net.cpp:157] Top shape: 1 128 250 250 (8000000)
I1118 18:13:16.607790  2467 net.cpp:165] Memory required for data: 1065542948
I1118 18:13:16.607792  2467 layer_factory.hpp:77] Creating layer conv1-dsn2
I1118 18:13:16.607798  2467 net.cpp:100] Creating Layer conv1-dsn2
I1118 18:13:16.607800  2467 net.cpp:434] conv1-dsn2 <- prod1-dsn2
I1118 18:13:16.607805  2467 net.cpp:408] conv1-dsn2 -> conv1-dsn2
I1118 18:13:16.608443  2467 net.cpp:150] Setting up conv1-dsn2
I1118 18:13:16.608453  2467 net.cpp:157] Top shape: 1 64 250 250 (4000000)
I1118 18:13:16.608455  2467 net.cpp:165] Memory required for data: 1081542948
I1118 18:13:16.608460  2467 layer_factory.hpp:77] Creating layer conv2-dsn2
I1118 18:13:16.608469  2467 net.cpp:100] Creating Layer conv2-dsn2
I1118 18:13:16.608471  2467 net.cpp:434] conv2-dsn2 <- conv1-dsn2
I1118 18:13:16.608477  2467 net.cpp:408] conv2-dsn2 -> conv2-dsn2
I1118 18:13:16.610095  2467 net.cpp:150] Setting up conv2-dsn2
I1118 18:13:16.610105  2467 net.cpp:157] Top shape: 1 64 250 250 (4000000)
I1118 18:13:16.610107  2467 net.cpp:165] Memory required for data: 1097542948
I1118 18:13:16.610112  2467 layer_factory.hpp:77] Creating layer relu1-dsn2
I1118 18:13:16.610118  2467 net.cpp:100] Creating Layer relu1-dsn2
I1118 18:13:16.610121  2467 net.cpp:434] relu1-dsn2 <- conv2-dsn2
I1118 18:13:16.610126  2467 net.cpp:395] relu1-dsn2 -> conv2-dsn2 (in-place)
I1118 18:13:16.610193  2467 net.cpp:150] Setting up relu1-dsn2
I1118 18:13:16.610201  2467 net.cpp:157] Top shape: 1 64 250 250 (4000000)
I1118 18:13:16.610203  2467 net.cpp:165] Memory required for data: 1113542948
I1118 18:13:16.610206  2467 layer_factory.hpp:77] Creating layer conv3-dsn2
I1118 18:13:16.610214  2467 net.cpp:100] Creating Layer conv3-dsn2
I1118 18:13:16.610217  2467 net.cpp:434] conv3-dsn2 <- conv2-dsn2
I1118 18:13:16.610221  2467 net.cpp:408] conv3-dsn2 -> conv3-dsn2
I1118 18:13:16.611192  2467 net.cpp:150] Setting up conv3-dsn2
I1118 18:13:16.611202  2467 net.cpp:157] Top shape: 1 64 250 250 (4000000)
I1118 18:13:16.611205  2467 net.cpp:165] Memory required for data: 1129542948
I1118 18:13:16.611209  2467 layer_factory.hpp:77] Creating layer relu2-dsn2
I1118 18:13:16.611214  2467 net.cpp:100] Creating Layer relu2-dsn2
I1118 18:13:16.611217  2467 net.cpp:434] relu2-dsn2 <- conv3-dsn2
I1118 18:13:16.611222  2467 net.cpp:395] relu2-dsn2 -> conv3-dsn2 (in-place)
I1118 18:13:16.611361  2467 net.cpp:150] Setting up relu2-dsn2
I1118 18:13:16.611371  2467 net.cpp:157] Top shape: 1 64 250 250 (4000000)
I1118 18:13:16.611372  2467 net.cpp:165] Memory required for data: 1145542948
I1118 18:13:16.611377  2467 layer_factory.hpp:77] Creating layer conv4-dsn2
I1118 18:13:16.611384  2467 net.cpp:100] Creating Layer conv4-dsn2
I1118 18:13:16.611387  2467 net.cpp:434] conv4-dsn2 <- conv3-dsn2
I1118 18:13:16.611393  2467 net.cpp:408] conv4-dsn2 -> conv4-dsn2
I1118 18:13:16.611930  2467 net.cpp:150] Setting up conv4-dsn2
I1118 18:13:16.611939  2467 net.cpp:157] Top shape: 1 1 250 250 (62500)
I1118 18:13:16.611941  2467 net.cpp:165] Memory required for data: 1145792948
I1118 18:13:16.611946  2467 layer_factory.hpp:77] Creating layer sum-dsn2
I1118 18:13:16.611953  2467 net.cpp:100] Creating Layer sum-dsn2
I1118 18:13:16.611955  2467 net.cpp:434] sum-dsn2 <- conv4-dsn2
I1118 18:13:16.611959  2467 net.cpp:434] sum-dsn2 <- weight-dsn3-2_crop1-dsn2_0_split_1
I1118 18:13:16.611963  2467 net.cpp:408] sum-dsn2 -> sum-dsn2
I1118 18:13:16.611984  2467 net.cpp:150] Setting up sum-dsn2
I1118 18:13:16.611986  2467 net.cpp:157] Top shape: 1 1 250 250 (62500)
I1118 18:13:16.611989  2467 net.cpp:165] Memory required for data: 1146042948
I1118 18:13:16.611990  2467 layer_factory.hpp:77] Creating layer upsample2_2-dsn2
I1118 18:13:16.611997  2467 net.cpp:100] Creating Layer upsample2_2-dsn2
I1118 18:13:16.611999  2467 net.cpp:434] upsample2_2-dsn2 <- sum-dsn2
I1118 18:13:16.612004  2467 net.cpp:408] upsample2_2-dsn2 -> sum-dsn2-up
I1118 18:13:16.612345  2467 net.cpp:150] Setting up upsample2_2-dsn2
I1118 18:13:16.612352  2467 net.cpp:157] Top shape: 1 1 502 502 (252004)
I1118 18:13:16.612354  2467 net.cpp:165] Memory required for data: 1147050964
I1118 18:13:16.612375  2467 layer_factory.hpp:77] Creating layer crop2-dsn2
I1118 18:13:16.612378  2467 net.cpp:100] Creating Layer crop2-dsn2
I1118 18:13:16.612381  2467 net.cpp:434] crop2-dsn2 <- sum-dsn2-up
I1118 18:13:16.612385  2467 net.cpp:434] crop2-dsn2 <- data_augmentation_0_split_5
I1118 18:13:16.612390  2467 net.cpp:408] crop2-dsn2 -> upscore-dsn2
I1118 18:13:16.612411  2467 net.cpp:150] Setting up crop2-dsn2
I1118 18:13:16.612414  2467 net.cpp:157] Top shape: 1 1 500 500 (250000)
I1118 18:13:16.612416  2467 net.cpp:165] Memory required for data: 1148050964
I1118 18:13:16.612418  2467 layer_factory.hpp:77] Creating layer upscore-dsn2_crop2-dsn2_0_split
I1118 18:13:16.612423  2467 net.cpp:100] Creating Layer upscore-dsn2_crop2-dsn2_0_split
I1118 18:13:16.612426  2467 net.cpp:434] upscore-dsn2_crop2-dsn2_0_split <- upscore-dsn2
I1118 18:13:16.612432  2467 net.cpp:408] upscore-dsn2_crop2-dsn2_0_split -> upscore-dsn2_crop2-dsn2_0_split_0
I1118 18:13:16.612457  2467 net.cpp:408] upscore-dsn2_crop2-dsn2_0_split -> upscore-dsn2_crop2-dsn2_0_split_1
I1118 18:13:16.612464  2467 net.cpp:408] upscore-dsn2_crop2-dsn2_0_split -> upscore-dsn2_crop2-dsn2_0_split_2
I1118 18:13:16.612498  2467 net.cpp:150] Setting up upscore-dsn2_crop2-dsn2_0_split
I1118 18:13:16.612504  2467 net.cpp:157] Top shape: 1 1 500 500 (250000)
I1118 18:13:16.612506  2467 net.cpp:157] Top shape: 1 1 500 500 (250000)
I1118 18:13:16.612509  2467 net.cpp:157] Top shape: 1 1 500 500 (250000)
I1118 18:13:16.612511  2467 net.cpp:165] Memory required for data: 1151050964
I1118 18:13:16.612514  2467 layer_factory.hpp:77] Creating layer loss2-score
I1118 18:13:16.612534  2467 net.cpp:100] Creating Layer loss2-score
I1118 18:13:16.612537  2467 net.cpp:434] loss2-score <- upscore-dsn2_crop2-dsn2_0_split_0
I1118 18:13:16.612541  2467 net.cpp:434] loss2-score <- label_augmentation_1_split_4
I1118 18:13:16.612545  2467 net.cpp:408] loss2-score -> loss2-score
I1118 18:13:16.613536  2467 net.cpp:150] Setting up loss2-score
I1118 18:13:16.613545  2467 net.cpp:157] Top shape: (1)
I1118 18:13:16.613548  2467 net.cpp:160]     with loss weight 1
I1118 18:13:16.613551  2467 net.cpp:165] Memory required for data: 1151050968
I1118 18:13:16.613554  2467 layer_factory.hpp:77] Creating layer sigmoid-dsn1
I1118 18:13:16.613559  2467 net.cpp:100] Creating Layer sigmoid-dsn1
I1118 18:13:16.613561  2467 net.cpp:434] sigmoid-dsn1 <- upscore-dsn2_crop2-dsn2_0_split_1
I1118 18:13:16.613566  2467 net.cpp:408] sigmoid-dsn1 -> sigmoid-dsn1
I1118 18:13:16.614768  2467 net.cpp:150] Setting up sigmoid-dsn1
I1118 18:13:16.614778  2467 net.cpp:157] Top shape: 1 1 500 500 (250000)
I1118 18:13:16.614779  2467 net.cpp:165] Memory required for data: 1152050968
I1118 18:13:16.614782  2467 layer_factory.hpp:77] Creating layer rev-dsn1
I1118 18:13:16.614789  2467 net.cpp:100] Creating Layer rev-dsn1
I1118 18:13:16.614791  2467 net.cpp:434] rev-dsn1 <- sigmoid-dsn1
I1118 18:13:16.614795  2467 net.cpp:408] rev-dsn1 -> rev-dsn1
I1118 18:13:16.614817  2467 net.cpp:150] Setting up rev-dsn1
I1118 18:13:16.614820  2467 net.cpp:157] Top shape: 1 1 500 500 (250000)
I1118 18:13:16.614822  2467 net.cpp:165] Memory required for data: 1153050968
I1118 18:13:16.614825  2467 layer_factory.hpp:77] Creating layer tile-dsn1
I1118 18:13:16.614828  2467 net.cpp:100] Creating Layer tile-dsn1
I1118 18:13:16.614831  2467 net.cpp:434] tile-dsn1 <- rev-dsn1
I1118 18:13:16.614836  2467 net.cpp:408] tile-dsn1 -> weight-dsn1
I1118 18:13:16.614853  2467 net.cpp:150] Setting up tile-dsn1
I1118 18:13:16.614856  2467 net.cpp:157] Top shape: 1 64 500 500 (16000000)
I1118 18:13:16.614858  2467 net.cpp:165] Memory required for data: 1217050968
I1118 18:13:16.614861  2467 layer_factory.hpp:77] Creating layer prod1-dsn1
I1118 18:13:16.614867  2467 net.cpp:100] Creating Layer prod1-dsn1
I1118 18:13:16.614869  2467 net.cpp:434] prod1-dsn1 <- conv1_2_relu1_2_0_split_1
I1118 18:13:16.614872  2467 net.cpp:434] prod1-dsn1 <- weight-dsn1
I1118 18:13:16.614877  2467 net.cpp:408] prod1-dsn1 -> prod1-dsn1
I1118 18:13:16.614893  2467 net.cpp:150] Setting up prod1-dsn1
I1118 18:13:16.614897  2467 net.cpp:157] Top shape: 1 64 500 500 (16000000)
I1118 18:13:16.614898  2467 net.cpp:165] Memory required for data: 1281050968
I1118 18:13:16.614900  2467 layer_factory.hpp:77] Creating layer conv1-dsn1
I1118 18:13:16.614924  2467 net.cpp:100] Creating Layer conv1-dsn1
I1118 18:13:16.614928  2467 net.cpp:434] conv1-dsn1 <- prod1-dsn1
I1118 18:13:16.614930  2467 net.cpp:408] conv1-dsn1 -> conv1-dsn1
I1118 18:13:16.615730  2467 net.cpp:150] Setting up conv1-dsn1
I1118 18:13:16.615741  2467 net.cpp:157] Top shape: 1 64 500 500 (16000000)
I1118 18:13:16.615742  2467 net.cpp:165] Memory required for data: 1345050968
I1118 18:13:16.615747  2467 layer_factory.hpp:77] Creating layer conv2-dsn1
I1118 18:13:16.615756  2467 net.cpp:100] Creating Layer conv2-dsn1
I1118 18:13:16.615759  2467 net.cpp:434] conv2-dsn1 <- conv1-dsn1
I1118 18:13:16.615765  2467 net.cpp:408] conv2-dsn1 -> conv2-dsn1
I1118 18:13:16.617498  2467 net.cpp:150] Setting up conv2-dsn1
I1118 18:13:16.617509  2467 net.cpp:157] Top shape: 1 64 500 500 (16000000)
I1118 18:13:16.617511  2467 net.cpp:165] Memory required for data: 1409050968
I1118 18:13:16.617516  2467 layer_factory.hpp:77] Creating layer relu1-dsn1
I1118 18:13:16.617522  2467 net.cpp:100] Creating Layer relu1-dsn1
I1118 18:13:16.617524  2467 net.cpp:434] relu1-dsn1 <- conv2-dsn1
I1118 18:13:16.617528  2467 net.cpp:395] relu1-dsn1 -> conv2-dsn1 (in-place)
I1118 18:13:16.617676  2467 net.cpp:150] Setting up relu1-dsn1
I1118 18:13:16.617684  2467 net.cpp:157] Top shape: 1 64 500 500 (16000000)
I1118 18:13:16.617686  2467 net.cpp:165] Memory required for data: 1473050968
I1118 18:13:16.617689  2467 layer_factory.hpp:77] Creating layer conv3-dsn1
I1118 18:13:16.617714  2467 net.cpp:100] Creating Layer conv3-dsn1
I1118 18:13:16.617717  2467 net.cpp:434] conv3-dsn1 <- conv2-dsn1
I1118 18:13:16.617724  2467 net.cpp:408] conv3-dsn1 -> conv3-dsn1
I1118 18:13:16.618705  2467 net.cpp:150] Setting up conv3-dsn1
I1118 18:13:16.618717  2467 net.cpp:157] Top shape: 1 64 500 500 (16000000)
I1118 18:13:16.618719  2467 net.cpp:165] Memory required for data: 1537050968
I1118 18:13:16.618724  2467 layer_factory.hpp:77] Creating layer relu2-dsn1
I1118 18:13:16.618728  2467 net.cpp:100] Creating Layer relu2-dsn1
I1118 18:13:16.618731  2467 net.cpp:434] relu2-dsn1 <- conv3-dsn1
I1118 18:13:16.618734  2467 net.cpp:395] relu2-dsn1 -> conv3-dsn1 (in-place)
I1118 18:13:16.618875  2467 net.cpp:150] Setting up relu2-dsn1
I1118 18:13:16.618883  2467 net.cpp:157] Top shape: 1 64 500 500 (16000000)
I1118 18:13:16.618885  2467 net.cpp:165] Memory required for data: 1601050968
I1118 18:13:16.618888  2467 layer_factory.hpp:77] Creating layer conv4-dsn1
I1118 18:13:16.618913  2467 net.cpp:100] Creating Layer conv4-dsn1
I1118 18:13:16.618916  2467 net.cpp:434] conv4-dsn1 <- conv3-dsn1
I1118 18:13:16.618922  2467 net.cpp:408] conv4-dsn1 -> conv4-dsn1
I1118 18:13:16.621377  2467 net.cpp:150] Setting up conv4-dsn1
I1118 18:13:16.621387  2467 net.cpp:157] Top shape: 1 1 500 500 (250000)
I1118 18:13:16.621390  2467 net.cpp:165] Memory required for data: 1602050968
I1118 18:13:16.621395  2467 layer_factory.hpp:77] Creating layer sum-dsn1
I1118 18:13:16.621399  2467 net.cpp:100] Creating Layer sum-dsn1
I1118 18:13:16.621402  2467 net.cpp:434] sum-dsn1 <- conv4-dsn1
I1118 18:13:16.621407  2467 net.cpp:434] sum-dsn1 <- upscore-dsn2_crop2-dsn2_0_split_2
I1118 18:13:16.621412  2467 net.cpp:408] sum-dsn1 -> sum-dsn1
I1118 18:13:16.621433  2467 net.cpp:150] Setting up sum-dsn1
I1118 18:13:16.621436  2467 net.cpp:157] Top shape: 1 1 500 500 (250000)
I1118 18:13:16.621438  2467 net.cpp:165] Memory required for data: 1603050968
I1118 18:13:16.621440  2467 layer_factory.hpp:77] Creating layer crop2-dsn1
I1118 18:13:16.621445  2467 net.cpp:100] Creating Layer crop2-dsn1
I1118 18:13:16.621448  2467 net.cpp:434] crop2-dsn1 <- sum-dsn1
I1118 18:13:16.621451  2467 net.cpp:434] crop2-dsn1 <- data_augmentation_0_split_6
I1118 18:13:16.621454  2467 net.cpp:408] crop2-dsn1 -> upscore-dsn1
I1118 18:13:16.621472  2467 net.cpp:150] Setting up crop2-dsn1
I1118 18:13:16.621476  2467 net.cpp:157] Top shape: 1 1 500 500 (250000)
I1118 18:13:16.621479  2467 net.cpp:165] Memory required for data: 1604050968
I1118 18:13:16.621480  2467 layer_factory.hpp:77] Creating layer loss1-score
I1118 18:13:16.621486  2467 net.cpp:100] Creating Layer loss1-score
I1118 18:13:16.621490  2467 net.cpp:434] loss1-score <- upscore-dsn1
I1118 18:13:16.621495  2467 net.cpp:434] loss1-score <- label_augmentation_1_split_5
I1118 18:13:16.621498  2467 net.cpp:408] loss1-score -> loss1-score
…
I1118 18:13:16.625078  2467 net.cpp:58] Initializing net from parameters: 
name: "RAS"
state {
  phase: TEST
}
layer {
  name: "data"
  type: "ImageLabelmapData"
  top: "data"
  top: "label"
  include {
    phase: TEST
  }
  transform_param {
    mean_value: 104.00699
    mean_value: 116.66877
    mean_value: 122.67892
  }
  image_data_param {
    source: "/media/compute/homes/galberding/FleckDetect/Datasets/FleckDataSet/val/image_to_label_map.txt"
    batch_size: 1
    new_height: 500
    new_width: 500
    root_folder: "/media/compute/homes/galberding/FleckDetect/Datasets/FleckDataSet/val/"
    normalize: true
  }
}
layer {
  name: "conv1_1"
  type: "Convolution"
  bottom: "data"
  top: "conv1_1"
  param {
    lr_mult: 1
    decay_mult: 1
  }
  param {
    lr_mult: 2
    decay_mult: 0
  }
  convolution_param {
    num_output: 64
    pad: 1
    kernel_size: 3
    engine: CUDNN
  }
}
layer {
  name: "relu1_1"
  type: "ReLU"
  bottom: "conv1_1"
  top: "conv1_1"
}
layer {
  name: "conv1_2"
  type: "Convolution"
  bottom: "conv1_1"
  top: "conv1_2"
  param {
    lr_mult: 1
    decay_mult: 1
  }
  param {
    lr_mult: 2
    decay_mult: 0
  }
  convolution_param {
    num_output: 64
    pad: 1
    kernel_size: 3
    engine: CUDNN
  }
}
layer {
  name: "relu1_2"
  type: "ReLU"
  bottom: "conv1_2"
  top: "conv1_2"
}
layer {
  name: "pool1"
  type: "Pooling"
  bottom: "conv1_2"
  top: "pool1"
  pooling_param {
    pool: MAX
    kernel_size: 2
    stride: 2
  }
}
layer {
  name: "conv2_1"
  type: "Convolution"
  bottom: "pool1"
  top: "conv2_1"
  param {
    lr_mult: 1
    decay_mult: 1
  }
  param {
    lr_mult: 2
    decay_mult: 0
  }
  convolution_param {
    num_output: 128
    pad: 1
    kernel_size: 3
    engine: CUDNN
  }
}
layer {
  name: "relu2_1"
  type: "ReLU"
  bottom: "conv2_1"
  top: "conv2_1"
}
layer {
  name: "conv2_2"
  type: "Convolution"
  bottom: "conv2_1"
  top: "conv2_2"
  param {
    lr_mult: 1
    decay_mult: 1
  }
  param {
    lr_mult: 2
    decay_mult: 0
  }
  convolution_param {
    num_output: 128
    pad: 1
    kernel_size: 3
    engine: CUDNN
  }
}
layer {
  name: "relu2_2"
  type: "ReLU"
  bottom: "conv2_2"
  top: "conv2_2"
}
layer {
  name: "pool2"
  type: "Pooling"
  bottom: "conv2_2"
  top: "pool2"
  pooling_param {
    pool: MAX
    kernel_size: 2
    stride: 2
  }
}
layer {
  name: "conv3_1"
  type: "Convolution"
  bottom: "pool2"
  top: "conv3_1"
  param {
    lr_mult: 1
    decay_mult: 1
  }
  param {
    lr_mult: 2
    decay_mult: 0
  }
  convolution_param {
    num_output: 256
    pad: 1
    kernel_size: 3
    engine: CUDNN
  }
}
layer {
  name: "relu3_1"
  type: "ReLU"
  bottom: "conv3_1"
  top: "conv3_1"
}
layer {
  name: "conv3_2"
  type: "Convolution"
  bottom: "conv3_1"
  top: "conv3_2"
  param {
    lr_mult: 1
    decay_mult: 1
  }
  param {
    lr_mult: 2
    decay_mult: 0
  }
  convolution_param {
    num_output: 256
    pad: 1
    kernel_size: 3
    engine: CUDNN
  }
}
layer {
  name: "relu3_2"
  type: "ReLU"
  bottom: "conv3_2"
  top: "conv3_2"
}
layer {
  name: "conv3_3"
  type: "Convolution"
  bottom: "conv3_2"
  top: "conv3_3"
  param {
    lr_mult: 1
    decay_mult: 1
  }
  param {
    lr_mult: 2
    decay_mult: 0
  }
  convolution_param {
    num_output: 256
    pad: 1
    kernel_size: 3
    engine: CUDNN
  }
}
layer {
  name: "relu3_3"
  type: "ReLU"
  bottom: "conv3_3"
  top: "conv3_3"
}
layer {
  name: "pool3"
  type: "Pooling"
  bottom: "conv3_3"
  top: "pool3"
  pooling_param {
    pool: MAX
    kernel_size: 2
    stride: 2
  }
}
layer {
  name: "conv4_1"
  type: "Convolution"
  bottom: "pool3"
  top: "conv4_1"
  param {
    lr_mult: 1
    decay_mult: 1
  }
  param {
    lr_mult: 2
    decay_mult: 0
  }
  convolution_param {
    num_output: 512
    pad: 1
    kernel_size: 3
    engine: CUDNN
  }
}
layer {
  name: "relu4_1"
  type: "ReLU"
  bottom: "conv4_1"
  top: "conv4_1"
}
layer {
  name: "conv4_2"
  type: "Convolution"
  bottom: "conv4_1"
  top: "conv4_2"
  param {
    lr_mult: 1
    decay_mult: 1
  }
  param {
    lr_mult: 2
    decay_mult: 0
  }
  convolution_param {
    num_output: 512
    pad: 1
    kernel_size: 3
    engine: CUDNN
  }
}
layer {
  name: "relu4_2"
  type: "ReLU"
  bottom: "conv4_2"
  top: "conv4_2"
}
layer {
  name: "conv4_3"
  type: "Convolution"
  bottom: "conv4_2"
  top: "conv4_3"
  param {
    lr_mult: 1
    decay_mult: 1
  }
  param {
    lr_mult: 2
    decay_mult: 0
  }
  convolution_param {
    num_output: 512
    pad: 1
    kernel_size: 3
    engine: CUDNN
  }
}
layer {
  name: "relu4_3"
  type: "ReLU"
  bottom: "conv4_3"
  top: "conv4_3"
}
layer {
  name: "pool4"
  type: "Pooling"
  bottom: "conv4_3"
  top: "pool4"
  pooling_param {
    pool: MAX
    kernel_size: 3
    stride: 2
    pad: 1
  }
}
layer {
  name: "conv5_1"
  type: "Convolution"
  bottom: "pool4"
  top: "conv5_1"
  param {
    lr_mult: 1
    decay_mult: 1
  }
  param {
    lr_mult: 2
    decay_mult: 0
  }
  convolution_param {
    num_output: 512
    pad: 1
    kernel_size: 3
    engine: CUDNN
  }
}
layer {
  name: "relu5_1"
  type: "ReLU"
  bottom: "conv5_1"
  top: "conv5_1"
}
layer {
  name: "conv5_2"
  type: "Convolution"
  bottom: "conv5_1"
  top: "conv5_2"
  param {
    lr_mult: 1
    decay_mult: 1
  }
  param {
    lr_mult: 2
    decay_mult: 0
  }
  convolution_param {
    num_output: 512
    pad: 1
    kernel_size: 3
    engine: CUDNN
  }
}
layer {
  name: "relu5_2"
  type: "ReLU"
  bottom: "conv5_2"
  top: "conv5_2"
}
layer {
  name: "conv5_3"
  type: "Convolution"
  bottom: "conv5_2"
  top: "conv5_3"
  param {
    lr_mult: 1
    decay_mult: 1
  }
  param {
    lr_mult: 2
    decay_mult: 0
  }
  convolution_param {
    num_output: 512
    pad: 1
    kernel_size: 3
    engine: CUDNN
  }
}
layer {
  name: "relu5_3"
  type: "ReLU"
  bottom: "conv5_3"
  top: "conv5_3"
}
layer {
  name: "pool5"
  type: "Pooling"
  bottom: "conv5_3"
  top: "pool5"
  pooling_param {
    pool: MAX
    kernel_size: 3
    stride: 2
    pad: 1
  }
}
layer {
  name: "conv1-dsn6"
  type: "Convolution"
  bottom: "pool5"
  top: "conv1-dsn6"
  param {
    lr_mult: 1
    decay_mult: 1
  }
  param {
    lr_mult: 2
    decay_mult: 0
  }
  convolution_param {
    num_output: 256
    kernel_size: 1
    weight_filler {
      type: "gaussian"
      std: 0.01
    }
    bias_filler {
      type: "constant"
      value: 0
    }
    engine: CUDNN
  }
}
layer {
  name: "conv2-dsn6"
  type: "Convolution"
  bottom: "conv1-dsn6"
  top: "conv2-dsn6"
  param {
    lr_mult: 1
    decay_mult: 1
  }
  param {
    lr_mult: 2
    decay_mult: 0
  }
  convolution_param {
    num_output: 256
    pad: 2
    kernel_size: 5
    weight_filler {
      type: "gaussian"
      std: 0.01
    }
    bias_filler {
      type: "constant"
      value: 0
    }
    engine: CUDNN
  }
}
layer {
  name: "relu1-dsn6"
  type: "ReLU"
  bottom: "conv2-dsn6"
  top: "conv2-dsn6"
}
layer {
  name: "conv3-dsn6"
  type: "Convolution"
  bottom: "conv2-dsn6"
  top: "conv3-dsn6"
  param {
    lr_mult: 1
    decay_mult: 1
  }
  param {
    lr_mult: 2
    decay_mult: 0
  }
  convolution_param {
    num_output: 256
    pad: 2
    kernel_size: 5
    weight_filler {
      type: "gaussian"
      std: 0.01
    }
    bias_filler {
      type: "constant"
      value: 0
    }
    engine: CUDNN
  }
}
layer {
  name: "relu2-dsn6"
  type: "ReLU"
  bottom: "conv3-dsn6"
  top: "conv3-dsn6"
}
layer {
  name: "conv4-dsn6"
  type: "Convolution"
  bottom: "conv3-dsn6"
  top: "conv4-dsn6"
  param {
    lr_mult: 1
    decay_mult: 1
  }
  param {
    lr_mult: 2
    decay_mult: 0
  }
  convolution_param {
    num_output: 256
    pad: 2
    kernel_size: 5
    weight_filler {
      type: "gaussian"
      std: 0.01
    }
    bias_filler {
      type: "constant"
      value: 0
    }
    engine: CUDNN
  }
}
layer {
  name: "relu3-dsn6"
  type: "ReLU"
  bottom: "conv4-dsn6"
  top: "conv4-dsn6"
}
layer {
  name: "conv5-dsn6"
  type: "Convolution"
  bottom: "conv4-dsn6"
  top: "conv5-dsn6"
  param {
    lr_mult: 0.1
    decay_mult: 1
  }
  param {
    lr_mult: 0.2
    decay_mult: 0
  }
  convolution_param {
    num_output: 1
    kernel_size: 1
    weight_filler {
      type: "gaussian"
      std: 0.01
    }
    bias_filler {
      type: "constant"
      value: 0
    }
    engine: CUDNN
  }
}
layer {
  name: "upsample32_dsn6"
  type: "Deconvolution"
  bottom: "conv5-dsn6"
  top: "conv5-dsn6-up"
  param {
    lr_mult: 0
    decay_mult: 1
  }
  param {
    lr_mult: 0
    decay_mult: 0
  }
  convolution_param {
    num_output: 1
    kernel_size: 64
    stride: 32
  }
}
layer {
  name: "crop-dsn6"
  type: "Crop"
  bottom: "conv5-dsn6-up"
  bottom: "data"
  top: "upscore-dsn6"
}
layer {
  name: "loss6-score"
  type: "SigmoidCrossEntropyLoss"
  bottom: "upscore-dsn6"
  bottom: "label"
  top: "loss6-score"
  loss_weight: 1
}
layer {
  name: "upsample2_dsn5"
  type: "Deconvolution"
  bottom: "conv5-dsn6"
  top: "conv5-dsn6-5"
  param {
    lr_mult: 0
    decay_mult: 1
  }
  param {
    lr_mult: 0
    decay_mult: 0
  }
  convolution_param {
    num_output: 1
    kernel_size: 4
    stride: 2
  }
}
layer {
  name: "crop1-dsn5"
  type: "Crop"
  bottom: "conv5-dsn6-5"
  bottom: "conv5_3"
  top: "weight-dsn6-5"
}
layer {
  name: "sigmoid-dsn5"
  type: "Sigmoid"
  bottom: "weight-dsn6-5"
  top: "sigmoid-dsn5"
}
layer {
  name: "rev-dsn5"
  type: "Power"
  bottom: "sigmoid-dsn5"
  top: "rev-dsn5"
  power_param {
    power: 1
    scale: -1
    shift: 1
  }
}
layer {
  name: "tile-dsn5"
  type: "Tile"
  bottom: "rev-dsn5"
  top: "weight-dsn5"
  tile_param {
    tiles: 512
  }
}
layer {
  name: "prod1-dsn5"
  type: "Eltwise"
  bottom: "conv5_3"
  bottom: "weight-dsn5"
  top: "prod1-dsn5"
  eltwise_param {
    operation: PROD
  }
}
layer {
  name: "conv1-dsn5"
  type: "Convolution"
  bottom: "prod1-dsn5"
  top: "conv1-dsn5"
  param {
    lr_mult: 1
    decay_mult: 1
  }
  param {
    lr_mult: 2
    decay_mult: 0
  }
  convolution_param {
    num_output: 64
    kernel_size: 1
    weight_filler {
      type: "gaussian"
      std: 0.01
    }
    bias_filler {
      type: "constant"
      value: 0
    }
    engine: CUDNN
  }
}
layer {
  name: "conv2-dsn5"
  type: "Convolution"
  bottom: "conv1-dsn5"
  top: "conv2-dsn5"
  param {
    lr_mult: 1
    decay_mult: 1
  }
  param {
    lr_mult: 2
    decay_mult: 0
  }
  convolution_param {
    num_output: 64
    pad: 1
    kernel_size: 3
    weight_filler {
      type: "gaussian"
      std: 0.01
    }
    bias_filler {
      type: "constant"
      value: 0
    }
    engine: CUDNN
  }
}
layer {
  name: "relu1-dsn5"
  type: "ReLU"
  bottom: "conv2-dsn5"
  top: "conv2-dsn5"
}
layer {
  name: "conv3-dsn5"
  type: "Convolution"
  bottom: "conv2-dsn5"
  top: "conv3-dsn5"
  param {
    lr_mult: 1
    decay_mult: 1
  }
  param {
    lr_mult: 2
    decay_mult: 0
  }
  convolution_param {
    num_output: 64
    pad: 1
    kernel_size: 3
    weight_filler {
      type: "gaussian"
      std: 0.01
    }
    bias_filler {
      type: "constant"
      value: 0
    }
    engine: CUDNN
  }
}
layer {
  name: "relu2-dsn5"
  type: "ReLU"
  bottom: "conv3-dsn5"
  top: "conv3-dsn5"
}
layer {
  name: "conv4-dsn5"
  type: "Convolution"
  bottom: "conv3-dsn5"
  top: "conv4-dsn5"
  param {
    lr_mult: 1
    decay_mult: 1
  }
  param {
    lr_mult: 2
    decay_mult: 0
  }
  convolution_param {
    num_output: 1
    pad: 1
    kernel_size: 3
    weight_filler {
      type: "gaussian"
      std: 0.01
    }
    bias_filler {
      type: "constant"
      value: 0
    }
    engine: CUDNN
  }
}
layer {
  name: "sum-dsn5"
  type: "Eltwise"
  bottom: "conv4-dsn5"
  bottom: "weight-dsn6-5"
  top: "sum-dsn5"
  eltwise_param {
    operation: SUM
  }
}
layer {
  name: "upsample16_dsn5"
  type: "Deconvolution"
  bottom: "sum-dsn5"
  top: "sum-dsn5-up"
  param {
    lr_mult: 0
    decay_mult: 1
  }
  param {
    lr_mult: 0
    decay_mult: 0
  }
  convolution_param {
    num_output: 1
    kernel_size: 32
    stride: 16
  }
}
layer {
  name: "crop2-dsn5"
  type: "Crop"
  bottom: "sum-dsn5-up"
  bottom: "data"
  top: "upscore-dsn5"
}
layer {
  name: "loss5-score"
  type: "SigmoidCrossEntropyLoss"
  bottom: "upscore-dsn5"
  bottom: "label"
  top: "loss5-score"
  loss_weight: 1
}
layer {
  name: "upsample2_dsn4"
  type: "Deconvolution"
  bottom: "sum-dsn5"
  top: "sum-dsn5-4"
  param {
    lr_mult: 0
    decay_mult: 1
  }
  param {
    lr_mult: 0
    decay_mult: 0
  }
  convolution_param {
    num_output: 1
    kernel_size: 4
    stride: 2
  }
}
layer {
  name: "crop1-dsn4"
  type: "Crop"
  bottom: "sum-dsn5-4"
  bottom: "conv4_3"
  top: "weight-dsn5-4"
}
layer {
  name: "sigmoid-dsn4"
  type: "Sigmoid"
  bottom: "weight-dsn5-4"
  top: "sigmoid-dsn4"
}
layer {
  name: "rev-dsn4"
  type: "Power"
  bottom: "sigmoid-dsn4"
  top: "rev-dsn4"
  power_param {
    power: 1
    scale: -1
    shift: 1
  }
}
layer {
  name: "tile-dsn4"
  type: "Tile"
  bottom: "rev-dsn4"
  top: "weight-dsn4"
  tile_param {
    tiles: 512
  }
}
layer {
  name: "prod1-dsn4"
  type: "Eltwise"
  bottom: "conv4_3"
  bottom: "weight-dsn4"
  top: "prod1-dsn4"
  eltwise_param {
    operation: PROD
  }
}
layer {
  name: "conv1-dsn4"
  type: "Convolution"
  bottom: "prod1-dsn4"
  top: "conv1-dsn4"
  param {
    lr_mult: 1
    decay_mult: 1
  }
  param {
    lr_mult: 2
    decay_mult: 0
  }
  convolution_param {
    num_output: 64
    kernel_size: 1
    weight_filler {
      type: "gaussian"
      std: 0.01
    }
    bias_filler {
      type: "constant"
      value: 0
    }
    engine: CUDNN
  }
}
layer {
  name: "conv2-dsn4"
  type: "Convolution"
  bottom: "conv1-dsn4"
  top: "conv2-dsn4"
  param {
    lr_mult: 1
    decay_mult: 1
  }
  param {
    lr_mult: 2
    decay_mult: 0
  }
  convolution_param {
    num_output: 64
    pad: 1
    kernel_size: 3
    weight_filler {
      type: "gaussian"
      std: 0.01
    }
    bias_filler {
      type: "constant"
      value: 0
    }
    engine: CUDNN
  }
}
layer {
  name: "relu1-dsn4"
  type: "ReLU"
  bottom: "conv2-dsn4"
  top: "conv2-dsn4"
}
layer {
  name: "conv3-dsn4"
  type: "Convolution"
  bottom: "conv2-dsn4"
  top: "conv3-dsn4"
  param {
    lr_mult: 1
    decay_mult: 1
  }
  param {
    lr_mult: 2
    decay_mult: 0
  }
  convolution_param {
    num_output: 64
    pad: 1
    kernel_size: 3
    weight_filler {
      type: "gaussian"
      std: 0.01
    }
    bias_filler {
      type: "constant"
      value: 0
    }
    engine: CUDNN
  }
}
layer {
  name: "relu2-dsn4"
  type: "ReLU"
  bottom: "conv3-dsn4"
  top: "conv3-dsn4"
}
layer {
  name: "conv4-dsn4"
  type: "Convolution"
  bottom: "conv3-dsn4"
  top: "conv4-dsn4"
  param {
    lr_mult: 1
    decay_mult: 1
  }
  param {
    lr_mult: 2
    decay_mult: 0
  }
  convolution_param {
    num_output: 1
    pad: 1
    kernel_size: 3
    weight_filler {
      type: "gaussian"
      std: 0.01
    }
    bias_filler {
      type: "constant"
      value: 0
    }
    engine: CUDNN
  }
}
layer {
  name: "sum-dsn4"
  type: "Eltwise"
  bottom: "conv4-dsn4"
  bottom: "weight-dsn5-4"
  top: "sum-dsn4"
  eltwise_param {
    operation: SUM
  }
}
layer {
  name: "upsample8_dsn4"
  type: "Deconvolution"
  bottom: "sum-dsn4"
  top: "sum-dsn4-up"
  param {
    lr_mult: 0
    decay_mult: 1
  }
  param {
    lr_mult: 0
    decay_mult: 0
  }
  convolution_param {
    num_output: 1
    kernel_size: 16
    stride: 8
  }
}
layer {
  name: "crop2-dsn4"
  type: "Crop"
  bottom: "sum-dsn4-up"
  bottom: "data"
  top: "upscore-dsn4"
}
layer {
  name: "loss4-score"
  type: "SigmoidCrossEntropyLoss"
  bottom: "upscore-dsn4"
  bottom: "label"
  top: "loss4-score"
  loss_weight: 1
}
layer {
  name: "upsample2_dsn3"
  type: "Deconvolution"
  bottom: "sum-dsn4"
  top: "sum-dsn4-3"
  param {
    lr_mult: 0
    decay_mult: 1
  }
  param {
    lr_mult: 0
    decay_mult: 0
  }
  convolution_param {
    num_output: 1
    kernel_size: 4
    stride: 2
  }
}
layer {
  name: "crop1-dsn3"
  type: "Crop"
  bottom: "sum-dsn4-3"
  bottom: "conv3_3"
  top: "weight-dsn4-3"
}
layer {
  name: "sigmoid-dsn3"
  type: "Sigmoid"
  bottom: "weight-dsn4-3"
  top: "sigmoid-dsn3"
}
layer {
  name: "rev-dsn3"
  type: "Power"
  bottom: "sigmoid-dsn3"
  top: "rev-dsn3"
  power_param {
    power: 1
    scale: -1
    shift: 1
  }
}
layer {
  name: "tile-dsn3"
  type: "Tile"
  bottom: "rev-dsn3"
  top: "weight-dsn3"
  tile_param {
    tiles: 256
  }
}
layer {
  name: "prod1-dsn3"
  type: "Eltwise"
  bottom: "conv3_3"
  bottom: "weight-dsn3"
  top: "prod1-dsn3"
  eltwise_param {
    operation: PROD
  }
}
layer {
  name: "conv1-dsn3"
  type: "Convolution"
  bottom: "prod1-dsn3"
  top: "conv1-dsn3"
  param {
    lr_mult: 1
    decay_mult: 1
  }
  param {
    lr_mult: 2
    decay_mult: 0
  }
  convolution_param {
    num_output: 64
    kernel_size: 1
    weight_filler {
      type: "gaussian"
      std: 0.01
    }
    bias_filler {
      type: "constant"
      value: 0
    }
    engine: CUDNN
  }
}
layer {
  name: "conv2-dsn3"
  type: "Convolution"
  bottom: "conv1-dsn3"
  top: "conv2-dsn3"
  param {
    lr_mult: 1
    decay_mult: 1
  }
  param {
    lr_mult: 2
    decay_mult: 0
  }
  convolution_param {
    num_output: 64
    pad: 1
    kernel_size: 3
    weight_filler {
      type: "gaussian"
      std: 0.01
    }
    bias_filler {
      type: "constant"
      value: 0
    }
    engine: CUDNN
  }
}
layer {
  name: "relu1-dsn3"
  type: "ReLU"
  bottom: "conv2-dsn3"
  top: "conv2-dsn3"
}
layer {
  name: "conv3-dsn3"
  type: "Convolution"
  bottom: "conv2-dsn3"
  top: "conv3-dsn3"
  param {
    lr_mult: 1
    decay_mult: 1
  }
  param {
    lr_mult: 2
    decay_mult: 0
  }
  convolution_param {
    num_output: 64
    pad: 1
    kernel_size: 3
    weight_filler {
      type: "gaussian"
      std: 0.01
    }
    bias_filler {
      type: "constant"
      value: 0
    }
    engine: CUDNN
  }
}
layer {
  name: "relu2-dsn3"
  type: "ReLU"
  bottom: "conv3-dsn3"
  top: "conv3-dsn3"
}
layer {
  name: "conv4-dsn3"
  type: "Convolution"
  bottom: "conv3-dsn3"
  top: "conv4-dsn3"
  param {
    lr_mult: 1
    decay_mult: 1
  }
  param {
    lr_mult: 2
    decay_mult: 0
  }
  convolution_param {
    num_output: 1
    pad: 1
    kernel_size: 3
    weight_filler {
      type: "gaussian"
      std: 0.01
    }
    bias_filler {
      type: "constant"
      value: 0
    }
    engine: CUDNN
  }
}
layer {
  name: "sum-dsn3"
  type: "Eltwise"
  bottom: "conv4-dsn3"
  bottom: "weight-dsn4-3"
  top: "sum-dsn3"
  eltwise_param {
    operation: SUM
  }
}
layer {
  name: "upsample4_dsn3"
  type: "Deconvolution"
  bottom: "sum-dsn3"
  top: "sum-dsn3-up"
  param {
    lr_mult: 0
    decay_mult: 1
  }
  param {
    lr_mult: 0
    decay_mult: 0
  }
  convolution_param {
    num_output: 1
    kernel_size: 8
    stride: 4
  }
}
layer {
  name: "crop2-dsn3"
  type: "Crop"
  bottom: "sum-dsn3-up"
  bottom: "data"
  top: "upscore-dsn3"
}
layer {
  name: "loss3-score"
  type: "SigmoidCrossEntropyLoss"
  bottom: "upscore-dsn3"
  bottom: "label"
  top: "loss3-score"
  loss_weight: 1
}
layer {
  name: "upsample2_1-dsn2"
  type: "Deconvolution"
  bottom: "sum-dsn3"
  top: "sum-dsn3-2"
  param {
    lr_mult: 0
    decay_mult: 1
  }
  param {
    lr_mult: 0
    decay_mult: 0
  }
  convolution_param {
    num_output: 1
    kernel_size: 4
    stride: 2
  }
}
layer {
  name: "crop1-dsn2"
  type: "Crop"
  bottom: "sum-dsn3-2"
  bottom: "conv2_2"
  top: "weight-dsn3-2"
}
layer {
  name: "sigmoid-dsn2"
  type: "Sigmoid"
  bottom: "weight-dsn3-2"
  top: "sigmoid-dsn2"
}
layer {
  name: "rev-dsn2"
  type: "Power"
  bottom: "sigmoid-dsn2"
  top: "rev-dsn2"
  power_param {
    power: 1
    scale: -1
    shift: 1
  }
}
layer {
  name: "tile-dsn2"
  type: "Tile"
  bottom: "rev-dsn2"
  top: "weight-dsn2"
  tile_param {
    tiles: 128
  }
}
layer {
  name: "prod1-dsn2"
  type: "Eltwise"
  bottom: "conv2_2"
  bottom: "weight-dsn2"
  top: "prod1-dsn2"
  eltwise_param {
    operation: PROD
  }
}
layer {
  name: "conv1-dsn2"
  type: "Convolution"
  bottom: "prod1-dsn2"
  top: "conv1-dsn2"
  param {
    lr_mult: 1
    decay_mult: 1
  }
  param {
    lr_mult: 2
    decay_mult: 0
  }
  convolution_param {
    num_output: 64
    kernel_size: 1
    weight_filler {
      type: "gaussian"
      std: 0.01
    }
    bias_filler {
      type: "constant"
      value: 0
    }
    engine: CUDNN
  }
}
layer {
  name: "conv2-dsn2"
  type: "Convolution"
  bottom: "conv1-dsn2"
  top: "conv2-dsn2"
  param {
    lr_mult: 1
    decay_mult: 1
  }
  param {
    lr_mult: 2
    decay_mult: 0
  }
  convolution_param {
    num_output: 64
    pad: 1
    kernel_size: 3
    weight_filler {
      type: "gaussian"
      std: 0.01
    }
    bias_filler {
      type: "constant"
      value: 0
    }
    engine: CUDNN
  }
}
layer {
  name: "relu1-dsn2"
  type: "ReLU"
  bottom: "conv2-dsn2"
  top: "conv2-dsn2"
}
layer {
  name: "conv3-dsn2"
  type: "Convolution"
  bottom: "conv2-dsn2"
  top: "conv3-dsn2"
  param {
    lr_mult: 1
    decay_mult: 1
  }
  param {
    lr_mult: 2
    decay_mult: 0
  }
  convolution_param {
    num_output: 64
    pad: 1
    kernel_size: 3
    weight_filler {
      type: "gaussian"
      std: 0.01
    }
    bias_filler {
      type: "constant"
      value: 0
    }
    engine: CUDNN
  }
}
layer {
  name: "relu2-dsn2"
  type: "ReLU"
  bottom: "conv3-dsn2"
  top: "conv3-dsn2"
}
layer {
  name: "conv4-dsn2"
  type: "Convolution"
  bottom: "conv3-dsn2"
  top: "conv4-dsn2"
  param {
    lr_mult: 1
    decay_mult: 1
  }
  param {
    lr_mult: 2
    decay_mult: 0
  }
  convolution_param {
    num_output: 1
    pad: 1
    kernel_size: 3
    weight_filler {
      type: "gaussian"
      std: 0.01
    }
    bias_filler {
      type: "constant"
      value: 0
    }
    engine: CUDNN
  }
}
layer {
  name: "sum-dsn2"
  type: "Eltwise"
  bottom: "conv4-dsn2"
  bottom: "weight-dsn3-2"
  top: "sum-dsn2"
  eltwise_param {
    operation: SUM
  }
}
layer {
  name: "upsample2_2-dsn2"
  type: "Deconvolution"
  bottom: "sum-dsn2"
  top: "sum-dsn2-up"
  param {
    lr_mult: 0
    decay_mult: 1
  }
  param {
    lr_mult: 0
    decay_mult: 0
  }
  convolution_param {
    num_output: 1
    kernel_size: 4
    stride: 2
  }
}
layer {
  name: "crop2-dsn2"
  type: "Crop"
  bottom: "sum-dsn2-up"
  bottom: "data"
  top: "upscore-dsn2"
}
layer {
  name: "loss2-score"
  type: "SigmoidCrossEntropyLoss"
  bottom: "upscore-dsn2"
  bottom: "label"
  top: "loss2-score"
  loss_weight: 1
}
layer {
  name: "sigmoid-dsn1"
  type: "Sigmoid"
  bottom: "upscore-dsn2"
  top: "sigmoid-dsn1"
}
layer {
  name: "rev-dsn1"
  type: "Power"
  bottom: "sigmoid-dsn1"
  top: "rev-dsn1"
  power_param {
    power: 1
    scale: -1
    shift: 1
  }
}
layer {
  name: "tile-dsn1"
  type: "Tile"
  bottom: "rev-dsn1"
  top: "weight-dsn1"
  tile_param {
    tiles: 64
  }
}
layer {
  name: "prod1-dsn1"
  type: "Eltwise"
  bottom: "conv1_2"
  bottom: "weight-dsn1"
  top: "prod1-dsn1"
  eltwise_param {
    operation: PROD
  }
}
layer {
  name: "conv1-dsn1"
  type: "Convolution"
  bottom: "prod1-dsn1"
  top: "conv1-dsn1"
  param {
    lr_mult: 1
    decay_mult: 1
  }
  param {
    lr_mult: 2
    decay_mult: 0
  }
  convolution_param {
    num_output: 64
    kernel_size: 1
    weight_filler {
      type: "gaussian"
      std: 0.01
    }
    bias_filler {
      type: "constant"
      value: 0
    }
    engine: CUDNN
  }
}
layer {
  name: "conv2-dsn1"
  type: "Convolution"
  bottom: "conv1-dsn1"
  top: "conv2-dsn1"
  param {
    lr_mult: 1
    decay_mult: 1
  }
  param {
    lr_mult: 2
    decay_mult: 0
  }
  convolution_param {
    num_output: 64
    pad: 1
    kernel_size: 3
    weight_filler {
      type: "gaussian"
      std: 0.01
    }
    bias_filler {
      type: "constant"
      value: 0
    }
    engine: CUDNN
  }
}
layer {
  name: "relu1-dsn1"
  type: "ReLU"
  bottom: "conv2-dsn1"
  top: "conv2-dsn1"
}
layer {
  name: "conv3-dsn1"
  type: "Convolution"
  bottom: "conv2-dsn1"
  top: "conv3-dsn1"
  param {
    lr_mult: 1
    decay_mult: 1
  }
  param {
    lr_mult: 2
    decay_mult: 0
  }
  convolution_param {
    num_output: 64
    pad: 1
    kernel_size: 3
    weight_filler {
      type: "gaussian"
      std: 0.01
    }
    bias_filler {
      type: "constant"
      value: 0
    }
    engine: CUDNN
  }
}
layer {
  name: "relu2-dsn1"
  type: "ReLU"
  bottom: "conv3-dsn1"
  top: "conv3-dsn1"
}
layer {
  name: "conv4-dsn1"
  type: "Convolution"
  bottom: "conv3-dsn1"
  top: "conv4-dsn1"
  param {
    lr_mult: 1
    decay_mult: 1
  }
  param {
    lr_mult: 2
    decay_mult: 0
  }
  convolution_param {
    num_output: 1
    pad: 1
    kernel_size: 3
    weight_filler {
      type: "gaussian"
      std: 0.01
    }
    bias_filler {
      type: "constant"
      value: 0
    }
    engine: CUDNN
  }
}
layer {
  name: "sum-dsn1"
  type: "Eltwise"
  bottom: "conv4-dsn1"
  bottom: "upscore-dsn2"
  top: "sum-dsn1"
  eltwise_param {
    operation: SUM
  }
}
layer {
  name: "crop2-dsn1"
  type: "Crop"
  bottom: "sum-dsn1"
  bottom: "data"
  top: "upscore-dsn1"
}
layer {
  name: "loss1-score"
  type: "SigmoidCrossEntropyLoss"
  bottom: "upscore-dsn1"
  bottom: "label"
  top: "loss1-score"
  loss_weight: 1
}
I1118 18:13:16.625469  2467 layer_factory.hpp:77] Creating layer data
I1118 18:13:16.625483  2467 net.cpp:100] Creating Layer data
I1118 18:13:16.625486  2467 net.cpp:408] data -> data
I1118 18:13:16.625494  2467 net.cpp:408] data -> label
I1118 18:13:16.625501  2467 image_labelmap_data_layer.cpp:41] Opening file /media/compute/homes/galberding/FleckDetect/Datasets/FleckDataSet/val/image_to_label_map.txt
I1118 18:13:16.626590  2467 image_labelmap_data_layer.cpp:56] A total of 54 images.
I1118 18:13:16.670401  2467 image_labelmap_data_layer.cpp:110] output data size: 1,3,500,500
I1118 18:13:16.670418  2467 image_labelmap_data_layer.cpp:113] output label size: 1,1,500,500
I1118 18:13:16.677887  2467 net.cpp:150] Setting up data
I1118 18:13:16.677907  2467 net.cpp:157] Top shape: 1 3 500 500 (750000)
I1118 18:13:16.677911  2467 net.cpp:157] Top shape: 1 1 500 500 (250000)
I1118 18:13:16.677913  2467 net.cpp:165] Memory required for data: 4000000
I1118 18:13:16.677920  2467 layer_factory.hpp:77] Creating layer data_data_0_split
I1118 18:13:16.677935  2467 net.cpp:100] Creating Layer data_data_0_split
I1118 18:13:16.677938  2467 net.cpp:434] data_data_0_split <- data
I1118 18:13:16.677945  2467 net.cpp:408] data_data_0_split -> data_data_0_split_0
I1118 18:13:16.677956  2467 net.cpp:408] data_data_0_split -> data_data_0_split_1
I1118 18:13:16.677961  2467 net.cpp:408] data_data_0_split -> data_data_0_split_2
I1118 18:13:16.677966  2467 net.cpp:408] data_data_0_split -> data_data_0_split_3
I1118 18:13:16.677971  2467 net.cpp:408] data_data_0_split -> data_data_0_split_4
I1118 18:13:16.677975  2467 net.cpp:408] data_data_0_split -> data_data_0_split_5
I1118 18:13:16.677979  2467 net.cpp:408] data_data_0_split -> data_data_0_split_6
I1118 18:13:16.678071  2467 net.cpp:150] Setting up data_data_0_split
I1118 18:13:16.678077  2467 net.cpp:157] Top shape: 1 3 500 500 (750000)
I1118 18:13:16.678081  2467 net.cpp:157] Top shape: 1 3 500 500 (750000)
I1118 18:13:16.678084  2467 net.cpp:157] Top shape: 1 3 500 500 (750000)
I1118 18:13:16.678087  2467 net.cpp:157] Top shape: 1 3 500 500 (750000)
I1118 18:13:16.678090  2467 net.cpp:157] Top shape: 1 3 500 500 (750000)
I1118 18:13:16.678092  2467 net.cpp:157] Top shape: 1 3 500 500 (750000)
I1118 18:13:16.678095  2467 net.cpp:157] Top shape: 1 3 500 500 (750000)
I1118 18:13:16.678097  2467 net.cpp:165] Memory required for data: 25000000
I1118 18:13:16.678099  2467 layer_factory.hpp:77] Creating layer label_data_1_split
I1118 18:13:16.678104  2467 net.cpp:100] Creating Layer label_data_1_split
I1118 18:13:16.678107  2467 net.cpp:434] label_data_1_split <- label
I1118 18:13:16.678112  2467 net.cpp:408] label_data_1_split -> label_data_1_split_0
I1118 18:13:16.678117  2467 net.cpp:408] label_data_1_split -> label_data_1_split_1
I1118 18:13:16.678120  2467 net.cpp:408] label_data_1_split -> label_data_1_split_2
I1118 18:13:16.678124  2467 net.cpp:408] label_data_1_split -> label_data_1_split_3
I1118 18:13:16.678128  2467 net.cpp:408] label_data_1_split -> label_data_1_split_4
I1118 18:13:16.678148  2467 net.cpp:408] label_data_1_split -> label_data_1_split_5
I1118 18:13:16.678225  2467 net.cpp:150] Setting up label_data_1_split
I1118 18:13:16.678230  2467 net.cpp:157] Top shape: 1 1 500 500 (250000)
I1118 18:13:16.678232  2467 net.cpp:157] Top shape: 1 1 500 500 (250000)
I1118 18:13:16.678236  2467 net.cpp:157] Top shape: 1 1 500 500 (250000)
I1118 18:13:16.678241  2467 net.cpp:157] Top shape: 1 1 500 500 (250000)
I1118 18:13:16.678243  2467 net.cpp:157] Top shape: 1 1 500 500 (250000)
I1118 18:13:16.678246  2467 net.cpp:157] Top shape: 1 1 500 500 (250000)
I1118 18:13:16.678247  2467 net.cpp:165] Memory required for data: 31000000
I1118 18:13:16.678249  2467 layer_factory.hpp:77] Creating layer conv1_1
I1118 18:13:16.678259  2467 net.cpp:100] Creating Layer conv1_1
I1118 18:13:16.678262  2467 net.cpp:434] conv1_1 <- data_data_0_split_0
I1118 18:13:16.678267  2467 net.cpp:408] conv1_1 -> conv1_1
I1118 18:13:16.679240  2467 net.cpp:150] Setting up conv1_1
I1118 18:13:16.679251  2467 net.cpp:157] Top shape: 1 64 500 500 (16000000)
I1118 18:13:16.679270  2467 net.cpp:165] Memory required for data: 95000000
I1118 18:13:16.679280  2467 layer_factory.hpp:77] Creating layer relu1_1
I1118 18:13:16.679286  2467 net.cpp:100] Creating Layer relu1_1
I1118 18:13:16.679289  2467 net.cpp:434] relu1_1 <- conv1_1
I1118 18:13:16.679294  2467 net.cpp:395] relu1_1 -> conv1_1 (in-place)
I1118 18:13:16.679487  2467 net.cpp:150] Setting up relu1_1
I1118 18:13:16.679497  2467 net.cpp:157] Top shape: 1 64 500 500 (16000000)
I1118 18:13:16.679500  2467 net.cpp:165] Memory required for data: 159000000
I1118 18:13:16.679502  2467 layer_factory.hpp:77] Creating layer conv1_2
I1118 18:13:16.679510  2467 net.cpp:100] Creating Layer conv1_2
I1118 18:13:16.679513  2467 net.cpp:434] conv1_2 <- conv1_1
I1118 18:13:16.679518  2467 net.cpp:408] conv1_2 -> conv1_2
I1118 18:13:16.681052  2467 net.cpp:150] Setting up conv1_2
I1118 18:13:16.681063  2467 net.cpp:157] Top shape: 1 64 500 500 (16000000)
I1118 18:13:16.681066  2467 net.cpp:165] Memory required for data: 223000000
I1118 18:13:16.681073  2467 layer_factory.hpp:77] Creating layer relu1_2
I1118 18:13:16.681078  2467 net.cpp:100] Creating Layer relu1_2
I1118 18:13:16.681080  2467 net.cpp:434] relu1_2 <- conv1_2
I1118 18:13:16.681085  2467 net.cpp:395] relu1_2 -> conv1_2 (in-place)
I1118 18:13:16.681149  2467 net.cpp:150] Setting up relu1_2
I1118 18:13:16.681154  2467 net.cpp:157] Top shape: 1 64 500 500 (16000000)
I1118 18:13:16.681157  2467 net.cpp:165] Memory required for data: 287000000
I1118 18:13:16.681161  2467 layer_factory.hpp:77] Creating layer conv1_2_relu1_2_0_split
I1118 18:13:16.681166  2467 net.cpp:100] Creating Layer conv1_2_relu1_2_0_split
I1118 18:13:16.681169  2467 net.cpp:434] conv1_2_relu1_2_0_split <- conv1_2
I1118 18:13:16.681172  2467 net.cpp:408] conv1_2_relu1_2_0_split -> conv1_2_relu1_2_0_split_0
I1118 18:13:16.681177  2467 net.cpp:408] conv1_2_relu1_2_0_split -> conv1_2_relu1_2_0_split_1
I1118 18:13:16.681206  2467 net.cpp:150] Setting up conv1_2_relu1_2_0_split
I1118 18:13:16.681211  2467 net.cpp:157] Top shape: 1 64 500 500 (16000000)
I1118 18:13:16.681215  2467 net.cpp:157] Top shape: 1 64 500 500 (16000000)
I1118 18:13:16.681216  2467 net.cpp:165] Memory required for data: 415000000
I1118 18:13:16.681218  2467 layer_factory.hpp:77] Creating layer pool1
I1118 18:13:16.681224  2467 net.cpp:100] Creating Layer pool1
I1118 18:13:16.681226  2467 net.cpp:434] pool1 <- conv1_2_relu1_2_0_split_0
I1118 18:13:16.681231  2467 net.cpp:408] pool1 -> pool1
I1118 18:13:16.681257  2467 net.cpp:150] Setting up pool1
I1118 18:13:16.681262  2467 net.cpp:157] Top shape: 1 64 250 250 (4000000)
I1118 18:13:16.681263  2467 net.cpp:165] Memory required for data: 431000000
I1118 18:13:16.681267  2467 layer_factory.hpp:77] Creating layer conv2_1
I1118 18:13:16.681272  2467 net.cpp:100] Creating Layer conv2_1
I1118 18:13:16.681274  2467 net.cpp:434] conv2_1 <- pool1
I1118 18:13:16.681293  2467 net.cpp:408] conv2_1 -> conv2_1
I1118 18:13:16.682063  2467 net.cpp:150] Setting up conv2_1
I1118 18:13:16.682075  2467 net.cpp:157] Top shape: 1 128 250 250 (8000000)
I1118 18:13:16.682077  2467 net.cpp:165] Memory required for data: 463000000
I1118 18:13:16.682085  2467 layer_factory.hpp:77] Creating layer relu2_1
I1118 18:13:16.682090  2467 net.cpp:100] Creating Layer relu2_1
I1118 18:13:16.682093  2467 net.cpp:434] relu2_1 <- conv2_1
I1118 18:13:16.682097  2467 net.cpp:395] relu2_1 -> conv2_1 (in-place)
I1118 18:13:16.682163  2467 net.cpp:150] Setting up relu2_1
I1118 18:13:16.682170  2467 net.cpp:157] Top shape: 1 128 250 250 (8000000)
I1118 18:13:16.682173  2467 net.cpp:165] Memory required for data: 495000000
I1118 18:13:16.682174  2467 layer_factory.hpp:77] Creating layer conv2_2
I1118 18:13:16.682181  2467 net.cpp:100] Creating Layer conv2_2
I1118 18:13:16.682184  2467 net.cpp:434] conv2_2 <- conv2_1
I1118 18:13:16.682188  2467 net.cpp:408] conv2_2 -> conv2_2
I1118 18:13:16.684940  2467 net.cpp:150] Setting up conv2_2
I1118 18:13:16.684952  2467 net.cpp:157] Top shape: 1 128 250 250 (8000000)
I1118 18:13:16.684954  2467 net.cpp:165] Memory required for data: 527000000
I1118 18:13:16.684959  2467 layer_factory.hpp:77] Creating layer relu2_2
I1118 18:13:16.684964  2467 net.cpp:100] Creating Layer relu2_2
I1118 18:13:16.684967  2467 net.cpp:434] relu2_2 <- conv2_2
I1118 18:13:16.684972  2467 net.cpp:395] relu2_2 -> conv2_2 (in-place)
I1118 18:13:16.685031  2467 net.cpp:150] Setting up relu2_2
I1118 18:13:16.685037  2467 net.cpp:157] Top shape: 1 128 250 250 (8000000)
I1118 18:13:16.685039  2467 net.cpp:165] Memory required for data: 559000000
I1118 18:13:16.685042  2467 layer_factory.hpp:77] Creating layer conv2_2_relu2_2_0_split
I1118 18:13:16.685048  2467 net.cpp:100] Creating Layer conv2_2_relu2_2_0_split
I1118 18:13:16.685051  2467 net.cpp:434] conv2_2_relu2_2_0_split <- conv2_2
I1118 18:13:16.685055  2467 net.cpp:408] conv2_2_relu2_2_0_split -> conv2_2_relu2_2_0_split_0
I1118 18:13:16.685061  2467 net.cpp:408] conv2_2_relu2_2_0_split -> conv2_2_relu2_2_0_split_1
I1118 18:13:16.685065  2467 net.cpp:408] conv2_2_relu2_2_0_split -> conv2_2_relu2_2_0_split_2
I1118 18:13:16.685103  2467 net.cpp:150] Setting up conv2_2_relu2_2_0_split
I1118 18:13:16.685107  2467 net.cpp:157] Top shape: 1 128 250 250 (8000000)
I1118 18:13:16.685111  2467 net.cpp:157] Top shape: 1 128 250 250 (8000000)
I1118 18:13:16.685113  2467 net.cpp:157] Top shape: 1 128 250 250 (8000000)
I1118 18:13:16.685115  2467 net.cpp:165] Memory required for data: 655000000
I1118 18:13:16.685117  2467 layer_factory.hpp:77] Creating layer pool2
I1118 18:13:16.685122  2467 net.cpp:100] Creating Layer pool2
I1118 18:13:16.685124  2467 net.cpp:434] pool2 <- conv2_2_relu2_2_0_split_0
I1118 18:13:16.685143  2467 net.cpp:408] pool2 -> pool2
I1118 18:13:16.685169  2467 net.cpp:150] Setting up pool2
I1118 18:13:16.685173  2467 net.cpp:157] Top shape: 1 128 125 125 (2000000)
I1118 18:13:16.685175  2467 net.cpp:165] Memory required for data: 663000000
I1118 18:13:16.685178  2467 layer_factory.hpp:77] Creating layer conv3_1
I1118 18:13:16.685184  2467 net.cpp:100] Creating Layer conv3_1
I1118 18:13:16.685186  2467 net.cpp:434] conv3_1 <- pool2
I1118 18:13:16.685190  2467 net.cpp:408] conv3_1 -> conv3_1
I1118 18:13:16.686326  2467 net.cpp:150] Setting up conv3_1
I1118 18:13:16.686336  2467 net.cpp:157] Top shape: 1 256 125 125 (4000000)
I1118 18:13:16.686338  2467 net.cpp:165] Memory required for data: 679000000
I1118 18:13:16.686347  2467 layer_factory.hpp:77] Creating layer relu3_1
I1118 18:13:16.686353  2467 net.cpp:100] Creating Layer relu3_1
I1118 18:13:16.686357  2467 net.cpp:434] relu3_1 <- conv3_1
I1118 18:13:16.686360  2467 net.cpp:395] relu3_1 -> conv3_1 (in-place)
I1118 18:13:16.686501  2467 net.cpp:150] Setting up relu3_1
I1118 18:13:16.686508  2467 net.cpp:157] Top shape: 1 256 125 125 (4000000)
I1118 18:13:16.686511  2467 net.cpp:165] Memory required for data: 695000000
I1118 18:13:16.686514  2467 layer_factory.hpp:77] Creating layer conv3_2
I1118 18:13:16.686535  2467 net.cpp:100] Creating Layer conv3_2
I1118 18:13:16.686538  2467 net.cpp:434] conv3_2 <- conv3_1
I1118 18:13:16.686543  2467 net.cpp:408] conv3_2 -> conv3_2
I1118 18:13:16.688256  2467 net.cpp:150] Setting up conv3_2
I1118 18:13:16.688266  2467 net.cpp:157] Top shape: 1 256 125 125 (4000000)
I1118 18:13:16.688268  2467 net.cpp:165] Memory required for data: 711000000
I1118 18:13:16.688273  2467 layer_factory.hpp:77] Creating layer relu3_2
I1118 18:13:16.688278  2467 net.cpp:100] Creating Layer relu3_2
I1118 18:13:16.688280  2467 net.cpp:434] relu3_2 <- conv3_2
I1118 18:13:16.688284  2467 net.cpp:395] relu3_2 -> conv3_2 (in-place)
I1118 18:13:16.688442  2467 net.cpp:150] Setting up relu3_2
I1118 18:13:16.688452  2467 net.cpp:157] Top shape: 1 256 125 125 (4000000)
I1118 18:13:16.688453  2467 net.cpp:165] Memory required for data: 727000000
I1118 18:13:16.688457  2467 layer_factory.hpp:77] Creating layer conv3_3
I1118 18:13:16.688463  2467 net.cpp:100] Creating Layer conv3_3
I1118 18:13:16.688467  2467 net.cpp:434] conv3_3 <- conv3_2
I1118 18:13:16.688472  2467 net.cpp:408] conv3_3 -> conv3_3
I1118 18:13:16.690220  2467 net.cpp:150] Setting up conv3_3
I1118 18:13:16.690232  2467 net.cpp:157] Top shape: 1 256 125 125 (4000000)
I1118 18:13:16.690249  2467 net.cpp:165] Memory required for data: 743000000
I1118 18:13:16.690254  2467 layer_factory.hpp:77] Creating layer relu3_3
I1118 18:13:16.690260  2467 net.cpp:100] Creating Layer relu3_3
I1118 18:13:16.690263  2467 net.cpp:434] relu3_3 <- conv3_3
I1118 18:13:16.690268  2467 net.cpp:395] relu3_3 -> conv3_3 (in-place)
I1118 18:13:16.690414  2467 net.cpp:150] Setting up relu3_3
I1118 18:13:16.690424  2467 net.cpp:157] Top shape: 1 256 125 125 (4000000)
I1118 18:13:16.690426  2467 net.cpp:165] Memory required for data: 759000000
I1118 18:13:16.690429  2467 layer_factory.hpp:77] Creating layer conv3_3_relu3_3_0_split
I1118 18:13:16.690434  2467 net.cpp:100] Creating Layer conv3_3_relu3_3_0_split
I1118 18:13:16.690438  2467 net.cpp:434] conv3_3_relu3_3_0_split <- conv3_3
I1118 18:13:16.690443  2467 net.cpp:408] conv3_3_relu3_3_0_split -> conv3_3_relu3_3_0_split_0
I1118 18:13:16.690449  2467 net.cpp:408] conv3_3_relu3_3_0_split -> conv3_3_relu3_3_0_split_1
I1118 18:13:16.690454  2467 net.cpp:408] conv3_3_relu3_3_0_split -> conv3_3_relu3_3_0_split_2
I1118 18:13:16.690496  2467 net.cpp:150] Setting up conv3_3_relu3_3_0_split
I1118 18:13:16.690501  2467 net.cpp:157] Top shape: 1 256 125 125 (4000000)
I1118 18:13:16.690505  2467 net.cpp:157] Top shape: 1 256 125 125 (4000000)
I1118 18:13:16.690507  2467 net.cpp:157] Top shape: 1 256 125 125 (4000000)
I1118 18:13:16.690510  2467 net.cpp:165] Memory required for data: 807000000
I1118 18:13:16.690511  2467 layer_factory.hpp:77] Creating layer pool3
I1118 18:13:16.690516  2467 net.cpp:100] Creating Layer pool3
I1118 18:13:16.690518  2467 net.cpp:434] pool3 <- conv3_3_relu3_3_0_split_0
I1118 18:13:16.690523  2467 net.cpp:408] pool3 -> pool3
I1118 18:13:16.690553  2467 net.cpp:150] Setting up pool3
I1118 18:13:16.690558  2467 net.cpp:157] Top shape: 1 256 63 63 (1016064)
I1118 18:13:16.690560  2467 net.cpp:165] Memory required for data: 811064256
I1118 18:13:16.690562  2467 layer_factory.hpp:77] Creating layer conv4_1
I1118 18:13:16.690569  2467 net.cpp:100] Creating Layer conv4_1
I1118 18:13:16.690572  2467 net.cpp:434] conv4_1 <- pool3
I1118 18:13:16.690577  2467 net.cpp:408] conv4_1 -> conv4_1
I1118 18:13:16.695153  2467 net.cpp:150] Setting up conv4_1
I1118 18:13:16.695164  2467 net.cpp:157] Top shape: 1 512 63 63 (2032128)
I1118 18:13:16.695168  2467 net.cpp:165] Memory required for data: 819192768
I1118 18:13:16.695171  2467 layer_factory.hpp:77] Creating layer relu4_1
I1118 18:13:16.695178  2467 net.cpp:100] Creating Layer relu4_1
I1118 18:13:16.695179  2467 net.cpp:434] relu4_1 <- conv4_1
I1118 18:13:16.695185  2467 net.cpp:395] relu4_1 -> conv4_1 (in-place)
I1118 18:13:16.695245  2467 net.cpp:150] Setting up relu4_1
I1118 18:13:16.695251  2467 net.cpp:157] Top shape: 1 512 63 63 (2032128)
I1118 18:13:16.695253  2467 net.cpp:165] Memory required for data: 827321280
I1118 18:13:16.695256  2467 layer_factory.hpp:77] Creating layer conv4_2
I1118 18:13:16.695264  2467 net.cpp:100] Creating Layer conv4_2
I1118 18:13:16.695267  2467 net.cpp:434] conv4_2 <- conv4_1
I1118 18:13:16.695272  2467 net.cpp:408] conv4_2 -> conv4_2
I1118 18:13:16.701319  2467 net.cpp:150] Setting up conv4_2
I1118 18:13:16.701331  2467 net.cpp:157] Top shape: 1 512 63 63 (2032128)
I1118 18:13:16.701349  2467 net.cpp:165] Memory required for data: 835449792
I1118 18:13:16.701359  2467 layer_factory.hpp:77] Creating layer relu4_2
I1118 18:13:16.701365  2467 net.cpp:100] Creating Layer relu4_2
I1118 18:13:16.701370  2467 net.cpp:434] relu4_2 <- conv4_2
I1118 18:13:16.701373  2467 net.cpp:395] relu4_2 -> conv4_2 (in-place)
I1118 18:13:16.701455  2467 net.cpp:150] Setting up relu4_2
I1118 18:13:16.701462  2467 net.cpp:157] Top shape: 1 512 63 63 (2032128)
I1118 18:13:16.701464  2467 net.cpp:165] Memory required for data: 843578304
I1118 18:13:16.701467  2467 layer_factory.hpp:77] Creating layer conv4_3
I1118 18:13:16.701472  2467 net.cpp:100] Creating Layer conv4_3
I1118 18:13:16.701475  2467 net.cpp:434] conv4_3 <- conv4_2
I1118 18:13:16.701481  2467 net.cpp:408] conv4_3 -> conv4_3
I1118 18:13:16.706472  2467 net.cpp:150] Setting up conv4_3
I1118 18:13:16.706483  2467 net.cpp:157] Top shape: 1 512 63 63 (2032128)
I1118 18:13:16.706486  2467 net.cpp:165] Memory required for data: 851706816
I1118 18:13:16.706490  2467 layer_factory.hpp:77] Creating layer relu4_3
I1118 18:13:16.706496  2467 net.cpp:100] Creating Layer relu4_3
I1118 18:13:16.706498  2467 net.cpp:434] relu4_3 <- conv4_3
I1118 18:13:16.706503  2467 net.cpp:395] relu4_3 -> conv4_3 (in-place)
I1118 18:13:16.706647  2467 net.cpp:150] Setting up relu4_3
I1118 18:13:16.706656  2467 net.cpp:157] Top shape: 1 512 63 63 (2032128)
I1118 18:13:16.706658  2467 net.cpp:165] Memory required for data: 859835328
I1118 18:13:16.706661  2467 layer_factory.hpp:77] Creating layer conv4_3_relu4_3_0_split
I1118 18:13:16.706667  2467 net.cpp:100] Creating Layer conv4_3_relu4_3_0_split
I1118 18:13:16.706670  2467 net.cpp:434] conv4_3_relu4_3_0_split <- conv4_3
I1118 18:13:16.706676  2467 net.cpp:408] conv4_3_relu4_3_0_split -> conv4_3_relu4_3_0_split_0
I1118 18:13:16.706682  2467 net.cpp:408] conv4_3_relu4_3_0_split -> conv4_3_relu4_3_0_split_1
I1118 18:13:16.706702  2467 net.cpp:408] conv4_3_relu4_3_0_split -> conv4_3_relu4_3_0_split_2
I1118 18:13:16.706748  2467 net.cpp:150] Setting up conv4_3_relu4_3_0_split
I1118 18:13:16.706753  2467 net.cpp:157] Top shape: 1 512 63 63 (2032128)
I1118 18:13:16.706773  2467 net.cpp:157] Top shape: 1 512 63 63 (2032128)
I1118 18:13:16.706775  2467 net.cpp:157] Top shape: 1 512 63 63 (2032128)
I1118 18:13:16.706777  2467 net.cpp:165] Memory required for data: 884220864
I1118 18:13:16.706779  2467 layer_factory.hpp:77] Creating layer pool4
I1118 18:13:16.706787  2467 net.cpp:100] Creating Layer pool4
I1118 18:13:16.706790  2467 net.cpp:434] pool4 <- conv4_3_relu4_3_0_split_0
I1118 18:13:16.706794  2467 net.cpp:408] pool4 -> pool4
I1118 18:13:16.706841  2467 net.cpp:150] Setting up pool4
I1118 18:13:16.706846  2467 net.cpp:157] Top shape: 1 512 32 32 (524288)
I1118 18:13:16.706848  2467 net.cpp:165] Memory required for data: 886318016
I1118 18:13:16.706851  2467 layer_factory.hpp:77] Creating layer conv5_1
I1118 18:13:16.706858  2467 net.cpp:100] Creating Layer conv5_1
I1118 18:13:16.706861  2467 net.cpp:434] conv5_1 <- pool4
I1118 18:13:16.706866  2467 net.cpp:408] conv5_1 -> conv5_1
I1118 18:13:16.711776  2467 net.cpp:150] Setting up conv5_1
I1118 18:13:16.711787  2467 net.cpp:157] Top shape: 1 512 32 32 (524288)
I1118 18:13:16.711789  2467 net.cpp:165] Memory required for data: 888415168
I1118 18:13:16.711794  2467 layer_factory.hpp:77] Creating layer relu5_1
I1118 18:13:16.711807  2467 net.cpp:100] Creating Layer relu5_1
I1118 18:13:16.711809  2467 net.cpp:434] relu5_1 <- conv5_1
I1118 18:13:16.711813  2467 net.cpp:395] relu5_1 -> conv5_1 (in-place)
I1118 18:13:16.713208  2467 net.cpp:150] Setting up relu5_1
I1118 18:13:16.713218  2467 net.cpp:157] Top shape: 1 512 32 32 (524288)
I1118 18:13:16.713220  2467 net.cpp:165] Memory required for data: 890512320
I1118 18:13:16.713223  2467 layer_factory.hpp:77] Creating layer conv5_2
I1118 18:13:16.713230  2467 net.cpp:100] Creating Layer conv5_2
I1118 18:13:16.713233  2467 net.cpp:434] conv5_2 <- conv5_1
I1118 18:13:16.713238  2467 net.cpp:408] conv5_2 -> conv5_2
I1118 18:13:16.718099  2467 net.cpp:150] Setting up conv5_2
I1118 18:13:16.718111  2467 net.cpp:157] Top shape: 1 512 32 32 (524288)
I1118 18:13:16.718112  2467 net.cpp:165] Memory required for data: 892609472
I1118 18:13:16.718117  2467 layer_factory.hpp:77] Creating layer relu5_2
I1118 18:13:16.718123  2467 net.cpp:100] Creating Layer relu5_2
I1118 18:13:16.718125  2467 net.cpp:434] relu5_2 <- conv5_2
I1118 18:13:16.718130  2467 net.cpp:395] relu5_2 -> conv5_2 (in-place)
I1118 18:13:16.718274  2467 net.cpp:150] Setting up relu5_2
I1118 18:13:16.718283  2467 net.cpp:157] Top shape: 1 512 32 32 (524288)
I1118 18:13:16.718286  2467 net.cpp:165] Memory required for data: 894706624
I1118 18:13:16.718287  2467 layer_factory.hpp:77] Creating layer conv5_3
I1118 18:13:16.718293  2467 net.cpp:100] Creating Layer conv5_3
I1118 18:13:16.718297  2467 net.cpp:434] conv5_3 <- conv5_2
I1118 18:13:16.718307  2467 net.cpp:408] conv5_3 -> conv5_3
I1118 18:13:16.723347  2467 net.cpp:150] Setting up conv5_3
I1118 18:13:16.723358  2467 net.cpp:157] Top shape: 1 512 32 32 (524288)
I1118 18:13:16.723361  2467 net.cpp:165] Memory required for data: 896803776
I1118 18:13:16.723366  2467 layer_factory.hpp:77] Creating layer relu5_3
I1118 18:13:16.723371  2467 net.cpp:100] Creating Layer relu5_3
I1118 18:13:16.723373  2467 net.cpp:434] relu5_3 <- conv5_3
I1118 18:13:16.723378  2467 net.cpp:395] relu5_3 -> conv5_3 (in-place)
I1118 18:13:16.723440  2467 net.cpp:150] Setting up relu5_3
I1118 18:13:16.723446  2467 net.cpp:157] Top shape: 1 512 32 32 (524288)
I1118 18:13:16.723448  2467 net.cpp:165] Memory required for data: 898900928
I1118 18:13:16.723451  2467 layer_factory.hpp:77] Creating layer conv5_3_relu5_3_0_split
I1118 18:13:16.723459  2467 net.cpp:100] Creating Layer conv5_3_relu5_3_0_split
I1118 18:13:16.723460  2467 net.cpp:434] conv5_3_relu5_3_0_split <- conv5_3
I1118 18:13:16.723466  2467 net.cpp:408] conv5_3_relu5_3_0_split -> conv5_3_relu5_3_0_split_0
I1118 18:13:16.723472  2467 net.cpp:408] conv5_3_relu5_3_0_split -> conv5_3_relu5_3_0_split_1
I1118 18:13:16.723477  2467 net.cpp:408] conv5_3_relu5_3_0_split -> conv5_3_relu5_3_0_split_2
I1118 18:13:16.723510  2467 net.cpp:150] Setting up conv5_3_relu5_3_0_split
I1118 18:13:16.723515  2467 net.cpp:157] Top shape: 1 512 32 32 (524288)
I1118 18:13:16.723517  2467 net.cpp:157] Top shape: 1 512 32 32 (524288)
I1118 18:13:16.723520  2467 net.cpp:157] Top shape: 1 512 32 32 (524288)
I1118 18:13:16.723522  2467 net.cpp:165] Memory required for data: 905192384
I1118 18:13:16.723525  2467 layer_factory.hpp:77] Creating layer pool5
I1118 18:13:16.723531  2467 net.cpp:100] Creating Layer pool5
I1118 18:13:16.723533  2467 net.cpp:434] pool5 <- conv5_3_relu5_3_0_split_0
I1118 18:13:16.723538  2467 net.cpp:408] pool5 -> pool5
I1118 18:13:16.723565  2467 net.cpp:150] Setting up pool5
…
I1118 18:13:16.774021  2467 net.cpp:165] Memory required for data: 907559872
I1118 18:13:16.774034  2467 layer_factory.hpp:77] Creating layer relu3-dsn6
I1118 18:13:16.774040  2467 net.cpp:100] Creating Layer relu3-dsn6
I1118 18:13:16.774042  2467 net.cpp:434] relu3-dsn6 <- conv4-dsn6
I1118 18:13:16.774047  2467 net.cpp:395] relu3-dsn6 -> conv4-dsn6 (in-place)
I1118 18:13:16.774104  2467 net.cpp:150] Setting up relu3-dsn6
I1118 18:13:16.774111  2467 net.cpp:157] Top shape: 1 256 17 17 (73984)
I1118 18:13:16.774114  2467 net.cpp:165] Memory required for data: 907855808
I1118 18:13:16.774117  2467 layer_factory.hpp:77] Creating layer conv5-dsn6
I1118 18:13:16.774125  2467 net.cpp:100] Creating Layer conv5-dsn6
I1118 18:13:16.774128  2467 net.cpp:434] conv5-dsn6 <- conv4-dsn6
I1118 18:13:16.774133  2467 net.cpp:408] conv5-dsn6 -> conv5-dsn6
I1118 18:13:16.774694  2467 net.cpp:150] Setting up conv5-dsn6
I1118 18:13:16.774704  2467 net.cpp:157] Top shape: 1 1 17 17 (289)
I1118 18:13:16.774706  2467 net.cpp:165] Memory required for data: 907856964
I1118 18:13:16.774710  2467 layer_factory.hpp:77] Creating layer conv5-dsn6_conv5-dsn6_0_split
I1118 18:13:16.774716  2467 net.cpp:100] Creating Layer conv5-dsn6_conv5-dsn6_0_split
I1118 18:13:16.774719  2467 net.cpp:434] conv5-dsn6_conv5-dsn6_0_split <- conv5-dsn6
I1118 18:13:16.774724  2467 net.cpp:408] conv5-dsn6_conv5-dsn6_0_split -> conv5-dsn6_conv5-dsn6_0_split_0
I1118 18:13:16.774730  2467 net.cpp:408] conv5-dsn6_conv5-dsn6_0_split -> conv5-dsn6_conv5-dsn6_0_split_1
I1118 18:13:16.774756  2467 net.cpp:150] Setting up conv5-dsn6_conv5-dsn6_0_split
I1118 18:13:16.774760  2467 net.cpp:157] Top shape: 1 1 17 17 (289)
I1118 18:13:16.774762  2467 net.cpp:157] Top shape: 1 1 17 17 (289)
I1118 18:13:16.774765  2467 net.cpp:165] Memory required for data: 907859276
I1118 18:13:16.774766  2467 layer_factory.hpp:77] Creating layer upsample32_dsn6
I1118 18:13:16.774772  2467 net.cpp:100] Creating Layer upsample32_dsn6
I1118 18:13:16.774775  2467 net.cpp:434] upsample32_dsn6 <- conv5-dsn6_conv5-dsn6_0_split_0
I1118 18:13:16.774780  2467 net.cpp:408] upsample32_dsn6 -> conv5-dsn6-up
I1118 18:13:16.775322  2467 net.cpp:150] Setting up upsample32_dsn6
I1118 18:13:16.775329  2467 net.cpp:157] Top shape: 1 1 576 576 (331776)
I1118 18:13:16.775331  2467 net.cpp:165] Memory required for data: 909186380
I1118 18:13:16.775336  2467 layer_factory.hpp:77] Creating layer crop-dsn6
I1118 18:13:16.775339  2467 net.cpp:100] Creating Layer crop-dsn6
I1118 18:13:16.775342  2467 net.cpp:434] crop-dsn6 <- conv5-dsn6-up
I1118 18:13:16.775346  2467 net.cpp:434] crop-dsn6 <- data_data_0_split_1
I1118 18:13:16.775349  2467 net.cpp:408] crop-dsn6 -> upscore-dsn6
I1118 18:13:16.775369  2467 net.cpp:150] Setting up crop-dsn6
I1118 18:13:16.775373  2467 net.cpp:157] Top shape: 1 1 500 500 (250000)
I1118 18:13:16.775375  2467 net.cpp:165] Memory required for data: 910186380
I1118 18:13:16.775377  2467 layer_factory.hpp:77] Creating layer loss6-score
I1118 18:13:16.775384  2467 net.cpp:100] Creating Layer loss6-score
I1118 18:13:16.775388  2467 net.cpp:434] loss6-score <- upscore-dsn6
I1118 18:13:16.775390  2467 net.cpp:434] loss6-score <- label_data_1_split_0
I1118 18:13:16.775394  2467 net.cpp:408] loss6-score -> loss6-score
I1118 18:13:16.776399  2467 net.cpp:150] Setting up loss6-score
I1118 18:13:16.776407  2467 net.cpp:157] Top shape: (1)
I1118 18:13:16.776409  2467 net.cpp:160]     with loss weight 1
I1118 18:13:16.776423  2467 net.cpp:165] Memory required for data: 910186384
I1118 18:13:16.776425  2467 layer_factory.hpp:77] Creating layer upsample2_dsn5
I1118 18:13:16.776432  2467 net.cpp:100] Creating Layer upsample2_dsn5
I1118 18:13:16.776435  2467 net.cpp:434] upsample2_dsn5 <- conv5-dsn6_conv5-dsn6_0_split_1
I1118 18:13:16.776441  2467 net.cpp:408] upsample2_dsn5 -> conv5-dsn6-5
I1118 18:13:16.776635  2467 net.cpp:150] Setting up upsample2_dsn5
I1118 18:13:16.776643  2467 net.cpp:157] Top shape: 1 1 36 36 (1296)
I1118 18:13:16.776644  2467 net.cpp:165] Memory required for data: 910191568
I1118 18:13:16.776648  2467 layer_factory.hpp:77] Creating layer crop1-dsn5
I1118 18:13:16.776652  2467 net.cpp:100] Creating Layer crop1-dsn5
I1118 18:13:16.776656  2467 net.cpp:434] crop1-dsn5 <- conv5-dsn6-5
I1118 18:13:16.776659  2467 net.cpp:434] crop1-dsn5 <- conv5_3_relu5_3_0_split_1
I1118 18:13:16.776664  2467 net.cpp:408] crop1-dsn5 -> weight-dsn6-5
I1118 18:13:16.776681  2467 net.cpp:150] Setting up crop1-dsn5
I1118 18:13:16.776685  2467 net.cpp:157] Top shape: 1 1 32 32 (1024)
I1118 18:13:16.776688  2467 net.cpp:165] Memory required for data: 910195664
I1118 18:13:16.776691  2467 layer_factory.hpp:77] Creating layer weight-dsn6-5_crop1-dsn5_0_split
I1118 18:13:16.776696  2467 net.cpp:100] Creating Layer weight-dsn6-5_crop1-dsn5_0_split
I1118 18:13:16.776698  2467 net.cpp:434] weight-dsn6-5_crop1-dsn5_0_split <- weight-dsn6-5
I1118 18:13:16.776703  2467 net.cpp:408] weight-dsn6-5_crop1-dsn5_0_split -> weight-dsn6-5_crop1-dsn5_0_split_0
I1118 18:13:16.776708  2467 net.cpp:408] weight-dsn6-5_crop1-dsn5_0_split -> weight-dsn6-5_crop1-dsn5_0_split_1
I1118 18:13:16.776733  2467 net.cpp:150] Setting up weight-dsn6-5_crop1-dsn5_0_split
I1118 18:13:16.776738  2467 net.cpp:157] Top shape: 1 1 32 32 (1024)
I1118 18:13:16.776741  2467 net.cpp:157] Top shape: 1 1 32 32 (1024)
I1118 18:13:16.776743  2467 net.cpp:165] Memory required for data: 910203856
I1118 18:13:16.776744  2467 layer_factory.hpp:77] Creating layer sigmoid-dsn5
I1118 18:13:16.776751  2467 net.cpp:100] Creating Layer sigmoid-dsn5
I1118 18:13:16.776753  2467 net.cpp:434] sigmoid-dsn5 <- weight-dsn6-5_crop1-dsn5_0_split_0
I1118 18:13:16.776757  2467 net.cpp:408] sigmoid-dsn5 -> sigmoid-dsn5
I1118 18:13:16.776935  2467 net.cpp:150] Setting up sigmoid-dsn5
I1118 18:13:16.776944  2467 net.cpp:157] Top shape: 1 1 32 32 (1024)
I1118 18:13:16.776947  2467 net.cpp:165] Memory required for data: 910207952
I1118 18:13:16.776949  2467 layer_factory.hpp:77] Creating layer rev-dsn5
I1118 18:13:16.776957  2467 net.cpp:100] Creating Layer rev-dsn5
I1118 18:13:16.776959  2467 net.cpp:434] rev-dsn5 <- sigmoid-dsn5
I1118 18:13:16.776964  2467 net.cpp:408] rev-dsn5 -> rev-dsn5
I1118 18:13:16.776981  2467 net.cpp:150] Setting up rev-dsn5
I1118 18:13:16.776986  2467 net.cpp:157] Top shape: 1 1 32 32 (1024)
I1118 18:13:16.776989  2467 net.cpp:165] Memory required for data: 910212048
I1118 18:13:16.776991  2467 layer_factory.hpp:77] Creating layer tile-dsn5
I1118 18:13:16.776996  2467 net.cpp:100] Creating Layer tile-dsn5
I1118 18:13:16.776998  2467 net.cpp:434] tile-dsn5 <- rev-dsn5
I1118 18:13:16.777004  2467 net.cpp:408] tile-dsn5 -> weight-dsn5
I1118 18:13:16.777019  2467 net.cpp:150] Setting up tile-dsn5
I1118 18:13:16.777024  2467 net.cpp:157] Top shape: 1 512 32 32 (524288)
I1118 18:13:16.777025  2467 net.cpp:165] Memory required for data: 912309200
I1118 18:13:16.777027  2467 layer_factory.hpp:77] Creating layer prod1-dsn5
I1118 18:13:16.777034  2467 net.cpp:100] Creating Layer prod1-dsn5
I1118 18:13:16.777036  2467 net.cpp:434] prod1-dsn5 <- conv5_3_relu5_3_0_split_2
I1118 18:13:16.777040  2467 net.cpp:434] prod1-dsn5 <- weight-dsn5
I1118 18:13:16.777045  2467 net.cpp:408] prod1-dsn5 -> prod1-dsn5
I1118 18:13:16.777070  2467 net.cpp:150] Setting up prod1-dsn5
I1118 18:13:16.777074  2467 net.cpp:157] Top shape: 1 512 32 32 (524288)
I1118 18:13:16.777076  2467 net.cpp:165] Memory required for data: 914406352
I1118 18:13:16.777081  2467 layer_factory.hpp:77] Creating layer conv1-dsn5
I1118 18:13:16.777087  2467 net.cpp:100] Creating Layer conv1-dsn5
I1118 18:13:16.777089  2467 net.cpp:434] conv1-dsn5 <- prod1-dsn5
I1118 18:13:16.777094  2467 net.cpp:408] conv1-dsn5 -> conv1-dsn5
I1118 18:13:16.779070  2467 net.cpp:150] Setting up conv1-dsn5
I1118 18:13:16.779081  2467 net.cpp:157] Top shape: 1 64 32 32 (65536)
I1118 18:13:16.779083  2467 net.cpp:165] Memory required for data: 914668496
I1118 18:13:16.779088  2467 layer_factory.hpp:77] Creating layer conv2-dsn5
I1118 18:13:16.779096  2467 net.cpp:100] Creating Layer conv2-dsn5
I1118 18:13:16.779098  2467 net.cpp:434] conv2-dsn5 <- conv1-dsn5
I1118 18:13:16.779104  2467 net.cpp:408] conv2-dsn5 -> conv2-dsn5
I1118 18:13:16.779930  2467 net.cpp:150] Setting up conv2-dsn5
I1118 18:13:16.779940  2467 net.cpp:157] Top shape: 1 64 32 32 (65536)
I1118 18:13:16.779942  2467 net.cpp:165] Memory required for data: 914930640
I1118 18:13:16.779947  2467 layer_factory.hpp:77] Creating layer relu1-dsn5
I1118 18:13:16.779953  2467 net.cpp:100] Creating Layer relu1-dsn5
I1118 18:13:16.779954  2467 net.cpp:434] relu1-dsn5 <- conv2-dsn5
I1118 18:13:16.779959  2467 net.cpp:395] relu1-dsn5 -> conv2-dsn5 (in-place)
I1118 18:13:16.780010  2467 net.cpp:150] Setting up relu1-dsn5
I1118 18:13:16.780015  2467 net.cpp:157] Top shape: 1 64 32 32 (65536)
I1118 18:13:16.780017  2467 net.cpp:165] Memory required for data: 915192784
I1118 18:13:16.780019  2467 layer_factory.hpp:77] Creating layer conv3-dsn5
I1118 18:13:16.780027  2467 net.cpp:100] Creating Layer conv3-dsn5
I1118 18:13:16.780030  2467 net.cpp:434] conv3-dsn5 <- conv2-dsn5
I1118 18:13:16.780036  2467 net.cpp:408] conv3-dsn5 -> conv3-dsn5
I1118 18:13:16.780966  2467 net.cpp:150] Setting up conv3-dsn5
I1118 18:13:16.780977  2467 net.cpp:157] Top shape: 1 64 32 32 (65536)
I1118 18:13:16.780978  2467 net.cpp:165] Memory required for data: 915454928
I1118 18:13:16.780983  2467 layer_factory.hpp:77] Creating layer relu2-dsn5
I1118 18:13:16.780988  2467 net.cpp:100] Creating Layer relu2-dsn5
I1118 18:13:16.780990  2467 net.cpp:434] relu2-dsn5 <- conv3-dsn5
I1118 18:13:16.780994  2467 net.cpp:395] relu2-dsn5 -> conv3-dsn5 (in-place)
I1118 18:13:16.781132  2467 net.cpp:150] Setting up relu2-dsn5
I1118 18:13:16.781141  2467 net.cpp:157] Top shape: 1 64 32 32 (65536)
I1118 18:13:16.781142  2467 net.cpp:165] Memory required for data: 915717072
I1118 18:13:16.781144  2467 layer_factory.hpp:77] Creating layer conv4-dsn5
I1118 18:13:16.781152  2467 net.cpp:100] Creating Layer conv4-dsn5
I1118 18:13:16.781154  2467 net.cpp:434] conv4-dsn5 <- conv3-dsn5
I1118 18:13:16.781160  2467 net.cpp:408] conv4-dsn5 -> conv4-dsn5
I1118 18:13:16.781651  2467 net.cpp:150] Setting up conv4-dsn5
I1118 18:13:16.781661  2467 net.cpp:157] Top shape: 1 1 32 32 (1024)
I1118 18:13:16.781662  2467 net.cpp:165] Memory required for data: 915721168
I1118 18:13:16.781666  2467 layer_factory.hpp:77] Creating layer sum-dsn5
I1118 18:13:16.781680  2467 net.cpp:100] Creating Layer sum-dsn5
I1118 18:13:16.781683  2467 net.cpp:434] sum-dsn5 <- conv4-dsn5
I1118 18:13:16.781687  2467 net.cpp:434] sum-dsn5 <- weight-dsn6-5_crop1-dsn5_0_split_1
I1118 18:13:16.781690  2467 net.cpp:408] sum-dsn5 -> sum-dsn5
I1118 18:13:16.781705  2467 net.cpp:150] Setting up sum-dsn5
I1118 18:13:16.781709  2467 net.cpp:157] Top shape: 1 1 32 32 (1024)
I1118 18:13:16.781710  2467 net.cpp:165] Memory required for data: 915725264
I1118 18:13:16.781713  2467 layer_factory.hpp:77] Creating layer sum-dsn5_sum-dsn5_0_split
I1118 18:13:16.781716  2467 net.cpp:100] Creating Layer sum-dsn5_sum-dsn5_0_split
I1118 18:13:16.781719  2467 net.cpp:434] sum-dsn5_sum-dsn5_0_split <- sum-dsn5
I1118 18:13:16.781723  2467 net.cpp:408] sum-dsn5_sum-dsn5_0_split -> sum-dsn5_sum-dsn5_0_split_0
I1118 18:13:16.781728  2467 net.cpp:408] sum-dsn5_sum-dsn5_0_split -> sum-dsn5_sum-dsn5_0_split_1
I1118 18:13:16.781752  2467 net.cpp:150] Setting up sum-dsn5_sum-dsn5_0_split
I1118 18:13:16.781756  2467 net.cpp:157] Top shape: 1 1 32 32 (1024)
I1118 18:13:16.781760  2467 net.cpp:157] Top shape: 1 1 32 32 (1024)
I1118 18:13:16.781764  2467 net.cpp:165] Memory required for data: 915733456
I1118 18:13:16.781765  2467 layer_factory.hpp:77] Creating layer upsample16_dsn5
I1118 18:13:16.781770  2467 net.cpp:100] Creating Layer upsample16_dsn5
I1118 18:13:16.781774  2467 net.cpp:434] upsample16_dsn5 <- sum-dsn5_sum-dsn5_0_split_0
I1118 18:13:16.781777  2467 net.cpp:408] upsample16_dsn5 -> sum-dsn5-up
I1118 18:13:16.782910  2467 net.cpp:150] Setting up upsample16_dsn5
I1118 18:13:16.782920  2467 net.cpp:157] Top shape: 1 1 528 528 (278784)
I1118 18:13:16.782922  2467 net.cpp:165] Memory required for data: 916848592
I1118 18:13:16.782927  2467 layer_factory.hpp:77] Creating layer crop2-dsn5
I1118 18:13:16.782932  2467 net.cpp:100] Creating Layer crop2-dsn5
I1118 18:13:16.782934  2467 net.cpp:434] crop2-dsn5 <- sum-dsn5-up
I1118 18:13:16.782938  2467 net.cpp:434] crop2-dsn5 <- data_data_0_split_2
I1118 18:13:16.782941  2467 net.cpp:408] crop2-dsn5 -> upscore-dsn5
I1118 18:13:16.782963  2467 net.cpp:150] Setting up crop2-dsn5
I1118 18:13:16.782968  2467 net.cpp:157] Top shape: 1 1 500 500 (250000)
I1118 18:13:16.782969  2467 net.cpp:165] Memory required for data: 917848592
I1118 18:13:16.782971  2467 layer_factory.hpp:77] Creating layer loss5-score
I1118 18:13:16.782977  2467 net.cpp:100] Creating Layer loss5-score
I1118 18:13:16.782980  2467 net.cpp:434] loss5-score <- upscore-dsn5
I1118 18:13:16.782984  2467 net.cpp:434] loss5-score <- label_data_1_split_1
I1118 18:13:16.782987  2467 net.cpp:408] loss5-score -> loss5-score
I1118 18:13:16.783170  2467 net.cpp:150] Setting up loss5-score
I1118 18:13:16.783176  2467 net.cpp:157] Top shape: (1)
I1118 18:13:16.783179  2467 net.cpp:160]     with loss weight 1
I1118 18:13:16.783188  2467 net.cpp:165] Memory required for data: 917848596
I1118 18:13:16.783190  2467 layer_factory.hpp:77] Creating layer upsample2_dsn4
I1118 18:13:16.783212  2467 net.cpp:100] Creating Layer upsample2_dsn4
I1118 18:13:16.783215  2467 net.cpp:434] upsample2_dsn4 <- sum-dsn5_sum-dsn5_0_split_1
I1118 18:13:16.783221  2467 net.cpp:408] upsample2_dsn4 -> sum-dsn5-4
I1118 18:13:16.783408  2467 net.cpp:150] Setting up upsample2_dsn4
I1118 18:13:16.783414  2467 net.cpp:157] Top shape: 1 1 66 66 (4356)
I1118 18:13:16.783417  2467 net.cpp:165] Memory required for data: 917866020
I1118 18:13:16.783421  2467 layer_factory.hpp:77] Creating layer crop1-dsn4
I1118 18:13:16.783426  2467 net.cpp:100] Creating Layer crop1-dsn4
I1118 18:13:16.783428  2467 net.cpp:434] crop1-dsn4 <- sum-dsn5-4
I1118 18:13:16.783432  2467 net.cpp:434] crop1-dsn4 <- conv4_3_relu4_3_0_split_1
I1118 18:13:16.783437  2467 net.cpp:408] crop1-dsn4 -> weight-dsn5-4
I1118 18:13:16.783453  2467 net.cpp:150] Setting up crop1-dsn4
I1118 18:13:16.783457  2467 net.cpp:157] Top shape: 1 1 63 63 (3969)
I1118 18:13:16.783459  2467 net.cpp:165] Memory required for data: 917881896
I1118 18:13:16.783462  2467 layer_factory.hpp:77] Creating layer weight-dsn5-4_crop1-dsn4_0_split
I1118 18:13:16.783466  2467 net.cpp:100] Creating Layer weight-dsn5-4_crop1-dsn4_0_split
I1118 18:13:16.783469  2467 net.cpp:434] weight-dsn5-4_crop1-dsn4_0_split <- weight-dsn5-4
I1118 18:13:16.783473  2467 net.cpp:408] weight-dsn5-4_crop1-dsn4_0_split -> weight-dsn5-4_crop1-dsn4_0_split_0
I1118 18:13:16.783478  2467 net.cpp:408] weight-dsn5-4_crop1-dsn4_0_split -> weight-dsn5-4_crop1-dsn4_0_split_1
I1118 18:13:16.783502  2467 net.cpp:150] Setting up weight-dsn5-4_crop1-dsn4_0_split
I1118 18:13:16.783507  2467 net.cpp:157] Top shape: 1 1 63 63 (3969)
I1118 18:13:16.783509  2467 net.cpp:157] Top shape: 1 1 63 63 (3969)
I1118 18:13:16.783512  2467 net.cpp:165] Memory required for data: 917913648
I1118 18:13:16.783514  2467 layer_factory.hpp:77] Creating layer sigmoid-dsn4
I1118 18:13:16.783519  2467 net.cpp:100] Creating Layer sigmoid-dsn4
I1118 18:13:16.783521  2467 net.cpp:434] sigmoid-dsn4 <- weight-dsn5-4_crop1-dsn4_0_split_0
I1118 18:13:16.783525  2467 net.cpp:408] sigmoid-dsn4 -> sigmoid-dsn4
I1118 18:13:16.783730  2467 net.cpp:150] Setting up sigmoid-dsn4
I1118 18:13:16.783740  2467 net.cpp:157] Top shape: 1 1 63 63 (3969)
I1118 18:13:16.783741  2467 net.cpp:165] Memory required for data: 917929524
I1118 18:13:16.783744  2467 layer_factory.hpp:77] Creating layer rev-dsn4
I1118 18:13:16.783751  2467 net.cpp:100] Creating Layer rev-dsn4
I1118 18:13:16.783753  2467 net.cpp:434] rev-dsn4 <- sigmoid-dsn4
I1118 18:13:16.783758  2467 net.cpp:408] rev-dsn4 -> rev-dsn4
I1118 18:13:16.783777  2467 net.cpp:150] Setting up rev-dsn4
I1118 18:13:16.783783  2467 net.cpp:157] Top shape: 1 1 63 63 (3969)
I1118 18:13:16.783785  2467 net.cpp:165] Memory required for data: 917945400
I1118 18:13:16.783787  2467 layer_factory.hpp:77] Creating layer tile-dsn4
I1118 18:13:16.783793  2467 net.cpp:100] Creating Layer tile-dsn4
I1118 18:13:16.783795  2467 net.cpp:434] tile-dsn4 <- rev-dsn4
I1118 18:13:16.783800  2467 net.cpp:408] tile-dsn4 -> weight-dsn4
I1118 18:13:16.783816  2467 net.cpp:150] Setting up tile-dsn4
I1118 18:13:16.783819  2467 net.cpp:157] Top shape: 1 512 63 63 (2032128)
I1118 18:13:16.783821  2467 net.cpp:165] Memory required for data: 926073912
I1118 18:13:16.783823  2467 layer_factory.hpp:77] Creating layer prod1-dsn4
I1118 18:13:16.783828  2467 net.cpp:100] Creating Layer prod1-dsn4
I1118 18:13:16.783831  2467 net.cpp:434] prod1-dsn4 <- conv4_3_relu4_3_0_split_2
I1118 18:13:16.783834  2467 net.cpp:434] prod1-dsn4 <- weight-dsn4
I1118 18:13:16.783839  2467 net.cpp:408] prod1-dsn4 -> prod1-dsn4
I1118 18:13:16.783854  2467 net.cpp:150] Setting up prod1-dsn4
I1118 18:13:16.783859  2467 net.cpp:157] Top shape: 1 512 63 63 (2032128)
I1118 18:13:16.783860  2467 net.cpp:165] Memory required for data: 934202424
I1118 18:13:16.783862  2467 layer_factory.hpp:77] Creating layer conv1-dsn4
I1118 18:13:16.783870  2467 net.cpp:100] Creating Layer conv1-dsn4
I1118 18:13:16.783872  2467 net.cpp:434] conv1-dsn4 <- prod1-dsn4
I1118 18:13:16.783879  2467 net.cpp:408] conv1-dsn4 -> conv1-dsn4
I1118 18:13:16.786278  2467 net.cpp:150] Setting up conv1-dsn4
I1118 18:13:16.786288  2467 net.cpp:157] Top shape: 1 64 63 63 (254016)
I1118 18:13:16.786311  2467 net.cpp:165] Memory required for data: 935218488
I1118 18:13:16.786332  2467 layer_factory.hpp:77] Creating layer conv2-dsn4
I1118 18:13:16.786341  2467 net.cpp:100] Creating Layer conv2-dsn4
I1118 18:13:16.786345  2467 net.cpp:434] conv2-dsn4 <- conv1-dsn4
I1118 18:13:16.786351  2467 net.cpp:408] conv2-dsn4 -> conv2-dsn4
I1118 18:13:16.787573  2467 net.cpp:150] Setting up conv2-dsn4
I1118 18:13:16.787587  2467 net.cpp:157] Top shape: 1 64 63 63 (254016)
I1118 18:13:16.787590  2467 net.cpp:165] Memory required for data: 936234552
I1118 18:13:16.787595  2467 layer_factory.hpp:77] Creating layer relu1-dsn4
I1118 18:13:16.787602  2467 net.cpp:100] Creating Layer relu1-dsn4
I1118 18:13:16.787606  2467 net.cpp:434] relu1-dsn4 <- conv2-dsn4
I1118 18:13:16.787611  2467 net.cpp:395] relu1-dsn4 -> conv2-dsn4 (in-place)
I1118 18:13:16.787847  2467 net.cpp:150] Setting up relu1-dsn4
I1118 18:13:16.787855  2467 net.cpp:157] Top shape: 1 64 63 63 (254016)
I1118 18:13:16.787858  2467 net.cpp:165] Memory required for data: 937250616
I1118 18:13:16.787860  2467 layer_factory.hpp:77] Creating layer conv3-dsn4
I1118 18:13:16.787868  2467 net.cpp:100] Creating Layer conv3-dsn4
I1118 18:13:16.787871  2467 net.cpp:434] conv3-dsn4 <- conv2-dsn4
I1118 18:13:16.787878  2467 net.cpp:408] conv3-dsn4 -> conv3-dsn4
I1118 18:13:16.788693  2467 net.cpp:150] Setting up conv3-dsn4
I1118 18:13:16.788703  2467 net.cpp:157] Top shape: 1 64 63 63 (254016)
I1118 18:13:16.788707  2467 net.cpp:165] Memory required for data: 938266680
I1118 18:13:16.788712  2467 layer_factory.hpp:77] Creating layer relu2-dsn4
I1118 18:13:16.788717  2467 net.cpp:100] Creating Layer relu2-dsn4
I1118 18:13:16.788719  2467 net.cpp:434] relu2-dsn4 <- conv3-dsn4
I1118 18:13:16.788723  2467 net.cpp:395] relu2-dsn4 -> conv3-dsn4 (in-place)
I1118 18:13:16.788870  2467 net.cpp:150] Setting up relu2-dsn4
I1118 18:13:16.788879  2467 net.cpp:157] Top shape: 1 64 63 63 (254016)
I1118 18:13:16.788882  2467 net.cpp:165] Memory required for data: 939282744
I1118 18:13:16.788884  2467 layer_factory.hpp:77] Creating layer conv4-dsn4
I1118 18:13:16.788908  2467 net.cpp:100] Creating Layer conv4-dsn4
I1118 18:13:16.788911  2467 net.cpp:434] conv4-dsn4 <- conv3-dsn4
I1118 18:13:16.788918  2467 net.cpp:408] conv4-dsn4 -> conv4-dsn4
I1118 18:13:16.789487  2467 net.cpp:150] Setting up conv4-dsn4
I1118 18:13:16.789497  2467 net.cpp:157] Top shape: 1 1 63 63 (3969)
I1118 18:13:16.789515  2467 net.cpp:165] Memory required for data: 939298620
I1118 18:13:16.789520  2467 layer_factory.hpp:77] Creating layer sum-dsn4
I1118 18:13:16.789526  2467 net.cpp:100] Creating Layer sum-dsn4
I1118 18:13:16.789530  2467 net.cpp:434] sum-dsn4 <- conv4-dsn4
I1118 18:13:16.789533  2467 net.cpp:434] sum-dsn4 <- weight-dsn5-4_crop1-dsn4_0_split_1
I1118 18:13:16.789538  2467 net.cpp:408] sum-dsn4 -> sum-dsn4
I1118 18:13:16.789558  2467 net.cpp:150] Setting up sum-dsn4
I1118 18:13:16.789562  2467 net.cpp:157] Top shape: 1 1 63 63 (3969)
I1118 18:13:16.789564  2467 net.cpp:165] Memory required for data: 939314496
I1118 18:13:16.789566  2467 layer_factory.hpp:77] Creating layer sum-dsn4_sum-dsn4_0_split
I1118 18:13:16.789572  2467 net.cpp:100] Creating Layer sum-dsn4_sum-dsn4_0_split
I1118 18:13:16.789574  2467 net.cpp:434] sum-dsn4_sum-dsn4_0_split <- sum-dsn4
I1118 18:13:16.789579  2467 net.cpp:408] sum-dsn4_sum-dsn4_0_split -> sum-dsn4_sum-dsn4_0_split_0
I1118 18:13:16.789583  2467 net.cpp:408] sum-dsn4_sum-dsn4_0_split -> sum-dsn4_sum-dsn4_0_split_1
I1118 18:13:16.789613  2467 net.cpp:150] Setting up sum-dsn4_sum-dsn4_0_split
I1118 18:13:16.789618  2467 net.cpp:157] Top shape: 1 1 63 63 (3969)
I1118 18:13:16.789621  2467 net.cpp:157] Top shape: 1 1 63 63 (3969)
I1118 18:13:16.789623  2467 net.cpp:165] Memory required for data: 939346248
I1118 18:13:16.789625  2467 layer_factory.hpp:77] Creating layer upsample8_dsn4
I1118 18:13:16.789631  2467 net.cpp:100] Creating Layer upsample8_dsn4
I1118 18:13:16.789633  2467 net.cpp:434] upsample8_dsn4 <- sum-dsn4_sum-dsn4_0_split_0
I1118 18:13:16.789638  2467 net.cpp:408] upsample8_dsn4 -> sum-dsn4-up
I1118 18:13:16.790787  2467 net.cpp:150] Setting up upsample8_dsn4
I1118 18:13:16.790797  2467 net.cpp:157] Top shape: 1 1 512 512 (262144)
I1118 18:13:16.790815  2467 net.cpp:165] Memory required for data: 940394824
I1118 18:13:16.790820  2467 layer_factory.hpp:77] Creating layer crop2-dsn4
I1118 18:13:16.790825  2467 net.cpp:100] Creating Layer crop2-dsn4
I1118 18:13:16.790828  2467 net.cpp:434] crop2-dsn4 <- sum-dsn4-up
I1118 18:13:16.790832  2467 net.cpp:434] crop2-dsn4 <- data_data_0_split_3
I1118 18:13:16.790838  2467 net.cpp:408] crop2-dsn4 -> upscore-dsn4
I1118 18:13:16.790863  2467 net.cpp:150] Setting up crop2-dsn4
I1118 18:13:16.790866  2467 net.cpp:157] Top shape: 1 1 500 500 (250000)
I1118 18:13:16.790868  2467 net.cpp:165] Memory required for data: 941394824
I1118 18:13:16.790870  2467 layer_factory.hpp:77] Creating layer loss4-score
I1118 18:13:16.790876  2467 net.cpp:100] Creating Layer loss4-score
I1118 18:13:16.790879  2467 net.cpp:434] loss4-score <- upscore-dsn4
I1118 18:13:16.790882  2467 net.cpp:434] loss4-score <- label_data_1_split_2
I1118 18:13:16.790887  2467 net.cpp:408] loss4-score -> loss4-score
I1118 18:13:16.791077  2467 net.cpp:150] Setting up loss4-score
I1118 18:13:16.791083  2467 net.cpp:157] Top shape: (1)
I1118 18:13:16.791085  2467 net.cpp:160]     with loss weight 1
I1118 18:13:16.791092  2467 net.cpp:165] Memory required for data: 941394828
I1118 18:13:16.791095  2467 layer_factory.hpp:77] Creating layer upsample2_dsn3
I1118 18:13:16.791101  2467 net.cpp:100] Creating Layer upsample2_dsn3
I1118 18:13:16.791105  2467 net.cpp:434] upsample2_dsn3 <- sum-dsn4_sum-dsn4_0_split_1
I1118 18:13:16.791110  2467 net.cpp:408] upsample2_dsn3 -> sum-dsn4-3
I1118 18:13:16.791296  2467 net.cpp:150] Setting up upsample2_dsn3
I1118 18:13:16.791306  2467 net.cpp:157] Top shape: 1 1 128 128 (16384)
I1118 18:13:16.791308  2467 net.cpp:165] Memory required for data: 941460364
I1118 18:13:16.791312  2467 layer_factory.hpp:77] Creating layer crop1-dsn3
I1118 18:13:16.791317  2467 net.cpp:100] Creating Layer crop1-dsn3
I1118 18:13:16.791321  2467 net.cpp:434] crop1-dsn3 <- sum-dsn4-3
I1118 18:13:16.791324  2467 net.cpp:434] crop1-dsn3 <- conv3_3_relu3_3_0_split_1
I1118 18:13:16.791328  2467 net.cpp:408] crop1-dsn3 -> weight-dsn4-3
I1118 18:13:16.791348  2467 net.cpp:150] Setting up crop1-dsn3
I1118 18:13:16.791353  2467 net.cpp:157] Top shape: 1 1 125 125 (15625)
I1118 18:13:16.791355  2467 net.cpp:165] Memory required for data: 941522864
I1118 18:13:16.791358  2467 layer_factory.hpp:77] Creating layer weight-dsn4-3_crop1-dsn3_0_split
I1118 18:13:16.791363  2467 net.cpp:100] Creating Layer weight-dsn4-3_crop1-dsn3_0_split
I1118 18:13:16.791366  2467 net.cpp:434] weight-dsn4-3_crop1-dsn3_0_split <- weight-dsn4-3
I1118 18:13:16.791370  2467 net.cpp:408] weight-dsn4-3_crop1-dsn3_0_split -> weight-dsn4-3_crop1-dsn3_0_split_0
I1118 18:13:16.791375  2467 net.cpp:408] weight-dsn4-3_crop1-dsn3_0_split -> weight-dsn4-3_crop1-dsn3_0_split_1
I1118 18:13:16.791400  2467 net.cpp:150] Setting up weight-dsn4-3_crop1-dsn3_0_split
I1118 18:13:16.791404  2467 net.cpp:157] Top shape: 1 1 125 125 (15625)
I1118 18:13:16.791407  2467 net.cpp:157] Top shape: 1 1 125 125 (15625)
I1118 18:13:16.791409  2467 net.cpp:165] Memory required for data: 941647864
I1118 18:13:16.791411  2467 layer_factory.hpp:77] Creating layer sigmoid-dsn3
I1118 18:13:16.791416  2467 net.cpp:100] Creating Layer sigmoid-dsn3
I1118 18:13:16.791419  2467 net.cpp:434] sigmoid-dsn3 <- weight-dsn4-3_crop1-dsn3_0_split_0
I1118 18:13:16.791422  2467 net.cpp:408] sigmoid-dsn3 -> sigmoid-dsn3
I1118 18:13:16.791498  2467 net.cpp:150] Setting up sigmoid-dsn3
I1118 18:13:16.791505  2467 net.cpp:157] Top shape: 1 1 125 125 (15625)
I1118 18:13:16.791507  2467 net.cpp:165] Memory required for data: 941710364
I1118 18:13:16.791509  2467 layer_factory.hpp:77] Creating layer rev-dsn3
I1118 18:13:16.791514  2467 net.cpp:100] Creating Layer rev-dsn3
I1118 18:13:16.791517  2467 net.cpp:434] rev-dsn3 <- sigmoid-dsn3
I1118 18:13:16.791522  2467 net.cpp:408] rev-dsn3 -> rev-dsn3
I1118 18:13:16.791539  2467 net.cpp:150] Setting up rev-dsn3
I1118 18:13:16.791543  2467 net.cpp:157] Top shape: 1 1 125 125 (15625)
I1118 18:13:16.791546  2467 net.cpp:165] Memory required for data: 941772864
I1118 18:13:16.791549  2467 layer_factory.hpp:77] Creating layer tile-dsn3
I1118 18:13:16.791555  2467 net.cpp:100] Creating Layer tile-dsn3
I1118 18:13:16.791558  2467 net.cpp:434] tile-dsn3 <- rev-dsn3
I1118 18:13:16.791563  2467 net.cpp:408] tile-dsn3 -> weight-dsn3
I1118 18:13:16.791577  2467 net.cpp:150] Setting up tile-dsn3
I1118 18:13:16.791581  2467 net.cpp:157] Top shape: 1 256 125 125 (4000000)
I1118 18:13:16.791584  2467 net.cpp:165] Memory required for data: 957772864
I1118 18:13:16.791585  2467 layer_factory.hpp:77] Creating layer prod1-dsn3
I1118 18:13:16.791590  2467 net.cpp:100] Creating Layer prod1-dsn3
I1118 18:13:16.791594  2467 net.cpp:434] prod1-dsn3 <- conv3_3_relu3_3_0_split_2
I1118 18:13:16.791596  2467 net.cpp:434] prod1-dsn3 <- weight-dsn3
I1118 18:13:16.791602  2467 net.cpp:408] prod1-dsn3 -> prod1-dsn3
I1118 18:13:16.791620  2467 net.cpp:150] Setting up prod1-dsn3
I1118 18:13:16.791623  2467 net.cpp:157] Top shape: 1 256 125 125 (4000000)
I1118 18:13:16.791625  2467 net.cpp:165] Memory required for data: 973772864
I1118 18:13:16.791627  2467 layer_factory.hpp:77] Creating layer conv1-dsn3
I1118 18:13:16.791635  2467 net.cpp:100] Creating Layer conv1-dsn3
I1118 18:13:16.791637  2467 net.cpp:434] conv1-dsn3 <- prod1-dsn3
I1118 18:13:16.791643  2467 net.cpp:408] conv1-dsn3 -> conv1-dsn3
I1118 18:13:16.793525  2467 net.cpp:150] Setting up conv1-dsn3
I1118 18:13:16.793537  2467 net.cpp:157] Top shape: 1 64 125 125 (1000000)
I1118 18:13:16.793540  2467 net.cpp:165] Memory required for data: 977772864
I1118 18:13:16.793555  2467 layer_factory.hpp:77] Creating layer conv2-dsn3
I1118 18:13:16.793563  2467 net.cpp:100] Creating Layer conv2-dsn3
I1118 18:13:16.793566  2467 net.cpp:434] conv2-dsn3 <- conv1-dsn3
I1118 18:13:16.793572  2467 net.cpp:408] conv2-dsn3 -> conv2-dsn3
I1118 18:13:16.794384  2467 net.cpp:150] Setting up conv2-dsn3
I1118 18:13:16.794394  2467 net.cpp:157] Top shape: 1 64 125 125 (1000000)
I1118 18:13:16.794411  2467 net.cpp:165] Memory required for data: 981772864
I1118 18:13:16.794416  2467 layer_factory.hpp:77] Creating layer relu1-dsn3
I1118 18:13:16.794422  2467 net.cpp:100] Creating Layer relu1-dsn3
I1118 18:13:16.794425  2467 net.cpp:434] relu1-dsn3 <- conv2-dsn3
I1118 18:13:16.794430  2467 net.cpp:395] relu1-dsn3 -> conv2-dsn3 (in-place)
I1118 18:13:16.794572  2467 net.cpp:150] Setting up relu1-dsn3
I1118 18:13:16.794581  2467 net.cpp:157] Top shape: 1 64 125 125 (1000000)
I1118 18:13:16.794584  2467 net.cpp:165] Memory required for data: 985772864
I1118 18:13:16.794586  2467 layer_factory.hpp:77] Creating layer conv3-dsn3
I1118 18:13:16.794595  2467 net.cpp:100] Creating Layer conv3-dsn3
I1118 18:13:16.794597  2467 net.cpp:434] conv3-dsn3 <- conv2-dsn3
I1118 18:13:16.794603  2467 net.cpp:408] conv3-dsn3 -> conv3-dsn3
I1118 18:13:16.795523  2467 net.cpp:150] Setting up conv3-dsn3
I1118 18:13:16.795533  2467 net.cpp:157] Top shape: 1 64 125 125 (1000000)
I1118 18:13:16.795536  2467 net.cpp:165] Memory required for data: 989772864
I1118 18:13:16.795540  2467 layer_factory.hpp:77] Creating layer relu2-dsn3
I1118 18:13:16.795547  2467 net.cpp:100] Creating Layer relu2-dsn3
I1118 18:13:16.795549  2467 net.cpp:434] relu2-dsn3 <- conv3-dsn3
I1118 18:13:16.795554  2467 net.cpp:395] relu2-dsn3 -> conv3-dsn3 (in-place)
I1118 18:13:16.795614  2467 net.cpp:150] Setting up relu2-dsn3
I1118 18:13:16.795621  2467 net.cpp:157] Top shape: 1 64 125 125 (1000000)
I1118 18:13:16.795624  2467 net.cpp:165] Memory required for data: 993772864
I1118 18:13:16.795625  2467 layer_factory.hpp:77] Creating layer conv4-dsn3
I1118 18:13:16.795634  2467 net.cpp:100] Creating Layer conv4-dsn3
I1118 18:13:16.795636  2467 net.cpp:434] conv4-dsn3 <- conv3-dsn3
I1118 18:13:16.795642  2467 net.cpp:408] conv4-dsn3 -> conv4-dsn3
I1118 18:13:16.796268  2467 net.cpp:150] Setting up conv4-dsn3
I1118 18:13:16.796278  2467 net.cpp:157] Top shape: 1 1 125 125 (15625)
I1118 18:13:16.796296  2467 net.cpp:165] Memory required for data: 993835364
I1118 18:13:16.796308  2467 layer_factory.hpp:77] Creating layer sum-dsn3
I1118 18:13:16.796314  2467 net.cpp:100] Creating Layer sum-dsn3
I1118 18:13:16.796316  2467 net.cpp:434] sum-dsn3 <- conv4-dsn3
I1118 18:13:16.796320  2467 net.cpp:434] sum-dsn3 <- weight-dsn4-3_crop1-dsn3_0_split_1
I1118 18:13:16.796325  2467 net.cpp:408] sum-dsn3 -> sum-dsn3
I1118 18:13:16.796348  2467 net.cpp:150] Setting up sum-dsn3
I1118 18:13:16.796353  2467 net.cpp:157] Top shape: 1 1 125 125 (15625)
I1118 18:13:16.796355  2467 net.cpp:165] Memory required for data: 993897864
I1118 18:13:16.796357  2467 layer_factory.hpp:77] Creating layer sum-dsn3_sum-dsn3_0_split
I1118 18:13:16.796362  2467 net.cpp:100] Creating Layer sum-dsn3_sum-dsn3_0_split
I1118 18:13:16.796365  2467 net.cpp:434] sum-dsn3_sum-dsn3_0_split <- sum-dsn3
I1118 18:13:16.796370  2467 net.cpp:408] sum-dsn3_sum-dsn3_0_split -> sum-dsn3_sum-dsn3_0_split_0
I1118 18:13:16.796375  2467 net.cpp:408] sum-dsn3_sum-dsn3_0_split -> sum-dsn3_sum-dsn3_0_split_1
I1118 18:13:16.796406  2467 net.cpp:150] Setting up sum-dsn3_sum-dsn3_0_split
I1118 18:13:16.796412  2467 net.cpp:157] Top shape: 1 1 125 125 (15625)
I1118 18:13:16.796416  2467 net.cpp:157] Top shape: 1 1 125 125 (15625)
I1118 18:13:16.796416  2467 net.cpp:165] Memory required for data: 994022864
I1118 18:13:16.796418  2467 layer_factory.hpp:77] Creating layer upsample4_dsn3
I1118 18:13:16.796425  2467 net.cpp:100] Creating Layer upsample4_dsn3
I1118 18:13:16.796427  2467 net.cpp:434] upsample4_dsn3 <- sum-dsn3_sum-dsn3_0_split_0
I1118 18:13:16.796432  2467 net.cpp:408] upsample4_dsn3 -> sum-dsn3-up
I1118 18:13:16.797562  2467 net.cpp:150] Setting up upsample4_dsn3
I1118 18:13:16.797572  2467 net.cpp:157] Top shape: 1 1 504 504 (254016)
I1118 18:13:16.797590  2467 net.cpp:165] Memory required for data: 995038928
I1118 18:13:16.797595  2467 layer_factory.hpp:77] Creating layer crop2-dsn3
I1118 18:13:16.797600  2467 net.cpp:100] Creating Layer crop2-dsn3
I1118 18:13:16.797603  2467 net.cpp:434] crop2-dsn3 <- sum-dsn3-up
I1118 18:13:16.797607  2467 net.cpp:434] crop2-dsn3 <- data_data_0_split_4
I1118 18:13:16.797612  2467 net.cpp:408] crop2-dsn3 -> upscore-dsn3
I1118 18:13:16.797636  2467 net.cpp:150] Setting up crop2-dsn3
I1118 18:13:16.797639  2467 net.cpp:157] Top shape: 1 1 500 500 (250000)
I1118 18:13:16.797641  2467 net.cpp:165] Memory required for data: 996038928
I1118 18:13:16.797643  2467 layer_factory.hpp:77] Creating layer loss3-score
I1118 18:13:16.797650  2467 net.cpp:100] Creating Layer loss3-score
I1118 18:13:16.797652  2467 net.cpp:434] loss3-score <- upscore-dsn3
I1118 18:13:16.797655  2467 net.cpp:434] loss3-score <- label_data_1_split_3
I1118 18:13:16.797660  2467 net.cpp:408] loss3-score -> loss3-score
I1118 18:13:16.797864  2467 net.cpp:150] Setting up loss3-score
I1118 18:13:16.797871  2467 net.cpp:157] Top shape: (1)
I1118 18:13:16.797873  2467 net.cpp:160]     with loss weight 1
I1118 18:13:16.797879  2467 net.cpp:165] Memory required for data: 996038932
I1118 18:13:16.797881  2467 layer_factory.hpp:77] Creating layer upsample2_1-dsn2
I1118 18:13:16.797888  2467 net.cpp:100] Creating Layer upsample2_1-dsn2
I1118 18:13:16.797891  2467 net.cpp:434] upsample2_1-dsn2 <- sum-dsn3_sum-dsn3_0_split_1
I1118 18:13:16.797896  2467 net.cpp:408] upsample2_1-dsn2 -> sum-dsn3-2
I1118 18:13:16.798921  2467 net.cpp:150] Setting up upsample2_1-dsn2
I1118 18:13:16.798930  2467 net.cpp:157] Top shape: 1 1 252 252 (63504)
I1118 18:13:16.798949  2467 net.cpp:165] Memory required for data: 996292948
I1118 18:13:16.798952  2467 layer_factory.hpp:77] Creating layer crop1-dsn2
I1118 18:13:16.798959  2467 net.cpp:100] Creating Layer crop1-dsn2
I1118 18:13:16.798961  2467 net.cpp:434] crop1-dsn2 <- sum-dsn3-2
I1118 18:13:16.798964  2467 net.cpp:434] crop1-dsn2 <- conv2_2_relu2_2_0_split_1
I1118 18:13:16.798969  2467 net.cpp:408] crop1-dsn2 -> weight-dsn3-2
I1118 18:13:16.798993  2467 net.cpp:150] Setting up crop1-dsn2
I1118 18:13:16.798998  2467 net.cpp:157] Top shape: 1 1 250 250 (62500)
I1118 18:13:16.799000  2467 net.cpp:165] Memory required for data: 996542948
I1118 18:13:16.799002  2467 layer_factory.hpp:77] Creating layer weight-dsn3-2_crop1-dsn2_0_split
I1118 18:13:16.799006  2467 net.cpp:100] Creating Layer weight-dsn3-2_crop1-dsn2_0_split
I1118 18:13:16.799010  2467 net.cpp:434] weight-dsn3-2_crop1-dsn2_0_split <- weight-dsn3-2
I1118 18:13:16.799013  2467 net.cpp:408] weight-dsn3-2_crop1-dsn2_0_split -> weight-dsn3-2_crop1-dsn2_0_split_0
I1118 18:13:16.799018  2467 net.cpp:408] weight-dsn3-2_crop1-dsn2_0_split -> weight-dsn3-2_crop1-dsn2_0_split_1
I1118 18:13:16.799046  2467 net.cpp:150] Setting up weight-dsn3-2_crop1-dsn2_0_split
I1118 18:13:16.799052  2467 net.cpp:157] Top shape: 1 1 250 250 (62500)
I1118 18:13:16.799054  2467 net.cpp:157] Top shape: 1 1 250 250 (62500)
I1118 18:13:16.799055  2467 net.cpp:165] Memory required for data: 997042948
I1118 18:13:16.799057  2467 layer_factory.hpp:77] Creating layer sigmoid-dsn2
I1118 18:13:16.799062  2467 net.cpp:100] Creating Layer sigmoid-dsn2
I1118 18:13:16.799065  2467 net.cpp:434] sigmoid-dsn2 <- weight-dsn3-2_crop1-dsn2_0_split_0
I1118 18:13:16.799069  2467 net.cpp:408] sigmoid-dsn2 -> sigmoid-dsn2
I1118 18:13:16.799146  2467 net.cpp:150] Setting up sigmoid-dsn2
I1118 18:13:16.799154  2467 net.cpp:157] Top shape: 1 1 250 250 (62500)
I1118 18:13:16.799155  2467 net.cpp:165] Memory required for data: 997292948
I1118 18:13:16.799160  2467 layer_factory.hpp:77] Creating layer rev-dsn2
I1118 18:13:16.799165  2467 net.cpp:100] Creating Layer rev-dsn2
I1118 18:13:16.799168  2467 net.cpp:434] rev-dsn2 <- sigmoid-dsn2
I1118 18:13:16.799172  2467 net.cpp:408] rev-dsn2 -> rev-dsn2
I1118 18:13:16.799206  2467 net.cpp:150] Setting up rev-dsn2
I1118 18:13:16.799211  2467 net.cpp:157] Top shape: 1 1 250 250 (62500)
I1118 18:13:16.799213  2467 net.cpp:165] Memory required for data: 997542948
I1118 18:13:16.799216  2467 layer_factory.hpp:77] Creating layer tile-dsn2
I1118 18:13:16.799221  2467 net.cpp:100] Creating Layer tile-dsn2
I1118 18:13:16.799223  2467 net.cpp:434] tile-dsn2 <- rev-dsn2
I1118 18:13:16.799228  2467 net.cpp:408] tile-dsn2 -> weight-dsn2
I1118 18:13:16.799244  2467 net.cpp:150] Setting up tile-dsn2
I1118 18:13:16.799247  2467 net.cpp:157] Top shape: 1 128 250 250 (8000000)
I1118 18:13:16.799249  2467 net.cpp:165] Memory required for data: 1029542948
I1118 18:13:16.799252  2467 layer_factory.hpp:77] Creating layer prod1-dsn2
I1118 18:13:16.799257  2467 net.cpp:100] Creating Layer prod1-dsn2
I1118 18:13:16.799259  2467 net.cpp:434] prod1-dsn2 <- conv2_2_relu2_2_0_split_2
I1118 18:13:16.799263  2467 net.cpp:434] prod1-dsn2 <- weight-dsn2
I1118 18:13:16.799266  2467 net.cpp:408] prod1-dsn2 -> prod1-dsn2
I1118 18:13:16.799283  2467 net.cpp:150] Setting up prod1-dsn2
I1118 18:13:16.799286  2467 net.cpp:157] Top shape: 1 128 250 250 (8000000)
I1118 18:13:16.799288  2467 net.cpp:165] Memory required for data: 1061542948
I1118 18:13:16.799290  2467 layer_factory.hpp:77] Creating layer conv1-dsn2
I1118 18:13:16.799297  2467 net.cpp:100] Creating Layer conv1-dsn2
I1118 18:13:16.799307  2467 net.cpp:434] conv1-dsn2 <- prod1-dsn2
I1118 18:13:16.799312  2467 net.cpp:408] conv1-dsn2 -> conv1-dsn2
I1118 18:13:16.801067  2467 net.cpp:150] Setting up conv1-dsn2
I1118 18:13:16.801079  2467 net.cpp:157] Top shape: 1 64 250 250 (4000000)
I1118 18:13:16.801096  2467 net.cpp:165] Memory required for data: 1077542948
I1118 18:13:16.801101  2467 layer_factory.hpp:77] Creating layer conv2-dsn2
I1118 18:13:16.801110  2467 net.cpp:100] Creating Layer conv2-dsn2
I1118 18:13:16.801115  2467 net.cpp:434] conv2-dsn2 <- conv1-dsn2
I1118 18:13:16.801120  2467 net.cpp:408] conv2-dsn2 -> conv2-dsn2
I1118 18:13:16.802114  2467 net.cpp:150] Setting up conv2-dsn2
I1118 18:13:16.802125  2467 net.cpp:157] Top shape: 1 64 250 250 (4000000)
I1118 18:13:16.802139  2467 net.cpp:165] Memory required for data: 1093542948
I1118 18:13:16.802143  2467 layer_factory.hpp:77] Creating layer relu1-dsn2
I1118 18:13:16.802148  2467 net.cpp:100] Creating Layer relu1-dsn2
I1118 18:13:16.802152  2467 net.cpp:434] relu1-dsn2 <- conv2-dsn2
I1118 18:13:16.802156  2467 net.cpp:395] relu1-dsn2 -> conv2-dsn2 (in-place)
I1118 18:13:16.802220  2467 net.cpp:150] Setting up relu1-dsn2
I1118 18:13:16.802227  2467 net.cpp:157] Top shape: 1 64 250 250 (4000000)
I1118 18:13:16.802230  2467 net.cpp:165] Memory required for data: 1109542948
I1118 18:13:16.802232  2467 layer_factory.hpp:77] Creating layer conv3-dsn2
I1118 18:13:16.802240  2467 net.cpp:100] Creating Layer conv3-dsn2
I1118 18:13:16.802242  2467 net.cpp:434] conv3-dsn2 <- conv2-dsn2
I1118 18:13:16.802248  2467 net.cpp:408] conv3-dsn2 -> conv3-dsn2
I1118 18:13:16.803150  2467 net.cpp:150] Setting up conv3-dsn2
I1118 18:13:16.803160  2467 net.cpp:157] Top shape: 1 64 250 250 (4000000)
I1118 18:13:16.803174  2467 net.cpp:165] Memory required for data: 1125542948
I1118 18:13:16.803179  2467 layer_factory.hpp:77] Creating layer relu2-dsn2
I1118 18:13:16.803184  2467 net.cpp:100] Creating Layer relu2-dsn2
I1118 18:13:16.803186  2467 net.cpp:434] relu2-dsn2 <- conv3-dsn2
I1118 18:13:16.803191  2467 net.cpp:395] relu2-dsn2 -> conv3-dsn2 (in-place)
I1118 18:13:16.803253  2467 net.cpp:150] Setting up relu2-dsn2
I1118 18:13:16.803261  2467 net.cpp:157] Top shape: 1 64 250 250 (4000000)
I1118 18:13:16.803262  2467 net.cpp:165] Memory required for data: 1141542948
I1118 18:13:16.803265  2467 layer_factory.hpp:77] Creating layer conv4-dsn2
I1118 18:13:16.803273  2467 net.cpp:100] Creating Layer conv4-dsn2
I1118 18:13:16.803275  2467 net.cpp:434] conv4-dsn2 <- conv3-dsn2
I1118 18:13:16.803282  2467 net.cpp:408] conv4-dsn2 -> conv4-dsn2
I1118 18:13:16.803880  2467 net.cpp:150] Setting up conv4-dsn2
I1118 18:13:16.803890  2467 net.cpp:157] Top shape: 1 1 250 250 (62500)
I1118 18:13:16.803902  2467 net.cpp:165] Memory required for data: 1141792948
I1118 18:13:16.803907  2467 layer_factory.hpp:77] Creating layer sum-dsn2
I1118 18:13:16.803913  2467 net.cpp:100] Creating Layer sum-dsn2
I1118 18:13:16.803916  2467 net.cpp:434] sum-dsn2 <- conv4-dsn2
I1118 18:13:16.803920  2467 net.cpp:434] sum-dsn2 <- weight-dsn3-2_crop1-dsn2_0_split_1
I1118 18:13:16.803925  2467 net.cpp:408] sum-dsn2 -> sum-dsn2
I1118 18:13:16.803946  2467 net.cpp:150] Setting up sum-dsn2
I1118 18:13:16.803949  2467 net.cpp:157] Top shape: 1 1 250 250 (62500)
I1118 18:13:16.803951  2467 net.cpp:165] Memory required for data: 1142042948
I1118 18:13:16.803953  2467 layer_factory.hpp:77] Creating layer upsample2_2-dsn2
I1118 18:13:16.803962  2467 net.cpp:100] Creating Layer upsample2_2-dsn2
I1118 18:13:16.803966  2467 net.cpp:434] upsample2_2-dsn2 <- sum-dsn2
I1118 18:13:16.803970  2467 net.cpp:408] upsample2_2-dsn2 -> sum-dsn2-up
I1118 18:13:16.805296  2467 net.cpp:150] Setting up upsample2_2-dsn2
I1118 18:13:16.805313  2467 net.cpp:157] Top shape: 1 1 502 502 (252004)
I1118 18:13:16.805316  2467 net.cpp:165] Memory required for data: 1143050964
I1118 18:13:16.805323  2467 layer_factory.hpp:77] Creating layer crop2-dsn2
I1118 18:13:16.805330  2467 net.cpp:100] Creating Layer crop2-dsn2
I1118 18:13:16.805332  2467 net.cpp:434] crop2-dsn2 <- sum-dsn2-up
I1118 18:13:16.805337  2467 net.cpp:434] crop2-dsn2 <- data_data_0_split_5
I1118 18:13:16.805342  2467 net.cpp:408] crop2-dsn2 -> upscore-dsn2
I1118 18:13:16.805372  2467 net.cpp:150] Setting up crop2-dsn2
I1118 18:13:16.805378  2467 net.cpp:157] Top shape: 1 1 500 500 (250000)
I1118 18:13:16.805382  2467 net.cpp:165] Memory required for data: 1144050964
I1118 18:13:16.805384  2467 layer_factory.hpp:77] Creating layer upscore-dsn2_crop2-dsn2_0_split
I1118 18:13:16.805390  2467 net.cpp:100] Creating Layer upscore-dsn2_crop2-dsn2_0_split
I1118 18:13:16.805393  2467 net.cpp:434] upscore-dsn2_crop2-dsn2_0_split <- upscore-dsn2
I1118 18:13:16.805399  2467 net.cpp:408] upscore-dsn2_crop2-dsn2_0_split -> upscore-dsn2_crop2-dsn2_0_split_0
I1118 18:13:16.805407  2467 net.cpp:408] upscore-dsn2_crop2-dsn2_0_split -> upscore-dsn2_crop2-dsn2_0_split_1
I1118 18:13:16.805413  2467 net.cpp:408] upscore-dsn2_crop2-dsn2_0_split -> upscore-dsn2_crop2-dsn2_0_split_2
I1118 18:13:16.805467  2467 net.cpp:150] Setting up upscore-dsn2_crop2-dsn2_0_split
I1118 18:13:16.805474  2467 net.cpp:157] Top shape: 1 1 500 500 (250000)
I1118 18:13:16.805476  2467 net.cpp:157] Top shape: 1 1 500 500 (250000)
I1118 18:13:16.805481  2467 net.cpp:157] Top shape: 1 1 500 500 (250000)
I1118 18:13:16.805485  2467 net.cpp:165] Memory required for data: 1147050964
I1118 18:13:16.805486  2467 layer_factory.hpp:77] Creating layer loss2-score
I1118 18:13:16.805493  2467 net.cpp:100] Creating Layer loss2-score
I1118 18:13:16.805496  2467 net.cpp:434] loss2-score <- upscore-dsn2_crop2-dsn2_0_split_0
I1118 18:13:16.805501  2467 net.cpp:434] loss2-score <- label_data_1_split_4
I1118 18:13:16.805506  2467 net.cpp:408] loss2-score -> loss2-score
I1118 18:13:16.805734  2467 net.cpp:150] Setting up loss2-score
I1118 18:13:16.805740  2467 net.cpp:157] Top shape: (1)
I1118 18:13:16.805742  2467 net.cpp:160]     with loss weight 1
I1118 18:13:16.805748  2467 net.cpp:165] Memory required for data: 1147050968
I1118 18:13:16.805750  2467 layer_factory.hpp:77] Creating layer sigmoid-dsn1
I1118 18:13:16.805755  2467 net.cpp:100] Creating Layer sigmoid-dsn1
I1118 18:13:16.805758  2467 net.cpp:434] sigmoid-dsn1 <- upscore-dsn2_crop2-dsn2_0_split_1
I1118 18:13:16.805763  2467 net.cpp:408] sigmoid-dsn1 -> sigmoid-dsn1
I1118 18:13:16.807008  2467 net.cpp:150] Setting up sigmoid-dsn1
I1118 18:13:16.807018  2467 net.cpp:157] Top shape: 1 1 500 500 (250000)
I1118 18:13:16.807030  2467 net.cpp:165] Memory required for data: 1148050968
I1118 18:13:16.807034  2467 layer_factory.hpp:77] Creating layer rev-dsn1
I1118 18:13:16.807039  2467 net.cpp:100] Creating Layer rev-dsn1
I1118 18:13:16.807041  2467 net.cpp:434] rev-dsn1 <- sigmoid-dsn1
I1118 18:13:16.807047  2467 net.cpp:408] rev-dsn1 -> rev-dsn1
I1118 18:13:16.807067  2467 net.cpp:150] Setting up rev-dsn1
I1118 18:13:16.807070  2467 net.cpp:157] Top shape: 1 1 500 500 (250000)
I1118 18:13:16.807072  2467 net.cpp:165] Memory required for data: 1149050968
I1118 18:13:16.807075  2467 layer_factory.hpp:77] Creating layer tile-dsn1
I1118 18:13:16.807080  2467 net.cpp:100] Creating Layer tile-dsn1
I1118 18:13:16.807082  2467 net.cpp:434] tile-dsn1 <- rev-dsn1
I1118 18:13:16.807087  2467 net.cpp:408] tile-dsn1 -> weight-dsn1
I1118 18:13:16.807107  2467 net.cpp:150] Setting up tile-dsn1
I1118 18:13:16.807111  2467 net.cpp:157] Top shape: 1 64 500 500 (16000000)
I1118 18:13:16.807113  2467 net.cpp:165] Memory required for data: 1213050968
I1118 18:13:16.807116  2467 layer_factory.hpp:77] Creating layer prod1-dsn1
I1118 18:13:16.807121  2467 net.cpp:100] Creating Layer prod1-dsn1
I1118 18:13:16.807123  2467 net.cpp:434] prod1-dsn1 <- conv1_2_relu1_2_0_split_1
I1118 18:13:16.807127  2467 net.cpp:434] prod1-dsn1 <- weight-dsn1
I1118 18:13:16.807132  2467 net.cpp:408] prod1-dsn1 -> prod1-dsn1
I1118 18:13:16.807147  2467 net.cpp:150] Setting up prod1-dsn1
I1118 18:13:16.807150  2467 net.cpp:157] Top shape: 1 64 500 500 (16000000)
I1118 18:13:16.807152  2467 net.cpp:165] Memory required for data: 1277050968
I1118 18:13:16.807154  2467 layer_factory.hpp:77] Creating layer conv1-dsn1
I1118 18:13:16.807163  2467 net.cpp:100] Creating Layer conv1-dsn1
I1118 18:13:16.807164  2467 net.cpp:434] conv1-dsn1 <- prod1-dsn1
I1118 18:13:16.807169  2467 net.cpp:408] conv1-dsn1 -> conv1-dsn1
I1118 18:13:16.808702  2467 net.cpp:150] Setting up conv1-dsn1
I1118 18:13:16.808713  2467 net.cpp:157] Top shape: 1 64 500 500 (16000000)
I1118 18:13:16.808727  2467 net.cpp:165] Memory required for data: 1341050968
I1118 18:13:16.808732  2467 layer_factory.hpp:77] Creating layer conv2-dsn1
I1118 18:13:16.808754  2467 net.cpp:100] Creating Layer conv2-dsn1
I1118 18:13:16.808758  2467 net.cpp:434] conv2-dsn1 <- conv1-dsn1
I1118 18:13:16.808763  2467 net.cpp:408] conv2-dsn1 -> conv2-dsn1
I1118 18:13:16.809865  2467 net.cpp:150] Setting up conv2-dsn1
I1118 18:13:16.809877  2467 net.cpp:157] Top shape: 1 64 500 500 (16000000)
I1118 18:13:16.809895  2467 net.cpp:165] Memory required for data: 1405050968
I1118 18:13:16.809900  2467 layer_factory.hpp:77] Creating layer relu1-dsn1
I1118 18:13:16.809906  2467 net.cpp:100] Creating Layer relu1-dsn1
I1118 18:13:16.809908  2467 net.cpp:434] relu1-dsn1 <- conv2-dsn1
I1118 18:13:16.809912  2467 net.cpp:395] relu1-dsn1 -> conv2-dsn1 (in-place)
I1118 18:13:16.809980  2467 net.cpp:150] Setting up relu1-dsn1
I1118 18:13:16.809988  2467 net.cpp:157] Top shape: 1 64 500 500 (16000000)
I1118 18:13:16.809989  2467 net.cpp:165] Memory required for data: 1469050968
I1118 18:13:16.809993  2467 layer_factory.hpp:77] Creating layer conv3-dsn1
I1118 18:13:16.810000  2467 net.cpp:100] Creating Layer conv3-dsn1
I1118 18:13:16.810003  2467 net.cpp:434] conv3-dsn1 <- conv2-dsn1
I1118 18:13:16.810024  2467 net.cpp:408] conv3-dsn1 -> conv3-dsn1
I1118 18:13:16.811787  2467 net.cpp:150] Setting up conv3-dsn1
I1118 18:13:16.811798  2467 net.cpp:157] Top shape: 1 64 500 500 (16000000)
I1118 18:13:16.811800  2467 net.cpp:165] Memory required for data: 1533050968
I1118 18:13:16.811805  2467 layer_factory.hpp:77] Creating layer relu2-dsn1
I1118 18:13:16.811810  2467 net.cpp:100] Creating Layer relu2-dsn1
I1118 18:13:16.811812  2467 net.cpp:434] relu2-dsn1 <- conv3-dsn1
I1118 18:13:16.811816  2467 net.cpp:395] relu2-dsn1 -> conv3-dsn1 (in-place)
I1118 18:13:16.811960  2467 net.cpp:150] Setting up relu2-dsn1
I1118 18:13:16.811969  2467 net.cpp:157] Top shape: 1 64 500 500 (16000000)
I1118 18:13:16.811986  2467 net.cpp:165] Memory required for data: 1597050968
I1118 18:13:16.811990  2467 layer_factory.hpp:77] Creating layer conv4-dsn1
I1118 18:13:16.811997  2467 net.cpp:100] Creating Layer conv4-dsn1
I1118 18:13:16.812000  2467 net.cpp:434] conv4-dsn1 <- conv3-dsn1
I1118 18:13:16.812005  2467 net.cpp:408] conv4-dsn1 -> conv4-dsn1
I1118 18:13:16.812803  2467 net.cpp:150] Setting up conv4-dsn1
I1118 18:13:16.812813  2467 net.cpp:157] Top shape: 1 1 500 500 (250000)
I1118 18:13:16.812816  2467 net.cpp:165] Memory required for data: 1598050968
I1118 18:13:16.812821  2467 layer_factory.hpp:77] Creating layer sum-dsn1
I1118 18:13:16.812826  2467 net.cpp:100] Creating Layer sum-dsn1
I1118 18:13:16.812829  2467 net.cpp:434] sum-dsn1 <- conv4-dsn1
I1118 18:13:16.812832  2467 net.cpp:434] sum-dsn1 <- upscore-dsn2_crop2-dsn2_0_split_2
I1118 18:13:16.812837  2467 net.cpp:408] sum-dsn1 -> sum-dsn1
I1118 18:13:16.812858  2467 net.cpp:150] Setting up sum-dsn1
I1118 18:13:16.812861  2467 net.cpp:157] Top shape: 1 1 500 500 (250000)
I1118 18:13:16.812880  2467 net.cpp:165] Memory required for data: 1599050968
I1118 18:13:16.812881  2467 layer_factory.hpp:77] Creating layer crop2-dsn1
I1118 18:13:16.812886  2467 net.cpp:100] Creating Layer crop2-dsn1
I1118 18:13:16.812888  2467 net.cpp:434] crop2-dsn1 <- sum-dsn1
I1118 18:13:16.812891  2467 net.cpp:434] crop2-dsn1 <- data_data_0_split_6
I1118 18:13:16.812896  2467 net.cpp:408] crop2-dsn1 -> upscore-dsn1
I1118 18:13:16.812912  2467 net.cpp:150] Setting up crop2-dsn1
I1118 18:13:16.812918  2467 net.cpp:157] Top shape: 1 1 500 500 (250000)
I1118 18:13:16.812922  2467 net.cpp:165] Memory required for data: 1600050968
I1118 18:13:16.812923  2467 layer_factory.hpp:77] Creating layer loss1-score
I1118 18:13:16.812929  2467 net.cpp:100] Creating Layer loss1-score
I1118 18:13:16.812932  2467 net.cpp:434] loss1-score <- upscore-dsn1
I1118 18:13:16.812935  2467 net.cpp:434] loss1-score <- label_data_1_split_5
I1118 18:13:16.812939  2467 net.cpp:408] loss1-score -> loss1-score
…
