…
I1118 18:43:54.897145  3424 net.cpp:58] Initializing net from parameters: 
name: "RAS"
state {
  phase: TRAIN
}
layer {
  name: "data"
  type: "ImageLabelmapData"
  top: "data_unaugmented"
  top: "label_unaugmented"
  include {
    phase: TRAIN
  }
  transform_param {
    mean_value: 104.00699
    mean_value: 116.66877
    mean_value: 122.67892
  }
  image_data_param {
    source: "/media/compute/homes/galberding/FleckDetect/Datasets/train.txt"
    batch_size: 1
    shuffle: true
    new_height: 500
    new_width: 500
    root_folder: "/media/compute/homes/galberding/FleckDetect/Datasets/"
    normalize: true
  }
}
layer {
  name: "augmentation"
  type: "Python"
  bottom: "data_unaugmented"
  bottom: "label_unaugmented"
  top: "data"
  top: "label"
  include {
    phase: TRAIN
  }
  python_param {
    module: "data_augmentation"
    layer: "DataAugmentation"
  }
}
layer {
  name: "conv1_1"
  type: "Convolution"
  bottom: "data"
  top: "conv1_1"
  param {
    lr_mult: 1
    decay_mult: 1
  }
  param {
    lr_mult: 2
    decay_mult: 0
  }
  convolution_param {
    num_output: 64
    pad: 1
    kernel_size: 3
    engine: CUDNN
  }
}
layer {
  name: "relu1_1"
  type: "ReLU"
  bottom: "conv1_1"
  top: "conv1_1"
}
layer {
  name: "conv1_2"
  type: "Convolution"
  bottom: "conv1_1"
  top: "conv1_2"
  param {
    lr_mult: 1
    decay_mult: 1
  }
  param {
    lr_mult: 2
    decay_mult: 0
  }
  convolution_param {
    num_output: 64
    pad: 1
    kernel_size: 3
    engine: CUDNN
  }
}
layer {
  name: "relu1_2"
  type: "ReLU"
  bottom: "conv1_2"
  top: "conv1_2"
}
layer {
  name: "pool1"
  type: "Pooling"
  bottom: "conv1_2"
  top: "pool1"
  pooling_param {
    pool: MAX
    kernel_size: 2
    stride: 2
  }
}
layer {
  name: "conv2_1"
  type: "Convolution"
  bottom: "pool1"
  top: "conv2_1"
  param {
    lr_mult: 1
    decay_mult: 1
  }
  param {
    lr_mult: 2
    decay_mult: 0
  }
  convolution_param {
    num_output: 128
    pad: 1
    kernel_size: 3
    engine: CUDNN
  }
}
layer {
  name: "relu2_1"
  type: "ReLU"
  bottom: "conv2_1"
  top: "conv2_1"
}
layer {
  name: "conv2_2"
  type: "Convolution"
  bottom: "conv2_1"
  top: "conv2_2"
  param {
    lr_mult: 1
    decay_mult: 1
  }
  param {
    lr_mult: 2
    decay_mult: 0
  }
  convolution_param {
    num_output: 128
    pad: 1
    kernel_size: 3
    engine: CUDNN
  }
}
layer {
  name: "relu2_2"
  type: "ReLU"
  bottom: "conv2_2"
  top: "conv2_2"
}
layer {
  name: "pool2"
  type: "Pooling"
  bottom: "conv2_2"
  top: "pool2"
  pooling_param {
    pool: MAX
    kernel_size: 2
    stride: 2
  }
}
layer {
  name: "conv3_1"
  type: "Convolution"
  bottom: "pool2"
  top: "conv3_1"
  param {
    lr_mult: 1
    decay_mult: 1
  }
  param {
    lr_mult: 2
    decay_mult: 0
  }
  convolution_param {
    num_output: 256
    pad: 1
    kernel_size: 3
    engine: CUDNN
  }
}
layer {
  name: "relu3_1"
  type: "ReLU"
  bottom: "conv3_1"
  top: "conv3_1"
}
layer {
  name: "conv3_2"
  type: "Convolution"
  bottom: "conv3_1"
  top: "conv3_2"
  param {
    lr_mult: 1
    decay_mult: 1
  }
  param {
    lr_mult: 2
    decay_mult: 0
  }
  convolution_param {
    num_output: 256
    pad: 1
    kernel_size: 3
    engine: CUDNN
  }
}
layer {
  name: "relu3_2"
  type: "ReLU"
  bottom: "conv3_2"
  top: "conv3_2"
}
layer {
  name: "conv3_3"
  type: "Convolution"
  bottom: "conv3_2"
  top: "conv3_3"
  param {
    lr_mult: 1
    decay_mult: 1
  }
  param {
    lr_mult: 2
    decay_mult: 0
  }
  convolution_param {
    num_output: 256
    pad: 1
    kernel_size: 3
    engine: CUDNN
  }
}
layer {
  name: "relu3_3"
  type: "ReLU"
  bottom: "conv3_3"
  top: "conv3_3"
}
layer {
  name: "pool3"
  type: "Pooling"
  bottom: "conv3_3"
  top: "pool3"
  pooling_param {
    pool: MAX
    kernel_size: 2
    stride: 2
  }
}
layer {
  name: "conv4_1"
  type: "Convolution"
  bottom: "pool3"
  top: "conv4_1"
  param {
    lr_mult: 1
    decay_mult: 1
  }
  param {
    lr_mult: 2
    decay_mult: 0
  }
  convolution_param {
    num_output: 512
    pad: 1
    kernel_size: 3
    engine: CUDNN
  }
}
layer {
  name: "relu4_1"
  type: "ReLU"
  bottom: "conv4_1"
  top: "conv4_1"
}
layer {
  name: "conv4_2"
  type: "Convolution"
  bottom: "conv4_1"
  top: "conv4_2"
  param {
    lr_mult: 1
    decay_mult: 1
  }
  param {
    lr_mult: 2
    decay_mult: 0
  }
  convolution_param {
    num_output: 512
    pad: 1
    kernel_size: 3
    engine: CUDNN
  }
}
layer {
  name: "relu4_2"
  type: "ReLU"
  bottom: "conv4_2"
  top: "conv4_2"
}
layer {
  name: "conv4_3"
  type: "Convolution"
  bottom: "conv4_2"
  top: "conv4_3"
  param {
    lr_mult: 1
    decay_mult: 1
  }
  param {
    lr_mult: 2
    decay_mult: 0
  }
  convolution_param {
    num_output: 512
    pad: 1
    kernel_size: 3
    engine: CUDNN
  }
}
layer {
  name: "relu4_3"
  type: "ReLU"
  bottom: "conv4_3"
  top: "conv4_3"
}
layer {
  name: "pool4"
  type: "Pooling"
  bottom: "conv4_3"
  top: "pool4"
  pooling_param {
    pool: MAX
    kernel_size: 3
    stride: 2
    pad: 1
  }
}
layer {
  name: "conv5_1"
  type: "Convolution"
  bottom: "pool4"
  top: "conv5_1"
  param {
    lr_mult: 1
    decay_mult: 1
  }
  param {
    lr_mult: 2
    decay_mult: 0
  }
  convolution_param {
    num_output: 512
    pad: 1
    kernel_size: 3
    engine: CUDNN
  }
}
layer {
  name: "relu5_1"
  type: "ReLU"
  bottom: "conv5_1"
  top: "conv5_1"
}
layer {
  name: "conv5_2"
  type: "Convolution"
  bottom: "conv5_1"
  top: "conv5_2"
  param {
    lr_mult: 1
    decay_mult: 1
  }
  param {
    lr_mult: 2
    decay_mult: 0
  }
  convolution_param {
    num_output: 512
    pad: 1
    kernel_size: 3
    engine: CUDNN
  }
}
layer {
  name: "relu5_2"
  type: "ReLU"
  bottom: "conv5_2"
  top: "conv5_2"
}
layer {
  name: "conv5_3"
  type: "Convolution"
  bottom: "conv5_2"
  top: "conv5_3"
  param {
    lr_mult: 1
    decay_mult: 1
  }
  param {
    lr_mult: 2
    decay_mult: 0
  }
  convolution_param {
    num_output: 512
    pad: 1
    kernel_size: 3
    engine: CUDNN
  }
}
layer {
  name: "relu5_3"
  type: "ReLU"
  bottom: "conv5_3"
  top: "conv5_3"
}
layer {
  name: "pool5"
  type: "Pooling"
  bottom: "conv5_3"
  top: "pool5"
  pooling_param {
    pool: MAX
    kernel_size: 3
    stride: 2
    pad: 1
  }
}
layer {
  name: "conv1-dsn6"
  type: "Convolution"
  bottom: "pool5"
  top: "conv1-dsn6"
  param {
    lr_mult: 1
    decay_mult: 1
  }
  param {
    lr_mult: 2
    decay_mult: 0
  }
  convolution_param {
    num_output: 256
    kernel_size: 1
    weight_filler {
      type: "gaussian"
      std: 0.01
    }
    bias_filler {
      type: "constant"
      value: 0
    }
    engine: CUDNN
  }
}
layer {
  name: "conv2-dsn6"
  type: "Convolution"
  bottom: "conv1-dsn6"
  top: "conv2-dsn6"
  param {
    lr_mult: 1
    decay_mult: 1
  }
  param {
    lr_mult: 2
    decay_mult: 0
  }
  convolution_param {
    num_output: 256
    pad: 2
    kernel_size: 5
    weight_filler {
      type: "gaussian"
      std: 0.01
    }
    bias_filler {
      type: "constant"
      value: 0
    }
    engine: CUDNN
  }
}
layer {
  name: "relu1-dsn6"
  type: "ReLU"
  bottom: "conv2-dsn6"
  top: "conv2-dsn6"
}
layer {
  name: "conv3-dsn6"
  type: "Convolution"
  bottom: "conv2-dsn6"
  top: "conv3-dsn6"
  param {
    lr_mult: 1
    decay_mult: 1
  }
  param {
    lr_mult: 2
    decay_mult: 0
  }
  convolution_param {
    num_output: 256
    pad: 2
    kernel_size: 5
    weight_filler {
      type: "gaussian"
      std: 0.01
    }
    bias_filler {
      type: "constant"
      value: 0
    }
    engine: CUDNN
  }
}
layer {
  name: "relu2-dsn6"
  type: "ReLU"
  bottom: "conv3-dsn6"
  top: "conv3-dsn6"
}
layer {
  name: "conv4-dsn6"
  type: "Convolution"
  bottom: "conv3-dsn6"
  top: "conv4-dsn6"
  param {
    lr_mult: 1
    decay_mult: 1
  }
  param {
    lr_mult: 2
    decay_mult: 0
  }
  convolution_param {
    num_output: 256
    pad: 2
    kernel_size: 5
    weight_filler {
      type: "gaussian"
      std: 0.01
    }
    bias_filler {
      type: "constant"
      value: 0
    }
    engine: CUDNN
  }
}
layer {
  name: "relu3-dsn6"
  type: "ReLU"
  bottom: "conv4-dsn6"
  top: "conv4-dsn6"
}
layer {
  name: "conv5-dsn6"
  type: "Convolution"
  bottom: "conv4-dsn6"
  top: "conv5-dsn6"
  param {
    lr_mult: 0.1
    decay_mult: 1
  }
  param {
    lr_mult: 0.2
    decay_mult: 0
  }
  convolution_param {
    num_output: 1
    kernel_size: 1
    weight_filler {
      type: "gaussian"
      std: 0.01
    }
    bias_filler {
      type: "constant"
      value: 0
    }
    engine: CUDNN
  }
}
layer {
  name: "upsample32_dsn6"
  type: "Deconvolution"
  bottom: "conv5-dsn6"
  top: "conv5-dsn6-up"
  param {
    lr_mult: 0
    decay_mult: 1
  }
  param {
    lr_mult: 0
    decay_mult: 0
  }
  convolution_param {
    num_output: 1
    kernel_size: 64
    stride: 32
  }
}
layer {
  name: "crop-dsn6"
  type: "Crop"
  bottom: "conv5-dsn6-up"
  bottom: "data"
  top: "upscore-dsn6"
}
layer {
  name: "loss6-score"
  type: "SigmoidCrossEntropyLoss"
  bottom: "upscore-dsn6"
  bottom: "label"
  top: "loss6-score"
  loss_weight: 1
}
layer {
  name: "upsample2_dsn5"
  type: "Deconvolution"
  bottom: "conv5-dsn6"
  top: "conv5-dsn6-5"
  param {
    lr_mult: 0
    decay_mult: 1
  }
  param {
    lr_mult: 0
    decay_mult: 0
  }
  convolution_param {
    num_output: 1
    kernel_size: 4
    stride: 2
  }
}
layer {
  name: "crop1-dsn5"
  type: "Crop"
  bottom: "conv5-dsn6-5"
  bottom: "conv5_3"
  top: "weight-dsn6-5"
}
layer {
  name: "sigmoid-dsn5"
  type: "Sigmoid"
  bottom: "weight-dsn6-5"
  top: "sigmoid-dsn5"
}
layer {
  name: "rev-dsn5"
  type: "Power"
  bottom: "sigmoid-dsn5"
  top: "rev-dsn5"
  power_param {
    power: 1
    scale: -1
    shift: 1
  }
}
layer {
  name: "tile-dsn5"
  type: "Tile"
  bottom: "rev-dsn5"
  top: "weight-dsn5"
  tile_param {
    tiles: 512
  }
}
layer {
  name: "prod1-dsn5"
  type: "Eltwise"
  bottom: "conv5_3"
  bottom: "weight-dsn5"
  top: "prod1-dsn5"
  eltwise_param {
    operation: PROD
  }
}
layer {
  name: "conv1-dsn5"
  type: "Convolution"
  bottom: "prod1-dsn5"
  top: "conv1-dsn5"
  param {
    lr_mult: 1
    decay_mult: 1
  }
  param {
    lr_mult: 2
    decay_mult: 0
  }
  convolution_param {
    num_output: 64
    kernel_size: 1
    weight_filler {
      type: "gaussian"
      std: 0.01
    }
    bias_filler {
      type: "constant"
      value: 0
    }
    engine: CUDNN
  }
}
layer {
  name: "conv2-dsn5"
  type: "Convolution"
  bottom: "conv1-dsn5"
  top: "conv2-dsn5"
  param {
    lr_mult: 1
    decay_mult: 1
  }
  param {
    lr_mult: 2
    decay_mult: 0
  }
  convolution_param {
    num_output: 64
    pad: 1
    kernel_size: 3
    weight_filler {
      type: "gaussian"
      std: 0.01
    }
    bias_filler {
      type: "constant"
      value: 0
    }
    engine: CUDNN
  }
}
layer {
  name: "relu1-dsn5"
  type: "ReLU"
  bottom: "conv2-dsn5"
  top: "conv2-dsn5"
}
layer {
  name: "conv3-dsn5"
  type: "Convolution"
  bottom: "conv2-dsn5"
  top: "conv3-dsn5"
  param {
    lr_mult: 1
    decay_mult: 1
  }
  param {
    lr_mult: 2
    decay_mult: 0
  }
  convolution_param {
    num_output: 64
    pad: 1
    kernel_size: 3
    weight_filler {
      type: "gaussian"
      std: 0.01
    }
    bias_filler {
      type: "constant"
      value: 0
    }
    engine: CUDNN
  }
}
layer {
  name: "relu2-dsn5"
  type: "ReLU"
  bottom: "conv3-dsn5"
  top: "conv3-dsn5"
}
layer {
  name: "conv4-dsn5"
  type: "Convolution"
  bottom: "conv3-dsn5"
  top: "conv4-dsn5"
  param {
    lr_mult: 1
    decay_mult: 1
  }
  param {
    lr_mult: 2
    decay_mult: 0
  }
  convolution_param {
    num_output: 1
    pad: 1
    kernel_size: 3
    weight_filler {
      type: "gaussian"
      std: 0.01
    }
    bias_filler {
      type: "constant"
      value: 0
    }
    engine: CUDNN
  }
}
layer {
  name: "sum-dsn5"
  type: "Eltwise"
  bottom: "conv4-dsn5"
  bottom: "weight-dsn6-5"
  top: "sum-dsn5"
  eltwise_param {
    operation: SUM
  }
}
layer {
  name: "upsample16_dsn5"
  type: "Deconvolution"
  bottom: "sum-dsn5"
  top: "sum-dsn5-up"
  param {
    lr_mult: 0
    decay_mult: 1
  }
  param {
    lr_mult: 0
    decay_mult: 0
  }
  convolution_param {
    num_output: 1
    kernel_size: 32
    stride: 16
  }
}
layer {
  name: "crop2-dsn5"
  type: "Crop"
  bottom: "sum-dsn5-up"
  bottom: "data"
  top: "upscore-dsn5"
}
layer {
  name: "loss5-score"
  type: "SigmoidCrossEntropyLoss"
  bottom: "upscore-dsn5"
  bottom: "label"
  top: "loss5-score"
  loss_weight: 1
}
layer {
  name: "upsample2_dsn4"
  type: "Deconvolution"
  bottom: "sum-dsn5"
  top: "sum-dsn5-4"
  param {
    lr_mult: 0
    decay_mult: 1
  }
  param {
    lr_mult: 0
    decay_mult: 0
  }
  convolution_param {
    num_output: 1
    kernel_size: 4
    stride: 2
  }
}
layer {
  name: "crop1-dsn4"
  type: "Crop"
  bottom: "sum-dsn5-4"
  bottom: "conv4_3"
  top: "weight-dsn5-4"
}
layer {
  name: "sigmoid-dsn4"
  type: "Sigmoid"
  bottom: "weight-dsn5-4"
  top: "sigmoid-dsn4"
}
layer {
  name: "rev-dsn4"
  type: "Power"
  bottom: "sigmoid-dsn4"
  top: "rev-dsn4"
  power_param {
    power: 1
    scale: -1
    shift: 1
  }
}
layer {
  name: "tile-dsn4"
  type: "Tile"
  bottom: "rev-dsn4"
  top: "weight-dsn4"
  tile_param {
    tiles: 512
  }
}
layer {
  name: "prod1-dsn4"
  type: "Eltwise"
  bottom: "conv4_3"
  bottom: "weight-dsn4"
  top: "prod1-dsn4"
  eltwise_param {
    operation: PROD
  }
}
layer {
  name: "conv1-dsn4"
  type: "Convolution"
  bottom: "prod1-dsn4"
  top: "conv1-dsn4"
  param {
    lr_mult: 1
    decay_mult: 1
  }
  param {
    lr_mult: 2
    decay_mult: 0
  }
  convolution_param {
    num_output: 64
    kernel_size: 1
    weight_filler {
      type: "gaussian"
      std: 0.01
    }
    bias_filler {
      type: "constant"
      value: 0
    }
    engine: CUDNN
  }
}
layer {
  name: "conv2-dsn4"
  type: "Convolution"
  bottom: "conv1-dsn4"
  top: "conv2-dsn4"
  param {
    lr_mult: 1
    decay_mult: 1
  }
  param {
    lr_mult: 2
    decay_mult: 0
  }
  convolution_param {
    num_output: 64
    pad: 1
    kernel_size: 3
    weight_filler {
      type: "gaussian"
      std: 0.01
    }
    bias_filler {
      type: "constant"
      value: 0
    }
    engine: CUDNN
  }
}
layer {
  name: "relu1-dsn4"
  type: "ReLU"
  bottom: "conv2-dsn4"
  top: "conv2-dsn4"
}
layer {
  name: "conv3-dsn4"
  type: "Convolution"
  bottom: "conv2-dsn4"
  top: "conv3-dsn4"
  param {
    lr_mult: 1
    decay_mult: 1
  }
  param {
    lr_mult: 2
    decay_mult: 0
  }
  convolution_param {
    num_output: 64
    pad: 1
    kernel_size: 3
    weight_filler {
      type: "gaussian"
      std: 0.01
    }
    bias_filler {
      type: "constant"
      value: 0
    }
    engine: CUDNN
  }
}
layer {
  name: "relu2-dsn4"
  type: "ReLU"
  bottom: "conv3-dsn4"
  top: "conv3-dsn4"
}
layer {
  name: "conv4-dsn4"
  type: "Convolution"
  bottom: "conv3-dsn4"
  top: "conv4-dsn4"
  param {
    lr_mult: 1
    decay_mult: 1
  }
  param {
    lr_mult: 2
    decay_mult: 0
  }
  convolution_param {
    num_output: 1
    pad: 1
    kernel_size: 3
    weight_filler {
      type: "gaussian"
      std: 0.01
    }
    bias_filler {
      type: "constant"
      value: 0
    }
    engine: CUDNN
  }
}
layer {
  name: "sum-dsn4"
  type: "Eltwise"
  bottom: "conv4-dsn4"
  bottom: "weight-dsn5-4"
  top: "sum-dsn4"
  eltwise_param {
    operation: SUM
  }
}
layer {
  name: "upsample8_dsn4"
  type: "Deconvolution"
  bottom: "sum-dsn4"
  top: "sum-dsn4-up"
  param {
    lr_mult: 0
    decay_mult: 1
  }
  param {
    lr_mult: 0
    decay_mult: 0
  }
  convolution_param {
    num_output: 1
    kernel_size: 16
    stride: 8
  }
}
layer {
  name: "crop2-dsn4"
  type: "Crop"
  bottom: "sum-dsn4-up"
  bottom: "data"
  top: "upscore-dsn4"
}
layer {
  name: "loss4-score"
  type: "SigmoidCrossEntropyLoss"
  bottom: "upscore-dsn4"
  bottom: "label"
  top: "loss4-score"
  loss_weight: 1
}
layer {
  name: "upsample2_dsn3"
  type: "Deconvolution"
  bottom: "sum-dsn4"
  top: "sum-dsn4-3"
  param {
    lr_mult: 0
    decay_mult: 1
  }
  param {
    lr_mult: 0
    decay_mult: 0
  }
  convolution_param {
    num_output: 1
    kernel_size: 4
    stride: 2
  }
}
layer {
  name: "crop1-dsn3"
  type: "Crop"
  bottom: "sum-dsn4-3"
  bottom: "conv3_3"
  top: "weight-dsn4-3"
}
layer {
  name: "sigmoid-dsn3"
  type: "Sigmoid"
  bottom: "weight-dsn4-3"
  top: "sigmoid-dsn3"
}
layer {
  name: "rev-dsn3"
  type: "Power"
  bottom: "sigmoid-dsn3"
  top: "rev-dsn3"
  power_param {
    power: 1
    scale: -1
    shift: 1
  }
}
layer {
  name: "tile-dsn3"
  type: "Tile"
  bottom: "rev-dsn3"
  top: "weight-dsn3"
  tile_param {
    tiles: 256
  }
}
layer {
  name: "prod1-dsn3"
  type: "Eltwise"
  bottom: "conv3_3"
  bottom: "weight-dsn3"
  top: "prod1-dsn3"
  eltwise_param {
    operation: PROD
  }
}
layer {
  name: "conv1-dsn3"
  type: "Convolution"
  bottom: "prod1-dsn3"
  top: "conv1-dsn3"
  param {
    lr_mult: 1
    decay_mult: 1
  }
  param {
    lr_mult: 2
    decay_mult: 0
  }
  convolution_param {
    num_output: 64
    kernel_size: 1
    weight_filler {
      type: "gaussian"
      std: 0.01
    }
    bias_filler {
      type: "constant"
      value: 0
    }
    engine: CUDNN
  }
}
layer {
  name: "conv2-dsn3"
  type: "Convolution"
  bottom: "conv1-dsn3"
  top: "conv2-dsn3"
  param {
    lr_mult: 1
    decay_mult: 1
  }
  param {
    lr_mult: 2
    decay_mult: 0
  }
  convolution_param {
    num_output: 64
    pad: 1
    kernel_size: 3
    weight_filler {
      type: "gaussian"
      std: 0.01
    }
    bias_filler {
      type: "constant"
      value: 0
    }
    engine: CUDNN
  }
}
layer {
  name: "relu1-dsn3"
  type: "ReLU"
  bottom: "conv2-dsn3"
  top: "conv2-dsn3"
}
layer {
  name: "conv3-dsn3"
  type: "Convolution"
  bottom: "conv2-dsn3"
  top: "conv3-dsn3"
  param {
    lr_mult: 1
    decay_mult: 1
  }
  param {
    lr_mult: 2
    decay_mult: 0
  }
  convolution_param {
    num_output: 64
    pad: 1
    kernel_size: 3
    weight_filler {
      type: "gaussian"
      std: 0.01
    }
    bias_filler {
      type: "constant"
      value: 0
    }
    engine: CUDNN
  }
}
layer {
  name: "relu2-dsn3"
  type: "ReLU"
  bottom: "conv3-dsn3"
  top: "conv3-dsn3"
}
layer {
  name: "conv4-dsn3"
  type: "Convolution"
  bottom: "conv3-dsn3"
  top: "conv4-dsn3"
  param {
    lr_mult: 1
    decay_mult: 1
  }
  param {
    lr_mult: 2
    decay_mult: 0
  }
  convolution_param {
    num_output: 1
    pad: 1
    kernel_size: 3
    weight_filler {
      type: "gaussian"
      std: 0.01
    }
    bias_filler {
      type: "constant"
      value: 0
    }
    engine: CUDNN
  }
}
layer {
  name: "sum-dsn3"
  type: "Eltwise"
  bottom: "conv4-dsn3"
  bottom: "weight-dsn4-3"
  top: "sum-dsn3"
  eltwise_param {
    operation: SUM
  }
}
layer {
  name: "upsample4_dsn3"
  type: "Deconvolution"
  bottom: "sum-dsn3"
  top: "sum-dsn3-up"
  param {
    lr_mult: 0
    decay_mult: 1
  }
  param {
    lr_mult: 0
    decay_mult: 0
  }
  convolution_param {
    num_output: 1
    kernel_size: 8
    stride: 4
  }
}
layer {
  name: "crop2-dsn3"
  type: "Crop"
  bottom: "sum-dsn3-up"
  bottom: "data"
  top: "upscore-dsn3"
}
layer {
  name: "loss3-score"
  type: "SigmoidCrossEntropyLoss"
  bottom: "upscore-dsn3"
  bottom: "label"
  top: "loss3-score"
  loss_weight: 1
}
layer {
  name: "upsample2_1-dsn2"
  type: "Deconvolution"
  bottom: "sum-dsn3"
  top: "sum-dsn3-2"
  param {
    lr_mult: 0
    decay_mult: 1
  }
  param {
    lr_mult: 0
    decay_mult: 0
  }
  convolution_param {
    num_output: 1
    kernel_size: 4
    stride: 2
  }
}
layer {
  name: "crop1-dsn2"
  type: "Crop"
  bottom: "sum-dsn3-2"
  bottom: "conv2_2"
  top: "weight-dsn3-2"
}
layer {
  name: "sigmoid-dsn2"
  type: "Sigmoid"
  bottom: "weight-dsn3-2"
  top: "sigmoid-dsn2"
}
layer {
  name: "rev-dsn2"
  type: "Power"
  bottom: "sigmoid-dsn2"
  top: "rev-dsn2"
  power_param {
    power: 1
    scale: -1
    shift: 1
  }
}
layer {
  name: "tile-dsn2"
  type: "Tile"
  bottom: "rev-dsn2"
  top: "weight-dsn2"
  tile_param {
    tiles: 128
  }
}
layer {
  name: "prod1-dsn2"
  type: "Eltwise"
  bottom: "conv2_2"
  bottom: "weight-dsn2"
  top: "prod1-dsn2"
  eltwise_param {
    operation: PROD
  }
}
layer {
  name: "conv1-dsn2"
  type: "Convolution"
  bottom: "prod1-dsn2"
  top: "conv1-dsn2"
  param {
    lr_mult: 1
    decay_mult: 1
  }
  param {
    lr_mult: 2
    decay_mult: 0
  }
  convolution_param {
    num_output: 64
    kernel_size: 1
    weight_filler {
      type: "gaussian"
      std: 0.01
    }
    bias_filler {
      type: "constant"
      value: 0
    }
    engine: CUDNN
  }
}
layer {
  name: "conv2-dsn2"
  type: "Convolution"
  bottom: "conv1-dsn2"
  top: "conv2-dsn2"
  param {
    lr_mult: 1
    decay_mult: 1
  }
  param {
    lr_mult: 2
    decay_mult: 0
  }
  convolution_param {
    num_output: 64
    pad: 1
    kernel_size: 3
    weight_filler {
      type: "gaussian"
      std: 0.01
    }
    bias_filler {
      type: "constant"
      value: 0
    }
    engine: CUDNN
  }
}
layer {
  name: "relu1-dsn2"
  type: "ReLU"
  bottom: "conv2-dsn2"
  top: "conv2-dsn2"
}
layer {
  name: "conv3-dsn2"
  type: "Convolution"
  bottom: "conv2-dsn2"
  top: "conv3-dsn2"
  param {
    lr_mult: 1
    decay_mult: 1
  }
  param {
    lr_mult: 2
    decay_mult: 0
  }
  convolution_param {
    num_output: 64
    pad: 1
    kernel_size: 3
    weight_filler {
      type: "gaussian"
      std: 0.01
    }
    bias_filler {
      type: "constant"
      value: 0
    }
    engine: CUDNN
  }
}
layer {
  name: "relu2-dsn2"
  type: "ReLU"
  bottom: "conv3-dsn2"
  top: "conv3-dsn2"
}
layer {
  name: "conv4-dsn2"
  type: "Convolution"
  bottom: "conv3-dsn2"
  top: "conv4-dsn2"
  param {
    lr_mult: 1
    decay_mult: 1
  }
  param {
    lr_mult: 2
    decay_mult: 0
  }
  convolution_param {
    num_output: 1
    pad: 1
    kernel_size: 3
    weight_filler {
      type: "gaussian"
      std: 0.01
    }
    bias_filler {
      type: "constant"
      value: 0
    }
    engine: CUDNN
  }
}
layer {
  name: "sum-dsn2"
  type: "Eltwise"
  bottom: "conv4-dsn2"
  bottom: "weight-dsn3-2"
  top: "sum-dsn2"
  eltwise_param {
    operation: SUM
  }
}
layer {
  name: "upsample2_2-dsn2"
  type: "Deconvolution"
  bottom: "sum-dsn2"
  top: "sum-dsn2-up"
  param {
    lr_mult: 0
    decay_mult: 1
  }
  param {
    lr_mult: 0
    decay_mult: 0
  }
  convolution_param {
    num_output: 1
    kernel_size: 4
    stride: 2
  }
}
layer {
  name: "crop2-dsn2"
  type: "Crop"
  bottom: "sum-dsn2-up"
  bottom: "data"
  top: "upscore-dsn2"
}
layer {
  name: "loss2-score"
  type: "SigmoidCrossEntropyLoss"
  bottom: "upscore-dsn2"
  bottom: "label"
  top: "loss2-score"
  loss_weight: 1
}
layer {
  name: "sigmoid-dsn1"
  type: "Sigmoid"
  bottom: "upscore-dsn2"
  top: "sigmoid-dsn1"
}
layer {
  name: "rev-dsn1"
  type: "Power"
  bottom: "sigmoid-dsn1"
  top: "rev-dsn1"
  power_param {
    power: 1
    scale: -1
    shift: 1
  }
}
layer {
  name: "tile-dsn1"
  type: "Tile"
  bottom: "rev-dsn1"
  top: "weight-dsn1"
  tile_param {
    tiles: 64
  }
}
layer {
  name: "prod1-dsn1"
  type: "Eltwise"
  bottom: "conv1_2"
  bottom: "weight-dsn1"
  top: "prod1-dsn1"
  eltwise_param {
    operation: PROD
  }
}
layer {
  name: "conv1-dsn1"
  type: "Convolution"
  bottom: "prod1-dsn1"
  top: "conv1-dsn1"
  param {
    lr_mult: 1
    decay_mult: 1
  }
  param {
    lr_mult: 2
    decay_mult: 0
  }
  convolution_param {
    num_output: 64
    kernel_size: 1
    weight_filler {
      type: "gaussian"
      std: 0.01
    }
    bias_filler {
      type: "constant"
      value: 0
    }
    engine: CUDNN
  }
}
layer {
  name: "conv2-dsn1"
  type: "Convolution"
  bottom: "conv1-dsn1"
  top: "conv2-dsn1"
  param {
    lr_mult: 1
    decay_mult: 1
  }
  param {
    lr_mult: 2
    decay_mult: 0
  }
  convolution_param {
    num_output: 64
    pad: 1
    kernel_size: 3
    weight_filler {
      type: "gaussian"
      std: 0.01
    }
    bias_filler {
      type: "constant"
      value: 0
    }
    engine: CUDNN
  }
}
layer {
  name: "relu1-dsn1"
  type: "ReLU"
  bottom: "conv2-dsn1"
  top: "conv2-dsn1"
}
layer {
  name: "conv3-dsn1"
  type: "Convolution"
  bottom: "conv2-dsn1"
  top: "conv3-dsn1"
  param {
    lr_mult: 1
    decay_mult: 1
  }
  param {
    lr_mult: 2
    decay_mult: 0
  }
  convolution_param {
    num_output: 64
    pad: 1
    kernel_size: 3
    weight_filler {
      type: "gaussian"
      std: 0.01
    }
    bias_filler {
      type: "constant"
      value: 0
    }
    engine: CUDNN
  }
}
layer {
  name: "relu2-dsn1"
  type: "ReLU"
  bottom: "conv3-dsn1"
  top: "conv3-dsn1"
}
layer {
  name: "conv4-dsn1"
  type: "Convolution"
  bottom: "conv3-dsn1"
  top: "conv4-dsn1"
  param {
    lr_mult: 1
    decay_mult: 1
  }
  param {
    lr_mult: 2
    decay_mult: 0
  }
  convolution_param {
    num_output: 1
    pad: 1
    kernel_size: 3
    weight_filler {
      type: "gaussian"
      std: 0.01
    }
    bias_filler {
      type: "constant"
      value: 0
    }
    engine: CUDNN
  }
}
layer {
  name: "sum-dsn1"
  type: "Eltwise"
  bottom: "conv4-dsn1"
  bottom: "upscore-dsn2"
  top: "sum-dsn1"
  eltwise_param {
    operation: SUM
  }
}
layer {
  name: "crop2-dsn1"
  type: "Crop"
  bottom: "sum-dsn1"
  bottom: "data"
  top: "upscore-dsn1"
}
layer {
  name: "loss1-score"
  type: "SigmoidCrossEntropyLoss"
  bottom: "upscore-dsn1"
  bottom: "label"
  top: "loss1-score"
  loss_weight: 1
}
I1118 18:43:54.897773  3424 layer_factory.hpp:77] Creating layer data
I1118 18:43:54.897797  3424 net.cpp:100] Creating Layer data
I1118 18:43:54.897804  3424 net.cpp:408] data -> data_unaugmented
I1118 18:43:54.897819  3424 net.cpp:408] data -> label_unaugmented
I1118 18:43:54.897833  3424 image_labelmap_data_layer.cpp:41] Opening file /media/compute/homes/galberding/FleckDetect/Datasets/train.txt
I1118 18:43:54.903332  3424 image_labelmap_data_layer.cpp:51] Shuffling data
I1118 18:43:54.904443  3424 image_labelmap_data_layer.cpp:56] A total of 3600 images.
I1118 18:43:55.226615  3424 image_labelmap_data_layer.cpp:110] output data size: 1,3,500,500
I1118 18:43:55.226652  3424 image_labelmap_data_layer.cpp:113] output label size: 1,1,500,500
I1118 18:43:55.238384  3424 net.cpp:150] Setting up data
I1118 18:43:55.238411  3424 net.cpp:157] Top shape: 1 3 500 500 (750000)
I1118 18:43:55.238416  3424 net.cpp:157] Top shape: 1 1 500 500 (250000)
I1118 18:43:55.238420  3424 net.cpp:165] Memory required for data: 4000000
I1118 18:43:55.238430  3424 layer_factory.hpp:77] Creating layer augmentation
I1118 18:43:55.243479  3424 net.cpp:100] Creating Layer augmentation
I1118 18:43:55.243494  3424 net.cpp:434] augmentation <- data_unaugmented
I1118 18:43:55.243502  3424 net.cpp:434] augmentation <- label_unaugmented
I1118 18:43:55.243510  3424 net.cpp:408] augmentation -> data
I1118 18:43:55.243521  3424 net.cpp:408] augmentation -> label
I1118 18:43:55.245419  3424 net.cpp:150] Setting up augmentation
I1118 18:43:55.245435  3424 net.cpp:157] Top shape: 1 3 500 500 (750000)
I1118 18:43:55.245440  3424 net.cpp:157] Top shape: 1 1 500 500 (250000)
I1118 18:43:55.245443  3424 net.cpp:165] Memory required for data: 8000000
I1118 18:43:55.245446  3424 layer_factory.hpp:77] Creating layer data_augmentation_0_split
I1118 18:43:55.245458  3424 net.cpp:100] Creating Layer data_augmentation_0_split
I1118 18:43:55.245461  3424 net.cpp:434] data_augmentation_0_split <- data
I1118 18:43:55.245471  3424 net.cpp:408] data_augmentation_0_split -> data_augmentation_0_split_0
I1118 18:43:55.245481  3424 net.cpp:408] data_augmentation_0_split -> data_augmentation_0_split_1
I1118 18:43:55.245487  3424 net.cpp:408] data_augmentation_0_split -> data_augmentation_0_split_2
I1118 18:43:55.245493  3424 net.cpp:408] data_augmentation_0_split -> data_augmentation_0_split_3
I1118 18:43:55.245501  3424 net.cpp:408] data_augmentation_0_split -> data_augmentation_0_split_4
I1118 18:43:55.245508  3424 net.cpp:408] data_augmentation_0_split -> data_augmentation_0_split_5
I1118 18:43:55.245514  3424 net.cpp:408] data_augmentation_0_split -> data_augmentation_0_split_6
I1118 18:43:55.245596  3424 net.cpp:150] Setting up data_augmentation_0_split
I1118 18:43:55.245605  3424 net.cpp:157] Top shape: 1 3 500 500 (750000)
I1118 18:43:55.245609  3424 net.cpp:157] Top shape: 1 3 500 500 (750000)
I1118 18:43:55.245612  3424 net.cpp:157] Top shape: 1 3 500 500 (750000)
I1118 18:43:55.245615  3424 net.cpp:157] Top shape: 1 3 500 500 (750000)
I1118 18:43:55.245620  3424 net.cpp:157] Top shape: 1 3 500 500 (750000)
I1118 18:43:55.245623  3424 net.cpp:157] Top shape: 1 3 500 500 (750000)
I1118 18:43:55.245627  3424 net.cpp:157] Top shape: 1 3 500 500 (750000)
I1118 18:43:55.245630  3424 net.cpp:165] Memory required for data: 29000000
I1118 18:43:55.245633  3424 layer_factory.hpp:77] Creating layer label_augmentation_1_split
I1118 18:43:55.245640  3424 net.cpp:100] Creating Layer label_augmentation_1_split
I1118 18:43:55.245643  3424 net.cpp:434] label_augmentation_1_split <- label
I1118 18:43:55.245649  3424 net.cpp:408] label_augmentation_1_split -> label_augmentation_1_split_0
I1118 18:43:55.245656  3424 net.cpp:408] label_augmentation_1_split -> label_augmentation_1_split_1
I1118 18:43:55.245661  3424 net.cpp:408] label_augmentation_1_split -> label_augmentation_1_split_2
I1118 18:43:55.245667  3424 net.cpp:408] label_augmentation_1_split -> label_augmentation_1_split_3
I1118 18:43:55.245672  3424 net.cpp:408] label_augmentation_1_split -> label_augmentation_1_split_4
I1118 18:43:55.245678  3424 net.cpp:408] label_augmentation_1_split -> label_augmentation_1_split_5
I1118 18:43:55.245748  3424 net.cpp:150] Setting up label_augmentation_1_split
I1118 18:43:55.245754  3424 net.cpp:157] Top shape: 1 1 500 500 (250000)
I1118 18:43:55.245757  3424 net.cpp:157] Top shape: 1 1 500 500 (250000)
I1118 18:43:55.245761  3424 net.cpp:157] Top shape: 1 1 500 500 (250000)
I1118 18:43:55.245765  3424 net.cpp:157] Top shape: 1 1 500 500 (250000)
I1118 18:43:55.245769  3424 net.cpp:157] Top shape: 1 1 500 500 (250000)
I1118 18:43:55.245774  3424 net.cpp:157] Top shape: 1 1 500 500 (250000)
I1118 18:43:55.245775  3424 net.cpp:165] Memory required for data: 35000000
I1118 18:43:55.245779  3424 layer_factory.hpp:77] Creating layer conv1_1
I1118 18:43:55.245791  3424 net.cpp:100] Creating Layer conv1_1
I1118 18:43:55.245795  3424 net.cpp:434] conv1_1 <- data_augmentation_0_split_0
I1118 18:43:55.245801  3424 net.cpp:408] conv1_1 -> conv1_1
I1118 18:43:55.621274  3424 net.cpp:150] Setting up conv1_1
I1118 18:43:55.621309  3424 net.cpp:157] Top shape: 1 64 500 500 (16000000)
I1118 18:43:55.621312  3424 net.cpp:165] Memory required for data: 99000000
I1118 18:43:55.621330  3424 layer_factory.hpp:77] Creating layer relu1_1
I1118 18:43:55.621341  3424 net.cpp:100] Creating Layer relu1_1
I1118 18:43:55.621345  3424 net.cpp:434] relu1_1 <- conv1_1
I1118 18:43:55.621351  3424 net.cpp:395] relu1_1 -> conv1_1 (in-place)
I1118 18:43:55.621415  3424 net.cpp:150] Setting up relu1_1
I1118 18:43:55.621438  3424 net.cpp:157] Top shape: 1 64 500 500 (16000000)
I1118 18:43:55.621440  3424 net.cpp:165] Memory required for data: 163000000
I1118 18:43:55.621443  3424 layer_factory.hpp:77] Creating layer conv1_2
I1118 18:43:55.621453  3424 net.cpp:100] Creating Layer conv1_2
I1118 18:43:55.621455  3424 net.cpp:434] conv1_2 <- conv1_1
I1118 18:43:55.621459  3424 net.cpp:408] conv1_2 -> conv1_2
I1118 18:43:55.622967  3424 net.cpp:150] Setting up conv1_2
I1118 18:43:55.622977  3424 net.cpp:157] Top shape: 1 64 500 500 (16000000)
I1118 18:43:55.622979  3424 net.cpp:165] Memory required for data: 227000000
I1118 18:43:55.622987  3424 layer_factory.hpp:77] Creating layer relu1_2
I1118 18:43:55.622992  3424 net.cpp:100] Creating Layer relu1_2
I1118 18:43:55.622994  3424 net.cpp:434] relu1_2 <- conv1_2
I1118 18:43:55.622997  3424 net.cpp:395] relu1_2 -> conv1_2 (in-place)
I1118 18:43:55.623054  3424 net.cpp:150] Setting up relu1_2
I1118 18:43:55.623076  3424 net.cpp:157] Top shape: 1 64 500 500 (16000000)
I1118 18:43:55.623078  3424 net.cpp:165] Memory required for data: 291000000
I1118 18:43:55.623081  3424 layer_factory.hpp:77] Creating layer conv1_2_relu1_2_0_split
I1118 18:43:55.623088  3424 net.cpp:100] Creating Layer conv1_2_relu1_2_0_split
I1118 18:43:55.623090  3424 net.cpp:434] conv1_2_relu1_2_0_split <- conv1_2
I1118 18:43:55.623095  3424 net.cpp:408] conv1_2_relu1_2_0_split -> conv1_2_relu1_2_0_split_0
I1118 18:43:55.623100  3424 net.cpp:408] conv1_2_relu1_2_0_split -> conv1_2_relu1_2_0_split_1
I1118 18:43:55.623128  3424 net.cpp:150] Setting up conv1_2_relu1_2_0_split
I1118 18:43:55.623133  3424 net.cpp:157] Top shape: 1 64 500 500 (16000000)
I1118 18:43:55.623136  3424 net.cpp:157] Top shape: 1 64 500 500 (16000000)
I1118 18:43:55.623138  3424 net.cpp:165] Memory required for data: 419000000
I1118 18:43:55.623140  3424 layer_factory.hpp:77] Creating layer pool1
I1118 18:43:55.623147  3424 net.cpp:100] Creating Layer pool1
I1118 18:43:55.623149  3424 net.cpp:434] pool1 <- conv1_2_relu1_2_0_split_0
I1118 18:43:55.623152  3424 net.cpp:408] pool1 -> pool1
I1118 18:43:55.623179  3424 net.cpp:150] Setting up pool1
I1118 18:43:55.623200  3424 net.cpp:157] Top shape: 1 64 250 250 (4000000)
I1118 18:43:55.623203  3424 net.cpp:165] Memory required for data: 435000000
I1118 18:43:55.623205  3424 layer_factory.hpp:77] Creating layer conv2_1
I1118 18:43:55.623210  3424 net.cpp:100] Creating Layer conv2_1
I1118 18:43:55.623214  3424 net.cpp:434] conv2_1 <- pool1
I1118 18:43:55.623217  3424 net.cpp:408] conv2_1 -> conv2_1
I1118 18:43:55.623833  3424 net.cpp:150] Setting up conv2_1
I1118 18:43:55.623843  3424 net.cpp:157] Top shape: 1 128 250 250 (8000000)
I1118 18:43:55.623845  3424 net.cpp:165] Memory required for data: 467000000
I1118 18:43:55.623853  3424 layer_factory.hpp:77] Creating layer relu2_1
I1118 18:43:55.623857  3424 net.cpp:100] Creating Layer relu2_1
I1118 18:43:55.623860  3424 net.cpp:434] relu2_1 <- conv2_1
I1118 18:43:55.623863  3424 net.cpp:395] relu2_1 -> conv2_1 (in-place)
I1118 18:43:55.624002  3424 net.cpp:150] Setting up relu2_1
I1118 18:43:55.624011  3424 net.cpp:157] Top shape: 1 128 250 250 (8000000)
I1118 18:43:55.624013  3424 net.cpp:165] Memory required for data: 499000000
I1118 18:43:55.624016  3424 layer_factory.hpp:77] Creating layer conv2_2
I1118 18:43:55.624022  3424 net.cpp:100] Creating Layer conv2_2
I1118 18:43:55.624025  3424 net.cpp:434] conv2_2 <- conv2_1
I1118 18:43:55.624029  3424 net.cpp:408] conv2_2 -> conv2_2
I1118 18:43:55.625613  3424 net.cpp:150] Setting up conv2_2
I1118 18:43:55.625624  3424 net.cpp:157] Top shape: 1 128 250 250 (8000000)
I1118 18:43:55.625641  3424 net.cpp:165] Memory required for data: 531000000
I1118 18:43:55.625648  3424 layer_factory.hpp:77] Creating layer relu2_2
I1118 18:43:55.625653  3424 net.cpp:100] Creating Layer relu2_2
I1118 18:43:55.625655  3424 net.cpp:434] relu2_2 <- conv2_2
I1118 18:43:55.625659  3424 net.cpp:395] relu2_2 -> conv2_2 (in-place)
I1118 18:43:55.625787  3424 net.cpp:150] Setting up relu2_2
I1118 18:43:55.625795  3424 net.cpp:157] Top shape: 1 128 250 250 (8000000)
I1118 18:43:55.625798  3424 net.cpp:165] Memory required for data: 563000000
I1118 18:43:55.625802  3424 layer_factory.hpp:77] Creating layer conv2_2_relu2_2_0_split
I1118 18:43:55.625805  3424 net.cpp:100] Creating Layer conv2_2_relu2_2_0_split
I1118 18:43:55.625808  3424 net.cpp:434] conv2_2_relu2_2_0_split <- conv2_2
I1118 18:43:55.625813  3424 net.cpp:408] conv2_2_relu2_2_0_split -> conv2_2_relu2_2_0_split_0
I1118 18:43:55.625818  3424 net.cpp:408] conv2_2_relu2_2_0_split -> conv2_2_relu2_2_0_split_1
I1118 18:43:55.625823  3424 net.cpp:408] conv2_2_relu2_2_0_split -> conv2_2_relu2_2_0_split_2
I1118 18:43:55.625859  3424 net.cpp:150] Setting up conv2_2_relu2_2_0_split
I1118 18:43:55.625864  3424 net.cpp:157] Top shape: 1 128 250 250 (8000000)
I1118 18:43:55.625866  3424 net.cpp:157] Top shape: 1 128 250 250 (8000000)
I1118 18:43:55.625869  3424 net.cpp:157] Top shape: 1 128 250 250 (8000000)
I1118 18:43:55.625870  3424 net.cpp:165] Memory required for data: 659000000
I1118 18:43:55.625874  3424 layer_factory.hpp:77] Creating layer pool2
I1118 18:43:55.625877  3424 net.cpp:100] Creating Layer pool2
I1118 18:43:55.625880  3424 net.cpp:434] pool2 <- conv2_2_relu2_2_0_split_0
I1118 18:43:55.625883  3424 net.cpp:408] pool2 -> pool2
I1118 18:43:55.625907  3424 net.cpp:150] Setting up pool2
I1118 18:43:55.625912  3424 net.cpp:157] Top shape: 1 128 125 125 (2000000)
I1118 18:43:55.625914  3424 net.cpp:165] Memory required for data: 667000000
I1118 18:43:55.625933  3424 layer_factory.hpp:77] Creating layer conv3_1
I1118 18:43:55.625941  3424 net.cpp:100] Creating Layer conv3_1
I1118 18:43:55.625943  3424 net.cpp:434] conv3_1 <- pool2
I1118 18:43:55.625947  3424 net.cpp:408] conv3_1 -> conv3_1
I1118 18:43:55.627393  3424 net.cpp:150] Setting up conv3_1
I1118 18:43:55.627404  3424 net.cpp:157] Top shape: 1 256 125 125 (4000000)
I1118 18:43:55.627406  3424 net.cpp:165] Memory required for data: 683000000
I1118 18:43:55.627413  3424 layer_factory.hpp:77] Creating layer relu3_1
I1118 18:43:55.627418  3424 net.cpp:100] Creating Layer relu3_1
I1118 18:43:55.627421  3424 net.cpp:434] relu3_1 <- conv3_1
I1118 18:43:55.627424  3424 net.cpp:395] relu3_1 -> conv3_1 (in-place)
I1118 18:43:55.627583  3424 net.cpp:150] Setting up relu3_1
I1118 18:43:55.627593  3424 net.cpp:157] Top shape: 1 256 125 125 (4000000)
I1118 18:43:55.627595  3424 net.cpp:165] Memory required for data: 699000000
I1118 18:43:55.627598  3424 layer_factory.hpp:77] Creating layer conv3_2
I1118 18:43:55.627604  3424 net.cpp:100] Creating Layer conv3_2
I1118 18:43:55.627607  3424 net.cpp:434] conv3_2 <- conv3_1
I1118 18:43:55.627612  3424 net.cpp:408] conv3_2 -> conv3_2
I1118 18:43:55.629348  3424 net.cpp:150] Setting up conv3_2
I1118 18:43:55.629359  3424 net.cpp:157] Top shape: 1 256 125 125 (4000000)
I1118 18:43:55.629360  3424 net.cpp:165] Memory required for data: 715000000
I1118 18:43:55.629365  3424 layer_factory.hpp:77] Creating layer relu3_2
I1118 18:43:55.629369  3424 net.cpp:100] Creating Layer relu3_2
I1118 18:43:55.629372  3424 net.cpp:434] relu3_2 <- conv3_2
I1118 18:43:55.629376  3424 net.cpp:395] relu3_2 -> conv3_2 (in-place)
I1118 18:43:55.629432  3424 net.cpp:150] Setting up relu3_2
I1118 18:43:55.629438  3424 net.cpp:157] Top shape: 1 256 125 125 (4000000)
I1118 18:43:55.629456  3424 net.cpp:165] Memory required for data: 731000000
I1118 18:43:55.629459  3424 layer_factory.hpp:77] Creating layer conv3_3
I1118 18:43:55.629467  3424 net.cpp:100] Creating Layer conv3_3
I1118 18:43:55.629468  3424 net.cpp:434] conv3_3 <- conv3_2
I1118 18:43:55.629472  3424 net.cpp:408] conv3_3 -> conv3_3
I1118 18:43:55.631290  3424 net.cpp:150] Setting up conv3_3
I1118 18:43:55.631320  3424 net.cpp:157] Top shape: 1 256 125 125 (4000000)
I1118 18:43:55.631323  3424 net.cpp:165] Memory required for data: 747000000
I1118 18:43:55.631328  3424 layer_factory.hpp:77] Creating layer relu3_3
I1118 18:43:55.631332  3424 net.cpp:100] Creating Layer relu3_3
I1118 18:43:55.631335  3424 net.cpp:434] relu3_3 <- conv3_3
I1118 18:43:55.631341  3424 net.cpp:395] relu3_3 -> conv3_3 (in-place)
I1118 18:43:55.631407  3424 net.cpp:150] Setting up relu3_3
I1118 18:43:55.631413  3424 net.cpp:157] Top shape: 1 256 125 125 (4000000)
I1118 18:43:55.631415  3424 net.cpp:165] Memory required for data: 763000000
I1118 18:43:55.631418  3424 layer_factory.hpp:77] Creating layer conv3_3_relu3_3_0_split
I1118 18:43:55.631424  3424 net.cpp:100] Creating Layer conv3_3_relu3_3_0_split
I1118 18:43:55.631428  3424 net.cpp:434] conv3_3_relu3_3_0_split <- conv3_3
I1118 18:43:55.631433  3424 net.cpp:408] conv3_3_relu3_3_0_split -> conv3_3_relu3_3_0_split_0
I1118 18:43:55.631438  3424 net.cpp:408] conv3_3_relu3_3_0_split -> conv3_3_relu3_3_0_split_1
I1118 18:43:55.631448  3424 net.cpp:408] conv3_3_relu3_3_0_split -> conv3_3_relu3_3_0_split_2
I1118 18:43:55.631486  3424 net.cpp:150] Setting up conv3_3_relu3_3_0_split
I1118 18:43:55.631491  3424 net.cpp:157] Top shape: 1 256 125 125 (4000000)
I1118 18:43:55.631496  3424 net.cpp:157] Top shape: 1 256 125 125 (4000000)
I1118 18:43:55.631500  3424 net.cpp:157] Top shape: 1 256 125 125 (4000000)
I1118 18:43:55.631500  3424 net.cpp:165] Memory required for data: 811000000
I1118 18:43:55.631518  3424 layer_factory.hpp:77] Creating layer pool3
I1118 18:43:55.631523  3424 net.cpp:100] Creating Layer pool3
I1118 18:43:55.631525  3424 net.cpp:434] pool3 <- conv3_3_relu3_3_0_split_0
I1118 18:43:55.631530  3424 net.cpp:408] pool3 -> pool3
I1118 18:43:55.631558  3424 net.cpp:150] Setting up pool3
I1118 18:43:55.631563  3424 net.cpp:157] Top shape: 1 256 63 63 (1016064)
I1118 18:43:55.631566  3424 net.cpp:165] Memory required for data: 815064256
I1118 18:43:55.631567  3424 layer_factory.hpp:77] Creating layer conv4_1
I1118 18:43:55.631575  3424 net.cpp:100] Creating Layer conv4_1
I1118 18:43:55.631577  3424 net.cpp:434] conv4_1 <- pool3
I1118 18:43:55.631582  3424 net.cpp:408] conv4_1 -> conv4_1
I1118 18:43:55.635615  3424 net.cpp:150] Setting up conv4_1
I1118 18:43:55.635627  3424 net.cpp:157] Top shape: 1 512 63 63 (2032128)
I1118 18:43:55.635644  3424 net.cpp:165] Memory required for data: 823192768
I1118 18:43:55.635649  3424 layer_factory.hpp:77] Creating layer relu4_1
I1118 18:43:55.635654  3424 net.cpp:100] Creating Layer relu4_1
I1118 18:43:55.635658  3424 net.cpp:434] relu4_1 <- conv4_1
I1118 18:43:55.635663  3424 net.cpp:395] relu4_1 -> conv4_1 (in-place)
I1118 18:43:55.635733  3424 net.cpp:150] Setting up relu4_1
I1118 18:43:55.635740  3424 net.cpp:157] Top shape: 1 512 63 63 (2032128)
I1118 18:43:55.635742  3424 net.cpp:165] Memory required for data: 831321280
I1118 18:43:55.635746  3424 layer_factory.hpp:77] Creating layer conv4_2
I1118 18:43:55.635754  3424 net.cpp:100] Creating Layer conv4_2
I1118 18:43:55.635757  3424 net.cpp:434] conv4_2 <- conv4_1
I1118 18:43:55.635762  3424 net.cpp:408] conv4_2 -> conv4_2
I1118 18:43:55.640780  3424 net.cpp:150] Setting up conv4_2
I1118 18:43:55.640791  3424 net.cpp:157] Top shape: 1 512 63 63 (2032128)
I1118 18:43:55.640808  3424 net.cpp:165] Memory required for data: 839449792
I1118 18:43:55.640820  3424 layer_factory.hpp:77] Creating layer relu4_2
I1118 18:43:55.640823  3424 net.cpp:100] Creating Layer relu4_2
I1118 18:43:55.640826  3424 net.cpp:434] relu4_2 <- conv4_2
I1118 18:43:55.640830  3424 net.cpp:395] relu4_2 -> conv4_2 (in-place)
I1118 18:43:55.640985  3424 net.cpp:150] Setting up relu4_2
I1118 18:43:55.641010  3424 net.cpp:157] Top shape: 1 512 63 63 (2032128)
I1118 18:43:55.641012  3424 net.cpp:165] Memory required for data: 847578304
I1118 18:43:55.641014  3424 layer_factory.hpp:77] Creating layer conv4_3
I1118 18:43:55.641023  3424 net.cpp:100] Creating Layer conv4_3
I1118 18:43:55.641026  3424 net.cpp:434] conv4_3 <- conv4_2
I1118 18:43:55.641031  3424 net.cpp:408] conv4_3 -> conv4_3
I1118 18:43:55.646054  3424 net.cpp:150] Setting up conv4_3
I1118 18:43:55.646064  3424 net.cpp:157] Top shape: 1 512 63 63 (2032128)
I1118 18:43:55.646082  3424 net.cpp:165] Memory required for data: 855706816
I1118 18:43:55.646087  3424 layer_factory.hpp:77] Creating layer relu4_3
I1118 18:43:55.646092  3424 net.cpp:100] Creating Layer relu4_3
I1118 18:43:55.646097  3424 net.cpp:434] relu4_3 <- conv4_3
I1118 18:43:55.646101  3424 net.cpp:395] relu4_3 -> conv4_3 (in-place)
I1118 18:43:55.646253  3424 net.cpp:150] Setting up relu4_3
I1118 18:43:55.646262  3424 net.cpp:157] Top shape: 1 512 63 63 (2032128)
I1118 18:43:55.646265  3424 net.cpp:165] Memory required for data: 863835328
I1118 18:43:55.646268  3424 layer_factory.hpp:77] Creating layer conv4_3_relu4_3_0_split
I1118 18:43:55.646275  3424 net.cpp:100] Creating Layer conv4_3_relu4_3_0_split
I1118 18:43:55.646277  3424 net.cpp:434] conv4_3_relu4_3_0_split <- conv4_3
I1118 18:43:55.646283  3424 net.cpp:408] conv4_3_relu4_3_0_split -> conv4_3_relu4_3_0_split_0
I1118 18:43:55.646289  3424 net.cpp:408] conv4_3_relu4_3_0_split -> conv4_3_relu4_3_0_split_1
I1118 18:43:55.646294  3424 net.cpp:408] conv4_3_relu4_3_0_split -> conv4_3_relu4_3_0_split_2
I1118 18:43:55.646353  3424 net.cpp:150] Setting up conv4_3_relu4_3_0_split
I1118 18:43:55.646361  3424 net.cpp:157] Top shape: 1 512 63 63 (2032128)
I1118 18:43:55.646365  3424 net.cpp:157] Top shape: 1 512 63 63 (2032128)
I1118 18:43:55.646369  3424 net.cpp:157] Top shape: 1 512 63 63 (2032128)
I1118 18:43:55.646373  3424 net.cpp:165] Memory required for data: 888220864
I1118 18:43:55.646376  3424 layer_factory.hpp:77] Creating layer pool4
I1118 18:43:55.646385  3424 net.cpp:100] Creating Layer pool4
I1118 18:43:55.646389  3424 net.cpp:434] pool4 <- conv4_3_relu4_3_0_split_0
I1118 18:43:55.646397  3424 net.cpp:408] pool4 -> pool4
I1118 18:43:55.646435  3424 net.cpp:150] Setting up pool4
I1118 18:43:55.646441  3424 net.cpp:157] Top shape: 1 512 32 32 (524288)
I1118 18:43:55.646445  3424 net.cpp:165] Memory required for data: 890318016
I1118 18:43:55.646447  3424 layer_factory.hpp:77] Creating layer conv5_1
I1118 18:43:55.646466  3424 net.cpp:100] Creating Layer conv5_1
I1118 18:43:55.646468  3424 net.cpp:434] conv5_1 <- pool4
I1118 18:43:55.646472  3424 net.cpp:408] conv5_1 -> conv5_1
I1118 18:43:55.652598  3424 net.cpp:150] Setting up conv5_1
I1118 18:43:55.652628  3424 net.cpp:157] Top shape: 1 512 32 32 (524288)
I1118 18:43:55.652631  3424 net.cpp:165] Memory required for data: 892415168
I1118 18:43:55.652637  3424 layer_factory.hpp:77] Creating layer relu5_1
I1118 18:43:55.652643  3424 net.cpp:100] Creating Layer relu5_1
I1118 18:43:55.652647  3424 net.cpp:434] relu5_1 <- conv5_1
I1118 18:43:55.652652  3424 net.cpp:395] relu5_1 -> conv5_1 (in-place)
I1118 18:43:55.652724  3424 net.cpp:150] Setting up relu5_1
I1118 18:43:55.652730  3424 net.cpp:157] Top shape: 1 512 32 32 (524288)
I1118 18:43:55.652732  3424 net.cpp:165] Memory required for data: 894512320
I1118 18:43:55.652735  3424 layer_factory.hpp:77] Creating layer conv5_2
I1118 18:43:55.652743  3424 net.cpp:100] Creating Layer conv5_2
I1118 18:43:55.652746  3424 net.cpp:434] conv5_2 <- conv5_1
I1118 18:43:55.652750  3424 net.cpp:408] conv5_2 -> conv5_2
I1118 18:43:55.657718  3424 net.cpp:150] Setting up conv5_2
I1118 18:43:55.657729  3424 net.cpp:157] Top shape: 1 512 32 32 (524288)
I1118 18:43:55.657747  3424 net.cpp:165] Memory required for data: 896609472
I1118 18:43:55.657752  3424 layer_factory.hpp:77] Creating layer relu5_2
I1118 18:43:55.657757  3424 net.cpp:100] Creating Layer relu5_2
I1118 18:43:55.657759  3424 net.cpp:434] relu5_2 <- conv5_2
I1118 18:43:55.657765  3424 net.cpp:395] relu5_2 -> conv5_2 (in-place)
I1118 18:43:55.657831  3424 net.cpp:150] Setting up relu5_2
I1118 18:43:55.657838  3424 net.cpp:157] Top shape: 1 512 32 32 (524288)
I1118 18:43:55.657840  3424 net.cpp:165] Memory required for data: 898706624
I1118 18:43:55.657843  3424 layer_factory.hpp:77] Creating layer conv5_3
I1118 18:43:55.657851  3424 net.cpp:100] Creating Layer conv5_3
I1118 18:43:55.657855  3424 net.cpp:434] conv5_3 <- conv5_2
I1118 18:43:55.657858  3424 net.cpp:408] conv5_3 -> conv5_3
I1118 18:43:55.662807  3424 net.cpp:150] Setting up conv5_3
I1118 18:43:55.662819  3424 net.cpp:157] Top shape: 1 512 32 32 (524288)
I1118 18:43:55.662822  3424 net.cpp:165] Memory required for data: 900803776
I1118 18:43:55.662827  3424 layer_factory.hpp:77] Creating layer relu5_3
I1118 18:43:55.662832  3424 net.cpp:100] Creating Layer relu5_3
I1118 18:43:55.662834  3424 net.cpp:434] relu5_3 <- conv5_3
I1118 18:43:55.662838  3424 net.cpp:395] relu5_3 -> conv5_3 (in-place)
I1118 18:43:55.662902  3424 net.cpp:150] Setting up relu5_3
I1118 18:43:55.662910  3424 net.cpp:157] Top shape: 1 512 32 32 (524288)
I1118 18:43:55.662912  3424 net.cpp:165] Memory required for data: 902900928
I1118 18:43:55.662930  3424 layer_factory.hpp:77] Creating layer conv5_3_relu5_3_0_split
I1118 18:43:55.662936  3424 net.cpp:100] Creating Layer conv5_3_relu5_3_0_split
I1118 18:43:55.662938  3424 net.cpp:434] conv5_3_relu5_3_0_split <- conv5_3
I1118 18:43:55.662942  3424 net.cpp:408] conv5_3_relu5_3_0_split -> conv5_3_relu5_3_0_split_0
I1118 18:43:55.662950  3424 net.cpp:408] conv5_3_relu5_3_0_split -> conv5_3_relu5_3_0_split_1
I1118 18:43:55.662955  3424 net.cpp:408] conv5_3_relu5_3_0_split -> conv5_3_relu5_3_0_split_2
I1118 18:43:55.663003  3424 net.cpp:150] Setting up conv5_3_relu5_3_0_split
I1118 18:43:55.663009  3424 net.cpp:157] Top shape: 1 512 32 32 (524288)
I1118 18:43:55.663012  3424 net.cpp:157] Top shape: 1 512 32 32 (524288)
I1118 18:43:55.663015  3424 net.cpp:157] Top shape: 1 512 32 32 (524288)
I1118 18:43:55.663017  3424 net.cpp:165] Memory required for data: 909192384
I1118 18:43:55.663019  3424 layer_factory.hpp:77] Creating layer pool5
I1118 18:43:55.663026  3424 net.cpp:100] Creating Layer pool5
I1118 18:43:55.663028  3424 net.cpp:434] pool5 <- conv5_3_relu5_3_0_split_0
I1118 18:43:55.663033  3424 net.cpp:408] pool5 -> pool5
I1118 18:43:55.663079  3424 net.cpp:150] Setting up pool5
I1118 18:43:55.663084  3424 net.cpp:157] Top shape: 1 512 17 17 (147968)
I1118 18:43:55.663086  3424 net.cpp:165] Memory required for data: 909784256
I1118 18:43:55.663089  3424 layer_factory.hpp:77] Creating layer conv1-dsn6
I1118 18:43:55.663097  3424 net.cpp:100] Creating Layer conv1-dsn6
I1118 18:43:55.663100  3424 net.cpp:434] conv1-dsn6 <- pool5
I1118 18:43:55.663106  3424 net.cpp:408] conv1-dsn6 -> conv1-dsn6
I1118 18:43:55.664731  3424 net.cpp:150] Setting up conv1-dsn6
I1118 18:43:55.664741  3424 net.cpp:157] Top shape: 1 256 17 17 (73984)
I1118 18:43:55.664743  3424 net.cpp:165] Memory required for data: 910080192
I1118 18:43:55.664747  3424 layer_factory.hpp:77] Creating layer conv2-dsn6
I1118 18:43:55.664755  3424 net.cpp:100] Creating Layer conv2-dsn6
I1118 18:43:55.664758  3424 net.cpp:434] conv2-dsn6 <- conv1-dsn6
I1118 18:43:55.664764  3424 net.cpp:408] conv2-dsn6 -> conv2-dsn6
I1118 18:43:55.681267  3424 net.cpp:150] Setting up conv2-dsn6
I1118 18:43:55.681282  3424 net.cpp:157] Top shape: 1 256 17 17 (73984)
I1118 18:43:55.681283  3424 net.cpp:165] Memory required for data: 910376128
I1118 18:43:55.681288  3424 layer_factory.hpp:77] Creating layer relu1-dsn6
I1118 18:43:55.681296  3424 net.cpp:100] Creating Layer relu1-dsn6
I1118 18:43:55.681303  3424 net.cpp:434] relu1-dsn6 <- conv2-dsn6
I1118 18:43:55.681308  3424 net.cpp:395] relu1-dsn6 -> conv2-dsn6 (in-place)
I1118 18:43:55.681372  3424 net.cpp:150] Setting up relu1-dsn6
I1118 18:43:55.681380  3424 net.cpp:157] Top shape: 1 256 17 17 (73984)
I1118 18:43:55.681380  3424 net.cpp:165] Memory required for data: 910672064
I1118 18:43:55.681383  3424 layer_factory.hpp:77] Creating layer conv3-dsn6
I1118 18:43:55.681407  3424 net.cpp:100] Creating Layer conv3-dsn6
I1118 18:43:55.681411  3424 net.cpp:434] conv3-dsn6 <- conv2-dsn6
I1118 18:43:55.681416  3424 net.cpp:408] conv3-dsn6 -> conv3-dsn6
I1118 18:43:55.696743  3424 net.cpp:150] Setting up conv3-dsn6
I1118 18:43:55.696753  3424 net.cpp:157] Top shape: 1 256 17 17 (73984)
I1118 18:43:55.696755  3424 net.cpp:165] Memory required for data: 910968000
I1118 18:43:55.696760  3424 layer_factory.hpp:77] Creating layer relu2-dsn6
I1118 18:43:55.696765  3424 net.cpp:100] Creating Layer relu2-dsn6
I1118 18:43:55.696768  3424 net.cpp:434] relu2-dsn6 <- conv3-dsn6
I1118 18:43:55.696774  3424 net.cpp:395] relu2-dsn6 -> conv3-dsn6 (in-place)
I1118 18:43:55.696835  3424 net.cpp:150] Setting up relu2-dsn6
I1118 18:43:55.696841  3424 net.cpp:157] Top shape: 1 256 17 17 (73984)
I1118 18:43:55.696842  3424 net.cpp:165] Memory required for data: 911263936
I1118 18:43:55.696844  3424 layer_factory.hpp:77] Creating layer conv4-dsn6
I1118 18:43:55.696851  3424 net.cpp:100] Creating Layer conv4-dsn6
I1118 18:43:55.696853  3424 net.cpp:434] conv4-dsn6 <- conv3-dsn6
I1118 18:43:55.696875  3424 net.cpp:408] conv4-dsn6 -> conv4-dsn6
I1118 18:43:55.712262  3424 net.cpp:150] Setting up conv4-dsn6
I1118 18:43:55.712273  3424 net.cpp:157] Top shape: 1 256 17 17 (73984)
I1118 18:43:55.712291  3424 net.cpp:165] Memory required for data: 911559872
I1118 18:43:55.712309  3424 layer_factory.hpp:77] Creating layer relu3-dsn6
I1118 18:43:55.712316  3424 net.cpp:100] Creating Layer relu3-dsn6
I1118 18:43:55.712319  3424 net.cpp:434] relu3-dsn6 <- conv4-dsn6
I1118 18:43:55.712325  3424 net.cpp:395] relu3-dsn6 -> conv4-dsn6 (in-place)
I1118 18:43:55.712517  3424 net.cpp:150] Setting up relu3-dsn6
I1118 18:43:55.712527  3424 net.cpp:157] Top shape: 1 256 17 17 (73984)
I1118 18:43:55.712528  3424 net.cpp:165] Memory required for data: 911855808
I1118 18:43:55.712532  3424 layer_factory.hpp:77] Creating layer conv5-dsn6
I1118 18:43:55.712543  3424 net.cpp:100] Creating Layer conv5-dsn6
I1118 18:43:55.712545  3424 net.cpp:434] conv5-dsn6 <- conv4-dsn6
I1118 18:43:55.712550  3424 net.cpp:408] conv5-dsn6 -> conv5-dsn6
I1118 18:43:55.713044  3424 net.cpp:150] Setting up conv5-dsn6
I1118 18:43:55.713053  3424 net.cpp:157] Top shape: 1 1 17 17 (289)
I1118 18:43:55.713070  3424 net.cpp:165] Memory required for data: 911856964
I1118 18:43:55.713076  3424 layer_factory.hpp:77] Creating layer conv5-dsn6_conv5-dsn6_0_split
I1118 18:43:55.713099  3424 net.cpp:100] Creating Layer conv5-dsn6_conv5-dsn6_0_split
I1118 18:43:55.713100  3424 net.cpp:434] conv5-dsn6_conv5-dsn6_0_split <- conv5-dsn6
I1118 18:43:55.713105  3424 net.cpp:408] conv5-dsn6_conv5-dsn6_0_split -> conv5-dsn6_conv5-dsn6_0_split_0
I1118 18:43:55.713112  3424 net.cpp:408] conv5-dsn6_conv5-dsn6_0_split -> conv5-dsn6_conv5-dsn6_0_split_1
I1118 18:43:55.713141  3424 net.cpp:150] Setting up conv5-dsn6_conv5-dsn6_0_split
I1118 18:43:55.713145  3424 net.cpp:157] Top shape: 1 1 17 17 (289)
I1118 18:43:55.713147  3424 net.cpp:157] Top shape: 1 1 17 17 (289)
I1118 18:43:55.713150  3424 net.cpp:165] Memory required for data: 911859276
I1118 18:43:55.713151  3424 layer_factory.hpp:77] Creating layer upsample32_dsn6
I1118 18:43:55.713158  3424 net.cpp:100] Creating Layer upsample32_dsn6
I1118 18:43:55.713161  3424 net.cpp:434] upsample32_dsn6 <- conv5-dsn6_conv5-dsn6_0_split_0
I1118 18:43:55.713181  3424 net.cpp:408] upsample32_dsn6 -> conv5-dsn6-up
I1118 18:43:55.714362  3424 net.cpp:150] Setting up upsample32_dsn6
I1118 18:43:55.714372  3424 net.cpp:157] Top shape: 1 1 576 576 (331776)
I1118 18:43:55.714375  3424 net.cpp:165] Memory required for data: 913186380
I1118 18:43:55.714378  3424 layer_factory.hpp:77] Creating layer crop-dsn6
I1118 18:43:55.714385  3424 net.cpp:100] Creating Layer crop-dsn6
I1118 18:43:55.714386  3424 net.cpp:434] crop-dsn6 <- conv5-dsn6-up
I1118 18:43:55.714390  3424 net.cpp:434] crop-dsn6 <- data_augmentation_0_split_1
I1118 18:43:55.714395  3424 net.cpp:408] crop-dsn6 -> upscore-dsn6
I1118 18:43:55.714419  3424 net.cpp:150] Setting up crop-dsn6
I1118 18:43:55.714440  3424 net.cpp:157] Top shape: 1 1 500 500 (250000)
I1118 18:43:55.714442  3424 net.cpp:165] Memory required for data: 914186380
I1118 18:43:55.714444  3424 layer_factory.hpp:77] Creating layer loss6-score
I1118 18:43:55.714452  3424 net.cpp:100] Creating Layer loss6-score
I1118 18:43:55.714454  3424 net.cpp:434] loss6-score <- upscore-dsn6
I1118 18:43:55.714458  3424 net.cpp:434] loss6-score <- label_augmentation_1_split_0
I1118 18:43:55.714463  3424 net.cpp:408] loss6-score -> loss6-score
I1118 18:43:55.715456  3424 net.cpp:150] Setting up loss6-score
I1118 18:43:55.715464  3424 net.cpp:157] Top shape: (1)
I1118 18:43:55.715466  3424 net.cpp:160]     with loss weight 1
I1118 18:43:55.715481  3424 net.cpp:165] Memory required for data: 914186384
I1118 18:43:55.715483  3424 layer_factory.hpp:77] Creating layer upsample2_dsn5
I1118 18:43:55.715490  3424 net.cpp:100] Creating Layer upsample2_dsn5
I1118 18:43:55.715492  3424 net.cpp:434] upsample2_dsn5 <- conv5-dsn6_conv5-dsn6_0_split_1
I1118 18:43:55.715498  3424 net.cpp:408] upsample2_dsn5 -> conv5-dsn6-5
I1118 18:43:55.715711  3424 net.cpp:150] Setting up upsample2_dsn5
I1118 18:43:55.715718  3424 net.cpp:157] Top shape: 1 1 36 36 (1296)
I1118 18:43:55.715720  3424 net.cpp:165] Memory required for data: 914191568
I1118 18:43:55.715724  3424 layer_factory.hpp:77] Creating layer crop1-dsn5
I1118 18:43:55.715729  3424 net.cpp:100] Creating Layer crop1-dsn5
I1118 18:43:55.715731  3424 net.cpp:434] crop1-dsn5 <- conv5-dsn6-5
I1118 18:43:55.715735  3424 net.cpp:434] crop1-dsn5 <- conv5_3_relu5_3_0_split_1
I1118 18:43:55.715740  3424 net.cpp:408] crop1-dsn5 -> weight-dsn6-5
I1118 18:43:55.715759  3424 net.cpp:150] Setting up crop1-dsn5
I1118 18:43:55.715764  3424 net.cpp:157] Top shape: 1 1 32 32 (1024)
I1118 18:43:55.715766  3424 net.cpp:165] Memory required for data: 914195664
I1118 18:43:55.715768  3424 layer_factory.hpp:77] Creating layer weight-dsn6-5_crop1-dsn5_0_split
I1118 18:43:55.715772  3424 net.cpp:100] Creating Layer weight-dsn6-5_crop1-dsn5_0_split
I1118 18:43:55.715775  3424 net.cpp:434] weight-dsn6-5_crop1-dsn5_0_split <- weight-dsn6-5
I1118 18:43:55.715778  3424 net.cpp:408] weight-dsn6-5_crop1-dsn5_0_split -> weight-dsn6-5_crop1-dsn5_0_split_0
I1118 18:43:55.715785  3424 net.cpp:408] weight-dsn6-5_crop1-dsn5_0_split -> weight-dsn6-5_crop1-dsn5_0_split_1
I1118 18:43:55.715811  3424 net.cpp:150] Setting up weight-dsn6-5_crop1-dsn5_0_split
I1118 18:43:55.715814  3424 net.cpp:157] Top shape: 1 1 32 32 (1024)
I1118 18:43:55.715817  3424 net.cpp:157] Top shape: 1 1 32 32 (1024)
I1118 18:43:55.715819  3424 net.cpp:165] Memory required for data: 914203856
I1118 18:43:55.715822  3424 layer_factory.hpp:77] Creating layer sigmoid-dsn5
I1118 18:43:55.715828  3424 net.cpp:100] Creating Layer sigmoid-dsn5
I1118 18:43:55.715831  3424 net.cpp:434] sigmoid-dsn5 <- weight-dsn6-5_crop1-dsn5_0_split_0
I1118 18:43:55.715833  3424 net.cpp:408] sigmoid-dsn5 -> sigmoid-dsn5
I1118 18:43:55.716012  3424 net.cpp:150] Setting up sigmoid-dsn5
I1118 18:43:55.716020  3424 net.cpp:157] Top shape: 1 1 32 32 (1024)
I1118 18:43:55.716022  3424 net.cpp:165] Memory required for data: 914207952
I1118 18:43:55.716025  3424 layer_factory.hpp:77] Creating layer rev-dsn5
I1118 18:43:55.716032  3424 net.cpp:100] Creating Layer rev-dsn5
I1118 18:43:55.716034  3424 net.cpp:434] rev-dsn5 <- sigmoid-dsn5
I1118 18:43:55.716042  3424 net.cpp:408] rev-dsn5 -> rev-dsn5
I1118 18:43:55.716071  3424 net.cpp:150] Setting up rev-dsn5
I1118 18:43:55.716078  3424 net.cpp:157] Top shape: 1 1 32 32 (1024)
I1118 18:43:55.716079  3424 net.cpp:165] Memory required for data: 914212048
I1118 18:43:55.716082  3424 layer_factory.hpp:77] Creating layer tile-dsn5
I1118 18:43:55.716086  3424 net.cpp:100] Creating Layer tile-dsn5
I1118 18:43:55.716089  3424 net.cpp:434] tile-dsn5 <- rev-dsn5
I1118 18:43:55.716094  3424 net.cpp:408] tile-dsn5 -> weight-dsn5
I1118 18:43:55.716111  3424 net.cpp:150] Setting up tile-dsn5
I1118 18:43:55.716115  3424 net.cpp:157] Top shape: 1 512 32 32 (524288)
I1118 18:43:55.716117  3424 net.cpp:165] Memory required for data: 916309200
I1118 18:43:55.716120  3424 layer_factory.hpp:77] Creating layer prod1-dsn5
I1118 18:43:55.716125  3424 net.cpp:100] Creating Layer prod1-dsn5
I1118 18:43:55.716126  3424 net.cpp:434] prod1-dsn5 <- conv5_3_relu5_3_0_split_2
I1118 18:43:55.716130  3424 net.cpp:434] prod1-dsn5 <- weight-dsn5
I1118 18:43:55.716135  3424 net.cpp:408] prod1-dsn5 -> prod1-dsn5
I1118 18:43:55.716156  3424 net.cpp:150] Setting up prod1-dsn5
I1118 18:43:55.716159  3424 net.cpp:157] Top shape: 1 512 32 32 (524288)
I1118 18:43:55.716161  3424 net.cpp:165] Memory required for data: 918406352
I1118 18:43:55.716163  3424 layer_factory.hpp:77] Creating layer conv1-dsn5
I1118 18:43:55.716171  3424 net.cpp:100] Creating Layer conv1-dsn5
I1118 18:43:55.716173  3424 net.cpp:434] conv1-dsn5 <- prod1-dsn5
I1118 18:43:55.716178  3424 net.cpp:408] conv1-dsn5 -> conv1-dsn5
I1118 18:43:55.718178  3424 net.cpp:150] Setting up conv1-dsn5
I1118 18:43:55.718189  3424 net.cpp:157] Top shape: 1 64 32 32 (65536)
I1118 18:43:55.718190  3424 net.cpp:165] Memory required for data: 918668496
I1118 18:43:55.718196  3424 layer_factory.hpp:77] Creating layer conv2-dsn5
I1118 18:43:55.718206  3424 net.cpp:100] Creating Layer conv2-dsn5
I1118 18:43:55.718209  3424 net.cpp:434] conv2-dsn5 <- conv1-dsn5
I1118 18:43:55.718214  3424 net.cpp:408] conv2-dsn5 -> conv2-dsn5
I1118 18:43:55.719116  3424 net.cpp:150] Setting up conv2-dsn5
I1118 18:43:55.719128  3424 net.cpp:157] Top shape: 1 64 32 32 (65536)
I1118 18:43:55.719131  3424 net.cpp:165] Memory required for data: 918930640
I1118 18:43:55.719135  3424 layer_factory.hpp:77] Creating layer relu1-dsn5
I1118 18:43:55.719141  3424 net.cpp:100] Creating Layer relu1-dsn5
I1118 18:43:55.719142  3424 net.cpp:434] relu1-dsn5 <- conv2-dsn5
I1118 18:43:55.719146  3424 net.cpp:395] relu1-dsn5 -> conv2-dsn5 (in-place)
I1118 18:43:55.719332  3424 net.cpp:150] Setting up relu1-dsn5
I1118 18:43:55.719341  3424 net.cpp:157] Top shape: 1 64 32 32 (65536)
I1118 18:43:55.719343  3424 net.cpp:165] Memory required for data: 919192784
I1118 18:43:55.719347  3424 layer_factory.hpp:77] Creating layer conv3-dsn5
I1118 18:43:55.719355  3424 net.cpp:100] Creating Layer conv3-dsn5
I1118 18:43:55.719358  3424 net.cpp:434] conv3-dsn5 <- conv2-dsn5
I1118 18:43:55.719364  3424 net.cpp:408] conv3-dsn5 -> conv3-dsn5
I1118 18:43:55.720152  3424 net.cpp:150] Setting up conv3-dsn5
I1118 18:43:55.720167  3424 net.cpp:157] Top shape: 1 64 32 32 (65536)
I1118 18:43:55.720170  3424 net.cpp:165] Memory required for data: 919454928
I1118 18:43:55.720175  3424 layer_factory.hpp:77] Creating layer relu2-dsn5
I1118 18:43:55.720180  3424 net.cpp:100] Creating Layer relu2-dsn5
I1118 18:43:55.720181  3424 net.cpp:434] relu2-dsn5 <- conv3-dsn5
I1118 18:43:55.720185  3424 net.cpp:395] relu2-dsn5 -> conv3-dsn5 (in-place)
I1118 18:43:55.720353  3424 net.cpp:150] Setting up relu2-dsn5
I1118 18:43:55.720362  3424 net.cpp:157] Top shape: 1 64 32 32 (65536)
I1118 18:43:55.720365  3424 net.cpp:165] Memory required for data: 919717072
I1118 18:43:55.720367  3424 layer_factory.hpp:77] Creating layer conv4-dsn5
I1118 18:43:55.720386  3424 net.cpp:100] Creating Layer conv4-dsn5
I1118 18:43:55.720389  3424 net.cpp:434] conv4-dsn5 <- conv3-dsn5
I1118 18:43:55.720394  3424 net.cpp:408] conv4-dsn5 -> conv4-dsn5
I1118 18:43:55.721022  3424 net.cpp:150] Setting up conv4-dsn5
I1118 18:43:55.721032  3424 net.cpp:157] Top shape: 1 1 32 32 (1024)
I1118 18:43:55.721035  3424 net.cpp:165] Memory required for data: 919721168
I1118 18:43:55.721040  3424 layer_factory.hpp:77] Creating layer sum-dsn5
I1118 18:43:55.721046  3424 net.cpp:100] Creating Layer sum-dsn5
I1118 18:43:55.721050  3424 net.cpp:434] sum-dsn5 <- conv4-dsn5
I1118 18:43:55.721052  3424 net.cpp:434] sum-dsn5 <- weight-dsn6-5_crop1-dsn5_0_split_1
I1118 18:43:55.721058  3424 net.cpp:408] sum-dsn5 -> sum-dsn5
I1118 18:43:55.721076  3424 net.cpp:150] Setting up sum-dsn5
I1118 18:43:55.721079  3424 net.cpp:157] Top shape: 1 1 32 32 (1024)
I1118 18:43:55.721081  3424 net.cpp:165] Memory required for data: 919725264
I1118 18:43:55.721083  3424 layer_factory.hpp:77] Creating layer sum-dsn5_sum-dsn5_0_split
I1118 18:43:55.721089  3424 net.cpp:100] Creating Layer sum-dsn5_sum-dsn5_0_split
I1118 18:43:55.721092  3424 net.cpp:434] sum-dsn5_sum-dsn5_0_split <- sum-dsn5
I1118 18:43:55.721096  3424 net.cpp:408] sum-dsn5_sum-dsn5_0_split -> sum-dsn5_sum-dsn5_0_split_0
I1118 18:43:55.721101  3424 net.cpp:408] sum-dsn5_sum-dsn5_0_split -> sum-dsn5_sum-dsn5_0_split_1
I1118 18:43:55.721127  3424 net.cpp:150] Setting up sum-dsn5_sum-dsn5_0_split
I1118 18:43:55.721132  3424 net.cpp:157] Top shape: 1 1 32 32 (1024)
I1118 18:43:55.721134  3424 net.cpp:157] Top shape: 1 1 32 32 (1024)
I1118 18:43:55.721137  3424 net.cpp:165] Memory required for data: 919733456
I1118 18:43:55.721139  3424 layer_factory.hpp:77] Creating layer upsample16_dsn5
I1118 18:43:55.721145  3424 net.cpp:100] Creating Layer upsample16_dsn5
I1118 18:43:55.721148  3424 net.cpp:434] upsample16_dsn5 <- sum-dsn5_sum-dsn5_0_split_0
I1118 18:43:55.721153  3424 net.cpp:408] upsample16_dsn5 -> sum-dsn5-up
I1118 18:43:55.722280  3424 net.cpp:150] Setting up upsample16_dsn5
I1118 18:43:55.722290  3424 net.cpp:157] Top shape: 1 1 528 528 (278784)
I1118 18:43:55.722292  3424 net.cpp:165] Memory required for data: 920848592
I1118 18:43:55.722297  3424 layer_factory.hpp:77] Creating layer crop2-dsn5
I1118 18:43:55.722308  3424 net.cpp:100] Creating Layer crop2-dsn5
I1118 18:43:55.722312  3424 net.cpp:434] crop2-dsn5 <- sum-dsn5-up
I1118 18:43:55.722317  3424 net.cpp:434] crop2-dsn5 <- data_augmentation_0_split_2
I1118 18:43:55.722322  3424 net.cpp:408] crop2-dsn5 -> upscore-dsn5
I1118 18:43:55.722364  3424 net.cpp:150] Setting up crop2-dsn5
I1118 18:43:55.722371  3424 net.cpp:157] Top shape: 1 1 500 500 (250000)
I1118 18:43:55.722374  3424 net.cpp:165] Memory required for data: 921848592
I1118 18:43:55.722378  3424 layer_factory.hpp:77] Creating layer loss5-score
I1118 18:43:55.722388  3424 net.cpp:100] Creating Layer loss5-score
I1118 18:43:55.722391  3424 net.cpp:434] loss5-score <- upscore-dsn5
I1118 18:43:55.722394  3424 net.cpp:434] loss5-score <- label_augmentation_1_split_1
I1118 18:43:55.722399  3424 net.cpp:408] loss5-score -> loss5-score
I1118 18:43:55.722594  3424 net.cpp:150] Setting up loss5-score
I1118 18:43:55.722599  3424 net.cpp:157] Top shape: (1)
I1118 18:43:55.722601  3424 net.cpp:160]     with loss weight 1
I1118 18:43:55.722609  3424 net.cpp:165] Memory required for data: 921848596
I1118 18:43:55.722612  3424 layer_factory.hpp:77] Creating layer upsample2_dsn4
I1118 18:43:55.722620  3424 net.cpp:100] Creating Layer upsample2_dsn4
I1118 18:43:55.722622  3424 net.cpp:434] upsample2_dsn4 <- sum-dsn5_sum-dsn5_0_split_1
I1118 18:43:55.722627  3424 net.cpp:408] upsample2_dsn4 -> sum-dsn5-4
I1118 18:43:55.722810  3424 net.cpp:150] Setting up upsample2_dsn4
I1118 18:43:55.722816  3424 net.cpp:157] Top shape: 1 1 66 66 (4356)
I1118 18:43:55.722818  3424 net.cpp:165] Memory required for data: 921866020
I1118 18:43:55.722823  3424 layer_factory.hpp:77] Creating layer crop1-dsn4
I1118 18:43:55.722827  3424 net.cpp:100] Creating Layer crop1-dsn4
I1118 18:43:55.722829  3424 net.cpp:434] crop1-dsn4 <- sum-dsn5-4
I1118 18:43:55.722832  3424 net.cpp:434] crop1-dsn4 <- conv4_3_relu4_3_0_split_1
I1118 18:43:55.722838  3424 net.cpp:408] crop1-dsn4 -> weight-dsn5-4
I1118 18:43:55.722856  3424 net.cpp:150] Setting up crop1-dsn4
I1118 18:43:55.722862  3424 net.cpp:157] Top shape: 1 1 63 63 (3969)
I1118 18:43:55.722863  3424 net.cpp:165] Memory required for data: 921881896
I1118 18:43:55.722865  3424 layer_factory.hpp:77] Creating layer weight-dsn5-4_crop1-dsn4_0_split
I1118 18:43:55.722869  3424 net.cpp:100] Creating Layer weight-dsn5-4_crop1-dsn4_0_split
I1118 18:43:55.722872  3424 net.cpp:434] weight-dsn5-4_crop1-dsn4_0_split <- weight-dsn5-4
I1118 18:43:55.722878  3424 net.cpp:408] weight-dsn5-4_crop1-dsn4_0_split -> weight-dsn5-4_crop1-dsn4_0_split_0
I1118 18:43:55.722882  3424 net.cpp:408] weight-dsn5-4_crop1-dsn4_0_split -> weight-dsn5-4_crop1-dsn4_0_split_1
I1118 18:43:55.722908  3424 net.cpp:150] Setting up weight-dsn5-4_crop1-dsn4_0_split
I1118 18:43:55.722913  3424 net.cpp:157] Top shape: 1 1 63 63 (3969)
I1118 18:43:55.722915  3424 net.cpp:157] Top shape: 1 1 63 63 (3969)
I1118 18:43:55.722918  3424 net.cpp:165] Memory required for data: 921913648
I1118 18:43:55.722919  3424 layer_factory.hpp:77] Creating layer sigmoid-dsn4
I1118 18:43:55.722925  3424 net.cpp:100] Creating Layer sigmoid-dsn4
I1118 18:43:55.722928  3424 net.cpp:434] sigmoid-dsn4 <- weight-dsn5-4_crop1-dsn4_0_split_0
I1118 18:43:55.722931  3424 net.cpp:408] sigmoid-dsn4 -> sigmoid-dsn4
I1118 18:43:55.723011  3424 net.cpp:150] Setting up sigmoid-dsn4
I1118 18:43:55.723017  3424 net.cpp:157] Top shape: 1 1 63 63 (3969)
I1118 18:43:55.723019  3424 net.cpp:165] Memory required for data: 921929524
I1118 18:43:55.723021  3424 layer_factory.hpp:77] Creating layer rev-dsn4
I1118 18:43:55.723027  3424 net.cpp:100] Creating Layer rev-dsn4
I1118 18:43:55.723031  3424 net.cpp:434] rev-dsn4 <- sigmoid-dsn4
I1118 18:43:55.723033  3424 net.cpp:408] rev-dsn4 -> rev-dsn4
I1118 18:43:55.723052  3424 net.cpp:150] Setting up rev-dsn4
I1118 18:43:55.723055  3424 net.cpp:157] Top shape: 1 1 63 63 (3969)
I1118 18:43:55.723057  3424 net.cpp:165] Memory required for data: 921945400
I1118 18:43:55.723059  3424 layer_factory.hpp:77] Creating layer tile-dsn4
I1118 18:43:55.723063  3424 net.cpp:100] Creating Layer tile-dsn4
I1118 18:43:55.723065  3424 net.cpp:434] tile-dsn4 <- rev-dsn4
I1118 18:43:55.723069  3424 net.cpp:408] tile-dsn4 -> weight-dsn4
I1118 18:43:55.723083  3424 net.cpp:150] Setting up tile-dsn4
I1118 18:43:55.723086  3424 net.cpp:157] Top shape: 1 512 63 63 (2032128)
I1118 18:43:55.723089  3424 net.cpp:165] Memory required for data: 930073912
I1118 18:43:55.723091  3424 layer_factory.hpp:77] Creating layer prod1-dsn4
I1118 18:43:55.723098  3424 net.cpp:100] Creating Layer prod1-dsn4
I1118 18:43:55.723099  3424 net.cpp:434] prod1-dsn4 <- conv4_3_relu4_3_0_split_2
I1118 18:43:55.723103  3424 net.cpp:434] prod1-dsn4 <- weight-dsn4
I1118 18:43:55.723109  3424 net.cpp:408] prod1-dsn4 -> prod1-dsn4
I1118 18:43:55.723122  3424 net.cpp:150] Setting up prod1-dsn4
I1118 18:43:55.723125  3424 net.cpp:157] Top shape: 1 512 63 63 (2032128)
I1118 18:43:55.723127  3424 net.cpp:165] Memory required for data: 938202424
I1118 18:43:55.723129  3424 layer_factory.hpp:77] Creating layer conv1-dsn4
I1118 18:43:55.723140  3424 net.cpp:100] Creating Layer conv1-dsn4
I1118 18:43:55.723142  3424 net.cpp:434] conv1-dsn4 <- prod1-dsn4
I1118 18:43:55.723147  3424 net.cpp:408] conv1-dsn4 -> conv1-dsn4
I1118 18:43:55.725030  3424 net.cpp:150] Setting up conv1-dsn4
I1118 18:43:55.725041  3424 net.cpp:157] Top shape: 1 64 63 63 (254016)
I1118 18:43:55.725044  3424 net.cpp:165] Memory required for data: 939218488
I1118 18:43:55.725049  3424 layer_factory.hpp:77] Creating layer conv2-dsn4
I1118 18:43:55.725059  3424 net.cpp:100] Creating Layer conv2-dsn4
I1118 18:43:55.725060  3424 net.cpp:434] conv2-dsn4 <- conv1-dsn4
I1118 18:43:55.725066  3424 net.cpp:408] conv2-dsn4 -> conv2-dsn4
I1118 18:43:55.725884  3424 net.cpp:150] Setting up conv2-dsn4
I1118 18:43:55.725894  3424 net.cpp:157] Top shape: 1 64 63 63 (254016)
I1118 18:43:55.725896  3424 net.cpp:165] Memory required for data: 940234552
I1118 18:43:55.725901  3424 layer_factory.hpp:77] Creating layer relu1-dsn4
I1118 18:43:55.725905  3424 net.cpp:100] Creating Layer relu1-dsn4
I1118 18:43:55.725908  3424 net.cpp:434] relu1-dsn4 <- conv2-dsn4
I1118 18:43:55.725914  3424 net.cpp:395] relu1-dsn4 -> conv2-dsn4 (in-place)
I1118 18:43:55.726089  3424 net.cpp:150] Setting up relu1-dsn4
I1118 18:43:55.726100  3424 net.cpp:157] Top shape: 1 64 63 63 (254016)
I1118 18:43:55.726102  3424 net.cpp:165] Memory required for data: 941250616
I1118 18:43:55.726105  3424 layer_factory.hpp:77] Creating layer conv3-dsn4
I1118 18:43:55.726114  3424 net.cpp:100] Creating Layer conv3-dsn4
I1118 18:43:55.726117  3424 net.cpp:434] conv3-dsn4 <- conv2-dsn4
I1118 18:43:55.726122  3424 net.cpp:408] conv3-dsn4 -> conv3-dsn4
I1118 18:43:55.727080  3424 net.cpp:150] Setting up conv3-dsn4
I1118 18:43:55.727090  3424 net.cpp:157] Top shape: 1 64 63 63 (254016)
I1118 18:43:55.727092  3424 net.cpp:165] Memory required for data: 942266680
I1118 18:43:55.727097  3424 layer_factory.hpp:77] Creating layer relu2-dsn4
I1118 18:43:55.727103  3424 net.cpp:100] Creating Layer relu2-dsn4
I1118 18:43:55.727106  3424 net.cpp:434] relu2-dsn4 <- conv3-dsn4
I1118 18:43:55.727110  3424 net.cpp:395] relu2-dsn4 -> conv3-dsn4 (in-place)
I1118 18:43:55.727205  3424 net.cpp:150] Setting up relu2-dsn4
I1118 18:43:55.727212  3424 net.cpp:157] Top shape: 1 64 63 63 (254016)
I1118 18:43:55.727214  3424 net.cpp:165] Memory required for data: 943282744
I1118 18:43:55.727217  3424 layer_factory.hpp:77] Creating layer conv4-dsn4
I1118 18:43:55.727226  3424 net.cpp:100] Creating Layer conv4-dsn4
I1118 18:43:55.727228  3424 net.cpp:434] conv4-dsn4 <- conv3-dsn4
I1118 18:43:55.727233  3424 net.cpp:408] conv4-dsn4 -> conv4-dsn4
I1118 18:43:55.727838  3424 net.cpp:150] Setting up conv4-dsn4
I1118 18:43:55.727849  3424 net.cpp:157] Top shape: 1 1 63 63 (3969)
I1118 18:43:55.727850  3424 net.cpp:165] Memory required for data: 943298620
I1118 18:43:55.727855  3424 layer_factory.hpp:77] Creating layer sum-dsn4
I1118 18:43:55.727860  3424 net.cpp:100] Creating Layer sum-dsn4
I1118 18:43:55.727862  3424 net.cpp:434] sum-dsn4 <- conv4-dsn4
I1118 18:43:55.727866  3424 net.cpp:434] sum-dsn4 <- weight-dsn5-4_crop1-dsn4_0_split_1
I1118 18:43:55.727869  3424 net.cpp:408] sum-dsn4 -> sum-dsn4
I1118 18:43:55.727905  3424 net.cpp:150] Setting up sum-dsn4
I1118 18:43:55.727910  3424 net.cpp:157] Top shape: 1 1 63 63 (3969)
I1118 18:43:55.727912  3424 net.cpp:165] Memory required for data: 943314496
I1118 18:43:55.727916  3424 layer_factory.hpp:77] Creating layer sum-dsn4_sum-dsn4_0_split
I1118 18:43:55.727921  3424 net.cpp:100] Creating Layer sum-dsn4_sum-dsn4_0_split
I1118 18:43:55.727923  3424 net.cpp:434] sum-dsn4_sum-dsn4_0_split <- sum-dsn4
I1118 18:43:55.727926  3424 net.cpp:408] sum-dsn4_sum-dsn4_0_split -> sum-dsn4_sum-dsn4_0_split_0
I1118 18:43:55.727931  3424 net.cpp:408] sum-dsn4_sum-dsn4_0_split -> sum-dsn4_sum-dsn4_0_split_1
I1118 18:43:55.727962  3424 net.cpp:150] Setting up sum-dsn4_sum-dsn4_0_split
I1118 18:43:55.727965  3424 net.cpp:157] Top shape: 1 1 63 63 (3969)
I1118 18:43:55.727968  3424 net.cpp:157] Top shape: 1 1 63 63 (3969)
I1118 18:43:55.727970  3424 net.cpp:165] Memory required for data: 943346248
I1118 18:43:55.727972  3424 layer_factory.hpp:77] Creating layer upsample8_dsn4
I1118 18:43:55.727979  3424 net.cpp:100] Creating Layer upsample8_dsn4
I1118 18:43:55.727982  3424 net.cpp:434] upsample8_dsn4 <- sum-dsn4_sum-dsn4_0_split_0
I1118 18:43:55.727986  3424 net.cpp:408] upsample8_dsn4 -> sum-dsn4-up
I1118 18:43:55.729130  3424 net.cpp:150] Setting up upsample8_dsn4
I1118 18:43:55.729140  3424 net.cpp:157] Top shape: 1 1 512 512 (262144)
I1118 18:43:55.729142  3424 net.cpp:165] Memory required for data: 944394824
I1118 18:43:55.729147  3424 layer_factory.hpp:77] Creating layer crop2-dsn4
I1118 18:43:55.729153  3424 net.cpp:100] Creating Layer crop2-dsn4
I1118 18:43:55.729156  3424 net.cpp:434] crop2-dsn4 <- sum-dsn4-up
I1118 18:43:55.729159  3424 net.cpp:434] crop2-dsn4 <- data_augmentation_0_split_3
I1118 18:43:55.729163  3424 net.cpp:408] crop2-dsn4 -> upscore-dsn4
I1118 18:43:55.729202  3424 net.cpp:150] Setting up crop2-dsn4
I1118 18:43:55.729207  3424 net.cpp:157] Top shape: 1 1 500 500 (250000)
I1118 18:43:55.729209  3424 net.cpp:165] Memory required for data: 945394824
I1118 18:43:55.729212  3424 layer_factory.hpp:77] Creating layer loss4-score
I1118 18:43:55.729218  3424 net.cpp:100] Creating Layer loss4-score
I1118 18:43:55.729220  3424 net.cpp:434] loss4-score <- upscore-dsn4
I1118 18:43:55.729223  3424 net.cpp:434] loss4-score <- label_augmentation_1_split_2
I1118 18:43:55.729228  3424 net.cpp:408] loss4-score -> loss4-score
I1118 18:43:55.729435  3424 net.cpp:150] Setting up loss4-score
I1118 18:43:55.729444  3424 net.cpp:157] Top shape: (1)
I1118 18:43:55.729445  3424 net.cpp:160]     with loss weight 1
I1118 18:43:55.729450  3424 net.cpp:165] Memory required for data: 945394828
I1118 18:43:55.729454  3424 layer_factory.hpp:77] Creating layer upsample2_dsn3
I1118 18:43:55.729459  3424 net.cpp:100] Creating Layer upsample2_dsn3
I1118 18:43:55.729476  3424 net.cpp:434] upsample2_dsn3 <- sum-dsn4_sum-dsn4_0_split_1
I1118 18:43:55.729482  3424 net.cpp:408] upsample2_dsn3 -> sum-dsn4-3
I1118 18:43:55.729671  3424 net.cpp:150] Setting up upsample2_dsn3
I1118 18:43:55.729676  3424 net.cpp:157] Top shape: 1 1 128 128 (16384)
I1118 18:43:55.729678  3424 net.cpp:165] Memory required for data: 945460364
I1118 18:43:55.729682  3424 layer_factory.hpp:77] Creating layer crop1-dsn3
I1118 18:43:55.729687  3424 net.cpp:100] Creating Layer crop1-dsn3
I1118 18:43:55.729689  3424 net.cpp:434] crop1-dsn3 <- sum-dsn4-3
I1118 18:43:55.729693  3424 net.cpp:434] crop1-dsn3 <- conv3_3_relu3_3_0_split_1
I1118 18:43:55.729696  3424 net.cpp:408] crop1-dsn3 -> weight-dsn4-3
I1118 18:43:55.729712  3424 net.cpp:150] Setting up crop1-dsn3
I1118 18:43:55.729717  3424 net.cpp:157] Top shape: 1 1 125 125 (15625)
I1118 18:43:55.729734  3424 net.cpp:165] Memory required for data: 945522864
I1118 18:43:55.729737  3424 layer_factory.hpp:77] Creating layer weight-dsn4-3_crop1-dsn3_0_split
I1118 18:43:55.729741  3424 net.cpp:100] Creating Layer weight-dsn4-3_crop1-dsn3_0_split
I1118 18:43:55.729744  3424 net.cpp:434] weight-dsn4-3_crop1-dsn3_0_split <- weight-dsn4-3
I1118 18:43:55.729749  3424 net.cpp:408] weight-dsn4-3_crop1-dsn3_0_split -> weight-dsn4-3_crop1-dsn3_0_split_0
I1118 18:43:55.729754  3424 net.cpp:408] weight-dsn4-3_crop1-dsn3_0_split -> weight-dsn4-3_crop1-dsn3_0_split_1
I1118 18:43:55.729782  3424 net.cpp:150] Setting up weight-dsn4-3_crop1-dsn3_0_split
I1118 18:43:55.729786  3424 net.cpp:157] Top shape: 1 1 125 125 (15625)
I1118 18:43:55.729789  3424 net.cpp:157] Top shape: 1 1 125 125 (15625)
I1118 18:43:55.729791  3424 net.cpp:165] Memory required for data: 945647864
I1118 18:43:55.729794  3424 layer_factory.hpp:77] Creating layer sigmoid-dsn3
I1118 18:43:55.729799  3424 net.cpp:100] Creating Layer sigmoid-dsn3
I1118 18:43:55.729801  3424 net.cpp:434] sigmoid-dsn3 <- weight-dsn4-3_crop1-dsn3_0_split_0
I1118 18:43:55.729804  3424 net.cpp:408] sigmoid-dsn3 -> sigmoid-dsn3
I1118 18:43:55.729887  3424 net.cpp:150] Setting up sigmoid-dsn3
I1118 18:43:55.729893  3424 net.cpp:157] Top shape: 1 1 125 125 (15625)
I1118 18:43:55.729895  3424 net.cpp:165] Memory required for data: 945710364
I1118 18:43:55.729897  3424 layer_factory.hpp:77] Creating layer rev-dsn3
I1118 18:43:55.729904  3424 net.cpp:100] Creating Layer rev-dsn3
I1118 18:43:55.729907  3424 net.cpp:434] rev-dsn3 <- sigmoid-dsn3
I1118 18:43:55.729910  3424 net.cpp:408] rev-dsn3 -> rev-dsn3
I1118 18:43:55.729926  3424 net.cpp:150] Setting up rev-dsn3
I1118 18:43:55.729931  3424 net.cpp:157] Top shape: 1 1 125 125 (15625)
I1118 18:43:55.729933  3424 net.cpp:165] Memory required for data: 945772864
I1118 18:43:55.729935  3424 layer_factory.hpp:77] Creating layer tile-dsn3
I1118 18:43:55.729939  3424 net.cpp:100] Creating Layer tile-dsn3
I1118 18:43:55.729943  3424 net.cpp:434] tile-dsn3 <- rev-dsn3
I1118 18:43:55.729948  3424 net.cpp:408] tile-dsn3 -> weight-dsn3
I1118 18:43:55.729964  3424 net.cpp:150] Setting up tile-dsn3
I1118 18:43:55.729967  3424 net.cpp:157] Top shape: 1 256 125 125 (4000000)
I1118 18:43:55.729969  3424 net.cpp:165] Memory required for data: 961772864
I1118 18:43:55.729971  3424 layer_factory.hpp:77] Creating layer prod1-dsn3
I1118 18:43:55.729975  3424 net.cpp:100] Creating Layer prod1-dsn3
I1118 18:43:55.729979  3424 net.cpp:434] prod1-dsn3 <- conv3_3_relu3_3_0_split_2
I1118 18:43:55.729981  3424 net.cpp:434] prod1-dsn3 <- weight-dsn3
I1118 18:43:55.729986  3424 net.cpp:408] prod1-dsn3 -> prod1-dsn3
I1118 18:43:55.730001  3424 net.cpp:150] Setting up prod1-dsn3
I1118 18:43:55.730008  3424 net.cpp:157] Top shape: 1 256 125 125 (4000000)
I1118 18:43:55.730011  3424 net.cpp:165] Memory required for data: 977772864
I1118 18:43:55.730013  3424 layer_factory.hpp:77] Creating layer conv1-dsn3
I1118 18:43:55.730021  3424 net.cpp:100] Creating Layer conv1-dsn3
I1118 18:43:55.730024  3424 net.cpp:434] conv1-dsn3 <- prod1-dsn3
I1118 18:43:55.730029  3424 net.cpp:408] conv1-dsn3 -> conv1-dsn3
I1118 18:43:55.731763  3424 net.cpp:150] Setting up conv1-dsn3
I1118 18:43:55.731775  3424 net.cpp:157] Top shape: 1 64 125 125 (1000000)
I1118 18:43:55.731776  3424 net.cpp:165] Memory required for data: 981772864
I1118 18:43:55.731792  3424 layer_factory.hpp:77] Creating layer conv2-dsn3
I1118 18:43:55.731801  3424 net.cpp:100] Creating Layer conv2-dsn3
I1118 18:43:55.731804  3424 net.cpp:434] conv2-dsn3 <- conv1-dsn3
I1118 18:43:55.731812  3424 net.cpp:408] conv2-dsn3 -> conv2-dsn3
I1118 18:43:55.732731  3424 net.cpp:150] Setting up conv2-dsn3
I1118 18:43:55.732743  3424 net.cpp:157] Top shape: 1 64 125 125 (1000000)
I1118 18:43:55.732744  3424 net.cpp:165] Memory required for data: 985772864
I1118 18:43:55.732749  3424 layer_factory.hpp:77] Creating layer relu1-dsn3
I1118 18:43:55.732755  3424 net.cpp:100] Creating Layer relu1-dsn3
I1118 18:43:55.732758  3424 net.cpp:434] relu1-dsn3 <- conv2-dsn3
I1118 18:43:55.732761  3424 net.cpp:395] relu1-dsn3 -> conv2-dsn3 (in-place)
I1118 18:43:55.732843  3424 net.cpp:150] Setting up relu1-dsn3
I1118 18:43:55.732851  3424 net.cpp:157] Top shape: 1 64 125 125 (1000000)
I1118 18:43:55.732852  3424 net.cpp:165] Memory required for data: 989772864
I1118 18:43:55.732854  3424 layer_factory.hpp:77] Creating layer conv3-dsn3
I1118 18:43:55.732862  3424 net.cpp:100] Creating Layer conv3-dsn3
I1118 18:43:55.732865  3424 net.cpp:434] conv3-dsn3 <- conv2-dsn3
I1118 18:43:55.732870  3424 net.cpp:408] conv3-dsn3 -> conv3-dsn3
I1118 18:43:55.733808  3424 net.cpp:150] Setting up conv3-dsn3
I1118 18:43:55.733819  3424 net.cpp:157] Top shape: 1 64 125 125 (1000000)
I1118 18:43:55.733820  3424 net.cpp:165] Memory required for data: 993772864
I1118 18:43:55.733825  3424 layer_factory.hpp:77] Creating layer relu2-dsn3
I1118 18:43:55.733829  3424 net.cpp:100] Creating Layer relu2-dsn3
I1118 18:43:55.733831  3424 net.cpp:434] relu2-dsn3 <- conv3-dsn3
I1118 18:43:55.733837  3424 net.cpp:395] relu2-dsn3 -> conv3-dsn3 (in-place)
I1118 18:43:55.733920  3424 net.cpp:150] Setting up relu2-dsn3
I1118 18:43:55.733927  3424 net.cpp:157] Top shape: 1 64 125 125 (1000000)
I1118 18:43:55.733929  3424 net.cpp:165] Memory required for data: 997772864
I1118 18:43:55.733932  3424 layer_factory.hpp:77] Creating layer conv4-dsn3
I1118 18:43:55.733939  3424 net.cpp:100] Creating Layer conv4-dsn3
I1118 18:43:55.733942  3424 net.cpp:434] conv4-dsn3 <- conv3-dsn3
I1118 18:43:55.733947  3424 net.cpp:408] conv4-dsn3 -> conv4-dsn3
I1118 18:43:55.734556  3424 net.cpp:150] Setting up conv4-dsn3
I1118 18:43:55.734566  3424 net.cpp:157] Top shape: 1 1 125 125 (15625)
I1118 18:43:55.734568  3424 net.cpp:165] Memory required for data: 997835364
I1118 18:43:55.734573  3424 layer_factory.hpp:77] Creating layer sum-dsn3
I1118 18:43:55.734578  3424 net.cpp:100] Creating Layer sum-dsn3
I1118 18:43:55.734580  3424 net.cpp:434] sum-dsn3 <- conv4-dsn3
I1118 18:43:55.734585  3424 net.cpp:434] sum-dsn3 <- weight-dsn4-3_crop1-dsn3_0_split_1
I1118 18:43:55.734589  3424 net.cpp:408] sum-dsn3 -> sum-dsn3
I1118 18:43:55.734624  3424 net.cpp:150] Setting up sum-dsn3
I1118 18:43:55.734628  3424 net.cpp:157] Top shape: 1 1 125 125 (15625)
I1118 18:43:55.734632  3424 net.cpp:165] Memory required for data: 997897864
I1118 18:43:55.734633  3424 layer_factory.hpp:77] Creating layer sum-dsn3_sum-dsn3_0_split
I1118 18:43:55.734640  3424 net.cpp:100] Creating Layer sum-dsn3_sum-dsn3_0_split
I1118 18:43:55.734643  3424 net.cpp:434] sum-dsn3_sum-dsn3_0_split <- sum-dsn3
I1118 18:43:55.734648  3424 net.cpp:408] sum-dsn3_sum-dsn3_0_split -> sum-dsn3_sum-dsn3_0_split_0
I1118 18:43:55.734653  3424 net.cpp:408] sum-dsn3_sum-dsn3_0_split -> sum-dsn3_sum-dsn3_0_split_1
I1118 18:43:55.734680  3424 net.cpp:150] Setting up sum-dsn3_sum-dsn3_0_split
I1118 18:43:55.734686  3424 net.cpp:157] Top shape: 1 1 125 125 (15625)
I1118 18:43:55.734689  3424 net.cpp:157] Top shape: 1 1 125 125 (15625)
I1118 18:43:55.734691  3424 net.cpp:165] Memory required for data: 998022864
I1118 18:43:55.734694  3424 layer_factory.hpp:77] Creating layer upsample4_dsn3
I1118 18:43:55.734699  3424 net.cpp:100] Creating Layer upsample4_dsn3
I1118 18:43:55.734700  3424 net.cpp:434] upsample4_dsn3 <- sum-dsn3_sum-dsn3_0_split_0
I1118 18:43:55.734717  3424 net.cpp:408] upsample4_dsn3 -> sum-dsn3-up
I1118 18:43:55.735826  3424 net.cpp:150] Setting up upsample4_dsn3
I1118 18:43:55.735836  3424 net.cpp:157] Top shape: 1 1 504 504 (254016)
I1118 18:43:55.735838  3424 net.cpp:165] Memory required for data: 999038928
I1118 18:43:55.735844  3424 layer_factory.hpp:77] Creating layer crop2-dsn3
I1118 18:43:55.735848  3424 net.cpp:100] Creating Layer crop2-dsn3
I1118 18:43:55.735852  3424 net.cpp:434] crop2-dsn3 <- sum-dsn3-up
I1118 18:43:55.735854  3424 net.cpp:434] crop2-dsn3 <- data_augmentation_0_split_4
I1118 18:43:55.735860  3424 net.cpp:408] crop2-dsn3 -> upscore-dsn3
I1118 18:43:55.735896  3424 net.cpp:150] Setting up crop2-dsn3
I1118 18:43:55.735903  3424 net.cpp:157] Top shape: 1 1 500 500 (250000)
I1118 18:43:55.735906  3424 net.cpp:165] Memory required for data: 1000038928
I1118 18:43:55.735908  3424 layer_factory.hpp:77] Creating layer loss3-score
I1118 18:43:55.735913  3424 net.cpp:100] Creating Layer loss3-score
I1118 18:43:55.735915  3424 net.cpp:434] loss3-score <- upscore-dsn3
I1118 18:43:55.735920  3424 net.cpp:434] loss3-score <- label_augmentation_1_split_3
I1118 18:43:55.735924  3424 net.cpp:408] loss3-score -> loss3-score
I1118 18:43:55.736112  3424 net.cpp:150] Setting up loss3-score
I1118 18:43:55.736119  3424 net.cpp:157] Top shape: (1)
I1118 18:43:55.736121  3424 net.cpp:160]     with loss weight 1
I1118 18:43:55.736126  3424 net.cpp:165] Memory required for data: 1000038932
I1118 18:43:55.736129  3424 layer_factory.hpp:77] Creating layer upsample2_1-dsn2
I1118 18:43:55.736135  3424 net.cpp:100] Creating Layer upsample2_1-dsn2
I1118 18:43:55.736136  3424 net.cpp:434] upsample2_1-dsn2 <- sum-dsn3_sum-dsn3_0_split_1
I1118 18:43:55.736142  3424 net.cpp:408] upsample2_1-dsn2 -> sum-dsn3-2
I1118 18:43:55.736354  3424 net.cpp:150] Setting up upsample2_1-dsn2
I1118 18:43:55.736361  3424 net.cpp:157] Top shape: 1 1 252 252 (63504)
I1118 18:43:55.736363  3424 net.cpp:165] Memory required for data: 1000292948
I1118 18:43:55.736367  3424 layer_factory.hpp:77] Creating layer crop1-dsn2
I1118 18:43:55.736371  3424 net.cpp:100] Creating Layer crop1-dsn2
I1118 18:43:55.736374  3424 net.cpp:434] crop1-dsn2 <- sum-dsn3-2
I1118 18:43:55.736377  3424 net.cpp:434] crop1-dsn2 <- conv2_2_relu2_2_0_split_1
I1118 18:43:55.736382  3424 net.cpp:408] crop1-dsn2 -> weight-dsn3-2
I1118 18:43:55.736402  3424 net.cpp:150] Setting up crop1-dsn2
I1118 18:43:55.736407  3424 net.cpp:157] Top shape: 1 1 250 250 (62500)
I1118 18:43:55.736408  3424 net.cpp:165] Memory required for data: 1000542948
I1118 18:43:55.736410  3424 layer_factory.hpp:77] Creating layer weight-dsn3-2_crop1-dsn2_0_split
I1118 18:43:55.736414  3424 net.cpp:100] Creating Layer weight-dsn3-2_crop1-dsn2_0_split
I1118 18:43:55.736418  3424 net.cpp:434] weight-dsn3-2_crop1-dsn2_0_split <- weight-dsn3-2
I1118 18:43:55.736423  3424 net.cpp:408] weight-dsn3-2_crop1-dsn2_0_split -> weight-dsn3-2_crop1-dsn2_0_split_0
I1118 18:43:55.736428  3424 net.cpp:408] weight-dsn3-2_crop1-dsn2_0_split -> weight-dsn3-2_crop1-dsn2_0_split_1
I1118 18:43:55.736454  3424 net.cpp:150] Setting up weight-dsn3-2_crop1-dsn2_0_split
I1118 18:43:55.736459  3424 net.cpp:157] Top shape: 1 1 250 250 (62500)
I1118 18:43:55.736462  3424 net.cpp:157] Top shape: 1 1 250 250 (62500)
I1118 18:43:55.736464  3424 net.cpp:165] Memory required for data: 1001042948
I1118 18:43:55.736466  3424 layer_factory.hpp:77] Creating layer sigmoid-dsn2
I1118 18:43:55.736470  3424 net.cpp:100] Creating Layer sigmoid-dsn2
I1118 18:43:55.736485  3424 net.cpp:434] sigmoid-dsn2 <- weight-dsn3-2_crop1-dsn2_0_split_0
I1118 18:43:55.736487  3424 net.cpp:408] sigmoid-dsn2 -> sigmoid-dsn2
I1118 18:43:55.737718  3424 net.cpp:150] Setting up sigmoid-dsn2
I1118 18:43:55.737730  3424 net.cpp:157] Top shape: 1 1 250 250 (62500)
I1118 18:43:55.737731  3424 net.cpp:165] Memory required for data: 1001292948
I1118 18:43:55.737735  3424 layer_factory.hpp:77] Creating layer rev-dsn2
I1118 18:43:55.737740  3424 net.cpp:100] Creating Layer rev-dsn2
I1118 18:43:55.737741  3424 net.cpp:434] rev-dsn2 <- sigmoid-dsn2
I1118 18:43:55.737746  3424 net.cpp:408] rev-dsn2 -> rev-dsn2
I1118 18:43:55.737763  3424 net.cpp:150] Setting up rev-dsn2
I1118 18:43:55.737767  3424 net.cpp:157] Top shape: 1 1 250 250 (62500)
I1118 18:43:55.737769  3424 net.cpp:165] Memory required for data: 1001542948
I1118 18:43:55.737787  3424 layer_factory.hpp:77] Creating layer tile-dsn2
I1118 18:43:55.737792  3424 net.cpp:100] Creating Layer tile-dsn2
I1118 18:43:55.737793  3424 net.cpp:434] tile-dsn2 <- rev-dsn2
I1118 18:43:55.737797  3424 net.cpp:408] tile-dsn2 -> weight-dsn2
I1118 18:43:55.737812  3424 net.cpp:150] Setting up tile-dsn2
I1118 18:43:55.737816  3424 net.cpp:157] Top shape: 1 128 250 250 (8000000)
I1118 18:43:55.737818  3424 net.cpp:165] Memory required for data: 1033542948
I1118 18:43:55.737820  3424 layer_factory.hpp:77] Creating layer prod1-dsn2
I1118 18:43:55.737824  3424 net.cpp:100] Creating Layer prod1-dsn2
I1118 18:43:55.737826  3424 net.cpp:434] prod1-dsn2 <- conv2_2_relu2_2_0_split_2
I1118 18:43:55.737830  3424 net.cpp:434] prod1-dsn2 <- weight-dsn2
I1118 18:43:55.737833  3424 net.cpp:408] prod1-dsn2 -> prod1-dsn2
I1118 18:43:55.737851  3424 net.cpp:150] Setting up prod1-dsn2
I1118 18:43:55.737854  3424 net.cpp:157] Top shape: 1 128 250 250 (8000000)
I1118 18:43:55.737857  3424 net.cpp:165] Memory required for data: 1065542948
I1118 18:43:55.737859  3424 layer_factory.hpp:77] Creating layer conv1-dsn2
I1118 18:43:55.737865  3424 net.cpp:100] Creating Layer conv1-dsn2
I1118 18:43:55.737867  3424 net.cpp:434] conv1-dsn2 <- prod1-dsn2
I1118 18:43:55.737871  3424 net.cpp:408] conv1-dsn2 -> conv1-dsn2
I1118 18:43:55.738556  3424 net.cpp:150] Setting up conv1-dsn2
I1118 18:43:55.738566  3424 net.cpp:157] Top shape: 1 64 250 250 (4000000)
I1118 18:43:55.738569  3424 net.cpp:165] Memory required for data: 1081542948
I1118 18:43:55.738574  3424 layer_factory.hpp:77] Creating layer conv2-dsn2
I1118 18:43:55.738584  3424 net.cpp:100] Creating Layer conv2-dsn2
I1118 18:43:55.738587  3424 net.cpp:434] conv2-dsn2 <- conv1-dsn2
I1118 18:43:55.738591  3424 net.cpp:408] conv2-dsn2 -> conv2-dsn2
I1118 18:43:55.740288  3424 net.cpp:150] Setting up conv2-dsn2
I1118 18:43:55.740304  3424 net.cpp:157] Top shape: 1 64 250 250 (4000000)
I1118 18:43:55.740309  3424 net.cpp:165] Memory required for data: 1097542948
I1118 18:43:55.740315  3424 layer_factory.hpp:77] Creating layer relu1-dsn2
I1118 18:43:55.740322  3424 net.cpp:100] Creating Layer relu1-dsn2
I1118 18:43:55.740325  3424 net.cpp:434] relu1-dsn2 <- conv2-dsn2
I1118 18:43:55.740334  3424 net.cpp:395] relu1-dsn2 -> conv2-dsn2 (in-place)
I1118 18:43:55.740417  3424 net.cpp:150] Setting up relu1-dsn2
I1118 18:43:55.740425  3424 net.cpp:157] Top shape: 1 64 250 250 (4000000)
I1118 18:43:55.740427  3424 net.cpp:165] Memory required for data: 1113542948
I1118 18:43:55.740440  3424 layer_factory.hpp:77] Creating layer conv3-dsn2
I1118 18:43:55.740449  3424 net.cpp:100] Creating Layer conv3-dsn2
I1118 18:43:55.740453  3424 net.cpp:434] conv3-dsn2 <- conv2-dsn2
I1118 18:43:55.740458  3424 net.cpp:408] conv3-dsn2 -> conv3-dsn2
I1118 18:43:55.741466  3424 net.cpp:150] Setting up conv3-dsn2
I1118 18:43:55.741478  3424 net.cpp:157] Top shape: 1 64 250 250 (4000000)
I1118 18:43:55.741480  3424 net.cpp:165] Memory required for data: 1129542948
I1118 18:43:55.741485  3424 layer_factory.hpp:77] Creating layer relu2-dsn2
I1118 18:43:55.741490  3424 net.cpp:100] Creating Layer relu2-dsn2
I1118 18:43:55.741493  3424 net.cpp:434] relu2-dsn2 <- conv3-dsn2
I1118 18:43:55.741497  3424 net.cpp:395] relu2-dsn2 -> conv3-dsn2 (in-place)
I1118 18:43:55.741703  3424 net.cpp:150] Setting up relu2-dsn2
I1118 18:43:55.741711  3424 net.cpp:157] Top shape: 1 64 250 250 (4000000)
I1118 18:43:55.741714  3424 net.cpp:165] Memory required for data: 1145542948
I1118 18:43:55.741716  3424 layer_factory.hpp:77] Creating layer conv4-dsn2
I1118 18:43:55.741725  3424 net.cpp:100] Creating Layer conv4-dsn2
I1118 18:43:55.741729  3424 net.cpp:434] conv4-dsn2 <- conv3-dsn2
I1118 18:43:55.741734  3424 net.cpp:408] conv4-dsn2 -> conv4-dsn2
I1118 18:43:55.742244  3424 net.cpp:150] Setting up conv4-dsn2
I1118 18:43:55.742254  3424 net.cpp:157] Top shape: 1 1 250 250 (62500)
I1118 18:43:55.742256  3424 net.cpp:165] Memory required for data: 1145792948
I1118 18:43:55.742261  3424 layer_factory.hpp:77] Creating layer sum-dsn2
I1118 18:43:55.742269  3424 net.cpp:100] Creating Layer sum-dsn2
I1118 18:43:55.742271  3424 net.cpp:434] sum-dsn2 <- conv4-dsn2
I1118 18:43:55.742274  3424 net.cpp:434] sum-dsn2 <- weight-dsn3-2_crop1-dsn2_0_split_1
I1118 18:43:55.742280  3424 net.cpp:408] sum-dsn2 -> sum-dsn2
I1118 18:43:55.742305  3424 net.cpp:150] Setting up sum-dsn2
I1118 18:43:55.742310  3424 net.cpp:157] Top shape: 1 1 250 250 (62500)
I1118 18:43:55.742311  3424 net.cpp:165] Memory required for data: 1146042948
I1118 18:43:55.742314  3424 layer_factory.hpp:77] Creating layer upsample2_2-dsn2
I1118 18:43:55.742321  3424 net.cpp:100] Creating Layer upsample2_2-dsn2
I1118 18:43:55.742323  3424 net.cpp:434] upsample2_2-dsn2 <- sum-dsn2
I1118 18:43:55.742329  3424 net.cpp:408] upsample2_2-dsn2 -> sum-dsn2-up
I1118 18:43:55.742643  3424 net.cpp:150] Setting up upsample2_2-dsn2
I1118 18:43:55.742650  3424 net.cpp:157] Top shape: 1 1 502 502 (252004)
I1118 18:43:55.742652  3424 net.cpp:165] Memory required for data: 1147050964
I1118 18:43:55.742657  3424 layer_factory.hpp:77] Creating layer crop2-dsn2
I1118 18:43:55.742663  3424 net.cpp:100] Creating Layer crop2-dsn2
I1118 18:43:55.742666  3424 net.cpp:434] crop2-dsn2 <- sum-dsn2-up
I1118 18:43:55.742669  3424 net.cpp:434] crop2-dsn2 <- data_augmentation_0_split_5
I1118 18:43:55.742673  3424 net.cpp:408] crop2-dsn2 -> upscore-dsn2
I1118 18:43:55.742705  3424 net.cpp:150] Setting up crop2-dsn2
I1118 18:43:55.742710  3424 net.cpp:157] Top shape: 1 1 500 500 (250000)
I1118 18:43:55.742712  3424 net.cpp:165] Memory required for data: 1148050964
I1118 18:43:55.742714  3424 layer_factory.hpp:77] Creating layer upscore-dsn2_crop2-dsn2_0_split
I1118 18:43:55.742718  3424 net.cpp:100] Creating Layer upscore-dsn2_crop2-dsn2_0_split
I1118 18:43:55.742722  3424 net.cpp:434] upscore-dsn2_crop2-dsn2_0_split <- upscore-dsn2
I1118 18:43:55.742727  3424 net.cpp:408] upscore-dsn2_crop2-dsn2_0_split -> upscore-dsn2_crop2-dsn2_0_split_0
I1118 18:43:55.742749  3424 net.cpp:408] upscore-dsn2_crop2-dsn2_0_split -> upscore-dsn2_crop2-dsn2_0_split_1
I1118 18:43:55.742755  3424 net.cpp:408] upscore-dsn2_crop2-dsn2_0_split -> upscore-dsn2_crop2-dsn2_0_split_2
I1118 18:43:55.742800  3424 net.cpp:150] Setting up upscore-dsn2_crop2-dsn2_0_split
I1118 18:43:55.742807  3424 net.cpp:157] Top shape: 1 1 500 500 (250000)
I1118 18:43:55.742810  3424 net.cpp:157] Top shape: 1 1 500 500 (250000)
I1118 18:43:55.742812  3424 net.cpp:157] Top shape: 1 1 500 500 (250000)
I1118 18:43:55.742815  3424 net.cpp:165] Memory required for data: 1151050964
I1118 18:43:55.742817  3424 layer_factory.hpp:77] Creating layer loss2-score
I1118 18:43:55.742822  3424 net.cpp:100] Creating Layer loss2-score
I1118 18:43:55.742825  3424 net.cpp:434] loss2-score <- upscore-dsn2_crop2-dsn2_0_split_0
I1118 18:43:55.742828  3424 net.cpp:434] loss2-score <- label_augmentation_1_split_4
I1118 18:43:55.742833  3424 net.cpp:408] loss2-score -> loss2-score
I1118 18:43:55.743806  3424 net.cpp:150] Setting up loss2-score
I1118 18:43:55.743815  3424 net.cpp:157] Top shape: (1)
I1118 18:43:55.743818  3424 net.cpp:160]     with loss weight 1
I1118 18:43:55.743822  3424 net.cpp:165] Memory required for data: 1151050968
I1118 18:43:55.743824  3424 layer_factory.hpp:77] Creating layer sigmoid-dsn1
I1118 18:43:55.743829  3424 net.cpp:100] Creating Layer sigmoid-dsn1
I1118 18:43:55.743832  3424 net.cpp:434] sigmoid-dsn1 <- upscore-dsn2_crop2-dsn2_0_split_1
I1118 18:43:55.743836  3424 net.cpp:408] sigmoid-dsn1 -> sigmoid-dsn1
I1118 18:43:55.745044  3424 net.cpp:150] Setting up sigmoid-dsn1
I1118 18:43:55.745055  3424 net.cpp:157] Top shape: 1 1 500 500 (250000)
I1118 18:43:55.745059  3424 net.cpp:165] Memory required for data: 1152050968
I1118 18:43:55.745061  3424 layer_factory.hpp:77] Creating layer rev-dsn1
I1118 18:43:55.745067  3424 net.cpp:100] Creating Layer rev-dsn1
I1118 18:43:55.745070  3424 net.cpp:434] rev-dsn1 <- sigmoid-dsn1
I1118 18:43:55.745076  3424 net.cpp:408] rev-dsn1 -> rev-dsn1
I1118 18:43:55.745097  3424 net.cpp:150] Setting up rev-dsn1
I1118 18:43:55.745101  3424 net.cpp:157] Top shape: 1 1 500 500 (250000)
I1118 18:43:55.745103  3424 net.cpp:165] Memory required for data: 1153050968
I1118 18:43:55.745106  3424 layer_factory.hpp:77] Creating layer tile-dsn1
I1118 18:43:55.745112  3424 net.cpp:100] Creating Layer tile-dsn1
I1118 18:43:55.745115  3424 net.cpp:434] tile-dsn1 <- rev-dsn1
I1118 18:43:55.745118  3424 net.cpp:408] tile-dsn1 -> weight-dsn1
I1118 18:43:55.745136  3424 net.cpp:150] Setting up tile-dsn1
I1118 18:43:55.745139  3424 net.cpp:157] Top shape: 1 64 500 500 (16000000)
I1118 18:43:55.745141  3424 net.cpp:165] Memory required for data: 1217050968
I1118 18:43:55.745143  3424 layer_factory.hpp:77] Creating layer prod1-dsn1
I1118 18:43:55.745147  3424 net.cpp:100] Creating Layer prod1-dsn1
I1118 18:43:55.745151  3424 net.cpp:434] prod1-dsn1 <- conv1_2_relu1_2_0_split_1
I1118 18:43:55.745153  3424 net.cpp:434] prod1-dsn1 <- weight-dsn1
I1118 18:43:55.745158  3424 net.cpp:408] prod1-dsn1 -> prod1-dsn1
I1118 18:43:55.745175  3424 net.cpp:150] Setting up prod1-dsn1
I1118 18:43:55.745180  3424 net.cpp:157] Top shape: 1 64 500 500 (16000000)
I1118 18:43:55.745182  3424 net.cpp:165] Memory required for data: 1281050968
I1118 18:43:55.745184  3424 layer_factory.hpp:77] Creating layer conv1-dsn1
I1118 18:43:55.745223  3424 net.cpp:100] Creating Layer conv1-dsn1
I1118 18:43:55.745226  3424 net.cpp:434] conv1-dsn1 <- prod1-dsn1
I1118 18:43:55.745230  3424 net.cpp:408] conv1-dsn1 -> conv1-dsn1
I1118 18:43:55.746075  3424 net.cpp:150] Setting up conv1-dsn1
I1118 18:43:55.746085  3424 net.cpp:157] Top shape: 1 64 500 500 (16000000)
I1118 18:43:55.746088  3424 net.cpp:165] Memory required for data: 1345050968
I1118 18:43:55.746094  3424 layer_factory.hpp:77] Creating layer conv2-dsn1
I1118 18:43:55.746104  3424 net.cpp:100] Creating Layer conv2-dsn1
I1118 18:43:55.746107  3424 net.cpp:434] conv2-dsn1 <- conv1-dsn1
I1118 18:43:55.746111  3424 net.cpp:408] conv2-dsn1 -> conv2-dsn1
I1118 18:43:55.747855  3424 net.cpp:150] Setting up conv2-dsn1
I1118 18:43:55.747866  3424 net.cpp:157] Top shape: 1 64 500 500 (16000000)
I1118 18:43:55.747869  3424 net.cpp:165] Memory required for data: 1409050968
I1118 18:43:55.747874  3424 layer_factory.hpp:77] Creating layer relu1-dsn1
I1118 18:43:55.747879  3424 net.cpp:100] Creating Layer relu1-dsn1
I1118 18:43:55.747882  3424 net.cpp:434] relu1-dsn1 <- conv2-dsn1
I1118 18:43:55.747886  3424 net.cpp:395] relu1-dsn1 -> conv2-dsn1 (in-place)
I1118 18:43:55.748086  3424 net.cpp:150] Setting up relu1-dsn1
I1118 18:43:55.748096  3424 net.cpp:157] Top shape: 1 64 500 500 (16000000)
I1118 18:43:55.748098  3424 net.cpp:165] Memory required for data: 1473050968
I1118 18:43:55.748101  3424 layer_factory.hpp:77] Creating layer conv3-dsn1
I1118 18:43:55.748111  3424 net.cpp:100] Creating Layer conv3-dsn1
I1118 18:43:55.748113  3424 net.cpp:434] conv3-dsn1 <- conv2-dsn1
I1118 18:43:55.748119  3424 net.cpp:408] conv3-dsn1 -> conv3-dsn1
I1118 18:43:55.749122  3424 net.cpp:150] Setting up conv3-dsn1
I1118 18:43:55.749133  3424 net.cpp:157] Top shape: 1 64 500 500 (16000000)
I1118 18:43:55.749135  3424 net.cpp:165] Memory required for data: 1537050968
I1118 18:43:55.749140  3424 layer_factory.hpp:77] Creating layer relu2-dsn1
I1118 18:43:55.749145  3424 net.cpp:100] Creating Layer relu2-dsn1
I1118 18:43:55.749148  3424 net.cpp:434] relu2-dsn1 <- conv3-dsn1
I1118 18:43:55.749153  3424 net.cpp:395] relu2-dsn1 -> conv3-dsn1 (in-place)
I1118 18:43:55.749323  3424 net.cpp:150] Setting up relu2-dsn1
I1118 18:43:55.749333  3424 net.cpp:157] Top shape: 1 64 500 500 (16000000)
I1118 18:43:55.749336  3424 net.cpp:165] Memory required for data: 1601050968
I1118 18:43:55.749337  3424 layer_factory.hpp:77] Creating layer conv4-dsn1
I1118 18:43:55.749347  3424 net.cpp:100] Creating Layer conv4-dsn1
I1118 18:43:55.749351  3424 net.cpp:434] conv4-dsn1 <- conv3-dsn1
I1118 18:43:55.749357  3424 net.cpp:408] conv4-dsn1 -> conv4-dsn1
I1118 18:43:55.751874  3424 net.cpp:150] Setting up conv4-dsn1
I1118 18:43:55.751886  3424 net.cpp:157] Top shape: 1 1 500 500 (250000)
I1118 18:43:55.751889  3424 net.cpp:165] Memory required for data: 1602050968
I1118 18:43:55.751894  3424 layer_factory.hpp:77] Creating layer sum-dsn1
I1118 18:43:55.751899  3424 net.cpp:100] Creating Layer sum-dsn1
I1118 18:43:55.751902  3424 net.cpp:434] sum-dsn1 <- conv4-dsn1
I1118 18:43:55.751909  3424 net.cpp:434] sum-dsn1 <- upscore-dsn2_crop2-dsn2_0_split_2
I1118 18:43:55.751914  3424 net.cpp:408] sum-dsn1 -> sum-dsn1
I1118 18:43:55.751952  3424 net.cpp:150] Setting up sum-dsn1
I1118 18:43:55.751958  3424 net.cpp:157] Top shape: 1 1 500 500 (250000)
I1118 18:43:55.751960  3424 net.cpp:165] Memory required for data: 1603050968
I1118 18:43:55.751962  3424 layer_factory.hpp:77] Creating layer crop2-dsn1
I1118 18:43:55.751966  3424 net.cpp:100] Creating Layer crop2-dsn1
I1118 18:43:55.751969  3424 net.cpp:434] crop2-dsn1 <- sum-dsn1
I1118 18:43:55.751972  3424 net.cpp:434] crop2-dsn1 <- data_augmentation_0_split_6
I1118 18:43:55.751978  3424 net.cpp:408] crop2-dsn1 -> upscore-dsn1
I1118 18:43:55.751996  3424 net.cpp:150] Setting up crop2-dsn1
I1118 18:43:55.752002  3424 net.cpp:157] Top shape: 1 1 500 500 (250000)
I1118 18:43:55.752005  3424 net.cpp:165] Memory required for data: 1604050968
I1118 18:43:55.752007  3424 layer_factory.hpp:77] Creating layer loss1-score
I1118 18:43:55.752012  3424 net.cpp:100] Creating Layer loss1-score
I1118 18:43:55.752014  3424 net.cpp:434] loss1-score <- upscore-dsn1
I1118 18:43:55.752019  3424 net.cpp:434] loss1-score <- label_augmentation_1_split_5
I1118 18:43:55.752023  3424 net.cpp:408] loss1-score -> loss1-score
…
I1118 18:43:55.755759  3424 net.cpp:58] Initializing net from parameters: 
name: "RAS"
state {
  phase: TEST
}
layer {
  name: "data"
  type: "ImageLabelmapData"
  top: "data"
  top: "label"
  include {
    phase: TEST
  }
  transform_param {
    mean_value: 104.00699
    mean_value: 116.66877
    mean_value: 122.67892
  }
  image_data_param {
    source: "/media/compute/homes/galberding/FleckDetect/Datasets/val.txt"
    batch_size: 1
    new_height: 500
    new_width: 500
    root_folder: "/media/compute/homes/galberding/FleckDetect/Datasets/"
    normalize: true
  }
}
layer {
  name: "conv1_1"
  type: "Convolution"
  bottom: "data"
  top: "conv1_1"
  param {
    lr_mult: 1
    decay_mult: 1
  }
  param {
    lr_mult: 2
    decay_mult: 0
  }
  convolution_param {
    num_output: 64
    pad: 1
    kernel_size: 3
    engine: CUDNN
  }
}
layer {
  name: "relu1_1"
  type: "ReLU"
  bottom: "conv1_1"
  top: "conv1_1"
}
layer {
  name: "conv1_2"
  type: "Convolution"
  bottom: "conv1_1"
  top: "conv1_2"
  param {
    lr_mult: 1
    decay_mult: 1
  }
  param {
    lr_mult: 2
    decay_mult: 0
  }
  convolution_param {
    num_output: 64
    pad: 1
    kernel_size: 3
    engine: CUDNN
  }
}
layer {
  name: "relu1_2"
  type: "ReLU"
  bottom: "conv1_2"
  top: "conv1_2"
}
layer {
  name: "pool1"
  type: "Pooling"
  bottom: "conv1_2"
  top: "pool1"
  pooling_param {
    pool: MAX
    kernel_size: 2
    stride: 2
  }
}
layer {
  name: "conv2_1"
  type: "Convolution"
  bottom: "pool1"
  top: "conv2_1"
  param {
    lr_mult: 1
    decay_mult: 1
  }
  param {
    lr_mult: 2
    decay_mult: 0
  }
  convolution_param {
    num_output: 128
    pad: 1
    kernel_size: 3
    engine: CUDNN
  }
}
layer {
  name: "relu2_1"
  type: "ReLU"
  bottom: "conv2_1"
  top: "conv2_1"
}
layer {
  name: "conv2_2"
  type: "Convolution"
  bottom: "conv2_1"
  top: "conv2_2"
  param {
    lr_mult: 1
    decay_mult: 1
  }
  param {
    lr_mult: 2
    decay_mult: 0
  }
  convolution_param {
    num_output: 128
    pad: 1
    kernel_size: 3
    engine: CUDNN
  }
}
layer {
  name: "relu2_2"
  type: "ReLU"
  bottom: "conv2_2"
  top: "conv2_2"
}
layer {
  name: "pool2"
  type: "Pooling"
  bottom: "conv2_2"
  top: "pool2"
  pooling_param {
    pool: MAX
    kernel_size: 2
    stride: 2
  }
}
layer {
  name: "conv3_1"
  type: "Convolution"
  bottom: "pool2"
  top: "conv3_1"
  param {
    lr_mult: 1
    decay_mult: 1
  }
  param {
    lr_mult: 2
    decay_mult: 0
  }
  convolution_param {
    num_output: 256
    pad: 1
    kernel_size: 3
    engine: CUDNN
  }
}
layer {
  name: "relu3_1"
  type: "ReLU"
  bottom: "conv3_1"
  top: "conv3_1"
}
layer {
  name: "conv3_2"
  type: "Convolution"
  bottom: "conv3_1"
  top: "conv3_2"
  param {
    lr_mult: 1
    decay_mult: 1
  }
  param {
    lr_mult: 2
    decay_mult: 0
  }
  convolution_param {
    num_output: 256
    pad: 1
    kernel_size: 3
    engine: CUDNN
  }
}
layer {
  name: "relu3_2"
  type: "ReLU"
  bottom: "conv3_2"
  top: "conv3_2"
}
layer {
  name: "conv3_3"
  type: "Convolution"
  bottom: "conv3_2"
  top: "conv3_3"
  param {
    lr_mult: 1
    decay_mult: 1
  }
  param {
    lr_mult: 2
    decay_mult: 0
  }
  convolution_param {
    num_output: 256
    pad: 1
    kernel_size: 3
    engine: CUDNN
  }
}
layer {
  name: "relu3_3"
  type: "ReLU"
  bottom: "conv3_3"
  top: "conv3_3"
}
layer {
  name: "pool3"
  type: "Pooling"
  bottom: "conv3_3"
  top: "pool3"
  pooling_param {
    pool: MAX
    kernel_size: 2
    stride: 2
  }
}
layer {
  name: "conv4_1"
  type: "Convolution"
  bottom: "pool3"
  top: "conv4_1"
  param {
    lr_mult: 1
    decay_mult: 1
  }
  param {
    lr_mult: 2
    decay_mult: 0
  }
  convolution_param {
    num_output: 512
    pad: 1
    kernel_size: 3
    engine: CUDNN
  }
}
layer {
  name: "relu4_1"
  type: "ReLU"
  bottom: "conv4_1"
  top: "conv4_1"
}
layer {
  name: "conv4_2"
  type: "Convolution"
  bottom: "conv4_1"
  top: "conv4_2"
  param {
    lr_mult: 1
    decay_mult: 1
  }
  param {
    lr_mult: 2
    decay_mult: 0
  }
  convolution_param {
    num_output: 512
    pad: 1
    kernel_size: 3
    engine: CUDNN
  }
}
layer {
  name: "relu4_2"
  type: "ReLU"
  bottom: "conv4_2"
  top: "conv4_2"
}
layer {
  name: "conv4_3"
  type: "Convolution"
  bottom: "conv4_2"
  top: "conv4_3"
  param {
    lr_mult: 1
    decay_mult: 1
  }
  param {
    lr_mult: 2
    decay_mult: 0
  }
  convolution_param {
    num_output: 512
    pad: 1
    kernel_size: 3
    engine: CUDNN
  }
}
layer {
  name: "relu4_3"
  type: "ReLU"
  bottom: "conv4_3"
  top: "conv4_3"
}
layer {
  name: "pool4"
  type: "Pooling"
  bottom: "conv4_3"
  top: "pool4"
  pooling_param {
    pool: MAX
    kernel_size: 3
    stride: 2
    pad: 1
  }
}
layer {
  name: "conv5_1"
  type: "Convolution"
  bottom: "pool4"
  top: "conv5_1"
  param {
    lr_mult: 1
    decay_mult: 1
  }
  param {
    lr_mult: 2
    decay_mult: 0
  }
  convolution_param {
    num_output: 512
    pad: 1
    kernel_size: 3
    engine: CUDNN
  }
}
layer {
  name: "relu5_1"
  type: "ReLU"
  bottom: "conv5_1"
  top: "conv5_1"
}
layer {
  name: "conv5_2"
  type: "Convolution"
  bottom: "conv5_1"
  top: "conv5_2"
  param {
    lr_mult: 1
    decay_mult: 1
  }
  param {
    lr_mult: 2
    decay_mult: 0
  }
  convolution_param {
    num_output: 512
    pad: 1
    kernel_size: 3
    engine: CUDNN
  }
}
layer {
  name: "relu5_2"
  type: "ReLU"
  bottom: "conv5_2"
  top: "conv5_2"
}
layer {
  name: "conv5_3"
  type: "Convolution"
  bottom: "conv5_2"
  top: "conv5_3"
  param {
    lr_mult: 1
    decay_mult: 1
  }
  param {
    lr_mult: 2
    decay_mult: 0
  }
  convolution_param {
    num_output: 512
    pad: 1
    kernel_size: 3
    engine: CUDNN
  }
}
layer {
  name: "relu5_3"
  type: "ReLU"
  bottom: "conv5_3"
  top: "conv5_3"
}
layer {
  name: "pool5"
  type: "Pooling"
  bottom: "conv5_3"
  top: "pool5"
  pooling_param {
    pool: MAX
    kernel_size: 3
    stride: 2
    pad: 1
  }
}
layer {
  name: "conv1-dsn6"
  type: "Convolution"
  bottom: "pool5"
  top: "conv1-dsn6"
  param {
    lr_mult: 1
    decay_mult: 1
  }
  param {
    lr_mult: 2
    decay_mult: 0
  }
  convolution_param {
    num_output: 256
    kernel_size: 1
    weight_filler {
      type: "gaussian"
      std: 0.01
    }
    bias_filler {
      type: "constant"
      value: 0
    }
    engine: CUDNN
  }
}
layer {
  name: "conv2-dsn6"
  type: "Convolution"
  bottom: "conv1-dsn6"
  top: "conv2-dsn6"
  param {
    lr_mult: 1
    decay_mult: 1
  }
  param {
    lr_mult: 2
    decay_mult: 0
  }
  convolution_param {
    num_output: 256
    pad: 2
    kernel_size: 5
    weight_filler {
      type: "gaussian"
      std: 0.01
    }
    bias_filler {
      type: "constant"
      value: 0
    }
    engine: CUDNN
  }
}
layer {
  name: "relu1-dsn6"
  type: "ReLU"
  bottom: "conv2-dsn6"
  top: "conv2-dsn6"
}
layer {
  name: "conv3-dsn6"
  type: "Convolution"
  bottom: "conv2-dsn6"
  top: "conv3-dsn6"
  param {
    lr_mult: 1
    decay_mult: 1
  }
  param {
    lr_mult: 2
    decay_mult: 0
  }
  convolution_param {
    num_output: 256
    pad: 2
    kernel_size: 5
    weight_filler {
      type: "gaussian"
      std: 0.01
    }
    bias_filler {
      type: "constant"
      value: 0
    }
    engine: CUDNN
  }
}
layer {
  name: "relu2-dsn6"
  type: "ReLU"
  bottom: "conv3-dsn6"
  top: "conv3-dsn6"
}
layer {
  name: "conv4-dsn6"
  type: "Convolution"
  bottom: "conv3-dsn6"
  top: "conv4-dsn6"
  param {
    lr_mult: 1
    decay_mult: 1
  }
  param {
    lr_mult: 2
    decay_mult: 0
  }
  convolution_param {
    num_output: 256
    pad: 2
    kernel_size: 5
    weight_filler {
      type: "gaussian"
      std: 0.01
    }
    bias_filler {
      type: "constant"
      value: 0
    }
    engine: CUDNN
  }
}
layer {
  name: "relu3-dsn6"
  type: "ReLU"
  bottom: "conv4-dsn6"
  top: "conv4-dsn6"
}
layer {
  name: "conv5-dsn6"
  type: "Convolution"
  bottom: "conv4-dsn6"
  top: "conv5-dsn6"
  param {
    lr_mult: 0.1
    decay_mult: 1
  }
  param {
    lr_mult: 0.2
    decay_mult: 0
  }
  convolution_param {
    num_output: 1
    kernel_size: 1
    weight_filler {
      type: "gaussian"
      std: 0.01
    }
    bias_filler {
      type: "constant"
      value: 0
    }
    engine: CUDNN
  }
}
layer {
  name: "upsample32_dsn6"
  type: "Deconvolution"
  bottom: "conv5-dsn6"
  top: "conv5-dsn6-up"
  param {
    lr_mult: 0
    decay_mult: 1
  }
  param {
    lr_mult: 0
    decay_mult: 0
  }
  convolution_param {
    num_output: 1
    kernel_size: 64
    stride: 32
  }
}
layer {
  name: "crop-dsn6"
  type: "Crop"
  bottom: "conv5-dsn6-up"
  bottom: "data"
  top: "upscore-dsn6"
}
layer {
  name: "loss6-score"
  type: "SigmoidCrossEntropyLoss"
  bottom: "upscore-dsn6"
  bottom: "label"
  top: "loss6-score"
  loss_weight: 1
}
layer {
  name: "upsample2_dsn5"
  type: "Deconvolution"
  bottom: "conv5-dsn6"
  top: "conv5-dsn6-5"
  param {
    lr_mult: 0
    decay_mult: 1
  }
  param {
    lr_mult: 0
    decay_mult: 0
  }
  convolution_param {
    num_output: 1
    kernel_size: 4
    stride: 2
  }
}
layer {
  name: "crop1-dsn5"
  type: "Crop"
  bottom: "conv5-dsn6-5"
  bottom: "conv5_3"
  top: "weight-dsn6-5"
}
layer {
  name: "sigmoid-dsn5"
  type: "Sigmoid"
  bottom: "weight-dsn6-5"
  top: "sigmoid-dsn5"
}
layer {
  name: "rev-dsn5"
  type: "Power"
  bottom: "sigmoid-dsn5"
  top: "rev-dsn5"
  power_param {
    power: 1
    scale: -1
    shift: 1
  }
}
layer {
  name: "tile-dsn5"
  type: "Tile"
  bottom: "rev-dsn5"
  top: "weight-dsn5"
  tile_param {
    tiles: 512
  }
}
layer {
  name: "prod1-dsn5"
  type: "Eltwise"
  bottom: "conv5_3"
  bottom: "weight-dsn5"
  top: "prod1-dsn5"
  eltwise_param {
    operation: PROD
  }
}
layer {
  name: "conv1-dsn5"
  type: "Convolution"
  bottom: "prod1-dsn5"
  top: "conv1-dsn5"
  param {
    lr_mult: 1
    decay_mult: 1
  }
  param {
    lr_mult: 2
    decay_mult: 0
  }
  convolution_param {
    num_output: 64
    kernel_size: 1
    weight_filler {
      type: "gaussian"
      std: 0.01
    }
    bias_filler {
      type: "constant"
      value: 0
    }
    engine: CUDNN
  }
}
layer {
  name: "conv2-dsn5"
  type: "Convolution"
  bottom: "conv1-dsn5"
  top: "conv2-dsn5"
  param {
    lr_mult: 1
    decay_mult: 1
  }
  param {
    lr_mult: 2
    decay_mult: 0
  }
  convolution_param {
    num_output: 64
    pad: 1
    kernel_size: 3
    weight_filler {
      type: "gaussian"
      std: 0.01
    }
    bias_filler {
      type: "constant"
      value: 0
    }
    engine: CUDNN
  }
}
layer {
  name: "relu1-dsn5"
  type: "ReLU"
  bottom: "conv2-dsn5"
  top: "conv2-dsn5"
}
layer {
  name: "conv3-dsn5"
  type: "Convolution"
  bottom: "conv2-dsn5"
  top: "conv3-dsn5"
  param {
    lr_mult: 1
    decay_mult: 1
  }
  param {
    lr_mult: 2
    decay_mult: 0
  }
  convolution_param {
    num_output: 64
    pad: 1
    kernel_size: 3
    weight_filler {
      type: "gaussian"
      std: 0.01
    }
    bias_filler {
      type: "constant"
      value: 0
    }
    engine: CUDNN
  }
}
layer {
  name: "relu2-dsn5"
  type: "ReLU"
  bottom: "conv3-dsn5"
  top: "conv3-dsn5"
}
layer {
  name: "conv4-dsn5"
  type: "Convolution"
  bottom: "conv3-dsn5"
  top: "conv4-dsn5"
  param {
    lr_mult: 1
    decay_mult: 1
  }
  param {
    lr_mult: 2
    decay_mult: 0
  }
  convolution_param {
    num_output: 1
    pad: 1
    kernel_size: 3
    weight_filler {
      type: "gaussian"
      std: 0.01
    }
    bias_filler {
      type: "constant"
      value: 0
    }
    engine: CUDNN
  }
}
layer {
  name: "sum-dsn5"
  type: "Eltwise"
  bottom: "conv4-dsn5"
  bottom: "weight-dsn6-5"
  top: "sum-dsn5"
  eltwise_param {
    operation: SUM
  }
}
layer {
  name: "upsample16_dsn5"
  type: "Deconvolution"
  bottom: "sum-dsn5"
  top: "sum-dsn5-up"
  param {
    lr_mult: 0
    decay_mult: 1
  }
  param {
    lr_mult: 0
    decay_mult: 0
  }
  convolution_param {
    num_output: 1
    kernel_size: 32
    stride: 16
  }
}
layer {
  name: "crop2-dsn5"
  type: "Crop"
  bottom: "sum-dsn5-up"
  bottom: "data"
  top: "upscore-dsn5"
}
layer {
  name: "loss5-score"
  type: "SigmoidCrossEntropyLoss"
  bottom: "upscore-dsn5"
  bottom: "label"
  top: "loss5-score"
  loss_weight: 1
}
layer {
  name: "upsample2_dsn4"
  type: "Deconvolution"
  bottom: "sum-dsn5"
  top: "sum-dsn5-4"
  param {
    lr_mult: 0
    decay_mult: 1
  }
  param {
    lr_mult: 0
    decay_mult: 0
  }
  convolution_param {
    num_output: 1
    kernel_size: 4
    stride: 2
  }
}
layer {
  name: "crop1-dsn4"
  type: "Crop"
  bottom: "sum-dsn5-4"
  bottom: "conv4_3"
  top: "weight-dsn5-4"
}
layer {
  name: "sigmoid-dsn4"
  type: "Sigmoid"
  bottom: "weight-dsn5-4"
  top: "sigmoid-dsn4"
}
layer {
  name: "rev-dsn4"
  type: "Power"
  bottom: "sigmoid-dsn4"
  top: "rev-dsn4"
  power_param {
    power: 1
    scale: -1
    shift: 1
  }
}
layer {
  name: "tile-dsn4"
  type: "Tile"
  bottom: "rev-dsn4"
  top: "weight-dsn4"
  tile_param {
    tiles: 512
  }
}
layer {
  name: "prod1-dsn4"
  type: "Eltwise"
  bottom: "conv4_3"
  bottom: "weight-dsn4"
  top: "prod1-dsn4"
  eltwise_param {
    operation: PROD
  }
}
layer {
  name: "conv1-dsn4"
  type: "Convolution"
  bottom: "prod1-dsn4"
  top: "conv1-dsn4"
  param {
    lr_mult: 1
    decay_mult: 1
  }
  param {
    lr_mult: 2
    decay_mult: 0
  }
  convolution_param {
    num_output: 64
    kernel_size: 1
    weight_filler {
      type: "gaussian"
      std: 0.01
    }
    bias_filler {
      type: "constant"
      value: 0
    }
    engine: CUDNN
  }
}
layer {
  name: "conv2-dsn4"
  type: "Convolution"
  bottom: "conv1-dsn4"
  top: "conv2-dsn4"
  param {
    lr_mult: 1
    decay_mult: 1
  }
  param {
    lr_mult: 2
    decay_mult: 0
  }
  convolution_param {
    num_output: 64
    pad: 1
    kernel_size: 3
    weight_filler {
      type: "gaussian"
      std: 0.01
    }
    bias_filler {
      type: "constant"
      value: 0
    }
    engine: CUDNN
  }
}
layer {
  name: "relu1-dsn4"
  type: "ReLU"
  bottom: "conv2-dsn4"
  top: "conv2-dsn4"
}
layer {
  name: "conv3-dsn4"
  type: "Convolution"
  bottom: "conv2-dsn4"
  top: "conv3-dsn4"
  param {
    lr_mult: 1
    decay_mult: 1
  }
  param {
    lr_mult: 2
    decay_mult: 0
  }
  convolution_param {
    num_output: 64
    pad: 1
    kernel_size: 3
    weight_filler {
      type: "gaussian"
      std: 0.01
    }
    bias_filler {
      type: "constant"
      value: 0
    }
    engine: CUDNN
  }
}
layer {
  name: "relu2-dsn4"
  type: "ReLU"
  bottom: "conv3-dsn4"
  top: "conv3-dsn4"
}
layer {
  name: "conv4-dsn4"
  type: "Convolution"
  bottom: "conv3-dsn4"
  top: "conv4-dsn4"
  param {
    lr_mult: 1
    decay_mult: 1
  }
  param {
    lr_mult: 2
    decay_mult: 0
  }
  convolution_param {
    num_output: 1
    pad: 1
    kernel_size: 3
    weight_filler {
      type: "gaussian"
      std: 0.01
    }
    bias_filler {
      type: "constant"
      value: 0
    }
    engine: CUDNN
  }
}
layer {
  name: "sum-dsn4"
  type: "Eltwise"
  bottom: "conv4-dsn4"
  bottom: "weight-dsn5-4"
  top: "sum-dsn4"
  eltwise_param {
    operation: SUM
  }
}
layer {
  name: "upsample8_dsn4"
  type: "Deconvolution"
  bottom: "sum-dsn4"
  top: "sum-dsn4-up"
  param {
    lr_mult: 0
    decay_mult: 1
  }
  param {
    lr_mult: 0
    decay_mult: 0
  }
  convolution_param {
    num_output: 1
    kernel_size: 16
    stride: 8
  }
}
layer {
  name: "crop2-dsn4"
  type: "Crop"
  bottom: "sum-dsn4-up"
  bottom: "data"
  top: "upscore-dsn4"
}
layer {
  name: "loss4-score"
  type: "SigmoidCrossEntropyLoss"
  bottom: "upscore-dsn4"
  bottom: "label"
  top: "loss4-score"
  loss_weight: 1
}
layer {
  name: "upsample2_dsn3"
  type: "Deconvolution"
  bottom: "sum-dsn4"
  top: "sum-dsn4-3"
  param {
    lr_mult: 0
    decay_mult: 1
  }
  param {
    lr_mult: 0
    decay_mult: 0
  }
  convolution_param {
    num_output: 1
    kernel_size: 4
    stride: 2
  }
}
layer {
  name: "crop1-dsn3"
  type: "Crop"
  bottom: "sum-dsn4-3"
  bottom: "conv3_3"
  top: "weight-dsn4-3"
}
layer {
  name: "sigmoid-dsn3"
  type: "Sigmoid"
  bottom: "weight-dsn4-3"
  top: "sigmoid-dsn3"
}
layer {
  name: "rev-dsn3"
  type: "Power"
  bottom: "sigmoid-dsn3"
  top: "rev-dsn3"
  power_param {
    power: 1
    scale: -1
    shift: 1
  }
}
layer {
  name: "tile-dsn3"
  type: "Tile"
  bottom: "rev-dsn3"
  top: "weight-dsn3"
  tile_param {
    tiles: 256
  }
}
layer {
  name: "prod1-dsn3"
  type: "Eltwise"
  bottom: "conv3_3"
  bottom: "weight-dsn3"
  top: "prod1-dsn3"
  eltwise_param {
    operation: PROD
  }
}
layer {
  name: "conv1-dsn3"
  type: "Convolution"
  bottom: "prod1-dsn3"
  top: "conv1-dsn3"
  param {
    lr_mult: 1
    decay_mult: 1
  }
  param {
    lr_mult: 2
    decay_mult: 0
  }
  convolution_param {
    num_output: 64
    kernel_size: 1
    weight_filler {
      type: "gaussian"
      std: 0.01
    }
    bias_filler {
      type: "constant"
      value: 0
    }
    engine: CUDNN
  }
}
layer {
  name: "conv2-dsn3"
  type: "Convolution"
  bottom: "conv1-dsn3"
  top: "conv2-dsn3"
  param {
    lr_mult: 1
    decay_mult: 1
  }
  param {
    lr_mult: 2
    decay_mult: 0
  }
  convolution_param {
    num_output: 64
    pad: 1
    kernel_size: 3
    weight_filler {
      type: "gaussian"
      std: 0.01
    }
    bias_filler {
      type: "constant"
      value: 0
    }
    engine: CUDNN
  }
}
layer {
  name: "relu1-dsn3"
  type: "ReLU"
  bottom: "conv2-dsn3"
  top: "conv2-dsn3"
}
layer {
  name: "conv3-dsn3"
  type: "Convolution"
  bottom: "conv2-dsn3"
  top: "conv3-dsn3"
  param {
    lr_mult: 1
    decay_mult: 1
  }
  param {
    lr_mult: 2
    decay_mult: 0
  }
  convolution_param {
    num_output: 64
    pad: 1
    kernel_size: 3
    weight_filler {
      type: "gaussian"
      std: 0.01
    }
    bias_filler {
      type: "constant"
      value: 0
    }
    engine: CUDNN
  }
}
layer {
  name: "relu2-dsn3"
  type: "ReLU"
  bottom: "conv3-dsn3"
  top: "conv3-dsn3"
}
layer {
  name: "conv4-dsn3"
  type: "Convolution"
  bottom: "conv3-dsn3"
  top: "conv4-dsn3"
  param {
    lr_mult: 1
    decay_mult: 1
  }
  param {
    lr_mult: 2
    decay_mult: 0
  }
  convolution_param {
    num_output: 1
    pad: 1
    kernel_size: 3
    weight_filler {
      type: "gaussian"
      std: 0.01
    }
    bias_filler {
      type: "constant"
      value: 0
    }
    engine: CUDNN
  }
}
layer {
  name: "sum-dsn3"
  type: "Eltwise"
  bottom: "conv4-dsn3"
  bottom: "weight-dsn4-3"
  top: "sum-dsn3"
  eltwise_param {
    operation: SUM
  }
}
layer {
  name: "upsample4_dsn3"
  type: "Deconvolution"
  bottom: "sum-dsn3"
  top: "sum-dsn3-up"
  param {
    lr_mult: 0
    decay_mult: 1
  }
  param {
    lr_mult: 0
    decay_mult: 0
  }
  convolution_param {
    num_output: 1
    kernel_size: 8
    stride: 4
  }
}
layer {
  name: "crop2-dsn3"
  type: "Crop"
  bottom: "sum-dsn3-up"
  bottom: "data"
  top: "upscore-dsn3"
}
layer {
  name: "loss3-score"
  type: "SigmoidCrossEntropyLoss"
  bottom: "upscore-dsn3"
  bottom: "label"
  top: "loss3-score"
  loss_weight: 1
}
layer {
  name: "upsample2_1-dsn2"
  type: "Deconvolution"
  bottom: "sum-dsn3"
  top: "sum-dsn3-2"
  param {
    lr_mult: 0
    decay_mult: 1
  }
  param {
    lr_mult: 0
    decay_mult: 0
  }
  convolution_param {
    num_output: 1
    kernel_size: 4
    stride: 2
  }
}
layer {
  name: "crop1-dsn2"
  type: "Crop"
  bottom: "sum-dsn3-2"
  bottom: "conv2_2"
  top: "weight-dsn3-2"
}
layer {
  name: "sigmoid-dsn2"
  type: "Sigmoid"
  bottom: "weight-dsn3-2"
  top: "sigmoid-dsn2"
}
layer {
  name: "rev-dsn2"
  type: "Power"
  bottom: "sigmoid-dsn2"
  top: "rev-dsn2"
  power_param {
    power: 1
    scale: -1
    shift: 1
  }
}
layer {
  name: "tile-dsn2"
  type: "Tile"
  bottom: "rev-dsn2"
  top: "weight-dsn2"
  tile_param {
    tiles: 128
  }
}
layer {
  name: "prod1-dsn2"
  type: "Eltwise"
  bottom: "conv2_2"
  bottom: "weight-dsn2"
  top: "prod1-dsn2"
  eltwise_param {
    operation: PROD
  }
}
layer {
  name: "conv1-dsn2"
  type: "Convolution"
  bottom: "prod1-dsn2"
  top: "conv1-dsn2"
  param {
    lr_mult: 1
    decay_mult: 1
  }
  param {
    lr_mult: 2
    decay_mult: 0
  }
  convolution_param {
    num_output: 64
    kernel_size: 1
    weight_filler {
      type: "gaussian"
      std: 0.01
    }
    bias_filler {
      type: "constant"
      value: 0
    }
    engine: CUDNN
  }
}
layer {
  name: "conv2-dsn2"
  type: "Convolution"
  bottom: "conv1-dsn2"
  top: "conv2-dsn2"
  param {
    lr_mult: 1
    decay_mult: 1
  }
  param {
    lr_mult: 2
    decay_mult: 0
  }
  convolution_param {
    num_output: 64
    pad: 1
    kernel_size: 3
    weight_filler {
      type: "gaussian"
      std: 0.01
    }
    bias_filler {
      type: "constant"
      value: 0
    }
    engine: CUDNN
  }
}
layer {
  name: "relu1-dsn2"
  type: "ReLU"
  bottom: "conv2-dsn2"
  top: "conv2-dsn2"
}
layer {
  name: "conv3-dsn2"
  type: "Convolution"
  bottom: "conv2-dsn2"
  top: "conv3-dsn2"
  param {
    lr_mult: 1
    decay_mult: 1
  }
  param {
    lr_mult: 2
    decay_mult: 0
  }
  convolution_param {
    num_output: 64
    pad: 1
    kernel_size: 3
    weight_filler {
      type: "gaussian"
      std: 0.01
    }
    bias_filler {
      type: "constant"
      value: 0
    }
    engine: CUDNN
  }
}
layer {
  name: "relu2-dsn2"
  type: "ReLU"
  bottom: "conv3-dsn2"
  top: "conv3-dsn2"
}
layer {
  name: "conv4-dsn2"
  type: "Convolution"
  bottom: "conv3-dsn2"
  top: "conv4-dsn2"
  param {
    lr_mult: 1
    decay_mult: 1
  }
  param {
    lr_mult: 2
    decay_mult: 0
  }
  convolution_param {
    num_output: 1
    pad: 1
    kernel_size: 3
    weight_filler {
      type: "gaussian"
      std: 0.01
    }
    bias_filler {
      type: "constant"
      value: 0
    }
    engine: CUDNN
  }
}
layer {
  name: "sum-dsn2"
  type: "Eltwise"
  bottom: "conv4-dsn2"
  bottom: "weight-dsn3-2"
  top: "sum-dsn2"
  eltwise_param {
    operation: SUM
  }
}
layer {
  name: "upsample2_2-dsn2"
  type: "Deconvolution"
  bottom: "sum-dsn2"
  top: "sum-dsn2-up"
  param {
    lr_mult: 0
    decay_mult: 1
  }
  param {
    lr_mult: 0
    decay_mult: 0
  }
  convolution_param {
    num_output: 1
    kernel_size: 4
    stride: 2
  }
}
layer {
  name: "crop2-dsn2"
  type: "Crop"
  bottom: "sum-dsn2-up"
  bottom: "data"
  top: "upscore-dsn2"
}
layer {
  name: "loss2-score"
  type: "SigmoidCrossEntropyLoss"
  bottom: "upscore-dsn2"
  bottom: "label"
  top: "loss2-score"
  loss_weight: 1
}
layer {
  name: "sigmoid-dsn1"
  type: "Sigmoid"
  bottom: "upscore-dsn2"
  top: "sigmoid-dsn1"
}
layer {
  name: "rev-dsn1"
  type: "Power"
  bottom: "sigmoid-dsn1"
  top: "rev-dsn1"
  power_param {
    power: 1
    scale: -1
    shift: 1
  }
}
layer {
  name: "tile-dsn1"
  type: "Tile"
  bottom: "rev-dsn1"
  top: "weight-dsn1"
  tile_param {
    tiles: 64
  }
}
layer {
  name: "prod1-dsn1"
  type: "Eltwise"
  bottom: "conv1_2"
  bottom: "weight-dsn1"
  top: "prod1-dsn1"
  eltwise_param {
    operation: PROD
  }
}
layer {
  name: "conv1-dsn1"
  type: "Convolution"
  bottom: "prod1-dsn1"
  top: "conv1-dsn1"
  param {
    lr_mult: 1
    decay_mult: 1
  }
  param {
    lr_mult: 2
    decay_mult: 0
  }
  convolution_param {
    num_output: 64
    kernel_size: 1
    weight_filler {
      type: "gaussian"
      std: 0.01
    }
    bias_filler {
      type: "constant"
      value: 0
    }
    engine: CUDNN
  }
}
layer {
  name: "conv2-dsn1"
  type: "Convolution"
  bottom: "conv1-dsn1"
  top: "conv2-dsn1"
  param {
    lr_mult: 1
    decay_mult: 1
  }
  param {
    lr_mult: 2
    decay_mult: 0
  }
  convolution_param {
    num_output: 64
    pad: 1
    kernel_size: 3
    weight_filler {
      type: "gaussian"
      std: 0.01
    }
    bias_filler {
      type: "constant"
      value: 0
    }
    engine: CUDNN
  }
}
layer {
  name: "relu1-dsn1"
  type: "ReLU"
  bottom: "conv2-dsn1"
  top: "conv2-dsn1"
}
layer {
  name: "conv3-dsn1"
  type: "Convolution"
  bottom: "conv2-dsn1"
  top: "conv3-dsn1"
  param {
    lr_mult: 1
    decay_mult: 1
  }
  param {
    lr_mult: 2
    decay_mult: 0
  }
  convolution_param {
    num_output: 64
    pad: 1
    kernel_size: 3
    weight_filler {
      type: "gaussian"
      std: 0.01
    }
    bias_filler {
      type: "constant"
      value: 0
    }
    engine: CUDNN
  }
}
layer {
  name: "relu2-dsn1"
  type: "ReLU"
  bottom: "conv3-dsn1"
  top: "conv3-dsn1"
}
layer {
  name: "conv4-dsn1"
  type: "Convolution"
  bottom: "conv3-dsn1"
  top: "conv4-dsn1"
  param {
    lr_mult: 1
    decay_mult: 1
  }
  param {
    lr_mult: 2
    decay_mult: 0
  }
  convolution_param {
    num_output: 1
    pad: 1
    kernel_size: 3
    weight_filler {
      type: "gaussian"
      std: 0.01
    }
    bias_filler {
      type: "constant"
      value: 0
    }
    engine: CUDNN
  }
}
layer {
  name: "sum-dsn1"
  type: "Eltwise"
  bottom: "conv4-dsn1"
  bottom: "upscore-dsn2"
  top: "sum-dsn1"
  eltwise_param {
    operation: SUM
  }
}
layer {
  name: "crop2-dsn1"
  type: "Crop"
  bottom: "sum-dsn1"
  bottom: "data"
  top: "upscore-dsn1"
}
layer {
  name: "loss1-score"
  type: "SigmoidCrossEntropyLoss"
  bottom: "upscore-dsn1"
  bottom: "label"
  top: "loss1-score"
  loss_weight: 1
}
I1118 18:43:55.756122  3424 layer_factory.hpp:77] Creating layer data
I1118 18:43:55.756152  3424 net.cpp:100] Creating Layer data
I1118 18:43:55.756157  3424 net.cpp:408] data -> data
I1118 18:43:55.756165  3424 net.cpp:408] data -> label
I1118 18:43:55.756172  3424 image_labelmap_data_layer.cpp:41] Opening file /media/compute/homes/galberding/FleckDetect/Datasets/val.txt
I1118 18:43:55.758168  3424 image_labelmap_data_layer.cpp:56] A total of 1200 images.
I1118 18:43:55.773090  3424 image_labelmap_data_layer.cpp:110] output data size: 1,3,500,500
I1118 18:43:55.773102  3424 image_labelmap_data_layer.cpp:113] output label size: 1,1,500,500
I1118 18:43:55.780328  3424 net.cpp:150] Setting up data
I1118 18:43:55.780339  3424 net.cpp:157] Top shape: 1 3 500 500 (750000)
I1118 18:43:55.780344  3424 net.cpp:157] Top shape: 1 1 500 500 (250000)
I1118 18:43:55.780360  3424 net.cpp:165] Memory required for data: 4000000
I1118 18:43:55.780364  3424 layer_factory.hpp:77] Creating layer data_data_0_split
I1118 18:43:55.780375  3424 net.cpp:100] Creating Layer data_data_0_split
I1118 18:43:55.780377  3424 net.cpp:434] data_data_0_split <- data
I1118 18:43:55.780382  3424 net.cpp:408] data_data_0_split -> data_data_0_split_0
I1118 18:43:55.780391  3424 net.cpp:408] data_data_0_split -> data_data_0_split_1
I1118 18:43:55.780396  3424 net.cpp:408] data_data_0_split -> data_data_0_split_2
I1118 18:43:55.780401  3424 net.cpp:408] data_data_0_split -> data_data_0_split_3
I1118 18:43:55.780405  3424 net.cpp:408] data_data_0_split -> data_data_0_split_4
I1118 18:43:55.780411  3424 net.cpp:408] data_data_0_split -> data_data_0_split_5
I1118 18:43:55.780414  3424 net.cpp:408] data_data_0_split -> data_data_0_split_6
I1118 18:43:55.780508  3424 net.cpp:150] Setting up data_data_0_split
I1118 18:43:55.780514  3424 net.cpp:157] Top shape: 1 3 500 500 (750000)
I1118 18:43:55.780519  3424 net.cpp:157] Top shape: 1 3 500 500 (750000)
I1118 18:43:55.780521  3424 net.cpp:157] Top shape: 1 3 500 500 (750000)
I1118 18:43:55.780524  3424 net.cpp:157] Top shape: 1 3 500 500 (750000)
I1118 18:43:55.780526  3424 net.cpp:157] Top shape: 1 3 500 500 (750000)
I1118 18:43:55.780530  3424 net.cpp:157] Top shape: 1 3 500 500 (750000)
I1118 18:43:55.780534  3424 net.cpp:157] Top shape: 1 3 500 500 (750000)
I1118 18:43:55.780535  3424 net.cpp:165] Memory required for data: 25000000
I1118 18:43:55.780537  3424 layer_factory.hpp:77] Creating layer label_data_1_split
I1118 18:43:55.780542  3424 net.cpp:100] Creating Layer label_data_1_split
I1118 18:43:55.780545  3424 net.cpp:434] label_data_1_split <- label
I1118 18:43:55.780550  3424 net.cpp:408] label_data_1_split -> label_data_1_split_0
I1118 18:43:55.780553  3424 net.cpp:408] label_data_1_split -> label_data_1_split_1
I1118 18:43:55.780558  3424 net.cpp:408] label_data_1_split -> label_data_1_split_2
I1118 18:43:55.780562  3424 net.cpp:408] label_data_1_split -> label_data_1_split_3
I1118 18:43:55.780566  3424 net.cpp:408] label_data_1_split -> label_data_1_split_4
I1118 18:43:55.780570  3424 net.cpp:408] label_data_1_split -> label_data_1_split_5
I1118 18:43:55.780664  3424 net.cpp:150] Setting up label_data_1_split
I1118 18:43:55.780669  3424 net.cpp:157] Top shape: 1 1 500 500 (250000)
I1118 18:43:55.780673  3424 net.cpp:157] Top shape: 1 1 500 500 (250000)
I1118 18:43:55.780674  3424 net.cpp:157] Top shape: 1 1 500 500 (250000)
I1118 18:43:55.780678  3424 net.cpp:157] Top shape: 1 1 500 500 (250000)
I1118 18:43:55.780680  3424 net.cpp:157] Top shape: 1 1 500 500 (250000)
I1118 18:43:55.780683  3424 net.cpp:157] Top shape: 1 1 500 500 (250000)
I1118 18:43:55.780685  3424 net.cpp:165] Memory required for data: 31000000
I1118 18:43:55.780689  3424 layer_factory.hpp:77] Creating layer conv1_1
I1118 18:43:55.780694  3424 net.cpp:100] Creating Layer conv1_1
I1118 18:43:55.780696  3424 net.cpp:434] conv1_1 <- data_data_0_split_0
I1118 18:43:55.780701  3424 net.cpp:408] conv1_1 -> conv1_1
I1118 18:43:55.781690  3424 net.cpp:150] Setting up conv1_1
I1118 18:43:55.781702  3424 net.cpp:157] Top shape: 1 64 500 500 (16000000)
I1118 18:43:55.781719  3424 net.cpp:165] Memory required for data: 95000000
I1118 18:43:55.781728  3424 layer_factory.hpp:77] Creating layer relu1_1
I1118 18:43:55.781733  3424 net.cpp:100] Creating Layer relu1_1
I1118 18:43:55.781735  3424 net.cpp:434] relu1_1 <- conv1_1
I1118 18:43:55.781739  3424 net.cpp:395] relu1_1 -> conv1_1 (in-place)
I1118 18:43:55.781921  3424 net.cpp:150] Setting up relu1_1
I1118 18:43:55.781946  3424 net.cpp:157] Top shape: 1 64 500 500 (16000000)
I1118 18:43:55.781949  3424 net.cpp:165] Memory required for data: 159000000
I1118 18:43:55.781951  3424 layer_factory.hpp:77] Creating layer conv1_2
I1118 18:43:55.781957  3424 net.cpp:100] Creating Layer conv1_2
I1118 18:43:55.781960  3424 net.cpp:434] conv1_2 <- conv1_1
I1118 18:43:55.781965  3424 net.cpp:408] conv1_2 -> conv1_2
I1118 18:43:55.783632  3424 net.cpp:150] Setting up conv1_2
I1118 18:43:55.783643  3424 net.cpp:157] Top shape: 1 64 500 500 (16000000)
I1118 18:43:55.783661  3424 net.cpp:165] Memory required for data: 223000000
I1118 18:43:55.783668  3424 layer_factory.hpp:77] Creating layer relu1_2
I1118 18:43:55.783672  3424 net.cpp:100] Creating Layer relu1_2
I1118 18:43:55.783675  3424 net.cpp:434] relu1_2 <- conv1_2
I1118 18:43:55.783679  3424 net.cpp:395] relu1_2 -> conv1_2 (in-place)
I1118 18:43:55.783758  3424 net.cpp:150] Setting up relu1_2
I1118 18:43:55.783764  3424 net.cpp:157] Top shape: 1 64 500 500 (16000000)
I1118 18:43:55.783767  3424 net.cpp:165] Memory required for data: 287000000
I1118 18:43:55.783769  3424 layer_factory.hpp:77] Creating layer conv1_2_relu1_2_0_split
I1118 18:43:55.783773  3424 net.cpp:100] Creating Layer conv1_2_relu1_2_0_split
I1118 18:43:55.783776  3424 net.cpp:434] conv1_2_relu1_2_0_split <- conv1_2
I1118 18:43:55.783780  3424 net.cpp:408] conv1_2_relu1_2_0_split -> conv1_2_relu1_2_0_split_0
I1118 18:43:55.783785  3424 net.cpp:408] conv1_2_relu1_2_0_split -> conv1_2_relu1_2_0_split_1
I1118 18:43:55.783815  3424 net.cpp:150] Setting up conv1_2_relu1_2_0_split
I1118 18:43:55.783820  3424 net.cpp:157] Top shape: 1 64 500 500 (16000000)
I1118 18:43:55.783823  3424 net.cpp:157] Top shape: 1 64 500 500 (16000000)
I1118 18:43:55.783825  3424 net.cpp:165] Memory required for data: 415000000
I1118 18:43:55.783828  3424 layer_factory.hpp:77] Creating layer pool1
I1118 18:43:55.783833  3424 net.cpp:100] Creating Layer pool1
I1118 18:43:55.783836  3424 net.cpp:434] pool1 <- conv1_2_relu1_2_0_split_0
I1118 18:43:55.783840  3424 net.cpp:408] pool1 -> pool1
I1118 18:43:55.783883  3424 net.cpp:150] Setting up pool1
I1118 18:43:55.783888  3424 net.cpp:157] Top shape: 1 64 250 250 (4000000)
I1118 18:43:55.783890  3424 net.cpp:165] Memory required for data: 431000000
I1118 18:43:55.783893  3424 layer_factory.hpp:77] Creating layer conv2_1
I1118 18:43:55.783898  3424 net.cpp:100] Creating Layer conv2_1
I1118 18:43:55.783900  3424 net.cpp:434] conv2_1 <- pool1
I1118 18:43:55.783905  3424 net.cpp:408] conv2_1 -> conv2_1
I1118 18:43:55.784562  3424 net.cpp:150] Setting up conv2_1
I1118 18:43:55.784572  3424 net.cpp:157] Top shape: 1 128 250 250 (8000000)
I1118 18:43:55.784574  3424 net.cpp:165] Memory required for data: 463000000
I1118 18:43:55.784581  3424 layer_factory.hpp:77] Creating layer relu2_1
I1118 18:43:55.784586  3424 net.cpp:100] Creating Layer relu2_1
I1118 18:43:55.784588  3424 net.cpp:434] relu2_1 <- conv2_1
I1118 18:43:55.784592  3424 net.cpp:395] relu2_1 -> conv2_1 (in-place)
I1118 18:43:55.784667  3424 net.cpp:150] Setting up relu2_1
I1118 18:43:55.784672  3424 net.cpp:157] Top shape: 1 128 250 250 (8000000)
I1118 18:43:55.784674  3424 net.cpp:165] Memory required for data: 495000000
I1118 18:43:55.784677  3424 layer_factory.hpp:77] Creating layer conv2_2
I1118 18:43:55.784683  3424 net.cpp:100] Creating Layer conv2_2
I1118 18:43:55.784685  3424 net.cpp:434] conv2_2 <- conv2_1
I1118 18:43:55.784690  3424 net.cpp:408] conv2_2 -> conv2_2
I1118 18:43:55.787292  3424 net.cpp:150] Setting up conv2_2
I1118 18:43:55.787307  3424 net.cpp:157] Top shape: 1 128 250 250 (8000000)
I1118 18:43:55.787310  3424 net.cpp:165] Memory required for data: 527000000
I1118 18:43:55.787315  3424 layer_factory.hpp:77] Creating layer relu2_2
I1118 18:43:55.787319  3424 net.cpp:100] Creating Layer relu2_2
I1118 18:43:55.787322  3424 net.cpp:434] relu2_2 <- conv2_2
I1118 18:43:55.787326  3424 net.cpp:395] relu2_2 -> conv2_2 (in-place)
I1118 18:43:55.787385  3424 net.cpp:150] Setting up relu2_2
I1118 18:43:55.787392  3424 net.cpp:157] Top shape: 1 128 250 250 (8000000)
I1118 18:43:55.787395  3424 net.cpp:165] Memory required for data: 559000000
I1118 18:43:55.787397  3424 layer_factory.hpp:77] Creating layer conv2_2_relu2_2_0_split
I1118 18:43:55.787412  3424 net.cpp:100] Creating Layer conv2_2_relu2_2_0_split
I1118 18:43:55.787415  3424 net.cpp:434] conv2_2_relu2_2_0_split <- conv2_2
I1118 18:43:55.787420  3424 net.cpp:408] conv2_2_relu2_2_0_split -> conv2_2_relu2_2_0_split_0
I1118 18:43:55.787426  3424 net.cpp:408] conv2_2_relu2_2_0_split -> conv2_2_relu2_2_0_split_1
I1118 18:43:55.787431  3424 net.cpp:408] conv2_2_relu2_2_0_split -> conv2_2_relu2_2_0_split_2
I1118 18:43:55.787472  3424 net.cpp:150] Setting up conv2_2_relu2_2_0_split
I1118 18:43:55.787477  3424 net.cpp:157] Top shape: 1 128 250 250 (8000000)
I1118 18:43:55.787482  3424 net.cpp:157] Top shape: 1 128 250 250 (8000000)
I1118 18:43:55.787483  3424 net.cpp:157] Top shape: 1 128 250 250 (8000000)
I1118 18:43:55.787485  3424 net.cpp:165] Memory required for data: 655000000
I1118 18:43:55.787487  3424 layer_factory.hpp:77] Creating layer pool2
I1118 18:43:55.787493  3424 net.cpp:100] Creating Layer pool2
I1118 18:43:55.787497  3424 net.cpp:434] pool2 <- conv2_2_relu2_2_0_split_0
I1118 18:43:55.787500  3424 net.cpp:408] pool2 -> pool2
I1118 18:43:55.787542  3424 net.cpp:150] Setting up pool2
I1118 18:43:55.787549  3424 net.cpp:157] Top shape: 1 128 125 125 (2000000)
I1118 18:43:55.787550  3424 net.cpp:165] Memory required for data: 663000000
I1118 18:43:55.787552  3424 layer_factory.hpp:77] Creating layer conv3_1
I1118 18:43:55.787559  3424 net.cpp:100] Creating Layer conv3_1
I1118 18:43:55.787561  3424 net.cpp:434] conv3_1 <- pool2
I1118 18:43:55.787566  3424 net.cpp:408] conv3_1 -> conv3_1
I1118 18:43:55.788373  3424 net.cpp:150] Setting up conv3_1
I1118 18:43:55.788383  3424 net.cpp:157] Top shape: 1 256 125 125 (4000000)
I1118 18:43:55.788385  3424 net.cpp:165] Memory required for data: 679000000
I1118 18:43:55.788393  3424 layer_factory.hpp:77] Creating layer relu3_1
I1118 18:43:55.788400  3424 net.cpp:100] Creating Layer relu3_1
I1118 18:43:55.788403  3424 net.cpp:434] relu3_1 <- conv3_1
I1118 18:43:55.788408  3424 net.cpp:395] relu3_1 -> conv3_1 (in-place)
I1118 18:43:55.788595  3424 net.cpp:150] Setting up relu3_1
I1118 18:43:55.788605  3424 net.cpp:157] Top shape: 1 256 125 125 (4000000)
I1118 18:43:55.788607  3424 net.cpp:165] Memory required for data: 695000000
I1118 18:43:55.788610  3424 layer_factory.hpp:77] Creating layer conv3_2
I1118 18:43:55.788619  3424 net.cpp:100] Creating Layer conv3_2
I1118 18:43:55.788621  3424 net.cpp:434] conv3_2 <- conv3_1
I1118 18:43:55.788626  3424 net.cpp:408] conv3_2 -> conv3_2
I1118 18:43:55.790416  3424 net.cpp:150] Setting up conv3_2
I1118 18:43:55.790426  3424 net.cpp:157] Top shape: 1 256 125 125 (4000000)
I1118 18:43:55.790443  3424 net.cpp:165] Memory required for data: 711000000
I1118 18:43:55.790449  3424 layer_factory.hpp:77] Creating layer relu3_2
I1118 18:43:55.790454  3424 net.cpp:100] Creating Layer relu3_2
I1118 18:43:55.790458  3424 net.cpp:434] relu3_2 <- conv3_2
I1118 18:43:55.790462  3424 net.cpp:395] relu3_2 -> conv3_2 (in-place)
I1118 18:43:55.790637  3424 net.cpp:150] Setting up relu3_2
I1118 18:43:55.790647  3424 net.cpp:157] Top shape: 1 256 125 125 (4000000)
I1118 18:43:55.790648  3424 net.cpp:165] Memory required for data: 727000000
I1118 18:43:55.790652  3424 layer_factory.hpp:77] Creating layer conv3_3
I1118 18:43:55.790658  3424 net.cpp:100] Creating Layer conv3_3
I1118 18:43:55.790663  3424 net.cpp:434] conv3_3 <- conv3_2
I1118 18:43:55.790668  3424 net.cpp:408] conv3_3 -> conv3_3
I1118 18:43:55.792430  3424 net.cpp:150] Setting up conv3_3
I1118 18:43:55.792441  3424 net.cpp:157] Top shape: 1 256 125 125 (4000000)
I1118 18:43:55.792443  3424 net.cpp:165] Memory required for data: 743000000
I1118 18:43:55.792448  3424 layer_factory.hpp:77] Creating layer relu3_3
I1118 18:43:55.792454  3424 net.cpp:100] Creating Layer relu3_3
I1118 18:43:55.792456  3424 net.cpp:434] relu3_3 <- conv3_3
I1118 18:43:55.792460  3424 net.cpp:395] relu3_3 -> conv3_3 (in-place)
I1118 18:43:55.792613  3424 net.cpp:150] Setting up relu3_3
I1118 18:43:55.792620  3424 net.cpp:157] Top shape: 1 256 125 125 (4000000)
I1118 18:43:55.792623  3424 net.cpp:165] Memory required for data: 759000000
I1118 18:43:55.792641  3424 layer_factory.hpp:77] Creating layer conv3_3_relu3_3_0_split
I1118 18:43:55.792646  3424 net.cpp:100] Creating Layer conv3_3_relu3_3_0_split
I1118 18:43:55.792649  3424 net.cpp:434] conv3_3_relu3_3_0_split <- conv3_3
I1118 18:43:55.792654  3424 net.cpp:408] conv3_3_relu3_3_0_split -> conv3_3_relu3_3_0_split_0
I1118 18:43:55.792660  3424 net.cpp:408] conv3_3_relu3_3_0_split -> conv3_3_relu3_3_0_split_1
I1118 18:43:55.792665  3424 net.cpp:408] conv3_3_relu3_3_0_split -> conv3_3_relu3_3_0_split_2
I1118 18:43:55.792722  3424 net.cpp:150] Setting up conv3_3_relu3_3_0_split
I1118 18:43:55.792727  3424 net.cpp:157] Top shape: 1 256 125 125 (4000000)
I1118 18:43:55.792732  3424 net.cpp:157] Top shape: 1 256 125 125 (4000000)
I1118 18:43:55.792733  3424 net.cpp:157] Top shape: 1 256 125 125 (4000000)
I1118 18:43:55.792735  3424 net.cpp:165] Memory required for data: 807000000
I1118 18:43:55.792738  3424 layer_factory.hpp:77] Creating layer pool3
I1118 18:43:55.792743  3424 net.cpp:100] Creating Layer pool3
I1118 18:43:55.792747  3424 net.cpp:434] pool3 <- conv3_3_relu3_3_0_split_0
I1118 18:43:55.792752  3424 net.cpp:408] pool3 -> pool3
I1118 18:43:55.792783  3424 net.cpp:150] Setting up pool3
I1118 18:43:55.792789  3424 net.cpp:157] Top shape: 1 256 63 63 (1016064)
I1118 18:43:55.792791  3424 net.cpp:165] Memory required for data: 811064256
I1118 18:43:55.792793  3424 layer_factory.hpp:77] Creating layer conv4_1
I1118 18:43:55.792800  3424 net.cpp:100] Creating Layer conv4_1
I1118 18:43:55.792804  3424 net.cpp:434] conv4_1 <- pool3
I1118 18:43:55.792807  3424 net.cpp:408] conv4_1 -> conv4_1
I1118 18:43:55.797356  3424 net.cpp:150] Setting up conv4_1
I1118 18:43:55.797369  3424 net.cpp:157] Top shape: 1 512 63 63 (2032128)
I1118 18:43:55.797371  3424 net.cpp:165] Memory required for data: 819192768
I1118 18:43:55.797376  3424 layer_factory.hpp:77] Creating layer relu4_1
I1118 18:43:55.797381  3424 net.cpp:100] Creating Layer relu4_1
I1118 18:43:55.797384  3424 net.cpp:434] relu4_1 <- conv4_1
I1118 18:43:55.797389  3424 net.cpp:395] relu4_1 -> conv4_1 (in-place)
I1118 18:43:55.797452  3424 net.cpp:150] Setting up relu4_1
I1118 18:43:55.797459  3424 net.cpp:157] Top shape: 1 512 63 63 (2032128)
I1118 18:43:55.797461  3424 net.cpp:165] Memory required for data: 827321280
I1118 18:43:55.797464  3424 layer_factory.hpp:77] Creating layer conv4_2
I1118 18:43:55.797487  3424 net.cpp:100] Creating Layer conv4_2
I1118 18:43:55.797489  3424 net.cpp:434] conv4_2 <- conv4_1
I1118 18:43:55.797494  3424 net.cpp:408] conv4_2 -> conv4_2
I1118 18:43:55.803022  3424 net.cpp:150] Setting up conv4_2
I1118 18:43:55.803038  3424 net.cpp:157] Top shape: 1 512 63 63 (2032128)
I1118 18:43:55.803056  3424 net.cpp:165] Memory required for data: 835449792
I1118 18:43:55.803066  3424 layer_factory.hpp:77] Creating layer relu4_2
I1118 18:43:55.803074  3424 net.cpp:100] Creating Layer relu4_2
I1118 18:43:55.803077  3424 net.cpp:434] relu4_2 <- conv4_2
I1118 18:43:55.803082  3424 net.cpp:395] relu4_2 -> conv4_2 (in-place)
I1118 18:43:55.803164  3424 net.cpp:150] Setting up relu4_2
I1118 18:43:55.803171  3424 net.cpp:157] Top shape: 1 512 63 63 (2032128)
I1118 18:43:55.803187  3424 net.cpp:165] Memory required for data: 843578304
I1118 18:43:55.803190  3424 layer_factory.hpp:77] Creating layer conv4_3
I1118 18:43:55.803197  3424 net.cpp:100] Creating Layer conv4_3
I1118 18:43:55.803200  3424 net.cpp:434] conv4_3 <- conv4_2
I1118 18:43:55.803205  3424 net.cpp:408] conv4_3 -> conv4_3
I1118 18:43:55.808245  3424 net.cpp:150] Setting up conv4_3
I1118 18:43:55.808256  3424 net.cpp:157] Top shape: 1 512 63 63 (2032128)
I1118 18:43:55.808259  3424 net.cpp:165] Memory required for data: 851706816
I1118 18:43:55.808264  3424 layer_factory.hpp:77] Creating layer relu4_3
I1118 18:43:55.808269  3424 net.cpp:100] Creating Layer relu4_3
I1118 18:43:55.808271  3424 net.cpp:434] relu4_3 <- conv4_3
I1118 18:43:55.808276  3424 net.cpp:395] relu4_3 -> conv4_3 (in-place)
I1118 18:43:55.808485  3424 net.cpp:150] Setting up relu4_3
I1118 18:43:55.808495  3424 net.cpp:157] Top shape: 1 512 63 63 (2032128)
I1118 18:43:55.808497  3424 net.cpp:165] Memory required for data: 859835328
I1118 18:43:55.808501  3424 layer_factory.hpp:77] Creating layer conv4_3_relu4_3_0_split
I1118 18:43:55.808506  3424 net.cpp:100] Creating Layer conv4_3_relu4_3_0_split
I1118 18:43:55.808509  3424 net.cpp:434] conv4_3_relu4_3_0_split <- conv4_3
I1118 18:43:55.808516  3424 net.cpp:408] conv4_3_relu4_3_0_split -> conv4_3_relu4_3_0_split_0
I1118 18:43:55.808522  3424 net.cpp:408] conv4_3_relu4_3_0_split -> conv4_3_relu4_3_0_split_1
I1118 18:43:55.808528  3424 net.cpp:408] conv4_3_relu4_3_0_split -> conv4_3_relu4_3_0_split_2
I1118 18:43:55.808578  3424 net.cpp:150] Setting up conv4_3_relu4_3_0_split
I1118 18:43:55.808583  3424 net.cpp:157] Top shape: 1 512 63 63 (2032128)
I1118 18:43:55.808586  3424 net.cpp:157] Top shape: 1 512 63 63 (2032128)
I1118 18:43:55.808588  3424 net.cpp:157] Top shape: 1 512 63 63 (2032128)
I1118 18:43:55.808590  3424 net.cpp:165] Memory required for data: 884220864
I1118 18:43:55.808593  3424 layer_factory.hpp:77] Creating layer pool4
I1118 18:43:55.808599  3424 net.cpp:100] Creating Layer pool4
I1118 18:43:55.808602  3424 net.cpp:434] pool4 <- conv4_3_relu4_3_0_split_0
I1118 18:43:55.808607  3424 net.cpp:408] pool4 -> pool4
I1118 18:43:55.808652  3424 net.cpp:150] Setting up pool4
I1118 18:43:55.808658  3424 net.cpp:157] Top shape: 1 512 32 32 (524288)
I1118 18:43:55.808661  3424 net.cpp:165] Memory required for data: 886318016
I1118 18:43:55.808665  3424 layer_factory.hpp:77] Creating layer conv5_1
I1118 18:43:55.808671  3424 net.cpp:100] Creating Layer conv5_1
I1118 18:43:55.808673  3424 net.cpp:434] conv5_1 <- pool4
I1118 18:43:55.808678  3424 net.cpp:408] conv5_1 -> conv5_1
I1118 18:43:55.813680  3424 net.cpp:150] Setting up conv5_1
I1118 18:43:55.813709  3424 net.cpp:157] Top shape: 1 512 32 32 (524288)
I1118 18:43:55.813711  3424 net.cpp:165] Memory required for data: 888415168
I1118 18:43:55.813716  3424 layer_factory.hpp:77] Creating layer relu5_1
I1118 18:43:55.813745  3424 net.cpp:100] Creating Layer relu5_1
I1118 18:43:55.813748  3424 net.cpp:434] relu5_1 <- conv5_1
I1118 18:43:55.813752  3424 net.cpp:395] relu5_1 -> conv5_1 (in-place)
I1118 18:43:55.815351  3424 net.cpp:150] Setting up relu5_1
I1118 18:43:55.815361  3424 net.cpp:157] Top shape: 1 512 32 32 (524288)
I1118 18:43:55.815363  3424 net.cpp:165] Memory required for data: 890512320
I1118 18:43:55.815366  3424 layer_factory.hpp:77] Creating layer conv5_2
I1118 18:43:55.815376  3424 net.cpp:100] Creating Layer conv5_2
I1118 18:43:55.815378  3424 net.cpp:434] conv5_2 <- conv5_1
I1118 18:43:55.815383  3424 net.cpp:408] conv5_2 -> conv5_2
I1118 18:43:55.821002  3424 net.cpp:150] Setting up conv5_2
I1118 18:43:55.821013  3424 net.cpp:157] Top shape: 1 512 32 32 (524288)
I1118 18:43:55.821015  3424 net.cpp:165] Memory required for data: 892609472
I1118 18:43:55.821020  3424 layer_factory.hpp:77] Creating layer relu5_2
I1118 18:43:55.821024  3424 net.cpp:100] Creating Layer relu5_2
I1118 18:43:55.821027  3424 net.cpp:434] relu5_2 <- conv5_2
I1118 18:43:55.821033  3424 net.cpp:395] relu5_2 -> conv5_2 (in-place)
I1118 18:43:55.821211  3424 net.cpp:150] Setting up relu5_2
I1118 18:43:55.821223  3424 net.cpp:157] Top shape: 1 512 32 32 (524288)
I1118 18:43:55.821225  3424 net.cpp:165] Memory required for data: 894706624
I1118 18:43:55.821228  3424 layer_factory.hpp:77] Creating layer conv5_3
I1118 18:43:55.821233  3424 net.cpp:100] Creating Layer conv5_3
I1118 18:43:55.821236  3424 net.cpp:434] conv5_3 <- conv5_2
I1118 18:43:55.821243  3424 net.cpp:408] conv5_3 -> conv5_3
I1118 18:43:55.826421  3424 net.cpp:150] Setting up conv5_3
I1118 18:43:55.826431  3424 net.cpp:157] Top shape: 1 512 32 32 (524288)
I1118 18:43:55.826433  3424 net.cpp:165] Memory required for data: 896803776
I1118 18:43:55.826438  3424 layer_factory.hpp:77] Creating layer relu5_3
I1118 18:43:55.826443  3424 net.cpp:100] Creating Layer relu5_3
I1118 18:43:55.826445  3424 net.cpp:434] relu5_3 <- conv5_3
I1118 18:43:55.826452  3424 net.cpp:395] relu5_3 -> conv5_3 (in-place)
I1118 18:43:55.826555  3424 net.cpp:150] Setting up relu5_3
I1118 18:43:55.826562  3424 net.cpp:157] Top shape: 1 512 32 32 (524288)
I1118 18:43:55.826565  3424 net.cpp:165] Memory required for data: 898900928
I1118 18:43:55.826567  3424 layer_factory.hpp:77] Creating layer conv5_3_relu5_3_0_split
I1118 18:43:55.826575  3424 net.cpp:100] Creating Layer conv5_3_relu5_3_0_split
I1118 18:43:55.826577  3424 net.cpp:434] conv5_3_relu5_3_0_split <- conv5_3
I1118 18:43:55.826582  3424 net.cpp:408] conv5_3_relu5_3_0_split -> conv5_3_relu5_3_0_split_0
I1118 18:43:55.826588  3424 net.cpp:408] conv5_3_relu5_3_0_split -> conv5_3_relu5_3_0_split_1
I1118 18:43:55.826592  3424 net.cpp:408] conv5_3_relu5_3_0_split -> conv5_3_relu5_3_0_split_2
I1118 18:43:55.826630  3424 net.cpp:150] Setting up conv5_3_relu5_3_0_split
I1118 18:43:55.826637  3424 net.cpp:157] Top shape: 1 512 32 32 (524288)
I1118 18:43:55.826639  3424 net.cpp:157] Top shape: 1 512 32 32 (524288)
I1118 18:43:55.826642  3424 net.cpp:157] Top shape: 1 512 32 32 (524288)
I1118 18:43:55.826644  3424 net.cpp:165] Memory required for data: 905192384
I1118 18:43:55.826647  3424 layer_factory.hpp:77] Creating layer pool5
I1118 18:43:55.826653  3424 net.cpp:100] Creating Layer pool5
I1118 18:43:55.826655  3424 net.cpp:434] pool5 <- conv5_3_relu5_3_0_split_0
I1118 18:43:55.826661  3424 net.cpp:408] pool5 -> pool5
I1118 18:43:55.826709  3424 net.cpp:150] Setting up pool5
…
I1118 18:43:55.879451  3424 net.cpp:165] Memory required for data: 907559872
I1118 18:43:55.879465  3424 layer_factory.hpp:77] Creating layer relu3-dsn6
I1118 18:43:55.879472  3424 net.cpp:100] Creating Layer relu3-dsn6
I1118 18:43:55.879474  3424 net.cpp:434] relu3-dsn6 <- conv4-dsn6
I1118 18:43:55.879478  3424 net.cpp:395] relu3-dsn6 -> conv4-dsn6 (in-place)
I1118 18:43:55.879577  3424 net.cpp:150] Setting up relu3-dsn6
I1118 18:43:55.879585  3424 net.cpp:157] Top shape: 1 256 17 17 (73984)
I1118 18:43:55.879586  3424 net.cpp:165] Memory required for data: 907855808
I1118 18:43:55.879590  3424 layer_factory.hpp:77] Creating layer conv5-dsn6
I1118 18:43:55.879598  3424 net.cpp:100] Creating Layer conv5-dsn6
I1118 18:43:55.879601  3424 net.cpp:434] conv5-dsn6 <- conv4-dsn6
I1118 18:43:55.879606  3424 net.cpp:408] conv5-dsn6 -> conv5-dsn6
I1118 18:43:55.880188  3424 net.cpp:150] Setting up conv5-dsn6
I1118 18:43:55.880198  3424 net.cpp:157] Top shape: 1 1 17 17 (289)
I1118 18:43:55.880200  3424 net.cpp:165] Memory required for data: 907856964
I1118 18:43:55.880204  3424 layer_factory.hpp:77] Creating layer conv5-dsn6_conv5-dsn6_0_split
I1118 18:43:55.880209  3424 net.cpp:100] Creating Layer conv5-dsn6_conv5-dsn6_0_split
I1118 18:43:55.880213  3424 net.cpp:434] conv5-dsn6_conv5-dsn6_0_split <- conv5-dsn6
I1118 18:43:55.880218  3424 net.cpp:408] conv5-dsn6_conv5-dsn6_0_split -> conv5-dsn6_conv5-dsn6_0_split_0
I1118 18:43:55.880224  3424 net.cpp:408] conv5-dsn6_conv5-dsn6_0_split -> conv5-dsn6_conv5-dsn6_0_split_1
I1118 18:43:55.880254  3424 net.cpp:150] Setting up conv5-dsn6_conv5-dsn6_0_split
I1118 18:43:55.880259  3424 net.cpp:157] Top shape: 1 1 17 17 (289)
I1118 18:43:55.880260  3424 net.cpp:157] Top shape: 1 1 17 17 (289)
I1118 18:43:55.880262  3424 net.cpp:165] Memory required for data: 907859276
I1118 18:43:55.880264  3424 layer_factory.hpp:77] Creating layer upsample32_dsn6
I1118 18:43:55.880270  3424 net.cpp:100] Creating Layer upsample32_dsn6
I1118 18:43:55.880272  3424 net.cpp:434] upsample32_dsn6 <- conv5-dsn6_conv5-dsn6_0_split_0
I1118 18:43:55.880277  3424 net.cpp:408] upsample32_dsn6 -> conv5-dsn6-up
I1118 18:43:55.880895  3424 net.cpp:150] Setting up upsample32_dsn6
I1118 18:43:55.880903  3424 net.cpp:157] Top shape: 1 1 576 576 (331776)
I1118 18:43:55.880919  3424 net.cpp:165] Memory required for data: 909186380
I1118 18:43:55.880923  3424 layer_factory.hpp:77] Creating layer crop-dsn6
I1118 18:43:55.880928  3424 net.cpp:100] Creating Layer crop-dsn6
I1118 18:43:55.880931  3424 net.cpp:434] crop-dsn6 <- conv5-dsn6-up
I1118 18:43:55.880934  3424 net.cpp:434] crop-dsn6 <- data_data_0_split_1
I1118 18:43:55.880939  3424 net.cpp:408] crop-dsn6 -> upscore-dsn6
I1118 18:43:55.880959  3424 net.cpp:150] Setting up crop-dsn6
I1118 18:43:55.880964  3424 net.cpp:157] Top shape: 1 1 500 500 (250000)
I1118 18:43:55.880965  3424 net.cpp:165] Memory required for data: 910186380
I1118 18:43:55.880967  3424 layer_factory.hpp:77] Creating layer loss6-score
I1118 18:43:55.880976  3424 net.cpp:100] Creating Layer loss6-score
I1118 18:43:55.880978  3424 net.cpp:434] loss6-score <- upscore-dsn6
I1118 18:43:55.880982  3424 net.cpp:434] loss6-score <- label_data_1_split_0
I1118 18:43:55.880985  3424 net.cpp:408] loss6-score -> loss6-score
I1118 18:43:55.882376  3424 net.cpp:150] Setting up loss6-score
I1118 18:43:55.882387  3424 net.cpp:157] Top shape: (1)
I1118 18:43:55.882390  3424 net.cpp:160]     with loss weight 1
I1118 18:43:55.882405  3424 net.cpp:165] Memory required for data: 910186384
I1118 18:43:55.882408  3424 layer_factory.hpp:77] Creating layer upsample2_dsn5
I1118 18:43:55.882417  3424 net.cpp:100] Creating Layer upsample2_dsn5
I1118 18:43:55.882421  3424 net.cpp:434] upsample2_dsn5 <- conv5-dsn6_conv5-dsn6_0_split_1
I1118 18:43:55.882428  3424 net.cpp:408] upsample2_dsn5 -> conv5-dsn6-5
I1118 18:43:55.882689  3424 net.cpp:150] Setting up upsample2_dsn5
I1118 18:43:55.882711  3424 net.cpp:157] Top shape: 1 1 36 36 (1296)
I1118 18:43:55.882714  3424 net.cpp:165] Memory required for data: 910191568
I1118 18:43:55.882719  3424 layer_factory.hpp:77] Creating layer crop1-dsn5
I1118 18:43:55.882722  3424 net.cpp:100] Creating Layer crop1-dsn5
I1118 18:43:55.882725  3424 net.cpp:434] crop1-dsn5 <- conv5-dsn6-5
I1118 18:43:55.882745  3424 net.cpp:434] crop1-dsn5 <- conv5_3_relu5_3_0_split_1
I1118 18:43:55.882748  3424 net.cpp:408] crop1-dsn5 -> weight-dsn6-5
I1118 18:43:55.882769  3424 net.cpp:150] Setting up crop1-dsn5
I1118 18:43:55.882776  3424 net.cpp:157] Top shape: 1 1 32 32 (1024)
I1118 18:43:55.882777  3424 net.cpp:165] Memory required for data: 910195664
I1118 18:43:55.882779  3424 layer_factory.hpp:77] Creating layer weight-dsn6-5_crop1-dsn5_0_split
I1118 18:43:55.882784  3424 net.cpp:100] Creating Layer weight-dsn6-5_crop1-dsn5_0_split
I1118 18:43:55.882786  3424 net.cpp:434] weight-dsn6-5_crop1-dsn5_0_split <- weight-dsn6-5
I1118 18:43:55.882794  3424 net.cpp:408] weight-dsn6-5_crop1-dsn5_0_split -> weight-dsn6-5_crop1-dsn5_0_split_0
I1118 18:43:55.882799  3424 net.cpp:408] weight-dsn6-5_crop1-dsn5_0_split -> weight-dsn6-5_crop1-dsn5_0_split_1
I1118 18:43:55.882827  3424 net.cpp:150] Setting up weight-dsn6-5_crop1-dsn5_0_split
I1118 18:43:55.882833  3424 net.cpp:157] Top shape: 1 1 32 32 (1024)
I1118 18:43:55.882835  3424 net.cpp:157] Top shape: 1 1 32 32 (1024)
I1118 18:43:55.882838  3424 net.cpp:165] Memory required for data: 910203856
I1118 18:43:55.882840  3424 layer_factory.hpp:77] Creating layer sigmoid-dsn5
I1118 18:43:55.882844  3424 net.cpp:100] Creating Layer sigmoid-dsn5
I1118 18:43:55.882848  3424 net.cpp:434] sigmoid-dsn5 <- weight-dsn6-5_crop1-dsn5_0_split_0
I1118 18:43:55.882850  3424 net.cpp:408] sigmoid-dsn5 -> sigmoid-dsn5
I1118 18:43:55.883038  3424 net.cpp:150] Setting up sigmoid-dsn5
I1118 18:43:55.883047  3424 net.cpp:157] Top shape: 1 1 32 32 (1024)
I1118 18:43:55.883049  3424 net.cpp:165] Memory required for data: 910207952
I1118 18:43:55.883052  3424 layer_factory.hpp:77] Creating layer rev-dsn5
I1118 18:43:55.883060  3424 net.cpp:100] Creating Layer rev-dsn5
I1118 18:43:55.883064  3424 net.cpp:434] rev-dsn5 <- sigmoid-dsn5
I1118 18:43:55.883069  3424 net.cpp:408] rev-dsn5 -> rev-dsn5
I1118 18:43:55.883088  3424 net.cpp:150] Setting up rev-dsn5
I1118 18:43:55.883093  3424 net.cpp:157] Top shape: 1 1 32 32 (1024)
I1118 18:43:55.883095  3424 net.cpp:165] Memory required for data: 910212048
I1118 18:43:55.883098  3424 layer_factory.hpp:77] Creating layer tile-dsn5
I1118 18:43:55.883103  3424 net.cpp:100] Creating Layer tile-dsn5
I1118 18:43:55.883105  3424 net.cpp:434] tile-dsn5 <- rev-dsn5
I1118 18:43:55.883111  3424 net.cpp:408] tile-dsn5 -> weight-dsn5
I1118 18:43:55.883129  3424 net.cpp:150] Setting up tile-dsn5
I1118 18:43:55.883133  3424 net.cpp:157] Top shape: 1 512 32 32 (524288)
I1118 18:43:55.883134  3424 net.cpp:165] Memory required for data: 912309200
I1118 18:43:55.883137  3424 layer_factory.hpp:77] Creating layer prod1-dsn5
I1118 18:43:55.883142  3424 net.cpp:100] Creating Layer prod1-dsn5
I1118 18:43:55.883146  3424 net.cpp:434] prod1-dsn5 <- conv5_3_relu5_3_0_split_2
I1118 18:43:55.883149  3424 net.cpp:434] prod1-dsn5 <- weight-dsn5
I1118 18:43:55.883153  3424 net.cpp:408] prod1-dsn5 -> prod1-dsn5
I1118 18:43:55.883184  3424 net.cpp:150] Setting up prod1-dsn5
I1118 18:43:55.883190  3424 net.cpp:157] Top shape: 1 512 32 32 (524288)
I1118 18:43:55.883193  3424 net.cpp:165] Memory required for data: 914406352
I1118 18:43:55.883194  3424 layer_factory.hpp:77] Creating layer conv1-dsn5
I1118 18:43:55.883201  3424 net.cpp:100] Creating Layer conv1-dsn5
I1118 18:43:55.883203  3424 net.cpp:434] conv1-dsn5 <- prod1-dsn5
I1118 18:43:55.883210  3424 net.cpp:408] conv1-dsn5 -> conv1-dsn5
I1118 18:43:55.885309  3424 net.cpp:150] Setting up conv1-dsn5
I1118 18:43:55.885320  3424 net.cpp:157] Top shape: 1 64 32 32 (65536)
I1118 18:43:55.885323  3424 net.cpp:165] Memory required for data: 914668496
I1118 18:43:55.885327  3424 layer_factory.hpp:77] Creating layer conv2-dsn5
I1118 18:43:55.885336  3424 net.cpp:100] Creating Layer conv2-dsn5
I1118 18:43:55.885339  3424 net.cpp:434] conv2-dsn5 <- conv1-dsn5
I1118 18:43:55.885345  3424 net.cpp:408] conv2-dsn5 -> conv2-dsn5
I1118 18:43:55.886230  3424 net.cpp:150] Setting up conv2-dsn5
I1118 18:43:55.886251  3424 net.cpp:157] Top shape: 1 64 32 32 (65536)
I1118 18:43:55.886253  3424 net.cpp:165] Memory required for data: 914930640
I1118 18:43:55.886257  3424 layer_factory.hpp:77] Creating layer relu1-dsn5
I1118 18:43:55.886262  3424 net.cpp:100] Creating Layer relu1-dsn5
I1118 18:43:55.886265  3424 net.cpp:434] relu1-dsn5 <- conv2-dsn5
I1118 18:43:55.886270  3424 net.cpp:395] relu1-dsn5 -> conv2-dsn5 (in-place)
I1118 18:43:55.886353  3424 net.cpp:150] Setting up relu1-dsn5
I1118 18:43:55.886376  3424 net.cpp:157] Top shape: 1 64 32 32 (65536)
I1118 18:43:55.886380  3424 net.cpp:165] Memory required for data: 915192784
I1118 18:43:55.886384  3424 layer_factory.hpp:77] Creating layer conv3-dsn5
I1118 18:43:55.886394  3424 net.cpp:100] Creating Layer conv3-dsn5
I1118 18:43:55.886395  3424 net.cpp:434] conv3-dsn5 <- conv2-dsn5
I1118 18:43:55.886400  3424 net.cpp:408] conv3-dsn5 -> conv3-dsn5
I1118 18:43:55.887351  3424 net.cpp:150] Setting up conv3-dsn5
I1118 18:43:55.887362  3424 net.cpp:157] Top shape: 1 64 32 32 (65536)
I1118 18:43:55.887364  3424 net.cpp:165] Memory required for data: 915454928
I1118 18:43:55.887369  3424 layer_factory.hpp:77] Creating layer relu2-dsn5
I1118 18:43:55.887373  3424 net.cpp:100] Creating Layer relu2-dsn5
I1118 18:43:55.887377  3424 net.cpp:434] relu2-dsn5 <- conv3-dsn5
I1118 18:43:55.887379  3424 net.cpp:395] relu2-dsn5 -> conv3-dsn5 (in-place)
I1118 18:43:55.887540  3424 net.cpp:150] Setting up relu2-dsn5
I1118 18:43:55.887549  3424 net.cpp:157] Top shape: 1 64 32 32 (65536)
I1118 18:43:55.887552  3424 net.cpp:165] Memory required for data: 915717072
I1118 18:43:55.887554  3424 layer_factory.hpp:77] Creating layer conv4-dsn5
I1118 18:43:55.887563  3424 net.cpp:100] Creating Layer conv4-dsn5
I1118 18:43:55.887567  3424 net.cpp:434] conv4-dsn5 <- conv3-dsn5
I1118 18:43:55.887573  3424 net.cpp:408] conv4-dsn5 -> conv4-dsn5
I1118 18:43:55.888080  3424 net.cpp:150] Setting up conv4-dsn5
I1118 18:43:55.888089  3424 net.cpp:157] Top shape: 1 1 32 32 (1024)
I1118 18:43:55.888092  3424 net.cpp:165] Memory required for data: 915721168
I1118 18:43:55.888097  3424 layer_factory.hpp:77] Creating layer sum-dsn5
I1118 18:43:55.888111  3424 net.cpp:100] Creating Layer sum-dsn5
I1118 18:43:55.888114  3424 net.cpp:434] sum-dsn5 <- conv4-dsn5
I1118 18:43:55.888118  3424 net.cpp:434] sum-dsn5 <- weight-dsn6-5_crop1-dsn5_0_split_1
I1118 18:43:55.888123  3424 net.cpp:408] sum-dsn5 -> sum-dsn5
I1118 18:43:55.888136  3424 net.cpp:150] Setting up sum-dsn5
I1118 18:43:55.888140  3424 net.cpp:157] Top shape: 1 1 32 32 (1024)
I1118 18:43:55.888142  3424 net.cpp:165] Memory required for data: 915725264
I1118 18:43:55.888145  3424 layer_factory.hpp:77] Creating layer sum-dsn5_sum-dsn5_0_split
I1118 18:43:55.888149  3424 net.cpp:100] Creating Layer sum-dsn5_sum-dsn5_0_split
I1118 18:43:55.888151  3424 net.cpp:434] sum-dsn5_sum-dsn5_0_split <- sum-dsn5
I1118 18:43:55.888156  3424 net.cpp:408] sum-dsn5_sum-dsn5_0_split -> sum-dsn5_sum-dsn5_0_split_0
I1118 18:43:55.888160  3424 net.cpp:408] sum-dsn5_sum-dsn5_0_split -> sum-dsn5_sum-dsn5_0_split_1
I1118 18:43:55.888200  3424 net.cpp:150] Setting up sum-dsn5_sum-dsn5_0_split
I1118 18:43:55.888206  3424 net.cpp:157] Top shape: 1 1 32 32 (1024)
I1118 18:43:55.888207  3424 net.cpp:157] Top shape: 1 1 32 32 (1024)
I1118 18:43:55.888209  3424 net.cpp:165] Memory required for data: 915733456
I1118 18:43:55.888211  3424 layer_factory.hpp:77] Creating layer upsample16_dsn5
I1118 18:43:55.888218  3424 net.cpp:100] Creating Layer upsample16_dsn5
I1118 18:43:55.888221  3424 net.cpp:434] upsample16_dsn5 <- sum-dsn5_sum-dsn5_0_split_0
I1118 18:43:55.888224  3424 net.cpp:408] upsample16_dsn5 -> sum-dsn5-up
I1118 18:43:55.889354  3424 net.cpp:150] Setting up upsample16_dsn5
I1118 18:43:55.889364  3424 net.cpp:157] Top shape: 1 1 528 528 (278784)
I1118 18:43:55.889366  3424 net.cpp:165] Memory required for data: 916848592
I1118 18:43:55.889371  3424 layer_factory.hpp:77] Creating layer crop2-dsn5
I1118 18:43:55.889375  3424 net.cpp:100] Creating Layer crop2-dsn5
I1118 18:43:55.889379  3424 net.cpp:434] crop2-dsn5 <- sum-dsn5-up
I1118 18:43:55.889381  3424 net.cpp:434] crop2-dsn5 <- data_data_0_split_2
I1118 18:43:55.889386  3424 net.cpp:408] crop2-dsn5 -> upscore-dsn5
I1118 18:43:55.889410  3424 net.cpp:150] Setting up crop2-dsn5
I1118 18:43:55.889413  3424 net.cpp:157] Top shape: 1 1 500 500 (250000)
I1118 18:43:55.889415  3424 net.cpp:165] Memory required for data: 917848592
I1118 18:43:55.889416  3424 layer_factory.hpp:77] Creating layer loss5-score
I1118 18:43:55.889425  3424 net.cpp:100] Creating Layer loss5-score
I1118 18:43:55.889428  3424 net.cpp:434] loss5-score <- upscore-dsn5
I1118 18:43:55.889431  3424 net.cpp:434] loss5-score <- label_data_1_split_1
I1118 18:43:55.889434  3424 net.cpp:408] loss5-score -> loss5-score
I1118 18:43:55.889638  3424 net.cpp:150] Setting up loss5-score
I1118 18:43:55.889644  3424 net.cpp:157] Top shape: (1)
I1118 18:43:55.889647  3424 net.cpp:160]     with loss weight 1
I1118 18:43:55.889657  3424 net.cpp:165] Memory required for data: 917848596
I1118 18:43:55.889658  3424 layer_factory.hpp:77] Creating layer upsample2_dsn4
I1118 18:43:55.889667  3424 net.cpp:100] Creating Layer upsample2_dsn4
I1118 18:43:55.889668  3424 net.cpp:434] upsample2_dsn4 <- sum-dsn5_sum-dsn5_0_split_1
I1118 18:43:55.889674  3424 net.cpp:408] upsample2_dsn4 -> sum-dsn5-4
I1118 18:43:55.889858  3424 net.cpp:150] Setting up upsample2_dsn4
I1118 18:43:55.889863  3424 net.cpp:157] Top shape: 1 1 66 66 (4356)
I1118 18:43:55.889866  3424 net.cpp:165] Memory required for data: 917866020
I1118 18:43:55.889871  3424 layer_factory.hpp:77] Creating layer crop1-dsn4
I1118 18:43:55.889876  3424 net.cpp:100] Creating Layer crop1-dsn4
I1118 18:43:55.889879  3424 net.cpp:434] crop1-dsn4 <- sum-dsn5-4
I1118 18:43:55.889883  3424 net.cpp:434] crop1-dsn4 <- conv4_3_relu4_3_0_split_1
I1118 18:43:55.889886  3424 net.cpp:408] crop1-dsn4 -> weight-dsn5-4
I1118 18:43:55.889905  3424 net.cpp:150] Setting up crop1-dsn4
I1118 18:43:55.889910  3424 net.cpp:157] Top shape: 1 1 63 63 (3969)
I1118 18:43:55.889912  3424 net.cpp:165] Memory required for data: 917881896
I1118 18:43:55.889915  3424 layer_factory.hpp:77] Creating layer weight-dsn5-4_crop1-dsn4_0_split
I1118 18:43:55.889919  3424 net.cpp:100] Creating Layer weight-dsn5-4_crop1-dsn4_0_split
I1118 18:43:55.889922  3424 net.cpp:434] weight-dsn5-4_crop1-dsn4_0_split <- weight-dsn5-4
I1118 18:43:55.889927  3424 net.cpp:408] weight-dsn5-4_crop1-dsn4_0_split -> weight-dsn5-4_crop1-dsn4_0_split_0
I1118 18:43:55.889932  3424 net.cpp:408] weight-dsn5-4_crop1-dsn4_0_split -> weight-dsn5-4_crop1-dsn4_0_split_1
I1118 18:43:55.889961  3424 net.cpp:150] Setting up weight-dsn5-4_crop1-dsn4_0_split
I1118 18:43:55.889966  3424 net.cpp:157] Top shape: 1 1 63 63 (3969)
I1118 18:43:55.889969  3424 net.cpp:157] Top shape: 1 1 63 63 (3969)
I1118 18:43:55.889971  3424 net.cpp:165] Memory required for data: 917913648
I1118 18:43:55.889973  3424 layer_factory.hpp:77] Creating layer sigmoid-dsn4
I1118 18:43:55.889978  3424 net.cpp:100] Creating Layer sigmoid-dsn4
I1118 18:43:55.889981  3424 net.cpp:434] sigmoid-dsn4 <- weight-dsn5-4_crop1-dsn4_0_split_0
I1118 18:43:55.889986  3424 net.cpp:408] sigmoid-dsn4 -> sigmoid-dsn4
I1118 18:43:55.890179  3424 net.cpp:150] Setting up sigmoid-dsn4
I1118 18:43:55.890188  3424 net.cpp:157] Top shape: 1 1 63 63 (3969)
I1118 18:43:55.890192  3424 net.cpp:165] Memory required for data: 917929524
I1118 18:43:55.890194  3424 layer_factory.hpp:77] Creating layer rev-dsn4
I1118 18:43:55.890199  3424 net.cpp:100] Creating Layer rev-dsn4
I1118 18:43:55.890202  3424 net.cpp:434] rev-dsn4 <- sigmoid-dsn4
I1118 18:43:55.890206  3424 net.cpp:408] rev-dsn4 -> rev-dsn4
I1118 18:43:55.890228  3424 net.cpp:150] Setting up rev-dsn4
I1118 18:43:55.890230  3424 net.cpp:157] Top shape: 1 1 63 63 (3969)
I1118 18:43:55.890233  3424 net.cpp:165] Memory required for data: 917945400
I1118 18:43:55.890235  3424 layer_factory.hpp:77] Creating layer tile-dsn4
I1118 18:43:55.890257  3424 net.cpp:100] Creating Layer tile-dsn4
I1118 18:43:55.890259  3424 net.cpp:434] tile-dsn4 <- rev-dsn4
I1118 18:43:55.890275  3424 net.cpp:408] tile-dsn4 -> weight-dsn4
I1118 18:43:55.890291  3424 net.cpp:150] Setting up tile-dsn4
I1118 18:43:55.890295  3424 net.cpp:157] Top shape: 1 512 63 63 (2032128)
I1118 18:43:55.890297  3424 net.cpp:165] Memory required for data: 926073912
I1118 18:43:55.890305  3424 layer_factory.hpp:77] Creating layer prod1-dsn4
I1118 18:43:55.890311  3424 net.cpp:100] Creating Layer prod1-dsn4
I1118 18:43:55.890316  3424 net.cpp:434] prod1-dsn4 <- conv4_3_relu4_3_0_split_2
I1118 18:43:55.890321  3424 net.cpp:434] prod1-dsn4 <- weight-dsn4
I1118 18:43:55.890329  3424 net.cpp:408] prod1-dsn4 -> prod1-dsn4
I1118 18:43:55.890354  3424 net.cpp:150] Setting up prod1-dsn4
I1118 18:43:55.890358  3424 net.cpp:157] Top shape: 1 512 63 63 (2032128)
I1118 18:43:55.890360  3424 net.cpp:165] Memory required for data: 934202424
I1118 18:43:55.890362  3424 layer_factory.hpp:77] Creating layer conv1-dsn4
I1118 18:43:55.890381  3424 net.cpp:100] Creating Layer conv1-dsn4
I1118 18:43:55.890385  3424 net.cpp:434] conv1-dsn4 <- prod1-dsn4
I1118 18:43:55.890390  3424 net.cpp:408] conv1-dsn4 -> conv1-dsn4
I1118 18:43:55.892910  3424 net.cpp:150] Setting up conv1-dsn4
I1118 18:43:55.892921  3424 net.cpp:157] Top shape: 1 64 63 63 (254016)
I1118 18:43:55.892923  3424 net.cpp:165] Memory required for data: 935218488
I1118 18:43:55.892928  3424 layer_factory.hpp:77] Creating layer conv2-dsn4
I1118 18:43:55.892937  3424 net.cpp:100] Creating Layer conv2-dsn4
I1118 18:43:55.892940  3424 net.cpp:434] conv2-dsn4 <- conv1-dsn4
I1118 18:43:55.892946  3424 net.cpp:408] conv2-dsn4 -> conv2-dsn4
I1118 18:43:55.893905  3424 net.cpp:150] Setting up conv2-dsn4
I1118 18:43:55.893916  3424 net.cpp:157] Top shape: 1 64 63 63 (254016)
I1118 18:43:55.893918  3424 net.cpp:165] Memory required for data: 936234552
I1118 18:43:55.893923  3424 layer_factory.hpp:77] Creating layer relu1-dsn4
I1118 18:43:55.893929  3424 net.cpp:100] Creating Layer relu1-dsn4
I1118 18:43:55.893931  3424 net.cpp:434] relu1-dsn4 <- conv2-dsn4
I1118 18:43:55.893935  3424 net.cpp:395] relu1-dsn4 -> conv2-dsn4 (in-place)
I1118 18:43:55.894098  3424 net.cpp:150] Setting up relu1-dsn4
I1118 18:43:55.894109  3424 net.cpp:157] Top shape: 1 64 63 63 (254016)
I1118 18:43:55.894110  3424 net.cpp:165] Memory required for data: 937250616
I1118 18:43:55.894114  3424 layer_factory.hpp:77] Creating layer conv3-dsn4
I1118 18:43:55.894121  3424 net.cpp:100] Creating Layer conv3-dsn4
I1118 18:43:55.894140  3424 net.cpp:434] conv3-dsn4 <- conv2-dsn4
I1118 18:43:55.894146  3424 net.cpp:408] conv3-dsn4 -> conv3-dsn4
I1118 18:43:55.894974  3424 net.cpp:150] Setting up conv3-dsn4
I1118 18:43:55.894984  3424 net.cpp:157] Top shape: 1 64 63 63 (254016)
I1118 18:43:55.894986  3424 net.cpp:165] Memory required for data: 938266680
I1118 18:43:55.894991  3424 layer_factory.hpp:77] Creating layer relu2-dsn4
I1118 18:43:55.894995  3424 net.cpp:100] Creating Layer relu2-dsn4
I1118 18:43:55.894999  3424 net.cpp:434] relu2-dsn4 <- conv3-dsn4
I1118 18:43:55.895004  3424 net.cpp:395] relu2-dsn4 -> conv3-dsn4 (in-place)
I1118 18:43:55.895164  3424 net.cpp:150] Setting up relu2-dsn4
I1118 18:43:55.895189  3424 net.cpp:157] Top shape: 1 64 63 63 (254016)
I1118 18:43:55.895191  3424 net.cpp:165] Memory required for data: 939282744
I1118 18:43:55.895193  3424 layer_factory.hpp:77] Creating layer conv4-dsn4
I1118 18:43:55.895202  3424 net.cpp:100] Creating Layer conv4-dsn4
I1118 18:43:55.895205  3424 net.cpp:434] conv4-dsn4 <- conv3-dsn4
I1118 18:43:55.895211  3424 net.cpp:408] conv4-dsn4 -> conv4-dsn4
I1118 18:43:55.895843  3424 net.cpp:150] Setting up conv4-dsn4
I1118 18:43:55.895853  3424 net.cpp:157] Top shape: 1 1 63 63 (3969)
I1118 18:43:55.895854  3424 net.cpp:165] Memory required for data: 939298620
I1118 18:43:55.895859  3424 layer_factory.hpp:77] Creating layer sum-dsn4
I1118 18:43:55.895865  3424 net.cpp:100] Creating Layer sum-dsn4
I1118 18:43:55.895869  3424 net.cpp:434] sum-dsn4 <- conv4-dsn4
I1118 18:43:55.895872  3424 net.cpp:434] sum-dsn4 <- weight-dsn5-4_crop1-dsn4_0_split_1
I1118 18:43:55.895875  3424 net.cpp:408] sum-dsn4 -> sum-dsn4
I1118 18:43:55.895896  3424 net.cpp:150] Setting up sum-dsn4
I1118 18:43:55.895900  3424 net.cpp:157] Top shape: 1 1 63 63 (3969)
I1118 18:43:55.895902  3424 net.cpp:165] Memory required for data: 939314496
I1118 18:43:55.895905  3424 layer_factory.hpp:77] Creating layer sum-dsn4_sum-dsn4_0_split
I1118 18:43:55.895908  3424 net.cpp:100] Creating Layer sum-dsn4_sum-dsn4_0_split
I1118 18:43:55.895910  3424 net.cpp:434] sum-dsn4_sum-dsn4_0_split <- sum-dsn4
I1118 18:43:55.895915  3424 net.cpp:408] sum-dsn4_sum-dsn4_0_split -> sum-dsn4_sum-dsn4_0_split_0
I1118 18:43:55.895920  3424 net.cpp:408] sum-dsn4_sum-dsn4_0_split -> sum-dsn4_sum-dsn4_0_split_1
I1118 18:43:55.895947  3424 net.cpp:150] Setting up sum-dsn4_sum-dsn4_0_split
I1118 18:43:55.895951  3424 net.cpp:157] Top shape: 1 1 63 63 (3969)
I1118 18:43:55.895969  3424 net.cpp:157] Top shape: 1 1 63 63 (3969)
I1118 18:43:55.895972  3424 net.cpp:165] Memory required for data: 939346248
I1118 18:43:55.895973  3424 layer_factory.hpp:77] Creating layer upsample8_dsn4
I1118 18:43:55.895980  3424 net.cpp:100] Creating Layer upsample8_dsn4
I1118 18:43:55.895982  3424 net.cpp:434] upsample8_dsn4 <- sum-dsn4_sum-dsn4_0_split_0
I1118 18:43:55.895987  3424 net.cpp:408] upsample8_dsn4 -> sum-dsn4-up
I1118 18:43:55.897145  3424 net.cpp:150] Setting up upsample8_dsn4
I1118 18:43:55.897155  3424 net.cpp:157] Top shape: 1 1 512 512 (262144)
I1118 18:43:55.897156  3424 net.cpp:165] Memory required for data: 940394824
I1118 18:43:55.897161  3424 layer_factory.hpp:77] Creating layer crop2-dsn4
I1118 18:43:55.897166  3424 net.cpp:100] Creating Layer crop2-dsn4
I1118 18:43:55.897168  3424 net.cpp:434] crop2-dsn4 <- sum-dsn4-up
I1118 18:43:55.897172  3424 net.cpp:434] crop2-dsn4 <- data_data_0_split_3
I1118 18:43:55.897177  3424 net.cpp:408] crop2-dsn4 -> upscore-dsn4
I1118 18:43:55.897199  3424 net.cpp:150] Setting up crop2-dsn4
I1118 18:43:55.897203  3424 net.cpp:157] Top shape: 1 1 500 500 (250000)
I1118 18:43:55.897204  3424 net.cpp:165] Memory required for data: 941394824
I1118 18:43:55.897207  3424 layer_factory.hpp:77] Creating layer loss4-score
I1118 18:43:55.897214  3424 net.cpp:100] Creating Layer loss4-score
I1118 18:43:55.897217  3424 net.cpp:434] loss4-score <- upscore-dsn4
I1118 18:43:55.897219  3424 net.cpp:434] loss4-score <- label_data_1_split_2
I1118 18:43:55.897223  3424 net.cpp:408] loss4-score -> loss4-score
I1118 18:43:55.897429  3424 net.cpp:150] Setting up loss4-score
I1118 18:43:55.897435  3424 net.cpp:157] Top shape: (1)
I1118 18:43:55.897437  3424 net.cpp:160]     with loss weight 1
I1118 18:43:55.897444  3424 net.cpp:165] Memory required for data: 941394828
I1118 18:43:55.897462  3424 layer_factory.hpp:77] Creating layer upsample2_dsn3
I1118 18:43:55.897470  3424 net.cpp:100] Creating Layer upsample2_dsn3
I1118 18:43:55.897473  3424 net.cpp:434] upsample2_dsn3 <- sum-dsn4_sum-dsn4_0_split_1
I1118 18:43:55.897478  3424 net.cpp:408] upsample2_dsn3 -> sum-dsn4-3
I1118 18:43:55.897686  3424 net.cpp:150] Setting up upsample2_dsn3
I1118 18:43:55.897693  3424 net.cpp:157] Top shape: 1 1 128 128 (16384)
I1118 18:43:55.897696  3424 net.cpp:165] Memory required for data: 941460364
I1118 18:43:55.897701  3424 layer_factory.hpp:77] Creating layer crop1-dsn3
I1118 18:43:55.897704  3424 net.cpp:100] Creating Layer crop1-dsn3
I1118 18:43:55.897707  3424 net.cpp:434] crop1-dsn3 <- sum-dsn4-3
I1118 18:43:55.897711  3424 net.cpp:434] crop1-dsn3 <- conv3_3_relu3_3_0_split_1
I1118 18:43:55.897716  3424 net.cpp:408] crop1-dsn3 -> weight-dsn4-3
I1118 18:43:55.897737  3424 net.cpp:150] Setting up crop1-dsn3
I1118 18:43:55.897742  3424 net.cpp:157] Top shape: 1 1 125 125 (15625)
I1118 18:43:55.897744  3424 net.cpp:165] Memory required for data: 941522864
I1118 18:43:55.897747  3424 layer_factory.hpp:77] Creating layer weight-dsn4-3_crop1-dsn3_0_split
I1118 18:43:55.897752  3424 net.cpp:100] Creating Layer weight-dsn4-3_crop1-dsn3_0_split
I1118 18:43:55.897754  3424 net.cpp:434] weight-dsn4-3_crop1-dsn3_0_split <- weight-dsn4-3
I1118 18:43:55.897759  3424 net.cpp:408] weight-dsn4-3_crop1-dsn3_0_split -> weight-dsn4-3_crop1-dsn3_0_split_0
I1118 18:43:55.897764  3424 net.cpp:408] weight-dsn4-3_crop1-dsn3_0_split -> weight-dsn4-3_crop1-dsn3_0_split_1
I1118 18:43:55.897794  3424 net.cpp:150] Setting up weight-dsn4-3_crop1-dsn3_0_split
I1118 18:43:55.897799  3424 net.cpp:157] Top shape: 1 1 125 125 (15625)
I1118 18:43:55.897801  3424 net.cpp:157] Top shape: 1 1 125 125 (15625)
I1118 18:43:55.897804  3424 net.cpp:165] Memory required for data: 941647864
I1118 18:43:55.897805  3424 layer_factory.hpp:77] Creating layer sigmoid-dsn3
I1118 18:43:55.897811  3424 net.cpp:100] Creating Layer sigmoid-dsn3
I1118 18:43:55.897814  3424 net.cpp:434] sigmoid-dsn3 <- weight-dsn4-3_crop1-dsn3_0_split_0
I1118 18:43:55.897817  3424 net.cpp:408] sigmoid-dsn3 -> sigmoid-dsn3
I1118 18:43:55.897900  3424 net.cpp:150] Setting up sigmoid-dsn3
I1118 18:43:55.897908  3424 net.cpp:157] Top shape: 1 1 125 125 (15625)
I1118 18:43:55.897910  3424 net.cpp:165] Memory required for data: 941710364
I1118 18:43:55.897912  3424 layer_factory.hpp:77] Creating layer rev-dsn3
I1118 18:43:55.897917  3424 net.cpp:100] Creating Layer rev-dsn3
I1118 18:43:55.897920  3424 net.cpp:434] rev-dsn3 <- sigmoid-dsn3
I1118 18:43:55.897923  3424 net.cpp:408] rev-dsn3 -> rev-dsn3
I1118 18:43:55.897943  3424 net.cpp:150] Setting up rev-dsn3
I1118 18:43:55.897945  3424 net.cpp:157] Top shape: 1 1 125 125 (15625)
I1118 18:43:55.897948  3424 net.cpp:165] Memory required for data: 941772864
I1118 18:43:55.897950  3424 layer_factory.hpp:77] Creating layer tile-dsn3
I1118 18:43:55.897954  3424 net.cpp:100] Creating Layer tile-dsn3
I1118 18:43:55.897956  3424 net.cpp:434] tile-dsn3 <- rev-dsn3
I1118 18:43:55.897960  3424 net.cpp:408] tile-dsn3 -> weight-dsn3
I1118 18:43:55.897974  3424 net.cpp:150] Setting up tile-dsn3
I1118 18:43:55.897977  3424 net.cpp:157] Top shape: 1 256 125 125 (4000000)
I1118 18:43:55.897979  3424 net.cpp:165] Memory required for data: 957772864
I1118 18:43:55.897982  3424 layer_factory.hpp:77] Creating layer prod1-dsn3
I1118 18:43:55.897989  3424 net.cpp:100] Creating Layer prod1-dsn3
I1118 18:43:55.897991  3424 net.cpp:434] prod1-dsn3 <- conv3_3_relu3_3_0_split_2
I1118 18:43:55.897994  3424 net.cpp:434] prod1-dsn3 <- weight-dsn3
I1118 18:43:55.897997  3424 net.cpp:408] prod1-dsn3 -> prod1-dsn3
I1118 18:43:55.898015  3424 net.cpp:150] Setting up prod1-dsn3
I1118 18:43:55.898017  3424 net.cpp:157] Top shape: 1 256 125 125 (4000000)
I1118 18:43:55.898020  3424 net.cpp:165] Memory required for data: 973772864
I1118 18:43:55.898022  3424 layer_factory.hpp:77] Creating layer conv1-dsn3
I1118 18:43:55.898030  3424 net.cpp:100] Creating Layer conv1-dsn3
I1118 18:43:55.898032  3424 net.cpp:434] conv1-dsn3 <- prod1-dsn3
I1118 18:43:55.898053  3424 net.cpp:408] conv1-dsn3 -> conv1-dsn3
I1118 18:43:55.899925  3424 net.cpp:150] Setting up conv1-dsn3
I1118 18:43:55.899936  3424 net.cpp:157] Top shape: 1 64 125 125 (1000000)
I1118 18:43:55.899953  3424 net.cpp:165] Memory required for data: 977772864
I1118 18:43:55.899971  3424 layer_factory.hpp:77] Creating layer conv2-dsn3
I1118 18:43:55.899981  3424 net.cpp:100] Creating Layer conv2-dsn3
I1118 18:43:55.899984  3424 net.cpp:434] conv2-dsn3 <- conv1-dsn3
I1118 18:43:55.899991  3424 net.cpp:408] conv2-dsn3 -> conv2-dsn3
I1118 18:43:55.900863  3424 net.cpp:150] Setting up conv2-dsn3
I1118 18:43:55.900873  3424 net.cpp:157] Top shape: 1 64 125 125 (1000000)
I1118 18:43:55.900887  3424 net.cpp:165] Memory required for data: 981772864
I1118 18:43:55.900892  3424 layer_factory.hpp:77] Creating layer relu1-dsn3
I1118 18:43:55.900897  3424 net.cpp:100] Creating Layer relu1-dsn3
I1118 18:43:55.900900  3424 net.cpp:434] relu1-dsn3 <- conv2-dsn3
I1118 18:43:55.900905  3424 net.cpp:395] relu1-dsn3 -> conv2-dsn3 (in-place)
I1118 18:43:55.901082  3424 net.cpp:150] Setting up relu1-dsn3
I1118 18:43:55.901090  3424 net.cpp:157] Top shape: 1 64 125 125 (1000000)
I1118 18:43:55.901093  3424 net.cpp:165] Memory required for data: 985772864
I1118 18:43:55.901095  3424 layer_factory.hpp:77] Creating layer conv3-dsn3
I1118 18:43:55.901104  3424 net.cpp:100] Creating Layer conv3-dsn3
I1118 18:43:55.901108  3424 net.cpp:434] conv3-dsn3 <- conv2-dsn3
I1118 18:43:55.901114  3424 net.cpp:408] conv3-dsn3 -> conv3-dsn3
I1118 18:43:55.902051  3424 net.cpp:150] Setting up conv3-dsn3
I1118 18:43:55.902061  3424 net.cpp:157] Top shape: 1 64 125 125 (1000000)
I1118 18:43:55.902063  3424 net.cpp:165] Memory required for data: 989772864
I1118 18:43:55.902068  3424 layer_factory.hpp:77] Creating layer relu2-dsn3
I1118 18:43:55.902072  3424 net.cpp:100] Creating Layer relu2-dsn3
I1118 18:43:55.902074  3424 net.cpp:434] relu2-dsn3 <- conv3-dsn3
I1118 18:43:55.902081  3424 net.cpp:395] relu2-dsn3 -> conv3-dsn3 (in-place)
I1118 18:43:55.902160  3424 net.cpp:150] Setting up relu2-dsn3
I1118 18:43:55.902168  3424 net.cpp:157] Top shape: 1 64 125 125 (1000000)
I1118 18:43:55.902169  3424 net.cpp:165] Memory required for data: 993772864
I1118 18:43:55.902173  3424 layer_factory.hpp:77] Creating layer conv4-dsn3
I1118 18:43:55.902181  3424 net.cpp:100] Creating Layer conv4-dsn3
I1118 18:43:55.902184  3424 net.cpp:434] conv4-dsn3 <- conv3-dsn3
I1118 18:43:55.902189  3424 net.cpp:408] conv4-dsn3 -> conv4-dsn3
I1118 18:43:55.902871  3424 net.cpp:150] Setting up conv4-dsn3
I1118 18:43:55.902881  3424 net.cpp:157] Top shape: 1 1 125 125 (15625)
I1118 18:43:55.902884  3424 net.cpp:165] Memory required for data: 993835364
I1118 18:43:55.902889  3424 layer_factory.hpp:77] Creating layer sum-dsn3
I1118 18:43:55.902894  3424 net.cpp:100] Creating Layer sum-dsn3
I1118 18:43:55.902897  3424 net.cpp:434] sum-dsn3 <- conv4-dsn3
I1118 18:43:55.902900  3424 net.cpp:434] sum-dsn3 <- weight-dsn4-3_crop1-dsn3_0_split_1
I1118 18:43:55.902904  3424 net.cpp:408] sum-dsn3 -> sum-dsn3
I1118 18:43:55.902928  3424 net.cpp:150] Setting up sum-dsn3
I1118 18:43:55.902932  3424 net.cpp:157] Top shape: 1 1 125 125 (15625)
I1118 18:43:55.902933  3424 net.cpp:165] Memory required for data: 993897864
I1118 18:43:55.902935  3424 layer_factory.hpp:77] Creating layer sum-dsn3_sum-dsn3_0_split
I1118 18:43:55.902940  3424 net.cpp:100] Creating Layer sum-dsn3_sum-dsn3_0_split
I1118 18:43:55.902942  3424 net.cpp:434] sum-dsn3_sum-dsn3_0_split <- sum-dsn3
I1118 18:43:55.902966  3424 net.cpp:408] sum-dsn3_sum-dsn3_0_split -> sum-dsn3_sum-dsn3_0_split_0
I1118 18:43:55.902971  3424 net.cpp:408] sum-dsn3_sum-dsn3_0_split -> sum-dsn3_sum-dsn3_0_split_1
I1118 18:43:55.903002  3424 net.cpp:150] Setting up sum-dsn3_sum-dsn3_0_split
I1118 18:43:55.903007  3424 net.cpp:157] Top shape: 1 1 125 125 (15625)
I1118 18:43:55.903010  3424 net.cpp:157] Top shape: 1 1 125 125 (15625)
I1118 18:43:55.903012  3424 net.cpp:165] Memory required for data: 994022864
I1118 18:43:55.903014  3424 layer_factory.hpp:77] Creating layer upsample4_dsn3
I1118 18:43:55.903021  3424 net.cpp:100] Creating Layer upsample4_dsn3
I1118 18:43:55.903023  3424 net.cpp:434] upsample4_dsn3 <- sum-dsn3_sum-dsn3_0_split_0
I1118 18:43:55.903028  3424 net.cpp:408] upsample4_dsn3 -> sum-dsn3-up
I1118 18:43:55.904178  3424 net.cpp:150] Setting up upsample4_dsn3
I1118 18:43:55.904187  3424 net.cpp:157] Top shape: 1 1 504 504 (254016)
I1118 18:43:55.904189  3424 net.cpp:165] Memory required for data: 995038928
I1118 18:43:55.904194  3424 layer_factory.hpp:77] Creating layer crop2-dsn3
I1118 18:43:55.904199  3424 net.cpp:100] Creating Layer crop2-dsn3
I1118 18:43:55.904202  3424 net.cpp:434] crop2-dsn3 <- sum-dsn3-up
I1118 18:43:55.904206  3424 net.cpp:434] crop2-dsn3 <- data_data_0_split_4
I1118 18:43:55.904211  3424 net.cpp:408] crop2-dsn3 -> upscore-dsn3
I1118 18:43:55.904232  3424 net.cpp:150] Setting up crop2-dsn3
I1118 18:43:55.904237  3424 net.cpp:157] Top shape: 1 1 500 500 (250000)
I1118 18:43:55.904239  3424 net.cpp:165] Memory required for data: 996038928
I1118 18:43:55.904242  3424 layer_factory.hpp:77] Creating layer loss3-score
I1118 18:43:55.904247  3424 net.cpp:100] Creating Layer loss3-score
I1118 18:43:55.904249  3424 net.cpp:434] loss3-score <- upscore-dsn3
I1118 18:43:55.904268  3424 net.cpp:434] loss3-score <- label_data_1_split_3
I1118 18:43:55.904273  3424 net.cpp:408] loss3-score -> loss3-score
I1118 18:43:55.904489  3424 net.cpp:150] Setting up loss3-score
I1118 18:43:55.904496  3424 net.cpp:157] Top shape: (1)
I1118 18:43:55.904498  3424 net.cpp:160]     with loss weight 1
I1118 18:43:55.904505  3424 net.cpp:165] Memory required for data: 996038932
I1118 18:43:55.904507  3424 layer_factory.hpp:77] Creating layer upsample2_1-dsn2
I1118 18:43:55.904512  3424 net.cpp:100] Creating Layer upsample2_1-dsn2
I1118 18:43:55.904515  3424 net.cpp:434] upsample2_1-dsn2 <- sum-dsn3_sum-dsn3_0_split_1
I1118 18:43:55.904521  3424 net.cpp:408] upsample2_1-dsn2 -> sum-dsn3-2
I1118 18:43:55.905541  3424 net.cpp:150] Setting up upsample2_1-dsn2
I1118 18:43:55.905551  3424 net.cpp:157] Top shape: 1 1 252 252 (63504)
I1118 18:43:55.905553  3424 net.cpp:165] Memory required for data: 996292948
I1118 18:43:55.905557  3424 layer_factory.hpp:77] Creating layer crop1-dsn2
I1118 18:43:55.905565  3424 net.cpp:100] Creating Layer crop1-dsn2
I1118 18:43:55.905567  3424 net.cpp:434] crop1-dsn2 <- sum-dsn3-2
I1118 18:43:55.905570  3424 net.cpp:434] crop1-dsn2 <- conv2_2_relu2_2_0_split_1
I1118 18:43:55.905575  3424 net.cpp:408] crop1-dsn2 -> weight-dsn3-2
I1118 18:43:55.905597  3424 net.cpp:150] Setting up crop1-dsn2
I1118 18:43:55.905601  3424 net.cpp:157] Top shape: 1 1 250 250 (62500)
I1118 18:43:55.905603  3424 net.cpp:165] Memory required for data: 996542948
I1118 18:43:55.905606  3424 layer_factory.hpp:77] Creating layer weight-dsn3-2_crop1-dsn2_0_split
I1118 18:43:55.905609  3424 net.cpp:100] Creating Layer weight-dsn3-2_crop1-dsn2_0_split
I1118 18:43:55.905612  3424 net.cpp:434] weight-dsn3-2_crop1-dsn2_0_split <- weight-dsn3-2
I1118 18:43:55.905616  3424 net.cpp:408] weight-dsn3-2_crop1-dsn2_0_split -> weight-dsn3-2_crop1-dsn2_0_split_0
I1118 18:43:55.905622  3424 net.cpp:408] weight-dsn3-2_crop1-dsn2_0_split -> weight-dsn3-2_crop1-dsn2_0_split_1
I1118 18:43:55.905649  3424 net.cpp:150] Setting up weight-dsn3-2_crop1-dsn2_0_split
I1118 18:43:55.905671  3424 net.cpp:157] Top shape: 1 1 250 250 (62500)
I1118 18:43:55.905674  3424 net.cpp:157] Top shape: 1 1 250 250 (62500)
I1118 18:43:55.905675  3424 net.cpp:165] Memory required for data: 997042948
I1118 18:43:55.905678  3424 layer_factory.hpp:77] Creating layer sigmoid-dsn2
I1118 18:43:55.905681  3424 net.cpp:100] Creating Layer sigmoid-dsn2
I1118 18:43:55.905684  3424 net.cpp:434] sigmoid-dsn2 <- weight-dsn3-2_crop1-dsn2_0_split_0
I1118 18:43:55.905689  3424 net.cpp:408] sigmoid-dsn2 -> sigmoid-dsn2
I1118 18:43:55.905783  3424 net.cpp:150] Setting up sigmoid-dsn2
I1118 18:43:55.905791  3424 net.cpp:157] Top shape: 1 1 250 250 (62500)
I1118 18:43:55.905792  3424 net.cpp:165] Memory required for data: 997292948
I1118 18:43:55.905795  3424 layer_factory.hpp:77] Creating layer rev-dsn2
I1118 18:43:55.905799  3424 net.cpp:100] Creating Layer rev-dsn2
I1118 18:43:55.905802  3424 net.cpp:434] rev-dsn2 <- sigmoid-dsn2
I1118 18:43:55.905807  3424 net.cpp:408] rev-dsn2 -> rev-dsn2
I1118 18:43:55.905840  3424 net.cpp:150] Setting up rev-dsn2
I1118 18:43:55.905845  3424 net.cpp:157] Top shape: 1 1 250 250 (62500)
I1118 18:43:55.905848  3424 net.cpp:165] Memory required for data: 997542948
I1118 18:43:55.905850  3424 layer_factory.hpp:77] Creating layer tile-dsn2
I1118 18:43:55.905854  3424 net.cpp:100] Creating Layer tile-dsn2
I1118 18:43:55.905856  3424 net.cpp:434] tile-dsn2 <- rev-dsn2
I1118 18:43:55.905860  3424 net.cpp:408] tile-dsn2 -> weight-dsn2
I1118 18:43:55.905879  3424 net.cpp:150] Setting up tile-dsn2
I1118 18:43:55.905881  3424 net.cpp:157] Top shape: 1 128 250 250 (8000000)
I1118 18:43:55.905884  3424 net.cpp:165] Memory required for data: 1029542948
I1118 18:43:55.905886  3424 layer_factory.hpp:77] Creating layer prod1-dsn2
I1118 18:43:55.905890  3424 net.cpp:100] Creating Layer prod1-dsn2
I1118 18:43:55.905894  3424 net.cpp:434] prod1-dsn2 <- conv2_2_relu2_2_0_split_2
I1118 18:43:55.905896  3424 net.cpp:434] prod1-dsn2 <- weight-dsn2
I1118 18:43:55.905902  3424 net.cpp:408] prod1-dsn2 -> prod1-dsn2
I1118 18:43:55.905918  3424 net.cpp:150] Setting up prod1-dsn2
I1118 18:43:55.905921  3424 net.cpp:157] Top shape: 1 128 250 250 (8000000)
I1118 18:43:55.905923  3424 net.cpp:165] Memory required for data: 1061542948
I1118 18:43:55.905926  3424 layer_factory.hpp:77] Creating layer conv1-dsn2
I1118 18:43:55.905936  3424 net.cpp:100] Creating Layer conv1-dsn2
I1118 18:43:55.905938  3424 net.cpp:434] conv1-dsn2 <- prod1-dsn2
I1118 18:43:55.905942  3424 net.cpp:408] conv1-dsn2 -> conv1-dsn2
I1118 18:43:55.907701  3424 net.cpp:150] Setting up conv1-dsn2
I1118 18:43:55.907711  3424 net.cpp:157] Top shape: 1 64 250 250 (4000000)
I1118 18:43:55.907712  3424 net.cpp:165] Memory required for data: 1077542948
I1118 18:43:55.907717  3424 layer_factory.hpp:77] Creating layer conv2-dsn2
I1118 18:43:55.907727  3424 net.cpp:100] Creating Layer conv2-dsn2
I1118 18:43:55.907730  3424 net.cpp:434] conv2-dsn2 <- conv1-dsn2
I1118 18:43:55.907735  3424 net.cpp:408] conv2-dsn2 -> conv2-dsn2
I1118 18:43:55.908774  3424 net.cpp:150] Setting up conv2-dsn2
I1118 18:43:55.908784  3424 net.cpp:157] Top shape: 1 64 250 250 (4000000)
I1118 18:43:55.908787  3424 net.cpp:165] Memory required for data: 1093542948
I1118 18:43:55.908792  3424 layer_factory.hpp:77] Creating layer relu1-dsn2
I1118 18:43:55.908797  3424 net.cpp:100] Creating Layer relu1-dsn2
I1118 18:43:55.908798  3424 net.cpp:434] relu1-dsn2 <- conv2-dsn2
I1118 18:43:55.908803  3424 net.cpp:395] relu1-dsn2 -> conv2-dsn2 (in-place)
I1118 18:43:55.908871  3424 net.cpp:150] Setting up relu1-dsn2
I1118 18:43:55.908877  3424 net.cpp:157] Top shape: 1 64 250 250 (4000000)
I1118 18:43:55.908895  3424 net.cpp:165] Memory required for data: 1109542948
I1118 18:43:55.908898  3424 layer_factory.hpp:77] Creating layer conv3-dsn2
I1118 18:43:55.908906  3424 net.cpp:100] Creating Layer conv3-dsn2
I1118 18:43:55.908908  3424 net.cpp:434] conv3-dsn2 <- conv2-dsn2
I1118 18:43:55.908913  3424 net.cpp:408] conv3-dsn2 -> conv3-dsn2
I1118 18:43:55.909819  3424 net.cpp:150] Setting up conv3-dsn2
I1118 18:43:55.909829  3424 net.cpp:157] Top shape: 1 64 250 250 (4000000)
I1118 18:43:55.909832  3424 net.cpp:165] Memory required for data: 1125542948
I1118 18:43:55.909837  3424 layer_factory.hpp:77] Creating layer relu2-dsn2
I1118 18:43:55.909842  3424 net.cpp:100] Creating Layer relu2-dsn2
I1118 18:43:55.909844  3424 net.cpp:434] relu2-dsn2 <- conv3-dsn2
I1118 18:43:55.909848  3424 net.cpp:395] relu2-dsn2 -> conv3-dsn2 (in-place)
I1118 18:43:55.909917  3424 net.cpp:150] Setting up relu2-dsn2
I1118 18:43:55.909924  3424 net.cpp:157] Top shape: 1 64 250 250 (4000000)
I1118 18:43:55.909941  3424 net.cpp:165] Memory required for data: 1141542948
I1118 18:43:55.909943  3424 layer_factory.hpp:77] Creating layer conv4-dsn2
I1118 18:43:55.909952  3424 net.cpp:100] Creating Layer conv4-dsn2
I1118 18:43:55.909955  3424 net.cpp:434] conv4-dsn2 <- conv3-dsn2
I1118 18:43:55.909960  3424 net.cpp:408] conv4-dsn2 -> conv4-dsn2
I1118 18:43:55.910579  3424 net.cpp:150] Setting up conv4-dsn2
I1118 18:43:55.910589  3424 net.cpp:157] Top shape: 1 1 250 250 (62500)
I1118 18:43:55.910591  3424 net.cpp:165] Memory required for data: 1141792948
I1118 18:43:55.910596  3424 layer_factory.hpp:77] Creating layer sum-dsn2
I1118 18:43:55.910601  3424 net.cpp:100] Creating Layer sum-dsn2
I1118 18:43:55.910604  3424 net.cpp:434] sum-dsn2 <- conv4-dsn2
I1118 18:43:55.910607  3424 net.cpp:434] sum-dsn2 <- weight-dsn3-2_crop1-dsn2_0_split_1
I1118 18:43:55.910614  3424 net.cpp:408] sum-dsn2 -> sum-dsn2
I1118 18:43:55.910631  3424 net.cpp:150] Setting up sum-dsn2
I1118 18:43:55.910635  3424 net.cpp:157] Top shape: 1 1 250 250 (62500)
I1118 18:43:55.910637  3424 net.cpp:165] Memory required for data: 1142042948
I1118 18:43:55.910640  3424 layer_factory.hpp:77] Creating layer upsample2_2-dsn2
I1118 18:43:55.910645  3424 net.cpp:100] Creating Layer upsample2_2-dsn2
I1118 18:43:55.910648  3424 net.cpp:434] upsample2_2-dsn2 <- sum-dsn2
I1118 18:43:55.910653  3424 net.cpp:408] upsample2_2-dsn2 -> sum-dsn2-up
I1118 18:43:55.911801  3424 net.cpp:150] Setting up upsample2_2-dsn2
I1118 18:43:55.911814  3424 net.cpp:157] Top shape: 1 1 502 502 (252004)
I1118 18:43:55.911816  3424 net.cpp:165] Memory required for data: 1143050964
I1118 18:43:55.911821  3424 layer_factory.hpp:77] Creating layer crop2-dsn2
I1118 18:43:55.911825  3424 net.cpp:100] Creating Layer crop2-dsn2
I1118 18:43:55.911828  3424 net.cpp:434] crop2-dsn2 <- sum-dsn2-up
I1118 18:43:55.911833  3424 net.cpp:434] crop2-dsn2 <- data_data_0_split_5
I1118 18:43:55.911835  3424 net.cpp:408] crop2-dsn2 -> upscore-dsn2
I1118 18:43:55.911859  3424 net.cpp:150] Setting up crop2-dsn2
I1118 18:43:55.911862  3424 net.cpp:157] Top shape: 1 1 500 500 (250000)
I1118 18:43:55.911864  3424 net.cpp:165] Memory required for data: 1144050964
I1118 18:43:55.911866  3424 layer_factory.hpp:77] Creating layer upscore-dsn2_crop2-dsn2_0_split
I1118 18:43:55.911872  3424 net.cpp:100] Creating Layer upscore-dsn2_crop2-dsn2_0_split
I1118 18:43:55.911875  3424 net.cpp:434] upscore-dsn2_crop2-dsn2_0_split <- upscore-dsn2
I1118 18:43:55.911878  3424 net.cpp:408] upscore-dsn2_crop2-dsn2_0_split -> upscore-dsn2_crop2-dsn2_0_split_0
I1118 18:43:55.911882  3424 net.cpp:408] upscore-dsn2_crop2-dsn2_0_split -> upscore-dsn2_crop2-dsn2_0_split_1
I1118 18:43:55.911887  3424 net.cpp:408] upscore-dsn2_crop2-dsn2_0_split -> upscore-dsn2_crop2-dsn2_0_split_2
I1118 18:43:55.911952  3424 net.cpp:150] Setting up upscore-dsn2_crop2-dsn2_0_split
I1118 18:43:55.911958  3424 net.cpp:157] Top shape: 1 1 500 500 (250000)
I1118 18:43:55.911962  3424 net.cpp:157] Top shape: 1 1 500 500 (250000)
I1118 18:43:55.911964  3424 net.cpp:157] Top shape: 1 1 500 500 (250000)
I1118 18:43:55.911967  3424 net.cpp:165] Memory required for data: 1147050964
I1118 18:43:55.911969  3424 layer_factory.hpp:77] Creating layer loss2-score
I1118 18:43:55.911976  3424 net.cpp:100] Creating Layer loss2-score
I1118 18:43:55.911978  3424 net.cpp:434] loss2-score <- upscore-dsn2_crop2-dsn2_0_split_0
I1118 18:43:55.911981  3424 net.cpp:434] loss2-score <- label_data_1_split_4
I1118 18:43:55.911985  3424 net.cpp:408] loss2-score -> loss2-score
I1118 18:43:55.912176  3424 net.cpp:150] Setting up loss2-score
I1118 18:43:55.912183  3424 net.cpp:157] Top shape: (1)
I1118 18:43:55.912184  3424 net.cpp:160]     with loss weight 1
I1118 18:43:55.912189  3424 net.cpp:165] Memory required for data: 1147050968
I1118 18:43:55.912191  3424 layer_factory.hpp:77] Creating layer sigmoid-dsn1
I1118 18:43:55.912197  3424 net.cpp:100] Creating Layer sigmoid-dsn1
I1118 18:43:55.912200  3424 net.cpp:434] sigmoid-dsn1 <- upscore-dsn2_crop2-dsn2_0_split_1
I1118 18:43:55.912204  3424 net.cpp:408] sigmoid-dsn1 -> sigmoid-dsn1
I1118 18:43:55.913444  3424 net.cpp:150] Setting up sigmoid-dsn1
I1118 18:43:55.913455  3424 net.cpp:157] Top shape: 1 1 500 500 (250000)
I1118 18:43:55.913457  3424 net.cpp:165] Memory required for data: 1148050968
I1118 18:43:55.913460  3424 layer_factory.hpp:77] Creating layer rev-dsn1
I1118 18:43:55.913465  3424 net.cpp:100] Creating Layer rev-dsn1
I1118 18:43:55.913467  3424 net.cpp:434] rev-dsn1 <- sigmoid-dsn1
I1118 18:43:55.913472  3424 net.cpp:408] rev-dsn1 -> rev-dsn1
I1118 18:43:55.913493  3424 net.cpp:150] Setting up rev-dsn1
I1118 18:43:55.913496  3424 net.cpp:157] Top shape: 1 1 500 500 (250000)
I1118 18:43:55.913498  3424 net.cpp:165] Memory required for data: 1149050968
I1118 18:43:55.913501  3424 layer_factory.hpp:77] Creating layer tile-dsn1
I1118 18:43:55.913504  3424 net.cpp:100] Creating Layer tile-dsn1
I1118 18:43:55.913506  3424 net.cpp:434] tile-dsn1 <- rev-dsn1
I1118 18:43:55.913511  3424 net.cpp:408] tile-dsn1 -> weight-dsn1
I1118 18:43:55.913527  3424 net.cpp:150] Setting up tile-dsn1
I1118 18:43:55.913532  3424 net.cpp:157] Top shape: 1 64 500 500 (16000000)
I1118 18:43:55.913533  3424 net.cpp:165] Memory required for data: 1213050968
I1118 18:43:55.913534  3424 layer_factory.hpp:77] Creating layer prod1-dsn1
I1118 18:43:55.913538  3424 net.cpp:100] Creating Layer prod1-dsn1
I1118 18:43:55.913542  3424 net.cpp:434] prod1-dsn1 <- conv1_2_relu1_2_0_split_1
I1118 18:43:55.913544  3424 net.cpp:434] prod1-dsn1 <- weight-dsn1
I1118 18:43:55.913547  3424 net.cpp:408] prod1-dsn1 -> prod1-dsn1
I1118 18:43:55.913574  3424 net.cpp:150] Setting up prod1-dsn1
I1118 18:43:55.913578  3424 net.cpp:157] Top shape: 1 64 500 500 (16000000)
I1118 18:43:55.913580  3424 net.cpp:165] Memory required for data: 1277050968
I1118 18:43:55.913583  3424 layer_factory.hpp:77] Creating layer conv1-dsn1
I1118 18:43:55.913591  3424 net.cpp:100] Creating Layer conv1-dsn1
I1118 18:43:55.913594  3424 net.cpp:434] conv1-dsn1 <- prod1-dsn1
I1118 18:43:55.913599  3424 net.cpp:408] conv1-dsn1 -> conv1-dsn1
I1118 18:43:55.915055  3424 net.cpp:150] Setting up conv1-dsn1
I1118 18:43:55.915064  3424 net.cpp:157] Top shape: 1 64 500 500 (16000000)
I1118 18:43:55.915067  3424 net.cpp:165] Memory required for data: 1341050968
I1118 18:43:55.915072  3424 layer_factory.hpp:77] Creating layer conv2-dsn1
I1118 18:43:55.915096  3424 net.cpp:100] Creating Layer conv2-dsn1
I1118 18:43:55.915099  3424 net.cpp:434] conv2-dsn1 <- conv1-dsn1
I1118 18:43:55.915104  3424 net.cpp:408] conv2-dsn1 -> conv2-dsn1
I1118 18:43:55.916206  3424 net.cpp:150] Setting up conv2-dsn1
I1118 18:43:55.916216  3424 net.cpp:157] Top shape: 1 64 500 500 (16000000)
I1118 18:43:55.916218  3424 net.cpp:165] Memory required for data: 1405050968
I1118 18:43:55.916224  3424 layer_factory.hpp:77] Creating layer relu1-dsn1
I1118 18:43:55.916229  3424 net.cpp:100] Creating Layer relu1-dsn1
I1118 18:43:55.916230  3424 net.cpp:434] relu1-dsn1 <- conv2-dsn1
I1118 18:43:55.916235  3424 net.cpp:395] relu1-dsn1 -> conv2-dsn1 (in-place)
I1118 18:43:55.916324  3424 net.cpp:150] Setting up relu1-dsn1
I1118 18:43:55.916332  3424 net.cpp:157] Top shape: 1 64 500 500 (16000000)
I1118 18:43:55.916334  3424 net.cpp:165] Memory required for data: 1469050968
I1118 18:43:55.916337  3424 layer_factory.hpp:77] Creating layer conv3-dsn1
I1118 18:43:55.916343  3424 net.cpp:100] Creating Layer conv3-dsn1
I1118 18:43:55.916347  3424 net.cpp:434] conv3-dsn1 <- conv2-dsn1
I1118 18:43:55.916352  3424 net.cpp:408] conv3-dsn1 -> conv3-dsn1
I1118 18:43:55.918123  3424 net.cpp:150] Setting up conv3-dsn1
I1118 18:43:55.918134  3424 net.cpp:157] Top shape: 1 64 500 500 (16000000)
I1118 18:43:55.918136  3424 net.cpp:165] Memory required for data: 1533050968
I1118 18:43:55.918141  3424 layer_factory.hpp:77] Creating layer relu2-dsn1
I1118 18:43:55.918148  3424 net.cpp:100] Creating Layer relu2-dsn1
I1118 18:43:55.918149  3424 net.cpp:434] relu2-dsn1 <- conv3-dsn1
I1118 18:43:55.918154  3424 net.cpp:395] relu2-dsn1 -> conv3-dsn1 (in-place)
I1118 18:43:55.918324  3424 net.cpp:150] Setting up relu2-dsn1
I1118 18:43:55.918334  3424 net.cpp:157] Top shape: 1 64 500 500 (16000000)
I1118 18:43:55.918336  3424 net.cpp:165] Memory required for data: 1597050968
I1118 18:43:55.918339  3424 layer_factory.hpp:77] Creating layer conv4-dsn1
I1118 18:43:55.918349  3424 net.cpp:100] Creating Layer conv4-dsn1
I1118 18:43:55.918351  3424 net.cpp:434] conv4-dsn1 <- conv3-dsn1
I1118 18:43:55.918357  3424 net.cpp:408] conv4-dsn1 -> conv4-dsn1
I1118 18:43:55.919071  3424 net.cpp:150] Setting up conv4-dsn1
I1118 18:43:55.919081  3424 net.cpp:157] Top shape: 1 1 500 500 (250000)
I1118 18:43:55.919083  3424 net.cpp:165] Memory required for data: 1598050968
I1118 18:43:55.919088  3424 layer_factory.hpp:77] Creating layer sum-dsn1
I1118 18:43:55.919092  3424 net.cpp:100] Creating Layer sum-dsn1
I1118 18:43:55.919095  3424 net.cpp:434] sum-dsn1 <- conv4-dsn1
I1118 18:43:55.919098  3424 net.cpp:434] sum-dsn1 <- upscore-dsn2_crop2-dsn2_0_split_2
I1118 18:43:55.919104  3424 net.cpp:408] sum-dsn1 -> sum-dsn1
I1118 18:43:55.919124  3424 net.cpp:150] Setting up sum-dsn1
I1118 18:43:55.919131  3424 net.cpp:157] Top shape: 1 1 500 500 (250000)
I1118 18:43:55.919132  3424 net.cpp:165] Memory required for data: 1599050968
I1118 18:43:55.919134  3424 layer_factory.hpp:77] Creating layer crop2-dsn1
I1118 18:43:55.919137  3424 net.cpp:100] Creating Layer crop2-dsn1
I1118 18:43:55.919139  3424 net.cpp:434] crop2-dsn1 <- sum-dsn1
I1118 18:43:55.919142  3424 net.cpp:434] crop2-dsn1 <- data_data_0_split_6
I1118 18:43:55.919147  3424 net.cpp:408] crop2-dsn1 -> upscore-dsn1
I1118 18:43:55.919164  3424 net.cpp:150] Setting up crop2-dsn1
I1118 18:43:55.919167  3424 net.cpp:157] Top shape: 1 1 500 500 (250000)
I1118 18:43:55.919169  3424 net.cpp:165] Memory required for data: 1600050968
I1118 18:43:55.919171  3424 layer_factory.hpp:77] Creating layer loss1-score
I1118 18:43:55.919176  3424 net.cpp:100] Creating Layer loss1-score
I1118 18:43:55.919190  3424 net.cpp:434] loss1-score <- upscore-dsn1
I1118 18:43:55.919193  3424 net.cpp:434] loss1-score <- label_data_1_split_5
I1118 18:43:55.919198  3424 net.cpp:408] loss1-score -> loss1-score
…
