…
I1125 10:10:31.126514 17022 net.cpp:58] Initializing net from parameters: 
name: "RAS"
state {
  phase: TRAIN
}
layer {
  name: "data"
  type: "ImageLabelmapData"
  top: "data_unaugmented"
  top: "label_unaugmented"
  include {
    phase: TRAIN
  }
  transform_param {
    mean_value: 104.00699
    mean_value: 116.66877
    mean_value: 122.67892
  }
  image_data_param {
    source: "/media/compute/homes/galberding/FleckDetect/Datasets/train.txt"
    batch_size: 1
    shuffle: true
    new_height: 500
    new_width: 500
    root_folder: "/media/compute/homes/galberding/FleckDetect/Datasets/"
    normalize: true
  }
}
layer {
  name: "augmentation"
  type: "Python"
  bottom: "data_unaugmented"
  bottom: "label_unaugmented"
  top: "data"
  top: "label"
  include {
    phase: TRAIN
  }
  python_param {
    module: "data_augmentation"
    layer: "DataAugmentation"
  }
}
layer {
  name: "conv1_1"
  type: "Convolution"
  bottom: "data"
  top: "conv1_1"
  param {
    lr_mult: 1
    decay_mult: 1
  }
  param {
    lr_mult: 2
    decay_mult: 0
  }
  convolution_param {
    num_output: 64
    pad: 1
    kernel_size: 3
    engine: CUDNN
  }
}
layer {
  name: "relu1_1"
  type: "ReLU"
  bottom: "conv1_1"
  top: "conv1_1"
}
layer {
  name: "conv1_2"
  type: "Convolution"
  bottom: "conv1_1"
  top: "conv1_2"
  param {
    lr_mult: 1
    decay_mult: 1
  }
  param {
    lr_mult: 2
    decay_mult: 0
  }
  convolution_param {
    num_output: 64
    pad: 1
    kernel_size: 3
    engine: CUDNN
  }
}
layer {
  name: "relu1_2"
  type: "ReLU"
  bottom: "conv1_2"
  top: "conv1_2"
}
layer {
  name: "pool1"
  type: "Pooling"
  bottom: "conv1_2"
  top: "pool1"
  pooling_param {
    pool: MAX
    kernel_size: 2
    stride: 2
  }
}
layer {
  name: "conv2_1"
  type: "Convolution"
  bottom: "pool1"
  top: "conv2_1"
  param {
    lr_mult: 1
    decay_mult: 1
  }
  param {
    lr_mult: 2
    decay_mult: 0
  }
  convolution_param {
    num_output: 128
    pad: 1
    kernel_size: 3
    engine: CUDNN
  }
}
layer {
  name: "relu2_1"
  type: "ReLU"
  bottom: "conv2_1"
  top: "conv2_1"
}
layer {
  name: "conv2_2"
  type: "Convolution"
  bottom: "conv2_1"
  top: "conv2_2"
  param {
    lr_mult: 1
    decay_mult: 1
  }
  param {
    lr_mult: 2
    decay_mult: 0
  }
  convolution_param {
    num_output: 128
    pad: 1
    kernel_size: 3
    engine: CUDNN
  }
}
layer {
  name: "relu2_2"
  type: "ReLU"
  bottom: "conv2_2"
  top: "conv2_2"
}
layer {
  name: "pool2"
  type: "Pooling"
  bottom: "conv2_2"
  top: "pool2"
  pooling_param {
    pool: MAX
    kernel_size: 2
    stride: 2
  }
}
layer {
  name: "conv3_1"
  type: "Convolution"
  bottom: "pool2"
  top: "conv3_1"
  param {
    lr_mult: 1
    decay_mult: 1
  }
  param {
    lr_mult: 2
    decay_mult: 0
  }
  convolution_param {
    num_output: 256
    pad: 1
    kernel_size: 3
    engine: CUDNN
  }
}
layer {
  name: "relu3_1"
  type: "ReLU"
  bottom: "conv3_1"
  top: "conv3_1"
}
layer {
  name: "conv3_2"
  type: "Convolution"
  bottom: "conv3_1"
  top: "conv3_2"
  param {
    lr_mult: 1
    decay_mult: 1
  }
  param {
    lr_mult: 2
    decay_mult: 0
  }
  convolution_param {
    num_output: 256
    pad: 1
    kernel_size: 3
    engine: CUDNN
  }
}
layer {
  name: "relu3_2"
  type: "ReLU"
  bottom: "conv3_2"
  top: "conv3_2"
}
layer {
  name: "conv3_3"
  type: "Convolution"
  bottom: "conv3_2"
  top: "conv3_3"
  param {
    lr_mult: 1
    decay_mult: 1
  }
  param {
    lr_mult: 2
    decay_mult: 0
  }
  convolution_param {
    num_output: 256
    pad: 1
    kernel_size: 3
    engine: CUDNN
  }
}
layer {
  name: "relu3_3"
  type: "ReLU"
  bottom: "conv3_3"
  top: "conv3_3"
}
layer {
  name: "pool3"
  type: "Pooling"
  bottom: "conv3_3"
  top: "pool3"
  pooling_param {
    pool: MAX
    kernel_size: 2
    stride: 2
  }
}
layer {
  name: "conv4_1"
  type: "Convolution"
  bottom: "pool3"
  top: "conv4_1"
  param {
    lr_mult: 1
    decay_mult: 1
  }
  param {
    lr_mult: 2
    decay_mult: 0
  }
  convolution_param {
    num_output: 512
    pad: 1
    kernel_size: 3
    engine: CUDNN
  }
}
layer {
  name: "relu4_1"
  type: "ReLU"
  bottom: "conv4_1"
  top: "conv4_1"
}
layer {
  name: "conv4_2"
  type: "Convolution"
  bottom: "conv4_1"
  top: "conv4_2"
  param {
    lr_mult: 1
    decay_mult: 1
  }
  param {
    lr_mult: 2
    decay_mult: 0
  }
  convolution_param {
    num_output: 512
    pad: 1
    kernel_size: 3
    engine: CUDNN
  }
}
layer {
  name: "relu4_2"
  type: "ReLU"
  bottom: "conv4_2"
  top: "conv4_2"
}
layer {
  name: "conv4_3"
  type: "Convolution"
  bottom: "conv4_2"
  top: "conv4_3"
  param {
    lr_mult: 1
    decay_mult: 1
  }
  param {
    lr_mult: 2
    decay_mult: 0
  }
  convolution_param {
    num_output: 512
    pad: 1
    kernel_size: 3
    engine: CUDNN
  }
}
layer {
  name: "relu4_3"
  type: "ReLU"
  bottom: "conv4_3"
  top: "conv4_3"
}
layer {
  name: "pool4"
  type: "Pooling"
  bottom: "conv4_3"
  top: "pool4"
  pooling_param {
    pool: MAX
    kernel_size: 3
    stride: 2
    pad: 1
  }
}
layer {
  name: "conv5_1"
  type: "Convolution"
  bottom: "pool4"
  top: "conv5_1"
  param {
    lr_mult: 1
    decay_mult: 1
  }
  param {
    lr_mult: 2
    decay_mult: 0
  }
  convolution_param {
    num_output: 512
    pad: 1
    kernel_size: 3
    engine: CUDNN
  }
}
layer {
  name: "relu5_1"
  type: "ReLU"
  bottom: "conv5_1"
  top: "conv5_1"
}
layer {
  name: "conv5_2"
  type: "Convolution"
  bottom: "conv5_1"
  top: "conv5_2"
  param {
    lr_mult: 1
    decay_mult: 1
  }
  param {
    lr_mult: 2
    decay_mult: 0
  }
  convolution_param {
    num_output: 512
    pad: 1
    kernel_size: 3
    engine: CUDNN
  }
}
layer {
  name: "relu5_2"
  type: "ReLU"
  bottom: "conv5_2"
  top: "conv5_2"
}
layer {
  name: "conv5_3"
  type: "Convolution"
  bottom: "conv5_2"
  top: "conv5_3"
  param {
    lr_mult: 1
    decay_mult: 1
  }
  param {
    lr_mult: 2
    decay_mult: 0
  }
  convolution_param {
    num_output: 512
    pad: 1
    kernel_size: 3
    engine: CUDNN
  }
}
layer {
  name: "relu5_3"
  type: "ReLU"
  bottom: "conv5_3"
  top: "conv5_3"
}
layer {
  name: "pool5"
  type: "Pooling"
  bottom: "conv5_3"
  top: "pool5"
  pooling_param {
    pool: MAX
    kernel_size: 3
    stride: 2
    pad: 1
  }
}
layer {
  name: "conv1-dsn6"
  type: "Convolution"
  bottom: "pool5"
  top: "conv1-dsn6"
  param {
    lr_mult: 1
    decay_mult: 1
  }
  param {
    lr_mult: 2
    decay_mult: 0
  }
  convolution_param {
    num_output: 256
    kernel_size: 1
    weight_filler {
      type: "gaussian"
      std: 0.01
    }
    bias_filler {
      type: "constant"
      value: 0
    }
    engine: CUDNN
  }
}
layer {
  name: "conv2-dsn6"
  type: "Convolution"
  bottom: "conv1-dsn6"
  top: "conv2-dsn6"
  param {
    lr_mult: 1
    decay_mult: 1
  }
  param {
    lr_mult: 2
    decay_mult: 0
  }
  convolution_param {
    num_output: 256
    pad: 2
    kernel_size: 5
    weight_filler {
      type: "gaussian"
      std: 0.01
    }
    bias_filler {
      type: "constant"
      value: 0
    }
    engine: CUDNN
  }
}
layer {
  name: "relu1-dsn6"
  type: "ReLU"
  bottom: "conv2-dsn6"
  top: "conv2-dsn6"
}
layer {
  name: "conv3-dsn6"
  type: "Convolution"
  bottom: "conv2-dsn6"
  top: "conv3-dsn6"
  param {
    lr_mult: 1
    decay_mult: 1
  }
  param {
    lr_mult: 2
    decay_mult: 0
  }
  convolution_param {
    num_output: 256
    pad: 2
    kernel_size: 5
    weight_filler {
      type: "gaussian"
      std: 0.01
    }
    bias_filler {
      type: "constant"
      value: 0
    }
    engine: CUDNN
  }
}
layer {
  name: "relu2-dsn6"
  type: "ReLU"
  bottom: "conv3-dsn6"
  top: "conv3-dsn6"
}
layer {
  name: "conv4-dsn6"
  type: "Convolution"
  bottom: "conv3-dsn6"
  top: "conv4-dsn6"
  param {
    lr_mult: 1
    decay_mult: 1
  }
  param {
    lr_mult: 2
    decay_mult: 0
  }
  convolution_param {
    num_output: 256
    pad: 2
    kernel_size: 5
    weight_filler {
      type: "gaussian"
      std: 0.01
    }
    bias_filler {
      type: "constant"
      value: 0
    }
    engine: CUDNN
  }
}
layer {
  name: "relu3-dsn6"
  type: "ReLU"
  bottom: "conv4-dsn6"
  top: "conv4-dsn6"
}
layer {
  name: "conv5-dsn6"
  type: "Convolution"
  bottom: "conv4-dsn6"
  top: "conv5-dsn6"
  param {
    lr_mult: 0.1
    decay_mult: 1
  }
  param {
    lr_mult: 0.2
    decay_mult: 0
  }
  convolution_param {
    num_output: 1
    kernel_size: 1
    weight_filler {
      type: "gaussian"
      std: 0.01
    }
    bias_filler {
      type: "constant"
      value: 0
    }
    engine: CUDNN
  }
}
layer {
  name: "upsample32_dsn6"
  type: "Deconvolution"
  bottom: "conv5-dsn6"
  top: "conv5-dsn6-up"
  param {
    lr_mult: 0
    decay_mult: 1
  }
  param {
    lr_mult: 0
    decay_mult: 0
  }
  convolution_param {
    num_output: 1
    kernel_size: 64
    stride: 32
  }
}
layer {
  name: "crop-dsn6"
  type: "Crop"
  bottom: "conv5-dsn6-up"
  bottom: "data"
  top: "upscore-dsn6"
}
layer {
  name: "loss6-score"
  type: "SigmoidCrossEntropyLoss"
  bottom: "upscore-dsn6"
  bottom: "label"
  top: "loss6-score"
  loss_weight: 1
}
layer {
  name: "upsample2_dsn5"
  type: "Deconvolution"
  bottom: "conv5-dsn6"
  top: "conv5-dsn6-5"
  param {
    lr_mult: 0
    decay_mult: 1
  }
  param {
    lr_mult: 0
    decay_mult: 0
  }
  convolution_param {
    num_output: 1
    kernel_size: 4
    stride: 2
  }
}
layer {
  name: "crop1-dsn5"
  type: "Crop"
  bottom: "conv5-dsn6-5"
  bottom: "conv5_3"
  top: "weight-dsn6-5"
}
layer {
  name: "sigmoid-dsn5"
  type: "Sigmoid"
  bottom: "weight-dsn6-5"
  top: "sigmoid-dsn5"
}
layer {
  name: "rev-dsn5"
  type: "Power"
  bottom: "sigmoid-dsn5"
  top: "rev-dsn5"
  power_param {
    power: 1
    scale: -1
    shift: 1
  }
}
layer {
  name: "tile-dsn5"
  type: "Tile"
  bottom: "rev-dsn5"
  top: "weight-dsn5"
  tile_param {
    tiles: 512
  }
}
layer {
  name: "prod1-dsn5"
  type: "Eltwise"
  bottom: "conv5_3"
  bottom: "weight-dsn5"
  top: "prod1-dsn5"
  eltwise_param {
    operation: PROD
  }
}
layer {
  name: "conv1-dsn5"
  type: "Convolution"
  bottom: "prod1-dsn5"
  top: "conv1-dsn5"
  param {
    lr_mult: 1
    decay_mult: 1
  }
  param {
    lr_mult: 2
    decay_mult: 0
  }
  convolution_param {
    num_output: 64
    kernel_size: 1
    weight_filler {
      type: "gaussian"
      std: 0.01
    }
    bias_filler {
      type: "constant"
      value: 0
    }
    engine: CUDNN
  }
}
layer {
  name: "conv2-dsn5"
  type: "Convolution"
  bottom: "conv1-dsn5"
  top: "conv2-dsn5"
  param {
    lr_mult: 1
    decay_mult: 1
  }
  param {
    lr_mult: 2
    decay_mult: 0
  }
  convolution_param {
    num_output: 64
    pad: 1
    kernel_size: 3
    weight_filler {
      type: "gaussian"
      std: 0.01
    }
    bias_filler {
      type: "constant"
      value: 0
    }
    engine: CUDNN
  }
}
layer {
  name: "relu1-dsn5"
  type: "ReLU"
  bottom: "conv2-dsn5"
  top: "conv2-dsn5"
}
layer {
  name: "conv3-dsn5"
  type: "Convolution"
  bottom: "conv2-dsn5"
  top: "conv3-dsn5"
  param {
    lr_mult: 1
    decay_mult: 1
  }
  param {
    lr_mult: 2
    decay_mult: 0
  }
  convolution_param {
    num_output: 64
    pad: 1
    kernel_size: 3
    weight_filler {
      type: "gaussian"
      std: 0.01
    }
    bias_filler {
      type: "constant"
      value: 0
    }
    engine: CUDNN
  }
}
layer {
  name: "relu2-dsn5"
  type: "ReLU"
  bottom: "conv3-dsn5"
  top: "conv3-dsn5"
}
layer {
  name: "conv4-dsn5"
  type: "Convolution"
  bottom: "conv3-dsn5"
  top: "conv4-dsn5"
  param {
    lr_mult: 1
    decay_mult: 1
  }
  param {
    lr_mult: 2
    decay_mult: 0
  }
  convolution_param {
    num_output: 1
    pad: 1
    kernel_size: 3
    weight_filler {
      type: "gaussian"
      std: 0.01
    }
    bias_filler {
      type: "constant"
      value: 0
    }
    engine: CUDNN
  }
}
layer {
  name: "sum-dsn5"
  type: "Eltwise"
  bottom: "conv4-dsn5"
  bottom: "weight-dsn6-5"
  top: "sum-dsn5"
  eltwise_param {
    operation: SUM
  }
}
layer {
  name: "upsample16_dsn5"
  type: "Deconvolution"
  bottom: "sum-dsn5"
  top: "sum-dsn5-up"
  param {
    lr_mult: 0
    decay_mult: 1
  }
  param {
    lr_mult: 0
    decay_mult: 0
  }
  convolution_param {
    num_output: 1
    kernel_size: 32
    stride: 16
  }
}
layer {
  name: "crop2-dsn5"
  type: "Crop"
  bottom: "sum-dsn5-up"
  bottom: "data"
  top: "upscore-dsn5"
}
layer {
  name: "loss5-score"
  type: "SigmoidCrossEntropyLoss"
  bottom: "upscore-dsn5"
  bottom: "label"
  top: "loss5-score"
  loss_weight: 1
}
layer {
  name: "upsample2_dsn4"
  type: "Deconvolution"
  bottom: "sum-dsn5"
  top: "sum-dsn5-4"
  param {
    lr_mult: 0
    decay_mult: 1
  }
  param {
    lr_mult: 0
    decay_mult: 0
  }
  convolution_param {
    num_output: 1
    kernel_size: 4
    stride: 2
  }
}
layer {
  name: "crop1-dsn4"
  type: "Crop"
  bottom: "sum-dsn5-4"
  bottom: "conv4_3"
  top: "weight-dsn5-4"
}
layer {
  name: "sigmoid-dsn4"
  type: "Sigmoid"
  bottom: "weight-dsn5-4"
  top: "sigmoid-dsn4"
}
layer {
  name: "rev-dsn4"
  type: "Power"
  bottom: "sigmoid-dsn4"
  top: "rev-dsn4"
  power_param {
    power: 1
    scale: -1
    shift: 1
  }
}
layer {
  name: "tile-dsn4"
  type: "Tile"
  bottom: "rev-dsn4"
  top: "weight-dsn4"
  tile_param {
    tiles: 512
  }
}
layer {
  name: "prod1-dsn4"
  type: "Eltwise"
  bottom: "conv4_3"
  bottom: "weight-dsn4"
  top: "prod1-dsn4"
  eltwise_param {
    operation: PROD
  }
}
layer {
  name: "conv1-dsn4"
  type: "Convolution"
  bottom: "prod1-dsn4"
  top: "conv1-dsn4"
  param {
    lr_mult: 1
    decay_mult: 1
  }
  param {
    lr_mult: 2
    decay_mult: 0
  }
  convolution_param {
    num_output: 64
    kernel_size: 1
    weight_filler {
      type: "gaussian"
      std: 0.01
    }
    bias_filler {
      type: "constant"
      value: 0
    }
    engine: CUDNN
  }
}
layer {
  name: "conv2-dsn4"
  type: "Convolution"
  bottom: "conv1-dsn4"
  top: "conv2-dsn4"
  param {
    lr_mult: 1
    decay_mult: 1
  }
  param {
    lr_mult: 2
    decay_mult: 0
  }
  convolution_param {
    num_output: 64
    pad: 1
    kernel_size: 3
    weight_filler {
      type: "gaussian"
      std: 0.01
    }
    bias_filler {
      type: "constant"
      value: 0
    }
    engine: CUDNN
  }
}
layer {
  name: "relu1-dsn4"
  type: "ReLU"
  bottom: "conv2-dsn4"
  top: "conv2-dsn4"
}
layer {
  name: "conv3-dsn4"
  type: "Convolution"
  bottom: "conv2-dsn4"
  top: "conv3-dsn4"
  param {
    lr_mult: 1
    decay_mult: 1
  }
  param {
    lr_mult: 2
    decay_mult: 0
  }
  convolution_param {
    num_output: 64
    pad: 1
    kernel_size: 3
    weight_filler {
      type: "gaussian"
      std: 0.01
    }
    bias_filler {
      type: "constant"
      value: 0
    }
    engine: CUDNN
  }
}
layer {
  name: "relu2-dsn4"
  type: "ReLU"
  bottom: "conv3-dsn4"
  top: "conv3-dsn4"
}
layer {
  name: "conv4-dsn4"
  type: "Convolution"
  bottom: "conv3-dsn4"
  top: "conv4-dsn4"
  param {
    lr_mult: 1
    decay_mult: 1
  }
  param {
    lr_mult: 2
    decay_mult: 0
  }
  convolution_param {
    num_output: 1
    pad: 1
    kernel_size: 3
    weight_filler {
      type: "gaussian"
      std: 0.01
    }
    bias_filler {
      type: "constant"
      value: 0
    }
    engine: CUDNN
  }
}
layer {
  name: "sum-dsn4"
  type: "Eltwise"
  bottom: "conv4-dsn4"
  bottom: "weight-dsn5-4"
  top: "sum-dsn4"
  eltwise_param {
    operation: SUM
  }
}
layer {
  name: "upsample8_dsn4"
  type: "Deconvolution"
  bottom: "sum-dsn4"
  top: "sum-dsn4-up"
  param {
    lr_mult: 0
    decay_mult: 1
  }
  param {
    lr_mult: 0
    decay_mult: 0
  }
  convolution_param {
    num_output: 1
    kernel_size: 16
    stride: 8
  }
}
layer {
  name: "crop2-dsn4"
  type: "Crop"
  bottom: "sum-dsn4-up"
  bottom: "data"
  top: "upscore-dsn4"
}
layer {
  name: "loss4-score"
  type: "SigmoidCrossEntropyLoss"
  bottom: "upscore-dsn4"
  bottom: "label"
  top: "loss4-score"
  loss_weight: 1
}
layer {
  name: "upsample2_dsn3"
  type: "Deconvolution"
  bottom: "sum-dsn4"
  top: "sum-dsn4-3"
  param {
    lr_mult: 0
    decay_mult: 1
  }
  param {
    lr_mult: 0
    decay_mult: 0
  }
  convolution_param {
    num_output: 1
    kernel_size: 4
    stride: 2
  }
}
layer {
  name: "crop1-dsn3"
  type: "Crop"
  bottom: "sum-dsn4-3"
  bottom: "conv3_3"
  top: "weight-dsn4-3"
}
layer {
  name: "sigmoid-dsn3"
  type: "Sigmoid"
  bottom: "weight-dsn4-3"
  top: "sigmoid-dsn3"
}
layer {
  name: "rev-dsn3"
  type: "Power"
  bottom: "sigmoid-dsn3"
  top: "rev-dsn3"
  power_param {
    power: 1
    scale: -1
    shift: 1
  }
}
layer {
  name: "tile-dsn3"
  type: "Tile"
  bottom: "rev-dsn3"
  top: "weight-dsn3"
  tile_param {
    tiles: 256
  }
}
layer {
  name: "prod1-dsn3"
  type: "Eltwise"
  bottom: "conv3_3"
  bottom: "weight-dsn3"
  top: "prod1-dsn3"
  eltwise_param {
    operation: PROD
  }
}
layer {
  name: "conv1-dsn3"
  type: "Convolution"
  bottom: "prod1-dsn3"
  top: "conv1-dsn3"
  param {
    lr_mult: 1
    decay_mult: 1
  }
  param {
    lr_mult: 2
    decay_mult: 0
  }
  convolution_param {
    num_output: 64
    kernel_size: 1
    weight_filler {
      type: "gaussian"
      std: 0.01
    }
    bias_filler {
      type: "constant"
      value: 0
    }
    engine: CUDNN
  }
}
layer {
  name: "conv2-dsn3"
  type: "Convolution"
  bottom: "conv1-dsn3"
  top: "conv2-dsn3"
  param {
    lr_mult: 1
    decay_mult: 1
  }
  param {
    lr_mult: 2
    decay_mult: 0
  }
  convolution_param {
    num_output: 64
    pad: 1
    kernel_size: 3
    weight_filler {
      type: "gaussian"
      std: 0.01
    }
    bias_filler {
      type: "constant"
      value: 0
    }
    engine: CUDNN
  }
}
layer {
  name: "relu1-dsn3"
  type: "ReLU"
  bottom: "conv2-dsn3"
  top: "conv2-dsn3"
}
layer {
  name: "conv3-dsn3"
  type: "Convolution"
  bottom: "conv2-dsn3"
  top: "conv3-dsn3"
  param {
    lr_mult: 1
    decay_mult: 1
  }
  param {
    lr_mult: 2
    decay_mult: 0
  }
  convolution_param {
    num_output: 64
    pad: 1
    kernel_size: 3
    weight_filler {
      type: "gaussian"
      std: 0.01
    }
    bias_filler {
      type: "constant"
      value: 0
    }
    engine: CUDNN
  }
}
layer {
  name: "relu2-dsn3"
  type: "ReLU"
  bottom: "conv3-dsn3"
  top: "conv3-dsn3"
}
layer {
  name: "conv4-dsn3"
  type: "Convolution"
  bottom: "conv3-dsn3"
  top: "conv4-dsn3"
  param {
    lr_mult: 1
    decay_mult: 1
  }
  param {
    lr_mult: 2
    decay_mult: 0
  }
  convolution_param {
    num_output: 1
    pad: 1
    kernel_size: 3
    weight_filler {
      type: "gaussian"
      std: 0.01
    }
    bias_filler {
      type: "constant"
      value: 0
    }
    engine: CUDNN
  }
}
layer {
  name: "sum-dsn3"
  type: "Eltwise"
  bottom: "conv4-dsn3"
  bottom: "weight-dsn4-3"
  top: "sum-dsn3"
  eltwise_param {
    operation: SUM
  }
}
layer {
  name: "upsample4_dsn3"
  type: "Deconvolution"
  bottom: "sum-dsn3"
  top: "sum-dsn3-up"
  param {
    lr_mult: 0
    decay_mult: 1
  }
  param {
    lr_mult: 0
    decay_mult: 0
  }
  convolution_param {
    num_output: 1
    kernel_size: 8
    stride: 4
  }
}
layer {
  name: "crop2-dsn3"
  type: "Crop"
  bottom: "sum-dsn3-up"
  bottom: "data"
  top: "upscore-dsn3"
}
layer {
  name: "loss3-score"
  type: "SigmoidCrossEntropyLoss"
  bottom: "upscore-dsn3"
  bottom: "label"
  top: "loss3-score"
  loss_weight: 1
}
layer {
  name: "upsample2_1-dsn2"
  type: "Deconvolution"
  bottom: "sum-dsn3"
  top: "sum-dsn3-2"
  param {
    lr_mult: 0
    decay_mult: 1
  }
  param {
    lr_mult: 0
    decay_mult: 0
  }
  convolution_param {
    num_output: 1
    kernel_size: 4
    stride: 2
  }
}
layer {
  name: "crop1-dsn2"
  type: "Crop"
  bottom: "sum-dsn3-2"
  bottom: "conv2_2"
  top: "weight-dsn3-2"
}
layer {
  name: "sigmoid-dsn2"
  type: "Sigmoid"
  bottom: "weight-dsn3-2"
  top: "sigmoid-dsn2"
}
layer {
  name: "rev-dsn2"
  type: "Power"
  bottom: "sigmoid-dsn2"
  top: "rev-dsn2"
  power_param {
    power: 1
    scale: -1
    shift: 1
  }
}
layer {
  name: "tile-dsn2"
  type: "Tile"
  bottom: "rev-dsn2"
  top: "weight-dsn2"
  tile_param {
    tiles: 128
  }
}
layer {
  name: "prod1-dsn2"
  type: "Eltwise"
  bottom: "conv2_2"
  bottom: "weight-dsn2"
  top: "prod1-dsn2"
  eltwise_param {
    operation: PROD
  }
}
layer {
  name: "conv1-dsn2"
  type: "Convolution"
  bottom: "prod1-dsn2"
  top: "conv1-dsn2"
  param {
    lr_mult: 1
    decay_mult: 1
  }
  param {
    lr_mult: 2
    decay_mult: 0
  }
  convolution_param {
    num_output: 64
    kernel_size: 1
    weight_filler {
      type: "gaussian"
      std: 0.01
    }
    bias_filler {
      type: "constant"
      value: 0
    }
    engine: CUDNN
  }
}
layer {
  name: "conv2-dsn2"
  type: "Convolution"
  bottom: "conv1-dsn2"
  top: "conv2-dsn2"
  param {
    lr_mult: 1
    decay_mult: 1
  }
  param {
    lr_mult: 2
    decay_mult: 0
  }
  convolution_param {
    num_output: 64
    pad: 1
    kernel_size: 3
    weight_filler {
      type: "gaussian"
      std: 0.01
    }
    bias_filler {
      type: "constant"
      value: 0
    }
    engine: CUDNN
  }
}
layer {
  name: "relu1-dsn2"
  type: "ReLU"
  bottom: "conv2-dsn2"
  top: "conv2-dsn2"
}
layer {
  name: "conv3-dsn2"
  type: "Convolution"
  bottom: "conv2-dsn2"
  top: "conv3-dsn2"
  param {
    lr_mult: 1
    decay_mult: 1
  }
  param {
    lr_mult: 2
    decay_mult: 0
  }
  convolution_param {
    num_output: 64
    pad: 1
    kernel_size: 3
    weight_filler {
      type: "gaussian"
      std: 0.01
    }
    bias_filler {
      type: "constant"
      value: 0
    }
    engine: CUDNN
  }
}
layer {
  name: "relu2-dsn2"
  type: "ReLU"
  bottom: "conv3-dsn2"
  top: "conv3-dsn2"
}
layer {
  name: "conv4-dsn2"
  type: "Convolution"
  bottom: "conv3-dsn2"
  top: "conv4-dsn2"
  param {
    lr_mult: 1
    decay_mult: 1
  }
  param {
    lr_mult: 2
    decay_mult: 0
  }
  convolution_param {
    num_output: 1
    pad: 1
    kernel_size: 3
    weight_filler {
      type: "gaussian"
      std: 0.01
    }
    bias_filler {
      type: "constant"
      value: 0
    }
    engine: CUDNN
  }
}
layer {
  name: "sum-dsn2"
  type: "Eltwise"
  bottom: "conv4-dsn2"
  bottom: "weight-dsn3-2"
  top: "sum-dsn2"
  eltwise_param {
    operation: SUM
  }
}
layer {
  name: "upsample2_2-dsn2"
  type: "Deconvolution"
  bottom: "sum-dsn2"
  top: "sum-dsn2-up"
  param {
    lr_mult: 0
    decay_mult: 1
  }
  param {
    lr_mult: 0
    decay_mult: 0
  }
  convolution_param {
    num_output: 1
    kernel_size: 4
    stride: 2
  }
}
layer {
  name: "crop2-dsn2"
  type: "Crop"
  bottom: "sum-dsn2-up"
  bottom: "data"
  top: "upscore-dsn2"
}
layer {
  name: "loss2-score"
  type: "SigmoidCrossEntropyLoss"
  bottom: "upscore-dsn2"
  bottom: "label"
  top: "loss2-score"
  loss_weight: 1
}
layer {
  name: "sigmoid-dsn1"
  type: "Sigmoid"
  bottom: "upscore-dsn2"
  top: "sigmoid-dsn1"
}
layer {
  name: "rev-dsn1"
  type: "Power"
  bottom: "sigmoid-dsn1"
  top: "rev-dsn1"
  power_param {
    power: 1
    scale: -1
    shift: 1
  }
}
layer {
  name: "tile-dsn1"
  type: "Tile"
  bottom: "rev-dsn1"
  top: "weight-dsn1"
  tile_param {
    tiles: 64
  }
}
layer {
  name: "prod1-dsn1"
  type: "Eltwise"
  bottom: "conv1_2"
  bottom: "weight-dsn1"
  top: "prod1-dsn1"
  eltwise_param {
    operation: PROD
  }
}
layer {
  name: "conv1-dsn1"
  type: "Convolution"
  bottom: "prod1-dsn1"
  top: "conv1-dsn1"
  param {
    lr_mult: 1
    decay_mult: 1
  }
  param {
    lr_mult: 2
    decay_mult: 0
  }
  convolution_param {
    num_output: 64
    kernel_size: 1
    weight_filler {
      type: "gaussian"
      std: 0.01
    }
    bias_filler {
      type: "constant"
      value: 0
    }
    engine: CUDNN
  }
}
layer {
  name: "conv2-dsn1"
  type: "Convolution"
  bottom: "conv1-dsn1"
  top: "conv2-dsn1"
  param {
    lr_mult: 1
    decay_mult: 1
  }
  param {
    lr_mult: 2
    decay_mult: 0
  }
  convolution_param {
    num_output: 64
    pad: 1
    kernel_size: 3
    weight_filler {
      type: "gaussian"
      std: 0.01
    }
    bias_filler {
      type: "constant"
      value: 0
    }
    engine: CUDNN
  }
}
layer {
  name: "relu1-dsn1"
  type: "ReLU"
  bottom: "conv2-dsn1"
  top: "conv2-dsn1"
}
layer {
  name: "conv3-dsn1"
  type: "Convolution"
  bottom: "conv2-dsn1"
  top: "conv3-dsn1"
  param {
    lr_mult: 1
    decay_mult: 1
  }
  param {
    lr_mult: 2
    decay_mult: 0
  }
  convolution_param {
    num_output: 64
    pad: 1
    kernel_size: 3
    weight_filler {
      type: "gaussian"
      std: 0.01
    }
    bias_filler {
      type: "constant"
      value: 0
    }
    engine: CUDNN
  }
}
layer {
  name: "relu2-dsn1"
  type: "ReLU"
  bottom: "conv3-dsn1"
  top: "conv3-dsn1"
}
layer {
  name: "conv4-dsn1"
  type: "Convolution"
  bottom: "conv3-dsn1"
  top: "conv4-dsn1"
  param {
    lr_mult: 1
    decay_mult: 1
  }
  param {
    lr_mult: 2
    decay_mult: 0
  }
  convolution_param {
    num_output: 1
    pad: 1
    kernel_size: 3
    weight_filler {
      type: "gaussian"
      std: 0.01
    }
    bias_filler {
      type: "constant"
      value: 0
    }
    engine: CUDNN
  }
}
layer {
  name: "sum-dsn1"
  type: "Eltwise"
  bottom: "conv4-dsn1"
  bottom: "upscore-dsn2"
  top: "sum-dsn1"
  eltwise_param {
    operation: SUM
  }
}
layer {
  name: "crop2-dsn1"
  type: "Crop"
  bottom: "sum-dsn1"
  bottom: "data"
  top: "upscore-dsn1"
}
layer {
  name: "loss1-score"
  type: "SigmoidCrossEntropyLoss"
  bottom: "upscore-dsn1"
  bottom: "label"
  top: "loss1-score"
  loss_weight: 1
}
I1125 10:10:31.127090 17022 layer_factory.hpp:77] Creating layer data
I1125 10:10:31.127143 17022 net.cpp:100] Creating Layer data
I1125 10:10:31.127153 17022 net.cpp:408] data -> data_unaugmented
I1125 10:10:31.127167 17022 net.cpp:408] data -> label_unaugmented
I1125 10:10:31.127179 17022 image_labelmap_data_layer.cpp:41] Opening file /media/compute/homes/galberding/FleckDetect/Datasets/train.txt
I1125 10:10:31.154793 17022 image_labelmap_data_layer.cpp:51] Shuffling data
I1125 10:10:31.155843 17022 image_labelmap_data_layer.cpp:56] A total of 3600 images.
I1125 10:10:31.959792 17022 image_labelmap_data_layer.cpp:110] output data size: 1,3,500,500
I1125 10:10:31.959832 17022 image_labelmap_data_layer.cpp:113] output label size: 1,1,500,500
I1125 10:10:31.974958 17022 net.cpp:150] Setting up data
I1125 10:10:31.974982 17022 net.cpp:157] Top shape: 1 3 500 500 (750000)
I1125 10:10:31.974988 17022 net.cpp:157] Top shape: 1 1 500 500 (250000)
I1125 10:10:31.974992 17022 net.cpp:165] Memory required for data: 4000000
I1125 10:10:31.975003 17022 layer_factory.hpp:77] Creating layer augmentation
I1125 10:10:32.000874 17022 net.cpp:100] Creating Layer augmentation
I1125 10:10:32.000892 17022 net.cpp:434] augmentation <- data_unaugmented
I1125 10:10:32.000902 17022 net.cpp:434] augmentation <- label_unaugmented
I1125 10:10:32.000914 17022 net.cpp:408] augmentation -> data
I1125 10:10:32.000928 17022 net.cpp:408] augmentation -> label
I1125 10:10:32.004422 17022 net.cpp:150] Setting up augmentation
I1125 10:10:32.004448 17022 net.cpp:157] Top shape: 1 3 500 500 (750000)
I1125 10:10:32.004456 17022 net.cpp:157] Top shape: 1 1 500 500 (250000)
I1125 10:10:32.004460 17022 net.cpp:165] Memory required for data: 8000000
I1125 10:10:32.004467 17022 layer_factory.hpp:77] Creating layer data_augmentation_0_split
I1125 10:10:32.004483 17022 net.cpp:100] Creating Layer data_augmentation_0_split
I1125 10:10:32.004488 17022 net.cpp:434] data_augmentation_0_split <- data
I1125 10:10:32.004501 17022 net.cpp:408] data_augmentation_0_split -> data_augmentation_0_split_0
I1125 10:10:32.004518 17022 net.cpp:408] data_augmentation_0_split -> data_augmentation_0_split_1
I1125 10:10:32.004528 17022 net.cpp:408] data_augmentation_0_split -> data_augmentation_0_split_2
I1125 10:10:32.004539 17022 net.cpp:408] data_augmentation_0_split -> data_augmentation_0_split_3
I1125 10:10:32.004549 17022 net.cpp:408] data_augmentation_0_split -> data_augmentation_0_split_4
I1125 10:10:32.004561 17022 net.cpp:408] data_augmentation_0_split -> data_augmentation_0_split_5
I1125 10:10:32.004570 17022 net.cpp:408] data_augmentation_0_split -> data_augmentation_0_split_6
I1125 10:10:32.004714 17022 net.cpp:150] Setting up data_augmentation_0_split
I1125 10:10:32.004727 17022 net.cpp:157] Top shape: 1 3 500 500 (750000)
I1125 10:10:32.004734 17022 net.cpp:157] Top shape: 1 3 500 500 (750000)
I1125 10:10:32.004740 17022 net.cpp:157] Top shape: 1 3 500 500 (750000)
I1125 10:10:32.004746 17022 net.cpp:157] Top shape: 1 3 500 500 (750000)
I1125 10:10:32.004752 17022 net.cpp:157] Top shape: 1 3 500 500 (750000)
I1125 10:10:32.004758 17022 net.cpp:157] Top shape: 1 3 500 500 (750000)
I1125 10:10:32.004765 17022 net.cpp:157] Top shape: 1 3 500 500 (750000)
I1125 10:10:32.004768 17022 net.cpp:165] Memory required for data: 29000000
I1125 10:10:32.004773 17022 layer_factory.hpp:77] Creating layer label_augmentation_1_split
I1125 10:10:32.004784 17022 net.cpp:100] Creating Layer label_augmentation_1_split
I1125 10:10:32.004789 17022 net.cpp:434] label_augmentation_1_split <- label
I1125 10:10:32.004799 17022 net.cpp:408] label_augmentation_1_split -> label_augmentation_1_split_0
I1125 10:10:32.004812 17022 net.cpp:408] label_augmentation_1_split -> label_augmentation_1_split_1
I1125 10:10:32.004822 17022 net.cpp:408] label_augmentation_1_split -> label_augmentation_1_split_2
I1125 10:10:32.004830 17022 net.cpp:408] label_augmentation_1_split -> label_augmentation_1_split_3
I1125 10:10:32.004840 17022 net.cpp:408] label_augmentation_1_split -> label_augmentation_1_split_4
I1125 10:10:32.004849 17022 net.cpp:408] label_augmentation_1_split -> label_augmentation_1_split_5
I1125 10:10:32.004966 17022 net.cpp:150] Setting up label_augmentation_1_split
I1125 10:10:32.004976 17022 net.cpp:157] Top shape: 1 1 500 500 (250000)
I1125 10:10:32.004982 17022 net.cpp:157] Top shape: 1 1 500 500 (250000)
I1125 10:10:32.004988 17022 net.cpp:157] Top shape: 1 1 500 500 (250000)
I1125 10:10:32.004994 17022 net.cpp:157] Top shape: 1 1 500 500 (250000)
I1125 10:10:32.004999 17022 net.cpp:157] Top shape: 1 1 500 500 (250000)
I1125 10:10:32.005005 17022 net.cpp:157] Top shape: 1 1 500 500 (250000)
I1125 10:10:32.005012 17022 net.cpp:165] Memory required for data: 35000000
I1125 10:10:32.005017 17022 layer_factory.hpp:77] Creating layer conv1_1
I1125 10:10:32.005036 17022 net.cpp:100] Creating Layer conv1_1
I1125 10:10:32.005043 17022 net.cpp:434] conv1_1 <- data_augmentation_0_split_0
I1125 10:10:32.005053 17022 net.cpp:408] conv1_1 -> conv1_1
I1125 10:10:32.849539 17022 net.cpp:150] Setting up conv1_1
I1125 10:10:32.849573 17022 net.cpp:157] Top shape: 1 64 500 500 (16000000)
I1125 10:10:32.849576 17022 net.cpp:165] Memory required for data: 99000000
I1125 10:10:32.849596 17022 layer_factory.hpp:77] Creating layer relu1_1
I1125 10:10:32.849608 17022 net.cpp:100] Creating Layer relu1_1
I1125 10:10:32.849612 17022 net.cpp:434] relu1_1 <- conv1_1
I1125 10:10:32.849617 17022 net.cpp:395] relu1_1 -> conv1_1 (in-place)
I1125 10:10:32.849761 17022 net.cpp:150] Setting up relu1_1
I1125 10:10:32.849768 17022 net.cpp:157] Top shape: 1 64 500 500 (16000000)
I1125 10:10:32.849771 17022 net.cpp:165] Memory required for data: 163000000
I1125 10:10:32.849772 17022 layer_factory.hpp:77] Creating layer conv1_2
I1125 10:10:32.849782 17022 net.cpp:100] Creating Layer conv1_2
I1125 10:10:32.849786 17022 net.cpp:434] conv1_2 <- conv1_1
I1125 10:10:32.849789 17022 net.cpp:408] conv1_2 -> conv1_2
I1125 10:10:32.851801 17022 net.cpp:150] Setting up conv1_2
I1125 10:10:32.851814 17022 net.cpp:157] Top shape: 1 64 500 500 (16000000)
I1125 10:10:32.851815 17022 net.cpp:165] Memory required for data: 227000000
I1125 10:10:32.851824 17022 layer_factory.hpp:77] Creating layer relu1_2
I1125 10:10:32.851828 17022 net.cpp:100] Creating Layer relu1_2
I1125 10:10:32.851831 17022 net.cpp:434] relu1_2 <- conv1_2
I1125 10:10:32.851835 17022 net.cpp:395] relu1_2 -> conv1_2 (in-place)
I1125 10:10:32.851969 17022 net.cpp:150] Setting up relu1_2
I1125 10:10:32.851975 17022 net.cpp:157] Top shape: 1 64 500 500 (16000000)
I1125 10:10:32.851977 17022 net.cpp:165] Memory required for data: 291000000
I1125 10:10:32.851979 17022 layer_factory.hpp:77] Creating layer conv1_2_relu1_2_0_split
I1125 10:10:32.851989 17022 net.cpp:100] Creating Layer conv1_2_relu1_2_0_split
I1125 10:10:32.851991 17022 net.cpp:434] conv1_2_relu1_2_0_split <- conv1_2
I1125 10:10:32.851996 17022 net.cpp:408] conv1_2_relu1_2_0_split -> conv1_2_relu1_2_0_split_0
I1125 10:10:32.852001 17022 net.cpp:408] conv1_2_relu1_2_0_split -> conv1_2_relu1_2_0_split_1
I1125 10:10:32.852037 17022 net.cpp:150] Setting up conv1_2_relu1_2_0_split
I1125 10:10:32.852041 17022 net.cpp:157] Top shape: 1 64 500 500 (16000000)
I1125 10:10:32.852044 17022 net.cpp:157] Top shape: 1 64 500 500 (16000000)
I1125 10:10:32.852047 17022 net.cpp:165] Memory required for data: 419000000
I1125 10:10:32.852048 17022 layer_factory.hpp:77] Creating layer pool1
I1125 10:10:32.852054 17022 net.cpp:100] Creating Layer pool1
I1125 10:10:32.852057 17022 net.cpp:434] pool1 <- conv1_2_relu1_2_0_split_0
I1125 10:10:32.852062 17022 net.cpp:408] pool1 -> pool1
I1125 10:10:32.852092 17022 net.cpp:150] Setting up pool1
I1125 10:10:32.852097 17022 net.cpp:157] Top shape: 1 64 250 250 (4000000)
I1125 10:10:32.852099 17022 net.cpp:165] Memory required for data: 435000000
I1125 10:10:32.852102 17022 layer_factory.hpp:77] Creating layer conv2_1
I1125 10:10:32.852109 17022 net.cpp:100] Creating Layer conv2_1
I1125 10:10:32.852113 17022 net.cpp:434] conv2_1 <- pool1
I1125 10:10:32.852116 17022 net.cpp:408] conv2_1 -> conv2_1
I1125 10:10:32.854362 17022 net.cpp:150] Setting up conv2_1
I1125 10:10:32.854372 17022 net.cpp:157] Top shape: 1 128 250 250 (8000000)
I1125 10:10:32.854374 17022 net.cpp:165] Memory required for data: 467000000
I1125 10:10:32.854384 17022 layer_factory.hpp:77] Creating layer relu2_1
I1125 10:10:32.854389 17022 net.cpp:100] Creating Layer relu2_1
I1125 10:10:32.854391 17022 net.cpp:434] relu2_1 <- conv2_1
I1125 10:10:32.854395 17022 net.cpp:395] relu2_1 -> conv2_1 (in-place)
I1125 10:10:32.854547 17022 net.cpp:150] Setting up relu2_1
I1125 10:10:32.854554 17022 net.cpp:157] Top shape: 1 128 250 250 (8000000)
I1125 10:10:32.854557 17022 net.cpp:165] Memory required for data: 499000000
I1125 10:10:32.854558 17022 layer_factory.hpp:77] Creating layer conv2_2
I1125 10:10:32.854566 17022 net.cpp:100] Creating Layer conv2_2
I1125 10:10:32.854568 17022 net.cpp:434] conv2_2 <- conv2_1
I1125 10:10:32.854574 17022 net.cpp:408] conv2_2 -> conv2_2
I1125 10:10:32.855792 17022 net.cpp:150] Setting up conv2_2
I1125 10:10:32.855801 17022 net.cpp:157] Top shape: 1 128 250 250 (8000000)
I1125 10:10:32.855803 17022 net.cpp:165] Memory required for data: 531000000
I1125 10:10:32.855808 17022 layer_factory.hpp:77] Creating layer relu2_2
I1125 10:10:32.855813 17022 net.cpp:100] Creating Layer relu2_2
I1125 10:10:32.855815 17022 net.cpp:434] relu2_2 <- conv2_2
I1125 10:10:32.855820 17022 net.cpp:395] relu2_2 -> conv2_2 (in-place)
I1125 10:10:32.855970 17022 net.cpp:150] Setting up relu2_2
I1125 10:10:32.855978 17022 net.cpp:157] Top shape: 1 128 250 250 (8000000)
I1125 10:10:32.855979 17022 net.cpp:165] Memory required for data: 563000000
I1125 10:10:32.855981 17022 layer_factory.hpp:77] Creating layer conv2_2_relu2_2_0_split
I1125 10:10:32.855986 17022 net.cpp:100] Creating Layer conv2_2_relu2_2_0_split
I1125 10:10:32.855988 17022 net.cpp:434] conv2_2_relu2_2_0_split <- conv2_2
I1125 10:10:32.855993 17022 net.cpp:408] conv2_2_relu2_2_0_split -> conv2_2_relu2_2_0_split_0
I1125 10:10:32.855998 17022 net.cpp:408] conv2_2_relu2_2_0_split -> conv2_2_relu2_2_0_split_1
I1125 10:10:32.856003 17022 net.cpp:408] conv2_2_relu2_2_0_split -> conv2_2_relu2_2_0_split_2
I1125 10:10:32.856045 17022 net.cpp:150] Setting up conv2_2_relu2_2_0_split
I1125 10:10:32.856050 17022 net.cpp:157] Top shape: 1 128 250 250 (8000000)
I1125 10:10:32.856053 17022 net.cpp:157] Top shape: 1 128 250 250 (8000000)
I1125 10:10:32.856056 17022 net.cpp:157] Top shape: 1 128 250 250 (8000000)
I1125 10:10:32.856057 17022 net.cpp:165] Memory required for data: 659000000
I1125 10:10:32.856060 17022 layer_factory.hpp:77] Creating layer pool2
I1125 10:10:32.856066 17022 net.cpp:100] Creating Layer pool2
I1125 10:10:32.856068 17022 net.cpp:434] pool2 <- conv2_2_relu2_2_0_split_0
I1125 10:10:32.856071 17022 net.cpp:408] pool2 -> pool2
I1125 10:10:32.856101 17022 net.cpp:150] Setting up pool2
I1125 10:10:32.856106 17022 net.cpp:157] Top shape: 1 128 125 125 (2000000)
I1125 10:10:32.856107 17022 net.cpp:165] Memory required for data: 667000000
I1125 10:10:32.856109 17022 layer_factory.hpp:77] Creating layer conv3_1
I1125 10:10:32.856119 17022 net.cpp:100] Creating Layer conv3_1
I1125 10:10:32.856122 17022 net.cpp:434] conv3_1 <- pool2
I1125 10:10:32.856146 17022 net.cpp:408] conv3_1 -> conv3_1
I1125 10:10:32.858469 17022 net.cpp:150] Setting up conv3_1
I1125 10:10:32.858481 17022 net.cpp:157] Top shape: 1 256 125 125 (4000000)
I1125 10:10:32.858484 17022 net.cpp:165] Memory required for data: 683000000
I1125 10:10:32.858491 17022 layer_factory.hpp:77] Creating layer relu3_1
I1125 10:10:32.858495 17022 net.cpp:100] Creating Layer relu3_1
I1125 10:10:32.858500 17022 net.cpp:434] relu3_1 <- conv3_1
I1125 10:10:32.858505 17022 net.cpp:395] relu3_1 -> conv3_1 (in-place)
I1125 10:10:32.858891 17022 net.cpp:150] Setting up relu3_1
I1125 10:10:32.858901 17022 net.cpp:157] Top shape: 1 256 125 125 (4000000)
I1125 10:10:32.858903 17022 net.cpp:165] Memory required for data: 699000000
I1125 10:10:32.858906 17022 layer_factory.hpp:77] Creating layer conv3_2
I1125 10:10:32.858914 17022 net.cpp:100] Creating Layer conv3_2
I1125 10:10:32.858916 17022 net.cpp:434] conv3_2 <- conv3_1
I1125 10:10:32.858922 17022 net.cpp:408] conv3_2 -> conv3_2
I1125 10:10:32.861241 17022 net.cpp:150] Setting up conv3_2
I1125 10:10:32.861269 17022 net.cpp:157] Top shape: 1 256 125 125 (4000000)
I1125 10:10:32.861271 17022 net.cpp:165] Memory required for data: 715000000
I1125 10:10:32.861277 17022 layer_factory.hpp:77] Creating layer relu3_2
I1125 10:10:32.861282 17022 net.cpp:100] Creating Layer relu3_2
I1125 10:10:32.861284 17022 net.cpp:434] relu3_2 <- conv3_2
I1125 10:10:32.861289 17022 net.cpp:395] relu3_2 -> conv3_2 (in-place)
I1125 10:10:32.861685 17022 net.cpp:150] Setting up relu3_2
I1125 10:10:32.861693 17022 net.cpp:157] Top shape: 1 256 125 125 (4000000)
I1125 10:10:32.861696 17022 net.cpp:165] Memory required for data: 731000000
I1125 10:10:32.861698 17022 layer_factory.hpp:77] Creating layer conv3_3
I1125 10:10:32.861706 17022 net.cpp:100] Creating Layer conv3_3
I1125 10:10:32.861708 17022 net.cpp:434] conv3_3 <- conv3_2
I1125 10:10:32.861716 17022 net.cpp:408] conv3_3 -> conv3_3
I1125 10:10:32.864286 17022 net.cpp:150] Setting up conv3_3
I1125 10:10:32.864297 17022 net.cpp:157] Top shape: 1 256 125 125 (4000000)
I1125 10:10:32.864300 17022 net.cpp:165] Memory required for data: 747000000
I1125 10:10:32.864305 17022 layer_factory.hpp:77] Creating layer relu3_3
I1125 10:10:32.864310 17022 net.cpp:100] Creating Layer relu3_3
I1125 10:10:32.864313 17022 net.cpp:434] relu3_3 <- conv3_3
I1125 10:10:32.864317 17022 net.cpp:395] relu3_3 -> conv3_3 (in-place)
I1125 10:10:32.864481 17022 net.cpp:150] Setting up relu3_3
I1125 10:10:32.864490 17022 net.cpp:157] Top shape: 1 256 125 125 (4000000)
I1125 10:10:32.864491 17022 net.cpp:165] Memory required for data: 763000000
I1125 10:10:32.864493 17022 layer_factory.hpp:77] Creating layer conv3_3_relu3_3_0_split
I1125 10:10:32.864498 17022 net.cpp:100] Creating Layer conv3_3_relu3_3_0_split
I1125 10:10:32.864500 17022 net.cpp:434] conv3_3_relu3_3_0_split <- conv3_3
I1125 10:10:32.864506 17022 net.cpp:408] conv3_3_relu3_3_0_split -> conv3_3_relu3_3_0_split_0
I1125 10:10:32.864511 17022 net.cpp:408] conv3_3_relu3_3_0_split -> conv3_3_relu3_3_0_split_1
I1125 10:10:32.864521 17022 net.cpp:408] conv3_3_relu3_3_0_split -> conv3_3_relu3_3_0_split_2
I1125 10:10:32.864564 17022 net.cpp:150] Setting up conv3_3_relu3_3_0_split
I1125 10:10:32.864569 17022 net.cpp:157] Top shape: 1 256 125 125 (4000000)
I1125 10:10:32.864573 17022 net.cpp:157] Top shape: 1 256 125 125 (4000000)
I1125 10:10:32.864575 17022 net.cpp:157] Top shape: 1 256 125 125 (4000000)
I1125 10:10:32.864576 17022 net.cpp:165] Memory required for data: 811000000
I1125 10:10:32.864579 17022 layer_factory.hpp:77] Creating layer pool3
I1125 10:10:32.864585 17022 net.cpp:100] Creating Layer pool3
I1125 10:10:32.864588 17022 net.cpp:434] pool3 <- conv3_3_relu3_3_0_split_0
I1125 10:10:32.864591 17022 net.cpp:408] pool3 -> pool3
I1125 10:10:32.864620 17022 net.cpp:150] Setting up pool3
I1125 10:10:32.864625 17022 net.cpp:157] Top shape: 1 256 63 63 (1016064)
I1125 10:10:32.864627 17022 net.cpp:165] Memory required for data: 815064256
I1125 10:10:32.864629 17022 layer_factory.hpp:77] Creating layer conv4_1
I1125 10:10:32.864636 17022 net.cpp:100] Creating Layer conv4_1
I1125 10:10:32.864639 17022 net.cpp:434] conv4_1 <- pool3
I1125 10:10:32.864642 17022 net.cpp:408] conv4_1 -> conv4_1
I1125 10:10:32.869321 17022 net.cpp:150] Setting up conv4_1
I1125 10:10:32.869334 17022 net.cpp:157] Top shape: 1 512 63 63 (2032128)
I1125 10:10:32.869336 17022 net.cpp:165] Memory required for data: 823192768
I1125 10:10:32.869341 17022 layer_factory.hpp:77] Creating layer relu4_1
I1125 10:10:32.869345 17022 net.cpp:100] Creating Layer relu4_1
I1125 10:10:32.869349 17022 net.cpp:434] relu4_1 <- conv4_1
I1125 10:10:32.869352 17022 net.cpp:395] relu4_1 -> conv4_1 (in-place)
I1125 10:10:32.869513 17022 net.cpp:150] Setting up relu4_1
I1125 10:10:32.869519 17022 net.cpp:157] Top shape: 1 512 63 63 (2032128)
I1125 10:10:32.869521 17022 net.cpp:165] Memory required for data: 831321280
I1125 10:10:32.869524 17022 layer_factory.hpp:77] Creating layer conv4_2
I1125 10:10:32.869532 17022 net.cpp:100] Creating Layer conv4_2
I1125 10:10:32.869535 17022 net.cpp:434] conv4_2 <- conv4_1
I1125 10:10:32.869539 17022 net.cpp:408] conv4_2 -> conv4_2
I1125 10:10:32.875496 17022 net.cpp:150] Setting up conv4_2
I1125 10:10:32.875507 17022 net.cpp:157] Top shape: 1 512 63 63 (2032128)
I1125 10:10:32.875509 17022 net.cpp:165] Memory required for data: 839449792
I1125 10:10:32.875520 17022 layer_factory.hpp:77] Creating layer relu4_2
I1125 10:10:32.875525 17022 net.cpp:100] Creating Layer relu4_2
I1125 10:10:32.875528 17022 net.cpp:434] relu4_2 <- conv4_2
I1125 10:10:32.875535 17022 net.cpp:395] relu4_2 -> conv4_2 (in-place)
I1125 10:10:32.875687 17022 net.cpp:150] Setting up relu4_2
I1125 10:10:32.875694 17022 net.cpp:157] Top shape: 1 512 63 63 (2032128)
I1125 10:10:32.875696 17022 net.cpp:165] Memory required for data: 847578304
I1125 10:10:32.875699 17022 layer_factory.hpp:77] Creating layer conv4_3
I1125 10:10:32.875706 17022 net.cpp:100] Creating Layer conv4_3
I1125 10:10:32.875710 17022 net.cpp:434] conv4_3 <- conv4_2
I1125 10:10:32.875713 17022 net.cpp:408] conv4_3 -> conv4_3
I1125 10:10:32.881347 17022 net.cpp:150] Setting up conv4_3
I1125 10:10:32.881377 17022 net.cpp:157] Top shape: 1 512 63 63 (2032128)
I1125 10:10:32.881379 17022 net.cpp:165] Memory required for data: 855706816
I1125 10:10:32.881386 17022 layer_factory.hpp:77] Creating layer relu4_3
I1125 10:10:32.881390 17022 net.cpp:100] Creating Layer relu4_3
I1125 10:10:32.881393 17022 net.cpp:434] relu4_3 <- conv4_3
I1125 10:10:32.881399 17022 net.cpp:395] relu4_3 -> conv4_3 (in-place)
I1125 10:10:32.881561 17022 net.cpp:150] Setting up relu4_3
I1125 10:10:32.881567 17022 net.cpp:157] Top shape: 1 512 63 63 (2032128)
I1125 10:10:32.881570 17022 net.cpp:165] Memory required for data: 863835328
I1125 10:10:32.881572 17022 layer_factory.hpp:77] Creating layer conv4_3_relu4_3_0_split
I1125 10:10:32.881577 17022 net.cpp:100] Creating Layer conv4_3_relu4_3_0_split
I1125 10:10:32.881579 17022 net.cpp:434] conv4_3_relu4_3_0_split <- conv4_3
I1125 10:10:32.881585 17022 net.cpp:408] conv4_3_relu4_3_0_split -> conv4_3_relu4_3_0_split_0
I1125 10:10:32.881590 17022 net.cpp:408] conv4_3_relu4_3_0_split -> conv4_3_relu4_3_0_split_1
I1125 10:10:32.881594 17022 net.cpp:408] conv4_3_relu4_3_0_split -> conv4_3_relu4_3_0_split_2
I1125 10:10:32.881640 17022 net.cpp:150] Setting up conv4_3_relu4_3_0_split
I1125 10:10:32.881646 17022 net.cpp:157] Top shape: 1 512 63 63 (2032128)
I1125 10:10:32.881649 17022 net.cpp:157] Top shape: 1 512 63 63 (2032128)
I1125 10:10:32.881652 17022 net.cpp:157] Top shape: 1 512 63 63 (2032128)
I1125 10:10:32.881654 17022 net.cpp:165] Memory required for data: 888220864
I1125 10:10:32.881656 17022 layer_factory.hpp:77] Creating layer pool4
I1125 10:10:32.881660 17022 net.cpp:100] Creating Layer pool4
I1125 10:10:32.881664 17022 net.cpp:434] pool4 <- conv4_3_relu4_3_0_split_0
I1125 10:10:32.881669 17022 net.cpp:408] pool4 -> pool4
I1125 10:10:32.881700 17022 net.cpp:150] Setting up pool4
I1125 10:10:32.881703 17022 net.cpp:157] Top shape: 1 512 32 32 (524288)
I1125 10:10:32.881705 17022 net.cpp:165] Memory required for data: 890318016
I1125 10:10:32.881706 17022 layer_factory.hpp:77] Creating layer conv5_1
I1125 10:10:32.881719 17022 net.cpp:100] Creating Layer conv5_1
I1125 10:10:32.881722 17022 net.cpp:434] conv5_1 <- pool4
I1125 10:10:32.881726 17022 net.cpp:408] conv5_1 -> conv5_1
I1125 10:10:32.887375 17022 net.cpp:150] Setting up conv5_1
I1125 10:10:32.887392 17022 net.cpp:157] Top shape: 1 512 32 32 (524288)
I1125 10:10:32.887393 17022 net.cpp:165] Memory required for data: 892415168
I1125 10:10:32.887398 17022 layer_factory.hpp:77] Creating layer relu5_1
I1125 10:10:32.887403 17022 net.cpp:100] Creating Layer relu5_1
I1125 10:10:32.887406 17022 net.cpp:434] relu5_1 <- conv5_1
I1125 10:10:32.887411 17022 net.cpp:395] relu5_1 -> conv5_1 (in-place)
I1125 10:10:32.887809 17022 net.cpp:150] Setting up relu5_1
I1125 10:10:32.887820 17022 net.cpp:157] Top shape: 1 512 32 32 (524288)
I1125 10:10:32.887822 17022 net.cpp:165] Memory required for data: 894512320
I1125 10:10:32.887825 17022 layer_factory.hpp:77] Creating layer conv5_2
I1125 10:10:32.887832 17022 net.cpp:100] Creating Layer conv5_2
I1125 10:10:32.887835 17022 net.cpp:434] conv5_2 <- conv5_1
I1125 10:10:32.887840 17022 net.cpp:408] conv5_2 -> conv5_2
I1125 10:10:32.893208 17022 net.cpp:150] Setting up conv5_2
I1125 10:10:32.893219 17022 net.cpp:157] Top shape: 1 512 32 32 (524288)
I1125 10:10:32.893221 17022 net.cpp:165] Memory required for data: 896609472
I1125 10:10:32.893226 17022 layer_factory.hpp:77] Creating layer relu5_2
I1125 10:10:32.893232 17022 net.cpp:100] Creating Layer relu5_2
I1125 10:10:32.893235 17022 net.cpp:434] relu5_2 <- conv5_2
I1125 10:10:32.893239 17022 net.cpp:395] relu5_2 -> conv5_2 (in-place)
I1125 10:10:32.893654 17022 net.cpp:150] Setting up relu5_2
I1125 10:10:32.893663 17022 net.cpp:157] Top shape: 1 512 32 32 (524288)
I1125 10:10:32.893666 17022 net.cpp:165] Memory required for data: 898706624
I1125 10:10:32.893668 17022 layer_factory.hpp:77] Creating layer conv5_3
I1125 10:10:32.893692 17022 net.cpp:100] Creating Layer conv5_3
I1125 10:10:32.893695 17022 net.cpp:434] conv5_3 <- conv5_2
I1125 10:10:32.893699 17022 net.cpp:408] conv5_3 -> conv5_3
I1125 10:10:32.899382 17022 net.cpp:150] Setting up conv5_3
I1125 10:10:32.899410 17022 net.cpp:157] Top shape: 1 512 32 32 (524288)
I1125 10:10:32.899413 17022 net.cpp:165] Memory required for data: 900803776
I1125 10:10:32.899418 17022 layer_factory.hpp:77] Creating layer relu5_3
I1125 10:10:32.899423 17022 net.cpp:100] Creating Layer relu5_3
I1125 10:10:32.899426 17022 net.cpp:434] relu5_3 <- conv5_3
I1125 10:10:32.899432 17022 net.cpp:395] relu5_3 -> conv5_3 (in-place)
I1125 10:10:32.899598 17022 net.cpp:150] Setting up relu5_3
I1125 10:10:32.899605 17022 net.cpp:157] Top shape: 1 512 32 32 (524288)
I1125 10:10:32.899607 17022 net.cpp:165] Memory required for data: 902900928
I1125 10:10:32.899610 17022 layer_factory.hpp:77] Creating layer conv5_3_relu5_3_0_split
I1125 10:10:32.899614 17022 net.cpp:100] Creating Layer conv5_3_relu5_3_0_split
I1125 10:10:32.899617 17022 net.cpp:434] conv5_3_relu5_3_0_split <- conv5_3
I1125 10:10:32.899622 17022 net.cpp:408] conv5_3_relu5_3_0_split -> conv5_3_relu5_3_0_split_0
I1125 10:10:32.899628 17022 net.cpp:408] conv5_3_relu5_3_0_split -> conv5_3_relu5_3_0_split_1
I1125 10:10:32.899633 17022 net.cpp:408] conv5_3_relu5_3_0_split -> conv5_3_relu5_3_0_split_2
I1125 10:10:32.899679 17022 net.cpp:150] Setting up conv5_3_relu5_3_0_split
I1125 10:10:32.899684 17022 net.cpp:157] Top shape: 1 512 32 32 (524288)
I1125 10:10:32.899688 17022 net.cpp:157] Top shape: 1 512 32 32 (524288)
I1125 10:10:32.899690 17022 net.cpp:157] Top shape: 1 512 32 32 (524288)
I1125 10:10:32.899691 17022 net.cpp:165] Memory required for data: 909192384
I1125 10:10:32.899694 17022 layer_factory.hpp:77] Creating layer pool5
I1125 10:10:32.899701 17022 net.cpp:100] Creating Layer pool5
I1125 10:10:32.899704 17022 net.cpp:434] pool5 <- conv5_3_relu5_3_0_split_0
I1125 10:10:32.899708 17022 net.cpp:408] pool5 -> pool5
I1125 10:10:32.899741 17022 net.cpp:150] Setting up pool5
I1125 10:10:32.899746 17022 net.cpp:157] Top shape: 1 512 17 17 (147968)
I1125 10:10:32.899749 17022 net.cpp:165] Memory required for data: 909784256
I1125 10:10:32.899751 17022 layer_factory.hpp:77] Creating layer conv1-dsn6
I1125 10:10:32.899760 17022 net.cpp:100] Creating Layer conv1-dsn6
I1125 10:10:32.899761 17022 net.cpp:434] conv1-dsn6 <- pool5
I1125 10:10:32.899767 17022 net.cpp:408] conv1-dsn6 -> conv1-dsn6
I1125 10:10:32.902951 17022 net.cpp:150] Setting up conv1-dsn6
I1125 10:10:32.902962 17022 net.cpp:157] Top shape: 1 256 17 17 (73984)
I1125 10:10:32.902964 17022 net.cpp:165] Memory required for data: 910080192
I1125 10:10:32.902969 17022 layer_factory.hpp:77] Creating layer conv2-dsn6
I1125 10:10:32.902978 17022 net.cpp:100] Creating Layer conv2-dsn6
I1125 10:10:32.902981 17022 net.cpp:434] conv2-dsn6 <- conv1-dsn6
I1125 10:10:32.902987 17022 net.cpp:408] conv2-dsn6 -> conv2-dsn6
I1125 10:10:32.918939 17022 net.cpp:150] Setting up conv2-dsn6
I1125 10:10:32.918952 17022 net.cpp:157] Top shape: 1 256 17 17 (73984)
I1125 10:10:32.918956 17022 net.cpp:165] Memory required for data: 910376128
I1125 10:10:32.918959 17022 layer_factory.hpp:77] Creating layer relu1-dsn6
I1125 10:10:32.918964 17022 net.cpp:100] Creating Layer relu1-dsn6
I1125 10:10:32.918967 17022 net.cpp:434] relu1-dsn6 <- conv2-dsn6
I1125 10:10:32.918972 17022 net.cpp:395] relu1-dsn6 -> conv2-dsn6 (in-place)
I1125 10:10:32.919122 17022 net.cpp:150] Setting up relu1-dsn6
I1125 10:10:32.919137 17022 net.cpp:157] Top shape: 1 256 17 17 (73984)
I1125 10:10:32.919153 17022 net.cpp:165] Memory required for data: 910672064
I1125 10:10:32.919157 17022 layer_factory.hpp:77] Creating layer conv3-dsn6
I1125 10:10:32.919167 17022 net.cpp:100] Creating Layer conv3-dsn6
I1125 10:10:32.919170 17022 net.cpp:434] conv3-dsn6 <- conv2-dsn6
I1125 10:10:32.919175 17022 net.cpp:408] conv3-dsn6 -> conv3-dsn6
I1125 10:10:32.935376 17022 net.cpp:150] Setting up conv3-dsn6
I1125 10:10:32.935389 17022 net.cpp:157] Top shape: 1 256 17 17 (73984)
I1125 10:10:32.935406 17022 net.cpp:165] Memory required for data: 910968000
I1125 10:10:32.935412 17022 layer_factory.hpp:77] Creating layer relu2-dsn6
I1125 10:10:32.935417 17022 net.cpp:100] Creating Layer relu2-dsn6
I1125 10:10:32.935420 17022 net.cpp:434] relu2-dsn6 <- conv3-dsn6
I1125 10:10:32.935423 17022 net.cpp:395] relu2-dsn6 -> conv3-dsn6 (in-place)
I1125 10:10:32.935590 17022 net.cpp:150] Setting up relu2-dsn6
I1125 10:10:32.935598 17022 net.cpp:157] Top shape: 1 256 17 17 (73984)
I1125 10:10:32.935600 17022 net.cpp:165] Memory required for data: 911263936
I1125 10:10:32.935602 17022 layer_factory.hpp:77] Creating layer conv4-dsn6
I1125 10:10:32.935611 17022 net.cpp:100] Creating Layer conv4-dsn6
I1125 10:10:32.935613 17022 net.cpp:434] conv4-dsn6 <- conv3-dsn6
I1125 10:10:32.935619 17022 net.cpp:408] conv4-dsn6 -> conv4-dsn6
I1125 10:10:32.951537 17022 net.cpp:150] Setting up conv4-dsn6
I1125 10:10:32.951550 17022 net.cpp:157] Top shape: 1 256 17 17 (73984)
I1125 10:10:32.951553 17022 net.cpp:165] Memory required for data: 911559872
I1125 10:10:32.951565 17022 layer_factory.hpp:77] Creating layer relu3-dsn6
I1125 10:10:32.951570 17022 net.cpp:100] Creating Layer relu3-dsn6
I1125 10:10:32.951572 17022 net.cpp:434] relu3-dsn6 <- conv4-dsn6
I1125 10:10:32.951578 17022 net.cpp:395] relu3-dsn6 -> conv4-dsn6 (in-place)
I1125 10:10:32.951728 17022 net.cpp:150] Setting up relu3-dsn6
I1125 10:10:32.951735 17022 net.cpp:157] Top shape: 1 256 17 17 (73984)
I1125 10:10:32.951737 17022 net.cpp:165] Memory required for data: 911855808
I1125 10:10:32.951740 17022 layer_factory.hpp:77] Creating layer conv5-dsn6
I1125 10:10:32.951748 17022 net.cpp:100] Creating Layer conv5-dsn6
I1125 10:10:32.951751 17022 net.cpp:434] conv5-dsn6 <- conv4-dsn6
I1125 10:10:32.951756 17022 net.cpp:408] conv5-dsn6 -> conv5-dsn6
I1125 10:10:32.952693 17022 net.cpp:150] Setting up conv5-dsn6
I1125 10:10:32.952703 17022 net.cpp:157] Top shape: 1 1 17 17 (289)
I1125 10:10:32.952706 17022 net.cpp:165] Memory required for data: 911856964
I1125 10:10:32.952710 17022 layer_factory.hpp:77] Creating layer conv5-dsn6_conv5-dsn6_0_split
I1125 10:10:32.952715 17022 net.cpp:100] Creating Layer conv5-dsn6_conv5-dsn6_0_split
I1125 10:10:32.952718 17022 net.cpp:434] conv5-dsn6_conv5-dsn6_0_split <- conv5-dsn6
I1125 10:10:32.952724 17022 net.cpp:408] conv5-dsn6_conv5-dsn6_0_split -> conv5-dsn6_conv5-dsn6_0_split_0
I1125 10:10:32.952730 17022 net.cpp:408] conv5-dsn6_conv5-dsn6_0_split -> conv5-dsn6_conv5-dsn6_0_split_1
I1125 10:10:32.952766 17022 net.cpp:150] Setting up conv5-dsn6_conv5-dsn6_0_split
I1125 10:10:32.952770 17022 net.cpp:157] Top shape: 1 1 17 17 (289)
I1125 10:10:32.952772 17022 net.cpp:157] Top shape: 1 1 17 17 (289)
I1125 10:10:32.952774 17022 net.cpp:165] Memory required for data: 911859276
I1125 10:10:32.952776 17022 layer_factory.hpp:77] Creating layer upsample32_dsn6
I1125 10:10:32.952783 17022 net.cpp:100] Creating Layer upsample32_dsn6
I1125 10:10:32.952785 17022 net.cpp:434] upsample32_dsn6 <- conv5-dsn6_conv5-dsn6_0_split_0
I1125 10:10:32.952791 17022 net.cpp:408] upsample32_dsn6 -> conv5-dsn6-up
I1125 10:10:32.953255 17022 net.cpp:150] Setting up upsample32_dsn6
I1125 10:10:32.953261 17022 net.cpp:157] Top shape: 1 1 576 576 (331776)
I1125 10:10:32.953263 17022 net.cpp:165] Memory required for data: 913186380
I1125 10:10:32.953269 17022 layer_factory.hpp:77] Creating layer crop-dsn6
I1125 10:10:32.953272 17022 net.cpp:100] Creating Layer crop-dsn6
I1125 10:10:32.953275 17022 net.cpp:434] crop-dsn6 <- conv5-dsn6-up
I1125 10:10:32.953279 17022 net.cpp:434] crop-dsn6 <- data_augmentation_0_split_1
I1125 10:10:32.953284 17022 net.cpp:408] crop-dsn6 -> upscore-dsn6
I1125 10:10:32.953307 17022 net.cpp:150] Setting up crop-dsn6
I1125 10:10:32.953313 17022 net.cpp:157] Top shape: 1 1 500 500 (250000)
I1125 10:10:32.953315 17022 net.cpp:165] Memory required for data: 914186380
I1125 10:10:32.953316 17022 layer_factory.hpp:77] Creating layer loss6-score
I1125 10:10:32.953325 17022 net.cpp:100] Creating Layer loss6-score
I1125 10:10:32.953326 17022 net.cpp:434] loss6-score <- upscore-dsn6
I1125 10:10:32.953330 17022 net.cpp:434] loss6-score <- label_augmentation_1_split_0
I1125 10:10:32.953333 17022 net.cpp:408] loss6-score -> loss6-score
I1125 10:10:32.954506 17022 net.cpp:150] Setting up loss6-score
I1125 10:10:32.954516 17022 net.cpp:157] Top shape: (1)
I1125 10:10:32.954519 17022 net.cpp:160]     with loss weight 1
I1125 10:10:32.954529 17022 net.cpp:165] Memory required for data: 914186384
I1125 10:10:32.954531 17022 layer_factory.hpp:77] Creating layer upsample2_dsn5
I1125 10:10:32.954540 17022 net.cpp:100] Creating Layer upsample2_dsn5
I1125 10:10:32.954542 17022 net.cpp:434] upsample2_dsn5 <- conv5-dsn6_conv5-dsn6_0_split_1
I1125 10:10:32.954547 17022 net.cpp:408] upsample2_dsn5 -> conv5-dsn6-5
I1125 10:10:32.954748 17022 net.cpp:150] Setting up upsample2_dsn5
I1125 10:10:32.954756 17022 net.cpp:157] Top shape: 1 1 36 36 (1296)
I1125 10:10:32.954758 17022 net.cpp:165] Memory required for data: 914191568
I1125 10:10:32.954763 17022 layer_factory.hpp:77] Creating layer crop1-dsn5
I1125 10:10:32.954766 17022 net.cpp:100] Creating Layer crop1-dsn5
I1125 10:10:32.954769 17022 net.cpp:434] crop1-dsn5 <- conv5-dsn6-5
I1125 10:10:32.954772 17022 net.cpp:434] crop1-dsn5 <- conv5_3_relu5_3_0_split_1
I1125 10:10:32.954775 17022 net.cpp:408] crop1-dsn5 -> weight-dsn6-5
I1125 10:10:32.954797 17022 net.cpp:150] Setting up crop1-dsn5
I1125 10:10:32.954800 17022 net.cpp:157] Top shape: 1 1 32 32 (1024)
I1125 10:10:32.954802 17022 net.cpp:165] Memory required for data: 914195664
I1125 10:10:32.954804 17022 layer_factory.hpp:77] Creating layer weight-dsn6-5_crop1-dsn5_0_split
I1125 10:10:32.954810 17022 net.cpp:100] Creating Layer weight-dsn6-5_crop1-dsn5_0_split
I1125 10:10:32.954813 17022 net.cpp:434] weight-dsn6-5_crop1-dsn5_0_split <- weight-dsn6-5
I1125 10:10:32.954816 17022 net.cpp:408] weight-dsn6-5_crop1-dsn5_0_split -> weight-dsn6-5_crop1-dsn5_0_split_0
I1125 10:10:32.954820 17022 net.cpp:408] weight-dsn6-5_crop1-dsn5_0_split -> weight-dsn6-5_crop1-dsn5_0_split_1
I1125 10:10:32.954849 17022 net.cpp:150] Setting up weight-dsn6-5_crop1-dsn5_0_split
I1125 10:10:32.954854 17022 net.cpp:157] Top shape: 1 1 32 32 (1024)
I1125 10:10:32.954855 17022 net.cpp:157] Top shape: 1 1 32 32 (1024)
I1125 10:10:32.954857 17022 net.cpp:165] Memory required for data: 914203856
I1125 10:10:32.954860 17022 layer_factory.hpp:77] Creating layer sigmoid-dsn5
I1125 10:10:32.954864 17022 net.cpp:100] Creating Layer sigmoid-dsn5
I1125 10:10:32.954866 17022 net.cpp:434] sigmoid-dsn5 <- weight-dsn6-5_crop1-dsn5_0_split_0
I1125 10:10:32.954870 17022 net.cpp:408] sigmoid-dsn5 -> sigmoid-dsn5
I1125 10:10:32.955039 17022 net.cpp:150] Setting up sigmoid-dsn5
I1125 10:10:32.955045 17022 net.cpp:157] Top shape: 1 1 32 32 (1024)
I1125 10:10:32.955047 17022 net.cpp:165] Memory required for data: 914207952
I1125 10:10:32.955049 17022 layer_factory.hpp:77] Creating layer rev-dsn5
I1125 10:10:32.955055 17022 net.cpp:100] Creating Layer rev-dsn5
I1125 10:10:32.955057 17022 net.cpp:434] rev-dsn5 <- sigmoid-dsn5
I1125 10:10:32.955062 17022 net.cpp:408] rev-dsn5 -> rev-dsn5
I1125 10:10:32.955098 17022 net.cpp:150] Setting up rev-dsn5
I1125 10:10:32.955103 17022 net.cpp:157] Top shape: 1 1 32 32 (1024)
I1125 10:10:32.955106 17022 net.cpp:165] Memory required for data: 914212048
I1125 10:10:32.955107 17022 layer_factory.hpp:77] Creating layer tile-dsn5
I1125 10:10:32.955112 17022 net.cpp:100] Creating Layer tile-dsn5
I1125 10:10:32.955116 17022 net.cpp:434] tile-dsn5 <- rev-dsn5
I1125 10:10:32.955118 17022 net.cpp:408] tile-dsn5 -> weight-dsn5
I1125 10:10:32.955161 17022 net.cpp:150] Setting up tile-dsn5
I1125 10:10:32.955165 17022 net.cpp:157] Top shape: 1 512 32 32 (524288)
I1125 10:10:32.955168 17022 net.cpp:165] Memory required for data: 916309200
I1125 10:10:32.955170 17022 layer_factory.hpp:77] Creating layer prod1-dsn5
I1125 10:10:32.955178 17022 net.cpp:100] Creating Layer prod1-dsn5
I1125 10:10:32.955179 17022 net.cpp:434] prod1-dsn5 <- conv5_3_relu5_3_0_split_2
I1125 10:10:32.955183 17022 net.cpp:434] prod1-dsn5 <- weight-dsn5
I1125 10:10:32.955186 17022 net.cpp:408] prod1-dsn5 -> prod1-dsn5
I1125 10:10:32.955209 17022 net.cpp:150] Setting up prod1-dsn5
I1125 10:10:32.955214 17022 net.cpp:157] Top shape: 1 512 32 32 (524288)
I1125 10:10:32.955216 17022 net.cpp:165] Memory required for data: 918406352
I1125 10:10:32.955219 17022 layer_factory.hpp:77] Creating layer conv1-dsn5
I1125 10:10:32.955225 17022 net.cpp:100] Creating Layer conv1-dsn5
I1125 10:10:32.955229 17022 net.cpp:434] conv1-dsn5 <- prod1-dsn5
I1125 10:10:32.955235 17022 net.cpp:408] conv1-dsn5 -> conv1-dsn5
I1125 10:10:32.956462 17022 net.cpp:150] Setting up conv1-dsn5
I1125 10:10:32.956473 17022 net.cpp:157] Top shape: 1 64 32 32 (65536)
I1125 10:10:32.956475 17022 net.cpp:165] Memory required for data: 918668496
I1125 10:10:32.956480 17022 layer_factory.hpp:77] Creating layer conv2-dsn5
I1125 10:10:32.956490 17022 net.cpp:100] Creating Layer conv2-dsn5
I1125 10:10:32.956492 17022 net.cpp:434] conv2-dsn5 <- conv1-dsn5
I1125 10:10:32.956498 17022 net.cpp:408] conv2-dsn5 -> conv2-dsn5
I1125 10:10:32.957736 17022 net.cpp:150] Setting up conv2-dsn5
I1125 10:10:32.957746 17022 net.cpp:157] Top shape: 1 64 32 32 (65536)
I1125 10:10:32.957748 17022 net.cpp:165] Memory required for data: 918930640
I1125 10:10:32.957752 17022 layer_factory.hpp:77] Creating layer relu1-dsn5
I1125 10:10:32.957757 17022 net.cpp:100] Creating Layer relu1-dsn5
I1125 10:10:32.957760 17022 net.cpp:434] relu1-dsn5 <- conv2-dsn5
I1125 10:10:32.957765 17022 net.cpp:395] relu1-dsn5 -> conv2-dsn5 (in-place)
I1125 10:10:32.958178 17022 net.cpp:150] Setting up relu1-dsn5
I1125 10:10:32.958189 17022 net.cpp:157] Top shape: 1 64 32 32 (65536)
I1125 10:10:32.958191 17022 net.cpp:165] Memory required for data: 919192784
I1125 10:10:32.958194 17022 layer_factory.hpp:77] Creating layer conv3-dsn5
I1125 10:10:32.958202 17022 net.cpp:100] Creating Layer conv3-dsn5
I1125 10:10:32.958205 17022 net.cpp:434] conv3-dsn5 <- conv2-dsn5
I1125 10:10:32.958210 17022 net.cpp:408] conv3-dsn5 -> conv3-dsn5
I1125 10:10:32.959173 17022 net.cpp:150] Setting up conv3-dsn5
I1125 10:10:32.959182 17022 net.cpp:157] Top shape: 1 64 32 32 (65536)
I1125 10:10:32.959198 17022 net.cpp:165] Memory required for data: 919454928
I1125 10:10:32.959203 17022 layer_factory.hpp:77] Creating layer relu2-dsn5
I1125 10:10:32.959209 17022 net.cpp:100] Creating Layer relu2-dsn5
I1125 10:10:32.959213 17022 net.cpp:434] relu2-dsn5 <- conv3-dsn5
I1125 10:10:32.959216 17022 net.cpp:395] relu2-dsn5 -> conv3-dsn5 (in-place)
I1125 10:10:32.959650 17022 net.cpp:150] Setting up relu2-dsn5
I1125 10:10:32.959659 17022 net.cpp:157] Top shape: 1 64 32 32 (65536)
I1125 10:10:32.959661 17022 net.cpp:165] Memory required for data: 919717072
I1125 10:10:32.959663 17022 layer_factory.hpp:77] Creating layer conv4-dsn5
I1125 10:10:32.959683 17022 net.cpp:100] Creating Layer conv4-dsn5
I1125 10:10:32.959686 17022 net.cpp:434] conv4-dsn5 <- conv3-dsn5
I1125 10:10:32.959692 17022 net.cpp:408] conv4-dsn5 -> conv4-dsn5
I1125 10:10:32.960641 17022 net.cpp:150] Setting up conv4-dsn5
I1125 10:10:32.960652 17022 net.cpp:157] Top shape: 1 1 32 32 (1024)
I1125 10:10:32.960654 17022 net.cpp:165] Memory required for data: 919721168
I1125 10:10:32.960659 17022 layer_factory.hpp:77] Creating layer sum-dsn5
I1125 10:10:32.960665 17022 net.cpp:100] Creating Layer sum-dsn5
I1125 10:10:32.960667 17022 net.cpp:434] sum-dsn5 <- conv4-dsn5
I1125 10:10:32.960671 17022 net.cpp:434] sum-dsn5 <- weight-dsn6-5_crop1-dsn5_0_split_1
I1125 10:10:32.960676 17022 net.cpp:408] sum-dsn5 -> sum-dsn5
I1125 10:10:32.960700 17022 net.cpp:150] Setting up sum-dsn5
I1125 10:10:32.960703 17022 net.cpp:157] Top shape: 1 1 32 32 (1024)
I1125 10:10:32.960705 17022 net.cpp:165] Memory required for data: 919725264
I1125 10:10:32.960706 17022 layer_factory.hpp:77] Creating layer sum-dsn5_sum-dsn5_0_split
I1125 10:10:32.960713 17022 net.cpp:100] Creating Layer sum-dsn5_sum-dsn5_0_split
I1125 10:10:32.960716 17022 net.cpp:434] sum-dsn5_sum-dsn5_0_split <- sum-dsn5
I1125 10:10:32.960718 17022 net.cpp:408] sum-dsn5_sum-dsn5_0_split -> sum-dsn5_sum-dsn5_0_split_0
I1125 10:10:32.960724 17022 net.cpp:408] sum-dsn5_sum-dsn5_0_split -> sum-dsn5_sum-dsn5_0_split_1
I1125 10:10:32.960754 17022 net.cpp:150] Setting up sum-dsn5_sum-dsn5_0_split
I1125 10:10:32.960762 17022 net.cpp:157] Top shape: 1 1 32 32 (1024)
I1125 10:10:32.960764 17022 net.cpp:157] Top shape: 1 1 32 32 (1024)
I1125 10:10:32.960767 17022 net.cpp:165] Memory required for data: 919733456
I1125 10:10:32.960768 17022 layer_factory.hpp:77] Creating layer upsample16_dsn5
I1125 10:10:32.960774 17022 net.cpp:100] Creating Layer upsample16_dsn5
I1125 10:10:32.960777 17022 net.cpp:434] upsample16_dsn5 <- sum-dsn5_sum-dsn5_0_split_0
I1125 10:10:32.960783 17022 net.cpp:408] upsample16_dsn5 -> sum-dsn5-up
I1125 10:10:32.962119 17022 net.cpp:150] Setting up upsample16_dsn5
I1125 10:10:32.962133 17022 net.cpp:157] Top shape: 1 1 528 528 (278784)
I1125 10:10:32.962136 17022 net.cpp:165] Memory required for data: 920848592
I1125 10:10:32.962141 17022 layer_factory.hpp:77] Creating layer crop2-dsn5
I1125 10:10:32.962146 17022 net.cpp:100] Creating Layer crop2-dsn5
I1125 10:10:32.962148 17022 net.cpp:434] crop2-dsn5 <- sum-dsn5-up
I1125 10:10:32.962152 17022 net.cpp:434] crop2-dsn5 <- data_augmentation_0_split_2
I1125 10:10:32.962157 17022 net.cpp:408] crop2-dsn5 -> upscore-dsn5
I1125 10:10:32.962184 17022 net.cpp:150] Setting up crop2-dsn5
I1125 10:10:32.962188 17022 net.cpp:157] Top shape: 1 1 500 500 (250000)
I1125 10:10:32.962190 17022 net.cpp:165] Memory required for data: 921848592
I1125 10:10:32.962193 17022 layer_factory.hpp:77] Creating layer loss5-score
I1125 10:10:32.962198 17022 net.cpp:100] Creating Layer loss5-score
I1125 10:10:32.962201 17022 net.cpp:434] loss5-score <- upscore-dsn5
I1125 10:10:32.962204 17022 net.cpp:434] loss5-score <- label_augmentation_1_split_1
I1125 10:10:32.962208 17022 net.cpp:408] loss5-score -> loss5-score
I1125 10:10:32.962381 17022 net.cpp:150] Setting up loss5-score
I1125 10:10:32.962388 17022 net.cpp:157] Top shape: (1)
I1125 10:10:32.962389 17022 net.cpp:160]     with loss weight 1
I1125 10:10:32.962393 17022 net.cpp:165] Memory required for data: 921848596
I1125 10:10:32.962396 17022 layer_factory.hpp:77] Creating layer upsample2_dsn4
I1125 10:10:32.962404 17022 net.cpp:100] Creating Layer upsample2_dsn4
I1125 10:10:32.962406 17022 net.cpp:434] upsample2_dsn4 <- sum-dsn5_sum-dsn5_0_split_1
I1125 10:10:32.962409 17022 net.cpp:408] upsample2_dsn4 -> sum-dsn5-4
I1125 10:10:32.962623 17022 net.cpp:150] Setting up upsample2_dsn4
I1125 10:10:32.962630 17022 net.cpp:157] Top shape: 1 1 66 66 (4356)
I1125 10:10:32.962631 17022 net.cpp:165] Memory required for data: 921866020
I1125 10:10:32.962635 17022 layer_factory.hpp:77] Creating layer crop1-dsn4
I1125 10:10:32.962640 17022 net.cpp:100] Creating Layer crop1-dsn4
I1125 10:10:32.962642 17022 net.cpp:434] crop1-dsn4 <- sum-dsn5-4
I1125 10:10:32.962646 17022 net.cpp:434] crop1-dsn4 <- conv4_3_relu4_3_0_split_1
I1125 10:10:32.962651 17022 net.cpp:408] crop1-dsn4 -> weight-dsn5-4
I1125 10:10:32.962675 17022 net.cpp:150] Setting up crop1-dsn4
I1125 10:10:32.962678 17022 net.cpp:157] Top shape: 1 1 63 63 (3969)
I1125 10:10:32.962680 17022 net.cpp:165] Memory required for data: 921881896
I1125 10:10:32.962682 17022 layer_factory.hpp:77] Creating layer weight-dsn5-4_crop1-dsn4_0_split
I1125 10:10:32.962687 17022 net.cpp:100] Creating Layer weight-dsn5-4_crop1-dsn4_0_split
I1125 10:10:32.962688 17022 net.cpp:434] weight-dsn5-4_crop1-dsn4_0_split <- weight-dsn5-4
I1125 10:10:32.962693 17022 net.cpp:408] weight-dsn5-4_crop1-dsn4_0_split -> weight-dsn5-4_crop1-dsn4_0_split_0
I1125 10:10:32.962697 17022 net.cpp:408] weight-dsn5-4_crop1-dsn4_0_split -> weight-dsn5-4_crop1-dsn4_0_split_1
I1125 10:10:32.962726 17022 net.cpp:150] Setting up weight-dsn5-4_crop1-dsn4_0_split
I1125 10:10:32.962731 17022 net.cpp:157] Top shape: 1 1 63 63 (3969)
I1125 10:10:32.962733 17022 net.cpp:157] Top shape: 1 1 63 63 (3969)
I1125 10:10:32.962736 17022 net.cpp:165] Memory required for data: 921913648
I1125 10:10:32.962738 17022 layer_factory.hpp:77] Creating layer sigmoid-dsn4
I1125 10:10:32.962743 17022 net.cpp:100] Creating Layer sigmoid-dsn4
I1125 10:10:32.962745 17022 net.cpp:434] sigmoid-dsn4 <- weight-dsn5-4_crop1-dsn4_0_split_0
I1125 10:10:32.962749 17022 net.cpp:408] sigmoid-dsn4 -> sigmoid-dsn4
I1125 10:10:32.962915 17022 net.cpp:150] Setting up sigmoid-dsn4
I1125 10:10:32.962924 17022 net.cpp:157] Top shape: 1 1 63 63 (3969)
I1125 10:10:32.962926 17022 net.cpp:165] Memory required for data: 921929524
I1125 10:10:32.962929 17022 layer_factory.hpp:77] Creating layer rev-dsn4
I1125 10:10:32.962932 17022 net.cpp:100] Creating Layer rev-dsn4
I1125 10:10:32.962935 17022 net.cpp:434] rev-dsn4 <- sigmoid-dsn4
I1125 10:10:32.962939 17022 net.cpp:408] rev-dsn4 -> rev-dsn4
I1125 10:10:32.962960 17022 net.cpp:150] Setting up rev-dsn4
I1125 10:10:32.962963 17022 net.cpp:157] Top shape: 1 1 63 63 (3969)
I1125 10:10:32.962965 17022 net.cpp:165] Memory required for data: 921945400
I1125 10:10:32.962967 17022 layer_factory.hpp:77] Creating layer tile-dsn4
I1125 10:10:32.962971 17022 net.cpp:100] Creating Layer tile-dsn4
I1125 10:10:32.962975 17022 net.cpp:434] tile-dsn4 <- rev-dsn4
I1125 10:10:32.962980 17022 net.cpp:408] tile-dsn4 -> weight-dsn4
I1125 10:10:32.962997 17022 net.cpp:150] Setting up tile-dsn4
I1125 10:10:32.963001 17022 net.cpp:157] Top shape: 1 512 63 63 (2032128)
I1125 10:10:32.963003 17022 net.cpp:165] Memory required for data: 930073912
I1125 10:10:32.963006 17022 layer_factory.hpp:77] Creating layer prod1-dsn4
I1125 10:10:32.963008 17022 net.cpp:100] Creating Layer prod1-dsn4
I1125 10:10:32.963011 17022 net.cpp:434] prod1-dsn4 <- conv4_3_relu4_3_0_split_2
I1125 10:10:32.963014 17022 net.cpp:434] prod1-dsn4 <- weight-dsn4
I1125 10:10:32.963019 17022 net.cpp:408] prod1-dsn4 -> prod1-dsn4
I1125 10:10:32.963038 17022 net.cpp:150] Setting up prod1-dsn4
I1125 10:10:32.963042 17022 net.cpp:157] Top shape: 1 512 63 63 (2032128)
I1125 10:10:32.963043 17022 net.cpp:165] Memory required for data: 938202424
I1125 10:10:32.963045 17022 layer_factory.hpp:77] Creating layer conv1-dsn4
I1125 10:10:32.963053 17022 net.cpp:100] Creating Layer conv1-dsn4
I1125 10:10:32.963055 17022 net.cpp:434] conv1-dsn4 <- prod1-dsn4
I1125 10:10:32.963061 17022 net.cpp:408] conv1-dsn4 -> conv1-dsn4
I1125 10:10:32.964295 17022 net.cpp:150] Setting up conv1-dsn4
I1125 10:10:32.964305 17022 net.cpp:157] Top shape: 1 64 63 63 (254016)
I1125 10:10:32.964323 17022 net.cpp:165] Memory required for data: 939218488
I1125 10:10:32.964329 17022 layer_factory.hpp:77] Creating layer conv2-dsn4
I1125 10:10:32.964337 17022 net.cpp:100] Creating Layer conv2-dsn4
I1125 10:10:32.964340 17022 net.cpp:434] conv2-dsn4 <- conv1-dsn4
I1125 10:10:32.964347 17022 net.cpp:408] conv2-dsn4 -> conv2-dsn4
I1125 10:10:32.965883 17022 net.cpp:150] Setting up conv2-dsn4
I1125 10:10:32.965893 17022 net.cpp:157] Top shape: 1 64 63 63 (254016)
I1125 10:10:32.965895 17022 net.cpp:165] Memory required for data: 940234552
I1125 10:10:32.965900 17022 layer_factory.hpp:77] Creating layer relu1-dsn4
I1125 10:10:32.965904 17022 net.cpp:100] Creating Layer relu1-dsn4
I1125 10:10:32.965907 17022 net.cpp:434] relu1-dsn4 <- conv2-dsn4
I1125 10:10:32.965912 17022 net.cpp:395] relu1-dsn4 -> conv2-dsn4 (in-place)
I1125 10:10:32.966071 17022 net.cpp:150] Setting up relu1-dsn4
I1125 10:10:32.966078 17022 net.cpp:157] Top shape: 1 64 63 63 (254016)
I1125 10:10:32.966080 17022 net.cpp:165] Memory required for data: 941250616
I1125 10:10:32.966082 17022 layer_factory.hpp:77] Creating layer conv3-dsn4
I1125 10:10:32.966090 17022 net.cpp:100] Creating Layer conv3-dsn4
I1125 10:10:32.966094 17022 net.cpp:434] conv3-dsn4 <- conv2-dsn4
I1125 10:10:32.966099 17022 net.cpp:408] conv3-dsn4 -> conv3-dsn4
I1125 10:10:32.967388 17022 net.cpp:150] Setting up conv3-dsn4
I1125 10:10:32.967401 17022 net.cpp:157] Top shape: 1 64 63 63 (254016)
I1125 10:10:32.967403 17022 net.cpp:165] Memory required for data: 942266680
I1125 10:10:32.967407 17022 layer_factory.hpp:77] Creating layer relu2-dsn4
I1125 10:10:32.967412 17022 net.cpp:100] Creating Layer relu2-dsn4
I1125 10:10:32.967414 17022 net.cpp:434] relu2-dsn4 <- conv3-dsn4
I1125 10:10:32.967420 17022 net.cpp:395] relu2-dsn4 -> conv3-dsn4 (in-place)
I1125 10:10:32.967566 17022 net.cpp:150] Setting up relu2-dsn4
I1125 10:10:32.967574 17022 net.cpp:157] Top shape: 1 64 63 63 (254016)
I1125 10:10:32.967576 17022 net.cpp:165] Memory required for data: 943282744
I1125 10:10:32.967578 17022 layer_factory.hpp:77] Creating layer conv4-dsn4
I1125 10:10:32.967586 17022 net.cpp:100] Creating Layer conv4-dsn4
I1125 10:10:32.967589 17022 net.cpp:434] conv4-dsn4 <- conv3-dsn4
I1125 10:10:32.967593 17022 net.cpp:408] conv4-dsn4 -> conv4-dsn4
I1125 10:10:32.968554 17022 net.cpp:150] Setting up conv4-dsn4
I1125 10:10:32.968564 17022 net.cpp:157] Top shape: 1 1 63 63 (3969)
I1125 10:10:32.968566 17022 net.cpp:165] Memory required for data: 943298620
I1125 10:10:32.968571 17022 layer_factory.hpp:77] Creating layer sum-dsn4
I1125 10:10:32.968578 17022 net.cpp:100] Creating Layer sum-dsn4
I1125 10:10:32.968580 17022 net.cpp:434] sum-dsn4 <- conv4-dsn4
I1125 10:10:32.968585 17022 net.cpp:434] sum-dsn4 <- weight-dsn5-4_crop1-dsn4_0_split_1
I1125 10:10:32.968590 17022 net.cpp:408] sum-dsn4 -> sum-dsn4
I1125 10:10:32.968613 17022 net.cpp:150] Setting up sum-dsn4
I1125 10:10:32.968617 17022 net.cpp:157] Top shape: 1 1 63 63 (3969)
I1125 10:10:32.968619 17022 net.cpp:165] Memory required for data: 943314496
I1125 10:10:32.968621 17022 layer_factory.hpp:77] Creating layer sum-dsn4_sum-dsn4_0_split
I1125 10:10:32.968627 17022 net.cpp:100] Creating Layer sum-dsn4_sum-dsn4_0_split
I1125 10:10:32.968629 17022 net.cpp:434] sum-dsn4_sum-dsn4_0_split <- sum-dsn4
I1125 10:10:32.968632 17022 net.cpp:408] sum-dsn4_sum-dsn4_0_split -> sum-dsn4_sum-dsn4_0_split_0
I1125 10:10:32.968639 17022 net.cpp:408] sum-dsn4_sum-dsn4_0_split -> sum-dsn4_sum-dsn4_0_split_1
I1125 10:10:32.968669 17022 net.cpp:150] Setting up sum-dsn4_sum-dsn4_0_split
I1125 10:10:32.968677 17022 net.cpp:157] Top shape: 1 1 63 63 (3969)
I1125 10:10:32.968678 17022 net.cpp:157] Top shape: 1 1 63 63 (3969)
I1125 10:10:32.968680 17022 net.cpp:165] Memory required for data: 943346248
I1125 10:10:32.968683 17022 layer_factory.hpp:77] Creating layer upsample8_dsn4
I1125 10:10:32.968689 17022 net.cpp:100] Creating Layer upsample8_dsn4
I1125 10:10:32.968691 17022 net.cpp:434] upsample8_dsn4 <- sum-dsn4_sum-dsn4_0_split_0
I1125 10:10:32.968696 17022 net.cpp:408] upsample8_dsn4 -> sum-dsn4-up
I1125 10:10:32.970022 17022 net.cpp:150] Setting up upsample8_dsn4
I1125 10:10:32.970032 17022 net.cpp:157] Top shape: 1 1 512 512 (262144)
I1125 10:10:32.970034 17022 net.cpp:165] Memory required for data: 944394824
I1125 10:10:32.970039 17022 layer_factory.hpp:77] Creating layer crop2-dsn4
I1125 10:10:32.970044 17022 net.cpp:100] Creating Layer crop2-dsn4
I1125 10:10:32.970046 17022 net.cpp:434] crop2-dsn4 <- sum-dsn4-up
I1125 10:10:32.970050 17022 net.cpp:434] crop2-dsn4 <- data_augmentation_0_split_3
I1125 10:10:32.970055 17022 net.cpp:408] crop2-dsn4 -> upscore-dsn4
I1125 10:10:32.970084 17022 net.cpp:150] Setting up crop2-dsn4
I1125 10:10:32.970088 17022 net.cpp:157] Top shape: 1 1 500 500 (250000)
I1125 10:10:32.970089 17022 net.cpp:165] Memory required for data: 945394824
I1125 10:10:32.970091 17022 layer_factory.hpp:77] Creating layer loss4-score
I1125 10:10:32.970103 17022 net.cpp:100] Creating Layer loss4-score
I1125 10:10:32.970104 17022 net.cpp:434] loss4-score <- upscore-dsn4
I1125 10:10:32.970108 17022 net.cpp:434] loss4-score <- label_augmentation_1_split_2
I1125 10:10:32.970110 17022 net.cpp:408] loss4-score -> loss4-score
I1125 10:10:32.970314 17022 net.cpp:150] Setting up loss4-score
I1125 10:10:32.970320 17022 net.cpp:157] Top shape: (1)
I1125 10:10:32.970322 17022 net.cpp:160]     with loss weight 1
I1125 10:10:32.970327 17022 net.cpp:165] Memory required for data: 945394828
I1125 10:10:32.970329 17022 layer_factory.hpp:77] Creating layer upsample2_dsn3
I1125 10:10:32.970336 17022 net.cpp:100] Creating Layer upsample2_dsn3
I1125 10:10:32.970340 17022 net.cpp:434] upsample2_dsn3 <- sum-dsn4_sum-dsn4_0_split_1
I1125 10:10:32.970345 17022 net.cpp:408] upsample2_dsn3 -> sum-dsn4-3
I1125 10:10:32.970587 17022 net.cpp:150] Setting up upsample2_dsn3
I1125 10:10:32.970592 17022 net.cpp:157] Top shape: 1 1 128 128 (16384)
I1125 10:10:32.970594 17022 net.cpp:165] Memory required for data: 945460364
I1125 10:10:32.970598 17022 layer_factory.hpp:77] Creating layer crop1-dsn3
I1125 10:10:32.970602 17022 net.cpp:100] Creating Layer crop1-dsn3
I1125 10:10:32.970605 17022 net.cpp:434] crop1-dsn3 <- sum-dsn4-3
I1125 10:10:32.970608 17022 net.cpp:434] crop1-dsn3 <- conv3_3_relu3_3_0_split_1
I1125 10:10:32.970613 17022 net.cpp:408] crop1-dsn3 -> weight-dsn4-3
I1125 10:10:32.970636 17022 net.cpp:150] Setting up crop1-dsn3
I1125 10:10:32.970639 17022 net.cpp:157] Top shape: 1 1 125 125 (15625)
I1125 10:10:32.970641 17022 net.cpp:165] Memory required for data: 945522864
I1125 10:10:32.970643 17022 layer_factory.hpp:77] Creating layer weight-dsn4-3_crop1-dsn3_0_split
I1125 10:10:32.970649 17022 net.cpp:100] Creating Layer weight-dsn4-3_crop1-dsn3_0_split
I1125 10:10:32.970651 17022 net.cpp:434] weight-dsn4-3_crop1-dsn3_0_split <- weight-dsn4-3
I1125 10:10:32.970654 17022 net.cpp:408] weight-dsn4-3_crop1-dsn3_0_split -> weight-dsn4-3_crop1-dsn3_0_split_0
I1125 10:10:32.970659 17022 net.cpp:408] weight-dsn4-3_crop1-dsn3_0_split -> weight-dsn4-3_crop1-dsn3_0_split_1
I1125 10:10:32.970690 17022 net.cpp:150] Setting up weight-dsn4-3_crop1-dsn3_0_split
I1125 10:10:32.970695 17022 net.cpp:157] Top shape: 1 1 125 125 (15625)
I1125 10:10:32.970697 17022 net.cpp:157] Top shape: 1 1 125 125 (15625)
I1125 10:10:32.970700 17022 net.cpp:165] Memory required for data: 945647864
I1125 10:10:32.970701 17022 layer_factory.hpp:77] Creating layer sigmoid-dsn3
I1125 10:10:32.970705 17022 net.cpp:100] Creating Layer sigmoid-dsn3
I1125 10:10:32.970707 17022 net.cpp:434] sigmoid-dsn3 <- weight-dsn4-3_crop1-dsn3_0_split_0
I1125 10:10:32.970711 17022 net.cpp:408] sigmoid-dsn3 -> sigmoid-dsn3
I1125 10:10:32.970885 17022 net.cpp:150] Setting up sigmoid-dsn3
I1125 10:10:32.970892 17022 net.cpp:157] Top shape: 1 1 125 125 (15625)
I1125 10:10:32.970894 17022 net.cpp:165] Memory required for data: 945710364
I1125 10:10:32.970897 17022 layer_factory.hpp:77] Creating layer rev-dsn3
I1125 10:10:32.970901 17022 net.cpp:100] Creating Layer rev-dsn3
I1125 10:10:32.970903 17022 net.cpp:434] rev-dsn3 <- sigmoid-dsn3
I1125 10:10:32.970908 17022 net.cpp:408] rev-dsn3 -> rev-dsn3
I1125 10:10:32.970930 17022 net.cpp:150] Setting up rev-dsn3
I1125 10:10:32.970933 17022 net.cpp:157] Top shape: 1 1 125 125 (15625)
I1125 10:10:32.970935 17022 net.cpp:165] Memory required for data: 945772864
I1125 10:10:32.970937 17022 layer_factory.hpp:77] Creating layer tile-dsn3
I1125 10:10:32.970942 17022 net.cpp:100] Creating Layer tile-dsn3
I1125 10:10:32.970943 17022 net.cpp:434] tile-dsn3 <- rev-dsn3
I1125 10:10:32.970948 17022 net.cpp:408] tile-dsn3 -> weight-dsn3
I1125 10:10:32.970966 17022 net.cpp:150] Setting up tile-dsn3
I1125 10:10:32.970971 17022 net.cpp:157] Top shape: 1 256 125 125 (4000000)
I1125 10:10:32.970973 17022 net.cpp:165] Memory required for data: 961772864
I1125 10:10:32.970975 17022 layer_factory.hpp:77] Creating layer prod1-dsn3
I1125 10:10:32.970979 17022 net.cpp:100] Creating Layer prod1-dsn3
I1125 10:10:32.970983 17022 net.cpp:434] prod1-dsn3 <- conv3_3_relu3_3_0_split_2
I1125 10:10:32.970985 17022 net.cpp:434] prod1-dsn3 <- weight-dsn3
I1125 10:10:32.970988 17022 net.cpp:408] prod1-dsn3 -> prod1-dsn3
I1125 10:10:32.971009 17022 net.cpp:150] Setting up prod1-dsn3
I1125 10:10:32.971011 17022 net.cpp:157] Top shape: 1 256 125 125 (4000000)
I1125 10:10:32.971014 17022 net.cpp:165] Memory required for data: 977772864
I1125 10:10:32.971015 17022 layer_factory.hpp:77] Creating layer conv1-dsn3
I1125 10:10:32.971022 17022 net.cpp:100] Creating Layer conv1-dsn3
I1125 10:10:32.971025 17022 net.cpp:434] conv1-dsn3 <- prod1-dsn3
I1125 10:10:32.971031 17022 net.cpp:408] conv1-dsn3 -> conv1-dsn3
I1125 10:10:32.972400 17022 net.cpp:150] Setting up conv1-dsn3
I1125 10:10:32.972410 17022 net.cpp:157] Top shape: 1 64 125 125 (1000000)
I1125 10:10:32.972412 17022 net.cpp:165] Memory required for data: 981772864
I1125 10:10:32.972427 17022 layer_factory.hpp:77] Creating layer conv2-dsn3
I1125 10:10:32.972436 17022 net.cpp:100] Creating Layer conv2-dsn3
I1125 10:10:32.972440 17022 net.cpp:434] conv2-dsn3 <- conv1-dsn3
I1125 10:10:32.972445 17022 net.cpp:408] conv2-dsn3 -> conv2-dsn3
I1125 10:10:32.973732 17022 net.cpp:150] Setting up conv2-dsn3
I1125 10:10:32.973744 17022 net.cpp:157] Top shape: 1 64 125 125 (1000000)
I1125 10:10:32.973747 17022 net.cpp:165] Memory required for data: 985772864
I1125 10:10:32.973752 17022 layer_factory.hpp:77] Creating layer relu1-dsn3
I1125 10:10:32.973755 17022 net.cpp:100] Creating Layer relu1-dsn3
I1125 10:10:32.973758 17022 net.cpp:434] relu1-dsn3 <- conv2-dsn3
I1125 10:10:32.973763 17022 net.cpp:395] relu1-dsn3 -> conv2-dsn3 (in-place)
I1125 10:10:32.973908 17022 net.cpp:150] Setting up relu1-dsn3
I1125 10:10:32.973917 17022 net.cpp:157] Top shape: 1 64 125 125 (1000000)
I1125 10:10:32.973919 17022 net.cpp:165] Memory required for data: 989772864
I1125 10:10:32.973922 17022 layer_factory.hpp:77] Creating layer conv3-dsn3
I1125 10:10:32.973930 17022 net.cpp:100] Creating Layer conv3-dsn3
I1125 10:10:32.973933 17022 net.cpp:434] conv3-dsn3 <- conv2-dsn3
I1125 10:10:32.973937 17022 net.cpp:408] conv3-dsn3 -> conv3-dsn3
I1125 10:10:32.975255 17022 net.cpp:150] Setting up conv3-dsn3
I1125 10:10:32.975276 17022 net.cpp:157] Top shape: 1 64 125 125 (1000000)
I1125 10:10:32.975278 17022 net.cpp:165] Memory required for data: 993772864
I1125 10:10:32.975283 17022 layer_factory.hpp:77] Creating layer relu2-dsn3
I1125 10:10:32.975288 17022 net.cpp:100] Creating Layer relu2-dsn3
I1125 10:10:32.975291 17022 net.cpp:434] relu2-dsn3 <- conv3-dsn3
I1125 10:10:32.975296 17022 net.cpp:395] relu2-dsn3 -> conv3-dsn3 (in-place)
I1125 10:10:32.975730 17022 net.cpp:150] Setting up relu2-dsn3
I1125 10:10:32.975739 17022 net.cpp:157] Top shape: 1 64 125 125 (1000000)
I1125 10:10:32.975741 17022 net.cpp:165] Memory required for data: 997772864
I1125 10:10:32.975744 17022 layer_factory.hpp:77] Creating layer conv4-dsn3
I1125 10:10:32.975754 17022 net.cpp:100] Creating Layer conv4-dsn3
I1125 10:10:32.975757 17022 net.cpp:434] conv4-dsn3 <- conv3-dsn3
I1125 10:10:32.975761 17022 net.cpp:408] conv4-dsn3 -> conv4-dsn3
I1125 10:10:32.976737 17022 net.cpp:150] Setting up conv4-dsn3
I1125 10:10:32.976747 17022 net.cpp:157] Top shape: 1 1 125 125 (15625)
I1125 10:10:32.976749 17022 net.cpp:165] Memory required for data: 997835364
I1125 10:10:32.976754 17022 layer_factory.hpp:77] Creating layer sum-dsn3
I1125 10:10:32.976759 17022 net.cpp:100] Creating Layer sum-dsn3
I1125 10:10:32.976761 17022 net.cpp:434] sum-dsn3 <- conv4-dsn3
I1125 10:10:32.976765 17022 net.cpp:434] sum-dsn3 <- weight-dsn4-3_crop1-dsn3_0_split_1
I1125 10:10:32.976770 17022 net.cpp:408] sum-dsn3 -> sum-dsn3
I1125 10:10:32.976797 17022 net.cpp:150] Setting up sum-dsn3
I1125 10:10:32.976802 17022 net.cpp:157] Top shape: 1 1 125 125 (15625)
I1125 10:10:32.976804 17022 net.cpp:165] Memory required for data: 997897864
I1125 10:10:32.976806 17022 layer_factory.hpp:77] Creating layer sum-dsn3_sum-dsn3_0_split
I1125 10:10:32.976810 17022 net.cpp:100] Creating Layer sum-dsn3_sum-dsn3_0_split
I1125 10:10:32.976814 17022 net.cpp:434] sum-dsn3_sum-dsn3_0_split <- sum-dsn3
I1125 10:10:32.976819 17022 net.cpp:408] sum-dsn3_sum-dsn3_0_split -> sum-dsn3_sum-dsn3_0_split_0
I1125 10:10:32.976822 17022 net.cpp:408] sum-dsn3_sum-dsn3_0_split -> sum-dsn3_sum-dsn3_0_split_1
I1125 10:10:32.976855 17022 net.cpp:150] Setting up sum-dsn3_sum-dsn3_0_split
I1125 10:10:32.976861 17022 net.cpp:157] Top shape: 1 1 125 125 (15625)
I1125 10:10:32.976862 17022 net.cpp:157] Top shape: 1 1 125 125 (15625)
I1125 10:10:32.976864 17022 net.cpp:165] Memory required for data: 998022864
I1125 10:10:32.976867 17022 layer_factory.hpp:77] Creating layer upsample4_dsn3
I1125 10:10:32.976873 17022 net.cpp:100] Creating Layer upsample4_dsn3
I1125 10:10:32.976876 17022 net.cpp:434] upsample4_dsn3 <- sum-dsn3_sum-dsn3_0_split_0
I1125 10:10:32.976881 17022 net.cpp:408] upsample4_dsn3 -> sum-dsn3-up
I1125 10:10:32.978214 17022 net.cpp:150] Setting up upsample4_dsn3
I1125 10:10:32.978225 17022 net.cpp:157] Top shape: 1 1 504 504 (254016)
I1125 10:10:32.978227 17022 net.cpp:165] Memory required for data: 999038928
I1125 10:10:32.978232 17022 layer_factory.hpp:77] Creating layer crop2-dsn3
I1125 10:10:32.978237 17022 net.cpp:100] Creating Layer crop2-dsn3
I1125 10:10:32.978240 17022 net.cpp:434] crop2-dsn3 <- sum-dsn3-up
I1125 10:10:32.978243 17022 net.cpp:434] crop2-dsn3 <- data_augmentation_0_split_4
I1125 10:10:32.978247 17022 net.cpp:408] crop2-dsn3 -> upscore-dsn3
I1125 10:10:32.978276 17022 net.cpp:150] Setting up crop2-dsn3
I1125 10:10:32.978281 17022 net.cpp:157] Top shape: 1 1 500 500 (250000)
I1125 10:10:32.978282 17022 net.cpp:165] Memory required for data: 1000038928
I1125 10:10:32.978284 17022 layer_factory.hpp:77] Creating layer loss3-score
I1125 10:10:32.978291 17022 net.cpp:100] Creating Layer loss3-score
I1125 10:10:32.978293 17022 net.cpp:434] loss3-score <- upscore-dsn3
I1125 10:10:32.978296 17022 net.cpp:434] loss3-score <- label_augmentation_1_split_3
I1125 10:10:32.978300 17022 net.cpp:408] loss3-score -> loss3-score
I1125 10:10:32.978474 17022 net.cpp:150] Setting up loss3-score
I1125 10:10:32.978480 17022 net.cpp:157] Top shape: (1)
I1125 10:10:32.978482 17022 net.cpp:160]     with loss weight 1
I1125 10:10:32.978487 17022 net.cpp:165] Memory required for data: 1000038932
I1125 10:10:32.978489 17022 layer_factory.hpp:77] Creating layer upsample2_1-dsn2
I1125 10:10:32.978495 17022 net.cpp:100] Creating Layer upsample2_1-dsn2
I1125 10:10:32.978498 17022 net.cpp:434] upsample2_1-dsn2 <- sum-dsn3_sum-dsn3_0_split_1
I1125 10:10:32.978503 17022 net.cpp:408] upsample2_1-dsn2 -> sum-dsn3-2
I1125 10:10:32.978772 17022 net.cpp:150] Setting up upsample2_1-dsn2
I1125 10:10:32.978780 17022 net.cpp:157] Top shape: 1 1 252 252 (63504)
I1125 10:10:32.978781 17022 net.cpp:165] Memory required for data: 1000292948
I1125 10:10:32.978785 17022 layer_factory.hpp:77] Creating layer crop1-dsn2
I1125 10:10:32.978790 17022 net.cpp:100] Creating Layer crop1-dsn2
I1125 10:10:32.978793 17022 net.cpp:434] crop1-dsn2 <- sum-dsn3-2
I1125 10:10:32.978796 17022 net.cpp:434] crop1-dsn2 <- conv2_2_relu2_2_0_split_1
I1125 10:10:32.978799 17022 net.cpp:408] crop1-dsn2 -> weight-dsn3-2
I1125 10:10:32.978824 17022 net.cpp:150] Setting up crop1-dsn2
I1125 10:10:32.978828 17022 net.cpp:157] Top shape: 1 1 250 250 (62500)
I1125 10:10:32.978830 17022 net.cpp:165] Memory required for data: 1000542948
I1125 10:10:32.978832 17022 layer_factory.hpp:77] Creating layer weight-dsn3-2_crop1-dsn2_0_split
I1125 10:10:32.978837 17022 net.cpp:100] Creating Layer weight-dsn3-2_crop1-dsn2_0_split
I1125 10:10:32.978838 17022 net.cpp:434] weight-dsn3-2_crop1-dsn2_0_split <- weight-dsn3-2
I1125 10:10:32.978843 17022 net.cpp:408] weight-dsn3-2_crop1-dsn2_0_split -> weight-dsn3-2_crop1-dsn2_0_split_0
I1125 10:10:32.978847 17022 net.cpp:408] weight-dsn3-2_crop1-dsn2_0_split -> weight-dsn3-2_crop1-dsn2_0_split_1
I1125 10:10:32.978878 17022 net.cpp:150] Setting up weight-dsn3-2_crop1-dsn2_0_split
I1125 10:10:32.978883 17022 net.cpp:157] Top shape: 1 1 250 250 (62500)
I1125 10:10:32.978885 17022 net.cpp:157] Top shape: 1 1 250 250 (62500)
I1125 10:10:32.978888 17022 net.cpp:165] Memory required for data: 1001042948
I1125 10:10:32.978890 17022 layer_factory.hpp:77] Creating layer sigmoid-dsn2
I1125 10:10:32.978894 17022 net.cpp:100] Creating Layer sigmoid-dsn2
I1125 10:10:32.978896 17022 net.cpp:434] sigmoid-dsn2 <- weight-dsn3-2_crop1-dsn2_0_split_0
I1125 10:10:32.978901 17022 net.cpp:408] sigmoid-dsn2 -> sigmoid-dsn2
I1125 10:10:32.979419 17022 net.cpp:150] Setting up sigmoid-dsn2
I1125 10:10:32.979429 17022 net.cpp:157] Top shape: 1 1 250 250 (62500)
I1125 10:10:32.979444 17022 net.cpp:165] Memory required for data: 1001292948
I1125 10:10:32.979445 17022 layer_factory.hpp:77] Creating layer rev-dsn2
I1125 10:10:32.979465 17022 net.cpp:100] Creating Layer rev-dsn2
I1125 10:10:32.979467 17022 net.cpp:434] rev-dsn2 <- sigmoid-dsn2
I1125 10:10:32.979471 17022 net.cpp:408] rev-dsn2 -> rev-dsn2
I1125 10:10:32.979494 17022 net.cpp:150] Setting up rev-dsn2
I1125 10:10:32.979498 17022 net.cpp:157] Top shape: 1 1 250 250 (62500)
I1125 10:10:32.979501 17022 net.cpp:165] Memory required for data: 1001542948
I1125 10:10:32.979502 17022 layer_factory.hpp:77] Creating layer tile-dsn2
I1125 10:10:32.979506 17022 net.cpp:100] Creating Layer tile-dsn2
I1125 10:10:32.979508 17022 net.cpp:434] tile-dsn2 <- rev-dsn2
I1125 10:10:32.979511 17022 net.cpp:408] tile-dsn2 -> weight-dsn2
I1125 10:10:32.979529 17022 net.cpp:150] Setting up tile-dsn2
I1125 10:10:32.979532 17022 net.cpp:157] Top shape: 1 128 250 250 (8000000)
I1125 10:10:32.979534 17022 net.cpp:165] Memory required for data: 1033542948
I1125 10:10:32.979537 17022 layer_factory.hpp:77] Creating layer prod1-dsn2
I1125 10:10:32.979540 17022 net.cpp:100] Creating Layer prod1-dsn2
I1125 10:10:32.979542 17022 net.cpp:434] prod1-dsn2 <- conv2_2_relu2_2_0_split_2
I1125 10:10:32.979547 17022 net.cpp:434] prod1-dsn2 <- weight-dsn2
I1125 10:10:32.979549 17022 net.cpp:408] prod1-dsn2 -> prod1-dsn2
I1125 10:10:32.979566 17022 net.cpp:150] Setting up prod1-dsn2
I1125 10:10:32.979569 17022 net.cpp:157] Top shape: 1 128 250 250 (8000000)
I1125 10:10:32.979571 17022 net.cpp:165] Memory required for data: 1065542948
I1125 10:10:32.979574 17022 layer_factory.hpp:77] Creating layer conv1-dsn2
I1125 10:10:32.979580 17022 net.cpp:100] Creating Layer conv1-dsn2
I1125 10:10:32.979583 17022 net.cpp:434] conv1-dsn2 <- prod1-dsn2
I1125 10:10:32.979588 17022 net.cpp:408] conv1-dsn2 -> conv1-dsn2
I1125 10:10:32.981659 17022 net.cpp:150] Setting up conv1-dsn2
I1125 10:10:32.981669 17022 net.cpp:157] Top shape: 1 64 250 250 (4000000)
I1125 10:10:32.981671 17022 net.cpp:165] Memory required for data: 1081542948
I1125 10:10:32.981678 17022 layer_factory.hpp:77] Creating layer conv2-dsn2
I1125 10:10:32.981685 17022 net.cpp:100] Creating Layer conv2-dsn2
I1125 10:10:32.981688 17022 net.cpp:434] conv2-dsn2 <- conv1-dsn2
I1125 10:10:32.981694 17022 net.cpp:408] conv2-dsn2 -> conv2-dsn2
I1125 10:10:32.983275 17022 net.cpp:150] Setting up conv2-dsn2
I1125 10:10:32.983285 17022 net.cpp:157] Top shape: 1 64 250 250 (4000000)
I1125 10:10:32.983287 17022 net.cpp:165] Memory required for data: 1097542948
I1125 10:10:32.983292 17022 layer_factory.hpp:77] Creating layer relu1-dsn2
I1125 10:10:32.983299 17022 net.cpp:100] Creating Layer relu1-dsn2
I1125 10:10:32.983301 17022 net.cpp:434] relu1-dsn2 <- conv2-dsn2
I1125 10:10:32.983305 17022 net.cpp:395] relu1-dsn2 -> conv2-dsn2 (in-place)
I1125 10:10:32.983708 17022 net.cpp:150] Setting up relu1-dsn2
I1125 10:10:32.983717 17022 net.cpp:157] Top shape: 1 64 250 250 (4000000)
I1125 10:10:32.983719 17022 net.cpp:165] Memory required for data: 1113542948
I1125 10:10:32.983721 17022 layer_factory.hpp:77] Creating layer conv3-dsn2
I1125 10:10:32.983731 17022 net.cpp:100] Creating Layer conv3-dsn2
I1125 10:10:32.983734 17022 net.cpp:434] conv3-dsn2 <- conv2-dsn2
I1125 10:10:32.983739 17022 net.cpp:408] conv3-dsn2 -> conv3-dsn2
I1125 10:10:32.985026 17022 net.cpp:150] Setting up conv3-dsn2
I1125 10:10:32.985036 17022 net.cpp:157] Top shape: 1 64 250 250 (4000000)
I1125 10:10:32.985039 17022 net.cpp:165] Memory required for data: 1129542948
I1125 10:10:32.985044 17022 layer_factory.hpp:77] Creating layer relu2-dsn2
I1125 10:10:32.985049 17022 net.cpp:100] Creating Layer relu2-dsn2
I1125 10:10:32.985052 17022 net.cpp:434] relu2-dsn2 <- conv3-dsn2
I1125 10:10:32.985056 17022 net.cpp:395] relu2-dsn2 -> conv3-dsn2 (in-place)
I1125 10:10:32.985234 17022 net.cpp:150] Setting up relu2-dsn2
I1125 10:10:32.985240 17022 net.cpp:157] Top shape: 1 64 250 250 (4000000)
I1125 10:10:32.985242 17022 net.cpp:165] Memory required for data: 1145542948
I1125 10:10:32.985245 17022 layer_factory.hpp:77] Creating layer conv4-dsn2
I1125 10:10:32.985253 17022 net.cpp:100] Creating Layer conv4-dsn2
I1125 10:10:32.985256 17022 net.cpp:434] conv4-dsn2 <- conv3-dsn2
I1125 10:10:32.985262 17022 net.cpp:408] conv4-dsn2 -> conv4-dsn2
I1125 10:10:32.986289 17022 net.cpp:150] Setting up conv4-dsn2
I1125 10:10:32.986299 17022 net.cpp:157] Top shape: 1 1 250 250 (62500)
I1125 10:10:32.986301 17022 net.cpp:165] Memory required for data: 1145792948
I1125 10:10:32.986306 17022 layer_factory.hpp:77] Creating layer sum-dsn2
I1125 10:10:32.986313 17022 net.cpp:100] Creating Layer sum-dsn2
I1125 10:10:32.986316 17022 net.cpp:434] sum-dsn2 <- conv4-dsn2
I1125 10:10:32.986320 17022 net.cpp:434] sum-dsn2 <- weight-dsn3-2_crop1-dsn2_0_split_1
I1125 10:10:32.986323 17022 net.cpp:408] sum-dsn2 -> sum-dsn2
I1125 10:10:32.986351 17022 net.cpp:150] Setting up sum-dsn2
I1125 10:10:32.986354 17022 net.cpp:157] Top shape: 1 1 250 250 (62500)
I1125 10:10:32.986356 17022 net.cpp:165] Memory required for data: 1146042948
I1125 10:10:32.986357 17022 layer_factory.hpp:77] Creating layer upsample2_2-dsn2
I1125 10:10:32.986364 17022 net.cpp:100] Creating Layer upsample2_2-dsn2
I1125 10:10:32.986366 17022 net.cpp:434] upsample2_2-dsn2 <- sum-dsn2
I1125 10:10:32.986371 17022 net.cpp:408] upsample2_2-dsn2 -> sum-dsn2-up
I1125 10:10:32.987715 17022 net.cpp:150] Setting up upsample2_2-dsn2
I1125 10:10:32.987725 17022 net.cpp:157] Top shape: 1 1 502 502 (252004)
I1125 10:10:32.987727 17022 net.cpp:165] Memory required for data: 1147050964
I1125 10:10:32.987732 17022 layer_factory.hpp:77] Creating layer crop2-dsn2
I1125 10:10:32.987737 17022 net.cpp:100] Creating Layer crop2-dsn2
I1125 10:10:32.987740 17022 net.cpp:434] crop2-dsn2 <- sum-dsn2-up
I1125 10:10:32.987743 17022 net.cpp:434] crop2-dsn2 <- data_augmentation_0_split_5
I1125 10:10:32.987749 17022 net.cpp:408] crop2-dsn2 -> upscore-dsn2
I1125 10:10:32.987779 17022 net.cpp:150] Setting up crop2-dsn2
I1125 10:10:32.987784 17022 net.cpp:157] Top shape: 1 1 500 500 (250000)
I1125 10:10:32.987785 17022 net.cpp:165] Memory required for data: 1148050964
I1125 10:10:32.987788 17022 layer_factory.hpp:77] Creating layer upscore-dsn2_crop2-dsn2_0_split
I1125 10:10:32.987792 17022 net.cpp:100] Creating Layer upscore-dsn2_crop2-dsn2_0_split
I1125 10:10:32.987794 17022 net.cpp:434] upscore-dsn2_crop2-dsn2_0_split <- upscore-dsn2
I1125 10:10:32.987799 17022 net.cpp:408] upscore-dsn2_crop2-dsn2_0_split -> upscore-dsn2_crop2-dsn2_0_split_0
I1125 10:10:32.987821 17022 net.cpp:408] upscore-dsn2_crop2-dsn2_0_split -> upscore-dsn2_crop2-dsn2_0_split_1
I1125 10:10:32.987830 17022 net.cpp:408] upscore-dsn2_crop2-dsn2_0_split -> upscore-dsn2_crop2-dsn2_0_split_2
I1125 10:10:32.987874 17022 net.cpp:150] Setting up upscore-dsn2_crop2-dsn2_0_split
I1125 10:10:32.987879 17022 net.cpp:157] Top shape: 1 1 500 500 (250000)
I1125 10:10:32.987881 17022 net.cpp:157] Top shape: 1 1 500 500 (250000)
I1125 10:10:32.987884 17022 net.cpp:157] Top shape: 1 1 500 500 (250000)
I1125 10:10:32.987885 17022 net.cpp:165] Memory required for data: 1151050964
I1125 10:10:32.987888 17022 layer_factory.hpp:77] Creating layer loss2-score
I1125 10:10:32.987895 17022 net.cpp:100] Creating Layer loss2-score
I1125 10:10:32.987896 17022 net.cpp:434] loss2-score <- upscore-dsn2_crop2-dsn2_0_split_0
I1125 10:10:32.987900 17022 net.cpp:434] loss2-score <- label_augmentation_1_split_4
I1125 10:10:32.987905 17022 net.cpp:408] loss2-score -> loss2-score
I1125 10:10:32.988080 17022 net.cpp:150] Setting up loss2-score
I1125 10:10:32.988085 17022 net.cpp:157] Top shape: (1)
I1125 10:10:32.988086 17022 net.cpp:160]     with loss weight 1
I1125 10:10:32.988091 17022 net.cpp:165] Memory required for data: 1151050968
I1125 10:10:32.988093 17022 layer_factory.hpp:77] Creating layer sigmoid-dsn1
I1125 10:10:32.988098 17022 net.cpp:100] Creating Layer sigmoid-dsn1
I1125 10:10:32.988101 17022 net.cpp:434] sigmoid-dsn1 <- upscore-dsn2_crop2-dsn2_0_split_1
I1125 10:10:32.988106 17022 net.cpp:408] sigmoid-dsn1 -> sigmoid-dsn1
I1125 10:10:32.988287 17022 net.cpp:150] Setting up sigmoid-dsn1
I1125 10:10:32.988296 17022 net.cpp:157] Top shape: 1 1 500 500 (250000)
I1125 10:10:32.988297 17022 net.cpp:165] Memory required for data: 1152050968
I1125 10:10:32.988301 17022 layer_factory.hpp:77] Creating layer rev-dsn1
I1125 10:10:32.988306 17022 net.cpp:100] Creating Layer rev-dsn1
I1125 10:10:32.988308 17022 net.cpp:434] rev-dsn1 <- sigmoid-dsn1
I1125 10:10:32.988312 17022 net.cpp:408] rev-dsn1 -> rev-dsn1
I1125 10:10:32.988335 17022 net.cpp:150] Setting up rev-dsn1
I1125 10:10:32.988340 17022 net.cpp:157] Top shape: 1 1 500 500 (250000)
I1125 10:10:32.988343 17022 net.cpp:165] Memory required for data: 1153050968
I1125 10:10:32.988344 17022 layer_factory.hpp:77] Creating layer tile-dsn1
I1125 10:10:32.988348 17022 net.cpp:100] Creating Layer tile-dsn1
I1125 10:10:32.988350 17022 net.cpp:434] tile-dsn1 <- rev-dsn1
I1125 10:10:32.988355 17022 net.cpp:408] tile-dsn1 -> weight-dsn1
I1125 10:10:32.988376 17022 net.cpp:150] Setting up tile-dsn1
I1125 10:10:32.988379 17022 net.cpp:157] Top shape: 1 64 500 500 (16000000)
I1125 10:10:32.988381 17022 net.cpp:165] Memory required for data: 1217050968
I1125 10:10:32.988384 17022 layer_factory.hpp:77] Creating layer prod1-dsn1
I1125 10:10:32.988387 17022 net.cpp:100] Creating Layer prod1-dsn1
I1125 10:10:32.988390 17022 net.cpp:434] prod1-dsn1 <- conv1_2_relu1_2_0_split_1
I1125 10:10:32.988394 17022 net.cpp:434] prod1-dsn1 <- weight-dsn1
I1125 10:10:32.988399 17022 net.cpp:408] prod1-dsn1 -> prod1-dsn1
I1125 10:10:32.988417 17022 net.cpp:150] Setting up prod1-dsn1
I1125 10:10:32.988422 17022 net.cpp:157] Top shape: 1 64 500 500 (16000000)
I1125 10:10:32.988423 17022 net.cpp:165] Memory required for data: 1281050968
I1125 10:10:32.988425 17022 layer_factory.hpp:77] Creating layer conv1-dsn1
I1125 10:10:32.988447 17022 net.cpp:100] Creating Layer conv1-dsn1
I1125 10:10:32.988452 17022 net.cpp:434] conv1-dsn1 <- prod1-dsn1
I1125 10:10:32.988456 17022 net.cpp:408] conv1-dsn1 -> conv1-dsn1
I1125 10:10:32.990849 17022 net.cpp:150] Setting up conv1-dsn1
I1125 10:10:32.990859 17022 net.cpp:157] Top shape: 1 64 500 500 (16000000)
I1125 10:10:32.990861 17022 net.cpp:165] Memory required for data: 1345050968
I1125 10:10:32.990867 17022 layer_factory.hpp:77] Creating layer conv2-dsn1
I1125 10:10:32.990878 17022 net.cpp:100] Creating Layer conv2-dsn1
I1125 10:10:32.990881 17022 net.cpp:434] conv2-dsn1 <- conv1-dsn1
I1125 10:10:32.990888 17022 net.cpp:408] conv2-dsn1 -> conv2-dsn1
I1125 10:10:32.992305 17022 net.cpp:150] Setting up conv2-dsn1
I1125 10:10:32.992316 17022 net.cpp:157] Top shape: 1 64 500 500 (16000000)
I1125 10:10:32.992318 17022 net.cpp:165] Memory required for data: 1409050968
I1125 10:10:32.992323 17022 layer_factory.hpp:77] Creating layer relu1-dsn1
I1125 10:10:32.992329 17022 net.cpp:100] Creating Layer relu1-dsn1
I1125 10:10:32.992332 17022 net.cpp:434] relu1-dsn1 <- conv2-dsn1
I1125 10:10:32.992336 17022 net.cpp:395] relu1-dsn1 -> conv2-dsn1 (in-place)
I1125 10:10:32.992487 17022 net.cpp:150] Setting up relu1-dsn1
I1125 10:10:32.992494 17022 net.cpp:157] Top shape: 1 64 500 500 (16000000)
I1125 10:10:32.992496 17022 net.cpp:165] Memory required for data: 1473050968
I1125 10:10:32.992499 17022 layer_factory.hpp:77] Creating layer conv3-dsn1
I1125 10:10:32.992507 17022 net.cpp:100] Creating Layer conv3-dsn1
I1125 10:10:32.992509 17022 net.cpp:434] conv3-dsn1 <- conv2-dsn1
I1125 10:10:32.992516 17022 net.cpp:408] conv3-dsn1 -> conv3-dsn1
I1125 10:10:32.994892 17022 net.cpp:150] Setting up conv3-dsn1
I1125 10:10:32.994904 17022 net.cpp:157] Top shape: 1 64 500 500 (16000000)
I1125 10:10:32.994905 17022 net.cpp:165] Memory required for data: 1537050968
I1125 10:10:32.994910 17022 layer_factory.hpp:77] Creating layer relu2-dsn1
I1125 10:10:32.994915 17022 net.cpp:100] Creating Layer relu2-dsn1
I1125 10:10:32.994917 17022 net.cpp:434] relu2-dsn1 <- conv3-dsn1
I1125 10:10:32.994922 17022 net.cpp:395] relu2-dsn1 -> conv3-dsn1 (in-place)
I1125 10:10:32.995082 17022 net.cpp:150] Setting up relu2-dsn1
I1125 10:10:32.995090 17022 net.cpp:157] Top shape: 1 64 500 500 (16000000)
I1125 10:10:32.995091 17022 net.cpp:165] Memory required for data: 1601050968
I1125 10:10:32.995093 17022 layer_factory.hpp:77] Creating layer conv4-dsn1
I1125 10:10:32.995101 17022 net.cpp:100] Creating Layer conv4-dsn1
I1125 10:10:32.995105 17022 net.cpp:434] conv4-dsn1 <- conv3-dsn1
I1125 10:10:32.995110 17022 net.cpp:408] conv4-dsn1 -> conv4-dsn1
I1125 10:10:32.996289 17022 net.cpp:150] Setting up conv4-dsn1
I1125 10:10:32.996299 17022 net.cpp:157] Top shape: 1 1 500 500 (250000)
I1125 10:10:32.996301 17022 net.cpp:165] Memory required for data: 1602050968
I1125 10:10:32.996306 17022 layer_factory.hpp:77] Creating layer sum-dsn1
I1125 10:10:32.996312 17022 net.cpp:100] Creating Layer sum-dsn1
I1125 10:10:32.996315 17022 net.cpp:434] sum-dsn1 <- conv4-dsn1
I1125 10:10:32.996320 17022 net.cpp:434] sum-dsn1 <- upscore-dsn2_crop2-dsn2_0_split_2
I1125 10:10:32.996323 17022 net.cpp:408] sum-dsn1 -> sum-dsn1
I1125 10:10:32.996351 17022 net.cpp:150] Setting up sum-dsn1
I1125 10:10:32.996354 17022 net.cpp:157] Top shape: 1 1 500 500 (250000)
I1125 10:10:32.996356 17022 net.cpp:165] Memory required for data: 1603050968
I1125 10:10:32.996359 17022 layer_factory.hpp:77] Creating layer crop2-dsn1
I1125 10:10:32.996362 17022 net.cpp:100] Creating Layer crop2-dsn1
I1125 10:10:32.996364 17022 net.cpp:434] crop2-dsn1 <- sum-dsn1
I1125 10:10:32.996367 17022 net.cpp:434] crop2-dsn1 <- data_augmentation_0_split_6
I1125 10:10:32.996372 17022 net.cpp:408] crop2-dsn1 -> upscore-dsn1
I1125 10:10:32.996397 17022 net.cpp:150] Setting up crop2-dsn1
I1125 10:10:32.996402 17022 net.cpp:157] Top shape: 1 1 500 500 (250000)
I1125 10:10:32.996404 17022 net.cpp:165] Memory required for data: 1604050968
I1125 10:10:32.996407 17022 layer_factory.hpp:77] Creating layer loss1-score
I1125 10:10:32.996413 17022 net.cpp:100] Creating Layer loss1-score
I1125 10:10:32.996415 17022 net.cpp:434] loss1-score <- upscore-dsn1
I1125 10:10:32.996419 17022 net.cpp:434] loss1-score <- label_augmentation_1_split_5
I1125 10:10:32.996423 17022 net.cpp:408] loss1-score -> loss1-score
…
I1125 10:10:33.002738 17022 net.cpp:58] Initializing net from parameters: 
name: "RAS"
state {
  phase: TEST
}
layer {
  name: "data"
  type: "ImageLabelmapData"
  top: "data"
  top: "label"
  include {
    phase: TEST
  }
  transform_param {
    mean_value: 104.00699
    mean_value: 116.66877
    mean_value: 122.67892
  }
  image_data_param {
    source: "/media/compute/homes/galberding/FleckDetect/Datasets/val.txt"
    batch_size: 1
    new_height: 500
    new_width: 500
    root_folder: "/media/compute/homes/galberding/FleckDetect/Datasets/"
    normalize: true
  }
}
layer {
  name: "conv1_1"
  type: "Convolution"
  bottom: "data"
  top: "conv1_1"
  param {
    lr_mult: 1
    decay_mult: 1
  }
  param {
    lr_mult: 2
    decay_mult: 0
  }
  convolution_param {
    num_output: 64
    pad: 1
    kernel_size: 3
    engine: CUDNN
  }
}
layer {
  name: "relu1_1"
  type: "ReLU"
  bottom: "conv1_1"
  top: "conv1_1"
}
layer {
  name: "conv1_2"
  type: "Convolution"
  bottom: "conv1_1"
  top: "conv1_2"
  param {
    lr_mult: 1
    decay_mult: 1
  }
  param {
    lr_mult: 2
    decay_mult: 0
  }
  convolution_param {
    num_output: 64
    pad: 1
    kernel_size: 3
    engine: CUDNN
  }
}
layer {
  name: "relu1_2"
  type: "ReLU"
  bottom: "conv1_2"
  top: "conv1_2"
}
layer {
  name: "pool1"
  type: "Pooling"
  bottom: "conv1_2"
  top: "pool1"
  pooling_param {
    pool: MAX
    kernel_size: 2
    stride: 2
  }
}
layer {
  name: "conv2_1"
  type: "Convolution"
  bottom: "pool1"
  top: "conv2_1"
  param {
    lr_mult: 1
    decay_mult: 1
  }
  param {
    lr_mult: 2
    decay_mult: 0
  }
  convolution_param {
    num_output: 128
    pad: 1
    kernel_size: 3
    engine: CUDNN
  }
}
layer {
  name: "relu2_1"
  type: "ReLU"
  bottom: "conv2_1"
  top: "conv2_1"
}
layer {
  name: "conv2_2"
  type: "Convolution"
  bottom: "conv2_1"
  top: "conv2_2"
  param {
    lr_mult: 1
    decay_mult: 1
  }
  param {
    lr_mult: 2
    decay_mult: 0
  }
  convolution_param {
    num_output: 128
    pad: 1
    kernel_size: 3
    engine: CUDNN
  }
}
layer {
  name: "relu2_2"
  type: "ReLU"
  bottom: "conv2_2"
  top: "conv2_2"
}
layer {
  name: "pool2"
  type: "Pooling"
  bottom: "conv2_2"
  top: "pool2"
  pooling_param {
    pool: MAX
    kernel_size: 2
    stride: 2
  }
}
layer {
  name: "conv3_1"
  type: "Convolution"
  bottom: "pool2"
  top: "conv3_1"
  param {
    lr_mult: 1
    decay_mult: 1
  }
  param {
    lr_mult: 2
    decay_mult: 0
  }
  convolution_param {
    num_output: 256
    pad: 1
    kernel_size: 3
    engine: CUDNN
  }
}
layer {
  name: "relu3_1"
  type: "ReLU"
  bottom: "conv3_1"
  top: "conv3_1"
}
layer {
  name: "conv3_2"
  type: "Convolution"
  bottom: "conv3_1"
  top: "conv3_2"
  param {
    lr_mult: 1
    decay_mult: 1
  }
  param {
    lr_mult: 2
    decay_mult: 0
  }
  convolution_param {
    num_output: 256
    pad: 1
    kernel_size: 3
    engine: CUDNN
  }
}
layer {
  name: "relu3_2"
  type: "ReLU"
  bottom: "conv3_2"
  top: "conv3_2"
}
layer {
  name: "conv3_3"
  type: "Convolution"
  bottom: "conv3_2"
  top: "conv3_3"
  param {
    lr_mult: 1
    decay_mult: 1
  }
  param {
    lr_mult: 2
    decay_mult: 0
  }
  convolution_param {
    num_output: 256
    pad: 1
    kernel_size: 3
    engine: CUDNN
  }
}
layer {
  name: "relu3_3"
  type: "ReLU"
  bottom: "conv3_3"
  top: "conv3_3"
}
layer {
  name: "pool3"
  type: "Pooling"
  bottom: "conv3_3"
  top: "pool3"
  pooling_param {
    pool: MAX
    kernel_size: 2
    stride: 2
  }
}
layer {
  name: "conv4_1"
  type: "Convolution"
  bottom: "pool3"
  top: "conv4_1"
  param {
    lr_mult: 1
    decay_mult: 1
  }
  param {
    lr_mult: 2
    decay_mult: 0
  }
  convolution_param {
    num_output: 512
    pad: 1
    kernel_size: 3
    engine: CUDNN
  }
}
layer {
  name: "relu4_1"
  type: "ReLU"
  bottom: "conv4_1"
  top: "conv4_1"
}
layer {
  name: "conv4_2"
  type: "Convolution"
  bottom: "conv4_1"
  top: "conv4_2"
  param {
    lr_mult: 1
    decay_mult: 1
  }
  param {
    lr_mult: 2
    decay_mult: 0
  }
  convolution_param {
    num_output: 512
    pad: 1
    kernel_size: 3
    engine: CUDNN
  }
}
layer {
  name: "relu4_2"
  type: "ReLU"
  bottom: "conv4_2"
  top: "conv4_2"
}
layer {
  name: "conv4_3"
  type: "Convolution"
  bottom: "conv4_2"
  top: "conv4_3"
  param {
    lr_mult: 1
    decay_mult: 1
  }
  param {
    lr_mult: 2
    decay_mult: 0
  }
  convolution_param {
    num_output: 512
    pad: 1
    kernel_size: 3
    engine: CUDNN
  }
}
layer {
  name: "relu4_3"
  type: "ReLU"
  bottom: "conv4_3"
  top: "conv4_3"
}
layer {
  name: "pool4"
  type: "Pooling"
  bottom: "conv4_3"
  top: "pool4"
  pooling_param {
    pool: MAX
    kernel_size: 3
    stride: 2
    pad: 1
  }
}
layer {
  name: "conv5_1"
  type: "Convolution"
  bottom: "pool4"
  top: "conv5_1"
  param {
    lr_mult: 1
    decay_mult: 1
  }
  param {
    lr_mult: 2
    decay_mult: 0
  }
  convolution_param {
    num_output: 512
    pad: 1
    kernel_size: 3
    engine: CUDNN
  }
}
layer {
  name: "relu5_1"
  type: "ReLU"
  bottom: "conv5_1"
  top: "conv5_1"
}
layer {
  name: "conv5_2"
  type: "Convolution"
  bottom: "conv5_1"
  top: "conv5_2"
  param {
    lr_mult: 1
    decay_mult: 1
  }
  param {
    lr_mult: 2
    decay_mult: 0
  }
  convolution_param {
    num_output: 512
    pad: 1
    kernel_size: 3
    engine: CUDNN
  }
}
layer {
  name: "relu5_2"
  type: "ReLU"
  bottom: "conv5_2"
  top: "conv5_2"
}
layer {
  name: "conv5_3"
  type: "Convolution"
  bottom: "conv5_2"
  top: "conv5_3"
  param {
    lr_mult: 1
    decay_mult: 1
  }
  param {
    lr_mult: 2
    decay_mult: 0
  }
  convolution_param {
    num_output: 512
    pad: 1
    kernel_size: 3
    engine: CUDNN
  }
}
layer {
  name: "relu5_3"
  type: "ReLU"
  bottom: "conv5_3"
  top: "conv5_3"
}
layer {
  name: "pool5"
  type: "Pooling"
  bottom: "conv5_3"
  top: "pool5"
  pooling_param {
    pool: MAX
    kernel_size: 3
    stride: 2
    pad: 1
  }
}
layer {
  name: "conv1-dsn6"
  type: "Convolution"
  bottom: "pool5"
  top: "conv1-dsn6"
  param {
    lr_mult: 1
    decay_mult: 1
  }
  param {
    lr_mult: 2
    decay_mult: 0
  }
  convolution_param {
    num_output: 256
    kernel_size: 1
    weight_filler {
      type: "gaussian"
      std: 0.01
    }
    bias_filler {
      type: "constant"
      value: 0
    }
    engine: CUDNN
  }
}
layer {
  name: "conv2-dsn6"
  type: "Convolution"
  bottom: "conv1-dsn6"
  top: "conv2-dsn6"
  param {
    lr_mult: 1
    decay_mult: 1
  }
  param {
    lr_mult: 2
    decay_mult: 0
  }
  convolution_param {
    num_output: 256
    pad: 2
    kernel_size: 5
    weight_filler {
      type: "gaussian"
      std: 0.01
    }
    bias_filler {
      type: "constant"
      value: 0
    }
    engine: CUDNN
  }
}
layer {
  name: "relu1-dsn6"
  type: "ReLU"
  bottom: "conv2-dsn6"
  top: "conv2-dsn6"
}
layer {
  name: "conv3-dsn6"
  type: "Convolution"
  bottom: "conv2-dsn6"
  top: "conv3-dsn6"
  param {
    lr_mult: 1
    decay_mult: 1
  }
  param {
    lr_mult: 2
    decay_mult: 0
  }
  convolution_param {
    num_output: 256
    pad: 2
    kernel_size: 5
    weight_filler {
      type: "gaussian"
      std: 0.01
    }
    bias_filler {
      type: "constant"
      value: 0
    }
    engine: CUDNN
  }
}
layer {
  name: "relu2-dsn6"
  type: "ReLU"
  bottom: "conv3-dsn6"
  top: "conv3-dsn6"
}
layer {
  name: "conv4-dsn6"
  type: "Convolution"
  bottom: "conv3-dsn6"
  top: "conv4-dsn6"
  param {
    lr_mult: 1
    decay_mult: 1
  }
  param {
    lr_mult: 2
    decay_mult: 0
  }
  convolution_param {
    num_output: 256
    pad: 2
    kernel_size: 5
    weight_filler {
      type: "gaussian"
      std: 0.01
    }
    bias_filler {
      type: "constant"
      value: 0
    }
    engine: CUDNN
  }
}
layer {
  name: "relu3-dsn6"
  type: "ReLU"
  bottom: "conv4-dsn6"
  top: "conv4-dsn6"
}
layer {
  name: "conv5-dsn6"
  type: "Convolution"
  bottom: "conv4-dsn6"
  top: "conv5-dsn6"
  param {
    lr_mult: 0.1
    decay_mult: 1
  }
  param {
    lr_mult: 0.2
    decay_mult: 0
  }
  convolution_param {
    num_output: 1
    kernel_size: 1
    weight_filler {
      type: "gaussian"
      std: 0.01
    }
    bias_filler {
      type: "constant"
      value: 0
    }
    engine: CUDNN
  }
}
layer {
  name: "upsample32_dsn6"
  type: "Deconvolution"
  bottom: "conv5-dsn6"
  top: "conv5-dsn6-up"
  param {
    lr_mult: 0
    decay_mult: 1
  }
  param {
    lr_mult: 0
    decay_mult: 0
  }
  convolution_param {
    num_output: 1
    kernel_size: 64
    stride: 32
  }
}
layer {
  name: "crop-dsn6"
  type: "Crop"
  bottom: "conv5-dsn6-up"
  bottom: "data"
  top: "upscore-dsn6"
}
layer {
  name: "loss6-score"
  type: "SigmoidCrossEntropyLoss"
  bottom: "upscore-dsn6"
  bottom: "label"
  top: "loss6-score"
  loss_weight: 1
}
layer {
  name: "upsample2_dsn5"
  type: "Deconvolution"
  bottom: "conv5-dsn6"
  top: "conv5-dsn6-5"
  param {
    lr_mult: 0
    decay_mult: 1
  }
  param {
    lr_mult: 0
    decay_mult: 0
  }
  convolution_param {
    num_output: 1
    kernel_size: 4
    stride: 2
  }
}
layer {
  name: "crop1-dsn5"
  type: "Crop"
  bottom: "conv5-dsn6-5"
  bottom: "conv5_3"
  top: "weight-dsn6-5"
}
layer {
  name: "sigmoid-dsn5"
  type: "Sigmoid"
  bottom: "weight-dsn6-5"
  top: "sigmoid-dsn5"
}
layer {
  name: "rev-dsn5"
  type: "Power"
  bottom: "sigmoid-dsn5"
  top: "rev-dsn5"
  power_param {
    power: 1
    scale: -1
    shift: 1
  }
}
layer {
  name: "tile-dsn5"
  type: "Tile"
  bottom: "rev-dsn5"
  top: "weight-dsn5"
  tile_param {
    tiles: 512
  }
}
layer {
  name: "prod1-dsn5"
  type: "Eltwise"
  bottom: "conv5_3"
  bottom: "weight-dsn5"
  top: "prod1-dsn5"
  eltwise_param {
    operation: PROD
  }
}
layer {
  name: "conv1-dsn5"
  type: "Convolution"
  bottom: "prod1-dsn5"
  top: "conv1-dsn5"
  param {
    lr_mult: 1
    decay_mult: 1
  }
  param {
    lr_mult: 2
    decay_mult: 0
  }
  convolution_param {
    num_output: 64
    kernel_size: 1
    weight_filler {
      type: "gaussian"
      std: 0.01
    }
    bias_filler {
      type: "constant"
      value: 0
    }
    engine: CUDNN
  }
}
layer {
  name: "conv2-dsn5"
  type: "Convolution"
  bottom: "conv1-dsn5"
  top: "conv2-dsn5"
  param {
    lr_mult: 1
    decay_mult: 1
  }
  param {
    lr_mult: 2
    decay_mult: 0
  }
  convolution_param {
    num_output: 64
    pad: 1
    kernel_size: 3
    weight_filler {
      type: "gaussian"
      std: 0.01
    }
    bias_filler {
      type: "constant"
      value: 0
    }
    engine: CUDNN
  }
}
layer {
  name: "relu1-dsn5"
  type: "ReLU"
  bottom: "conv2-dsn5"
  top: "conv2-dsn5"
}
layer {
  name: "conv3-dsn5"
  type: "Convolution"
  bottom: "conv2-dsn5"
  top: "conv3-dsn5"
  param {
    lr_mult: 1
    decay_mult: 1
  }
  param {
    lr_mult: 2
    decay_mult: 0
  }
  convolution_param {
    num_output: 64
    pad: 1
    kernel_size: 3
    weight_filler {
      type: "gaussian"
      std: 0.01
    }
    bias_filler {
      type: "constant"
      value: 0
    }
    engine: CUDNN
  }
}
layer {
  name: "relu2-dsn5"
  type: "ReLU"
  bottom: "conv3-dsn5"
  top: "conv3-dsn5"
}
layer {
  name: "conv4-dsn5"
  type: "Convolution"
  bottom: "conv3-dsn5"
  top: "conv4-dsn5"
  param {
    lr_mult: 1
    decay_mult: 1
  }
  param {
    lr_mult: 2
    decay_mult: 0
  }
  convolution_param {
    num_output: 1
    pad: 1
    kernel_size: 3
    weight_filler {
      type: "gaussian"
      std: 0.01
    }
    bias_filler {
      type: "constant"
      value: 0
    }
    engine: CUDNN
  }
}
layer {
  name: "sum-dsn5"
  type: "Eltwise"
  bottom: "conv4-dsn5"
  bottom: "weight-dsn6-5"
  top: "sum-dsn5"
  eltwise_param {
    operation: SUM
  }
}
layer {
  name: "upsample16_dsn5"
  type: "Deconvolution"
  bottom: "sum-dsn5"
  top: "sum-dsn5-up"
  param {
    lr_mult: 0
    decay_mult: 1
  }
  param {
    lr_mult: 0
    decay_mult: 0
  }
  convolution_param {
    num_output: 1
    kernel_size: 32
    stride: 16
  }
}
layer {
  name: "crop2-dsn5"
  type: "Crop"
  bottom: "sum-dsn5-up"
  bottom: "data"
  top: "upscore-dsn5"
}
layer {
  name: "loss5-score"
  type: "SigmoidCrossEntropyLoss"
  bottom: "upscore-dsn5"
  bottom: "label"
  top: "loss5-score"
  loss_weight: 1
}
layer {
  name: "upsample2_dsn4"
  type: "Deconvolution"
  bottom: "sum-dsn5"
  top: "sum-dsn5-4"
  param {
    lr_mult: 0
    decay_mult: 1
  }
  param {
    lr_mult: 0
    decay_mult: 0
  }
  convolution_param {
    num_output: 1
    kernel_size: 4
    stride: 2
  }
}
layer {
  name: "crop1-dsn4"
  type: "Crop"
  bottom: "sum-dsn5-4"
  bottom: "conv4_3"
  top: "weight-dsn5-4"
}
layer {
  name: "sigmoid-dsn4"
  type: "Sigmoid"
  bottom: "weight-dsn5-4"
  top: "sigmoid-dsn4"
}
layer {
  name: "rev-dsn4"
  type: "Power"
  bottom: "sigmoid-dsn4"
  top: "rev-dsn4"
  power_param {
    power: 1
    scale: -1
    shift: 1
  }
}
layer {
  name: "tile-dsn4"
  type: "Tile"
  bottom: "rev-dsn4"
  top: "weight-dsn4"
  tile_param {
    tiles: 512
  }
}
layer {
  name: "prod1-dsn4"
  type: "Eltwise"
  bottom: "conv4_3"
  bottom: "weight-dsn4"
  top: "prod1-dsn4"
  eltwise_param {
    operation: PROD
  }
}
layer {
  name: "conv1-dsn4"
  type: "Convolution"
  bottom: "prod1-dsn4"
  top: "conv1-dsn4"
  param {
    lr_mult: 1
    decay_mult: 1
  }
  param {
    lr_mult: 2
    decay_mult: 0
  }
  convolution_param {
    num_output: 64
    kernel_size: 1
    weight_filler {
      type: "gaussian"
      std: 0.01
    }
    bias_filler {
      type: "constant"
      value: 0
    }
    engine: CUDNN
  }
}
layer {
  name: "conv2-dsn4"
  type: "Convolution"
  bottom: "conv1-dsn4"
  top: "conv2-dsn4"
  param {
    lr_mult: 1
    decay_mult: 1
  }
  param {
    lr_mult: 2
    decay_mult: 0
  }
  convolution_param {
    num_output: 64
    pad: 1
    kernel_size: 3
    weight_filler {
      type: "gaussian"
      std: 0.01
    }
    bias_filler {
      type: "constant"
      value: 0
    }
    engine: CUDNN
  }
}
layer {
  name: "relu1-dsn4"
  type: "ReLU"
  bottom: "conv2-dsn4"
  top: "conv2-dsn4"
}
layer {
  name: "conv3-dsn4"
  type: "Convolution"
  bottom: "conv2-dsn4"
  top: "conv3-dsn4"
  param {
    lr_mult: 1
    decay_mult: 1
  }
  param {
    lr_mult: 2
    decay_mult: 0
  }
  convolution_param {
    num_output: 64
    pad: 1
    kernel_size: 3
    weight_filler {
      type: "gaussian"
      std: 0.01
    }
    bias_filler {
      type: "constant"
      value: 0
    }
    engine: CUDNN
  }
}
layer {
  name: "relu2-dsn4"
  type: "ReLU"
  bottom: "conv3-dsn4"
  top: "conv3-dsn4"
}
layer {
  name: "conv4-dsn4"
  type: "Convolution"
  bottom: "conv3-dsn4"
  top: "conv4-dsn4"
  param {
    lr_mult: 1
    decay_mult: 1
  }
  param {
    lr_mult: 2
    decay_mult: 0
  }
  convolution_param {
    num_output: 1
    pad: 1
    kernel_size: 3
    weight_filler {
      type: "gaussian"
      std: 0.01
    }
    bias_filler {
      type: "constant"
      value: 0
    }
    engine: CUDNN
  }
}
layer {
  name: "sum-dsn4"
  type: "Eltwise"
  bottom: "conv4-dsn4"
  bottom: "weight-dsn5-4"
  top: "sum-dsn4"
  eltwise_param {
    operation: SUM
  }
}
layer {
  name: "upsample8_dsn4"
  type: "Deconvolution"
  bottom: "sum-dsn4"
  top: "sum-dsn4-up"
  param {
    lr_mult: 0
    decay_mult: 1
  }
  param {
    lr_mult: 0
    decay_mult: 0
  }
  convolution_param {
    num_output: 1
    kernel_size: 16
    stride: 8
  }
}
layer {
  name: "crop2-dsn4"
  type: "Crop"
  bottom: "sum-dsn4-up"
  bottom: "data"
  top: "upscore-dsn4"
}
layer {
  name: "loss4-score"
  type: "SigmoidCrossEntropyLoss"
  bottom: "upscore-dsn4"
  bottom: "label"
  top: "loss4-score"
  loss_weight: 1
}
layer {
  name: "upsample2_dsn3"
  type: "Deconvolution"
  bottom: "sum-dsn4"
  top: "sum-dsn4-3"
  param {
    lr_mult: 0
    decay_mult: 1
  }
  param {
    lr_mult: 0
    decay_mult: 0
  }
  convolution_param {
    num_output: 1
    kernel_size: 4
    stride: 2
  }
}
layer {
  name: "crop1-dsn3"
  type: "Crop"
  bottom: "sum-dsn4-3"
  bottom: "conv3_3"
  top: "weight-dsn4-3"
}
layer {
  name: "sigmoid-dsn3"
  type: "Sigmoid"
  bottom: "weight-dsn4-3"
  top: "sigmoid-dsn3"
}
layer {
  name: "rev-dsn3"
  type: "Power"
  bottom: "sigmoid-dsn3"
  top: "rev-dsn3"
  power_param {
    power: 1
    scale: -1
    shift: 1
  }
}
layer {
  name: "tile-dsn3"
  type: "Tile"
  bottom: "rev-dsn3"
  top: "weight-dsn3"
  tile_param {
    tiles: 256
  }
}
layer {
  name: "prod1-dsn3"
  type: "Eltwise"
  bottom: "conv3_3"
  bottom: "weight-dsn3"
  top: "prod1-dsn3"
  eltwise_param {
    operation: PROD
  }
}
layer {
  name: "conv1-dsn3"
  type: "Convolution"
  bottom: "prod1-dsn3"
  top: "conv1-dsn3"
  param {
    lr_mult: 1
    decay_mult: 1
  }
  param {
    lr_mult: 2
    decay_mult: 0
  }
  convolution_param {
    num_output: 64
    kernel_size: 1
    weight_filler {
      type: "gaussian"
      std: 0.01
    }
    bias_filler {
      type: "constant"
      value: 0
    }
    engine: CUDNN
  }
}
layer {
  name: "conv2-dsn3"
  type: "Convolution"
  bottom: "conv1-dsn3"
  top: "conv2-dsn3"
  param {
    lr_mult: 1
    decay_mult: 1
  }
  param {
    lr_mult: 2
    decay_mult: 0
  }
  convolution_param {
    num_output: 64
    pad: 1
    kernel_size: 3
    weight_filler {
      type: "gaussian"
      std: 0.01
    }
    bias_filler {
      type: "constant"
      value: 0
    }
    engine: CUDNN
  }
}
layer {
  name: "relu1-dsn3"
  type: "ReLU"
  bottom: "conv2-dsn3"
  top: "conv2-dsn3"
}
layer {
  name: "conv3-dsn3"
  type: "Convolution"
  bottom: "conv2-dsn3"
  top: "conv3-dsn3"
  param {
    lr_mult: 1
    decay_mult: 1
  }
  param {
    lr_mult: 2
    decay_mult: 0
  }
  convolution_param {
    num_output: 64
    pad: 1
    kernel_size: 3
    weight_filler {
      type: "gaussian"
      std: 0.01
    }
    bias_filler {
      type: "constant"
      value: 0
    }
    engine: CUDNN
  }
}
layer {
  name: "relu2-dsn3"
  type: "ReLU"
  bottom: "conv3-dsn3"
  top: "conv3-dsn3"
}
layer {
  name: "conv4-dsn3"
  type: "Convolution"
  bottom: "conv3-dsn3"
  top: "conv4-dsn3"
  param {
    lr_mult: 1
    decay_mult: 1
  }
  param {
    lr_mult: 2
    decay_mult: 0
  }
  convolution_param {
    num_output: 1
    pad: 1
    kernel_size: 3
    weight_filler {
      type: "gaussian"
      std: 0.01
    }
    bias_filler {
      type: "constant"
      value: 0
    }
    engine: CUDNN
  }
}
layer {
  name: "sum-dsn3"
  type: "Eltwise"
  bottom: "conv4-dsn3"
  bottom: "weight-dsn4-3"
  top: "sum-dsn3"
  eltwise_param {
    operation: SUM
  }
}
layer {
  name: "upsample4_dsn3"
  type: "Deconvolution"
  bottom: "sum-dsn3"
  top: "sum-dsn3-up"
  param {
    lr_mult: 0
    decay_mult: 1
  }
  param {
    lr_mult: 0
    decay_mult: 0
  }
  convolution_param {
    num_output: 1
    kernel_size: 8
    stride: 4
  }
}
layer {
  name: "crop2-dsn3"
  type: "Crop"
  bottom: "sum-dsn3-up"
  bottom: "data"
  top: "upscore-dsn3"
}
layer {
  name: "loss3-score"
  type: "SigmoidCrossEntropyLoss"
  bottom: "upscore-dsn3"
  bottom: "label"
  top: "loss3-score"
  loss_weight: 1
}
layer {
  name: "upsample2_1-dsn2"
  type: "Deconvolution"
  bottom: "sum-dsn3"
  top: "sum-dsn3-2"
  param {
    lr_mult: 0
    decay_mult: 1
  }
  param {
    lr_mult: 0
    decay_mult: 0
  }
  convolution_param {
    num_output: 1
    kernel_size: 4
    stride: 2
  }
}
layer {
  name: "crop1-dsn2"
  type: "Crop"
  bottom: "sum-dsn3-2"
  bottom: "conv2_2"
  top: "weight-dsn3-2"
}
layer {
  name: "sigmoid-dsn2"
  type: "Sigmoid"
  bottom: "weight-dsn3-2"
  top: "sigmoid-dsn2"
}
layer {
  name: "rev-dsn2"
  type: "Power"
  bottom: "sigmoid-dsn2"
  top: "rev-dsn2"
  power_param {
    power: 1
    scale: -1
    shift: 1
  }
}
layer {
  name: "tile-dsn2"
  type: "Tile"
  bottom: "rev-dsn2"
  top: "weight-dsn2"
  tile_param {
    tiles: 128
  }
}
layer {
  name: "prod1-dsn2"
  type: "Eltwise"
  bottom: "conv2_2"
  bottom: "weight-dsn2"
  top: "prod1-dsn2"
  eltwise_param {
    operation: PROD
  }
}
layer {
  name: "conv1-dsn2"
  type: "Convolution"
  bottom: "prod1-dsn2"
  top: "conv1-dsn2"
  param {
    lr_mult: 1
    decay_mult: 1
  }
  param {
    lr_mult: 2
    decay_mult: 0
  }
  convolution_param {
    num_output: 64
    kernel_size: 1
    weight_filler {
      type: "gaussian"
      std: 0.01
    }
    bias_filler {
      type: "constant"
      value: 0
    }
    engine: CUDNN
  }
}
layer {
  name: "conv2-dsn2"
  type: "Convolution"
  bottom: "conv1-dsn2"
  top: "conv2-dsn2"
  param {
    lr_mult: 1
    decay_mult: 1
  }
  param {
    lr_mult: 2
    decay_mult: 0
  }
  convolution_param {
    num_output: 64
    pad: 1
    kernel_size: 3
    weight_filler {
      type: "gaussian"
      std: 0.01
    }
    bias_filler {
      type: "constant"
      value: 0
    }
    engine: CUDNN
  }
}
layer {
  name: "relu1-dsn2"
  type: "ReLU"
  bottom: "conv2-dsn2"
  top: "conv2-dsn2"
}
layer {
  name: "conv3-dsn2"
  type: "Convolution"
  bottom: "conv2-dsn2"
  top: "conv3-dsn2"
  param {
    lr_mult: 1
    decay_mult: 1
  }
  param {
    lr_mult: 2
    decay_mult: 0
  }
  convolution_param {
    num_output: 64
    pad: 1
    kernel_size: 3
    weight_filler {
      type: "gaussian"
      std: 0.01
    }
    bias_filler {
      type: "constant"
      value: 0
    }
    engine: CUDNN
  }
}
layer {
  name: "relu2-dsn2"
  type: "ReLU"
  bottom: "conv3-dsn2"
  top: "conv3-dsn2"
}
layer {
  name: "conv4-dsn2"
  type: "Convolution"
  bottom: "conv3-dsn2"
  top: "conv4-dsn2"
  param {
    lr_mult: 1
    decay_mult: 1
  }
  param {
    lr_mult: 2
    decay_mult: 0
  }
  convolution_param {
    num_output: 1
    pad: 1
    kernel_size: 3
    weight_filler {
      type: "gaussian"
      std: 0.01
    }
    bias_filler {
      type: "constant"
      value: 0
    }
    engine: CUDNN
  }
}
layer {
  name: "sum-dsn2"
  type: "Eltwise"
  bottom: "conv4-dsn2"
  bottom: "weight-dsn3-2"
  top: "sum-dsn2"
  eltwise_param {
    operation: SUM
  }
}
layer {
  name: "upsample2_2-dsn2"
  type: "Deconvolution"
  bottom: "sum-dsn2"
  top: "sum-dsn2-up"
  param {
    lr_mult: 0
    decay_mult: 1
  }
  param {
    lr_mult: 0
    decay_mult: 0
  }
  convolution_param {
    num_output: 1
    kernel_size: 4
    stride: 2
  }
}
layer {
  name: "crop2-dsn2"
  type: "Crop"
  bottom: "sum-dsn2-up"
  bottom: "data"
  top: "upscore-dsn2"
}
layer {
  name: "loss2-score"
  type: "SigmoidCrossEntropyLoss"
  bottom: "upscore-dsn2"
  bottom: "label"
  top: "loss2-score"
  loss_weight: 1
}
layer {
  name: "sigmoid-dsn1"
  type: "Sigmoid"
  bottom: "upscore-dsn2"
  top: "sigmoid-dsn1"
}
layer {
  name: "rev-dsn1"
  type: "Power"
  bottom: "sigmoid-dsn1"
  top: "rev-dsn1"
  power_param {
    power: 1
    scale: -1
    shift: 1
  }
}
layer {
  name: "tile-dsn1"
  type: "Tile"
  bottom: "rev-dsn1"
  top: "weight-dsn1"
  tile_param {
    tiles: 64
  }
}
layer {
  name: "prod1-dsn1"
  type: "Eltwise"
  bottom: "conv1_2"
  bottom: "weight-dsn1"
  top: "prod1-dsn1"
  eltwise_param {
    operation: PROD
  }
}
layer {
  name: "conv1-dsn1"
  type: "Convolution"
  bottom: "prod1-dsn1"
  top: "conv1-dsn1"
  param {
    lr_mult: 1
    decay_mult: 1
  }
  param {
    lr_mult: 2
    decay_mult: 0
  }
  convolution_param {
    num_output: 64
    kernel_size: 1
    weight_filler {
      type: "gaussian"
      std: 0.01
    }
    bias_filler {
      type: "constant"
      value: 0
    }
    engine: CUDNN
  }
}
layer {
  name: "conv2-dsn1"
  type: "Convolution"
  bottom: "conv1-dsn1"
  top: "conv2-dsn1"
  param {
    lr_mult: 1
    decay_mult: 1
  }
  param {
    lr_mult: 2
    decay_mult: 0
  }
  convolution_param {
    num_output: 64
    pad: 1
    kernel_size: 3
    weight_filler {
      type: "gaussian"
      std: 0.01
    }
    bias_filler {
      type: "constant"
      value: 0
    }
    engine: CUDNN
  }
}
layer {
  name: "relu1-dsn1"
  type: "ReLU"
  bottom: "conv2-dsn1"
  top: "conv2-dsn1"
}
layer {
  name: "conv3-dsn1"
  type: "Convolution"
  bottom: "conv2-dsn1"
  top: "conv3-dsn1"
  param {
    lr_mult: 1
    decay_mult: 1
  }
  param {
    lr_mult: 2
    decay_mult: 0
  }
  convolution_param {
    num_output: 64
    pad: 1
    kernel_size: 3
    weight_filler {
      type: "gaussian"
      std: 0.01
    }
    bias_filler {
      type: "constant"
      value: 0
    }
    engine: CUDNN
  }
}
layer {
  name: "relu2-dsn1"
  type: "ReLU"
  bottom: "conv3-dsn1"
  top: "conv3-dsn1"
}
layer {
  name: "conv4-dsn1"
  type: "Convolution"
  bottom: "conv3-dsn1"
  top: "conv4-dsn1"
  param {
    lr_mult: 1
    decay_mult: 1
  }
  param {
    lr_mult: 2
    decay_mult: 0
  }
  convolution_param {
    num_output: 1
    pad: 1
    kernel_size: 3
    weight_filler {
      type: "gaussian"
      std: 0.01
    }
    bias_filler {
      type: "constant"
      value: 0
    }
    engine: CUDNN
  }
}
layer {
  name: "sum-dsn1"
  type: "Eltwise"
  bottom: "conv4-dsn1"
  bottom: "upscore-dsn2"
  top: "sum-dsn1"
  eltwise_param {
    operation: SUM
  }
}
layer {
  name: "crop2-dsn1"
  type: "Crop"
  bottom: "sum-dsn1"
  bottom: "data"
  top: "upscore-dsn1"
}
layer {
  name: "loss1-score"
  type: "SigmoidCrossEntropyLoss"
  bottom: "upscore-dsn1"
  bottom: "label"
  top: "loss1-score"
  loss_weight: 1
}
I1125 10:10:33.003072 17022 layer_factory.hpp:77] Creating layer data
I1125 10:10:33.003083 17022 net.cpp:100] Creating Layer data
I1125 10:10:33.003087 17022 net.cpp:408] data -> data
I1125 10:10:33.003093 17022 net.cpp:408] data -> label
I1125 10:10:33.003100 17022 image_labelmap_data_layer.cpp:41] Opening file /media/compute/homes/galberding/FleckDetect/Datasets/val.txt
I1125 10:10:33.022557 17022 image_labelmap_data_layer.cpp:56] A total of 1200 images.
I1125 10:10:33.129693 17022 image_labelmap_data_layer.cpp:110] output data size: 1,3,500,500
I1125 10:10:33.129704 17022 image_labelmap_data_layer.cpp:113] output label size: 1,1,500,500
I1125 10:10:33.139098 17022 net.cpp:150] Setting up data
I1125 10:10:33.139111 17022 net.cpp:157] Top shape: 1 3 500 500 (750000)
I1125 10:10:33.139158 17022 net.cpp:157] Top shape: 1 1 500 500 (250000)
I1125 10:10:33.139159 17022 net.cpp:165] Memory required for data: 4000000
I1125 10:10:33.139164 17022 layer_factory.hpp:77] Creating layer data_data_0_split
I1125 10:10:33.139173 17022 net.cpp:100] Creating Layer data_data_0_split
I1125 10:10:33.139176 17022 net.cpp:434] data_data_0_split <- data
I1125 10:10:33.139181 17022 net.cpp:408] data_data_0_split -> data_data_0_split_0
I1125 10:10:33.139190 17022 net.cpp:408] data_data_0_split -> data_data_0_split_1
I1125 10:10:33.139195 17022 net.cpp:408] data_data_0_split -> data_data_0_split_2
I1125 10:10:33.139201 17022 net.cpp:408] data_data_0_split -> data_data_0_split_3
I1125 10:10:33.139205 17022 net.cpp:408] data_data_0_split -> data_data_0_split_4
I1125 10:10:33.139210 17022 net.cpp:408] data_data_0_split -> data_data_0_split_5
I1125 10:10:33.139214 17022 net.cpp:408] data_data_0_split -> data_data_0_split_6
I1125 10:10:33.139418 17022 net.cpp:150] Setting up data_data_0_split
I1125 10:10:33.139425 17022 net.cpp:157] Top shape: 1 3 500 500 (750000)
I1125 10:10:33.139430 17022 net.cpp:157] Top shape: 1 3 500 500 (750000)
I1125 10:10:33.139432 17022 net.cpp:157] Top shape: 1 3 500 500 (750000)
I1125 10:10:33.139436 17022 net.cpp:157] Top shape: 1 3 500 500 (750000)
I1125 10:10:33.139437 17022 net.cpp:157] Top shape: 1 3 500 500 (750000)
I1125 10:10:33.139441 17022 net.cpp:157] Top shape: 1 3 500 500 (750000)
I1125 10:10:33.139444 17022 net.cpp:157] Top shape: 1 3 500 500 (750000)
I1125 10:10:33.139461 17022 net.cpp:165] Memory required for data: 25000000
I1125 10:10:33.139463 17022 layer_factory.hpp:77] Creating layer label_data_1_split
I1125 10:10:33.139468 17022 net.cpp:100] Creating Layer label_data_1_split
I1125 10:10:33.139472 17022 net.cpp:434] label_data_1_split <- label
I1125 10:10:33.139475 17022 net.cpp:408] label_data_1_split -> label_data_1_split_0
I1125 10:10:33.139480 17022 net.cpp:408] label_data_1_split -> label_data_1_split_1
I1125 10:10:33.139485 17022 net.cpp:408] label_data_1_split -> label_data_1_split_2
I1125 10:10:33.139489 17022 net.cpp:408] label_data_1_split -> label_data_1_split_3
I1125 10:10:33.139493 17022 net.cpp:408] label_data_1_split -> label_data_1_split_4
I1125 10:10:33.139497 17022 net.cpp:408] label_data_1_split -> label_data_1_split_5
I1125 10:10:33.139590 17022 net.cpp:150] Setting up label_data_1_split
I1125 10:10:33.139597 17022 net.cpp:157] Top shape: 1 1 500 500 (250000)
I1125 10:10:33.139600 17022 net.cpp:157] Top shape: 1 1 500 500 (250000)
I1125 10:10:33.139603 17022 net.cpp:157] Top shape: 1 1 500 500 (250000)
I1125 10:10:33.139606 17022 net.cpp:157] Top shape: 1 1 500 500 (250000)
I1125 10:10:33.139609 17022 net.cpp:157] Top shape: 1 1 500 500 (250000)
I1125 10:10:33.139612 17022 net.cpp:157] Top shape: 1 1 500 500 (250000)
I1125 10:10:33.139614 17022 net.cpp:165] Memory required for data: 31000000
I1125 10:10:33.139616 17022 layer_factory.hpp:77] Creating layer conv1_1
I1125 10:10:33.139623 17022 net.cpp:100] Creating Layer conv1_1
I1125 10:10:33.139626 17022 net.cpp:434] conv1_1 <- data_data_0_split_0
I1125 10:10:33.139631 17022 net.cpp:408] conv1_1 -> conv1_1
I1125 10:10:33.142446 17022 net.cpp:150] Setting up conv1_1
I1125 10:10:33.142459 17022 net.cpp:157] Top shape: 1 64 500 500 (16000000)
I1125 10:10:33.142462 17022 net.cpp:165] Memory required for data: 95000000
I1125 10:10:33.142470 17022 layer_factory.hpp:77] Creating layer relu1_1
I1125 10:10:33.142479 17022 net.cpp:100] Creating Layer relu1_1
I1125 10:10:33.142482 17022 net.cpp:434] relu1_1 <- conv1_1
I1125 10:10:33.142485 17022 net.cpp:395] relu1_1 -> conv1_1 (in-place)
I1125 10:10:33.142686 17022 net.cpp:150] Setting up relu1_1
I1125 10:10:33.142696 17022 net.cpp:157] Top shape: 1 64 500 500 (16000000)
I1125 10:10:33.142699 17022 net.cpp:165] Memory required for data: 159000000
I1125 10:10:33.142701 17022 layer_factory.hpp:77] Creating layer conv1_2
I1125 10:10:33.142710 17022 net.cpp:100] Creating Layer conv1_2
I1125 10:10:33.142714 17022 net.cpp:434] conv1_2 <- conv1_1
I1125 10:10:33.142719 17022 net.cpp:408] conv1_2 -> conv1_2
I1125 10:10:33.144027 17022 net.cpp:150] Setting up conv1_2
I1125 10:10:33.144040 17022 net.cpp:157] Top shape: 1 64 500 500 (16000000)
I1125 10:10:33.144059 17022 net.cpp:165] Memory required for data: 223000000
I1125 10:10:33.144066 17022 layer_factory.hpp:77] Creating layer relu1_2
I1125 10:10:33.144071 17022 net.cpp:100] Creating Layer relu1_2
I1125 10:10:33.144074 17022 net.cpp:434] relu1_2 <- conv1_2
I1125 10:10:33.144078 17022 net.cpp:395] relu1_2 -> conv1_2 (in-place)
I1125 10:10:33.144608 17022 net.cpp:150] Setting up relu1_2
I1125 10:10:33.144619 17022 net.cpp:157] Top shape: 1 64 500 500 (16000000)
I1125 10:10:33.144637 17022 net.cpp:165] Memory required for data: 287000000
I1125 10:10:33.144641 17022 layer_factory.hpp:77] Creating layer conv1_2_relu1_2_0_split
I1125 10:10:33.144646 17022 net.cpp:100] Creating Layer conv1_2_relu1_2_0_split
I1125 10:10:33.144649 17022 net.cpp:434] conv1_2_relu1_2_0_split <- conv1_2
I1125 10:10:33.144654 17022 net.cpp:408] conv1_2_relu1_2_0_split -> conv1_2_relu1_2_0_split_0
I1125 10:10:33.144659 17022 net.cpp:408] conv1_2_relu1_2_0_split -> conv1_2_relu1_2_0_split_1
I1125 10:10:33.144706 17022 net.cpp:150] Setting up conv1_2_relu1_2_0_split
I1125 10:10:33.144711 17022 net.cpp:157] Top shape: 1 64 500 500 (16000000)
I1125 10:10:33.144714 17022 net.cpp:157] Top shape: 1 64 500 500 (16000000)
I1125 10:10:33.144716 17022 net.cpp:165] Memory required for data: 415000000
I1125 10:10:33.144719 17022 layer_factory.hpp:77] Creating layer pool1
I1125 10:10:33.144726 17022 net.cpp:100] Creating Layer pool1
I1125 10:10:33.144728 17022 net.cpp:434] pool1 <- conv1_2_relu1_2_0_split_0
I1125 10:10:33.144732 17022 net.cpp:408] pool1 -> pool1
I1125 10:10:33.144773 17022 net.cpp:150] Setting up pool1
I1125 10:10:33.144779 17022 net.cpp:157] Top shape: 1 64 250 250 (4000000)
I1125 10:10:33.144781 17022 net.cpp:165] Memory required for data: 431000000
I1125 10:10:33.144784 17022 layer_factory.hpp:77] Creating layer conv2_1
I1125 10:10:33.144790 17022 net.cpp:100] Creating Layer conv2_1
I1125 10:10:33.144793 17022 net.cpp:434] conv2_1 <- pool1
I1125 10:10:33.144798 17022 net.cpp:408] conv2_1 -> conv2_1
I1125 10:10:33.145977 17022 net.cpp:150] Setting up conv2_1
I1125 10:10:33.146005 17022 net.cpp:157] Top shape: 1 128 250 250 (8000000)
I1125 10:10:33.146008 17022 net.cpp:165] Memory required for data: 463000000
I1125 10:10:33.146016 17022 layer_factory.hpp:77] Creating layer relu2_1
I1125 10:10:33.146023 17022 net.cpp:100] Creating Layer relu2_1
I1125 10:10:33.146025 17022 net.cpp:434] relu2_1 <- conv2_1
I1125 10:10:33.146031 17022 net.cpp:395] relu2_1 -> conv2_1 (in-place)
I1125 10:10:33.146522 17022 net.cpp:150] Setting up relu2_1
I1125 10:10:33.146548 17022 net.cpp:157] Top shape: 1 128 250 250 (8000000)
I1125 10:10:33.146550 17022 net.cpp:165] Memory required for data: 495000000
I1125 10:10:33.146553 17022 layer_factory.hpp:77] Creating layer conv2_2
I1125 10:10:33.146561 17022 net.cpp:100] Creating Layer conv2_2
I1125 10:10:33.146565 17022 net.cpp:434] conv2_2 <- conv2_1
I1125 10:10:33.146570 17022 net.cpp:408] conv2_2 -> conv2_2
I1125 10:10:33.149297 17022 net.cpp:150] Setting up conv2_2
I1125 10:10:33.149325 17022 net.cpp:157] Top shape: 1 128 250 250 (8000000)
I1125 10:10:33.149328 17022 net.cpp:165] Memory required for data: 527000000
I1125 10:10:33.149334 17022 layer_factory.hpp:77] Creating layer relu2_2
I1125 10:10:33.149340 17022 net.cpp:100] Creating Layer relu2_2
I1125 10:10:33.149343 17022 net.cpp:434] relu2_2 <- conv2_2
I1125 10:10:33.149348 17022 net.cpp:395] relu2_2 -> conv2_2 (in-place)
I1125 10:10:33.149530 17022 net.cpp:150] Setting up relu2_2
I1125 10:10:33.149539 17022 net.cpp:157] Top shape: 1 128 250 250 (8000000)
I1125 10:10:33.149541 17022 net.cpp:165] Memory required for data: 559000000
I1125 10:10:33.149544 17022 layer_factory.hpp:77] Creating layer conv2_2_relu2_2_0_split
I1125 10:10:33.149549 17022 net.cpp:100] Creating Layer conv2_2_relu2_2_0_split
I1125 10:10:33.149552 17022 net.cpp:434] conv2_2_relu2_2_0_split <- conv2_2
I1125 10:10:33.149557 17022 net.cpp:408] conv2_2_relu2_2_0_split -> conv2_2_relu2_2_0_split_0
I1125 10:10:33.149564 17022 net.cpp:408] conv2_2_relu2_2_0_split -> conv2_2_relu2_2_0_split_1
I1125 10:10:33.149569 17022 net.cpp:408] conv2_2_relu2_2_0_split -> conv2_2_relu2_2_0_split_2
I1125 10:10:33.149629 17022 net.cpp:150] Setting up conv2_2_relu2_2_0_split
I1125 10:10:33.149636 17022 net.cpp:157] Top shape: 1 128 250 250 (8000000)
I1125 10:10:33.149641 17022 net.cpp:157] Top shape: 1 128 250 250 (8000000)
I1125 10:10:33.149643 17022 net.cpp:157] Top shape: 1 128 250 250 (8000000)
I1125 10:10:33.149644 17022 net.cpp:165] Memory required for data: 655000000
I1125 10:10:33.149647 17022 layer_factory.hpp:77] Creating layer pool2
I1125 10:10:33.149652 17022 net.cpp:100] Creating Layer pool2
I1125 10:10:33.149655 17022 net.cpp:434] pool2 <- conv2_2_relu2_2_0_split_0
I1125 10:10:33.149660 17022 net.cpp:408] pool2 -> pool2
I1125 10:10:33.149701 17022 net.cpp:150] Setting up pool2
I1125 10:10:33.149708 17022 net.cpp:157] Top shape: 1 128 125 125 (2000000)
I1125 10:10:33.149709 17022 net.cpp:165] Memory required for data: 663000000
I1125 10:10:33.149711 17022 layer_factory.hpp:77] Creating layer conv3_1
I1125 10:10:33.149718 17022 net.cpp:100] Creating Layer conv3_1
I1125 10:10:33.149722 17022 net.cpp:434] conv3_1 <- pool2
I1125 10:10:33.149727 17022 net.cpp:408] conv3_1 -> conv3_1
I1125 10:10:33.152555 17022 net.cpp:150] Setting up conv3_1
I1125 10:10:33.152583 17022 net.cpp:157] Top shape: 1 256 125 125 (4000000)
I1125 10:10:33.152586 17022 net.cpp:165] Memory required for data: 679000000
I1125 10:10:33.152595 17022 layer_factory.hpp:77] Creating layer relu3_1
I1125 10:10:33.152603 17022 net.cpp:100] Creating Layer relu3_1
I1125 10:10:33.152606 17022 net.cpp:434] relu3_1 <- conv3_1
I1125 10:10:33.152611 17022 net.cpp:395] relu3_1 -> conv3_1 (in-place)
I1125 10:10:33.152792 17022 net.cpp:150] Setting up relu3_1
I1125 10:10:33.152801 17022 net.cpp:157] Top shape: 1 256 125 125 (4000000)
I1125 10:10:33.152802 17022 net.cpp:165] Memory required for data: 695000000
I1125 10:10:33.152806 17022 layer_factory.hpp:77] Creating layer conv3_2
I1125 10:10:33.152812 17022 net.cpp:100] Creating Layer conv3_2
I1125 10:10:33.152815 17022 net.cpp:434] conv3_2 <- conv3_1
I1125 10:10:33.152822 17022 net.cpp:408] conv3_2 -> conv3_2
I1125 10:10:33.155993 17022 net.cpp:150] Setting up conv3_2
I1125 10:10:33.156021 17022 net.cpp:157] Top shape: 1 256 125 125 (4000000)
I1125 10:10:33.156023 17022 net.cpp:165] Memory required for data: 711000000
I1125 10:10:33.156030 17022 layer_factory.hpp:77] Creating layer relu3_2
I1125 10:10:33.156036 17022 net.cpp:100] Creating Layer relu3_2
I1125 10:10:33.156039 17022 net.cpp:434] relu3_2 <- conv3_2
I1125 10:10:33.156046 17022 net.cpp:395] relu3_2 -> conv3_2 (in-place)
I1125 10:10:33.156255 17022 net.cpp:150] Setting up relu3_2
I1125 10:10:33.156265 17022 net.cpp:157] Top shape: 1 256 125 125 (4000000)
I1125 10:10:33.156267 17022 net.cpp:165] Memory required for data: 727000000
I1125 10:10:33.156270 17022 layer_factory.hpp:77] Creating layer conv3_3
I1125 10:10:33.156278 17022 net.cpp:100] Creating Layer conv3_3
I1125 10:10:33.156281 17022 net.cpp:434] conv3_3 <- conv3_2
I1125 10:10:33.156287 17022 net.cpp:408] conv3_3 -> conv3_3
I1125 10:10:33.159394 17022 net.cpp:150] Setting up conv3_3
I1125 10:10:33.159406 17022 net.cpp:157] Top shape: 1 256 125 125 (4000000)
I1125 10:10:33.159409 17022 net.cpp:165] Memory required for data: 743000000
I1125 10:10:33.159415 17022 layer_factory.hpp:77] Creating layer relu3_3
I1125 10:10:33.159437 17022 net.cpp:100] Creating Layer relu3_3
I1125 10:10:33.159441 17022 net.cpp:434] relu3_3 <- conv3_3
I1125 10:10:33.159446 17022 net.cpp:395] relu3_3 -> conv3_3 (in-place)
I1125 10:10:33.159629 17022 net.cpp:150] Setting up relu3_3
I1125 10:10:33.159641 17022 net.cpp:157] Top shape: 1 256 125 125 (4000000)
I1125 10:10:33.159642 17022 net.cpp:165] Memory required for data: 759000000
I1125 10:10:33.159646 17022 layer_factory.hpp:77] Creating layer conv3_3_relu3_3_0_split
I1125 10:10:33.159651 17022 net.cpp:100] Creating Layer conv3_3_relu3_3_0_split
I1125 10:10:33.159652 17022 net.cpp:434] conv3_3_relu3_3_0_split <- conv3_3
I1125 10:10:33.159657 17022 net.cpp:408] conv3_3_relu3_3_0_split -> conv3_3_relu3_3_0_split_0
I1125 10:10:33.159665 17022 net.cpp:408] conv3_3_relu3_3_0_split -> conv3_3_relu3_3_0_split_1
I1125 10:10:33.159669 17022 net.cpp:408] conv3_3_relu3_3_0_split -> conv3_3_relu3_3_0_split_2
I1125 10:10:33.159734 17022 net.cpp:150] Setting up conv3_3_relu3_3_0_split
I1125 10:10:33.159793 17022 net.cpp:157] Top shape: 1 256 125 125 (4000000)
I1125 10:10:33.159796 17022 net.cpp:157] Top shape: 1 256 125 125 (4000000)
I1125 10:10:33.159799 17022 net.cpp:157] Top shape: 1 256 125 125 (4000000)
I1125 10:10:33.159801 17022 net.cpp:165] Memory required for data: 807000000
I1125 10:10:33.159803 17022 layer_factory.hpp:77] Creating layer pool3
I1125 10:10:33.159808 17022 net.cpp:100] Creating Layer pool3
I1125 10:10:33.159811 17022 net.cpp:434] pool3 <- conv3_3_relu3_3_0_split_0
I1125 10:10:33.159817 17022 net.cpp:408] pool3 -> pool3
I1125 10:10:33.159865 17022 net.cpp:150] Setting up pool3
I1125 10:10:33.159873 17022 net.cpp:157] Top shape: 1 256 63 63 (1016064)
I1125 10:10:33.159874 17022 net.cpp:165] Memory required for data: 811064256
I1125 10:10:33.159876 17022 layer_factory.hpp:77] Creating layer conv4_1
I1125 10:10:33.159884 17022 net.cpp:100] Creating Layer conv4_1
I1125 10:10:33.159888 17022 net.cpp:434] conv4_1 <- pool3
I1125 10:10:33.159893 17022 net.cpp:408] conv4_1 -> conv4_1
I1125 10:10:33.164178 17022 net.cpp:150] Setting up conv4_1
I1125 10:10:33.164206 17022 net.cpp:157] Top shape: 1 512 63 63 (2032128)
I1125 10:10:33.164209 17022 net.cpp:165] Memory required for data: 819192768
I1125 10:10:33.164214 17022 layer_factory.hpp:77] Creating layer relu4_1
I1125 10:10:33.164219 17022 net.cpp:100] Creating Layer relu4_1
I1125 10:10:33.164222 17022 net.cpp:434] relu4_1 <- conv4_1
I1125 10:10:33.164228 17022 net.cpp:395] relu4_1 -> conv4_1 (in-place)
I1125 10:10:33.164737 17022 net.cpp:150] Setting up relu4_1
I1125 10:10:33.164749 17022 net.cpp:157] Top shape: 1 512 63 63 (2032128)
I1125 10:10:33.164767 17022 net.cpp:165] Memory required for data: 827321280
I1125 10:10:33.164769 17022 layer_factory.hpp:77] Creating layer conv4_2
I1125 10:10:33.164778 17022 net.cpp:100] Creating Layer conv4_2
I1125 10:10:33.164782 17022 net.cpp:434] conv4_2 <- conv4_1
I1125 10:10:33.164788 17022 net.cpp:408] conv4_2 -> conv4_2
I1125 10:10:33.170971 17022 net.cpp:150] Setting up conv4_2
I1125 10:10:33.170984 17022 net.cpp:157] Top shape: 1 512 63 63 (2032128)
I1125 10:10:33.171003 17022 net.cpp:165] Memory required for data: 835449792
I1125 10:10:33.171013 17022 layer_factory.hpp:77] Creating layer relu4_2
I1125 10:10:33.171020 17022 net.cpp:100] Creating Layer relu4_2
I1125 10:10:33.171023 17022 net.cpp:434] relu4_2 <- conv4_2
I1125 10:10:33.171030 17022 net.cpp:395] relu4_2 -> conv4_2 (in-place)
I1125 10:10:33.171562 17022 net.cpp:150] Setting up relu4_2
I1125 10:10:33.171573 17022 net.cpp:157] Top shape: 1 512 63 63 (2032128)
I1125 10:10:33.171591 17022 net.cpp:165] Memory required for data: 843578304
I1125 10:10:33.171594 17022 layer_factory.hpp:77] Creating layer conv4_3
I1125 10:10:33.171617 17022 net.cpp:100] Creating Layer conv4_3
I1125 10:10:33.171622 17022 net.cpp:434] conv4_3 <- conv4_2
I1125 10:10:33.171627 17022 net.cpp:408] conv4_3 -> conv4_3
I1125 10:10:33.178494 17022 net.cpp:150] Setting up conv4_3
I1125 10:10:33.178522 17022 net.cpp:157] Top shape: 1 512 63 63 (2032128)
I1125 10:10:33.178525 17022 net.cpp:165] Memory required for data: 851706816
I1125 10:10:33.178531 17022 layer_factory.hpp:77] Creating layer relu4_3
I1125 10:10:33.178537 17022 net.cpp:100] Creating Layer relu4_3
I1125 10:10:33.178540 17022 net.cpp:434] relu4_3 <- conv4_3
I1125 10:10:33.178546 17022 net.cpp:395] relu4_3 -> conv4_3 (in-place)
I1125 10:10:33.178723 17022 net.cpp:150] Setting up relu4_3
I1125 10:10:33.178731 17022 net.cpp:157] Top shape: 1 512 63 63 (2032128)
I1125 10:10:33.178733 17022 net.cpp:165] Memory required for data: 859835328
I1125 10:10:33.178735 17022 layer_factory.hpp:77] Creating layer conv4_3_relu4_3_0_split
I1125 10:10:33.178741 17022 net.cpp:100] Creating Layer conv4_3_relu4_3_0_split
I1125 10:10:33.178745 17022 net.cpp:434] conv4_3_relu4_3_0_split <- conv4_3
I1125 10:10:33.178750 17022 net.cpp:408] conv4_3_relu4_3_0_split -> conv4_3_relu4_3_0_split_0
I1125 10:10:33.178756 17022 net.cpp:408] conv4_3_relu4_3_0_split -> conv4_3_relu4_3_0_split_1
I1125 10:10:33.178761 17022 net.cpp:408] conv4_3_relu4_3_0_split -> conv4_3_relu4_3_0_split_2
I1125 10:10:33.178823 17022 net.cpp:150] Setting up conv4_3_relu4_3_0_split
I1125 10:10:33.178828 17022 net.cpp:157] Top shape: 1 512 63 63 (2032128)
I1125 10:10:33.178831 17022 net.cpp:157] Top shape: 1 512 63 63 (2032128)
I1125 10:10:33.178834 17022 net.cpp:157] Top shape: 1 512 63 63 (2032128)
I1125 10:10:33.178836 17022 net.cpp:165] Memory required for data: 884220864
I1125 10:10:33.178838 17022 layer_factory.hpp:77] Creating layer pool4
I1125 10:10:33.178845 17022 net.cpp:100] Creating Layer pool4
I1125 10:10:33.178848 17022 net.cpp:434] pool4 <- conv4_3_relu4_3_0_split_0
I1125 10:10:33.178854 17022 net.cpp:408] pool4 -> pool4
I1125 10:10:33.178896 17022 net.cpp:150] Setting up pool4
I1125 10:10:33.178954 17022 net.cpp:157] Top shape: 1 512 32 32 (524288)
I1125 10:10:33.178956 17022 net.cpp:165] Memory required for data: 886318016
I1125 10:10:33.178973 17022 layer_factory.hpp:77] Creating layer conv5_1
I1125 10:10:33.178982 17022 net.cpp:100] Creating Layer conv5_1
I1125 10:10:33.178984 17022 net.cpp:434] conv5_1 <- pool4
I1125 10:10:33.178990 17022 net.cpp:408] conv5_1 -> conv5_1
I1125 10:10:33.185431 17022 net.cpp:150] Setting up conv5_1
I1125 10:10:33.185446 17022 net.cpp:157] Top shape: 1 512 32 32 (524288)
I1125 10:10:33.185449 17022 net.cpp:165] Memory required for data: 888415168
I1125 10:10:33.185456 17022 layer_factory.hpp:77] Creating layer relu5_1
I1125 10:10:33.185469 17022 net.cpp:100] Creating Layer relu5_1
I1125 10:10:33.185472 17022 net.cpp:434] relu5_1 <- conv5_1
I1125 10:10:33.185477 17022 net.cpp:395] relu5_1 -> conv5_1 (in-place)
I1125 10:10:33.185647 17022 net.cpp:150] Setting up relu5_1
I1125 10:10:33.185654 17022 net.cpp:157] Top shape: 1 512 32 32 (524288)
I1125 10:10:33.185657 17022 net.cpp:165] Memory required for data: 890512320
I1125 10:10:33.185659 17022 layer_factory.hpp:77] Creating layer conv5_2
I1125 10:10:33.185667 17022 net.cpp:100] Creating Layer conv5_2
I1125 10:10:33.185669 17022 net.cpp:434] conv5_2 <- conv5_1
I1125 10:10:33.185674 17022 net.cpp:408] conv5_2 -> conv5_2
I1125 10:10:33.191817 17022 net.cpp:150] Setting up conv5_2
I1125 10:10:33.191829 17022 net.cpp:157] Top shape: 1 512 32 32 (524288)
I1125 10:10:33.191831 17022 net.cpp:165] Memory required for data: 892609472
I1125 10:10:33.191838 17022 layer_factory.hpp:77] Creating layer relu5_2
I1125 10:10:33.191844 17022 net.cpp:100] Creating Layer relu5_2
I1125 10:10:33.191846 17022 net.cpp:434] relu5_2 <- conv5_2
I1125 10:10:33.191851 17022 net.cpp:395] relu5_2 -> conv5_2 (in-place)
I1125 10:10:33.192019 17022 net.cpp:150] Setting up relu5_2
I1125 10:10:33.192028 17022 net.cpp:157] Top shape: 1 512 32 32 (524288)
I1125 10:10:33.192030 17022 net.cpp:165] Memory required for data: 894706624
I1125 10:10:33.192032 17022 layer_factory.hpp:77] Creating layer conv5_3
I1125 10:10:33.192040 17022 net.cpp:100] Creating Layer conv5_3
I1125 10:10:33.192044 17022 net.cpp:434] conv5_3 <- conv5_2
I1125 10:10:33.192047 17022 net.cpp:408] conv5_3 -> conv5_3
I1125 10:10:33.198171 17022 net.cpp:150] Setting up conv5_3
I1125 10:10:33.198184 17022 net.cpp:157] Top shape: 1 512 32 32 (524288)
I1125 10:10:33.198185 17022 net.cpp:165] Memory required for data: 896803776
I1125 10:10:33.198191 17022 layer_factory.hpp:77] Creating layer relu5_3
I1125 10:10:33.198195 17022 net.cpp:100] Creating Layer relu5_3
I1125 10:10:33.198199 17022 net.cpp:434] relu5_3 <- conv5_3
I1125 10:10:33.198204 17022 net.cpp:395] relu5_3 -> conv5_3 (in-place)
I1125 10:10:33.198371 17022 net.cpp:150] Setting up relu5_3
I1125 10:10:33.198379 17022 net.cpp:157] Top shape: 1 512 32 32 (524288)
I1125 10:10:33.198380 17022 net.cpp:165] Memory required for data: 898900928
I1125 10:10:33.198384 17022 layer_factory.hpp:77] Creating layer conv5_3_relu5_3_0_split
I1125 10:10:33.198390 17022 net.cpp:100] Creating Layer conv5_3_relu5_3_0_split
I1125 10:10:33.198392 17022 net.cpp:434] conv5_3_relu5_3_0_split <- conv5_3
I1125 10:10:33.198396 17022 net.cpp:408] conv5_3_relu5_3_0_split -> conv5_3_relu5_3_0_split_0
I1125 10:10:33.198403 17022 net.cpp:408] conv5_3_relu5_3_0_split -> conv5_3_relu5_3_0_split_1
I1125 10:10:33.198407 17022 net.cpp:408] conv5_3_relu5_3_0_split -> conv5_3_relu5_3_0_split_2
I1125 10:10:33.198467 17022 net.cpp:150] Setting up conv5_3_relu5_3_0_split
I1125 10:10:33.198472 17022 net.cpp:157] Top shape: 1 512 32 32 (524288)
I1125 10:10:33.198474 17022 net.cpp:157] Top shape: 1 512 32 32 (524288)
I1125 10:10:33.198478 17022 net.cpp:157] Top shape: 1 512 32 32 (524288)
I1125 10:10:33.198479 17022 net.cpp:165] Memory required for data: 905192384
I1125 10:10:33.198482 17022 layer_factory.hpp:77] Creating layer pool5
I1125 10:10:33.198490 17022 net.cpp:100] Creating Layer pool5
I1125 10:10:33.198493 17022 net.cpp:434] pool5 <- conv5_3_relu5_3_0_split_0
I1125 10:10:33.198496 17022 net.cpp:408] pool5 -> pool5
I1125 10:10:33.198541 17022 net.cpp:150] Setting up pool5
…
I1125 10:10:33.250560 17022 net.cpp:165] Memory required for data: 907559872
I1125 10:10:33.250574 17022 layer_factory.hpp:77] Creating layer relu3-dsn6
I1125 10:10:33.250579 17022 net.cpp:100] Creating Layer relu3-dsn6
I1125 10:10:33.250581 17022 net.cpp:434] relu3-dsn6 <- conv4-dsn6
I1125 10:10:33.250586 17022 net.cpp:395] relu3-dsn6 -> conv4-dsn6 (in-place)
I1125 10:10:33.250756 17022 net.cpp:150] Setting up relu3-dsn6
I1125 10:10:33.250778 17022 net.cpp:157] Top shape: 1 256 17 17 (73984)
I1125 10:10:33.250780 17022 net.cpp:165] Memory required for data: 907855808
I1125 10:10:33.250782 17022 layer_factory.hpp:77] Creating layer conv5-dsn6
I1125 10:10:33.250792 17022 net.cpp:100] Creating Layer conv5-dsn6
I1125 10:10:33.250794 17022 net.cpp:434] conv5-dsn6 <- conv4-dsn6
I1125 10:10:33.250800 17022 net.cpp:408] conv5-dsn6 -> conv5-dsn6
I1125 10:10:33.251986 17022 net.cpp:150] Setting up conv5-dsn6
I1125 10:10:33.251996 17022 net.cpp:157] Top shape: 1 1 17 17 (289)
I1125 10:10:33.252013 17022 net.cpp:165] Memory required for data: 907856964
I1125 10:10:33.252018 17022 layer_factory.hpp:77] Creating layer conv5-dsn6_conv5-dsn6_0_split
I1125 10:10:33.252023 17022 net.cpp:100] Creating Layer conv5-dsn6_conv5-dsn6_0_split
I1125 10:10:33.252027 17022 net.cpp:434] conv5-dsn6_conv5-dsn6_0_split <- conv5-dsn6
I1125 10:10:33.252032 17022 net.cpp:408] conv5-dsn6_conv5-dsn6_0_split -> conv5-dsn6_conv5-dsn6_0_split_0
I1125 10:10:33.252038 17022 net.cpp:408] conv5-dsn6_conv5-dsn6_0_split -> conv5-dsn6_conv5-dsn6_0_split_1
I1125 10:10:33.252084 17022 net.cpp:150] Setting up conv5-dsn6_conv5-dsn6_0_split
I1125 10:10:33.252087 17022 net.cpp:157] Top shape: 1 1 17 17 (289)
I1125 10:10:33.252090 17022 net.cpp:157] Top shape: 1 1 17 17 (289)
I1125 10:10:33.252091 17022 net.cpp:165] Memory required for data: 907859276
I1125 10:10:33.252094 17022 layer_factory.hpp:77] Creating layer upsample32_dsn6
I1125 10:10:33.252102 17022 net.cpp:100] Creating Layer upsample32_dsn6
I1125 10:10:33.252105 17022 net.cpp:434] upsample32_dsn6 <- conv5-dsn6_conv5-dsn6_0_split_0
I1125 10:10:33.252110 17022 net.cpp:408] upsample32_dsn6 -> conv5-dsn6-up
I1125 10:10:33.253608 17022 net.cpp:150] Setting up upsample32_dsn6
I1125 10:10:33.253619 17022 net.cpp:157] Top shape: 1 1 576 576 (331776)
I1125 10:10:33.253636 17022 net.cpp:165] Memory required for data: 909186380
I1125 10:10:33.253643 17022 layer_factory.hpp:77] Creating layer crop-dsn6
I1125 10:10:33.253648 17022 net.cpp:100] Creating Layer crop-dsn6
I1125 10:10:33.253650 17022 net.cpp:434] crop-dsn6 <- conv5-dsn6-up
I1125 10:10:33.253654 17022 net.cpp:434] crop-dsn6 <- data_data_0_split_1
I1125 10:10:33.253660 17022 net.cpp:408] crop-dsn6 -> upscore-dsn6
I1125 10:10:33.253696 17022 net.cpp:150] Setting up crop-dsn6
I1125 10:10:33.253701 17022 net.cpp:157] Top shape: 1 1 500 500 (250000)
I1125 10:10:33.253702 17022 net.cpp:165] Memory required for data: 910186380
I1125 10:10:33.253705 17022 layer_factory.hpp:77] Creating layer loss6-score
I1125 10:10:33.253715 17022 net.cpp:100] Creating Layer loss6-score
I1125 10:10:33.253717 17022 net.cpp:434] loss6-score <- upscore-dsn6
I1125 10:10:33.253720 17022 net.cpp:434] loss6-score <- label_data_1_split_0
I1125 10:10:33.253724 17022 net.cpp:408] loss6-score -> loss6-score
I1125 10:10:33.255049 17022 net.cpp:150] Setting up loss6-score
I1125 10:10:33.255059 17022 net.cpp:157] Top shape: (1)
I1125 10:10:33.255076 17022 net.cpp:160]     with loss weight 1
I1125 10:10:33.255087 17022 net.cpp:165] Memory required for data: 910186384
I1125 10:10:33.255090 17022 layer_factory.hpp:77] Creating layer upsample2_dsn5
I1125 10:10:33.255096 17022 net.cpp:100] Creating Layer upsample2_dsn5
I1125 10:10:33.255100 17022 net.cpp:434] upsample2_dsn5 <- conv5-dsn6_conv5-dsn6_0_split_1
I1125 10:10:33.255106 17022 net.cpp:408] upsample2_dsn5 -> conv5-dsn6-5
I1125 10:10:33.255436 17022 net.cpp:150] Setting up upsample2_dsn5
I1125 10:10:33.255445 17022 net.cpp:157] Top shape: 1 1 36 36 (1296)
I1125 10:10:33.255446 17022 net.cpp:165] Memory required for data: 910191568
I1125 10:10:33.255451 17022 layer_factory.hpp:77] Creating layer crop1-dsn5
I1125 10:10:33.255457 17022 net.cpp:100] Creating Layer crop1-dsn5
I1125 10:10:33.255475 17022 net.cpp:434] crop1-dsn5 <- conv5-dsn6-5
I1125 10:10:33.255478 17022 net.cpp:434] crop1-dsn5 <- conv5_3_relu5_3_0_split_1
I1125 10:10:33.255482 17022 net.cpp:408] crop1-dsn5 -> weight-dsn6-5
I1125 10:10:33.255509 17022 net.cpp:150] Setting up crop1-dsn5
I1125 10:10:33.255515 17022 net.cpp:157] Top shape: 1 1 32 32 (1024)
I1125 10:10:33.255517 17022 net.cpp:165] Memory required for data: 910195664
I1125 10:10:33.255519 17022 layer_factory.hpp:77] Creating layer weight-dsn6-5_crop1-dsn5_0_split
I1125 10:10:33.255523 17022 net.cpp:100] Creating Layer weight-dsn6-5_crop1-dsn5_0_split
I1125 10:10:33.255527 17022 net.cpp:434] weight-dsn6-5_crop1-dsn5_0_split <- weight-dsn6-5
I1125 10:10:33.255532 17022 net.cpp:408] weight-dsn6-5_crop1-dsn5_0_split -> weight-dsn6-5_crop1-dsn5_0_split_0
I1125 10:10:33.255537 17022 net.cpp:408] weight-dsn6-5_crop1-dsn5_0_split -> weight-dsn6-5_crop1-dsn5_0_split_1
I1125 10:10:33.255576 17022 net.cpp:150] Setting up weight-dsn6-5_crop1-dsn5_0_split
I1125 10:10:33.255581 17022 net.cpp:157] Top shape: 1 1 32 32 (1024)
I1125 10:10:33.255584 17022 net.cpp:157] Top shape: 1 1 32 32 (1024)
I1125 10:10:33.255586 17022 net.cpp:165] Memory required for data: 910203856
I1125 10:10:33.255589 17022 layer_factory.hpp:77] Creating layer sigmoid-dsn5
I1125 10:10:33.255594 17022 net.cpp:100] Creating Layer sigmoid-dsn5
I1125 10:10:33.255596 17022 net.cpp:434] sigmoid-dsn5 <- weight-dsn6-5_crop1-dsn5_0_split_0
I1125 10:10:33.255601 17022 net.cpp:408] sigmoid-dsn5 -> sigmoid-dsn5
I1125 10:10:33.255810 17022 net.cpp:150] Setting up sigmoid-dsn5
I1125 10:10:33.255817 17022 net.cpp:157] Top shape: 1 1 32 32 (1024)
I1125 10:10:33.255820 17022 net.cpp:165] Memory required for data: 910207952
I1125 10:10:33.255821 17022 layer_factory.hpp:77] Creating layer rev-dsn5
I1125 10:10:33.255827 17022 net.cpp:100] Creating Layer rev-dsn5
I1125 10:10:33.255831 17022 net.cpp:434] rev-dsn5 <- sigmoid-dsn5
I1125 10:10:33.255836 17022 net.cpp:408] rev-dsn5 -> rev-dsn5
I1125 10:10:33.255861 17022 net.cpp:150] Setting up rev-dsn5
I1125 10:10:33.255867 17022 net.cpp:157] Top shape: 1 1 32 32 (1024)
I1125 10:10:33.255869 17022 net.cpp:165] Memory required for data: 910212048
I1125 10:10:33.255872 17022 layer_factory.hpp:77] Creating layer tile-dsn5
I1125 10:10:33.255878 17022 net.cpp:100] Creating Layer tile-dsn5
I1125 10:10:33.255880 17022 net.cpp:434] tile-dsn5 <- rev-dsn5
I1125 10:10:33.255885 17022 net.cpp:408] tile-dsn5 -> weight-dsn5
I1125 10:10:33.255910 17022 net.cpp:150] Setting up tile-dsn5
I1125 10:10:33.255915 17022 net.cpp:157] Top shape: 1 512 32 32 (524288)
I1125 10:10:33.255918 17022 net.cpp:165] Memory required for data: 912309200
I1125 10:10:33.255920 17022 layer_factory.hpp:77] Creating layer prod1-dsn5
I1125 10:10:33.255928 17022 net.cpp:100] Creating Layer prod1-dsn5
I1125 10:10:33.255929 17022 net.cpp:434] prod1-dsn5 <- conv5_3_relu5_3_0_split_2
I1125 10:10:33.255934 17022 net.cpp:434] prod1-dsn5 <- weight-dsn5
I1125 10:10:33.255936 17022 net.cpp:408] prod1-dsn5 -> prod1-dsn5
I1125 10:10:33.255975 17022 net.cpp:150] Setting up prod1-dsn5
I1125 10:10:33.255981 17022 net.cpp:157] Top shape: 1 512 32 32 (524288)
I1125 10:10:33.255983 17022 net.cpp:165] Memory required for data: 914406352
I1125 10:10:33.255986 17022 layer_factory.hpp:77] Creating layer conv1-dsn5
I1125 10:10:33.255995 17022 net.cpp:100] Creating Layer conv1-dsn5
I1125 10:10:33.255997 17022 net.cpp:434] conv1-dsn5 <- prod1-dsn5
I1125 10:10:33.256003 17022 net.cpp:408] conv1-dsn5 -> conv1-dsn5
I1125 10:10:33.257426 17022 net.cpp:150] Setting up conv1-dsn5
I1125 10:10:33.257436 17022 net.cpp:157] Top shape: 1 64 32 32 (65536)
I1125 10:10:33.257453 17022 net.cpp:165] Memory required for data: 914668496
I1125 10:10:33.257458 17022 layer_factory.hpp:77] Creating layer conv2-dsn5
I1125 10:10:33.257467 17022 net.cpp:100] Creating Layer conv2-dsn5
I1125 10:10:33.257470 17022 net.cpp:434] conv2-dsn5 <- conv1-dsn5
I1125 10:10:33.257477 17022 net.cpp:408] conv2-dsn5 -> conv2-dsn5
I1125 10:10:33.258903 17022 net.cpp:150] Setting up conv2-dsn5
I1125 10:10:33.258913 17022 net.cpp:157] Top shape: 1 64 32 32 (65536)
I1125 10:10:33.258930 17022 net.cpp:165] Memory required for data: 914930640
I1125 10:10:33.258935 17022 layer_factory.hpp:77] Creating layer relu1-dsn5
I1125 10:10:33.258940 17022 net.cpp:100] Creating Layer relu1-dsn5
I1125 10:10:33.258944 17022 net.cpp:434] relu1-dsn5 <- conv2-dsn5
I1125 10:10:33.258949 17022 net.cpp:395] relu1-dsn5 -> conv2-dsn5 (in-place)
I1125 10:10:33.259119 17022 net.cpp:150] Setting up relu1-dsn5
I1125 10:10:33.259145 17022 net.cpp:157] Top shape: 1 64 32 32 (65536)
I1125 10:10:33.259148 17022 net.cpp:165] Memory required for data: 915192784
I1125 10:10:33.259150 17022 layer_factory.hpp:77] Creating layer conv3-dsn5
I1125 10:10:33.259160 17022 net.cpp:100] Creating Layer conv3-dsn5
I1125 10:10:33.259162 17022 net.cpp:434] conv3-dsn5 <- conv2-dsn5
I1125 10:10:33.259169 17022 net.cpp:408] conv3-dsn5 -> conv3-dsn5
I1125 10:10:33.260681 17022 net.cpp:150] Setting up conv3-dsn5
I1125 10:10:33.260691 17022 net.cpp:157] Top shape: 1 64 32 32 (65536)
I1125 10:10:33.260694 17022 net.cpp:165] Memory required for data: 915454928
I1125 10:10:33.260699 17022 layer_factory.hpp:77] Creating layer relu2-dsn5
I1125 10:10:33.260704 17022 net.cpp:100] Creating Layer relu2-dsn5
I1125 10:10:33.260707 17022 net.cpp:434] relu2-dsn5 <- conv3-dsn5
I1125 10:10:33.260710 17022 net.cpp:395] relu2-dsn5 -> conv3-dsn5 (in-place)
I1125 10:10:33.260872 17022 net.cpp:150] Setting up relu2-dsn5
I1125 10:10:33.260879 17022 net.cpp:157] Top shape: 1 64 32 32 (65536)
I1125 10:10:33.260881 17022 net.cpp:165] Memory required for data: 915717072
I1125 10:10:33.260885 17022 layer_factory.hpp:77] Creating layer conv4-dsn5
I1125 10:10:33.260892 17022 net.cpp:100] Creating Layer conv4-dsn5
I1125 10:10:33.260897 17022 net.cpp:434] conv4-dsn5 <- conv3-dsn5
I1125 10:10:33.260901 17022 net.cpp:408] conv4-dsn5 -> conv4-dsn5
I1125 10:10:33.262033 17022 net.cpp:150] Setting up conv4-dsn5
I1125 10:10:33.262044 17022 net.cpp:157] Top shape: 1 1 32 32 (1024)
I1125 10:10:33.262046 17022 net.cpp:165] Memory required for data: 915721168
I1125 10:10:33.262051 17022 layer_factory.hpp:77] Creating layer sum-dsn5
I1125 10:10:33.262069 17022 net.cpp:100] Creating Layer sum-dsn5
I1125 10:10:33.262073 17022 net.cpp:434] sum-dsn5 <- conv4-dsn5
I1125 10:10:33.262075 17022 net.cpp:434] sum-dsn5 <- weight-dsn6-5_crop1-dsn5_0_split_1
I1125 10:10:33.262079 17022 net.cpp:408] sum-dsn5 -> sum-dsn5
I1125 10:10:33.262109 17022 net.cpp:150] Setting up sum-dsn5
I1125 10:10:33.262112 17022 net.cpp:157] Top shape: 1 1 32 32 (1024)
I1125 10:10:33.262115 17022 net.cpp:165] Memory required for data: 915725264
I1125 10:10:33.262117 17022 layer_factory.hpp:77] Creating layer sum-dsn5_sum-dsn5_0_split
I1125 10:10:33.262120 17022 net.cpp:100] Creating Layer sum-dsn5_sum-dsn5_0_split
I1125 10:10:33.262123 17022 net.cpp:434] sum-dsn5_sum-dsn5_0_split <- sum-dsn5
I1125 10:10:33.262145 17022 net.cpp:408] sum-dsn5_sum-dsn5_0_split -> sum-dsn5_sum-dsn5_0_split_0
I1125 10:10:33.262151 17022 net.cpp:408] sum-dsn5_sum-dsn5_0_split -> sum-dsn5_sum-dsn5_0_split_1
I1125 10:10:33.262194 17022 net.cpp:150] Setting up sum-dsn5_sum-dsn5_0_split
I1125 10:10:33.262202 17022 net.cpp:157] Top shape: 1 1 32 32 (1024)
I1125 10:10:33.262204 17022 net.cpp:157] Top shape: 1 1 32 32 (1024)
I1125 10:10:33.262207 17022 net.cpp:165] Memory required for data: 915733456
I1125 10:10:33.262208 17022 layer_factory.hpp:77] Creating layer upsample16_dsn5
I1125 10:10:33.262213 17022 net.cpp:100] Creating Layer upsample16_dsn5
I1125 10:10:33.262217 17022 net.cpp:434] upsample16_dsn5 <- sum-dsn5_sum-dsn5_0_split_0
I1125 10:10:33.262230 17022 net.cpp:408] upsample16_dsn5 -> sum-dsn5-up
I1125 10:10:33.263675 17022 net.cpp:150] Setting up upsample16_dsn5
I1125 10:10:33.263685 17022 net.cpp:157] Top shape: 1 1 528 528 (278784)
I1125 10:10:33.263687 17022 net.cpp:165] Memory required for data: 916848592
I1125 10:10:33.263692 17022 layer_factory.hpp:77] Creating layer crop2-dsn5
I1125 10:10:33.263698 17022 net.cpp:100] Creating Layer crop2-dsn5
I1125 10:10:33.263701 17022 net.cpp:434] crop2-dsn5 <- sum-dsn5-up
I1125 10:10:33.263705 17022 net.cpp:434] crop2-dsn5 <- data_data_0_split_2
I1125 10:10:33.263708 17022 net.cpp:408] crop2-dsn5 -> upscore-dsn5
I1125 10:10:33.263743 17022 net.cpp:150] Setting up crop2-dsn5
I1125 10:10:33.263747 17022 net.cpp:157] Top shape: 1 1 500 500 (250000)
I1125 10:10:33.263749 17022 net.cpp:165] Memory required for data: 917848592
I1125 10:10:33.263751 17022 layer_factory.hpp:77] Creating layer loss5-score
I1125 10:10:33.263757 17022 net.cpp:100] Creating Layer loss5-score
I1125 10:10:33.263761 17022 net.cpp:434] loss5-score <- upscore-dsn5
I1125 10:10:33.263762 17022 net.cpp:434] loss5-score <- label_data_1_split_1
I1125 10:10:33.263767 17022 net.cpp:408] loss5-score -> loss5-score
I1125 10:10:33.263958 17022 net.cpp:150] Setting up loss5-score
I1125 10:10:33.263964 17022 net.cpp:157] Top shape: (1)
I1125 10:10:33.263965 17022 net.cpp:160]     with loss weight 1
I1125 10:10:33.263972 17022 net.cpp:165] Memory required for data: 917848596
I1125 10:10:33.263973 17022 layer_factory.hpp:77] Creating layer upsample2_dsn4
I1125 10:10:33.263979 17022 net.cpp:100] Creating Layer upsample2_dsn4
I1125 10:10:33.263983 17022 net.cpp:434] upsample2_dsn4 <- sum-dsn5_sum-dsn5_0_split_1
I1125 10:10:33.263986 17022 net.cpp:408] upsample2_dsn4 -> sum-dsn5-4
I1125 10:10:33.264300 17022 net.cpp:150] Setting up upsample2_dsn4
I1125 10:10:33.264307 17022 net.cpp:157] Top shape: 1 1 66 66 (4356)
I1125 10:10:33.264324 17022 net.cpp:165] Memory required for data: 917866020
I1125 10:10:33.264329 17022 layer_factory.hpp:77] Creating layer crop1-dsn4
I1125 10:10:33.264333 17022 net.cpp:100] Creating Layer crop1-dsn4
I1125 10:10:33.264336 17022 net.cpp:434] crop1-dsn4 <- sum-dsn5-4
I1125 10:10:33.264339 17022 net.cpp:434] crop1-dsn4 <- conv4_3_relu4_3_0_split_1
I1125 10:10:33.264344 17022 net.cpp:408] crop1-dsn4 -> weight-dsn5-4
I1125 10:10:33.264374 17022 net.cpp:150] Setting up crop1-dsn4
I1125 10:10:33.264377 17022 net.cpp:157] Top shape: 1 1 63 63 (3969)
I1125 10:10:33.264379 17022 net.cpp:165] Memory required for data: 917881896
I1125 10:10:33.264381 17022 layer_factory.hpp:77] Creating layer weight-dsn5-4_crop1-dsn4_0_split
I1125 10:10:33.264385 17022 net.cpp:100] Creating Layer weight-dsn5-4_crop1-dsn4_0_split
I1125 10:10:33.264389 17022 net.cpp:434] weight-dsn5-4_crop1-dsn4_0_split <- weight-dsn5-4
I1125 10:10:33.264394 17022 net.cpp:408] weight-dsn5-4_crop1-dsn4_0_split -> weight-dsn5-4_crop1-dsn4_0_split_0
I1125 10:10:33.264398 17022 net.cpp:408] weight-dsn5-4_crop1-dsn4_0_split -> weight-dsn5-4_crop1-dsn4_0_split_1
I1125 10:10:33.264463 17022 net.cpp:150] Setting up weight-dsn5-4_crop1-dsn4_0_split
I1125 10:10:33.264468 17022 net.cpp:157] Top shape: 1 1 63 63 (3969)
I1125 10:10:33.264470 17022 net.cpp:157] Top shape: 1 1 63 63 (3969)
I1125 10:10:33.264472 17022 net.cpp:165] Memory required for data: 917913648
I1125 10:10:33.264474 17022 layer_factory.hpp:77] Creating layer sigmoid-dsn4
I1125 10:10:33.264480 17022 net.cpp:100] Creating Layer sigmoid-dsn4
I1125 10:10:33.264482 17022 net.cpp:434] sigmoid-dsn4 <- weight-dsn5-4_crop1-dsn4_0_split_0
I1125 10:10:33.264487 17022 net.cpp:408] sigmoid-dsn4 -> sigmoid-dsn4
I1125 10:10:33.264673 17022 net.cpp:150] Setting up sigmoid-dsn4
I1125 10:10:33.264681 17022 net.cpp:157] Top shape: 1 1 63 63 (3969)
I1125 10:10:33.264683 17022 net.cpp:165] Memory required for data: 917929524
I1125 10:10:33.264685 17022 layer_factory.hpp:77] Creating layer rev-dsn4
I1125 10:10:33.264689 17022 net.cpp:100] Creating Layer rev-dsn4
I1125 10:10:33.264693 17022 net.cpp:434] rev-dsn4 <- sigmoid-dsn4
I1125 10:10:33.264696 17022 net.cpp:408] rev-dsn4 -> rev-dsn4
I1125 10:10:33.264722 17022 net.cpp:150] Setting up rev-dsn4
I1125 10:10:33.264726 17022 net.cpp:157] Top shape: 1 1 63 63 (3969)
I1125 10:10:33.264729 17022 net.cpp:165] Memory required for data: 917945400
I1125 10:10:33.264730 17022 layer_factory.hpp:77] Creating layer tile-dsn4
I1125 10:10:33.264735 17022 net.cpp:100] Creating Layer tile-dsn4
I1125 10:10:33.264737 17022 net.cpp:434] tile-dsn4 <- rev-dsn4
I1125 10:10:33.264741 17022 net.cpp:408] tile-dsn4 -> weight-dsn4
I1125 10:10:33.264765 17022 net.cpp:150] Setting up tile-dsn4
I1125 10:10:33.264770 17022 net.cpp:157] Top shape: 1 512 63 63 (2032128)
I1125 10:10:33.264772 17022 net.cpp:165] Memory required for data: 926073912
I1125 10:10:33.264775 17022 layer_factory.hpp:77] Creating layer prod1-dsn4
I1125 10:10:33.264778 17022 net.cpp:100] Creating Layer prod1-dsn4
I1125 10:10:33.264781 17022 net.cpp:434] prod1-dsn4 <- conv4_3_relu4_3_0_split_2
I1125 10:10:33.264784 17022 net.cpp:434] prod1-dsn4 <- weight-dsn4
I1125 10:10:33.264797 17022 net.cpp:408] prod1-dsn4 -> prod1-dsn4
I1125 10:10:33.264827 17022 net.cpp:150] Setting up prod1-dsn4
I1125 10:10:33.264832 17022 net.cpp:157] Top shape: 1 512 63 63 (2032128)
I1125 10:10:33.264833 17022 net.cpp:165] Memory required for data: 934202424
I1125 10:10:33.264837 17022 layer_factory.hpp:77] Creating layer conv1-dsn4
I1125 10:10:33.264842 17022 net.cpp:100] Creating Layer conv1-dsn4
I1125 10:10:33.264845 17022 net.cpp:434] conv1-dsn4 <- prod1-dsn4
I1125 10:10:33.264850 17022 net.cpp:408] conv1-dsn4 -> conv1-dsn4
I1125 10:10:33.266366 17022 net.cpp:150] Setting up conv1-dsn4
I1125 10:10:33.266376 17022 net.cpp:157] Top shape: 1 64 63 63 (254016)
I1125 10:10:33.266378 17022 net.cpp:165] Memory required for data: 935218488
I1125 10:10:33.266383 17022 layer_factory.hpp:77] Creating layer conv2-dsn4
I1125 10:10:33.266392 17022 net.cpp:100] Creating Layer conv2-dsn4
I1125 10:10:33.266394 17022 net.cpp:434] conv2-dsn4 <- conv1-dsn4
I1125 10:10:33.266402 17022 net.cpp:408] conv2-dsn4 -> conv2-dsn4
I1125 10:10:33.268095 17022 net.cpp:150] Setting up conv2-dsn4
I1125 10:10:33.268105 17022 net.cpp:157] Top shape: 1 64 63 63 (254016)
I1125 10:10:33.268106 17022 net.cpp:165] Memory required for data: 936234552
I1125 10:10:33.268111 17022 layer_factory.hpp:77] Creating layer relu1-dsn4
I1125 10:10:33.268115 17022 net.cpp:100] Creating Layer relu1-dsn4
I1125 10:10:33.268118 17022 net.cpp:434] relu1-dsn4 <- conv2-dsn4
I1125 10:10:33.268123 17022 net.cpp:395] relu1-dsn4 -> conv2-dsn4 (in-place)
I1125 10:10:33.268302 17022 net.cpp:150] Setting up relu1-dsn4
I1125 10:10:33.268309 17022 net.cpp:157] Top shape: 1 64 63 63 (254016)
I1125 10:10:33.268312 17022 net.cpp:165] Memory required for data: 937250616
I1125 10:10:33.268314 17022 layer_factory.hpp:77] Creating layer conv3-dsn4
I1125 10:10:33.268323 17022 net.cpp:100] Creating Layer conv3-dsn4
I1125 10:10:33.268326 17022 net.cpp:434] conv3-dsn4 <- conv2-dsn4
I1125 10:10:33.268332 17022 net.cpp:408] conv3-dsn4 -> conv3-dsn4
I1125 10:10:33.269739 17022 net.cpp:150] Setting up conv3-dsn4
I1125 10:10:33.269749 17022 net.cpp:157] Top shape: 1 64 63 63 (254016)
I1125 10:10:33.269752 17022 net.cpp:165] Memory required for data: 938266680
I1125 10:10:33.269757 17022 layer_factory.hpp:77] Creating layer relu2-dsn4
I1125 10:10:33.269760 17022 net.cpp:100] Creating Layer relu2-dsn4
I1125 10:10:33.269763 17022 net.cpp:434] relu2-dsn4 <- conv3-dsn4
I1125 10:10:33.269768 17022 net.cpp:395] relu2-dsn4 -> conv3-dsn4 (in-place)
I1125 10:10:33.270534 17022 net.cpp:150] Setting up relu2-dsn4
I1125 10:10:33.270542 17022 net.cpp:157] Top shape: 1 64 63 63 (254016)
I1125 10:10:33.270545 17022 net.cpp:165] Memory required for data: 939282744
I1125 10:10:33.270547 17022 layer_factory.hpp:77] Creating layer conv4-dsn4
I1125 10:10:33.270556 17022 net.cpp:100] Creating Layer conv4-dsn4
I1125 10:10:33.270560 17022 net.cpp:434] conv4-dsn4 <- conv3-dsn4
I1125 10:10:33.270565 17022 net.cpp:408] conv4-dsn4 -> conv4-dsn4
I1125 10:10:33.271705 17022 net.cpp:150] Setting up conv4-dsn4
I1125 10:10:33.271718 17022 net.cpp:157] Top shape: 1 1 63 63 (3969)
I1125 10:10:33.271719 17022 net.cpp:165] Memory required for data: 939298620
I1125 10:10:33.271724 17022 layer_factory.hpp:77] Creating layer sum-dsn4
I1125 10:10:33.271728 17022 net.cpp:100] Creating Layer sum-dsn4
I1125 10:10:33.271733 17022 net.cpp:434] sum-dsn4 <- conv4-dsn4
I1125 10:10:33.271735 17022 net.cpp:434] sum-dsn4 <- weight-dsn5-4_crop1-dsn4_0_split_1
I1125 10:10:33.271741 17022 net.cpp:408] sum-dsn4 -> sum-dsn4
I1125 10:10:33.271770 17022 net.cpp:150] Setting up sum-dsn4
I1125 10:10:33.271773 17022 net.cpp:157] Top shape: 1 1 63 63 (3969)
I1125 10:10:33.271775 17022 net.cpp:165] Memory required for data: 939314496
I1125 10:10:33.271777 17022 layer_factory.hpp:77] Creating layer sum-dsn4_sum-dsn4_0_split
I1125 10:10:33.271783 17022 net.cpp:100] Creating Layer sum-dsn4_sum-dsn4_0_split
I1125 10:10:33.271786 17022 net.cpp:434] sum-dsn4_sum-dsn4_0_split <- sum-dsn4
I1125 10:10:33.271790 17022 net.cpp:408] sum-dsn4_sum-dsn4_0_split -> sum-dsn4_sum-dsn4_0_split_0
I1125 10:10:33.271795 17022 net.cpp:408] sum-dsn4_sum-dsn4_0_split -> sum-dsn4_sum-dsn4_0_split_1
I1125 10:10:33.271834 17022 net.cpp:150] Setting up sum-dsn4_sum-dsn4_0_split
I1125 10:10:33.271842 17022 net.cpp:157] Top shape: 1 1 63 63 (3969)
I1125 10:10:33.271843 17022 net.cpp:157] Top shape: 1 1 63 63 (3969)
I1125 10:10:33.271845 17022 net.cpp:165] Memory required for data: 939346248
I1125 10:10:33.271847 17022 layer_factory.hpp:77] Creating layer upsample8_dsn4
I1125 10:10:33.271852 17022 net.cpp:100] Creating Layer upsample8_dsn4
I1125 10:10:33.271855 17022 net.cpp:434] upsample8_dsn4 <- sum-dsn4_sum-dsn4_0_split_0
I1125 10:10:33.271860 17022 net.cpp:408] upsample8_dsn4 -> sum-dsn4-up
I1125 10:10:33.273262 17022 net.cpp:150] Setting up upsample8_dsn4
I1125 10:10:33.273272 17022 net.cpp:157] Top shape: 1 1 512 512 (262144)
I1125 10:10:33.273274 17022 net.cpp:165] Memory required for data: 940394824
I1125 10:10:33.273279 17022 layer_factory.hpp:77] Creating layer crop2-dsn4
I1125 10:10:33.273286 17022 net.cpp:100] Creating Layer crop2-dsn4
I1125 10:10:33.273289 17022 net.cpp:434] crop2-dsn4 <- sum-dsn4-up
I1125 10:10:33.273293 17022 net.cpp:434] crop2-dsn4 <- data_data_0_split_3
I1125 10:10:33.273296 17022 net.cpp:408] crop2-dsn4 -> upscore-dsn4
I1125 10:10:33.273332 17022 net.cpp:150] Setting up crop2-dsn4
I1125 10:10:33.273337 17022 net.cpp:157] Top shape: 1 1 500 500 (250000)
I1125 10:10:33.273339 17022 net.cpp:165] Memory required for data: 941394824
I1125 10:10:33.273341 17022 layer_factory.hpp:77] Creating layer loss4-score
I1125 10:10:33.273347 17022 net.cpp:100] Creating Layer loss4-score
I1125 10:10:33.273350 17022 net.cpp:434] loss4-score <- upscore-dsn4
I1125 10:10:33.273352 17022 net.cpp:434] loss4-score <- label_data_1_split_2
I1125 10:10:33.273356 17022 net.cpp:408] loss4-score -> loss4-score
I1125 10:10:33.273557 17022 net.cpp:150] Setting up loss4-score
I1125 10:10:33.273563 17022 net.cpp:157] Top shape: (1)
I1125 10:10:33.273566 17022 net.cpp:160]     with loss weight 1
I1125 10:10:33.273571 17022 net.cpp:165] Memory required for data: 941394828
I1125 10:10:33.273572 17022 layer_factory.hpp:77] Creating layer upsample2_dsn3
I1125 10:10:33.273579 17022 net.cpp:100] Creating Layer upsample2_dsn3
I1125 10:10:33.273582 17022 net.cpp:434] upsample2_dsn3 <- sum-dsn4_sum-dsn4_0_split_1
I1125 10:10:33.273586 17022 net.cpp:408] upsample2_dsn3 -> sum-dsn4-3
I1125 10:10:33.273893 17022 net.cpp:150] Setting up upsample2_dsn3
I1125 10:10:33.273900 17022 net.cpp:157] Top shape: 1 1 128 128 (16384)
I1125 10:10:33.273901 17022 net.cpp:165] Memory required for data: 941460364
I1125 10:10:33.273921 17022 layer_factory.hpp:77] Creating layer crop1-dsn3
I1125 10:10:33.273926 17022 net.cpp:100] Creating Layer crop1-dsn3
I1125 10:10:33.273927 17022 net.cpp:434] crop1-dsn3 <- sum-dsn4-3
I1125 10:10:33.273931 17022 net.cpp:434] crop1-dsn3 <- conv3_3_relu3_3_0_split_1
I1125 10:10:33.273936 17022 net.cpp:408] crop1-dsn3 -> weight-dsn4-3
I1125 10:10:33.273963 17022 net.cpp:150] Setting up crop1-dsn3
I1125 10:10:33.273969 17022 net.cpp:157] Top shape: 1 1 125 125 (15625)
I1125 10:10:33.273972 17022 net.cpp:165] Memory required for data: 941522864
I1125 10:10:33.273973 17022 layer_factory.hpp:77] Creating layer weight-dsn4-3_crop1-dsn3_0_split
I1125 10:10:33.273977 17022 net.cpp:100] Creating Layer weight-dsn4-3_crop1-dsn3_0_split
I1125 10:10:33.273980 17022 net.cpp:434] weight-dsn4-3_crop1-dsn3_0_split <- weight-dsn4-3
I1125 10:10:33.273983 17022 net.cpp:408] weight-dsn4-3_crop1-dsn3_0_split -> weight-dsn4-3_crop1-dsn3_0_split_0
I1125 10:10:33.273990 17022 net.cpp:408] weight-dsn4-3_crop1-dsn3_0_split -> weight-dsn4-3_crop1-dsn3_0_split_1
I1125 10:10:33.274042 17022 net.cpp:150] Setting up weight-dsn4-3_crop1-dsn3_0_split
I1125 10:10:33.274049 17022 net.cpp:157] Top shape: 1 1 125 125 (15625)
I1125 10:10:33.274050 17022 net.cpp:157] Top shape: 1 1 125 125 (15625)
I1125 10:10:33.274052 17022 net.cpp:165] Memory required for data: 941647864
I1125 10:10:33.274055 17022 layer_factory.hpp:77] Creating layer sigmoid-dsn3
I1125 10:10:33.274060 17022 net.cpp:100] Creating Layer sigmoid-dsn3
I1125 10:10:33.274062 17022 net.cpp:434] sigmoid-dsn3 <- weight-dsn4-3_crop1-dsn3_0_split_0
I1125 10:10:33.274066 17022 net.cpp:408] sigmoid-dsn3 -> sigmoid-dsn3
I1125 10:10:33.274286 17022 net.cpp:150] Setting up sigmoid-dsn3
I1125 10:10:33.274293 17022 net.cpp:157] Top shape: 1 1 125 125 (15625)
I1125 10:10:33.274296 17022 net.cpp:165] Memory required for data: 941710364
I1125 10:10:33.274298 17022 layer_factory.hpp:77] Creating layer rev-dsn3
I1125 10:10:33.274304 17022 net.cpp:100] Creating Layer rev-dsn3
I1125 10:10:33.274307 17022 net.cpp:434] rev-dsn3 <- sigmoid-dsn3
I1125 10:10:33.274312 17022 net.cpp:408] rev-dsn3 -> rev-dsn3
I1125 10:10:33.274340 17022 net.cpp:150] Setting up rev-dsn3
I1125 10:10:33.274344 17022 net.cpp:157] Top shape: 1 1 125 125 (15625)
I1125 10:10:33.274346 17022 net.cpp:165] Memory required for data: 941772864
I1125 10:10:33.274348 17022 layer_factory.hpp:77] Creating layer tile-dsn3
I1125 10:10:33.274353 17022 net.cpp:100] Creating Layer tile-dsn3
I1125 10:10:33.274354 17022 net.cpp:434] tile-dsn3 <- rev-dsn3
I1125 10:10:33.274360 17022 net.cpp:408] tile-dsn3 -> weight-dsn3
I1125 10:10:33.274385 17022 net.cpp:150] Setting up tile-dsn3
I1125 10:10:33.274390 17022 net.cpp:157] Top shape: 1 256 125 125 (4000000)
I1125 10:10:33.274394 17022 net.cpp:165] Memory required for data: 957772864
I1125 10:10:33.274395 17022 layer_factory.hpp:77] Creating layer prod1-dsn3
I1125 10:10:33.274399 17022 net.cpp:100] Creating Layer prod1-dsn3
I1125 10:10:33.274401 17022 net.cpp:434] prod1-dsn3 <- conv3_3_relu3_3_0_split_2
I1125 10:10:33.274405 17022 net.cpp:434] prod1-dsn3 <- weight-dsn3
I1125 10:10:33.274410 17022 net.cpp:408] prod1-dsn3 -> prod1-dsn3
I1125 10:10:33.274435 17022 net.cpp:150] Setting up prod1-dsn3
I1125 10:10:33.274441 17022 net.cpp:157] Top shape: 1 256 125 125 (4000000)
I1125 10:10:33.274443 17022 net.cpp:165] Memory required for data: 973772864
I1125 10:10:33.274446 17022 layer_factory.hpp:77] Creating layer conv1-dsn3
I1125 10:10:33.274467 17022 net.cpp:100] Creating Layer conv1-dsn3
I1125 10:10:33.274469 17022 net.cpp:434] conv1-dsn3 <- prod1-dsn3
I1125 10:10:33.274473 17022 net.cpp:408] conv1-dsn3 -> conv1-dsn3
I1125 10:10:33.276055 17022 net.cpp:150] Setting up conv1-dsn3
I1125 10:10:33.276065 17022 net.cpp:157] Top shape: 1 64 125 125 (1000000)
I1125 10:10:33.276067 17022 net.cpp:165] Memory required for data: 977772864
I1125 10:10:33.276083 17022 layer_factory.hpp:77] Creating layer conv2-dsn3
I1125 10:10:33.276093 17022 net.cpp:100] Creating Layer conv2-dsn3
I1125 10:10:33.276096 17022 net.cpp:434] conv2-dsn3 <- conv1-dsn3
I1125 10:10:33.276103 17022 net.cpp:408] conv2-dsn3 -> conv2-dsn3
I1125 10:10:33.277565 17022 net.cpp:150] Setting up conv2-dsn3
I1125 10:10:33.277577 17022 net.cpp:157] Top shape: 1 64 125 125 (1000000)
I1125 10:10:33.277580 17022 net.cpp:165] Memory required for data: 981772864
I1125 10:10:33.277585 17022 layer_factory.hpp:77] Creating layer relu1-dsn3
I1125 10:10:33.277588 17022 net.cpp:100] Creating Layer relu1-dsn3
I1125 10:10:33.277591 17022 net.cpp:434] relu1-dsn3 <- conv2-dsn3
I1125 10:10:33.277596 17022 net.cpp:395] relu1-dsn3 -> conv2-dsn3 (in-place)
I1125 10:10:33.277757 17022 net.cpp:150] Setting up relu1-dsn3
I1125 10:10:33.277765 17022 net.cpp:157] Top shape: 1 64 125 125 (1000000)
I1125 10:10:33.277766 17022 net.cpp:165] Memory required for data: 985772864
I1125 10:10:33.277768 17022 layer_factory.hpp:77] Creating layer conv3-dsn3
I1125 10:10:33.277777 17022 net.cpp:100] Creating Layer conv3-dsn3
I1125 10:10:33.277779 17022 net.cpp:434] conv3-dsn3 <- conv2-dsn3
I1125 10:10:33.277786 17022 net.cpp:408] conv3-dsn3 -> conv3-dsn3
I1125 10:10:33.279218 17022 net.cpp:150] Setting up conv3-dsn3
I1125 10:10:33.279245 17022 net.cpp:157] Top shape: 1 64 125 125 (1000000)
I1125 10:10:33.279248 17022 net.cpp:165] Memory required for data: 989772864
I1125 10:10:33.279253 17022 layer_factory.hpp:77] Creating layer relu2-dsn3
I1125 10:10:33.279258 17022 net.cpp:100] Creating Layer relu2-dsn3
I1125 10:10:33.279260 17022 net.cpp:434] relu2-dsn3 <- conv3-dsn3
I1125 10:10:33.279265 17022 net.cpp:395] relu2-dsn3 -> conv3-dsn3 (in-place)
I1125 10:10:33.279440 17022 net.cpp:150] Setting up relu2-dsn3
I1125 10:10:33.279461 17022 net.cpp:157] Top shape: 1 64 125 125 (1000000)
I1125 10:10:33.279464 17022 net.cpp:165] Memory required for data: 993772864
I1125 10:10:33.279465 17022 layer_factory.hpp:77] Creating layer conv4-dsn3
I1125 10:10:33.279474 17022 net.cpp:100] Creating Layer conv4-dsn3
I1125 10:10:33.279476 17022 net.cpp:434] conv4-dsn3 <- conv3-dsn3
I1125 10:10:33.279482 17022 net.cpp:408] conv4-dsn3 -> conv4-dsn3
I1125 10:10:33.280925 17022 net.cpp:150] Setting up conv4-dsn3
I1125 10:10:33.280934 17022 net.cpp:157] Top shape: 1 1 125 125 (15625)
I1125 10:10:33.280936 17022 net.cpp:165] Memory required for data: 993835364
I1125 10:10:33.280941 17022 layer_factory.hpp:77] Creating layer sum-dsn3
I1125 10:10:33.280946 17022 net.cpp:100] Creating Layer sum-dsn3
I1125 10:10:33.280949 17022 net.cpp:434] sum-dsn3 <- conv4-dsn3
I1125 10:10:33.280952 17022 net.cpp:434] sum-dsn3 <- weight-dsn4-3_crop1-dsn3_0_split_1
I1125 10:10:33.280958 17022 net.cpp:408] sum-dsn3 -> sum-dsn3
I1125 10:10:33.280992 17022 net.cpp:150] Setting up sum-dsn3
I1125 10:10:33.280998 17022 net.cpp:157] Top shape: 1 1 125 125 (15625)
I1125 10:10:33.281000 17022 net.cpp:165] Memory required for data: 993897864
I1125 10:10:33.281002 17022 layer_factory.hpp:77] Creating layer sum-dsn3_sum-dsn3_0_split
I1125 10:10:33.281006 17022 net.cpp:100] Creating Layer sum-dsn3_sum-dsn3_0_split
I1125 10:10:33.281008 17022 net.cpp:434] sum-dsn3_sum-dsn3_0_split <- sum-dsn3
I1125 10:10:33.281013 17022 net.cpp:408] sum-dsn3_sum-dsn3_0_split -> sum-dsn3_sum-dsn3_0_split_0
I1125 10:10:33.281018 17022 net.cpp:408] sum-dsn3_sum-dsn3_0_split -> sum-dsn3_sum-dsn3_0_split_1
I1125 10:10:33.281061 17022 net.cpp:150] Setting up sum-dsn3_sum-dsn3_0_split
I1125 10:10:33.281066 17022 net.cpp:157] Top shape: 1 1 125 125 (15625)
I1125 10:10:33.281069 17022 net.cpp:157] Top shape: 1 1 125 125 (15625)
I1125 10:10:33.281071 17022 net.cpp:165] Memory required for data: 994022864
I1125 10:10:33.281074 17022 layer_factory.hpp:77] Creating layer upsample4_dsn3
I1125 10:10:33.281080 17022 net.cpp:100] Creating Layer upsample4_dsn3
I1125 10:10:33.281082 17022 net.cpp:434] upsample4_dsn3 <- sum-dsn3_sum-dsn3_0_split_0
I1125 10:10:33.281085 17022 net.cpp:408] upsample4_dsn3 -> sum-dsn3-up
I1125 10:10:33.282510 17022 net.cpp:150] Setting up upsample4_dsn3
I1125 10:10:33.282521 17022 net.cpp:157] Top shape: 1 1 504 504 (254016)
I1125 10:10:33.282522 17022 net.cpp:165] Memory required for data: 995038928
I1125 10:10:33.282527 17022 layer_factory.hpp:77] Creating layer crop2-dsn3
I1125 10:10:33.282532 17022 net.cpp:100] Creating Layer crop2-dsn3
I1125 10:10:33.282536 17022 net.cpp:434] crop2-dsn3 <- sum-dsn3-up
I1125 10:10:33.282538 17022 net.cpp:434] crop2-dsn3 <- data_data_0_split_4
I1125 10:10:33.282544 17022 net.cpp:408] crop2-dsn3 -> upscore-dsn3
I1125 10:10:33.282577 17022 net.cpp:150] Setting up crop2-dsn3
I1125 10:10:33.282582 17022 net.cpp:157] Top shape: 1 1 500 500 (250000)
I1125 10:10:33.282583 17022 net.cpp:165] Memory required for data: 996038928
I1125 10:10:33.282585 17022 layer_factory.hpp:77] Creating layer loss3-score
I1125 10:10:33.282593 17022 net.cpp:100] Creating Layer loss3-score
I1125 10:10:33.282596 17022 net.cpp:434] loss3-score <- upscore-dsn3
I1125 10:10:33.282598 17022 net.cpp:434] loss3-score <- label_data_1_split_3
I1125 10:10:33.282603 17022 net.cpp:408] loss3-score -> loss3-score
I1125 10:10:33.282786 17022 net.cpp:150] Setting up loss3-score
I1125 10:10:33.282793 17022 net.cpp:157] Top shape: (1)
I1125 10:10:33.282793 17022 net.cpp:160]     with loss weight 1
I1125 10:10:33.282799 17022 net.cpp:165] Memory required for data: 996038932
I1125 10:10:33.282800 17022 layer_factory.hpp:77] Creating layer upsample2_1-dsn2
I1125 10:10:33.282809 17022 net.cpp:100] Creating Layer upsample2_1-dsn2
I1125 10:10:33.282811 17022 net.cpp:434] upsample2_1-dsn2 <- sum-dsn3_sum-dsn3_0_split_1
I1125 10:10:33.282814 17022 net.cpp:408] upsample2_1-dsn2 -> sum-dsn3-2
I1125 10:10:33.283136 17022 net.cpp:150] Setting up upsample2_1-dsn2
I1125 10:10:33.283144 17022 net.cpp:157] Top shape: 1 1 252 252 (63504)
I1125 10:10:33.283146 17022 net.cpp:165] Memory required for data: 996292948
I1125 10:10:33.283150 17022 layer_factory.hpp:77] Creating layer crop1-dsn2
I1125 10:10:33.283154 17022 net.cpp:100] Creating Layer crop1-dsn2
I1125 10:10:33.283156 17022 net.cpp:434] crop1-dsn2 <- sum-dsn3-2
I1125 10:10:33.283159 17022 net.cpp:434] crop1-dsn2 <- conv2_2_relu2_2_0_split_1
I1125 10:10:33.283164 17022 net.cpp:408] crop1-dsn2 -> weight-dsn3-2
I1125 10:10:33.283192 17022 net.cpp:150] Setting up crop1-dsn2
I1125 10:10:33.283197 17022 net.cpp:157] Top shape: 1 1 250 250 (62500)
I1125 10:10:33.283198 17022 net.cpp:165] Memory required for data: 996542948
I1125 10:10:33.283201 17022 layer_factory.hpp:77] Creating layer weight-dsn3-2_crop1-dsn2_0_split
I1125 10:10:33.283206 17022 net.cpp:100] Creating Layer weight-dsn3-2_crop1-dsn2_0_split
I1125 10:10:33.283208 17022 net.cpp:434] weight-dsn3-2_crop1-dsn2_0_split <- weight-dsn3-2
I1125 10:10:33.283212 17022 net.cpp:408] weight-dsn3-2_crop1-dsn2_0_split -> weight-dsn3-2_crop1-dsn2_0_split_0
I1125 10:10:33.283216 17022 net.cpp:408] weight-dsn3-2_crop1-dsn2_0_split -> weight-dsn3-2_crop1-dsn2_0_split_1
I1125 10:10:33.283255 17022 net.cpp:150] Setting up weight-dsn3-2_crop1-dsn2_0_split
I1125 10:10:33.283262 17022 net.cpp:157] Top shape: 1 1 250 250 (62500)
I1125 10:10:33.283263 17022 net.cpp:157] Top shape: 1 1 250 250 (62500)
I1125 10:10:33.283265 17022 net.cpp:165] Memory required for data: 997042948
I1125 10:10:33.283267 17022 layer_factory.hpp:77] Creating layer sigmoid-dsn2
I1125 10:10:33.283272 17022 net.cpp:100] Creating Layer sigmoid-dsn2
I1125 10:10:33.283274 17022 net.cpp:434] sigmoid-dsn2 <- weight-dsn3-2_crop1-dsn2_0_split_0
I1125 10:10:33.283279 17022 net.cpp:408] sigmoid-dsn2 -> sigmoid-dsn2
I1125 10:10:33.283478 17022 net.cpp:150] Setting up sigmoid-dsn2
I1125 10:10:33.283485 17022 net.cpp:157] Top shape: 1 1 250 250 (62500)
I1125 10:10:33.283488 17022 net.cpp:165] Memory required for data: 997292948
I1125 10:10:33.283489 17022 layer_factory.hpp:77] Creating layer rev-dsn2
I1125 10:10:33.283493 17022 net.cpp:100] Creating Layer rev-dsn2
I1125 10:10:33.283496 17022 net.cpp:434] rev-dsn2 <- sigmoid-dsn2
I1125 10:10:33.283501 17022 net.cpp:408] rev-dsn2 -> rev-dsn2
I1125 10:10:33.283529 17022 net.cpp:150] Setting up rev-dsn2
I1125 10:10:33.283532 17022 net.cpp:157] Top shape: 1 1 250 250 (62500)
I1125 10:10:33.283535 17022 net.cpp:165] Memory required for data: 997542948
I1125 10:10:33.283537 17022 layer_factory.hpp:77] Creating layer tile-dsn2
I1125 10:10:33.283540 17022 net.cpp:100] Creating Layer tile-dsn2
I1125 10:10:33.283543 17022 net.cpp:434] tile-dsn2 <- rev-dsn2
I1125 10:10:33.283546 17022 net.cpp:408] tile-dsn2 -> weight-dsn2
I1125 10:10:33.283571 17022 net.cpp:150] Setting up tile-dsn2
I1125 10:10:33.283577 17022 net.cpp:157] Top shape: 1 128 250 250 (8000000)
I1125 10:10:33.283579 17022 net.cpp:165] Memory required for data: 1029542948
I1125 10:10:33.283581 17022 layer_factory.hpp:77] Creating layer prod1-dsn2
I1125 10:10:33.283586 17022 net.cpp:100] Creating Layer prod1-dsn2
I1125 10:10:33.283588 17022 net.cpp:434] prod1-dsn2 <- conv2_2_relu2_2_0_split_2
I1125 10:10:33.283591 17022 net.cpp:434] prod1-dsn2 <- weight-dsn2
I1125 10:10:33.283594 17022 net.cpp:408] prod1-dsn2 -> prod1-dsn2
I1125 10:10:33.283619 17022 net.cpp:150] Setting up prod1-dsn2
I1125 10:10:33.283624 17022 net.cpp:157] Top shape: 1 128 250 250 (8000000)
I1125 10:10:33.283627 17022 net.cpp:165] Memory required for data: 1061542948
I1125 10:10:33.283629 17022 layer_factory.hpp:77] Creating layer conv1-dsn2
I1125 10:10:33.283637 17022 net.cpp:100] Creating Layer conv1-dsn2
I1125 10:10:33.283638 17022 net.cpp:434] conv1-dsn2 <- prod1-dsn2
I1125 10:10:33.283644 17022 net.cpp:408] conv1-dsn2 -> conv1-dsn2
I1125 10:10:33.284893 17022 net.cpp:150] Setting up conv1-dsn2
I1125 10:10:33.284904 17022 net.cpp:157] Top shape: 1 64 250 250 (4000000)
I1125 10:10:33.284905 17022 net.cpp:165] Memory required for data: 1077542948
I1125 10:10:33.284910 17022 layer_factory.hpp:77] Creating layer conv2-dsn2
I1125 10:10:33.284920 17022 net.cpp:100] Creating Layer conv2-dsn2
I1125 10:10:33.284924 17022 net.cpp:434] conv2-dsn2 <- conv1-dsn2
I1125 10:10:33.284929 17022 net.cpp:408] conv2-dsn2 -> conv2-dsn2
I1125 10:10:33.287775 17022 net.cpp:150] Setting up conv2-dsn2
I1125 10:10:33.287786 17022 net.cpp:157] Top shape: 1 64 250 250 (4000000)
I1125 10:10:33.287788 17022 net.cpp:165] Memory required for data: 1093542948
I1125 10:10:33.287793 17022 layer_factory.hpp:77] Creating layer relu1-dsn2
I1125 10:10:33.287798 17022 net.cpp:100] Creating Layer relu1-dsn2
I1125 10:10:33.287801 17022 net.cpp:434] relu1-dsn2 <- conv2-dsn2
I1125 10:10:33.287804 17022 net.cpp:395] relu1-dsn2 -> conv2-dsn2 (in-place)
I1125 10:10:33.287982 17022 net.cpp:150] Setting up relu1-dsn2
I1125 10:10:33.287989 17022 net.cpp:157] Top shape: 1 64 250 250 (4000000)
I1125 10:10:33.287992 17022 net.cpp:165] Memory required for data: 1109542948
I1125 10:10:33.287994 17022 layer_factory.hpp:77] Creating layer conv3-dsn2
I1125 10:10:33.288003 17022 net.cpp:100] Creating Layer conv3-dsn2
I1125 10:10:33.288007 17022 net.cpp:434] conv3-dsn2 <- conv2-dsn2
I1125 10:10:33.288010 17022 net.cpp:408] conv3-dsn2 -> conv3-dsn2
I1125 10:10:33.289463 17022 net.cpp:150] Setting up conv3-dsn2
I1125 10:10:33.289475 17022 net.cpp:157] Top shape: 1 64 250 250 (4000000)
I1125 10:10:33.289477 17022 net.cpp:165] Memory required for data: 1125542948
I1125 10:10:33.289482 17022 layer_factory.hpp:77] Creating layer relu2-dsn2
I1125 10:10:33.289487 17022 net.cpp:100] Creating Layer relu2-dsn2
I1125 10:10:33.289489 17022 net.cpp:434] relu2-dsn2 <- conv3-dsn2
I1125 10:10:33.289494 17022 net.cpp:395] relu2-dsn2 -> conv3-dsn2 (in-place)
I1125 10:10:33.289657 17022 net.cpp:150] Setting up relu2-dsn2
I1125 10:10:33.289664 17022 net.cpp:157] Top shape: 1 64 250 250 (4000000)
I1125 10:10:33.289665 17022 net.cpp:165] Memory required for data: 1141542948
I1125 10:10:33.289669 17022 layer_factory.hpp:77] Creating layer conv4-dsn2
I1125 10:10:33.289678 17022 net.cpp:100] Creating Layer conv4-dsn2
I1125 10:10:33.289681 17022 net.cpp:434] conv4-dsn2 <- conv3-dsn2
I1125 10:10:33.289685 17022 net.cpp:408] conv4-dsn2 -> conv4-dsn2
I1125 10:10:33.290832 17022 net.cpp:150] Setting up conv4-dsn2
I1125 10:10:33.290844 17022 net.cpp:157] Top shape: 1 1 250 250 (62500)
I1125 10:10:33.290846 17022 net.cpp:165] Memory required for data: 1141792948
I1125 10:10:33.290850 17022 layer_factory.hpp:77] Creating layer sum-dsn2
I1125 10:10:33.290855 17022 net.cpp:100] Creating Layer sum-dsn2
I1125 10:10:33.290858 17022 net.cpp:434] sum-dsn2 <- conv4-dsn2
I1125 10:10:33.290863 17022 net.cpp:434] sum-dsn2 <- weight-dsn3-2_crop1-dsn2_0_split_1
I1125 10:10:33.290865 17022 net.cpp:408] sum-dsn2 -> sum-dsn2
I1125 10:10:33.290897 17022 net.cpp:150] Setting up sum-dsn2
I1125 10:10:33.290904 17022 net.cpp:157] Top shape: 1 1 250 250 (62500)
I1125 10:10:33.290905 17022 net.cpp:165] Memory required for data: 1142042948
I1125 10:10:33.290907 17022 layer_factory.hpp:77] Creating layer upsample2_2-dsn2
I1125 10:10:33.290912 17022 net.cpp:100] Creating Layer upsample2_2-dsn2
I1125 10:10:33.290915 17022 net.cpp:434] upsample2_2-dsn2 <- sum-dsn2
I1125 10:10:33.290920 17022 net.cpp:408] upsample2_2-dsn2 -> sum-dsn2-up
I1125 10:10:33.292359 17022 net.cpp:150] Setting up upsample2_2-dsn2
I1125 10:10:33.292371 17022 net.cpp:157] Top shape: 1 1 502 502 (252004)
I1125 10:10:33.292373 17022 net.cpp:165] Memory required for data: 1143050964
I1125 10:10:33.292378 17022 layer_factory.hpp:77] Creating layer crop2-dsn2
I1125 10:10:33.292382 17022 net.cpp:100] Creating Layer crop2-dsn2
I1125 10:10:33.292385 17022 net.cpp:434] crop2-dsn2 <- sum-dsn2-up
I1125 10:10:33.292389 17022 net.cpp:434] crop2-dsn2 <- data_data_0_split_5
I1125 10:10:33.292392 17022 net.cpp:408] crop2-dsn2 -> upscore-dsn2
I1125 10:10:33.292428 17022 net.cpp:150] Setting up crop2-dsn2
I1125 10:10:33.292433 17022 net.cpp:157] Top shape: 1 1 500 500 (250000)
I1125 10:10:33.292434 17022 net.cpp:165] Memory required for data: 1144050964
I1125 10:10:33.292436 17022 layer_factory.hpp:77] Creating layer upscore-dsn2_crop2-dsn2_0_split
I1125 10:10:33.292443 17022 net.cpp:100] Creating Layer upscore-dsn2_crop2-dsn2_0_split
I1125 10:10:33.292444 17022 net.cpp:434] upscore-dsn2_crop2-dsn2_0_split <- upscore-dsn2
I1125 10:10:33.292448 17022 net.cpp:408] upscore-dsn2_crop2-dsn2_0_split -> upscore-dsn2_crop2-dsn2_0_split_0
I1125 10:10:33.292452 17022 net.cpp:408] upscore-dsn2_crop2-dsn2_0_split -> upscore-dsn2_crop2-dsn2_0_split_1
I1125 10:10:33.292459 17022 net.cpp:408] upscore-dsn2_crop2-dsn2_0_split -> upscore-dsn2_crop2-dsn2_0_split_2
I1125 10:10:33.292528 17022 net.cpp:150] Setting up upscore-dsn2_crop2-dsn2_0_split
I1125 10:10:33.292533 17022 net.cpp:157] Top shape: 1 1 500 500 (250000)
I1125 10:10:33.292536 17022 net.cpp:157] Top shape: 1 1 500 500 (250000)
I1125 10:10:33.292539 17022 net.cpp:157] Top shape: 1 1 500 500 (250000)
I1125 10:10:33.292541 17022 net.cpp:165] Memory required for data: 1147050964
I1125 10:10:33.292543 17022 layer_factory.hpp:77] Creating layer loss2-score
I1125 10:10:33.292549 17022 net.cpp:100] Creating Layer loss2-score
I1125 10:10:33.292551 17022 net.cpp:434] loss2-score <- upscore-dsn2_crop2-dsn2_0_split_0
I1125 10:10:33.292554 17022 net.cpp:434] loss2-score <- label_data_1_split_4
I1125 10:10:33.292558 17022 net.cpp:408] loss2-score -> loss2-score
I1125 10:10:33.292743 17022 net.cpp:150] Setting up loss2-score
I1125 10:10:33.292749 17022 net.cpp:157] Top shape: (1)
I1125 10:10:33.292750 17022 net.cpp:160]     with loss weight 1
I1125 10:10:33.292757 17022 net.cpp:165] Memory required for data: 1147050968
I1125 10:10:33.292758 17022 layer_factory.hpp:77] Creating layer sigmoid-dsn1
I1125 10:10:33.292764 17022 net.cpp:100] Creating Layer sigmoid-dsn1
I1125 10:10:33.292767 17022 net.cpp:434] sigmoid-dsn1 <- upscore-dsn2_crop2-dsn2_0_split_1
I1125 10:10:33.292770 17022 net.cpp:408] sigmoid-dsn1 -> sigmoid-dsn1
I1125 10:10:33.293329 17022 net.cpp:150] Setting up sigmoid-dsn1
I1125 10:10:33.293339 17022 net.cpp:157] Top shape: 1 1 500 500 (250000)
I1125 10:10:33.293342 17022 net.cpp:165] Memory required for data: 1148050968
I1125 10:10:33.293344 17022 layer_factory.hpp:77] Creating layer rev-dsn1
I1125 10:10:33.293349 17022 net.cpp:100] Creating Layer rev-dsn1
I1125 10:10:33.293352 17022 net.cpp:434] rev-dsn1 <- sigmoid-dsn1
I1125 10:10:33.293356 17022 net.cpp:408] rev-dsn1 -> rev-dsn1
I1125 10:10:33.293387 17022 net.cpp:150] Setting up rev-dsn1
I1125 10:10:33.293391 17022 net.cpp:157] Top shape: 1 1 500 500 (250000)
I1125 10:10:33.293393 17022 net.cpp:165] Memory required for data: 1149050968
I1125 10:10:33.293395 17022 layer_factory.hpp:77] Creating layer tile-dsn1
I1125 10:10:33.293401 17022 net.cpp:100] Creating Layer tile-dsn1
I1125 10:10:33.293403 17022 net.cpp:434] tile-dsn1 <- rev-dsn1
I1125 10:10:33.293406 17022 net.cpp:408] tile-dsn1 -> weight-dsn1
I1125 10:10:33.293432 17022 net.cpp:150] Setting up tile-dsn1
I1125 10:10:33.293439 17022 net.cpp:157] Top shape: 1 64 500 500 (16000000)
I1125 10:10:33.293442 17022 net.cpp:165] Memory required for data: 1213050968
I1125 10:10:33.293443 17022 layer_factory.hpp:77] Creating layer prod1-dsn1
I1125 10:10:33.293447 17022 net.cpp:100] Creating Layer prod1-dsn1
I1125 10:10:33.293452 17022 net.cpp:434] prod1-dsn1 <- conv1_2_relu1_2_0_split_1
I1125 10:10:33.293455 17022 net.cpp:434] prod1-dsn1 <- weight-dsn1
I1125 10:10:33.293458 17022 net.cpp:408] prod1-dsn1 -> prod1-dsn1
I1125 10:10:33.293500 17022 net.cpp:150] Setting up prod1-dsn1
I1125 10:10:33.293510 17022 net.cpp:157] Top shape: 1 64 500 500 (16000000)
I1125 10:10:33.293512 17022 net.cpp:165] Memory required for data: 1277050968
I1125 10:10:33.293515 17022 layer_factory.hpp:77] Creating layer conv1-dsn1
I1125 10:10:33.293526 17022 net.cpp:100] Creating Layer conv1-dsn1
I1125 10:10:33.293529 17022 net.cpp:434] conv1-dsn1 <- prod1-dsn1
I1125 10:10:33.293534 17022 net.cpp:408] conv1-dsn1 -> conv1-dsn1
I1125 10:10:33.295893 17022 net.cpp:150] Setting up conv1-dsn1
I1125 10:10:33.295905 17022 net.cpp:157] Top shape: 1 64 500 500 (16000000)
I1125 10:10:33.295923 17022 net.cpp:165] Memory required for data: 1341050968
I1125 10:10:33.295928 17022 layer_factory.hpp:77] Creating layer conv2-dsn1
I1125 10:10:33.295954 17022 net.cpp:100] Creating Layer conv2-dsn1
I1125 10:10:33.295958 17022 net.cpp:434] conv2-dsn1 <- conv1-dsn1
I1125 10:10:33.295962 17022 net.cpp:408] conv2-dsn1 -> conv2-dsn1
I1125 10:10:33.297531 17022 net.cpp:150] Setting up conv2-dsn1
I1125 10:10:33.297559 17022 net.cpp:157] Top shape: 1 64 500 500 (16000000)
I1125 10:10:33.297562 17022 net.cpp:165] Memory required for data: 1405050968
I1125 10:10:33.297567 17022 layer_factory.hpp:77] Creating layer relu1-dsn1
I1125 10:10:33.297572 17022 net.cpp:100] Creating Layer relu1-dsn1
I1125 10:10:33.297574 17022 net.cpp:434] relu1-dsn1 <- conv2-dsn1
I1125 10:10:33.297578 17022 net.cpp:395] relu1-dsn1 -> conv2-dsn1 (in-place)
I1125 10:10:33.298100 17022 net.cpp:150] Setting up relu1-dsn1
I1125 10:10:33.298130 17022 net.cpp:157] Top shape: 1 64 500 500 (16000000)
I1125 10:10:33.298133 17022 net.cpp:165] Memory required for data: 1469050968
I1125 10:10:33.298151 17022 layer_factory.hpp:77] Creating layer conv3-dsn1
I1125 10:10:33.298161 17022 net.cpp:100] Creating Layer conv3-dsn1
I1125 10:10:33.298164 17022 net.cpp:434] conv3-dsn1 <- conv2-dsn1
I1125 10:10:33.298171 17022 net.cpp:408] conv3-dsn1 -> conv3-dsn1
I1125 10:10:33.300835 17022 net.cpp:150] Setting up conv3-dsn1
I1125 10:10:33.300846 17022 net.cpp:157] Top shape: 1 64 500 500 (16000000)
I1125 10:10:33.300848 17022 net.cpp:165] Memory required for data: 1533050968
I1125 10:10:33.300853 17022 layer_factory.hpp:77] Creating layer relu2-dsn1
I1125 10:10:33.300859 17022 net.cpp:100] Creating Layer relu2-dsn1
I1125 10:10:33.300863 17022 net.cpp:434] relu2-dsn1 <- conv3-dsn1
I1125 10:10:33.300866 17022 net.cpp:395] relu2-dsn1 -> conv3-dsn1 (in-place)
I1125 10:10:33.301069 17022 net.cpp:150] Setting up relu2-dsn1
I1125 10:10:33.301076 17022 net.cpp:157] Top shape: 1 64 500 500 (16000000)
I1125 10:10:33.301079 17022 net.cpp:165] Memory required for data: 1597050968
I1125 10:10:33.301081 17022 layer_factory.hpp:77] Creating layer conv4-dsn1
I1125 10:10:33.301105 17022 net.cpp:100] Creating Layer conv4-dsn1
I1125 10:10:33.301110 17022 net.cpp:434] conv4-dsn1 <- conv3-dsn1
I1125 10:10:33.301115 17022 net.cpp:408] conv4-dsn1 -> conv4-dsn1
I1125 10:10:33.302469 17022 net.cpp:150] Setting up conv4-dsn1
I1125 10:10:33.302495 17022 net.cpp:157] Top shape: 1 1 500 500 (250000)
I1125 10:10:33.302498 17022 net.cpp:165] Memory required for data: 1598050968
I1125 10:10:33.302503 17022 layer_factory.hpp:77] Creating layer sum-dsn1
I1125 10:10:33.302508 17022 net.cpp:100] Creating Layer sum-dsn1
I1125 10:10:33.302510 17022 net.cpp:434] sum-dsn1 <- conv4-dsn1
I1125 10:10:33.302515 17022 net.cpp:434] sum-dsn1 <- upscore-dsn2_crop2-dsn2_0_split_2
I1125 10:10:33.302520 17022 net.cpp:408] sum-dsn1 -> sum-dsn1
I1125 10:10:33.302552 17022 net.cpp:150] Setting up sum-dsn1
I1125 10:10:33.302558 17022 net.cpp:157] Top shape: 1 1 500 500 (250000)
I1125 10:10:33.302561 17022 net.cpp:165] Memory required for data: 1599050968
I1125 10:10:33.302563 17022 layer_factory.hpp:77] Creating layer crop2-dsn1
I1125 10:10:33.302567 17022 net.cpp:100] Creating Layer crop2-dsn1
I1125 10:10:33.302569 17022 net.cpp:434] crop2-dsn1 <- sum-dsn1
I1125 10:10:33.302572 17022 net.cpp:434] crop2-dsn1 <- data_data_0_split_6
I1125 10:10:33.302577 17022 net.cpp:408] crop2-dsn1 -> upscore-dsn1
I1125 10:10:33.302604 17022 net.cpp:150] Setting up crop2-dsn1
I1125 10:10:33.302610 17022 net.cpp:157] Top shape: 1 1 500 500 (250000)
I1125 10:10:33.302613 17022 net.cpp:165] Memory required for data: 1600050968
I1125 10:10:33.302614 17022 layer_factory.hpp:77] Creating layer loss1-score
I1125 10:10:33.302620 17022 net.cpp:100] Creating Layer loss1-score
I1125 10:10:33.302623 17022 net.cpp:434] loss1-score <- upscore-dsn1
I1125 10:10:33.302626 17022 net.cpp:434] loss1-score <- label_data_1_split_5
I1125 10:10:33.302631 17022 net.cpp:408] loss1-score -> loss1-score
…
