…
  name: "data"
  type: "ImageLabelmapData"
  top: "data_unaugmented"
  top: "label_unaugmented"
  include {
    phase: TRAIN
  }
  transform_param {
    mean_value: 104.00699
    mean_value: 116.66877
    mean_value: 122.67892
  }
  image_data_param {
    source: "/media/compute/homes/galberding/FleckDetect/Datasets/FleckDataSet/train/image_to_label_map.txt"
    batch_size: 1
    shuffle: true
    new_height: 500
    new_width: 500
    root_folder: "/media/compute/homes/galberding/FleckDetect/Datasets/FleckDataSet/train/"
    normalize: true
  }
}
layer {
  name: "augmentation"
  type: "Python"
  bottom: "data_unaugmented"
  bottom: "label_unaugmented"
  top: "data"
  top: "label"
  include {
    phase: TRAIN
  }
  python_param {
    module: "data_augmentation"
    layer: "DataAugmentation"
  }
}
layer {
  name: "conv1_1"
  type: "Convolution"
  bottom: "data"
  top: "conv1_1"
  param {
    lr_mult: 1
    decay_mult: 1
  }
  param {
    lr_mult: 2
    decay_mult: 0
  }
  convolution_param {
    num_output: 64
    pad: 1
    kernel_size: 3
    engine: CUDNN
  }
}
layer {
  name: "relu1_1"
  type: "ReLU"
  bottom: "conv1_1"
  top: "conv1_1"
}
layer {
  name: "conv1_2"
  type: "Convolution"
  bottom: "conv1_1"
  top: "conv1_2"
  param {
    lr_mult: 1
    decay_mult: 1
  }
  param {
    lr_mult: 2
    decay_mult: 0
  }
  convolution_param {
    num_output: 64
    pad: 1
    kernel_size: 3
    engine: CUDNN
  }
}
layer {
  name: "relu1_2"
  type: "ReLU"
  bottom: "conv1_2"
  top: "conv1_2"
}
layer {
  name: "pool1"
  type: "Pooling"
  bottom: "conv1_2"
  top: "pool1"
  pooling_param {
    pool: MAX
    kernel_size: 2
    stride: 2
  }
}
layer {
  name: "conv2_1"
  type: "Convolution"
  bottom: "pool1"
  top: "conv2_1"
  param {
    lr_mult: 1
    decay_mult: 1
  }
  param {
    lr_mult: 2
    decay_mult: 0
  }
  convolution_param {
    num_output: 128
    pad: 1
    kernel_size: 3
    engine: CUDNN
  }
}
layer {
  name: "relu2_1"
  type: "ReLU"
  bottom: "conv2_1"
  top: "conv2_1"
}
layer {
  name: "conv2_2"
  type: "Convolution"
  bottom: "conv2_1"
  top: "conv2_2"
  param {
    lr_mult: 1
    decay_mult: 1
  }
  param {
    lr_mult: 2
    decay_mult: 0
  }
  convolution_param {
    num_output: 128
    pad: 1
    kernel_size: 3
    engine: CUDNN
  }
}
layer {
  name: "relu2_2"
  type: "ReLU"
  bottom: "conv2_2"
  top: "conv2_2"
}
layer {
  name: "pool2"
  type: "Pooling"
  bottom: "conv2_2"
  top: "pool2"
  pooling_param {
    pool: MAX
    kernel_size: 2
    stride: 2
  }
}
layer {
  name: "conv3_1"
  type: "Convolution"
  bottom: "pool2"
  top: "conv3_1"
  param {
    lr_mult: 1
    decay_mult: 1
  }
  param {
    lr_mult: 2
    decay_mult: 0
  }
  convolution_param {
    num_output: 256
    pad: 1
    kernel_size: 3
    engine: CUDNN
  }
}
layer {
  name: "relu3_1"
  type: "ReLU"
  bottom: "conv3_1"
  top: "conv3_1"
}
layer {
  name: "conv3_2"
  type: "Convolution"
  bottom: "conv3_1"
  top: "conv3_2"
  param {
    lr_mult: 1
    decay_mult: 1
  }
  param {
    lr_mult: 2
    decay_mult: 0
  }
  convolution_param {
    num_output: 256
    pad: 1
    kernel_size: 3
    engine: CUDNN
  }
}
layer {
  name: "relu3_2"
  type: "ReLU"
  bottom: "conv3_2"
  top: "conv3_2"
}
layer {
  name: "conv3_3"
  type: "Convolution"
  bottom: "conv3_2"
  top: "conv3_3"
  param {
    lr_mult: 1
    decay_mult: 1
  }
  param {
    lr_mult: 2
    decay_mult: 0
  }
  convolution_param {
    num_output: 256
    pad: 1
    kernel_size: 3
    engine: CUDNN
  }
}
layer {
  name: "relu3_3"
  type: "ReLU"
  bottom: "conv3_3"
  top: "conv3_3"
}
layer {
  name: "pool3"
  type: "Pooling"
  bottom: "conv3_3"
  top: "pool3"
  pooling_param {
    pool: MAX
    kernel_size: 2
    stride: 2
  }
}
layer {
  name: "conv4_1"
  type: "Convolution"
  bottom: "pool3"
  top: "conv4_1"
  param {
    lr_mult: 1
    decay_mult: 1
  }
  param {
    lr_mult: 2
    decay_mult: 0
  }
  convolution_param {
    num_output: 512
    pad: 1
    kernel_size: 3
    engine: CUDNN
  }
}
layer {
  name: "relu4_1"
  type: "ReLU"
  bottom: "conv4_1"
  top: "conv4_1"
}
layer {
  name: "conv4_2"
  type: "Convolution"
  bottom: "conv4_1"
  top: "conv4_2"
  param {
    lr_mult: 1
    decay_mult: 1
  }
  param {
    lr_mult: 2
    decay_mult: 0
  }
  convolution_param {
    num_output: 512
    pad: 1
    kernel_size: 3
    engine: CUDNN
  }
}
layer {
  name: "relu4_2"
  type: "ReLU"
  bottom: "conv4_2"
  top: "conv4_2"
}
layer {
  name: "conv4_3"
  type: "Convolution"
  bottom: "conv4_2"
  top: "conv4_3"
  param {
    lr_mult: 1
    decay_mult: 1
  }
  param {
    lr_mult: 2
    decay_mult: 0
  }
  convolution_param {
    num_output: 512
    pad: 1
    kernel_size: 3
    engine: CUDNN
  }
}
layer {
  name: "relu4_3"
  type: "ReLU"
  bottom: "conv4_3"
  top: "conv4_3"
}
layer {
  name: "pool4"
  type: "Pooling"
  bottom: "conv4_3"
  top: "pool4"
  pooling_param {
    pool: MAX
    kernel_size: 3
    stride: 2
    pad: 1
  }
}
layer {
  name: "conv5_1"
  type: "Convolution"
  bottom: "pool4"
  top: "conv5_1"
  param {
    lr_mult: 1
    decay_mult: 1
  }
  param {
    lr_mult: 2
    decay_mult: 0
  }
  convolution_param {
    num_output: 512
    pad: 1
    kernel_size: 3
    engine: CUDNN
  }
}
layer {
  name: "relu5_1"
  type: "ReLU"
  bottom: "conv5_1"
  top: "conv5_1"
}
layer {
  name: "conv5_2"
  type: "Convolution"
  bottom: "conv5_1"
  top: "conv5_2"
  param {
    lr_mult: 1
    decay_mult: 1
  }
  param {
    lr_mult: 2
    decay_mult: 0
  }
  convolution_param {
    num_output: 512
    pad: 1
    kernel_size: 3
    engine: CUDNN
  }
}
layer {
  name: "relu5_2"
  type: "ReLU"
  bottom: "conv5_2"
  top: "conv5_2"
}
layer {
  name: "conv5_3"
  type: "Convolution"
  bottom: "conv5_2"
  top: "conv5_3"
  param {
    lr_mult: 1
    decay_mult: 1
  }
  param {
    lr_mult: 2
    decay_mult: 0
  }
  convolution_param {
    num_output: 512
    pad: 1
    kernel_size: 3
    engine: CUDNN
  }
}
layer {
  name: "relu5_3"
  type: "ReLU"
  bottom: "conv5_3"
  top: "conv5_3"
}
layer {
  name: "pool5"
  type: "Pooling"
  bottom: "conv5_3"
  top: "pool5"
  pooling_param {
    pool: MAX
    kernel_size: 3
    stride: 2
    pad: 1
  }
}
layer {
  name: "conv1-dsn6"
  type: "Convolution"
  bottom: "pool5"
  top: "conv1-dsn6"
  param {
    lr_mult: 1
    decay_mult: 1
  }
  param {
    lr_mult: 2
    decay_mult: 0
  }
  convolution_param {
    num_output: 256
    kernel_size: 1
    weight_filler {
      type: "gaussian"
      std: 0.01
    }
    bias_filler {
      type: "constant"
      value: 0
    }
    engine: CUDNN
  }
}
layer {
  name: "conv2-dsn6"
  type: "Convolution"
  bottom: "conv1-dsn6"
  top: "conv2-dsn6"
  param {
    lr_mult: 1
    decay_mult: 1
  }
  param {
    lr_mult: 2
    decay_mult: 0
  }
  convolution_param {
    num_output: 256
    pad: 2
    kernel_size: 5
    weight_filler {
      type: "gaussian"
      std: 0.01
    }
    bias_filler {
      type: "constant"
      value: 0
    }
    engine: CUDNN
  }
}
layer {
  name: "relu1-dsn6"
  type: "ReLU"
  bottom: "conv2-dsn6"
  top: "conv2-dsn6"
}
layer {
  name: "conv3-dsn6"
  type: "Convolution"
  bottom: "conv2-dsn6"
  top: "conv3-dsn6"
  param {
    lr_mult: 1
    decay_mult: 1
  }
  param {
    lr_mult: 2
    decay_mult: 0
  }
  convolution_param {
    num_output: 256
    pad: 2
    kernel_size: 5
    weight_filler {
      type: "gaussian"
      std: 0.01
    }
    bias_filler {
      type: "constant"
      value: 0
    }
    engine: CUDNN
  }
}
layer {
  name: "relu2-dsn6"
  type: "ReLU"
  bottom: "conv3-dsn6"
  top: "conv3-dsn6"
}
layer {
  name: "conv4-dsn6"
  type: "Convolution"
  bottom: "conv3-dsn6"
  top: "conv4-dsn6"
  param {
    lr_mult: 1
    decay_mult: 1
  }
  param {
    lr_mult: 2
    decay_mult: 0
  }
  convolution_param {
    num_output: 256
    pad: 2
    kernel_size: 5
    weight_filler {
      type: "gaussian"
      std: 0.01
    }
    bias_filler {
      type: "constant"
      value: 0
    }
    engine: CUDNN
  }
}
layer {
  name: "relu3-dsn6"
  type: "ReLU"
  bottom: "conv4-dsn6"
  top: "conv4-dsn6"
}
layer {
  name: "conv5-dsn6"
  type: "Convolution"
  bottom: "conv4-dsn6"
  top: "conv5-dsn6"
  param {
    lr_mult: 0.1
    decay_mult: 1
  }
  param {
    lr_mult: 0.2
    decay_mult: 0
  }
  convolution_param {
    num_output: 1
    kernel_size: 1
    weight_filler {
      type: "gaussian"
      std: 0.01
    }
    bias_filler {
      type: "constant"
      value: 0
    }
    engine: CUDNN
  }
}
layer {
  name: "upsample32_dsn6"
  type: "Deconvolution"
  bottom: "conv5-dsn6"
  top: "conv5-dsn6-up"
  param {
    lr_mult: 0
    decay_mult: 1
  }
  param {
    lr_mult: 0
    decay_mult: 0
  }
  convolution_param {
    num_output: 1
    kernel_size: 64
    stride: 32
  }
}
layer {
  name: "crop-dsn6"
  type: "Crop"
  bottom: "conv5-dsn6-up"
  bottom: "data"
  top: "upscore-dsn6"
}
layer {
  name: "loss6-score"
  type: "SigmoidCrossEntropyLoss"
  bottom: "upscore-dsn6"
  bottom: "label"
  top: "loss6-score"
  loss_weight: 1
}
layer {
  name: "upsample2_dsn5"
  type: "Deconvolution"
  bottom: "conv5-dsn6"
  top: "conv5-dsn6-5"
  param {
    lr_mult: 0
    decay_mult: 1
  }
  param {
    lr_mult: 0
    decay_mult: 0
  }
  convolution_param {
    num_output: 1
    kernel_size: 4
    stride: 2
  }
}
layer {
  name: "crop1-dsn5"
  type: "Crop"
  bottom: "conv5-dsn6-5"
  bottom: "conv5_3"
  top: "weight-dsn6-5"
}
layer {
  name: "sigmoid-dsn5"
  type: "Sigmoid"
  bottom: "weight-dsn6-5"
  top: "sigmoid-dsn5"
}
layer {
  name: "rev-dsn5"
  type: "Power"
  bottom: "sigmoid-dsn5"
  top: "rev-dsn5"
  power_param {
    power: 1
    scale: -1
    shift: 1
  }
}
layer {
  name: "tile-dsn5"
  type: "Tile"
  bottom: "rev-dsn5"
  top: "weight-dsn5"
  tile_param {
    tiles: 512
  }
}
layer {
  name: "prod1-dsn5"
  type: "Eltwise"
  bottom: "conv5_3"
  bottom: "weight-dsn5"
  top: "prod1-dsn5"
  eltwise_param {
    operation: PROD
  }
}
layer {
  name: "conv1-dsn5"
  type: "Convolution"
  bottom: "prod1-dsn5"
  top: "conv1-dsn5"
  param {
    lr_mult: 1
    decay_mult: 1
  }
  param {
    lr_mult: 2
    decay_mult: 0
  }
  convolution_param {
    num_output: 64
    kernel_size: 1
    weight_filler {
      type: "gaussian"
      std: 0.01
    }
    bias_filler {
      type: "constant"
      value: 0
    }
    engine: CUDNN
  }
}
layer {
  name: "conv2-dsn5"
  type: "Convolution"
  bottom: "conv1-dsn5"
  top: "conv2-dsn5"
  param {
    lr_mult: 1
    decay_mult: 1
  }
  param {
    lr_mult: 2
    decay_mult: 0
  }
  convolution_param {
    num_output: 64
    pad: 1
    kernel_size: 3
    weight_filler {
      type: "gaussian"
      std: 0.01
    }
    bias_filler {
      type: "constant"
      value: 0
    }
    engine: CUDNN
  }
}
layer {
  name: "relu1-dsn5"
  type: "ReLU"
  bottom: "conv2-dsn5"
  top: "conv2-dsn5"
}
layer {
  name: "conv3-dsn5"
  type: "Convolution"
  bottom: "conv2-dsn5"
  top: "conv3-dsn5"
  param {
    lr_mult: 1
    decay_mult: 1
  }
  param {
    lr_mult: 2
    decay_mult: 0
  }
  convolution_param {
    num_output: 64
    pad: 1
    kernel_size: 3
    weight_filler {
      type: "gaussian"
      std: 0.01
    }
    bias_filler {
      type: "constant"
      value: 0
    }
    engine: CUDNN
  }
}
layer {
  name: "relu2-dsn5"
  type: "ReLU"
  bottom: "conv3-dsn5"
  top: "conv3-dsn5"
}
layer {
  name: "conv4-dsn5"
  type: "Convolution"
  bottom: "conv3-dsn5"
  top: "conv4-dsn5"
  param {
    lr_mult: 1
    decay_mult: 1
  }
  param {
    lr_mult: 2
    decay_mult: 0
  }
  convolution_param {
    num_output: 1
    pad: 1
    kernel_size: 3
    weight_filler {
      type: "gaussian"
      std: 0.01
    }
    bias_filler {
      type: "constant"
      value: 0
    }
    engine: CUDNN
  }
}
layer {
  name: "sum-dsn5"
  type: "Eltwise"
  bottom: "conv4-dsn5"
  bottom: "weight-dsn6-5"
  top: "sum-dsn5"
  eltwise_param {
    operation: SUM
  }
}
layer {
  name: "upsample16_dsn5"
  type: "Deconvolution"
  bottom: "sum-dsn5"
  top: "sum-dsn5-up"
  param {
    lr_mult: 0
    decay_mult: 1
  }
  param {
    lr_mult: 0
    decay_mult: 0
  }
  convolution_param {
    num_output: 1
    kernel_size: 32
    stride: 16
  }
}
layer {
  name: "crop2-dsn5"
  type: "Crop"
  bottom: "sum-dsn5-up"
  bottom: "data"
  top: "upscore-dsn5"
}
layer {
  name: "loss5-score"
  type: "SigmoidCrossEntropyLoss"
  bottom: "upscore-dsn5"
  bottom: "label"
  top: "loss5-score"
  loss_weight: 1
}
layer {
  name: "upsample2_dsn4"
  type: "Deconvolution"
  bottom: "sum-dsn5"
  top: "sum-dsn5-4"
  param {
    lr_mult: 0
    decay_mult: 1
  }
  param {
    lr_mult: 0
    decay_mult: 0
  }
  convolution_param {
    num_output: 1
    kernel_size: 4
    stride: 2
  }
}
layer {
  name: "crop1-dsn4"
  type: "Crop"
  bottom: "sum-dsn5-4"
  bottom: "conv4_3"
  top: "weight-dsn5-4"
}
layer {
  name: "sigmoid-dsn4"
  type: "Sigmoid"
  bottom: "weight-dsn5-4"
  top: "sigmoid-dsn4"
}
layer {
  name: "rev-dsn4"
  type: "Power"
  bottom: "sigmoid-dsn4"
  top: "rev-dsn4"
  power_param {
    power: 1
    scale: -1
    shift: 1
  }
}
layer {
  name: "tile-dsn4"
  type: "Tile"
  bottom: "rev-dsn4"
  top: "weight-dsn4"
  tile_param {
    tiles: 512
  }
}
layer {
  name: "prod1-dsn4"
  type: "Eltwise"
  bottom: "conv4_3"
  bottom: "weight-dsn4"
  top: "prod1-dsn4"
  eltwise_param {
    operation: PROD
  }
}
layer {
  name: "conv1-dsn4"
  type: "Convolution"
  bottom: "prod1-dsn4"
  top: "conv1-dsn4"
  param {
    lr_mult: 1
    decay_mult: 1
  }
  param {
    lr_mult: 2
    decay_mult: 0
  }
  convolution_param {
    num_output: 64
    kernel_size: 1
    weight_filler {
      type: "gaussian"
      std: 0.01
    }
    bias_filler {
      type: "constant"
      value: 0
    }
    engine: CUDNN
  }
}
layer {
  name: "conv2-dsn4"
  type: "Convolution"
  bottom: "conv1-dsn4"
  top: "conv2-dsn4"
  param {
    lr_mult: 1
    decay_mult: 1
  }
  param {
    lr_mult: 2
    decay_mult: 0
  }
  convolution_param {
    num_output: 64
    pad: 1
    kernel_size: 3
    weight_filler {
      type: "gaussian"
      std: 0.01
    }
    bias_filler {
      type: "constant"
      value: 0
    }
    engine: CUDNN
  }
}
layer {
  name: "relu1-dsn4"
  type: "ReLU"
  bottom: "conv2-dsn4"
  top: "conv2-dsn4"
}
layer {
  name: "conv3-dsn4"
  type: "Convolution"
  bottom: "conv2-dsn4"
  top: "conv3-dsn4"
  param {
    lr_mult: 1
    decay_mult: 1
  }
  param {
    lr_mult: 2
    decay_mult: 0
  }
  convolution_param {
    num_output: 64
    pad: 1
    kernel_size: 3
    weight_filler {
      type: "gaussian"
      std: 0.01
    }
    bias_filler {
      type: "constant"
      value: 0
    }
    engine: CUDNN
  }
}
layer {
  name: "relu2-dsn4"
  type: "ReLU"
  bottom: "conv3-dsn4"
  top: "conv3-dsn4"
}
layer {
  name: "conv4-dsn4"
  type: "Convolution"
  bottom: "conv3-dsn4"
  top: "conv4-dsn4"
  param {
    lr_mult: 1
    decay_mult: 1
  }
  param {
    lr_mult: 2
    decay_mult: 0
  }
  convolution_param {
    num_output: 1
    pad: 1
    kernel_size: 3
    weight_filler {
      type: "gaussian"
      std: 0.01
    }
    bias_filler {
      type: "constant"
      value: 0
    }
    engine: CUDNN
  }
}
layer {
  name: "sum-dsn4"
  type: "Eltwise"
  bottom: "conv4-dsn4"
  bottom: "weight-dsn5-4"
  top: "sum-dsn4"
  eltwise_param {
    operation: SUM
  }
}
layer {
  name: "upsample8_dsn4"
  type: "Deconvolution"
  bottom: "sum-dsn4"
  top: "sum-dsn4-up"
  param {
    lr_mult: 0
    decay_mult: 1
  }
  param {
    lr_mult: 0
    decay_mult: 0
  }
  convolution_param {
    num_output: 1
    kernel_size: 16
    stride: 8
  }
}
layer {
  name: "crop2-dsn4"
  type: "Crop"
  bottom: "sum-dsn4-up"
  bottom: "data"
  top: "upscore-dsn4"
}
layer {
  name: "loss4-score"
  type: "SigmoidCrossEntropyLoss"
  bottom: "upscore-dsn4"
  bottom: "label"
  top: "loss4-score"
  loss_weight: 1
}
layer {
  name: "upsample2_dsn3"
  type: "Deconvolution"
  bottom: "sum-dsn4"
  top: "sum-dsn4-3"
  param {
    lr_mult: 0
    decay_mult: 1
  }
  param {
    lr_mult: 0
    decay_mult: 0
  }
  convolution_param {
    num_output: 1
    kernel_size: 4
    stride: 2
  }
}
layer {
  name: "crop1-dsn3"
  type: "Crop"
  bottom: "sum-dsn4-3"
  bottom: "conv3_3"
  top: "weight-dsn4-3"
}
layer {
  name: "sigmoid-dsn3"
  type: "Sigmoid"
  bottom: "weight-dsn4-3"
  top: "sigmoid-dsn3"
}
layer {
  name: "rev-dsn3"
  type: "Power"
  bottom: "sigmoid-dsn3"
  top: "rev-dsn3"
  power_param {
    power: 1
    scale: -1
    shift: 1
  }
}
layer {
  name: "tile-dsn3"
  type: "Tile"
  bottom: "rev-dsn3"
  top: "weight-dsn3"
  tile_param {
    tiles: 256
  }
}
layer {
  name: "prod1-dsn3"
  type: "Eltwise"
  bottom: "conv3_3"
  bottom: "weight-dsn3"
  top: "prod1-dsn3"
  eltwise_param {
    operation: PROD
  }
}
layer {
  name: "conv1-dsn3"
  type: "Convolution"
  bottom: "prod1-dsn3"
  top: "conv1-dsn3"
  param {
    lr_mult: 1
    decay_mult: 1
  }
  param {
    lr_mult: 2
    decay_mult: 0
  }
  convolution_param {
    num_output: 64
    kernel_size: 1
    weight_filler {
      type: "gaussian"
      std: 0.01
    }
    bias_filler {
      type: "constant"
      value: 0
    }
    engine: CUDNN
  }
}
layer {
  name: "conv2-dsn3"
  type: "Convolution"
  bottom: "conv1-dsn3"
  top: "conv2-dsn3"
  param {
    lr_mult: 1
    decay_mult: 1
  }
  param {
    lr_mult: 2
    decay_mult: 0
  }
  convolution_param {
    num_output: 64
    pad: 1
    kernel_size: 3
    weight_filler {
      type: "gaussian"
      std: 0.01
    }
    bias_filler {
      type: "constant"
      value: 0
    }
    engine: CUDNN
  }
}
layer {
  name: "relu1-dsn3"
  type: "ReLU"
  bottom: "conv2-dsn3"
  top: "conv2-dsn3"
}
layer {
  name: "conv3-dsn3"
  type: "Convolution"
  bottom: "conv2-dsn3"
  top: "conv3-dsn3"
  param {
    lr_mult: 1
    decay_mult: 1
  }
  param {
    lr_mult: 2
    decay_mult: 0
  }
  convolution_param {
    num_output: 64
    pad: 1
    kernel_size: 3
    weight_filler {
      type: "gaussian"
      std: 0.01
    }
    bias_filler {
      type: "constant"
      value: 0
    }
    engine: CUDNN
  }
}
layer {
  name: "relu2-dsn3"
  type: "ReLU"
  bottom: "conv3-dsn3"
  top: "conv3-dsn3"
}
layer {
  name: "conv4-dsn3"
  type: "Convolution"
  bottom: "conv3-dsn3"
  top: "conv4-dsn3"
  param {
    lr_mult: 1
    decay_mult: 1
  }
  param {
    lr_mult: 2
    decay_mult: 0
  }
  convolution_param {
    num_output: 1
    pad: 1
    kernel_size: 3
    weight_filler {
      type: "gaussian"
      std: 0.01
    }
    bias_filler {
      type: "constant"
      value: 0
    }
    engine: CUDNN
  }
}
layer {
  name: "sum-dsn3"
  type: "Eltwise"
  bottom: "conv4-dsn3"
  bottom: "weight-dsn4-3"
  top: "sum-dsn3"
  eltwise_param {
    operation: SUM
  }
}
layer {
  name: "upsample4_dsn3"
  type: "Deconvolution"
  bottom: "sum-dsn3"
  top: "sum-dsn3-up"
  param {
    lr_mult: 0
    decay_mult: 1
  }
  param {
    lr_mult: 0
    decay_mult: 0
  }
  convolution_param {
    num_output: 1
    kernel_size: 8
    stride: 4
  }
}
layer {
  name: "crop2-dsn3"
  type: "Crop"
  bottom: "sum-dsn3-up"
  bottom: "data"
  top: "upscore-dsn3"
}
layer {
  name: "loss3-score"
  type: "SigmoidCrossEntropyLoss"
  bottom: "upscore-dsn3"
  bottom: "label"
  top: "loss3-score"
  loss_weight: 1
}
layer {
  name: "upsample2_1-dsn2"
  type: "Deconvolution"
  bottom: "sum-dsn3"
  top: "sum-dsn3-2"
  param {
    lr_mult: 0
    decay_mult: 1
  }
  param {
    lr_mult: 0
    decay_mult: 0
  }
  convolution_param {
    num_output: 1
    kernel_size: 4
    stride: 2
  }
}
layer {
  name: "crop1-dsn2"
  type: "Crop"
  bottom: "sum-dsn3-2"
  bottom: "conv2_2"
  top: "weight-dsn3-2"
}
layer {
  name: "sigmoid-dsn2"
  type: "Sigmoid"
  bottom: "weight-dsn3-2"
  top: "sigmoid-dsn2"
}
layer {
  name: "rev-dsn2"
  type: "Power"
  bottom: "sigmoid-dsn2"
  top: "rev-dsn2"
  power_param {
    power: 1
    scale: -1
    shift: 1
  }
}
layer {
  name: "tile-dsn2"
  type: "Tile"
  bottom: "rev-dsn2"
  top: "weight-dsn2"
  tile_param {
    tiles: 128
  }
}
layer {
  name: "prod1-dsn2"
  type: "Eltwise"
  bottom: "conv2_2"
  bottom: "weight-dsn2"
  top: "prod1-dsn2"
  eltwise_param {
    operation: PROD
  }
}
layer {
  name: "conv1-dsn2"
  type: "Convolution"
  bottom: "prod1-dsn2"
  top: "conv1-dsn2"
  param {
    lr_mult: 1
    decay_mult: 1
  }
  param {
    lr_mult: 2
    decay_mult: 0
  }
  convolution_param {
    num_output: 64
    kernel_size: 1
    weight_filler {
      type: "gaussian"
      std: 0.01
    }
    bias_filler {
      type: "constant"
      value: 0
    }
    engine: CUDNN
  }
}
layer {
  name: "conv2-dsn2"
  type: "Convolution"
  bottom: "conv1-dsn2"
  top: "conv2-dsn2"
  param {
    lr_mult: 1
    decay_mult: 1
  }
  param {
    lr_mult: 2
    decay_mult: 0
  }
  convolution_param {
    num_output: 64
    pad: 1
    kernel_size: 3
    weight_filler {
      type: "gaussian"
      std: 0.01
    }
    bias_filler {
      type: "constant"
      value: 0
    }
    engine: CUDNN
  }
}
layer {
  name: "relu1-dsn2"
  type: "ReLU"
  bottom: "conv2-dsn2"
  top: "conv2-dsn2"
}
layer {
  name: "conv3-dsn2"
  type: "Convolution"
  bottom: "conv2-dsn2"
  top: "conv3-dsn2"
  param {
    lr_mult: 1
    decay_mult: 1
  }
  param {
    lr_mult: 2
    decay_mult: 0
  }
  convolution_param {
    num_output: 64
    pad: 1
    kernel_size: 3
    weight_filler {
      type: "gaussian"
      std: 0.01
    }
    bias_filler {
      type: "constant"
      value: 0
    }
    engine: CUDNN
  }
}
layer {
  name: "relu2-dsn2"
  type: "ReLU"
  bottom: "conv3-dsn2"
  top: "conv3-dsn2"
}
layer {
  name: "conv4-dsn2"
  type: "Convolution"
  bottom: "conv3-dsn2"
  top: "conv4-dsn2"
  param {
    lr_mult: 1
    decay_mult: 1
  }
  param {
    lr_mult: 2
    decay_mult: 0
  }
  convolution_param {
    num_output: 1
    pad: 1
    kernel_size: 3
    weight_filler {
      type: "gaussian"
      std: 0.01
    }
    bias_filler {
      type: "constant"
      value: 0
    }
    engine: CUDNN
  }
}
layer {
  name: "sum-dsn2"
  type: "Eltwise"
  bottom: "conv4-dsn2"
  bottom: "weight-dsn3-2"
  top: "sum-dsn2"
  eltwise_param {
    operation: SUM
  }
}
layer {
  name: "upsample2_2-dsn2"
  type: "Deconvolution"
  bottom: "sum-dsn2"
  top: "sum-dsn2-up"
  param {
    lr_mult: 0
    decay_mult: 1
  }
  param {
    lr_mult: 0
    decay_mult: 0
  }
  convolution_param {
    num_output: 1
    kernel_size: 4
    stride: 2
  }
}
layer {
  name: "crop2-dsn2"
  type: "Crop"
  bottom: "sum-dsn2-up"
  bottom: "data"
  top: "upscore-dsn2"
}
layer {
  name: "loss2-score"
  type: "SigmoidCrossEntropyLoss"
  bottom: "upscore-dsn2"
  bottom: "label"
  top: "loss2-score"
  loss_weight: 1
}
layer {
  name: "sigmoid-dsn1"
  type: "Sigmoid"
  bottom: "upscore-dsn2"
  top: "sigmoid-dsn1"
}
layer {
  name: "rev-dsn1"
  type: "Power"
  bottom: "sigmoid-dsn1"
  top: "rev-dsn1"
  power_param {
    power: 1
    scale: -1
    shift: 1
  }
}
layer {
  name: "tile-dsn1"
  type: "Tile"
  bottom: "rev-dsn1"
  top: "weight-dsn1"
  tile_param {
    tiles: 64
  }
}
layer {
  name: "prod1-dsn1"
  type: "Eltwise"
  bottom: "conv1_2"
  bottom: "weight-dsn1"
  top: "prod1-dsn1"
  eltwise_param {
    operation: PROD
  }
}
layer {
  name: "conv1-dsn1"
  type: "Convolution"
  bottom: "prod1-dsn1"
  top: "conv1-dsn1"
  param {
    lr_mult: 1
    decay_mult: 1
  }
  param {
    lr_mult: 2
    decay_mult: 0
  }
  convolution_param {
    num_output: 64
    kernel_size: 1
    weight_filler {
      type: "gaussian"
      std: 0.01
    }
    bias_filler {
      type: "constant"
      value: 0
    }
    engine: CUDNN
  }
}
layer {
  name: "conv2-dsn1"
  type: "Convolution"
  bottom: "conv1-dsn1"
  top: "conv2-dsn1"
  param {
    lr_mult: 1
    decay_mult: 1
  }
  param {
    lr_mult: 2
    decay_mult: 0
  }
  convolution_param {
    num_output: 64
    pad: 1
    kernel_size: 3
    weight_filler {
      type: "gaussian"
      std: 0.01
    }
    bias_filler {
      type: "constant"
      value: 0
    }
    engine: CUDNN
  }
}
layer {
  name: "relu1-dsn1"
  type: "ReLU"
  bottom: "conv2-dsn1"
  top: "conv2-dsn1"
}
layer {
  name: "conv3-dsn1"
  type: "Convolution"
  bottom: "conv2-dsn1"
  top: "conv3-dsn1"
  param {
    lr_mult: 1
    decay_mult: 1
  }
  param {
    lr_mult: 2
    decay_mult: 0
  }
  convolution_param {
    num_output: 64
    pad: 1
    kernel_size: 3
    weight_filler {
      type: "gaussian"
      std: 0.01
    }
    bias_filler {
      type: "constant"
      value: 0
    }
    engine: CUDNN
  }
}
layer {
  name: "relu2-dsn1"
  type: "ReLU"
  bottom: "conv3-dsn1"
  top: "conv3-dsn1"
}
layer {
  name: "conv4-dsn1"
  type: "Convolution"
  bottom: "conv3-dsn1"
  top: "conv4-dsn1"
  param {
    lr_mult: 1
    decay_mult: 1
  }
  param {
    lr_mult: 2
    decay_mult: 0
  }
  convolution_param {
    num_output: 1
    pad: 1
    kernel_size: 3
    weight_filler {
      type: "gaussian"
      std: 0.01
    }
    bias_filler {
      type: "constant"
      value: 0
    }
    engine: CUDNN
  }
}
layer {
  name: "sum-dsn1"
  type: "Eltwise"
  bottom: "conv4-dsn1"
  bottom: "upscore-dsn2"
  top: "sum-dsn1"
  eltwise_param {
    operation: SUM
  }
}
layer {
  name: "crop2-dsn1"
  type: "Crop"
  bottom: "sum-dsn1"
  bottom: "data"
  top: "upscore-dsn1"
}
layer {
  name: "loss1-score"
  type: "SigmoidCrossEntropyLoss"
  bottom: "upscore-dsn1"
  bottom: "label"
  top: "loss1-score"
  loss_weight: 1
}
I1118 18:14:48.866494  2573 layer_factory.hpp:77] Creating layer data
I1118 18:14:48.866516  2573 net.cpp:100] Creating Layer data
I1118 18:14:48.866523  2573 net.cpp:408] data -> data_unaugmented
I1118 18:14:48.866535  2573 net.cpp:408] data -> label_unaugmented
I1118 18:14:48.866545  2573 image_labelmap_data_layer.cpp:41] Opening file /media/compute/homes/galberding/FleckDetect/Datasets/FleckDataSet/train/image_to_label_map.txt
I1118 18:14:48.869247  2573 image_labelmap_data_layer.cpp:51] Shuffling data
I1118 18:14:48.869401  2573 image_labelmap_data_layer.cpp:56] A total of 294 images.
I1118 18:14:49.210878  2573 image_labelmap_data_layer.cpp:110] output data size: 1,3,500,500
I1118 18:14:49.210911  2573 image_labelmap_data_layer.cpp:113] output label size: 1,1,500,500
I1118 18:14:49.221179  2573 net.cpp:150] Setting up data
I1118 18:14:49.221208  2573 net.cpp:157] Top shape: 1 3 500 500 (750000)
I1118 18:14:49.221217  2573 net.cpp:157] Top shape: 1 1 500 500 (250000)
I1118 18:14:49.221221  2573 net.cpp:165] Memory required for data: 4000000
I1118 18:14:49.221232  2573 layer_factory.hpp:77] Creating layer augmentation
I1118 18:14:49.227900  2573 net.cpp:100] Creating Layer augmentation
I1118 18:14:49.227916  2573 net.cpp:434] augmentation <- data_unaugmented
I1118 18:14:49.227927  2573 net.cpp:434] augmentation <- label_unaugmented
I1118 18:14:49.227938  2573 net.cpp:408] augmentation -> data
I1118 18:14:49.227954  2573 net.cpp:408] augmentation -> label
I1118 18:14:49.230255  2573 net.cpp:150] Setting up augmentation
I1118 18:14:49.230278  2573 net.cpp:157] Top shape: 1 3 500 500 (750000)
I1118 18:14:49.230286  2573 net.cpp:157] Top shape: 1 1 500 500 (250000)
I1118 18:14:49.230291  2573 net.cpp:165] Memory required for data: 8000000
I1118 18:14:49.230298  2573 layer_factory.hpp:77] Creating layer data_augmentation_0_split
I1118 18:14:49.230324  2573 net.cpp:100] Creating Layer data_augmentation_0_split
I1118 18:14:49.230329  2573 net.cpp:434] data_augmentation_0_split <- data
I1118 18:14:49.230342  2573 net.cpp:408] data_augmentation_0_split -> data_augmentation_0_split_0
I1118 18:14:49.230358  2573 net.cpp:408] data_augmentation_0_split -> data_augmentation_0_split_1
I1118 18:14:49.230373  2573 net.cpp:408] data_augmentation_0_split -> data_augmentation_0_split_2
I1118 18:14:49.230386  2573 net.cpp:408] data_augmentation_0_split -> data_augmentation_0_split_3
I1118 18:14:49.230397  2573 net.cpp:408] data_augmentation_0_split -> data_augmentation_0_split_4
I1118 18:14:49.230413  2573 net.cpp:408] data_augmentation_0_split -> data_augmentation_0_split_5
I1118 18:14:49.230424  2573 net.cpp:408] data_augmentation_0_split -> data_augmentation_0_split_6
I1118 18:14:49.230526  2573 net.cpp:150] Setting up data_augmentation_0_split
I1118 18:14:49.230537  2573 net.cpp:157] Top shape: 1 3 500 500 (750000)
I1118 18:14:49.230545  2573 net.cpp:157] Top shape: 1 3 500 500 (750000)
I1118 18:14:49.230551  2573 net.cpp:157] Top shape: 1 3 500 500 (750000)
I1118 18:14:49.230556  2573 net.cpp:157] Top shape: 1 3 500 500 (750000)
I1118 18:14:49.230564  2573 net.cpp:157] Top shape: 1 3 500 500 (750000)
I1118 18:14:49.230571  2573 net.cpp:157] Top shape: 1 3 500 500 (750000)
I1118 18:14:49.230577  2573 net.cpp:157] Top shape: 1 3 500 500 (750000)
I1118 18:14:49.230581  2573 net.cpp:165] Memory required for data: 29000000
I1118 18:14:49.230587  2573 layer_factory.hpp:77] Creating layer label_augmentation_1_split
I1118 18:14:49.230597  2573 net.cpp:100] Creating Layer label_augmentation_1_split
I1118 18:14:49.230603  2573 net.cpp:434] label_augmentation_1_split <- label
I1118 18:14:49.230613  2573 net.cpp:408] label_augmentation_1_split -> label_augmentation_1_split_0
I1118 18:14:49.230626  2573 net.cpp:408] label_augmentation_1_split -> label_augmentation_1_split_1
I1118 18:14:49.230639  2573 net.cpp:408] label_augmentation_1_split -> label_augmentation_1_split_2
I1118 18:14:49.230650  2573 net.cpp:408] label_augmentation_1_split -> label_augmentation_1_split_3
I1118 18:14:49.230664  2573 net.cpp:408] label_augmentation_1_split -> label_augmentation_1_split_4
I1118 18:14:49.230674  2573 net.cpp:408] label_augmentation_1_split -> label_augmentation_1_split_5
I1118 18:14:49.230765  2573 net.cpp:150] Setting up label_augmentation_1_split
I1118 18:14:49.230774  2573 net.cpp:157] Top shape: 1 1 500 500 (250000)
I1118 18:14:49.230782  2573 net.cpp:157] Top shape: 1 1 500 500 (250000)
I1118 18:14:49.230788  2573 net.cpp:157] Top shape: 1 1 500 500 (250000)
I1118 18:14:49.230795  2573 net.cpp:157] Top shape: 1 1 500 500 (250000)
I1118 18:14:49.230801  2573 net.cpp:157] Top shape: 1 1 500 500 (250000)
I1118 18:14:49.230808  2573 net.cpp:157] Top shape: 1 1 500 500 (250000)
I1118 18:14:49.230813  2573 net.cpp:165] Memory required for data: 35000000
I1118 18:14:49.230818  2573 layer_factory.hpp:77] Creating layer conv1_1
I1118 18:14:49.230837  2573 net.cpp:100] Creating Layer conv1_1
I1118 18:14:49.230844  2573 net.cpp:434] conv1_1 <- data_augmentation_0_split_0
I1118 18:14:49.230855  2573 net.cpp:408] conv1_1 -> conv1_1
I1118 18:14:49.612020  2573 net.cpp:150] Setting up conv1_1
I1118 18:14:49.612051  2573 net.cpp:157] Top shape: 1 64 500 500 (16000000)
I1118 18:14:49.612056  2573 net.cpp:165] Memory required for data: 99000000
I1118 18:14:49.612077  2573 layer_factory.hpp:77] Creating layer relu1_1
I1118 18:14:49.612090  2573 net.cpp:100] Creating Layer relu1_1
I1118 18:14:49.612095  2573 net.cpp:434] relu1_1 <- conv1_1
I1118 18:14:49.612102  2573 net.cpp:395] relu1_1 -> conv1_1 (in-place)
I1118 18:14:49.612177  2573 net.cpp:150] Setting up relu1_1
I1118 18:14:49.612186  2573 net.cpp:157] Top shape: 1 64 500 500 (16000000)
I1118 18:14:49.612190  2573 net.cpp:165] Memory required for data: 163000000
I1118 18:14:49.612195  2573 layer_factory.hpp:77] Creating layer conv1_2
I1118 18:14:49.612206  2573 net.cpp:100] Creating Layer conv1_2
I1118 18:14:49.612210  2573 net.cpp:434] conv1_2 <- conv1_1
I1118 18:14:49.612217  2573 net.cpp:408] conv1_2 -> conv1_2
I1118 18:14:49.613829  2573 net.cpp:150] Setting up conv1_2
I1118 18:14:49.613843  2573 net.cpp:157] Top shape: 1 64 500 500 (16000000)
I1118 18:14:49.613847  2573 net.cpp:165] Memory required for data: 227000000
I1118 18:14:49.613858  2573 layer_factory.hpp:77] Creating layer relu1_2
I1118 18:14:49.613865  2573 net.cpp:100] Creating Layer relu1_2
I1118 18:14:49.613869  2573 net.cpp:434] relu1_2 <- conv1_2
I1118 18:14:49.613875  2573 net.cpp:395] relu1_2 -> conv1_2 (in-place)
I1118 18:14:49.613945  2573 net.cpp:150] Setting up relu1_2
I1118 18:14:49.613953  2573 net.cpp:157] Top shape: 1 64 500 500 (16000000)
I1118 18:14:49.613957  2573 net.cpp:165] Memory required for data: 291000000
I1118 18:14:49.613960  2573 layer_factory.hpp:77] Creating layer conv1_2_relu1_2_0_split
I1118 18:14:49.613970  2573 net.cpp:100] Creating Layer conv1_2_relu1_2_0_split
I1118 18:14:49.613974  2573 net.cpp:434] conv1_2_relu1_2_0_split <- conv1_2
I1118 18:14:49.613981  2573 net.cpp:408] conv1_2_relu1_2_0_split -> conv1_2_relu1_2_0_split_0
I1118 18:14:49.613991  2573 net.cpp:408] conv1_2_relu1_2_0_split -> conv1_2_relu1_2_0_split_1
I1118 18:14:49.614029  2573 net.cpp:150] Setting up conv1_2_relu1_2_0_split
I1118 18:14:49.614035  2573 net.cpp:157] Top shape: 1 64 500 500 (16000000)
I1118 18:14:49.614042  2573 net.cpp:157] Top shape: 1 64 500 500 (16000000)
I1118 18:14:49.614044  2573 net.cpp:165] Memory required for data: 419000000
I1118 18:14:49.614048  2573 layer_factory.hpp:77] Creating layer pool1
I1118 18:14:49.614056  2573 net.cpp:100] Creating Layer pool1
I1118 18:14:49.614060  2573 net.cpp:434] pool1 <- conv1_2_relu1_2_0_split_0
I1118 18:14:49.614066  2573 net.cpp:408] pool1 -> pool1
I1118 18:14:49.614100  2573 net.cpp:150] Setting up pool1
I1118 18:14:49.614106  2573 net.cpp:157] Top shape: 1 64 250 250 (4000000)
I1118 18:14:49.614110  2573 net.cpp:165] Memory required for data: 435000000
I1118 18:14:49.614114  2573 layer_factory.hpp:77] Creating layer conv2_1
I1118 18:14:49.614122  2573 net.cpp:100] Creating Layer conv2_1
I1118 18:14:49.614126  2573 net.cpp:434] conv2_1 <- pool1
I1118 18:14:49.614132  2573 net.cpp:408] conv2_1 -> conv2_1
I1118 18:14:49.614805  2573 net.cpp:150] Setting up conv2_1
I1118 18:14:49.614818  2573 net.cpp:157] Top shape: 1 128 250 250 (8000000)
I1118 18:14:49.614822  2573 net.cpp:165] Memory required for data: 467000000
I1118 18:14:49.614835  2573 layer_factory.hpp:77] Creating layer relu2_1
I1118 18:14:49.614841  2573 net.cpp:100] Creating Layer relu2_1
I1118 18:14:49.614845  2573 net.cpp:434] relu2_1 <- conv2_1
I1118 18:14:49.614851  2573 net.cpp:395] relu2_1 -> conv2_1 (in-place)
I1118 18:14:49.615001  2573 net.cpp:150] Setting up relu2_1
I1118 18:14:49.615011  2573 net.cpp:157] Top shape: 1 128 250 250 (8000000)
I1118 18:14:49.615015  2573 net.cpp:165] Memory required for data: 499000000
I1118 18:14:49.615020  2573 layer_factory.hpp:77] Creating layer conv2_2
I1118 18:14:49.615028  2573 net.cpp:100] Creating Layer conv2_2
I1118 18:14:49.615032  2573 net.cpp:434] conv2_2 <- conv2_1
I1118 18:14:49.615039  2573 net.cpp:408] conv2_2 -> conv2_2
I1118 18:14:49.616792  2573 net.cpp:150] Setting up conv2_2
I1118 18:14:49.616806  2573 net.cpp:157] Top shape: 1 128 250 250 (8000000)
I1118 18:14:49.616809  2573 net.cpp:165] Memory required for data: 531000000
I1118 18:14:49.616817  2573 layer_factory.hpp:77] Creating layer relu2_2
I1118 18:14:49.616827  2573 net.cpp:100] Creating Layer relu2_2
I1118 18:14:49.616832  2573 net.cpp:434] relu2_2 <- conv2_2
I1118 18:14:49.616837  2573 net.cpp:395] relu2_2 -> conv2_2 (in-place)
I1118 18:14:49.617002  2573 net.cpp:150] Setting up relu2_2
I1118 18:14:49.617012  2573 net.cpp:157] Top shape: 1 128 250 250 (8000000)
I1118 18:14:49.617015  2573 net.cpp:165] Memory required for data: 563000000
I1118 18:14:49.617019  2573 layer_factory.hpp:77] Creating layer conv2_2_relu2_2_0_split
I1118 18:14:49.617027  2573 net.cpp:100] Creating Layer conv2_2_relu2_2_0_split
I1118 18:14:49.617030  2573 net.cpp:434] conv2_2_relu2_2_0_split <- conv2_2
I1118 18:14:49.617039  2573 net.cpp:408] conv2_2_relu2_2_0_split -> conv2_2_relu2_2_0_split_0
I1118 18:14:49.617048  2573 net.cpp:408] conv2_2_relu2_2_0_split -> conv2_2_relu2_2_0_split_1
I1118 18:14:49.617056  2573 net.cpp:408] conv2_2_relu2_2_0_split -> conv2_2_relu2_2_0_split_2
I1118 18:14:49.617106  2573 net.cpp:150] Setting up conv2_2_relu2_2_0_split
I1118 18:14:49.617113  2573 net.cpp:157] Top shape: 1 128 250 250 (8000000)
I1118 18:14:49.617118  2573 net.cpp:157] Top shape: 1 128 250 250 (8000000)
I1118 18:14:49.617122  2573 net.cpp:157] Top shape: 1 128 250 250 (8000000)
I1118 18:14:49.617125  2573 net.cpp:165] Memory required for data: 659000000
I1118 18:14:49.617130  2573 layer_factory.hpp:77] Creating layer pool2
I1118 18:14:49.617136  2573 net.cpp:100] Creating Layer pool2
I1118 18:14:49.617141  2573 net.cpp:434] pool2 <- conv2_2_relu2_2_0_split_0
I1118 18:14:49.617151  2573 net.cpp:408] pool2 -> pool2
I1118 18:14:49.617187  2573 net.cpp:150] Setting up pool2
I1118 18:14:49.617193  2573 net.cpp:157] Top shape: 1 128 125 125 (2000000)
I1118 18:14:49.617197  2573 net.cpp:165] Memory required for data: 667000000
I1118 18:14:49.617199  2573 layer_factory.hpp:77] Creating layer conv3_1
I1118 18:14:49.617215  2573 net.cpp:100] Creating Layer conv3_1
I1118 18:14:49.617220  2573 net.cpp:434] conv3_1 <- pool2
I1118 18:14:49.617226  2573 net.cpp:408] conv3_1 -> conv3_1
I1118 18:14:49.618844  2573 net.cpp:150] Setting up conv3_1
I1118 18:14:49.618857  2573 net.cpp:157] Top shape: 1 256 125 125 (4000000)
I1118 18:14:49.618861  2573 net.cpp:165] Memory required for data: 683000000
I1118 18:14:49.618875  2573 layer_factory.hpp:77] Creating layer relu3_1
I1118 18:14:49.618881  2573 net.cpp:100] Creating Layer relu3_1
I1118 18:14:49.618886  2573 net.cpp:434] relu3_1 <- conv3_1
I1118 18:14:49.618892  2573 net.cpp:395] relu3_1 -> conv3_1 (in-place)
I1118 18:14:49.619065  2573 net.cpp:150] Setting up relu3_1
I1118 18:14:49.619076  2573 net.cpp:157] Top shape: 1 256 125 125 (4000000)
I1118 18:14:49.619081  2573 net.cpp:165] Memory required for data: 699000000
I1118 18:14:49.619084  2573 layer_factory.hpp:77] Creating layer conv3_2
I1118 18:14:49.619096  2573 net.cpp:100] Creating Layer conv3_2
I1118 18:14:49.619099  2573 net.cpp:434] conv3_2 <- conv3_1
I1118 18:14:49.619108  2573 net.cpp:408] conv3_2 -> conv3_2
I1118 18:14:49.621031  2573 net.cpp:150] Setting up conv3_2
I1118 18:14:49.621044  2573 net.cpp:157] Top shape: 1 256 125 125 (4000000)
I1118 18:14:49.621047  2573 net.cpp:165] Memory required for data: 715000000
I1118 18:14:49.621057  2573 layer_factory.hpp:77] Creating layer relu3_2
I1118 18:14:49.621065  2573 net.cpp:100] Creating Layer relu3_2
I1118 18:14:49.621069  2573 net.cpp:434] relu3_2 <- conv3_2
I1118 18:14:49.621075  2573 net.cpp:395] relu3_2 -> conv3_2 (in-place)
I1118 18:14:49.621152  2573 net.cpp:150] Setting up relu3_2
I1118 18:14:49.621160  2573 net.cpp:157] Top shape: 1 256 125 125 (4000000)
I1118 18:14:49.621163  2573 net.cpp:165] Memory required for data: 731000000
I1118 18:14:49.621167  2573 layer_factory.hpp:77] Creating layer conv3_3
I1118 18:14:49.621178  2573 net.cpp:100] Creating Layer conv3_3
I1118 18:14:49.621182  2573 net.cpp:434] conv3_3 <- conv3_2
I1118 18:14:49.621191  2573 net.cpp:408] conv3_3 -> conv3_3
I1118 18:14:49.623131  2573 net.cpp:150] Setting up conv3_3
I1118 18:14:49.623143  2573 net.cpp:157] Top shape: 1 256 125 125 (4000000)
I1118 18:14:49.623147  2573 net.cpp:165] Memory required for data: 747000000
I1118 18:14:49.623155  2573 layer_factory.hpp:77] Creating layer relu3_3
I1118 18:14:49.623164  2573 net.cpp:100] Creating Layer relu3_3
I1118 18:14:49.623168  2573 net.cpp:434] relu3_3 <- conv3_3
I1118 18:14:49.623174  2573 net.cpp:395] relu3_3 -> conv3_3 (in-place)
I1118 18:14:49.623248  2573 net.cpp:150] Setting up relu3_3
I1118 18:14:49.623256  2573 net.cpp:157] Top shape: 1 256 125 125 (4000000)
I1118 18:14:49.623260  2573 net.cpp:165] Memory required for data: 763000000
I1118 18:14:49.623265  2573 layer_factory.hpp:77] Creating layer conv3_3_relu3_3_0_split
I1118 18:14:49.623270  2573 net.cpp:100] Creating Layer conv3_3_relu3_3_0_split
I1118 18:14:49.623275  2573 net.cpp:434] conv3_3_relu3_3_0_split <- conv3_3
I1118 18:14:49.623283  2573 net.cpp:408] conv3_3_relu3_3_0_split -> conv3_3_relu3_3_0_split_0
I1118 18:14:49.623292  2573 net.cpp:408] conv3_3_relu3_3_0_split -> conv3_3_relu3_3_0_split_1
I1118 18:14:49.623314  2573 net.cpp:408] conv3_3_relu3_3_0_split -> conv3_3_relu3_3_0_split_2
I1118 18:14:49.623359  2573 net.cpp:150] Setting up conv3_3_relu3_3_0_split
I1118 18:14:49.623365  2573 net.cpp:157] Top shape: 1 256 125 125 (4000000)
I1118 18:14:49.623373  2573 net.cpp:157] Top shape: 1 256 125 125 (4000000)
I1118 18:14:49.623378  2573 net.cpp:157] Top shape: 1 256 125 125 (4000000)
I1118 18:14:49.623380  2573 net.cpp:165] Memory required for data: 811000000
I1118 18:14:49.623384  2573 layer_factory.hpp:77] Creating layer pool3
I1118 18:14:49.623391  2573 net.cpp:100] Creating Layer pool3
I1118 18:14:49.623394  2573 net.cpp:434] pool3 <- conv3_3_relu3_3_0_split_0
I1118 18:14:49.623404  2573 net.cpp:408] pool3 -> pool3
I1118 18:14:49.623436  2573 net.cpp:150] Setting up pool3
I1118 18:14:49.623442  2573 net.cpp:157] Top shape: 1 256 63 63 (1016064)
I1118 18:14:49.623445  2573 net.cpp:165] Memory required for data: 815064256
I1118 18:14:49.623448  2573 layer_factory.hpp:77] Creating layer conv4_1
I1118 18:14:49.623459  2573 net.cpp:100] Creating Layer conv4_1
I1118 18:14:49.623462  2573 net.cpp:434] conv4_1 <- pool3
I1118 18:14:49.623471  2573 net.cpp:408] conv4_1 -> conv4_1
I1118 18:14:49.627560  2573 net.cpp:150] Setting up conv4_1
I1118 18:14:49.627574  2573 net.cpp:157] Top shape: 1 512 63 63 (2032128)
I1118 18:14:49.627579  2573 net.cpp:165] Memory required for data: 823192768
I1118 18:14:49.627588  2573 layer_factory.hpp:77] Creating layer relu4_1
I1118 18:14:49.627596  2573 net.cpp:100] Creating Layer relu4_1
I1118 18:14:49.627601  2573 net.cpp:434] relu4_1 <- conv4_1
I1118 18:14:49.627607  2573 net.cpp:395] relu4_1 -> conv4_1 (in-place)
I1118 18:14:49.627681  2573 net.cpp:150] Setting up relu4_1
I1118 18:14:49.627691  2573 net.cpp:157] Top shape: 1 512 63 63 (2032128)
I1118 18:14:49.627693  2573 net.cpp:165] Memory required for data: 831321280
I1118 18:14:49.627697  2573 layer_factory.hpp:77] Creating layer conv4_2
I1118 18:14:49.627707  2573 net.cpp:100] Creating Layer conv4_2
I1118 18:14:49.627710  2573 net.cpp:434] conv4_2 <- conv4_1
I1118 18:14:49.627722  2573 net.cpp:408] conv4_2 -> conv4_2
I1118 18:14:49.633210  2573 net.cpp:150] Setting up conv4_2
I1118 18:14:49.633225  2573 net.cpp:157] Top shape: 1 512 63 63 (2032128)
I1118 18:14:49.633229  2573 net.cpp:165] Memory required for data: 839449792
I1118 18:14:49.633244  2573 layer_factory.hpp:77] Creating layer relu4_2
I1118 18:14:49.633252  2573 net.cpp:100] Creating Layer relu4_2
I1118 18:14:49.633257  2573 net.cpp:434] relu4_2 <- conv4_2
I1118 18:14:49.633265  2573 net.cpp:395] relu4_2 -> conv4_2 (in-place)
I1118 18:14:49.633440  2573 net.cpp:150] Setting up relu4_2
I1118 18:14:49.633450  2573 net.cpp:157] Top shape: 1 512 63 63 (2032128)
I1118 18:14:49.633453  2573 net.cpp:165] Memory required for data: 847578304
I1118 18:14:49.633457  2573 layer_factory.hpp:77] Creating layer conv4_3
I1118 18:14:49.633469  2573 net.cpp:100] Creating Layer conv4_3
I1118 18:14:49.633473  2573 net.cpp:434] conv4_3 <- conv4_2
I1118 18:14:49.633483  2573 net.cpp:408] conv4_3 -> conv4_3
I1118 18:14:49.638636  2573 net.cpp:150] Setting up conv4_3
I1118 18:14:49.638650  2573 net.cpp:157] Top shape: 1 512 63 63 (2032128)
I1118 18:14:49.638654  2573 net.cpp:165] Memory required for data: 855706816
I1118 18:14:49.638662  2573 layer_factory.hpp:77] Creating layer relu4_3
I1118 18:14:49.638671  2573 net.cpp:100] Creating Layer relu4_3
I1118 18:14:49.638676  2573 net.cpp:434] relu4_3 <- conv4_3
I1118 18:14:49.638682  2573 net.cpp:395] relu4_3 -> conv4_3 (in-place)
I1118 18:14:49.638849  2573 net.cpp:150] Setting up relu4_3
I1118 18:14:49.638875  2573 net.cpp:157] Top shape: 1 512 63 63 (2032128)
I1118 18:14:49.638878  2573 net.cpp:165] Memory required for data: 863835328
I1118 18:14:49.638881  2573 layer_factory.hpp:77] Creating layer conv4_3_relu4_3_0_split
I1118 18:14:49.638888  2573 net.cpp:100] Creating Layer conv4_3_relu4_3_0_split
I1118 18:14:49.638892  2573 net.cpp:434] conv4_3_relu4_3_0_split <- conv4_3
I1118 18:14:49.638900  2573 net.cpp:408] conv4_3_relu4_3_0_split -> conv4_3_relu4_3_0_split_0
I1118 18:14:49.638909  2573 net.cpp:408] conv4_3_relu4_3_0_split -> conv4_3_relu4_3_0_split_1
I1118 18:14:49.638916  2573 net.cpp:408] conv4_3_relu4_3_0_split -> conv4_3_relu4_3_0_split_2
I1118 18:14:49.638965  2573 net.cpp:150] Setting up conv4_3_relu4_3_0_split
I1118 18:14:49.638972  2573 net.cpp:157] Top shape: 1 512 63 63 (2032128)
I1118 18:14:49.638976  2573 net.cpp:157] Top shape: 1 512 63 63 (2032128)
I1118 18:14:49.638980  2573 net.cpp:157] Top shape: 1 512 63 63 (2032128)
I1118 18:14:49.638983  2573 net.cpp:165] Memory required for data: 888220864
I1118 18:14:49.638988  2573 layer_factory.hpp:77] Creating layer pool4
I1118 18:14:49.638994  2573 net.cpp:100] Creating Layer pool4
I1118 18:14:49.638998  2573 net.cpp:434] pool4 <- conv4_3_relu4_3_0_split_0
I1118 18:14:49.639006  2573 net.cpp:408] pool4 -> pool4
I1118 18:14:49.639041  2573 net.cpp:150] Setting up pool4
I1118 18:14:49.639047  2573 net.cpp:157] Top shape: 1 512 32 32 (524288)
I1118 18:14:49.639050  2573 net.cpp:165] Memory required for data: 890318016
I1118 18:14:49.639053  2573 layer_factory.hpp:77] Creating layer conv5_1
I1118 18:14:49.639073  2573 net.cpp:100] Creating Layer conv5_1
I1118 18:14:49.639077  2573 net.cpp:434] conv5_1 <- pool4
I1118 18:14:49.639083  2573 net.cpp:408] conv5_1 -> conv5_1
I1118 18:14:49.645290  2573 net.cpp:150] Setting up conv5_1
I1118 18:14:49.645324  2573 net.cpp:157] Top shape: 1 512 32 32 (524288)
I1118 18:14:49.645328  2573 net.cpp:165] Memory required for data: 892415168
I1118 18:14:49.645336  2573 layer_factory.hpp:77] Creating layer relu5_1
I1118 18:14:49.645344  2573 net.cpp:100] Creating Layer relu5_1
I1118 18:14:49.645349  2573 net.cpp:434] relu5_1 <- conv5_1
I1118 18:14:49.645354  2573 net.cpp:395] relu5_1 -> conv5_1 (in-place)
I1118 18:14:49.645431  2573 net.cpp:150] Setting up relu5_1
I1118 18:14:49.645438  2573 net.cpp:157] Top shape: 1 512 32 32 (524288)
I1118 18:14:49.645442  2573 net.cpp:165] Memory required for data: 894512320
I1118 18:14:49.645445  2573 layer_factory.hpp:77] Creating layer conv5_2
I1118 18:14:49.645455  2573 net.cpp:100] Creating Layer conv5_2
I1118 18:14:49.645459  2573 net.cpp:434] conv5_2 <- conv5_1
I1118 18:14:49.645465  2573 net.cpp:408] conv5_2 -> conv5_2
I1118 18:14:49.650457  2573 net.cpp:150] Setting up conv5_2
I1118 18:14:49.650470  2573 net.cpp:157] Top shape: 1 512 32 32 (524288)
I1118 18:14:49.650472  2573 net.cpp:165] Memory required for data: 896609472
I1118 18:14:49.650480  2573 layer_factory.hpp:77] Creating layer relu5_2
I1118 18:14:49.650493  2573 net.cpp:100] Creating Layer relu5_2
I1118 18:14:49.650497  2573 net.cpp:434] relu5_2 <- conv5_2
I1118 18:14:49.650502  2573 net.cpp:395] relu5_2 -> conv5_2 (in-place)
I1118 18:14:49.650573  2573 net.cpp:150] Setting up relu5_2
I1118 18:14:49.650580  2573 net.cpp:157] Top shape: 1 512 32 32 (524288)
I1118 18:14:49.650583  2573 net.cpp:165] Memory required for data: 898706624
I1118 18:14:49.650586  2573 layer_factory.hpp:77] Creating layer conv5_3
I1118 18:14:49.650596  2573 net.cpp:100] Creating Layer conv5_3
I1118 18:14:49.650600  2573 net.cpp:434] conv5_3 <- conv5_2
I1118 18:14:49.650609  2573 net.cpp:408] conv5_3 -> conv5_3
I1118 18:14:49.655560  2573 net.cpp:150] Setting up conv5_3
I1118 18:14:49.655572  2573 net.cpp:157] Top shape: 1 512 32 32 (524288)
I1118 18:14:49.655576  2573 net.cpp:165] Memory required for data: 900803776
I1118 18:14:49.655583  2573 layer_factory.hpp:77] Creating layer relu5_3
I1118 18:14:49.655592  2573 net.cpp:100] Creating Layer relu5_3
I1118 18:14:49.655596  2573 net.cpp:434] relu5_3 <- conv5_3
I1118 18:14:49.655602  2573 net.cpp:395] relu5_3 -> conv5_3 (in-place)
I1118 18:14:49.655674  2573 net.cpp:150] Setting up relu5_3
I1118 18:14:49.655683  2573 net.cpp:157] Top shape: 1 512 32 32 (524288)
I1118 18:14:49.655685  2573 net.cpp:165] Memory required for data: 902900928
I1118 18:14:49.655689  2573 layer_factory.hpp:77] Creating layer conv5_3_relu5_3_0_split
I1118 18:14:49.655699  2573 net.cpp:100] Creating Layer conv5_3_relu5_3_0_split
I1118 18:14:49.655702  2573 net.cpp:434] conv5_3_relu5_3_0_split <- conv5_3
I1118 18:14:49.655709  2573 net.cpp:408] conv5_3_relu5_3_0_split -> conv5_3_relu5_3_0_split_0
I1118 18:14:49.655717  2573 net.cpp:408] conv5_3_relu5_3_0_split -> conv5_3_relu5_3_0_split_1
I1118 18:14:49.655723  2573 net.cpp:408] conv5_3_relu5_3_0_split -> conv5_3_relu5_3_0_split_2
I1118 18:14:49.655761  2573 net.cpp:150] Setting up conv5_3_relu5_3_0_split
I1118 18:14:49.655767  2573 net.cpp:157] Top shape: 1 512 32 32 (524288)
I1118 18:14:49.655771  2573 net.cpp:157] Top shape: 1 512 32 32 (524288)
I1118 18:14:49.655776  2573 net.cpp:157] Top shape: 1 512 32 32 (524288)
I1118 18:14:49.655778  2573 net.cpp:165] Memory required for data: 909192384
I1118 18:14:49.655782  2573 layer_factory.hpp:77] Creating layer pool5
I1118 18:14:49.655791  2573 net.cpp:100] Creating Layer pool5
I1118 18:14:49.655794  2573 net.cpp:434] pool5 <- conv5_3_relu5_3_0_split_0
I1118 18:14:49.655800  2573 net.cpp:408] pool5 -> pool5
I1118 18:14:49.655834  2573 net.cpp:150] Setting up pool5
I1118 18:14:49.655840  2573 net.cpp:157] Top shape: 1 512 17 17 (147968)
I1118 18:14:49.655843  2573 net.cpp:165] Memory required for data: 909784256
I1118 18:14:49.655846  2573 layer_factory.hpp:77] Creating layer conv1-dsn6
I1118 18:14:49.655858  2573 net.cpp:100] Creating Layer conv1-dsn6
I1118 18:14:49.655860  2573 net.cpp:434] conv1-dsn6 <- pool5
I1118 18:14:49.655869  2573 net.cpp:408] conv1-dsn6 -> conv1-dsn6
I1118 18:14:49.657446  2573 net.cpp:150] Setting up conv1-dsn6
I1118 18:14:49.657457  2573 net.cpp:157] Top shape: 1 256 17 17 (73984)
I1118 18:14:49.657461  2573 net.cpp:165] Memory required for data: 910080192
I1118 18:14:49.657469  2573 layer_factory.hpp:77] Creating layer conv2-dsn6
I1118 18:14:49.657481  2573 net.cpp:100] Creating Layer conv2-dsn6
I1118 18:14:49.657486  2573 net.cpp:434] conv2-dsn6 <- conv1-dsn6
I1118 18:14:49.657493  2573 net.cpp:408] conv2-dsn6 -> conv2-dsn6
I1118 18:14:49.673976  2573 net.cpp:150] Setting up conv2-dsn6
I1118 18:14:49.673990  2573 net.cpp:157] Top shape: 1 256 17 17 (73984)
I1118 18:14:49.673995  2573 net.cpp:165] Memory required for data: 910376128
I1118 18:14:49.674001  2573 layer_factory.hpp:77] Creating layer relu1-dsn6
I1118 18:14:49.674007  2573 net.cpp:100] Creating Layer relu1-dsn6
I1118 18:14:49.674011  2573 net.cpp:434] relu1-dsn6 <- conv2-dsn6
I1118 18:14:49.674019  2573 net.cpp:395] relu1-dsn6 -> conv2-dsn6 (in-place)
I1118 18:14:49.674093  2573 net.cpp:150] Setting up relu1-dsn6
I1118 18:14:49.674101  2573 net.cpp:157] Top shape: 1 256 17 17 (73984)
I1118 18:14:49.674104  2573 net.cpp:165] Memory required for data: 910672064
I1118 18:14:49.674108  2573 layer_factory.hpp:77] Creating layer conv3-dsn6
I1118 18:14:49.674119  2573 net.cpp:100] Creating Layer conv3-dsn6
I1118 18:14:49.674124  2573 net.cpp:434] conv3-dsn6 <- conv2-dsn6
I1118 18:14:49.674130  2573 net.cpp:408] conv3-dsn6 -> conv3-dsn6
I1118 18:14:49.689415  2573 net.cpp:150] Setting up conv3-dsn6
I1118 18:14:49.689429  2573 net.cpp:157] Top shape: 1 256 17 17 (73984)
I1118 18:14:49.689433  2573 net.cpp:165] Memory required for data: 910968000
I1118 18:14:49.689440  2573 layer_factory.hpp:77] Creating layer relu2-dsn6
I1118 18:14:49.689446  2573 net.cpp:100] Creating Layer relu2-dsn6
I1118 18:14:49.689450  2573 net.cpp:434] relu2-dsn6 <- conv3-dsn6
I1118 18:14:49.689455  2573 net.cpp:395] relu2-dsn6 -> conv3-dsn6 (in-place)
I1118 18:14:49.689528  2573 net.cpp:150] Setting up relu2-dsn6
I1118 18:14:49.689536  2573 net.cpp:157] Top shape: 1 256 17 17 (73984)
I1118 18:14:49.689539  2573 net.cpp:165] Memory required for data: 911263936
I1118 18:14:49.689543  2573 layer_factory.hpp:77] Creating layer conv4-dsn6
I1118 18:14:49.689554  2573 net.cpp:100] Creating Layer conv4-dsn6
I1118 18:14:49.689558  2573 net.cpp:434] conv4-dsn6 <- conv3-dsn6
I1118 18:14:49.689565  2573 net.cpp:408] conv4-dsn6 -> conv4-dsn6
I1118 18:14:49.704850  2573 net.cpp:150] Setting up conv4-dsn6
I1118 18:14:49.704862  2573 net.cpp:157] Top shape: 1 256 17 17 (73984)
I1118 18:14:49.704866  2573 net.cpp:165] Memory required for data: 911559872
I1118 18:14:49.704885  2573 layer_factory.hpp:77] Creating layer relu3-dsn6
I1118 18:14:49.704892  2573 net.cpp:100] Creating Layer relu3-dsn6
I1118 18:14:49.704895  2573 net.cpp:434] relu3-dsn6 <- conv4-dsn6
I1118 18:14:49.704901  2573 net.cpp:395] relu3-dsn6 -> conv4-dsn6 (in-place)
I1118 18:14:49.705057  2573 net.cpp:150] Setting up relu3-dsn6
I1118 18:14:49.705067  2573 net.cpp:157] Top shape: 1 256 17 17 (73984)
I1118 18:14:49.705070  2573 net.cpp:165] Memory required for data: 911855808
I1118 18:14:49.705075  2573 layer_factory.hpp:77] Creating layer conv5-dsn6
I1118 18:14:49.705087  2573 net.cpp:100] Creating Layer conv5-dsn6
I1118 18:14:49.705091  2573 net.cpp:434] conv5-dsn6 <- conv4-dsn6
I1118 18:14:49.705101  2573 net.cpp:408] conv5-dsn6 -> conv5-dsn6
I1118 18:14:49.705565  2573 net.cpp:150] Setting up conv5-dsn6
I1118 18:14:49.705576  2573 net.cpp:157] Top shape: 1 1 17 17 (289)
I1118 18:14:49.705579  2573 net.cpp:165] Memory required for data: 911856964
I1118 18:14:49.705586  2573 layer_factory.hpp:77] Creating layer conv5-dsn6_conv5-dsn6_0_split
I1118 18:14:49.705596  2573 net.cpp:100] Creating Layer conv5-dsn6_conv5-dsn6_0_split
I1118 18:14:49.705600  2573 net.cpp:434] conv5-dsn6_conv5-dsn6_0_split <- conv5-dsn6
I1118 18:14:49.705610  2573 net.cpp:408] conv5-dsn6_conv5-dsn6_0_split -> conv5-dsn6_conv5-dsn6_0_split_0
I1118 18:14:49.705617  2573 net.cpp:408] conv5-dsn6_conv5-dsn6_0_split -> conv5-dsn6_conv5-dsn6_0_split_1
I1118 18:14:49.705652  2573 net.cpp:150] Setting up conv5-dsn6_conv5-dsn6_0_split
I1118 18:14:49.705660  2573 net.cpp:157] Top shape: 1 1 17 17 (289)
I1118 18:14:49.705664  2573 net.cpp:157] Top shape: 1 1 17 17 (289)
I1118 18:14:49.705667  2573 net.cpp:165] Memory required for data: 911859276
I1118 18:14:49.705670  2573 layer_factory.hpp:77] Creating layer upsample32_dsn6
I1118 18:14:49.705678  2573 net.cpp:100] Creating Layer upsample32_dsn6
I1118 18:14:49.705682  2573 net.cpp:434] upsample32_dsn6 <- conv5-dsn6_conv5-dsn6_0_split_0
I1118 18:14:49.705690  2573 net.cpp:408] upsample32_dsn6 -> conv5-dsn6-up
I1118 18:14:49.706809  2573 net.cpp:150] Setting up upsample32_dsn6
I1118 18:14:49.706820  2573 net.cpp:157] Top shape: 1 1 576 576 (331776)
I1118 18:14:49.706823  2573 net.cpp:165] Memory required for data: 913186380
I1118 18:14:49.706831  2573 layer_factory.hpp:77] Creating layer crop-dsn6
I1118 18:14:49.706837  2573 net.cpp:100] Creating Layer crop-dsn6
I1118 18:14:49.706841  2573 net.cpp:434] crop-dsn6 <- conv5-dsn6-up
I1118 18:14:49.706846  2573 net.cpp:434] crop-dsn6 <- data_augmentation_0_split_1
I1118 18:14:49.706852  2573 net.cpp:408] crop-dsn6 -> upscore-dsn6
I1118 18:14:49.706884  2573 net.cpp:150] Setting up crop-dsn6
I1118 18:14:49.706892  2573 net.cpp:157] Top shape: 1 1 500 500 (250000)
I1118 18:14:49.706894  2573 net.cpp:165] Memory required for data: 914186380
I1118 18:14:49.706897  2573 layer_factory.hpp:77] Creating layer loss6-score
I1118 18:14:49.706909  2573 net.cpp:100] Creating Layer loss6-score
I1118 18:14:49.706912  2573 net.cpp:434] loss6-score <- upscore-dsn6
I1118 18:14:49.706918  2573 net.cpp:434] loss6-score <- label_augmentation_1_split_0
I1118 18:14:49.706924  2573 net.cpp:408] loss6-score -> loss6-score
I1118 18:14:49.707880  2573 net.cpp:150] Setting up loss6-score
I1118 18:14:49.707890  2573 net.cpp:157] Top shape: (1)
I1118 18:14:49.707892  2573 net.cpp:160]     with loss weight 1
I1118 18:14:49.707908  2573 net.cpp:165] Memory required for data: 914186384
I1118 18:14:49.707912  2573 layer_factory.hpp:77] Creating layer upsample2_dsn5
I1118 18:14:49.707922  2573 net.cpp:100] Creating Layer upsample2_dsn5
I1118 18:14:49.707926  2573 net.cpp:434] upsample2_dsn5 <- conv5-dsn6_conv5-dsn6_0_split_1
I1118 18:14:49.707937  2573 net.cpp:408] upsample2_dsn5 -> conv5-dsn6-5
I1118 18:14:49.708117  2573 net.cpp:150] Setting up upsample2_dsn5
I1118 18:14:49.708124  2573 net.cpp:157] Top shape: 1 1 36 36 (1296)
I1118 18:14:49.708127  2573 net.cpp:165] Memory required for data: 914191568
I1118 18:14:49.708133  2573 layer_factory.hpp:77] Creating layer crop1-dsn5
I1118 18:14:49.708139  2573 net.cpp:100] Creating Layer crop1-dsn5
I1118 18:14:49.708143  2573 net.cpp:434] crop1-dsn5 <- conv5-dsn6-5
I1118 18:14:49.708148  2573 net.cpp:434] crop1-dsn5 <- conv5_3_relu5_3_0_split_1
I1118 18:14:49.708155  2573 net.cpp:408] crop1-dsn5 -> weight-dsn6-5
I1118 18:14:49.708179  2573 net.cpp:150] Setting up crop1-dsn5
I1118 18:14:49.708185  2573 net.cpp:157] Top shape: 1 1 32 32 (1024)
I1118 18:14:49.708189  2573 net.cpp:165] Memory required for data: 914195664
I1118 18:14:49.708191  2573 layer_factory.hpp:77] Creating layer weight-dsn6-5_crop1-dsn5_0_split
I1118 18:14:49.708197  2573 net.cpp:100] Creating Layer weight-dsn6-5_crop1-dsn5_0_split
I1118 18:14:49.708201  2573 net.cpp:434] weight-dsn6-5_crop1-dsn5_0_split <- weight-dsn6-5
I1118 18:14:49.708209  2573 net.cpp:408] weight-dsn6-5_crop1-dsn5_0_split -> weight-dsn6-5_crop1-dsn5_0_split_0
I1118 18:14:49.708215  2573 net.cpp:408] weight-dsn6-5_crop1-dsn5_0_split -> weight-dsn6-5_crop1-dsn5_0_split_1
I1118 18:14:49.708246  2573 net.cpp:150] Setting up weight-dsn6-5_crop1-dsn5_0_split
I1118 18:14:49.708251  2573 net.cpp:157] Top shape: 1 1 32 32 (1024)
I1118 18:14:49.708256  2573 net.cpp:157] Top shape: 1 1 32 32 (1024)
I1118 18:14:49.708258  2573 net.cpp:165] Memory required for data: 914203856
I1118 18:14:49.708261  2573 layer_factory.hpp:77] Creating layer sigmoid-dsn5
I1118 18:14:49.708269  2573 net.cpp:100] Creating Layer sigmoid-dsn5
I1118 18:14:49.708273  2573 net.cpp:434] sigmoid-dsn5 <- weight-dsn6-5_crop1-dsn5_0_split_0
I1118 18:14:49.708278  2573 net.cpp:408] sigmoid-dsn5 -> sigmoid-dsn5
I1118 18:14:49.708461  2573 net.cpp:150] Setting up sigmoid-dsn5
I1118 18:14:49.708472  2573 net.cpp:157] Top shape: 1 1 32 32 (1024)
I1118 18:14:49.708474  2573 net.cpp:165] Memory required for data: 914207952
I1118 18:14:49.708478  2573 layer_factory.hpp:77] Creating layer rev-dsn5
I1118 18:14:49.708488  2573 net.cpp:100] Creating Layer rev-dsn5
I1118 18:14:49.708492  2573 net.cpp:434] rev-dsn5 <- sigmoid-dsn5
I1118 18:14:49.708498  2573 net.cpp:408] rev-dsn5 -> rev-dsn5
I1118 18:14:49.708534  2573 net.cpp:150] Setting up rev-dsn5
I1118 18:14:49.708541  2573 net.cpp:157] Top shape: 1 1 32 32 (1024)
I1118 18:14:49.708544  2573 net.cpp:165] Memory required for data: 914212048
I1118 18:14:49.708547  2573 layer_factory.hpp:77] Creating layer tile-dsn5
I1118 18:14:49.708554  2573 net.cpp:100] Creating Layer tile-dsn5
I1118 18:14:49.708559  2573 net.cpp:434] tile-dsn5 <- rev-dsn5
I1118 18:14:49.708565  2573 net.cpp:408] tile-dsn5 -> weight-dsn5
I1118 18:14:49.708587  2573 net.cpp:150] Setting up tile-dsn5
I1118 18:14:49.708592  2573 net.cpp:157] Top shape: 1 512 32 32 (524288)
I1118 18:14:49.708595  2573 net.cpp:165] Memory required for data: 916309200
I1118 18:14:49.708600  2573 layer_factory.hpp:77] Creating layer prod1-dsn5
I1118 18:14:49.708606  2573 net.cpp:100] Creating Layer prod1-dsn5
I1118 18:14:49.708609  2573 net.cpp:434] prod1-dsn5 <- conv5_3_relu5_3_0_split_2
I1118 18:14:49.708617  2573 net.cpp:434] prod1-dsn5 <- weight-dsn5
I1118 18:14:49.708622  2573 net.cpp:408] prod1-dsn5 -> prod1-dsn5
I1118 18:14:49.708647  2573 net.cpp:150] Setting up prod1-dsn5
I1118 18:14:49.708652  2573 net.cpp:157] Top shape: 1 512 32 32 (524288)
I1118 18:14:49.708654  2573 net.cpp:165] Memory required for data: 918406352
I1118 18:14:49.708657  2573 layer_factory.hpp:77] Creating layer conv1-dsn5
I1118 18:14:49.708668  2573 net.cpp:100] Creating Layer conv1-dsn5
I1118 18:14:49.708673  2573 net.cpp:434] conv1-dsn5 <- prod1-dsn5
I1118 18:14:49.708680  2573 net.cpp:408] conv1-dsn5 -> conv1-dsn5
I1118 18:14:49.710621  2573 net.cpp:150] Setting up conv1-dsn5
I1118 18:14:49.710635  2573 net.cpp:157] Top shape: 1 64 32 32 (65536)
I1118 18:14:49.710638  2573 net.cpp:165] Memory required for data: 918668496
I1118 18:14:49.710646  2573 layer_factory.hpp:77] Creating layer conv2-dsn5
I1118 18:14:49.710657  2573 net.cpp:100] Creating Layer conv2-dsn5
I1118 18:14:49.710662  2573 net.cpp:434] conv2-dsn5 <- conv1-dsn5
I1118 18:14:49.710669  2573 net.cpp:408] conv2-dsn5 -> conv2-dsn5
I1118 18:14:49.711496  2573 net.cpp:150] Setting up conv2-dsn5
I1118 18:14:49.711508  2573 net.cpp:157] Top shape: 1 64 32 32 (65536)
I1118 18:14:49.711510  2573 net.cpp:165] Memory required for data: 918930640
I1118 18:14:49.711517  2573 layer_factory.hpp:77] Creating layer relu1-dsn5
I1118 18:14:49.711524  2573 net.cpp:100] Creating Layer relu1-dsn5
I1118 18:14:49.711529  2573 net.cpp:434] relu1-dsn5 <- conv2-dsn5
I1118 18:14:49.711534  2573 net.cpp:395] relu1-dsn5 -> conv2-dsn5 (in-place)
I1118 18:14:49.711690  2573 net.cpp:150] Setting up relu1-dsn5
I1118 18:14:49.711700  2573 net.cpp:157] Top shape: 1 64 32 32 (65536)
I1118 18:14:49.711704  2573 net.cpp:165] Memory required for data: 919192784
I1118 18:14:49.711707  2573 layer_factory.hpp:77] Creating layer conv3-dsn5
I1118 18:14:49.711719  2573 net.cpp:100] Creating Layer conv3-dsn5
I1118 18:14:49.711722  2573 net.cpp:434] conv3-dsn5 <- conv2-dsn5
I1118 18:14:49.711731  2573 net.cpp:408] conv3-dsn5 -> conv3-dsn5
I1118 18:14:49.712483  2573 net.cpp:150] Setting up conv3-dsn5
I1118 18:14:49.712494  2573 net.cpp:157] Top shape: 1 64 32 32 (65536)
I1118 18:14:49.712498  2573 net.cpp:165] Memory required for data: 919454928
I1118 18:14:49.712505  2573 layer_factory.hpp:77] Creating layer relu2-dsn5
I1118 18:14:49.712512  2573 net.cpp:100] Creating Layer relu2-dsn5
I1118 18:14:49.712515  2573 net.cpp:434] relu2-dsn5 <- conv3-dsn5
I1118 18:14:49.712523  2573 net.cpp:395] relu2-dsn5 -> conv3-dsn5 (in-place)
I1118 18:14:49.712677  2573 net.cpp:150] Setting up relu2-dsn5
I1118 18:14:49.712688  2573 net.cpp:157] Top shape: 1 64 32 32 (65536)
I1118 18:14:49.712692  2573 net.cpp:165] Memory required for data: 919717072
I1118 18:14:49.712695  2573 layer_factory.hpp:77] Creating layer conv4-dsn5
I1118 18:14:49.712720  2573 net.cpp:100] Creating Layer conv4-dsn5
I1118 18:14:49.712725  2573 net.cpp:434] conv4-dsn5 <- conv3-dsn5
I1118 18:14:49.712733  2573 net.cpp:408] conv4-dsn5 -> conv4-dsn5
I1118 18:14:49.713325  2573 net.cpp:150] Setting up conv4-dsn5
I1118 18:14:49.713335  2573 net.cpp:157] Top shape: 1 1 32 32 (1024)
I1118 18:14:49.713338  2573 net.cpp:165] Memory required for data: 919721168
I1118 18:14:49.713346  2573 layer_factory.hpp:77] Creating layer sum-dsn5
I1118 18:14:49.713353  2573 net.cpp:100] Creating Layer sum-dsn5
I1118 18:14:49.713357  2573 net.cpp:434] sum-dsn5 <- conv4-dsn5
I1118 18:14:49.713362  2573 net.cpp:434] sum-dsn5 <- weight-dsn6-5_crop1-dsn5_0_split_1
I1118 18:14:49.713369  2573 net.cpp:408] sum-dsn5 -> sum-dsn5
I1118 18:14:49.713392  2573 net.cpp:150] Setting up sum-dsn5
I1118 18:14:49.713399  2573 net.cpp:157] Top shape: 1 1 32 32 (1024)
I1118 18:14:49.713402  2573 net.cpp:165] Memory required for data: 919725264
I1118 18:14:49.713407  2573 layer_factory.hpp:77] Creating layer sum-dsn5_sum-dsn5_0_split
I1118 18:14:49.713413  2573 net.cpp:100] Creating Layer sum-dsn5_sum-dsn5_0_split
I1118 18:14:49.713415  2573 net.cpp:434] sum-dsn5_sum-dsn5_0_split <- sum-dsn5
I1118 18:14:49.713421  2573 net.cpp:408] sum-dsn5_sum-dsn5_0_split -> sum-dsn5_sum-dsn5_0_split_0
I1118 18:14:49.713430  2573 net.cpp:408] sum-dsn5_sum-dsn5_0_split -> sum-dsn5_sum-dsn5_0_split_1
I1118 18:14:49.713461  2573 net.cpp:150] Setting up sum-dsn5_sum-dsn5_0_split
I1118 18:14:49.713466  2573 net.cpp:157] Top shape: 1 1 32 32 (1024)
I1118 18:14:49.713471  2573 net.cpp:157] Top shape: 1 1 32 32 (1024)
I1118 18:14:49.713474  2573 net.cpp:165] Memory required for data: 919733456
I1118 18:14:49.713477  2573 layer_factory.hpp:77] Creating layer upsample16_dsn5
I1118 18:14:49.713486  2573 net.cpp:100] Creating Layer upsample16_dsn5
I1118 18:14:49.713490  2573 net.cpp:434] upsample16_dsn5 <- sum-dsn5_sum-dsn5_0_split_0
I1118 18:14:49.713497  2573 net.cpp:408] upsample16_dsn5 -> sum-dsn5-up
I1118 18:14:49.714584  2573 net.cpp:150] Setting up upsample16_dsn5
I1118 18:14:49.714596  2573 net.cpp:157] Top shape: 1 1 528 528 (278784)
I1118 18:14:49.714598  2573 net.cpp:165] Memory required for data: 920848592
I1118 18:14:49.714606  2573 layer_factory.hpp:77] Creating layer crop2-dsn5
I1118 18:14:49.714612  2573 net.cpp:100] Creating Layer crop2-dsn5
I1118 18:14:49.714617  2573 net.cpp:434] crop2-dsn5 <- sum-dsn5-up
I1118 18:14:49.714622  2573 net.cpp:434] crop2-dsn5 <- data_augmentation_0_split_2
I1118 18:14:49.714629  2573 net.cpp:408] crop2-dsn5 -> upscore-dsn5
I1118 18:14:49.714655  2573 net.cpp:150] Setting up crop2-dsn5
I1118 18:14:49.714661  2573 net.cpp:157] Top shape: 1 1 500 500 (250000)
I1118 18:14:49.714664  2573 net.cpp:165] Memory required for data: 921848592
I1118 18:14:49.714668  2573 layer_factory.hpp:77] Creating layer loss5-score
I1118 18:14:49.714677  2573 net.cpp:100] Creating Layer loss5-score
I1118 18:14:49.714686  2573 net.cpp:434] loss5-score <- upscore-dsn5
I1118 18:14:49.714690  2573 net.cpp:434] loss5-score <- label_augmentation_1_split_1
I1118 18:14:49.714696  2573 net.cpp:408] loss5-score -> loss5-score
I1118 18:14:49.714871  2573 net.cpp:150] Setting up loss5-score
I1118 18:14:49.714877  2573 net.cpp:157] Top shape: (1)
I1118 18:14:49.714880  2573 net.cpp:160]     with loss weight 1
I1118 18:14:49.714890  2573 net.cpp:165] Memory required for data: 921848596
I1118 18:14:49.714895  2573 layer_factory.hpp:77] Creating layer upsample2_dsn4
I1118 18:14:49.714902  2573 net.cpp:100] Creating Layer upsample2_dsn4
I1118 18:14:49.714908  2573 net.cpp:434] upsample2_dsn4 <- sum-dsn5_sum-dsn5_0_split_1
I1118 18:14:49.714916  2573 net.cpp:408] upsample2_dsn4 -> sum-dsn5-4
I1118 18:14:49.715090  2573 net.cpp:150] Setting up upsample2_dsn4
I1118 18:14:49.715097  2573 net.cpp:157] Top shape: 1 1 66 66 (4356)
I1118 18:14:49.715101  2573 net.cpp:165] Memory required for data: 921866020
I1118 18:14:49.715106  2573 layer_factory.hpp:77] Creating layer crop1-dsn4
I1118 18:14:49.715114  2573 net.cpp:100] Creating Layer crop1-dsn4
I1118 18:14:49.715118  2573 net.cpp:434] crop1-dsn4 <- sum-dsn5-4
I1118 18:14:49.715123  2573 net.cpp:434] crop1-dsn4 <- conv4_3_relu4_3_0_split_1
I1118 18:14:49.715128  2573 net.cpp:408] crop1-dsn4 -> weight-dsn5-4
I1118 18:14:49.715152  2573 net.cpp:150] Setting up crop1-dsn4
I1118 18:14:49.715158  2573 net.cpp:157] Top shape: 1 1 63 63 (3969)
I1118 18:14:49.715160  2573 net.cpp:165] Memory required for data: 921881896
I1118 18:14:49.715164  2573 layer_factory.hpp:77] Creating layer weight-dsn5-4_crop1-dsn4_0_split
I1118 18:14:49.715170  2573 net.cpp:100] Creating Layer weight-dsn5-4_crop1-dsn4_0_split
I1118 18:14:49.715173  2573 net.cpp:434] weight-dsn5-4_crop1-dsn4_0_split <- weight-dsn5-4
I1118 18:14:49.715181  2573 net.cpp:408] weight-dsn5-4_crop1-dsn4_0_split -> weight-dsn5-4_crop1-dsn4_0_split_0
I1118 18:14:49.715188  2573 net.cpp:408] weight-dsn5-4_crop1-dsn4_0_split -> weight-dsn5-4_crop1-dsn4_0_split_1
I1118 18:14:49.715219  2573 net.cpp:150] Setting up weight-dsn5-4_crop1-dsn4_0_split
I1118 18:14:49.715224  2573 net.cpp:157] Top shape: 1 1 63 63 (3969)
I1118 18:14:49.715229  2573 net.cpp:157] Top shape: 1 1 63 63 (3969)
I1118 18:14:49.715231  2573 net.cpp:165] Memory required for data: 921913648
I1118 18:14:49.715235  2573 layer_factory.hpp:77] Creating layer sigmoid-dsn4
I1118 18:14:49.715240  2573 net.cpp:100] Creating Layer sigmoid-dsn4
I1118 18:14:49.715245  2573 net.cpp:434] sigmoid-dsn4 <- weight-dsn5-4_crop1-dsn4_0_split_0
I1118 18:14:49.715251  2573 net.cpp:408] sigmoid-dsn4 -> sigmoid-dsn4
I1118 18:14:49.715337  2573 net.cpp:150] Setting up sigmoid-dsn4
I1118 18:14:49.715344  2573 net.cpp:157] Top shape: 1 1 63 63 (3969)
I1118 18:14:49.715348  2573 net.cpp:165] Memory required for data: 921929524
I1118 18:14:49.715350  2573 layer_factory.hpp:77] Creating layer rev-dsn4
I1118 18:14:49.715356  2573 net.cpp:100] Creating Layer rev-dsn4
I1118 18:14:49.715360  2573 net.cpp:434] rev-dsn4 <- sigmoid-dsn4
I1118 18:14:49.715366  2573 net.cpp:408] rev-dsn4 -> rev-dsn4
I1118 18:14:49.715389  2573 net.cpp:150] Setting up rev-dsn4
I1118 18:14:49.715394  2573 net.cpp:157] Top shape: 1 1 63 63 (3969)
I1118 18:14:49.715397  2573 net.cpp:165] Memory required for data: 921945400
I1118 18:14:49.715400  2573 layer_factory.hpp:77] Creating layer tile-dsn4
I1118 18:14:49.715406  2573 net.cpp:100] Creating Layer tile-dsn4
I1118 18:14:49.715409  2573 net.cpp:434] tile-dsn4 <- rev-dsn4
I1118 18:14:49.715415  2573 net.cpp:408] tile-dsn4 -> weight-dsn4
I1118 18:14:49.715438  2573 net.cpp:150] Setting up tile-dsn4
I1118 18:14:49.715443  2573 net.cpp:157] Top shape: 1 512 63 63 (2032128)
I1118 18:14:49.715446  2573 net.cpp:165] Memory required for data: 930073912
I1118 18:14:49.715449  2573 layer_factory.hpp:77] Creating layer prod1-dsn4
I1118 18:14:49.715456  2573 net.cpp:100] Creating Layer prod1-dsn4
I1118 18:14:49.715459  2573 net.cpp:434] prod1-dsn4 <- conv4_3_relu4_3_0_split_2
I1118 18:14:49.715464  2573 net.cpp:434] prod1-dsn4 <- weight-dsn4
I1118 18:14:49.715471  2573 net.cpp:408] prod1-dsn4 -> prod1-dsn4
I1118 18:14:49.715492  2573 net.cpp:150] Setting up prod1-dsn4
I1118 18:14:49.715497  2573 net.cpp:157] Top shape: 1 512 63 63 (2032128)
I1118 18:14:49.715500  2573 net.cpp:165] Memory required for data: 938202424
I1118 18:14:49.715503  2573 layer_factory.hpp:77] Creating layer conv1-dsn4
I1118 18:14:49.715515  2573 net.cpp:100] Creating Layer conv1-dsn4
I1118 18:14:49.715519  2573 net.cpp:434] conv1-dsn4 <- prod1-dsn4
I1118 18:14:49.715525  2573 net.cpp:408] conv1-dsn4 -> conv1-dsn4
I1118 18:14:49.717370  2573 net.cpp:150] Setting up conv1-dsn4
I1118 18:14:49.717381  2573 net.cpp:157] Top shape: 1 64 63 63 (254016)
I1118 18:14:49.717384  2573 net.cpp:165] Memory required for data: 939218488
I1118 18:14:49.717392  2573 layer_factory.hpp:77] Creating layer conv2-dsn4
I1118 18:14:49.717404  2573 net.cpp:100] Creating Layer conv2-dsn4
I1118 18:14:49.717408  2573 net.cpp:434] conv2-dsn4 <- conv1-dsn4
I1118 18:14:49.717417  2573 net.cpp:408] conv2-dsn4 -> conv2-dsn4
I1118 18:14:49.718155  2573 net.cpp:150] Setting up conv2-dsn4
I1118 18:14:49.718166  2573 net.cpp:157] Top shape: 1 64 63 63 (254016)
I1118 18:14:49.718170  2573 net.cpp:165] Memory required for data: 940234552
I1118 18:14:49.718178  2573 layer_factory.hpp:77] Creating layer relu1-dsn4
I1118 18:14:49.718186  2573 net.cpp:100] Creating Layer relu1-dsn4
I1118 18:14:49.718190  2573 net.cpp:434] relu1-dsn4 <- conv2-dsn4
I1118 18:14:49.718195  2573 net.cpp:395] relu1-dsn4 -> conv2-dsn4 (in-place)
I1118 18:14:49.718353  2573 net.cpp:150] Setting up relu1-dsn4
I1118 18:14:49.718364  2573 net.cpp:157] Top shape: 1 64 63 63 (254016)
I1118 18:14:49.718366  2573 net.cpp:165] Memory required for data: 941250616
I1118 18:14:49.718370  2573 layer_factory.hpp:77] Creating layer conv3-dsn4
I1118 18:14:49.718382  2573 net.cpp:100] Creating Layer conv3-dsn4
I1118 18:14:49.718387  2573 net.cpp:434] conv3-dsn4 <- conv2-dsn4
I1118 18:14:49.718396  2573 net.cpp:408] conv3-dsn4 -> conv3-dsn4
I1118 18:14:49.719275  2573 net.cpp:150] Setting up conv3-dsn4
I1118 18:14:49.719288  2573 net.cpp:157] Top shape: 1 64 63 63 (254016)
I1118 18:14:49.719292  2573 net.cpp:165] Memory required for data: 942266680
I1118 18:14:49.719305  2573 layer_factory.hpp:77] Creating layer relu2-dsn4
I1118 18:14:49.719311  2573 net.cpp:100] Creating Layer relu2-dsn4
I1118 18:14:49.719316  2573 net.cpp:434] relu2-dsn4 <- conv3-dsn4
I1118 18:14:49.719323  2573 net.cpp:395] relu2-dsn4 -> conv3-dsn4 (in-place)
I1118 18:14:49.719398  2573 net.cpp:150] Setting up relu2-dsn4
I1118 18:14:49.719408  2573 net.cpp:157] Top shape: 1 64 63 63 (254016)
I1118 18:14:49.719410  2573 net.cpp:165] Memory required for data: 943282744
I1118 18:14:49.719414  2573 layer_factory.hpp:77] Creating layer conv4-dsn4
I1118 18:14:49.719425  2573 net.cpp:100] Creating Layer conv4-dsn4
I1118 18:14:49.719429  2573 net.cpp:434] conv4-dsn4 <- conv3-dsn4
I1118 18:14:49.719436  2573 net.cpp:408] conv4-dsn4 -> conv4-dsn4
I1118 18:14:49.719965  2573 net.cpp:150] Setting up conv4-dsn4
I1118 18:14:49.719975  2573 net.cpp:157] Top shape: 1 1 63 63 (3969)
I1118 18:14:49.719980  2573 net.cpp:165] Memory required for data: 943298620
I1118 18:14:49.719986  2573 layer_factory.hpp:77] Creating layer sum-dsn4
I1118 18:14:49.719992  2573 net.cpp:100] Creating Layer sum-dsn4
I1118 18:14:49.719996  2573 net.cpp:434] sum-dsn4 <- conv4-dsn4
I1118 18:14:49.720001  2573 net.cpp:434] sum-dsn4 <- weight-dsn5-4_crop1-dsn4_0_split_1
I1118 18:14:49.720012  2573 net.cpp:408] sum-dsn4 -> sum-dsn4
I1118 18:14:49.720037  2573 net.cpp:150] Setting up sum-dsn4
I1118 18:14:49.720046  2573 net.cpp:157] Top shape: 1 1 63 63 (3969)
I1118 18:14:49.720048  2573 net.cpp:165] Memory required for data: 943314496
I1118 18:14:49.720052  2573 layer_factory.hpp:77] Creating layer sum-dsn4_sum-dsn4_0_split
I1118 18:14:49.720058  2573 net.cpp:100] Creating Layer sum-dsn4_sum-dsn4_0_split
I1118 18:14:49.720062  2573 net.cpp:434] sum-dsn4_sum-dsn4_0_split <- sum-dsn4
I1118 18:14:49.720067  2573 net.cpp:408] sum-dsn4_sum-dsn4_0_split -> sum-dsn4_sum-dsn4_0_split_0
I1118 18:14:49.720079  2573 net.cpp:408] sum-dsn4_sum-dsn4_0_split -> sum-dsn4_sum-dsn4_0_split_1
I1118 18:14:49.720111  2573 net.cpp:150] Setting up sum-dsn4_sum-dsn4_0_split
I1118 18:14:49.720118  2573 net.cpp:157] Top shape: 1 1 63 63 (3969)
I1118 18:14:49.720121  2573 net.cpp:157] Top shape: 1 1 63 63 (3969)
I1118 18:14:49.720124  2573 net.cpp:165] Memory required for data: 943346248
I1118 18:14:49.720129  2573 layer_factory.hpp:77] Creating layer upsample8_dsn4
I1118 18:14:49.720137  2573 net.cpp:100] Creating Layer upsample8_dsn4
I1118 18:14:49.720140  2573 net.cpp:434] upsample8_dsn4 <- sum-dsn4_sum-dsn4_0_split_0
I1118 18:14:49.720149  2573 net.cpp:408] upsample8_dsn4 -> sum-dsn4-up
I1118 18:14:49.721226  2573 net.cpp:150] Setting up upsample8_dsn4
I1118 18:14:49.721237  2573 net.cpp:157] Top shape: 1 1 512 512 (262144)
I1118 18:14:49.721240  2573 net.cpp:165] Memory required for data: 944394824
I1118 18:14:49.721248  2573 layer_factory.hpp:77] Creating layer crop2-dsn4
I1118 18:14:49.721256  2573 net.cpp:100] Creating Layer crop2-dsn4
I1118 18:14:49.721261  2573 net.cpp:434] crop2-dsn4 <- sum-dsn4-up
I1118 18:14:49.721266  2573 net.cpp:434] crop2-dsn4 <- data_augmentation_0_split_3
I1118 18:14:49.721271  2573 net.cpp:408] crop2-dsn4 -> upscore-dsn4
I1118 18:14:49.721304  2573 net.cpp:150] Setting up crop2-dsn4
I1118 18:14:49.721310  2573 net.cpp:157] Top shape: 1 1 500 500 (250000)
I1118 18:14:49.721313  2573 net.cpp:165] Memory required for data: 945394824
I1118 18:14:49.721316  2573 layer_factory.hpp:77] Creating layer loss4-score
I1118 18:14:49.721326  2573 net.cpp:100] Creating Layer loss4-score
I1118 18:14:49.721330  2573 net.cpp:434] loss4-score <- upscore-dsn4
I1118 18:14:49.721335  2573 net.cpp:434] loss4-score <- label_augmentation_1_split_2
I1118 18:14:49.721343  2573 net.cpp:408] loss4-score -> loss4-score
I1118 18:14:49.721513  2573 net.cpp:150] Setting up loss4-score
I1118 18:14:49.721519  2573 net.cpp:157] Top shape: (1)
I1118 18:14:49.721521  2573 net.cpp:160]     with loss weight 1
I1118 18:14:49.721529  2573 net.cpp:165] Memory required for data: 945394828
I1118 18:14:49.721531  2573 layer_factory.hpp:77] Creating layer upsample2_dsn3
I1118 18:14:49.721540  2573 net.cpp:100] Creating Layer upsample2_dsn3
I1118 18:14:49.721544  2573 net.cpp:434] upsample2_dsn3 <- sum-dsn4_sum-dsn4_0_split_1
I1118 18:14:49.721550  2573 net.cpp:408] upsample2_dsn3 -> sum-dsn4-3
I1118 18:14:49.721731  2573 net.cpp:150] Setting up upsample2_dsn3
I1118 18:14:49.721740  2573 net.cpp:157] Top shape: 1 1 128 128 (16384)
I1118 18:14:49.721742  2573 net.cpp:165] Memory required for data: 945460364
I1118 18:14:49.721748  2573 layer_factory.hpp:77] Creating layer crop1-dsn3
I1118 18:14:49.721755  2573 net.cpp:100] Creating Layer crop1-dsn3
I1118 18:14:49.721758  2573 net.cpp:434] crop1-dsn3 <- sum-dsn4-3
I1118 18:14:49.721762  2573 net.cpp:434] crop1-dsn3 <- conv3_3_relu3_3_0_split_1
I1118 18:14:49.721771  2573 net.cpp:408] crop1-dsn3 -> weight-dsn4-3
I1118 18:14:49.721789  2573 net.cpp:150] Setting up crop1-dsn3
I1118 18:14:49.721796  2573 net.cpp:157] Top shape: 1 1 125 125 (15625)
I1118 18:14:49.721797  2573 net.cpp:165] Memory required for data: 945522864
I1118 18:14:49.721801  2573 layer_factory.hpp:77] Creating layer weight-dsn4-3_crop1-dsn3_0_split
I1118 18:14:49.721809  2573 net.cpp:100] Creating Layer weight-dsn4-3_crop1-dsn3_0_split
I1118 18:14:49.721813  2573 net.cpp:434] weight-dsn4-3_crop1-dsn3_0_split <- weight-dsn4-3
I1118 18:14:49.721818  2573 net.cpp:408] weight-dsn4-3_crop1-dsn3_0_split -> weight-dsn4-3_crop1-dsn3_0_split_0
I1118 18:14:49.721827  2573 net.cpp:408] weight-dsn4-3_crop1-dsn3_0_split -> weight-dsn4-3_crop1-dsn3_0_split_1
I1118 18:14:49.721858  2573 net.cpp:150] Setting up weight-dsn4-3_crop1-dsn3_0_split
I1118 18:14:49.721864  2573 net.cpp:157] Top shape: 1 1 125 125 (15625)
I1118 18:14:49.721868  2573 net.cpp:157] Top shape: 1 1 125 125 (15625)
I1118 18:14:49.721871  2573 net.cpp:165] Memory required for data: 945647864
I1118 18:14:49.721874  2573 layer_factory.hpp:77] Creating layer sigmoid-dsn3
I1118 18:14:49.721879  2573 net.cpp:100] Creating Layer sigmoid-dsn3
I1118 18:14:49.721882  2573 net.cpp:434] sigmoid-dsn3 <- weight-dsn4-3_crop1-dsn3_0_split_0
I1118 18:14:49.721889  2573 net.cpp:408] sigmoid-dsn3 -> sigmoid-dsn3
I1118 18:14:49.721971  2573 net.cpp:150] Setting up sigmoid-dsn3
I1118 18:14:49.721978  2573 net.cpp:157] Top shape: 1 1 125 125 (15625)
I1118 18:14:49.721980  2573 net.cpp:165] Memory required for data: 945710364
I1118 18:14:49.721984  2573 layer_factory.hpp:77] Creating layer rev-dsn3
I1118 18:14:49.721992  2573 net.cpp:100] Creating Layer rev-dsn3
I1118 18:14:49.721997  2573 net.cpp:434] rev-dsn3 <- sigmoid-dsn3
I1118 18:14:49.722002  2573 net.cpp:408] rev-dsn3 -> rev-dsn3
I1118 18:14:49.722023  2573 net.cpp:150] Setting up rev-dsn3
I1118 18:14:49.722029  2573 net.cpp:157] Top shape: 1 1 125 125 (15625)
I1118 18:14:49.722031  2573 net.cpp:165] Memory required for data: 945772864
I1118 18:14:49.722035  2573 layer_factory.hpp:77] Creating layer tile-dsn3
I1118 18:14:49.722043  2573 net.cpp:100] Creating Layer tile-dsn3
I1118 18:14:49.722046  2573 net.cpp:434] tile-dsn3 <- rev-dsn3
I1118 18:14:49.722051  2573 net.cpp:408] tile-dsn3 -> weight-dsn3
I1118 18:14:49.722072  2573 net.cpp:150] Setting up tile-dsn3
I1118 18:14:49.722077  2573 net.cpp:157] Top shape: 1 256 125 125 (4000000)
I1118 18:14:49.722080  2573 net.cpp:165] Memory required for data: 961772864
I1118 18:14:49.722084  2573 layer_factory.hpp:77] Creating layer prod1-dsn3
I1118 18:14:49.722090  2573 net.cpp:100] Creating Layer prod1-dsn3
I1118 18:14:49.722093  2573 net.cpp:434] prod1-dsn3 <- conv3_3_relu3_3_0_split_2
I1118 18:14:49.722098  2573 net.cpp:434] prod1-dsn3 <- weight-dsn3
I1118 18:14:49.722105  2573 net.cpp:408] prod1-dsn3 -> prod1-dsn3
I1118 18:14:49.722127  2573 net.cpp:150] Setting up prod1-dsn3
I1118 18:14:49.722132  2573 net.cpp:157] Top shape: 1 256 125 125 (4000000)
I1118 18:14:49.722136  2573 net.cpp:165] Memory required for data: 977772864
I1118 18:14:49.722139  2573 layer_factory.hpp:77] Creating layer conv1-dsn3
I1118 18:14:49.722149  2573 net.cpp:100] Creating Layer conv1-dsn3
I1118 18:14:49.722152  2573 net.cpp:434] conv1-dsn3 <- prod1-dsn3
I1118 18:14:49.722159  2573 net.cpp:408] conv1-dsn3 -> conv1-dsn3
I1118 18:14:49.723804  2573 net.cpp:150] Setting up conv1-dsn3
I1118 18:14:49.723819  2573 net.cpp:157] Top shape: 1 64 125 125 (1000000)
I1118 18:14:49.723822  2573 net.cpp:165] Memory required for data: 981772864
I1118 18:14:49.723843  2573 layer_factory.hpp:77] Creating layer conv2-dsn3
I1118 18:14:49.723856  2573 net.cpp:100] Creating Layer conv2-dsn3
I1118 18:14:49.723862  2573 net.cpp:434] conv2-dsn3 <- conv1-dsn3
I1118 18:14:49.723871  2573 net.cpp:408] conv2-dsn3 -> conv2-dsn3
I1118 18:14:49.724716  2573 net.cpp:150] Setting up conv2-dsn3
I1118 18:14:49.724727  2573 net.cpp:157] Top shape: 1 64 125 125 (1000000)
I1118 18:14:49.724731  2573 net.cpp:165] Memory required for data: 985772864
I1118 18:14:49.724738  2573 layer_factory.hpp:77] Creating layer relu1-dsn3
I1118 18:14:49.724745  2573 net.cpp:100] Creating Layer relu1-dsn3
I1118 18:14:49.724748  2573 net.cpp:434] relu1-dsn3 <- conv2-dsn3
I1118 18:14:49.724756  2573 net.cpp:395] relu1-dsn3 -> conv2-dsn3 (in-place)
I1118 18:14:49.724824  2573 net.cpp:150] Setting up relu1-dsn3
I1118 18:14:49.724833  2573 net.cpp:157] Top shape: 1 64 125 125 (1000000)
I1118 18:14:49.724835  2573 net.cpp:165] Memory required for data: 989772864
I1118 18:14:49.724839  2573 layer_factory.hpp:77] Creating layer conv3-dsn3
I1118 18:14:49.724850  2573 net.cpp:100] Creating Layer conv3-dsn3
I1118 18:14:49.724854  2573 net.cpp:434] conv3-dsn3 <- conv2-dsn3
I1118 18:14:49.724861  2573 net.cpp:408] conv3-dsn3 -> conv3-dsn3
I1118 18:14:49.725755  2573 net.cpp:150] Setting up conv3-dsn3
I1118 18:14:49.725766  2573 net.cpp:157] Top shape: 1 64 125 125 (1000000)
I1118 18:14:49.725770  2573 net.cpp:165] Memory required for data: 993772864
I1118 18:14:49.725777  2573 layer_factory.hpp:77] Creating layer relu2-dsn3
I1118 18:14:49.725783  2573 net.cpp:100] Creating Layer relu2-dsn3
I1118 18:14:49.725787  2573 net.cpp:434] relu2-dsn3 <- conv3-dsn3
I1118 18:14:49.725795  2573 net.cpp:395] relu2-dsn3 -> conv3-dsn3 (in-place)
I1118 18:14:49.725870  2573 net.cpp:150] Setting up relu2-dsn3
I1118 18:14:49.725878  2573 net.cpp:157] Top shape: 1 64 125 125 (1000000)
I1118 18:14:49.725881  2573 net.cpp:165] Memory required for data: 997772864
I1118 18:14:49.725885  2573 layer_factory.hpp:77] Creating layer conv4-dsn3
I1118 18:14:49.725896  2573 net.cpp:100] Creating Layer conv4-dsn3
I1118 18:14:49.725900  2573 net.cpp:434] conv4-dsn3 <- conv3-dsn3
I1118 18:14:49.725906  2573 net.cpp:408] conv4-dsn3 -> conv4-dsn3
I1118 18:14:49.726454  2573 net.cpp:150] Setting up conv4-dsn3
I1118 18:14:49.726464  2573 net.cpp:157] Top shape: 1 1 125 125 (15625)
I1118 18:14:49.726469  2573 net.cpp:165] Memory required for data: 997835364
I1118 18:14:49.726475  2573 layer_factory.hpp:77] Creating layer sum-dsn3
I1118 18:14:49.726482  2573 net.cpp:100] Creating Layer sum-dsn3
I1118 18:14:49.726490  2573 net.cpp:434] sum-dsn3 <- conv4-dsn3
I1118 18:14:49.726495  2573 net.cpp:434] sum-dsn3 <- weight-dsn4-3_crop1-dsn3_0_split_1
I1118 18:14:49.726501  2573 net.cpp:408] sum-dsn3 -> sum-dsn3
I1118 18:14:49.726528  2573 net.cpp:150] Setting up sum-dsn3
I1118 18:14:49.726536  2573 net.cpp:157] Top shape: 1 1 125 125 (15625)
I1118 18:14:49.726537  2573 net.cpp:165] Memory required for data: 997897864
I1118 18:14:49.726541  2573 layer_factory.hpp:77] Creating layer sum-dsn3_sum-dsn3_0_split
I1118 18:14:49.726547  2573 net.cpp:100] Creating Layer sum-dsn3_sum-dsn3_0_split
I1118 18:14:49.726552  2573 net.cpp:434] sum-dsn3_sum-dsn3_0_split <- sum-dsn3
I1118 18:14:49.726559  2573 net.cpp:408] sum-dsn3_sum-dsn3_0_split -> sum-dsn3_sum-dsn3_0_split_0
I1118 18:14:49.726568  2573 net.cpp:408] sum-dsn3_sum-dsn3_0_split -> sum-dsn3_sum-dsn3_0_split_1
I1118 18:14:49.726600  2573 net.cpp:150] Setting up sum-dsn3_sum-dsn3_0_split
I1118 18:14:49.726606  2573 net.cpp:157] Top shape: 1 1 125 125 (15625)
I1118 18:14:49.726610  2573 net.cpp:157] Top shape: 1 1 125 125 (15625)
I1118 18:14:49.726613  2573 net.cpp:165] Memory required for data: 998022864
I1118 18:14:49.726616  2573 layer_factory.hpp:77] Creating layer upsample4_dsn3
I1118 18:14:49.726624  2573 net.cpp:100] Creating Layer upsample4_dsn3
I1118 18:14:49.726626  2573 net.cpp:434] upsample4_dsn3 <- sum-dsn3_sum-dsn3_0_split_0
I1118 18:14:49.726634  2573 net.cpp:408] upsample4_dsn3 -> sum-dsn3-up
I1118 18:14:49.727710  2573 net.cpp:150] Setting up upsample4_dsn3
I1118 18:14:49.727721  2573 net.cpp:157] Top shape: 1 1 504 504 (254016)
I1118 18:14:49.727725  2573 net.cpp:165] Memory required for data: 999038928
I1118 18:14:49.727731  2573 layer_factory.hpp:77] Creating layer crop2-dsn3
I1118 18:14:49.727738  2573 net.cpp:100] Creating Layer crop2-dsn3
I1118 18:14:49.727742  2573 net.cpp:434] crop2-dsn3 <- sum-dsn3-up
I1118 18:14:49.727746  2573 net.cpp:434] crop2-dsn3 <- data_augmentation_0_split_4
I1118 18:14:49.727754  2573 net.cpp:408] crop2-dsn3 -> upscore-dsn3
I1118 18:14:49.727784  2573 net.cpp:150] Setting up crop2-dsn3
I1118 18:14:49.727790  2573 net.cpp:157] Top shape: 1 1 500 500 (250000)
I1118 18:14:49.727793  2573 net.cpp:165] Memory required for data: 1000038928
I1118 18:14:49.727797  2573 layer_factory.hpp:77] Creating layer loss3-score
I1118 18:14:49.727805  2573 net.cpp:100] Creating Layer loss3-score
I1118 18:14:49.727808  2573 net.cpp:434] loss3-score <- upscore-dsn3
I1118 18:14:49.727813  2573 net.cpp:434] loss3-score <- label_augmentation_1_split_3
I1118 18:14:49.727818  2573 net.cpp:408] loss3-score -> loss3-score
I1118 18:14:49.727993  2573 net.cpp:150] Setting up loss3-score
I1118 18:14:49.727998  2573 net.cpp:157] Top shape: (1)
I1118 18:14:49.728001  2573 net.cpp:160]     with loss weight 1
I1118 18:14:49.728008  2573 net.cpp:165] Memory required for data: 1000038932
I1118 18:14:49.728010  2573 layer_factory.hpp:77] Creating layer upsample2_1-dsn2
I1118 18:14:49.728020  2573 net.cpp:100] Creating Layer upsample2_1-dsn2
I1118 18:14:49.728024  2573 net.cpp:434] upsample2_1-dsn2 <- sum-dsn3_sum-dsn3_0_split_1
I1118 18:14:49.728030  2573 net.cpp:408] upsample2_1-dsn2 -> sum-dsn3-2
I1118 18:14:49.728225  2573 net.cpp:150] Setting up upsample2_1-dsn2
I1118 18:14:49.728233  2573 net.cpp:157] Top shape: 1 1 252 252 (63504)
I1118 18:14:49.728236  2573 net.cpp:165] Memory required for data: 1000292948
I1118 18:14:49.728242  2573 layer_factory.hpp:77] Creating layer crop1-dsn2
I1118 18:14:49.728248  2573 net.cpp:100] Creating Layer crop1-dsn2
I1118 18:14:49.728252  2573 net.cpp:434] crop1-dsn2 <- sum-dsn3-2
I1118 18:14:49.728256  2573 net.cpp:434] crop1-dsn2 <- conv2_2_relu2_2_0_split_1
I1118 18:14:49.728262  2573 net.cpp:408] crop1-dsn2 -> weight-dsn3-2
I1118 18:14:49.728288  2573 net.cpp:150] Setting up crop1-dsn2
I1118 18:14:49.728294  2573 net.cpp:157] Top shape: 1 1 250 250 (62500)
I1118 18:14:49.728297  2573 net.cpp:165] Memory required for data: 1000542948
I1118 18:14:49.728305  2573 layer_factory.hpp:77] Creating layer weight-dsn3-2_crop1-dsn2_0_split
I1118 18:14:49.728312  2573 net.cpp:100] Creating Layer weight-dsn3-2_crop1-dsn2_0_split
I1118 18:14:49.728315  2573 net.cpp:434] weight-dsn3-2_crop1-dsn2_0_split <- weight-dsn3-2
I1118 18:14:49.728322  2573 net.cpp:408] weight-dsn3-2_crop1-dsn2_0_split -> weight-dsn3-2_crop1-dsn2_0_split_0
I1118 18:14:49.728330  2573 net.cpp:408] weight-dsn3-2_crop1-dsn2_0_split -> weight-dsn3-2_crop1-dsn2_0_split_1
I1118 18:14:49.728363  2573 net.cpp:150] Setting up weight-dsn3-2_crop1-dsn2_0_split
I1118 18:14:49.728370  2573 net.cpp:157] Top shape: 1 1 250 250 (62500)
I1118 18:14:49.728374  2573 net.cpp:157] Top shape: 1 1 250 250 (62500)
I1118 18:14:49.728377  2573 net.cpp:165] Memory required for data: 1001042948
I1118 18:14:49.728380  2573 layer_factory.hpp:77] Creating layer sigmoid-dsn2
I1118 18:14:49.728386  2573 net.cpp:100] Creating Layer sigmoid-dsn2
I1118 18:14:49.728389  2573 net.cpp:434] sigmoid-dsn2 <- weight-dsn3-2_crop1-dsn2_0_split_0
I1118 18:14:49.728396  2573 net.cpp:408] sigmoid-dsn2 -> sigmoid-dsn2
I1118 18:14:49.729588  2573 net.cpp:150] Setting up sigmoid-dsn2
I1118 18:14:49.729599  2573 net.cpp:157] Top shape: 1 1 250 250 (62500)
I1118 18:14:49.729602  2573 net.cpp:165] Memory required for data: 1001292948
I1118 18:14:49.729606  2573 layer_factory.hpp:77] Creating layer rev-dsn2
I1118 18:14:49.729612  2573 net.cpp:100] Creating Layer rev-dsn2
I1118 18:14:49.729616  2573 net.cpp:434] rev-dsn2 <- sigmoid-dsn2
I1118 18:14:49.729622  2573 net.cpp:408] rev-dsn2 -> rev-dsn2
I1118 18:14:49.729648  2573 net.cpp:150] Setting up rev-dsn2
I1118 18:14:49.729655  2573 net.cpp:157] Top shape: 1 1 250 250 (62500)
I1118 18:14:49.729657  2573 net.cpp:165] Memory required for data: 1001542948
I1118 18:14:49.729660  2573 layer_factory.hpp:77] Creating layer tile-dsn2
I1118 18:14:49.729665  2573 net.cpp:100] Creating Layer tile-dsn2
I1118 18:14:49.729670  2573 net.cpp:434] tile-dsn2 <- rev-dsn2
I1118 18:14:49.729676  2573 net.cpp:408] tile-dsn2 -> weight-dsn2
I1118 18:14:49.729696  2573 net.cpp:150] Setting up tile-dsn2
I1118 18:14:49.729701  2573 net.cpp:157] Top shape: 1 128 250 250 (8000000)
I1118 18:14:49.729704  2573 net.cpp:165] Memory required for data: 1033542948
I1118 18:14:49.729707  2573 layer_factory.hpp:77] Creating layer prod1-dsn2
I1118 18:14:49.729713  2573 net.cpp:100] Creating Layer prod1-dsn2
I1118 18:14:49.729717  2573 net.cpp:434] prod1-dsn2 <- conv2_2_relu2_2_0_split_2
I1118 18:14:49.729722  2573 net.cpp:434] prod1-dsn2 <- weight-dsn2
I1118 18:14:49.729727  2573 net.cpp:408] prod1-dsn2 -> prod1-dsn2
I1118 18:14:49.729751  2573 net.cpp:150] Setting up prod1-dsn2
I1118 18:14:49.729758  2573 net.cpp:157] Top shape: 1 128 250 250 (8000000)
I1118 18:14:49.729760  2573 net.cpp:165] Memory required for data: 1065542948
I1118 18:14:49.729763  2573 layer_factory.hpp:77] Creating layer conv1-dsn2
I1118 18:14:49.729773  2573 net.cpp:100] Creating Layer conv1-dsn2
I1118 18:14:49.729776  2573 net.cpp:434] conv1-dsn2 <- prod1-dsn2
I1118 18:14:49.729781  2573 net.cpp:408] conv1-dsn2 -> conv1-dsn2
I1118 18:14:49.730410  2573 net.cpp:150] Setting up conv1-dsn2
I1118 18:14:49.730422  2573 net.cpp:157] Top shape: 1 64 250 250 (4000000)
I1118 18:14:49.730425  2573 net.cpp:165] Memory required for data: 1081542948
I1118 18:14:49.730433  2573 layer_factory.hpp:77] Creating layer conv2-dsn2
I1118 18:14:49.730448  2573 net.cpp:100] Creating Layer conv2-dsn2
I1118 18:14:49.730451  2573 net.cpp:434] conv2-dsn2 <- conv1-dsn2
I1118 18:14:49.730458  2573 net.cpp:408] conv2-dsn2 -> conv2-dsn2
I1118 18:14:49.732085  2573 net.cpp:150] Setting up conv2-dsn2
I1118 18:14:49.732097  2573 net.cpp:157] Top shape: 1 64 250 250 (4000000)
I1118 18:14:49.732100  2573 net.cpp:165] Memory required for data: 1097542948
I1118 18:14:49.732108  2573 layer_factory.hpp:77] Creating layer relu1-dsn2
I1118 18:14:49.732116  2573 net.cpp:100] Creating Layer relu1-dsn2
I1118 18:14:49.732120  2573 net.cpp:434] relu1-dsn2 <- conv2-dsn2
I1118 18:14:49.732126  2573 net.cpp:395] relu1-dsn2 -> conv2-dsn2 (in-place)
I1118 18:14:49.732200  2573 net.cpp:150] Setting up relu1-dsn2
I1118 18:14:49.732208  2573 net.cpp:157] Top shape: 1 64 250 250 (4000000)
I1118 18:14:49.732211  2573 net.cpp:165] Memory required for data: 1113542948
I1118 18:14:49.732215  2573 layer_factory.hpp:77] Creating layer conv3-dsn2
I1118 18:14:49.732226  2573 net.cpp:100] Creating Layer conv3-dsn2
I1118 18:14:49.732230  2573 net.cpp:434] conv3-dsn2 <- conv2-dsn2
I1118 18:14:49.732237  2573 net.cpp:408] conv3-dsn2 -> conv3-dsn2
I1118 18:14:49.733151  2573 net.cpp:150] Setting up conv3-dsn2
I1118 18:14:49.733163  2573 net.cpp:157] Top shape: 1 64 250 250 (4000000)
I1118 18:14:49.733166  2573 net.cpp:165] Memory required for data: 1129542948
I1118 18:14:49.733175  2573 layer_factory.hpp:77] Creating layer relu2-dsn2
I1118 18:14:49.733180  2573 net.cpp:100] Creating Layer relu2-dsn2
I1118 18:14:49.733183  2573 net.cpp:434] relu2-dsn2 <- conv3-dsn2
I1118 18:14:49.733191  2573 net.cpp:395] relu2-dsn2 -> conv3-dsn2 (in-place)
I1118 18:14:49.733347  2573 net.cpp:150] Setting up relu2-dsn2
I1118 18:14:49.733356  2573 net.cpp:157] Top shape: 1 64 250 250 (4000000)
I1118 18:14:49.733359  2573 net.cpp:165] Memory required for data: 1145542948
I1118 18:14:49.733364  2573 layer_factory.hpp:77] Creating layer conv4-dsn2
I1118 18:14:49.733376  2573 net.cpp:100] Creating Layer conv4-dsn2
I1118 18:14:49.733379  2573 net.cpp:434] conv4-dsn2 <- conv3-dsn2
I1118 18:14:49.733388  2573 net.cpp:408] conv4-dsn2 -> conv4-dsn2
I1118 18:14:49.733867  2573 net.cpp:150] Setting up conv4-dsn2
I1118 18:14:49.733878  2573 net.cpp:157] Top shape: 1 1 250 250 (62500)
I1118 18:14:49.733881  2573 net.cpp:165] Memory required for data: 1145792948
I1118 18:14:49.733888  2573 layer_factory.hpp:77] Creating layer sum-dsn2
I1118 18:14:49.733896  2573 net.cpp:100] Creating Layer sum-dsn2
I1118 18:14:49.733899  2573 net.cpp:434] sum-dsn2 <- conv4-dsn2
I1118 18:14:49.733904  2573 net.cpp:434] sum-dsn2 <- weight-dsn3-2_crop1-dsn2_0_split_1
I1118 18:14:49.733912  2573 net.cpp:408] sum-dsn2 -> sum-dsn2
I1118 18:14:49.733939  2573 net.cpp:150] Setting up sum-dsn2
I1118 18:14:49.733945  2573 net.cpp:157] Top shape: 1 1 250 250 (62500)
I1118 18:14:49.733948  2573 net.cpp:165] Memory required for data: 1146042948
I1118 18:14:49.733952  2573 layer_factory.hpp:77] Creating layer upsample2_2-dsn2
I1118 18:14:49.733961  2573 net.cpp:100] Creating Layer upsample2_2-dsn2
I1118 18:14:49.733964  2573 net.cpp:434] upsample2_2-dsn2 <- sum-dsn2
I1118 18:14:49.733973  2573 net.cpp:408] upsample2_2-dsn2 -> sum-dsn2-up
I1118 18:14:49.734261  2573 net.cpp:150] Setting up upsample2_2-dsn2
I1118 18:14:49.734269  2573 net.cpp:157] Top shape: 1 1 502 502 (252004)
I1118 18:14:49.734272  2573 net.cpp:165] Memory required for data: 1147050964
I1118 18:14:49.734278  2573 layer_factory.hpp:77] Creating layer crop2-dsn2
I1118 18:14:49.734285  2573 net.cpp:100] Creating Layer crop2-dsn2
I1118 18:14:49.734290  2573 net.cpp:434] crop2-dsn2 <- sum-dsn2-up
I1118 18:14:49.734294  2573 net.cpp:434] crop2-dsn2 <- data_augmentation_0_split_5
I1118 18:14:49.734305  2573 net.cpp:408] crop2-dsn2 -> upscore-dsn2
I1118 18:14:49.734333  2573 net.cpp:150] Setting up crop2-dsn2
I1118 18:14:49.734338  2573 net.cpp:157] Top shape: 1 1 500 500 (250000)
I1118 18:14:49.734341  2573 net.cpp:165] Memory required for data: 1148050964
I1118 18:14:49.734345  2573 layer_factory.hpp:77] Creating layer upscore-dsn2_crop2-dsn2_0_split
I1118 18:14:49.734350  2573 net.cpp:100] Creating Layer upscore-dsn2_crop2-dsn2_0_split
I1118 18:14:49.734354  2573 net.cpp:434] upscore-dsn2_crop2-dsn2_0_split <- upscore-dsn2
I1118 18:14:49.734362  2573 net.cpp:408] upscore-dsn2_crop2-dsn2_0_split -> upscore-dsn2_crop2-dsn2_0_split_0
I1118 18:14:49.734390  2573 net.cpp:408] upscore-dsn2_crop2-dsn2_0_split -> upscore-dsn2_crop2-dsn2_0_split_1
I1118 18:14:49.734396  2573 net.cpp:408] upscore-dsn2_crop2-dsn2_0_split -> upscore-dsn2_crop2-dsn2_0_split_2
I1118 18:14:49.734434  2573 net.cpp:150] Setting up upscore-dsn2_crop2-dsn2_0_split
I1118 18:14:49.734442  2573 net.cpp:157] Top shape: 1 1 500 500 (250000)
I1118 18:14:49.734447  2573 net.cpp:157] Top shape: 1 1 500 500 (250000)
I1118 18:14:49.734452  2573 net.cpp:157] Top shape: 1 1 500 500 (250000)
I1118 18:14:49.734454  2573 net.cpp:165] Memory required for data: 1151050964
I1118 18:14:49.734457  2573 layer_factory.hpp:77] Creating layer loss2-score
I1118 18:14:49.734467  2573 net.cpp:100] Creating Layer loss2-score
I1118 18:14:49.734470  2573 net.cpp:434] loss2-score <- upscore-dsn2_crop2-dsn2_0_split_0
I1118 18:14:49.734475  2573 net.cpp:434] loss2-score <- label_augmentation_1_split_4
I1118 18:14:49.734480  2573 net.cpp:408] loss2-score -> loss2-score
I1118 18:14:49.735430  2573 net.cpp:150] Setting up loss2-score
I1118 18:14:49.735438  2573 net.cpp:157] Top shape: (1)
I1118 18:14:49.735442  2573 net.cpp:160]     with loss weight 1
I1118 18:14:49.735448  2573 net.cpp:165] Memory required for data: 1151050968
I1118 18:14:49.735452  2573 layer_factory.hpp:77] Creating layer sigmoid-dsn1
I1118 18:14:49.735458  2573 net.cpp:100] Creating Layer sigmoid-dsn1
I1118 18:14:49.735462  2573 net.cpp:434] sigmoid-dsn1 <- upscore-dsn2_crop2-dsn2_0_split_1
I1118 18:14:49.735468  2573 net.cpp:408] sigmoid-dsn1 -> sigmoid-dsn1
I1118 18:14:49.736634  2573 net.cpp:150] Setting up sigmoid-dsn1
I1118 18:14:49.736644  2573 net.cpp:157] Top shape: 1 1 500 500 (250000)
I1118 18:14:49.736649  2573 net.cpp:165] Memory required for data: 1152050968
I1118 18:14:49.736651  2573 layer_factory.hpp:77] Creating layer rev-dsn1
I1118 18:14:49.736658  2573 net.cpp:100] Creating Layer rev-dsn1
I1118 18:14:49.736662  2573 net.cpp:434] rev-dsn1 <- sigmoid-dsn1
I1118 18:14:49.736671  2573 net.cpp:408] rev-dsn1 -> rev-dsn1
I1118 18:14:49.736698  2573 net.cpp:150] Setting up rev-dsn1
I1118 18:14:49.736704  2573 net.cpp:157] Top shape: 1 1 500 500 (250000)
I1118 18:14:49.736707  2573 net.cpp:165] Memory required for data: 1153050968
I1118 18:14:49.736711  2573 layer_factory.hpp:77] Creating layer tile-dsn1
I1118 18:14:49.736719  2573 net.cpp:100] Creating Layer tile-dsn1
I1118 18:14:49.736722  2573 net.cpp:434] tile-dsn1 <- rev-dsn1
I1118 18:14:49.736728  2573 net.cpp:408] tile-dsn1 -> weight-dsn1
I1118 18:14:49.736752  2573 net.cpp:150] Setting up tile-dsn1
I1118 18:14:49.736757  2573 net.cpp:157] Top shape: 1 64 500 500 (16000000)
I1118 18:14:49.736760  2573 net.cpp:165] Memory required for data: 1217050968
I1118 18:14:49.736764  2573 layer_factory.hpp:77] Creating layer prod1-dsn1
I1118 18:14:49.736773  2573 net.cpp:100] Creating Layer prod1-dsn1
I1118 18:14:49.736776  2573 net.cpp:434] prod1-dsn1 <- conv1_2_relu1_2_0_split_1
I1118 18:14:49.736780  2573 net.cpp:434] prod1-dsn1 <- weight-dsn1
I1118 18:14:49.736786  2573 net.cpp:408] prod1-dsn1 -> prod1-dsn1
I1118 18:14:49.736812  2573 net.cpp:150] Setting up prod1-dsn1
I1118 18:14:49.736817  2573 net.cpp:157] Top shape: 1 64 500 500 (16000000)
I1118 18:14:49.736820  2573 net.cpp:165] Memory required for data: 1281050968
I1118 18:14:49.736824  2573 layer_factory.hpp:77] Creating layer conv1-dsn1
I1118 18:14:49.736850  2573 net.cpp:100] Creating Layer conv1-dsn1
I1118 18:14:49.736855  2573 net.cpp:434] conv1-dsn1 <- prod1-dsn1
I1118 18:14:49.736861  2573 net.cpp:408] conv1-dsn1 -> conv1-dsn1
I1118 18:14:49.737651  2573 net.cpp:150] Setting up conv1-dsn1
I1118 18:14:49.737663  2573 net.cpp:157] Top shape: 1 64 500 500 (16000000)
I1118 18:14:49.737668  2573 net.cpp:165] Memory required for data: 1345050968
I1118 18:14:49.737675  2573 layer_factory.hpp:77] Creating layer conv2-dsn1
I1118 18:14:49.737689  2573 net.cpp:100] Creating Layer conv2-dsn1
I1118 18:14:49.737694  2573 net.cpp:434] conv2-dsn1 <- conv1-dsn1
I1118 18:14:49.737700  2573 net.cpp:408] conv2-dsn1 -> conv2-dsn1
I1118 18:14:49.739364  2573 net.cpp:150] Setting up conv2-dsn1
I1118 18:14:49.739375  2573 net.cpp:157] Top shape: 1 64 500 500 (16000000)
I1118 18:14:49.739379  2573 net.cpp:165] Memory required for data: 1409050968
I1118 18:14:49.739387  2573 layer_factory.hpp:77] Creating layer relu1-dsn1
I1118 18:14:49.739392  2573 net.cpp:100] Creating Layer relu1-dsn1
I1118 18:14:49.739396  2573 net.cpp:434] relu1-dsn1 <- conv2-dsn1
I1118 18:14:49.739404  2573 net.cpp:395] relu1-dsn1 -> conv2-dsn1 (in-place)
I1118 18:14:49.739563  2573 net.cpp:150] Setting up relu1-dsn1
I1118 18:14:49.739573  2573 net.cpp:157] Top shape: 1 64 500 500 (16000000)
I1118 18:14:49.739576  2573 net.cpp:165] Memory required for data: 1473050968
I1118 18:14:49.739580  2573 layer_factory.hpp:77] Creating layer conv3-dsn1
I1118 18:14:49.739593  2573 net.cpp:100] Creating Layer conv3-dsn1
I1118 18:14:49.739598  2573 net.cpp:434] conv3-dsn1 <- conv2-dsn1
I1118 18:14:49.739604  2573 net.cpp:408] conv3-dsn1 -> conv3-dsn1
I1118 18:14:49.740535  2573 net.cpp:150] Setting up conv3-dsn1
I1118 18:14:49.740545  2573 net.cpp:157] Top shape: 1 64 500 500 (16000000)
I1118 18:14:49.740550  2573 net.cpp:165] Memory required for data: 1537050968
I1118 18:14:49.740556  2573 layer_factory.hpp:77] Creating layer relu2-dsn1
I1118 18:14:49.740562  2573 net.cpp:100] Creating Layer relu2-dsn1
I1118 18:14:49.740566  2573 net.cpp:434] relu2-dsn1 <- conv3-dsn1
I1118 18:14:49.740573  2573 net.cpp:395] relu2-dsn1 -> conv3-dsn1 (in-place)
I1118 18:14:49.740727  2573 net.cpp:150] Setting up relu2-dsn1
I1118 18:14:49.740741  2573 net.cpp:157] Top shape: 1 64 500 500 (16000000)
I1118 18:14:49.740743  2573 net.cpp:165] Memory required for data: 1601050968
I1118 18:14:49.740747  2573 layer_factory.hpp:77] Creating layer conv4-dsn1
I1118 18:14:49.740759  2573 net.cpp:100] Creating Layer conv4-dsn1
I1118 18:14:49.740767  2573 net.cpp:434] conv4-dsn1 <- conv3-dsn1
I1118 18:14:49.740773  2573 net.cpp:408] conv4-dsn1 -> conv4-dsn1
I1118 18:14:49.743213  2573 net.cpp:150] Setting up conv4-dsn1
I1118 18:14:49.743225  2573 net.cpp:157] Top shape: 1 1 500 500 (250000)
I1118 18:14:49.743229  2573 net.cpp:165] Memory required for data: 1602050968
I1118 18:14:49.743237  2573 layer_factory.hpp:77] Creating layer sum-dsn1
I1118 18:14:49.743245  2573 net.cpp:100] Creating Layer sum-dsn1
I1118 18:14:49.743249  2573 net.cpp:434] sum-dsn1 <- conv4-dsn1
I1118 18:14:49.743255  2573 net.cpp:434] sum-dsn1 <- upscore-dsn2_crop2-dsn2_0_split_2
I1118 18:14:49.743260  2573 net.cpp:408] sum-dsn1 -> sum-dsn1
I1118 18:14:49.743289  2573 net.cpp:150] Setting up sum-dsn1
I1118 18:14:49.743296  2573 net.cpp:157] Top shape: 1 1 500 500 (250000)
I1118 18:14:49.743304  2573 net.cpp:165] Memory required for data: 1603050968
I1118 18:14:49.743307  2573 layer_factory.hpp:77] Creating layer crop2-dsn1
I1118 18:14:49.743312  2573 net.cpp:100] Creating Layer crop2-dsn1
I1118 18:14:49.743316  2573 net.cpp:434] crop2-dsn1 <- sum-dsn1
I1118 18:14:49.743321  2573 net.cpp:434] crop2-dsn1 <- data_augmentation_0_split_6
I1118 18:14:49.743330  2573 net.cpp:408] crop2-dsn1 -> upscore-dsn1
I1118 18:14:49.743355  2573 net.cpp:150] Setting up crop2-dsn1
I1118 18:14:49.743362  2573 net.cpp:157] Top shape: 1 1 500 500 (250000)
I1118 18:14:49.743366  2573 net.cpp:165] Memory required for data: 1604050968
I1118 18:14:49.743368  2573 layer_factory.hpp:77] Creating layer loss1-score
I1118 18:14:49.743377  2573 net.cpp:100] Creating Layer loss1-score
I1118 18:14:49.743381  2573 net.cpp:434] loss1-score <- upscore-dsn1
I1118 18:14:49.743384  2573 net.cpp:434] loss1-score <- label_augmentation_1_split_5
I1118 18:14:49.743389  2573 net.cpp:408] loss1-score -> loss1-score
…
I1118 18:14:49.746963  2573 net.cpp:58] Initializing net from parameters: 
name: "RAS"
state {
  phase: TEST
}
layer {
  name: "data"
  type: "ImageLabelmapData"
  top: "data"
  top: "label"
  include {
    phase: TEST
  }
  transform_param {
    mean_value: 104.00699
    mean_value: 116.66877
    mean_value: 122.67892
  }
  image_data_param {
    source: "/media/compute/homes/galberding/FleckDetect/Datasets/FleckDataSet/val/image_to_label_map.txt"
    batch_size: 1
    new_height: 500
    new_width: 500
    root_folder: "/media/compute/homes/galberding/FleckDetect/Datasets/FleckDataSet/val/"
    normalize: true
  }
}
layer {
  name: "conv1_1"
  type: "Convolution"
  bottom: "data"
  top: "conv1_1"
  param {
    lr_mult: 1
    decay_mult: 1
  }
  param {
    lr_mult: 2
    decay_mult: 0
  }
  convolution_param {
    num_output: 64
    pad: 1
    kernel_size: 3
    engine: CUDNN
  }
}
layer {
  name: "relu1_1"
  type: "ReLU"
  bottom: "conv1_1"
  top: "conv1_1"
}
layer {
  name: "conv1_2"
  type: "Convolution"
  bottom: "conv1_1"
  top: "conv1_2"
  param {
    lr_mult: 1
    decay_mult: 1
  }
  param {
    lr_mult: 2
    decay_mult: 0
  }
  convolution_param {
    num_output: 64
    pad: 1
    kernel_size: 3
    engine: CUDNN
  }
}
layer {
  name: "relu1_2"
  type: "ReLU"
  bottom: "conv1_2"
  top: "conv1_2"
}
layer {
  name: "pool1"
  type: "Pooling"
  bottom: "conv1_2"
  top: "pool1"
  pooling_param {
    pool: MAX
    kernel_size: 2
    stride: 2
  }
}
layer {
  name: "conv2_1"
  type: "Convolution"
  bottom: "pool1"
  top: "conv2_1"
  param {
    lr_mult: 1
    decay_mult: 1
  }
  param {
    lr_mult: 2
    decay_mult: 0
  }
  convolution_param {
    num_output: 128
    pad: 1
    kernel_size: 3
    engine: CUDNN
  }
}
layer {
  name: "relu2_1"
  type: "ReLU"
  bottom: "conv2_1"
  top: "conv2_1"
}
layer {
  name: "conv2_2"
  type: "Convolution"
  bottom: "conv2_1"
  top: "conv2_2"
  param {
    lr_mult: 1
    decay_mult: 1
  }
  param {
    lr_mult: 2
    decay_mult: 0
  }
  convolution_param {
    num_output: 128
    pad: 1
    kernel_size: 3
    engine: CUDNN
  }
}
layer {
  name: "relu2_2"
  type: "ReLU"
  bottom: "conv2_2"
  top: "conv2_2"
}
layer {
  name: "pool2"
  type: "Pooling"
  bottom: "conv2_2"
  top: "pool2"
  pooling_param {
    pool: MAX
    kernel_size: 2
    stride: 2
  }
}
layer {
  name: "conv3_1"
  type: "Convolution"
  bottom: "pool2"
  top: "conv3_1"
  param {
    lr_mult: 1
    decay_mult: 1
  }
  param {
    lr_mult: 2
    decay_mult: 0
  }
  convolution_param {
    num_output: 256
    pad: 1
    kernel_size: 3
    engine: CUDNN
  }
}
layer {
  name: "relu3_1"
  type: "ReLU"
  bottom: "conv3_1"
  top: "conv3_1"
}
layer {
  name: "conv3_2"
  type: "Convolution"
  bottom: "conv3_1"
  top: "conv3_2"
  param {
    lr_mult: 1
    decay_mult: 1
  }
  param {
    lr_mult: 2
    decay_mult: 0
  }
  convolution_param {
    num_output: 256
    pad: 1
    kernel_size: 3
    engine: CUDNN
  }
}
layer {
  name: "relu3_2"
  type: "ReLU"
  bottom: "conv3_2"
  top: "conv3_2"
}
layer {
  name: "conv3_3"
  type: "Convolution"
  bottom: "conv3_2"
  top: "conv3_3"
  param {
    lr_mult: 1
    decay_mult: 1
  }
  param {
    lr_mult: 2
    decay_mult: 0
  }
  convolution_param {
    num_output: 256
    pad: 1
    kernel_size: 3
    engine: CUDNN
  }
}
layer {
  name: "relu3_3"
  type: "ReLU"
  bottom: "conv3_3"
  top: "conv3_3"
}
layer {
  name: "pool3"
  type: "Pooling"
  bottom: "conv3_3"
  top: "pool3"
  pooling_param {
    pool: MAX
    kernel_size: 2
    stride: 2
  }
}
layer {
  name: "conv4_1"
  type: "Convolution"
  bottom: "pool3"
  top: "conv4_1"
  param {
    lr_mult: 1
    decay_mult: 1
  }
  param {
    lr_mult: 2
    decay_mult: 0
  }
  convolution_param {
    num_output: 512
    pad: 1
    kernel_size: 3
    engine: CUDNN
  }
}
layer {
  name: "relu4_1"
  type: "ReLU"
  bottom: "conv4_1"
  top: "conv4_1"
}
layer {
  name: "conv4_2"
  type: "Convolution"
  bottom: "conv4_1"
  top: "conv4_2"
  param {
    lr_mult: 1
    decay_mult: 1
  }
  param {
    lr_mult: 2
    decay_mult: 0
  }
  convolution_param {
    num_output: 512
    pad: 1
    kernel_size: 3
    engine: CUDNN
  }
}
layer {
  name: "relu4_2"
  type: "ReLU"
  bottom: "conv4_2"
  top: "conv4_2"
}
layer {
  name: "conv4_3"
  type: "Convolution"
  bottom: "conv4_2"
  top: "conv4_3"
  param {
    lr_mult: 1
    decay_mult: 1
  }
  param {
    lr_mult: 2
    decay_mult: 0
  }
  convolution_param {
    num_output: 512
    pad: 1
    kernel_size: 3
    engine: CUDNN
  }
}
layer {
  name: "relu4_3"
  type: "ReLU"
  bottom: "conv4_3"
  top: "conv4_3"
}
layer {
  name: "pool4"
  type: "Pooling"
  bottom: "conv4_3"
  top: "pool4"
  pooling_param {
    pool: MAX
    kernel_size: 3
    stride: 2
    pad: 1
  }
}
layer {
  name: "conv5_1"
  type: "Convolution"
  bottom: "pool4"
  top: "conv5_1"
  param {
    lr_mult: 1
    decay_mult: 1
  }
  param {
    lr_mult: 2
    decay_mult: 0
  }
  convolution_param {
    num_output: 512
    pad: 1
    kernel_size: 3
    engine: CUDNN
  }
}
layer {
  name: "relu5_1"
  type: "ReLU"
  bottom: "conv5_1"
  top: "conv5_1"
}
layer {
  name: "conv5_2"
  type: "Convolution"
  bottom: "conv5_1"
  top: "conv5_2"
  param {
    lr_mult: 1
    decay_mult: 1
  }
  param {
    lr_mult: 2
    decay_mult: 0
  }
  convolution_param {
    num_output: 512
    pad: 1
    kernel_size: 3
    engine: CUDNN
  }
}
layer {
  name: "relu5_2"
  type: "ReLU"
  bottom: "conv5_2"
  top: "conv5_2"
}
layer {
  name: "conv5_3"
  type: "Convolution"
  bottom: "conv5_2"
  top: "conv5_3"
  param {
    lr_mult: 1
    decay_mult: 1
  }
  param {
    lr_mult: 2
    decay_mult: 0
  }
  convolution_param {
    num_output: 512
    pad: 1
    kernel_size: 3
    engine: CUDNN
  }
}
layer {
  name: "relu5_3"
  type: "ReLU"
  bottom: "conv5_3"
  top: "conv5_3"
}
layer {
  name: "pool5"
  type: "Pooling"
  bottom: "conv5_3"
  top: "pool5"
  pooling_param {
    pool: MAX
    kernel_size: 3
    stride: 2
    pad: 1
  }
}
layer {
  name: "conv1-dsn6"
  type: "Convolution"
  bottom: "pool5"
  top: "conv1-dsn6"
  param {
    lr_mult: 1
    decay_mult: 1
  }
  param {
    lr_mult: 2
    decay_mult: 0
  }
  convolution_param {
    num_output: 256
    kernel_size: 1
    weight_filler {
      type: "gaussian"
      std: 0.01
    }
    bias_filler {
      type: "constant"
      value: 0
    }
    engine: CUDNN
  }
}
layer {
  name: "conv2-dsn6"
  type: "Convolution"
  bottom: "conv1-dsn6"
  top: "conv2-dsn6"
  param {
    lr_mult: 1
    decay_mult: 1
  }
  param {
    lr_mult: 2
    decay_mult: 0
  }
  convolution_param {
    num_output: 256
    pad: 2
    kernel_size: 5
    weight_filler {
      type: "gaussian"
      std: 0.01
    }
    bias_filler {
      type: "constant"
      value: 0
    }
    engine: CUDNN
  }
}
layer {
  name: "relu1-dsn6"
  type: "ReLU"
  bottom: "conv2-dsn6"
  top: "conv2-dsn6"
}
layer {
  name: "conv3-dsn6"
  type: "Convolution"
  bottom: "conv2-dsn6"
  top: "conv3-dsn6"
  param {
    lr_mult: 1
    decay_mult: 1
  }
  param {
    lr_mult: 2
    decay_mult: 0
  }
  convolution_param {
    num_output: 256
    pad: 2
    kernel_size: 5
    weight_filler {
      type: "gaussian"
      std: 0.01
    }
    bias_filler {
      type: "constant"
      value: 0
    }
    engine: CUDNN
  }
}
layer {
  name: "relu2-dsn6"
  type: "ReLU"
  bottom: "conv3-dsn6"
  top: "conv3-dsn6"
}
layer {
  name: "conv4-dsn6"
  type: "Convolution"
  bottom: "conv3-dsn6"
  top: "conv4-dsn6"
  param {
    lr_mult: 1
    decay_mult: 1
  }
  param {
    lr_mult: 2
    decay_mult: 0
  }
  convolution_param {
    num_output: 256
    pad: 2
    kernel_size: 5
    weight_filler {
      type: "gaussian"
      std: 0.01
    }
    bias_filler {
      type: "constant"
      value: 0
    }
    engine: CUDNN
  }
}
layer {
  name: "relu3-dsn6"
  type: "ReLU"
  bottom: "conv4-dsn6"
  top: "conv4-dsn6"
}
layer {
  name: "conv5-dsn6"
  type: "Convolution"
  bottom: "conv4-dsn6"
  top: "conv5-dsn6"
  param {
    lr_mult: 0.1
    decay_mult: 1
  }
  param {
    lr_mult: 0.2
    decay_mult: 0
  }
  convolution_param {
    num_output: 1
    kernel_size: 1
    weight_filler {
      type: "gaussian"
      std: 0.01
    }
    bias_filler {
      type: "constant"
      value: 0
    }
    engine: CUDNN
  }
}
layer {
  name: "upsample32_dsn6"
  type: "Deconvolution"
  bottom: "conv5-dsn6"
  top: "conv5-dsn6-up"
  param {
    lr_mult: 0
    decay_mult: 1
  }
  param {
    lr_mult: 0
    decay_mult: 0
  }
  convolution_param {
    num_output: 1
    kernel_size: 64
    stride: 32
  }
}
layer {
  name: "crop-dsn6"
  type: "Crop"
  bottom: "conv5-dsn6-up"
  bottom: "data"
  top: "upscore-dsn6"
}
layer {
  name: "loss6-score"
  type: "SigmoidCrossEntropyLoss"
  bottom: "upscore-dsn6"
  bottom: "label"
  top: "loss6-score"
  loss_weight: 1
}
layer {
  name: "upsample2_dsn5"
  type: "Deconvolution"
  bottom: "conv5-dsn6"
  top: "conv5-dsn6-5"
  param {
    lr_mult: 0
    decay_mult: 1
  }
  param {
    lr_mult: 0
    decay_mult: 0
  }
  convolution_param {
    num_output: 1
    kernel_size: 4
    stride: 2
  }
}
layer {
  name: "crop1-dsn5"
  type: "Crop"
  bottom: "conv5-dsn6-5"
  bottom: "conv5_3"
  top: "weight-dsn6-5"
}
layer {
  name: "sigmoid-dsn5"
  type: "Sigmoid"
  bottom: "weight-dsn6-5"
  top: "sigmoid-dsn5"
}
layer {
  name: "rev-dsn5"
  type: "Power"
  bottom: "sigmoid-dsn5"
  top: "rev-dsn5"
  power_param {
    power: 1
    scale: -1
    shift: 1
  }
}
layer {
  name: "tile-dsn5"
  type: "Tile"
  bottom: "rev-dsn5"
  top: "weight-dsn5"
  tile_param {
    tiles: 512
  }
}
layer {
  name: "prod1-dsn5"
  type: "Eltwise"
  bottom: "conv5_3"
  bottom: "weight-dsn5"
  top: "prod1-dsn5"
  eltwise_param {
    operation: PROD
  }
}
layer {
  name: "conv1-dsn5"
  type: "Convolution"
  bottom: "prod1-dsn5"
  top: "conv1-dsn5"
  param {
    lr_mult: 1
    decay_mult: 1
  }
  param {
    lr_mult: 2
    decay_mult: 0
  }
  convolution_param {
    num_output: 64
    kernel_size: 1
    weight_filler {
      type: "gaussian"
      std: 0.01
    }
    bias_filler {
      type: "constant"
      value: 0
    }
    engine: CUDNN
  }
}
layer {
  name: "conv2-dsn5"
  type: "Convolution"
  bottom: "conv1-dsn5"
  top: "conv2-dsn5"
  param {
    lr_mult: 1
    decay_mult: 1
  }
  param {
    lr_mult: 2
    decay_mult: 0
  }
  convolution_param {
    num_output: 64
    pad: 1
    kernel_size: 3
    weight_filler {
      type: "gaussian"
      std: 0.01
    }
    bias_filler {
      type: "constant"
      value: 0
    }
    engine: CUDNN
  }
}
layer {
  name: "relu1-dsn5"
  type: "ReLU"
  bottom: "conv2-dsn5"
  top: "conv2-dsn5"
}
layer {
  name: "conv3-dsn5"
  type: "Convolution"
  bottom: "conv2-dsn5"
  top: "conv3-dsn5"
  param {
    lr_mult: 1
    decay_mult: 1
  }
  param {
    lr_mult: 2
    decay_mult: 0
  }
  convolution_param {
    num_output: 64
    pad: 1
    kernel_size: 3
    weight_filler {
      type: "gaussian"
      std: 0.01
    }
    bias_filler {
      type: "constant"
      value: 0
    }
    engine: CUDNN
  }
}
layer {
  name: "relu2-dsn5"
  type: "ReLU"
  bottom: "conv3-dsn5"
  top: "conv3-dsn5"
}
layer {
  name: "conv4-dsn5"
  type: "Convolution"
  bottom: "conv3-dsn5"
  top: "conv4-dsn5"
  param {
    lr_mult: 1
    decay_mult: 1
  }
  param {
    lr_mult: 2
    decay_mult: 0
  }
  convolution_param {
    num_output: 1
    pad: 1
    kernel_size: 3
    weight_filler {
      type: "gaussian"
      std: 0.01
    }
    bias_filler {
      type: "constant"
      value: 0
    }
    engine: CUDNN
  }
}
layer {
  name: "sum-dsn5"
  type: "Eltwise"
  bottom: "conv4-dsn5"
  bottom: "weight-dsn6-5"
  top: "sum-dsn5"
  eltwise_param {
    operation: SUM
  }
}
layer {
  name: "upsample16_dsn5"
  type: "Deconvolution"
  bottom: "sum-dsn5"
  top: "sum-dsn5-up"
  param {
    lr_mult: 0
    decay_mult: 1
  }
  param {
    lr_mult: 0
    decay_mult: 0
  }
  convolution_param {
    num_output: 1
    kernel_size: 32
    stride: 16
  }
}
layer {
  name: "crop2-dsn5"
  type: "Crop"
  bottom: "sum-dsn5-up"
  bottom: "data"
  top: "upscore-dsn5"
}
layer {
  name: "loss5-score"
  type: "SigmoidCrossEntropyLoss"
  bottom: "upscore-dsn5"
  bottom: "label"
  top: "loss5-score"
  loss_weight: 1
}
layer {
  name: "upsample2_dsn4"
  type: "Deconvolution"
  bottom: "sum-dsn5"
  top: "sum-dsn5-4"
  param {
    lr_mult: 0
    decay_mult: 1
  }
  param {
    lr_mult: 0
    decay_mult: 0
  }
  convolution_param {
    num_output: 1
    kernel_size: 4
    stride: 2
  }
}
layer {
  name: "crop1-dsn4"
  type: "Crop"
  bottom: "sum-dsn5-4"
  bottom: "conv4_3"
  top: "weight-dsn5-4"
}
layer {
  name: "sigmoid-dsn4"
  type: "Sigmoid"
  bottom: "weight-dsn5-4"
  top: "sigmoid-dsn4"
}
layer {
  name: "rev-dsn4"
  type: "Power"
  bottom: "sigmoid-dsn4"
  top: "rev-dsn4"
  power_param {
    power: 1
    scale: -1
    shift: 1
  }
}
layer {
  name: "tile-dsn4"
  type: "Tile"
  bottom: "rev-dsn4"
  top: "weight-dsn4"
  tile_param {
    tiles: 512
  }
}
layer {
  name: "prod1-dsn4"
  type: "Eltwise"
  bottom: "conv4_3"
  bottom: "weight-dsn4"
  top: "prod1-dsn4"
  eltwise_param {
    operation: PROD
  }
}
layer {
  name: "conv1-dsn4"
  type: "Convolution"
  bottom: "prod1-dsn4"
  top: "conv1-dsn4"
  param {
    lr_mult: 1
    decay_mult: 1
  }
  param {
    lr_mult: 2
    decay_mult: 0
  }
  convolution_param {
    num_output: 64
    kernel_size: 1
    weight_filler {
      type: "gaussian"
      std: 0.01
    }
    bias_filler {
      type: "constant"
      value: 0
    }
    engine: CUDNN
  }
}
layer {
  name: "conv2-dsn4"
  type: "Convolution"
  bottom: "conv1-dsn4"
  top: "conv2-dsn4"
  param {
    lr_mult: 1
    decay_mult: 1
  }
  param {
    lr_mult: 2
    decay_mult: 0
  }
  convolution_param {
    num_output: 64
    pad: 1
    kernel_size: 3
    weight_filler {
      type: "gaussian"
      std: 0.01
    }
    bias_filler {
      type: "constant"
      value: 0
    }
    engine: CUDNN
  }
}
layer {
  name: "relu1-dsn4"
  type: "ReLU"
  bottom: "conv2-dsn4"
  top: "conv2-dsn4"
}
layer {
  name: "conv3-dsn4"
  type: "Convolution"
  bottom: "conv2-dsn4"
  top: "conv3-dsn4"
  param {
    lr_mult: 1
    decay_mult: 1
  }
  param {
    lr_mult: 2
    decay_mult: 0
  }
  convolution_param {
    num_output: 64
    pad: 1
    kernel_size: 3
    weight_filler {
      type: "gaussian"
      std: 0.01
    }
    bias_filler {
      type: "constant"
      value: 0
    }
    engine: CUDNN
  }
}
layer {
  name: "relu2-dsn4"
  type: "ReLU"
  bottom: "conv3-dsn4"
  top: "conv3-dsn4"
}
layer {
  name: "conv4-dsn4"
  type: "Convolution"
  bottom: "conv3-dsn4"
  top: "conv4-dsn4"
  param {
    lr_mult: 1
    decay_mult: 1
  }
  param {
    lr_mult: 2
    decay_mult: 0
  }
  convolution_param {
    num_output: 1
    pad: 1
    kernel_size: 3
    weight_filler {
      type: "gaussian"
      std: 0.01
    }
    bias_filler {
      type: "constant"
      value: 0
    }
    engine: CUDNN
  }
}
layer {
  name: "sum-dsn4"
  type: "Eltwise"
  bottom: "conv4-dsn4"
  bottom: "weight-dsn5-4"
  top: "sum-dsn4"
  eltwise_param {
    operation: SUM
  }
}
layer {
  name: "upsample8_dsn4"
  type: "Deconvolution"
  bottom: "sum-dsn4"
  top: "sum-dsn4-up"
  param {
    lr_mult: 0
    decay_mult: 1
  }
  param {
    lr_mult: 0
    decay_mult: 0
  }
  convolution_param {
    num_output: 1
    kernel_size: 16
    stride: 8
  }
}
layer {
  name: "crop2-dsn4"
  type: "Crop"
  bottom: "sum-dsn4-up"
  bottom: "data"
  top: "upscore-dsn4"
}
layer {
  name: "loss4-score"
  type: "SigmoidCrossEntropyLoss"
  bottom: "upscore-dsn4"
  bottom: "label"
  top: "loss4-score"
  loss_weight: 1
}
layer {
  name: "upsample2_dsn3"
  type: "Deconvolution"
  bottom: "sum-dsn4"
  top: "sum-dsn4-3"
  param {
    lr_mult: 0
    decay_mult: 1
  }
  param {
    lr_mult: 0
    decay_mult: 0
  }
  convolution_param {
    num_output: 1
    kernel_size: 4
    stride: 2
  }
}
layer {
  name: "crop1-dsn3"
  type: "Crop"
  bottom: "sum-dsn4-3"
  bottom: "conv3_3"
  top: "weight-dsn4-3"
}
layer {
  name: "sigmoid-dsn3"
  type: "Sigmoid"
  bottom: "weight-dsn4-3"
  top: "sigmoid-dsn3"
}
layer {
  name: "rev-dsn3"
  type: "Power"
  bottom: "sigmoid-dsn3"
  top: "rev-dsn3"
  power_param {
    power: 1
    scale: -1
    shift: 1
  }
}
layer {
  name: "tile-dsn3"
  type: "Tile"
  bottom: "rev-dsn3"
  top: "weight-dsn3"
  tile_param {
    tiles: 256
  }
}
layer {
  name: "prod1-dsn3"
  type: "Eltwise"
  bottom: "conv3_3"
  bottom: "weight-dsn3"
  top: "prod1-dsn3"
  eltwise_param {
    operation: PROD
  }
}
layer {
  name: "conv1-dsn3"
  type: "Convolution"
  bottom: "prod1-dsn3"
  top: "conv1-dsn3"
  param {
    lr_mult: 1
    decay_mult: 1
  }
  param {
    lr_mult: 2
    decay_mult: 0
  }
  convolution_param {
    num_output: 64
    kernel_size: 1
    weight_filler {
      type: "gaussian"
      std: 0.01
    }
    bias_filler {
      type: "constant"
      value: 0
    }
    engine: CUDNN
  }
}
layer {
  name: "conv2-dsn3"
  type: "Convolution"
  bottom: "conv1-dsn3"
  top: "conv2-dsn3"
  param {
    lr_mult: 1
    decay_mult: 1
  }
  param {
    lr_mult: 2
    decay_mult: 0
  }
  convolution_param {
    num_output: 64
    pad: 1
    kernel_size: 3
    weight_filler {
      type: "gaussian"
      std: 0.01
    }
    bias_filler {
      type: "constant"
      value: 0
    }
    engine: CUDNN
  }
}
layer {
  name: "relu1-dsn3"
  type: "ReLU"
  bottom: "conv2-dsn3"
  top: "conv2-dsn3"
}
layer {
  name: "conv3-dsn3"
  type: "Convolution"
  bottom: "conv2-dsn3"
  top: "conv3-dsn3"
  param {
    lr_mult: 1
    decay_mult: 1
  }
  param {
    lr_mult: 2
    decay_mult: 0
  }
  convolution_param {
    num_output: 64
    pad: 1
    kernel_size: 3
    weight_filler {
      type: "gaussian"
      std: 0.01
    }
    bias_filler {
      type: "constant"
      value: 0
    }
    engine: CUDNN
  }
}
layer {
  name: "relu2-dsn3"
  type: "ReLU"
  bottom: "conv3-dsn3"
  top: "conv3-dsn3"
}
layer {
  name: "conv4-dsn3"
  type: "Convolution"
  bottom: "conv3-dsn3"
  top: "conv4-dsn3"
  param {
    lr_mult: 1
    decay_mult: 1
  }
  param {
    lr_mult: 2
    decay_mult: 0
  }
  convolution_param {
    num_output: 1
    pad: 1
    kernel_size: 3
    weight_filler {
      type: "gaussian"
      std: 0.01
    }
    bias_filler {
      type: "constant"
      value: 0
    }
    engine: CUDNN
  }
}
layer {
  name: "sum-dsn3"
  type: "Eltwise"
  bottom: "conv4-dsn3"
  bottom: "weight-dsn4-3"
  top: "sum-dsn3"
  eltwise_param {
    operation: SUM
  }
}
layer {
  name: "upsample4_dsn3"
  type: "Deconvolution"
  bottom: "sum-dsn3"
  top: "sum-dsn3-up"
  param {
    lr_mult: 0
    decay_mult: 1
  }
  param {
    lr_mult: 0
    decay_mult: 0
  }
  convolution_param {
    num_output: 1
    kernel_size: 8
    stride: 4
  }
}
layer {
  name: "crop2-dsn3"
  type: "Crop"
  bottom: "sum-dsn3-up"
  bottom: "data"
  top: "upscore-dsn3"
}
layer {
  name: "loss3-score"
  type: "SigmoidCrossEntropyLoss"
  bottom: "upscore-dsn3"
  bottom: "label"
  top: "loss3-score"
  loss_weight: 1
}
layer {
  name: "upsample2_1-dsn2"
  type: "Deconvolution"
  bottom: "sum-dsn3"
  top: "sum-dsn3-2"
  param {
    lr_mult: 0
    decay_mult: 1
  }
  param {
    lr_mult: 0
    decay_mult: 0
  }
  convolution_param {
    num_output: 1
    kernel_size: 4
    stride: 2
  }
}
layer {
  name: "crop1-dsn2"
  type: "Crop"
  bottom: "sum-dsn3-2"
  bottom: "conv2_2"
  top: "weight-dsn3-2"
}
layer {
  name: "sigmoid-dsn2"
  type: "Sigmoid"
  bottom: "weight-dsn3-2"
  top: "sigmoid-dsn2"
}
layer {
  name: "rev-dsn2"
  type: "Power"
  bottom: "sigmoid-dsn2"
  top: "rev-dsn2"
  power_param {
    power: 1
    scale: -1
    shift: 1
  }
}
layer {
  name: "tile-dsn2"
  type: "Tile"
  bottom: "rev-dsn2"
  top: "weight-dsn2"
  tile_param {
    tiles: 128
  }
}
layer {
  name: "prod1-dsn2"
  type: "Eltwise"
  bottom: "conv2_2"
  bottom: "weight-dsn2"
  top: "prod1-dsn2"
  eltwise_param {
    operation: PROD
  }
}
layer {
  name: "conv1-dsn2"
  type: "Convolution"
  bottom: "prod1-dsn2"
  top: "conv1-dsn2"
  param {
    lr_mult: 1
    decay_mult: 1
  }
  param {
    lr_mult: 2
    decay_mult: 0
  }
  convolution_param {
    num_output: 64
    kernel_size: 1
    weight_filler {
      type: "gaussian"
      std: 0.01
    }
    bias_filler {
      type: "constant"
      value: 0
    }
    engine: CUDNN
  }
}
layer {
  name: "conv2-dsn2"
  type: "Convolution"
  bottom: "conv1-dsn2"
  top: "conv2-dsn2"
  param {
    lr_mult: 1
    decay_mult: 1
  }
  param {
    lr_mult: 2
    decay_mult: 0
  }
  convolution_param {
    num_output: 64
    pad: 1
    kernel_size: 3
    weight_filler {
      type: "gaussian"
      std: 0.01
    }
    bias_filler {
      type: "constant"
      value: 0
    }
    engine: CUDNN
  }
}
layer {
  name: "relu1-dsn2"
  type: "ReLU"
  bottom: "conv2-dsn2"
  top: "conv2-dsn2"
}
layer {
  name: "conv3-dsn2"
  type: "Convolution"
  bottom: "conv2-dsn2"
  top: "conv3-dsn2"
  param {
    lr_mult: 1
    decay_mult: 1
  }
  param {
    lr_mult: 2
    decay_mult: 0
  }
  convolution_param {
    num_output: 64
    pad: 1
    kernel_size: 3
    weight_filler {
      type: "gaussian"
      std: 0.01
    }
    bias_filler {
      type: "constant"
      value: 0
    }
    engine: CUDNN
  }
}
layer {
  name: "relu2-dsn2"
  type: "ReLU"
  bottom: "conv3-dsn2"
  top: "conv3-dsn2"
}
layer {
  name: "conv4-dsn2"
  type: "Convolution"
  bottom: "conv3-dsn2"
  top: "conv4-dsn2"
  param {
    lr_mult: 1
    decay_mult: 1
  }
  param {
    lr_mult: 2
    decay_mult: 0
  }
  convolution_param {
    num_output: 1
    pad: 1
    kernel_size: 3
    weight_filler {
      type: "gaussian"
      std: 0.01
    }
    bias_filler {
      type: "constant"
      value: 0
    }
    engine: CUDNN
  }
}
layer {
  name: "sum-dsn2"
  type: "Eltwise"
  bottom: "conv4-dsn2"
  bottom: "weight-dsn3-2"
  top: "sum-dsn2"
  eltwise_param {
    operation: SUM
  }
}
layer {
  name: "upsample2_2-dsn2"
  type: "Deconvolution"
  bottom: "sum-dsn2"
  top: "sum-dsn2-up"
  param {
    lr_mult: 0
    decay_mult: 1
  }
  param {
    lr_mult: 0
    decay_mult: 0
  }
  convolution_param {
    num_output: 1
    kernel_size: 4
    stride: 2
  }
}
layer {
  name: "crop2-dsn2"
  type: "Crop"
  bottom: "sum-dsn2-up"
  bottom: "data"
  top: "upscore-dsn2"
}
layer {
  name: "loss2-score"
  type: "SigmoidCrossEntropyLoss"
  bottom: "upscore-dsn2"
  bottom: "label"
  top: "loss2-score"
  loss_weight: 1
}
layer {
  name: "sigmoid-dsn1"
  type: "Sigmoid"
  bottom: "upscore-dsn2"
  top: "sigmoid-dsn1"
}
layer {
  name: "rev-dsn1"
  type: "Power"
  bottom: "sigmoid-dsn1"
  top: "rev-dsn1"
  power_param {
    power: 1
    scale: -1
    shift: 1
  }
}
layer {
  name: "tile-dsn1"
  type: "Tile"
  bottom: "rev-dsn1"
  top: "weight-dsn1"
  tile_param {
    tiles: 64
  }
}
layer {
  name: "prod1-dsn1"
  type: "Eltwise"
  bottom: "conv1_2"
  bottom: "weight-dsn1"
  top: "prod1-dsn1"
  eltwise_param {
    operation: PROD
  }
}
layer {
  name: "conv1-dsn1"
  type: "Convolution"
  bottom: "prod1-dsn1"
  top: "conv1-dsn1"
  param {
    lr_mult: 1
    decay_mult: 1
  }
  param {
    lr_mult: 2
    decay_mult: 0
  }
  convolution_param {
    num_output: 64
    kernel_size: 1
    weight_filler {
      type: "gaussian"
      std: 0.01
    }
    bias_filler {
      type: "constant"
      value: 0
    }
    engine: CUDNN
  }
}
layer {
  name: "conv2-dsn1"
  type: "Convolution"
  bottom: "conv1-dsn1"
  top: "conv2-dsn1"
  param {
    lr_mult: 1
    decay_mult: 1
  }
  param {
    lr_mult: 2
    decay_mult: 0
  }
  convolution_param {
    num_output: 64
    pad: 1
    kernel_size: 3
    weight_filler {
      type: "gaussian"
      std: 0.01
    }
    bias_filler {
      type: "constant"
      value: 0
    }
    engine: CUDNN
  }
}
layer {
  name: "relu1-dsn1"
  type: "ReLU"
  bottom: "conv2-dsn1"
  top: "conv2-dsn1"
}
layer {
  name: "conv3-dsn1"
  type: "Convolution"
  bottom: "conv2-dsn1"
  top: "conv3-dsn1"
  param {
    lr_mult: 1
    decay_mult: 1
  }
  param {
    lr_mult: 2
    decay_mult: 0
  }
  convolution_param {
    num_output: 64
    pad: 1
    kernel_size: 3
    weight_filler {
      type: "gaussian"
      std: 0.01
    }
    bias_filler {
      type: "constant"
      value: 0
    }
    engine: CUDNN
  }
}
layer {
  name: "relu2-dsn1"
  type: "ReLU"
  bottom: "conv3-dsn1"
  top: "conv3-dsn1"
}
layer {
  name: "conv4-dsn1"
  type: "Convolution"
  bottom: "conv3-dsn1"
  top: "conv4-dsn1"
  param {
    lr_mult: 1
    decay_mult: 1
  }
  param {
    lr_mult: 2
    decay_mult: 0
  }
  convolution_param {
    num_output: 1
    pad: 1
    kernel_size: 3
    weight_filler {
      type: "gaussian"
      std: 0.01
    }
    bias_filler {
      type: "constant"
      value: 0
    }
    engine: CUDNN
  }
}
layer {
  name: "sum-dsn1"
  type: "Eltwise"
  bottom: "conv4-dsn1"
  bottom: "upscore-dsn2"
  top: "sum-dsn1"
  eltwise_param {
    operation: SUM
  }
}
layer {
  name: "crop2-dsn1"
  type: "Crop"
  bottom: "sum-dsn1"
  bottom: "data"
  top: "upscore-dsn1"
}
layer {
  name: "loss1-score"
  type: "SigmoidCrossEntropyLoss"
  bottom: "upscore-dsn1"
  bottom: "label"
  top: "loss1-score"
  loss_weight: 1
}
I1118 18:14:49.747292  2573 layer_factory.hpp:77] Creating layer data
I1118 18:14:49.747308  2573 net.cpp:100] Creating Layer data
I1118 18:14:49.747313  2573 net.cpp:408] data -> data
I1118 18:14:49.747318  2573 net.cpp:408] data -> label
I1118 18:14:49.747326  2573 image_labelmap_data_layer.cpp:41] Opening file /media/compute/homes/galberding/FleckDetect/Datasets/FleckDataSet/val/image_to_label_map.txt
I1118 18:14:49.748656  2573 image_labelmap_data_layer.cpp:56] A total of 54 images.
I1118 18:14:49.793982  2573 image_labelmap_data_layer.cpp:110] output data size: 1,3,500,500
I1118 18:14:49.793994  2573 image_labelmap_data_layer.cpp:113] output label size: 1,1,500,500
I1118 18:14:49.801556  2573 net.cpp:150] Setting up data
I1118 18:14:49.801573  2573 net.cpp:157] Top shape: 1 3 500 500 (750000)
I1118 18:14:49.801578  2573 net.cpp:157] Top shape: 1 1 500 500 (250000)
I1118 18:14:49.801579  2573 net.cpp:165] Memory required for data: 4000000
I1118 18:14:49.801586  2573 layer_factory.hpp:77] Creating layer data_data_0_split
I1118 18:14:49.801599  2573 net.cpp:100] Creating Layer data_data_0_split
I1118 18:14:49.801601  2573 net.cpp:434] data_data_0_split <- data
I1118 18:14:49.801609  2573 net.cpp:408] data_data_0_split -> data_data_0_split_0
I1118 18:14:49.801618  2573 net.cpp:408] data_data_0_split -> data_data_0_split_1
I1118 18:14:49.801623  2573 net.cpp:408] data_data_0_split -> data_data_0_split_2
I1118 18:14:49.801628  2573 net.cpp:408] data_data_0_split -> data_data_0_split_3
I1118 18:14:49.801632  2573 net.cpp:408] data_data_0_split -> data_data_0_split_4
I1118 18:14:49.801637  2573 net.cpp:408] data_data_0_split -> data_data_0_split_5
I1118 18:14:49.801641  2573 net.cpp:408] data_data_0_split -> data_data_0_split_6
I1118 18:14:49.801735  2573 net.cpp:150] Setting up data_data_0_split
I1118 18:14:49.801741  2573 net.cpp:157] Top shape: 1 3 500 500 (750000)
I1118 18:14:49.801744  2573 net.cpp:157] Top shape: 1 3 500 500 (750000)
I1118 18:14:49.801748  2573 net.cpp:157] Top shape: 1 3 500 500 (750000)
I1118 18:14:49.801751  2573 net.cpp:157] Top shape: 1 3 500 500 (750000)
I1118 18:14:49.801754  2573 net.cpp:157] Top shape: 1 3 500 500 (750000)
I1118 18:14:49.801756  2573 net.cpp:157] Top shape: 1 3 500 500 (750000)
I1118 18:14:49.801759  2573 net.cpp:157] Top shape: 1 3 500 500 (750000)
I1118 18:14:49.801761  2573 net.cpp:165] Memory required for data: 25000000
I1118 18:14:49.801764  2573 layer_factory.hpp:77] Creating layer label_data_1_split
I1118 18:14:49.801769  2573 net.cpp:100] Creating Layer label_data_1_split
I1118 18:14:49.801771  2573 net.cpp:434] label_data_1_split <- label
I1118 18:14:49.801775  2573 net.cpp:408] label_data_1_split -> label_data_1_split_0
I1118 18:14:49.801779  2573 net.cpp:408] label_data_1_split -> label_data_1_split_1
I1118 18:14:49.801784  2573 net.cpp:408] label_data_1_split -> label_data_1_split_2
I1118 18:14:49.801787  2573 net.cpp:408] label_data_1_split -> label_data_1_split_3
I1118 18:14:49.801791  2573 net.cpp:408] label_data_1_split -> label_data_1_split_4
I1118 18:14:49.801795  2573 net.cpp:408] label_data_1_split -> label_data_1_split_5
I1118 18:14:49.801870  2573 net.cpp:150] Setting up label_data_1_split
I1118 18:14:49.801875  2573 net.cpp:157] Top shape: 1 1 500 500 (250000)
I1118 18:14:49.801877  2573 net.cpp:157] Top shape: 1 1 500 500 (250000)
I1118 18:14:49.801880  2573 net.cpp:157] Top shape: 1 1 500 500 (250000)
I1118 18:14:49.801883  2573 net.cpp:157] Top shape: 1 1 500 500 (250000)
I1118 18:14:49.801887  2573 net.cpp:157] Top shape: 1 1 500 500 (250000)
I1118 18:14:49.801888  2573 net.cpp:157] Top shape: 1 1 500 500 (250000)
I1118 18:14:49.801890  2573 net.cpp:165] Memory required for data: 31000000
I1118 18:14:49.801892  2573 layer_factory.hpp:77] Creating layer conv1_1
I1118 18:14:49.801901  2573 net.cpp:100] Creating Layer conv1_1
I1118 18:14:49.801903  2573 net.cpp:434] conv1_1 <- data_data_0_split_0
I1118 18:14:49.801908  2573 net.cpp:408] conv1_1 -> conv1_1
I1118 18:14:49.802860  2573 net.cpp:150] Setting up conv1_1
I1118 18:14:49.802870  2573 net.cpp:157] Top shape: 1 64 500 500 (16000000)
I1118 18:14:49.802872  2573 net.cpp:165] Memory required for data: 95000000
I1118 18:14:49.802882  2573 layer_factory.hpp:77] Creating layer relu1_1
I1118 18:14:49.802888  2573 net.cpp:100] Creating Layer relu1_1
I1118 18:14:49.802891  2573 net.cpp:434] relu1_1 <- conv1_1
I1118 18:14:49.802894  2573 net.cpp:395] relu1_1 -> conv1_1 (in-place)
I1118 18:14:49.803040  2573 net.cpp:150] Setting up relu1_1
I1118 18:14:49.803050  2573 net.cpp:157] Top shape: 1 64 500 500 (16000000)
I1118 18:14:49.803051  2573 net.cpp:165] Memory required for data: 159000000
I1118 18:14:49.803054  2573 layer_factory.hpp:77] Creating layer conv1_2
I1118 18:14:49.803061  2573 net.cpp:100] Creating Layer conv1_2
I1118 18:14:49.803063  2573 net.cpp:434] conv1_2 <- conv1_1
I1118 18:14:49.803067  2573 net.cpp:408] conv1_2 -> conv1_2
I1118 18:14:49.804527  2573 net.cpp:150] Setting up conv1_2
I1118 18:14:49.804538  2573 net.cpp:157] Top shape: 1 64 500 500 (16000000)
I1118 18:14:49.804541  2573 net.cpp:165] Memory required for data: 223000000
I1118 18:14:49.804548  2573 layer_factory.hpp:77] Creating layer relu1_2
I1118 18:14:49.804553  2573 net.cpp:100] Creating Layer relu1_2
I1118 18:14:49.804554  2573 net.cpp:434] relu1_2 <- conv1_2
I1118 18:14:49.804558  2573 net.cpp:395] relu1_2 -> conv1_2 (in-place)
I1118 18:14:49.804621  2573 net.cpp:150] Setting up relu1_2
I1118 18:14:49.804627  2573 net.cpp:157] Top shape: 1 64 500 500 (16000000)
I1118 18:14:49.804630  2573 net.cpp:165] Memory required for data: 287000000
I1118 18:14:49.804632  2573 layer_factory.hpp:77] Creating layer conv1_2_relu1_2_0_split
I1118 18:14:49.804636  2573 net.cpp:100] Creating Layer conv1_2_relu1_2_0_split
I1118 18:14:49.804638  2573 net.cpp:434] conv1_2_relu1_2_0_split <- conv1_2
I1118 18:14:49.804642  2573 net.cpp:408] conv1_2_relu1_2_0_split -> conv1_2_relu1_2_0_split_0
I1118 18:14:49.804647  2573 net.cpp:408] conv1_2_relu1_2_0_split -> conv1_2_relu1_2_0_split_1
I1118 18:14:49.804677  2573 net.cpp:150] Setting up conv1_2_relu1_2_0_split
I1118 18:14:49.804682  2573 net.cpp:157] Top shape: 1 64 500 500 (16000000)
I1118 18:14:49.804684  2573 net.cpp:157] Top shape: 1 64 500 500 (16000000)
I1118 18:14:49.804687  2573 net.cpp:165] Memory required for data: 415000000
I1118 18:14:49.804688  2573 layer_factory.hpp:77] Creating layer pool1
I1118 18:14:49.804695  2573 net.cpp:100] Creating Layer pool1
I1118 18:14:49.804697  2573 net.cpp:434] pool1 <- conv1_2_relu1_2_0_split_0
I1118 18:14:49.804702  2573 net.cpp:408] pool1 -> pool1
I1118 18:14:49.804728  2573 net.cpp:150] Setting up pool1
I1118 18:14:49.804733  2573 net.cpp:157] Top shape: 1 64 250 250 (4000000)
I1118 18:14:49.804734  2573 net.cpp:165] Memory required for data: 431000000
I1118 18:14:49.804738  2573 layer_factory.hpp:77] Creating layer conv2_1
I1118 18:14:49.804742  2573 net.cpp:100] Creating Layer conv2_1
I1118 18:14:49.804744  2573 net.cpp:434] conv2_1 <- pool1
I1118 18:14:49.804749  2573 net.cpp:408] conv2_1 -> conv2_1
I1118 18:14:49.805408  2573 net.cpp:150] Setting up conv2_1
I1118 18:14:49.805419  2573 net.cpp:157] Top shape: 1 128 250 250 (8000000)
I1118 18:14:49.805423  2573 net.cpp:165] Memory required for data: 463000000
I1118 18:14:49.805429  2573 layer_factory.hpp:77] Creating layer relu2_1
I1118 18:14:49.805435  2573 net.cpp:100] Creating Layer relu2_1
I1118 18:14:49.805438  2573 net.cpp:434] relu2_1 <- conv2_1
I1118 18:14:49.805442  2573 net.cpp:395] relu2_1 -> conv2_1 (in-place)
I1118 18:14:49.805505  2573 net.cpp:150] Setting up relu2_1
I1118 18:14:49.805511  2573 net.cpp:157] Top shape: 1 128 250 250 (8000000)
I1118 18:14:49.805512  2573 net.cpp:165] Memory required for data: 495000000
I1118 18:14:49.805516  2573 layer_factory.hpp:77] Creating layer conv2_2
I1118 18:14:49.805521  2573 net.cpp:100] Creating Layer conv2_2
I1118 18:14:49.805523  2573 net.cpp:434] conv2_2 <- conv2_1
I1118 18:14:49.805527  2573 net.cpp:408] conv2_2 -> conv2_2
I1118 18:14:49.808159  2573 net.cpp:150] Setting up conv2_2
I1118 18:14:49.808172  2573 net.cpp:157] Top shape: 1 128 250 250 (8000000)
I1118 18:14:49.808174  2573 net.cpp:165] Memory required for data: 527000000
I1118 18:14:49.808181  2573 layer_factory.hpp:77] Creating layer relu2_2
I1118 18:14:49.808185  2573 net.cpp:100] Creating Layer relu2_2
I1118 18:14:49.808187  2573 net.cpp:434] relu2_2 <- conv2_2
I1118 18:14:49.808193  2573 net.cpp:395] relu2_2 -> conv2_2 (in-place)
I1118 18:14:49.808254  2573 net.cpp:150] Setting up relu2_2
I1118 18:14:49.808260  2573 net.cpp:157] Top shape: 1 128 250 250 (8000000)
I1118 18:14:49.808262  2573 net.cpp:165] Memory required for data: 559000000
I1118 18:14:49.808264  2573 layer_factory.hpp:77] Creating layer conv2_2_relu2_2_0_split
I1118 18:14:49.808269  2573 net.cpp:100] Creating Layer conv2_2_relu2_2_0_split
I1118 18:14:49.808271  2573 net.cpp:434] conv2_2_relu2_2_0_split <- conv2_2
I1118 18:14:49.808277  2573 net.cpp:408] conv2_2_relu2_2_0_split -> conv2_2_relu2_2_0_split_0
I1118 18:14:49.808282  2573 net.cpp:408] conv2_2_relu2_2_0_split -> conv2_2_relu2_2_0_split_1
I1118 18:14:49.808286  2573 net.cpp:408] conv2_2_relu2_2_0_split -> conv2_2_relu2_2_0_split_2
I1118 18:14:49.808336  2573 net.cpp:150] Setting up conv2_2_relu2_2_0_split
I1118 18:14:49.808342  2573 net.cpp:157] Top shape: 1 128 250 250 (8000000)
I1118 18:14:49.808346  2573 net.cpp:157] Top shape: 1 128 250 250 (8000000)
I1118 18:14:49.808347  2573 net.cpp:157] Top shape: 1 128 250 250 (8000000)
I1118 18:14:49.808349  2573 net.cpp:165] Memory required for data: 655000000
I1118 18:14:49.808351  2573 layer_factory.hpp:77] Creating layer pool2
I1118 18:14:49.808357  2573 net.cpp:100] Creating Layer pool2
I1118 18:14:49.808359  2573 net.cpp:434] pool2 <- conv2_2_relu2_2_0_split_0
I1118 18:14:49.808364  2573 net.cpp:408] pool2 -> pool2
I1118 18:14:49.808392  2573 net.cpp:150] Setting up pool2
I1118 18:14:49.808396  2573 net.cpp:157] Top shape: 1 128 125 125 (2000000)
I1118 18:14:49.808399  2573 net.cpp:165] Memory required for data: 663000000
I1118 18:14:49.808400  2573 layer_factory.hpp:77] Creating layer conv3_1
I1118 18:14:49.808408  2573 net.cpp:100] Creating Layer conv3_1
I1118 18:14:49.808409  2573 net.cpp:434] conv3_1 <- pool2
I1118 18:14:49.808414  2573 net.cpp:408] conv3_1 -> conv3_1
I1118 18:14:49.809540  2573 net.cpp:150] Setting up conv3_1
I1118 18:14:49.809551  2573 net.cpp:157] Top shape: 1 256 125 125 (4000000)
I1118 18:14:49.809554  2573 net.cpp:165] Memory required for data: 679000000
I1118 18:14:49.809562  2573 layer_factory.hpp:77] Creating layer relu3_1
I1118 18:14:49.809569  2573 net.cpp:100] Creating Layer relu3_1
I1118 18:14:49.809572  2573 net.cpp:434] relu3_1 <- conv3_1
I1118 18:14:49.809576  2573 net.cpp:395] relu3_1 -> conv3_1 (in-place)
I1118 18:14:49.809716  2573 net.cpp:150] Setting up relu3_1
I1118 18:14:49.809725  2573 net.cpp:157] Top shape: 1 256 125 125 (4000000)
I1118 18:14:49.809726  2573 net.cpp:165] Memory required for data: 695000000
I1118 18:14:49.809729  2573 layer_factory.hpp:77] Creating layer conv3_2
I1118 18:14:49.809736  2573 net.cpp:100] Creating Layer conv3_2
I1118 18:14:49.809738  2573 net.cpp:434] conv3_2 <- conv3_1
I1118 18:14:49.809744  2573 net.cpp:408] conv3_2 -> conv3_2
I1118 18:14:49.811450  2573 net.cpp:150] Setting up conv3_2
I1118 18:14:49.811461  2573 net.cpp:157] Top shape: 1 256 125 125 (4000000)
I1118 18:14:49.811463  2573 net.cpp:165] Memory required for data: 711000000
I1118 18:14:49.811468  2573 layer_factory.hpp:77] Creating layer relu3_2
I1118 18:14:49.811475  2573 net.cpp:100] Creating Layer relu3_2
I1118 18:14:49.811477  2573 net.cpp:434] relu3_2 <- conv3_2
I1118 18:14:49.811482  2573 net.cpp:395] relu3_2 -> conv3_2 (in-place)
I1118 18:14:49.811620  2573 net.cpp:150] Setting up relu3_2
I1118 18:14:49.811630  2573 net.cpp:157] Top shape: 1 256 125 125 (4000000)
I1118 18:14:49.811631  2573 net.cpp:165] Memory required for data: 727000000
I1118 18:14:49.811633  2573 layer_factory.hpp:77] Creating layer conv3_3
I1118 18:14:49.811640  2573 net.cpp:100] Creating Layer conv3_3
I1118 18:14:49.811643  2573 net.cpp:434] conv3_3 <- conv3_2
I1118 18:14:49.811648  2573 net.cpp:408] conv3_3 -> conv3_3
I1118 18:14:49.813349  2573 net.cpp:150] Setting up conv3_3
I1118 18:14:49.813359  2573 net.cpp:157] Top shape: 1 256 125 125 (4000000)
I1118 18:14:49.813361  2573 net.cpp:165] Memory required for data: 743000000
I1118 18:14:49.813366  2573 layer_factory.hpp:77] Creating layer relu3_3
I1118 18:14:49.813371  2573 net.cpp:100] Creating Layer relu3_3
I1118 18:14:49.813374  2573 net.cpp:434] relu3_3 <- conv3_3
I1118 18:14:49.813380  2573 net.cpp:395] relu3_3 -> conv3_3 (in-place)
I1118 18:14:49.813518  2573 net.cpp:150] Setting up relu3_3
I1118 18:14:49.813525  2573 net.cpp:157] Top shape: 1 256 125 125 (4000000)
I1118 18:14:49.813527  2573 net.cpp:165] Memory required for data: 759000000
I1118 18:14:49.813531  2573 layer_factory.hpp:77] Creating layer conv3_3_relu3_3_0_split
I1118 18:14:49.813536  2573 net.cpp:100] Creating Layer conv3_3_relu3_3_0_split
I1118 18:14:49.813539  2573 net.cpp:434] conv3_3_relu3_3_0_split <- conv3_3
I1118 18:14:49.813544  2573 net.cpp:408] conv3_3_relu3_3_0_split -> conv3_3_relu3_3_0_split_0
I1118 18:14:49.813550  2573 net.cpp:408] conv3_3_relu3_3_0_split -> conv3_3_relu3_3_0_split_1
I1118 18:14:49.813555  2573 net.cpp:408] conv3_3_relu3_3_0_split -> conv3_3_relu3_3_0_split_2
I1118 18:14:49.813593  2573 net.cpp:150] Setting up conv3_3_relu3_3_0_split
I1118 18:14:49.813598  2573 net.cpp:157] Top shape: 1 256 125 125 (4000000)
I1118 18:14:49.813601  2573 net.cpp:157] Top shape: 1 256 125 125 (4000000)
I1118 18:14:49.813604  2573 net.cpp:157] Top shape: 1 256 125 125 (4000000)
I1118 18:14:49.813606  2573 net.cpp:165] Memory required for data: 807000000
I1118 18:14:49.813607  2573 layer_factory.hpp:77] Creating layer pool3
I1118 18:14:49.813612  2573 net.cpp:100] Creating Layer pool3
I1118 18:14:49.813616  2573 net.cpp:434] pool3 <- conv3_3_relu3_3_0_split_0
I1118 18:14:49.813619  2573 net.cpp:408] pool3 -> pool3
I1118 18:14:49.813647  2573 net.cpp:150] Setting up pool3
I1118 18:14:49.813653  2573 net.cpp:157] Top shape: 1 256 63 63 (1016064)
I1118 18:14:49.813655  2573 net.cpp:165] Memory required for data: 811064256
I1118 18:14:49.813657  2573 layer_factory.hpp:77] Creating layer conv4_1
I1118 18:14:49.813663  2573 net.cpp:100] Creating Layer conv4_1
I1118 18:14:49.813665  2573 net.cpp:434] conv4_1 <- pool3
I1118 18:14:49.813670  2573 net.cpp:408] conv4_1 -> conv4_1
I1118 18:14:49.818250  2573 net.cpp:150] Setting up conv4_1
I1118 18:14:49.818261  2573 net.cpp:157] Top shape: 1 512 63 63 (2032128)
I1118 18:14:49.818264  2573 net.cpp:165] Memory required for data: 819192768
I1118 18:14:49.818269  2573 layer_factory.hpp:77] Creating layer relu4_1
I1118 18:14:49.818274  2573 net.cpp:100] Creating Layer relu4_1
I1118 18:14:49.818276  2573 net.cpp:434] relu4_1 <- conv4_1
I1118 18:14:49.818280  2573 net.cpp:395] relu4_1 -> conv4_1 (in-place)
I1118 18:14:49.818346  2573 net.cpp:150] Setting up relu4_1
I1118 18:14:49.818351  2573 net.cpp:157] Top shape: 1 512 63 63 (2032128)
I1118 18:14:49.818352  2573 net.cpp:165] Memory required for data: 827321280
I1118 18:14:49.818356  2573 layer_factory.hpp:77] Creating layer conv4_2
I1118 18:14:49.818362  2573 net.cpp:100] Creating Layer conv4_2
I1118 18:14:49.818364  2573 net.cpp:434] conv4_2 <- conv4_1
I1118 18:14:49.818369  2573 net.cpp:408] conv4_2 -> conv4_2
I1118 18:14:49.824257  2573 net.cpp:150] Setting up conv4_2
I1118 18:14:49.824270  2573 net.cpp:157] Top shape: 1 512 63 63 (2032128)
I1118 18:14:49.824273  2573 net.cpp:165] Memory required for data: 835449792
I1118 18:14:49.824283  2573 layer_factory.hpp:77] Creating layer relu4_2
I1118 18:14:49.824290  2573 net.cpp:100] Creating Layer relu4_2
I1118 18:14:49.824292  2573 net.cpp:434] relu4_2 <- conv4_2
I1118 18:14:49.824297  2573 net.cpp:395] relu4_2 -> conv4_2 (in-place)
I1118 18:14:49.824370  2573 net.cpp:150] Setting up relu4_2
I1118 18:14:49.824385  2573 net.cpp:157] Top shape: 1 512 63 63 (2032128)
I1118 18:14:49.824388  2573 net.cpp:165] Memory required for data: 843578304
I1118 18:14:49.824390  2573 layer_factory.hpp:77] Creating layer conv4_3
I1118 18:14:49.824396  2573 net.cpp:100] Creating Layer conv4_3
I1118 18:14:49.824398  2573 net.cpp:434] conv4_3 <- conv4_2
I1118 18:14:49.824404  2573 net.cpp:408] conv4_3 -> conv4_3
I1118 18:14:49.829386  2573 net.cpp:150] Setting up conv4_3
I1118 18:14:49.829397  2573 net.cpp:157] Top shape: 1 512 63 63 (2032128)
I1118 18:14:49.829401  2573 net.cpp:165] Memory required for data: 851706816
I1118 18:14:49.829406  2573 layer_factory.hpp:77] Creating layer relu4_3
I1118 18:14:49.829411  2573 net.cpp:100] Creating Layer relu4_3
I1118 18:14:49.829413  2573 net.cpp:434] relu4_3 <- conv4_3
I1118 18:14:49.829417  2573 net.cpp:395] relu4_3 -> conv4_3 (in-place)
I1118 18:14:49.829569  2573 net.cpp:150] Setting up relu4_3
I1118 18:14:49.829578  2573 net.cpp:157] Top shape: 1 512 63 63 (2032128)
I1118 18:14:49.829581  2573 net.cpp:165] Memory required for data: 859835328
I1118 18:14:49.829584  2573 layer_factory.hpp:77] Creating layer conv4_3_relu4_3_0_split
I1118 18:14:49.829589  2573 net.cpp:100] Creating Layer conv4_3_relu4_3_0_split
I1118 18:14:49.829592  2573 net.cpp:434] conv4_3_relu4_3_0_split <- conv4_3
I1118 18:14:49.829597  2573 net.cpp:408] conv4_3_relu4_3_0_split -> conv4_3_relu4_3_0_split_0
I1118 18:14:49.829604  2573 net.cpp:408] conv4_3_relu4_3_0_split -> conv4_3_relu4_3_0_split_1
I1118 18:14:49.829609  2573 net.cpp:408] conv4_3_relu4_3_0_split -> conv4_3_relu4_3_0_split_2
I1118 18:14:49.829654  2573 net.cpp:150] Setting up conv4_3_relu4_3_0_split
I1118 18:14:49.829659  2573 net.cpp:157] Top shape: 1 512 63 63 (2032128)
I1118 18:14:49.829663  2573 net.cpp:157] Top shape: 1 512 63 63 (2032128)
I1118 18:14:49.829665  2573 net.cpp:157] Top shape: 1 512 63 63 (2032128)
I1118 18:14:49.829666  2573 net.cpp:165] Memory required for data: 884220864
I1118 18:14:49.829668  2573 layer_factory.hpp:77] Creating layer pool4
I1118 18:14:49.829674  2573 net.cpp:100] Creating Layer pool4
I1118 18:14:49.829677  2573 net.cpp:434] pool4 <- conv4_3_relu4_3_0_split_0
I1118 18:14:49.829681  2573 net.cpp:408] pool4 -> pool4
I1118 18:14:49.829725  2573 net.cpp:150] Setting up pool4
I1118 18:14:49.829730  2573 net.cpp:157] Top shape: 1 512 32 32 (524288)
I1118 18:14:49.829731  2573 net.cpp:165] Memory required for data: 886318016
I1118 18:14:49.829733  2573 layer_factory.hpp:77] Creating layer conv5_1
I1118 18:14:49.829740  2573 net.cpp:100] Creating Layer conv5_1
I1118 18:14:49.829741  2573 net.cpp:434] conv5_1 <- pool4
I1118 18:14:49.829746  2573 net.cpp:408] conv5_1 -> conv5_1
I1118 18:14:49.834674  2573 net.cpp:150] Setting up conv5_1
I1118 18:14:49.834686  2573 net.cpp:157] Top shape: 1 512 32 32 (524288)
I1118 18:14:49.834688  2573 net.cpp:165] Memory required for data: 888415168
I1118 18:14:49.834694  2573 layer_factory.hpp:77] Creating layer relu5_1
I1118 18:14:49.834703  2573 net.cpp:100] Creating Layer relu5_1
I1118 18:14:49.834707  2573 net.cpp:434] relu5_1 <- conv5_1
I1118 18:14:49.834712  2573 net.cpp:395] relu5_1 -> conv5_1 (in-place)
I1118 18:14:49.836057  2573 net.cpp:150] Setting up relu5_1
I1118 18:14:49.836067  2573 net.cpp:157] Top shape: 1 512 32 32 (524288)
I1118 18:14:49.836069  2573 net.cpp:165] Memory required for data: 890512320
I1118 18:14:49.836072  2573 layer_factory.hpp:77] Creating layer conv5_2
I1118 18:14:49.836079  2573 net.cpp:100] Creating Layer conv5_2
I1118 18:14:49.836082  2573 net.cpp:434] conv5_2 <- conv5_1
I1118 18:14:49.836087  2573 net.cpp:408] conv5_2 -> conv5_2
I1118 18:14:49.841017  2573 net.cpp:150] Setting up conv5_2
I1118 18:14:49.841028  2573 net.cpp:157] Top shape: 1 512 32 32 (524288)
I1118 18:14:49.841030  2573 net.cpp:165] Memory required for data: 892609472
I1118 18:14:49.841035  2573 layer_factory.hpp:77] Creating layer relu5_2
I1118 18:14:49.841042  2573 net.cpp:100] Creating Layer relu5_2
I1118 18:14:49.841043  2573 net.cpp:434] relu5_2 <- conv5_2
I1118 18:14:49.841048  2573 net.cpp:395] relu5_2 -> conv5_2 (in-place)
I1118 18:14:49.841195  2573 net.cpp:150] Setting up relu5_2
I1118 18:14:49.841205  2573 net.cpp:157] Top shape: 1 512 32 32 (524288)
I1118 18:14:49.841207  2573 net.cpp:165] Memory required for data: 894706624
I1118 18:14:49.841209  2573 layer_factory.hpp:77] Creating layer conv5_3
I1118 18:14:49.841217  2573 net.cpp:100] Creating Layer conv5_3
I1118 18:14:49.841219  2573 net.cpp:434] conv5_3 <- conv5_2
I1118 18:14:49.841225  2573 net.cpp:408] conv5_3 -> conv5_3
I1118 18:14:49.846274  2573 net.cpp:150] Setting up conv5_3
I1118 18:14:49.846285  2573 net.cpp:157] Top shape: 1 512 32 32 (524288)
I1118 18:14:49.846288  2573 net.cpp:165] Memory required for data: 896803776
I1118 18:14:49.846293  2573 layer_factory.hpp:77] Creating layer relu5_3
I1118 18:14:49.846298  2573 net.cpp:100] Creating Layer relu5_3
I1118 18:14:49.846305  2573 net.cpp:434] relu5_3 <- conv5_3
I1118 18:14:49.846310  2573 net.cpp:395] relu5_3 -> conv5_3 (in-place)
I1118 18:14:49.846375  2573 net.cpp:150] Setting up relu5_3
I1118 18:14:49.846381  2573 net.cpp:157] Top shape: 1 512 32 32 (524288)
I1118 18:14:49.846383  2573 net.cpp:165] Memory required for data: 898900928
I1118 18:14:49.846386  2573 layer_factory.hpp:77] Creating layer conv5_3_relu5_3_0_split
I1118 18:14:49.846391  2573 net.cpp:100] Creating Layer conv5_3_relu5_3_0_split
I1118 18:14:49.846393  2573 net.cpp:434] conv5_3_relu5_3_0_split <- conv5_3
I1118 18:14:49.846398  2573 net.cpp:408] conv5_3_relu5_3_0_split -> conv5_3_relu5_3_0_split_0
I1118 18:14:49.846405  2573 net.cpp:408] conv5_3_relu5_3_0_split -> conv5_3_relu5_3_0_split_1
I1118 18:14:49.846408  2573 net.cpp:408] conv5_3_relu5_3_0_split -> conv5_3_relu5_3_0_split_2
I1118 18:14:49.846441  2573 net.cpp:150] Setting up conv5_3_relu5_3_0_split
I1118 18:14:49.846446  2573 net.cpp:157] Top shape: 1 512 32 32 (524288)
I1118 18:14:49.846449  2573 net.cpp:157] Top shape: 1 512 32 32 (524288)
I1118 18:14:49.846451  2573 net.cpp:157] Top shape: 1 512 32 32 (524288)
I1118 18:14:49.846453  2573 net.cpp:165] Memory required for data: 905192384
I1118 18:14:49.846455  2573 layer_factory.hpp:77] Creating layer pool5
I1118 18:14:49.846462  2573 net.cpp:100] Creating Layer pool5
I1118 18:14:49.846463  2573 net.cpp:434] pool5 <- conv5_3_relu5_3_0_split_0
I1118 18:14:49.846468  2573 net.cpp:408] pool5 -> pool5
I1118 18:14:49.846495  2573 net.cpp:150] Setting up pool5
…
I1118 18:14:49.896673  2573 net.cpp:165] Memory required for data: 907559872
I1118 18:14:49.896685  2573 layer_factory.hpp:77] Creating layer relu3-dsn6
I1118 18:14:49.896690  2573 net.cpp:100] Creating Layer relu3-dsn6
I1118 18:14:49.896693  2573 net.cpp:434] relu3-dsn6 <- conv4-dsn6
I1118 18:14:49.896698  2573 net.cpp:395] relu3-dsn6 -> conv4-dsn6 (in-place)
I1118 18:14:49.896759  2573 net.cpp:150] Setting up relu3-dsn6
I1118 18:14:49.896765  2573 net.cpp:157] Top shape: 1 256 17 17 (73984)
I1118 18:14:49.896767  2573 net.cpp:165] Memory required for data: 907855808
I1118 18:14:49.896770  2573 layer_factory.hpp:77] Creating layer conv5-dsn6
I1118 18:14:49.896776  2573 net.cpp:100] Creating Layer conv5-dsn6
I1118 18:14:49.896780  2573 net.cpp:434] conv5-dsn6 <- conv4-dsn6
I1118 18:14:49.896785  2573 net.cpp:408] conv5-dsn6 -> conv5-dsn6
I1118 18:14:49.897281  2573 net.cpp:150] Setting up conv5-dsn6
I1118 18:14:49.897292  2573 net.cpp:157] Top shape: 1 1 17 17 (289)
I1118 18:14:49.897294  2573 net.cpp:165] Memory required for data: 907856964
I1118 18:14:49.897303  2573 layer_factory.hpp:77] Creating layer conv5-dsn6_conv5-dsn6_0_split
I1118 18:14:49.897310  2573 net.cpp:100] Creating Layer conv5-dsn6_conv5-dsn6_0_split
I1118 18:14:49.897312  2573 net.cpp:434] conv5-dsn6_conv5-dsn6_0_split <- conv5-dsn6
I1118 18:14:49.897317  2573 net.cpp:408] conv5-dsn6_conv5-dsn6_0_split -> conv5-dsn6_conv5-dsn6_0_split_0
I1118 18:14:49.897323  2573 net.cpp:408] conv5-dsn6_conv5-dsn6_0_split -> conv5-dsn6_conv5-dsn6_0_split_1
I1118 18:14:49.897353  2573 net.cpp:150] Setting up conv5-dsn6_conv5-dsn6_0_split
I1118 18:14:49.897357  2573 net.cpp:157] Top shape: 1 1 17 17 (289)
I1118 18:14:49.897359  2573 net.cpp:157] Top shape: 1 1 17 17 (289)
I1118 18:14:49.897361  2573 net.cpp:165] Memory required for data: 907859276
I1118 18:14:49.897363  2573 layer_factory.hpp:77] Creating layer upsample32_dsn6
I1118 18:14:49.897369  2573 net.cpp:100] Creating Layer upsample32_dsn6
I1118 18:14:49.897373  2573 net.cpp:434] upsample32_dsn6 <- conv5-dsn6_conv5-dsn6_0_split_0
I1118 18:14:49.897378  2573 net.cpp:408] upsample32_dsn6 -> conv5-dsn6-up
I1118 18:14:49.897838  2573 net.cpp:150] Setting up upsample32_dsn6
I1118 18:14:49.897845  2573 net.cpp:157] Top shape: 1 1 576 576 (331776)
I1118 18:14:49.897846  2573 net.cpp:165] Memory required for data: 909186380
I1118 18:14:49.897851  2573 layer_factory.hpp:77] Creating layer crop-dsn6
I1118 18:14:49.897855  2573 net.cpp:100] Creating Layer crop-dsn6
I1118 18:14:49.897858  2573 net.cpp:434] crop-dsn6 <- conv5-dsn6-up
I1118 18:14:49.897861  2573 net.cpp:434] crop-dsn6 <- data_data_0_split_1
I1118 18:14:49.897866  2573 net.cpp:408] crop-dsn6 -> upscore-dsn6
I1118 18:14:49.897886  2573 net.cpp:150] Setting up crop-dsn6
I1118 18:14:49.897891  2573 net.cpp:157] Top shape: 1 1 500 500 (250000)
I1118 18:14:49.897891  2573 net.cpp:165] Memory required for data: 910186380
I1118 18:14:49.897893  2573 layer_factory.hpp:77] Creating layer loss6-score
I1118 18:14:49.897900  2573 net.cpp:100] Creating Layer loss6-score
I1118 18:14:49.897903  2573 net.cpp:434] loss6-score <- upscore-dsn6
I1118 18:14:49.897907  2573 net.cpp:434] loss6-score <- label_data_1_split_0
I1118 18:14:49.897910  2573 net.cpp:408] loss6-score -> loss6-score
I1118 18:14:49.898859  2573 net.cpp:150] Setting up loss6-score
I1118 18:14:49.898869  2573 net.cpp:157] Top shape: (1)
I1118 18:14:49.898870  2573 net.cpp:160]     with loss weight 1
I1118 18:14:49.898882  2573 net.cpp:165] Memory required for data: 910186384
I1118 18:14:49.898885  2573 layer_factory.hpp:77] Creating layer upsample2_dsn5
I1118 18:14:49.898891  2573 net.cpp:100] Creating Layer upsample2_dsn5
I1118 18:14:49.898895  2573 net.cpp:434] upsample2_dsn5 <- conv5-dsn6_conv5-dsn6_0_split_1
I1118 18:14:49.898900  2573 net.cpp:408] upsample2_dsn5 -> conv5-dsn6-5
I1118 18:14:49.899073  2573 net.cpp:150] Setting up upsample2_dsn5
I1118 18:14:49.899080  2573 net.cpp:157] Top shape: 1 1 36 36 (1296)
I1118 18:14:49.899081  2573 net.cpp:165] Memory required for data: 910191568
I1118 18:14:49.899085  2573 layer_factory.hpp:77] Creating layer crop1-dsn5
I1118 18:14:49.899089  2573 net.cpp:100] Creating Layer crop1-dsn5
I1118 18:14:49.899092  2573 net.cpp:434] crop1-dsn5 <- conv5-dsn6-5
I1118 18:14:49.899096  2573 net.cpp:434] crop1-dsn5 <- conv5_3_relu5_3_0_split_1
I1118 18:14:49.899101  2573 net.cpp:408] crop1-dsn5 -> weight-dsn6-5
I1118 18:14:49.899118  2573 net.cpp:150] Setting up crop1-dsn5
I1118 18:14:49.899122  2573 net.cpp:157] Top shape: 1 1 32 32 (1024)
I1118 18:14:49.899123  2573 net.cpp:165] Memory required for data: 910195664
I1118 18:14:49.899125  2573 layer_factory.hpp:77] Creating layer weight-dsn6-5_crop1-dsn5_0_split
I1118 18:14:49.899130  2573 net.cpp:100] Creating Layer weight-dsn6-5_crop1-dsn5_0_split
I1118 18:14:49.899132  2573 net.cpp:434] weight-dsn6-5_crop1-dsn5_0_split <- weight-dsn6-5
I1118 18:14:49.899137  2573 net.cpp:408] weight-dsn6-5_crop1-dsn5_0_split -> weight-dsn6-5_crop1-dsn5_0_split_0
I1118 18:14:49.899142  2573 net.cpp:408] weight-dsn6-5_crop1-dsn5_0_split -> weight-dsn6-5_crop1-dsn5_0_split_1
I1118 18:14:49.899163  2573 net.cpp:150] Setting up weight-dsn6-5_crop1-dsn5_0_split
I1118 18:14:49.899168  2573 net.cpp:157] Top shape: 1 1 32 32 (1024)
I1118 18:14:49.899171  2573 net.cpp:157] Top shape: 1 1 32 32 (1024)
I1118 18:14:49.899173  2573 net.cpp:165] Memory required for data: 910203856
I1118 18:14:49.899175  2573 layer_factory.hpp:77] Creating layer sigmoid-dsn5
I1118 18:14:49.899180  2573 net.cpp:100] Creating Layer sigmoid-dsn5
I1118 18:14:49.899183  2573 net.cpp:434] sigmoid-dsn5 <- weight-dsn6-5_crop1-dsn5_0_split_0
I1118 18:14:49.899186  2573 net.cpp:408] sigmoid-dsn5 -> sigmoid-dsn5
I1118 18:14:49.899361  2573 net.cpp:150] Setting up sigmoid-dsn5
I1118 18:14:49.899370  2573 net.cpp:157] Top shape: 1 1 32 32 (1024)
I1118 18:14:49.899372  2573 net.cpp:165] Memory required for data: 910207952
I1118 18:14:49.899375  2573 layer_factory.hpp:77] Creating layer rev-dsn5
I1118 18:14:49.899381  2573 net.cpp:100] Creating Layer rev-dsn5
I1118 18:14:49.899384  2573 net.cpp:434] rev-dsn5 <- sigmoid-dsn5
I1118 18:14:49.899389  2573 net.cpp:408] rev-dsn5 -> rev-dsn5
I1118 18:14:49.899406  2573 net.cpp:150] Setting up rev-dsn5
I1118 18:14:49.899410  2573 net.cpp:157] Top shape: 1 1 32 32 (1024)
I1118 18:14:49.899411  2573 net.cpp:165] Memory required for data: 910212048
I1118 18:14:49.899415  2573 layer_factory.hpp:77] Creating layer tile-dsn5
I1118 18:14:49.899420  2573 net.cpp:100] Creating Layer tile-dsn5
I1118 18:14:49.899421  2573 net.cpp:434] tile-dsn5 <- rev-dsn5
I1118 18:14:49.899425  2573 net.cpp:408] tile-dsn5 -> weight-dsn5
I1118 18:14:49.899441  2573 net.cpp:150] Setting up tile-dsn5
I1118 18:14:49.899444  2573 net.cpp:157] Top shape: 1 512 32 32 (524288)
I1118 18:14:49.899446  2573 net.cpp:165] Memory required for data: 912309200
I1118 18:14:49.899449  2573 layer_factory.hpp:77] Creating layer prod1-dsn5
I1118 18:14:49.899454  2573 net.cpp:100] Creating Layer prod1-dsn5
I1118 18:14:49.899456  2573 net.cpp:434] prod1-dsn5 <- conv5_3_relu5_3_0_split_2
I1118 18:14:49.899459  2573 net.cpp:434] prod1-dsn5 <- weight-dsn5
I1118 18:14:49.899463  2573 net.cpp:408] prod1-dsn5 -> prod1-dsn5
I1118 18:14:49.899487  2573 net.cpp:150] Setting up prod1-dsn5
I1118 18:14:49.899493  2573 net.cpp:157] Top shape: 1 512 32 32 (524288)
I1118 18:14:49.899495  2573 net.cpp:165] Memory required for data: 914406352
I1118 18:14:49.899497  2573 layer_factory.hpp:77] Creating layer conv1-dsn5
I1118 18:14:49.899505  2573 net.cpp:100] Creating Layer conv1-dsn5
I1118 18:14:49.899508  2573 net.cpp:434] conv1-dsn5 <- prod1-dsn5
I1118 18:14:49.899513  2573 net.cpp:408] conv1-dsn5 -> conv1-dsn5
I1118 18:14:49.901409  2573 net.cpp:150] Setting up conv1-dsn5
I1118 18:14:49.901420  2573 net.cpp:157] Top shape: 1 64 32 32 (65536)
I1118 18:14:49.901422  2573 net.cpp:165] Memory required for data: 914668496
I1118 18:14:49.901427  2573 layer_factory.hpp:77] Creating layer conv2-dsn5
I1118 18:14:49.901435  2573 net.cpp:100] Creating Layer conv2-dsn5
I1118 18:14:49.901437  2573 net.cpp:434] conv2-dsn5 <- conv1-dsn5
I1118 18:14:49.901443  2573 net.cpp:408] conv2-dsn5 -> conv2-dsn5
I1118 18:14:49.902247  2573 net.cpp:150] Setting up conv2-dsn5
I1118 18:14:49.902257  2573 net.cpp:157] Top shape: 1 64 32 32 (65536)
I1118 18:14:49.902259  2573 net.cpp:165] Memory required for data: 914930640
I1118 18:14:49.902264  2573 layer_factory.hpp:77] Creating layer relu1-dsn5
I1118 18:14:49.902269  2573 net.cpp:100] Creating Layer relu1-dsn5
I1118 18:14:49.902271  2573 net.cpp:434] relu1-dsn5 <- conv2-dsn5
I1118 18:14:49.902276  2573 net.cpp:395] relu1-dsn5 -> conv2-dsn5 (in-place)
I1118 18:14:49.902338  2573 net.cpp:150] Setting up relu1-dsn5
I1118 18:14:49.902343  2573 net.cpp:157] Top shape: 1 64 32 32 (65536)
I1118 18:14:49.902344  2573 net.cpp:165] Memory required for data: 915192784
I1118 18:14:49.902346  2573 layer_factory.hpp:77] Creating layer conv3-dsn5
I1118 18:14:49.902354  2573 net.cpp:100] Creating Layer conv3-dsn5
I1118 18:14:49.902356  2573 net.cpp:434] conv3-dsn5 <- conv2-dsn5
I1118 18:14:49.902362  2573 net.cpp:408] conv3-dsn5 -> conv3-dsn5
I1118 18:14:49.903231  2573 net.cpp:150] Setting up conv3-dsn5
I1118 18:14:49.903242  2573 net.cpp:157] Top shape: 1 64 32 32 (65536)
I1118 18:14:49.903244  2573 net.cpp:165] Memory required for data: 915454928
I1118 18:14:49.903249  2573 layer_factory.hpp:77] Creating layer relu2-dsn5
I1118 18:14:49.903254  2573 net.cpp:100] Creating Layer relu2-dsn5
I1118 18:14:49.903256  2573 net.cpp:434] relu2-dsn5 <- conv3-dsn5
I1118 18:14:49.903261  2573 net.cpp:395] relu2-dsn5 -> conv3-dsn5 (in-place)
I1118 18:14:49.903407  2573 net.cpp:150] Setting up relu2-dsn5
I1118 18:14:49.903417  2573 net.cpp:157] Top shape: 1 64 32 32 (65536)
I1118 18:14:49.903419  2573 net.cpp:165] Memory required for data: 915717072
I1118 18:14:49.903421  2573 layer_factory.hpp:77] Creating layer conv4-dsn5
I1118 18:14:49.903429  2573 net.cpp:100] Creating Layer conv4-dsn5
I1118 18:14:49.903432  2573 net.cpp:434] conv4-dsn5 <- conv3-dsn5
I1118 18:14:49.903437  2573 net.cpp:408] conv4-dsn5 -> conv4-dsn5
I1118 18:14:49.903852  2573 net.cpp:150] Setting up conv4-dsn5
I1118 18:14:49.903862  2573 net.cpp:157] Top shape: 1 1 32 32 (1024)
I1118 18:14:49.903864  2573 net.cpp:165] Memory required for data: 915721168
I1118 18:14:49.903868  2573 layer_factory.hpp:77] Creating layer sum-dsn5
I1118 18:14:49.903882  2573 net.cpp:100] Creating Layer sum-dsn5
I1118 18:14:49.903885  2573 net.cpp:434] sum-dsn5 <- conv4-dsn5
I1118 18:14:49.903888  2573 net.cpp:434] sum-dsn5 <- weight-dsn6-5_crop1-dsn5_0_split_1
I1118 18:14:49.903892  2573 net.cpp:408] sum-dsn5 -> sum-dsn5
I1118 18:14:49.903906  2573 net.cpp:150] Setting up sum-dsn5
I1118 18:14:49.903910  2573 net.cpp:157] Top shape: 1 1 32 32 (1024)
I1118 18:14:49.903913  2573 net.cpp:165] Memory required for data: 915725264
I1118 18:14:49.903914  2573 layer_factory.hpp:77] Creating layer sum-dsn5_sum-dsn5_0_split
I1118 18:14:49.903918  2573 net.cpp:100] Creating Layer sum-dsn5_sum-dsn5_0_split
I1118 18:14:49.903921  2573 net.cpp:434] sum-dsn5_sum-dsn5_0_split <- sum-dsn5
I1118 18:14:49.903925  2573 net.cpp:408] sum-dsn5_sum-dsn5_0_split -> sum-dsn5_sum-dsn5_0_split_0
I1118 18:14:49.903929  2573 net.cpp:408] sum-dsn5_sum-dsn5_0_split -> sum-dsn5_sum-dsn5_0_split_1
I1118 18:14:49.903954  2573 net.cpp:150] Setting up sum-dsn5_sum-dsn5_0_split
I1118 18:14:49.903956  2573 net.cpp:157] Top shape: 1 1 32 32 (1024)
I1118 18:14:49.903959  2573 net.cpp:157] Top shape: 1 1 32 32 (1024)
I1118 18:14:49.903961  2573 net.cpp:165] Memory required for data: 915733456
I1118 18:14:49.903964  2573 layer_factory.hpp:77] Creating layer upsample16_dsn5
I1118 18:14:49.903970  2573 net.cpp:100] Creating Layer upsample16_dsn5
I1118 18:14:49.903971  2573 net.cpp:434] upsample16_dsn5 <- sum-dsn5_sum-dsn5_0_split_0
I1118 18:14:49.903975  2573 net.cpp:408] upsample16_dsn5 -> sum-dsn5-up
I1118 18:14:49.905052  2573 net.cpp:150] Setting up upsample16_dsn5
I1118 18:14:49.905062  2573 net.cpp:157] Top shape: 1 1 528 528 (278784)
I1118 18:14:49.905064  2573 net.cpp:165] Memory required for data: 916848592
I1118 18:14:49.905069  2573 layer_factory.hpp:77] Creating layer crop2-dsn5
I1118 18:14:49.905073  2573 net.cpp:100] Creating Layer crop2-dsn5
I1118 18:14:49.905076  2573 net.cpp:434] crop2-dsn5 <- sum-dsn5-up
I1118 18:14:49.905081  2573 net.cpp:434] crop2-dsn5 <- data_data_0_split_2
I1118 18:14:49.905084  2573 net.cpp:408] crop2-dsn5 -> upscore-dsn5
I1118 18:14:49.905107  2573 net.cpp:150] Setting up crop2-dsn5
I1118 18:14:49.905112  2573 net.cpp:157] Top shape: 1 1 500 500 (250000)
I1118 18:14:49.905112  2573 net.cpp:165] Memory required for data: 917848592
I1118 18:14:49.905114  2573 layer_factory.hpp:77] Creating layer loss5-score
I1118 18:14:49.905122  2573 net.cpp:100] Creating Layer loss5-score
I1118 18:14:49.905123  2573 net.cpp:434] loss5-score <- upscore-dsn5
I1118 18:14:49.905126  2573 net.cpp:434] loss5-score <- label_data_1_split_1
I1118 18:14:49.905130  2573 net.cpp:408] loss5-score -> loss5-score
I1118 18:14:49.905294  2573 net.cpp:150] Setting up loss5-score
I1118 18:14:49.905303  2573 net.cpp:157] Top shape: (1)
I1118 18:14:49.905305  2573 net.cpp:160]     with loss weight 1
I1118 18:14:49.905313  2573 net.cpp:165] Memory required for data: 917848596
I1118 18:14:49.905315  2573 layer_factory.hpp:77] Creating layer upsample2_dsn4
I1118 18:14:49.905321  2573 net.cpp:100] Creating Layer upsample2_dsn4
I1118 18:14:49.905323  2573 net.cpp:434] upsample2_dsn4 <- sum-dsn5_sum-dsn5_0_split_1
I1118 18:14:49.905328  2573 net.cpp:408] upsample2_dsn4 -> sum-dsn5-4
I1118 18:14:49.905491  2573 net.cpp:150] Setting up upsample2_dsn4
I1118 18:14:49.905498  2573 net.cpp:157] Top shape: 1 1 66 66 (4356)
I1118 18:14:49.905499  2573 net.cpp:165] Memory required for data: 917866020
I1118 18:14:49.905503  2573 layer_factory.hpp:77] Creating layer crop1-dsn4
I1118 18:14:49.905508  2573 net.cpp:100] Creating Layer crop1-dsn4
I1118 18:14:49.905510  2573 net.cpp:434] crop1-dsn4 <- sum-dsn5-4
I1118 18:14:49.905514  2573 net.cpp:434] crop1-dsn4 <- conv4_3_relu4_3_0_split_1
I1118 18:14:49.905517  2573 net.cpp:408] crop1-dsn4 -> weight-dsn5-4
I1118 18:14:49.905534  2573 net.cpp:150] Setting up crop1-dsn4
I1118 18:14:49.905537  2573 net.cpp:157] Top shape: 1 1 63 63 (3969)
I1118 18:14:49.905539  2573 net.cpp:165] Memory required for data: 917881896
I1118 18:14:49.905541  2573 layer_factory.hpp:77] Creating layer weight-dsn5-4_crop1-dsn4_0_split
I1118 18:14:49.905546  2573 net.cpp:100] Creating Layer weight-dsn5-4_crop1-dsn4_0_split
I1118 18:14:49.905548  2573 net.cpp:434] weight-dsn5-4_crop1-dsn4_0_split <- weight-dsn5-4
I1118 18:14:49.905552  2573 net.cpp:408] weight-dsn5-4_crop1-dsn4_0_split -> weight-dsn5-4_crop1-dsn4_0_split_0
I1118 18:14:49.905557  2573 net.cpp:408] weight-dsn5-4_crop1-dsn4_0_split -> weight-dsn5-4_crop1-dsn4_0_split_1
I1118 18:14:49.905580  2573 net.cpp:150] Setting up weight-dsn5-4_crop1-dsn4_0_split
I1118 18:14:49.905584  2573 net.cpp:157] Top shape: 1 1 63 63 (3969)
I1118 18:14:49.905587  2573 net.cpp:157] Top shape: 1 1 63 63 (3969)
I1118 18:14:49.905588  2573 net.cpp:165] Memory required for data: 917913648
I1118 18:14:49.905591  2573 layer_factory.hpp:77] Creating layer sigmoid-dsn4
I1118 18:14:49.905596  2573 net.cpp:100] Creating Layer sigmoid-dsn4
I1118 18:14:49.905598  2573 net.cpp:434] sigmoid-dsn4 <- weight-dsn5-4_crop1-dsn4_0_split_0
I1118 18:14:49.905602  2573 net.cpp:408] sigmoid-dsn4 -> sigmoid-dsn4
I1118 18:14:49.905798  2573 net.cpp:150] Setting up sigmoid-dsn4
I1118 18:14:49.905807  2573 net.cpp:157] Top shape: 1 1 63 63 (3969)
I1118 18:14:49.905809  2573 net.cpp:165] Memory required for data: 917929524
I1118 18:14:49.905812  2573 layer_factory.hpp:77] Creating layer rev-dsn4
I1118 18:14:49.905817  2573 net.cpp:100] Creating Layer rev-dsn4
I1118 18:14:49.905820  2573 net.cpp:434] rev-dsn4 <- sigmoid-dsn4
I1118 18:14:49.905825  2573 net.cpp:408] rev-dsn4 -> rev-dsn4
I1118 18:14:49.905843  2573 net.cpp:150] Setting up rev-dsn4
I1118 18:14:49.905845  2573 net.cpp:157] Top shape: 1 1 63 63 (3969)
I1118 18:14:49.905848  2573 net.cpp:165] Memory required for data: 917945400
I1118 18:14:49.905849  2573 layer_factory.hpp:77] Creating layer tile-dsn4
I1118 18:14:49.905854  2573 net.cpp:100] Creating Layer tile-dsn4
I1118 18:14:49.905858  2573 net.cpp:434] tile-dsn4 <- rev-dsn4
I1118 18:14:49.905861  2573 net.cpp:408] tile-dsn4 -> weight-dsn4
I1118 18:14:49.905875  2573 net.cpp:150] Setting up tile-dsn4
I1118 18:14:49.905879  2573 net.cpp:157] Top shape: 1 512 63 63 (2032128)
I1118 18:14:49.905880  2573 net.cpp:165] Memory required for data: 926073912
I1118 18:14:49.905884  2573 layer_factory.hpp:77] Creating layer prod1-dsn4
I1118 18:14:49.905887  2573 net.cpp:100] Creating Layer prod1-dsn4
I1118 18:14:49.905890  2573 net.cpp:434] prod1-dsn4 <- conv4_3_relu4_3_0_split_2
I1118 18:14:49.905894  2573 net.cpp:434] prod1-dsn4 <- weight-dsn4
I1118 18:14:49.905897  2573 net.cpp:408] prod1-dsn4 -> prod1-dsn4
I1118 18:14:49.905911  2573 net.cpp:150] Setting up prod1-dsn4
I1118 18:14:49.905915  2573 net.cpp:157] Top shape: 1 512 63 63 (2032128)
I1118 18:14:49.905916  2573 net.cpp:165] Memory required for data: 934202424
I1118 18:14:49.905918  2573 layer_factory.hpp:77] Creating layer conv1-dsn4
I1118 18:14:49.905925  2573 net.cpp:100] Creating Layer conv1-dsn4
I1118 18:14:49.905927  2573 net.cpp:434] conv1-dsn4 <- prod1-dsn4
I1118 18:14:49.905932  2573 net.cpp:408] conv1-dsn4 -> conv1-dsn4
I1118 18:14:49.908262  2573 net.cpp:150] Setting up conv1-dsn4
I1118 18:14:49.908272  2573 net.cpp:157] Top shape: 1 64 63 63 (254016)
I1118 18:14:49.908274  2573 net.cpp:165] Memory required for data: 935218488
I1118 18:14:49.908279  2573 layer_factory.hpp:77] Creating layer conv2-dsn4
I1118 18:14:49.908286  2573 net.cpp:100] Creating Layer conv2-dsn4
I1118 18:14:49.908289  2573 net.cpp:434] conv2-dsn4 <- conv1-dsn4
I1118 18:14:49.908294  2573 net.cpp:408] conv2-dsn4 -> conv2-dsn4
I1118 18:14:49.909919  2573 net.cpp:150] Setting up conv2-dsn4
I1118 18:14:49.909950  2573 net.cpp:157] Top shape: 1 64 63 63 (254016)
I1118 18:14:49.909953  2573 net.cpp:165] Memory required for data: 936234552
I1118 18:14:49.909961  2573 layer_factory.hpp:77] Creating layer relu1-dsn4
I1118 18:14:49.909968  2573 net.cpp:100] Creating Layer relu1-dsn4
I1118 18:14:49.909973  2573 net.cpp:434] relu1-dsn4 <- conv2-dsn4
I1118 18:14:49.909981  2573 net.cpp:395] relu1-dsn4 -> conv2-dsn4 (in-place)
I1118 18:14:49.910184  2573 net.cpp:150] Setting up relu1-dsn4
I1118 18:14:49.910198  2573 net.cpp:157] Top shape: 1 64 63 63 (254016)
I1118 18:14:49.910202  2573 net.cpp:165] Memory required for data: 937250616
I1118 18:14:49.910207  2573 layer_factory.hpp:77] Creating layer conv3-dsn4
I1118 18:14:49.910218  2573 net.cpp:100] Creating Layer conv3-dsn4
I1118 18:14:49.910223  2573 net.cpp:434] conv3-dsn4 <- conv2-dsn4
I1118 18:14:49.910230  2573 net.cpp:408] conv3-dsn4 -> conv3-dsn4
I1118 18:14:49.911391  2573 net.cpp:150] Setting up conv3-dsn4
I1118 18:14:49.911419  2573 net.cpp:157] Top shape: 1 64 63 63 (254016)
I1118 18:14:49.911423  2573 net.cpp:165] Memory required for data: 938266680
I1118 18:14:49.911432  2573 layer_factory.hpp:77] Creating layer relu2-dsn4
I1118 18:14:49.911438  2573 net.cpp:100] Creating Layer relu2-dsn4
I1118 18:14:49.911443  2573 net.cpp:434] relu2-dsn4 <- conv3-dsn4
I1118 18:14:49.911450  2573 net.cpp:395] relu2-dsn4 -> conv3-dsn4 (in-place)
I1118 18:14:49.911656  2573 net.cpp:150] Setting up relu2-dsn4
I1118 18:14:49.911669  2573 net.cpp:157] Top shape: 1 64 63 63 (254016)
I1118 18:14:49.911672  2573 net.cpp:165] Memory required for data: 939282744
I1118 18:14:49.911677  2573 layer_factory.hpp:77] Creating layer conv4-dsn4
I1118 18:14:49.911689  2573 net.cpp:100] Creating Layer conv4-dsn4
I1118 18:14:49.911692  2573 net.cpp:434] conv4-dsn4 <- conv3-dsn4
I1118 18:14:49.911701  2573 net.cpp:408] conv4-dsn4 -> conv4-dsn4
I1118 18:14:49.912480  2573 net.cpp:150] Setting up conv4-dsn4
I1118 18:14:49.912508  2573 net.cpp:157] Top shape: 1 1 63 63 (3969)
I1118 18:14:49.912513  2573 net.cpp:165] Memory required for data: 939298620
I1118 18:14:49.912520  2573 layer_factory.hpp:77] Creating layer sum-dsn4
I1118 18:14:49.912528  2573 net.cpp:100] Creating Layer sum-dsn4
I1118 18:14:49.912533  2573 net.cpp:434] sum-dsn4 <- conv4-dsn4
I1118 18:14:49.912539  2573 net.cpp:434] sum-dsn4 <- weight-dsn5-4_crop1-dsn4_0_split_1
I1118 18:14:49.912545  2573 net.cpp:408] sum-dsn4 -> sum-dsn4
I1118 18:14:49.912572  2573 net.cpp:150] Setting up sum-dsn4
I1118 18:14:49.912580  2573 net.cpp:157] Top shape: 1 1 63 63 (3969)
I1118 18:14:49.912583  2573 net.cpp:165] Memory required for data: 939314496
I1118 18:14:49.912586  2573 layer_factory.hpp:77] Creating layer sum-dsn4_sum-dsn4_0_split
I1118 18:14:49.912593  2573 net.cpp:100] Creating Layer sum-dsn4_sum-dsn4_0_split
I1118 18:14:49.912597  2573 net.cpp:434] sum-dsn4_sum-dsn4_0_split <- sum-dsn4
I1118 18:14:49.912605  2573 net.cpp:408] sum-dsn4_sum-dsn4_0_split -> sum-dsn4_sum-dsn4_0_split_0
I1118 18:14:49.912612  2573 net.cpp:408] sum-dsn4_sum-dsn4_0_split -> sum-dsn4_sum-dsn4_0_split_1
I1118 18:14:49.912658  2573 net.cpp:150] Setting up sum-dsn4_sum-dsn4_0_split
I1118 18:14:49.912667  2573 net.cpp:157] Top shape: 1 1 63 63 (3969)
I1118 18:14:49.912672  2573 net.cpp:157] Top shape: 1 1 63 63 (3969)
I1118 18:14:49.912675  2573 net.cpp:165] Memory required for data: 939346248
I1118 18:14:49.912679  2573 layer_factory.hpp:77] Creating layer upsample8_dsn4
I1118 18:14:49.912688  2573 net.cpp:100] Creating Layer upsample8_dsn4
I1118 18:14:49.912691  2573 net.cpp:434] upsample8_dsn4 <- sum-dsn4_sum-dsn4_0_split_0
I1118 18:14:49.912699  2573 net.cpp:408] upsample8_dsn4 -> sum-dsn4-up
I1118 18:14:49.914242  2573 net.cpp:150] Setting up upsample8_dsn4
I1118 18:14:49.914255  2573 net.cpp:157] Top shape: 1 1 512 512 (262144)
I1118 18:14:49.914273  2573 net.cpp:165] Memory required for data: 940394824
I1118 18:14:49.914280  2573 layer_factory.hpp:77] Creating layer crop2-dsn4
I1118 18:14:49.914288  2573 net.cpp:100] Creating Layer crop2-dsn4
I1118 18:14:49.914294  2573 net.cpp:434] crop2-dsn4 <- sum-dsn4-up
I1118 18:14:49.914302  2573 net.cpp:434] crop2-dsn4 <- data_data_0_split_3
I1118 18:14:49.914310  2573 net.cpp:408] crop2-dsn4 -> upscore-dsn4
I1118 18:14:49.914342  2573 net.cpp:150] Setting up crop2-dsn4
I1118 18:14:49.914350  2573 net.cpp:157] Top shape: 1 1 500 500 (250000)
I1118 18:14:49.914352  2573 net.cpp:165] Memory required for data: 941394824
I1118 18:14:49.914356  2573 layer_factory.hpp:77] Creating layer loss4-score
I1118 18:14:49.914366  2573 net.cpp:100] Creating Layer loss4-score
I1118 18:14:49.914369  2573 net.cpp:434] loss4-score <- upscore-dsn4
I1118 18:14:49.914374  2573 net.cpp:434] loss4-score <- label_data_1_split_2
I1118 18:14:49.914381  2573 net.cpp:408] loss4-score -> loss4-score
I1118 18:14:49.914646  2573 net.cpp:150] Setting up loss4-score
I1118 18:14:49.914654  2573 net.cpp:157] Top shape: (1)
I1118 18:14:49.914659  2573 net.cpp:160]     with loss weight 1
I1118 18:14:49.914667  2573 net.cpp:165] Memory required for data: 941394828
I1118 18:14:49.914672  2573 layer_factory.hpp:77] Creating layer upsample2_dsn3
I1118 18:14:49.914680  2573 net.cpp:100] Creating Layer upsample2_dsn3
I1118 18:14:49.914685  2573 net.cpp:434] upsample2_dsn3 <- sum-dsn4_sum-dsn4_0_split_1
I1118 18:14:49.914691  2573 net.cpp:408] upsample2_dsn3 -> sum-dsn4-3
I1118 18:14:49.914955  2573 net.cpp:150] Setting up upsample2_dsn3
I1118 18:14:49.914965  2573 net.cpp:157] Top shape: 1 1 128 128 (16384)
I1118 18:14:49.914969  2573 net.cpp:165] Memory required for data: 941460364
I1118 18:14:49.914976  2573 layer_factory.hpp:77] Creating layer crop1-dsn3
I1118 18:14:49.914983  2573 net.cpp:100] Creating Layer crop1-dsn3
I1118 18:14:49.914988  2573 net.cpp:434] crop1-dsn3 <- sum-dsn4-3
I1118 18:14:49.914993  2573 net.cpp:434] crop1-dsn3 <- conv3_3_relu3_3_0_split_1
I1118 18:14:49.914999  2573 net.cpp:408] crop1-dsn3 -> weight-dsn4-3
I1118 18:14:49.915036  2573 net.cpp:150] Setting up crop1-dsn3
I1118 18:14:49.915045  2573 net.cpp:157] Top shape: 1 1 125 125 (15625)
I1118 18:14:49.915048  2573 net.cpp:165] Memory required for data: 941522864
I1118 18:14:49.915052  2573 layer_factory.hpp:77] Creating layer weight-dsn4-3_crop1-dsn3_0_split
I1118 18:14:49.915058  2573 net.cpp:100] Creating Layer weight-dsn4-3_crop1-dsn3_0_split
I1118 18:14:49.915063  2573 net.cpp:434] weight-dsn4-3_crop1-dsn3_0_split <- weight-dsn4-3
I1118 18:14:49.915069  2573 net.cpp:408] weight-dsn4-3_crop1-dsn3_0_split -> weight-dsn4-3_crop1-dsn3_0_split_0
I1118 18:14:49.915078  2573 net.cpp:408] weight-dsn4-3_crop1-dsn3_0_split -> weight-dsn4-3_crop1-dsn3_0_split_1
I1118 18:14:49.915115  2573 net.cpp:150] Setting up weight-dsn4-3_crop1-dsn3_0_split
I1118 18:14:49.915123  2573 net.cpp:157] Top shape: 1 1 125 125 (15625)
I1118 18:14:49.915127  2573 net.cpp:157] Top shape: 1 1 125 125 (15625)
I1118 18:14:49.915132  2573 net.cpp:165] Memory required for data: 941647864
I1118 18:14:49.915134  2573 layer_factory.hpp:77] Creating layer sigmoid-dsn3
I1118 18:14:49.915143  2573 net.cpp:100] Creating Layer sigmoid-dsn3
I1118 18:14:49.915146  2573 net.cpp:434] sigmoid-dsn3 <- weight-dsn4-3_crop1-dsn3_0_split_0
I1118 18:14:49.915153  2573 net.cpp:408] sigmoid-dsn3 -> sigmoid-dsn3
I1118 18:14:49.915256  2573 net.cpp:150] Setting up sigmoid-dsn3
I1118 18:14:49.915264  2573 net.cpp:157] Top shape: 1 1 125 125 (15625)
I1118 18:14:49.915268  2573 net.cpp:165] Memory required for data: 941710364
I1118 18:14:49.915271  2573 layer_factory.hpp:77] Creating layer rev-dsn3
I1118 18:14:49.915278  2573 net.cpp:100] Creating Layer rev-dsn3
I1118 18:14:49.915283  2573 net.cpp:434] rev-dsn3 <- sigmoid-dsn3
I1118 18:14:49.915289  2573 net.cpp:408] rev-dsn3 -> rev-dsn3
I1118 18:14:49.915318  2573 net.cpp:150] Setting up rev-dsn3
I1118 18:14:49.915326  2573 net.cpp:157] Top shape: 1 1 125 125 (15625)
I1118 18:14:49.915329  2573 net.cpp:165] Memory required for data: 941772864
I1118 18:14:49.915333  2573 layer_factory.hpp:77] Creating layer tile-dsn3
I1118 18:14:49.915340  2573 net.cpp:100] Creating Layer tile-dsn3
I1118 18:14:49.915344  2573 net.cpp:434] tile-dsn3 <- rev-dsn3
I1118 18:14:49.915350  2573 net.cpp:408] tile-dsn3 -> weight-dsn3
I1118 18:14:49.915374  2573 net.cpp:150] Setting up tile-dsn3
I1118 18:14:49.915380  2573 net.cpp:157] Top shape: 1 256 125 125 (4000000)
I1118 18:14:49.915383  2573 net.cpp:165] Memory required for data: 957772864
I1118 18:14:49.915387  2573 layer_factory.hpp:77] Creating layer prod1-dsn3
I1118 18:14:49.915395  2573 net.cpp:100] Creating Layer prod1-dsn3
I1118 18:14:49.915398  2573 net.cpp:434] prod1-dsn3 <- conv3_3_relu3_3_0_split_2
I1118 18:14:49.915403  2573 net.cpp:434] prod1-dsn3 <- weight-dsn3
I1118 18:14:49.915410  2573 net.cpp:408] prod1-dsn3 -> prod1-dsn3
I1118 18:14:49.915433  2573 net.cpp:150] Setting up prod1-dsn3
I1118 18:14:49.915439  2573 net.cpp:157] Top shape: 1 256 125 125 (4000000)
I1118 18:14:49.915442  2573 net.cpp:165] Memory required for data: 973772864
I1118 18:14:49.915446  2573 layer_factory.hpp:77] Creating layer conv1-dsn3
I1118 18:14:49.915457  2573 net.cpp:100] Creating Layer conv1-dsn3
I1118 18:14:49.915462  2573 net.cpp:434] conv1-dsn3 <- prod1-dsn3
I1118 18:14:49.915468  2573 net.cpp:408] conv1-dsn3 -> conv1-dsn3
I1118 18:14:49.917910  2573 net.cpp:150] Setting up conv1-dsn3
I1118 18:14:49.917940  2573 net.cpp:157] Top shape: 1 64 125 125 (1000000)
I1118 18:14:49.917944  2573 net.cpp:165] Memory required for data: 977772864
I1118 18:14:49.917963  2573 layer_factory.hpp:77] Creating layer conv2-dsn3
I1118 18:14:49.917976  2573 net.cpp:100] Creating Layer conv2-dsn3
I1118 18:14:49.917980  2573 net.cpp:434] conv2-dsn3 <- conv1-dsn3
I1118 18:14:49.917989  2573 net.cpp:408] conv2-dsn3 -> conv2-dsn3
I1118 18:14:49.919174  2573 net.cpp:150] Setting up conv2-dsn3
I1118 18:14:49.919203  2573 net.cpp:157] Top shape: 1 64 125 125 (1000000)
I1118 18:14:49.919206  2573 net.cpp:165] Memory required for data: 981772864
I1118 18:14:49.919214  2573 layer_factory.hpp:77] Creating layer relu1-dsn3
I1118 18:14:49.919221  2573 net.cpp:100] Creating Layer relu1-dsn3
I1118 18:14:49.919225  2573 net.cpp:434] relu1-dsn3 <- conv2-dsn3
I1118 18:14:49.919232  2573 net.cpp:395] relu1-dsn3 -> conv2-dsn3 (in-place)
I1118 18:14:49.919437  2573 net.cpp:150] Setting up relu1-dsn3
I1118 18:14:49.919450  2573 net.cpp:157] Top shape: 1 64 125 125 (1000000)
I1118 18:14:49.919454  2573 net.cpp:165] Memory required for data: 985772864
I1118 18:14:49.919458  2573 layer_factory.hpp:77] Creating layer conv3-dsn3
I1118 18:14:49.919469  2573 net.cpp:100] Creating Layer conv3-dsn3
I1118 18:14:49.919473  2573 net.cpp:434] conv3-dsn3 <- conv2-dsn3
I1118 18:14:49.919482  2573 net.cpp:408] conv3-dsn3 -> conv3-dsn3
I1118 18:14:49.920800  2573 net.cpp:150] Setting up conv3-dsn3
I1118 18:14:49.920814  2573 net.cpp:157] Top shape: 1 64 125 125 (1000000)
I1118 18:14:49.920832  2573 net.cpp:165] Memory required for data: 989772864
I1118 18:14:49.920840  2573 layer_factory.hpp:77] Creating layer relu2-dsn3
I1118 18:14:49.920847  2573 net.cpp:100] Creating Layer relu2-dsn3
I1118 18:14:49.920852  2573 net.cpp:434] relu2-dsn3 <- conv3-dsn3
I1118 18:14:49.920861  2573 net.cpp:395] relu2-dsn3 -> conv3-dsn3 (in-place)
I1118 18:14:49.920941  2573 net.cpp:150] Setting up relu2-dsn3
I1118 18:14:49.920950  2573 net.cpp:157] Top shape: 1 64 125 125 (1000000)
I1118 18:14:49.920953  2573 net.cpp:165] Memory required for data: 993772864
I1118 18:14:49.920958  2573 layer_factory.hpp:77] Creating layer conv4-dsn3
I1118 18:14:49.920969  2573 net.cpp:100] Creating Layer conv4-dsn3
I1118 18:14:49.920972  2573 net.cpp:434] conv4-dsn3 <- conv3-dsn3
I1118 18:14:49.920980  2573 net.cpp:408] conv4-dsn3 -> conv4-dsn3
I1118 18:14:49.921857  2573 net.cpp:150] Setting up conv4-dsn3
I1118 18:14:49.921871  2573 net.cpp:157] Top shape: 1 1 125 125 (15625)
I1118 18:14:49.921890  2573 net.cpp:165] Memory required for data: 993835364
I1118 18:14:49.921898  2573 layer_factory.hpp:77] Creating layer sum-dsn3
I1118 18:14:49.921905  2573 net.cpp:100] Creating Layer sum-dsn3
I1118 18:14:49.921911  2573 net.cpp:434] sum-dsn3 <- conv4-dsn3
I1118 18:14:49.921916  2573 net.cpp:434] sum-dsn3 <- weight-dsn4-3_crop1-dsn3_0_split_1
I1118 18:14:49.921923  2573 net.cpp:408] sum-dsn3 -> sum-dsn3
I1118 18:14:49.921953  2573 net.cpp:150] Setting up sum-dsn3
I1118 18:14:49.921960  2573 net.cpp:157] Top shape: 1 1 125 125 (15625)
I1118 18:14:49.921963  2573 net.cpp:165] Memory required for data: 993897864
I1118 18:14:49.921967  2573 layer_factory.hpp:77] Creating layer sum-dsn3_sum-dsn3_0_split
I1118 18:14:49.921974  2573 net.cpp:100] Creating Layer sum-dsn3_sum-dsn3_0_split
I1118 18:14:49.921978  2573 net.cpp:434] sum-dsn3_sum-dsn3_0_split <- sum-dsn3
I1118 18:14:49.921985  2573 net.cpp:408] sum-dsn3_sum-dsn3_0_split -> sum-dsn3_sum-dsn3_0_split_0
I1118 18:14:49.921993  2573 net.cpp:408] sum-dsn3_sum-dsn3_0_split -> sum-dsn3_sum-dsn3_0_split_1
I1118 18:14:49.922034  2573 net.cpp:150] Setting up sum-dsn3_sum-dsn3_0_split
I1118 18:14:49.922044  2573 net.cpp:157] Top shape: 1 1 125 125 (15625)
I1118 18:14:49.922047  2573 net.cpp:157] Top shape: 1 1 125 125 (15625)
I1118 18:14:49.922051  2573 net.cpp:165] Memory required for data: 994022864
I1118 18:14:49.922055  2573 layer_factory.hpp:77] Creating layer upsample4_dsn3
I1118 18:14:49.922065  2573 net.cpp:100] Creating Layer upsample4_dsn3
I1118 18:14:49.922068  2573 net.cpp:434] upsample4_dsn3 <- sum-dsn3_sum-dsn3_0_split_0
I1118 18:14:49.922075  2573 net.cpp:408] upsample4_dsn3 -> sum-dsn3-up
I1118 18:14:49.923470  2573 net.cpp:150] Setting up upsample4_dsn3
I1118 18:14:49.923481  2573 net.cpp:157] Top shape: 1 1 504 504 (254016)
I1118 18:14:49.923498  2573 net.cpp:165] Memory required for data: 995038928
I1118 18:14:49.923503  2573 layer_factory.hpp:77] Creating layer crop2-dsn3
I1118 18:14:49.923508  2573 net.cpp:100] Creating Layer crop2-dsn3
I1118 18:14:49.923511  2573 net.cpp:434] crop2-dsn3 <- sum-dsn3-up
I1118 18:14:49.923516  2573 net.cpp:434] crop2-dsn3 <- data_data_0_split_4
I1118 18:14:49.923521  2573 net.cpp:408] crop2-dsn3 -> upscore-dsn3
I1118 18:14:49.923545  2573 net.cpp:150] Setting up crop2-dsn3
I1118 18:14:49.923549  2573 net.cpp:157] Top shape: 1 1 500 500 (250000)
I1118 18:14:49.923552  2573 net.cpp:165] Memory required for data: 996038928
I1118 18:14:49.923553  2573 layer_factory.hpp:77] Creating layer loss3-score
I1118 18:14:49.923560  2573 net.cpp:100] Creating Layer loss3-score
I1118 18:14:49.923563  2573 net.cpp:434] loss3-score <- upscore-dsn3
I1118 18:14:49.923566  2573 net.cpp:434] loss3-score <- label_data_1_split_3
I1118 18:14:49.923570  2573 net.cpp:408] loss3-score -> loss3-score
I1118 18:14:49.923748  2573 net.cpp:150] Setting up loss3-score
I1118 18:14:49.923753  2573 net.cpp:157] Top shape: (1)
I1118 18:14:49.923755  2573 net.cpp:160]     with loss weight 1
I1118 18:14:49.923761  2573 net.cpp:165] Memory required for data: 996038932
I1118 18:14:49.923774  2573 layer_factory.hpp:77] Creating layer upsample2_1-dsn2
I1118 18:14:49.923781  2573 net.cpp:100] Creating Layer upsample2_1-dsn2
I1118 18:14:49.923784  2573 net.cpp:434] upsample2_1-dsn2 <- sum-dsn3_sum-dsn3_0_split_1
I1118 18:14:49.923789  2573 net.cpp:408] upsample2_1-dsn2 -> sum-dsn3-2
I1118 18:14:49.924865  2573 net.cpp:150] Setting up upsample2_1-dsn2
I1118 18:14:49.924876  2573 net.cpp:157] Top shape: 1 1 252 252 (63504)
I1118 18:14:49.924878  2573 net.cpp:165] Memory required for data: 996292948
I1118 18:14:49.924897  2573 layer_factory.hpp:77] Creating layer crop1-dsn2
I1118 18:14:49.924903  2573 net.cpp:100] Creating Layer crop1-dsn2
I1118 18:14:49.924906  2573 net.cpp:434] crop1-dsn2 <- sum-dsn3-2
I1118 18:14:49.924909  2573 net.cpp:434] crop1-dsn2 <- conv2_2_relu2_2_0_split_1
I1118 18:14:49.924914  2573 net.cpp:408] crop1-dsn2 -> weight-dsn3-2
I1118 18:14:49.924937  2573 net.cpp:150] Setting up crop1-dsn2
I1118 18:14:49.924942  2573 net.cpp:157] Top shape: 1 1 250 250 (62500)
I1118 18:14:49.924943  2573 net.cpp:165] Memory required for data: 996542948
I1118 18:14:49.924945  2573 layer_factory.hpp:77] Creating layer weight-dsn3-2_crop1-dsn2_0_split
I1118 18:14:49.924949  2573 net.cpp:100] Creating Layer weight-dsn3-2_crop1-dsn2_0_split
I1118 18:14:49.924952  2573 net.cpp:434] weight-dsn3-2_crop1-dsn2_0_split <- weight-dsn3-2
I1118 18:14:49.924957  2573 net.cpp:408] weight-dsn3-2_crop1-dsn2_0_split -> weight-dsn3-2_crop1-dsn2_0_split_0
I1118 18:14:49.924962  2573 net.cpp:408] weight-dsn3-2_crop1-dsn2_0_split -> weight-dsn3-2_crop1-dsn2_0_split_1
I1118 18:14:49.924986  2573 net.cpp:150] Setting up weight-dsn3-2_crop1-dsn2_0_split
I1118 18:14:49.924990  2573 net.cpp:157] Top shape: 1 1 250 250 (62500)
I1118 18:14:49.924993  2573 net.cpp:157] Top shape: 1 1 250 250 (62500)
I1118 18:14:49.924994  2573 net.cpp:165] Memory required for data: 997042948
I1118 18:14:49.924996  2573 layer_factory.hpp:77] Creating layer sigmoid-dsn2
I1118 18:14:49.925002  2573 net.cpp:100] Creating Layer sigmoid-dsn2
I1118 18:14:49.925004  2573 net.cpp:434] sigmoid-dsn2 <- weight-dsn3-2_crop1-dsn2_0_split_0
I1118 18:14:49.925009  2573 net.cpp:408] sigmoid-dsn2 -> sigmoid-dsn2
I1118 18:14:49.925082  2573 net.cpp:150] Setting up sigmoid-dsn2
I1118 18:14:49.925089  2573 net.cpp:157] Top shape: 1 1 250 250 (62500)
I1118 18:14:49.925091  2573 net.cpp:165] Memory required for data: 997292948
I1118 18:14:49.925094  2573 layer_factory.hpp:77] Creating layer rev-dsn2
I1118 18:14:49.925099  2573 net.cpp:100] Creating Layer rev-dsn2
I1118 18:14:49.925101  2573 net.cpp:434] rev-dsn2 <- sigmoid-dsn2
I1118 18:14:49.925107  2573 net.cpp:408] rev-dsn2 -> rev-dsn2
I1118 18:14:49.925122  2573 net.cpp:150] Setting up rev-dsn2
I1118 18:14:49.925127  2573 net.cpp:157] Top shape: 1 1 250 250 (62500)
I1118 18:14:49.925128  2573 net.cpp:165] Memory required for data: 997542948
I1118 18:14:49.925130  2573 layer_factory.hpp:77] Creating layer tile-dsn2
I1118 18:14:49.925134  2573 net.cpp:100] Creating Layer tile-dsn2
I1118 18:14:49.925137  2573 net.cpp:434] tile-dsn2 <- rev-dsn2
I1118 18:14:49.925140  2573 net.cpp:408] tile-dsn2 -> weight-dsn2
I1118 18:14:49.925155  2573 net.cpp:150] Setting up tile-dsn2
I1118 18:14:49.925158  2573 net.cpp:157] Top shape: 1 128 250 250 (8000000)
I1118 18:14:49.925160  2573 net.cpp:165] Memory required for data: 1029542948
I1118 18:14:49.925163  2573 layer_factory.hpp:77] Creating layer prod1-dsn2
I1118 18:14:49.925168  2573 net.cpp:100] Creating Layer prod1-dsn2
I1118 18:14:49.925170  2573 net.cpp:434] prod1-dsn2 <- conv2_2_relu2_2_0_split_2
I1118 18:14:49.925174  2573 net.cpp:434] prod1-dsn2 <- weight-dsn2
I1118 18:14:49.925179  2573 net.cpp:408] prod1-dsn2 -> prod1-dsn2
I1118 18:14:49.925194  2573 net.cpp:150] Setting up prod1-dsn2
I1118 18:14:49.925197  2573 net.cpp:157] Top shape: 1 128 250 250 (8000000)
I1118 18:14:49.925199  2573 net.cpp:165] Memory required for data: 1061542948
I1118 18:14:49.925201  2573 layer_factory.hpp:77] Creating layer conv1-dsn2
I1118 18:14:49.925209  2573 net.cpp:100] Creating Layer conv1-dsn2
I1118 18:14:49.925210  2573 net.cpp:434] conv1-dsn2 <- prod1-dsn2
I1118 18:14:49.925215  2573 net.cpp:408] conv1-dsn2 -> conv1-dsn2
I1118 18:14:49.927314  2573 net.cpp:150] Setting up conv1-dsn2
I1118 18:14:49.927325  2573 net.cpp:157] Top shape: 1 64 250 250 (4000000)
I1118 18:14:49.927327  2573 net.cpp:165] Memory required for data: 1077542948
I1118 18:14:49.927333  2573 layer_factory.hpp:77] Creating layer conv2-dsn2
I1118 18:14:49.927342  2573 net.cpp:100] Creating Layer conv2-dsn2
I1118 18:14:49.927345  2573 net.cpp:434] conv2-dsn2 <- conv1-dsn2
I1118 18:14:49.927351  2573 net.cpp:408] conv2-dsn2 -> conv2-dsn2
I1118 18:14:49.928350  2573 net.cpp:150] Setting up conv2-dsn2
I1118 18:14:49.928362  2573 net.cpp:157] Top shape: 1 64 250 250 (4000000)
I1118 18:14:49.928364  2573 net.cpp:165] Memory required for data: 1093542948
I1118 18:14:49.928369  2573 layer_factory.hpp:77] Creating layer relu1-dsn2
I1118 18:14:49.928375  2573 net.cpp:100] Creating Layer relu1-dsn2
I1118 18:14:49.928378  2573 net.cpp:434] relu1-dsn2 <- conv2-dsn2
I1118 18:14:49.928382  2573 net.cpp:395] relu1-dsn2 -> conv2-dsn2 (in-place)
I1118 18:14:49.928448  2573 net.cpp:150] Setting up relu1-dsn2
I1118 18:14:49.928454  2573 net.cpp:157] Top shape: 1 64 250 250 (4000000)
I1118 18:14:49.928457  2573 net.cpp:165] Memory required for data: 1109542948
I1118 18:14:49.928459  2573 layer_factory.hpp:77] Creating layer conv3-dsn2
I1118 18:14:49.928467  2573 net.cpp:100] Creating Layer conv3-dsn2
I1118 18:14:49.928470  2573 net.cpp:434] conv3-dsn2 <- conv2-dsn2
I1118 18:14:49.928476  2573 net.cpp:408] conv3-dsn2 -> conv3-dsn2
I1118 18:14:49.929383  2573 net.cpp:150] Setting up conv3-dsn2
I1118 18:14:49.929394  2573 net.cpp:157] Top shape: 1 64 250 250 (4000000)
I1118 18:14:49.929397  2573 net.cpp:165] Memory required for data: 1125542948
I1118 18:14:49.929402  2573 layer_factory.hpp:77] Creating layer relu2-dsn2
I1118 18:14:49.929407  2573 net.cpp:100] Creating Layer relu2-dsn2
I1118 18:14:49.929410  2573 net.cpp:434] relu2-dsn2 <- conv3-dsn2
I1118 18:14:49.929415  2573 net.cpp:395] relu2-dsn2 -> conv3-dsn2 (in-place)
I1118 18:14:49.929476  2573 net.cpp:150] Setting up relu2-dsn2
I1118 18:14:49.929483  2573 net.cpp:157] Top shape: 1 64 250 250 (4000000)
I1118 18:14:49.929486  2573 net.cpp:165] Memory required for data: 1141542948
I1118 18:14:49.929487  2573 layer_factory.hpp:77] Creating layer conv4-dsn2
I1118 18:14:49.929495  2573 net.cpp:100] Creating Layer conv4-dsn2
I1118 18:14:49.929497  2573 net.cpp:434] conv4-dsn2 <- conv3-dsn2
I1118 18:14:49.929502  2573 net.cpp:408] conv4-dsn2 -> conv4-dsn2
I1118 18:14:49.930104  2573 net.cpp:150] Setting up conv4-dsn2
I1118 18:14:49.930114  2573 net.cpp:157] Top shape: 1 1 250 250 (62500)
I1118 18:14:49.930117  2573 net.cpp:165] Memory required for data: 1141792948
I1118 18:14:49.930121  2573 layer_factory.hpp:77] Creating layer sum-dsn2
I1118 18:14:49.930127  2573 net.cpp:100] Creating Layer sum-dsn2
I1118 18:14:49.930130  2573 net.cpp:434] sum-dsn2 <- conv4-dsn2
I1118 18:14:49.930135  2573 net.cpp:434] sum-dsn2 <- weight-dsn3-2_crop1-dsn2_0_split_1
I1118 18:14:49.930140  2573 net.cpp:408] sum-dsn2 -> sum-dsn2
I1118 18:14:49.930160  2573 net.cpp:150] Setting up sum-dsn2
I1118 18:14:49.930163  2573 net.cpp:157] Top shape: 1 1 250 250 (62500)
I1118 18:14:49.930166  2573 net.cpp:165] Memory required for data: 1142042948
I1118 18:14:49.930167  2573 layer_factory.hpp:77] Creating layer upsample2_2-dsn2
I1118 18:14:49.930173  2573 net.cpp:100] Creating Layer upsample2_2-dsn2
I1118 18:14:49.930176  2573 net.cpp:434] upsample2_2-dsn2 <- sum-dsn2
I1118 18:14:49.930181  2573 net.cpp:408] upsample2_2-dsn2 -> sum-dsn2-up
I1118 18:14:49.931329  2573 net.cpp:150] Setting up upsample2_2-dsn2
I1118 18:14:49.931339  2573 net.cpp:157] Top shape: 1 1 502 502 (252004)
I1118 18:14:49.931341  2573 net.cpp:165] Memory required for data: 1143050964
I1118 18:14:49.931346  2573 layer_factory.hpp:77] Creating layer crop2-dsn2
I1118 18:14:49.931351  2573 net.cpp:100] Creating Layer crop2-dsn2
I1118 18:14:49.931354  2573 net.cpp:434] crop2-dsn2 <- sum-dsn2-up
I1118 18:14:49.931357  2573 net.cpp:434] crop2-dsn2 <- data_data_0_split_5
I1118 18:14:49.931362  2573 net.cpp:408] crop2-dsn2 -> upscore-dsn2
I1118 18:14:49.931385  2573 net.cpp:150] Setting up crop2-dsn2
I1118 18:14:49.931388  2573 net.cpp:157] Top shape: 1 1 500 500 (250000)
I1118 18:14:49.931391  2573 net.cpp:165] Memory required for data: 1144050964
I1118 18:14:49.931392  2573 layer_factory.hpp:77] Creating layer upscore-dsn2_crop2-dsn2_0_split
I1118 18:14:49.931396  2573 net.cpp:100] Creating Layer upscore-dsn2_crop2-dsn2_0_split
I1118 18:14:49.931399  2573 net.cpp:434] upscore-dsn2_crop2-dsn2_0_split <- upscore-dsn2
I1118 18:14:49.931403  2573 net.cpp:408] upscore-dsn2_crop2-dsn2_0_split -> upscore-dsn2_crop2-dsn2_0_split_0
I1118 18:14:49.931408  2573 net.cpp:408] upscore-dsn2_crop2-dsn2_0_split -> upscore-dsn2_crop2-dsn2_0_split_1
I1118 18:14:49.931413  2573 net.cpp:408] upscore-dsn2_crop2-dsn2_0_split -> upscore-dsn2_crop2-dsn2_0_split_2
I1118 18:14:49.931458  2573 net.cpp:150] Setting up upscore-dsn2_crop2-dsn2_0_split
I1118 18:14:49.931463  2573 net.cpp:157] Top shape: 1 1 500 500 (250000)
I1118 18:14:49.931466  2573 net.cpp:157] Top shape: 1 1 500 500 (250000)
I1118 18:14:49.931470  2573 net.cpp:157] Top shape: 1 1 500 500 (250000)
I1118 18:14:49.931471  2573 net.cpp:165] Memory required for data: 1147050964
I1118 18:14:49.931474  2573 layer_factory.hpp:77] Creating layer loss2-score
I1118 18:14:49.931480  2573 net.cpp:100] Creating Layer loss2-score
I1118 18:14:49.931483  2573 net.cpp:434] loss2-score <- upscore-dsn2_crop2-dsn2_0_split_0
I1118 18:14:49.931486  2573 net.cpp:434] loss2-score <- label_data_1_split_4
I1118 18:14:49.931490  2573 net.cpp:408] loss2-score -> loss2-score
I1118 18:14:49.931649  2573 net.cpp:150] Setting up loss2-score
I1118 18:14:49.931654  2573 net.cpp:157] Top shape: (1)
I1118 18:14:49.931656  2573 net.cpp:160]     with loss weight 1
I1118 18:14:49.931663  2573 net.cpp:165] Memory required for data: 1147050968
I1118 18:14:49.931665  2573 layer_factory.hpp:77] Creating layer sigmoid-dsn1
I1118 18:14:49.931669  2573 net.cpp:100] Creating Layer sigmoid-dsn1
I1118 18:14:49.931672  2573 net.cpp:434] sigmoid-dsn1 <- upscore-dsn2_crop2-dsn2_0_split_1
I1118 18:14:49.931676  2573 net.cpp:408] sigmoid-dsn1 -> sigmoid-dsn1
I1118 18:14:49.932909  2573 net.cpp:150] Setting up sigmoid-dsn1
I1118 18:14:49.932920  2573 net.cpp:157] Top shape: 1 1 500 500 (250000)
I1118 18:14:49.932922  2573 net.cpp:165] Memory required for data: 1148050968
I1118 18:14:49.932925  2573 layer_factory.hpp:77] Creating layer rev-dsn1
I1118 18:14:49.932930  2573 net.cpp:100] Creating Layer rev-dsn1
I1118 18:14:49.932934  2573 net.cpp:434] rev-dsn1 <- sigmoid-dsn1
I1118 18:14:49.932938  2573 net.cpp:408] rev-dsn1 -> rev-dsn1
I1118 18:14:49.932957  2573 net.cpp:150] Setting up rev-dsn1
I1118 18:14:49.932960  2573 net.cpp:157] Top shape: 1 1 500 500 (250000)
I1118 18:14:49.932962  2573 net.cpp:165] Memory required for data: 1149050968
I1118 18:14:49.932965  2573 layer_factory.hpp:77] Creating layer tile-dsn1
I1118 18:14:49.932970  2573 net.cpp:100] Creating Layer tile-dsn1
I1118 18:14:49.932971  2573 net.cpp:434] tile-dsn1 <- rev-dsn1
I1118 18:14:49.932976  2573 net.cpp:408] tile-dsn1 -> weight-dsn1
I1118 18:14:49.932991  2573 net.cpp:150] Setting up tile-dsn1
I1118 18:14:49.932994  2573 net.cpp:157] Top shape: 1 64 500 500 (16000000)
I1118 18:14:49.932996  2573 net.cpp:165] Memory required for data: 1213050968
I1118 18:14:49.932998  2573 layer_factory.hpp:77] Creating layer prod1-dsn1
I1118 18:14:49.933002  2573 net.cpp:100] Creating Layer prod1-dsn1
I1118 18:14:49.933005  2573 net.cpp:434] prod1-dsn1 <- conv1_2_relu1_2_0_split_1
I1118 18:14:49.933008  2573 net.cpp:434] prod1-dsn1 <- weight-dsn1
I1118 18:14:49.933013  2573 net.cpp:408] prod1-dsn1 -> prod1-dsn1
I1118 18:14:49.933027  2573 net.cpp:150] Setting up prod1-dsn1
I1118 18:14:49.933030  2573 net.cpp:157] Top shape: 1 64 500 500 (16000000)
I1118 18:14:49.933032  2573 net.cpp:165] Memory required for data: 1277050968
I1118 18:14:49.933034  2573 layer_factory.hpp:77] Creating layer conv1-dsn1
I1118 18:14:49.933040  2573 net.cpp:100] Creating Layer conv1-dsn1
I1118 18:14:49.933043  2573 net.cpp:434] conv1-dsn1 <- prod1-dsn1
I1118 18:14:49.933048  2573 net.cpp:408] conv1-dsn1 -> conv1-dsn1
I1118 18:14:49.934479  2573 net.cpp:150] Setting up conv1-dsn1
I1118 18:14:49.934491  2573 net.cpp:157] Top shape: 1 64 500 500 (16000000)
I1118 18:14:49.934494  2573 net.cpp:165] Memory required for data: 1341050968
I1118 18:14:49.934499  2573 layer_factory.hpp:77] Creating layer conv2-dsn1
I1118 18:14:49.934520  2573 net.cpp:100] Creating Layer conv2-dsn1
I1118 18:14:49.934523  2573 net.cpp:434] conv2-dsn1 <- conv1-dsn1
I1118 18:14:49.934528  2573 net.cpp:408] conv2-dsn1 -> conv2-dsn1
I1118 18:14:49.935545  2573 net.cpp:150] Setting up conv2-dsn1
I1118 18:14:49.935557  2573 net.cpp:157] Top shape: 1 64 500 500 (16000000)
I1118 18:14:49.935559  2573 net.cpp:165] Memory required for data: 1405050968
I1118 18:14:49.935564  2573 layer_factory.hpp:77] Creating layer relu1-dsn1
I1118 18:14:49.935570  2573 net.cpp:100] Creating Layer relu1-dsn1
I1118 18:14:49.935572  2573 net.cpp:434] relu1-dsn1 <- conv2-dsn1
I1118 18:14:49.935576  2573 net.cpp:395] relu1-dsn1 -> conv2-dsn1 (in-place)
I1118 18:14:49.935637  2573 net.cpp:150] Setting up relu1-dsn1
I1118 18:14:49.935644  2573 net.cpp:157] Top shape: 1 64 500 500 (16000000)
I1118 18:14:49.935657  2573 net.cpp:165] Memory required for data: 1469050968
I1118 18:14:49.935658  2573 layer_factory.hpp:77] Creating layer conv3-dsn1
I1118 18:14:49.935667  2573 net.cpp:100] Creating Layer conv3-dsn1
I1118 18:14:49.935669  2573 net.cpp:434] conv3-dsn1 <- conv2-dsn1
I1118 18:14:49.935675  2573 net.cpp:408] conv3-dsn1 -> conv3-dsn1
I1118 18:14:49.937377  2573 net.cpp:150] Setting up conv3-dsn1
I1118 18:14:49.937388  2573 net.cpp:157] Top shape: 1 64 500 500 (16000000)
I1118 18:14:49.937391  2573 net.cpp:165] Memory required for data: 1533050968
I1118 18:14:49.937395  2573 layer_factory.hpp:77] Creating layer relu2-dsn1
I1118 18:14:49.937400  2573 net.cpp:100] Creating Layer relu2-dsn1
I1118 18:14:49.937403  2573 net.cpp:434] relu2-dsn1 <- conv3-dsn1
I1118 18:14:49.937407  2573 net.cpp:395] relu2-dsn1 -> conv3-dsn1 (in-place)
I1118 18:14:49.937557  2573 net.cpp:150] Setting up relu2-dsn1
I1118 18:14:49.937566  2573 net.cpp:157] Top shape: 1 64 500 500 (16000000)
I1118 18:14:49.937568  2573 net.cpp:165] Memory required for data: 1597050968
I1118 18:14:49.937572  2573 layer_factory.hpp:77] Creating layer conv4-dsn1
I1118 18:14:49.937578  2573 net.cpp:100] Creating Layer conv4-dsn1
I1118 18:14:49.937582  2573 net.cpp:434] conv4-dsn1 <- conv3-dsn1
I1118 18:14:49.937587  2573 net.cpp:408] conv4-dsn1 -> conv4-dsn1
I1118 18:14:49.938208  2573 net.cpp:150] Setting up conv4-dsn1
I1118 18:14:49.938218  2573 net.cpp:157] Top shape: 1 1 500 500 (250000)
I1118 18:14:49.938220  2573 net.cpp:165] Memory required for data: 1598050968
I1118 18:14:49.938225  2573 layer_factory.hpp:77] Creating layer sum-dsn1
I1118 18:14:49.938231  2573 net.cpp:100] Creating Layer sum-dsn1
I1118 18:14:49.938233  2573 net.cpp:434] sum-dsn1 <- conv4-dsn1
I1118 18:14:49.938237  2573 net.cpp:434] sum-dsn1 <- upscore-dsn2_crop2-dsn2_0_split_2
I1118 18:14:49.938242  2573 net.cpp:408] sum-dsn1 -> sum-dsn1
I1118 18:14:49.938263  2573 net.cpp:150] Setting up sum-dsn1
I1118 18:14:49.938267  2573 net.cpp:157] Top shape: 1 1 500 500 (250000)
I1118 18:14:49.938269  2573 net.cpp:165] Memory required for data: 1599050968
I1118 18:14:49.938271  2573 layer_factory.hpp:77] Creating layer crop2-dsn1
I1118 18:14:49.938275  2573 net.cpp:100] Creating Layer crop2-dsn1
I1118 18:14:49.938278  2573 net.cpp:434] crop2-dsn1 <- sum-dsn1
I1118 18:14:49.938282  2573 net.cpp:434] crop2-dsn1 <- data_data_0_split_6
I1118 18:14:49.938285  2573 net.cpp:408] crop2-dsn1 -> upscore-dsn1
I1118 18:14:49.938307  2573 net.cpp:150] Setting up crop2-dsn1
I1118 18:14:49.938310  2573 net.cpp:157] Top shape: 1 1 500 500 (250000)
I1118 18:14:49.938311  2573 net.cpp:165] Memory required for data: 1600050968
I1118 18:14:49.938314  2573 layer_factory.hpp:77] Creating layer loss1-score
I1118 18:14:49.938320  2573 net.cpp:100] Creating Layer loss1-score
I1118 18:14:49.938323  2573 net.cpp:434] loss1-score <- upscore-dsn1
I1118 18:14:49.938325  2573 net.cpp:434] loss1-score <- label_data_1_split_5
I1118 18:14:49.938330  2573 net.cpp:408] loss1-score -> loss1-score
…
