…
I1121 17:03:39.696679  4137 net.cpp:58] Initializing net from parameters: 
name: "RAS"
state {
  phase: TRAIN
}
layer {
  name: "data"
  type: "ImageLabelmapData"
  top: "data_unaugmented"
  top: "label_unaugmented"
  include {
    phase: TRAIN
  }
  transform_param {
    mean_value: 104.00699
    mean_value: 116.66877
    mean_value: 122.67892
  }
  image_data_param {
    source: "/media/compute/homes/galberding/FleckDetect/Datasets/train.txt"
    batch_size: 1
    shuffle: true
    new_height: 500
    new_width: 500
    root_folder: "/media/compute/homes/galberding/FleckDetect/Datasets/"
    normalize: true
  }
}
layer {
  name: "augmentation"
  type: "Python"
  bottom: "data_unaugmented"
  bottom: "label_unaugmented"
  top: "data"
  top: "label"
  include {
    phase: TRAIN
  }
  python_param {
    module: "data_augmentation"
    layer: "DataAugmentation"
  }
}
layer {
  name: "conv1_1"
  type: "Convolution"
  bottom: "data"
  top: "conv1_1"
  param {
    lr_mult: 1
    decay_mult: 1
  }
  param {
    lr_mult: 2
    decay_mult: 0
  }
  convolution_param {
    num_output: 64
    pad: 1
    kernel_size: 3
    engine: CUDNN
  }
}
layer {
  name: "relu1_1"
  type: "ReLU"
  bottom: "conv1_1"
  top: "conv1_1"
}
layer {
  name: "conv1_2"
  type: "Convolution"
  bottom: "conv1_1"
  top: "conv1_2"
  param {
    lr_mult: 1
    decay_mult: 1
  }
  param {
    lr_mult: 2
    decay_mult: 0
  }
  convolution_param {
    num_output: 64
    pad: 1
    kernel_size: 3
    engine: CUDNN
  }
}
layer {
  name: "relu1_2"
  type: "ReLU"
  bottom: "conv1_2"
  top: "conv1_2"
}
layer {
  name: "pool1"
  type: "Pooling"
  bottom: "conv1_2"
  top: "pool1"
  pooling_param {
    pool: MAX
    kernel_size: 2
    stride: 2
  }
}
layer {
  name: "conv2_1"
  type: "Convolution"
  bottom: "pool1"
  top: "conv2_1"
  param {
    lr_mult: 1
    decay_mult: 1
  }
  param {
    lr_mult: 2
    decay_mult: 0
  }
  convolution_param {
    num_output: 128
    pad: 1
    kernel_size: 3
    engine: CUDNN
  }
}
layer {
  name: "relu2_1"
  type: "ReLU"
  bottom: "conv2_1"
  top: "conv2_1"
}
layer {
  name: "conv2_2"
  type: "Convolution"
  bottom: "conv2_1"
  top: "conv2_2"
  param {
    lr_mult: 1
    decay_mult: 1
  }
  param {
    lr_mult: 2
    decay_mult: 0
  }
  convolution_param {
    num_output: 128
    pad: 1
    kernel_size: 3
    engine: CUDNN
  }
}
layer {
  name: "relu2_2"
  type: "ReLU"
  bottom: "conv2_2"
  top: "conv2_2"
}
layer {
  name: "pool2"
  type: "Pooling"
  bottom: "conv2_2"
  top: "pool2"
  pooling_param {
    pool: MAX
    kernel_size: 2
    stride: 2
  }
}
layer {
  name: "conv3_1"
  type: "Convolution"
  bottom: "pool2"
  top: "conv3_1"
  param {
    lr_mult: 1
    decay_mult: 1
  }
  param {
    lr_mult: 2
    decay_mult: 0
  }
  convolution_param {
    num_output: 256
    pad: 1
    kernel_size: 3
    engine: CUDNN
  }
}
layer {
  name: "relu3_1"
  type: "ReLU"
  bottom: "conv3_1"
  top: "conv3_1"
}
layer {
  name: "conv3_2"
  type: "Convolution"
  bottom: "conv3_1"
  top: "conv3_2"
  param {
    lr_mult: 1
    decay_mult: 1
  }
  param {
    lr_mult: 2
    decay_mult: 0
  }
  convolution_param {
    num_output: 256
    pad: 1
    kernel_size: 3
    engine: CUDNN
  }
}
layer {
  name: "relu3_2"
  type: "ReLU"
  bottom: "conv3_2"
  top: "conv3_2"
}
layer {
  name: "conv3_3"
  type: "Convolution"
  bottom: "conv3_2"
  top: "conv3_3"
  param {
    lr_mult: 1
    decay_mult: 1
  }
  param {
    lr_mult: 2
    decay_mult: 0
  }
  convolution_param {
    num_output: 256
    pad: 1
    kernel_size: 3
    engine: CUDNN
  }
}
layer {
  name: "relu3_3"
  type: "ReLU"
  bottom: "conv3_3"
  top: "conv3_3"
}
layer {
  name: "pool3"
  type: "Pooling"
  bottom: "conv3_3"
  top: "pool3"
  pooling_param {
    pool: MAX
    kernel_size: 2
    stride: 2
  }
}
layer {
  name: "conv4_1"
  type: "Convolution"
  bottom: "pool3"
  top: "conv4_1"
  param {
    lr_mult: 1
    decay_mult: 1
  }
  param {
    lr_mult: 2
    decay_mult: 0
  }
  convolution_param {
    num_output: 512
    pad: 1
    kernel_size: 3
    engine: CUDNN
  }
}
layer {
  name: "relu4_1"
  type: "ReLU"
  bottom: "conv4_1"
  top: "conv4_1"
}
layer {
  name: "conv4_2"
  type: "Convolution"
  bottom: "conv4_1"
  top: "conv4_2"
  param {
    lr_mult: 1
    decay_mult: 1
  }
  param {
    lr_mult: 2
    decay_mult: 0
  }
  convolution_param {
    num_output: 512
    pad: 1
    kernel_size: 3
    engine: CUDNN
  }
}
layer {
  name: "relu4_2"
  type: "ReLU"
  bottom: "conv4_2"
  top: "conv4_2"
}
layer {
  name: "conv4_3"
  type: "Convolution"
  bottom: "conv4_2"
  top: "conv4_3"
  param {
    lr_mult: 1
    decay_mult: 1
  }
  param {
    lr_mult: 2
    decay_mult: 0
  }
  convolution_param {
    num_output: 512
    pad: 1
    kernel_size: 3
    engine: CUDNN
  }
}
layer {
  name: "relu4_3"
  type: "ReLU"
  bottom: "conv4_3"
  top: "conv4_3"
}
layer {
  name: "pool4"
  type: "Pooling"
  bottom: "conv4_3"
  top: "pool4"
  pooling_param {
    pool: MAX
    kernel_size: 3
    stride: 2
    pad: 1
  }
}
layer {
  name: "conv5_1"
  type: "Convolution"
  bottom: "pool4"
  top: "conv5_1"
  param {
    lr_mult: 1
    decay_mult: 1
  }
  param {
    lr_mult: 2
    decay_mult: 0
  }
  convolution_param {
    num_output: 512
    pad: 1
    kernel_size: 3
    engine: CUDNN
  }
}
layer {
  name: "relu5_1"
  type: "ReLU"
  bottom: "conv5_1"
  top: "conv5_1"
}
layer {
  name: "conv5_2"
  type: "Convolution"
  bottom: "conv5_1"
  top: "conv5_2"
  param {
    lr_mult: 1
    decay_mult: 1
  }
  param {
    lr_mult: 2
    decay_mult: 0
  }
  convolution_param {
    num_output: 512
    pad: 1
    kernel_size: 3
    engine: CUDNN
  }
}
layer {
  name: "relu5_2"
  type: "ReLU"
  bottom: "conv5_2"
  top: "conv5_2"
}
layer {
  name: "conv5_3"
  type: "Convolution"
  bottom: "conv5_2"
  top: "conv5_3"
  param {
    lr_mult: 1
    decay_mult: 1
  }
  param {
    lr_mult: 2
    decay_mult: 0
  }
  convolution_param {
    num_output: 512
    pad: 1
    kernel_size: 3
    engine: CUDNN
  }
}
layer {
  name: "relu5_3"
  type: "ReLU"
  bottom: "conv5_3"
  top: "conv5_3"
}
layer {
  name: "pool5"
  type: "Pooling"
  bottom: "conv5_3"
  top: "pool5"
  pooling_param {
    pool: MAX
    kernel_size: 3
    stride: 2
    pad: 1
  }
}
layer {
  name: "conv1-dsn6"
  type: "Convolution"
  bottom: "pool5"
  top: "conv1-dsn6"
  param {
    lr_mult: 1
    decay_mult: 1
  }
  param {
    lr_mult: 2
    decay_mult: 0
  }
  convolution_param {
    num_output: 256
    kernel_size: 1
    weight_filler {
      type: "gaussian"
      std: 0.01
    }
    bias_filler {
      type: "constant"
      value: 0
    }
    engine: CUDNN
  }
}
layer {
  name: "conv2-dsn6"
  type: "Convolution"
  bottom: "conv1-dsn6"
  top: "conv2-dsn6"
  param {
    lr_mult: 1
    decay_mult: 1
  }
  param {
    lr_mult: 2
    decay_mult: 0
  }
  convolution_param {
    num_output: 256
    pad: 2
    kernel_size: 5
    weight_filler {
      type: "gaussian"
      std: 0.01
    }
    bias_filler {
      type: "constant"
      value: 0
    }
    engine: CUDNN
  }
}
layer {
  name: "relu1-dsn6"
  type: "ReLU"
  bottom: "conv2-dsn6"
  top: "conv2-dsn6"
}
layer {
  name: "conv3-dsn6"
  type: "Convolution"
  bottom: "conv2-dsn6"
  top: "conv3-dsn6"
  param {
    lr_mult: 1
    decay_mult: 1
  }
  param {
    lr_mult: 2
    decay_mult: 0
  }
  convolution_param {
    num_output: 256
    pad: 2
    kernel_size: 5
    weight_filler {
      type: "gaussian"
      std: 0.01
    }
    bias_filler {
      type: "constant"
      value: 0
    }
    engine: CUDNN
  }
}
layer {
  name: "relu2-dsn6"
  type: "ReLU"
  bottom: "conv3-dsn6"
  top: "conv3-dsn6"
}
layer {
  name: "conv4-dsn6"
  type: "Convolution"
  bottom: "conv3-dsn6"
  top: "conv4-dsn6"
  param {
    lr_mult: 1
    decay_mult: 1
  }
  param {
    lr_mult: 2
    decay_mult: 0
  }
  convolution_param {
    num_output: 256
    pad: 2
    kernel_size: 5
    weight_filler {
      type: "gaussian"
      std: 0.01
    }
    bias_filler {
      type: "constant"
      value: 0
    }
    engine: CUDNN
  }
}
layer {
  name: "relu3-dsn6"
  type: "ReLU"
  bottom: "conv4-dsn6"
  top: "conv4-dsn6"
}
layer {
  name: "conv5-dsn6"
  type: "Convolution"
  bottom: "conv4-dsn6"
  top: "conv5-dsn6"
  param {
    lr_mult: 0.1
    decay_mult: 1
  }
  param {
    lr_mult: 0.2
    decay_mult: 0
  }
  convolution_param {
    num_output: 1
    kernel_size: 1
    weight_filler {
      type: "gaussian"
      std: 0.01
    }
    bias_filler {
      type: "constant"
      value: 0
    }
    engine: CUDNN
  }
}
layer {
  name: "upsample32_dsn6"
  type: "Deconvolution"
  bottom: "conv5-dsn6"
  top: "conv5-dsn6-up"
  param {
    lr_mult: 0
    decay_mult: 1
  }
  param {
    lr_mult: 0
    decay_mult: 0
  }
  convolution_param {
    num_output: 1
    kernel_size: 64
    stride: 32
  }
}
layer {
  name: "crop-dsn6"
  type: "Crop"
  bottom: "conv5-dsn6-up"
  bottom: "data"
  top: "upscore-dsn6"
}
layer {
  name: "loss6-score"
  type: "SigmoidCrossEntropyLoss"
  bottom: "upscore-dsn6"
  bottom: "label"
  top: "loss6-score"
  loss_weight: 1
}
layer {
  name: "upsample2_dsn5"
  type: "Deconvolution"
  bottom: "conv5-dsn6"
  top: "conv5-dsn6-5"
  param {
    lr_mult: 0
    decay_mult: 1
  }
  param {
    lr_mult: 0
    decay_mult: 0
  }
  convolution_param {
    num_output: 1
    kernel_size: 4
    stride: 2
  }
}
layer {
  name: "crop1-dsn5"
  type: "Crop"
  bottom: "conv5-dsn6-5"
  bottom: "conv5_3"
  top: "weight-dsn6-5"
}
layer {
  name: "sigmoid-dsn5"
  type: "Sigmoid"
  bottom: "weight-dsn6-5"
  top: "sigmoid-dsn5"
}
layer {
  name: "rev-dsn5"
  type: "Power"
  bottom: "sigmoid-dsn5"
  top: "rev-dsn5"
  power_param {
    power: 1
    scale: -1
    shift: 1
  }
}
layer {
  name: "tile-dsn5"
  type: "Tile"
  bottom: "rev-dsn5"
  top: "weight-dsn5"
  tile_param {
    tiles: 512
  }
}
layer {
  name: "prod1-dsn5"
  type: "Eltwise"
  bottom: "conv5_3"
  bottom: "weight-dsn5"
  top: "prod1-dsn5"
  eltwise_param {
    operation: PROD
  }
}
layer {
  name: "conv1-dsn5"
  type: "Convolution"
  bottom: "prod1-dsn5"
  top: "conv1-dsn5"
  param {
    lr_mult: 1
    decay_mult: 1
  }
  param {
    lr_mult: 2
    decay_mult: 0
  }
  convolution_param {
    num_output: 64
    kernel_size: 1
    weight_filler {
      type: "gaussian"
      std: 0.01
    }
    bias_filler {
      type: "constant"
      value: 0
    }
    engine: CUDNN
  }
}
layer {
  name: "conv2-dsn5"
  type: "Convolution"
  bottom: "conv1-dsn5"
  top: "conv2-dsn5"
  param {
    lr_mult: 1
    decay_mult: 1
  }
  param {
    lr_mult: 2
    decay_mult: 0
  }
  convolution_param {
    num_output: 64
    pad: 1
    kernel_size: 3
    weight_filler {
      type: "gaussian"
      std: 0.01
    }
    bias_filler {
      type: "constant"
      value: 0
    }
    engine: CUDNN
  }
}
layer {
  name: "relu1-dsn5"
  type: "ReLU"
  bottom: "conv2-dsn5"
  top: "conv2-dsn5"
}
layer {
  name: "conv3-dsn5"
  type: "Convolution"
  bottom: "conv2-dsn5"
  top: "conv3-dsn5"
  param {
    lr_mult: 1
    decay_mult: 1
  }
  param {
    lr_mult: 2
    decay_mult: 0
  }
  convolution_param {
    num_output: 64
    pad: 1
    kernel_size: 3
    weight_filler {
      type: "gaussian"
      std: 0.01
    }
    bias_filler {
      type: "constant"
      value: 0
    }
    engine: CUDNN
  }
}
layer {
  name: "relu2-dsn5"
  type: "ReLU"
  bottom: "conv3-dsn5"
  top: "conv3-dsn5"
}
layer {
  name: "conv4-dsn5"
  type: "Convolution"
  bottom: "conv3-dsn5"
  top: "conv4-dsn5"
  param {
    lr_mult: 1
    decay_mult: 1
  }
  param {
    lr_mult: 2
    decay_mult: 0
  }
  convolution_param {
    num_output: 1
    pad: 1
    kernel_size: 3
    weight_filler {
      type: "gaussian"
      std: 0.01
    }
    bias_filler {
      type: "constant"
      value: 0
    }
    engine: CUDNN
  }
}
layer {
  name: "sum-dsn5"
  type: "Eltwise"
  bottom: "conv4-dsn5"
  bottom: "weight-dsn6-5"
  top: "sum-dsn5"
  eltwise_param {
    operation: SUM
  }
}
layer {
  name: "upsample16_dsn5"
  type: "Deconvolution"
  bottom: "sum-dsn5"
  top: "sum-dsn5-up"
  param {
    lr_mult: 0
    decay_mult: 1
  }
  param {
    lr_mult: 0
    decay_mult: 0
  }
  convolution_param {
    num_output: 1
    kernel_size: 32
    stride: 16
  }
}
layer {
  name: "crop2-dsn5"
  type: "Crop"
  bottom: "sum-dsn5-up"
  bottom: "data"
  top: "upscore-dsn5"
}
layer {
  name: "loss5-score"
  type: "SigmoidCrossEntropyLoss"
  bottom: "upscore-dsn5"
  bottom: "label"
  top: "loss5-score"
  loss_weight: 1
}
layer {
  name: "upsample2_dsn4"
  type: "Deconvolution"
  bottom: "sum-dsn5"
  top: "sum-dsn5-4"
  param {
    lr_mult: 0
    decay_mult: 1
  }
  param {
    lr_mult: 0
    decay_mult: 0
  }
  convolution_param {
    num_output: 1
    kernel_size: 4
    stride: 2
  }
}
layer {
  name: "crop1-dsn4"
  type: "Crop"
  bottom: "sum-dsn5-4"
  bottom: "conv4_3"
  top: "weight-dsn5-4"
}
layer {
  name: "sigmoid-dsn4"
  type: "Sigmoid"
  bottom: "weight-dsn5-4"
  top: "sigmoid-dsn4"
}
layer {
  name: "rev-dsn4"
  type: "Power"
  bottom: "sigmoid-dsn4"
  top: "rev-dsn4"
  power_param {
    power: 1
    scale: -1
    shift: 1
  }
}
layer {
  name: "tile-dsn4"
  type: "Tile"
  bottom: "rev-dsn4"
  top: "weight-dsn4"
  tile_param {
    tiles: 512
  }
}
layer {
  name: "prod1-dsn4"
  type: "Eltwise"
  bottom: "conv4_3"
  bottom: "weight-dsn4"
  top: "prod1-dsn4"
  eltwise_param {
    operation: PROD
  }
}
layer {
  name: "conv1-dsn4"
  type: "Convolution"
  bottom: "prod1-dsn4"
  top: "conv1-dsn4"
  param {
    lr_mult: 1
    decay_mult: 1
  }
  param {
    lr_mult: 2
    decay_mult: 0
  }
  convolution_param {
    num_output: 64
    kernel_size: 1
    weight_filler {
      type: "gaussian"
      std: 0.01
    }
    bias_filler {
      type: "constant"
      value: 0
    }
    engine: CUDNN
  }
}
layer {
  name: "conv2-dsn4"
  type: "Convolution"
  bottom: "conv1-dsn4"
  top: "conv2-dsn4"
  param {
    lr_mult: 1
    decay_mult: 1
  }
  param {
    lr_mult: 2
    decay_mult: 0
  }
  convolution_param {
    num_output: 64
    pad: 1
    kernel_size: 3
    weight_filler {
      type: "gaussian"
      std: 0.01
    }
    bias_filler {
      type: "constant"
      value: 0
    }
    engine: CUDNN
  }
}
layer {
  name: "relu1-dsn4"
  type: "ReLU"
  bottom: "conv2-dsn4"
  top: "conv2-dsn4"
}
layer {
  name: "conv3-dsn4"
  type: "Convolution"
  bottom: "conv2-dsn4"
  top: "conv3-dsn4"
  param {
    lr_mult: 1
    decay_mult: 1
  }
  param {
    lr_mult: 2
    decay_mult: 0
  }
  convolution_param {
    num_output: 64
    pad: 1
    kernel_size: 3
    weight_filler {
      type: "gaussian"
      std: 0.01
    }
    bias_filler {
      type: "constant"
      value: 0
    }
    engine: CUDNN
  }
}
layer {
  name: "relu2-dsn4"
  type: "ReLU"
  bottom: "conv3-dsn4"
  top: "conv3-dsn4"
}
layer {
  name: "conv4-dsn4"
  type: "Convolution"
  bottom: "conv3-dsn4"
  top: "conv4-dsn4"
  param {
    lr_mult: 1
    decay_mult: 1
  }
  param {
    lr_mult: 2
    decay_mult: 0
  }
  convolution_param {
    num_output: 1
    pad: 1
    kernel_size: 3
    weight_filler {
      type: "gaussian"
      std: 0.01
    }
    bias_filler {
      type: "constant"
      value: 0
    }
    engine: CUDNN
  }
}
layer {
  name: "sum-dsn4"
  type: "Eltwise"
  bottom: "conv4-dsn4"
  bottom: "weight-dsn5-4"
  top: "sum-dsn4"
  eltwise_param {
    operation: SUM
  }
}
layer {
  name: "upsample8_dsn4"
  type: "Deconvolution"
  bottom: "sum-dsn4"
  top: "sum-dsn4-up"
  param {
    lr_mult: 0
    decay_mult: 1
  }
  param {
    lr_mult: 0
    decay_mult: 0
  }
  convolution_param {
    num_output: 1
    kernel_size: 16
    stride: 8
  }
}
layer {
  name: "crop2-dsn4"
  type: "Crop"
  bottom: "sum-dsn4-up"
  bottom: "data"
  top: "upscore-dsn4"
}
layer {
  name: "loss4-score"
  type: "SigmoidCrossEntropyLoss"
  bottom: "upscore-dsn4"
  bottom: "label"
  top: "loss4-score"
  loss_weight: 1
}
layer {
  name: "upsample2_dsn3"
  type: "Deconvolution"
  bottom: "sum-dsn4"
  top: "sum-dsn4-3"
  param {
    lr_mult: 0
    decay_mult: 1
  }
  param {
    lr_mult: 0
    decay_mult: 0
  }
  convolution_param {
    num_output: 1
    kernel_size: 4
    stride: 2
  }
}
layer {
  name: "crop1-dsn3"
  type: "Crop"
  bottom: "sum-dsn4-3"
  bottom: "conv3_3"
  top: "weight-dsn4-3"
}
layer {
  name: "sigmoid-dsn3"
  type: "Sigmoid"
  bottom: "weight-dsn4-3"
  top: "sigmoid-dsn3"
}
layer {
  name: "rev-dsn3"
  type: "Power"
  bottom: "sigmoid-dsn3"
  top: "rev-dsn3"
  power_param {
    power: 1
    scale: -1
    shift: 1
  }
}
layer {
  name: "tile-dsn3"
  type: "Tile"
  bottom: "rev-dsn3"
  top: "weight-dsn3"
  tile_param {
    tiles: 256
  }
}
layer {
  name: "prod1-dsn3"
  type: "Eltwise"
  bottom: "conv3_3"
  bottom: "weight-dsn3"
  top: "prod1-dsn3"
  eltwise_param {
    operation: PROD
  }
}
layer {
  name: "conv1-dsn3"
  type: "Convolution"
  bottom: "prod1-dsn3"
  top: "conv1-dsn3"
  param {
    lr_mult: 1
    decay_mult: 1
  }
  param {
    lr_mult: 2
    decay_mult: 0
  }
  convolution_param {
    num_output: 64
    kernel_size: 1
    weight_filler {
      type: "gaussian"
      std: 0.01
    }
    bias_filler {
      type: "constant"
      value: 0
    }
    engine: CUDNN
  }
}
layer {
  name: "conv2-dsn3"
  type: "Convolution"
  bottom: "conv1-dsn3"
  top: "conv2-dsn3"
  param {
    lr_mult: 1
    decay_mult: 1
  }
  param {
    lr_mult: 2
    decay_mult: 0
  }
  convolution_param {
    num_output: 64
    pad: 1
    kernel_size: 3
    weight_filler {
      type: "gaussian"
      std: 0.01
    }
    bias_filler {
      type: "constant"
      value: 0
    }
    engine: CUDNN
  }
}
layer {
  name: "relu1-dsn3"
  type: "ReLU"
  bottom: "conv2-dsn3"
  top: "conv2-dsn3"
}
layer {
  name: "conv3-dsn3"
  type: "Convolution"
  bottom: "conv2-dsn3"
  top: "conv3-dsn3"
  param {
    lr_mult: 1
    decay_mult: 1
  }
  param {
    lr_mult: 2
    decay_mult: 0
  }
  convolution_param {
    num_output: 64
    pad: 1
    kernel_size: 3
    weight_filler {
      type: "gaussian"
      std: 0.01
    }
    bias_filler {
      type: "constant"
      value: 0
    }
    engine: CUDNN
  }
}
layer {
  name: "relu2-dsn3"
  type: "ReLU"
  bottom: "conv3-dsn3"
  top: "conv3-dsn3"
}
layer {
  name: "conv4-dsn3"
  type: "Convolution"
  bottom: "conv3-dsn3"
  top: "conv4-dsn3"
  param {
    lr_mult: 1
    decay_mult: 1
  }
  param {
    lr_mult: 2
    decay_mult: 0
  }
  convolution_param {
    num_output: 1
    pad: 1
    kernel_size: 3
    weight_filler {
      type: "gaussian"
      std: 0.01
    }
    bias_filler {
      type: "constant"
      value: 0
    }
    engine: CUDNN
  }
}
layer {
  name: "sum-dsn3"
  type: "Eltwise"
  bottom: "conv4-dsn3"
  bottom: "weight-dsn4-3"
  top: "sum-dsn3"
  eltwise_param {
    operation: SUM
  }
}
layer {
  name: "upsample4_dsn3"
  type: "Deconvolution"
  bottom: "sum-dsn3"
  top: "sum-dsn3-up"
  param {
    lr_mult: 0
    decay_mult: 1
  }
  param {
    lr_mult: 0
    decay_mult: 0
  }
  convolution_param {
    num_output: 1
    kernel_size: 8
    stride: 4
  }
}
layer {
  name: "crop2-dsn3"
  type: "Crop"
  bottom: "sum-dsn3-up"
  bottom: "data"
  top: "upscore-dsn3"
}
layer {
  name: "loss3-score"
  type: "SigmoidCrossEntropyLoss"
  bottom: "upscore-dsn3"
  bottom: "label"
  top: "loss3-score"
  loss_weight: 1
}
layer {
  name: "upsample2_1-dsn2"
  type: "Deconvolution"
  bottom: "sum-dsn3"
  top: "sum-dsn3-2"
  param {
    lr_mult: 0
    decay_mult: 1
  }
  param {
    lr_mult: 0
    decay_mult: 0
  }
  convolution_param {
    num_output: 1
    kernel_size: 4
    stride: 2
  }
}
layer {
  name: "crop1-dsn2"
  type: "Crop"
  bottom: "sum-dsn3-2"
  bottom: "conv2_2"
  top: "weight-dsn3-2"
}
layer {
  name: "sigmoid-dsn2"
  type: "Sigmoid"
  bottom: "weight-dsn3-2"
  top: "sigmoid-dsn2"
}
layer {
  name: "rev-dsn2"
  type: "Power"
  bottom: "sigmoid-dsn2"
  top: "rev-dsn2"
  power_param {
    power: 1
    scale: -1
    shift: 1
  }
}
layer {
  name: "tile-dsn2"
  type: "Tile"
  bottom: "rev-dsn2"
  top: "weight-dsn2"
  tile_param {
    tiles: 128
  }
}
layer {
  name: "prod1-dsn2"
  type: "Eltwise"
  bottom: "conv2_2"
  bottom: "weight-dsn2"
  top: "prod1-dsn2"
  eltwise_param {
    operation: PROD
  }
}
layer {
  name: "conv1-dsn2"
  type: "Convolution"
  bottom: "prod1-dsn2"
  top: "conv1-dsn2"
  param {
    lr_mult: 1
    decay_mult: 1
  }
  param {
    lr_mult: 2
    decay_mult: 0
  }
  convolution_param {
    num_output: 64
    kernel_size: 1
    weight_filler {
      type: "gaussian"
      std: 0.01
    }
    bias_filler {
      type: "constant"
      value: 0
    }
    engine: CUDNN
  }
}
layer {
  name: "conv2-dsn2"
  type: "Convolution"
  bottom: "conv1-dsn2"
  top: "conv2-dsn2"
  param {
    lr_mult: 1
    decay_mult: 1
  }
  param {
    lr_mult: 2
    decay_mult: 0
  }
  convolution_param {
    num_output: 64
    pad: 1
    kernel_size: 3
    weight_filler {
      type: "gaussian"
      std: 0.01
    }
    bias_filler {
      type: "constant"
      value: 0
    }
    engine: CUDNN
  }
}
layer {
  name: "relu1-dsn2"
  type: "ReLU"
  bottom: "conv2-dsn2"
  top: "conv2-dsn2"
}
layer {
  name: "conv3-dsn2"
  type: "Convolution"
  bottom: "conv2-dsn2"
  top: "conv3-dsn2"
  param {
    lr_mult: 1
    decay_mult: 1
  }
  param {
    lr_mult: 2
    decay_mult: 0
  }
  convolution_param {
    num_output: 64
    pad: 1
    kernel_size: 3
    weight_filler {
      type: "gaussian"
      std: 0.01
    }
    bias_filler {
      type: "constant"
      value: 0
    }
    engine: CUDNN
  }
}
layer {
  name: "relu2-dsn2"
  type: "ReLU"
  bottom: "conv3-dsn2"
  top: "conv3-dsn2"
}
layer {
  name: "conv4-dsn2"
  type: "Convolution"
  bottom: "conv3-dsn2"
  top: "conv4-dsn2"
  param {
    lr_mult: 1
    decay_mult: 1
  }
  param {
    lr_mult: 2
    decay_mult: 0
  }
  convolution_param {
    num_output: 1
    pad: 1
    kernel_size: 3
    weight_filler {
      type: "gaussian"
      std: 0.01
    }
    bias_filler {
      type: "constant"
      value: 0
    }
    engine: CUDNN
  }
}
layer {
  name: "sum-dsn2"
  type: "Eltwise"
  bottom: "conv4-dsn2"
  bottom: "weight-dsn3-2"
  top: "sum-dsn2"
  eltwise_param {
    operation: SUM
  }
}
layer {
  name: "upsample2_2-dsn2"
  type: "Deconvolution"
  bottom: "sum-dsn2"
  top: "sum-dsn2-up"
  param {
    lr_mult: 0
    decay_mult: 1
  }
  param {
    lr_mult: 0
    decay_mult: 0
  }
  convolution_param {
    num_output: 1
    kernel_size: 4
    stride: 2
  }
}
layer {
  name: "crop2-dsn2"
  type: "Crop"
  bottom: "sum-dsn2-up"
  bottom: "data"
  top: "upscore-dsn2"
}
layer {
  name: "loss2-score"
  type: "SigmoidCrossEntropyLoss"
  bottom: "upscore-dsn2"
  bottom: "label"
  top: "loss2-score"
  loss_weight: 1
}
layer {
  name: "sigmoid-dsn1"
  type: "Sigmoid"
  bottom: "upscore-dsn2"
  top: "sigmoid-dsn1"
}
layer {
  name: "rev-dsn1"
  type: "Power"
  bottom: "sigmoid-dsn1"
  top: "rev-dsn1"
  power_param {
    power: 1
    scale: -1
    shift: 1
  }
}
layer {
  name: "tile-dsn1"
  type: "Tile"
  bottom: "rev-dsn1"
  top: "weight-dsn1"
  tile_param {
    tiles: 64
  }
}
layer {
  name: "prod1-dsn1"
  type: "Eltwise"
  bottom: "conv1_2"
  bottom: "weight-dsn1"
  top: "prod1-dsn1"
  eltwise_param {
    operation: PROD
  }
}
layer {
  name: "conv1-dsn1"
  type: "Convolution"
  bottom: "prod1-dsn1"
  top: "conv1-dsn1"
  param {
    lr_mult: 1
    decay_mult: 1
  }
  param {
    lr_mult: 2
    decay_mult: 0
  }
  convolution_param {
    num_output: 64
    kernel_size: 1
    weight_filler {
      type: "gaussian"
      std: 0.01
    }
    bias_filler {
      type: "constant"
      value: 0
    }
    engine: CUDNN
  }
}
layer {
  name: "conv2-dsn1"
  type: "Convolution"
  bottom: "conv1-dsn1"
  top: "conv2-dsn1"
  param {
    lr_mult: 1
    decay_mult: 1
  }
  param {
    lr_mult: 2
    decay_mult: 0
  }
  convolution_param {
    num_output: 64
    pad: 1
    kernel_size: 3
    weight_filler {
      type: "gaussian"
      std: 0.01
    }
    bias_filler {
      type: "constant"
      value: 0
    }
    engine: CUDNN
  }
}
layer {
  name: "relu1-dsn1"
  type: "ReLU"
  bottom: "conv2-dsn1"
  top: "conv2-dsn1"
}
layer {
  name: "conv3-dsn1"
  type: "Convolution"
  bottom: "conv2-dsn1"
  top: "conv3-dsn1"
  param {
    lr_mult: 1
    decay_mult: 1
  }
  param {
    lr_mult: 2
    decay_mult: 0
  }
  convolution_param {
    num_output: 64
    pad: 1
    kernel_size: 3
    weight_filler {
      type: "gaussian"
      std: 0.01
    }
    bias_filler {
      type: "constant"
      value: 0
    }
    engine: CUDNN
  }
}
layer {
  name: "relu2-dsn1"
  type: "ReLU"
  bottom: "conv3-dsn1"
  top: "conv3-dsn1"
}
layer {
  name: "conv4-dsn1"
  type: "Convolution"
  bottom: "conv3-dsn1"
  top: "conv4-dsn1"
  param {
    lr_mult: 1
    decay_mult: 1
  }
  param {
    lr_mult: 2
    decay_mult: 0
  }
  convolution_param {
    num_output: 1
    pad: 1
    kernel_size: 3
    weight_filler {
      type: "gaussian"
      std: 0.01
    }
    bias_filler {
      type: "constant"
      value: 0
    }
    engine: CUDNN
  }
}
layer {
  name: "sum-dsn1"
  type: "Eltwise"
  bottom: "conv4-dsn1"
  bottom: "upscore-dsn2"
  top: "sum-dsn1"
  eltwise_param {
    operation: SUM
  }
}
layer {
  name: "crop2-dsn1"
  type: "Crop"
  bottom: "sum-dsn1"
  bottom: "data"
  top: "upscore-dsn1"
}
layer {
  name: "loss1-score"
  type: "SigmoidCrossEntropyLoss"
  bottom: "upscore-dsn1"
  bottom: "label"
  top: "loss1-score"
  loss_weight: 1
}
I1121 17:03:39.697239  4137 layer_factory.hpp:77] Creating layer data
I1121 17:03:39.697258  4137 net.cpp:100] Creating Layer data
I1121 17:03:39.697264  4137 net.cpp:408] data -> data_unaugmented
I1121 17:03:39.697276  4137 net.cpp:408] data -> label_unaugmented
I1121 17:03:39.697305  4137 image_labelmap_data_layer.cpp:41] Opening file /media/compute/homes/galberding/FleckDetect/Datasets/train.txt
I1121 17:03:39.730057  4137 image_labelmap_data_layer.cpp:51] Shuffling data
I1121 17:03:39.731053  4137 image_labelmap_data_layer.cpp:56] A total of 3600 images.
I1121 17:03:41.305377  4137 image_labelmap_data_layer.cpp:110] output data size: 1,3,500,500
I1121 17:03:41.305402  4137 image_labelmap_data_layer.cpp:113] output label size: 1,1,500,500
I1121 17:03:41.316619  4137 net.cpp:150] Setting up data
I1121 17:03:41.316644  4137 net.cpp:157] Top shape: 1 3 500 500 (750000)
I1121 17:03:41.316650  4137 net.cpp:157] Top shape: 1 1 500 500 (250000)
I1121 17:03:41.316653  4137 net.cpp:165] Memory required for data: 4000000
I1121 17:03:41.316663  4137 layer_factory.hpp:77] Creating layer augmentation
I1121 17:03:41.341647  4137 net.cpp:100] Creating Layer augmentation
I1121 17:03:41.341661  4137 net.cpp:434] augmentation <- data_unaugmented
I1121 17:03:41.341668  4137 net.cpp:434] augmentation <- label_unaugmented
I1121 17:03:41.341676  4137 net.cpp:408] augmentation -> data
I1121 17:03:41.341686  4137 net.cpp:408] augmentation -> label
I1121 17:03:41.343791  4137 net.cpp:150] Setting up augmentation
I1121 17:03:41.343806  4137 net.cpp:157] Top shape: 1 3 500 500 (750000)
I1121 17:03:41.343811  4137 net.cpp:157] Top shape: 1 1 500 500 (250000)
I1121 17:03:41.343814  4137 net.cpp:165] Memory required for data: 8000000
I1121 17:03:41.343817  4137 layer_factory.hpp:77] Creating layer data_augmentation_0_split
I1121 17:03:41.343828  4137 net.cpp:100] Creating Layer data_augmentation_0_split
I1121 17:03:41.343832  4137 net.cpp:434] data_augmentation_0_split <- data
I1121 17:03:41.343840  4137 net.cpp:408] data_augmentation_0_split -> data_augmentation_0_split_0
I1121 17:03:41.343849  4137 net.cpp:408] data_augmentation_0_split -> data_augmentation_0_split_1
I1121 17:03:41.343856  4137 net.cpp:408] data_augmentation_0_split -> data_augmentation_0_split_2
I1121 17:03:41.343863  4137 net.cpp:408] data_augmentation_0_split -> data_augmentation_0_split_3
I1121 17:03:41.343868  4137 net.cpp:408] data_augmentation_0_split -> data_augmentation_0_split_4
I1121 17:03:41.343878  4137 net.cpp:408] data_augmentation_0_split -> data_augmentation_0_split_5
I1121 17:03:41.343883  4137 net.cpp:408] data_augmentation_0_split -> data_augmentation_0_split_6
I1121 17:03:41.343973  4137 net.cpp:150] Setting up data_augmentation_0_split
I1121 17:03:41.343981  4137 net.cpp:157] Top shape: 1 3 500 500 (750000)
I1121 17:03:41.343986  4137 net.cpp:157] Top shape: 1 3 500 500 (750000)
I1121 17:03:41.343989  4137 net.cpp:157] Top shape: 1 3 500 500 (750000)
I1121 17:03:41.343992  4137 net.cpp:157] Top shape: 1 3 500 500 (750000)
I1121 17:03:41.343997  4137 net.cpp:157] Top shape: 1 3 500 500 (750000)
I1121 17:03:41.344000  4137 net.cpp:157] Top shape: 1 3 500 500 (750000)
I1121 17:03:41.344004  4137 net.cpp:157] Top shape: 1 3 500 500 (750000)
I1121 17:03:41.344007  4137 net.cpp:165] Memory required for data: 29000000
I1121 17:03:41.344009  4137 layer_factory.hpp:77] Creating layer label_augmentation_1_split
I1121 17:03:41.344017  4137 net.cpp:100] Creating Layer label_augmentation_1_split
I1121 17:03:41.344019  4137 net.cpp:434] label_augmentation_1_split <- label
I1121 17:03:41.344025  4137 net.cpp:408] label_augmentation_1_split -> label_augmentation_1_split_0
I1121 17:03:41.344033  4137 net.cpp:408] label_augmentation_1_split -> label_augmentation_1_split_1
I1121 17:03:41.344038  4137 net.cpp:408] label_augmentation_1_split -> label_augmentation_1_split_2
I1121 17:03:41.344045  4137 net.cpp:408] label_augmentation_1_split -> label_augmentation_1_split_3
I1121 17:03:41.344050  4137 net.cpp:408] label_augmentation_1_split -> label_augmentation_1_split_4
I1121 17:03:41.344056  4137 net.cpp:408] label_augmentation_1_split -> label_augmentation_1_split_5
I1121 17:03:41.344137  4137 net.cpp:150] Setting up label_augmentation_1_split
I1121 17:03:41.344144  4137 net.cpp:157] Top shape: 1 1 500 500 (250000)
I1121 17:03:41.344148  4137 net.cpp:157] Top shape: 1 1 500 500 (250000)
I1121 17:03:41.344152  4137 net.cpp:157] Top shape: 1 1 500 500 (250000)
I1121 17:03:41.344156  4137 net.cpp:157] Top shape: 1 1 500 500 (250000)
I1121 17:03:41.344159  4137 net.cpp:157] Top shape: 1 1 500 500 (250000)
I1121 17:03:41.344163  4137 net.cpp:157] Top shape: 1 1 500 500 (250000)
I1121 17:03:41.344166  4137 net.cpp:165] Memory required for data: 35000000
I1121 17:03:41.344168  4137 layer_factory.hpp:77] Creating layer conv1_1
I1121 17:03:41.344180  4137 net.cpp:100] Creating Layer conv1_1
I1121 17:03:41.344184  4137 net.cpp:434] conv1_1 <- data_augmentation_0_split_0
I1121 17:03:41.344192  4137 net.cpp:408] conv1_1 -> conv1_1
I1121 17:03:42.190910  4137 net.cpp:150] Setting up conv1_1
I1121 17:03:42.190945  4137 net.cpp:157] Top shape: 1 64 500 500 (16000000)
I1121 17:03:42.190949  4137 net.cpp:165] Memory required for data: 99000000
I1121 17:03:42.190968  4137 layer_factory.hpp:77] Creating layer relu1_1
I1121 17:03:42.190979  4137 net.cpp:100] Creating Layer relu1_1
I1121 17:03:42.190982  4137 net.cpp:434] relu1_1 <- conv1_1
I1121 17:03:42.190990  4137 net.cpp:395] relu1_1 -> conv1_1 (in-place)
I1121 17:03:42.191223  4137 net.cpp:150] Setting up relu1_1
I1121 17:03:42.191234  4137 net.cpp:157] Top shape: 1 64 500 500 (16000000)
I1121 17:03:42.191236  4137 net.cpp:165] Memory required for data: 163000000
I1121 17:03:42.191241  4137 layer_factory.hpp:77] Creating layer conv1_2
I1121 17:03:42.191253  4137 net.cpp:100] Creating Layer conv1_2
I1121 17:03:42.191256  4137 net.cpp:434] conv1_2 <- conv1_1
I1121 17:03:42.191263  4137 net.cpp:408] conv1_2 -> conv1_2
I1121 17:03:42.193825  4137 net.cpp:150] Setting up conv1_2
I1121 17:03:42.193840  4137 net.cpp:157] Top shape: 1 64 500 500 (16000000)
I1121 17:03:42.193843  4137 net.cpp:165] Memory required for data: 227000000
I1121 17:03:42.193856  4137 layer_factory.hpp:77] Creating layer relu1_2
I1121 17:03:42.193862  4137 net.cpp:100] Creating Layer relu1_2
I1121 17:03:42.193866  4137 net.cpp:434] relu1_2 <- conv1_2
I1121 17:03:42.193872  4137 net.cpp:395] relu1_2 -> conv1_2 (in-place)
I1121 17:03:42.194064  4137 net.cpp:150] Setting up relu1_2
I1121 17:03:42.194072  4137 net.cpp:157] Top shape: 1 64 500 500 (16000000)
I1121 17:03:42.194075  4137 net.cpp:165] Memory required for data: 291000000
I1121 17:03:42.194078  4137 layer_factory.hpp:77] Creating layer conv1_2_relu1_2_0_split
I1121 17:03:42.194088  4137 net.cpp:100] Creating Layer conv1_2_relu1_2_0_split
I1121 17:03:42.194092  4137 net.cpp:434] conv1_2_relu1_2_0_split <- conv1_2
I1121 17:03:42.194099  4137 net.cpp:408] conv1_2_relu1_2_0_split -> conv1_2_relu1_2_0_split_0
I1121 17:03:42.194106  4137 net.cpp:408] conv1_2_relu1_2_0_split -> conv1_2_relu1_2_0_split_1
I1121 17:03:42.194157  4137 net.cpp:150] Setting up conv1_2_relu1_2_0_split
I1121 17:03:42.194166  4137 net.cpp:157] Top shape: 1 64 500 500 (16000000)
I1121 17:03:42.194170  4137 net.cpp:157] Top shape: 1 64 500 500 (16000000)
I1121 17:03:42.194173  4137 net.cpp:165] Memory required for data: 419000000
I1121 17:03:42.194176  4137 layer_factory.hpp:77] Creating layer pool1
I1121 17:03:42.194182  4137 net.cpp:100] Creating Layer pool1
I1121 17:03:42.194186  4137 net.cpp:434] pool1 <- conv1_2_relu1_2_0_split_0
I1121 17:03:42.194193  4137 net.cpp:408] pool1 -> pool1
I1121 17:03:42.194231  4137 net.cpp:150] Setting up pool1
I1121 17:03:42.194237  4137 net.cpp:157] Top shape: 1 64 250 250 (4000000)
I1121 17:03:42.194241  4137 net.cpp:165] Memory required for data: 435000000
I1121 17:03:42.194243  4137 layer_factory.hpp:77] Creating layer conv2_1
I1121 17:03:42.194252  4137 net.cpp:100] Creating Layer conv2_1
I1121 17:03:42.194255  4137 net.cpp:434] conv2_1 <- pool1
I1121 17:03:42.194262  4137 net.cpp:408] conv2_1 -> conv2_1
I1121 17:03:42.196972  4137 net.cpp:150] Setting up conv2_1
I1121 17:03:42.196990  4137 net.cpp:157] Top shape: 1 128 250 250 (8000000)
I1121 17:03:42.196993  4137 net.cpp:165] Memory required for data: 467000000
I1121 17:03:42.197003  4137 layer_factory.hpp:77] Creating layer relu2_1
I1121 17:03:42.197010  4137 net.cpp:100] Creating Layer relu2_1
I1121 17:03:42.197012  4137 net.cpp:434] relu2_1 <- conv2_1
I1121 17:03:42.197019  4137 net.cpp:395] relu2_1 -> conv2_1 (in-place)
I1121 17:03:42.197227  4137 net.cpp:150] Setting up relu2_1
I1121 17:03:42.197235  4137 net.cpp:157] Top shape: 1 128 250 250 (8000000)
I1121 17:03:42.197238  4137 net.cpp:165] Memory required for data: 499000000
I1121 17:03:42.197242  4137 layer_factory.hpp:77] Creating layer conv2_2
I1121 17:03:42.197250  4137 net.cpp:100] Creating Layer conv2_2
I1121 17:03:42.197253  4137 net.cpp:434] conv2_2 <- conv2_1
I1121 17:03:42.197259  4137 net.cpp:408] conv2_2 -> conv2_2
I1121 17:03:42.198879  4137 net.cpp:150] Setting up conv2_2
I1121 17:03:42.198896  4137 net.cpp:157] Top shape: 1 128 250 250 (8000000)
I1121 17:03:42.198899  4137 net.cpp:165] Memory required for data: 531000000
I1121 17:03:42.198906  4137 layer_factory.hpp:77] Creating layer relu2_2
I1121 17:03:42.198911  4137 net.cpp:100] Creating Layer relu2_2
I1121 17:03:42.198915  4137 net.cpp:434] relu2_2 <- conv2_2
I1121 17:03:42.198920  4137 net.cpp:395] relu2_2 -> conv2_2 (in-place)
I1121 17:03:42.199122  4137 net.cpp:150] Setting up relu2_2
I1121 17:03:42.199142  4137 net.cpp:157] Top shape: 1 128 250 250 (8000000)
I1121 17:03:42.199146  4137 net.cpp:165] Memory required for data: 563000000
I1121 17:03:42.199149  4137 layer_factory.hpp:77] Creating layer conv2_2_relu2_2_0_split
I1121 17:03:42.199157  4137 net.cpp:100] Creating Layer conv2_2_relu2_2_0_split
I1121 17:03:42.199160  4137 net.cpp:434] conv2_2_relu2_2_0_split <- conv2_2
I1121 17:03:42.199168  4137 net.cpp:408] conv2_2_relu2_2_0_split -> conv2_2_relu2_2_0_split_0
I1121 17:03:42.199175  4137 net.cpp:408] conv2_2_relu2_2_0_split -> conv2_2_relu2_2_0_split_1
I1121 17:03:42.199180  4137 net.cpp:408] conv2_2_relu2_2_0_split -> conv2_2_relu2_2_0_split_2
I1121 17:03:42.199236  4137 net.cpp:150] Setting up conv2_2_relu2_2_0_split
I1121 17:03:42.199245  4137 net.cpp:157] Top shape: 1 128 250 250 (8000000)
I1121 17:03:42.199249  4137 net.cpp:157] Top shape: 1 128 250 250 (8000000)
I1121 17:03:42.199252  4137 net.cpp:157] Top shape: 1 128 250 250 (8000000)
I1121 17:03:42.199255  4137 net.cpp:165] Memory required for data: 659000000
I1121 17:03:42.199259  4137 layer_factory.hpp:77] Creating layer pool2
I1121 17:03:42.199265  4137 net.cpp:100] Creating Layer pool2
I1121 17:03:42.199267  4137 net.cpp:434] pool2 <- conv2_2_relu2_2_0_split_0
I1121 17:03:42.199273  4137 net.cpp:408] pool2 -> pool2
I1121 17:03:42.199309  4137 net.cpp:150] Setting up pool2
I1121 17:03:42.199316  4137 net.cpp:157] Top shape: 1 128 125 125 (2000000)
I1121 17:03:42.199321  4137 net.cpp:165] Memory required for data: 667000000
I1121 17:03:42.199322  4137 layer_factory.hpp:77] Creating layer conv3_1
I1121 17:03:42.199334  4137 net.cpp:100] Creating Layer conv3_1
I1121 17:03:42.199337  4137 net.cpp:434] conv3_1 <- pool2
I1121 17:03:42.199342  4137 net.cpp:408] conv3_1 -> conv3_1
I1121 17:03:42.202144  4137 net.cpp:150] Setting up conv3_1
I1121 17:03:42.202158  4137 net.cpp:157] Top shape: 1 256 125 125 (4000000)
I1121 17:03:42.202162  4137 net.cpp:165] Memory required for data: 683000000
I1121 17:03:42.202172  4137 layer_factory.hpp:77] Creating layer relu3_1
I1121 17:03:42.202178  4137 net.cpp:100] Creating Layer relu3_1
I1121 17:03:42.202181  4137 net.cpp:434] relu3_1 <- conv3_1
I1121 17:03:42.202186  4137 net.cpp:395] relu3_1 -> conv3_1 (in-place)
I1121 17:03:42.202675  4137 net.cpp:150] Setting up relu3_1
I1121 17:03:42.202688  4137 net.cpp:157] Top shape: 1 256 125 125 (4000000)
I1121 17:03:42.202692  4137 net.cpp:165] Memory required for data: 699000000
I1121 17:03:42.202694  4137 layer_factory.hpp:77] Creating layer conv3_2
I1121 17:03:42.202703  4137 net.cpp:100] Creating Layer conv3_2
I1121 17:03:42.202706  4137 net.cpp:434] conv3_2 <- conv3_1
I1121 17:03:42.202713  4137 net.cpp:408] conv3_2 -> conv3_2
I1121 17:03:42.205569  4137 net.cpp:150] Setting up conv3_2
I1121 17:03:42.205583  4137 net.cpp:157] Top shape: 1 256 125 125 (4000000)
I1121 17:03:42.205587  4137 net.cpp:165] Memory required for data: 715000000
I1121 17:03:42.205595  4137 layer_factory.hpp:77] Creating layer relu3_2
I1121 17:03:42.205600  4137 net.cpp:100] Creating Layer relu3_2
I1121 17:03:42.205605  4137 net.cpp:434] relu3_2 <- conv3_2
I1121 17:03:42.205610  4137 net.cpp:395] relu3_2 -> conv3_2 (in-place)
I1121 17:03:42.206080  4137 net.cpp:150] Setting up relu3_2
I1121 17:03:42.206092  4137 net.cpp:157] Top shape: 1 256 125 125 (4000000)
I1121 17:03:42.206095  4137 net.cpp:165] Memory required for data: 731000000
I1121 17:03:42.206099  4137 layer_factory.hpp:77] Creating layer conv3_3
I1121 17:03:42.206106  4137 net.cpp:100] Creating Layer conv3_3
I1121 17:03:42.206110  4137 net.cpp:434] conv3_3 <- conv3_2
I1121 17:03:42.206116  4137 net.cpp:408] conv3_3 -> conv3_3
I1121 17:03:42.209280  4137 net.cpp:150] Setting up conv3_3
I1121 17:03:42.209295  4137 net.cpp:157] Top shape: 1 256 125 125 (4000000)
I1121 17:03:42.209298  4137 net.cpp:165] Memory required for data: 747000000
I1121 17:03:42.209306  4137 layer_factory.hpp:77] Creating layer relu3_3
I1121 17:03:42.209311  4137 net.cpp:100] Creating Layer relu3_3
I1121 17:03:42.209316  4137 net.cpp:434] relu3_3 <- conv3_3
I1121 17:03:42.209321  4137 net.cpp:395] relu3_3 -> conv3_3 (in-place)
I1121 17:03:42.209511  4137 net.cpp:150] Setting up relu3_3
I1121 17:03:42.209520  4137 net.cpp:157] Top shape: 1 256 125 125 (4000000)
I1121 17:03:42.209523  4137 net.cpp:165] Memory required for data: 763000000
I1121 17:03:42.209527  4137 layer_factory.hpp:77] Creating layer conv3_3_relu3_3_0_split
I1121 17:03:42.209532  4137 net.cpp:100] Creating Layer conv3_3_relu3_3_0_split
I1121 17:03:42.209535  4137 net.cpp:434] conv3_3_relu3_3_0_split <- conv3_3
I1121 17:03:42.209542  4137 net.cpp:408] conv3_3_relu3_3_0_split -> conv3_3_relu3_3_0_split_0
I1121 17:03:42.209548  4137 net.cpp:408] conv3_3_relu3_3_0_split -> conv3_3_relu3_3_0_split_1
I1121 17:03:42.209560  4137 net.cpp:408] conv3_3_relu3_3_0_split -> conv3_3_relu3_3_0_split_2
I1121 17:03:42.209616  4137 net.cpp:150] Setting up conv3_3_relu3_3_0_split
I1121 17:03:42.209623  4137 net.cpp:157] Top shape: 1 256 125 125 (4000000)
I1121 17:03:42.209627  4137 net.cpp:157] Top shape: 1 256 125 125 (4000000)
I1121 17:03:42.209631  4137 net.cpp:157] Top shape: 1 256 125 125 (4000000)
I1121 17:03:42.209633  4137 net.cpp:165] Memory required for data: 811000000
I1121 17:03:42.209636  4137 layer_factory.hpp:77] Creating layer pool3
I1121 17:03:42.209642  4137 net.cpp:100] Creating Layer pool3
I1121 17:03:42.209645  4137 net.cpp:434] pool3 <- conv3_3_relu3_3_0_split_0
I1121 17:03:42.209650  4137 net.cpp:408] pool3 -> pool3
I1121 17:03:42.209687  4137 net.cpp:150] Setting up pool3
I1121 17:03:42.209693  4137 net.cpp:157] Top shape: 1 256 63 63 (1016064)
I1121 17:03:42.209697  4137 net.cpp:165] Memory required for data: 815064256
I1121 17:03:42.209699  4137 layer_factory.hpp:77] Creating layer conv4_1
I1121 17:03:42.209707  4137 net.cpp:100] Creating Layer conv4_1
I1121 17:03:42.209709  4137 net.cpp:434] conv4_1 <- pool3
I1121 17:03:42.209713  4137 net.cpp:408] conv4_1 -> conv4_1
I1121 17:03:42.215462  4137 net.cpp:150] Setting up conv4_1
I1121 17:03:42.215478  4137 net.cpp:157] Top shape: 1 512 63 63 (2032128)
I1121 17:03:42.215481  4137 net.cpp:165] Memory required for data: 823192768
I1121 17:03:42.215488  4137 layer_factory.hpp:77] Creating layer relu4_1
I1121 17:03:42.215494  4137 net.cpp:100] Creating Layer relu4_1
I1121 17:03:42.215498  4137 net.cpp:434] relu4_1 <- conv4_1
I1121 17:03:42.215503  4137 net.cpp:395] relu4_1 -> conv4_1 (in-place)
I1121 17:03:42.215709  4137 net.cpp:150] Setting up relu4_1
I1121 17:03:42.215718  4137 net.cpp:157] Top shape: 1 512 63 63 (2032128)
I1121 17:03:42.215721  4137 net.cpp:165] Memory required for data: 831321280
I1121 17:03:42.215724  4137 layer_factory.hpp:77] Creating layer conv4_2
I1121 17:03:42.215734  4137 net.cpp:100] Creating Layer conv4_2
I1121 17:03:42.215736  4137 net.cpp:434] conv4_2 <- conv4_1
I1121 17:03:42.215742  4137 net.cpp:408] conv4_2 -> conv4_2
I1121 17:03:42.223098  4137 net.cpp:150] Setting up conv4_2
I1121 17:03:42.223114  4137 net.cpp:157] Top shape: 1 512 63 63 (2032128)
I1121 17:03:42.223117  4137 net.cpp:165] Memory required for data: 839449792
I1121 17:03:42.223145  4137 layer_factory.hpp:77] Creating layer relu4_2
I1121 17:03:42.223152  4137 net.cpp:100] Creating Layer relu4_2
I1121 17:03:42.223157  4137 net.cpp:434] relu4_2 <- conv4_2
I1121 17:03:42.223163  4137 net.cpp:395] relu4_2 -> conv4_2 (in-place)
I1121 17:03:42.223364  4137 net.cpp:150] Setting up relu4_2
I1121 17:03:42.223383  4137 net.cpp:157] Top shape: 1 512 63 63 (2032128)
I1121 17:03:42.223385  4137 net.cpp:165] Memory required for data: 847578304
I1121 17:03:42.223388  4137 layer_factory.hpp:77] Creating layer conv4_3
I1121 17:03:42.223398  4137 net.cpp:100] Creating Layer conv4_3
I1121 17:03:42.223402  4137 net.cpp:434] conv4_3 <- conv4_2
I1121 17:03:42.223407  4137 net.cpp:408] conv4_3 -> conv4_3
I1121 17:03:42.230484  4137 net.cpp:150] Setting up conv4_3
I1121 17:03:42.230502  4137 net.cpp:157] Top shape: 1 512 63 63 (2032128)
I1121 17:03:42.230505  4137 net.cpp:165] Memory required for data: 855706816
I1121 17:03:42.230512  4137 layer_factory.hpp:77] Creating layer relu4_3
I1121 17:03:42.230518  4137 net.cpp:100] Creating Layer relu4_3
I1121 17:03:42.230522  4137 net.cpp:434] relu4_3 <- conv4_3
I1121 17:03:42.230527  4137 net.cpp:395] relu4_3 -> conv4_3 (in-place)
I1121 17:03:42.230731  4137 net.cpp:150] Setting up relu4_3
I1121 17:03:42.230739  4137 net.cpp:157] Top shape: 1 512 63 63 (2032128)
I1121 17:03:42.230742  4137 net.cpp:165] Memory required for data: 863835328
I1121 17:03:42.230746  4137 layer_factory.hpp:77] Creating layer conv4_3_relu4_3_0_split
I1121 17:03:42.230753  4137 net.cpp:100] Creating Layer conv4_3_relu4_3_0_split
I1121 17:03:42.230757  4137 net.cpp:434] conv4_3_relu4_3_0_split <- conv4_3
I1121 17:03:42.230764  4137 net.cpp:408] conv4_3_relu4_3_0_split -> conv4_3_relu4_3_0_split_0
I1121 17:03:42.230772  4137 net.cpp:408] conv4_3_relu4_3_0_split -> conv4_3_relu4_3_0_split_1
I1121 17:03:42.230777  4137 net.cpp:408] conv4_3_relu4_3_0_split -> conv4_3_relu4_3_0_split_2
I1121 17:03:42.230836  4137 net.cpp:150] Setting up conv4_3_relu4_3_0_split
I1121 17:03:42.230844  4137 net.cpp:157] Top shape: 1 512 63 63 (2032128)
I1121 17:03:42.230849  4137 net.cpp:157] Top shape: 1 512 63 63 (2032128)
I1121 17:03:42.230851  4137 net.cpp:157] Top shape: 1 512 63 63 (2032128)
I1121 17:03:42.230854  4137 net.cpp:165] Memory required for data: 888220864
I1121 17:03:42.230857  4137 layer_factory.hpp:77] Creating layer pool4
I1121 17:03:42.230863  4137 net.cpp:100] Creating Layer pool4
I1121 17:03:42.230866  4137 net.cpp:434] pool4 <- conv4_3_relu4_3_0_split_0
I1121 17:03:42.230873  4137 net.cpp:408] pool4 -> pool4
I1121 17:03:42.230911  4137 net.cpp:150] Setting up pool4
I1121 17:03:42.230919  4137 net.cpp:157] Top shape: 1 512 32 32 (524288)
I1121 17:03:42.230922  4137 net.cpp:165] Memory required for data: 890318016
I1121 17:03:42.230924  4137 layer_factory.hpp:77] Creating layer conv5_1
I1121 17:03:42.230942  4137 net.cpp:100] Creating Layer conv5_1
I1121 17:03:42.230944  4137 net.cpp:434] conv5_1 <- pool4
I1121 17:03:42.230949  4137 net.cpp:408] conv5_1 -> conv5_1
I1121 17:03:42.238021  4137 net.cpp:150] Setting up conv5_1
I1121 17:03:42.238039  4137 net.cpp:157] Top shape: 1 512 32 32 (524288)
I1121 17:03:42.238042  4137 net.cpp:165] Memory required for data: 892415168
I1121 17:03:42.238049  4137 layer_factory.hpp:77] Creating layer relu5_1
I1121 17:03:42.238055  4137 net.cpp:100] Creating Layer relu5_1
I1121 17:03:42.238059  4137 net.cpp:434] relu5_1 <- conv5_1
I1121 17:03:42.238065  4137 net.cpp:395] relu5_1 -> conv5_1 (in-place)
I1121 17:03:42.238616  4137 net.cpp:150] Setting up relu5_1
I1121 17:03:42.238631  4137 net.cpp:157] Top shape: 1 512 32 32 (524288)
I1121 17:03:42.238636  4137 net.cpp:165] Memory required for data: 894512320
I1121 17:03:42.238638  4137 layer_factory.hpp:77] Creating layer conv5_2
I1121 17:03:42.238646  4137 net.cpp:100] Creating Layer conv5_2
I1121 17:03:42.238651  4137 net.cpp:434] conv5_2 <- conv5_1
I1121 17:03:42.238658  4137 net.cpp:408] conv5_2 -> conv5_2
I1121 17:03:42.245426  4137 net.cpp:150] Setting up conv5_2
I1121 17:03:42.245440  4137 net.cpp:157] Top shape: 1 512 32 32 (524288)
I1121 17:03:42.245445  4137 net.cpp:165] Memory required for data: 896609472
I1121 17:03:42.245451  4137 layer_factory.hpp:77] Creating layer relu5_2
I1121 17:03:42.245457  4137 net.cpp:100] Creating Layer relu5_2
I1121 17:03:42.245461  4137 net.cpp:434] relu5_2 <- conv5_2
I1121 17:03:42.245468  4137 net.cpp:395] relu5_2 -> conv5_2 (in-place)
I1121 17:03:42.246011  4137 net.cpp:150] Setting up relu5_2
I1121 17:03:42.246022  4137 net.cpp:157] Top shape: 1 512 32 32 (524288)
I1121 17:03:42.246026  4137 net.cpp:165] Memory required for data: 898706624
I1121 17:03:42.246028  4137 layer_factory.hpp:77] Creating layer conv5_3
I1121 17:03:42.246039  4137 net.cpp:100] Creating Layer conv5_3
I1121 17:03:42.246042  4137 net.cpp:434] conv5_3 <- conv5_2
I1121 17:03:42.246050  4137 net.cpp:408] conv5_3 -> conv5_3
I1121 17:03:42.253212  4137 net.cpp:150] Setting up conv5_3
I1121 17:03:42.253229  4137 net.cpp:157] Top shape: 1 512 32 32 (524288)
I1121 17:03:42.253232  4137 net.cpp:165] Memory required for data: 900803776
I1121 17:03:42.253240  4137 layer_factory.hpp:77] Creating layer relu5_3
I1121 17:03:42.253247  4137 net.cpp:100] Creating Layer relu5_3
I1121 17:03:42.253250  4137 net.cpp:434] relu5_3 <- conv5_3
I1121 17:03:42.253255  4137 net.cpp:395] relu5_3 -> conv5_3 (in-place)
I1121 17:03:42.253466  4137 net.cpp:150] Setting up relu5_3
I1121 17:03:42.253476  4137 net.cpp:157] Top shape: 1 512 32 32 (524288)
I1121 17:03:42.253479  4137 net.cpp:165] Memory required for data: 902900928
I1121 17:03:42.253482  4137 layer_factory.hpp:77] Creating layer conv5_3_relu5_3_0_split
I1121 17:03:42.253489  4137 net.cpp:100] Creating Layer conv5_3_relu5_3_0_split
I1121 17:03:42.253491  4137 net.cpp:434] conv5_3_relu5_3_0_split <- conv5_3
I1121 17:03:42.253499  4137 net.cpp:408] conv5_3_relu5_3_0_split -> conv5_3_relu5_3_0_split_0
I1121 17:03:42.253506  4137 net.cpp:408] conv5_3_relu5_3_0_split -> conv5_3_relu5_3_0_split_1
I1121 17:03:42.253512  4137 net.cpp:408] conv5_3_relu5_3_0_split -> conv5_3_relu5_3_0_split_2
I1121 17:03:42.253574  4137 net.cpp:150] Setting up conv5_3_relu5_3_0_split
I1121 17:03:42.253582  4137 net.cpp:157] Top shape: 1 512 32 32 (524288)
I1121 17:03:42.253584  4137 net.cpp:157] Top shape: 1 512 32 32 (524288)
I1121 17:03:42.253588  4137 net.cpp:157] Top shape: 1 512 32 32 (524288)
I1121 17:03:42.253592  4137 net.cpp:165] Memory required for data: 909192384
I1121 17:03:42.253594  4137 layer_factory.hpp:77] Creating layer pool5
I1121 17:03:42.253600  4137 net.cpp:100] Creating Layer pool5
I1121 17:03:42.253603  4137 net.cpp:434] pool5 <- conv5_3_relu5_3_0_split_0
I1121 17:03:42.253612  4137 net.cpp:408] pool5 -> pool5
I1121 17:03:42.253654  4137 net.cpp:150] Setting up pool5
I1121 17:03:42.253660  4137 net.cpp:157] Top shape: 1 512 17 17 (147968)
I1121 17:03:42.253664  4137 net.cpp:165] Memory required for data: 909784256
I1121 17:03:42.253666  4137 layer_factory.hpp:77] Creating layer conv1-dsn6
I1121 17:03:42.253677  4137 net.cpp:100] Creating Layer conv1-dsn6
I1121 17:03:42.253680  4137 net.cpp:434] conv1-dsn6 <- pool5
I1121 17:03:42.253686  4137 net.cpp:408] conv1-dsn6 -> conv1-dsn6
I1121 17:03:42.257912  4137 net.cpp:150] Setting up conv1-dsn6
I1121 17:03:42.257927  4137 net.cpp:157] Top shape: 1 256 17 17 (73984)
I1121 17:03:42.257930  4137 net.cpp:165] Memory required for data: 910080192
I1121 17:03:42.257937  4137 layer_factory.hpp:77] Creating layer conv2-dsn6
I1121 17:03:42.257951  4137 net.cpp:100] Creating Layer conv2-dsn6
I1121 17:03:42.257956  4137 net.cpp:434] conv2-dsn6 <- conv1-dsn6
I1121 17:03:42.257962  4137 net.cpp:408] conv2-dsn6 -> conv2-dsn6
I1121 17:03:42.279929  4137 net.cpp:150] Setting up conv2-dsn6
I1121 17:03:42.279943  4137 net.cpp:157] Top shape: 1 256 17 17 (73984)
I1121 17:03:42.279947  4137 net.cpp:165] Memory required for data: 910376128
I1121 17:03:42.279953  4137 layer_factory.hpp:77] Creating layer relu1-dsn6
I1121 17:03:42.279959  4137 net.cpp:100] Creating Layer relu1-dsn6
I1121 17:03:42.279963  4137 net.cpp:434] relu1-dsn6 <- conv2-dsn6
I1121 17:03:42.279971  4137 net.cpp:395] relu1-dsn6 -> conv2-dsn6 (in-place)
I1121 17:03:42.280190  4137 net.cpp:150] Setting up relu1-dsn6
I1121 17:03:42.280200  4137 net.cpp:157] Top shape: 1 256 17 17 (73984)
I1121 17:03:42.280202  4137 net.cpp:165] Memory required for data: 910672064
I1121 17:03:42.280206  4137 layer_factory.hpp:77] Creating layer conv3-dsn6
I1121 17:03:42.280217  4137 net.cpp:100] Creating Layer conv3-dsn6
I1121 17:03:42.280220  4137 net.cpp:434] conv3-dsn6 <- conv2-dsn6
I1121 17:03:42.280228  4137 net.cpp:408] conv3-dsn6 -> conv3-dsn6
I1121 17:03:42.302481  4137 net.cpp:150] Setting up conv3-dsn6
I1121 17:03:42.302495  4137 net.cpp:157] Top shape: 1 256 17 17 (73984)
I1121 17:03:42.302498  4137 net.cpp:165] Memory required for data: 910968000
I1121 17:03:42.302505  4137 layer_factory.hpp:77] Creating layer relu2-dsn6
I1121 17:03:42.302512  4137 net.cpp:100] Creating Layer relu2-dsn6
I1121 17:03:42.302516  4137 net.cpp:434] relu2-dsn6 <- conv3-dsn6
I1121 17:03:42.302521  4137 net.cpp:395] relu2-dsn6 -> conv3-dsn6 (in-place)
I1121 17:03:42.302726  4137 net.cpp:150] Setting up relu2-dsn6
I1121 17:03:42.302738  4137 net.cpp:157] Top shape: 1 256 17 17 (73984)
I1121 17:03:42.302740  4137 net.cpp:165] Memory required for data: 911263936
I1121 17:03:42.302743  4137 layer_factory.hpp:77] Creating layer conv4-dsn6
I1121 17:03:42.302754  4137 net.cpp:100] Creating Layer conv4-dsn6
I1121 17:03:42.302757  4137 net.cpp:434] conv4-dsn6 <- conv3-dsn6
I1121 17:03:42.302763  4137 net.cpp:408] conv4-dsn6 -> conv4-dsn6
I1121 17:03:42.319173  4137 net.cpp:150] Setting up conv4-dsn6
I1121 17:03:42.319185  4137 net.cpp:157] Top shape: 1 256 17 17 (73984)
I1121 17:03:42.319187  4137 net.cpp:165] Memory required for data: 911559872
I1121 17:03:42.319200  4137 layer_factory.hpp:77] Creating layer relu3-dsn6
I1121 17:03:42.319206  4137 net.cpp:100] Creating Layer relu3-dsn6
I1121 17:03:42.319208  4137 net.cpp:434] relu3-dsn6 <- conv4-dsn6
I1121 17:03:42.319213  4137 net.cpp:395] relu3-dsn6 -> conv4-dsn6 (in-place)
I1121 17:03:42.319377  4137 net.cpp:150] Setting up relu3-dsn6
I1121 17:03:42.319386  4137 net.cpp:157] Top shape: 1 256 17 17 (73984)
I1121 17:03:42.319388  4137 net.cpp:165] Memory required for data: 911855808
I1121 17:03:42.319391  4137 layer_factory.hpp:77] Creating layer conv5-dsn6
I1121 17:03:42.319399  4137 net.cpp:100] Creating Layer conv5-dsn6
I1121 17:03:42.319402  4137 net.cpp:434] conv5-dsn6 <- conv4-dsn6
I1121 17:03:42.319407  4137 net.cpp:408] conv5-dsn6 -> conv5-dsn6
I1121 17:03:42.320363  4137 net.cpp:150] Setting up conv5-dsn6
I1121 17:03:42.320374  4137 net.cpp:157] Top shape: 1 1 17 17 (289)
I1121 17:03:42.320375  4137 net.cpp:165] Memory required for data: 911856964
I1121 17:03:42.320379  4137 layer_factory.hpp:77] Creating layer conv5-dsn6_conv5-dsn6_0_split
I1121 17:03:42.320386  4137 net.cpp:100] Creating Layer conv5-dsn6_conv5-dsn6_0_split
I1121 17:03:42.320389  4137 net.cpp:434] conv5-dsn6_conv5-dsn6_0_split <- conv5-dsn6
I1121 17:03:42.320394  4137 net.cpp:408] conv5-dsn6_conv5-dsn6_0_split -> conv5-dsn6_conv5-dsn6_0_split_0
I1121 17:03:42.320400  4137 net.cpp:408] conv5-dsn6_conv5-dsn6_0_split -> conv5-dsn6_conv5-dsn6_0_split_1
I1121 17:03:42.320436  4137 net.cpp:150] Setting up conv5-dsn6_conv5-dsn6_0_split
I1121 17:03:42.320442  4137 net.cpp:157] Top shape: 1 1 17 17 (289)
I1121 17:03:42.320444  4137 net.cpp:157] Top shape: 1 1 17 17 (289)
I1121 17:03:42.320446  4137 net.cpp:165] Memory required for data: 911859276
I1121 17:03:42.320454  4137 layer_factory.hpp:77] Creating layer upsample32_dsn6
I1121 17:03:42.320461  4137 net.cpp:100] Creating Layer upsample32_dsn6
I1121 17:03:42.320464  4137 net.cpp:434] upsample32_dsn6 <- conv5-dsn6_conv5-dsn6_0_split_0
I1121 17:03:42.320467  4137 net.cpp:408] upsample32_dsn6 -> conv5-dsn6-up
I1121 17:03:42.320940  4137 net.cpp:150] Setting up upsample32_dsn6
I1121 17:03:42.320946  4137 net.cpp:157] Top shape: 1 1 576 576 (331776)
I1121 17:03:42.320948  4137 net.cpp:165] Memory required for data: 913186380
I1121 17:03:42.320952  4137 layer_factory.hpp:77] Creating layer crop-dsn6
I1121 17:03:42.320957  4137 net.cpp:100] Creating Layer crop-dsn6
I1121 17:03:42.320960  4137 net.cpp:434] crop-dsn6 <- conv5-dsn6-up
I1121 17:03:42.320963  4137 net.cpp:434] crop-dsn6 <- data_augmentation_0_split_1
I1121 17:03:42.320967  4137 net.cpp:408] crop-dsn6 -> upscore-dsn6
I1121 17:03:42.320992  4137 net.cpp:150] Setting up crop-dsn6
I1121 17:03:42.320996  4137 net.cpp:157] Top shape: 1 1 500 500 (250000)
I1121 17:03:42.320997  4137 net.cpp:165] Memory required for data: 914186380
I1121 17:03:42.320999  4137 layer_factory.hpp:77] Creating layer loss6-score
I1121 17:03:42.321007  4137 net.cpp:100] Creating Layer loss6-score
I1121 17:03:42.321008  4137 net.cpp:434] loss6-score <- upscore-dsn6
I1121 17:03:42.321012  4137 net.cpp:434] loss6-score <- label_augmentation_1_split_0
I1121 17:03:42.321017  4137 net.cpp:408] loss6-score -> loss6-score
I1121 17:03:42.322186  4137 net.cpp:150] Setting up loss6-score
I1121 17:03:42.322196  4137 net.cpp:157] Top shape: (1)
I1121 17:03:42.322197  4137 net.cpp:160]     with loss weight 1
I1121 17:03:42.322207  4137 net.cpp:165] Memory required for data: 914186384
I1121 17:03:42.322211  4137 layer_factory.hpp:77] Creating layer upsample2_dsn5
I1121 17:03:42.322217  4137 net.cpp:100] Creating Layer upsample2_dsn5
I1121 17:03:42.322221  4137 net.cpp:434] upsample2_dsn5 <- conv5-dsn6_conv5-dsn6_0_split_1
I1121 17:03:42.322227  4137 net.cpp:408] upsample2_dsn5 -> conv5-dsn6-5
I1121 17:03:42.322433  4137 net.cpp:150] Setting up upsample2_dsn5
I1121 17:03:42.322439  4137 net.cpp:157] Top shape: 1 1 36 36 (1296)
I1121 17:03:42.322441  4137 net.cpp:165] Memory required for data: 914191568
I1121 17:03:42.322445  4137 layer_factory.hpp:77] Creating layer crop1-dsn5
I1121 17:03:42.322450  4137 net.cpp:100] Creating Layer crop1-dsn5
I1121 17:03:42.322453  4137 net.cpp:434] crop1-dsn5 <- conv5-dsn6-5
I1121 17:03:42.322456  4137 net.cpp:434] crop1-dsn5 <- conv5_3_relu5_3_0_split_1
I1121 17:03:42.322461  4137 net.cpp:408] crop1-dsn5 -> weight-dsn6-5
I1121 17:03:42.322482  4137 net.cpp:150] Setting up crop1-dsn5
I1121 17:03:42.322486  4137 net.cpp:157] Top shape: 1 1 32 32 (1024)
I1121 17:03:42.322489  4137 net.cpp:165] Memory required for data: 914195664
I1121 17:03:42.322490  4137 layer_factory.hpp:77] Creating layer weight-dsn6-5_crop1-dsn5_0_split
I1121 17:03:42.322494  4137 net.cpp:100] Creating Layer weight-dsn6-5_crop1-dsn5_0_split
I1121 17:03:42.322496  4137 net.cpp:434] weight-dsn6-5_crop1-dsn5_0_split <- weight-dsn6-5
I1121 17:03:42.322501  4137 net.cpp:408] weight-dsn6-5_crop1-dsn5_0_split -> weight-dsn6-5_crop1-dsn5_0_split_0
I1121 17:03:42.322506  4137 net.cpp:408] weight-dsn6-5_crop1-dsn5_0_split -> weight-dsn6-5_crop1-dsn5_0_split_1
I1121 17:03:42.322535  4137 net.cpp:150] Setting up weight-dsn6-5_crop1-dsn5_0_split
I1121 17:03:42.322540  4137 net.cpp:157] Top shape: 1 1 32 32 (1024)
I1121 17:03:42.322542  4137 net.cpp:157] Top shape: 1 1 32 32 (1024)
I1121 17:03:42.322544  4137 net.cpp:165] Memory required for data: 914203856
I1121 17:03:42.322546  4137 layer_factory.hpp:77] Creating layer sigmoid-dsn5
I1121 17:03:42.322551  4137 net.cpp:100] Creating Layer sigmoid-dsn5
I1121 17:03:42.322553  4137 net.cpp:434] sigmoid-dsn5 <- weight-dsn6-5_crop1-dsn5_0_split_0
I1121 17:03:42.322557  4137 net.cpp:408] sigmoid-dsn5 -> sigmoid-dsn5
I1121 17:03:42.322726  4137 net.cpp:150] Setting up sigmoid-dsn5
I1121 17:03:42.322734  4137 net.cpp:157] Top shape: 1 1 32 32 (1024)
I1121 17:03:42.322737  4137 net.cpp:165] Memory required for data: 914207952
I1121 17:03:42.322739  4137 layer_factory.hpp:77] Creating layer rev-dsn5
I1121 17:03:42.322744  4137 net.cpp:100] Creating Layer rev-dsn5
I1121 17:03:42.322746  4137 net.cpp:434] rev-dsn5 <- sigmoid-dsn5
I1121 17:03:42.322751  4137 net.cpp:408] rev-dsn5 -> rev-dsn5
I1121 17:03:42.322783  4137 net.cpp:150] Setting up rev-dsn5
I1121 17:03:42.322788  4137 net.cpp:157] Top shape: 1 1 32 32 (1024)
I1121 17:03:42.322790  4137 net.cpp:165] Memory required for data: 914212048
I1121 17:03:42.322793  4137 layer_factory.hpp:77] Creating layer tile-dsn5
I1121 17:03:42.322798  4137 net.cpp:100] Creating Layer tile-dsn5
I1121 17:03:42.322799  4137 net.cpp:434] tile-dsn5 <- rev-dsn5
I1121 17:03:42.322803  4137 net.cpp:408] tile-dsn5 -> weight-dsn5
I1121 17:03:42.322823  4137 net.cpp:150] Setting up tile-dsn5
I1121 17:03:42.322829  4137 net.cpp:157] Top shape: 1 512 32 32 (524288)
I1121 17:03:42.322830  4137 net.cpp:165] Memory required for data: 916309200
I1121 17:03:42.322832  4137 layer_factory.hpp:77] Creating layer prod1-dsn5
I1121 17:03:42.322837  4137 net.cpp:100] Creating Layer prod1-dsn5
I1121 17:03:42.322839  4137 net.cpp:434] prod1-dsn5 <- conv5_3_relu5_3_0_split_2
I1121 17:03:42.322842  4137 net.cpp:434] prod1-dsn5 <- weight-dsn5
I1121 17:03:42.322847  4137 net.cpp:408] prod1-dsn5 -> prod1-dsn5
I1121 17:03:42.322866  4137 net.cpp:150] Setting up prod1-dsn5
I1121 17:03:42.322871  4137 net.cpp:157] Top shape: 1 512 32 32 (524288)
I1121 17:03:42.322873  4137 net.cpp:165] Memory required for data: 918406352
I1121 17:03:42.322875  4137 layer_factory.hpp:77] Creating layer conv1-dsn5
I1121 17:03:42.322883  4137 net.cpp:100] Creating Layer conv1-dsn5
I1121 17:03:42.322885  4137 net.cpp:434] conv1-dsn5 <- prod1-dsn5
I1121 17:03:42.322890  4137 net.cpp:408] conv1-dsn5 -> conv1-dsn5
I1121 17:03:42.324139  4137 net.cpp:150] Setting up conv1-dsn5
I1121 17:03:42.324151  4137 net.cpp:157] Top shape: 1 64 32 32 (65536)
I1121 17:03:42.324167  4137 net.cpp:165] Memory required for data: 918668496
I1121 17:03:42.324172  4137 layer_factory.hpp:77] Creating layer conv2-dsn5
I1121 17:03:42.324182  4137 net.cpp:100] Creating Layer conv2-dsn5
I1121 17:03:42.324184  4137 net.cpp:434] conv2-dsn5 <- conv1-dsn5
I1121 17:03:42.324189  4137 net.cpp:408] conv2-dsn5 -> conv2-dsn5
I1121 17:03:42.325462  4137 net.cpp:150] Setting up conv2-dsn5
I1121 17:03:42.325474  4137 net.cpp:157] Top shape: 1 64 32 32 (65536)
I1121 17:03:42.325477  4137 net.cpp:165] Memory required for data: 918930640
I1121 17:03:42.325481  4137 layer_factory.hpp:77] Creating layer relu1-dsn5
I1121 17:03:42.325486  4137 net.cpp:100] Creating Layer relu1-dsn5
I1121 17:03:42.325489  4137 net.cpp:434] relu1-dsn5 <- conv2-dsn5
I1121 17:03:42.325491  4137 net.cpp:395] relu1-dsn5 -> conv2-dsn5 (in-place)
I1121 17:03:42.325904  4137 net.cpp:150] Setting up relu1-dsn5
I1121 17:03:42.325914  4137 net.cpp:157] Top shape: 1 64 32 32 (65536)
I1121 17:03:42.325917  4137 net.cpp:165] Memory required for data: 919192784
I1121 17:03:42.325918  4137 layer_factory.hpp:77] Creating layer conv3-dsn5
I1121 17:03:42.325927  4137 net.cpp:100] Creating Layer conv3-dsn5
I1121 17:03:42.325929  4137 net.cpp:434] conv3-dsn5 <- conv2-dsn5
I1121 17:03:42.325937  4137 net.cpp:408] conv3-dsn5 -> conv3-dsn5
I1121 17:03:42.326920  4137 net.cpp:150] Setting up conv3-dsn5
I1121 17:03:42.326928  4137 net.cpp:157] Top shape: 1 64 32 32 (65536)
I1121 17:03:42.326931  4137 net.cpp:165] Memory required for data: 919454928
I1121 17:03:42.326936  4137 layer_factory.hpp:77] Creating layer relu2-dsn5
I1121 17:03:42.326939  4137 net.cpp:100] Creating Layer relu2-dsn5
I1121 17:03:42.326942  4137 net.cpp:434] relu2-dsn5 <- conv3-dsn5
I1121 17:03:42.326946  4137 net.cpp:395] relu2-dsn5 -> conv3-dsn5 (in-place)
I1121 17:03:42.327363  4137 net.cpp:150] Setting up relu2-dsn5
I1121 17:03:42.327373  4137 net.cpp:157] Top shape: 1 64 32 32 (65536)
I1121 17:03:42.327374  4137 net.cpp:165] Memory required for data: 919717072
I1121 17:03:42.327378  4137 layer_factory.hpp:77] Creating layer conv4-dsn5
I1121 17:03:42.327395  4137 net.cpp:100] Creating Layer conv4-dsn5
I1121 17:03:42.327399  4137 net.cpp:434] conv4-dsn5 <- conv3-dsn5
I1121 17:03:42.327404  4137 net.cpp:408] conv4-dsn5 -> conv4-dsn5
I1121 17:03:42.328354  4137 net.cpp:150] Setting up conv4-dsn5
I1121 17:03:42.328364  4137 net.cpp:157] Top shape: 1 1 32 32 (1024)
I1121 17:03:42.328382  4137 net.cpp:165] Memory required for data: 919721168
I1121 17:03:42.328387  4137 layer_factory.hpp:77] Creating layer sum-dsn5
I1121 17:03:42.328393  4137 net.cpp:100] Creating Layer sum-dsn5
I1121 17:03:42.328397  4137 net.cpp:434] sum-dsn5 <- conv4-dsn5
I1121 17:03:42.328400  4137 net.cpp:434] sum-dsn5 <- weight-dsn6-5_crop1-dsn5_0_split_1
I1121 17:03:42.328404  4137 net.cpp:408] sum-dsn5 -> sum-dsn5
I1121 17:03:42.328430  4137 net.cpp:150] Setting up sum-dsn5
I1121 17:03:42.328434  4137 net.cpp:157] Top shape: 1 1 32 32 (1024)
I1121 17:03:42.328438  4137 net.cpp:165] Memory required for data: 919725264
I1121 17:03:42.328439  4137 layer_factory.hpp:77] Creating layer sum-dsn5_sum-dsn5_0_split
I1121 17:03:42.328457  4137 net.cpp:100] Creating Layer sum-dsn5_sum-dsn5_0_split
I1121 17:03:42.328459  4137 net.cpp:434] sum-dsn5_sum-dsn5_0_split <- sum-dsn5
I1121 17:03:42.328464  4137 net.cpp:408] sum-dsn5_sum-dsn5_0_split -> sum-dsn5_sum-dsn5_0_split_0
I1121 17:03:42.328469  4137 net.cpp:408] sum-dsn5_sum-dsn5_0_split -> sum-dsn5_sum-dsn5_0_split_1
I1121 17:03:42.328500  4137 net.cpp:150] Setting up sum-dsn5_sum-dsn5_0_split
I1121 17:03:42.328505  4137 net.cpp:157] Top shape: 1 1 32 32 (1024)
I1121 17:03:42.328507  4137 net.cpp:157] Top shape: 1 1 32 32 (1024)
I1121 17:03:42.328510  4137 net.cpp:165] Memory required for data: 919733456
I1121 17:03:42.328511  4137 layer_factory.hpp:77] Creating layer upsample16_dsn5
I1121 17:03:42.328517  4137 net.cpp:100] Creating Layer upsample16_dsn5
I1121 17:03:42.328521  4137 net.cpp:434] upsample16_dsn5 <- sum-dsn5_sum-dsn5_0_split_0
I1121 17:03:42.328526  4137 net.cpp:408] upsample16_dsn5 -> sum-dsn5-up
I1121 17:03:42.329854  4137 net.cpp:150] Setting up upsample16_dsn5
I1121 17:03:42.329864  4137 net.cpp:157] Top shape: 1 1 528 528 (278784)
I1121 17:03:42.329866  4137 net.cpp:165] Memory required for data: 920848592
I1121 17:03:42.329870  4137 layer_factory.hpp:77] Creating layer crop2-dsn5
I1121 17:03:42.329875  4137 net.cpp:100] Creating Layer crop2-dsn5
I1121 17:03:42.329879  4137 net.cpp:434] crop2-dsn5 <- sum-dsn5-up
I1121 17:03:42.329881  4137 net.cpp:434] crop2-dsn5 <- data_augmentation_0_split_2
I1121 17:03:42.329885  4137 net.cpp:408] crop2-dsn5 -> upscore-dsn5
I1121 17:03:42.329913  4137 net.cpp:150] Setting up crop2-dsn5
I1121 17:03:42.329919  4137 net.cpp:157] Top shape: 1 1 500 500 (250000)
I1121 17:03:42.329927  4137 net.cpp:165] Memory required for data: 921848592
I1121 17:03:42.329929  4137 layer_factory.hpp:77] Creating layer loss5-score
I1121 17:03:42.329934  4137 net.cpp:100] Creating Layer loss5-score
I1121 17:03:42.329936  4137 net.cpp:434] loss5-score <- upscore-dsn5
I1121 17:03:42.329939  4137 net.cpp:434] loss5-score <- label_augmentation_1_split_1
I1121 17:03:42.329944  4137 net.cpp:408] loss5-score -> loss5-score
I1121 17:03:42.330118  4137 net.cpp:150] Setting up loss5-score
I1121 17:03:42.330130  4137 net.cpp:157] Top shape: (1)
I1121 17:03:42.330132  4137 net.cpp:160]     with loss weight 1
I1121 17:03:42.330138  4137 net.cpp:165] Memory required for data: 921848596
I1121 17:03:42.330149  4137 layer_factory.hpp:77] Creating layer upsample2_dsn4
I1121 17:03:42.330154  4137 net.cpp:100] Creating Layer upsample2_dsn4
I1121 17:03:42.330157  4137 net.cpp:434] upsample2_dsn4 <- sum-dsn5_sum-dsn5_0_split_1
I1121 17:03:42.330163  4137 net.cpp:408] upsample2_dsn4 -> sum-dsn5-4
I1121 17:03:42.330372  4137 net.cpp:150] Setting up upsample2_dsn4
I1121 17:03:42.330379  4137 net.cpp:157] Top shape: 1 1 66 66 (4356)
I1121 17:03:42.330381  4137 net.cpp:165] Memory required for data: 921866020
I1121 17:03:42.330384  4137 layer_factory.hpp:77] Creating layer crop1-dsn4
I1121 17:03:42.330390  4137 net.cpp:100] Creating Layer crop1-dsn4
I1121 17:03:42.330392  4137 net.cpp:434] crop1-dsn4 <- sum-dsn5-4
I1121 17:03:42.330395  4137 net.cpp:434] crop1-dsn4 <- conv4_3_relu4_3_0_split_1
I1121 17:03:42.330399  4137 net.cpp:408] crop1-dsn4 -> weight-dsn5-4
I1121 17:03:42.330421  4137 net.cpp:150] Setting up crop1-dsn4
I1121 17:03:42.330427  4137 net.cpp:157] Top shape: 1 1 63 63 (3969)
I1121 17:03:42.330430  4137 net.cpp:165] Memory required for data: 921881896
I1121 17:03:42.330431  4137 layer_factory.hpp:77] Creating layer weight-dsn5-4_crop1-dsn4_0_split
I1121 17:03:42.330437  4137 net.cpp:100] Creating Layer weight-dsn5-4_crop1-dsn4_0_split
I1121 17:03:42.330440  4137 net.cpp:434] weight-dsn5-4_crop1-dsn4_0_split <- weight-dsn5-4
I1121 17:03:42.330443  4137 net.cpp:408] weight-dsn5-4_crop1-dsn4_0_split -> weight-dsn5-4_crop1-dsn4_0_split_0
I1121 17:03:42.330449  4137 net.cpp:408] weight-dsn5-4_crop1-dsn4_0_split -> weight-dsn5-4_crop1-dsn4_0_split_1
I1121 17:03:42.330479  4137 net.cpp:150] Setting up weight-dsn5-4_crop1-dsn4_0_split
I1121 17:03:42.330483  4137 net.cpp:157] Top shape: 1 1 63 63 (3969)
I1121 17:03:42.330487  4137 net.cpp:157] Top shape: 1 1 63 63 (3969)
I1121 17:03:42.330488  4137 net.cpp:165] Memory required for data: 921913648
I1121 17:03:42.330490  4137 layer_factory.hpp:77] Creating layer sigmoid-dsn4
I1121 17:03:42.330495  4137 net.cpp:100] Creating Layer sigmoid-dsn4
I1121 17:03:42.330498  4137 net.cpp:434] sigmoid-dsn4 <- weight-dsn5-4_crop1-dsn4_0_split_0
I1121 17:03:42.330502  4137 net.cpp:408] sigmoid-dsn4 -> sigmoid-dsn4
I1121 17:03:42.330672  4137 net.cpp:150] Setting up sigmoid-dsn4
I1121 17:03:42.330677  4137 net.cpp:157] Top shape: 1 1 63 63 (3969)
I1121 17:03:42.330679  4137 net.cpp:165] Memory required for data: 921929524
I1121 17:03:42.330682  4137 layer_factory.hpp:77] Creating layer rev-dsn4
I1121 17:03:42.330688  4137 net.cpp:100] Creating Layer rev-dsn4
I1121 17:03:42.330691  4137 net.cpp:434] rev-dsn4 <- sigmoid-dsn4
I1121 17:03:42.330694  4137 net.cpp:408] rev-dsn4 -> rev-dsn4
I1121 17:03:42.330715  4137 net.cpp:150] Setting up rev-dsn4
I1121 17:03:42.330719  4137 net.cpp:157] Top shape: 1 1 63 63 (3969)
I1121 17:03:42.330721  4137 net.cpp:165] Memory required for data: 921945400
I1121 17:03:42.330724  4137 layer_factory.hpp:77] Creating layer tile-dsn4
I1121 17:03:42.330727  4137 net.cpp:100] Creating Layer tile-dsn4
I1121 17:03:42.330729  4137 net.cpp:434] tile-dsn4 <- rev-dsn4
I1121 17:03:42.330734  4137 net.cpp:408] tile-dsn4 -> weight-dsn4
I1121 17:03:42.330751  4137 net.cpp:150] Setting up tile-dsn4
I1121 17:03:42.330755  4137 net.cpp:157] Top shape: 1 512 63 63 (2032128)
I1121 17:03:42.330758  4137 net.cpp:165] Memory required for data: 930073912
I1121 17:03:42.330760  4137 layer_factory.hpp:77] Creating layer prod1-dsn4
I1121 17:03:42.330765  4137 net.cpp:100] Creating Layer prod1-dsn4
I1121 17:03:42.330768  4137 net.cpp:434] prod1-dsn4 <- conv4_3_relu4_3_0_split_2
I1121 17:03:42.330771  4137 net.cpp:434] prod1-dsn4 <- weight-dsn4
I1121 17:03:42.330776  4137 net.cpp:408] prod1-dsn4 -> prod1-dsn4
I1121 17:03:42.330794  4137 net.cpp:150] Setting up prod1-dsn4
I1121 17:03:42.330798  4137 net.cpp:157] Top shape: 1 512 63 63 (2032128)
I1121 17:03:42.330801  4137 net.cpp:165] Memory required for data: 938202424
I1121 17:03:42.330801  4137 layer_factory.hpp:77] Creating layer conv1-dsn4
I1121 17:03:42.330811  4137 net.cpp:100] Creating Layer conv1-dsn4
I1121 17:03:42.330813  4137 net.cpp:434] conv1-dsn4 <- prod1-dsn4
I1121 17:03:42.330817  4137 net.cpp:408] conv1-dsn4 -> conv1-dsn4
I1121 17:03:42.332056  4137 net.cpp:150] Setting up conv1-dsn4
I1121 17:03:42.332067  4137 net.cpp:157] Top shape: 1 64 63 63 (254016)
I1121 17:03:42.332069  4137 net.cpp:165] Memory required for data: 939218488
I1121 17:03:42.332074  4137 layer_factory.hpp:77] Creating layer conv2-dsn4
I1121 17:03:42.332083  4137 net.cpp:100] Creating Layer conv2-dsn4
I1121 17:03:42.332085  4137 net.cpp:434] conv2-dsn4 <- conv1-dsn4
I1121 17:03:42.332090  4137 net.cpp:408] conv2-dsn4 -> conv2-dsn4
I1121 17:03:42.333611  4137 net.cpp:150] Setting up conv2-dsn4
I1121 17:03:42.333622  4137 net.cpp:157] Top shape: 1 64 63 63 (254016)
I1121 17:03:42.333626  4137 net.cpp:165] Memory required for data: 940234552
I1121 17:03:42.333629  4137 layer_factory.hpp:77] Creating layer relu1-dsn4
I1121 17:03:42.333634  4137 net.cpp:100] Creating Layer relu1-dsn4
I1121 17:03:42.333636  4137 net.cpp:434] relu1-dsn4 <- conv2-dsn4
I1121 17:03:42.333640  4137 net.cpp:395] relu1-dsn4 -> conv2-dsn4 (in-place)
I1121 17:03:42.333799  4137 net.cpp:150] Setting up relu1-dsn4
I1121 17:03:42.333806  4137 net.cpp:157] Top shape: 1 64 63 63 (254016)
I1121 17:03:42.333808  4137 net.cpp:165] Memory required for data: 941250616
I1121 17:03:42.333811  4137 layer_factory.hpp:77] Creating layer conv3-dsn4
I1121 17:03:42.333822  4137 net.cpp:100] Creating Layer conv3-dsn4
I1121 17:03:42.333824  4137 net.cpp:434] conv3-dsn4 <- conv2-dsn4
I1121 17:03:42.333829  4137 net.cpp:408] conv3-dsn4 -> conv3-dsn4
I1121 17:03:42.335114  4137 net.cpp:150] Setting up conv3-dsn4
I1121 17:03:42.335124  4137 net.cpp:157] Top shape: 1 64 63 63 (254016)
I1121 17:03:42.335131  4137 net.cpp:165] Memory required for data: 942266680
I1121 17:03:42.335136  4137 layer_factory.hpp:77] Creating layer relu2-dsn4
I1121 17:03:42.335141  4137 net.cpp:100] Creating Layer relu2-dsn4
I1121 17:03:42.335144  4137 net.cpp:434] relu2-dsn4 <- conv3-dsn4
I1121 17:03:42.335148  4137 net.cpp:395] relu2-dsn4 -> conv3-dsn4 (in-place)
I1121 17:03:42.335301  4137 net.cpp:150] Setting up relu2-dsn4
I1121 17:03:42.335307  4137 net.cpp:157] Top shape: 1 64 63 63 (254016)
I1121 17:03:42.335309  4137 net.cpp:165] Memory required for data: 943282744
I1121 17:03:42.335312  4137 layer_factory.hpp:77] Creating layer conv4-dsn4
I1121 17:03:42.335319  4137 net.cpp:100] Creating Layer conv4-dsn4
I1121 17:03:42.335322  4137 net.cpp:434] conv4-dsn4 <- conv3-dsn4
I1121 17:03:42.335328  4137 net.cpp:408] conv4-dsn4 -> conv4-dsn4
I1121 17:03:42.336297  4137 net.cpp:150] Setting up conv4-dsn4
I1121 17:03:42.336308  4137 net.cpp:157] Top shape: 1 1 63 63 (3969)
I1121 17:03:42.336309  4137 net.cpp:165] Memory required for data: 943298620
I1121 17:03:42.336314  4137 layer_factory.hpp:77] Creating layer sum-dsn4
I1121 17:03:42.336320  4137 net.cpp:100] Creating Layer sum-dsn4
I1121 17:03:42.336323  4137 net.cpp:434] sum-dsn4 <- conv4-dsn4
I1121 17:03:42.336328  4137 net.cpp:434] sum-dsn4 <- weight-dsn5-4_crop1-dsn4_0_split_1
I1121 17:03:42.336330  4137 net.cpp:408] sum-dsn4 -> sum-dsn4
I1121 17:03:42.336356  4137 net.cpp:150] Setting up sum-dsn4
I1121 17:03:42.336359  4137 net.cpp:157] Top shape: 1 1 63 63 (3969)
I1121 17:03:42.336361  4137 net.cpp:165] Memory required for data: 943314496
I1121 17:03:42.336364  4137 layer_factory.hpp:77] Creating layer sum-dsn4_sum-dsn4_0_split
I1121 17:03:42.336367  4137 net.cpp:100] Creating Layer sum-dsn4_sum-dsn4_0_split
I1121 17:03:42.336369  4137 net.cpp:434] sum-dsn4_sum-dsn4_0_split <- sum-dsn4
I1121 17:03:42.336374  4137 net.cpp:408] sum-dsn4_sum-dsn4_0_split -> sum-dsn4_sum-dsn4_0_split_0
I1121 17:03:42.336380  4137 net.cpp:408] sum-dsn4_sum-dsn4_0_split -> sum-dsn4_sum-dsn4_0_split_1
I1121 17:03:42.336410  4137 net.cpp:150] Setting up sum-dsn4_sum-dsn4_0_split
I1121 17:03:42.336416  4137 net.cpp:157] Top shape: 1 1 63 63 (3969)
I1121 17:03:42.336417  4137 net.cpp:157] Top shape: 1 1 63 63 (3969)
I1121 17:03:42.336421  4137 net.cpp:165] Memory required for data: 943346248
I1121 17:03:42.336422  4137 layer_factory.hpp:77] Creating layer upsample8_dsn4
I1121 17:03:42.336428  4137 net.cpp:100] Creating Layer upsample8_dsn4
I1121 17:03:42.336431  4137 net.cpp:434] upsample8_dsn4 <- sum-dsn4_sum-dsn4_0_split_0
I1121 17:03:42.336433  4137 net.cpp:408] upsample8_dsn4 -> sum-dsn4-up
I1121 17:03:42.337751  4137 net.cpp:150] Setting up upsample8_dsn4
I1121 17:03:42.337762  4137 net.cpp:157] Top shape: 1 1 512 512 (262144)
I1121 17:03:42.337765  4137 net.cpp:165] Memory required for data: 944394824
I1121 17:03:42.337769  4137 layer_factory.hpp:77] Creating layer crop2-dsn4
I1121 17:03:42.337774  4137 net.cpp:100] Creating Layer crop2-dsn4
I1121 17:03:42.337776  4137 net.cpp:434] crop2-dsn4 <- sum-dsn4-up
I1121 17:03:42.337780  4137 net.cpp:434] crop2-dsn4 <- data_augmentation_0_split_3
I1121 17:03:42.337783  4137 net.cpp:408] crop2-dsn4 -> upscore-dsn4
I1121 17:03:42.337812  4137 net.cpp:150] Setting up crop2-dsn4
I1121 17:03:42.337816  4137 net.cpp:157] Top shape: 1 1 500 500 (250000)
I1121 17:03:42.337818  4137 net.cpp:165] Memory required for data: 945394824
I1121 17:03:42.337821  4137 layer_factory.hpp:77] Creating layer loss4-score
I1121 17:03:42.337826  4137 net.cpp:100] Creating Layer loss4-score
I1121 17:03:42.337828  4137 net.cpp:434] loss4-score <- upscore-dsn4
I1121 17:03:42.337831  4137 net.cpp:434] loss4-score <- label_augmentation_1_split_2
I1121 17:03:42.337836  4137 net.cpp:408] loss4-score -> loss4-score
I1121 17:03:42.338006  4137 net.cpp:150] Setting up loss4-score
I1121 17:03:42.338011  4137 net.cpp:157] Top shape: (1)
I1121 17:03:42.338013  4137 net.cpp:160]     with loss weight 1
I1121 17:03:42.338018  4137 net.cpp:165] Memory required for data: 945394828
I1121 17:03:42.338021  4137 layer_factory.hpp:77] Creating layer upsample2_dsn3
I1121 17:03:42.338027  4137 net.cpp:100] Creating Layer upsample2_dsn3
I1121 17:03:42.338029  4137 net.cpp:434] upsample2_dsn3 <- sum-dsn4_sum-dsn4_0_split_1
I1121 17:03:42.338035  4137 net.cpp:408] upsample2_dsn3 -> sum-dsn4-3
I1121 17:03:42.338285  4137 net.cpp:150] Setting up upsample2_dsn3
I1121 17:03:42.338291  4137 net.cpp:157] Top shape: 1 1 128 128 (16384)
I1121 17:03:42.338294  4137 net.cpp:165] Memory required for data: 945460364
I1121 17:03:42.338299  4137 layer_factory.hpp:77] Creating layer crop1-dsn3
I1121 17:03:42.338304  4137 net.cpp:100] Creating Layer crop1-dsn3
I1121 17:03:42.338307  4137 net.cpp:434] crop1-dsn3 <- sum-dsn4-3
I1121 17:03:42.338310  4137 net.cpp:434] crop1-dsn3 <- conv3_3_relu3_3_0_split_1
I1121 17:03:42.338313  4137 net.cpp:408] crop1-dsn3 -> weight-dsn4-3
I1121 17:03:42.338338  4137 net.cpp:150] Setting up crop1-dsn3
I1121 17:03:42.338342  4137 net.cpp:157] Top shape: 1 1 125 125 (15625)
I1121 17:03:42.338344  4137 net.cpp:165] Memory required for data: 945522864
I1121 17:03:42.338346  4137 layer_factory.hpp:77] Creating layer weight-dsn4-3_crop1-dsn3_0_split
I1121 17:03:42.338351  4137 net.cpp:100] Creating Layer weight-dsn4-3_crop1-dsn3_0_split
I1121 17:03:42.338353  4137 net.cpp:434] weight-dsn4-3_crop1-dsn3_0_split <- weight-dsn4-3
I1121 17:03:42.338358  4137 net.cpp:408] weight-dsn4-3_crop1-dsn3_0_split -> weight-dsn4-3_crop1-dsn3_0_split_0
I1121 17:03:42.338363  4137 net.cpp:408] weight-dsn4-3_crop1-dsn3_0_split -> weight-dsn4-3_crop1-dsn3_0_split_1
I1121 17:03:42.338395  4137 net.cpp:150] Setting up weight-dsn4-3_crop1-dsn3_0_split
I1121 17:03:42.338400  4137 net.cpp:157] Top shape: 1 1 125 125 (15625)
I1121 17:03:42.338403  4137 net.cpp:157] Top shape: 1 1 125 125 (15625)
I1121 17:03:42.338405  4137 net.cpp:165] Memory required for data: 945647864
I1121 17:03:42.338408  4137 layer_factory.hpp:77] Creating layer sigmoid-dsn3
I1121 17:03:42.338412  4137 net.cpp:100] Creating Layer sigmoid-dsn3
I1121 17:03:42.338413  4137 net.cpp:434] sigmoid-dsn3 <- weight-dsn4-3_crop1-dsn3_0_split_0
I1121 17:03:42.338418  4137 net.cpp:408] sigmoid-dsn3 -> sigmoid-dsn3
I1121 17:03:42.338608  4137 net.cpp:150] Setting up sigmoid-dsn3
I1121 17:03:42.338618  4137 net.cpp:157] Top shape: 1 1 125 125 (15625)
I1121 17:03:42.338619  4137 net.cpp:165] Memory required for data: 945710364
I1121 17:03:42.338621  4137 layer_factory.hpp:77] Creating layer rev-dsn3
I1121 17:03:42.338625  4137 net.cpp:100] Creating Layer rev-dsn3
I1121 17:03:42.338629  4137 net.cpp:434] rev-dsn3 <- sigmoid-dsn3
I1121 17:03:42.338634  4137 net.cpp:408] rev-dsn3 -> rev-dsn3
I1121 17:03:42.338652  4137 net.cpp:150] Setting up rev-dsn3
I1121 17:03:42.338657  4137 net.cpp:157] Top shape: 1 1 125 125 (15625)
I1121 17:03:42.338660  4137 net.cpp:165] Memory required for data: 945772864
I1121 17:03:42.338661  4137 layer_factory.hpp:77] Creating layer tile-dsn3
I1121 17:03:42.338666  4137 net.cpp:100] Creating Layer tile-dsn3
I1121 17:03:42.338670  4137 net.cpp:434] tile-dsn3 <- rev-dsn3
I1121 17:03:42.338672  4137 net.cpp:408] tile-dsn3 -> weight-dsn3
I1121 17:03:42.338691  4137 net.cpp:150] Setting up tile-dsn3
I1121 17:03:42.338696  4137 net.cpp:157] Top shape: 1 256 125 125 (4000000)
I1121 17:03:42.338698  4137 net.cpp:165] Memory required for data: 961772864
I1121 17:03:42.338701  4137 layer_factory.hpp:77] Creating layer prod1-dsn3
I1121 17:03:42.338706  4137 net.cpp:100] Creating Layer prod1-dsn3
I1121 17:03:42.338707  4137 net.cpp:434] prod1-dsn3 <- conv3_3_relu3_3_0_split_2
I1121 17:03:42.338711  4137 net.cpp:434] prod1-dsn3 <- weight-dsn3
I1121 17:03:42.338714  4137 net.cpp:408] prod1-dsn3 -> prod1-dsn3
I1121 17:03:42.338734  4137 net.cpp:150] Setting up prod1-dsn3
I1121 17:03:42.338738  4137 net.cpp:157] Top shape: 1 256 125 125 (4000000)
I1121 17:03:42.338740  4137 net.cpp:165] Memory required for data: 977772864
I1121 17:03:42.338742  4137 layer_factory.hpp:77] Creating layer conv1-dsn3
I1121 17:03:42.338750  4137 net.cpp:100] Creating Layer conv1-dsn3
I1121 17:03:42.338752  4137 net.cpp:434] conv1-dsn3 <- prod1-dsn3
I1121 17:03:42.338757  4137 net.cpp:408] conv1-dsn3 -> conv1-dsn3
I1121 17:03:42.340123  4137 net.cpp:150] Setting up conv1-dsn3
I1121 17:03:42.340142  4137 net.cpp:157] Top shape: 1 64 125 125 (1000000)
I1121 17:03:42.340143  4137 net.cpp:165] Memory required for data: 981772864
I1121 17:03:42.340158  4137 layer_factory.hpp:77] Creating layer conv2-dsn3
I1121 17:03:42.340167  4137 net.cpp:100] Creating Layer conv2-dsn3
I1121 17:03:42.340169  4137 net.cpp:434] conv2-dsn3 <- conv1-dsn3
I1121 17:03:42.340174  4137 net.cpp:408] conv2-dsn3 -> conv2-dsn3
I1121 17:03:42.341478  4137 net.cpp:150] Setting up conv2-dsn3
I1121 17:03:42.341488  4137 net.cpp:157] Top shape: 1 64 125 125 (1000000)
I1121 17:03:42.341491  4137 net.cpp:165] Memory required for data: 985772864
I1121 17:03:42.341495  4137 layer_factory.hpp:77] Creating layer relu1-dsn3
I1121 17:03:42.341502  4137 net.cpp:100] Creating Layer relu1-dsn3
I1121 17:03:42.341504  4137 net.cpp:434] relu1-dsn3 <- conv2-dsn3
I1121 17:03:42.341508  4137 net.cpp:395] relu1-dsn3 -> conv2-dsn3 (in-place)
I1121 17:03:42.341658  4137 net.cpp:150] Setting up relu1-dsn3
I1121 17:03:42.341665  4137 net.cpp:157] Top shape: 1 64 125 125 (1000000)
I1121 17:03:42.341667  4137 net.cpp:165] Memory required for data: 989772864
I1121 17:03:42.341670  4137 layer_factory.hpp:77] Creating layer conv3-dsn3
I1121 17:03:42.341678  4137 net.cpp:100] Creating Layer conv3-dsn3
I1121 17:03:42.341682  4137 net.cpp:434] conv3-dsn3 <- conv2-dsn3
I1121 17:03:42.341686  4137 net.cpp:408] conv3-dsn3 -> conv3-dsn3
I1121 17:03:42.342959  4137 net.cpp:150] Setting up conv3-dsn3
I1121 17:03:42.342969  4137 net.cpp:157] Top shape: 1 64 125 125 (1000000)
I1121 17:03:42.342972  4137 net.cpp:165] Memory required for data: 993772864
I1121 17:03:42.342977  4137 layer_factory.hpp:77] Creating layer relu2-dsn3
I1121 17:03:42.342983  4137 net.cpp:100] Creating Layer relu2-dsn3
I1121 17:03:42.342984  4137 net.cpp:434] relu2-dsn3 <- conv3-dsn3
I1121 17:03:42.342988  4137 net.cpp:395] relu2-dsn3 -> conv3-dsn3 (in-place)
I1121 17:03:42.343439  4137 net.cpp:150] Setting up relu2-dsn3
I1121 17:03:42.343449  4137 net.cpp:157] Top shape: 1 64 125 125 (1000000)
I1121 17:03:42.343451  4137 net.cpp:165] Memory required for data: 997772864
I1121 17:03:42.343453  4137 layer_factory.hpp:77] Creating layer conv4-dsn3
I1121 17:03:42.343464  4137 net.cpp:100] Creating Layer conv4-dsn3
I1121 17:03:42.343466  4137 net.cpp:434] conv4-dsn3 <- conv3-dsn3
I1121 17:03:42.343472  4137 net.cpp:408] conv4-dsn3 -> conv4-dsn3
I1121 17:03:42.344451  4137 net.cpp:150] Setting up conv4-dsn3
I1121 17:03:42.344461  4137 net.cpp:157] Top shape: 1 1 125 125 (15625)
I1121 17:03:42.344463  4137 net.cpp:165] Memory required for data: 997835364
I1121 17:03:42.344468  4137 layer_factory.hpp:77] Creating layer sum-dsn3
I1121 17:03:42.344475  4137 net.cpp:100] Creating Layer sum-dsn3
I1121 17:03:42.344477  4137 net.cpp:434] sum-dsn3 <- conv4-dsn3
I1121 17:03:42.344480  4137 net.cpp:434] sum-dsn3 <- weight-dsn4-3_crop1-dsn3_0_split_1
I1121 17:03:42.344485  4137 net.cpp:408] sum-dsn3 -> sum-dsn3
I1121 17:03:42.344512  4137 net.cpp:150] Setting up sum-dsn3
I1121 17:03:42.344518  4137 net.cpp:157] Top shape: 1 1 125 125 (15625)
I1121 17:03:42.344519  4137 net.cpp:165] Memory required for data: 997897864
I1121 17:03:42.344521  4137 layer_factory.hpp:77] Creating layer sum-dsn3_sum-dsn3_0_split
I1121 17:03:42.344532  4137 net.cpp:100] Creating Layer sum-dsn3_sum-dsn3_0_split
I1121 17:03:42.344534  4137 net.cpp:434] sum-dsn3_sum-dsn3_0_split <- sum-dsn3
I1121 17:03:42.344540  4137 net.cpp:408] sum-dsn3_sum-dsn3_0_split -> sum-dsn3_sum-dsn3_0_split_0
I1121 17:03:42.344544  4137 net.cpp:408] sum-dsn3_sum-dsn3_0_split -> sum-dsn3_sum-dsn3_0_split_1
I1121 17:03:42.344578  4137 net.cpp:150] Setting up sum-dsn3_sum-dsn3_0_split
I1121 17:03:42.344583  4137 net.cpp:157] Top shape: 1 1 125 125 (15625)
I1121 17:03:42.344585  4137 net.cpp:157] Top shape: 1 1 125 125 (15625)
I1121 17:03:42.344588  4137 net.cpp:165] Memory required for data: 998022864
I1121 17:03:42.344590  4137 layer_factory.hpp:77] Creating layer upsample4_dsn3
I1121 17:03:42.344596  4137 net.cpp:100] Creating Layer upsample4_dsn3
I1121 17:03:42.344599  4137 net.cpp:434] upsample4_dsn3 <- sum-dsn3_sum-dsn3_0_split_0
I1121 17:03:42.344604  4137 net.cpp:408] upsample4_dsn3 -> sum-dsn3-up
I1121 17:03:42.345926  4137 net.cpp:150] Setting up upsample4_dsn3
I1121 17:03:42.345937  4137 net.cpp:157] Top shape: 1 1 504 504 (254016)
I1121 17:03:42.345938  4137 net.cpp:165] Memory required for data: 999038928
I1121 17:03:42.345943  4137 layer_factory.hpp:77] Creating layer crop2-dsn3
I1121 17:03:42.345949  4137 net.cpp:100] Creating Layer crop2-dsn3
I1121 17:03:42.345952  4137 net.cpp:434] crop2-dsn3 <- sum-dsn3-up
I1121 17:03:42.345955  4137 net.cpp:434] crop2-dsn3 <- data_augmentation_0_split_4
I1121 17:03:42.345959  4137 net.cpp:408] crop2-dsn3 -> upscore-dsn3
I1121 17:03:42.345989  4137 net.cpp:150] Setting up crop2-dsn3
I1121 17:03:42.345993  4137 net.cpp:157] Top shape: 1 1 500 500 (250000)
I1121 17:03:42.345994  4137 net.cpp:165] Memory required for data: 1000038928
I1121 17:03:42.345996  4137 layer_factory.hpp:77] Creating layer loss3-score
I1121 17:03:42.346002  4137 net.cpp:100] Creating Layer loss3-score
I1121 17:03:42.346005  4137 net.cpp:434] loss3-score <- upscore-dsn3
I1121 17:03:42.346009  4137 net.cpp:434] loss3-score <- label_augmentation_1_split_3
I1121 17:03:42.346011  4137 net.cpp:408] loss3-score -> loss3-score
I1121 17:03:42.346190  4137 net.cpp:150] Setting up loss3-score
I1121 17:03:42.346196  4137 net.cpp:157] Top shape: (1)
I1121 17:03:42.346199  4137 net.cpp:160]     with loss weight 1
I1121 17:03:42.346204  4137 net.cpp:165] Memory required for data: 1000038932
I1121 17:03:42.346205  4137 layer_factory.hpp:77] Creating layer upsample2_1-dsn2
I1121 17:03:42.346212  4137 net.cpp:100] Creating Layer upsample2_1-dsn2
I1121 17:03:42.346215  4137 net.cpp:434] upsample2_1-dsn2 <- sum-dsn3_sum-dsn3_0_split_1
I1121 17:03:42.346220  4137 net.cpp:408] upsample2_1-dsn2 -> sum-dsn3-2
I1121 17:03:42.346489  4137 net.cpp:150] Setting up upsample2_1-dsn2
I1121 17:03:42.346495  4137 net.cpp:157] Top shape: 1 1 252 252 (63504)
I1121 17:03:42.346498  4137 net.cpp:165] Memory required for data: 1000292948
I1121 17:03:42.346501  4137 layer_factory.hpp:77] Creating layer crop1-dsn2
I1121 17:03:42.346505  4137 net.cpp:100] Creating Layer crop1-dsn2
I1121 17:03:42.346508  4137 net.cpp:434] crop1-dsn2 <- sum-dsn3-2
I1121 17:03:42.346511  4137 net.cpp:434] crop1-dsn2 <- conv2_2_relu2_2_0_split_1
I1121 17:03:42.346516  4137 net.cpp:408] crop1-dsn2 -> weight-dsn3-2
I1121 17:03:42.346539  4137 net.cpp:150] Setting up crop1-dsn2
I1121 17:03:42.346544  4137 net.cpp:157] Top shape: 1 1 250 250 (62500)
I1121 17:03:42.346545  4137 net.cpp:165] Memory required for data: 1000542948
I1121 17:03:42.346547  4137 layer_factory.hpp:77] Creating layer weight-dsn3-2_crop1-dsn2_0_split
I1121 17:03:42.346551  4137 net.cpp:100] Creating Layer weight-dsn3-2_crop1-dsn2_0_split
I1121 17:03:42.346554  4137 net.cpp:434] weight-dsn3-2_crop1-dsn2_0_split <- weight-dsn3-2
I1121 17:03:42.346556  4137 net.cpp:408] weight-dsn3-2_crop1-dsn2_0_split -> weight-dsn3-2_crop1-dsn2_0_split_0
I1121 17:03:42.346562  4137 net.cpp:408] weight-dsn3-2_crop1-dsn2_0_split -> weight-dsn3-2_crop1-dsn2_0_split_1
I1121 17:03:42.346592  4137 net.cpp:150] Setting up weight-dsn3-2_crop1-dsn2_0_split
I1121 17:03:42.346597  4137 net.cpp:157] Top shape: 1 1 250 250 (62500)
I1121 17:03:42.346601  4137 net.cpp:157] Top shape: 1 1 250 250 (62500)
I1121 17:03:42.346602  4137 net.cpp:165] Memory required for data: 1001042948
I1121 17:03:42.346604  4137 layer_factory.hpp:77] Creating layer sigmoid-dsn2
I1121 17:03:42.346609  4137 net.cpp:100] Creating Layer sigmoid-dsn2
I1121 17:03:42.346611  4137 net.cpp:434] sigmoid-dsn2 <- weight-dsn3-2_crop1-dsn2_0_split_0
I1121 17:03:42.346616  4137 net.cpp:408] sigmoid-dsn2 -> sigmoid-dsn2
I1121 17:03:42.347113  4137 net.cpp:150] Setting up sigmoid-dsn2
I1121 17:03:42.347123  4137 net.cpp:157] Top shape: 1 1 250 250 (62500)
I1121 17:03:42.347129  4137 net.cpp:165] Memory required for data: 1001292948
I1121 17:03:42.347132  4137 layer_factory.hpp:77] Creating layer rev-dsn2
I1121 17:03:42.347153  4137 net.cpp:100] Creating Layer rev-dsn2
I1121 17:03:42.347157  4137 net.cpp:434] rev-dsn2 <- sigmoid-dsn2
I1121 17:03:42.347160  4137 net.cpp:408] rev-dsn2 -> rev-dsn2
I1121 17:03:42.347187  4137 net.cpp:150] Setting up rev-dsn2
I1121 17:03:42.347191  4137 net.cpp:157] Top shape: 1 1 250 250 (62500)
I1121 17:03:42.347193  4137 net.cpp:165] Memory required for data: 1001542948
I1121 17:03:42.347195  4137 layer_factory.hpp:77] Creating layer tile-dsn2
I1121 17:03:42.347199  4137 net.cpp:100] Creating Layer tile-dsn2
I1121 17:03:42.347203  4137 net.cpp:434] tile-dsn2 <- rev-dsn2
I1121 17:03:42.347205  4137 net.cpp:408] tile-dsn2 -> weight-dsn2
I1121 17:03:42.347225  4137 net.cpp:150] Setting up tile-dsn2
I1121 17:03:42.347231  4137 net.cpp:157] Top shape: 1 128 250 250 (8000000)
I1121 17:03:42.347234  4137 net.cpp:165] Memory required for data: 1033542948
I1121 17:03:42.347235  4137 layer_factory.hpp:77] Creating layer prod1-dsn2
I1121 17:03:42.347239  4137 net.cpp:100] Creating Layer prod1-dsn2
I1121 17:03:42.347241  4137 net.cpp:434] prod1-dsn2 <- conv2_2_relu2_2_0_split_2
I1121 17:03:42.347245  4137 net.cpp:434] prod1-dsn2 <- weight-dsn2
I1121 17:03:42.347249  4137 net.cpp:408] prod1-dsn2 -> prod1-dsn2
I1121 17:03:42.347268  4137 net.cpp:150] Setting up prod1-dsn2
I1121 17:03:42.347272  4137 net.cpp:157] Top shape: 1 128 250 250 (8000000)
I1121 17:03:42.347275  4137 net.cpp:165] Memory required for data: 1065542948
I1121 17:03:42.347276  4137 layer_factory.hpp:77] Creating layer conv1-dsn2
I1121 17:03:42.347282  4137 net.cpp:100] Creating Layer conv1-dsn2
I1121 17:03:42.347285  4137 net.cpp:434] conv1-dsn2 <- prod1-dsn2
I1121 17:03:42.347290  4137 net.cpp:408] conv1-dsn2 -> conv1-dsn2
I1121 17:03:42.349387  4137 net.cpp:150] Setting up conv1-dsn2
I1121 17:03:42.349400  4137 net.cpp:157] Top shape: 1 64 250 250 (4000000)
I1121 17:03:42.349401  4137 net.cpp:165] Memory required for data: 1081542948
I1121 17:03:42.349406  4137 layer_factory.hpp:77] Creating layer conv2-dsn2
I1121 17:03:42.349416  4137 net.cpp:100] Creating Layer conv2-dsn2
I1121 17:03:42.349417  4137 net.cpp:434] conv2-dsn2 <- conv1-dsn2
I1121 17:03:42.349422  4137 net.cpp:408] conv2-dsn2 -> conv2-dsn2
I1121 17:03:42.350991  4137 net.cpp:150] Setting up conv2-dsn2
I1121 17:03:42.351001  4137 net.cpp:157] Top shape: 1 64 250 250 (4000000)
I1121 17:03:42.351003  4137 net.cpp:165] Memory required for data: 1097542948
I1121 17:03:42.351008  4137 layer_factory.hpp:77] Creating layer relu1-dsn2
I1121 17:03:42.351012  4137 net.cpp:100] Creating Layer relu1-dsn2
I1121 17:03:42.351016  4137 net.cpp:434] relu1-dsn2 <- conv2-dsn2
I1121 17:03:42.351020  4137 net.cpp:395] relu1-dsn2 -> conv2-dsn2 (in-place)
I1121 17:03:42.351433  4137 net.cpp:150] Setting up relu1-dsn2
I1121 17:03:42.351442  4137 net.cpp:157] Top shape: 1 64 250 250 (4000000)
I1121 17:03:42.351444  4137 net.cpp:165] Memory required for data: 1113542948
I1121 17:03:42.351446  4137 layer_factory.hpp:77] Creating layer conv3-dsn2
I1121 17:03:42.351454  4137 net.cpp:100] Creating Layer conv3-dsn2
I1121 17:03:42.351457  4137 net.cpp:434] conv3-dsn2 <- conv2-dsn2
I1121 17:03:42.351464  4137 net.cpp:408] conv3-dsn2 -> conv3-dsn2
I1121 17:03:42.352749  4137 net.cpp:150] Setting up conv3-dsn2
I1121 17:03:42.352761  4137 net.cpp:157] Top shape: 1 64 250 250 (4000000)
I1121 17:03:42.352762  4137 net.cpp:165] Memory required for data: 1129542948
I1121 17:03:42.352767  4137 layer_factory.hpp:77] Creating layer relu2-dsn2
I1121 17:03:42.352771  4137 net.cpp:100] Creating Layer relu2-dsn2
I1121 17:03:42.352773  4137 net.cpp:434] relu2-dsn2 <- conv3-dsn2
I1121 17:03:42.352777  4137 net.cpp:395] relu2-dsn2 -> conv3-dsn2 (in-place)
I1121 17:03:42.352931  4137 net.cpp:150] Setting up relu2-dsn2
I1121 17:03:42.352937  4137 net.cpp:157] Top shape: 1 64 250 250 (4000000)
I1121 17:03:42.352939  4137 net.cpp:165] Memory required for data: 1145542948
I1121 17:03:42.352942  4137 layer_factory.hpp:77] Creating layer conv4-dsn2
I1121 17:03:42.352952  4137 net.cpp:100] Creating Layer conv4-dsn2
I1121 17:03:42.352953  4137 net.cpp:434] conv4-dsn2 <- conv3-dsn2
I1121 17:03:42.352957  4137 net.cpp:408] conv4-dsn2 -> conv4-dsn2
I1121 17:03:42.354005  4137 net.cpp:150] Setting up conv4-dsn2
I1121 17:03:42.354015  4137 net.cpp:157] Top shape: 1 1 250 250 (62500)
I1121 17:03:42.354017  4137 net.cpp:165] Memory required for data: 1145792948
I1121 17:03:42.354022  4137 layer_factory.hpp:77] Creating layer sum-dsn2
I1121 17:03:42.354027  4137 net.cpp:100] Creating Layer sum-dsn2
I1121 17:03:42.354029  4137 net.cpp:434] sum-dsn2 <- conv4-dsn2
I1121 17:03:42.354033  4137 net.cpp:434] sum-dsn2 <- weight-dsn3-2_crop1-dsn2_0_split_1
I1121 17:03:42.354038  4137 net.cpp:408] sum-dsn2 -> sum-dsn2
I1121 17:03:42.354065  4137 net.cpp:150] Setting up sum-dsn2
I1121 17:03:42.354069  4137 net.cpp:157] Top shape: 1 1 250 250 (62500)
I1121 17:03:42.354071  4137 net.cpp:165] Memory required for data: 1146042948
I1121 17:03:42.354074  4137 layer_factory.hpp:77] Creating layer upsample2_2-dsn2
I1121 17:03:42.354079  4137 net.cpp:100] Creating Layer upsample2_2-dsn2
I1121 17:03:42.354081  4137 net.cpp:434] upsample2_2-dsn2 <- sum-dsn2
I1121 17:03:42.354086  4137 net.cpp:408] upsample2_2-dsn2 -> sum-dsn2-up
I1121 17:03:42.355422  4137 net.cpp:150] Setting up upsample2_2-dsn2
I1121 17:03:42.355434  4137 net.cpp:157] Top shape: 1 1 502 502 (252004)
I1121 17:03:42.355437  4137 net.cpp:165] Memory required for data: 1147050964
I1121 17:03:42.355442  4137 layer_factory.hpp:77] Creating layer crop2-dsn2
I1121 17:03:42.355446  4137 net.cpp:100] Creating Layer crop2-dsn2
I1121 17:03:42.355448  4137 net.cpp:434] crop2-dsn2 <- sum-dsn2-up
I1121 17:03:42.355453  4137 net.cpp:434] crop2-dsn2 <- data_augmentation_0_split_5
I1121 17:03:42.355455  4137 net.cpp:408] crop2-dsn2 -> upscore-dsn2
I1121 17:03:42.355485  4137 net.cpp:150] Setting up crop2-dsn2
I1121 17:03:42.355489  4137 net.cpp:157] Top shape: 1 1 500 500 (250000)
I1121 17:03:42.355491  4137 net.cpp:165] Memory required for data: 1148050964
I1121 17:03:42.355494  4137 layer_factory.hpp:77] Creating layer upscore-dsn2_crop2-dsn2_0_split
I1121 17:03:42.355499  4137 net.cpp:100] Creating Layer upscore-dsn2_crop2-dsn2_0_split
I1121 17:03:42.355501  4137 net.cpp:434] upscore-dsn2_crop2-dsn2_0_split <- upscore-dsn2
I1121 17:03:42.355504  4137 net.cpp:408] upscore-dsn2_crop2-dsn2_0_split -> upscore-dsn2_crop2-dsn2_0_split_0
I1121 17:03:42.355526  4137 net.cpp:408] upscore-dsn2_crop2-dsn2_0_split -> upscore-dsn2_crop2-dsn2_0_split_1
I1121 17:03:42.355531  4137 net.cpp:408] upscore-dsn2_crop2-dsn2_0_split -> upscore-dsn2_crop2-dsn2_0_split_2
I1121 17:03:42.355574  4137 net.cpp:150] Setting up upscore-dsn2_crop2-dsn2_0_split
I1121 17:03:42.355581  4137 net.cpp:157] Top shape: 1 1 500 500 (250000)
I1121 17:03:42.355584  4137 net.cpp:157] Top shape: 1 1 500 500 (250000)
I1121 17:03:42.355587  4137 net.cpp:157] Top shape: 1 1 500 500 (250000)
I1121 17:03:42.355588  4137 net.cpp:165] Memory required for data: 1151050964
I1121 17:03:42.355590  4137 layer_factory.hpp:77] Creating layer loss2-score
I1121 17:03:42.355597  4137 net.cpp:100] Creating Layer loss2-score
I1121 17:03:42.355598  4137 net.cpp:434] loss2-score <- upscore-dsn2_crop2-dsn2_0_split_0
I1121 17:03:42.355602  4137 net.cpp:434] loss2-score <- label_augmentation_1_split_4
I1121 17:03:42.355605  4137 net.cpp:408] loss2-score -> loss2-score
I1121 17:03:42.355779  4137 net.cpp:150] Setting up loss2-score
I1121 17:03:42.355785  4137 net.cpp:157] Top shape: (1)
I1121 17:03:42.355787  4137 net.cpp:160]     with loss weight 1
I1121 17:03:42.355792  4137 net.cpp:165] Memory required for data: 1151050968
I1121 17:03:42.355794  4137 layer_factory.hpp:77] Creating layer sigmoid-dsn1
I1121 17:03:42.355798  4137 net.cpp:100] Creating Layer sigmoid-dsn1
I1121 17:03:42.355800  4137 net.cpp:434] sigmoid-dsn1 <- upscore-dsn2_crop2-dsn2_0_split_1
I1121 17:03:42.355804  4137 net.cpp:408] sigmoid-dsn1 -> sigmoid-dsn1
I1121 17:03:42.355983  4137 net.cpp:150] Setting up sigmoid-dsn1
I1121 17:03:42.355990  4137 net.cpp:157] Top shape: 1 1 500 500 (250000)
I1121 17:03:42.355993  4137 net.cpp:165] Memory required for data: 1152050968
I1121 17:03:42.355994  4137 layer_factory.hpp:77] Creating layer rev-dsn1
I1121 17:03:42.355998  4137 net.cpp:100] Creating Layer rev-dsn1
I1121 17:03:42.356001  4137 net.cpp:434] rev-dsn1 <- sigmoid-dsn1
I1121 17:03:42.356007  4137 net.cpp:408] rev-dsn1 -> rev-dsn1
I1121 17:03:42.356029  4137 net.cpp:150] Setting up rev-dsn1
I1121 17:03:42.356032  4137 net.cpp:157] Top shape: 1 1 500 500 (250000)
I1121 17:03:42.356034  4137 net.cpp:165] Memory required for data: 1153050968
I1121 17:03:42.356036  4137 layer_factory.hpp:77] Creating layer tile-dsn1
I1121 17:03:42.356041  4137 net.cpp:100] Creating Layer tile-dsn1
I1121 17:03:42.356045  4137 net.cpp:434] tile-dsn1 <- rev-dsn1
I1121 17:03:42.356048  4137 net.cpp:408] tile-dsn1 -> weight-dsn1
I1121 17:03:42.356067  4137 net.cpp:150] Setting up tile-dsn1
I1121 17:03:42.356070  4137 net.cpp:157] Top shape: 1 64 500 500 (16000000)
I1121 17:03:42.356072  4137 net.cpp:165] Memory required for data: 1217050968
I1121 17:03:42.356074  4137 layer_factory.hpp:77] Creating layer prod1-dsn1
I1121 17:03:42.356079  4137 net.cpp:100] Creating Layer prod1-dsn1
I1121 17:03:42.356082  4137 net.cpp:434] prod1-dsn1 <- conv1_2_relu1_2_0_split_1
I1121 17:03:42.356086  4137 net.cpp:434] prod1-dsn1 <- weight-dsn1
I1121 17:03:42.356088  4137 net.cpp:408] prod1-dsn1 -> prod1-dsn1
I1121 17:03:42.356109  4137 net.cpp:150] Setting up prod1-dsn1
I1121 17:03:42.356112  4137 net.cpp:157] Top shape: 1 64 500 500 (16000000)
I1121 17:03:42.356114  4137 net.cpp:165] Memory required for data: 1281050968
I1121 17:03:42.356117  4137 layer_factory.hpp:77] Creating layer conv1-dsn1
I1121 17:03:42.356149  4137 net.cpp:100] Creating Layer conv1-dsn1
I1121 17:03:42.356153  4137 net.cpp:434] conv1-dsn1 <- prod1-dsn1
I1121 17:03:42.356156  4137 net.cpp:408] conv1-dsn1 -> conv1-dsn1
I1121 17:03:42.358556  4137 net.cpp:150] Setting up conv1-dsn1
I1121 17:03:42.358566  4137 net.cpp:157] Top shape: 1 64 500 500 (16000000)
I1121 17:03:42.358569  4137 net.cpp:165] Memory required for data: 1345050968
I1121 17:03:42.358574  4137 layer_factory.hpp:77] Creating layer conv2-dsn1
I1121 17:03:42.358584  4137 net.cpp:100] Creating Layer conv2-dsn1
I1121 17:03:42.358587  4137 net.cpp:434] conv2-dsn1 <- conv1-dsn1
I1121 17:03:42.358592  4137 net.cpp:408] conv2-dsn1 -> conv2-dsn1
I1121 17:03:42.360009  4137 net.cpp:150] Setting up conv2-dsn1
I1121 17:03:42.360020  4137 net.cpp:157] Top shape: 1 64 500 500 (16000000)
I1121 17:03:42.360023  4137 net.cpp:165] Memory required for data: 1409050968
I1121 17:03:42.360028  4137 layer_factory.hpp:77] Creating layer relu1-dsn1
I1121 17:03:42.360031  4137 net.cpp:100] Creating Layer relu1-dsn1
I1121 17:03:42.360034  4137 net.cpp:434] relu1-dsn1 <- conv2-dsn1
I1121 17:03:42.360039  4137 net.cpp:395] relu1-dsn1 -> conv2-dsn1 (in-place)
I1121 17:03:42.360198  4137 net.cpp:150] Setting up relu1-dsn1
I1121 17:03:42.360206  4137 net.cpp:157] Top shape: 1 64 500 500 (16000000)
I1121 17:03:42.360208  4137 net.cpp:165] Memory required for data: 1473050968
I1121 17:03:42.360210  4137 layer_factory.hpp:77] Creating layer conv3-dsn1
I1121 17:03:42.360219  4137 net.cpp:100] Creating Layer conv3-dsn1
I1121 17:03:42.360221  4137 net.cpp:434] conv3-dsn1 <- conv2-dsn1
I1121 17:03:42.360227  4137 net.cpp:408] conv3-dsn1 -> conv3-dsn1
I1121 17:03:42.362604  4137 net.cpp:150] Setting up conv3-dsn1
I1121 17:03:42.362617  4137 net.cpp:157] Top shape: 1 64 500 500 (16000000)
I1121 17:03:42.362618  4137 net.cpp:165] Memory required for data: 1537050968
I1121 17:03:42.362623  4137 layer_factory.hpp:77] Creating layer relu2-dsn1
I1121 17:03:42.362627  4137 net.cpp:100] Creating Layer relu2-dsn1
I1121 17:03:42.362630  4137 net.cpp:434] relu2-dsn1 <- conv3-dsn1
I1121 17:03:42.362635  4137 net.cpp:395] relu2-dsn1 -> conv3-dsn1 (in-place)
I1121 17:03:42.362795  4137 net.cpp:150] Setting up relu2-dsn1
I1121 17:03:42.362804  4137 net.cpp:157] Top shape: 1 64 500 500 (16000000)
I1121 17:03:42.362807  4137 net.cpp:165] Memory required for data: 1601050968
I1121 17:03:42.362808  4137 layer_factory.hpp:77] Creating layer conv4-dsn1
I1121 17:03:42.362823  4137 net.cpp:100] Creating Layer conv4-dsn1
I1121 17:03:42.362824  4137 net.cpp:434] conv4-dsn1 <- conv3-dsn1
I1121 17:03:42.362829  4137 net.cpp:408] conv4-dsn1 -> conv4-dsn1
I1121 17:03:42.363967  4137 net.cpp:150] Setting up conv4-dsn1
I1121 17:03:42.363978  4137 net.cpp:157] Top shape: 1 1 500 500 (250000)
I1121 17:03:42.363981  4137 net.cpp:165] Memory required for data: 1602050968
I1121 17:03:42.363986  4137 layer_factory.hpp:77] Creating layer sum-dsn1
I1121 17:03:42.363991  4137 net.cpp:100] Creating Layer sum-dsn1
I1121 17:03:42.363992  4137 net.cpp:434] sum-dsn1 <- conv4-dsn1
I1121 17:03:42.363996  4137 net.cpp:434] sum-dsn1 <- upscore-dsn2_crop2-dsn2_0_split_2
I1121 17:03:42.364002  4137 net.cpp:408] sum-dsn1 -> sum-dsn1
I1121 17:03:42.364027  4137 net.cpp:150] Setting up sum-dsn1
I1121 17:03:42.364030  4137 net.cpp:157] Top shape: 1 1 500 500 (250000)
I1121 17:03:42.364032  4137 net.cpp:165] Memory required for data: 1603050968
I1121 17:03:42.364034  4137 layer_factory.hpp:77] Creating layer crop2-dsn1
I1121 17:03:42.364039  4137 net.cpp:100] Creating Layer crop2-dsn1
I1121 17:03:42.364042  4137 net.cpp:434] crop2-dsn1 <- sum-dsn1
I1121 17:03:42.364045  4137 net.cpp:434] crop2-dsn1 <- data_augmentation_0_split_6
I1121 17:03:42.364050  4137 net.cpp:408] crop2-dsn1 -> upscore-dsn1
I1121 17:03:42.364070  4137 net.cpp:150] Setting up crop2-dsn1
I1121 17:03:42.364074  4137 net.cpp:157] Top shape: 1 1 500 500 (250000)
I1121 17:03:42.364076  4137 net.cpp:165] Memory required for data: 1604050968
I1121 17:03:42.364078  4137 layer_factory.hpp:77] Creating layer loss1-score
I1121 17:03:42.364085  4137 net.cpp:100] Creating Layer loss1-score
I1121 17:03:42.364089  4137 net.cpp:434] loss1-score <- upscore-dsn1
I1121 17:03:42.364091  4137 net.cpp:434] loss1-score <- label_augmentation_1_split_5
I1121 17:03:42.364094  4137 net.cpp:408] loss1-score -> loss1-score
…
I1121 17:03:42.370813  4137 net.cpp:58] Initializing net from parameters: 
name: "RAS"
state {
  phase: TEST
}
layer {
  name: "data"
  type: "ImageLabelmapData"
  top: "data"
  top: "label"
  include {
    phase: TEST
  }
  transform_param {
    mean_value: 104.00699
    mean_value: 116.66877
    mean_value: 122.67892
  }
  image_data_param {
    source: "/media/compute/homes/galberding/FleckDetect/Datasets/val.txt"
    batch_size: 1
    new_height: 500
    new_width: 500
    root_folder: "/media/compute/homes/galberding/FleckDetect/Datasets/"
    normalize: true
  }
}
layer {
  name: "conv1_1"
  type: "Convolution"
  bottom: "data"
  top: "conv1_1"
  param {
    lr_mult: 1
    decay_mult: 1
  }
  param {
    lr_mult: 2
    decay_mult: 0
  }
  convolution_param {
    num_output: 64
    pad: 1
    kernel_size: 3
    engine: CUDNN
  }
}
layer {
  name: "relu1_1"
  type: "ReLU"
  bottom: "conv1_1"
  top: "conv1_1"
}
layer {
  name: "conv1_2"
  type: "Convolution"
  bottom: "conv1_1"
  top: "conv1_2"
  param {
    lr_mult: 1
    decay_mult: 1
  }
  param {
    lr_mult: 2
    decay_mult: 0
  }
  convolution_param {
    num_output: 64
    pad: 1
    kernel_size: 3
    engine: CUDNN
  }
}
layer {
  name: "relu1_2"
  type: "ReLU"
  bottom: "conv1_2"
  top: "conv1_2"
}
layer {
  name: "pool1"
  type: "Pooling"
  bottom: "conv1_2"
  top: "pool1"
  pooling_param {
    pool: MAX
    kernel_size: 2
    stride: 2
  }
}
layer {
  name: "conv2_1"
  type: "Convolution"
  bottom: "pool1"
  top: "conv2_1"
  param {
    lr_mult: 1
    decay_mult: 1
  }
  param {
    lr_mult: 2
    decay_mult: 0
  }
  convolution_param {
    num_output: 128
    pad: 1
    kernel_size: 3
    engine: CUDNN
  }
}
layer {
  name: "relu2_1"
  type: "ReLU"
  bottom: "conv2_1"
  top: "conv2_1"
}
layer {
  name: "conv2_2"
  type: "Convolution"
  bottom: "conv2_1"
  top: "conv2_2"
  param {
    lr_mult: 1
    decay_mult: 1
  }
  param {
    lr_mult: 2
    decay_mult: 0
  }
  convolution_param {
    num_output: 128
    pad: 1
    kernel_size: 3
    engine: CUDNN
  }
}
layer {
  name: "relu2_2"
  type: "ReLU"
  bottom: "conv2_2"
  top: "conv2_2"
}
layer {
  name: "pool2"
  type: "Pooling"
  bottom: "conv2_2"
  top: "pool2"
  pooling_param {
    pool: MAX
    kernel_size: 2
    stride: 2
  }
}
layer {
  name: "conv3_1"
  type: "Convolution"
  bottom: "pool2"
  top: "conv3_1"
  param {
    lr_mult: 1
    decay_mult: 1
  }
  param {
    lr_mult: 2
    decay_mult: 0
  }
  convolution_param {
    num_output: 256
    pad: 1
    kernel_size: 3
    engine: CUDNN
  }
}
layer {
  name: "relu3_1"
  type: "ReLU"
  bottom: "conv3_1"
  top: "conv3_1"
}
layer {
  name: "conv3_2"
  type: "Convolution"
  bottom: "conv3_1"
  top: "conv3_2"
  param {
    lr_mult: 1
    decay_mult: 1
  }
  param {
    lr_mult: 2
    decay_mult: 0
  }
  convolution_param {
    num_output: 256
    pad: 1
    kernel_size: 3
    engine: CUDNN
  }
}
layer {
  name: "relu3_2"
  type: "ReLU"
  bottom: "conv3_2"
  top: "conv3_2"
}
layer {
  name: "conv3_3"
  type: "Convolution"
  bottom: "conv3_2"
  top: "conv3_3"
  param {
    lr_mult: 1
    decay_mult: 1
  }
  param {
    lr_mult: 2
    decay_mult: 0
  }
  convolution_param {
    num_output: 256
    pad: 1
    kernel_size: 3
    engine: CUDNN
  }
}
layer {
  name: "relu3_3"
  type: "ReLU"
  bottom: "conv3_3"
  top: "conv3_3"
}
layer {
  name: "pool3"
  type: "Pooling"
  bottom: "conv3_3"
  top: "pool3"
  pooling_param {
    pool: MAX
    kernel_size: 2
    stride: 2
  }
}
layer {
  name: "conv4_1"
  type: "Convolution"
  bottom: "pool3"
  top: "conv4_1"
  param {
    lr_mult: 1
    decay_mult: 1
  }
  param {
    lr_mult: 2
    decay_mult: 0
  }
  convolution_param {
    num_output: 512
    pad: 1
    kernel_size: 3
    engine: CUDNN
  }
}
layer {
  name: "relu4_1"
  type: "ReLU"
  bottom: "conv4_1"
  top: "conv4_1"
}
layer {
  name: "conv4_2"
  type: "Convolution"
  bottom: "conv4_1"
  top: "conv4_2"
  param {
    lr_mult: 1
    decay_mult: 1
  }
  param {
    lr_mult: 2
    decay_mult: 0
  }
  convolution_param {
    num_output: 512
    pad: 1
    kernel_size: 3
    engine: CUDNN
  }
}
layer {
  name: "relu4_2"
  type: "ReLU"
  bottom: "conv4_2"
  top: "conv4_2"
}
layer {
  name: "conv4_3"
  type: "Convolution"
  bottom: "conv4_2"
  top: "conv4_3"
  param {
    lr_mult: 1
    decay_mult: 1
  }
  param {
    lr_mult: 2
    decay_mult: 0
  }
  convolution_param {
    num_output: 512
    pad: 1
    kernel_size: 3
    engine: CUDNN
  }
}
layer {
  name: "relu4_3"
  type: "ReLU"
  bottom: "conv4_3"
  top: "conv4_3"
}
layer {
  name: "pool4"
  type: "Pooling"
  bottom: "conv4_3"
  top: "pool4"
  pooling_param {
    pool: MAX
    kernel_size: 3
    stride: 2
    pad: 1
  }
}
layer {
  name: "conv5_1"
  type: "Convolution"
  bottom: "pool4"
  top: "conv5_1"
  param {
    lr_mult: 1
    decay_mult: 1
  }
  param {
    lr_mult: 2
    decay_mult: 0
  }
  convolution_param {
    num_output: 512
    pad: 1
    kernel_size: 3
    engine: CUDNN
  }
}
layer {
  name: "relu5_1"
  type: "ReLU"
  bottom: "conv5_1"
  top: "conv5_1"
}
layer {
  name: "conv5_2"
  type: "Convolution"
  bottom: "conv5_1"
  top: "conv5_2"
  param {
    lr_mult: 1
    decay_mult: 1
  }
  param {
    lr_mult: 2
    decay_mult: 0
  }
  convolution_param {
    num_output: 512
    pad: 1
    kernel_size: 3
    engine: CUDNN
  }
}
layer {
  name: "relu5_2"
  type: "ReLU"
  bottom: "conv5_2"
  top: "conv5_2"
}
layer {
  name: "conv5_3"
  type: "Convolution"
  bottom: "conv5_2"
  top: "conv5_3"
  param {
    lr_mult: 1
    decay_mult: 1
  }
  param {
    lr_mult: 2
    decay_mult: 0
  }
  convolution_param {
    num_output: 512
    pad: 1
    kernel_size: 3
    engine: CUDNN
  }
}
layer {
  name: "relu5_3"
  type: "ReLU"
  bottom: "conv5_3"
  top: "conv5_3"
}
layer {
  name: "pool5"
  type: "Pooling"
  bottom: "conv5_3"
  top: "pool5"
  pooling_param {
    pool: MAX
    kernel_size: 3
    stride: 2
    pad: 1
  }
}
layer {
  name: "conv1-dsn6"
  type: "Convolution"
  bottom: "pool5"
  top: "conv1-dsn6"
  param {
    lr_mult: 1
    decay_mult: 1
  }
  param {
    lr_mult: 2
    decay_mult: 0
  }
  convolution_param {
    num_output: 256
    kernel_size: 1
    weight_filler {
      type: "gaussian"
      std: 0.01
    }
    bias_filler {
      type: "constant"
      value: 0
    }
    engine: CUDNN
  }
}
layer {
  name: "conv2-dsn6"
  type: "Convolution"
  bottom: "conv1-dsn6"
  top: "conv2-dsn6"
  param {
    lr_mult: 1
    decay_mult: 1
  }
  param {
    lr_mult: 2
    decay_mult: 0
  }
  convolution_param {
    num_output: 256
    pad: 2
    kernel_size: 5
    weight_filler {
      type: "gaussian"
      std: 0.01
    }
    bias_filler {
      type: "constant"
      value: 0
    }
    engine: CUDNN
  }
}
layer {
  name: "relu1-dsn6"
  type: "ReLU"
  bottom: "conv2-dsn6"
  top: "conv2-dsn6"
}
layer {
  name: "conv3-dsn6"
  type: "Convolution"
  bottom: "conv2-dsn6"
  top: "conv3-dsn6"
  param {
    lr_mult: 1
    decay_mult: 1
  }
  param {
    lr_mult: 2
    decay_mult: 0
  }
  convolution_param {
    num_output: 256
    pad: 2
    kernel_size: 5
    weight_filler {
      type: "gaussian"
      std: 0.01
    }
    bias_filler {
      type: "constant"
      value: 0
    }
    engine: CUDNN
  }
}
layer {
  name: "relu2-dsn6"
  type: "ReLU"
  bottom: "conv3-dsn6"
  top: "conv3-dsn6"
}
layer {
  name: "conv4-dsn6"
  type: "Convolution"
  bottom: "conv3-dsn6"
  top: "conv4-dsn6"
  param {
    lr_mult: 1
    decay_mult: 1
  }
  param {
    lr_mult: 2
    decay_mult: 0
  }
  convolution_param {
    num_output: 256
    pad: 2
    kernel_size: 5
    weight_filler {
      type: "gaussian"
      std: 0.01
    }
    bias_filler {
      type: "constant"
      value: 0
    }
    engine: CUDNN
  }
}
layer {
  name: "relu3-dsn6"
  type: "ReLU"
  bottom: "conv4-dsn6"
  top: "conv4-dsn6"
}
layer {
  name: "conv5-dsn6"
  type: "Convolution"
  bottom: "conv4-dsn6"
  top: "conv5-dsn6"
  param {
    lr_mult: 0.1
    decay_mult: 1
  }
  param {
    lr_mult: 0.2
    decay_mult: 0
  }
  convolution_param {
    num_output: 1
    kernel_size: 1
    weight_filler {
      type: "gaussian"
      std: 0.01
    }
    bias_filler {
      type: "constant"
      value: 0
    }
    engine: CUDNN
  }
}
layer {
  name: "upsample32_dsn6"
  type: "Deconvolution"
  bottom: "conv5-dsn6"
  top: "conv5-dsn6-up"
  param {
    lr_mult: 0
    decay_mult: 1
  }
  param {
    lr_mult: 0
    decay_mult: 0
  }
  convolution_param {
    num_output: 1
    kernel_size: 64
    stride: 32
  }
}
layer {
  name: "crop-dsn6"
  type: "Crop"
  bottom: "conv5-dsn6-up"
  bottom: "data"
  top: "upscore-dsn6"
}
layer {
  name: "loss6-score"
  type: "SigmoidCrossEntropyLoss"
  bottom: "upscore-dsn6"
  bottom: "label"
  top: "loss6-score"
  loss_weight: 1
}
layer {
  name: "upsample2_dsn5"
  type: "Deconvolution"
  bottom: "conv5-dsn6"
  top: "conv5-dsn6-5"
  param {
    lr_mult: 0
    decay_mult: 1
  }
  param {
    lr_mult: 0
    decay_mult: 0
  }
  convolution_param {
    num_output: 1
    kernel_size: 4
    stride: 2
  }
}
layer {
  name: "crop1-dsn5"
  type: "Crop"
  bottom: "conv5-dsn6-5"
  bottom: "conv5_3"
  top: "weight-dsn6-5"
}
layer {
  name: "sigmoid-dsn5"
  type: "Sigmoid"
  bottom: "weight-dsn6-5"
  top: "sigmoid-dsn5"
}
layer {
  name: "rev-dsn5"
  type: "Power"
  bottom: "sigmoid-dsn5"
  top: "rev-dsn5"
  power_param {
    power: 1
    scale: -1
    shift: 1
  }
}
layer {
  name: "tile-dsn5"
  type: "Tile"
  bottom: "rev-dsn5"
  top: "weight-dsn5"
  tile_param {
    tiles: 512
  }
}
layer {
  name: "prod1-dsn5"
  type: "Eltwise"
  bottom: "conv5_3"
  bottom: "weight-dsn5"
  top: "prod1-dsn5"
  eltwise_param {
    operation: PROD
  }
}
layer {
  name: "conv1-dsn5"
  type: "Convolution"
  bottom: "prod1-dsn5"
  top: "conv1-dsn5"
  param {
    lr_mult: 1
    decay_mult: 1
  }
  param {
    lr_mult: 2
    decay_mult: 0
  }
  convolution_param {
    num_output: 64
    kernel_size: 1
    weight_filler {
      type: "gaussian"
      std: 0.01
    }
    bias_filler {
      type: "constant"
      value: 0
    }
    engine: CUDNN
  }
}
layer {
  name: "conv2-dsn5"
  type: "Convolution"
  bottom: "conv1-dsn5"
  top: "conv2-dsn5"
  param {
    lr_mult: 1
    decay_mult: 1
  }
  param {
    lr_mult: 2
    decay_mult: 0
  }
  convolution_param {
    num_output: 64
    pad: 1
    kernel_size: 3
    weight_filler {
      type: "gaussian"
      std: 0.01
    }
    bias_filler {
      type: "constant"
      value: 0
    }
    engine: CUDNN
  }
}
layer {
  name: "relu1-dsn5"
  type: "ReLU"
  bottom: "conv2-dsn5"
  top: "conv2-dsn5"
}
layer {
  name: "conv3-dsn5"
  type: "Convolution"
  bottom: "conv2-dsn5"
  top: "conv3-dsn5"
  param {
    lr_mult: 1
    decay_mult: 1
  }
  param {
    lr_mult: 2
    decay_mult: 0
  }
  convolution_param {
    num_output: 64
    pad: 1
    kernel_size: 3
    weight_filler {
      type: "gaussian"
      std: 0.01
    }
    bias_filler {
      type: "constant"
      value: 0
    }
    engine: CUDNN
  }
}
layer {
  name: "relu2-dsn5"
  type: "ReLU"
  bottom: "conv3-dsn5"
  top: "conv3-dsn5"
}
layer {
  name: "conv4-dsn5"
  type: "Convolution"
  bottom: "conv3-dsn5"
  top: "conv4-dsn5"
  param {
    lr_mult: 1
    decay_mult: 1
  }
  param {
    lr_mult: 2
    decay_mult: 0
  }
  convolution_param {
    num_output: 1
    pad: 1
    kernel_size: 3
    weight_filler {
      type: "gaussian"
      std: 0.01
    }
    bias_filler {
      type: "constant"
      value: 0
    }
    engine: CUDNN
  }
}
layer {
  name: "sum-dsn5"
  type: "Eltwise"
  bottom: "conv4-dsn5"
  bottom: "weight-dsn6-5"
  top: "sum-dsn5"
  eltwise_param {
    operation: SUM
  }
}
layer {
  name: "upsample16_dsn5"
  type: "Deconvolution"
  bottom: "sum-dsn5"
  top: "sum-dsn5-up"
  param {
    lr_mult: 0
    decay_mult: 1
  }
  param {
    lr_mult: 0
    decay_mult: 0
  }
  convolution_param {
    num_output: 1
    kernel_size: 32
    stride: 16
  }
}
layer {
  name: "crop2-dsn5"
  type: "Crop"
  bottom: "sum-dsn5-up"
  bottom: "data"
  top: "upscore-dsn5"
}
layer {
  name: "loss5-score"
  type: "SigmoidCrossEntropyLoss"
  bottom: "upscore-dsn5"
  bottom: "label"
  top: "loss5-score"
  loss_weight: 1
}
layer {
  name: "upsample2_dsn4"
  type: "Deconvolution"
  bottom: "sum-dsn5"
  top: "sum-dsn5-4"
  param {
    lr_mult: 0
    decay_mult: 1
  }
  param {
    lr_mult: 0
    decay_mult: 0
  }
  convolution_param {
    num_output: 1
    kernel_size: 4
    stride: 2
  }
}
layer {
  name: "crop1-dsn4"
  type: "Crop"
  bottom: "sum-dsn5-4"
  bottom: "conv4_3"
  top: "weight-dsn5-4"
}
layer {
  name: "sigmoid-dsn4"
  type: "Sigmoid"
  bottom: "weight-dsn5-4"
  top: "sigmoid-dsn4"
}
layer {
  name: "rev-dsn4"
  type: "Power"
  bottom: "sigmoid-dsn4"
  top: "rev-dsn4"
  power_param {
    power: 1
    scale: -1
    shift: 1
  }
}
layer {
  name: "tile-dsn4"
  type: "Tile"
  bottom: "rev-dsn4"
  top: "weight-dsn4"
  tile_param {
    tiles: 512
  }
}
layer {
  name: "prod1-dsn4"
  type: "Eltwise"
  bottom: "conv4_3"
  bottom: "weight-dsn4"
  top: "prod1-dsn4"
  eltwise_param {
    operation: PROD
  }
}
layer {
  name: "conv1-dsn4"
  type: "Convolution"
  bottom: "prod1-dsn4"
  top: "conv1-dsn4"
  param {
    lr_mult: 1
    decay_mult: 1
  }
  param {
    lr_mult: 2
    decay_mult: 0
  }
  convolution_param {
    num_output: 64
    kernel_size: 1
    weight_filler {
      type: "gaussian"
      std: 0.01
    }
    bias_filler {
      type: "constant"
      value: 0
    }
    engine: CUDNN
  }
}
layer {
  name: "conv2-dsn4"
  type: "Convolution"
  bottom: "conv1-dsn4"
  top: "conv2-dsn4"
  param {
    lr_mult: 1
    decay_mult: 1
  }
  param {
    lr_mult: 2
    decay_mult: 0
  }
  convolution_param {
    num_output: 64
    pad: 1
    kernel_size: 3
    weight_filler {
      type: "gaussian"
      std: 0.01
    }
    bias_filler {
      type: "constant"
      value: 0
    }
    engine: CUDNN
  }
}
layer {
  name: "relu1-dsn4"
  type: "ReLU"
  bottom: "conv2-dsn4"
  top: "conv2-dsn4"
}
layer {
  name: "conv3-dsn4"
  type: "Convolution"
  bottom: "conv2-dsn4"
  top: "conv3-dsn4"
  param {
    lr_mult: 1
    decay_mult: 1
  }
  param {
    lr_mult: 2
    decay_mult: 0
  }
  convolution_param {
    num_output: 64
    pad: 1
    kernel_size: 3
    weight_filler {
      type: "gaussian"
      std: 0.01
    }
    bias_filler {
      type: "constant"
      value: 0
    }
    engine: CUDNN
  }
}
layer {
  name: "relu2-dsn4"
  type: "ReLU"
  bottom: "conv3-dsn4"
  top: "conv3-dsn4"
}
layer {
  name: "conv4-dsn4"
  type: "Convolution"
  bottom: "conv3-dsn4"
  top: "conv4-dsn4"
  param {
    lr_mult: 1
    decay_mult: 1
  }
  param {
    lr_mult: 2
    decay_mult: 0
  }
  convolution_param {
    num_output: 1
    pad: 1
    kernel_size: 3
    weight_filler {
      type: "gaussian"
      std: 0.01
    }
    bias_filler {
      type: "constant"
      value: 0
    }
    engine: CUDNN
  }
}
layer {
  name: "sum-dsn4"
  type: "Eltwise"
  bottom: "conv4-dsn4"
  bottom: "weight-dsn5-4"
  top: "sum-dsn4"
  eltwise_param {
    operation: SUM
  }
}
layer {
  name: "upsample8_dsn4"
  type: "Deconvolution"
  bottom: "sum-dsn4"
  top: "sum-dsn4-up"
  param {
    lr_mult: 0
    decay_mult: 1
  }
  param {
    lr_mult: 0
    decay_mult: 0
  }
  convolution_param {
    num_output: 1
    kernel_size: 16
    stride: 8
  }
}
layer {
  name: "crop2-dsn4"
  type: "Crop"
  bottom: "sum-dsn4-up"
  bottom: "data"
  top: "upscore-dsn4"
}
layer {
  name: "loss4-score"
  type: "SigmoidCrossEntropyLoss"
  bottom: "upscore-dsn4"
  bottom: "label"
  top: "loss4-score"
  loss_weight: 1
}
layer {
  name: "upsample2_dsn3"
  type: "Deconvolution"
  bottom: "sum-dsn4"
  top: "sum-dsn4-3"
  param {
    lr_mult: 0
    decay_mult: 1
  }
  param {
    lr_mult: 0
    decay_mult: 0
  }
  convolution_param {
    num_output: 1
    kernel_size: 4
    stride: 2
  }
}
layer {
  name: "crop1-dsn3"
  type: "Crop"
  bottom: "sum-dsn4-3"
  bottom: "conv3_3"
  top: "weight-dsn4-3"
}
layer {
  name: "sigmoid-dsn3"
  type: "Sigmoid"
  bottom: "weight-dsn4-3"
  top: "sigmoid-dsn3"
}
layer {
  name: "rev-dsn3"
  type: "Power"
  bottom: "sigmoid-dsn3"
  top: "rev-dsn3"
  power_param {
    power: 1
    scale: -1
    shift: 1
  }
}
layer {
  name: "tile-dsn3"
  type: "Tile"
  bottom: "rev-dsn3"
  top: "weight-dsn3"
  tile_param {
    tiles: 256
  }
}
layer {
  name: "prod1-dsn3"
  type: "Eltwise"
  bottom: "conv3_3"
  bottom: "weight-dsn3"
  top: "prod1-dsn3"
  eltwise_param {
    operation: PROD
  }
}
layer {
  name: "conv1-dsn3"
  type: "Convolution"
  bottom: "prod1-dsn3"
  top: "conv1-dsn3"
  param {
    lr_mult: 1
    decay_mult: 1
  }
  param {
    lr_mult: 2
    decay_mult: 0
  }
  convolution_param {
    num_output: 64
    kernel_size: 1
    weight_filler {
      type: "gaussian"
      std: 0.01
    }
    bias_filler {
      type: "constant"
      value: 0
    }
    engine: CUDNN
  }
}
layer {
  name: "conv2-dsn3"
  type: "Convolution"
  bottom: "conv1-dsn3"
  top: "conv2-dsn3"
  param {
    lr_mult: 1
    decay_mult: 1
  }
  param {
    lr_mult: 2
    decay_mult: 0
  }
  convolution_param {
    num_output: 64
    pad: 1
    kernel_size: 3
    weight_filler {
      type: "gaussian"
      std: 0.01
    }
    bias_filler {
      type: "constant"
      value: 0
    }
    engine: CUDNN
  }
}
layer {
  name: "relu1-dsn3"
  type: "ReLU"
  bottom: "conv2-dsn3"
  top: "conv2-dsn3"
}
layer {
  name: "conv3-dsn3"
  type: "Convolution"
  bottom: "conv2-dsn3"
  top: "conv3-dsn3"
  param {
    lr_mult: 1
    decay_mult: 1
  }
  param {
    lr_mult: 2
    decay_mult: 0
  }
  convolution_param {
    num_output: 64
    pad: 1
    kernel_size: 3
    weight_filler {
      type: "gaussian"
      std: 0.01
    }
    bias_filler {
      type: "constant"
      value: 0
    }
    engine: CUDNN
  }
}
layer {
  name: "relu2-dsn3"
  type: "ReLU"
  bottom: "conv3-dsn3"
  top: "conv3-dsn3"
}
layer {
  name: "conv4-dsn3"
  type: "Convolution"
  bottom: "conv3-dsn3"
  top: "conv4-dsn3"
  param {
    lr_mult: 1
    decay_mult: 1
  }
  param {
    lr_mult: 2
    decay_mult: 0
  }
  convolution_param {
    num_output: 1
    pad: 1
    kernel_size: 3
    weight_filler {
      type: "gaussian"
      std: 0.01
    }
    bias_filler {
      type: "constant"
      value: 0
    }
    engine: CUDNN
  }
}
layer {
  name: "sum-dsn3"
  type: "Eltwise"
  bottom: "conv4-dsn3"
  bottom: "weight-dsn4-3"
  top: "sum-dsn3"
  eltwise_param {
    operation: SUM
  }
}
layer {
  name: "upsample4_dsn3"
  type: "Deconvolution"
  bottom: "sum-dsn3"
  top: "sum-dsn3-up"
  param {
    lr_mult: 0
    decay_mult: 1
  }
  param {
    lr_mult: 0
    decay_mult: 0
  }
  convolution_param {
    num_output: 1
    kernel_size: 8
    stride: 4
  }
}
layer {
  name: "crop2-dsn3"
  type: "Crop"
  bottom: "sum-dsn3-up"
  bottom: "data"
  top: "upscore-dsn3"
}
layer {
  name: "loss3-score"
  type: "SigmoidCrossEntropyLoss"
  bottom: "upscore-dsn3"
  bottom: "label"
  top: "loss3-score"
  loss_weight: 1
}
layer {
  name: "upsample2_1-dsn2"
  type: "Deconvolution"
  bottom: "sum-dsn3"
  top: "sum-dsn3-2"
  param {
    lr_mult: 0
    decay_mult: 1
  }
  param {
    lr_mult: 0
    decay_mult: 0
  }
  convolution_param {
    num_output: 1
    kernel_size: 4
    stride: 2
  }
}
layer {
  name: "crop1-dsn2"
  type: "Crop"
  bottom: "sum-dsn3-2"
  bottom: "conv2_2"
  top: "weight-dsn3-2"
}
layer {
  name: "sigmoid-dsn2"
  type: "Sigmoid"
  bottom: "weight-dsn3-2"
  top: "sigmoid-dsn2"
}
layer {
  name: "rev-dsn2"
  type: "Power"
  bottom: "sigmoid-dsn2"
  top: "rev-dsn2"
  power_param {
    power: 1
    scale: -1
    shift: 1
  }
}
layer {
  name: "tile-dsn2"
  type: "Tile"
  bottom: "rev-dsn2"
  top: "weight-dsn2"
  tile_param {
    tiles: 128
  }
}
layer {
  name: "prod1-dsn2"
  type: "Eltwise"
  bottom: "conv2_2"
  bottom: "weight-dsn2"
  top: "prod1-dsn2"
  eltwise_param {
    operation: PROD
  }
}
layer {
  name: "conv1-dsn2"
  type: "Convolution"
  bottom: "prod1-dsn2"
  top: "conv1-dsn2"
  param {
    lr_mult: 1
    decay_mult: 1
  }
  param {
    lr_mult: 2
    decay_mult: 0
  }
  convolution_param {
    num_output: 64
    kernel_size: 1
    weight_filler {
      type: "gaussian"
      std: 0.01
    }
    bias_filler {
      type: "constant"
      value: 0
    }
    engine: CUDNN
  }
}
layer {
  name: "conv2-dsn2"
  type: "Convolution"
  bottom: "conv1-dsn2"
  top: "conv2-dsn2"
  param {
    lr_mult: 1
    decay_mult: 1
  }
  param {
    lr_mult: 2
    decay_mult: 0
  }
  convolution_param {
    num_output: 64
    pad: 1
    kernel_size: 3
    weight_filler {
      type: "gaussian"
      std: 0.01
    }
    bias_filler {
      type: "constant"
      value: 0
    }
    engine: CUDNN
  }
}
layer {
  name: "relu1-dsn2"
  type: "ReLU"
  bottom: "conv2-dsn2"
  top: "conv2-dsn2"
}
layer {
  name: "conv3-dsn2"
  type: "Convolution"
  bottom: "conv2-dsn2"
  top: "conv3-dsn2"
  param {
    lr_mult: 1
    decay_mult: 1
  }
  param {
    lr_mult: 2
    decay_mult: 0
  }
  convolution_param {
    num_output: 64
    pad: 1
    kernel_size: 3
    weight_filler {
      type: "gaussian"
      std: 0.01
    }
    bias_filler {
      type: "constant"
      value: 0
    }
    engine: CUDNN
  }
}
layer {
  name: "relu2-dsn2"
  type: "ReLU"
  bottom: "conv3-dsn2"
  top: "conv3-dsn2"
}
layer {
  name: "conv4-dsn2"
  type: "Convolution"
  bottom: "conv3-dsn2"
  top: "conv4-dsn2"
  param {
    lr_mult: 1
    decay_mult: 1
  }
  param {
    lr_mult: 2
    decay_mult: 0
  }
  convolution_param {
    num_output: 1
    pad: 1
    kernel_size: 3
    weight_filler {
      type: "gaussian"
      std: 0.01
    }
    bias_filler {
      type: "constant"
      value: 0
    }
    engine: CUDNN
  }
}
layer {
  name: "sum-dsn2"
  type: "Eltwise"
  bottom: "conv4-dsn2"
  bottom: "weight-dsn3-2"
  top: "sum-dsn2"
  eltwise_param {
    operation: SUM
  }
}
layer {
  name: "upsample2_2-dsn2"
  type: "Deconvolution"
  bottom: "sum-dsn2"
  top: "sum-dsn2-up"
  param {
    lr_mult: 0
    decay_mult: 1
  }
  param {
    lr_mult: 0
    decay_mult: 0
  }
  convolution_param {
    num_output: 1
    kernel_size: 4
    stride: 2
  }
}
layer {
  name: "crop2-dsn2"
  type: "Crop"
  bottom: "sum-dsn2-up"
  bottom: "data"
  top: "upscore-dsn2"
}
layer {
  name: "loss2-score"
  type: "SigmoidCrossEntropyLoss"
  bottom: "upscore-dsn2"
  bottom: "label"
  top: "loss2-score"
  loss_weight: 1
}
layer {
  name: "sigmoid-dsn1"
  type: "Sigmoid"
  bottom: "upscore-dsn2"
  top: "sigmoid-dsn1"
}
layer {
  name: "rev-dsn1"
  type: "Power"
  bottom: "sigmoid-dsn1"
  top: "rev-dsn1"
  power_param {
    power: 1
    scale: -1
    shift: 1
  }
}
layer {
  name: "tile-dsn1"
  type: "Tile"
  bottom: "rev-dsn1"
  top: "weight-dsn1"
  tile_param {
    tiles: 64
  }
}
layer {
  name: "prod1-dsn1"
  type: "Eltwise"
  bottom: "conv1_2"
  bottom: "weight-dsn1"
  top: "prod1-dsn1"
  eltwise_param {
    operation: PROD
  }
}
layer {
  name: "conv1-dsn1"
  type: "Convolution"
  bottom: "prod1-dsn1"
  top: "conv1-dsn1"
  param {
    lr_mult: 1
    decay_mult: 1
  }
  param {
    lr_mult: 2
    decay_mult: 0
  }
  convolution_param {
    num_output: 64
    kernel_size: 1
    weight_filler {
      type: "gaussian"
      std: 0.01
    }
    bias_filler {
      type: "constant"
      value: 0
    }
    engine: CUDNN
  }
}
layer {
  name: "conv2-dsn1"
  type: "Convolution"
  bottom: "conv1-dsn1"
  top: "conv2-dsn1"
  param {
    lr_mult: 1
    decay_mult: 1
  }
  param {
    lr_mult: 2
    decay_mult: 0
  }
  convolution_param {
    num_output: 64
    pad: 1
    kernel_size: 3
    weight_filler {
      type: "gaussian"
      std: 0.01
    }
    bias_filler {
      type: "constant"
      value: 0
    }
    engine: CUDNN
  }
}
layer {
  name: "relu1-dsn1"
  type: "ReLU"
  bottom: "conv2-dsn1"
  top: "conv2-dsn1"
}
layer {
  name: "conv3-dsn1"
  type: "Convolution"
  bottom: "conv2-dsn1"
  top: "conv3-dsn1"
  param {
    lr_mult: 1
    decay_mult: 1
  }
  param {
    lr_mult: 2
    decay_mult: 0
  }
  convolution_param {
    num_output: 64
    pad: 1
    kernel_size: 3
    weight_filler {
      type: "gaussian"
      std: 0.01
    }
    bias_filler {
      type: "constant"
      value: 0
    }
    engine: CUDNN
  }
}
layer {
  name: "relu2-dsn1"
  type: "ReLU"
  bottom: "conv3-dsn1"
  top: "conv3-dsn1"
}
layer {
  name: "conv4-dsn1"
  type: "Convolution"
  bottom: "conv3-dsn1"
  top: "conv4-dsn1"
  param {
    lr_mult: 1
    decay_mult: 1
  }
  param {
    lr_mult: 2
    decay_mult: 0
  }
  convolution_param {
    num_output: 1
    pad: 1
    kernel_size: 3
    weight_filler {
      type: "gaussian"
      std: 0.01
    }
    bias_filler {
      type: "constant"
      value: 0
    }
    engine: CUDNN
  }
}
layer {
  name: "sum-dsn1"
  type: "Eltwise"
  bottom: "conv4-dsn1"
  bottom: "upscore-dsn2"
  top: "sum-dsn1"
  eltwise_param {
    operation: SUM
  }
}
layer {
  name: "crop2-dsn1"
  type: "Crop"
  bottom: "sum-dsn1"
  bottom: "data"
  top: "upscore-dsn1"
}
layer {
  name: "loss1-score"
  type: "SigmoidCrossEntropyLoss"
  bottom: "upscore-dsn1"
  bottom: "label"
  top: "loss1-score"
  loss_weight: 1
}
I1121 17:03:42.371150  4137 layer_factory.hpp:77] Creating layer data
I1121 17:03:42.371161  4137 net.cpp:100] Creating Layer data
I1121 17:03:42.371165  4137 net.cpp:408] data -> data
I1121 17:03:42.371171  4137 net.cpp:408] data -> label
I1121 17:03:42.371178  4137 image_labelmap_data_layer.cpp:41] Opening file /media/compute/homes/galberding/FleckDetect/Datasets/val.txt
I1121 17:03:42.378291  4137 image_labelmap_data_layer.cpp:56] A total of 1200 images.
I1121 17:03:42.450037  4137 image_labelmap_data_layer.cpp:110] output data size: 1,3,500,500
I1121 17:03:42.450052  4137 image_labelmap_data_layer.cpp:113] output label size: 1,1,500,500
I1121 17:03:42.459466  4137 net.cpp:150] Setting up data
I1121 17:03:42.459512  4137 net.cpp:157] Top shape: 1 3 500 500 (750000)
I1121 17:03:42.459517  4137 net.cpp:157] Top shape: 1 1 500 500 (250000)
I1121 17:03:42.459518  4137 net.cpp:165] Memory required for data: 4000000
I1121 17:03:42.459523  4137 layer_factory.hpp:77] Creating layer data_data_0_split
I1121 17:03:42.459532  4137 net.cpp:100] Creating Layer data_data_0_split
I1121 17:03:42.459535  4137 net.cpp:434] data_data_0_split <- data
I1121 17:03:42.459542  4137 net.cpp:408] data_data_0_split -> data_data_0_split_0
I1121 17:03:42.459550  4137 net.cpp:408] data_data_0_split -> data_data_0_split_1
I1121 17:03:42.459555  4137 net.cpp:408] data_data_0_split -> data_data_0_split_2
I1121 17:03:42.459560  4137 net.cpp:408] data_data_0_split -> data_data_0_split_3
I1121 17:03:42.459565  4137 net.cpp:408] data_data_0_split -> data_data_0_split_4
I1121 17:03:42.459570  4137 net.cpp:408] data_data_0_split -> data_data_0_split_5
I1121 17:03:42.459574  4137 net.cpp:408] data_data_0_split -> data_data_0_split_6
I1121 17:03:42.459784  4137 net.cpp:150] Setting up data_data_0_split
I1121 17:03:42.459790  4137 net.cpp:157] Top shape: 1 3 500 500 (750000)
I1121 17:03:42.459794  4137 net.cpp:157] Top shape: 1 3 500 500 (750000)
I1121 17:03:42.459797  4137 net.cpp:157] Top shape: 1 3 500 500 (750000)
I1121 17:03:42.459800  4137 net.cpp:157] Top shape: 1 3 500 500 (750000)
I1121 17:03:42.459803  4137 net.cpp:157] Top shape: 1 3 500 500 (750000)
I1121 17:03:42.459806  4137 net.cpp:157] Top shape: 1 3 500 500 (750000)
I1121 17:03:42.459810  4137 net.cpp:157] Top shape: 1 3 500 500 (750000)
I1121 17:03:42.459811  4137 net.cpp:165] Memory required for data: 25000000
I1121 17:03:42.459813  4137 layer_factory.hpp:77] Creating layer label_data_1_split
I1121 17:03:42.459818  4137 net.cpp:100] Creating Layer label_data_1_split
I1121 17:03:42.459821  4137 net.cpp:434] label_data_1_split <- label
I1121 17:03:42.459826  4137 net.cpp:408] label_data_1_split -> label_data_1_split_0
I1121 17:03:42.459831  4137 net.cpp:408] label_data_1_split -> label_data_1_split_1
I1121 17:03:42.459836  4137 net.cpp:408] label_data_1_split -> label_data_1_split_2
I1121 17:03:42.459841  4137 net.cpp:408] label_data_1_split -> label_data_1_split_3
I1121 17:03:42.459844  4137 net.cpp:408] label_data_1_split -> label_data_1_split_4
I1121 17:03:42.459849  4137 net.cpp:408] label_data_1_split -> label_data_1_split_5
I1121 17:03:42.459928  4137 net.cpp:150] Setting up label_data_1_split
I1121 17:03:42.459933  4137 net.cpp:157] Top shape: 1 1 500 500 (250000)
I1121 17:03:42.459936  4137 net.cpp:157] Top shape: 1 1 500 500 (250000)
I1121 17:03:42.459939  4137 net.cpp:157] Top shape: 1 1 500 500 (250000)
I1121 17:03:42.459942  4137 net.cpp:157] Top shape: 1 1 500 500 (250000)
I1121 17:03:42.459944  4137 net.cpp:157] Top shape: 1 1 500 500 (250000)
I1121 17:03:42.459947  4137 net.cpp:157] Top shape: 1 1 500 500 (250000)
I1121 17:03:42.459949  4137 net.cpp:165] Memory required for data: 31000000
I1121 17:03:42.459952  4137 layer_factory.hpp:77] Creating layer conv1_1
I1121 17:03:42.459959  4137 net.cpp:100] Creating Layer conv1_1
I1121 17:03:42.459961  4137 net.cpp:434] conv1_1 <- data_data_0_split_0
I1121 17:03:42.459966  4137 net.cpp:408] conv1_1 -> conv1_1
I1121 17:03:42.462900  4137 net.cpp:150] Setting up conv1_1
I1121 17:03:42.462911  4137 net.cpp:157] Top shape: 1 64 500 500 (16000000)
I1121 17:03:42.462929  4137 net.cpp:165] Memory required for data: 95000000
I1121 17:03:42.462939  4137 layer_factory.hpp:77] Creating layer relu1_1
I1121 17:03:42.462945  4137 net.cpp:100] Creating Layer relu1_1
I1121 17:03:42.462949  4137 net.cpp:434] relu1_1 <- conv1_1
I1121 17:03:42.462952  4137 net.cpp:395] relu1_1 -> conv1_1 (in-place)
I1121 17:03:42.463124  4137 net.cpp:150] Setting up relu1_1
I1121 17:03:42.463171  4137 net.cpp:157] Top shape: 1 64 500 500 (16000000)
I1121 17:03:42.463173  4137 net.cpp:165] Memory required for data: 159000000
I1121 17:03:42.463176  4137 layer_factory.hpp:77] Creating layer conv1_2
I1121 17:03:42.463183  4137 net.cpp:100] Creating Layer conv1_2
I1121 17:03:42.463187  4137 net.cpp:434] conv1_2 <- conv1_1
I1121 17:03:42.463193  4137 net.cpp:408] conv1_2 -> conv1_2
I1121 17:03:42.464545  4137 net.cpp:150] Setting up conv1_2
I1121 17:03:42.464556  4137 net.cpp:157] Top shape: 1 64 500 500 (16000000)
I1121 17:03:42.464574  4137 net.cpp:165] Memory required for data: 223000000
I1121 17:03:42.464586  4137 layer_factory.hpp:77] Creating layer relu1_2
I1121 17:03:42.464591  4137 net.cpp:100] Creating Layer relu1_2
I1121 17:03:42.464593  4137 net.cpp:434] relu1_2 <- conv1_2
I1121 17:03:42.464598  4137 net.cpp:395] relu1_2 -> conv1_2 (in-place)
I1121 17:03:42.465067  4137 net.cpp:150] Setting up relu1_2
I1121 17:03:42.465077  4137 net.cpp:157] Top shape: 1 64 500 500 (16000000)
I1121 17:03:42.465095  4137 net.cpp:165] Memory required for data: 287000000
I1121 17:03:42.465097  4137 layer_factory.hpp:77] Creating layer conv1_2_relu1_2_0_split
I1121 17:03:42.465102  4137 net.cpp:100] Creating Layer conv1_2_relu1_2_0_split
I1121 17:03:42.465104  4137 net.cpp:434] conv1_2_relu1_2_0_split <- conv1_2
I1121 17:03:42.465109  4137 net.cpp:408] conv1_2_relu1_2_0_split -> conv1_2_relu1_2_0_split_0
I1121 17:03:42.465116  4137 net.cpp:408] conv1_2_relu1_2_0_split -> conv1_2_relu1_2_0_split_1
I1121 17:03:42.465186  4137 net.cpp:150] Setting up conv1_2_relu1_2_0_split
I1121 17:03:42.465191  4137 net.cpp:157] Top shape: 1 64 500 500 (16000000)
I1121 17:03:42.465194  4137 net.cpp:157] Top shape: 1 64 500 500 (16000000)
I1121 17:03:42.465198  4137 net.cpp:165] Memory required for data: 415000000
I1121 17:03:42.465200  4137 layer_factory.hpp:77] Creating layer pool1
I1121 17:03:42.465207  4137 net.cpp:100] Creating Layer pool1
I1121 17:03:42.465209  4137 net.cpp:434] pool1 <- conv1_2_relu1_2_0_split_0
I1121 17:03:42.465214  4137 net.cpp:408] pool1 -> pool1
I1121 17:03:42.465253  4137 net.cpp:150] Setting up pool1
I1121 17:03:42.465260  4137 net.cpp:157] Top shape: 1 64 250 250 (4000000)
I1121 17:03:42.465262  4137 net.cpp:165] Memory required for data: 431000000
I1121 17:03:42.465265  4137 layer_factory.hpp:77] Creating layer conv2_1
I1121 17:03:42.465272  4137 net.cpp:100] Creating Layer conv2_1
I1121 17:03:42.465274  4137 net.cpp:434] conv2_1 <- pool1
I1121 17:03:42.465279  4137 net.cpp:408] conv2_1 -> conv2_1
I1121 17:03:42.466475  4137 net.cpp:150] Setting up conv2_1
I1121 17:03:42.466485  4137 net.cpp:157] Top shape: 1 128 250 250 (8000000)
I1121 17:03:42.466502  4137 net.cpp:165] Memory required for data: 463000000
I1121 17:03:42.466511  4137 layer_factory.hpp:77] Creating layer relu2_1
I1121 17:03:42.466516  4137 net.cpp:100] Creating Layer relu2_1
I1121 17:03:42.466518  4137 net.cpp:434] relu2_1 <- conv2_1
I1121 17:03:42.466522  4137 net.cpp:395] relu2_1 -> conv2_1 (in-place)
I1121 17:03:42.466975  4137 net.cpp:150] Setting up relu2_1
I1121 17:03:42.466986  4137 net.cpp:157] Top shape: 1 128 250 250 (8000000)
I1121 17:03:42.467003  4137 net.cpp:165] Memory required for data: 495000000
I1121 17:03:42.467005  4137 layer_factory.hpp:77] Creating layer conv2_2
I1121 17:03:42.467012  4137 net.cpp:100] Creating Layer conv2_2
I1121 17:03:42.467015  4137 net.cpp:434] conv2_2 <- conv2_1
I1121 17:03:42.467020  4137 net.cpp:408] conv2_2 -> conv2_2
I1121 17:03:42.469632  4137 net.cpp:150] Setting up conv2_2
I1121 17:03:42.469643  4137 net.cpp:157] Top shape: 1 128 250 250 (8000000)
I1121 17:03:42.469661  4137 net.cpp:165] Memory required for data: 527000000
I1121 17:03:42.469667  4137 layer_factory.hpp:77] Creating layer relu2_2
I1121 17:03:42.469672  4137 net.cpp:100] Creating Layer relu2_2
I1121 17:03:42.469674  4137 net.cpp:434] relu2_2 <- conv2_2
I1121 17:03:42.469681  4137 net.cpp:395] relu2_2 -> conv2_2 (in-place)
I1121 17:03:42.469849  4137 net.cpp:150] Setting up relu2_2
I1121 17:03:42.469857  4137 net.cpp:157] Top shape: 1 128 250 250 (8000000)
I1121 17:03:42.469859  4137 net.cpp:165] Memory required for data: 559000000
I1121 17:03:42.469862  4137 layer_factory.hpp:77] Creating layer conv2_2_relu2_2_0_split
I1121 17:03:42.469866  4137 net.cpp:100] Creating Layer conv2_2_relu2_2_0_split
I1121 17:03:42.469869  4137 net.cpp:434] conv2_2_relu2_2_0_split <- conv2_2
I1121 17:03:42.469873  4137 net.cpp:408] conv2_2_relu2_2_0_split -> conv2_2_relu2_2_0_split_0
I1121 17:03:42.469879  4137 net.cpp:408] conv2_2_relu2_2_0_split -> conv2_2_relu2_2_0_split_1
I1121 17:03:42.469883  4137 net.cpp:408] conv2_2_relu2_2_0_split -> conv2_2_relu2_2_0_split_2
I1121 17:03:42.469941  4137 net.cpp:150] Setting up conv2_2_relu2_2_0_split
I1121 17:03:42.469946  4137 net.cpp:157] Top shape: 1 128 250 250 (8000000)
I1121 17:03:42.469950  4137 net.cpp:157] Top shape: 1 128 250 250 (8000000)
I1121 17:03:42.469952  4137 net.cpp:157] Top shape: 1 128 250 250 (8000000)
I1121 17:03:42.469954  4137 net.cpp:165] Memory required for data: 655000000
I1121 17:03:42.469956  4137 layer_factory.hpp:77] Creating layer pool2
I1121 17:03:42.469961  4137 net.cpp:100] Creating Layer pool2
I1121 17:03:42.469964  4137 net.cpp:434] pool2 <- conv2_2_relu2_2_0_split_0
I1121 17:03:42.469969  4137 net.cpp:408] pool2 -> pool2
I1121 17:03:42.470005  4137 net.cpp:150] Setting up pool2
I1121 17:03:42.470010  4137 net.cpp:157] Top shape: 1 128 125 125 (2000000)
I1121 17:03:42.470012  4137 net.cpp:165] Memory required for data: 663000000
I1121 17:03:42.470014  4137 layer_factory.hpp:77] Creating layer conv3_1
I1121 17:03:42.470021  4137 net.cpp:100] Creating Layer conv3_1
I1121 17:03:42.470023  4137 net.cpp:434] conv3_1 <- pool2
I1121 17:03:42.470028  4137 net.cpp:408] conv3_1 -> conv3_1
I1121 17:03:42.472828  4137 net.cpp:150] Setting up conv3_1
I1121 17:03:42.472841  4137 net.cpp:157] Top shape: 1 256 125 125 (4000000)
I1121 17:03:42.472843  4137 net.cpp:165] Memory required for data: 679000000
I1121 17:03:42.472851  4137 layer_factory.hpp:77] Creating layer relu3_1
I1121 17:03:42.472858  4137 net.cpp:100] Creating Layer relu3_1
I1121 17:03:42.472860  4137 net.cpp:434] relu3_1 <- conv3_1
I1121 17:03:42.472865  4137 net.cpp:395] relu3_1 -> conv3_1 (in-place)
I1121 17:03:42.473050  4137 net.cpp:150] Setting up relu3_1
I1121 17:03:42.473057  4137 net.cpp:157] Top shape: 1 256 125 125 (4000000)
I1121 17:03:42.473060  4137 net.cpp:165] Memory required for data: 695000000
I1121 17:03:42.473062  4137 layer_factory.hpp:77] Creating layer conv3_2
I1121 17:03:42.473070  4137 net.cpp:100] Creating Layer conv3_2
I1121 17:03:42.473073  4137 net.cpp:434] conv3_2 <- conv3_1
I1121 17:03:42.473078  4137 net.cpp:408] conv3_2 -> conv3_2
I1121 17:03:42.476516  4137 net.cpp:150] Setting up conv3_2
I1121 17:03:42.476527  4137 net.cpp:157] Top shape: 1 256 125 125 (4000000)
I1121 17:03:42.476529  4137 net.cpp:165] Memory required for data: 711000000
I1121 17:03:42.476534  4137 layer_factory.hpp:77] Creating layer relu3_2
I1121 17:03:42.476541  4137 net.cpp:100] Creating Layer relu3_2
I1121 17:03:42.476542  4137 net.cpp:434] relu3_2 <- conv3_2
I1121 17:03:42.476547  4137 net.cpp:395] relu3_2 -> conv3_2 (in-place)
I1121 17:03:42.476725  4137 net.cpp:150] Setting up relu3_2
I1121 17:03:42.476734  4137 net.cpp:157] Top shape: 1 256 125 125 (4000000)
I1121 17:03:42.476737  4137 net.cpp:165] Memory required for data: 727000000
I1121 17:03:42.476739  4137 layer_factory.hpp:77] Creating layer conv3_3
I1121 17:03:42.476747  4137 net.cpp:100] Creating Layer conv3_3
I1121 17:03:42.476749  4137 net.cpp:434] conv3_3 <- conv3_2
I1121 17:03:42.476755  4137 net.cpp:408] conv3_3 -> conv3_3
I1121 17:03:42.479543  4137 net.cpp:150] Setting up conv3_3
I1121 17:03:42.479555  4137 net.cpp:157] Top shape: 1 256 125 125 (4000000)
I1121 17:03:42.479573  4137 net.cpp:165] Memory required for data: 743000000
I1121 17:03:42.479578  4137 layer_factory.hpp:77] Creating layer relu3_3
I1121 17:03:42.479583  4137 net.cpp:100] Creating Layer relu3_3
I1121 17:03:42.479586  4137 net.cpp:434] relu3_3 <- conv3_3
I1121 17:03:42.479591  4137 net.cpp:395] relu3_3 -> conv3_3 (in-place)
I1121 17:03:42.479760  4137 net.cpp:150] Setting up relu3_3
I1121 17:03:42.479768  4137 net.cpp:157] Top shape: 1 256 125 125 (4000000)
I1121 17:03:42.479770  4137 net.cpp:165] Memory required for data: 759000000
I1121 17:03:42.479774  4137 layer_factory.hpp:77] Creating layer conv3_3_relu3_3_0_split
I1121 17:03:42.479779  4137 net.cpp:100] Creating Layer conv3_3_relu3_3_0_split
I1121 17:03:42.479782  4137 net.cpp:434] conv3_3_relu3_3_0_split <- conv3_3
I1121 17:03:42.479786  4137 net.cpp:408] conv3_3_relu3_3_0_split -> conv3_3_relu3_3_0_split_0
I1121 17:03:42.479792  4137 net.cpp:408] conv3_3_relu3_3_0_split -> conv3_3_relu3_3_0_split_1
I1121 17:03:42.479797  4137 net.cpp:408] conv3_3_relu3_3_0_split -> conv3_3_relu3_3_0_split_2
I1121 17:03:42.479854  4137 net.cpp:150] Setting up conv3_3_relu3_3_0_split
I1121 17:03:42.479861  4137 net.cpp:157] Top shape: 1 256 125 125 (4000000)
I1121 17:03:42.479864  4137 net.cpp:157] Top shape: 1 256 125 125 (4000000)
I1121 17:03:42.479867  4137 net.cpp:157] Top shape: 1 256 125 125 (4000000)
I1121 17:03:42.479869  4137 net.cpp:165] Memory required for data: 807000000
I1121 17:03:42.479871  4137 layer_factory.hpp:77] Creating layer pool3
I1121 17:03:42.479876  4137 net.cpp:100] Creating Layer pool3
I1121 17:03:42.479879  4137 net.cpp:434] pool3 <- conv3_3_relu3_3_0_split_0
I1121 17:03:42.479884  4137 net.cpp:408] pool3 -> pool3
I1121 17:03:42.479925  4137 net.cpp:150] Setting up pool3
I1121 17:03:42.479931  4137 net.cpp:157] Top shape: 1 256 63 63 (1016064)
I1121 17:03:42.479933  4137 net.cpp:165] Memory required for data: 811064256
I1121 17:03:42.479936  4137 layer_factory.hpp:77] Creating layer conv4_1
I1121 17:03:42.479943  4137 net.cpp:100] Creating Layer conv4_1
I1121 17:03:42.479945  4137 net.cpp:434] conv4_1 <- pool3
I1121 17:03:42.479950  4137 net.cpp:408] conv4_1 -> conv4_1
I1121 17:03:42.483831  4137 net.cpp:150] Setting up conv4_1
I1121 17:03:42.483857  4137 net.cpp:157] Top shape: 1 512 63 63 (2032128)
I1121 17:03:42.483860  4137 net.cpp:165] Memory required for data: 819192768
I1121 17:03:42.483866  4137 layer_factory.hpp:77] Creating layer relu4_1
I1121 17:03:42.483871  4137 net.cpp:100] Creating Layer relu4_1
I1121 17:03:42.483875  4137 net.cpp:434] relu4_1 <- conv4_1
I1121 17:03:42.483880  4137 net.cpp:395] relu4_1 -> conv4_1 (in-place)
I1121 17:03:42.484390  4137 net.cpp:150] Setting up relu4_1
I1121 17:03:42.484400  4137 net.cpp:157] Top shape: 1 512 63 63 (2032128)
I1121 17:03:42.484417  4137 net.cpp:165] Memory required for data: 827321280
I1121 17:03:42.484421  4137 layer_factory.hpp:77] Creating layer conv4_2
I1121 17:03:42.484427  4137 net.cpp:100] Creating Layer conv4_2
I1121 17:03:42.484431  4137 net.cpp:434] conv4_2 <- conv4_1
I1121 17:03:42.484436  4137 net.cpp:408] conv4_2 -> conv4_2
I1121 17:03:42.490306  4137 net.cpp:150] Setting up conv4_2
I1121 17:03:42.490321  4137 net.cpp:157] Top shape: 1 512 63 63 (2032128)
I1121 17:03:42.490324  4137 net.cpp:165] Memory required for data: 835449792
I1121 17:03:42.490345  4137 layer_factory.hpp:77] Creating layer relu4_2
I1121 17:03:42.490353  4137 net.cpp:100] Creating Layer relu4_2
I1121 17:03:42.490356  4137 net.cpp:434] relu4_2 <- conv4_2
I1121 17:03:42.490362  4137 net.cpp:395] relu4_2 -> conv4_2 (in-place)
I1121 17:03:42.491020  4137 net.cpp:150] Setting up relu4_2
I1121 17:03:42.491034  4137 net.cpp:157] Top shape: 1 512 63 63 (2032128)
I1121 17:03:42.491035  4137 net.cpp:165] Memory required for data: 843578304
I1121 17:03:42.491039  4137 layer_factory.hpp:77] Creating layer conv4_3
I1121 17:03:42.491048  4137 net.cpp:100] Creating Layer conv4_3
I1121 17:03:42.491052  4137 net.cpp:434] conv4_3 <- conv4_2
I1121 17:03:42.491058  4137 net.cpp:408] conv4_3 -> conv4_3
I1121 17:03:42.497385  4137 net.cpp:150] Setting up conv4_3
I1121 17:03:42.497413  4137 net.cpp:157] Top shape: 1 512 63 63 (2032128)
I1121 17:03:42.497416  4137 net.cpp:165] Memory required for data: 851706816
I1121 17:03:42.497422  4137 layer_factory.hpp:77] Creating layer relu4_3
I1121 17:03:42.497442  4137 net.cpp:100] Creating Layer relu4_3
I1121 17:03:42.497445  4137 net.cpp:434] relu4_3 <- conv4_3
I1121 17:03:42.497450  4137 net.cpp:395] relu4_3 -> conv4_3 (in-place)
I1121 17:03:42.497635  4137 net.cpp:150] Setting up relu4_3
I1121 17:03:42.497642  4137 net.cpp:157] Top shape: 1 512 63 63 (2032128)
I1121 17:03:42.497645  4137 net.cpp:165] Memory required for data: 859835328
I1121 17:03:42.497648  4137 layer_factory.hpp:77] Creating layer conv4_3_relu4_3_0_split
I1121 17:03:42.497654  4137 net.cpp:100] Creating Layer conv4_3_relu4_3_0_split
I1121 17:03:42.497658  4137 net.cpp:434] conv4_3_relu4_3_0_split <- conv4_3
I1121 17:03:42.497663  4137 net.cpp:408] conv4_3_relu4_3_0_split -> conv4_3_relu4_3_0_split_0
I1121 17:03:42.497669  4137 net.cpp:408] conv4_3_relu4_3_0_split -> conv4_3_relu4_3_0_split_1
I1121 17:03:42.497673  4137 net.cpp:408] conv4_3_relu4_3_0_split -> conv4_3_relu4_3_0_split_2
I1121 17:03:42.497731  4137 net.cpp:150] Setting up conv4_3_relu4_3_0_split
I1121 17:03:42.497736  4137 net.cpp:157] Top shape: 1 512 63 63 (2032128)
I1121 17:03:42.497740  4137 net.cpp:157] Top shape: 1 512 63 63 (2032128)
I1121 17:03:42.497743  4137 net.cpp:157] Top shape: 1 512 63 63 (2032128)
I1121 17:03:42.497745  4137 net.cpp:165] Memory required for data: 884220864
I1121 17:03:42.497747  4137 layer_factory.hpp:77] Creating layer pool4
I1121 17:03:42.497752  4137 net.cpp:100] Creating Layer pool4
I1121 17:03:42.497756  4137 net.cpp:434] pool4 <- conv4_3_relu4_3_0_split_0
I1121 17:03:42.497761  4137 net.cpp:408] pool4 -> pool4
I1121 17:03:42.497799  4137 net.cpp:150] Setting up pool4
I1121 17:03:42.497805  4137 net.cpp:157] Top shape: 1 512 32 32 (524288)
I1121 17:03:42.497807  4137 net.cpp:165] Memory required for data: 886318016
I1121 17:03:42.497809  4137 layer_factory.hpp:77] Creating layer conv5_1
I1121 17:03:42.497817  4137 net.cpp:100] Creating Layer conv5_1
I1121 17:03:42.497819  4137 net.cpp:434] conv5_1 <- pool4
I1121 17:03:42.497824  4137 net.cpp:408] conv5_1 -> conv5_1
I1121 17:03:42.503706  4137 net.cpp:150] Setting up conv5_1
I1121 17:03:42.503720  4137 net.cpp:157] Top shape: 1 512 32 32 (524288)
I1121 17:03:42.503723  4137 net.cpp:165] Memory required for data: 888415168
I1121 17:03:42.503728  4137 layer_factory.hpp:77] Creating layer relu5_1
I1121 17:03:42.503741  4137 net.cpp:100] Creating Layer relu5_1
I1121 17:03:42.503743  4137 net.cpp:434] relu5_1 <- conv5_1
I1121 17:03:42.503747  4137 net.cpp:395] relu5_1 -> conv5_1 (in-place)
I1121 17:03:42.503911  4137 net.cpp:150] Setting up relu5_1
I1121 17:03:42.503918  4137 net.cpp:157] Top shape: 1 512 32 32 (524288)
I1121 17:03:42.503921  4137 net.cpp:165] Memory required for data: 890512320
I1121 17:03:42.503922  4137 layer_factory.hpp:77] Creating layer conv5_2
I1121 17:03:42.503929  4137 net.cpp:100] Creating Layer conv5_2
I1121 17:03:42.503932  4137 net.cpp:434] conv5_2 <- conv5_1
I1121 17:03:42.503937  4137 net.cpp:408] conv5_2 -> conv5_2
I1121 17:03:42.509730  4137 net.cpp:150] Setting up conv5_2
I1121 17:03:42.509742  4137 net.cpp:157] Top shape: 1 512 32 32 (524288)
I1121 17:03:42.509744  4137 net.cpp:165] Memory required for data: 892609472
I1121 17:03:42.509749  4137 layer_factory.hpp:77] Creating layer relu5_2
I1121 17:03:42.509754  4137 net.cpp:100] Creating Layer relu5_2
I1121 17:03:42.509757  4137 net.cpp:434] relu5_2 <- conv5_2
I1121 17:03:42.509763  4137 net.cpp:395] relu5_2 -> conv5_2 (in-place)
I1121 17:03:42.509922  4137 net.cpp:150] Setting up relu5_2
I1121 17:03:42.509928  4137 net.cpp:157] Top shape: 1 512 32 32 (524288)
I1121 17:03:42.509930  4137 net.cpp:165] Memory required for data: 894706624
I1121 17:03:42.509932  4137 layer_factory.hpp:77] Creating layer conv5_3
I1121 17:03:42.509939  4137 net.cpp:100] Creating Layer conv5_3
I1121 17:03:42.509943  4137 net.cpp:434] conv5_3 <- conv5_2
I1121 17:03:42.509948  4137 net.cpp:408] conv5_3 -> conv5_3
I1121 17:03:42.515774  4137 net.cpp:150] Setting up conv5_3
I1121 17:03:42.515789  4137 net.cpp:157] Top shape: 1 512 32 32 (524288)
I1121 17:03:42.515790  4137 net.cpp:165] Memory required for data: 896803776
I1121 17:03:42.515796  4137 layer_factory.hpp:77] Creating layer relu5_3
I1121 17:03:42.515801  4137 net.cpp:100] Creating Layer relu5_3
I1121 17:03:42.515803  4137 net.cpp:434] relu5_3 <- conv5_3
I1121 17:03:42.515807  4137 net.cpp:395] relu5_3 -> conv5_3 (in-place)
I1121 17:03:42.515969  4137 net.cpp:150] Setting up relu5_3
I1121 17:03:42.515975  4137 net.cpp:157] Top shape: 1 512 32 32 (524288)
I1121 17:03:42.515977  4137 net.cpp:165] Memory required for data: 898900928
I1121 17:03:42.515980  4137 layer_factory.hpp:77] Creating layer conv5_3_relu5_3_0_split
I1121 17:03:42.515986  4137 net.cpp:100] Creating Layer conv5_3_relu5_3_0_split
I1121 17:03:42.515988  4137 net.cpp:434] conv5_3_relu5_3_0_split <- conv5_3
I1121 17:03:42.515995  4137 net.cpp:408] conv5_3_relu5_3_0_split -> conv5_3_relu5_3_0_split_0
I1121 17:03:42.516000  4137 net.cpp:408] conv5_3_relu5_3_0_split -> conv5_3_relu5_3_0_split_1
I1121 17:03:42.516003  4137 net.cpp:408] conv5_3_relu5_3_0_split -> conv5_3_relu5_3_0_split_2
I1121 17:03:42.516062  4137 net.cpp:150] Setting up conv5_3_relu5_3_0_split
I1121 17:03:42.516067  4137 net.cpp:157] Top shape: 1 512 32 32 (524288)
I1121 17:03:42.516069  4137 net.cpp:157] Top shape: 1 512 32 32 (524288)
I1121 17:03:42.516072  4137 net.cpp:157] Top shape: 1 512 32 32 (524288)
I1121 17:03:42.516074  4137 net.cpp:165] Memory required for data: 905192384
I1121 17:03:42.516077  4137 layer_factory.hpp:77] Creating layer pool5
I1121 17:03:42.516084  4137 net.cpp:100] Creating Layer pool5
I1121 17:03:42.516086  4137 net.cpp:434] pool5 <- conv5_3_relu5_3_0_split_0
I1121 17:03:42.516094  4137 net.cpp:408] pool5 -> pool5
I1121 17:03:42.516144  4137 net.cpp:150] Setting up pool5
…
I1121 17:03:42.569828  4137 net.cpp:165] Memory required for data: 907559872
I1121 17:03:42.569839  4137 layer_factory.hpp:77] Creating layer relu3-dsn6
I1121 17:03:42.569844  4137 net.cpp:100] Creating Layer relu3-dsn6
I1121 17:03:42.569847  4137 net.cpp:434] relu3-dsn6 <- conv4-dsn6
I1121 17:03:42.569852  4137 net.cpp:395] relu3-dsn6 -> conv4-dsn6 (in-place)
I1121 17:03:42.570035  4137 net.cpp:150] Setting up relu3-dsn6
I1121 17:03:42.570044  4137 net.cpp:157] Top shape: 1 256 17 17 (73984)
I1121 17:03:42.570046  4137 net.cpp:165] Memory required for data: 907855808
I1121 17:03:42.570049  4137 layer_factory.hpp:77] Creating layer conv5-dsn6
I1121 17:03:42.570057  4137 net.cpp:100] Creating Layer conv5-dsn6
I1121 17:03:42.570060  4137 net.cpp:434] conv5-dsn6 <- conv4-dsn6
I1121 17:03:42.570065  4137 net.cpp:408] conv5-dsn6 -> conv5-dsn6
I1121 17:03:42.571205  4137 net.cpp:150] Setting up conv5-dsn6
I1121 17:03:42.571216  4137 net.cpp:157] Top shape: 1 1 17 17 (289)
I1121 17:03:42.571233  4137 net.cpp:165] Memory required for data: 907856964
I1121 17:03:42.571238  4137 layer_factory.hpp:77] Creating layer conv5-dsn6_conv5-dsn6_0_split
I1121 17:03:42.571245  4137 net.cpp:100] Creating Layer conv5-dsn6_conv5-dsn6_0_split
I1121 17:03:42.571249  4137 net.cpp:434] conv5-dsn6_conv5-dsn6_0_split <- conv5-dsn6
I1121 17:03:42.571252  4137 net.cpp:408] conv5-dsn6_conv5-dsn6_0_split -> conv5-dsn6_conv5-dsn6_0_split_0
I1121 17:03:42.571260  4137 net.cpp:408] conv5-dsn6_conv5-dsn6_0_split -> conv5-dsn6_conv5-dsn6_0_split_1
I1121 17:03:42.571306  4137 net.cpp:150] Setting up conv5-dsn6_conv5-dsn6_0_split
I1121 17:03:42.571310  4137 net.cpp:157] Top shape: 1 1 17 17 (289)
I1121 17:03:42.571312  4137 net.cpp:157] Top shape: 1 1 17 17 (289)
I1121 17:03:42.571314  4137 net.cpp:165] Memory required for data: 907859276
I1121 17:03:42.571316  4137 layer_factory.hpp:77] Creating layer upsample32_dsn6
I1121 17:03:42.571323  4137 net.cpp:100] Creating Layer upsample32_dsn6
I1121 17:03:42.571326  4137 net.cpp:434] upsample32_dsn6 <- conv5-dsn6_conv5-dsn6_0_split_0
I1121 17:03:42.571332  4137 net.cpp:408] upsample32_dsn6 -> conv5-dsn6-up
I1121 17:03:42.572818  4137 net.cpp:150] Setting up upsample32_dsn6
I1121 17:03:42.572829  4137 net.cpp:157] Top shape: 1 1 576 576 (331776)
I1121 17:03:42.572846  4137 net.cpp:165] Memory required for data: 909186380
I1121 17:03:42.572851  4137 layer_factory.hpp:77] Creating layer crop-dsn6
I1121 17:03:42.572858  4137 net.cpp:100] Creating Layer crop-dsn6
I1121 17:03:42.572861  4137 net.cpp:434] crop-dsn6 <- conv5-dsn6-up
I1121 17:03:42.572865  4137 net.cpp:434] crop-dsn6 <- data_data_0_split_1
I1121 17:03:42.572870  4137 net.cpp:408] crop-dsn6 -> upscore-dsn6
I1121 17:03:42.572906  4137 net.cpp:150] Setting up crop-dsn6
I1121 17:03:42.572911  4137 net.cpp:157] Top shape: 1 1 500 500 (250000)
I1121 17:03:42.572912  4137 net.cpp:165] Memory required for data: 910186380
I1121 17:03:42.572916  4137 layer_factory.hpp:77] Creating layer loss6-score
I1121 17:03:42.572923  4137 net.cpp:100] Creating Layer loss6-score
I1121 17:03:42.572926  4137 net.cpp:434] loss6-score <- upscore-dsn6
I1121 17:03:42.572929  4137 net.cpp:434] loss6-score <- label_data_1_split_0
I1121 17:03:42.572934  4137 net.cpp:408] loss6-score -> loss6-score
I1121 17:03:42.574211  4137 net.cpp:150] Setting up loss6-score
I1121 17:03:42.574223  4137 net.cpp:157] Top shape: (1)
I1121 17:03:42.574239  4137 net.cpp:160]     with loss weight 1
I1121 17:03:42.574254  4137 net.cpp:165] Memory required for data: 910186384
I1121 17:03:42.574256  4137 layer_factory.hpp:77] Creating layer upsample2_dsn5
I1121 17:03:42.574265  4137 net.cpp:100] Creating Layer upsample2_dsn5
I1121 17:03:42.574267  4137 net.cpp:434] upsample2_dsn5 <- conv5-dsn6_conv5-dsn6_0_split_1
I1121 17:03:42.574275  4137 net.cpp:408] upsample2_dsn5 -> conv5-dsn6-5
I1121 17:03:42.574568  4137 net.cpp:150] Setting up upsample2_dsn5
I1121 17:03:42.574574  4137 net.cpp:157] Top shape: 1 1 36 36 (1296)
I1121 17:03:42.574576  4137 net.cpp:165] Memory required for data: 910191568
I1121 17:03:42.574580  4137 layer_factory.hpp:77] Creating layer crop1-dsn5
I1121 17:03:42.574584  4137 net.cpp:100] Creating Layer crop1-dsn5
I1121 17:03:42.574587  4137 net.cpp:434] crop1-dsn5 <- conv5-dsn6-5
I1121 17:03:42.574591  4137 net.cpp:434] crop1-dsn5 <- conv5_3_relu5_3_0_split_1
I1121 17:03:42.574596  4137 net.cpp:408] crop1-dsn5 -> weight-dsn6-5
I1121 17:03:42.574621  4137 net.cpp:150] Setting up crop1-dsn5
I1121 17:03:42.574625  4137 net.cpp:157] Top shape: 1 1 32 32 (1024)
I1121 17:03:42.574627  4137 net.cpp:165] Memory required for data: 910195664
I1121 17:03:42.574630  4137 layer_factory.hpp:77] Creating layer weight-dsn6-5_crop1-dsn5_0_split
I1121 17:03:42.574635  4137 net.cpp:100] Creating Layer weight-dsn6-5_crop1-dsn5_0_split
I1121 17:03:42.574638  4137 net.cpp:434] weight-dsn6-5_crop1-dsn5_0_split <- weight-dsn6-5
I1121 17:03:42.574643  4137 net.cpp:408] weight-dsn6-5_crop1-dsn5_0_split -> weight-dsn6-5_crop1-dsn5_0_split_0
I1121 17:03:42.574647  4137 net.cpp:408] weight-dsn6-5_crop1-dsn5_0_split -> weight-dsn6-5_crop1-dsn5_0_split_1
I1121 17:03:42.574685  4137 net.cpp:150] Setting up weight-dsn6-5_crop1-dsn5_0_split
I1121 17:03:42.574692  4137 net.cpp:157] Top shape: 1 1 32 32 (1024)
I1121 17:03:42.574694  4137 net.cpp:157] Top shape: 1 1 32 32 (1024)
I1121 17:03:42.574697  4137 net.cpp:165] Memory required for data: 910203856
I1121 17:03:42.574698  4137 layer_factory.hpp:77] Creating layer sigmoid-dsn5
I1121 17:03:42.574703  4137 net.cpp:100] Creating Layer sigmoid-dsn5
I1121 17:03:42.574705  4137 net.cpp:434] sigmoid-dsn5 <- weight-dsn6-5_crop1-dsn5_0_split_0
I1121 17:03:42.574709  4137 net.cpp:408] sigmoid-dsn5 -> sigmoid-dsn5
I1121 17:03:42.574914  4137 net.cpp:150] Setting up sigmoid-dsn5
I1121 17:03:42.574925  4137 net.cpp:157] Top shape: 1 1 32 32 (1024)
I1121 17:03:42.574928  4137 net.cpp:165] Memory required for data: 910207952
I1121 17:03:42.574929  4137 layer_factory.hpp:77] Creating layer rev-dsn5
I1121 17:03:42.574934  4137 net.cpp:100] Creating Layer rev-dsn5
I1121 17:03:42.574937  4137 net.cpp:434] rev-dsn5 <- sigmoid-dsn5
I1121 17:03:42.574941  4137 net.cpp:408] rev-dsn5 -> rev-dsn5
I1121 17:03:42.574968  4137 net.cpp:150] Setting up rev-dsn5
I1121 17:03:42.574975  4137 net.cpp:157] Top shape: 1 1 32 32 (1024)
I1121 17:03:42.574976  4137 net.cpp:165] Memory required for data: 910212048
I1121 17:03:42.574980  4137 layer_factory.hpp:77] Creating layer tile-dsn5
I1121 17:03:42.574985  4137 net.cpp:100] Creating Layer tile-dsn5
I1121 17:03:42.574987  4137 net.cpp:434] tile-dsn5 <- rev-dsn5
I1121 17:03:42.574991  4137 net.cpp:408] tile-dsn5 -> weight-dsn5
I1121 17:03:42.575017  4137 net.cpp:150] Setting up tile-dsn5
I1121 17:03:42.575021  4137 net.cpp:157] Top shape: 1 512 32 32 (524288)
I1121 17:03:42.575023  4137 net.cpp:165] Memory required for data: 912309200
I1121 17:03:42.575026  4137 layer_factory.hpp:77] Creating layer prod1-dsn5
I1121 17:03:42.575031  4137 net.cpp:100] Creating Layer prod1-dsn5
I1121 17:03:42.575033  4137 net.cpp:434] prod1-dsn5 <- conv5_3_relu5_3_0_split_2
I1121 17:03:42.575037  4137 net.cpp:434] prod1-dsn5 <- weight-dsn5
I1121 17:03:42.575042  4137 net.cpp:408] prod1-dsn5 -> prod1-dsn5
I1121 17:03:42.575079  4137 net.cpp:150] Setting up prod1-dsn5
I1121 17:03:42.575085  4137 net.cpp:157] Top shape: 1 512 32 32 (524288)
I1121 17:03:42.575086  4137 net.cpp:165] Memory required for data: 914406352
I1121 17:03:42.575089  4137 layer_factory.hpp:77] Creating layer conv1-dsn5
I1121 17:03:42.575098  4137 net.cpp:100] Creating Layer conv1-dsn5
I1121 17:03:42.575100  4137 net.cpp:434] conv1-dsn5 <- prod1-dsn5
I1121 17:03:42.575104  4137 net.cpp:408] conv1-dsn5 -> conv1-dsn5
I1121 17:03:42.576696  4137 net.cpp:150] Setting up conv1-dsn5
I1121 17:03:42.576717  4137 net.cpp:157] Top shape: 1 64 32 32 (65536)
I1121 17:03:42.576721  4137 net.cpp:165] Memory required for data: 914668496
I1121 17:03:42.576730  4137 layer_factory.hpp:77] Creating layer conv2-dsn5
I1121 17:03:42.576745  4137 net.cpp:100] Creating Layer conv2-dsn5
I1121 17:03:42.576750  4137 net.cpp:434] conv2-dsn5 <- conv1-dsn5
I1121 17:03:42.576758  4137 net.cpp:408] conv2-dsn5 -> conv2-dsn5
I1121 17:03:42.578402  4137 net.cpp:150] Setting up conv2-dsn5
I1121 17:03:42.578414  4137 net.cpp:157] Top shape: 1 64 32 32 (65536)
I1121 17:03:42.578418  4137 net.cpp:165] Memory required for data: 914930640
I1121 17:03:42.578424  4137 layer_factory.hpp:77] Creating layer relu1-dsn5
I1121 17:03:42.578433  4137 net.cpp:100] Creating Layer relu1-dsn5
I1121 17:03:42.578438  4137 net.cpp:434] relu1-dsn5 <- conv2-dsn5
I1121 17:03:42.578444  4137 net.cpp:395] relu1-dsn5 -> conv2-dsn5 (in-place)
I1121 17:03:42.578614  4137 net.cpp:150] Setting up relu1-dsn5
I1121 17:03:42.578629  4137 net.cpp:157] Top shape: 1 64 32 32 (65536)
I1121 17:03:42.578631  4137 net.cpp:165] Memory required for data: 915192784
I1121 17:03:42.578635  4137 layer_factory.hpp:77] Creating layer conv3-dsn5
I1121 17:03:42.578646  4137 net.cpp:100] Creating Layer conv3-dsn5
I1121 17:03:42.578651  4137 net.cpp:434] conv3-dsn5 <- conv2-dsn5
I1121 17:03:42.578660  4137 net.cpp:408] conv3-dsn5 -> conv3-dsn5
I1121 17:03:42.580117  4137 net.cpp:150] Setting up conv3-dsn5
I1121 17:03:42.580134  4137 net.cpp:157] Top shape: 1 64 32 32 (65536)
I1121 17:03:42.580137  4137 net.cpp:165] Memory required for data: 915454928
I1121 17:03:42.580145  4137 layer_factory.hpp:77] Creating layer relu2-dsn5
I1121 17:03:42.580152  4137 net.cpp:100] Creating Layer relu2-dsn5
I1121 17:03:42.580155  4137 net.cpp:434] relu2-dsn5 <- conv3-dsn5
I1121 17:03:42.580163  4137 net.cpp:395] relu2-dsn5 -> conv3-dsn5 (in-place)
I1121 17:03:42.580329  4137 net.cpp:150] Setting up relu2-dsn5
I1121 17:03:42.580338  4137 net.cpp:157] Top shape: 1 64 32 32 (65536)
I1121 17:03:42.580341  4137 net.cpp:165] Memory required for data: 915717072
I1121 17:03:42.580344  4137 layer_factory.hpp:77] Creating layer conv4-dsn5
I1121 17:03:42.580359  4137 net.cpp:100] Creating Layer conv4-dsn5
I1121 17:03:42.580363  4137 net.cpp:434] conv4-dsn5 <- conv3-dsn5
I1121 17:03:42.580370  4137 net.cpp:408] conv4-dsn5 -> conv4-dsn5
I1121 17:03:42.581480  4137 net.cpp:150] Setting up conv4-dsn5
I1121 17:03:42.581493  4137 net.cpp:157] Top shape: 1 1 32 32 (1024)
I1121 17:03:42.581496  4137 net.cpp:165] Memory required for data: 915721168
I1121 17:03:42.581503  4137 layer_factory.hpp:77] Creating layer sum-dsn5
I1121 17:03:42.581531  4137 net.cpp:100] Creating Layer sum-dsn5
I1121 17:03:42.581537  4137 net.cpp:434] sum-dsn5 <- conv4-dsn5
I1121 17:03:42.581542  4137 net.cpp:434] sum-dsn5 <- weight-dsn6-5_crop1-dsn5_0_split_1
I1121 17:03:42.581547  4137 net.cpp:408] sum-dsn5 -> sum-dsn5
I1121 17:03:42.581583  4137 net.cpp:150] Setting up sum-dsn5
I1121 17:03:42.581590  4137 net.cpp:157] Top shape: 1 1 32 32 (1024)
I1121 17:03:42.581593  4137 net.cpp:165] Memory required for data: 915725264
I1121 17:03:42.581598  4137 layer_factory.hpp:77] Creating layer sum-dsn5_sum-dsn5_0_split
I1121 17:03:42.581609  4137 net.cpp:100] Creating Layer sum-dsn5_sum-dsn5_0_split
I1121 17:03:42.581614  4137 net.cpp:434] sum-dsn5_sum-dsn5_0_split <- sum-dsn5
I1121 17:03:42.581619  4137 net.cpp:408] sum-dsn5_sum-dsn5_0_split -> sum-dsn5_sum-dsn5_0_split_0
I1121 17:03:42.581627  4137 net.cpp:408] sum-dsn5_sum-dsn5_0_split -> sum-dsn5_sum-dsn5_0_split_1
I1121 17:03:42.581676  4137 net.cpp:150] Setting up sum-dsn5_sum-dsn5_0_split
I1121 17:03:42.581681  4137 net.cpp:157] Top shape: 1 1 32 32 (1024)
I1121 17:03:42.581686  4137 net.cpp:157] Top shape: 1 1 32 32 (1024)
I1121 17:03:42.581688  4137 net.cpp:165] Memory required for data: 915733456
I1121 17:03:42.581692  4137 layer_factory.hpp:77] Creating layer upsample16_dsn5
I1121 17:03:42.581699  4137 net.cpp:100] Creating Layer upsample16_dsn5
I1121 17:03:42.581703  4137 net.cpp:434] upsample16_dsn5 <- sum-dsn5_sum-dsn5_0_split_0
I1121 17:03:42.581708  4137 net.cpp:408] upsample16_dsn5 -> sum-dsn5-up
I1121 17:03:42.583187  4137 net.cpp:150] Setting up upsample16_dsn5
I1121 17:03:42.583202  4137 net.cpp:157] Top shape: 1 1 528 528 (278784)
I1121 17:03:42.583205  4137 net.cpp:165] Memory required for data: 916848592
I1121 17:03:42.583214  4137 layer_factory.hpp:77] Creating layer crop2-dsn5
I1121 17:03:42.583220  4137 net.cpp:100] Creating Layer crop2-dsn5
I1121 17:03:42.583225  4137 net.cpp:434] crop2-dsn5 <- sum-dsn5-up
I1121 17:03:42.583230  4137 net.cpp:434] crop2-dsn5 <- data_data_0_split_2
I1121 17:03:42.583236  4137 net.cpp:408] crop2-dsn5 -> upscore-dsn5
I1121 17:03:42.583281  4137 net.cpp:150] Setting up crop2-dsn5
I1121 17:03:42.583287  4137 net.cpp:157] Top shape: 1 1 500 500 (250000)
I1121 17:03:42.583292  4137 net.cpp:165] Memory required for data: 917848592
I1121 17:03:42.583294  4137 layer_factory.hpp:77] Creating layer loss5-score
I1121 17:03:42.583303  4137 net.cpp:100] Creating Layer loss5-score
I1121 17:03:42.583308  4137 net.cpp:434] loss5-score <- upscore-dsn5
I1121 17:03:42.583312  4137 net.cpp:434] loss5-score <- label_data_1_split_1
I1121 17:03:42.583320  4137 net.cpp:408] loss5-score -> loss5-score
I1121 17:03:42.583554  4137 net.cpp:150] Setting up loss5-score
I1121 17:03:42.583560  4137 net.cpp:157] Top shape: (1)
I1121 17:03:42.583564  4137 net.cpp:160]     with loss weight 1
I1121 17:03:42.583570  4137 net.cpp:165] Memory required for data: 917848596
I1121 17:03:42.583572  4137 layer_factory.hpp:77] Creating layer upsample2_dsn4
I1121 17:03:42.583580  4137 net.cpp:100] Creating Layer upsample2_dsn4
I1121 17:03:42.583583  4137 net.cpp:434] upsample2_dsn4 <- sum-dsn5_sum-dsn5_0_split_1
I1121 17:03:42.583596  4137 net.cpp:408] upsample2_dsn4 -> sum-dsn5-4
I1121 17:03:42.583866  4137 net.cpp:150] Setting up upsample2_dsn4
I1121 17:03:42.583873  4137 net.cpp:157] Top shape: 1 1 66 66 (4356)
I1121 17:03:42.583876  4137 net.cpp:165] Memory required for data: 917866020
I1121 17:03:42.583883  4137 layer_factory.hpp:77] Creating layer crop1-dsn4
I1121 17:03:42.583889  4137 net.cpp:100] Creating Layer crop1-dsn4
I1121 17:03:42.583894  4137 net.cpp:434] crop1-dsn4 <- sum-dsn5-4
I1121 17:03:42.583899  4137 net.cpp:434] crop1-dsn4 <- conv4_3_relu4_3_0_split_1
I1121 17:03:42.583904  4137 net.cpp:408] crop1-dsn4 -> weight-dsn5-4
I1121 17:03:42.583938  4137 net.cpp:150] Setting up crop1-dsn4
I1121 17:03:42.583945  4137 net.cpp:157] Top shape: 1 1 63 63 (3969)
I1121 17:03:42.583947  4137 net.cpp:165] Memory required for data: 917881896
I1121 17:03:42.583950  4137 layer_factory.hpp:77] Creating layer weight-dsn5-4_crop1-dsn4_0_split
I1121 17:03:42.583957  4137 net.cpp:100] Creating Layer weight-dsn5-4_crop1-dsn4_0_split
I1121 17:03:42.583961  4137 net.cpp:434] weight-dsn5-4_crop1-dsn4_0_split <- weight-dsn5-4
I1121 17:03:42.583967  4137 net.cpp:408] weight-dsn5-4_crop1-dsn4_0_split -> weight-dsn5-4_crop1-dsn4_0_split_0
I1121 17:03:42.583974  4137 net.cpp:408] weight-dsn5-4_crop1-dsn4_0_split -> weight-dsn5-4_crop1-dsn4_0_split_1
I1121 17:03:42.584038  4137 net.cpp:150] Setting up weight-dsn5-4_crop1-dsn4_0_split
I1121 17:03:42.584060  4137 net.cpp:157] Top shape: 1 1 63 63 (3969)
I1121 17:03:42.584080  4137 net.cpp:157] Top shape: 1 1 63 63 (3969)
I1121 17:03:42.584084  4137 net.cpp:165] Memory required for data: 917913648
I1121 17:03:42.584087  4137 layer_factory.hpp:77] Creating layer sigmoid-dsn4
I1121 17:03:42.584112  4137 net.cpp:100] Creating Layer sigmoid-dsn4
I1121 17:03:42.584117  4137 net.cpp:434] sigmoid-dsn4 <- weight-dsn5-4_crop1-dsn4_0_split_0
I1121 17:03:42.584123  4137 net.cpp:408] sigmoid-dsn4 -> sigmoid-dsn4
I1121 17:03:42.584424  4137 net.cpp:150] Setting up sigmoid-dsn4
I1121 17:03:42.584434  4137 net.cpp:157] Top shape: 1 1 63 63 (3969)
I1121 17:03:42.584439  4137 net.cpp:165] Memory required for data: 917929524
I1121 17:03:42.584444  4137 layer_factory.hpp:77] Creating layer rev-dsn4
I1121 17:03:42.584450  4137 net.cpp:100] Creating Layer rev-dsn4
I1121 17:03:42.584455  4137 net.cpp:434] rev-dsn4 <- sigmoid-dsn4
I1121 17:03:42.584465  4137 net.cpp:408] rev-dsn4 -> rev-dsn4
I1121 17:03:42.584506  4137 net.cpp:150] Setting up rev-dsn4
I1121 17:03:42.584512  4137 net.cpp:157] Top shape: 1 1 63 63 (3969)
I1121 17:03:42.584517  4137 net.cpp:165] Memory required for data: 917945400
I1121 17:03:42.584520  4137 layer_factory.hpp:77] Creating layer tile-dsn4
I1121 17:03:42.584527  4137 net.cpp:100] Creating Layer tile-dsn4
I1121 17:03:42.584532  4137 net.cpp:434] tile-dsn4 <- rev-dsn4
I1121 17:03:42.584542  4137 net.cpp:408] tile-dsn4 -> weight-dsn4
I1121 17:03:42.584578  4137 net.cpp:150] Setting up tile-dsn4
I1121 17:03:42.584585  4137 net.cpp:157] Top shape: 1 512 63 63 (2032128)
I1121 17:03:42.584589  4137 net.cpp:165] Memory required for data: 926073912
I1121 17:03:42.584594  4137 layer_factory.hpp:77] Creating layer prod1-dsn4
I1121 17:03:42.584604  4137 net.cpp:100] Creating Layer prod1-dsn4
I1121 17:03:42.584609  4137 net.cpp:434] prod1-dsn4 <- conv4_3_relu4_3_0_split_2
I1121 17:03:42.584614  4137 net.cpp:434] prod1-dsn4 <- weight-dsn4
I1121 17:03:42.584635  4137 net.cpp:408] prod1-dsn4 -> prod1-dsn4
I1121 17:03:42.584923  4137 net.cpp:150] Setting up prod1-dsn4
I1121 17:03:42.584929  4137 net.cpp:157] Top shape: 1 512 63 63 (2032128)
I1121 17:03:42.584931  4137 net.cpp:165] Memory required for data: 934202424
I1121 17:03:42.584935  4137 layer_factory.hpp:77] Creating layer conv1-dsn4
I1121 17:03:42.584947  4137 net.cpp:100] Creating Layer conv1-dsn4
I1121 17:03:42.584950  4137 net.cpp:434] conv1-dsn4 <- prod1-dsn4
I1121 17:03:42.584959  4137 net.cpp:408] conv1-dsn4 -> conv1-dsn4
I1121 17:03:42.586500  4137 net.cpp:150] Setting up conv1-dsn4
I1121 17:03:42.586513  4137 net.cpp:157] Top shape: 1 64 63 63 (254016)
I1121 17:03:42.586515  4137 net.cpp:165] Memory required for data: 935218488
I1121 17:03:42.586522  4137 layer_factory.hpp:77] Creating layer conv2-dsn4
I1121 17:03:42.586535  4137 net.cpp:100] Creating Layer conv2-dsn4
I1121 17:03:42.586539  4137 net.cpp:434] conv2-dsn4 <- conv1-dsn4
I1121 17:03:42.586549  4137 net.cpp:408] conv2-dsn4 -> conv2-dsn4
I1121 17:03:42.588263  4137 net.cpp:150] Setting up conv2-dsn4
I1121 17:03:42.588274  4137 net.cpp:157] Top shape: 1 64 63 63 (254016)
I1121 17:03:42.588280  4137 net.cpp:165] Memory required for data: 936234552
I1121 17:03:42.588287  4137 layer_factory.hpp:77] Creating layer relu1-dsn4
I1121 17:03:42.588294  4137 net.cpp:100] Creating Layer relu1-dsn4
I1121 17:03:42.588297  4137 net.cpp:434] relu1-dsn4 <- conv2-dsn4
I1121 17:03:42.588304  4137 net.cpp:395] relu1-dsn4 -> conv2-dsn4 (in-place)
I1121 17:03:42.588485  4137 net.cpp:150] Setting up relu1-dsn4
I1121 17:03:42.588492  4137 net.cpp:157] Top shape: 1 64 63 63 (254016)
I1121 17:03:42.588496  4137 net.cpp:165] Memory required for data: 937250616
I1121 17:03:42.588500  4137 layer_factory.hpp:77] Creating layer conv3-dsn4
I1121 17:03:42.588517  4137 net.cpp:100] Creating Layer conv3-dsn4
I1121 17:03:42.588523  4137 net.cpp:434] conv3-dsn4 <- conv2-dsn4
I1121 17:03:42.588531  4137 net.cpp:408] conv3-dsn4 -> conv3-dsn4
I1121 17:03:42.589987  4137 net.cpp:150] Setting up conv3-dsn4
I1121 17:03:42.589998  4137 net.cpp:157] Top shape: 1 64 63 63 (254016)
I1121 17:03:42.590001  4137 net.cpp:165] Memory required for data: 938266680
I1121 17:03:42.590008  4137 layer_factory.hpp:77] Creating layer relu2-dsn4
I1121 17:03:42.590018  4137 net.cpp:100] Creating Layer relu2-dsn4
I1121 17:03:42.590021  4137 net.cpp:434] relu2-dsn4 <- conv3-dsn4
I1121 17:03:42.590026  4137 net.cpp:395] relu2-dsn4 -> conv3-dsn4 (in-place)
I1121 17:03:42.590840  4137 net.cpp:150] Setting up relu2-dsn4
I1121 17:03:42.590852  4137 net.cpp:157] Top shape: 1 64 63 63 (254016)
I1121 17:03:42.590854  4137 net.cpp:165] Memory required for data: 939282744
I1121 17:03:42.590858  4137 layer_factory.hpp:77] Creating layer conv4-dsn4
I1121 17:03:42.590873  4137 net.cpp:100] Creating Layer conv4-dsn4
I1121 17:03:42.590878  4137 net.cpp:434] conv4-dsn4 <- conv3-dsn4
I1121 17:03:42.590884  4137 net.cpp:408] conv4-dsn4 -> conv4-dsn4
I1121 17:03:42.592031  4137 net.cpp:150] Setting up conv4-dsn4
I1121 17:03:42.592043  4137 net.cpp:157] Top shape: 1 1 63 63 (3969)
I1121 17:03:42.592046  4137 net.cpp:165] Memory required for data: 939298620
I1121 17:03:42.592053  4137 layer_factory.hpp:77] Creating layer sum-dsn4
I1121 17:03:42.592062  4137 net.cpp:100] Creating Layer sum-dsn4
I1121 17:03:42.592067  4137 net.cpp:434] sum-dsn4 <- conv4-dsn4
I1121 17:03:42.592072  4137 net.cpp:434] sum-dsn4 <- weight-dsn5-4_crop1-dsn4_0_split_1
I1121 17:03:42.592077  4137 net.cpp:408] sum-dsn4 -> sum-dsn4
I1121 17:03:42.592115  4137 net.cpp:150] Setting up sum-dsn4
I1121 17:03:42.592123  4137 net.cpp:157] Top shape: 1 1 63 63 (3969)
I1121 17:03:42.592130  4137 net.cpp:165] Memory required for data: 939314496
I1121 17:03:42.592134  4137 layer_factory.hpp:77] Creating layer sum-dsn4_sum-dsn4_0_split
I1121 17:03:42.592139  4137 net.cpp:100] Creating Layer sum-dsn4_sum-dsn4_0_split
I1121 17:03:42.592144  4137 net.cpp:434] sum-dsn4_sum-dsn4_0_split <- sum-dsn4
I1121 17:03:42.592151  4137 net.cpp:408] sum-dsn4_sum-dsn4_0_split -> sum-dsn4_sum-dsn4_0_split_0
I1121 17:03:42.592161  4137 net.cpp:408] sum-dsn4_sum-dsn4_0_split -> sum-dsn4_sum-dsn4_0_split_1
I1121 17:03:42.592209  4137 net.cpp:150] Setting up sum-dsn4_sum-dsn4_0_split
I1121 17:03:42.592216  4137 net.cpp:157] Top shape: 1 1 63 63 (3969)
I1121 17:03:42.592221  4137 net.cpp:157] Top shape: 1 1 63 63 (3969)
I1121 17:03:42.592223  4137 net.cpp:165] Memory required for data: 939346248
I1121 17:03:42.592226  4137 layer_factory.hpp:77] Creating layer upsample8_dsn4
I1121 17:03:42.592240  4137 net.cpp:100] Creating Layer upsample8_dsn4
I1121 17:03:42.592243  4137 net.cpp:434] upsample8_dsn4 <- sum-dsn4_sum-dsn4_0_split_0
I1121 17:03:42.592249  4137 net.cpp:408] upsample8_dsn4 -> sum-dsn4-up
I1121 17:03:42.593669  4137 net.cpp:150] Setting up upsample8_dsn4
I1121 17:03:42.593683  4137 net.cpp:157] Top shape: 1 1 512 512 (262144)
I1121 17:03:42.593686  4137 net.cpp:165] Memory required for data: 940394824
I1121 17:03:42.593694  4137 layer_factory.hpp:77] Creating layer crop2-dsn4
I1121 17:03:42.593700  4137 net.cpp:100] Creating Layer crop2-dsn4
I1121 17:03:42.593704  4137 net.cpp:434] crop2-dsn4 <- sum-dsn4-up
I1121 17:03:42.593709  4137 net.cpp:434] crop2-dsn4 <- data_data_0_split_3
I1121 17:03:42.593715  4137 net.cpp:408] crop2-dsn4 -> upscore-dsn4
I1121 17:03:42.593756  4137 net.cpp:150] Setting up crop2-dsn4
I1121 17:03:42.593762  4137 net.cpp:157] Top shape: 1 1 500 500 (250000)
I1121 17:03:42.593765  4137 net.cpp:165] Memory required for data: 941394824
I1121 17:03:42.593770  4137 layer_factory.hpp:77] Creating layer loss4-score
I1121 17:03:42.593777  4137 net.cpp:100] Creating Layer loss4-score
I1121 17:03:42.593781  4137 net.cpp:434] loss4-score <- upscore-dsn4
I1121 17:03:42.593786  4137 net.cpp:434] loss4-score <- label_data_1_split_2
I1121 17:03:42.593793  4137 net.cpp:408] loss4-score -> loss4-score
I1121 17:03:42.593981  4137 net.cpp:150] Setting up loss4-score
I1121 17:03:42.593988  4137 net.cpp:157] Top shape: (1)
I1121 17:03:42.593991  4137 net.cpp:160]     with loss weight 1
I1121 17:03:42.593998  4137 net.cpp:165] Memory required for data: 941394828
I1121 17:03:42.594002  4137 layer_factory.hpp:77] Creating layer upsample2_dsn3
I1121 17:03:42.594010  4137 net.cpp:100] Creating Layer upsample2_dsn3
I1121 17:03:42.594014  4137 net.cpp:434] upsample2_dsn3 <- sum-dsn4_sum-dsn4_0_split_1
I1121 17:03:42.594022  4137 net.cpp:408] upsample2_dsn3 -> sum-dsn4-3
I1121 17:03:42.594341  4137 net.cpp:150] Setting up upsample2_dsn3
I1121 17:03:42.594350  4137 net.cpp:157] Top shape: 1 1 128 128 (16384)
I1121 17:03:42.594353  4137 net.cpp:165] Memory required for data: 941460364
I1121 17:03:42.594360  4137 layer_factory.hpp:77] Creating layer crop1-dsn3
I1121 17:03:42.594368  4137 net.cpp:100] Creating Layer crop1-dsn3
I1121 17:03:42.594373  4137 net.cpp:434] crop1-dsn3 <- sum-dsn4-3
I1121 17:03:42.594378  4137 net.cpp:434] crop1-dsn3 <- conv3_3_relu3_3_0_split_1
I1121 17:03:42.594383  4137 net.cpp:408] crop1-dsn3 -> weight-dsn4-3
I1121 17:03:42.594420  4137 net.cpp:150] Setting up crop1-dsn3
I1121 17:03:42.594427  4137 net.cpp:157] Top shape: 1 1 125 125 (15625)
I1121 17:03:42.594430  4137 net.cpp:165] Memory required for data: 941522864
I1121 17:03:42.594434  4137 layer_factory.hpp:77] Creating layer weight-dsn4-3_crop1-dsn3_0_split
I1121 17:03:42.594439  4137 net.cpp:100] Creating Layer weight-dsn4-3_crop1-dsn3_0_split
I1121 17:03:42.594444  4137 net.cpp:434] weight-dsn4-3_crop1-dsn3_0_split <- weight-dsn4-3
I1121 17:03:42.594465  4137 net.cpp:408] weight-dsn4-3_crop1-dsn3_0_split -> weight-dsn4-3_crop1-dsn3_0_split_0
I1121 17:03:42.594471  4137 net.cpp:408] weight-dsn4-3_crop1-dsn3_0_split -> weight-dsn4-3_crop1-dsn3_0_split_1
I1121 17:03:42.594521  4137 net.cpp:150] Setting up weight-dsn4-3_crop1-dsn3_0_split
I1121 17:03:42.594527  4137 net.cpp:157] Top shape: 1 1 125 125 (15625)
I1121 17:03:42.594530  4137 net.cpp:157] Top shape: 1 1 125 125 (15625)
I1121 17:03:42.594533  4137 net.cpp:165] Memory required for data: 941647864
I1121 17:03:42.594537  4137 layer_factory.hpp:77] Creating layer sigmoid-dsn3
I1121 17:03:42.594543  4137 net.cpp:100] Creating Layer sigmoid-dsn3
I1121 17:03:42.594547  4137 net.cpp:434] sigmoid-dsn3 <- weight-dsn4-3_crop1-dsn3_0_split_0
I1121 17:03:42.594553  4137 net.cpp:408] sigmoid-dsn3 -> sigmoid-dsn3
I1121 17:03:42.594760  4137 net.cpp:150] Setting up sigmoid-dsn3
I1121 17:03:42.594770  4137 net.cpp:157] Top shape: 1 1 125 125 (15625)
I1121 17:03:42.594774  4137 net.cpp:165] Memory required for data: 941710364
I1121 17:03:42.594777  4137 layer_factory.hpp:77] Creating layer rev-dsn3
I1121 17:03:42.594784  4137 net.cpp:100] Creating Layer rev-dsn3
I1121 17:03:42.594787  4137 net.cpp:434] rev-dsn3 <- sigmoid-dsn3
I1121 17:03:42.594794  4137 net.cpp:408] rev-dsn3 -> rev-dsn3
I1121 17:03:42.594827  4137 net.cpp:150] Setting up rev-dsn3
I1121 17:03:42.594833  4137 net.cpp:157] Top shape: 1 1 125 125 (15625)
I1121 17:03:42.594836  4137 net.cpp:165] Memory required for data: 941772864
I1121 17:03:42.594839  4137 layer_factory.hpp:77] Creating layer tile-dsn3
I1121 17:03:42.594847  4137 net.cpp:100] Creating Layer tile-dsn3
I1121 17:03:42.594851  4137 net.cpp:434] tile-dsn3 <- rev-dsn3
I1121 17:03:42.594856  4137 net.cpp:408] tile-dsn3 -> weight-dsn3
I1121 17:03:42.594888  4137 net.cpp:150] Setting up tile-dsn3
I1121 17:03:42.594893  4137 net.cpp:157] Top shape: 1 256 125 125 (4000000)
I1121 17:03:42.594897  4137 net.cpp:165] Memory required for data: 957772864
I1121 17:03:42.594900  4137 layer_factory.hpp:77] Creating layer prod1-dsn3
I1121 17:03:42.594908  4137 net.cpp:100] Creating Layer prod1-dsn3
I1121 17:03:42.594911  4137 net.cpp:434] prod1-dsn3 <- conv3_3_relu3_3_0_split_2
I1121 17:03:42.594916  4137 net.cpp:434] prod1-dsn3 <- weight-dsn3
I1121 17:03:42.594921  4137 net.cpp:408] prod1-dsn3 -> prod1-dsn3
I1121 17:03:42.594959  4137 net.cpp:150] Setting up prod1-dsn3
I1121 17:03:42.594964  4137 net.cpp:157] Top shape: 1 256 125 125 (4000000)
I1121 17:03:42.594967  4137 net.cpp:165] Memory required for data: 973772864
I1121 17:03:42.594970  4137 layer_factory.hpp:77] Creating layer conv1-dsn3
I1121 17:03:42.594981  4137 net.cpp:100] Creating Layer conv1-dsn3
I1121 17:03:42.594985  4137 net.cpp:434] conv1-dsn3 <- prod1-dsn3
I1121 17:03:42.594993  4137 net.cpp:408] conv1-dsn3 -> conv1-dsn3
I1121 17:03:42.596870  4137 net.cpp:150] Setting up conv1-dsn3
I1121 17:03:42.596882  4137 net.cpp:157] Top shape: 1 64 125 125 (1000000)
I1121 17:03:42.596885  4137 net.cpp:165] Memory required for data: 977772864
I1121 17:03:42.596904  4137 layer_factory.hpp:77] Creating layer conv2-dsn3
I1121 17:03:42.596918  4137 net.cpp:100] Creating Layer conv2-dsn3
I1121 17:03:42.596925  4137 net.cpp:434] conv2-dsn3 <- conv1-dsn3
I1121 17:03:42.596932  4137 net.cpp:408] conv2-dsn3 -> conv2-dsn3
I1121 17:03:42.598812  4137 net.cpp:150] Setting up conv2-dsn3
I1121 17:03:42.598826  4137 net.cpp:157] Top shape: 1 64 125 125 (1000000)
I1121 17:03:42.598830  4137 net.cpp:165] Memory required for data: 981772864
I1121 17:03:42.598837  4137 layer_factory.hpp:77] Creating layer relu1-dsn3
I1121 17:03:42.598843  4137 net.cpp:100] Creating Layer relu1-dsn3
I1121 17:03:42.598847  4137 net.cpp:434] relu1-dsn3 <- conv2-dsn3
I1121 17:03:42.598852  4137 net.cpp:395] relu1-dsn3 -> conv2-dsn3 (in-place)
I1121 17:03:42.599025  4137 net.cpp:150] Setting up relu1-dsn3
I1121 17:03:42.599033  4137 net.cpp:157] Top shape: 1 64 125 125 (1000000)
I1121 17:03:42.599036  4137 net.cpp:165] Memory required for data: 985772864
I1121 17:03:42.599040  4137 layer_factory.hpp:77] Creating layer conv3-dsn3
I1121 17:03:42.599053  4137 net.cpp:100] Creating Layer conv3-dsn3
I1121 17:03:42.599057  4137 net.cpp:434] conv3-dsn3 <- conv2-dsn3
I1121 17:03:42.599064  4137 net.cpp:408] conv3-dsn3 -> conv3-dsn3
I1121 17:03:42.600562  4137 net.cpp:150] Setting up conv3-dsn3
I1121 17:03:42.600574  4137 net.cpp:157] Top shape: 1 64 125 125 (1000000)
I1121 17:03:42.600577  4137 net.cpp:165] Memory required for data: 989772864
I1121 17:03:42.600585  4137 layer_factory.hpp:77] Creating layer relu2-dsn3
I1121 17:03:42.600594  4137 net.cpp:100] Creating Layer relu2-dsn3
I1121 17:03:42.600597  4137 net.cpp:434] relu2-dsn3 <- conv3-dsn3
I1121 17:03:42.600603  4137 net.cpp:395] relu2-dsn3 -> conv3-dsn3 (in-place)
I1121 17:03:42.600775  4137 net.cpp:150] Setting up relu2-dsn3
I1121 17:03:42.600783  4137 net.cpp:157] Top shape: 1 64 125 125 (1000000)
I1121 17:03:42.600786  4137 net.cpp:165] Memory required for data: 993772864
I1121 17:03:42.600790  4137 layer_factory.hpp:77] Creating layer conv4-dsn3
I1121 17:03:42.600805  4137 net.cpp:100] Creating Layer conv4-dsn3
I1121 17:03:42.600809  4137 net.cpp:434] conv4-dsn3 <- conv3-dsn3
I1121 17:03:42.600818  4137 net.cpp:408] conv4-dsn3 -> conv4-dsn3
I1121 17:03:42.602298  4137 net.cpp:150] Setting up conv4-dsn3
I1121 17:03:42.602310  4137 net.cpp:157] Top shape: 1 1 125 125 (15625)
I1121 17:03:42.602313  4137 net.cpp:165] Memory required for data: 993835364
I1121 17:03:42.602321  4137 layer_factory.hpp:77] Creating layer sum-dsn3
I1121 17:03:42.602329  4137 net.cpp:100] Creating Layer sum-dsn3
I1121 17:03:42.602334  4137 net.cpp:434] sum-dsn3 <- conv4-dsn3
I1121 17:03:42.602339  4137 net.cpp:434] sum-dsn3 <- weight-dsn4-3_crop1-dsn3_0_split_1
I1121 17:03:42.602345  4137 net.cpp:408] sum-dsn3 -> sum-dsn3
I1121 17:03:42.602386  4137 net.cpp:150] Setting up sum-dsn3
I1121 17:03:42.602393  4137 net.cpp:157] Top shape: 1 1 125 125 (15625)
I1121 17:03:42.602396  4137 net.cpp:165] Memory required for data: 993897864
I1121 17:03:42.602399  4137 layer_factory.hpp:77] Creating layer sum-dsn3_sum-dsn3_0_split
I1121 17:03:42.602408  4137 net.cpp:100] Creating Layer sum-dsn3_sum-dsn3_0_split
I1121 17:03:42.602412  4137 net.cpp:434] sum-dsn3_sum-dsn3_0_split <- sum-dsn3
I1121 17:03:42.602418  4137 net.cpp:408] sum-dsn3_sum-dsn3_0_split -> sum-dsn3_sum-dsn3_0_split_0
I1121 17:03:42.602427  4137 net.cpp:408] sum-dsn3_sum-dsn3_0_split -> sum-dsn3_sum-dsn3_0_split_1
I1121 17:03:42.602476  4137 net.cpp:150] Setting up sum-dsn3_sum-dsn3_0_split
I1121 17:03:42.602483  4137 net.cpp:157] Top shape: 1 1 125 125 (15625)
I1121 17:03:42.602486  4137 net.cpp:157] Top shape: 1 1 125 125 (15625)
I1121 17:03:42.602489  4137 net.cpp:165] Memory required for data: 994022864
I1121 17:03:42.602493  4137 layer_factory.hpp:77] Creating layer upsample4_dsn3
I1121 17:03:42.602501  4137 net.cpp:100] Creating Layer upsample4_dsn3
I1121 17:03:42.602507  4137 net.cpp:434] upsample4_dsn3 <- sum-dsn3_sum-dsn3_0_split_0
I1121 17:03:42.602515  4137 net.cpp:408] upsample4_dsn3 -> sum-dsn3-up
I1121 17:03:42.603991  4137 net.cpp:150] Setting up upsample4_dsn3
I1121 17:03:42.604001  4137 net.cpp:157] Top shape: 1 1 504 504 (254016)
I1121 17:03:42.604004  4137 net.cpp:165] Memory required for data: 995038928
I1121 17:03:42.604012  4137 layer_factory.hpp:77] Creating layer crop2-dsn3
I1121 17:03:42.604020  4137 net.cpp:100] Creating Layer crop2-dsn3
I1121 17:03:42.604025  4137 net.cpp:434] crop2-dsn3 <- sum-dsn3-up
I1121 17:03:42.604030  4137 net.cpp:434] crop2-dsn3 <- data_data_0_split_4
I1121 17:03:42.604037  4137 net.cpp:408] crop2-dsn3 -> upscore-dsn3
I1121 17:03:42.604077  4137 net.cpp:150] Setting up crop2-dsn3
I1121 17:03:42.604084  4137 net.cpp:157] Top shape: 1 1 500 500 (250000)
I1121 17:03:42.604086  4137 net.cpp:165] Memory required for data: 996038928
I1121 17:03:42.604089  4137 layer_factory.hpp:77] Creating layer loss3-score
I1121 17:03:42.604099  4137 net.cpp:100] Creating Layer loss3-score
I1121 17:03:42.604104  4137 net.cpp:434] loss3-score <- upscore-dsn3
I1121 17:03:42.604107  4137 net.cpp:434] loss3-score <- label_data_1_split_3
I1121 17:03:42.604112  4137 net.cpp:408] loss3-score -> loss3-score
I1121 17:03:42.604338  4137 net.cpp:150] Setting up loss3-score
I1121 17:03:42.604346  4137 net.cpp:157] Top shape: (1)
I1121 17:03:42.604348  4137 net.cpp:160]     with loss weight 1
I1121 17:03:42.604355  4137 net.cpp:165] Memory required for data: 996038932
I1121 17:03:42.604358  4137 layer_factory.hpp:77] Creating layer upsample2_1-dsn2
I1121 17:03:42.604368  4137 net.cpp:100] Creating Layer upsample2_1-dsn2
I1121 17:03:42.604374  4137 net.cpp:434] upsample2_1-dsn2 <- sum-dsn3_sum-dsn3_0_split_1
I1121 17:03:42.604382  4137 net.cpp:408] upsample2_1-dsn2 -> sum-dsn3-2
I1121 17:03:42.604727  4137 net.cpp:150] Setting up upsample2_1-dsn2
I1121 17:03:42.604734  4137 net.cpp:157] Top shape: 1 1 252 252 (63504)
I1121 17:03:42.604737  4137 net.cpp:165] Memory required for data: 996292948
I1121 17:03:42.604743  4137 layer_factory.hpp:77] Creating layer crop1-dsn2
I1121 17:03:42.604749  4137 net.cpp:100] Creating Layer crop1-dsn2
I1121 17:03:42.604753  4137 net.cpp:434] crop1-dsn2 <- sum-dsn3-2
I1121 17:03:42.604758  4137 net.cpp:434] crop1-dsn2 <- conv2_2_relu2_2_0_split_1
I1121 17:03:42.604765  4137 net.cpp:408] crop1-dsn2 -> weight-dsn3-2
I1121 17:03:42.604799  4137 net.cpp:150] Setting up crop1-dsn2
I1121 17:03:42.604806  4137 net.cpp:157] Top shape: 1 1 250 250 (62500)
I1121 17:03:42.604809  4137 net.cpp:165] Memory required for data: 996542948
I1121 17:03:42.604812  4137 layer_factory.hpp:77] Creating layer weight-dsn3-2_crop1-dsn2_0_split
I1121 17:03:42.604818  4137 net.cpp:100] Creating Layer weight-dsn3-2_crop1-dsn2_0_split
I1121 17:03:42.604822  4137 net.cpp:434] weight-dsn3-2_crop1-dsn2_0_split <- weight-dsn3-2
I1121 17:03:42.604830  4137 net.cpp:408] weight-dsn3-2_crop1-dsn2_0_split -> weight-dsn3-2_crop1-dsn2_0_split_0
I1121 17:03:42.604836  4137 net.cpp:408] weight-dsn3-2_crop1-dsn2_0_split -> weight-dsn3-2_crop1-dsn2_0_split_1
I1121 17:03:42.604883  4137 net.cpp:150] Setting up weight-dsn3-2_crop1-dsn2_0_split
I1121 17:03:42.604889  4137 net.cpp:157] Top shape: 1 1 250 250 (62500)
I1121 17:03:42.604893  4137 net.cpp:157] Top shape: 1 1 250 250 (62500)
I1121 17:03:42.604897  4137 net.cpp:165] Memory required for data: 997042948
I1121 17:03:42.604899  4137 layer_factory.hpp:77] Creating layer sigmoid-dsn2
I1121 17:03:42.604907  4137 net.cpp:100] Creating Layer sigmoid-dsn2
I1121 17:03:42.604910  4137 net.cpp:434] sigmoid-dsn2 <- weight-dsn3-2_crop1-dsn2_0_split_0
I1121 17:03:42.604916  4137 net.cpp:408] sigmoid-dsn2 -> sigmoid-dsn2
I1121 17:03:42.605119  4137 net.cpp:150] Setting up sigmoid-dsn2
I1121 17:03:42.605132  4137 net.cpp:157] Top shape: 1 1 250 250 (62500)
I1121 17:03:42.605135  4137 net.cpp:165] Memory required for data: 997292948
I1121 17:03:42.605139  4137 layer_factory.hpp:77] Creating layer rev-dsn2
I1121 17:03:42.605146  4137 net.cpp:100] Creating Layer rev-dsn2
I1121 17:03:42.605151  4137 net.cpp:434] rev-dsn2 <- sigmoid-dsn2
I1121 17:03:42.605156  4137 net.cpp:408] rev-dsn2 -> rev-dsn2
I1121 17:03:42.605192  4137 net.cpp:150] Setting up rev-dsn2
I1121 17:03:42.605198  4137 net.cpp:157] Top shape: 1 1 250 250 (62500)
I1121 17:03:42.605201  4137 net.cpp:165] Memory required for data: 997542948
I1121 17:03:42.605204  4137 layer_factory.hpp:77] Creating layer tile-dsn2
I1121 17:03:42.605211  4137 net.cpp:100] Creating Layer tile-dsn2
I1121 17:03:42.605213  4137 net.cpp:434] tile-dsn2 <- rev-dsn2
I1121 17:03:42.605221  4137 net.cpp:408] tile-dsn2 -> weight-dsn2
I1121 17:03:42.605257  4137 net.cpp:150] Setting up tile-dsn2
I1121 17:03:42.605262  4137 net.cpp:157] Top shape: 1 128 250 250 (8000000)
I1121 17:03:42.605264  4137 net.cpp:165] Memory required for data: 1029542948
I1121 17:03:42.605268  4137 layer_factory.hpp:77] Creating layer prod1-dsn2
I1121 17:03:42.605274  4137 net.cpp:100] Creating Layer prod1-dsn2
I1121 17:03:42.605278  4137 net.cpp:434] prod1-dsn2 <- conv2_2_relu2_2_0_split_2
I1121 17:03:42.605283  4137 net.cpp:434] prod1-dsn2 <- weight-dsn2
I1121 17:03:42.605290  4137 net.cpp:408] prod1-dsn2 -> prod1-dsn2
I1121 17:03:42.605322  4137 net.cpp:150] Setting up prod1-dsn2
I1121 17:03:42.605329  4137 net.cpp:157] Top shape: 1 128 250 250 (8000000)
I1121 17:03:42.605331  4137 net.cpp:165] Memory required for data: 1061542948
I1121 17:03:42.605334  4137 layer_factory.hpp:77] Creating layer conv1-dsn2
I1121 17:03:42.605345  4137 net.cpp:100] Creating Layer conv1-dsn2
I1121 17:03:42.605350  4137 net.cpp:434] conv1-dsn2 <- prod1-dsn2
I1121 17:03:42.605355  4137 net.cpp:408] conv1-dsn2 -> conv1-dsn2
I1121 17:03:42.606638  4137 net.cpp:150] Setting up conv1-dsn2
I1121 17:03:42.606650  4137 net.cpp:157] Top shape: 1 64 250 250 (4000000)
I1121 17:03:42.606653  4137 net.cpp:165] Memory required for data: 1077542948
I1121 17:03:42.606660  4137 layer_factory.hpp:77] Creating layer conv2-dsn2
I1121 17:03:42.606673  4137 net.cpp:100] Creating Layer conv2-dsn2
I1121 17:03:42.606678  4137 net.cpp:434] conv2-dsn2 <- conv1-dsn2
I1121 17:03:42.606686  4137 net.cpp:408] conv2-dsn2 -> conv2-dsn2
I1121 17:03:42.609616  4137 net.cpp:150] Setting up conv2-dsn2
I1121 17:03:42.609627  4137 net.cpp:157] Top shape: 1 64 250 250 (4000000)
I1121 17:03:42.609630  4137 net.cpp:165] Memory required for data: 1093542948
I1121 17:03:42.609638  4137 layer_factory.hpp:77] Creating layer relu1-dsn2
I1121 17:03:42.609644  4137 net.cpp:100] Creating Layer relu1-dsn2
I1121 17:03:42.609648  4137 net.cpp:434] relu1-dsn2 <- conv2-dsn2
I1121 17:03:42.609656  4137 net.cpp:395] relu1-dsn2 -> conv2-dsn2 (in-place)
I1121 17:03:42.609841  4137 net.cpp:150] Setting up relu1-dsn2
I1121 17:03:42.609850  4137 net.cpp:157] Top shape: 1 64 250 250 (4000000)
I1121 17:03:42.609853  4137 net.cpp:165] Memory required for data: 1109542948
I1121 17:03:42.609858  4137 layer_factory.hpp:77] Creating layer conv3-dsn2
I1121 17:03:42.609869  4137 net.cpp:100] Creating Layer conv3-dsn2
I1121 17:03:42.609872  4137 net.cpp:434] conv3-dsn2 <- conv2-dsn2
I1121 17:03:42.609881  4137 net.cpp:408] conv3-dsn2 -> conv3-dsn2
I1121 17:03:42.611349  4137 net.cpp:150] Setting up conv3-dsn2
I1121 17:03:42.611361  4137 net.cpp:157] Top shape: 1 64 250 250 (4000000)
I1121 17:03:42.611364  4137 net.cpp:165] Memory required for data: 1125542948
I1121 17:03:42.611371  4137 layer_factory.hpp:77] Creating layer relu2-dsn2
I1121 17:03:42.611377  4137 net.cpp:100] Creating Layer relu2-dsn2
I1121 17:03:42.611382  4137 net.cpp:434] relu2-dsn2 <- conv3-dsn2
I1121 17:03:42.611389  4137 net.cpp:395] relu2-dsn2 -> conv3-dsn2 (in-place)
I1121 17:03:42.611562  4137 net.cpp:150] Setting up relu2-dsn2
I1121 17:03:42.611569  4137 net.cpp:157] Top shape: 1 64 250 250 (4000000)
I1121 17:03:42.611572  4137 net.cpp:165] Memory required for data: 1141542948
I1121 17:03:42.611575  4137 layer_factory.hpp:77] Creating layer conv4-dsn2
I1121 17:03:42.611588  4137 net.cpp:100] Creating Layer conv4-dsn2
I1121 17:03:42.611591  4137 net.cpp:434] conv4-dsn2 <- conv3-dsn2
I1121 17:03:42.611601  4137 net.cpp:408] conv4-dsn2 -> conv4-dsn2
I1121 17:03:42.612769  4137 net.cpp:150] Setting up conv4-dsn2
I1121 17:03:42.612782  4137 net.cpp:157] Top shape: 1 1 250 250 (62500)
I1121 17:03:42.612784  4137 net.cpp:165] Memory required for data: 1141792948
I1121 17:03:42.612792  4137 layer_factory.hpp:77] Creating layer sum-dsn2
I1121 17:03:42.612798  4137 net.cpp:100] Creating Layer sum-dsn2
I1121 17:03:42.612802  4137 net.cpp:434] sum-dsn2 <- conv4-dsn2
I1121 17:03:42.612808  4137 net.cpp:434] sum-dsn2 <- weight-dsn3-2_crop1-dsn2_0_split_1
I1121 17:03:42.612816  4137 net.cpp:408] sum-dsn2 -> sum-dsn2
I1121 17:03:42.612855  4137 net.cpp:150] Setting up sum-dsn2
I1121 17:03:42.612862  4137 net.cpp:157] Top shape: 1 1 250 250 (62500)
I1121 17:03:42.612864  4137 net.cpp:165] Memory required for data: 1142042948
I1121 17:03:42.612869  4137 layer_factory.hpp:77] Creating layer upsample2_2-dsn2
I1121 17:03:42.612877  4137 net.cpp:100] Creating Layer upsample2_2-dsn2
I1121 17:03:42.612881  4137 net.cpp:434] upsample2_2-dsn2 <- sum-dsn2
I1121 17:03:42.612887  4137 net.cpp:408] upsample2_2-dsn2 -> sum-dsn2-up
I1121 17:03:42.614354  4137 net.cpp:150] Setting up upsample2_2-dsn2
I1121 17:03:42.614365  4137 net.cpp:157] Top shape: 1 1 502 502 (252004)
I1121 17:03:42.614368  4137 net.cpp:165] Memory required for data: 1143050964
I1121 17:03:42.614377  4137 layer_factory.hpp:77] Creating layer crop2-dsn2
I1121 17:03:42.614382  4137 net.cpp:100] Creating Layer crop2-dsn2
I1121 17:03:42.614387  4137 net.cpp:434] crop2-dsn2 <- sum-dsn2-up
I1121 17:03:42.614392  4137 net.cpp:434] crop2-dsn2 <- data_data_0_split_5
I1121 17:03:42.614399  4137 net.cpp:408] crop2-dsn2 -> upscore-dsn2
I1121 17:03:42.614439  4137 net.cpp:150] Setting up crop2-dsn2
I1121 17:03:42.614449  4137 net.cpp:157] Top shape: 1 1 500 500 (250000)
I1121 17:03:42.614451  4137 net.cpp:165] Memory required for data: 1144050964
I1121 17:03:42.614454  4137 layer_factory.hpp:77] Creating layer upscore-dsn2_crop2-dsn2_0_split
I1121 17:03:42.614460  4137 net.cpp:100] Creating Layer upscore-dsn2_crop2-dsn2_0_split
I1121 17:03:42.614464  4137 net.cpp:434] upscore-dsn2_crop2-dsn2_0_split <- upscore-dsn2
I1121 17:03:42.614472  4137 net.cpp:408] upscore-dsn2_crop2-dsn2_0_split -> upscore-dsn2_crop2-dsn2_0_split_0
I1121 17:03:42.614480  4137 net.cpp:408] upscore-dsn2_crop2-dsn2_0_split -> upscore-dsn2_crop2-dsn2_0_split_1
I1121 17:03:42.614486  4137 net.cpp:408] upscore-dsn2_crop2-dsn2_0_split -> upscore-dsn2_crop2-dsn2_0_split_2
I1121 17:03:42.614567  4137 net.cpp:150] Setting up upscore-dsn2_crop2-dsn2_0_split
I1121 17:03:42.614573  4137 net.cpp:157] Top shape: 1 1 500 500 (250000)
I1121 17:03:42.614578  4137 net.cpp:157] Top shape: 1 1 500 500 (250000)
I1121 17:03:42.614583  4137 net.cpp:157] Top shape: 1 1 500 500 (250000)
I1121 17:03:42.614586  4137 net.cpp:165] Memory required for data: 1147050964
I1121 17:03:42.614590  4137 layer_factory.hpp:77] Creating layer loss2-score
I1121 17:03:42.614599  4137 net.cpp:100] Creating Layer loss2-score
I1121 17:03:42.614604  4137 net.cpp:434] loss2-score <- upscore-dsn2_crop2-dsn2_0_split_0
I1121 17:03:42.614609  4137 net.cpp:434] loss2-score <- label_data_1_split_4
I1121 17:03:42.614614  4137 net.cpp:408] loss2-score -> loss2-score
I1121 17:03:42.614809  4137 net.cpp:150] Setting up loss2-score
I1121 17:03:42.614815  4137 net.cpp:157] Top shape: (1)
I1121 17:03:42.614817  4137 net.cpp:160]     with loss weight 1
I1121 17:03:42.614825  4137 net.cpp:165] Memory required for data: 1147050968
I1121 17:03:42.614827  4137 layer_factory.hpp:77] Creating layer sigmoid-dsn1
I1121 17:03:42.614833  4137 net.cpp:100] Creating Layer sigmoid-dsn1
I1121 17:03:42.614837  4137 net.cpp:434] sigmoid-dsn1 <- upscore-dsn2_crop2-dsn2_0_split_1
I1121 17:03:42.614843  4137 net.cpp:408] sigmoid-dsn1 -> sigmoid-dsn1
I1121 17:03:42.615373  4137 net.cpp:150] Setting up sigmoid-dsn1
I1121 17:03:42.615384  4137 net.cpp:157] Top shape: 1 1 500 500 (250000)
I1121 17:03:42.615387  4137 net.cpp:165] Memory required for data: 1148050968
I1121 17:03:42.615391  4137 layer_factory.hpp:77] Creating layer rev-dsn1
I1121 17:03:42.615397  4137 net.cpp:100] Creating Layer rev-dsn1
I1121 17:03:42.615401  4137 net.cpp:434] rev-dsn1 <- sigmoid-dsn1
I1121 17:03:42.615411  4137 net.cpp:408] rev-dsn1 -> rev-dsn1
I1121 17:03:42.615448  4137 net.cpp:150] Setting up rev-dsn1
I1121 17:03:42.615455  4137 net.cpp:157] Top shape: 1 1 500 500 (250000)
I1121 17:03:42.615458  4137 net.cpp:165] Memory required for data: 1149050968
I1121 17:03:42.615461  4137 layer_factory.hpp:77] Creating layer tile-dsn1
I1121 17:03:42.615468  4137 net.cpp:100] Creating Layer tile-dsn1
I1121 17:03:42.615470  4137 net.cpp:434] tile-dsn1 <- rev-dsn1
I1121 17:03:42.615478  4137 net.cpp:408] tile-dsn1 -> weight-dsn1
I1121 17:03:42.615509  4137 net.cpp:150] Setting up tile-dsn1
I1121 17:03:42.615520  4137 net.cpp:157] Top shape: 1 64 500 500 (16000000)
I1121 17:03:42.615522  4137 net.cpp:165] Memory required for data: 1213050968
I1121 17:03:42.615525  4137 layer_factory.hpp:77] Creating layer prod1-dsn1
I1121 17:03:42.615531  4137 net.cpp:100] Creating Layer prod1-dsn1
I1121 17:03:42.615535  4137 net.cpp:434] prod1-dsn1 <- conv1_2_relu1_2_0_split_1
I1121 17:03:42.615540  4137 net.cpp:434] prod1-dsn1 <- weight-dsn1
I1121 17:03:42.615545  4137 net.cpp:408] prod1-dsn1 -> prod1-dsn1
I1121 17:03:42.615583  4137 net.cpp:150] Setting up prod1-dsn1
I1121 17:03:42.615590  4137 net.cpp:157] Top shape: 1 64 500 500 (16000000)
I1121 17:03:42.615593  4137 net.cpp:165] Memory required for data: 1277050968
I1121 17:03:42.615597  4137 layer_factory.hpp:77] Creating layer conv1-dsn1
I1121 17:03:42.615607  4137 net.cpp:100] Creating Layer conv1-dsn1
I1121 17:03:42.615612  4137 net.cpp:434] conv1-dsn1 <- prod1-dsn1
I1121 17:03:42.615619  4137 net.cpp:408] conv1-dsn1 -> conv1-dsn1
I1121 17:03:42.617944  4137 net.cpp:150] Setting up conv1-dsn1
I1121 17:03:42.617956  4137 net.cpp:157] Top shape: 1 64 500 500 (16000000)
I1121 17:03:42.617960  4137 net.cpp:165] Memory required for data: 1341050968
I1121 17:03:42.617969  4137 layer_factory.hpp:77] Creating layer conv2-dsn1
I1121 17:03:42.618000  4137 net.cpp:100] Creating Layer conv2-dsn1
I1121 17:03:42.618005  4137 net.cpp:434] conv2-dsn1 <- conv1-dsn1
I1121 17:03:42.618013  4137 net.cpp:408] conv2-dsn1 -> conv2-dsn1
I1121 17:03:42.619582  4137 net.cpp:150] Setting up conv2-dsn1
I1121 17:03:42.619594  4137 net.cpp:157] Top shape: 1 64 500 500 (16000000)
I1121 17:03:42.619597  4137 net.cpp:165] Memory required for data: 1405050968
I1121 17:03:42.619606  4137 layer_factory.hpp:77] Creating layer relu1-dsn1
I1121 17:03:42.619611  4137 net.cpp:100] Creating Layer relu1-dsn1
I1121 17:03:42.619614  4137 net.cpp:434] relu1-dsn1 <- conv2-dsn1
I1121 17:03:42.619622  4137 net.cpp:395] relu1-dsn1 -> conv2-dsn1 (in-place)
I1121 17:03:42.620134  4137 net.cpp:150] Setting up relu1-dsn1
I1121 17:03:42.620146  4137 net.cpp:157] Top shape: 1 64 500 500 (16000000)
I1121 17:03:42.620148  4137 net.cpp:165] Memory required for data: 1469050968
I1121 17:03:42.620152  4137 layer_factory.hpp:77] Creating layer conv3-dsn1
I1121 17:03:42.620164  4137 net.cpp:100] Creating Layer conv3-dsn1
I1121 17:03:42.620168  4137 net.cpp:434] conv3-dsn1 <- conv2-dsn1
I1121 17:03:42.620179  4137 net.cpp:408] conv3-dsn1 -> conv3-dsn1
I1121 17:03:42.622788  4137 net.cpp:150] Setting up conv3-dsn1
I1121 17:03:42.622800  4137 net.cpp:157] Top shape: 1 64 500 500 (16000000)
I1121 17:03:42.622803  4137 net.cpp:165] Memory required for data: 1533050968
I1121 17:03:42.622812  4137 layer_factory.hpp:77] Creating layer relu2-dsn1
I1121 17:03:42.622817  4137 net.cpp:100] Creating Layer relu2-dsn1
I1121 17:03:42.622822  4137 net.cpp:434] relu2-dsn1 <- conv3-dsn1
I1121 17:03:42.622829  4137 net.cpp:395] relu2-dsn1 -> conv3-dsn1 (in-place)
I1121 17:03:42.623016  4137 net.cpp:150] Setting up relu2-dsn1
I1121 17:03:42.623025  4137 net.cpp:157] Top shape: 1 64 500 500 (16000000)
I1121 17:03:42.623029  4137 net.cpp:165] Memory required for data: 1597050968
I1121 17:03:42.623033  4137 layer_factory.hpp:77] Creating layer conv4-dsn1
I1121 17:03:42.623045  4137 net.cpp:100] Creating Layer conv4-dsn1
I1121 17:03:42.623049  4137 net.cpp:434] conv4-dsn1 <- conv3-dsn1
I1121 17:03:42.623056  4137 net.cpp:408] conv4-dsn1 -> conv4-dsn1
I1121 17:03:42.624382  4137 net.cpp:150] Setting up conv4-dsn1
I1121 17:03:42.624392  4137 net.cpp:157] Top shape: 1 1 500 500 (250000)
I1121 17:03:42.624395  4137 net.cpp:165] Memory required for data: 1598050968
I1121 17:03:42.624403  4137 layer_factory.hpp:77] Creating layer sum-dsn1
I1121 17:03:42.624409  4137 net.cpp:100] Creating Layer sum-dsn1
I1121 17:03:42.624413  4137 net.cpp:434] sum-dsn1 <- conv4-dsn1
I1121 17:03:42.624419  4137 net.cpp:434] sum-dsn1 <- upscore-dsn2_crop2-dsn2_0_split_2
I1121 17:03:42.624428  4137 net.cpp:408] sum-dsn1 -> sum-dsn1
I1121 17:03:42.624467  4137 net.cpp:150] Setting up sum-dsn1
I1121 17:03:42.624473  4137 net.cpp:157] Top shape: 1 1 500 500 (250000)
I1121 17:03:42.624476  4137 net.cpp:165] Memory required for data: 1599050968
I1121 17:03:42.624480  4137 layer_factory.hpp:77] Creating layer crop2-dsn1
I1121 17:03:42.624485  4137 net.cpp:100] Creating Layer crop2-dsn1
I1121 17:03:42.624488  4137 net.cpp:434] crop2-dsn1 <- sum-dsn1
I1121 17:03:42.624493  4137 net.cpp:434] crop2-dsn1 <- data_data_0_split_6
I1121 17:03:42.624501  4137 net.cpp:408] crop2-dsn1 -> upscore-dsn1
I1121 17:03:42.624534  4137 net.cpp:150] Setting up crop2-dsn1
I1121 17:03:42.624542  4137 net.cpp:157] Top shape: 1 1 500 500 (250000)
I1121 17:03:42.624545  4137 net.cpp:165] Memory required for data: 1600050968
I1121 17:03:42.624548  4137 layer_factory.hpp:77] Creating layer loss1-score
I1121 17:03:42.624557  4137 net.cpp:100] Creating Layer loss1-score
I1121 17:03:42.624560  4137 net.cpp:434] loss1-score <- upscore-dsn1
I1121 17:03:42.624564  4137 net.cpp:434] loss1-score <- label_data_1_split_5
I1121 17:03:42.624570  4137 net.cpp:408] loss1-score -> loss1-score
…
