…
  name: "data"
  type: "ImageLabelmapData"
  top: "data_unaugmented"
  top: "label_unaugmented"
  include {
    phase: TRAIN
  }
  transform_param {
    mean_value: 104.00699
    mean_value: 116.66877
    mean_value: 122.67892
  }
  image_data_param {
    source: "/media/compute/homes/galberding/FleckDetect/Datasets/FleckDataSet/train/image_to_label_map.txt"
    batch_size: 1
    shuffle: true
    new_height: 500
    new_width: 500
    root_folder: "/media/compute/homes/galberding/FleckDetect/Datasets/FleckDataSet/train/"
    normalize: true
  }
}
layer {
  name: "augmentation"
  type: "Python"
  bottom: "data_unaugmented"
  bottom: "label_unaugmented"
  top: "data"
  top: "label"
  include {
    phase: TRAIN
  }
  python_param {
    module: "data_augmentation"
    layer: "DataAugmentation"
  }
}
layer {
  name: "conv1_1"
  type: "Convolution"
  bottom: "data"
  top: "conv1_1"
  param {
    lr_mult: 1
    decay_mult: 1
  }
  param {
    lr_mult: 2
    decay_mult: 0
  }
  convolution_param {
    num_output: 64
    pad: 1
    kernel_size: 3
    engine: CUDNN
  }
}
layer {
  name: "relu1_1"
  type: "ReLU"
  bottom: "conv1_1"
  top: "conv1_1"
}
layer {
  name: "conv1_2"
  type: "Convolution"
  bottom: "conv1_1"
  top: "conv1_2"
  param {
    lr_mult: 1
    decay_mult: 1
  }
  param {
    lr_mult: 2
    decay_mult: 0
  }
  convolution_param {
    num_output: 64
    pad: 1
    kernel_size: 3
    engine: CUDNN
  }
}
layer {
  name: "relu1_2"
  type: "ReLU"
  bottom: "conv1_2"
  top: "conv1_2"
}
layer {
  name: "pool1"
  type: "Pooling"
  bottom: "conv1_2"
  top: "pool1"
  pooling_param {
    pool: MAX
    kernel_size: 2
    stride: 2
  }
}
layer {
  name: "conv2_1"
  type: "Convolution"
  bottom: "pool1"
  top: "conv2_1"
  param {
    lr_mult: 1
    decay_mult: 1
  }
  param {
    lr_mult: 2
    decay_mult: 0
  }
  convolution_param {
    num_output: 128
    pad: 1
    kernel_size: 3
    engine: CUDNN
  }
}
layer {
  name: "relu2_1"
  type: "ReLU"
  bottom: "conv2_1"
  top: "conv2_1"
}
layer {
  name: "conv2_2"
  type: "Convolution"
  bottom: "conv2_1"
  top: "conv2_2"
  param {
    lr_mult: 1
    decay_mult: 1
  }
  param {
    lr_mult: 2
    decay_mult: 0
  }
  convolution_param {
    num_output: 128
    pad: 1
    kernel_size: 3
    engine: CUDNN
  }
}
layer {
  name: "relu2_2"
  type: "ReLU"
  bottom: "conv2_2"
  top: "conv2_2"
}
layer {
  name: "pool2"
  type: "Pooling"
  bottom: "conv2_2"
  top: "pool2"
  pooling_param {
    pool: MAX
    kernel_size: 2
    stride: 2
  }
}
layer {
  name: "conv3_1"
  type: "Convolution"
  bottom: "pool2"
  top: "conv3_1"
  param {
    lr_mult: 1
    decay_mult: 1
  }
  param {
    lr_mult: 2
    decay_mult: 0
  }
  convolution_param {
    num_output: 256
    pad: 1
    kernel_size: 3
    engine: CUDNN
  }
}
layer {
  name: "relu3_1"
  type: "ReLU"
  bottom: "conv3_1"
  top: "conv3_1"
}
layer {
  name: "conv3_2"
  type: "Convolution"
  bottom: "conv3_1"
  top: "conv3_2"
  param {
    lr_mult: 1
    decay_mult: 1
  }
  param {
    lr_mult: 2
    decay_mult: 0
  }
  convolution_param {
    num_output: 256
    pad: 1
    kernel_size: 3
    engine: CUDNN
  }
}
layer {
  name: "relu3_2"
  type: "ReLU"
  bottom: "conv3_2"
  top: "conv3_2"
}
layer {
  name: "conv3_3"
  type: "Convolution"
  bottom: "conv3_2"
  top: "conv3_3"
  param {
    lr_mult: 1
    decay_mult: 1
  }
  param {
    lr_mult: 2
    decay_mult: 0
  }
  convolution_param {
    num_output: 256
    pad: 1
    kernel_size: 3
    engine: CUDNN
  }
}
layer {
  name: "relu3_3"
  type: "ReLU"
  bottom: "conv3_3"
  top: "conv3_3"
}
layer {
  name: "pool3"
  type: "Pooling"
  bottom: "conv3_3"
  top: "pool3"
  pooling_param {
    pool: MAX
    kernel_size: 2
    stride: 2
  }
}
layer {
  name: "conv4_1"
  type: "Convolution"
  bottom: "pool3"
  top: "conv4_1"
  param {
    lr_mult: 1
    decay_mult: 1
  }
  param {
    lr_mult: 2
    decay_mult: 0
  }
  convolution_param {
    num_output: 512
    pad: 1
    kernel_size: 3
    engine: CUDNN
  }
}
layer {
  name: "relu4_1"
  type: "ReLU"
  bottom: "conv4_1"
  top: "conv4_1"
}
layer {
  name: "conv4_2"
  type: "Convolution"
  bottom: "conv4_1"
  top: "conv4_2"
  param {
    lr_mult: 1
    decay_mult: 1
  }
  param {
    lr_mult: 2
    decay_mult: 0
  }
  convolution_param {
    num_output: 512
    pad: 1
    kernel_size: 3
    engine: CUDNN
  }
}
layer {
  name: "relu4_2"
  type: "ReLU"
  bottom: "conv4_2"
  top: "conv4_2"
}
layer {
  name: "conv4_3"
  type: "Convolution"
  bottom: "conv4_2"
  top: "conv4_3"
  param {
    lr_mult: 1
    decay_mult: 1
  }
  param {
    lr_mult: 2
    decay_mult: 0
  }
  convolution_param {
    num_output: 512
    pad: 1
    kernel_size: 3
    engine: CUDNN
  }
}
layer {
  name: "relu4_3"
  type: "ReLU"
  bottom: "conv4_3"
  top: "conv4_3"
}
layer {
  name: "pool4"
  type: "Pooling"
  bottom: "conv4_3"
  top: "pool4"
  pooling_param {
    pool: MAX
    kernel_size: 3
    stride: 2
    pad: 1
  }
}
layer {
  name: "conv5_1"
  type: "Convolution"
  bottom: "pool4"
  top: "conv5_1"
  param {
    lr_mult: 1
    decay_mult: 1
  }
  param {
    lr_mult: 2
    decay_mult: 0
  }
  convolution_param {
    num_output: 512
    pad: 1
    kernel_size: 3
    engine: CUDNN
  }
}
layer {
  name: "relu5_1"
  type: "ReLU"
  bottom: "conv5_1"
  top: "conv5_1"
}
layer {
  name: "conv5_2"
  type: "Convolution"
  bottom: "conv5_1"
  top: "conv5_2"
  param {
    lr_mult: 1
    decay_mult: 1
  }
  param {
    lr_mult: 2
    decay_mult: 0
  }
  convolution_param {
    num_output: 512
    pad: 1
    kernel_size: 3
    engine: CUDNN
  }
}
layer {
  name: "relu5_2"
  type: "ReLU"
  bottom: "conv5_2"
  top: "conv5_2"
}
layer {
  name: "conv5_3"
  type: "Convolution"
  bottom: "conv5_2"
  top: "conv5_3"
  param {
    lr_mult: 1
    decay_mult: 1
  }
  param {
    lr_mult: 2
    decay_mult: 0
  }
  convolution_param {
    num_output: 512
    pad: 1
    kernel_size: 3
    engine: CUDNN
  }
}
layer {
  name: "relu5_3"
  type: "ReLU"
  bottom: "conv5_3"
  top: "conv5_3"
}
layer {
  name: "pool5"
  type: "Pooling"
  bottom: "conv5_3"
  top: "pool5"
  pooling_param {
    pool: MAX
    kernel_size: 3
    stride: 2
    pad: 1
  }
}
layer {
  name: "conv1-dsn6"
  type: "Convolution"
  bottom: "pool5"
  top: "conv1-dsn6"
  param {
    lr_mult: 1
    decay_mult: 1
  }
  param {
    lr_mult: 2
    decay_mult: 0
  }
  convolution_param {
    num_output: 256
    kernel_size: 1
    weight_filler {
      type: "gaussian"
      std: 0.01
    }
    bias_filler {
      type: "constant"
      value: 0
    }
    engine: CUDNN
  }
}
layer {
  name: "conv2-dsn6"
  type: "Convolution"
  bottom: "conv1-dsn6"
  top: "conv2-dsn6"
  param {
    lr_mult: 1
    decay_mult: 1
  }
  param {
    lr_mult: 2
    decay_mult: 0
  }
  convolution_param {
    num_output: 256
    pad: 2
    kernel_size: 5
    weight_filler {
      type: "gaussian"
      std: 0.01
    }
    bias_filler {
      type: "constant"
      value: 0
    }
    engine: CUDNN
  }
}
layer {
  name: "relu1-dsn6"
  type: "ReLU"
  bottom: "conv2-dsn6"
  top: "conv2-dsn6"
}
layer {
  name: "conv3-dsn6"
  type: "Convolution"
  bottom: "conv2-dsn6"
  top: "conv3-dsn6"
  param {
    lr_mult: 1
    decay_mult: 1
  }
  param {
    lr_mult: 2
    decay_mult: 0
  }
  convolution_param {
    num_output: 256
    pad: 2
    kernel_size: 5
    weight_filler {
      type: "gaussian"
      std: 0.01
    }
    bias_filler {
      type: "constant"
      value: 0
    }
    engine: CUDNN
  }
}
layer {
  name: "relu2-dsn6"
  type: "ReLU"
  bottom: "conv3-dsn6"
  top: "conv3-dsn6"
}
layer {
  name: "conv4-dsn6"
  type: "Convolution"
  bottom: "conv3-dsn6"
  top: "conv4-dsn6"
  param {
    lr_mult: 1
    decay_mult: 1
  }
  param {
    lr_mult: 2
    decay_mult: 0
  }
  convolution_param {
    num_output: 256
    pad: 2
    kernel_size: 5
    weight_filler {
      type: "gaussian"
      std: 0.01
    }
    bias_filler {
      type: "constant"
      value: 0
    }
    engine: CUDNN
  }
}
layer {
  name: "relu3-dsn6"
  type: "ReLU"
  bottom: "conv4-dsn6"
  top: "conv4-dsn6"
}
layer {
  name: "conv5-dsn6"
  type: "Convolution"
  bottom: "conv4-dsn6"
  top: "conv5-dsn6"
  param {
    lr_mult: 0.1
    decay_mult: 1
  }
  param {
    lr_mult: 0.2
    decay_mult: 0
  }
  convolution_param {
    num_output: 1
    kernel_size: 1
    weight_filler {
      type: "gaussian"
      std: 0.01
    }
    bias_filler {
      type: "constant"
      value: 0
    }
    engine: CUDNN
  }
}
layer {
  name: "upsample32_dsn6"
  type: "Deconvolution"
  bottom: "conv5-dsn6"
  top: "conv5-dsn6-up"
  param {
    lr_mult: 0
    decay_mult: 1
  }
  param {
    lr_mult: 0
    decay_mult: 0
  }
  convolution_param {
    num_output: 1
    kernel_size: 64
    stride: 32
  }
}
layer {
  name: "crop-dsn6"
  type: "Crop"
  bottom: "conv5-dsn6-up"
  bottom: "data"
  top: "upscore-dsn6"
}
layer {
  name: "loss6-score"
  type: "SigmoidCrossEntropyLoss"
  bottom: "upscore-dsn6"
  bottom: "label"
  top: "loss6-score"
  loss_weight: 1
}
layer {
  name: "upsample2_dsn5"
  type: "Deconvolution"
  bottom: "conv5-dsn6"
  top: "conv5-dsn6-5"
  param {
    lr_mult: 0
    decay_mult: 1
  }
  param {
    lr_mult: 0
    decay_mult: 0
  }
  convolution_param {
    num_output: 1
    kernel_size: 4
    stride: 2
  }
}
layer {
  name: "crop1-dsn5"
  type: "Crop"
  bottom: "conv5-dsn6-5"
  bottom: "conv5_3"
  top: "weight-dsn6-5"
}
layer {
  name: "sigmoid-dsn5"
  type: "Sigmoid"
  bottom: "weight-dsn6-5"
  top: "sigmoid-dsn5"
}
layer {
  name: "rev-dsn5"
  type: "Power"
  bottom: "sigmoid-dsn5"
  top: "rev-dsn5"
  power_param {
    power: 1
    scale: -1
    shift: 1
  }
}
layer {
  name: "tile-dsn5"
  type: "Tile"
  bottom: "rev-dsn5"
  top: "weight-dsn5"
  tile_param {
    tiles: 512
  }
}
layer {
  name: "prod1-dsn5"
  type: "Eltwise"
  bottom: "conv5_3"
  bottom: "weight-dsn5"
  top: "prod1-dsn5"
  eltwise_param {
    operation: PROD
  }
}
layer {
  name: "conv1-dsn5"
  type: "Convolution"
  bottom: "prod1-dsn5"
  top: "conv1-dsn5"
  param {
    lr_mult: 1
    decay_mult: 1
  }
  param {
    lr_mult: 2
    decay_mult: 0
  }
  convolution_param {
    num_output: 64
    kernel_size: 1
    weight_filler {
      type: "gaussian"
      std: 0.01
    }
    bias_filler {
      type: "constant"
      value: 0
    }
    engine: CUDNN
  }
}
layer {
  name: "conv2-dsn5"
  type: "Convolution"
  bottom: "conv1-dsn5"
  top: "conv2-dsn5"
  param {
    lr_mult: 1
    decay_mult: 1
  }
  param {
    lr_mult: 2
    decay_mult: 0
  }
  convolution_param {
    num_output: 64
    pad: 1
    kernel_size: 3
    weight_filler {
      type: "gaussian"
      std: 0.01
    }
    bias_filler {
      type: "constant"
      value: 0
    }
    engine: CUDNN
  }
}
layer {
  name: "relu1-dsn5"
  type: "ReLU"
  bottom: "conv2-dsn5"
  top: "conv2-dsn5"
}
layer {
  name: "conv3-dsn5"
  type: "Convolution"
  bottom: "conv2-dsn5"
  top: "conv3-dsn5"
  param {
    lr_mult: 1
    decay_mult: 1
  }
  param {
    lr_mult: 2
    decay_mult: 0
  }
  convolution_param {
    num_output: 64
    pad: 1
    kernel_size: 3
    weight_filler {
      type: "gaussian"
      std: 0.01
    }
    bias_filler {
      type: "constant"
      value: 0
    }
    engine: CUDNN
  }
}
layer {
  name: "relu2-dsn5"
  type: "ReLU"
  bottom: "conv3-dsn5"
  top: "conv3-dsn5"
}
layer {
  name: "conv4-dsn5"
  type: "Convolution"
  bottom: "conv3-dsn5"
  top: "conv4-dsn5"
  param {
    lr_mult: 1
    decay_mult: 1
  }
  param {
    lr_mult: 2
    decay_mult: 0
  }
  convolution_param {
    num_output: 1
    pad: 1
    kernel_size: 3
    weight_filler {
      type: "gaussian"
      std: 0.01
    }
    bias_filler {
      type: "constant"
      value: 0
    }
    engine: CUDNN
  }
}
layer {
  name: "sum-dsn5"
  type: "Eltwise"
  bottom: "conv4-dsn5"
  bottom: "weight-dsn6-5"
  top: "sum-dsn5"
  eltwise_param {
    operation: SUM
  }
}
layer {
  name: "upsample16_dsn5"
  type: "Deconvolution"
  bottom: "sum-dsn5"
  top: "sum-dsn5-up"
  param {
    lr_mult: 0
    decay_mult: 1
  }
  param {
    lr_mult: 0
    decay_mult: 0
  }
  convolution_param {
    num_output: 1
    kernel_size: 32
    stride: 16
  }
}
layer {
  name: "crop2-dsn5"
  type: "Crop"
  bottom: "sum-dsn5-up"
  bottom: "data"
  top: "upscore-dsn5"
}
layer {
  name: "loss5-score"
  type: "SigmoidCrossEntropyLoss"
  bottom: "upscore-dsn5"
  bottom: "label"
  top: "loss5-score"
  loss_weight: 1
}
layer {
  name: "upsample2_dsn4"
  type: "Deconvolution"
  bottom: "sum-dsn5"
  top: "sum-dsn5-4"
  param {
    lr_mult: 0
    decay_mult: 1
  }
  param {
    lr_mult: 0
    decay_mult: 0
  }
  convolution_param {
    num_output: 1
    kernel_size: 4
    stride: 2
  }
}
layer {
  name: "crop1-dsn4"
  type: "Crop"
  bottom: "sum-dsn5-4"
  bottom: "conv4_3"
  top: "weight-dsn5-4"
}
layer {
  name: "sigmoid-dsn4"
  type: "Sigmoid"
  bottom: "weight-dsn5-4"
  top: "sigmoid-dsn4"
}
layer {
  name: "rev-dsn4"
  type: "Power"
  bottom: "sigmoid-dsn4"
  top: "rev-dsn4"
  power_param {
    power: 1
    scale: -1
    shift: 1
  }
}
layer {
  name: "tile-dsn4"
  type: "Tile"
  bottom: "rev-dsn4"
  top: "weight-dsn4"
  tile_param {
    tiles: 512
  }
}
layer {
  name: "prod1-dsn4"
  type: "Eltwise"
  bottom: "conv4_3"
  bottom: "weight-dsn4"
  top: "prod1-dsn4"
  eltwise_param {
    operation: PROD
  }
}
layer {
  name: "conv1-dsn4"
  type: "Convolution"
  bottom: "prod1-dsn4"
  top: "conv1-dsn4"
  param {
    lr_mult: 1
    decay_mult: 1
  }
  param {
    lr_mult: 2
    decay_mult: 0
  }
  convolution_param {
    num_output: 64
    kernel_size: 1
    weight_filler {
      type: "gaussian"
      std: 0.01
    }
    bias_filler {
      type: "constant"
      value: 0
    }
    engine: CUDNN
  }
}
layer {
  name: "conv2-dsn4"
  type: "Convolution"
  bottom: "conv1-dsn4"
  top: "conv2-dsn4"
  param {
    lr_mult: 1
    decay_mult: 1
  }
  param {
    lr_mult: 2
    decay_mult: 0
  }
  convolution_param {
    num_output: 64
    pad: 1
    kernel_size: 3
    weight_filler {
      type: "gaussian"
      std: 0.01
    }
    bias_filler {
      type: "constant"
      value: 0
    }
    engine: CUDNN
  }
}
layer {
  name: "relu1-dsn4"
  type: "ReLU"
  bottom: "conv2-dsn4"
  top: "conv2-dsn4"
}
layer {
  name: "conv3-dsn4"
  type: "Convolution"
  bottom: "conv2-dsn4"
  top: "conv3-dsn4"
  param {
    lr_mult: 1
    decay_mult: 1
  }
  param {
    lr_mult: 2
    decay_mult: 0
  }
  convolution_param {
    num_output: 64
    pad: 1
    kernel_size: 3
    weight_filler {
      type: "gaussian"
      std: 0.01
    }
    bias_filler {
      type: "constant"
      value: 0
    }
    engine: CUDNN
  }
}
layer {
  name: "relu2-dsn4"
  type: "ReLU"
  bottom: "conv3-dsn4"
  top: "conv3-dsn4"
}
layer {
  name: "conv4-dsn4"
  type: "Convolution"
  bottom: "conv3-dsn4"
  top: "conv4-dsn4"
  param {
    lr_mult: 1
    decay_mult: 1
  }
  param {
    lr_mult: 2
    decay_mult: 0
  }
  convolution_param {
    num_output: 1
    pad: 1
    kernel_size: 3
    weight_filler {
      type: "gaussian"
      std: 0.01
    }
    bias_filler {
      type: "constant"
      value: 0
    }
    engine: CUDNN
  }
}
layer {
  name: "sum-dsn4"
  type: "Eltwise"
  bottom: "conv4-dsn4"
  bottom: "weight-dsn5-4"
  top: "sum-dsn4"
  eltwise_param {
    operation: SUM
  }
}
layer {
  name: "upsample8_dsn4"
  type: "Deconvolution"
  bottom: "sum-dsn4"
  top: "sum-dsn4-up"
  param {
    lr_mult: 0
    decay_mult: 1
  }
  param {
    lr_mult: 0
    decay_mult: 0
  }
  convolution_param {
    num_output: 1
    kernel_size: 16
    stride: 8
  }
}
layer {
  name: "crop2-dsn4"
  type: "Crop"
  bottom: "sum-dsn4-up"
  bottom: "data"
  top: "upscore-dsn4"
}
layer {
  name: "loss4-score"
  type: "SigmoidCrossEntropyLoss"
  bottom: "upscore-dsn4"
  bottom: "label"
  top: "loss4-score"
  loss_weight: 1
}
layer {
  name: "upsample2_dsn3"
  type: "Deconvolution"
  bottom: "sum-dsn4"
  top: "sum-dsn4-3"
  param {
    lr_mult: 0
    decay_mult: 1
  }
  param {
    lr_mult: 0
    decay_mult: 0
  }
  convolution_param {
    num_output: 1
    kernel_size: 4
    stride: 2
  }
}
layer {
  name: "crop1-dsn3"
  type: "Crop"
  bottom: "sum-dsn4-3"
  bottom: "conv3_3"
  top: "weight-dsn4-3"
}
layer {
  name: "sigmoid-dsn3"
  type: "Sigmoid"
  bottom: "weight-dsn4-3"
  top: "sigmoid-dsn3"
}
layer {
  name: "rev-dsn3"
  type: "Power"
  bottom: "sigmoid-dsn3"
  top: "rev-dsn3"
  power_param {
    power: 1
    scale: -1
    shift: 1
  }
}
layer {
  name: "tile-dsn3"
  type: "Tile"
  bottom: "rev-dsn3"
  top: "weight-dsn3"
  tile_param {
    tiles: 256
  }
}
layer {
  name: "prod1-dsn3"
  type: "Eltwise"
  bottom: "conv3_3"
  bottom: "weight-dsn3"
  top: "prod1-dsn3"
  eltwise_param {
    operation: PROD
  }
}
layer {
  name: "conv1-dsn3"
  type: "Convolution"
  bottom: "prod1-dsn3"
  top: "conv1-dsn3"
  param {
    lr_mult: 1
    decay_mult: 1
  }
  param {
    lr_mult: 2
    decay_mult: 0
  }
  convolution_param {
    num_output: 64
    kernel_size: 1
    weight_filler {
      type: "gaussian"
      std: 0.01
    }
    bias_filler {
      type: "constant"
      value: 0
    }
    engine: CUDNN
  }
}
layer {
  name: "conv2-dsn3"
  type: "Convolution"
  bottom: "conv1-dsn3"
  top: "conv2-dsn3"
  param {
    lr_mult: 1
    decay_mult: 1
  }
  param {
    lr_mult: 2
    decay_mult: 0
  }
  convolution_param {
    num_output: 64
    pad: 1
    kernel_size: 3
    weight_filler {
      type: "gaussian"
      std: 0.01
    }
    bias_filler {
      type: "constant"
      value: 0
    }
    engine: CUDNN
  }
}
layer {
  name: "relu1-dsn3"
  type: "ReLU"
  bottom: "conv2-dsn3"
  top: "conv2-dsn3"
}
layer {
  name: "conv3-dsn3"
  type: "Convolution"
  bottom: "conv2-dsn3"
  top: "conv3-dsn3"
  param {
    lr_mult: 1
    decay_mult: 1
  }
  param {
    lr_mult: 2
    decay_mult: 0
  }
  convolution_param {
    num_output: 64
    pad: 1
    kernel_size: 3
    weight_filler {
      type: "gaussian"
      std: 0.01
    }
    bias_filler {
      type: "constant"
      value: 0
    }
    engine: CUDNN
  }
}
layer {
  name: "relu2-dsn3"
  type: "ReLU"
  bottom: "conv3-dsn3"
  top: "conv3-dsn3"
}
layer {
  name: "conv4-dsn3"
  type: "Convolution"
  bottom: "conv3-dsn3"
  top: "conv4-dsn3"
  param {
    lr_mult: 1
    decay_mult: 1
  }
  param {
    lr_mult: 2
    decay_mult: 0
  }
  convolution_param {
    num_output: 1
    pad: 1
    kernel_size: 3
    weight_filler {
      type: "gaussian"
      std: 0.01
    }
    bias_filler {
      type: "constant"
      value: 0
    }
    engine: CUDNN
  }
}
layer {
  name: "sum-dsn3"
  type: "Eltwise"
  bottom: "conv4-dsn3"
  bottom: "weight-dsn4-3"
  top: "sum-dsn3"
  eltwise_param {
    operation: SUM
  }
}
layer {
  name: "upsample4_dsn3"
  type: "Deconvolution"
  bottom: "sum-dsn3"
  top: "sum-dsn3-up"
  param {
    lr_mult: 0
    decay_mult: 1
  }
  param {
    lr_mult: 0
    decay_mult: 0
  }
  convolution_param {
    num_output: 1
    kernel_size: 8
    stride: 4
  }
}
layer {
  name: "crop2-dsn3"
  type: "Crop"
  bottom: "sum-dsn3-up"
  bottom: "data"
  top: "upscore-dsn3"
}
layer {
  name: "loss3-score"
  type: "SigmoidCrossEntropyLoss"
  bottom: "upscore-dsn3"
  bottom: "label"
  top: "loss3-score"
  loss_weight: 1
}
layer {
  name: "upsample2_1-dsn2"
  type: "Deconvolution"
  bottom: "sum-dsn3"
  top: "sum-dsn3-2"
  param {
    lr_mult: 0
    decay_mult: 1
  }
  param {
    lr_mult: 0
    decay_mult: 0
  }
  convolution_param {
    num_output: 1
    kernel_size: 4
    stride: 2
  }
}
layer {
  name: "crop1-dsn2"
  type: "Crop"
  bottom: "sum-dsn3-2"
  bottom: "conv2_2"
  top: "weight-dsn3-2"
}
layer {
  name: "sigmoid-dsn2"
  type: "Sigmoid"
  bottom: "weight-dsn3-2"
  top: "sigmoid-dsn2"
}
layer {
  name: "rev-dsn2"
  type: "Power"
  bottom: "sigmoid-dsn2"
  top: "rev-dsn2"
  power_param {
    power: 1
    scale: -1
    shift: 1
  }
}
layer {
  name: "tile-dsn2"
  type: "Tile"
  bottom: "rev-dsn2"
  top: "weight-dsn2"
  tile_param {
    tiles: 128
  }
}
layer {
  name: "prod1-dsn2"
  type: "Eltwise"
  bottom: "conv2_2"
  bottom: "weight-dsn2"
  top: "prod1-dsn2"
  eltwise_param {
    operation: PROD
  }
}
layer {
  name: "conv1-dsn2"
  type: "Convolution"
  bottom: "prod1-dsn2"
  top: "conv1-dsn2"
  param {
    lr_mult: 1
    decay_mult: 1
  }
  param {
    lr_mult: 2
    decay_mult: 0
  }
  convolution_param {
    num_output: 64
    kernel_size: 1
    weight_filler {
      type: "gaussian"
      std: 0.01
    }
    bias_filler {
      type: "constant"
      value: 0
    }
    engine: CUDNN
  }
}
layer {
  name: "conv2-dsn2"
  type: "Convolution"
  bottom: "conv1-dsn2"
  top: "conv2-dsn2"
  param {
    lr_mult: 1
    decay_mult: 1
  }
  param {
    lr_mult: 2
    decay_mult: 0
  }
  convolution_param {
    num_output: 64
    pad: 1
    kernel_size: 3
    weight_filler {
      type: "gaussian"
      std: 0.01
    }
    bias_filler {
      type: "constant"
      value: 0
    }
    engine: CUDNN
  }
}
layer {
  name: "relu1-dsn2"
  type: "ReLU"
  bottom: "conv2-dsn2"
  top: "conv2-dsn2"
}
layer {
  name: "conv3-dsn2"
  type: "Convolution"
  bottom: "conv2-dsn2"
  top: "conv3-dsn2"
  param {
    lr_mult: 1
    decay_mult: 1
  }
  param {
    lr_mult: 2
    decay_mult: 0
  }
  convolution_param {
    num_output: 64
    pad: 1
    kernel_size: 3
    weight_filler {
      type: "gaussian"
      std: 0.01
    }
    bias_filler {
      type: "constant"
      value: 0
    }
    engine: CUDNN
  }
}
layer {
  name: "relu2-dsn2"
  type: "ReLU"
  bottom: "conv3-dsn2"
  top: "conv3-dsn2"
}
layer {
  name: "conv4-dsn2"
  type: "Convolution"
  bottom: "conv3-dsn2"
  top: "conv4-dsn2"
  param {
    lr_mult: 1
    decay_mult: 1
  }
  param {
    lr_mult: 2
    decay_mult: 0
  }
  convolution_param {
    num_output: 1
    pad: 1
    kernel_size: 3
    weight_filler {
      type: "gaussian"
      std: 0.01
    }
    bias_filler {
      type: "constant"
      value: 0
    }
    engine: CUDNN
  }
}
layer {
  name: "sum-dsn2"
  type: "Eltwise"
  bottom: "conv4-dsn2"
  bottom: "weight-dsn3-2"
  top: "sum-dsn2"
  eltwise_param {
    operation: SUM
  }
}
layer {
  name: "upsample2_2-dsn2"
  type: "Deconvolution"
  bottom: "sum-dsn2"
  top: "sum-dsn2-up"
  param {
    lr_mult: 0
    decay_mult: 1
  }
  param {
    lr_mult: 0
    decay_mult: 0
  }
  convolution_param {
    num_output: 1
    kernel_size: 4
    stride: 2
  }
}
layer {
  name: "crop2-dsn2"
  type: "Crop"
  bottom: "sum-dsn2-up"
  bottom: "data"
  top: "upscore-dsn2"
}
layer {
  name: "loss2-score"
  type: "SigmoidCrossEntropyLoss"
  bottom: "upscore-dsn2"
  bottom: "label"
  top: "loss2-score"
  loss_weight: 1
}
layer {
  name: "sigmoid-dsn1"
  type: "Sigmoid"
  bottom: "upscore-dsn2"
  top: "sigmoid-dsn1"
}
layer {
  name: "rev-dsn1"
  type: "Power"
  bottom: "sigmoid-dsn1"
  top: "rev-dsn1"
  power_param {
    power: 1
    scale: -1
    shift: 1
  }
}
layer {
  name: "tile-dsn1"
  type: "Tile"
  bottom: "rev-dsn1"
  top: "weight-dsn1"
  tile_param {
    tiles: 64
  }
}
layer {
  name: "prod1-dsn1"
  type: "Eltwise"
  bottom: "conv1_2"
  bottom: "weight-dsn1"
  top: "prod1-dsn1"
  eltwise_param {
    operation: PROD
  }
}
layer {
  name: "conv1-dsn1"
  type: "Convolution"
  bottom: "prod1-dsn1"
  top: "conv1-dsn1"
  param {
    lr_mult: 1
    decay_mult: 1
  }
  param {
    lr_mult: 2
    decay_mult: 0
  }
  convolution_param {
    num_output: 64
    kernel_size: 1
    weight_filler {
      type: "gaussian"
      std: 0.01
    }
    bias_filler {
      type: "constant"
      value: 0
    }
    engine: CUDNN
  }
}
layer {
  name: "conv2-dsn1"
  type: "Convolution"
  bottom: "conv1-dsn1"
  top: "conv2-dsn1"
  param {
    lr_mult: 1
    decay_mult: 1
  }
  param {
    lr_mult: 2
    decay_mult: 0
  }
  convolution_param {
    num_output: 64
    pad: 1
    kernel_size: 3
    weight_filler {
      type: "gaussian"
      std: 0.01
    }
    bias_filler {
      type: "constant"
      value: 0
    }
    engine: CUDNN
  }
}
layer {
  name: "relu1-dsn1"
  type: "ReLU"
  bottom: "conv2-dsn1"
  top: "conv2-dsn1"
}
layer {
  name: "conv3-dsn1"
  type: "Convolution"
  bottom: "conv2-dsn1"
  top: "conv3-dsn1"
  param {
    lr_mult: 1
    decay_mult: 1
  }
  param {
    lr_mult: 2
    decay_mult: 0
  }
  convolution_param {
    num_output: 64
    pad: 1
    kernel_size: 3
    weight_filler {
      type: "gaussian"
      std: 0.01
    }
    bias_filler {
      type: "constant"
      value: 0
    }
    engine: CUDNN
  }
}
layer {
  name: "relu2-dsn1"
  type: "ReLU"
  bottom: "conv3-dsn1"
  top: "conv3-dsn1"
}
layer {
  name: "conv4-dsn1"
  type: "Convolution"
  bottom: "conv3-dsn1"
  top: "conv4-dsn1"
  param {
    lr_mult: 1
    decay_mult: 1
  }
  param {
    lr_mult: 2
    decay_mult: 0
  }
  convolution_param {
    num_output: 1
    pad: 1
    kernel_size: 3
    weight_filler {
      type: "gaussian"
      std: 0.01
    }
    bias_filler {
      type: "constant"
      value: 0
    }
    engine: CUDNN
  }
}
layer {
  name: "sum-dsn1"
  type: "Eltwise"
  bottom: "conv4-dsn1"
  bottom: "upscore-dsn2"
  top: "sum-dsn1"
  eltwise_param {
    operation: SUM
  }
}
layer {
  name: "crop2-dsn1"
  type: "Crop"
  bottom: "sum-dsn1"
  bottom: "data"
  top: "upscore-dsn1"
}
layer {
  name: "loss1-score"
  type: "SigmoidCrossEntropyLoss"
  bottom: "upscore-dsn1"
  bottom: "label"
  top: "loss1-score"
  loss_weight: 1
}
I1118 18:17:50.344200  2691 layer_factory.hpp:77] Creating layer data
I1118 18:17:50.344221  2691 net.cpp:100] Creating Layer data
I1118 18:17:50.344228  2691 net.cpp:408] data -> data_unaugmented
I1118 18:17:50.344241  2691 net.cpp:408] data -> label_unaugmented
I1118 18:17:50.344261  2691 image_labelmap_data_layer.cpp:41] Opening file /media/compute/homes/galberding/FleckDetect/Datasets/FleckDataSet/train/image_to_label_map.txt
I1118 18:17:50.346642  2691 image_labelmap_data_layer.cpp:51] Shuffling data
I1118 18:17:50.346788  2691 image_labelmap_data_layer.cpp:56] A total of 294 images.
I1118 18:17:50.693373  2691 image_labelmap_data_layer.cpp:110] output data size: 1,3,500,500
I1118 18:17:50.693413  2691 image_labelmap_data_layer.cpp:113] output label size: 1,1,500,500
I1118 18:17:50.703251  2691 net.cpp:150] Setting up data
I1118 18:17:50.703276  2691 net.cpp:157] Top shape: 1 3 500 500 (750000)
I1118 18:17:50.703282  2691 net.cpp:157] Top shape: 1 1 500 500 (250000)
I1118 18:17:50.703285  2691 net.cpp:165] Memory required for data: 4000000
I1118 18:17:50.703296  2691 layer_factory.hpp:77] Creating layer augmentation
I1118 18:17:50.711067  2691 net.cpp:100] Creating Layer augmentation
I1118 18:17:50.711092  2691 net.cpp:434] augmentation <- data_unaugmented
I1118 18:17:50.711105  2691 net.cpp:434] augmentation <- label_unaugmented
I1118 18:17:50.711118  2691 net.cpp:408] augmentation -> data
I1118 18:17:50.711138  2691 net.cpp:408] augmentation -> label
I1118 18:17:50.713193  2691 net.cpp:150] Setting up augmentation
I1118 18:17:50.713209  2691 net.cpp:157] Top shape: 1 3 500 500 (750000)
I1118 18:17:50.713214  2691 net.cpp:157] Top shape: 1 1 500 500 (250000)
I1118 18:17:50.713217  2691 net.cpp:165] Memory required for data: 8000000
I1118 18:17:50.713220  2691 layer_factory.hpp:77] Creating layer data_augmentation_0_split
I1118 18:17:50.713232  2691 net.cpp:100] Creating Layer data_augmentation_0_split
I1118 18:17:50.713235  2691 net.cpp:434] data_augmentation_0_split <- data
I1118 18:17:50.713244  2691 net.cpp:408] data_augmentation_0_split -> data_augmentation_0_split_0
I1118 18:17:50.713254  2691 net.cpp:408] data_augmentation_0_split -> data_augmentation_0_split_1
I1118 18:17:50.713261  2691 net.cpp:408] data_augmentation_0_split -> data_augmentation_0_split_2
I1118 18:17:50.713268  2691 net.cpp:408] data_augmentation_0_split -> data_augmentation_0_split_3
I1118 18:17:50.713274  2691 net.cpp:408] data_augmentation_0_split -> data_augmentation_0_split_4
I1118 18:17:50.713281  2691 net.cpp:408] data_augmentation_0_split -> data_augmentation_0_split_5
I1118 18:17:50.713287  2691 net.cpp:408] data_augmentation_0_split -> data_augmentation_0_split_6
I1118 18:17:50.713407  2691 net.cpp:150] Setting up data_augmentation_0_split
I1118 18:17:50.713416  2691 net.cpp:157] Top shape: 1 3 500 500 (750000)
I1118 18:17:50.713420  2691 net.cpp:157] Top shape: 1 3 500 500 (750000)
I1118 18:17:50.713424  2691 net.cpp:157] Top shape: 1 3 500 500 (750000)
I1118 18:17:50.713428  2691 net.cpp:157] Top shape: 1 3 500 500 (750000)
I1118 18:17:50.713433  2691 net.cpp:157] Top shape: 1 3 500 500 (750000)
I1118 18:17:50.713436  2691 net.cpp:157] Top shape: 1 3 500 500 (750000)
I1118 18:17:50.713439  2691 net.cpp:157] Top shape: 1 3 500 500 (750000)
I1118 18:17:50.713443  2691 net.cpp:165] Memory required for data: 29000000
I1118 18:17:50.713445  2691 layer_factory.hpp:77] Creating layer label_augmentation_1_split
I1118 18:17:50.713452  2691 net.cpp:100] Creating Layer label_augmentation_1_split
I1118 18:17:50.713455  2691 net.cpp:434] label_augmentation_1_split <- label
I1118 18:17:50.713462  2691 net.cpp:408] label_augmentation_1_split -> label_augmentation_1_split_0
I1118 18:17:50.713470  2691 net.cpp:408] label_augmentation_1_split -> label_augmentation_1_split_1
I1118 18:17:50.713487  2691 net.cpp:408] label_augmentation_1_split -> label_augmentation_1_split_2
I1118 18:17:50.713493  2691 net.cpp:408] label_augmentation_1_split -> label_augmentation_1_split_3
I1118 18:17:50.713500  2691 net.cpp:408] label_augmentation_1_split -> label_augmentation_1_split_4
I1118 18:17:50.713506  2691 net.cpp:408] label_augmentation_1_split -> label_augmentation_1_split_5
I1118 18:17:50.713589  2691 net.cpp:150] Setting up label_augmentation_1_split
I1118 18:17:50.713598  2691 net.cpp:157] Top shape: 1 1 500 500 (250000)
I1118 18:17:50.713601  2691 net.cpp:157] Top shape: 1 1 500 500 (250000)
I1118 18:17:50.713605  2691 net.cpp:157] Top shape: 1 1 500 500 (250000)
I1118 18:17:50.713608  2691 net.cpp:157] Top shape: 1 1 500 500 (250000)
I1118 18:17:50.713613  2691 net.cpp:157] Top shape: 1 1 500 500 (250000)
I1118 18:17:50.713616  2691 net.cpp:157] Top shape: 1 1 500 500 (250000)
I1118 18:17:50.713619  2691 net.cpp:165] Memory required for data: 35000000
I1118 18:17:50.713623  2691 layer_factory.hpp:77] Creating layer conv1_1
I1118 18:17:50.713636  2691 net.cpp:100] Creating Layer conv1_1
I1118 18:17:50.713640  2691 net.cpp:434] conv1_1 <- data_augmentation_0_split_0
I1118 18:17:50.713647  2691 net.cpp:408] conv1_1 -> conv1_1
I1118 18:17:51.134562  2691 net.cpp:150] Setting up conv1_1
I1118 18:17:51.134594  2691 net.cpp:157] Top shape: 1 64 500 500 (16000000)
I1118 18:17:51.134598  2691 net.cpp:165] Memory required for data: 99000000
I1118 18:17:51.134614  2691 layer_factory.hpp:77] Creating layer relu1_1
I1118 18:17:51.134626  2691 net.cpp:100] Creating Layer relu1_1
I1118 18:17:51.134630  2691 net.cpp:434] relu1_1 <- conv1_1
I1118 18:17:51.134635  2691 net.cpp:395] relu1_1 -> conv1_1 (in-place)
I1118 18:17:51.134701  2691 net.cpp:150] Setting up relu1_1
I1118 18:17:51.134717  2691 net.cpp:157] Top shape: 1 64 500 500 (16000000)
I1118 18:17:51.134719  2691 net.cpp:165] Memory required for data: 163000000
I1118 18:17:51.134721  2691 layer_factory.hpp:77] Creating layer conv1_2
I1118 18:17:51.134732  2691 net.cpp:100] Creating Layer conv1_2
I1118 18:17:51.134733  2691 net.cpp:434] conv1_2 <- conv1_1
I1118 18:17:51.134738  2691 net.cpp:408] conv1_2 -> conv1_2
I1118 18:17:51.136202  2691 net.cpp:150] Setting up conv1_2
I1118 18:17:51.136214  2691 net.cpp:157] Top shape: 1 64 500 500 (16000000)
I1118 18:17:51.136216  2691 net.cpp:165] Memory required for data: 227000000
I1118 18:17:51.136224  2691 layer_factory.hpp:77] Creating layer relu1_2
I1118 18:17:51.136227  2691 net.cpp:100] Creating Layer relu1_2
I1118 18:17:51.136230  2691 net.cpp:434] relu1_2 <- conv1_2
I1118 18:17:51.136234  2691 net.cpp:395] relu1_2 -> conv1_2 (in-place)
I1118 18:17:51.136291  2691 net.cpp:150] Setting up relu1_2
I1118 18:17:51.136297  2691 net.cpp:157] Top shape: 1 64 500 500 (16000000)
I1118 18:17:51.136307  2691 net.cpp:165] Memory required for data: 291000000
I1118 18:17:51.136324  2691 layer_factory.hpp:77] Creating layer conv1_2_relu1_2_0_split
I1118 18:17:51.136332  2691 net.cpp:100] Creating Layer conv1_2_relu1_2_0_split
I1118 18:17:51.136335  2691 net.cpp:434] conv1_2_relu1_2_0_split <- conv1_2
I1118 18:17:51.136340  2691 net.cpp:408] conv1_2_relu1_2_0_split -> conv1_2_relu1_2_0_split_0
I1118 18:17:51.136345  2691 net.cpp:408] conv1_2_relu1_2_0_split -> conv1_2_relu1_2_0_split_1
I1118 18:17:51.136374  2691 net.cpp:150] Setting up conv1_2_relu1_2_0_split
I1118 18:17:51.136380  2691 net.cpp:157] Top shape: 1 64 500 500 (16000000)
I1118 18:17:51.136384  2691 net.cpp:157] Top shape: 1 64 500 500 (16000000)
I1118 18:17:51.136385  2691 net.cpp:165] Memory required for data: 419000000
I1118 18:17:51.136387  2691 layer_factory.hpp:77] Creating layer pool1
I1118 18:17:51.136405  2691 net.cpp:100] Creating Layer pool1
I1118 18:17:51.136409  2691 net.cpp:434] pool1 <- conv1_2_relu1_2_0_split_0
I1118 18:17:51.136413  2691 net.cpp:408] pool1 -> pool1
I1118 18:17:51.136459  2691 net.cpp:150] Setting up pool1
I1118 18:17:51.136464  2691 net.cpp:157] Top shape: 1 64 250 250 (4000000)
I1118 18:17:51.136466  2691 net.cpp:165] Memory required for data: 435000000
I1118 18:17:51.136469  2691 layer_factory.hpp:77] Creating layer conv2_1
I1118 18:17:51.136476  2691 net.cpp:100] Creating Layer conv2_1
I1118 18:17:51.136477  2691 net.cpp:434] conv2_1 <- pool1
I1118 18:17:51.136482  2691 net.cpp:408] conv2_1 -> conv2_1
I1118 18:17:51.137116  2691 net.cpp:150] Setting up conv2_1
I1118 18:17:51.137126  2691 net.cpp:157] Top shape: 1 128 250 250 (8000000)
I1118 18:17:51.137128  2691 net.cpp:165] Memory required for data: 467000000
I1118 18:17:51.137136  2691 layer_factory.hpp:77] Creating layer relu2_1
I1118 18:17:51.137140  2691 net.cpp:100] Creating Layer relu2_1
I1118 18:17:51.137142  2691 net.cpp:434] relu2_1 <- conv2_1
I1118 18:17:51.137146  2691 net.cpp:395] relu2_1 -> conv2_1 (in-place)
I1118 18:17:51.137276  2691 net.cpp:150] Setting up relu2_1
I1118 18:17:51.137285  2691 net.cpp:157] Top shape: 1 128 250 250 (8000000)
I1118 18:17:51.137287  2691 net.cpp:165] Memory required for data: 499000000
I1118 18:17:51.137290  2691 layer_factory.hpp:77] Creating layer conv2_2
I1118 18:17:51.137307  2691 net.cpp:100] Creating Layer conv2_2
I1118 18:17:51.137310  2691 net.cpp:434] conv2_2 <- conv2_1
I1118 18:17:51.137315  2691 net.cpp:408] conv2_2 -> conv2_2
I1118 18:17:51.139012  2691 net.cpp:150] Setting up conv2_2
I1118 18:17:51.139041  2691 net.cpp:157] Top shape: 1 128 250 250 (8000000)
I1118 18:17:51.139045  2691 net.cpp:165] Memory required for data: 531000000
I1118 18:17:51.139050  2691 layer_factory.hpp:77] Creating layer relu2_2
I1118 18:17:51.139055  2691 net.cpp:100] Creating Layer relu2_2
I1118 18:17:51.139057  2691 net.cpp:434] relu2_2 <- conv2_2
I1118 18:17:51.139061  2691 net.cpp:395] relu2_2 -> conv2_2 (in-place)
I1118 18:17:51.139226  2691 net.cpp:150] Setting up relu2_2
I1118 18:17:51.139236  2691 net.cpp:157] Top shape: 1 128 250 250 (8000000)
I1118 18:17:51.139240  2691 net.cpp:165] Memory required for data: 563000000
I1118 18:17:51.139241  2691 layer_factory.hpp:77] Creating layer conv2_2_relu2_2_0_split
I1118 18:17:51.139247  2691 net.cpp:100] Creating Layer conv2_2_relu2_2_0_split
I1118 18:17:51.139250  2691 net.cpp:434] conv2_2_relu2_2_0_split <- conv2_2
I1118 18:17:51.139256  2691 net.cpp:408] conv2_2_relu2_2_0_split -> conv2_2_relu2_2_0_split_0
I1118 18:17:51.139261  2691 net.cpp:408] conv2_2_relu2_2_0_split -> conv2_2_relu2_2_0_split_1
I1118 18:17:51.139266  2691 net.cpp:408] conv2_2_relu2_2_0_split -> conv2_2_relu2_2_0_split_2
I1118 18:17:51.139324  2691 net.cpp:150] Setting up conv2_2_relu2_2_0_split
I1118 18:17:51.139331  2691 net.cpp:157] Top shape: 1 128 250 250 (8000000)
I1118 18:17:51.139334  2691 net.cpp:157] Top shape: 1 128 250 250 (8000000)
I1118 18:17:51.139338  2691 net.cpp:157] Top shape: 1 128 250 250 (8000000)
I1118 18:17:51.139338  2691 net.cpp:165] Memory required for data: 659000000
I1118 18:17:51.139341  2691 layer_factory.hpp:77] Creating layer pool2
I1118 18:17:51.139346  2691 net.cpp:100] Creating Layer pool2
I1118 18:17:51.139349  2691 net.cpp:434] pool2 <- conv2_2_relu2_2_0_split_0
I1118 18:17:51.139354  2691 net.cpp:408] pool2 -> pool2
I1118 18:17:51.139382  2691 net.cpp:150] Setting up pool2
I1118 18:17:51.139389  2691 net.cpp:157] Top shape: 1 128 125 125 (2000000)
I1118 18:17:51.139390  2691 net.cpp:165] Memory required for data: 667000000
I1118 18:17:51.139394  2691 layer_factory.hpp:77] Creating layer conv3_1
I1118 18:17:51.139411  2691 net.cpp:100] Creating Layer conv3_1
I1118 18:17:51.139413  2691 net.cpp:434] conv3_1 <- pool2
I1118 18:17:51.139420  2691 net.cpp:408] conv3_1 -> conv3_1
I1118 18:17:51.140889  2691 net.cpp:150] Setting up conv3_1
I1118 18:17:51.140900  2691 net.cpp:157] Top shape: 1 256 125 125 (4000000)
I1118 18:17:51.140903  2691 net.cpp:165] Memory required for data: 683000000
I1118 18:17:51.140913  2691 layer_factory.hpp:77] Creating layer relu3_1
I1118 18:17:51.140918  2691 net.cpp:100] Creating Layer relu3_1
I1118 18:17:51.140920  2691 net.cpp:434] relu3_1 <- conv3_1
I1118 18:17:51.140925  2691 net.cpp:395] relu3_1 -> conv3_1 (in-place)
I1118 18:17:51.141119  2691 net.cpp:150] Setting up relu3_1
I1118 18:17:51.141129  2691 net.cpp:157] Top shape: 1 256 125 125 (4000000)
I1118 18:17:51.141131  2691 net.cpp:165] Memory required for data: 699000000
I1118 18:17:51.141134  2691 layer_factory.hpp:77] Creating layer conv3_2
I1118 18:17:51.141141  2691 net.cpp:100] Creating Layer conv3_2
I1118 18:17:51.141144  2691 net.cpp:434] conv3_2 <- conv3_1
I1118 18:17:51.141151  2691 net.cpp:408] conv3_2 -> conv3_2
I1118 18:17:51.142941  2691 net.cpp:150] Setting up conv3_2
I1118 18:17:51.142952  2691 net.cpp:157] Top shape: 1 256 125 125 (4000000)
I1118 18:17:51.142954  2691 net.cpp:165] Memory required for data: 715000000
I1118 18:17:51.142959  2691 layer_factory.hpp:77] Creating layer relu3_2
I1118 18:17:51.142966  2691 net.cpp:100] Creating Layer relu3_2
I1118 18:17:51.142968  2691 net.cpp:434] relu3_2 <- conv3_2
I1118 18:17:51.142972  2691 net.cpp:395] relu3_2 -> conv3_2 (in-place)
I1118 18:17:51.143043  2691 net.cpp:150] Setting up relu3_2
I1118 18:17:51.143050  2691 net.cpp:157] Top shape: 1 256 125 125 (4000000)
I1118 18:17:51.143052  2691 net.cpp:165] Memory required for data: 731000000
I1118 18:17:51.143054  2691 layer_factory.hpp:77] Creating layer conv3_3
I1118 18:17:51.143062  2691 net.cpp:100] Creating Layer conv3_3
I1118 18:17:51.143064  2691 net.cpp:434] conv3_3 <- conv3_2
I1118 18:17:51.143069  2691 net.cpp:408] conv3_3 -> conv3_3
I1118 18:17:51.144917  2691 net.cpp:150] Setting up conv3_3
I1118 18:17:51.144929  2691 net.cpp:157] Top shape: 1 256 125 125 (4000000)
I1118 18:17:51.144932  2691 net.cpp:165] Memory required for data: 747000000
I1118 18:17:51.144937  2691 layer_factory.hpp:77] Creating layer relu3_3
I1118 18:17:51.144942  2691 net.cpp:100] Creating Layer relu3_3
I1118 18:17:51.144944  2691 net.cpp:434] relu3_3 <- conv3_3
I1118 18:17:51.144948  2691 net.cpp:395] relu3_3 -> conv3_3 (in-place)
I1118 18:17:51.145016  2691 net.cpp:150] Setting up relu3_3
I1118 18:17:51.145025  2691 net.cpp:157] Top shape: 1 256 125 125 (4000000)
I1118 18:17:51.145026  2691 net.cpp:165] Memory required for data: 763000000
I1118 18:17:51.145028  2691 layer_factory.hpp:77] Creating layer conv3_3_relu3_3_0_split
I1118 18:17:51.145035  2691 net.cpp:100] Creating Layer conv3_3_relu3_3_0_split
I1118 18:17:51.145037  2691 net.cpp:434] conv3_3_relu3_3_0_split <- conv3_3
I1118 18:17:51.145041  2691 net.cpp:408] conv3_3_relu3_3_0_split -> conv3_3_relu3_3_0_split_0
I1118 18:17:51.145046  2691 net.cpp:408] conv3_3_relu3_3_0_split -> conv3_3_relu3_3_0_split_1
I1118 18:17:51.145056  2691 net.cpp:408] conv3_3_relu3_3_0_split -> conv3_3_relu3_3_0_split_2
I1118 18:17:51.145108  2691 net.cpp:150] Setting up conv3_3_relu3_3_0_split
I1118 18:17:51.145130  2691 net.cpp:157] Top shape: 1 256 125 125 (4000000)
I1118 18:17:51.145133  2691 net.cpp:157] Top shape: 1 256 125 125 (4000000)
I1118 18:17:51.145136  2691 net.cpp:157] Top shape: 1 256 125 125 (4000000)
I1118 18:17:51.145138  2691 net.cpp:165] Memory required for data: 811000000
I1118 18:17:51.145140  2691 layer_factory.hpp:77] Creating layer pool3
I1118 18:17:51.145145  2691 net.cpp:100] Creating Layer pool3
I1118 18:17:51.145148  2691 net.cpp:434] pool3 <- conv3_3_relu3_3_0_split_0
I1118 18:17:51.145153  2691 net.cpp:408] pool3 -> pool3
I1118 18:17:51.145190  2691 net.cpp:150] Setting up pool3
I1118 18:17:51.145195  2691 net.cpp:157] Top shape: 1 256 63 63 (1016064)
I1118 18:17:51.145197  2691 net.cpp:165] Memory required for data: 815064256
I1118 18:17:51.145200  2691 layer_factory.hpp:77] Creating layer conv4_1
I1118 18:17:51.145210  2691 net.cpp:100] Creating Layer conv4_1
I1118 18:17:51.145212  2691 net.cpp:434] conv4_1 <- pool3
I1118 18:17:51.145216  2691 net.cpp:408] conv4_1 -> conv4_1
I1118 18:17:51.149150  2691 net.cpp:150] Setting up conv4_1
I1118 18:17:51.149163  2691 net.cpp:157] Top shape: 1 512 63 63 (2032128)
I1118 18:17:51.149180  2691 net.cpp:165] Memory required for data: 823192768
I1118 18:17:51.149185  2691 layer_factory.hpp:77] Creating layer relu4_1
I1118 18:17:51.149192  2691 net.cpp:100] Creating Layer relu4_1
I1118 18:17:51.149195  2691 net.cpp:434] relu4_1 <- conv4_1
I1118 18:17:51.149199  2691 net.cpp:395] relu4_1 -> conv4_1 (in-place)
I1118 18:17:51.149271  2691 net.cpp:150] Setting up relu4_1
I1118 18:17:51.149278  2691 net.cpp:157] Top shape: 1 512 63 63 (2032128)
I1118 18:17:51.149281  2691 net.cpp:165] Memory required for data: 831321280
I1118 18:17:51.149283  2691 layer_factory.hpp:77] Creating layer conv4_2
I1118 18:17:51.149293  2691 net.cpp:100] Creating Layer conv4_2
I1118 18:17:51.149296  2691 net.cpp:434] conv4_2 <- conv4_1
I1118 18:17:51.149305  2691 net.cpp:408] conv4_2 -> conv4_2
I1118 18:17:51.154362  2691 net.cpp:150] Setting up conv4_2
I1118 18:17:51.154373  2691 net.cpp:157] Top shape: 1 512 63 63 (2032128)
I1118 18:17:51.154392  2691 net.cpp:165] Memory required for data: 839449792
I1118 18:17:51.154402  2691 layer_factory.hpp:77] Creating layer relu4_2
I1118 18:17:51.154407  2691 net.cpp:100] Creating Layer relu4_2
I1118 18:17:51.154410  2691 net.cpp:434] relu4_2 <- conv4_2
I1118 18:17:51.154418  2691 net.cpp:395] relu4_2 -> conv4_2 (in-place)
I1118 18:17:51.154587  2691 net.cpp:150] Setting up relu4_2
I1118 18:17:51.154597  2691 net.cpp:157] Top shape: 1 512 63 63 (2032128)
I1118 18:17:51.154598  2691 net.cpp:165] Memory required for data: 847578304
I1118 18:17:51.154601  2691 layer_factory.hpp:77] Creating layer conv4_3
I1118 18:17:51.154609  2691 net.cpp:100] Creating Layer conv4_3
I1118 18:17:51.154613  2691 net.cpp:434] conv4_3 <- conv4_2
I1118 18:17:51.154618  2691 net.cpp:408] conv4_3 -> conv4_3
I1118 18:17:51.159498  2691 net.cpp:150] Setting up conv4_3
I1118 18:17:51.159528  2691 net.cpp:157] Top shape: 1 512 63 63 (2032128)
I1118 18:17:51.159530  2691 net.cpp:165] Memory required for data: 855706816
I1118 18:17:51.159535  2691 layer_factory.hpp:77] Creating layer relu4_3
I1118 18:17:51.159540  2691 net.cpp:100] Creating Layer relu4_3
I1118 18:17:51.159543  2691 net.cpp:434] relu4_3 <- conv4_3
I1118 18:17:51.159548  2691 net.cpp:395] relu4_3 -> conv4_3 (in-place)
I1118 18:17:51.159705  2691 net.cpp:150] Setting up relu4_3
I1118 18:17:51.159727  2691 net.cpp:157] Top shape: 1 512 63 63 (2032128)
I1118 18:17:51.159730  2691 net.cpp:165] Memory required for data: 863835328
I1118 18:17:51.159732  2691 layer_factory.hpp:77] Creating layer conv4_3_relu4_3_0_split
I1118 18:17:51.159739  2691 net.cpp:100] Creating Layer conv4_3_relu4_3_0_split
I1118 18:17:51.159742  2691 net.cpp:434] conv4_3_relu4_3_0_split <- conv4_3
I1118 18:17:51.159747  2691 net.cpp:408] conv4_3_relu4_3_0_split -> conv4_3_relu4_3_0_split_0
I1118 18:17:51.159754  2691 net.cpp:408] conv4_3_relu4_3_0_split -> conv4_3_relu4_3_0_split_1
I1118 18:17:51.159759  2691 net.cpp:408] conv4_3_relu4_3_0_split -> conv4_3_relu4_3_0_split_2
I1118 18:17:51.159801  2691 net.cpp:150] Setting up conv4_3_relu4_3_0_split
I1118 18:17:51.159807  2691 net.cpp:157] Top shape: 1 512 63 63 (2032128)
I1118 18:17:51.159811  2691 net.cpp:157] Top shape: 1 512 63 63 (2032128)
I1118 18:17:51.159813  2691 net.cpp:157] Top shape: 1 512 63 63 (2032128)
I1118 18:17:51.159814  2691 net.cpp:165] Memory required for data: 888220864
I1118 18:17:51.159817  2691 layer_factory.hpp:77] Creating layer pool4
I1118 18:17:51.159822  2691 net.cpp:100] Creating Layer pool4
I1118 18:17:51.159826  2691 net.cpp:434] pool4 <- conv4_3_relu4_3_0_split_0
I1118 18:17:51.159831  2691 net.cpp:408] pool4 -> pool4
I1118 18:17:51.159858  2691 net.cpp:150] Setting up pool4
I1118 18:17:51.159863  2691 net.cpp:157] Top shape: 1 512 32 32 (524288)
I1118 18:17:51.159865  2691 net.cpp:165] Memory required for data: 890318016
I1118 18:17:51.159868  2691 layer_factory.hpp:77] Creating layer conv5_1
I1118 18:17:51.159880  2691 net.cpp:100] Creating Layer conv5_1
I1118 18:17:51.159883  2691 net.cpp:434] conv5_1 <- pool4
I1118 18:17:51.159902  2691 net.cpp:408] conv5_1 -> conv5_1
I1118 18:17:51.166070  2691 net.cpp:150] Setting up conv5_1
I1118 18:17:51.166085  2691 net.cpp:157] Top shape: 1 512 32 32 (524288)
I1118 18:17:51.166103  2691 net.cpp:165] Memory required for data: 892415168
I1118 18:17:51.166110  2691 layer_factory.hpp:77] Creating layer relu5_1
I1118 18:17:51.166115  2691 net.cpp:100] Creating Layer relu5_1
I1118 18:17:51.166117  2691 net.cpp:434] relu5_1 <- conv5_1
I1118 18:17:51.166123  2691 net.cpp:395] relu5_1 -> conv5_1 (in-place)
I1118 18:17:51.166200  2691 net.cpp:150] Setting up relu5_1
I1118 18:17:51.166208  2691 net.cpp:157] Top shape: 1 512 32 32 (524288)
I1118 18:17:51.166209  2691 net.cpp:165] Memory required for data: 894512320
I1118 18:17:51.166213  2691 layer_factory.hpp:77] Creating layer conv5_2
I1118 18:17:51.166218  2691 net.cpp:100] Creating Layer conv5_2
I1118 18:17:51.166221  2691 net.cpp:434] conv5_2 <- conv5_1
I1118 18:17:51.166225  2691 net.cpp:408] conv5_2 -> conv5_2
I1118 18:17:51.171198  2691 net.cpp:150] Setting up conv5_2
I1118 18:17:51.171211  2691 net.cpp:157] Top shape: 1 512 32 32 (524288)
I1118 18:17:51.171213  2691 net.cpp:165] Memory required for data: 896609472
I1118 18:17:51.171218  2691 layer_factory.hpp:77] Creating layer relu5_2
I1118 18:17:51.171224  2691 net.cpp:100] Creating Layer relu5_2
I1118 18:17:51.171227  2691 net.cpp:434] relu5_2 <- conv5_2
I1118 18:17:51.171231  2691 net.cpp:395] relu5_2 -> conv5_2 (in-place)
I1118 18:17:51.171296  2691 net.cpp:150] Setting up relu5_2
I1118 18:17:51.171309  2691 net.cpp:157] Top shape: 1 512 32 32 (524288)
I1118 18:17:51.171313  2691 net.cpp:165] Memory required for data: 898706624
I1118 18:17:51.171314  2691 layer_factory.hpp:77] Creating layer conv5_3
I1118 18:17:51.171322  2691 net.cpp:100] Creating Layer conv5_3
I1118 18:17:51.171325  2691 net.cpp:434] conv5_3 <- conv5_2
I1118 18:17:51.171329  2691 net.cpp:408] conv5_3 -> conv5_3
I1118 18:17:51.176296  2691 net.cpp:150] Setting up conv5_3
I1118 18:17:51.176311  2691 net.cpp:157] Top shape: 1 512 32 32 (524288)
I1118 18:17:51.176314  2691 net.cpp:165] Memory required for data: 900803776
I1118 18:17:51.176335  2691 layer_factory.hpp:77] Creating layer relu5_3
I1118 18:17:51.176339  2691 net.cpp:100] Creating Layer relu5_3
I1118 18:17:51.176343  2691 net.cpp:434] relu5_3 <- conv5_3
I1118 18:17:51.176347  2691 net.cpp:395] relu5_3 -> conv5_3 (in-place)
I1118 18:17:51.176421  2691 net.cpp:150] Setting up relu5_3
I1118 18:17:51.176429  2691 net.cpp:157] Top shape: 1 512 32 32 (524288)
I1118 18:17:51.176431  2691 net.cpp:165] Memory required for data: 902900928
I1118 18:17:51.176434  2691 layer_factory.hpp:77] Creating layer conv5_3_relu5_3_0_split
I1118 18:17:51.176440  2691 net.cpp:100] Creating Layer conv5_3_relu5_3_0_split
I1118 18:17:51.176442  2691 net.cpp:434] conv5_3_relu5_3_0_split <- conv5_3
I1118 18:17:51.176448  2691 net.cpp:408] conv5_3_relu5_3_0_split -> conv5_3_relu5_3_0_split_0
I1118 18:17:51.176455  2691 net.cpp:408] conv5_3_relu5_3_0_split -> conv5_3_relu5_3_0_split_1
I1118 18:17:51.176460  2691 net.cpp:408] conv5_3_relu5_3_0_split -> conv5_3_relu5_3_0_split_2
I1118 18:17:51.176508  2691 net.cpp:150] Setting up conv5_3_relu5_3_0_split
I1118 18:17:51.176517  2691 net.cpp:157] Top shape: 1 512 32 32 (524288)
I1118 18:17:51.176519  2691 net.cpp:157] Top shape: 1 512 32 32 (524288)
I1118 18:17:51.176522  2691 net.cpp:157] Top shape: 1 512 32 32 (524288)
I1118 18:17:51.176524  2691 net.cpp:165] Memory required for data: 909192384
I1118 18:17:51.176527  2691 layer_factory.hpp:77] Creating layer pool5
I1118 18:17:51.176533  2691 net.cpp:100] Creating Layer pool5
I1118 18:17:51.176535  2691 net.cpp:434] pool5 <- conv5_3_relu5_3_0_split_0
I1118 18:17:51.176540  2691 net.cpp:408] pool5 -> pool5
I1118 18:17:51.176587  2691 net.cpp:150] Setting up pool5
I1118 18:17:51.176592  2691 net.cpp:157] Top shape: 1 512 17 17 (147968)
I1118 18:17:51.176594  2691 net.cpp:165] Memory required for data: 909784256
I1118 18:17:51.176596  2691 layer_factory.hpp:77] Creating layer conv1-dsn6
I1118 18:17:51.176605  2691 net.cpp:100] Creating Layer conv1-dsn6
I1118 18:17:51.176609  2691 net.cpp:434] conv1-dsn6 <- pool5
I1118 18:17:51.176614  2691 net.cpp:408] conv1-dsn6 -> conv1-dsn6
I1118 18:17:51.178233  2691 net.cpp:150] Setting up conv1-dsn6
I1118 18:17:51.178244  2691 net.cpp:157] Top shape: 1 256 17 17 (73984)
I1118 18:17:51.178246  2691 net.cpp:165] Memory required for data: 910080192
I1118 18:17:51.178251  2691 layer_factory.hpp:77] Creating layer conv2-dsn6
I1118 18:17:51.178259  2691 net.cpp:100] Creating Layer conv2-dsn6
I1118 18:17:51.178262  2691 net.cpp:434] conv2-dsn6 <- conv1-dsn6
I1118 18:17:51.178268  2691 net.cpp:408] conv2-dsn6 -> conv2-dsn6
I1118 18:17:51.194754  2691 net.cpp:150] Setting up conv2-dsn6
I1118 18:17:51.194766  2691 net.cpp:157] Top shape: 1 256 17 17 (73984)
I1118 18:17:51.194769  2691 net.cpp:165] Memory required for data: 910376128
I1118 18:17:51.194774  2691 layer_factory.hpp:77] Creating layer relu1-dsn6
I1118 18:17:51.194782  2691 net.cpp:100] Creating Layer relu1-dsn6
I1118 18:17:51.194785  2691 net.cpp:434] relu1-dsn6 <- conv2-dsn6
I1118 18:17:51.194789  2691 net.cpp:395] relu1-dsn6 -> conv2-dsn6 (in-place)
I1118 18:17:51.194854  2691 net.cpp:150] Setting up relu1-dsn6
I1118 18:17:51.194864  2691 net.cpp:157] Top shape: 1 256 17 17 (73984)
I1118 18:17:51.194865  2691 net.cpp:165] Memory required for data: 910672064
I1118 18:17:51.194869  2691 layer_factory.hpp:77] Creating layer conv3-dsn6
I1118 18:17:51.194876  2691 net.cpp:100] Creating Layer conv3-dsn6
I1118 18:17:51.194880  2691 net.cpp:434] conv3-dsn6 <- conv2-dsn6
I1118 18:17:51.194885  2691 net.cpp:408] conv3-dsn6 -> conv3-dsn6
I1118 18:17:51.210209  2691 net.cpp:150] Setting up conv3-dsn6
I1118 18:17:51.210220  2691 net.cpp:157] Top shape: 1 256 17 17 (73984)
I1118 18:17:51.210223  2691 net.cpp:165] Memory required for data: 910968000
I1118 18:17:51.210228  2691 layer_factory.hpp:77] Creating layer relu2-dsn6
I1118 18:17:51.210232  2691 net.cpp:100] Creating Layer relu2-dsn6
I1118 18:17:51.210235  2691 net.cpp:434] relu2-dsn6 <- conv3-dsn6
I1118 18:17:51.210240  2691 net.cpp:395] relu2-dsn6 -> conv3-dsn6 (in-place)
I1118 18:17:51.210310  2691 net.cpp:150] Setting up relu2-dsn6
I1118 18:17:51.210336  2691 net.cpp:157] Top shape: 1 256 17 17 (73984)
I1118 18:17:51.210338  2691 net.cpp:165] Memory required for data: 911263936
I1118 18:17:51.210340  2691 layer_factory.hpp:77] Creating layer conv4-dsn6
I1118 18:17:51.210347  2691 net.cpp:100] Creating Layer conv4-dsn6
I1118 18:17:51.210350  2691 net.cpp:434] conv4-dsn6 <- conv3-dsn6
I1118 18:17:51.210357  2691 net.cpp:408] conv4-dsn6 -> conv4-dsn6
I1118 18:17:51.225678  2691 net.cpp:150] Setting up conv4-dsn6
I1118 18:17:51.225689  2691 net.cpp:157] Top shape: 1 256 17 17 (73984)
I1118 18:17:51.225692  2691 net.cpp:165] Memory required for data: 911559872
I1118 18:17:51.225704  2691 layer_factory.hpp:77] Creating layer relu3-dsn6
I1118 18:17:51.225709  2691 net.cpp:100] Creating Layer relu3-dsn6
I1118 18:17:51.225713  2691 net.cpp:434] relu3-dsn6 <- conv4-dsn6
I1118 18:17:51.225718  2691 net.cpp:395] relu3-dsn6 -> conv4-dsn6 (in-place)
I1118 18:17:51.225858  2691 net.cpp:150] Setting up relu3-dsn6
I1118 18:17:51.225867  2691 net.cpp:157] Top shape: 1 256 17 17 (73984)
I1118 18:17:51.225869  2691 net.cpp:165] Memory required for data: 911855808
I1118 18:17:51.225872  2691 layer_factory.hpp:77] Creating layer conv5-dsn6
I1118 18:17:51.225896  2691 net.cpp:100] Creating Layer conv5-dsn6
I1118 18:17:51.225898  2691 net.cpp:434] conv5-dsn6 <- conv4-dsn6
I1118 18:17:51.225906  2691 net.cpp:408] conv5-dsn6 -> conv5-dsn6
I1118 18:17:51.226454  2691 net.cpp:150] Setting up conv5-dsn6
I1118 18:17:51.226464  2691 net.cpp:157] Top shape: 1 1 17 17 (289)
I1118 18:17:51.226480  2691 net.cpp:165] Memory required for data: 911856964
I1118 18:17:51.226485  2691 layer_factory.hpp:77] Creating layer conv5-dsn6_conv5-dsn6_0_split
I1118 18:17:51.226505  2691 net.cpp:100] Creating Layer conv5-dsn6_conv5-dsn6_0_split
I1118 18:17:51.226508  2691 net.cpp:434] conv5-dsn6_conv5-dsn6_0_split <- conv5-dsn6
I1118 18:17:51.226514  2691 net.cpp:408] conv5-dsn6_conv5-dsn6_0_split -> conv5-dsn6_conv5-dsn6_0_split_0
I1118 18:17:51.226521  2691 net.cpp:408] conv5-dsn6_conv5-dsn6_0_split -> conv5-dsn6_conv5-dsn6_0_split_1
I1118 18:17:51.226549  2691 net.cpp:150] Setting up conv5-dsn6_conv5-dsn6_0_split
I1118 18:17:51.226552  2691 net.cpp:157] Top shape: 1 1 17 17 (289)
I1118 18:17:51.226555  2691 net.cpp:157] Top shape: 1 1 17 17 (289)
I1118 18:17:51.226557  2691 net.cpp:165] Memory required for data: 911859276
I1118 18:17:51.226559  2691 layer_factory.hpp:77] Creating layer upsample32_dsn6
I1118 18:17:51.226567  2691 net.cpp:100] Creating Layer upsample32_dsn6
I1118 18:17:51.226569  2691 net.cpp:434] upsample32_dsn6 <- conv5-dsn6_conv5-dsn6_0_split_0
I1118 18:17:51.226577  2691 net.cpp:408] upsample32_dsn6 -> conv5-dsn6-up
I1118 18:17:51.227749  2691 net.cpp:150] Setting up upsample32_dsn6
I1118 18:17:51.227759  2691 net.cpp:157] Top shape: 1 1 576 576 (331776)
I1118 18:17:51.227761  2691 net.cpp:165] Memory required for data: 913186380
I1118 18:17:51.227766  2691 layer_factory.hpp:77] Creating layer crop-dsn6
I1118 18:17:51.227771  2691 net.cpp:100] Creating Layer crop-dsn6
I1118 18:17:51.227773  2691 net.cpp:434] crop-dsn6 <- conv5-dsn6-up
I1118 18:17:51.227777  2691 net.cpp:434] crop-dsn6 <- data_augmentation_0_split_1
I1118 18:17:51.227783  2691 net.cpp:408] crop-dsn6 -> upscore-dsn6
I1118 18:17:51.227805  2691 net.cpp:150] Setting up crop-dsn6
I1118 18:17:51.227809  2691 net.cpp:157] Top shape: 1 1 500 500 (250000)
I1118 18:17:51.227811  2691 net.cpp:165] Memory required for data: 914186380
I1118 18:17:51.227813  2691 layer_factory.hpp:77] Creating layer loss6-score
I1118 18:17:51.227823  2691 net.cpp:100] Creating Layer loss6-score
I1118 18:17:51.227824  2691 net.cpp:434] loss6-score <- upscore-dsn6
I1118 18:17:51.227828  2691 net.cpp:434] loss6-score <- label_augmentation_1_split_0
I1118 18:17:51.227831  2691 net.cpp:408] loss6-score -> loss6-score
I1118 18:17:51.228833  2691 net.cpp:150] Setting up loss6-score
I1118 18:17:51.228844  2691 net.cpp:157] Top shape: (1)
I1118 18:17:51.228847  2691 net.cpp:160]     with loss weight 1
I1118 18:17:51.228859  2691 net.cpp:165] Memory required for data: 914186384
I1118 18:17:51.228863  2691 layer_factory.hpp:77] Creating layer upsample2_dsn5
I1118 18:17:51.228868  2691 net.cpp:100] Creating Layer upsample2_dsn5
I1118 18:17:51.228870  2691 net.cpp:434] upsample2_dsn5 <- conv5-dsn6_conv5-dsn6_0_split_1
I1118 18:17:51.228878  2691 net.cpp:408] upsample2_dsn5 -> conv5-dsn6-5
I1118 18:17:51.229070  2691 net.cpp:150] Setting up upsample2_dsn5
I1118 18:17:51.229076  2691 net.cpp:157] Top shape: 1 1 36 36 (1296)
I1118 18:17:51.229079  2691 net.cpp:165] Memory required for data: 914191568
I1118 18:17:51.229084  2691 layer_factory.hpp:77] Creating layer crop1-dsn5
I1118 18:17:51.229089  2691 net.cpp:100] Creating Layer crop1-dsn5
I1118 18:17:51.229090  2691 net.cpp:434] crop1-dsn5 <- conv5-dsn6-5
I1118 18:17:51.229094  2691 net.cpp:434] crop1-dsn5 <- conv5_3_relu5_3_0_split_1
I1118 18:17:51.229097  2691 net.cpp:408] crop1-dsn5 -> weight-dsn6-5
I1118 18:17:51.229117  2691 net.cpp:150] Setting up crop1-dsn5
I1118 18:17:51.229120  2691 net.cpp:157] Top shape: 1 1 32 32 (1024)
I1118 18:17:51.229125  2691 net.cpp:165] Memory required for data: 914195664
I1118 18:17:51.229127  2691 layer_factory.hpp:77] Creating layer weight-dsn6-5_crop1-dsn5_0_split
I1118 18:17:51.229131  2691 net.cpp:100] Creating Layer weight-dsn6-5_crop1-dsn5_0_split
I1118 18:17:51.229135  2691 net.cpp:434] weight-dsn6-5_crop1-dsn5_0_split <- weight-dsn6-5
I1118 18:17:51.229140  2691 net.cpp:408] weight-dsn6-5_crop1-dsn5_0_split -> weight-dsn6-5_crop1-dsn5_0_split_0
I1118 18:17:51.229144  2691 net.cpp:408] weight-dsn6-5_crop1-dsn5_0_split -> weight-dsn6-5_crop1-dsn5_0_split_1
I1118 18:17:51.229171  2691 net.cpp:150] Setting up weight-dsn6-5_crop1-dsn5_0_split
I1118 18:17:51.229176  2691 net.cpp:157] Top shape: 1 1 32 32 (1024)
I1118 18:17:51.229179  2691 net.cpp:157] Top shape: 1 1 32 32 (1024)
I1118 18:17:51.229182  2691 net.cpp:165] Memory required for data: 914203856
I1118 18:17:51.229183  2691 layer_factory.hpp:77] Creating layer sigmoid-dsn5
I1118 18:17:51.229187  2691 net.cpp:100] Creating Layer sigmoid-dsn5
I1118 18:17:51.229190  2691 net.cpp:434] sigmoid-dsn5 <- weight-dsn6-5_crop1-dsn5_0_split_0
I1118 18:17:51.229195  2691 net.cpp:408] sigmoid-dsn5 -> sigmoid-dsn5
I1118 18:17:51.229387  2691 net.cpp:150] Setting up sigmoid-dsn5
I1118 18:17:51.229396  2691 net.cpp:157] Top shape: 1 1 32 32 (1024)
I1118 18:17:51.229399  2691 net.cpp:165] Memory required for data: 914207952
I1118 18:17:51.229401  2691 layer_factory.hpp:77] Creating layer rev-dsn5
I1118 18:17:51.229411  2691 net.cpp:100] Creating Layer rev-dsn5
I1118 18:17:51.229413  2691 net.cpp:434] rev-dsn5 <- sigmoid-dsn5
I1118 18:17:51.229418  2691 net.cpp:408] rev-dsn5 -> rev-dsn5
I1118 18:17:51.229456  2691 net.cpp:150] Setting up rev-dsn5
I1118 18:17:51.229462  2691 net.cpp:157] Top shape: 1 1 32 32 (1024)
I1118 18:17:51.229465  2691 net.cpp:165] Memory required for data: 914212048
I1118 18:17:51.229467  2691 layer_factory.hpp:77] Creating layer tile-dsn5
I1118 18:17:51.229472  2691 net.cpp:100] Creating Layer tile-dsn5
I1118 18:17:51.229475  2691 net.cpp:434] tile-dsn5 <- rev-dsn5
I1118 18:17:51.229481  2691 net.cpp:408] tile-dsn5 -> weight-dsn5
I1118 18:17:51.229497  2691 net.cpp:150] Setting up tile-dsn5
I1118 18:17:51.229502  2691 net.cpp:157] Top shape: 1 512 32 32 (524288)
I1118 18:17:51.229506  2691 net.cpp:165] Memory required for data: 916309200
I1118 18:17:51.229507  2691 layer_factory.hpp:77] Creating layer prod1-dsn5
I1118 18:17:51.229512  2691 net.cpp:100] Creating Layer prod1-dsn5
I1118 18:17:51.229514  2691 net.cpp:434] prod1-dsn5 <- conv5_3_relu5_3_0_split_2
I1118 18:17:51.229518  2691 net.cpp:434] prod1-dsn5 <- weight-dsn5
I1118 18:17:51.229521  2691 net.cpp:408] prod1-dsn5 -> prod1-dsn5
I1118 18:17:51.229539  2691 net.cpp:150] Setting up prod1-dsn5
I1118 18:17:51.229543  2691 net.cpp:157] Top shape: 1 512 32 32 (524288)
I1118 18:17:51.229545  2691 net.cpp:165] Memory required for data: 918406352
I1118 18:17:51.229547  2691 layer_factory.hpp:77] Creating layer conv1-dsn5
I1118 18:17:51.229554  2691 net.cpp:100] Creating Layer conv1-dsn5
I1118 18:17:51.229558  2691 net.cpp:434] conv1-dsn5 <- prod1-dsn5
I1118 18:17:51.229564  2691 net.cpp:408] conv1-dsn5 -> conv1-dsn5
I1118 18:17:51.231564  2691 net.cpp:150] Setting up conv1-dsn5
I1118 18:17:51.231575  2691 net.cpp:157] Top shape: 1 64 32 32 (65536)
I1118 18:17:51.231577  2691 net.cpp:165] Memory required for data: 918668496
I1118 18:17:51.231582  2691 layer_factory.hpp:77] Creating layer conv2-dsn5
I1118 18:17:51.231591  2691 net.cpp:100] Creating Layer conv2-dsn5
I1118 18:17:51.231595  2691 net.cpp:434] conv2-dsn5 <- conv1-dsn5
I1118 18:17:51.231600  2691 net.cpp:408] conv2-dsn5 -> conv2-dsn5
I1118 18:17:51.232450  2691 net.cpp:150] Setting up conv2-dsn5
I1118 18:17:51.232460  2691 net.cpp:157] Top shape: 1 64 32 32 (65536)
I1118 18:17:51.232461  2691 net.cpp:165] Memory required for data: 918930640
I1118 18:17:51.232466  2691 layer_factory.hpp:77] Creating layer relu1-dsn5
I1118 18:17:51.232471  2691 net.cpp:100] Creating Layer relu1-dsn5
I1118 18:17:51.232473  2691 net.cpp:434] relu1-dsn5 <- conv2-dsn5
I1118 18:17:51.232481  2691 net.cpp:395] relu1-dsn5 -> conv2-dsn5 (in-place)
I1118 18:17:51.232625  2691 net.cpp:150] Setting up relu1-dsn5
I1118 18:17:51.232635  2691 net.cpp:157] Top shape: 1 64 32 32 (65536)
I1118 18:17:51.232637  2691 net.cpp:165] Memory required for data: 919192784
I1118 18:17:51.232640  2691 layer_factory.hpp:77] Creating layer conv3-dsn5
I1118 18:17:51.232650  2691 net.cpp:100] Creating Layer conv3-dsn5
I1118 18:17:51.232652  2691 net.cpp:434] conv3-dsn5 <- conv2-dsn5
I1118 18:17:51.232657  2691 net.cpp:408] conv3-dsn5 -> conv3-dsn5
I1118 18:17:51.233474  2691 net.cpp:150] Setting up conv3-dsn5
I1118 18:17:51.233484  2691 net.cpp:157] Top shape: 1 64 32 32 (65536)
I1118 18:17:51.233487  2691 net.cpp:165] Memory required for data: 919454928
I1118 18:17:51.233491  2691 layer_factory.hpp:77] Creating layer relu2-dsn5
I1118 18:17:51.233496  2691 net.cpp:100] Creating Layer relu2-dsn5
I1118 18:17:51.233498  2691 net.cpp:434] relu2-dsn5 <- conv3-dsn5
I1118 18:17:51.233505  2691 net.cpp:395] relu2-dsn5 -> conv3-dsn5 (in-place)
I1118 18:17:51.233649  2691 net.cpp:150] Setting up relu2-dsn5
I1118 18:17:51.233673  2691 net.cpp:157] Top shape: 1 64 32 32 (65536)
I1118 18:17:51.233676  2691 net.cpp:165] Memory required for data: 919717072
I1118 18:17:51.233678  2691 layer_factory.hpp:77] Creating layer conv4-dsn5
I1118 18:17:51.233696  2691 net.cpp:100] Creating Layer conv4-dsn5
I1118 18:17:51.233700  2691 net.cpp:434] conv4-dsn5 <- conv3-dsn5
I1118 18:17:51.233705  2691 net.cpp:408] conv4-dsn5 -> conv4-dsn5
I1118 18:17:51.234359  2691 net.cpp:150] Setting up conv4-dsn5
I1118 18:17:51.234369  2691 net.cpp:157] Top shape: 1 1 32 32 (1024)
I1118 18:17:51.234371  2691 net.cpp:165] Memory required for data: 919721168
I1118 18:17:51.234376  2691 layer_factory.hpp:77] Creating layer sum-dsn5
I1118 18:17:51.234383  2691 net.cpp:100] Creating Layer sum-dsn5
I1118 18:17:51.234386  2691 net.cpp:434] sum-dsn5 <- conv4-dsn5
I1118 18:17:51.234390  2691 net.cpp:434] sum-dsn5 <- weight-dsn6-5_crop1-dsn5_0_split_1
I1118 18:17:51.234393  2691 net.cpp:408] sum-dsn5 -> sum-dsn5
I1118 18:17:51.234411  2691 net.cpp:150] Setting up sum-dsn5
I1118 18:17:51.234416  2691 net.cpp:157] Top shape: 1 1 32 32 (1024)
I1118 18:17:51.234416  2691 net.cpp:165] Memory required for data: 919725264
I1118 18:17:51.234418  2691 layer_factory.hpp:77] Creating layer sum-dsn5_sum-dsn5_0_split
I1118 18:17:51.234423  2691 net.cpp:100] Creating Layer sum-dsn5_sum-dsn5_0_split
I1118 18:17:51.234426  2691 net.cpp:434] sum-dsn5_sum-dsn5_0_split <- sum-dsn5
I1118 18:17:51.234431  2691 net.cpp:408] sum-dsn5_sum-dsn5_0_split -> sum-dsn5_sum-dsn5_0_split_0
I1118 18:17:51.234436  2691 net.cpp:408] sum-dsn5_sum-dsn5_0_split -> sum-dsn5_sum-dsn5_0_split_1
I1118 18:17:51.234459  2691 net.cpp:150] Setting up sum-dsn5_sum-dsn5_0_split
I1118 18:17:51.234467  2691 net.cpp:157] Top shape: 1 1 32 32 (1024)
I1118 18:17:51.234470  2691 net.cpp:157] Top shape: 1 1 32 32 (1024)
I1118 18:17:51.234472  2691 net.cpp:165] Memory required for data: 919733456
I1118 18:17:51.234474  2691 layer_factory.hpp:77] Creating layer upsample16_dsn5
I1118 18:17:51.234478  2691 net.cpp:100] Creating Layer upsample16_dsn5
I1118 18:17:51.234481  2691 net.cpp:434] upsample16_dsn5 <- sum-dsn5_sum-dsn5_0_split_0
I1118 18:17:51.234486  2691 net.cpp:408] upsample16_dsn5 -> sum-dsn5-up
I1118 18:17:51.235613  2691 net.cpp:150] Setting up upsample16_dsn5
I1118 18:17:51.235623  2691 net.cpp:157] Top shape: 1 1 528 528 (278784)
I1118 18:17:51.235625  2691 net.cpp:165] Memory required for data: 920848592
I1118 18:17:51.235630  2691 layer_factory.hpp:77] Creating layer crop2-dsn5
I1118 18:17:51.235635  2691 net.cpp:100] Creating Layer crop2-dsn5
I1118 18:17:51.235637  2691 net.cpp:434] crop2-dsn5 <- sum-dsn5-up
I1118 18:17:51.235641  2691 net.cpp:434] crop2-dsn5 <- data_augmentation_0_split_2
I1118 18:17:51.235646  2691 net.cpp:408] crop2-dsn5 -> upscore-dsn5
I1118 18:17:51.235669  2691 net.cpp:150] Setting up crop2-dsn5
I1118 18:17:51.235673  2691 net.cpp:157] Top shape: 1 1 500 500 (250000)
I1118 18:17:51.235674  2691 net.cpp:165] Memory required for data: 921848592
I1118 18:17:51.235677  2691 layer_factory.hpp:77] Creating layer loss5-score
I1118 18:17:51.235683  2691 net.cpp:100] Creating Layer loss5-score
I1118 18:17:51.235687  2691 net.cpp:434] loss5-score <- upscore-dsn5
I1118 18:17:51.235689  2691 net.cpp:434] loss5-score <- label_augmentation_1_split_1
I1118 18:17:51.235692  2691 net.cpp:408] loss5-score -> loss5-score
I1118 18:17:51.235891  2691 net.cpp:150] Setting up loss5-score
I1118 18:17:51.235898  2691 net.cpp:157] Top shape: (1)
I1118 18:17:51.235900  2691 net.cpp:160]     with loss weight 1
I1118 18:17:51.235909  2691 net.cpp:165] Memory required for data: 921848596
I1118 18:17:51.235911  2691 layer_factory.hpp:77] Creating layer upsample2_dsn4
I1118 18:17:51.235918  2691 net.cpp:100] Creating Layer upsample2_dsn4
I1118 18:17:51.235919  2691 net.cpp:434] upsample2_dsn4 <- sum-dsn5_sum-dsn5_0_split_1
I1118 18:17:51.235925  2691 net.cpp:408] upsample2_dsn4 -> sum-dsn5-4
I1118 18:17:51.236115  2691 net.cpp:150] Setting up upsample2_dsn4
I1118 18:17:51.236125  2691 net.cpp:157] Top shape: 1 1 66 66 (4356)
I1118 18:17:51.236127  2691 net.cpp:165] Memory required for data: 921866020
I1118 18:17:51.236131  2691 layer_factory.hpp:77] Creating layer crop1-dsn4
I1118 18:17:51.236135  2691 net.cpp:100] Creating Layer crop1-dsn4
I1118 18:17:51.236137  2691 net.cpp:434] crop1-dsn4 <- sum-dsn5-4
I1118 18:17:51.236141  2691 net.cpp:434] crop1-dsn4 <- conv4_3_relu4_3_0_split_1
I1118 18:17:51.236145  2691 net.cpp:408] crop1-dsn4 -> weight-dsn5-4
I1118 18:17:51.236165  2691 net.cpp:150] Setting up crop1-dsn4
I1118 18:17:51.236171  2691 net.cpp:157] Top shape: 1 1 63 63 (3969)
I1118 18:17:51.236173  2691 net.cpp:165] Memory required for data: 921881896
I1118 18:17:51.236176  2691 layer_factory.hpp:77] Creating layer weight-dsn5-4_crop1-dsn4_0_split
I1118 18:17:51.236181  2691 net.cpp:100] Creating Layer weight-dsn5-4_crop1-dsn4_0_split
I1118 18:17:51.236184  2691 net.cpp:434] weight-dsn5-4_crop1-dsn4_0_split <- weight-dsn5-4
I1118 18:17:51.236187  2691 net.cpp:408] weight-dsn5-4_crop1-dsn4_0_split -> weight-dsn5-4_crop1-dsn4_0_split_0
I1118 18:17:51.236192  2691 net.cpp:408] weight-dsn5-4_crop1-dsn4_0_split -> weight-dsn5-4_crop1-dsn4_0_split_1
I1118 18:17:51.236218  2691 net.cpp:150] Setting up weight-dsn5-4_crop1-dsn4_0_split
I1118 18:17:51.236223  2691 net.cpp:157] Top shape: 1 1 63 63 (3969)
I1118 18:17:51.236227  2691 net.cpp:157] Top shape: 1 1 63 63 (3969)
I1118 18:17:51.236228  2691 net.cpp:165] Memory required for data: 921913648
I1118 18:17:51.236230  2691 layer_factory.hpp:77] Creating layer sigmoid-dsn4
I1118 18:17:51.236234  2691 net.cpp:100] Creating Layer sigmoid-dsn4
I1118 18:17:51.236236  2691 net.cpp:434] sigmoid-dsn4 <- weight-dsn5-4_crop1-dsn4_0_split_0
I1118 18:17:51.236255  2691 net.cpp:408] sigmoid-dsn4 -> sigmoid-dsn4
I1118 18:17:51.236351  2691 net.cpp:150] Setting up sigmoid-dsn4
I1118 18:17:51.236361  2691 net.cpp:157] Top shape: 1 1 63 63 (3969)
I1118 18:17:51.236361  2691 net.cpp:165] Memory required for data: 921929524
I1118 18:17:51.236364  2691 layer_factory.hpp:77] Creating layer rev-dsn4
I1118 18:17:51.236369  2691 net.cpp:100] Creating Layer rev-dsn4
I1118 18:17:51.236371  2691 net.cpp:434] rev-dsn4 <- sigmoid-dsn4
I1118 18:17:51.236376  2691 net.cpp:408] rev-dsn4 -> rev-dsn4
I1118 18:17:51.236392  2691 net.cpp:150] Setting up rev-dsn4
I1118 18:17:51.236395  2691 net.cpp:157] Top shape: 1 1 63 63 (3969)
I1118 18:17:51.236397  2691 net.cpp:165] Memory required for data: 921945400
I1118 18:17:51.236409  2691 layer_factory.hpp:77] Creating layer tile-dsn4
I1118 18:17:51.236415  2691 net.cpp:100] Creating Layer tile-dsn4
I1118 18:17:51.236418  2691 net.cpp:434] tile-dsn4 <- rev-dsn4
I1118 18:17:51.236421  2691 net.cpp:408] tile-dsn4 -> weight-dsn4
I1118 18:17:51.236454  2691 net.cpp:150] Setting up tile-dsn4
I1118 18:17:51.236459  2691 net.cpp:157] Top shape: 1 512 63 63 (2032128)
I1118 18:17:51.236460  2691 net.cpp:165] Memory required for data: 930073912
I1118 18:17:51.236464  2691 layer_factory.hpp:77] Creating layer prod1-dsn4
I1118 18:17:51.236467  2691 net.cpp:100] Creating Layer prod1-dsn4
I1118 18:17:51.236469  2691 net.cpp:434] prod1-dsn4 <- conv4_3_relu4_3_0_split_2
I1118 18:17:51.236474  2691 net.cpp:434] prod1-dsn4 <- weight-dsn4
I1118 18:17:51.236479  2691 net.cpp:408] prod1-dsn4 -> prod1-dsn4
I1118 18:17:51.236495  2691 net.cpp:150] Setting up prod1-dsn4
I1118 18:17:51.236498  2691 net.cpp:157] Top shape: 1 512 63 63 (2032128)
I1118 18:17:51.236500  2691 net.cpp:165] Memory required for data: 938202424
I1118 18:17:51.236503  2691 layer_factory.hpp:77] Creating layer conv1-dsn4
I1118 18:17:51.236510  2691 net.cpp:100] Creating Layer conv1-dsn4
I1118 18:17:51.236513  2691 net.cpp:434] conv1-dsn4 <- prod1-dsn4
I1118 18:17:51.236519  2691 net.cpp:408] conv1-dsn4 -> conv1-dsn4
I1118 18:17:51.238376  2691 net.cpp:150] Setting up conv1-dsn4
I1118 18:17:51.238387  2691 net.cpp:157] Top shape: 1 64 63 63 (254016)
I1118 18:17:51.238389  2691 net.cpp:165] Memory required for data: 939218488
I1118 18:17:51.238395  2691 layer_factory.hpp:77] Creating layer conv2-dsn4
I1118 18:17:51.238405  2691 net.cpp:100] Creating Layer conv2-dsn4
I1118 18:17:51.238409  2691 net.cpp:434] conv2-dsn4 <- conv1-dsn4
I1118 18:17:51.238412  2691 net.cpp:408] conv2-dsn4 -> conv2-dsn4
I1118 18:17:51.239153  2691 net.cpp:150] Setting up conv2-dsn4
I1118 18:17:51.239163  2691 net.cpp:157] Top shape: 1 64 63 63 (254016)
I1118 18:17:51.239166  2691 net.cpp:165] Memory required for data: 940234552
I1118 18:17:51.239171  2691 layer_factory.hpp:77] Creating layer relu1-dsn4
I1118 18:17:51.239174  2691 net.cpp:100] Creating Layer relu1-dsn4
I1118 18:17:51.239177  2691 net.cpp:434] relu1-dsn4 <- conv2-dsn4
I1118 18:17:51.239181  2691 net.cpp:395] relu1-dsn4 -> conv2-dsn4 (in-place)
I1118 18:17:51.239332  2691 net.cpp:150] Setting up relu1-dsn4
I1118 18:17:51.239342  2691 net.cpp:157] Top shape: 1 64 63 63 (254016)
I1118 18:17:51.239351  2691 net.cpp:165] Memory required for data: 941250616
I1118 18:17:51.239354  2691 layer_factory.hpp:77] Creating layer conv3-dsn4
I1118 18:17:51.239362  2691 net.cpp:100] Creating Layer conv3-dsn4
I1118 18:17:51.239365  2691 net.cpp:434] conv3-dsn4 <- conv2-dsn4
I1118 18:17:51.239372  2691 net.cpp:408] conv3-dsn4 -> conv3-dsn4
I1118 18:17:51.240284  2691 net.cpp:150] Setting up conv3-dsn4
I1118 18:17:51.240294  2691 net.cpp:157] Top shape: 1 64 63 63 (254016)
I1118 18:17:51.240298  2691 net.cpp:165] Memory required for data: 942266680
I1118 18:17:51.240306  2691 layer_factory.hpp:77] Creating layer relu2-dsn4
I1118 18:17:51.240310  2691 net.cpp:100] Creating Layer relu2-dsn4
I1118 18:17:51.240314  2691 net.cpp:434] relu2-dsn4 <- conv3-dsn4
I1118 18:17:51.240319  2691 net.cpp:395] relu2-dsn4 -> conv3-dsn4 (in-place)
I1118 18:17:51.240391  2691 net.cpp:150] Setting up relu2-dsn4
I1118 18:17:51.240399  2691 net.cpp:157] Top shape: 1 64 63 63 (254016)
I1118 18:17:51.240401  2691 net.cpp:165] Memory required for data: 943282744
I1118 18:17:51.240403  2691 layer_factory.hpp:77] Creating layer conv4-dsn4
I1118 18:17:51.240411  2691 net.cpp:100] Creating Layer conv4-dsn4
I1118 18:17:51.240413  2691 net.cpp:434] conv4-dsn4 <- conv3-dsn4
I1118 18:17:51.240418  2691 net.cpp:408] conv4-dsn4 -> conv4-dsn4
I1118 18:17:51.240995  2691 net.cpp:150] Setting up conv4-dsn4
I1118 18:17:51.241005  2691 net.cpp:157] Top shape: 1 1 63 63 (3969)
I1118 18:17:51.241008  2691 net.cpp:165] Memory required for data: 943298620
I1118 18:17:51.241011  2691 layer_factory.hpp:77] Creating layer sum-dsn4
I1118 18:17:51.241016  2691 net.cpp:100] Creating Layer sum-dsn4
I1118 18:17:51.241019  2691 net.cpp:434] sum-dsn4 <- conv4-dsn4
I1118 18:17:51.241024  2691 net.cpp:434] sum-dsn4 <- weight-dsn5-4_crop1-dsn4_0_split_1
I1118 18:17:51.241029  2691 net.cpp:408] sum-dsn4 -> sum-dsn4
I1118 18:17:51.241047  2691 net.cpp:150] Setting up sum-dsn4
I1118 18:17:51.241050  2691 net.cpp:157] Top shape: 1 1 63 63 (3969)
I1118 18:17:51.241052  2691 net.cpp:165] Memory required for data: 943314496
I1118 18:17:51.241055  2691 layer_factory.hpp:77] Creating layer sum-dsn4_sum-dsn4_0_split
I1118 18:17:51.241060  2691 net.cpp:100] Creating Layer sum-dsn4_sum-dsn4_0_split
I1118 18:17:51.241062  2691 net.cpp:434] sum-dsn4_sum-dsn4_0_split <- sum-dsn4
I1118 18:17:51.241067  2691 net.cpp:408] sum-dsn4_sum-dsn4_0_split -> sum-dsn4_sum-dsn4_0_split_0
I1118 18:17:51.241072  2691 net.cpp:408] sum-dsn4_sum-dsn4_0_split -> sum-dsn4_sum-dsn4_0_split_1
I1118 18:17:51.241102  2691 net.cpp:150] Setting up sum-dsn4_sum-dsn4_0_split
I1118 18:17:51.241108  2691 net.cpp:157] Top shape: 1 1 63 63 (3969)
I1118 18:17:51.241111  2691 net.cpp:157] Top shape: 1 1 63 63 (3969)
I1118 18:17:51.241113  2691 net.cpp:165] Memory required for data: 943346248
I1118 18:17:51.241116  2691 layer_factory.hpp:77] Creating layer upsample8_dsn4
I1118 18:17:51.241120  2691 net.cpp:100] Creating Layer upsample8_dsn4
I1118 18:17:51.241123  2691 net.cpp:434] upsample8_dsn4 <- sum-dsn4_sum-dsn4_0_split_0
I1118 18:17:51.241128  2691 net.cpp:408] upsample8_dsn4 -> sum-dsn4-up
I1118 18:17:51.242238  2691 net.cpp:150] Setting up upsample8_dsn4
I1118 18:17:51.242249  2691 net.cpp:157] Top shape: 1 1 512 512 (262144)
I1118 18:17:51.242250  2691 net.cpp:165] Memory required for data: 944394824
I1118 18:17:51.242255  2691 layer_factory.hpp:77] Creating layer crop2-dsn4
I1118 18:17:51.242259  2691 net.cpp:100] Creating Layer crop2-dsn4
I1118 18:17:51.242262  2691 net.cpp:434] crop2-dsn4 <- sum-dsn4-up
I1118 18:17:51.242265  2691 net.cpp:434] crop2-dsn4 <- data_augmentation_0_split_3
I1118 18:17:51.242271  2691 net.cpp:408] crop2-dsn4 -> upscore-dsn4
I1118 18:17:51.242293  2691 net.cpp:150] Setting up crop2-dsn4
I1118 18:17:51.242302  2691 net.cpp:157] Top shape: 1 1 500 500 (250000)
I1118 18:17:51.242305  2691 net.cpp:165] Memory required for data: 945394824
I1118 18:17:51.242306  2691 layer_factory.hpp:77] Creating layer loss4-score
I1118 18:17:51.242326  2691 net.cpp:100] Creating Layer loss4-score
I1118 18:17:51.242329  2691 net.cpp:434] loss4-score <- upscore-dsn4
I1118 18:17:51.242332  2691 net.cpp:434] loss4-score <- label_augmentation_1_split_2
I1118 18:17:51.242337  2691 net.cpp:408] loss4-score -> loss4-score
I1118 18:17:51.242539  2691 net.cpp:150] Setting up loss4-score
I1118 18:17:51.242547  2691 net.cpp:157] Top shape: (1)
I1118 18:17:51.242548  2691 net.cpp:160]     with loss weight 1
I1118 18:17:51.242553  2691 net.cpp:165] Memory required for data: 945394828
I1118 18:17:51.242556  2691 layer_factory.hpp:77] Creating layer upsample2_dsn3
I1118 18:17:51.242568  2691 net.cpp:100] Creating Layer upsample2_dsn3
I1118 18:17:51.242571  2691 net.cpp:434] upsample2_dsn3 <- sum-dsn4_sum-dsn4_0_split_1
I1118 18:17:51.242576  2691 net.cpp:408] upsample2_dsn3 -> sum-dsn4-3
I1118 18:17:51.242794  2691 net.cpp:150] Setting up upsample2_dsn3
I1118 18:17:51.242801  2691 net.cpp:157] Top shape: 1 1 128 128 (16384)
I1118 18:17:51.242803  2691 net.cpp:165] Memory required for data: 945460364
I1118 18:17:51.242808  2691 layer_factory.hpp:77] Creating layer crop1-dsn3
I1118 18:17:51.242812  2691 net.cpp:100] Creating Layer crop1-dsn3
I1118 18:17:51.242815  2691 net.cpp:434] crop1-dsn3 <- sum-dsn4-3
I1118 18:17:51.242818  2691 net.cpp:434] crop1-dsn3 <- conv3_3_relu3_3_0_split_1
I1118 18:17:51.242821  2691 net.cpp:408] crop1-dsn3 -> weight-dsn4-3
I1118 18:17:51.242836  2691 net.cpp:150] Setting up crop1-dsn3
I1118 18:17:51.242841  2691 net.cpp:157] Top shape: 1 1 125 125 (15625)
I1118 18:17:51.242841  2691 net.cpp:165] Memory required for data: 945522864
I1118 18:17:51.242844  2691 layer_factory.hpp:77] Creating layer weight-dsn4-3_crop1-dsn3_0_split
I1118 18:17:51.242851  2691 net.cpp:100] Creating Layer weight-dsn4-3_crop1-dsn3_0_split
I1118 18:17:51.242852  2691 net.cpp:434] weight-dsn4-3_crop1-dsn3_0_split <- weight-dsn4-3
I1118 18:17:51.242856  2691 net.cpp:408] weight-dsn4-3_crop1-dsn3_0_split -> weight-dsn4-3_crop1-dsn3_0_split_0
I1118 18:17:51.242862  2691 net.cpp:408] weight-dsn4-3_crop1-dsn3_0_split -> weight-dsn4-3_crop1-dsn3_0_split_1
I1118 18:17:51.242898  2691 net.cpp:150] Setting up weight-dsn4-3_crop1-dsn3_0_split
I1118 18:17:51.242904  2691 net.cpp:157] Top shape: 1 1 125 125 (15625)
I1118 18:17:51.242907  2691 net.cpp:157] Top shape: 1 1 125 125 (15625)
I1118 18:17:51.242908  2691 net.cpp:165] Memory required for data: 945647864
I1118 18:17:51.242911  2691 layer_factory.hpp:77] Creating layer sigmoid-dsn3
I1118 18:17:51.242918  2691 net.cpp:100] Creating Layer sigmoid-dsn3
I1118 18:17:51.242919  2691 net.cpp:434] sigmoid-dsn3 <- weight-dsn4-3_crop1-dsn3_0_split_0
I1118 18:17:51.242923  2691 net.cpp:408] sigmoid-dsn3 -> sigmoid-dsn3
I1118 18:17:51.243003  2691 net.cpp:150] Setting up sigmoid-dsn3
I1118 18:17:51.243010  2691 net.cpp:157] Top shape: 1 1 125 125 (15625)
I1118 18:17:51.243012  2691 net.cpp:165] Memory required for data: 945710364
I1118 18:17:51.243016  2691 layer_factory.hpp:77] Creating layer rev-dsn3
I1118 18:17:51.243019  2691 net.cpp:100] Creating Layer rev-dsn3
I1118 18:17:51.243022  2691 net.cpp:434] rev-dsn3 <- sigmoid-dsn3
I1118 18:17:51.243028  2691 net.cpp:408] rev-dsn3 -> rev-dsn3
I1118 18:17:51.243044  2691 net.cpp:150] Setting up rev-dsn3
I1118 18:17:51.243048  2691 net.cpp:157] Top shape: 1 1 125 125 (15625)
I1118 18:17:51.243050  2691 net.cpp:165] Memory required for data: 945772864
I1118 18:17:51.243053  2691 layer_factory.hpp:77] Creating layer tile-dsn3
I1118 18:17:51.243057  2691 net.cpp:100] Creating Layer tile-dsn3
I1118 18:17:51.243059  2691 net.cpp:434] tile-dsn3 <- rev-dsn3
I1118 18:17:51.243062  2691 net.cpp:408] tile-dsn3 -> weight-dsn3
I1118 18:17:51.243078  2691 net.cpp:150] Setting up tile-dsn3
I1118 18:17:51.243083  2691 net.cpp:157] Top shape: 1 256 125 125 (4000000)
I1118 18:17:51.243084  2691 net.cpp:165] Memory required for data: 961772864
I1118 18:17:51.243086  2691 layer_factory.hpp:77] Creating layer prod1-dsn3
I1118 18:17:51.243094  2691 net.cpp:100] Creating Layer prod1-dsn3
I1118 18:17:51.243096  2691 net.cpp:434] prod1-dsn3 <- conv3_3_relu3_3_0_split_2
I1118 18:17:51.243110  2691 net.cpp:434] prod1-dsn3 <- weight-dsn3
I1118 18:17:51.243114  2691 net.cpp:408] prod1-dsn3 -> prod1-dsn3
I1118 18:17:51.243134  2691 net.cpp:150] Setting up prod1-dsn3
I1118 18:17:51.243136  2691 net.cpp:157] Top shape: 1 256 125 125 (4000000)
I1118 18:17:51.243139  2691 net.cpp:165] Memory required for data: 977772864
I1118 18:17:51.243144  2691 layer_factory.hpp:77] Creating layer conv1-dsn3
I1118 18:17:51.243151  2691 net.cpp:100] Creating Layer conv1-dsn3
I1118 18:17:51.243155  2691 net.cpp:434] conv1-dsn3 <- prod1-dsn3
I1118 18:17:51.243160  2691 net.cpp:408] conv1-dsn3 -> conv1-dsn3
I1118 18:17:51.244863  2691 net.cpp:150] Setting up conv1-dsn3
I1118 18:17:51.244874  2691 net.cpp:157] Top shape: 1 64 125 125 (1000000)
I1118 18:17:51.244876  2691 net.cpp:165] Memory required for data: 981772864
I1118 18:17:51.244895  2691 layer_factory.hpp:77] Creating layer conv2-dsn3
I1118 18:17:51.244902  2691 net.cpp:100] Creating Layer conv2-dsn3
I1118 18:17:51.244905  2691 net.cpp:434] conv2-dsn3 <- conv1-dsn3
I1118 18:17:51.244911  2691 net.cpp:408] conv2-dsn3 -> conv2-dsn3
I1118 18:17:51.245792  2691 net.cpp:150] Setting up conv2-dsn3
I1118 18:17:51.245802  2691 net.cpp:157] Top shape: 1 64 125 125 (1000000)
I1118 18:17:51.245805  2691 net.cpp:165] Memory required for data: 985772864
I1118 18:17:51.245810  2691 layer_factory.hpp:77] Creating layer relu1-dsn3
I1118 18:17:51.245815  2691 net.cpp:100] Creating Layer relu1-dsn3
I1118 18:17:51.245817  2691 net.cpp:434] relu1-dsn3 <- conv2-dsn3
I1118 18:17:51.245823  2691 net.cpp:395] relu1-dsn3 -> conv2-dsn3 (in-place)
I1118 18:17:51.245890  2691 net.cpp:150] Setting up relu1-dsn3
I1118 18:17:51.245898  2691 net.cpp:157] Top shape: 1 64 125 125 (1000000)
I1118 18:17:51.245899  2691 net.cpp:165] Memory required for data: 989772864
I1118 18:17:51.245903  2691 layer_factory.hpp:77] Creating layer conv3-dsn3
I1118 18:17:51.245910  2691 net.cpp:100] Creating Layer conv3-dsn3
I1118 18:17:51.245913  2691 net.cpp:434] conv3-dsn3 <- conv2-dsn3
I1118 18:17:51.245918  2691 net.cpp:408] conv3-dsn3 -> conv3-dsn3
I1118 18:17:51.246841  2691 net.cpp:150] Setting up conv3-dsn3
I1118 18:17:51.246852  2691 net.cpp:157] Top shape: 1 64 125 125 (1000000)
I1118 18:17:51.246855  2691 net.cpp:165] Memory required for data: 993772864
I1118 18:17:51.246860  2691 layer_factory.hpp:77] Creating layer relu2-dsn3
I1118 18:17:51.246865  2691 net.cpp:100] Creating Layer relu2-dsn3
I1118 18:17:51.246867  2691 net.cpp:434] relu2-dsn3 <- conv3-dsn3
I1118 18:17:51.246871  2691 net.cpp:395] relu2-dsn3 -> conv3-dsn3 (in-place)
I1118 18:17:51.246942  2691 net.cpp:150] Setting up relu2-dsn3
I1118 18:17:51.246948  2691 net.cpp:157] Top shape: 1 64 125 125 (1000000)
I1118 18:17:51.246950  2691 net.cpp:165] Memory required for data: 997772864
I1118 18:17:51.246953  2691 layer_factory.hpp:77] Creating layer conv4-dsn3
I1118 18:17:51.246960  2691 net.cpp:100] Creating Layer conv4-dsn3
I1118 18:17:51.246963  2691 net.cpp:434] conv4-dsn3 <- conv3-dsn3
I1118 18:17:51.246969  2691 net.cpp:408] conv4-dsn3 -> conv4-dsn3
I1118 18:17:51.247570  2691 net.cpp:150] Setting up conv4-dsn3
I1118 18:17:51.247579  2691 net.cpp:157] Top shape: 1 1 125 125 (15625)
I1118 18:17:51.247581  2691 net.cpp:165] Memory required for data: 997835364
I1118 18:17:51.247586  2691 layer_factory.hpp:77] Creating layer sum-dsn3
I1118 18:17:51.247593  2691 net.cpp:100] Creating Layer sum-dsn3
I1118 18:17:51.247596  2691 net.cpp:434] sum-dsn3 <- conv4-dsn3
I1118 18:17:51.247599  2691 net.cpp:434] sum-dsn3 <- weight-dsn4-3_crop1-dsn3_0_split_1
I1118 18:17:51.247603  2691 net.cpp:408] sum-dsn3 -> sum-dsn3
I1118 18:17:51.247624  2691 net.cpp:150] Setting up sum-dsn3
I1118 18:17:51.247628  2691 net.cpp:157] Top shape: 1 1 125 125 (15625)
I1118 18:17:51.247630  2691 net.cpp:165] Memory required for data: 997897864
I1118 18:17:51.247632  2691 layer_factory.hpp:77] Creating layer sum-dsn3_sum-dsn3_0_split
I1118 18:17:51.247637  2691 net.cpp:100] Creating Layer sum-dsn3_sum-dsn3_0_split
I1118 18:17:51.247638  2691 net.cpp:434] sum-dsn3_sum-dsn3_0_split <- sum-dsn3
I1118 18:17:51.247648  2691 net.cpp:408] sum-dsn3_sum-dsn3_0_split -> sum-dsn3_sum-dsn3_0_split_0
I1118 18:17:51.247653  2691 net.cpp:408] sum-dsn3_sum-dsn3_0_split -> sum-dsn3_sum-dsn3_0_split_1
I1118 18:17:51.247679  2691 net.cpp:150] Setting up sum-dsn3_sum-dsn3_0_split
I1118 18:17:51.247684  2691 net.cpp:157] Top shape: 1 1 125 125 (15625)
I1118 18:17:51.247686  2691 net.cpp:157] Top shape: 1 1 125 125 (15625)
I1118 18:17:51.247689  2691 net.cpp:165] Memory required for data: 998022864
I1118 18:17:51.247690  2691 layer_factory.hpp:77] Creating layer upsample4_dsn3
I1118 18:17:51.247697  2691 net.cpp:100] Creating Layer upsample4_dsn3
I1118 18:17:51.247699  2691 net.cpp:434] upsample4_dsn3 <- sum-dsn3_sum-dsn3_0_split_0
I1118 18:17:51.247702  2691 net.cpp:408] upsample4_dsn3 -> sum-dsn3-up
I1118 18:17:51.248781  2691 net.cpp:150] Setting up upsample4_dsn3
I1118 18:17:51.248792  2691 net.cpp:157] Top shape: 1 1 504 504 (254016)
I1118 18:17:51.248795  2691 net.cpp:165] Memory required for data: 999038928
I1118 18:17:51.248800  2691 layer_factory.hpp:77] Creating layer crop2-dsn3
I1118 18:17:51.248805  2691 net.cpp:100] Creating Layer crop2-dsn3
I1118 18:17:51.248807  2691 net.cpp:434] crop2-dsn3 <- sum-dsn3-up
I1118 18:17:51.248811  2691 net.cpp:434] crop2-dsn3 <- data_augmentation_0_split_4
I1118 18:17:51.248814  2691 net.cpp:408] crop2-dsn3 -> upscore-dsn3
I1118 18:17:51.248838  2691 net.cpp:150] Setting up crop2-dsn3
I1118 18:17:51.248842  2691 net.cpp:157] Top shape: 1 1 500 500 (250000)
I1118 18:17:51.248843  2691 net.cpp:165] Memory required for data: 1000038928
I1118 18:17:51.248845  2691 layer_factory.hpp:77] Creating layer loss3-score
I1118 18:17:51.248854  2691 net.cpp:100] Creating Layer loss3-score
I1118 18:17:51.248857  2691 net.cpp:434] loss3-score <- upscore-dsn3
I1118 18:17:51.248860  2691 net.cpp:434] loss3-score <- label_augmentation_1_split_3
I1118 18:17:51.248863  2691 net.cpp:408] loss3-score -> loss3-score
I1118 18:17:51.249061  2691 net.cpp:150] Setting up loss3-score
I1118 18:17:51.249068  2691 net.cpp:157] Top shape: (1)
I1118 18:17:51.249069  2691 net.cpp:160]     with loss weight 1
I1118 18:17:51.249074  2691 net.cpp:165] Memory required for data: 1000038932
I1118 18:17:51.249078  2691 layer_factory.hpp:77] Creating layer upsample2_1-dsn2
I1118 18:17:51.249084  2691 net.cpp:100] Creating Layer upsample2_1-dsn2
I1118 18:17:51.249087  2691 net.cpp:434] upsample2_1-dsn2 <- sum-dsn3_sum-dsn3_0_split_1
I1118 18:17:51.249091  2691 net.cpp:408] upsample2_1-dsn2 -> sum-dsn3-2
I1118 18:17:51.249317  2691 net.cpp:150] Setting up upsample2_1-dsn2
I1118 18:17:51.249325  2691 net.cpp:157] Top shape: 1 1 252 252 (63504)
I1118 18:17:51.249326  2691 net.cpp:165] Memory required for data: 1000292948
I1118 18:17:51.249330  2691 layer_factory.hpp:77] Creating layer crop1-dsn2
I1118 18:17:51.249336  2691 net.cpp:100] Creating Layer crop1-dsn2
I1118 18:17:51.249337  2691 net.cpp:434] crop1-dsn2 <- sum-dsn3-2
I1118 18:17:51.249341  2691 net.cpp:434] crop1-dsn2 <- conv2_2_relu2_2_0_split_1
I1118 18:17:51.249346  2691 net.cpp:408] crop1-dsn2 -> weight-dsn3-2
I1118 18:17:51.249368  2691 net.cpp:150] Setting up crop1-dsn2
I1118 18:17:51.249373  2691 net.cpp:157] Top shape: 1 1 250 250 (62500)
I1118 18:17:51.249375  2691 net.cpp:165] Memory required for data: 1000542948
I1118 18:17:51.249377  2691 layer_factory.hpp:77] Creating layer weight-dsn3-2_crop1-dsn2_0_split
I1118 18:17:51.249384  2691 net.cpp:100] Creating Layer weight-dsn3-2_crop1-dsn2_0_split
I1118 18:17:51.249387  2691 net.cpp:434] weight-dsn3-2_crop1-dsn2_0_split <- weight-dsn3-2
I1118 18:17:51.249390  2691 net.cpp:408] weight-dsn3-2_crop1-dsn2_0_split -> weight-dsn3-2_crop1-dsn2_0_split_0
I1118 18:17:51.249397  2691 net.cpp:408] weight-dsn3-2_crop1-dsn2_0_split -> weight-dsn3-2_crop1-dsn2_0_split_1
I1118 18:17:51.249423  2691 net.cpp:150] Setting up weight-dsn3-2_crop1-dsn2_0_split
I1118 18:17:51.249428  2691 net.cpp:157] Top shape: 1 1 250 250 (62500)
I1118 18:17:51.249439  2691 net.cpp:157] Top shape: 1 1 250 250 (62500)
I1118 18:17:51.249440  2691 net.cpp:165] Memory required for data: 1001042948
I1118 18:17:51.249442  2691 layer_factory.hpp:77] Creating layer sigmoid-dsn2
I1118 18:17:51.249447  2691 net.cpp:100] Creating Layer sigmoid-dsn2
I1118 18:17:51.249451  2691 net.cpp:434] sigmoid-dsn2 <- weight-dsn3-2_crop1-dsn2_0_split_0
I1118 18:17:51.249455  2691 net.cpp:408] sigmoid-dsn2 -> sigmoid-dsn2
I1118 18:17:51.250694  2691 net.cpp:150] Setting up sigmoid-dsn2
I1118 18:17:51.250705  2691 net.cpp:157] Top shape: 1 1 250 250 (62500)
I1118 18:17:51.250706  2691 net.cpp:165] Memory required for data: 1001292948
I1118 18:17:51.250710  2691 layer_factory.hpp:77] Creating layer rev-dsn2
I1118 18:17:51.250715  2691 net.cpp:100] Creating Layer rev-dsn2
I1118 18:17:51.250716  2691 net.cpp:434] rev-dsn2 <- sigmoid-dsn2
I1118 18:17:51.250721  2691 net.cpp:408] rev-dsn2 -> rev-dsn2
I1118 18:17:51.250741  2691 net.cpp:150] Setting up rev-dsn2
I1118 18:17:51.250744  2691 net.cpp:157] Top shape: 1 1 250 250 (62500)
I1118 18:17:51.250746  2691 net.cpp:165] Memory required for data: 1001542948
I1118 18:17:51.250747  2691 layer_factory.hpp:77] Creating layer tile-dsn2
I1118 18:17:51.250751  2691 net.cpp:100] Creating Layer tile-dsn2
I1118 18:17:51.250754  2691 net.cpp:434] tile-dsn2 <- rev-dsn2
I1118 18:17:51.250757  2691 net.cpp:408] tile-dsn2 -> weight-dsn2
I1118 18:17:51.250777  2691 net.cpp:150] Setting up tile-dsn2
I1118 18:17:51.250780  2691 net.cpp:157] Top shape: 1 128 250 250 (8000000)
I1118 18:17:51.250782  2691 net.cpp:165] Memory required for data: 1033542948
I1118 18:17:51.250784  2691 layer_factory.hpp:77] Creating layer prod1-dsn2
I1118 18:17:51.250788  2691 net.cpp:100] Creating Layer prod1-dsn2
I1118 18:17:51.250790  2691 net.cpp:434] prod1-dsn2 <- conv2_2_relu2_2_0_split_2
I1118 18:17:51.250794  2691 net.cpp:434] prod1-dsn2 <- weight-dsn2
I1118 18:17:51.250797  2691 net.cpp:408] prod1-dsn2 -> prod1-dsn2
I1118 18:17:51.250814  2691 net.cpp:150] Setting up prod1-dsn2
I1118 18:17:51.250818  2691 net.cpp:157] Top shape: 1 128 250 250 (8000000)
I1118 18:17:51.250820  2691 net.cpp:165] Memory required for data: 1065542948
I1118 18:17:51.250823  2691 layer_factory.hpp:77] Creating layer conv1-dsn2
I1118 18:17:51.250828  2691 net.cpp:100] Creating Layer conv1-dsn2
I1118 18:17:51.250829  2691 net.cpp:434] conv1-dsn2 <- prod1-dsn2
I1118 18:17:51.250833  2691 net.cpp:408] conv1-dsn2 -> conv1-dsn2
I1118 18:17:51.251535  2691 net.cpp:150] Setting up conv1-dsn2
I1118 18:17:51.251546  2691 net.cpp:157] Top shape: 1 64 250 250 (4000000)
I1118 18:17:51.251549  2691 net.cpp:165] Memory required for data: 1081542948
I1118 18:17:51.251554  2691 layer_factory.hpp:77] Creating layer conv2-dsn2
I1118 18:17:51.251561  2691 net.cpp:100] Creating Layer conv2-dsn2
I1118 18:17:51.251564  2691 net.cpp:434] conv2-dsn2 <- conv1-dsn2
I1118 18:17:51.251570  2691 net.cpp:408] conv2-dsn2 -> conv2-dsn2
I1118 18:17:51.253237  2691 net.cpp:150] Setting up conv2-dsn2
I1118 18:17:51.253249  2691 net.cpp:157] Top shape: 1 64 250 250 (4000000)
I1118 18:17:51.253252  2691 net.cpp:165] Memory required for data: 1097542948
I1118 18:17:51.253257  2691 layer_factory.hpp:77] Creating layer relu1-dsn2
I1118 18:17:51.253262  2691 net.cpp:100] Creating Layer relu1-dsn2
I1118 18:17:51.253263  2691 net.cpp:434] relu1-dsn2 <- conv2-dsn2
I1118 18:17:51.253268  2691 net.cpp:395] relu1-dsn2 -> conv2-dsn2 (in-place)
I1118 18:17:51.253356  2691 net.cpp:150] Setting up relu1-dsn2
I1118 18:17:51.253368  2691 net.cpp:157] Top shape: 1 64 250 250 (4000000)
I1118 18:17:51.253371  2691 net.cpp:165] Memory required for data: 1113542948
I1118 18:17:51.253373  2691 layer_factory.hpp:77] Creating layer conv3-dsn2
I1118 18:17:51.253381  2691 net.cpp:100] Creating Layer conv3-dsn2
I1118 18:17:51.253382  2691 net.cpp:434] conv3-dsn2 <- conv2-dsn2
I1118 18:17:51.253391  2691 net.cpp:408] conv3-dsn2 -> conv3-dsn2
I1118 18:17:51.254392  2691 net.cpp:150] Setting up conv3-dsn2
I1118 18:17:51.254403  2691 net.cpp:157] Top shape: 1 64 250 250 (4000000)
I1118 18:17:51.254405  2691 net.cpp:165] Memory required for data: 1129542948
I1118 18:17:51.254410  2691 layer_factory.hpp:77] Creating layer relu2-dsn2
I1118 18:17:51.254415  2691 net.cpp:100] Creating Layer relu2-dsn2
I1118 18:17:51.254417  2691 net.cpp:434] relu2-dsn2 <- conv3-dsn2
I1118 18:17:51.254426  2691 net.cpp:395] relu2-dsn2 -> conv3-dsn2 (in-place)
I1118 18:17:51.254568  2691 net.cpp:150] Setting up relu2-dsn2
I1118 18:17:51.254592  2691 net.cpp:157] Top shape: 1 64 250 250 (4000000)
I1118 18:17:51.254595  2691 net.cpp:165] Memory required for data: 1145542948
I1118 18:17:51.254597  2691 layer_factory.hpp:77] Creating layer conv4-dsn2
I1118 18:17:51.254607  2691 net.cpp:100] Creating Layer conv4-dsn2
I1118 18:17:51.254611  2691 net.cpp:434] conv4-dsn2 <- conv3-dsn2
I1118 18:17:51.254616  2691 net.cpp:408] conv4-dsn2 -> conv4-dsn2
I1118 18:17:51.255151  2691 net.cpp:150] Setting up conv4-dsn2
I1118 18:17:51.255161  2691 net.cpp:157] Top shape: 1 1 250 250 (62500)
I1118 18:17:51.255177  2691 net.cpp:165] Memory required for data: 1145792948
I1118 18:17:51.255182  2691 layer_factory.hpp:77] Creating layer sum-dsn2
I1118 18:17:51.255203  2691 net.cpp:100] Creating Layer sum-dsn2
I1118 18:17:51.255204  2691 net.cpp:434] sum-dsn2 <- conv4-dsn2
I1118 18:17:51.255208  2691 net.cpp:434] sum-dsn2 <- weight-dsn3-2_crop1-dsn2_0_split_1
I1118 18:17:51.255213  2691 net.cpp:408] sum-dsn2 -> sum-dsn2
I1118 18:17:51.255235  2691 net.cpp:150] Setting up sum-dsn2
I1118 18:17:51.255239  2691 net.cpp:157] Top shape: 1 1 250 250 (62500)
I1118 18:17:51.255240  2691 net.cpp:165] Memory required for data: 1146042948
I1118 18:17:51.255242  2691 layer_factory.hpp:77] Creating layer upsample2_2-dsn2
I1118 18:17:51.255249  2691 net.cpp:100] Creating Layer upsample2_2-dsn2
I1118 18:17:51.255251  2691 net.cpp:434] upsample2_2-dsn2 <- sum-dsn2
I1118 18:17:51.255255  2691 net.cpp:408] upsample2_2-dsn2 -> sum-dsn2-up
I1118 18:17:51.255604  2691 net.cpp:150] Setting up upsample2_2-dsn2
I1118 18:17:51.255610  2691 net.cpp:157] Top shape: 1 1 502 502 (252004)
I1118 18:17:51.255612  2691 net.cpp:165] Memory required for data: 1147050964
I1118 18:17:51.255632  2691 layer_factory.hpp:77] Creating layer crop2-dsn2
I1118 18:17:51.255636  2691 net.cpp:100] Creating Layer crop2-dsn2
I1118 18:17:51.255640  2691 net.cpp:434] crop2-dsn2 <- sum-dsn2-up
I1118 18:17:51.255643  2691 net.cpp:434] crop2-dsn2 <- data_augmentation_0_split_5
I1118 18:17:51.255646  2691 net.cpp:408] crop2-dsn2 -> upscore-dsn2
I1118 18:17:51.255668  2691 net.cpp:150] Setting up crop2-dsn2
I1118 18:17:51.255672  2691 net.cpp:157] Top shape: 1 1 500 500 (250000)
I1118 18:17:51.255673  2691 net.cpp:165] Memory required for data: 1148050964
I1118 18:17:51.255676  2691 layer_factory.hpp:77] Creating layer upscore-dsn2_crop2-dsn2_0_split
I1118 18:17:51.255681  2691 net.cpp:100] Creating Layer upscore-dsn2_crop2-dsn2_0_split
I1118 18:17:51.255684  2691 net.cpp:434] upscore-dsn2_crop2-dsn2_0_split <- upscore-dsn2
I1118 18:17:51.255688  2691 net.cpp:408] upscore-dsn2_crop2-dsn2_0_split -> upscore-dsn2_crop2-dsn2_0_split_0
I1118 18:17:51.255714  2691 net.cpp:408] upscore-dsn2_crop2-dsn2_0_split -> upscore-dsn2_crop2-dsn2_0_split_1
I1118 18:17:51.255722  2691 net.cpp:408] upscore-dsn2_crop2-dsn2_0_split -> upscore-dsn2_crop2-dsn2_0_split_2
I1118 18:17:51.255769  2691 net.cpp:150] Setting up upscore-dsn2_crop2-dsn2_0_split
I1118 18:17:51.255775  2691 net.cpp:157] Top shape: 1 1 500 500 (250000)
I1118 18:17:51.255779  2691 net.cpp:157] Top shape: 1 1 500 500 (250000)
I1118 18:17:51.255781  2691 net.cpp:157] Top shape: 1 1 500 500 (250000)
I1118 18:17:51.255784  2691 net.cpp:165] Memory required for data: 1151050964
I1118 18:17:51.255785  2691 layer_factory.hpp:77] Creating layer loss2-score
I1118 18:17:51.255792  2691 net.cpp:100] Creating Layer loss2-score
I1118 18:17:51.255795  2691 net.cpp:434] loss2-score <- upscore-dsn2_crop2-dsn2_0_split_0
I1118 18:17:51.255797  2691 net.cpp:434] loss2-score <- label_augmentation_1_split_4
I1118 18:17:51.255801  2691 net.cpp:408] loss2-score -> loss2-score
I1118 18:17:51.256793  2691 net.cpp:150] Setting up loss2-score
I1118 18:17:51.256801  2691 net.cpp:157] Top shape: (1)
I1118 18:17:51.256804  2691 net.cpp:160]     with loss weight 1
I1118 18:17:51.256808  2691 net.cpp:165] Memory required for data: 1151050968
I1118 18:17:51.256811  2691 layer_factory.hpp:77] Creating layer sigmoid-dsn1
I1118 18:17:51.256815  2691 net.cpp:100] Creating Layer sigmoid-dsn1
I1118 18:17:51.256819  2691 net.cpp:434] sigmoid-dsn1 <- upscore-dsn2_crop2-dsn2_0_split_1
I1118 18:17:51.256822  2691 net.cpp:408] sigmoid-dsn1 -> sigmoid-dsn1
I1118 18:17:51.257997  2691 net.cpp:150] Setting up sigmoid-dsn1
I1118 18:17:51.258008  2691 net.cpp:157] Top shape: 1 1 500 500 (250000)
I1118 18:17:51.258010  2691 net.cpp:165] Memory required for data: 1152050968
I1118 18:17:51.258013  2691 layer_factory.hpp:77] Creating layer rev-dsn1
I1118 18:17:51.258018  2691 net.cpp:100] Creating Layer rev-dsn1
I1118 18:17:51.258020  2691 net.cpp:434] rev-dsn1 <- sigmoid-dsn1
I1118 18:17:51.258026  2691 net.cpp:408] rev-dsn1 -> rev-dsn1
I1118 18:17:51.258049  2691 net.cpp:150] Setting up rev-dsn1
I1118 18:17:51.258054  2691 net.cpp:157] Top shape: 1 1 500 500 (250000)
I1118 18:17:51.258055  2691 net.cpp:165] Memory required for data: 1153050968
I1118 18:17:51.258057  2691 layer_factory.hpp:77] Creating layer tile-dsn1
I1118 18:17:51.258061  2691 net.cpp:100] Creating Layer tile-dsn1
I1118 18:17:51.258064  2691 net.cpp:434] tile-dsn1 <- rev-dsn1
I1118 18:17:51.258069  2691 net.cpp:408] tile-dsn1 -> weight-dsn1
I1118 18:17:51.258083  2691 net.cpp:150] Setting up tile-dsn1
I1118 18:17:51.258087  2691 net.cpp:157] Top shape: 1 64 500 500 (16000000)
I1118 18:17:51.258090  2691 net.cpp:165] Memory required for data: 1217050968
I1118 18:17:51.258091  2691 layer_factory.hpp:77] Creating layer prod1-dsn1
I1118 18:17:51.258095  2691 net.cpp:100] Creating Layer prod1-dsn1
I1118 18:17:51.258097  2691 net.cpp:434] prod1-dsn1 <- conv1_2_relu1_2_0_split_1
I1118 18:17:51.258105  2691 net.cpp:434] prod1-dsn1 <- weight-dsn1
I1118 18:17:51.258107  2691 net.cpp:408] prod1-dsn1 -> prod1-dsn1
I1118 18:17:51.258126  2691 net.cpp:150] Setting up prod1-dsn1
I1118 18:17:51.258129  2691 net.cpp:157] Top shape: 1 64 500 500 (16000000)
I1118 18:17:51.258131  2691 net.cpp:165] Memory required for data: 1281050968
I1118 18:17:51.258133  2691 layer_factory.hpp:77] Creating layer conv1-dsn1
I1118 18:17:51.258158  2691 net.cpp:100] Creating Layer conv1-dsn1
I1118 18:17:51.258165  2691 net.cpp:434] conv1-dsn1 <- prod1-dsn1
I1118 18:17:51.258169  2691 net.cpp:408] conv1-dsn1 -> conv1-dsn1
I1118 18:17:51.259017  2691 net.cpp:150] Setting up conv1-dsn1
I1118 18:17:51.259028  2691 net.cpp:157] Top shape: 1 64 500 500 (16000000)
I1118 18:17:51.259030  2691 net.cpp:165] Memory required for data: 1345050968
I1118 18:17:51.259037  2691 layer_factory.hpp:77] Creating layer conv2-dsn1
I1118 18:17:51.259044  2691 net.cpp:100] Creating Layer conv2-dsn1
I1118 18:17:51.259047  2691 net.cpp:434] conv2-dsn1 <- conv1-dsn1
I1118 18:17:51.259053  2691 net.cpp:408] conv2-dsn1 -> conv2-dsn1
I1118 18:17:51.260738  2691 net.cpp:150] Setting up conv2-dsn1
I1118 18:17:51.260748  2691 net.cpp:157] Top shape: 1 64 500 500 (16000000)
I1118 18:17:51.260751  2691 net.cpp:165] Memory required for data: 1409050968
I1118 18:17:51.260756  2691 layer_factory.hpp:77] Creating layer relu1-dsn1
I1118 18:17:51.260761  2691 net.cpp:100] Creating Layer relu1-dsn1
I1118 18:17:51.260762  2691 net.cpp:434] relu1-dsn1 <- conv2-dsn1
I1118 18:17:51.260768  2691 net.cpp:395] relu1-dsn1 -> conv2-dsn1 (in-place)
I1118 18:17:51.260934  2691 net.cpp:150] Setting up relu1-dsn1
I1118 18:17:51.260946  2691 net.cpp:157] Top shape: 1 64 500 500 (16000000)
I1118 18:17:51.260948  2691 net.cpp:165] Memory required for data: 1473050968
I1118 18:17:51.260951  2691 layer_factory.hpp:77] Creating layer conv3-dsn1
I1118 18:17:51.260959  2691 net.cpp:100] Creating Layer conv3-dsn1
I1118 18:17:51.260962  2691 net.cpp:434] conv3-dsn1 <- conv2-dsn1
I1118 18:17:51.260967  2691 net.cpp:408] conv3-dsn1 -> conv3-dsn1
I1118 18:17:51.261960  2691 net.cpp:150] Setting up conv3-dsn1
I1118 18:17:51.261971  2691 net.cpp:157] Top shape: 1 64 500 500 (16000000)
I1118 18:17:51.261974  2691 net.cpp:165] Memory required for data: 1537050968
I1118 18:17:51.261978  2691 layer_factory.hpp:77] Creating layer relu2-dsn1
I1118 18:17:51.261986  2691 net.cpp:100] Creating Layer relu2-dsn1
I1118 18:17:51.261987  2691 net.cpp:434] relu2-dsn1 <- conv3-dsn1
I1118 18:17:51.261991  2691 net.cpp:395] relu2-dsn1 -> conv3-dsn1 (in-place)
I1118 18:17:51.262136  2691 net.cpp:150] Setting up relu2-dsn1
I1118 18:17:51.262146  2691 net.cpp:157] Top shape: 1 64 500 500 (16000000)
I1118 18:17:51.262148  2691 net.cpp:165] Memory required for data: 1601050968
I1118 18:17:51.262151  2691 layer_factory.hpp:77] Creating layer conv4-dsn1
I1118 18:17:51.262167  2691 net.cpp:100] Creating Layer conv4-dsn1
I1118 18:17:51.262171  2691 net.cpp:434] conv4-dsn1 <- conv3-dsn1
I1118 18:17:51.262176  2691 net.cpp:408] conv4-dsn1 -> conv4-dsn1
I1118 18:17:51.264644  2691 net.cpp:150] Setting up conv4-dsn1
I1118 18:17:51.264657  2691 net.cpp:157] Top shape: 1 1 500 500 (250000)
I1118 18:17:51.264660  2691 net.cpp:165] Memory required for data: 1602050968
I1118 18:17:51.264664  2691 layer_factory.hpp:77] Creating layer sum-dsn1
I1118 18:17:51.264669  2691 net.cpp:100] Creating Layer sum-dsn1
I1118 18:17:51.264672  2691 net.cpp:434] sum-dsn1 <- conv4-dsn1
I1118 18:17:51.264677  2691 net.cpp:434] sum-dsn1 <- upscore-dsn2_crop2-dsn2_0_split_2
I1118 18:17:51.264679  2691 net.cpp:408] sum-dsn1 -> sum-dsn1
I1118 18:17:51.264703  2691 net.cpp:150] Setting up sum-dsn1
I1118 18:17:51.264708  2691 net.cpp:157] Top shape: 1 1 500 500 (250000)
I1118 18:17:51.264710  2691 net.cpp:165] Memory required for data: 1603050968
I1118 18:17:51.264712  2691 layer_factory.hpp:77] Creating layer crop2-dsn1
I1118 18:17:51.264716  2691 net.cpp:100] Creating Layer crop2-dsn1
I1118 18:17:51.264719  2691 net.cpp:434] crop2-dsn1 <- sum-dsn1
I1118 18:17:51.264721  2691 net.cpp:434] crop2-dsn1 <- data_augmentation_0_split_6
I1118 18:17:51.264725  2691 net.cpp:408] crop2-dsn1 -> upscore-dsn1
I1118 18:17:51.264744  2691 net.cpp:150] Setting up crop2-dsn1
I1118 18:17:51.264746  2691 net.cpp:157] Top shape: 1 1 500 500 (250000)
I1118 18:17:51.264748  2691 net.cpp:165] Memory required for data: 1604050968
I1118 18:17:51.264753  2691 layer_factory.hpp:77] Creating layer loss1-score
I1118 18:17:51.264761  2691 net.cpp:100] Creating Layer loss1-score
I1118 18:17:51.264763  2691 net.cpp:434] loss1-score <- upscore-dsn1
I1118 18:17:51.264766  2691 net.cpp:434] loss1-score <- label_augmentation_1_split_5
I1118 18:17:51.264770  2691 net.cpp:408] loss1-score -> loss1-score
…
I1118 18:17:51.268626  2691 net.cpp:58] Initializing net from parameters: 
name: "RAS"
state {
  phase: TEST
}
layer {
  name: "data"
  type: "ImageLabelmapData"
  top: "data"
  top: "label"
  include {
    phase: TEST
  }
  transform_param {
    mean_value: 104.00699
    mean_value: 116.66877
    mean_value: 122.67892
  }
  image_data_param {
    source: "/media/compute/homes/galberding/FleckDetect/Datasets/FleckDataSet/val/image_to_label_map.txt"
    batch_size: 1
    new_height: 500
    new_width: 500
    root_folder: "/media/compute/homes/galberding/FleckDetect/Datasets/FleckDataSet/val/"
    normalize: true
  }
}
layer {
  name: "conv1_1"
  type: "Convolution"
  bottom: "data"
  top: "conv1_1"
  param {
    lr_mult: 1
    decay_mult: 1
  }
  param {
    lr_mult: 2
    decay_mult: 0
  }
  convolution_param {
    num_output: 64
    pad: 1
    kernel_size: 3
    engine: CUDNN
  }
}
layer {
  name: "relu1_1"
  type: "ReLU"
  bottom: "conv1_1"
  top: "conv1_1"
}
layer {
  name: "conv1_2"
  type: "Convolution"
  bottom: "conv1_1"
  top: "conv1_2"
  param {
    lr_mult: 1
    decay_mult: 1
  }
  param {
    lr_mult: 2
    decay_mult: 0
  }
  convolution_param {
    num_output: 64
    pad: 1
    kernel_size: 3
    engine: CUDNN
  }
}
layer {
  name: "relu1_2"
  type: "ReLU"
  bottom: "conv1_2"
  top: "conv1_2"
}
layer {
  name: "pool1"
  type: "Pooling"
  bottom: "conv1_2"
  top: "pool1"
  pooling_param {
    pool: MAX
    kernel_size: 2
    stride: 2
  }
}
layer {
  name: "conv2_1"
  type: "Convolution"
  bottom: "pool1"
  top: "conv2_1"
  param {
    lr_mult: 1
    decay_mult: 1
  }
  param {
    lr_mult: 2
    decay_mult: 0
  }
  convolution_param {
    num_output: 128
    pad: 1
    kernel_size: 3
    engine: CUDNN
  }
}
layer {
  name: "relu2_1"
  type: "ReLU"
  bottom: "conv2_1"
  top: "conv2_1"
}
layer {
  name: "conv2_2"
  type: "Convolution"
  bottom: "conv2_1"
  top: "conv2_2"
  param {
    lr_mult: 1
    decay_mult: 1
  }
  param {
    lr_mult: 2
    decay_mult: 0
  }
  convolution_param {
    num_output: 128
    pad: 1
    kernel_size: 3
    engine: CUDNN
  }
}
layer {
  name: "relu2_2"
  type: "ReLU"
  bottom: "conv2_2"
  top: "conv2_2"
}
layer {
  name: "pool2"
  type: "Pooling"
  bottom: "conv2_2"
  top: "pool2"
  pooling_param {
    pool: MAX
    kernel_size: 2
    stride: 2
  }
}
layer {
  name: "conv3_1"
  type: "Convolution"
  bottom: "pool2"
  top: "conv3_1"
  param {
    lr_mult: 1
    decay_mult: 1
  }
  param {
    lr_mult: 2
    decay_mult: 0
  }
  convolution_param {
    num_output: 256
    pad: 1
    kernel_size: 3
    engine: CUDNN
  }
}
layer {
  name: "relu3_1"
  type: "ReLU"
  bottom: "conv3_1"
  top: "conv3_1"
}
layer {
  name: "conv3_2"
  type: "Convolution"
  bottom: "conv3_1"
  top: "conv3_2"
  param {
    lr_mult: 1
    decay_mult: 1
  }
  param {
    lr_mult: 2
    decay_mult: 0
  }
  convolution_param {
    num_output: 256
    pad: 1
    kernel_size: 3
    engine: CUDNN
  }
}
layer {
  name: "relu3_2"
  type: "ReLU"
  bottom: "conv3_2"
  top: "conv3_2"
}
layer {
  name: "conv3_3"
  type: "Convolution"
  bottom: "conv3_2"
  top: "conv3_3"
  param {
    lr_mult: 1
    decay_mult: 1
  }
  param {
    lr_mult: 2
    decay_mult: 0
  }
  convolution_param {
    num_output: 256
    pad: 1
    kernel_size: 3
    engine: CUDNN
  }
}
layer {
  name: "relu3_3"
  type: "ReLU"
  bottom: "conv3_3"
  top: "conv3_3"
}
layer {
  name: "pool3"
  type: "Pooling"
  bottom: "conv3_3"
  top: "pool3"
  pooling_param {
    pool: MAX
    kernel_size: 2
    stride: 2
  }
}
layer {
  name: "conv4_1"
  type: "Convolution"
  bottom: "pool3"
  top: "conv4_1"
  param {
    lr_mult: 1
    decay_mult: 1
  }
  param {
    lr_mult: 2
    decay_mult: 0
  }
  convolution_param {
    num_output: 512
    pad: 1
    kernel_size: 3
    engine: CUDNN
  }
}
layer {
  name: "relu4_1"
  type: "ReLU"
  bottom: "conv4_1"
  top: "conv4_1"
}
layer {
  name: "conv4_2"
  type: "Convolution"
  bottom: "conv4_1"
  top: "conv4_2"
  param {
    lr_mult: 1
    decay_mult: 1
  }
  param {
    lr_mult: 2
    decay_mult: 0
  }
  convolution_param {
    num_output: 512
    pad: 1
    kernel_size: 3
    engine: CUDNN
  }
}
layer {
  name: "relu4_2"
  type: "ReLU"
  bottom: "conv4_2"
  top: "conv4_2"
}
layer {
  name: "conv4_3"
  type: "Convolution"
  bottom: "conv4_2"
  top: "conv4_3"
  param {
    lr_mult: 1
    decay_mult: 1
  }
  param {
    lr_mult: 2
    decay_mult: 0
  }
  convolution_param {
    num_output: 512
    pad: 1
    kernel_size: 3
    engine: CUDNN
  }
}
layer {
  name: "relu4_3"
  type: "ReLU"
  bottom: "conv4_3"
  top: "conv4_3"
}
layer {
  name: "pool4"
  type: "Pooling"
  bottom: "conv4_3"
  top: "pool4"
  pooling_param {
    pool: MAX
    kernel_size: 3
    stride: 2
    pad: 1
  }
}
layer {
  name: "conv5_1"
  type: "Convolution"
  bottom: "pool4"
  top: "conv5_1"
  param {
    lr_mult: 1
    decay_mult: 1
  }
  param {
    lr_mult: 2
    decay_mult: 0
  }
  convolution_param {
    num_output: 512
    pad: 1
    kernel_size: 3
    engine: CUDNN
  }
}
layer {
  name: "relu5_1"
  type: "ReLU"
  bottom: "conv5_1"
  top: "conv5_1"
}
layer {
  name: "conv5_2"
  type: "Convolution"
  bottom: "conv5_1"
  top: "conv5_2"
  param {
    lr_mult: 1
    decay_mult: 1
  }
  param {
    lr_mult: 2
    decay_mult: 0
  }
  convolution_param {
    num_output: 512
    pad: 1
    kernel_size: 3
    engine: CUDNN
  }
}
layer {
  name: "relu5_2"
  type: "ReLU"
  bottom: "conv5_2"
  top: "conv5_2"
}
layer {
  name: "conv5_3"
  type: "Convolution"
  bottom: "conv5_2"
  top: "conv5_3"
  param {
    lr_mult: 1
    decay_mult: 1
  }
  param {
    lr_mult: 2
    decay_mult: 0
  }
  convolution_param {
    num_output: 512
    pad: 1
    kernel_size: 3
    engine: CUDNN
  }
}
layer {
  name: "relu5_3"
  type: "ReLU"
  bottom: "conv5_3"
  top: "conv5_3"
}
layer {
  name: "pool5"
  type: "Pooling"
  bottom: "conv5_3"
  top: "pool5"
  pooling_param {
    pool: MAX
    kernel_size: 3
    stride: 2
    pad: 1
  }
}
layer {
  name: "conv1-dsn6"
  type: "Convolution"
  bottom: "pool5"
  top: "conv1-dsn6"
  param {
    lr_mult: 1
    decay_mult: 1
  }
  param {
    lr_mult: 2
    decay_mult: 0
  }
  convolution_param {
    num_output: 256
    kernel_size: 1
    weight_filler {
      type: "gaussian"
      std: 0.01
    }
    bias_filler {
      type: "constant"
      value: 0
    }
    engine: CUDNN
  }
}
layer {
  name: "conv2-dsn6"
  type: "Convolution"
  bottom: "conv1-dsn6"
  top: "conv2-dsn6"
  param {
    lr_mult: 1
    decay_mult: 1
  }
  param {
    lr_mult: 2
    decay_mult: 0
  }
  convolution_param {
    num_output: 256
    pad: 2
    kernel_size: 5
    weight_filler {
      type: "gaussian"
      std: 0.01
    }
    bias_filler {
      type: "constant"
      value: 0
    }
    engine: CUDNN
  }
}
layer {
  name: "relu1-dsn6"
  type: "ReLU"
  bottom: "conv2-dsn6"
  top: "conv2-dsn6"
}
layer {
  name: "conv3-dsn6"
  type: "Convolution"
  bottom: "conv2-dsn6"
  top: "conv3-dsn6"
  param {
    lr_mult: 1
    decay_mult: 1
  }
  param {
    lr_mult: 2
    decay_mult: 0
  }
  convolution_param {
    num_output: 256
    pad: 2
    kernel_size: 5
    weight_filler {
      type: "gaussian"
      std: 0.01
    }
    bias_filler {
      type: "constant"
      value: 0
    }
    engine: CUDNN
  }
}
layer {
  name: "relu2-dsn6"
  type: "ReLU"
  bottom: "conv3-dsn6"
  top: "conv3-dsn6"
}
layer {
  name: "conv4-dsn6"
  type: "Convolution"
  bottom: "conv3-dsn6"
  top: "conv4-dsn6"
  param {
    lr_mult: 1
    decay_mult: 1
  }
  param {
    lr_mult: 2
    decay_mult: 0
  }
  convolution_param {
    num_output: 256
    pad: 2
    kernel_size: 5
    weight_filler {
      type: "gaussian"
      std: 0.01
    }
    bias_filler {
      type: "constant"
      value: 0
    }
    engine: CUDNN
  }
}
layer {
  name: "relu3-dsn6"
  type: "ReLU"
  bottom: "conv4-dsn6"
  top: "conv4-dsn6"
}
layer {
  name: "conv5-dsn6"
  type: "Convolution"
  bottom: "conv4-dsn6"
  top: "conv5-dsn6"
  param {
    lr_mult: 0.1
    decay_mult: 1
  }
  param {
    lr_mult: 0.2
    decay_mult: 0
  }
  convolution_param {
    num_output: 1
    kernel_size: 1
    weight_filler {
      type: "gaussian"
      std: 0.01
    }
    bias_filler {
      type: "constant"
      value: 0
    }
    engine: CUDNN
  }
}
layer {
  name: "upsample32_dsn6"
  type: "Deconvolution"
  bottom: "conv5-dsn6"
  top: "conv5-dsn6-up"
  param {
    lr_mult: 0
    decay_mult: 1
  }
  param {
    lr_mult: 0
    decay_mult: 0
  }
  convolution_param {
    num_output: 1
    kernel_size: 64
    stride: 32
  }
}
layer {
  name: "crop-dsn6"
  type: "Crop"
  bottom: "conv5-dsn6-up"
  bottom: "data"
  top: "upscore-dsn6"
}
layer {
  name: "loss6-score"
  type: "SigmoidCrossEntropyLoss"
  bottom: "upscore-dsn6"
  bottom: "label"
  top: "loss6-score"
  loss_weight: 1
}
layer {
  name: "upsample2_dsn5"
  type: "Deconvolution"
  bottom: "conv5-dsn6"
  top: "conv5-dsn6-5"
  param {
    lr_mult: 0
    decay_mult: 1
  }
  param {
    lr_mult: 0
    decay_mult: 0
  }
  convolution_param {
    num_output: 1
    kernel_size: 4
    stride: 2
  }
}
layer {
  name: "crop1-dsn5"
  type: "Crop"
  bottom: "conv5-dsn6-5"
  bottom: "conv5_3"
  top: "weight-dsn6-5"
}
layer {
  name: "sigmoid-dsn5"
  type: "Sigmoid"
  bottom: "weight-dsn6-5"
  top: "sigmoid-dsn5"
}
layer {
  name: "rev-dsn5"
  type: "Power"
  bottom: "sigmoid-dsn5"
  top: "rev-dsn5"
  power_param {
    power: 1
    scale: -1
    shift: 1
  }
}
layer {
  name: "tile-dsn5"
  type: "Tile"
  bottom: "rev-dsn5"
  top: "weight-dsn5"
  tile_param {
    tiles: 512
  }
}
layer {
  name: "prod1-dsn5"
  type: "Eltwise"
  bottom: "conv5_3"
  bottom: "weight-dsn5"
  top: "prod1-dsn5"
  eltwise_param {
    operation: PROD
  }
}
layer {
  name: "conv1-dsn5"
  type: "Convolution"
  bottom: "prod1-dsn5"
  top: "conv1-dsn5"
  param {
    lr_mult: 1
    decay_mult: 1
  }
  param {
    lr_mult: 2
    decay_mult: 0
  }
  convolution_param {
    num_output: 64
    kernel_size: 1
    weight_filler {
      type: "gaussian"
      std: 0.01
    }
    bias_filler {
      type: "constant"
      value: 0
    }
    engine: CUDNN
  }
}
layer {
  name: "conv2-dsn5"
  type: "Convolution"
  bottom: "conv1-dsn5"
  top: "conv2-dsn5"
  param {
    lr_mult: 1
    decay_mult: 1
  }
  param {
    lr_mult: 2
    decay_mult: 0
  }
  convolution_param {
    num_output: 64
    pad: 1
    kernel_size: 3
    weight_filler {
      type: "gaussian"
      std: 0.01
    }
    bias_filler {
      type: "constant"
      value: 0
    }
    engine: CUDNN
  }
}
layer {
  name: "relu1-dsn5"
  type: "ReLU"
  bottom: "conv2-dsn5"
  top: "conv2-dsn5"
}
layer {
  name: "conv3-dsn5"
  type: "Convolution"
  bottom: "conv2-dsn5"
  top: "conv3-dsn5"
  param {
    lr_mult: 1
    decay_mult: 1
  }
  param {
    lr_mult: 2
    decay_mult: 0
  }
  convolution_param {
    num_output: 64
    pad: 1
    kernel_size: 3
    weight_filler {
      type: "gaussian"
      std: 0.01
    }
    bias_filler {
      type: "constant"
      value: 0
    }
    engine: CUDNN
  }
}
layer {
  name: "relu2-dsn5"
  type: "ReLU"
  bottom: "conv3-dsn5"
  top: "conv3-dsn5"
}
layer {
  name: "conv4-dsn5"
  type: "Convolution"
  bottom: "conv3-dsn5"
  top: "conv4-dsn5"
  param {
    lr_mult: 1
    decay_mult: 1
  }
  param {
    lr_mult: 2
    decay_mult: 0
  }
  convolution_param {
    num_output: 1
    pad: 1
    kernel_size: 3
    weight_filler {
      type: "gaussian"
      std: 0.01
    }
    bias_filler {
      type: "constant"
      value: 0
    }
    engine: CUDNN
  }
}
layer {
  name: "sum-dsn5"
  type: "Eltwise"
  bottom: "conv4-dsn5"
  bottom: "weight-dsn6-5"
  top: "sum-dsn5"
  eltwise_param {
    operation: SUM
  }
}
layer {
  name: "upsample16_dsn5"
  type: "Deconvolution"
  bottom: "sum-dsn5"
  top: "sum-dsn5-up"
  param {
    lr_mult: 0
    decay_mult: 1
  }
  param {
    lr_mult: 0
    decay_mult: 0
  }
  convolution_param {
    num_output: 1
    kernel_size: 32
    stride: 16
  }
}
layer {
  name: "crop2-dsn5"
  type: "Crop"
  bottom: "sum-dsn5-up"
  bottom: "data"
  top: "upscore-dsn5"
}
layer {
  name: "loss5-score"
  type: "SigmoidCrossEntropyLoss"
  bottom: "upscore-dsn5"
  bottom: "label"
  top: "loss5-score"
  loss_weight: 1
}
layer {
  name: "upsample2_dsn4"
  type: "Deconvolution"
  bottom: "sum-dsn5"
  top: "sum-dsn5-4"
  param {
    lr_mult: 0
    decay_mult: 1
  }
  param {
    lr_mult: 0
    decay_mult: 0
  }
  convolution_param {
    num_output: 1
    kernel_size: 4
    stride: 2
  }
}
layer {
  name: "crop1-dsn4"
  type: "Crop"
  bottom: "sum-dsn5-4"
  bottom: "conv4_3"
  top: "weight-dsn5-4"
}
layer {
  name: "sigmoid-dsn4"
  type: "Sigmoid"
  bottom: "weight-dsn5-4"
  top: "sigmoid-dsn4"
}
layer {
  name: "rev-dsn4"
  type: "Power"
  bottom: "sigmoid-dsn4"
  top: "rev-dsn4"
  power_param {
    power: 1
    scale: -1
    shift: 1
  }
}
layer {
  name: "tile-dsn4"
  type: "Tile"
  bottom: "rev-dsn4"
  top: "weight-dsn4"
  tile_param {
    tiles: 512
  }
}
layer {
  name: "prod1-dsn4"
  type: "Eltwise"
  bottom: "conv4_3"
  bottom: "weight-dsn4"
  top: "prod1-dsn4"
  eltwise_param {
    operation: PROD
  }
}
layer {
  name: "conv1-dsn4"
  type: "Convolution"
  bottom: "prod1-dsn4"
  top: "conv1-dsn4"
  param {
    lr_mult: 1
    decay_mult: 1
  }
  param {
    lr_mult: 2
    decay_mult: 0
  }
  convolution_param {
    num_output: 64
    kernel_size: 1
    weight_filler {
      type: "gaussian"
      std: 0.01
    }
    bias_filler {
      type: "constant"
      value: 0
    }
    engine: CUDNN
  }
}
layer {
  name: "conv2-dsn4"
  type: "Convolution"
  bottom: "conv1-dsn4"
  top: "conv2-dsn4"
  param {
    lr_mult: 1
    decay_mult: 1
  }
  param {
    lr_mult: 2
    decay_mult: 0
  }
  convolution_param {
    num_output: 64
    pad: 1
    kernel_size: 3
    weight_filler {
      type: "gaussian"
      std: 0.01
    }
    bias_filler {
      type: "constant"
      value: 0
    }
    engine: CUDNN
  }
}
layer {
  name: "relu1-dsn4"
  type: "ReLU"
  bottom: "conv2-dsn4"
  top: "conv2-dsn4"
}
layer {
  name: "conv3-dsn4"
  type: "Convolution"
  bottom: "conv2-dsn4"
  top: "conv3-dsn4"
  param {
    lr_mult: 1
    decay_mult: 1
  }
  param {
    lr_mult: 2
    decay_mult: 0
  }
  convolution_param {
    num_output: 64
    pad: 1
    kernel_size: 3
    weight_filler {
      type: "gaussian"
      std: 0.01
    }
    bias_filler {
      type: "constant"
      value: 0
    }
    engine: CUDNN
  }
}
layer {
  name: "relu2-dsn4"
  type: "ReLU"
  bottom: "conv3-dsn4"
  top: "conv3-dsn4"
}
layer {
  name: "conv4-dsn4"
  type: "Convolution"
  bottom: "conv3-dsn4"
  top: "conv4-dsn4"
  param {
    lr_mult: 1
    decay_mult: 1
  }
  param {
    lr_mult: 2
    decay_mult: 0
  }
  convolution_param {
    num_output: 1
    pad: 1
    kernel_size: 3
    weight_filler {
      type: "gaussian"
      std: 0.01
    }
    bias_filler {
      type: "constant"
      value: 0
    }
    engine: CUDNN
  }
}
layer {
  name: "sum-dsn4"
  type: "Eltwise"
  bottom: "conv4-dsn4"
  bottom: "weight-dsn5-4"
  top: "sum-dsn4"
  eltwise_param {
    operation: SUM
  }
}
layer {
  name: "upsample8_dsn4"
  type: "Deconvolution"
  bottom: "sum-dsn4"
  top: "sum-dsn4-up"
  param {
    lr_mult: 0
    decay_mult: 1
  }
  param {
    lr_mult: 0
    decay_mult: 0
  }
  convolution_param {
    num_output: 1
    kernel_size: 16
    stride: 8
  }
}
layer {
  name: "crop2-dsn4"
  type: "Crop"
  bottom: "sum-dsn4-up"
  bottom: "data"
  top: "upscore-dsn4"
}
layer {
  name: "loss4-score"
  type: "SigmoidCrossEntropyLoss"
  bottom: "upscore-dsn4"
  bottom: "label"
  top: "loss4-score"
  loss_weight: 1
}
layer {
  name: "upsample2_dsn3"
  type: "Deconvolution"
  bottom: "sum-dsn4"
  top: "sum-dsn4-3"
  param {
    lr_mult: 0
    decay_mult: 1
  }
  param {
    lr_mult: 0
    decay_mult: 0
  }
  convolution_param {
    num_output: 1
    kernel_size: 4
    stride: 2
  }
}
layer {
  name: "crop1-dsn3"
  type: "Crop"
  bottom: "sum-dsn4-3"
  bottom: "conv3_3"
  top: "weight-dsn4-3"
}
layer {
  name: "sigmoid-dsn3"
  type: "Sigmoid"
  bottom: "weight-dsn4-3"
  top: "sigmoid-dsn3"
}
layer {
  name: "rev-dsn3"
  type: "Power"
  bottom: "sigmoid-dsn3"
  top: "rev-dsn3"
  power_param {
    power: 1
    scale: -1
    shift: 1
  }
}
layer {
  name: "tile-dsn3"
  type: "Tile"
  bottom: "rev-dsn3"
  top: "weight-dsn3"
  tile_param {
    tiles: 256
  }
}
layer {
  name: "prod1-dsn3"
  type: "Eltwise"
  bottom: "conv3_3"
  bottom: "weight-dsn3"
  top: "prod1-dsn3"
  eltwise_param {
    operation: PROD
  }
}
layer {
  name: "conv1-dsn3"
  type: "Convolution"
  bottom: "prod1-dsn3"
  top: "conv1-dsn3"
  param {
    lr_mult: 1
    decay_mult: 1
  }
  param {
    lr_mult: 2
    decay_mult: 0
  }
  convolution_param {
    num_output: 64
    kernel_size: 1
    weight_filler {
      type: "gaussian"
      std: 0.01
    }
    bias_filler {
      type: "constant"
      value: 0
    }
    engine: CUDNN
  }
}
layer {
  name: "conv2-dsn3"
  type: "Convolution"
  bottom: "conv1-dsn3"
  top: "conv2-dsn3"
  param {
    lr_mult: 1
    decay_mult: 1
  }
  param {
    lr_mult: 2
    decay_mult: 0
  }
  convolution_param {
    num_output: 64
    pad: 1
    kernel_size: 3
    weight_filler {
      type: "gaussian"
      std: 0.01
    }
    bias_filler {
      type: "constant"
      value: 0
    }
    engine: CUDNN
  }
}
layer {
  name: "relu1-dsn3"
  type: "ReLU"
  bottom: "conv2-dsn3"
  top: "conv2-dsn3"
}
layer {
  name: "conv3-dsn3"
  type: "Convolution"
  bottom: "conv2-dsn3"
  top: "conv3-dsn3"
  param {
    lr_mult: 1
    decay_mult: 1
  }
  param {
    lr_mult: 2
    decay_mult: 0
  }
  convolution_param {
    num_output: 64
    pad: 1
    kernel_size: 3
    weight_filler {
      type: "gaussian"
      std: 0.01
    }
    bias_filler {
      type: "constant"
      value: 0
    }
    engine: CUDNN
  }
}
layer {
  name: "relu2-dsn3"
  type: "ReLU"
  bottom: "conv3-dsn3"
  top: "conv3-dsn3"
}
layer {
  name: "conv4-dsn3"
  type: "Convolution"
  bottom: "conv3-dsn3"
  top: "conv4-dsn3"
  param {
    lr_mult: 1
    decay_mult: 1
  }
  param {
    lr_mult: 2
    decay_mult: 0
  }
  convolution_param {
    num_output: 1
    pad: 1
    kernel_size: 3
    weight_filler {
      type: "gaussian"
      std: 0.01
    }
    bias_filler {
      type: "constant"
      value: 0
    }
    engine: CUDNN
  }
}
layer {
  name: "sum-dsn3"
  type: "Eltwise"
  bottom: "conv4-dsn3"
  bottom: "weight-dsn4-3"
  top: "sum-dsn3"
  eltwise_param {
    operation: SUM
  }
}
layer {
  name: "upsample4_dsn3"
  type: "Deconvolution"
  bottom: "sum-dsn3"
  top: "sum-dsn3-up"
  param {
    lr_mult: 0
    decay_mult: 1
  }
  param {
    lr_mult: 0
    decay_mult: 0
  }
  convolution_param {
    num_output: 1
    kernel_size: 8
    stride: 4
  }
}
layer {
  name: "crop2-dsn3"
  type: "Crop"
  bottom: "sum-dsn3-up"
  bottom: "data"
  top: "upscore-dsn3"
}
layer {
  name: "loss3-score"
  type: "SigmoidCrossEntropyLoss"
  bottom: "upscore-dsn3"
  bottom: "label"
  top: "loss3-score"
  loss_weight: 1
}
layer {
  name: "upsample2_1-dsn2"
  type: "Deconvolution"
  bottom: "sum-dsn3"
  top: "sum-dsn3-2"
  param {
    lr_mult: 0
    decay_mult: 1
  }
  param {
    lr_mult: 0
    decay_mult: 0
  }
  convolution_param {
    num_output: 1
    kernel_size: 4
    stride: 2
  }
}
layer {
  name: "crop1-dsn2"
  type: "Crop"
  bottom: "sum-dsn3-2"
  bottom: "conv2_2"
  top: "weight-dsn3-2"
}
layer {
  name: "sigmoid-dsn2"
  type: "Sigmoid"
  bottom: "weight-dsn3-2"
  top: "sigmoid-dsn2"
}
layer {
  name: "rev-dsn2"
  type: "Power"
  bottom: "sigmoid-dsn2"
  top: "rev-dsn2"
  power_param {
    power: 1
    scale: -1
    shift: 1
  }
}
layer {
  name: "tile-dsn2"
  type: "Tile"
  bottom: "rev-dsn2"
  top: "weight-dsn2"
  tile_param {
    tiles: 128
  }
}
layer {
  name: "prod1-dsn2"
  type: "Eltwise"
  bottom: "conv2_2"
  bottom: "weight-dsn2"
  top: "prod1-dsn2"
  eltwise_param {
    operation: PROD
  }
}
layer {
  name: "conv1-dsn2"
  type: "Convolution"
  bottom: "prod1-dsn2"
  top: "conv1-dsn2"
  param {
    lr_mult: 1
    decay_mult: 1
  }
  param {
    lr_mult: 2
    decay_mult: 0
  }
  convolution_param {
    num_output: 64
    kernel_size: 1
    weight_filler {
      type: "gaussian"
      std: 0.01
    }
    bias_filler {
      type: "constant"
      value: 0
    }
    engine: CUDNN
  }
}
layer {
  name: "conv2-dsn2"
  type: "Convolution"
  bottom: "conv1-dsn2"
  top: "conv2-dsn2"
  param {
    lr_mult: 1
    decay_mult: 1
  }
  param {
    lr_mult: 2
    decay_mult: 0
  }
  convolution_param {
    num_output: 64
    pad: 1
    kernel_size: 3
    weight_filler {
      type: "gaussian"
      std: 0.01
    }
    bias_filler {
      type: "constant"
      value: 0
    }
    engine: CUDNN
  }
}
layer {
  name: "relu1-dsn2"
  type: "ReLU"
  bottom: "conv2-dsn2"
  top: "conv2-dsn2"
}
layer {
  name: "conv3-dsn2"
  type: "Convolution"
  bottom: "conv2-dsn2"
  top: "conv3-dsn2"
  param {
    lr_mult: 1
    decay_mult: 1
  }
  param {
    lr_mult: 2
    decay_mult: 0
  }
  convolution_param {
    num_output: 64
    pad: 1
    kernel_size: 3
    weight_filler {
      type: "gaussian"
      std: 0.01
    }
    bias_filler {
      type: "constant"
      value: 0
    }
    engine: CUDNN
  }
}
layer {
  name: "relu2-dsn2"
  type: "ReLU"
  bottom: "conv3-dsn2"
  top: "conv3-dsn2"
}
layer {
  name: "conv4-dsn2"
  type: "Convolution"
  bottom: "conv3-dsn2"
  top: "conv4-dsn2"
  param {
    lr_mult: 1
    decay_mult: 1
  }
  param {
    lr_mult: 2
    decay_mult: 0
  }
  convolution_param {
    num_output: 1
    pad: 1
    kernel_size: 3
    weight_filler {
      type: "gaussian"
      std: 0.01
    }
    bias_filler {
      type: "constant"
      value: 0
    }
    engine: CUDNN
  }
}
layer {
  name: "sum-dsn2"
  type: "Eltwise"
  bottom: "conv4-dsn2"
  bottom: "weight-dsn3-2"
  top: "sum-dsn2"
  eltwise_param {
    operation: SUM
  }
}
layer {
  name: "upsample2_2-dsn2"
  type: "Deconvolution"
  bottom: "sum-dsn2"
  top: "sum-dsn2-up"
  param {
    lr_mult: 0
    decay_mult: 1
  }
  param {
    lr_mult: 0
    decay_mult: 0
  }
  convolution_param {
    num_output: 1
    kernel_size: 4
    stride: 2
  }
}
layer {
  name: "crop2-dsn2"
  type: "Crop"
  bottom: "sum-dsn2-up"
  bottom: "data"
  top: "upscore-dsn2"
}
layer {
  name: "loss2-score"
  type: "SigmoidCrossEntropyLoss"
  bottom: "upscore-dsn2"
  bottom: "label"
  top: "loss2-score"
  loss_weight: 1
}
layer {
  name: "sigmoid-dsn1"
  type: "Sigmoid"
  bottom: "upscore-dsn2"
  top: "sigmoid-dsn1"
}
layer {
  name: "rev-dsn1"
  type: "Power"
  bottom: "sigmoid-dsn1"
  top: "rev-dsn1"
  power_param {
    power: 1
    scale: -1
    shift: 1
  }
}
layer {
  name: "tile-dsn1"
  type: "Tile"
  bottom: "rev-dsn1"
  top: "weight-dsn1"
  tile_param {
    tiles: 64
  }
}
layer {
  name: "prod1-dsn1"
  type: "Eltwise"
  bottom: "conv1_2"
  bottom: "weight-dsn1"
  top: "prod1-dsn1"
  eltwise_param {
    operation: PROD
  }
}
layer {
  name: "conv1-dsn1"
  type: "Convolution"
  bottom: "prod1-dsn1"
  top: "conv1-dsn1"
  param {
    lr_mult: 1
    decay_mult: 1
  }
  param {
    lr_mult: 2
    decay_mult: 0
  }
  convolution_param {
    num_output: 64
    kernel_size: 1
    weight_filler {
      type: "gaussian"
      std: 0.01
    }
    bias_filler {
      type: "constant"
      value: 0
    }
    engine: CUDNN
  }
}
layer {
  name: "conv2-dsn1"
  type: "Convolution"
  bottom: "conv1-dsn1"
  top: "conv2-dsn1"
  param {
    lr_mult: 1
    decay_mult: 1
  }
  param {
    lr_mult: 2
    decay_mult: 0
  }
  convolution_param {
    num_output: 64
    pad: 1
    kernel_size: 3
    weight_filler {
      type: "gaussian"
      std: 0.01
    }
    bias_filler {
      type: "constant"
      value: 0
    }
    engine: CUDNN
  }
}
layer {
  name: "relu1-dsn1"
  type: "ReLU"
  bottom: "conv2-dsn1"
  top: "conv2-dsn1"
}
layer {
  name: "conv3-dsn1"
  type: "Convolution"
  bottom: "conv2-dsn1"
  top: "conv3-dsn1"
  param {
    lr_mult: 1
    decay_mult: 1
  }
  param {
    lr_mult: 2
    decay_mult: 0
  }
  convolution_param {
    num_output: 64
    pad: 1
    kernel_size: 3
    weight_filler {
      type: "gaussian"
      std: 0.01
    }
    bias_filler {
      type: "constant"
      value: 0
    }
    engine: CUDNN
  }
}
layer {
  name: "relu2-dsn1"
  type: "ReLU"
  bottom: "conv3-dsn1"
  top: "conv3-dsn1"
}
layer {
  name: "conv4-dsn1"
  type: "Convolution"
  bottom: "conv3-dsn1"
  top: "conv4-dsn1"
  param {
    lr_mult: 1
    decay_mult: 1
  }
  param {
    lr_mult: 2
    decay_mult: 0
  }
  convolution_param {
    num_output: 1
    pad: 1
    kernel_size: 3
    weight_filler {
      type: "gaussian"
      std: 0.01
    }
    bias_filler {
      type: "constant"
      value: 0
    }
    engine: CUDNN
  }
}
layer {
  name: "sum-dsn1"
  type: "Eltwise"
  bottom: "conv4-dsn1"
  bottom: "upscore-dsn2"
  top: "sum-dsn1"
  eltwise_param {
    operation: SUM
  }
}
layer {
  name: "crop2-dsn1"
  type: "Crop"
  bottom: "sum-dsn1"
  bottom: "data"
  top: "upscore-dsn1"
}
layer {
  name: "loss1-score"
  type: "SigmoidCrossEntropyLoss"
  bottom: "upscore-dsn1"
  bottom: "label"
  top: "loss1-score"
  loss_weight: 1
}
I1118 18:17:51.268975  2691 layer_factory.hpp:77] Creating layer data
I1118 18:17:51.268990  2691 net.cpp:100] Creating Layer data
I1118 18:17:51.268995  2691 net.cpp:408] data -> data
I1118 18:17:51.269001  2691 net.cpp:408] data -> label
I1118 18:17:51.269008  2691 image_labelmap_data_layer.cpp:41] Opening file /media/compute/homes/galberding/FleckDetect/Datasets/FleckDataSet/val/image_to_label_map.txt
I1118 18:17:51.270133  2691 image_labelmap_data_layer.cpp:56] A total of 54 images.
I1118 18:17:51.316704  2691 image_labelmap_data_layer.cpp:110] output data size: 1,3,500,500
I1118 18:17:51.316718  2691 image_labelmap_data_layer.cpp:113] output label size: 1,1,500,500
I1118 18:17:51.324007  2691 net.cpp:150] Setting up data
I1118 18:17:51.324023  2691 net.cpp:157] Top shape: 1 3 500 500 (750000)
I1118 18:17:51.324028  2691 net.cpp:157] Top shape: 1 1 500 500 (250000)
I1118 18:17:51.324029  2691 net.cpp:165] Memory required for data: 4000000
I1118 18:17:51.324036  2691 layer_factory.hpp:77] Creating layer data_data_0_split
I1118 18:17:51.324050  2691 net.cpp:100] Creating Layer data_data_0_split
I1118 18:17:51.324054  2691 net.cpp:434] data_data_0_split <- data
I1118 18:17:51.324060  2691 net.cpp:408] data_data_0_split -> data_data_0_split_0
I1118 18:17:51.324070  2691 net.cpp:408] data_data_0_split -> data_data_0_split_1
I1118 18:17:51.324074  2691 net.cpp:408] data_data_0_split -> data_data_0_split_2
I1118 18:17:51.324079  2691 net.cpp:408] data_data_0_split -> data_data_0_split_3
I1118 18:17:51.324084  2691 net.cpp:408] data_data_0_split -> data_data_0_split_4
I1118 18:17:51.324088  2691 net.cpp:408] data_data_0_split -> data_data_0_split_5
I1118 18:17:51.324092  2691 net.cpp:408] data_data_0_split -> data_data_0_split_6
I1118 18:17:51.324183  2691 net.cpp:150] Setting up data_data_0_split
I1118 18:17:51.324190  2691 net.cpp:157] Top shape: 1 3 500 500 (750000)
I1118 18:17:51.324194  2691 net.cpp:157] Top shape: 1 3 500 500 (750000)
I1118 18:17:51.324198  2691 net.cpp:157] Top shape: 1 3 500 500 (750000)
I1118 18:17:51.324200  2691 net.cpp:157] Top shape: 1 3 500 500 (750000)
I1118 18:17:51.324203  2691 net.cpp:157] Top shape: 1 3 500 500 (750000)
I1118 18:17:51.324205  2691 net.cpp:157] Top shape: 1 3 500 500 (750000)
I1118 18:17:51.324208  2691 net.cpp:157] Top shape: 1 3 500 500 (750000)
I1118 18:17:51.324221  2691 net.cpp:165] Memory required for data: 25000000
I1118 18:17:51.324224  2691 layer_factory.hpp:77] Creating layer label_data_1_split
I1118 18:17:51.324230  2691 net.cpp:100] Creating Layer label_data_1_split
I1118 18:17:51.324234  2691 net.cpp:434] label_data_1_split <- label
I1118 18:17:51.324237  2691 net.cpp:408] label_data_1_split -> label_data_1_split_0
I1118 18:17:51.324257  2691 net.cpp:408] label_data_1_split -> label_data_1_split_1
I1118 18:17:51.324262  2691 net.cpp:408] label_data_1_split -> label_data_1_split_2
I1118 18:17:51.324266  2691 net.cpp:408] label_data_1_split -> label_data_1_split_3
I1118 18:17:51.324270  2691 net.cpp:408] label_data_1_split -> label_data_1_split_4
I1118 18:17:51.324275  2691 net.cpp:408] label_data_1_split -> label_data_1_split_5
I1118 18:17:51.324442  2691 net.cpp:150] Setting up label_data_1_split
I1118 18:17:51.324450  2691 net.cpp:157] Top shape: 1 1 500 500 (250000)
I1118 18:17:51.324453  2691 net.cpp:157] Top shape: 1 1 500 500 (250000)
I1118 18:17:51.324456  2691 net.cpp:157] Top shape: 1 1 500 500 (250000)
I1118 18:17:51.324460  2691 net.cpp:157] Top shape: 1 1 500 500 (250000)
I1118 18:17:51.324463  2691 net.cpp:157] Top shape: 1 1 500 500 (250000)
I1118 18:17:51.324467  2691 net.cpp:157] Top shape: 1 1 500 500 (250000)
I1118 18:17:51.324470  2691 net.cpp:165] Memory required for data: 31000000
I1118 18:17:51.324471  2691 layer_factory.hpp:77] Creating layer conv1_1
I1118 18:17:51.324481  2691 net.cpp:100] Creating Layer conv1_1
I1118 18:17:51.324484  2691 net.cpp:434] conv1_1 <- data_data_0_split_0
I1118 18:17:51.324491  2691 net.cpp:408] conv1_1 -> conv1_1
I1118 18:17:51.325327  2691 net.cpp:150] Setting up conv1_1
I1118 18:17:51.325338  2691 net.cpp:157] Top shape: 1 64 500 500 (16000000)
I1118 18:17:51.325341  2691 net.cpp:165] Memory required for data: 95000000
I1118 18:17:51.325351  2691 layer_factory.hpp:77] Creating layer relu1_1
I1118 18:17:51.325357  2691 net.cpp:100] Creating Layer relu1_1
I1118 18:17:51.325361  2691 net.cpp:434] relu1_1 <- conv1_1
I1118 18:17:51.325363  2691 net.cpp:395] relu1_1 -> conv1_1 (in-place)
I1118 18:17:51.325526  2691 net.cpp:150] Setting up relu1_1
I1118 18:17:51.325551  2691 net.cpp:157] Top shape: 1 64 500 500 (16000000)
I1118 18:17:51.325554  2691 net.cpp:165] Memory required for data: 159000000
I1118 18:17:51.325556  2691 layer_factory.hpp:77] Creating layer conv1_2
I1118 18:17:51.325563  2691 net.cpp:100] Creating Layer conv1_2
I1118 18:17:51.325567  2691 net.cpp:434] conv1_2 <- conv1_1
I1118 18:17:51.325573  2691 net.cpp:408] conv1_2 -> conv1_2
I1118 18:17:51.327136  2691 net.cpp:150] Setting up conv1_2
I1118 18:17:51.327147  2691 net.cpp:157] Top shape: 1 64 500 500 (16000000)
I1118 18:17:51.327149  2691 net.cpp:165] Memory required for data: 223000000
I1118 18:17:51.327157  2691 layer_factory.hpp:77] Creating layer relu1_2
I1118 18:17:51.327177  2691 net.cpp:100] Creating Layer relu1_2
I1118 18:17:51.327178  2691 net.cpp:434] relu1_2 <- conv1_2
I1118 18:17:51.327184  2691 net.cpp:395] relu1_2 -> conv1_2 (in-place)
I1118 18:17:51.327256  2691 net.cpp:150] Setting up relu1_2
I1118 18:17:51.327265  2691 net.cpp:157] Top shape: 1 64 500 500 (16000000)
I1118 18:17:51.327266  2691 net.cpp:165] Memory required for data: 287000000
I1118 18:17:51.327270  2691 layer_factory.hpp:77] Creating layer conv1_2_relu1_2_0_split
I1118 18:17:51.327275  2691 net.cpp:100] Creating Layer conv1_2_relu1_2_0_split
I1118 18:17:51.327277  2691 net.cpp:434] conv1_2_relu1_2_0_split <- conv1_2
I1118 18:17:51.327282  2691 net.cpp:408] conv1_2_relu1_2_0_split -> conv1_2_relu1_2_0_split_0
I1118 18:17:51.327288  2691 net.cpp:408] conv1_2_relu1_2_0_split -> conv1_2_relu1_2_0_split_1
I1118 18:17:51.327342  2691 net.cpp:150] Setting up conv1_2_relu1_2_0_split
I1118 18:17:51.327349  2691 net.cpp:157] Top shape: 1 64 500 500 (16000000)
I1118 18:17:51.327364  2691 net.cpp:157] Top shape: 1 64 500 500 (16000000)
I1118 18:17:51.327368  2691 net.cpp:165] Memory required for data: 415000000
I1118 18:17:51.327370  2691 layer_factory.hpp:77] Creating layer pool1
I1118 18:17:51.327378  2691 net.cpp:100] Creating Layer pool1
I1118 18:17:51.327381  2691 net.cpp:434] pool1 <- conv1_2_relu1_2_0_split_0
I1118 18:17:51.327402  2691 net.cpp:408] pool1 -> pool1
I1118 18:17:51.327435  2691 net.cpp:150] Setting up pool1
I1118 18:17:51.327440  2691 net.cpp:157] Top shape: 1 64 250 250 (4000000)
I1118 18:17:51.327443  2691 net.cpp:165] Memory required for data: 431000000
I1118 18:17:51.327445  2691 layer_factory.hpp:77] Creating layer conv2_1
I1118 18:17:51.327452  2691 net.cpp:100] Creating Layer conv2_1
I1118 18:17:51.327455  2691 net.cpp:434] conv2_1 <- pool1
I1118 18:17:51.327461  2691 net.cpp:408] conv2_1 -> conv2_1
I1118 18:17:51.328194  2691 net.cpp:150] Setting up conv2_1
I1118 18:17:51.328205  2691 net.cpp:157] Top shape: 1 128 250 250 (8000000)
I1118 18:17:51.328208  2691 net.cpp:165] Memory required for data: 463000000
I1118 18:17:51.328215  2691 layer_factory.hpp:77] Creating layer relu2_1
I1118 18:17:51.328222  2691 net.cpp:100] Creating Layer relu2_1
I1118 18:17:51.328224  2691 net.cpp:434] relu2_1 <- conv2_1
I1118 18:17:51.328229  2691 net.cpp:395] relu2_1 -> conv2_1 (in-place)
I1118 18:17:51.328297  2691 net.cpp:150] Setting up relu2_1
I1118 18:17:51.328310  2691 net.cpp:157] Top shape: 1 128 250 250 (8000000)
I1118 18:17:51.328312  2691 net.cpp:165] Memory required for data: 495000000
I1118 18:17:51.328315  2691 layer_factory.hpp:77] Creating layer conv2_2
I1118 18:17:51.328321  2691 net.cpp:100] Creating Layer conv2_2
I1118 18:17:51.328325  2691 net.cpp:434] conv2_2 <- conv2_1
I1118 18:17:51.328330  2691 net.cpp:408] conv2_2 -> conv2_2
I1118 18:17:51.331418  2691 net.cpp:150] Setting up conv2_2
I1118 18:17:51.331429  2691 net.cpp:157] Top shape: 1 128 250 250 (8000000)
I1118 18:17:51.331432  2691 net.cpp:165] Memory required for data: 527000000
I1118 18:17:51.331439  2691 layer_factory.hpp:77] Creating layer relu2_2
I1118 18:17:51.331444  2691 net.cpp:100] Creating Layer relu2_2
I1118 18:17:51.331445  2691 net.cpp:434] relu2_2 <- conv2_2
I1118 18:17:51.331450  2691 net.cpp:395] relu2_2 -> conv2_2 (in-place)
I1118 18:17:51.331511  2691 net.cpp:150] Setting up relu2_2
I1118 18:17:51.331518  2691 net.cpp:157] Top shape: 1 128 250 250 (8000000)
I1118 18:17:51.331522  2691 net.cpp:165] Memory required for data: 559000000
I1118 18:17:51.331526  2691 layer_factory.hpp:77] Creating layer conv2_2_relu2_2_0_split
I1118 18:17:51.331531  2691 net.cpp:100] Creating Layer conv2_2_relu2_2_0_split
I1118 18:17:51.331533  2691 net.cpp:434] conv2_2_relu2_2_0_split <- conv2_2
I1118 18:17:51.331537  2691 net.cpp:408] conv2_2_relu2_2_0_split -> conv2_2_relu2_2_0_split_0
I1118 18:17:51.331543  2691 net.cpp:408] conv2_2_relu2_2_0_split -> conv2_2_relu2_2_0_split_1
I1118 18:17:51.331548  2691 net.cpp:408] conv2_2_relu2_2_0_split -> conv2_2_relu2_2_0_split_2
I1118 18:17:51.331588  2691 net.cpp:150] Setting up conv2_2_relu2_2_0_split
I1118 18:17:51.331593  2691 net.cpp:157] Top shape: 1 128 250 250 (8000000)
I1118 18:17:51.331595  2691 net.cpp:157] Top shape: 1 128 250 250 (8000000)
I1118 18:17:51.331609  2691 net.cpp:157] Top shape: 1 128 250 250 (8000000)
I1118 18:17:51.331611  2691 net.cpp:165] Memory required for data: 655000000
I1118 18:17:51.331614  2691 layer_factory.hpp:77] Creating layer pool2
I1118 18:17:51.331619  2691 net.cpp:100] Creating Layer pool2
I1118 18:17:51.331622  2691 net.cpp:434] pool2 <- conv2_2_relu2_2_0_split_0
I1118 18:17:51.331641  2691 net.cpp:408] pool2 -> pool2
I1118 18:17:51.331672  2691 net.cpp:150] Setting up pool2
I1118 18:17:51.331678  2691 net.cpp:157] Top shape: 1 128 125 125 (2000000)
I1118 18:17:51.331679  2691 net.cpp:165] Memory required for data: 663000000
I1118 18:17:51.331682  2691 layer_factory.hpp:77] Creating layer conv3_1
I1118 18:17:51.331688  2691 net.cpp:100] Creating Layer conv3_1
I1118 18:17:51.331691  2691 net.cpp:434] conv3_1 <- pool2
I1118 18:17:51.331696  2691 net.cpp:408] conv3_1 -> conv3_1
I1118 18:17:51.333005  2691 net.cpp:150] Setting up conv3_1
I1118 18:17:51.333015  2691 net.cpp:157] Top shape: 1 256 125 125 (4000000)
I1118 18:17:51.333019  2691 net.cpp:165] Memory required for data: 679000000
I1118 18:17:51.333026  2691 layer_factory.hpp:77] Creating layer relu3_1
I1118 18:17:51.333034  2691 net.cpp:100] Creating Layer relu3_1
I1118 18:17:51.333036  2691 net.cpp:434] relu3_1 <- conv3_1
I1118 18:17:51.333040  2691 net.cpp:395] relu3_1 -> conv3_1 (in-place)
I1118 18:17:51.333209  2691 net.cpp:150] Setting up relu3_1
I1118 18:17:51.333218  2691 net.cpp:157] Top shape: 1 256 125 125 (4000000)
I1118 18:17:51.333220  2691 net.cpp:165] Memory required for data: 695000000
I1118 18:17:51.333223  2691 layer_factory.hpp:77] Creating layer conv3_2
I1118 18:17:51.333230  2691 net.cpp:100] Creating Layer conv3_2
I1118 18:17:51.333232  2691 net.cpp:434] conv3_2 <- conv3_1
I1118 18:17:51.333237  2691 net.cpp:408] conv3_2 -> conv3_2
I1118 18:17:51.334959  2691 net.cpp:150] Setting up conv3_2
I1118 18:17:51.334970  2691 net.cpp:157] Top shape: 1 256 125 125 (4000000)
I1118 18:17:51.334972  2691 net.cpp:165] Memory required for data: 711000000
I1118 18:17:51.334977  2691 layer_factory.hpp:77] Creating layer relu3_2
I1118 18:17:51.334982  2691 net.cpp:100] Creating Layer relu3_2
I1118 18:17:51.334985  2691 net.cpp:434] relu3_2 <- conv3_2
I1118 18:17:51.334990  2691 net.cpp:395] relu3_2 -> conv3_2 (in-place)
I1118 18:17:51.335126  2691 net.cpp:150] Setting up relu3_2
I1118 18:17:51.335135  2691 net.cpp:157] Top shape: 1 256 125 125 (4000000)
I1118 18:17:51.335137  2691 net.cpp:165] Memory required for data: 727000000
I1118 18:17:51.335147  2691 layer_factory.hpp:77] Creating layer conv3_3
I1118 18:17:51.335155  2691 net.cpp:100] Creating Layer conv3_3
I1118 18:17:51.335157  2691 net.cpp:434] conv3_3 <- conv3_2
I1118 18:17:51.335162  2691 net.cpp:408] conv3_3 -> conv3_3
I1118 18:17:51.336884  2691 net.cpp:150] Setting up conv3_3
I1118 18:17:51.336894  2691 net.cpp:157] Top shape: 1 256 125 125 (4000000)
I1118 18:17:51.336897  2691 net.cpp:165] Memory required for data: 743000000
I1118 18:17:51.336902  2691 layer_factory.hpp:77] Creating layer relu3_3
I1118 18:17:51.336907  2691 net.cpp:100] Creating Layer relu3_3
I1118 18:17:51.336910  2691 net.cpp:434] relu3_3 <- conv3_3
I1118 18:17:51.336915  2691 net.cpp:395] relu3_3 -> conv3_3 (in-place)
I1118 18:17:51.337049  2691 net.cpp:150] Setting up relu3_3
I1118 18:17:51.337059  2691 net.cpp:157] Top shape: 1 256 125 125 (4000000)
I1118 18:17:51.337060  2691 net.cpp:165] Memory required for data: 759000000
I1118 18:17:51.337064  2691 layer_factory.hpp:77] Creating layer conv3_3_relu3_3_0_split
I1118 18:17:51.337069  2691 net.cpp:100] Creating Layer conv3_3_relu3_3_0_split
I1118 18:17:51.337071  2691 net.cpp:434] conv3_3_relu3_3_0_split <- conv3_3
I1118 18:17:51.337076  2691 net.cpp:408] conv3_3_relu3_3_0_split -> conv3_3_relu3_3_0_split_0
I1118 18:17:51.337082  2691 net.cpp:408] conv3_3_relu3_3_0_split -> conv3_3_relu3_3_0_split_1
I1118 18:17:51.337098  2691 net.cpp:408] conv3_3_relu3_3_0_split -> conv3_3_relu3_3_0_split_2
I1118 18:17:51.337155  2691 net.cpp:150] Setting up conv3_3_relu3_3_0_split
I1118 18:17:51.337162  2691 net.cpp:157] Top shape: 1 256 125 125 (4000000)
I1118 18:17:51.337164  2691 net.cpp:157] Top shape: 1 256 125 125 (4000000)
I1118 18:17:51.337167  2691 net.cpp:157] Top shape: 1 256 125 125 (4000000)
I1118 18:17:51.337169  2691 net.cpp:165] Memory required for data: 807000000
I1118 18:17:51.337172  2691 layer_factory.hpp:77] Creating layer pool3
I1118 18:17:51.337177  2691 net.cpp:100] Creating Layer pool3
I1118 18:17:51.337179  2691 net.cpp:434] pool3 <- conv3_3_relu3_3_0_split_0
I1118 18:17:51.337184  2691 net.cpp:408] pool3 -> pool3
I1118 18:17:51.337224  2691 net.cpp:150] Setting up pool3
I1118 18:17:51.337230  2691 net.cpp:157] Top shape: 1 256 63 63 (1016064)
I1118 18:17:51.337232  2691 net.cpp:165] Memory required for data: 811064256
I1118 18:17:51.337234  2691 layer_factory.hpp:77] Creating layer conv4_1
I1118 18:17:51.337240  2691 net.cpp:100] Creating Layer conv4_1
I1118 18:17:51.337244  2691 net.cpp:434] conv4_1 <- pool3
I1118 18:17:51.337247  2691 net.cpp:408] conv4_1 -> conv4_1
I1118 18:17:51.341959  2691 net.cpp:150] Setting up conv4_1
I1118 18:17:51.341971  2691 net.cpp:157] Top shape: 1 512 63 63 (2032128)
I1118 18:17:51.341974  2691 net.cpp:165] Memory required for data: 819192768
I1118 18:17:51.341979  2691 layer_factory.hpp:77] Creating layer relu4_1
I1118 18:17:51.341984  2691 net.cpp:100] Creating Layer relu4_1
I1118 18:17:51.341986  2691 net.cpp:434] relu4_1 <- conv4_1
I1118 18:17:51.341991  2691 net.cpp:395] relu4_1 -> conv4_1 (in-place)
I1118 18:17:51.342051  2691 net.cpp:150] Setting up relu4_1
I1118 18:17:51.342058  2691 net.cpp:157] Top shape: 1 512 63 63 (2032128)
I1118 18:17:51.342061  2691 net.cpp:165] Memory required for data: 827321280
I1118 18:17:51.342065  2691 layer_factory.hpp:77] Creating layer conv4_2
I1118 18:17:51.342072  2691 net.cpp:100] Creating Layer conv4_2
I1118 18:17:51.342074  2691 net.cpp:434] conv4_2 <- conv4_1
I1118 18:17:51.342078  2691 net.cpp:408] conv4_2 -> conv4_2
I1118 18:17:51.347218  2691 net.cpp:150] Setting up conv4_2
I1118 18:17:51.347229  2691 net.cpp:157] Top shape: 1 512 63 63 (2032128)
I1118 18:17:51.347232  2691 net.cpp:165] Memory required for data: 835449792
I1118 18:17:51.347241  2691 layer_factory.hpp:77] Creating layer relu4_2
I1118 18:17:51.347247  2691 net.cpp:100] Creating Layer relu4_2
I1118 18:17:51.347250  2691 net.cpp:434] relu4_2 <- conv4_2
I1118 18:17:51.347263  2691 net.cpp:395] relu4_2 -> conv4_2 (in-place)
I1118 18:17:51.347347  2691 net.cpp:150] Setting up relu4_2
I1118 18:17:51.347358  2691 net.cpp:157] Top shape: 1 512 63 63 (2032128)
I1118 18:17:51.347360  2691 net.cpp:165] Memory required for data: 843578304
I1118 18:17:51.347363  2691 layer_factory.hpp:77] Creating layer conv4_3
I1118 18:17:51.347369  2691 net.cpp:100] Creating Layer conv4_3
I1118 18:17:51.347373  2691 net.cpp:434] conv4_3 <- conv4_2
I1118 18:17:51.347378  2691 net.cpp:408] conv4_3 -> conv4_3
I1118 18:17:51.352339  2691 net.cpp:150] Setting up conv4_3
I1118 18:17:51.352350  2691 net.cpp:157] Top shape: 1 512 63 63 (2032128)
I1118 18:17:51.352353  2691 net.cpp:165] Memory required for data: 851706816
I1118 18:17:51.352358  2691 layer_factory.hpp:77] Creating layer relu4_3
I1118 18:17:51.352363  2691 net.cpp:100] Creating Layer relu4_3
I1118 18:17:51.352366  2691 net.cpp:434] relu4_3 <- conv4_3
I1118 18:17:51.352371  2691 net.cpp:395] relu4_3 -> conv4_3 (in-place)
I1118 18:17:51.352525  2691 net.cpp:150] Setting up relu4_3
I1118 18:17:51.352535  2691 net.cpp:157] Top shape: 1 512 63 63 (2032128)
I1118 18:17:51.352537  2691 net.cpp:165] Memory required for data: 859835328
I1118 18:17:51.352540  2691 layer_factory.hpp:77] Creating layer conv4_3_relu4_3_0_split
I1118 18:17:51.352545  2691 net.cpp:100] Creating Layer conv4_3_relu4_3_0_split
I1118 18:17:51.352547  2691 net.cpp:434] conv4_3_relu4_3_0_split <- conv4_3
I1118 18:17:51.352552  2691 net.cpp:408] conv4_3_relu4_3_0_split -> conv4_3_relu4_3_0_split_0
I1118 18:17:51.352560  2691 net.cpp:408] conv4_3_relu4_3_0_split -> conv4_3_relu4_3_0_split_1
I1118 18:17:51.352563  2691 net.cpp:408] conv4_3_relu4_3_0_split -> conv4_3_relu4_3_0_split_2
I1118 18:17:51.352612  2691 net.cpp:150] Setting up conv4_3_relu4_3_0_split
I1118 18:17:51.352617  2691 net.cpp:157] Top shape: 1 512 63 63 (2032128)
I1118 18:17:51.352620  2691 net.cpp:157] Top shape: 1 512 63 63 (2032128)
I1118 18:17:51.352623  2691 net.cpp:157] Top shape: 1 512 63 63 (2032128)
I1118 18:17:51.352624  2691 net.cpp:165] Memory required for data: 884220864
I1118 18:17:51.352627  2691 layer_factory.hpp:77] Creating layer pool4
I1118 18:17:51.352632  2691 net.cpp:100] Creating Layer pool4
I1118 18:17:51.352634  2691 net.cpp:434] pool4 <- conv4_3_relu4_3_0_split_0
I1118 18:17:51.352639  2691 net.cpp:408] pool4 -> pool4
I1118 18:17:51.352710  2691 net.cpp:150] Setting up pool4
I1118 18:17:51.352715  2691 net.cpp:157] Top shape: 1 512 32 32 (524288)
I1118 18:17:51.352717  2691 net.cpp:165] Memory required for data: 886318016
I1118 18:17:51.352720  2691 layer_factory.hpp:77] Creating layer conv5_1
I1118 18:17:51.352727  2691 net.cpp:100] Creating Layer conv5_1
I1118 18:17:51.352730  2691 net.cpp:434] conv5_1 <- pool4
I1118 18:17:51.352736  2691 net.cpp:408] conv5_1 -> conv5_1
I1118 18:17:51.357632  2691 net.cpp:150] Setting up conv5_1
I1118 18:17:51.357645  2691 net.cpp:157] Top shape: 1 512 32 32 (524288)
I1118 18:17:51.357647  2691 net.cpp:165] Memory required for data: 888415168
I1118 18:17:51.357652  2691 layer_factory.hpp:77] Creating layer relu5_1
I1118 18:17:51.357662  2691 net.cpp:100] Creating Layer relu5_1
I1118 18:17:51.357666  2691 net.cpp:434] relu5_1 <- conv5_1
I1118 18:17:51.357669  2691 net.cpp:395] relu5_1 -> conv5_1 (in-place)
I1118 18:17:51.359038  2691 net.cpp:150] Setting up relu5_1
I1118 18:17:51.359050  2691 net.cpp:157] Top shape: 1 512 32 32 (524288)
I1118 18:17:51.359051  2691 net.cpp:165] Memory required for data: 890512320
I1118 18:17:51.359055  2691 layer_factory.hpp:77] Creating layer conv5_2
I1118 18:17:51.359061  2691 net.cpp:100] Creating Layer conv5_2
I1118 18:17:51.359064  2691 net.cpp:434] conv5_2 <- conv5_1
I1118 18:17:51.359069  2691 net.cpp:408] conv5_2 -> conv5_2
I1118 18:17:51.363976  2691 net.cpp:150] Setting up conv5_2
I1118 18:17:51.363987  2691 net.cpp:157] Top shape: 1 512 32 32 (524288)
I1118 18:17:51.363989  2691 net.cpp:165] Memory required for data: 892609472
I1118 18:17:51.363994  2691 layer_factory.hpp:77] Creating layer relu5_2
I1118 18:17:51.364001  2691 net.cpp:100] Creating Layer relu5_2
I1118 18:17:51.364002  2691 net.cpp:434] relu5_2 <- conv5_2
I1118 18:17:51.364007  2691 net.cpp:395] relu5_2 -> conv5_2 (in-place)
I1118 18:17:51.364158  2691 net.cpp:150] Setting up relu5_2
I1118 18:17:51.364167  2691 net.cpp:157] Top shape: 1 512 32 32 (524288)
I1118 18:17:51.364169  2691 net.cpp:165] Memory required for data: 894706624
I1118 18:17:51.364172  2691 layer_factory.hpp:77] Creating layer conv5_3
I1118 18:17:51.364181  2691 net.cpp:100] Creating Layer conv5_3
I1118 18:17:51.364183  2691 net.cpp:434] conv5_3 <- conv5_2
I1118 18:17:51.364188  2691 net.cpp:408] conv5_3 -> conv5_3
I1118 18:17:51.369252  2691 net.cpp:150] Setting up conv5_3
I1118 18:17:51.369264  2691 net.cpp:157] Top shape: 1 512 32 32 (524288)
I1118 18:17:51.369266  2691 net.cpp:165] Memory required for data: 896803776
I1118 18:17:51.369271  2691 layer_factory.hpp:77] Creating layer relu5_3
I1118 18:17:51.369277  2691 net.cpp:100] Creating Layer relu5_3
I1118 18:17:51.369279  2691 net.cpp:434] relu5_3 <- conv5_3
I1118 18:17:51.369284  2691 net.cpp:395] relu5_3 -> conv5_3 (in-place)
I1118 18:17:51.369371  2691 net.cpp:150] Setting up relu5_3
I1118 18:17:51.369382  2691 net.cpp:157] Top shape: 1 512 32 32 (524288)
I1118 18:17:51.369385  2691 net.cpp:165] Memory required for data: 898900928
I1118 18:17:51.369386  2691 layer_factory.hpp:77] Creating layer conv5_3_relu5_3_0_split
I1118 18:17:51.369392  2691 net.cpp:100] Creating Layer conv5_3_relu5_3_0_split
I1118 18:17:51.369395  2691 net.cpp:434] conv5_3_relu5_3_0_split <- conv5_3
I1118 18:17:51.369400  2691 net.cpp:408] conv5_3_relu5_3_0_split -> conv5_3_relu5_3_0_split_0
I1118 18:17:51.369406  2691 net.cpp:408] conv5_3_relu5_3_0_split -> conv5_3_relu5_3_0_split_1
I1118 18:17:51.369411  2691 net.cpp:408] conv5_3_relu5_3_0_split -> conv5_3_relu5_3_0_split_2
I1118 18:17:51.369447  2691 net.cpp:150] Setting up conv5_3_relu5_3_0_split
I1118 18:17:51.369452  2691 net.cpp:157] Top shape: 1 512 32 32 (524288)
I1118 18:17:51.369455  2691 net.cpp:157] Top shape: 1 512 32 32 (524288)
I1118 18:17:51.369458  2691 net.cpp:157] Top shape: 1 512 32 32 (524288)
I1118 18:17:51.369460  2691 net.cpp:165] Memory required for data: 905192384
I1118 18:17:51.369462  2691 layer_factory.hpp:77] Creating layer pool5
I1118 18:17:51.369469  2691 net.cpp:100] Creating Layer pool5
I1118 18:17:51.369472  2691 net.cpp:434] pool5 <- conv5_3_relu5_3_0_split_0
I1118 18:17:51.369477  2691 net.cpp:408] pool5 -> pool5
I1118 18:17:51.369521  2691 net.cpp:150] Setting up pool5
…
I1118 18:17:51.420806  2691 net.cpp:165] Memory required for data: 907559872
I1118 18:17:51.420819  2691 layer_factory.hpp:77] Creating layer relu3-dsn6
I1118 18:17:51.420827  2691 net.cpp:100] Creating Layer relu3-dsn6
I1118 18:17:51.420830  2691 net.cpp:434] relu3-dsn6 <- conv4-dsn6
I1118 18:17:51.420835  2691 net.cpp:395] relu3-dsn6 -> conv4-dsn6 (in-place)
I1118 18:17:51.420900  2691 net.cpp:150] Setting up relu3-dsn6
I1118 18:17:51.420907  2691 net.cpp:157] Top shape: 1 256 17 17 (73984)
I1118 18:17:51.420909  2691 net.cpp:165] Memory required for data: 907855808
I1118 18:17:51.420912  2691 layer_factory.hpp:77] Creating layer conv5-dsn6
I1118 18:17:51.420920  2691 net.cpp:100] Creating Layer conv5-dsn6
I1118 18:17:51.420923  2691 net.cpp:434] conv5-dsn6 <- conv4-dsn6
I1118 18:17:51.420929  2691 net.cpp:408] conv5-dsn6 -> conv5-dsn6
I1118 18:17:51.421486  2691 net.cpp:150] Setting up conv5-dsn6
I1118 18:17:51.421496  2691 net.cpp:157] Top shape: 1 1 17 17 (289)
I1118 18:17:51.421499  2691 net.cpp:165] Memory required for data: 907856964
I1118 18:17:51.421504  2691 layer_factory.hpp:77] Creating layer conv5-dsn6_conv5-dsn6_0_split
I1118 18:17:51.421514  2691 net.cpp:100] Creating Layer conv5-dsn6_conv5-dsn6_0_split
I1118 18:17:51.421516  2691 net.cpp:434] conv5-dsn6_conv5-dsn6_0_split <- conv5-dsn6
I1118 18:17:51.421522  2691 net.cpp:408] conv5-dsn6_conv5-dsn6_0_split -> conv5-dsn6_conv5-dsn6_0_split_0
I1118 18:17:51.421528  2691 net.cpp:408] conv5-dsn6_conv5-dsn6_0_split -> conv5-dsn6_conv5-dsn6_0_split_1
I1118 18:17:51.421557  2691 net.cpp:150] Setting up conv5-dsn6_conv5-dsn6_0_split
I1118 18:17:51.421561  2691 net.cpp:157] Top shape: 1 1 17 17 (289)
I1118 18:17:51.421563  2691 net.cpp:157] Top shape: 1 1 17 17 (289)
I1118 18:17:51.421566  2691 net.cpp:165] Memory required for data: 907859276
I1118 18:17:51.421567  2691 layer_factory.hpp:77] Creating layer upsample32_dsn6
I1118 18:17:51.421576  2691 net.cpp:100] Creating Layer upsample32_dsn6
I1118 18:17:51.421578  2691 net.cpp:434] upsample32_dsn6 <- conv5-dsn6_conv5-dsn6_0_split_0
I1118 18:17:51.421583  2691 net.cpp:408] upsample32_dsn6 -> conv5-dsn6-up
I1118 18:17:51.422116  2691 net.cpp:150] Setting up upsample32_dsn6
I1118 18:17:51.422124  2691 net.cpp:157] Top shape: 1 1 576 576 (331776)
I1118 18:17:51.422127  2691 net.cpp:165] Memory required for data: 909186380
I1118 18:17:51.422130  2691 layer_factory.hpp:77] Creating layer crop-dsn6
I1118 18:17:51.422135  2691 net.cpp:100] Creating Layer crop-dsn6
I1118 18:17:51.422138  2691 net.cpp:434] crop-dsn6 <- conv5-dsn6-up
I1118 18:17:51.422142  2691 net.cpp:434] crop-dsn6 <- data_data_0_split_1
I1118 18:17:51.422145  2691 net.cpp:408] crop-dsn6 -> upscore-dsn6
I1118 18:17:51.422168  2691 net.cpp:150] Setting up crop-dsn6
I1118 18:17:51.422171  2691 net.cpp:157] Top shape: 1 1 500 500 (250000)
I1118 18:17:51.422173  2691 net.cpp:165] Memory required for data: 910186380
I1118 18:17:51.422175  2691 layer_factory.hpp:77] Creating layer loss6-score
I1118 18:17:51.422183  2691 net.cpp:100] Creating Layer loss6-score
I1118 18:17:51.422184  2691 net.cpp:434] loss6-score <- upscore-dsn6
I1118 18:17:51.422188  2691 net.cpp:434] loss6-score <- label_data_1_split_0
I1118 18:17:51.422194  2691 net.cpp:408] loss6-score -> loss6-score
I1118 18:17:51.423180  2691 net.cpp:150] Setting up loss6-score
I1118 18:17:51.423189  2691 net.cpp:157] Top shape: (1)
I1118 18:17:51.423192  2691 net.cpp:160]     with loss weight 1
I1118 18:17:51.423208  2691 net.cpp:165] Memory required for data: 910186384
I1118 18:17:51.423211  2691 layer_factory.hpp:77] Creating layer upsample2_dsn5
I1118 18:17:51.423218  2691 net.cpp:100] Creating Layer upsample2_dsn5
I1118 18:17:51.423221  2691 net.cpp:434] upsample2_dsn5 <- conv5-dsn6_conv5-dsn6_0_split_1
I1118 18:17:51.423228  2691 net.cpp:408] upsample2_dsn5 -> conv5-dsn6-5
I1118 18:17:51.423444  2691 net.cpp:150] Setting up upsample2_dsn5
I1118 18:17:51.423450  2691 net.cpp:157] Top shape: 1 1 36 36 (1296)
I1118 18:17:51.423454  2691 net.cpp:165] Memory required for data: 910191568
I1118 18:17:51.423457  2691 layer_factory.hpp:77] Creating layer crop1-dsn5
I1118 18:17:51.423462  2691 net.cpp:100] Creating Layer crop1-dsn5
I1118 18:17:51.423465  2691 net.cpp:434] crop1-dsn5 <- conv5-dsn6-5
I1118 18:17:51.423470  2691 net.cpp:434] crop1-dsn5 <- conv5_3_relu5_3_0_split_1
I1118 18:17:51.423473  2691 net.cpp:408] crop1-dsn5 -> weight-dsn6-5
I1118 18:17:51.423501  2691 net.cpp:150] Setting up crop1-dsn5
I1118 18:17:51.423507  2691 net.cpp:157] Top shape: 1 1 32 32 (1024)
I1118 18:17:51.423509  2691 net.cpp:165] Memory required for data: 910195664
I1118 18:17:51.423511  2691 layer_factory.hpp:77] Creating layer weight-dsn6-5_crop1-dsn5_0_split
I1118 18:17:51.423517  2691 net.cpp:100] Creating Layer weight-dsn6-5_crop1-dsn5_0_split
I1118 18:17:51.423521  2691 net.cpp:434] weight-dsn6-5_crop1-dsn5_0_split <- weight-dsn6-5
I1118 18:17:51.423525  2691 net.cpp:408] weight-dsn6-5_crop1-dsn5_0_split -> weight-dsn6-5_crop1-dsn5_0_split_0
I1118 18:17:51.423530  2691 net.cpp:408] weight-dsn6-5_crop1-dsn5_0_split -> weight-dsn6-5_crop1-dsn5_0_split_1
I1118 18:17:51.423555  2691 net.cpp:150] Setting up weight-dsn6-5_crop1-dsn5_0_split
I1118 18:17:51.423560  2691 net.cpp:157] Top shape: 1 1 32 32 (1024)
I1118 18:17:51.423563  2691 net.cpp:157] Top shape: 1 1 32 32 (1024)
I1118 18:17:51.423565  2691 net.cpp:165] Memory required for data: 910203856
I1118 18:17:51.423568  2691 layer_factory.hpp:77] Creating layer sigmoid-dsn5
I1118 18:17:51.423574  2691 net.cpp:100] Creating Layer sigmoid-dsn5
I1118 18:17:51.423578  2691 net.cpp:434] sigmoid-dsn5 <- weight-dsn6-5_crop1-dsn5_0_split_0
I1118 18:17:51.423581  2691 net.cpp:408] sigmoid-dsn5 -> sigmoid-dsn5
I1118 18:17:51.423777  2691 net.cpp:150] Setting up sigmoid-dsn5
I1118 18:17:51.423787  2691 net.cpp:157] Top shape: 1 1 32 32 (1024)
I1118 18:17:51.423790  2691 net.cpp:165] Memory required for data: 910207952
I1118 18:17:51.423792  2691 layer_factory.hpp:77] Creating layer rev-dsn5
I1118 18:17:51.423799  2691 net.cpp:100] Creating Layer rev-dsn5
I1118 18:17:51.423802  2691 net.cpp:434] rev-dsn5 <- sigmoid-dsn5
I1118 18:17:51.423806  2691 net.cpp:408] rev-dsn5 -> rev-dsn5
I1118 18:17:51.423826  2691 net.cpp:150] Setting up rev-dsn5
I1118 18:17:51.423843  2691 net.cpp:157] Top shape: 1 1 32 32 (1024)
I1118 18:17:51.423846  2691 net.cpp:165] Memory required for data: 910212048
I1118 18:17:51.423847  2691 layer_factory.hpp:77] Creating layer tile-dsn5
I1118 18:17:51.423853  2691 net.cpp:100] Creating Layer tile-dsn5
I1118 18:17:51.423856  2691 net.cpp:434] tile-dsn5 <- rev-dsn5
I1118 18:17:51.423861  2691 net.cpp:408] tile-dsn5 -> weight-dsn5
I1118 18:17:51.423880  2691 net.cpp:150] Setting up tile-dsn5
I1118 18:17:51.423884  2691 net.cpp:157] Top shape: 1 512 32 32 (524288)
I1118 18:17:51.423887  2691 net.cpp:165] Memory required for data: 912309200
I1118 18:17:51.423889  2691 layer_factory.hpp:77] Creating layer prod1-dsn5
I1118 18:17:51.423897  2691 net.cpp:100] Creating Layer prod1-dsn5
I1118 18:17:51.423899  2691 net.cpp:434] prod1-dsn5 <- conv5_3_relu5_3_0_split_2
I1118 18:17:51.423902  2691 net.cpp:434] prod1-dsn5 <- weight-dsn5
I1118 18:17:51.423907  2691 net.cpp:408] prod1-dsn5 -> prod1-dsn5
I1118 18:17:51.423933  2691 net.cpp:150] Setting up prod1-dsn5
I1118 18:17:51.423936  2691 net.cpp:157] Top shape: 1 512 32 32 (524288)
I1118 18:17:51.423938  2691 net.cpp:165] Memory required for data: 914406352
I1118 18:17:51.423941  2691 layer_factory.hpp:77] Creating layer conv1-dsn5
I1118 18:17:51.423949  2691 net.cpp:100] Creating Layer conv1-dsn5
I1118 18:17:51.423951  2691 net.cpp:434] conv1-dsn5 <- prod1-dsn5
I1118 18:17:51.423957  2691 net.cpp:408] conv1-dsn5 -> conv1-dsn5
I1118 18:17:51.426118  2691 net.cpp:150] Setting up conv1-dsn5
I1118 18:17:51.426129  2691 net.cpp:157] Top shape: 1 64 32 32 (65536)
I1118 18:17:51.426132  2691 net.cpp:165] Memory required for data: 914668496
I1118 18:17:51.426137  2691 layer_factory.hpp:77] Creating layer conv2-dsn5
I1118 18:17:51.426146  2691 net.cpp:100] Creating Layer conv2-dsn5
I1118 18:17:51.426148  2691 net.cpp:434] conv2-dsn5 <- conv1-dsn5
I1118 18:17:51.426154  2691 net.cpp:408] conv2-dsn5 -> conv2-dsn5
I1118 18:17:51.426978  2691 net.cpp:150] Setting up conv2-dsn5
I1118 18:17:51.426988  2691 net.cpp:157] Top shape: 1 64 32 32 (65536)
I1118 18:17:51.426990  2691 net.cpp:165] Memory required for data: 914930640
I1118 18:17:51.426995  2691 layer_factory.hpp:77] Creating layer relu1-dsn5
I1118 18:17:51.427000  2691 net.cpp:100] Creating Layer relu1-dsn5
I1118 18:17:51.427003  2691 net.cpp:434] relu1-dsn5 <- conv2-dsn5
I1118 18:17:51.427007  2691 net.cpp:395] relu1-dsn5 -> conv2-dsn5 (in-place)
I1118 18:17:51.427063  2691 net.cpp:150] Setting up relu1-dsn5
I1118 18:17:51.427068  2691 net.cpp:157] Top shape: 1 64 32 32 (65536)
I1118 18:17:51.427071  2691 net.cpp:165] Memory required for data: 915192784
I1118 18:17:51.427074  2691 layer_factory.hpp:77] Creating layer conv3-dsn5
I1118 18:17:51.427086  2691 net.cpp:100] Creating Layer conv3-dsn5
I1118 18:17:51.427088  2691 net.cpp:434] conv3-dsn5 <- conv2-dsn5
I1118 18:17:51.427094  2691 net.cpp:408] conv3-dsn5 -> conv3-dsn5
I1118 18:17:51.428000  2691 net.cpp:150] Setting up conv3-dsn5
I1118 18:17:51.428010  2691 net.cpp:157] Top shape: 1 64 32 32 (65536)
I1118 18:17:51.428014  2691 net.cpp:165] Memory required for data: 915454928
I1118 18:17:51.428019  2691 layer_factory.hpp:77] Creating layer relu2-dsn5
I1118 18:17:51.428023  2691 net.cpp:100] Creating Layer relu2-dsn5
I1118 18:17:51.428025  2691 net.cpp:434] relu2-dsn5 <- conv3-dsn5
I1118 18:17:51.428031  2691 net.cpp:395] relu2-dsn5 -> conv3-dsn5 (in-place)
I1118 18:17:51.428170  2691 net.cpp:150] Setting up relu2-dsn5
I1118 18:17:51.428179  2691 net.cpp:157] Top shape: 1 64 32 32 (65536)
I1118 18:17:51.428181  2691 net.cpp:165] Memory required for data: 915717072
I1118 18:17:51.428184  2691 layer_factory.hpp:77] Creating layer conv4-dsn5
I1118 18:17:51.428200  2691 net.cpp:100] Creating Layer conv4-dsn5
I1118 18:17:51.428202  2691 net.cpp:434] conv4-dsn5 <- conv3-dsn5
I1118 18:17:51.428207  2691 net.cpp:408] conv4-dsn5 -> conv4-dsn5
I1118 18:17:51.428691  2691 net.cpp:150] Setting up conv4-dsn5
I1118 18:17:51.428702  2691 net.cpp:157] Top shape: 1 1 32 32 (1024)
I1118 18:17:51.428704  2691 net.cpp:165] Memory required for data: 915721168
I1118 18:17:51.428709  2691 layer_factory.hpp:77] Creating layer sum-dsn5
I1118 18:17:51.428720  2691 net.cpp:100] Creating Layer sum-dsn5
I1118 18:17:51.428723  2691 net.cpp:434] sum-dsn5 <- conv4-dsn5
I1118 18:17:51.428727  2691 net.cpp:434] sum-dsn5 <- weight-dsn6-5_crop1-dsn5_0_split_1
I1118 18:17:51.428730  2691 net.cpp:408] sum-dsn5 -> sum-dsn5
I1118 18:17:51.428746  2691 net.cpp:150] Setting up sum-dsn5
I1118 18:17:51.428750  2691 net.cpp:157] Top shape: 1 1 32 32 (1024)
I1118 18:17:51.428752  2691 net.cpp:165] Memory required for data: 915725264
I1118 18:17:51.428756  2691 layer_factory.hpp:77] Creating layer sum-dsn5_sum-dsn5_0_split
I1118 18:17:51.428761  2691 net.cpp:100] Creating Layer sum-dsn5_sum-dsn5_0_split
I1118 18:17:51.428762  2691 net.cpp:434] sum-dsn5_sum-dsn5_0_split <- sum-dsn5
I1118 18:17:51.428766  2691 net.cpp:408] sum-dsn5_sum-dsn5_0_split -> sum-dsn5_sum-dsn5_0_split_0
I1118 18:17:51.428771  2691 net.cpp:408] sum-dsn5_sum-dsn5_0_split -> sum-dsn5_sum-dsn5_0_split_1
I1118 18:17:51.428797  2691 net.cpp:150] Setting up sum-dsn5_sum-dsn5_0_split
I1118 18:17:51.428804  2691 net.cpp:157] Top shape: 1 1 32 32 (1024)
I1118 18:17:51.428807  2691 net.cpp:157] Top shape: 1 1 32 32 (1024)
I1118 18:17:51.428808  2691 net.cpp:165] Memory required for data: 915733456
I1118 18:17:51.428810  2691 layer_factory.hpp:77] Creating layer upsample16_dsn5
I1118 18:17:51.428817  2691 net.cpp:100] Creating Layer upsample16_dsn5
I1118 18:17:51.428818  2691 net.cpp:434] upsample16_dsn5 <- sum-dsn5_sum-dsn5_0_split_0
I1118 18:17:51.428823  2691 net.cpp:408] upsample16_dsn5 -> sum-dsn5-up
I1118 18:17:51.429952  2691 net.cpp:150] Setting up upsample16_dsn5
I1118 18:17:51.429962  2691 net.cpp:157] Top shape: 1 1 528 528 (278784)
I1118 18:17:51.429965  2691 net.cpp:165] Memory required for data: 916848592
I1118 18:17:51.429968  2691 layer_factory.hpp:77] Creating layer crop2-dsn5
I1118 18:17:51.429973  2691 net.cpp:100] Creating Layer crop2-dsn5
I1118 18:17:51.429976  2691 net.cpp:434] crop2-dsn5 <- sum-dsn5-up
I1118 18:17:51.429980  2691 net.cpp:434] crop2-dsn5 <- data_data_0_split_2
I1118 18:17:51.429985  2691 net.cpp:408] crop2-dsn5 -> upscore-dsn5
I1118 18:17:51.430006  2691 net.cpp:150] Setting up crop2-dsn5
I1118 18:17:51.430011  2691 net.cpp:157] Top shape: 1 1 500 500 (250000)
I1118 18:17:51.430011  2691 net.cpp:165] Memory required for data: 917848592
I1118 18:17:51.430016  2691 layer_factory.hpp:77] Creating layer loss5-score
I1118 18:17:51.430022  2691 net.cpp:100] Creating Layer loss5-score
I1118 18:17:51.430025  2691 net.cpp:434] loss5-score <- upscore-dsn5
I1118 18:17:51.430028  2691 net.cpp:434] loss5-score <- label_data_1_split_1
I1118 18:17:51.430032  2691 net.cpp:408] loss5-score -> loss5-score
I1118 18:17:51.430228  2691 net.cpp:150] Setting up loss5-score
I1118 18:17:51.430235  2691 net.cpp:157] Top shape: (1)
I1118 18:17:51.430236  2691 net.cpp:160]     with loss weight 1
I1118 18:17:51.430246  2691 net.cpp:165] Memory required for data: 917848596
I1118 18:17:51.430249  2691 layer_factory.hpp:77] Creating layer upsample2_dsn4
I1118 18:17:51.430258  2691 net.cpp:100] Creating Layer upsample2_dsn4
I1118 18:17:51.430259  2691 net.cpp:434] upsample2_dsn4 <- sum-dsn5_sum-dsn5_0_split_1
I1118 18:17:51.430265  2691 net.cpp:408] upsample2_dsn4 -> sum-dsn5-4
I1118 18:17:51.430459  2691 net.cpp:150] Setting up upsample2_dsn4
I1118 18:17:51.430466  2691 net.cpp:157] Top shape: 1 1 66 66 (4356)
I1118 18:17:51.430469  2691 net.cpp:165] Memory required for data: 917866020
I1118 18:17:51.430472  2691 layer_factory.hpp:77] Creating layer crop1-dsn4
I1118 18:17:51.430477  2691 net.cpp:100] Creating Layer crop1-dsn4
I1118 18:17:51.430480  2691 net.cpp:434] crop1-dsn4 <- sum-dsn5-4
I1118 18:17:51.430483  2691 net.cpp:434] crop1-dsn4 <- conv4_3_relu4_3_0_split_1
I1118 18:17:51.430487  2691 net.cpp:408] crop1-dsn4 -> weight-dsn5-4
I1118 18:17:51.430514  2691 net.cpp:150] Setting up crop1-dsn4
I1118 18:17:51.430521  2691 net.cpp:157] Top shape: 1 1 63 63 (3969)
I1118 18:17:51.430522  2691 net.cpp:165] Memory required for data: 917881896
I1118 18:17:51.430526  2691 layer_factory.hpp:77] Creating layer weight-dsn5-4_crop1-dsn4_0_split
I1118 18:17:51.430531  2691 net.cpp:100] Creating Layer weight-dsn5-4_crop1-dsn4_0_split
I1118 18:17:51.430533  2691 net.cpp:434] weight-dsn5-4_crop1-dsn4_0_split <- weight-dsn5-4
I1118 18:17:51.430538  2691 net.cpp:408] weight-dsn5-4_crop1-dsn4_0_split -> weight-dsn5-4_crop1-dsn4_0_split_0
I1118 18:17:51.430542  2691 net.cpp:408] weight-dsn5-4_crop1-dsn4_0_split -> weight-dsn5-4_crop1-dsn4_0_split_1
I1118 18:17:51.430568  2691 net.cpp:150] Setting up weight-dsn5-4_crop1-dsn4_0_split
I1118 18:17:51.430572  2691 net.cpp:157] Top shape: 1 1 63 63 (3969)
I1118 18:17:51.430575  2691 net.cpp:157] Top shape: 1 1 63 63 (3969)
I1118 18:17:51.430577  2691 net.cpp:165] Memory required for data: 917913648
I1118 18:17:51.430586  2691 layer_factory.hpp:77] Creating layer sigmoid-dsn4
I1118 18:17:51.430591  2691 net.cpp:100] Creating Layer sigmoid-dsn4
I1118 18:17:51.430594  2691 net.cpp:434] sigmoid-dsn4 <- weight-dsn5-4_crop1-dsn4_0_split_0
I1118 18:17:51.430598  2691 net.cpp:408] sigmoid-dsn4 -> sigmoid-dsn4
I1118 18:17:51.430785  2691 net.cpp:150] Setting up sigmoid-dsn4
I1118 18:17:51.430795  2691 net.cpp:157] Top shape: 1 1 63 63 (3969)
I1118 18:17:51.430797  2691 net.cpp:165] Memory required for data: 917929524
I1118 18:17:51.430800  2691 layer_factory.hpp:77] Creating layer rev-dsn4
I1118 18:17:51.430806  2691 net.cpp:100] Creating Layer rev-dsn4
I1118 18:17:51.430809  2691 net.cpp:434] rev-dsn4 <- sigmoid-dsn4
I1118 18:17:51.430826  2691 net.cpp:408] rev-dsn4 -> rev-dsn4
I1118 18:17:51.430847  2691 net.cpp:150] Setting up rev-dsn4
I1118 18:17:51.430852  2691 net.cpp:157] Top shape: 1 1 63 63 (3969)
I1118 18:17:51.430855  2691 net.cpp:165] Memory required for data: 917945400
I1118 18:17:51.430857  2691 layer_factory.hpp:77] Creating layer tile-dsn4
I1118 18:17:51.430862  2691 net.cpp:100] Creating Layer tile-dsn4
I1118 18:17:51.430864  2691 net.cpp:434] tile-dsn4 <- rev-dsn4
I1118 18:17:51.430869  2691 net.cpp:408] tile-dsn4 -> weight-dsn4
I1118 18:17:51.430886  2691 net.cpp:150] Setting up tile-dsn4
I1118 18:17:51.430889  2691 net.cpp:157] Top shape: 1 512 63 63 (2032128)
I1118 18:17:51.430891  2691 net.cpp:165] Memory required for data: 926073912
I1118 18:17:51.430896  2691 layer_factory.hpp:77] Creating layer prod1-dsn4
I1118 18:17:51.430902  2691 net.cpp:100] Creating Layer prod1-dsn4
I1118 18:17:51.430904  2691 net.cpp:434] prod1-dsn4 <- conv4_3_relu4_3_0_split_2
I1118 18:17:51.430907  2691 net.cpp:434] prod1-dsn4 <- weight-dsn4
I1118 18:17:51.430912  2691 net.cpp:408] prod1-dsn4 -> prod1-dsn4
I1118 18:17:51.430927  2691 net.cpp:150] Setting up prod1-dsn4
I1118 18:17:51.430930  2691 net.cpp:157] Top shape: 1 512 63 63 (2032128)
I1118 18:17:51.430932  2691 net.cpp:165] Memory required for data: 934202424
I1118 18:17:51.430934  2691 layer_factory.hpp:77] Creating layer conv1-dsn4
I1118 18:17:51.430943  2691 net.cpp:100] Creating Layer conv1-dsn4
I1118 18:17:51.430946  2691 net.cpp:434] conv1-dsn4 <- prod1-dsn4
I1118 18:17:51.430953  2691 net.cpp:408] conv1-dsn4 -> conv1-dsn4
I1118 18:17:51.433362  2691 net.cpp:150] Setting up conv1-dsn4
I1118 18:17:51.433374  2691 net.cpp:157] Top shape: 1 64 63 63 (254016)
I1118 18:17:51.433387  2691 net.cpp:165] Memory required for data: 935218488
I1118 18:17:51.433393  2691 layer_factory.hpp:77] Creating layer conv2-dsn4
I1118 18:17:51.433401  2691 net.cpp:100] Creating Layer conv2-dsn4
I1118 18:17:51.433404  2691 net.cpp:434] conv2-dsn4 <- conv1-dsn4
I1118 18:17:51.433411  2691 net.cpp:408] conv2-dsn4 -> conv2-dsn4
I1118 18:17:51.434357  2691 net.cpp:150] Setting up conv2-dsn4
I1118 18:17:51.434368  2691 net.cpp:157] Top shape: 1 64 63 63 (254016)
I1118 18:17:51.434370  2691 net.cpp:165] Memory required for data: 936234552
I1118 18:17:51.434376  2691 layer_factory.hpp:77] Creating layer relu1-dsn4
I1118 18:17:51.434381  2691 net.cpp:100] Creating Layer relu1-dsn4
I1118 18:17:51.434383  2691 net.cpp:434] relu1-dsn4 <- conv2-dsn4
I1118 18:17:51.434388  2691 net.cpp:395] relu1-dsn4 -> conv2-dsn4 (in-place)
I1118 18:17:51.434548  2691 net.cpp:150] Setting up relu1-dsn4
I1118 18:17:51.434558  2691 net.cpp:157] Top shape: 1 64 63 63 (254016)
I1118 18:17:51.434561  2691 net.cpp:165] Memory required for data: 937250616
I1118 18:17:51.434566  2691 layer_factory.hpp:77] Creating layer conv3-dsn4
I1118 18:17:51.434573  2691 net.cpp:100] Creating Layer conv3-dsn4
I1118 18:17:51.434576  2691 net.cpp:434] conv3-dsn4 <- conv2-dsn4
I1118 18:17:51.434582  2691 net.cpp:408] conv3-dsn4 -> conv3-dsn4
I1118 18:17:51.435355  2691 net.cpp:150] Setting up conv3-dsn4
I1118 18:17:51.435364  2691 net.cpp:157] Top shape: 1 64 63 63 (254016)
I1118 18:17:51.435367  2691 net.cpp:165] Memory required for data: 938266680
I1118 18:17:51.435371  2691 layer_factory.hpp:77] Creating layer relu2-dsn4
I1118 18:17:51.435376  2691 net.cpp:100] Creating Layer relu2-dsn4
I1118 18:17:51.435379  2691 net.cpp:434] relu2-dsn4 <- conv3-dsn4
I1118 18:17:51.435384  2691 net.cpp:395] relu2-dsn4 -> conv3-dsn4 (in-place)
I1118 18:17:51.435523  2691 net.cpp:150] Setting up relu2-dsn4
I1118 18:17:51.435547  2691 net.cpp:157] Top shape: 1 64 63 63 (254016)
I1118 18:17:51.435549  2691 net.cpp:165] Memory required for data: 939282744
I1118 18:17:51.435552  2691 layer_factory.hpp:77] Creating layer conv4-dsn4
I1118 18:17:51.435560  2691 net.cpp:100] Creating Layer conv4-dsn4
I1118 18:17:51.435562  2691 net.cpp:434] conv4-dsn4 <- conv3-dsn4
I1118 18:17:51.435569  2691 net.cpp:408] conv4-dsn4 -> conv4-dsn4
I1118 18:17:51.436137  2691 net.cpp:150] Setting up conv4-dsn4
I1118 18:17:51.436147  2691 net.cpp:157] Top shape: 1 1 63 63 (3969)
I1118 18:17:51.436149  2691 net.cpp:165] Memory required for data: 939298620
I1118 18:17:51.436153  2691 layer_factory.hpp:77] Creating layer sum-dsn4
I1118 18:17:51.436161  2691 net.cpp:100] Creating Layer sum-dsn4
I1118 18:17:51.436163  2691 net.cpp:434] sum-dsn4 <- conv4-dsn4
I1118 18:17:51.436167  2691 net.cpp:434] sum-dsn4 <- weight-dsn5-4_crop1-dsn4_0_split_1
I1118 18:17:51.436172  2691 net.cpp:408] sum-dsn4 -> sum-dsn4
I1118 18:17:51.436190  2691 net.cpp:150] Setting up sum-dsn4
I1118 18:17:51.436194  2691 net.cpp:157] Top shape: 1 1 63 63 (3969)
I1118 18:17:51.436197  2691 net.cpp:165] Memory required for data: 939314496
I1118 18:17:51.436198  2691 layer_factory.hpp:77] Creating layer sum-dsn4_sum-dsn4_0_split
I1118 18:17:51.436203  2691 net.cpp:100] Creating Layer sum-dsn4_sum-dsn4_0_split
I1118 18:17:51.436205  2691 net.cpp:434] sum-dsn4_sum-dsn4_0_split <- sum-dsn4
I1118 18:17:51.436209  2691 net.cpp:408] sum-dsn4_sum-dsn4_0_split -> sum-dsn4_sum-dsn4_0_split_0
I1118 18:17:51.436214  2691 net.cpp:408] sum-dsn4_sum-dsn4_0_split -> sum-dsn4_sum-dsn4_0_split_1
I1118 18:17:51.436239  2691 net.cpp:150] Setting up sum-dsn4_sum-dsn4_0_split
I1118 18:17:51.436246  2691 net.cpp:157] Top shape: 1 1 63 63 (3969)
I1118 18:17:51.436249  2691 net.cpp:157] Top shape: 1 1 63 63 (3969)
I1118 18:17:51.436250  2691 net.cpp:165] Memory required for data: 939346248
I1118 18:17:51.436252  2691 layer_factory.hpp:77] Creating layer upsample8_dsn4
I1118 18:17:51.436259  2691 net.cpp:100] Creating Layer upsample8_dsn4
I1118 18:17:51.436260  2691 net.cpp:434] upsample8_dsn4 <- sum-dsn4_sum-dsn4_0_split_0
I1118 18:17:51.436264  2691 net.cpp:408] upsample8_dsn4 -> sum-dsn4-up
I1118 18:17:51.437395  2691 net.cpp:150] Setting up upsample8_dsn4
I1118 18:17:51.437404  2691 net.cpp:157] Top shape: 1 1 512 512 (262144)
I1118 18:17:51.437422  2691 net.cpp:165] Memory required for data: 940394824
I1118 18:17:51.437427  2691 layer_factory.hpp:77] Creating layer crop2-dsn4
I1118 18:17:51.437434  2691 net.cpp:100] Creating Layer crop2-dsn4
I1118 18:17:51.437438  2691 net.cpp:434] crop2-dsn4 <- sum-dsn4-up
I1118 18:17:51.437441  2691 net.cpp:434] crop2-dsn4 <- data_data_0_split_3
I1118 18:17:51.437446  2691 net.cpp:408] crop2-dsn4 -> upscore-dsn4
I1118 18:17:51.437469  2691 net.cpp:150] Setting up crop2-dsn4
I1118 18:17:51.437474  2691 net.cpp:157] Top shape: 1 1 500 500 (250000)
I1118 18:17:51.437474  2691 net.cpp:165] Memory required for data: 941394824
I1118 18:17:51.437477  2691 layer_factory.hpp:77] Creating layer loss4-score
I1118 18:17:51.437482  2691 net.cpp:100] Creating Layer loss4-score
I1118 18:17:51.437485  2691 net.cpp:434] loss4-score <- upscore-dsn4
I1118 18:17:51.437489  2691 net.cpp:434] loss4-score <- label_data_1_split_2
I1118 18:17:51.437494  2691 net.cpp:408] loss4-score -> loss4-score
I1118 18:17:51.437711  2691 net.cpp:150] Setting up loss4-score
I1118 18:17:51.437717  2691 net.cpp:157] Top shape: (1)
I1118 18:17:51.437719  2691 net.cpp:160]     with loss weight 1
I1118 18:17:51.437726  2691 net.cpp:165] Memory required for data: 941394828
I1118 18:17:51.437727  2691 layer_factory.hpp:77] Creating layer upsample2_dsn3
I1118 18:17:51.437733  2691 net.cpp:100] Creating Layer upsample2_dsn3
I1118 18:17:51.437736  2691 net.cpp:434] upsample2_dsn3 <- sum-dsn4_sum-dsn4_0_split_1
I1118 18:17:51.437741  2691 net.cpp:408] upsample2_dsn3 -> sum-dsn4-3
I1118 18:17:51.437921  2691 net.cpp:150] Setting up upsample2_dsn3
I1118 18:17:51.437927  2691 net.cpp:157] Top shape: 1 1 128 128 (16384)
I1118 18:17:51.437929  2691 net.cpp:165] Memory required for data: 941460364
I1118 18:17:51.437933  2691 layer_factory.hpp:77] Creating layer crop1-dsn3
I1118 18:17:51.437937  2691 net.cpp:100] Creating Layer crop1-dsn3
I1118 18:17:51.437942  2691 net.cpp:434] crop1-dsn3 <- sum-dsn4-3
I1118 18:17:51.437944  2691 net.cpp:434] crop1-dsn3 <- conv3_3_relu3_3_0_split_1
I1118 18:17:51.437948  2691 net.cpp:408] crop1-dsn3 -> weight-dsn4-3
I1118 18:17:51.437966  2691 net.cpp:150] Setting up crop1-dsn3
I1118 18:17:51.437973  2691 net.cpp:157] Top shape: 1 1 125 125 (15625)
I1118 18:17:51.437975  2691 net.cpp:165] Memory required for data: 941522864
I1118 18:17:51.437978  2691 layer_factory.hpp:77] Creating layer weight-dsn4-3_crop1-dsn3_0_split
I1118 18:17:51.437983  2691 net.cpp:100] Creating Layer weight-dsn4-3_crop1-dsn3_0_split
I1118 18:17:51.437986  2691 net.cpp:434] weight-dsn4-3_crop1-dsn3_0_split <- weight-dsn4-3
I1118 18:17:51.437991  2691 net.cpp:408] weight-dsn4-3_crop1-dsn3_0_split -> weight-dsn4-3_crop1-dsn3_0_split_0
I1118 18:17:51.437996  2691 net.cpp:408] weight-dsn4-3_crop1-dsn3_0_split -> weight-dsn4-3_crop1-dsn3_0_split_1
I1118 18:17:51.438020  2691 net.cpp:150] Setting up weight-dsn4-3_crop1-dsn3_0_split
I1118 18:17:51.438027  2691 net.cpp:157] Top shape: 1 1 125 125 (15625)
I1118 18:17:51.438030  2691 net.cpp:157] Top shape: 1 1 125 125 (15625)
I1118 18:17:51.438031  2691 net.cpp:165] Memory required for data: 941647864
I1118 18:17:51.438033  2691 layer_factory.hpp:77] Creating layer sigmoid-dsn3
I1118 18:17:51.438038  2691 net.cpp:100] Creating Layer sigmoid-dsn3
I1118 18:17:51.438041  2691 net.cpp:434] sigmoid-dsn3 <- weight-dsn4-3_crop1-dsn3_0_split_0
I1118 18:17:51.438045  2691 net.cpp:408] sigmoid-dsn3 -> sigmoid-dsn3
I1118 18:17:51.438153  2691 net.cpp:150] Setting up sigmoid-dsn3
I1118 18:17:51.438161  2691 net.cpp:157] Top shape: 1 1 125 125 (15625)
I1118 18:17:51.438163  2691 net.cpp:165] Memory required for data: 941710364
I1118 18:17:51.438166  2691 layer_factory.hpp:77] Creating layer rev-dsn3
I1118 18:17:51.438171  2691 net.cpp:100] Creating Layer rev-dsn3
I1118 18:17:51.438174  2691 net.cpp:434] rev-dsn3 <- sigmoid-dsn3
I1118 18:17:51.438179  2691 net.cpp:408] rev-dsn3 -> rev-dsn3
I1118 18:17:51.438195  2691 net.cpp:150] Setting up rev-dsn3
I1118 18:17:51.438199  2691 net.cpp:157] Top shape: 1 1 125 125 (15625)
I1118 18:17:51.438201  2691 net.cpp:165] Memory required for data: 941772864
I1118 18:17:51.438203  2691 layer_factory.hpp:77] Creating layer tile-dsn3
I1118 18:17:51.438220  2691 net.cpp:100] Creating Layer tile-dsn3
I1118 18:17:51.438222  2691 net.cpp:434] tile-dsn3 <- rev-dsn3
I1118 18:17:51.438226  2691 net.cpp:408] tile-dsn3 -> weight-dsn3
I1118 18:17:51.438244  2691 net.cpp:150] Setting up tile-dsn3
I1118 18:17:51.438247  2691 net.cpp:157] Top shape: 1 256 125 125 (4000000)
I1118 18:17:51.438249  2691 net.cpp:165] Memory required for data: 957772864
I1118 18:17:51.438252  2691 layer_factory.hpp:77] Creating layer prod1-dsn3
I1118 18:17:51.438256  2691 net.cpp:100] Creating Layer prod1-dsn3
I1118 18:17:51.438259  2691 net.cpp:434] prod1-dsn3 <- conv3_3_relu3_3_0_split_2
I1118 18:17:51.438262  2691 net.cpp:434] prod1-dsn3 <- weight-dsn3
I1118 18:17:51.438267  2691 net.cpp:408] prod1-dsn3 -> prod1-dsn3
I1118 18:17:51.438282  2691 net.cpp:150] Setting up prod1-dsn3
I1118 18:17:51.438287  2691 net.cpp:157] Top shape: 1 256 125 125 (4000000)
I1118 18:17:51.438287  2691 net.cpp:165] Memory required for data: 973772864
I1118 18:17:51.438290  2691 layer_factory.hpp:77] Creating layer conv1-dsn3
I1118 18:17:51.438297  2691 net.cpp:100] Creating Layer conv1-dsn3
I1118 18:17:51.438304  2691 net.cpp:434] conv1-dsn3 <- prod1-dsn3
I1118 18:17:51.438309  2691 net.cpp:408] conv1-dsn3 -> conv1-dsn3
I1118 18:17:51.440038  2691 net.cpp:150] Setting up conv1-dsn3
I1118 18:17:51.440049  2691 net.cpp:157] Top shape: 1 64 125 125 (1000000)
I1118 18:17:51.440052  2691 net.cpp:165] Memory required for data: 977772864
I1118 18:17:51.440065  2691 layer_factory.hpp:77] Creating layer conv2-dsn3
I1118 18:17:51.440075  2691 net.cpp:100] Creating Layer conv2-dsn3
I1118 18:17:51.440078  2691 net.cpp:434] conv2-dsn3 <- conv1-dsn3
I1118 18:17:51.440083  2691 net.cpp:408] conv2-dsn3 -> conv2-dsn3
I1118 18:17:51.440878  2691 net.cpp:150] Setting up conv2-dsn3
I1118 18:17:51.440889  2691 net.cpp:157] Top shape: 1 64 125 125 (1000000)
I1118 18:17:51.440891  2691 net.cpp:165] Memory required for data: 981772864
I1118 18:17:51.440896  2691 layer_factory.hpp:77] Creating layer relu1-dsn3
I1118 18:17:51.440903  2691 net.cpp:100] Creating Layer relu1-dsn3
I1118 18:17:51.440906  2691 net.cpp:434] relu1-dsn3 <- conv2-dsn3
I1118 18:17:51.440912  2691 net.cpp:395] relu1-dsn3 -> conv2-dsn3 (in-place)
I1118 18:17:51.441047  2691 net.cpp:150] Setting up relu1-dsn3
I1118 18:17:51.441056  2691 net.cpp:157] Top shape: 1 64 125 125 (1000000)
I1118 18:17:51.441058  2691 net.cpp:165] Memory required for data: 985772864
I1118 18:17:51.441061  2691 layer_factory.hpp:77] Creating layer conv3-dsn3
I1118 18:17:51.441068  2691 net.cpp:100] Creating Layer conv3-dsn3
I1118 18:17:51.441078  2691 net.cpp:434] conv3-dsn3 <- conv2-dsn3
I1118 18:17:51.441084  2691 net.cpp:408] conv3-dsn3 -> conv3-dsn3
I1118 18:17:51.441978  2691 net.cpp:150] Setting up conv3-dsn3
I1118 18:17:51.441989  2691 net.cpp:157] Top shape: 1 64 125 125 (1000000)
I1118 18:17:51.441992  2691 net.cpp:165] Memory required for data: 989772864
I1118 18:17:51.441996  2691 layer_factory.hpp:77] Creating layer relu2-dsn3
I1118 18:17:51.442000  2691 net.cpp:100] Creating Layer relu2-dsn3
I1118 18:17:51.442003  2691 net.cpp:434] relu2-dsn3 <- conv3-dsn3
I1118 18:17:51.442008  2691 net.cpp:395] relu2-dsn3 -> conv3-dsn3 (in-place)
I1118 18:17:51.442062  2691 net.cpp:150] Setting up relu2-dsn3
I1118 18:17:51.442072  2691 net.cpp:157] Top shape: 1 64 125 125 (1000000)
I1118 18:17:51.442075  2691 net.cpp:165] Memory required for data: 993772864
I1118 18:17:51.442076  2691 layer_factory.hpp:77] Creating layer conv4-dsn3
I1118 18:17:51.442088  2691 net.cpp:100] Creating Layer conv4-dsn3
I1118 18:17:51.442090  2691 net.cpp:434] conv4-dsn3 <- conv3-dsn3
I1118 18:17:51.442095  2691 net.cpp:408] conv4-dsn3 -> conv4-dsn3
I1118 18:17:51.442713  2691 net.cpp:150] Setting up conv4-dsn3
I1118 18:17:51.442724  2691 net.cpp:157] Top shape: 1 1 125 125 (15625)
I1118 18:17:51.442726  2691 net.cpp:165] Memory required for data: 993835364
I1118 18:17:51.442731  2691 layer_factory.hpp:77] Creating layer sum-dsn3
I1118 18:17:51.442737  2691 net.cpp:100] Creating Layer sum-dsn3
I1118 18:17:51.442740  2691 net.cpp:434] sum-dsn3 <- conv4-dsn3
I1118 18:17:51.442744  2691 net.cpp:434] sum-dsn3 <- weight-dsn4-3_crop1-dsn3_0_split_1
I1118 18:17:51.442749  2691 net.cpp:408] sum-dsn3 -> sum-dsn3
I1118 18:17:51.442770  2691 net.cpp:150] Setting up sum-dsn3
I1118 18:17:51.442775  2691 net.cpp:157] Top shape: 1 1 125 125 (15625)
I1118 18:17:51.442776  2691 net.cpp:165] Memory required for data: 993897864
I1118 18:17:51.442778  2691 layer_factory.hpp:77] Creating layer sum-dsn3_sum-dsn3_0_split
I1118 18:17:51.442783  2691 net.cpp:100] Creating Layer sum-dsn3_sum-dsn3_0_split
I1118 18:17:51.442786  2691 net.cpp:434] sum-dsn3_sum-dsn3_0_split <- sum-dsn3
I1118 18:17:51.442790  2691 net.cpp:408] sum-dsn3_sum-dsn3_0_split -> sum-dsn3_sum-dsn3_0_split_0
I1118 18:17:51.442795  2691 net.cpp:408] sum-dsn3_sum-dsn3_0_split -> sum-dsn3_sum-dsn3_0_split_1
I1118 18:17:51.442823  2691 net.cpp:150] Setting up sum-dsn3_sum-dsn3_0_split
I1118 18:17:51.442827  2691 net.cpp:157] Top shape: 1 1 125 125 (15625)
I1118 18:17:51.442831  2691 net.cpp:157] Top shape: 1 1 125 125 (15625)
I1118 18:17:51.442832  2691 net.cpp:165] Memory required for data: 994022864
I1118 18:17:51.442833  2691 layer_factory.hpp:77] Creating layer upsample4_dsn3
I1118 18:17:51.442839  2691 net.cpp:100] Creating Layer upsample4_dsn3
I1118 18:17:51.442842  2691 net.cpp:434] upsample4_dsn3 <- sum-dsn3_sum-dsn3_0_split_0
I1118 18:17:51.442845  2691 net.cpp:408] upsample4_dsn3 -> sum-dsn3-up
I1118 18:17:51.443949  2691 net.cpp:150] Setting up upsample4_dsn3
I1118 18:17:51.443959  2691 net.cpp:157] Top shape: 1 1 504 504 (254016)
I1118 18:17:51.443962  2691 net.cpp:165] Memory required for data: 995038928
I1118 18:17:51.443969  2691 layer_factory.hpp:77] Creating layer crop2-dsn3
I1118 18:17:51.443974  2691 net.cpp:100] Creating Layer crop2-dsn3
I1118 18:17:51.443976  2691 net.cpp:434] crop2-dsn3 <- sum-dsn3-up
I1118 18:17:51.443980  2691 net.cpp:434] crop2-dsn3 <- data_data_0_split_4
I1118 18:17:51.443984  2691 net.cpp:408] crop2-dsn3 -> upscore-dsn3
I1118 18:17:51.444007  2691 net.cpp:150] Setting up crop2-dsn3
I1118 18:17:51.444011  2691 net.cpp:157] Top shape: 1 1 500 500 (250000)
I1118 18:17:51.444012  2691 net.cpp:165] Memory required for data: 996038928
I1118 18:17:51.444015  2691 layer_factory.hpp:77] Creating layer loss3-score
I1118 18:17:51.444020  2691 net.cpp:100] Creating Layer loss3-score
I1118 18:17:51.444022  2691 net.cpp:434] loss3-score <- upscore-dsn3
I1118 18:17:51.444025  2691 net.cpp:434] loss3-score <- label_data_1_split_3
I1118 18:17:51.444030  2691 net.cpp:408] loss3-score -> loss3-score
I1118 18:17:51.444221  2691 net.cpp:150] Setting up loss3-score
I1118 18:17:51.444226  2691 net.cpp:157] Top shape: (1)
I1118 18:17:51.444228  2691 net.cpp:160]     with loss weight 1
I1118 18:17:51.444234  2691 net.cpp:165] Memory required for data: 996038932
I1118 18:17:51.444236  2691 layer_factory.hpp:77] Creating layer upsample2_1-dsn2
I1118 18:17:51.444243  2691 net.cpp:100] Creating Layer upsample2_1-dsn2
I1118 18:17:51.444247  2691 net.cpp:434] upsample2_1-dsn2 <- sum-dsn3_sum-dsn3_0_split_1
I1118 18:17:51.444252  2691 net.cpp:408] upsample2_1-dsn2 -> sum-dsn3-2
I1118 18:17:51.445251  2691 net.cpp:150] Setting up upsample2_1-dsn2
I1118 18:17:51.445261  2691 net.cpp:157] Top shape: 1 1 252 252 (63504)
I1118 18:17:51.445263  2691 net.cpp:165] Memory required for data: 996292948
I1118 18:17:51.445271  2691 layer_factory.hpp:77] Creating layer crop1-dsn2
I1118 18:17:51.445276  2691 net.cpp:100] Creating Layer crop1-dsn2
I1118 18:17:51.445278  2691 net.cpp:434] crop1-dsn2 <- sum-dsn3-2
I1118 18:17:51.445282  2691 net.cpp:434] crop1-dsn2 <- conv2_2_relu2_2_0_split_1
I1118 18:17:51.445286  2691 net.cpp:408] crop1-dsn2 -> weight-dsn3-2
I1118 18:17:51.445329  2691 net.cpp:150] Setting up crop1-dsn2
I1118 18:17:51.445333  2691 net.cpp:157] Top shape: 1 1 250 250 (62500)
I1118 18:17:51.445335  2691 net.cpp:165] Memory required for data: 996542948
I1118 18:17:51.445338  2691 layer_factory.hpp:77] Creating layer weight-dsn3-2_crop1-dsn2_0_split
I1118 18:17:51.445343  2691 net.cpp:100] Creating Layer weight-dsn3-2_crop1-dsn2_0_split
I1118 18:17:51.445348  2691 net.cpp:434] weight-dsn3-2_crop1-dsn2_0_split <- weight-dsn3-2
I1118 18:17:51.445353  2691 net.cpp:408] weight-dsn3-2_crop1-dsn2_0_split -> weight-dsn3-2_crop1-dsn2_0_split_0
I1118 18:17:51.445358  2691 net.cpp:408] weight-dsn3-2_crop1-dsn2_0_split -> weight-dsn3-2_crop1-dsn2_0_split_1
I1118 18:17:51.445385  2691 net.cpp:150] Setting up weight-dsn3-2_crop1-dsn2_0_split
I1118 18:17:51.445390  2691 net.cpp:157] Top shape: 1 1 250 250 (62500)
I1118 18:17:51.445394  2691 net.cpp:157] Top shape: 1 1 250 250 (62500)
I1118 18:17:51.445395  2691 net.cpp:165] Memory required for data: 997042948
I1118 18:17:51.445397  2691 layer_factory.hpp:77] Creating layer sigmoid-dsn2
I1118 18:17:51.445403  2691 net.cpp:100] Creating Layer sigmoid-dsn2
I1118 18:17:51.445405  2691 net.cpp:434] sigmoid-dsn2 <- weight-dsn3-2_crop1-dsn2_0_split_0
I1118 18:17:51.445410  2691 net.cpp:408] sigmoid-dsn2 -> sigmoid-dsn2
I1118 18:17:51.445489  2691 net.cpp:150] Setting up sigmoid-dsn2
I1118 18:17:51.445508  2691 net.cpp:157] Top shape: 1 1 250 250 (62500)
I1118 18:17:51.445511  2691 net.cpp:165] Memory required for data: 997292948
I1118 18:17:51.445513  2691 layer_factory.hpp:77] Creating layer rev-dsn2
I1118 18:17:51.445518  2691 net.cpp:100] Creating Layer rev-dsn2
I1118 18:17:51.445521  2691 net.cpp:434] rev-dsn2 <- sigmoid-dsn2
I1118 18:17:51.445541  2691 net.cpp:408] rev-dsn2 -> rev-dsn2
I1118 18:17:51.445561  2691 net.cpp:150] Setting up rev-dsn2
I1118 18:17:51.445566  2691 net.cpp:157] Top shape: 1 1 250 250 (62500)
I1118 18:17:51.445569  2691 net.cpp:165] Memory required for data: 997542948
I1118 18:17:51.445571  2691 layer_factory.hpp:77] Creating layer tile-dsn2
I1118 18:17:51.445577  2691 net.cpp:100] Creating Layer tile-dsn2
I1118 18:17:51.445580  2691 net.cpp:434] tile-dsn2 <- rev-dsn2
I1118 18:17:51.445585  2691 net.cpp:408] tile-dsn2 -> weight-dsn2
I1118 18:17:51.445605  2691 net.cpp:150] Setting up tile-dsn2
I1118 18:17:51.445608  2691 net.cpp:157] Top shape: 1 128 250 250 (8000000)
I1118 18:17:51.445611  2691 net.cpp:165] Memory required for data: 1029542948
I1118 18:17:51.445613  2691 layer_factory.hpp:77] Creating layer prod1-dsn2
I1118 18:17:51.445617  2691 net.cpp:100] Creating Layer prod1-dsn2
I1118 18:17:51.445621  2691 net.cpp:434] prod1-dsn2 <- conv2_2_relu2_2_0_split_2
I1118 18:17:51.445623  2691 net.cpp:434] prod1-dsn2 <- weight-dsn2
I1118 18:17:51.445628  2691 net.cpp:408] prod1-dsn2 -> prod1-dsn2
I1118 18:17:51.445662  2691 net.cpp:150] Setting up prod1-dsn2
I1118 18:17:51.445665  2691 net.cpp:157] Top shape: 1 128 250 250 (8000000)
I1118 18:17:51.445667  2691 net.cpp:165] Memory required for data: 1061542948
I1118 18:17:51.445669  2691 layer_factory.hpp:77] Creating layer conv1-dsn2
I1118 18:17:51.445677  2691 net.cpp:100] Creating Layer conv1-dsn2
I1118 18:17:51.445679  2691 net.cpp:434] conv1-dsn2 <- prod1-dsn2
I1118 18:17:51.445684  2691 net.cpp:408] conv1-dsn2 -> conv1-dsn2
I1118 18:17:51.447278  2691 net.cpp:150] Setting up conv1-dsn2
I1118 18:17:51.447289  2691 net.cpp:157] Top shape: 1 64 250 250 (4000000)
I1118 18:17:51.447291  2691 net.cpp:165] Memory required for data: 1077542948
I1118 18:17:51.447296  2691 layer_factory.hpp:77] Creating layer conv2-dsn2
I1118 18:17:51.447311  2691 net.cpp:100] Creating Layer conv2-dsn2
I1118 18:17:51.447314  2691 net.cpp:434] conv2-dsn2 <- conv1-dsn2
I1118 18:17:51.447319  2691 net.cpp:408] conv2-dsn2 -> conv2-dsn2
I1118 18:17:51.448256  2691 net.cpp:150] Setting up conv2-dsn2
I1118 18:17:51.448266  2691 net.cpp:157] Top shape: 1 64 250 250 (4000000)
I1118 18:17:51.448269  2691 net.cpp:165] Memory required for data: 1093542948
I1118 18:17:51.448273  2691 layer_factory.hpp:77] Creating layer relu1-dsn2
I1118 18:17:51.448278  2691 net.cpp:100] Creating Layer relu1-dsn2
I1118 18:17:51.448282  2691 net.cpp:434] relu1-dsn2 <- conv2-dsn2
I1118 18:17:51.448287  2691 net.cpp:395] relu1-dsn2 -> conv2-dsn2 (in-place)
I1118 18:17:51.448356  2691 net.cpp:150] Setting up relu1-dsn2
I1118 18:17:51.448364  2691 net.cpp:157] Top shape: 1 64 250 250 (4000000)
I1118 18:17:51.448365  2691 net.cpp:165] Memory required for data: 1109542948
I1118 18:17:51.448369  2691 layer_factory.hpp:77] Creating layer conv3-dsn2
I1118 18:17:51.448375  2691 net.cpp:100] Creating Layer conv3-dsn2
I1118 18:17:51.448379  2691 net.cpp:434] conv3-dsn2 <- conv2-dsn2
I1118 18:17:51.448385  2691 net.cpp:408] conv3-dsn2 -> conv3-dsn2
I1118 18:17:51.449259  2691 net.cpp:150] Setting up conv3-dsn2
I1118 18:17:51.449268  2691 net.cpp:157] Top shape: 1 64 250 250 (4000000)
I1118 18:17:51.449270  2691 net.cpp:165] Memory required for data: 1125542948
I1118 18:17:51.449275  2691 layer_factory.hpp:77] Creating layer relu2-dsn2
I1118 18:17:51.449280  2691 net.cpp:100] Creating Layer relu2-dsn2
I1118 18:17:51.449283  2691 net.cpp:434] relu2-dsn2 <- conv3-dsn2
I1118 18:17:51.449287  2691 net.cpp:395] relu2-dsn2 -> conv3-dsn2 (in-place)
I1118 18:17:51.449370  2691 net.cpp:150] Setting up relu2-dsn2
I1118 18:17:51.449378  2691 net.cpp:157] Top shape: 1 64 250 250 (4000000)
I1118 18:17:51.449379  2691 net.cpp:165] Memory required for data: 1141542948
I1118 18:17:51.449383  2691 layer_factory.hpp:77] Creating layer conv4-dsn2
I1118 18:17:51.449391  2691 net.cpp:100] Creating Layer conv4-dsn2
I1118 18:17:51.449394  2691 net.cpp:434] conv4-dsn2 <- conv3-dsn2
I1118 18:17:51.449399  2691 net.cpp:408] conv4-dsn2 -> conv4-dsn2
I1118 18:17:51.449988  2691 net.cpp:150] Setting up conv4-dsn2
I1118 18:17:51.449998  2691 net.cpp:157] Top shape: 1 1 250 250 (62500)
I1118 18:17:51.450001  2691 net.cpp:165] Memory required for data: 1141792948
I1118 18:17:51.450006  2691 layer_factory.hpp:77] Creating layer sum-dsn2
I1118 18:17:51.450011  2691 net.cpp:100] Creating Layer sum-dsn2
I1118 18:17:51.450013  2691 net.cpp:434] sum-dsn2 <- conv4-dsn2
I1118 18:17:51.450017  2691 net.cpp:434] sum-dsn2 <- weight-dsn3-2_crop1-dsn2_0_split_1
I1118 18:17:51.450021  2691 net.cpp:408] sum-dsn2 -> sum-dsn2
I1118 18:17:51.450042  2691 net.cpp:150] Setting up sum-dsn2
I1118 18:17:51.450044  2691 net.cpp:157] Top shape: 1 1 250 250 (62500)
I1118 18:17:51.450047  2691 net.cpp:165] Memory required for data: 1142042948
I1118 18:17:51.450048  2691 layer_factory.hpp:77] Creating layer upsample2_2-dsn2
I1118 18:17:51.450054  2691 net.cpp:100] Creating Layer upsample2_2-dsn2
I1118 18:17:51.450057  2691 net.cpp:434] upsample2_2-dsn2 <- sum-dsn2
I1118 18:17:51.450064  2691 net.cpp:408] upsample2_2-dsn2 -> sum-dsn2-up
I1118 18:17:51.451189  2691 net.cpp:150] Setting up upsample2_2-dsn2
I1118 18:17:51.451200  2691 net.cpp:157] Top shape: 1 1 502 502 (252004)
I1118 18:17:51.451201  2691 net.cpp:165] Memory required for data: 1143050964
I1118 18:17:51.451210  2691 layer_factory.hpp:77] Creating layer crop2-dsn2
I1118 18:17:51.451215  2691 net.cpp:100] Creating Layer crop2-dsn2
I1118 18:17:51.451217  2691 net.cpp:434] crop2-dsn2 <- sum-dsn2-up
I1118 18:17:51.451221  2691 net.cpp:434] crop2-dsn2 <- data_data_0_split_5
I1118 18:17:51.451226  2691 net.cpp:408] crop2-dsn2 -> upscore-dsn2
I1118 18:17:51.451248  2691 net.cpp:150] Setting up crop2-dsn2
I1118 18:17:51.451252  2691 net.cpp:157] Top shape: 1 1 500 500 (250000)
I1118 18:17:51.451254  2691 net.cpp:165] Memory required for data: 1144050964
I1118 18:17:51.451256  2691 layer_factory.hpp:77] Creating layer upscore-dsn2_crop2-dsn2_0_split
I1118 18:17:51.451264  2691 net.cpp:100] Creating Layer upscore-dsn2_crop2-dsn2_0_split
I1118 18:17:51.451267  2691 net.cpp:434] upscore-dsn2_crop2-dsn2_0_split <- upscore-dsn2
I1118 18:17:51.451272  2691 net.cpp:408] upscore-dsn2_crop2-dsn2_0_split -> upscore-dsn2_crop2-dsn2_0_split_0
I1118 18:17:51.451277  2691 net.cpp:408] upscore-dsn2_crop2-dsn2_0_split -> upscore-dsn2_crop2-dsn2_0_split_1
I1118 18:17:51.451282  2691 net.cpp:408] upscore-dsn2_crop2-dsn2_0_split -> upscore-dsn2_crop2-dsn2_0_split_2
I1118 18:17:51.451331  2691 net.cpp:150] Setting up upscore-dsn2_crop2-dsn2_0_split
I1118 18:17:51.451337  2691 net.cpp:157] Top shape: 1 1 500 500 (250000)
I1118 18:17:51.451339  2691 net.cpp:157] Top shape: 1 1 500 500 (250000)
I1118 18:17:51.451344  2691 net.cpp:157] Top shape: 1 1 500 500 (250000)
I1118 18:17:51.451345  2691 net.cpp:165] Memory required for data: 1147050964
I1118 18:17:51.451347  2691 layer_factory.hpp:77] Creating layer loss2-score
I1118 18:17:51.451364  2691 net.cpp:100] Creating Layer loss2-score
I1118 18:17:51.451366  2691 net.cpp:434] loss2-score <- upscore-dsn2_crop2-dsn2_0_split_0
I1118 18:17:51.451370  2691 net.cpp:434] loss2-score <- label_data_1_split_4
I1118 18:17:51.451373  2691 net.cpp:408] loss2-score -> loss2-score
I1118 18:17:51.451568  2691 net.cpp:150] Setting up loss2-score
I1118 18:17:51.451575  2691 net.cpp:157] Top shape: (1)
I1118 18:17:51.451576  2691 net.cpp:160]     with loss weight 1
I1118 18:17:51.451581  2691 net.cpp:165] Memory required for data: 1147050968
I1118 18:17:51.451584  2691 layer_factory.hpp:77] Creating layer sigmoid-dsn1
I1118 18:17:51.451589  2691 net.cpp:100] Creating Layer sigmoid-dsn1
I1118 18:17:51.451592  2691 net.cpp:434] sigmoid-dsn1 <- upscore-dsn2_crop2-dsn2_0_split_1
I1118 18:17:51.451597  2691 net.cpp:408] sigmoid-dsn1 -> sigmoid-dsn1
I1118 18:17:51.452754  2691 net.cpp:150] Setting up sigmoid-dsn1
I1118 18:17:51.452765  2691 net.cpp:157] Top shape: 1 1 500 500 (250000)
I1118 18:17:51.452767  2691 net.cpp:165] Memory required for data: 1148050968
I1118 18:17:51.452770  2691 layer_factory.hpp:77] Creating layer rev-dsn1
I1118 18:17:51.452775  2691 net.cpp:100] Creating Layer rev-dsn1
I1118 18:17:51.452778  2691 net.cpp:434] rev-dsn1 <- sigmoid-dsn1
I1118 18:17:51.452783  2691 net.cpp:408] rev-dsn1 -> rev-dsn1
I1118 18:17:51.452803  2691 net.cpp:150] Setting up rev-dsn1
I1118 18:17:51.452806  2691 net.cpp:157] Top shape: 1 1 500 500 (250000)
I1118 18:17:51.452808  2691 net.cpp:165] Memory required for data: 1149050968
I1118 18:17:51.452811  2691 layer_factory.hpp:77] Creating layer tile-dsn1
I1118 18:17:51.452817  2691 net.cpp:100] Creating Layer tile-dsn1
I1118 18:17:51.452819  2691 net.cpp:434] tile-dsn1 <- rev-dsn1
I1118 18:17:51.452823  2691 net.cpp:408] tile-dsn1 -> weight-dsn1
I1118 18:17:51.452839  2691 net.cpp:150] Setting up tile-dsn1
I1118 18:17:51.452843  2691 net.cpp:157] Top shape: 1 64 500 500 (16000000)
I1118 18:17:51.452844  2691 net.cpp:165] Memory required for data: 1213050968
I1118 18:17:51.452847  2691 layer_factory.hpp:77] Creating layer prod1-dsn1
I1118 18:17:51.452852  2691 net.cpp:100] Creating Layer prod1-dsn1
I1118 18:17:51.452853  2691 net.cpp:434] prod1-dsn1 <- conv1_2_relu1_2_0_split_1
I1118 18:17:51.452857  2691 net.cpp:434] prod1-dsn1 <- weight-dsn1
I1118 18:17:51.452864  2691 net.cpp:408] prod1-dsn1 -> prod1-dsn1
I1118 18:17:51.452879  2691 net.cpp:150] Setting up prod1-dsn1
I1118 18:17:51.452883  2691 net.cpp:157] Top shape: 1 64 500 500 (16000000)
I1118 18:17:51.452885  2691 net.cpp:165] Memory required for data: 1277050968
I1118 18:17:51.452888  2691 layer_factory.hpp:77] Creating layer conv1-dsn1
I1118 18:17:51.452894  2691 net.cpp:100] Creating Layer conv1-dsn1
I1118 18:17:51.452896  2691 net.cpp:434] conv1-dsn1 <- prod1-dsn1
I1118 18:17:51.452901  2691 net.cpp:408] conv1-dsn1 -> conv1-dsn1
I1118 18:17:51.454367  2691 net.cpp:150] Setting up conv1-dsn1
I1118 18:17:51.454378  2691 net.cpp:157] Top shape: 1 64 500 500 (16000000)
I1118 18:17:51.454381  2691 net.cpp:165] Memory required for data: 1341050968
I1118 18:17:51.454386  2691 layer_factory.hpp:77] Creating layer conv2-dsn1
I1118 18:17:51.454408  2691 net.cpp:100] Creating Layer conv2-dsn1
I1118 18:17:51.454411  2691 net.cpp:434] conv2-dsn1 <- conv1-dsn1
I1118 18:17:51.454416  2691 net.cpp:408] conv2-dsn1 -> conv2-dsn1
I1118 18:17:51.455457  2691 net.cpp:150] Setting up conv2-dsn1
I1118 18:17:51.455468  2691 net.cpp:157] Top shape: 1 64 500 500 (16000000)
I1118 18:17:51.455471  2691 net.cpp:165] Memory required for data: 1405050968
I1118 18:17:51.455476  2691 layer_factory.hpp:77] Creating layer relu1-dsn1
I1118 18:17:51.455482  2691 net.cpp:100] Creating Layer relu1-dsn1
I1118 18:17:51.455483  2691 net.cpp:434] relu1-dsn1 <- conv2-dsn1
I1118 18:17:51.455487  2691 net.cpp:395] relu1-dsn1 -> conv2-dsn1 (in-place)
I1118 18:17:51.455549  2691 net.cpp:150] Setting up relu1-dsn1
I1118 18:17:51.455555  2691 net.cpp:157] Top shape: 1 64 500 500 (16000000)
I1118 18:17:51.455557  2691 net.cpp:165] Memory required for data: 1469050968
I1118 18:17:51.455561  2691 layer_factory.hpp:77] Creating layer conv3-dsn1
I1118 18:17:51.455569  2691 net.cpp:100] Creating Layer conv3-dsn1
I1118 18:17:51.455572  2691 net.cpp:434] conv3-dsn1 <- conv2-dsn1
I1118 18:17:51.455577  2691 net.cpp:408] conv3-dsn1 -> conv3-dsn1
I1118 18:17:51.457305  2691 net.cpp:150] Setting up conv3-dsn1
I1118 18:17:51.457315  2691 net.cpp:157] Top shape: 1 64 500 500 (16000000)
I1118 18:17:51.457319  2691 net.cpp:165] Memory required for data: 1533050968
I1118 18:17:51.457338  2691 layer_factory.hpp:77] Creating layer relu2-dsn1
I1118 18:17:51.457343  2691 net.cpp:100] Creating Layer relu2-dsn1
I1118 18:17:51.457346  2691 net.cpp:434] relu2-dsn1 <- conv3-dsn1
I1118 18:17:51.457351  2691 net.cpp:395] relu2-dsn1 -> conv3-dsn1 (in-place)
I1118 18:17:51.457512  2691 net.cpp:150] Setting up relu2-dsn1
I1118 18:17:51.457521  2691 net.cpp:157] Top shape: 1 64 500 500 (16000000)
I1118 18:17:51.457525  2691 net.cpp:165] Memory required for data: 1597050968
I1118 18:17:51.457527  2691 layer_factory.hpp:77] Creating layer conv4-dsn1
I1118 18:17:51.457535  2691 net.cpp:100] Creating Layer conv4-dsn1
I1118 18:17:51.457537  2691 net.cpp:434] conv4-dsn1 <- conv3-dsn1
I1118 18:17:51.457543  2691 net.cpp:408] conv4-dsn1 -> conv4-dsn1
I1118 18:17:51.458233  2691 net.cpp:150] Setting up conv4-dsn1
I1118 18:17:51.458243  2691 net.cpp:157] Top shape: 1 1 500 500 (250000)
I1118 18:17:51.458246  2691 net.cpp:165] Memory required for data: 1598050968
I1118 18:17:51.458251  2691 layer_factory.hpp:77] Creating layer sum-dsn1
I1118 18:17:51.458257  2691 net.cpp:100] Creating Layer sum-dsn1
I1118 18:17:51.458259  2691 net.cpp:434] sum-dsn1 <- conv4-dsn1
I1118 18:17:51.458263  2691 net.cpp:434] sum-dsn1 <- upscore-dsn2_crop2-dsn2_0_split_2
I1118 18:17:51.458267  2691 net.cpp:408] sum-dsn1 -> sum-dsn1
I1118 18:17:51.458287  2691 net.cpp:150] Setting up sum-dsn1
I1118 18:17:51.458292  2691 net.cpp:157] Top shape: 1 1 500 500 (250000)
I1118 18:17:51.458293  2691 net.cpp:165] Memory required for data: 1599050968
I1118 18:17:51.458295  2691 layer_factory.hpp:77] Creating layer crop2-dsn1
I1118 18:17:51.458304  2691 net.cpp:100] Creating Layer crop2-dsn1
I1118 18:17:51.458307  2691 net.cpp:434] crop2-dsn1 <- sum-dsn1
I1118 18:17:51.458310  2691 net.cpp:434] crop2-dsn1 <- data_data_0_split_6
I1118 18:17:51.458314  2691 net.cpp:408] crop2-dsn1 -> upscore-dsn1
I1118 18:17:51.458331  2691 net.cpp:150] Setting up crop2-dsn1
I1118 18:17:51.458334  2691 net.cpp:157] Top shape: 1 1 500 500 (250000)
I1118 18:17:51.458336  2691 net.cpp:165] Memory required for data: 1600050968
I1118 18:17:51.458338  2691 layer_factory.hpp:77] Creating layer loss1-score
I1118 18:17:51.458345  2691 net.cpp:100] Creating Layer loss1-score
I1118 18:17:51.458348  2691 net.cpp:434] loss1-score <- upscore-dsn1
I1118 18:17:51.458353  2691 net.cpp:434] loss1-score <- label_data_1_split_5
I1118 18:17:51.458357  2691 net.cpp:408] loss1-score -> loss1-score
…
