…
I1125 12:06:46.967115 26097 net.cpp:58] Initializing net from parameters: 
name: "RAS"
state {
  phase: TRAIN
}
layer {
  name: "data"
  type: "ImageLabelmapData"
  top: "data_unaugmented"
  top: "label_unaugmented"
  include {
    phase: TRAIN
  }
  transform_param {
    mean_value: 104.00699
    mean_value: 116.66877
    mean_value: 122.67892
  }
  image_data_param {
    source: "/media/compute/homes/galberding/FleckDetect/Datasets/train.txt"
    batch_size: 1
    shuffle: true
    new_height: 500
    new_width: 500
    root_folder: "/media/compute/homes/galberding/FleckDetect/Datasets/"
    normalize: true
  }
}
layer {
  name: "augmentation"
  type: "Python"
  bottom: "data_unaugmented"
  bottom: "label_unaugmented"
  top: "data"
  top: "label"
  include {
    phase: TRAIN
  }
  python_param {
    module: "data_augmentation"
    layer: "DataAugmentation"
  }
}
layer {
  name: "conv1_1"
  type: "Convolution"
  bottom: "data"
  top: "conv1_1"
  param {
    lr_mult: 1
    decay_mult: 1
  }
  param {
    lr_mult: 2
    decay_mult: 0
  }
  convolution_param {
    num_output: 64
    pad: 1
    kernel_size: 3
    engine: CUDNN
  }
}
layer {
  name: "relu1_1"
  type: "ReLU"
  bottom: "conv1_1"
  top: "conv1_1"
}
layer {
  name: "conv1_2"
  type: "Convolution"
  bottom: "conv1_1"
  top: "conv1_2"
  param {
    lr_mult: 1
    decay_mult: 1
  }
  param {
    lr_mult: 2
    decay_mult: 0
  }
  convolution_param {
    num_output: 64
    pad: 1
    kernel_size: 3
    engine: CUDNN
  }
}
layer {
  name: "relu1_2"
  type: "ReLU"
  bottom: "conv1_2"
  top: "conv1_2"
}
layer {
  name: "pool1"
  type: "Pooling"
  bottom: "conv1_2"
  top: "pool1"
  pooling_param {
    pool: MAX
    kernel_size: 2
    stride: 2
  }
}
layer {
  name: "conv2_1"
  type: "Convolution"
  bottom: "pool1"
  top: "conv2_1"
  param {
    lr_mult: 1
    decay_mult: 1
  }
  param {
    lr_mult: 2
    decay_mult: 0
  }
  convolution_param {
    num_output: 128
    pad: 1
    kernel_size: 3
    engine: CUDNN
  }
}
layer {
  name: "relu2_1"
  type: "ReLU"
  bottom: "conv2_1"
  top: "conv2_1"
}
layer {
  name: "conv2_2"
  type: "Convolution"
  bottom: "conv2_1"
  top: "conv2_2"
  param {
    lr_mult: 1
    decay_mult: 1
  }
  param {
    lr_mult: 2
    decay_mult: 0
  }
  convolution_param {
    num_output: 128
    pad: 1
    kernel_size: 3
    engine: CUDNN
  }
}
layer {
  name: "relu2_2"
  type: "ReLU"
  bottom: "conv2_2"
  top: "conv2_2"
}
layer {
  name: "pool2"
  type: "Pooling"
  bottom: "conv2_2"
  top: "pool2"
  pooling_param {
    pool: MAX
    kernel_size: 2
    stride: 2
  }
}
layer {
  name: "conv3_1"
  type: "Convolution"
  bottom: "pool2"
  top: "conv3_1"
  param {
    lr_mult: 1
    decay_mult: 1
  }
  param {
    lr_mult: 2
    decay_mult: 0
  }
  convolution_param {
    num_output: 256
    pad: 1
    kernel_size: 3
    engine: CUDNN
  }
}
layer {
  name: "relu3_1"
  type: "ReLU"
  bottom: "conv3_1"
  top: "conv3_1"
}
layer {
  name: "conv3_2"
  type: "Convolution"
  bottom: "conv3_1"
  top: "conv3_2"
  param {
    lr_mult: 1
    decay_mult: 1
  }
  param {
    lr_mult: 2
    decay_mult: 0
  }
  convolution_param {
    num_output: 256
    pad: 1
    kernel_size: 3
    engine: CUDNN
  }
}
layer {
  name: "relu3_2"
  type: "ReLU"
  bottom: "conv3_2"
  top: "conv3_2"
}
layer {
  name: "conv3_3"
  type: "Convolution"
  bottom: "conv3_2"
  top: "conv3_3"
  param {
    lr_mult: 1
    decay_mult: 1
  }
  param {
    lr_mult: 2
    decay_mult: 0
  }
  convolution_param {
    num_output: 256
    pad: 1
    kernel_size: 3
    engine: CUDNN
  }
}
layer {
  name: "relu3_3"
  type: "ReLU"
  bottom: "conv3_3"
  top: "conv3_3"
}
layer {
  name: "pool3"
  type: "Pooling"
  bottom: "conv3_3"
  top: "pool3"
  pooling_param {
    pool: MAX
    kernel_size: 2
    stride: 2
  }
}
layer {
  name: "conv4_1"
  type: "Convolution"
  bottom: "pool3"
  top: "conv4_1"
  param {
    lr_mult: 1
    decay_mult: 1
  }
  param {
    lr_mult: 2
    decay_mult: 0
  }
  convolution_param {
    num_output: 512
    pad: 1
    kernel_size: 3
    engine: CUDNN
  }
}
layer {
  name: "relu4_1"
  type: "ReLU"
  bottom: "conv4_1"
  top: "conv4_1"
}
layer {
  name: "conv4_2"
  type: "Convolution"
  bottom: "conv4_1"
  top: "conv4_2"
  param {
    lr_mult: 1
    decay_mult: 1
  }
  param {
    lr_mult: 2
    decay_mult: 0
  }
  convolution_param {
    num_output: 512
    pad: 1
    kernel_size: 3
    engine: CUDNN
  }
}
layer {
  name: "relu4_2"
  type: "ReLU"
  bottom: "conv4_2"
  top: "conv4_2"
}
layer {
  name: "conv4_3"
  type: "Convolution"
  bottom: "conv4_2"
  top: "conv4_3"
  param {
    lr_mult: 1
    decay_mult: 1
  }
  param {
    lr_mult: 2
    decay_mult: 0
  }
  convolution_param {
    num_output: 512
    pad: 1
    kernel_size: 3
    engine: CUDNN
  }
}
layer {
  name: "relu4_3"
  type: "ReLU"
  bottom: "conv4_3"
  top: "conv4_3"
}
layer {
  name: "pool4"
  type: "Pooling"
  bottom: "conv4_3"
  top: "pool4"
  pooling_param {
    pool: MAX
    kernel_size: 3
    stride: 2
    pad: 1
  }
}
layer {
  name: "conv5_1"
  type: "Convolution"
  bottom: "pool4"
  top: "conv5_1"
  param {
    lr_mult: 1
    decay_mult: 1
  }
  param {
    lr_mult: 2
    decay_mult: 0
  }
  convolution_param {
    num_output: 512
    pad: 1
    kernel_size: 3
    engine: CUDNN
  }
}
layer {
  name: "relu5_1"
  type: "ReLU"
  bottom: "conv5_1"
  top: "conv5_1"
}
layer {
  name: "conv5_2"
  type: "Convolution"
  bottom: "conv5_1"
  top: "conv5_2"
  param {
    lr_mult: 1
    decay_mult: 1
  }
  param {
    lr_mult: 2
    decay_mult: 0
  }
  convolution_param {
    num_output: 512
    pad: 1
    kernel_size: 3
    engine: CUDNN
  }
}
layer {
  name: "relu5_2"
  type: "ReLU"
  bottom: "conv5_2"
  top: "conv5_2"
}
layer {
  name: "conv5_3"
  type: "Convolution"
  bottom: "conv5_2"
  top: "conv5_3"
  param {
    lr_mult: 1
    decay_mult: 1
  }
  param {
    lr_mult: 2
    decay_mult: 0
  }
  convolution_param {
    num_output: 512
    pad: 1
    kernel_size: 3
    engine: CUDNN
  }
}
layer {
  name: "relu5_3"
  type: "ReLU"
  bottom: "conv5_3"
  top: "conv5_3"
}
layer {
  name: "pool5"
  type: "Pooling"
  bottom: "conv5_3"
  top: "pool5"
  pooling_param {
    pool: MAX
    kernel_size: 3
    stride: 2
    pad: 1
  }
}
layer {
  name: "conv1-dsn6"
  type: "Convolution"
  bottom: "pool5"
  top: "conv1-dsn6"
  param {
    lr_mult: 1
    decay_mult: 1
  }
  param {
    lr_mult: 2
    decay_mult: 0
  }
  convolution_param {
    num_output: 256
    kernel_size: 1
    weight_filler {
      type: "gaussian"
      std: 0.01
    }
    bias_filler {
      type: "constant"
      value: 0
    }
    engine: CUDNN
  }
}
layer {
  name: "conv2-dsn6"
  type: "Convolution"
  bottom: "conv1-dsn6"
  top: "conv2-dsn6"
  param {
    lr_mult: 1
    decay_mult: 1
  }
  param {
    lr_mult: 2
    decay_mult: 0
  }
  convolution_param {
    num_output: 256
    pad: 2
    kernel_size: 5
    weight_filler {
      type: "gaussian"
      std: 0.01
    }
    bias_filler {
      type: "constant"
      value: 0
    }
    engine: CUDNN
  }
}
layer {
  name: "relu1-dsn6"
  type: "ReLU"
  bottom: "conv2-dsn6"
  top: "conv2-dsn6"
}
layer {
  name: "conv3-dsn6"
  type: "Convolution"
  bottom: "conv2-dsn6"
  top: "conv3-dsn6"
  param {
    lr_mult: 1
    decay_mult: 1
  }
  param {
    lr_mult: 2
    decay_mult: 0
  }
  convolution_param {
    num_output: 256
    pad: 2
    kernel_size: 5
    weight_filler {
      type: "gaussian"
      std: 0.01
    }
    bias_filler {
      type: "constant"
      value: 0
    }
    engine: CUDNN
  }
}
layer {
  name: "relu2-dsn6"
  type: "ReLU"
  bottom: "conv3-dsn6"
  top: "conv3-dsn6"
}
layer {
  name: "conv4-dsn6"
  type: "Convolution"
  bottom: "conv3-dsn6"
  top: "conv4-dsn6"
  param {
    lr_mult: 1
    decay_mult: 1
  }
  param {
    lr_mult: 2
    decay_mult: 0
  }
  convolution_param {
    num_output: 256
    pad: 2
    kernel_size: 5
    weight_filler {
      type: "gaussian"
      std: 0.01
    }
    bias_filler {
      type: "constant"
      value: 0
    }
    engine: CUDNN
  }
}
layer {
  name: "relu3-dsn6"
  type: "ReLU"
  bottom: "conv4-dsn6"
  top: "conv4-dsn6"
}
layer {
  name: "conv5-dsn6"
  type: "Convolution"
  bottom: "conv4-dsn6"
  top: "conv5-dsn6"
  param {
    lr_mult: 0.1
    decay_mult: 1
  }
  param {
    lr_mult: 0.2
    decay_mult: 0
  }
  convolution_param {
    num_output: 1
    kernel_size: 1
    weight_filler {
      type: "gaussian"
      std: 0.01
    }
    bias_filler {
      type: "constant"
      value: 0
    }
    engine: CUDNN
  }
}
layer {
  name: "upsample32_dsn6"
  type: "Deconvolution"
  bottom: "conv5-dsn6"
  top: "conv5-dsn6-up"
  param {
    lr_mult: 0
    decay_mult: 1
  }
  param {
    lr_mult: 0
    decay_mult: 0
  }
  convolution_param {
    num_output: 1
    kernel_size: 64
    stride: 32
  }
}
layer {
  name: "crop-dsn6"
  type: "Crop"
  bottom: "conv5-dsn6-up"
  bottom: "data"
  top: "upscore-dsn6"
}
layer {
  name: "loss6-score"
  type: "SigmoidCrossEntropyLoss"
  bottom: "upscore-dsn6"
  bottom: "label"
  top: "loss6-score"
  loss_weight: 1
}
layer {
  name: "upsample2_dsn5"
  type: "Deconvolution"
  bottom: "conv5-dsn6"
  top: "conv5-dsn6-5"
  param {
    lr_mult: 0
    decay_mult: 1
  }
  param {
    lr_mult: 0
    decay_mult: 0
  }
  convolution_param {
    num_output: 1
    kernel_size: 4
    stride: 2
  }
}
layer {
  name: "crop1-dsn5"
  type: "Crop"
  bottom: "conv5-dsn6-5"
  bottom: "conv5_3"
  top: "weight-dsn6-5"
}
layer {
  name: "sigmoid-dsn5"
  type: "Sigmoid"
  bottom: "weight-dsn6-5"
  top: "sigmoid-dsn5"
}
layer {
  name: "rev-dsn5"
  type: "Power"
  bottom: "sigmoid-dsn5"
  top: "rev-dsn5"
  power_param {
    power: 1
    scale: -1
    shift: 1
  }
}
layer {
  name: "tile-dsn5"
  type: "Tile"
  bottom: "rev-dsn5"
  top: "weight-dsn5"
  tile_param {
    tiles: 512
  }
}
layer {
  name: "prod1-dsn5"
  type: "Eltwise"
  bottom: "conv5_3"
  bottom: "weight-dsn5"
  top: "prod1-dsn5"
  eltwise_param {
    operation: PROD
  }
}
layer {
  name: "conv1-dsn5"
  type: "Convolution"
  bottom: "prod1-dsn5"
  top: "conv1-dsn5"
  param {
    lr_mult: 1
    decay_mult: 1
  }
  param {
    lr_mult: 2
    decay_mult: 0
  }
  convolution_param {
    num_output: 64
    kernel_size: 1
    weight_filler {
      type: "gaussian"
      std: 0.01
    }
    bias_filler {
      type: "constant"
      value: 0
    }
    engine: CUDNN
  }
}
layer {
  name: "conv2-dsn5"
  type: "Convolution"
  bottom: "conv1-dsn5"
  top: "conv2-dsn5"
  param {
    lr_mult: 1
    decay_mult: 1
  }
  param {
    lr_mult: 2
    decay_mult: 0
  }
  convolution_param {
    num_output: 64
    pad: 1
    kernel_size: 3
    weight_filler {
      type: "gaussian"
      std: 0.01
    }
    bias_filler {
      type: "constant"
      value: 0
    }
    engine: CUDNN
  }
}
layer {
  name: "relu1-dsn5"
  type: "ReLU"
  bottom: "conv2-dsn5"
  top: "conv2-dsn5"
}
layer {
  name: "conv3-dsn5"
  type: "Convolution"
  bottom: "conv2-dsn5"
  top: "conv3-dsn5"
  param {
    lr_mult: 1
    decay_mult: 1
  }
  param {
    lr_mult: 2
    decay_mult: 0
  }
  convolution_param {
    num_output: 64
    pad: 1
    kernel_size: 3
    weight_filler {
      type: "gaussian"
      std: 0.01
    }
    bias_filler {
      type: "constant"
      value: 0
    }
    engine: CUDNN
  }
}
layer {
  name: "relu2-dsn5"
  type: "ReLU"
  bottom: "conv3-dsn5"
  top: "conv3-dsn5"
}
layer {
  name: "conv4-dsn5"
  type: "Convolution"
  bottom: "conv3-dsn5"
  top: "conv4-dsn5"
  param {
    lr_mult: 1
    decay_mult: 1
  }
  param {
    lr_mult: 2
    decay_mult: 0
  }
  convolution_param {
    num_output: 1
    pad: 1
    kernel_size: 3
    weight_filler {
      type: "gaussian"
      std: 0.01
    }
    bias_filler {
      type: "constant"
      value: 0
    }
    engine: CUDNN
  }
}
layer {
  name: "sum-dsn5"
  type: "Eltwise"
  bottom: "conv4-dsn5"
  bottom: "weight-dsn6-5"
  top: "sum-dsn5"
  eltwise_param {
    operation: SUM
  }
}
layer {
  name: "upsample16_dsn5"
  type: "Deconvolution"
  bottom: "sum-dsn5"
  top: "sum-dsn5-up"
  param {
    lr_mult: 0
    decay_mult: 1
  }
  param {
    lr_mult: 0
    decay_mult: 0
  }
  convolution_param {
    num_output: 1
    kernel_size: 32
    stride: 16
  }
}
layer {
  name: "crop2-dsn5"
  type: "Crop"
  bottom: "sum-dsn5-up"
  bottom: "data"
  top: "upscore-dsn5"
}
layer {
  name: "loss5-score"
  type: "SigmoidCrossEntropyLoss"
  bottom: "upscore-dsn5"
  bottom: "label"
  top: "loss5-score"
  loss_weight: 1
}
layer {
  name: "upsample2_dsn4"
  type: "Deconvolution"
  bottom: "sum-dsn5"
  top: "sum-dsn5-4"
  param {
    lr_mult: 0
    decay_mult: 1
  }
  param {
    lr_mult: 0
    decay_mult: 0
  }
  convolution_param {
    num_output: 1
    kernel_size: 4
    stride: 2
  }
}
layer {
  name: "crop1-dsn4"
  type: "Crop"
  bottom: "sum-dsn5-4"
  bottom: "conv4_3"
  top: "weight-dsn5-4"
}
layer {
  name: "sigmoid-dsn4"
  type: "Sigmoid"
  bottom: "weight-dsn5-4"
  top: "sigmoid-dsn4"
}
layer {
  name: "rev-dsn4"
  type: "Power"
  bottom: "sigmoid-dsn4"
  top: "rev-dsn4"
  power_param {
    power: 1
    scale: -1
    shift: 1
  }
}
layer {
  name: "tile-dsn4"
  type: "Tile"
  bottom: "rev-dsn4"
  top: "weight-dsn4"
  tile_param {
    tiles: 512
  }
}
layer {
  name: "prod1-dsn4"
  type: "Eltwise"
  bottom: "conv4_3"
  bottom: "weight-dsn4"
  top: "prod1-dsn4"
  eltwise_param {
    operation: PROD
  }
}
layer {
  name: "conv1-dsn4"
  type: "Convolution"
  bottom: "prod1-dsn4"
  top: "conv1-dsn4"
  param {
    lr_mult: 1
    decay_mult: 1
  }
  param {
    lr_mult: 2
    decay_mult: 0
  }
  convolution_param {
    num_output: 64
    kernel_size: 1
    weight_filler {
      type: "gaussian"
      std: 0.01
    }
    bias_filler {
      type: "constant"
      value: 0
    }
    engine: CUDNN
  }
}
layer {
  name: "conv2-dsn4"
  type: "Convolution"
  bottom: "conv1-dsn4"
  top: "conv2-dsn4"
  param {
    lr_mult: 1
    decay_mult: 1
  }
  param {
    lr_mult: 2
    decay_mult: 0
  }
  convolution_param {
    num_output: 64
    pad: 1
    kernel_size: 3
    weight_filler {
      type: "gaussian"
      std: 0.01
    }
    bias_filler {
      type: "constant"
      value: 0
    }
    engine: CUDNN
  }
}
layer {
  name: "relu1-dsn4"
  type: "ReLU"
  bottom: "conv2-dsn4"
  top: "conv2-dsn4"
}
layer {
  name: "conv3-dsn4"
  type: "Convolution"
  bottom: "conv2-dsn4"
  top: "conv3-dsn4"
  param {
    lr_mult: 1
    decay_mult: 1
  }
  param {
    lr_mult: 2
    decay_mult: 0
  }
  convolution_param {
    num_output: 64
    pad: 1
    kernel_size: 3
    weight_filler {
      type: "gaussian"
      std: 0.01
    }
    bias_filler {
      type: "constant"
      value: 0
    }
    engine: CUDNN
  }
}
layer {
  name: "relu2-dsn4"
  type: "ReLU"
  bottom: "conv3-dsn4"
  top: "conv3-dsn4"
}
layer {
  name: "conv4-dsn4"
  type: "Convolution"
  bottom: "conv3-dsn4"
  top: "conv4-dsn4"
  param {
    lr_mult: 1
    decay_mult: 1
  }
  param {
    lr_mult: 2
    decay_mult: 0
  }
  convolution_param {
    num_output: 1
    pad: 1
    kernel_size: 3
    weight_filler {
      type: "gaussian"
      std: 0.01
    }
    bias_filler {
      type: "constant"
      value: 0
    }
    engine: CUDNN
  }
}
layer {
  name: "sum-dsn4"
  type: "Eltwise"
  bottom: "conv4-dsn4"
  bottom: "weight-dsn5-4"
  top: "sum-dsn4"
  eltwise_param {
    operation: SUM
  }
}
layer {
  name: "upsample8_dsn4"
  type: "Deconvolution"
  bottom: "sum-dsn4"
  top: "sum-dsn4-up"
  param {
    lr_mult: 0
    decay_mult: 1
  }
  param {
    lr_mult: 0
    decay_mult: 0
  }
  convolution_param {
    num_output: 1
    kernel_size: 16
    stride: 8
  }
}
layer {
  name: "crop2-dsn4"
  type: "Crop"
  bottom: "sum-dsn4-up"
  bottom: "data"
  top: "upscore-dsn4"
}
layer {
  name: "loss4-score"
  type: "SigmoidCrossEntropyLoss"
  bottom: "upscore-dsn4"
  bottom: "label"
  top: "loss4-score"
  loss_weight: 1
}
layer {
  name: "upsample2_dsn3"
  type: "Deconvolution"
  bottom: "sum-dsn4"
  top: "sum-dsn4-3"
  param {
    lr_mult: 0
    decay_mult: 1
  }
  param {
    lr_mult: 0
    decay_mult: 0
  }
  convolution_param {
    num_output: 1
    kernel_size: 4
    stride: 2
  }
}
layer {
  name: "crop1-dsn3"
  type: "Crop"
  bottom: "sum-dsn4-3"
  bottom: "conv3_3"
  top: "weight-dsn4-3"
}
layer {
  name: "sigmoid-dsn3"
  type: "Sigmoid"
  bottom: "weight-dsn4-3"
  top: "sigmoid-dsn3"
}
layer {
  name: "rev-dsn3"
  type: "Power"
  bottom: "sigmoid-dsn3"
  top: "rev-dsn3"
  power_param {
    power: 1
    scale: -1
    shift: 1
  }
}
layer {
  name: "tile-dsn3"
  type: "Tile"
  bottom: "rev-dsn3"
  top: "weight-dsn3"
  tile_param {
    tiles: 256
  }
}
layer {
  name: "prod1-dsn3"
  type: "Eltwise"
  bottom: "conv3_3"
  bottom: "weight-dsn3"
  top: "prod1-dsn3"
  eltwise_param {
    operation: PROD
  }
}
layer {
  name: "conv1-dsn3"
  type: "Convolution"
  bottom: "prod1-dsn3"
  top: "conv1-dsn3"
  param {
    lr_mult: 1
    decay_mult: 1
  }
  param {
    lr_mult: 2
    decay_mult: 0
  }
  convolution_param {
    num_output: 64
    kernel_size: 1
    weight_filler {
      type: "gaussian"
      std: 0.01
    }
    bias_filler {
      type: "constant"
      value: 0
    }
    engine: CUDNN
  }
}
layer {
  name: "conv2-dsn3"
  type: "Convolution"
  bottom: "conv1-dsn3"
  top: "conv2-dsn3"
  param {
    lr_mult: 1
    decay_mult: 1
  }
  param {
    lr_mult: 2
    decay_mult: 0
  }
  convolution_param {
    num_output: 64
    pad: 1
    kernel_size: 3
    weight_filler {
      type: "gaussian"
      std: 0.01
    }
    bias_filler {
      type: "constant"
      value: 0
    }
    engine: CUDNN
  }
}
layer {
  name: "relu1-dsn3"
  type: "ReLU"
  bottom: "conv2-dsn3"
  top: "conv2-dsn3"
}
layer {
  name: "conv3-dsn3"
  type: "Convolution"
  bottom: "conv2-dsn3"
  top: "conv3-dsn3"
  param {
    lr_mult: 1
    decay_mult: 1
  }
  param {
    lr_mult: 2
    decay_mult: 0
  }
  convolution_param {
    num_output: 64
    pad: 1
    kernel_size: 3
    weight_filler {
      type: "gaussian"
      std: 0.01
    }
    bias_filler {
      type: "constant"
      value: 0
    }
    engine: CUDNN
  }
}
layer {
  name: "relu2-dsn3"
  type: "ReLU"
  bottom: "conv3-dsn3"
  top: "conv3-dsn3"
}
layer {
  name: "conv4-dsn3"
  type: "Convolution"
  bottom: "conv3-dsn3"
  top: "conv4-dsn3"
  param {
    lr_mult: 1
    decay_mult: 1
  }
  param {
    lr_mult: 2
    decay_mult: 0
  }
  convolution_param {
    num_output: 1
    pad: 1
    kernel_size: 3
    weight_filler {
      type: "gaussian"
      std: 0.01
    }
    bias_filler {
      type: "constant"
      value: 0
    }
    engine: CUDNN
  }
}
layer {
  name: "sum-dsn3"
  type: "Eltwise"
  bottom: "conv4-dsn3"
  bottom: "weight-dsn4-3"
  top: "sum-dsn3"
  eltwise_param {
    operation: SUM
  }
}
layer {
  name: "upsample4_dsn3"
  type: "Deconvolution"
  bottom: "sum-dsn3"
  top: "sum-dsn3-up"
  param {
    lr_mult: 0
    decay_mult: 1
  }
  param {
    lr_mult: 0
    decay_mult: 0
  }
  convolution_param {
    num_output: 1
    kernel_size: 8
    stride: 4
  }
}
layer {
  name: "crop2-dsn3"
  type: "Crop"
  bottom: "sum-dsn3-up"
  bottom: "data"
  top: "upscore-dsn3"
}
layer {
  name: "loss3-score"
  type: "SigmoidCrossEntropyLoss"
  bottom: "upscore-dsn3"
  bottom: "label"
  top: "loss3-score"
  loss_weight: 1
}
layer {
  name: "upsample2_1-dsn2"
  type: "Deconvolution"
  bottom: "sum-dsn3"
  top: "sum-dsn3-2"
  param {
    lr_mult: 0
    decay_mult: 1
  }
  param {
    lr_mult: 0
    decay_mult: 0
  }
  convolution_param {
    num_output: 1
    kernel_size: 4
    stride: 2
  }
}
layer {
  name: "crop1-dsn2"
  type: "Crop"
  bottom: "sum-dsn3-2"
  bottom: "conv2_2"
  top: "weight-dsn3-2"
}
layer {
  name: "sigmoid-dsn2"
  type: "Sigmoid"
  bottom: "weight-dsn3-2"
  top: "sigmoid-dsn2"
}
layer {
  name: "rev-dsn2"
  type: "Power"
  bottom: "sigmoid-dsn2"
  top: "rev-dsn2"
  power_param {
    power: 1
    scale: -1
    shift: 1
  }
}
layer {
  name: "tile-dsn2"
  type: "Tile"
  bottom: "rev-dsn2"
  top: "weight-dsn2"
  tile_param {
    tiles: 128
  }
}
layer {
  name: "prod1-dsn2"
  type: "Eltwise"
  bottom: "conv2_2"
  bottom: "weight-dsn2"
  top: "prod1-dsn2"
  eltwise_param {
    operation: PROD
  }
}
layer {
  name: "conv1-dsn2"
  type: "Convolution"
  bottom: "prod1-dsn2"
  top: "conv1-dsn2"
  param {
    lr_mult: 1
    decay_mult: 1
  }
  param {
    lr_mult: 2
    decay_mult: 0
  }
  convolution_param {
    num_output: 64
    kernel_size: 1
    weight_filler {
      type: "gaussian"
      std: 0.01
    }
    bias_filler {
      type: "constant"
      value: 0
    }
    engine: CUDNN
  }
}
layer {
  name: "conv2-dsn2"
  type: "Convolution"
  bottom: "conv1-dsn2"
  top: "conv2-dsn2"
  param {
    lr_mult: 1
    decay_mult: 1
  }
  param {
    lr_mult: 2
    decay_mult: 0
  }
  convolution_param {
    num_output: 64
    pad: 1
    kernel_size: 3
    weight_filler {
      type: "gaussian"
      std: 0.01
    }
    bias_filler {
      type: "constant"
      value: 0
    }
    engine: CUDNN
  }
}
layer {
  name: "relu1-dsn2"
  type: "ReLU"
  bottom: "conv2-dsn2"
  top: "conv2-dsn2"
}
layer {
  name: "conv3-dsn2"
  type: "Convolution"
  bottom: "conv2-dsn2"
  top: "conv3-dsn2"
  param {
    lr_mult: 1
    decay_mult: 1
  }
  param {
    lr_mult: 2
    decay_mult: 0
  }
  convolution_param {
    num_output: 64
    pad: 1
    kernel_size: 3
    weight_filler {
      type: "gaussian"
      std: 0.01
    }
    bias_filler {
      type: "constant"
      value: 0
    }
    engine: CUDNN
  }
}
layer {
  name: "relu2-dsn2"
  type: "ReLU"
  bottom: "conv3-dsn2"
  top: "conv3-dsn2"
}
layer {
  name: "conv4-dsn2"
  type: "Convolution"
  bottom: "conv3-dsn2"
  top: "conv4-dsn2"
  param {
    lr_mult: 1
    decay_mult: 1
  }
  param {
    lr_mult: 2
    decay_mult: 0
  }
  convolution_param {
    num_output: 1
    pad: 1
    kernel_size: 3
    weight_filler {
      type: "gaussian"
      std: 0.01
    }
    bias_filler {
      type: "constant"
      value: 0
    }
    engine: CUDNN
  }
}
layer {
  name: "sum-dsn2"
  type: "Eltwise"
  bottom: "conv4-dsn2"
  bottom: "weight-dsn3-2"
  top: "sum-dsn2"
  eltwise_param {
    operation: SUM
  }
}
layer {
  name: "upsample2_2-dsn2"
  type: "Deconvolution"
  bottom: "sum-dsn2"
  top: "sum-dsn2-up"
  param {
    lr_mult: 0
    decay_mult: 1
  }
  param {
    lr_mult: 0
    decay_mult: 0
  }
  convolution_param {
    num_output: 1
    kernel_size: 4
    stride: 2
  }
}
layer {
  name: "crop2-dsn2"
  type: "Crop"
  bottom: "sum-dsn2-up"
  bottom: "data"
  top: "upscore-dsn2"
}
layer {
  name: "loss2-score"
  type: "SigmoidCrossEntropyLoss"
  bottom: "upscore-dsn2"
  bottom: "label"
  top: "loss2-score"
  loss_weight: 1
}
layer {
  name: "sigmoid-dsn1"
  type: "Sigmoid"
  bottom: "upscore-dsn2"
  top: "sigmoid-dsn1"
}
layer {
  name: "rev-dsn1"
  type: "Power"
  bottom: "sigmoid-dsn1"
  top: "rev-dsn1"
  power_param {
    power: 1
    scale: -1
    shift: 1
  }
}
layer {
  name: "tile-dsn1"
  type: "Tile"
  bottom: "rev-dsn1"
  top: "weight-dsn1"
  tile_param {
    tiles: 64
  }
}
layer {
  name: "prod1-dsn1"
  type: "Eltwise"
  bottom: "conv1_2"
  bottom: "weight-dsn1"
  top: "prod1-dsn1"
  eltwise_param {
    operation: PROD
  }
}
layer {
  name: "conv1-dsn1"
  type: "Convolution"
  bottom: "prod1-dsn1"
  top: "conv1-dsn1"
  param {
    lr_mult: 1
    decay_mult: 1
  }
  param {
    lr_mult: 2
    decay_mult: 0
  }
  convolution_param {
    num_output: 64
    kernel_size: 1
    weight_filler {
      type: "gaussian"
      std: 0.01
    }
    bias_filler {
      type: "constant"
      value: 0
    }
    engine: CUDNN
  }
}
layer {
  name: "conv2-dsn1"
  type: "Convolution"
  bottom: "conv1-dsn1"
  top: "conv2-dsn1"
  param {
    lr_mult: 1
    decay_mult: 1
  }
  param {
    lr_mult: 2
    decay_mult: 0
  }
  convolution_param {
    num_output: 64
    pad: 1
    kernel_size: 3
    weight_filler {
      type: "gaussian"
      std: 0.01
    }
    bias_filler {
      type: "constant"
      value: 0
    }
    engine: CUDNN
  }
}
layer {
  name: "relu1-dsn1"
  type: "ReLU"
  bottom: "conv2-dsn1"
  top: "conv2-dsn1"
}
layer {
  name: "conv3-dsn1"
  type: "Convolution"
  bottom: "conv2-dsn1"
  top: "conv3-dsn1"
  param {
    lr_mult: 1
    decay_mult: 1
  }
  param {
    lr_mult: 2
    decay_mult: 0
  }
  convolution_param {
    num_output: 64
    pad: 1
    kernel_size: 3
    weight_filler {
      type: "gaussian"
      std: 0.01
    }
    bias_filler {
      type: "constant"
      value: 0
    }
    engine: CUDNN
  }
}
layer {
  name: "relu2-dsn1"
  type: "ReLU"
  bottom: "conv3-dsn1"
  top: "conv3-dsn1"
}
layer {
  name: "conv4-dsn1"
  type: "Convolution"
  bottom: "conv3-dsn1"
  top: "conv4-dsn1"
  param {
    lr_mult: 1
    decay_mult: 1
  }
  param {
    lr_mult: 2
    decay_mult: 0
  }
  convolution_param {
    num_output: 1
    pad: 1
    kernel_size: 3
    weight_filler {
      type: "gaussian"
      std: 0.01
    }
    bias_filler {
      type: "constant"
      value: 0
    }
    engine: CUDNN
  }
}
layer {
  name: "sum-dsn1"
  type: "Eltwise"
  bottom: "conv4-dsn1"
  bottom: "upscore-dsn2"
  top: "sum-dsn1"
  eltwise_param {
    operation: SUM
  }
}
layer {
  name: "crop2-dsn1"
  type: "Crop"
  bottom: "sum-dsn1"
  bottom: "data"
  top: "upscore-dsn1"
}
layer {
  name: "loss1-score"
  type: "SigmoidCrossEntropyLoss"
  bottom: "upscore-dsn1"
  bottom: "label"
  top: "loss1-score"
  loss_weight: 1
}
I1125 12:06:46.967736 26097 layer_factory.hpp:77] Creating layer data
I1125 12:06:46.967761 26097 net.cpp:100] Creating Layer data
I1125 12:06:46.967767 26097 net.cpp:408] data -> data_unaugmented
I1125 12:06:46.967780 26097 net.cpp:408] data -> label_unaugmented
I1125 12:06:46.967792 26097 image_labelmap_data_layer.cpp:41] Opening file /media/compute/homes/galberding/FleckDetect/Datasets/train.txt
I1125 12:06:46.972295 26097 image_labelmap_data_layer.cpp:51] Shuffling data
I1125 12:06:46.973374 26097 image_labelmap_data_layer.cpp:56] A total of 3600 images.
I1125 12:06:47.247663 26097 image_labelmap_data_layer.cpp:110] output data size: 1,3,500,500
I1125 12:06:47.247684 26097 image_labelmap_data_layer.cpp:113] output label size: 1,1,500,500
I1125 12:06:47.258049 26097 net.cpp:150] Setting up data
I1125 12:06:47.258085 26097 net.cpp:157] Top shape: 1 3 500 500 (750000)
I1125 12:06:47.258091 26097 net.cpp:157] Top shape: 1 1 500 500 (250000)
I1125 12:06:47.258095 26097 net.cpp:165] Memory required for data: 4000000
I1125 12:06:47.258103 26097 layer_factory.hpp:77] Creating layer augmentation
I1125 12:06:47.261795 26097 net.cpp:100] Creating Layer augmentation
I1125 12:06:47.261804 26097 net.cpp:434] augmentation <- data_unaugmented
I1125 12:06:47.261826 26097 net.cpp:434] augmentation <- label_unaugmented
I1125 12:06:47.261832 26097 net.cpp:408] augmentation -> data
I1125 12:06:47.261842 26097 net.cpp:408] augmentation -> label
I1125 12:06:47.263581 26097 net.cpp:150] Setting up augmentation
I1125 12:06:47.263593 26097 net.cpp:157] Top shape: 1 3 500 500 (750000)
I1125 12:06:47.263612 26097 net.cpp:157] Top shape: 1 1 500 500 (250000)
I1125 12:06:47.263615 26097 net.cpp:165] Memory required for data: 8000000
I1125 12:06:47.263618 26097 layer_factory.hpp:77] Creating layer data_augmentation_0_split
I1125 12:06:47.263628 26097 net.cpp:100] Creating Layer data_augmentation_0_split
I1125 12:06:47.263629 26097 net.cpp:434] data_augmentation_0_split <- data
I1125 12:06:47.263638 26097 net.cpp:408] data_augmentation_0_split -> data_augmentation_0_split_0
I1125 12:06:47.263645 26097 net.cpp:408] data_augmentation_0_split -> data_augmentation_0_split_1
I1125 12:06:47.263650 26097 net.cpp:408] data_augmentation_0_split -> data_augmentation_0_split_2
I1125 12:06:47.263656 26097 net.cpp:408] data_augmentation_0_split -> data_augmentation_0_split_3
I1125 12:06:47.263661 26097 net.cpp:408] data_augmentation_0_split -> data_augmentation_0_split_4
I1125 12:06:47.263667 26097 net.cpp:408] data_augmentation_0_split -> data_augmentation_0_split_5
I1125 12:06:47.263672 26097 net.cpp:408] data_augmentation_0_split -> data_augmentation_0_split_6
I1125 12:06:47.263746 26097 net.cpp:150] Setting up data_augmentation_0_split
I1125 12:06:47.263753 26097 net.cpp:157] Top shape: 1 3 500 500 (750000)
I1125 12:06:47.263756 26097 net.cpp:157] Top shape: 1 3 500 500 (750000)
I1125 12:06:47.263759 26097 net.cpp:157] Top shape: 1 3 500 500 (750000)
I1125 12:06:47.263762 26097 net.cpp:157] Top shape: 1 3 500 500 (750000)
I1125 12:06:47.263765 26097 net.cpp:157] Top shape: 1 3 500 500 (750000)
I1125 12:06:47.263768 26097 net.cpp:157] Top shape: 1 3 500 500 (750000)
I1125 12:06:47.263772 26097 net.cpp:157] Top shape: 1 3 500 500 (750000)
I1125 12:06:47.263774 26097 net.cpp:165] Memory required for data: 29000000
I1125 12:06:47.263777 26097 layer_factory.hpp:77] Creating layer label_augmentation_1_split
I1125 12:06:47.263782 26097 net.cpp:100] Creating Layer label_augmentation_1_split
I1125 12:06:47.263784 26097 net.cpp:434] label_augmentation_1_split <- label
I1125 12:06:47.263789 26097 net.cpp:408] label_augmentation_1_split -> label_augmentation_1_split_0
I1125 12:06:47.263795 26097 net.cpp:408] label_augmentation_1_split -> label_augmentation_1_split_1
I1125 12:06:47.263800 26097 net.cpp:408] label_augmentation_1_split -> label_augmentation_1_split_2
I1125 12:06:47.263804 26097 net.cpp:408] label_augmentation_1_split -> label_augmentation_1_split_3
I1125 12:06:47.263808 26097 net.cpp:408] label_augmentation_1_split -> label_augmentation_1_split_4
I1125 12:06:47.263813 26097 net.cpp:408] label_augmentation_1_split -> label_augmentation_1_split_5
I1125 12:06:47.263872 26097 net.cpp:150] Setting up label_augmentation_1_split
I1125 12:06:47.263878 26097 net.cpp:157] Top shape: 1 1 500 500 (250000)
I1125 12:06:47.263881 26097 net.cpp:157] Top shape: 1 1 500 500 (250000)
I1125 12:06:47.263885 26097 net.cpp:157] Top shape: 1 1 500 500 (250000)
I1125 12:06:47.263887 26097 net.cpp:157] Top shape: 1 1 500 500 (250000)
I1125 12:06:47.263890 26097 net.cpp:157] Top shape: 1 1 500 500 (250000)
I1125 12:06:47.263893 26097 net.cpp:157] Top shape: 1 1 500 500 (250000)
I1125 12:06:47.263895 26097 net.cpp:165] Memory required for data: 35000000
I1125 12:06:47.263898 26097 layer_factory.hpp:77] Creating layer conv1_1
I1125 12:06:47.263908 26097 net.cpp:100] Creating Layer conv1_1
I1125 12:06:47.263911 26097 net.cpp:434] conv1_1 <- data_augmentation_0_split_0
I1125 12:06:47.263917 26097 net.cpp:408] conv1_1 -> conv1_1
I1125 12:06:47.545967 26097 net.cpp:150] Setting up conv1_1
I1125 12:06:47.545998 26097 net.cpp:157] Top shape: 1 64 500 500 (16000000)
I1125 12:06:47.546001 26097 net.cpp:165] Memory required for data: 99000000
I1125 12:06:47.546020 26097 layer_factory.hpp:77] Creating layer relu1_1
I1125 12:06:47.546030 26097 net.cpp:100] Creating Layer relu1_1
I1125 12:06:47.546034 26097 net.cpp:434] relu1_1 <- conv1_1
I1125 12:06:47.546041 26097 net.cpp:395] relu1_1 -> conv1_1 (in-place)
I1125 12:06:47.546207 26097 net.cpp:150] Setting up relu1_1
I1125 12:06:47.546216 26097 net.cpp:157] Top shape: 1 64 500 500 (16000000)
I1125 12:06:47.546218 26097 net.cpp:165] Memory required for data: 163000000
I1125 12:06:47.546221 26097 layer_factory.hpp:77] Creating layer conv1_2
I1125 12:06:47.546232 26097 net.cpp:100] Creating Layer conv1_2
I1125 12:06:47.546234 26097 net.cpp:434] conv1_2 <- conv1_1
I1125 12:06:47.546239 26097 net.cpp:408] conv1_2 -> conv1_2
I1125 12:06:47.548429 26097 net.cpp:150] Setting up conv1_2
I1125 12:06:47.548444 26097 net.cpp:157] Top shape: 1 64 500 500 (16000000)
I1125 12:06:47.548445 26097 net.cpp:165] Memory required for data: 227000000
I1125 12:06:47.548454 26097 layer_factory.hpp:77] Creating layer relu1_2
I1125 12:06:47.548460 26097 net.cpp:100] Creating Layer relu1_2
I1125 12:06:47.548462 26097 net.cpp:434] relu1_2 <- conv1_2
I1125 12:06:47.548467 26097 net.cpp:395] relu1_2 -> conv1_2 (in-place)
I1125 12:06:47.548612 26097 net.cpp:150] Setting up relu1_2
I1125 12:06:47.548619 26097 net.cpp:157] Top shape: 1 64 500 500 (16000000)
I1125 12:06:47.548622 26097 net.cpp:165] Memory required for data: 291000000
I1125 12:06:47.548624 26097 layer_factory.hpp:77] Creating layer conv1_2_relu1_2_0_split
I1125 12:06:47.548632 26097 net.cpp:100] Creating Layer conv1_2_relu1_2_0_split
I1125 12:06:47.548635 26097 net.cpp:434] conv1_2_relu1_2_0_split <- conv1_2
I1125 12:06:47.548640 26097 net.cpp:408] conv1_2_relu1_2_0_split -> conv1_2_relu1_2_0_split_0
I1125 12:06:47.548645 26097 net.cpp:408] conv1_2_relu1_2_0_split -> conv1_2_relu1_2_0_split_1
I1125 12:06:47.548679 26097 net.cpp:150] Setting up conv1_2_relu1_2_0_split
I1125 12:06:47.548684 26097 net.cpp:157] Top shape: 1 64 500 500 (16000000)
I1125 12:06:47.548687 26097 net.cpp:157] Top shape: 1 64 500 500 (16000000)
I1125 12:06:47.548689 26097 net.cpp:165] Memory required for data: 419000000
I1125 12:06:47.548692 26097 layer_factory.hpp:77] Creating layer pool1
I1125 12:06:47.548698 26097 net.cpp:100] Creating Layer pool1
I1125 12:06:47.548702 26097 net.cpp:434] pool1 <- conv1_2_relu1_2_0_split_0
I1125 12:06:47.548705 26097 net.cpp:408] pool1 -> pool1
I1125 12:06:47.548735 26097 net.cpp:150] Setting up pool1
I1125 12:06:47.548741 26097 net.cpp:157] Top shape: 1 64 250 250 (4000000)
I1125 12:06:47.548743 26097 net.cpp:165] Memory required for data: 435000000
I1125 12:06:47.548745 26097 layer_factory.hpp:77] Creating layer conv2_1
I1125 12:06:47.548751 26097 net.cpp:100] Creating Layer conv2_1
I1125 12:06:47.548753 26097 net.cpp:434] conv2_1 <- pool1
I1125 12:06:47.548758 26097 net.cpp:408] conv2_1 -> conv2_1
I1125 12:06:47.551136 26097 net.cpp:150] Setting up conv2_1
I1125 12:06:47.551164 26097 net.cpp:157] Top shape: 1 128 250 250 (8000000)
I1125 12:06:47.551167 26097 net.cpp:165] Memory required for data: 467000000
I1125 12:06:47.551175 26097 layer_factory.hpp:77] Creating layer relu2_1
I1125 12:06:47.551180 26097 net.cpp:100] Creating Layer relu2_1
I1125 12:06:47.551183 26097 net.cpp:434] relu2_1 <- conv2_1
I1125 12:06:47.551188 26097 net.cpp:395] relu2_1 -> conv2_1 (in-place)
I1125 12:06:47.551347 26097 net.cpp:150] Setting up relu2_1
I1125 12:06:47.551354 26097 net.cpp:157] Top shape: 1 128 250 250 (8000000)
I1125 12:06:47.551357 26097 net.cpp:165] Memory required for data: 499000000
I1125 12:06:47.551359 26097 layer_factory.hpp:77] Creating layer conv2_2
I1125 12:06:47.551367 26097 net.cpp:100] Creating Layer conv2_2
I1125 12:06:47.551369 26097 net.cpp:434] conv2_2 <- conv2_1
I1125 12:06:47.551373 26097 net.cpp:408] conv2_2 -> conv2_2
I1125 12:06:47.552790 26097 net.cpp:150] Setting up conv2_2
I1125 12:06:47.552804 26097 net.cpp:157] Top shape: 1 128 250 250 (8000000)
I1125 12:06:47.552808 26097 net.cpp:165] Memory required for data: 531000000
I1125 12:06:47.552814 26097 layer_factory.hpp:77] Creating layer relu2_2
I1125 12:06:47.552817 26097 net.cpp:100] Creating Layer relu2_2
I1125 12:06:47.552820 26097 net.cpp:434] relu2_2 <- conv2_2
I1125 12:06:47.552825 26097 net.cpp:395] relu2_2 -> conv2_2 (in-place)
I1125 12:06:47.552997 26097 net.cpp:150] Setting up relu2_2
I1125 12:06:47.553004 26097 net.cpp:157] Top shape: 1 128 250 250 (8000000)
I1125 12:06:47.553007 26097 net.cpp:165] Memory required for data: 563000000
I1125 12:06:47.553009 26097 layer_factory.hpp:77] Creating layer conv2_2_relu2_2_0_split
I1125 12:06:47.553016 26097 net.cpp:100] Creating Layer conv2_2_relu2_2_0_split
I1125 12:06:47.553019 26097 net.cpp:434] conv2_2_relu2_2_0_split <- conv2_2
I1125 12:06:47.553023 26097 net.cpp:408] conv2_2_relu2_2_0_split -> conv2_2_relu2_2_0_split_0
I1125 12:06:47.553030 26097 net.cpp:408] conv2_2_relu2_2_0_split -> conv2_2_relu2_2_0_split_1
I1125 12:06:47.553035 26097 net.cpp:408] conv2_2_relu2_2_0_split -> conv2_2_relu2_2_0_split_2
I1125 12:06:47.553082 26097 net.cpp:150] Setting up conv2_2_relu2_2_0_split
I1125 12:06:47.553087 26097 net.cpp:157] Top shape: 1 128 250 250 (8000000)
I1125 12:06:47.553090 26097 net.cpp:157] Top shape: 1 128 250 250 (8000000)
I1125 12:06:47.553093 26097 net.cpp:157] Top shape: 1 128 250 250 (8000000)
I1125 12:06:47.553095 26097 net.cpp:165] Memory required for data: 659000000
I1125 12:06:47.553098 26097 layer_factory.hpp:77] Creating layer pool2
I1125 12:06:47.553107 26097 net.cpp:100] Creating Layer pool2
I1125 12:06:47.553109 26097 net.cpp:434] pool2 <- conv2_2_relu2_2_0_split_0
I1125 12:06:47.553113 26097 net.cpp:408] pool2 -> pool2
I1125 12:06:47.553153 26097 net.cpp:150] Setting up pool2
I1125 12:06:47.553159 26097 net.cpp:157] Top shape: 1 128 125 125 (2000000)
I1125 12:06:47.553161 26097 net.cpp:165] Memory required for data: 667000000
I1125 12:06:47.553164 26097 layer_factory.hpp:77] Creating layer conv3_1
I1125 12:06:47.553175 26097 net.cpp:100] Creating Layer conv3_1
I1125 12:06:47.553179 26097 net.cpp:434] conv3_1 <- pool2
I1125 12:06:47.553182 26097 net.cpp:408] conv3_1 -> conv3_1
I1125 12:06:47.555709 26097 net.cpp:150] Setting up conv3_1
I1125 12:06:47.555722 26097 net.cpp:157] Top shape: 1 256 125 125 (4000000)
I1125 12:06:47.555725 26097 net.cpp:165] Memory required for data: 683000000
I1125 12:06:47.555734 26097 layer_factory.hpp:77] Creating layer relu3_1
I1125 12:06:47.555742 26097 net.cpp:100] Creating Layer relu3_1
I1125 12:06:47.555744 26097 net.cpp:434] relu3_1 <- conv3_1
I1125 12:06:47.555748 26097 net.cpp:395] relu3_1 -> conv3_1 (in-place)
I1125 12:06:47.556226 26097 net.cpp:150] Setting up relu3_1
I1125 12:06:47.556238 26097 net.cpp:157] Top shape: 1 256 125 125 (4000000)
I1125 12:06:47.556241 26097 net.cpp:165] Memory required for data: 699000000
I1125 12:06:47.556244 26097 layer_factory.hpp:77] Creating layer conv3_2
I1125 12:06:47.556253 26097 net.cpp:100] Creating Layer conv3_2
I1125 12:06:47.556257 26097 net.cpp:434] conv3_2 <- conv3_1
I1125 12:06:47.556263 26097 net.cpp:408] conv3_2 -> conv3_2
I1125 12:06:47.558948 26097 net.cpp:150] Setting up conv3_2
I1125 12:06:47.558961 26097 net.cpp:157] Top shape: 1 256 125 125 (4000000)
I1125 12:06:47.558964 26097 net.cpp:165] Memory required for data: 715000000
I1125 12:06:47.558969 26097 layer_factory.hpp:77] Creating layer relu3_2
I1125 12:06:47.558974 26097 net.cpp:100] Creating Layer relu3_2
I1125 12:06:47.558977 26097 net.cpp:434] relu3_2 <- conv3_2
I1125 12:06:47.558984 26097 net.cpp:395] relu3_2 -> conv3_2 (in-place)
I1125 12:06:47.559429 26097 net.cpp:150] Setting up relu3_2
I1125 12:06:47.559440 26097 net.cpp:157] Top shape: 1 256 125 125 (4000000)
I1125 12:06:47.559442 26097 net.cpp:165] Memory required for data: 731000000
I1125 12:06:47.559445 26097 layer_factory.hpp:77] Creating layer conv3_3
I1125 12:06:47.559454 26097 net.cpp:100] Creating Layer conv3_3
I1125 12:06:47.559458 26097 net.cpp:434] conv3_3 <- conv3_2
I1125 12:06:47.559463 26097 net.cpp:408] conv3_3 -> conv3_3
I1125 12:06:47.562330 26097 net.cpp:150] Setting up conv3_3
I1125 12:06:47.562345 26097 net.cpp:157] Top shape: 1 256 125 125 (4000000)
I1125 12:06:47.562347 26097 net.cpp:165] Memory required for data: 747000000
I1125 12:06:47.562353 26097 layer_factory.hpp:77] Creating layer relu3_3
I1125 12:06:47.562358 26097 net.cpp:100] Creating Layer relu3_3
I1125 12:06:47.562362 26097 net.cpp:434] relu3_3 <- conv3_3
I1125 12:06:47.562366 26097 net.cpp:395] relu3_3 -> conv3_3 (in-place)
I1125 12:06:47.562558 26097 net.cpp:150] Setting up relu3_3
I1125 12:06:47.562567 26097 net.cpp:157] Top shape: 1 256 125 125 (4000000)
I1125 12:06:47.562570 26097 net.cpp:165] Memory required for data: 763000000
I1125 12:06:47.562573 26097 layer_factory.hpp:77] Creating layer conv3_3_relu3_3_0_split
I1125 12:06:47.562577 26097 net.cpp:100] Creating Layer conv3_3_relu3_3_0_split
I1125 12:06:47.562580 26097 net.cpp:434] conv3_3_relu3_3_0_split <- conv3_3
I1125 12:06:47.562587 26097 net.cpp:408] conv3_3_relu3_3_0_split -> conv3_3_relu3_3_0_split_0
I1125 12:06:47.562592 26097 net.cpp:408] conv3_3_relu3_3_0_split -> conv3_3_relu3_3_0_split_1
I1125 12:06:47.562606 26097 net.cpp:408] conv3_3_relu3_3_0_split -> conv3_3_relu3_3_0_split_2
I1125 12:06:47.562656 26097 net.cpp:150] Setting up conv3_3_relu3_3_0_split
I1125 12:06:47.562661 26097 net.cpp:157] Top shape: 1 256 125 125 (4000000)
I1125 12:06:47.562665 26097 net.cpp:157] Top shape: 1 256 125 125 (4000000)
I1125 12:06:47.562669 26097 net.cpp:157] Top shape: 1 256 125 125 (4000000)
I1125 12:06:47.562670 26097 net.cpp:165] Memory required for data: 811000000
I1125 12:06:47.562672 26097 layer_factory.hpp:77] Creating layer pool3
I1125 12:06:47.562680 26097 net.cpp:100] Creating Layer pool3
I1125 12:06:47.562682 26097 net.cpp:434] pool3 <- conv3_3_relu3_3_0_split_0
I1125 12:06:47.562686 26097 net.cpp:408] pool3 -> pool3
I1125 12:06:47.562721 26097 net.cpp:150] Setting up pool3
I1125 12:06:47.562726 26097 net.cpp:157] Top shape: 1 256 63 63 (1016064)
I1125 12:06:47.562727 26097 net.cpp:165] Memory required for data: 815064256
I1125 12:06:47.562729 26097 layer_factory.hpp:77] Creating layer conv4_1
I1125 12:06:47.562737 26097 net.cpp:100] Creating Layer conv4_1
I1125 12:06:47.562739 26097 net.cpp:434] conv4_1 <- pool3
I1125 12:06:47.562745 26097 net.cpp:408] conv4_1 -> conv4_1
I1125 12:06:47.567966 26097 net.cpp:150] Setting up conv4_1
I1125 12:06:47.567979 26097 net.cpp:157] Top shape: 1 512 63 63 (2032128)
I1125 12:06:47.567982 26097 net.cpp:165] Memory required for data: 823192768
I1125 12:06:47.567987 26097 layer_factory.hpp:77] Creating layer relu4_1
I1125 12:06:47.567993 26097 net.cpp:100] Creating Layer relu4_1
I1125 12:06:47.567996 26097 net.cpp:434] relu4_1 <- conv4_1
I1125 12:06:47.568002 26097 net.cpp:395] relu4_1 -> conv4_1 (in-place)
I1125 12:06:47.568190 26097 net.cpp:150] Setting up relu4_1
I1125 12:06:47.568199 26097 net.cpp:157] Top shape: 1 512 63 63 (2032128)
I1125 12:06:47.568202 26097 net.cpp:165] Memory required for data: 831321280
I1125 12:06:47.568204 26097 layer_factory.hpp:77] Creating layer conv4_2
I1125 12:06:47.568212 26097 net.cpp:100] Creating Layer conv4_2
I1125 12:06:47.568215 26097 net.cpp:434] conv4_2 <- conv4_1
I1125 12:06:47.568222 26097 net.cpp:408] conv4_2 -> conv4_2
I1125 12:06:47.574889 26097 net.cpp:150] Setting up conv4_2
I1125 12:06:47.574904 26097 net.cpp:157] Top shape: 1 512 63 63 (2032128)
I1125 12:06:47.574908 26097 net.cpp:165] Memory required for data: 839449792
I1125 12:06:47.574919 26097 layer_factory.hpp:77] Creating layer relu4_2
I1125 12:06:47.574925 26097 net.cpp:100] Creating Layer relu4_2
I1125 12:06:47.574928 26097 net.cpp:434] relu4_2 <- conv4_2
I1125 12:06:47.574932 26097 net.cpp:395] relu4_2 -> conv4_2 (in-place)
I1125 12:06:47.575107 26097 net.cpp:150] Setting up relu4_2
I1125 12:06:47.575115 26097 net.cpp:157] Top shape: 1 512 63 63 (2032128)
I1125 12:06:47.575117 26097 net.cpp:165] Memory required for data: 847578304
I1125 12:06:47.575120 26097 layer_factory.hpp:77] Creating layer conv4_3
I1125 12:06:47.575134 26097 net.cpp:100] Creating Layer conv4_3
I1125 12:06:47.575136 26097 net.cpp:434] conv4_3 <- conv4_2
I1125 12:06:47.575143 26097 net.cpp:408] conv4_3 -> conv4_3
I1125 12:06:47.581410 26097 net.cpp:150] Setting up conv4_3
I1125 12:06:47.581425 26097 net.cpp:157] Top shape: 1 512 63 63 (2032128)
I1125 12:06:47.581427 26097 net.cpp:165] Memory required for data: 855706816
I1125 12:06:47.581434 26097 layer_factory.hpp:77] Creating layer relu4_3
I1125 12:06:47.581439 26097 net.cpp:100] Creating Layer relu4_3
I1125 12:06:47.581442 26097 net.cpp:434] relu4_3 <- conv4_3
I1125 12:06:47.581465 26097 net.cpp:395] relu4_3 -> conv4_3 (in-place)
I1125 12:06:47.581630 26097 net.cpp:150] Setting up relu4_3
I1125 12:06:47.581638 26097 net.cpp:157] Top shape: 1 512 63 63 (2032128)
I1125 12:06:47.581640 26097 net.cpp:165] Memory required for data: 863835328
I1125 12:06:47.581643 26097 layer_factory.hpp:77] Creating layer conv4_3_relu4_3_0_split
I1125 12:06:47.581650 26097 net.cpp:100] Creating Layer conv4_3_relu4_3_0_split
I1125 12:06:47.581652 26097 net.cpp:434] conv4_3_relu4_3_0_split <- conv4_3
I1125 12:06:47.581658 26097 net.cpp:408] conv4_3_relu4_3_0_split -> conv4_3_relu4_3_0_split_0
I1125 12:06:47.581663 26097 net.cpp:408] conv4_3_relu4_3_0_split -> conv4_3_relu4_3_0_split_1
I1125 12:06:47.581670 26097 net.cpp:408] conv4_3_relu4_3_0_split -> conv4_3_relu4_3_0_split_2
I1125 12:06:47.581720 26097 net.cpp:150] Setting up conv4_3_relu4_3_0_split
I1125 12:06:47.581725 26097 net.cpp:157] Top shape: 1 512 63 63 (2032128)
I1125 12:06:47.581728 26097 net.cpp:157] Top shape: 1 512 63 63 (2032128)
I1125 12:06:47.581732 26097 net.cpp:157] Top shape: 1 512 63 63 (2032128)
I1125 12:06:47.581733 26097 net.cpp:165] Memory required for data: 888220864
I1125 12:06:47.581737 26097 layer_factory.hpp:77] Creating layer pool4
I1125 12:06:47.581743 26097 net.cpp:100] Creating Layer pool4
I1125 12:06:47.581745 26097 net.cpp:434] pool4 <- conv4_3_relu4_3_0_split_0
I1125 12:06:47.581749 26097 net.cpp:408] pool4 -> pool4
I1125 12:06:47.581787 26097 net.cpp:150] Setting up pool4
I1125 12:06:47.581792 26097 net.cpp:157] Top shape: 1 512 32 32 (524288)
I1125 12:06:47.581794 26097 net.cpp:165] Memory required for data: 890318016
I1125 12:06:47.581796 26097 layer_factory.hpp:77] Creating layer conv5_1
I1125 12:06:47.581811 26097 net.cpp:100] Creating Layer conv5_1
I1125 12:06:47.581813 26097 net.cpp:434] conv5_1 <- pool4
I1125 12:06:47.581818 26097 net.cpp:408] conv5_1 -> conv5_1
I1125 12:06:47.588081 26097 net.cpp:150] Setting up conv5_1
I1125 12:06:47.588096 26097 net.cpp:157] Top shape: 1 512 32 32 (524288)
I1125 12:06:47.588099 26097 net.cpp:165] Memory required for data: 892415168
I1125 12:06:47.588105 26097 layer_factory.hpp:77] Creating layer relu5_1
I1125 12:06:47.588110 26097 net.cpp:100] Creating Layer relu5_1
I1125 12:06:47.588114 26097 net.cpp:434] relu5_1 <- conv5_1
I1125 12:06:47.588121 26097 net.cpp:395] relu5_1 -> conv5_1 (in-place)
I1125 12:06:47.588634 26097 net.cpp:150] Setting up relu5_1
I1125 12:06:47.588645 26097 net.cpp:157] Top shape: 1 512 32 32 (524288)
I1125 12:06:47.588649 26097 net.cpp:165] Memory required for data: 894512320
I1125 12:06:47.588651 26097 layer_factory.hpp:77] Creating layer conv5_2
I1125 12:06:47.588660 26097 net.cpp:100] Creating Layer conv5_2
I1125 12:06:47.588662 26097 net.cpp:434] conv5_2 <- conv5_1
I1125 12:06:47.588670 26097 net.cpp:408] conv5_2 -> conv5_2
I1125 12:06:47.594765 26097 net.cpp:150] Setting up conv5_2
I1125 12:06:47.594780 26097 net.cpp:157] Top shape: 1 512 32 32 (524288)
I1125 12:06:47.594782 26097 net.cpp:165] Memory required for data: 896609472
I1125 12:06:47.594789 26097 layer_factory.hpp:77] Creating layer relu5_2
I1125 12:06:47.594794 26097 net.cpp:100] Creating Layer relu5_2
I1125 12:06:47.594797 26097 net.cpp:434] relu5_2 <- conv5_2
I1125 12:06:47.594805 26097 net.cpp:395] relu5_2 -> conv5_2 (in-place)
I1125 12:06:47.595309 26097 net.cpp:150] Setting up relu5_2
I1125 12:06:47.595322 26097 net.cpp:157] Top shape: 1 512 32 32 (524288)
I1125 12:06:47.595324 26097 net.cpp:165] Memory required for data: 898706624
I1125 12:06:47.595327 26097 layer_factory.hpp:77] Creating layer conv5_3
I1125 12:06:47.595336 26097 net.cpp:100] Creating Layer conv5_3
I1125 12:06:47.595340 26097 net.cpp:434] conv5_3 <- conv5_2
I1125 12:06:47.595345 26097 net.cpp:408] conv5_3 -> conv5_3
I1125 12:06:47.601629 26097 net.cpp:150] Setting up conv5_3
I1125 12:06:47.601641 26097 net.cpp:157] Top shape: 1 512 32 32 (524288)
I1125 12:06:47.601644 26097 net.cpp:165] Memory required for data: 900803776
I1125 12:06:47.601650 26097 layer_factory.hpp:77] Creating layer relu5_3
I1125 12:06:47.601658 26097 net.cpp:100] Creating Layer relu5_3
I1125 12:06:47.601661 26097 net.cpp:434] relu5_3 <- conv5_3
I1125 12:06:47.601666 26097 net.cpp:395] relu5_3 -> conv5_3 (in-place)
I1125 12:06:47.601840 26097 net.cpp:150] Setting up relu5_3
I1125 12:06:47.601850 26097 net.cpp:157] Top shape: 1 512 32 32 (524288)
I1125 12:06:47.601851 26097 net.cpp:165] Memory required for data: 902900928
I1125 12:06:47.601855 26097 layer_factory.hpp:77] Creating layer conv5_3_relu5_3_0_split
I1125 12:06:47.601861 26097 net.cpp:100] Creating Layer conv5_3_relu5_3_0_split
I1125 12:06:47.601863 26097 net.cpp:434] conv5_3_relu5_3_0_split <- conv5_3
I1125 12:06:47.601868 26097 net.cpp:408] conv5_3_relu5_3_0_split -> conv5_3_relu5_3_0_split_0
I1125 12:06:47.601876 26097 net.cpp:408] conv5_3_relu5_3_0_split -> conv5_3_relu5_3_0_split_1
I1125 12:06:47.601881 26097 net.cpp:408] conv5_3_relu5_3_0_split -> conv5_3_relu5_3_0_split_2
I1125 12:06:47.601931 26097 net.cpp:150] Setting up conv5_3_relu5_3_0_split
I1125 12:06:47.601939 26097 net.cpp:157] Top shape: 1 512 32 32 (524288)
I1125 12:06:47.601943 26097 net.cpp:157] Top shape: 1 512 32 32 (524288)
I1125 12:06:47.601944 26097 net.cpp:157] Top shape: 1 512 32 32 (524288)
I1125 12:06:47.601946 26097 net.cpp:165] Memory required for data: 909192384
I1125 12:06:47.601949 26097 layer_factory.hpp:77] Creating layer pool5
I1125 12:06:47.601955 26097 net.cpp:100] Creating Layer pool5
I1125 12:06:47.601958 26097 net.cpp:434] pool5 <- conv5_3_relu5_3_0_split_0
I1125 12:06:47.601961 26097 net.cpp:408] pool5 -> pool5
I1125 12:06:47.601999 26097 net.cpp:150] Setting up pool5
I1125 12:06:47.602005 26097 net.cpp:157] Top shape: 1 512 17 17 (147968)
I1125 12:06:47.602006 26097 net.cpp:165] Memory required for data: 909784256
I1125 12:06:47.602010 26097 layer_factory.hpp:77] Creating layer conv1-dsn6
I1125 12:06:47.602018 26097 net.cpp:100] Creating Layer conv1-dsn6
I1125 12:06:47.602022 26097 net.cpp:434] conv1-dsn6 <- pool5
I1125 12:06:47.602027 26097 net.cpp:408] conv1-dsn6 -> conv1-dsn6
I1125 12:06:47.605756 26097 net.cpp:150] Setting up conv1-dsn6
I1125 12:06:47.605769 26097 net.cpp:157] Top shape: 1 256 17 17 (73984)
I1125 12:06:47.605772 26097 net.cpp:165] Memory required for data: 910080192
I1125 12:06:47.605777 26097 layer_factory.hpp:77] Creating layer conv2-dsn6
I1125 12:06:47.605787 26097 net.cpp:100] Creating Layer conv2-dsn6
I1125 12:06:47.605790 26097 net.cpp:434] conv2-dsn6 <- conv1-dsn6
I1125 12:06:47.605798 26097 net.cpp:408] conv2-dsn6 -> conv2-dsn6
I1125 12:06:47.624542 26097 net.cpp:150] Setting up conv2-dsn6
I1125 12:06:47.624557 26097 net.cpp:157] Top shape: 1 256 17 17 (73984)
I1125 12:06:47.624560 26097 net.cpp:165] Memory required for data: 910376128
I1125 12:06:47.624565 26097 layer_factory.hpp:77] Creating layer relu1-dsn6
I1125 12:06:47.624572 26097 net.cpp:100] Creating Layer relu1-dsn6
I1125 12:06:47.624574 26097 net.cpp:434] relu1-dsn6 <- conv2-dsn6
I1125 12:06:47.624581 26097 net.cpp:395] relu1-dsn6 -> conv2-dsn6 (in-place)
I1125 12:06:47.624759 26097 net.cpp:150] Setting up relu1-dsn6
I1125 12:06:47.624766 26097 net.cpp:157] Top shape: 1 256 17 17 (73984)
I1125 12:06:47.624768 26097 net.cpp:165] Memory required for data: 910672064
I1125 12:06:47.624771 26097 layer_factory.hpp:77] Creating layer conv3-dsn6
I1125 12:06:47.624781 26097 net.cpp:100] Creating Layer conv3-dsn6
I1125 12:06:47.624784 26097 net.cpp:434] conv3-dsn6 <- conv2-dsn6
I1125 12:06:47.624789 26097 net.cpp:408] conv3-dsn6 -> conv3-dsn6
I1125 12:06:47.643741 26097 net.cpp:150] Setting up conv3-dsn6
I1125 12:06:47.643754 26097 net.cpp:157] Top shape: 1 256 17 17 (73984)
I1125 12:06:47.643757 26097 net.cpp:165] Memory required for data: 910968000
I1125 12:06:47.643762 26097 layer_factory.hpp:77] Creating layer relu2-dsn6
I1125 12:06:47.643769 26097 net.cpp:100] Creating Layer relu2-dsn6
I1125 12:06:47.643771 26097 net.cpp:434] relu2-dsn6 <- conv3-dsn6
I1125 12:06:47.643777 26097 net.cpp:395] relu2-dsn6 -> conv3-dsn6 (in-place)
I1125 12:06:47.643954 26097 net.cpp:150] Setting up relu2-dsn6
I1125 12:06:47.643962 26097 net.cpp:157] Top shape: 1 256 17 17 (73984)
I1125 12:06:47.643965 26097 net.cpp:165] Memory required for data: 911263936
I1125 12:06:47.643966 26097 layer_factory.hpp:77] Creating layer conv4-dsn6
I1125 12:06:47.643976 26097 net.cpp:100] Creating Layer conv4-dsn6
I1125 12:06:47.643980 26097 net.cpp:434] conv4-dsn6 <- conv3-dsn6
I1125 12:06:47.643988 26097 net.cpp:408] conv4-dsn6 -> conv4-dsn6
I1125 12:06:47.662719 26097 net.cpp:150] Setting up conv4-dsn6
I1125 12:06:47.662734 26097 net.cpp:157] Top shape: 1 256 17 17 (73984)
I1125 12:06:47.662735 26097 net.cpp:165] Memory required for data: 911559872
I1125 12:06:47.662748 26097 layer_factory.hpp:77] Creating layer relu3-dsn6
I1125 12:06:47.662756 26097 net.cpp:100] Creating Layer relu3-dsn6
I1125 12:06:47.662760 26097 net.cpp:434] relu3-dsn6 <- conv4-dsn6
I1125 12:06:47.662765 26097 net.cpp:395] relu3-dsn6 -> conv4-dsn6 (in-place)
I1125 12:06:47.662938 26097 net.cpp:150] Setting up relu3-dsn6
I1125 12:06:47.662946 26097 net.cpp:157] Top shape: 1 256 17 17 (73984)
I1125 12:06:47.662948 26097 net.cpp:165] Memory required for data: 911855808
I1125 12:06:47.662951 26097 layer_factory.hpp:77] Creating layer conv5-dsn6
I1125 12:06:47.662961 26097 net.cpp:100] Creating Layer conv5-dsn6
I1125 12:06:47.662964 26097 net.cpp:434] conv5-dsn6 <- conv4-dsn6
I1125 12:06:47.662971 26097 net.cpp:408] conv5-dsn6 -> conv5-dsn6
I1125 12:06:47.664045 26097 net.cpp:150] Setting up conv5-dsn6
I1125 12:06:47.664058 26097 net.cpp:157] Top shape: 1 1 17 17 (289)
I1125 12:06:47.664060 26097 net.cpp:165] Memory required for data: 911856964
I1125 12:06:47.664067 26097 layer_factory.hpp:77] Creating layer conv5-dsn6_conv5-dsn6_0_split
I1125 12:06:47.664072 26097 net.cpp:100] Creating Layer conv5-dsn6_conv5-dsn6_0_split
I1125 12:06:47.664075 26097 net.cpp:434] conv5-dsn6_conv5-dsn6_0_split <- conv5-dsn6
I1125 12:06:47.664080 26097 net.cpp:408] conv5-dsn6_conv5-dsn6_0_split -> conv5-dsn6_conv5-dsn6_0_split_0
I1125 12:06:47.664088 26097 net.cpp:408] conv5-dsn6_conv5-dsn6_0_split -> conv5-dsn6_conv5-dsn6_0_split_1
I1125 12:06:47.664137 26097 net.cpp:150] Setting up conv5-dsn6_conv5-dsn6_0_split
I1125 12:06:47.664144 26097 net.cpp:157] Top shape: 1 1 17 17 (289)
I1125 12:06:47.664146 26097 net.cpp:157] Top shape: 1 1 17 17 (289)
I1125 12:06:47.664149 26097 net.cpp:165] Memory required for data: 911859276
I1125 12:06:47.664151 26097 layer_factory.hpp:77] Creating layer upsample32_dsn6
I1125 12:06:47.664160 26097 net.cpp:100] Creating Layer upsample32_dsn6
I1125 12:06:47.664163 26097 net.cpp:434] upsample32_dsn6 <- conv5-dsn6_conv5-dsn6_0_split_0
I1125 12:06:47.664170 26097 net.cpp:408] upsample32_dsn6 -> conv5-dsn6-up
I1125 12:06:47.664714 26097 net.cpp:150] Setting up upsample32_dsn6
I1125 12:06:47.664721 26097 net.cpp:157] Top shape: 1 1 576 576 (331776)
I1125 12:06:47.664722 26097 net.cpp:165] Memory required for data: 913186380
I1125 12:06:47.664727 26097 layer_factory.hpp:77] Creating layer crop-dsn6
I1125 12:06:47.664734 26097 net.cpp:100] Creating Layer crop-dsn6
I1125 12:06:47.664736 26097 net.cpp:434] crop-dsn6 <- conv5-dsn6-up
I1125 12:06:47.664741 26097 net.cpp:434] crop-dsn6 <- data_augmentation_0_split_1
I1125 12:06:47.664746 26097 net.cpp:408] crop-dsn6 -> upscore-dsn6
I1125 12:06:47.664774 26097 net.cpp:150] Setting up crop-dsn6
I1125 12:06:47.664779 26097 net.cpp:157] Top shape: 1 1 500 500 (250000)
I1125 12:06:47.664782 26097 net.cpp:165] Memory required for data: 914186380
I1125 12:06:47.664783 26097 layer_factory.hpp:77] Creating layer loss6-score
I1125 12:06:47.664793 26097 net.cpp:100] Creating Layer loss6-score
I1125 12:06:47.664794 26097 net.cpp:434] loss6-score <- upscore-dsn6
I1125 12:06:47.664798 26097 net.cpp:434] loss6-score <- label_augmentation_1_split_0
I1125 12:06:47.664803 26097 net.cpp:408] loss6-score -> loss6-score
I1125 12:06:47.666095 26097 net.cpp:150] Setting up loss6-score
I1125 12:06:47.666106 26097 net.cpp:157] Top shape: (1)
I1125 12:06:47.666108 26097 net.cpp:160]     with loss weight 1
I1125 12:06:47.666118 26097 net.cpp:165] Memory required for data: 914186384
I1125 12:06:47.666122 26097 layer_factory.hpp:77] Creating layer upsample2_dsn5
I1125 12:06:47.666133 26097 net.cpp:100] Creating Layer upsample2_dsn5
I1125 12:06:47.666153 26097 net.cpp:434] upsample2_dsn5 <- conv5-dsn6_conv5-dsn6_0_split_1
I1125 12:06:47.666160 26097 net.cpp:408] upsample2_dsn5 -> conv5-dsn6-5
I1125 12:06:47.666406 26097 net.cpp:150] Setting up upsample2_dsn5
I1125 12:06:47.666414 26097 net.cpp:157] Top shape: 1 1 36 36 (1296)
I1125 12:06:47.666415 26097 net.cpp:165] Memory required for data: 914191568
I1125 12:06:47.666420 26097 layer_factory.hpp:77] Creating layer crop1-dsn5
I1125 12:06:47.666425 26097 net.cpp:100] Creating Layer crop1-dsn5
I1125 12:06:47.666429 26097 net.cpp:434] crop1-dsn5 <- conv5-dsn6-5
I1125 12:06:47.666432 26097 net.cpp:434] crop1-dsn5 <- conv5_3_relu5_3_0_split_1
I1125 12:06:47.666438 26097 net.cpp:408] crop1-dsn5 -> weight-dsn6-5
I1125 12:06:47.666476 26097 net.cpp:150] Setting up crop1-dsn5
I1125 12:06:47.666481 26097 net.cpp:157] Top shape: 1 1 32 32 (1024)
I1125 12:06:47.666483 26097 net.cpp:165] Memory required for data: 914195664
I1125 12:06:47.666486 26097 layer_factory.hpp:77] Creating layer weight-dsn6-5_crop1-dsn5_0_split
I1125 12:06:47.666491 26097 net.cpp:100] Creating Layer weight-dsn6-5_crop1-dsn5_0_split
I1125 12:06:47.666494 26097 net.cpp:434] weight-dsn6-5_crop1-dsn5_0_split <- weight-dsn6-5
I1125 12:06:47.666501 26097 net.cpp:408] weight-dsn6-5_crop1-dsn5_0_split -> weight-dsn6-5_crop1-dsn5_0_split_0
I1125 12:06:47.666505 26097 net.cpp:408] weight-dsn6-5_crop1-dsn5_0_split -> weight-dsn6-5_crop1-dsn5_0_split_1
I1125 12:06:47.666538 26097 net.cpp:150] Setting up weight-dsn6-5_crop1-dsn5_0_split
I1125 12:06:47.666543 26097 net.cpp:157] Top shape: 1 1 32 32 (1024)
I1125 12:06:47.666546 26097 net.cpp:157] Top shape: 1 1 32 32 (1024)
I1125 12:06:47.666548 26097 net.cpp:165] Memory required for data: 914203856
I1125 12:06:47.666551 26097 layer_factory.hpp:77] Creating layer sigmoid-dsn5
I1125 12:06:47.666556 26097 net.cpp:100] Creating Layer sigmoid-dsn5
I1125 12:06:47.666558 26097 net.cpp:434] sigmoid-dsn5 <- weight-dsn6-5_crop1-dsn5_0_split_0
I1125 12:06:47.666563 26097 net.cpp:408] sigmoid-dsn5 -> sigmoid-dsn5
I1125 12:06:47.666757 26097 net.cpp:150] Setting up sigmoid-dsn5
I1125 12:06:47.666766 26097 net.cpp:157] Top shape: 1 1 32 32 (1024)
I1125 12:06:47.666769 26097 net.cpp:165] Memory required for data: 914207952
I1125 12:06:47.666771 26097 layer_factory.hpp:77] Creating layer rev-dsn5
I1125 12:06:47.666777 26097 net.cpp:100] Creating Layer rev-dsn5
I1125 12:06:47.666780 26097 net.cpp:434] rev-dsn5 <- sigmoid-dsn5
I1125 12:06:47.666785 26097 net.cpp:408] rev-dsn5 -> rev-dsn5
I1125 12:06:47.666821 26097 net.cpp:150] Setting up rev-dsn5
I1125 12:06:47.666827 26097 net.cpp:157] Top shape: 1 1 32 32 (1024)
I1125 12:06:47.666829 26097 net.cpp:165] Memory required for data: 914212048
I1125 12:06:47.666831 26097 layer_factory.hpp:77] Creating layer tile-dsn5
I1125 12:06:47.666837 26097 net.cpp:100] Creating Layer tile-dsn5
I1125 12:06:47.666841 26097 net.cpp:434] tile-dsn5 <- rev-dsn5
I1125 12:06:47.666844 26097 net.cpp:408] tile-dsn5 -> weight-dsn5
I1125 12:06:47.666865 26097 net.cpp:150] Setting up tile-dsn5
I1125 12:06:47.666870 26097 net.cpp:157] Top shape: 1 512 32 32 (524288)
I1125 12:06:47.666872 26097 net.cpp:165] Memory required for data: 916309200
I1125 12:06:47.666874 26097 layer_factory.hpp:77] Creating layer prod1-dsn5
I1125 12:06:47.666882 26097 net.cpp:100] Creating Layer prod1-dsn5
I1125 12:06:47.666884 26097 net.cpp:434] prod1-dsn5 <- conv5_3_relu5_3_0_split_2
I1125 12:06:47.666888 26097 net.cpp:434] prod1-dsn5 <- weight-dsn5
I1125 12:06:47.666893 26097 net.cpp:408] prod1-dsn5 -> prod1-dsn5
I1125 12:06:47.666914 26097 net.cpp:150] Setting up prod1-dsn5
I1125 12:06:47.666919 26097 net.cpp:157] Top shape: 1 512 32 32 (524288)
I1125 12:06:47.666921 26097 net.cpp:165] Memory required for data: 918406352
I1125 12:06:47.666923 26097 layer_factory.hpp:77] Creating layer conv1-dsn5
I1125 12:06:47.666932 26097 net.cpp:100] Creating Layer conv1-dsn5
I1125 12:06:47.666934 26097 net.cpp:434] conv1-dsn5 <- prod1-dsn5
I1125 12:06:47.666941 26097 net.cpp:408] conv1-dsn5 -> conv1-dsn5
I1125 12:06:47.668367 26097 net.cpp:150] Setting up conv1-dsn5
I1125 12:06:47.668380 26097 net.cpp:157] Top shape: 1 64 32 32 (65536)
I1125 12:06:47.668382 26097 net.cpp:165] Memory required for data: 918668496
I1125 12:06:47.668388 26097 layer_factory.hpp:77] Creating layer conv2-dsn5
I1125 12:06:47.668398 26097 net.cpp:100] Creating Layer conv2-dsn5
I1125 12:06:47.668401 26097 net.cpp:434] conv2-dsn5 <- conv1-dsn5
I1125 12:06:47.668408 26097 net.cpp:408] conv2-dsn5 -> conv2-dsn5
I1125 12:06:47.669912 26097 net.cpp:150] Setting up conv2-dsn5
I1125 12:06:47.669924 26097 net.cpp:157] Top shape: 1 64 32 32 (65536)
I1125 12:06:47.669927 26097 net.cpp:165] Memory required for data: 918930640
I1125 12:06:47.669932 26097 layer_factory.hpp:77] Creating layer relu1-dsn5
I1125 12:06:47.669937 26097 net.cpp:100] Creating Layer relu1-dsn5
I1125 12:06:47.669940 26097 net.cpp:434] relu1-dsn5 <- conv2-dsn5
I1125 12:06:47.669947 26097 net.cpp:395] relu1-dsn5 -> conv2-dsn5 (in-place)
I1125 12:06:47.670429 26097 net.cpp:150] Setting up relu1-dsn5
I1125 12:06:47.670441 26097 net.cpp:157] Top shape: 1 64 32 32 (65536)
I1125 12:06:47.670444 26097 net.cpp:165] Memory required for data: 919192784
I1125 12:06:47.670447 26097 layer_factory.hpp:77] Creating layer conv3-dsn5
I1125 12:06:47.670459 26097 net.cpp:100] Creating Layer conv3-dsn5
I1125 12:06:47.670462 26097 net.cpp:434] conv3-dsn5 <- conv2-dsn5
I1125 12:06:47.670469 26097 net.cpp:408] conv3-dsn5 -> conv3-dsn5
I1125 12:06:47.671587 26097 net.cpp:150] Setting up conv3-dsn5
I1125 12:06:47.671597 26097 net.cpp:157] Top shape: 1 64 32 32 (65536)
I1125 12:06:47.671600 26097 net.cpp:165] Memory required for data: 919454928
I1125 12:06:47.671605 26097 layer_factory.hpp:77] Creating layer relu2-dsn5
I1125 12:06:47.671610 26097 net.cpp:100] Creating Layer relu2-dsn5
I1125 12:06:47.671612 26097 net.cpp:434] relu2-dsn5 <- conv3-dsn5
I1125 12:06:47.671618 26097 net.cpp:395] relu2-dsn5 -> conv3-dsn5 (in-place)
I1125 12:06:47.672093 26097 net.cpp:150] Setting up relu2-dsn5
I1125 12:06:47.672106 26097 net.cpp:157] Top shape: 1 64 32 32 (65536)
I1125 12:06:47.672109 26097 net.cpp:165] Memory required for data: 919717072
I1125 12:06:47.672112 26097 layer_factory.hpp:77] Creating layer conv4-dsn5
I1125 12:06:47.672137 26097 net.cpp:100] Creating Layer conv4-dsn5
I1125 12:06:47.672142 26097 net.cpp:434] conv4-dsn5 <- conv3-dsn5
I1125 12:06:47.672147 26097 net.cpp:408] conv4-dsn5 -> conv4-dsn5
I1125 12:06:47.673269 26097 net.cpp:150] Setting up conv4-dsn5
I1125 12:06:47.673281 26097 net.cpp:157] Top shape: 1 1 32 32 (1024)
I1125 12:06:47.673285 26097 net.cpp:165] Memory required for data: 919721168
I1125 12:06:47.673290 26097 layer_factory.hpp:77] Creating layer sum-dsn5
I1125 12:06:47.673296 26097 net.cpp:100] Creating Layer sum-dsn5
I1125 12:06:47.673300 26097 net.cpp:434] sum-dsn5 <- conv4-dsn5
I1125 12:06:47.673303 26097 net.cpp:434] sum-dsn5 <- weight-dsn6-5_crop1-dsn5_0_split_1
I1125 12:06:47.673310 26097 net.cpp:408] sum-dsn5 -> sum-dsn5
I1125 12:06:47.673338 26097 net.cpp:150] Setting up sum-dsn5
I1125 12:06:47.673344 26097 net.cpp:157] Top shape: 1 1 32 32 (1024)
I1125 12:06:47.673346 26097 net.cpp:165] Memory required for data: 919725264
I1125 12:06:47.673349 26097 layer_factory.hpp:77] Creating layer sum-dsn5_sum-dsn5_0_split
I1125 12:06:47.673354 26097 net.cpp:100] Creating Layer sum-dsn5_sum-dsn5_0_split
I1125 12:06:47.673357 26097 net.cpp:434] sum-dsn5_sum-dsn5_0_split <- sum-dsn5
I1125 12:06:47.673362 26097 net.cpp:408] sum-dsn5_sum-dsn5_0_split -> sum-dsn5_sum-dsn5_0_split_0
I1125 12:06:47.673368 26097 net.cpp:408] sum-dsn5_sum-dsn5_0_split -> sum-dsn5_sum-dsn5_0_split_1
I1125 12:06:47.673404 26097 net.cpp:150] Setting up sum-dsn5_sum-dsn5_0_split
I1125 12:06:47.673410 26097 net.cpp:157] Top shape: 1 1 32 32 (1024)
I1125 12:06:47.673413 26097 net.cpp:157] Top shape: 1 1 32 32 (1024)
I1125 12:06:47.673415 26097 net.cpp:165] Memory required for data: 919733456
I1125 12:06:47.673418 26097 layer_factory.hpp:77] Creating layer upsample16_dsn5
I1125 12:06:47.673427 26097 net.cpp:100] Creating Layer upsample16_dsn5
I1125 12:06:47.673430 26097 net.cpp:434] upsample16_dsn5 <- sum-dsn5_sum-dsn5_0_split_0
I1125 12:06:47.673434 26097 net.cpp:408] upsample16_dsn5 -> sum-dsn5-up
I1125 12:06:47.674921 26097 net.cpp:150] Setting up upsample16_dsn5
I1125 12:06:47.674933 26097 net.cpp:157] Top shape: 1 1 528 528 (278784)
I1125 12:06:47.674935 26097 net.cpp:165] Memory required for data: 920848592
I1125 12:06:47.674942 26097 layer_factory.hpp:77] Creating layer crop2-dsn5
I1125 12:06:47.674948 26097 net.cpp:100] Creating Layer crop2-dsn5
I1125 12:06:47.674952 26097 net.cpp:434] crop2-dsn5 <- sum-dsn5-up
I1125 12:06:47.674957 26097 net.cpp:434] crop2-dsn5 <- data_augmentation_0_split_2
I1125 12:06:47.674960 26097 net.cpp:408] crop2-dsn5 -> upscore-dsn5
I1125 12:06:47.674993 26097 net.cpp:150] Setting up crop2-dsn5
I1125 12:06:47.674999 26097 net.cpp:157] Top shape: 1 1 500 500 (250000)
I1125 12:06:47.675001 26097 net.cpp:165] Memory required for data: 921848592
I1125 12:06:47.675004 26097 layer_factory.hpp:77] Creating layer loss5-score
I1125 12:06:47.675011 26097 net.cpp:100] Creating Layer loss5-score
I1125 12:06:47.675014 26097 net.cpp:434] loss5-score <- upscore-dsn5
I1125 12:06:47.675017 26097 net.cpp:434] loss5-score <- label_augmentation_1_split_1
I1125 12:06:47.675022 26097 net.cpp:408] loss5-score -> loss5-score
I1125 12:06:47.675247 26097 net.cpp:150] Setting up loss5-score
I1125 12:06:47.675253 26097 net.cpp:157] Top shape: (1)
I1125 12:06:47.675256 26097 net.cpp:160]     with loss weight 1
I1125 12:06:47.675261 26097 net.cpp:165] Memory required for data: 921848596
I1125 12:06:47.675264 26097 layer_factory.hpp:77] Creating layer upsample2_dsn4
I1125 12:06:47.675271 26097 net.cpp:100] Creating Layer upsample2_dsn4
I1125 12:06:47.675274 26097 net.cpp:434] upsample2_dsn4 <- sum-dsn5_sum-dsn5_0_split_1
I1125 12:06:47.675281 26097 net.cpp:408] upsample2_dsn4 -> sum-dsn5-4
I1125 12:06:47.675541 26097 net.cpp:150] Setting up upsample2_dsn4
I1125 12:06:47.675549 26097 net.cpp:157] Top shape: 1 1 66 66 (4356)
I1125 12:06:47.675552 26097 net.cpp:165] Memory required for data: 921866020
I1125 12:06:47.675556 26097 layer_factory.hpp:77] Creating layer crop1-dsn4
I1125 12:06:47.675560 26097 net.cpp:100] Creating Layer crop1-dsn4
I1125 12:06:47.675563 26097 net.cpp:434] crop1-dsn4 <- sum-dsn5-4
I1125 12:06:47.675566 26097 net.cpp:434] crop1-dsn4 <- conv4_3_relu4_3_0_split_1
I1125 12:06:47.675570 26097 net.cpp:408] crop1-dsn4 -> weight-dsn5-4
I1125 12:06:47.675595 26097 net.cpp:150] Setting up crop1-dsn4
I1125 12:06:47.675601 26097 net.cpp:157] Top shape: 1 1 63 63 (3969)
I1125 12:06:47.675602 26097 net.cpp:165] Memory required for data: 921881896
I1125 12:06:47.675604 26097 layer_factory.hpp:77] Creating layer weight-dsn5-4_crop1-dsn4_0_split
I1125 12:06:47.675611 26097 net.cpp:100] Creating Layer weight-dsn5-4_crop1-dsn4_0_split
I1125 12:06:47.675613 26097 net.cpp:434] weight-dsn5-4_crop1-dsn4_0_split <- weight-dsn5-4
I1125 12:06:47.675617 26097 net.cpp:408] weight-dsn5-4_crop1-dsn4_0_split -> weight-dsn5-4_crop1-dsn4_0_split_0
I1125 12:06:47.675622 26097 net.cpp:408] weight-dsn5-4_crop1-dsn4_0_split -> weight-dsn5-4_crop1-dsn4_0_split_1
I1125 12:06:47.675657 26097 net.cpp:150] Setting up weight-dsn5-4_crop1-dsn4_0_split
I1125 12:06:47.675662 26097 net.cpp:157] Top shape: 1 1 63 63 (3969)
I1125 12:06:47.675664 26097 net.cpp:157] Top shape: 1 1 63 63 (3969)
I1125 12:06:47.675667 26097 net.cpp:165] Memory required for data: 921913648
I1125 12:06:47.675668 26097 layer_factory.hpp:77] Creating layer sigmoid-dsn4
I1125 12:06:47.675673 26097 net.cpp:100] Creating Layer sigmoid-dsn4
I1125 12:06:47.675675 26097 net.cpp:434] sigmoid-dsn4 <- weight-dsn5-4_crop1-dsn4_0_split_0
I1125 12:06:47.675680 26097 net.cpp:408] sigmoid-dsn4 -> sigmoid-dsn4
I1125 12:06:47.675874 26097 net.cpp:150] Setting up sigmoid-dsn4
I1125 12:06:47.675882 26097 net.cpp:157] Top shape: 1 1 63 63 (3969)
I1125 12:06:47.675884 26097 net.cpp:165] Memory required for data: 921929524
I1125 12:06:47.675887 26097 layer_factory.hpp:77] Creating layer rev-dsn4
I1125 12:06:47.675891 26097 net.cpp:100] Creating Layer rev-dsn4
I1125 12:06:47.675894 26097 net.cpp:434] rev-dsn4 <- sigmoid-dsn4
I1125 12:06:47.675900 26097 net.cpp:408] rev-dsn4 -> rev-dsn4
I1125 12:06:47.675923 26097 net.cpp:150] Setting up rev-dsn4
I1125 12:06:47.675928 26097 net.cpp:157] Top shape: 1 1 63 63 (3969)
I1125 12:06:47.675931 26097 net.cpp:165] Memory required for data: 921945400
I1125 12:06:47.675933 26097 layer_factory.hpp:77] Creating layer tile-dsn4
I1125 12:06:47.675937 26097 net.cpp:100] Creating Layer tile-dsn4
I1125 12:06:47.675940 26097 net.cpp:434] tile-dsn4 <- rev-dsn4
I1125 12:06:47.675945 26097 net.cpp:408] tile-dsn4 -> weight-dsn4
I1125 12:06:47.675966 26097 net.cpp:150] Setting up tile-dsn4
I1125 12:06:47.675971 26097 net.cpp:157] Top shape: 1 512 63 63 (2032128)
I1125 12:06:47.675973 26097 net.cpp:165] Memory required for data: 930073912
I1125 12:06:47.675976 26097 layer_factory.hpp:77] Creating layer prod1-dsn4
I1125 12:06:47.675981 26097 net.cpp:100] Creating Layer prod1-dsn4
I1125 12:06:47.675984 26097 net.cpp:434] prod1-dsn4 <- conv4_3_relu4_3_0_split_2
I1125 12:06:47.675988 26097 net.cpp:434] prod1-dsn4 <- weight-dsn4
I1125 12:06:47.675992 26097 net.cpp:408] prod1-dsn4 -> prod1-dsn4
I1125 12:06:47.676012 26097 net.cpp:150] Setting up prod1-dsn4
I1125 12:06:47.676017 26097 net.cpp:157] Top shape: 1 512 63 63 (2032128)
I1125 12:06:47.676020 26097 net.cpp:165] Memory required for data: 938202424
I1125 12:06:47.676023 26097 layer_factory.hpp:77] Creating layer conv1-dsn4
I1125 12:06:47.676031 26097 net.cpp:100] Creating Layer conv1-dsn4
I1125 12:06:47.676033 26097 net.cpp:434] conv1-dsn4 <- prod1-dsn4
I1125 12:06:47.676039 26097 net.cpp:408] conv1-dsn4 -> conv1-dsn4
I1125 12:06:47.677517 26097 net.cpp:150] Setting up conv1-dsn4
I1125 12:06:47.677529 26097 net.cpp:157] Top shape: 1 64 63 63 (254016)
I1125 12:06:47.677532 26097 net.cpp:165] Memory required for data: 939218488
I1125 12:06:47.677538 26097 layer_factory.hpp:77] Creating layer conv2-dsn4
I1125 12:06:47.677547 26097 net.cpp:100] Creating Layer conv2-dsn4
I1125 12:06:47.677552 26097 net.cpp:434] conv2-dsn4 <- conv1-dsn4
I1125 12:06:47.677557 26097 net.cpp:408] conv2-dsn4 -> conv2-dsn4
I1125 12:06:47.679314 26097 net.cpp:150] Setting up conv2-dsn4
I1125 12:06:47.679327 26097 net.cpp:157] Top shape: 1 64 63 63 (254016)
I1125 12:06:47.679328 26097 net.cpp:165] Memory required for data: 940234552
I1125 12:06:47.679334 26097 layer_factory.hpp:77] Creating layer relu1-dsn4
I1125 12:06:47.679342 26097 net.cpp:100] Creating Layer relu1-dsn4
I1125 12:06:47.679344 26097 net.cpp:434] relu1-dsn4 <- conv2-dsn4
I1125 12:06:47.679348 26097 net.cpp:395] relu1-dsn4 -> conv2-dsn4 (in-place)
I1125 12:06:47.679530 26097 net.cpp:150] Setting up relu1-dsn4
I1125 12:06:47.679538 26097 net.cpp:157] Top shape: 1 64 63 63 (254016)
I1125 12:06:47.679540 26097 net.cpp:165] Memory required for data: 941250616
I1125 12:06:47.679543 26097 layer_factory.hpp:77] Creating layer conv3-dsn4
I1125 12:06:47.679553 26097 net.cpp:100] Creating Layer conv3-dsn4
I1125 12:06:47.679555 26097 net.cpp:434] conv3-dsn4 <- conv2-dsn4
I1125 12:06:47.679561 26097 net.cpp:408] conv3-dsn4 -> conv3-dsn4
I1125 12:06:47.681080 26097 net.cpp:150] Setting up conv3-dsn4
I1125 12:06:47.681092 26097 net.cpp:157] Top shape: 1 64 63 63 (254016)
I1125 12:06:47.681095 26097 net.cpp:165] Memory required for data: 942266680
I1125 12:06:47.681102 26097 layer_factory.hpp:77] Creating layer relu2-dsn4
I1125 12:06:47.681105 26097 net.cpp:100] Creating Layer relu2-dsn4
I1125 12:06:47.681108 26097 net.cpp:434] relu2-dsn4 <- conv3-dsn4
I1125 12:06:47.681115 26097 net.cpp:395] relu2-dsn4 -> conv3-dsn4 (in-place)
I1125 12:06:47.681293 26097 net.cpp:150] Setting up relu2-dsn4
I1125 12:06:47.681301 26097 net.cpp:157] Top shape: 1 64 63 63 (254016)
I1125 12:06:47.681303 26097 net.cpp:165] Memory required for data: 943282744
I1125 12:06:47.681306 26097 layer_factory.hpp:77] Creating layer conv4-dsn4
I1125 12:06:47.681315 26097 net.cpp:100] Creating Layer conv4-dsn4
I1125 12:06:47.681318 26097 net.cpp:434] conv4-dsn4 <- conv3-dsn4
I1125 12:06:47.681324 26097 net.cpp:408] conv4-dsn4 -> conv4-dsn4
I1125 12:06:47.682441 26097 net.cpp:150] Setting up conv4-dsn4
I1125 12:06:47.682453 26097 net.cpp:157] Top shape: 1 1 63 63 (3969)
I1125 12:06:47.682456 26097 net.cpp:165] Memory required for data: 943298620
I1125 12:06:47.682461 26097 layer_factory.hpp:77] Creating layer sum-dsn4
I1125 12:06:47.682467 26097 net.cpp:100] Creating Layer sum-dsn4
I1125 12:06:47.682469 26097 net.cpp:434] sum-dsn4 <- conv4-dsn4
I1125 12:06:47.682474 26097 net.cpp:434] sum-dsn4 <- weight-dsn5-4_crop1-dsn4_0_split_1
I1125 12:06:47.682480 26097 net.cpp:408] sum-dsn4 -> sum-dsn4
I1125 12:06:47.682509 26097 net.cpp:150] Setting up sum-dsn4
I1125 12:06:47.682514 26097 net.cpp:157] Top shape: 1 1 63 63 (3969)
I1125 12:06:47.682516 26097 net.cpp:165] Memory required for data: 943314496
I1125 12:06:47.682519 26097 layer_factory.hpp:77] Creating layer sum-dsn4_sum-dsn4_0_split
I1125 12:06:47.682523 26097 net.cpp:100] Creating Layer sum-dsn4_sum-dsn4_0_split
I1125 12:06:47.682526 26097 net.cpp:434] sum-dsn4_sum-dsn4_0_split <- sum-dsn4
I1125 12:06:47.682531 26097 net.cpp:408] sum-dsn4_sum-dsn4_0_split -> sum-dsn4_sum-dsn4_0_split_0
I1125 12:06:47.682536 26097 net.cpp:408] sum-dsn4_sum-dsn4_0_split -> sum-dsn4_sum-dsn4_0_split_1
I1125 12:06:47.682571 26097 net.cpp:150] Setting up sum-dsn4_sum-dsn4_0_split
I1125 12:06:47.682576 26097 net.cpp:157] Top shape: 1 1 63 63 (3969)
I1125 12:06:47.682579 26097 net.cpp:157] Top shape: 1 1 63 63 (3969)
I1125 12:06:47.682581 26097 net.cpp:165] Memory required for data: 943346248
I1125 12:06:47.682585 26097 layer_factory.hpp:77] Creating layer upsample8_dsn4
I1125 12:06:47.682593 26097 net.cpp:100] Creating Layer upsample8_dsn4
I1125 12:06:47.682595 26097 net.cpp:434] upsample8_dsn4 <- sum-dsn4_sum-dsn4_0_split_0
I1125 12:06:47.682600 26097 net.cpp:408] upsample8_dsn4 -> sum-dsn4-up
I1125 12:06:47.684101 26097 net.cpp:150] Setting up upsample8_dsn4
I1125 12:06:47.684113 26097 net.cpp:157] Top shape: 1 1 512 512 (262144)
I1125 12:06:47.684115 26097 net.cpp:165] Memory required for data: 944394824
I1125 12:06:47.684121 26097 layer_factory.hpp:77] Creating layer crop2-dsn4
I1125 12:06:47.684136 26097 net.cpp:100] Creating Layer crop2-dsn4
I1125 12:06:47.684156 26097 net.cpp:434] crop2-dsn4 <- sum-dsn4-up
I1125 12:06:47.684160 26097 net.cpp:434] crop2-dsn4 <- data_augmentation_0_split_3
I1125 12:06:47.684165 26097 net.cpp:408] crop2-dsn4 -> upscore-dsn4
I1125 12:06:47.684199 26097 net.cpp:150] Setting up crop2-dsn4
I1125 12:06:47.684206 26097 net.cpp:157] Top shape: 1 1 500 500 (250000)
I1125 12:06:47.684208 26097 net.cpp:165] Memory required for data: 945394824
I1125 12:06:47.684211 26097 layer_factory.hpp:77] Creating layer loss4-score
I1125 12:06:47.684218 26097 net.cpp:100] Creating Layer loss4-score
I1125 12:06:47.684221 26097 net.cpp:434] loss4-score <- upscore-dsn4
I1125 12:06:47.684226 26097 net.cpp:434] loss4-score <- label_augmentation_1_split_2
I1125 12:06:47.684231 26097 net.cpp:408] loss4-score -> loss4-score
I1125 12:06:47.684432 26097 net.cpp:150] Setting up loss4-score
I1125 12:06:47.684437 26097 net.cpp:157] Top shape: (1)
I1125 12:06:47.684439 26097 net.cpp:160]     with loss weight 1
I1125 12:06:47.684444 26097 net.cpp:165] Memory required for data: 945394828
I1125 12:06:47.684461 26097 layer_factory.hpp:77] Creating layer upsample2_dsn3
I1125 12:06:47.684469 26097 net.cpp:100] Creating Layer upsample2_dsn3
I1125 12:06:47.684471 26097 net.cpp:434] upsample2_dsn3 <- sum-dsn4_sum-dsn4_0_split_1
I1125 12:06:47.684478 26097 net.cpp:408] upsample2_dsn3 -> sum-dsn4-3
I1125 12:06:47.684729 26097 net.cpp:150] Setting up upsample2_dsn3
I1125 12:06:47.684736 26097 net.cpp:157] Top shape: 1 1 128 128 (16384)
I1125 12:06:47.684737 26097 net.cpp:165] Memory required for data: 945460364
I1125 12:06:47.684741 26097 layer_factory.hpp:77] Creating layer crop1-dsn3
I1125 12:06:47.684746 26097 net.cpp:100] Creating Layer crop1-dsn3
I1125 12:06:47.684751 26097 net.cpp:434] crop1-dsn3 <- sum-dsn4-3
I1125 12:06:47.684754 26097 net.cpp:434] crop1-dsn3 <- conv3_3_relu3_3_0_split_1
I1125 12:06:47.684758 26097 net.cpp:408] crop1-dsn3 -> weight-dsn4-3
I1125 12:06:47.684784 26097 net.cpp:150] Setting up crop1-dsn3
I1125 12:06:47.684789 26097 net.cpp:157] Top shape: 1 1 125 125 (15625)
I1125 12:06:47.684792 26097 net.cpp:165] Memory required for data: 945522864
I1125 12:06:47.684794 26097 layer_factory.hpp:77] Creating layer weight-dsn4-3_crop1-dsn3_0_split
I1125 12:06:47.684798 26097 net.cpp:100] Creating Layer weight-dsn4-3_crop1-dsn3_0_split
I1125 12:06:47.684801 26097 net.cpp:434] weight-dsn4-3_crop1-dsn3_0_split <- weight-dsn4-3
I1125 12:06:47.684806 26097 net.cpp:408] weight-dsn4-3_crop1-dsn3_0_split -> weight-dsn4-3_crop1-dsn3_0_split_0
I1125 12:06:47.684813 26097 net.cpp:408] weight-dsn4-3_crop1-dsn3_0_split -> weight-dsn4-3_crop1-dsn3_0_split_1
I1125 12:06:47.684847 26097 net.cpp:150] Setting up weight-dsn4-3_crop1-dsn3_0_split
I1125 12:06:47.684852 26097 net.cpp:157] Top shape: 1 1 125 125 (15625)
I1125 12:06:47.684855 26097 net.cpp:157] Top shape: 1 1 125 125 (15625)
I1125 12:06:47.684857 26097 net.cpp:165] Memory required for data: 945647864
I1125 12:06:47.684860 26097 layer_factory.hpp:77] Creating layer sigmoid-dsn3
I1125 12:06:47.684864 26097 net.cpp:100] Creating Layer sigmoid-dsn3
I1125 12:06:47.684866 26097 net.cpp:434] sigmoid-dsn3 <- weight-dsn4-3_crop1-dsn3_0_split_0
I1125 12:06:47.684870 26097 net.cpp:408] sigmoid-dsn3 -> sigmoid-dsn3
I1125 12:06:47.685071 26097 net.cpp:150] Setting up sigmoid-dsn3
I1125 12:06:47.685081 26097 net.cpp:157] Top shape: 1 1 125 125 (15625)
I1125 12:06:47.685083 26097 net.cpp:165] Memory required for data: 945710364
I1125 12:06:47.685086 26097 layer_factory.hpp:77] Creating layer rev-dsn3
I1125 12:06:47.685091 26097 net.cpp:100] Creating Layer rev-dsn3
I1125 12:06:47.685093 26097 net.cpp:434] rev-dsn3 <- sigmoid-dsn3
I1125 12:06:47.685097 26097 net.cpp:408] rev-dsn3 -> rev-dsn3
I1125 12:06:47.685122 26097 net.cpp:150] Setting up rev-dsn3
I1125 12:06:47.685133 26097 net.cpp:157] Top shape: 1 1 125 125 (15625)
I1125 12:06:47.685135 26097 net.cpp:165] Memory required for data: 945772864
I1125 12:06:47.685137 26097 layer_factory.hpp:77] Creating layer tile-dsn3
I1125 12:06:47.685144 26097 net.cpp:100] Creating Layer tile-dsn3
I1125 12:06:47.685148 26097 net.cpp:434] tile-dsn3 <- rev-dsn3
I1125 12:06:47.685151 26097 net.cpp:408] tile-dsn3 -> weight-dsn3
I1125 12:06:47.685174 26097 net.cpp:150] Setting up tile-dsn3
I1125 12:06:47.685179 26097 net.cpp:157] Top shape: 1 256 125 125 (4000000)
I1125 12:06:47.685182 26097 net.cpp:165] Memory required for data: 961772864
I1125 12:06:47.685184 26097 layer_factory.hpp:77] Creating layer prod1-dsn3
I1125 12:06:47.685189 26097 net.cpp:100] Creating Layer prod1-dsn3
I1125 12:06:47.685191 26097 net.cpp:434] prod1-dsn3 <- conv3_3_relu3_3_0_split_2
I1125 12:06:47.685197 26097 net.cpp:434] prod1-dsn3 <- weight-dsn3
I1125 12:06:47.685201 26097 net.cpp:408] prod1-dsn3 -> prod1-dsn3
I1125 12:06:47.685223 26097 net.cpp:150] Setting up prod1-dsn3
I1125 12:06:47.685228 26097 net.cpp:157] Top shape: 1 256 125 125 (4000000)
I1125 12:06:47.685231 26097 net.cpp:165] Memory required for data: 977772864
I1125 12:06:47.685233 26097 layer_factory.hpp:77] Creating layer conv1-dsn3
I1125 12:06:47.685243 26097 net.cpp:100] Creating Layer conv1-dsn3
I1125 12:06:47.685247 26097 net.cpp:434] conv1-dsn3 <- prod1-dsn3
I1125 12:06:47.685252 26097 net.cpp:408] conv1-dsn3 -> conv1-dsn3
I1125 12:06:47.686839 26097 net.cpp:150] Setting up conv1-dsn3
I1125 12:06:47.686851 26097 net.cpp:157] Top shape: 1 64 125 125 (1000000)
I1125 12:06:47.686853 26097 net.cpp:165] Memory required for data: 981772864
I1125 12:06:47.686872 26097 layer_factory.hpp:77] Creating layer conv2-dsn3
I1125 12:06:47.686880 26097 net.cpp:100] Creating Layer conv2-dsn3
I1125 12:06:47.686883 26097 net.cpp:434] conv2-dsn3 <- conv1-dsn3
I1125 12:06:47.686890 26097 net.cpp:408] conv2-dsn3 -> conv2-dsn3
I1125 12:06:47.688416 26097 net.cpp:150] Setting up conv2-dsn3
I1125 12:06:47.688428 26097 net.cpp:157] Top shape: 1 64 125 125 (1000000)
I1125 12:06:47.688431 26097 net.cpp:165] Memory required for data: 985772864
I1125 12:06:47.688436 26097 layer_factory.hpp:77] Creating layer relu1-dsn3
I1125 12:06:47.688441 26097 net.cpp:100] Creating Layer relu1-dsn3
I1125 12:06:47.688444 26097 net.cpp:434] relu1-dsn3 <- conv2-dsn3
I1125 12:06:47.688452 26097 net.cpp:395] relu1-dsn3 -> conv2-dsn3 (in-place)
I1125 12:06:47.688635 26097 net.cpp:150] Setting up relu1-dsn3
I1125 12:06:47.688643 26097 net.cpp:157] Top shape: 1 64 125 125 (1000000)
I1125 12:06:47.688645 26097 net.cpp:165] Memory required for data: 989772864
I1125 12:06:47.688647 26097 layer_factory.hpp:77] Creating layer conv3-dsn3
I1125 12:06:47.688657 26097 net.cpp:100] Creating Layer conv3-dsn3
I1125 12:06:47.688660 26097 net.cpp:434] conv3-dsn3 <- conv2-dsn3
I1125 12:06:47.688668 26097 net.cpp:408] conv3-dsn3 -> conv3-dsn3
I1125 12:06:47.690152 26097 net.cpp:150] Setting up conv3-dsn3
I1125 12:06:47.690165 26097 net.cpp:157] Top shape: 1 64 125 125 (1000000)
I1125 12:06:47.690167 26097 net.cpp:165] Memory required for data: 993772864
I1125 12:06:47.690172 26097 layer_factory.hpp:77] Creating layer relu2-dsn3
I1125 12:06:47.690177 26097 net.cpp:100] Creating Layer relu2-dsn3
I1125 12:06:47.690181 26097 net.cpp:434] relu2-dsn3 <- conv3-dsn3
I1125 12:06:47.690186 26097 net.cpp:395] relu2-dsn3 -> conv3-dsn3 (in-place)
I1125 12:06:47.690670 26097 net.cpp:150] Setting up relu2-dsn3
I1125 12:06:47.690681 26097 net.cpp:157] Top shape: 1 64 125 125 (1000000)
I1125 12:06:47.690683 26097 net.cpp:165] Memory required for data: 997772864
I1125 12:06:47.690686 26097 layer_factory.hpp:77] Creating layer conv4-dsn3
I1125 12:06:47.690696 26097 net.cpp:100] Creating Layer conv4-dsn3
I1125 12:06:47.690699 26097 net.cpp:434] conv4-dsn3 <- conv3-dsn3
I1125 12:06:47.690706 26097 net.cpp:408] conv4-dsn3 -> conv4-dsn3
I1125 12:06:47.691879 26097 net.cpp:150] Setting up conv4-dsn3
I1125 12:06:47.691890 26097 net.cpp:157] Top shape: 1 1 125 125 (15625)
I1125 12:06:47.691892 26097 net.cpp:165] Memory required for data: 997835364
I1125 12:06:47.691898 26097 layer_factory.hpp:77] Creating layer sum-dsn3
I1125 12:06:47.691906 26097 net.cpp:100] Creating Layer sum-dsn3
I1125 12:06:47.691910 26097 net.cpp:434] sum-dsn3 <- conv4-dsn3
I1125 12:06:47.691913 26097 net.cpp:434] sum-dsn3 <- weight-dsn4-3_crop1-dsn3_0_split_1
I1125 12:06:47.691917 26097 net.cpp:408] sum-dsn3 -> sum-dsn3
I1125 12:06:47.691949 26097 net.cpp:150] Setting up sum-dsn3
I1125 12:06:47.691956 26097 net.cpp:157] Top shape: 1 1 125 125 (15625)
I1125 12:06:47.691957 26097 net.cpp:165] Memory required for data: 997897864
I1125 12:06:47.691959 26097 layer_factory.hpp:77] Creating layer sum-dsn3_sum-dsn3_0_split
I1125 12:06:47.691964 26097 net.cpp:100] Creating Layer sum-dsn3_sum-dsn3_0_split
I1125 12:06:47.691967 26097 net.cpp:434] sum-dsn3_sum-dsn3_0_split <- sum-dsn3
I1125 12:06:47.691972 26097 net.cpp:408] sum-dsn3_sum-dsn3_0_split -> sum-dsn3_sum-dsn3_0_split_0
I1125 12:06:47.691977 26097 net.cpp:408] sum-dsn3_sum-dsn3_0_split -> sum-dsn3_sum-dsn3_0_split_1
I1125 12:06:47.692016 26097 net.cpp:150] Setting up sum-dsn3_sum-dsn3_0_split
I1125 12:06:47.692021 26097 net.cpp:157] Top shape: 1 1 125 125 (15625)
I1125 12:06:47.692024 26097 net.cpp:157] Top shape: 1 1 125 125 (15625)
I1125 12:06:47.692026 26097 net.cpp:165] Memory required for data: 998022864
I1125 12:06:47.692028 26097 layer_factory.hpp:77] Creating layer upsample4_dsn3
I1125 12:06:47.692035 26097 net.cpp:100] Creating Layer upsample4_dsn3
I1125 12:06:47.692039 26097 net.cpp:434] upsample4_dsn3 <- sum-dsn3_sum-dsn3_0_split_0
I1125 12:06:47.692044 26097 net.cpp:408] upsample4_dsn3 -> sum-dsn3-up
I1125 12:06:47.693572 26097 net.cpp:150] Setting up upsample4_dsn3
I1125 12:06:47.693583 26097 net.cpp:157] Top shape: 1 1 504 504 (254016)
I1125 12:06:47.693585 26097 net.cpp:165] Memory required for data: 999038928
I1125 12:06:47.693591 26097 layer_factory.hpp:77] Creating layer crop2-dsn3
I1125 12:06:47.693596 26097 net.cpp:100] Creating Layer crop2-dsn3
I1125 12:06:47.693599 26097 net.cpp:434] crop2-dsn3 <- sum-dsn3-up
I1125 12:06:47.693603 26097 net.cpp:434] crop2-dsn3 <- data_augmentation_0_split_4
I1125 12:06:47.693609 26097 net.cpp:408] crop2-dsn3 -> upscore-dsn3
I1125 12:06:47.693645 26097 net.cpp:150] Setting up crop2-dsn3
I1125 12:06:47.693650 26097 net.cpp:157] Top shape: 1 1 500 500 (250000)
I1125 12:06:47.693651 26097 net.cpp:165] Memory required for data: 1000038928
I1125 12:06:47.693655 26097 layer_factory.hpp:77] Creating layer loss3-score
I1125 12:06:47.693661 26097 net.cpp:100] Creating Layer loss3-score
I1125 12:06:47.693665 26097 net.cpp:434] loss3-score <- upscore-dsn3
I1125 12:06:47.693668 26097 net.cpp:434] loss3-score <- label_augmentation_1_split_3
I1125 12:06:47.693672 26097 net.cpp:408] loss3-score -> loss3-score
I1125 12:06:47.693874 26097 net.cpp:150] Setting up loss3-score
I1125 12:06:47.693879 26097 net.cpp:157] Top shape: (1)
I1125 12:06:47.693881 26097 net.cpp:160]     with loss weight 1
I1125 12:06:47.693887 26097 net.cpp:165] Memory required for data: 1000038932
I1125 12:06:47.693890 26097 layer_factory.hpp:77] Creating layer upsample2_1-dsn2
I1125 12:06:47.693897 26097 net.cpp:100] Creating Layer upsample2_1-dsn2
I1125 12:06:47.693899 26097 net.cpp:434] upsample2_1-dsn2 <- sum-dsn3_sum-dsn3_0_split_1
I1125 12:06:47.693907 26097 net.cpp:408] upsample2_1-dsn2 -> sum-dsn3-2
I1125 12:06:47.694216 26097 net.cpp:150] Setting up upsample2_1-dsn2
I1125 12:06:47.694223 26097 net.cpp:157] Top shape: 1 1 252 252 (63504)
I1125 12:06:47.694226 26097 net.cpp:165] Memory required for data: 1000292948
I1125 12:06:47.694231 26097 layer_factory.hpp:77] Creating layer crop1-dsn2
I1125 12:06:47.694234 26097 net.cpp:100] Creating Layer crop1-dsn2
I1125 12:06:47.694237 26097 net.cpp:434] crop1-dsn2 <- sum-dsn3-2
I1125 12:06:47.694241 26097 net.cpp:434] crop1-dsn2 <- conv2_2_relu2_2_0_split_1
I1125 12:06:47.694247 26097 net.cpp:408] crop1-dsn2 -> weight-dsn3-2
I1125 12:06:47.694272 26097 net.cpp:150] Setting up crop1-dsn2
I1125 12:06:47.694278 26097 net.cpp:157] Top shape: 1 1 250 250 (62500)
I1125 12:06:47.694279 26097 net.cpp:165] Memory required for data: 1000542948
I1125 12:06:47.694281 26097 layer_factory.hpp:77] Creating layer weight-dsn3-2_crop1-dsn2_0_split
I1125 12:06:47.694288 26097 net.cpp:100] Creating Layer weight-dsn3-2_crop1-dsn2_0_split
I1125 12:06:47.694290 26097 net.cpp:434] weight-dsn3-2_crop1-dsn2_0_split <- weight-dsn3-2
I1125 12:06:47.694294 26097 net.cpp:408] weight-dsn3-2_crop1-dsn2_0_split -> weight-dsn3-2_crop1-dsn2_0_split_0
I1125 12:06:47.694301 26097 net.cpp:408] weight-dsn3-2_crop1-dsn2_0_split -> weight-dsn3-2_crop1-dsn2_0_split_1
I1125 12:06:47.694337 26097 net.cpp:150] Setting up weight-dsn3-2_crop1-dsn2_0_split
I1125 12:06:47.694342 26097 net.cpp:157] Top shape: 1 1 250 250 (62500)
I1125 12:06:47.694345 26097 net.cpp:157] Top shape: 1 1 250 250 (62500)
I1125 12:06:47.694347 26097 net.cpp:165] Memory required for data: 1001042948
I1125 12:06:47.694350 26097 layer_factory.hpp:77] Creating layer sigmoid-dsn2
I1125 12:06:47.694355 26097 net.cpp:100] Creating Layer sigmoid-dsn2
I1125 12:06:47.694358 26097 net.cpp:434] sigmoid-dsn2 <- weight-dsn3-2_crop1-dsn2_0_split_0
I1125 12:06:47.694362 26097 net.cpp:408] sigmoid-dsn2 -> sigmoid-dsn2
I1125 12:06:47.694929 26097 net.cpp:150] Setting up sigmoid-dsn2
I1125 12:06:47.694941 26097 net.cpp:157] Top shape: 1 1 250 250 (62500)
I1125 12:06:47.694943 26097 net.cpp:165] Memory required for data: 1001292948
I1125 12:06:47.694947 26097 layer_factory.hpp:77] Creating layer rev-dsn2
I1125 12:06:47.694952 26097 net.cpp:100] Creating Layer rev-dsn2
I1125 12:06:47.694954 26097 net.cpp:434] rev-dsn2 <- sigmoid-dsn2
I1125 12:06:47.694959 26097 net.cpp:408] rev-dsn2 -> rev-dsn2
I1125 12:06:47.694984 26097 net.cpp:150] Setting up rev-dsn2
I1125 12:06:47.694990 26097 net.cpp:157] Top shape: 1 1 250 250 (62500)
I1125 12:06:47.694993 26097 net.cpp:165] Memory required for data: 1001542948
I1125 12:06:47.694994 26097 layer_factory.hpp:77] Creating layer tile-dsn2
I1125 12:06:47.694998 26097 net.cpp:100] Creating Layer tile-dsn2
I1125 12:06:47.695001 26097 net.cpp:434] tile-dsn2 <- rev-dsn2
I1125 12:06:47.695005 26097 net.cpp:408] tile-dsn2 -> weight-dsn2
I1125 12:06:47.695026 26097 net.cpp:150] Setting up tile-dsn2
I1125 12:06:47.695030 26097 net.cpp:157] Top shape: 1 128 250 250 (8000000)
I1125 12:06:47.695034 26097 net.cpp:165] Memory required for data: 1033542948
I1125 12:06:47.695035 26097 layer_factory.hpp:77] Creating layer prod1-dsn2
I1125 12:06:47.695040 26097 net.cpp:100] Creating Layer prod1-dsn2
I1125 12:06:47.695044 26097 net.cpp:434] prod1-dsn2 <- conv2_2_relu2_2_0_split_2
I1125 12:06:47.695047 26097 net.cpp:434] prod1-dsn2 <- weight-dsn2
I1125 12:06:47.695050 26097 net.cpp:408] prod1-dsn2 -> prod1-dsn2
I1125 12:06:47.695070 26097 net.cpp:150] Setting up prod1-dsn2
I1125 12:06:47.695075 26097 net.cpp:157] Top shape: 1 128 250 250 (8000000)
I1125 12:06:47.695077 26097 net.cpp:165] Memory required for data: 1065542948
I1125 12:06:47.695080 26097 layer_factory.hpp:77] Creating layer conv1-dsn2
I1125 12:06:47.695086 26097 net.cpp:100] Creating Layer conv1-dsn2
I1125 12:06:47.695088 26097 net.cpp:434] conv1-dsn2 <- prod1-dsn2
I1125 12:06:47.695093 26097 net.cpp:408] conv1-dsn2 -> conv1-dsn2
I1125 12:06:47.697479 26097 net.cpp:150] Setting up conv1-dsn2
I1125 12:06:47.697492 26097 net.cpp:157] Top shape: 1 64 250 250 (4000000)
I1125 12:06:47.697494 26097 net.cpp:165] Memory required for data: 1081542948
I1125 12:06:47.697500 26097 layer_factory.hpp:77] Creating layer conv2-dsn2
I1125 12:06:47.697510 26097 net.cpp:100] Creating Layer conv2-dsn2
I1125 12:06:47.697513 26097 net.cpp:434] conv2-dsn2 <- conv1-dsn2
I1125 12:06:47.697518 26097 net.cpp:408] conv2-dsn2 -> conv2-dsn2
I1125 12:06:47.699414 26097 net.cpp:150] Setting up conv2-dsn2
I1125 12:06:47.699426 26097 net.cpp:157] Top shape: 1 64 250 250 (4000000)
I1125 12:06:47.699429 26097 net.cpp:165] Memory required for data: 1097542948
I1125 12:06:47.699435 26097 layer_factory.hpp:77] Creating layer relu1-dsn2
I1125 12:06:47.699440 26097 net.cpp:100] Creating Layer relu1-dsn2
I1125 12:06:47.699443 26097 net.cpp:434] relu1-dsn2 <- conv2-dsn2
I1125 12:06:47.699465 26097 net.cpp:395] relu1-dsn2 -> conv2-dsn2 (in-place)
I1125 12:06:47.699935 26097 net.cpp:150] Setting up relu1-dsn2
I1125 12:06:47.699946 26097 net.cpp:157] Top shape: 1 64 250 250 (4000000)
I1125 12:06:47.699949 26097 net.cpp:165] Memory required for data: 1113542948
I1125 12:06:47.699952 26097 layer_factory.hpp:77] Creating layer conv3-dsn2
I1125 12:06:47.699964 26097 net.cpp:100] Creating Layer conv3-dsn2
I1125 12:06:47.699966 26097 net.cpp:434] conv3-dsn2 <- conv2-dsn2
I1125 12:06:47.699973 26097 net.cpp:408] conv3-dsn2 -> conv3-dsn2
I1125 12:06:47.701462 26097 net.cpp:150] Setting up conv3-dsn2
I1125 12:06:47.701475 26097 net.cpp:157] Top shape: 1 64 250 250 (4000000)
I1125 12:06:47.701478 26097 net.cpp:165] Memory required for data: 1129542948
I1125 12:06:47.701484 26097 layer_factory.hpp:77] Creating layer relu2-dsn2
I1125 12:06:47.701489 26097 net.cpp:100] Creating Layer relu2-dsn2
I1125 12:06:47.701493 26097 net.cpp:434] relu2-dsn2 <- conv3-dsn2
I1125 12:06:47.701496 26097 net.cpp:395] relu2-dsn2 -> conv3-dsn2 (in-place)
I1125 12:06:47.701666 26097 net.cpp:150] Setting up relu2-dsn2
I1125 12:06:47.701675 26097 net.cpp:157] Top shape: 1 64 250 250 (4000000)
I1125 12:06:47.701678 26097 net.cpp:165] Memory required for data: 1145542948
I1125 12:06:47.701681 26097 layer_factory.hpp:77] Creating layer conv4-dsn2
I1125 12:06:47.701689 26097 net.cpp:100] Creating Layer conv4-dsn2
I1125 12:06:47.701692 26097 net.cpp:434] conv4-dsn2 <- conv3-dsn2
I1125 12:06:47.701697 26097 net.cpp:408] conv4-dsn2 -> conv4-dsn2
I1125 12:06:47.702857 26097 net.cpp:150] Setting up conv4-dsn2
I1125 12:06:47.702870 26097 net.cpp:157] Top shape: 1 1 250 250 (62500)
I1125 12:06:47.702872 26097 net.cpp:165] Memory required for data: 1145792948
I1125 12:06:47.702878 26097 layer_factory.hpp:77] Creating layer sum-dsn2
I1125 12:06:47.702884 26097 net.cpp:100] Creating Layer sum-dsn2
I1125 12:06:47.702888 26097 net.cpp:434] sum-dsn2 <- conv4-dsn2
I1125 12:06:47.702891 26097 net.cpp:434] sum-dsn2 <- weight-dsn3-2_crop1-dsn2_0_split_1
I1125 12:06:47.702898 26097 net.cpp:408] sum-dsn2 -> sum-dsn2
I1125 12:06:47.702926 26097 net.cpp:150] Setting up sum-dsn2
I1125 12:06:47.702931 26097 net.cpp:157] Top shape: 1 1 250 250 (62500)
I1125 12:06:47.702934 26097 net.cpp:165] Memory required for data: 1146042948
I1125 12:06:47.702936 26097 layer_factory.hpp:77] Creating layer upsample2_2-dsn2
I1125 12:06:47.702944 26097 net.cpp:100] Creating Layer upsample2_2-dsn2
I1125 12:06:47.702946 26097 net.cpp:434] upsample2_2-dsn2 <- sum-dsn2
I1125 12:06:47.702952 26097 net.cpp:408] upsample2_2-dsn2 -> sum-dsn2-up
I1125 12:06:47.704488 26097 net.cpp:150] Setting up upsample2_2-dsn2
I1125 12:06:47.704500 26097 net.cpp:157] Top shape: 1 1 502 502 (252004)
I1125 12:06:47.704502 26097 net.cpp:165] Memory required for data: 1147050964
I1125 12:06:47.704509 26097 layer_factory.hpp:77] Creating layer crop2-dsn2
I1125 12:06:47.704514 26097 net.cpp:100] Creating Layer crop2-dsn2
I1125 12:06:47.704517 26097 net.cpp:434] crop2-dsn2 <- sum-dsn2-up
I1125 12:06:47.704521 26097 net.cpp:434] crop2-dsn2 <- data_augmentation_0_split_5
I1125 12:06:47.704526 26097 net.cpp:408] crop2-dsn2 -> upscore-dsn2
I1125 12:06:47.704558 26097 net.cpp:150] Setting up crop2-dsn2
I1125 12:06:47.704564 26097 net.cpp:157] Top shape: 1 1 500 500 (250000)
I1125 12:06:47.704566 26097 net.cpp:165] Memory required for data: 1148050964
I1125 12:06:47.704569 26097 layer_factory.hpp:77] Creating layer upscore-dsn2_crop2-dsn2_0_split
I1125 12:06:47.704576 26097 net.cpp:100] Creating Layer upscore-dsn2_crop2-dsn2_0_split
I1125 12:06:47.704578 26097 net.cpp:434] upscore-dsn2_crop2-dsn2_0_split <- upscore-dsn2
I1125 12:06:47.704583 26097 net.cpp:408] upscore-dsn2_crop2-dsn2_0_split -> upscore-dsn2_crop2-dsn2_0_split_0
I1125 12:06:47.704608 26097 net.cpp:408] upscore-dsn2_crop2-dsn2_0_split -> upscore-dsn2_crop2-dsn2_0_split_1
I1125 12:06:47.704614 26097 net.cpp:408] upscore-dsn2_crop2-dsn2_0_split -> upscore-dsn2_crop2-dsn2_0_split_2
I1125 12:06:47.704663 26097 net.cpp:150] Setting up upscore-dsn2_crop2-dsn2_0_split
I1125 12:06:47.704670 26097 net.cpp:157] Top shape: 1 1 500 500 (250000)
I1125 12:06:47.704674 26097 net.cpp:157] Top shape: 1 1 500 500 (250000)
I1125 12:06:47.704677 26097 net.cpp:157] Top shape: 1 1 500 500 (250000)
I1125 12:06:47.704679 26097 net.cpp:165] Memory required for data: 1151050964
I1125 12:06:47.704682 26097 layer_factory.hpp:77] Creating layer loss2-score
I1125 12:06:47.704689 26097 net.cpp:100] Creating Layer loss2-score
I1125 12:06:47.704691 26097 net.cpp:434] loss2-score <- upscore-dsn2_crop2-dsn2_0_split_0
I1125 12:06:47.704695 26097 net.cpp:434] loss2-score <- label_augmentation_1_split_4
I1125 12:06:47.704699 26097 net.cpp:408] loss2-score -> loss2-score
I1125 12:06:47.704900 26097 net.cpp:150] Setting up loss2-score
I1125 12:06:47.704906 26097 net.cpp:157] Top shape: (1)
I1125 12:06:47.704910 26097 net.cpp:160]     with loss weight 1
I1125 12:06:47.704915 26097 net.cpp:165] Memory required for data: 1151050968
I1125 12:06:47.704916 26097 layer_factory.hpp:77] Creating layer sigmoid-dsn1
I1125 12:06:47.704921 26097 net.cpp:100] Creating Layer sigmoid-dsn1
I1125 12:06:47.704924 26097 net.cpp:434] sigmoid-dsn1 <- upscore-dsn2_crop2-dsn2_0_split_1
I1125 12:06:47.704932 26097 net.cpp:408] sigmoid-dsn1 -> sigmoid-dsn1
I1125 12:06:47.705137 26097 net.cpp:150] Setting up sigmoid-dsn1
I1125 12:06:47.705145 26097 net.cpp:157] Top shape: 1 1 500 500 (250000)
I1125 12:06:47.705148 26097 net.cpp:165] Memory required for data: 1152050968
I1125 12:06:47.705150 26097 layer_factory.hpp:77] Creating layer rev-dsn1
I1125 12:06:47.705155 26097 net.cpp:100] Creating Layer rev-dsn1
I1125 12:06:47.705157 26097 net.cpp:434] rev-dsn1 <- sigmoid-dsn1
I1125 12:06:47.705164 26097 net.cpp:408] rev-dsn1 -> rev-dsn1
I1125 12:06:47.705188 26097 net.cpp:150] Setting up rev-dsn1
I1125 12:06:47.705196 26097 net.cpp:157] Top shape: 1 1 500 500 (250000)
I1125 12:06:47.705199 26097 net.cpp:165] Memory required for data: 1153050968
I1125 12:06:47.705201 26097 layer_factory.hpp:77] Creating layer tile-dsn1
I1125 12:06:47.705205 26097 net.cpp:100] Creating Layer tile-dsn1
I1125 12:06:47.705209 26097 net.cpp:434] tile-dsn1 <- rev-dsn1
I1125 12:06:47.705211 26097 net.cpp:408] tile-dsn1 -> weight-dsn1
I1125 12:06:47.705235 26097 net.cpp:150] Setting up tile-dsn1
I1125 12:06:47.705240 26097 net.cpp:157] Top shape: 1 64 500 500 (16000000)
I1125 12:06:47.705241 26097 net.cpp:165] Memory required for data: 1217050968
I1125 12:06:47.705245 26097 layer_factory.hpp:77] Creating layer prod1-dsn1
I1125 12:06:47.705250 26097 net.cpp:100] Creating Layer prod1-dsn1
I1125 12:06:47.705253 26097 net.cpp:434] prod1-dsn1 <- conv1_2_relu1_2_0_split_1
I1125 12:06:47.705257 26097 net.cpp:434] prod1-dsn1 <- weight-dsn1
I1125 12:06:47.705260 26097 net.cpp:408] prod1-dsn1 -> prod1-dsn1
I1125 12:06:47.705283 26097 net.cpp:150] Setting up prod1-dsn1
I1125 12:06:47.705288 26097 net.cpp:157] Top shape: 1 64 500 500 (16000000)
I1125 12:06:47.705291 26097 net.cpp:165] Memory required for data: 1281050968
I1125 12:06:47.705292 26097 layer_factory.hpp:77] Creating layer conv1-dsn1
I1125 12:06:47.705317 26097 net.cpp:100] Creating Layer conv1-dsn1
I1125 12:06:47.705322 26097 net.cpp:434] conv1-dsn1 <- prod1-dsn1
I1125 12:06:47.705325 26097 net.cpp:408] conv1-dsn1 -> conv1-dsn1
I1125 12:06:47.710948 26097 net.cpp:150] Setting up conv1-dsn1
I1125 12:06:47.710963 26097 net.cpp:157] Top shape: 1 64 500 500 (16000000)
I1125 12:06:47.710965 26097 net.cpp:165] Memory required for data: 1345050968
I1125 12:06:47.710971 26097 layer_factory.hpp:77] Creating layer conv2-dsn1
I1125 12:06:47.710981 26097 net.cpp:100] Creating Layer conv2-dsn1
I1125 12:06:47.710985 26097 net.cpp:434] conv2-dsn1 <- conv1-dsn1
I1125 12:06:47.710994 26097 net.cpp:408] conv2-dsn1 -> conv2-dsn1
I1125 12:06:47.712682 26097 net.cpp:150] Setting up conv2-dsn1
I1125 12:06:47.712697 26097 net.cpp:157] Top shape: 1 64 500 500 (16000000)
I1125 12:06:47.712700 26097 net.cpp:165] Memory required for data: 1409050968
I1125 12:06:47.712705 26097 layer_factory.hpp:77] Creating layer relu1-dsn1
I1125 12:06:47.712710 26097 net.cpp:100] Creating Layer relu1-dsn1
I1125 12:06:47.712713 26097 net.cpp:434] relu1-dsn1 <- conv2-dsn1
I1125 12:06:47.712719 26097 net.cpp:395] relu1-dsn1 -> conv2-dsn1 (in-place)
I1125 12:06:47.712890 26097 net.cpp:150] Setting up relu1-dsn1
I1125 12:06:47.712900 26097 net.cpp:157] Top shape: 1 64 500 500 (16000000)
I1125 12:06:47.712903 26097 net.cpp:165] Memory required for data: 1473050968
I1125 12:06:47.712905 26097 layer_factory.hpp:77] Creating layer conv3-dsn1
I1125 12:06:47.712914 26097 net.cpp:100] Creating Layer conv3-dsn1
I1125 12:06:47.712918 26097 net.cpp:434] conv3-dsn1 <- conv2-dsn1
I1125 12:06:47.712922 26097 net.cpp:408] conv3-dsn1 -> conv3-dsn1
I1125 12:06:47.715618 26097 net.cpp:150] Setting up conv3-dsn1
I1125 12:06:47.715633 26097 net.cpp:157] Top shape: 1 64 500 500 (16000000)
I1125 12:06:47.715636 26097 net.cpp:165] Memory required for data: 1537050968
I1125 12:06:47.715641 26097 layer_factory.hpp:77] Creating layer relu2-dsn1
I1125 12:06:47.715647 26097 net.cpp:100] Creating Layer relu2-dsn1
I1125 12:06:47.715651 26097 net.cpp:434] relu2-dsn1 <- conv3-dsn1
I1125 12:06:47.715654 26097 net.cpp:395] relu2-dsn1 -> conv3-dsn1 (in-place)
I1125 12:06:47.715840 26097 net.cpp:150] Setting up relu2-dsn1
I1125 12:06:47.715848 26097 net.cpp:157] Top shape: 1 64 500 500 (16000000)
I1125 12:06:47.715850 26097 net.cpp:165] Memory required for data: 1601050968
I1125 12:06:47.715853 26097 layer_factory.hpp:77] Creating layer conv4-dsn1
I1125 12:06:47.715864 26097 net.cpp:100] Creating Layer conv4-dsn1
I1125 12:06:47.715867 26097 net.cpp:434] conv4-dsn1 <- conv3-dsn1
I1125 12:06:47.715873 26097 net.cpp:408] conv4-dsn1 -> conv4-dsn1
I1125 12:06:47.717245 26097 net.cpp:150] Setting up conv4-dsn1
I1125 12:06:47.717257 26097 net.cpp:157] Top shape: 1 1 500 500 (250000)
I1125 12:06:47.717260 26097 net.cpp:165] Memory required for data: 1602050968
I1125 12:06:47.717267 26097 layer_factory.hpp:77] Creating layer sum-dsn1
I1125 12:06:47.717272 26097 net.cpp:100] Creating Layer sum-dsn1
I1125 12:06:47.717275 26097 net.cpp:434] sum-dsn1 <- conv4-dsn1
I1125 12:06:47.717280 26097 net.cpp:434] sum-dsn1 <- upscore-dsn2_crop2-dsn2_0_split_2
I1125 12:06:47.717286 26097 net.cpp:408] sum-dsn1 -> sum-dsn1
I1125 12:06:47.717315 26097 net.cpp:150] Setting up sum-dsn1
I1125 12:06:47.717324 26097 net.cpp:157] Top shape: 1 1 500 500 (250000)
I1125 12:06:47.717326 26097 net.cpp:165] Memory required for data: 1603050968
I1125 12:06:47.717329 26097 layer_factory.hpp:77] Creating layer crop2-dsn1
I1125 12:06:47.717332 26097 net.cpp:100] Creating Layer crop2-dsn1
I1125 12:06:47.717335 26097 net.cpp:434] crop2-dsn1 <- sum-dsn1
I1125 12:06:47.717339 26097 net.cpp:434] crop2-dsn1 <- data_augmentation_0_split_6
I1125 12:06:47.717344 26097 net.cpp:408] crop2-dsn1 -> upscore-dsn1
I1125 12:06:47.717370 26097 net.cpp:150] Setting up crop2-dsn1
I1125 12:06:47.717375 26097 net.cpp:157] Top shape: 1 1 500 500 (250000)
I1125 12:06:47.717377 26097 net.cpp:165] Memory required for data: 1604050968
I1125 12:06:47.717380 26097 layer_factory.hpp:77] Creating layer loss1-score
I1125 12:06:47.717386 26097 net.cpp:100] Creating Layer loss1-score
I1125 12:06:47.717389 26097 net.cpp:434] loss1-score <- upscore-dsn1
I1125 12:06:47.717392 26097 net.cpp:434] loss1-score <- label_augmentation_1_split_5
I1125 12:06:47.717397 26097 net.cpp:408] loss1-score -> loss1-score
…
I1125 12:06:47.721894 26097 net.cpp:58] Initializing net from parameters: 
name: "RAS"
state {
  phase: TEST
}
layer {
  name: "data"
  type: "ImageLabelmapData"
  top: "data"
  top: "label"
  include {
    phase: TEST
  }
  transform_param {
    mean_value: 104.00699
    mean_value: 116.66877
    mean_value: 122.67892
  }
  image_data_param {
    source: "/media/compute/homes/galberding/FleckDetect/Datasets/val.txt"
    batch_size: 1
    new_height: 500
    new_width: 500
    root_folder: "/media/compute/homes/galberding/FleckDetect/Datasets/"
    normalize: true
  }
}
layer {
  name: "conv1_1"
  type: "Convolution"
  bottom: "data"
  top: "conv1_1"
  param {
    lr_mult: 1
    decay_mult: 1
  }
  param {
    lr_mult: 2
    decay_mult: 0
  }
  convolution_param {
    num_output: 64
    pad: 1
    kernel_size: 3
    engine: CUDNN
  }
}
layer {
  name: "relu1_1"
  type: "ReLU"
  bottom: "conv1_1"
  top: "conv1_1"
}
layer {
  name: "conv1_2"
  type: "Convolution"
  bottom: "conv1_1"
  top: "conv1_2"
  param {
    lr_mult: 1
    decay_mult: 1
  }
  param {
    lr_mult: 2
    decay_mult: 0
  }
  convolution_param {
    num_output: 64
    pad: 1
    kernel_size: 3
    engine: CUDNN
  }
}
layer {
  name: "relu1_2"
  type: "ReLU"
  bottom: "conv1_2"
  top: "conv1_2"
}
layer {
  name: "pool1"
  type: "Pooling"
  bottom: "conv1_2"
  top: "pool1"
  pooling_param {
    pool: MAX
    kernel_size: 2
    stride: 2
  }
}
layer {
  name: "conv2_1"
  type: "Convolution"
  bottom: "pool1"
  top: "conv2_1"
  param {
    lr_mult: 1
    decay_mult: 1
  }
  param {
    lr_mult: 2
    decay_mult: 0
  }
  convolution_param {
    num_output: 128
    pad: 1
    kernel_size: 3
    engine: CUDNN
  }
}
layer {
  name: "relu2_1"
  type: "ReLU"
  bottom: "conv2_1"
  top: "conv2_1"
}
layer {
  name: "conv2_2"
  type: "Convolution"
  bottom: "conv2_1"
  top: "conv2_2"
  param {
    lr_mult: 1
    decay_mult: 1
  }
  param {
    lr_mult: 2
    decay_mult: 0
  }
  convolution_param {
    num_output: 128
    pad: 1
    kernel_size: 3
    engine: CUDNN
  }
}
layer {
  name: "relu2_2"
  type: "ReLU"
  bottom: "conv2_2"
  top: "conv2_2"
}
layer {
  name: "pool2"
  type: "Pooling"
  bottom: "conv2_2"
  top: "pool2"
  pooling_param {
    pool: MAX
    kernel_size: 2
    stride: 2
  }
}
layer {
  name: "conv3_1"
  type: "Convolution"
  bottom: "pool2"
  top: "conv3_1"
  param {
    lr_mult: 1
    decay_mult: 1
  }
  param {
    lr_mult: 2
    decay_mult: 0
  }
  convolution_param {
    num_output: 256
    pad: 1
    kernel_size: 3
    engine: CUDNN
  }
}
layer {
  name: "relu3_1"
  type: "ReLU"
  bottom: "conv3_1"
  top: "conv3_1"
}
layer {
  name: "conv3_2"
  type: "Convolution"
  bottom: "conv3_1"
  top: "conv3_2"
  param {
    lr_mult: 1
    decay_mult: 1
  }
  param {
    lr_mult: 2
    decay_mult: 0
  }
  convolution_param {
    num_output: 256
    pad: 1
    kernel_size: 3
    engine: CUDNN
  }
}
layer {
  name: "relu3_2"
  type: "ReLU"
  bottom: "conv3_2"
  top: "conv3_2"
}
layer {
  name: "conv3_3"
  type: "Convolution"
  bottom: "conv3_2"
  top: "conv3_3"
  param {
    lr_mult: 1
    decay_mult: 1
  }
  param {
    lr_mult: 2
    decay_mult: 0
  }
  convolution_param {
    num_output: 256
    pad: 1
    kernel_size: 3
    engine: CUDNN
  }
}
layer {
  name: "relu3_3"
  type: "ReLU"
  bottom: "conv3_3"
  top: "conv3_3"
}
layer {
  name: "pool3"
  type: "Pooling"
  bottom: "conv3_3"
  top: "pool3"
  pooling_param {
    pool: MAX
    kernel_size: 2
    stride: 2
  }
}
layer {
  name: "conv4_1"
  type: "Convolution"
  bottom: "pool3"
  top: "conv4_1"
  param {
    lr_mult: 1
    decay_mult: 1
  }
  param {
    lr_mult: 2
    decay_mult: 0
  }
  convolution_param {
    num_output: 512
    pad: 1
    kernel_size: 3
    engine: CUDNN
  }
}
layer {
  name: "relu4_1"
  type: "ReLU"
  bottom: "conv4_1"
  top: "conv4_1"
}
layer {
  name: "conv4_2"
  type: "Convolution"
  bottom: "conv4_1"
  top: "conv4_2"
  param {
    lr_mult: 1
    decay_mult: 1
  }
  param {
    lr_mult: 2
    decay_mult: 0
  }
  convolution_param {
    num_output: 512
    pad: 1
    kernel_size: 3
    engine: CUDNN
  }
}
layer {
  name: "relu4_2"
  type: "ReLU"
  bottom: "conv4_2"
  top: "conv4_2"
}
layer {
  name: "conv4_3"
  type: "Convolution"
  bottom: "conv4_2"
  top: "conv4_3"
  param {
    lr_mult: 1
    decay_mult: 1
  }
  param {
    lr_mult: 2
    decay_mult: 0
  }
  convolution_param {
    num_output: 512
    pad: 1
    kernel_size: 3
    engine: CUDNN
  }
}
layer {
  name: "relu4_3"
  type: "ReLU"
  bottom: "conv4_3"
  top: "conv4_3"
}
layer {
  name: "pool4"
  type: "Pooling"
  bottom: "conv4_3"
  top: "pool4"
  pooling_param {
    pool: MAX
    kernel_size: 3
    stride: 2
    pad: 1
  }
}
layer {
  name: "conv5_1"
  type: "Convolution"
  bottom: "pool4"
  top: "conv5_1"
  param {
    lr_mult: 1
    decay_mult: 1
  }
  param {
    lr_mult: 2
    decay_mult: 0
  }
  convolution_param {
    num_output: 512
    pad: 1
    kernel_size: 3
    engine: CUDNN
  }
}
layer {
  name: "relu5_1"
  type: "ReLU"
  bottom: "conv5_1"
  top: "conv5_1"
}
layer {
  name: "conv5_2"
  type: "Convolution"
  bottom: "conv5_1"
  top: "conv5_2"
  param {
    lr_mult: 1
    decay_mult: 1
  }
  param {
    lr_mult: 2
    decay_mult: 0
  }
  convolution_param {
    num_output: 512
    pad: 1
    kernel_size: 3
    engine: CUDNN
  }
}
layer {
  name: "relu5_2"
  type: "ReLU"
  bottom: "conv5_2"
  top: "conv5_2"
}
layer {
  name: "conv5_3"
  type: "Convolution"
  bottom: "conv5_2"
  top: "conv5_3"
  param {
    lr_mult: 1
    decay_mult: 1
  }
  param {
    lr_mult: 2
    decay_mult: 0
  }
  convolution_param {
    num_output: 512
    pad: 1
    kernel_size: 3
    engine: CUDNN
  }
}
layer {
  name: "relu5_3"
  type: "ReLU"
  bottom: "conv5_3"
  top: "conv5_3"
}
layer {
  name: "pool5"
  type: "Pooling"
  bottom: "conv5_3"
  top: "pool5"
  pooling_param {
    pool: MAX
    kernel_size: 3
    stride: 2
    pad: 1
  }
}
layer {
  name: "conv1-dsn6"
  type: "Convolution"
  bottom: "pool5"
  top: "conv1-dsn6"
  param {
    lr_mult: 1
    decay_mult: 1
  }
  param {
    lr_mult: 2
    decay_mult: 0
  }
  convolution_param {
    num_output: 256
    kernel_size: 1
    weight_filler {
      type: "gaussian"
      std: 0.01
    }
    bias_filler {
      type: "constant"
      value: 0
    }
    engine: CUDNN
  }
}
layer {
  name: "conv2-dsn6"
  type: "Convolution"
  bottom: "conv1-dsn6"
  top: "conv2-dsn6"
  param {
    lr_mult: 1
    decay_mult: 1
  }
  param {
    lr_mult: 2
    decay_mult: 0
  }
  convolution_param {
    num_output: 256
    pad: 2
    kernel_size: 5
    weight_filler {
      type: "gaussian"
      std: 0.01
    }
    bias_filler {
      type: "constant"
      value: 0
    }
    engine: CUDNN
  }
}
layer {
  name: "relu1-dsn6"
  type: "ReLU"
  bottom: "conv2-dsn6"
  top: "conv2-dsn6"
}
layer {
  name: "conv3-dsn6"
  type: "Convolution"
  bottom: "conv2-dsn6"
  top: "conv3-dsn6"
  param {
    lr_mult: 1
    decay_mult: 1
  }
  param {
    lr_mult: 2
    decay_mult: 0
  }
  convolution_param {
    num_output: 256
    pad: 2
    kernel_size: 5
    weight_filler {
      type: "gaussian"
      std: 0.01
    }
    bias_filler {
      type: "constant"
      value: 0
    }
    engine: CUDNN
  }
}
layer {
  name: "relu2-dsn6"
  type: "ReLU"
  bottom: "conv3-dsn6"
  top: "conv3-dsn6"
}
layer {
  name: "conv4-dsn6"
  type: "Convolution"
  bottom: "conv3-dsn6"
  top: "conv4-dsn6"
  param {
    lr_mult: 1
    decay_mult: 1
  }
  param {
    lr_mult: 2
    decay_mult: 0
  }
  convolution_param {
    num_output: 256
    pad: 2
    kernel_size: 5
    weight_filler {
      type: "gaussian"
      std: 0.01
    }
    bias_filler {
      type: "constant"
      value: 0
    }
    engine: CUDNN
  }
}
layer {
  name: "relu3-dsn6"
  type: "ReLU"
  bottom: "conv4-dsn6"
  top: "conv4-dsn6"
}
layer {
  name: "conv5-dsn6"
  type: "Convolution"
  bottom: "conv4-dsn6"
  top: "conv5-dsn6"
  param {
    lr_mult: 0.1
    decay_mult: 1
  }
  param {
    lr_mult: 0.2
    decay_mult: 0
  }
  convolution_param {
    num_output: 1
    kernel_size: 1
    weight_filler {
      type: "gaussian"
      std: 0.01
    }
    bias_filler {
      type: "constant"
      value: 0
    }
    engine: CUDNN
  }
}
layer {
  name: "upsample32_dsn6"
  type: "Deconvolution"
  bottom: "conv5-dsn6"
  top: "conv5-dsn6-up"
  param {
    lr_mult: 0
    decay_mult: 1
  }
  param {
    lr_mult: 0
    decay_mult: 0
  }
  convolution_param {
    num_output: 1
    kernel_size: 64
    stride: 32
  }
}
layer {
  name: "crop-dsn6"
  type: "Crop"
  bottom: "conv5-dsn6-up"
  bottom: "data"
  top: "upscore-dsn6"
}
layer {
  name: "loss6-score"
  type: "SigmoidCrossEntropyLoss"
  bottom: "upscore-dsn6"
  bottom: "label"
  top: "loss6-score"
  loss_weight: 1
}
layer {
  name: "upsample2_dsn5"
  type: "Deconvolution"
  bottom: "conv5-dsn6"
  top: "conv5-dsn6-5"
  param {
    lr_mult: 0
    decay_mult: 1
  }
  param {
    lr_mult: 0
    decay_mult: 0
  }
  convolution_param {
    num_output: 1
    kernel_size: 4
    stride: 2
  }
}
layer {
  name: "crop1-dsn5"
  type: "Crop"
  bottom: "conv5-dsn6-5"
  bottom: "conv5_3"
  top: "weight-dsn6-5"
}
layer {
  name: "sigmoid-dsn5"
  type: "Sigmoid"
  bottom: "weight-dsn6-5"
  top: "sigmoid-dsn5"
}
layer {
  name: "rev-dsn5"
  type: "Power"
  bottom: "sigmoid-dsn5"
  top: "rev-dsn5"
  power_param {
    power: 1
    scale: -1
    shift: 1
  }
}
layer {
  name: "tile-dsn5"
  type: "Tile"
  bottom: "rev-dsn5"
  top: "weight-dsn5"
  tile_param {
    tiles: 512
  }
}
layer {
  name: "prod1-dsn5"
  type: "Eltwise"
  bottom: "conv5_3"
  bottom: "weight-dsn5"
  top: "prod1-dsn5"
  eltwise_param {
    operation: PROD
  }
}
layer {
  name: "conv1-dsn5"
  type: "Convolution"
  bottom: "prod1-dsn5"
  top: "conv1-dsn5"
  param {
    lr_mult: 1
    decay_mult: 1
  }
  param {
    lr_mult: 2
    decay_mult: 0
  }
  convolution_param {
    num_output: 64
    kernel_size: 1
    weight_filler {
      type: "gaussian"
      std: 0.01
    }
    bias_filler {
      type: "constant"
      value: 0
    }
    engine: CUDNN
  }
}
layer {
  name: "conv2-dsn5"
  type: "Convolution"
  bottom: "conv1-dsn5"
  top: "conv2-dsn5"
  param {
    lr_mult: 1
    decay_mult: 1
  }
  param {
    lr_mult: 2
    decay_mult: 0
  }
  convolution_param {
    num_output: 64
    pad: 1
    kernel_size: 3
    weight_filler {
      type: "gaussian"
      std: 0.01
    }
    bias_filler {
      type: "constant"
      value: 0
    }
    engine: CUDNN
  }
}
layer {
  name: "relu1-dsn5"
  type: "ReLU"
  bottom: "conv2-dsn5"
  top: "conv2-dsn5"
}
layer {
  name: "conv3-dsn5"
  type: "Convolution"
  bottom: "conv2-dsn5"
  top: "conv3-dsn5"
  param {
    lr_mult: 1
    decay_mult: 1
  }
  param {
    lr_mult: 2
    decay_mult: 0
  }
  convolution_param {
    num_output: 64
    pad: 1
    kernel_size: 3
    weight_filler {
      type: "gaussian"
      std: 0.01
    }
    bias_filler {
      type: "constant"
      value: 0
    }
    engine: CUDNN
  }
}
layer {
  name: "relu2-dsn5"
  type: "ReLU"
  bottom: "conv3-dsn5"
  top: "conv3-dsn5"
}
layer {
  name: "conv4-dsn5"
  type: "Convolution"
  bottom: "conv3-dsn5"
  top: "conv4-dsn5"
  param {
    lr_mult: 1
    decay_mult: 1
  }
  param {
    lr_mult: 2
    decay_mult: 0
  }
  convolution_param {
    num_output: 1
    pad: 1
    kernel_size: 3
    weight_filler {
      type: "gaussian"
      std: 0.01
    }
    bias_filler {
      type: "constant"
      value: 0
    }
    engine: CUDNN
  }
}
layer {
  name: "sum-dsn5"
  type: "Eltwise"
  bottom: "conv4-dsn5"
  bottom: "weight-dsn6-5"
  top: "sum-dsn5"
  eltwise_param {
    operation: SUM
  }
}
layer {
  name: "upsample16_dsn5"
  type: "Deconvolution"
  bottom: "sum-dsn5"
  top: "sum-dsn5-up"
  param {
    lr_mult: 0
    decay_mult: 1
  }
  param {
    lr_mult: 0
    decay_mult: 0
  }
  convolution_param {
    num_output: 1
    kernel_size: 32
    stride: 16
  }
}
layer {
  name: "crop2-dsn5"
  type: "Crop"
  bottom: "sum-dsn5-up"
  bottom: "data"
  top: "upscore-dsn5"
}
layer {
  name: "loss5-score"
  type: "SigmoidCrossEntropyLoss"
  bottom: "upscore-dsn5"
  bottom: "label"
  top: "loss5-score"
  loss_weight: 1
}
layer {
  name: "upsample2_dsn4"
  type: "Deconvolution"
  bottom: "sum-dsn5"
  top: "sum-dsn5-4"
  param {
    lr_mult: 0
    decay_mult: 1
  }
  param {
    lr_mult: 0
    decay_mult: 0
  }
  convolution_param {
    num_output: 1
    kernel_size: 4
    stride: 2
  }
}
layer {
  name: "crop1-dsn4"
  type: "Crop"
  bottom: "sum-dsn5-4"
  bottom: "conv4_3"
  top: "weight-dsn5-4"
}
layer {
  name: "sigmoid-dsn4"
  type: "Sigmoid"
  bottom: "weight-dsn5-4"
  top: "sigmoid-dsn4"
}
layer {
  name: "rev-dsn4"
  type: "Power"
  bottom: "sigmoid-dsn4"
  top: "rev-dsn4"
  power_param {
    power: 1
    scale: -1
    shift: 1
  }
}
layer {
  name: "tile-dsn4"
  type: "Tile"
  bottom: "rev-dsn4"
  top: "weight-dsn4"
  tile_param {
    tiles: 512
  }
}
layer {
  name: "prod1-dsn4"
  type: "Eltwise"
  bottom: "conv4_3"
  bottom: "weight-dsn4"
  top: "prod1-dsn4"
  eltwise_param {
    operation: PROD
  }
}
layer {
  name: "conv1-dsn4"
  type: "Convolution"
  bottom: "prod1-dsn4"
  top: "conv1-dsn4"
  param {
    lr_mult: 1
    decay_mult: 1
  }
  param {
    lr_mult: 2
    decay_mult: 0
  }
  convolution_param {
    num_output: 64
    kernel_size: 1
    weight_filler {
      type: "gaussian"
      std: 0.01
    }
    bias_filler {
      type: "constant"
      value: 0
    }
    engine: CUDNN
  }
}
layer {
  name: "conv2-dsn4"
  type: "Convolution"
  bottom: "conv1-dsn4"
  top: "conv2-dsn4"
  param {
    lr_mult: 1
    decay_mult: 1
  }
  param {
    lr_mult: 2
    decay_mult: 0
  }
  convolution_param {
    num_output: 64
    pad: 1
    kernel_size: 3
    weight_filler {
      type: "gaussian"
      std: 0.01
    }
    bias_filler {
      type: "constant"
      value: 0
    }
    engine: CUDNN
  }
}
layer {
  name: "relu1-dsn4"
  type: "ReLU"
  bottom: "conv2-dsn4"
  top: "conv2-dsn4"
}
layer {
  name: "conv3-dsn4"
  type: "Convolution"
  bottom: "conv2-dsn4"
  top: "conv3-dsn4"
  param {
    lr_mult: 1
    decay_mult: 1
  }
  param {
    lr_mult: 2
    decay_mult: 0
  }
  convolution_param {
    num_output: 64
    pad: 1
    kernel_size: 3
    weight_filler {
      type: "gaussian"
      std: 0.01
    }
    bias_filler {
      type: "constant"
      value: 0
    }
    engine: CUDNN
  }
}
layer {
  name: "relu2-dsn4"
  type: "ReLU"
  bottom: "conv3-dsn4"
  top: "conv3-dsn4"
}
layer {
  name: "conv4-dsn4"
  type: "Convolution"
  bottom: "conv3-dsn4"
  top: "conv4-dsn4"
  param {
    lr_mult: 1
    decay_mult: 1
  }
  param {
    lr_mult: 2
    decay_mult: 0
  }
  convolution_param {
    num_output: 1
    pad: 1
    kernel_size: 3
    weight_filler {
      type: "gaussian"
      std: 0.01
    }
    bias_filler {
      type: "constant"
      value: 0
    }
    engine: CUDNN
  }
}
layer {
  name: "sum-dsn4"
  type: "Eltwise"
  bottom: "conv4-dsn4"
  bottom: "weight-dsn5-4"
  top: "sum-dsn4"
  eltwise_param {
    operation: SUM
  }
}
layer {
  name: "upsample8_dsn4"
  type: "Deconvolution"
  bottom: "sum-dsn4"
  top: "sum-dsn4-up"
  param {
    lr_mult: 0
    decay_mult: 1
  }
  param {
    lr_mult: 0
    decay_mult: 0
  }
  convolution_param {
    num_output: 1
    kernel_size: 16
    stride: 8
  }
}
layer {
  name: "crop2-dsn4"
  type: "Crop"
  bottom: "sum-dsn4-up"
  bottom: "data"
  top: "upscore-dsn4"
}
layer {
  name: "loss4-score"
  type: "SigmoidCrossEntropyLoss"
  bottom: "upscore-dsn4"
  bottom: "label"
  top: "loss4-score"
  loss_weight: 1
}
layer {
  name: "upsample2_dsn3"
  type: "Deconvolution"
  bottom: "sum-dsn4"
  top: "sum-dsn4-3"
  param {
    lr_mult: 0
    decay_mult: 1
  }
  param {
    lr_mult: 0
    decay_mult: 0
  }
  convolution_param {
    num_output: 1
    kernel_size: 4
    stride: 2
  }
}
layer {
  name: "crop1-dsn3"
  type: "Crop"
  bottom: "sum-dsn4-3"
  bottom: "conv3_3"
  top: "weight-dsn4-3"
}
layer {
  name: "sigmoid-dsn3"
  type: "Sigmoid"
  bottom: "weight-dsn4-3"
  top: "sigmoid-dsn3"
}
layer {
  name: "rev-dsn3"
  type: "Power"
  bottom: "sigmoid-dsn3"
  top: "rev-dsn3"
  power_param {
    power: 1
    scale: -1
    shift: 1
  }
}
layer {
  name: "tile-dsn3"
  type: "Tile"
  bottom: "rev-dsn3"
  top: "weight-dsn3"
  tile_param {
    tiles: 256
  }
}
layer {
  name: "prod1-dsn3"
  type: "Eltwise"
  bottom: "conv3_3"
  bottom: "weight-dsn3"
  top: "prod1-dsn3"
  eltwise_param {
    operation: PROD
  }
}
layer {
  name: "conv1-dsn3"
  type: "Convolution"
  bottom: "prod1-dsn3"
  top: "conv1-dsn3"
  param {
    lr_mult: 1
    decay_mult: 1
  }
  param {
    lr_mult: 2
    decay_mult: 0
  }
  convolution_param {
    num_output: 64
    kernel_size: 1
    weight_filler {
      type: "gaussian"
      std: 0.01
    }
    bias_filler {
      type: "constant"
      value: 0
    }
    engine: CUDNN
  }
}
layer {
  name: "conv2-dsn3"
  type: "Convolution"
  bottom: "conv1-dsn3"
  top: "conv2-dsn3"
  param {
    lr_mult: 1
    decay_mult: 1
  }
  param {
    lr_mult: 2
    decay_mult: 0
  }
  convolution_param {
    num_output: 64
    pad: 1
    kernel_size: 3
    weight_filler {
      type: "gaussian"
      std: 0.01
    }
    bias_filler {
      type: "constant"
      value: 0
    }
    engine: CUDNN
  }
}
layer {
  name: "relu1-dsn3"
  type: "ReLU"
  bottom: "conv2-dsn3"
  top: "conv2-dsn3"
}
layer {
  name: "conv3-dsn3"
  type: "Convolution"
  bottom: "conv2-dsn3"
  top: "conv3-dsn3"
  param {
    lr_mult: 1
    decay_mult: 1
  }
  param {
    lr_mult: 2
    decay_mult: 0
  }
  convolution_param {
    num_output: 64
    pad: 1
    kernel_size: 3
    weight_filler {
      type: "gaussian"
      std: 0.01
    }
    bias_filler {
      type: "constant"
      value: 0
    }
    engine: CUDNN
  }
}
layer {
  name: "relu2-dsn3"
  type: "ReLU"
  bottom: "conv3-dsn3"
  top: "conv3-dsn3"
}
layer {
  name: "conv4-dsn3"
  type: "Convolution"
  bottom: "conv3-dsn3"
  top: "conv4-dsn3"
  param {
    lr_mult: 1
    decay_mult: 1
  }
  param {
    lr_mult: 2
    decay_mult: 0
  }
  convolution_param {
    num_output: 1
    pad: 1
    kernel_size: 3
    weight_filler {
      type: "gaussian"
      std: 0.01
    }
    bias_filler {
      type: "constant"
      value: 0
    }
    engine: CUDNN
  }
}
layer {
  name: "sum-dsn3"
  type: "Eltwise"
  bottom: "conv4-dsn3"
  bottom: "weight-dsn4-3"
  top: "sum-dsn3"
  eltwise_param {
    operation: SUM
  }
}
layer {
  name: "upsample4_dsn3"
  type: "Deconvolution"
  bottom: "sum-dsn3"
  top: "sum-dsn3-up"
  param {
    lr_mult: 0
    decay_mult: 1
  }
  param {
    lr_mult: 0
    decay_mult: 0
  }
  convolution_param {
    num_output: 1
    kernel_size: 8
    stride: 4
  }
}
layer {
  name: "crop2-dsn3"
  type: "Crop"
  bottom: "sum-dsn3-up"
  bottom: "data"
  top: "upscore-dsn3"
}
layer {
  name: "loss3-score"
  type: "SigmoidCrossEntropyLoss"
  bottom: "upscore-dsn3"
  bottom: "label"
  top: "loss3-score"
  loss_weight: 1
}
layer {
  name: "upsample2_1-dsn2"
  type: "Deconvolution"
  bottom: "sum-dsn3"
  top: "sum-dsn3-2"
  param {
    lr_mult: 0
    decay_mult: 1
  }
  param {
    lr_mult: 0
    decay_mult: 0
  }
  convolution_param {
    num_output: 1
    kernel_size: 4
    stride: 2
  }
}
layer {
  name: "crop1-dsn2"
  type: "Crop"
  bottom: "sum-dsn3-2"
  bottom: "conv2_2"
  top: "weight-dsn3-2"
}
layer {
  name: "sigmoid-dsn2"
  type: "Sigmoid"
  bottom: "weight-dsn3-2"
  top: "sigmoid-dsn2"
}
layer {
  name: "rev-dsn2"
  type: "Power"
  bottom: "sigmoid-dsn2"
  top: "rev-dsn2"
  power_param {
    power: 1
    scale: -1
    shift: 1
  }
}
layer {
  name: "tile-dsn2"
  type: "Tile"
  bottom: "rev-dsn2"
  top: "weight-dsn2"
  tile_param {
    tiles: 128
  }
}
layer {
  name: "prod1-dsn2"
  type: "Eltwise"
  bottom: "conv2_2"
  bottom: "weight-dsn2"
  top: "prod1-dsn2"
  eltwise_param {
    operation: PROD
  }
}
layer {
  name: "conv1-dsn2"
  type: "Convolution"
  bottom: "prod1-dsn2"
  top: "conv1-dsn2"
  param {
    lr_mult: 1
    decay_mult: 1
  }
  param {
    lr_mult: 2
    decay_mult: 0
  }
  convolution_param {
    num_output: 64
    kernel_size: 1
    weight_filler {
      type: "gaussian"
      std: 0.01
    }
    bias_filler {
      type: "constant"
      value: 0
    }
    engine: CUDNN
  }
}
layer {
  name: "conv2-dsn2"
  type: "Convolution"
  bottom: "conv1-dsn2"
  top: "conv2-dsn2"
  param {
    lr_mult: 1
    decay_mult: 1
  }
  param {
    lr_mult: 2
    decay_mult: 0
  }
  convolution_param {
    num_output: 64
    pad: 1
    kernel_size: 3
    weight_filler {
      type: "gaussian"
      std: 0.01
    }
    bias_filler {
      type: "constant"
      value: 0
    }
    engine: CUDNN
  }
}
layer {
  name: "relu1-dsn2"
  type: "ReLU"
  bottom: "conv2-dsn2"
  top: "conv2-dsn2"
}
layer {
  name: "conv3-dsn2"
  type: "Convolution"
  bottom: "conv2-dsn2"
  top: "conv3-dsn2"
  param {
    lr_mult: 1
    decay_mult: 1
  }
  param {
    lr_mult: 2
    decay_mult: 0
  }
  convolution_param {
    num_output: 64
    pad: 1
    kernel_size: 3
    weight_filler {
      type: "gaussian"
      std: 0.01
    }
    bias_filler {
      type: "constant"
      value: 0
    }
    engine: CUDNN
  }
}
layer {
  name: "relu2-dsn2"
  type: "ReLU"
  bottom: "conv3-dsn2"
  top: "conv3-dsn2"
}
layer {
  name: "conv4-dsn2"
  type: "Convolution"
  bottom: "conv3-dsn2"
  top: "conv4-dsn2"
  param {
    lr_mult: 1
    decay_mult: 1
  }
  param {
    lr_mult: 2
    decay_mult: 0
  }
  convolution_param {
    num_output: 1
    pad: 1
    kernel_size: 3
    weight_filler {
      type: "gaussian"
      std: 0.01
    }
    bias_filler {
      type: "constant"
      value: 0
    }
    engine: CUDNN
  }
}
layer {
  name: "sum-dsn2"
  type: "Eltwise"
  bottom: "conv4-dsn2"
  bottom: "weight-dsn3-2"
  top: "sum-dsn2"
  eltwise_param {
    operation: SUM
  }
}
layer {
  name: "upsample2_2-dsn2"
  type: "Deconvolution"
  bottom: "sum-dsn2"
  top: "sum-dsn2-up"
  param {
    lr_mult: 0
    decay_mult: 1
  }
  param {
    lr_mult: 0
    decay_mult: 0
  }
  convolution_param {
    num_output: 1
    kernel_size: 4
    stride: 2
  }
}
layer {
  name: "crop2-dsn2"
  type: "Crop"
  bottom: "sum-dsn2-up"
  bottom: "data"
  top: "upscore-dsn2"
}
layer {
  name: "loss2-score"
  type: "SigmoidCrossEntropyLoss"
  bottom: "upscore-dsn2"
  bottom: "label"
  top: "loss2-score"
  loss_weight: 1
}
layer {
  name: "sigmoid-dsn1"
  type: "Sigmoid"
  bottom: "upscore-dsn2"
  top: "sigmoid-dsn1"
}
layer {
  name: "rev-dsn1"
  type: "Power"
  bottom: "sigmoid-dsn1"
  top: "rev-dsn1"
  power_param {
    power: 1
    scale: -1
    shift: 1
  }
}
layer {
  name: "tile-dsn1"
  type: "Tile"
  bottom: "rev-dsn1"
  top: "weight-dsn1"
  tile_param {
    tiles: 64
  }
}
layer {
  name: "prod1-dsn1"
  type: "Eltwise"
  bottom: "conv1_2"
  bottom: "weight-dsn1"
  top: "prod1-dsn1"
  eltwise_param {
    operation: PROD
  }
}
layer {
  name: "conv1-dsn1"
  type: "Convolution"
  bottom: "prod1-dsn1"
  top: "conv1-dsn1"
  param {
    lr_mult: 1
    decay_mult: 1
  }
  param {
    lr_mult: 2
    decay_mult: 0
  }
  convolution_param {
    num_output: 64
    kernel_size: 1
    weight_filler {
      type: "gaussian"
      std: 0.01
    }
    bias_filler {
      type: "constant"
      value: 0
    }
    engine: CUDNN
  }
}
layer {
  name: "conv2-dsn1"
  type: "Convolution"
  bottom: "conv1-dsn1"
  top: "conv2-dsn1"
  param {
    lr_mult: 1
    decay_mult: 1
  }
  param {
    lr_mult: 2
    decay_mult: 0
  }
  convolution_param {
    num_output: 64
    pad: 1
    kernel_size: 3
    weight_filler {
      type: "gaussian"
      std: 0.01
    }
    bias_filler {
      type: "constant"
      value: 0
    }
    engine: CUDNN
  }
}
layer {
  name: "relu1-dsn1"
  type: "ReLU"
  bottom: "conv2-dsn1"
  top: "conv2-dsn1"
}
layer {
  name: "conv3-dsn1"
  type: "Convolution"
  bottom: "conv2-dsn1"
  top: "conv3-dsn1"
  param {
    lr_mult: 1
    decay_mult: 1
  }
  param {
    lr_mult: 2
    decay_mult: 0
  }
  convolution_param {
    num_output: 64
    pad: 1
    kernel_size: 3
    weight_filler {
      type: "gaussian"
      std: 0.01
    }
    bias_filler {
      type: "constant"
      value: 0
    }
    engine: CUDNN
  }
}
layer {
  name: "relu2-dsn1"
  type: "ReLU"
  bottom: "conv3-dsn1"
  top: "conv3-dsn1"
}
layer {
  name: "conv4-dsn1"
  type: "Convolution"
  bottom: "conv3-dsn1"
  top: "conv4-dsn1"
  param {
    lr_mult: 1
    decay_mult: 1
  }
  param {
    lr_mult: 2
    decay_mult: 0
  }
  convolution_param {
    num_output: 1
    pad: 1
    kernel_size: 3
    weight_filler {
      type: "gaussian"
      std: 0.01
    }
    bias_filler {
      type: "constant"
      value: 0
    }
    engine: CUDNN
  }
}
layer {
  name: "sum-dsn1"
  type: "Eltwise"
  bottom: "conv4-dsn1"
  bottom: "upscore-dsn2"
  top: "sum-dsn1"
  eltwise_param {
    operation: SUM
  }
}
layer {
  name: "crop2-dsn1"
  type: "Crop"
  bottom: "sum-dsn1"
  bottom: "data"
  top: "upscore-dsn1"
}
layer {
  name: "loss1-score"
  type: "SigmoidCrossEntropyLoss"
  bottom: "upscore-dsn1"
  bottom: "label"
  top: "loss1-score"
  loss_weight: 1
}
I1125 12:06:47.722311 26097 layer_factory.hpp:77] Creating layer data
I1125 12:06:47.722326 26097 net.cpp:100] Creating Layer data
I1125 12:06:47.722331 26097 net.cpp:408] data -> data
I1125 12:06:47.722337 26097 net.cpp:408] data -> label
I1125 12:06:47.722347 26097 image_labelmap_data_layer.cpp:41] Opening file /media/compute/homes/galberding/FleckDetect/Datasets/val.txt
I1125 12:06:47.724316 26097 image_labelmap_data_layer.cpp:56] A total of 1200 images.
I1125 12:06:47.736840 26097 image_labelmap_data_layer.cpp:110] output data size: 1,3,500,500
I1125 12:06:47.736866 26097 image_labelmap_data_layer.cpp:113] output label size: 1,1,500,500
I1125 12:06:47.746649 26097 net.cpp:150] Setting up data
I1125 12:06:47.746665 26097 net.cpp:157] Top shape: 1 3 500 500 (750000)
I1125 12:06:47.746683 26097 net.cpp:157] Top shape: 1 1 500 500 (250000)
I1125 12:06:47.746686 26097 net.cpp:165] Memory required for data: 4000000
I1125 12:06:47.746690 26097 layer_factory.hpp:77] Creating layer data_data_0_split
I1125 12:06:47.746701 26097 net.cpp:100] Creating Layer data_data_0_split
I1125 12:06:47.746703 26097 net.cpp:434] data_data_0_split <- data
I1125 12:06:47.746709 26097 net.cpp:408] data_data_0_split -> data_data_0_split_0
I1125 12:06:47.746718 26097 net.cpp:408] data_data_0_split -> data_data_0_split_1
I1125 12:06:47.746724 26097 net.cpp:408] data_data_0_split -> data_data_0_split_2
I1125 12:06:47.746729 26097 net.cpp:408] data_data_0_split -> data_data_0_split_3
I1125 12:06:47.746734 26097 net.cpp:408] data_data_0_split -> data_data_0_split_4
I1125 12:06:47.746739 26097 net.cpp:408] data_data_0_split -> data_data_0_split_5
I1125 12:06:47.746743 26097 net.cpp:408] data_data_0_split -> data_data_0_split_6
I1125 12:06:47.746963 26097 net.cpp:150] Setting up data_data_0_split
I1125 12:06:47.746971 26097 net.cpp:157] Top shape: 1 3 500 500 (750000)
I1125 12:06:47.746975 26097 net.cpp:157] Top shape: 1 3 500 500 (750000)
I1125 12:06:47.746978 26097 net.cpp:157] Top shape: 1 3 500 500 (750000)
I1125 12:06:47.746981 26097 net.cpp:157] Top shape: 1 3 500 500 (750000)
I1125 12:06:47.746984 26097 net.cpp:157] Top shape: 1 3 500 500 (750000)
I1125 12:06:47.746989 26097 net.cpp:157] Top shape: 1 3 500 500 (750000)
I1125 12:06:47.746991 26097 net.cpp:157] Top shape: 1 3 500 500 (750000)
I1125 12:06:47.746994 26097 net.cpp:165] Memory required for data: 25000000
I1125 12:06:47.746996 26097 layer_factory.hpp:77] Creating layer label_data_1_split
I1125 12:06:47.747002 26097 net.cpp:100] Creating Layer label_data_1_split
I1125 12:06:47.747005 26097 net.cpp:434] label_data_1_split <- label
I1125 12:06:47.747009 26097 net.cpp:408] label_data_1_split -> label_data_1_split_0
I1125 12:06:47.747015 26097 net.cpp:408] label_data_1_split -> label_data_1_split_1
I1125 12:06:47.747021 26097 net.cpp:408] label_data_1_split -> label_data_1_split_2
I1125 12:06:47.747026 26097 net.cpp:408] label_data_1_split -> label_data_1_split_3
I1125 12:06:47.747031 26097 net.cpp:408] label_data_1_split -> label_data_1_split_4
I1125 12:06:47.747036 26097 net.cpp:408] label_data_1_split -> label_data_1_split_5
I1125 12:06:47.747155 26097 net.cpp:150] Setting up label_data_1_split
I1125 12:06:47.747162 26097 net.cpp:157] Top shape: 1 1 500 500 (250000)
I1125 12:06:47.747166 26097 net.cpp:157] Top shape: 1 1 500 500 (250000)
I1125 12:06:47.747169 26097 net.cpp:157] Top shape: 1 1 500 500 (250000)
I1125 12:06:47.747172 26097 net.cpp:157] Top shape: 1 1 500 500 (250000)
I1125 12:06:47.747175 26097 net.cpp:157] Top shape: 1 1 500 500 (250000)
I1125 12:06:47.747179 26097 net.cpp:157] Top shape: 1 1 500 500 (250000)
I1125 12:06:47.747180 26097 net.cpp:165] Memory required for data: 31000000
I1125 12:06:47.747184 26097 layer_factory.hpp:77] Creating layer conv1_1
I1125 12:06:47.747193 26097 net.cpp:100] Creating Layer conv1_1
I1125 12:06:47.747195 26097 net.cpp:434] conv1_1 <- data_data_0_split_0
I1125 12:06:47.747200 26097 net.cpp:408] conv1_1 -> conv1_1
I1125 12:06:47.750111 26097 net.cpp:150] Setting up conv1_1
I1125 12:06:47.750124 26097 net.cpp:157] Top shape: 1 64 500 500 (16000000)
I1125 12:06:47.750169 26097 net.cpp:165] Memory required for data: 95000000
I1125 12:06:47.750180 26097 layer_factory.hpp:77] Creating layer relu1_1
I1125 12:06:47.750186 26097 net.cpp:100] Creating Layer relu1_1
I1125 12:06:47.750190 26097 net.cpp:434] relu1_1 <- conv1_1
I1125 12:06:47.750195 26097 net.cpp:395] relu1_1 -> conv1_1 (in-place)
I1125 12:06:47.750386 26097 net.cpp:150] Setting up relu1_1
I1125 12:06:47.750396 26097 net.cpp:157] Top shape: 1 64 500 500 (16000000)
I1125 12:06:47.750398 26097 net.cpp:165] Memory required for data: 159000000
I1125 12:06:47.750401 26097 layer_factory.hpp:77] Creating layer conv1_2
I1125 12:06:47.750408 26097 net.cpp:100] Creating Layer conv1_2
I1125 12:06:47.750411 26097 net.cpp:434] conv1_2 <- conv1_1
I1125 12:06:47.750417 26097 net.cpp:408] conv1_2 -> conv1_2
I1125 12:06:47.751754 26097 net.cpp:150] Setting up conv1_2
I1125 12:06:47.751765 26097 net.cpp:157] Top shape: 1 64 500 500 (16000000)
I1125 12:06:47.751768 26097 net.cpp:165] Memory required for data: 223000000
I1125 12:06:47.751791 26097 layer_factory.hpp:77] Creating layer relu1_2
I1125 12:06:47.751798 26097 net.cpp:100] Creating Layer relu1_2
I1125 12:06:47.751801 26097 net.cpp:434] relu1_2 <- conv1_2
I1125 12:06:47.751806 26097 net.cpp:395] relu1_2 -> conv1_2 (in-place)
I1125 12:06:47.752331 26097 net.cpp:150] Setting up relu1_2
I1125 12:06:47.752342 26097 net.cpp:157] Top shape: 1 64 500 500 (16000000)
I1125 12:06:47.752346 26097 net.cpp:165] Memory required for data: 287000000
I1125 12:06:47.752364 26097 layer_factory.hpp:77] Creating layer conv1_2_relu1_2_0_split
I1125 12:06:47.752369 26097 net.cpp:100] Creating Layer conv1_2_relu1_2_0_split
I1125 12:06:47.752372 26097 net.cpp:434] conv1_2_relu1_2_0_split <- conv1_2
I1125 12:06:47.752378 26097 net.cpp:408] conv1_2_relu1_2_0_split -> conv1_2_relu1_2_0_split_0
I1125 12:06:47.752385 26097 net.cpp:408] conv1_2_relu1_2_0_split -> conv1_2_relu1_2_0_split_1
I1125 12:06:47.752434 26097 net.cpp:150] Setting up conv1_2_relu1_2_0_split
I1125 12:06:47.752439 26097 net.cpp:157] Top shape: 1 64 500 500 (16000000)
I1125 12:06:47.752441 26097 net.cpp:157] Top shape: 1 64 500 500 (16000000)
I1125 12:06:47.752444 26097 net.cpp:165] Memory required for data: 415000000
I1125 12:06:47.752446 26097 layer_factory.hpp:77] Creating layer pool1
I1125 12:06:47.752457 26097 net.cpp:100] Creating Layer pool1
I1125 12:06:47.752460 26097 net.cpp:434] pool1 <- conv1_2_relu1_2_0_split_0
I1125 12:06:47.752465 26097 net.cpp:408] pool1 -> pool1
I1125 12:06:47.752509 26097 net.cpp:150] Setting up pool1
I1125 12:06:47.752516 26097 net.cpp:157] Top shape: 1 64 250 250 (4000000)
I1125 12:06:47.752517 26097 net.cpp:165] Memory required for data: 431000000
I1125 12:06:47.752521 26097 layer_factory.hpp:77] Creating layer conv2_1
I1125 12:06:47.752528 26097 net.cpp:100] Creating Layer conv2_1
I1125 12:06:47.752530 26097 net.cpp:434] conv2_1 <- pool1
I1125 12:06:47.752534 26097 net.cpp:408] conv2_1 -> conv2_1
I1125 12:06:47.753798 26097 net.cpp:150] Setting up conv2_1
I1125 12:06:47.753808 26097 net.cpp:157] Top shape: 1 128 250 250 (8000000)
I1125 12:06:47.753811 26097 net.cpp:165] Memory required for data: 463000000
I1125 12:06:47.753837 26097 layer_factory.hpp:77] Creating layer relu2_1
I1125 12:06:47.753842 26097 net.cpp:100] Creating Layer relu2_1
I1125 12:06:47.753845 26097 net.cpp:434] relu2_1 <- conv2_1
I1125 12:06:47.753849 26097 net.cpp:395] relu2_1 -> conv2_1 (in-place)
I1125 12:06:47.754379 26097 net.cpp:150] Setting up relu2_1
I1125 12:06:47.754390 26097 net.cpp:157] Top shape: 1 128 250 250 (8000000)
I1125 12:06:47.754393 26097 net.cpp:165] Memory required for data: 495000000
I1125 12:06:47.754412 26097 layer_factory.hpp:77] Creating layer conv2_2
I1125 12:06:47.754421 26097 net.cpp:100] Creating Layer conv2_2
I1125 12:06:47.754424 26097 net.cpp:434] conv2_2 <- conv2_1
I1125 12:06:47.754431 26097 net.cpp:408] conv2_2 -> conv2_2
I1125 12:06:47.757302 26097 net.cpp:150] Setting up conv2_2
I1125 12:06:47.757314 26097 net.cpp:157] Top shape: 1 128 250 250 (8000000)
I1125 12:06:47.757318 26097 net.cpp:165] Memory required for data: 527000000
I1125 12:06:47.757339 26097 layer_factory.hpp:77] Creating layer relu2_2
I1125 12:06:47.757345 26097 net.cpp:100] Creating Layer relu2_2
I1125 12:06:47.757349 26097 net.cpp:434] relu2_2 <- conv2_2
I1125 12:06:47.757354 26097 net.cpp:395] relu2_2 -> conv2_2 (in-place)
I1125 12:06:47.757565 26097 net.cpp:150] Setting up relu2_2
I1125 12:06:47.757575 26097 net.cpp:157] Top shape: 1 128 250 250 (8000000)
I1125 12:06:47.757576 26097 net.cpp:165] Memory required for data: 559000000
I1125 12:06:47.757580 26097 layer_factory.hpp:77] Creating layer conv2_2_relu2_2_0_split
I1125 12:06:47.757586 26097 net.cpp:100] Creating Layer conv2_2_relu2_2_0_split
I1125 12:06:47.757587 26097 net.cpp:434] conv2_2_relu2_2_0_split <- conv2_2
I1125 12:06:47.757594 26097 net.cpp:408] conv2_2_relu2_2_0_split -> conv2_2_relu2_2_0_split_0
I1125 12:06:47.757601 26097 net.cpp:408] conv2_2_relu2_2_0_split -> conv2_2_relu2_2_0_split_1
I1125 12:06:47.757606 26097 net.cpp:408] conv2_2_relu2_2_0_split -> conv2_2_relu2_2_0_split_2
I1125 12:06:47.757668 26097 net.cpp:150] Setting up conv2_2_relu2_2_0_split
I1125 12:06:47.757673 26097 net.cpp:157] Top shape: 1 128 250 250 (8000000)
I1125 12:06:47.757676 26097 net.cpp:157] Top shape: 1 128 250 250 (8000000)
I1125 12:06:47.757679 26097 net.cpp:157] Top shape: 1 128 250 250 (8000000)
I1125 12:06:47.757681 26097 net.cpp:165] Memory required for data: 655000000
I1125 12:06:47.757683 26097 layer_factory.hpp:77] Creating layer pool2
I1125 12:06:47.757691 26097 net.cpp:100] Creating Layer pool2
I1125 12:06:47.757694 26097 net.cpp:434] pool2 <- conv2_2_relu2_2_0_split_0
I1125 12:06:47.757699 26097 net.cpp:408] pool2 -> pool2
I1125 12:06:47.757737 26097 net.cpp:150] Setting up pool2
I1125 12:06:47.757742 26097 net.cpp:157] Top shape: 1 128 125 125 (2000000)
I1125 12:06:47.757745 26097 net.cpp:165] Memory required for data: 663000000
I1125 12:06:47.757747 26097 layer_factory.hpp:77] Creating layer conv3_1
I1125 12:06:47.757753 26097 net.cpp:100] Creating Layer conv3_1
I1125 12:06:47.757755 26097 net.cpp:434] conv3_1 <- pool2
I1125 12:06:47.757761 26097 net.cpp:408] conv3_1 -> conv3_1
I1125 12:06:47.760680 26097 net.cpp:150] Setting up conv3_1
I1125 12:06:47.760694 26097 net.cpp:157] Top shape: 1 256 125 125 (4000000)
I1125 12:06:47.760696 26097 net.cpp:165] Memory required for data: 679000000
I1125 12:06:47.760722 26097 layer_factory.hpp:77] Creating layer relu3_1
I1125 12:06:47.760730 26097 net.cpp:100] Creating Layer relu3_1
I1125 12:06:47.760733 26097 net.cpp:434] relu3_1 <- conv3_1
I1125 12:06:47.760738 26097 net.cpp:395] relu3_1 -> conv3_1 (in-place)
I1125 12:06:47.760923 26097 net.cpp:150] Setting up relu3_1
I1125 12:06:47.760931 26097 net.cpp:157] Top shape: 1 256 125 125 (4000000)
I1125 12:06:47.760934 26097 net.cpp:165] Memory required for data: 695000000
I1125 12:06:47.760937 26097 layer_factory.hpp:77] Creating layer conv3_2
I1125 12:06:47.760944 26097 net.cpp:100] Creating Layer conv3_2
I1125 12:06:47.760947 26097 net.cpp:434] conv3_2 <- conv3_1
I1125 12:06:47.760953 26097 net.cpp:408] conv3_2 -> conv3_2
I1125 12:06:47.766237 26097 net.cpp:150] Setting up conv3_2
I1125 12:06:47.766250 26097 net.cpp:157] Top shape: 1 256 125 125 (4000000)
I1125 12:06:47.766268 26097 net.cpp:165] Memory required for data: 711000000
I1125 12:06:47.766274 26097 layer_factory.hpp:77] Creating layer relu3_2
I1125 12:06:47.766280 26097 net.cpp:100] Creating Layer relu3_2
I1125 12:06:47.766283 26097 net.cpp:434] relu3_2 <- conv3_2
I1125 12:06:47.766289 26097 net.cpp:395] relu3_2 -> conv3_2 (in-place)
I1125 12:06:47.766474 26097 net.cpp:150] Setting up relu3_2
I1125 12:06:47.766481 26097 net.cpp:157] Top shape: 1 256 125 125 (4000000)
I1125 12:06:47.766484 26097 net.cpp:165] Memory required for data: 727000000
I1125 12:06:47.766486 26097 layer_factory.hpp:77] Creating layer conv3_3
I1125 12:06:47.766494 26097 net.cpp:100] Creating Layer conv3_3
I1125 12:06:47.766497 26097 net.cpp:434] conv3_3 <- conv3_2
I1125 12:06:47.766502 26097 net.cpp:408] conv3_3 -> conv3_3
I1125 12:06:47.769599 26097 net.cpp:150] Setting up conv3_3
I1125 12:06:47.769611 26097 net.cpp:157] Top shape: 1 256 125 125 (4000000)
I1125 12:06:47.769630 26097 net.cpp:165] Memory required for data: 743000000
I1125 12:06:47.769636 26097 layer_factory.hpp:77] Creating layer relu3_3
I1125 12:06:47.769641 26097 net.cpp:100] Creating Layer relu3_3
I1125 12:06:47.769644 26097 net.cpp:434] relu3_3 <- conv3_3
I1125 12:06:47.769650 26097 net.cpp:395] relu3_3 -> conv3_3 (in-place)
I1125 12:06:47.769830 26097 net.cpp:150] Setting up relu3_3
I1125 12:06:47.769838 26097 net.cpp:157] Top shape: 1 256 125 125 (4000000)
I1125 12:06:47.769841 26097 net.cpp:165] Memory required for data: 759000000
I1125 12:06:47.769845 26097 layer_factory.hpp:77] Creating layer conv3_3_relu3_3_0_split
I1125 12:06:47.769850 26097 net.cpp:100] Creating Layer conv3_3_relu3_3_0_split
I1125 12:06:47.769852 26097 net.cpp:434] conv3_3_relu3_3_0_split <- conv3_3
I1125 12:06:47.769858 26097 net.cpp:408] conv3_3_relu3_3_0_split -> conv3_3_relu3_3_0_split_0
I1125 12:06:47.769865 26097 net.cpp:408] conv3_3_relu3_3_0_split -> conv3_3_relu3_3_0_split_1
I1125 12:06:47.769870 26097 net.cpp:408] conv3_3_relu3_3_0_split -> conv3_3_relu3_3_0_split_2
I1125 12:06:47.769932 26097 net.cpp:150] Setting up conv3_3_relu3_3_0_split
I1125 12:06:47.769938 26097 net.cpp:157] Top shape: 1 256 125 125 (4000000)
I1125 12:06:47.769942 26097 net.cpp:157] Top shape: 1 256 125 125 (4000000)
I1125 12:06:47.769945 26097 net.cpp:157] Top shape: 1 256 125 125 (4000000)
I1125 12:06:47.769948 26097 net.cpp:165] Memory required for data: 807000000
I1125 12:06:47.769950 26097 layer_factory.hpp:77] Creating layer pool3
I1125 12:06:47.769955 26097 net.cpp:100] Creating Layer pool3
I1125 12:06:47.769958 26097 net.cpp:434] pool3 <- conv3_3_relu3_3_0_split_0
I1125 12:06:47.769963 26097 net.cpp:408] pool3 -> pool3
I1125 12:06:47.770009 26097 net.cpp:150] Setting up pool3
I1125 12:06:47.770015 26097 net.cpp:157] Top shape: 1 256 63 63 (1016064)
I1125 12:06:47.770018 26097 net.cpp:165] Memory required for data: 811064256
I1125 12:06:47.770020 26097 layer_factory.hpp:77] Creating layer conv4_1
I1125 12:06:47.770027 26097 net.cpp:100] Creating Layer conv4_1
I1125 12:06:47.770031 26097 net.cpp:434] conv4_1 <- pool3
I1125 12:06:47.770036 26097 net.cpp:408] conv4_1 -> conv4_1
I1125 12:06:47.774365 26097 net.cpp:150] Setting up conv4_1
I1125 12:06:47.774379 26097 net.cpp:157] Top shape: 1 512 63 63 (2032128)
I1125 12:06:47.774397 26097 net.cpp:165] Memory required for data: 819192768
I1125 12:06:47.774403 26097 layer_factory.hpp:77] Creating layer relu4_1
I1125 12:06:47.774408 26097 net.cpp:100] Creating Layer relu4_1
I1125 12:06:47.774411 26097 net.cpp:434] relu4_1 <- conv4_1
I1125 12:06:47.774417 26097 net.cpp:395] relu4_1 -> conv4_1 (in-place)
I1125 12:06:47.774940 26097 net.cpp:150] Setting up relu4_1
I1125 12:06:47.774951 26097 net.cpp:157] Top shape: 1 512 63 63 (2032128)
I1125 12:06:47.774953 26097 net.cpp:165] Memory required for data: 827321280
I1125 12:06:47.774972 26097 layer_factory.hpp:77] Creating layer conv4_2
I1125 12:06:47.774981 26097 net.cpp:100] Creating Layer conv4_2
I1125 12:06:47.774983 26097 net.cpp:434] conv4_2 <- conv4_1
I1125 12:06:47.774989 26097 net.cpp:408] conv4_2 -> conv4_2
I1125 12:06:47.781281 26097 net.cpp:150] Setting up conv4_2
I1125 12:06:47.781296 26097 net.cpp:157] Top shape: 1 512 63 63 (2032128)
I1125 12:06:47.781299 26097 net.cpp:165] Memory required for data: 835449792
I1125 12:06:47.781311 26097 layer_factory.hpp:77] Creating layer relu4_2
I1125 12:06:47.781318 26097 net.cpp:100] Creating Layer relu4_2
I1125 12:06:47.781322 26097 net.cpp:434] relu4_2 <- conv4_2
I1125 12:06:47.781328 26097 net.cpp:395] relu4_2 -> conv4_2 (in-place)
I1125 12:06:47.782027 26097 net.cpp:150] Setting up relu4_2
I1125 12:06:47.782039 26097 net.cpp:157] Top shape: 1 512 63 63 (2032128)
I1125 12:06:47.782042 26097 net.cpp:165] Memory required for data: 843578304
I1125 12:06:47.782045 26097 layer_factory.hpp:77] Creating layer conv4_3
I1125 12:06:47.782054 26097 net.cpp:100] Creating Layer conv4_3
I1125 12:06:47.782058 26097 net.cpp:434] conv4_3 <- conv4_2
I1125 12:06:47.782066 26097 net.cpp:408] conv4_3 -> conv4_3
I1125 12:06:47.788981 26097 net.cpp:150] Setting up conv4_3
I1125 12:06:47.788995 26097 net.cpp:157] Top shape: 1 512 63 63 (2032128)
I1125 12:06:47.788998 26097 net.cpp:165] Memory required for data: 851706816
I1125 12:06:47.789021 26097 layer_factory.hpp:77] Creating layer relu4_3
I1125 12:06:47.789028 26097 net.cpp:100] Creating Layer relu4_3
I1125 12:06:47.789031 26097 net.cpp:434] relu4_3 <- conv4_3
I1125 12:06:47.789036 26097 net.cpp:395] relu4_3 -> conv4_3 (in-place)
I1125 12:06:47.789270 26097 net.cpp:150] Setting up relu4_3
I1125 12:06:47.789279 26097 net.cpp:157] Top shape: 1 512 63 63 (2032128)
I1125 12:06:47.789281 26097 net.cpp:165] Memory required for data: 859835328
I1125 12:06:47.789285 26097 layer_factory.hpp:77] Creating layer conv4_3_relu4_3_0_split
I1125 12:06:47.789290 26097 net.cpp:100] Creating Layer conv4_3_relu4_3_0_split
I1125 12:06:47.789294 26097 net.cpp:434] conv4_3_relu4_3_0_split <- conv4_3
I1125 12:06:47.789300 26097 net.cpp:408] conv4_3_relu4_3_0_split -> conv4_3_relu4_3_0_split_0
I1125 12:06:47.789307 26097 net.cpp:408] conv4_3_relu4_3_0_split -> conv4_3_relu4_3_0_split_1
I1125 12:06:47.789312 26097 net.cpp:408] conv4_3_relu4_3_0_split -> conv4_3_relu4_3_0_split_2
I1125 12:06:47.789377 26097 net.cpp:150] Setting up conv4_3_relu4_3_0_split
I1125 12:06:47.789383 26097 net.cpp:157] Top shape: 1 512 63 63 (2032128)
I1125 12:06:47.789386 26097 net.cpp:157] Top shape: 1 512 63 63 (2032128)
I1125 12:06:47.789391 26097 net.cpp:157] Top shape: 1 512 63 63 (2032128)
I1125 12:06:47.789392 26097 net.cpp:165] Memory required for data: 884220864
I1125 12:06:47.789394 26097 layer_factory.hpp:77] Creating layer pool4
I1125 12:06:47.789400 26097 net.cpp:100] Creating Layer pool4
I1125 12:06:47.789403 26097 net.cpp:434] pool4 <- conv4_3_relu4_3_0_split_0
I1125 12:06:47.789408 26097 net.cpp:408] pool4 -> pool4
I1125 12:06:47.789453 26097 net.cpp:150] Setting up pool4
I1125 12:06:47.789459 26097 net.cpp:157] Top shape: 1 512 32 32 (524288)
I1125 12:06:47.789461 26097 net.cpp:165] Memory required for data: 886318016
I1125 12:06:47.789463 26097 layer_factory.hpp:77] Creating layer conv5_1
I1125 12:06:47.789470 26097 net.cpp:100] Creating Layer conv5_1
I1125 12:06:47.789474 26097 net.cpp:434] conv5_1 <- pool4
I1125 12:06:47.789479 26097 net.cpp:408] conv5_1 -> conv5_1
I1125 12:06:47.796017 26097 net.cpp:150] Setting up conv5_1
I1125 12:06:47.796031 26097 net.cpp:157] Top shape: 1 512 32 32 (524288)
I1125 12:06:47.796051 26097 net.cpp:165] Memory required for data: 888415168
I1125 12:06:47.796056 26097 layer_factory.hpp:77] Creating layer relu5_1
I1125 12:06:47.796069 26097 net.cpp:100] Creating Layer relu5_1
I1125 12:06:47.796073 26097 net.cpp:434] relu5_1 <- conv5_1
I1125 12:06:47.796077 26097 net.cpp:395] relu5_1 -> conv5_1 (in-place)
I1125 12:06:47.796275 26097 net.cpp:150] Setting up relu5_1
I1125 12:06:47.796284 26097 net.cpp:157] Top shape: 1 512 32 32 (524288)
I1125 12:06:47.796286 26097 net.cpp:165] Memory required for data: 890512320
I1125 12:06:47.796289 26097 layer_factory.hpp:77] Creating layer conv5_2
I1125 12:06:47.796296 26097 net.cpp:100] Creating Layer conv5_2
I1125 12:06:47.796299 26097 net.cpp:434] conv5_2 <- conv5_1
I1125 12:06:47.796306 26097 net.cpp:408] conv5_2 -> conv5_2
I1125 12:06:47.804508 26097 net.cpp:150] Setting up conv5_2
I1125 12:06:47.804523 26097 net.cpp:157] Top shape: 1 512 32 32 (524288)
I1125 12:06:47.804527 26097 net.cpp:165] Memory required for data: 892609472
I1125 12:06:47.804548 26097 layer_factory.hpp:77] Creating layer relu5_2
I1125 12:06:47.804554 26097 net.cpp:100] Creating Layer relu5_2
I1125 12:06:47.804558 26097 net.cpp:434] relu5_2 <- conv5_2
I1125 12:06:47.804563 26097 net.cpp:395] relu5_2 -> conv5_2 (in-place)
I1125 12:06:47.804746 26097 net.cpp:150] Setting up relu5_2
I1125 12:06:47.804755 26097 net.cpp:157] Top shape: 1 512 32 32 (524288)
I1125 12:06:47.804757 26097 net.cpp:165] Memory required for data: 894706624
I1125 12:06:47.804761 26097 layer_factory.hpp:77] Creating layer conv5_3
I1125 12:06:47.804769 26097 net.cpp:100] Creating Layer conv5_3
I1125 12:06:47.804774 26097 net.cpp:434] conv5_3 <- conv5_2
I1125 12:06:47.804780 26097 net.cpp:408] conv5_3 -> conv5_3
I1125 12:06:47.812119 26097 net.cpp:150] Setting up conv5_3
I1125 12:06:47.812137 26097 net.cpp:157] Top shape: 1 512 32 32 (524288)
I1125 12:06:47.812155 26097 net.cpp:165] Memory required for data: 896803776
I1125 12:06:47.812161 26097 layer_factory.hpp:77] Creating layer relu5_3
I1125 12:06:47.812167 26097 net.cpp:100] Creating Layer relu5_3
I1125 12:06:47.812170 26097 net.cpp:434] relu5_3 <- conv5_3
I1125 12:06:47.812175 26097 net.cpp:395] relu5_3 -> conv5_3 (in-place)
I1125 12:06:47.812345 26097 net.cpp:150] Setting up relu5_3
I1125 12:06:47.812352 26097 net.cpp:157] Top shape: 1 512 32 32 (524288)
I1125 12:06:47.812355 26097 net.cpp:165] Memory required for data: 898900928
I1125 12:06:47.812357 26097 layer_factory.hpp:77] Creating layer conv5_3_relu5_3_0_split
I1125 12:06:47.812368 26097 net.cpp:100] Creating Layer conv5_3_relu5_3_0_split
I1125 12:06:47.812371 26097 net.cpp:434] conv5_3_relu5_3_0_split <- conv5_3
I1125 12:06:47.812376 26097 net.cpp:408] conv5_3_relu5_3_0_split -> conv5_3_relu5_3_0_split_0
I1125 12:06:47.812388 26097 net.cpp:408] conv5_3_relu5_3_0_split -> conv5_3_relu5_3_0_split_1
I1125 12:06:47.812393 26097 net.cpp:408] conv5_3_relu5_3_0_split -> conv5_3_relu5_3_0_split_2
I1125 12:06:47.812477 26097 net.cpp:150] Setting up conv5_3_relu5_3_0_split
I1125 12:06:47.812484 26097 net.cpp:157] Top shape: 1 512 32 32 (524288)
I1125 12:06:47.812486 26097 net.cpp:157] Top shape: 1 512 32 32 (524288)
I1125 12:06:47.812489 26097 net.cpp:157] Top shape: 1 512 32 32 (524288)
I1125 12:06:47.812490 26097 net.cpp:165] Memory required for data: 905192384
I1125 12:06:47.812492 26097 layer_factory.hpp:77] Creating layer pool5
I1125 12:06:47.812500 26097 net.cpp:100] Creating Layer pool5
I1125 12:06:47.812502 26097 net.cpp:434] pool5 <- conv5_3_relu5_3_0_split_0
I1125 12:06:47.812506 26097 net.cpp:408] pool5 -> pool5
I1125 12:06:47.812561 26097 net.cpp:150] Setting up pool5
…
I1125 12:06:47.867262 26097 net.cpp:165] Memory required for data: 907559872
I1125 12:06:47.867277 26097 layer_factory.hpp:77] Creating layer relu3-dsn6
I1125 12:06:47.867281 26097 net.cpp:100] Creating Layer relu3-dsn6
I1125 12:06:47.867286 26097 net.cpp:434] relu3-dsn6 <- conv4-dsn6
I1125 12:06:47.867290 26097 net.cpp:395] relu3-dsn6 -> conv4-dsn6 (in-place)
I1125 12:06:47.867483 26097 net.cpp:150] Setting up relu3-dsn6
I1125 12:06:47.867491 26097 net.cpp:157] Top shape: 1 256 17 17 (73984)
I1125 12:06:47.867493 26097 net.cpp:165] Memory required for data: 907855808
I1125 12:06:47.867496 26097 layer_factory.hpp:77] Creating layer conv5-dsn6
I1125 12:06:47.867504 26097 net.cpp:100] Creating Layer conv5-dsn6
I1125 12:06:47.867506 26097 net.cpp:434] conv5-dsn6 <- conv4-dsn6
I1125 12:06:47.867513 26097 net.cpp:408] conv5-dsn6 -> conv5-dsn6
I1125 12:06:47.868645 26097 net.cpp:150] Setting up conv5-dsn6
I1125 12:06:47.868656 26097 net.cpp:157] Top shape: 1 1 17 17 (289)
I1125 12:06:47.868674 26097 net.cpp:165] Memory required for data: 907856964
I1125 12:06:47.868680 26097 layer_factory.hpp:77] Creating layer conv5-dsn6_conv5-dsn6_0_split
I1125 12:06:47.868686 26097 net.cpp:100] Creating Layer conv5-dsn6_conv5-dsn6_0_split
I1125 12:06:47.868690 26097 net.cpp:434] conv5-dsn6_conv5-dsn6_0_split <- conv5-dsn6
I1125 12:06:47.868695 26097 net.cpp:408] conv5-dsn6_conv5-dsn6_0_split -> conv5-dsn6_conv5-dsn6_0_split_0
I1125 12:06:47.868700 26097 net.cpp:408] conv5-dsn6_conv5-dsn6_0_split -> conv5-dsn6_conv5-dsn6_0_split_1
I1125 12:06:47.868746 26097 net.cpp:150] Setting up conv5-dsn6_conv5-dsn6_0_split
I1125 12:06:47.868750 26097 net.cpp:157] Top shape: 1 1 17 17 (289)
I1125 12:06:47.868753 26097 net.cpp:157] Top shape: 1 1 17 17 (289)
I1125 12:06:47.868755 26097 net.cpp:165] Memory required for data: 907859276
I1125 12:06:47.868757 26097 layer_factory.hpp:77] Creating layer upsample32_dsn6
I1125 12:06:47.868764 26097 net.cpp:100] Creating Layer upsample32_dsn6
I1125 12:06:47.868767 26097 net.cpp:434] upsample32_dsn6 <- conv5-dsn6_conv5-dsn6_0_split_0
I1125 12:06:47.868772 26097 net.cpp:408] upsample32_dsn6 -> conv5-dsn6-up
I1125 12:06:47.874178 26097 net.cpp:150] Setting up upsample32_dsn6
I1125 12:06:47.874191 26097 net.cpp:157] Top shape: 1 1 576 576 (331776)
I1125 12:06:47.874208 26097 net.cpp:165] Memory required for data: 909186380
I1125 12:06:47.874214 26097 layer_factory.hpp:77] Creating layer crop-dsn6
I1125 12:06:47.874222 26097 net.cpp:100] Creating Layer crop-dsn6
I1125 12:06:47.874225 26097 net.cpp:434] crop-dsn6 <- conv5-dsn6-up
I1125 12:06:47.874228 26097 net.cpp:434] crop-dsn6 <- data_data_0_split_1
I1125 12:06:47.874233 26097 net.cpp:408] crop-dsn6 -> upscore-dsn6
I1125 12:06:47.874274 26097 net.cpp:150] Setting up crop-dsn6
I1125 12:06:47.874279 26097 net.cpp:157] Top shape: 1 1 500 500 (250000)
I1125 12:06:47.874280 26097 net.cpp:165] Memory required for data: 910186380
I1125 12:06:47.874282 26097 layer_factory.hpp:77] Creating layer loss6-score
I1125 12:06:47.874290 26097 net.cpp:100] Creating Layer loss6-score
I1125 12:06:47.874294 26097 net.cpp:434] loss6-score <- upscore-dsn6
I1125 12:06:47.874296 26097 net.cpp:434] loss6-score <- label_data_1_split_0
I1125 12:06:47.874303 26097 net.cpp:408] loss6-score -> loss6-score
I1125 12:06:47.875583 26097 net.cpp:150] Setting up loss6-score
I1125 12:06:47.875593 26097 net.cpp:157] Top shape: (1)
I1125 12:06:47.875596 26097 net.cpp:160]     with loss weight 1
I1125 12:06:47.875622 26097 net.cpp:165] Memory required for data: 910186384
I1125 12:06:47.875624 26097 layer_factory.hpp:77] Creating layer upsample2_dsn5
I1125 12:06:47.875633 26097 net.cpp:100] Creating Layer upsample2_dsn5
I1125 12:06:47.875636 26097 net.cpp:434] upsample2_dsn5 <- conv5-dsn6_conv5-dsn6_0_split_1
I1125 12:06:47.875643 26097 net.cpp:408] upsample2_dsn5 -> conv5-dsn6-5
I1125 12:06:47.875911 26097 net.cpp:150] Setting up upsample2_dsn5
I1125 12:06:47.875919 26097 net.cpp:157] Top shape: 1 1 36 36 (1296)
I1125 12:06:47.875921 26097 net.cpp:165] Memory required for data: 910191568
I1125 12:06:47.875926 26097 layer_factory.hpp:77] Creating layer crop1-dsn5
I1125 12:06:47.875931 26097 net.cpp:100] Creating Layer crop1-dsn5
I1125 12:06:47.875932 26097 net.cpp:434] crop1-dsn5 <- conv5-dsn6-5
I1125 12:06:47.875936 26097 net.cpp:434] crop1-dsn5 <- conv5_3_relu5_3_0_split_1
I1125 12:06:47.875942 26097 net.cpp:408] crop1-dsn5 -> weight-dsn6-5
I1125 12:06:47.875967 26097 net.cpp:150] Setting up crop1-dsn5
I1125 12:06:47.875973 26097 net.cpp:157] Top shape: 1 1 32 32 (1024)
I1125 12:06:47.875975 26097 net.cpp:165] Memory required for data: 910195664
I1125 12:06:47.875977 26097 layer_factory.hpp:77] Creating layer weight-dsn6-5_crop1-dsn5_0_split
I1125 12:06:47.875982 26097 net.cpp:100] Creating Layer weight-dsn6-5_crop1-dsn5_0_split
I1125 12:06:47.875984 26097 net.cpp:434] weight-dsn6-5_crop1-dsn5_0_split <- weight-dsn6-5
I1125 12:06:47.875991 26097 net.cpp:408] weight-dsn6-5_crop1-dsn5_0_split -> weight-dsn6-5_crop1-dsn5_0_split_0
I1125 12:06:47.875996 26097 net.cpp:408] weight-dsn6-5_crop1-dsn5_0_split -> weight-dsn6-5_crop1-dsn5_0_split_1
I1125 12:06:47.876034 26097 net.cpp:150] Setting up weight-dsn6-5_crop1-dsn5_0_split
I1125 12:06:47.876039 26097 net.cpp:157] Top shape: 1 1 32 32 (1024)
I1125 12:06:47.876041 26097 net.cpp:157] Top shape: 1 1 32 32 (1024)
I1125 12:06:47.876044 26097 net.cpp:165] Memory required for data: 910203856
I1125 12:06:47.876045 26097 layer_factory.hpp:77] Creating layer sigmoid-dsn5
I1125 12:06:47.876055 26097 net.cpp:100] Creating Layer sigmoid-dsn5
I1125 12:06:47.876056 26097 net.cpp:434] sigmoid-dsn5 <- weight-dsn6-5_crop1-dsn5_0_split_0
I1125 12:06:47.876060 26097 net.cpp:408] sigmoid-dsn5 -> sigmoid-dsn5
I1125 12:06:47.876292 26097 net.cpp:150] Setting up sigmoid-dsn5
I1125 12:06:47.876300 26097 net.cpp:157] Top shape: 1 1 32 32 (1024)
I1125 12:06:47.876302 26097 net.cpp:165] Memory required for data: 910207952
I1125 12:06:47.876305 26097 layer_factory.hpp:77] Creating layer rev-dsn5
I1125 12:06:47.876313 26097 net.cpp:100] Creating Layer rev-dsn5
I1125 12:06:47.876317 26097 net.cpp:434] rev-dsn5 <- sigmoid-dsn5
I1125 12:06:47.876320 26097 net.cpp:408] rev-dsn5 -> rev-dsn5
I1125 12:06:47.876348 26097 net.cpp:150] Setting up rev-dsn5
I1125 12:06:47.876353 26097 net.cpp:157] Top shape: 1 1 32 32 (1024)
I1125 12:06:47.876356 26097 net.cpp:165] Memory required for data: 910212048
I1125 12:06:47.876358 26097 layer_factory.hpp:77] Creating layer tile-dsn5
I1125 12:06:47.876364 26097 net.cpp:100] Creating Layer tile-dsn5
I1125 12:06:47.876368 26097 net.cpp:434] tile-dsn5 <- rev-dsn5
I1125 12:06:47.876372 26097 net.cpp:408] tile-dsn5 -> weight-dsn5
I1125 12:06:47.876397 26097 net.cpp:150] Setting up tile-dsn5
I1125 12:06:47.876402 26097 net.cpp:157] Top shape: 1 512 32 32 (524288)
I1125 12:06:47.876405 26097 net.cpp:165] Memory required for data: 912309200
I1125 12:06:47.876407 26097 layer_factory.hpp:77] Creating layer prod1-dsn5
I1125 12:06:47.876412 26097 net.cpp:100] Creating Layer prod1-dsn5
I1125 12:06:47.876415 26097 net.cpp:434] prod1-dsn5 <- conv5_3_relu5_3_0_split_2
I1125 12:06:47.876418 26097 net.cpp:434] prod1-dsn5 <- weight-dsn5
I1125 12:06:47.876425 26097 net.cpp:408] prod1-dsn5 -> prod1-dsn5
I1125 12:06:47.876479 26097 net.cpp:150] Setting up prod1-dsn5
I1125 12:06:47.876485 26097 net.cpp:157] Top shape: 1 512 32 32 (524288)
I1125 12:06:47.876487 26097 net.cpp:165] Memory required for data: 914406352
I1125 12:06:47.876489 26097 layer_factory.hpp:77] Creating layer conv1-dsn5
I1125 12:06:47.876497 26097 net.cpp:100] Creating Layer conv1-dsn5
I1125 12:06:47.876500 26097 net.cpp:434] conv1-dsn5 <- prod1-dsn5
I1125 12:06:47.876504 26097 net.cpp:408] conv1-dsn5 -> conv1-dsn5
I1125 12:06:47.877928 26097 net.cpp:150] Setting up conv1-dsn5
I1125 12:06:47.877938 26097 net.cpp:157] Top shape: 1 64 32 32 (65536)
I1125 12:06:47.877957 26097 net.cpp:165] Memory required for data: 914668496
I1125 12:06:47.877962 26097 layer_factory.hpp:77] Creating layer conv2-dsn5
I1125 12:06:47.877974 26097 net.cpp:100] Creating Layer conv2-dsn5
I1125 12:06:47.877975 26097 net.cpp:434] conv2-dsn5 <- conv1-dsn5
I1125 12:06:47.877981 26097 net.cpp:408] conv2-dsn5 -> conv2-dsn5
I1125 12:06:47.879459 26097 net.cpp:150] Setting up conv2-dsn5
I1125 12:06:47.879470 26097 net.cpp:157] Top shape: 1 64 32 32 (65536)
I1125 12:06:47.879472 26097 net.cpp:165] Memory required for data: 914930640
I1125 12:06:47.879493 26097 layer_factory.hpp:77] Creating layer relu1-dsn5
I1125 12:06:47.879500 26097 net.cpp:100] Creating Layer relu1-dsn5
I1125 12:06:47.879503 26097 net.cpp:434] relu1-dsn5 <- conv2-dsn5
I1125 12:06:47.879508 26097 net.cpp:395] relu1-dsn5 -> conv2-dsn5 (in-place)
I1125 12:06:47.879688 26097 net.cpp:150] Setting up relu1-dsn5
I1125 12:06:47.879695 26097 net.cpp:157] Top shape: 1 64 32 32 (65536)
I1125 12:06:47.879698 26097 net.cpp:165] Memory required for data: 915192784
I1125 12:06:47.879699 26097 layer_factory.hpp:77] Creating layer conv3-dsn5
I1125 12:06:47.879707 26097 net.cpp:100] Creating Layer conv3-dsn5
I1125 12:06:47.879709 26097 net.cpp:434] conv3-dsn5 <- conv2-dsn5
I1125 12:06:47.879716 26097 net.cpp:408] conv3-dsn5 -> conv3-dsn5
I1125 12:06:47.881218 26097 net.cpp:150] Setting up conv3-dsn5
I1125 12:06:47.881228 26097 net.cpp:157] Top shape: 1 64 32 32 (65536)
I1125 12:06:47.881247 26097 net.cpp:165] Memory required for data: 915454928
I1125 12:06:47.881253 26097 layer_factory.hpp:77] Creating layer relu2-dsn5
I1125 12:06:47.881256 26097 net.cpp:100] Creating Layer relu2-dsn5
I1125 12:06:47.881259 26097 net.cpp:434] relu2-dsn5 <- conv3-dsn5
I1125 12:06:47.881265 26097 net.cpp:395] relu2-dsn5 -> conv3-dsn5 (in-place)
I1125 12:06:47.881453 26097 net.cpp:150] Setting up relu2-dsn5
I1125 12:06:47.881460 26097 net.cpp:157] Top shape: 1 64 32 32 (65536)
I1125 12:06:47.881462 26097 net.cpp:165] Memory required for data: 915717072
I1125 12:06:47.881464 26097 layer_factory.hpp:77] Creating layer conv4-dsn5
I1125 12:06:47.881474 26097 net.cpp:100] Creating Layer conv4-dsn5
I1125 12:06:47.881477 26097 net.cpp:434] conv4-dsn5 <- conv3-dsn5
I1125 12:06:47.881484 26097 net.cpp:408] conv4-dsn5 -> conv4-dsn5
I1125 12:06:47.882604 26097 net.cpp:150] Setting up conv4-dsn5
I1125 12:06:47.882632 26097 net.cpp:157] Top shape: 1 1 32 32 (1024)
I1125 12:06:47.882635 26097 net.cpp:165] Memory required for data: 915721168
I1125 12:06:47.882639 26097 layer_factory.hpp:77] Creating layer sum-dsn5
I1125 12:06:47.882656 26097 net.cpp:100] Creating Layer sum-dsn5
I1125 12:06:47.882659 26097 net.cpp:434] sum-dsn5 <- conv4-dsn5
I1125 12:06:47.882663 26097 net.cpp:434] sum-dsn5 <- weight-dsn6-5_crop1-dsn5_0_split_1
I1125 12:06:47.882668 26097 net.cpp:408] sum-dsn5 -> sum-dsn5
I1125 12:06:47.882697 26097 net.cpp:150] Setting up sum-dsn5
I1125 12:06:47.882702 26097 net.cpp:157] Top shape: 1 1 32 32 (1024)
I1125 12:06:47.882704 26097 net.cpp:165] Memory required for data: 915725264
I1125 12:06:47.882706 26097 layer_factory.hpp:77] Creating layer sum-dsn5_sum-dsn5_0_split
I1125 12:06:47.882710 26097 net.cpp:100] Creating Layer sum-dsn5_sum-dsn5_0_split
I1125 12:06:47.882714 26097 net.cpp:434] sum-dsn5_sum-dsn5_0_split <- sum-dsn5
I1125 12:06:47.882719 26097 net.cpp:408] sum-dsn5_sum-dsn5_0_split -> sum-dsn5_sum-dsn5_0_split_0
I1125 12:06:47.882725 26097 net.cpp:408] sum-dsn5_sum-dsn5_0_split -> sum-dsn5_sum-dsn5_0_split_1
I1125 12:06:47.882764 26097 net.cpp:150] Setting up sum-dsn5_sum-dsn5_0_split
I1125 12:06:47.882769 26097 net.cpp:157] Top shape: 1 1 32 32 (1024)
I1125 12:06:47.882772 26097 net.cpp:157] Top shape: 1 1 32 32 (1024)
I1125 12:06:47.882774 26097 net.cpp:165] Memory required for data: 915733456
I1125 12:06:47.882776 26097 layer_factory.hpp:77] Creating layer upsample16_dsn5
I1125 12:06:47.882783 26097 net.cpp:100] Creating Layer upsample16_dsn5
I1125 12:06:47.882786 26097 net.cpp:434] upsample16_dsn5 <- sum-dsn5_sum-dsn5_0_split_0
I1125 12:06:47.882789 26097 net.cpp:408] upsample16_dsn5 -> sum-dsn5-up
I1125 12:06:47.884244 26097 net.cpp:150] Setting up upsample16_dsn5
I1125 12:06:47.884258 26097 net.cpp:157] Top shape: 1 1 528 528 (278784)
I1125 12:06:47.884275 26097 net.cpp:165] Memory required for data: 916848592
I1125 12:06:47.884280 26097 layer_factory.hpp:77] Creating layer crop2-dsn5
I1125 12:06:47.884285 26097 net.cpp:100] Creating Layer crop2-dsn5
I1125 12:06:47.884289 26097 net.cpp:434] crop2-dsn5 <- sum-dsn5-up
I1125 12:06:47.884292 26097 net.cpp:434] crop2-dsn5 <- data_data_0_split_2
I1125 12:06:47.884297 26097 net.cpp:408] crop2-dsn5 -> upscore-dsn5
I1125 12:06:47.884332 26097 net.cpp:150] Setting up crop2-dsn5
I1125 12:06:47.884337 26097 net.cpp:157] Top shape: 1 1 500 500 (250000)
I1125 12:06:47.884340 26097 net.cpp:165] Memory required for data: 917848592
I1125 12:06:47.884341 26097 layer_factory.hpp:77] Creating layer loss5-score
I1125 12:06:47.884349 26097 net.cpp:100] Creating Layer loss5-score
I1125 12:06:47.884352 26097 net.cpp:434] loss5-score <- upscore-dsn5
I1125 12:06:47.884356 26097 net.cpp:434] loss5-score <- label_data_1_split_1
I1125 12:06:47.884361 26097 net.cpp:408] loss5-score -> loss5-score
I1125 12:06:47.884557 26097 net.cpp:150] Setting up loss5-score
I1125 12:06:47.884563 26097 net.cpp:157] Top shape: (1)
I1125 12:06:47.884565 26097 net.cpp:160]     with loss weight 1
I1125 12:06:47.884570 26097 net.cpp:165] Memory required for data: 917848596
I1125 12:06:47.884572 26097 layer_factory.hpp:77] Creating layer upsample2_dsn4
I1125 12:06:47.884579 26097 net.cpp:100] Creating Layer upsample2_dsn4
I1125 12:06:47.884582 26097 net.cpp:434] upsample2_dsn4 <- sum-dsn5_sum-dsn5_0_split_1
I1125 12:06:47.884588 26097 net.cpp:408] upsample2_dsn4 -> sum-dsn5-4
I1125 12:06:47.884860 26097 net.cpp:150] Setting up upsample2_dsn4
I1125 12:06:47.884865 26097 net.cpp:157] Top shape: 1 1 66 66 (4356)
I1125 12:06:47.884866 26097 net.cpp:165] Memory required for data: 917866020
I1125 12:06:47.884871 26097 layer_factory.hpp:77] Creating layer crop1-dsn4
I1125 12:06:47.884874 26097 net.cpp:100] Creating Layer crop1-dsn4
I1125 12:06:47.884877 26097 net.cpp:434] crop1-dsn4 <- sum-dsn5-4
I1125 12:06:47.884881 26097 net.cpp:434] crop1-dsn4 <- conv4_3_relu4_3_0_split_1
I1125 12:06:47.884884 26097 net.cpp:408] crop1-dsn4 -> weight-dsn5-4
I1125 12:06:47.884912 26097 net.cpp:150] Setting up crop1-dsn4
I1125 12:06:47.884915 26097 net.cpp:157] Top shape: 1 1 63 63 (3969)
I1125 12:06:47.884917 26097 net.cpp:165] Memory required for data: 917881896
I1125 12:06:47.884919 26097 layer_factory.hpp:77] Creating layer weight-dsn5-4_crop1-dsn4_0_split
I1125 12:06:47.884924 26097 net.cpp:100] Creating Layer weight-dsn5-4_crop1-dsn4_0_split
I1125 12:06:47.884927 26097 net.cpp:434] weight-dsn5-4_crop1-dsn4_0_split <- weight-dsn5-4
I1125 12:06:47.884932 26097 net.cpp:408] weight-dsn5-4_crop1-dsn4_0_split -> weight-dsn5-4_crop1-dsn4_0_split_0
I1125 12:06:47.884935 26097 net.cpp:408] weight-dsn5-4_crop1-dsn4_0_split -> weight-dsn5-4_crop1-dsn4_0_split_1
I1125 12:06:47.884974 26097 net.cpp:150] Setting up weight-dsn5-4_crop1-dsn4_0_split
I1125 12:06:47.884979 26097 net.cpp:157] Top shape: 1 1 63 63 (3969)
I1125 12:06:47.884981 26097 net.cpp:157] Top shape: 1 1 63 63 (3969)
I1125 12:06:47.884984 26097 net.cpp:165] Memory required for data: 917913648
I1125 12:06:47.884985 26097 layer_factory.hpp:77] Creating layer sigmoid-dsn4
I1125 12:06:47.884989 26097 net.cpp:100] Creating Layer sigmoid-dsn4
I1125 12:06:47.884992 26097 net.cpp:434] sigmoid-dsn4 <- weight-dsn5-4_crop1-dsn4_0_split_0
I1125 12:06:47.884997 26097 net.cpp:408] sigmoid-dsn4 -> sigmoid-dsn4
I1125 12:06:47.885215 26097 net.cpp:150] Setting up sigmoid-dsn4
I1125 12:06:47.885223 26097 net.cpp:157] Top shape: 1 1 63 63 (3969)
I1125 12:06:47.885226 26097 net.cpp:165] Memory required for data: 917929524
I1125 12:06:47.885227 26097 layer_factory.hpp:77] Creating layer rev-dsn4
I1125 12:06:47.885231 26097 net.cpp:100] Creating Layer rev-dsn4
I1125 12:06:47.885234 26097 net.cpp:434] rev-dsn4 <- sigmoid-dsn4
I1125 12:06:47.885241 26097 net.cpp:408] rev-dsn4 -> rev-dsn4
I1125 12:06:47.885268 26097 net.cpp:150] Setting up rev-dsn4
I1125 12:06:47.885272 26097 net.cpp:157] Top shape: 1 1 63 63 (3969)
I1125 12:06:47.885275 26097 net.cpp:165] Memory required for data: 917945400
I1125 12:06:47.885277 26097 layer_factory.hpp:77] Creating layer tile-dsn4
I1125 12:06:47.885282 26097 net.cpp:100] Creating Layer tile-dsn4
I1125 12:06:47.885284 26097 net.cpp:434] tile-dsn4 <- rev-dsn4
I1125 12:06:47.885289 26097 net.cpp:408] tile-dsn4 -> weight-dsn4
I1125 12:06:47.885313 26097 net.cpp:150] Setting up tile-dsn4
I1125 12:06:47.885319 26097 net.cpp:157] Top shape: 1 512 63 63 (2032128)
I1125 12:06:47.885321 26097 net.cpp:165] Memory required for data: 926073912
I1125 12:06:47.885324 26097 layer_factory.hpp:77] Creating layer prod1-dsn4
I1125 12:06:47.885327 26097 net.cpp:100] Creating Layer prod1-dsn4
I1125 12:06:47.885330 26097 net.cpp:434] prod1-dsn4 <- conv4_3_relu4_3_0_split_2
I1125 12:06:47.885334 26097 net.cpp:434] prod1-dsn4 <- weight-dsn4
I1125 12:06:47.885337 26097 net.cpp:408] prod1-dsn4 -> prod1-dsn4
I1125 12:06:47.885362 26097 net.cpp:150] Setting up prod1-dsn4
I1125 12:06:47.885367 26097 net.cpp:157] Top shape: 1 512 63 63 (2032128)
I1125 12:06:47.885370 26097 net.cpp:165] Memory required for data: 934202424
I1125 12:06:47.885372 26097 layer_factory.hpp:77] Creating layer conv1-dsn4
I1125 12:06:47.885380 26097 net.cpp:100] Creating Layer conv1-dsn4
I1125 12:06:47.885383 26097 net.cpp:434] conv1-dsn4 <- prod1-dsn4
I1125 12:06:47.885390 26097 net.cpp:408] conv1-dsn4 -> conv1-dsn4
I1125 12:06:47.887297 26097 net.cpp:150] Setting up conv1-dsn4
I1125 12:06:47.887310 26097 net.cpp:157] Top shape: 1 64 63 63 (254016)
I1125 12:06:47.887327 26097 net.cpp:165] Memory required for data: 935218488
I1125 12:06:47.887332 26097 layer_factory.hpp:77] Creating layer conv2-dsn4
I1125 12:06:47.887344 26097 net.cpp:100] Creating Layer conv2-dsn4
I1125 12:06:47.887347 26097 net.cpp:434] conv2-dsn4 <- conv1-dsn4
I1125 12:06:47.887352 26097 net.cpp:408] conv2-dsn4 -> conv2-dsn4
I1125 12:06:47.889096 26097 net.cpp:150] Setting up conv2-dsn4
I1125 12:06:47.889106 26097 net.cpp:157] Top shape: 1 64 63 63 (254016)
I1125 12:06:47.889129 26097 net.cpp:165] Memory required for data: 936234552
I1125 12:06:47.889151 26097 layer_factory.hpp:77] Creating layer relu1-dsn4
I1125 12:06:47.889158 26097 net.cpp:100] Creating Layer relu1-dsn4
I1125 12:06:47.889161 26097 net.cpp:434] relu1-dsn4 <- conv2-dsn4
I1125 12:06:47.889165 26097 net.cpp:395] relu1-dsn4 -> conv2-dsn4 (in-place)
I1125 12:06:47.889350 26097 net.cpp:150] Setting up relu1-dsn4
I1125 12:06:47.889358 26097 net.cpp:157] Top shape: 1 64 63 63 (254016)
I1125 12:06:47.889360 26097 net.cpp:165] Memory required for data: 937250616
I1125 12:06:47.889364 26097 layer_factory.hpp:77] Creating layer conv3-dsn4
I1125 12:06:47.889374 26097 net.cpp:100] Creating Layer conv3-dsn4
I1125 12:06:47.889375 26097 net.cpp:434] conv3-dsn4 <- conv2-dsn4
I1125 12:06:47.889382 26097 net.cpp:408] conv3-dsn4 -> conv3-dsn4
I1125 12:06:47.890882 26097 net.cpp:150] Setting up conv3-dsn4
I1125 12:06:47.890893 26097 net.cpp:157] Top shape: 1 64 63 63 (254016)
I1125 12:06:47.890897 26097 net.cpp:165] Memory required for data: 938266680
I1125 12:06:47.890918 26097 layer_factory.hpp:77] Creating layer relu2-dsn4
I1125 12:06:47.890923 26097 net.cpp:100] Creating Layer relu2-dsn4
I1125 12:06:47.890926 26097 net.cpp:434] relu2-dsn4 <- conv3-dsn4
I1125 12:06:47.890930 26097 net.cpp:395] relu2-dsn4 -> conv3-dsn4 (in-place)
I1125 12:06:47.891750 26097 net.cpp:150] Setting up relu2-dsn4
I1125 12:06:47.891760 26097 net.cpp:157] Top shape: 1 64 63 63 (254016)
I1125 12:06:47.891778 26097 net.cpp:165] Memory required for data: 939282744
I1125 12:06:47.891782 26097 layer_factory.hpp:77] Creating layer conv4-dsn4
I1125 12:06:47.891790 26097 net.cpp:100] Creating Layer conv4-dsn4
I1125 12:06:47.891793 26097 net.cpp:434] conv4-dsn4 <- conv3-dsn4
I1125 12:06:47.891799 26097 net.cpp:408] conv4-dsn4 -> conv4-dsn4
I1125 12:06:47.892978 26097 net.cpp:150] Setting up conv4-dsn4
I1125 12:06:47.892989 26097 net.cpp:157] Top shape: 1 1 63 63 (3969)
I1125 12:06:47.893007 26097 net.cpp:165] Memory required for data: 939298620
I1125 12:06:47.893013 26097 layer_factory.hpp:77] Creating layer sum-dsn4
I1125 12:06:47.893023 26097 net.cpp:100] Creating Layer sum-dsn4
I1125 12:06:47.893025 26097 net.cpp:434] sum-dsn4 <- conv4-dsn4
I1125 12:06:47.893029 26097 net.cpp:434] sum-dsn4 <- weight-dsn5-4_crop1-dsn4_0_split_1
I1125 12:06:47.893033 26097 net.cpp:408] sum-dsn4 -> sum-dsn4
I1125 12:06:47.893065 26097 net.cpp:150] Setting up sum-dsn4
I1125 12:06:47.893070 26097 net.cpp:157] Top shape: 1 1 63 63 (3969)
I1125 12:06:47.893072 26097 net.cpp:165] Memory required for data: 939314496
I1125 12:06:47.893074 26097 layer_factory.hpp:77] Creating layer sum-dsn4_sum-dsn4_0_split
I1125 12:06:47.893079 26097 net.cpp:100] Creating Layer sum-dsn4_sum-dsn4_0_split
I1125 12:06:47.893081 26097 net.cpp:434] sum-dsn4_sum-dsn4_0_split <- sum-dsn4
I1125 12:06:47.893086 26097 net.cpp:408] sum-dsn4_sum-dsn4_0_split -> sum-dsn4_sum-dsn4_0_split_0
I1125 12:06:47.893091 26097 net.cpp:408] sum-dsn4_sum-dsn4_0_split -> sum-dsn4_sum-dsn4_0_split_1
I1125 12:06:47.893137 26097 net.cpp:150] Setting up sum-dsn4_sum-dsn4_0_split
I1125 12:06:47.893142 26097 net.cpp:157] Top shape: 1 1 63 63 (3969)
I1125 12:06:47.893146 26097 net.cpp:157] Top shape: 1 1 63 63 (3969)
I1125 12:06:47.893147 26097 net.cpp:165] Memory required for data: 939346248
I1125 12:06:47.893149 26097 layer_factory.hpp:77] Creating layer upsample8_dsn4
I1125 12:06:47.893157 26097 net.cpp:100] Creating Layer upsample8_dsn4
I1125 12:06:47.893159 26097 net.cpp:434] upsample8_dsn4 <- sum-dsn4_sum-dsn4_0_split_0
I1125 12:06:47.893163 26097 net.cpp:408] upsample8_dsn4 -> sum-dsn4-up
I1125 12:06:47.894703 26097 net.cpp:150] Setting up upsample8_dsn4
I1125 12:06:47.894732 26097 net.cpp:157] Top shape: 1 1 512 512 (262144)
I1125 12:06:47.894734 26097 net.cpp:165] Memory required for data: 940394824
I1125 12:06:47.894739 26097 layer_factory.hpp:77] Creating layer crop2-dsn4
I1125 12:06:47.894744 26097 net.cpp:100] Creating Layer crop2-dsn4
I1125 12:06:47.894747 26097 net.cpp:434] crop2-dsn4 <- sum-dsn4-up
I1125 12:06:47.894752 26097 net.cpp:434] crop2-dsn4 <- data_data_0_split_3
I1125 12:06:47.894757 26097 net.cpp:408] crop2-dsn4 -> upscore-dsn4
I1125 12:06:47.894793 26097 net.cpp:150] Setting up crop2-dsn4
I1125 12:06:47.894796 26097 net.cpp:157] Top shape: 1 1 500 500 (250000)
I1125 12:06:47.894798 26097 net.cpp:165] Memory required for data: 941394824
I1125 12:06:47.894800 26097 layer_factory.hpp:77] Creating layer loss4-score
I1125 12:06:47.894807 26097 net.cpp:100] Creating Layer loss4-score
I1125 12:06:47.894811 26097 net.cpp:434] loss4-score <- upscore-dsn4
I1125 12:06:47.894814 26097 net.cpp:434] loss4-score <- label_data_1_split_2
I1125 12:06:47.894819 26097 net.cpp:408] loss4-score -> loss4-score
I1125 12:06:47.895009 26097 net.cpp:150] Setting up loss4-score
I1125 12:06:47.895015 26097 net.cpp:157] Top shape: (1)
I1125 12:06:47.895016 26097 net.cpp:160]     with loss weight 1
I1125 12:06:47.895021 26097 net.cpp:165] Memory required for data: 941394828
I1125 12:06:47.895025 26097 layer_factory.hpp:77] Creating layer upsample2_dsn3
I1125 12:06:47.895031 26097 net.cpp:100] Creating Layer upsample2_dsn3
I1125 12:06:47.895033 26097 net.cpp:434] upsample2_dsn3 <- sum-dsn4_sum-dsn4_0_split_1
I1125 12:06:47.895040 26097 net.cpp:408] upsample2_dsn3 -> sum-dsn4-3
I1125 12:06:47.895325 26097 net.cpp:150] Setting up upsample2_dsn3
I1125 12:06:47.895349 26097 net.cpp:157] Top shape: 1 1 128 128 (16384)
I1125 12:06:47.895350 26097 net.cpp:165] Memory required for data: 941460364
I1125 12:06:47.895370 26097 layer_factory.hpp:77] Creating layer crop1-dsn3
I1125 12:06:47.895375 26097 net.cpp:100] Creating Layer crop1-dsn3
I1125 12:06:47.895377 26097 net.cpp:434] crop1-dsn3 <- sum-dsn4-3
I1125 12:06:47.895380 26097 net.cpp:434] crop1-dsn3 <- conv3_3_relu3_3_0_split_1
I1125 12:06:47.895385 26097 net.cpp:408] crop1-dsn3 -> weight-dsn4-3
I1125 12:06:47.895413 26097 net.cpp:150] Setting up crop1-dsn3
I1125 12:06:47.895418 26097 net.cpp:157] Top shape: 1 1 125 125 (15625)
I1125 12:06:47.895421 26097 net.cpp:165] Memory required for data: 941522864
I1125 12:06:47.895422 26097 layer_factory.hpp:77] Creating layer weight-dsn4-3_crop1-dsn3_0_split
I1125 12:06:47.895426 26097 net.cpp:100] Creating Layer weight-dsn4-3_crop1-dsn3_0_split
I1125 12:06:47.895428 26097 net.cpp:434] weight-dsn4-3_crop1-dsn3_0_split <- weight-dsn4-3
I1125 12:06:47.895433 26097 net.cpp:408] weight-dsn4-3_crop1-dsn3_0_split -> weight-dsn4-3_crop1-dsn3_0_split_0
I1125 12:06:47.895438 26097 net.cpp:408] weight-dsn4-3_crop1-dsn3_0_split -> weight-dsn4-3_crop1-dsn3_0_split_1
I1125 12:06:47.895478 26097 net.cpp:150] Setting up weight-dsn4-3_crop1-dsn3_0_split
I1125 12:06:47.895483 26097 net.cpp:157] Top shape: 1 1 125 125 (15625)
I1125 12:06:47.895485 26097 net.cpp:157] Top shape: 1 1 125 125 (15625)
I1125 12:06:47.895488 26097 net.cpp:165] Memory required for data: 941647864
I1125 12:06:47.895489 26097 layer_factory.hpp:77] Creating layer sigmoid-dsn3
I1125 12:06:47.895493 26097 net.cpp:100] Creating Layer sigmoid-dsn3
I1125 12:06:47.895496 26097 net.cpp:434] sigmoid-dsn3 <- weight-dsn4-3_crop1-dsn3_0_split_0
I1125 12:06:47.895501 26097 net.cpp:408] sigmoid-dsn3 -> sigmoid-dsn3
I1125 12:06:47.895699 26097 net.cpp:150] Setting up sigmoid-dsn3
I1125 12:06:47.895706 26097 net.cpp:157] Top shape: 1 1 125 125 (15625)
I1125 12:06:47.895709 26097 net.cpp:165] Memory required for data: 941710364
I1125 12:06:47.895711 26097 layer_factory.hpp:77] Creating layer rev-dsn3
I1125 12:06:47.895715 26097 net.cpp:100] Creating Layer rev-dsn3
I1125 12:06:47.895718 26097 net.cpp:434] rev-dsn3 <- sigmoid-dsn3
I1125 12:06:47.895723 26097 net.cpp:408] rev-dsn3 -> rev-dsn3
I1125 12:06:47.895748 26097 net.cpp:150] Setting up rev-dsn3
I1125 12:06:47.895756 26097 net.cpp:157] Top shape: 1 1 125 125 (15625)
I1125 12:06:47.895757 26097 net.cpp:165] Memory required for data: 941772864
I1125 12:06:47.895761 26097 layer_factory.hpp:77] Creating layer tile-dsn3
I1125 12:06:47.895763 26097 net.cpp:100] Creating Layer tile-dsn3
I1125 12:06:47.895766 26097 net.cpp:434] tile-dsn3 <- rev-dsn3
I1125 12:06:47.895769 26097 net.cpp:408] tile-dsn3 -> weight-dsn3
I1125 12:06:47.895793 26097 net.cpp:150] Setting up tile-dsn3
I1125 12:06:47.895799 26097 net.cpp:157] Top shape: 1 256 125 125 (4000000)
I1125 12:06:47.895800 26097 net.cpp:165] Memory required for data: 957772864
I1125 12:06:47.895803 26097 layer_factory.hpp:77] Creating layer prod1-dsn3
I1125 12:06:47.895809 26097 net.cpp:100] Creating Layer prod1-dsn3
I1125 12:06:47.895812 26097 net.cpp:434] prod1-dsn3 <- conv3_3_relu3_3_0_split_2
I1125 12:06:47.895815 26097 net.cpp:434] prod1-dsn3 <- weight-dsn3
I1125 12:06:47.895818 26097 net.cpp:408] prod1-dsn3 -> prod1-dsn3
I1125 12:06:47.895843 26097 net.cpp:150] Setting up prod1-dsn3
I1125 12:06:47.895846 26097 net.cpp:157] Top shape: 1 256 125 125 (4000000)
I1125 12:06:47.895848 26097 net.cpp:165] Memory required for data: 973772864
I1125 12:06:47.895850 26097 layer_factory.hpp:77] Creating layer conv1-dsn3
I1125 12:06:47.895859 26097 net.cpp:100] Creating Layer conv1-dsn3
I1125 12:06:47.895860 26097 net.cpp:434] conv1-dsn3 <- prod1-dsn3
I1125 12:06:47.895866 26097 net.cpp:408] conv1-dsn3 -> conv1-dsn3
I1125 12:06:47.897482 26097 net.cpp:150] Setting up conv1-dsn3
I1125 12:06:47.897492 26097 net.cpp:157] Top shape: 1 64 125 125 (1000000)
I1125 12:06:47.897495 26097 net.cpp:165] Memory required for data: 977772864
I1125 12:06:47.897529 26097 layer_factory.hpp:77] Creating layer conv2-dsn3
I1125 12:06:47.897539 26097 net.cpp:100] Creating Layer conv2-dsn3
I1125 12:06:47.897542 26097 net.cpp:434] conv2-dsn3 <- conv1-dsn3
I1125 12:06:47.897547 26097 net.cpp:408] conv2-dsn3 -> conv2-dsn3
I1125 12:06:47.899070 26097 net.cpp:150] Setting up conv2-dsn3
I1125 12:06:47.899082 26097 net.cpp:157] Top shape: 1 64 125 125 (1000000)
I1125 12:06:47.899101 26097 net.cpp:165] Memory required for data: 981772864
I1125 12:06:47.899106 26097 layer_factory.hpp:77] Creating layer relu1-dsn3
I1125 12:06:47.899112 26097 net.cpp:100] Creating Layer relu1-dsn3
I1125 12:06:47.899116 26097 net.cpp:434] relu1-dsn3 <- conv2-dsn3
I1125 12:06:47.899119 26097 net.cpp:395] relu1-dsn3 -> conv2-dsn3 (in-place)
I1125 12:06:47.899317 26097 net.cpp:150] Setting up relu1-dsn3
I1125 12:06:47.899325 26097 net.cpp:157] Top shape: 1 64 125 125 (1000000)
I1125 12:06:47.899327 26097 net.cpp:165] Memory required for data: 985772864
I1125 12:06:47.899330 26097 layer_factory.hpp:77] Creating layer conv3-dsn3
I1125 12:06:47.899339 26097 net.cpp:100] Creating Layer conv3-dsn3
I1125 12:06:47.899341 26097 net.cpp:434] conv3-dsn3 <- conv2-dsn3
I1125 12:06:47.899348 26097 net.cpp:408] conv3-dsn3 -> conv3-dsn3
I1125 12:06:47.900818 26097 net.cpp:150] Setting up conv3-dsn3
I1125 12:06:47.900830 26097 net.cpp:157] Top shape: 1 64 125 125 (1000000)
I1125 12:06:47.900846 26097 net.cpp:165] Memory required for data: 989772864
I1125 12:06:47.900852 26097 layer_factory.hpp:77] Creating layer relu2-dsn3
I1125 12:06:47.900856 26097 net.cpp:100] Creating Layer relu2-dsn3
I1125 12:06:47.900859 26097 net.cpp:434] relu2-dsn3 <- conv3-dsn3
I1125 12:06:47.900866 26097 net.cpp:395] relu2-dsn3 -> conv3-dsn3 (in-place)
I1125 12:06:47.901034 26097 net.cpp:150] Setting up relu2-dsn3
I1125 12:06:47.901041 26097 net.cpp:157] Top shape: 1 64 125 125 (1000000)
I1125 12:06:47.901043 26097 net.cpp:165] Memory required for data: 993772864
I1125 12:06:47.901046 26097 layer_factory.hpp:77] Creating layer conv4-dsn3
I1125 12:06:47.901055 26097 net.cpp:100] Creating Layer conv4-dsn3
I1125 12:06:47.901057 26097 net.cpp:434] conv4-dsn3 <- conv3-dsn3
I1125 12:06:47.901063 26097 net.cpp:408] conv4-dsn3 -> conv4-dsn3
I1125 12:06:47.902557 26097 net.cpp:150] Setting up conv4-dsn3
I1125 12:06:47.902586 26097 net.cpp:157] Top shape: 1 1 125 125 (15625)
I1125 12:06:47.902588 26097 net.cpp:165] Memory required for data: 993835364
I1125 12:06:47.902593 26097 layer_factory.hpp:77] Creating layer sum-dsn3
I1125 12:06:47.902598 26097 net.cpp:100] Creating Layer sum-dsn3
I1125 12:06:47.902601 26097 net.cpp:434] sum-dsn3 <- conv4-dsn3
I1125 12:06:47.902606 26097 net.cpp:434] sum-dsn3 <- weight-dsn4-3_crop1-dsn3_0_split_1
I1125 12:06:47.902609 26097 net.cpp:408] sum-dsn3 -> sum-dsn3
I1125 12:06:47.902645 26097 net.cpp:150] Setting up sum-dsn3
I1125 12:06:47.902649 26097 net.cpp:157] Top shape: 1 1 125 125 (15625)
I1125 12:06:47.902652 26097 net.cpp:165] Memory required for data: 993897864
I1125 12:06:47.902653 26097 layer_factory.hpp:77] Creating layer sum-dsn3_sum-dsn3_0_split
I1125 12:06:47.902659 26097 net.cpp:100] Creating Layer sum-dsn3_sum-dsn3_0_split
I1125 12:06:47.902662 26097 net.cpp:434] sum-dsn3_sum-dsn3_0_split <- sum-dsn3
I1125 12:06:47.902665 26097 net.cpp:408] sum-dsn3_sum-dsn3_0_split -> sum-dsn3_sum-dsn3_0_split_0
I1125 12:06:47.902670 26097 net.cpp:408] sum-dsn3_sum-dsn3_0_split -> sum-dsn3_sum-dsn3_0_split_1
I1125 12:06:47.902712 26097 net.cpp:150] Setting up sum-dsn3_sum-dsn3_0_split
I1125 12:06:47.902717 26097 net.cpp:157] Top shape: 1 1 125 125 (15625)
I1125 12:06:47.902720 26097 net.cpp:157] Top shape: 1 1 125 125 (15625)
I1125 12:06:47.902722 26097 net.cpp:165] Memory required for data: 994022864
I1125 12:06:47.902724 26097 layer_factory.hpp:77] Creating layer upsample4_dsn3
I1125 12:06:47.902731 26097 net.cpp:100] Creating Layer upsample4_dsn3
I1125 12:06:47.902734 26097 net.cpp:434] upsample4_dsn3 <- sum-dsn3_sum-dsn3_0_split_0
I1125 12:06:47.902740 26097 net.cpp:408] upsample4_dsn3 -> sum-dsn3-up
I1125 12:06:47.904271 26097 net.cpp:150] Setting up upsample4_dsn3
I1125 12:06:47.904284 26097 net.cpp:157] Top shape: 1 1 504 504 (254016)
I1125 12:06:47.904285 26097 net.cpp:165] Memory required for data: 995038928
I1125 12:06:47.904306 26097 layer_factory.hpp:77] Creating layer crop2-dsn3
I1125 12:06:47.904314 26097 net.cpp:100] Creating Layer crop2-dsn3
I1125 12:06:47.904316 26097 net.cpp:434] crop2-dsn3 <- sum-dsn3-up
I1125 12:06:47.904320 26097 net.cpp:434] crop2-dsn3 <- data_data_0_split_4
I1125 12:06:47.904325 26097 net.cpp:408] crop2-dsn3 -> upscore-dsn3
I1125 12:06:47.904362 26097 net.cpp:150] Setting up crop2-dsn3
I1125 12:06:47.904367 26097 net.cpp:157] Top shape: 1 1 500 500 (250000)
I1125 12:06:47.904369 26097 net.cpp:165] Memory required for data: 996038928
I1125 12:06:47.904371 26097 layer_factory.hpp:77] Creating layer loss3-score
I1125 12:06:47.904378 26097 net.cpp:100] Creating Layer loss3-score
I1125 12:06:47.904381 26097 net.cpp:434] loss3-score <- upscore-dsn3
I1125 12:06:47.904384 26097 net.cpp:434] loss3-score <- label_data_1_split_3
I1125 12:06:47.904392 26097 net.cpp:408] loss3-score -> loss3-score
I1125 12:06:47.904599 26097 net.cpp:150] Setting up loss3-score
I1125 12:06:47.904605 26097 net.cpp:157] Top shape: (1)
I1125 12:06:47.904608 26097 net.cpp:160]     with loss weight 1
I1125 12:06:47.904613 26097 net.cpp:165] Memory required for data: 996038932
I1125 12:06:47.904615 26097 layer_factory.hpp:77] Creating layer upsample2_1-dsn2
I1125 12:06:47.904623 26097 net.cpp:100] Creating Layer upsample2_1-dsn2
I1125 12:06:47.904625 26097 net.cpp:434] upsample2_1-dsn2 <- sum-dsn3_sum-dsn3_0_split_1
I1125 12:06:47.904630 26097 net.cpp:408] upsample2_1-dsn2 -> sum-dsn3-2
I1125 12:06:47.904966 26097 net.cpp:150] Setting up upsample2_1-dsn2
I1125 12:06:47.904973 26097 net.cpp:157] Top shape: 1 1 252 252 (63504)
I1125 12:06:47.904974 26097 net.cpp:165] Memory required for data: 996292948
I1125 12:06:47.904994 26097 layer_factory.hpp:77] Creating layer crop1-dsn2
I1125 12:06:47.904999 26097 net.cpp:100] Creating Layer crop1-dsn2
I1125 12:06:47.905000 26097 net.cpp:434] crop1-dsn2 <- sum-dsn3-2
I1125 12:06:47.905004 26097 net.cpp:434] crop1-dsn2 <- conv2_2_relu2_2_0_split_1
I1125 12:06:47.905009 26097 net.cpp:408] crop1-dsn2 -> weight-dsn3-2
I1125 12:06:47.905038 26097 net.cpp:150] Setting up crop1-dsn2
I1125 12:06:47.905042 26097 net.cpp:157] Top shape: 1 1 250 250 (62500)
I1125 12:06:47.905045 26097 net.cpp:165] Memory required for data: 996542948
I1125 12:06:47.905046 26097 layer_factory.hpp:77] Creating layer weight-dsn3-2_crop1-dsn2_0_split
I1125 12:06:47.905051 26097 net.cpp:100] Creating Layer weight-dsn3-2_crop1-dsn2_0_split
I1125 12:06:47.905055 26097 net.cpp:434] weight-dsn3-2_crop1-dsn2_0_split <- weight-dsn3-2
I1125 12:06:47.905059 26097 net.cpp:408] weight-dsn3-2_crop1-dsn2_0_split -> weight-dsn3-2_crop1-dsn2_0_split_0
I1125 12:06:47.905064 26097 net.cpp:408] weight-dsn3-2_crop1-dsn2_0_split -> weight-dsn3-2_crop1-dsn2_0_split_1
I1125 12:06:47.905102 26097 net.cpp:150] Setting up weight-dsn3-2_crop1-dsn2_0_split
I1125 12:06:47.905108 26097 net.cpp:157] Top shape: 1 1 250 250 (62500)
I1125 12:06:47.905110 26097 net.cpp:157] Top shape: 1 1 250 250 (62500)
I1125 12:06:47.905112 26097 net.cpp:165] Memory required for data: 997042948
I1125 12:06:47.905114 26097 layer_factory.hpp:77] Creating layer sigmoid-dsn2
I1125 12:06:47.905118 26097 net.cpp:100] Creating Layer sigmoid-dsn2
I1125 12:06:47.905120 26097 net.cpp:434] sigmoid-dsn2 <- weight-dsn3-2_crop1-dsn2_0_split_0
I1125 12:06:47.905124 26097 net.cpp:408] sigmoid-dsn2 -> sigmoid-dsn2
I1125 12:06:47.905335 26097 net.cpp:150] Setting up sigmoid-dsn2
I1125 12:06:47.905345 26097 net.cpp:157] Top shape: 1 1 250 250 (62500)
I1125 12:06:47.905349 26097 net.cpp:165] Memory required for data: 997292948
I1125 12:06:47.905350 26097 layer_factory.hpp:77] Creating layer rev-dsn2
I1125 12:06:47.905354 26097 net.cpp:100] Creating Layer rev-dsn2
I1125 12:06:47.905357 26097 net.cpp:434] rev-dsn2 <- sigmoid-dsn2
I1125 12:06:47.905361 26097 net.cpp:408] rev-dsn2 -> rev-dsn2
I1125 12:06:47.905390 26097 net.cpp:150] Setting up rev-dsn2
I1125 12:06:47.905395 26097 net.cpp:157] Top shape: 1 1 250 250 (62500)
I1125 12:06:47.905396 26097 net.cpp:165] Memory required for data: 997542948
I1125 12:06:47.905398 26097 layer_factory.hpp:77] Creating layer tile-dsn2
I1125 12:06:47.905405 26097 net.cpp:100] Creating Layer tile-dsn2
I1125 12:06:47.905406 26097 net.cpp:434] tile-dsn2 <- rev-dsn2
I1125 12:06:47.905411 26097 net.cpp:408] tile-dsn2 -> weight-dsn2
I1125 12:06:47.905436 26097 net.cpp:150] Setting up tile-dsn2
I1125 12:06:47.905441 26097 net.cpp:157] Top shape: 1 128 250 250 (8000000)
I1125 12:06:47.905442 26097 net.cpp:165] Memory required for data: 1029542948
I1125 12:06:47.905444 26097 layer_factory.hpp:77] Creating layer prod1-dsn2
I1125 12:06:47.905448 26097 net.cpp:100] Creating Layer prod1-dsn2
I1125 12:06:47.905452 26097 net.cpp:434] prod1-dsn2 <- conv2_2_relu2_2_0_split_2
I1125 12:06:47.905454 26097 net.cpp:434] prod1-dsn2 <- weight-dsn2
I1125 12:06:47.905459 26097 net.cpp:408] prod1-dsn2 -> prod1-dsn2
I1125 12:06:47.905483 26097 net.cpp:150] Setting up prod1-dsn2
I1125 12:06:47.905488 26097 net.cpp:157] Top shape: 1 128 250 250 (8000000)
I1125 12:06:47.905490 26097 net.cpp:165] Memory required for data: 1061542948
I1125 12:06:47.905493 26097 layer_factory.hpp:77] Creating layer conv1-dsn2
I1125 12:06:47.905501 26097 net.cpp:100] Creating Layer conv1-dsn2
I1125 12:06:47.905504 26097 net.cpp:434] conv1-dsn2 <- prod1-dsn2
I1125 12:06:47.905508 26097 net.cpp:408] conv1-dsn2 -> conv1-dsn2
I1125 12:06:47.907461 26097 net.cpp:150] Setting up conv1-dsn2
I1125 12:06:47.907474 26097 net.cpp:157] Top shape: 1 64 250 250 (4000000)
I1125 12:06:47.907487 26097 net.cpp:165] Memory required for data: 1077542948
I1125 12:06:47.907492 26097 layer_factory.hpp:77] Creating layer conv2-dsn2
I1125 12:06:47.907502 26097 net.cpp:100] Creating Layer conv2-dsn2
I1125 12:06:47.907505 26097 net.cpp:434] conv2-dsn2 <- conv1-dsn2
I1125 12:06:47.907512 26097 net.cpp:408] conv2-dsn2 -> conv2-dsn2
I1125 12:06:47.910466 26097 net.cpp:150] Setting up conv2-dsn2
I1125 12:06:47.910478 26097 net.cpp:157] Top shape: 1 64 250 250 (4000000)
I1125 12:06:47.910496 26097 net.cpp:165] Memory required for data: 1093542948
I1125 12:06:47.910502 26097 layer_factory.hpp:77] Creating layer relu1-dsn2
I1125 12:06:47.910508 26097 net.cpp:100] Creating Layer relu1-dsn2
I1125 12:06:47.910511 26097 net.cpp:434] relu1-dsn2 <- conv2-dsn2
I1125 12:06:47.910516 26097 net.cpp:395] relu1-dsn2 -> conv2-dsn2 (in-place)
I1125 12:06:47.910704 26097 net.cpp:150] Setting up relu1-dsn2
I1125 12:06:47.910712 26097 net.cpp:157] Top shape: 1 64 250 250 (4000000)
I1125 12:06:47.910714 26097 net.cpp:165] Memory required for data: 1109542948
I1125 12:06:47.910717 26097 layer_factory.hpp:77] Creating layer conv3-dsn2
I1125 12:06:47.910725 26097 net.cpp:100] Creating Layer conv3-dsn2
I1125 12:06:47.910727 26097 net.cpp:434] conv3-dsn2 <- conv2-dsn2
I1125 12:06:47.910734 26097 net.cpp:408] conv3-dsn2 -> conv3-dsn2
I1125 12:06:47.912258 26097 net.cpp:150] Setting up conv3-dsn2
I1125 12:06:47.912269 26097 net.cpp:157] Top shape: 1 64 250 250 (4000000)
I1125 12:06:47.912288 26097 net.cpp:165] Memory required for data: 1125542948
I1125 12:06:47.912293 26097 layer_factory.hpp:77] Creating layer relu2-dsn2
I1125 12:06:47.912298 26097 net.cpp:100] Creating Layer relu2-dsn2
I1125 12:06:47.912300 26097 net.cpp:434] relu2-dsn2 <- conv3-dsn2
I1125 12:06:47.912307 26097 net.cpp:395] relu2-dsn2 -> conv3-dsn2 (in-place)
I1125 12:06:47.912478 26097 net.cpp:150] Setting up relu2-dsn2
I1125 12:06:47.912485 26097 net.cpp:157] Top shape: 1 64 250 250 (4000000)
I1125 12:06:47.912487 26097 net.cpp:165] Memory required for data: 1141542948
I1125 12:06:47.912490 26097 layer_factory.hpp:77] Creating layer conv4-dsn2
I1125 12:06:47.912498 26097 net.cpp:100] Creating Layer conv4-dsn2
I1125 12:06:47.912501 26097 net.cpp:434] conv4-dsn2 <- conv3-dsn2
I1125 12:06:47.912508 26097 net.cpp:408] conv4-dsn2 -> conv4-dsn2
I1125 12:06:47.913723 26097 net.cpp:150] Setting up conv4-dsn2
I1125 12:06:47.913734 26097 net.cpp:157] Top shape: 1 1 250 250 (62500)
I1125 12:06:47.913753 26097 net.cpp:165] Memory required for data: 1141792948
I1125 12:06:47.913758 26097 layer_factory.hpp:77] Creating layer sum-dsn2
I1125 12:06:47.913764 26097 net.cpp:100] Creating Layer sum-dsn2
I1125 12:06:47.913767 26097 net.cpp:434] sum-dsn2 <- conv4-dsn2
I1125 12:06:47.913771 26097 net.cpp:434] sum-dsn2 <- weight-dsn3-2_crop1-dsn2_0_split_1
I1125 12:06:47.913775 26097 net.cpp:408] sum-dsn2 -> sum-dsn2
I1125 12:06:47.913808 26097 net.cpp:150] Setting up sum-dsn2
I1125 12:06:47.913813 26097 net.cpp:157] Top shape: 1 1 250 250 (62500)
I1125 12:06:47.913815 26097 net.cpp:165] Memory required for data: 1142042948
I1125 12:06:47.913817 26097 layer_factory.hpp:77] Creating layer upsample2_2-dsn2
I1125 12:06:47.913825 26097 net.cpp:100] Creating Layer upsample2_2-dsn2
I1125 12:06:47.913826 26097 net.cpp:434] upsample2_2-dsn2 <- sum-dsn2
I1125 12:06:47.913830 26097 net.cpp:408] upsample2_2-dsn2 -> sum-dsn2-up
I1125 12:06:47.915359 26097 net.cpp:150] Setting up upsample2_2-dsn2
I1125 12:06:47.915369 26097 net.cpp:157] Top shape: 1 1 502 502 (252004)
I1125 12:06:47.915372 26097 net.cpp:165] Memory required for data: 1143050964
I1125 12:06:47.915393 26097 layer_factory.hpp:77] Creating layer crop2-dsn2
I1125 12:06:47.915398 26097 net.cpp:100] Creating Layer crop2-dsn2
I1125 12:06:47.915401 26097 net.cpp:434] crop2-dsn2 <- sum-dsn2-up
I1125 12:06:47.915405 26097 net.cpp:434] crop2-dsn2 <- data_data_0_split_5
I1125 12:06:47.915410 26097 net.cpp:408] crop2-dsn2 -> upscore-dsn2
I1125 12:06:47.915446 26097 net.cpp:150] Setting up crop2-dsn2
I1125 12:06:47.915450 26097 net.cpp:157] Top shape: 1 1 500 500 (250000)
I1125 12:06:47.915453 26097 net.cpp:165] Memory required for data: 1144050964
I1125 12:06:47.915455 26097 layer_factory.hpp:77] Creating layer upscore-dsn2_crop2-dsn2_0_split
I1125 12:06:47.915462 26097 net.cpp:100] Creating Layer upscore-dsn2_crop2-dsn2_0_split
I1125 12:06:47.915464 26097 net.cpp:434] upscore-dsn2_crop2-dsn2_0_split <- upscore-dsn2
I1125 12:06:47.915469 26097 net.cpp:408] upscore-dsn2_crop2-dsn2_0_split -> upscore-dsn2_crop2-dsn2_0_split_0
I1125 12:06:47.915474 26097 net.cpp:408] upscore-dsn2_crop2-dsn2_0_split -> upscore-dsn2_crop2-dsn2_0_split_1
I1125 12:06:47.915478 26097 net.cpp:408] upscore-dsn2_crop2-dsn2_0_split -> upscore-dsn2_crop2-dsn2_0_split_2
I1125 12:06:47.915551 26097 net.cpp:150] Setting up upscore-dsn2_crop2-dsn2_0_split
I1125 12:06:47.915557 26097 net.cpp:157] Top shape: 1 1 500 500 (250000)
I1125 12:06:47.915560 26097 net.cpp:157] Top shape: 1 1 500 500 (250000)
I1125 12:06:47.915565 26097 net.cpp:157] Top shape: 1 1 500 500 (250000)
I1125 12:06:47.915567 26097 net.cpp:165] Memory required for data: 1147050964
I1125 12:06:47.915570 26097 layer_factory.hpp:77] Creating layer loss2-score
I1125 12:06:47.915576 26097 net.cpp:100] Creating Layer loss2-score
I1125 12:06:47.915580 26097 net.cpp:434] loss2-score <- upscore-dsn2_crop2-dsn2_0_split_0
I1125 12:06:47.915582 26097 net.cpp:434] loss2-score <- label_data_1_split_4
I1125 12:06:47.915586 26097 net.cpp:408] loss2-score -> loss2-score
I1125 12:06:47.915777 26097 net.cpp:150] Setting up loss2-score
I1125 12:06:47.915783 26097 net.cpp:157] Top shape: (1)
I1125 12:06:47.915786 26097 net.cpp:160]     with loss weight 1
I1125 12:06:47.915791 26097 net.cpp:165] Memory required for data: 1147050968
I1125 12:06:47.915792 26097 layer_factory.hpp:77] Creating layer sigmoid-dsn1
I1125 12:06:47.915796 26097 net.cpp:100] Creating Layer sigmoid-dsn1
I1125 12:06:47.915798 26097 net.cpp:434] sigmoid-dsn1 <- upscore-dsn2_crop2-dsn2_0_split_1
I1125 12:06:47.915804 26097 net.cpp:408] sigmoid-dsn1 -> sigmoid-dsn1
I1125 12:06:47.916383 26097 net.cpp:150] Setting up sigmoid-dsn1
I1125 12:06:47.916393 26097 net.cpp:157] Top shape: 1 1 500 500 (250000)
I1125 12:06:47.916395 26097 net.cpp:165] Memory required for data: 1148050968
I1125 12:06:47.916415 26097 layer_factory.hpp:77] Creating layer rev-dsn1
I1125 12:06:47.916420 26097 net.cpp:100] Creating Layer rev-dsn1
I1125 12:06:47.916424 26097 net.cpp:434] rev-dsn1 <- sigmoid-dsn1
I1125 12:06:47.916427 26097 net.cpp:408] rev-dsn1 -> rev-dsn1
I1125 12:06:47.916461 26097 net.cpp:150] Setting up rev-dsn1
I1125 12:06:47.916465 26097 net.cpp:157] Top shape: 1 1 500 500 (250000)
I1125 12:06:47.916467 26097 net.cpp:165] Memory required for data: 1149050968
I1125 12:06:47.916469 26097 layer_factory.hpp:77] Creating layer tile-dsn1
I1125 12:06:47.916474 26097 net.cpp:100] Creating Layer tile-dsn1
I1125 12:06:47.916476 26097 net.cpp:434] tile-dsn1 <- rev-dsn1
I1125 12:06:47.916481 26097 net.cpp:408] tile-dsn1 -> weight-dsn1
I1125 12:06:47.916507 26097 net.cpp:150] Setting up tile-dsn1
I1125 12:06:47.916512 26097 net.cpp:157] Top shape: 1 64 500 500 (16000000)
I1125 12:06:47.916514 26097 net.cpp:165] Memory required for data: 1213050968
I1125 12:06:47.916517 26097 layer_factory.hpp:77] Creating layer prod1-dsn1
I1125 12:06:47.916522 26097 net.cpp:100] Creating Layer prod1-dsn1
I1125 12:06:47.916527 26097 net.cpp:434] prod1-dsn1 <- conv1_2_relu1_2_0_split_1
I1125 12:06:47.916529 26097 net.cpp:434] prod1-dsn1 <- weight-dsn1
I1125 12:06:47.916534 26097 net.cpp:408] prod1-dsn1 -> prod1-dsn1
I1125 12:06:47.916558 26097 net.cpp:150] Setting up prod1-dsn1
I1125 12:06:47.916563 26097 net.cpp:157] Top shape: 1 64 500 500 (16000000)
I1125 12:06:47.916565 26097 net.cpp:165] Memory required for data: 1277050968
I1125 12:06:47.916568 26097 layer_factory.hpp:77] Creating layer conv1-dsn1
I1125 12:06:47.916575 26097 net.cpp:100] Creating Layer conv1-dsn1
I1125 12:06:47.916579 26097 net.cpp:434] conv1-dsn1 <- prod1-dsn1
I1125 12:06:47.916584 26097 net.cpp:408] conv1-dsn1 -> conv1-dsn1
I1125 12:06:47.918965 26097 net.cpp:150] Setting up conv1-dsn1
I1125 12:06:47.918977 26097 net.cpp:157] Top shape: 1 64 500 500 (16000000)
I1125 12:06:47.918996 26097 net.cpp:165] Memory required for data: 1341050968
I1125 12:06:47.919003 26097 layer_factory.hpp:77] Creating layer conv2-dsn1
I1125 12:06:47.919028 26097 net.cpp:100] Creating Layer conv2-dsn1
I1125 12:06:47.919030 26097 net.cpp:434] conv2-dsn1 <- conv1-dsn1
I1125 12:06:47.919036 26097 net.cpp:408] conv2-dsn1 -> conv2-dsn1
I1125 12:06:47.920609 26097 net.cpp:150] Setting up conv2-dsn1
I1125 12:06:47.920620 26097 net.cpp:157] Top shape: 1 64 500 500 (16000000)
I1125 12:06:47.920639 26097 net.cpp:165] Memory required for data: 1405050968
I1125 12:06:47.920644 26097 layer_factory.hpp:77] Creating layer relu1-dsn1
I1125 12:06:47.920650 26097 net.cpp:100] Creating Layer relu1-dsn1
I1125 12:06:47.920653 26097 net.cpp:434] relu1-dsn1 <- conv2-dsn1
I1125 12:06:47.920657 26097 net.cpp:395] relu1-dsn1 -> conv2-dsn1 (in-place)
I1125 12:06:47.921193 26097 net.cpp:150] Setting up relu1-dsn1
I1125 12:06:47.921203 26097 net.cpp:157] Top shape: 1 64 500 500 (16000000)
I1125 12:06:47.921221 26097 net.cpp:165] Memory required for data: 1469050968
I1125 12:06:47.921224 26097 layer_factory.hpp:77] Creating layer conv3-dsn1
I1125 12:06:47.921233 26097 net.cpp:100] Creating Layer conv3-dsn1
I1125 12:06:47.921236 26097 net.cpp:434] conv3-dsn1 <- conv2-dsn1
I1125 12:06:47.921243 26097 net.cpp:408] conv3-dsn1 -> conv3-dsn1
I1125 12:06:47.923967 26097 net.cpp:150] Setting up conv3-dsn1
I1125 12:06:47.923979 26097 net.cpp:157] Top shape: 1 64 500 500 (16000000)
I1125 12:06:47.923997 26097 net.cpp:165] Memory required for data: 1533050968
I1125 12:06:47.924002 26097 layer_factory.hpp:77] Creating layer relu2-dsn1
I1125 12:06:47.924007 26097 net.cpp:100] Creating Layer relu2-dsn1
I1125 12:06:47.924010 26097 net.cpp:434] relu2-dsn1 <- conv3-dsn1
I1125 12:06:47.924015 26097 net.cpp:395] relu2-dsn1 -> conv3-dsn1 (in-place)
I1125 12:06:47.924207 26097 net.cpp:150] Setting up relu2-dsn1
I1125 12:06:47.924216 26097 net.cpp:157] Top shape: 1 64 500 500 (16000000)
I1125 12:06:47.924218 26097 net.cpp:165] Memory required for data: 1597050968
I1125 12:06:47.924221 26097 layer_factory.hpp:77] Creating layer conv4-dsn1
I1125 12:06:47.924230 26097 net.cpp:100] Creating Layer conv4-dsn1
I1125 12:06:47.924232 26097 net.cpp:434] conv4-dsn1 <- conv3-dsn1
I1125 12:06:47.924239 26097 net.cpp:408] conv4-dsn1 -> conv4-dsn1
I1125 12:06:47.927351 26097 net.cpp:150] Setting up conv4-dsn1
I1125 12:06:47.927364 26097 net.cpp:157] Top shape: 1 1 500 500 (250000)
I1125 12:06:47.927382 26097 net.cpp:165] Memory required for data: 1598050968
I1125 12:06:47.927388 26097 layer_factory.hpp:77] Creating layer sum-dsn1
I1125 12:06:47.927397 26097 net.cpp:100] Creating Layer sum-dsn1
I1125 12:06:47.927399 26097 net.cpp:434] sum-dsn1 <- conv4-dsn1
I1125 12:06:47.927403 26097 net.cpp:434] sum-dsn1 <- upscore-dsn2_crop2-dsn2_0_split_2
I1125 12:06:47.927408 26097 net.cpp:408] sum-dsn1 -> sum-dsn1
I1125 12:06:47.927459 26097 net.cpp:150] Setting up sum-dsn1
I1125 12:06:47.927462 26097 net.cpp:157] Top shape: 1 1 500 500 (250000)
I1125 12:06:47.927464 26097 net.cpp:165] Memory required for data: 1599050968
I1125 12:06:47.927467 26097 layer_factory.hpp:77] Creating layer crop2-dsn1
I1125 12:06:47.927471 26097 net.cpp:100] Creating Layer crop2-dsn1
I1125 12:06:47.927474 26097 net.cpp:434] crop2-dsn1 <- sum-dsn1
I1125 12:06:47.927476 26097 net.cpp:434] crop2-dsn1 <- data_data_0_split_6
I1125 12:06:47.927482 26097 net.cpp:408] crop2-dsn1 -> upscore-dsn1
I1125 12:06:47.927508 26097 net.cpp:150] Setting up crop2-dsn1
I1125 12:06:47.927515 26097 net.cpp:157] Top shape: 1 1 500 500 (250000)
I1125 12:06:47.927516 26097 net.cpp:165] Memory required for data: 1600050968
I1125 12:06:47.927518 26097 layer_factory.hpp:77] Creating layer loss1-score
I1125 12:06:47.927526 26097 net.cpp:100] Creating Layer loss1-score
I1125 12:06:47.927528 26097 net.cpp:434] loss1-score <- upscore-dsn1
I1125 12:06:47.927531 26097 net.cpp:434] loss1-score <- label_data_1_split_5
I1125 12:06:47.927536 26097 net.cpp:408] loss1-score -> loss1-score
…
