…
I1125 10:17:13.557446 17185 net.cpp:58] Initializing net from parameters: 
name: "RAS"
state {
  phase: TRAIN
}
layer {
  name: "data"
  type: "ImageLabelmapData"
  top: "data_unaugmented"
  top: "label_unaugmented"
  include {
    phase: TRAIN
  }
  transform_param {
    mean_value: 104.00699
    mean_value: 116.66877
    mean_value: 122.67892
  }
  image_data_param {
    source: "/media/compute/homes/galberding/FleckDetect/Datasets/train.txt"
    batch_size: 1
    shuffle: true
    new_height: 500
    new_width: 500
    root_folder: "/media/compute/homes/galberding/FleckDetect/Datasets/"
    normalize: true
  }
}
layer {
  name: "augmentation"
  type: "Python"
  bottom: "data_unaugmented"
  bottom: "label_unaugmented"
  top: "data"
  top: "label"
  include {
    phase: TRAIN
  }
  python_param {
    module: "data_augmentation"
    layer: "DataAugmentation"
  }
}
layer {
  name: "conv1_1"
  type: "Convolution"
  bottom: "data"
  top: "conv1_1"
  param {
    lr_mult: 1
    decay_mult: 1
  }
  param {
    lr_mult: 2
    decay_mult: 0
  }
  convolution_param {
    num_output: 64
    pad: 1
    kernel_size: 3
    engine: CUDNN
  }
}
layer {
  name: "relu1_1"
  type: "ReLU"
  bottom: "conv1_1"
  top: "conv1_1"
}
layer {
  name: "conv1_2"
  type: "Convolution"
  bottom: "conv1_1"
  top: "conv1_2"
  param {
    lr_mult: 1
    decay_mult: 1
  }
  param {
    lr_mult: 2
    decay_mult: 0
  }
  convolution_param {
    num_output: 64
    pad: 1
    kernel_size: 3
    engine: CUDNN
  }
}
layer {
  name: "relu1_2"
  type: "ReLU"
  bottom: "conv1_2"
  top: "conv1_2"
}
layer {
  name: "pool1"
  type: "Pooling"
  bottom: "conv1_2"
  top: "pool1"
  pooling_param {
    pool: MAX
    kernel_size: 2
    stride: 2
  }
}
layer {
  name: "conv2_1"
  type: "Convolution"
  bottom: "pool1"
  top: "conv2_1"
  param {
    lr_mult: 1
    decay_mult: 1
  }
  param {
    lr_mult: 2
    decay_mult: 0
  }
  convolution_param {
    num_output: 128
    pad: 1
    kernel_size: 3
    engine: CUDNN
  }
}
layer {
  name: "relu2_1"
  type: "ReLU"
  bottom: "conv2_1"
  top: "conv2_1"
}
layer {
  name: "conv2_2"
  type: "Convolution"
  bottom: "conv2_1"
  top: "conv2_2"
  param {
    lr_mult: 1
    decay_mult: 1
  }
  param {
    lr_mult: 2
    decay_mult: 0
  }
  convolution_param {
    num_output: 128
    pad: 1
    kernel_size: 3
    engine: CUDNN
  }
}
layer {
  name: "relu2_2"
  type: "ReLU"
  bottom: "conv2_2"
  top: "conv2_2"
}
layer {
  name: "pool2"
  type: "Pooling"
  bottom: "conv2_2"
  top: "pool2"
  pooling_param {
    pool: MAX
    kernel_size: 2
    stride: 2
  }
}
layer {
  name: "conv3_1"
  type: "Convolution"
  bottom: "pool2"
  top: "conv3_1"
  param {
    lr_mult: 1
    decay_mult: 1
  }
  param {
    lr_mult: 2
    decay_mult: 0
  }
  convolution_param {
    num_output: 256
    pad: 1
    kernel_size: 3
    engine: CUDNN
  }
}
layer {
  name: "relu3_1"
  type: "ReLU"
  bottom: "conv3_1"
  top: "conv3_1"
}
layer {
  name: "conv3_2"
  type: "Convolution"
  bottom: "conv3_1"
  top: "conv3_2"
  param {
    lr_mult: 1
    decay_mult: 1
  }
  param {
    lr_mult: 2
    decay_mult: 0
  }
  convolution_param {
    num_output: 256
    pad: 1
    kernel_size: 3
    engine: CUDNN
  }
}
layer {
  name: "relu3_2"
  type: "ReLU"
  bottom: "conv3_2"
  top: "conv3_2"
}
layer {
  name: "conv3_3"
  type: "Convolution"
  bottom: "conv3_2"
  top: "conv3_3"
  param {
    lr_mult: 1
    decay_mult: 1
  }
  param {
    lr_mult: 2
    decay_mult: 0
  }
  convolution_param {
    num_output: 256
    pad: 1
    kernel_size: 3
    engine: CUDNN
  }
}
layer {
  name: "relu3_3"
  type: "ReLU"
  bottom: "conv3_3"
  top: "conv3_3"
}
layer {
  name: "pool3"
  type: "Pooling"
  bottom: "conv3_3"
  top: "pool3"
  pooling_param {
    pool: MAX
    kernel_size: 2
    stride: 2
  }
}
layer {
  name: "conv4_1"
  type: "Convolution"
  bottom: "pool3"
  top: "conv4_1"
  param {
    lr_mult: 1
    decay_mult: 1
  }
  param {
    lr_mult: 2
    decay_mult: 0
  }
  convolution_param {
    num_output: 512
    pad: 1
    kernel_size: 3
    engine: CUDNN
  }
}
layer {
  name: "relu4_1"
  type: "ReLU"
  bottom: "conv4_1"
  top: "conv4_1"
}
layer {
  name: "conv4_2"
  type: "Convolution"
  bottom: "conv4_1"
  top: "conv4_2"
  param {
    lr_mult: 1
    decay_mult: 1
  }
  param {
    lr_mult: 2
    decay_mult: 0
  }
  convolution_param {
    num_output: 512
    pad: 1
    kernel_size: 3
    engine: CUDNN
  }
}
layer {
  name: "relu4_2"
  type: "ReLU"
  bottom: "conv4_2"
  top: "conv4_2"
}
layer {
  name: "conv4_3"
  type: "Convolution"
  bottom: "conv4_2"
  top: "conv4_3"
  param {
    lr_mult: 1
    decay_mult: 1
  }
  param {
    lr_mult: 2
    decay_mult: 0
  }
  convolution_param {
    num_output: 512
    pad: 1
    kernel_size: 3
    engine: CUDNN
  }
}
layer {
  name: "relu4_3"
  type: "ReLU"
  bottom: "conv4_3"
  top: "conv4_3"
}
layer {
  name: "pool4"
  type: "Pooling"
  bottom: "conv4_3"
  top: "pool4"
  pooling_param {
    pool: MAX
    kernel_size: 3
    stride: 2
    pad: 1
  }
}
layer {
  name: "conv5_1"
  type: "Convolution"
  bottom: "pool4"
  top: "conv5_1"
  param {
    lr_mult: 1
    decay_mult: 1
  }
  param {
    lr_mult: 2
    decay_mult: 0
  }
  convolution_param {
    num_output: 512
    pad: 1
    kernel_size: 3
    engine: CUDNN
  }
}
layer {
  name: "relu5_1"
  type: "ReLU"
  bottom: "conv5_1"
  top: "conv5_1"
}
layer {
  name: "conv5_2"
  type: "Convolution"
  bottom: "conv5_1"
  top: "conv5_2"
  param {
    lr_mult: 1
    decay_mult: 1
  }
  param {
    lr_mult: 2
    decay_mult: 0
  }
  convolution_param {
    num_output: 512
    pad: 1
    kernel_size: 3
    engine: CUDNN
  }
}
layer {
  name: "relu5_2"
  type: "ReLU"
  bottom: "conv5_2"
  top: "conv5_2"
}
layer {
  name: "conv5_3"
  type: "Convolution"
  bottom: "conv5_2"
  top: "conv5_3"
  param {
    lr_mult: 1
    decay_mult: 1
  }
  param {
    lr_mult: 2
    decay_mult: 0
  }
  convolution_param {
    num_output: 512
    pad: 1
    kernel_size: 3
    engine: CUDNN
  }
}
layer {
  name: "relu5_3"
  type: "ReLU"
  bottom: "conv5_3"
  top: "conv5_3"
}
layer {
  name: "pool5"
  type: "Pooling"
  bottom: "conv5_3"
  top: "pool5"
  pooling_param {
    pool: MAX
    kernel_size: 3
    stride: 2
    pad: 1
  }
}
layer {
  name: "conv1-dsn6"
  type: "Convolution"
  bottom: "pool5"
  top: "conv1-dsn6"
  param {
    lr_mult: 1
    decay_mult: 1
  }
  param {
    lr_mult: 2
    decay_mult: 0
  }
  convolution_param {
    num_output: 256
    kernel_size: 1
    weight_filler {
      type: "gaussian"
      std: 0.01
    }
    bias_filler {
      type: "constant"
      value: 0
    }
    engine: CUDNN
  }
}
layer {
  name: "conv2-dsn6"
  type: "Convolution"
  bottom: "conv1-dsn6"
  top: "conv2-dsn6"
  param {
    lr_mult: 1
    decay_mult: 1
  }
  param {
    lr_mult: 2
    decay_mult: 0
  }
  convolution_param {
    num_output: 256
    pad: 2
    kernel_size: 5
    weight_filler {
      type: "gaussian"
      std: 0.01
    }
    bias_filler {
      type: "constant"
      value: 0
    }
    engine: CUDNN
  }
}
layer {
  name: "relu1-dsn6"
  type: "ReLU"
  bottom: "conv2-dsn6"
  top: "conv2-dsn6"
}
layer {
  name: "conv3-dsn6"
  type: "Convolution"
  bottom: "conv2-dsn6"
  top: "conv3-dsn6"
  param {
    lr_mult: 1
    decay_mult: 1
  }
  param {
    lr_mult: 2
    decay_mult: 0
  }
  convolution_param {
    num_output: 256
    pad: 2
    kernel_size: 5
    weight_filler {
      type: "gaussian"
      std: 0.01
    }
    bias_filler {
      type: "constant"
      value: 0
    }
    engine: CUDNN
  }
}
layer {
  name: "relu2-dsn6"
  type: "ReLU"
  bottom: "conv3-dsn6"
  top: "conv3-dsn6"
}
layer {
  name: "conv4-dsn6"
  type: "Convolution"
  bottom: "conv3-dsn6"
  top: "conv4-dsn6"
  param {
    lr_mult: 1
    decay_mult: 1
  }
  param {
    lr_mult: 2
    decay_mult: 0
  }
  convolution_param {
    num_output: 256
    pad: 2
    kernel_size: 5
    weight_filler {
      type: "gaussian"
      std: 0.01
    }
    bias_filler {
      type: "constant"
      value: 0
    }
    engine: CUDNN
  }
}
layer {
  name: "relu3-dsn6"
  type: "ReLU"
  bottom: "conv4-dsn6"
  top: "conv4-dsn6"
}
layer {
  name: "conv5-dsn6"
  type: "Convolution"
  bottom: "conv4-dsn6"
  top: "conv5-dsn6"
  param {
    lr_mult: 0.1
    decay_mult: 1
  }
  param {
    lr_mult: 0.2
    decay_mult: 0
  }
  convolution_param {
    num_output: 1
    kernel_size: 1
    weight_filler {
      type: "gaussian"
      std: 0.01
    }
    bias_filler {
      type: "constant"
      value: 0
    }
    engine: CUDNN
  }
}
layer {
  name: "upsample32_dsn6"
  type: "Deconvolution"
  bottom: "conv5-dsn6"
  top: "conv5-dsn6-up"
  param {
    lr_mult: 0
    decay_mult: 1
  }
  param {
    lr_mult: 0
    decay_mult: 0
  }
  convolution_param {
    num_output: 1
    kernel_size: 64
    stride: 32
  }
}
layer {
  name: "crop-dsn6"
  type: "Crop"
  bottom: "conv5-dsn6-up"
  bottom: "data"
  top: "upscore-dsn6"
}
layer {
  name: "loss6-score"
  type: "SigmoidCrossEntropyLoss"
  bottom: "upscore-dsn6"
  bottom: "label"
  top: "loss6-score"
  loss_weight: 1
}
layer {
  name: "upsample2_dsn5"
  type: "Deconvolution"
  bottom: "conv5-dsn6"
  top: "conv5-dsn6-5"
  param {
    lr_mult: 0
    decay_mult: 1
  }
  param {
    lr_mult: 0
    decay_mult: 0
  }
  convolution_param {
    num_output: 1
    kernel_size: 4
    stride: 2
  }
}
layer {
  name: "crop1-dsn5"
  type: "Crop"
  bottom: "conv5-dsn6-5"
  bottom: "conv5_3"
  top: "weight-dsn6-5"
}
layer {
  name: "sigmoid-dsn5"
  type: "Sigmoid"
  bottom: "weight-dsn6-5"
  top: "sigmoid-dsn5"
}
layer {
  name: "rev-dsn5"
  type: "Power"
  bottom: "sigmoid-dsn5"
  top: "rev-dsn5"
  power_param {
    power: 1
    scale: -1
    shift: 1
  }
}
layer {
  name: "tile-dsn5"
  type: "Tile"
  bottom: "rev-dsn5"
  top: "weight-dsn5"
  tile_param {
    tiles: 512
  }
}
layer {
  name: "prod1-dsn5"
  type: "Eltwise"
  bottom: "conv5_3"
  bottom: "weight-dsn5"
  top: "prod1-dsn5"
  eltwise_param {
    operation: PROD
  }
}
layer {
  name: "conv1-dsn5"
  type: "Convolution"
  bottom: "prod1-dsn5"
  top: "conv1-dsn5"
  param {
    lr_mult: 1
    decay_mult: 1
  }
  param {
    lr_mult: 2
    decay_mult: 0
  }
  convolution_param {
    num_output: 64
    kernel_size: 1
    weight_filler {
      type: "gaussian"
      std: 0.01
    }
    bias_filler {
      type: "constant"
      value: 0
    }
    engine: CUDNN
  }
}
layer {
  name: "conv2-dsn5"
  type: "Convolution"
  bottom: "conv1-dsn5"
  top: "conv2-dsn5"
  param {
    lr_mult: 1
    decay_mult: 1
  }
  param {
    lr_mult: 2
    decay_mult: 0
  }
  convolution_param {
    num_output: 64
    pad: 1
    kernel_size: 3
    weight_filler {
      type: "gaussian"
      std: 0.01
    }
    bias_filler {
      type: "constant"
      value: 0
    }
    engine: CUDNN
  }
}
layer {
  name: "relu1-dsn5"
  type: "ReLU"
  bottom: "conv2-dsn5"
  top: "conv2-dsn5"
}
layer {
  name: "conv3-dsn5"
  type: "Convolution"
  bottom: "conv2-dsn5"
  top: "conv3-dsn5"
  param {
    lr_mult: 1
    decay_mult: 1
  }
  param {
    lr_mult: 2
    decay_mult: 0
  }
  convolution_param {
    num_output: 64
    pad: 1
    kernel_size: 3
    weight_filler {
      type: "gaussian"
      std: 0.01
    }
    bias_filler {
      type: "constant"
      value: 0
    }
    engine: CUDNN
  }
}
layer {
  name: "relu2-dsn5"
  type: "ReLU"
  bottom: "conv3-dsn5"
  top: "conv3-dsn5"
}
layer {
  name: "conv4-dsn5"
  type: "Convolution"
  bottom: "conv3-dsn5"
  top: "conv4-dsn5"
  param {
    lr_mult: 1
    decay_mult: 1
  }
  param {
    lr_mult: 2
    decay_mult: 0
  }
  convolution_param {
    num_output: 1
    pad: 1
    kernel_size: 3
    weight_filler {
      type: "gaussian"
      std: 0.01
    }
    bias_filler {
      type: "constant"
      value: 0
    }
    engine: CUDNN
  }
}
layer {
  name: "sum-dsn5"
  type: "Eltwise"
  bottom: "conv4-dsn5"
  bottom: "weight-dsn6-5"
  top: "sum-dsn5"
  eltwise_param {
    operation: SUM
  }
}
layer {
  name: "upsample16_dsn5"
  type: "Deconvolution"
  bottom: "sum-dsn5"
  top: "sum-dsn5-up"
  param {
    lr_mult: 0
    decay_mult: 1
  }
  param {
    lr_mult: 0
    decay_mult: 0
  }
  convolution_param {
    num_output: 1
    kernel_size: 32
    stride: 16
  }
}
layer {
  name: "crop2-dsn5"
  type: "Crop"
  bottom: "sum-dsn5-up"
  bottom: "data"
  top: "upscore-dsn5"
}
layer {
  name: "loss5-score"
  type: "SigmoidCrossEntropyLoss"
  bottom: "upscore-dsn5"
  bottom: "label"
  top: "loss5-score"
  loss_weight: 1
}
layer {
  name: "upsample2_dsn4"
  type: "Deconvolution"
  bottom: "sum-dsn5"
  top: "sum-dsn5-4"
  param {
    lr_mult: 0
    decay_mult: 1
  }
  param {
    lr_mult: 0
    decay_mult: 0
  }
  convolution_param {
    num_output: 1
    kernel_size: 4
    stride: 2
  }
}
layer {
  name: "crop1-dsn4"
  type: "Crop"
  bottom: "sum-dsn5-4"
  bottom: "conv4_3"
  top: "weight-dsn5-4"
}
layer {
  name: "sigmoid-dsn4"
  type: "Sigmoid"
  bottom: "weight-dsn5-4"
  top: "sigmoid-dsn4"
}
layer {
  name: "rev-dsn4"
  type: "Power"
  bottom: "sigmoid-dsn4"
  top: "rev-dsn4"
  power_param {
    power: 1
    scale: -1
    shift: 1
  }
}
layer {
  name: "tile-dsn4"
  type: "Tile"
  bottom: "rev-dsn4"
  top: "weight-dsn4"
  tile_param {
    tiles: 512
  }
}
layer {
  name: "prod1-dsn4"
  type: "Eltwise"
  bottom: "conv4_3"
  bottom: "weight-dsn4"
  top: "prod1-dsn4"
  eltwise_param {
    operation: PROD
  }
}
layer {
  name: "conv1-dsn4"
  type: "Convolution"
  bottom: "prod1-dsn4"
  top: "conv1-dsn4"
  param {
    lr_mult: 1
    decay_mult: 1
  }
  param {
    lr_mult: 2
    decay_mult: 0
  }
  convolution_param {
    num_output: 64
    kernel_size: 1
    weight_filler {
      type: "gaussian"
      std: 0.01
    }
    bias_filler {
      type: "constant"
      value: 0
    }
    engine: CUDNN
  }
}
layer {
  name: "conv2-dsn4"
  type: "Convolution"
  bottom: "conv1-dsn4"
  top: "conv2-dsn4"
  param {
    lr_mult: 1
    decay_mult: 1
  }
  param {
    lr_mult: 2
    decay_mult: 0
  }
  convolution_param {
    num_output: 64
    pad: 1
    kernel_size: 3
    weight_filler {
      type: "gaussian"
      std: 0.01
    }
    bias_filler {
      type: "constant"
      value: 0
    }
    engine: CUDNN
  }
}
layer {
  name: "relu1-dsn4"
  type: "ReLU"
  bottom: "conv2-dsn4"
  top: "conv2-dsn4"
}
layer {
  name: "conv3-dsn4"
  type: "Convolution"
  bottom: "conv2-dsn4"
  top: "conv3-dsn4"
  param {
    lr_mult: 1
    decay_mult: 1
  }
  param {
    lr_mult: 2
    decay_mult: 0
  }
  convolution_param {
    num_output: 64
    pad: 1
    kernel_size: 3
    weight_filler {
      type: "gaussian"
      std: 0.01
    }
    bias_filler {
      type: "constant"
      value: 0
    }
    engine: CUDNN
  }
}
layer {
  name: "relu2-dsn4"
  type: "ReLU"
  bottom: "conv3-dsn4"
  top: "conv3-dsn4"
}
layer {
  name: "conv4-dsn4"
  type: "Convolution"
  bottom: "conv3-dsn4"
  top: "conv4-dsn4"
  param {
    lr_mult: 1
    decay_mult: 1
  }
  param {
    lr_mult: 2
    decay_mult: 0
  }
  convolution_param {
    num_output: 1
    pad: 1
    kernel_size: 3
    weight_filler {
      type: "gaussian"
      std: 0.01
    }
    bias_filler {
      type: "constant"
      value: 0
    }
    engine: CUDNN
  }
}
layer {
  name: "sum-dsn4"
  type: "Eltwise"
  bottom: "conv4-dsn4"
  bottom: "weight-dsn5-4"
  top: "sum-dsn4"
  eltwise_param {
    operation: SUM
  }
}
layer {
  name: "upsample8_dsn4"
  type: "Deconvolution"
  bottom: "sum-dsn4"
  top: "sum-dsn4-up"
  param {
    lr_mult: 0
    decay_mult: 1
  }
  param {
    lr_mult: 0
    decay_mult: 0
  }
  convolution_param {
    num_output: 1
    kernel_size: 16
    stride: 8
  }
}
layer {
  name: "crop2-dsn4"
  type: "Crop"
  bottom: "sum-dsn4-up"
  bottom: "data"
  top: "upscore-dsn4"
}
layer {
  name: "loss4-score"
  type: "SigmoidCrossEntropyLoss"
  bottom: "upscore-dsn4"
  bottom: "label"
  top: "loss4-score"
  loss_weight: 1
}
layer {
  name: "upsample2_dsn3"
  type: "Deconvolution"
  bottom: "sum-dsn4"
  top: "sum-dsn4-3"
  param {
    lr_mult: 0
    decay_mult: 1
  }
  param {
    lr_mult: 0
    decay_mult: 0
  }
  convolution_param {
    num_output: 1
    kernel_size: 4
    stride: 2
  }
}
layer {
  name: "crop1-dsn3"
  type: "Crop"
  bottom: "sum-dsn4-3"
  bottom: "conv3_3"
  top: "weight-dsn4-3"
}
layer {
  name: "sigmoid-dsn3"
  type: "Sigmoid"
  bottom: "weight-dsn4-3"
  top: "sigmoid-dsn3"
}
layer {
  name: "rev-dsn3"
  type: "Power"
  bottom: "sigmoid-dsn3"
  top: "rev-dsn3"
  power_param {
    power: 1
    scale: -1
    shift: 1
  }
}
layer {
  name: "tile-dsn3"
  type: "Tile"
  bottom: "rev-dsn3"
  top: "weight-dsn3"
  tile_param {
    tiles: 256
  }
}
layer {
  name: "prod1-dsn3"
  type: "Eltwise"
  bottom: "conv3_3"
  bottom: "weight-dsn3"
  top: "prod1-dsn3"
  eltwise_param {
    operation: PROD
  }
}
layer {
  name: "conv1-dsn3"
  type: "Convolution"
  bottom: "prod1-dsn3"
  top: "conv1-dsn3"
  param {
    lr_mult: 1
    decay_mult: 1
  }
  param {
    lr_mult: 2
    decay_mult: 0
  }
  convolution_param {
    num_output: 64
    kernel_size: 1
    weight_filler {
      type: "gaussian"
      std: 0.01
    }
    bias_filler {
      type: "constant"
      value: 0
    }
    engine: CUDNN
  }
}
layer {
  name: "conv2-dsn3"
  type: "Convolution"
  bottom: "conv1-dsn3"
  top: "conv2-dsn3"
  param {
    lr_mult: 1
    decay_mult: 1
  }
  param {
    lr_mult: 2
    decay_mult: 0
  }
  convolution_param {
    num_output: 64
    pad: 1
    kernel_size: 3
    weight_filler {
      type: "gaussian"
      std: 0.01
    }
    bias_filler {
      type: "constant"
      value: 0
    }
    engine: CUDNN
  }
}
layer {
  name: "relu1-dsn3"
  type: "ReLU"
  bottom: "conv2-dsn3"
  top: "conv2-dsn3"
}
layer {
  name: "conv3-dsn3"
  type: "Convolution"
  bottom: "conv2-dsn3"
  top: "conv3-dsn3"
  param {
    lr_mult: 1
    decay_mult: 1
  }
  param {
    lr_mult: 2
    decay_mult: 0
  }
  convolution_param {
    num_output: 64
    pad: 1
    kernel_size: 3
    weight_filler {
      type: "gaussian"
      std: 0.01
    }
    bias_filler {
      type: "constant"
      value: 0
    }
    engine: CUDNN
  }
}
layer {
  name: "relu2-dsn3"
  type: "ReLU"
  bottom: "conv3-dsn3"
  top: "conv3-dsn3"
}
layer {
  name: "conv4-dsn3"
  type: "Convolution"
  bottom: "conv3-dsn3"
  top: "conv4-dsn3"
  param {
    lr_mult: 1
    decay_mult: 1
  }
  param {
    lr_mult: 2
    decay_mult: 0
  }
  convolution_param {
    num_output: 1
    pad: 1
    kernel_size: 3
    weight_filler {
      type: "gaussian"
      std: 0.01
    }
    bias_filler {
      type: "constant"
      value: 0
    }
    engine: CUDNN
  }
}
layer {
  name: "sum-dsn3"
  type: "Eltwise"
  bottom: "conv4-dsn3"
  bottom: "weight-dsn4-3"
  top: "sum-dsn3"
  eltwise_param {
    operation: SUM
  }
}
layer {
  name: "upsample4_dsn3"
  type: "Deconvolution"
  bottom: "sum-dsn3"
  top: "sum-dsn3-up"
  param {
    lr_mult: 0
    decay_mult: 1
  }
  param {
    lr_mult: 0
    decay_mult: 0
  }
  convolution_param {
    num_output: 1
    kernel_size: 8
    stride: 4
  }
}
layer {
  name: "crop2-dsn3"
  type: "Crop"
  bottom: "sum-dsn3-up"
  bottom: "data"
  top: "upscore-dsn3"
}
layer {
  name: "loss3-score"
  type: "SigmoidCrossEntropyLoss"
  bottom: "upscore-dsn3"
  bottom: "label"
  top: "loss3-score"
  loss_weight: 1
}
layer {
  name: "upsample2_1-dsn2"
  type: "Deconvolution"
  bottom: "sum-dsn3"
  top: "sum-dsn3-2"
  param {
    lr_mult: 0
    decay_mult: 1
  }
  param {
    lr_mult: 0
    decay_mult: 0
  }
  convolution_param {
    num_output: 1
    kernel_size: 4
    stride: 2
  }
}
layer {
  name: "crop1-dsn2"
  type: "Crop"
  bottom: "sum-dsn3-2"
  bottom: "conv2_2"
  top: "weight-dsn3-2"
}
layer {
  name: "sigmoid-dsn2"
  type: "Sigmoid"
  bottom: "weight-dsn3-2"
  top: "sigmoid-dsn2"
}
layer {
  name: "rev-dsn2"
  type: "Power"
  bottom: "sigmoid-dsn2"
  top: "rev-dsn2"
  power_param {
    power: 1
    scale: -1
    shift: 1
  }
}
layer {
  name: "tile-dsn2"
  type: "Tile"
  bottom: "rev-dsn2"
  top: "weight-dsn2"
  tile_param {
    tiles: 128
  }
}
layer {
  name: "prod1-dsn2"
  type: "Eltwise"
  bottom: "conv2_2"
  bottom: "weight-dsn2"
  top: "prod1-dsn2"
  eltwise_param {
    operation: PROD
  }
}
layer {
  name: "conv1-dsn2"
  type: "Convolution"
  bottom: "prod1-dsn2"
  top: "conv1-dsn2"
  param {
    lr_mult: 1
    decay_mult: 1
  }
  param {
    lr_mult: 2
    decay_mult: 0
  }
  convolution_param {
    num_output: 64
    kernel_size: 1
    weight_filler {
      type: "gaussian"
      std: 0.01
    }
    bias_filler {
      type: "constant"
      value: 0
    }
    engine: CUDNN
  }
}
layer {
  name: "conv2-dsn2"
  type: "Convolution"
  bottom: "conv1-dsn2"
  top: "conv2-dsn2"
  param {
    lr_mult: 1
    decay_mult: 1
  }
  param {
    lr_mult: 2
    decay_mult: 0
  }
  convolution_param {
    num_output: 64
    pad: 1
    kernel_size: 3
    weight_filler {
      type: "gaussian"
      std: 0.01
    }
    bias_filler {
      type: "constant"
      value: 0
    }
    engine: CUDNN
  }
}
layer {
  name: "relu1-dsn2"
  type: "ReLU"
  bottom: "conv2-dsn2"
  top: "conv2-dsn2"
}
layer {
  name: "conv3-dsn2"
  type: "Convolution"
  bottom: "conv2-dsn2"
  top: "conv3-dsn2"
  param {
    lr_mult: 1
    decay_mult: 1
  }
  param {
    lr_mult: 2
    decay_mult: 0
  }
  convolution_param {
    num_output: 64
    pad: 1
    kernel_size: 3
    weight_filler {
      type: "gaussian"
      std: 0.01
    }
    bias_filler {
      type: "constant"
      value: 0
    }
    engine: CUDNN
  }
}
layer {
  name: "relu2-dsn2"
  type: "ReLU"
  bottom: "conv3-dsn2"
  top: "conv3-dsn2"
}
layer {
  name: "conv4-dsn2"
  type: "Convolution"
  bottom: "conv3-dsn2"
  top: "conv4-dsn2"
  param {
    lr_mult: 1
    decay_mult: 1
  }
  param {
    lr_mult: 2
    decay_mult: 0
  }
  convolution_param {
    num_output: 1
    pad: 1
    kernel_size: 3
    weight_filler {
      type: "gaussian"
      std: 0.01
    }
    bias_filler {
      type: "constant"
      value: 0
    }
    engine: CUDNN
  }
}
layer {
  name: "sum-dsn2"
  type: "Eltwise"
  bottom: "conv4-dsn2"
  bottom: "weight-dsn3-2"
  top: "sum-dsn2"
  eltwise_param {
    operation: SUM
  }
}
layer {
  name: "upsample2_2-dsn2"
  type: "Deconvolution"
  bottom: "sum-dsn2"
  top: "sum-dsn2-up"
  param {
    lr_mult: 0
    decay_mult: 1
  }
  param {
    lr_mult: 0
    decay_mult: 0
  }
  convolution_param {
    num_output: 1
    kernel_size: 4
    stride: 2
  }
}
layer {
  name: "crop2-dsn2"
  type: "Crop"
  bottom: "sum-dsn2-up"
  bottom: "data"
  top: "upscore-dsn2"
}
layer {
  name: "loss2-score"
  type: "SigmoidCrossEntropyLoss"
  bottom: "upscore-dsn2"
  bottom: "label"
  top: "loss2-score"
  loss_weight: 1
}
layer {
  name: "sigmoid-dsn1"
  type: "Sigmoid"
  bottom: "upscore-dsn2"
  top: "sigmoid-dsn1"
}
layer {
  name: "rev-dsn1"
  type: "Power"
  bottom: "sigmoid-dsn1"
  top: "rev-dsn1"
  power_param {
    power: 1
    scale: -1
    shift: 1
  }
}
layer {
  name: "tile-dsn1"
  type: "Tile"
  bottom: "rev-dsn1"
  top: "weight-dsn1"
  tile_param {
    tiles: 64
  }
}
layer {
  name: "prod1-dsn1"
  type: "Eltwise"
  bottom: "conv1_2"
  bottom: "weight-dsn1"
  top: "prod1-dsn1"
  eltwise_param {
    operation: PROD
  }
}
layer {
  name: "conv1-dsn1"
  type: "Convolution"
  bottom: "prod1-dsn1"
  top: "conv1-dsn1"
  param {
    lr_mult: 1
    decay_mult: 1
  }
  param {
    lr_mult: 2
    decay_mult: 0
  }
  convolution_param {
    num_output: 64
    kernel_size: 1
    weight_filler {
      type: "gaussian"
      std: 0.01
    }
    bias_filler {
      type: "constant"
      value: 0
    }
    engine: CUDNN
  }
}
layer {
  name: "conv2-dsn1"
  type: "Convolution"
  bottom: "conv1-dsn1"
  top: "conv2-dsn1"
  param {
    lr_mult: 1
    decay_mult: 1
  }
  param {
    lr_mult: 2
    decay_mult: 0
  }
  convolution_param {
    num_output: 64
    pad: 1
    kernel_size: 3
    weight_filler {
      type: "gaussian"
      std: 0.01
    }
    bias_filler {
      type: "constant"
      value: 0
    }
    engine: CUDNN
  }
}
layer {
  name: "relu1-dsn1"
  type: "ReLU"
  bottom: "conv2-dsn1"
  top: "conv2-dsn1"
}
layer {
  name: "conv3-dsn1"
  type: "Convolution"
  bottom: "conv2-dsn1"
  top: "conv3-dsn1"
  param {
    lr_mult: 1
    decay_mult: 1
  }
  param {
    lr_mult: 2
    decay_mult: 0
  }
  convolution_param {
    num_output: 64
    pad: 1
    kernel_size: 3
    weight_filler {
      type: "gaussian"
      std: 0.01
    }
    bias_filler {
      type: "constant"
      value: 0
    }
    engine: CUDNN
  }
}
layer {
  name: "relu2-dsn1"
  type: "ReLU"
  bottom: "conv3-dsn1"
  top: "conv3-dsn1"
}
layer {
  name: "conv4-dsn1"
  type: "Convolution"
  bottom: "conv3-dsn1"
  top: "conv4-dsn1"
  param {
    lr_mult: 1
    decay_mult: 1
  }
  param {
    lr_mult: 2
    decay_mult: 0
  }
  convolution_param {
    num_output: 1
    pad: 1
    kernel_size: 3
    weight_filler {
      type: "gaussian"
      std: 0.01
    }
    bias_filler {
      type: "constant"
      value: 0
    }
    engine: CUDNN
  }
}
layer {
  name: "sum-dsn1"
  type: "Eltwise"
  bottom: "conv4-dsn1"
  bottom: "upscore-dsn2"
  top: "sum-dsn1"
  eltwise_param {
    operation: SUM
  }
}
layer {
  name: "crop2-dsn1"
  type: "Crop"
  bottom: "sum-dsn1"
  bottom: "data"
  top: "upscore-dsn1"
}
layer {
  name: "loss1-score"
  type: "SigmoidCrossEntropyLoss"
  bottom: "upscore-dsn1"
  bottom: "label"
  top: "loss1-score"
  loss_weight: 1
}
I1125 10:17:13.558022 17185 layer_factory.hpp:77] Creating layer data
I1125 10:17:13.558061 17185 net.cpp:100] Creating Layer data
I1125 10:17:13.558070 17185 net.cpp:408] data -> data_unaugmented
I1125 10:17:13.558085 17185 net.cpp:408] data -> label_unaugmented
I1125 10:17:13.558104 17185 image_labelmap_data_layer.cpp:41] Opening file /media/compute/homes/galberding/FleckDetect/Datasets/train.txt
I1125 10:17:13.563076 17185 image_labelmap_data_layer.cpp:51] Shuffling data
I1125 10:17:13.564194 17185 image_labelmap_data_layer.cpp:56] A total of 3600 images.
I1125 10:17:13.945775 17185 image_labelmap_data_layer.cpp:110] output data size: 1,3,500,500
I1125 10:17:13.945822 17185 image_labelmap_data_layer.cpp:113] output label size: 1,1,500,500
I1125 10:17:13.958684 17185 net.cpp:150] Setting up data
I1125 10:17:13.958719 17185 net.cpp:157] Top shape: 1 3 500 500 (750000)
I1125 10:17:13.958760 17185 net.cpp:157] Top shape: 1 1 500 500 (250000)
I1125 10:17:13.958765 17185 net.cpp:165] Memory required for data: 4000000
I1125 10:17:13.958778 17185 layer_factory.hpp:77] Creating layer augmentation
I1125 10:17:13.962812 17185 net.cpp:100] Creating Layer augmentation
I1125 10:17:13.962829 17185 net.cpp:434] augmentation <- data_unaugmented
I1125 10:17:13.962841 17185 net.cpp:434] augmentation <- label_unaugmented
I1125 10:17:13.962851 17185 net.cpp:408] augmentation -> data
I1125 10:17:13.962862 17185 net.cpp:408] augmentation -> label
I1125 10:17:13.965442 17185 net.cpp:150] Setting up augmentation
I1125 10:17:13.965461 17185 net.cpp:157] Top shape: 1 3 500 500 (750000)
I1125 10:17:13.965466 17185 net.cpp:157] Top shape: 1 1 500 500 (250000)
I1125 10:17:13.965468 17185 net.cpp:165] Memory required for data: 8000000
I1125 10:17:13.965473 17185 layer_factory.hpp:77] Creating layer data_augmentation_0_split
I1125 10:17:13.965489 17185 net.cpp:100] Creating Layer data_augmentation_0_split
I1125 10:17:13.965493 17185 net.cpp:434] data_augmentation_0_split <- data
I1125 10:17:13.965503 17185 net.cpp:408] data_augmentation_0_split -> data_augmentation_0_split_0
I1125 10:17:13.965515 17185 net.cpp:408] data_augmentation_0_split -> data_augmentation_0_split_1
I1125 10:17:13.965523 17185 net.cpp:408] data_augmentation_0_split -> data_augmentation_0_split_2
I1125 10:17:13.965529 17185 net.cpp:408] data_augmentation_0_split -> data_augmentation_0_split_3
I1125 10:17:13.965535 17185 net.cpp:408] data_augmentation_0_split -> data_augmentation_0_split_4
I1125 10:17:13.965543 17185 net.cpp:408] data_augmentation_0_split -> data_augmentation_0_split_5
I1125 10:17:13.965549 17185 net.cpp:408] data_augmentation_0_split -> data_augmentation_0_split_6
I1125 10:17:13.965667 17185 net.cpp:150] Setting up data_augmentation_0_split
I1125 10:17:13.965678 17185 net.cpp:157] Top shape: 1 3 500 500 (750000)
I1125 10:17:13.965682 17185 net.cpp:157] Top shape: 1 3 500 500 (750000)
I1125 10:17:13.965687 17185 net.cpp:157] Top shape: 1 3 500 500 (750000)
I1125 10:17:13.965689 17185 net.cpp:157] Top shape: 1 3 500 500 (750000)
I1125 10:17:13.965693 17185 net.cpp:157] Top shape: 1 3 500 500 (750000)
I1125 10:17:13.965698 17185 net.cpp:157] Top shape: 1 3 500 500 (750000)
I1125 10:17:13.965701 17185 net.cpp:157] Top shape: 1 3 500 500 (750000)
I1125 10:17:13.965705 17185 net.cpp:165] Memory required for data: 29000000
I1125 10:17:13.965708 17185 layer_factory.hpp:77] Creating layer label_augmentation_1_split
I1125 10:17:13.965719 17185 net.cpp:100] Creating Layer label_augmentation_1_split
I1125 10:17:13.965723 17185 net.cpp:434] label_augmentation_1_split <- label
I1125 10:17:13.965731 17185 net.cpp:408] label_augmentation_1_split -> label_augmentation_1_split_0
I1125 10:17:13.965740 17185 net.cpp:408] label_augmentation_1_split -> label_augmentation_1_split_1
I1125 10:17:13.965747 17185 net.cpp:408] label_augmentation_1_split -> label_augmentation_1_split_2
I1125 10:17:13.965754 17185 net.cpp:408] label_augmentation_1_split -> label_augmentation_1_split_3
I1125 10:17:13.965759 17185 net.cpp:408] label_augmentation_1_split -> label_augmentation_1_split_4
I1125 10:17:13.965765 17185 net.cpp:408] label_augmentation_1_split -> label_augmentation_1_split_5
I1125 10:17:13.965844 17185 net.cpp:150] Setting up label_augmentation_1_split
I1125 10:17:13.965852 17185 net.cpp:157] Top shape: 1 1 500 500 (250000)
I1125 10:17:13.965855 17185 net.cpp:157] Top shape: 1 1 500 500 (250000)
I1125 10:17:13.965859 17185 net.cpp:157] Top shape: 1 1 500 500 (250000)
I1125 10:17:13.965862 17185 net.cpp:157] Top shape: 1 1 500 500 (250000)
I1125 10:17:13.965867 17185 net.cpp:157] Top shape: 1 1 500 500 (250000)
I1125 10:17:13.965870 17185 net.cpp:157] Top shape: 1 1 500 500 (250000)
I1125 10:17:13.965873 17185 net.cpp:165] Memory required for data: 35000000
I1125 10:17:13.965875 17185 layer_factory.hpp:77] Creating layer conv1_1
I1125 10:17:13.965891 17185 net.cpp:100] Creating Layer conv1_1
I1125 10:17:13.965894 17185 net.cpp:434] conv1_1 <- data_augmentation_0_split_0
I1125 10:17:13.965903 17185 net.cpp:408] conv1_1 -> conv1_1
I1125 10:17:14.264101 17185 net.cpp:150] Setting up conv1_1
I1125 10:17:14.264139 17185 net.cpp:157] Top shape: 1 64 500 500 (16000000)
I1125 10:17:14.264142 17185 net.cpp:165] Memory required for data: 99000000
I1125 10:17:14.264163 17185 layer_factory.hpp:77] Creating layer relu1_1
I1125 10:17:14.264175 17185 net.cpp:100] Creating Layer relu1_1
I1125 10:17:14.264178 17185 net.cpp:434] relu1_1 <- conv1_1
I1125 10:17:14.264183 17185 net.cpp:395] relu1_1 -> conv1_1 (in-place)
I1125 10:17:14.264345 17185 net.cpp:150] Setting up relu1_1
I1125 10:17:14.264353 17185 net.cpp:157] Top shape: 1 64 500 500 (16000000)
I1125 10:17:14.264354 17185 net.cpp:165] Memory required for data: 163000000
I1125 10:17:14.264356 17185 layer_factory.hpp:77] Creating layer conv1_2
I1125 10:17:14.264367 17185 net.cpp:100] Creating Layer conv1_2
I1125 10:17:14.264370 17185 net.cpp:434] conv1_2 <- conv1_1
I1125 10:17:14.264374 17185 net.cpp:408] conv1_2 -> conv1_2
I1125 10:17:14.266391 17185 net.cpp:150] Setting up conv1_2
I1125 10:17:14.266402 17185 net.cpp:157] Top shape: 1 64 500 500 (16000000)
I1125 10:17:14.266420 17185 net.cpp:165] Memory required for data: 227000000
I1125 10:17:14.266427 17185 layer_factory.hpp:77] Creating layer relu1_2
I1125 10:17:14.266436 17185 net.cpp:100] Creating Layer relu1_2
I1125 10:17:14.266439 17185 net.cpp:434] relu1_2 <- conv1_2
I1125 10:17:14.266444 17185 net.cpp:395] relu1_2 -> conv1_2 (in-place)
I1125 10:17:14.266600 17185 net.cpp:150] Setting up relu1_2
I1125 10:17:14.266607 17185 net.cpp:157] Top shape: 1 64 500 500 (16000000)
I1125 10:17:14.266610 17185 net.cpp:165] Memory required for data: 291000000
I1125 10:17:14.266613 17185 layer_factory.hpp:77] Creating layer conv1_2_relu1_2_0_split
I1125 10:17:14.266621 17185 net.cpp:100] Creating Layer conv1_2_relu1_2_0_split
I1125 10:17:14.266623 17185 net.cpp:434] conv1_2_relu1_2_0_split <- conv1_2
I1125 10:17:14.266629 17185 net.cpp:408] conv1_2_relu1_2_0_split -> conv1_2_relu1_2_0_split_0
I1125 10:17:14.266634 17185 net.cpp:408] conv1_2_relu1_2_0_split -> conv1_2_relu1_2_0_split_1
I1125 10:17:14.266664 17185 net.cpp:150] Setting up conv1_2_relu1_2_0_split
I1125 10:17:14.266669 17185 net.cpp:157] Top shape: 1 64 500 500 (16000000)
I1125 10:17:14.266674 17185 net.cpp:157] Top shape: 1 64 500 500 (16000000)
I1125 10:17:14.266676 17185 net.cpp:165] Memory required for data: 419000000
I1125 10:17:14.266678 17185 layer_factory.hpp:77] Creating layer pool1
I1125 10:17:14.266685 17185 net.cpp:100] Creating Layer pool1
I1125 10:17:14.266687 17185 net.cpp:434] pool1 <- conv1_2_relu1_2_0_split_0
I1125 10:17:14.266690 17185 net.cpp:408] pool1 -> pool1
I1125 10:17:14.266721 17185 net.cpp:150] Setting up pool1
I1125 10:17:14.266726 17185 net.cpp:157] Top shape: 1 64 250 250 (4000000)
I1125 10:17:14.266727 17185 net.cpp:165] Memory required for data: 435000000
I1125 10:17:14.266729 17185 layer_factory.hpp:77] Creating layer conv2_1
I1125 10:17:14.266736 17185 net.cpp:100] Creating Layer conv2_1
I1125 10:17:14.266738 17185 net.cpp:434] conv2_1 <- pool1
I1125 10:17:14.266744 17185 net.cpp:408] conv2_1 -> conv2_1
I1125 10:17:14.268882 17185 net.cpp:150] Setting up conv2_1
I1125 10:17:14.268893 17185 net.cpp:157] Top shape: 1 128 250 250 (8000000)
I1125 10:17:14.268894 17185 net.cpp:165] Memory required for data: 467000000
I1125 10:17:14.268906 17185 layer_factory.hpp:77] Creating layer relu2_1
I1125 10:17:14.268911 17185 net.cpp:100] Creating Layer relu2_1
I1125 10:17:14.268914 17185 net.cpp:434] relu2_1 <- conv2_1
I1125 10:17:14.268919 17185 net.cpp:395] relu2_1 -> conv2_1 (in-place)
I1125 10:17:14.269065 17185 net.cpp:150] Setting up relu2_1
I1125 10:17:14.269073 17185 net.cpp:157] Top shape: 1 128 250 250 (8000000)
I1125 10:17:14.269075 17185 net.cpp:165] Memory required for data: 499000000
I1125 10:17:14.269078 17185 layer_factory.hpp:77] Creating layer conv2_2
I1125 10:17:14.269084 17185 net.cpp:100] Creating Layer conv2_2
I1125 10:17:14.269086 17185 net.cpp:434] conv2_2 <- conv2_1
I1125 10:17:14.269091 17185 net.cpp:408] conv2_2 -> conv2_2
I1125 10:17:14.270300 17185 net.cpp:150] Setting up conv2_2
I1125 10:17:14.270310 17185 net.cpp:157] Top shape: 1 128 250 250 (8000000)
I1125 10:17:14.270313 17185 net.cpp:165] Memory required for data: 531000000
I1125 10:17:14.270318 17185 layer_factory.hpp:77] Creating layer relu2_2
I1125 10:17:14.270324 17185 net.cpp:100] Creating Layer relu2_2
I1125 10:17:14.270326 17185 net.cpp:434] relu2_2 <- conv2_2
I1125 10:17:14.270330 17185 net.cpp:395] relu2_2 -> conv2_2 (in-place)
I1125 10:17:14.270478 17185 net.cpp:150] Setting up relu2_2
I1125 10:17:14.270485 17185 net.cpp:157] Top shape: 1 128 250 250 (8000000)
I1125 10:17:14.270488 17185 net.cpp:165] Memory required for data: 563000000
I1125 10:17:14.270490 17185 layer_factory.hpp:77] Creating layer conv2_2_relu2_2_0_split
I1125 10:17:14.270496 17185 net.cpp:100] Creating Layer conv2_2_relu2_2_0_split
I1125 10:17:14.270498 17185 net.cpp:434] conv2_2_relu2_2_0_split <- conv2_2
I1125 10:17:14.270504 17185 net.cpp:408] conv2_2_relu2_2_0_split -> conv2_2_relu2_2_0_split_0
I1125 10:17:14.270509 17185 net.cpp:408] conv2_2_relu2_2_0_split -> conv2_2_relu2_2_0_split_1
I1125 10:17:14.270515 17185 net.cpp:408] conv2_2_relu2_2_0_split -> conv2_2_relu2_2_0_split_2
I1125 10:17:14.270560 17185 net.cpp:150] Setting up conv2_2_relu2_2_0_split
I1125 10:17:14.270565 17185 net.cpp:157] Top shape: 1 128 250 250 (8000000)
I1125 10:17:14.270567 17185 net.cpp:157] Top shape: 1 128 250 250 (8000000)
I1125 10:17:14.270570 17185 net.cpp:157] Top shape: 1 128 250 250 (8000000)
I1125 10:17:14.270572 17185 net.cpp:165] Memory required for data: 659000000
I1125 10:17:14.270576 17185 layer_factory.hpp:77] Creating layer pool2
I1125 10:17:14.270581 17185 net.cpp:100] Creating Layer pool2
I1125 10:17:14.270583 17185 net.cpp:434] pool2 <- conv2_2_relu2_2_0_split_0
I1125 10:17:14.270586 17185 net.cpp:408] pool2 -> pool2
I1125 10:17:14.270615 17185 net.cpp:150] Setting up pool2
I1125 10:17:14.270619 17185 net.cpp:157] Top shape: 1 128 125 125 (2000000)
I1125 10:17:14.270622 17185 net.cpp:165] Memory required for data: 667000000
I1125 10:17:14.270624 17185 layer_factory.hpp:77] Creating layer conv3_1
I1125 10:17:14.270634 17185 net.cpp:100] Creating Layer conv3_1
I1125 10:17:14.270637 17185 net.cpp:434] conv3_1 <- pool2
I1125 10:17:14.270642 17185 net.cpp:408] conv3_1 -> conv3_1
I1125 10:17:14.272922 17185 net.cpp:150] Setting up conv3_1
I1125 10:17:14.272931 17185 net.cpp:157] Top shape: 1 256 125 125 (4000000)
I1125 10:17:14.272934 17185 net.cpp:165] Memory required for data: 683000000
I1125 10:17:14.272941 17185 layer_factory.hpp:77] Creating layer relu3_1
I1125 10:17:14.272948 17185 net.cpp:100] Creating Layer relu3_1
I1125 10:17:14.272951 17185 net.cpp:434] relu3_1 <- conv3_1
I1125 10:17:14.272954 17185 net.cpp:395] relu3_1 -> conv3_1 (in-place)
I1125 10:17:14.273357 17185 net.cpp:150] Setting up relu3_1
I1125 10:17:14.273366 17185 net.cpp:157] Top shape: 1 256 125 125 (4000000)
I1125 10:17:14.273370 17185 net.cpp:165] Memory required for data: 699000000
I1125 10:17:14.273371 17185 layer_factory.hpp:77] Creating layer conv3_2
I1125 10:17:14.273380 17185 net.cpp:100] Creating Layer conv3_2
I1125 10:17:14.273383 17185 net.cpp:434] conv3_2 <- conv3_1
I1125 10:17:14.273391 17185 net.cpp:408] conv3_2 -> conv3_2
I1125 10:17:14.275678 17185 net.cpp:150] Setting up conv3_2
I1125 10:17:14.275688 17185 net.cpp:157] Top shape: 1 256 125 125 (4000000)
I1125 10:17:14.275691 17185 net.cpp:165] Memory required for data: 715000000
I1125 10:17:14.275696 17185 layer_factory.hpp:77] Creating layer relu3_2
I1125 10:17:14.275701 17185 net.cpp:100] Creating Layer relu3_2
I1125 10:17:14.275703 17185 net.cpp:434] relu3_2 <- conv3_2
I1125 10:17:14.275707 17185 net.cpp:395] relu3_2 -> conv3_2 (in-place)
I1125 10:17:14.276077 17185 net.cpp:150] Setting up relu3_2
I1125 10:17:14.276085 17185 net.cpp:157] Top shape: 1 256 125 125 (4000000)
I1125 10:17:14.276088 17185 net.cpp:165] Memory required for data: 731000000
I1125 10:17:14.276090 17185 layer_factory.hpp:77] Creating layer conv3_3
I1125 10:17:14.276098 17185 net.cpp:100] Creating Layer conv3_3
I1125 10:17:14.276099 17185 net.cpp:434] conv3_3 <- conv3_2
I1125 10:17:14.276105 17185 net.cpp:408] conv3_3 -> conv3_3
I1125 10:17:14.278591 17185 net.cpp:150] Setting up conv3_3
I1125 10:17:14.278602 17185 net.cpp:157] Top shape: 1 256 125 125 (4000000)
I1125 10:17:14.278604 17185 net.cpp:165] Memory required for data: 747000000
I1125 10:17:14.278610 17185 layer_factory.hpp:77] Creating layer relu3_3
I1125 10:17:14.278614 17185 net.cpp:100] Creating Layer relu3_3
I1125 10:17:14.278617 17185 net.cpp:434] relu3_3 <- conv3_3
I1125 10:17:14.278621 17185 net.cpp:395] relu3_3 -> conv3_3 (in-place)
I1125 10:17:14.278757 17185 net.cpp:150] Setting up relu3_3
I1125 10:17:14.278764 17185 net.cpp:157] Top shape: 1 256 125 125 (4000000)
I1125 10:17:14.278766 17185 net.cpp:165] Memory required for data: 763000000
I1125 10:17:14.278771 17185 layer_factory.hpp:77] Creating layer conv3_3_relu3_3_0_split
I1125 10:17:14.278775 17185 net.cpp:100] Creating Layer conv3_3_relu3_3_0_split
I1125 10:17:14.278779 17185 net.cpp:434] conv3_3_relu3_3_0_split <- conv3_3
I1125 10:17:14.278784 17185 net.cpp:408] conv3_3_relu3_3_0_split -> conv3_3_relu3_3_0_split_0
I1125 10:17:14.278789 17185 net.cpp:408] conv3_3_relu3_3_0_split -> conv3_3_relu3_3_0_split_1
I1125 10:17:14.278798 17185 net.cpp:408] conv3_3_relu3_3_0_split -> conv3_3_relu3_3_0_split_2
I1125 10:17:14.278839 17185 net.cpp:150] Setting up conv3_3_relu3_3_0_split
I1125 10:17:14.278844 17185 net.cpp:157] Top shape: 1 256 125 125 (4000000)
I1125 10:17:14.278847 17185 net.cpp:157] Top shape: 1 256 125 125 (4000000)
I1125 10:17:14.278851 17185 net.cpp:157] Top shape: 1 256 125 125 (4000000)
I1125 10:17:14.278852 17185 net.cpp:165] Memory required for data: 811000000
I1125 10:17:14.278854 17185 layer_factory.hpp:77] Creating layer pool3
I1125 10:17:14.278859 17185 net.cpp:100] Creating Layer pool3
I1125 10:17:14.278861 17185 net.cpp:434] pool3 <- conv3_3_relu3_3_0_split_0
I1125 10:17:14.278865 17185 net.cpp:408] pool3 -> pool3
I1125 10:17:14.278892 17185 net.cpp:150] Setting up pool3
I1125 10:17:14.278898 17185 net.cpp:157] Top shape: 1 256 63 63 (1016064)
I1125 10:17:14.278898 17185 net.cpp:165] Memory required for data: 815064256
I1125 10:17:14.278901 17185 layer_factory.hpp:77] Creating layer conv4_1
I1125 10:17:14.278908 17185 net.cpp:100] Creating Layer conv4_1
I1125 10:17:14.278909 17185 net.cpp:434] conv4_1 <- pool3
I1125 10:17:14.278913 17185 net.cpp:408] conv4_1 -> conv4_1
I1125 10:17:14.283437 17185 net.cpp:150] Setting up conv4_1
I1125 10:17:14.283448 17185 net.cpp:157] Top shape: 1 512 63 63 (2032128)
I1125 10:17:14.283450 17185 net.cpp:165] Memory required for data: 823192768
I1125 10:17:14.283457 17185 layer_factory.hpp:77] Creating layer relu4_1
I1125 10:17:14.283460 17185 net.cpp:100] Creating Layer relu4_1
I1125 10:17:14.283463 17185 net.cpp:434] relu4_1 <- conv4_1
I1125 10:17:14.283468 17185 net.cpp:395] relu4_1 -> conv4_1 (in-place)
I1125 10:17:14.283612 17185 net.cpp:150] Setting up relu4_1
I1125 10:17:14.283619 17185 net.cpp:157] Top shape: 1 512 63 63 (2032128)
I1125 10:17:14.283622 17185 net.cpp:165] Memory required for data: 831321280
I1125 10:17:14.283627 17185 layer_factory.hpp:77] Creating layer conv4_2
I1125 10:17:14.283632 17185 net.cpp:100] Creating Layer conv4_2
I1125 10:17:14.283635 17185 net.cpp:434] conv4_2 <- conv4_1
I1125 10:17:14.283640 17185 net.cpp:408] conv4_2 -> conv4_2
I1125 10:17:14.289463 17185 net.cpp:150] Setting up conv4_2
I1125 10:17:14.289475 17185 net.cpp:157] Top shape: 1 512 63 63 (2032128)
I1125 10:17:14.289477 17185 net.cpp:165] Memory required for data: 839449792
I1125 10:17:14.289487 17185 layer_factory.hpp:77] Creating layer relu4_2
I1125 10:17:14.289494 17185 net.cpp:100] Creating Layer relu4_2
I1125 10:17:14.289495 17185 net.cpp:434] relu4_2 <- conv4_2
I1125 10:17:14.289500 17185 net.cpp:395] relu4_2 -> conv4_2 (in-place)
I1125 10:17:14.289647 17185 net.cpp:150] Setting up relu4_2
I1125 10:17:14.289654 17185 net.cpp:157] Top shape: 1 512 63 63 (2032128)
I1125 10:17:14.289656 17185 net.cpp:165] Memory required for data: 847578304
I1125 10:17:14.289659 17185 layer_factory.hpp:77] Creating layer conv4_3
I1125 10:17:14.289666 17185 net.cpp:100] Creating Layer conv4_3
I1125 10:17:14.289669 17185 net.cpp:434] conv4_3 <- conv4_2
I1125 10:17:14.289672 17185 net.cpp:408] conv4_3 -> conv4_3
I1125 10:17:14.295203 17185 net.cpp:150] Setting up conv4_3
I1125 10:17:14.295215 17185 net.cpp:157] Top shape: 1 512 63 63 (2032128)
I1125 10:17:14.295233 17185 net.cpp:165] Memory required for data: 855706816
I1125 10:17:14.295238 17185 layer_factory.hpp:77] Creating layer relu4_3
I1125 10:17:14.295248 17185 net.cpp:100] Creating Layer relu4_3
I1125 10:17:14.295251 17185 net.cpp:434] relu4_3 <- conv4_3
I1125 10:17:14.295256 17185 net.cpp:395] relu4_3 -> conv4_3 (in-place)
I1125 10:17:14.295409 17185 net.cpp:150] Setting up relu4_3
I1125 10:17:14.295416 17185 net.cpp:157] Top shape: 1 512 63 63 (2032128)
I1125 10:17:14.295419 17185 net.cpp:165] Memory required for data: 863835328
I1125 10:17:14.295423 17185 layer_factory.hpp:77] Creating layer conv4_3_relu4_3_0_split
I1125 10:17:14.295428 17185 net.cpp:100] Creating Layer conv4_3_relu4_3_0_split
I1125 10:17:14.295431 17185 net.cpp:434] conv4_3_relu4_3_0_split <- conv4_3
I1125 10:17:14.295437 17185 net.cpp:408] conv4_3_relu4_3_0_split -> conv4_3_relu4_3_0_split_0
I1125 10:17:14.295444 17185 net.cpp:408] conv4_3_relu4_3_0_split -> conv4_3_relu4_3_0_split_1
I1125 10:17:14.295464 17185 net.cpp:408] conv4_3_relu4_3_0_split -> conv4_3_relu4_3_0_split_2
I1125 10:17:14.295507 17185 net.cpp:150] Setting up conv4_3_relu4_3_0_split
I1125 10:17:14.295512 17185 net.cpp:157] Top shape: 1 512 63 63 (2032128)
I1125 10:17:14.295516 17185 net.cpp:157] Top shape: 1 512 63 63 (2032128)
I1125 10:17:14.295518 17185 net.cpp:157] Top shape: 1 512 63 63 (2032128)
I1125 10:17:14.295521 17185 net.cpp:165] Memory required for data: 888220864
I1125 10:17:14.295522 17185 layer_factory.hpp:77] Creating layer pool4
I1125 10:17:14.295528 17185 net.cpp:100] Creating Layer pool4
I1125 10:17:14.295531 17185 net.cpp:434] pool4 <- conv4_3_relu4_3_0_split_0
I1125 10:17:14.295536 17185 net.cpp:408] pool4 -> pool4
I1125 10:17:14.295564 17185 net.cpp:150] Setting up pool4
I1125 10:17:14.295570 17185 net.cpp:157] Top shape: 1 512 32 32 (524288)
I1125 10:17:14.295572 17185 net.cpp:165] Memory required for data: 890318016
I1125 10:17:14.295574 17185 layer_factory.hpp:77] Creating layer conv5_1
I1125 10:17:14.295586 17185 net.cpp:100] Creating Layer conv5_1
I1125 10:17:14.295589 17185 net.cpp:434] conv5_1 <- pool4
I1125 10:17:14.295593 17185 net.cpp:408] conv5_1 -> conv5_1
I1125 10:17:14.301132 17185 net.cpp:150] Setting up conv5_1
I1125 10:17:14.301144 17185 net.cpp:157] Top shape: 1 512 32 32 (524288)
I1125 10:17:14.301147 17185 net.cpp:165] Memory required for data: 892415168
I1125 10:17:14.301167 17185 layer_factory.hpp:77] Creating layer relu5_1
I1125 10:17:14.301177 17185 net.cpp:100] Creating Layer relu5_1
I1125 10:17:14.301180 17185 net.cpp:434] relu5_1 <- conv5_1
I1125 10:17:14.301184 17185 net.cpp:395] relu5_1 -> conv5_1 (in-place)
I1125 10:17:14.301610 17185 net.cpp:150] Setting up relu5_1
I1125 10:17:14.301620 17185 net.cpp:157] Top shape: 1 512 32 32 (524288)
I1125 10:17:14.301622 17185 net.cpp:165] Memory required for data: 894512320
I1125 10:17:14.301625 17185 layer_factory.hpp:77] Creating layer conv5_2
I1125 10:17:14.301632 17185 net.cpp:100] Creating Layer conv5_2
I1125 10:17:14.301635 17185 net.cpp:434] conv5_2 <- conv5_1
I1125 10:17:14.301641 17185 net.cpp:408] conv5_2 -> conv5_2
I1125 10:17:14.306941 17185 net.cpp:150] Setting up conv5_2
I1125 10:17:14.306952 17185 net.cpp:157] Top shape: 1 512 32 32 (524288)
I1125 10:17:14.306954 17185 net.cpp:165] Memory required for data: 896609472
I1125 10:17:14.306960 17185 layer_factory.hpp:77] Creating layer relu5_2
I1125 10:17:14.306965 17185 net.cpp:100] Creating Layer relu5_2
I1125 10:17:14.306968 17185 net.cpp:434] relu5_2 <- conv5_2
I1125 10:17:14.306972 17185 net.cpp:395] relu5_2 -> conv5_2 (in-place)
I1125 10:17:14.307381 17185 net.cpp:150] Setting up relu5_2
I1125 10:17:14.307391 17185 net.cpp:157] Top shape: 1 512 32 32 (524288)
I1125 10:17:14.307394 17185 net.cpp:165] Memory required for data: 898706624
I1125 10:17:14.307395 17185 layer_factory.hpp:77] Creating layer conv5_3
I1125 10:17:14.307405 17185 net.cpp:100] Creating Layer conv5_3
I1125 10:17:14.307408 17185 net.cpp:434] conv5_3 <- conv5_2
I1125 10:17:14.307415 17185 net.cpp:408] conv5_3 -> conv5_3
I1125 10:17:14.313032 17185 net.cpp:150] Setting up conv5_3
I1125 10:17:14.313046 17185 net.cpp:157] Top shape: 1 512 32 32 (524288)
I1125 10:17:14.313048 17185 net.cpp:165] Memory required for data: 900803776
I1125 10:17:14.313055 17185 layer_factory.hpp:77] Creating layer relu5_3
I1125 10:17:14.313060 17185 net.cpp:100] Creating Layer relu5_3
I1125 10:17:14.313062 17185 net.cpp:434] relu5_3 <- conv5_3
I1125 10:17:14.313066 17185 net.cpp:395] relu5_3 -> conv5_3 (in-place)
I1125 10:17:14.313225 17185 net.cpp:150] Setting up relu5_3
I1125 10:17:14.313231 17185 net.cpp:157] Top shape: 1 512 32 32 (524288)
I1125 10:17:14.313233 17185 net.cpp:165] Memory required for data: 902900928
I1125 10:17:14.313236 17185 layer_factory.hpp:77] Creating layer conv5_3_relu5_3_0_split
I1125 10:17:14.313244 17185 net.cpp:100] Creating Layer conv5_3_relu5_3_0_split
I1125 10:17:14.313246 17185 net.cpp:434] conv5_3_relu5_3_0_split <- conv5_3
I1125 10:17:14.313252 17185 net.cpp:408] conv5_3_relu5_3_0_split -> conv5_3_relu5_3_0_split_0
I1125 10:17:14.313258 17185 net.cpp:408] conv5_3_relu5_3_0_split -> conv5_3_relu5_3_0_split_1
I1125 10:17:14.313262 17185 net.cpp:408] conv5_3_relu5_3_0_split -> conv5_3_relu5_3_0_split_2
I1125 10:17:14.313309 17185 net.cpp:150] Setting up conv5_3_relu5_3_0_split
I1125 10:17:14.313314 17185 net.cpp:157] Top shape: 1 512 32 32 (524288)
I1125 10:17:14.313318 17185 net.cpp:157] Top shape: 1 512 32 32 (524288)
I1125 10:17:14.313319 17185 net.cpp:157] Top shape: 1 512 32 32 (524288)
I1125 10:17:14.313321 17185 net.cpp:165] Memory required for data: 909192384
I1125 10:17:14.313323 17185 layer_factory.hpp:77] Creating layer pool5
I1125 10:17:14.313331 17185 net.cpp:100] Creating Layer pool5
I1125 10:17:14.313333 17185 net.cpp:434] pool5 <- conv5_3_relu5_3_0_split_0
I1125 10:17:14.313339 17185 net.cpp:408] pool5 -> pool5
I1125 10:17:14.313370 17185 net.cpp:150] Setting up pool5
I1125 10:17:14.313376 17185 net.cpp:157] Top shape: 1 512 17 17 (147968)
I1125 10:17:14.313378 17185 net.cpp:165] Memory required for data: 909784256
I1125 10:17:14.313380 17185 layer_factory.hpp:77] Creating layer conv1-dsn6
I1125 10:17:14.313390 17185 net.cpp:100] Creating Layer conv1-dsn6
I1125 10:17:14.313392 17185 net.cpp:434] conv1-dsn6 <- pool5
I1125 10:17:14.313396 17185 net.cpp:408] conv1-dsn6 -> conv1-dsn6
I1125 10:17:14.316581 17185 net.cpp:150] Setting up conv1-dsn6
I1125 10:17:14.316592 17185 net.cpp:157] Top shape: 1 256 17 17 (73984)
I1125 10:17:14.316594 17185 net.cpp:165] Memory required for data: 910080192
I1125 10:17:14.316599 17185 layer_factory.hpp:77] Creating layer conv2-dsn6
I1125 10:17:14.316610 17185 net.cpp:100] Creating Layer conv2-dsn6
I1125 10:17:14.316613 17185 net.cpp:434] conv2-dsn6 <- conv1-dsn6
I1125 10:17:14.316618 17185 net.cpp:408] conv2-dsn6 -> conv2-dsn6
I1125 10:17:14.332566 17185 net.cpp:150] Setting up conv2-dsn6
I1125 10:17:14.332576 17185 net.cpp:157] Top shape: 1 256 17 17 (73984)
I1125 10:17:14.332579 17185 net.cpp:165] Memory required for data: 910376128
I1125 10:17:14.332584 17185 layer_factory.hpp:77] Creating layer relu1-dsn6
I1125 10:17:14.332592 17185 net.cpp:100] Creating Layer relu1-dsn6
I1125 10:17:14.332593 17185 net.cpp:434] relu1-dsn6 <- conv2-dsn6
I1125 10:17:14.332599 17185 net.cpp:395] relu1-dsn6 -> conv2-dsn6 (in-place)
I1125 10:17:14.332751 17185 net.cpp:150] Setting up relu1-dsn6
I1125 10:17:14.332757 17185 net.cpp:157] Top shape: 1 256 17 17 (73984)
I1125 10:17:14.332759 17185 net.cpp:165] Memory required for data: 910672064
I1125 10:17:14.332762 17185 layer_factory.hpp:77] Creating layer conv3-dsn6
I1125 10:17:14.332770 17185 net.cpp:100] Creating Layer conv3-dsn6
I1125 10:17:14.332772 17185 net.cpp:434] conv3-dsn6 <- conv2-dsn6
I1125 10:17:14.332778 17185 net.cpp:408] conv3-dsn6 -> conv3-dsn6
I1125 10:17:14.348934 17185 net.cpp:150] Setting up conv3-dsn6
I1125 10:17:14.348945 17185 net.cpp:157] Top shape: 1 256 17 17 (73984)
I1125 10:17:14.348948 17185 net.cpp:165] Memory required for data: 910968000
I1125 10:17:14.348953 17185 layer_factory.hpp:77] Creating layer relu2-dsn6
I1125 10:17:14.348959 17185 net.cpp:100] Creating Layer relu2-dsn6
I1125 10:17:14.348963 17185 net.cpp:434] relu2-dsn6 <- conv3-dsn6
I1125 10:17:14.348966 17185 net.cpp:395] relu2-dsn6 -> conv3-dsn6 (in-place)
I1125 10:17:14.349117 17185 net.cpp:150] Setting up relu2-dsn6
I1125 10:17:14.349131 17185 net.cpp:157] Top shape: 1 256 17 17 (73984)
I1125 10:17:14.349134 17185 net.cpp:165] Memory required for data: 911263936
I1125 10:17:14.349151 17185 layer_factory.hpp:77] Creating layer conv4-dsn6
I1125 10:17:14.349160 17185 net.cpp:100] Creating Layer conv4-dsn6
I1125 10:17:14.349162 17185 net.cpp:434] conv4-dsn6 <- conv3-dsn6
I1125 10:17:14.349169 17185 net.cpp:408] conv4-dsn6 -> conv4-dsn6
I1125 10:17:14.365110 17185 net.cpp:150] Setting up conv4-dsn6
I1125 10:17:14.365121 17185 net.cpp:157] Top shape: 1 256 17 17 (73984)
I1125 10:17:14.365123 17185 net.cpp:165] Memory required for data: 911559872
I1125 10:17:14.365159 17185 layer_factory.hpp:77] Creating layer relu3-dsn6
I1125 10:17:14.365167 17185 net.cpp:100] Creating Layer relu3-dsn6
I1125 10:17:14.365170 17185 net.cpp:434] relu3-dsn6 <- conv4-dsn6
I1125 10:17:14.365175 17185 net.cpp:395] relu3-dsn6 -> conv4-dsn6 (in-place)
I1125 10:17:14.365336 17185 net.cpp:150] Setting up relu3-dsn6
I1125 10:17:14.365344 17185 net.cpp:157] Top shape: 1 256 17 17 (73984)
I1125 10:17:14.365345 17185 net.cpp:165] Memory required for data: 911855808
I1125 10:17:14.365347 17185 layer_factory.hpp:77] Creating layer conv5-dsn6
I1125 10:17:14.365356 17185 net.cpp:100] Creating Layer conv5-dsn6
I1125 10:17:14.365360 17185 net.cpp:434] conv5-dsn6 <- conv4-dsn6
I1125 10:17:14.365365 17185 net.cpp:408] conv5-dsn6 -> conv5-dsn6
I1125 10:17:14.366315 17185 net.cpp:150] Setting up conv5-dsn6
I1125 10:17:14.366325 17185 net.cpp:157] Top shape: 1 1 17 17 (289)
I1125 10:17:14.366328 17185 net.cpp:165] Memory required for data: 911856964
I1125 10:17:14.366333 17185 layer_factory.hpp:77] Creating layer conv5-dsn6_conv5-dsn6_0_split
I1125 10:17:14.366338 17185 net.cpp:100] Creating Layer conv5-dsn6_conv5-dsn6_0_split
I1125 10:17:14.366341 17185 net.cpp:434] conv5-dsn6_conv5-dsn6_0_split <- conv5-dsn6
I1125 10:17:14.366348 17185 net.cpp:408] conv5-dsn6_conv5-dsn6_0_split -> conv5-dsn6_conv5-dsn6_0_split_0
I1125 10:17:14.366353 17185 net.cpp:408] conv5-dsn6_conv5-dsn6_0_split -> conv5-dsn6_conv5-dsn6_0_split_1
I1125 10:17:14.366389 17185 net.cpp:150] Setting up conv5-dsn6_conv5-dsn6_0_split
I1125 10:17:14.366392 17185 net.cpp:157] Top shape: 1 1 17 17 (289)
I1125 10:17:14.366395 17185 net.cpp:157] Top shape: 1 1 17 17 (289)
I1125 10:17:14.366396 17185 net.cpp:165] Memory required for data: 911859276
I1125 10:17:14.366398 17185 layer_factory.hpp:77] Creating layer upsample32_dsn6
I1125 10:17:14.366406 17185 net.cpp:100] Creating Layer upsample32_dsn6
I1125 10:17:14.366408 17185 net.cpp:434] upsample32_dsn6 <- conv5-dsn6_conv5-dsn6_0_split_0
I1125 10:17:14.366412 17185 net.cpp:408] upsample32_dsn6 -> conv5-dsn6-up
I1125 10:17:14.366884 17185 net.cpp:150] Setting up upsample32_dsn6
I1125 10:17:14.366890 17185 net.cpp:157] Top shape: 1 1 576 576 (331776)
I1125 10:17:14.366892 17185 net.cpp:165] Memory required for data: 913186380
I1125 10:17:14.366896 17185 layer_factory.hpp:77] Creating layer crop-dsn6
I1125 10:17:14.366904 17185 net.cpp:100] Creating Layer crop-dsn6
I1125 10:17:14.366905 17185 net.cpp:434] crop-dsn6 <- conv5-dsn6-up
I1125 10:17:14.366909 17185 net.cpp:434] crop-dsn6 <- data_augmentation_0_split_1
I1125 10:17:14.366914 17185 net.cpp:408] crop-dsn6 -> upscore-dsn6
I1125 10:17:14.366940 17185 net.cpp:150] Setting up crop-dsn6
I1125 10:17:14.366943 17185 net.cpp:157] Top shape: 1 1 500 500 (250000)
I1125 10:17:14.366945 17185 net.cpp:165] Memory required for data: 914186380
I1125 10:17:14.366947 17185 layer_factory.hpp:77] Creating layer loss6-score
I1125 10:17:14.366955 17185 net.cpp:100] Creating Layer loss6-score
I1125 10:17:14.366957 17185 net.cpp:434] loss6-score <- upscore-dsn6
I1125 10:17:14.366961 17185 net.cpp:434] loss6-score <- label_augmentation_1_split_0
I1125 10:17:14.366966 17185 net.cpp:408] loss6-score -> loss6-score
I1125 10:17:14.368187 17185 net.cpp:150] Setting up loss6-score
I1125 10:17:14.368197 17185 net.cpp:157] Top shape: (1)
I1125 10:17:14.368199 17185 net.cpp:160]     with loss weight 1
I1125 10:17:14.368211 17185 net.cpp:165] Memory required for data: 914186384
I1125 10:17:14.368212 17185 layer_factory.hpp:77] Creating layer upsample2_dsn5
I1125 10:17:14.368221 17185 net.cpp:100] Creating Layer upsample2_dsn5
I1125 10:17:14.368223 17185 net.cpp:434] upsample2_dsn5 <- conv5-dsn6_conv5-dsn6_0_split_1
I1125 10:17:14.368228 17185 net.cpp:408] upsample2_dsn5 -> conv5-dsn6-5
I1125 10:17:14.368436 17185 net.cpp:150] Setting up upsample2_dsn5
I1125 10:17:14.368443 17185 net.cpp:157] Top shape: 1 1 36 36 (1296)
I1125 10:17:14.368445 17185 net.cpp:165] Memory required for data: 914191568
I1125 10:17:14.368450 17185 layer_factory.hpp:77] Creating layer crop1-dsn5
I1125 10:17:14.368458 17185 net.cpp:100] Creating Layer crop1-dsn5
I1125 10:17:14.368461 17185 net.cpp:434] crop1-dsn5 <- conv5-dsn6-5
I1125 10:17:14.368464 17185 net.cpp:434] crop1-dsn5 <- conv5_3_relu5_3_0_split_1
I1125 10:17:14.368468 17185 net.cpp:408] crop1-dsn5 -> weight-dsn6-5
I1125 10:17:14.368489 17185 net.cpp:150] Setting up crop1-dsn5
I1125 10:17:14.368492 17185 net.cpp:157] Top shape: 1 1 32 32 (1024)
I1125 10:17:14.368494 17185 net.cpp:165] Memory required for data: 914195664
I1125 10:17:14.368496 17185 layer_factory.hpp:77] Creating layer weight-dsn6-5_crop1-dsn5_0_split
I1125 10:17:14.368500 17185 net.cpp:100] Creating Layer weight-dsn6-5_crop1-dsn5_0_split
I1125 10:17:14.368502 17185 net.cpp:434] weight-dsn6-5_crop1-dsn5_0_split <- weight-dsn6-5
I1125 10:17:14.368510 17185 net.cpp:408] weight-dsn6-5_crop1-dsn5_0_split -> weight-dsn6-5_crop1-dsn5_0_split_0
I1125 10:17:14.368513 17185 net.cpp:408] weight-dsn6-5_crop1-dsn5_0_split -> weight-dsn6-5_crop1-dsn5_0_split_1
I1125 10:17:14.368542 17185 net.cpp:150] Setting up weight-dsn6-5_crop1-dsn5_0_split
I1125 10:17:14.368547 17185 net.cpp:157] Top shape: 1 1 32 32 (1024)
I1125 10:17:14.368551 17185 net.cpp:157] Top shape: 1 1 32 32 (1024)
I1125 10:17:14.368552 17185 net.cpp:165] Memory required for data: 914203856
I1125 10:17:14.368553 17185 layer_factory.hpp:77] Creating layer sigmoid-dsn5
I1125 10:17:14.368558 17185 net.cpp:100] Creating Layer sigmoid-dsn5
I1125 10:17:14.368561 17185 net.cpp:434] sigmoid-dsn5 <- weight-dsn6-5_crop1-dsn5_0_split_0
I1125 10:17:14.368566 17185 net.cpp:408] sigmoid-dsn5 -> sigmoid-dsn5
I1125 10:17:14.368729 17185 net.cpp:150] Setting up sigmoid-dsn5
I1125 10:17:14.368738 17185 net.cpp:157] Top shape: 1 1 32 32 (1024)
I1125 10:17:14.368741 17185 net.cpp:165] Memory required for data: 914207952
I1125 10:17:14.368743 17185 layer_factory.hpp:77] Creating layer rev-dsn5
I1125 10:17:14.368749 17185 net.cpp:100] Creating Layer rev-dsn5
I1125 10:17:14.368752 17185 net.cpp:434] rev-dsn5 <- sigmoid-dsn5
I1125 10:17:14.368757 17185 net.cpp:408] rev-dsn5 -> rev-dsn5
I1125 10:17:14.368793 17185 net.cpp:150] Setting up rev-dsn5
I1125 10:17:14.368798 17185 net.cpp:157] Top shape: 1 1 32 32 (1024)
I1125 10:17:14.368800 17185 net.cpp:165] Memory required for data: 914212048
I1125 10:17:14.368803 17185 layer_factory.hpp:77] Creating layer tile-dsn5
I1125 10:17:14.368809 17185 net.cpp:100] Creating Layer tile-dsn5
I1125 10:17:14.368811 17185 net.cpp:434] tile-dsn5 <- rev-dsn5
I1125 10:17:14.368815 17185 net.cpp:408] tile-dsn5 -> weight-dsn5
I1125 10:17:14.368835 17185 net.cpp:150] Setting up tile-dsn5
I1125 10:17:14.368839 17185 net.cpp:157] Top shape: 1 512 32 32 (524288)
I1125 10:17:14.368841 17185 net.cpp:165] Memory required for data: 916309200
I1125 10:17:14.368844 17185 layer_factory.hpp:77] Creating layer prod1-dsn5
I1125 10:17:14.368849 17185 net.cpp:100] Creating Layer prod1-dsn5
I1125 10:17:14.368851 17185 net.cpp:434] prod1-dsn5 <- conv5_3_relu5_3_0_split_2
I1125 10:17:14.368854 17185 net.cpp:434] prod1-dsn5 <- weight-dsn5
I1125 10:17:14.368860 17185 net.cpp:408] prod1-dsn5 -> prod1-dsn5
I1125 10:17:14.368878 17185 net.cpp:150] Setting up prod1-dsn5
I1125 10:17:14.368883 17185 net.cpp:157] Top shape: 1 512 32 32 (524288)
I1125 10:17:14.368885 17185 net.cpp:165] Memory required for data: 918406352
I1125 10:17:14.368887 17185 layer_factory.hpp:77] Creating layer conv1-dsn5
I1125 10:17:14.368894 17185 net.cpp:100] Creating Layer conv1-dsn5
I1125 10:17:14.368896 17185 net.cpp:434] conv1-dsn5 <- prod1-dsn5
I1125 10:17:14.368901 17185 net.cpp:408] conv1-dsn5 -> conv1-dsn5
I1125 10:17:14.370144 17185 net.cpp:150] Setting up conv1-dsn5
I1125 10:17:14.370170 17185 net.cpp:157] Top shape: 1 64 32 32 (65536)
I1125 10:17:14.370173 17185 net.cpp:165] Memory required for data: 918668496
I1125 10:17:14.370179 17185 layer_factory.hpp:77] Creating layer conv2-dsn5
I1125 10:17:14.370189 17185 net.cpp:100] Creating Layer conv2-dsn5
I1125 10:17:14.370193 17185 net.cpp:434] conv2-dsn5 <- conv1-dsn5
I1125 10:17:14.370198 17185 net.cpp:408] conv2-dsn5 -> conv2-dsn5
I1125 10:17:14.371462 17185 net.cpp:150] Setting up conv2-dsn5
I1125 10:17:14.371474 17185 net.cpp:157] Top shape: 1 64 32 32 (65536)
I1125 10:17:14.371476 17185 net.cpp:165] Memory required for data: 918930640
I1125 10:17:14.371481 17185 layer_factory.hpp:77] Creating layer relu1-dsn5
I1125 10:17:14.371485 17185 net.cpp:100] Creating Layer relu1-dsn5
I1125 10:17:14.371488 17185 net.cpp:434] relu1-dsn5 <- conv2-dsn5
I1125 10:17:14.371492 17185 net.cpp:395] relu1-dsn5 -> conv2-dsn5 (in-place)
I1125 10:17:14.371901 17185 net.cpp:150] Setting up relu1-dsn5
I1125 10:17:14.371912 17185 net.cpp:157] Top shape: 1 64 32 32 (65536)
I1125 10:17:14.371914 17185 net.cpp:165] Memory required for data: 919192784
I1125 10:17:14.371917 17185 layer_factory.hpp:77] Creating layer conv3-dsn5
I1125 10:17:14.371925 17185 net.cpp:100] Creating Layer conv3-dsn5
I1125 10:17:14.371927 17185 net.cpp:434] conv3-dsn5 <- conv2-dsn5
I1125 10:17:14.371932 17185 net.cpp:408] conv3-dsn5 -> conv3-dsn5
I1125 10:17:14.372901 17185 net.cpp:150] Setting up conv3-dsn5
I1125 10:17:14.372910 17185 net.cpp:157] Top shape: 1 64 32 32 (65536)
I1125 10:17:14.372911 17185 net.cpp:165] Memory required for data: 919454928
I1125 10:17:14.372915 17185 layer_factory.hpp:77] Creating layer relu2-dsn5
I1125 10:17:14.372920 17185 net.cpp:100] Creating Layer relu2-dsn5
I1125 10:17:14.372922 17185 net.cpp:434] relu2-dsn5 <- conv3-dsn5
I1125 10:17:14.372927 17185 net.cpp:395] relu2-dsn5 -> conv3-dsn5 (in-place)
I1125 10:17:14.373342 17185 net.cpp:150] Setting up relu2-dsn5
I1125 10:17:14.373353 17185 net.cpp:157] Top shape: 1 64 32 32 (65536)
I1125 10:17:14.373353 17185 net.cpp:165] Memory required for data: 919717072
I1125 10:17:14.373358 17185 layer_factory.hpp:77] Creating layer conv4-dsn5
I1125 10:17:14.373378 17185 net.cpp:100] Creating Layer conv4-dsn5
I1125 10:17:14.373381 17185 net.cpp:434] conv4-dsn5 <- conv3-dsn5
I1125 10:17:14.373386 17185 net.cpp:408] conv4-dsn5 -> conv4-dsn5
I1125 10:17:14.374330 17185 net.cpp:150] Setting up conv4-dsn5
I1125 10:17:14.374339 17185 net.cpp:157] Top shape: 1 1 32 32 (1024)
I1125 10:17:14.374357 17185 net.cpp:165] Memory required for data: 919721168
I1125 10:17:14.374362 17185 layer_factory.hpp:77] Creating layer sum-dsn5
I1125 10:17:14.374369 17185 net.cpp:100] Creating Layer sum-dsn5
I1125 10:17:14.374372 17185 net.cpp:434] sum-dsn5 <- conv4-dsn5
I1125 10:17:14.374377 17185 net.cpp:434] sum-dsn5 <- weight-dsn6-5_crop1-dsn5_0_split_1
I1125 10:17:14.374380 17185 net.cpp:408] sum-dsn5 -> sum-dsn5
I1125 10:17:14.374406 17185 net.cpp:150] Setting up sum-dsn5
I1125 10:17:14.374410 17185 net.cpp:157] Top shape: 1 1 32 32 (1024)
I1125 10:17:14.374413 17185 net.cpp:165] Memory required for data: 919725264
I1125 10:17:14.374415 17185 layer_factory.hpp:77] Creating layer sum-dsn5_sum-dsn5_0_split
I1125 10:17:14.374420 17185 net.cpp:100] Creating Layer sum-dsn5_sum-dsn5_0_split
I1125 10:17:14.374423 17185 net.cpp:434] sum-dsn5_sum-dsn5_0_split <- sum-dsn5
I1125 10:17:14.374426 17185 net.cpp:408] sum-dsn5_sum-dsn5_0_split -> sum-dsn5_sum-dsn5_0_split_0
I1125 10:17:14.374431 17185 net.cpp:408] sum-dsn5_sum-dsn5_0_split -> sum-dsn5_sum-dsn5_0_split_1
I1125 10:17:14.374477 17185 net.cpp:150] Setting up sum-dsn5_sum-dsn5_0_split
I1125 10:17:14.374482 17185 net.cpp:157] Top shape: 1 1 32 32 (1024)
I1125 10:17:14.374485 17185 net.cpp:157] Top shape: 1 1 32 32 (1024)
I1125 10:17:14.374487 17185 net.cpp:165] Memory required for data: 919733456
I1125 10:17:14.374490 17185 layer_factory.hpp:77] Creating layer upsample16_dsn5
I1125 10:17:14.374496 17185 net.cpp:100] Creating Layer upsample16_dsn5
I1125 10:17:14.374500 17185 net.cpp:434] upsample16_dsn5 <- sum-dsn5_sum-dsn5_0_split_0
I1125 10:17:14.374505 17185 net.cpp:408] upsample16_dsn5 -> sum-dsn5-up
I1125 10:17:14.375921 17185 net.cpp:150] Setting up upsample16_dsn5
I1125 10:17:14.375931 17185 net.cpp:157] Top shape: 1 1 528 528 (278784)
I1125 10:17:14.375932 17185 net.cpp:165] Memory required for data: 920848592
I1125 10:17:14.375937 17185 layer_factory.hpp:77] Creating layer crop2-dsn5
I1125 10:17:14.375941 17185 net.cpp:100] Creating Layer crop2-dsn5
I1125 10:17:14.375944 17185 net.cpp:434] crop2-dsn5 <- sum-dsn5-up
I1125 10:17:14.375948 17185 net.cpp:434] crop2-dsn5 <- data_augmentation_0_split_2
I1125 10:17:14.375953 17185 net.cpp:408] crop2-dsn5 -> upscore-dsn5
I1125 10:17:14.375980 17185 net.cpp:150] Setting up crop2-dsn5
I1125 10:17:14.375986 17185 net.cpp:157] Top shape: 1 1 500 500 (250000)
I1125 10:17:14.375988 17185 net.cpp:165] Memory required for data: 921848592
I1125 10:17:14.375990 17185 layer_factory.hpp:77] Creating layer loss5-score
I1125 10:17:14.375994 17185 net.cpp:100] Creating Layer loss5-score
I1125 10:17:14.375998 17185 net.cpp:434] loss5-score <- upscore-dsn5
I1125 10:17:14.376001 17185 net.cpp:434] loss5-score <- label_augmentation_1_split_1
I1125 10:17:14.376004 17185 net.cpp:408] loss5-score -> loss5-score
I1125 10:17:14.376183 17185 net.cpp:150] Setting up loss5-score
I1125 10:17:14.376191 17185 net.cpp:157] Top shape: (1)
I1125 10:17:14.376193 17185 net.cpp:160]     with loss weight 1
I1125 10:17:14.376199 17185 net.cpp:165] Memory required for data: 921848596
I1125 10:17:14.376200 17185 layer_factory.hpp:77] Creating layer upsample2_dsn4
I1125 10:17:14.376205 17185 net.cpp:100] Creating Layer upsample2_dsn4
I1125 10:17:14.376209 17185 net.cpp:434] upsample2_dsn4 <- sum-dsn5_sum-dsn5_0_split_1
I1125 10:17:14.376214 17185 net.cpp:408] upsample2_dsn4 -> sum-dsn5-4
I1125 10:17:14.376425 17185 net.cpp:150] Setting up upsample2_dsn4
I1125 10:17:14.376431 17185 net.cpp:157] Top shape: 1 1 66 66 (4356)
I1125 10:17:14.376433 17185 net.cpp:165] Memory required for data: 921866020
I1125 10:17:14.376438 17185 layer_factory.hpp:77] Creating layer crop1-dsn4
I1125 10:17:14.376442 17185 net.cpp:100] Creating Layer crop1-dsn4
I1125 10:17:14.376444 17185 net.cpp:434] crop1-dsn4 <- sum-dsn5-4
I1125 10:17:14.376447 17185 net.cpp:434] crop1-dsn4 <- conv4_3_relu4_3_0_split_1
I1125 10:17:14.376456 17185 net.cpp:408] crop1-dsn4 -> weight-dsn5-4
I1125 10:17:14.376475 17185 net.cpp:150] Setting up crop1-dsn4
I1125 10:17:14.376479 17185 net.cpp:157] Top shape: 1 1 63 63 (3969)
I1125 10:17:14.376482 17185 net.cpp:165] Memory required for data: 921881896
I1125 10:17:14.376483 17185 layer_factory.hpp:77] Creating layer weight-dsn5-4_crop1-dsn4_0_split
I1125 10:17:14.376488 17185 net.cpp:100] Creating Layer weight-dsn5-4_crop1-dsn4_0_split
I1125 10:17:14.376492 17185 net.cpp:434] weight-dsn5-4_crop1-dsn4_0_split <- weight-dsn5-4
I1125 10:17:14.376494 17185 net.cpp:408] weight-dsn5-4_crop1-dsn4_0_split -> weight-dsn5-4_crop1-dsn4_0_split_0
I1125 10:17:14.376500 17185 net.cpp:408] weight-dsn5-4_crop1-dsn4_0_split -> weight-dsn5-4_crop1-dsn4_0_split_1
I1125 10:17:14.376528 17185 net.cpp:150] Setting up weight-dsn5-4_crop1-dsn4_0_split
I1125 10:17:14.376533 17185 net.cpp:157] Top shape: 1 1 63 63 (3969)
I1125 10:17:14.376536 17185 net.cpp:157] Top shape: 1 1 63 63 (3969)
I1125 10:17:14.376538 17185 net.cpp:165] Memory required for data: 921913648
I1125 10:17:14.376539 17185 layer_factory.hpp:77] Creating layer sigmoid-dsn4
I1125 10:17:14.376545 17185 net.cpp:100] Creating Layer sigmoid-dsn4
I1125 10:17:14.376547 17185 net.cpp:434] sigmoid-dsn4 <- weight-dsn5-4_crop1-dsn4_0_split_0
I1125 10:17:14.376550 17185 net.cpp:408] sigmoid-dsn4 -> sigmoid-dsn4
I1125 10:17:14.376715 17185 net.cpp:150] Setting up sigmoid-dsn4
I1125 10:17:14.376722 17185 net.cpp:157] Top shape: 1 1 63 63 (3969)
I1125 10:17:14.376724 17185 net.cpp:165] Memory required for data: 921929524
I1125 10:17:14.376729 17185 layer_factory.hpp:77] Creating layer rev-dsn4
I1125 10:17:14.376734 17185 net.cpp:100] Creating Layer rev-dsn4
I1125 10:17:14.376736 17185 net.cpp:434] rev-dsn4 <- sigmoid-dsn4
I1125 10:17:14.376740 17185 net.cpp:408] rev-dsn4 -> rev-dsn4
I1125 10:17:14.376761 17185 net.cpp:150] Setting up rev-dsn4
I1125 10:17:14.376765 17185 net.cpp:157] Top shape: 1 1 63 63 (3969)
I1125 10:17:14.376766 17185 net.cpp:165] Memory required for data: 921945400
I1125 10:17:14.376768 17185 layer_factory.hpp:77] Creating layer tile-dsn4
I1125 10:17:14.376772 17185 net.cpp:100] Creating Layer tile-dsn4
I1125 10:17:14.376775 17185 net.cpp:434] tile-dsn4 <- rev-dsn4
I1125 10:17:14.376780 17185 net.cpp:408] tile-dsn4 -> weight-dsn4
I1125 10:17:14.376796 17185 net.cpp:150] Setting up tile-dsn4
I1125 10:17:14.376801 17185 net.cpp:157] Top shape: 1 512 63 63 (2032128)
I1125 10:17:14.376803 17185 net.cpp:165] Memory required for data: 930073912
I1125 10:17:14.376806 17185 layer_factory.hpp:77] Creating layer prod1-dsn4
I1125 10:17:14.376811 17185 net.cpp:100] Creating Layer prod1-dsn4
I1125 10:17:14.376813 17185 net.cpp:434] prod1-dsn4 <- conv4_3_relu4_3_0_split_2
I1125 10:17:14.376816 17185 net.cpp:434] prod1-dsn4 <- weight-dsn4
I1125 10:17:14.376822 17185 net.cpp:408] prod1-dsn4 -> prod1-dsn4
I1125 10:17:14.376839 17185 net.cpp:150] Setting up prod1-dsn4
I1125 10:17:14.376843 17185 net.cpp:157] Top shape: 1 512 63 63 (2032128)
I1125 10:17:14.376844 17185 net.cpp:165] Memory required for data: 938202424
I1125 10:17:14.376847 17185 layer_factory.hpp:77] Creating layer conv1-dsn4
I1125 10:17:14.376855 17185 net.cpp:100] Creating Layer conv1-dsn4
I1125 10:17:14.376858 17185 net.cpp:434] conv1-dsn4 <- prod1-dsn4
I1125 10:17:14.376861 17185 net.cpp:408] conv1-dsn4 -> conv1-dsn4
I1125 10:17:14.378099 17185 net.cpp:150] Setting up conv1-dsn4
I1125 10:17:14.378110 17185 net.cpp:157] Top shape: 1 64 63 63 (254016)
I1125 10:17:14.378113 17185 net.cpp:165] Memory required for data: 939218488
I1125 10:17:14.378119 17185 layer_factory.hpp:77] Creating layer conv2-dsn4
I1125 10:17:14.378132 17185 net.cpp:100] Creating Layer conv2-dsn4
I1125 10:17:14.378136 17185 net.cpp:434] conv2-dsn4 <- conv1-dsn4
I1125 10:17:14.378141 17185 net.cpp:408] conv2-dsn4 -> conv2-dsn4
I1125 10:17:14.379650 17185 net.cpp:150] Setting up conv2-dsn4
I1125 10:17:14.379662 17185 net.cpp:157] Top shape: 1 64 63 63 (254016)
I1125 10:17:14.379665 17185 net.cpp:165] Memory required for data: 940234552
I1125 10:17:14.379670 17185 layer_factory.hpp:77] Creating layer relu1-dsn4
I1125 10:17:14.379674 17185 net.cpp:100] Creating Layer relu1-dsn4
I1125 10:17:14.379678 17185 net.cpp:434] relu1-dsn4 <- conv2-dsn4
I1125 10:17:14.379681 17185 net.cpp:395] relu1-dsn4 -> conv2-dsn4 (in-place)
I1125 10:17:14.379842 17185 net.cpp:150] Setting up relu1-dsn4
I1125 10:17:14.379848 17185 net.cpp:157] Top shape: 1 64 63 63 (254016)
I1125 10:17:14.379850 17185 net.cpp:165] Memory required for data: 941250616
I1125 10:17:14.379853 17185 layer_factory.hpp:77] Creating layer conv3-dsn4
I1125 10:17:14.379863 17185 net.cpp:100] Creating Layer conv3-dsn4
I1125 10:17:14.379864 17185 net.cpp:434] conv3-dsn4 <- conv2-dsn4
I1125 10:17:14.379869 17185 net.cpp:408] conv3-dsn4 -> conv3-dsn4
I1125 10:17:14.381186 17185 net.cpp:150] Setting up conv3-dsn4
I1125 10:17:14.381198 17185 net.cpp:157] Top shape: 1 64 63 63 (254016)
I1125 10:17:14.381201 17185 net.cpp:165] Memory required for data: 942266680
I1125 10:17:14.381206 17185 layer_factory.hpp:77] Creating layer relu2-dsn4
I1125 10:17:14.381209 17185 net.cpp:100] Creating Layer relu2-dsn4
I1125 10:17:14.381212 17185 net.cpp:434] relu2-dsn4 <- conv3-dsn4
I1125 10:17:14.381215 17185 net.cpp:395] relu2-dsn4 -> conv3-dsn4 (in-place)
I1125 10:17:14.381366 17185 net.cpp:150] Setting up relu2-dsn4
I1125 10:17:14.381373 17185 net.cpp:157] Top shape: 1 64 63 63 (254016)
I1125 10:17:14.381376 17185 net.cpp:165] Memory required for data: 943282744
I1125 10:17:14.381379 17185 layer_factory.hpp:77] Creating layer conv4-dsn4
I1125 10:17:14.381389 17185 net.cpp:100] Creating Layer conv4-dsn4
I1125 10:17:14.381392 17185 net.cpp:434] conv4-dsn4 <- conv3-dsn4
I1125 10:17:14.381397 17185 net.cpp:408] conv4-dsn4 -> conv4-dsn4
I1125 10:17:14.382351 17185 net.cpp:150] Setting up conv4-dsn4
I1125 10:17:14.382361 17185 net.cpp:157] Top shape: 1 1 63 63 (3969)
I1125 10:17:14.382364 17185 net.cpp:165] Memory required for data: 943298620
I1125 10:17:14.382369 17185 layer_factory.hpp:77] Creating layer sum-dsn4
I1125 10:17:14.382375 17185 net.cpp:100] Creating Layer sum-dsn4
I1125 10:17:14.382377 17185 net.cpp:434] sum-dsn4 <- conv4-dsn4
I1125 10:17:14.382381 17185 net.cpp:434] sum-dsn4 <- weight-dsn5-4_crop1-dsn4_0_split_1
I1125 10:17:14.382385 17185 net.cpp:408] sum-dsn4 -> sum-dsn4
I1125 10:17:14.382411 17185 net.cpp:150] Setting up sum-dsn4
I1125 10:17:14.382414 17185 net.cpp:157] Top shape: 1 1 63 63 (3969)
I1125 10:17:14.382416 17185 net.cpp:165] Memory required for data: 943314496
I1125 10:17:14.382418 17185 layer_factory.hpp:77] Creating layer sum-dsn4_sum-dsn4_0_split
I1125 10:17:14.382422 17185 net.cpp:100] Creating Layer sum-dsn4_sum-dsn4_0_split
I1125 10:17:14.382424 17185 net.cpp:434] sum-dsn4_sum-dsn4_0_split <- sum-dsn4
I1125 10:17:14.382429 17185 net.cpp:408] sum-dsn4_sum-dsn4_0_split -> sum-dsn4_sum-dsn4_0_split_0
I1125 10:17:14.382434 17185 net.cpp:408] sum-dsn4_sum-dsn4_0_split -> sum-dsn4_sum-dsn4_0_split_1
I1125 10:17:14.382465 17185 net.cpp:150] Setting up sum-dsn4_sum-dsn4_0_split
I1125 10:17:14.382470 17185 net.cpp:157] Top shape: 1 1 63 63 (3969)
I1125 10:17:14.382473 17185 net.cpp:157] Top shape: 1 1 63 63 (3969)
I1125 10:17:14.382475 17185 net.cpp:165] Memory required for data: 943346248
I1125 10:17:14.382479 17185 layer_factory.hpp:77] Creating layer upsample8_dsn4
I1125 10:17:14.382485 17185 net.cpp:100] Creating Layer upsample8_dsn4
I1125 10:17:14.382488 17185 net.cpp:434] upsample8_dsn4 <- sum-dsn4_sum-dsn4_0_split_0
I1125 10:17:14.382493 17185 net.cpp:408] upsample8_dsn4 -> sum-dsn4-up
I1125 10:17:14.383812 17185 net.cpp:150] Setting up upsample8_dsn4
I1125 10:17:14.383823 17185 net.cpp:157] Top shape: 1 1 512 512 (262144)
I1125 10:17:14.383826 17185 net.cpp:165] Memory required for data: 944394824
I1125 10:17:14.383831 17185 layer_factory.hpp:77] Creating layer crop2-dsn4
I1125 10:17:14.383834 17185 net.cpp:100] Creating Layer crop2-dsn4
I1125 10:17:14.383837 17185 net.cpp:434] crop2-dsn4 <- sum-dsn4-up
I1125 10:17:14.383841 17185 net.cpp:434] crop2-dsn4 <- data_augmentation_0_split_3
I1125 10:17:14.383846 17185 net.cpp:408] crop2-dsn4 -> upscore-dsn4
I1125 10:17:14.383874 17185 net.cpp:150] Setting up crop2-dsn4
I1125 10:17:14.383882 17185 net.cpp:157] Top shape: 1 1 500 500 (250000)
I1125 10:17:14.383884 17185 net.cpp:165] Memory required for data: 945394824
I1125 10:17:14.383886 17185 layer_factory.hpp:77] Creating layer loss4-score
I1125 10:17:14.383890 17185 net.cpp:100] Creating Layer loss4-score
I1125 10:17:14.383893 17185 net.cpp:434] loss4-score <- upscore-dsn4
I1125 10:17:14.383896 17185 net.cpp:434] loss4-score <- label_augmentation_1_split_2
I1125 10:17:14.383901 17185 net.cpp:408] loss4-score -> loss4-score
I1125 10:17:14.384070 17185 net.cpp:150] Setting up loss4-score
I1125 10:17:14.384076 17185 net.cpp:157] Top shape: (1)
I1125 10:17:14.384078 17185 net.cpp:160]     with loss weight 1
I1125 10:17:14.384083 17185 net.cpp:165] Memory required for data: 945394828
I1125 10:17:14.384088 17185 layer_factory.hpp:77] Creating layer upsample2_dsn3
I1125 10:17:14.384093 17185 net.cpp:100] Creating Layer upsample2_dsn3
I1125 10:17:14.384096 17185 net.cpp:434] upsample2_dsn3 <- sum-dsn4_sum-dsn4_0_split_1
I1125 10:17:14.384101 17185 net.cpp:408] upsample2_dsn3 -> sum-dsn4-3
I1125 10:17:14.384356 17185 net.cpp:150] Setting up upsample2_dsn3
I1125 10:17:14.384362 17185 net.cpp:157] Top shape: 1 1 128 128 (16384)
I1125 10:17:14.384364 17185 net.cpp:165] Memory required for data: 945460364
I1125 10:17:14.384368 17185 layer_factory.hpp:77] Creating layer crop1-dsn3
I1125 10:17:14.384374 17185 net.cpp:100] Creating Layer crop1-dsn3
I1125 10:17:14.384377 17185 net.cpp:434] crop1-dsn3 <- sum-dsn4-3
I1125 10:17:14.384380 17185 net.cpp:434] crop1-dsn3 <- conv3_3_relu3_3_0_split_1
I1125 10:17:14.384384 17185 net.cpp:408] crop1-dsn3 -> weight-dsn4-3
I1125 10:17:14.384408 17185 net.cpp:150] Setting up crop1-dsn3
I1125 10:17:14.384413 17185 net.cpp:157] Top shape: 1 1 125 125 (15625)
I1125 10:17:14.384414 17185 net.cpp:165] Memory required for data: 945522864
I1125 10:17:14.384416 17185 layer_factory.hpp:77] Creating layer weight-dsn4-3_crop1-dsn3_0_split
I1125 10:17:14.384420 17185 net.cpp:100] Creating Layer weight-dsn4-3_crop1-dsn3_0_split
I1125 10:17:14.384423 17185 net.cpp:434] weight-dsn4-3_crop1-dsn3_0_split <- weight-dsn4-3
I1125 10:17:14.384428 17185 net.cpp:408] weight-dsn4-3_crop1-dsn3_0_split -> weight-dsn4-3_crop1-dsn3_0_split_0
I1125 10:17:14.384433 17185 net.cpp:408] weight-dsn4-3_crop1-dsn3_0_split -> weight-dsn4-3_crop1-dsn3_0_split_1
I1125 10:17:14.384479 17185 net.cpp:150] Setting up weight-dsn4-3_crop1-dsn3_0_split
I1125 10:17:14.384483 17185 net.cpp:157] Top shape: 1 1 125 125 (15625)
I1125 10:17:14.384486 17185 net.cpp:157] Top shape: 1 1 125 125 (15625)
I1125 10:17:14.384488 17185 net.cpp:165] Memory required for data: 945647864
I1125 10:17:14.384490 17185 layer_factory.hpp:77] Creating layer sigmoid-dsn3
I1125 10:17:14.384495 17185 net.cpp:100] Creating Layer sigmoid-dsn3
I1125 10:17:14.384497 17185 net.cpp:434] sigmoid-dsn3 <- weight-dsn4-3_crop1-dsn3_0_split_0
I1125 10:17:14.384502 17185 net.cpp:408] sigmoid-dsn3 -> sigmoid-dsn3
I1125 10:17:14.384676 17185 net.cpp:150] Setting up sigmoid-dsn3
I1125 10:17:14.384685 17185 net.cpp:157] Top shape: 1 1 125 125 (15625)
I1125 10:17:14.384686 17185 net.cpp:165] Memory required for data: 945710364
I1125 10:17:14.384690 17185 layer_factory.hpp:77] Creating layer rev-dsn3
I1125 10:17:14.384692 17185 net.cpp:100] Creating Layer rev-dsn3
I1125 10:17:14.384696 17185 net.cpp:434] rev-dsn3 <- sigmoid-dsn3
I1125 10:17:14.384701 17185 net.cpp:408] rev-dsn3 -> rev-dsn3
I1125 10:17:14.384721 17185 net.cpp:150] Setting up rev-dsn3
I1125 10:17:14.384723 17185 net.cpp:157] Top shape: 1 1 125 125 (15625)
I1125 10:17:14.384727 17185 net.cpp:165] Memory required for data: 945772864
I1125 10:17:14.384728 17185 layer_factory.hpp:77] Creating layer tile-dsn3
I1125 10:17:14.384733 17185 net.cpp:100] Creating Layer tile-dsn3
I1125 10:17:14.384735 17185 net.cpp:434] tile-dsn3 <- rev-dsn3
I1125 10:17:14.384738 17185 net.cpp:408] tile-dsn3 -> weight-dsn3
I1125 10:17:14.384757 17185 net.cpp:150] Setting up tile-dsn3
I1125 10:17:14.384763 17185 net.cpp:157] Top shape: 1 256 125 125 (4000000)
I1125 10:17:14.384764 17185 net.cpp:165] Memory required for data: 961772864
I1125 10:17:14.384768 17185 layer_factory.hpp:77] Creating layer prod1-dsn3
I1125 10:17:14.384773 17185 net.cpp:100] Creating Layer prod1-dsn3
I1125 10:17:14.384775 17185 net.cpp:434] prod1-dsn3 <- conv3_3_relu3_3_0_split_2
I1125 10:17:14.384778 17185 net.cpp:434] prod1-dsn3 <- weight-dsn3
I1125 10:17:14.384781 17185 net.cpp:408] prod1-dsn3 -> prod1-dsn3
I1125 10:17:14.384801 17185 net.cpp:150] Setting up prod1-dsn3
I1125 10:17:14.384805 17185 net.cpp:157] Top shape: 1 256 125 125 (4000000)
I1125 10:17:14.384806 17185 net.cpp:165] Memory required for data: 977772864
I1125 10:17:14.384809 17185 layer_factory.hpp:77] Creating layer conv1-dsn3
I1125 10:17:14.384817 17185 net.cpp:100] Creating Layer conv1-dsn3
I1125 10:17:14.384819 17185 net.cpp:434] conv1-dsn3 <- prod1-dsn3
I1125 10:17:14.384825 17185 net.cpp:408] conv1-dsn3 -> conv1-dsn3
I1125 10:17:14.386195 17185 net.cpp:150] Setting up conv1-dsn3
I1125 10:17:14.386205 17185 net.cpp:157] Top shape: 1 64 125 125 (1000000)
I1125 10:17:14.386207 17185 net.cpp:165] Memory required for data: 981772864
I1125 10:17:14.386221 17185 layer_factory.hpp:77] Creating layer conv2-dsn3
I1125 10:17:14.386231 17185 net.cpp:100] Creating Layer conv2-dsn3
I1125 10:17:14.386234 17185 net.cpp:434] conv2-dsn3 <- conv1-dsn3
I1125 10:17:14.386238 17185 net.cpp:408] conv2-dsn3 -> conv2-dsn3
I1125 10:17:14.387537 17185 net.cpp:150] Setting up conv2-dsn3
I1125 10:17:14.387548 17185 net.cpp:157] Top shape: 1 64 125 125 (1000000)
I1125 10:17:14.387550 17185 net.cpp:165] Memory required for data: 985772864
I1125 10:17:14.387555 17185 layer_factory.hpp:77] Creating layer relu1-dsn3
I1125 10:17:14.387559 17185 net.cpp:100] Creating Layer relu1-dsn3
I1125 10:17:14.387562 17185 net.cpp:434] relu1-dsn3 <- conv2-dsn3
I1125 10:17:14.387567 17185 net.cpp:395] relu1-dsn3 -> conv2-dsn3 (in-place)
I1125 10:17:14.387713 17185 net.cpp:150] Setting up relu1-dsn3
I1125 10:17:14.387720 17185 net.cpp:157] Top shape: 1 64 125 125 (1000000)
I1125 10:17:14.387722 17185 net.cpp:165] Memory required for data: 989772864
I1125 10:17:14.387725 17185 layer_factory.hpp:77] Creating layer conv3-dsn3
I1125 10:17:14.387735 17185 net.cpp:100] Creating Layer conv3-dsn3
I1125 10:17:14.387737 17185 net.cpp:434] conv3-dsn3 <- conv2-dsn3
I1125 10:17:14.387742 17185 net.cpp:408] conv3-dsn3 -> conv3-dsn3
I1125 10:17:14.389024 17185 net.cpp:150] Setting up conv3-dsn3
I1125 10:17:14.389034 17185 net.cpp:157] Top shape: 1 64 125 125 (1000000)
I1125 10:17:14.389035 17185 net.cpp:165] Memory required for data: 993772864
I1125 10:17:14.389042 17185 layer_factory.hpp:77] Creating layer relu2-dsn3
I1125 10:17:14.389048 17185 net.cpp:100] Creating Layer relu2-dsn3
I1125 10:17:14.389051 17185 net.cpp:434] relu2-dsn3 <- conv3-dsn3
I1125 10:17:14.389055 17185 net.cpp:395] relu2-dsn3 -> conv3-dsn3 (in-place)
I1125 10:17:14.389516 17185 net.cpp:150] Setting up relu2-dsn3
I1125 10:17:14.389526 17185 net.cpp:157] Top shape: 1 64 125 125 (1000000)
I1125 10:17:14.389528 17185 net.cpp:165] Memory required for data: 997772864
I1125 10:17:14.389530 17185 layer_factory.hpp:77] Creating layer conv4-dsn3
I1125 10:17:14.389539 17185 net.cpp:100] Creating Layer conv4-dsn3
I1125 10:17:14.389542 17185 net.cpp:434] conv4-dsn3 <- conv3-dsn3
I1125 10:17:14.389549 17185 net.cpp:408] conv4-dsn3 -> conv4-dsn3
I1125 10:17:14.390518 17185 net.cpp:150] Setting up conv4-dsn3
I1125 10:17:14.390528 17185 net.cpp:157] Top shape: 1 1 125 125 (15625)
I1125 10:17:14.390532 17185 net.cpp:165] Memory required for data: 997835364
I1125 10:17:14.390535 17185 layer_factory.hpp:77] Creating layer sum-dsn3
I1125 10:17:14.390542 17185 net.cpp:100] Creating Layer sum-dsn3
I1125 10:17:14.390545 17185 net.cpp:434] sum-dsn3 <- conv4-dsn3
I1125 10:17:14.390548 17185 net.cpp:434] sum-dsn3 <- weight-dsn4-3_crop1-dsn3_0_split_1
I1125 10:17:14.390554 17185 net.cpp:408] sum-dsn3 -> sum-dsn3
I1125 10:17:14.390581 17185 net.cpp:150] Setting up sum-dsn3
I1125 10:17:14.390585 17185 net.cpp:157] Top shape: 1 1 125 125 (15625)
I1125 10:17:14.390588 17185 net.cpp:165] Memory required for data: 997897864
I1125 10:17:14.390590 17185 layer_factory.hpp:77] Creating layer sum-dsn3_sum-dsn3_0_split
I1125 10:17:14.390596 17185 net.cpp:100] Creating Layer sum-dsn3_sum-dsn3_0_split
I1125 10:17:14.390599 17185 net.cpp:434] sum-dsn3_sum-dsn3_0_split <- sum-dsn3
I1125 10:17:14.390602 17185 net.cpp:408] sum-dsn3_sum-dsn3_0_split -> sum-dsn3_sum-dsn3_0_split_0
I1125 10:17:14.390609 17185 net.cpp:408] sum-dsn3_sum-dsn3_0_split -> sum-dsn3_sum-dsn3_0_split_1
I1125 10:17:14.390640 17185 net.cpp:150] Setting up sum-dsn3_sum-dsn3_0_split
I1125 10:17:14.390646 17185 net.cpp:157] Top shape: 1 1 125 125 (15625)
I1125 10:17:14.390648 17185 net.cpp:157] Top shape: 1 1 125 125 (15625)
I1125 10:17:14.390650 17185 net.cpp:165] Memory required for data: 998022864
I1125 10:17:14.390652 17185 layer_factory.hpp:77] Creating layer upsample4_dsn3
I1125 10:17:14.390658 17185 net.cpp:100] Creating Layer upsample4_dsn3
I1125 10:17:14.390661 17185 net.cpp:434] upsample4_dsn3 <- sum-dsn3_sum-dsn3_0_split_0
I1125 10:17:14.390666 17185 net.cpp:408] upsample4_dsn3 -> sum-dsn3-up
I1125 10:17:14.391986 17185 net.cpp:150] Setting up upsample4_dsn3
I1125 10:17:14.391996 17185 net.cpp:157] Top shape: 1 1 504 504 (254016)
I1125 10:17:14.391999 17185 net.cpp:165] Memory required for data: 999038928
I1125 10:17:14.392004 17185 layer_factory.hpp:77] Creating layer crop2-dsn3
I1125 10:17:14.392009 17185 net.cpp:100] Creating Layer crop2-dsn3
I1125 10:17:14.392012 17185 net.cpp:434] crop2-dsn3 <- sum-dsn3-up
I1125 10:17:14.392016 17185 net.cpp:434] crop2-dsn3 <- data_augmentation_0_split_4
I1125 10:17:14.392020 17185 net.cpp:408] crop2-dsn3 -> upscore-dsn3
I1125 10:17:14.392050 17185 net.cpp:150] Setting up crop2-dsn3
I1125 10:17:14.392055 17185 net.cpp:157] Top shape: 1 1 500 500 (250000)
I1125 10:17:14.392056 17185 net.cpp:165] Memory required for data: 1000038928
I1125 10:17:14.392058 17185 layer_factory.hpp:77] Creating layer loss3-score
I1125 10:17:14.392066 17185 net.cpp:100] Creating Layer loss3-score
I1125 10:17:14.392068 17185 net.cpp:434] loss3-score <- upscore-dsn3
I1125 10:17:14.392071 17185 net.cpp:434] loss3-score <- label_augmentation_1_split_3
I1125 10:17:14.392076 17185 net.cpp:408] loss3-score -> loss3-score
I1125 10:17:14.392254 17185 net.cpp:150] Setting up loss3-score
I1125 10:17:14.392259 17185 net.cpp:157] Top shape: (1)
I1125 10:17:14.392261 17185 net.cpp:160]     with loss weight 1
I1125 10:17:14.392266 17185 net.cpp:165] Memory required for data: 1000038932
I1125 10:17:14.392268 17185 layer_factory.hpp:77] Creating layer upsample2_1-dsn2
I1125 10:17:14.392275 17185 net.cpp:100] Creating Layer upsample2_1-dsn2
I1125 10:17:14.392277 17185 net.cpp:434] upsample2_1-dsn2 <- sum-dsn3_sum-dsn3_0_split_1
I1125 10:17:14.392283 17185 net.cpp:408] upsample2_1-dsn2 -> sum-dsn3-2
I1125 10:17:14.392554 17185 net.cpp:150] Setting up upsample2_1-dsn2
I1125 10:17:14.392560 17185 net.cpp:157] Top shape: 1 1 252 252 (63504)
I1125 10:17:14.392562 17185 net.cpp:165] Memory required for data: 1000292948
I1125 10:17:14.392566 17185 layer_factory.hpp:77] Creating layer crop1-dsn2
I1125 10:17:14.392570 17185 net.cpp:100] Creating Layer crop1-dsn2
I1125 10:17:14.392572 17185 net.cpp:434] crop1-dsn2 <- sum-dsn3-2
I1125 10:17:14.392575 17185 net.cpp:434] crop1-dsn2 <- conv2_2_relu2_2_0_split_1
I1125 10:17:14.392581 17185 net.cpp:408] crop1-dsn2 -> weight-dsn3-2
I1125 10:17:14.392604 17185 net.cpp:150] Setting up crop1-dsn2
I1125 10:17:14.392608 17185 net.cpp:157] Top shape: 1 1 250 250 (62500)
I1125 10:17:14.392611 17185 net.cpp:165] Memory required for data: 1000542948
I1125 10:17:14.392612 17185 layer_factory.hpp:77] Creating layer weight-dsn3-2_crop1-dsn2_0_split
I1125 10:17:14.392616 17185 net.cpp:100] Creating Layer weight-dsn3-2_crop1-dsn2_0_split
I1125 10:17:14.392618 17185 net.cpp:434] weight-dsn3-2_crop1-dsn2_0_split <- weight-dsn3-2
I1125 10:17:14.392622 17185 net.cpp:408] weight-dsn3-2_crop1-dsn2_0_split -> weight-dsn3-2_crop1-dsn2_0_split_0
I1125 10:17:14.392627 17185 net.cpp:408] weight-dsn3-2_crop1-dsn2_0_split -> weight-dsn3-2_crop1-dsn2_0_split_1
I1125 10:17:14.392657 17185 net.cpp:150] Setting up weight-dsn3-2_crop1-dsn2_0_split
I1125 10:17:14.392661 17185 net.cpp:157] Top shape: 1 1 250 250 (62500)
I1125 10:17:14.392664 17185 net.cpp:157] Top shape: 1 1 250 250 (62500)
I1125 10:17:14.392665 17185 net.cpp:165] Memory required for data: 1001042948
I1125 10:17:14.392669 17185 layer_factory.hpp:77] Creating layer sigmoid-dsn2
I1125 10:17:14.392674 17185 net.cpp:100] Creating Layer sigmoid-dsn2
I1125 10:17:14.392676 17185 net.cpp:434] sigmoid-dsn2 <- weight-dsn3-2_crop1-dsn2_0_split_0
I1125 10:17:14.392679 17185 net.cpp:408] sigmoid-dsn2 -> sigmoid-dsn2
I1125 10:17:14.393175 17185 net.cpp:150] Setting up sigmoid-dsn2
I1125 10:17:14.393185 17185 net.cpp:157] Top shape: 1 1 250 250 (62500)
I1125 10:17:14.393187 17185 net.cpp:165] Memory required for data: 1001292948
I1125 10:17:14.393190 17185 layer_factory.hpp:77] Creating layer rev-dsn2
I1125 10:17:14.393194 17185 net.cpp:100] Creating Layer rev-dsn2
I1125 10:17:14.393198 17185 net.cpp:434] rev-dsn2 <- sigmoid-dsn2
I1125 10:17:14.393201 17185 net.cpp:408] rev-dsn2 -> rev-dsn2
I1125 10:17:14.393224 17185 net.cpp:150] Setting up rev-dsn2
I1125 10:17:14.393229 17185 net.cpp:157] Top shape: 1 1 250 250 (62500)
I1125 10:17:14.393230 17185 net.cpp:165] Memory required for data: 1001542948
I1125 10:17:14.393231 17185 layer_factory.hpp:77] Creating layer tile-dsn2
I1125 10:17:14.393235 17185 net.cpp:100] Creating Layer tile-dsn2
I1125 10:17:14.393237 17185 net.cpp:434] tile-dsn2 <- rev-dsn2
I1125 10:17:14.393241 17185 net.cpp:408] tile-dsn2 -> weight-dsn2
I1125 10:17:14.393258 17185 net.cpp:150] Setting up tile-dsn2
I1125 10:17:14.393262 17185 net.cpp:157] Top shape: 1 128 250 250 (8000000)
I1125 10:17:14.393263 17185 net.cpp:165] Memory required for data: 1033542948
I1125 10:17:14.393266 17185 layer_factory.hpp:77] Creating layer prod1-dsn2
I1125 10:17:14.393270 17185 net.cpp:100] Creating Layer prod1-dsn2
I1125 10:17:14.393272 17185 net.cpp:434] prod1-dsn2 <- conv2_2_relu2_2_0_split_2
I1125 10:17:14.393275 17185 net.cpp:434] prod1-dsn2 <- weight-dsn2
I1125 10:17:14.393280 17185 net.cpp:408] prod1-dsn2 -> prod1-dsn2
I1125 10:17:14.393296 17185 net.cpp:150] Setting up prod1-dsn2
I1125 10:17:14.393299 17185 net.cpp:157] Top shape: 1 128 250 250 (8000000)
I1125 10:17:14.393301 17185 net.cpp:165] Memory required for data: 1065542948
I1125 10:17:14.393306 17185 layer_factory.hpp:77] Creating layer conv1-dsn2
I1125 10:17:14.393311 17185 net.cpp:100] Creating Layer conv1-dsn2
I1125 10:17:14.393313 17185 net.cpp:434] conv1-dsn2 <- prod1-dsn2
I1125 10:17:14.393317 17185 net.cpp:408] conv1-dsn2 -> conv1-dsn2
I1125 10:17:14.395403 17185 net.cpp:150] Setting up conv1-dsn2
I1125 10:17:14.395431 17185 net.cpp:157] Top shape: 1 64 250 250 (4000000)
I1125 10:17:14.395433 17185 net.cpp:165] Memory required for data: 1081542948
I1125 10:17:14.395438 17185 layer_factory.hpp:77] Creating layer conv2-dsn2
I1125 10:17:14.395462 17185 net.cpp:100] Creating Layer conv2-dsn2
I1125 10:17:14.395465 17185 net.cpp:434] conv2-dsn2 <- conv1-dsn2
I1125 10:17:14.395473 17185 net.cpp:408] conv2-dsn2 -> conv2-dsn2
I1125 10:17:14.397045 17185 net.cpp:150] Setting up conv2-dsn2
I1125 10:17:14.397055 17185 net.cpp:157] Top shape: 1 64 250 250 (4000000)
I1125 10:17:14.397058 17185 net.cpp:165] Memory required for data: 1097542948
I1125 10:17:14.397063 17185 layer_factory.hpp:77] Creating layer relu1-dsn2
I1125 10:17:14.397068 17185 net.cpp:100] Creating Layer relu1-dsn2
I1125 10:17:14.397069 17185 net.cpp:434] relu1-dsn2 <- conv2-dsn2
I1125 10:17:14.397075 17185 net.cpp:395] relu1-dsn2 -> conv2-dsn2 (in-place)
I1125 10:17:14.397485 17185 net.cpp:150] Setting up relu1-dsn2
I1125 10:17:14.397495 17185 net.cpp:157] Top shape: 1 64 250 250 (4000000)
I1125 10:17:14.397497 17185 net.cpp:165] Memory required for data: 1113542948
I1125 10:17:14.397501 17185 layer_factory.hpp:77] Creating layer conv3-dsn2
I1125 10:17:14.397511 17185 net.cpp:100] Creating Layer conv3-dsn2
I1125 10:17:14.397512 17185 net.cpp:434] conv3-dsn2 <- conv2-dsn2
I1125 10:17:14.397519 17185 net.cpp:408] conv3-dsn2 -> conv3-dsn2
I1125 10:17:14.398818 17185 net.cpp:150] Setting up conv3-dsn2
I1125 10:17:14.398828 17185 net.cpp:157] Top shape: 1 64 250 250 (4000000)
I1125 10:17:14.398829 17185 net.cpp:165] Memory required for data: 1129542948
I1125 10:17:14.398834 17185 layer_factory.hpp:77] Creating layer relu2-dsn2
I1125 10:17:14.398839 17185 net.cpp:100] Creating Layer relu2-dsn2
I1125 10:17:14.398841 17185 net.cpp:434] relu2-dsn2 <- conv3-dsn2
I1125 10:17:14.398846 17185 net.cpp:395] relu2-dsn2 -> conv3-dsn2 (in-place)
I1125 10:17:14.398994 17185 net.cpp:150] Setting up relu2-dsn2
I1125 10:17:14.399001 17185 net.cpp:157] Top shape: 1 64 250 250 (4000000)
I1125 10:17:14.399003 17185 net.cpp:165] Memory required for data: 1145542948
I1125 10:17:14.399005 17185 layer_factory.hpp:77] Creating layer conv4-dsn2
I1125 10:17:14.399014 17185 net.cpp:100] Creating Layer conv4-dsn2
I1125 10:17:14.399016 17185 net.cpp:434] conv4-dsn2 <- conv3-dsn2
I1125 10:17:14.399022 17185 net.cpp:408] conv4-dsn2 -> conv4-dsn2
I1125 10:17:14.400063 17185 net.cpp:150] Setting up conv4-dsn2
I1125 10:17:14.400074 17185 net.cpp:157] Top shape: 1 1 250 250 (62500)
I1125 10:17:14.400076 17185 net.cpp:165] Memory required for data: 1145792948
I1125 10:17:14.400081 17185 layer_factory.hpp:77] Creating layer sum-dsn2
I1125 10:17:14.400086 17185 net.cpp:100] Creating Layer sum-dsn2
I1125 10:17:14.400089 17185 net.cpp:434] sum-dsn2 <- conv4-dsn2
I1125 10:17:14.400092 17185 net.cpp:434] sum-dsn2 <- weight-dsn3-2_crop1-dsn2_0_split_1
I1125 10:17:14.400099 17185 net.cpp:408] sum-dsn2 -> sum-dsn2
I1125 10:17:14.400133 17185 net.cpp:150] Setting up sum-dsn2
I1125 10:17:14.400153 17185 net.cpp:157] Top shape: 1 1 250 250 (62500)
I1125 10:17:14.400156 17185 net.cpp:165] Memory required for data: 1146042948
I1125 10:17:14.400158 17185 layer_factory.hpp:77] Creating layer upsample2_2-dsn2
I1125 10:17:14.400166 17185 net.cpp:100] Creating Layer upsample2_2-dsn2
I1125 10:17:14.400168 17185 net.cpp:434] upsample2_2-dsn2 <- sum-dsn2
I1125 10:17:14.400172 17185 net.cpp:408] upsample2_2-dsn2 -> sum-dsn2-up
I1125 10:17:14.401538 17185 net.cpp:150] Setting up upsample2_2-dsn2
I1125 10:17:14.401548 17185 net.cpp:157] Top shape: 1 1 502 502 (252004)
I1125 10:17:14.401551 17185 net.cpp:165] Memory required for data: 1147050964
I1125 10:17:14.401556 17185 layer_factory.hpp:77] Creating layer crop2-dsn2
I1125 10:17:14.401561 17185 net.cpp:100] Creating Layer crop2-dsn2
I1125 10:17:14.401563 17185 net.cpp:434] crop2-dsn2 <- sum-dsn2-up
I1125 10:17:14.401567 17185 net.cpp:434] crop2-dsn2 <- data_augmentation_0_split_5
I1125 10:17:14.401572 17185 net.cpp:408] crop2-dsn2 -> upscore-dsn2
I1125 10:17:14.401600 17185 net.cpp:150] Setting up crop2-dsn2
I1125 10:17:14.401607 17185 net.cpp:157] Top shape: 1 1 500 500 (250000)
I1125 10:17:14.401608 17185 net.cpp:165] Memory required for data: 1148050964
I1125 10:17:14.401610 17185 layer_factory.hpp:77] Creating layer upscore-dsn2_crop2-dsn2_0_split
I1125 10:17:14.401614 17185 net.cpp:100] Creating Layer upscore-dsn2_crop2-dsn2_0_split
I1125 10:17:14.401616 17185 net.cpp:434] upscore-dsn2_crop2-dsn2_0_split <- upscore-dsn2
I1125 10:17:14.401621 17185 net.cpp:408] upscore-dsn2_crop2-dsn2_0_split -> upscore-dsn2_crop2-dsn2_0_split_0
I1125 10:17:14.401644 17185 net.cpp:408] upscore-dsn2_crop2-dsn2_0_split -> upscore-dsn2_crop2-dsn2_0_split_1
I1125 10:17:14.401651 17185 net.cpp:408] upscore-dsn2_crop2-dsn2_0_split -> upscore-dsn2_crop2-dsn2_0_split_2
I1125 10:17:14.401695 17185 net.cpp:150] Setting up upscore-dsn2_crop2-dsn2_0_split
I1125 10:17:14.401700 17185 net.cpp:157] Top shape: 1 1 500 500 (250000)
I1125 10:17:14.401702 17185 net.cpp:157] Top shape: 1 1 500 500 (250000)
I1125 10:17:14.401705 17185 net.cpp:157] Top shape: 1 1 500 500 (250000)
I1125 10:17:14.401707 17185 net.cpp:165] Memory required for data: 1151050964
I1125 10:17:14.401710 17185 layer_factory.hpp:77] Creating layer loss2-score
I1125 10:17:14.401716 17185 net.cpp:100] Creating Layer loss2-score
I1125 10:17:14.401718 17185 net.cpp:434] loss2-score <- upscore-dsn2_crop2-dsn2_0_split_0
I1125 10:17:14.401721 17185 net.cpp:434] loss2-score <- label_augmentation_1_split_4
I1125 10:17:14.401727 17185 net.cpp:408] loss2-score -> loss2-score
I1125 10:17:14.401901 17185 net.cpp:150] Setting up loss2-score
I1125 10:17:14.401906 17185 net.cpp:157] Top shape: (1)
I1125 10:17:14.401908 17185 net.cpp:160]     with loss weight 1
I1125 10:17:14.401912 17185 net.cpp:165] Memory required for data: 1151050968
I1125 10:17:14.401914 17185 layer_factory.hpp:77] Creating layer sigmoid-dsn1
I1125 10:17:14.401918 17185 net.cpp:100] Creating Layer sigmoid-dsn1
I1125 10:17:14.401921 17185 net.cpp:434] sigmoid-dsn1 <- upscore-dsn2_crop2-dsn2_0_split_1
I1125 10:17:14.401924 17185 net.cpp:408] sigmoid-dsn1 -> sigmoid-dsn1
I1125 10:17:14.402101 17185 net.cpp:150] Setting up sigmoid-dsn1
I1125 10:17:14.402107 17185 net.cpp:157] Top shape: 1 1 500 500 (250000)
I1125 10:17:14.402109 17185 net.cpp:165] Memory required for data: 1152050968
I1125 10:17:14.402112 17185 layer_factory.hpp:77] Creating layer rev-dsn1
I1125 10:17:14.402115 17185 net.cpp:100] Creating Layer rev-dsn1
I1125 10:17:14.402117 17185 net.cpp:434] rev-dsn1 <- sigmoid-dsn1
I1125 10:17:14.402122 17185 net.cpp:408] rev-dsn1 -> rev-dsn1
I1125 10:17:14.402154 17185 net.cpp:150] Setting up rev-dsn1
I1125 10:17:14.402158 17185 net.cpp:157] Top shape: 1 1 500 500 (250000)
I1125 10:17:14.402160 17185 net.cpp:165] Memory required for data: 1153050968
I1125 10:17:14.402163 17185 layer_factory.hpp:77] Creating layer tile-dsn1
I1125 10:17:14.402168 17185 net.cpp:100] Creating Layer tile-dsn1
I1125 10:17:14.402170 17185 net.cpp:434] tile-dsn1 <- rev-dsn1
I1125 10:17:14.402176 17185 net.cpp:408] tile-dsn1 -> weight-dsn1
I1125 10:17:14.402195 17185 net.cpp:150] Setting up tile-dsn1
I1125 10:17:14.402199 17185 net.cpp:157] Top shape: 1 64 500 500 (16000000)
I1125 10:17:14.402200 17185 net.cpp:165] Memory required for data: 1217050968
I1125 10:17:14.402202 17185 layer_factory.hpp:77] Creating layer prod1-dsn1
I1125 10:17:14.402209 17185 net.cpp:100] Creating Layer prod1-dsn1
I1125 10:17:14.402210 17185 net.cpp:434] prod1-dsn1 <- conv1_2_relu1_2_0_split_1
I1125 10:17:14.402215 17185 net.cpp:434] prod1-dsn1 <- weight-dsn1
I1125 10:17:14.402217 17185 net.cpp:408] prod1-dsn1 -> prod1-dsn1
I1125 10:17:14.402236 17185 net.cpp:150] Setting up prod1-dsn1
I1125 10:17:14.402240 17185 net.cpp:157] Top shape: 1 64 500 500 (16000000)
I1125 10:17:14.402242 17185 net.cpp:165] Memory required for data: 1281050968
I1125 10:17:14.402245 17185 layer_factory.hpp:77] Creating layer conv1-dsn1
I1125 10:17:14.402266 17185 net.cpp:100] Creating Layer conv1-dsn1
I1125 10:17:14.402268 17185 net.cpp:434] conv1-dsn1 <- prod1-dsn1
I1125 10:17:14.402272 17185 net.cpp:408] conv1-dsn1 -> conv1-dsn1
I1125 10:17:14.404659 17185 net.cpp:150] Setting up conv1-dsn1
I1125 10:17:14.404671 17185 net.cpp:157] Top shape: 1 64 500 500 (16000000)
I1125 10:17:14.404675 17185 net.cpp:165] Memory required for data: 1345050968
I1125 10:17:14.404680 17185 layer_factory.hpp:77] Creating layer conv2-dsn1
I1125 10:17:14.404690 17185 net.cpp:100] Creating Layer conv2-dsn1
I1125 10:17:14.404692 17185 net.cpp:434] conv2-dsn1 <- conv1-dsn1
I1125 10:17:14.404697 17185 net.cpp:408] conv2-dsn1 -> conv2-dsn1
I1125 10:17:14.406112 17185 net.cpp:150] Setting up conv2-dsn1
I1125 10:17:14.406122 17185 net.cpp:157] Top shape: 1 64 500 500 (16000000)
I1125 10:17:14.406129 17185 net.cpp:165] Memory required for data: 1409050968
I1125 10:17:14.406136 17185 layer_factory.hpp:77] Creating layer relu1-dsn1
I1125 10:17:14.406139 17185 net.cpp:100] Creating Layer relu1-dsn1
I1125 10:17:14.406142 17185 net.cpp:434] relu1-dsn1 <- conv2-dsn1
I1125 10:17:14.406147 17185 net.cpp:395] relu1-dsn1 -> conv2-dsn1 (in-place)
I1125 10:17:14.406301 17185 net.cpp:150] Setting up relu1-dsn1
I1125 10:17:14.406307 17185 net.cpp:157] Top shape: 1 64 500 500 (16000000)
I1125 10:17:14.406309 17185 net.cpp:165] Memory required for data: 1473050968
I1125 10:17:14.406311 17185 layer_factory.hpp:77] Creating layer conv3-dsn1
I1125 10:17:14.406319 17185 net.cpp:100] Creating Layer conv3-dsn1
I1125 10:17:14.406322 17185 net.cpp:434] conv3-dsn1 <- conv2-dsn1
I1125 10:17:14.406327 17185 net.cpp:408] conv3-dsn1 -> conv3-dsn1
I1125 10:17:14.408708 17185 net.cpp:150] Setting up conv3-dsn1
I1125 10:17:14.408720 17185 net.cpp:157] Top shape: 1 64 500 500 (16000000)
I1125 10:17:14.408722 17185 net.cpp:165] Memory required for data: 1537050968
I1125 10:17:14.408727 17185 layer_factory.hpp:77] Creating layer relu2-dsn1
I1125 10:17:14.408732 17185 net.cpp:100] Creating Layer relu2-dsn1
I1125 10:17:14.408735 17185 net.cpp:434] relu2-dsn1 <- conv3-dsn1
I1125 10:17:14.408740 17185 net.cpp:395] relu2-dsn1 -> conv3-dsn1 (in-place)
I1125 10:17:14.408900 17185 net.cpp:150] Setting up relu2-dsn1
I1125 10:17:14.408906 17185 net.cpp:157] Top shape: 1 64 500 500 (16000000)
I1125 10:17:14.408908 17185 net.cpp:165] Memory required for data: 1601050968
I1125 10:17:14.408912 17185 layer_factory.hpp:77] Creating layer conv4-dsn1
I1125 10:17:14.408921 17185 net.cpp:100] Creating Layer conv4-dsn1
I1125 10:17:14.408923 17185 net.cpp:434] conv4-dsn1 <- conv3-dsn1
I1125 10:17:14.408929 17185 net.cpp:408] conv4-dsn1 -> conv4-dsn1
I1125 10:17:14.410094 17185 net.cpp:150] Setting up conv4-dsn1
I1125 10:17:14.410104 17185 net.cpp:157] Top shape: 1 1 500 500 (250000)
I1125 10:17:14.410105 17185 net.cpp:165] Memory required for data: 1602050968
I1125 10:17:14.410111 17185 layer_factory.hpp:77] Creating layer sum-dsn1
I1125 10:17:14.410118 17185 net.cpp:100] Creating Layer sum-dsn1
I1125 10:17:14.410120 17185 net.cpp:434] sum-dsn1 <- conv4-dsn1
I1125 10:17:14.410125 17185 net.cpp:434] sum-dsn1 <- upscore-dsn2_crop2-dsn2_0_split_2
I1125 10:17:14.410152 17185 net.cpp:408] sum-dsn1 -> sum-dsn1
I1125 10:17:14.410181 17185 net.cpp:150] Setting up sum-dsn1
I1125 10:17:14.410185 17185 net.cpp:157] Top shape: 1 1 500 500 (250000)
I1125 10:17:14.410187 17185 net.cpp:165] Memory required for data: 1603050968
I1125 10:17:14.410190 17185 layer_factory.hpp:77] Creating layer crop2-dsn1
I1125 10:17:14.410194 17185 net.cpp:100] Creating Layer crop2-dsn1
I1125 10:17:14.410197 17185 net.cpp:434] crop2-dsn1 <- sum-dsn1
I1125 10:17:14.410199 17185 net.cpp:434] crop2-dsn1 <- data_augmentation_0_split_6
I1125 10:17:14.410207 17185 net.cpp:408] crop2-dsn1 -> upscore-dsn1
I1125 10:17:14.410228 17185 net.cpp:150] Setting up crop2-dsn1
I1125 10:17:14.410234 17185 net.cpp:157] Top shape: 1 1 500 500 (250000)
I1125 10:17:14.410236 17185 net.cpp:165] Memory required for data: 1604050968
I1125 10:17:14.410238 17185 layer_factory.hpp:77] Creating layer loss1-score
I1125 10:17:14.410246 17185 net.cpp:100] Creating Layer loss1-score
I1125 10:17:14.410248 17185 net.cpp:434] loss1-score <- upscore-dsn1
I1125 10:17:14.410251 17185 net.cpp:434] loss1-score <- label_augmentation_1_split_5
I1125 10:17:14.410255 17185 net.cpp:408] loss1-score -> loss1-score
…
I1125 10:17:14.414821 17185 net.cpp:58] Initializing net from parameters: 
name: "RAS"
state {
  phase: TEST
}
layer {
  name: "data"
  type: "ImageLabelmapData"
  top: "data"
  top: "label"
  include {
    phase: TEST
  }
  transform_param {
    mean_value: 104.00699
    mean_value: 116.66877
    mean_value: 122.67892
  }
  image_data_param {
    source: "/media/compute/homes/galberding/FleckDetect/Datasets/val.txt"
    batch_size: 1
    new_height: 500
    new_width: 500
    root_folder: "/media/compute/homes/galberding/FleckDetect/Datasets/"
    normalize: true
  }
}
layer {
  name: "conv1_1"
  type: "Convolution"
  bottom: "data"
  top: "conv1_1"
  param {
    lr_mult: 1
    decay_mult: 1
  }
  param {
    lr_mult: 2
    decay_mult: 0
  }
  convolution_param {
    num_output: 64
    pad: 1
    kernel_size: 3
    engine: CUDNN
  }
}
layer {
  name: "relu1_1"
  type: "ReLU"
  bottom: "conv1_1"
  top: "conv1_1"
}
layer {
  name: "conv1_2"
  type: "Convolution"
  bottom: "conv1_1"
  top: "conv1_2"
  param {
    lr_mult: 1
    decay_mult: 1
  }
  param {
    lr_mult: 2
    decay_mult: 0
  }
  convolution_param {
    num_output: 64
    pad: 1
    kernel_size: 3
    engine: CUDNN
  }
}
layer {
  name: "relu1_2"
  type: "ReLU"
  bottom: "conv1_2"
  top: "conv1_2"
}
layer {
  name: "pool1"
  type: "Pooling"
  bottom: "conv1_2"
  top: "pool1"
  pooling_param {
    pool: MAX
    kernel_size: 2
    stride: 2
  }
}
layer {
  name: "conv2_1"
  type: "Convolution"
  bottom: "pool1"
  top: "conv2_1"
  param {
    lr_mult: 1
    decay_mult: 1
  }
  param {
    lr_mult: 2
    decay_mult: 0
  }
  convolution_param {
    num_output: 128
    pad: 1
    kernel_size: 3
    engine: CUDNN
  }
}
layer {
  name: "relu2_1"
  type: "ReLU"
  bottom: "conv2_1"
  top: "conv2_1"
}
layer {
  name: "conv2_2"
  type: "Convolution"
  bottom: "conv2_1"
  top: "conv2_2"
  param {
    lr_mult: 1
    decay_mult: 1
  }
  param {
    lr_mult: 2
    decay_mult: 0
  }
  convolution_param {
    num_output: 128
    pad: 1
    kernel_size: 3
    engine: CUDNN
  }
}
layer {
  name: "relu2_2"
  type: "ReLU"
  bottom: "conv2_2"
  top: "conv2_2"
}
layer {
  name: "pool2"
  type: "Pooling"
  bottom: "conv2_2"
  top: "pool2"
  pooling_param {
    pool: MAX
    kernel_size: 2
    stride: 2
  }
}
layer {
  name: "conv3_1"
  type: "Convolution"
  bottom: "pool2"
  top: "conv3_1"
  param {
    lr_mult: 1
    decay_mult: 1
  }
  param {
    lr_mult: 2
    decay_mult: 0
  }
  convolution_param {
    num_output: 256
    pad: 1
    kernel_size: 3
    engine: CUDNN
  }
}
layer {
  name: "relu3_1"
  type: "ReLU"
  bottom: "conv3_1"
  top: "conv3_1"
}
layer {
  name: "conv3_2"
  type: "Convolution"
  bottom: "conv3_1"
  top: "conv3_2"
  param {
    lr_mult: 1
    decay_mult: 1
  }
  param {
    lr_mult: 2
    decay_mult: 0
  }
  convolution_param {
    num_output: 256
    pad: 1
    kernel_size: 3
    engine: CUDNN
  }
}
layer {
  name: "relu3_2"
  type: "ReLU"
  bottom: "conv3_2"
  top: "conv3_2"
}
layer {
  name: "conv3_3"
  type: "Convolution"
  bottom: "conv3_2"
  top: "conv3_3"
  param {
    lr_mult: 1
    decay_mult: 1
  }
  param {
    lr_mult: 2
    decay_mult: 0
  }
  convolution_param {
    num_output: 256
    pad: 1
    kernel_size: 3
    engine: CUDNN
  }
}
layer {
  name: "relu3_3"
  type: "ReLU"
  bottom: "conv3_3"
  top: "conv3_3"
}
layer {
  name: "pool3"
  type: "Pooling"
  bottom: "conv3_3"
  top: "pool3"
  pooling_param {
    pool: MAX
    kernel_size: 2
    stride: 2
  }
}
layer {
  name: "conv4_1"
  type: "Convolution"
  bottom: "pool3"
  top: "conv4_1"
  param {
    lr_mult: 1
    decay_mult: 1
  }
  param {
    lr_mult: 2
    decay_mult: 0
  }
  convolution_param {
    num_output: 512
    pad: 1
    kernel_size: 3
    engine: CUDNN
  }
}
layer {
  name: "relu4_1"
  type: "ReLU"
  bottom: "conv4_1"
  top: "conv4_1"
}
layer {
  name: "conv4_2"
  type: "Convolution"
  bottom: "conv4_1"
  top: "conv4_2"
  param {
    lr_mult: 1
    decay_mult: 1
  }
  param {
    lr_mult: 2
    decay_mult: 0
  }
  convolution_param {
    num_output: 512
    pad: 1
    kernel_size: 3
    engine: CUDNN
  }
}
layer {
  name: "relu4_2"
  type: "ReLU"
  bottom: "conv4_2"
  top: "conv4_2"
}
layer {
  name: "conv4_3"
  type: "Convolution"
  bottom: "conv4_2"
  top: "conv4_3"
  param {
    lr_mult: 1
    decay_mult: 1
  }
  param {
    lr_mult: 2
    decay_mult: 0
  }
  convolution_param {
    num_output: 512
    pad: 1
    kernel_size: 3
    engine: CUDNN
  }
}
layer {
  name: "relu4_3"
  type: "ReLU"
  bottom: "conv4_3"
  top: "conv4_3"
}
layer {
  name: "pool4"
  type: "Pooling"
  bottom: "conv4_3"
  top: "pool4"
  pooling_param {
    pool: MAX
    kernel_size: 3
    stride: 2
    pad: 1
  }
}
layer {
  name: "conv5_1"
  type: "Convolution"
  bottom: "pool4"
  top: "conv5_1"
  param {
    lr_mult: 1
    decay_mult: 1
  }
  param {
    lr_mult: 2
    decay_mult: 0
  }
  convolution_param {
    num_output: 512
    pad: 1
    kernel_size: 3
    engine: CUDNN
  }
}
layer {
  name: "relu5_1"
  type: "ReLU"
  bottom: "conv5_1"
  top: "conv5_1"
}
layer {
  name: "conv5_2"
  type: "Convolution"
  bottom: "conv5_1"
  top: "conv5_2"
  param {
    lr_mult: 1
    decay_mult: 1
  }
  param {
    lr_mult: 2
    decay_mult: 0
  }
  convolution_param {
    num_output: 512
    pad: 1
    kernel_size: 3
    engine: CUDNN
  }
}
layer {
  name: "relu5_2"
  type: "ReLU"
  bottom: "conv5_2"
  top: "conv5_2"
}
layer {
  name: "conv5_3"
  type: "Convolution"
  bottom: "conv5_2"
  top: "conv5_3"
  param {
    lr_mult: 1
    decay_mult: 1
  }
  param {
    lr_mult: 2
    decay_mult: 0
  }
  convolution_param {
    num_output: 512
    pad: 1
    kernel_size: 3
    engine: CUDNN
  }
}
layer {
  name: "relu5_3"
  type: "ReLU"
  bottom: "conv5_3"
  top: "conv5_3"
}
layer {
  name: "pool5"
  type: "Pooling"
  bottom: "conv5_3"
  top: "pool5"
  pooling_param {
    pool: MAX
    kernel_size: 3
    stride: 2
    pad: 1
  }
}
layer {
  name: "conv1-dsn6"
  type: "Convolution"
  bottom: "pool5"
  top: "conv1-dsn6"
  param {
    lr_mult: 1
    decay_mult: 1
  }
  param {
    lr_mult: 2
    decay_mult: 0
  }
  convolution_param {
    num_output: 256
    kernel_size: 1
    weight_filler {
      type: "gaussian"
      std: 0.01
    }
    bias_filler {
      type: "constant"
      value: 0
    }
    engine: CUDNN
  }
}
layer {
  name: "conv2-dsn6"
  type: "Convolution"
  bottom: "conv1-dsn6"
  top: "conv2-dsn6"
  param {
    lr_mult: 1
    decay_mult: 1
  }
  param {
    lr_mult: 2
    decay_mult: 0
  }
  convolution_param {
    num_output: 256
    pad: 2
    kernel_size: 5
    weight_filler {
      type: "gaussian"
      std: 0.01
    }
    bias_filler {
      type: "constant"
      value: 0
    }
    engine: CUDNN
  }
}
layer {
  name: "relu1-dsn6"
  type: "ReLU"
  bottom: "conv2-dsn6"
  top: "conv2-dsn6"
}
layer {
  name: "conv3-dsn6"
  type: "Convolution"
  bottom: "conv2-dsn6"
  top: "conv3-dsn6"
  param {
    lr_mult: 1
    decay_mult: 1
  }
  param {
    lr_mult: 2
    decay_mult: 0
  }
  convolution_param {
    num_output: 256
    pad: 2
    kernel_size: 5
    weight_filler {
      type: "gaussian"
      std: 0.01
    }
    bias_filler {
      type: "constant"
      value: 0
    }
    engine: CUDNN
  }
}
layer {
  name: "relu2-dsn6"
  type: "ReLU"
  bottom: "conv3-dsn6"
  top: "conv3-dsn6"
}
layer {
  name: "conv4-dsn6"
  type: "Convolution"
  bottom: "conv3-dsn6"
  top: "conv4-dsn6"
  param {
    lr_mult: 1
    decay_mult: 1
  }
  param {
    lr_mult: 2
    decay_mult: 0
  }
  convolution_param {
    num_output: 256
    pad: 2
    kernel_size: 5
    weight_filler {
      type: "gaussian"
      std: 0.01
    }
    bias_filler {
      type: "constant"
      value: 0
    }
    engine: CUDNN
  }
}
layer {
  name: "relu3-dsn6"
  type: "ReLU"
  bottom: "conv4-dsn6"
  top: "conv4-dsn6"
}
layer {
  name: "conv5-dsn6"
  type: "Convolution"
  bottom: "conv4-dsn6"
  top: "conv5-dsn6"
  param {
    lr_mult: 0.1
    decay_mult: 1
  }
  param {
    lr_mult: 0.2
    decay_mult: 0
  }
  convolution_param {
    num_output: 1
    kernel_size: 1
    weight_filler {
      type: "gaussian"
      std: 0.01
    }
    bias_filler {
      type: "constant"
      value: 0
    }
    engine: CUDNN
  }
}
layer {
  name: "upsample32_dsn6"
  type: "Deconvolution"
  bottom: "conv5-dsn6"
  top: "conv5-dsn6-up"
  param {
    lr_mult: 0
    decay_mult: 1
  }
  param {
    lr_mult: 0
    decay_mult: 0
  }
  convolution_param {
    num_output: 1
    kernel_size: 64
    stride: 32
  }
}
layer {
  name: "crop-dsn6"
  type: "Crop"
  bottom: "conv5-dsn6-up"
  bottom: "data"
  top: "upscore-dsn6"
}
layer {
  name: "loss6-score"
  type: "SigmoidCrossEntropyLoss"
  bottom: "upscore-dsn6"
  bottom: "label"
  top: "loss6-score"
  loss_weight: 1
}
layer {
  name: "upsample2_dsn5"
  type: "Deconvolution"
  bottom: "conv5-dsn6"
  top: "conv5-dsn6-5"
  param {
    lr_mult: 0
    decay_mult: 1
  }
  param {
    lr_mult: 0
    decay_mult: 0
  }
  convolution_param {
    num_output: 1
    kernel_size: 4
    stride: 2
  }
}
layer {
  name: "crop1-dsn5"
  type: "Crop"
  bottom: "conv5-dsn6-5"
  bottom: "conv5_3"
  top: "weight-dsn6-5"
}
layer {
  name: "sigmoid-dsn5"
  type: "Sigmoid"
  bottom: "weight-dsn6-5"
  top: "sigmoid-dsn5"
}
layer {
  name: "rev-dsn5"
  type: "Power"
  bottom: "sigmoid-dsn5"
  top: "rev-dsn5"
  power_param {
    power: 1
    scale: -1
    shift: 1
  }
}
layer {
  name: "tile-dsn5"
  type: "Tile"
  bottom: "rev-dsn5"
  top: "weight-dsn5"
  tile_param {
    tiles: 512
  }
}
layer {
  name: "prod1-dsn5"
  type: "Eltwise"
  bottom: "conv5_3"
  bottom: "weight-dsn5"
  top: "prod1-dsn5"
  eltwise_param {
    operation: PROD
  }
}
layer {
  name: "conv1-dsn5"
  type: "Convolution"
  bottom: "prod1-dsn5"
  top: "conv1-dsn5"
  param {
    lr_mult: 1
    decay_mult: 1
  }
  param {
    lr_mult: 2
    decay_mult: 0
  }
  convolution_param {
    num_output: 64
    kernel_size: 1
    weight_filler {
      type: "gaussian"
      std: 0.01
    }
    bias_filler {
      type: "constant"
      value: 0
    }
    engine: CUDNN
  }
}
layer {
  name: "conv2-dsn5"
  type: "Convolution"
  bottom: "conv1-dsn5"
  top: "conv2-dsn5"
  param {
    lr_mult: 1
    decay_mult: 1
  }
  param {
    lr_mult: 2
    decay_mult: 0
  }
  convolution_param {
    num_output: 64
    pad: 1
    kernel_size: 3
    weight_filler {
      type: "gaussian"
      std: 0.01
    }
    bias_filler {
      type: "constant"
      value: 0
    }
    engine: CUDNN
  }
}
layer {
  name: "relu1-dsn5"
  type: "ReLU"
  bottom: "conv2-dsn5"
  top: "conv2-dsn5"
}
layer {
  name: "conv3-dsn5"
  type: "Convolution"
  bottom: "conv2-dsn5"
  top: "conv3-dsn5"
  param {
    lr_mult: 1
    decay_mult: 1
  }
  param {
    lr_mult: 2
    decay_mult: 0
  }
  convolution_param {
    num_output: 64
    pad: 1
    kernel_size: 3
    weight_filler {
      type: "gaussian"
      std: 0.01
    }
    bias_filler {
      type: "constant"
      value: 0
    }
    engine: CUDNN
  }
}
layer {
  name: "relu2-dsn5"
  type: "ReLU"
  bottom: "conv3-dsn5"
  top: "conv3-dsn5"
}
layer {
  name: "conv4-dsn5"
  type: "Convolution"
  bottom: "conv3-dsn5"
  top: "conv4-dsn5"
  param {
    lr_mult: 1
    decay_mult: 1
  }
  param {
    lr_mult: 2
    decay_mult: 0
  }
  convolution_param {
    num_output: 1
    pad: 1
    kernel_size: 3
    weight_filler {
      type: "gaussian"
      std: 0.01
    }
    bias_filler {
      type: "constant"
      value: 0
    }
    engine: CUDNN
  }
}
layer {
  name: "sum-dsn5"
  type: "Eltwise"
  bottom: "conv4-dsn5"
  bottom: "weight-dsn6-5"
  top: "sum-dsn5"
  eltwise_param {
    operation: SUM
  }
}
layer {
  name: "upsample16_dsn5"
  type: "Deconvolution"
  bottom: "sum-dsn5"
  top: "sum-dsn5-up"
  param {
    lr_mult: 0
    decay_mult: 1
  }
  param {
    lr_mult: 0
    decay_mult: 0
  }
  convolution_param {
    num_output: 1
    kernel_size: 32
    stride: 16
  }
}
layer {
  name: "crop2-dsn5"
  type: "Crop"
  bottom: "sum-dsn5-up"
  bottom: "data"
  top: "upscore-dsn5"
}
layer {
  name: "loss5-score"
  type: "SigmoidCrossEntropyLoss"
  bottom: "upscore-dsn5"
  bottom: "label"
  top: "loss5-score"
  loss_weight: 1
}
layer {
  name: "upsample2_dsn4"
  type: "Deconvolution"
  bottom: "sum-dsn5"
  top: "sum-dsn5-4"
  param {
    lr_mult: 0
    decay_mult: 1
  }
  param {
    lr_mult: 0
    decay_mult: 0
  }
  convolution_param {
    num_output: 1
    kernel_size: 4
    stride: 2
  }
}
layer {
  name: "crop1-dsn4"
  type: "Crop"
  bottom: "sum-dsn5-4"
  bottom: "conv4_3"
  top: "weight-dsn5-4"
}
layer {
  name: "sigmoid-dsn4"
  type: "Sigmoid"
  bottom: "weight-dsn5-4"
  top: "sigmoid-dsn4"
}
layer {
  name: "rev-dsn4"
  type: "Power"
  bottom: "sigmoid-dsn4"
  top: "rev-dsn4"
  power_param {
    power: 1
    scale: -1
    shift: 1
  }
}
layer {
  name: "tile-dsn4"
  type: "Tile"
  bottom: "rev-dsn4"
  top: "weight-dsn4"
  tile_param {
    tiles: 512
  }
}
layer {
  name: "prod1-dsn4"
  type: "Eltwise"
  bottom: "conv4_3"
  bottom: "weight-dsn4"
  top: "prod1-dsn4"
  eltwise_param {
    operation: PROD
  }
}
layer {
  name: "conv1-dsn4"
  type: "Convolution"
  bottom: "prod1-dsn4"
  top: "conv1-dsn4"
  param {
    lr_mult: 1
    decay_mult: 1
  }
  param {
    lr_mult: 2
    decay_mult: 0
  }
  convolution_param {
    num_output: 64
    kernel_size: 1
    weight_filler {
      type: "gaussian"
      std: 0.01
    }
    bias_filler {
      type: "constant"
      value: 0
    }
    engine: CUDNN
  }
}
layer {
  name: "conv2-dsn4"
  type: "Convolution"
  bottom: "conv1-dsn4"
  top: "conv2-dsn4"
  param {
    lr_mult: 1
    decay_mult: 1
  }
  param {
    lr_mult: 2
    decay_mult: 0
  }
  convolution_param {
    num_output: 64
    pad: 1
    kernel_size: 3
    weight_filler {
      type: "gaussian"
      std: 0.01
    }
    bias_filler {
      type: "constant"
      value: 0
    }
    engine: CUDNN
  }
}
layer {
  name: "relu1-dsn4"
  type: "ReLU"
  bottom: "conv2-dsn4"
  top: "conv2-dsn4"
}
layer {
  name: "conv3-dsn4"
  type: "Convolution"
  bottom: "conv2-dsn4"
  top: "conv3-dsn4"
  param {
    lr_mult: 1
    decay_mult: 1
  }
  param {
    lr_mult: 2
    decay_mult: 0
  }
  convolution_param {
    num_output: 64
    pad: 1
    kernel_size: 3
    weight_filler {
      type: "gaussian"
      std: 0.01
    }
    bias_filler {
      type: "constant"
      value: 0
    }
    engine: CUDNN
  }
}
layer {
  name: "relu2-dsn4"
  type: "ReLU"
  bottom: "conv3-dsn4"
  top: "conv3-dsn4"
}
layer {
  name: "conv4-dsn4"
  type: "Convolution"
  bottom: "conv3-dsn4"
  top: "conv4-dsn4"
  param {
    lr_mult: 1
    decay_mult: 1
  }
  param {
    lr_mult: 2
    decay_mult: 0
  }
  convolution_param {
    num_output: 1
    pad: 1
    kernel_size: 3
    weight_filler {
      type: "gaussian"
      std: 0.01
    }
    bias_filler {
      type: "constant"
      value: 0
    }
    engine: CUDNN
  }
}
layer {
  name: "sum-dsn4"
  type: "Eltwise"
  bottom: "conv4-dsn4"
  bottom: "weight-dsn5-4"
  top: "sum-dsn4"
  eltwise_param {
    operation: SUM
  }
}
layer {
  name: "upsample8_dsn4"
  type: "Deconvolution"
  bottom: "sum-dsn4"
  top: "sum-dsn4-up"
  param {
    lr_mult: 0
    decay_mult: 1
  }
  param {
    lr_mult: 0
    decay_mult: 0
  }
  convolution_param {
    num_output: 1
    kernel_size: 16
    stride: 8
  }
}
layer {
  name: "crop2-dsn4"
  type: "Crop"
  bottom: "sum-dsn4-up"
  bottom: "data"
  top: "upscore-dsn4"
}
layer {
  name: "loss4-score"
  type: "SigmoidCrossEntropyLoss"
  bottom: "upscore-dsn4"
  bottom: "label"
  top: "loss4-score"
  loss_weight: 1
}
layer {
  name: "upsample2_dsn3"
  type: "Deconvolution"
  bottom: "sum-dsn4"
  top: "sum-dsn4-3"
  param {
    lr_mult: 0
    decay_mult: 1
  }
  param {
    lr_mult: 0
    decay_mult: 0
  }
  convolution_param {
    num_output: 1
    kernel_size: 4
    stride: 2
  }
}
layer {
  name: "crop1-dsn3"
  type: "Crop"
  bottom: "sum-dsn4-3"
  bottom: "conv3_3"
  top: "weight-dsn4-3"
}
layer {
  name: "sigmoid-dsn3"
  type: "Sigmoid"
  bottom: "weight-dsn4-3"
  top: "sigmoid-dsn3"
}
layer {
  name: "rev-dsn3"
  type: "Power"
  bottom: "sigmoid-dsn3"
  top: "rev-dsn3"
  power_param {
    power: 1
    scale: -1
    shift: 1
  }
}
layer {
  name: "tile-dsn3"
  type: "Tile"
  bottom: "rev-dsn3"
  top: "weight-dsn3"
  tile_param {
    tiles: 256
  }
}
layer {
  name: "prod1-dsn3"
  type: "Eltwise"
  bottom: "conv3_3"
  bottom: "weight-dsn3"
  top: "prod1-dsn3"
  eltwise_param {
    operation: PROD
  }
}
layer {
  name: "conv1-dsn3"
  type: "Convolution"
  bottom: "prod1-dsn3"
  top: "conv1-dsn3"
  param {
    lr_mult: 1
    decay_mult: 1
  }
  param {
    lr_mult: 2
    decay_mult: 0
  }
  convolution_param {
    num_output: 64
    kernel_size: 1
    weight_filler {
      type: "gaussian"
      std: 0.01
    }
    bias_filler {
      type: "constant"
      value: 0
    }
    engine: CUDNN
  }
}
layer {
  name: "conv2-dsn3"
  type: "Convolution"
  bottom: "conv1-dsn3"
  top: "conv2-dsn3"
  param {
    lr_mult: 1
    decay_mult: 1
  }
  param {
    lr_mult: 2
    decay_mult: 0
  }
  convolution_param {
    num_output: 64
    pad: 1
    kernel_size: 3
    weight_filler {
      type: "gaussian"
      std: 0.01
    }
    bias_filler {
      type: "constant"
      value: 0
    }
    engine: CUDNN
  }
}
layer {
  name: "relu1-dsn3"
  type: "ReLU"
  bottom: "conv2-dsn3"
  top: "conv2-dsn3"
}
layer {
  name: "conv3-dsn3"
  type: "Convolution"
  bottom: "conv2-dsn3"
  top: "conv3-dsn3"
  param {
    lr_mult: 1
    decay_mult: 1
  }
  param {
    lr_mult: 2
    decay_mult: 0
  }
  convolution_param {
    num_output: 64
    pad: 1
    kernel_size: 3
    weight_filler {
      type: "gaussian"
      std: 0.01
    }
    bias_filler {
      type: "constant"
      value: 0
    }
    engine: CUDNN
  }
}
layer {
  name: "relu2-dsn3"
  type: "ReLU"
  bottom: "conv3-dsn3"
  top: "conv3-dsn3"
}
layer {
  name: "conv4-dsn3"
  type: "Convolution"
  bottom: "conv3-dsn3"
  top: "conv4-dsn3"
  param {
    lr_mult: 1
    decay_mult: 1
  }
  param {
    lr_mult: 2
    decay_mult: 0
  }
  convolution_param {
    num_output: 1
    pad: 1
    kernel_size: 3
    weight_filler {
      type: "gaussian"
      std: 0.01
    }
    bias_filler {
      type: "constant"
      value: 0
    }
    engine: CUDNN
  }
}
layer {
  name: "sum-dsn3"
  type: "Eltwise"
  bottom: "conv4-dsn3"
  bottom: "weight-dsn4-3"
  top: "sum-dsn3"
  eltwise_param {
    operation: SUM
  }
}
layer {
  name: "upsample4_dsn3"
  type: "Deconvolution"
  bottom: "sum-dsn3"
  top: "sum-dsn3-up"
  param {
    lr_mult: 0
    decay_mult: 1
  }
  param {
    lr_mult: 0
    decay_mult: 0
  }
  convolution_param {
    num_output: 1
    kernel_size: 8
    stride: 4
  }
}
layer {
  name: "crop2-dsn3"
  type: "Crop"
  bottom: "sum-dsn3-up"
  bottom: "data"
  top: "upscore-dsn3"
}
layer {
  name: "loss3-score"
  type: "SigmoidCrossEntropyLoss"
  bottom: "upscore-dsn3"
  bottom: "label"
  top: "loss3-score"
  loss_weight: 1
}
layer {
  name: "upsample2_1-dsn2"
  type: "Deconvolution"
  bottom: "sum-dsn3"
  top: "sum-dsn3-2"
  param {
    lr_mult: 0
    decay_mult: 1
  }
  param {
    lr_mult: 0
    decay_mult: 0
  }
  convolution_param {
    num_output: 1
    kernel_size: 4
    stride: 2
  }
}
layer {
  name: "crop1-dsn2"
  type: "Crop"
  bottom: "sum-dsn3-2"
  bottom: "conv2_2"
  top: "weight-dsn3-2"
}
layer {
  name: "sigmoid-dsn2"
  type: "Sigmoid"
  bottom: "weight-dsn3-2"
  top: "sigmoid-dsn2"
}
layer {
  name: "rev-dsn2"
  type: "Power"
  bottom: "sigmoid-dsn2"
  top: "rev-dsn2"
  power_param {
    power: 1
    scale: -1
    shift: 1
  }
}
layer {
  name: "tile-dsn2"
  type: "Tile"
  bottom: "rev-dsn2"
  top: "weight-dsn2"
  tile_param {
    tiles: 128
  }
}
layer {
  name: "prod1-dsn2"
  type: "Eltwise"
  bottom: "conv2_2"
  bottom: "weight-dsn2"
  top: "prod1-dsn2"
  eltwise_param {
    operation: PROD
  }
}
layer {
  name: "conv1-dsn2"
  type: "Convolution"
  bottom: "prod1-dsn2"
  top: "conv1-dsn2"
  param {
    lr_mult: 1
    decay_mult: 1
  }
  param {
    lr_mult: 2
    decay_mult: 0
  }
  convolution_param {
    num_output: 64
    kernel_size: 1
    weight_filler {
      type: "gaussian"
      std: 0.01
    }
    bias_filler {
      type: "constant"
      value: 0
    }
    engine: CUDNN
  }
}
layer {
  name: "conv2-dsn2"
  type: "Convolution"
  bottom: "conv1-dsn2"
  top: "conv2-dsn2"
  param {
    lr_mult: 1
    decay_mult: 1
  }
  param {
    lr_mult: 2
    decay_mult: 0
  }
  convolution_param {
    num_output: 64
    pad: 1
    kernel_size: 3
    weight_filler {
      type: "gaussian"
      std: 0.01
    }
    bias_filler {
      type: "constant"
      value: 0
    }
    engine: CUDNN
  }
}
layer {
  name: "relu1-dsn2"
  type: "ReLU"
  bottom: "conv2-dsn2"
  top: "conv2-dsn2"
}
layer {
  name: "conv3-dsn2"
  type: "Convolution"
  bottom: "conv2-dsn2"
  top: "conv3-dsn2"
  param {
    lr_mult: 1
    decay_mult: 1
  }
  param {
    lr_mult: 2
    decay_mult: 0
  }
  convolution_param {
    num_output: 64
    pad: 1
    kernel_size: 3
    weight_filler {
      type: "gaussian"
      std: 0.01
    }
    bias_filler {
      type: "constant"
      value: 0
    }
    engine: CUDNN
  }
}
layer {
  name: "relu2-dsn2"
  type: "ReLU"
  bottom: "conv3-dsn2"
  top: "conv3-dsn2"
}
layer {
  name: "conv4-dsn2"
  type: "Convolution"
  bottom: "conv3-dsn2"
  top: "conv4-dsn2"
  param {
    lr_mult: 1
    decay_mult: 1
  }
  param {
    lr_mult: 2
    decay_mult: 0
  }
  convolution_param {
    num_output: 1
    pad: 1
    kernel_size: 3
    weight_filler {
      type: "gaussian"
      std: 0.01
    }
    bias_filler {
      type: "constant"
      value: 0
    }
    engine: CUDNN
  }
}
layer {
  name: "sum-dsn2"
  type: "Eltwise"
  bottom: "conv4-dsn2"
  bottom: "weight-dsn3-2"
  top: "sum-dsn2"
  eltwise_param {
    operation: SUM
  }
}
layer {
  name: "upsample2_2-dsn2"
  type: "Deconvolution"
  bottom: "sum-dsn2"
  top: "sum-dsn2-up"
  param {
    lr_mult: 0
    decay_mult: 1
  }
  param {
    lr_mult: 0
    decay_mult: 0
  }
  convolution_param {
    num_output: 1
    kernel_size: 4
    stride: 2
  }
}
layer {
  name: "crop2-dsn2"
  type: "Crop"
  bottom: "sum-dsn2-up"
  bottom: "data"
  top: "upscore-dsn2"
}
layer {
  name: "loss2-score"
  type: "SigmoidCrossEntropyLoss"
  bottom: "upscore-dsn2"
  bottom: "label"
  top: "loss2-score"
  loss_weight: 1
}
layer {
  name: "sigmoid-dsn1"
  type: "Sigmoid"
  bottom: "upscore-dsn2"
  top: "sigmoid-dsn1"
}
layer {
  name: "rev-dsn1"
  type: "Power"
  bottom: "sigmoid-dsn1"
  top: "rev-dsn1"
  power_param {
    power: 1
    scale: -1
    shift: 1
  }
}
layer {
  name: "tile-dsn1"
  type: "Tile"
  bottom: "rev-dsn1"
  top: "weight-dsn1"
  tile_param {
    tiles: 64
  }
}
layer {
  name: "prod1-dsn1"
  type: "Eltwise"
  bottom: "conv1_2"
  bottom: "weight-dsn1"
  top: "prod1-dsn1"
  eltwise_param {
    operation: PROD
  }
}
layer {
  name: "conv1-dsn1"
  type: "Convolution"
  bottom: "prod1-dsn1"
  top: "conv1-dsn1"
  param {
    lr_mult: 1
    decay_mult: 1
  }
  param {
    lr_mult: 2
    decay_mult: 0
  }
  convolution_param {
    num_output: 64
    kernel_size: 1
    weight_filler {
      type: "gaussian"
      std: 0.01
    }
    bias_filler {
      type: "constant"
      value: 0
    }
    engine: CUDNN
  }
}
layer {
  name: "conv2-dsn1"
  type: "Convolution"
  bottom: "conv1-dsn1"
  top: "conv2-dsn1"
  param {
    lr_mult: 1
    decay_mult: 1
  }
  param {
    lr_mult: 2
    decay_mult: 0
  }
  convolution_param {
    num_output: 64
    pad: 1
    kernel_size: 3
    weight_filler {
      type: "gaussian"
      std: 0.01
    }
    bias_filler {
      type: "constant"
      value: 0
    }
    engine: CUDNN
  }
}
layer {
  name: "relu1-dsn1"
  type: "ReLU"
  bottom: "conv2-dsn1"
  top: "conv2-dsn1"
}
layer {
  name: "conv3-dsn1"
  type: "Convolution"
  bottom: "conv2-dsn1"
  top: "conv3-dsn1"
  param {
    lr_mult: 1
    decay_mult: 1
  }
  param {
    lr_mult: 2
    decay_mult: 0
  }
  convolution_param {
    num_output: 64
    pad: 1
    kernel_size: 3
    weight_filler {
      type: "gaussian"
      std: 0.01
    }
    bias_filler {
      type: "constant"
      value: 0
    }
    engine: CUDNN
  }
}
layer {
  name: "relu2-dsn1"
  type: "ReLU"
  bottom: "conv3-dsn1"
  top: "conv3-dsn1"
}
layer {
  name: "conv4-dsn1"
  type: "Convolution"
  bottom: "conv3-dsn1"
  top: "conv4-dsn1"
  param {
    lr_mult: 1
    decay_mult: 1
  }
  param {
    lr_mult: 2
    decay_mult: 0
  }
  convolution_param {
    num_output: 1
    pad: 1
    kernel_size: 3
    weight_filler {
      type: "gaussian"
      std: 0.01
    }
    bias_filler {
      type: "constant"
      value: 0
    }
    engine: CUDNN
  }
}
layer {
  name: "sum-dsn1"
  type: "Eltwise"
  bottom: "conv4-dsn1"
  bottom: "upscore-dsn2"
  top: "sum-dsn1"
  eltwise_param {
    operation: SUM
  }
}
layer {
  name: "crop2-dsn1"
  type: "Crop"
  bottom: "sum-dsn1"
  bottom: "data"
  top: "upscore-dsn1"
}
layer {
  name: "loss1-score"
  type: "SigmoidCrossEntropyLoss"
  bottom: "upscore-dsn1"
  bottom: "label"
  top: "loss1-score"
  loss_weight: 1
}
I1125 10:17:14.415158 17185 layer_factory.hpp:77] Creating layer data
I1125 10:17:14.415171 17185 net.cpp:100] Creating Layer data
I1125 10:17:14.415174 17185 net.cpp:408] data -> data
I1125 10:17:14.415181 17185 net.cpp:408] data -> label
I1125 10:17:14.415189 17185 image_labelmap_data_layer.cpp:41] Opening file /media/compute/homes/galberding/FleckDetect/Datasets/val.txt
I1125 10:17:14.416872 17185 image_labelmap_data_layer.cpp:56] A total of 1200 images.
I1125 10:17:14.431722 17185 image_labelmap_data_layer.cpp:110] output data size: 1,3,500,500
I1125 10:17:14.431730 17185 image_labelmap_data_layer.cpp:113] output label size: 1,1,500,500
I1125 10:17:14.439791 17185 net.cpp:150] Setting up data
I1125 10:17:14.439805 17185 net.cpp:157] Top shape: 1 3 500 500 (750000)
I1125 10:17:14.439808 17185 net.cpp:157] Top shape: 1 1 500 500 (250000)
I1125 10:17:14.439810 17185 net.cpp:165] Memory required for data: 4000000
I1125 10:17:14.439813 17185 layer_factory.hpp:77] Creating layer data_data_0_split
I1125 10:17:14.439821 17185 net.cpp:100] Creating Layer data_data_0_split
I1125 10:17:14.439824 17185 net.cpp:434] data_data_0_split <- data
I1125 10:17:14.439829 17185 net.cpp:408] data_data_0_split -> data_data_0_split_0
I1125 10:17:14.439838 17185 net.cpp:408] data_data_0_split -> data_data_0_split_1
I1125 10:17:14.439843 17185 net.cpp:408] data_data_0_split -> data_data_0_split_2
I1125 10:17:14.439848 17185 net.cpp:408] data_data_0_split -> data_data_0_split_3
I1125 10:17:14.439852 17185 net.cpp:408] data_data_0_split -> data_data_0_split_4
I1125 10:17:14.439857 17185 net.cpp:408] data_data_0_split -> data_data_0_split_5
I1125 10:17:14.439860 17185 net.cpp:408] data_data_0_split -> data_data_0_split_6
I1125 10:17:14.439973 17185 net.cpp:150] Setting up data_data_0_split
I1125 10:17:14.439980 17185 net.cpp:157] Top shape: 1 3 500 500 (750000)
I1125 10:17:14.439982 17185 net.cpp:157] Top shape: 1 3 500 500 (750000)
I1125 10:17:14.439985 17185 net.cpp:157] Top shape: 1 3 500 500 (750000)
I1125 10:17:14.439988 17185 net.cpp:157] Top shape: 1 3 500 500 (750000)
I1125 10:17:14.439990 17185 net.cpp:157] Top shape: 1 3 500 500 (750000)
I1125 10:17:14.439993 17185 net.cpp:157] Top shape: 1 3 500 500 (750000)
I1125 10:17:14.439996 17185 net.cpp:157] Top shape: 1 3 500 500 (750000)
I1125 10:17:14.439998 17185 net.cpp:165] Memory required for data: 25000000
I1125 10:17:14.440001 17185 layer_factory.hpp:77] Creating layer label_data_1_split
I1125 10:17:14.440006 17185 net.cpp:100] Creating Layer label_data_1_split
I1125 10:17:14.440008 17185 net.cpp:434] label_data_1_split <- label
I1125 10:17:14.440013 17185 net.cpp:408] label_data_1_split -> label_data_1_split_0
I1125 10:17:14.440017 17185 net.cpp:408] label_data_1_split -> label_data_1_split_1
I1125 10:17:14.440022 17185 net.cpp:408] label_data_1_split -> label_data_1_split_2
I1125 10:17:14.440027 17185 net.cpp:408] label_data_1_split -> label_data_1_split_3
I1125 10:17:14.440030 17185 net.cpp:408] label_data_1_split -> label_data_1_split_4
I1125 10:17:14.440034 17185 net.cpp:408] label_data_1_split -> label_data_1_split_5
I1125 10:17:14.440251 17185 net.cpp:150] Setting up label_data_1_split
I1125 10:17:14.440258 17185 net.cpp:157] Top shape: 1 1 500 500 (250000)
I1125 10:17:14.440261 17185 net.cpp:157] Top shape: 1 1 500 500 (250000)
I1125 10:17:14.440264 17185 net.cpp:157] Top shape: 1 1 500 500 (250000)
I1125 10:17:14.440268 17185 net.cpp:157] Top shape: 1 1 500 500 (250000)
I1125 10:17:14.440270 17185 net.cpp:157] Top shape: 1 1 500 500 (250000)
I1125 10:17:14.440273 17185 net.cpp:157] Top shape: 1 1 500 500 (250000)
I1125 10:17:14.440274 17185 net.cpp:165] Memory required for data: 31000000
I1125 10:17:14.440277 17185 layer_factory.hpp:77] Creating layer conv1_1
I1125 10:17:14.440285 17185 net.cpp:100] Creating Layer conv1_1
I1125 10:17:14.440287 17185 net.cpp:434] conv1_1 <- data_data_0_split_0
I1125 10:17:14.440292 17185 net.cpp:408] conv1_1 -> conv1_1
I1125 10:17:14.443076 17185 net.cpp:150] Setting up conv1_1
I1125 10:17:14.443087 17185 net.cpp:157] Top shape: 1 64 500 500 (16000000)
I1125 10:17:14.443089 17185 net.cpp:165] Memory required for data: 95000000
I1125 10:17:14.443099 17185 layer_factory.hpp:77] Creating layer relu1_1
I1125 10:17:14.443104 17185 net.cpp:100] Creating Layer relu1_1
I1125 10:17:14.443106 17185 net.cpp:434] relu1_1 <- conv1_1
I1125 10:17:14.443110 17185 net.cpp:395] relu1_1 -> conv1_1 (in-place)
I1125 10:17:14.443306 17185 net.cpp:150] Setting up relu1_1
I1125 10:17:14.443315 17185 net.cpp:157] Top shape: 1 64 500 500 (16000000)
I1125 10:17:14.443317 17185 net.cpp:165] Memory required for data: 159000000
I1125 10:17:14.443320 17185 layer_factory.hpp:77] Creating layer conv1_2
I1125 10:17:14.443326 17185 net.cpp:100] Creating Layer conv1_2
I1125 10:17:14.443328 17185 net.cpp:434] conv1_2 <- conv1_1
I1125 10:17:14.443333 17185 net.cpp:408] conv1_2 -> conv1_2
I1125 10:17:14.444567 17185 net.cpp:150] Setting up conv1_2
I1125 10:17:14.444578 17185 net.cpp:157] Top shape: 1 64 500 500 (16000000)
I1125 10:17:14.444581 17185 net.cpp:165] Memory required for data: 223000000
I1125 10:17:14.444587 17185 layer_factory.hpp:77] Creating layer relu1_2
I1125 10:17:14.444592 17185 net.cpp:100] Creating Layer relu1_2
I1125 10:17:14.444594 17185 net.cpp:434] relu1_2 <- conv1_2
I1125 10:17:14.444598 17185 net.cpp:395] relu1_2 -> conv1_2 (in-place)
I1125 10:17:14.445029 17185 net.cpp:150] Setting up relu1_2
I1125 10:17:14.445039 17185 net.cpp:157] Top shape: 1 64 500 500 (16000000)
I1125 10:17:14.445041 17185 net.cpp:165] Memory required for data: 287000000
I1125 10:17:14.445044 17185 layer_factory.hpp:77] Creating layer conv1_2_relu1_2_0_split
I1125 10:17:14.445049 17185 net.cpp:100] Creating Layer conv1_2_relu1_2_0_split
I1125 10:17:14.445051 17185 net.cpp:434] conv1_2_relu1_2_0_split <- conv1_2
I1125 10:17:14.445055 17185 net.cpp:408] conv1_2_relu1_2_0_split -> conv1_2_relu1_2_0_split_0
I1125 10:17:14.445060 17185 net.cpp:408] conv1_2_relu1_2_0_split -> conv1_2_relu1_2_0_split_1
I1125 10:17:14.445101 17185 net.cpp:150] Setting up conv1_2_relu1_2_0_split
I1125 10:17:14.445104 17185 net.cpp:157] Top shape: 1 64 500 500 (16000000)
I1125 10:17:14.445106 17185 net.cpp:157] Top shape: 1 64 500 500 (16000000)
I1125 10:17:14.445108 17185 net.cpp:165] Memory required for data: 415000000
I1125 10:17:14.445111 17185 layer_factory.hpp:77] Creating layer pool1
I1125 10:17:14.445116 17185 net.cpp:100] Creating Layer pool1
I1125 10:17:14.445119 17185 net.cpp:434] pool1 <- conv1_2_relu1_2_0_split_0
I1125 10:17:14.445122 17185 net.cpp:408] pool1 -> pool1
I1125 10:17:14.445165 17185 net.cpp:150] Setting up pool1
I1125 10:17:14.445175 17185 net.cpp:157] Top shape: 1 64 250 250 (4000000)
I1125 10:17:14.445178 17185 net.cpp:165] Memory required for data: 431000000
I1125 10:17:14.445179 17185 layer_factory.hpp:77] Creating layer conv2_1
I1125 10:17:14.445188 17185 net.cpp:100] Creating Layer conv2_1
I1125 10:17:14.445190 17185 net.cpp:434] conv2_1 <- pool1
I1125 10:17:14.445194 17185 net.cpp:408] conv2_1 -> conv2_1
I1125 10:17:14.446295 17185 net.cpp:150] Setting up conv2_1
I1125 10:17:14.446305 17185 net.cpp:157] Top shape: 1 128 250 250 (8000000)
I1125 10:17:14.446306 17185 net.cpp:165] Memory required for data: 463000000
I1125 10:17:14.446314 17185 layer_factory.hpp:77] Creating layer relu2_1
I1125 10:17:14.446318 17185 net.cpp:100] Creating Layer relu2_1
I1125 10:17:14.446321 17185 net.cpp:434] relu2_1 <- conv2_1
I1125 10:17:14.446326 17185 net.cpp:395] relu2_1 -> conv2_1 (in-place)
I1125 10:17:14.446736 17185 net.cpp:150] Setting up relu2_1
I1125 10:17:14.446745 17185 net.cpp:157] Top shape: 1 128 250 250 (8000000)
I1125 10:17:14.446748 17185 net.cpp:165] Memory required for data: 495000000
I1125 10:17:14.446750 17185 layer_factory.hpp:77] Creating layer conv2_2
I1125 10:17:14.446756 17185 net.cpp:100] Creating Layer conv2_2
I1125 10:17:14.446758 17185 net.cpp:434] conv2_2 <- conv2_1
I1125 10:17:14.446763 17185 net.cpp:408] conv2_2 -> conv2_2
I1125 10:17:14.449206 17185 net.cpp:150] Setting up conv2_2
I1125 10:17:14.449218 17185 net.cpp:157] Top shape: 1 128 250 250 (8000000)
I1125 10:17:14.449219 17185 net.cpp:165] Memory required for data: 527000000
I1125 10:17:14.449225 17185 layer_factory.hpp:77] Creating layer relu2_2
I1125 10:17:14.449230 17185 net.cpp:100] Creating Layer relu2_2
I1125 10:17:14.449234 17185 net.cpp:434] relu2_2 <- conv2_2
I1125 10:17:14.449237 17185 net.cpp:395] relu2_2 -> conv2_2 (in-place)
I1125 10:17:14.449403 17185 net.cpp:150] Setting up relu2_2
I1125 10:17:14.449409 17185 net.cpp:157] Top shape: 1 128 250 250 (8000000)
I1125 10:17:14.449411 17185 net.cpp:165] Memory required for data: 559000000
I1125 10:17:14.449414 17185 layer_factory.hpp:77] Creating layer conv2_2_relu2_2_0_split
I1125 10:17:14.449419 17185 net.cpp:100] Creating Layer conv2_2_relu2_2_0_split
I1125 10:17:14.449420 17185 net.cpp:434] conv2_2_relu2_2_0_split <- conv2_2
I1125 10:17:14.449425 17185 net.cpp:408] conv2_2_relu2_2_0_split -> conv2_2_relu2_2_0_split_0
I1125 10:17:14.449431 17185 net.cpp:408] conv2_2_relu2_2_0_split -> conv2_2_relu2_2_0_split_1
I1125 10:17:14.449435 17185 net.cpp:408] conv2_2_relu2_2_0_split -> conv2_2_relu2_2_0_split_2
I1125 10:17:14.449489 17185 net.cpp:150] Setting up conv2_2_relu2_2_0_split
I1125 10:17:14.449496 17185 net.cpp:157] Top shape: 1 128 250 250 (8000000)
I1125 10:17:14.449498 17185 net.cpp:157] Top shape: 1 128 250 250 (8000000)
I1125 10:17:14.449501 17185 net.cpp:157] Top shape: 1 128 250 250 (8000000)
I1125 10:17:14.449503 17185 net.cpp:165] Memory required for data: 655000000
I1125 10:17:14.449506 17185 layer_factory.hpp:77] Creating layer pool2
I1125 10:17:14.449509 17185 net.cpp:100] Creating Layer pool2
I1125 10:17:14.449512 17185 net.cpp:434] pool2 <- conv2_2_relu2_2_0_split_0
I1125 10:17:14.449517 17185 net.cpp:408] pool2 -> pool2
I1125 10:17:14.449550 17185 net.cpp:150] Setting up pool2
I1125 10:17:14.449555 17185 net.cpp:157] Top shape: 1 128 125 125 (2000000)
I1125 10:17:14.449558 17185 net.cpp:165] Memory required for data: 663000000
I1125 10:17:14.449560 17185 layer_factory.hpp:77] Creating layer conv3_1
I1125 10:17:14.449566 17185 net.cpp:100] Creating Layer conv3_1
I1125 10:17:14.449568 17185 net.cpp:434] conv3_1 <- pool2
I1125 10:17:14.449573 17185 net.cpp:408] conv3_1 -> conv3_1
I1125 10:17:14.452030 17185 net.cpp:150] Setting up conv3_1
I1125 10:17:14.452041 17185 net.cpp:157] Top shape: 1 256 125 125 (4000000)
I1125 10:17:14.452044 17185 net.cpp:165] Memory required for data: 679000000
I1125 10:17:14.452054 17185 layer_factory.hpp:77] Creating layer relu3_1
I1125 10:17:14.452060 17185 net.cpp:100] Creating Layer relu3_1
I1125 10:17:14.452064 17185 net.cpp:434] relu3_1 <- conv3_1
I1125 10:17:14.452067 17185 net.cpp:395] relu3_1 -> conv3_1 (in-place)
I1125 10:17:14.452258 17185 net.cpp:150] Setting up relu3_1
I1125 10:17:14.452266 17185 net.cpp:157] Top shape: 1 256 125 125 (4000000)
I1125 10:17:14.452268 17185 net.cpp:165] Memory required for data: 695000000
I1125 10:17:14.452270 17185 layer_factory.hpp:77] Creating layer conv3_2
I1125 10:17:14.452277 17185 net.cpp:100] Creating Layer conv3_2
I1125 10:17:14.452280 17185 net.cpp:434] conv3_2 <- conv3_1
I1125 10:17:14.452284 17185 net.cpp:408] conv3_2 -> conv3_2
I1125 10:17:14.455340 17185 net.cpp:150] Setting up conv3_2
I1125 10:17:14.455354 17185 net.cpp:157] Top shape: 1 256 125 125 (4000000)
I1125 10:17:14.455358 17185 net.cpp:165] Memory required for data: 711000000
I1125 10:17:14.455364 17185 layer_factory.hpp:77] Creating layer relu3_2
I1125 10:17:14.455370 17185 net.cpp:100] Creating Layer relu3_2
I1125 10:17:14.455374 17185 net.cpp:434] relu3_2 <- conv3_2
I1125 10:17:14.455380 17185 net.cpp:395] relu3_2 -> conv3_2 (in-place)
I1125 10:17:14.455605 17185 net.cpp:150] Setting up relu3_2
I1125 10:17:14.455613 17185 net.cpp:157] Top shape: 1 256 125 125 (4000000)
I1125 10:17:14.455615 17185 net.cpp:165] Memory required for data: 727000000
I1125 10:17:14.455618 17185 layer_factory.hpp:77] Creating layer conv3_3
I1125 10:17:14.455624 17185 net.cpp:100] Creating Layer conv3_3
I1125 10:17:14.455627 17185 net.cpp:434] conv3_3 <- conv3_2
I1125 10:17:14.455632 17185 net.cpp:408] conv3_3 -> conv3_3
I1125 10:17:14.458477 17185 net.cpp:150] Setting up conv3_3
I1125 10:17:14.458487 17185 net.cpp:157] Top shape: 1 256 125 125 (4000000)
I1125 10:17:14.458489 17185 net.cpp:165] Memory required for data: 743000000
I1125 10:17:14.458495 17185 layer_factory.hpp:77] Creating layer relu3_3
I1125 10:17:14.458500 17185 net.cpp:100] Creating Layer relu3_3
I1125 10:17:14.458503 17185 net.cpp:434] relu3_3 <- conv3_3
I1125 10:17:14.458508 17185 net.cpp:395] relu3_3 -> conv3_3 (in-place)
I1125 10:17:14.458667 17185 net.cpp:150] Setting up relu3_3
I1125 10:17:14.458674 17185 net.cpp:157] Top shape: 1 256 125 125 (4000000)
I1125 10:17:14.458676 17185 net.cpp:165] Memory required for data: 759000000
I1125 10:17:14.458678 17185 layer_factory.hpp:77] Creating layer conv3_3_relu3_3_0_split
I1125 10:17:14.458683 17185 net.cpp:100] Creating Layer conv3_3_relu3_3_0_split
I1125 10:17:14.458686 17185 net.cpp:434] conv3_3_relu3_3_0_split <- conv3_3
I1125 10:17:14.458691 17185 net.cpp:408] conv3_3_relu3_3_0_split -> conv3_3_relu3_3_0_split_0
I1125 10:17:14.458696 17185 net.cpp:408] conv3_3_relu3_3_0_split -> conv3_3_relu3_3_0_split_1
I1125 10:17:14.458701 17185 net.cpp:408] conv3_3_relu3_3_0_split -> conv3_3_relu3_3_0_split_2
I1125 10:17:14.458757 17185 net.cpp:150] Setting up conv3_3_relu3_3_0_split
I1125 10:17:14.458762 17185 net.cpp:157] Top shape: 1 256 125 125 (4000000)
I1125 10:17:14.458765 17185 net.cpp:157] Top shape: 1 256 125 125 (4000000)
I1125 10:17:14.458768 17185 net.cpp:157] Top shape: 1 256 125 125 (4000000)
I1125 10:17:14.458770 17185 net.cpp:165] Memory required for data: 807000000
I1125 10:17:14.458772 17185 layer_factory.hpp:77] Creating layer pool3
I1125 10:17:14.458777 17185 net.cpp:100] Creating Layer pool3
I1125 10:17:14.458781 17185 net.cpp:434] pool3 <- conv3_3_relu3_3_0_split_0
I1125 10:17:14.458784 17185 net.cpp:408] pool3 -> pool3
I1125 10:17:14.458825 17185 net.cpp:150] Setting up pool3
I1125 10:17:14.458832 17185 net.cpp:157] Top shape: 1 256 63 63 (1016064)
I1125 10:17:14.458833 17185 net.cpp:165] Memory required for data: 811064256
I1125 10:17:14.458835 17185 layer_factory.hpp:77] Creating layer conv4_1
I1125 10:17:14.458842 17185 net.cpp:100] Creating Layer conv4_1
I1125 10:17:14.458844 17185 net.cpp:434] conv4_1 <- pool3
I1125 10:17:14.458849 17185 net.cpp:408] conv4_1 -> conv4_1
I1125 10:17:14.463034 17185 net.cpp:150] Setting up conv4_1
I1125 10:17:14.463047 17185 net.cpp:157] Top shape: 1 512 63 63 (2032128)
I1125 10:17:14.463049 17185 net.cpp:165] Memory required for data: 819192768
I1125 10:17:14.463055 17185 layer_factory.hpp:77] Creating layer relu4_1
I1125 10:17:14.463059 17185 net.cpp:100] Creating Layer relu4_1
I1125 10:17:14.463063 17185 net.cpp:434] relu4_1 <- conv4_1
I1125 10:17:14.463066 17185 net.cpp:395] relu4_1 -> conv4_1 (in-place)
I1125 10:17:14.463596 17185 net.cpp:150] Setting up relu4_1
I1125 10:17:14.463608 17185 net.cpp:157] Top shape: 1 512 63 63 (2032128)
I1125 10:17:14.463609 17185 net.cpp:165] Memory required for data: 827321280
I1125 10:17:14.463611 17185 layer_factory.hpp:77] Creating layer conv4_2
I1125 10:17:14.463618 17185 net.cpp:100] Creating Layer conv4_2
I1125 10:17:14.463621 17185 net.cpp:434] conv4_2 <- conv4_1
I1125 10:17:14.463629 17185 net.cpp:408] conv4_2 -> conv4_2
I1125 10:17:14.469141 17185 net.cpp:150] Setting up conv4_2
I1125 10:17:14.469151 17185 net.cpp:157] Top shape: 1 512 63 63 (2032128)
I1125 10:17:14.469153 17185 net.cpp:165] Memory required for data: 835449792
I1125 10:17:14.469162 17185 layer_factory.hpp:77] Creating layer relu4_2
I1125 10:17:14.469168 17185 net.cpp:100] Creating Layer relu4_2
I1125 10:17:14.469172 17185 net.cpp:434] relu4_2 <- conv4_2
I1125 10:17:14.469177 17185 net.cpp:395] relu4_2 -> conv4_2 (in-place)
I1125 10:17:14.469630 17185 net.cpp:150] Setting up relu4_2
I1125 10:17:14.469640 17185 net.cpp:157] Top shape: 1 512 63 63 (2032128)
I1125 10:17:14.469642 17185 net.cpp:165] Memory required for data: 843578304
I1125 10:17:14.469645 17185 layer_factory.hpp:77] Creating layer conv4_3
I1125 10:17:14.469651 17185 net.cpp:100] Creating Layer conv4_3
I1125 10:17:14.469655 17185 net.cpp:434] conv4_3 <- conv4_2
I1125 10:17:14.469660 17185 net.cpp:408] conv4_3 -> conv4_3
I1125 10:17:14.476047 17185 net.cpp:150] Setting up conv4_3
I1125 10:17:14.476060 17185 net.cpp:157] Top shape: 1 512 63 63 (2032128)
I1125 10:17:14.476073 17185 net.cpp:165] Memory required for data: 851706816
I1125 10:17:14.476079 17185 layer_factory.hpp:77] Creating layer relu4_3
I1125 10:17:14.476085 17185 net.cpp:100] Creating Layer relu4_3
I1125 10:17:14.476089 17185 net.cpp:434] relu4_3 <- conv4_3
I1125 10:17:14.476094 17185 net.cpp:395] relu4_3 -> conv4_3 (in-place)
I1125 10:17:14.476277 17185 net.cpp:150] Setting up relu4_3
I1125 10:17:14.476285 17185 net.cpp:157] Top shape: 1 512 63 63 (2032128)
I1125 10:17:14.476287 17185 net.cpp:165] Memory required for data: 859835328
I1125 10:17:14.476290 17185 layer_factory.hpp:77] Creating layer conv4_3_relu4_3_0_split
I1125 10:17:14.476296 17185 net.cpp:100] Creating Layer conv4_3_relu4_3_0_split
I1125 10:17:14.476299 17185 net.cpp:434] conv4_3_relu4_3_0_split <- conv4_3
I1125 10:17:14.476303 17185 net.cpp:408] conv4_3_relu4_3_0_split -> conv4_3_relu4_3_0_split_0
I1125 10:17:14.476310 17185 net.cpp:408] conv4_3_relu4_3_0_split -> conv4_3_relu4_3_0_split_1
I1125 10:17:14.476315 17185 net.cpp:408] conv4_3_relu4_3_0_split -> conv4_3_relu4_3_0_split_2
I1125 10:17:14.476374 17185 net.cpp:150] Setting up conv4_3_relu4_3_0_split
I1125 10:17:14.476379 17185 net.cpp:157] Top shape: 1 512 63 63 (2032128)
I1125 10:17:14.476382 17185 net.cpp:157] Top shape: 1 512 63 63 (2032128)
I1125 10:17:14.476385 17185 net.cpp:157] Top shape: 1 512 63 63 (2032128)
I1125 10:17:14.476387 17185 net.cpp:165] Memory required for data: 884220864
I1125 10:17:14.476389 17185 layer_factory.hpp:77] Creating layer pool4
I1125 10:17:14.476397 17185 net.cpp:100] Creating Layer pool4
I1125 10:17:14.476399 17185 net.cpp:434] pool4 <- conv4_3_relu4_3_0_split_0
I1125 10:17:14.476404 17185 net.cpp:408] pool4 -> pool4
I1125 10:17:14.476459 17185 net.cpp:150] Setting up pool4
I1125 10:17:14.476464 17185 net.cpp:157] Top shape: 1 512 32 32 (524288)
I1125 10:17:14.476466 17185 net.cpp:165] Memory required for data: 886318016
I1125 10:17:14.476469 17185 layer_factory.hpp:77] Creating layer conv5_1
I1125 10:17:14.476475 17185 net.cpp:100] Creating Layer conv5_1
I1125 10:17:14.476477 17185 net.cpp:434] conv5_1 <- pool4
I1125 10:17:14.476482 17185 net.cpp:408] conv5_1 -> conv5_1
I1125 10:17:14.482607 17185 net.cpp:150] Setting up conv5_1
I1125 10:17:14.482620 17185 net.cpp:157] Top shape: 1 512 32 32 (524288)
I1125 10:17:14.482621 17185 net.cpp:165] Memory required for data: 888415168
I1125 10:17:14.482627 17185 layer_factory.hpp:77] Creating layer relu5_1
I1125 10:17:14.482640 17185 net.cpp:100] Creating Layer relu5_1
I1125 10:17:14.482642 17185 net.cpp:434] relu5_1 <- conv5_1
I1125 10:17:14.482646 17185 net.cpp:395] relu5_1 -> conv5_1 (in-place)
I1125 10:17:14.482803 17185 net.cpp:150] Setting up relu5_1
I1125 10:17:14.482810 17185 net.cpp:157] Top shape: 1 512 32 32 (524288)
I1125 10:17:14.482811 17185 net.cpp:165] Memory required for data: 890512320
I1125 10:17:14.482815 17185 layer_factory.hpp:77] Creating layer conv5_2
I1125 10:17:14.482821 17185 net.cpp:100] Creating Layer conv5_2
I1125 10:17:14.482825 17185 net.cpp:434] conv5_2 <- conv5_1
I1125 10:17:14.482830 17185 net.cpp:408] conv5_2 -> conv5_2
I1125 10:17:14.488636 17185 net.cpp:150] Setting up conv5_2
I1125 10:17:14.488648 17185 net.cpp:157] Top shape: 1 512 32 32 (524288)
I1125 10:17:14.488651 17185 net.cpp:165] Memory required for data: 892609472
I1125 10:17:14.488656 17185 layer_factory.hpp:77] Creating layer relu5_2
I1125 10:17:14.488662 17185 net.cpp:100] Creating Layer relu5_2
I1125 10:17:14.488664 17185 net.cpp:434] relu5_2 <- conv5_2
I1125 10:17:14.488668 17185 net.cpp:395] relu5_2 -> conv5_2 (in-place)
I1125 10:17:14.488871 17185 net.cpp:150] Setting up relu5_2
I1125 10:17:14.488879 17185 net.cpp:157] Top shape: 1 512 32 32 (524288)
I1125 10:17:14.488881 17185 net.cpp:165] Memory required for data: 894706624
I1125 10:17:14.488884 17185 layer_factory.hpp:77] Creating layer conv5_3
I1125 10:17:14.488907 17185 net.cpp:100] Creating Layer conv5_3
I1125 10:17:14.488910 17185 net.cpp:434] conv5_3 <- conv5_2
I1125 10:17:14.488931 17185 net.cpp:408] conv5_3 -> conv5_3
I1125 10:17:14.495611 17185 net.cpp:150] Setting up conv5_3
I1125 10:17:14.495623 17185 net.cpp:157] Top shape: 1 512 32 32 (524288)
I1125 10:17:14.495625 17185 net.cpp:165] Memory required for data: 896803776
I1125 10:17:14.495631 17185 layer_factory.hpp:77] Creating layer relu5_3
I1125 10:17:14.495636 17185 net.cpp:100] Creating Layer relu5_3
I1125 10:17:14.495638 17185 net.cpp:434] relu5_3 <- conv5_3
I1125 10:17:14.495642 17185 net.cpp:395] relu5_3 -> conv5_3 (in-place)
I1125 10:17:14.495807 17185 net.cpp:150] Setting up relu5_3
I1125 10:17:14.495815 17185 net.cpp:157] Top shape: 1 512 32 32 (524288)
I1125 10:17:14.495817 17185 net.cpp:165] Memory required for data: 898900928
I1125 10:17:14.495820 17185 layer_factory.hpp:77] Creating layer conv5_3_relu5_3_0_split
I1125 10:17:14.495826 17185 net.cpp:100] Creating Layer conv5_3_relu5_3_0_split
I1125 10:17:14.495827 17185 net.cpp:434] conv5_3_relu5_3_0_split <- conv5_3
I1125 10:17:14.495833 17185 net.cpp:408] conv5_3_relu5_3_0_split -> conv5_3_relu5_3_0_split_0
I1125 10:17:14.495838 17185 net.cpp:408] conv5_3_relu5_3_0_split -> conv5_3_relu5_3_0_split_1
I1125 10:17:14.495842 17185 net.cpp:408] conv5_3_relu5_3_0_split -> conv5_3_relu5_3_0_split_2
I1125 10:17:14.495904 17185 net.cpp:150] Setting up conv5_3_relu5_3_0_split
I1125 10:17:14.495909 17185 net.cpp:157] Top shape: 1 512 32 32 (524288)
I1125 10:17:14.495913 17185 net.cpp:157] Top shape: 1 512 32 32 (524288)
I1125 10:17:14.495915 17185 net.cpp:157] Top shape: 1 512 32 32 (524288)
I1125 10:17:14.495918 17185 net.cpp:165] Memory required for data: 905192384
I1125 10:17:14.495919 17185 layer_factory.hpp:77] Creating layer pool5
I1125 10:17:14.495924 17185 net.cpp:100] Creating Layer pool5
I1125 10:17:14.495927 17185 net.cpp:434] pool5 <- conv5_3_relu5_3_0_split_0
I1125 10:17:14.495932 17185 net.cpp:408] pool5 -> pool5
I1125 10:17:14.495977 17185 net.cpp:150] Setting up pool5
…
I1125 10:17:14.551936 17185 net.cpp:165] Memory required for data: 907559872
I1125 10:17:14.551951 17185 layer_factory.hpp:77] Creating layer relu3-dsn6
I1125 10:17:14.551959 17185 net.cpp:100] Creating Layer relu3-dsn6
I1125 10:17:14.551960 17185 net.cpp:434] relu3-dsn6 <- conv4-dsn6
I1125 10:17:14.551964 17185 net.cpp:395] relu3-dsn6 -> conv4-dsn6 (in-place)
I1125 10:17:14.552135 17185 net.cpp:150] Setting up relu3-dsn6
I1125 10:17:14.552145 17185 net.cpp:157] Top shape: 1 256 17 17 (73984)
I1125 10:17:14.552146 17185 net.cpp:165] Memory required for data: 907855808
I1125 10:17:14.552148 17185 layer_factory.hpp:77] Creating layer conv5-dsn6
I1125 10:17:14.552157 17185 net.cpp:100] Creating Layer conv5-dsn6
I1125 10:17:14.552160 17185 net.cpp:434] conv5-dsn6 <- conv4-dsn6
I1125 10:17:14.552165 17185 net.cpp:408] conv5-dsn6 -> conv5-dsn6
I1125 10:17:14.553267 17185 net.cpp:150] Setting up conv5-dsn6
I1125 10:17:14.553275 17185 net.cpp:157] Top shape: 1 1 17 17 (289)
I1125 10:17:14.553278 17185 net.cpp:165] Memory required for data: 907856964
I1125 10:17:14.553282 17185 layer_factory.hpp:77] Creating layer conv5-dsn6_conv5-dsn6_0_split
I1125 10:17:14.553292 17185 net.cpp:100] Creating Layer conv5-dsn6_conv5-dsn6_0_split
I1125 10:17:14.553295 17185 net.cpp:434] conv5-dsn6_conv5-dsn6_0_split <- conv5-dsn6
I1125 10:17:14.553301 17185 net.cpp:408] conv5-dsn6_conv5-dsn6_0_split -> conv5-dsn6_conv5-dsn6_0_split_0
I1125 10:17:14.553306 17185 net.cpp:408] conv5-dsn6_conv5-dsn6_0_split -> conv5-dsn6_conv5-dsn6_0_split_1
I1125 10:17:14.553350 17185 net.cpp:150] Setting up conv5-dsn6_conv5-dsn6_0_split
I1125 10:17:14.553355 17185 net.cpp:157] Top shape: 1 1 17 17 (289)
I1125 10:17:14.553359 17185 net.cpp:157] Top shape: 1 1 17 17 (289)
I1125 10:17:14.553359 17185 net.cpp:165] Memory required for data: 907859276
I1125 10:17:14.553361 17185 layer_factory.hpp:77] Creating layer upsample32_dsn6
I1125 10:17:14.553367 17185 net.cpp:100] Creating Layer upsample32_dsn6
I1125 10:17:14.553370 17185 net.cpp:434] upsample32_dsn6 <- conv5-dsn6_conv5-dsn6_0_split_0
I1125 10:17:14.553375 17185 net.cpp:408] upsample32_dsn6 -> conv5-dsn6-up
I1125 10:17:14.554824 17185 net.cpp:150] Setting up upsample32_dsn6
I1125 10:17:14.554836 17185 net.cpp:157] Top shape: 1 1 576 576 (331776)
I1125 10:17:14.554838 17185 net.cpp:165] Memory required for data: 909186380
I1125 10:17:14.554843 17185 layer_factory.hpp:77] Creating layer crop-dsn6
I1125 10:17:14.554848 17185 net.cpp:100] Creating Layer crop-dsn6
I1125 10:17:14.554852 17185 net.cpp:434] crop-dsn6 <- conv5-dsn6-up
I1125 10:17:14.554855 17185 net.cpp:434] crop-dsn6 <- data_data_0_split_1
I1125 10:17:14.554859 17185 net.cpp:408] crop-dsn6 -> upscore-dsn6
I1125 10:17:14.554894 17185 net.cpp:150] Setting up crop-dsn6
I1125 10:17:14.554899 17185 net.cpp:157] Top shape: 1 1 500 500 (250000)
I1125 10:17:14.554901 17185 net.cpp:165] Memory required for data: 910186380
I1125 10:17:14.554903 17185 layer_factory.hpp:77] Creating layer loss6-score
I1125 10:17:14.554910 17185 net.cpp:100] Creating Layer loss6-score
I1125 10:17:14.554913 17185 net.cpp:434] loss6-score <- upscore-dsn6
I1125 10:17:14.554916 17185 net.cpp:434] loss6-score <- label_data_1_split_0
I1125 10:17:14.554920 17185 net.cpp:408] loss6-score -> loss6-score
I1125 10:17:14.556141 17185 net.cpp:150] Setting up loss6-score
I1125 10:17:14.556150 17185 net.cpp:157] Top shape: (1)
I1125 10:17:14.556152 17185 net.cpp:160]     with loss weight 1
I1125 10:17:14.556164 17185 net.cpp:165] Memory required for data: 910186384
I1125 10:17:14.556166 17185 layer_factory.hpp:77] Creating layer upsample2_dsn5
I1125 10:17:14.556175 17185 net.cpp:100] Creating Layer upsample2_dsn5
I1125 10:17:14.556179 17185 net.cpp:434] upsample2_dsn5 <- conv5-dsn6_conv5-dsn6_0_split_1
I1125 10:17:14.556185 17185 net.cpp:408] upsample2_dsn5 -> conv5-dsn6-5
I1125 10:17:14.556444 17185 net.cpp:150] Setting up upsample2_dsn5
I1125 10:17:14.556452 17185 net.cpp:157] Top shape: 1 1 36 36 (1296)
I1125 10:17:14.556453 17185 net.cpp:165] Memory required for data: 910191568
I1125 10:17:14.556457 17185 layer_factory.hpp:77] Creating layer crop1-dsn5
I1125 10:17:14.556463 17185 net.cpp:100] Creating Layer crop1-dsn5
I1125 10:17:14.556465 17185 net.cpp:434] crop1-dsn5 <- conv5-dsn6-5
I1125 10:17:14.556469 17185 net.cpp:434] crop1-dsn5 <- conv5_3_relu5_3_0_split_1
I1125 10:17:14.556473 17185 net.cpp:408] crop1-dsn5 -> weight-dsn6-5
I1125 10:17:14.556499 17185 net.cpp:150] Setting up crop1-dsn5
I1125 10:17:14.556502 17185 net.cpp:157] Top shape: 1 1 32 32 (1024)
I1125 10:17:14.556505 17185 net.cpp:165] Memory required for data: 910195664
I1125 10:17:14.556507 17185 layer_factory.hpp:77] Creating layer weight-dsn6-5_crop1-dsn5_0_split
I1125 10:17:14.556510 17185 net.cpp:100] Creating Layer weight-dsn6-5_crop1-dsn5_0_split
I1125 10:17:14.556514 17185 net.cpp:434] weight-dsn6-5_crop1-dsn5_0_split <- weight-dsn6-5
I1125 10:17:14.556519 17185 net.cpp:408] weight-dsn6-5_crop1-dsn5_0_split -> weight-dsn6-5_crop1-dsn5_0_split_0
I1125 10:17:14.556522 17185 net.cpp:408] weight-dsn6-5_crop1-dsn5_0_split -> weight-dsn6-5_crop1-dsn5_0_split_1
I1125 10:17:14.556560 17185 net.cpp:150] Setting up weight-dsn6-5_crop1-dsn5_0_split
I1125 10:17:14.556565 17185 net.cpp:157] Top shape: 1 1 32 32 (1024)
I1125 10:17:14.556568 17185 net.cpp:157] Top shape: 1 1 32 32 (1024)
I1125 10:17:14.556571 17185 net.cpp:165] Memory required for data: 910203856
I1125 10:17:14.556572 17185 layer_factory.hpp:77] Creating layer sigmoid-dsn5
I1125 10:17:14.556576 17185 net.cpp:100] Creating Layer sigmoid-dsn5
I1125 10:17:14.556578 17185 net.cpp:434] sigmoid-dsn5 <- weight-dsn6-5_crop1-dsn5_0_split_0
I1125 10:17:14.556582 17185 net.cpp:408] sigmoid-dsn5 -> sigmoid-dsn5
I1125 10:17:14.556784 17185 net.cpp:150] Setting up sigmoid-dsn5
I1125 10:17:14.556793 17185 net.cpp:157] Top shape: 1 1 32 32 (1024)
I1125 10:17:14.556795 17185 net.cpp:165] Memory required for data: 910207952
I1125 10:17:14.556797 17185 layer_factory.hpp:77] Creating layer rev-dsn5
I1125 10:17:14.556803 17185 net.cpp:100] Creating Layer rev-dsn5
I1125 10:17:14.556805 17185 net.cpp:434] rev-dsn5 <- sigmoid-dsn5
I1125 10:17:14.556809 17185 net.cpp:408] rev-dsn5 -> rev-dsn5
I1125 10:17:14.556836 17185 net.cpp:150] Setting up rev-dsn5
I1125 10:17:14.556840 17185 net.cpp:157] Top shape: 1 1 32 32 (1024)
I1125 10:17:14.556843 17185 net.cpp:165] Memory required for data: 910212048
I1125 10:17:14.556844 17185 layer_factory.hpp:77] Creating layer tile-dsn5
I1125 10:17:14.556851 17185 net.cpp:100] Creating Layer tile-dsn5
I1125 10:17:14.556854 17185 net.cpp:434] tile-dsn5 <- rev-dsn5
I1125 10:17:14.556857 17185 net.cpp:408] tile-dsn5 -> weight-dsn5
I1125 10:17:14.556882 17185 net.cpp:150] Setting up tile-dsn5
I1125 10:17:14.556886 17185 net.cpp:157] Top shape: 1 512 32 32 (524288)
I1125 10:17:14.556888 17185 net.cpp:165] Memory required for data: 912309200
I1125 10:17:14.556890 17185 layer_factory.hpp:77] Creating layer prod1-dsn5
I1125 10:17:14.556898 17185 net.cpp:100] Creating Layer prod1-dsn5
I1125 10:17:14.556900 17185 net.cpp:434] prod1-dsn5 <- conv5_3_relu5_3_0_split_2
I1125 10:17:14.556903 17185 net.cpp:434] prod1-dsn5 <- weight-dsn5
I1125 10:17:14.556907 17185 net.cpp:408] prod1-dsn5 -> prod1-dsn5
I1125 10:17:14.556954 17185 net.cpp:150] Setting up prod1-dsn5
I1125 10:17:14.556960 17185 net.cpp:157] Top shape: 1 512 32 32 (524288)
I1125 10:17:14.556962 17185 net.cpp:165] Memory required for data: 914406352
I1125 10:17:14.556964 17185 layer_factory.hpp:77] Creating layer conv1-dsn5
I1125 10:17:14.556972 17185 net.cpp:100] Creating Layer conv1-dsn5
I1125 10:17:14.556975 17185 net.cpp:434] conv1-dsn5 <- prod1-dsn5
I1125 10:17:14.556979 17185 net.cpp:408] conv1-dsn5 -> conv1-dsn5
I1125 10:17:14.558387 17185 net.cpp:150] Setting up conv1-dsn5
I1125 10:17:14.558399 17185 net.cpp:157] Top shape: 1 64 32 32 (65536)
I1125 10:17:14.558401 17185 net.cpp:165] Memory required for data: 914668496
I1125 10:17:14.558406 17185 layer_factory.hpp:77] Creating layer conv2-dsn5
I1125 10:17:14.558415 17185 net.cpp:100] Creating Layer conv2-dsn5
I1125 10:17:14.558418 17185 net.cpp:434] conv2-dsn5 <- conv1-dsn5
I1125 10:17:14.558424 17185 net.cpp:408] conv2-dsn5 -> conv2-dsn5
I1125 10:17:14.559815 17185 net.cpp:150] Setting up conv2-dsn5
I1125 10:17:14.559828 17185 net.cpp:157] Top shape: 1 64 32 32 (65536)
I1125 10:17:14.559829 17185 net.cpp:165] Memory required for data: 914930640
I1125 10:17:14.559834 17185 layer_factory.hpp:77] Creating layer relu1-dsn5
I1125 10:17:14.559839 17185 net.cpp:100] Creating Layer relu1-dsn5
I1125 10:17:14.559841 17185 net.cpp:434] relu1-dsn5 <- conv2-dsn5
I1125 10:17:14.559845 17185 net.cpp:395] relu1-dsn5 -> conv2-dsn5 (in-place)
I1125 10:17:14.560007 17185 net.cpp:150] Setting up relu1-dsn5
I1125 10:17:14.560016 17185 net.cpp:157] Top shape: 1 64 32 32 (65536)
I1125 10:17:14.560019 17185 net.cpp:165] Memory required for data: 915192784
I1125 10:17:14.560020 17185 layer_factory.hpp:77] Creating layer conv3-dsn5
I1125 10:17:14.560029 17185 net.cpp:100] Creating Layer conv3-dsn5
I1125 10:17:14.560031 17185 net.cpp:434] conv3-dsn5 <- conv2-dsn5
I1125 10:17:14.560035 17185 net.cpp:408] conv3-dsn5 -> conv3-dsn5
I1125 10:17:14.561445 17185 net.cpp:150] Setting up conv3-dsn5
I1125 10:17:14.561455 17185 net.cpp:157] Top shape: 1 64 32 32 (65536)
I1125 10:17:14.561457 17185 net.cpp:165] Memory required for data: 915454928
I1125 10:17:14.561462 17185 layer_factory.hpp:77] Creating layer relu2-dsn5
I1125 10:17:14.561466 17185 net.cpp:100] Creating Layer relu2-dsn5
I1125 10:17:14.561470 17185 net.cpp:434] relu2-dsn5 <- conv3-dsn5
I1125 10:17:14.561475 17185 net.cpp:395] relu2-dsn5 -> conv3-dsn5 (in-place)
I1125 10:17:14.561635 17185 net.cpp:150] Setting up relu2-dsn5
I1125 10:17:14.561642 17185 net.cpp:157] Top shape: 1 64 32 32 (65536)
I1125 10:17:14.561645 17185 net.cpp:165] Memory required for data: 915717072
I1125 10:17:14.561647 17185 layer_factory.hpp:77] Creating layer conv4-dsn5
I1125 10:17:14.561655 17185 net.cpp:100] Creating Layer conv4-dsn5
I1125 10:17:14.561658 17185 net.cpp:434] conv4-dsn5 <- conv3-dsn5
I1125 10:17:14.561664 17185 net.cpp:408] conv4-dsn5 -> conv4-dsn5
I1125 10:17:14.562764 17185 net.cpp:150] Setting up conv4-dsn5
I1125 10:17:14.562774 17185 net.cpp:157] Top shape: 1 1 32 32 (1024)
I1125 10:17:14.562777 17185 net.cpp:165] Memory required for data: 915721168
I1125 10:17:14.562783 17185 layer_factory.hpp:77] Creating layer sum-dsn5
I1125 10:17:14.562798 17185 net.cpp:100] Creating Layer sum-dsn5
I1125 10:17:14.562799 17185 net.cpp:434] sum-dsn5 <- conv4-dsn5
I1125 10:17:14.562803 17185 net.cpp:434] sum-dsn5 <- weight-dsn6-5_crop1-dsn5_0_split_1
I1125 10:17:14.562808 17185 net.cpp:408] sum-dsn5 -> sum-dsn5
I1125 10:17:14.562836 17185 net.cpp:150] Setting up sum-dsn5
I1125 10:17:14.562842 17185 net.cpp:157] Top shape: 1 1 32 32 (1024)
I1125 10:17:14.562844 17185 net.cpp:165] Memory required for data: 915725264
I1125 10:17:14.562847 17185 layer_factory.hpp:77] Creating layer sum-dsn5_sum-dsn5_0_split
I1125 10:17:14.562851 17185 net.cpp:100] Creating Layer sum-dsn5_sum-dsn5_0_split
I1125 10:17:14.562853 17185 net.cpp:434] sum-dsn5_sum-dsn5_0_split <- sum-dsn5
I1125 10:17:14.562858 17185 net.cpp:408] sum-dsn5_sum-dsn5_0_split -> sum-dsn5_sum-dsn5_0_split_0
I1125 10:17:14.562862 17185 net.cpp:408] sum-dsn5_sum-dsn5_0_split -> sum-dsn5_sum-dsn5_0_split_1
I1125 10:17:14.562906 17185 net.cpp:150] Setting up sum-dsn5_sum-dsn5_0_split
I1125 10:17:14.562911 17185 net.cpp:157] Top shape: 1 1 32 32 (1024)
I1125 10:17:14.562914 17185 net.cpp:157] Top shape: 1 1 32 32 (1024)
I1125 10:17:14.562916 17185 net.cpp:165] Memory required for data: 915733456
I1125 10:17:14.562918 17185 layer_factory.hpp:77] Creating layer upsample16_dsn5
I1125 10:17:14.562924 17185 net.cpp:100] Creating Layer upsample16_dsn5
I1125 10:17:14.562927 17185 net.cpp:434] upsample16_dsn5 <- sum-dsn5_sum-dsn5_0_split_0
I1125 10:17:14.562932 17185 net.cpp:408] upsample16_dsn5 -> sum-dsn5-up
I1125 10:17:14.564352 17185 net.cpp:150] Setting up upsample16_dsn5
I1125 10:17:14.564361 17185 net.cpp:157] Top shape: 1 1 528 528 (278784)
I1125 10:17:14.564364 17185 net.cpp:165] Memory required for data: 916848592
I1125 10:17:14.564369 17185 layer_factory.hpp:77] Creating layer crop2-dsn5
I1125 10:17:14.564373 17185 net.cpp:100] Creating Layer crop2-dsn5
I1125 10:17:14.564376 17185 net.cpp:434] crop2-dsn5 <- sum-dsn5-up
I1125 10:17:14.564380 17185 net.cpp:434] crop2-dsn5 <- data_data_0_split_2
I1125 10:17:14.564385 17185 net.cpp:408] crop2-dsn5 -> upscore-dsn5
I1125 10:17:14.564419 17185 net.cpp:150] Setting up crop2-dsn5
I1125 10:17:14.564424 17185 net.cpp:157] Top shape: 1 1 500 500 (250000)
I1125 10:17:14.564426 17185 net.cpp:165] Memory required for data: 917848592
I1125 10:17:14.564429 17185 layer_factory.hpp:77] Creating layer loss5-score
I1125 10:17:14.564433 17185 net.cpp:100] Creating Layer loss5-score
I1125 10:17:14.564435 17185 net.cpp:434] loss5-score <- upscore-dsn5
I1125 10:17:14.564440 17185 net.cpp:434] loss5-score <- label_data_1_split_1
I1125 10:17:14.564443 17185 net.cpp:408] loss5-score -> loss5-score
I1125 10:17:14.564635 17185 net.cpp:150] Setting up loss5-score
I1125 10:17:14.564640 17185 net.cpp:157] Top shape: (1)
I1125 10:17:14.564642 17185 net.cpp:160]     with loss weight 1
I1125 10:17:14.564648 17185 net.cpp:165] Memory required for data: 917848596
I1125 10:17:14.564651 17185 layer_factory.hpp:77] Creating layer upsample2_dsn4
I1125 10:17:14.564656 17185 net.cpp:100] Creating Layer upsample2_dsn4
I1125 10:17:14.564657 17185 net.cpp:434] upsample2_dsn4 <- sum-dsn5_sum-dsn5_0_split_1
I1125 10:17:14.564663 17185 net.cpp:408] upsample2_dsn4 -> sum-dsn5-4
I1125 10:17:14.564929 17185 net.cpp:150] Setting up upsample2_dsn4
I1125 10:17:14.564935 17185 net.cpp:157] Top shape: 1 1 66 66 (4356)
I1125 10:17:14.564937 17185 net.cpp:165] Memory required for data: 917866020
I1125 10:17:14.564941 17185 layer_factory.hpp:77] Creating layer crop1-dsn4
I1125 10:17:14.564945 17185 net.cpp:100] Creating Layer crop1-dsn4
I1125 10:17:14.564947 17185 net.cpp:434] crop1-dsn4 <- sum-dsn5-4
I1125 10:17:14.564951 17185 net.cpp:434] crop1-dsn4 <- conv4_3_relu4_3_0_split_1
I1125 10:17:14.564956 17185 net.cpp:408] crop1-dsn4 -> weight-dsn5-4
I1125 10:17:14.564980 17185 net.cpp:150] Setting up crop1-dsn4
I1125 10:17:14.564985 17185 net.cpp:157] Top shape: 1 1 63 63 (3969)
I1125 10:17:14.564986 17185 net.cpp:165] Memory required for data: 917881896
I1125 10:17:14.564988 17185 layer_factory.hpp:77] Creating layer weight-dsn5-4_crop1-dsn4_0_split
I1125 10:17:14.564993 17185 net.cpp:100] Creating Layer weight-dsn5-4_crop1-dsn4_0_split
I1125 10:17:14.564996 17185 net.cpp:434] weight-dsn5-4_crop1-dsn4_0_split <- weight-dsn5-4
I1125 10:17:14.564999 17185 net.cpp:408] weight-dsn5-4_crop1-dsn4_0_split -> weight-dsn5-4_crop1-dsn4_0_split_0
I1125 10:17:14.565006 17185 net.cpp:408] weight-dsn5-4_crop1-dsn4_0_split -> weight-dsn5-4_crop1-dsn4_0_split_1
I1125 10:17:14.565042 17185 net.cpp:150] Setting up weight-dsn5-4_crop1-dsn4_0_split
I1125 10:17:14.565047 17185 net.cpp:157] Top shape: 1 1 63 63 (3969)
I1125 10:17:14.565049 17185 net.cpp:157] Top shape: 1 1 63 63 (3969)
I1125 10:17:14.565050 17185 net.cpp:165] Memory required for data: 917913648
I1125 10:17:14.565052 17185 layer_factory.hpp:77] Creating layer sigmoid-dsn4
I1125 10:17:14.565058 17185 net.cpp:100] Creating Layer sigmoid-dsn4
I1125 10:17:14.565062 17185 net.cpp:434] sigmoid-dsn4 <- weight-dsn5-4_crop1-dsn4_0_split_0
I1125 10:17:14.565064 17185 net.cpp:408] sigmoid-dsn4 -> sigmoid-dsn4
I1125 10:17:14.565259 17185 net.cpp:150] Setting up sigmoid-dsn4
I1125 10:17:14.565268 17185 net.cpp:157] Top shape: 1 1 63 63 (3969)
I1125 10:17:14.565269 17185 net.cpp:165] Memory required for data: 917929524
I1125 10:17:14.565271 17185 layer_factory.hpp:77] Creating layer rev-dsn4
I1125 10:17:14.565277 17185 net.cpp:100] Creating Layer rev-dsn4
I1125 10:17:14.565280 17185 net.cpp:434] rev-dsn4 <- sigmoid-dsn4
I1125 10:17:14.565284 17185 net.cpp:408] rev-dsn4 -> rev-dsn4
I1125 10:17:14.565312 17185 net.cpp:150] Setting up rev-dsn4
I1125 10:17:14.565316 17185 net.cpp:157] Top shape: 1 1 63 63 (3969)
I1125 10:17:14.565318 17185 net.cpp:165] Memory required for data: 917945400
I1125 10:17:14.565320 17185 layer_factory.hpp:77] Creating layer tile-dsn4
I1125 10:17:14.565325 17185 net.cpp:100] Creating Layer tile-dsn4
I1125 10:17:14.565327 17185 net.cpp:434] tile-dsn4 <- rev-dsn4
I1125 10:17:14.565331 17185 net.cpp:408] tile-dsn4 -> weight-dsn4
I1125 10:17:14.565356 17185 net.cpp:150] Setting up tile-dsn4
I1125 10:17:14.565361 17185 net.cpp:157] Top shape: 1 512 63 63 (2032128)
I1125 10:17:14.565362 17185 net.cpp:165] Memory required for data: 926073912
I1125 10:17:14.565364 17185 layer_factory.hpp:77] Creating layer prod1-dsn4
I1125 10:17:14.565371 17185 net.cpp:100] Creating Layer prod1-dsn4
I1125 10:17:14.565372 17185 net.cpp:434] prod1-dsn4 <- conv4_3_relu4_3_0_split_2
I1125 10:17:14.565376 17185 net.cpp:434] prod1-dsn4 <- weight-dsn4
I1125 10:17:14.565380 17185 net.cpp:408] prod1-dsn4 -> prod1-dsn4
I1125 10:17:14.565403 17185 net.cpp:150] Setting up prod1-dsn4
I1125 10:17:14.565408 17185 net.cpp:157] Top shape: 1 512 63 63 (2032128)
I1125 10:17:14.565409 17185 net.cpp:165] Memory required for data: 934202424
I1125 10:17:14.565412 17185 layer_factory.hpp:77] Creating layer conv1-dsn4
I1125 10:17:14.565421 17185 net.cpp:100] Creating Layer conv1-dsn4
I1125 10:17:14.565423 17185 net.cpp:434] conv1-dsn4 <- prod1-dsn4
I1125 10:17:14.565428 17185 net.cpp:408] conv1-dsn4 -> conv1-dsn4
I1125 10:17:14.566875 17185 net.cpp:150] Setting up conv1-dsn4
I1125 10:17:14.566889 17185 net.cpp:157] Top shape: 1 64 63 63 (254016)
I1125 10:17:14.566890 17185 net.cpp:165] Memory required for data: 935218488
I1125 10:17:14.566895 17185 layer_factory.hpp:77] Creating layer conv2-dsn4
I1125 10:17:14.566905 17185 net.cpp:100] Creating Layer conv2-dsn4
I1125 10:17:14.566907 17185 net.cpp:434] conv2-dsn4 <- conv1-dsn4
I1125 10:17:14.566913 17185 net.cpp:408] conv2-dsn4 -> conv2-dsn4
I1125 10:17:14.568636 17185 net.cpp:150] Setting up conv2-dsn4
I1125 10:17:14.568648 17185 net.cpp:157] Top shape: 1 64 63 63 (254016)
I1125 10:17:14.568650 17185 net.cpp:165] Memory required for data: 936234552
I1125 10:17:14.568655 17185 layer_factory.hpp:77] Creating layer relu1-dsn4
I1125 10:17:14.568660 17185 net.cpp:100] Creating Layer relu1-dsn4
I1125 10:17:14.568663 17185 net.cpp:434] relu1-dsn4 <- conv2-dsn4
I1125 10:17:14.568667 17185 net.cpp:395] relu1-dsn4 -> conv2-dsn4 (in-place)
I1125 10:17:14.568843 17185 net.cpp:150] Setting up relu1-dsn4
I1125 10:17:14.568851 17185 net.cpp:157] Top shape: 1 64 63 63 (254016)
I1125 10:17:14.568853 17185 net.cpp:165] Memory required for data: 937250616
I1125 10:17:14.568856 17185 layer_factory.hpp:77] Creating layer conv3-dsn4
I1125 10:17:14.568867 17185 net.cpp:100] Creating Layer conv3-dsn4
I1125 10:17:14.568871 17185 net.cpp:434] conv3-dsn4 <- conv2-dsn4
I1125 10:17:14.568874 17185 net.cpp:408] conv3-dsn4 -> conv3-dsn4
I1125 10:17:14.570291 17185 net.cpp:150] Setting up conv3-dsn4
I1125 10:17:14.570303 17185 net.cpp:157] Top shape: 1 64 63 63 (254016)
I1125 10:17:14.570305 17185 net.cpp:165] Memory required for data: 938266680
I1125 10:17:14.570310 17185 layer_factory.hpp:77] Creating layer relu2-dsn4
I1125 10:17:14.570314 17185 net.cpp:100] Creating Layer relu2-dsn4
I1125 10:17:14.570317 17185 net.cpp:434] relu2-dsn4 <- conv3-dsn4
I1125 10:17:14.570322 17185 net.cpp:395] relu2-dsn4 -> conv3-dsn4 (in-place)
I1125 10:17:14.571077 17185 net.cpp:150] Setting up relu2-dsn4
I1125 10:17:14.571086 17185 net.cpp:157] Top shape: 1 64 63 63 (254016)
I1125 10:17:14.571089 17185 net.cpp:165] Memory required for data: 939282744
I1125 10:17:14.571091 17185 layer_factory.hpp:77] Creating layer conv4-dsn4
I1125 10:17:14.571101 17185 net.cpp:100] Creating Layer conv4-dsn4
I1125 10:17:14.571105 17185 net.cpp:434] conv4-dsn4 <- conv3-dsn4
I1125 10:17:14.571110 17185 net.cpp:408] conv4-dsn4 -> conv4-dsn4
I1125 10:17:14.572259 17185 net.cpp:150] Setting up conv4-dsn4
I1125 10:17:14.572270 17185 net.cpp:157] Top shape: 1 1 63 63 (3969)
I1125 10:17:14.572273 17185 net.cpp:165] Memory required for data: 939298620
I1125 10:17:14.572278 17185 layer_factory.hpp:77] Creating layer sum-dsn4
I1125 10:17:14.572283 17185 net.cpp:100] Creating Layer sum-dsn4
I1125 10:17:14.572286 17185 net.cpp:434] sum-dsn4 <- conv4-dsn4
I1125 10:17:14.572290 17185 net.cpp:434] sum-dsn4 <- weight-dsn5-4_crop1-dsn4_0_split_1
I1125 10:17:14.572293 17185 net.cpp:408] sum-dsn4 -> sum-dsn4
I1125 10:17:14.572324 17185 net.cpp:150] Setting up sum-dsn4
I1125 10:17:14.572329 17185 net.cpp:157] Top shape: 1 1 63 63 (3969)
I1125 10:17:14.572331 17185 net.cpp:165] Memory required for data: 939314496
I1125 10:17:14.572333 17185 layer_factory.hpp:77] Creating layer sum-dsn4_sum-dsn4_0_split
I1125 10:17:14.572338 17185 net.cpp:100] Creating Layer sum-dsn4_sum-dsn4_0_split
I1125 10:17:14.572340 17185 net.cpp:434] sum-dsn4_sum-dsn4_0_split <- sum-dsn4
I1125 10:17:14.572345 17185 net.cpp:408] sum-dsn4_sum-dsn4_0_split -> sum-dsn4_sum-dsn4_0_split_0
I1125 10:17:14.572350 17185 net.cpp:408] sum-dsn4_sum-dsn4_0_split -> sum-dsn4_sum-dsn4_0_split_1
I1125 10:17:14.572391 17185 net.cpp:150] Setting up sum-dsn4_sum-dsn4_0_split
I1125 10:17:14.572396 17185 net.cpp:157] Top shape: 1 1 63 63 (3969)
I1125 10:17:14.572398 17185 net.cpp:157] Top shape: 1 1 63 63 (3969)
I1125 10:17:14.572401 17185 net.cpp:165] Memory required for data: 939346248
I1125 10:17:14.572402 17185 layer_factory.hpp:77] Creating layer upsample8_dsn4
I1125 10:17:14.572408 17185 net.cpp:100] Creating Layer upsample8_dsn4
I1125 10:17:14.572410 17185 net.cpp:434] upsample8_dsn4 <- sum-dsn4_sum-dsn4_0_split_0
I1125 10:17:14.572418 17185 net.cpp:408] upsample8_dsn4 -> sum-dsn4-up
I1125 10:17:14.573824 17185 net.cpp:150] Setting up upsample8_dsn4
I1125 10:17:14.573834 17185 net.cpp:157] Top shape: 1 1 512 512 (262144)
I1125 10:17:14.573837 17185 net.cpp:165] Memory required for data: 940394824
I1125 10:17:14.573843 17185 layer_factory.hpp:77] Creating layer crop2-dsn4
I1125 10:17:14.573846 17185 net.cpp:100] Creating Layer crop2-dsn4
I1125 10:17:14.573849 17185 net.cpp:434] crop2-dsn4 <- sum-dsn4-up
I1125 10:17:14.573853 17185 net.cpp:434] crop2-dsn4 <- data_data_0_split_3
I1125 10:17:14.573859 17185 net.cpp:408] crop2-dsn4 -> upscore-dsn4
I1125 10:17:14.573892 17185 net.cpp:150] Setting up crop2-dsn4
I1125 10:17:14.573897 17185 net.cpp:157] Top shape: 1 1 500 500 (250000)
I1125 10:17:14.573899 17185 net.cpp:165] Memory required for data: 941394824
I1125 10:17:14.573901 17185 layer_factory.hpp:77] Creating layer loss4-score
I1125 10:17:14.573907 17185 net.cpp:100] Creating Layer loss4-score
I1125 10:17:14.573910 17185 net.cpp:434] loss4-score <- upscore-dsn4
I1125 10:17:14.573913 17185 net.cpp:434] loss4-score <- label_data_1_split_2
I1125 10:17:14.573917 17185 net.cpp:408] loss4-score -> loss4-score
I1125 10:17:14.574097 17185 net.cpp:150] Setting up loss4-score
I1125 10:17:14.574105 17185 net.cpp:157] Top shape: (1)
I1125 10:17:14.574106 17185 net.cpp:160]     with loss weight 1
I1125 10:17:14.574111 17185 net.cpp:165] Memory required for data: 941394828
I1125 10:17:14.574113 17185 layer_factory.hpp:77] Creating layer upsample2_dsn3
I1125 10:17:14.574117 17185 net.cpp:100] Creating Layer upsample2_dsn3
I1125 10:17:14.574120 17185 net.cpp:434] upsample2_dsn3 <- sum-dsn4_sum-dsn4_0_split_1
I1125 10:17:14.574131 17185 net.cpp:408] upsample2_dsn3 -> sum-dsn4-3
I1125 10:17:14.574411 17185 net.cpp:150] Setting up upsample2_dsn3
I1125 10:17:14.574417 17185 net.cpp:157] Top shape: 1 1 128 128 (16384)
I1125 10:17:14.574419 17185 net.cpp:165] Memory required for data: 941460364
I1125 10:17:14.574424 17185 layer_factory.hpp:77] Creating layer crop1-dsn3
I1125 10:17:14.574429 17185 net.cpp:100] Creating Layer crop1-dsn3
I1125 10:17:14.574431 17185 net.cpp:434] crop1-dsn3 <- sum-dsn4-3
I1125 10:17:14.574435 17185 net.cpp:434] crop1-dsn3 <- conv3_3_relu3_3_0_split_1
I1125 10:17:14.574438 17185 net.cpp:408] crop1-dsn3 -> weight-dsn4-3
I1125 10:17:14.574467 17185 net.cpp:150] Setting up crop1-dsn3
I1125 10:17:14.574473 17185 net.cpp:157] Top shape: 1 1 125 125 (15625)
I1125 10:17:14.574476 17185 net.cpp:165] Memory required for data: 941522864
I1125 10:17:14.574477 17185 layer_factory.hpp:77] Creating layer weight-dsn4-3_crop1-dsn3_0_split
I1125 10:17:14.574481 17185 net.cpp:100] Creating Layer weight-dsn4-3_crop1-dsn3_0_split
I1125 10:17:14.574484 17185 net.cpp:434] weight-dsn4-3_crop1-dsn3_0_split <- weight-dsn4-3
I1125 10:17:14.574489 17185 net.cpp:408] weight-dsn4-3_crop1-dsn3_0_split -> weight-dsn4-3_crop1-dsn3_0_split_0
I1125 10:17:14.574493 17185 net.cpp:408] weight-dsn4-3_crop1-dsn3_0_split -> weight-dsn4-3_crop1-dsn3_0_split_1
I1125 10:17:14.574534 17185 net.cpp:150] Setting up weight-dsn4-3_crop1-dsn3_0_split
I1125 10:17:14.574539 17185 net.cpp:157] Top shape: 1 1 125 125 (15625)
I1125 10:17:14.574542 17185 net.cpp:157] Top shape: 1 1 125 125 (15625)
I1125 10:17:14.574543 17185 net.cpp:165] Memory required for data: 941647864
I1125 10:17:14.574545 17185 layer_factory.hpp:77] Creating layer sigmoid-dsn3
I1125 10:17:14.574549 17185 net.cpp:100] Creating Layer sigmoid-dsn3
I1125 10:17:14.574553 17185 net.cpp:434] sigmoid-dsn3 <- weight-dsn4-3_crop1-dsn3_0_split_0
I1125 10:17:14.574558 17185 net.cpp:408] sigmoid-dsn3 -> sigmoid-dsn3
I1125 10:17:14.574753 17185 net.cpp:150] Setting up sigmoid-dsn3
I1125 10:17:14.574760 17185 net.cpp:157] Top shape: 1 1 125 125 (15625)
I1125 10:17:14.574762 17185 net.cpp:165] Memory required for data: 941710364
I1125 10:17:14.574765 17185 layer_factory.hpp:77] Creating layer rev-dsn3
I1125 10:17:14.574769 17185 net.cpp:100] Creating Layer rev-dsn3
I1125 10:17:14.574771 17185 net.cpp:434] rev-dsn3 <- sigmoid-dsn3
I1125 10:17:14.574777 17185 net.cpp:408] rev-dsn3 -> rev-dsn3
I1125 10:17:14.574803 17185 net.cpp:150] Setting up rev-dsn3
I1125 10:17:14.574807 17185 net.cpp:157] Top shape: 1 1 125 125 (15625)
I1125 10:17:14.574810 17185 net.cpp:165] Memory required for data: 941772864
I1125 10:17:14.574812 17185 layer_factory.hpp:77] Creating layer tile-dsn3
I1125 10:17:14.574817 17185 net.cpp:100] Creating Layer tile-dsn3
I1125 10:17:14.574820 17185 net.cpp:434] tile-dsn3 <- rev-dsn3
I1125 10:17:14.574824 17185 net.cpp:408] tile-dsn3 -> weight-dsn3
I1125 10:17:14.574848 17185 net.cpp:150] Setting up tile-dsn3
I1125 10:17:14.574851 17185 net.cpp:157] Top shape: 1 256 125 125 (4000000)
I1125 10:17:14.574853 17185 net.cpp:165] Memory required for data: 957772864
I1125 10:17:14.574856 17185 layer_factory.hpp:77] Creating layer prod1-dsn3
I1125 10:17:14.574862 17185 net.cpp:100] Creating Layer prod1-dsn3
I1125 10:17:14.574863 17185 net.cpp:434] prod1-dsn3 <- conv3_3_relu3_3_0_split_2
I1125 10:17:14.574867 17185 net.cpp:434] prod1-dsn3 <- weight-dsn3
I1125 10:17:14.574870 17185 net.cpp:408] prod1-dsn3 -> prod1-dsn3
I1125 10:17:14.574895 17185 net.cpp:150] Setting up prod1-dsn3
I1125 10:17:14.574899 17185 net.cpp:157] Top shape: 1 256 125 125 (4000000)
I1125 10:17:14.574901 17185 net.cpp:165] Memory required for data: 973772864
I1125 10:17:14.574903 17185 layer_factory.hpp:77] Creating layer conv1-dsn3
I1125 10:17:14.574911 17185 net.cpp:100] Creating Layer conv1-dsn3
I1125 10:17:14.574913 17185 net.cpp:434] conv1-dsn3 <- prod1-dsn3
I1125 10:17:14.574919 17185 net.cpp:408] conv1-dsn3 -> conv1-dsn3
I1125 10:17:14.576510 17185 net.cpp:150] Setting up conv1-dsn3
I1125 10:17:14.576520 17185 net.cpp:157] Top shape: 1 64 125 125 (1000000)
I1125 10:17:14.576524 17185 net.cpp:165] Memory required for data: 977772864
I1125 10:17:14.576537 17185 layer_factory.hpp:77] Creating layer conv2-dsn3
I1125 10:17:14.576547 17185 net.cpp:100] Creating Layer conv2-dsn3
I1125 10:17:14.576550 17185 net.cpp:434] conv2-dsn3 <- conv1-dsn3
I1125 10:17:14.576555 17185 net.cpp:408] conv2-dsn3 -> conv2-dsn3
I1125 10:17:14.578027 17185 net.cpp:150] Setting up conv2-dsn3
I1125 10:17:14.578038 17185 net.cpp:157] Top shape: 1 64 125 125 (1000000)
I1125 10:17:14.578040 17185 net.cpp:165] Memory required for data: 981772864
I1125 10:17:14.578045 17185 layer_factory.hpp:77] Creating layer relu1-dsn3
I1125 10:17:14.578050 17185 net.cpp:100] Creating Layer relu1-dsn3
I1125 10:17:14.578052 17185 net.cpp:434] relu1-dsn3 <- conv2-dsn3
I1125 10:17:14.578056 17185 net.cpp:395] relu1-dsn3 -> conv2-dsn3 (in-place)
I1125 10:17:14.578225 17185 net.cpp:150] Setting up relu1-dsn3
I1125 10:17:14.578233 17185 net.cpp:157] Top shape: 1 64 125 125 (1000000)
I1125 10:17:14.578234 17185 net.cpp:165] Memory required for data: 985772864
I1125 10:17:14.578236 17185 layer_factory.hpp:77] Creating layer conv3-dsn3
I1125 10:17:14.578246 17185 net.cpp:100] Creating Layer conv3-dsn3
I1125 10:17:14.578249 17185 net.cpp:434] conv3-dsn3 <- conv2-dsn3
I1125 10:17:14.578253 17185 net.cpp:408] conv3-dsn3 -> conv3-dsn3
I1125 10:17:14.579679 17185 net.cpp:150] Setting up conv3-dsn3
I1125 10:17:14.579690 17185 net.cpp:157] Top shape: 1 64 125 125 (1000000)
I1125 10:17:14.579694 17185 net.cpp:165] Memory required for data: 989772864
I1125 10:17:14.579699 17185 layer_factory.hpp:77] Creating layer relu2-dsn3
I1125 10:17:14.579704 17185 net.cpp:100] Creating Layer relu2-dsn3
I1125 10:17:14.579705 17185 net.cpp:434] relu2-dsn3 <- conv3-dsn3
I1125 10:17:14.579710 17185 net.cpp:395] relu2-dsn3 -> conv3-dsn3 (in-place)
I1125 10:17:14.579869 17185 net.cpp:150] Setting up relu2-dsn3
I1125 10:17:14.579875 17185 net.cpp:157] Top shape: 1 64 125 125 (1000000)
I1125 10:17:14.579877 17185 net.cpp:165] Memory required for data: 993772864
I1125 10:17:14.579880 17185 layer_factory.hpp:77] Creating layer conv4-dsn3
I1125 10:17:14.579891 17185 net.cpp:100] Creating Layer conv4-dsn3
I1125 10:17:14.579895 17185 net.cpp:434] conv4-dsn3 <- conv3-dsn3
I1125 10:17:14.579898 17185 net.cpp:408] conv4-dsn3 -> conv4-dsn3
I1125 10:17:14.581348 17185 net.cpp:150] Setting up conv4-dsn3
I1125 10:17:14.581362 17185 net.cpp:157] Top shape: 1 1 125 125 (15625)
I1125 10:17:14.581364 17185 net.cpp:165] Memory required for data: 993835364
I1125 10:17:14.581368 17185 layer_factory.hpp:77] Creating layer sum-dsn3
I1125 10:17:14.581373 17185 net.cpp:100] Creating Layer sum-dsn3
I1125 10:17:14.581377 17185 net.cpp:434] sum-dsn3 <- conv4-dsn3
I1125 10:17:14.581380 17185 net.cpp:434] sum-dsn3 <- weight-dsn4-3_crop1-dsn3_0_split_1
I1125 10:17:14.581385 17185 net.cpp:408] sum-dsn3 -> sum-dsn3
I1125 10:17:14.581418 17185 net.cpp:150] Setting up sum-dsn3
I1125 10:17:14.581423 17185 net.cpp:157] Top shape: 1 1 125 125 (15625)
I1125 10:17:14.581425 17185 net.cpp:165] Memory required for data: 993897864
I1125 10:17:14.581427 17185 layer_factory.hpp:77] Creating layer sum-dsn3_sum-dsn3_0_split
I1125 10:17:14.581432 17185 net.cpp:100] Creating Layer sum-dsn3_sum-dsn3_0_split
I1125 10:17:14.581434 17185 net.cpp:434] sum-dsn3_sum-dsn3_0_split <- sum-dsn3
I1125 10:17:14.581440 17185 net.cpp:408] sum-dsn3_sum-dsn3_0_split -> sum-dsn3_sum-dsn3_0_split_0
I1125 10:17:14.581445 17185 net.cpp:408] sum-dsn3_sum-dsn3_0_split -> sum-dsn3_sum-dsn3_0_split_1
I1125 10:17:14.581485 17185 net.cpp:150] Setting up sum-dsn3_sum-dsn3_0_split
I1125 10:17:14.581491 17185 net.cpp:157] Top shape: 1 1 125 125 (15625)
I1125 10:17:14.581496 17185 net.cpp:157] Top shape: 1 1 125 125 (15625)
I1125 10:17:14.581496 17185 net.cpp:165] Memory required for data: 994022864
I1125 10:17:14.581498 17185 layer_factory.hpp:77] Creating layer upsample4_dsn3
I1125 10:17:14.581503 17185 net.cpp:100] Creating Layer upsample4_dsn3
I1125 10:17:14.581506 17185 net.cpp:434] upsample4_dsn3 <- sum-dsn3_sum-dsn3_0_split_0
I1125 10:17:14.581511 17185 net.cpp:408] upsample4_dsn3 -> sum-dsn3-up
I1125 10:17:14.582921 17185 net.cpp:150] Setting up upsample4_dsn3
I1125 10:17:14.582933 17185 net.cpp:157] Top shape: 1 1 504 504 (254016)
I1125 10:17:14.582935 17185 net.cpp:165] Memory required for data: 995038928
I1125 10:17:14.582942 17185 layer_factory.hpp:77] Creating layer crop2-dsn3
I1125 10:17:14.582945 17185 net.cpp:100] Creating Layer crop2-dsn3
I1125 10:17:14.582948 17185 net.cpp:434] crop2-dsn3 <- sum-dsn3-up
I1125 10:17:14.582952 17185 net.cpp:434] crop2-dsn3 <- data_data_0_split_4
I1125 10:17:14.582955 17185 net.cpp:408] crop2-dsn3 -> upscore-dsn3
I1125 10:17:14.582990 17185 net.cpp:150] Setting up crop2-dsn3
I1125 10:17:14.582994 17185 net.cpp:157] Top shape: 1 1 500 500 (250000)
I1125 10:17:14.582996 17185 net.cpp:165] Memory required for data: 996038928
I1125 10:17:14.582998 17185 layer_factory.hpp:77] Creating layer loss3-score
I1125 10:17:14.583004 17185 net.cpp:100] Creating Layer loss3-score
I1125 10:17:14.583006 17185 net.cpp:434] loss3-score <- upscore-dsn3
I1125 10:17:14.583010 17185 net.cpp:434] loss3-score <- label_data_1_split_3
I1125 10:17:14.583014 17185 net.cpp:408] loss3-score -> loss3-score
I1125 10:17:14.583205 17185 net.cpp:150] Setting up loss3-score
I1125 10:17:14.583210 17185 net.cpp:157] Top shape: (1)
I1125 10:17:14.583214 17185 net.cpp:160]     with loss weight 1
I1125 10:17:14.583217 17185 net.cpp:165] Memory required for data: 996038932
I1125 10:17:14.583220 17185 layer_factory.hpp:77] Creating layer upsample2_1-dsn2
I1125 10:17:14.583226 17185 net.cpp:100] Creating Layer upsample2_1-dsn2
I1125 10:17:14.583230 17185 net.cpp:434] upsample2_1-dsn2 <- sum-dsn3_sum-dsn3_0_split_1
I1125 10:17:14.583235 17185 net.cpp:408] upsample2_1-dsn2 -> sum-dsn3-2
I1125 10:17:14.583551 17185 net.cpp:150] Setting up upsample2_1-dsn2
I1125 10:17:14.583557 17185 net.cpp:157] Top shape: 1 1 252 252 (63504)
I1125 10:17:14.583559 17185 net.cpp:165] Memory required for data: 996292948
I1125 10:17:14.583564 17185 layer_factory.hpp:77] Creating layer crop1-dsn2
I1125 10:17:14.583567 17185 net.cpp:100] Creating Layer crop1-dsn2
I1125 10:17:14.583570 17185 net.cpp:434] crop1-dsn2 <- sum-dsn3-2
I1125 10:17:14.583575 17185 net.cpp:434] crop1-dsn2 <- conv2_2_relu2_2_0_split_1
I1125 10:17:14.583582 17185 net.cpp:408] crop1-dsn2 -> weight-dsn3-2
I1125 10:17:14.583619 17185 net.cpp:150] Setting up crop1-dsn2
I1125 10:17:14.583623 17185 net.cpp:157] Top shape: 1 1 250 250 (62500)
I1125 10:17:14.583626 17185 net.cpp:165] Memory required for data: 996542948
I1125 10:17:14.583627 17185 layer_factory.hpp:77] Creating layer weight-dsn3-2_crop1-dsn2_0_split
I1125 10:17:14.583631 17185 net.cpp:100] Creating Layer weight-dsn3-2_crop1-dsn2_0_split
I1125 10:17:14.583633 17185 net.cpp:434] weight-dsn3-2_crop1-dsn2_0_split <- weight-dsn3-2
I1125 10:17:14.583638 17185 net.cpp:408] weight-dsn3-2_crop1-dsn2_0_split -> weight-dsn3-2_crop1-dsn2_0_split_0
I1125 10:17:14.583643 17185 net.cpp:408] weight-dsn3-2_crop1-dsn2_0_split -> weight-dsn3-2_crop1-dsn2_0_split_1
I1125 10:17:14.583685 17185 net.cpp:150] Setting up weight-dsn3-2_crop1-dsn2_0_split
I1125 10:17:14.583690 17185 net.cpp:157] Top shape: 1 1 250 250 (62500)
I1125 10:17:14.583693 17185 net.cpp:157] Top shape: 1 1 250 250 (62500)
I1125 10:17:14.583695 17185 net.cpp:165] Memory required for data: 997042948
I1125 10:17:14.583698 17185 layer_factory.hpp:77] Creating layer sigmoid-dsn2
I1125 10:17:14.583701 17185 net.cpp:100] Creating Layer sigmoid-dsn2
I1125 10:17:14.583703 17185 net.cpp:434] sigmoid-dsn2 <- weight-dsn3-2_crop1-dsn2_0_split_0
I1125 10:17:14.583709 17185 net.cpp:408] sigmoid-dsn2 -> sigmoid-dsn2
I1125 10:17:14.583904 17185 net.cpp:150] Setting up sigmoid-dsn2
I1125 10:17:14.583914 17185 net.cpp:157] Top shape: 1 1 250 250 (62500)
I1125 10:17:14.583915 17185 net.cpp:165] Memory required for data: 997292948
I1125 10:17:14.583917 17185 layer_factory.hpp:77] Creating layer rev-dsn2
I1125 10:17:14.583921 17185 net.cpp:100] Creating Layer rev-dsn2
I1125 10:17:14.583923 17185 net.cpp:434] rev-dsn2 <- sigmoid-dsn2
I1125 10:17:14.583930 17185 net.cpp:408] rev-dsn2 -> rev-dsn2
I1125 10:17:14.583954 17185 net.cpp:150] Setting up rev-dsn2
I1125 10:17:14.583959 17185 net.cpp:157] Top shape: 1 1 250 250 (62500)
I1125 10:17:14.583961 17185 net.cpp:165] Memory required for data: 997542948
I1125 10:17:14.583963 17185 layer_factory.hpp:77] Creating layer tile-dsn2
I1125 10:17:14.583968 17185 net.cpp:100] Creating Layer tile-dsn2
I1125 10:17:14.583971 17185 net.cpp:434] tile-dsn2 <- rev-dsn2
I1125 10:17:14.583974 17185 net.cpp:408] tile-dsn2 -> weight-dsn2
I1125 10:17:14.584000 17185 net.cpp:150] Setting up tile-dsn2
I1125 10:17:14.584005 17185 net.cpp:157] Top shape: 1 128 250 250 (8000000)
I1125 10:17:14.584007 17185 net.cpp:165] Memory required for data: 1029542948
I1125 10:17:14.584009 17185 layer_factory.hpp:77] Creating layer prod1-dsn2
I1125 10:17:14.584013 17185 net.cpp:100] Creating Layer prod1-dsn2
I1125 10:17:14.584015 17185 net.cpp:434] prod1-dsn2 <- conv2_2_relu2_2_0_split_2
I1125 10:17:14.584018 17185 net.cpp:434] prod1-dsn2 <- weight-dsn2
I1125 10:17:14.584026 17185 net.cpp:408] prod1-dsn2 -> prod1-dsn2
I1125 10:17:14.584053 17185 net.cpp:150] Setting up prod1-dsn2
I1125 10:17:14.584056 17185 net.cpp:157] Top shape: 1 128 250 250 (8000000)
I1125 10:17:14.584059 17185 net.cpp:165] Memory required for data: 1061542948
I1125 10:17:14.584061 17185 layer_factory.hpp:77] Creating layer conv1-dsn2
I1125 10:17:14.584069 17185 net.cpp:100] Creating Layer conv1-dsn2
I1125 10:17:14.584071 17185 net.cpp:434] conv1-dsn2 <- prod1-dsn2
I1125 10:17:14.584076 17185 net.cpp:408] conv1-dsn2 -> conv1-dsn2
I1125 10:17:14.585333 17185 net.cpp:150] Setting up conv1-dsn2
I1125 10:17:14.585345 17185 net.cpp:157] Top shape: 1 64 250 250 (4000000)
I1125 10:17:14.585346 17185 net.cpp:165] Memory required for data: 1077542948
I1125 10:17:14.585351 17185 layer_factory.hpp:77] Creating layer conv2-dsn2
I1125 10:17:14.585359 17185 net.cpp:100] Creating Layer conv2-dsn2
I1125 10:17:14.585362 17185 net.cpp:434] conv2-dsn2 <- conv1-dsn2
I1125 10:17:14.585368 17185 net.cpp:408] conv2-dsn2 -> conv2-dsn2
I1125 10:17:14.588176 17185 net.cpp:150] Setting up conv2-dsn2
I1125 10:17:14.588186 17185 net.cpp:157] Top shape: 1 64 250 250 (4000000)
I1125 10:17:14.588189 17185 net.cpp:165] Memory required for data: 1093542948
I1125 10:17:14.588194 17185 layer_factory.hpp:77] Creating layer relu1-dsn2
I1125 10:17:14.588201 17185 net.cpp:100] Creating Layer relu1-dsn2
I1125 10:17:14.588203 17185 net.cpp:434] relu1-dsn2 <- conv2-dsn2
I1125 10:17:14.588207 17185 net.cpp:395] relu1-dsn2 -> conv2-dsn2 (in-place)
I1125 10:17:14.588387 17185 net.cpp:150] Setting up relu1-dsn2
I1125 10:17:14.588394 17185 net.cpp:157] Top shape: 1 64 250 250 (4000000)
I1125 10:17:14.588397 17185 net.cpp:165] Memory required for data: 1109542948
I1125 10:17:14.588398 17185 layer_factory.hpp:77] Creating layer conv3-dsn2
I1125 10:17:14.588407 17185 net.cpp:100] Creating Layer conv3-dsn2
I1125 10:17:14.588409 17185 net.cpp:434] conv3-dsn2 <- conv2-dsn2
I1125 10:17:14.588415 17185 net.cpp:408] conv3-dsn2 -> conv3-dsn2
I1125 10:17:14.589867 17185 net.cpp:150] Setting up conv3-dsn2
I1125 10:17:14.589879 17185 net.cpp:157] Top shape: 1 64 250 250 (4000000)
I1125 10:17:14.589880 17185 net.cpp:165] Memory required for data: 1125542948
I1125 10:17:14.589884 17185 layer_factory.hpp:77] Creating layer relu2-dsn2
I1125 10:17:14.589890 17185 net.cpp:100] Creating Layer relu2-dsn2
I1125 10:17:14.589892 17185 net.cpp:434] relu2-dsn2 <- conv3-dsn2
I1125 10:17:14.589897 17185 net.cpp:395] relu2-dsn2 -> conv3-dsn2 (in-place)
I1125 10:17:14.590059 17185 net.cpp:150] Setting up relu2-dsn2
I1125 10:17:14.590066 17185 net.cpp:157] Top shape: 1 64 250 250 (4000000)
I1125 10:17:14.590068 17185 net.cpp:165] Memory required for data: 1141542948
I1125 10:17:14.590070 17185 layer_factory.hpp:77] Creating layer conv4-dsn2
I1125 10:17:14.590080 17185 net.cpp:100] Creating Layer conv4-dsn2
I1125 10:17:14.590081 17185 net.cpp:434] conv4-dsn2 <- conv3-dsn2
I1125 10:17:14.590087 17185 net.cpp:408] conv4-dsn2 -> conv4-dsn2
I1125 10:17:14.591260 17185 net.cpp:150] Setting up conv4-dsn2
I1125 10:17:14.591270 17185 net.cpp:157] Top shape: 1 1 250 250 (62500)
I1125 10:17:14.591272 17185 net.cpp:165] Memory required for data: 1141792948
I1125 10:17:14.591277 17185 layer_factory.hpp:77] Creating layer sum-dsn2
I1125 10:17:14.591284 17185 net.cpp:100] Creating Layer sum-dsn2
I1125 10:17:14.591286 17185 net.cpp:434] sum-dsn2 <- conv4-dsn2
I1125 10:17:14.591290 17185 net.cpp:434] sum-dsn2 <- weight-dsn3-2_crop1-dsn2_0_split_1
I1125 10:17:14.591295 17185 net.cpp:408] sum-dsn2 -> sum-dsn2
I1125 10:17:14.591326 17185 net.cpp:150] Setting up sum-dsn2
I1125 10:17:14.591331 17185 net.cpp:157] Top shape: 1 1 250 250 (62500)
I1125 10:17:14.591333 17185 net.cpp:165] Memory required for data: 1142042948
I1125 10:17:14.591336 17185 layer_factory.hpp:77] Creating layer upsample2_2-dsn2
I1125 10:17:14.591341 17185 net.cpp:100] Creating Layer upsample2_2-dsn2
I1125 10:17:14.591343 17185 net.cpp:434] upsample2_2-dsn2 <- sum-dsn2
I1125 10:17:14.591348 17185 net.cpp:408] upsample2_2-dsn2 -> sum-dsn2-up
I1125 10:17:14.592773 17185 net.cpp:150] Setting up upsample2_2-dsn2
I1125 10:17:14.592783 17185 net.cpp:157] Top shape: 1 1 502 502 (252004)
I1125 10:17:14.592785 17185 net.cpp:165] Memory required for data: 1143050964
I1125 10:17:14.592792 17185 layer_factory.hpp:77] Creating layer crop2-dsn2
I1125 10:17:14.592795 17185 net.cpp:100] Creating Layer crop2-dsn2
I1125 10:17:14.592798 17185 net.cpp:434] crop2-dsn2 <- sum-dsn2-up
I1125 10:17:14.592802 17185 net.cpp:434] crop2-dsn2 <- data_data_0_split_5
I1125 10:17:14.592809 17185 net.cpp:408] crop2-dsn2 -> upscore-dsn2
I1125 10:17:14.592845 17185 net.cpp:150] Setting up crop2-dsn2
I1125 10:17:14.592849 17185 net.cpp:157] Top shape: 1 1 500 500 (250000)
I1125 10:17:14.592851 17185 net.cpp:165] Memory required for data: 1144050964
I1125 10:17:14.592854 17185 layer_factory.hpp:77] Creating layer upscore-dsn2_crop2-dsn2_0_split
I1125 10:17:14.592857 17185 net.cpp:100] Creating Layer upscore-dsn2_crop2-dsn2_0_split
I1125 10:17:14.592860 17185 net.cpp:434] upscore-dsn2_crop2-dsn2_0_split <- upscore-dsn2
I1125 10:17:14.592865 17185 net.cpp:408] upscore-dsn2_crop2-dsn2_0_split -> upscore-dsn2_crop2-dsn2_0_split_0
I1125 10:17:14.592870 17185 net.cpp:408] upscore-dsn2_crop2-dsn2_0_split -> upscore-dsn2_crop2-dsn2_0_split_1
I1125 10:17:14.592875 17185 net.cpp:408] upscore-dsn2_crop2-dsn2_0_split -> upscore-dsn2_crop2-dsn2_0_split_2
I1125 10:17:14.592945 17185 net.cpp:150] Setting up upscore-dsn2_crop2-dsn2_0_split
I1125 10:17:14.592952 17185 net.cpp:157] Top shape: 1 1 500 500 (250000)
I1125 10:17:14.592954 17185 net.cpp:157] Top shape: 1 1 500 500 (250000)
I1125 10:17:14.592958 17185 net.cpp:157] Top shape: 1 1 500 500 (250000)
I1125 10:17:14.592959 17185 net.cpp:165] Memory required for data: 1147050964
I1125 10:17:14.592962 17185 layer_factory.hpp:77] Creating layer loss2-score
I1125 10:17:14.592968 17185 net.cpp:100] Creating Layer loss2-score
I1125 10:17:14.592970 17185 net.cpp:434] loss2-score <- upscore-dsn2_crop2-dsn2_0_split_0
I1125 10:17:14.592973 17185 net.cpp:434] loss2-score <- label_data_1_split_4
I1125 10:17:14.592978 17185 net.cpp:408] loss2-score -> loss2-score
I1125 10:17:14.593169 17185 net.cpp:150] Setting up loss2-score
I1125 10:17:14.593175 17185 net.cpp:157] Top shape: (1)
I1125 10:17:14.593178 17185 net.cpp:160]     with loss weight 1
I1125 10:17:14.593181 17185 net.cpp:165] Memory required for data: 1147050968
I1125 10:17:14.593184 17185 layer_factory.hpp:77] Creating layer sigmoid-dsn1
I1125 10:17:14.593188 17185 net.cpp:100] Creating Layer sigmoid-dsn1
I1125 10:17:14.593190 17185 net.cpp:434] sigmoid-dsn1 <- upscore-dsn2_crop2-dsn2_0_split_1
I1125 10:17:14.593194 17185 net.cpp:408] sigmoid-dsn1 -> sigmoid-dsn1
I1125 10:17:14.593715 17185 net.cpp:150] Setting up sigmoid-dsn1
I1125 10:17:14.593725 17185 net.cpp:157] Top shape: 1 1 500 500 (250000)
I1125 10:17:14.593727 17185 net.cpp:165] Memory required for data: 1148050968
I1125 10:17:14.593729 17185 layer_factory.hpp:77] Creating layer rev-dsn1
I1125 10:17:14.593737 17185 net.cpp:100] Creating Layer rev-dsn1
I1125 10:17:14.593739 17185 net.cpp:434] rev-dsn1 <- sigmoid-dsn1
I1125 10:17:14.593744 17185 net.cpp:408] rev-dsn1 -> rev-dsn1
I1125 10:17:14.593775 17185 net.cpp:150] Setting up rev-dsn1
I1125 10:17:14.593778 17185 net.cpp:157] Top shape: 1 1 500 500 (250000)
I1125 10:17:14.593780 17185 net.cpp:165] Memory required for data: 1149050968
I1125 10:17:14.593782 17185 layer_factory.hpp:77] Creating layer tile-dsn1
I1125 10:17:14.593786 17185 net.cpp:100] Creating Layer tile-dsn1
I1125 10:17:14.593788 17185 net.cpp:434] tile-dsn1 <- rev-dsn1
I1125 10:17:14.593793 17185 net.cpp:408] tile-dsn1 -> weight-dsn1
I1125 10:17:14.593819 17185 net.cpp:150] Setting up tile-dsn1
I1125 10:17:14.593825 17185 net.cpp:157] Top shape: 1 64 500 500 (16000000)
I1125 10:17:14.593827 17185 net.cpp:165] Memory required for data: 1213050968
I1125 10:17:14.593829 17185 layer_factory.hpp:77] Creating layer prod1-dsn1
I1125 10:17:14.593833 17185 net.cpp:100] Creating Layer prod1-dsn1
I1125 10:17:14.593835 17185 net.cpp:434] prod1-dsn1 <- conv1_2_relu1_2_0_split_1
I1125 10:17:14.593838 17185 net.cpp:434] prod1-dsn1 <- weight-dsn1
I1125 10:17:14.593843 17185 net.cpp:408] prod1-dsn1 -> prod1-dsn1
I1125 10:17:14.593868 17185 net.cpp:150] Setting up prod1-dsn1
I1125 10:17:14.593874 17185 net.cpp:157] Top shape: 1 64 500 500 (16000000)
I1125 10:17:14.593876 17185 net.cpp:165] Memory required for data: 1277050968
I1125 10:17:14.593878 17185 layer_factory.hpp:77] Creating layer conv1-dsn1
I1125 10:17:14.593885 17185 net.cpp:100] Creating Layer conv1-dsn1
I1125 10:17:14.593888 17185 net.cpp:434] conv1-dsn1 <- prod1-dsn1
I1125 10:17:14.593892 17185 net.cpp:408] conv1-dsn1 -> conv1-dsn1
I1125 10:17:14.596190 17185 net.cpp:150] Setting up conv1-dsn1
I1125 10:17:14.596200 17185 net.cpp:157] Top shape: 1 64 500 500 (16000000)
I1125 10:17:14.596202 17185 net.cpp:165] Memory required for data: 1341050968
I1125 10:17:14.596208 17185 layer_factory.hpp:77] Creating layer conv2-dsn1
I1125 10:17:14.596230 17185 net.cpp:100] Creating Layer conv2-dsn1
I1125 10:17:14.596233 17185 net.cpp:434] conv2-dsn1 <- conv1-dsn1
I1125 10:17:14.596238 17185 net.cpp:408] conv2-dsn1 -> conv2-dsn1
I1125 10:17:14.597779 17185 net.cpp:150] Setting up conv2-dsn1
I1125 10:17:14.597790 17185 net.cpp:157] Top shape: 1 64 500 500 (16000000)
I1125 10:17:14.597791 17185 net.cpp:165] Memory required for data: 1405050968
I1125 10:17:14.597796 17185 layer_factory.hpp:77] Creating layer relu1-dsn1
I1125 10:17:14.597802 17185 net.cpp:100] Creating Layer relu1-dsn1
I1125 10:17:14.597805 17185 net.cpp:434] relu1-dsn1 <- conv2-dsn1
I1125 10:17:14.597810 17185 net.cpp:395] relu1-dsn1 -> conv2-dsn1 (in-place)
I1125 10:17:14.598305 17185 net.cpp:150] Setting up relu1-dsn1
I1125 10:17:14.598315 17185 net.cpp:157] Top shape: 1 64 500 500 (16000000)
I1125 10:17:14.598317 17185 net.cpp:165] Memory required for data: 1469050968
I1125 10:17:14.598320 17185 layer_factory.hpp:77] Creating layer conv3-dsn1
I1125 10:17:14.598327 17185 net.cpp:100] Creating Layer conv3-dsn1
I1125 10:17:14.598330 17185 net.cpp:434] conv3-dsn1 <- conv2-dsn1
I1125 10:17:14.598337 17185 net.cpp:408] conv3-dsn1 -> conv3-dsn1
I1125 10:17:14.600893 17185 net.cpp:150] Setting up conv3-dsn1
I1125 10:17:14.600903 17185 net.cpp:157] Top shape: 1 64 500 500 (16000000)
I1125 10:17:14.600905 17185 net.cpp:165] Memory required for data: 1533050968
I1125 10:17:14.600910 17185 layer_factory.hpp:77] Creating layer relu2-dsn1
I1125 10:17:14.600915 17185 net.cpp:100] Creating Layer relu2-dsn1
I1125 10:17:14.600917 17185 net.cpp:434] relu2-dsn1 <- conv3-dsn1
I1125 10:17:14.600924 17185 net.cpp:395] relu2-dsn1 -> conv3-dsn1 (in-place)
I1125 10:17:14.601104 17185 net.cpp:150] Setting up relu2-dsn1
I1125 10:17:14.601110 17185 net.cpp:157] Top shape: 1 64 500 500 (16000000)
I1125 10:17:14.601112 17185 net.cpp:165] Memory required for data: 1597050968
I1125 10:17:14.601115 17185 layer_factory.hpp:77] Creating layer conv4-dsn1
I1125 10:17:14.601123 17185 net.cpp:100] Creating Layer conv4-dsn1
I1125 10:17:14.601135 17185 net.cpp:434] conv4-dsn1 <- conv3-dsn1
I1125 10:17:14.601141 17185 net.cpp:408] conv4-dsn1 -> conv4-dsn1
I1125 10:17:14.602432 17185 net.cpp:150] Setting up conv4-dsn1
I1125 10:17:14.602443 17185 net.cpp:157] Top shape: 1 1 500 500 (250000)
I1125 10:17:14.602445 17185 net.cpp:165] Memory required for data: 1598050968
I1125 10:17:14.602450 17185 layer_factory.hpp:77] Creating layer sum-dsn1
I1125 10:17:14.602458 17185 net.cpp:100] Creating Layer sum-dsn1
I1125 10:17:14.602459 17185 net.cpp:434] sum-dsn1 <- conv4-dsn1
I1125 10:17:14.602463 17185 net.cpp:434] sum-dsn1 <- upscore-dsn2_crop2-dsn2_0_split_2
I1125 10:17:14.602468 17185 net.cpp:408] sum-dsn1 -> sum-dsn1
I1125 10:17:14.602499 17185 net.cpp:150] Setting up sum-dsn1
I1125 10:17:14.602504 17185 net.cpp:157] Top shape: 1 1 500 500 (250000)
I1125 10:17:14.602505 17185 net.cpp:165] Memory required for data: 1599050968
I1125 10:17:14.602507 17185 layer_factory.hpp:77] Creating layer crop2-dsn1
I1125 10:17:14.602511 17185 net.cpp:100] Creating Layer crop2-dsn1
I1125 10:17:14.602514 17185 net.cpp:434] crop2-dsn1 <- sum-dsn1
I1125 10:17:14.602516 17185 net.cpp:434] crop2-dsn1 <- data_data_0_split_6
I1125 10:17:14.602521 17185 net.cpp:408] crop2-dsn1 -> upscore-dsn1
I1125 10:17:14.602548 17185 net.cpp:150] Setting up crop2-dsn1
I1125 10:17:14.602556 17185 net.cpp:157] Top shape: 1 1 500 500 (250000)
I1125 10:17:14.602558 17185 net.cpp:165] Memory required for data: 1600050968
I1125 10:17:14.602560 17185 layer_factory.hpp:77] Creating layer loss1-score
I1125 10:17:14.602566 17185 net.cpp:100] Creating Layer loss1-score
I1125 10:17:14.602569 17185 net.cpp:434] loss1-score <- upscore-dsn1
I1125 10:17:14.602571 17185 net.cpp:434] loss1-score <- label_data_1_split_5
I1125 10:17:14.602574 17185 net.cpp:408] loss1-score -> loss1-score
…
