…
I1118 18:32:18.354490  3106 net.cpp:58] Initializing net from parameters: 
name: "RAS"
state {
  phase: TRAIN
}
layer {
  name: "data"
  type: "ImageLabelmapData"
  top: "data_unaugmented"
  top: "label_unaugmented"
  include {
    phase: TRAIN
  }
  transform_param {
    mean_value: 104.00699
    mean_value: 116.66877
    mean_value: 122.67892
  }
  image_data_param {
    source: "/media/compute/homes/galberding/FleckDetect/Datasets/train.txt"
    batch_size: 1
    shuffle: true
    new_height: 500
    new_width: 500
    root_folder: "/media/compute/homes/galberding/FleckDetect/Datasets/"
    normalize: true
  }
}
layer {
  name: "augmentation"
  type: "Python"
  bottom: "data_unaugmented"
  bottom: "label_unaugmented"
  top: "data"
  top: "label"
  include {
    phase: TRAIN
  }
  python_param {
    module: "data_augmentation"
    layer: "DataAugmentation"
  }
}
layer {
  name: "conv1_1"
  type: "Convolution"
  bottom: "data"
  top: "conv1_1"
  param {
    lr_mult: 1
    decay_mult: 1
  }
  param {
    lr_mult: 2
    decay_mult: 0
  }
  convolution_param {
    num_output: 64
    pad: 1
    kernel_size: 3
    engine: CUDNN
  }
}
layer {
  name: "relu1_1"
  type: "ReLU"
  bottom: "conv1_1"
  top: "conv1_1"
}
layer {
  name: "conv1_2"
  type: "Convolution"
  bottom: "conv1_1"
  top: "conv1_2"
  param {
    lr_mult: 1
    decay_mult: 1
  }
  param {
    lr_mult: 2
    decay_mult: 0
  }
  convolution_param {
    num_output: 64
    pad: 1
    kernel_size: 3
    engine: CUDNN
  }
}
layer {
  name: "relu1_2"
  type: "ReLU"
  bottom: "conv1_2"
  top: "conv1_2"
}
layer {
  name: "pool1"
  type: "Pooling"
  bottom: "conv1_2"
  top: "pool1"
  pooling_param {
    pool: MAX
    kernel_size: 2
    stride: 2
  }
}
layer {
  name: "conv2_1"
  type: "Convolution"
  bottom: "pool1"
  top: "conv2_1"
  param {
    lr_mult: 1
    decay_mult: 1
  }
  param {
    lr_mult: 2
    decay_mult: 0
  }
  convolution_param {
    num_output: 128
    pad: 1
    kernel_size: 3
    engine: CUDNN
  }
}
layer {
  name: "relu2_1"
  type: "ReLU"
  bottom: "conv2_1"
  top: "conv2_1"
}
layer {
  name: "conv2_2"
  type: "Convolution"
  bottom: "conv2_1"
  top: "conv2_2"
  param {
    lr_mult: 1
    decay_mult: 1
  }
  param {
    lr_mult: 2
    decay_mult: 0
  }
  convolution_param {
    num_output: 128
    pad: 1
    kernel_size: 3
    engine: CUDNN
  }
}
layer {
  name: "relu2_2"
  type: "ReLU"
  bottom: "conv2_2"
  top: "conv2_2"
}
layer {
  name: "pool2"
  type: "Pooling"
  bottom: "conv2_2"
  top: "pool2"
  pooling_param {
    pool: MAX
    kernel_size: 2
    stride: 2
  }
}
layer {
  name: "conv3_1"
  type: "Convolution"
  bottom: "pool2"
  top: "conv3_1"
  param {
    lr_mult: 1
    decay_mult: 1
  }
  param {
    lr_mult: 2
    decay_mult: 0
  }
  convolution_param {
    num_output: 256
    pad: 1
    kernel_size: 3
    engine: CUDNN
  }
}
layer {
  name: "relu3_1"
  type: "ReLU"
  bottom: "conv3_1"
  top: "conv3_1"
}
layer {
  name: "conv3_2"
  type: "Convolution"
  bottom: "conv3_1"
  top: "conv3_2"
  param {
    lr_mult: 1
    decay_mult: 1
  }
  param {
    lr_mult: 2
    decay_mult: 0
  }
  convolution_param {
    num_output: 256
    pad: 1
    kernel_size: 3
    engine: CUDNN
  }
}
layer {
  name: "relu3_2"
  type: "ReLU"
  bottom: "conv3_2"
  top: "conv3_2"
}
layer {
  name: "conv3_3"
  type: "Convolution"
  bottom: "conv3_2"
  top: "conv3_3"
  param {
    lr_mult: 1
    decay_mult: 1
  }
  param {
    lr_mult: 2
    decay_mult: 0
  }
  convolution_param {
    num_output: 256
    pad: 1
    kernel_size: 3
    engine: CUDNN
  }
}
layer {
  name: "relu3_3"
  type: "ReLU"
  bottom: "conv3_3"
  top: "conv3_3"
}
layer {
  name: "pool3"
  type: "Pooling"
  bottom: "conv3_3"
  top: "pool3"
  pooling_param {
    pool: MAX
    kernel_size: 2
    stride: 2
  }
}
layer {
  name: "conv4_1"
  type: "Convolution"
  bottom: "pool3"
  top: "conv4_1"
  param {
    lr_mult: 1
    decay_mult: 1
  }
  param {
    lr_mult: 2
    decay_mult: 0
  }
  convolution_param {
    num_output: 512
    pad: 1
    kernel_size: 3
    engine: CUDNN
  }
}
layer {
  name: "relu4_1"
  type: "ReLU"
  bottom: "conv4_1"
  top: "conv4_1"
}
layer {
  name: "conv4_2"
  type: "Convolution"
  bottom: "conv4_1"
  top: "conv4_2"
  param {
    lr_mult: 1
    decay_mult: 1
  }
  param {
    lr_mult: 2
    decay_mult: 0
  }
  convolution_param {
    num_output: 512
    pad: 1
    kernel_size: 3
    engine: CUDNN
  }
}
layer {
  name: "relu4_2"
  type: "ReLU"
  bottom: "conv4_2"
  top: "conv4_2"
}
layer {
  name: "conv4_3"
  type: "Convolution"
  bottom: "conv4_2"
  top: "conv4_3"
  param {
    lr_mult: 1
    decay_mult: 1
  }
  param {
    lr_mult: 2
    decay_mult: 0
  }
  convolution_param {
    num_output: 512
    pad: 1
    kernel_size: 3
    engine: CUDNN
  }
}
layer {
  name: "relu4_3"
  type: "ReLU"
  bottom: "conv4_3"
  top: "conv4_3"
}
layer {
  name: "pool4"
  type: "Pooling"
  bottom: "conv4_3"
  top: "pool4"
  pooling_param {
    pool: MAX
    kernel_size: 3
    stride: 2
    pad: 1
  }
}
layer {
  name: "conv5_1"
  type: "Convolution"
  bottom: "pool4"
  top: "conv5_1"
  param {
    lr_mult: 1
    decay_mult: 1
  }
  param {
    lr_mult: 2
    decay_mult: 0
  }
  convolution_param {
    num_output: 512
    pad: 1
    kernel_size: 3
    engine: CUDNN
  }
}
layer {
  name: "relu5_1"
  type: "ReLU"
  bottom: "conv5_1"
  top: "conv5_1"
}
layer {
  name: "conv5_2"
  type: "Convolution"
  bottom: "conv5_1"
  top: "conv5_2"
  param {
    lr_mult: 1
    decay_mult: 1
  }
  param {
    lr_mult: 2
    decay_mult: 0
  }
  convolution_param {
    num_output: 512
    pad: 1
    kernel_size: 3
    engine: CUDNN
  }
}
layer {
  name: "relu5_2"
  type: "ReLU"
  bottom: "conv5_2"
  top: "conv5_2"
}
layer {
  name: "conv5_3"
  type: "Convolution"
  bottom: "conv5_2"
  top: "conv5_3"
  param {
    lr_mult: 1
    decay_mult: 1
  }
  param {
    lr_mult: 2
    decay_mult: 0
  }
  convolution_param {
    num_output: 512
    pad: 1
    kernel_size: 3
    engine: CUDNN
  }
}
layer {
  name: "relu5_3"
  type: "ReLU"
  bottom: "conv5_3"
  top: "conv5_3"
}
layer {
  name: "pool5"
  type: "Pooling"
  bottom: "conv5_3"
  top: "pool5"
  pooling_param {
    pool: MAX
    kernel_size: 3
    stride: 2
    pad: 1
  }
}
layer {
  name: "conv1-dsn6"
  type: "Convolution"
  bottom: "pool5"
  top: "conv1-dsn6"
  param {
    lr_mult: 1
    decay_mult: 1
  }
  param {
    lr_mult: 2
    decay_mult: 0
  }
  convolution_param {
    num_output: 256
    kernel_size: 1
    weight_filler {
      type: "gaussian"
      std: 0.01
    }
    bias_filler {
      type: "constant"
      value: 0
    }
    engine: CUDNN
  }
}
layer {
  name: "conv2-dsn6"
  type: "Convolution"
  bottom: "conv1-dsn6"
  top: "conv2-dsn6"
  param {
    lr_mult: 1
    decay_mult: 1
  }
  param {
    lr_mult: 2
    decay_mult: 0
  }
  convolution_param {
    num_output: 256
    pad: 2
    kernel_size: 5
    weight_filler {
      type: "gaussian"
      std: 0.01
    }
    bias_filler {
      type: "constant"
      value: 0
    }
    engine: CUDNN
  }
}
layer {
  name: "relu1-dsn6"
  type: "ReLU"
  bottom: "conv2-dsn6"
  top: "conv2-dsn6"
}
layer {
  name: "conv3-dsn6"
  type: "Convolution"
  bottom: "conv2-dsn6"
  top: "conv3-dsn6"
  param {
    lr_mult: 1
    decay_mult: 1
  }
  param {
    lr_mult: 2
    decay_mult: 0
  }
  convolution_param {
    num_output: 256
    pad: 2
    kernel_size: 5
    weight_filler {
      type: "gaussian"
      std: 0.01
    }
    bias_filler {
      type: "constant"
      value: 0
    }
    engine: CUDNN
  }
}
layer {
  name: "relu2-dsn6"
  type: "ReLU"
  bottom: "conv3-dsn6"
  top: "conv3-dsn6"
}
layer {
  name: "conv4-dsn6"
  type: "Convolution"
  bottom: "conv3-dsn6"
  top: "conv4-dsn6"
  param {
    lr_mult: 1
    decay_mult: 1
  }
  param {
    lr_mult: 2
    decay_mult: 0
  }
  convolution_param {
    num_output: 256
    pad: 2
    kernel_size: 5
    weight_filler {
      type: "gaussian"
      std: 0.01
    }
    bias_filler {
      type: "constant"
      value: 0
    }
    engine: CUDNN
  }
}
layer {
  name: "relu3-dsn6"
  type: "ReLU"
  bottom: "conv4-dsn6"
  top: "conv4-dsn6"
}
layer {
  name: "conv5-dsn6"
  type: "Convolution"
  bottom: "conv4-dsn6"
  top: "conv5-dsn6"
  param {
    lr_mult: 0.1
    decay_mult: 1
  }
  param {
    lr_mult: 0.2
    decay_mult: 0
  }
  convolution_param {
    num_output: 1
    kernel_size: 1
    weight_filler {
      type: "gaussian"
      std: 0.01
    }
    bias_filler {
      type: "constant"
      value: 0
    }
    engine: CUDNN
  }
}
layer {
  name: "upsample32_dsn6"
  type: "Deconvolution"
  bottom: "conv5-dsn6"
  top: "conv5-dsn6-up"
  param {
    lr_mult: 0
    decay_mult: 1
  }
  param {
    lr_mult: 0
    decay_mult: 0
  }
  convolution_param {
    num_output: 1
    kernel_size: 64
    stride: 32
  }
}
layer {
  name: "crop-dsn6"
  type: "Crop"
  bottom: "conv5-dsn6-up"
  bottom: "data"
  top: "upscore-dsn6"
}
layer {
  name: "loss6-score"
  type: "SigmoidCrossEntropyLoss"
  bottom: "upscore-dsn6"
  bottom: "label"
  top: "loss6-score"
  loss_weight: 1
}
layer {
  name: "upsample2_dsn5"
  type: "Deconvolution"
  bottom: "conv5-dsn6"
  top: "conv5-dsn6-5"
  param {
    lr_mult: 0
    decay_mult: 1
  }
  param {
    lr_mult: 0
    decay_mult: 0
  }
  convolution_param {
    num_output: 1
    kernel_size: 4
    stride: 2
  }
}
layer {
  name: "crop1-dsn5"
  type: "Crop"
  bottom: "conv5-dsn6-5"
  bottom: "conv5_3"
  top: "weight-dsn6-5"
}
layer {
  name: "sigmoid-dsn5"
  type: "Sigmoid"
  bottom: "weight-dsn6-5"
  top: "sigmoid-dsn5"
}
layer {
  name: "rev-dsn5"
  type: "Power"
  bottom: "sigmoid-dsn5"
  top: "rev-dsn5"
  power_param {
    power: 1
    scale: -1
    shift: 1
  }
}
layer {
  name: "tile-dsn5"
  type: "Tile"
  bottom: "rev-dsn5"
  top: "weight-dsn5"
  tile_param {
    tiles: 512
  }
}
layer {
  name: "prod1-dsn5"
  type: "Eltwise"
  bottom: "conv5_3"
  bottom: "weight-dsn5"
  top: "prod1-dsn5"
  eltwise_param {
    operation: PROD
  }
}
layer {
  name: "conv1-dsn5"
  type: "Convolution"
  bottom: "prod1-dsn5"
  top: "conv1-dsn5"
  param {
    lr_mult: 1
    decay_mult: 1
  }
  param {
    lr_mult: 2
    decay_mult: 0
  }
  convolution_param {
    num_output: 64
    kernel_size: 1
    weight_filler {
      type: "gaussian"
      std: 0.01
    }
    bias_filler {
      type: "constant"
      value: 0
    }
    engine: CUDNN
  }
}
layer {
  name: "conv2-dsn5"
  type: "Convolution"
  bottom: "conv1-dsn5"
  top: "conv2-dsn5"
  param {
    lr_mult: 1
    decay_mult: 1
  }
  param {
    lr_mult: 2
    decay_mult: 0
  }
  convolution_param {
    num_output: 64
    pad: 1
    kernel_size: 3
    weight_filler {
      type: "gaussian"
      std: 0.01
    }
    bias_filler {
      type: "constant"
      value: 0
    }
    engine: CUDNN
  }
}
layer {
  name: "relu1-dsn5"
  type: "ReLU"
  bottom: "conv2-dsn5"
  top: "conv2-dsn5"
}
layer {
  name: "conv3-dsn5"
  type: "Convolution"
  bottom: "conv2-dsn5"
  top: "conv3-dsn5"
  param {
    lr_mult: 1
    decay_mult: 1
  }
  param {
    lr_mult: 2
    decay_mult: 0
  }
  convolution_param {
    num_output: 64
    pad: 1
    kernel_size: 3
    weight_filler {
      type: "gaussian"
      std: 0.01
    }
    bias_filler {
      type: "constant"
      value: 0
    }
    engine: CUDNN
  }
}
layer {
  name: "relu2-dsn5"
  type: "ReLU"
  bottom: "conv3-dsn5"
  top: "conv3-dsn5"
}
layer {
  name: "conv4-dsn5"
  type: "Convolution"
  bottom: "conv3-dsn5"
  top: "conv4-dsn5"
  param {
    lr_mult: 1
    decay_mult: 1
  }
  param {
    lr_mult: 2
    decay_mult: 0
  }
  convolution_param {
    num_output: 1
    pad: 1
    kernel_size: 3
    weight_filler {
      type: "gaussian"
      std: 0.01
    }
    bias_filler {
      type: "constant"
      value: 0
    }
    engine: CUDNN
  }
}
layer {
  name: "sum-dsn5"
  type: "Eltwise"
  bottom: "conv4-dsn5"
  bottom: "weight-dsn6-5"
  top: "sum-dsn5"
  eltwise_param {
    operation: SUM
  }
}
layer {
  name: "upsample16_dsn5"
  type: "Deconvolution"
  bottom: "sum-dsn5"
  top: "sum-dsn5-up"
  param {
    lr_mult: 0
    decay_mult: 1
  }
  param {
    lr_mult: 0
    decay_mult: 0
  }
  convolution_param {
    num_output: 1
    kernel_size: 32
    stride: 16
  }
}
layer {
  name: "crop2-dsn5"
  type: "Crop"
  bottom: "sum-dsn5-up"
  bottom: "data"
  top: "upscore-dsn5"
}
layer {
  name: "loss5-score"
  type: "SigmoidCrossEntropyLoss"
  bottom: "upscore-dsn5"
  bottom: "label"
  top: "loss5-score"
  loss_weight: 1
}
layer {
  name: "upsample2_dsn4"
  type: "Deconvolution"
  bottom: "sum-dsn5"
  top: "sum-dsn5-4"
  param {
    lr_mult: 0
    decay_mult: 1
  }
  param {
    lr_mult: 0
    decay_mult: 0
  }
  convolution_param {
    num_output: 1
    kernel_size: 4
    stride: 2
  }
}
layer {
  name: "crop1-dsn4"
  type: "Crop"
  bottom: "sum-dsn5-4"
  bottom: "conv4_3"
  top: "weight-dsn5-4"
}
layer {
  name: "sigmoid-dsn4"
  type: "Sigmoid"
  bottom: "weight-dsn5-4"
  top: "sigmoid-dsn4"
}
layer {
  name: "rev-dsn4"
  type: "Power"
  bottom: "sigmoid-dsn4"
  top: "rev-dsn4"
  power_param {
    power: 1
    scale: -1
    shift: 1
  }
}
layer {
  name: "tile-dsn4"
  type: "Tile"
  bottom: "rev-dsn4"
  top: "weight-dsn4"
  tile_param {
    tiles: 512
  }
}
layer {
  name: "prod1-dsn4"
  type: "Eltwise"
  bottom: "conv4_3"
  bottom: "weight-dsn4"
  top: "prod1-dsn4"
  eltwise_param {
    operation: PROD
  }
}
layer {
  name: "conv1-dsn4"
  type: "Convolution"
  bottom: "prod1-dsn4"
  top: "conv1-dsn4"
  param {
    lr_mult: 1
    decay_mult: 1
  }
  param {
    lr_mult: 2
    decay_mult: 0
  }
  convolution_param {
    num_output: 64
    kernel_size: 1
    weight_filler {
      type: "gaussian"
      std: 0.01
    }
    bias_filler {
      type: "constant"
      value: 0
    }
    engine: CUDNN
  }
}
layer {
  name: "conv2-dsn4"
  type: "Convolution"
  bottom: "conv1-dsn4"
  top: "conv2-dsn4"
  param {
    lr_mult: 1
    decay_mult: 1
  }
  param {
    lr_mult: 2
    decay_mult: 0
  }
  convolution_param {
    num_output: 64
    pad: 1
    kernel_size: 3
    weight_filler {
      type: "gaussian"
      std: 0.01
    }
    bias_filler {
      type: "constant"
      value: 0
    }
    engine: CUDNN
  }
}
layer {
  name: "relu1-dsn4"
  type: "ReLU"
  bottom: "conv2-dsn4"
  top: "conv2-dsn4"
}
layer {
  name: "conv3-dsn4"
  type: "Convolution"
  bottom: "conv2-dsn4"
  top: "conv3-dsn4"
  param {
    lr_mult: 1
    decay_mult: 1
  }
  param {
    lr_mult: 2
    decay_mult: 0
  }
  convolution_param {
    num_output: 64
    pad: 1
    kernel_size: 3
    weight_filler {
      type: "gaussian"
      std: 0.01
    }
    bias_filler {
      type: "constant"
      value: 0
    }
    engine: CUDNN
  }
}
layer {
  name: "relu2-dsn4"
  type: "ReLU"
  bottom: "conv3-dsn4"
  top: "conv3-dsn4"
}
layer {
  name: "conv4-dsn4"
  type: "Convolution"
  bottom: "conv3-dsn4"
  top: "conv4-dsn4"
  param {
    lr_mult: 1
    decay_mult: 1
  }
  param {
    lr_mult: 2
    decay_mult: 0
  }
  convolution_param {
    num_output: 1
    pad: 1
    kernel_size: 3
    weight_filler {
      type: "gaussian"
      std: 0.01
    }
    bias_filler {
      type: "constant"
      value: 0
    }
    engine: CUDNN
  }
}
layer {
  name: "sum-dsn4"
  type: "Eltwise"
  bottom: "conv4-dsn4"
  bottom: "weight-dsn5-4"
  top: "sum-dsn4"
  eltwise_param {
    operation: SUM
  }
}
layer {
  name: "upsample8_dsn4"
  type: "Deconvolution"
  bottom: "sum-dsn4"
  top: "sum-dsn4-up"
  param {
    lr_mult: 0
    decay_mult: 1
  }
  param {
    lr_mult: 0
    decay_mult: 0
  }
  convolution_param {
    num_output: 1
    kernel_size: 16
    stride: 8
  }
}
layer {
  name: "crop2-dsn4"
  type: "Crop"
  bottom: "sum-dsn4-up"
  bottom: "data"
  top: "upscore-dsn4"
}
layer {
  name: "loss4-score"
  type: "SigmoidCrossEntropyLoss"
  bottom: "upscore-dsn4"
  bottom: "label"
  top: "loss4-score"
  loss_weight: 1
}
layer {
  name: "upsample2_dsn3"
  type: "Deconvolution"
  bottom: "sum-dsn4"
  top: "sum-dsn4-3"
  param {
    lr_mult: 0
    decay_mult: 1
  }
  param {
    lr_mult: 0
    decay_mult: 0
  }
  convolution_param {
    num_output: 1
    kernel_size: 4
    stride: 2
  }
}
layer {
  name: "crop1-dsn3"
  type: "Crop"
  bottom: "sum-dsn4-3"
  bottom: "conv3_3"
  top: "weight-dsn4-3"
}
layer {
  name: "sigmoid-dsn3"
  type: "Sigmoid"
  bottom: "weight-dsn4-3"
  top: "sigmoid-dsn3"
}
layer {
  name: "rev-dsn3"
  type: "Power"
  bottom: "sigmoid-dsn3"
  top: "rev-dsn3"
  power_param {
    power: 1
    scale: -1
    shift: 1
  }
}
layer {
  name: "tile-dsn3"
  type: "Tile"
  bottom: "rev-dsn3"
  top: "weight-dsn3"
  tile_param {
    tiles: 256
  }
}
layer {
  name: "prod1-dsn3"
  type: "Eltwise"
  bottom: "conv3_3"
  bottom: "weight-dsn3"
  top: "prod1-dsn3"
  eltwise_param {
    operation: PROD
  }
}
layer {
  name: "conv1-dsn3"
  type: "Convolution"
  bottom: "prod1-dsn3"
  top: "conv1-dsn3"
  param {
    lr_mult: 1
    decay_mult: 1
  }
  param {
    lr_mult: 2
    decay_mult: 0
  }
  convolution_param {
    num_output: 64
    kernel_size: 1
    weight_filler {
      type: "gaussian"
      std: 0.01
    }
    bias_filler {
      type: "constant"
      value: 0
    }
    engine: CUDNN
  }
}
layer {
  name: "conv2-dsn3"
  type: "Convolution"
  bottom: "conv1-dsn3"
  top: "conv2-dsn3"
  param {
    lr_mult: 1
    decay_mult: 1
  }
  param {
    lr_mult: 2
    decay_mult: 0
  }
  convolution_param {
    num_output: 64
    pad: 1
    kernel_size: 3
    weight_filler {
      type: "gaussian"
      std: 0.01
    }
    bias_filler {
      type: "constant"
      value: 0
    }
    engine: CUDNN
  }
}
layer {
  name: "relu1-dsn3"
  type: "ReLU"
  bottom: "conv2-dsn3"
  top: "conv2-dsn3"
}
layer {
  name: "conv3-dsn3"
  type: "Convolution"
  bottom: "conv2-dsn3"
  top: "conv3-dsn3"
  param {
    lr_mult: 1
    decay_mult: 1
  }
  param {
    lr_mult: 2
    decay_mult: 0
  }
  convolution_param {
    num_output: 64
    pad: 1
    kernel_size: 3
    weight_filler {
      type: "gaussian"
      std: 0.01
    }
    bias_filler {
      type: "constant"
      value: 0
    }
    engine: CUDNN
  }
}
layer {
  name: "relu2-dsn3"
  type: "ReLU"
  bottom: "conv3-dsn3"
  top: "conv3-dsn3"
}
layer {
  name: "conv4-dsn3"
  type: "Convolution"
  bottom: "conv3-dsn3"
  top: "conv4-dsn3"
  param {
    lr_mult: 1
    decay_mult: 1
  }
  param {
    lr_mult: 2
    decay_mult: 0
  }
  convolution_param {
    num_output: 1
    pad: 1
    kernel_size: 3
    weight_filler {
      type: "gaussian"
      std: 0.01
    }
    bias_filler {
      type: "constant"
      value: 0
    }
    engine: CUDNN
  }
}
layer {
  name: "sum-dsn3"
  type: "Eltwise"
  bottom: "conv4-dsn3"
  bottom: "weight-dsn4-3"
  top: "sum-dsn3"
  eltwise_param {
    operation: SUM
  }
}
layer {
  name: "upsample4_dsn3"
  type: "Deconvolution"
  bottom: "sum-dsn3"
  top: "sum-dsn3-up"
  param {
    lr_mult: 0
    decay_mult: 1
  }
  param {
    lr_mult: 0
    decay_mult: 0
  }
  convolution_param {
    num_output: 1
    kernel_size: 8
    stride: 4
  }
}
layer {
  name: "crop2-dsn3"
  type: "Crop"
  bottom: "sum-dsn3-up"
  bottom: "data"
  top: "upscore-dsn3"
}
layer {
  name: "loss3-score"
  type: "SigmoidCrossEntropyLoss"
  bottom: "upscore-dsn3"
  bottom: "label"
  top: "loss3-score"
  loss_weight: 1
}
layer {
  name: "upsample2_1-dsn2"
  type: "Deconvolution"
  bottom: "sum-dsn3"
  top: "sum-dsn3-2"
  param {
    lr_mult: 0
    decay_mult: 1
  }
  param {
    lr_mult: 0
    decay_mult: 0
  }
  convolution_param {
    num_output: 1
    kernel_size: 4
    stride: 2
  }
}
layer {
  name: "crop1-dsn2"
  type: "Crop"
  bottom: "sum-dsn3-2"
  bottom: "conv2_2"
  top: "weight-dsn3-2"
}
layer {
  name: "sigmoid-dsn2"
  type: "Sigmoid"
  bottom: "weight-dsn3-2"
  top: "sigmoid-dsn2"
}
layer {
  name: "rev-dsn2"
  type: "Power"
  bottom: "sigmoid-dsn2"
  top: "rev-dsn2"
  power_param {
    power: 1
    scale: -1
    shift: 1
  }
}
layer {
  name: "tile-dsn2"
  type: "Tile"
  bottom: "rev-dsn2"
  top: "weight-dsn2"
  tile_param {
    tiles: 128
  }
}
layer {
  name: "prod1-dsn2"
  type: "Eltwise"
  bottom: "conv2_2"
  bottom: "weight-dsn2"
  top: "prod1-dsn2"
  eltwise_param {
    operation: PROD
  }
}
layer {
  name: "conv1-dsn2"
  type: "Convolution"
  bottom: "prod1-dsn2"
  top: "conv1-dsn2"
  param {
    lr_mult: 1
    decay_mult: 1
  }
  param {
    lr_mult: 2
    decay_mult: 0
  }
  convolution_param {
    num_output: 64
    kernel_size: 1
    weight_filler {
      type: "gaussian"
      std: 0.01
    }
    bias_filler {
      type: "constant"
      value: 0
    }
    engine: CUDNN
  }
}
layer {
  name: "conv2-dsn2"
  type: "Convolution"
  bottom: "conv1-dsn2"
  top: "conv2-dsn2"
  param {
    lr_mult: 1
    decay_mult: 1
  }
  param {
    lr_mult: 2
    decay_mult: 0
  }
  convolution_param {
    num_output: 64
    pad: 1
    kernel_size: 3
    weight_filler {
      type: "gaussian"
      std: 0.01
    }
    bias_filler {
      type: "constant"
      value: 0
    }
    engine: CUDNN
  }
}
layer {
  name: "relu1-dsn2"
  type: "ReLU"
  bottom: "conv2-dsn2"
  top: "conv2-dsn2"
}
layer {
  name: "conv3-dsn2"
  type: "Convolution"
  bottom: "conv2-dsn2"
  top: "conv3-dsn2"
  param {
    lr_mult: 1
    decay_mult: 1
  }
  param {
    lr_mult: 2
    decay_mult: 0
  }
  convolution_param {
    num_output: 64
    pad: 1
    kernel_size: 3
    weight_filler {
      type: "gaussian"
      std: 0.01
    }
    bias_filler {
      type: "constant"
      value: 0
    }
    engine: CUDNN
  }
}
layer {
  name: "relu2-dsn2"
  type: "ReLU"
  bottom: "conv3-dsn2"
  top: "conv3-dsn2"
}
layer {
  name: "conv4-dsn2"
  type: "Convolution"
  bottom: "conv3-dsn2"
  top: "conv4-dsn2"
  param {
    lr_mult: 1
    decay_mult: 1
  }
  param {
    lr_mult: 2
    decay_mult: 0
  }
  convolution_param {
    num_output: 1
    pad: 1
    kernel_size: 3
    weight_filler {
      type: "gaussian"
      std: 0.01
    }
    bias_filler {
      type: "constant"
      value: 0
    }
    engine: CUDNN
  }
}
layer {
  name: "sum-dsn2"
  type: "Eltwise"
  bottom: "conv4-dsn2"
  bottom: "weight-dsn3-2"
  top: "sum-dsn2"
  eltwise_param {
    operation: SUM
  }
}
layer {
  name: "upsample2_2-dsn2"
  type: "Deconvolution"
  bottom: "sum-dsn2"
  top: "sum-dsn2-up"
  param {
    lr_mult: 0
    decay_mult: 1
  }
  param {
    lr_mult: 0
    decay_mult: 0
  }
  convolution_param {
    num_output: 1
    kernel_size: 4
    stride: 2
  }
}
layer {
  name: "crop2-dsn2"
  type: "Crop"
  bottom: "sum-dsn2-up"
  bottom: "data"
  top: "upscore-dsn2"
}
layer {
  name: "loss2-score"
  type: "SigmoidCrossEntropyLoss"
  bottom: "upscore-dsn2"
  bottom: "label"
  top: "loss2-score"
  loss_weight: 1
}
layer {
  name: "sigmoid-dsn1"
  type: "Sigmoid"
  bottom: "upscore-dsn2"
  top: "sigmoid-dsn1"
}
layer {
  name: "rev-dsn1"
  type: "Power"
  bottom: "sigmoid-dsn1"
  top: "rev-dsn1"
  power_param {
    power: 1
    scale: -1
    shift: 1
  }
}
layer {
  name: "tile-dsn1"
  type: "Tile"
  bottom: "rev-dsn1"
  top: "weight-dsn1"
  tile_param {
    tiles: 64
  }
}
layer {
  name: "prod1-dsn1"
  type: "Eltwise"
  bottom: "conv1_2"
  bottom: "weight-dsn1"
  top: "prod1-dsn1"
  eltwise_param {
    operation: PROD
  }
}
layer {
  name: "conv1-dsn1"
  type: "Convolution"
  bottom: "prod1-dsn1"
  top: "conv1-dsn1"
  param {
    lr_mult: 1
    decay_mult: 1
  }
  param {
    lr_mult: 2
    decay_mult: 0
  }
  convolution_param {
    num_output: 64
    kernel_size: 1
    weight_filler {
      type: "gaussian"
      std: 0.01
    }
    bias_filler {
      type: "constant"
      value: 0
    }
    engine: CUDNN
  }
}
layer {
  name: "conv2-dsn1"
  type: "Convolution"
  bottom: "conv1-dsn1"
  top: "conv2-dsn1"
  param {
    lr_mult: 1
    decay_mult: 1
  }
  param {
    lr_mult: 2
    decay_mult: 0
  }
  convolution_param {
    num_output: 64
    pad: 1
    kernel_size: 3
    weight_filler {
      type: "gaussian"
      std: 0.01
    }
    bias_filler {
      type: "constant"
      value: 0
    }
    engine: CUDNN
  }
}
layer {
  name: "relu1-dsn1"
  type: "ReLU"
  bottom: "conv2-dsn1"
  top: "conv2-dsn1"
}
layer {
  name: "conv3-dsn1"
  type: "Convolution"
  bottom: "conv2-dsn1"
  top: "conv3-dsn1"
  param {
    lr_mult: 1
    decay_mult: 1
  }
  param {
    lr_mult: 2
    decay_mult: 0
  }
  convolution_param {
    num_output: 64
    pad: 1
    kernel_size: 3
    weight_filler {
      type: "gaussian"
      std: 0.01
    }
    bias_filler {
      type: "constant"
      value: 0
    }
    engine: CUDNN
  }
}
layer {
  name: "relu2-dsn1"
  type: "ReLU"
  bottom: "conv3-dsn1"
  top: "conv3-dsn1"
}
layer {
  name: "conv4-dsn1"
  type: "Convolution"
  bottom: "conv3-dsn1"
  top: "conv4-dsn1"
  param {
    lr_mult: 1
    decay_mult: 1
  }
  param {
    lr_mult: 2
    decay_mult: 0
  }
  convolution_param {
    num_output: 1
    pad: 1
    kernel_size: 3
    weight_filler {
      type: "gaussian"
      std: 0.01
    }
    bias_filler {
      type: "constant"
      value: 0
    }
    engine: CUDNN
  }
}
layer {
  name: "sum-dsn1"
  type: "Eltwise"
  bottom: "conv4-dsn1"
  bottom: "upscore-dsn2"
  top: "sum-dsn1"
  eltwise_param {
    operation: SUM
  }
}
layer {
  name: "crop2-dsn1"
  type: "Crop"
  bottom: "sum-dsn1"
  bottom: "data"
  top: "upscore-dsn1"
}
layer {
  name: "loss1-score"
  type: "SigmoidCrossEntropyLoss"
  bottom: "upscore-dsn1"
  bottom: "label"
  top: "loss1-score"
  loss_weight: 1
}
I1118 18:32:18.355337  3106 layer_factory.hpp:77] Creating layer data
I1118 18:32:18.355371  3106 net.cpp:100] Creating Layer data
I1118 18:32:18.355381  3106 net.cpp:408] data -> data_unaugmented
I1118 18:32:18.355399  3106 net.cpp:408] data -> label_unaugmented
I1118 18:32:18.355415  3106 image_labelmap_data_layer.cpp:41] Opening file /media/compute/homes/galberding/FleckDetect/Datasets/train.txt
I1118 18:32:18.604215  3106 image_labelmap_data_layer.cpp:51] Shuffling data
I1118 18:32:18.606212  3106 image_labelmap_data_layer.cpp:56] A total of 3600 images.
I1118 18:32:18.962769  3106 image_labelmap_data_layer.cpp:110] output data size: 1,3,500,500
I1118 18:32:18.962810  3106 image_labelmap_data_layer.cpp:113] output label size: 1,1,500,500
I1118 18:32:18.973374  3106 net.cpp:150] Setting up data
I1118 18:32:18.973403  3106 net.cpp:157] Top shape: 1 3 500 500 (750000)
I1118 18:32:18.973409  3106 net.cpp:157] Top shape: 1 1 500 500 (250000)
I1118 18:32:18.973413  3106 net.cpp:165] Memory required for data: 4000000
I1118 18:32:18.973424  3106 layer_factory.hpp:77] Creating layer augmentation
I1118 18:32:18.980808  3106 net.cpp:100] Creating Layer augmentation
I1118 18:32:18.980824  3106 net.cpp:434] augmentation <- data_unaugmented
I1118 18:32:18.980832  3106 net.cpp:434] augmentation <- label_unaugmented
I1118 18:32:18.980840  3106 net.cpp:408] augmentation -> data
I1118 18:32:18.980851  3106 net.cpp:408] augmentation -> label
I1118 18:32:18.982846  3106 net.cpp:150] Setting up augmentation
I1118 18:32:18.982863  3106 net.cpp:157] Top shape: 1 3 500 500 (750000)
I1118 18:32:18.982868  3106 net.cpp:157] Top shape: 1 1 500 500 (250000)
I1118 18:32:18.982872  3106 net.cpp:165] Memory required for data: 8000000
I1118 18:32:18.982875  3106 layer_factory.hpp:77] Creating layer data_augmentation_0_split
I1118 18:32:18.982885  3106 net.cpp:100] Creating Layer data_augmentation_0_split
I1118 18:32:18.982889  3106 net.cpp:434] data_augmentation_0_split <- data
I1118 18:32:18.982897  3106 net.cpp:408] data_augmentation_0_split -> data_augmentation_0_split_0
I1118 18:32:18.982908  3106 net.cpp:408] data_augmentation_0_split -> data_augmentation_0_split_1
I1118 18:32:18.982914  3106 net.cpp:408] data_augmentation_0_split -> data_augmentation_0_split_2
I1118 18:32:18.982920  3106 net.cpp:408] data_augmentation_0_split -> data_augmentation_0_split_3
I1118 18:32:18.982926  3106 net.cpp:408] data_augmentation_0_split -> data_augmentation_0_split_4
I1118 18:32:18.982933  3106 net.cpp:408] data_augmentation_0_split -> data_augmentation_0_split_5
I1118 18:32:18.982939  3106 net.cpp:408] data_augmentation_0_split -> data_augmentation_0_split_6
I1118 18:32:18.983026  3106 net.cpp:150] Setting up data_augmentation_0_split
I1118 18:32:18.983034  3106 net.cpp:157] Top shape: 1 3 500 500 (750000)
I1118 18:32:18.983038  3106 net.cpp:157] Top shape: 1 3 500 500 (750000)
I1118 18:32:18.983042  3106 net.cpp:157] Top shape: 1 3 500 500 (750000)
I1118 18:32:18.983045  3106 net.cpp:157] Top shape: 1 3 500 500 (750000)
I1118 18:32:18.983049  3106 net.cpp:157] Top shape: 1 3 500 500 (750000)
I1118 18:32:18.983053  3106 net.cpp:157] Top shape: 1 3 500 500 (750000)
I1118 18:32:18.983057  3106 net.cpp:157] Top shape: 1 3 500 500 (750000)
I1118 18:32:18.983059  3106 net.cpp:165] Memory required for data: 29000000
I1118 18:32:18.983063  3106 layer_factory.hpp:77] Creating layer label_augmentation_1_split
I1118 18:32:18.983069  3106 net.cpp:100] Creating Layer label_augmentation_1_split
I1118 18:32:18.983072  3106 net.cpp:434] label_augmentation_1_split <- label
I1118 18:32:18.983078  3106 net.cpp:408] label_augmentation_1_split -> label_augmentation_1_split_0
I1118 18:32:18.983086  3106 net.cpp:408] label_augmentation_1_split -> label_augmentation_1_split_1
I1118 18:32:18.983093  3106 net.cpp:408] label_augmentation_1_split -> label_augmentation_1_split_2
I1118 18:32:18.983098  3106 net.cpp:408] label_augmentation_1_split -> label_augmentation_1_split_3
I1118 18:32:18.983104  3106 net.cpp:408] label_augmentation_1_split -> label_augmentation_1_split_4
I1118 18:32:18.983110  3106 net.cpp:408] label_augmentation_1_split -> label_augmentation_1_split_5
I1118 18:32:18.983186  3106 net.cpp:150] Setting up label_augmentation_1_split
I1118 18:32:18.983192  3106 net.cpp:157] Top shape: 1 1 500 500 (250000)
I1118 18:32:18.983196  3106 net.cpp:157] Top shape: 1 1 500 500 (250000)
I1118 18:32:18.983199  3106 net.cpp:157] Top shape: 1 1 500 500 (250000)
I1118 18:32:18.983203  3106 net.cpp:157] Top shape: 1 1 500 500 (250000)
I1118 18:32:18.983206  3106 net.cpp:157] Top shape: 1 1 500 500 (250000)
I1118 18:32:18.983211  3106 net.cpp:157] Top shape: 1 1 500 500 (250000)
I1118 18:32:18.983213  3106 net.cpp:165] Memory required for data: 35000000
I1118 18:32:18.983217  3106 layer_factory.hpp:77] Creating layer conv1_1
I1118 18:32:18.983229  3106 net.cpp:100] Creating Layer conv1_1
I1118 18:32:18.983233  3106 net.cpp:434] conv1_1 <- data_augmentation_0_split_0
I1118 18:32:18.983242  3106 net.cpp:408] conv1_1 -> conv1_1
I1118 18:32:19.370329  3106 net.cpp:150] Setting up conv1_1
I1118 18:32:19.370359  3106 net.cpp:157] Top shape: 1 64 500 500 (16000000)
I1118 18:32:19.370362  3106 net.cpp:165] Memory required for data: 99000000
I1118 18:32:19.370380  3106 layer_factory.hpp:77] Creating layer relu1_1
I1118 18:32:19.370391  3106 net.cpp:100] Creating Layer relu1_1
I1118 18:32:19.370395  3106 net.cpp:434] relu1_1 <- conv1_1
I1118 18:32:19.370400  3106 net.cpp:395] relu1_1 -> conv1_1 (in-place)
I1118 18:32:19.370467  3106 net.cpp:150] Setting up relu1_1
I1118 18:32:19.370489  3106 net.cpp:157] Top shape: 1 64 500 500 (16000000)
I1118 18:32:19.370492  3106 net.cpp:165] Memory required for data: 163000000
I1118 18:32:19.370496  3106 layer_factory.hpp:77] Creating layer conv1_2
I1118 18:32:19.370505  3106 net.cpp:100] Creating Layer conv1_2
I1118 18:32:19.370508  3106 net.cpp:434] conv1_2 <- conv1_1
I1118 18:32:19.370512  3106 net.cpp:408] conv1_2 -> conv1_2
I1118 18:32:19.371968  3106 net.cpp:150] Setting up conv1_2
I1118 18:32:19.371979  3106 net.cpp:157] Top shape: 1 64 500 500 (16000000)
I1118 18:32:19.371982  3106 net.cpp:165] Memory required for data: 227000000
I1118 18:32:19.371989  3106 layer_factory.hpp:77] Creating layer relu1_2
I1118 18:32:19.371994  3106 net.cpp:100] Creating Layer relu1_2
I1118 18:32:19.371996  3106 net.cpp:434] relu1_2 <- conv1_2
I1118 18:32:19.372000  3106 net.cpp:395] relu1_2 -> conv1_2 (in-place)
I1118 18:32:19.372057  3106 net.cpp:150] Setting up relu1_2
I1118 18:32:19.372064  3106 net.cpp:157] Top shape: 1 64 500 500 (16000000)
I1118 18:32:19.372067  3106 net.cpp:165] Memory required for data: 291000000
I1118 18:32:19.372069  3106 layer_factory.hpp:77] Creating layer conv1_2_relu1_2_0_split
I1118 18:32:19.372092  3106 net.cpp:100] Creating Layer conv1_2_relu1_2_0_split
I1118 18:32:19.372094  3106 net.cpp:434] conv1_2_relu1_2_0_split <- conv1_2
I1118 18:32:19.372099  3106 net.cpp:408] conv1_2_relu1_2_0_split -> conv1_2_relu1_2_0_split_0
I1118 18:32:19.372104  3106 net.cpp:408] conv1_2_relu1_2_0_split -> conv1_2_relu1_2_0_split_1
I1118 18:32:19.372133  3106 net.cpp:150] Setting up conv1_2_relu1_2_0_split
I1118 18:32:19.372139  3106 net.cpp:157] Top shape: 1 64 500 500 (16000000)
I1118 18:32:19.372143  3106 net.cpp:157] Top shape: 1 64 500 500 (16000000)
I1118 18:32:19.372144  3106 net.cpp:165] Memory required for data: 419000000
I1118 18:32:19.372146  3106 layer_factory.hpp:77] Creating layer pool1
I1118 18:32:19.372151  3106 net.cpp:100] Creating Layer pool1
I1118 18:32:19.372154  3106 net.cpp:434] pool1 <- conv1_2_relu1_2_0_split_0
I1118 18:32:19.372157  3106 net.cpp:408] pool1 -> pool1
I1118 18:32:19.372184  3106 net.cpp:150] Setting up pool1
I1118 18:32:19.372189  3106 net.cpp:157] Top shape: 1 64 250 250 (4000000)
I1118 18:32:19.372190  3106 net.cpp:165] Memory required for data: 435000000
I1118 18:32:19.372192  3106 layer_factory.hpp:77] Creating layer conv2_1
I1118 18:32:19.372197  3106 net.cpp:100] Creating Layer conv2_1
I1118 18:32:19.372200  3106 net.cpp:434] conv2_1 <- pool1
I1118 18:32:19.372205  3106 net.cpp:408] conv2_1 -> conv2_1
I1118 18:32:19.372809  3106 net.cpp:150] Setting up conv2_1
I1118 18:32:19.372819  3106 net.cpp:157] Top shape: 1 128 250 250 (8000000)
I1118 18:32:19.372822  3106 net.cpp:165] Memory required for data: 467000000
I1118 18:32:19.372829  3106 layer_factory.hpp:77] Creating layer relu2_1
I1118 18:32:19.372834  3106 net.cpp:100] Creating Layer relu2_1
I1118 18:32:19.372836  3106 net.cpp:434] relu2_1 <- conv2_1
I1118 18:32:19.372840  3106 net.cpp:395] relu2_1 -> conv2_1 (in-place)
I1118 18:32:19.372988  3106 net.cpp:150] Setting up relu2_1
I1118 18:32:19.372997  3106 net.cpp:157] Top shape: 1 128 250 250 (8000000)
I1118 18:32:19.372999  3106 net.cpp:165] Memory required for data: 499000000
I1118 18:32:19.373001  3106 layer_factory.hpp:77] Creating layer conv2_2
I1118 18:32:19.373008  3106 net.cpp:100] Creating Layer conv2_2
I1118 18:32:19.373011  3106 net.cpp:434] conv2_2 <- conv2_1
I1118 18:32:19.373015  3106 net.cpp:408] conv2_2 -> conv2_2
I1118 18:32:19.374632  3106 net.cpp:150] Setting up conv2_2
I1118 18:32:19.374644  3106 net.cpp:157] Top shape: 1 128 250 250 (8000000)
I1118 18:32:19.374657  3106 net.cpp:165] Memory required for data: 531000000
I1118 18:32:19.374662  3106 layer_factory.hpp:77] Creating layer relu2_2
I1118 18:32:19.374667  3106 net.cpp:100] Creating Layer relu2_2
I1118 18:32:19.374670  3106 net.cpp:434] relu2_2 <- conv2_2
I1118 18:32:19.374675  3106 net.cpp:395] relu2_2 -> conv2_2 (in-place)
I1118 18:32:19.374806  3106 net.cpp:150] Setting up relu2_2
I1118 18:32:19.374815  3106 net.cpp:157] Top shape: 1 128 250 250 (8000000)
I1118 18:32:19.374819  3106 net.cpp:165] Memory required for data: 563000000
I1118 18:32:19.374820  3106 layer_factory.hpp:77] Creating layer conv2_2_relu2_2_0_split
I1118 18:32:19.374825  3106 net.cpp:100] Creating Layer conv2_2_relu2_2_0_split
I1118 18:32:19.374828  3106 net.cpp:434] conv2_2_relu2_2_0_split <- conv2_2
I1118 18:32:19.374832  3106 net.cpp:408] conv2_2_relu2_2_0_split -> conv2_2_relu2_2_0_split_0
I1118 18:32:19.374838  3106 net.cpp:408] conv2_2_relu2_2_0_split -> conv2_2_relu2_2_0_split_1
I1118 18:32:19.374842  3106 net.cpp:408] conv2_2_relu2_2_0_split -> conv2_2_relu2_2_0_split_2
I1118 18:32:19.374881  3106 net.cpp:150] Setting up conv2_2_relu2_2_0_split
I1118 18:32:19.374886  3106 net.cpp:157] Top shape: 1 128 250 250 (8000000)
I1118 18:32:19.374888  3106 net.cpp:157] Top shape: 1 128 250 250 (8000000)
I1118 18:32:19.374891  3106 net.cpp:157] Top shape: 1 128 250 250 (8000000)
I1118 18:32:19.374893  3106 net.cpp:165] Memory required for data: 659000000
I1118 18:32:19.374897  3106 layer_factory.hpp:77] Creating layer pool2
I1118 18:32:19.374900  3106 net.cpp:100] Creating Layer pool2
I1118 18:32:19.374902  3106 net.cpp:434] pool2 <- conv2_2_relu2_2_0_split_0
I1118 18:32:19.374907  3106 net.cpp:408] pool2 -> pool2
I1118 18:32:19.374930  3106 net.cpp:150] Setting up pool2
I1118 18:32:19.374933  3106 net.cpp:157] Top shape: 1 128 125 125 (2000000)
I1118 18:32:19.374935  3106 net.cpp:165] Memory required for data: 667000000
I1118 18:32:19.374938  3106 layer_factory.hpp:77] Creating layer conv3_1
I1118 18:32:19.374945  3106 net.cpp:100] Creating Layer conv3_1
I1118 18:32:19.374948  3106 net.cpp:434] conv3_1 <- pool2
I1118 18:32:19.374953  3106 net.cpp:408] conv3_1 -> conv3_1
I1118 18:32:19.376387  3106 net.cpp:150] Setting up conv3_1
I1118 18:32:19.376399  3106 net.cpp:157] Top shape: 1 256 125 125 (4000000)
I1118 18:32:19.376401  3106 net.cpp:165] Memory required for data: 683000000
I1118 18:32:19.376410  3106 layer_factory.hpp:77] Creating layer relu3_1
I1118 18:32:19.376415  3106 net.cpp:100] Creating Layer relu3_1
I1118 18:32:19.376417  3106 net.cpp:434] relu3_1 <- conv3_1
I1118 18:32:19.376421  3106 net.cpp:395] relu3_1 -> conv3_1 (in-place)
I1118 18:32:19.376579  3106 net.cpp:150] Setting up relu3_1
I1118 18:32:19.376587  3106 net.cpp:157] Top shape: 1 256 125 125 (4000000)
I1118 18:32:19.376590  3106 net.cpp:165] Memory required for data: 699000000
I1118 18:32:19.376593  3106 layer_factory.hpp:77] Creating layer conv3_2
I1118 18:32:19.376601  3106 net.cpp:100] Creating Layer conv3_2
I1118 18:32:19.376603  3106 net.cpp:434] conv3_2 <- conv3_1
I1118 18:32:19.376608  3106 net.cpp:408] conv3_2 -> conv3_2
I1118 18:32:19.378391  3106 net.cpp:150] Setting up conv3_2
I1118 18:32:19.378401  3106 net.cpp:157] Top shape: 1 256 125 125 (4000000)
I1118 18:32:19.378403  3106 net.cpp:165] Memory required for data: 715000000
I1118 18:32:19.378420  3106 layer_factory.hpp:77] Creating layer relu3_2
I1118 18:32:19.378425  3106 net.cpp:100] Creating Layer relu3_2
I1118 18:32:19.378428  3106 net.cpp:434] relu3_2 <- conv3_2
I1118 18:32:19.378433  3106 net.cpp:395] relu3_2 -> conv3_2 (in-place)
I1118 18:32:19.378505  3106 net.cpp:150] Setting up relu3_2
I1118 18:32:19.378512  3106 net.cpp:157] Top shape: 1 256 125 125 (4000000)
I1118 18:32:19.378515  3106 net.cpp:165] Memory required for data: 731000000
I1118 18:32:19.378517  3106 layer_factory.hpp:77] Creating layer conv3_3
I1118 18:32:19.378525  3106 net.cpp:100] Creating Layer conv3_3
I1118 18:32:19.378527  3106 net.cpp:434] conv3_3 <- conv3_2
I1118 18:32:19.378531  3106 net.cpp:408] conv3_3 -> conv3_3
I1118 18:32:19.380364  3106 net.cpp:150] Setting up conv3_3
I1118 18:32:19.380375  3106 net.cpp:157] Top shape: 1 256 125 125 (4000000)
I1118 18:32:19.380378  3106 net.cpp:165] Memory required for data: 747000000
I1118 18:32:19.380383  3106 layer_factory.hpp:77] Creating layer relu3_3
I1118 18:32:19.380386  3106 net.cpp:100] Creating Layer relu3_3
I1118 18:32:19.380389  3106 net.cpp:434] relu3_3 <- conv3_3
I1118 18:32:19.380395  3106 net.cpp:395] relu3_3 -> conv3_3 (in-place)
I1118 18:32:19.380461  3106 net.cpp:150] Setting up relu3_3
I1118 18:32:19.380484  3106 net.cpp:157] Top shape: 1 256 125 125 (4000000)
I1118 18:32:19.380487  3106 net.cpp:165] Memory required for data: 763000000
I1118 18:32:19.380491  3106 layer_factory.hpp:77] Creating layer conv3_3_relu3_3_0_split
I1118 18:32:19.380494  3106 net.cpp:100] Creating Layer conv3_3_relu3_3_0_split
I1118 18:32:19.380496  3106 net.cpp:434] conv3_3_relu3_3_0_split <- conv3_3
I1118 18:32:19.380502  3106 net.cpp:408] conv3_3_relu3_3_0_split -> conv3_3_relu3_3_0_split_0
I1118 18:32:19.380508  3106 net.cpp:408] conv3_3_relu3_3_0_split -> conv3_3_relu3_3_0_split_1
I1118 18:32:19.380518  3106 net.cpp:408] conv3_3_relu3_3_0_split -> conv3_3_relu3_3_0_split_2
I1118 18:32:19.380556  3106 net.cpp:150] Setting up conv3_3_relu3_3_0_split
I1118 18:32:19.380561  3106 net.cpp:157] Top shape: 1 256 125 125 (4000000)
I1118 18:32:19.380564  3106 net.cpp:157] Top shape: 1 256 125 125 (4000000)
I1118 18:32:19.380568  3106 net.cpp:157] Top shape: 1 256 125 125 (4000000)
I1118 18:32:19.380569  3106 net.cpp:165] Memory required for data: 811000000
I1118 18:32:19.380571  3106 layer_factory.hpp:77] Creating layer pool3
I1118 18:32:19.380578  3106 net.cpp:100] Creating Layer pool3
I1118 18:32:19.380580  3106 net.cpp:434] pool3 <- conv3_3_relu3_3_0_split_0
I1118 18:32:19.380586  3106 net.cpp:408] pool3 -> pool3
I1118 18:32:19.380612  3106 net.cpp:150] Setting up pool3
I1118 18:32:19.380617  3106 net.cpp:157] Top shape: 1 256 63 63 (1016064)
I1118 18:32:19.380620  3106 net.cpp:165] Memory required for data: 815064256
I1118 18:32:19.380621  3106 layer_factory.hpp:77] Creating layer conv4_1
I1118 18:32:19.380630  3106 net.cpp:100] Creating Layer conv4_1
I1118 18:32:19.380631  3106 net.cpp:434] conv4_1 <- pool3
I1118 18:32:19.380636  3106 net.cpp:408] conv4_1 -> conv4_1
I1118 18:32:19.384596  3106 net.cpp:150] Setting up conv4_1
I1118 18:32:19.384608  3106 net.cpp:157] Top shape: 1 512 63 63 (2032128)
I1118 18:32:19.384610  3106 net.cpp:165] Memory required for data: 823192768
I1118 18:32:19.384615  3106 layer_factory.hpp:77] Creating layer relu4_1
I1118 18:32:19.384620  3106 net.cpp:100] Creating Layer relu4_1
I1118 18:32:19.384624  3106 net.cpp:434] relu4_1 <- conv4_1
I1118 18:32:19.384629  3106 net.cpp:395] relu4_1 -> conv4_1 (in-place)
I1118 18:32:19.384713  3106 net.cpp:150] Setting up relu4_1
I1118 18:32:19.384721  3106 net.cpp:157] Top shape: 1 512 63 63 (2032128)
I1118 18:32:19.384722  3106 net.cpp:165] Memory required for data: 831321280
I1118 18:32:19.384726  3106 layer_factory.hpp:77] Creating layer conv4_2
I1118 18:32:19.384732  3106 net.cpp:100] Creating Layer conv4_2
I1118 18:32:19.384735  3106 net.cpp:434] conv4_2 <- conv4_1
I1118 18:32:19.384739  3106 net.cpp:408] conv4_2 -> conv4_2
I1118 18:32:19.389776  3106 net.cpp:150] Setting up conv4_2
I1118 18:32:19.389787  3106 net.cpp:157] Top shape: 1 512 63 63 (2032128)
I1118 18:32:19.389789  3106 net.cpp:165] Memory required for data: 839449792
I1118 18:32:19.389799  3106 layer_factory.hpp:77] Creating layer relu4_2
I1118 18:32:19.389806  3106 net.cpp:100] Creating Layer relu4_2
I1118 18:32:19.389808  3106 net.cpp:434] relu4_2 <- conv4_2
I1118 18:32:19.389811  3106 net.cpp:395] relu4_2 -> conv4_2 (in-place)
I1118 18:32:19.389981  3106 net.cpp:150] Setting up relu4_2
I1118 18:32:19.389989  3106 net.cpp:157] Top shape: 1 512 63 63 (2032128)
I1118 18:32:19.389991  3106 net.cpp:165] Memory required for data: 847578304
I1118 18:32:19.389997  3106 layer_factory.hpp:77] Creating layer conv4_3
I1118 18:32:19.390004  3106 net.cpp:100] Creating Layer conv4_3
I1118 18:32:19.390007  3106 net.cpp:434] conv4_3 <- conv4_2
I1118 18:32:19.390013  3106 net.cpp:408] conv4_3 -> conv4_3
I1118 18:32:19.395064  3106 net.cpp:150] Setting up conv4_3
I1118 18:32:19.395076  3106 net.cpp:157] Top shape: 1 512 63 63 (2032128)
I1118 18:32:19.395079  3106 net.cpp:165] Memory required for data: 855706816
I1118 18:32:19.395084  3106 layer_factory.hpp:77] Creating layer relu4_3
I1118 18:32:19.395089  3106 net.cpp:100] Creating Layer relu4_3
I1118 18:32:19.395092  3106 net.cpp:434] relu4_3 <- conv4_3
I1118 18:32:19.395098  3106 net.cpp:395] relu4_3 -> conv4_3 (in-place)
I1118 18:32:19.395249  3106 net.cpp:150] Setting up relu4_3
I1118 18:32:19.395259  3106 net.cpp:157] Top shape: 1 512 63 63 (2032128)
I1118 18:32:19.395262  3106 net.cpp:165] Memory required for data: 863835328
I1118 18:32:19.395265  3106 layer_factory.hpp:77] Creating layer conv4_3_relu4_3_0_split
I1118 18:32:19.395270  3106 net.cpp:100] Creating Layer conv4_3_relu4_3_0_split
I1118 18:32:19.395273  3106 net.cpp:434] conv4_3_relu4_3_0_split <- conv4_3
I1118 18:32:19.395279  3106 net.cpp:408] conv4_3_relu4_3_0_split -> conv4_3_relu4_3_0_split_0
I1118 18:32:19.395285  3106 net.cpp:408] conv4_3_relu4_3_0_split -> conv4_3_relu4_3_0_split_1
I1118 18:32:19.395289  3106 net.cpp:408] conv4_3_relu4_3_0_split -> conv4_3_relu4_3_0_split_2
I1118 18:32:19.395352  3106 net.cpp:150] Setting up conv4_3_relu4_3_0_split
I1118 18:32:19.395360  3106 net.cpp:157] Top shape: 1 512 63 63 (2032128)
I1118 18:32:19.395364  3106 net.cpp:157] Top shape: 1 512 63 63 (2032128)
I1118 18:32:19.395366  3106 net.cpp:157] Top shape: 1 512 63 63 (2032128)
I1118 18:32:19.395367  3106 net.cpp:165] Memory required for data: 888220864
I1118 18:32:19.395370  3106 layer_factory.hpp:77] Creating layer pool4
I1118 18:32:19.395376  3106 net.cpp:100] Creating Layer pool4
I1118 18:32:19.395378  3106 net.cpp:434] pool4 <- conv4_3_relu4_3_0_split_0
I1118 18:32:19.395382  3106 net.cpp:408] pool4 -> pool4
I1118 18:32:19.395413  3106 net.cpp:150] Setting up pool4
I1118 18:32:19.395418  3106 net.cpp:157] Top shape: 1 512 32 32 (524288)
I1118 18:32:19.395421  3106 net.cpp:165] Memory required for data: 890318016
I1118 18:32:19.395423  3106 layer_factory.hpp:77] Creating layer conv5_1
I1118 18:32:19.395438  3106 net.cpp:100] Creating Layer conv5_1
I1118 18:32:19.395442  3106 net.cpp:434] conv5_1 <- pool4
I1118 18:32:19.395445  3106 net.cpp:408] conv5_1 -> conv5_1
I1118 18:32:19.401779  3106 net.cpp:150] Setting up conv5_1
I1118 18:32:19.401796  3106 net.cpp:157] Top shape: 1 512 32 32 (524288)
I1118 18:32:19.401799  3106 net.cpp:165] Memory required for data: 892415168
I1118 18:32:19.401805  3106 layer_factory.hpp:77] Creating layer relu5_1
I1118 18:32:19.401810  3106 net.cpp:100] Creating Layer relu5_1
I1118 18:32:19.401815  3106 net.cpp:434] relu5_1 <- conv5_1
I1118 18:32:19.401819  3106 net.cpp:395] relu5_1 -> conv5_1 (in-place)
I1118 18:32:19.401888  3106 net.cpp:150] Setting up relu5_1
I1118 18:32:19.401897  3106 net.cpp:157] Top shape: 1 512 32 32 (524288)
I1118 18:32:19.401899  3106 net.cpp:165] Memory required for data: 894512320
I1118 18:32:19.401902  3106 layer_factory.hpp:77] Creating layer conv5_2
I1118 18:32:19.401908  3106 net.cpp:100] Creating Layer conv5_2
I1118 18:32:19.401911  3106 net.cpp:434] conv5_2 <- conv5_1
I1118 18:32:19.401917  3106 net.cpp:408] conv5_2 -> conv5_2
I1118 18:32:19.407106  3106 net.cpp:150] Setting up conv5_2
I1118 18:32:19.407119  3106 net.cpp:157] Top shape: 1 512 32 32 (524288)
I1118 18:32:19.407120  3106 net.cpp:165] Memory required for data: 896609472
I1118 18:32:19.407126  3106 layer_factory.hpp:77] Creating layer relu5_2
I1118 18:32:19.407131  3106 net.cpp:100] Creating Layer relu5_2
I1118 18:32:19.407135  3106 net.cpp:434] relu5_2 <- conv5_2
I1118 18:32:19.407140  3106 net.cpp:395] relu5_2 -> conv5_2 (in-place)
I1118 18:32:19.407205  3106 net.cpp:150] Setting up relu5_2
I1118 18:32:19.407212  3106 net.cpp:157] Top shape: 1 512 32 32 (524288)
I1118 18:32:19.407214  3106 net.cpp:165] Memory required for data: 898706624
I1118 18:32:19.407217  3106 layer_factory.hpp:77] Creating layer conv5_3
I1118 18:32:19.407224  3106 net.cpp:100] Creating Layer conv5_3
I1118 18:32:19.407227  3106 net.cpp:434] conv5_3 <- conv5_2
I1118 18:32:19.407233  3106 net.cpp:408] conv5_3 -> conv5_3
I1118 18:32:19.412149  3106 net.cpp:150] Setting up conv5_3
I1118 18:32:19.412161  3106 net.cpp:157] Top shape: 1 512 32 32 (524288)
I1118 18:32:19.412163  3106 net.cpp:165] Memory required for data: 900803776
I1118 18:32:19.412168  3106 layer_factory.hpp:77] Creating layer relu5_3
I1118 18:32:19.412175  3106 net.cpp:100] Creating Layer relu5_3
I1118 18:32:19.412178  3106 net.cpp:434] relu5_3 <- conv5_3
I1118 18:32:19.412181  3106 net.cpp:395] relu5_3 -> conv5_3 (in-place)
I1118 18:32:19.412262  3106 net.cpp:150] Setting up relu5_3
I1118 18:32:19.412269  3106 net.cpp:157] Top shape: 1 512 32 32 (524288)
I1118 18:32:19.412271  3106 net.cpp:165] Memory required for data: 902900928
I1118 18:32:19.412274  3106 layer_factory.hpp:77] Creating layer conv5_3_relu5_3_0_split
I1118 18:32:19.412282  3106 net.cpp:100] Creating Layer conv5_3_relu5_3_0_split
I1118 18:32:19.412286  3106 net.cpp:434] conv5_3_relu5_3_0_split <- conv5_3
I1118 18:32:19.412290  3106 net.cpp:408] conv5_3_relu5_3_0_split -> conv5_3_relu5_3_0_split_0
I1118 18:32:19.412295  3106 net.cpp:408] conv5_3_relu5_3_0_split -> conv5_3_relu5_3_0_split_1
I1118 18:32:19.412304  3106 net.cpp:408] conv5_3_relu5_3_0_split -> conv5_3_relu5_3_0_split_2
I1118 18:32:19.412354  3106 net.cpp:150] Setting up conv5_3_relu5_3_0_split
I1118 18:32:19.412358  3106 net.cpp:157] Top shape: 1 512 32 32 (524288)
I1118 18:32:19.412361  3106 net.cpp:157] Top shape: 1 512 32 32 (524288)
I1118 18:32:19.412364  3106 net.cpp:157] Top shape: 1 512 32 32 (524288)
I1118 18:32:19.412366  3106 net.cpp:165] Memory required for data: 909192384
I1118 18:32:19.412369  3106 layer_factory.hpp:77] Creating layer pool5
I1118 18:32:19.412375  3106 net.cpp:100] Creating Layer pool5
I1118 18:32:19.412377  3106 net.cpp:434] pool5 <- conv5_3_relu5_3_0_split_0
I1118 18:32:19.412384  3106 net.cpp:408] pool5 -> pool5
I1118 18:32:19.412412  3106 net.cpp:150] Setting up pool5
I1118 18:32:19.412417  3106 net.cpp:157] Top shape: 1 512 17 17 (147968)
I1118 18:32:19.412420  3106 net.cpp:165] Memory required for data: 909784256
I1118 18:32:19.412421  3106 layer_factory.hpp:77] Creating layer conv1-dsn6
I1118 18:32:19.412432  3106 net.cpp:100] Creating Layer conv1-dsn6
I1118 18:32:19.412434  3106 net.cpp:434] conv1-dsn6 <- pool5
I1118 18:32:19.412439  3106 net.cpp:408] conv1-dsn6 -> conv1-dsn6
I1118 18:32:19.414047  3106 net.cpp:150] Setting up conv1-dsn6
I1118 18:32:19.414057  3106 net.cpp:157] Top shape: 1 256 17 17 (73984)
I1118 18:32:19.414059  3106 net.cpp:165] Memory required for data: 910080192
I1118 18:32:19.414064  3106 layer_factory.hpp:77] Creating layer conv2-dsn6
I1118 18:32:19.414074  3106 net.cpp:100] Creating Layer conv2-dsn6
I1118 18:32:19.414077  3106 net.cpp:434] conv2-dsn6 <- conv1-dsn6
I1118 18:32:19.414081  3106 net.cpp:408] conv2-dsn6 -> conv2-dsn6
I1118 18:32:19.430537  3106 net.cpp:150] Setting up conv2-dsn6
I1118 18:32:19.430550  3106 net.cpp:157] Top shape: 1 256 17 17 (73984)
I1118 18:32:19.430552  3106 net.cpp:165] Memory required for data: 910376128
I1118 18:32:19.430557  3106 layer_factory.hpp:77] Creating layer relu1-dsn6
I1118 18:32:19.430562  3106 net.cpp:100] Creating Layer relu1-dsn6
I1118 18:32:19.430565  3106 net.cpp:434] relu1-dsn6 <- conv2-dsn6
I1118 18:32:19.430570  3106 net.cpp:395] relu1-dsn6 -> conv2-dsn6 (in-place)
I1118 18:32:19.430637  3106 net.cpp:150] Setting up relu1-dsn6
I1118 18:32:19.430644  3106 net.cpp:157] Top shape: 1 256 17 17 (73984)
I1118 18:32:19.430646  3106 net.cpp:165] Memory required for data: 910672064
I1118 18:32:19.430665  3106 layer_factory.hpp:77] Creating layer conv3-dsn6
I1118 18:32:19.430675  3106 net.cpp:100] Creating Layer conv3-dsn6
I1118 18:32:19.430676  3106 net.cpp:434] conv3-dsn6 <- conv2-dsn6
I1118 18:32:19.430681  3106 net.cpp:408] conv3-dsn6 -> conv3-dsn6
I1118 18:32:19.445921  3106 net.cpp:150] Setting up conv3-dsn6
I1118 18:32:19.445933  3106 net.cpp:157] Top shape: 1 256 17 17 (73984)
I1118 18:32:19.445935  3106 net.cpp:165] Memory required for data: 910968000
I1118 18:32:19.445940  3106 layer_factory.hpp:77] Creating layer relu2-dsn6
I1118 18:32:19.445945  3106 net.cpp:100] Creating Layer relu2-dsn6
I1118 18:32:19.445948  3106 net.cpp:434] relu2-dsn6 <- conv3-dsn6
I1118 18:32:19.445951  3106 net.cpp:395] relu2-dsn6 -> conv3-dsn6 (in-place)
I1118 18:32:19.446013  3106 net.cpp:150] Setting up relu2-dsn6
I1118 18:32:19.446022  3106 net.cpp:157] Top shape: 1 256 17 17 (73984)
I1118 18:32:19.446024  3106 net.cpp:165] Memory required for data: 911263936
I1118 18:32:19.446041  3106 layer_factory.hpp:77] Creating layer conv4-dsn6
I1118 18:32:19.446050  3106 net.cpp:100] Creating Layer conv4-dsn6
I1118 18:32:19.446053  3106 net.cpp:434] conv4-dsn6 <- conv3-dsn6
I1118 18:32:19.446058  3106 net.cpp:408] conv4-dsn6 -> conv4-dsn6
I1118 18:32:19.461282  3106 net.cpp:150] Setting up conv4-dsn6
I1118 18:32:19.461292  3106 net.cpp:157] Top shape: 1 256 17 17 (73984)
I1118 18:32:19.461294  3106 net.cpp:165] Memory required for data: 911559872
I1118 18:32:19.461313  3106 layer_factory.hpp:77] Creating layer relu3-dsn6
I1118 18:32:19.461318  3106 net.cpp:100] Creating Layer relu3-dsn6
I1118 18:32:19.461321  3106 net.cpp:434] relu3-dsn6 <- conv4-dsn6
I1118 18:32:19.461325  3106 net.cpp:395] relu3-dsn6 -> conv4-dsn6 (in-place)
I1118 18:32:19.461483  3106 net.cpp:150] Setting up relu3-dsn6
I1118 18:32:19.461493  3106 net.cpp:157] Top shape: 1 256 17 17 (73984)
I1118 18:32:19.461494  3106 net.cpp:165] Memory required for data: 911855808
I1118 18:32:19.461498  3106 layer_factory.hpp:77] Creating layer conv5-dsn6
I1118 18:32:19.461508  3106 net.cpp:100] Creating Layer conv5-dsn6
I1118 18:32:19.461511  3106 net.cpp:434] conv5-dsn6 <- conv4-dsn6
I1118 18:32:19.461517  3106 net.cpp:408] conv5-dsn6 -> conv5-dsn6
I1118 18:32:19.461995  3106 net.cpp:150] Setting up conv5-dsn6
I1118 18:32:19.462004  3106 net.cpp:157] Top shape: 1 1 17 17 (289)
I1118 18:32:19.462023  3106 net.cpp:165] Memory required for data: 911856964
I1118 18:32:19.462028  3106 layer_factory.hpp:77] Creating layer conv5-dsn6_conv5-dsn6_0_split
I1118 18:32:19.462035  3106 net.cpp:100] Creating Layer conv5-dsn6_conv5-dsn6_0_split
I1118 18:32:19.462038  3106 net.cpp:434] conv5-dsn6_conv5-dsn6_0_split <- conv5-dsn6
I1118 18:32:19.462043  3106 net.cpp:408] conv5-dsn6_conv5-dsn6_0_split -> conv5-dsn6_conv5-dsn6_0_split_0
I1118 18:32:19.462064  3106 net.cpp:408] conv5-dsn6_conv5-dsn6_0_split -> conv5-dsn6_conv5-dsn6_0_split_1
I1118 18:32:19.462092  3106 net.cpp:150] Setting up conv5-dsn6_conv5-dsn6_0_split
I1118 18:32:19.462096  3106 net.cpp:157] Top shape: 1 1 17 17 (289)
I1118 18:32:19.462098  3106 net.cpp:157] Top shape: 1 1 17 17 (289)
I1118 18:32:19.462100  3106 net.cpp:165] Memory required for data: 911859276
I1118 18:32:19.462103  3106 layer_factory.hpp:77] Creating layer upsample32_dsn6
I1118 18:32:19.462110  3106 net.cpp:100] Creating Layer upsample32_dsn6
I1118 18:32:19.462113  3106 net.cpp:434] upsample32_dsn6 <- conv5-dsn6_conv5-dsn6_0_split_0
I1118 18:32:19.462134  3106 net.cpp:408] upsample32_dsn6 -> conv5-dsn6-up
I1118 18:32:19.463254  3106 net.cpp:150] Setting up upsample32_dsn6
I1118 18:32:19.463263  3106 net.cpp:157] Top shape: 1 1 576 576 (331776)
I1118 18:32:19.463265  3106 net.cpp:165] Memory required for data: 913186380
I1118 18:32:19.463270  3106 layer_factory.hpp:77] Creating layer crop-dsn6
I1118 18:32:19.463275  3106 net.cpp:100] Creating Layer crop-dsn6
I1118 18:32:19.463279  3106 net.cpp:434] crop-dsn6 <- conv5-dsn6-up
I1118 18:32:19.463282  3106 net.cpp:434] crop-dsn6 <- data_augmentation_0_split_1
I1118 18:32:19.463286  3106 net.cpp:408] crop-dsn6 -> upscore-dsn6
I1118 18:32:19.463333  3106 net.cpp:150] Setting up crop-dsn6
I1118 18:32:19.463338  3106 net.cpp:157] Top shape: 1 1 500 500 (250000)
I1118 18:32:19.463340  3106 net.cpp:165] Memory required for data: 914186380
I1118 18:32:19.463342  3106 layer_factory.hpp:77] Creating layer loss6-score
I1118 18:32:19.463351  3106 net.cpp:100] Creating Layer loss6-score
I1118 18:32:19.463352  3106 net.cpp:434] loss6-score <- upscore-dsn6
I1118 18:32:19.463356  3106 net.cpp:434] loss6-score <- label_augmentation_1_split_0
I1118 18:32:19.463362  3106 net.cpp:408] loss6-score -> loss6-score
I1118 18:32:19.464370  3106 net.cpp:150] Setting up loss6-score
I1118 18:32:19.464380  3106 net.cpp:157] Top shape: (1)
I1118 18:32:19.464380  3106 net.cpp:160]     with loss weight 1
I1118 18:32:19.464393  3106 net.cpp:165] Memory required for data: 914186384
I1118 18:32:19.464396  3106 layer_factory.hpp:77] Creating layer upsample2_dsn5
I1118 18:32:19.464406  3106 net.cpp:100] Creating Layer upsample2_dsn5
I1118 18:32:19.464409  3106 net.cpp:434] upsample2_dsn5 <- conv5-dsn6_conv5-dsn6_0_split_1
I1118 18:32:19.464416  3106 net.cpp:408] upsample2_dsn5 -> conv5-dsn6-5
I1118 18:32:19.464613  3106 net.cpp:150] Setting up upsample2_dsn5
I1118 18:32:19.464620  3106 net.cpp:157] Top shape: 1 1 36 36 (1296)
I1118 18:32:19.464622  3106 net.cpp:165] Memory required for data: 914191568
I1118 18:32:19.464627  3106 layer_factory.hpp:77] Creating layer crop1-dsn5
I1118 18:32:19.464632  3106 net.cpp:100] Creating Layer crop1-dsn5
I1118 18:32:19.464634  3106 net.cpp:434] crop1-dsn5 <- conv5-dsn6-5
I1118 18:32:19.464637  3106 net.cpp:434] crop1-dsn5 <- conv5_3_relu5_3_0_split_1
I1118 18:32:19.464643  3106 net.cpp:408] crop1-dsn5 -> weight-dsn6-5
I1118 18:32:19.464661  3106 net.cpp:150] Setting up crop1-dsn5
I1118 18:32:19.464666  3106 net.cpp:157] Top shape: 1 1 32 32 (1024)
I1118 18:32:19.464668  3106 net.cpp:165] Memory required for data: 914195664
I1118 18:32:19.464670  3106 layer_factory.hpp:77] Creating layer weight-dsn6-5_crop1-dsn5_0_split
I1118 18:32:19.464675  3106 net.cpp:100] Creating Layer weight-dsn6-5_crop1-dsn5_0_split
I1118 18:32:19.464677  3106 net.cpp:434] weight-dsn6-5_crop1-dsn5_0_split <- weight-dsn6-5
I1118 18:32:19.464680  3106 net.cpp:408] weight-dsn6-5_crop1-dsn5_0_split -> weight-dsn6-5_crop1-dsn5_0_split_0
I1118 18:32:19.464686  3106 net.cpp:408] weight-dsn6-5_crop1-dsn5_0_split -> weight-dsn6-5_crop1-dsn5_0_split_1
I1118 18:32:19.464712  3106 net.cpp:150] Setting up weight-dsn6-5_crop1-dsn5_0_split
I1118 18:32:19.464716  3106 net.cpp:157] Top shape: 1 1 32 32 (1024)
I1118 18:32:19.464720  3106 net.cpp:157] Top shape: 1 1 32 32 (1024)
I1118 18:32:19.464721  3106 net.cpp:165] Memory required for data: 914203856
I1118 18:32:19.464723  3106 layer_factory.hpp:77] Creating layer sigmoid-dsn5
I1118 18:32:19.464730  3106 net.cpp:100] Creating Layer sigmoid-dsn5
I1118 18:32:19.464732  3106 net.cpp:434] sigmoid-dsn5 <- weight-dsn6-5_crop1-dsn5_0_split_0
I1118 18:32:19.464735  3106 net.cpp:408] sigmoid-dsn5 -> sigmoid-dsn5
I1118 18:32:19.464912  3106 net.cpp:150] Setting up sigmoid-dsn5
I1118 18:32:19.464921  3106 net.cpp:157] Top shape: 1 1 32 32 (1024)
I1118 18:32:19.464923  3106 net.cpp:165] Memory required for data: 914207952
I1118 18:32:19.464926  3106 layer_factory.hpp:77] Creating layer rev-dsn5
I1118 18:32:19.464932  3106 net.cpp:100] Creating Layer rev-dsn5
I1118 18:32:19.464934  3106 net.cpp:434] rev-dsn5 <- sigmoid-dsn5
I1118 18:32:19.464941  3106 net.cpp:408] rev-dsn5 -> rev-dsn5
I1118 18:32:19.464972  3106 net.cpp:150] Setting up rev-dsn5
I1118 18:32:19.464977  3106 net.cpp:157] Top shape: 1 1 32 32 (1024)
I1118 18:32:19.464979  3106 net.cpp:165] Memory required for data: 914212048
I1118 18:32:19.464982  3106 layer_factory.hpp:77] Creating layer tile-dsn5
I1118 18:32:19.464987  3106 net.cpp:100] Creating Layer tile-dsn5
I1118 18:32:19.464989  3106 net.cpp:434] tile-dsn5 <- rev-dsn5
I1118 18:32:19.464995  3106 net.cpp:408] tile-dsn5 -> weight-dsn5
I1118 18:32:19.465013  3106 net.cpp:150] Setting up tile-dsn5
I1118 18:32:19.465015  3106 net.cpp:157] Top shape: 1 512 32 32 (524288)
I1118 18:32:19.465018  3106 net.cpp:165] Memory required for data: 916309200
I1118 18:32:19.465020  3106 layer_factory.hpp:77] Creating layer prod1-dsn5
I1118 18:32:19.465025  3106 net.cpp:100] Creating Layer prod1-dsn5
I1118 18:32:19.465029  3106 net.cpp:434] prod1-dsn5 <- conv5_3_relu5_3_0_split_2
I1118 18:32:19.465032  3106 net.cpp:434] prod1-dsn5 <- weight-dsn5
I1118 18:32:19.465037  3106 net.cpp:408] prod1-dsn5 -> prod1-dsn5
I1118 18:32:19.465055  3106 net.cpp:150] Setting up prod1-dsn5
I1118 18:32:19.465059  3106 net.cpp:157] Top shape: 1 512 32 32 (524288)
I1118 18:32:19.465061  3106 net.cpp:165] Memory required for data: 918406352
I1118 18:32:19.465063  3106 layer_factory.hpp:77] Creating layer conv1-dsn5
I1118 18:32:19.465071  3106 net.cpp:100] Creating Layer conv1-dsn5
I1118 18:32:19.465073  3106 net.cpp:434] conv1-dsn5 <- prod1-dsn5
I1118 18:32:19.465078  3106 net.cpp:408] conv1-dsn5 -> conv1-dsn5
I1118 18:32:19.467041  3106 net.cpp:150] Setting up conv1-dsn5
I1118 18:32:19.467065  3106 net.cpp:157] Top shape: 1 64 32 32 (65536)
I1118 18:32:19.467067  3106 net.cpp:165] Memory required for data: 918668496
I1118 18:32:19.467073  3106 layer_factory.hpp:77] Creating layer conv2-dsn5
I1118 18:32:19.467083  3106 net.cpp:100] Creating Layer conv2-dsn5
I1118 18:32:19.467087  3106 net.cpp:434] conv2-dsn5 <- conv1-dsn5
I1118 18:32:19.467092  3106 net.cpp:408] conv2-dsn5 -> conv2-dsn5
I1118 18:32:19.467941  3106 net.cpp:150] Setting up conv2-dsn5
I1118 18:32:19.467953  3106 net.cpp:157] Top shape: 1 64 32 32 (65536)
I1118 18:32:19.467955  3106 net.cpp:165] Memory required for data: 918930640
I1118 18:32:19.467960  3106 layer_factory.hpp:77] Creating layer relu1-dsn5
I1118 18:32:19.467965  3106 net.cpp:100] Creating Layer relu1-dsn5
I1118 18:32:19.467967  3106 net.cpp:434] relu1-dsn5 <- conv2-dsn5
I1118 18:32:19.467972  3106 net.cpp:395] relu1-dsn5 -> conv2-dsn5 (in-place)
I1118 18:32:19.468138  3106 net.cpp:150] Setting up relu1-dsn5
I1118 18:32:19.468148  3106 net.cpp:157] Top shape: 1 64 32 32 (65536)
I1118 18:32:19.468150  3106 net.cpp:165] Memory required for data: 919192784
I1118 18:32:19.468153  3106 layer_factory.hpp:77] Creating layer conv3-dsn5
I1118 18:32:19.468163  3106 net.cpp:100] Creating Layer conv3-dsn5
I1118 18:32:19.468165  3106 net.cpp:434] conv3-dsn5 <- conv2-dsn5
I1118 18:32:19.468171  3106 net.cpp:408] conv3-dsn5 -> conv3-dsn5
I1118 18:32:19.468952  3106 net.cpp:150] Setting up conv3-dsn5
I1118 18:32:19.468962  3106 net.cpp:157] Top shape: 1 64 32 32 (65536)
I1118 18:32:19.468966  3106 net.cpp:165] Memory required for data: 919454928
I1118 18:32:19.468971  3106 layer_factory.hpp:77] Creating layer relu2-dsn5
I1118 18:32:19.468974  3106 net.cpp:100] Creating Layer relu2-dsn5
I1118 18:32:19.468977  3106 net.cpp:434] relu2-dsn5 <- conv3-dsn5
I1118 18:32:19.468981  3106 net.cpp:395] relu2-dsn5 -> conv3-dsn5 (in-place)
I1118 18:32:19.469141  3106 net.cpp:150] Setting up relu2-dsn5
I1118 18:32:19.469149  3106 net.cpp:157] Top shape: 1 64 32 32 (65536)
I1118 18:32:19.469151  3106 net.cpp:165] Memory required for data: 919717072
I1118 18:32:19.469154  3106 layer_factory.hpp:77] Creating layer conv4-dsn5
I1118 18:32:19.469173  3106 net.cpp:100] Creating Layer conv4-dsn5
I1118 18:32:19.469177  3106 net.cpp:434] conv4-dsn5 <- conv3-dsn5
I1118 18:32:19.469182  3106 net.cpp:408] conv4-dsn5 -> conv4-dsn5
I1118 18:32:19.469792  3106 net.cpp:150] Setting up conv4-dsn5
I1118 18:32:19.469803  3106 net.cpp:157] Top shape: 1 1 32 32 (1024)
I1118 18:32:19.469805  3106 net.cpp:165] Memory required for data: 919721168
I1118 18:32:19.469810  3106 layer_factory.hpp:77] Creating layer sum-dsn5
I1118 18:32:19.469816  3106 net.cpp:100] Creating Layer sum-dsn5
I1118 18:32:19.469818  3106 net.cpp:434] sum-dsn5 <- conv4-dsn5
I1118 18:32:19.469822  3106 net.cpp:434] sum-dsn5 <- weight-dsn6-5_crop1-dsn5_0_split_1
I1118 18:32:19.469827  3106 net.cpp:408] sum-dsn5 -> sum-dsn5
I1118 18:32:19.469843  3106 net.cpp:150] Setting up sum-dsn5
I1118 18:32:19.469858  3106 net.cpp:157] Top shape: 1 1 32 32 (1024)
I1118 18:32:19.469861  3106 net.cpp:165] Memory required for data: 919725264
I1118 18:32:19.469862  3106 layer_factory.hpp:77] Creating layer sum-dsn5_sum-dsn5_0_split
I1118 18:32:19.469868  3106 net.cpp:100] Creating Layer sum-dsn5_sum-dsn5_0_split
I1118 18:32:19.469871  3106 net.cpp:434] sum-dsn5_sum-dsn5_0_split <- sum-dsn5
I1118 18:32:19.469874  3106 net.cpp:408] sum-dsn5_sum-dsn5_0_split -> sum-dsn5_sum-dsn5_0_split_0
I1118 18:32:19.469879  3106 net.cpp:408] sum-dsn5_sum-dsn5_0_split -> sum-dsn5_sum-dsn5_0_split_1
I1118 18:32:19.469907  3106 net.cpp:150] Setting up sum-dsn5_sum-dsn5_0_split
I1118 18:32:19.469913  3106 net.cpp:157] Top shape: 1 1 32 32 (1024)
I1118 18:32:19.469915  3106 net.cpp:157] Top shape: 1 1 32 32 (1024)
I1118 18:32:19.469918  3106 net.cpp:165] Memory required for data: 919733456
I1118 18:32:19.469919  3106 layer_factory.hpp:77] Creating layer upsample16_dsn5
I1118 18:32:19.469926  3106 net.cpp:100] Creating Layer upsample16_dsn5
I1118 18:32:19.469928  3106 net.cpp:434] upsample16_dsn5 <- sum-dsn5_sum-dsn5_0_split_0
I1118 18:32:19.469933  3106 net.cpp:408] upsample16_dsn5 -> sum-dsn5-up
I1118 18:32:19.471029  3106 net.cpp:150] Setting up upsample16_dsn5
I1118 18:32:19.471040  3106 net.cpp:157] Top shape: 1 1 528 528 (278784)
I1118 18:32:19.471041  3106 net.cpp:165] Memory required for data: 920848592
I1118 18:32:19.471046  3106 layer_factory.hpp:77] Creating layer crop2-dsn5
I1118 18:32:19.471052  3106 net.cpp:100] Creating Layer crop2-dsn5
I1118 18:32:19.471055  3106 net.cpp:434] crop2-dsn5 <- sum-dsn5-up
I1118 18:32:19.471058  3106 net.cpp:434] crop2-dsn5 <- data_augmentation_0_split_2
I1118 18:32:19.471062  3106 net.cpp:408] crop2-dsn5 -> upscore-dsn5
I1118 18:32:19.471086  3106 net.cpp:150] Setting up crop2-dsn5
I1118 18:32:19.471089  3106 net.cpp:157] Top shape: 1 1 500 500 (250000)
I1118 18:32:19.471091  3106 net.cpp:165] Memory required for data: 921848592
I1118 18:32:19.471093  3106 layer_factory.hpp:77] Creating layer loss5-score
I1118 18:32:19.471101  3106 net.cpp:100] Creating Layer loss5-score
I1118 18:32:19.471103  3106 net.cpp:434] loss5-score <- upscore-dsn5
I1118 18:32:19.471107  3106 net.cpp:434] loss5-score <- label_augmentation_1_split_1
I1118 18:32:19.471112  3106 net.cpp:408] loss5-score -> loss5-score
I1118 18:32:19.471297  3106 net.cpp:150] Setting up loss5-score
I1118 18:32:19.471307  3106 net.cpp:157] Top shape: (1)
I1118 18:32:19.471309  3106 net.cpp:160]     with loss weight 1
I1118 18:32:19.471318  3106 net.cpp:165] Memory required for data: 921848596
I1118 18:32:19.471320  3106 layer_factory.hpp:77] Creating layer upsample2_dsn4
I1118 18:32:19.471328  3106 net.cpp:100] Creating Layer upsample2_dsn4
I1118 18:32:19.471329  3106 net.cpp:434] upsample2_dsn4 <- sum-dsn5_sum-dsn5_0_split_1
I1118 18:32:19.471335  3106 net.cpp:408] upsample2_dsn4 -> sum-dsn5-4
I1118 18:32:19.471518  3106 net.cpp:150] Setting up upsample2_dsn4
I1118 18:32:19.471524  3106 net.cpp:157] Top shape: 1 1 66 66 (4356)
I1118 18:32:19.471525  3106 net.cpp:165] Memory required for data: 921866020
I1118 18:32:19.471529  3106 layer_factory.hpp:77] Creating layer crop1-dsn4
I1118 18:32:19.471534  3106 net.cpp:100] Creating Layer crop1-dsn4
I1118 18:32:19.471536  3106 net.cpp:434] crop1-dsn4 <- sum-dsn5-4
I1118 18:32:19.471540  3106 net.cpp:434] crop1-dsn4 <- conv4_3_relu4_3_0_split_1
I1118 18:32:19.471545  3106 net.cpp:408] crop1-dsn4 -> weight-dsn5-4
I1118 18:32:19.471565  3106 net.cpp:150] Setting up crop1-dsn4
I1118 18:32:19.471568  3106 net.cpp:157] Top shape: 1 1 63 63 (3969)
I1118 18:32:19.471570  3106 net.cpp:165] Memory required for data: 921881896
I1118 18:32:19.471572  3106 layer_factory.hpp:77] Creating layer weight-dsn5-4_crop1-dsn4_0_split
I1118 18:32:19.471576  3106 net.cpp:100] Creating Layer weight-dsn5-4_crop1-dsn4_0_split
I1118 18:32:19.471580  3106 net.cpp:434] weight-dsn5-4_crop1-dsn4_0_split <- weight-dsn5-4
I1118 18:32:19.471585  3106 net.cpp:408] weight-dsn5-4_crop1-dsn4_0_split -> weight-dsn5-4_crop1-dsn4_0_split_0
I1118 18:32:19.471590  3106 net.cpp:408] weight-dsn5-4_crop1-dsn4_0_split -> weight-dsn5-4_crop1-dsn4_0_split_1
I1118 18:32:19.471612  3106 net.cpp:150] Setting up weight-dsn5-4_crop1-dsn4_0_split
I1118 18:32:19.471617  3106 net.cpp:157] Top shape: 1 1 63 63 (3969)
I1118 18:32:19.471621  3106 net.cpp:157] Top shape: 1 1 63 63 (3969)
I1118 18:32:19.471622  3106 net.cpp:165] Memory required for data: 921913648
I1118 18:32:19.471624  3106 layer_factory.hpp:77] Creating layer sigmoid-dsn4
I1118 18:32:19.471630  3106 net.cpp:100] Creating Layer sigmoid-dsn4
I1118 18:32:19.471632  3106 net.cpp:434] sigmoid-dsn4 <- weight-dsn5-4_crop1-dsn4_0_split_0
I1118 18:32:19.471637  3106 net.cpp:408] sigmoid-dsn4 -> sigmoid-dsn4
I1118 18:32:19.471714  3106 net.cpp:150] Setting up sigmoid-dsn4
I1118 18:32:19.471720  3106 net.cpp:157] Top shape: 1 1 63 63 (3969)
I1118 18:32:19.471722  3106 net.cpp:165] Memory required for data: 921929524
I1118 18:32:19.471724  3106 layer_factory.hpp:77] Creating layer rev-dsn4
I1118 18:32:19.471729  3106 net.cpp:100] Creating Layer rev-dsn4
I1118 18:32:19.471732  3106 net.cpp:434] rev-dsn4 <- sigmoid-dsn4
I1118 18:32:19.471736  3106 net.cpp:408] rev-dsn4 -> rev-dsn4
I1118 18:32:19.471753  3106 net.cpp:150] Setting up rev-dsn4
I1118 18:32:19.471757  3106 net.cpp:157] Top shape: 1 1 63 63 (3969)
I1118 18:32:19.471760  3106 net.cpp:165] Memory required for data: 921945400
I1118 18:32:19.471761  3106 layer_factory.hpp:77] Creating layer tile-dsn4
I1118 18:32:19.471765  3106 net.cpp:100] Creating Layer tile-dsn4
I1118 18:32:19.471768  3106 net.cpp:434] tile-dsn4 <- rev-dsn4
I1118 18:32:19.471771  3106 net.cpp:408] tile-dsn4 -> weight-dsn4
I1118 18:32:19.471786  3106 net.cpp:150] Setting up tile-dsn4
I1118 18:32:19.471788  3106 net.cpp:157] Top shape: 1 512 63 63 (2032128)
I1118 18:32:19.471791  3106 net.cpp:165] Memory required for data: 930073912
I1118 18:32:19.471792  3106 layer_factory.hpp:77] Creating layer prod1-dsn4
I1118 18:32:19.471798  3106 net.cpp:100] Creating Layer prod1-dsn4
I1118 18:32:19.471801  3106 net.cpp:434] prod1-dsn4 <- conv4_3_relu4_3_0_split_2
I1118 18:32:19.471804  3106 net.cpp:434] prod1-dsn4 <- weight-dsn4
I1118 18:32:19.471809  3106 net.cpp:408] prod1-dsn4 -> prod1-dsn4
I1118 18:32:19.471824  3106 net.cpp:150] Setting up prod1-dsn4
I1118 18:32:19.471827  3106 net.cpp:157] Top shape: 1 512 63 63 (2032128)
I1118 18:32:19.471829  3106 net.cpp:165] Memory required for data: 938202424
I1118 18:32:19.471832  3106 layer_factory.hpp:77] Creating layer conv1-dsn4
I1118 18:32:19.471840  3106 net.cpp:100] Creating Layer conv1-dsn4
I1118 18:32:19.471843  3106 net.cpp:434] conv1-dsn4 <- prod1-dsn4
I1118 18:32:19.471848  3106 net.cpp:408] conv1-dsn4 -> conv1-dsn4
I1118 18:32:19.473762  3106 net.cpp:150] Setting up conv1-dsn4
I1118 18:32:19.473773  3106 net.cpp:157] Top shape: 1 64 63 63 (254016)
I1118 18:32:19.473775  3106 net.cpp:165] Memory required for data: 939218488
I1118 18:32:19.473781  3106 layer_factory.hpp:77] Creating layer conv2-dsn4
I1118 18:32:19.473791  3106 net.cpp:100] Creating Layer conv2-dsn4
I1118 18:32:19.473794  3106 net.cpp:434] conv2-dsn4 <- conv1-dsn4
I1118 18:32:19.473800  3106 net.cpp:408] conv2-dsn4 -> conv2-dsn4
I1118 18:32:19.474578  3106 net.cpp:150] Setting up conv2-dsn4
I1118 18:32:19.474588  3106 net.cpp:157] Top shape: 1 64 63 63 (254016)
I1118 18:32:19.474591  3106 net.cpp:165] Memory required for data: 940234552
I1118 18:32:19.474596  3106 layer_factory.hpp:77] Creating layer relu1-dsn4
I1118 18:32:19.474602  3106 net.cpp:100] Creating Layer relu1-dsn4
I1118 18:32:19.474604  3106 net.cpp:434] relu1-dsn4 <- conv2-dsn4
I1118 18:32:19.474608  3106 net.cpp:395] relu1-dsn4 -> conv2-dsn4 (in-place)
I1118 18:32:19.474763  3106 net.cpp:150] Setting up relu1-dsn4
I1118 18:32:19.474774  3106 net.cpp:157] Top shape: 1 64 63 63 (254016)
I1118 18:32:19.474776  3106 net.cpp:165] Memory required for data: 941250616
I1118 18:32:19.474779  3106 layer_factory.hpp:77] Creating layer conv3-dsn4
I1118 18:32:19.474788  3106 net.cpp:100] Creating Layer conv3-dsn4
I1118 18:32:19.474792  3106 net.cpp:434] conv3-dsn4 <- conv2-dsn4
I1118 18:32:19.474797  3106 net.cpp:408] conv3-dsn4 -> conv3-dsn4
I1118 18:32:19.475694  3106 net.cpp:150] Setting up conv3-dsn4
I1118 18:32:19.475705  3106 net.cpp:157] Top shape: 1 64 63 63 (254016)
I1118 18:32:19.475708  3106 net.cpp:165] Memory required for data: 942266680
I1118 18:32:19.475713  3106 layer_factory.hpp:77] Creating layer relu2-dsn4
I1118 18:32:19.475718  3106 net.cpp:100] Creating Layer relu2-dsn4
I1118 18:32:19.475720  3106 net.cpp:434] relu2-dsn4 <- conv3-dsn4
I1118 18:32:19.475724  3106 net.cpp:395] relu2-dsn4 -> conv3-dsn4 (in-place)
I1118 18:32:19.475806  3106 net.cpp:150] Setting up relu2-dsn4
I1118 18:32:19.475813  3106 net.cpp:157] Top shape: 1 64 63 63 (254016)
I1118 18:32:19.475816  3106 net.cpp:165] Memory required for data: 943282744
I1118 18:32:19.475818  3106 layer_factory.hpp:77] Creating layer conv4-dsn4
I1118 18:32:19.475826  3106 net.cpp:100] Creating Layer conv4-dsn4
I1118 18:32:19.475828  3106 net.cpp:434] conv4-dsn4 <- conv3-dsn4
I1118 18:32:19.475833  3106 net.cpp:408] conv4-dsn4 -> conv4-dsn4
I1118 18:32:19.476383  3106 net.cpp:150] Setting up conv4-dsn4
I1118 18:32:19.476397  3106 net.cpp:157] Top shape: 1 1 63 63 (3969)
I1118 18:32:19.476398  3106 net.cpp:165] Memory required for data: 943298620
I1118 18:32:19.476403  3106 layer_factory.hpp:77] Creating layer sum-dsn4
I1118 18:32:19.476408  3106 net.cpp:100] Creating Layer sum-dsn4
I1118 18:32:19.476410  3106 net.cpp:434] sum-dsn4 <- conv4-dsn4
I1118 18:32:19.476414  3106 net.cpp:434] sum-dsn4 <- weight-dsn5-4_crop1-dsn4_0_split_1
I1118 18:32:19.476418  3106 net.cpp:408] sum-dsn4 -> sum-dsn4
I1118 18:32:19.476438  3106 net.cpp:150] Setting up sum-dsn4
I1118 18:32:19.476442  3106 net.cpp:157] Top shape: 1 1 63 63 (3969)
I1118 18:32:19.476444  3106 net.cpp:165] Memory required for data: 943314496
I1118 18:32:19.476446  3106 layer_factory.hpp:77] Creating layer sum-dsn4_sum-dsn4_0_split
I1118 18:32:19.476452  3106 net.cpp:100] Creating Layer sum-dsn4_sum-dsn4_0_split
I1118 18:32:19.476454  3106 net.cpp:434] sum-dsn4_sum-dsn4_0_split <- sum-dsn4
I1118 18:32:19.476457  3106 net.cpp:408] sum-dsn4_sum-dsn4_0_split -> sum-dsn4_sum-dsn4_0_split_0
I1118 18:32:19.476474  3106 net.cpp:408] sum-dsn4_sum-dsn4_0_split -> sum-dsn4_sum-dsn4_0_split_1
I1118 18:32:19.476503  3106 net.cpp:150] Setting up sum-dsn4_sum-dsn4_0_split
I1118 18:32:19.476508  3106 net.cpp:157] Top shape: 1 1 63 63 (3969)
I1118 18:32:19.476511  3106 net.cpp:157] Top shape: 1 1 63 63 (3969)
I1118 18:32:19.476513  3106 net.cpp:165] Memory required for data: 943346248
I1118 18:32:19.476516  3106 layer_factory.hpp:77] Creating layer upsample8_dsn4
I1118 18:32:19.476522  3106 net.cpp:100] Creating Layer upsample8_dsn4
I1118 18:32:19.476526  3106 net.cpp:434] upsample8_dsn4 <- sum-dsn4_sum-dsn4_0_split_0
I1118 18:32:19.476531  3106 net.cpp:408] upsample8_dsn4 -> sum-dsn4-up
I1118 18:32:19.477603  3106 net.cpp:150] Setting up upsample8_dsn4
I1118 18:32:19.477612  3106 net.cpp:157] Top shape: 1 1 512 512 (262144)
I1118 18:32:19.477625  3106 net.cpp:165] Memory required for data: 944394824
I1118 18:32:19.477630  3106 layer_factory.hpp:77] Creating layer crop2-dsn4
I1118 18:32:19.477638  3106 net.cpp:100] Creating Layer crop2-dsn4
I1118 18:32:19.477640  3106 net.cpp:434] crop2-dsn4 <- sum-dsn4-up
I1118 18:32:19.477643  3106 net.cpp:434] crop2-dsn4 <- data_augmentation_0_split_3
I1118 18:32:19.477648  3106 net.cpp:408] crop2-dsn4 -> upscore-dsn4
I1118 18:32:19.477672  3106 net.cpp:150] Setting up crop2-dsn4
I1118 18:32:19.477676  3106 net.cpp:157] Top shape: 1 1 500 500 (250000)
I1118 18:32:19.477679  3106 net.cpp:165] Memory required for data: 945394824
I1118 18:32:19.477681  3106 layer_factory.hpp:77] Creating layer loss4-score
I1118 18:32:19.477687  3106 net.cpp:100] Creating Layer loss4-score
I1118 18:32:19.477689  3106 net.cpp:434] loss4-score <- upscore-dsn4
I1118 18:32:19.477694  3106 net.cpp:434] loss4-score <- label_augmentation_1_split_2
I1118 18:32:19.477699  3106 net.cpp:408] loss4-score -> loss4-score
I1118 18:32:19.477869  3106 net.cpp:150] Setting up loss4-score
I1118 18:32:19.477875  3106 net.cpp:157] Top shape: (1)
I1118 18:32:19.477877  3106 net.cpp:160]     with loss weight 1
I1118 18:32:19.477882  3106 net.cpp:165] Memory required for data: 945394828
I1118 18:32:19.477885  3106 layer_factory.hpp:77] Creating layer upsample2_dsn3
I1118 18:32:19.477890  3106 net.cpp:100] Creating Layer upsample2_dsn3
I1118 18:32:19.477892  3106 net.cpp:434] upsample2_dsn3 <- sum-dsn4_sum-dsn4_0_split_1
I1118 18:32:19.477898  3106 net.cpp:408] upsample2_dsn3 -> sum-dsn4-3
I1118 18:32:19.478086  3106 net.cpp:150] Setting up upsample2_dsn3
I1118 18:32:19.478092  3106 net.cpp:157] Top shape: 1 1 128 128 (16384)
I1118 18:32:19.478096  3106 net.cpp:165] Memory required for data: 945460364
I1118 18:32:19.478099  3106 layer_factory.hpp:77] Creating layer crop1-dsn3
I1118 18:32:19.478103  3106 net.cpp:100] Creating Layer crop1-dsn3
I1118 18:32:19.478106  3106 net.cpp:434] crop1-dsn3 <- sum-dsn4-3
I1118 18:32:19.478109  3106 net.cpp:434] crop1-dsn3 <- conv3_3_relu3_3_0_split_1
I1118 18:32:19.478113  3106 net.cpp:408] crop1-dsn3 -> weight-dsn4-3
I1118 18:32:19.478129  3106 net.cpp:150] Setting up crop1-dsn3
I1118 18:32:19.478133  3106 net.cpp:157] Top shape: 1 1 125 125 (15625)
I1118 18:32:19.478135  3106 net.cpp:165] Memory required for data: 945522864
I1118 18:32:19.478137  3106 layer_factory.hpp:77] Creating layer weight-dsn4-3_crop1-dsn3_0_split
I1118 18:32:19.478142  3106 net.cpp:100] Creating Layer weight-dsn4-3_crop1-dsn3_0_split
I1118 18:32:19.478144  3106 net.cpp:434] weight-dsn4-3_crop1-dsn3_0_split <- weight-dsn4-3
I1118 18:32:19.478150  3106 net.cpp:408] weight-dsn4-3_crop1-dsn3_0_split -> weight-dsn4-3_crop1-dsn3_0_split_0
I1118 18:32:19.478154  3106 net.cpp:408] weight-dsn4-3_crop1-dsn3_0_split -> weight-dsn4-3_crop1-dsn3_0_split_1
I1118 18:32:19.478183  3106 net.cpp:150] Setting up weight-dsn4-3_crop1-dsn3_0_split
I1118 18:32:19.478188  3106 net.cpp:157] Top shape: 1 1 125 125 (15625)
I1118 18:32:19.478190  3106 net.cpp:157] Top shape: 1 1 125 125 (15625)
I1118 18:32:19.478193  3106 net.cpp:165] Memory required for data: 945647864
I1118 18:32:19.478194  3106 layer_factory.hpp:77] Creating layer sigmoid-dsn3
I1118 18:32:19.478199  3106 net.cpp:100] Creating Layer sigmoid-dsn3
I1118 18:32:19.478200  3106 net.cpp:434] sigmoid-dsn3 <- weight-dsn4-3_crop1-dsn3_0_split_0
I1118 18:32:19.478205  3106 net.cpp:408] sigmoid-dsn3 -> sigmoid-dsn3
I1118 18:32:19.478284  3106 net.cpp:150] Setting up sigmoid-dsn3
I1118 18:32:19.478291  3106 net.cpp:157] Top shape: 1 1 125 125 (15625)
I1118 18:32:19.478293  3106 net.cpp:165] Memory required for data: 945710364
I1118 18:32:19.478296  3106 layer_factory.hpp:77] Creating layer rev-dsn3
I1118 18:32:19.478307  3106 net.cpp:100] Creating Layer rev-dsn3
I1118 18:32:19.478309  3106 net.cpp:434] rev-dsn3 <- sigmoid-dsn3
I1118 18:32:19.478328  3106 net.cpp:408] rev-dsn3 -> rev-dsn3
I1118 18:32:19.478346  3106 net.cpp:150] Setting up rev-dsn3
I1118 18:32:19.478350  3106 net.cpp:157] Top shape: 1 1 125 125 (15625)
I1118 18:32:19.478353  3106 net.cpp:165] Memory required for data: 945772864
I1118 18:32:19.478355  3106 layer_factory.hpp:77] Creating layer tile-dsn3
I1118 18:32:19.478359  3106 net.cpp:100] Creating Layer tile-dsn3
I1118 18:32:19.478361  3106 net.cpp:434] tile-dsn3 <- rev-dsn3
I1118 18:32:19.478368  3106 net.cpp:408] tile-dsn3 -> weight-dsn3
I1118 18:32:19.478382  3106 net.cpp:150] Setting up tile-dsn3
I1118 18:32:19.478385  3106 net.cpp:157] Top shape: 1 256 125 125 (4000000)
I1118 18:32:19.478387  3106 net.cpp:165] Memory required for data: 961772864
I1118 18:32:19.478390  3106 layer_factory.hpp:77] Creating layer prod1-dsn3
I1118 18:32:19.478394  3106 net.cpp:100] Creating Layer prod1-dsn3
I1118 18:32:19.478396  3106 net.cpp:434] prod1-dsn3 <- conv3_3_relu3_3_0_split_2
I1118 18:32:19.478399  3106 net.cpp:434] prod1-dsn3 <- weight-dsn3
I1118 18:32:19.478405  3106 net.cpp:408] prod1-dsn3 -> prod1-dsn3
I1118 18:32:19.478420  3106 net.cpp:150] Setting up prod1-dsn3
I1118 18:32:19.478425  3106 net.cpp:157] Top shape: 1 256 125 125 (4000000)
I1118 18:32:19.478427  3106 net.cpp:165] Memory required for data: 977772864
I1118 18:32:19.478430  3106 layer_factory.hpp:77] Creating layer conv1-dsn3
I1118 18:32:19.478437  3106 net.cpp:100] Creating Layer conv1-dsn3
I1118 18:32:19.478440  3106 net.cpp:434] conv1-dsn3 <- prod1-dsn3
I1118 18:32:19.478444  3106 net.cpp:408] conv1-dsn3 -> conv1-dsn3
I1118 18:32:19.480137  3106 net.cpp:150] Setting up conv1-dsn3
I1118 18:32:19.480149  3106 net.cpp:157] Top shape: 1 64 125 125 (1000000)
I1118 18:32:19.480151  3106 net.cpp:165] Memory required for data: 981772864
I1118 18:32:19.480168  3106 layer_factory.hpp:77] Creating layer conv2-dsn3
I1118 18:32:19.480177  3106 net.cpp:100] Creating Layer conv2-dsn3
I1118 18:32:19.480180  3106 net.cpp:434] conv2-dsn3 <- conv1-dsn3
I1118 18:32:19.480186  3106 net.cpp:408] conv2-dsn3 -> conv2-dsn3
I1118 18:32:19.481101  3106 net.cpp:150] Setting up conv2-dsn3
I1118 18:32:19.481112  3106 net.cpp:157] Top shape: 1 64 125 125 (1000000)
I1118 18:32:19.481113  3106 net.cpp:165] Memory required for data: 985772864
I1118 18:32:19.481118  3106 layer_factory.hpp:77] Creating layer relu1-dsn3
I1118 18:32:19.481124  3106 net.cpp:100] Creating Layer relu1-dsn3
I1118 18:32:19.481127  3106 net.cpp:434] relu1-dsn3 <- conv2-dsn3
I1118 18:32:19.481132  3106 net.cpp:395] relu1-dsn3 -> conv2-dsn3 (in-place)
I1118 18:32:19.481194  3106 net.cpp:150] Setting up relu1-dsn3
I1118 18:32:19.481199  3106 net.cpp:157] Top shape: 1 64 125 125 (1000000)
I1118 18:32:19.481201  3106 net.cpp:165] Memory required for data: 989772864
I1118 18:32:19.481204  3106 layer_factory.hpp:77] Creating layer conv3-dsn3
I1118 18:32:19.481223  3106 net.cpp:100] Creating Layer conv3-dsn3
I1118 18:32:19.481226  3106 net.cpp:434] conv3-dsn3 <- conv2-dsn3
I1118 18:32:19.481231  3106 net.cpp:408] conv3-dsn3 -> conv3-dsn3
I1118 18:32:19.482131  3106 net.cpp:150] Setting up conv3-dsn3
I1118 18:32:19.482141  3106 net.cpp:157] Top shape: 1 64 125 125 (1000000)
I1118 18:32:19.482144  3106 net.cpp:165] Memory required for data: 993772864
I1118 18:32:19.482149  3106 layer_factory.hpp:77] Creating layer relu2-dsn3
I1118 18:32:19.482153  3106 net.cpp:100] Creating Layer relu2-dsn3
I1118 18:32:19.482156  3106 net.cpp:434] relu2-dsn3 <- conv3-dsn3
I1118 18:32:19.482161  3106 net.cpp:395] relu2-dsn3 -> conv3-dsn3 (in-place)
I1118 18:32:19.482229  3106 net.cpp:150] Setting up relu2-dsn3
I1118 18:32:19.482236  3106 net.cpp:157] Top shape: 1 64 125 125 (1000000)
I1118 18:32:19.482249  3106 net.cpp:165] Memory required for data: 997772864
I1118 18:32:19.482251  3106 layer_factory.hpp:77] Creating layer conv4-dsn3
I1118 18:32:19.482260  3106 net.cpp:100] Creating Layer conv4-dsn3
I1118 18:32:19.482262  3106 net.cpp:434] conv4-dsn3 <- conv3-dsn3
I1118 18:32:19.482267  3106 net.cpp:408] conv4-dsn3 -> conv4-dsn3
I1118 18:32:19.482843  3106 net.cpp:150] Setting up conv4-dsn3
I1118 18:32:19.482853  3106 net.cpp:157] Top shape: 1 1 125 125 (15625)
I1118 18:32:19.482856  3106 net.cpp:165] Memory required for data: 997835364
I1118 18:32:19.482861  3106 layer_factory.hpp:77] Creating layer sum-dsn3
I1118 18:32:19.482865  3106 net.cpp:100] Creating Layer sum-dsn3
I1118 18:32:19.482868  3106 net.cpp:434] sum-dsn3 <- conv4-dsn3
I1118 18:32:19.482872  3106 net.cpp:434] sum-dsn3 <- weight-dsn4-3_crop1-dsn3_0_split_1
I1118 18:32:19.482877  3106 net.cpp:408] sum-dsn3 -> sum-dsn3
I1118 18:32:19.482897  3106 net.cpp:150] Setting up sum-dsn3
I1118 18:32:19.482911  3106 net.cpp:157] Top shape: 1 1 125 125 (15625)
I1118 18:32:19.482913  3106 net.cpp:165] Memory required for data: 997897864
I1118 18:32:19.482915  3106 layer_factory.hpp:77] Creating layer sum-dsn3_sum-dsn3_0_split
I1118 18:32:19.482923  3106 net.cpp:100] Creating Layer sum-dsn3_sum-dsn3_0_split
I1118 18:32:19.482924  3106 net.cpp:434] sum-dsn3_sum-dsn3_0_split <- sum-dsn3
I1118 18:32:19.482930  3106 net.cpp:408] sum-dsn3_sum-dsn3_0_split -> sum-dsn3_sum-dsn3_0_split_0
I1118 18:32:19.482935  3106 net.cpp:408] sum-dsn3_sum-dsn3_0_split -> sum-dsn3_sum-dsn3_0_split_1
I1118 18:32:19.482961  3106 net.cpp:150] Setting up sum-dsn3_sum-dsn3_0_split
I1118 18:32:19.482967  3106 net.cpp:157] Top shape: 1 1 125 125 (15625)
I1118 18:32:19.482970  3106 net.cpp:157] Top shape: 1 1 125 125 (15625)
I1118 18:32:19.482972  3106 net.cpp:165] Memory required for data: 998022864
I1118 18:32:19.482975  3106 layer_factory.hpp:77] Creating layer upsample4_dsn3
I1118 18:32:19.482980  3106 net.cpp:100] Creating Layer upsample4_dsn3
I1118 18:32:19.482981  3106 net.cpp:434] upsample4_dsn3 <- sum-dsn3_sum-dsn3_0_split_0
I1118 18:32:19.482987  3106 net.cpp:408] upsample4_dsn3 -> sum-dsn3-up
I1118 18:32:19.484079  3106 net.cpp:150] Setting up upsample4_dsn3
I1118 18:32:19.484089  3106 net.cpp:157] Top shape: 1 1 504 504 (254016)
I1118 18:32:19.484091  3106 net.cpp:165] Memory required for data: 999038928
I1118 18:32:19.484097  3106 layer_factory.hpp:77] Creating layer crop2-dsn3
I1118 18:32:19.484102  3106 net.cpp:100] Creating Layer crop2-dsn3
I1118 18:32:19.484104  3106 net.cpp:434] crop2-dsn3 <- sum-dsn3-up
I1118 18:32:19.484107  3106 net.cpp:434] crop2-dsn3 <- data_augmentation_0_split_4
I1118 18:32:19.484113  3106 net.cpp:408] crop2-dsn3 -> upscore-dsn3
I1118 18:32:19.484145  3106 net.cpp:150] Setting up crop2-dsn3
I1118 18:32:19.484153  3106 net.cpp:157] Top shape: 1 1 500 500 (250000)
I1118 18:32:19.484154  3106 net.cpp:165] Memory required for data: 1000038928
I1118 18:32:19.484158  3106 layer_factory.hpp:77] Creating layer loss3-score
I1118 18:32:19.484163  3106 net.cpp:100] Creating Layer loss3-score
I1118 18:32:19.484166  3106 net.cpp:434] loss3-score <- upscore-dsn3
I1118 18:32:19.484169  3106 net.cpp:434] loss3-score <- label_augmentation_1_split_3
I1118 18:32:19.484174  3106 net.cpp:408] loss3-score -> loss3-score
I1118 18:32:19.484351  3106 net.cpp:150] Setting up loss3-score
I1118 18:32:19.484359  3106 net.cpp:157] Top shape: (1)
I1118 18:32:19.484360  3106 net.cpp:160]     with loss weight 1
I1118 18:32:19.484365  3106 net.cpp:165] Memory required for data: 1000038932
I1118 18:32:19.484369  3106 layer_factory.hpp:77] Creating layer upsample2_1-dsn2
I1118 18:32:19.484374  3106 net.cpp:100] Creating Layer upsample2_1-dsn2
I1118 18:32:19.484376  3106 net.cpp:434] upsample2_1-dsn2 <- sum-dsn3_sum-dsn3_0_split_1
I1118 18:32:19.484382  3106 net.cpp:408] upsample2_1-dsn2 -> sum-dsn3-2
I1118 18:32:19.484586  3106 net.cpp:150] Setting up upsample2_1-dsn2
I1118 18:32:19.484592  3106 net.cpp:157] Top shape: 1 1 252 252 (63504)
I1118 18:32:19.484594  3106 net.cpp:165] Memory required for data: 1000292948
I1118 18:32:19.484599  3106 layer_factory.hpp:77] Creating layer crop1-dsn2
I1118 18:32:19.484603  3106 net.cpp:100] Creating Layer crop1-dsn2
I1118 18:32:19.484606  3106 net.cpp:434] crop1-dsn2 <- sum-dsn3-2
I1118 18:32:19.484608  3106 net.cpp:434] crop1-dsn2 <- conv2_2_relu2_2_0_split_1
I1118 18:32:19.484612  3106 net.cpp:408] crop1-dsn2 -> weight-dsn3-2
I1118 18:32:19.484633  3106 net.cpp:150] Setting up crop1-dsn2
I1118 18:32:19.484637  3106 net.cpp:157] Top shape: 1 1 250 250 (62500)
I1118 18:32:19.484639  3106 net.cpp:165] Memory required for data: 1000542948
I1118 18:32:19.484642  3106 layer_factory.hpp:77] Creating layer weight-dsn3-2_crop1-dsn2_0_split
I1118 18:32:19.484645  3106 net.cpp:100] Creating Layer weight-dsn3-2_crop1-dsn2_0_split
I1118 18:32:19.484648  3106 net.cpp:434] weight-dsn3-2_crop1-dsn2_0_split <- weight-dsn3-2
I1118 18:32:19.484653  3106 net.cpp:408] weight-dsn3-2_crop1-dsn2_0_split -> weight-dsn3-2_crop1-dsn2_0_split_0
I1118 18:32:19.484658  3106 net.cpp:408] weight-dsn3-2_crop1-dsn2_0_split -> weight-dsn3-2_crop1-dsn2_0_split_1
I1118 18:32:19.484684  3106 net.cpp:150] Setting up weight-dsn3-2_crop1-dsn2_0_split
I1118 18:32:19.484688  3106 net.cpp:157] Top shape: 1 1 250 250 (62500)
I1118 18:32:19.484691  3106 net.cpp:157] Top shape: 1 1 250 250 (62500)
I1118 18:32:19.484694  3106 net.cpp:165] Memory required for data: 1001042948
I1118 18:32:19.484696  3106 layer_factory.hpp:77] Creating layer sigmoid-dsn2
I1118 18:32:19.484699  3106 net.cpp:100] Creating Layer sigmoid-dsn2
I1118 18:32:19.484701  3106 net.cpp:434] sigmoid-dsn2 <- weight-dsn3-2_crop1-dsn2_0_split_0
I1118 18:32:19.484705  3106 net.cpp:408] sigmoid-dsn2 -> sigmoid-dsn2
I1118 18:32:19.485910  3106 net.cpp:150] Setting up sigmoid-dsn2
I1118 18:32:19.485922  3106 net.cpp:157] Top shape: 1 1 250 250 (62500)
I1118 18:32:19.485924  3106 net.cpp:165] Memory required for data: 1001292948
I1118 18:32:19.485927  3106 layer_factory.hpp:77] Creating layer rev-dsn2
I1118 18:32:19.485932  3106 net.cpp:100] Creating Layer rev-dsn2
I1118 18:32:19.485934  3106 net.cpp:434] rev-dsn2 <- sigmoid-dsn2
I1118 18:32:19.485939  3106 net.cpp:408] rev-dsn2 -> rev-dsn2
I1118 18:32:19.485957  3106 net.cpp:150] Setting up rev-dsn2
I1118 18:32:19.485960  3106 net.cpp:157] Top shape: 1 1 250 250 (62500)
I1118 18:32:19.485962  3106 net.cpp:165] Memory required for data: 1001542948
I1118 18:32:19.485965  3106 layer_factory.hpp:77] Creating layer tile-dsn2
I1118 18:32:19.485980  3106 net.cpp:100] Creating Layer tile-dsn2
I1118 18:32:19.485982  3106 net.cpp:434] tile-dsn2 <- rev-dsn2
I1118 18:32:19.485985  3106 net.cpp:408] tile-dsn2 -> weight-dsn2
I1118 18:32:19.486001  3106 net.cpp:150] Setting up tile-dsn2
I1118 18:32:19.486004  3106 net.cpp:157] Top shape: 1 128 250 250 (8000000)
I1118 18:32:19.486006  3106 net.cpp:165] Memory required for data: 1033542948
I1118 18:32:19.486009  3106 layer_factory.hpp:77] Creating layer prod1-dsn2
I1118 18:32:19.486013  3106 net.cpp:100] Creating Layer prod1-dsn2
I1118 18:32:19.486016  3106 net.cpp:434] prod1-dsn2 <- conv2_2_relu2_2_0_split_2
I1118 18:32:19.486019  3106 net.cpp:434] prod1-dsn2 <- weight-dsn2
I1118 18:32:19.486022  3106 net.cpp:408] prod1-dsn2 -> prod1-dsn2
I1118 18:32:19.486040  3106 net.cpp:150] Setting up prod1-dsn2
I1118 18:32:19.486043  3106 net.cpp:157] Top shape: 1 128 250 250 (8000000)
I1118 18:32:19.486047  3106 net.cpp:165] Memory required for data: 1065542948
I1118 18:32:19.486048  3106 layer_factory.hpp:77] Creating layer conv1-dsn2
I1118 18:32:19.486054  3106 net.cpp:100] Creating Layer conv1-dsn2
I1118 18:32:19.486059  3106 net.cpp:434] conv1-dsn2 <- prod1-dsn2
I1118 18:32:19.486063  3106 net.cpp:408] conv1-dsn2 -> conv1-dsn2
I1118 18:32:19.486707  3106 net.cpp:150] Setting up conv1-dsn2
I1118 18:32:19.486717  3106 net.cpp:157] Top shape: 1 64 250 250 (4000000)
I1118 18:32:19.486719  3106 net.cpp:165] Memory required for data: 1081542948
I1118 18:32:19.486726  3106 layer_factory.hpp:77] Creating layer conv2-dsn2
I1118 18:32:19.486734  3106 net.cpp:100] Creating Layer conv2-dsn2
I1118 18:32:19.486737  3106 net.cpp:434] conv2-dsn2 <- conv1-dsn2
I1118 18:32:19.486742  3106 net.cpp:408] conv2-dsn2 -> conv2-dsn2
I1118 18:32:19.488399  3106 net.cpp:150] Setting up conv2-dsn2
I1118 18:32:19.488410  3106 net.cpp:157] Top shape: 1 64 250 250 (4000000)
I1118 18:32:19.488412  3106 net.cpp:165] Memory required for data: 1097542948
I1118 18:32:19.488417  3106 layer_factory.hpp:77] Creating layer relu1-dsn2
I1118 18:32:19.488421  3106 net.cpp:100] Creating Layer relu1-dsn2
I1118 18:32:19.488425  3106 net.cpp:434] relu1-dsn2 <- conv2-dsn2
I1118 18:32:19.488430  3106 net.cpp:395] relu1-dsn2 -> conv2-dsn2 (in-place)
I1118 18:32:19.488510  3106 net.cpp:150] Setting up relu1-dsn2
I1118 18:32:19.488518  3106 net.cpp:157] Top shape: 1 64 250 250 (4000000)
I1118 18:32:19.488520  3106 net.cpp:165] Memory required for data: 1113542948
I1118 18:32:19.488523  3106 layer_factory.hpp:77] Creating layer conv3-dsn2
I1118 18:32:19.488531  3106 net.cpp:100] Creating Layer conv3-dsn2
I1118 18:32:19.488534  3106 net.cpp:434] conv3-dsn2 <- conv2-dsn2
I1118 18:32:19.488538  3106 net.cpp:408] conv3-dsn2 -> conv3-dsn2
I1118 18:32:19.489472  3106 net.cpp:150] Setting up conv3-dsn2
I1118 18:32:19.489485  3106 net.cpp:157] Top shape: 1 64 250 250 (4000000)
I1118 18:32:19.489487  3106 net.cpp:165] Memory required for data: 1129542948
I1118 18:32:19.489491  3106 layer_factory.hpp:77] Creating layer relu2-dsn2
I1118 18:32:19.489495  3106 net.cpp:100] Creating Layer relu2-dsn2
I1118 18:32:19.489498  3106 net.cpp:434] relu2-dsn2 <- conv3-dsn2
I1118 18:32:19.489502  3106 net.cpp:395] relu2-dsn2 -> conv3-dsn2 (in-place)
I1118 18:32:19.489656  3106 net.cpp:150] Setting up relu2-dsn2
I1118 18:32:19.489665  3106 net.cpp:157] Top shape: 1 64 250 250 (4000000)
I1118 18:32:19.489668  3106 net.cpp:165] Memory required for data: 1145542948
I1118 18:32:19.489671  3106 layer_factory.hpp:77] Creating layer conv4-dsn2
I1118 18:32:19.489681  3106 net.cpp:100] Creating Layer conv4-dsn2
I1118 18:32:19.489682  3106 net.cpp:434] conv4-dsn2 <- conv3-dsn2
I1118 18:32:19.489689  3106 net.cpp:408] conv4-dsn2 -> conv4-dsn2
I1118 18:32:19.490176  3106 net.cpp:150] Setting up conv4-dsn2
I1118 18:32:19.490186  3106 net.cpp:157] Top shape: 1 1 250 250 (62500)
I1118 18:32:19.490188  3106 net.cpp:165] Memory required for data: 1145792948
I1118 18:32:19.490192  3106 layer_factory.hpp:77] Creating layer sum-dsn2
I1118 18:32:19.490200  3106 net.cpp:100] Creating Layer sum-dsn2
I1118 18:32:19.490202  3106 net.cpp:434] sum-dsn2 <- conv4-dsn2
I1118 18:32:19.490206  3106 net.cpp:434] sum-dsn2 <- weight-dsn3-2_crop1-dsn2_0_split_1
I1118 18:32:19.490211  3106 net.cpp:408] sum-dsn2 -> sum-dsn2
I1118 18:32:19.490231  3106 net.cpp:150] Setting up sum-dsn2
I1118 18:32:19.490234  3106 net.cpp:157] Top shape: 1 1 250 250 (62500)
I1118 18:32:19.490236  3106 net.cpp:165] Memory required for data: 1146042948
I1118 18:32:19.490237  3106 layer_factory.hpp:77] Creating layer upsample2_2-dsn2
I1118 18:32:19.490244  3106 net.cpp:100] Creating Layer upsample2_2-dsn2
I1118 18:32:19.490247  3106 net.cpp:434] upsample2_2-dsn2 <- sum-dsn2
I1118 18:32:19.490252  3106 net.cpp:408] upsample2_2-dsn2 -> sum-dsn2-up
I1118 18:32:19.490566  3106 net.cpp:150] Setting up upsample2_2-dsn2
I1118 18:32:19.490574  3106 net.cpp:157] Top shape: 1 1 502 502 (252004)
I1118 18:32:19.490576  3106 net.cpp:165] Memory required for data: 1147050964
I1118 18:32:19.490581  3106 layer_factory.hpp:77] Creating layer crop2-dsn2
I1118 18:32:19.490587  3106 net.cpp:100] Creating Layer crop2-dsn2
I1118 18:32:19.490590  3106 net.cpp:434] crop2-dsn2 <- sum-dsn2-up
I1118 18:32:19.490594  3106 net.cpp:434] crop2-dsn2 <- data_augmentation_0_split_5
I1118 18:32:19.490598  3106 net.cpp:408] crop2-dsn2 -> upscore-dsn2
I1118 18:32:19.490630  3106 net.cpp:150] Setting up crop2-dsn2
I1118 18:32:19.490646  3106 net.cpp:157] Top shape: 1 1 500 500 (250000)
I1118 18:32:19.490648  3106 net.cpp:165] Memory required for data: 1148050964
I1118 18:32:19.490650  3106 layer_factory.hpp:77] Creating layer upscore-dsn2_crop2-dsn2_0_split
I1118 18:32:19.490654  3106 net.cpp:100] Creating Layer upscore-dsn2_crop2-dsn2_0_split
I1118 18:32:19.490658  3106 net.cpp:434] upscore-dsn2_crop2-dsn2_0_split <- upscore-dsn2
I1118 18:32:19.490662  3106 net.cpp:408] upscore-dsn2_crop2-dsn2_0_split -> upscore-dsn2_crop2-dsn2_0_split_0
I1118 18:32:19.490685  3106 net.cpp:408] upscore-dsn2_crop2-dsn2_0_split -> upscore-dsn2_crop2-dsn2_0_split_1
I1118 18:32:19.490692  3106 net.cpp:408] upscore-dsn2_crop2-dsn2_0_split -> upscore-dsn2_crop2-dsn2_0_split_2
I1118 18:32:19.490725  3106 net.cpp:150] Setting up upscore-dsn2_crop2-dsn2_0_split
I1118 18:32:19.490732  3106 net.cpp:157] Top shape: 1 1 500 500 (250000)
I1118 18:32:19.490736  3106 net.cpp:157] Top shape: 1 1 500 500 (250000)
I1118 18:32:19.490738  3106 net.cpp:157] Top shape: 1 1 500 500 (250000)
I1118 18:32:19.490741  3106 net.cpp:165] Memory required for data: 1151050964
I1118 18:32:19.490742  3106 layer_factory.hpp:77] Creating layer loss2-score
I1118 18:32:19.490748  3106 net.cpp:100] Creating Layer loss2-score
I1118 18:32:19.490751  3106 net.cpp:434] loss2-score <- upscore-dsn2_crop2-dsn2_0_split_0
I1118 18:32:19.490753  3106 net.cpp:434] loss2-score <- label_augmentation_1_split_4
I1118 18:32:19.490759  3106 net.cpp:408] loss2-score -> loss2-score
I1118 18:32:19.491708  3106 net.cpp:150] Setting up loss2-score
I1118 18:32:19.491716  3106 net.cpp:157] Top shape: (1)
I1118 18:32:19.491719  3106 net.cpp:160]     with loss weight 1
I1118 18:32:19.491724  3106 net.cpp:165] Memory required for data: 1151050968
I1118 18:32:19.491725  3106 layer_factory.hpp:77] Creating layer sigmoid-dsn1
I1118 18:32:19.491730  3106 net.cpp:100] Creating Layer sigmoid-dsn1
I1118 18:32:19.491734  3106 net.cpp:434] sigmoid-dsn1 <- upscore-dsn2_crop2-dsn2_0_split_1
I1118 18:32:19.491737  3106 net.cpp:408] sigmoid-dsn1 -> sigmoid-dsn1
I1118 18:32:19.492908  3106 net.cpp:150] Setting up sigmoid-dsn1
I1118 18:32:19.492918  3106 net.cpp:157] Top shape: 1 1 500 500 (250000)
I1118 18:32:19.492920  3106 net.cpp:165] Memory required for data: 1152050968
I1118 18:32:19.492923  3106 layer_factory.hpp:77] Creating layer rev-dsn1
I1118 18:32:19.492929  3106 net.cpp:100] Creating Layer rev-dsn1
I1118 18:32:19.492931  3106 net.cpp:434] rev-dsn1 <- sigmoid-dsn1
I1118 18:32:19.492938  3106 net.cpp:408] rev-dsn1 -> rev-dsn1
I1118 18:32:19.492959  3106 net.cpp:150] Setting up rev-dsn1
I1118 18:32:19.492961  3106 net.cpp:157] Top shape: 1 1 500 500 (250000)
I1118 18:32:19.492964  3106 net.cpp:165] Memory required for data: 1153050968
I1118 18:32:19.492966  3106 layer_factory.hpp:77] Creating layer tile-dsn1
I1118 18:32:19.492971  3106 net.cpp:100] Creating Layer tile-dsn1
I1118 18:32:19.492974  3106 net.cpp:434] tile-dsn1 <- rev-dsn1
I1118 18:32:19.492977  3106 net.cpp:408] tile-dsn1 -> weight-dsn1
I1118 18:32:19.493005  3106 net.cpp:150] Setting up tile-dsn1
I1118 18:32:19.493010  3106 net.cpp:157] Top shape: 1 64 500 500 (16000000)
I1118 18:32:19.493011  3106 net.cpp:165] Memory required for data: 1217050968
I1118 18:32:19.493013  3106 layer_factory.hpp:77] Creating layer prod1-dsn1
I1118 18:32:19.493018  3106 net.cpp:100] Creating Layer prod1-dsn1
I1118 18:32:19.493021  3106 net.cpp:434] prod1-dsn1 <- conv1_2_relu1_2_0_split_1
I1118 18:32:19.493023  3106 net.cpp:434] prod1-dsn1 <- weight-dsn1
I1118 18:32:19.493029  3106 net.cpp:408] prod1-dsn1 -> prod1-dsn1
I1118 18:32:19.493046  3106 net.cpp:150] Setting up prod1-dsn1
I1118 18:32:19.493050  3106 net.cpp:157] Top shape: 1 64 500 500 (16000000)
I1118 18:32:19.493052  3106 net.cpp:165] Memory required for data: 1281050968
I1118 18:32:19.493054  3106 layer_factory.hpp:77] Creating layer conv1-dsn1
I1118 18:32:19.493079  3106 net.cpp:100] Creating Layer conv1-dsn1
I1118 18:32:19.493082  3106 net.cpp:434] conv1-dsn1 <- prod1-dsn1
I1118 18:32:19.493085  3106 net.cpp:408] conv1-dsn1 -> conv1-dsn1
I1118 18:32:19.493885  3106 net.cpp:150] Setting up conv1-dsn1
I1118 18:32:19.493896  3106 net.cpp:157] Top shape: 1 64 500 500 (16000000)
I1118 18:32:19.493909  3106 net.cpp:165] Memory required for data: 1345050968
I1118 18:32:19.493916  3106 layer_factory.hpp:77] Creating layer conv2-dsn1
I1118 18:32:19.493925  3106 net.cpp:100] Creating Layer conv2-dsn1
I1118 18:32:19.493929  3106 net.cpp:434] conv2-dsn1 <- conv1-dsn1
I1118 18:32:19.493934  3106 net.cpp:408] conv2-dsn1 -> conv2-dsn1
I1118 18:32:19.495607  3106 net.cpp:150] Setting up conv2-dsn1
I1118 18:32:19.495617  3106 net.cpp:157] Top shape: 1 64 500 500 (16000000)
I1118 18:32:19.495631  3106 net.cpp:165] Memory required for data: 1409050968
I1118 18:32:19.495637  3106 layer_factory.hpp:77] Creating layer relu1-dsn1
I1118 18:32:19.495643  3106 net.cpp:100] Creating Layer relu1-dsn1
I1118 18:32:19.495646  3106 net.cpp:434] relu1-dsn1 <- conv2-dsn1
I1118 18:32:19.495651  3106 net.cpp:395] relu1-dsn1 -> conv2-dsn1 (in-place)
I1118 18:32:19.495808  3106 net.cpp:150] Setting up relu1-dsn1
I1118 18:32:19.495817  3106 net.cpp:157] Top shape: 1 64 500 500 (16000000)
I1118 18:32:19.495820  3106 net.cpp:165] Memory required for data: 1473050968
I1118 18:32:19.495822  3106 layer_factory.hpp:77] Creating layer conv3-dsn1
I1118 18:32:19.495831  3106 net.cpp:100] Creating Layer conv3-dsn1
I1118 18:32:19.495833  3106 net.cpp:434] conv3-dsn1 <- conv2-dsn1
I1118 18:32:19.495841  3106 net.cpp:408] conv3-dsn1 -> conv3-dsn1
I1118 18:32:19.496785  3106 net.cpp:150] Setting up conv3-dsn1
I1118 18:32:19.496795  3106 net.cpp:157] Top shape: 1 64 500 500 (16000000)
I1118 18:32:19.496798  3106 net.cpp:165] Memory required for data: 1537050968
I1118 18:32:19.496803  3106 layer_factory.hpp:77] Creating layer relu2-dsn1
I1118 18:32:19.496807  3106 net.cpp:100] Creating Layer relu2-dsn1
I1118 18:32:19.496809  3106 net.cpp:434] relu2-dsn1 <- conv3-dsn1
I1118 18:32:19.496815  3106 net.cpp:395] relu2-dsn1 -> conv3-dsn1 (in-place)
I1118 18:32:19.496971  3106 net.cpp:150] Setting up relu2-dsn1
I1118 18:32:19.496984  3106 net.cpp:157] Top shape: 1 64 500 500 (16000000)
I1118 18:32:19.496985  3106 net.cpp:165] Memory required for data: 1601050968
I1118 18:32:19.496989  3106 layer_factory.hpp:77] Creating layer conv4-dsn1
I1118 18:32:19.496997  3106 net.cpp:100] Creating Layer conv4-dsn1
I1118 18:32:19.497000  3106 net.cpp:434] conv4-dsn1 <- conv3-dsn1
I1118 18:32:19.497005  3106 net.cpp:408] conv4-dsn1 -> conv4-dsn1
I1118 18:32:19.499436  3106 net.cpp:150] Setting up conv4-dsn1
I1118 18:32:19.499447  3106 net.cpp:157] Top shape: 1 1 500 500 (250000)
I1118 18:32:19.499449  3106 net.cpp:165] Memory required for data: 1602050968
I1118 18:32:19.499455  3106 layer_factory.hpp:77] Creating layer sum-dsn1
I1118 18:32:19.499462  3106 net.cpp:100] Creating Layer sum-dsn1
I1118 18:32:19.499464  3106 net.cpp:434] sum-dsn1 <- conv4-dsn1
I1118 18:32:19.499469  3106 net.cpp:434] sum-dsn1 <- upscore-dsn2_crop2-dsn2_0_split_2
I1118 18:32:19.499472  3106 net.cpp:408] sum-dsn1 -> sum-dsn1
I1118 18:32:19.499507  3106 net.cpp:150] Setting up sum-dsn1
I1118 18:32:19.499512  3106 net.cpp:157] Top shape: 1 1 500 500 (250000)
I1118 18:32:19.499514  3106 net.cpp:165] Memory required for data: 1603050968
I1118 18:32:19.499517  3106 layer_factory.hpp:77] Creating layer crop2-dsn1
I1118 18:32:19.499521  3106 net.cpp:100] Creating Layer crop2-dsn1
I1118 18:32:19.499523  3106 net.cpp:434] crop2-dsn1 <- sum-dsn1
I1118 18:32:19.499527  3106 net.cpp:434] crop2-dsn1 <- data_augmentation_0_split_6
I1118 18:32:19.499532  3106 net.cpp:408] crop2-dsn1 -> upscore-dsn1
I1118 18:32:19.499549  3106 net.cpp:150] Setting up crop2-dsn1
I1118 18:32:19.499557  3106 net.cpp:157] Top shape: 1 1 500 500 (250000)
I1118 18:32:19.499558  3106 net.cpp:165] Memory required for data: 1604050968
I1118 18:32:19.499560  3106 layer_factory.hpp:77] Creating layer loss1-score
I1118 18:32:19.499567  3106 net.cpp:100] Creating Layer loss1-score
I1118 18:32:19.499569  3106 net.cpp:434] loss1-score <- upscore-dsn1
I1118 18:32:19.499572  3106 net.cpp:434] loss1-score <- label_augmentation_1_split_5
I1118 18:32:19.499577  3106 net.cpp:408] loss1-score -> loss1-score
…
I1118 18:32:19.505038  3106 net.cpp:58] Initializing net from parameters: 
name: "RAS"
state {
  phase: TEST
}
layer {
  name: "data"
  type: "ImageLabelmapData"
  top: "data"
  top: "label"
  include {
    phase: TEST
  }
  transform_param {
    mean_value: 104.00699
    mean_value: 116.66877
    mean_value: 122.67892
  }
  image_data_param {
    source: "/media/compute/homes/galberding/FleckDetect/Datasets/val.txt"
    batch_size: 1
    new_height: 500
    new_width: 500
    root_folder: "/media/compute/homes/galberding/FleckDetect/Datasets/"
    normalize: true
  }
}
layer {
  name: "conv1_1"
  type: "Convolution"
  bottom: "data"
  top: "conv1_1"
  param {
    lr_mult: 1
    decay_mult: 1
  }
  param {
    lr_mult: 2
    decay_mult: 0
  }
  convolution_param {
    num_output: 64
    pad: 1
    kernel_size: 3
    engine: CUDNN
  }
}
layer {
  name: "relu1_1"
  type: "ReLU"
  bottom: "conv1_1"
  top: "conv1_1"
}
layer {
  name: "conv1_2"
  type: "Convolution"
  bottom: "conv1_1"
  top: "conv1_2"
  param {
    lr_mult: 1
    decay_mult: 1
  }
  param {
    lr_mult: 2
    decay_mult: 0
  }
  convolution_param {
    num_output: 64
    pad: 1
    kernel_size: 3
    engine: CUDNN
  }
}
layer {
  name: "relu1_2"
  type: "ReLU"
  bottom: "conv1_2"
  top: "conv1_2"
}
layer {
  name: "pool1"
  type: "Pooling"
  bottom: "conv1_2"
  top: "pool1"
  pooling_param {
    pool: MAX
    kernel_size: 2
    stride: 2
  }
}
layer {
  name: "conv2_1"
  type: "Convolution"
  bottom: "pool1"
  top: "conv2_1"
  param {
    lr_mult: 1
    decay_mult: 1
  }
  param {
    lr_mult: 2
    decay_mult: 0
  }
  convolution_param {
    num_output: 128
    pad: 1
    kernel_size: 3
    engine: CUDNN
  }
}
layer {
  name: "relu2_1"
  type: "ReLU"
  bottom: "conv2_1"
  top: "conv2_1"
}
layer {
  name: "conv2_2"
  type: "Convolution"
  bottom: "conv2_1"
  top: "conv2_2"
  param {
    lr_mult: 1
    decay_mult: 1
  }
  param {
    lr_mult: 2
    decay_mult: 0
  }
  convolution_param {
    num_output: 128
    pad: 1
    kernel_size: 3
    engine: CUDNN
  }
}
layer {
  name: "relu2_2"
  type: "ReLU"
  bottom: "conv2_2"
  top: "conv2_2"
}
layer {
  name: "pool2"
  type: "Pooling"
  bottom: "conv2_2"
  top: "pool2"
  pooling_param {
    pool: MAX
    kernel_size: 2
    stride: 2
  }
}
layer {
  name: "conv3_1"
  type: "Convolution"
  bottom: "pool2"
  top: "conv3_1"
  param {
    lr_mult: 1
    decay_mult: 1
  }
  param {
    lr_mult: 2
    decay_mult: 0
  }
  convolution_param {
    num_output: 256
    pad: 1
    kernel_size: 3
    engine: CUDNN
  }
}
layer {
  name: "relu3_1"
  type: "ReLU"
  bottom: "conv3_1"
  top: "conv3_1"
}
layer {
  name: "conv3_2"
  type: "Convolution"
  bottom: "conv3_1"
  top: "conv3_2"
  param {
    lr_mult: 1
    decay_mult: 1
  }
  param {
    lr_mult: 2
    decay_mult: 0
  }
  convolution_param {
    num_output: 256
    pad: 1
    kernel_size: 3
    engine: CUDNN
  }
}
layer {
  name: "relu3_2"
  type: "ReLU"
  bottom: "conv3_2"
  top: "conv3_2"
}
layer {
  name: "conv3_3"
  type: "Convolution"
  bottom: "conv3_2"
  top: "conv3_3"
  param {
    lr_mult: 1
    decay_mult: 1
  }
  param {
    lr_mult: 2
    decay_mult: 0
  }
  convolution_param {
    num_output: 256
    pad: 1
    kernel_size: 3
    engine: CUDNN
  }
}
layer {
  name: "relu3_3"
  type: "ReLU"
  bottom: "conv3_3"
  top: "conv3_3"
}
layer {
  name: "pool3"
  type: "Pooling"
  bottom: "conv3_3"
  top: "pool3"
  pooling_param {
    pool: MAX
    kernel_size: 2
    stride: 2
  }
}
layer {
  name: "conv4_1"
  type: "Convolution"
  bottom: "pool3"
  top: "conv4_1"
  param {
    lr_mult: 1
    decay_mult: 1
  }
  param {
    lr_mult: 2
    decay_mult: 0
  }
  convolution_param {
    num_output: 512
    pad: 1
    kernel_size: 3
    engine: CUDNN
  }
}
layer {
  name: "relu4_1"
  type: "ReLU"
  bottom: "conv4_1"
  top: "conv4_1"
}
layer {
  name: "conv4_2"
  type: "Convolution"
  bottom: "conv4_1"
  top: "conv4_2"
  param {
    lr_mult: 1
    decay_mult: 1
  }
  param {
    lr_mult: 2
    decay_mult: 0
  }
  convolution_param {
    num_output: 512
    pad: 1
    kernel_size: 3
    engine: CUDNN
  }
}
layer {
  name: "relu4_2"
  type: "ReLU"
  bottom: "conv4_2"
  top: "conv4_2"
}
layer {
  name: "conv4_3"
  type: "Convolution"
  bottom: "conv4_2"
  top: "conv4_3"
  param {
    lr_mult: 1
    decay_mult: 1
  }
  param {
    lr_mult: 2
    decay_mult: 0
  }
  convolution_param {
    num_output: 512
    pad: 1
    kernel_size: 3
    engine: CUDNN
  }
}
layer {
  name: "relu4_3"
  type: "ReLU"
  bottom: "conv4_3"
  top: "conv4_3"
}
layer {
  name: "pool4"
  type: "Pooling"
  bottom: "conv4_3"
  top: "pool4"
  pooling_param {
    pool: MAX
    kernel_size: 3
    stride: 2
    pad: 1
  }
}
layer {
  name: "conv5_1"
  type: "Convolution"
  bottom: "pool4"
  top: "conv5_1"
  param {
    lr_mult: 1
    decay_mult: 1
  }
  param {
    lr_mult: 2
    decay_mult: 0
  }
  convolution_param {
    num_output: 512
    pad: 1
    kernel_size: 3
    engine: CUDNN
  }
}
layer {
  name: "relu5_1"
  type: "ReLU"
  bottom: "conv5_1"
  top: "conv5_1"
}
layer {
  name: "conv5_2"
  type: "Convolution"
  bottom: "conv5_1"
  top: "conv5_2"
  param {
    lr_mult: 1
    decay_mult: 1
  }
  param {
    lr_mult: 2
    decay_mult: 0
  }
  convolution_param {
    num_output: 512
    pad: 1
    kernel_size: 3
    engine: CUDNN
  }
}
layer {
  name: "relu5_2"
  type: "ReLU"
  bottom: "conv5_2"
  top: "conv5_2"
}
layer {
  name: "conv5_3"
  type: "Convolution"
  bottom: "conv5_2"
  top: "conv5_3"
  param {
    lr_mult: 1
    decay_mult: 1
  }
  param {
    lr_mult: 2
    decay_mult: 0
  }
  convolution_param {
    num_output: 512
    pad: 1
    kernel_size: 3
    engine: CUDNN
  }
}
layer {
  name: "relu5_3"
  type: "ReLU"
  bottom: "conv5_3"
  top: "conv5_3"
}
layer {
  name: "pool5"
  type: "Pooling"
  bottom: "conv5_3"
  top: "pool5"
  pooling_param {
    pool: MAX
    kernel_size: 3
    stride: 2
    pad: 1
  }
}
layer {
  name: "conv1-dsn6"
  type: "Convolution"
  bottom: "pool5"
  top: "conv1-dsn6"
  param {
    lr_mult: 1
    decay_mult: 1
  }
  param {
    lr_mult: 2
    decay_mult: 0
  }
  convolution_param {
    num_output: 256
    kernel_size: 1
    weight_filler {
      type: "gaussian"
      std: 0.01
    }
    bias_filler {
      type: "constant"
      value: 0
    }
    engine: CUDNN
  }
}
layer {
  name: "conv2-dsn6"
  type: "Convolution"
  bottom: "conv1-dsn6"
  top: "conv2-dsn6"
  param {
    lr_mult: 1
    decay_mult: 1
  }
  param {
    lr_mult: 2
    decay_mult: 0
  }
  convolution_param {
    num_output: 256
    pad: 2
    kernel_size: 5
    weight_filler {
      type: "gaussian"
      std: 0.01
    }
    bias_filler {
      type: "constant"
      value: 0
    }
    engine: CUDNN
  }
}
layer {
  name: "relu1-dsn6"
  type: "ReLU"
  bottom: "conv2-dsn6"
  top: "conv2-dsn6"
}
layer {
  name: "conv3-dsn6"
  type: "Convolution"
  bottom: "conv2-dsn6"
  top: "conv3-dsn6"
  param {
    lr_mult: 1
    decay_mult: 1
  }
  param {
    lr_mult: 2
    decay_mult: 0
  }
  convolution_param {
    num_output: 256
    pad: 2
    kernel_size: 5
    weight_filler {
      type: "gaussian"
      std: 0.01
    }
    bias_filler {
      type: "constant"
      value: 0
    }
    engine: CUDNN
  }
}
layer {
  name: "relu2-dsn6"
  type: "ReLU"
  bottom: "conv3-dsn6"
  top: "conv3-dsn6"
}
layer {
  name: "conv4-dsn6"
  type: "Convolution"
  bottom: "conv3-dsn6"
  top: "conv4-dsn6"
  param {
    lr_mult: 1
    decay_mult: 1
  }
  param {
    lr_mult: 2
    decay_mult: 0
  }
  convolution_param {
    num_output: 256
    pad: 2
    kernel_size: 5
    weight_filler {
      type: "gaussian"
      std: 0.01
    }
    bias_filler {
      type: "constant"
      value: 0
    }
    engine: CUDNN
  }
}
layer {
  name: "relu3-dsn6"
  type: "ReLU"
  bottom: "conv4-dsn6"
  top: "conv4-dsn6"
}
layer {
  name: "conv5-dsn6"
  type: "Convolution"
  bottom: "conv4-dsn6"
  top: "conv5-dsn6"
  param {
    lr_mult: 0.1
    decay_mult: 1
  }
  param {
    lr_mult: 0.2
    decay_mult: 0
  }
  convolution_param {
    num_output: 1
    kernel_size: 1
    weight_filler {
      type: "gaussian"
      std: 0.01
    }
    bias_filler {
      type: "constant"
      value: 0
    }
    engine: CUDNN
  }
}
layer {
  name: "upsample32_dsn6"
  type: "Deconvolution"
  bottom: "conv5-dsn6"
  top: "conv5-dsn6-up"
  param {
    lr_mult: 0
    decay_mult: 1
  }
  param {
    lr_mult: 0
    decay_mult: 0
  }
  convolution_param {
    num_output: 1
    kernel_size: 64
    stride: 32
  }
}
layer {
  name: "crop-dsn6"
  type: "Crop"
  bottom: "conv5-dsn6-up"
  bottom: "data"
  top: "upscore-dsn6"
}
layer {
  name: "loss6-score"
  type: "SigmoidCrossEntropyLoss"
  bottom: "upscore-dsn6"
  bottom: "label"
  top: "loss6-score"
  loss_weight: 1
}
layer {
  name: "upsample2_dsn5"
  type: "Deconvolution"
  bottom: "conv5-dsn6"
  top: "conv5-dsn6-5"
  param {
    lr_mult: 0
    decay_mult: 1
  }
  param {
    lr_mult: 0
    decay_mult: 0
  }
  convolution_param {
    num_output: 1
    kernel_size: 4
    stride: 2
  }
}
layer {
  name: "crop1-dsn5"
  type: "Crop"
  bottom: "conv5-dsn6-5"
  bottom: "conv5_3"
  top: "weight-dsn6-5"
}
layer {
  name: "sigmoid-dsn5"
  type: "Sigmoid"
  bottom: "weight-dsn6-5"
  top: "sigmoid-dsn5"
}
layer {
  name: "rev-dsn5"
  type: "Power"
  bottom: "sigmoid-dsn5"
  top: "rev-dsn5"
  power_param {
    power: 1
    scale: -1
    shift: 1
  }
}
layer {
  name: "tile-dsn5"
  type: "Tile"
  bottom: "rev-dsn5"
  top: "weight-dsn5"
  tile_param {
    tiles: 512
  }
}
layer {
  name: "prod1-dsn5"
  type: "Eltwise"
  bottom: "conv5_3"
  bottom: "weight-dsn5"
  top: "prod1-dsn5"
  eltwise_param {
    operation: PROD
  }
}
layer {
  name: "conv1-dsn5"
  type: "Convolution"
  bottom: "prod1-dsn5"
  top: "conv1-dsn5"
  param {
    lr_mult: 1
    decay_mult: 1
  }
  param {
    lr_mult: 2
    decay_mult: 0
  }
  convolution_param {
    num_output: 64
    kernel_size: 1
    weight_filler {
      type: "gaussian"
      std: 0.01
    }
    bias_filler {
      type: "constant"
      value: 0
    }
    engine: CUDNN
  }
}
layer {
  name: "conv2-dsn5"
  type: "Convolution"
  bottom: "conv1-dsn5"
  top: "conv2-dsn5"
  param {
    lr_mult: 1
    decay_mult: 1
  }
  param {
    lr_mult: 2
    decay_mult: 0
  }
  convolution_param {
    num_output: 64
    pad: 1
    kernel_size: 3
    weight_filler {
      type: "gaussian"
      std: 0.01
    }
    bias_filler {
      type: "constant"
      value: 0
    }
    engine: CUDNN
  }
}
layer {
  name: "relu1-dsn5"
  type: "ReLU"
  bottom: "conv2-dsn5"
  top: "conv2-dsn5"
}
layer {
  name: "conv3-dsn5"
  type: "Convolution"
  bottom: "conv2-dsn5"
  top: "conv3-dsn5"
  param {
    lr_mult: 1
    decay_mult: 1
  }
  param {
    lr_mult: 2
    decay_mult: 0
  }
  convolution_param {
    num_output: 64
    pad: 1
    kernel_size: 3
    weight_filler {
      type: "gaussian"
      std: 0.01
    }
    bias_filler {
      type: "constant"
      value: 0
    }
    engine: CUDNN
  }
}
layer {
  name: "relu2-dsn5"
  type: "ReLU"
  bottom: "conv3-dsn5"
  top: "conv3-dsn5"
}
layer {
  name: "conv4-dsn5"
  type: "Convolution"
  bottom: "conv3-dsn5"
  top: "conv4-dsn5"
  param {
    lr_mult: 1
    decay_mult: 1
  }
  param {
    lr_mult: 2
    decay_mult: 0
  }
  convolution_param {
    num_output: 1
    pad: 1
    kernel_size: 3
    weight_filler {
      type: "gaussian"
      std: 0.01
    }
    bias_filler {
      type: "constant"
      value: 0
    }
    engine: CUDNN
  }
}
layer {
  name: "sum-dsn5"
  type: "Eltwise"
  bottom: "conv4-dsn5"
  bottom: "weight-dsn6-5"
  top: "sum-dsn5"
  eltwise_param {
    operation: SUM
  }
}
layer {
  name: "upsample16_dsn5"
  type: "Deconvolution"
  bottom: "sum-dsn5"
  top: "sum-dsn5-up"
  param {
    lr_mult: 0
    decay_mult: 1
  }
  param {
    lr_mult: 0
    decay_mult: 0
  }
  convolution_param {
    num_output: 1
    kernel_size: 32
    stride: 16
  }
}
layer {
  name: "crop2-dsn5"
  type: "Crop"
  bottom: "sum-dsn5-up"
  bottom: "data"
  top: "upscore-dsn5"
}
layer {
  name: "loss5-score"
  type: "SigmoidCrossEntropyLoss"
  bottom: "upscore-dsn5"
  bottom: "label"
  top: "loss5-score"
  loss_weight: 1
}
layer {
  name: "upsample2_dsn4"
  type: "Deconvolution"
  bottom: "sum-dsn5"
  top: "sum-dsn5-4"
  param {
    lr_mult: 0
    decay_mult: 1
  }
  param {
    lr_mult: 0
    decay_mult: 0
  }
  convolution_param {
    num_output: 1
    kernel_size: 4
    stride: 2
  }
}
layer {
  name: "crop1-dsn4"
  type: "Crop"
  bottom: "sum-dsn5-4"
  bottom: "conv4_3"
  top: "weight-dsn5-4"
}
layer {
  name: "sigmoid-dsn4"
  type: "Sigmoid"
  bottom: "weight-dsn5-4"
  top: "sigmoid-dsn4"
}
layer {
  name: "rev-dsn4"
  type: "Power"
  bottom: "sigmoid-dsn4"
  top: "rev-dsn4"
  power_param {
    power: 1
    scale: -1
    shift: 1
  }
}
layer {
  name: "tile-dsn4"
  type: "Tile"
  bottom: "rev-dsn4"
  top: "weight-dsn4"
  tile_param {
    tiles: 512
  }
}
layer {
  name: "prod1-dsn4"
  type: "Eltwise"
  bottom: "conv4_3"
  bottom: "weight-dsn4"
  top: "prod1-dsn4"
  eltwise_param {
    operation: PROD
  }
}
layer {
  name: "conv1-dsn4"
  type: "Convolution"
  bottom: "prod1-dsn4"
  top: "conv1-dsn4"
  param {
    lr_mult: 1
    decay_mult: 1
  }
  param {
    lr_mult: 2
    decay_mult: 0
  }
  convolution_param {
    num_output: 64
    kernel_size: 1
    weight_filler {
      type: "gaussian"
      std: 0.01
    }
    bias_filler {
      type: "constant"
      value: 0
    }
    engine: CUDNN
  }
}
layer {
  name: "conv2-dsn4"
  type: "Convolution"
  bottom: "conv1-dsn4"
  top: "conv2-dsn4"
  param {
    lr_mult: 1
    decay_mult: 1
  }
  param {
    lr_mult: 2
    decay_mult: 0
  }
  convolution_param {
    num_output: 64
    pad: 1
    kernel_size: 3
    weight_filler {
      type: "gaussian"
      std: 0.01
    }
    bias_filler {
      type: "constant"
      value: 0
    }
    engine: CUDNN
  }
}
layer {
  name: "relu1-dsn4"
  type: "ReLU"
  bottom: "conv2-dsn4"
  top: "conv2-dsn4"
}
layer {
  name: "conv3-dsn4"
  type: "Convolution"
  bottom: "conv2-dsn4"
  top: "conv3-dsn4"
  param {
    lr_mult: 1
    decay_mult: 1
  }
  param {
    lr_mult: 2
    decay_mult: 0
  }
  convolution_param {
    num_output: 64
    pad: 1
    kernel_size: 3
    weight_filler {
      type: "gaussian"
      std: 0.01
    }
    bias_filler {
      type: "constant"
      value: 0
    }
    engine: CUDNN
  }
}
layer {
  name: "relu2-dsn4"
  type: "ReLU"
  bottom: "conv3-dsn4"
  top: "conv3-dsn4"
}
layer {
  name: "conv4-dsn4"
  type: "Convolution"
  bottom: "conv3-dsn4"
  top: "conv4-dsn4"
  param {
    lr_mult: 1
    decay_mult: 1
  }
  param {
    lr_mult: 2
    decay_mult: 0
  }
  convolution_param {
    num_output: 1
    pad: 1
    kernel_size: 3
    weight_filler {
      type: "gaussian"
      std: 0.01
    }
    bias_filler {
      type: "constant"
      value: 0
    }
    engine: CUDNN
  }
}
layer {
  name: "sum-dsn4"
  type: "Eltwise"
  bottom: "conv4-dsn4"
  bottom: "weight-dsn5-4"
  top: "sum-dsn4"
  eltwise_param {
    operation: SUM
  }
}
layer {
  name: "upsample8_dsn4"
  type: "Deconvolution"
  bottom: "sum-dsn4"
  top: "sum-dsn4-up"
  param {
    lr_mult: 0
    decay_mult: 1
  }
  param {
    lr_mult: 0
    decay_mult: 0
  }
  convolution_param {
    num_output: 1
    kernel_size: 16
    stride: 8
  }
}
layer {
  name: "crop2-dsn4"
  type: "Crop"
  bottom: "sum-dsn4-up"
  bottom: "data"
  top: "upscore-dsn4"
}
layer {
  name: "loss4-score"
  type: "SigmoidCrossEntropyLoss"
  bottom: "upscore-dsn4"
  bottom: "label"
  top: "loss4-score"
  loss_weight: 1
}
layer {
  name: "upsample2_dsn3"
  type: "Deconvolution"
  bottom: "sum-dsn4"
  top: "sum-dsn4-3"
  param {
    lr_mult: 0
    decay_mult: 1
  }
  param {
    lr_mult: 0
    decay_mult: 0
  }
  convolution_param {
    num_output: 1
    kernel_size: 4
    stride: 2
  }
}
layer {
  name: "crop1-dsn3"
  type: "Crop"
  bottom: "sum-dsn4-3"
  bottom: "conv3_3"
  top: "weight-dsn4-3"
}
layer {
  name: "sigmoid-dsn3"
  type: "Sigmoid"
  bottom: "weight-dsn4-3"
  top: "sigmoid-dsn3"
}
layer {
  name: "rev-dsn3"
  type: "Power"
  bottom: "sigmoid-dsn3"
  top: "rev-dsn3"
  power_param {
    power: 1
    scale: -1
    shift: 1
  }
}
layer {
  name: "tile-dsn3"
  type: "Tile"
  bottom: "rev-dsn3"
  top: "weight-dsn3"
  tile_param {
    tiles: 256
  }
}
layer {
  name: "prod1-dsn3"
  type: "Eltwise"
  bottom: "conv3_3"
  bottom: "weight-dsn3"
  top: "prod1-dsn3"
  eltwise_param {
    operation: PROD
  }
}
layer {
  name: "conv1-dsn3"
  type: "Convolution"
  bottom: "prod1-dsn3"
  top: "conv1-dsn3"
  param {
    lr_mult: 1
    decay_mult: 1
  }
  param {
    lr_mult: 2
    decay_mult: 0
  }
  convolution_param {
    num_output: 64
    kernel_size: 1
    weight_filler {
      type: "gaussian"
      std: 0.01
    }
    bias_filler {
      type: "constant"
      value: 0
    }
    engine: CUDNN
  }
}
layer {
  name: "conv2-dsn3"
  type: "Convolution"
  bottom: "conv1-dsn3"
  top: "conv2-dsn3"
  param {
    lr_mult: 1
    decay_mult: 1
  }
  param {
    lr_mult: 2
    decay_mult: 0
  }
  convolution_param {
    num_output: 64
    pad: 1
    kernel_size: 3
    weight_filler {
      type: "gaussian"
      std: 0.01
    }
    bias_filler {
      type: "constant"
      value: 0
    }
    engine: CUDNN
  }
}
layer {
  name: "relu1-dsn3"
  type: "ReLU"
  bottom: "conv2-dsn3"
  top: "conv2-dsn3"
}
layer {
  name: "conv3-dsn3"
  type: "Convolution"
  bottom: "conv2-dsn3"
  top: "conv3-dsn3"
  param {
    lr_mult: 1
    decay_mult: 1
  }
  param {
    lr_mult: 2
    decay_mult: 0
  }
  convolution_param {
    num_output: 64
    pad: 1
    kernel_size: 3
    weight_filler {
      type: "gaussian"
      std: 0.01
    }
    bias_filler {
      type: "constant"
      value: 0
    }
    engine: CUDNN
  }
}
layer {
  name: "relu2-dsn3"
  type: "ReLU"
  bottom: "conv3-dsn3"
  top: "conv3-dsn3"
}
layer {
  name: "conv4-dsn3"
  type: "Convolution"
  bottom: "conv3-dsn3"
  top: "conv4-dsn3"
  param {
    lr_mult: 1
    decay_mult: 1
  }
  param {
    lr_mult: 2
    decay_mult: 0
  }
  convolution_param {
    num_output: 1
    pad: 1
    kernel_size: 3
    weight_filler {
      type: "gaussian"
      std: 0.01
    }
    bias_filler {
      type: "constant"
      value: 0
    }
    engine: CUDNN
  }
}
layer {
  name: "sum-dsn3"
  type: "Eltwise"
  bottom: "conv4-dsn3"
  bottom: "weight-dsn4-3"
  top: "sum-dsn3"
  eltwise_param {
    operation: SUM
  }
}
layer {
  name: "upsample4_dsn3"
  type: "Deconvolution"
  bottom: "sum-dsn3"
  top: "sum-dsn3-up"
  param {
    lr_mult: 0
    decay_mult: 1
  }
  param {
    lr_mult: 0
    decay_mult: 0
  }
  convolution_param {
    num_output: 1
    kernel_size: 8
    stride: 4
  }
}
layer {
  name: "crop2-dsn3"
  type: "Crop"
  bottom: "sum-dsn3-up"
  bottom: "data"
  top: "upscore-dsn3"
}
layer {
  name: "loss3-score"
  type: "SigmoidCrossEntropyLoss"
  bottom: "upscore-dsn3"
  bottom: "label"
  top: "loss3-score"
  loss_weight: 1
}
layer {
  name: "upsample2_1-dsn2"
  type: "Deconvolution"
  bottom: "sum-dsn3"
  top: "sum-dsn3-2"
  param {
    lr_mult: 0
    decay_mult: 1
  }
  param {
    lr_mult: 0
    decay_mult: 0
  }
  convolution_param {
    num_output: 1
    kernel_size: 4
    stride: 2
  }
}
layer {
  name: "crop1-dsn2"
  type: "Crop"
  bottom: "sum-dsn3-2"
  bottom: "conv2_2"
  top: "weight-dsn3-2"
}
layer {
  name: "sigmoid-dsn2"
  type: "Sigmoid"
  bottom: "weight-dsn3-2"
  top: "sigmoid-dsn2"
}
layer {
  name: "rev-dsn2"
  type: "Power"
  bottom: "sigmoid-dsn2"
  top: "rev-dsn2"
  power_param {
    power: 1
    scale: -1
    shift: 1
  }
}
layer {
  name: "tile-dsn2"
  type: "Tile"
  bottom: "rev-dsn2"
  top: "weight-dsn2"
  tile_param {
    tiles: 128
  }
}
layer {
  name: "prod1-dsn2"
  type: "Eltwise"
  bottom: "conv2_2"
  bottom: "weight-dsn2"
  top: "prod1-dsn2"
  eltwise_param {
    operation: PROD
  }
}
layer {
  name: "conv1-dsn2"
  type: "Convolution"
  bottom: "prod1-dsn2"
  top: "conv1-dsn2"
  param {
    lr_mult: 1
    decay_mult: 1
  }
  param {
    lr_mult: 2
    decay_mult: 0
  }
  convolution_param {
    num_output: 64
    kernel_size: 1
    weight_filler {
      type: "gaussian"
      std: 0.01
    }
    bias_filler {
      type: "constant"
      value: 0
    }
    engine: CUDNN
  }
}
layer {
  name: "conv2-dsn2"
  type: "Convolution"
  bottom: "conv1-dsn2"
  top: "conv2-dsn2"
  param {
    lr_mult: 1
    decay_mult: 1
  }
  param {
    lr_mult: 2
    decay_mult: 0
  }
  convolution_param {
    num_output: 64
    pad: 1
    kernel_size: 3
    weight_filler {
      type: "gaussian"
      std: 0.01
    }
    bias_filler {
      type: "constant"
      value: 0
    }
    engine: CUDNN
  }
}
layer {
  name: "relu1-dsn2"
  type: "ReLU"
  bottom: "conv2-dsn2"
  top: "conv2-dsn2"
}
layer {
  name: "conv3-dsn2"
  type: "Convolution"
  bottom: "conv2-dsn2"
  top: "conv3-dsn2"
  param {
    lr_mult: 1
    decay_mult: 1
  }
  param {
    lr_mult: 2
    decay_mult: 0
  }
  convolution_param {
    num_output: 64
    pad: 1
    kernel_size: 3
    weight_filler {
      type: "gaussian"
      std: 0.01
    }
    bias_filler {
      type: "constant"
      value: 0
    }
    engine: CUDNN
  }
}
layer {
  name: "relu2-dsn2"
  type: "ReLU"
  bottom: "conv3-dsn2"
  top: "conv3-dsn2"
}
layer {
  name: "conv4-dsn2"
  type: "Convolution"
  bottom: "conv3-dsn2"
  top: "conv4-dsn2"
  param {
    lr_mult: 1
    decay_mult: 1
  }
  param {
    lr_mult: 2
    decay_mult: 0
  }
  convolution_param {
    num_output: 1
    pad: 1
    kernel_size: 3
    weight_filler {
      type: "gaussian"
      std: 0.01
    }
    bias_filler {
      type: "constant"
      value: 0
    }
    engine: CUDNN
  }
}
layer {
  name: "sum-dsn2"
  type: "Eltwise"
  bottom: "conv4-dsn2"
  bottom: "weight-dsn3-2"
  top: "sum-dsn2"
  eltwise_param {
    operation: SUM
  }
}
layer {
  name: "upsample2_2-dsn2"
  type: "Deconvolution"
  bottom: "sum-dsn2"
  top: "sum-dsn2-up"
  param {
    lr_mult: 0
    decay_mult: 1
  }
  param {
    lr_mult: 0
    decay_mult: 0
  }
  convolution_param {
    num_output: 1
    kernel_size: 4
    stride: 2
  }
}
layer {
  name: "crop2-dsn2"
  type: "Crop"
  bottom: "sum-dsn2-up"
  bottom: "data"
  top: "upscore-dsn2"
}
layer {
  name: "loss2-score"
  type: "SigmoidCrossEntropyLoss"
  bottom: "upscore-dsn2"
  bottom: "label"
  top: "loss2-score"
  loss_weight: 1
}
layer {
  name: "sigmoid-dsn1"
  type: "Sigmoid"
  bottom: "upscore-dsn2"
  top: "sigmoid-dsn1"
}
layer {
  name: "rev-dsn1"
  type: "Power"
  bottom: "sigmoid-dsn1"
  top: "rev-dsn1"
  power_param {
    power: 1
    scale: -1
    shift: 1
  }
}
layer {
  name: "tile-dsn1"
  type: "Tile"
  bottom: "rev-dsn1"
  top: "weight-dsn1"
  tile_param {
    tiles: 64
  }
}
layer {
  name: "prod1-dsn1"
  type: "Eltwise"
  bottom: "conv1_2"
  bottom: "weight-dsn1"
  top: "prod1-dsn1"
  eltwise_param {
    operation: PROD
  }
}
layer {
  name: "conv1-dsn1"
  type: "Convolution"
  bottom: "prod1-dsn1"
  top: "conv1-dsn1"
  param {
    lr_mult: 1
    decay_mult: 1
  }
  param {
    lr_mult: 2
    decay_mult: 0
  }
  convolution_param {
    num_output: 64
    kernel_size: 1
    weight_filler {
      type: "gaussian"
      std: 0.01
    }
    bias_filler {
      type: "constant"
      value: 0
    }
    engine: CUDNN
  }
}
layer {
  name: "conv2-dsn1"
  type: "Convolution"
  bottom: "conv1-dsn1"
  top: "conv2-dsn1"
  param {
    lr_mult: 1
    decay_mult: 1
  }
  param {
    lr_mult: 2
    decay_mult: 0
  }
  convolution_param {
    num_output: 64
    pad: 1
    kernel_size: 3
    weight_filler {
      type: "gaussian"
      std: 0.01
    }
    bias_filler {
      type: "constant"
      value: 0
    }
    engine: CUDNN
  }
}
layer {
  name: "relu1-dsn1"
  type: "ReLU"
  bottom: "conv2-dsn1"
  top: "conv2-dsn1"
}
layer {
  name: "conv3-dsn1"
  type: "Convolution"
  bottom: "conv2-dsn1"
  top: "conv3-dsn1"
  param {
    lr_mult: 1
    decay_mult: 1
  }
  param {
    lr_mult: 2
    decay_mult: 0
  }
  convolution_param {
    num_output: 64
    pad: 1
    kernel_size: 3
    weight_filler {
      type: "gaussian"
      std: 0.01
    }
    bias_filler {
      type: "constant"
      value: 0
    }
    engine: CUDNN
  }
}
layer {
  name: "relu2-dsn1"
  type: "ReLU"
  bottom: "conv3-dsn1"
  top: "conv3-dsn1"
}
layer {
  name: "conv4-dsn1"
  type: "Convolution"
  bottom: "conv3-dsn1"
  top: "conv4-dsn1"
  param {
    lr_mult: 1
    decay_mult: 1
  }
  param {
    lr_mult: 2
    decay_mult: 0
  }
  convolution_param {
    num_output: 1
    pad: 1
    kernel_size: 3
    weight_filler {
      type: "gaussian"
      std: 0.01
    }
    bias_filler {
      type: "constant"
      value: 0
    }
    engine: CUDNN
  }
}
layer {
  name: "sum-dsn1"
  type: "Eltwise"
  bottom: "conv4-dsn1"
  bottom: "upscore-dsn2"
  top: "sum-dsn1"
  eltwise_param {
    operation: SUM
  }
}
layer {
  name: "crop2-dsn1"
  type: "Crop"
  bottom: "sum-dsn1"
  bottom: "data"
  top: "upscore-dsn1"
}
layer {
  name: "loss1-score"
  type: "SigmoidCrossEntropyLoss"
  bottom: "upscore-dsn1"
  bottom: "label"
  top: "loss1-score"
  loss_weight: 1
}
I1118 18:32:19.505406  3106 layer_factory.hpp:77] Creating layer data
I1118 18:32:19.505420  3106 net.cpp:100] Creating Layer data
I1118 18:32:19.505424  3106 net.cpp:408] data -> data
I1118 18:32:19.505431  3106 net.cpp:408] data -> label
I1118 18:32:19.505439  3106 image_labelmap_data_layer.cpp:41] Opening file /media/compute/homes/galberding/FleckDetect/Datasets/val.txt
I1118 18:32:19.511729  3106 image_labelmap_data_layer.cpp:56] A total of 1200 images.
I1118 18:32:19.593369  3106 image_labelmap_data_layer.cpp:110] output data size: 1,3,500,500
I1118 18:32:19.593384  3106 image_labelmap_data_layer.cpp:113] output label size: 1,1,500,500
I1118 18:32:19.602859  3106 net.cpp:150] Setting up data
I1118 18:32:19.602890  3106 net.cpp:157] Top shape: 1 3 500 500 (750000)
I1118 18:32:19.602893  3106 net.cpp:157] Top shape: 1 1 500 500 (250000)
I1118 18:32:19.602895  3106 net.cpp:165] Memory required for data: 4000000
I1118 18:32:19.602900  3106 layer_factory.hpp:77] Creating layer data_data_0_split
I1118 18:32:19.602907  3106 net.cpp:100] Creating Layer data_data_0_split
I1118 18:32:19.602910  3106 net.cpp:434] data_data_0_split <- data
I1118 18:32:19.602916  3106 net.cpp:408] data_data_0_split -> data_data_0_split_0
I1118 18:32:19.602924  3106 net.cpp:408] data_data_0_split -> data_data_0_split_1
I1118 18:32:19.602929  3106 net.cpp:408] data_data_0_split -> data_data_0_split_2
I1118 18:32:19.602936  3106 net.cpp:408] data_data_0_split -> data_data_0_split_3
I1118 18:32:19.602939  3106 net.cpp:408] data_data_0_split -> data_data_0_split_4
I1118 18:32:19.602944  3106 net.cpp:408] data_data_0_split -> data_data_0_split_5
I1118 18:32:19.602947  3106 net.cpp:408] data_data_0_split -> data_data_0_split_6
I1118 18:32:19.603060  3106 net.cpp:150] Setting up data_data_0_split
I1118 18:32:19.603067  3106 net.cpp:157] Top shape: 1 3 500 500 (750000)
I1118 18:32:19.603072  3106 net.cpp:157] Top shape: 1 3 500 500 (750000)
I1118 18:32:19.603075  3106 net.cpp:157] Top shape: 1 3 500 500 (750000)
I1118 18:32:19.603078  3106 net.cpp:157] Top shape: 1 3 500 500 (750000)
I1118 18:32:19.603081  3106 net.cpp:157] Top shape: 1 3 500 500 (750000)
I1118 18:32:19.603085  3106 net.cpp:157] Top shape: 1 3 500 500 (750000)
I1118 18:32:19.603087  3106 net.cpp:157] Top shape: 1 3 500 500 (750000)
I1118 18:32:19.603090  3106 net.cpp:165] Memory required for data: 25000000
I1118 18:32:19.603091  3106 layer_factory.hpp:77] Creating layer label_data_1_split
I1118 18:32:19.603097  3106 net.cpp:100] Creating Layer label_data_1_split
I1118 18:32:19.603101  3106 net.cpp:434] label_data_1_split <- label
I1118 18:32:19.603104  3106 net.cpp:408] label_data_1_split -> label_data_1_split_0
I1118 18:32:19.603109  3106 net.cpp:408] label_data_1_split -> label_data_1_split_1
I1118 18:32:19.603113  3106 net.cpp:408] label_data_1_split -> label_data_1_split_2
I1118 18:32:19.603117  3106 net.cpp:408] label_data_1_split -> label_data_1_split_3
I1118 18:32:19.603122  3106 net.cpp:408] label_data_1_split -> label_data_1_split_4
I1118 18:32:19.603127  3106 net.cpp:408] label_data_1_split -> label_data_1_split_5
I1118 18:32:19.603211  3106 net.cpp:150] Setting up label_data_1_split
I1118 18:32:19.603217  3106 net.cpp:157] Top shape: 1 1 500 500 (250000)
I1118 18:32:19.603220  3106 net.cpp:157] Top shape: 1 1 500 500 (250000)
I1118 18:32:19.603224  3106 net.cpp:157] Top shape: 1 1 500 500 (250000)
I1118 18:32:19.603226  3106 net.cpp:157] Top shape: 1 1 500 500 (250000)
I1118 18:32:19.603229  3106 net.cpp:157] Top shape: 1 1 500 500 (250000)
I1118 18:32:19.603231  3106 net.cpp:157] Top shape: 1 1 500 500 (250000)
I1118 18:32:19.603233  3106 net.cpp:165] Memory required for data: 31000000
I1118 18:32:19.603235  3106 layer_factory.hpp:77] Creating layer conv1_1
I1118 18:32:19.603242  3106 net.cpp:100] Creating Layer conv1_1
I1118 18:32:19.603245  3106 net.cpp:434] conv1_1 <- data_data_0_split_0
I1118 18:32:19.603250  3106 net.cpp:408] conv1_1 -> conv1_1
I1118 18:32:19.604352  3106 net.cpp:150] Setting up conv1_1
I1118 18:32:19.604364  3106 net.cpp:157] Top shape: 1 64 500 500 (16000000)
I1118 18:32:19.604383  3106 net.cpp:165] Memory required for data: 95000000
I1118 18:32:19.604393  3106 layer_factory.hpp:77] Creating layer relu1_1
I1118 18:32:19.604400  3106 net.cpp:100] Creating Layer relu1_1
I1118 18:32:19.604403  3106 net.cpp:434] relu1_1 <- conv1_1
I1118 18:32:19.604408  3106 net.cpp:395] relu1_1 -> conv1_1 (in-place)
I1118 18:32:19.604595  3106 net.cpp:150] Setting up relu1_1
I1118 18:32:19.604606  3106 net.cpp:157] Top shape: 1 64 500 500 (16000000)
I1118 18:32:19.604609  3106 net.cpp:165] Memory required for data: 159000000
I1118 18:32:19.604611  3106 layer_factory.hpp:77] Creating layer conv1_2
I1118 18:32:19.604619  3106 net.cpp:100] Creating Layer conv1_2
I1118 18:32:19.604621  3106 net.cpp:434] conv1_2 <- conv1_1
I1118 18:32:19.604625  3106 net.cpp:408] conv1_2 -> conv1_2
I1118 18:32:19.606494  3106 net.cpp:150] Setting up conv1_2
I1118 18:32:19.606508  3106 net.cpp:157] Top shape: 1 64 500 500 (16000000)
I1118 18:32:19.606511  3106 net.cpp:165] Memory required for data: 223000000
I1118 18:32:19.606519  3106 layer_factory.hpp:77] Creating layer relu1_2
I1118 18:32:19.606525  3106 net.cpp:100] Creating Layer relu1_2
I1118 18:32:19.606528  3106 net.cpp:434] relu1_2 <- conv1_2
I1118 18:32:19.606532  3106 net.cpp:395] relu1_2 -> conv1_2 (in-place)
I1118 18:32:19.606623  3106 net.cpp:150] Setting up relu1_2
I1118 18:32:19.606631  3106 net.cpp:157] Top shape: 1 64 500 500 (16000000)
I1118 18:32:19.606633  3106 net.cpp:165] Memory required for data: 287000000
I1118 18:32:19.606637  3106 layer_factory.hpp:77] Creating layer conv1_2_relu1_2_0_split
I1118 18:32:19.606642  3106 net.cpp:100] Creating Layer conv1_2_relu1_2_0_split
I1118 18:32:19.606645  3106 net.cpp:434] conv1_2_relu1_2_0_split <- conv1_2
I1118 18:32:19.606650  3106 net.cpp:408] conv1_2_relu1_2_0_split -> conv1_2_relu1_2_0_split_0
I1118 18:32:19.606657  3106 net.cpp:408] conv1_2_relu1_2_0_split -> conv1_2_relu1_2_0_split_1
I1118 18:32:19.606693  3106 net.cpp:150] Setting up conv1_2_relu1_2_0_split
I1118 18:32:19.606698  3106 net.cpp:157] Top shape: 1 64 500 500 (16000000)
I1118 18:32:19.606700  3106 net.cpp:157] Top shape: 1 64 500 500 (16000000)
I1118 18:32:19.606703  3106 net.cpp:165] Memory required for data: 415000000
I1118 18:32:19.606705  3106 layer_factory.hpp:77] Creating layer pool1
I1118 18:32:19.606712  3106 net.cpp:100] Creating Layer pool1
I1118 18:32:19.606714  3106 net.cpp:434] pool1 <- conv1_2_relu1_2_0_split_0
I1118 18:32:19.606719  3106 net.cpp:408] pool1 -> pool1
I1118 18:32:19.606750  3106 net.cpp:150] Setting up pool1
I1118 18:32:19.606755  3106 net.cpp:157] Top shape: 1 64 250 250 (4000000)
I1118 18:32:19.606757  3106 net.cpp:165] Memory required for data: 431000000
I1118 18:32:19.606760  3106 layer_factory.hpp:77] Creating layer conv2_1
I1118 18:32:19.606766  3106 net.cpp:100] Creating Layer conv2_1
I1118 18:32:19.606770  3106 net.cpp:434] conv2_1 <- pool1
I1118 18:32:19.606775  3106 net.cpp:408] conv2_1 -> conv2_1
I1118 18:32:19.607544  3106 net.cpp:150] Setting up conv2_1
I1118 18:32:19.607573  3106 net.cpp:157] Top shape: 1 128 250 250 (8000000)
I1118 18:32:19.607574  3106 net.cpp:165] Memory required for data: 463000000
I1118 18:32:19.607583  3106 layer_factory.hpp:77] Creating layer relu2_1
I1118 18:32:19.607589  3106 net.cpp:100] Creating Layer relu2_1
I1118 18:32:19.607592  3106 net.cpp:434] relu2_1 <- conv2_1
I1118 18:32:19.607597  3106 net.cpp:395] relu2_1 -> conv2_1 (in-place)
I1118 18:32:19.607687  3106 net.cpp:150] Setting up relu2_1
I1118 18:32:19.607695  3106 net.cpp:157] Top shape: 1 128 250 250 (8000000)
I1118 18:32:19.607697  3106 net.cpp:165] Memory required for data: 495000000
I1118 18:32:19.607702  3106 layer_factory.hpp:77] Creating layer conv2_2
I1118 18:32:19.607708  3106 net.cpp:100] Creating Layer conv2_2
I1118 18:32:19.607712  3106 net.cpp:434] conv2_2 <- conv2_1
I1118 18:32:19.607717  3106 net.cpp:408] conv2_2 -> conv2_2
I1118 18:32:19.610745  3106 net.cpp:150] Setting up conv2_2
I1118 18:32:19.610759  3106 net.cpp:157] Top shape: 1 128 250 250 (8000000)
I1118 18:32:19.610779  3106 net.cpp:165] Memory required for data: 527000000
I1118 18:32:19.610785  3106 layer_factory.hpp:77] Creating layer relu2_2
I1118 18:32:19.610790  3106 net.cpp:100] Creating Layer relu2_2
I1118 18:32:19.610793  3106 net.cpp:434] relu2_2 <- conv2_2
I1118 18:32:19.610798  3106 net.cpp:395] relu2_2 -> conv2_2 (in-place)
I1118 18:32:19.610870  3106 net.cpp:150] Setting up relu2_2
I1118 18:32:19.610878  3106 net.cpp:157] Top shape: 1 128 250 250 (8000000)
I1118 18:32:19.610880  3106 net.cpp:165] Memory required for data: 559000000
I1118 18:32:19.610884  3106 layer_factory.hpp:77] Creating layer conv2_2_relu2_2_0_split
I1118 18:32:19.610889  3106 net.cpp:100] Creating Layer conv2_2_relu2_2_0_split
I1118 18:32:19.610893  3106 net.cpp:434] conv2_2_relu2_2_0_split <- conv2_2
I1118 18:32:19.610898  3106 net.cpp:408] conv2_2_relu2_2_0_split -> conv2_2_relu2_2_0_split_0
I1118 18:32:19.610903  3106 net.cpp:408] conv2_2_relu2_2_0_split -> conv2_2_relu2_2_0_split_1
I1118 18:32:19.610909  3106 net.cpp:408] conv2_2_relu2_2_0_split -> conv2_2_relu2_2_0_split_2
I1118 18:32:19.610954  3106 net.cpp:150] Setting up conv2_2_relu2_2_0_split
I1118 18:32:19.610960  3106 net.cpp:157] Top shape: 1 128 250 250 (8000000)
I1118 18:32:19.610963  3106 net.cpp:157] Top shape: 1 128 250 250 (8000000)
I1118 18:32:19.610966  3106 net.cpp:157] Top shape: 1 128 250 250 (8000000)
I1118 18:32:19.610968  3106 net.cpp:165] Memory required for data: 655000000
I1118 18:32:19.610970  3106 layer_factory.hpp:77] Creating layer pool2
I1118 18:32:19.610975  3106 net.cpp:100] Creating Layer pool2
I1118 18:32:19.610978  3106 net.cpp:434] pool2 <- conv2_2_relu2_2_0_split_0
I1118 18:32:19.610982  3106 net.cpp:408] pool2 -> pool2
I1118 18:32:19.611011  3106 net.cpp:150] Setting up pool2
I1118 18:32:19.611017  3106 net.cpp:157] Top shape: 1 128 125 125 (2000000)
I1118 18:32:19.611019  3106 net.cpp:165] Memory required for data: 663000000
I1118 18:32:19.611021  3106 layer_factory.hpp:77] Creating layer conv3_1
I1118 18:32:19.611028  3106 net.cpp:100] Creating Layer conv3_1
I1118 18:32:19.611032  3106 net.cpp:434] conv3_1 <- pool2
I1118 18:32:19.611037  3106 net.cpp:408] conv3_1 -> conv3_1
I1118 18:32:19.611910  3106 net.cpp:150] Setting up conv3_1
I1118 18:32:19.611938  3106 net.cpp:157] Top shape: 1 256 125 125 (4000000)
I1118 18:32:19.611940  3106 net.cpp:165] Memory required for data: 679000000
I1118 18:32:19.611950  3106 layer_factory.hpp:77] Creating layer relu3_1
I1118 18:32:19.611958  3106 net.cpp:100] Creating Layer relu3_1
I1118 18:32:19.611961  3106 net.cpp:434] relu3_1 <- conv3_1
I1118 18:32:19.611966  3106 net.cpp:395] relu3_1 -> conv3_1 (in-place)
I1118 18:32:19.612154  3106 net.cpp:150] Setting up relu3_1
I1118 18:32:19.612165  3106 net.cpp:157] Top shape: 1 256 125 125 (4000000)
I1118 18:32:19.612167  3106 net.cpp:165] Memory required for data: 695000000
I1118 18:32:19.612170  3106 layer_factory.hpp:77] Creating layer conv3_2
I1118 18:32:19.612179  3106 net.cpp:100] Creating Layer conv3_2
I1118 18:32:19.612181  3106 net.cpp:434] conv3_2 <- conv3_1
I1118 18:32:19.612188  3106 net.cpp:408] conv3_2 -> conv3_2
I1118 18:32:19.614135  3106 net.cpp:150] Setting up conv3_2
I1118 18:32:19.614162  3106 net.cpp:157] Top shape: 1 256 125 125 (4000000)
I1118 18:32:19.614166  3106 net.cpp:165] Memory required for data: 711000000
I1118 18:32:19.614171  3106 layer_factory.hpp:77] Creating layer relu3_2
I1118 18:32:19.614176  3106 net.cpp:100] Creating Layer relu3_2
I1118 18:32:19.614181  3106 net.cpp:434] relu3_2 <- conv3_2
I1118 18:32:19.614185  3106 net.cpp:395] relu3_2 -> conv3_2 (in-place)
I1118 18:32:19.614346  3106 net.cpp:150] Setting up relu3_2
I1118 18:32:19.614356  3106 net.cpp:157] Top shape: 1 256 125 125 (4000000)
I1118 18:32:19.614359  3106 net.cpp:165] Memory required for data: 727000000
I1118 18:32:19.614362  3106 layer_factory.hpp:77] Creating layer conv3_3
I1118 18:32:19.614369  3106 net.cpp:100] Creating Layer conv3_3
I1118 18:32:19.614372  3106 net.cpp:434] conv3_3 <- conv3_2
I1118 18:32:19.614378  3106 net.cpp:408] conv3_3 -> conv3_3
I1118 18:32:19.616406  3106 net.cpp:150] Setting up conv3_3
I1118 18:32:19.616436  3106 net.cpp:157] Top shape: 1 256 125 125 (4000000)
I1118 18:32:19.616439  3106 net.cpp:165] Memory required for data: 743000000
I1118 18:32:19.616461  3106 layer_factory.hpp:77] Creating layer relu3_3
I1118 18:32:19.616467  3106 net.cpp:100] Creating Layer relu3_3
I1118 18:32:19.616470  3106 net.cpp:434] relu3_3 <- conv3_3
I1118 18:32:19.616477  3106 net.cpp:395] relu3_3 -> conv3_3 (in-place)
I1118 18:32:19.616653  3106 net.cpp:150] Setting up relu3_3
I1118 18:32:19.616665  3106 net.cpp:157] Top shape: 1 256 125 125 (4000000)
I1118 18:32:19.616668  3106 net.cpp:165] Memory required for data: 759000000
I1118 18:32:19.616672  3106 layer_factory.hpp:77] Creating layer conv3_3_relu3_3_0_split
I1118 18:32:19.616678  3106 net.cpp:100] Creating Layer conv3_3_relu3_3_0_split
I1118 18:32:19.616681  3106 net.cpp:434] conv3_3_relu3_3_0_split <- conv3_3
I1118 18:32:19.616688  3106 net.cpp:408] conv3_3_relu3_3_0_split -> conv3_3_relu3_3_0_split_0
I1118 18:32:19.616696  3106 net.cpp:408] conv3_3_relu3_3_0_split -> conv3_3_relu3_3_0_split_1
I1118 18:32:19.616703  3106 net.cpp:408] conv3_3_relu3_3_0_split -> conv3_3_relu3_3_0_split_2
I1118 18:32:19.616770  3106 net.cpp:150] Setting up conv3_3_relu3_3_0_split
I1118 18:32:19.616776  3106 net.cpp:157] Top shape: 1 256 125 125 (4000000)
I1118 18:32:19.616780  3106 net.cpp:157] Top shape: 1 256 125 125 (4000000)
I1118 18:32:19.616782  3106 net.cpp:157] Top shape: 1 256 125 125 (4000000)
I1118 18:32:19.616784  3106 net.cpp:165] Memory required for data: 807000000
I1118 18:32:19.616787  3106 layer_factory.hpp:77] Creating layer pool3
I1118 18:32:19.616794  3106 net.cpp:100] Creating Layer pool3
I1118 18:32:19.616797  3106 net.cpp:434] pool3 <- conv3_3_relu3_3_0_split_0
I1118 18:32:19.616803  3106 net.cpp:408] pool3 -> pool3
I1118 18:32:19.616838  3106 net.cpp:150] Setting up pool3
I1118 18:32:19.616845  3106 net.cpp:157] Top shape: 1 256 63 63 (1016064)
I1118 18:32:19.616847  3106 net.cpp:165] Memory required for data: 811064256
I1118 18:32:19.616850  3106 layer_factory.hpp:77] Creating layer conv4_1
I1118 18:32:19.616856  3106 net.cpp:100] Creating Layer conv4_1
I1118 18:32:19.616860  3106 net.cpp:434] conv4_1 <- pool3
I1118 18:32:19.616866  3106 net.cpp:408] conv4_1 -> conv4_1
I1118 18:32:19.622239  3106 net.cpp:150] Setting up conv4_1
I1118 18:32:19.622273  3106 net.cpp:157] Top shape: 1 512 63 63 (2032128)
I1118 18:32:19.622275  3106 net.cpp:165] Memory required for data: 819192768
I1118 18:32:19.622282  3106 layer_factory.hpp:77] Creating layer relu4_1
I1118 18:32:19.622289  3106 net.cpp:100] Creating Layer relu4_1
I1118 18:32:19.622292  3106 net.cpp:434] relu4_1 <- conv4_1
I1118 18:32:19.622305  3106 net.cpp:395] relu4_1 -> conv4_1 (in-place)
I1118 18:32:19.622402  3106 net.cpp:150] Setting up relu4_1
I1118 18:32:19.622411  3106 net.cpp:157] Top shape: 1 512 63 63 (2032128)
I1118 18:32:19.622412  3106 net.cpp:165] Memory required for data: 827321280
I1118 18:32:19.622416  3106 layer_factory.hpp:77] Creating layer conv4_2
I1118 18:32:19.622423  3106 net.cpp:100] Creating Layer conv4_2
I1118 18:32:19.622426  3106 net.cpp:434] conv4_2 <- conv4_1
I1118 18:32:19.622432  3106 net.cpp:408] conv4_2 -> conv4_2
I1118 18:32:19.628377  3106 net.cpp:150] Setting up conv4_2
I1118 18:32:19.628391  3106 net.cpp:157] Top shape: 1 512 63 63 (2032128)
I1118 18:32:19.628408  3106 net.cpp:165] Memory required for data: 835449792
I1118 18:32:19.628420  3106 layer_factory.hpp:77] Creating layer relu4_2
I1118 18:32:19.628427  3106 net.cpp:100] Creating Layer relu4_2
I1118 18:32:19.628430  3106 net.cpp:434] relu4_2 <- conv4_2
I1118 18:32:19.628437  3106 net.cpp:395] relu4_2 -> conv4_2 (in-place)
I1118 18:32:19.628516  3106 net.cpp:150] Setting up relu4_2
I1118 18:32:19.628525  3106 net.cpp:157] Top shape: 1 512 63 63 (2032128)
I1118 18:32:19.628527  3106 net.cpp:165] Memory required for data: 843578304
I1118 18:32:19.628530  3106 layer_factory.hpp:77] Creating layer conv4_3
I1118 18:32:19.628537  3106 net.cpp:100] Creating Layer conv4_3
I1118 18:32:19.628540  3106 net.cpp:434] conv4_3 <- conv4_2
I1118 18:32:19.628546  3106 net.cpp:408] conv4_3 -> conv4_3
I1118 18:32:19.634162  3106 net.cpp:150] Setting up conv4_3
I1118 18:32:19.634176  3106 net.cpp:157] Top shape: 1 512 63 63 (2032128)
I1118 18:32:19.634194  3106 net.cpp:165] Memory required for data: 851706816
I1118 18:32:19.634199  3106 layer_factory.hpp:77] Creating layer relu4_3
I1118 18:32:19.634205  3106 net.cpp:100] Creating Layer relu4_3
I1118 18:32:19.634208  3106 net.cpp:434] relu4_3 <- conv4_3
I1118 18:32:19.634214  3106 net.cpp:395] relu4_3 -> conv4_3 (in-place)
I1118 18:32:19.634435  3106 net.cpp:150] Setting up relu4_3
I1118 18:32:19.634446  3106 net.cpp:157] Top shape: 1 512 63 63 (2032128)
I1118 18:32:19.634449  3106 net.cpp:165] Memory required for data: 859835328
I1118 18:32:19.634452  3106 layer_factory.hpp:77] Creating layer conv4_3_relu4_3_0_split
I1118 18:32:19.634459  3106 net.cpp:100] Creating Layer conv4_3_relu4_3_0_split
I1118 18:32:19.634462  3106 net.cpp:434] conv4_3_relu4_3_0_split <- conv4_3
I1118 18:32:19.634469  3106 net.cpp:408] conv4_3_relu4_3_0_split -> conv4_3_relu4_3_0_split_0
I1118 18:32:19.634475  3106 net.cpp:408] conv4_3_relu4_3_0_split -> conv4_3_relu4_3_0_split_1
I1118 18:32:19.634500  3106 net.cpp:408] conv4_3_relu4_3_0_split -> conv4_3_relu4_3_0_split_2
I1118 18:32:19.634568  3106 net.cpp:150] Setting up conv4_3_relu4_3_0_split
I1118 18:32:19.634574  3106 net.cpp:157] Top shape: 1 512 63 63 (2032128)
I1118 18:32:19.634577  3106 net.cpp:157] Top shape: 1 512 63 63 (2032128)
I1118 18:32:19.634580  3106 net.cpp:157] Top shape: 1 512 63 63 (2032128)
I1118 18:32:19.634582  3106 net.cpp:165] Memory required for data: 884220864
I1118 18:32:19.634585  3106 layer_factory.hpp:77] Creating layer pool4
I1118 18:32:19.634591  3106 net.cpp:100] Creating Layer pool4
I1118 18:32:19.634594  3106 net.cpp:434] pool4 <- conv4_3_relu4_3_0_split_0
I1118 18:32:19.634600  3106 net.cpp:408] pool4 -> pool4
I1118 18:32:19.634655  3106 net.cpp:150] Setting up pool4
I1118 18:32:19.634661  3106 net.cpp:157] Top shape: 1 512 32 32 (524288)
I1118 18:32:19.634665  3106 net.cpp:165] Memory required for data: 886318016
I1118 18:32:19.634666  3106 layer_factory.hpp:77] Creating layer conv5_1
I1118 18:32:19.634675  3106 net.cpp:100] Creating Layer conv5_1
I1118 18:32:19.634677  3106 net.cpp:434] conv5_1 <- pool4
I1118 18:32:19.634682  3106 net.cpp:408] conv5_1 -> conv5_1
I1118 18:32:19.640111  3106 net.cpp:150] Setting up conv5_1
I1118 18:32:19.640125  3106 net.cpp:157] Top shape: 1 512 32 32 (524288)
I1118 18:32:19.640142  3106 net.cpp:165] Memory required for data: 888415168
I1118 18:32:19.640148  3106 layer_factory.hpp:77] Creating layer relu5_1
I1118 18:32:19.640195  3106 net.cpp:100] Creating Layer relu5_1
I1118 18:32:19.640198  3106 net.cpp:434] relu5_1 <- conv5_1
I1118 18:32:19.640203  3106 net.cpp:395] relu5_1 -> conv5_1 (in-place)
I1118 18:32:19.642062  3106 net.cpp:150] Setting up relu5_1
I1118 18:32:19.642089  3106 net.cpp:157] Top shape: 1 512 32 32 (524288)
I1118 18:32:19.642092  3106 net.cpp:165] Memory required for data: 890512320
I1118 18:32:19.642096  3106 layer_factory.hpp:77] Creating layer conv5_2
I1118 18:32:19.642104  3106 net.cpp:100] Creating Layer conv5_2
I1118 18:32:19.642107  3106 net.cpp:434] conv5_2 <- conv5_1
I1118 18:32:19.642112  3106 net.cpp:408] conv5_2 -> conv5_2
I1118 18:32:19.647400  3106 net.cpp:150] Setting up conv5_2
I1118 18:32:19.647413  3106 net.cpp:157] Top shape: 1 512 32 32 (524288)
I1118 18:32:19.647431  3106 net.cpp:165] Memory required for data: 892609472
I1118 18:32:19.647436  3106 layer_factory.hpp:77] Creating layer relu5_2
I1118 18:32:19.647442  3106 net.cpp:100] Creating Layer relu5_2
I1118 18:32:19.647445  3106 net.cpp:434] relu5_2 <- conv5_2
I1118 18:32:19.647451  3106 net.cpp:395] relu5_2 -> conv5_2 (in-place)
I1118 18:32:19.647621  3106 net.cpp:150] Setting up relu5_2
I1118 18:32:19.647640  3106 net.cpp:157] Top shape: 1 512 32 32 (524288)
I1118 18:32:19.647642  3106 net.cpp:165] Memory required for data: 894706624
I1118 18:32:19.647645  3106 layer_factory.hpp:77] Creating layer conv5_3
I1118 18:32:19.647653  3106 net.cpp:100] Creating Layer conv5_3
I1118 18:32:19.647657  3106 net.cpp:434] conv5_3 <- conv5_2
I1118 18:32:19.647661  3106 net.cpp:408] conv5_3 -> conv5_3
I1118 18:32:19.653172  3106 net.cpp:150] Setting up conv5_3
I1118 18:32:19.653185  3106 net.cpp:157] Top shape: 1 512 32 32 (524288)
I1118 18:32:19.653203  3106 net.cpp:165] Memory required for data: 896803776
I1118 18:32:19.653208  3106 layer_factory.hpp:77] Creating layer relu5_3
I1118 18:32:19.653215  3106 net.cpp:100] Creating Layer relu5_3
I1118 18:32:19.653218  3106 net.cpp:434] relu5_3 <- conv5_3
I1118 18:32:19.653223  3106 net.cpp:395] relu5_3 -> conv5_3 (in-place)
I1118 18:32:19.653306  3106 net.cpp:150] Setting up relu5_3
I1118 18:32:19.653314  3106 net.cpp:157] Top shape: 1 512 32 32 (524288)
I1118 18:32:19.653316  3106 net.cpp:165] Memory required for data: 898900928
I1118 18:32:19.653319  3106 layer_factory.hpp:77] Creating layer conv5_3_relu5_3_0_split
I1118 18:32:19.653327  3106 net.cpp:100] Creating Layer conv5_3_relu5_3_0_split
I1118 18:32:19.653329  3106 net.cpp:434] conv5_3_relu5_3_0_split <- conv5_3
I1118 18:32:19.653335  3106 net.cpp:408] conv5_3_relu5_3_0_split -> conv5_3_relu5_3_0_split_0
I1118 18:32:19.653342  3106 net.cpp:408] conv5_3_relu5_3_0_split -> conv5_3_relu5_3_0_split_1
I1118 18:32:19.653345  3106 net.cpp:408] conv5_3_relu5_3_0_split -> conv5_3_relu5_3_0_split_2
I1118 18:32:19.653398  3106 net.cpp:150] Setting up conv5_3_relu5_3_0_split
I1118 18:32:19.653420  3106 net.cpp:157] Top shape: 1 512 32 32 (524288)
I1118 18:32:19.653424  3106 net.cpp:157] Top shape: 1 512 32 32 (524288)
I1118 18:32:19.653427  3106 net.cpp:157] Top shape: 1 512 32 32 (524288)
I1118 18:32:19.653429  3106 net.cpp:165] Memory required for data: 905192384
I1118 18:32:19.653431  3106 layer_factory.hpp:77] Creating layer pool5
I1118 18:32:19.653437  3106 net.cpp:100] Creating Layer pool5
I1118 18:32:19.653440  3106 net.cpp:434] pool5 <- conv5_3_relu5_3_0_split_0
I1118 18:32:19.653446  3106 net.cpp:408] pool5 -> pool5
I1118 18:32:19.653478  3106 net.cpp:150] Setting up pool5
…
I1118 18:32:19.705233  3106 net.cpp:165] Memory required for data: 907559872
I1118 18:32:19.705247  3106 layer_factory.hpp:77] Creating layer relu3-dsn6
I1118 18:32:19.705255  3106 net.cpp:100] Creating Layer relu3-dsn6
I1118 18:32:19.705257  3106 net.cpp:434] relu3-dsn6 <- conv4-dsn6
I1118 18:32:19.705261  3106 net.cpp:395] relu3-dsn6 -> conv4-dsn6 (in-place)
I1118 18:32:19.705359  3106 net.cpp:150] Setting up relu3-dsn6
I1118 18:32:19.705368  3106 net.cpp:157] Top shape: 1 256 17 17 (73984)
I1118 18:32:19.705369  3106 net.cpp:165] Memory required for data: 907855808
I1118 18:32:19.705372  3106 layer_factory.hpp:77] Creating layer conv5-dsn6
I1118 18:32:19.705381  3106 net.cpp:100] Creating Layer conv5-dsn6
I1118 18:32:19.705384  3106 net.cpp:434] conv5-dsn6 <- conv4-dsn6
I1118 18:32:19.705402  3106 net.cpp:408] conv5-dsn6 -> conv5-dsn6
I1118 18:32:19.706055  3106 net.cpp:150] Setting up conv5-dsn6
I1118 18:32:19.706066  3106 net.cpp:157] Top shape: 1 1 17 17 (289)
I1118 18:32:19.706084  3106 net.cpp:165] Memory required for data: 907856964
I1118 18:32:19.706089  3106 layer_factory.hpp:77] Creating layer conv5-dsn6_conv5-dsn6_0_split
I1118 18:32:19.706094  3106 net.cpp:100] Creating Layer conv5-dsn6_conv5-dsn6_0_split
I1118 18:32:19.706097  3106 net.cpp:434] conv5-dsn6_conv5-dsn6_0_split <- conv5-dsn6
I1118 18:32:19.706105  3106 net.cpp:408] conv5-dsn6_conv5-dsn6_0_split -> conv5-dsn6_conv5-dsn6_0_split_0
I1118 18:32:19.706111  3106 net.cpp:408] conv5-dsn6_conv5-dsn6_0_split -> conv5-dsn6_conv5-dsn6_0_split_1
I1118 18:32:19.706144  3106 net.cpp:150] Setting up conv5-dsn6_conv5-dsn6_0_split
I1118 18:32:19.706148  3106 net.cpp:157] Top shape: 1 1 17 17 (289)
I1118 18:32:19.706151  3106 net.cpp:157] Top shape: 1 1 17 17 (289)
I1118 18:32:19.706153  3106 net.cpp:165] Memory required for data: 907859276
I1118 18:32:19.706156  3106 layer_factory.hpp:77] Creating layer upsample32_dsn6
I1118 18:32:19.706167  3106 net.cpp:100] Creating Layer upsample32_dsn6
I1118 18:32:19.706171  3106 net.cpp:434] upsample32_dsn6 <- conv5-dsn6_conv5-dsn6_0_split_0
I1118 18:32:19.706174  3106 net.cpp:408] upsample32_dsn6 -> conv5-dsn6-up
I1118 18:32:19.706805  3106 net.cpp:150] Setting up upsample32_dsn6
I1118 18:32:19.706815  3106 net.cpp:157] Top shape: 1 1 576 576 (331776)
I1118 18:32:19.706831  3106 net.cpp:165] Memory required for data: 909186380
I1118 18:32:19.706836  3106 layer_factory.hpp:77] Creating layer crop-dsn6
I1118 18:32:19.706841  3106 net.cpp:100] Creating Layer crop-dsn6
I1118 18:32:19.706845  3106 net.cpp:434] crop-dsn6 <- conv5-dsn6-up
I1118 18:32:19.706848  3106 net.cpp:434] crop-dsn6 <- data_data_0_split_1
I1118 18:32:19.706852  3106 net.cpp:408] crop-dsn6 -> upscore-dsn6
I1118 18:32:19.706877  3106 net.cpp:150] Setting up crop-dsn6
I1118 18:32:19.706881  3106 net.cpp:157] Top shape: 1 1 500 500 (250000)
I1118 18:32:19.706883  3106 net.cpp:165] Memory required for data: 910186380
I1118 18:32:19.706887  3106 layer_factory.hpp:77] Creating layer loss6-score
I1118 18:32:19.706893  3106 net.cpp:100] Creating Layer loss6-score
I1118 18:32:19.706897  3106 net.cpp:434] loss6-score <- upscore-dsn6
I1118 18:32:19.706900  3106 net.cpp:434] loss6-score <- label_data_1_split_0
I1118 18:32:19.706904  3106 net.cpp:408] loss6-score -> loss6-score
I1118 18:32:19.708001  3106 net.cpp:150] Setting up loss6-score
I1118 18:32:19.708015  3106 net.cpp:157] Top shape: (1)
I1118 18:32:19.708017  3106 net.cpp:160]     with loss weight 1
I1118 18:32:19.708032  3106 net.cpp:165] Memory required for data: 910186384
I1118 18:32:19.708035  3106 layer_factory.hpp:77] Creating layer upsample2_dsn5
I1118 18:32:19.708041  3106 net.cpp:100] Creating Layer upsample2_dsn5
I1118 18:32:19.708045  3106 net.cpp:434] upsample2_dsn5 <- conv5-dsn6_conv5-dsn6_0_split_1
I1118 18:32:19.708052  3106 net.cpp:408] upsample2_dsn5 -> conv5-dsn6-5
I1118 18:32:19.708328  3106 net.cpp:150] Setting up upsample2_dsn5
I1118 18:32:19.708338  3106 net.cpp:157] Top shape: 1 1 36 36 (1296)
I1118 18:32:19.708357  3106 net.cpp:165] Memory required for data: 910191568
I1118 18:32:19.708362  3106 layer_factory.hpp:77] Creating layer crop1-dsn5
I1118 18:32:19.708369  3106 net.cpp:100] Creating Layer crop1-dsn5
I1118 18:32:19.708371  3106 net.cpp:434] crop1-dsn5 <- conv5-dsn6-5
I1118 18:32:19.708376  3106 net.cpp:434] crop1-dsn5 <- conv5_3_relu5_3_0_split_1
I1118 18:32:19.708381  3106 net.cpp:408] crop1-dsn5 -> weight-dsn6-5
I1118 18:32:19.708420  3106 net.cpp:150] Setting up crop1-dsn5
I1118 18:32:19.708425  3106 net.cpp:157] Top shape: 1 1 32 32 (1024)
I1118 18:32:19.708426  3106 net.cpp:165] Memory required for data: 910195664
I1118 18:32:19.708428  3106 layer_factory.hpp:77] Creating layer weight-dsn6-5_crop1-dsn5_0_split
I1118 18:32:19.708433  3106 net.cpp:100] Creating Layer weight-dsn6-5_crop1-dsn5_0_split
I1118 18:32:19.708436  3106 net.cpp:434] weight-dsn6-5_crop1-dsn5_0_split <- weight-dsn6-5
I1118 18:32:19.708442  3106 net.cpp:408] weight-dsn6-5_crop1-dsn5_0_split -> weight-dsn6-5_crop1-dsn5_0_split_0
I1118 18:32:19.708447  3106 net.cpp:408] weight-dsn6-5_crop1-dsn5_0_split -> weight-dsn6-5_crop1-dsn5_0_split_1
I1118 18:32:19.708477  3106 net.cpp:150] Setting up weight-dsn6-5_crop1-dsn5_0_split
I1118 18:32:19.708503  3106 net.cpp:157] Top shape: 1 1 32 32 (1024)
I1118 18:32:19.708523  3106 net.cpp:157] Top shape: 1 1 32 32 (1024)
I1118 18:32:19.708524  3106 net.cpp:165] Memory required for data: 910203856
I1118 18:32:19.708526  3106 layer_factory.hpp:77] Creating layer sigmoid-dsn5
I1118 18:32:19.708546  3106 net.cpp:100] Creating Layer sigmoid-dsn5
I1118 18:32:19.708549  3106 net.cpp:434] sigmoid-dsn5 <- weight-dsn6-5_crop1-dsn5_0_split_0
I1118 18:32:19.708555  3106 net.cpp:408] sigmoid-dsn5 -> sigmoid-dsn5
I1118 18:32:19.708766  3106 net.cpp:150] Setting up sigmoid-dsn5
I1118 18:32:19.708777  3106 net.cpp:157] Top shape: 1 1 32 32 (1024)
I1118 18:32:19.708779  3106 net.cpp:165] Memory required for data: 910207952
I1118 18:32:19.708782  3106 layer_factory.hpp:77] Creating layer rev-dsn5
I1118 18:32:19.708791  3106 net.cpp:100] Creating Layer rev-dsn5
I1118 18:32:19.708796  3106 net.cpp:434] rev-dsn5 <- sigmoid-dsn5
I1118 18:32:19.708801  3106 net.cpp:408] rev-dsn5 -> rev-dsn5
I1118 18:32:19.708822  3106 net.cpp:150] Setting up rev-dsn5
I1118 18:32:19.708834  3106 net.cpp:157] Top shape: 1 1 32 32 (1024)
I1118 18:32:19.708837  3106 net.cpp:165] Memory required for data: 910212048
I1118 18:32:19.708840  3106 layer_factory.hpp:77] Creating layer tile-dsn5
I1118 18:32:19.708845  3106 net.cpp:100] Creating Layer tile-dsn5
I1118 18:32:19.708848  3106 net.cpp:434] tile-dsn5 <- rev-dsn5
I1118 18:32:19.708855  3106 net.cpp:408] tile-dsn5 -> weight-dsn5
I1118 18:32:19.708875  3106 net.cpp:150] Setting up tile-dsn5
I1118 18:32:19.708896  3106 net.cpp:157] Top shape: 1 512 32 32 (524288)
I1118 18:32:19.708899  3106 net.cpp:165] Memory required for data: 912309200
I1118 18:32:19.708901  3106 layer_factory.hpp:77] Creating layer prod1-dsn5
I1118 18:32:19.708907  3106 net.cpp:100] Creating Layer prod1-dsn5
I1118 18:32:19.708910  3106 net.cpp:434] prod1-dsn5 <- conv5_3_relu5_3_0_split_2
I1118 18:32:19.708914  3106 net.cpp:434] prod1-dsn5 <- weight-dsn5
I1118 18:32:19.708920  3106 net.cpp:408] prod1-dsn5 -> prod1-dsn5
I1118 18:32:19.708957  3106 net.cpp:150] Setting up prod1-dsn5
I1118 18:32:19.708964  3106 net.cpp:157] Top shape: 1 512 32 32 (524288)
I1118 18:32:19.708966  3106 net.cpp:165] Memory required for data: 914406352
I1118 18:32:19.708969  3106 layer_factory.hpp:77] Creating layer conv1-dsn5
I1118 18:32:19.708978  3106 net.cpp:100] Creating Layer conv1-dsn5
I1118 18:32:19.708981  3106 net.cpp:434] conv1-dsn5 <- prod1-dsn5
I1118 18:32:19.708986  3106 net.cpp:408] conv1-dsn5 -> conv1-dsn5
I1118 18:32:19.711266  3106 net.cpp:150] Setting up conv1-dsn5
I1118 18:32:19.711295  3106 net.cpp:157] Top shape: 1 64 32 32 (65536)
I1118 18:32:19.711304  3106 net.cpp:165] Memory required for data: 914668496
I1118 18:32:19.711310  3106 layer_factory.hpp:77] Creating layer conv2-dsn5
I1118 18:32:19.711323  3106 net.cpp:100] Creating Layer conv2-dsn5
I1118 18:32:19.711325  3106 net.cpp:434] conv2-dsn5 <- conv1-dsn5
I1118 18:32:19.711331  3106 net.cpp:408] conv2-dsn5 -> conv2-dsn5
I1118 18:32:19.712632  3106 net.cpp:150] Setting up conv2-dsn5
I1118 18:32:19.712675  3106 net.cpp:157] Top shape: 1 64 32 32 (65536)
I1118 18:32:19.712678  3106 net.cpp:165] Memory required for data: 914930640
I1118 18:32:19.712684  3106 layer_factory.hpp:77] Creating layer relu1-dsn5
I1118 18:32:19.712689  3106 net.cpp:100] Creating Layer relu1-dsn5
I1118 18:32:19.712693  3106 net.cpp:434] relu1-dsn5 <- conv2-dsn5
I1118 18:32:19.712700  3106 net.cpp:395] relu1-dsn5 -> conv2-dsn5 (in-place)
I1118 18:32:19.712775  3106 net.cpp:150] Setting up relu1-dsn5
I1118 18:32:19.712782  3106 net.cpp:157] Top shape: 1 64 32 32 (65536)
I1118 18:32:19.712785  3106 net.cpp:165] Memory required for data: 915192784
I1118 18:32:19.712788  3106 layer_factory.hpp:77] Creating layer conv3-dsn5
I1118 18:32:19.712798  3106 net.cpp:100] Creating Layer conv3-dsn5
I1118 18:32:19.712801  3106 net.cpp:434] conv3-dsn5 <- conv2-dsn5
I1118 18:32:19.712807  3106 net.cpp:408] conv3-dsn5 -> conv3-dsn5
I1118 18:32:19.713996  3106 net.cpp:150] Setting up conv3-dsn5
I1118 18:32:19.714025  3106 net.cpp:157] Top shape: 1 64 32 32 (65536)
I1118 18:32:19.714027  3106 net.cpp:165] Memory required for data: 915454928
I1118 18:32:19.714047  3106 layer_factory.hpp:77] Creating layer relu2-dsn5
I1118 18:32:19.714052  3106 net.cpp:100] Creating Layer relu2-dsn5
I1118 18:32:19.714054  3106 net.cpp:434] relu2-dsn5 <- conv3-dsn5
I1118 18:32:19.714061  3106 net.cpp:395] relu2-dsn5 -> conv3-dsn5 (in-place)
I1118 18:32:19.714241  3106 net.cpp:150] Setting up relu2-dsn5
I1118 18:32:19.714251  3106 net.cpp:157] Top shape: 1 64 32 32 (65536)
I1118 18:32:19.714253  3106 net.cpp:165] Memory required for data: 915717072
I1118 18:32:19.714257  3106 layer_factory.hpp:77] Creating layer conv4-dsn5
I1118 18:32:19.714265  3106 net.cpp:100] Creating Layer conv4-dsn5
I1118 18:32:19.714268  3106 net.cpp:434] conv4-dsn5 <- conv3-dsn5
I1118 18:32:19.714275  3106 net.cpp:408] conv4-dsn5 -> conv4-dsn5
I1118 18:32:19.714798  3106 net.cpp:150] Setting up conv4-dsn5
I1118 18:32:19.714809  3106 net.cpp:157] Top shape: 1 1 32 32 (1024)
I1118 18:32:19.714828  3106 net.cpp:165] Memory required for data: 915721168
I1118 18:32:19.714833  3106 layer_factory.hpp:77] Creating layer sum-dsn5
I1118 18:32:19.714867  3106 net.cpp:100] Creating Layer sum-dsn5
I1118 18:32:19.714870  3106 net.cpp:434] sum-dsn5 <- conv4-dsn5
I1118 18:32:19.714874  3106 net.cpp:434] sum-dsn5 <- weight-dsn6-5_crop1-dsn5_0_split_1
I1118 18:32:19.714879  3106 net.cpp:408] sum-dsn5 -> sum-dsn5
I1118 18:32:19.714895  3106 net.cpp:150] Setting up sum-dsn5
I1118 18:32:19.714900  3106 net.cpp:157] Top shape: 1 1 32 32 (1024)
I1118 18:32:19.714901  3106 net.cpp:165] Memory required for data: 915725264
I1118 18:32:19.714903  3106 layer_factory.hpp:77] Creating layer sum-dsn5_sum-dsn5_0_split
I1118 18:32:19.714908  3106 net.cpp:100] Creating Layer sum-dsn5_sum-dsn5_0_split
I1118 18:32:19.714910  3106 net.cpp:434] sum-dsn5_sum-dsn5_0_split <- sum-dsn5
I1118 18:32:19.714915  3106 net.cpp:408] sum-dsn5_sum-dsn5_0_split -> sum-dsn5_sum-dsn5_0_split_0
I1118 18:32:19.714920  3106 net.cpp:408] sum-dsn5_sum-dsn5_0_split -> sum-dsn5_sum-dsn5_0_split_1
I1118 18:32:19.714964  3106 net.cpp:150] Setting up sum-dsn5_sum-dsn5_0_split
I1118 18:32:19.714969  3106 net.cpp:157] Top shape: 1 1 32 32 (1024)
I1118 18:32:19.714972  3106 net.cpp:157] Top shape: 1 1 32 32 (1024)
I1118 18:32:19.714975  3106 net.cpp:165] Memory required for data: 915733456
I1118 18:32:19.714977  3106 layer_factory.hpp:77] Creating layer upsample16_dsn5
I1118 18:32:19.714984  3106 net.cpp:100] Creating Layer upsample16_dsn5
I1118 18:32:19.714987  3106 net.cpp:434] upsample16_dsn5 <- sum-dsn5_sum-dsn5_0_split_0
I1118 18:32:19.714992  3106 net.cpp:408] upsample16_dsn5 -> sum-dsn5-up
I1118 18:32:19.716130  3106 net.cpp:150] Setting up upsample16_dsn5
I1118 18:32:19.716140  3106 net.cpp:157] Top shape: 1 1 528 528 (278784)
I1118 18:32:19.716156  3106 net.cpp:165] Memory required for data: 916848592
I1118 18:32:19.716161  3106 layer_factory.hpp:77] Creating layer crop2-dsn5
I1118 18:32:19.716168  3106 net.cpp:100] Creating Layer crop2-dsn5
I1118 18:32:19.716171  3106 net.cpp:434] crop2-dsn5 <- sum-dsn5-up
I1118 18:32:19.716176  3106 net.cpp:434] crop2-dsn5 <- data_data_0_split_2
I1118 18:32:19.716179  3106 net.cpp:408] crop2-dsn5 -> upscore-dsn5
I1118 18:32:19.716204  3106 net.cpp:150] Setting up crop2-dsn5
I1118 18:32:19.716209  3106 net.cpp:157] Top shape: 1 1 500 500 (250000)
I1118 18:32:19.716212  3106 net.cpp:165] Memory required for data: 917848592
I1118 18:32:19.716213  3106 layer_factory.hpp:77] Creating layer loss5-score
I1118 18:32:19.716220  3106 net.cpp:100] Creating Layer loss5-score
I1118 18:32:19.716223  3106 net.cpp:434] loss5-score <- upscore-dsn5
I1118 18:32:19.716225  3106 net.cpp:434] loss5-score <- label_data_1_split_1
I1118 18:32:19.716229  3106 net.cpp:408] loss5-score -> loss5-score
I1118 18:32:19.716459  3106 net.cpp:150] Setting up loss5-score
I1118 18:32:19.716465  3106 net.cpp:157] Top shape: (1)
I1118 18:32:19.716467  3106 net.cpp:160]     with loss weight 1
I1118 18:32:19.716478  3106 net.cpp:165] Memory required for data: 917848596
I1118 18:32:19.716481  3106 layer_factory.hpp:77] Creating layer upsample2_dsn4
I1118 18:32:19.716491  3106 net.cpp:100] Creating Layer upsample2_dsn4
I1118 18:32:19.716495  3106 net.cpp:434] upsample2_dsn4 <- sum-dsn5_sum-dsn5_0_split_1
I1118 18:32:19.716498  3106 net.cpp:408] upsample2_dsn4 -> sum-dsn5-4
I1118 18:32:19.716696  3106 net.cpp:150] Setting up upsample2_dsn4
I1118 18:32:19.716703  3106 net.cpp:157] Top shape: 1 1 66 66 (4356)
I1118 18:32:19.716706  3106 net.cpp:165] Memory required for data: 917866020
I1118 18:32:19.716711  3106 layer_factory.hpp:77] Creating layer crop1-dsn4
I1118 18:32:19.716714  3106 net.cpp:100] Creating Layer crop1-dsn4
I1118 18:32:19.716717  3106 net.cpp:434] crop1-dsn4 <- sum-dsn5-4
I1118 18:32:19.716722  3106 net.cpp:434] crop1-dsn4 <- conv4_3_relu4_3_0_split_1
I1118 18:32:19.716727  3106 net.cpp:408] crop1-dsn4 -> weight-dsn5-4
I1118 18:32:19.716745  3106 net.cpp:150] Setting up crop1-dsn4
I1118 18:32:19.716749  3106 net.cpp:157] Top shape: 1 1 63 63 (3969)
I1118 18:32:19.716750  3106 net.cpp:165] Memory required for data: 917881896
I1118 18:32:19.716753  3106 layer_factory.hpp:77] Creating layer weight-dsn5-4_crop1-dsn4_0_split
I1118 18:32:19.716759  3106 net.cpp:100] Creating Layer weight-dsn5-4_crop1-dsn4_0_split
I1118 18:32:19.716763  3106 net.cpp:434] weight-dsn5-4_crop1-dsn4_0_split <- weight-dsn5-4
I1118 18:32:19.716766  3106 net.cpp:408] weight-dsn5-4_crop1-dsn4_0_split -> weight-dsn5-4_crop1-dsn4_0_split_0
I1118 18:32:19.716773  3106 net.cpp:408] weight-dsn5-4_crop1-dsn4_0_split -> weight-dsn5-4_crop1-dsn4_0_split_1
I1118 18:32:19.716799  3106 net.cpp:150] Setting up weight-dsn5-4_crop1-dsn4_0_split
I1118 18:32:19.716804  3106 net.cpp:157] Top shape: 1 1 63 63 (3969)
I1118 18:32:19.716807  3106 net.cpp:157] Top shape: 1 1 63 63 (3969)
I1118 18:32:19.716809  3106 net.cpp:165] Memory required for data: 917913648
I1118 18:32:19.716811  3106 layer_factory.hpp:77] Creating layer sigmoid-dsn4
I1118 18:32:19.716816  3106 net.cpp:100] Creating Layer sigmoid-dsn4
I1118 18:32:19.716820  3106 net.cpp:434] sigmoid-dsn4 <- weight-dsn5-4_crop1-dsn4_0_split_0
I1118 18:32:19.716825  3106 net.cpp:408] sigmoid-dsn4 -> sigmoid-dsn4
I1118 18:32:19.717036  3106 net.cpp:150] Setting up sigmoid-dsn4
I1118 18:32:19.717046  3106 net.cpp:157] Top shape: 1 1 63 63 (3969)
I1118 18:32:19.717047  3106 net.cpp:165] Memory required for data: 917929524
I1118 18:32:19.717051  3106 layer_factory.hpp:77] Creating layer rev-dsn4
I1118 18:32:19.717056  3106 net.cpp:100] Creating Layer rev-dsn4
I1118 18:32:19.717058  3106 net.cpp:434] rev-dsn4 <- sigmoid-dsn4
I1118 18:32:19.717065  3106 net.cpp:408] rev-dsn4 -> rev-dsn4
I1118 18:32:19.717100  3106 net.cpp:150] Setting up rev-dsn4
I1118 18:32:19.717108  3106 net.cpp:157] Top shape: 1 1 63 63 (3969)
I1118 18:32:19.717109  3106 net.cpp:165] Memory required for data: 917945400
I1118 18:32:19.717111  3106 layer_factory.hpp:77] Creating layer tile-dsn4
I1118 18:32:19.717116  3106 net.cpp:100] Creating Layer tile-dsn4
I1118 18:32:19.717118  3106 net.cpp:434] tile-dsn4 <- rev-dsn4
I1118 18:32:19.717123  3106 net.cpp:408] tile-dsn4 -> weight-dsn4
I1118 18:32:19.717140  3106 net.cpp:150] Setting up tile-dsn4
I1118 18:32:19.717144  3106 net.cpp:157] Top shape: 1 512 63 63 (2032128)
I1118 18:32:19.717147  3106 net.cpp:165] Memory required for data: 926073912
I1118 18:32:19.717149  3106 layer_factory.hpp:77] Creating layer prod1-dsn4
I1118 18:32:19.717155  3106 net.cpp:100] Creating Layer prod1-dsn4
I1118 18:32:19.717157  3106 net.cpp:434] prod1-dsn4 <- conv4_3_relu4_3_0_split_2
I1118 18:32:19.717161  3106 net.cpp:434] prod1-dsn4 <- weight-dsn4
I1118 18:32:19.717165  3106 net.cpp:408] prod1-dsn4 -> prod1-dsn4
I1118 18:32:19.717182  3106 net.cpp:150] Setting up prod1-dsn4
I1118 18:32:19.717186  3106 net.cpp:157] Top shape: 1 512 63 63 (2032128)
I1118 18:32:19.717188  3106 net.cpp:165] Memory required for data: 934202424
I1118 18:32:19.717191  3106 layer_factory.hpp:77] Creating layer conv1-dsn4
I1118 18:32:19.717200  3106 net.cpp:100] Creating Layer conv1-dsn4
I1118 18:32:19.717202  3106 net.cpp:434] conv1-dsn4 <- prod1-dsn4
I1118 18:32:19.717208  3106 net.cpp:408] conv1-dsn4 -> conv1-dsn4
I1118 18:32:19.720028  3106 net.cpp:150] Setting up conv1-dsn4
I1118 18:32:19.720041  3106 net.cpp:157] Top shape: 1 64 63 63 (254016)
I1118 18:32:19.720058  3106 net.cpp:165] Memory required for data: 935218488
I1118 18:32:19.720063  3106 layer_factory.hpp:77] Creating layer conv2-dsn4
I1118 18:32:19.720073  3106 net.cpp:100] Creating Layer conv2-dsn4
I1118 18:32:19.720077  3106 net.cpp:434] conv2-dsn4 <- conv1-dsn4
I1118 18:32:19.720083  3106 net.cpp:408] conv2-dsn4 -> conv2-dsn4
I1118 18:32:19.721127  3106 net.cpp:150] Setting up conv2-dsn4
I1118 18:32:19.721154  3106 net.cpp:157] Top shape: 1 64 63 63 (254016)
I1118 18:32:19.721158  3106 net.cpp:165] Memory required for data: 936234552
I1118 18:32:19.721163  3106 layer_factory.hpp:77] Creating layer relu1-dsn4
I1118 18:32:19.721168  3106 net.cpp:100] Creating Layer relu1-dsn4
I1118 18:32:19.721170  3106 net.cpp:434] relu1-dsn4 <- conv2-dsn4
I1118 18:32:19.721174  3106 net.cpp:395] relu1-dsn4 -> conv2-dsn4 (in-place)
I1118 18:32:19.721336  3106 net.cpp:150] Setting up relu1-dsn4
I1118 18:32:19.721346  3106 net.cpp:157] Top shape: 1 64 63 63 (254016)
I1118 18:32:19.721349  3106 net.cpp:165] Memory required for data: 937250616
I1118 18:32:19.721351  3106 layer_factory.hpp:77] Creating layer conv3-dsn4
I1118 18:32:19.721360  3106 net.cpp:100] Creating Layer conv3-dsn4
I1118 18:32:19.721364  3106 net.cpp:434] conv3-dsn4 <- conv2-dsn4
I1118 18:32:19.721370  3106 net.cpp:408] conv3-dsn4 -> conv3-dsn4
I1118 18:32:19.722349  3106 net.cpp:150] Setting up conv3-dsn4
I1118 18:32:19.722360  3106 net.cpp:157] Top shape: 1 64 63 63 (254016)
I1118 18:32:19.722378  3106 net.cpp:165] Memory required for data: 938266680
I1118 18:32:19.722384  3106 layer_factory.hpp:77] Creating layer relu2-dsn4
I1118 18:32:19.722389  3106 net.cpp:100] Creating Layer relu2-dsn4
I1118 18:32:19.722393  3106 net.cpp:434] relu2-dsn4 <- conv3-dsn4
I1118 18:32:19.722398  3106 net.cpp:395] relu2-dsn4 -> conv3-dsn4 (in-place)
I1118 18:32:19.722599  3106 net.cpp:150] Setting up relu2-dsn4
I1118 18:32:19.722611  3106 net.cpp:157] Top shape: 1 64 63 63 (254016)
I1118 18:32:19.722613  3106 net.cpp:165] Memory required for data: 939282744
I1118 18:32:19.722616  3106 layer_factory.hpp:77] Creating layer conv4-dsn4
I1118 18:32:19.722625  3106 net.cpp:100] Creating Layer conv4-dsn4
I1118 18:32:19.722628  3106 net.cpp:434] conv4-dsn4 <- conv3-dsn4
I1118 18:32:19.722633  3106 net.cpp:408] conv4-dsn4 -> conv4-dsn4
I1118 18:32:19.723320  3106 net.cpp:150] Setting up conv4-dsn4
I1118 18:32:19.723330  3106 net.cpp:157] Top shape: 1 1 63 63 (3969)
I1118 18:32:19.723349  3106 net.cpp:165] Memory required for data: 939298620
I1118 18:32:19.723356  3106 layer_factory.hpp:77] Creating layer sum-dsn4
I1118 18:32:19.723364  3106 net.cpp:100] Creating Layer sum-dsn4
I1118 18:32:19.723367  3106 net.cpp:434] sum-dsn4 <- conv4-dsn4
I1118 18:32:19.723373  3106 net.cpp:434] sum-dsn4 <- weight-dsn5-4_crop1-dsn4_0_split_1
I1118 18:32:19.723377  3106 net.cpp:408] sum-dsn4 -> sum-dsn4
I1118 18:32:19.723402  3106 net.cpp:150] Setting up sum-dsn4
I1118 18:32:19.723407  3106 net.cpp:157] Top shape: 1 1 63 63 (3969)
I1118 18:32:19.723409  3106 net.cpp:165] Memory required for data: 939314496
I1118 18:32:19.723412  3106 layer_factory.hpp:77] Creating layer sum-dsn4_sum-dsn4_0_split
I1118 18:32:19.723417  3106 net.cpp:100] Creating Layer sum-dsn4_sum-dsn4_0_split
I1118 18:32:19.723420  3106 net.cpp:434] sum-dsn4_sum-dsn4_0_split <- sum-dsn4
I1118 18:32:19.723426  3106 net.cpp:408] sum-dsn4_sum-dsn4_0_split -> sum-dsn4_sum-dsn4_0_split_0
I1118 18:32:19.723433  3106 net.cpp:408] sum-dsn4_sum-dsn4_0_split -> sum-dsn4_sum-dsn4_0_split_1
I1118 18:32:19.723465  3106 net.cpp:150] Setting up sum-dsn4_sum-dsn4_0_split
I1118 18:32:19.723471  3106 net.cpp:157] Top shape: 1 1 63 63 (3969)
I1118 18:32:19.723474  3106 net.cpp:157] Top shape: 1 1 63 63 (3969)
I1118 18:32:19.723476  3106 net.cpp:165] Memory required for data: 939346248
I1118 18:32:19.723479  3106 layer_factory.hpp:77] Creating layer upsample8_dsn4
I1118 18:32:19.723487  3106 net.cpp:100] Creating Layer upsample8_dsn4
I1118 18:32:19.723490  3106 net.cpp:434] upsample8_dsn4 <- sum-dsn4_sum-dsn4_0_split_0
I1118 18:32:19.723495  3106 net.cpp:408] upsample8_dsn4 -> sum-dsn4-up
I1118 18:32:19.724699  3106 net.cpp:150] Setting up upsample8_dsn4
I1118 18:32:19.724709  3106 net.cpp:157] Top shape: 1 1 512 512 (262144)
I1118 18:32:19.724725  3106 net.cpp:165] Memory required for data: 940394824
I1118 18:32:19.724731  3106 layer_factory.hpp:77] Creating layer crop2-dsn4
I1118 18:32:19.724737  3106 net.cpp:100] Creating Layer crop2-dsn4
I1118 18:32:19.724740  3106 net.cpp:434] crop2-dsn4 <- sum-dsn4-up
I1118 18:32:19.724745  3106 net.cpp:434] crop2-dsn4 <- data_data_0_split_3
I1118 18:32:19.724748  3106 net.cpp:408] crop2-dsn4 -> upscore-dsn4
I1118 18:32:19.724774  3106 net.cpp:150] Setting up crop2-dsn4
I1118 18:32:19.724778  3106 net.cpp:157] Top shape: 1 1 500 500 (250000)
I1118 18:32:19.724781  3106 net.cpp:165] Memory required for data: 941394824
I1118 18:32:19.724782  3106 layer_factory.hpp:77] Creating layer loss4-score
I1118 18:32:19.724789  3106 net.cpp:100] Creating Layer loss4-score
I1118 18:32:19.724792  3106 net.cpp:434] loss4-score <- upscore-dsn4
I1118 18:32:19.724795  3106 net.cpp:434] loss4-score <- label_data_1_split_2
I1118 18:32:19.724799  3106 net.cpp:408] loss4-score -> loss4-score
I1118 18:32:19.725008  3106 net.cpp:150] Setting up loss4-score
I1118 18:32:19.725013  3106 net.cpp:157] Top shape: (1)
I1118 18:32:19.725015  3106 net.cpp:160]     with loss weight 1
I1118 18:32:19.725021  3106 net.cpp:165] Memory required for data: 941394828
I1118 18:32:19.725023  3106 layer_factory.hpp:77] Creating layer upsample2_dsn3
I1118 18:32:19.725033  3106 net.cpp:100] Creating Layer upsample2_dsn3
I1118 18:32:19.725035  3106 net.cpp:434] upsample2_dsn3 <- sum-dsn4_sum-dsn4_0_split_1
I1118 18:32:19.725041  3106 net.cpp:408] upsample2_dsn3 -> sum-dsn4-3
I1118 18:32:19.725239  3106 net.cpp:150] Setting up upsample2_dsn3
I1118 18:32:19.725246  3106 net.cpp:157] Top shape: 1 1 128 128 (16384)
I1118 18:32:19.725248  3106 net.cpp:165] Memory required for data: 941460364
I1118 18:32:19.725253  3106 layer_factory.hpp:77] Creating layer crop1-dsn3
I1118 18:32:19.725257  3106 net.cpp:100] Creating Layer crop1-dsn3
I1118 18:32:19.725260  3106 net.cpp:434] crop1-dsn3 <- sum-dsn4-3
I1118 18:32:19.725263  3106 net.cpp:434] crop1-dsn3 <- conv3_3_relu3_3_0_split_1
I1118 18:32:19.725270  3106 net.cpp:408] crop1-dsn3 -> weight-dsn4-3
I1118 18:32:19.725291  3106 net.cpp:150] Setting up crop1-dsn3
I1118 18:32:19.725296  3106 net.cpp:157] Top shape: 1 1 125 125 (15625)
I1118 18:32:19.725298  3106 net.cpp:165] Memory required for data: 941522864
I1118 18:32:19.725306  3106 layer_factory.hpp:77] Creating layer weight-dsn4-3_crop1-dsn3_0_split
I1118 18:32:19.725311  3106 net.cpp:100] Creating Layer weight-dsn4-3_crop1-dsn3_0_split
I1118 18:32:19.725312  3106 net.cpp:434] weight-dsn4-3_crop1-dsn3_0_split <- weight-dsn4-3
I1118 18:32:19.725318  3106 net.cpp:408] weight-dsn4-3_crop1-dsn3_0_split -> weight-dsn4-3_crop1-dsn3_0_split_0
I1118 18:32:19.725323  3106 net.cpp:408] weight-dsn4-3_crop1-dsn3_0_split -> weight-dsn4-3_crop1-dsn3_0_split_1
I1118 18:32:19.725368  3106 net.cpp:150] Setting up weight-dsn4-3_crop1-dsn3_0_split
I1118 18:32:19.725373  3106 net.cpp:157] Top shape: 1 1 125 125 (15625)
I1118 18:32:19.725376  3106 net.cpp:157] Top shape: 1 1 125 125 (15625)
I1118 18:32:19.725378  3106 net.cpp:165] Memory required for data: 941647864
I1118 18:32:19.725381  3106 layer_factory.hpp:77] Creating layer sigmoid-dsn3
I1118 18:32:19.725387  3106 net.cpp:100] Creating Layer sigmoid-dsn3
I1118 18:32:19.725389  3106 net.cpp:434] sigmoid-dsn3 <- weight-dsn4-3_crop1-dsn3_0_split_0
I1118 18:32:19.725394  3106 net.cpp:408] sigmoid-dsn3 -> sigmoid-dsn3
I1118 18:32:19.725481  3106 net.cpp:150] Setting up sigmoid-dsn3
I1118 18:32:19.725489  3106 net.cpp:157] Top shape: 1 1 125 125 (15625)
I1118 18:32:19.725492  3106 net.cpp:165] Memory required for data: 941710364
I1118 18:32:19.725494  3106 layer_factory.hpp:77] Creating layer rev-dsn3
I1118 18:32:19.725498  3106 net.cpp:100] Creating Layer rev-dsn3
I1118 18:32:19.725502  3106 net.cpp:434] rev-dsn3 <- sigmoid-dsn3
I1118 18:32:19.725507  3106 net.cpp:408] rev-dsn3 -> rev-dsn3
I1118 18:32:19.725525  3106 net.cpp:150] Setting up rev-dsn3
I1118 18:32:19.725529  3106 net.cpp:157] Top shape: 1 1 125 125 (15625)
I1118 18:32:19.725533  3106 net.cpp:165] Memory required for data: 941772864
I1118 18:32:19.725534  3106 layer_factory.hpp:77] Creating layer tile-dsn3
I1118 18:32:19.725538  3106 net.cpp:100] Creating Layer tile-dsn3
I1118 18:32:19.725541  3106 net.cpp:434] tile-dsn3 <- rev-dsn3
I1118 18:32:19.725545  3106 net.cpp:408] tile-dsn3 -> weight-dsn3
I1118 18:32:19.725560  3106 net.cpp:150] Setting up tile-dsn3
I1118 18:32:19.725564  3106 net.cpp:157] Top shape: 1 256 125 125 (4000000)
I1118 18:32:19.725566  3106 net.cpp:165] Memory required for data: 957772864
I1118 18:32:19.725569  3106 layer_factory.hpp:77] Creating layer prod1-dsn3
I1118 18:32:19.725575  3106 net.cpp:100] Creating Layer prod1-dsn3
I1118 18:32:19.725579  3106 net.cpp:434] prod1-dsn3 <- conv3_3_relu3_3_0_split_2
I1118 18:32:19.725582  3106 net.cpp:434] prod1-dsn3 <- weight-dsn3
I1118 18:32:19.725589  3106 net.cpp:408] prod1-dsn3 -> prod1-dsn3
I1118 18:32:19.725605  3106 net.cpp:150] Setting up prod1-dsn3
I1118 18:32:19.725608  3106 net.cpp:157] Top shape: 1 256 125 125 (4000000)
I1118 18:32:19.725610  3106 net.cpp:165] Memory required for data: 973772864
I1118 18:32:19.725612  3106 layer_factory.hpp:77] Creating layer conv1-dsn3
I1118 18:32:19.725622  3106 net.cpp:100] Creating Layer conv1-dsn3
I1118 18:32:19.725625  3106 net.cpp:434] conv1-dsn3 <- prod1-dsn3
I1118 18:32:19.725630  3106 net.cpp:408] conv1-dsn3 -> conv1-dsn3
I1118 18:32:19.727703  3106 net.cpp:150] Setting up conv1-dsn3
I1118 18:32:19.727715  3106 net.cpp:157] Top shape: 1 64 125 125 (1000000)
I1118 18:32:19.727735  3106 net.cpp:165] Memory required for data: 977772864
I1118 18:32:19.727752  3106 layer_factory.hpp:77] Creating layer conv2-dsn3
I1118 18:32:19.727764  3106 net.cpp:100] Creating Layer conv2-dsn3
I1118 18:32:19.727767  3106 net.cpp:434] conv2-dsn3 <- conv1-dsn3
I1118 18:32:19.727774  3106 net.cpp:408] conv2-dsn3 -> conv2-dsn3
I1118 18:32:19.728696  3106 net.cpp:150] Setting up conv2-dsn3
I1118 18:32:19.728706  3106 net.cpp:157] Top shape: 1 64 125 125 (1000000)
I1118 18:32:19.728724  3106 net.cpp:165] Memory required for data: 981772864
I1118 18:32:19.728729  3106 layer_factory.hpp:77] Creating layer relu1-dsn3
I1118 18:32:19.728735  3106 net.cpp:100] Creating Layer relu1-dsn3
I1118 18:32:19.728739  3106 net.cpp:434] relu1-dsn3 <- conv2-dsn3
I1118 18:32:19.728742  3106 net.cpp:395] relu1-dsn3 -> conv2-dsn3 (in-place)
I1118 18:32:19.728924  3106 net.cpp:150] Setting up relu1-dsn3
I1118 18:32:19.728935  3106 net.cpp:157] Top shape: 1 64 125 125 (1000000)
I1118 18:32:19.728936  3106 net.cpp:165] Memory required for data: 985772864
I1118 18:32:19.728940  3106 layer_factory.hpp:77] Creating layer conv3-dsn3
I1118 18:32:19.728948  3106 net.cpp:100] Creating Layer conv3-dsn3
I1118 18:32:19.728951  3106 net.cpp:434] conv3-dsn3 <- conv2-dsn3
I1118 18:32:19.728958  3106 net.cpp:408] conv3-dsn3 -> conv3-dsn3
I1118 18:32:19.730036  3106 net.cpp:150] Setting up conv3-dsn3
I1118 18:32:19.730046  3106 net.cpp:157] Top shape: 1 64 125 125 (1000000)
I1118 18:32:19.730063  3106 net.cpp:165] Memory required for data: 989772864
I1118 18:32:19.730069  3106 layer_factory.hpp:77] Creating layer relu2-dsn3
I1118 18:32:19.730073  3106 net.cpp:100] Creating Layer relu2-dsn3
I1118 18:32:19.730077  3106 net.cpp:434] relu2-dsn3 <- conv3-dsn3
I1118 18:32:19.730082  3106 net.cpp:395] relu2-dsn3 -> conv3-dsn3 (in-place)
I1118 18:32:19.730167  3106 net.cpp:150] Setting up relu2-dsn3
I1118 18:32:19.730175  3106 net.cpp:157] Top shape: 1 64 125 125 (1000000)
I1118 18:32:19.730176  3106 net.cpp:165] Memory required for data: 993772864
I1118 18:32:19.730180  3106 layer_factory.hpp:77] Creating layer conv4-dsn3
I1118 18:32:19.730188  3106 net.cpp:100] Creating Layer conv4-dsn3
I1118 18:32:19.730191  3106 net.cpp:434] conv4-dsn3 <- conv3-dsn3
I1118 18:32:19.730197  3106 net.cpp:408] conv4-dsn3 -> conv4-dsn3
I1118 18:32:19.730921  3106 net.cpp:150] Setting up conv4-dsn3
I1118 18:32:19.730948  3106 net.cpp:157] Top shape: 1 1 125 125 (15625)
I1118 18:32:19.730952  3106 net.cpp:165] Memory required for data: 993835364
I1118 18:32:19.730957  3106 layer_factory.hpp:77] Creating layer sum-dsn3
I1118 18:32:19.730962  3106 net.cpp:100] Creating Layer sum-dsn3
I1118 18:32:19.730964  3106 net.cpp:434] sum-dsn3 <- conv4-dsn3
I1118 18:32:19.730968  3106 net.cpp:434] sum-dsn3 <- weight-dsn4-3_crop1-dsn3_0_split_1
I1118 18:32:19.730975  3106 net.cpp:408] sum-dsn3 -> sum-dsn3
I1118 18:32:19.730999  3106 net.cpp:150] Setting up sum-dsn3
I1118 18:32:19.731004  3106 net.cpp:157] Top shape: 1 1 125 125 (15625)
I1118 18:32:19.731005  3106 net.cpp:165] Memory required for data: 993897864
I1118 18:32:19.731009  3106 layer_factory.hpp:77] Creating layer sum-dsn3_sum-dsn3_0_split
I1118 18:32:19.731014  3106 net.cpp:100] Creating Layer sum-dsn3_sum-dsn3_0_split
I1118 18:32:19.731016  3106 net.cpp:434] sum-dsn3_sum-dsn3_0_split <- sum-dsn3
I1118 18:32:19.731020  3106 net.cpp:408] sum-dsn3_sum-dsn3_0_split -> sum-dsn3_sum-dsn3_0_split_0
I1118 18:32:19.731027  3106 net.cpp:408] sum-dsn3_sum-dsn3_0_split -> sum-dsn3_sum-dsn3_0_split_1
I1118 18:32:19.731076  3106 net.cpp:150] Setting up sum-dsn3_sum-dsn3_0_split
I1118 18:32:19.731081  3106 net.cpp:157] Top shape: 1 1 125 125 (15625)
I1118 18:32:19.731084  3106 net.cpp:157] Top shape: 1 1 125 125 (15625)
I1118 18:32:19.731086  3106 net.cpp:165] Memory required for data: 994022864
I1118 18:32:19.731089  3106 layer_factory.hpp:77] Creating layer upsample4_dsn3
I1118 18:32:19.731096  3106 net.cpp:100] Creating Layer upsample4_dsn3
I1118 18:32:19.731099  3106 net.cpp:434] upsample4_dsn3 <- sum-dsn3_sum-dsn3_0_split_0
I1118 18:32:19.731104  3106 net.cpp:408] upsample4_dsn3 -> sum-dsn3-up
I1118 18:32:19.732329  3106 net.cpp:150] Setting up upsample4_dsn3
I1118 18:32:19.732347  3106 net.cpp:157] Top shape: 1 1 504 504 (254016)
I1118 18:32:19.732348  3106 net.cpp:165] Memory required for data: 995038928
I1118 18:32:19.732369  3106 layer_factory.hpp:77] Creating layer crop2-dsn3
I1118 18:32:19.732374  3106 net.cpp:100] Creating Layer crop2-dsn3
I1118 18:32:19.732378  3106 net.cpp:434] crop2-dsn3 <- sum-dsn3-up
I1118 18:32:19.732380  3106 net.cpp:434] crop2-dsn3 <- data_data_0_split_4
I1118 18:32:19.732386  3106 net.cpp:408] crop2-dsn3 -> upscore-dsn3
I1118 18:32:19.732410  3106 net.cpp:150] Setting up crop2-dsn3
I1118 18:32:19.732416  3106 net.cpp:157] Top shape: 1 1 500 500 (250000)
I1118 18:32:19.732419  3106 net.cpp:165] Memory required for data: 996038928
I1118 18:32:19.732420  3106 layer_factory.hpp:77] Creating layer loss3-score
I1118 18:32:19.732426  3106 net.cpp:100] Creating Layer loss3-score
I1118 18:32:19.732429  3106 net.cpp:434] loss3-score <- upscore-dsn3
I1118 18:32:19.732432  3106 net.cpp:434] loss3-score <- label_data_1_split_3
I1118 18:32:19.732436  3106 net.cpp:408] loss3-score -> loss3-score
I1118 18:32:19.732647  3106 net.cpp:150] Setting up loss3-score
I1118 18:32:19.732656  3106 net.cpp:157] Top shape: (1)
I1118 18:32:19.732659  3106 net.cpp:160]     with loss weight 1
I1118 18:32:19.732664  3106 net.cpp:165] Memory required for data: 996038932
I1118 18:32:19.732667  3106 layer_factory.hpp:77] Creating layer upsample2_1-dsn2
I1118 18:32:19.732673  3106 net.cpp:100] Creating Layer upsample2_1-dsn2
I1118 18:32:19.732676  3106 net.cpp:434] upsample2_1-dsn2 <- sum-dsn3_sum-dsn3_0_split_1
I1118 18:32:19.732682  3106 net.cpp:408] upsample2_1-dsn2 -> sum-dsn3-2
I1118 18:32:19.733726  3106 net.cpp:150] Setting up upsample2_1-dsn2
I1118 18:32:19.733736  3106 net.cpp:157] Top shape: 1 1 252 252 (63504)
I1118 18:32:19.733752  3106 net.cpp:165] Memory required for data: 996292948
I1118 18:32:19.733757  3106 layer_factory.hpp:77] Creating layer crop1-dsn2
I1118 18:32:19.733764  3106 net.cpp:100] Creating Layer crop1-dsn2
I1118 18:32:19.733767  3106 net.cpp:434] crop1-dsn2 <- sum-dsn3-2
I1118 18:32:19.733772  3106 net.cpp:434] crop1-dsn2 <- conv2_2_relu2_2_0_split_1
I1118 18:32:19.733775  3106 net.cpp:408] crop1-dsn2 -> weight-dsn3-2
I1118 18:32:19.733800  3106 net.cpp:150] Setting up crop1-dsn2
I1118 18:32:19.733805  3106 net.cpp:157] Top shape: 1 1 250 250 (62500)
I1118 18:32:19.733806  3106 net.cpp:165] Memory required for data: 996542948
I1118 18:32:19.733808  3106 layer_factory.hpp:77] Creating layer weight-dsn3-2_crop1-dsn2_0_split
I1118 18:32:19.733814  3106 net.cpp:100] Creating Layer weight-dsn3-2_crop1-dsn2_0_split
I1118 18:32:19.733815  3106 net.cpp:434] weight-dsn3-2_crop1-dsn2_0_split <- weight-dsn3-2
I1118 18:32:19.733821  3106 net.cpp:408] weight-dsn3-2_crop1-dsn2_0_split -> weight-dsn3-2_crop1-dsn2_0_split_0
I1118 18:32:19.733825  3106 net.cpp:408] weight-dsn3-2_crop1-dsn2_0_split -> weight-dsn3-2_crop1-dsn2_0_split_1
I1118 18:32:19.733871  3106 net.cpp:150] Setting up weight-dsn3-2_crop1-dsn2_0_split
I1118 18:32:19.733877  3106 net.cpp:157] Top shape: 1 1 250 250 (62500)
I1118 18:32:19.733880  3106 net.cpp:157] Top shape: 1 1 250 250 (62500)
I1118 18:32:19.733882  3106 net.cpp:165] Memory required for data: 997042948
I1118 18:32:19.733884  3106 layer_factory.hpp:77] Creating layer sigmoid-dsn2
I1118 18:32:19.733888  3106 net.cpp:100] Creating Layer sigmoid-dsn2
I1118 18:32:19.733891  3106 net.cpp:434] sigmoid-dsn2 <- weight-dsn3-2_crop1-dsn2_0_split_0
I1118 18:32:19.733896  3106 net.cpp:408] sigmoid-dsn2 -> sigmoid-dsn2
I1118 18:32:19.733979  3106 net.cpp:150] Setting up sigmoid-dsn2
I1118 18:32:19.733986  3106 net.cpp:157] Top shape: 1 1 250 250 (62500)
I1118 18:32:19.733989  3106 net.cpp:165] Memory required for data: 997292948
I1118 18:32:19.733991  3106 layer_factory.hpp:77] Creating layer rev-dsn2
I1118 18:32:19.733995  3106 net.cpp:100] Creating Layer rev-dsn2
I1118 18:32:19.733999  3106 net.cpp:434] rev-dsn2 <- sigmoid-dsn2
I1118 18:32:19.734004  3106 net.cpp:408] rev-dsn2 -> rev-dsn2
I1118 18:32:19.734022  3106 net.cpp:150] Setting up rev-dsn2
I1118 18:32:19.734026  3106 net.cpp:157] Top shape: 1 1 250 250 (62500)
I1118 18:32:19.734028  3106 net.cpp:165] Memory required for data: 997542948
I1118 18:32:19.734030  3106 layer_factory.hpp:77] Creating layer tile-dsn2
I1118 18:32:19.734035  3106 net.cpp:100] Creating Layer tile-dsn2
I1118 18:32:19.734036  3106 net.cpp:434] tile-dsn2 <- rev-dsn2
I1118 18:32:19.734040  3106 net.cpp:408] tile-dsn2 -> weight-dsn2
I1118 18:32:19.734057  3106 net.cpp:150] Setting up tile-dsn2
I1118 18:32:19.734061  3106 net.cpp:157] Top shape: 1 128 250 250 (8000000)
I1118 18:32:19.734062  3106 net.cpp:165] Memory required for data: 1029542948
I1118 18:32:19.734066  3106 layer_factory.hpp:77] Creating layer prod1-dsn2
I1118 18:32:19.734069  3106 net.cpp:100] Creating Layer prod1-dsn2
I1118 18:32:19.734071  3106 net.cpp:434] prod1-dsn2 <- conv2_2_relu2_2_0_split_2
I1118 18:32:19.734076  3106 net.cpp:434] prod1-dsn2 <- weight-dsn2
I1118 18:32:19.734081  3106 net.cpp:408] prod1-dsn2 -> prod1-dsn2
I1118 18:32:19.734112  3106 net.cpp:150] Setting up prod1-dsn2
I1118 18:32:19.734117  3106 net.cpp:157] Top shape: 1 128 250 250 (8000000)
I1118 18:32:19.734119  3106 net.cpp:165] Memory required for data: 1061542948
I1118 18:32:19.734122  3106 layer_factory.hpp:77] Creating layer conv1-dsn2
I1118 18:32:19.734131  3106 net.cpp:100] Creating Layer conv1-dsn2
I1118 18:32:19.734133  3106 net.cpp:434] conv1-dsn2 <- prod1-dsn2
I1118 18:32:19.734138  3106 net.cpp:408] conv1-dsn2 -> conv1-dsn2
I1118 18:32:19.735904  3106 net.cpp:150] Setting up conv1-dsn2
I1118 18:32:19.735915  3106 net.cpp:157] Top shape: 1 64 250 250 (4000000)
I1118 18:32:19.735934  3106 net.cpp:165] Memory required for data: 1077542948
I1118 18:32:19.735939  3106 layer_factory.hpp:77] Creating layer conv2-dsn2
I1118 18:32:19.735949  3106 net.cpp:100] Creating Layer conv2-dsn2
I1118 18:32:19.735952  3106 net.cpp:434] conv2-dsn2 <- conv1-dsn2
I1118 18:32:19.735957  3106 net.cpp:408] conv2-dsn2 -> conv2-dsn2
I1118 18:32:19.737007  3106 net.cpp:150] Setting up conv2-dsn2
I1118 18:32:19.737018  3106 net.cpp:157] Top shape: 1 64 250 250 (4000000)
I1118 18:32:19.737036  3106 net.cpp:165] Memory required for data: 1093542948
I1118 18:32:19.737041  3106 layer_factory.hpp:77] Creating layer relu1-dsn2
I1118 18:32:19.737046  3106 net.cpp:100] Creating Layer relu1-dsn2
I1118 18:32:19.737048  3106 net.cpp:434] relu1-dsn2 <- conv2-dsn2
I1118 18:32:19.737054  3106 net.cpp:395] relu1-dsn2 -> conv2-dsn2 (in-place)
I1118 18:32:19.737136  3106 net.cpp:150] Setting up relu1-dsn2
I1118 18:32:19.737143  3106 net.cpp:157] Top shape: 1 64 250 250 (4000000)
I1118 18:32:19.737145  3106 net.cpp:165] Memory required for data: 1109542948
I1118 18:32:19.737149  3106 layer_factory.hpp:77] Creating layer conv3-dsn2
I1118 18:32:19.737156  3106 net.cpp:100] Creating Layer conv3-dsn2
I1118 18:32:19.737159  3106 net.cpp:434] conv3-dsn2 <- conv2-dsn2
I1118 18:32:19.737164  3106 net.cpp:408] conv3-dsn2 -> conv3-dsn2
I1118 18:32:19.738117  3106 net.cpp:150] Setting up conv3-dsn2
I1118 18:32:19.738127  3106 net.cpp:157] Top shape: 1 64 250 250 (4000000)
I1118 18:32:19.738145  3106 net.cpp:165] Memory required for data: 1125542948
I1118 18:32:19.738150  3106 layer_factory.hpp:77] Creating layer relu2-dsn2
I1118 18:32:19.738157  3106 net.cpp:100] Creating Layer relu2-dsn2
I1118 18:32:19.738159  3106 net.cpp:434] relu2-dsn2 <- conv3-dsn2
I1118 18:32:19.738162  3106 net.cpp:395] relu2-dsn2 -> conv3-dsn2 (in-place)
I1118 18:32:19.738242  3106 net.cpp:150] Setting up relu2-dsn2
I1118 18:32:19.738250  3106 net.cpp:157] Top shape: 1 64 250 250 (4000000)
I1118 18:32:19.738251  3106 net.cpp:165] Memory required for data: 1141542948
I1118 18:32:19.738255  3106 layer_factory.hpp:77] Creating layer conv4-dsn2
I1118 18:32:19.738262  3106 net.cpp:100] Creating Layer conv4-dsn2
I1118 18:32:19.738265  3106 net.cpp:434] conv4-dsn2 <- conv3-dsn2
I1118 18:32:19.738270  3106 net.cpp:408] conv4-dsn2 -> conv4-dsn2
I1118 18:32:19.738915  3106 net.cpp:150] Setting up conv4-dsn2
I1118 18:32:19.738926  3106 net.cpp:157] Top shape: 1 1 250 250 (62500)
I1118 18:32:19.738945  3106 net.cpp:165] Memory required for data: 1141792948
I1118 18:32:19.738950  3106 layer_factory.hpp:77] Creating layer sum-dsn2
I1118 18:32:19.738955  3106 net.cpp:100] Creating Layer sum-dsn2
I1118 18:32:19.738957  3106 net.cpp:434] sum-dsn2 <- conv4-dsn2
I1118 18:32:19.738961  3106 net.cpp:434] sum-dsn2 <- weight-dsn3-2_crop1-dsn2_0_split_1
I1118 18:32:19.738967  3106 net.cpp:408] sum-dsn2 -> sum-dsn2
I1118 18:32:19.738988  3106 net.cpp:150] Setting up sum-dsn2
I1118 18:32:19.738992  3106 net.cpp:157] Top shape: 1 1 250 250 (62500)
I1118 18:32:19.738994  3106 net.cpp:165] Memory required for data: 1142042948
I1118 18:32:19.738996  3106 layer_factory.hpp:77] Creating layer upsample2_2-dsn2
I1118 18:32:19.739002  3106 net.cpp:100] Creating Layer upsample2_2-dsn2
I1118 18:32:19.739007  3106 net.cpp:434] upsample2_2-dsn2 <- sum-dsn2
I1118 18:32:19.739010  3106 net.cpp:408] upsample2_2-dsn2 -> sum-dsn2-up
I1118 18:32:19.740191  3106 net.cpp:150] Setting up upsample2_2-dsn2
I1118 18:32:19.740202  3106 net.cpp:157] Top shape: 1 1 502 502 (252004)
I1118 18:32:19.740221  3106 net.cpp:165] Memory required for data: 1143050964
I1118 18:32:19.740226  3106 layer_factory.hpp:77] Creating layer crop2-dsn2
I1118 18:32:19.740231  3106 net.cpp:100] Creating Layer crop2-dsn2
I1118 18:32:19.740233  3106 net.cpp:434] crop2-dsn2 <- sum-dsn2-up
I1118 18:32:19.740237  3106 net.cpp:434] crop2-dsn2 <- data_data_0_split_5
I1118 18:32:19.740242  3106 net.cpp:408] crop2-dsn2 -> upscore-dsn2
I1118 18:32:19.740268  3106 net.cpp:150] Setting up crop2-dsn2
I1118 18:32:19.740274  3106 net.cpp:157] Top shape: 1 1 500 500 (250000)
I1118 18:32:19.740276  3106 net.cpp:165] Memory required for data: 1144050964
I1118 18:32:19.740278  3106 layer_factory.hpp:77] Creating layer upscore-dsn2_crop2-dsn2_0_split
I1118 18:32:19.740283  3106 net.cpp:100] Creating Layer upscore-dsn2_crop2-dsn2_0_split
I1118 18:32:19.740285  3106 net.cpp:434] upscore-dsn2_crop2-dsn2_0_split <- upscore-dsn2
I1118 18:32:19.740289  3106 net.cpp:408] upscore-dsn2_crop2-dsn2_0_split -> upscore-dsn2_crop2-dsn2_0_split_0
I1118 18:32:19.740295  3106 net.cpp:408] upscore-dsn2_crop2-dsn2_0_split -> upscore-dsn2_crop2-dsn2_0_split_1
I1118 18:32:19.740304  3106 net.cpp:408] upscore-dsn2_crop2-dsn2_0_split -> upscore-dsn2_crop2-dsn2_0_split_2
I1118 18:32:19.740363  3106 net.cpp:150] Setting up upscore-dsn2_crop2-dsn2_0_split
I1118 18:32:19.740370  3106 net.cpp:157] Top shape: 1 1 500 500 (250000)
I1118 18:32:19.740372  3106 net.cpp:157] Top shape: 1 1 500 500 (250000)
I1118 18:32:19.740376  3106 net.cpp:157] Top shape: 1 1 500 500 (250000)
I1118 18:32:19.740377  3106 net.cpp:165] Memory required for data: 1147050964
I1118 18:32:19.740381  3106 layer_factory.hpp:77] Creating layer loss2-score
I1118 18:32:19.740387  3106 net.cpp:100] Creating Layer loss2-score
I1118 18:32:19.740389  3106 net.cpp:434] loss2-score <- upscore-dsn2_crop2-dsn2_0_split_0
I1118 18:32:19.740393  3106 net.cpp:434] loss2-score <- label_data_1_split_4
I1118 18:32:19.740397  3106 net.cpp:408] loss2-score -> loss2-score
I1118 18:32:19.740594  3106 net.cpp:150] Setting up loss2-score
I1118 18:32:19.740600  3106 net.cpp:157] Top shape: (1)
I1118 18:32:19.740602  3106 net.cpp:160]     with loss weight 1
I1118 18:32:19.740607  3106 net.cpp:165] Memory required for data: 1147050968
I1118 18:32:19.740610  3106 layer_factory.hpp:77] Creating layer sigmoid-dsn1
I1118 18:32:19.740617  3106 net.cpp:100] Creating Layer sigmoid-dsn1
I1118 18:32:19.740618  3106 net.cpp:434] sigmoid-dsn1 <- upscore-dsn2_crop2-dsn2_0_split_1
I1118 18:32:19.740623  3106 net.cpp:408] sigmoid-dsn1 -> sigmoid-dsn1
I1118 18:32:19.741919  3106 net.cpp:150] Setting up sigmoid-dsn1
I1118 18:32:19.741930  3106 net.cpp:157] Top shape: 1 1 500 500 (250000)
I1118 18:32:19.741947  3106 net.cpp:165] Memory required for data: 1148050968
I1118 18:32:19.741950  3106 layer_factory.hpp:77] Creating layer rev-dsn1
I1118 18:32:19.741955  3106 net.cpp:100] Creating Layer rev-dsn1
I1118 18:32:19.741958  3106 net.cpp:434] rev-dsn1 <- sigmoid-dsn1
I1118 18:32:19.741964  3106 net.cpp:408] rev-dsn1 -> rev-dsn1
I1118 18:32:19.741986  3106 net.cpp:150] Setting up rev-dsn1
I1118 18:32:19.741991  3106 net.cpp:157] Top shape: 1 1 500 500 (250000)
I1118 18:32:19.741992  3106 net.cpp:165] Memory required for data: 1149050968
I1118 18:32:19.741994  3106 layer_factory.hpp:77] Creating layer tile-dsn1
I1118 18:32:19.741998  3106 net.cpp:100] Creating Layer tile-dsn1
I1118 18:32:19.742000  3106 net.cpp:434] tile-dsn1 <- rev-dsn1
I1118 18:32:19.742005  3106 net.cpp:408] tile-dsn1 -> weight-dsn1
I1118 18:32:19.742022  3106 net.cpp:150] Setting up tile-dsn1
I1118 18:32:19.742027  3106 net.cpp:157] Top shape: 1 64 500 500 (16000000)
I1118 18:32:19.742039  3106 net.cpp:165] Memory required for data: 1213050968
I1118 18:32:19.742041  3106 layer_factory.hpp:77] Creating layer prod1-dsn1
I1118 18:32:19.742045  3106 net.cpp:100] Creating Layer prod1-dsn1
I1118 18:32:19.742048  3106 net.cpp:434] prod1-dsn1 <- conv1_2_relu1_2_0_split_1
I1118 18:32:19.742053  3106 net.cpp:434] prod1-dsn1 <- weight-dsn1
I1118 18:32:19.742055  3106 net.cpp:408] prod1-dsn1 -> prod1-dsn1
I1118 18:32:19.742074  3106 net.cpp:150] Setting up prod1-dsn1
I1118 18:32:19.742077  3106 net.cpp:157] Top shape: 1 64 500 500 (16000000)
I1118 18:32:19.742079  3106 net.cpp:165] Memory required for data: 1277050968
I1118 18:32:19.742082  3106 layer_factory.hpp:77] Creating layer conv1-dsn1
I1118 18:32:19.742090  3106 net.cpp:100] Creating Layer conv1-dsn1
I1118 18:32:19.742094  3106 net.cpp:434] conv1-dsn1 <- prod1-dsn1
I1118 18:32:19.742100  3106 net.cpp:408] conv1-dsn1 -> conv1-dsn1
I1118 18:32:19.743638  3106 net.cpp:150] Setting up conv1-dsn1
I1118 18:32:19.743649  3106 net.cpp:157] Top shape: 1 64 500 500 (16000000)
I1118 18:32:19.743667  3106 net.cpp:165] Memory required for data: 1341050968
I1118 18:32:19.743672  3106 layer_factory.hpp:77] Creating layer conv2-dsn1
I1118 18:32:19.743698  3106 net.cpp:100] Creating Layer conv2-dsn1
I1118 18:32:19.743701  3106 net.cpp:434] conv2-dsn1 <- conv1-dsn1
I1118 18:32:19.743706  3106 net.cpp:408] conv2-dsn1 -> conv2-dsn1
I1118 18:32:19.744892  3106 net.cpp:150] Setting up conv2-dsn1
I1118 18:32:19.744904  3106 net.cpp:157] Top shape: 1 64 500 500 (16000000)
I1118 18:32:19.744921  3106 net.cpp:165] Memory required for data: 1405050968
I1118 18:32:19.744927  3106 layer_factory.hpp:77] Creating layer relu1-dsn1
I1118 18:32:19.744935  3106 net.cpp:100] Creating Layer relu1-dsn1
I1118 18:32:19.744937  3106 net.cpp:434] relu1-dsn1 <- conv2-dsn1
I1118 18:32:19.744940  3106 net.cpp:395] relu1-dsn1 -> conv2-dsn1 (in-place)
I1118 18:32:19.745012  3106 net.cpp:150] Setting up relu1-dsn1
I1118 18:32:19.745019  3106 net.cpp:157] Top shape: 1 64 500 500 (16000000)
I1118 18:32:19.745021  3106 net.cpp:165] Memory required for data: 1469050968
I1118 18:32:19.745024  3106 layer_factory.hpp:77] Creating layer conv3-dsn1
I1118 18:32:19.745033  3106 net.cpp:100] Creating Layer conv3-dsn1
I1118 18:32:19.745035  3106 net.cpp:434] conv3-dsn1 <- conv2-dsn1
I1118 18:32:19.745041  3106 net.cpp:408] conv3-dsn1 -> conv3-dsn1
I1118 18:32:19.746853  3106 net.cpp:150] Setting up conv3-dsn1
I1118 18:32:19.746865  3106 net.cpp:157] Top shape: 1 64 500 500 (16000000)
I1118 18:32:19.746882  3106 net.cpp:165] Memory required for data: 1533050968
I1118 18:32:19.746887  3106 layer_factory.hpp:77] Creating layer relu2-dsn1
I1118 18:32:19.746894  3106 net.cpp:100] Creating Layer relu2-dsn1
I1118 18:32:19.746897  3106 net.cpp:434] relu2-dsn1 <- conv3-dsn1
I1118 18:32:19.746901  3106 net.cpp:395] relu2-dsn1 -> conv3-dsn1 (in-place)
I1118 18:32:19.747072  3106 net.cpp:150] Setting up relu2-dsn1
I1118 18:32:19.747082  3106 net.cpp:157] Top shape: 1 64 500 500 (16000000)
I1118 18:32:19.747084  3106 net.cpp:165] Memory required for data: 1597050968
I1118 18:32:19.747087  3106 layer_factory.hpp:77] Creating layer conv4-dsn1
I1118 18:32:19.747095  3106 net.cpp:100] Creating Layer conv4-dsn1
I1118 18:32:19.747098  3106 net.cpp:434] conv4-dsn1 <- conv3-dsn1
I1118 18:32:19.747105  3106 net.cpp:408] conv4-dsn1 -> conv4-dsn1
I1118 18:32:19.747859  3106 net.cpp:150] Setting up conv4-dsn1
I1118 18:32:19.747869  3106 net.cpp:157] Top shape: 1 1 500 500 (250000)
I1118 18:32:19.747887  3106 net.cpp:165] Memory required for data: 1598050968
I1118 18:32:19.747892  3106 layer_factory.hpp:77] Creating layer sum-dsn1
I1118 18:32:19.747897  3106 net.cpp:100] Creating Layer sum-dsn1
I1118 18:32:19.747900  3106 net.cpp:434] sum-dsn1 <- conv4-dsn1
I1118 18:32:19.747903  3106 net.cpp:434] sum-dsn1 <- upscore-dsn2_crop2-dsn2_0_split_2
I1118 18:32:19.747910  3106 net.cpp:408] sum-dsn1 -> sum-dsn1
I1118 18:32:19.747934  3106 net.cpp:150] Setting up sum-dsn1
I1118 18:32:19.747938  3106 net.cpp:157] Top shape: 1 1 500 500 (250000)
I1118 18:32:19.747941  3106 net.cpp:165] Memory required for data: 1599050968
I1118 18:32:19.747942  3106 layer_factory.hpp:77] Creating layer crop2-dsn1
I1118 18:32:19.747946  3106 net.cpp:100] Creating Layer crop2-dsn1
I1118 18:32:19.747948  3106 net.cpp:434] crop2-dsn1 <- sum-dsn1
I1118 18:32:19.747951  3106 net.cpp:434] crop2-dsn1 <- data_data_0_split_6
I1118 18:32:19.747956  3106 net.cpp:408] crop2-dsn1 -> upscore-dsn1
I1118 18:32:19.747985  3106 net.cpp:150] Setting up crop2-dsn1
I1118 18:32:19.747994  3106 net.cpp:157] Top shape: 1 1 500 500 (250000)
I1118 18:32:19.747997  3106 net.cpp:165] Memory required for data: 1600050968
I1118 18:32:19.747999  3106 layer_factory.hpp:77] Creating layer loss1-score
I1118 18:32:19.748005  3106 net.cpp:100] Creating Layer loss1-score
I1118 18:32:19.748008  3106 net.cpp:434] loss1-score <- upscore-dsn1
I1118 18:32:19.748011  3106 net.cpp:434] loss1-score <- label_data_1_split_5
I1118 18:32:19.748016  3106 net.cpp:408] loss1-score -> loss1-score
…
