…
I1125 10:34:32.953490 17451 net.cpp:58] Initializing net from parameters: 
name: "RAS"
state {
  phase: TRAIN
}
layer {
  name: "data"
  type: "ImageLabelmapData"
  top: "data_unaugmented"
  top: "label_unaugmented"
  include {
    phase: TRAIN
  }
  transform_param {
    mean_value: 104.00699
    mean_value: 116.66877
    mean_value: 122.67892
  }
  image_data_param {
    source: "/media/compute/homes/galberding/FleckDetect/Datasets/train.txt"
    batch_size: 1
    shuffle: true
    new_height: 500
    new_width: 500
    root_folder: "/media/compute/homes/galberding/FleckDetect/Datasets/"
    normalize: true
  }
}
layer {
  name: "augmentation"
  type: "Python"
  bottom: "data_unaugmented"
  bottom: "label_unaugmented"
  top: "data"
  top: "label"
  include {
    phase: TRAIN
  }
  python_param {
    module: "data_augmentation"
    layer: "DataAugmentation"
  }
}
layer {
  name: "conv1_1"
  type: "Convolution"
  bottom: "data"
  top: "conv1_1"
  param {
    lr_mult: 1
    decay_mult: 1
  }
  param {
    lr_mult: 2
    decay_mult: 0
  }
  convolution_param {
    num_output: 64
    pad: 1
    kernel_size: 3
    engine: CUDNN
  }
}
layer {
  name: "relu1_1"
  type: "ReLU"
  bottom: "conv1_1"
  top: "conv1_1"
}
layer {
  name: "conv1_2"
  type: "Convolution"
  bottom: "conv1_1"
  top: "conv1_2"
  param {
    lr_mult: 1
    decay_mult: 1
  }
  param {
    lr_mult: 2
    decay_mult: 0
  }
  convolution_param {
    num_output: 64
    pad: 1
    kernel_size: 3
    engine: CUDNN
  }
}
layer {
  name: "relu1_2"
  type: "ReLU"
  bottom: "conv1_2"
  top: "conv1_2"
}
layer {
  name: "pool1"
  type: "Pooling"
  bottom: "conv1_2"
  top: "pool1"
  pooling_param {
    pool: MAX
    kernel_size: 2
    stride: 2
  }
}
layer {
  name: "conv2_1"
  type: "Convolution"
  bottom: "pool1"
  top: "conv2_1"
  param {
    lr_mult: 1
    decay_mult: 1
  }
  param {
    lr_mult: 2
    decay_mult: 0
  }
  convolution_param {
    num_output: 128
    pad: 1
    kernel_size: 3
    engine: CUDNN
  }
}
layer {
  name: "relu2_1"
  type: "ReLU"
  bottom: "conv2_1"
  top: "conv2_1"
}
layer {
  name: "conv2_2"
  type: "Convolution"
  bottom: "conv2_1"
  top: "conv2_2"
  param {
    lr_mult: 1
    decay_mult: 1
  }
  param {
    lr_mult: 2
    decay_mult: 0
  }
  convolution_param {
    num_output: 128
    pad: 1
    kernel_size: 3
    engine: CUDNN
  }
}
layer {
  name: "relu2_2"
  type: "ReLU"
  bottom: "conv2_2"
  top: "conv2_2"
}
layer {
  name: "pool2"
  type: "Pooling"
  bottom: "conv2_2"
  top: "pool2"
  pooling_param {
    pool: MAX
    kernel_size: 2
    stride: 2
  }
}
layer {
  name: "conv3_1"
  type: "Convolution"
  bottom: "pool2"
  top: "conv3_1"
  param {
    lr_mult: 1
    decay_mult: 1
  }
  param {
    lr_mult: 2
    decay_mult: 0
  }
  convolution_param {
    num_output: 256
    pad: 1
    kernel_size: 3
    engine: CUDNN
  }
}
layer {
  name: "relu3_1"
  type: "ReLU"
  bottom: "conv3_1"
  top: "conv3_1"
}
layer {
  name: "conv3_2"
  type: "Convolution"
  bottom: "conv3_1"
  top: "conv3_2"
  param {
    lr_mult: 1
    decay_mult: 1
  }
  param {
    lr_mult: 2
    decay_mult: 0
  }
  convolution_param {
    num_output: 256
    pad: 1
    kernel_size: 3
    engine: CUDNN
  }
}
layer {
  name: "relu3_2"
  type: "ReLU"
  bottom: "conv3_2"
  top: "conv3_2"
}
layer {
  name: "conv3_3"
  type: "Convolution"
  bottom: "conv3_2"
  top: "conv3_3"
  param {
    lr_mult: 1
    decay_mult: 1
  }
  param {
    lr_mult: 2
    decay_mult: 0
  }
  convolution_param {
    num_output: 256
    pad: 1
    kernel_size: 3
    engine: CUDNN
  }
}
layer {
  name: "relu3_3"
  type: "ReLU"
  bottom: "conv3_3"
  top: "conv3_3"
}
layer {
  name: "pool3"
  type: "Pooling"
  bottom: "conv3_3"
  top: "pool3"
  pooling_param {
    pool: MAX
    kernel_size: 2
    stride: 2
  }
}
layer {
  name: "conv4_1"
  type: "Convolution"
  bottom: "pool3"
  top: "conv4_1"
  param {
    lr_mult: 1
    decay_mult: 1
  }
  param {
    lr_mult: 2
    decay_mult: 0
  }
  convolution_param {
    num_output: 512
    pad: 1
    kernel_size: 3
    engine: CUDNN
  }
}
layer {
  name: "relu4_1"
  type: "ReLU"
  bottom: "conv4_1"
  top: "conv4_1"
}
layer {
  name: "conv4_2"
  type: "Convolution"
  bottom: "conv4_1"
  top: "conv4_2"
  param {
    lr_mult: 1
    decay_mult: 1
  }
  param {
    lr_mult: 2
    decay_mult: 0
  }
  convolution_param {
    num_output: 512
    pad: 1
    kernel_size: 3
    engine: CUDNN
  }
}
layer {
  name: "relu4_2"
  type: "ReLU"
  bottom: "conv4_2"
  top: "conv4_2"
}
layer {
  name: "conv4_3"
  type: "Convolution"
  bottom: "conv4_2"
  top: "conv4_3"
  param {
    lr_mult: 1
    decay_mult: 1
  }
  param {
    lr_mult: 2
    decay_mult: 0
  }
  convolution_param {
    num_output: 512
    pad: 1
    kernel_size: 3
    engine: CUDNN
  }
}
layer {
  name: "relu4_3"
  type: "ReLU"
  bottom: "conv4_3"
  top: "conv4_3"
}
layer {
  name: "pool4"
  type: "Pooling"
  bottom: "conv4_3"
  top: "pool4"
  pooling_param {
    pool: MAX
    kernel_size: 3
    stride: 2
    pad: 1
  }
}
layer {
  name: "conv5_1"
  type: "Convolution"
  bottom: "pool4"
  top: "conv5_1"
  param {
    lr_mult: 1
    decay_mult: 1
  }
  param {
    lr_mult: 2
    decay_mult: 0
  }
  convolution_param {
    num_output: 512
    pad: 1
    kernel_size: 3
    engine: CUDNN
  }
}
layer {
  name: "relu5_1"
  type: "ReLU"
  bottom: "conv5_1"
  top: "conv5_1"
}
layer {
  name: "conv5_2"
  type: "Convolution"
  bottom: "conv5_1"
  top: "conv5_2"
  param {
    lr_mult: 1
    decay_mult: 1
  }
  param {
    lr_mult: 2
    decay_mult: 0
  }
  convolution_param {
    num_output: 512
    pad: 1
    kernel_size: 3
    engine: CUDNN
  }
}
layer {
  name: "relu5_2"
  type: "ReLU"
  bottom: "conv5_2"
  top: "conv5_2"
}
layer {
  name: "conv5_3"
  type: "Convolution"
  bottom: "conv5_2"
  top: "conv5_3"
  param {
    lr_mult: 1
    decay_mult: 1
  }
  param {
    lr_mult: 2
    decay_mult: 0
  }
  convolution_param {
    num_output: 512
    pad: 1
    kernel_size: 3
    engine: CUDNN
  }
}
layer {
  name: "relu5_3"
  type: "ReLU"
  bottom: "conv5_3"
  top: "conv5_3"
}
layer {
  name: "pool5"
  type: "Pooling"
  bottom: "conv5_3"
  top: "pool5"
  pooling_param {
    pool: MAX
    kernel_size: 3
    stride: 2
    pad: 1
  }
}
layer {
  name: "conv1-dsn6"
  type: "Convolution"
  bottom: "pool5"
  top: "conv1-dsn6"
  param {
    lr_mult: 1
    decay_mult: 1
  }
  param {
    lr_mult: 2
    decay_mult: 0
  }
  convolution_param {
    num_output: 256
    kernel_size: 1
    weight_filler {
      type: "gaussian"
      std: 0.01
    }
    bias_filler {
      type: "constant"
      value: 0
    }
    engine: CUDNN
  }
}
layer {
  name: "conv2-dsn6"
  type: "Convolution"
  bottom: "conv1-dsn6"
  top: "conv2-dsn6"
  param {
    lr_mult: 1
    decay_mult: 1
  }
  param {
    lr_mult: 2
    decay_mult: 0
  }
  convolution_param {
    num_output: 256
    pad: 2
    kernel_size: 5
    weight_filler {
      type: "gaussian"
      std: 0.01
    }
    bias_filler {
      type: "constant"
      value: 0
    }
    engine: CUDNN
  }
}
layer {
  name: "relu1-dsn6"
  type: "ReLU"
  bottom: "conv2-dsn6"
  top: "conv2-dsn6"
}
layer {
  name: "conv3-dsn6"
  type: "Convolution"
  bottom: "conv2-dsn6"
  top: "conv3-dsn6"
  param {
    lr_mult: 1
    decay_mult: 1
  }
  param {
    lr_mult: 2
    decay_mult: 0
  }
  convolution_param {
    num_output: 256
    pad: 2
    kernel_size: 5
    weight_filler {
      type: "gaussian"
      std: 0.01
    }
    bias_filler {
      type: "constant"
      value: 0
    }
    engine: CUDNN
  }
}
layer {
  name: "relu2-dsn6"
  type: "ReLU"
  bottom: "conv3-dsn6"
  top: "conv3-dsn6"
}
layer {
  name: "conv4-dsn6"
  type: "Convolution"
  bottom: "conv3-dsn6"
  top: "conv4-dsn6"
  param {
    lr_mult: 1
    decay_mult: 1
  }
  param {
    lr_mult: 2
    decay_mult: 0
  }
  convolution_param {
    num_output: 256
    pad: 2
    kernel_size: 5
    weight_filler {
      type: "gaussian"
      std: 0.01
    }
    bias_filler {
      type: "constant"
      value: 0
    }
    engine: CUDNN
  }
}
layer {
  name: "relu3-dsn6"
  type: "ReLU"
  bottom: "conv4-dsn6"
  top: "conv4-dsn6"
}
layer {
  name: "conv5-dsn6"
  type: "Convolution"
  bottom: "conv4-dsn6"
  top: "conv5-dsn6"
  param {
    lr_mult: 0.1
    decay_mult: 1
  }
  param {
    lr_mult: 0.2
    decay_mult: 0
  }
  convolution_param {
    num_output: 1
    kernel_size: 1
    weight_filler {
      type: "gaussian"
      std: 0.01
    }
    bias_filler {
      type: "constant"
      value: 0
    }
    engine: CUDNN
  }
}
layer {
  name: "upsample32_dsn6"
  type: "Deconvolution"
  bottom: "conv5-dsn6"
  top: "conv5-dsn6-up"
  param {
    lr_mult: 0
    decay_mult: 1
  }
  param {
    lr_mult: 0
    decay_mult: 0
  }
  convolution_param {
    num_output: 1
    kernel_size: 64
    stride: 32
  }
}
layer {
  name: "crop-dsn6"
  type: "Crop"
  bottom: "conv5-dsn6-up"
  bottom: "data"
  top: "upscore-dsn6"
}
layer {
  name: "loss6-score"
  type: "SigmoidCrossEntropyLoss"
  bottom: "upscore-dsn6"
  bottom: "label"
  top: "loss6-score"
  loss_weight: 1
}
layer {
  name: "upsample2_dsn5"
  type: "Deconvolution"
  bottom: "conv5-dsn6"
  top: "conv5-dsn6-5"
  param {
    lr_mult: 0
    decay_mult: 1
  }
  param {
    lr_mult: 0
    decay_mult: 0
  }
  convolution_param {
    num_output: 1
    kernel_size: 4
    stride: 2
  }
}
layer {
  name: "crop1-dsn5"
  type: "Crop"
  bottom: "conv5-dsn6-5"
  bottom: "conv5_3"
  top: "weight-dsn6-5"
}
layer {
  name: "sigmoid-dsn5"
  type: "Sigmoid"
  bottom: "weight-dsn6-5"
  top: "sigmoid-dsn5"
}
layer {
  name: "rev-dsn5"
  type: "Power"
  bottom: "sigmoid-dsn5"
  top: "rev-dsn5"
  power_param {
    power: 1
    scale: -1
    shift: 1
  }
}
layer {
  name: "tile-dsn5"
  type: "Tile"
  bottom: "rev-dsn5"
  top: "weight-dsn5"
  tile_param {
    tiles: 512
  }
}
layer {
  name: "prod1-dsn5"
  type: "Eltwise"
  bottom: "conv5_3"
  bottom: "weight-dsn5"
  top: "prod1-dsn5"
  eltwise_param {
    operation: PROD
  }
}
layer {
  name: "conv1-dsn5"
  type: "Convolution"
  bottom: "prod1-dsn5"
  top: "conv1-dsn5"
  param {
    lr_mult: 1
    decay_mult: 1
  }
  param {
    lr_mult: 2
    decay_mult: 0
  }
  convolution_param {
    num_output: 64
    kernel_size: 1
    weight_filler {
      type: "gaussian"
      std: 0.01
    }
    bias_filler {
      type: "constant"
      value: 0
    }
    engine: CUDNN
  }
}
layer {
  name: "conv2-dsn5"
  type: "Convolution"
  bottom: "conv1-dsn5"
  top: "conv2-dsn5"
  param {
    lr_mult: 1
    decay_mult: 1
  }
  param {
    lr_mult: 2
    decay_mult: 0
  }
  convolution_param {
    num_output: 64
    pad: 1
    kernel_size: 3
    weight_filler {
      type: "gaussian"
      std: 0.01
    }
    bias_filler {
      type: "constant"
      value: 0
    }
    engine: CUDNN
  }
}
layer {
  name: "relu1-dsn5"
  type: "ReLU"
  bottom: "conv2-dsn5"
  top: "conv2-dsn5"
}
layer {
  name: "conv3-dsn5"
  type: "Convolution"
  bottom: "conv2-dsn5"
  top: "conv3-dsn5"
  param {
    lr_mult: 1
    decay_mult: 1
  }
  param {
    lr_mult: 2
    decay_mult: 0
  }
  convolution_param {
    num_output: 64
    pad: 1
    kernel_size: 3
    weight_filler {
      type: "gaussian"
      std: 0.01
    }
    bias_filler {
      type: "constant"
      value: 0
    }
    engine: CUDNN
  }
}
layer {
  name: "relu2-dsn5"
  type: "ReLU"
  bottom: "conv3-dsn5"
  top: "conv3-dsn5"
}
layer {
  name: "conv4-dsn5"
  type: "Convolution"
  bottom: "conv3-dsn5"
  top: "conv4-dsn5"
  param {
    lr_mult: 1
    decay_mult: 1
  }
  param {
    lr_mult: 2
    decay_mult: 0
  }
  convolution_param {
    num_output: 1
    pad: 1
    kernel_size: 3
    weight_filler {
      type: "gaussian"
      std: 0.01
    }
    bias_filler {
      type: "constant"
      value: 0
    }
    engine: CUDNN
  }
}
layer {
  name: "sum-dsn5"
  type: "Eltwise"
  bottom: "conv4-dsn5"
  bottom: "weight-dsn6-5"
  top: "sum-dsn5"
  eltwise_param {
    operation: SUM
  }
}
layer {
  name: "upsample16_dsn5"
  type: "Deconvolution"
  bottom: "sum-dsn5"
  top: "sum-dsn5-up"
  param {
    lr_mult: 0
    decay_mult: 1
  }
  param {
    lr_mult: 0
    decay_mult: 0
  }
  convolution_param {
    num_output: 1
    kernel_size: 32
    stride: 16
  }
}
layer {
  name: "crop2-dsn5"
  type: "Crop"
  bottom: "sum-dsn5-up"
  bottom: "data"
  top: "upscore-dsn5"
}
layer {
  name: "loss5-score"
  type: "SigmoidCrossEntropyLoss"
  bottom: "upscore-dsn5"
  bottom: "label"
  top: "loss5-score"
  loss_weight: 1
}
layer {
  name: "upsample2_dsn4"
  type: "Deconvolution"
  bottom: "sum-dsn5"
  top: "sum-dsn5-4"
  param {
    lr_mult: 0
    decay_mult: 1
  }
  param {
    lr_mult: 0
    decay_mult: 0
  }
  convolution_param {
    num_output: 1
    kernel_size: 4
    stride: 2
  }
}
layer {
  name: "crop1-dsn4"
  type: "Crop"
  bottom: "sum-dsn5-4"
  bottom: "conv4_3"
  top: "weight-dsn5-4"
}
layer {
  name: "sigmoid-dsn4"
  type: "Sigmoid"
  bottom: "weight-dsn5-4"
  top: "sigmoid-dsn4"
}
layer {
  name: "rev-dsn4"
  type: "Power"
  bottom: "sigmoid-dsn4"
  top: "rev-dsn4"
  power_param {
    power: 1
    scale: -1
    shift: 1
  }
}
layer {
  name: "tile-dsn4"
  type: "Tile"
  bottom: "rev-dsn4"
  top: "weight-dsn4"
  tile_param {
    tiles: 512
  }
}
layer {
  name: "prod1-dsn4"
  type: "Eltwise"
  bottom: "conv4_3"
  bottom: "weight-dsn4"
  top: "prod1-dsn4"
  eltwise_param {
    operation: PROD
  }
}
layer {
  name: "conv1-dsn4"
  type: "Convolution"
  bottom: "prod1-dsn4"
  top: "conv1-dsn4"
  param {
    lr_mult: 1
    decay_mult: 1
  }
  param {
    lr_mult: 2
    decay_mult: 0
  }
  convolution_param {
    num_output: 64
    kernel_size: 1
    weight_filler {
      type: "gaussian"
      std: 0.01
    }
    bias_filler {
      type: "constant"
      value: 0
    }
    engine: CUDNN
  }
}
layer {
  name: "conv2-dsn4"
  type: "Convolution"
  bottom: "conv1-dsn4"
  top: "conv2-dsn4"
  param {
    lr_mult: 1
    decay_mult: 1
  }
  param {
    lr_mult: 2
    decay_mult: 0
  }
  convolution_param {
    num_output: 64
    pad: 1
    kernel_size: 3
    weight_filler {
      type: "gaussian"
      std: 0.01
    }
    bias_filler {
      type: "constant"
      value: 0
    }
    engine: CUDNN
  }
}
layer {
  name: "relu1-dsn4"
  type: "ReLU"
  bottom: "conv2-dsn4"
  top: "conv2-dsn4"
}
layer {
  name: "conv3-dsn4"
  type: "Convolution"
  bottom: "conv2-dsn4"
  top: "conv3-dsn4"
  param {
    lr_mult: 1
    decay_mult: 1
  }
  param {
    lr_mult: 2
    decay_mult: 0
  }
  convolution_param {
    num_output: 64
    pad: 1
    kernel_size: 3
    weight_filler {
      type: "gaussian"
      std: 0.01
    }
    bias_filler {
      type: "constant"
      value: 0
    }
    engine: CUDNN
  }
}
layer {
  name: "relu2-dsn4"
  type: "ReLU"
  bottom: "conv3-dsn4"
  top: "conv3-dsn4"
}
layer {
  name: "conv4-dsn4"
  type: "Convolution"
  bottom: "conv3-dsn4"
  top: "conv4-dsn4"
  param {
    lr_mult: 1
    decay_mult: 1
  }
  param {
    lr_mult: 2
    decay_mult: 0
  }
  convolution_param {
    num_output: 1
    pad: 1
    kernel_size: 3
    weight_filler {
      type: "gaussian"
      std: 0.01
    }
    bias_filler {
      type: "constant"
      value: 0
    }
    engine: CUDNN
  }
}
layer {
  name: "sum-dsn4"
  type: "Eltwise"
  bottom: "conv4-dsn4"
  bottom: "weight-dsn5-4"
  top: "sum-dsn4"
  eltwise_param {
    operation: SUM
  }
}
layer {
  name: "upsample8_dsn4"
  type: "Deconvolution"
  bottom: "sum-dsn4"
  top: "sum-dsn4-up"
  param {
    lr_mult: 0
    decay_mult: 1
  }
  param {
    lr_mult: 0
    decay_mult: 0
  }
  convolution_param {
    num_output: 1
    kernel_size: 16
    stride: 8
  }
}
layer {
  name: "crop2-dsn4"
  type: "Crop"
  bottom: "sum-dsn4-up"
  bottom: "data"
  top: "upscore-dsn4"
}
layer {
  name: "loss4-score"
  type: "SigmoidCrossEntropyLoss"
  bottom: "upscore-dsn4"
  bottom: "label"
  top: "loss4-score"
  loss_weight: 1
}
layer {
  name: "upsample2_dsn3"
  type: "Deconvolution"
  bottom: "sum-dsn4"
  top: "sum-dsn4-3"
  param {
    lr_mult: 0
    decay_mult: 1
  }
  param {
    lr_mult: 0
    decay_mult: 0
  }
  convolution_param {
    num_output: 1
    kernel_size: 4
    stride: 2
  }
}
layer {
  name: "crop1-dsn3"
  type: "Crop"
  bottom: "sum-dsn4-3"
  bottom: "conv3_3"
  top: "weight-dsn4-3"
}
layer {
  name: "sigmoid-dsn3"
  type: "Sigmoid"
  bottom: "weight-dsn4-3"
  top: "sigmoid-dsn3"
}
layer {
  name: "rev-dsn3"
  type: "Power"
  bottom: "sigmoid-dsn3"
  top: "rev-dsn3"
  power_param {
    power: 1
    scale: -1
    shift: 1
  }
}
layer {
  name: "tile-dsn3"
  type: "Tile"
  bottom: "rev-dsn3"
  top: "weight-dsn3"
  tile_param {
    tiles: 256
  }
}
layer {
  name: "prod1-dsn3"
  type: "Eltwise"
  bottom: "conv3_3"
  bottom: "weight-dsn3"
  top: "prod1-dsn3"
  eltwise_param {
    operation: PROD
  }
}
layer {
  name: "conv1-dsn3"
  type: "Convolution"
  bottom: "prod1-dsn3"
  top: "conv1-dsn3"
  param {
    lr_mult: 1
    decay_mult: 1
  }
  param {
    lr_mult: 2
    decay_mult: 0
  }
  convolution_param {
    num_output: 64
    kernel_size: 1
    weight_filler {
      type: "gaussian"
      std: 0.01
    }
    bias_filler {
      type: "constant"
      value: 0
    }
    engine: CUDNN
  }
}
layer {
  name: "conv2-dsn3"
  type: "Convolution"
  bottom: "conv1-dsn3"
  top: "conv2-dsn3"
  param {
    lr_mult: 1
    decay_mult: 1
  }
  param {
    lr_mult: 2
    decay_mult: 0
  }
  convolution_param {
    num_output: 64
    pad: 1
    kernel_size: 3
    weight_filler {
      type: "gaussian"
      std: 0.01
    }
    bias_filler {
      type: "constant"
      value: 0
    }
    engine: CUDNN
  }
}
layer {
  name: "relu1-dsn3"
  type: "ReLU"
  bottom: "conv2-dsn3"
  top: "conv2-dsn3"
}
layer {
  name: "conv3-dsn3"
  type: "Convolution"
  bottom: "conv2-dsn3"
  top: "conv3-dsn3"
  param {
    lr_mult: 1
    decay_mult: 1
  }
  param {
    lr_mult: 2
    decay_mult: 0
  }
  convolution_param {
    num_output: 64
    pad: 1
    kernel_size: 3
    weight_filler {
      type: "gaussian"
      std: 0.01
    }
    bias_filler {
      type: "constant"
      value: 0
    }
    engine: CUDNN
  }
}
layer {
  name: "relu2-dsn3"
  type: "ReLU"
  bottom: "conv3-dsn3"
  top: "conv3-dsn3"
}
layer {
  name: "conv4-dsn3"
  type: "Convolution"
  bottom: "conv3-dsn3"
  top: "conv4-dsn3"
  param {
    lr_mult: 1
    decay_mult: 1
  }
  param {
    lr_mult: 2
    decay_mult: 0
  }
  convolution_param {
    num_output: 1
    pad: 1
    kernel_size: 3
    weight_filler {
      type: "gaussian"
      std: 0.01
    }
    bias_filler {
      type: "constant"
      value: 0
    }
    engine: CUDNN
  }
}
layer {
  name: "sum-dsn3"
  type: "Eltwise"
  bottom: "conv4-dsn3"
  bottom: "weight-dsn4-3"
  top: "sum-dsn3"
  eltwise_param {
    operation: SUM
  }
}
layer {
  name: "upsample4_dsn3"
  type: "Deconvolution"
  bottom: "sum-dsn3"
  top: "sum-dsn3-up"
  param {
    lr_mult: 0
    decay_mult: 1
  }
  param {
    lr_mult: 0
    decay_mult: 0
  }
  convolution_param {
    num_output: 1
    kernel_size: 8
    stride: 4
  }
}
layer {
  name: "crop2-dsn3"
  type: "Crop"
  bottom: "sum-dsn3-up"
  bottom: "data"
  top: "upscore-dsn3"
}
layer {
  name: "loss3-score"
  type: "SigmoidCrossEntropyLoss"
  bottom: "upscore-dsn3"
  bottom: "label"
  top: "loss3-score"
  loss_weight: 1
}
layer {
  name: "upsample2_1-dsn2"
  type: "Deconvolution"
  bottom: "sum-dsn3"
  top: "sum-dsn3-2"
  param {
    lr_mult: 0
    decay_mult: 1
  }
  param {
    lr_mult: 0
    decay_mult: 0
  }
  convolution_param {
    num_output: 1
    kernel_size: 4
    stride: 2
  }
}
layer {
  name: "crop1-dsn2"
  type: "Crop"
  bottom: "sum-dsn3-2"
  bottom: "conv2_2"
  top: "weight-dsn3-2"
}
layer {
  name: "sigmoid-dsn2"
  type: "Sigmoid"
  bottom: "weight-dsn3-2"
  top: "sigmoid-dsn2"
}
layer {
  name: "rev-dsn2"
  type: "Power"
  bottom: "sigmoid-dsn2"
  top: "rev-dsn2"
  power_param {
    power: 1
    scale: -1
    shift: 1
  }
}
layer {
  name: "tile-dsn2"
  type: "Tile"
  bottom: "rev-dsn2"
  top: "weight-dsn2"
  tile_param {
    tiles: 128
  }
}
layer {
  name: "prod1-dsn2"
  type: "Eltwise"
  bottom: "conv2_2"
  bottom: "weight-dsn2"
  top: "prod1-dsn2"
  eltwise_param {
    operation: PROD
  }
}
layer {
  name: "conv1-dsn2"
  type: "Convolution"
  bottom: "prod1-dsn2"
  top: "conv1-dsn2"
  param {
    lr_mult: 1
    decay_mult: 1
  }
  param {
    lr_mult: 2
    decay_mult: 0
  }
  convolution_param {
    num_output: 64
    kernel_size: 1
    weight_filler {
      type: "gaussian"
      std: 0.01
    }
    bias_filler {
      type: "constant"
      value: 0
    }
    engine: CUDNN
  }
}
layer {
  name: "conv2-dsn2"
  type: "Convolution"
  bottom: "conv1-dsn2"
  top: "conv2-dsn2"
  param {
    lr_mult: 1
    decay_mult: 1
  }
  param {
    lr_mult: 2
    decay_mult: 0
  }
  convolution_param {
    num_output: 64
    pad: 1
    kernel_size: 3
    weight_filler {
      type: "gaussian"
      std: 0.01
    }
    bias_filler {
      type: "constant"
      value: 0
    }
    engine: CUDNN
  }
}
layer {
  name: "relu1-dsn2"
  type: "ReLU"
  bottom: "conv2-dsn2"
  top: "conv2-dsn2"
}
layer {
  name: "conv3-dsn2"
  type: "Convolution"
  bottom: "conv2-dsn2"
  top: "conv3-dsn2"
  param {
    lr_mult: 1
    decay_mult: 1
  }
  param {
    lr_mult: 2
    decay_mult: 0
  }
  convolution_param {
    num_output: 64
    pad: 1
    kernel_size: 3
    weight_filler {
      type: "gaussian"
      std: 0.01
    }
    bias_filler {
      type: "constant"
      value: 0
    }
    engine: CUDNN
  }
}
layer {
  name: "relu2-dsn2"
  type: "ReLU"
  bottom: "conv3-dsn2"
  top: "conv3-dsn2"
}
layer {
  name: "conv4-dsn2"
  type: "Convolution"
  bottom: "conv3-dsn2"
  top: "conv4-dsn2"
  param {
    lr_mult: 1
    decay_mult: 1
  }
  param {
    lr_mult: 2
    decay_mult: 0
  }
  convolution_param {
    num_output: 1
    pad: 1
    kernel_size: 3
    weight_filler {
      type: "gaussian"
      std: 0.01
    }
    bias_filler {
      type: "constant"
      value: 0
    }
    engine: CUDNN
  }
}
layer {
  name: "sum-dsn2"
  type: "Eltwise"
  bottom: "conv4-dsn2"
  bottom: "weight-dsn3-2"
  top: "sum-dsn2"
  eltwise_param {
    operation: SUM
  }
}
layer {
  name: "upsample2_2-dsn2"
  type: "Deconvolution"
  bottom: "sum-dsn2"
  top: "sum-dsn2-up"
  param {
    lr_mult: 0
    decay_mult: 1
  }
  param {
    lr_mult: 0
    decay_mult: 0
  }
  convolution_param {
    num_output: 1
    kernel_size: 4
    stride: 2
  }
}
layer {
  name: "crop2-dsn2"
  type: "Crop"
  bottom: "sum-dsn2-up"
  bottom: "data"
  top: "upscore-dsn2"
}
layer {
  name: "loss2-score"
  type: "SigmoidCrossEntropyLoss"
  bottom: "upscore-dsn2"
  bottom: "label"
  top: "loss2-score"
  loss_weight: 1
}
layer {
  name: "sigmoid-dsn1"
  type: "Sigmoid"
  bottom: "upscore-dsn2"
  top: "sigmoid-dsn1"
}
layer {
  name: "rev-dsn1"
  type: "Power"
  bottom: "sigmoid-dsn1"
  top: "rev-dsn1"
  power_param {
    power: 1
    scale: -1
    shift: 1
  }
}
layer {
  name: "tile-dsn1"
  type: "Tile"
  bottom: "rev-dsn1"
  top: "weight-dsn1"
  tile_param {
    tiles: 64
  }
}
layer {
  name: "prod1-dsn1"
  type: "Eltwise"
  bottom: "conv1_2"
  bottom: "weight-dsn1"
  top: "prod1-dsn1"
  eltwise_param {
    operation: PROD
  }
}
layer {
  name: "conv1-dsn1"
  type: "Convolution"
  bottom: "prod1-dsn1"
  top: "conv1-dsn1"
  param {
    lr_mult: 1
    decay_mult: 1
  }
  param {
    lr_mult: 2
    decay_mult: 0
  }
  convolution_param {
    num_output: 64
    kernel_size: 1
    weight_filler {
      type: "gaussian"
      std: 0.01
    }
    bias_filler {
      type: "constant"
      value: 0
    }
    engine: CUDNN
  }
}
layer {
  name: "conv2-dsn1"
  type: "Convolution"
  bottom: "conv1-dsn1"
  top: "conv2-dsn1"
  param {
    lr_mult: 1
    decay_mult: 1
  }
  param {
    lr_mult: 2
    decay_mult: 0
  }
  convolution_param {
    num_output: 64
    pad: 1
    kernel_size: 3
    weight_filler {
      type: "gaussian"
      std: 0.01
    }
    bias_filler {
      type: "constant"
      value: 0
    }
    engine: CUDNN
  }
}
layer {
  name: "relu1-dsn1"
  type: "ReLU"
  bottom: "conv2-dsn1"
  top: "conv2-dsn1"
}
layer {
  name: "conv3-dsn1"
  type: "Convolution"
  bottom: "conv2-dsn1"
  top: "conv3-dsn1"
  param {
    lr_mult: 1
    decay_mult: 1
  }
  param {
    lr_mult: 2
    decay_mult: 0
  }
  convolution_param {
    num_output: 64
    pad: 1
    kernel_size: 3
    weight_filler {
      type: "gaussian"
      std: 0.01
    }
    bias_filler {
      type: "constant"
      value: 0
    }
    engine: CUDNN
  }
}
layer {
  name: "relu2-dsn1"
  type: "ReLU"
  bottom: "conv3-dsn1"
  top: "conv3-dsn1"
}
layer {
  name: "conv4-dsn1"
  type: "Convolution"
  bottom: "conv3-dsn1"
  top: "conv4-dsn1"
  param {
    lr_mult: 1
    decay_mult: 1
  }
  param {
    lr_mult: 2
    decay_mult: 0
  }
  convolution_param {
    num_output: 1
    pad: 1
    kernel_size: 3
    weight_filler {
      type: "gaussian"
      std: 0.01
    }
    bias_filler {
      type: "constant"
      value: 0
    }
    engine: CUDNN
  }
}
layer {
  name: "sum-dsn1"
  type: "Eltwise"
  bottom: "conv4-dsn1"
  bottom: "upscore-dsn2"
  top: "sum-dsn1"
  eltwise_param {
    operation: SUM
  }
}
layer {
  name: "crop2-dsn1"
  type: "Crop"
  bottom: "sum-dsn1"
  bottom: "data"
  top: "upscore-dsn1"
}
layer {
  name: "loss1-score"
  type: "SigmoidCrossEntropyLoss"
  bottom: "upscore-dsn1"
  bottom: "label"
  top: "loss1-score"
  loss_weight: 1
}
I1125 10:34:32.954250 17451 layer_factory.hpp:77] Creating layer data
I1125 10:34:32.954283 17451 net.cpp:100] Creating Layer data
I1125 10:34:32.954293 17451 net.cpp:408] data -> data_unaugmented
I1125 10:34:32.954316 17451 net.cpp:408] data -> label_unaugmented
I1125 10:34:32.954339 17451 image_labelmap_data_layer.cpp:41] Opening file /media/compute/homes/galberding/FleckDetect/Datasets/train.txt
I1125 10:34:32.959831 17451 image_labelmap_data_layer.cpp:51] Shuffling data
I1125 10:34:32.961197 17451 image_labelmap_data_layer.cpp:56] A total of 3600 images.
I1125 10:34:33.279314 17451 image_labelmap_data_layer.cpp:110] output data size: 1,3,500,500
I1125 10:34:33.279341 17451 image_labelmap_data_layer.cpp:113] output label size: 1,1,500,500
I1125 10:34:33.295706 17451 net.cpp:150] Setting up data
I1125 10:34:33.295742 17451 net.cpp:157] Top shape: 1 3 500 500 (750000)
I1125 10:34:33.295769 17451 net.cpp:157] Top shape: 1 1 500 500 (250000)
I1125 10:34:33.295773 17451 net.cpp:165] Memory required for data: 4000000
I1125 10:34:33.295796 17451 layer_factory.hpp:77] Creating layer augmentation
I1125 10:34:33.299536 17451 net.cpp:100] Creating Layer augmentation
I1125 10:34:33.299553 17451 net.cpp:434] augmentation <- data_unaugmented
I1125 10:34:33.299566 17451 net.cpp:434] augmentation <- label_unaugmented
I1125 10:34:33.299576 17451 net.cpp:408] augmentation -> data
I1125 10:34:33.299587 17451 net.cpp:408] augmentation -> label
I1125 10:34:33.302095 17451 net.cpp:150] Setting up augmentation
I1125 10:34:33.302114 17451 net.cpp:157] Top shape: 1 3 500 500 (750000)
I1125 10:34:33.302117 17451 net.cpp:157] Top shape: 1 1 500 500 (250000)
I1125 10:34:33.302120 17451 net.cpp:165] Memory required for data: 8000000
I1125 10:34:33.302134 17451 layer_factory.hpp:77] Creating layer data_augmentation_0_split
I1125 10:34:33.302148 17451 net.cpp:100] Creating Layer data_augmentation_0_split
I1125 10:34:33.302152 17451 net.cpp:434] data_augmentation_0_split <- data
I1125 10:34:33.302170 17451 net.cpp:408] data_augmentation_0_split -> data_augmentation_0_split_0
I1125 10:34:33.302182 17451 net.cpp:408] data_augmentation_0_split -> data_augmentation_0_split_1
I1125 10:34:33.302189 17451 net.cpp:408] data_augmentation_0_split -> data_augmentation_0_split_2
I1125 10:34:33.302196 17451 net.cpp:408] data_augmentation_0_split -> data_augmentation_0_split_3
I1125 10:34:33.302203 17451 net.cpp:408] data_augmentation_0_split -> data_augmentation_0_split_4
I1125 10:34:33.302211 17451 net.cpp:408] data_augmentation_0_split -> data_augmentation_0_split_5
I1125 10:34:33.302218 17451 net.cpp:408] data_augmentation_0_split -> data_augmentation_0_split_6
I1125 10:34:33.302336 17451 net.cpp:150] Setting up data_augmentation_0_split
I1125 10:34:33.302354 17451 net.cpp:157] Top shape: 1 3 500 500 (750000)
I1125 10:34:33.302359 17451 net.cpp:157] Top shape: 1 3 500 500 (750000)
I1125 10:34:33.302362 17451 net.cpp:157] Top shape: 1 3 500 500 (750000)
I1125 10:34:33.302367 17451 net.cpp:157] Top shape: 1 3 500 500 (750000)
I1125 10:34:33.302371 17451 net.cpp:157] Top shape: 1 3 500 500 (750000)
I1125 10:34:33.302376 17451 net.cpp:157] Top shape: 1 3 500 500 (750000)
I1125 10:34:33.302378 17451 net.cpp:157] Top shape: 1 3 500 500 (750000)
I1125 10:34:33.302381 17451 net.cpp:165] Memory required for data: 29000000
I1125 10:34:33.302386 17451 layer_factory.hpp:77] Creating layer label_augmentation_1_split
I1125 10:34:33.302393 17451 net.cpp:100] Creating Layer label_augmentation_1_split
I1125 10:34:33.302397 17451 net.cpp:434] label_augmentation_1_split <- label
I1125 10:34:33.302410 17451 net.cpp:408] label_augmentation_1_split -> label_augmentation_1_split_0
I1125 10:34:33.302418 17451 net.cpp:408] label_augmentation_1_split -> label_augmentation_1_split_1
I1125 10:34:33.302433 17451 net.cpp:408] label_augmentation_1_split -> label_augmentation_1_split_2
I1125 10:34:33.302438 17451 net.cpp:408] label_augmentation_1_split -> label_augmentation_1_split_3
I1125 10:34:33.302444 17451 net.cpp:408] label_augmentation_1_split -> label_augmentation_1_split_4
I1125 10:34:33.302451 17451 net.cpp:408] label_augmentation_1_split -> label_augmentation_1_split_5
I1125 10:34:33.302546 17451 net.cpp:150] Setting up label_augmentation_1_split
I1125 10:34:33.302554 17451 net.cpp:157] Top shape: 1 1 500 500 (250000)
I1125 10:34:33.302558 17451 net.cpp:157] Top shape: 1 1 500 500 (250000)
I1125 10:34:33.302562 17451 net.cpp:157] Top shape: 1 1 500 500 (250000)
I1125 10:34:33.302567 17451 net.cpp:157] Top shape: 1 1 500 500 (250000)
I1125 10:34:33.302569 17451 net.cpp:157] Top shape: 1 1 500 500 (250000)
I1125 10:34:33.302573 17451 net.cpp:157] Top shape: 1 1 500 500 (250000)
I1125 10:34:33.302577 17451 net.cpp:165] Memory required for data: 35000000
I1125 10:34:33.302579 17451 layer_factory.hpp:77] Creating layer conv1_1
I1125 10:34:33.302601 17451 net.cpp:100] Creating Layer conv1_1
I1125 10:34:33.302608 17451 net.cpp:434] conv1_1 <- data_augmentation_0_split_0
I1125 10:34:33.302615 17451 net.cpp:408] conv1_1 -> conv1_1
I1125 10:34:33.605044 17451 net.cpp:150] Setting up conv1_1
I1125 10:34:33.605073 17451 net.cpp:157] Top shape: 1 64 500 500 (16000000)
I1125 10:34:33.605077 17451 net.cpp:165] Memory required for data: 99000000
I1125 10:34:33.605094 17451 layer_factory.hpp:77] Creating layer relu1_1
I1125 10:34:33.605104 17451 net.cpp:100] Creating Layer relu1_1
I1125 10:34:33.605108 17451 net.cpp:434] relu1_1 <- conv1_1
I1125 10:34:33.605113 17451 net.cpp:395] relu1_1 -> conv1_1 (in-place)
I1125 10:34:33.605258 17451 net.cpp:150] Setting up relu1_1
I1125 10:34:33.605267 17451 net.cpp:157] Top shape: 1 64 500 500 (16000000)
I1125 10:34:33.605268 17451 net.cpp:165] Memory required for data: 163000000
I1125 10:34:33.605270 17451 layer_factory.hpp:77] Creating layer conv1_2
I1125 10:34:33.605280 17451 net.cpp:100] Creating Layer conv1_2
I1125 10:34:33.605283 17451 net.cpp:434] conv1_2 <- conv1_1
I1125 10:34:33.605286 17451 net.cpp:408] conv1_2 -> conv1_2
I1125 10:34:33.607201 17451 net.cpp:150] Setting up conv1_2
I1125 10:34:33.607213 17451 net.cpp:157] Top shape: 1 64 500 500 (16000000)
I1125 10:34:33.607215 17451 net.cpp:165] Memory required for data: 227000000
I1125 10:34:33.607223 17451 layer_factory.hpp:77] Creating layer relu1_2
I1125 10:34:33.607228 17451 net.cpp:100] Creating Layer relu1_2
I1125 10:34:33.607231 17451 net.cpp:434] relu1_2 <- conv1_2
I1125 10:34:33.607234 17451 net.cpp:395] relu1_2 -> conv1_2 (in-place)
I1125 10:34:33.607357 17451 net.cpp:150] Setting up relu1_2
I1125 10:34:33.607363 17451 net.cpp:157] Top shape: 1 64 500 500 (16000000)
I1125 10:34:33.607365 17451 net.cpp:165] Memory required for data: 291000000
I1125 10:34:33.607367 17451 layer_factory.hpp:77] Creating layer conv1_2_relu1_2_0_split
I1125 10:34:33.607374 17451 net.cpp:100] Creating Layer conv1_2_relu1_2_0_split
I1125 10:34:33.607378 17451 net.cpp:434] conv1_2_relu1_2_0_split <- conv1_2
I1125 10:34:33.607381 17451 net.cpp:408] conv1_2_relu1_2_0_split -> conv1_2_relu1_2_0_split_0
I1125 10:34:33.607385 17451 net.cpp:408] conv1_2_relu1_2_0_split -> conv1_2_relu1_2_0_split_1
I1125 10:34:33.607415 17451 net.cpp:150] Setting up conv1_2_relu1_2_0_split
I1125 10:34:33.607420 17451 net.cpp:157] Top shape: 1 64 500 500 (16000000)
I1125 10:34:33.607424 17451 net.cpp:157] Top shape: 1 64 500 500 (16000000)
I1125 10:34:33.607425 17451 net.cpp:165] Memory required for data: 419000000
I1125 10:34:33.607427 17451 layer_factory.hpp:77] Creating layer pool1
I1125 10:34:33.607432 17451 net.cpp:100] Creating Layer pool1
I1125 10:34:33.607435 17451 net.cpp:434] pool1 <- conv1_2_relu1_2_0_split_0
I1125 10:34:33.607439 17451 net.cpp:408] pool1 -> pool1
I1125 10:34:33.607466 17451 net.cpp:150] Setting up pool1
I1125 10:34:33.607470 17451 net.cpp:157] Top shape: 1 64 250 250 (4000000)
I1125 10:34:33.607473 17451 net.cpp:165] Memory required for data: 435000000
I1125 10:34:33.607475 17451 layer_factory.hpp:77] Creating layer conv2_1
I1125 10:34:33.607481 17451 net.cpp:100] Creating Layer conv2_1
I1125 10:34:33.607482 17451 net.cpp:434] conv2_1 <- pool1
I1125 10:34:33.607488 17451 net.cpp:408] conv2_1 -> conv2_1
I1125 10:34:33.609535 17451 net.cpp:150] Setting up conv2_1
I1125 10:34:33.609547 17451 net.cpp:157] Top shape: 1 128 250 250 (8000000)
I1125 10:34:33.609549 17451 net.cpp:165] Memory required for data: 467000000
I1125 10:34:33.609558 17451 layer_factory.hpp:77] Creating layer relu2_1
I1125 10:34:33.609563 17451 net.cpp:100] Creating Layer relu2_1
I1125 10:34:33.609565 17451 net.cpp:434] relu2_1 <- conv2_1
I1125 10:34:33.609570 17451 net.cpp:395] relu2_1 -> conv2_1 (in-place)
I1125 10:34:33.609722 17451 net.cpp:150] Setting up relu2_1
I1125 10:34:33.609730 17451 net.cpp:157] Top shape: 1 128 250 250 (8000000)
I1125 10:34:33.609731 17451 net.cpp:165] Memory required for data: 499000000
I1125 10:34:33.609733 17451 layer_factory.hpp:77] Creating layer conv2_2
I1125 10:34:33.609740 17451 net.cpp:100] Creating Layer conv2_2
I1125 10:34:33.609742 17451 net.cpp:434] conv2_2 <- conv2_1
I1125 10:34:33.609747 17451 net.cpp:408] conv2_2 -> conv2_2
I1125 10:34:33.610939 17451 net.cpp:150] Setting up conv2_2
I1125 10:34:33.610950 17451 net.cpp:157] Top shape: 1 128 250 250 (8000000)
I1125 10:34:33.610952 17451 net.cpp:165] Memory required for data: 531000000
I1125 10:34:33.610957 17451 layer_factory.hpp:77] Creating layer relu2_2
I1125 10:34:33.610961 17451 net.cpp:100] Creating Layer relu2_2
I1125 10:34:33.610965 17451 net.cpp:434] relu2_2 <- conv2_2
I1125 10:34:33.610970 17451 net.cpp:395] relu2_2 -> conv2_2 (in-place)
I1125 10:34:33.611112 17451 net.cpp:150] Setting up relu2_2
I1125 10:34:33.611119 17451 net.cpp:157] Top shape: 1 128 250 250 (8000000)
I1125 10:34:33.611122 17451 net.cpp:165] Memory required for data: 563000000
I1125 10:34:33.611129 17451 layer_factory.hpp:77] Creating layer conv2_2_relu2_2_0_split
I1125 10:34:33.611138 17451 net.cpp:100] Creating Layer conv2_2_relu2_2_0_split
I1125 10:34:33.611140 17451 net.cpp:434] conv2_2_relu2_2_0_split <- conv2_2
I1125 10:34:33.611146 17451 net.cpp:408] conv2_2_relu2_2_0_split -> conv2_2_relu2_2_0_split_0
I1125 10:34:33.611151 17451 net.cpp:408] conv2_2_relu2_2_0_split -> conv2_2_relu2_2_0_split_1
I1125 10:34:33.611157 17451 net.cpp:408] conv2_2_relu2_2_0_split -> conv2_2_relu2_2_0_split_2
I1125 10:34:33.611198 17451 net.cpp:150] Setting up conv2_2_relu2_2_0_split
I1125 10:34:33.611203 17451 net.cpp:157] Top shape: 1 128 250 250 (8000000)
I1125 10:34:33.611207 17451 net.cpp:157] Top shape: 1 128 250 250 (8000000)
I1125 10:34:33.611209 17451 net.cpp:157] Top shape: 1 128 250 250 (8000000)
I1125 10:34:33.611212 17451 net.cpp:165] Memory required for data: 659000000
I1125 10:34:33.611213 17451 layer_factory.hpp:77] Creating layer pool2
I1125 10:34:33.611219 17451 net.cpp:100] Creating Layer pool2
I1125 10:34:33.611222 17451 net.cpp:434] pool2 <- conv2_2_relu2_2_0_split_0
I1125 10:34:33.611224 17451 net.cpp:408] pool2 -> pool2
I1125 10:34:33.611253 17451 net.cpp:150] Setting up pool2
I1125 10:34:33.611258 17451 net.cpp:157] Top shape: 1 128 125 125 (2000000)
I1125 10:34:33.611259 17451 net.cpp:165] Memory required for data: 667000000
I1125 10:34:33.611263 17451 layer_factory.hpp:77] Creating layer conv3_1
I1125 10:34:33.611272 17451 net.cpp:100] Creating Layer conv3_1
I1125 10:34:33.611274 17451 net.cpp:434] conv3_1 <- pool2
I1125 10:34:33.611279 17451 net.cpp:408] conv3_1 -> conv3_1
I1125 10:34:33.613463 17451 net.cpp:150] Setting up conv3_1
I1125 10:34:33.613474 17451 net.cpp:157] Top shape: 1 256 125 125 (4000000)
I1125 10:34:33.613476 17451 net.cpp:165] Memory required for data: 683000000
I1125 10:34:33.613487 17451 layer_factory.hpp:77] Creating layer relu3_1
I1125 10:34:33.613490 17451 net.cpp:100] Creating Layer relu3_1
I1125 10:34:33.613493 17451 net.cpp:434] relu3_1 <- conv3_1
I1125 10:34:33.613497 17451 net.cpp:395] relu3_1 -> conv3_1 (in-place)
I1125 10:34:33.613880 17451 net.cpp:150] Setting up relu3_1
I1125 10:34:33.613889 17451 net.cpp:157] Top shape: 1 256 125 125 (4000000)
I1125 10:34:33.613891 17451 net.cpp:165] Memory required for data: 699000000
I1125 10:34:33.613894 17451 layer_factory.hpp:77] Creating layer conv3_2
I1125 10:34:33.613903 17451 net.cpp:100] Creating Layer conv3_2
I1125 10:34:33.613905 17451 net.cpp:434] conv3_2 <- conv3_1
I1125 10:34:33.613912 17451 net.cpp:408] conv3_2 -> conv3_2
I1125 10:34:33.616196 17451 net.cpp:150] Setting up conv3_2
I1125 10:34:33.616209 17451 net.cpp:157] Top shape: 1 256 125 125 (4000000)
I1125 10:34:33.616210 17451 net.cpp:165] Memory required for data: 715000000
I1125 10:34:33.616216 17451 layer_factory.hpp:77] Creating layer relu3_2
I1125 10:34:33.616220 17451 net.cpp:100] Creating Layer relu3_2
I1125 10:34:33.616223 17451 net.cpp:434] relu3_2 <- conv3_2
I1125 10:34:33.616228 17451 net.cpp:395] relu3_2 -> conv3_2 (in-place)
I1125 10:34:33.616592 17451 net.cpp:150] Setting up relu3_2
I1125 10:34:33.616601 17451 net.cpp:157] Top shape: 1 256 125 125 (4000000)
I1125 10:34:33.616603 17451 net.cpp:165] Memory required for data: 731000000
I1125 10:34:33.616606 17451 layer_factory.hpp:77] Creating layer conv3_3
I1125 10:34:33.616614 17451 net.cpp:100] Creating Layer conv3_3
I1125 10:34:33.616616 17451 net.cpp:434] conv3_3 <- conv3_2
I1125 10:34:33.616622 17451 net.cpp:408] conv3_3 -> conv3_3
I1125 10:34:33.619112 17451 net.cpp:150] Setting up conv3_3
I1125 10:34:33.619122 17451 net.cpp:157] Top shape: 1 256 125 125 (4000000)
I1125 10:34:33.619123 17451 net.cpp:165] Memory required for data: 747000000
I1125 10:34:33.619151 17451 layer_factory.hpp:77] Creating layer relu3_3
I1125 10:34:33.619158 17451 net.cpp:100] Creating Layer relu3_3
I1125 10:34:33.619161 17451 net.cpp:434] relu3_3 <- conv3_3
I1125 10:34:33.619165 17451 net.cpp:395] relu3_3 -> conv3_3 (in-place)
I1125 10:34:33.619323 17451 net.cpp:150] Setting up relu3_3
I1125 10:34:33.619331 17451 net.cpp:157] Top shape: 1 256 125 125 (4000000)
I1125 10:34:33.619333 17451 net.cpp:165] Memory required for data: 763000000
I1125 10:34:33.619338 17451 layer_factory.hpp:77] Creating layer conv3_3_relu3_3_0_split
I1125 10:34:33.619344 17451 net.cpp:100] Creating Layer conv3_3_relu3_3_0_split
I1125 10:34:33.619346 17451 net.cpp:434] conv3_3_relu3_3_0_split <- conv3_3
I1125 10:34:33.619351 17451 net.cpp:408] conv3_3_relu3_3_0_split -> conv3_3_relu3_3_0_split_0
I1125 10:34:33.619359 17451 net.cpp:408] conv3_3_relu3_3_0_split -> conv3_3_relu3_3_0_split_1
I1125 10:34:33.619369 17451 net.cpp:408] conv3_3_relu3_3_0_split -> conv3_3_relu3_3_0_split_2
I1125 10:34:33.619418 17451 net.cpp:150] Setting up conv3_3_relu3_3_0_split
I1125 10:34:33.619423 17451 net.cpp:157] Top shape: 1 256 125 125 (4000000)
I1125 10:34:33.619427 17451 net.cpp:157] Top shape: 1 256 125 125 (4000000)
I1125 10:34:33.619429 17451 net.cpp:157] Top shape: 1 256 125 125 (4000000)
I1125 10:34:33.619431 17451 net.cpp:165] Memory required for data: 811000000
I1125 10:34:33.619433 17451 layer_factory.hpp:77] Creating layer pool3
I1125 10:34:33.619454 17451 net.cpp:100] Creating Layer pool3
I1125 10:34:33.619457 17451 net.cpp:434] pool3 <- conv3_3_relu3_3_0_split_0
I1125 10:34:33.619460 17451 net.cpp:408] pool3 -> pool3
I1125 10:34:33.619490 17451 net.cpp:150] Setting up pool3
I1125 10:34:33.619494 17451 net.cpp:157] Top shape: 1 256 63 63 (1016064)
I1125 10:34:33.619496 17451 net.cpp:165] Memory required for data: 815064256
I1125 10:34:33.619498 17451 layer_factory.hpp:77] Creating layer conv4_1
I1125 10:34:33.619505 17451 net.cpp:100] Creating Layer conv4_1
I1125 10:34:33.619508 17451 net.cpp:434] conv4_1 <- pool3
I1125 10:34:33.619513 17451 net.cpp:408] conv4_1 -> conv4_1
I1125 10:34:33.624122 17451 net.cpp:150] Setting up conv4_1
I1125 10:34:33.624140 17451 net.cpp:157] Top shape: 1 512 63 63 (2032128)
I1125 10:34:33.624142 17451 net.cpp:165] Memory required for data: 823192768
I1125 10:34:33.624147 17451 layer_factory.hpp:77] Creating layer relu4_1
I1125 10:34:33.624167 17451 net.cpp:100] Creating Layer relu4_1
I1125 10:34:33.624171 17451 net.cpp:434] relu4_1 <- conv4_1
I1125 10:34:33.624176 17451 net.cpp:395] relu4_1 -> conv4_1 (in-place)
I1125 10:34:33.624347 17451 net.cpp:150] Setting up relu4_1
I1125 10:34:33.624356 17451 net.cpp:157] Top shape: 1 512 63 63 (2032128)
I1125 10:34:33.624357 17451 net.cpp:165] Memory required for data: 831321280
I1125 10:34:33.624361 17451 layer_factory.hpp:77] Creating layer conv4_2
I1125 10:34:33.624370 17451 net.cpp:100] Creating Layer conv4_2
I1125 10:34:33.624372 17451 net.cpp:434] conv4_2 <- conv4_1
I1125 10:34:33.624377 17451 net.cpp:408] conv4_2 -> conv4_2
I1125 10:34:33.630218 17451 net.cpp:150] Setting up conv4_2
I1125 10:34:33.630231 17451 net.cpp:157] Top shape: 1 512 63 63 (2032128)
I1125 10:34:33.630234 17451 net.cpp:165] Memory required for data: 839449792
I1125 10:34:33.630242 17451 layer_factory.hpp:77] Creating layer relu4_2
I1125 10:34:33.630247 17451 net.cpp:100] Creating Layer relu4_2
I1125 10:34:33.630250 17451 net.cpp:434] relu4_2 <- conv4_2
I1125 10:34:33.630259 17451 net.cpp:395] relu4_2 -> conv4_2 (in-place)
I1125 10:34:33.630409 17451 net.cpp:150] Setting up relu4_2
I1125 10:34:33.630416 17451 net.cpp:157] Top shape: 1 512 63 63 (2032128)
I1125 10:34:33.630419 17451 net.cpp:165] Memory required for data: 847578304
I1125 10:34:33.630420 17451 layer_factory.hpp:77] Creating layer conv4_3
I1125 10:34:33.630429 17451 net.cpp:100] Creating Layer conv4_3
I1125 10:34:33.630430 17451 net.cpp:434] conv4_3 <- conv4_2
I1125 10:34:33.630436 17451 net.cpp:408] conv4_3 -> conv4_3
I1125 10:34:33.635999 17451 net.cpp:150] Setting up conv4_3
I1125 10:34:33.636010 17451 net.cpp:157] Top shape: 1 512 63 63 (2032128)
I1125 10:34:33.636013 17451 net.cpp:165] Memory required for data: 855706816
I1125 10:34:33.636019 17451 layer_factory.hpp:77] Creating layer relu4_3
I1125 10:34:33.636023 17451 net.cpp:100] Creating Layer relu4_3
I1125 10:34:33.636026 17451 net.cpp:434] relu4_3 <- conv4_3
I1125 10:34:33.636034 17451 net.cpp:395] relu4_3 -> conv4_3 (in-place)
I1125 10:34:33.636183 17451 net.cpp:150] Setting up relu4_3
I1125 10:34:33.636190 17451 net.cpp:157] Top shape: 1 512 63 63 (2032128)
I1125 10:34:33.636193 17451 net.cpp:165] Memory required for data: 863835328
I1125 10:34:33.636194 17451 layer_factory.hpp:77] Creating layer conv4_3_relu4_3_0_split
I1125 10:34:33.636199 17451 net.cpp:100] Creating Layer conv4_3_relu4_3_0_split
I1125 10:34:33.636201 17451 net.cpp:434] conv4_3_relu4_3_0_split <- conv4_3
I1125 10:34:33.636207 17451 net.cpp:408] conv4_3_relu4_3_0_split -> conv4_3_relu4_3_0_split_0
I1125 10:34:33.636212 17451 net.cpp:408] conv4_3_relu4_3_0_split -> conv4_3_relu4_3_0_split_1
I1125 10:34:33.636216 17451 net.cpp:408] conv4_3_relu4_3_0_split -> conv4_3_relu4_3_0_split_2
I1125 10:34:33.636260 17451 net.cpp:150] Setting up conv4_3_relu4_3_0_split
I1125 10:34:33.636265 17451 net.cpp:157] Top shape: 1 512 63 63 (2032128)
I1125 10:34:33.636268 17451 net.cpp:157] Top shape: 1 512 63 63 (2032128)
I1125 10:34:33.636271 17451 net.cpp:157] Top shape: 1 512 63 63 (2032128)
I1125 10:34:33.636273 17451 net.cpp:165] Memory required for data: 888220864
I1125 10:34:33.636276 17451 layer_factory.hpp:77] Creating layer pool4
I1125 10:34:33.636281 17451 net.cpp:100] Creating Layer pool4
I1125 10:34:33.636283 17451 net.cpp:434] pool4 <- conv4_3_relu4_3_0_split_0
I1125 10:34:33.636288 17451 net.cpp:408] pool4 -> pool4
I1125 10:34:33.636319 17451 net.cpp:150] Setting up pool4
I1125 10:34:33.636323 17451 net.cpp:157] Top shape: 1 512 32 32 (524288)
I1125 10:34:33.636325 17451 net.cpp:165] Memory required for data: 890318016
I1125 10:34:33.636327 17451 layer_factory.hpp:77] Creating layer conv5_1
I1125 10:34:33.636339 17451 net.cpp:100] Creating Layer conv5_1
I1125 10:34:33.636343 17451 net.cpp:434] conv5_1 <- pool4
I1125 10:34:33.636346 17451 net.cpp:408] conv5_1 -> conv5_1
I1125 10:34:33.641885 17451 net.cpp:150] Setting up conv5_1
I1125 10:34:33.641897 17451 net.cpp:157] Top shape: 1 512 32 32 (524288)
I1125 10:34:33.641899 17451 net.cpp:165] Memory required for data: 892415168
I1125 10:34:33.641906 17451 layer_factory.hpp:77] Creating layer relu5_1
I1125 10:34:33.641911 17451 net.cpp:100] Creating Layer relu5_1
I1125 10:34:33.641914 17451 net.cpp:434] relu5_1 <- conv5_1
I1125 10:34:33.641921 17451 net.cpp:395] relu5_1 -> conv5_1 (in-place)
I1125 10:34:33.642323 17451 net.cpp:150] Setting up relu5_1
I1125 10:34:33.642333 17451 net.cpp:157] Top shape: 1 512 32 32 (524288)
I1125 10:34:33.642335 17451 net.cpp:165] Memory required for data: 894512320
I1125 10:34:33.642338 17451 layer_factory.hpp:77] Creating layer conv5_2
I1125 10:34:33.642346 17451 net.cpp:100] Creating Layer conv5_2
I1125 10:34:33.642349 17451 net.cpp:434] conv5_2 <- conv5_1
I1125 10:34:33.642355 17451 net.cpp:408] conv5_2 -> conv5_2
I1125 10:34:33.647687 17451 net.cpp:150] Setting up conv5_2
I1125 10:34:33.647698 17451 net.cpp:157] Top shape: 1 512 32 32 (524288)
I1125 10:34:33.647702 17451 net.cpp:165] Memory required for data: 896609472
I1125 10:34:33.647707 17451 layer_factory.hpp:77] Creating layer relu5_2
I1125 10:34:33.647712 17451 net.cpp:100] Creating Layer relu5_2
I1125 10:34:33.647714 17451 net.cpp:434] relu5_2 <- conv5_2
I1125 10:34:33.647718 17451 net.cpp:395] relu5_2 -> conv5_2 (in-place)
I1125 10:34:33.648123 17451 net.cpp:150] Setting up relu5_2
I1125 10:34:33.648139 17451 net.cpp:157] Top shape: 1 512 32 32 (524288)
I1125 10:34:33.648141 17451 net.cpp:165] Memory required for data: 898706624
I1125 10:34:33.648160 17451 layer_factory.hpp:77] Creating layer conv5_3
I1125 10:34:33.648167 17451 net.cpp:100] Creating Layer conv5_3
I1125 10:34:33.648170 17451 net.cpp:434] conv5_3 <- conv5_2
I1125 10:34:33.648177 17451 net.cpp:408] conv5_3 -> conv5_3
I1125 10:34:33.653801 17451 net.cpp:150] Setting up conv5_3
I1125 10:34:33.653813 17451 net.cpp:157] Top shape: 1 512 32 32 (524288)
I1125 10:34:33.653815 17451 net.cpp:165] Memory required for data: 900803776
I1125 10:34:33.653820 17451 layer_factory.hpp:77] Creating layer relu5_3
I1125 10:34:33.653825 17451 net.cpp:100] Creating Layer relu5_3
I1125 10:34:33.653828 17451 net.cpp:434] relu5_3 <- conv5_3
I1125 10:34:33.653836 17451 net.cpp:395] relu5_3 -> conv5_3 (in-place)
I1125 10:34:33.653982 17451 net.cpp:150] Setting up relu5_3
I1125 10:34:33.653988 17451 net.cpp:157] Top shape: 1 512 32 32 (524288)
I1125 10:34:33.653991 17451 net.cpp:165] Memory required for data: 902900928
I1125 10:34:33.653993 17451 layer_factory.hpp:77] Creating layer conv5_3_relu5_3_0_split
I1125 10:34:33.654002 17451 net.cpp:100] Creating Layer conv5_3_relu5_3_0_split
I1125 10:34:33.654004 17451 net.cpp:434] conv5_3_relu5_3_0_split <- conv5_3
I1125 10:34:33.654009 17451 net.cpp:408] conv5_3_relu5_3_0_split -> conv5_3_relu5_3_0_split_0
I1125 10:34:33.654013 17451 net.cpp:408] conv5_3_relu5_3_0_split -> conv5_3_relu5_3_0_split_1
I1125 10:34:33.654019 17451 net.cpp:408] conv5_3_relu5_3_0_split -> conv5_3_relu5_3_0_split_2
I1125 10:34:33.654063 17451 net.cpp:150] Setting up conv5_3_relu5_3_0_split
I1125 10:34:33.654068 17451 net.cpp:157] Top shape: 1 512 32 32 (524288)
I1125 10:34:33.654072 17451 net.cpp:157] Top shape: 1 512 32 32 (524288)
I1125 10:34:33.654073 17451 net.cpp:157] Top shape: 1 512 32 32 (524288)
I1125 10:34:33.654075 17451 net.cpp:165] Memory required for data: 909192384
I1125 10:34:33.654079 17451 layer_factory.hpp:77] Creating layer pool5
I1125 10:34:33.654086 17451 net.cpp:100] Creating Layer pool5
I1125 10:34:33.654088 17451 net.cpp:434] pool5 <- conv5_3_relu5_3_0_split_0
I1125 10:34:33.654093 17451 net.cpp:408] pool5 -> pool5
I1125 10:34:33.654130 17451 net.cpp:150] Setting up pool5
I1125 10:34:33.654135 17451 net.cpp:157] Top shape: 1 512 17 17 (147968)
I1125 10:34:33.654139 17451 net.cpp:165] Memory required for data: 909784256
I1125 10:34:33.654140 17451 layer_factory.hpp:77] Creating layer conv1-dsn6
I1125 10:34:33.654148 17451 net.cpp:100] Creating Layer conv1-dsn6
I1125 10:34:33.654150 17451 net.cpp:434] conv1-dsn6 <- pool5
I1125 10:34:33.654166 17451 net.cpp:408] conv1-dsn6 -> conv1-dsn6
I1125 10:34:33.657337 17451 net.cpp:150] Setting up conv1-dsn6
I1125 10:34:33.657348 17451 net.cpp:157] Top shape: 1 256 17 17 (73984)
I1125 10:34:33.657366 17451 net.cpp:165] Memory required for data: 910080192
I1125 10:34:33.657371 17451 layer_factory.hpp:77] Creating layer conv2-dsn6
I1125 10:34:33.657380 17451 net.cpp:100] Creating Layer conv2-dsn6
I1125 10:34:33.657383 17451 net.cpp:434] conv2-dsn6 <- conv1-dsn6
I1125 10:34:33.657392 17451 net.cpp:408] conv2-dsn6 -> conv2-dsn6
I1125 10:34:33.673332 17451 net.cpp:150] Setting up conv2-dsn6
I1125 10:34:33.673359 17451 net.cpp:157] Top shape: 1 256 17 17 (73984)
I1125 10:34:33.673362 17451 net.cpp:165] Memory required for data: 910376128
I1125 10:34:33.673367 17451 layer_factory.hpp:77] Creating layer relu1-dsn6
I1125 10:34:33.673373 17451 net.cpp:100] Creating Layer relu1-dsn6
I1125 10:34:33.673377 17451 net.cpp:434] relu1-dsn6 <- conv2-dsn6
I1125 10:34:33.673380 17451 net.cpp:395] relu1-dsn6 -> conv2-dsn6 (in-place)
I1125 10:34:33.673552 17451 net.cpp:150] Setting up relu1-dsn6
I1125 10:34:33.673559 17451 net.cpp:157] Top shape: 1 256 17 17 (73984)
I1125 10:34:33.673561 17451 net.cpp:165] Memory required for data: 910672064
I1125 10:34:33.673564 17451 layer_factory.hpp:77] Creating layer conv3-dsn6
I1125 10:34:33.673573 17451 net.cpp:100] Creating Layer conv3-dsn6
I1125 10:34:33.673575 17451 net.cpp:434] conv3-dsn6 <- conv2-dsn6
I1125 10:34:33.673580 17451 net.cpp:408] conv3-dsn6 -> conv3-dsn6
I1125 10:34:33.689759 17451 net.cpp:150] Setting up conv3-dsn6
I1125 10:34:33.689770 17451 net.cpp:157] Top shape: 1 256 17 17 (73984)
I1125 10:34:33.689772 17451 net.cpp:165] Memory required for data: 910968000
I1125 10:34:33.689777 17451 layer_factory.hpp:77] Creating layer relu2-dsn6
I1125 10:34:33.689782 17451 net.cpp:100] Creating Layer relu2-dsn6
I1125 10:34:33.689785 17451 net.cpp:434] relu2-dsn6 <- conv3-dsn6
I1125 10:34:33.689790 17451 net.cpp:395] relu2-dsn6 -> conv3-dsn6 (in-place)
I1125 10:34:33.689939 17451 net.cpp:150] Setting up relu2-dsn6
I1125 10:34:33.689946 17451 net.cpp:157] Top shape: 1 256 17 17 (73984)
I1125 10:34:33.689949 17451 net.cpp:165] Memory required for data: 911263936
I1125 10:34:33.689950 17451 layer_factory.hpp:77] Creating layer conv4-dsn6
I1125 10:34:33.689958 17451 net.cpp:100] Creating Layer conv4-dsn6
I1125 10:34:33.689961 17451 net.cpp:434] conv4-dsn6 <- conv3-dsn6
I1125 10:34:33.689968 17451 net.cpp:408] conv4-dsn6 -> conv4-dsn6
I1125 10:34:33.705902 17451 net.cpp:150] Setting up conv4-dsn6
I1125 10:34:33.705915 17451 net.cpp:157] Top shape: 1 256 17 17 (73984)
I1125 10:34:33.705919 17451 net.cpp:165] Memory required for data: 911559872
I1125 10:34:33.705932 17451 layer_factory.hpp:77] Creating layer relu3-dsn6
I1125 10:34:33.705937 17451 net.cpp:100] Creating Layer relu3-dsn6
I1125 10:34:33.705940 17451 net.cpp:434] relu3-dsn6 <- conv4-dsn6
I1125 10:34:33.705946 17451 net.cpp:395] relu3-dsn6 -> conv4-dsn6 (in-place)
I1125 10:34:33.706091 17451 net.cpp:150] Setting up relu3-dsn6
I1125 10:34:33.706099 17451 net.cpp:157] Top shape: 1 256 17 17 (73984)
I1125 10:34:33.706100 17451 net.cpp:165] Memory required for data: 911855808
I1125 10:34:33.706102 17451 layer_factory.hpp:77] Creating layer conv5-dsn6
I1125 10:34:33.706111 17451 net.cpp:100] Creating Layer conv5-dsn6
I1125 10:34:33.706113 17451 net.cpp:434] conv5-dsn6 <- conv4-dsn6
I1125 10:34:33.706120 17451 net.cpp:408] conv5-dsn6 -> conv5-dsn6
I1125 10:34:33.707093 17451 net.cpp:150] Setting up conv5-dsn6
I1125 10:34:33.707104 17451 net.cpp:157] Top shape: 1 1 17 17 (289)
I1125 10:34:33.707106 17451 net.cpp:165] Memory required for data: 911856964
I1125 10:34:33.707111 17451 layer_factory.hpp:77] Creating layer conv5-dsn6_conv5-dsn6_0_split
I1125 10:34:33.707118 17451 net.cpp:100] Creating Layer conv5-dsn6_conv5-dsn6_0_split
I1125 10:34:33.707120 17451 net.cpp:434] conv5-dsn6_conv5-dsn6_0_split <- conv5-dsn6
I1125 10:34:33.707130 17451 net.cpp:408] conv5-dsn6_conv5-dsn6_0_split -> conv5-dsn6_conv5-dsn6_0_split_0
I1125 10:34:33.707139 17451 net.cpp:408] conv5-dsn6_conv5-dsn6_0_split -> conv5-dsn6_conv5-dsn6_0_split_1
I1125 10:34:33.707173 17451 net.cpp:150] Setting up conv5-dsn6_conv5-dsn6_0_split
I1125 10:34:33.707177 17451 net.cpp:157] Top shape: 1 1 17 17 (289)
I1125 10:34:33.707180 17451 net.cpp:157] Top shape: 1 1 17 17 (289)
I1125 10:34:33.707181 17451 net.cpp:165] Memory required for data: 911859276
I1125 10:34:33.707183 17451 layer_factory.hpp:77] Creating layer upsample32_dsn6
I1125 10:34:33.707193 17451 net.cpp:100] Creating Layer upsample32_dsn6
I1125 10:34:33.707196 17451 net.cpp:434] upsample32_dsn6 <- conv5-dsn6_conv5-dsn6_0_split_0
I1125 10:34:33.707201 17451 net.cpp:408] upsample32_dsn6 -> conv5-dsn6-up
I1125 10:34:33.707664 17451 net.cpp:150] Setting up upsample32_dsn6
I1125 10:34:33.707669 17451 net.cpp:157] Top shape: 1 1 576 576 (331776)
I1125 10:34:33.707671 17451 net.cpp:165] Memory required for data: 913186380
I1125 10:34:33.707675 17451 layer_factory.hpp:77] Creating layer crop-dsn6
I1125 10:34:33.707681 17451 net.cpp:100] Creating Layer crop-dsn6
I1125 10:34:33.707684 17451 net.cpp:434] crop-dsn6 <- conv5-dsn6-up
I1125 10:34:33.707687 17451 net.cpp:434] crop-dsn6 <- data_augmentation_0_split_1
I1125 10:34:33.707693 17451 net.cpp:408] crop-dsn6 -> upscore-dsn6
I1125 10:34:33.707720 17451 net.cpp:150] Setting up crop-dsn6
I1125 10:34:33.707723 17451 net.cpp:157] Top shape: 1 1 500 500 (250000)
I1125 10:34:33.707726 17451 net.cpp:165] Memory required for data: 914186380
I1125 10:34:33.707727 17451 layer_factory.hpp:77] Creating layer loss6-score
I1125 10:34:33.707734 17451 net.cpp:100] Creating Layer loss6-score
I1125 10:34:33.707737 17451 net.cpp:434] loss6-score <- upscore-dsn6
I1125 10:34:33.707741 17451 net.cpp:434] loss6-score <- label_augmentation_1_split_0
I1125 10:34:33.707743 17451 net.cpp:408] loss6-score -> loss6-score
I1125 10:34:33.708905 17451 net.cpp:150] Setting up loss6-score
I1125 10:34:33.708915 17451 net.cpp:157] Top shape: (1)
I1125 10:34:33.708917 17451 net.cpp:160]     with loss weight 1
I1125 10:34:33.708927 17451 net.cpp:165] Memory required for data: 914186384
I1125 10:34:33.708930 17451 layer_factory.hpp:77] Creating layer upsample2_dsn5
I1125 10:34:33.708937 17451 net.cpp:100] Creating Layer upsample2_dsn5
I1125 10:34:33.708940 17451 net.cpp:434] upsample2_dsn5 <- conv5-dsn6_conv5-dsn6_0_split_1
I1125 10:34:33.708945 17451 net.cpp:408] upsample2_dsn5 -> conv5-dsn6-5
I1125 10:34:33.709156 17451 net.cpp:150] Setting up upsample2_dsn5
I1125 10:34:33.709163 17451 net.cpp:157] Top shape: 1 1 36 36 (1296)
I1125 10:34:33.709165 17451 net.cpp:165] Memory required for data: 914191568
I1125 10:34:33.709170 17451 layer_factory.hpp:77] Creating layer crop1-dsn5
I1125 10:34:33.709177 17451 net.cpp:100] Creating Layer crop1-dsn5
I1125 10:34:33.709179 17451 net.cpp:434] crop1-dsn5 <- conv5-dsn6-5
I1125 10:34:33.709182 17451 net.cpp:434] crop1-dsn5 <- conv5_3_relu5_3_0_split_1
I1125 10:34:33.709187 17451 net.cpp:408] crop1-dsn5 -> weight-dsn6-5
I1125 10:34:33.709208 17451 net.cpp:150] Setting up crop1-dsn5
I1125 10:34:33.709211 17451 net.cpp:157] Top shape: 1 1 32 32 (1024)
I1125 10:34:33.709213 17451 net.cpp:165] Memory required for data: 914195664
I1125 10:34:33.709215 17451 layer_factory.hpp:77] Creating layer weight-dsn6-5_crop1-dsn5_0_split
I1125 10:34:33.709221 17451 net.cpp:100] Creating Layer weight-dsn6-5_crop1-dsn5_0_split
I1125 10:34:33.709223 17451 net.cpp:434] weight-dsn6-5_crop1-dsn5_0_split <- weight-dsn6-5
I1125 10:34:33.709228 17451 net.cpp:408] weight-dsn6-5_crop1-dsn5_0_split -> weight-dsn6-5_crop1-dsn5_0_split_0
I1125 10:34:33.709233 17451 net.cpp:408] weight-dsn6-5_crop1-dsn5_0_split -> weight-dsn6-5_crop1-dsn5_0_split_1
I1125 10:34:33.709261 17451 net.cpp:150] Setting up weight-dsn6-5_crop1-dsn5_0_split
I1125 10:34:33.709266 17451 net.cpp:157] Top shape: 1 1 32 32 (1024)
I1125 10:34:33.709269 17451 net.cpp:157] Top shape: 1 1 32 32 (1024)
I1125 10:34:33.709270 17451 net.cpp:165] Memory required for data: 914203856
I1125 10:34:33.709273 17451 layer_factory.hpp:77] Creating layer sigmoid-dsn5
I1125 10:34:33.709277 17451 net.cpp:100] Creating Layer sigmoid-dsn5
I1125 10:34:33.709280 17451 net.cpp:434] sigmoid-dsn5 <- weight-dsn6-5_crop1-dsn5_0_split_0
I1125 10:34:33.709285 17451 net.cpp:408] sigmoid-dsn5 -> sigmoid-dsn5
I1125 10:34:33.709460 17451 net.cpp:150] Setting up sigmoid-dsn5
I1125 10:34:33.709467 17451 net.cpp:157] Top shape: 1 1 32 32 (1024)
I1125 10:34:33.709468 17451 net.cpp:165] Memory required for data: 914207952
I1125 10:34:33.709471 17451 layer_factory.hpp:77] Creating layer rev-dsn5
I1125 10:34:33.709478 17451 net.cpp:100] Creating Layer rev-dsn5
I1125 10:34:33.709481 17451 net.cpp:434] rev-dsn5 <- sigmoid-dsn5
I1125 10:34:33.709486 17451 net.cpp:408] rev-dsn5 -> rev-dsn5
I1125 10:34:33.709518 17451 net.cpp:150] Setting up rev-dsn5
I1125 10:34:33.709524 17451 net.cpp:157] Top shape: 1 1 32 32 (1024)
I1125 10:34:33.709527 17451 net.cpp:165] Memory required for data: 914212048
I1125 10:34:33.709528 17451 layer_factory.hpp:77] Creating layer tile-dsn5
I1125 10:34:33.709533 17451 net.cpp:100] Creating Layer tile-dsn5
I1125 10:34:33.709535 17451 net.cpp:434] tile-dsn5 <- rev-dsn5
I1125 10:34:33.709540 17451 net.cpp:408] tile-dsn5 -> weight-dsn5
I1125 10:34:33.709559 17451 net.cpp:150] Setting up tile-dsn5
I1125 10:34:33.709563 17451 net.cpp:157] Top shape: 1 512 32 32 (524288)
I1125 10:34:33.709565 17451 net.cpp:165] Memory required for data: 916309200
I1125 10:34:33.709568 17451 layer_factory.hpp:77] Creating layer prod1-dsn5
I1125 10:34:33.709574 17451 net.cpp:100] Creating Layer prod1-dsn5
I1125 10:34:33.709576 17451 net.cpp:434] prod1-dsn5 <- conv5_3_relu5_3_0_split_2
I1125 10:34:33.709579 17451 net.cpp:434] prod1-dsn5 <- weight-dsn5
I1125 10:34:33.709583 17451 net.cpp:408] prod1-dsn5 -> prod1-dsn5
I1125 10:34:33.709604 17451 net.cpp:150] Setting up prod1-dsn5
I1125 10:34:33.709606 17451 net.cpp:157] Top shape: 1 512 32 32 (524288)
I1125 10:34:33.709609 17451 net.cpp:165] Memory required for data: 918406352
I1125 10:34:33.709610 17451 layer_factory.hpp:77] Creating layer conv1-dsn5
I1125 10:34:33.709617 17451 net.cpp:100] Creating Layer conv1-dsn5
I1125 10:34:33.709620 17451 net.cpp:434] conv1-dsn5 <- prod1-dsn5
I1125 10:34:33.709626 17451 net.cpp:408] conv1-dsn5 -> conv1-dsn5
I1125 10:34:33.710819 17451 net.cpp:150] Setting up conv1-dsn5
I1125 10:34:33.710829 17451 net.cpp:157] Top shape: 1 64 32 32 (65536)
I1125 10:34:33.710830 17451 net.cpp:165] Memory required for data: 918668496
I1125 10:34:33.710836 17451 layer_factory.hpp:77] Creating layer conv2-dsn5
I1125 10:34:33.710845 17451 net.cpp:100] Creating Layer conv2-dsn5
I1125 10:34:33.710847 17451 net.cpp:434] conv2-dsn5 <- conv1-dsn5
I1125 10:34:33.710855 17451 net.cpp:408] conv2-dsn5 -> conv2-dsn5
I1125 10:34:33.712172 17451 net.cpp:150] Setting up conv2-dsn5
I1125 10:34:33.712182 17451 net.cpp:157] Top shape: 1 64 32 32 (65536)
I1125 10:34:33.712184 17451 net.cpp:165] Memory required for data: 918930640
I1125 10:34:33.712188 17451 layer_factory.hpp:77] Creating layer relu1-dsn5
I1125 10:34:33.712193 17451 net.cpp:100] Creating Layer relu1-dsn5
I1125 10:34:33.712195 17451 net.cpp:434] relu1-dsn5 <- conv2-dsn5
I1125 10:34:33.712201 17451 net.cpp:395] relu1-dsn5 -> conv2-dsn5 (in-place)
I1125 10:34:33.712602 17451 net.cpp:150] Setting up relu1-dsn5
I1125 10:34:33.712611 17451 net.cpp:157] Top shape: 1 64 32 32 (65536)
I1125 10:34:33.712613 17451 net.cpp:165] Memory required for data: 919192784
I1125 10:34:33.712616 17451 layer_factory.hpp:77] Creating layer conv3-dsn5
I1125 10:34:33.712625 17451 net.cpp:100] Creating Layer conv3-dsn5
I1125 10:34:33.712627 17451 net.cpp:434] conv3-dsn5 <- conv2-dsn5
I1125 10:34:33.712633 17451 net.cpp:408] conv3-dsn5 -> conv3-dsn5
I1125 10:34:33.713600 17451 net.cpp:150] Setting up conv3-dsn5
I1125 10:34:33.713610 17451 net.cpp:157] Top shape: 1 64 32 32 (65536)
I1125 10:34:33.713613 17451 net.cpp:165] Memory required for data: 919454928
I1125 10:34:33.713618 17451 layer_factory.hpp:77] Creating layer relu2-dsn5
I1125 10:34:33.713621 17451 net.cpp:100] Creating Layer relu2-dsn5
I1125 10:34:33.713624 17451 net.cpp:434] relu2-dsn5 <- conv3-dsn5
I1125 10:34:33.713627 17451 net.cpp:395] relu2-dsn5 -> conv3-dsn5 (in-place)
I1125 10:34:33.714032 17451 net.cpp:150] Setting up relu2-dsn5
I1125 10:34:33.714041 17451 net.cpp:157] Top shape: 1 64 32 32 (65536)
I1125 10:34:33.714043 17451 net.cpp:165] Memory required for data: 919717072
I1125 10:34:33.714047 17451 layer_factory.hpp:77] Creating layer conv4-dsn5
I1125 10:34:33.714071 17451 net.cpp:100] Creating Layer conv4-dsn5
I1125 10:34:33.714073 17451 net.cpp:434] conv4-dsn5 <- conv3-dsn5
I1125 10:34:33.714078 17451 net.cpp:408] conv4-dsn5 -> conv4-dsn5
I1125 10:34:33.715016 17451 net.cpp:150] Setting up conv4-dsn5
I1125 10:34:33.715029 17451 net.cpp:157] Top shape: 1 1 32 32 (1024)
I1125 10:34:33.715031 17451 net.cpp:165] Memory required for data: 919721168
I1125 10:34:33.715036 17451 layer_factory.hpp:77] Creating layer sum-dsn5
I1125 10:34:33.715041 17451 net.cpp:100] Creating Layer sum-dsn5
I1125 10:34:33.715044 17451 net.cpp:434] sum-dsn5 <- conv4-dsn5
I1125 10:34:33.715047 17451 net.cpp:434] sum-dsn5 <- weight-dsn6-5_crop1-dsn5_0_split_1
I1125 10:34:33.715052 17451 net.cpp:408] sum-dsn5 -> sum-dsn5
I1125 10:34:33.715075 17451 net.cpp:150] Setting up sum-dsn5
I1125 10:34:33.715080 17451 net.cpp:157] Top shape: 1 1 32 32 (1024)
I1125 10:34:33.715081 17451 net.cpp:165] Memory required for data: 919725264
I1125 10:34:33.715083 17451 layer_factory.hpp:77] Creating layer sum-dsn5_sum-dsn5_0_split
I1125 10:34:33.715090 17451 net.cpp:100] Creating Layer sum-dsn5_sum-dsn5_0_split
I1125 10:34:33.715092 17451 net.cpp:434] sum-dsn5_sum-dsn5_0_split <- sum-dsn5
I1125 10:34:33.715097 17451 net.cpp:408] sum-dsn5_sum-dsn5_0_split -> sum-dsn5_sum-dsn5_0_split_0
I1125 10:34:33.715101 17451 net.cpp:408] sum-dsn5_sum-dsn5_0_split -> sum-dsn5_sum-dsn5_0_split_1
I1125 10:34:33.715152 17451 net.cpp:150] Setting up sum-dsn5_sum-dsn5_0_split
I1125 10:34:33.715160 17451 net.cpp:157] Top shape: 1 1 32 32 (1024)
I1125 10:34:33.715163 17451 net.cpp:157] Top shape: 1 1 32 32 (1024)
I1125 10:34:33.715165 17451 net.cpp:165] Memory required for data: 919733456
I1125 10:34:33.715168 17451 layer_factory.hpp:77] Creating layer upsample16_dsn5
I1125 10:34:33.715174 17451 net.cpp:100] Creating Layer upsample16_dsn5
I1125 10:34:33.715176 17451 net.cpp:434] upsample16_dsn5 <- sum-dsn5_sum-dsn5_0_split_0
I1125 10:34:33.715183 17451 net.cpp:408] upsample16_dsn5 -> sum-dsn5-up
I1125 10:34:33.716531 17451 net.cpp:150] Setting up upsample16_dsn5
I1125 10:34:33.716540 17451 net.cpp:157] Top shape: 1 1 528 528 (278784)
I1125 10:34:33.716542 17451 net.cpp:165] Memory required for data: 920848592
I1125 10:34:33.716547 17451 layer_factory.hpp:77] Creating layer crop2-dsn5
I1125 10:34:33.716553 17451 net.cpp:100] Creating Layer crop2-dsn5
I1125 10:34:33.716557 17451 net.cpp:434] crop2-dsn5 <- sum-dsn5-up
I1125 10:34:33.716560 17451 net.cpp:434] crop2-dsn5 <- data_augmentation_0_split_2
I1125 10:34:33.716563 17451 net.cpp:408] crop2-dsn5 -> upscore-dsn5
I1125 10:34:33.716593 17451 net.cpp:150] Setting up crop2-dsn5
I1125 10:34:33.716595 17451 net.cpp:157] Top shape: 1 1 500 500 (250000)
I1125 10:34:33.716598 17451 net.cpp:165] Memory required for data: 921848592
I1125 10:34:33.716599 17451 layer_factory.hpp:77] Creating layer loss5-score
I1125 10:34:33.716605 17451 net.cpp:100] Creating Layer loss5-score
I1125 10:34:33.716609 17451 net.cpp:434] loss5-score <- upscore-dsn5
I1125 10:34:33.716610 17451 net.cpp:434] loss5-score <- label_augmentation_1_split_1
I1125 10:34:33.716614 17451 net.cpp:408] loss5-score -> loss5-score
I1125 10:34:33.716789 17451 net.cpp:150] Setting up loss5-score
I1125 10:34:33.716794 17451 net.cpp:157] Top shape: (1)
I1125 10:34:33.716796 17451 net.cpp:160]     with loss weight 1
I1125 10:34:33.716801 17451 net.cpp:165] Memory required for data: 921848596
I1125 10:34:33.716804 17451 layer_factory.hpp:77] Creating layer upsample2_dsn4
I1125 10:34:33.716811 17451 net.cpp:100] Creating Layer upsample2_dsn4
I1125 10:34:33.716814 17451 net.cpp:434] upsample2_dsn4 <- sum-dsn5_sum-dsn5_0_split_1
I1125 10:34:33.716820 17451 net.cpp:408] upsample2_dsn4 -> sum-dsn5-4
I1125 10:34:33.717028 17451 net.cpp:150] Setting up upsample2_dsn4
I1125 10:34:33.717034 17451 net.cpp:157] Top shape: 1 1 66 66 (4356)
I1125 10:34:33.717036 17451 net.cpp:165] Memory required for data: 921866020
I1125 10:34:33.717041 17451 layer_factory.hpp:77] Creating layer crop1-dsn4
I1125 10:34:33.717044 17451 net.cpp:100] Creating Layer crop1-dsn4
I1125 10:34:33.717046 17451 net.cpp:434] crop1-dsn4 <- sum-dsn5-4
I1125 10:34:33.717049 17451 net.cpp:434] crop1-dsn4 <- conv4_3_relu4_3_0_split_1
I1125 10:34:33.717056 17451 net.cpp:408] crop1-dsn4 -> weight-dsn5-4
I1125 10:34:33.717077 17451 net.cpp:150] Setting up crop1-dsn4
I1125 10:34:33.717079 17451 net.cpp:157] Top shape: 1 1 63 63 (3969)
I1125 10:34:33.717082 17451 net.cpp:165] Memory required for data: 921881896
I1125 10:34:33.717083 17451 layer_factory.hpp:77] Creating layer weight-dsn5-4_crop1-dsn4_0_split
I1125 10:34:33.717087 17451 net.cpp:100] Creating Layer weight-dsn5-4_crop1-dsn4_0_split
I1125 10:34:33.717089 17451 net.cpp:434] weight-dsn5-4_crop1-dsn4_0_split <- weight-dsn5-4
I1125 10:34:33.717094 17451 net.cpp:408] weight-dsn5-4_crop1-dsn4_0_split -> weight-dsn5-4_crop1-dsn4_0_split_0
I1125 10:34:33.717099 17451 net.cpp:408] weight-dsn5-4_crop1-dsn4_0_split -> weight-dsn5-4_crop1-dsn4_0_split_1
I1125 10:34:33.717134 17451 net.cpp:150] Setting up weight-dsn5-4_crop1-dsn4_0_split
I1125 10:34:33.717139 17451 net.cpp:157] Top shape: 1 1 63 63 (3969)
I1125 10:34:33.717142 17451 net.cpp:157] Top shape: 1 1 63 63 (3969)
I1125 10:34:33.717144 17451 net.cpp:165] Memory required for data: 921913648
I1125 10:34:33.717146 17451 layer_factory.hpp:77] Creating layer sigmoid-dsn4
I1125 10:34:33.717150 17451 net.cpp:100] Creating Layer sigmoid-dsn4
I1125 10:34:33.717152 17451 net.cpp:434] sigmoid-dsn4 <- weight-dsn5-4_crop1-dsn4_0_split_0
I1125 10:34:33.717157 17451 net.cpp:408] sigmoid-dsn4 -> sigmoid-dsn4
I1125 10:34:33.717322 17451 net.cpp:150] Setting up sigmoid-dsn4
I1125 10:34:33.717330 17451 net.cpp:157] Top shape: 1 1 63 63 (3969)
I1125 10:34:33.717334 17451 net.cpp:165] Memory required for data: 921929524
I1125 10:34:33.717336 17451 layer_factory.hpp:77] Creating layer rev-dsn4
I1125 10:34:33.717341 17451 net.cpp:100] Creating Layer rev-dsn4
I1125 10:34:33.717344 17451 net.cpp:434] rev-dsn4 <- sigmoid-dsn4
I1125 10:34:33.717350 17451 net.cpp:408] rev-dsn4 -> rev-dsn4
I1125 10:34:33.717367 17451 net.cpp:150] Setting up rev-dsn4
I1125 10:34:33.717371 17451 net.cpp:157] Top shape: 1 1 63 63 (3969)
I1125 10:34:33.717373 17451 net.cpp:165] Memory required for data: 921945400
I1125 10:34:33.717375 17451 layer_factory.hpp:77] Creating layer tile-dsn4
I1125 10:34:33.717383 17451 net.cpp:100] Creating Layer tile-dsn4
I1125 10:34:33.717386 17451 net.cpp:434] tile-dsn4 <- rev-dsn4
I1125 10:34:33.717389 17451 net.cpp:408] tile-dsn4 -> weight-dsn4
I1125 10:34:33.717407 17451 net.cpp:150] Setting up tile-dsn4
I1125 10:34:33.717412 17451 net.cpp:157] Top shape: 1 512 63 63 (2032128)
I1125 10:34:33.717414 17451 net.cpp:165] Memory required for data: 930073912
I1125 10:34:33.717417 17451 layer_factory.hpp:77] Creating layer prod1-dsn4
I1125 10:34:33.717422 17451 net.cpp:100] Creating Layer prod1-dsn4
I1125 10:34:33.717423 17451 net.cpp:434] prod1-dsn4 <- conv4_3_relu4_3_0_split_2
I1125 10:34:33.717428 17451 net.cpp:434] prod1-dsn4 <- weight-dsn4
I1125 10:34:33.717432 17451 net.cpp:408] prod1-dsn4 -> prod1-dsn4
I1125 10:34:33.717450 17451 net.cpp:150] Setting up prod1-dsn4
I1125 10:34:33.717454 17451 net.cpp:157] Top shape: 1 512 63 63 (2032128)
I1125 10:34:33.717456 17451 net.cpp:165] Memory required for data: 938202424
I1125 10:34:33.717458 17451 layer_factory.hpp:77] Creating layer conv1-dsn4
I1125 10:34:33.717468 17451 net.cpp:100] Creating Layer conv1-dsn4
I1125 10:34:33.717469 17451 net.cpp:434] conv1-dsn4 <- prod1-dsn4
I1125 10:34:33.717475 17451 net.cpp:408] conv1-dsn4 -> conv1-dsn4
I1125 10:34:33.718703 17451 net.cpp:150] Setting up conv1-dsn4
I1125 10:34:33.718713 17451 net.cpp:157] Top shape: 1 64 63 63 (254016)
I1125 10:34:33.718714 17451 net.cpp:165] Memory required for data: 939218488
I1125 10:34:33.718719 17451 layer_factory.hpp:77] Creating layer conv2-dsn4
I1125 10:34:33.718726 17451 net.cpp:100] Creating Layer conv2-dsn4
I1125 10:34:33.718729 17451 net.cpp:434] conv2-dsn4 <- conv1-dsn4
I1125 10:34:33.718735 17451 net.cpp:408] conv2-dsn4 -> conv2-dsn4
I1125 10:34:33.720245 17451 net.cpp:150] Setting up conv2-dsn4
I1125 10:34:33.720254 17451 net.cpp:157] Top shape: 1 64 63 63 (254016)
I1125 10:34:33.720273 17451 net.cpp:165] Memory required for data: 940234552
I1125 10:34:33.720278 17451 layer_factory.hpp:77] Creating layer relu1-dsn4
I1125 10:34:33.720283 17451 net.cpp:100] Creating Layer relu1-dsn4
I1125 10:34:33.720285 17451 net.cpp:434] relu1-dsn4 <- conv2-dsn4
I1125 10:34:33.720290 17451 net.cpp:395] relu1-dsn4 -> conv2-dsn4 (in-place)
I1125 10:34:33.720470 17451 net.cpp:150] Setting up relu1-dsn4
I1125 10:34:33.720477 17451 net.cpp:157] Top shape: 1 64 63 63 (254016)
I1125 10:34:33.720479 17451 net.cpp:165] Memory required for data: 941250616
I1125 10:34:33.720481 17451 layer_factory.hpp:77] Creating layer conv3-dsn4
I1125 10:34:33.720489 17451 net.cpp:100] Creating Layer conv3-dsn4
I1125 10:34:33.720492 17451 net.cpp:434] conv3-dsn4 <- conv2-dsn4
I1125 10:34:33.720499 17451 net.cpp:408] conv3-dsn4 -> conv3-dsn4
I1125 10:34:33.721768 17451 net.cpp:150] Setting up conv3-dsn4
I1125 10:34:33.721778 17451 net.cpp:157] Top shape: 1 64 63 63 (254016)
I1125 10:34:33.721781 17451 net.cpp:165] Memory required for data: 942266680
I1125 10:34:33.721784 17451 layer_factory.hpp:77] Creating layer relu2-dsn4
I1125 10:34:33.721789 17451 net.cpp:100] Creating Layer relu2-dsn4
I1125 10:34:33.721791 17451 net.cpp:434] relu2-dsn4 <- conv3-dsn4
I1125 10:34:33.721797 17451 net.cpp:395] relu2-dsn4 -> conv3-dsn4 (in-place)
I1125 10:34:33.721945 17451 net.cpp:150] Setting up relu2-dsn4
I1125 10:34:33.721951 17451 net.cpp:157] Top shape: 1 64 63 63 (254016)
I1125 10:34:33.721953 17451 net.cpp:165] Memory required for data: 943282744
I1125 10:34:33.721957 17451 layer_factory.hpp:77] Creating layer conv4-dsn4
I1125 10:34:33.721966 17451 net.cpp:100] Creating Layer conv4-dsn4
I1125 10:34:33.721968 17451 net.cpp:434] conv4-dsn4 <- conv3-dsn4
I1125 10:34:33.721974 17451 net.cpp:408] conv4-dsn4 -> conv4-dsn4
I1125 10:34:33.722923 17451 net.cpp:150] Setting up conv4-dsn4
I1125 10:34:33.722934 17451 net.cpp:157] Top shape: 1 1 63 63 (3969)
I1125 10:34:33.722936 17451 net.cpp:165] Memory required for data: 943298620
I1125 10:34:33.722940 17451 layer_factory.hpp:77] Creating layer sum-dsn4
I1125 10:34:33.722945 17451 net.cpp:100] Creating Layer sum-dsn4
I1125 10:34:33.722947 17451 net.cpp:434] sum-dsn4 <- conv4-dsn4
I1125 10:34:33.722951 17451 net.cpp:434] sum-dsn4 <- weight-dsn5-4_crop1-dsn4_0_split_1
I1125 10:34:33.722956 17451 net.cpp:408] sum-dsn4 -> sum-dsn4
I1125 10:34:33.722980 17451 net.cpp:150] Setting up sum-dsn4
I1125 10:34:33.722985 17451 net.cpp:157] Top shape: 1 1 63 63 (3969)
I1125 10:34:33.722986 17451 net.cpp:165] Memory required for data: 943314496
I1125 10:34:33.722990 17451 layer_factory.hpp:77] Creating layer sum-dsn4_sum-dsn4_0_split
I1125 10:34:33.722995 17451 net.cpp:100] Creating Layer sum-dsn4_sum-dsn4_0_split
I1125 10:34:33.722997 17451 net.cpp:434] sum-dsn4_sum-dsn4_0_split <- sum-dsn4
I1125 10:34:33.723002 17451 net.cpp:408] sum-dsn4_sum-dsn4_0_split -> sum-dsn4_sum-dsn4_0_split_0
I1125 10:34:33.723006 17451 net.cpp:408] sum-dsn4_sum-dsn4_0_split -> sum-dsn4_sum-dsn4_0_split_1
I1125 10:34:33.723037 17451 net.cpp:150] Setting up sum-dsn4_sum-dsn4_0_split
I1125 10:34:33.723047 17451 net.cpp:157] Top shape: 1 1 63 63 (3969)
I1125 10:34:33.723049 17451 net.cpp:157] Top shape: 1 1 63 63 (3969)
I1125 10:34:33.723052 17451 net.cpp:165] Memory required for data: 943346248
I1125 10:34:33.723054 17451 layer_factory.hpp:77] Creating layer upsample8_dsn4
I1125 10:34:33.723059 17451 net.cpp:100] Creating Layer upsample8_dsn4
I1125 10:34:33.723062 17451 net.cpp:434] upsample8_dsn4 <- sum-dsn4_sum-dsn4_0_split_0
I1125 10:34:33.723067 17451 net.cpp:408] upsample8_dsn4 -> sum-dsn4-up
I1125 10:34:33.724385 17451 net.cpp:150] Setting up upsample8_dsn4
I1125 10:34:33.724393 17451 net.cpp:157] Top shape: 1 1 512 512 (262144)
I1125 10:34:33.724411 17451 net.cpp:165] Memory required for data: 944394824
I1125 10:34:33.724416 17451 layer_factory.hpp:77] Creating layer crop2-dsn4
I1125 10:34:33.724423 17451 net.cpp:100] Creating Layer crop2-dsn4
I1125 10:34:33.724426 17451 net.cpp:434] crop2-dsn4 <- sum-dsn4-up
I1125 10:34:33.724431 17451 net.cpp:434] crop2-dsn4 <- data_augmentation_0_split_3
I1125 10:34:33.724434 17451 net.cpp:408] crop2-dsn4 -> upscore-dsn4
I1125 10:34:33.724478 17451 net.cpp:150] Setting up crop2-dsn4
I1125 10:34:33.724483 17451 net.cpp:157] Top shape: 1 1 500 500 (250000)
I1125 10:34:33.724484 17451 net.cpp:165] Memory required for data: 945394824
I1125 10:34:33.724486 17451 layer_factory.hpp:77] Creating layer loss4-score
I1125 10:34:33.724493 17451 net.cpp:100] Creating Layer loss4-score
I1125 10:34:33.724495 17451 net.cpp:434] loss4-score <- upscore-dsn4
I1125 10:34:33.724498 17451 net.cpp:434] loss4-score <- label_augmentation_1_split_2
I1125 10:34:33.724501 17451 net.cpp:408] loss4-score -> loss4-score
I1125 10:34:33.724670 17451 net.cpp:150] Setting up loss4-score
I1125 10:34:33.724675 17451 net.cpp:157] Top shape: (1)
I1125 10:34:33.724678 17451 net.cpp:160]     with loss weight 1
I1125 10:34:33.724683 17451 net.cpp:165] Memory required for data: 945394828
I1125 10:34:33.724686 17451 layer_factory.hpp:77] Creating layer upsample2_dsn3
I1125 10:34:33.724694 17451 net.cpp:100] Creating Layer upsample2_dsn3
I1125 10:34:33.724696 17451 net.cpp:434] upsample2_dsn3 <- sum-dsn4_sum-dsn4_0_split_1
I1125 10:34:33.724700 17451 net.cpp:408] upsample2_dsn3 -> sum-dsn4-3
I1125 10:34:33.724922 17451 net.cpp:150] Setting up upsample2_dsn3
I1125 10:34:33.724928 17451 net.cpp:157] Top shape: 1 1 128 128 (16384)
I1125 10:34:33.724931 17451 net.cpp:165] Memory required for data: 945460364
I1125 10:34:33.724936 17451 layer_factory.hpp:77] Creating layer crop1-dsn3
I1125 10:34:33.724939 17451 net.cpp:100] Creating Layer crop1-dsn3
I1125 10:34:33.724941 17451 net.cpp:434] crop1-dsn3 <- sum-dsn4-3
I1125 10:34:33.724944 17451 net.cpp:434] crop1-dsn3 <- conv3_3_relu3_3_0_split_1
I1125 10:34:33.724951 17451 net.cpp:408] crop1-dsn3 -> weight-dsn4-3
I1125 10:34:33.724972 17451 net.cpp:150] Setting up crop1-dsn3
I1125 10:34:33.724977 17451 net.cpp:157] Top shape: 1 1 125 125 (15625)
I1125 10:34:33.724978 17451 net.cpp:165] Memory required for data: 945522864
I1125 10:34:33.724982 17451 layer_factory.hpp:77] Creating layer weight-dsn4-3_crop1-dsn3_0_split
I1125 10:34:33.724985 17451 net.cpp:100] Creating Layer weight-dsn4-3_crop1-dsn3_0_split
I1125 10:34:33.724987 17451 net.cpp:434] weight-dsn4-3_crop1-dsn3_0_split <- weight-dsn4-3
I1125 10:34:33.724990 17451 net.cpp:408] weight-dsn4-3_crop1-dsn3_0_split -> weight-dsn4-3_crop1-dsn3_0_split_0
I1125 10:34:33.724997 17451 net.cpp:408] weight-dsn4-3_crop1-dsn3_0_split -> weight-dsn4-3_crop1-dsn3_0_split_1
I1125 10:34:33.725029 17451 net.cpp:150] Setting up weight-dsn4-3_crop1-dsn3_0_split
I1125 10:34:33.725034 17451 net.cpp:157] Top shape: 1 1 125 125 (15625)
I1125 10:34:33.725037 17451 net.cpp:157] Top shape: 1 1 125 125 (15625)
I1125 10:34:33.725039 17451 net.cpp:165] Memory required for data: 945647864
I1125 10:34:33.725041 17451 layer_factory.hpp:77] Creating layer sigmoid-dsn3
I1125 10:34:33.725047 17451 net.cpp:100] Creating Layer sigmoid-dsn3
I1125 10:34:33.725050 17451 net.cpp:434] sigmoid-dsn3 <- weight-dsn4-3_crop1-dsn3_0_split_0
I1125 10:34:33.725054 17451 net.cpp:408] sigmoid-dsn3 -> sigmoid-dsn3
I1125 10:34:33.725255 17451 net.cpp:150] Setting up sigmoid-dsn3
I1125 10:34:33.725263 17451 net.cpp:157] Top shape: 1 1 125 125 (15625)
I1125 10:34:33.725265 17451 net.cpp:165] Memory required for data: 945710364
I1125 10:34:33.725268 17451 layer_factory.hpp:77] Creating layer rev-dsn3
I1125 10:34:33.725275 17451 net.cpp:100] Creating Layer rev-dsn3
I1125 10:34:33.725277 17451 net.cpp:434] rev-dsn3 <- sigmoid-dsn3
I1125 10:34:33.725281 17451 net.cpp:408] rev-dsn3 -> rev-dsn3
I1125 10:34:33.725304 17451 net.cpp:150] Setting up rev-dsn3
I1125 10:34:33.725309 17451 net.cpp:157] Top shape: 1 1 125 125 (15625)
I1125 10:34:33.725311 17451 net.cpp:165] Memory required for data: 945772864
I1125 10:34:33.725314 17451 layer_factory.hpp:77] Creating layer tile-dsn3
I1125 10:34:33.725318 17451 net.cpp:100] Creating Layer tile-dsn3
I1125 10:34:33.725322 17451 net.cpp:434] tile-dsn3 <- rev-dsn3
I1125 10:34:33.725327 17451 net.cpp:408] tile-dsn3 -> weight-dsn3
I1125 10:34:33.725347 17451 net.cpp:150] Setting up tile-dsn3
I1125 10:34:33.725350 17451 net.cpp:157] Top shape: 1 256 125 125 (4000000)
I1125 10:34:33.725353 17451 net.cpp:165] Memory required for data: 961772864
I1125 10:34:33.725355 17451 layer_factory.hpp:77] Creating layer prod1-dsn3
I1125 10:34:33.725358 17451 net.cpp:100] Creating Layer prod1-dsn3
I1125 10:34:33.725361 17451 net.cpp:434] prod1-dsn3 <- conv3_3_relu3_3_0_split_2
I1125 10:34:33.725364 17451 net.cpp:434] prod1-dsn3 <- weight-dsn3
I1125 10:34:33.725369 17451 net.cpp:408] prod1-dsn3 -> prod1-dsn3
I1125 10:34:33.725389 17451 net.cpp:150] Setting up prod1-dsn3
I1125 10:34:33.725394 17451 net.cpp:157] Top shape: 1 256 125 125 (4000000)
I1125 10:34:33.725396 17451 net.cpp:165] Memory required for data: 977772864
I1125 10:34:33.725399 17451 layer_factory.hpp:77] Creating layer conv1-dsn3
I1125 10:34:33.725407 17451 net.cpp:100] Creating Layer conv1-dsn3
I1125 10:34:33.725410 17451 net.cpp:434] conv1-dsn3 <- prod1-dsn3
I1125 10:34:33.725414 17451 net.cpp:408] conv1-dsn3 -> conv1-dsn3
I1125 10:34:33.726804 17451 net.cpp:150] Setting up conv1-dsn3
I1125 10:34:33.726814 17451 net.cpp:157] Top shape: 1 64 125 125 (1000000)
I1125 10:34:33.726816 17451 net.cpp:165] Memory required for data: 981772864
I1125 10:34:33.726831 17451 layer_factory.hpp:77] Creating layer conv2-dsn3
I1125 10:34:33.726840 17451 net.cpp:100] Creating Layer conv2-dsn3
I1125 10:34:33.726842 17451 net.cpp:434] conv2-dsn3 <- conv1-dsn3
I1125 10:34:33.726850 17451 net.cpp:408] conv2-dsn3 -> conv2-dsn3
I1125 10:34:33.728145 17451 net.cpp:150] Setting up conv2-dsn3
I1125 10:34:33.728155 17451 net.cpp:157] Top shape: 1 64 125 125 (1000000)
I1125 10:34:33.728157 17451 net.cpp:165] Memory required for data: 985772864
I1125 10:34:33.728163 17451 layer_factory.hpp:77] Creating layer relu1-dsn3
I1125 10:34:33.728166 17451 net.cpp:100] Creating Layer relu1-dsn3
I1125 10:34:33.728169 17451 net.cpp:434] relu1-dsn3 <- conv2-dsn3
I1125 10:34:33.728176 17451 net.cpp:395] relu1-dsn3 -> conv2-dsn3 (in-place)
I1125 10:34:33.728324 17451 net.cpp:150] Setting up relu1-dsn3
I1125 10:34:33.728332 17451 net.cpp:157] Top shape: 1 64 125 125 (1000000)
I1125 10:34:33.728333 17451 net.cpp:165] Memory required for data: 989772864
I1125 10:34:33.728335 17451 layer_factory.hpp:77] Creating layer conv3-dsn3
I1125 10:34:33.728343 17451 net.cpp:100] Creating Layer conv3-dsn3
I1125 10:34:33.728346 17451 net.cpp:434] conv3-dsn3 <- conv2-dsn3
I1125 10:34:33.728350 17451 net.cpp:408] conv3-dsn3 -> conv3-dsn3
I1125 10:34:33.729617 17451 net.cpp:150] Setting up conv3-dsn3
I1125 10:34:33.729629 17451 net.cpp:157] Top shape: 1 64 125 125 (1000000)
I1125 10:34:33.729631 17451 net.cpp:165] Memory required for data: 993772864
I1125 10:34:33.729637 17451 layer_factory.hpp:77] Creating layer relu2-dsn3
I1125 10:34:33.729642 17451 net.cpp:100] Creating Layer relu2-dsn3
I1125 10:34:33.729645 17451 net.cpp:434] relu2-dsn3 <- conv3-dsn3
I1125 10:34:33.729650 17451 net.cpp:395] relu2-dsn3 -> conv3-dsn3 (in-place)
I1125 10:34:33.730057 17451 net.cpp:150] Setting up relu2-dsn3
I1125 10:34:33.730068 17451 net.cpp:157] Top shape: 1 64 125 125 (1000000)
I1125 10:34:33.730070 17451 net.cpp:165] Memory required for data: 997772864
I1125 10:34:33.730073 17451 layer_factory.hpp:77] Creating layer conv4-dsn3
I1125 10:34:33.730082 17451 net.cpp:100] Creating Layer conv4-dsn3
I1125 10:34:33.730084 17451 net.cpp:434] conv4-dsn3 <- conv3-dsn3
I1125 10:34:33.730089 17451 net.cpp:408] conv4-dsn3 -> conv4-dsn3
I1125 10:34:33.731109 17451 net.cpp:150] Setting up conv4-dsn3
I1125 10:34:33.731119 17451 net.cpp:157] Top shape: 1 1 125 125 (15625)
I1125 10:34:33.731122 17451 net.cpp:165] Memory required for data: 997835364
I1125 10:34:33.731132 17451 layer_factory.hpp:77] Creating layer sum-dsn3
I1125 10:34:33.731137 17451 net.cpp:100] Creating Layer sum-dsn3
I1125 10:34:33.731140 17451 net.cpp:434] sum-dsn3 <- conv4-dsn3
I1125 10:34:33.731143 17451 net.cpp:434] sum-dsn3 <- weight-dsn4-3_crop1-dsn3_0_split_1
I1125 10:34:33.731149 17451 net.cpp:408] sum-dsn3 -> sum-dsn3
I1125 10:34:33.731178 17451 net.cpp:150] Setting up sum-dsn3
I1125 10:34:33.731182 17451 net.cpp:157] Top shape: 1 1 125 125 (15625)
I1125 10:34:33.731184 17451 net.cpp:165] Memory required for data: 997897864
I1125 10:34:33.731189 17451 layer_factory.hpp:77] Creating layer sum-dsn3_sum-dsn3_0_split
I1125 10:34:33.731192 17451 net.cpp:100] Creating Layer sum-dsn3_sum-dsn3_0_split
I1125 10:34:33.731194 17451 net.cpp:434] sum-dsn3_sum-dsn3_0_split <- sum-dsn3
I1125 10:34:33.731199 17451 net.cpp:408] sum-dsn3_sum-dsn3_0_split -> sum-dsn3_sum-dsn3_0_split_0
I1125 10:34:33.731204 17451 net.cpp:408] sum-dsn3_sum-dsn3_0_split -> sum-dsn3_sum-dsn3_0_split_1
I1125 10:34:33.731237 17451 net.cpp:150] Setting up sum-dsn3_sum-dsn3_0_split
I1125 10:34:33.731242 17451 net.cpp:157] Top shape: 1 1 125 125 (15625)
I1125 10:34:33.731245 17451 net.cpp:157] Top shape: 1 1 125 125 (15625)
I1125 10:34:33.731247 17451 net.cpp:165] Memory required for data: 998022864
I1125 10:34:33.731250 17451 layer_factory.hpp:77] Creating layer upsample4_dsn3
I1125 10:34:33.731257 17451 net.cpp:100] Creating Layer upsample4_dsn3
I1125 10:34:33.731261 17451 net.cpp:434] upsample4_dsn3 <- sum-dsn3_sum-dsn3_0_split_0
I1125 10:34:33.731263 17451 net.cpp:408] upsample4_dsn3 -> sum-dsn3-up
I1125 10:34:33.732587 17451 net.cpp:150] Setting up upsample4_dsn3
I1125 10:34:33.732599 17451 net.cpp:157] Top shape: 1 1 504 504 (254016)
I1125 10:34:33.732601 17451 net.cpp:165] Memory required for data: 999038928
I1125 10:34:33.732606 17451 layer_factory.hpp:77] Creating layer crop2-dsn3
I1125 10:34:33.732611 17451 net.cpp:100] Creating Layer crop2-dsn3
I1125 10:34:33.732614 17451 net.cpp:434] crop2-dsn3 <- sum-dsn3-up
I1125 10:34:33.732617 17451 net.cpp:434] crop2-dsn3 <- data_augmentation_0_split_4
I1125 10:34:33.732625 17451 net.cpp:408] crop2-dsn3 -> upscore-dsn3
I1125 10:34:33.732653 17451 net.cpp:150] Setting up crop2-dsn3
I1125 10:34:33.732657 17451 net.cpp:157] Top shape: 1 1 500 500 (250000)
I1125 10:34:33.732659 17451 net.cpp:165] Memory required for data: 1000038928
I1125 10:34:33.732663 17451 layer_factory.hpp:77] Creating layer loss3-score
I1125 10:34:33.732671 17451 net.cpp:100] Creating Layer loss3-score
I1125 10:34:33.732673 17451 net.cpp:434] loss3-score <- upscore-dsn3
I1125 10:34:33.732676 17451 net.cpp:434] loss3-score <- label_augmentation_1_split_3
I1125 10:34:33.732679 17451 net.cpp:408] loss3-score -> loss3-score
I1125 10:34:33.732854 17451 net.cpp:150] Setting up loss3-score
I1125 10:34:33.732859 17451 net.cpp:157] Top shape: (1)
I1125 10:34:33.732861 17451 net.cpp:160]     with loss weight 1
I1125 10:34:33.732867 17451 net.cpp:165] Memory required for data: 1000038932
I1125 10:34:33.732868 17451 layer_factory.hpp:77] Creating layer upsample2_1-dsn2
I1125 10:34:33.732877 17451 net.cpp:100] Creating Layer upsample2_1-dsn2
I1125 10:34:33.732879 17451 net.cpp:434] upsample2_1-dsn2 <- sum-dsn3_sum-dsn3_0_split_1
I1125 10:34:33.732883 17451 net.cpp:408] upsample2_1-dsn2 -> sum-dsn3-2
I1125 10:34:33.733155 17451 net.cpp:150] Setting up upsample2_1-dsn2
I1125 10:34:33.733163 17451 net.cpp:157] Top shape: 1 1 252 252 (63504)
I1125 10:34:33.733165 17451 net.cpp:165] Memory required for data: 1000292948
I1125 10:34:33.733170 17451 layer_factory.hpp:77] Creating layer crop1-dsn2
I1125 10:34:33.733173 17451 net.cpp:100] Creating Layer crop1-dsn2
I1125 10:34:33.733175 17451 net.cpp:434] crop1-dsn2 <- sum-dsn3-2
I1125 10:34:33.733180 17451 net.cpp:434] crop1-dsn2 <- conv2_2_relu2_2_0_split_1
I1125 10:34:33.733182 17451 net.cpp:408] crop1-dsn2 -> weight-dsn3-2
I1125 10:34:33.733206 17451 net.cpp:150] Setting up crop1-dsn2
I1125 10:34:33.733211 17451 net.cpp:157] Top shape: 1 1 250 250 (62500)
I1125 10:34:33.733212 17451 net.cpp:165] Memory required for data: 1000542948
I1125 10:34:33.733214 17451 layer_factory.hpp:77] Creating layer weight-dsn3-2_crop1-dsn2_0_split
I1125 10:34:33.733217 17451 net.cpp:100] Creating Layer weight-dsn3-2_crop1-dsn2_0_split
I1125 10:34:33.733222 17451 net.cpp:434] weight-dsn3-2_crop1-dsn2_0_split <- weight-dsn3-2
I1125 10:34:33.733225 17451 net.cpp:408] weight-dsn3-2_crop1-dsn2_0_split -> weight-dsn3-2_crop1-dsn2_0_split_0
I1125 10:34:33.733229 17451 net.cpp:408] weight-dsn3-2_crop1-dsn2_0_split -> weight-dsn3-2_crop1-dsn2_0_split_1
I1125 10:34:33.733261 17451 net.cpp:150] Setting up weight-dsn3-2_crop1-dsn2_0_split
I1125 10:34:33.733265 17451 net.cpp:157] Top shape: 1 1 250 250 (62500)
I1125 10:34:33.733268 17451 net.cpp:157] Top shape: 1 1 250 250 (62500)
I1125 10:34:33.733270 17451 net.cpp:165] Memory required for data: 1001042948
I1125 10:34:33.733273 17451 layer_factory.hpp:77] Creating layer sigmoid-dsn2
I1125 10:34:33.733278 17451 net.cpp:100] Creating Layer sigmoid-dsn2
I1125 10:34:33.733279 17451 net.cpp:434] sigmoid-dsn2 <- weight-dsn3-2_crop1-dsn2_0_split_0
I1125 10:34:33.733284 17451 net.cpp:408] sigmoid-dsn2 -> sigmoid-dsn2
I1125 10:34:33.733769 17451 net.cpp:150] Setting up sigmoid-dsn2
I1125 10:34:33.733779 17451 net.cpp:157] Top shape: 1 1 250 250 (62500)
I1125 10:34:33.733781 17451 net.cpp:165] Memory required for data: 1001292948
I1125 10:34:33.733783 17451 layer_factory.hpp:77] Creating layer rev-dsn2
I1125 10:34:33.733788 17451 net.cpp:100] Creating Layer rev-dsn2
I1125 10:34:33.733791 17451 net.cpp:434] rev-dsn2 <- sigmoid-dsn2
I1125 10:34:33.733795 17451 net.cpp:408] rev-dsn2 -> rev-dsn2
I1125 10:34:33.733817 17451 net.cpp:150] Setting up rev-dsn2
I1125 10:34:33.733821 17451 net.cpp:157] Top shape: 1 1 250 250 (62500)
I1125 10:34:33.733824 17451 net.cpp:165] Memory required for data: 1001542948
I1125 10:34:33.733825 17451 layer_factory.hpp:77] Creating layer tile-dsn2
I1125 10:34:33.733829 17451 net.cpp:100] Creating Layer tile-dsn2
I1125 10:34:33.733831 17451 net.cpp:434] tile-dsn2 <- rev-dsn2
I1125 10:34:33.733834 17451 net.cpp:408] tile-dsn2 -> weight-dsn2
I1125 10:34:33.733851 17451 net.cpp:150] Setting up tile-dsn2
I1125 10:34:33.733855 17451 net.cpp:157] Top shape: 1 128 250 250 (8000000)
I1125 10:34:33.733857 17451 net.cpp:165] Memory required for data: 1033542948
I1125 10:34:33.733860 17451 layer_factory.hpp:77] Creating layer prod1-dsn2
I1125 10:34:33.733862 17451 net.cpp:100] Creating Layer prod1-dsn2
I1125 10:34:33.733865 17451 net.cpp:434] prod1-dsn2 <- conv2_2_relu2_2_0_split_2
I1125 10:34:33.733868 17451 net.cpp:434] prod1-dsn2 <- weight-dsn2
I1125 10:34:33.733871 17451 net.cpp:408] prod1-dsn2 -> prod1-dsn2
I1125 10:34:33.733889 17451 net.cpp:150] Setting up prod1-dsn2
I1125 10:34:33.733892 17451 net.cpp:157] Top shape: 1 128 250 250 (8000000)
I1125 10:34:33.733894 17451 net.cpp:165] Memory required for data: 1065542948
I1125 10:34:33.733898 17451 layer_factory.hpp:77] Creating layer conv1-dsn2
I1125 10:34:33.733904 17451 net.cpp:100] Creating Layer conv1-dsn2
I1125 10:34:33.733907 17451 net.cpp:434] conv1-dsn2 <- prod1-dsn2
I1125 10:34:33.733911 17451 net.cpp:408] conv1-dsn2 -> conv1-dsn2
I1125 10:34:33.736013 17451 net.cpp:150] Setting up conv1-dsn2
I1125 10:34:33.736023 17451 net.cpp:157] Top shape: 1 64 250 250 (4000000)
I1125 10:34:33.736025 17451 net.cpp:165] Memory required for data: 1081542948
I1125 10:34:33.736030 17451 layer_factory.hpp:77] Creating layer conv2-dsn2
I1125 10:34:33.736039 17451 net.cpp:100] Creating Layer conv2-dsn2
I1125 10:34:33.736042 17451 net.cpp:434] conv2-dsn2 <- conv1-dsn2
I1125 10:34:33.736048 17451 net.cpp:408] conv2-dsn2 -> conv2-dsn2
I1125 10:34:33.737620 17451 net.cpp:150] Setting up conv2-dsn2
I1125 10:34:33.737632 17451 net.cpp:157] Top shape: 1 64 250 250 (4000000)
I1125 10:34:33.737634 17451 net.cpp:165] Memory required for data: 1097542948
I1125 10:34:33.737638 17451 layer_factory.hpp:77] Creating layer relu1-dsn2
I1125 10:34:33.737643 17451 net.cpp:100] Creating Layer relu1-dsn2
I1125 10:34:33.737646 17451 net.cpp:434] relu1-dsn2 <- conv2-dsn2
I1125 10:34:33.737649 17451 net.cpp:395] relu1-dsn2 -> conv2-dsn2 (in-place)
I1125 10:34:33.738054 17451 net.cpp:150] Setting up relu1-dsn2
I1125 10:34:33.738063 17451 net.cpp:157] Top shape: 1 64 250 250 (4000000)
I1125 10:34:33.738065 17451 net.cpp:165] Memory required for data: 1113542948
I1125 10:34:33.738070 17451 layer_factory.hpp:77] Creating layer conv3-dsn2
I1125 10:34:33.738080 17451 net.cpp:100] Creating Layer conv3-dsn2
I1125 10:34:33.738082 17451 net.cpp:434] conv3-dsn2 <- conv2-dsn2
I1125 10:34:33.738087 17451 net.cpp:408] conv3-dsn2 -> conv3-dsn2
I1125 10:34:33.739384 17451 net.cpp:150] Setting up conv3-dsn2
I1125 10:34:33.739394 17451 net.cpp:157] Top shape: 1 64 250 250 (4000000)
I1125 10:34:33.739413 17451 net.cpp:165] Memory required for data: 1129542948
I1125 10:34:33.739418 17451 layer_factory.hpp:77] Creating layer relu2-dsn2
I1125 10:34:33.739423 17451 net.cpp:100] Creating Layer relu2-dsn2
I1125 10:34:33.739426 17451 net.cpp:434] relu2-dsn2 <- conv3-dsn2
I1125 10:34:33.739430 17451 net.cpp:395] relu2-dsn2 -> conv3-dsn2 (in-place)
I1125 10:34:33.739595 17451 net.cpp:150] Setting up relu2-dsn2
I1125 10:34:33.739601 17451 net.cpp:157] Top shape: 1 64 250 250 (4000000)
I1125 10:34:33.739603 17451 net.cpp:165] Memory required for data: 1145542948
I1125 10:34:33.739606 17451 layer_factory.hpp:77] Creating layer conv4-dsn2
I1125 10:34:33.739614 17451 net.cpp:100] Creating Layer conv4-dsn2
I1125 10:34:33.739617 17451 net.cpp:434] conv4-dsn2 <- conv3-dsn2
I1125 10:34:33.739622 17451 net.cpp:408] conv4-dsn2 -> conv4-dsn2
I1125 10:34:33.740623 17451 net.cpp:150] Setting up conv4-dsn2
I1125 10:34:33.740634 17451 net.cpp:157] Top shape: 1 1 250 250 (62500)
I1125 10:34:33.740638 17451 net.cpp:165] Memory required for data: 1145792948
I1125 10:34:33.740643 17451 layer_factory.hpp:77] Creating layer sum-dsn2
I1125 10:34:33.740648 17451 net.cpp:100] Creating Layer sum-dsn2
I1125 10:34:33.740649 17451 net.cpp:434] sum-dsn2 <- conv4-dsn2
I1125 10:34:33.740653 17451 net.cpp:434] sum-dsn2 <- weight-dsn3-2_crop1-dsn2_0_split_1
I1125 10:34:33.740656 17451 net.cpp:408] sum-dsn2 -> sum-dsn2
I1125 10:34:33.740684 17451 net.cpp:150] Setting up sum-dsn2
I1125 10:34:33.740687 17451 net.cpp:157] Top shape: 1 1 250 250 (62500)
I1125 10:34:33.740689 17451 net.cpp:165] Memory required for data: 1146042948
I1125 10:34:33.740691 17451 layer_factory.hpp:77] Creating layer upsample2_2-dsn2
I1125 10:34:33.740698 17451 net.cpp:100] Creating Layer upsample2_2-dsn2
I1125 10:34:33.740700 17451 net.cpp:434] upsample2_2-dsn2 <- sum-dsn2
I1125 10:34:33.740705 17451 net.cpp:408] upsample2_2-dsn2 -> sum-dsn2-up
I1125 10:34:33.742034 17451 net.cpp:150] Setting up upsample2_2-dsn2
I1125 10:34:33.742044 17451 net.cpp:157] Top shape: 1 1 502 502 (252004)
I1125 10:34:33.742046 17451 net.cpp:165] Memory required for data: 1147050964
I1125 10:34:33.742051 17451 layer_factory.hpp:77] Creating layer crop2-dsn2
I1125 10:34:33.742058 17451 net.cpp:100] Creating Layer crop2-dsn2
I1125 10:34:33.742061 17451 net.cpp:434] crop2-dsn2 <- sum-dsn2-up
I1125 10:34:33.742064 17451 net.cpp:434] crop2-dsn2 <- data_augmentation_0_split_5
I1125 10:34:33.742069 17451 net.cpp:408] crop2-dsn2 -> upscore-dsn2
I1125 10:34:33.742097 17451 net.cpp:150] Setting up crop2-dsn2
I1125 10:34:33.742102 17451 net.cpp:157] Top shape: 1 1 500 500 (250000)
I1125 10:34:33.742103 17451 net.cpp:165] Memory required for data: 1148050964
I1125 10:34:33.742106 17451 layer_factory.hpp:77] Creating layer upscore-dsn2_crop2-dsn2_0_split
I1125 10:34:33.742110 17451 net.cpp:100] Creating Layer upscore-dsn2_crop2-dsn2_0_split
I1125 10:34:33.742112 17451 net.cpp:434] upscore-dsn2_crop2-dsn2_0_split <- upscore-dsn2
I1125 10:34:33.742117 17451 net.cpp:408] upscore-dsn2_crop2-dsn2_0_split -> upscore-dsn2_crop2-dsn2_0_split_0
I1125 10:34:33.742142 17451 net.cpp:408] upscore-dsn2_crop2-dsn2_0_split -> upscore-dsn2_crop2-dsn2_0_split_1
I1125 10:34:33.742148 17451 net.cpp:408] upscore-dsn2_crop2-dsn2_0_split -> upscore-dsn2_crop2-dsn2_0_split_2
I1125 10:34:33.742192 17451 net.cpp:150] Setting up upscore-dsn2_crop2-dsn2_0_split
I1125 10:34:33.742199 17451 net.cpp:157] Top shape: 1 1 500 500 (250000)
I1125 10:34:33.742202 17451 net.cpp:157] Top shape: 1 1 500 500 (250000)
I1125 10:34:33.742205 17451 net.cpp:157] Top shape: 1 1 500 500 (250000)
I1125 10:34:33.742208 17451 net.cpp:165] Memory required for data: 1151050964
I1125 10:34:33.742209 17451 layer_factory.hpp:77] Creating layer loss2-score
I1125 10:34:33.742215 17451 net.cpp:100] Creating Layer loss2-score
I1125 10:34:33.742218 17451 net.cpp:434] loss2-score <- upscore-dsn2_crop2-dsn2_0_split_0
I1125 10:34:33.742221 17451 net.cpp:434] loss2-score <- label_augmentation_1_split_4
I1125 10:34:33.742225 17451 net.cpp:408] loss2-score -> loss2-score
I1125 10:34:33.742399 17451 net.cpp:150] Setting up loss2-score
I1125 10:34:33.742404 17451 net.cpp:157] Top shape: (1)
I1125 10:34:33.742408 17451 net.cpp:160]     with loss weight 1
I1125 10:34:33.742411 17451 net.cpp:165] Memory required for data: 1151050968
I1125 10:34:33.742413 17451 layer_factory.hpp:77] Creating layer sigmoid-dsn1
I1125 10:34:33.742419 17451 net.cpp:100] Creating Layer sigmoid-dsn1
I1125 10:34:33.742421 17451 net.cpp:434] sigmoid-dsn1 <- upscore-dsn2_crop2-dsn2_0_split_1
I1125 10:34:33.742424 17451 net.cpp:408] sigmoid-dsn1 -> sigmoid-dsn1
I1125 10:34:33.742599 17451 net.cpp:150] Setting up sigmoid-dsn1
I1125 10:34:33.742606 17451 net.cpp:157] Top shape: 1 1 500 500 (250000)
I1125 10:34:33.742609 17451 net.cpp:165] Memory required for data: 1152050968
I1125 10:34:33.742610 17451 layer_factory.hpp:77] Creating layer rev-dsn1
I1125 10:34:33.742615 17451 net.cpp:100] Creating Layer rev-dsn1
I1125 10:34:33.742619 17451 net.cpp:434] rev-dsn1 <- sigmoid-dsn1
I1125 10:34:33.742622 17451 net.cpp:408] rev-dsn1 -> rev-dsn1
I1125 10:34:33.742645 17451 net.cpp:150] Setting up rev-dsn1
I1125 10:34:33.742650 17451 net.cpp:157] Top shape: 1 1 500 500 (250000)
I1125 10:34:33.742650 17451 net.cpp:165] Memory required for data: 1153050968
I1125 10:34:33.742655 17451 layer_factory.hpp:77] Creating layer tile-dsn1
I1125 10:34:33.742660 17451 net.cpp:100] Creating Layer tile-dsn1
I1125 10:34:33.742661 17451 net.cpp:434] tile-dsn1 <- rev-dsn1
I1125 10:34:33.742666 17451 net.cpp:408] tile-dsn1 -> weight-dsn1
I1125 10:34:33.742686 17451 net.cpp:150] Setting up tile-dsn1
I1125 10:34:33.742691 17451 net.cpp:157] Top shape: 1 64 500 500 (16000000)
I1125 10:34:33.742692 17451 net.cpp:165] Memory required for data: 1217050968
I1125 10:34:33.742694 17451 layer_factory.hpp:77] Creating layer prod1-dsn1
I1125 10:34:33.742698 17451 net.cpp:100] Creating Layer prod1-dsn1
I1125 10:34:33.742700 17451 net.cpp:434] prod1-dsn1 <- conv1_2_relu1_2_0_split_1
I1125 10:34:33.742703 17451 net.cpp:434] prod1-dsn1 <- weight-dsn1
I1125 10:34:33.742708 17451 net.cpp:408] prod1-dsn1 -> prod1-dsn1
I1125 10:34:33.742728 17451 net.cpp:150] Setting up prod1-dsn1
I1125 10:34:33.742733 17451 net.cpp:157] Top shape: 1 64 500 500 (16000000)
I1125 10:34:33.742734 17451 net.cpp:165] Memory required for data: 1281050968
I1125 10:34:33.742736 17451 layer_factory.hpp:77] Creating layer conv1-dsn1
I1125 10:34:33.742755 17451 net.cpp:100] Creating Layer conv1-dsn1
I1125 10:34:33.742758 17451 net.cpp:434] conv1-dsn1 <- prod1-dsn1
I1125 10:34:33.742763 17451 net.cpp:408] conv1-dsn1 -> conv1-dsn1
I1125 10:34:33.745146 17451 net.cpp:150] Setting up conv1-dsn1
I1125 10:34:33.745155 17451 net.cpp:157] Top shape: 1 64 500 500 (16000000)
I1125 10:34:33.745168 17451 net.cpp:165] Memory required for data: 1345050968
I1125 10:34:33.745174 17451 layer_factory.hpp:77] Creating layer conv2-dsn1
I1125 10:34:33.745185 17451 net.cpp:100] Creating Layer conv2-dsn1
I1125 10:34:33.745188 17451 net.cpp:434] conv2-dsn1 <- conv1-dsn1
I1125 10:34:33.745195 17451 net.cpp:408] conv2-dsn1 -> conv2-dsn1
I1125 10:34:33.746639 17451 net.cpp:150] Setting up conv2-dsn1
I1125 10:34:33.746649 17451 net.cpp:157] Top shape: 1 64 500 500 (16000000)
I1125 10:34:33.746654 17451 net.cpp:165] Memory required for data: 1409050968
I1125 10:34:33.746659 17451 layer_factory.hpp:77] Creating layer relu1-dsn1
I1125 10:34:33.746662 17451 net.cpp:100] Creating Layer relu1-dsn1
I1125 10:34:33.746665 17451 net.cpp:434] relu1-dsn1 <- conv2-dsn1
I1125 10:34:33.746670 17451 net.cpp:395] relu1-dsn1 -> conv2-dsn1 (in-place)
I1125 10:34:33.746822 17451 net.cpp:150] Setting up relu1-dsn1
I1125 10:34:33.746829 17451 net.cpp:157] Top shape: 1 64 500 500 (16000000)
I1125 10:34:33.746831 17451 net.cpp:165] Memory required for data: 1473050968
I1125 10:34:33.746834 17451 layer_factory.hpp:77] Creating layer conv3-dsn1
I1125 10:34:33.746843 17451 net.cpp:100] Creating Layer conv3-dsn1
I1125 10:34:33.746846 17451 net.cpp:434] conv3-dsn1 <- conv2-dsn1
I1125 10:34:33.746850 17451 net.cpp:408] conv3-dsn1 -> conv3-dsn1
I1125 10:34:33.749210 17451 net.cpp:150] Setting up conv3-dsn1
I1125 10:34:33.749220 17451 net.cpp:157] Top shape: 1 64 500 500 (16000000)
I1125 10:34:33.749238 17451 net.cpp:165] Memory required for data: 1537050968
I1125 10:34:33.749243 17451 layer_factory.hpp:77] Creating layer relu2-dsn1
I1125 10:34:33.749248 17451 net.cpp:100] Creating Layer relu2-dsn1
I1125 10:34:33.749251 17451 net.cpp:434] relu2-dsn1 <- conv3-dsn1
I1125 10:34:33.749256 17451 net.cpp:395] relu2-dsn1 -> conv3-dsn1 (in-place)
I1125 10:34:33.749426 17451 net.cpp:150] Setting up relu2-dsn1
I1125 10:34:33.749433 17451 net.cpp:157] Top shape: 1 64 500 500 (16000000)
I1125 10:34:33.749436 17451 net.cpp:165] Memory required for data: 1601050968
I1125 10:34:33.749440 17451 layer_factory.hpp:77] Creating layer conv4-dsn1
I1125 10:34:33.749462 17451 net.cpp:100] Creating Layer conv4-dsn1
I1125 10:34:33.749465 17451 net.cpp:434] conv4-dsn1 <- conv3-dsn1
I1125 10:34:33.749471 17451 net.cpp:408] conv4-dsn1 -> conv4-dsn1
I1125 10:34:33.750610 17451 net.cpp:150] Setting up conv4-dsn1
I1125 10:34:33.750620 17451 net.cpp:157] Top shape: 1 1 500 500 (250000)
I1125 10:34:33.750623 17451 net.cpp:165] Memory required for data: 1602050968
I1125 10:34:33.750627 17451 layer_factory.hpp:77] Creating layer sum-dsn1
I1125 10:34:33.750635 17451 net.cpp:100] Creating Layer sum-dsn1
I1125 10:34:33.750638 17451 net.cpp:434] sum-dsn1 <- conv4-dsn1
I1125 10:34:33.750643 17451 net.cpp:434] sum-dsn1 <- upscore-dsn2_crop2-dsn2_0_split_2
I1125 10:34:33.750645 17451 net.cpp:408] sum-dsn1 -> sum-dsn1
I1125 10:34:33.750672 17451 net.cpp:150] Setting up sum-dsn1
I1125 10:34:33.750676 17451 net.cpp:157] Top shape: 1 1 500 500 (250000)
I1125 10:34:33.750679 17451 net.cpp:165] Memory required for data: 1603050968
I1125 10:34:33.750680 17451 layer_factory.hpp:77] Creating layer crop2-dsn1
I1125 10:34:33.750685 17451 net.cpp:100] Creating Layer crop2-dsn1
I1125 10:34:33.750689 17451 net.cpp:434] crop2-dsn1 <- sum-dsn1
I1125 10:34:33.750691 17451 net.cpp:434] crop2-dsn1 <- data_augmentation_0_split_6
I1125 10:34:33.750694 17451 net.cpp:408] crop2-dsn1 -> upscore-dsn1
I1125 10:34:33.750715 17451 net.cpp:150] Setting up crop2-dsn1
I1125 10:34:33.750722 17451 net.cpp:157] Top shape: 1 1 500 500 (250000)
I1125 10:34:33.750725 17451 net.cpp:165] Memory required for data: 1604050968
I1125 10:34:33.750726 17451 layer_factory.hpp:77] Creating layer loss1-score
I1125 10:34:33.750732 17451 net.cpp:100] Creating Layer loss1-score
I1125 10:34:33.750735 17451 net.cpp:434] loss1-score <- upscore-dsn1
I1125 10:34:33.750738 17451 net.cpp:434] loss1-score <- label_augmentation_1_split_5
I1125 10:34:33.750743 17451 net.cpp:408] loss1-score -> loss1-score
…
I1125 10:34:33.755342 17451 net.cpp:58] Initializing net from parameters: 
name: "RAS"
state {
  phase: TEST
}
layer {
  name: "data"
  type: "ImageLabelmapData"
  top: "data"
  top: "label"
  include {
    phase: TEST
  }
  transform_param {
    mean_value: 104.00699
    mean_value: 116.66877
    mean_value: 122.67892
  }
  image_data_param {
    source: "/media/compute/homes/galberding/FleckDetect/Datasets/val.txt"
    batch_size: 1
    new_height: 500
    new_width: 500
    root_folder: "/media/compute/homes/galberding/FleckDetect/Datasets/"
    normalize: true
  }
}
layer {
  name: "conv1_1"
  type: "Convolution"
  bottom: "data"
  top: "conv1_1"
  param {
    lr_mult: 1
    decay_mult: 1
  }
  param {
    lr_mult: 2
    decay_mult: 0
  }
  convolution_param {
    num_output: 64
    pad: 1
    kernel_size: 3
    engine: CUDNN
  }
}
layer {
  name: "relu1_1"
  type: "ReLU"
  bottom: "conv1_1"
  top: "conv1_1"
}
layer {
  name: "conv1_2"
  type: "Convolution"
  bottom: "conv1_1"
  top: "conv1_2"
  param {
    lr_mult: 1
    decay_mult: 1
  }
  param {
    lr_mult: 2
    decay_mult: 0
  }
  convolution_param {
    num_output: 64
    pad: 1
    kernel_size: 3
    engine: CUDNN
  }
}
layer {
  name: "relu1_2"
  type: "ReLU"
  bottom: "conv1_2"
  top: "conv1_2"
}
layer {
  name: "pool1"
  type: "Pooling"
  bottom: "conv1_2"
  top: "pool1"
  pooling_param {
    pool: MAX
    kernel_size: 2
    stride: 2
  }
}
layer {
  name: "conv2_1"
  type: "Convolution"
  bottom: "pool1"
  top: "conv2_1"
  param {
    lr_mult: 1
    decay_mult: 1
  }
  param {
    lr_mult: 2
    decay_mult: 0
  }
  convolution_param {
    num_output: 128
    pad: 1
    kernel_size: 3
    engine: CUDNN
  }
}
layer {
  name: "relu2_1"
  type: "ReLU"
  bottom: "conv2_1"
  top: "conv2_1"
}
layer {
  name: "conv2_2"
  type: "Convolution"
  bottom: "conv2_1"
  top: "conv2_2"
  param {
    lr_mult: 1
    decay_mult: 1
  }
  param {
    lr_mult: 2
    decay_mult: 0
  }
  convolution_param {
    num_output: 128
    pad: 1
    kernel_size: 3
    engine: CUDNN
  }
}
layer {
  name: "relu2_2"
  type: "ReLU"
  bottom: "conv2_2"
  top: "conv2_2"
}
layer {
  name: "pool2"
  type: "Pooling"
  bottom: "conv2_2"
  top: "pool2"
  pooling_param {
    pool: MAX
    kernel_size: 2
    stride: 2
  }
}
layer {
  name: "conv3_1"
  type: "Convolution"
  bottom: "pool2"
  top: "conv3_1"
  param {
    lr_mult: 1
    decay_mult: 1
  }
  param {
    lr_mult: 2
    decay_mult: 0
  }
  convolution_param {
    num_output: 256
    pad: 1
    kernel_size: 3
    engine: CUDNN
  }
}
layer {
  name: "relu3_1"
  type: "ReLU"
  bottom: "conv3_1"
  top: "conv3_1"
}
layer {
  name: "conv3_2"
  type: "Convolution"
  bottom: "conv3_1"
  top: "conv3_2"
  param {
    lr_mult: 1
    decay_mult: 1
  }
  param {
    lr_mult: 2
    decay_mult: 0
  }
  convolution_param {
    num_output: 256
    pad: 1
    kernel_size: 3
    engine: CUDNN
  }
}
layer {
  name: "relu3_2"
  type: "ReLU"
  bottom: "conv3_2"
  top: "conv3_2"
}
layer {
  name: "conv3_3"
  type: "Convolution"
  bottom: "conv3_2"
  top: "conv3_3"
  param {
    lr_mult: 1
    decay_mult: 1
  }
  param {
    lr_mult: 2
    decay_mult: 0
  }
  convolution_param {
    num_output: 256
    pad: 1
    kernel_size: 3
    engine: CUDNN
  }
}
layer {
  name: "relu3_3"
  type: "ReLU"
  bottom: "conv3_3"
  top: "conv3_3"
}
layer {
  name: "pool3"
  type: "Pooling"
  bottom: "conv3_3"
  top: "pool3"
  pooling_param {
    pool: MAX
    kernel_size: 2
    stride: 2
  }
}
layer {
  name: "conv4_1"
  type: "Convolution"
  bottom: "pool3"
  top: "conv4_1"
  param {
    lr_mult: 1
    decay_mult: 1
  }
  param {
    lr_mult: 2
    decay_mult: 0
  }
  convolution_param {
    num_output: 512
    pad: 1
    kernel_size: 3
    engine: CUDNN
  }
}
layer {
  name: "relu4_1"
  type: "ReLU"
  bottom: "conv4_1"
  top: "conv4_1"
}
layer {
  name: "conv4_2"
  type: "Convolution"
  bottom: "conv4_1"
  top: "conv4_2"
  param {
    lr_mult: 1
    decay_mult: 1
  }
  param {
    lr_mult: 2
    decay_mult: 0
  }
  convolution_param {
    num_output: 512
    pad: 1
    kernel_size: 3
    engine: CUDNN
  }
}
layer {
  name: "relu4_2"
  type: "ReLU"
  bottom: "conv4_2"
  top: "conv4_2"
}
layer {
  name: "conv4_3"
  type: "Convolution"
  bottom: "conv4_2"
  top: "conv4_3"
  param {
    lr_mult: 1
    decay_mult: 1
  }
  param {
    lr_mult: 2
    decay_mult: 0
  }
  convolution_param {
    num_output: 512
    pad: 1
    kernel_size: 3
    engine: CUDNN
  }
}
layer {
  name: "relu4_3"
  type: "ReLU"
  bottom: "conv4_3"
  top: "conv4_3"
}
layer {
  name: "pool4"
  type: "Pooling"
  bottom: "conv4_3"
  top: "pool4"
  pooling_param {
    pool: MAX
    kernel_size: 3
    stride: 2
    pad: 1
  }
}
layer {
  name: "conv5_1"
  type: "Convolution"
  bottom: "pool4"
  top: "conv5_1"
  param {
    lr_mult: 1
    decay_mult: 1
  }
  param {
    lr_mult: 2
    decay_mult: 0
  }
  convolution_param {
    num_output: 512
    pad: 1
    kernel_size: 3
    engine: CUDNN
  }
}
layer {
  name: "relu5_1"
  type: "ReLU"
  bottom: "conv5_1"
  top: "conv5_1"
}
layer {
  name: "conv5_2"
  type: "Convolution"
  bottom: "conv5_1"
  top: "conv5_2"
  param {
    lr_mult: 1
    decay_mult: 1
  }
  param {
    lr_mult: 2
    decay_mult: 0
  }
  convolution_param {
    num_output: 512
    pad: 1
    kernel_size: 3
    engine: CUDNN
  }
}
layer {
  name: "relu5_2"
  type: "ReLU"
  bottom: "conv5_2"
  top: "conv5_2"
}
layer {
  name: "conv5_3"
  type: "Convolution"
  bottom: "conv5_2"
  top: "conv5_3"
  param {
    lr_mult: 1
    decay_mult: 1
  }
  param {
    lr_mult: 2
    decay_mult: 0
  }
  convolution_param {
    num_output: 512
    pad: 1
    kernel_size: 3
    engine: CUDNN
  }
}
layer {
  name: "relu5_3"
  type: "ReLU"
  bottom: "conv5_3"
  top: "conv5_3"
}
layer {
  name: "pool5"
  type: "Pooling"
  bottom: "conv5_3"
  top: "pool5"
  pooling_param {
    pool: MAX
    kernel_size: 3
    stride: 2
    pad: 1
  }
}
layer {
  name: "conv1-dsn6"
  type: "Convolution"
  bottom: "pool5"
  top: "conv1-dsn6"
  param {
    lr_mult: 1
    decay_mult: 1
  }
  param {
    lr_mult: 2
    decay_mult: 0
  }
  convolution_param {
    num_output: 256
    kernel_size: 1
    weight_filler {
      type: "gaussian"
      std: 0.01
    }
    bias_filler {
      type: "constant"
      value: 0
    }
    engine: CUDNN
  }
}
layer {
  name: "conv2-dsn6"
  type: "Convolution"
  bottom: "conv1-dsn6"
  top: "conv2-dsn6"
  param {
    lr_mult: 1
    decay_mult: 1
  }
  param {
    lr_mult: 2
    decay_mult: 0
  }
  convolution_param {
    num_output: 256
    pad: 2
    kernel_size: 5
    weight_filler {
      type: "gaussian"
      std: 0.01
    }
    bias_filler {
      type: "constant"
      value: 0
    }
    engine: CUDNN
  }
}
layer {
  name: "relu1-dsn6"
  type: "ReLU"
  bottom: "conv2-dsn6"
  top: "conv2-dsn6"
}
layer {
  name: "conv3-dsn6"
  type: "Convolution"
  bottom: "conv2-dsn6"
  top: "conv3-dsn6"
  param {
    lr_mult: 1
    decay_mult: 1
  }
  param {
    lr_mult: 2
    decay_mult: 0
  }
  convolution_param {
    num_output: 256
    pad: 2
    kernel_size: 5
    weight_filler {
      type: "gaussian"
      std: 0.01
    }
    bias_filler {
      type: "constant"
      value: 0
    }
    engine: CUDNN
  }
}
layer {
  name: "relu2-dsn6"
  type: "ReLU"
  bottom: "conv3-dsn6"
  top: "conv3-dsn6"
}
layer {
  name: "conv4-dsn6"
  type: "Convolution"
  bottom: "conv3-dsn6"
  top: "conv4-dsn6"
  param {
    lr_mult: 1
    decay_mult: 1
  }
  param {
    lr_mult: 2
    decay_mult: 0
  }
  convolution_param {
    num_output: 256
    pad: 2
    kernel_size: 5
    weight_filler {
      type: "gaussian"
      std: 0.01
    }
    bias_filler {
      type: "constant"
      value: 0
    }
    engine: CUDNN
  }
}
layer {
  name: "relu3-dsn6"
  type: "ReLU"
  bottom: "conv4-dsn6"
  top: "conv4-dsn6"
}
layer {
  name: "conv5-dsn6"
  type: "Convolution"
  bottom: "conv4-dsn6"
  top: "conv5-dsn6"
  param {
    lr_mult: 0.1
    decay_mult: 1
  }
  param {
    lr_mult: 0.2
    decay_mult: 0
  }
  convolution_param {
    num_output: 1
    kernel_size: 1
    weight_filler {
      type: "gaussian"
      std: 0.01
    }
    bias_filler {
      type: "constant"
      value: 0
    }
    engine: CUDNN
  }
}
layer {
  name: "upsample32_dsn6"
  type: "Deconvolution"
  bottom: "conv5-dsn6"
  top: "conv5-dsn6-up"
  param {
    lr_mult: 0
    decay_mult: 1
  }
  param {
    lr_mult: 0
    decay_mult: 0
  }
  convolution_param {
    num_output: 1
    kernel_size: 64
    stride: 32
  }
}
layer {
  name: "crop-dsn6"
  type: "Crop"
  bottom: "conv5-dsn6-up"
  bottom: "data"
  top: "upscore-dsn6"
}
layer {
  name: "loss6-score"
  type: "SigmoidCrossEntropyLoss"
  bottom: "upscore-dsn6"
  bottom: "label"
  top: "loss6-score"
  loss_weight: 1
}
layer {
  name: "upsample2_dsn5"
  type: "Deconvolution"
  bottom: "conv5-dsn6"
  top: "conv5-dsn6-5"
  param {
    lr_mult: 0
    decay_mult: 1
  }
  param {
    lr_mult: 0
    decay_mult: 0
  }
  convolution_param {
    num_output: 1
    kernel_size: 4
    stride: 2
  }
}
layer {
  name: "crop1-dsn5"
  type: "Crop"
  bottom: "conv5-dsn6-5"
  bottom: "conv5_3"
  top: "weight-dsn6-5"
}
layer {
  name: "sigmoid-dsn5"
  type: "Sigmoid"
  bottom: "weight-dsn6-5"
  top: "sigmoid-dsn5"
}
layer {
  name: "rev-dsn5"
  type: "Power"
  bottom: "sigmoid-dsn5"
  top: "rev-dsn5"
  power_param {
    power: 1
    scale: -1
    shift: 1
  }
}
layer {
  name: "tile-dsn5"
  type: "Tile"
  bottom: "rev-dsn5"
  top: "weight-dsn5"
  tile_param {
    tiles: 512
  }
}
layer {
  name: "prod1-dsn5"
  type: "Eltwise"
  bottom: "conv5_3"
  bottom: "weight-dsn5"
  top: "prod1-dsn5"
  eltwise_param {
    operation: PROD
  }
}
layer {
  name: "conv1-dsn5"
  type: "Convolution"
  bottom: "prod1-dsn5"
  top: "conv1-dsn5"
  param {
    lr_mult: 1
    decay_mult: 1
  }
  param {
    lr_mult: 2
    decay_mult: 0
  }
  convolution_param {
    num_output: 64
    kernel_size: 1
    weight_filler {
      type: "gaussian"
      std: 0.01
    }
    bias_filler {
      type: "constant"
      value: 0
    }
    engine: CUDNN
  }
}
layer {
  name: "conv2-dsn5"
  type: "Convolution"
  bottom: "conv1-dsn5"
  top: "conv2-dsn5"
  param {
    lr_mult: 1
    decay_mult: 1
  }
  param {
    lr_mult: 2
    decay_mult: 0
  }
  convolution_param {
    num_output: 64
    pad: 1
    kernel_size: 3
    weight_filler {
      type: "gaussian"
      std: 0.01
    }
    bias_filler {
      type: "constant"
      value: 0
    }
    engine: CUDNN
  }
}
layer {
  name: "relu1-dsn5"
  type: "ReLU"
  bottom: "conv2-dsn5"
  top: "conv2-dsn5"
}
layer {
  name: "conv3-dsn5"
  type: "Convolution"
  bottom: "conv2-dsn5"
  top: "conv3-dsn5"
  param {
    lr_mult: 1
    decay_mult: 1
  }
  param {
    lr_mult: 2
    decay_mult: 0
  }
  convolution_param {
    num_output: 64
    pad: 1
    kernel_size: 3
    weight_filler {
      type: "gaussian"
      std: 0.01
    }
    bias_filler {
      type: "constant"
      value: 0
    }
    engine: CUDNN
  }
}
layer {
  name: "relu2-dsn5"
  type: "ReLU"
  bottom: "conv3-dsn5"
  top: "conv3-dsn5"
}
layer {
  name: "conv4-dsn5"
  type: "Convolution"
  bottom: "conv3-dsn5"
  top: "conv4-dsn5"
  param {
    lr_mult: 1
    decay_mult: 1
  }
  param {
    lr_mult: 2
    decay_mult: 0
  }
  convolution_param {
    num_output: 1
    pad: 1
    kernel_size: 3
    weight_filler {
      type: "gaussian"
      std: 0.01
    }
    bias_filler {
      type: "constant"
      value: 0
    }
    engine: CUDNN
  }
}
layer {
  name: "sum-dsn5"
  type: "Eltwise"
  bottom: "conv4-dsn5"
  bottom: "weight-dsn6-5"
  top: "sum-dsn5"
  eltwise_param {
    operation: SUM
  }
}
layer {
  name: "upsample16_dsn5"
  type: "Deconvolution"
  bottom: "sum-dsn5"
  top: "sum-dsn5-up"
  param {
    lr_mult: 0
    decay_mult: 1
  }
  param {
    lr_mult: 0
    decay_mult: 0
  }
  convolution_param {
    num_output: 1
    kernel_size: 32
    stride: 16
  }
}
layer {
  name: "crop2-dsn5"
  type: "Crop"
  bottom: "sum-dsn5-up"
  bottom: "data"
  top: "upscore-dsn5"
}
layer {
  name: "loss5-score"
  type: "SigmoidCrossEntropyLoss"
  bottom: "upscore-dsn5"
  bottom: "label"
  top: "loss5-score"
  loss_weight: 1
}
layer {
  name: "upsample2_dsn4"
  type: "Deconvolution"
  bottom: "sum-dsn5"
  top: "sum-dsn5-4"
  param {
    lr_mult: 0
    decay_mult: 1
  }
  param {
    lr_mult: 0
    decay_mult: 0
  }
  convolution_param {
    num_output: 1
    kernel_size: 4
    stride: 2
  }
}
layer {
  name: "crop1-dsn4"
  type: "Crop"
  bottom: "sum-dsn5-4"
  bottom: "conv4_3"
  top: "weight-dsn5-4"
}
layer {
  name: "sigmoid-dsn4"
  type: "Sigmoid"
  bottom: "weight-dsn5-4"
  top: "sigmoid-dsn4"
}
layer {
  name: "rev-dsn4"
  type: "Power"
  bottom: "sigmoid-dsn4"
  top: "rev-dsn4"
  power_param {
    power: 1
    scale: -1
    shift: 1
  }
}
layer {
  name: "tile-dsn4"
  type: "Tile"
  bottom: "rev-dsn4"
  top: "weight-dsn4"
  tile_param {
    tiles: 512
  }
}
layer {
  name: "prod1-dsn4"
  type: "Eltwise"
  bottom: "conv4_3"
  bottom: "weight-dsn4"
  top: "prod1-dsn4"
  eltwise_param {
    operation: PROD
  }
}
layer {
  name: "conv1-dsn4"
  type: "Convolution"
  bottom: "prod1-dsn4"
  top: "conv1-dsn4"
  param {
    lr_mult: 1
    decay_mult: 1
  }
  param {
    lr_mult: 2
    decay_mult: 0
  }
  convolution_param {
    num_output: 64
    kernel_size: 1
    weight_filler {
      type: "gaussian"
      std: 0.01
    }
    bias_filler {
      type: "constant"
      value: 0
    }
    engine: CUDNN
  }
}
layer {
  name: "conv2-dsn4"
  type: "Convolution"
  bottom: "conv1-dsn4"
  top: "conv2-dsn4"
  param {
    lr_mult: 1
    decay_mult: 1
  }
  param {
    lr_mult: 2
    decay_mult: 0
  }
  convolution_param {
    num_output: 64
    pad: 1
    kernel_size: 3
    weight_filler {
      type: "gaussian"
      std: 0.01
    }
    bias_filler {
      type: "constant"
      value: 0
    }
    engine: CUDNN
  }
}
layer {
  name: "relu1-dsn4"
  type: "ReLU"
  bottom: "conv2-dsn4"
  top: "conv2-dsn4"
}
layer {
  name: "conv3-dsn4"
  type: "Convolution"
  bottom: "conv2-dsn4"
  top: "conv3-dsn4"
  param {
    lr_mult: 1
    decay_mult: 1
  }
  param {
    lr_mult: 2
    decay_mult: 0
  }
  convolution_param {
    num_output: 64
    pad: 1
    kernel_size: 3
    weight_filler {
      type: "gaussian"
      std: 0.01
    }
    bias_filler {
      type: "constant"
      value: 0
    }
    engine: CUDNN
  }
}
layer {
  name: "relu2-dsn4"
  type: "ReLU"
  bottom: "conv3-dsn4"
  top: "conv3-dsn4"
}
layer {
  name: "conv4-dsn4"
  type: "Convolution"
  bottom: "conv3-dsn4"
  top: "conv4-dsn4"
  param {
    lr_mult: 1
    decay_mult: 1
  }
  param {
    lr_mult: 2
    decay_mult: 0
  }
  convolution_param {
    num_output: 1
    pad: 1
    kernel_size: 3
    weight_filler {
      type: "gaussian"
      std: 0.01
    }
    bias_filler {
      type: "constant"
      value: 0
    }
    engine: CUDNN
  }
}
layer {
  name: "sum-dsn4"
  type: "Eltwise"
  bottom: "conv4-dsn4"
  bottom: "weight-dsn5-4"
  top: "sum-dsn4"
  eltwise_param {
    operation: SUM
  }
}
layer {
  name: "upsample8_dsn4"
  type: "Deconvolution"
  bottom: "sum-dsn4"
  top: "sum-dsn4-up"
  param {
    lr_mult: 0
    decay_mult: 1
  }
  param {
    lr_mult: 0
    decay_mult: 0
  }
  convolution_param {
    num_output: 1
    kernel_size: 16
    stride: 8
  }
}
layer {
  name: "crop2-dsn4"
  type: "Crop"
  bottom: "sum-dsn4-up"
  bottom: "data"
  top: "upscore-dsn4"
}
layer {
  name: "loss4-score"
  type: "SigmoidCrossEntropyLoss"
  bottom: "upscore-dsn4"
  bottom: "label"
  top: "loss4-score"
  loss_weight: 1
}
layer {
  name: "upsample2_dsn3"
  type: "Deconvolution"
  bottom: "sum-dsn4"
  top: "sum-dsn4-3"
  param {
    lr_mult: 0
    decay_mult: 1
  }
  param {
    lr_mult: 0
    decay_mult: 0
  }
  convolution_param {
    num_output: 1
    kernel_size: 4
    stride: 2
  }
}
layer {
  name: "crop1-dsn3"
  type: "Crop"
  bottom: "sum-dsn4-3"
  bottom: "conv3_3"
  top: "weight-dsn4-3"
}
layer {
  name: "sigmoid-dsn3"
  type: "Sigmoid"
  bottom: "weight-dsn4-3"
  top: "sigmoid-dsn3"
}
layer {
  name: "rev-dsn3"
  type: "Power"
  bottom: "sigmoid-dsn3"
  top: "rev-dsn3"
  power_param {
    power: 1
    scale: -1
    shift: 1
  }
}
layer {
  name: "tile-dsn3"
  type: "Tile"
  bottom: "rev-dsn3"
  top: "weight-dsn3"
  tile_param {
    tiles: 256
  }
}
layer {
  name: "prod1-dsn3"
  type: "Eltwise"
  bottom: "conv3_3"
  bottom: "weight-dsn3"
  top: "prod1-dsn3"
  eltwise_param {
    operation: PROD
  }
}
layer {
  name: "conv1-dsn3"
  type: "Convolution"
  bottom: "prod1-dsn3"
  top: "conv1-dsn3"
  param {
    lr_mult: 1
    decay_mult: 1
  }
  param {
    lr_mult: 2
    decay_mult: 0
  }
  convolution_param {
    num_output: 64
    kernel_size: 1
    weight_filler {
      type: "gaussian"
      std: 0.01
    }
    bias_filler {
      type: "constant"
      value: 0
    }
    engine: CUDNN
  }
}
layer {
  name: "conv2-dsn3"
  type: "Convolution"
  bottom: "conv1-dsn3"
  top: "conv2-dsn3"
  param {
    lr_mult: 1
    decay_mult: 1
  }
  param {
    lr_mult: 2
    decay_mult: 0
  }
  convolution_param {
    num_output: 64
    pad: 1
    kernel_size: 3
    weight_filler {
      type: "gaussian"
      std: 0.01
    }
    bias_filler {
      type: "constant"
      value: 0
    }
    engine: CUDNN
  }
}
layer {
  name: "relu1-dsn3"
  type: "ReLU"
  bottom: "conv2-dsn3"
  top: "conv2-dsn3"
}
layer {
  name: "conv3-dsn3"
  type: "Convolution"
  bottom: "conv2-dsn3"
  top: "conv3-dsn3"
  param {
    lr_mult: 1
    decay_mult: 1
  }
  param {
    lr_mult: 2
    decay_mult: 0
  }
  convolution_param {
    num_output: 64
    pad: 1
    kernel_size: 3
    weight_filler {
      type: "gaussian"
      std: 0.01
    }
    bias_filler {
      type: "constant"
      value: 0
    }
    engine: CUDNN
  }
}
layer {
  name: "relu2-dsn3"
  type: "ReLU"
  bottom: "conv3-dsn3"
  top: "conv3-dsn3"
}
layer {
  name: "conv4-dsn3"
  type: "Convolution"
  bottom: "conv3-dsn3"
  top: "conv4-dsn3"
  param {
    lr_mult: 1
    decay_mult: 1
  }
  param {
    lr_mult: 2
    decay_mult: 0
  }
  convolution_param {
    num_output: 1
    pad: 1
    kernel_size: 3
    weight_filler {
      type: "gaussian"
      std: 0.01
    }
    bias_filler {
      type: "constant"
      value: 0
    }
    engine: CUDNN
  }
}
layer {
  name: "sum-dsn3"
  type: "Eltwise"
  bottom: "conv4-dsn3"
  bottom: "weight-dsn4-3"
  top: "sum-dsn3"
  eltwise_param {
    operation: SUM
  }
}
layer {
  name: "upsample4_dsn3"
  type: "Deconvolution"
  bottom: "sum-dsn3"
  top: "sum-dsn3-up"
  param {
    lr_mult: 0
    decay_mult: 1
  }
  param {
    lr_mult: 0
    decay_mult: 0
  }
  convolution_param {
    num_output: 1
    kernel_size: 8
    stride: 4
  }
}
layer {
  name: "crop2-dsn3"
  type: "Crop"
  bottom: "sum-dsn3-up"
  bottom: "data"
  top: "upscore-dsn3"
}
layer {
  name: "loss3-score"
  type: "SigmoidCrossEntropyLoss"
  bottom: "upscore-dsn3"
  bottom: "label"
  top: "loss3-score"
  loss_weight: 1
}
layer {
  name: "upsample2_1-dsn2"
  type: "Deconvolution"
  bottom: "sum-dsn3"
  top: "sum-dsn3-2"
  param {
    lr_mult: 0
    decay_mult: 1
  }
  param {
    lr_mult: 0
    decay_mult: 0
  }
  convolution_param {
    num_output: 1
    kernel_size: 4
    stride: 2
  }
}
layer {
  name: "crop1-dsn2"
  type: "Crop"
  bottom: "sum-dsn3-2"
  bottom: "conv2_2"
  top: "weight-dsn3-2"
}
layer {
  name: "sigmoid-dsn2"
  type: "Sigmoid"
  bottom: "weight-dsn3-2"
  top: "sigmoid-dsn2"
}
layer {
  name: "rev-dsn2"
  type: "Power"
  bottom: "sigmoid-dsn2"
  top: "rev-dsn2"
  power_param {
    power: 1
    scale: -1
    shift: 1
  }
}
layer {
  name: "tile-dsn2"
  type: "Tile"
  bottom: "rev-dsn2"
  top: "weight-dsn2"
  tile_param {
    tiles: 128
  }
}
layer {
  name: "prod1-dsn2"
  type: "Eltwise"
  bottom: "conv2_2"
  bottom: "weight-dsn2"
  top: "prod1-dsn2"
  eltwise_param {
    operation: PROD
  }
}
layer {
  name: "conv1-dsn2"
  type: "Convolution"
  bottom: "prod1-dsn2"
  top: "conv1-dsn2"
  param {
    lr_mult: 1
    decay_mult: 1
  }
  param {
    lr_mult: 2
    decay_mult: 0
  }
  convolution_param {
    num_output: 64
    kernel_size: 1
    weight_filler {
      type: "gaussian"
      std: 0.01
    }
    bias_filler {
      type: "constant"
      value: 0
    }
    engine: CUDNN
  }
}
layer {
  name: "conv2-dsn2"
  type: "Convolution"
  bottom: "conv1-dsn2"
  top: "conv2-dsn2"
  param {
    lr_mult: 1
    decay_mult: 1
  }
  param {
    lr_mult: 2
    decay_mult: 0
  }
  convolution_param {
    num_output: 64
    pad: 1
    kernel_size: 3
    weight_filler {
      type: "gaussian"
      std: 0.01
    }
    bias_filler {
      type: "constant"
      value: 0
    }
    engine: CUDNN
  }
}
layer {
  name: "relu1-dsn2"
  type: "ReLU"
  bottom: "conv2-dsn2"
  top: "conv2-dsn2"
}
layer {
  name: "conv3-dsn2"
  type: "Convolution"
  bottom: "conv2-dsn2"
  top: "conv3-dsn2"
  param {
    lr_mult: 1
    decay_mult: 1
  }
  param {
    lr_mult: 2
    decay_mult: 0
  }
  convolution_param {
    num_output: 64
    pad: 1
    kernel_size: 3
    weight_filler {
      type: "gaussian"
      std: 0.01
    }
    bias_filler {
      type: "constant"
      value: 0
    }
    engine: CUDNN
  }
}
layer {
  name: "relu2-dsn2"
  type: "ReLU"
  bottom: "conv3-dsn2"
  top: "conv3-dsn2"
}
layer {
  name: "conv4-dsn2"
  type: "Convolution"
  bottom: "conv3-dsn2"
  top: "conv4-dsn2"
  param {
    lr_mult: 1
    decay_mult: 1
  }
  param {
    lr_mult: 2
    decay_mult: 0
  }
  convolution_param {
    num_output: 1
    pad: 1
    kernel_size: 3
    weight_filler {
      type: "gaussian"
      std: 0.01
    }
    bias_filler {
      type: "constant"
      value: 0
    }
    engine: CUDNN
  }
}
layer {
  name: "sum-dsn2"
  type: "Eltwise"
  bottom: "conv4-dsn2"
  bottom: "weight-dsn3-2"
  top: "sum-dsn2"
  eltwise_param {
    operation: SUM
  }
}
layer {
  name: "upsample2_2-dsn2"
  type: "Deconvolution"
  bottom: "sum-dsn2"
  top: "sum-dsn2-up"
  param {
    lr_mult: 0
    decay_mult: 1
  }
  param {
    lr_mult: 0
    decay_mult: 0
  }
  convolution_param {
    num_output: 1
    kernel_size: 4
    stride: 2
  }
}
layer {
  name: "crop2-dsn2"
  type: "Crop"
  bottom: "sum-dsn2-up"
  bottom: "data"
  top: "upscore-dsn2"
}
layer {
  name: "loss2-score"
  type: "SigmoidCrossEntropyLoss"
  bottom: "upscore-dsn2"
  bottom: "label"
  top: "loss2-score"
  loss_weight: 1
}
layer {
  name: "sigmoid-dsn1"
  type: "Sigmoid"
  bottom: "upscore-dsn2"
  top: "sigmoid-dsn1"
}
layer {
  name: "rev-dsn1"
  type: "Power"
  bottom: "sigmoid-dsn1"
  top: "rev-dsn1"
  power_param {
    power: 1
    scale: -1
    shift: 1
  }
}
layer {
  name: "tile-dsn1"
  type: "Tile"
  bottom: "rev-dsn1"
  top: "weight-dsn1"
  tile_param {
    tiles: 64
  }
}
layer {
  name: "prod1-dsn1"
  type: "Eltwise"
  bottom: "conv1_2"
  bottom: "weight-dsn1"
  top: "prod1-dsn1"
  eltwise_param {
    operation: PROD
  }
}
layer {
  name: "conv1-dsn1"
  type: "Convolution"
  bottom: "prod1-dsn1"
  top: "conv1-dsn1"
  param {
    lr_mult: 1
    decay_mult: 1
  }
  param {
    lr_mult: 2
    decay_mult: 0
  }
  convolution_param {
    num_output: 64
    kernel_size: 1
    weight_filler {
      type: "gaussian"
      std: 0.01
    }
    bias_filler {
      type: "constant"
      value: 0
    }
    engine: CUDNN
  }
}
layer {
  name: "conv2-dsn1"
  type: "Convolution"
  bottom: "conv1-dsn1"
  top: "conv2-dsn1"
  param {
    lr_mult: 1
    decay_mult: 1
  }
  param {
    lr_mult: 2
    decay_mult: 0
  }
  convolution_param {
    num_output: 64
    pad: 1
    kernel_size: 3
    weight_filler {
      type: "gaussian"
      std: 0.01
    }
    bias_filler {
      type: "constant"
      value: 0
    }
    engine: CUDNN
  }
}
layer {
  name: "relu1-dsn1"
  type: "ReLU"
  bottom: "conv2-dsn1"
  top: "conv2-dsn1"
}
layer {
  name: "conv3-dsn1"
  type: "Convolution"
  bottom: "conv2-dsn1"
  top: "conv3-dsn1"
  param {
    lr_mult: 1
    decay_mult: 1
  }
  param {
    lr_mult: 2
    decay_mult: 0
  }
  convolution_param {
    num_output: 64
    pad: 1
    kernel_size: 3
    weight_filler {
      type: "gaussian"
      std: 0.01
    }
    bias_filler {
      type: "constant"
      value: 0
    }
    engine: CUDNN
  }
}
layer {
  name: "relu2-dsn1"
  type: "ReLU"
  bottom: "conv3-dsn1"
  top: "conv3-dsn1"
}
layer {
  name: "conv4-dsn1"
  type: "Convolution"
  bottom: "conv3-dsn1"
  top: "conv4-dsn1"
  param {
    lr_mult: 1
    decay_mult: 1
  }
  param {
    lr_mult: 2
    decay_mult: 0
  }
  convolution_param {
    num_output: 1
    pad: 1
    kernel_size: 3
    weight_filler {
      type: "gaussian"
      std: 0.01
    }
    bias_filler {
      type: "constant"
      value: 0
    }
    engine: CUDNN
  }
}
layer {
  name: "sum-dsn1"
  type: "Eltwise"
  bottom: "conv4-dsn1"
  bottom: "upscore-dsn2"
  top: "sum-dsn1"
  eltwise_param {
    operation: SUM
  }
}
layer {
  name: "crop2-dsn1"
  type: "Crop"
  bottom: "sum-dsn1"
  bottom: "data"
  top: "upscore-dsn1"
}
layer {
  name: "loss1-score"
  type: "SigmoidCrossEntropyLoss"
  bottom: "upscore-dsn1"
  bottom: "label"
  top: "loss1-score"
  loss_weight: 1
}
I1125 10:34:33.755709 17451 layer_factory.hpp:77] Creating layer data
I1125 10:34:33.755722 17451 net.cpp:100] Creating Layer data
I1125 10:34:33.755724 17451 net.cpp:408] data -> data
I1125 10:34:33.755731 17451 net.cpp:408] data -> label
I1125 10:34:33.755738 17451 image_labelmap_data_layer.cpp:41] Opening file /media/compute/homes/galberding/FleckDetect/Datasets/val.txt
I1125 10:34:33.757346 17451 image_labelmap_data_layer.cpp:56] A total of 1200 images.
I1125 10:34:33.771919 17451 image_labelmap_data_layer.cpp:110] output data size: 1,3,500,500
I1125 10:34:33.771956 17451 image_labelmap_data_layer.cpp:113] output label size: 1,1,500,500
I1125 10:34:33.779991 17451 net.cpp:150] Setting up data
I1125 10:34:33.780004 17451 net.cpp:157] Top shape: 1 3 500 500 (750000)
I1125 10:34:33.780006 17451 net.cpp:157] Top shape: 1 1 500 500 (250000)
I1125 10:34:33.780009 17451 net.cpp:165] Memory required for data: 4000000
I1125 10:34:33.780012 17451 layer_factory.hpp:77] Creating layer data_data_0_split
I1125 10:34:33.780019 17451 net.cpp:100] Creating Layer data_data_0_split
I1125 10:34:33.780021 17451 net.cpp:434] data_data_0_split <- data
I1125 10:34:33.780026 17451 net.cpp:408] data_data_0_split -> data_data_0_split_0
I1125 10:34:33.780035 17451 net.cpp:408] data_data_0_split -> data_data_0_split_1
I1125 10:34:33.780040 17451 net.cpp:408] data_data_0_split -> data_data_0_split_2
I1125 10:34:33.780045 17451 net.cpp:408] data_data_0_split -> data_data_0_split_3
I1125 10:34:33.780048 17451 net.cpp:408] data_data_0_split -> data_data_0_split_4
I1125 10:34:33.780053 17451 net.cpp:408] data_data_0_split -> data_data_0_split_5
I1125 10:34:33.780056 17451 net.cpp:408] data_data_0_split -> data_data_0_split_6
I1125 10:34:33.780174 17451 net.cpp:150] Setting up data_data_0_split
I1125 10:34:33.780180 17451 net.cpp:157] Top shape: 1 3 500 500 (750000)
I1125 10:34:33.780184 17451 net.cpp:157] Top shape: 1 3 500 500 (750000)
I1125 10:34:33.780187 17451 net.cpp:157] Top shape: 1 3 500 500 (750000)
I1125 10:34:33.780190 17451 net.cpp:157] Top shape: 1 3 500 500 (750000)
I1125 10:34:33.780192 17451 net.cpp:157] Top shape: 1 3 500 500 (750000)
I1125 10:34:33.780195 17451 net.cpp:157] Top shape: 1 3 500 500 (750000)
I1125 10:34:33.780198 17451 net.cpp:157] Top shape: 1 3 500 500 (750000)
I1125 10:34:33.780200 17451 net.cpp:165] Memory required for data: 25000000
I1125 10:34:33.780202 17451 layer_factory.hpp:77] Creating layer label_data_1_split
I1125 10:34:33.780207 17451 net.cpp:100] Creating Layer label_data_1_split
I1125 10:34:33.780210 17451 net.cpp:434] label_data_1_split <- label
I1125 10:34:33.780213 17451 net.cpp:408] label_data_1_split -> label_data_1_split_0
I1125 10:34:33.780218 17451 net.cpp:408] label_data_1_split -> label_data_1_split_1
I1125 10:34:33.780222 17451 net.cpp:408] label_data_1_split -> label_data_1_split_2
I1125 10:34:33.780226 17451 net.cpp:408] label_data_1_split -> label_data_1_split_3
I1125 10:34:33.780230 17451 net.cpp:408] label_data_1_split -> label_data_1_split_4
I1125 10:34:33.780234 17451 net.cpp:408] label_data_1_split -> label_data_1_split_5
I1125 10:34:33.780426 17451 net.cpp:150] Setting up label_data_1_split
I1125 10:34:33.780431 17451 net.cpp:157] Top shape: 1 1 500 500 (250000)
I1125 10:34:33.780434 17451 net.cpp:157] Top shape: 1 1 500 500 (250000)
I1125 10:34:33.780437 17451 net.cpp:157] Top shape: 1 1 500 500 (250000)
I1125 10:34:33.780441 17451 net.cpp:157] Top shape: 1 1 500 500 (250000)
I1125 10:34:33.780443 17451 net.cpp:157] Top shape: 1 1 500 500 (250000)
I1125 10:34:33.780445 17451 net.cpp:157] Top shape: 1 1 500 500 (250000)
I1125 10:34:33.780447 17451 net.cpp:165] Memory required for data: 31000000
I1125 10:34:33.780450 17451 layer_factory.hpp:77] Creating layer conv1_1
I1125 10:34:33.780457 17451 net.cpp:100] Creating Layer conv1_1
I1125 10:34:33.780458 17451 net.cpp:434] conv1_1 <- data_data_0_split_0
I1125 10:34:33.780462 17451 net.cpp:408] conv1_1 -> conv1_1
I1125 10:34:33.783167 17451 net.cpp:150] Setting up conv1_1
I1125 10:34:33.783177 17451 net.cpp:157] Top shape: 1 64 500 500 (16000000)
I1125 10:34:33.783195 17451 net.cpp:165] Memory required for data: 95000000
I1125 10:34:33.783205 17451 layer_factory.hpp:77] Creating layer relu1_1
I1125 10:34:33.783210 17451 net.cpp:100] Creating Layer relu1_1
I1125 10:34:33.783212 17451 net.cpp:434] relu1_1 <- conv1_1
I1125 10:34:33.783216 17451 net.cpp:395] relu1_1 -> conv1_1 (in-place)
I1125 10:34:33.783390 17451 net.cpp:150] Setting up relu1_1
I1125 10:34:33.783398 17451 net.cpp:157] Top shape: 1 64 500 500 (16000000)
I1125 10:34:33.783401 17451 net.cpp:165] Memory required for data: 159000000
I1125 10:34:33.783403 17451 layer_factory.hpp:77] Creating layer conv1_2
I1125 10:34:33.783411 17451 net.cpp:100] Creating Layer conv1_2
I1125 10:34:33.783412 17451 net.cpp:434] conv1_2 <- conv1_1
I1125 10:34:33.783417 17451 net.cpp:408] conv1_2 -> conv1_2
I1125 10:34:33.784690 17451 net.cpp:150] Setting up conv1_2
I1125 10:34:33.784703 17451 net.cpp:157] Top shape: 1 64 500 500 (16000000)
I1125 10:34:33.784705 17451 net.cpp:165] Memory required for data: 223000000
I1125 10:34:33.784713 17451 layer_factory.hpp:77] Creating layer relu1_2
I1125 10:34:33.784716 17451 net.cpp:100] Creating Layer relu1_2
I1125 10:34:33.784718 17451 net.cpp:434] relu1_2 <- conv1_2
I1125 10:34:33.784727 17451 net.cpp:395] relu1_2 -> conv1_2 (in-place)
I1125 10:34:33.785173 17451 net.cpp:150] Setting up relu1_2
I1125 10:34:33.785184 17451 net.cpp:157] Top shape: 1 64 500 500 (16000000)
I1125 10:34:33.785187 17451 net.cpp:165] Memory required for data: 287000000
I1125 10:34:33.785189 17451 layer_factory.hpp:77] Creating layer conv1_2_relu1_2_0_split
I1125 10:34:33.785193 17451 net.cpp:100] Creating Layer conv1_2_relu1_2_0_split
I1125 10:34:33.785197 17451 net.cpp:434] conv1_2_relu1_2_0_split <- conv1_2
I1125 10:34:33.785200 17451 net.cpp:408] conv1_2_relu1_2_0_split -> conv1_2_relu1_2_0_split_0
I1125 10:34:33.785207 17451 net.cpp:408] conv1_2_relu1_2_0_split -> conv1_2_relu1_2_0_split_1
I1125 10:34:33.785248 17451 net.cpp:150] Setting up conv1_2_relu1_2_0_split
I1125 10:34:33.785254 17451 net.cpp:157] Top shape: 1 64 500 500 (16000000)
I1125 10:34:33.785257 17451 net.cpp:157] Top shape: 1 64 500 500 (16000000)
I1125 10:34:33.785259 17451 net.cpp:165] Memory required for data: 415000000
I1125 10:34:33.785261 17451 layer_factory.hpp:77] Creating layer pool1
I1125 10:34:33.785269 17451 net.cpp:100] Creating Layer pool1
I1125 10:34:33.785270 17451 net.cpp:434] pool1 <- conv1_2_relu1_2_0_split_0
I1125 10:34:33.785275 17451 net.cpp:408] pool1 -> pool1
I1125 10:34:33.785310 17451 net.cpp:150] Setting up pool1
I1125 10:34:33.785318 17451 net.cpp:157] Top shape: 1 64 250 250 (4000000)
I1125 10:34:33.785321 17451 net.cpp:165] Memory required for data: 431000000
I1125 10:34:33.785323 17451 layer_factory.hpp:77] Creating layer conv2_1
I1125 10:34:33.785328 17451 net.cpp:100] Creating Layer conv2_1
I1125 10:34:33.785331 17451 net.cpp:434] conv2_1 <- pool1
I1125 10:34:33.785336 17451 net.cpp:408] conv2_1 -> conv2_1
I1125 10:34:33.786442 17451 net.cpp:150] Setting up conv2_1
I1125 10:34:33.786453 17451 net.cpp:157] Top shape: 1 128 250 250 (8000000)
I1125 10:34:33.786454 17451 net.cpp:165] Memory required for data: 463000000
I1125 10:34:33.786461 17451 layer_factory.hpp:77] Creating layer relu2_1
I1125 10:34:33.786466 17451 net.cpp:100] Creating Layer relu2_1
I1125 10:34:33.786468 17451 net.cpp:434] relu2_1 <- conv2_1
I1125 10:34:33.786473 17451 net.cpp:395] relu2_1 -> conv2_1 (in-place)
I1125 10:34:33.786885 17451 net.cpp:150] Setting up relu2_1
I1125 10:34:33.786893 17451 net.cpp:157] Top shape: 1 128 250 250 (8000000)
I1125 10:34:33.786895 17451 net.cpp:165] Memory required for data: 495000000
I1125 10:34:33.786898 17451 layer_factory.hpp:77] Creating layer conv2_2
I1125 10:34:33.786904 17451 net.cpp:100] Creating Layer conv2_2
I1125 10:34:33.786907 17451 net.cpp:434] conv2_2 <- conv2_1
I1125 10:34:33.786911 17451 net.cpp:408] conv2_2 -> conv2_2
I1125 10:34:33.789366 17451 net.cpp:150] Setting up conv2_2
I1125 10:34:33.789376 17451 net.cpp:157] Top shape: 1 128 250 250 (8000000)
I1125 10:34:33.789378 17451 net.cpp:165] Memory required for data: 527000000
I1125 10:34:33.789383 17451 layer_factory.hpp:77] Creating layer relu2_2
I1125 10:34:33.789388 17451 net.cpp:100] Creating Layer relu2_2
I1125 10:34:33.789391 17451 net.cpp:434] relu2_2 <- conv2_2
I1125 10:34:33.789397 17451 net.cpp:395] relu2_2 -> conv2_2 (in-place)
I1125 10:34:33.789556 17451 net.cpp:150] Setting up relu2_2
I1125 10:34:33.789563 17451 net.cpp:157] Top shape: 1 128 250 250 (8000000)
I1125 10:34:33.789566 17451 net.cpp:165] Memory required for data: 559000000
I1125 10:34:33.789568 17451 layer_factory.hpp:77] Creating layer conv2_2_relu2_2_0_split
I1125 10:34:33.789573 17451 net.cpp:100] Creating Layer conv2_2_relu2_2_0_split
I1125 10:34:33.789577 17451 net.cpp:434] conv2_2_relu2_2_0_split <- conv2_2
I1125 10:34:33.789580 17451 net.cpp:408] conv2_2_relu2_2_0_split -> conv2_2_relu2_2_0_split_0
I1125 10:34:33.789587 17451 net.cpp:408] conv2_2_relu2_2_0_split -> conv2_2_relu2_2_0_split_1
I1125 10:34:33.789592 17451 net.cpp:408] conv2_2_relu2_2_0_split -> conv2_2_relu2_2_0_split_2
I1125 10:34:33.789645 17451 net.cpp:150] Setting up conv2_2_relu2_2_0_split
I1125 10:34:33.789650 17451 net.cpp:157] Top shape: 1 128 250 250 (8000000)
I1125 10:34:33.789654 17451 net.cpp:157] Top shape: 1 128 250 250 (8000000)
I1125 10:34:33.789656 17451 net.cpp:157] Top shape: 1 128 250 250 (8000000)
I1125 10:34:33.789659 17451 net.cpp:165] Memory required for data: 655000000
I1125 10:34:33.789660 17451 layer_factory.hpp:77] Creating layer pool2
I1125 10:34:33.789665 17451 net.cpp:100] Creating Layer pool2
I1125 10:34:33.789667 17451 net.cpp:434] pool2 <- conv2_2_relu2_2_0_split_0
I1125 10:34:33.789671 17451 net.cpp:408] pool2 -> pool2
I1125 10:34:33.789705 17451 net.cpp:150] Setting up pool2
I1125 10:34:33.789710 17451 net.cpp:157] Top shape: 1 128 125 125 (2000000)
I1125 10:34:33.789712 17451 net.cpp:165] Memory required for data: 663000000
I1125 10:34:33.789714 17451 layer_factory.hpp:77] Creating layer conv3_1
I1125 10:34:33.789721 17451 net.cpp:100] Creating Layer conv3_1
I1125 10:34:33.789723 17451 net.cpp:434] conv3_1 <- pool2
I1125 10:34:33.789728 17451 net.cpp:408] conv3_1 -> conv3_1
I1125 10:34:33.792219 17451 net.cpp:150] Setting up conv3_1
I1125 10:34:33.792230 17451 net.cpp:157] Top shape: 1 256 125 125 (4000000)
I1125 10:34:33.792248 17451 net.cpp:165] Memory required for data: 679000000
I1125 10:34:33.792258 17451 layer_factory.hpp:77] Creating layer relu3_1
I1125 10:34:33.792265 17451 net.cpp:100] Creating Layer relu3_1
I1125 10:34:33.792268 17451 net.cpp:434] relu3_1 <- conv3_1
I1125 10:34:33.792273 17451 net.cpp:395] relu3_1 -> conv3_1 (in-place)
I1125 10:34:33.792438 17451 net.cpp:150] Setting up relu3_1
I1125 10:34:33.792445 17451 net.cpp:157] Top shape: 1 256 125 125 (4000000)
I1125 10:34:33.792448 17451 net.cpp:165] Memory required for data: 695000000
I1125 10:34:33.792464 17451 layer_factory.hpp:77] Creating layer conv3_2
I1125 10:34:33.792471 17451 net.cpp:100] Creating Layer conv3_2
I1125 10:34:33.792474 17451 net.cpp:434] conv3_2 <- conv3_1
I1125 10:34:33.792479 17451 net.cpp:408] conv3_2 -> conv3_2
I1125 10:34:33.795526 17451 net.cpp:150] Setting up conv3_2
I1125 10:34:33.795552 17451 net.cpp:157] Top shape: 1 256 125 125 (4000000)
I1125 10:34:33.795555 17451 net.cpp:165] Memory required for data: 711000000
I1125 10:34:33.795560 17451 layer_factory.hpp:77] Creating layer relu3_2
I1125 10:34:33.795567 17451 net.cpp:100] Creating Layer relu3_2
I1125 10:34:33.795570 17451 net.cpp:434] relu3_2 <- conv3_2
I1125 10:34:33.795575 17451 net.cpp:395] relu3_2 -> conv3_2 (in-place)
I1125 10:34:33.795743 17451 net.cpp:150] Setting up relu3_2
I1125 10:34:33.795751 17451 net.cpp:157] Top shape: 1 256 125 125 (4000000)
I1125 10:34:33.795753 17451 net.cpp:165] Memory required for data: 727000000
I1125 10:34:33.795756 17451 layer_factory.hpp:77] Creating layer conv3_3
I1125 10:34:33.795763 17451 net.cpp:100] Creating Layer conv3_3
I1125 10:34:33.795766 17451 net.cpp:434] conv3_3 <- conv3_2
I1125 10:34:33.795771 17451 net.cpp:408] conv3_3 -> conv3_3
I1125 10:34:33.798569 17451 net.cpp:150] Setting up conv3_3
I1125 10:34:33.798580 17451 net.cpp:157] Top shape: 1 256 125 125 (4000000)
I1125 10:34:33.798583 17451 net.cpp:165] Memory required for data: 743000000
I1125 10:34:33.798588 17451 layer_factory.hpp:77] Creating layer relu3_3
I1125 10:34:33.798593 17451 net.cpp:100] Creating Layer relu3_3
I1125 10:34:33.798596 17451 net.cpp:434] relu3_3 <- conv3_3
I1125 10:34:33.798601 17451 net.cpp:395] relu3_3 -> conv3_3 (in-place)
I1125 10:34:33.798763 17451 net.cpp:150] Setting up relu3_3
I1125 10:34:33.798769 17451 net.cpp:157] Top shape: 1 256 125 125 (4000000)
I1125 10:34:33.798771 17451 net.cpp:165] Memory required for data: 759000000
I1125 10:34:33.798774 17451 layer_factory.hpp:77] Creating layer conv3_3_relu3_3_0_split
I1125 10:34:33.798779 17451 net.cpp:100] Creating Layer conv3_3_relu3_3_0_split
I1125 10:34:33.798782 17451 net.cpp:434] conv3_3_relu3_3_0_split <- conv3_3
I1125 10:34:33.798786 17451 net.cpp:408] conv3_3_relu3_3_0_split -> conv3_3_relu3_3_0_split_0
I1125 10:34:33.798792 17451 net.cpp:408] conv3_3_relu3_3_0_split -> conv3_3_relu3_3_0_split_1
I1125 10:34:33.798797 17451 net.cpp:408] conv3_3_relu3_3_0_split -> conv3_3_relu3_3_0_split_2
I1125 10:34:33.798854 17451 net.cpp:150] Setting up conv3_3_relu3_3_0_split
I1125 10:34:33.798861 17451 net.cpp:157] Top shape: 1 256 125 125 (4000000)
I1125 10:34:33.798863 17451 net.cpp:157] Top shape: 1 256 125 125 (4000000)
I1125 10:34:33.798866 17451 net.cpp:157] Top shape: 1 256 125 125 (4000000)
I1125 10:34:33.798867 17451 net.cpp:165] Memory required for data: 807000000
I1125 10:34:33.798871 17451 layer_factory.hpp:77] Creating layer pool3
I1125 10:34:33.798876 17451 net.cpp:100] Creating Layer pool3
I1125 10:34:33.798878 17451 net.cpp:434] pool3 <- conv3_3_relu3_3_0_split_0
I1125 10:34:33.798883 17451 net.cpp:408] pool3 -> pool3
I1125 10:34:33.798924 17451 net.cpp:150] Setting up pool3
I1125 10:34:33.798930 17451 net.cpp:157] Top shape: 1 256 63 63 (1016064)
I1125 10:34:33.798933 17451 net.cpp:165] Memory required for data: 811064256
I1125 10:34:33.798935 17451 layer_factory.hpp:77] Creating layer conv4_1
I1125 10:34:33.798941 17451 net.cpp:100] Creating Layer conv4_1
I1125 10:34:33.798944 17451 net.cpp:434] conv4_1 <- pool3
I1125 10:34:33.798949 17451 net.cpp:408] conv4_1 -> conv4_1
I1125 10:34:33.803052 17451 net.cpp:150] Setting up conv4_1
I1125 10:34:33.803064 17451 net.cpp:157] Top shape: 1 512 63 63 (2032128)
I1125 10:34:33.803067 17451 net.cpp:165] Memory required for data: 819192768
I1125 10:34:33.803072 17451 layer_factory.hpp:77] Creating layer relu4_1
I1125 10:34:33.803077 17451 net.cpp:100] Creating Layer relu4_1
I1125 10:34:33.803079 17451 net.cpp:434] relu4_1 <- conv4_1
I1125 10:34:33.803086 17451 net.cpp:395] relu4_1 -> conv4_1 (in-place)
I1125 10:34:33.803560 17451 net.cpp:150] Setting up relu4_1
I1125 10:34:33.803570 17451 net.cpp:157] Top shape: 1 512 63 63 (2032128)
I1125 10:34:33.803571 17451 net.cpp:165] Memory required for data: 827321280
I1125 10:34:33.803575 17451 layer_factory.hpp:77] Creating layer conv4_2
I1125 10:34:33.803582 17451 net.cpp:100] Creating Layer conv4_2
I1125 10:34:33.803586 17451 net.cpp:434] conv4_2 <- conv4_1
I1125 10:34:33.803589 17451 net.cpp:408] conv4_2 -> conv4_2
I1125 10:34:33.809098 17451 net.cpp:150] Setting up conv4_2
I1125 10:34:33.809110 17451 net.cpp:157] Top shape: 1 512 63 63 (2032128)
I1125 10:34:33.809113 17451 net.cpp:165] Memory required for data: 835449792
I1125 10:34:33.809121 17451 layer_factory.hpp:77] Creating layer relu4_2
I1125 10:34:33.809132 17451 net.cpp:100] Creating Layer relu4_2
I1125 10:34:33.809136 17451 net.cpp:434] relu4_2 <- conv4_2
I1125 10:34:33.809140 17451 net.cpp:395] relu4_2 -> conv4_2 (in-place)
I1125 10:34:33.809588 17451 net.cpp:150] Setting up relu4_2
I1125 10:34:33.809598 17451 net.cpp:157] Top shape: 1 512 63 63 (2032128)
I1125 10:34:33.809602 17451 net.cpp:165] Memory required for data: 843578304
I1125 10:34:33.809603 17451 layer_factory.hpp:77] Creating layer conv4_3
I1125 10:34:33.809610 17451 net.cpp:100] Creating Layer conv4_3
I1125 10:34:33.809612 17451 net.cpp:434] conv4_3 <- conv4_2
I1125 10:34:33.809618 17451 net.cpp:408] conv4_3 -> conv4_3
I1125 10:34:33.815914 17451 net.cpp:150] Setting up conv4_3
I1125 10:34:33.815943 17451 net.cpp:157] Top shape: 1 512 63 63 (2032128)
I1125 10:34:33.815945 17451 net.cpp:165] Memory required for data: 851706816
I1125 10:34:33.815950 17451 layer_factory.hpp:77] Creating layer relu4_3
I1125 10:34:33.815955 17451 net.cpp:100] Creating Layer relu4_3
I1125 10:34:33.815958 17451 net.cpp:434] relu4_3 <- conv4_3
I1125 10:34:33.815964 17451 net.cpp:395] relu4_3 -> conv4_3 (in-place)
I1125 10:34:33.816159 17451 net.cpp:150] Setting up relu4_3
I1125 10:34:33.816166 17451 net.cpp:157] Top shape: 1 512 63 63 (2032128)
I1125 10:34:33.816169 17451 net.cpp:165] Memory required for data: 859835328
I1125 10:34:33.816171 17451 layer_factory.hpp:77] Creating layer conv4_3_relu4_3_0_split
I1125 10:34:33.816176 17451 net.cpp:100] Creating Layer conv4_3_relu4_3_0_split
I1125 10:34:33.816179 17451 net.cpp:434] conv4_3_relu4_3_0_split <- conv4_3
I1125 10:34:33.816184 17451 net.cpp:408] conv4_3_relu4_3_0_split -> conv4_3_relu4_3_0_split_0
I1125 10:34:33.816190 17451 net.cpp:408] conv4_3_relu4_3_0_split -> conv4_3_relu4_3_0_split_1
I1125 10:34:33.816195 17451 net.cpp:408] conv4_3_relu4_3_0_split -> conv4_3_relu4_3_0_split_2
I1125 10:34:33.816252 17451 net.cpp:150] Setting up conv4_3_relu4_3_0_split
I1125 10:34:33.816258 17451 net.cpp:157] Top shape: 1 512 63 63 (2032128)
I1125 10:34:33.816262 17451 net.cpp:157] Top shape: 1 512 63 63 (2032128)
I1125 10:34:33.816264 17451 net.cpp:157] Top shape: 1 512 63 63 (2032128)
I1125 10:34:33.816267 17451 net.cpp:165] Memory required for data: 884220864
I1125 10:34:33.816268 17451 layer_factory.hpp:77] Creating layer pool4
I1125 10:34:33.816275 17451 net.cpp:100] Creating Layer pool4
I1125 10:34:33.816277 17451 net.cpp:434] pool4 <- conv4_3_relu4_3_0_split_0
I1125 10:34:33.816282 17451 net.cpp:408] pool4 -> pool4
I1125 10:34:33.816323 17451 net.cpp:150] Setting up pool4
I1125 10:34:33.816327 17451 net.cpp:157] Top shape: 1 512 32 32 (524288)
I1125 10:34:33.816329 17451 net.cpp:165] Memory required for data: 886318016
I1125 10:34:33.816332 17451 layer_factory.hpp:77] Creating layer conv5_1
I1125 10:34:33.816339 17451 net.cpp:100] Creating Layer conv5_1
I1125 10:34:33.816341 17451 net.cpp:434] conv5_1 <- pool4
I1125 10:34:33.816346 17451 net.cpp:408] conv5_1 -> conv5_1
I1125 10:34:33.822363 17451 net.cpp:150] Setting up conv5_1
I1125 10:34:33.822376 17451 net.cpp:157] Top shape: 1 512 32 32 (524288)
I1125 10:34:33.822378 17451 net.cpp:165] Memory required for data: 888415168
I1125 10:34:33.822383 17451 layer_factory.hpp:77] Creating layer relu5_1
I1125 10:34:33.822394 17451 net.cpp:100] Creating Layer relu5_1
I1125 10:34:33.822397 17451 net.cpp:434] relu5_1 <- conv5_1
I1125 10:34:33.822402 17451 net.cpp:395] relu5_1 -> conv5_1 (in-place)
I1125 10:34:33.822559 17451 net.cpp:150] Setting up relu5_1
I1125 10:34:33.822566 17451 net.cpp:157] Top shape: 1 512 32 32 (524288)
I1125 10:34:33.822568 17451 net.cpp:165] Memory required for data: 890512320
I1125 10:34:33.822571 17451 layer_factory.hpp:77] Creating layer conv5_2
I1125 10:34:33.822578 17451 net.cpp:100] Creating Layer conv5_2
I1125 10:34:33.822580 17451 net.cpp:434] conv5_2 <- conv5_1
I1125 10:34:33.822585 17451 net.cpp:408] conv5_2 -> conv5_2
I1125 10:34:33.828598 17451 net.cpp:150] Setting up conv5_2
I1125 10:34:33.828613 17451 net.cpp:157] Top shape: 1 512 32 32 (524288)
I1125 10:34:33.828616 17451 net.cpp:165] Memory required for data: 892609472
I1125 10:34:33.828622 17451 layer_factory.hpp:77] Creating layer relu5_2
I1125 10:34:33.828629 17451 net.cpp:100] Creating Layer relu5_2
I1125 10:34:33.828634 17451 net.cpp:434] relu5_2 <- conv5_2
I1125 10:34:33.828639 17451 net.cpp:395] relu5_2 -> conv5_2 (in-place)
I1125 10:34:33.828847 17451 net.cpp:150] Setting up relu5_2
I1125 10:34:33.828855 17451 net.cpp:157] Top shape: 1 512 32 32 (524288)
I1125 10:34:33.828856 17451 net.cpp:165] Memory required for data: 894706624
I1125 10:34:33.828858 17451 layer_factory.hpp:77] Creating layer conv5_3
I1125 10:34:33.828866 17451 net.cpp:100] Creating Layer conv5_3
I1125 10:34:33.828868 17451 net.cpp:434] conv5_3 <- conv5_2
I1125 10:34:33.828873 17451 net.cpp:408] conv5_3 -> conv5_3
I1125 10:34:33.834940 17451 net.cpp:150] Setting up conv5_3
I1125 10:34:33.834954 17451 net.cpp:157] Top shape: 1 512 32 32 (524288)
I1125 10:34:33.834956 17451 net.cpp:165] Memory required for data: 896803776
I1125 10:34:33.834961 17451 layer_factory.hpp:77] Creating layer relu5_3
I1125 10:34:33.834966 17451 net.cpp:100] Creating Layer relu5_3
I1125 10:34:33.834969 17451 net.cpp:434] relu5_3 <- conv5_3
I1125 10:34:33.834975 17451 net.cpp:395] relu5_3 -> conv5_3 (in-place)
I1125 10:34:33.835152 17451 net.cpp:150] Setting up relu5_3
I1125 10:34:33.835160 17451 net.cpp:157] Top shape: 1 512 32 32 (524288)
I1125 10:34:33.835162 17451 net.cpp:165] Memory required for data: 898900928
I1125 10:34:33.835165 17451 layer_factory.hpp:77] Creating layer conv5_3_relu5_3_0_split
I1125 10:34:33.835171 17451 net.cpp:100] Creating Layer conv5_3_relu5_3_0_split
I1125 10:34:33.835175 17451 net.cpp:434] conv5_3_relu5_3_0_split <- conv5_3
I1125 10:34:33.835178 17451 net.cpp:408] conv5_3_relu5_3_0_split -> conv5_3_relu5_3_0_split_0
I1125 10:34:33.835186 17451 net.cpp:408] conv5_3_relu5_3_0_split -> conv5_3_relu5_3_0_split_1
I1125 10:34:33.835191 17451 net.cpp:408] conv5_3_relu5_3_0_split -> conv5_3_relu5_3_0_split_2
I1125 10:34:33.835254 17451 net.cpp:150] Setting up conv5_3_relu5_3_0_split
I1125 10:34:33.835260 17451 net.cpp:157] Top shape: 1 512 32 32 (524288)
I1125 10:34:33.835263 17451 net.cpp:157] Top shape: 1 512 32 32 (524288)
I1125 10:34:33.835266 17451 net.cpp:157] Top shape: 1 512 32 32 (524288)
I1125 10:34:33.835268 17451 net.cpp:165] Memory required for data: 905192384
I1125 10:34:33.835270 17451 layer_factory.hpp:77] Creating layer pool5
I1125 10:34:33.835278 17451 net.cpp:100] Creating Layer pool5
I1125 10:34:33.835280 17451 net.cpp:434] pool5 <- conv5_3_relu5_3_0_split_0
I1125 10:34:33.835284 17451 net.cpp:408] pool5 -> pool5
I1125 10:34:33.835328 17451 net.cpp:150] Setting up pool5
…
I1125 10:34:33.889664 17451 net.cpp:165] Memory required for data: 907559872
I1125 10:34:33.889683 17451 layer_factory.hpp:77] Creating layer relu3-dsn6
I1125 10:34:33.889688 17451 net.cpp:100] Creating Layer relu3-dsn6
I1125 10:34:33.889690 17451 net.cpp:434] relu3-dsn6 <- conv4-dsn6
I1125 10:34:33.889694 17451 net.cpp:395] relu3-dsn6 -> conv4-dsn6 (in-place)
I1125 10:34:33.889855 17451 net.cpp:150] Setting up relu3-dsn6
I1125 10:34:33.889863 17451 net.cpp:157] Top shape: 1 256 17 17 (73984)
I1125 10:34:33.889864 17451 net.cpp:165] Memory required for data: 907855808
I1125 10:34:33.889868 17451 layer_factory.hpp:77] Creating layer conv5-dsn6
I1125 10:34:33.889875 17451 net.cpp:100] Creating Layer conv5-dsn6
I1125 10:34:33.889878 17451 net.cpp:434] conv5-dsn6 <- conv4-dsn6
I1125 10:34:33.889884 17451 net.cpp:408] conv5-dsn6 -> conv5-dsn6
I1125 10:34:33.890995 17451 net.cpp:150] Setting up conv5-dsn6
I1125 10:34:33.891005 17451 net.cpp:157] Top shape: 1 1 17 17 (289)
I1125 10:34:33.891007 17451 net.cpp:165] Memory required for data: 907856964
I1125 10:34:33.891012 17451 layer_factory.hpp:77] Creating layer conv5-dsn6_conv5-dsn6_0_split
I1125 10:34:33.891016 17451 net.cpp:100] Creating Layer conv5-dsn6_conv5-dsn6_0_split
I1125 10:34:33.891019 17451 net.cpp:434] conv5-dsn6_conv5-dsn6_0_split <- conv5-dsn6
I1125 10:34:33.891026 17451 net.cpp:408] conv5-dsn6_conv5-dsn6_0_split -> conv5-dsn6_conv5-dsn6_0_split_0
I1125 10:34:33.891031 17451 net.cpp:408] conv5-dsn6_conv5-dsn6_0_split -> conv5-dsn6_conv5-dsn6_0_split_1
I1125 10:34:33.891077 17451 net.cpp:150] Setting up conv5-dsn6_conv5-dsn6_0_split
I1125 10:34:33.891079 17451 net.cpp:157] Top shape: 1 1 17 17 (289)
I1125 10:34:33.891083 17451 net.cpp:157] Top shape: 1 1 17 17 (289)
I1125 10:34:33.891083 17451 net.cpp:165] Memory required for data: 907859276
I1125 10:34:33.891085 17451 layer_factory.hpp:77] Creating layer upsample32_dsn6
I1125 10:34:33.891093 17451 net.cpp:100] Creating Layer upsample32_dsn6
I1125 10:34:33.891096 17451 net.cpp:434] upsample32_dsn6 <- conv5-dsn6_conv5-dsn6_0_split_0
I1125 10:34:33.891100 17451 net.cpp:408] upsample32_dsn6 -> conv5-dsn6-up
I1125 10:34:33.892566 17451 net.cpp:150] Setting up upsample32_dsn6
I1125 10:34:33.892577 17451 net.cpp:157] Top shape: 1 1 576 576 (331776)
I1125 10:34:33.892580 17451 net.cpp:165] Memory required for data: 909186380
I1125 10:34:33.892585 17451 layer_factory.hpp:77] Creating layer crop-dsn6
I1125 10:34:33.892590 17451 net.cpp:100] Creating Layer crop-dsn6
I1125 10:34:33.892592 17451 net.cpp:434] crop-dsn6 <- conv5-dsn6-up
I1125 10:34:33.892596 17451 net.cpp:434] crop-dsn6 <- data_data_0_split_1
I1125 10:34:33.892602 17451 net.cpp:408] crop-dsn6 -> upscore-dsn6
I1125 10:34:33.892634 17451 net.cpp:150] Setting up crop-dsn6
I1125 10:34:33.892639 17451 net.cpp:157] Top shape: 1 1 500 500 (250000)
I1125 10:34:33.892640 17451 net.cpp:165] Memory required for data: 910186380
I1125 10:34:33.892643 17451 layer_factory.hpp:77] Creating layer loss6-score
I1125 10:34:33.892652 17451 net.cpp:100] Creating Layer loss6-score
I1125 10:34:33.892654 17451 net.cpp:434] loss6-score <- upscore-dsn6
I1125 10:34:33.892657 17451 net.cpp:434] loss6-score <- label_data_1_split_0
I1125 10:34:33.892661 17451 net.cpp:408] loss6-score -> loss6-score
I1125 10:34:33.893874 17451 net.cpp:150] Setting up loss6-score
I1125 10:34:33.893884 17451 net.cpp:157] Top shape: (1)
I1125 10:34:33.893887 17451 net.cpp:160]     with loss weight 1
I1125 10:34:33.893896 17451 net.cpp:165] Memory required for data: 910186384
I1125 10:34:33.893899 17451 layer_factory.hpp:77] Creating layer upsample2_dsn5
I1125 10:34:33.893906 17451 net.cpp:100] Creating Layer upsample2_dsn5
I1125 10:34:33.893909 17451 net.cpp:434] upsample2_dsn5 <- conv5-dsn6_conv5-dsn6_0_split_1
I1125 10:34:33.893914 17451 net.cpp:408] upsample2_dsn5 -> conv5-dsn6-5
I1125 10:34:33.894201 17451 net.cpp:150] Setting up upsample2_dsn5
I1125 10:34:33.894209 17451 net.cpp:157] Top shape: 1 1 36 36 (1296)
I1125 10:34:33.894212 17451 net.cpp:165] Memory required for data: 910191568
I1125 10:34:33.894215 17451 layer_factory.hpp:77] Creating layer crop1-dsn5
I1125 10:34:33.894222 17451 net.cpp:100] Creating Layer crop1-dsn5
I1125 10:34:33.894224 17451 net.cpp:434] crop1-dsn5 <- conv5-dsn6-5
I1125 10:34:33.894228 17451 net.cpp:434] crop1-dsn5 <- conv5_3_relu5_3_0_split_1
I1125 10:34:33.894232 17451 net.cpp:408] crop1-dsn5 -> weight-dsn6-5
I1125 10:34:33.894258 17451 net.cpp:150] Setting up crop1-dsn5
I1125 10:34:33.894263 17451 net.cpp:157] Top shape: 1 1 32 32 (1024)
I1125 10:34:33.894265 17451 net.cpp:165] Memory required for data: 910195664
I1125 10:34:33.894268 17451 layer_factory.hpp:77] Creating layer weight-dsn6-5_crop1-dsn5_0_split
I1125 10:34:33.894273 17451 net.cpp:100] Creating Layer weight-dsn6-5_crop1-dsn5_0_split
I1125 10:34:33.894276 17451 net.cpp:434] weight-dsn6-5_crop1-dsn5_0_split <- weight-dsn6-5
I1125 10:34:33.894279 17451 net.cpp:408] weight-dsn6-5_crop1-dsn5_0_split -> weight-dsn6-5_crop1-dsn5_0_split_0
I1125 10:34:33.894284 17451 net.cpp:408] weight-dsn6-5_crop1-dsn5_0_split -> weight-dsn6-5_crop1-dsn5_0_split_1
I1125 10:34:33.894322 17451 net.cpp:150] Setting up weight-dsn6-5_crop1-dsn5_0_split
I1125 10:34:33.894327 17451 net.cpp:157] Top shape: 1 1 32 32 (1024)
I1125 10:34:33.894330 17451 net.cpp:157] Top shape: 1 1 32 32 (1024)
I1125 10:34:33.894333 17451 net.cpp:165] Memory required for data: 910203856
I1125 10:34:33.894335 17451 layer_factory.hpp:77] Creating layer sigmoid-dsn5
I1125 10:34:33.894341 17451 net.cpp:100] Creating Layer sigmoid-dsn5
I1125 10:34:33.894345 17451 net.cpp:434] sigmoid-dsn5 <- weight-dsn6-5_crop1-dsn5_0_split_0
I1125 10:34:33.894347 17451 net.cpp:408] sigmoid-dsn5 -> sigmoid-dsn5
I1125 10:34:33.894556 17451 net.cpp:150] Setting up sigmoid-dsn5
I1125 10:34:33.894563 17451 net.cpp:157] Top shape: 1 1 32 32 (1024)
I1125 10:34:33.894565 17451 net.cpp:165] Memory required for data: 910207952
I1125 10:34:33.894567 17451 layer_factory.hpp:77] Creating layer rev-dsn5
I1125 10:34:33.894572 17451 net.cpp:100] Creating Layer rev-dsn5
I1125 10:34:33.894575 17451 net.cpp:434] rev-dsn5 <- sigmoid-dsn5
I1125 10:34:33.894582 17451 net.cpp:408] rev-dsn5 -> rev-dsn5
I1125 10:34:33.894608 17451 net.cpp:150] Setting up rev-dsn5
I1125 10:34:33.894613 17451 net.cpp:157] Top shape: 1 1 32 32 (1024)
I1125 10:34:33.894614 17451 net.cpp:165] Memory required for data: 910212048
I1125 10:34:33.894618 17451 layer_factory.hpp:77] Creating layer tile-dsn5
I1125 10:34:33.894621 17451 net.cpp:100] Creating Layer tile-dsn5
I1125 10:34:33.894623 17451 net.cpp:434] tile-dsn5 <- rev-dsn5
I1125 10:34:33.894629 17451 net.cpp:408] tile-dsn5 -> weight-dsn5
I1125 10:34:33.894651 17451 net.cpp:150] Setting up tile-dsn5
I1125 10:34:33.894655 17451 net.cpp:157] Top shape: 1 512 32 32 (524288)
I1125 10:34:33.894657 17451 net.cpp:165] Memory required for data: 912309200
I1125 10:34:33.894659 17451 layer_factory.hpp:77] Creating layer prod1-dsn5
I1125 10:34:33.894667 17451 net.cpp:100] Creating Layer prod1-dsn5
I1125 10:34:33.894670 17451 net.cpp:434] prod1-dsn5 <- conv5_3_relu5_3_0_split_2
I1125 10:34:33.894672 17451 net.cpp:434] prod1-dsn5 <- weight-dsn5
I1125 10:34:33.894676 17451 net.cpp:408] prod1-dsn5 -> prod1-dsn5
I1125 10:34:33.894714 17451 net.cpp:150] Setting up prod1-dsn5
I1125 10:34:33.894721 17451 net.cpp:157] Top shape: 1 512 32 32 (524288)
I1125 10:34:33.894721 17451 net.cpp:165] Memory required for data: 914406352
I1125 10:34:33.894724 17451 layer_factory.hpp:77] Creating layer conv1-dsn5
I1125 10:34:33.894731 17451 net.cpp:100] Creating Layer conv1-dsn5
I1125 10:34:33.894733 17451 net.cpp:434] conv1-dsn5 <- prod1-dsn5
I1125 10:34:33.894742 17451 net.cpp:408] conv1-dsn5 -> conv1-dsn5
I1125 10:34:33.896134 17451 net.cpp:150] Setting up conv1-dsn5
I1125 10:34:33.896144 17451 net.cpp:157] Top shape: 1 64 32 32 (65536)
I1125 10:34:33.896147 17451 net.cpp:165] Memory required for data: 914668496
I1125 10:34:33.896152 17451 layer_factory.hpp:77] Creating layer conv2-dsn5
I1125 10:34:33.896162 17451 net.cpp:100] Creating Layer conv2-dsn5
I1125 10:34:33.896164 17451 net.cpp:434] conv2-dsn5 <- conv1-dsn5
I1125 10:34:33.896170 17451 net.cpp:408] conv2-dsn5 -> conv2-dsn5
I1125 10:34:33.897552 17451 net.cpp:150] Setting up conv2-dsn5
I1125 10:34:33.897562 17451 net.cpp:157] Top shape: 1 64 32 32 (65536)
I1125 10:34:33.897564 17451 net.cpp:165] Memory required for data: 914930640
I1125 10:34:33.897569 17451 layer_factory.hpp:77] Creating layer relu1-dsn5
I1125 10:34:33.897573 17451 net.cpp:100] Creating Layer relu1-dsn5
I1125 10:34:33.897577 17451 net.cpp:434] relu1-dsn5 <- conv2-dsn5
I1125 10:34:33.897583 17451 net.cpp:395] relu1-dsn5 -> conv2-dsn5 (in-place)
I1125 10:34:33.897738 17451 net.cpp:150] Setting up relu1-dsn5
I1125 10:34:33.897744 17451 net.cpp:157] Top shape: 1 64 32 32 (65536)
I1125 10:34:33.897747 17451 net.cpp:165] Memory required for data: 915192784
I1125 10:34:33.897749 17451 layer_factory.hpp:77] Creating layer conv3-dsn5
I1125 10:34:33.897758 17451 net.cpp:100] Creating Layer conv3-dsn5
I1125 10:34:33.897759 17451 net.cpp:434] conv3-dsn5 <- conv2-dsn5
I1125 10:34:33.897766 17451 net.cpp:408] conv3-dsn5 -> conv3-dsn5
I1125 10:34:33.899159 17451 net.cpp:150] Setting up conv3-dsn5
I1125 10:34:33.899185 17451 net.cpp:157] Top shape: 1 64 32 32 (65536)
I1125 10:34:33.899188 17451 net.cpp:165] Memory required for data: 915454928
I1125 10:34:33.899194 17451 layer_factory.hpp:77] Creating layer relu2-dsn5
I1125 10:34:33.899199 17451 net.cpp:100] Creating Layer relu2-dsn5
I1125 10:34:33.899201 17451 net.cpp:434] relu2-dsn5 <- conv3-dsn5
I1125 10:34:33.899204 17451 net.cpp:395] relu2-dsn5 -> conv3-dsn5 (in-place)
I1125 10:34:33.899371 17451 net.cpp:150] Setting up relu2-dsn5
I1125 10:34:33.899379 17451 net.cpp:157] Top shape: 1 64 32 32 (65536)
I1125 10:34:33.899381 17451 net.cpp:165] Memory required for data: 915717072
I1125 10:34:33.899384 17451 layer_factory.hpp:77] Creating layer conv4-dsn5
I1125 10:34:33.899394 17451 net.cpp:100] Creating Layer conv4-dsn5
I1125 10:34:33.899397 17451 net.cpp:434] conv4-dsn5 <- conv3-dsn5
I1125 10:34:33.899401 17451 net.cpp:408] conv4-dsn5 -> conv4-dsn5
I1125 10:34:33.900497 17451 net.cpp:150] Setting up conv4-dsn5
I1125 10:34:33.900507 17451 net.cpp:157] Top shape: 1 1 32 32 (1024)
I1125 10:34:33.900511 17451 net.cpp:165] Memory required for data: 915721168
I1125 10:34:33.900514 17451 layer_factory.hpp:77] Creating layer sum-dsn5
I1125 10:34:33.900533 17451 net.cpp:100] Creating Layer sum-dsn5
I1125 10:34:33.900537 17451 net.cpp:434] sum-dsn5 <- conv4-dsn5
I1125 10:34:33.900540 17451 net.cpp:434] sum-dsn5 <- weight-dsn6-5_crop1-dsn5_0_split_1
I1125 10:34:33.900543 17451 net.cpp:408] sum-dsn5 -> sum-dsn5
I1125 10:34:33.900573 17451 net.cpp:150] Setting up sum-dsn5
I1125 10:34:33.900576 17451 net.cpp:157] Top shape: 1 1 32 32 (1024)
I1125 10:34:33.900578 17451 net.cpp:165] Memory required for data: 915725264
I1125 10:34:33.900581 17451 layer_factory.hpp:77] Creating layer sum-dsn5_sum-dsn5_0_split
I1125 10:34:33.900585 17451 net.cpp:100] Creating Layer sum-dsn5_sum-dsn5_0_split
I1125 10:34:33.900588 17451 net.cpp:434] sum-dsn5_sum-dsn5_0_split <- sum-dsn5
I1125 10:34:33.900593 17451 net.cpp:408] sum-dsn5_sum-dsn5_0_split -> sum-dsn5_sum-dsn5_0_split_0
I1125 10:34:33.900599 17451 net.cpp:408] sum-dsn5_sum-dsn5_0_split -> sum-dsn5_sum-dsn5_0_split_1
I1125 10:34:33.900636 17451 net.cpp:150] Setting up sum-dsn5_sum-dsn5_0_split
I1125 10:34:33.900643 17451 net.cpp:157] Top shape: 1 1 32 32 (1024)
I1125 10:34:33.900646 17451 net.cpp:157] Top shape: 1 1 32 32 (1024)
I1125 10:34:33.900648 17451 net.cpp:165] Memory required for data: 915733456
I1125 10:34:33.900650 17451 layer_factory.hpp:77] Creating layer upsample16_dsn5
I1125 10:34:33.900655 17451 net.cpp:100] Creating Layer upsample16_dsn5
I1125 10:34:33.900658 17451 net.cpp:434] upsample16_dsn5 <- sum-dsn5_sum-dsn5_0_split_0
I1125 10:34:33.900663 17451 net.cpp:408] upsample16_dsn5 -> sum-dsn5-up
I1125 10:34:33.902076 17451 net.cpp:150] Setting up upsample16_dsn5
I1125 10:34:33.902086 17451 net.cpp:157] Top shape: 1 1 528 528 (278784)
I1125 10:34:33.902088 17451 net.cpp:165] Memory required for data: 916848592
I1125 10:34:33.902093 17451 layer_factory.hpp:77] Creating layer crop2-dsn5
I1125 10:34:33.902099 17451 net.cpp:100] Creating Layer crop2-dsn5
I1125 10:34:33.902102 17451 net.cpp:434] crop2-dsn5 <- sum-dsn5-up
I1125 10:34:33.902107 17451 net.cpp:434] crop2-dsn5 <- data_data_0_split_2
I1125 10:34:33.902109 17451 net.cpp:408] crop2-dsn5 -> upscore-dsn5
I1125 10:34:33.902148 17451 net.cpp:150] Setting up crop2-dsn5
I1125 10:34:33.902153 17451 net.cpp:157] Top shape: 1 1 500 500 (250000)
I1125 10:34:33.902154 17451 net.cpp:165] Memory required for data: 917848592
I1125 10:34:33.902158 17451 layer_factory.hpp:77] Creating layer loss5-score
I1125 10:34:33.902163 17451 net.cpp:100] Creating Layer loss5-score
I1125 10:34:33.902166 17451 net.cpp:434] loss5-score <- upscore-dsn5
I1125 10:34:33.902169 17451 net.cpp:434] loss5-score <- label_data_1_split_1
I1125 10:34:33.902173 17451 net.cpp:408] loss5-score -> loss5-score
I1125 10:34:33.902362 17451 net.cpp:150] Setting up loss5-score
I1125 10:34:33.902369 17451 net.cpp:157] Top shape: (1)
I1125 10:34:33.902370 17451 net.cpp:160]     with loss weight 1
I1125 10:34:33.902376 17451 net.cpp:165] Memory required for data: 917848596
I1125 10:34:33.902379 17451 layer_factory.hpp:77] Creating layer upsample2_dsn4
I1125 10:34:33.902386 17451 net.cpp:100] Creating Layer upsample2_dsn4
I1125 10:34:33.902388 17451 net.cpp:434] upsample2_dsn4 <- sum-dsn5_sum-dsn5_0_split_1
I1125 10:34:33.902395 17451 net.cpp:408] upsample2_dsn4 -> sum-dsn5-4
I1125 10:34:33.902658 17451 net.cpp:150] Setting up upsample2_dsn4
I1125 10:34:33.902664 17451 net.cpp:157] Top shape: 1 1 66 66 (4356)
I1125 10:34:33.902667 17451 net.cpp:165] Memory required for data: 917866020
I1125 10:34:33.902670 17451 layer_factory.hpp:77] Creating layer crop1-dsn4
I1125 10:34:33.902674 17451 net.cpp:100] Creating Layer crop1-dsn4
I1125 10:34:33.902678 17451 net.cpp:434] crop1-dsn4 <- sum-dsn5-4
I1125 10:34:33.902680 17451 net.cpp:434] crop1-dsn4 <- conv4_3_relu4_3_0_split_1
I1125 10:34:33.902685 17451 net.cpp:408] crop1-dsn4 -> weight-dsn5-4
I1125 10:34:33.902711 17451 net.cpp:150] Setting up crop1-dsn4
I1125 10:34:33.902715 17451 net.cpp:157] Top shape: 1 1 63 63 (3969)
I1125 10:34:33.902717 17451 net.cpp:165] Memory required for data: 917881896
I1125 10:34:33.902719 17451 layer_factory.hpp:77] Creating layer weight-dsn5-4_crop1-dsn4_0_split
I1125 10:34:33.902724 17451 net.cpp:100] Creating Layer weight-dsn5-4_crop1-dsn4_0_split
I1125 10:34:33.902725 17451 net.cpp:434] weight-dsn5-4_crop1-dsn4_0_split <- weight-dsn5-4
I1125 10:34:33.902730 17451 net.cpp:408] weight-dsn5-4_crop1-dsn4_0_split -> weight-dsn5-4_crop1-dsn4_0_split_0
I1125 10:34:33.902735 17451 net.cpp:408] weight-dsn5-4_crop1-dsn4_0_split -> weight-dsn5-4_crop1-dsn4_0_split_1
I1125 10:34:33.902773 17451 net.cpp:150] Setting up weight-dsn5-4_crop1-dsn4_0_split
I1125 10:34:33.902778 17451 net.cpp:157] Top shape: 1 1 63 63 (3969)
I1125 10:34:33.902781 17451 net.cpp:157] Top shape: 1 1 63 63 (3969)
I1125 10:34:33.902783 17451 net.cpp:165] Memory required for data: 917913648
I1125 10:34:33.902786 17451 layer_factory.hpp:77] Creating layer sigmoid-dsn4
I1125 10:34:33.902789 17451 net.cpp:100] Creating Layer sigmoid-dsn4
I1125 10:34:33.902791 17451 net.cpp:434] sigmoid-dsn4 <- weight-dsn5-4_crop1-dsn4_0_split_0
I1125 10:34:33.902796 17451 net.cpp:408] sigmoid-dsn4 -> sigmoid-dsn4
I1125 10:34:33.902982 17451 net.cpp:150] Setting up sigmoid-dsn4
I1125 10:34:33.902992 17451 net.cpp:157] Top shape: 1 1 63 63 (3969)
I1125 10:34:33.902993 17451 net.cpp:165] Memory required for data: 917929524
I1125 10:34:33.902997 17451 layer_factory.hpp:77] Creating layer rev-dsn4
I1125 10:34:33.903000 17451 net.cpp:100] Creating Layer rev-dsn4
I1125 10:34:33.903002 17451 net.cpp:434] rev-dsn4 <- sigmoid-dsn4
I1125 10:34:33.903008 17451 net.cpp:408] rev-dsn4 -> rev-dsn4
I1125 10:34:33.903033 17451 net.cpp:150] Setting up rev-dsn4
I1125 10:34:33.903035 17451 net.cpp:157] Top shape: 1 1 63 63 (3969)
I1125 10:34:33.903038 17451 net.cpp:165] Memory required for data: 917945400
I1125 10:34:33.903039 17451 layer_factory.hpp:77] Creating layer tile-dsn4
I1125 10:34:33.903045 17451 net.cpp:100] Creating Layer tile-dsn4
I1125 10:34:33.903048 17451 net.cpp:434] tile-dsn4 <- rev-dsn4
I1125 10:34:33.903051 17451 net.cpp:408] tile-dsn4 -> weight-dsn4
I1125 10:34:33.903074 17451 net.cpp:150] Setting up tile-dsn4
I1125 10:34:33.903079 17451 net.cpp:157] Top shape: 1 512 63 63 (2032128)
I1125 10:34:33.903081 17451 net.cpp:165] Memory required for data: 926073912
I1125 10:34:33.903084 17451 layer_factory.hpp:77] Creating layer prod1-dsn4
I1125 10:34:33.903089 17451 net.cpp:100] Creating Layer prod1-dsn4
I1125 10:34:33.903090 17451 net.cpp:434] prod1-dsn4 <- conv4_3_relu4_3_0_split_2
I1125 10:34:33.903095 17451 net.cpp:434] prod1-dsn4 <- weight-dsn4
I1125 10:34:33.903100 17451 net.cpp:408] prod1-dsn4 -> prod1-dsn4
I1125 10:34:33.903123 17451 net.cpp:150] Setting up prod1-dsn4
I1125 10:34:33.903133 17451 net.cpp:157] Top shape: 1 512 63 63 (2032128)
I1125 10:34:33.903136 17451 net.cpp:165] Memory required for data: 934202424
I1125 10:34:33.903137 17451 layer_factory.hpp:77] Creating layer conv1-dsn4
I1125 10:34:33.903146 17451 net.cpp:100] Creating Layer conv1-dsn4
I1125 10:34:33.903148 17451 net.cpp:434] conv1-dsn4 <- prod1-dsn4
I1125 10:34:33.903153 17451 net.cpp:408] conv1-dsn4 -> conv1-dsn4
I1125 10:34:33.904577 17451 net.cpp:150] Setting up conv1-dsn4
I1125 10:34:33.904587 17451 net.cpp:157] Top shape: 1 64 63 63 (254016)
I1125 10:34:33.904589 17451 net.cpp:165] Memory required for data: 935218488
I1125 10:34:33.904594 17451 layer_factory.hpp:77] Creating layer conv2-dsn4
I1125 10:34:33.904605 17451 net.cpp:100] Creating Layer conv2-dsn4
I1125 10:34:33.904608 17451 net.cpp:434] conv2-dsn4 <- conv1-dsn4
I1125 10:34:33.904614 17451 net.cpp:408] conv2-dsn4 -> conv2-dsn4
I1125 10:34:33.906320 17451 net.cpp:150] Setting up conv2-dsn4
I1125 10:34:33.906332 17451 net.cpp:157] Top shape: 1 64 63 63 (254016)
I1125 10:34:33.906333 17451 net.cpp:165] Memory required for data: 936234552
I1125 10:34:33.906338 17451 layer_factory.hpp:77] Creating layer relu1-dsn4
I1125 10:34:33.906342 17451 net.cpp:100] Creating Layer relu1-dsn4
I1125 10:34:33.906345 17451 net.cpp:434] relu1-dsn4 <- conv2-dsn4
I1125 10:34:33.906352 17451 net.cpp:395] relu1-dsn4 -> conv2-dsn4 (in-place)
I1125 10:34:33.906520 17451 net.cpp:150] Setting up relu1-dsn4
I1125 10:34:33.906527 17451 net.cpp:157] Top shape: 1 64 63 63 (254016)
I1125 10:34:33.906530 17451 net.cpp:165] Memory required for data: 937250616
I1125 10:34:33.906533 17451 layer_factory.hpp:77] Creating layer conv3-dsn4
I1125 10:34:33.906540 17451 net.cpp:100] Creating Layer conv3-dsn4
I1125 10:34:33.906543 17451 net.cpp:434] conv3-dsn4 <- conv2-dsn4
I1125 10:34:33.906549 17451 net.cpp:408] conv3-dsn4 -> conv3-dsn4
I1125 10:34:33.907945 17451 net.cpp:150] Setting up conv3-dsn4
I1125 10:34:33.907955 17451 net.cpp:157] Top shape: 1 64 63 63 (254016)
I1125 10:34:33.907958 17451 net.cpp:165] Memory required for data: 938266680
I1125 10:34:33.907963 17451 layer_factory.hpp:77] Creating layer relu2-dsn4
I1125 10:34:33.907966 17451 net.cpp:100] Creating Layer relu2-dsn4
I1125 10:34:33.907969 17451 net.cpp:434] relu2-dsn4 <- conv3-dsn4
I1125 10:34:33.907974 17451 net.cpp:395] relu2-dsn4 -> conv3-dsn4 (in-place)
I1125 10:34:33.908730 17451 net.cpp:150] Setting up relu2-dsn4
I1125 10:34:33.908738 17451 net.cpp:157] Top shape: 1 64 63 63 (254016)
I1125 10:34:33.908740 17451 net.cpp:165] Memory required for data: 939282744
I1125 10:34:33.908743 17451 layer_factory.hpp:77] Creating layer conv4-dsn4
I1125 10:34:33.908751 17451 net.cpp:100] Creating Layer conv4-dsn4
I1125 10:34:33.908754 17451 net.cpp:434] conv4-dsn4 <- conv3-dsn4
I1125 10:34:33.908761 17451 net.cpp:408] conv4-dsn4 -> conv4-dsn4
I1125 10:34:33.909878 17451 net.cpp:150] Setting up conv4-dsn4
I1125 10:34:33.909888 17451 net.cpp:157] Top shape: 1 1 63 63 (3969)
I1125 10:34:33.909889 17451 net.cpp:165] Memory required for data: 939298620
I1125 10:34:33.909894 17451 layer_factory.hpp:77] Creating layer sum-dsn4
I1125 10:34:33.909898 17451 net.cpp:100] Creating Layer sum-dsn4
I1125 10:34:33.909901 17451 net.cpp:434] sum-dsn4 <- conv4-dsn4
I1125 10:34:33.909905 17451 net.cpp:434] sum-dsn4 <- weight-dsn5-4_crop1-dsn4_0_split_1
I1125 10:34:33.909910 17451 net.cpp:408] sum-dsn4 -> sum-dsn4
I1125 10:34:33.909940 17451 net.cpp:150] Setting up sum-dsn4
I1125 10:34:33.909945 17451 net.cpp:157] Top shape: 1 1 63 63 (3969)
I1125 10:34:33.909945 17451 net.cpp:165] Memory required for data: 939314496
I1125 10:34:33.909947 17451 layer_factory.hpp:77] Creating layer sum-dsn4_sum-dsn4_0_split
I1125 10:34:33.909953 17451 net.cpp:100] Creating Layer sum-dsn4_sum-dsn4_0_split
I1125 10:34:33.909956 17451 net.cpp:434] sum-dsn4_sum-dsn4_0_split <- sum-dsn4
I1125 10:34:33.909961 17451 net.cpp:408] sum-dsn4_sum-dsn4_0_split -> sum-dsn4_sum-dsn4_0_split_0
I1125 10:34:33.909966 17451 net.cpp:408] sum-dsn4_sum-dsn4_0_split -> sum-dsn4_sum-dsn4_0_split_1
I1125 10:34:33.910003 17451 net.cpp:150] Setting up sum-dsn4_sum-dsn4_0_split
I1125 10:34:33.910010 17451 net.cpp:157] Top shape: 1 1 63 63 (3969)
I1125 10:34:33.910013 17451 net.cpp:157] Top shape: 1 1 63 63 (3969)
I1125 10:34:33.910015 17451 net.cpp:165] Memory required for data: 939346248
I1125 10:34:33.910017 17451 layer_factory.hpp:77] Creating layer upsample8_dsn4
I1125 10:34:33.910022 17451 net.cpp:100] Creating Layer upsample8_dsn4
I1125 10:34:33.910024 17451 net.cpp:434] upsample8_dsn4 <- sum-dsn4_sum-dsn4_0_split_0
I1125 10:34:33.910030 17451 net.cpp:408] upsample8_dsn4 -> sum-dsn4-up
I1125 10:34:33.911485 17451 net.cpp:150] Setting up upsample8_dsn4
I1125 10:34:33.911495 17451 net.cpp:157] Top shape: 1 1 512 512 (262144)
I1125 10:34:33.911497 17451 net.cpp:165] Memory required for data: 940394824
I1125 10:34:33.911502 17451 layer_factory.hpp:77] Creating layer crop2-dsn4
I1125 10:34:33.911509 17451 net.cpp:100] Creating Layer crop2-dsn4
I1125 10:34:33.911512 17451 net.cpp:434] crop2-dsn4 <- sum-dsn4-up
I1125 10:34:33.911515 17451 net.cpp:434] crop2-dsn4 <- data_data_0_split_3
I1125 10:34:33.911520 17451 net.cpp:408] crop2-dsn4 -> upscore-dsn4
I1125 10:34:33.911553 17451 net.cpp:150] Setting up crop2-dsn4
I1125 10:34:33.911558 17451 net.cpp:157] Top shape: 1 1 500 500 (250000)
I1125 10:34:33.911559 17451 net.cpp:165] Memory required for data: 941394824
I1125 10:34:33.911561 17451 layer_factory.hpp:77] Creating layer loss4-score
I1125 10:34:33.911567 17451 net.cpp:100] Creating Layer loss4-score
I1125 10:34:33.911571 17451 net.cpp:434] loss4-score <- upscore-dsn4
I1125 10:34:33.911573 17451 net.cpp:434] loss4-score <- label_data_1_split_2
I1125 10:34:33.911578 17451 net.cpp:408] loss4-score -> loss4-score
I1125 10:34:33.911757 17451 net.cpp:150] Setting up loss4-score
I1125 10:34:33.911763 17451 net.cpp:157] Top shape: (1)
I1125 10:34:33.911765 17451 net.cpp:160]     with loss weight 1
I1125 10:34:33.911769 17451 net.cpp:165] Memory required for data: 941394828
I1125 10:34:33.911772 17451 layer_factory.hpp:77] Creating layer upsample2_dsn3
I1125 10:34:33.911778 17451 net.cpp:100] Creating Layer upsample2_dsn3
I1125 10:34:33.911782 17451 net.cpp:434] upsample2_dsn3 <- sum-dsn4_sum-dsn4_0_split_1
I1125 10:34:33.911784 17451 net.cpp:408] upsample2_dsn3 -> sum-dsn4-3
I1125 10:34:33.912061 17451 net.cpp:150] Setting up upsample2_dsn3
I1125 10:34:33.912067 17451 net.cpp:157] Top shape: 1 1 128 128 (16384)
I1125 10:34:33.912070 17451 net.cpp:165] Memory required for data: 941460364
I1125 10:34:33.912073 17451 layer_factory.hpp:77] Creating layer crop1-dsn3
I1125 10:34:33.912076 17451 net.cpp:100] Creating Layer crop1-dsn3
I1125 10:34:33.912079 17451 net.cpp:434] crop1-dsn3 <- sum-dsn4-3
I1125 10:34:33.912082 17451 net.cpp:434] crop1-dsn3 <- conv3_3_relu3_3_0_split_1
I1125 10:34:33.912087 17451 net.cpp:408] crop1-dsn3 -> weight-dsn4-3
I1125 10:34:33.912113 17451 net.cpp:150] Setting up crop1-dsn3
I1125 10:34:33.912119 17451 net.cpp:157] Top shape: 1 1 125 125 (15625)
I1125 10:34:33.912122 17451 net.cpp:165] Memory required for data: 941522864
I1125 10:34:33.912123 17451 layer_factory.hpp:77] Creating layer weight-dsn4-3_crop1-dsn3_0_split
I1125 10:34:33.912132 17451 net.cpp:100] Creating Layer weight-dsn4-3_crop1-dsn3_0_split
I1125 10:34:33.912135 17451 net.cpp:434] weight-dsn4-3_crop1-dsn3_0_split <- weight-dsn4-3
I1125 10:34:33.912140 17451 net.cpp:408] weight-dsn4-3_crop1-dsn3_0_split -> weight-dsn4-3_crop1-dsn3_0_split_0
I1125 10:34:33.912145 17451 net.cpp:408] weight-dsn4-3_crop1-dsn3_0_split -> weight-dsn4-3_crop1-dsn3_0_split_1
I1125 10:34:33.912184 17451 net.cpp:150] Setting up weight-dsn4-3_crop1-dsn3_0_split
I1125 10:34:33.912190 17451 net.cpp:157] Top shape: 1 1 125 125 (15625)
I1125 10:34:33.912192 17451 net.cpp:157] Top shape: 1 1 125 125 (15625)
I1125 10:34:33.912194 17451 net.cpp:165] Memory required for data: 941647864
I1125 10:34:33.912196 17451 layer_factory.hpp:77] Creating layer sigmoid-dsn3
I1125 10:34:33.912202 17451 net.cpp:100] Creating Layer sigmoid-dsn3
I1125 10:34:33.912204 17451 net.cpp:434] sigmoid-dsn3 <- weight-dsn4-3_crop1-dsn3_0_split_0
I1125 10:34:33.912207 17451 net.cpp:408] sigmoid-dsn3 -> sigmoid-dsn3
I1125 10:34:33.912400 17451 net.cpp:150] Setting up sigmoid-dsn3
I1125 10:34:33.912406 17451 net.cpp:157] Top shape: 1 1 125 125 (15625)
I1125 10:34:33.912408 17451 net.cpp:165] Memory required for data: 941710364
I1125 10:34:33.912410 17451 layer_factory.hpp:77] Creating layer rev-dsn3
I1125 10:34:33.912416 17451 net.cpp:100] Creating Layer rev-dsn3
I1125 10:34:33.912420 17451 net.cpp:434] rev-dsn3 <- sigmoid-dsn3
I1125 10:34:33.912423 17451 net.cpp:408] rev-dsn3 -> rev-dsn3
I1125 10:34:33.912451 17451 net.cpp:150] Setting up rev-dsn3
I1125 10:34:33.912453 17451 net.cpp:157] Top shape: 1 1 125 125 (15625)
I1125 10:34:33.912456 17451 net.cpp:165] Memory required for data: 941772864
I1125 10:34:33.912458 17451 layer_factory.hpp:77] Creating layer tile-dsn3
I1125 10:34:33.912461 17451 net.cpp:100] Creating Layer tile-dsn3
I1125 10:34:33.912463 17451 net.cpp:434] tile-dsn3 <- rev-dsn3
I1125 10:34:33.912468 17451 net.cpp:408] tile-dsn3 -> weight-dsn3
I1125 10:34:33.912492 17451 net.cpp:150] Setting up tile-dsn3
I1125 10:34:33.912497 17451 net.cpp:157] Top shape: 1 256 125 125 (4000000)
I1125 10:34:33.912499 17451 net.cpp:165] Memory required for data: 957772864
I1125 10:34:33.912501 17451 layer_factory.hpp:77] Creating layer prod1-dsn3
I1125 10:34:33.912505 17451 net.cpp:100] Creating Layer prod1-dsn3
I1125 10:34:33.912508 17451 net.cpp:434] prod1-dsn3 <- conv3_3_relu3_3_0_split_2
I1125 10:34:33.912510 17451 net.cpp:434] prod1-dsn3 <- weight-dsn3
I1125 10:34:33.912515 17451 net.cpp:408] prod1-dsn3 -> prod1-dsn3
I1125 10:34:33.912540 17451 net.cpp:150] Setting up prod1-dsn3
I1125 10:34:33.912544 17451 net.cpp:157] Top shape: 1 256 125 125 (4000000)
I1125 10:34:33.912545 17451 net.cpp:165] Memory required for data: 973772864
I1125 10:34:33.912549 17451 layer_factory.hpp:77] Creating layer conv1-dsn3
I1125 10:34:33.912555 17451 net.cpp:100] Creating Layer conv1-dsn3
I1125 10:34:33.912557 17451 net.cpp:434] conv1-dsn3 <- prod1-dsn3
I1125 10:34:33.912561 17451 net.cpp:408] conv1-dsn3 -> conv1-dsn3
I1125 10:34:33.914114 17451 net.cpp:150] Setting up conv1-dsn3
I1125 10:34:33.914130 17451 net.cpp:157] Top shape: 1 64 125 125 (1000000)
I1125 10:34:33.914134 17451 net.cpp:165] Memory required for data: 977772864
I1125 10:34:33.914163 17451 layer_factory.hpp:77] Creating layer conv2-dsn3
I1125 10:34:33.914173 17451 net.cpp:100] Creating Layer conv2-dsn3
I1125 10:34:33.914176 17451 net.cpp:434] conv2-dsn3 <- conv1-dsn3
I1125 10:34:33.914182 17451 net.cpp:408] conv2-dsn3 -> conv2-dsn3
I1125 10:34:33.915652 17451 net.cpp:150] Setting up conv2-dsn3
I1125 10:34:33.915663 17451 net.cpp:157] Top shape: 1 64 125 125 (1000000)
I1125 10:34:33.915665 17451 net.cpp:165] Memory required for data: 981772864
I1125 10:34:33.915669 17451 layer_factory.hpp:77] Creating layer relu1-dsn3
I1125 10:34:33.915673 17451 net.cpp:100] Creating Layer relu1-dsn3
I1125 10:34:33.915676 17451 net.cpp:434] relu1-dsn3 <- conv2-dsn3
I1125 10:34:33.915681 17451 net.cpp:395] relu1-dsn3 -> conv2-dsn3 (in-place)
I1125 10:34:33.915866 17451 net.cpp:150] Setting up relu1-dsn3
I1125 10:34:33.915874 17451 net.cpp:157] Top shape: 1 64 125 125 (1000000)
I1125 10:34:33.915876 17451 net.cpp:165] Memory required for data: 985772864
I1125 10:34:33.915879 17451 layer_factory.hpp:77] Creating layer conv3-dsn3
I1125 10:34:33.915886 17451 net.cpp:100] Creating Layer conv3-dsn3
I1125 10:34:33.915889 17451 net.cpp:434] conv3-dsn3 <- conv2-dsn3
I1125 10:34:33.915895 17451 net.cpp:408] conv3-dsn3 -> conv3-dsn3
I1125 10:34:33.917345 17451 net.cpp:150] Setting up conv3-dsn3
I1125 10:34:33.917353 17451 net.cpp:157] Top shape: 1 64 125 125 (1000000)
I1125 10:34:33.917356 17451 net.cpp:165] Memory required for data: 989772864
I1125 10:34:33.917361 17451 layer_factory.hpp:77] Creating layer relu2-dsn3
I1125 10:34:33.917366 17451 net.cpp:100] Creating Layer relu2-dsn3
I1125 10:34:33.917367 17451 net.cpp:434] relu2-dsn3 <- conv3-dsn3
I1125 10:34:33.917373 17451 net.cpp:395] relu2-dsn3 -> conv3-dsn3 (in-place)
I1125 10:34:33.917527 17451 net.cpp:150] Setting up relu2-dsn3
I1125 10:34:33.917534 17451 net.cpp:157] Top shape: 1 64 125 125 (1000000)
I1125 10:34:33.917536 17451 net.cpp:165] Memory required for data: 993772864
I1125 10:34:33.917538 17451 layer_factory.hpp:77] Creating layer conv4-dsn3
I1125 10:34:33.917547 17451 net.cpp:100] Creating Layer conv4-dsn3
I1125 10:34:33.917549 17451 net.cpp:434] conv4-dsn3 <- conv3-dsn3
I1125 10:34:33.917556 17451 net.cpp:408] conv4-dsn3 -> conv4-dsn3
I1125 10:34:33.918970 17451 net.cpp:150] Setting up conv4-dsn3
I1125 10:34:33.918982 17451 net.cpp:157] Top shape: 1 1 125 125 (15625)
I1125 10:34:33.918983 17451 net.cpp:165] Memory required for data: 993835364
I1125 10:34:33.918988 17451 layer_factory.hpp:77] Creating layer sum-dsn3
I1125 10:34:33.918994 17451 net.cpp:100] Creating Layer sum-dsn3
I1125 10:34:33.918998 17451 net.cpp:434] sum-dsn3 <- conv4-dsn3
I1125 10:34:33.919001 17451 net.cpp:434] sum-dsn3 <- weight-dsn4-3_crop1-dsn3_0_split_1
I1125 10:34:33.919004 17451 net.cpp:408] sum-dsn3 -> sum-dsn3
I1125 10:34:33.919039 17451 net.cpp:150] Setting up sum-dsn3
I1125 10:34:33.919044 17451 net.cpp:157] Top shape: 1 1 125 125 (15625)
I1125 10:34:33.919045 17451 net.cpp:165] Memory required for data: 993897864
I1125 10:34:33.919047 17451 layer_factory.hpp:77] Creating layer sum-dsn3_sum-dsn3_0_split
I1125 10:34:33.919050 17451 net.cpp:100] Creating Layer sum-dsn3_sum-dsn3_0_split
I1125 10:34:33.919054 17451 net.cpp:434] sum-dsn3_sum-dsn3_0_split <- sum-dsn3
I1125 10:34:33.919059 17451 net.cpp:408] sum-dsn3_sum-dsn3_0_split -> sum-dsn3_sum-dsn3_0_split_0
I1125 10:34:33.919064 17451 net.cpp:408] sum-dsn3_sum-dsn3_0_split -> sum-dsn3_sum-dsn3_0_split_1
I1125 10:34:33.919104 17451 net.cpp:150] Setting up sum-dsn3_sum-dsn3_0_split
I1125 10:34:33.919111 17451 net.cpp:157] Top shape: 1 1 125 125 (15625)
I1125 10:34:33.919113 17451 net.cpp:157] Top shape: 1 1 125 125 (15625)
I1125 10:34:33.919114 17451 net.cpp:165] Memory required for data: 994022864
I1125 10:34:33.919117 17451 layer_factory.hpp:77] Creating layer upsample4_dsn3
I1125 10:34:33.919132 17451 net.cpp:100] Creating Layer upsample4_dsn3
I1125 10:34:33.919152 17451 net.cpp:434] upsample4_dsn3 <- sum-dsn3_sum-dsn3_0_split_0
I1125 10:34:33.919157 17451 net.cpp:408] upsample4_dsn3 -> sum-dsn3-up
I1125 10:34:33.920600 17451 net.cpp:150] Setting up upsample4_dsn3
I1125 10:34:33.920611 17451 net.cpp:157] Top shape: 1 1 504 504 (254016)
I1125 10:34:33.920614 17451 net.cpp:165] Memory required for data: 995038928
I1125 10:34:33.920619 17451 layer_factory.hpp:77] Creating layer crop2-dsn3
I1125 10:34:33.920624 17451 net.cpp:100] Creating Layer crop2-dsn3
I1125 10:34:33.920625 17451 net.cpp:434] crop2-dsn3 <- sum-dsn3-up
I1125 10:34:33.920629 17451 net.cpp:434] crop2-dsn3 <- data_data_0_split_4
I1125 10:34:33.920634 17451 net.cpp:408] crop2-dsn3 -> upscore-dsn3
I1125 10:34:33.920667 17451 net.cpp:150] Setting up crop2-dsn3
I1125 10:34:33.920671 17451 net.cpp:157] Top shape: 1 1 500 500 (250000)
I1125 10:34:33.920673 17451 net.cpp:165] Memory required for data: 996038928
I1125 10:34:33.920675 17451 layer_factory.hpp:77] Creating layer loss3-score
I1125 10:34:33.920683 17451 net.cpp:100] Creating Layer loss3-score
I1125 10:34:33.920686 17451 net.cpp:434] loss3-score <- upscore-dsn3
I1125 10:34:33.920688 17451 net.cpp:434] loss3-score <- label_data_1_split_3
I1125 10:34:33.920692 17451 net.cpp:408] loss3-score -> loss3-score
I1125 10:34:33.920877 17451 net.cpp:150] Setting up loss3-score
I1125 10:34:33.920883 17451 net.cpp:157] Top shape: (1)
I1125 10:34:33.920886 17451 net.cpp:160]     with loss weight 1
I1125 10:34:33.920891 17451 net.cpp:165] Memory required for data: 996038932
I1125 10:34:33.920892 17451 layer_factory.hpp:77] Creating layer upsample2_1-dsn2
I1125 10:34:33.920899 17451 net.cpp:100] Creating Layer upsample2_1-dsn2
I1125 10:34:33.920902 17451 net.cpp:434] upsample2_1-dsn2 <- sum-dsn3_sum-dsn3_0_split_1
I1125 10:34:33.920905 17451 net.cpp:408] upsample2_1-dsn2 -> sum-dsn3-2
I1125 10:34:33.921229 17451 net.cpp:150] Setting up upsample2_1-dsn2
I1125 10:34:33.921236 17451 net.cpp:157] Top shape: 1 1 252 252 (63504)
I1125 10:34:33.921238 17451 net.cpp:165] Memory required for data: 996292948
I1125 10:34:33.921242 17451 layer_factory.hpp:77] Creating layer crop1-dsn2
I1125 10:34:33.921247 17451 net.cpp:100] Creating Layer crop1-dsn2
I1125 10:34:33.921249 17451 net.cpp:434] crop1-dsn2 <- sum-dsn3-2
I1125 10:34:33.921252 17451 net.cpp:434] crop1-dsn2 <- conv2_2_relu2_2_0_split_1
I1125 10:34:33.921255 17451 net.cpp:408] crop1-dsn2 -> weight-dsn3-2
I1125 10:34:33.921284 17451 net.cpp:150] Setting up crop1-dsn2
I1125 10:34:33.921288 17451 net.cpp:157] Top shape: 1 1 250 250 (62500)
I1125 10:34:33.921290 17451 net.cpp:165] Memory required for data: 996542948
I1125 10:34:33.921293 17451 layer_factory.hpp:77] Creating layer weight-dsn3-2_crop1-dsn2_0_split
I1125 10:34:33.921298 17451 net.cpp:100] Creating Layer weight-dsn3-2_crop1-dsn2_0_split
I1125 10:34:33.921300 17451 net.cpp:434] weight-dsn3-2_crop1-dsn2_0_split <- weight-dsn3-2
I1125 10:34:33.921304 17451 net.cpp:408] weight-dsn3-2_crop1-dsn2_0_split -> weight-dsn3-2_crop1-dsn2_0_split_0
I1125 10:34:33.921308 17451 net.cpp:408] weight-dsn3-2_crop1-dsn2_0_split -> weight-dsn3-2_crop1-dsn2_0_split_1
I1125 10:34:33.921347 17451 net.cpp:150] Setting up weight-dsn3-2_crop1-dsn2_0_split
I1125 10:34:33.921352 17451 net.cpp:157] Top shape: 1 1 250 250 (62500)
I1125 10:34:33.921355 17451 net.cpp:157] Top shape: 1 1 250 250 (62500)
I1125 10:34:33.921356 17451 net.cpp:165] Memory required for data: 997042948
I1125 10:34:33.921360 17451 layer_factory.hpp:77] Creating layer sigmoid-dsn2
I1125 10:34:33.921363 17451 net.cpp:100] Creating Layer sigmoid-dsn2
I1125 10:34:33.921366 17451 net.cpp:434] sigmoid-dsn2 <- weight-dsn3-2_crop1-dsn2_0_split_0
I1125 10:34:33.921371 17451 net.cpp:408] sigmoid-dsn2 -> sigmoid-dsn2
I1125 10:34:33.921563 17451 net.cpp:150] Setting up sigmoid-dsn2
I1125 10:34:33.921571 17451 net.cpp:157] Top shape: 1 1 250 250 (62500)
I1125 10:34:33.921572 17451 net.cpp:165] Memory required for data: 997292948
I1125 10:34:33.921576 17451 layer_factory.hpp:77] Creating layer rev-dsn2
I1125 10:34:33.921579 17451 net.cpp:100] Creating Layer rev-dsn2
I1125 10:34:33.921582 17451 net.cpp:434] rev-dsn2 <- sigmoid-dsn2
I1125 10:34:33.921587 17451 net.cpp:408] rev-dsn2 -> rev-dsn2
I1125 10:34:33.921613 17451 net.cpp:150] Setting up rev-dsn2
I1125 10:34:33.921618 17451 net.cpp:157] Top shape: 1 1 250 250 (62500)
I1125 10:34:33.921620 17451 net.cpp:165] Memory required for data: 997542948
I1125 10:34:33.921623 17451 layer_factory.hpp:77] Creating layer tile-dsn2
I1125 10:34:33.921627 17451 net.cpp:100] Creating Layer tile-dsn2
I1125 10:34:33.921629 17451 net.cpp:434] tile-dsn2 <- rev-dsn2
I1125 10:34:33.921634 17451 net.cpp:408] tile-dsn2 -> weight-dsn2
I1125 10:34:33.921658 17451 net.cpp:150] Setting up tile-dsn2
I1125 10:34:33.921663 17451 net.cpp:157] Top shape: 1 128 250 250 (8000000)
I1125 10:34:33.921664 17451 net.cpp:165] Memory required for data: 1029542948
I1125 10:34:33.921667 17451 layer_factory.hpp:77] Creating layer prod1-dsn2
I1125 10:34:33.921670 17451 net.cpp:100] Creating Layer prod1-dsn2
I1125 10:34:33.921674 17451 net.cpp:434] prod1-dsn2 <- conv2_2_relu2_2_0_split_2
I1125 10:34:33.921676 17451 net.cpp:434] prod1-dsn2 <- weight-dsn2
I1125 10:34:33.921679 17451 net.cpp:408] prod1-dsn2 -> prod1-dsn2
I1125 10:34:33.921703 17451 net.cpp:150] Setting up prod1-dsn2
I1125 10:34:33.921708 17451 net.cpp:157] Top shape: 1 128 250 250 (8000000)
I1125 10:34:33.921710 17451 net.cpp:165] Memory required for data: 1061542948
I1125 10:34:33.921713 17451 layer_factory.hpp:77] Creating layer conv1-dsn2
I1125 10:34:33.921720 17451 net.cpp:100] Creating Layer conv1-dsn2
I1125 10:34:33.921723 17451 net.cpp:434] conv1-dsn2 <- prod1-dsn2
I1125 10:34:33.921728 17451 net.cpp:408] conv1-dsn2 -> conv1-dsn2
I1125 10:34:33.922961 17451 net.cpp:150] Setting up conv1-dsn2
I1125 10:34:33.922971 17451 net.cpp:157] Top shape: 1 64 250 250 (4000000)
I1125 10:34:33.922973 17451 net.cpp:165] Memory required for data: 1077542948
I1125 10:34:33.922978 17451 layer_factory.hpp:77] Creating layer conv2-dsn2
I1125 10:34:33.922988 17451 net.cpp:100] Creating Layer conv2-dsn2
I1125 10:34:33.922991 17451 net.cpp:434] conv2-dsn2 <- conv1-dsn2
I1125 10:34:33.922996 17451 net.cpp:408] conv2-dsn2 -> conv2-dsn2
I1125 10:34:33.925822 17451 net.cpp:150] Setting up conv2-dsn2
I1125 10:34:33.925832 17451 net.cpp:157] Top shape: 1 64 250 250 (4000000)
I1125 10:34:33.925833 17451 net.cpp:165] Memory required for data: 1093542948
I1125 10:34:33.925838 17451 layer_factory.hpp:77] Creating layer relu1-dsn2
I1125 10:34:33.925843 17451 net.cpp:100] Creating Layer relu1-dsn2
I1125 10:34:33.925846 17451 net.cpp:434] relu1-dsn2 <- conv2-dsn2
I1125 10:34:33.925851 17451 net.cpp:395] relu1-dsn2 -> conv2-dsn2 (in-place)
I1125 10:34:33.926024 17451 net.cpp:150] Setting up relu1-dsn2
I1125 10:34:33.926033 17451 net.cpp:157] Top shape: 1 64 250 250 (4000000)
I1125 10:34:33.926034 17451 net.cpp:165] Memory required for data: 1109542948
I1125 10:34:33.926036 17451 layer_factory.hpp:77] Creating layer conv3-dsn2
I1125 10:34:33.926046 17451 net.cpp:100] Creating Layer conv3-dsn2
I1125 10:34:33.926048 17451 net.cpp:434] conv3-dsn2 <- conv2-dsn2
I1125 10:34:33.926054 17451 net.cpp:408] conv3-dsn2 -> conv3-dsn2
I1125 10:34:33.927515 17451 net.cpp:150] Setting up conv3-dsn2
I1125 10:34:33.927527 17451 net.cpp:157] Top shape: 1 64 250 250 (4000000)
I1125 10:34:33.927529 17451 net.cpp:165] Memory required for data: 1125542948
I1125 10:34:33.927536 17451 layer_factory.hpp:77] Creating layer relu2-dsn2
I1125 10:34:33.927539 17451 net.cpp:100] Creating Layer relu2-dsn2
I1125 10:34:33.927541 17451 net.cpp:434] relu2-dsn2 <- conv3-dsn2
I1125 10:34:33.927546 17451 net.cpp:395] relu2-dsn2 -> conv3-dsn2 (in-place)
I1125 10:34:33.927704 17451 net.cpp:150] Setting up relu2-dsn2
I1125 10:34:33.927711 17451 net.cpp:157] Top shape: 1 64 250 250 (4000000)
I1125 10:34:33.927713 17451 net.cpp:165] Memory required for data: 1141542948
I1125 10:34:33.927716 17451 layer_factory.hpp:77] Creating layer conv4-dsn2
I1125 10:34:33.927726 17451 net.cpp:100] Creating Layer conv4-dsn2
I1125 10:34:33.927728 17451 net.cpp:434] conv4-dsn2 <- conv3-dsn2
I1125 10:34:33.927732 17451 net.cpp:408] conv4-dsn2 -> conv4-dsn2
I1125 10:34:33.928859 17451 net.cpp:150] Setting up conv4-dsn2
I1125 10:34:33.928869 17451 net.cpp:157] Top shape: 1 1 250 250 (62500)
I1125 10:34:33.928872 17451 net.cpp:165] Memory required for data: 1141792948
I1125 10:34:33.928876 17451 layer_factory.hpp:77] Creating layer sum-dsn2
I1125 10:34:33.928881 17451 net.cpp:100] Creating Layer sum-dsn2
I1125 10:34:33.928884 17451 net.cpp:434] sum-dsn2 <- conv4-dsn2
I1125 10:34:33.928889 17451 net.cpp:434] sum-dsn2 <- weight-dsn3-2_crop1-dsn2_0_split_1
I1125 10:34:33.928894 17451 net.cpp:408] sum-dsn2 -> sum-dsn2
I1125 10:34:33.928923 17451 net.cpp:150] Setting up sum-dsn2
I1125 10:34:33.928930 17451 net.cpp:157] Top shape: 1 1 250 250 (62500)
I1125 10:34:33.928932 17451 net.cpp:165] Memory required for data: 1142042948
I1125 10:34:33.928934 17451 layer_factory.hpp:77] Creating layer upsample2_2-dsn2
I1125 10:34:33.928939 17451 net.cpp:100] Creating Layer upsample2_2-dsn2
I1125 10:34:33.928941 17451 net.cpp:434] upsample2_2-dsn2 <- sum-dsn2
I1125 10:34:33.928946 17451 net.cpp:408] upsample2_2-dsn2 -> sum-dsn2-up
I1125 10:34:33.930415 17451 net.cpp:150] Setting up upsample2_2-dsn2
I1125 10:34:33.930428 17451 net.cpp:157] Top shape: 1 1 502 502 (252004)
I1125 10:34:33.930430 17451 net.cpp:165] Memory required for data: 1143050964
I1125 10:34:33.930435 17451 layer_factory.hpp:77] Creating layer crop2-dsn2
I1125 10:34:33.930439 17451 net.cpp:100] Creating Layer crop2-dsn2
I1125 10:34:33.930442 17451 net.cpp:434] crop2-dsn2 <- sum-dsn2-up
I1125 10:34:33.930445 17451 net.cpp:434] crop2-dsn2 <- data_data_0_split_5
I1125 10:34:33.930449 17451 net.cpp:408] crop2-dsn2 -> upscore-dsn2
I1125 10:34:33.930485 17451 net.cpp:150] Setting up crop2-dsn2
I1125 10:34:33.930488 17451 net.cpp:157] Top shape: 1 1 500 500 (250000)
I1125 10:34:33.930490 17451 net.cpp:165] Memory required for data: 1144050964
I1125 10:34:33.930492 17451 layer_factory.hpp:77] Creating layer upscore-dsn2_crop2-dsn2_0_split
I1125 10:34:33.930498 17451 net.cpp:100] Creating Layer upscore-dsn2_crop2-dsn2_0_split
I1125 10:34:33.930500 17451 net.cpp:434] upscore-dsn2_crop2-dsn2_0_split <- upscore-dsn2
I1125 10:34:33.930505 17451 net.cpp:408] upscore-dsn2_crop2-dsn2_0_split -> upscore-dsn2_crop2-dsn2_0_split_0
I1125 10:34:33.930508 17451 net.cpp:408] upscore-dsn2_crop2-dsn2_0_split -> upscore-dsn2_crop2-dsn2_0_split_1
I1125 10:34:33.930514 17451 net.cpp:408] upscore-dsn2_crop2-dsn2_0_split -> upscore-dsn2_crop2-dsn2_0_split_2
I1125 10:34:33.930583 17451 net.cpp:150] Setting up upscore-dsn2_crop2-dsn2_0_split
I1125 10:34:33.930589 17451 net.cpp:157] Top shape: 1 1 500 500 (250000)
I1125 10:34:33.930591 17451 net.cpp:157] Top shape: 1 1 500 500 (250000)
I1125 10:34:33.930594 17451 net.cpp:157] Top shape: 1 1 500 500 (250000)
I1125 10:34:33.930598 17451 net.cpp:165] Memory required for data: 1147050964
I1125 10:34:33.930600 17451 layer_factory.hpp:77] Creating layer loss2-score
I1125 10:34:33.930605 17451 net.cpp:100] Creating Layer loss2-score
I1125 10:34:33.930608 17451 net.cpp:434] loss2-score <- upscore-dsn2_crop2-dsn2_0_split_0
I1125 10:34:33.930610 17451 net.cpp:434] loss2-score <- label_data_1_split_4
I1125 10:34:33.930614 17451 net.cpp:408] loss2-score -> loss2-score
I1125 10:34:33.930800 17451 net.cpp:150] Setting up loss2-score
I1125 10:34:33.930806 17451 net.cpp:157] Top shape: (1)
I1125 10:34:33.930809 17451 net.cpp:160]     with loss weight 1
I1125 10:34:33.930814 17451 net.cpp:165] Memory required for data: 1147050968
I1125 10:34:33.930815 17451 layer_factory.hpp:77] Creating layer sigmoid-dsn1
I1125 10:34:33.930819 17451 net.cpp:100] Creating Layer sigmoid-dsn1
I1125 10:34:33.930821 17451 net.cpp:434] sigmoid-dsn1 <- upscore-dsn2_crop2-dsn2_0_split_1
I1125 10:34:33.930825 17451 net.cpp:408] sigmoid-dsn1 -> sigmoid-dsn1
I1125 10:34:33.931344 17451 net.cpp:150] Setting up sigmoid-dsn1
I1125 10:34:33.931354 17451 net.cpp:157] Top shape: 1 1 500 500 (250000)
I1125 10:34:33.931355 17451 net.cpp:165] Memory required for data: 1148050968
I1125 10:34:33.931358 17451 layer_factory.hpp:77] Creating layer rev-dsn1
I1125 10:34:33.931363 17451 net.cpp:100] Creating Layer rev-dsn1
I1125 10:34:33.931365 17451 net.cpp:434] rev-dsn1 <- sigmoid-dsn1
I1125 10:34:33.931372 17451 net.cpp:408] rev-dsn1 -> rev-dsn1
I1125 10:34:33.931401 17451 net.cpp:150] Setting up rev-dsn1
I1125 10:34:33.931406 17451 net.cpp:157] Top shape: 1 1 500 500 (250000)
I1125 10:34:33.931408 17451 net.cpp:165] Memory required for data: 1149050968
I1125 10:34:33.931411 17451 layer_factory.hpp:77] Creating layer tile-dsn1
I1125 10:34:33.931414 17451 net.cpp:100] Creating Layer tile-dsn1
I1125 10:34:33.931416 17451 net.cpp:434] tile-dsn1 <- rev-dsn1
I1125 10:34:33.931419 17451 net.cpp:408] tile-dsn1 -> weight-dsn1
I1125 10:34:33.931444 17451 net.cpp:150] Setting up tile-dsn1
I1125 10:34:33.931448 17451 net.cpp:157] Top shape: 1 64 500 500 (16000000)
I1125 10:34:33.931450 17451 net.cpp:165] Memory required for data: 1213050968
I1125 10:34:33.931452 17451 layer_factory.hpp:77] Creating layer prod1-dsn1
I1125 10:34:33.931457 17451 net.cpp:100] Creating Layer prod1-dsn1
I1125 10:34:33.931460 17451 net.cpp:434] prod1-dsn1 <- conv1_2_relu1_2_0_split_1
I1125 10:34:33.931464 17451 net.cpp:434] prod1-dsn1 <- weight-dsn1
I1125 10:34:33.931468 17451 net.cpp:408] prod1-dsn1 -> prod1-dsn1
I1125 10:34:33.931493 17451 net.cpp:150] Setting up prod1-dsn1
I1125 10:34:33.931499 17451 net.cpp:157] Top shape: 1 64 500 500 (16000000)
I1125 10:34:33.931499 17451 net.cpp:165] Memory required for data: 1277050968
I1125 10:34:33.931502 17451 layer_factory.hpp:77] Creating layer conv1-dsn1
I1125 10:34:33.931509 17451 net.cpp:100] Creating Layer conv1-dsn1
I1125 10:34:33.931512 17451 net.cpp:434] conv1-dsn1 <- prod1-dsn1
I1125 10:34:33.931517 17451 net.cpp:408] conv1-dsn1 -> conv1-dsn1
I1125 10:34:33.933789 17451 net.cpp:150] Setting up conv1-dsn1
I1125 10:34:33.933799 17451 net.cpp:157] Top shape: 1 64 500 500 (16000000)
I1125 10:34:33.933800 17451 net.cpp:165] Memory required for data: 1341050968
I1125 10:34:33.933805 17451 layer_factory.hpp:77] Creating layer conv2-dsn1
I1125 10:34:33.933832 17451 net.cpp:100] Creating Layer conv2-dsn1
I1125 10:34:33.933835 17451 net.cpp:434] conv2-dsn1 <- conv1-dsn1
I1125 10:34:33.933840 17451 net.cpp:408] conv2-dsn1 -> conv2-dsn1
I1125 10:34:33.935408 17451 net.cpp:150] Setting up conv2-dsn1
I1125 10:34:33.935418 17451 net.cpp:157] Top shape: 1 64 500 500 (16000000)
I1125 10:34:33.935421 17451 net.cpp:165] Memory required for data: 1405050968
I1125 10:34:33.935426 17451 layer_factory.hpp:77] Creating layer relu1-dsn1
I1125 10:34:33.935431 17451 net.cpp:100] Creating Layer relu1-dsn1
I1125 10:34:33.935432 17451 net.cpp:434] relu1-dsn1 <- conv2-dsn1
I1125 10:34:33.935436 17451 net.cpp:395] relu1-dsn1 -> conv2-dsn1 (in-place)
I1125 10:34:33.935916 17451 net.cpp:150] Setting up relu1-dsn1
I1125 10:34:33.935927 17451 net.cpp:157] Top shape: 1 64 500 500 (16000000)
I1125 10:34:33.935930 17451 net.cpp:165] Memory required for data: 1469050968
I1125 10:34:33.935932 17451 layer_factory.hpp:77] Creating layer conv3-dsn1
I1125 10:34:33.935940 17451 net.cpp:100] Creating Layer conv3-dsn1
I1125 10:34:33.935943 17451 net.cpp:434] conv3-dsn1 <- conv2-dsn1
I1125 10:34:33.935948 17451 net.cpp:408] conv3-dsn1 -> conv3-dsn1
I1125 10:34:33.938520 17451 net.cpp:150] Setting up conv3-dsn1
I1125 10:34:33.938534 17451 net.cpp:157] Top shape: 1 64 500 500 (16000000)
I1125 10:34:33.938535 17451 net.cpp:165] Memory required for data: 1533050968
I1125 10:34:33.938540 17451 layer_factory.hpp:77] Creating layer relu2-dsn1
I1125 10:34:33.938544 17451 net.cpp:100] Creating Layer relu2-dsn1
I1125 10:34:33.938547 17451 net.cpp:434] relu2-dsn1 <- conv3-dsn1
I1125 10:34:33.938551 17451 net.cpp:395] relu2-dsn1 -> conv3-dsn1 (in-place)
I1125 10:34:33.938726 17451 net.cpp:150] Setting up relu2-dsn1
I1125 10:34:33.938733 17451 net.cpp:157] Top shape: 1 64 500 500 (16000000)
I1125 10:34:33.938736 17451 net.cpp:165] Memory required for data: 1597050968
I1125 10:34:33.938738 17451 layer_factory.hpp:77] Creating layer conv4-dsn1
I1125 10:34:33.938747 17451 net.cpp:100] Creating Layer conv4-dsn1
I1125 10:34:33.938750 17451 net.cpp:434] conv4-dsn1 <- conv3-dsn1
I1125 10:34:33.938755 17451 net.cpp:408] conv4-dsn1 -> conv4-dsn1
I1125 10:34:33.940052 17451 net.cpp:150] Setting up conv4-dsn1
I1125 10:34:33.940062 17451 net.cpp:157] Top shape: 1 1 500 500 (250000)
I1125 10:34:33.940063 17451 net.cpp:165] Memory required for data: 1598050968
I1125 10:34:33.940069 17451 layer_factory.hpp:77] Creating layer sum-dsn1
I1125 10:34:33.940074 17451 net.cpp:100] Creating Layer sum-dsn1
I1125 10:34:33.940076 17451 net.cpp:434] sum-dsn1 <- conv4-dsn1
I1125 10:34:33.940080 17451 net.cpp:434] sum-dsn1 <- upscore-dsn2_crop2-dsn2_0_split_2
I1125 10:34:33.940084 17451 net.cpp:408] sum-dsn1 -> sum-dsn1
I1125 10:34:33.940115 17451 net.cpp:150] Setting up sum-dsn1
I1125 10:34:33.940121 17451 net.cpp:157] Top shape: 1 1 500 500 (250000)
I1125 10:34:33.940124 17451 net.cpp:165] Memory required for data: 1599050968
I1125 10:34:33.940131 17451 layer_factory.hpp:77] Creating layer crop2-dsn1
I1125 10:34:33.940135 17451 net.cpp:100] Creating Layer crop2-dsn1
I1125 10:34:33.940137 17451 net.cpp:434] crop2-dsn1 <- sum-dsn1
I1125 10:34:33.940140 17451 net.cpp:434] crop2-dsn1 <- data_data_0_split_6
I1125 10:34:33.940145 17451 net.cpp:408] crop2-dsn1 -> upscore-dsn1
I1125 10:34:33.940171 17451 net.cpp:150] Setting up crop2-dsn1
I1125 10:34:33.940176 17451 net.cpp:157] Top shape: 1 1 500 500 (250000)
I1125 10:34:33.940178 17451 net.cpp:165] Memory required for data: 1600050968
I1125 10:34:33.940181 17451 layer_factory.hpp:77] Creating layer loss1-score
I1125 10:34:33.940187 17451 net.cpp:100] Creating Layer loss1-score
I1125 10:34:33.940189 17451 net.cpp:434] loss1-score <- upscore-dsn1
I1125 10:34:33.940192 17451 net.cpp:434] loss1-score <- label_data_1_split_5
I1125 10:34:33.940196 17451 net.cpp:408] loss1-score -> loss1-score
…
