…
I1118 18:36:40.460163  3240 net.cpp:58] Initializing net from parameters: 
name: "RAS"
state {
  phase: TRAIN
}
layer {
  name: "data"
  type: "ImageLabelmapData"
  top: "data_unaugmented"
  top: "label_unaugmented"
  include {
    phase: TRAIN
  }
  transform_param {
    mean_value: 104.00699
    mean_value: 116.66877
    mean_value: 122.67892
  }
  image_data_param {
    source: "/media/compute/homes/galberding/FleckDetect/Datasets/train.txt"
    batch_size: 1
    shuffle: true
    new_height: 500
    new_width: 500
    root_folder: "/media/compute/homes/galberding/FleckDetect/Datasets/"
    normalize: true
  }
}
layer {
  name: "augmentation"
  type: "Python"
  bottom: "data_unaugmented"
  bottom: "label_unaugmented"
  top: "data"
  top: "label"
  include {
    phase: TRAIN
  }
  python_param {
    module: "data_augmentation"
    layer: "DataAugmentation"
  }
}
layer {
  name: "conv1_1"
  type: "Convolution"
  bottom: "data"
  top: "conv1_1"
  param {
    lr_mult: 1
    decay_mult: 1
  }
  param {
    lr_mult: 2
    decay_mult: 0
  }
  convolution_param {
    num_output: 64
    pad: 1
    kernel_size: 3
    engine: CUDNN
  }
}
layer {
  name: "relu1_1"
  type: "ReLU"
  bottom: "conv1_1"
  top: "conv1_1"
}
layer {
  name: "conv1_2"
  type: "Convolution"
  bottom: "conv1_1"
  top: "conv1_2"
  param {
    lr_mult: 1
    decay_mult: 1
  }
  param {
    lr_mult: 2
    decay_mult: 0
  }
  convolution_param {
    num_output: 64
    pad: 1
    kernel_size: 3
    engine: CUDNN
  }
}
layer {
  name: "relu1_2"
  type: "ReLU"
  bottom: "conv1_2"
  top: "conv1_2"
}
layer {
  name: "pool1"
  type: "Pooling"
  bottom: "conv1_2"
  top: "pool1"
  pooling_param {
    pool: MAX
    kernel_size: 2
    stride: 2
  }
}
layer {
  name: "conv2_1"
  type: "Convolution"
  bottom: "pool1"
  top: "conv2_1"
  param {
    lr_mult: 1
    decay_mult: 1
  }
  param {
    lr_mult: 2
    decay_mult: 0
  }
  convolution_param {
    num_output: 128
    pad: 1
    kernel_size: 3
    engine: CUDNN
  }
}
layer {
  name: "relu2_1"
  type: "ReLU"
  bottom: "conv2_1"
  top: "conv2_1"
}
layer {
  name: "conv2_2"
  type: "Convolution"
  bottom: "conv2_1"
  top: "conv2_2"
  param {
    lr_mult: 1
    decay_mult: 1
  }
  param {
    lr_mult: 2
    decay_mult: 0
  }
  convolution_param {
    num_output: 128
    pad: 1
    kernel_size: 3
    engine: CUDNN
  }
}
layer {
  name: "relu2_2"
  type: "ReLU"
  bottom: "conv2_2"
  top: "conv2_2"
}
layer {
  name: "pool2"
  type: "Pooling"
  bottom: "conv2_2"
  top: "pool2"
  pooling_param {
    pool: MAX
    kernel_size: 2
    stride: 2
  }
}
layer {
  name: "conv3_1"
  type: "Convolution"
  bottom: "pool2"
  top: "conv3_1"
  param {
    lr_mult: 1
    decay_mult: 1
  }
  param {
    lr_mult: 2
    decay_mult: 0
  }
  convolution_param {
    num_output: 256
    pad: 1
    kernel_size: 3
    engine: CUDNN
  }
}
layer {
  name: "relu3_1"
  type: "ReLU"
  bottom: "conv3_1"
  top: "conv3_1"
}
layer {
  name: "conv3_2"
  type: "Convolution"
  bottom: "conv3_1"
  top: "conv3_2"
  param {
    lr_mult: 1
    decay_mult: 1
  }
  param {
    lr_mult: 2
    decay_mult: 0
  }
  convolution_param {
    num_output: 256
    pad: 1
    kernel_size: 3
    engine: CUDNN
  }
}
layer {
  name: "relu3_2"
  type: "ReLU"
  bottom: "conv3_2"
  top: "conv3_2"
}
layer {
  name: "conv3_3"
  type: "Convolution"
  bottom: "conv3_2"
  top: "conv3_3"
  param {
    lr_mult: 1
    decay_mult: 1
  }
  param {
    lr_mult: 2
    decay_mult: 0
  }
  convolution_param {
    num_output: 256
    pad: 1
    kernel_size: 3
    engine: CUDNN
  }
}
layer {
  name: "relu3_3"
  type: "ReLU"
  bottom: "conv3_3"
  top: "conv3_3"
}
layer {
  name: "pool3"
  type: "Pooling"
  bottom: "conv3_3"
  top: "pool3"
  pooling_param {
    pool: MAX
    kernel_size: 2
    stride: 2
  }
}
layer {
  name: "conv4_1"
  type: "Convolution"
  bottom: "pool3"
  top: "conv4_1"
  param {
    lr_mult: 1
    decay_mult: 1
  }
  param {
    lr_mult: 2
    decay_mult: 0
  }
  convolution_param {
    num_output: 512
    pad: 1
    kernel_size: 3
    engine: CUDNN
  }
}
layer {
  name: "relu4_1"
  type: "ReLU"
  bottom: "conv4_1"
  top: "conv4_1"
}
layer {
  name: "conv4_2"
  type: "Convolution"
  bottom: "conv4_1"
  top: "conv4_2"
  param {
    lr_mult: 1
    decay_mult: 1
  }
  param {
    lr_mult: 2
    decay_mult: 0
  }
  convolution_param {
    num_output: 512
    pad: 1
    kernel_size: 3
    engine: CUDNN
  }
}
layer {
  name: "relu4_2"
  type: "ReLU"
  bottom: "conv4_2"
  top: "conv4_2"
}
layer {
  name: "conv4_3"
  type: "Convolution"
  bottom: "conv4_2"
  top: "conv4_3"
  param {
    lr_mult: 1
    decay_mult: 1
  }
  param {
    lr_mult: 2
    decay_mult: 0
  }
  convolution_param {
    num_output: 512
    pad: 1
    kernel_size: 3
    engine: CUDNN
  }
}
layer {
  name: "relu4_3"
  type: "ReLU"
  bottom: "conv4_3"
  top: "conv4_3"
}
layer {
  name: "pool4"
  type: "Pooling"
  bottom: "conv4_3"
  top: "pool4"
  pooling_param {
    pool: MAX
    kernel_size: 3
    stride: 2
    pad: 1
  }
}
layer {
  name: "conv5_1"
  type: "Convolution"
  bottom: "pool4"
  top: "conv5_1"
  param {
    lr_mult: 1
    decay_mult: 1
  }
  param {
    lr_mult: 2
    decay_mult: 0
  }
  convolution_param {
    num_output: 512
    pad: 1
    kernel_size: 3
    engine: CUDNN
  }
}
layer {
  name: "relu5_1"
  type: "ReLU"
  bottom: "conv5_1"
  top: "conv5_1"
}
layer {
  name: "conv5_2"
  type: "Convolution"
  bottom: "conv5_1"
  top: "conv5_2"
  param {
    lr_mult: 1
    decay_mult: 1
  }
  param {
    lr_mult: 2
    decay_mult: 0
  }
  convolution_param {
    num_output: 512
    pad: 1
    kernel_size: 3
    engine: CUDNN
  }
}
layer {
  name: "relu5_2"
  type: "ReLU"
  bottom: "conv5_2"
  top: "conv5_2"
}
layer {
  name: "conv5_3"
  type: "Convolution"
  bottom: "conv5_2"
  top: "conv5_3"
  param {
    lr_mult: 1
    decay_mult: 1
  }
  param {
    lr_mult: 2
    decay_mult: 0
  }
  convolution_param {
    num_output: 512
    pad: 1
    kernel_size: 3
    engine: CUDNN
  }
}
layer {
  name: "relu5_3"
  type: "ReLU"
  bottom: "conv5_3"
  top: "conv5_3"
}
layer {
  name: "pool5"
  type: "Pooling"
  bottom: "conv5_3"
  top: "pool5"
  pooling_param {
    pool: MAX
    kernel_size: 3
    stride: 2
    pad: 1
  }
}
layer {
  name: "conv1-dsn6"
  type: "Convolution"
  bottom: "pool5"
  top: "conv1-dsn6"
  param {
    lr_mult: 1
    decay_mult: 1
  }
  param {
    lr_mult: 2
    decay_mult: 0
  }
  convolution_param {
    num_output: 256
    kernel_size: 1
    weight_filler {
      type: "gaussian"
      std: 0.01
    }
    bias_filler {
      type: "constant"
      value: 0
    }
    engine: CUDNN
  }
}
layer {
  name: "conv2-dsn6"
  type: "Convolution"
  bottom: "conv1-dsn6"
  top: "conv2-dsn6"
  param {
    lr_mult: 1
    decay_mult: 1
  }
  param {
    lr_mult: 2
    decay_mult: 0
  }
  convolution_param {
    num_output: 256
    pad: 2
    kernel_size: 5
    weight_filler {
      type: "gaussian"
      std: 0.01
    }
    bias_filler {
      type: "constant"
      value: 0
    }
    engine: CUDNN
  }
}
layer {
  name: "relu1-dsn6"
  type: "ReLU"
  bottom: "conv2-dsn6"
  top: "conv2-dsn6"
}
layer {
  name: "conv3-dsn6"
  type: "Convolution"
  bottom: "conv2-dsn6"
  top: "conv3-dsn6"
  param {
    lr_mult: 1
    decay_mult: 1
  }
  param {
    lr_mult: 2
    decay_mult: 0
  }
  convolution_param {
    num_output: 256
    pad: 2
    kernel_size: 5
    weight_filler {
      type: "gaussian"
      std: 0.01
    }
    bias_filler {
      type: "constant"
      value: 0
    }
    engine: CUDNN
  }
}
layer {
  name: "relu2-dsn6"
  type: "ReLU"
  bottom: "conv3-dsn6"
  top: "conv3-dsn6"
}
layer {
  name: "conv4-dsn6"
  type: "Convolution"
  bottom: "conv3-dsn6"
  top: "conv4-dsn6"
  param {
    lr_mult: 1
    decay_mult: 1
  }
  param {
    lr_mult: 2
    decay_mult: 0
  }
  convolution_param {
    num_output: 256
    pad: 2
    kernel_size: 5
    weight_filler {
      type: "gaussian"
      std: 0.01
    }
    bias_filler {
      type: "constant"
      value: 0
    }
    engine: CUDNN
  }
}
layer {
  name: "relu3-dsn6"
  type: "ReLU"
  bottom: "conv4-dsn6"
  top: "conv4-dsn6"
}
layer {
  name: "conv5-dsn6"
  type: "Convolution"
  bottom: "conv4-dsn6"
  top: "conv5-dsn6"
  param {
    lr_mult: 0.1
    decay_mult: 1
  }
  param {
    lr_mult: 0.2
    decay_mult: 0
  }
  convolution_param {
    num_output: 1
    kernel_size: 1
    weight_filler {
      type: "gaussian"
      std: 0.01
    }
    bias_filler {
      type: "constant"
      value: 0
    }
    engine: CUDNN
  }
}
layer {
  name: "upsample32_dsn6"
  type: "Deconvolution"
  bottom: "conv5-dsn6"
  top: "conv5-dsn6-up"
  param {
    lr_mult: 0
    decay_mult: 1
  }
  param {
    lr_mult: 0
    decay_mult: 0
  }
  convolution_param {
    num_output: 1
    kernel_size: 64
    stride: 32
  }
}
layer {
  name: "crop-dsn6"
  type: "Crop"
  bottom: "conv5-dsn6-up"
  bottom: "data"
  top: "upscore-dsn6"
}
layer {
  name: "loss6-score"
  type: "SigmoidCrossEntropyLoss"
  bottom: "upscore-dsn6"
  bottom: "label"
  top: "loss6-score"
  loss_weight: 1
}
layer {
  name: "upsample2_dsn5"
  type: "Deconvolution"
  bottom: "conv5-dsn6"
  top: "conv5-dsn6-5"
  param {
    lr_mult: 0
    decay_mult: 1
  }
  param {
    lr_mult: 0
    decay_mult: 0
  }
  convolution_param {
    num_output: 1
    kernel_size: 4
    stride: 2
  }
}
layer {
  name: "crop1-dsn5"
  type: "Crop"
  bottom: "conv5-dsn6-5"
  bottom: "conv5_3"
  top: "weight-dsn6-5"
}
layer {
  name: "sigmoid-dsn5"
  type: "Sigmoid"
  bottom: "weight-dsn6-5"
  top: "sigmoid-dsn5"
}
layer {
  name: "rev-dsn5"
  type: "Power"
  bottom: "sigmoid-dsn5"
  top: "rev-dsn5"
  power_param {
    power: 1
    scale: -1
    shift: 1
  }
}
layer {
  name: "tile-dsn5"
  type: "Tile"
  bottom: "rev-dsn5"
  top: "weight-dsn5"
  tile_param {
    tiles: 512
  }
}
layer {
  name: "prod1-dsn5"
  type: "Eltwise"
  bottom: "conv5_3"
  bottom: "weight-dsn5"
  top: "prod1-dsn5"
  eltwise_param {
    operation: PROD
  }
}
layer {
  name: "conv1-dsn5"
  type: "Convolution"
  bottom: "prod1-dsn5"
  top: "conv1-dsn5"
  param {
    lr_mult: 1
    decay_mult: 1
  }
  param {
    lr_mult: 2
    decay_mult: 0
  }
  convolution_param {
    num_output: 64
    kernel_size: 1
    weight_filler {
      type: "gaussian"
      std: 0.01
    }
    bias_filler {
      type: "constant"
      value: 0
    }
    engine: CUDNN
  }
}
layer {
  name: "conv2-dsn5"
  type: "Convolution"
  bottom: "conv1-dsn5"
  top: "conv2-dsn5"
  param {
    lr_mult: 1
    decay_mult: 1
  }
  param {
    lr_mult: 2
    decay_mult: 0
  }
  convolution_param {
    num_output: 64
    pad: 1
    kernel_size: 3
    weight_filler {
      type: "gaussian"
      std: 0.01
    }
    bias_filler {
      type: "constant"
      value: 0
    }
    engine: CUDNN
  }
}
layer {
  name: "relu1-dsn5"
  type: "ReLU"
  bottom: "conv2-dsn5"
  top: "conv2-dsn5"
}
layer {
  name: "conv3-dsn5"
  type: "Convolution"
  bottom: "conv2-dsn5"
  top: "conv3-dsn5"
  param {
    lr_mult: 1
    decay_mult: 1
  }
  param {
    lr_mult: 2
    decay_mult: 0
  }
  convolution_param {
    num_output: 64
    pad: 1
    kernel_size: 3
    weight_filler {
      type: "gaussian"
      std: 0.01
    }
    bias_filler {
      type: "constant"
      value: 0
    }
    engine: CUDNN
  }
}
layer {
  name: "relu2-dsn5"
  type: "ReLU"
  bottom: "conv3-dsn5"
  top: "conv3-dsn5"
}
layer {
  name: "conv4-dsn5"
  type: "Convolution"
  bottom: "conv3-dsn5"
  top: "conv4-dsn5"
  param {
    lr_mult: 1
    decay_mult: 1
  }
  param {
    lr_mult: 2
    decay_mult: 0
  }
  convolution_param {
    num_output: 1
    pad: 1
    kernel_size: 3
    weight_filler {
      type: "gaussian"
      std: 0.01
    }
    bias_filler {
      type: "constant"
      value: 0
    }
    engine: CUDNN
  }
}
layer {
  name: "sum-dsn5"
  type: "Eltwise"
  bottom: "conv4-dsn5"
  bottom: "weight-dsn6-5"
  top: "sum-dsn5"
  eltwise_param {
    operation: SUM
  }
}
layer {
  name: "upsample16_dsn5"
  type: "Deconvolution"
  bottom: "sum-dsn5"
  top: "sum-dsn5-up"
  param {
    lr_mult: 0
    decay_mult: 1
  }
  param {
    lr_mult: 0
    decay_mult: 0
  }
  convolution_param {
    num_output: 1
    kernel_size: 32
    stride: 16
  }
}
layer {
  name: "crop2-dsn5"
  type: "Crop"
  bottom: "sum-dsn5-up"
  bottom: "data"
  top: "upscore-dsn5"
}
layer {
  name: "loss5-score"
  type: "SigmoidCrossEntropyLoss"
  bottom: "upscore-dsn5"
  bottom: "label"
  top: "loss5-score"
  loss_weight: 1
}
layer {
  name: "upsample2_dsn4"
  type: "Deconvolution"
  bottom: "sum-dsn5"
  top: "sum-dsn5-4"
  param {
    lr_mult: 0
    decay_mult: 1
  }
  param {
    lr_mult: 0
    decay_mult: 0
  }
  convolution_param {
    num_output: 1
    kernel_size: 4
    stride: 2
  }
}
layer {
  name: "crop1-dsn4"
  type: "Crop"
  bottom: "sum-dsn5-4"
  bottom: "conv4_3"
  top: "weight-dsn5-4"
}
layer {
  name: "sigmoid-dsn4"
  type: "Sigmoid"
  bottom: "weight-dsn5-4"
  top: "sigmoid-dsn4"
}
layer {
  name: "rev-dsn4"
  type: "Power"
  bottom: "sigmoid-dsn4"
  top: "rev-dsn4"
  power_param {
    power: 1
    scale: -1
    shift: 1
  }
}
layer {
  name: "tile-dsn4"
  type: "Tile"
  bottom: "rev-dsn4"
  top: "weight-dsn4"
  tile_param {
    tiles: 512
  }
}
layer {
  name: "prod1-dsn4"
  type: "Eltwise"
  bottom: "conv4_3"
  bottom: "weight-dsn4"
  top: "prod1-dsn4"
  eltwise_param {
    operation: PROD
  }
}
layer {
  name: "conv1-dsn4"
  type: "Convolution"
  bottom: "prod1-dsn4"
  top: "conv1-dsn4"
  param {
    lr_mult: 1
    decay_mult: 1
  }
  param {
    lr_mult: 2
    decay_mult: 0
  }
  convolution_param {
    num_output: 64
    kernel_size: 1
    weight_filler {
      type: "gaussian"
      std: 0.01
    }
    bias_filler {
      type: "constant"
      value: 0
    }
    engine: CUDNN
  }
}
layer {
  name: "conv2-dsn4"
  type: "Convolution"
  bottom: "conv1-dsn4"
  top: "conv2-dsn4"
  param {
    lr_mult: 1
    decay_mult: 1
  }
  param {
    lr_mult: 2
    decay_mult: 0
  }
  convolution_param {
    num_output: 64
    pad: 1
    kernel_size: 3
    weight_filler {
      type: "gaussian"
      std: 0.01
    }
    bias_filler {
      type: "constant"
      value: 0
    }
    engine: CUDNN
  }
}
layer {
  name: "relu1-dsn4"
  type: "ReLU"
  bottom: "conv2-dsn4"
  top: "conv2-dsn4"
}
layer {
  name: "conv3-dsn4"
  type: "Convolution"
  bottom: "conv2-dsn4"
  top: "conv3-dsn4"
  param {
    lr_mult: 1
    decay_mult: 1
  }
  param {
    lr_mult: 2
    decay_mult: 0
  }
  convolution_param {
    num_output: 64
    pad: 1
    kernel_size: 3
    weight_filler {
      type: "gaussian"
      std: 0.01
    }
    bias_filler {
      type: "constant"
      value: 0
    }
    engine: CUDNN
  }
}
layer {
  name: "relu2-dsn4"
  type: "ReLU"
  bottom: "conv3-dsn4"
  top: "conv3-dsn4"
}
layer {
  name: "conv4-dsn4"
  type: "Convolution"
  bottom: "conv3-dsn4"
  top: "conv4-dsn4"
  param {
    lr_mult: 1
    decay_mult: 1
  }
  param {
    lr_mult: 2
    decay_mult: 0
  }
  convolution_param {
    num_output: 1
    pad: 1
    kernel_size: 3
    weight_filler {
      type: "gaussian"
      std: 0.01
    }
    bias_filler {
      type: "constant"
      value: 0
    }
    engine: CUDNN
  }
}
layer {
  name: "sum-dsn4"
  type: "Eltwise"
  bottom: "conv4-dsn4"
  bottom: "weight-dsn5-4"
  top: "sum-dsn4"
  eltwise_param {
    operation: SUM
  }
}
layer {
  name: "upsample8_dsn4"
  type: "Deconvolution"
  bottom: "sum-dsn4"
  top: "sum-dsn4-up"
  param {
    lr_mult: 0
    decay_mult: 1
  }
  param {
    lr_mult: 0
    decay_mult: 0
  }
  convolution_param {
    num_output: 1
    kernel_size: 16
    stride: 8
  }
}
layer {
  name: "crop2-dsn4"
  type: "Crop"
  bottom: "sum-dsn4-up"
  bottom: "data"
  top: "upscore-dsn4"
}
layer {
  name: "loss4-score"
  type: "SigmoidCrossEntropyLoss"
  bottom: "upscore-dsn4"
  bottom: "label"
  top: "loss4-score"
  loss_weight: 1
}
layer {
  name: "upsample2_dsn3"
  type: "Deconvolution"
  bottom: "sum-dsn4"
  top: "sum-dsn4-3"
  param {
    lr_mult: 0
    decay_mult: 1
  }
  param {
    lr_mult: 0
    decay_mult: 0
  }
  convolution_param {
    num_output: 1
    kernel_size: 4
    stride: 2
  }
}
layer {
  name: "crop1-dsn3"
  type: "Crop"
  bottom: "sum-dsn4-3"
  bottom: "conv3_3"
  top: "weight-dsn4-3"
}
layer {
  name: "sigmoid-dsn3"
  type: "Sigmoid"
  bottom: "weight-dsn4-3"
  top: "sigmoid-dsn3"
}
layer {
  name: "rev-dsn3"
  type: "Power"
  bottom: "sigmoid-dsn3"
  top: "rev-dsn3"
  power_param {
    power: 1
    scale: -1
    shift: 1
  }
}
layer {
  name: "tile-dsn3"
  type: "Tile"
  bottom: "rev-dsn3"
  top: "weight-dsn3"
  tile_param {
    tiles: 256
  }
}
layer {
  name: "prod1-dsn3"
  type: "Eltwise"
  bottom: "conv3_3"
  bottom: "weight-dsn3"
  top: "prod1-dsn3"
  eltwise_param {
    operation: PROD
  }
}
layer {
  name: "conv1-dsn3"
  type: "Convolution"
  bottom: "prod1-dsn3"
  top: "conv1-dsn3"
  param {
    lr_mult: 1
    decay_mult: 1
  }
  param {
    lr_mult: 2
    decay_mult: 0
  }
  convolution_param {
    num_output: 64
    kernel_size: 1
    weight_filler {
      type: "gaussian"
      std: 0.01
    }
    bias_filler {
      type: "constant"
      value: 0
    }
    engine: CUDNN
  }
}
layer {
  name: "conv2-dsn3"
  type: "Convolution"
  bottom: "conv1-dsn3"
  top: "conv2-dsn3"
  param {
    lr_mult: 1
    decay_mult: 1
  }
  param {
    lr_mult: 2
    decay_mult: 0
  }
  convolution_param {
    num_output: 64
    pad: 1
    kernel_size: 3
    weight_filler {
      type: "gaussian"
      std: 0.01
    }
    bias_filler {
      type: "constant"
      value: 0
    }
    engine: CUDNN
  }
}
layer {
  name: "relu1-dsn3"
  type: "ReLU"
  bottom: "conv2-dsn3"
  top: "conv2-dsn3"
}
layer {
  name: "conv3-dsn3"
  type: "Convolution"
  bottom: "conv2-dsn3"
  top: "conv3-dsn3"
  param {
    lr_mult: 1
    decay_mult: 1
  }
  param {
    lr_mult: 2
    decay_mult: 0
  }
  convolution_param {
    num_output: 64
    pad: 1
    kernel_size: 3
    weight_filler {
      type: "gaussian"
      std: 0.01
    }
    bias_filler {
      type: "constant"
      value: 0
    }
    engine: CUDNN
  }
}
layer {
  name: "relu2-dsn3"
  type: "ReLU"
  bottom: "conv3-dsn3"
  top: "conv3-dsn3"
}
layer {
  name: "conv4-dsn3"
  type: "Convolution"
  bottom: "conv3-dsn3"
  top: "conv4-dsn3"
  param {
    lr_mult: 1
    decay_mult: 1
  }
  param {
    lr_mult: 2
    decay_mult: 0
  }
  convolution_param {
    num_output: 1
    pad: 1
    kernel_size: 3
    weight_filler {
      type: "gaussian"
      std: 0.01
    }
    bias_filler {
      type: "constant"
      value: 0
    }
    engine: CUDNN
  }
}
layer {
  name: "sum-dsn3"
  type: "Eltwise"
  bottom: "conv4-dsn3"
  bottom: "weight-dsn4-3"
  top: "sum-dsn3"
  eltwise_param {
    operation: SUM
  }
}
layer {
  name: "upsample4_dsn3"
  type: "Deconvolution"
  bottom: "sum-dsn3"
  top: "sum-dsn3-up"
  param {
    lr_mult: 0
    decay_mult: 1
  }
  param {
    lr_mult: 0
    decay_mult: 0
  }
  convolution_param {
    num_output: 1
    kernel_size: 8
    stride: 4
  }
}
layer {
  name: "crop2-dsn3"
  type: "Crop"
  bottom: "sum-dsn3-up"
  bottom: "data"
  top: "upscore-dsn3"
}
layer {
  name: "loss3-score"
  type: "SigmoidCrossEntropyLoss"
  bottom: "upscore-dsn3"
  bottom: "label"
  top: "loss3-score"
  loss_weight: 1
}
layer {
  name: "upsample2_1-dsn2"
  type: "Deconvolution"
  bottom: "sum-dsn3"
  top: "sum-dsn3-2"
  param {
    lr_mult: 0
    decay_mult: 1
  }
  param {
    lr_mult: 0
    decay_mult: 0
  }
  convolution_param {
    num_output: 1
    kernel_size: 4
    stride: 2
  }
}
layer {
  name: "crop1-dsn2"
  type: "Crop"
  bottom: "sum-dsn3-2"
  bottom: "conv2_2"
  top: "weight-dsn3-2"
}
layer {
  name: "sigmoid-dsn2"
  type: "Sigmoid"
  bottom: "weight-dsn3-2"
  top: "sigmoid-dsn2"
}
layer {
  name: "rev-dsn2"
  type: "Power"
  bottom: "sigmoid-dsn2"
  top: "rev-dsn2"
  power_param {
    power: 1
    scale: -1
    shift: 1
  }
}
layer {
  name: "tile-dsn2"
  type: "Tile"
  bottom: "rev-dsn2"
  top: "weight-dsn2"
  tile_param {
    tiles: 128
  }
}
layer {
  name: "prod1-dsn2"
  type: "Eltwise"
  bottom: "conv2_2"
  bottom: "weight-dsn2"
  top: "prod1-dsn2"
  eltwise_param {
    operation: PROD
  }
}
layer {
  name: "conv1-dsn2"
  type: "Convolution"
  bottom: "prod1-dsn2"
  top: "conv1-dsn2"
  param {
    lr_mult: 1
    decay_mult: 1
  }
  param {
    lr_mult: 2
    decay_mult: 0
  }
  convolution_param {
    num_output: 64
    kernel_size: 1
    weight_filler {
      type: "gaussian"
      std: 0.01
    }
    bias_filler {
      type: "constant"
      value: 0
    }
    engine: CUDNN
  }
}
layer {
  name: "conv2-dsn2"
  type: "Convolution"
  bottom: "conv1-dsn2"
  top: "conv2-dsn2"
  param {
    lr_mult: 1
    decay_mult: 1
  }
  param {
    lr_mult: 2
    decay_mult: 0
  }
  convolution_param {
    num_output: 64
    pad: 1
    kernel_size: 3
    weight_filler {
      type: "gaussian"
      std: 0.01
    }
    bias_filler {
      type: "constant"
      value: 0
    }
    engine: CUDNN
  }
}
layer {
  name: "relu1-dsn2"
  type: "ReLU"
  bottom: "conv2-dsn2"
  top: "conv2-dsn2"
}
layer {
  name: "conv3-dsn2"
  type: "Convolution"
  bottom: "conv2-dsn2"
  top: "conv3-dsn2"
  param {
    lr_mult: 1
    decay_mult: 1
  }
  param {
    lr_mult: 2
    decay_mult: 0
  }
  convolution_param {
    num_output: 64
    pad: 1
    kernel_size: 3
    weight_filler {
      type: "gaussian"
      std: 0.01
    }
    bias_filler {
      type: "constant"
      value: 0
    }
    engine: CUDNN
  }
}
layer {
  name: "relu2-dsn2"
  type: "ReLU"
  bottom: "conv3-dsn2"
  top: "conv3-dsn2"
}
layer {
  name: "conv4-dsn2"
  type: "Convolution"
  bottom: "conv3-dsn2"
  top: "conv4-dsn2"
  param {
    lr_mult: 1
    decay_mult: 1
  }
  param {
    lr_mult: 2
    decay_mult: 0
  }
  convolution_param {
    num_output: 1
    pad: 1
    kernel_size: 3
    weight_filler {
      type: "gaussian"
      std: 0.01
    }
    bias_filler {
      type: "constant"
      value: 0
    }
    engine: CUDNN
  }
}
layer {
  name: "sum-dsn2"
  type: "Eltwise"
  bottom: "conv4-dsn2"
  bottom: "weight-dsn3-2"
  top: "sum-dsn2"
  eltwise_param {
    operation: SUM
  }
}
layer {
  name: "upsample2_2-dsn2"
  type: "Deconvolution"
  bottom: "sum-dsn2"
  top: "sum-dsn2-up"
  param {
    lr_mult: 0
    decay_mult: 1
  }
  param {
    lr_mult: 0
    decay_mult: 0
  }
  convolution_param {
    num_output: 1
    kernel_size: 4
    stride: 2
  }
}
layer {
  name: "crop2-dsn2"
  type: "Crop"
  bottom: "sum-dsn2-up"
  bottom: "data"
  top: "upscore-dsn2"
}
layer {
  name: "loss2-score"
  type: "SigmoidCrossEntropyLoss"
  bottom: "upscore-dsn2"
  bottom: "label"
  top: "loss2-score"
  loss_weight: 1
}
layer {
  name: "sigmoid-dsn1"
  type: "Sigmoid"
  bottom: "upscore-dsn2"
  top: "sigmoid-dsn1"
}
layer {
  name: "rev-dsn1"
  type: "Power"
  bottom: "sigmoid-dsn1"
  top: "rev-dsn1"
  power_param {
    power: 1
    scale: -1
    shift: 1
  }
}
layer {
  name: "tile-dsn1"
  type: "Tile"
  bottom: "rev-dsn1"
  top: "weight-dsn1"
  tile_param {
    tiles: 64
  }
}
layer {
  name: "prod1-dsn1"
  type: "Eltwise"
  bottom: "conv1_2"
  bottom: "weight-dsn1"
  top: "prod1-dsn1"
  eltwise_param {
    operation: PROD
  }
}
layer {
  name: "conv1-dsn1"
  type: "Convolution"
  bottom: "prod1-dsn1"
  top: "conv1-dsn1"
  param {
    lr_mult: 1
    decay_mult: 1
  }
  param {
    lr_mult: 2
    decay_mult: 0
  }
  convolution_param {
    num_output: 64
    kernel_size: 1
    weight_filler {
      type: "gaussian"
      std: 0.01
    }
    bias_filler {
      type: "constant"
      value: 0
    }
    engine: CUDNN
  }
}
layer {
  name: "conv2-dsn1"
  type: "Convolution"
  bottom: "conv1-dsn1"
  top: "conv2-dsn1"
  param {
    lr_mult: 1
    decay_mult: 1
  }
  param {
    lr_mult: 2
    decay_mult: 0
  }
  convolution_param {
    num_output: 64
    pad: 1
    kernel_size: 3
    weight_filler {
      type: "gaussian"
      std: 0.01
    }
    bias_filler {
      type: "constant"
      value: 0
    }
    engine: CUDNN
  }
}
layer {
  name: "relu1-dsn1"
  type: "ReLU"
  bottom: "conv2-dsn1"
  top: "conv2-dsn1"
}
layer {
  name: "conv3-dsn1"
  type: "Convolution"
  bottom: "conv2-dsn1"
  top: "conv3-dsn1"
  param {
    lr_mult: 1
    decay_mult: 1
  }
  param {
    lr_mult: 2
    decay_mult: 0
  }
  convolution_param {
    num_output: 64
    pad: 1
    kernel_size: 3
    weight_filler {
      type: "gaussian"
      std: 0.01
    }
    bias_filler {
      type: "constant"
      value: 0
    }
    engine: CUDNN
  }
}
layer {
  name: "relu2-dsn1"
  type: "ReLU"
  bottom: "conv3-dsn1"
  top: "conv3-dsn1"
}
layer {
  name: "conv4-dsn1"
  type: "Convolution"
  bottom: "conv3-dsn1"
  top: "conv4-dsn1"
  param {
    lr_mult: 1
    decay_mult: 1
  }
  param {
    lr_mult: 2
    decay_mult: 0
  }
  convolution_param {
    num_output: 1
    pad: 1
    kernel_size: 3
    weight_filler {
      type: "gaussian"
      std: 0.01
    }
    bias_filler {
      type: "constant"
      value: 0
    }
    engine: CUDNN
  }
}
layer {
  name: "sum-dsn1"
  type: "Eltwise"
  bottom: "conv4-dsn1"
  bottom: "upscore-dsn2"
  top: "sum-dsn1"
  eltwise_param {
    operation: SUM
  }
}
layer {
  name: "crop2-dsn1"
  type: "Crop"
  bottom: "sum-dsn1"
  bottom: "data"
  top: "upscore-dsn1"
}
layer {
  name: "loss1-score"
  type: "SigmoidCrossEntropyLoss"
  bottom: "upscore-dsn1"
  bottom: "label"
  top: "loss1-score"
  loss_weight: 1
}
I1118 18:36:40.461247  3240 layer_factory.hpp:77] Creating layer data
I1118 18:36:40.461292  3240 net.cpp:100] Creating Layer data
I1118 18:36:40.461309  3240 net.cpp:408] data -> data_unaugmented
I1118 18:36:40.461331  3240 net.cpp:408] data -> label_unaugmented
I1118 18:36:40.461349  3240 image_labelmap_data_layer.cpp:41] Opening file /media/compute/homes/galberding/FleckDetect/Datasets/train.txt
I1118 18:36:40.469595  3240 image_labelmap_data_layer.cpp:51] Shuffling data
I1118 18:36:40.471093  3240 image_labelmap_data_layer.cpp:56] A total of 3600 images.
I1118 18:36:40.867887  3240 image_labelmap_data_layer.cpp:110] output data size: 1,3,500,500
I1118 18:36:40.867929  3240 image_labelmap_data_layer.cpp:113] output label size: 1,1,500,500
I1118 18:36:40.878612  3240 net.cpp:150] Setting up data
I1118 18:36:40.878639  3240 net.cpp:157] Top shape: 1 3 500 500 (750000)
I1118 18:36:40.878644  3240 net.cpp:157] Top shape: 1 1 500 500 (250000)
I1118 18:36:40.878648  3240 net.cpp:165] Memory required for data: 4000000
I1118 18:36:40.878659  3240 layer_factory.hpp:77] Creating layer augmentation
I1118 18:36:40.883273  3240 net.cpp:100] Creating Layer augmentation
I1118 18:36:40.883288  3240 net.cpp:434] augmentation <- data_unaugmented
I1118 18:36:40.883297  3240 net.cpp:434] augmentation <- label_unaugmented
I1118 18:36:40.883314  3240 net.cpp:408] augmentation -> data
I1118 18:36:40.883327  3240 net.cpp:408] augmentation -> label
I1118 18:36:40.885254  3240 net.cpp:150] Setting up augmentation
I1118 18:36:40.885270  3240 net.cpp:157] Top shape: 1 3 500 500 (750000)
I1118 18:36:40.885275  3240 net.cpp:157] Top shape: 1 1 500 500 (250000)
I1118 18:36:40.885278  3240 net.cpp:165] Memory required for data: 8000000
I1118 18:36:40.885282  3240 layer_factory.hpp:77] Creating layer data_augmentation_0_split
I1118 18:36:40.885293  3240 net.cpp:100] Creating Layer data_augmentation_0_split
I1118 18:36:40.885298  3240 net.cpp:434] data_augmentation_0_split <- data
I1118 18:36:40.885313  3240 net.cpp:408] data_augmentation_0_split -> data_augmentation_0_split_0
I1118 18:36:40.885324  3240 net.cpp:408] data_augmentation_0_split -> data_augmentation_0_split_1
I1118 18:36:40.885331  3240 net.cpp:408] data_augmentation_0_split -> data_augmentation_0_split_2
I1118 18:36:40.885339  3240 net.cpp:408] data_augmentation_0_split -> data_augmentation_0_split_3
I1118 18:36:40.885345  3240 net.cpp:408] data_augmentation_0_split -> data_augmentation_0_split_4
I1118 18:36:40.885354  3240 net.cpp:408] data_augmentation_0_split -> data_augmentation_0_split_5
I1118 18:36:40.885360  3240 net.cpp:408] data_augmentation_0_split -> data_augmentation_0_split_6
I1118 18:36:40.885443  3240 net.cpp:150] Setting up data_augmentation_0_split
I1118 18:36:40.885453  3240 net.cpp:157] Top shape: 1 3 500 500 (750000)
I1118 18:36:40.885457  3240 net.cpp:157] Top shape: 1 3 500 500 (750000)
I1118 18:36:40.885460  3240 net.cpp:157] Top shape: 1 3 500 500 (750000)
I1118 18:36:40.885464  3240 net.cpp:157] Top shape: 1 3 500 500 (750000)
I1118 18:36:40.885469  3240 net.cpp:157] Top shape: 1 3 500 500 (750000)
I1118 18:36:40.885473  3240 net.cpp:157] Top shape: 1 3 500 500 (750000)
I1118 18:36:40.885476  3240 net.cpp:157] Top shape: 1 3 500 500 (750000)
I1118 18:36:40.885478  3240 net.cpp:165] Memory required for data: 29000000
I1118 18:36:40.885483  3240 layer_factory.hpp:77] Creating layer label_augmentation_1_split
I1118 18:36:40.885489  3240 net.cpp:100] Creating Layer label_augmentation_1_split
I1118 18:36:40.885493  3240 net.cpp:434] label_augmentation_1_split <- label
I1118 18:36:40.885499  3240 net.cpp:408] label_augmentation_1_split -> label_augmentation_1_split_0
I1118 18:36:40.885506  3240 net.cpp:408] label_augmentation_1_split -> label_augmentation_1_split_1
I1118 18:36:40.885514  3240 net.cpp:408] label_augmentation_1_split -> label_augmentation_1_split_2
I1118 18:36:40.885519  3240 net.cpp:408] label_augmentation_1_split -> label_augmentation_1_split_3
I1118 18:36:40.885525  3240 net.cpp:408] label_augmentation_1_split -> label_augmentation_1_split_4
I1118 18:36:40.885531  3240 net.cpp:408] label_augmentation_1_split -> label_augmentation_1_split_5
I1118 18:36:40.885605  3240 net.cpp:150] Setting up label_augmentation_1_split
I1118 18:36:40.885612  3240 net.cpp:157] Top shape: 1 1 500 500 (250000)
I1118 18:36:40.885615  3240 net.cpp:157] Top shape: 1 1 500 500 (250000)
I1118 18:36:40.885620  3240 net.cpp:157] Top shape: 1 1 500 500 (250000)
I1118 18:36:40.885623  3240 net.cpp:157] Top shape: 1 1 500 500 (250000)
I1118 18:36:40.885627  3240 net.cpp:157] Top shape: 1 1 500 500 (250000)
I1118 18:36:40.885632  3240 net.cpp:157] Top shape: 1 1 500 500 (250000)
I1118 18:36:40.885634  3240 net.cpp:165] Memory required for data: 35000000
I1118 18:36:40.885637  3240 layer_factory.hpp:77] Creating layer conv1_1
I1118 18:36:40.885653  3240 net.cpp:100] Creating Layer conv1_1
I1118 18:36:40.885655  3240 net.cpp:434] conv1_1 <- data_augmentation_0_split_0
I1118 18:36:40.885663  3240 net.cpp:408] conv1_1 -> conv1_1
I1118 18:36:41.328907  3240 net.cpp:150] Setting up conv1_1
I1118 18:36:41.328964  3240 net.cpp:157] Top shape: 1 64 500 500 (16000000)
I1118 18:36:41.328967  3240 net.cpp:165] Memory required for data: 99000000
I1118 18:36:41.328987  3240 layer_factory.hpp:77] Creating layer relu1_1
I1118 18:36:41.329001  3240 net.cpp:100] Creating Layer relu1_1
I1118 18:36:41.329006  3240 net.cpp:434] relu1_1 <- conv1_1
I1118 18:36:41.329011  3240 net.cpp:395] relu1_1 -> conv1_1 (in-place)
I1118 18:36:41.329082  3240 net.cpp:150] Setting up relu1_1
I1118 18:36:41.329107  3240 net.cpp:157] Top shape: 1 64 500 500 (16000000)
I1118 18:36:41.329110  3240 net.cpp:165] Memory required for data: 163000000
I1118 18:36:41.329113  3240 layer_factory.hpp:77] Creating layer conv1_2
I1118 18:36:41.329123  3240 net.cpp:100] Creating Layer conv1_2
I1118 18:36:41.329126  3240 net.cpp:434] conv1_2 <- conv1_1
I1118 18:36:41.329131  3240 net.cpp:408] conv1_2 -> conv1_2
I1118 18:36:41.330704  3240 net.cpp:150] Setting up conv1_2
I1118 18:36:41.330716  3240 net.cpp:157] Top shape: 1 64 500 500 (16000000)
I1118 18:36:41.330719  3240 net.cpp:165] Memory required for data: 227000000
I1118 18:36:41.330726  3240 layer_factory.hpp:77] Creating layer relu1_2
I1118 18:36:41.330731  3240 net.cpp:100] Creating Layer relu1_2
I1118 18:36:41.330734  3240 net.cpp:434] relu1_2 <- conv1_2
I1118 18:36:41.330737  3240 net.cpp:395] relu1_2 -> conv1_2 (in-place)
I1118 18:36:41.330798  3240 net.cpp:150] Setting up relu1_2
I1118 18:36:41.330806  3240 net.cpp:157] Top shape: 1 64 500 500 (16000000)
I1118 18:36:41.330807  3240 net.cpp:165] Memory required for data: 291000000
I1118 18:36:41.330826  3240 layer_factory.hpp:77] Creating layer conv1_2_relu1_2_0_split
I1118 18:36:41.330834  3240 net.cpp:100] Creating Layer conv1_2_relu1_2_0_split
I1118 18:36:41.330837  3240 net.cpp:434] conv1_2_relu1_2_0_split <- conv1_2
I1118 18:36:41.330842  3240 net.cpp:408] conv1_2_relu1_2_0_split -> conv1_2_relu1_2_0_split_0
I1118 18:36:41.330847  3240 net.cpp:408] conv1_2_relu1_2_0_split -> conv1_2_relu1_2_0_split_1
I1118 18:36:41.330876  3240 net.cpp:150] Setting up conv1_2_relu1_2_0_split
I1118 18:36:41.330881  3240 net.cpp:157] Top shape: 1 64 500 500 (16000000)
I1118 18:36:41.330884  3240 net.cpp:157] Top shape: 1 64 500 500 (16000000)
I1118 18:36:41.330886  3240 net.cpp:165] Memory required for data: 419000000
I1118 18:36:41.330888  3240 layer_factory.hpp:77] Creating layer pool1
I1118 18:36:41.330895  3240 net.cpp:100] Creating Layer pool1
I1118 18:36:41.330898  3240 net.cpp:434] pool1 <- conv1_2_relu1_2_0_split_0
I1118 18:36:41.330901  3240 net.cpp:408] pool1 -> pool1
I1118 18:36:41.330945  3240 net.cpp:150] Setting up pool1
I1118 18:36:41.330950  3240 net.cpp:157] Top shape: 1 64 250 250 (4000000)
I1118 18:36:41.330952  3240 net.cpp:165] Memory required for data: 435000000
I1118 18:36:41.330955  3240 layer_factory.hpp:77] Creating layer conv2_1
I1118 18:36:41.330961  3240 net.cpp:100] Creating Layer conv2_1
I1118 18:36:41.330965  3240 net.cpp:434] conv2_1 <- pool1
I1118 18:36:41.330968  3240 net.cpp:408] conv2_1 -> conv2_1
I1118 18:36:41.331627  3240 net.cpp:150] Setting up conv2_1
I1118 18:36:41.331637  3240 net.cpp:157] Top shape: 1 128 250 250 (8000000)
I1118 18:36:41.331640  3240 net.cpp:165] Memory required for data: 467000000
I1118 18:36:41.331647  3240 layer_factory.hpp:77] Creating layer relu2_1
I1118 18:36:41.331652  3240 net.cpp:100] Creating Layer relu2_1
I1118 18:36:41.331655  3240 net.cpp:434] relu2_1 <- conv2_1
I1118 18:36:41.331658  3240 net.cpp:395] relu2_1 -> conv2_1 (in-place)
I1118 18:36:41.331840  3240 net.cpp:150] Setting up relu2_1
I1118 18:36:41.331851  3240 net.cpp:157] Top shape: 1 128 250 250 (8000000)
I1118 18:36:41.331853  3240 net.cpp:165] Memory required for data: 499000000
I1118 18:36:41.331856  3240 layer_factory.hpp:77] Creating layer conv2_2
I1118 18:36:41.331862  3240 net.cpp:100] Creating Layer conv2_2
I1118 18:36:41.331866  3240 net.cpp:434] conv2_2 <- conv2_1
I1118 18:36:41.331869  3240 net.cpp:408] conv2_2 -> conv2_2
I1118 18:36:41.333822  3240 net.cpp:150] Setting up conv2_2
I1118 18:36:41.333833  3240 net.cpp:157] Top shape: 1 128 250 250 (8000000)
I1118 18:36:41.333851  3240 net.cpp:165] Memory required for data: 531000000
I1118 18:36:41.333856  3240 layer_factory.hpp:77] Creating layer relu2_2
I1118 18:36:41.333861  3240 net.cpp:100] Creating Layer relu2_2
I1118 18:36:41.333864  3240 net.cpp:434] relu2_2 <- conv2_2
I1118 18:36:41.333870  3240 net.cpp:395] relu2_2 -> conv2_2 (in-place)
I1118 18:36:41.334038  3240 net.cpp:150] Setting up relu2_2
I1118 18:36:41.334048  3240 net.cpp:157] Top shape: 1 128 250 250 (8000000)
I1118 18:36:41.334051  3240 net.cpp:165] Memory required for data: 563000000
I1118 18:36:41.334054  3240 layer_factory.hpp:77] Creating layer conv2_2_relu2_2_0_split
I1118 18:36:41.334059  3240 net.cpp:100] Creating Layer conv2_2_relu2_2_0_split
I1118 18:36:41.334062  3240 net.cpp:434] conv2_2_relu2_2_0_split <- conv2_2
I1118 18:36:41.334069  3240 net.cpp:408] conv2_2_relu2_2_0_split -> conv2_2_relu2_2_0_split_0
I1118 18:36:41.334075  3240 net.cpp:408] conv2_2_relu2_2_0_split -> conv2_2_relu2_2_0_split_1
I1118 18:36:41.334079  3240 net.cpp:408] conv2_2_relu2_2_0_split -> conv2_2_relu2_2_0_split_2
I1118 18:36:41.334125  3240 net.cpp:150] Setting up conv2_2_relu2_2_0_split
I1118 18:36:41.334131  3240 net.cpp:157] Top shape: 1 128 250 250 (8000000)
I1118 18:36:41.334136  3240 net.cpp:157] Top shape: 1 128 250 250 (8000000)
I1118 18:36:41.334137  3240 net.cpp:157] Top shape: 1 128 250 250 (8000000)
I1118 18:36:41.334139  3240 net.cpp:165] Memory required for data: 659000000
I1118 18:36:41.334142  3240 layer_factory.hpp:77] Creating layer pool2
I1118 18:36:41.334147  3240 net.cpp:100] Creating Layer pool2
I1118 18:36:41.334151  3240 net.cpp:434] pool2 <- conv2_2_relu2_2_0_split_0
I1118 18:36:41.334156  3240 net.cpp:408] pool2 -> pool2
I1118 18:36:41.334182  3240 net.cpp:150] Setting up pool2
I1118 18:36:41.334187  3240 net.cpp:157] Top shape: 1 128 125 125 (2000000)
I1118 18:36:41.334189  3240 net.cpp:165] Memory required for data: 667000000
I1118 18:36:41.334192  3240 layer_factory.hpp:77] Creating layer conv3_1
I1118 18:36:41.334204  3240 net.cpp:100] Creating Layer conv3_1
I1118 18:36:41.334208  3240 net.cpp:434] conv3_1 <- pool2
I1118 18:36:41.334213  3240 net.cpp:408] conv3_1 -> conv3_1
I1118 18:36:41.335757  3240 net.cpp:150] Setting up conv3_1
I1118 18:36:41.335768  3240 net.cpp:157] Top shape: 1 256 125 125 (4000000)
I1118 18:36:41.335770  3240 net.cpp:165] Memory required for data: 683000000
I1118 18:36:41.335779  3240 layer_factory.hpp:77] Creating layer relu3_1
I1118 18:36:41.335784  3240 net.cpp:100] Creating Layer relu3_1
I1118 18:36:41.335788  3240 net.cpp:434] relu3_1 <- conv3_1
I1118 18:36:41.335791  3240 net.cpp:395] relu3_1 -> conv3_1 (in-place)
I1118 18:36:41.335985  3240 net.cpp:150] Setting up relu3_1
I1118 18:36:41.335995  3240 net.cpp:157] Top shape: 1 256 125 125 (4000000)
I1118 18:36:41.335999  3240 net.cpp:165] Memory required for data: 699000000
I1118 18:36:41.336000  3240 layer_factory.hpp:77] Creating layer conv3_2
I1118 18:36:41.336009  3240 net.cpp:100] Creating Layer conv3_2
I1118 18:36:41.336012  3240 net.cpp:434] conv3_2 <- conv3_1
I1118 18:36:41.336019  3240 net.cpp:408] conv3_2 -> conv3_2
I1118 18:36:41.337903  3240 net.cpp:150] Setting up conv3_2
I1118 18:36:41.337913  3240 net.cpp:157] Top shape: 1 256 125 125 (4000000)
I1118 18:36:41.337931  3240 net.cpp:165] Memory required for data: 715000000
I1118 18:36:41.337937  3240 layer_factory.hpp:77] Creating layer relu3_2
I1118 18:36:41.337944  3240 net.cpp:100] Creating Layer relu3_2
I1118 18:36:41.337946  3240 net.cpp:434] relu3_2 <- conv3_2
I1118 18:36:41.337950  3240 net.cpp:395] relu3_2 -> conv3_2 (in-place)
I1118 18:36:41.338037  3240 net.cpp:150] Setting up relu3_2
I1118 18:36:41.338044  3240 net.cpp:157] Top shape: 1 256 125 125 (4000000)
I1118 18:36:41.338047  3240 net.cpp:165] Memory required for data: 731000000
I1118 18:36:41.338049  3240 layer_factory.hpp:77] Creating layer conv3_3
I1118 18:36:41.338058  3240 net.cpp:100] Creating Layer conv3_3
I1118 18:36:41.338062  3240 net.cpp:434] conv3_3 <- conv3_2
I1118 18:36:41.338068  3240 net.cpp:408] conv3_3 -> conv3_3
I1118 18:36:41.340157  3240 net.cpp:150] Setting up conv3_3
I1118 18:36:41.340168  3240 net.cpp:157] Top shape: 1 256 125 125 (4000000)
I1118 18:36:41.340186  3240 net.cpp:165] Memory required for data: 747000000
I1118 18:36:41.340193  3240 layer_factory.hpp:77] Creating layer relu3_3
I1118 18:36:41.340198  3240 net.cpp:100] Creating Layer relu3_3
I1118 18:36:41.340200  3240 net.cpp:434] relu3_3 <- conv3_3
I1118 18:36:41.340206  3240 net.cpp:395] relu3_3 -> conv3_3 (in-place)
I1118 18:36:41.340292  3240 net.cpp:150] Setting up relu3_3
I1118 18:36:41.340304  3240 net.cpp:157] Top shape: 1 256 125 125 (4000000)
I1118 18:36:41.340307  3240 net.cpp:165] Memory required for data: 763000000
I1118 18:36:41.340309  3240 layer_factory.hpp:77] Creating layer conv3_3_relu3_3_0_split
I1118 18:36:41.340314  3240 net.cpp:100] Creating Layer conv3_3_relu3_3_0_split
I1118 18:36:41.340317  3240 net.cpp:434] conv3_3_relu3_3_0_split <- conv3_3
I1118 18:36:41.340324  3240 net.cpp:408] conv3_3_relu3_3_0_split -> conv3_3_relu3_3_0_split_0
I1118 18:36:41.340329  3240 net.cpp:408] conv3_3_relu3_3_0_split -> conv3_3_relu3_3_0_split_1
I1118 18:36:41.340342  3240 net.cpp:408] conv3_3_relu3_3_0_split -> conv3_3_relu3_3_0_split_2
I1118 18:36:41.340380  3240 net.cpp:150] Setting up conv3_3_relu3_3_0_split
I1118 18:36:41.340386  3240 net.cpp:157] Top shape: 1 256 125 125 (4000000)
I1118 18:36:41.340389  3240 net.cpp:157] Top shape: 1 256 125 125 (4000000)
I1118 18:36:41.340392  3240 net.cpp:157] Top shape: 1 256 125 125 (4000000)
I1118 18:36:41.340394  3240 net.cpp:165] Memory required for data: 811000000
I1118 18:36:41.340397  3240 layer_factory.hpp:77] Creating layer pool3
I1118 18:36:41.340404  3240 net.cpp:100] Creating Layer pool3
I1118 18:36:41.340406  3240 net.cpp:434] pool3 <- conv3_3_relu3_3_0_split_0
I1118 18:36:41.340414  3240 net.cpp:408] pool3 -> pool3
I1118 18:36:41.340441  3240 net.cpp:150] Setting up pool3
I1118 18:36:41.340446  3240 net.cpp:157] Top shape: 1 256 63 63 (1016064)
I1118 18:36:41.340448  3240 net.cpp:165] Memory required for data: 815064256
I1118 18:36:41.340451  3240 layer_factory.hpp:77] Creating layer conv4_1
I1118 18:36:41.340459  3240 net.cpp:100] Creating Layer conv4_1
I1118 18:36:41.340461  3240 net.cpp:434] conv4_1 <- pool3
I1118 18:36:41.340466  3240 net.cpp:408] conv4_1 -> conv4_1
I1118 18:36:41.344771  3240 net.cpp:150] Setting up conv4_1
I1118 18:36:41.344799  3240 net.cpp:157] Top shape: 1 512 63 63 (2032128)
I1118 18:36:41.344802  3240 net.cpp:165] Memory required for data: 823192768
I1118 18:36:41.344808  3240 layer_factory.hpp:77] Creating layer relu4_1
I1118 18:36:41.344815  3240 net.cpp:100] Creating Layer relu4_1
I1118 18:36:41.344818  3240 net.cpp:434] relu4_1 <- conv4_1
I1118 18:36:41.344822  3240 net.cpp:395] relu4_1 -> conv4_1 (in-place)
I1118 18:36:41.344895  3240 net.cpp:150] Setting up relu4_1
I1118 18:36:41.344903  3240 net.cpp:157] Top shape: 1 512 63 63 (2032128)
I1118 18:36:41.344905  3240 net.cpp:165] Memory required for data: 831321280
I1118 18:36:41.344908  3240 layer_factory.hpp:77] Creating layer conv4_2
I1118 18:36:41.344916  3240 net.cpp:100] Creating Layer conv4_2
I1118 18:36:41.344918  3240 net.cpp:434] conv4_2 <- conv4_1
I1118 18:36:41.344923  3240 net.cpp:408] conv4_2 -> conv4_2
I1118 18:36:41.350286  3240 net.cpp:150] Setting up conv4_2
I1118 18:36:41.350318  3240 net.cpp:157] Top shape: 1 512 63 63 (2032128)
I1118 18:36:41.350322  3240 net.cpp:165] Memory required for data: 839449792
I1118 18:36:41.350332  3240 layer_factory.hpp:77] Creating layer relu4_2
I1118 18:36:41.350337  3240 net.cpp:100] Creating Layer relu4_2
I1118 18:36:41.350340  3240 net.cpp:434] relu4_2 <- conv4_2
I1118 18:36:41.350344  3240 net.cpp:395] relu4_2 -> conv4_2 (in-place)
I1118 18:36:41.350502  3240 net.cpp:150] Setting up relu4_2
I1118 18:36:41.350512  3240 net.cpp:157] Top shape: 1 512 63 63 (2032128)
I1118 18:36:41.350514  3240 net.cpp:165] Memory required for data: 847578304
I1118 18:36:41.350517  3240 layer_factory.hpp:77] Creating layer conv4_3
I1118 18:36:41.350526  3240 net.cpp:100] Creating Layer conv4_3
I1118 18:36:41.350529  3240 net.cpp:434] conv4_3 <- conv4_2
I1118 18:36:41.350535  3240 net.cpp:408] conv4_3 -> conv4_3
I1118 18:36:41.355671  3240 net.cpp:150] Setting up conv4_3
I1118 18:36:41.355684  3240 net.cpp:157] Top shape: 1 512 63 63 (2032128)
I1118 18:36:41.355701  3240 net.cpp:165] Memory required for data: 855706816
I1118 18:36:41.355706  3240 layer_factory.hpp:77] Creating layer relu4_3
I1118 18:36:41.355711  3240 net.cpp:100] Creating Layer relu4_3
I1118 18:36:41.355715  3240 net.cpp:434] relu4_3 <- conv4_3
I1118 18:36:41.355721  3240 net.cpp:395] relu4_3 -> conv4_3 (in-place)
I1118 18:36:41.355880  3240 net.cpp:150] Setting up relu4_3
I1118 18:36:41.355890  3240 net.cpp:157] Top shape: 1 512 63 63 (2032128)
I1118 18:36:41.355893  3240 net.cpp:165] Memory required for data: 863835328
I1118 18:36:41.355896  3240 layer_factory.hpp:77] Creating layer conv4_3_relu4_3_0_split
I1118 18:36:41.355901  3240 net.cpp:100] Creating Layer conv4_3_relu4_3_0_split
I1118 18:36:41.355904  3240 net.cpp:434] conv4_3_relu4_3_0_split <- conv4_3
I1118 18:36:41.355911  3240 net.cpp:408] conv4_3_relu4_3_0_split -> conv4_3_relu4_3_0_split_0
I1118 18:36:41.355916  3240 net.cpp:408] conv4_3_relu4_3_0_split -> conv4_3_relu4_3_0_split_1
I1118 18:36:41.355921  3240 net.cpp:408] conv4_3_relu4_3_0_split -> conv4_3_relu4_3_0_split_2
I1118 18:36:41.355967  3240 net.cpp:150] Setting up conv4_3_relu4_3_0_split
I1118 18:36:41.355973  3240 net.cpp:157] Top shape: 1 512 63 63 (2032128)
I1118 18:36:41.355976  3240 net.cpp:157] Top shape: 1 512 63 63 (2032128)
I1118 18:36:41.355979  3240 net.cpp:157] Top shape: 1 512 63 63 (2032128)
I1118 18:36:41.355981  3240 net.cpp:165] Memory required for data: 888220864
I1118 18:36:41.355983  3240 layer_factory.hpp:77] Creating layer pool4
I1118 18:36:41.355989  3240 net.cpp:100] Creating Layer pool4
I1118 18:36:41.355993  3240 net.cpp:434] pool4 <- conv4_3_relu4_3_0_split_0
I1118 18:36:41.355998  3240 net.cpp:408] pool4 -> pool4
I1118 18:36:41.356026  3240 net.cpp:150] Setting up pool4
I1118 18:36:41.356031  3240 net.cpp:157] Top shape: 1 512 32 32 (524288)
I1118 18:36:41.356034  3240 net.cpp:165] Memory required for data: 890318016
I1118 18:36:41.356036  3240 layer_factory.hpp:77] Creating layer conv5_1
I1118 18:36:41.356051  3240 net.cpp:100] Creating Layer conv5_1
I1118 18:36:41.356055  3240 net.cpp:434] conv5_1 <- pool4
I1118 18:36:41.356058  3240 net.cpp:408] conv5_1 -> conv5_1
I1118 18:36:41.362534  3240 net.cpp:150] Setting up conv5_1
I1118 18:36:41.362568  3240 net.cpp:157] Top shape: 1 512 32 32 (524288)
I1118 18:36:41.362571  3240 net.cpp:165] Memory required for data: 892415168
I1118 18:36:41.362577  3240 layer_factory.hpp:77] Creating layer relu5_1
I1118 18:36:41.362583  3240 net.cpp:100] Creating Layer relu5_1
I1118 18:36:41.362587  3240 net.cpp:434] relu5_1 <- conv5_1
I1118 18:36:41.362591  3240 net.cpp:395] relu5_1 -> conv5_1 (in-place)
I1118 18:36:41.362664  3240 net.cpp:150] Setting up relu5_1
I1118 18:36:41.362673  3240 net.cpp:157] Top shape: 1 512 32 32 (524288)
I1118 18:36:41.362675  3240 net.cpp:165] Memory required for data: 894512320
I1118 18:36:41.362679  3240 layer_factory.hpp:77] Creating layer conv5_2
I1118 18:36:41.362684  3240 net.cpp:100] Creating Layer conv5_2
I1118 18:36:41.362686  3240 net.cpp:434] conv5_2 <- conv5_1
I1118 18:36:41.362694  3240 net.cpp:408] conv5_2 -> conv5_2
I1118 18:36:41.367688  3240 net.cpp:150] Setting up conv5_2
I1118 18:36:41.367700  3240 net.cpp:157] Top shape: 1 512 32 32 (524288)
I1118 18:36:41.367718  3240 net.cpp:165] Memory required for data: 896609472
I1118 18:36:41.367723  3240 layer_factory.hpp:77] Creating layer relu5_2
I1118 18:36:41.367730  3240 net.cpp:100] Creating Layer relu5_2
I1118 18:36:41.367733  3240 net.cpp:434] relu5_2 <- conv5_2
I1118 18:36:41.367736  3240 net.cpp:395] relu5_2 -> conv5_2 (in-place)
I1118 18:36:41.367802  3240 net.cpp:150] Setting up relu5_2
I1118 18:36:41.367810  3240 net.cpp:157] Top shape: 1 512 32 32 (524288)
I1118 18:36:41.367812  3240 net.cpp:165] Memory required for data: 898706624
I1118 18:36:41.367815  3240 layer_factory.hpp:77] Creating layer conv5_3
I1118 18:36:41.367822  3240 net.cpp:100] Creating Layer conv5_3
I1118 18:36:41.367825  3240 net.cpp:434] conv5_3 <- conv5_2
I1118 18:36:41.367832  3240 net.cpp:408] conv5_3 -> conv5_3
I1118 18:36:41.372803  3240 net.cpp:150] Setting up conv5_3
I1118 18:36:41.372815  3240 net.cpp:157] Top shape: 1 512 32 32 (524288)
I1118 18:36:41.372818  3240 net.cpp:165] Memory required for data: 900803776
I1118 18:36:41.372822  3240 layer_factory.hpp:77] Creating layer relu5_3
I1118 18:36:41.372828  3240 net.cpp:100] Creating Layer relu5_3
I1118 18:36:41.372831  3240 net.cpp:434] relu5_3 <- conv5_3
I1118 18:36:41.372835  3240 net.cpp:395] relu5_3 -> conv5_3 (in-place)
I1118 18:36:41.372900  3240 net.cpp:150] Setting up relu5_3
I1118 18:36:41.372908  3240 net.cpp:157] Top shape: 1 512 32 32 (524288)
I1118 18:36:41.372911  3240 net.cpp:165] Memory required for data: 902900928
I1118 18:36:41.372928  3240 layer_factory.hpp:77] Creating layer conv5_3_relu5_3_0_split
I1118 18:36:41.372936  3240 net.cpp:100] Creating Layer conv5_3_relu5_3_0_split
I1118 18:36:41.372938  3240 net.cpp:434] conv5_3_relu5_3_0_split <- conv5_3
I1118 18:36:41.372943  3240 net.cpp:408] conv5_3_relu5_3_0_split -> conv5_3_relu5_3_0_split_0
I1118 18:36:41.372948  3240 net.cpp:408] conv5_3_relu5_3_0_split -> conv5_3_relu5_3_0_split_1
I1118 18:36:41.372953  3240 net.cpp:408] conv5_3_relu5_3_0_split -> conv5_3_relu5_3_0_split_2
I1118 18:36:41.372988  3240 net.cpp:150] Setting up conv5_3_relu5_3_0_split
I1118 18:36:41.372994  3240 net.cpp:157] Top shape: 1 512 32 32 (524288)
I1118 18:36:41.372997  3240 net.cpp:157] Top shape: 1 512 32 32 (524288)
I1118 18:36:41.373000  3240 net.cpp:157] Top shape: 1 512 32 32 (524288)
I1118 18:36:41.373003  3240 net.cpp:165] Memory required for data: 909192384
I1118 18:36:41.373004  3240 layer_factory.hpp:77] Creating layer pool5
I1118 18:36:41.373010  3240 net.cpp:100] Creating Layer pool5
I1118 18:36:41.373013  3240 net.cpp:434] pool5 <- conv5_3_relu5_3_0_split_0
I1118 18:36:41.373018  3240 net.cpp:408] pool5 -> pool5
I1118 18:36:41.373061  3240 net.cpp:150] Setting up pool5
I1118 18:36:41.373066  3240 net.cpp:157] Top shape: 1 512 17 17 (147968)
I1118 18:36:41.373070  3240 net.cpp:165] Memory required for data: 909784256
I1118 18:36:41.373071  3240 layer_factory.hpp:77] Creating layer conv1-dsn6
I1118 18:36:41.373082  3240 net.cpp:100] Creating Layer conv1-dsn6
I1118 18:36:41.373085  3240 net.cpp:434] conv1-dsn6 <- pool5
I1118 18:36:41.373090  3240 net.cpp:408] conv1-dsn6 -> conv1-dsn6
I1118 18:36:41.374699  3240 net.cpp:150] Setting up conv1-dsn6
I1118 18:36:41.374711  3240 net.cpp:157] Top shape: 1 256 17 17 (73984)
I1118 18:36:41.374712  3240 net.cpp:165] Memory required for data: 910080192
I1118 18:36:41.374717  3240 layer_factory.hpp:77] Creating layer conv2-dsn6
I1118 18:36:41.374727  3240 net.cpp:100] Creating Layer conv2-dsn6
I1118 18:36:41.374730  3240 net.cpp:434] conv2-dsn6 <- conv1-dsn6
I1118 18:36:41.374734  3240 net.cpp:408] conv2-dsn6 -> conv2-dsn6
I1118 18:36:41.391247  3240 net.cpp:150] Setting up conv2-dsn6
I1118 18:36:41.391259  3240 net.cpp:157] Top shape: 1 256 17 17 (73984)
I1118 18:36:41.391263  3240 net.cpp:165] Memory required for data: 910376128
I1118 18:36:41.391268  3240 layer_factory.hpp:77] Creating layer relu1-dsn6
I1118 18:36:41.391273  3240 net.cpp:100] Creating Layer relu1-dsn6
I1118 18:36:41.391274  3240 net.cpp:434] relu1-dsn6 <- conv2-dsn6
I1118 18:36:41.391280  3240 net.cpp:395] relu1-dsn6 -> conv2-dsn6 (in-place)
I1118 18:36:41.391371  3240 net.cpp:150] Setting up relu1-dsn6
I1118 18:36:41.391377  3240 net.cpp:157] Top shape: 1 256 17 17 (73984)
I1118 18:36:41.391379  3240 net.cpp:165] Memory required for data: 910672064
I1118 18:36:41.391382  3240 layer_factory.hpp:77] Creating layer conv3-dsn6
I1118 18:36:41.391391  3240 net.cpp:100] Creating Layer conv3-dsn6
I1118 18:36:41.391393  3240 net.cpp:434] conv3-dsn6 <- conv2-dsn6
I1118 18:36:41.391413  3240 net.cpp:408] conv3-dsn6 -> conv3-dsn6
I1118 18:36:41.406699  3240 net.cpp:150] Setting up conv3-dsn6
I1118 18:36:41.406713  3240 net.cpp:157] Top shape: 1 256 17 17 (73984)
I1118 18:36:41.406715  3240 net.cpp:165] Memory required for data: 910968000
I1118 18:36:41.406719  3240 layer_factory.hpp:77] Creating layer relu2-dsn6
I1118 18:36:41.406724  3240 net.cpp:100] Creating Layer relu2-dsn6
I1118 18:36:41.406728  3240 net.cpp:434] relu2-dsn6 <- conv3-dsn6
I1118 18:36:41.406730  3240 net.cpp:395] relu2-dsn6 -> conv3-dsn6 (in-place)
I1118 18:36:41.406793  3240 net.cpp:150] Setting up relu2-dsn6
I1118 18:36:41.406801  3240 net.cpp:157] Top shape: 1 256 17 17 (73984)
I1118 18:36:41.406803  3240 net.cpp:165] Memory required for data: 911263936
I1118 18:36:41.406806  3240 layer_factory.hpp:77] Creating layer conv4-dsn6
I1118 18:36:41.406829  3240 net.cpp:100] Creating Layer conv4-dsn6
I1118 18:36:41.406832  3240 net.cpp:434] conv4-dsn6 <- conv3-dsn6
I1118 18:36:41.406836  3240 net.cpp:408] conv4-dsn6 -> conv4-dsn6
I1118 18:36:41.422116  3240 net.cpp:150] Setting up conv4-dsn6
I1118 18:36:41.422127  3240 net.cpp:157] Top shape: 1 256 17 17 (73984)
I1118 18:36:41.422129  3240 net.cpp:165] Memory required for data: 911559872
I1118 18:36:41.422143  3240 layer_factory.hpp:77] Creating layer relu3-dsn6
I1118 18:36:41.422148  3240 net.cpp:100] Creating Layer relu3-dsn6
I1118 18:36:41.422152  3240 net.cpp:434] relu3-dsn6 <- conv4-dsn6
I1118 18:36:41.422155  3240 net.cpp:395] relu3-dsn6 -> conv4-dsn6 (in-place)
I1118 18:36:41.422317  3240 net.cpp:150] Setting up relu3-dsn6
I1118 18:36:41.422327  3240 net.cpp:157] Top shape: 1 256 17 17 (73984)
I1118 18:36:41.422328  3240 net.cpp:165] Memory required for data: 911855808
I1118 18:36:41.422331  3240 layer_factory.hpp:77] Creating layer conv5-dsn6
I1118 18:36:41.422343  3240 net.cpp:100] Creating Layer conv5-dsn6
I1118 18:36:41.422345  3240 net.cpp:434] conv5-dsn6 <- conv4-dsn6
I1118 18:36:41.422350  3240 net.cpp:408] conv5-dsn6 -> conv5-dsn6
I1118 18:36:41.422864  3240 net.cpp:150] Setting up conv5-dsn6
I1118 18:36:41.422874  3240 net.cpp:157] Top shape: 1 1 17 17 (289)
I1118 18:36:41.422891  3240 net.cpp:165] Memory required for data: 911856964
I1118 18:36:41.422896  3240 layer_factory.hpp:77] Creating layer conv5-dsn6_conv5-dsn6_0_split
I1118 18:36:41.422919  3240 net.cpp:100] Creating Layer conv5-dsn6_conv5-dsn6_0_split
I1118 18:36:41.422920  3240 net.cpp:434] conv5-dsn6_conv5-dsn6_0_split <- conv5-dsn6
I1118 18:36:41.422926  3240 net.cpp:408] conv5-dsn6_conv5-dsn6_0_split -> conv5-dsn6_conv5-dsn6_0_split_0
I1118 18:36:41.422932  3240 net.cpp:408] conv5-dsn6_conv5-dsn6_0_split -> conv5-dsn6_conv5-dsn6_0_split_1
I1118 18:36:41.422961  3240 net.cpp:150] Setting up conv5-dsn6_conv5-dsn6_0_split
I1118 18:36:41.422964  3240 net.cpp:157] Top shape: 1 1 17 17 (289)
I1118 18:36:41.422967  3240 net.cpp:157] Top shape: 1 1 17 17 (289)
I1118 18:36:41.422968  3240 net.cpp:165] Memory required for data: 911859276
I1118 18:36:41.422971  3240 layer_factory.hpp:77] Creating layer upsample32_dsn6
I1118 18:36:41.422979  3240 net.cpp:100] Creating Layer upsample32_dsn6
I1118 18:36:41.422981  3240 net.cpp:434] upsample32_dsn6 <- conv5-dsn6_conv5-dsn6_0_split_0
I1118 18:36:41.423002  3240 net.cpp:408] upsample32_dsn6 -> conv5-dsn6-up
I1118 18:36:41.424154  3240 net.cpp:150] Setting up upsample32_dsn6
I1118 18:36:41.424165  3240 net.cpp:157] Top shape: 1 1 576 576 (331776)
I1118 18:36:41.424166  3240 net.cpp:165] Memory required for data: 913186380
I1118 18:36:41.424171  3240 layer_factory.hpp:77] Creating layer crop-dsn6
I1118 18:36:41.424176  3240 net.cpp:100] Creating Layer crop-dsn6
I1118 18:36:41.424178  3240 net.cpp:434] crop-dsn6 <- conv5-dsn6-up
I1118 18:36:41.424182  3240 net.cpp:434] crop-dsn6 <- data_augmentation_0_split_1
I1118 18:36:41.424186  3240 net.cpp:408] crop-dsn6 -> upscore-dsn6
I1118 18:36:41.424213  3240 net.cpp:150] Setting up crop-dsn6
I1118 18:36:41.424218  3240 net.cpp:157] Top shape: 1 1 500 500 (250000)
I1118 18:36:41.424221  3240 net.cpp:165] Memory required for data: 914186380
I1118 18:36:41.424222  3240 layer_factory.hpp:77] Creating layer loss6-score
I1118 18:36:41.424229  3240 net.cpp:100] Creating Layer loss6-score
I1118 18:36:41.424232  3240 net.cpp:434] loss6-score <- upscore-dsn6
I1118 18:36:41.424235  3240 net.cpp:434] loss6-score <- label_augmentation_1_split_0
I1118 18:36:41.424240  3240 net.cpp:408] loss6-score -> loss6-score
I1118 18:36:41.425249  3240 net.cpp:150] Setting up loss6-score
I1118 18:36:41.425257  3240 net.cpp:157] Top shape: (1)
I1118 18:36:41.425259  3240 net.cpp:160]     with loss weight 1
I1118 18:36:41.425274  3240 net.cpp:165] Memory required for data: 914186384
I1118 18:36:41.425277  3240 layer_factory.hpp:77] Creating layer upsample2_dsn5
I1118 18:36:41.425284  3240 net.cpp:100] Creating Layer upsample2_dsn5
I1118 18:36:41.425287  3240 net.cpp:434] upsample2_dsn5 <- conv5-dsn6_conv5-dsn6_0_split_1
I1118 18:36:41.425293  3240 net.cpp:408] upsample2_dsn5 -> conv5-dsn6-5
I1118 18:36:41.425515  3240 net.cpp:150] Setting up upsample2_dsn5
I1118 18:36:41.425537  3240 net.cpp:157] Top shape: 1 1 36 36 (1296)
I1118 18:36:41.425540  3240 net.cpp:165] Memory required for data: 914191568
I1118 18:36:41.425545  3240 layer_factory.hpp:77] Creating layer crop1-dsn5
I1118 18:36:41.425550  3240 net.cpp:100] Creating Layer crop1-dsn5
I1118 18:36:41.425554  3240 net.cpp:434] crop1-dsn5 <- conv5-dsn6-5
I1118 18:36:41.425557  3240 net.cpp:434] crop1-dsn5 <- conv5_3_relu5_3_0_split_1
I1118 18:36:41.425562  3240 net.cpp:408] crop1-dsn5 -> weight-dsn6-5
I1118 18:36:41.425583  3240 net.cpp:150] Setting up crop1-dsn5
I1118 18:36:41.425588  3240 net.cpp:157] Top shape: 1 1 32 32 (1024)
I1118 18:36:41.425590  3240 net.cpp:165] Memory required for data: 914195664
I1118 18:36:41.425593  3240 layer_factory.hpp:77] Creating layer weight-dsn6-5_crop1-dsn5_0_split
I1118 18:36:41.425597  3240 net.cpp:100] Creating Layer weight-dsn6-5_crop1-dsn5_0_split
I1118 18:36:41.425601  3240 net.cpp:434] weight-dsn6-5_crop1-dsn5_0_split <- weight-dsn6-5
I1118 18:36:41.425606  3240 net.cpp:408] weight-dsn6-5_crop1-dsn5_0_split -> weight-dsn6-5_crop1-dsn5_0_split_0
I1118 18:36:41.425611  3240 net.cpp:408] weight-dsn6-5_crop1-dsn5_0_split -> weight-dsn6-5_crop1-dsn5_0_split_1
I1118 18:36:41.425637  3240 net.cpp:150] Setting up weight-dsn6-5_crop1-dsn5_0_split
I1118 18:36:41.425642  3240 net.cpp:157] Top shape: 1 1 32 32 (1024)
I1118 18:36:41.425647  3240 net.cpp:157] Top shape: 1 1 32 32 (1024)
I1118 18:36:41.425648  3240 net.cpp:165] Memory required for data: 914203856
I1118 18:36:41.425650  3240 layer_factory.hpp:77] Creating layer sigmoid-dsn5
I1118 18:36:41.425657  3240 net.cpp:100] Creating Layer sigmoid-dsn5
I1118 18:36:41.425659  3240 net.cpp:434] sigmoid-dsn5 <- weight-dsn6-5_crop1-dsn5_0_split_0
I1118 18:36:41.425663  3240 net.cpp:408] sigmoid-dsn5 -> sigmoid-dsn5
I1118 18:36:41.425863  3240 net.cpp:150] Setting up sigmoid-dsn5
I1118 18:36:41.425871  3240 net.cpp:157] Top shape: 1 1 32 32 (1024)
I1118 18:36:41.425873  3240 net.cpp:165] Memory required for data: 914207952
I1118 18:36:41.425876  3240 layer_factory.hpp:77] Creating layer rev-dsn5
I1118 18:36:41.425882  3240 net.cpp:100] Creating Layer rev-dsn5
I1118 18:36:41.425885  3240 net.cpp:434] rev-dsn5 <- sigmoid-dsn5
I1118 18:36:41.425891  3240 net.cpp:408] rev-dsn5 -> rev-dsn5
I1118 18:36:41.425923  3240 net.cpp:150] Setting up rev-dsn5
I1118 18:36:41.425930  3240 net.cpp:157] Top shape: 1 1 32 32 (1024)
I1118 18:36:41.425931  3240 net.cpp:165] Memory required for data: 914212048
I1118 18:36:41.425933  3240 layer_factory.hpp:77] Creating layer tile-dsn5
I1118 18:36:41.425938  3240 net.cpp:100] Creating Layer tile-dsn5
I1118 18:36:41.425941  3240 net.cpp:434] tile-dsn5 <- rev-dsn5
I1118 18:36:41.425947  3240 net.cpp:408] tile-dsn5 -> weight-dsn5
I1118 18:36:41.425964  3240 net.cpp:150] Setting up tile-dsn5
I1118 18:36:41.425968  3240 net.cpp:157] Top shape: 1 512 32 32 (524288)
I1118 18:36:41.425971  3240 net.cpp:165] Memory required for data: 916309200
I1118 18:36:41.425973  3240 layer_factory.hpp:77] Creating layer prod1-dsn5
I1118 18:36:41.425978  3240 net.cpp:100] Creating Layer prod1-dsn5
I1118 18:36:41.425981  3240 net.cpp:434] prod1-dsn5 <- conv5_3_relu5_3_0_split_2
I1118 18:36:41.425984  3240 net.cpp:434] prod1-dsn5 <- weight-dsn5
I1118 18:36:41.425989  3240 net.cpp:408] prod1-dsn5 -> prod1-dsn5
I1118 18:36:41.426008  3240 net.cpp:150] Setting up prod1-dsn5
I1118 18:36:41.426012  3240 net.cpp:157] Top shape: 1 512 32 32 (524288)
I1118 18:36:41.426014  3240 net.cpp:165] Memory required for data: 918406352
I1118 18:36:41.426017  3240 layer_factory.hpp:77] Creating layer conv1-dsn5
I1118 18:36:41.426024  3240 net.cpp:100] Creating Layer conv1-dsn5
I1118 18:36:41.426026  3240 net.cpp:434] conv1-dsn5 <- prod1-dsn5
I1118 18:36:41.426033  3240 net.cpp:408] conv1-dsn5 -> conv1-dsn5
I1118 18:36:41.428076  3240 net.cpp:150] Setting up conv1-dsn5
I1118 18:36:41.428088  3240 net.cpp:157] Top shape: 1 64 32 32 (65536)
I1118 18:36:41.428090  3240 net.cpp:165] Memory required for data: 918668496
I1118 18:36:41.428095  3240 layer_factory.hpp:77] Creating layer conv2-dsn5
I1118 18:36:41.428104  3240 net.cpp:100] Creating Layer conv2-dsn5
I1118 18:36:41.428107  3240 net.cpp:434] conv2-dsn5 <- conv1-dsn5
I1118 18:36:41.428112  3240 net.cpp:408] conv2-dsn5 -> conv2-dsn5
I1118 18:36:41.428958  3240 net.cpp:150] Setting up conv2-dsn5
I1118 18:36:41.428969  3240 net.cpp:157] Top shape: 1 64 32 32 (65536)
I1118 18:36:41.428972  3240 net.cpp:165] Memory required for data: 918930640
I1118 18:36:41.428977  3240 layer_factory.hpp:77] Creating layer relu1-dsn5
I1118 18:36:41.428982  3240 net.cpp:100] Creating Layer relu1-dsn5
I1118 18:36:41.428983  3240 net.cpp:434] relu1-dsn5 <- conv2-dsn5
I1118 18:36:41.428987  3240 net.cpp:395] relu1-dsn5 -> conv2-dsn5 (in-place)
I1118 18:36:41.429150  3240 net.cpp:150] Setting up relu1-dsn5
I1118 18:36:41.429159  3240 net.cpp:157] Top shape: 1 64 32 32 (65536)
I1118 18:36:41.429162  3240 net.cpp:165] Memory required for data: 919192784
I1118 18:36:41.429164  3240 layer_factory.hpp:77] Creating layer conv3-dsn5
I1118 18:36:41.429172  3240 net.cpp:100] Creating Layer conv3-dsn5
I1118 18:36:41.429175  3240 net.cpp:434] conv3-dsn5 <- conv2-dsn5
I1118 18:36:41.429183  3240 net.cpp:408] conv3-dsn5 -> conv3-dsn5
I1118 18:36:41.429987  3240 net.cpp:150] Setting up conv3-dsn5
I1118 18:36:41.429996  3240 net.cpp:157] Top shape: 1 64 32 32 (65536)
I1118 18:36:41.429999  3240 net.cpp:165] Memory required for data: 919454928
I1118 18:36:41.430003  3240 layer_factory.hpp:77] Creating layer relu2-dsn5
I1118 18:36:41.430008  3240 net.cpp:100] Creating Layer relu2-dsn5
I1118 18:36:41.430011  3240 net.cpp:434] relu2-dsn5 <- conv3-dsn5
I1118 18:36:41.430014  3240 net.cpp:395] relu2-dsn5 -> conv3-dsn5 (in-place)
I1118 18:36:41.430176  3240 net.cpp:150] Setting up relu2-dsn5
I1118 18:36:41.430186  3240 net.cpp:157] Top shape: 1 64 32 32 (65536)
I1118 18:36:41.430188  3240 net.cpp:165] Memory required for data: 919717072
I1118 18:36:41.430191  3240 layer_factory.hpp:77] Creating layer conv4-dsn5
I1118 18:36:41.430209  3240 net.cpp:100] Creating Layer conv4-dsn5
I1118 18:36:41.430212  3240 net.cpp:434] conv4-dsn5 <- conv3-dsn5
I1118 18:36:41.430217  3240 net.cpp:408] conv4-dsn5 -> conv4-dsn5
I1118 18:36:41.430855  3240 net.cpp:150] Setting up conv4-dsn5
I1118 18:36:41.430866  3240 net.cpp:157] Top shape: 1 1 32 32 (1024)
I1118 18:36:41.430867  3240 net.cpp:165] Memory required for data: 919721168
I1118 18:36:41.430872  3240 layer_factory.hpp:77] Creating layer sum-dsn5
I1118 18:36:41.430878  3240 net.cpp:100] Creating Layer sum-dsn5
I1118 18:36:41.430881  3240 net.cpp:434] sum-dsn5 <- conv4-dsn5
I1118 18:36:41.430884  3240 net.cpp:434] sum-dsn5 <- weight-dsn6-5_crop1-dsn5_0_split_1
I1118 18:36:41.430889  3240 net.cpp:408] sum-dsn5 -> sum-dsn5
I1118 18:36:41.430905  3240 net.cpp:150] Setting up sum-dsn5
I1118 18:36:41.430912  3240 net.cpp:157] Top shape: 1 1 32 32 (1024)
I1118 18:36:41.430913  3240 net.cpp:165] Memory required for data: 919725264
I1118 18:36:41.430915  3240 layer_factory.hpp:77] Creating layer sum-dsn5_sum-dsn5_0_split
I1118 18:36:41.430919  3240 net.cpp:100] Creating Layer sum-dsn5_sum-dsn5_0_split
I1118 18:36:41.430922  3240 net.cpp:434] sum-dsn5_sum-dsn5_0_split <- sum-dsn5
I1118 18:36:41.430925  3240 net.cpp:408] sum-dsn5_sum-dsn5_0_split -> sum-dsn5_sum-dsn5_0_split_0
I1118 18:36:41.430929  3240 net.cpp:408] sum-dsn5_sum-dsn5_0_split -> sum-dsn5_sum-dsn5_0_split_1
I1118 18:36:41.430954  3240 net.cpp:150] Setting up sum-dsn5_sum-dsn5_0_split
I1118 18:36:41.430958  3240 net.cpp:157] Top shape: 1 1 32 32 (1024)
I1118 18:36:41.430960  3240 net.cpp:157] Top shape: 1 1 32 32 (1024)
I1118 18:36:41.430963  3240 net.cpp:165] Memory required for data: 919733456
I1118 18:36:41.430965  3240 layer_factory.hpp:77] Creating layer upsample16_dsn5
I1118 18:36:41.430986  3240 net.cpp:100] Creating Layer upsample16_dsn5
I1118 18:36:41.430989  3240 net.cpp:434] upsample16_dsn5 <- sum-dsn5_sum-dsn5_0_split_0
I1118 18:36:41.430994  3240 net.cpp:408] upsample16_dsn5 -> sum-dsn5-up
I1118 18:36:41.432112  3240 net.cpp:150] Setting up upsample16_dsn5
I1118 18:36:41.432121  3240 net.cpp:157] Top shape: 1 1 528 528 (278784)
I1118 18:36:41.432123  3240 net.cpp:165] Memory required for data: 920848592
I1118 18:36:41.432128  3240 layer_factory.hpp:77] Creating layer crop2-dsn5
I1118 18:36:41.432135  3240 net.cpp:100] Creating Layer crop2-dsn5
I1118 18:36:41.432137  3240 net.cpp:434] crop2-dsn5 <- sum-dsn5-up
I1118 18:36:41.432142  3240 net.cpp:434] crop2-dsn5 <- data_augmentation_0_split_2
I1118 18:36:41.432147  3240 net.cpp:408] crop2-dsn5 -> upscore-dsn5
I1118 18:36:41.432168  3240 net.cpp:150] Setting up crop2-dsn5
I1118 18:36:41.432171  3240 net.cpp:157] Top shape: 1 1 500 500 (250000)
I1118 18:36:41.432173  3240 net.cpp:165] Memory required for data: 921848592
I1118 18:36:41.432175  3240 layer_factory.hpp:77] Creating layer loss5-score
I1118 18:36:41.432183  3240 net.cpp:100] Creating Layer loss5-score
I1118 18:36:41.432184  3240 net.cpp:434] loss5-score <- upscore-dsn5
I1118 18:36:41.432188  3240 net.cpp:434] loss5-score <- label_augmentation_1_split_1
I1118 18:36:41.432193  3240 net.cpp:408] loss5-score -> loss5-score
I1118 18:36:41.432404  3240 net.cpp:150] Setting up loss5-score
I1118 18:36:41.432410  3240 net.cpp:157] Top shape: (1)
I1118 18:36:41.432412  3240 net.cpp:160]     with loss weight 1
I1118 18:36:41.432420  3240 net.cpp:165] Memory required for data: 921848596
I1118 18:36:41.432423  3240 layer_factory.hpp:77] Creating layer upsample2_dsn4
I1118 18:36:41.432430  3240 net.cpp:100] Creating Layer upsample2_dsn4
I1118 18:36:41.432433  3240 net.cpp:434] upsample2_dsn4 <- sum-dsn5_sum-dsn5_0_split_1
I1118 18:36:41.432440  3240 net.cpp:408] upsample2_dsn4 -> sum-dsn5-4
I1118 18:36:41.432623  3240 net.cpp:150] Setting up upsample2_dsn4
I1118 18:36:41.432629  3240 net.cpp:157] Top shape: 1 1 66 66 (4356)
I1118 18:36:41.432631  3240 net.cpp:165] Memory required for data: 921866020
I1118 18:36:41.432637  3240 layer_factory.hpp:77] Creating layer crop1-dsn4
I1118 18:36:41.432643  3240 net.cpp:100] Creating Layer crop1-dsn4
I1118 18:36:41.432646  3240 net.cpp:434] crop1-dsn4 <- sum-dsn5-4
I1118 18:36:41.432648  3240 net.cpp:434] crop1-dsn4 <- conv4_3_relu4_3_0_split_1
I1118 18:36:41.432652  3240 net.cpp:408] crop1-dsn4 -> weight-dsn5-4
I1118 18:36:41.432672  3240 net.cpp:150] Setting up crop1-dsn4
I1118 18:36:41.432677  3240 net.cpp:157] Top shape: 1 1 63 63 (3969)
I1118 18:36:41.432678  3240 net.cpp:165] Memory required for data: 921881896
I1118 18:36:41.432682  3240 layer_factory.hpp:77] Creating layer weight-dsn5-4_crop1-dsn4_0_split
I1118 18:36:41.432685  3240 net.cpp:100] Creating Layer weight-dsn5-4_crop1-dsn4_0_split
I1118 18:36:41.432688  3240 net.cpp:434] weight-dsn5-4_crop1-dsn4_0_split <- weight-dsn5-4
I1118 18:36:41.432693  3240 net.cpp:408] weight-dsn5-4_crop1-dsn4_0_split -> weight-dsn5-4_crop1-dsn4_0_split_0
I1118 18:36:41.432698  3240 net.cpp:408] weight-dsn5-4_crop1-dsn4_0_split -> weight-dsn5-4_crop1-dsn4_0_split_1
I1118 18:36:41.432723  3240 net.cpp:150] Setting up weight-dsn5-4_crop1-dsn4_0_split
I1118 18:36:41.432729  3240 net.cpp:157] Top shape: 1 1 63 63 (3969)
I1118 18:36:41.432731  3240 net.cpp:157] Top shape: 1 1 63 63 (3969)
I1118 18:36:41.432734  3240 net.cpp:165] Memory required for data: 921913648
I1118 18:36:41.432736  3240 layer_factory.hpp:77] Creating layer sigmoid-dsn4
I1118 18:36:41.432741  3240 net.cpp:100] Creating Layer sigmoid-dsn4
I1118 18:36:41.432744  3240 net.cpp:434] sigmoid-dsn4 <- weight-dsn5-4_crop1-dsn4_0_split_0
I1118 18:36:41.432749  3240 net.cpp:408] sigmoid-dsn4 -> sigmoid-dsn4
I1118 18:36:41.432827  3240 net.cpp:150] Setting up sigmoid-dsn4
I1118 18:36:41.432835  3240 net.cpp:157] Top shape: 1 1 63 63 (3969)
I1118 18:36:41.432837  3240 net.cpp:165] Memory required for data: 921929524
I1118 18:36:41.432840  3240 layer_factory.hpp:77] Creating layer rev-dsn4
I1118 18:36:41.432844  3240 net.cpp:100] Creating Layer rev-dsn4
I1118 18:36:41.432847  3240 net.cpp:434] rev-dsn4 <- sigmoid-dsn4
I1118 18:36:41.432852  3240 net.cpp:408] rev-dsn4 -> rev-dsn4
I1118 18:36:41.432869  3240 net.cpp:150] Setting up rev-dsn4
I1118 18:36:41.432873  3240 net.cpp:157] Top shape: 1 1 63 63 (3969)
I1118 18:36:41.432875  3240 net.cpp:165] Memory required for data: 921945400
I1118 18:36:41.432878  3240 layer_factory.hpp:77] Creating layer tile-dsn4
I1118 18:36:41.432881  3240 net.cpp:100] Creating Layer tile-dsn4
I1118 18:36:41.432884  3240 net.cpp:434] tile-dsn4 <- rev-dsn4
I1118 18:36:41.432888  3240 net.cpp:408] tile-dsn4 -> weight-dsn4
I1118 18:36:41.432904  3240 net.cpp:150] Setting up tile-dsn4
I1118 18:36:41.432907  3240 net.cpp:157] Top shape: 1 512 63 63 (2032128)
I1118 18:36:41.432909  3240 net.cpp:165] Memory required for data: 930073912
I1118 18:36:41.432911  3240 layer_factory.hpp:77] Creating layer prod1-dsn4
I1118 18:36:41.432915  3240 net.cpp:100] Creating Layer prod1-dsn4
I1118 18:36:41.432919  3240 net.cpp:434] prod1-dsn4 <- conv4_3_relu4_3_0_split_2
I1118 18:36:41.432921  3240 net.cpp:434] prod1-dsn4 <- weight-dsn4
I1118 18:36:41.432926  3240 net.cpp:408] prod1-dsn4 -> prod1-dsn4
I1118 18:36:41.432941  3240 net.cpp:150] Setting up prod1-dsn4
I1118 18:36:41.432945  3240 net.cpp:157] Top shape: 1 512 63 63 (2032128)
I1118 18:36:41.432947  3240 net.cpp:165] Memory required for data: 938202424
I1118 18:36:41.432950  3240 layer_factory.hpp:77] Creating layer conv1-dsn4
I1118 18:36:41.432960  3240 net.cpp:100] Creating Layer conv1-dsn4
I1118 18:36:41.432962  3240 net.cpp:434] conv1-dsn4 <- prod1-dsn4
I1118 18:36:41.432966  3240 net.cpp:408] conv1-dsn4 -> conv1-dsn4
I1118 18:36:41.434882  3240 net.cpp:150] Setting up conv1-dsn4
I1118 18:36:41.434892  3240 net.cpp:157] Top shape: 1 64 63 63 (254016)
I1118 18:36:41.434895  3240 net.cpp:165] Memory required for data: 939218488
I1118 18:36:41.434900  3240 layer_factory.hpp:77] Creating layer conv2-dsn4
I1118 18:36:41.434909  3240 net.cpp:100] Creating Layer conv2-dsn4
I1118 18:36:41.434911  3240 net.cpp:434] conv2-dsn4 <- conv1-dsn4
I1118 18:36:41.434918  3240 net.cpp:408] conv2-dsn4 -> conv2-dsn4
I1118 18:36:41.435724  3240 net.cpp:150] Setting up conv2-dsn4
I1118 18:36:41.435734  3240 net.cpp:157] Top shape: 1 64 63 63 (254016)
I1118 18:36:41.435736  3240 net.cpp:165] Memory required for data: 940234552
I1118 18:36:41.435741  3240 layer_factory.hpp:77] Creating layer relu1-dsn4
I1118 18:36:41.435747  3240 net.cpp:100] Creating Layer relu1-dsn4
I1118 18:36:41.435750  3240 net.cpp:434] relu1-dsn4 <- conv2-dsn4
I1118 18:36:41.435753  3240 net.cpp:395] relu1-dsn4 -> conv2-dsn4 (in-place)
I1118 18:36:41.435926  3240 net.cpp:150] Setting up relu1-dsn4
I1118 18:36:41.435938  3240 net.cpp:157] Top shape: 1 64 63 63 (254016)
I1118 18:36:41.435940  3240 net.cpp:165] Memory required for data: 941250616
I1118 18:36:41.435943  3240 layer_factory.hpp:77] Creating layer conv3-dsn4
I1118 18:36:41.435952  3240 net.cpp:100] Creating Layer conv3-dsn4
I1118 18:36:41.435956  3240 net.cpp:434] conv3-dsn4 <- conv2-dsn4
I1118 18:36:41.435963  3240 net.cpp:408] conv3-dsn4 -> conv3-dsn4
I1118 18:36:41.436887  3240 net.cpp:150] Setting up conv3-dsn4
I1118 18:36:41.436915  3240 net.cpp:157] Top shape: 1 64 63 63 (254016)
I1118 18:36:41.436918  3240 net.cpp:165] Memory required for data: 942266680
I1118 18:36:41.436923  3240 layer_factory.hpp:77] Creating layer relu2-dsn4
I1118 18:36:41.436928  3240 net.cpp:100] Creating Layer relu2-dsn4
I1118 18:36:41.436930  3240 net.cpp:434] relu2-dsn4 <- conv3-dsn4
I1118 18:36:41.436934  3240 net.cpp:395] relu2-dsn4 -> conv3-dsn4 (in-place)
I1118 18:36:41.437006  3240 net.cpp:150] Setting up relu2-dsn4
I1118 18:36:41.437013  3240 net.cpp:157] Top shape: 1 64 63 63 (254016)
I1118 18:36:41.437016  3240 net.cpp:165] Memory required for data: 943282744
I1118 18:36:41.437017  3240 layer_factory.hpp:77] Creating layer conv4-dsn4
I1118 18:36:41.437026  3240 net.cpp:100] Creating Layer conv4-dsn4
I1118 18:36:41.437028  3240 net.cpp:434] conv4-dsn4 <- conv3-dsn4
I1118 18:36:41.437033  3240 net.cpp:408] conv4-dsn4 -> conv4-dsn4
I1118 18:36:41.437621  3240 net.cpp:150] Setting up conv4-dsn4
I1118 18:36:41.437633  3240 net.cpp:157] Top shape: 1 1 63 63 (3969)
I1118 18:36:41.437634  3240 net.cpp:165] Memory required for data: 943298620
I1118 18:36:41.437639  3240 layer_factory.hpp:77] Creating layer sum-dsn4
I1118 18:36:41.437644  3240 net.cpp:100] Creating Layer sum-dsn4
I1118 18:36:41.437646  3240 net.cpp:434] sum-dsn4 <- conv4-dsn4
I1118 18:36:41.437650  3240 net.cpp:434] sum-dsn4 <- weight-dsn5-4_crop1-dsn4_0_split_1
I1118 18:36:41.437654  3240 net.cpp:408] sum-dsn4 -> sum-dsn4
I1118 18:36:41.437674  3240 net.cpp:150] Setting up sum-dsn4
I1118 18:36:41.437678  3240 net.cpp:157] Top shape: 1 1 63 63 (3969)
I1118 18:36:41.437680  3240 net.cpp:165] Memory required for data: 943314496
I1118 18:36:41.437682  3240 layer_factory.hpp:77] Creating layer sum-dsn4_sum-dsn4_0_split
I1118 18:36:41.437687  3240 net.cpp:100] Creating Layer sum-dsn4_sum-dsn4_0_split
I1118 18:36:41.437690  3240 net.cpp:434] sum-dsn4_sum-dsn4_0_split <- sum-dsn4
I1118 18:36:41.437693  3240 net.cpp:408] sum-dsn4_sum-dsn4_0_split -> sum-dsn4_sum-dsn4_0_split_0
I1118 18:36:41.437697  3240 net.cpp:408] sum-dsn4_sum-dsn4_0_split -> sum-dsn4_sum-dsn4_0_split_1
I1118 18:36:41.437726  3240 net.cpp:150] Setting up sum-dsn4_sum-dsn4_0_split
I1118 18:36:41.437731  3240 net.cpp:157] Top shape: 1 1 63 63 (3969)
I1118 18:36:41.437732  3240 net.cpp:157] Top shape: 1 1 63 63 (3969)
I1118 18:36:41.437750  3240 net.cpp:165] Memory required for data: 943346248
I1118 18:36:41.437752  3240 layer_factory.hpp:77] Creating layer upsample8_dsn4
I1118 18:36:41.437760  3240 net.cpp:100] Creating Layer upsample8_dsn4
I1118 18:36:41.437762  3240 net.cpp:434] upsample8_dsn4 <- sum-dsn4_sum-dsn4_0_split_0
I1118 18:36:41.437768  3240 net.cpp:408] upsample8_dsn4 -> sum-dsn4-up
I1118 18:36:41.438872  3240 net.cpp:150] Setting up upsample8_dsn4
I1118 18:36:41.438882  3240 net.cpp:157] Top shape: 1 1 512 512 (262144)
I1118 18:36:41.438884  3240 net.cpp:165] Memory required for data: 944394824
I1118 18:36:41.438889  3240 layer_factory.hpp:77] Creating layer crop2-dsn4
I1118 18:36:41.438895  3240 net.cpp:100] Creating Layer crop2-dsn4
I1118 18:36:41.438899  3240 net.cpp:434] crop2-dsn4 <- sum-dsn4-up
I1118 18:36:41.438901  3240 net.cpp:434] crop2-dsn4 <- data_augmentation_0_split_3
I1118 18:36:41.438905  3240 net.cpp:408] crop2-dsn4 -> upscore-dsn4
I1118 18:36:41.438930  3240 net.cpp:150] Setting up crop2-dsn4
I1118 18:36:41.438933  3240 net.cpp:157] Top shape: 1 1 500 500 (250000)
I1118 18:36:41.438935  3240 net.cpp:165] Memory required for data: 945394824
I1118 18:36:41.438937  3240 layer_factory.hpp:77] Creating layer loss4-score
I1118 18:36:41.438944  3240 net.cpp:100] Creating Layer loss4-score
I1118 18:36:41.438946  3240 net.cpp:434] loss4-score <- upscore-dsn4
I1118 18:36:41.438949  3240 net.cpp:434] loss4-score <- label_augmentation_1_split_2
I1118 18:36:41.438954  3240 net.cpp:408] loss4-score -> loss4-score
I1118 18:36:41.439155  3240 net.cpp:150] Setting up loss4-score
I1118 18:36:41.439162  3240 net.cpp:157] Top shape: (1)
I1118 18:36:41.439164  3240 net.cpp:160]     with loss weight 1
I1118 18:36:41.439169  3240 net.cpp:165] Memory required for data: 945394828
I1118 18:36:41.439172  3240 layer_factory.hpp:77] Creating layer upsample2_dsn3
I1118 18:36:41.439179  3240 net.cpp:100] Creating Layer upsample2_dsn3
I1118 18:36:41.439182  3240 net.cpp:434] upsample2_dsn3 <- sum-dsn4_sum-dsn4_0_split_1
I1118 18:36:41.439185  3240 net.cpp:408] upsample2_dsn3 -> sum-dsn4-3
I1118 18:36:41.439383  3240 net.cpp:150] Setting up upsample2_dsn3
I1118 18:36:41.439389  3240 net.cpp:157] Top shape: 1 1 128 128 (16384)
I1118 18:36:41.439391  3240 net.cpp:165] Memory required for data: 945460364
I1118 18:36:41.439396  3240 layer_factory.hpp:77] Creating layer crop1-dsn3
I1118 18:36:41.439401  3240 net.cpp:100] Creating Layer crop1-dsn3
I1118 18:36:41.439404  3240 net.cpp:434] crop1-dsn3 <- sum-dsn4-3
I1118 18:36:41.439407  3240 net.cpp:434] crop1-dsn3 <- conv3_3_relu3_3_0_split_1
I1118 18:36:41.439410  3240 net.cpp:408] crop1-dsn3 -> weight-dsn4-3
I1118 18:36:41.439427  3240 net.cpp:150] Setting up crop1-dsn3
I1118 18:36:41.439431  3240 net.cpp:157] Top shape: 1 1 125 125 (15625)
I1118 18:36:41.439433  3240 net.cpp:165] Memory required for data: 945522864
I1118 18:36:41.439435  3240 layer_factory.hpp:77] Creating layer weight-dsn4-3_crop1-dsn3_0_split
I1118 18:36:41.439440  3240 net.cpp:100] Creating Layer weight-dsn4-3_crop1-dsn3_0_split
I1118 18:36:41.439442  3240 net.cpp:434] weight-dsn4-3_crop1-dsn3_0_split <- weight-dsn4-3
I1118 18:36:41.439447  3240 net.cpp:408] weight-dsn4-3_crop1-dsn3_0_split -> weight-dsn4-3_crop1-dsn3_0_split_0
I1118 18:36:41.439452  3240 net.cpp:408] weight-dsn4-3_crop1-dsn3_0_split -> weight-dsn4-3_crop1-dsn3_0_split_1
I1118 18:36:41.439481  3240 net.cpp:150] Setting up weight-dsn4-3_crop1-dsn3_0_split
I1118 18:36:41.439486  3240 net.cpp:157] Top shape: 1 1 125 125 (15625)
I1118 18:36:41.439489  3240 net.cpp:157] Top shape: 1 1 125 125 (15625)
I1118 18:36:41.439491  3240 net.cpp:165] Memory required for data: 945647864
I1118 18:36:41.439494  3240 layer_factory.hpp:77] Creating layer sigmoid-dsn3
I1118 18:36:41.439498  3240 net.cpp:100] Creating Layer sigmoid-dsn3
I1118 18:36:41.439501  3240 net.cpp:434] sigmoid-dsn3 <- weight-dsn4-3_crop1-dsn3_0_split_0
I1118 18:36:41.439505  3240 net.cpp:408] sigmoid-dsn3 -> sigmoid-dsn3
I1118 18:36:41.439587  3240 net.cpp:150] Setting up sigmoid-dsn3
I1118 18:36:41.439594  3240 net.cpp:157] Top shape: 1 1 125 125 (15625)
I1118 18:36:41.439597  3240 net.cpp:165] Memory required for data: 945710364
I1118 18:36:41.439599  3240 layer_factory.hpp:77] Creating layer rev-dsn3
I1118 18:36:41.439605  3240 net.cpp:100] Creating Layer rev-dsn3
I1118 18:36:41.439608  3240 net.cpp:434] rev-dsn3 <- sigmoid-dsn3
I1118 18:36:41.439612  3240 net.cpp:408] rev-dsn3 -> rev-dsn3
I1118 18:36:41.439628  3240 net.cpp:150] Setting up rev-dsn3
I1118 18:36:41.439632  3240 net.cpp:157] Top shape: 1 1 125 125 (15625)
I1118 18:36:41.439635  3240 net.cpp:165] Memory required for data: 945772864
I1118 18:36:41.439636  3240 layer_factory.hpp:77] Creating layer tile-dsn3
I1118 18:36:41.439640  3240 net.cpp:100] Creating Layer tile-dsn3
I1118 18:36:41.439643  3240 net.cpp:434] tile-dsn3 <- rev-dsn3
I1118 18:36:41.439648  3240 net.cpp:408] tile-dsn3 -> weight-dsn3
I1118 18:36:41.439662  3240 net.cpp:150] Setting up tile-dsn3
I1118 18:36:41.439666  3240 net.cpp:157] Top shape: 1 256 125 125 (4000000)
I1118 18:36:41.439668  3240 net.cpp:165] Memory required for data: 961772864
I1118 18:36:41.439671  3240 layer_factory.hpp:77] Creating layer prod1-dsn3
I1118 18:36:41.439674  3240 net.cpp:100] Creating Layer prod1-dsn3
I1118 18:36:41.439677  3240 net.cpp:434] prod1-dsn3 <- conv3_3_relu3_3_0_split_2
I1118 18:36:41.439680  3240 net.cpp:434] prod1-dsn3 <- weight-dsn3
I1118 18:36:41.439685  3240 net.cpp:408] prod1-dsn3 -> prod1-dsn3
I1118 18:36:41.439702  3240 net.cpp:150] Setting up prod1-dsn3
I1118 18:36:41.439705  3240 net.cpp:157] Top shape: 1 256 125 125 (4000000)
I1118 18:36:41.439708  3240 net.cpp:165] Memory required for data: 977772864
I1118 18:36:41.439710  3240 layer_factory.hpp:77] Creating layer conv1-dsn3
I1118 18:36:41.439718  3240 net.cpp:100] Creating Layer conv1-dsn3
I1118 18:36:41.439721  3240 net.cpp:434] conv1-dsn3 <- prod1-dsn3
I1118 18:36:41.439725  3240 net.cpp:408] conv1-dsn3 -> conv1-dsn3
I1118 18:36:41.441433  3240 net.cpp:150] Setting up conv1-dsn3
I1118 18:36:41.441444  3240 net.cpp:157] Top shape: 1 64 125 125 (1000000)
I1118 18:36:41.441462  3240 net.cpp:165] Memory required for data: 981772864
I1118 18:36:41.441479  3240 layer_factory.hpp:77] Creating layer conv2-dsn3
I1118 18:36:41.441489  3240 net.cpp:100] Creating Layer conv2-dsn3
I1118 18:36:41.441493  3240 net.cpp:434] conv2-dsn3 <- conv1-dsn3
I1118 18:36:41.441498  3240 net.cpp:408] conv2-dsn3 -> conv2-dsn3
I1118 18:36:41.442409  3240 net.cpp:150] Setting up conv2-dsn3
I1118 18:36:41.442418  3240 net.cpp:157] Top shape: 1 64 125 125 (1000000)
I1118 18:36:41.442420  3240 net.cpp:165] Memory required for data: 985772864
I1118 18:36:41.442425  3240 layer_factory.hpp:77] Creating layer relu1-dsn3
I1118 18:36:41.442432  3240 net.cpp:100] Creating Layer relu1-dsn3
I1118 18:36:41.442435  3240 net.cpp:434] relu1-dsn3 <- conv2-dsn3
I1118 18:36:41.442440  3240 net.cpp:395] relu1-dsn3 -> conv2-dsn3 (in-place)
I1118 18:36:41.442502  3240 net.cpp:150] Setting up relu1-dsn3
I1118 18:36:41.442508  3240 net.cpp:157] Top shape: 1 64 125 125 (1000000)
I1118 18:36:41.442510  3240 net.cpp:165] Memory required for data: 989772864
I1118 18:36:41.442513  3240 layer_factory.hpp:77] Creating layer conv3-dsn3
I1118 18:36:41.442536  3240 net.cpp:100] Creating Layer conv3-dsn3
I1118 18:36:41.442540  3240 net.cpp:434] conv3-dsn3 <- conv2-dsn3
I1118 18:36:41.442544  3240 net.cpp:408] conv3-dsn3 -> conv3-dsn3
I1118 18:36:41.443481  3240 net.cpp:150] Setting up conv3-dsn3
I1118 18:36:41.443491  3240 net.cpp:157] Top shape: 1 64 125 125 (1000000)
I1118 18:36:41.443493  3240 net.cpp:165] Memory required for data: 993772864
I1118 18:36:41.443498  3240 layer_factory.hpp:77] Creating layer relu2-dsn3
I1118 18:36:41.443502  3240 net.cpp:100] Creating Layer relu2-dsn3
I1118 18:36:41.443506  3240 net.cpp:434] relu2-dsn3 <- conv3-dsn3
I1118 18:36:41.443511  3240 net.cpp:395] relu2-dsn3 -> conv3-dsn3 (in-place)
I1118 18:36:41.443578  3240 net.cpp:150] Setting up relu2-dsn3
I1118 18:36:41.443584  3240 net.cpp:157] Top shape: 1 64 125 125 (1000000)
I1118 18:36:41.443588  3240 net.cpp:165] Memory required for data: 997772864
I1118 18:36:41.443605  3240 layer_factory.hpp:77] Creating layer conv4-dsn3
I1118 18:36:41.443614  3240 net.cpp:100] Creating Layer conv4-dsn3
I1118 18:36:41.443616  3240 net.cpp:434] conv4-dsn3 <- conv3-dsn3
I1118 18:36:41.443620  3240 net.cpp:408] conv4-dsn3 -> conv4-dsn3
I1118 18:36:41.444221  3240 net.cpp:150] Setting up conv4-dsn3
I1118 18:36:41.444231  3240 net.cpp:157] Top shape: 1 1 125 125 (15625)
I1118 18:36:41.444232  3240 net.cpp:165] Memory required for data: 997835364
I1118 18:36:41.444237  3240 layer_factory.hpp:77] Creating layer sum-dsn3
I1118 18:36:41.444242  3240 net.cpp:100] Creating Layer sum-dsn3
I1118 18:36:41.444244  3240 net.cpp:434] sum-dsn3 <- conv4-dsn3
I1118 18:36:41.444248  3240 net.cpp:434] sum-dsn3 <- weight-dsn4-3_crop1-dsn3_0_split_1
I1118 18:36:41.444253  3240 net.cpp:408] sum-dsn3 -> sum-dsn3
I1118 18:36:41.444273  3240 net.cpp:150] Setting up sum-dsn3
I1118 18:36:41.444278  3240 net.cpp:157] Top shape: 1 1 125 125 (15625)
I1118 18:36:41.444279  3240 net.cpp:165] Memory required for data: 997897864
I1118 18:36:41.444281  3240 layer_factory.hpp:77] Creating layer sum-dsn3_sum-dsn3_0_split
I1118 18:36:41.444288  3240 net.cpp:100] Creating Layer sum-dsn3_sum-dsn3_0_split
I1118 18:36:41.444290  3240 net.cpp:434] sum-dsn3_sum-dsn3_0_split <- sum-dsn3
I1118 18:36:41.444295  3240 net.cpp:408] sum-dsn3_sum-dsn3_0_split -> sum-dsn3_sum-dsn3_0_split_0
I1118 18:36:41.444304  3240 net.cpp:408] sum-dsn3_sum-dsn3_0_split -> sum-dsn3_sum-dsn3_0_split_1
I1118 18:36:41.444363  3240 net.cpp:150] Setting up sum-dsn3_sum-dsn3_0_split
I1118 18:36:41.444368  3240 net.cpp:157] Top shape: 1 1 125 125 (15625)
I1118 18:36:41.444371  3240 net.cpp:157] Top shape: 1 1 125 125 (15625)
I1118 18:36:41.444373  3240 net.cpp:165] Memory required for data: 998022864
I1118 18:36:41.444376  3240 layer_factory.hpp:77] Creating layer upsample4_dsn3
I1118 18:36:41.444381  3240 net.cpp:100] Creating Layer upsample4_dsn3
I1118 18:36:41.444384  3240 net.cpp:434] upsample4_dsn3 <- sum-dsn3_sum-dsn3_0_split_0
I1118 18:36:41.444389  3240 net.cpp:408] upsample4_dsn3 -> sum-dsn3-up
I1118 18:36:41.445534  3240 net.cpp:150] Setting up upsample4_dsn3
I1118 18:36:41.445544  3240 net.cpp:157] Top shape: 1 1 504 504 (254016)
I1118 18:36:41.445545  3240 net.cpp:165] Memory required for data: 999038928
I1118 18:36:41.445550  3240 layer_factory.hpp:77] Creating layer crop2-dsn3
I1118 18:36:41.445555  3240 net.cpp:100] Creating Layer crop2-dsn3
I1118 18:36:41.445559  3240 net.cpp:434] crop2-dsn3 <- sum-dsn3-up
I1118 18:36:41.445561  3240 net.cpp:434] crop2-dsn3 <- data_augmentation_0_split_4
I1118 18:36:41.445567  3240 net.cpp:408] crop2-dsn3 -> upscore-dsn3
I1118 18:36:41.445591  3240 net.cpp:150] Setting up crop2-dsn3
I1118 18:36:41.445595  3240 net.cpp:157] Top shape: 1 1 500 500 (250000)
I1118 18:36:41.445597  3240 net.cpp:165] Memory required for data: 1000038928
I1118 18:36:41.445600  3240 layer_factory.hpp:77] Creating layer loss3-score
I1118 18:36:41.445606  3240 net.cpp:100] Creating Layer loss3-score
I1118 18:36:41.445608  3240 net.cpp:434] loss3-score <- upscore-dsn3
I1118 18:36:41.445611  3240 net.cpp:434] loss3-score <- label_augmentation_1_split_3
I1118 18:36:41.445616  3240 net.cpp:408] loss3-score -> loss3-score
I1118 18:36:41.445817  3240 net.cpp:150] Setting up loss3-score
I1118 18:36:41.445824  3240 net.cpp:157] Top shape: (1)
I1118 18:36:41.445827  3240 net.cpp:160]     with loss weight 1
I1118 18:36:41.445832  3240 net.cpp:165] Memory required for data: 1000038932
I1118 18:36:41.445834  3240 layer_factory.hpp:77] Creating layer upsample2_1-dsn2
I1118 18:36:41.445839  3240 net.cpp:100] Creating Layer upsample2_1-dsn2
I1118 18:36:41.445843  3240 net.cpp:434] upsample2_1-dsn2 <- sum-dsn3_sum-dsn3_0_split_1
I1118 18:36:41.445849  3240 net.cpp:408] upsample2_1-dsn2 -> sum-dsn3-2
I1118 18:36:41.446054  3240 net.cpp:150] Setting up upsample2_1-dsn2
I1118 18:36:41.446061  3240 net.cpp:157] Top shape: 1 1 252 252 (63504)
I1118 18:36:41.446063  3240 net.cpp:165] Memory required for data: 1000292948
I1118 18:36:41.446067  3240 layer_factory.hpp:77] Creating layer crop1-dsn2
I1118 18:36:41.446072  3240 net.cpp:100] Creating Layer crop1-dsn2
I1118 18:36:41.446075  3240 net.cpp:434] crop1-dsn2 <- sum-dsn3-2
I1118 18:36:41.446079  3240 net.cpp:434] crop1-dsn2 <- conv2_2_relu2_2_0_split_1
I1118 18:36:41.446081  3240 net.cpp:408] crop1-dsn2 -> weight-dsn3-2
I1118 18:36:41.446102  3240 net.cpp:150] Setting up crop1-dsn2
I1118 18:36:41.446107  3240 net.cpp:157] Top shape: 1 1 250 250 (62500)
I1118 18:36:41.446110  3240 net.cpp:165] Memory required for data: 1000542948
I1118 18:36:41.446111  3240 layer_factory.hpp:77] Creating layer weight-dsn3-2_crop1-dsn2_0_split
I1118 18:36:41.446116  3240 net.cpp:100] Creating Layer weight-dsn3-2_crop1-dsn2_0_split
I1118 18:36:41.446118  3240 net.cpp:434] weight-dsn3-2_crop1-dsn2_0_split <- weight-dsn3-2
I1118 18:36:41.446123  3240 net.cpp:408] weight-dsn3-2_crop1-dsn2_0_split -> weight-dsn3-2_crop1-dsn2_0_split_0
I1118 18:36:41.446128  3240 net.cpp:408] weight-dsn3-2_crop1-dsn2_0_split -> weight-dsn3-2_crop1-dsn2_0_split_1
I1118 18:36:41.446156  3240 net.cpp:150] Setting up weight-dsn3-2_crop1-dsn2_0_split
I1118 18:36:41.446161  3240 net.cpp:157] Top shape: 1 1 250 250 (62500)
I1118 18:36:41.446163  3240 net.cpp:157] Top shape: 1 1 250 250 (62500)
I1118 18:36:41.446166  3240 net.cpp:165] Memory required for data: 1001042948
I1118 18:36:41.446168  3240 layer_factory.hpp:77] Creating layer sigmoid-dsn2
I1118 18:36:41.446172  3240 net.cpp:100] Creating Layer sigmoid-dsn2
I1118 18:36:41.446174  3240 net.cpp:434] sigmoid-dsn2 <- weight-dsn3-2_crop1-dsn2_0_split_0
I1118 18:36:41.446179  3240 net.cpp:408] sigmoid-dsn2 -> sigmoid-dsn2
I1118 18:36:41.447450  3240 net.cpp:150] Setting up sigmoid-dsn2
I1118 18:36:41.447461  3240 net.cpp:157] Top shape: 1 1 250 250 (62500)
I1118 18:36:41.447479  3240 net.cpp:165] Memory required for data: 1001292948
I1118 18:36:41.447481  3240 layer_factory.hpp:77] Creating layer rev-dsn2
I1118 18:36:41.447487  3240 net.cpp:100] Creating Layer rev-dsn2
I1118 18:36:41.447490  3240 net.cpp:434] rev-dsn2 <- sigmoid-dsn2
I1118 18:36:41.447494  3240 net.cpp:408] rev-dsn2 -> rev-dsn2
I1118 18:36:41.447513  3240 net.cpp:150] Setting up rev-dsn2
I1118 18:36:41.447517  3240 net.cpp:157] Top shape: 1 1 250 250 (62500)
I1118 18:36:41.447520  3240 net.cpp:165] Memory required for data: 1001542948
I1118 18:36:41.447521  3240 layer_factory.hpp:77] Creating layer tile-dsn2
I1118 18:36:41.447525  3240 net.cpp:100] Creating Layer tile-dsn2
I1118 18:36:41.447527  3240 net.cpp:434] tile-dsn2 <- rev-dsn2
I1118 18:36:41.447531  3240 net.cpp:408] tile-dsn2 -> weight-dsn2
I1118 18:36:41.447546  3240 net.cpp:150] Setting up tile-dsn2
I1118 18:36:41.447551  3240 net.cpp:157] Top shape: 1 128 250 250 (8000000)
I1118 18:36:41.447552  3240 net.cpp:165] Memory required for data: 1033542948
I1118 18:36:41.447554  3240 layer_factory.hpp:77] Creating layer prod1-dsn2
I1118 18:36:41.447558  3240 net.cpp:100] Creating Layer prod1-dsn2
I1118 18:36:41.447561  3240 net.cpp:434] prod1-dsn2 <- conv2_2_relu2_2_0_split_2
I1118 18:36:41.447564  3240 net.cpp:434] prod1-dsn2 <- weight-dsn2
I1118 18:36:41.447568  3240 net.cpp:408] prod1-dsn2 -> prod1-dsn2
I1118 18:36:41.447587  3240 net.cpp:150] Setting up prod1-dsn2
I1118 18:36:41.447589  3240 net.cpp:157] Top shape: 1 128 250 250 (8000000)
I1118 18:36:41.447592  3240 net.cpp:165] Memory required for data: 1065542948
I1118 18:36:41.447593  3240 layer_factory.hpp:77] Creating layer conv1-dsn2
I1118 18:36:41.447600  3240 net.cpp:100] Creating Layer conv1-dsn2
I1118 18:36:41.447602  3240 net.cpp:434] conv1-dsn2 <- prod1-dsn2
I1118 18:36:41.447607  3240 net.cpp:408] conv1-dsn2 -> conv1-dsn2
I1118 18:36:41.448280  3240 net.cpp:150] Setting up conv1-dsn2
I1118 18:36:41.448290  3240 net.cpp:157] Top shape: 1 64 250 250 (4000000)
I1118 18:36:41.448292  3240 net.cpp:165] Memory required for data: 1081542948
I1118 18:36:41.448297  3240 layer_factory.hpp:77] Creating layer conv2-dsn2
I1118 18:36:41.448329  3240 net.cpp:100] Creating Layer conv2-dsn2
I1118 18:36:41.448333  3240 net.cpp:434] conv2-dsn2 <- conv1-dsn2
I1118 18:36:41.448338  3240 net.cpp:408] conv2-dsn2 -> conv2-dsn2
I1118 18:36:41.450044  3240 net.cpp:150] Setting up conv2-dsn2
I1118 18:36:41.450055  3240 net.cpp:157] Top shape: 1 64 250 250 (4000000)
I1118 18:36:41.450057  3240 net.cpp:165] Memory required for data: 1097542948
I1118 18:36:41.450062  3240 layer_factory.hpp:77] Creating layer relu1-dsn2
I1118 18:36:41.450067  3240 net.cpp:100] Creating Layer relu1-dsn2
I1118 18:36:41.450069  3240 net.cpp:434] relu1-dsn2 <- conv2-dsn2
I1118 18:36:41.450074  3240 net.cpp:395] relu1-dsn2 -> conv2-dsn2 (in-place)
I1118 18:36:41.450143  3240 net.cpp:150] Setting up relu1-dsn2
I1118 18:36:41.450150  3240 net.cpp:157] Top shape: 1 64 250 250 (4000000)
I1118 18:36:41.450168  3240 net.cpp:165] Memory required for data: 1113542948
I1118 18:36:41.450170  3240 layer_factory.hpp:77] Creating layer conv3-dsn2
I1118 18:36:41.450179  3240 net.cpp:100] Creating Layer conv3-dsn2
I1118 18:36:41.450182  3240 net.cpp:434] conv3-dsn2 <- conv2-dsn2
I1118 18:36:41.450186  3240 net.cpp:408] conv3-dsn2 -> conv3-dsn2
I1118 18:36:41.451148  3240 net.cpp:150] Setting up conv3-dsn2
I1118 18:36:41.451158  3240 net.cpp:157] Top shape: 1 64 250 250 (4000000)
I1118 18:36:41.451160  3240 net.cpp:165] Memory required for data: 1129542948
I1118 18:36:41.451165  3240 layer_factory.hpp:77] Creating layer relu2-dsn2
I1118 18:36:41.451169  3240 net.cpp:100] Creating Layer relu2-dsn2
I1118 18:36:41.451171  3240 net.cpp:434] relu2-dsn2 <- conv3-dsn2
I1118 18:36:41.451175  3240 net.cpp:395] relu2-dsn2 -> conv3-dsn2 (in-place)
I1118 18:36:41.451339  3240 net.cpp:150] Setting up relu2-dsn2
I1118 18:36:41.451347  3240 net.cpp:157] Top shape: 1 64 250 250 (4000000)
I1118 18:36:41.451350  3240 net.cpp:165] Memory required for data: 1145542948
I1118 18:36:41.451354  3240 layer_factory.hpp:77] Creating layer conv4-dsn2
I1118 18:36:41.451362  3240 net.cpp:100] Creating Layer conv4-dsn2
I1118 18:36:41.451364  3240 net.cpp:434] conv4-dsn2 <- conv3-dsn2
I1118 18:36:41.451371  3240 net.cpp:408] conv4-dsn2 -> conv4-dsn2
I1118 18:36:41.451908  3240 net.cpp:150] Setting up conv4-dsn2
I1118 18:36:41.451918  3240 net.cpp:157] Top shape: 1 1 250 250 (62500)
I1118 18:36:41.451920  3240 net.cpp:165] Memory required for data: 1145792948
I1118 18:36:41.451925  3240 layer_factory.hpp:77] Creating layer sum-dsn2
I1118 18:36:41.451931  3240 net.cpp:100] Creating Layer sum-dsn2
I1118 18:36:41.451934  3240 net.cpp:434] sum-dsn2 <- conv4-dsn2
I1118 18:36:41.451937  3240 net.cpp:434] sum-dsn2 <- weight-dsn3-2_crop1-dsn2_0_split_1
I1118 18:36:41.451943  3240 net.cpp:408] sum-dsn2 -> sum-dsn2
I1118 18:36:41.451962  3240 net.cpp:150] Setting up sum-dsn2
I1118 18:36:41.451967  3240 net.cpp:157] Top shape: 1 1 250 250 (62500)
I1118 18:36:41.451967  3240 net.cpp:165] Memory required for data: 1146042948
I1118 18:36:41.451970  3240 layer_factory.hpp:77] Creating layer upsample2_2-dsn2
I1118 18:36:41.451978  3240 net.cpp:100] Creating Layer upsample2_2-dsn2
I1118 18:36:41.451980  3240 net.cpp:434] upsample2_2-dsn2 <- sum-dsn2
I1118 18:36:41.451985  3240 net.cpp:408] upsample2_2-dsn2 -> sum-dsn2-up
I1118 18:36:41.452332  3240 net.cpp:150] Setting up upsample2_2-dsn2
I1118 18:36:41.452339  3240 net.cpp:157] Top shape: 1 1 502 502 (252004)
I1118 18:36:41.452356  3240 net.cpp:165] Memory required for data: 1147050964
I1118 18:36:41.452360  3240 layer_factory.hpp:77] Creating layer crop2-dsn2
I1118 18:36:41.452366  3240 net.cpp:100] Creating Layer crop2-dsn2
I1118 18:36:41.452369  3240 net.cpp:434] crop2-dsn2 <- sum-dsn2-up
I1118 18:36:41.452373  3240 net.cpp:434] crop2-dsn2 <- data_augmentation_0_split_5
I1118 18:36:41.452376  3240 net.cpp:408] crop2-dsn2 -> upscore-dsn2
I1118 18:36:41.452399  3240 net.cpp:150] Setting up crop2-dsn2
I1118 18:36:41.452402  3240 net.cpp:157] Top shape: 1 1 500 500 (250000)
I1118 18:36:41.452404  3240 net.cpp:165] Memory required for data: 1148050964
I1118 18:36:41.452406  3240 layer_factory.hpp:77] Creating layer upscore-dsn2_crop2-dsn2_0_split
I1118 18:36:41.452410  3240 net.cpp:100] Creating Layer upscore-dsn2_crop2-dsn2_0_split
I1118 18:36:41.452414  3240 net.cpp:434] upscore-dsn2_crop2-dsn2_0_split <- upscore-dsn2
I1118 18:36:41.452419  3240 net.cpp:408] upscore-dsn2_crop2-dsn2_0_split -> upscore-dsn2_crop2-dsn2_0_split_0
I1118 18:36:41.452441  3240 net.cpp:408] upscore-dsn2_crop2-dsn2_0_split -> upscore-dsn2_crop2-dsn2_0_split_1
I1118 18:36:41.452447  3240 net.cpp:408] upscore-dsn2_crop2-dsn2_0_split -> upscore-dsn2_crop2-dsn2_0_split_2
I1118 18:36:41.452495  3240 net.cpp:150] Setting up upscore-dsn2_crop2-dsn2_0_split
I1118 18:36:41.452502  3240 net.cpp:157] Top shape: 1 1 500 500 (250000)
I1118 18:36:41.452505  3240 net.cpp:157] Top shape: 1 1 500 500 (250000)
I1118 18:36:41.452508  3240 net.cpp:157] Top shape: 1 1 500 500 (250000)
I1118 18:36:41.452510  3240 net.cpp:165] Memory required for data: 1151050964
I1118 18:36:41.452513  3240 layer_factory.hpp:77] Creating layer loss2-score
I1118 18:36:41.452518  3240 net.cpp:100] Creating Layer loss2-score
I1118 18:36:41.452522  3240 net.cpp:434] loss2-score <- upscore-dsn2_crop2-dsn2_0_split_0
I1118 18:36:41.452524  3240 net.cpp:434] loss2-score <- label_augmentation_1_split_4
I1118 18:36:41.452529  3240 net.cpp:408] loss2-score -> loss2-score
I1118 18:36:41.453516  3240 net.cpp:150] Setting up loss2-score
I1118 18:36:41.453526  3240 net.cpp:157] Top shape: (1)
I1118 18:36:41.453542  3240 net.cpp:160]     with loss weight 1
I1118 18:36:41.453547  3240 net.cpp:165] Memory required for data: 1151050968
I1118 18:36:41.453550  3240 layer_factory.hpp:77] Creating layer sigmoid-dsn1
I1118 18:36:41.453554  3240 net.cpp:100] Creating Layer sigmoid-dsn1
I1118 18:36:41.453557  3240 net.cpp:434] sigmoid-dsn1 <- upscore-dsn2_crop2-dsn2_0_split_1
I1118 18:36:41.453562  3240 net.cpp:408] sigmoid-dsn1 -> sigmoid-dsn1
I1118 18:36:41.454787  3240 net.cpp:150] Setting up sigmoid-dsn1
I1118 18:36:41.454797  3240 net.cpp:157] Top shape: 1 1 500 500 (250000)
I1118 18:36:41.454800  3240 net.cpp:165] Memory required for data: 1152050968
I1118 18:36:41.454802  3240 layer_factory.hpp:77] Creating layer rev-dsn1
I1118 18:36:41.454807  3240 net.cpp:100] Creating Layer rev-dsn1
I1118 18:36:41.454810  3240 net.cpp:434] rev-dsn1 <- sigmoid-dsn1
I1118 18:36:41.454816  3240 net.cpp:408] rev-dsn1 -> rev-dsn1
I1118 18:36:41.454836  3240 net.cpp:150] Setting up rev-dsn1
I1118 18:36:41.454840  3240 net.cpp:157] Top shape: 1 1 500 500 (250000)
I1118 18:36:41.454843  3240 net.cpp:165] Memory required for data: 1153050968
I1118 18:36:41.454844  3240 layer_factory.hpp:77] Creating layer tile-dsn1
I1118 18:36:41.454850  3240 net.cpp:100] Creating Layer tile-dsn1
I1118 18:36:41.454852  3240 net.cpp:434] tile-dsn1 <- rev-dsn1
I1118 18:36:41.454856  3240 net.cpp:408] tile-dsn1 -> weight-dsn1
I1118 18:36:41.454872  3240 net.cpp:150] Setting up tile-dsn1
I1118 18:36:41.454876  3240 net.cpp:157] Top shape: 1 64 500 500 (16000000)
I1118 18:36:41.454879  3240 net.cpp:165] Memory required for data: 1217050968
I1118 18:36:41.454880  3240 layer_factory.hpp:77] Creating layer prod1-dsn1
I1118 18:36:41.454885  3240 net.cpp:100] Creating Layer prod1-dsn1
I1118 18:36:41.454887  3240 net.cpp:434] prod1-dsn1 <- conv1_2_relu1_2_0_split_1
I1118 18:36:41.454890  3240 net.cpp:434] prod1-dsn1 <- weight-dsn1
I1118 18:36:41.454910  3240 net.cpp:408] prod1-dsn1 -> prod1-dsn1
I1118 18:36:41.454929  3240 net.cpp:150] Setting up prod1-dsn1
I1118 18:36:41.454932  3240 net.cpp:157] Top shape: 1 64 500 500 (16000000)
I1118 18:36:41.454936  3240 net.cpp:165] Memory required for data: 1281050968
I1118 18:36:41.454937  3240 layer_factory.hpp:77] Creating layer conv1-dsn1
I1118 18:36:41.454962  3240 net.cpp:100] Creating Layer conv1-dsn1
I1118 18:36:41.454982  3240 net.cpp:434] conv1-dsn1 <- prod1-dsn1
I1118 18:36:41.454986  3240 net.cpp:408] conv1-dsn1 -> conv1-dsn1
I1118 18:36:41.455811  3240 net.cpp:150] Setting up conv1-dsn1
I1118 18:36:41.455821  3240 net.cpp:157] Top shape: 1 64 500 500 (16000000)
I1118 18:36:41.455838  3240 net.cpp:165] Memory required for data: 1345050968
I1118 18:36:41.455844  3240 layer_factory.hpp:77] Creating layer conv2-dsn1
I1118 18:36:41.455855  3240 net.cpp:100] Creating Layer conv2-dsn1
I1118 18:36:41.455858  3240 net.cpp:434] conv2-dsn1 <- conv1-dsn1
I1118 18:36:41.455862  3240 net.cpp:408] conv2-dsn1 -> conv2-dsn1
I1118 18:36:41.457576  3240 net.cpp:150] Setting up conv2-dsn1
I1118 18:36:41.457587  3240 net.cpp:157] Top shape: 1 64 500 500 (16000000)
I1118 18:36:41.457600  3240 net.cpp:165] Memory required for data: 1409050968
I1118 18:36:41.457607  3240 layer_factory.hpp:77] Creating layer relu1-dsn1
I1118 18:36:41.457610  3240 net.cpp:100] Creating Layer relu1-dsn1
I1118 18:36:41.457613  3240 net.cpp:434] relu1-dsn1 <- conv2-dsn1
I1118 18:36:41.457619  3240 net.cpp:395] relu1-dsn1 -> conv2-dsn1 (in-place)
I1118 18:36:41.457792  3240 net.cpp:150] Setting up relu1-dsn1
I1118 18:36:41.457801  3240 net.cpp:157] Top shape: 1 64 500 500 (16000000)
I1118 18:36:41.457803  3240 net.cpp:165] Memory required for data: 1473050968
I1118 18:36:41.457806  3240 layer_factory.hpp:77] Creating layer conv3-dsn1
I1118 18:36:41.457815  3240 net.cpp:100] Creating Layer conv3-dsn1
I1118 18:36:41.457818  3240 net.cpp:434] conv3-dsn1 <- conv2-dsn1
I1118 18:36:41.457824  3240 net.cpp:408] conv3-dsn1 -> conv3-dsn1
I1118 18:36:41.458789  3240 net.cpp:150] Setting up conv3-dsn1
I1118 18:36:41.458799  3240 net.cpp:157] Top shape: 1 64 500 500 (16000000)
I1118 18:36:41.458802  3240 net.cpp:165] Memory required for data: 1537050968
I1118 18:36:41.458807  3240 layer_factory.hpp:77] Creating layer relu2-dsn1
I1118 18:36:41.458811  3240 net.cpp:100] Creating Layer relu2-dsn1
I1118 18:36:41.458813  3240 net.cpp:434] relu2-dsn1 <- conv3-dsn1
I1118 18:36:41.458819  3240 net.cpp:395] relu2-dsn1 -> conv3-dsn1 (in-place)
I1118 18:36:41.458993  3240 net.cpp:150] Setting up relu2-dsn1
I1118 18:36:41.459005  3240 net.cpp:157] Top shape: 1 64 500 500 (16000000)
I1118 18:36:41.459007  3240 net.cpp:165] Memory required for data: 1601050968
I1118 18:36:41.459010  3240 layer_factory.hpp:77] Creating layer conv4-dsn1
I1118 18:36:41.459019  3240 net.cpp:100] Creating Layer conv4-dsn1
I1118 18:36:41.459022  3240 net.cpp:434] conv4-dsn1 <- conv3-dsn1
I1118 18:36:41.459028  3240 net.cpp:408] conv4-dsn1 -> conv4-dsn1
I1118 18:36:41.461500  3240 net.cpp:150] Setting up conv4-dsn1
I1118 18:36:41.461511  3240 net.cpp:157] Top shape: 1 1 500 500 (250000)
I1118 18:36:41.461525  3240 net.cpp:165] Memory required for data: 1602050968
I1118 18:36:41.461530  3240 layer_factory.hpp:77] Creating layer sum-dsn1
I1118 18:36:41.461537  3240 net.cpp:100] Creating Layer sum-dsn1
I1118 18:36:41.461540  3240 net.cpp:434] sum-dsn1 <- conv4-dsn1
I1118 18:36:41.461545  3240 net.cpp:434] sum-dsn1 <- upscore-dsn2_crop2-dsn2_0_split_2
I1118 18:36:41.461549  3240 net.cpp:408] sum-dsn1 -> sum-dsn1
I1118 18:36:41.461572  3240 net.cpp:150] Setting up sum-dsn1
I1118 18:36:41.461576  3240 net.cpp:157] Top shape: 1 1 500 500 (250000)
I1118 18:36:41.461580  3240 net.cpp:165] Memory required for data: 1603050968
I1118 18:36:41.461581  3240 layer_factory.hpp:77] Creating layer crop2-dsn1
I1118 18:36:41.461585  3240 net.cpp:100] Creating Layer crop2-dsn1
I1118 18:36:41.461587  3240 net.cpp:434] crop2-dsn1 <- sum-dsn1
I1118 18:36:41.461591  3240 net.cpp:434] crop2-dsn1 <- data_augmentation_0_split_6
I1118 18:36:41.461596  3240 net.cpp:408] crop2-dsn1 -> upscore-dsn1
I1118 18:36:41.461616  3240 net.cpp:150] Setting up crop2-dsn1
I1118 18:36:41.461619  3240 net.cpp:157] Top shape: 1 1 500 500 (250000)
I1118 18:36:41.461621  3240 net.cpp:165] Memory required for data: 1604050968
I1118 18:36:41.461623  3240 layer_factory.hpp:77] Creating layer loss1-score
I1118 18:36:41.461632  3240 net.cpp:100] Creating Layer loss1-score
I1118 18:36:41.461634  3240 net.cpp:434] loss1-score <- upscore-dsn1
I1118 18:36:41.461637  3240 net.cpp:434] loss1-score <- label_augmentation_1_split_5
I1118 18:36:41.461640  3240 net.cpp:408] loss1-score -> loss1-score
…
I1118 18:36:41.465412  3240 net.cpp:58] Initializing net from parameters: 
name: "RAS"
state {
  phase: TEST
}
layer {
  name: "data"
  type: "ImageLabelmapData"
  top: "data"
  top: "label"
  include {
    phase: TEST
  }
  transform_param {
    mean_value: 104.00699
    mean_value: 116.66877
    mean_value: 122.67892
  }
  image_data_param {
    source: "/media/compute/homes/galberding/FleckDetect/Datasets/val.txt"
    batch_size: 1
    new_height: 500
    new_width: 500
    root_folder: "/media/compute/homes/galberding/FleckDetect/Datasets/"
    normalize: true
  }
}
layer {
  name: "conv1_1"
  type: "Convolution"
  bottom: "data"
  top: "conv1_1"
  param {
    lr_mult: 1
    decay_mult: 1
  }
  param {
    lr_mult: 2
    decay_mult: 0
  }
  convolution_param {
    num_output: 64
    pad: 1
    kernel_size: 3
    engine: CUDNN
  }
}
layer {
  name: "relu1_1"
  type: "ReLU"
  bottom: "conv1_1"
  top: "conv1_1"
}
layer {
  name: "conv1_2"
  type: "Convolution"
  bottom: "conv1_1"
  top: "conv1_2"
  param {
    lr_mult: 1
    decay_mult: 1
  }
  param {
    lr_mult: 2
    decay_mult: 0
  }
  convolution_param {
    num_output: 64
    pad: 1
    kernel_size: 3
    engine: CUDNN
  }
}
layer {
  name: "relu1_2"
  type: "ReLU"
  bottom: "conv1_2"
  top: "conv1_2"
}
layer {
  name: "pool1"
  type: "Pooling"
  bottom: "conv1_2"
  top: "pool1"
  pooling_param {
    pool: MAX
    kernel_size: 2
    stride: 2
  }
}
layer {
  name: "conv2_1"
  type: "Convolution"
  bottom: "pool1"
  top: "conv2_1"
  param {
    lr_mult: 1
    decay_mult: 1
  }
  param {
    lr_mult: 2
    decay_mult: 0
  }
  convolution_param {
    num_output: 128
    pad: 1
    kernel_size: 3
    engine: CUDNN
  }
}
layer {
  name: "relu2_1"
  type: "ReLU"
  bottom: "conv2_1"
  top: "conv2_1"
}
layer {
  name: "conv2_2"
  type: "Convolution"
  bottom: "conv2_1"
  top: "conv2_2"
  param {
    lr_mult: 1
    decay_mult: 1
  }
  param {
    lr_mult: 2
    decay_mult: 0
  }
  convolution_param {
    num_output: 128
    pad: 1
    kernel_size: 3
    engine: CUDNN
  }
}
layer {
  name: "relu2_2"
  type: "ReLU"
  bottom: "conv2_2"
  top: "conv2_2"
}
layer {
  name: "pool2"
  type: "Pooling"
  bottom: "conv2_2"
  top: "pool2"
  pooling_param {
    pool: MAX
    kernel_size: 2
    stride: 2
  }
}
layer {
  name: "conv3_1"
  type: "Convolution"
  bottom: "pool2"
  top: "conv3_1"
  param {
    lr_mult: 1
    decay_mult: 1
  }
  param {
    lr_mult: 2
    decay_mult: 0
  }
  convolution_param {
    num_output: 256
    pad: 1
    kernel_size: 3
    engine: CUDNN
  }
}
layer {
  name: "relu3_1"
  type: "ReLU"
  bottom: "conv3_1"
  top: "conv3_1"
}
layer {
  name: "conv3_2"
  type: "Convolution"
  bottom: "conv3_1"
  top: "conv3_2"
  param {
    lr_mult: 1
    decay_mult: 1
  }
  param {
    lr_mult: 2
    decay_mult: 0
  }
  convolution_param {
    num_output: 256
    pad: 1
    kernel_size: 3
    engine: CUDNN
  }
}
layer {
  name: "relu3_2"
  type: "ReLU"
  bottom: "conv3_2"
  top: "conv3_2"
}
layer {
  name: "conv3_3"
  type: "Convolution"
  bottom: "conv3_2"
  top: "conv3_3"
  param {
    lr_mult: 1
    decay_mult: 1
  }
  param {
    lr_mult: 2
    decay_mult: 0
  }
  convolution_param {
    num_output: 256
    pad: 1
    kernel_size: 3
    engine: CUDNN
  }
}
layer {
  name: "relu3_3"
  type: "ReLU"
  bottom: "conv3_3"
  top: "conv3_3"
}
layer {
  name: "pool3"
  type: "Pooling"
  bottom: "conv3_3"
  top: "pool3"
  pooling_param {
    pool: MAX
    kernel_size: 2
    stride: 2
  }
}
layer {
  name: "conv4_1"
  type: "Convolution"
  bottom: "pool3"
  top: "conv4_1"
  param {
    lr_mult: 1
    decay_mult: 1
  }
  param {
    lr_mult: 2
    decay_mult: 0
  }
  convolution_param {
    num_output: 512
    pad: 1
    kernel_size: 3
    engine: CUDNN
  }
}
layer {
  name: "relu4_1"
  type: "ReLU"
  bottom: "conv4_1"
  top: "conv4_1"
}
layer {
  name: "conv4_2"
  type: "Convolution"
  bottom: "conv4_1"
  top: "conv4_2"
  param {
    lr_mult: 1
    decay_mult: 1
  }
  param {
    lr_mult: 2
    decay_mult: 0
  }
  convolution_param {
    num_output: 512
    pad: 1
    kernel_size: 3
    engine: CUDNN
  }
}
layer {
  name: "relu4_2"
  type: "ReLU"
  bottom: "conv4_2"
  top: "conv4_2"
}
layer {
  name: "conv4_3"
  type: "Convolution"
  bottom: "conv4_2"
  top: "conv4_3"
  param {
    lr_mult: 1
    decay_mult: 1
  }
  param {
    lr_mult: 2
    decay_mult: 0
  }
  convolution_param {
    num_output: 512
    pad: 1
    kernel_size: 3
    engine: CUDNN
  }
}
layer {
  name: "relu4_3"
  type: "ReLU"
  bottom: "conv4_3"
  top: "conv4_3"
}
layer {
  name: "pool4"
  type: "Pooling"
  bottom: "conv4_3"
  top: "pool4"
  pooling_param {
    pool: MAX
    kernel_size: 3
    stride: 2
    pad: 1
  }
}
layer {
  name: "conv5_1"
  type: "Convolution"
  bottom: "pool4"
  top: "conv5_1"
  param {
    lr_mult: 1
    decay_mult: 1
  }
  param {
    lr_mult: 2
    decay_mult: 0
  }
  convolution_param {
    num_output: 512
    pad: 1
    kernel_size: 3
    engine: CUDNN
  }
}
layer {
  name: "relu5_1"
  type: "ReLU"
  bottom: "conv5_1"
  top: "conv5_1"
}
layer {
  name: "conv5_2"
  type: "Convolution"
  bottom: "conv5_1"
  top: "conv5_2"
  param {
    lr_mult: 1
    decay_mult: 1
  }
  param {
    lr_mult: 2
    decay_mult: 0
  }
  convolution_param {
    num_output: 512
    pad: 1
    kernel_size: 3
    engine: CUDNN
  }
}
layer {
  name: "relu5_2"
  type: "ReLU"
  bottom: "conv5_2"
  top: "conv5_2"
}
layer {
  name: "conv5_3"
  type: "Convolution"
  bottom: "conv5_2"
  top: "conv5_3"
  param {
    lr_mult: 1
    decay_mult: 1
  }
  param {
    lr_mult: 2
    decay_mult: 0
  }
  convolution_param {
    num_output: 512
    pad: 1
    kernel_size: 3
    engine: CUDNN
  }
}
layer {
  name: "relu5_3"
  type: "ReLU"
  bottom: "conv5_3"
  top: "conv5_3"
}
layer {
  name: "pool5"
  type: "Pooling"
  bottom: "conv5_3"
  top: "pool5"
  pooling_param {
    pool: MAX
    kernel_size: 3
    stride: 2
    pad: 1
  }
}
layer {
  name: "conv1-dsn6"
  type: "Convolution"
  bottom: "pool5"
  top: "conv1-dsn6"
  param {
    lr_mult: 1
    decay_mult: 1
  }
  param {
    lr_mult: 2
    decay_mult: 0
  }
  convolution_param {
    num_output: 256
    kernel_size: 1
    weight_filler {
      type: "gaussian"
      std: 0.01
    }
    bias_filler {
      type: "constant"
      value: 0
    }
    engine: CUDNN
  }
}
layer {
  name: "conv2-dsn6"
  type: "Convolution"
  bottom: "conv1-dsn6"
  top: "conv2-dsn6"
  param {
    lr_mult: 1
    decay_mult: 1
  }
  param {
    lr_mult: 2
    decay_mult: 0
  }
  convolution_param {
    num_output: 256
    pad: 2
    kernel_size: 5
    weight_filler {
      type: "gaussian"
      std: 0.01
    }
    bias_filler {
      type: "constant"
      value: 0
    }
    engine: CUDNN
  }
}
layer {
  name: "relu1-dsn6"
  type: "ReLU"
  bottom: "conv2-dsn6"
  top: "conv2-dsn6"
}
layer {
  name: "conv3-dsn6"
  type: "Convolution"
  bottom: "conv2-dsn6"
  top: "conv3-dsn6"
  param {
    lr_mult: 1
    decay_mult: 1
  }
  param {
    lr_mult: 2
    decay_mult: 0
  }
  convolution_param {
    num_output: 256
    pad: 2
    kernel_size: 5
    weight_filler {
      type: "gaussian"
      std: 0.01
    }
    bias_filler {
      type: "constant"
      value: 0
    }
    engine: CUDNN
  }
}
layer {
  name: "relu2-dsn6"
  type: "ReLU"
  bottom: "conv3-dsn6"
  top: "conv3-dsn6"
}
layer {
  name: "conv4-dsn6"
  type: "Convolution"
  bottom: "conv3-dsn6"
  top: "conv4-dsn6"
  param {
    lr_mult: 1
    decay_mult: 1
  }
  param {
    lr_mult: 2
    decay_mult: 0
  }
  convolution_param {
    num_output: 256
    pad: 2
    kernel_size: 5
    weight_filler {
      type: "gaussian"
      std: 0.01
    }
    bias_filler {
      type: "constant"
      value: 0
    }
    engine: CUDNN
  }
}
layer {
  name: "relu3-dsn6"
  type: "ReLU"
  bottom: "conv4-dsn6"
  top: "conv4-dsn6"
}
layer {
  name: "conv5-dsn6"
  type: "Convolution"
  bottom: "conv4-dsn6"
  top: "conv5-dsn6"
  param {
    lr_mult: 0.1
    decay_mult: 1
  }
  param {
    lr_mult: 0.2
    decay_mult: 0
  }
  convolution_param {
    num_output: 1
    kernel_size: 1
    weight_filler {
      type: "gaussian"
      std: 0.01
    }
    bias_filler {
      type: "constant"
      value: 0
    }
    engine: CUDNN
  }
}
layer {
  name: "upsample32_dsn6"
  type: "Deconvolution"
  bottom: "conv5-dsn6"
  top: "conv5-dsn6-up"
  param {
    lr_mult: 0
    decay_mult: 1
  }
  param {
    lr_mult: 0
    decay_mult: 0
  }
  convolution_param {
    num_output: 1
    kernel_size: 64
    stride: 32
  }
}
layer {
  name: "crop-dsn6"
  type: "Crop"
  bottom: "conv5-dsn6-up"
  bottom: "data"
  top: "upscore-dsn6"
}
layer {
  name: "loss6-score"
  type: "SigmoidCrossEntropyLoss"
  bottom: "upscore-dsn6"
  bottom: "label"
  top: "loss6-score"
  loss_weight: 1
}
layer {
  name: "upsample2_dsn5"
  type: "Deconvolution"
  bottom: "conv5-dsn6"
  top: "conv5-dsn6-5"
  param {
    lr_mult: 0
    decay_mult: 1
  }
  param {
    lr_mult: 0
    decay_mult: 0
  }
  convolution_param {
    num_output: 1
    kernel_size: 4
    stride: 2
  }
}
layer {
  name: "crop1-dsn5"
  type: "Crop"
  bottom: "conv5-dsn6-5"
  bottom: "conv5_3"
  top: "weight-dsn6-5"
}
layer {
  name: "sigmoid-dsn5"
  type: "Sigmoid"
  bottom: "weight-dsn6-5"
  top: "sigmoid-dsn5"
}
layer {
  name: "rev-dsn5"
  type: "Power"
  bottom: "sigmoid-dsn5"
  top: "rev-dsn5"
  power_param {
    power: 1
    scale: -1
    shift: 1
  }
}
layer {
  name: "tile-dsn5"
  type: "Tile"
  bottom: "rev-dsn5"
  top: "weight-dsn5"
  tile_param {
    tiles: 512
  }
}
layer {
  name: "prod1-dsn5"
  type: "Eltwise"
  bottom: "conv5_3"
  bottom: "weight-dsn5"
  top: "prod1-dsn5"
  eltwise_param {
    operation: PROD
  }
}
layer {
  name: "conv1-dsn5"
  type: "Convolution"
  bottom: "prod1-dsn5"
  top: "conv1-dsn5"
  param {
    lr_mult: 1
    decay_mult: 1
  }
  param {
    lr_mult: 2
    decay_mult: 0
  }
  convolution_param {
    num_output: 64
    kernel_size: 1
    weight_filler {
      type: "gaussian"
      std: 0.01
    }
    bias_filler {
      type: "constant"
      value: 0
    }
    engine: CUDNN
  }
}
layer {
  name: "conv2-dsn5"
  type: "Convolution"
  bottom: "conv1-dsn5"
  top: "conv2-dsn5"
  param {
    lr_mult: 1
    decay_mult: 1
  }
  param {
    lr_mult: 2
    decay_mult: 0
  }
  convolution_param {
    num_output: 64
    pad: 1
    kernel_size: 3
    weight_filler {
      type: "gaussian"
      std: 0.01
    }
    bias_filler {
      type: "constant"
      value: 0
    }
    engine: CUDNN
  }
}
layer {
  name: "relu1-dsn5"
  type: "ReLU"
  bottom: "conv2-dsn5"
  top: "conv2-dsn5"
}
layer {
  name: "conv3-dsn5"
  type: "Convolution"
  bottom: "conv2-dsn5"
  top: "conv3-dsn5"
  param {
    lr_mult: 1
    decay_mult: 1
  }
  param {
    lr_mult: 2
    decay_mult: 0
  }
  convolution_param {
    num_output: 64
    pad: 1
    kernel_size: 3
    weight_filler {
      type: "gaussian"
      std: 0.01
    }
    bias_filler {
      type: "constant"
      value: 0
    }
    engine: CUDNN
  }
}
layer {
  name: "relu2-dsn5"
  type: "ReLU"
  bottom: "conv3-dsn5"
  top: "conv3-dsn5"
}
layer {
  name: "conv4-dsn5"
  type: "Convolution"
  bottom: "conv3-dsn5"
  top: "conv4-dsn5"
  param {
    lr_mult: 1
    decay_mult: 1
  }
  param {
    lr_mult: 2
    decay_mult: 0
  }
  convolution_param {
    num_output: 1
    pad: 1
    kernel_size: 3
    weight_filler {
      type: "gaussian"
      std: 0.01
    }
    bias_filler {
      type: "constant"
      value: 0
    }
    engine: CUDNN
  }
}
layer {
  name: "sum-dsn5"
  type: "Eltwise"
  bottom: "conv4-dsn5"
  bottom: "weight-dsn6-5"
  top: "sum-dsn5"
  eltwise_param {
    operation: SUM
  }
}
layer {
  name: "upsample16_dsn5"
  type: "Deconvolution"
  bottom: "sum-dsn5"
  top: "sum-dsn5-up"
  param {
    lr_mult: 0
    decay_mult: 1
  }
  param {
    lr_mult: 0
    decay_mult: 0
  }
  convolution_param {
    num_output: 1
    kernel_size: 32
    stride: 16
  }
}
layer {
  name: "crop2-dsn5"
  type: "Crop"
  bottom: "sum-dsn5-up"
  bottom: "data"
  top: "upscore-dsn5"
}
layer {
  name: "loss5-score"
  type: "SigmoidCrossEntropyLoss"
  bottom: "upscore-dsn5"
  bottom: "label"
  top: "loss5-score"
  loss_weight: 1
}
layer {
  name: "upsample2_dsn4"
  type: "Deconvolution"
  bottom: "sum-dsn5"
  top: "sum-dsn5-4"
  param {
    lr_mult: 0
    decay_mult: 1
  }
  param {
    lr_mult: 0
    decay_mult: 0
  }
  convolution_param {
    num_output: 1
    kernel_size: 4
    stride: 2
  }
}
layer {
  name: "crop1-dsn4"
  type: "Crop"
  bottom: "sum-dsn5-4"
  bottom: "conv4_3"
  top: "weight-dsn5-4"
}
layer {
  name: "sigmoid-dsn4"
  type: "Sigmoid"
  bottom: "weight-dsn5-4"
  top: "sigmoid-dsn4"
}
layer {
  name: "rev-dsn4"
  type: "Power"
  bottom: "sigmoid-dsn4"
  top: "rev-dsn4"
  power_param {
    power: 1
    scale: -1
    shift: 1
  }
}
layer {
  name: "tile-dsn4"
  type: "Tile"
  bottom: "rev-dsn4"
  top: "weight-dsn4"
  tile_param {
    tiles: 512
  }
}
layer {
  name: "prod1-dsn4"
  type: "Eltwise"
  bottom: "conv4_3"
  bottom: "weight-dsn4"
  top: "prod1-dsn4"
  eltwise_param {
    operation: PROD
  }
}
layer {
  name: "conv1-dsn4"
  type: "Convolution"
  bottom: "prod1-dsn4"
  top: "conv1-dsn4"
  param {
    lr_mult: 1
    decay_mult: 1
  }
  param {
    lr_mult: 2
    decay_mult: 0
  }
  convolution_param {
    num_output: 64
    kernel_size: 1
    weight_filler {
      type: "gaussian"
      std: 0.01
    }
    bias_filler {
      type: "constant"
      value: 0
    }
    engine: CUDNN
  }
}
layer {
  name: "conv2-dsn4"
  type: "Convolution"
  bottom: "conv1-dsn4"
  top: "conv2-dsn4"
  param {
    lr_mult: 1
    decay_mult: 1
  }
  param {
    lr_mult: 2
    decay_mult: 0
  }
  convolution_param {
    num_output: 64
    pad: 1
    kernel_size: 3
    weight_filler {
      type: "gaussian"
      std: 0.01
    }
    bias_filler {
      type: "constant"
      value: 0
    }
    engine: CUDNN
  }
}
layer {
  name: "relu1-dsn4"
  type: "ReLU"
  bottom: "conv2-dsn4"
  top: "conv2-dsn4"
}
layer {
  name: "conv3-dsn4"
  type: "Convolution"
  bottom: "conv2-dsn4"
  top: "conv3-dsn4"
  param {
    lr_mult: 1
    decay_mult: 1
  }
  param {
    lr_mult: 2
    decay_mult: 0
  }
  convolution_param {
    num_output: 64
    pad: 1
    kernel_size: 3
    weight_filler {
      type: "gaussian"
      std: 0.01
    }
    bias_filler {
      type: "constant"
      value: 0
    }
    engine: CUDNN
  }
}
layer {
  name: "relu2-dsn4"
  type: "ReLU"
  bottom: "conv3-dsn4"
  top: "conv3-dsn4"
}
layer {
  name: "conv4-dsn4"
  type: "Convolution"
  bottom: "conv3-dsn4"
  top: "conv4-dsn4"
  param {
    lr_mult: 1
    decay_mult: 1
  }
  param {
    lr_mult: 2
    decay_mult: 0
  }
  convolution_param {
    num_output: 1
    pad: 1
    kernel_size: 3
    weight_filler {
      type: "gaussian"
      std: 0.01
    }
    bias_filler {
      type: "constant"
      value: 0
    }
    engine: CUDNN
  }
}
layer {
  name: "sum-dsn4"
  type: "Eltwise"
  bottom: "conv4-dsn4"
  bottom: "weight-dsn5-4"
  top: "sum-dsn4"
  eltwise_param {
    operation: SUM
  }
}
layer {
  name: "upsample8_dsn4"
  type: "Deconvolution"
  bottom: "sum-dsn4"
  top: "sum-dsn4-up"
  param {
    lr_mult: 0
    decay_mult: 1
  }
  param {
    lr_mult: 0
    decay_mult: 0
  }
  convolution_param {
    num_output: 1
    kernel_size: 16
    stride: 8
  }
}
layer {
  name: "crop2-dsn4"
  type: "Crop"
  bottom: "sum-dsn4-up"
  bottom: "data"
  top: "upscore-dsn4"
}
layer {
  name: "loss4-score"
  type: "SigmoidCrossEntropyLoss"
  bottom: "upscore-dsn4"
  bottom: "label"
  top: "loss4-score"
  loss_weight: 1
}
layer {
  name: "upsample2_dsn3"
  type: "Deconvolution"
  bottom: "sum-dsn4"
  top: "sum-dsn4-3"
  param {
    lr_mult: 0
    decay_mult: 1
  }
  param {
    lr_mult: 0
    decay_mult: 0
  }
  convolution_param {
    num_output: 1
    kernel_size: 4
    stride: 2
  }
}
layer {
  name: "crop1-dsn3"
  type: "Crop"
  bottom: "sum-dsn4-3"
  bottom: "conv3_3"
  top: "weight-dsn4-3"
}
layer {
  name: "sigmoid-dsn3"
  type: "Sigmoid"
  bottom: "weight-dsn4-3"
  top: "sigmoid-dsn3"
}
layer {
  name: "rev-dsn3"
  type: "Power"
  bottom: "sigmoid-dsn3"
  top: "rev-dsn3"
  power_param {
    power: 1
    scale: -1
    shift: 1
  }
}
layer {
  name: "tile-dsn3"
  type: "Tile"
  bottom: "rev-dsn3"
  top: "weight-dsn3"
  tile_param {
    tiles: 256
  }
}
layer {
  name: "prod1-dsn3"
  type: "Eltwise"
  bottom: "conv3_3"
  bottom: "weight-dsn3"
  top: "prod1-dsn3"
  eltwise_param {
    operation: PROD
  }
}
layer {
  name: "conv1-dsn3"
  type: "Convolution"
  bottom: "prod1-dsn3"
  top: "conv1-dsn3"
  param {
    lr_mult: 1
    decay_mult: 1
  }
  param {
    lr_mult: 2
    decay_mult: 0
  }
  convolution_param {
    num_output: 64
    kernel_size: 1
    weight_filler {
      type: "gaussian"
      std: 0.01
    }
    bias_filler {
      type: "constant"
      value: 0
    }
    engine: CUDNN
  }
}
layer {
  name: "conv2-dsn3"
  type: "Convolution"
  bottom: "conv1-dsn3"
  top: "conv2-dsn3"
  param {
    lr_mult: 1
    decay_mult: 1
  }
  param {
    lr_mult: 2
    decay_mult: 0
  }
  convolution_param {
    num_output: 64
    pad: 1
    kernel_size: 3
    weight_filler {
      type: "gaussian"
      std: 0.01
    }
    bias_filler {
      type: "constant"
      value: 0
    }
    engine: CUDNN
  }
}
layer {
  name: "relu1-dsn3"
  type: "ReLU"
  bottom: "conv2-dsn3"
  top: "conv2-dsn3"
}
layer {
  name: "conv3-dsn3"
  type: "Convolution"
  bottom: "conv2-dsn3"
  top: "conv3-dsn3"
  param {
    lr_mult: 1
    decay_mult: 1
  }
  param {
    lr_mult: 2
    decay_mult: 0
  }
  convolution_param {
    num_output: 64
    pad: 1
    kernel_size: 3
    weight_filler {
      type: "gaussian"
      std: 0.01
    }
    bias_filler {
      type: "constant"
      value: 0
    }
    engine: CUDNN
  }
}
layer {
  name: "relu2-dsn3"
  type: "ReLU"
  bottom: "conv3-dsn3"
  top: "conv3-dsn3"
}
layer {
  name: "conv4-dsn3"
  type: "Convolution"
  bottom: "conv3-dsn3"
  top: "conv4-dsn3"
  param {
    lr_mult: 1
    decay_mult: 1
  }
  param {
    lr_mult: 2
    decay_mult: 0
  }
  convolution_param {
    num_output: 1
    pad: 1
    kernel_size: 3
    weight_filler {
      type: "gaussian"
      std: 0.01
    }
    bias_filler {
      type: "constant"
      value: 0
    }
    engine: CUDNN
  }
}
layer {
  name: "sum-dsn3"
  type: "Eltwise"
  bottom: "conv4-dsn3"
  bottom: "weight-dsn4-3"
  top: "sum-dsn3"
  eltwise_param {
    operation: SUM
  }
}
layer {
  name: "upsample4_dsn3"
  type: "Deconvolution"
  bottom: "sum-dsn3"
  top: "sum-dsn3-up"
  param {
    lr_mult: 0
    decay_mult: 1
  }
  param {
    lr_mult: 0
    decay_mult: 0
  }
  convolution_param {
    num_output: 1
    kernel_size: 8
    stride: 4
  }
}
layer {
  name: "crop2-dsn3"
  type: "Crop"
  bottom: "sum-dsn3-up"
  bottom: "data"
  top: "upscore-dsn3"
}
layer {
  name: "loss3-score"
  type: "SigmoidCrossEntropyLoss"
  bottom: "upscore-dsn3"
  bottom: "label"
  top: "loss3-score"
  loss_weight: 1
}
layer {
  name: "upsample2_1-dsn2"
  type: "Deconvolution"
  bottom: "sum-dsn3"
  top: "sum-dsn3-2"
  param {
    lr_mult: 0
    decay_mult: 1
  }
  param {
    lr_mult: 0
    decay_mult: 0
  }
  convolution_param {
    num_output: 1
    kernel_size: 4
    stride: 2
  }
}
layer {
  name: "crop1-dsn2"
  type: "Crop"
  bottom: "sum-dsn3-2"
  bottom: "conv2_2"
  top: "weight-dsn3-2"
}
layer {
  name: "sigmoid-dsn2"
  type: "Sigmoid"
  bottom: "weight-dsn3-2"
  top: "sigmoid-dsn2"
}
layer {
  name: "rev-dsn2"
  type: "Power"
  bottom: "sigmoid-dsn2"
  top: "rev-dsn2"
  power_param {
    power: 1
    scale: -1
    shift: 1
  }
}
layer {
  name: "tile-dsn2"
  type: "Tile"
  bottom: "rev-dsn2"
  top: "weight-dsn2"
  tile_param {
    tiles: 128
  }
}
layer {
  name: "prod1-dsn2"
  type: "Eltwise"
  bottom: "conv2_2"
  bottom: "weight-dsn2"
  top: "prod1-dsn2"
  eltwise_param {
    operation: PROD
  }
}
layer {
  name: "conv1-dsn2"
  type: "Convolution"
  bottom: "prod1-dsn2"
  top: "conv1-dsn2"
  param {
    lr_mult: 1
    decay_mult: 1
  }
  param {
    lr_mult: 2
    decay_mult: 0
  }
  convolution_param {
    num_output: 64
    kernel_size: 1
    weight_filler {
      type: "gaussian"
      std: 0.01
    }
    bias_filler {
      type: "constant"
      value: 0
    }
    engine: CUDNN
  }
}
layer {
  name: "conv2-dsn2"
  type: "Convolution"
  bottom: "conv1-dsn2"
  top: "conv2-dsn2"
  param {
    lr_mult: 1
    decay_mult: 1
  }
  param {
    lr_mult: 2
    decay_mult: 0
  }
  convolution_param {
    num_output: 64
    pad: 1
    kernel_size: 3
    weight_filler {
      type: "gaussian"
      std: 0.01
    }
    bias_filler {
      type: "constant"
      value: 0
    }
    engine: CUDNN
  }
}
layer {
  name: "relu1-dsn2"
  type: "ReLU"
  bottom: "conv2-dsn2"
  top: "conv2-dsn2"
}
layer {
  name: "conv3-dsn2"
  type: "Convolution"
  bottom: "conv2-dsn2"
  top: "conv3-dsn2"
  param {
    lr_mult: 1
    decay_mult: 1
  }
  param {
    lr_mult: 2
    decay_mult: 0
  }
  convolution_param {
    num_output: 64
    pad: 1
    kernel_size: 3
    weight_filler {
      type: "gaussian"
      std: 0.01
    }
    bias_filler {
      type: "constant"
      value: 0
    }
    engine: CUDNN
  }
}
layer {
  name: "relu2-dsn2"
  type: "ReLU"
  bottom: "conv3-dsn2"
  top: "conv3-dsn2"
}
layer {
  name: "conv4-dsn2"
  type: "Convolution"
  bottom: "conv3-dsn2"
  top: "conv4-dsn2"
  param {
    lr_mult: 1
    decay_mult: 1
  }
  param {
    lr_mult: 2
    decay_mult: 0
  }
  convolution_param {
    num_output: 1
    pad: 1
    kernel_size: 3
    weight_filler {
      type: "gaussian"
      std: 0.01
    }
    bias_filler {
      type: "constant"
      value: 0
    }
    engine: CUDNN
  }
}
layer {
  name: "sum-dsn2"
  type: "Eltwise"
  bottom: "conv4-dsn2"
  bottom: "weight-dsn3-2"
  top: "sum-dsn2"
  eltwise_param {
    operation: SUM
  }
}
layer {
  name: "upsample2_2-dsn2"
  type: "Deconvolution"
  bottom: "sum-dsn2"
  top: "sum-dsn2-up"
  param {
    lr_mult: 0
    decay_mult: 1
  }
  param {
    lr_mult: 0
    decay_mult: 0
  }
  convolution_param {
    num_output: 1
    kernel_size: 4
    stride: 2
  }
}
layer {
  name: "crop2-dsn2"
  type: "Crop"
  bottom: "sum-dsn2-up"
  bottom: "data"
  top: "upscore-dsn2"
}
layer {
  name: "loss2-score"
  type: "SigmoidCrossEntropyLoss"
  bottom: "upscore-dsn2"
  bottom: "label"
  top: "loss2-score"
  loss_weight: 1
}
layer {
  name: "sigmoid-dsn1"
  type: "Sigmoid"
  bottom: "upscore-dsn2"
  top: "sigmoid-dsn1"
}
layer {
  name: "rev-dsn1"
  type: "Power"
  bottom: "sigmoid-dsn1"
  top: "rev-dsn1"
  power_param {
    power: 1
    scale: -1
    shift: 1
  }
}
layer {
  name: "tile-dsn1"
  type: "Tile"
  bottom: "rev-dsn1"
  top: "weight-dsn1"
  tile_param {
    tiles: 64
  }
}
layer {
  name: "prod1-dsn1"
  type: "Eltwise"
  bottom: "conv1_2"
  bottom: "weight-dsn1"
  top: "prod1-dsn1"
  eltwise_param {
    operation: PROD
  }
}
layer {
  name: "conv1-dsn1"
  type: "Convolution"
  bottom: "prod1-dsn1"
  top: "conv1-dsn1"
  param {
    lr_mult: 1
    decay_mult: 1
  }
  param {
    lr_mult: 2
    decay_mult: 0
  }
  convolution_param {
    num_output: 64
    kernel_size: 1
    weight_filler {
      type: "gaussian"
      std: 0.01
    }
    bias_filler {
      type: "constant"
      value: 0
    }
    engine: CUDNN
  }
}
layer {
  name: "conv2-dsn1"
  type: "Convolution"
  bottom: "conv1-dsn1"
  top: "conv2-dsn1"
  param {
    lr_mult: 1
    decay_mult: 1
  }
  param {
    lr_mult: 2
    decay_mult: 0
  }
  convolution_param {
    num_output: 64
    pad: 1
    kernel_size: 3
    weight_filler {
      type: "gaussian"
      std: 0.01
    }
    bias_filler {
      type: "constant"
      value: 0
    }
    engine: CUDNN
  }
}
layer {
  name: "relu1-dsn1"
  type: "ReLU"
  bottom: "conv2-dsn1"
  top: "conv2-dsn1"
}
layer {
  name: "conv3-dsn1"
  type: "Convolution"
  bottom: "conv2-dsn1"
  top: "conv3-dsn1"
  param {
    lr_mult: 1
    decay_mult: 1
  }
  param {
    lr_mult: 2
    decay_mult: 0
  }
  convolution_param {
    num_output: 64
    pad: 1
    kernel_size: 3
    weight_filler {
      type: "gaussian"
      std: 0.01
    }
    bias_filler {
      type: "constant"
      value: 0
    }
    engine: CUDNN
  }
}
layer {
  name: "relu2-dsn1"
  type: "ReLU"
  bottom: "conv3-dsn1"
  top: "conv3-dsn1"
}
layer {
  name: "conv4-dsn1"
  type: "Convolution"
  bottom: "conv3-dsn1"
  top: "conv4-dsn1"
  param {
    lr_mult: 1
    decay_mult: 1
  }
  param {
    lr_mult: 2
    decay_mult: 0
  }
  convolution_param {
    num_output: 1
    pad: 1
    kernel_size: 3
    weight_filler {
      type: "gaussian"
      std: 0.01
    }
    bias_filler {
      type: "constant"
      value: 0
    }
    engine: CUDNN
  }
}
layer {
  name: "sum-dsn1"
  type: "Eltwise"
  bottom: "conv4-dsn1"
  bottom: "upscore-dsn2"
  top: "sum-dsn1"
  eltwise_param {
    operation: SUM
  }
}
layer {
  name: "crop2-dsn1"
  type: "Crop"
  bottom: "sum-dsn1"
  bottom: "data"
  top: "upscore-dsn1"
}
layer {
  name: "loss1-score"
  type: "SigmoidCrossEntropyLoss"
  bottom: "upscore-dsn1"
  bottom: "label"
  top: "loss1-score"
  loss_weight: 1
}
I1118 18:36:41.465800  3240 layer_factory.hpp:77] Creating layer data
I1118 18:36:41.465814  3240 net.cpp:100] Creating Layer data
I1118 18:36:41.465818  3240 net.cpp:408] data -> data
I1118 18:36:41.465826  3240 net.cpp:408] data -> label
I1118 18:36:41.465833  3240 image_labelmap_data_layer.cpp:41] Opening file /media/compute/homes/galberding/FleckDetect/Datasets/val.txt
I1118 18:36:41.467869  3240 image_labelmap_data_layer.cpp:56] A total of 1200 images.
I1118 18:36:41.483095  3240 image_labelmap_data_layer.cpp:110] output data size: 1,3,500,500
I1118 18:36:41.483105  3240 image_labelmap_data_layer.cpp:113] output label size: 1,1,500,500
I1118 18:36:41.490384  3240 net.cpp:150] Setting up data
I1118 18:36:41.490396  3240 net.cpp:157] Top shape: 1 3 500 500 (750000)
I1118 18:36:41.490401  3240 net.cpp:157] Top shape: 1 1 500 500 (250000)
I1118 18:36:41.490402  3240 net.cpp:165] Memory required for data: 4000000
I1118 18:36:41.490406  3240 layer_factory.hpp:77] Creating layer data_data_0_split
I1118 18:36:41.490413  3240 net.cpp:100] Creating Layer data_data_0_split
I1118 18:36:41.490417  3240 net.cpp:434] data_data_0_split <- data
I1118 18:36:41.490422  3240 net.cpp:408] data_data_0_split -> data_data_0_split_0
I1118 18:36:41.490429  3240 net.cpp:408] data_data_0_split -> data_data_0_split_1
I1118 18:36:41.490434  3240 net.cpp:408] data_data_0_split -> data_data_0_split_2
I1118 18:36:41.490440  3240 net.cpp:408] data_data_0_split -> data_data_0_split_3
I1118 18:36:41.490444  3240 net.cpp:408] data_data_0_split -> data_data_0_split_4
I1118 18:36:41.490448  3240 net.cpp:408] data_data_0_split -> data_data_0_split_5
I1118 18:36:41.490453  3240 net.cpp:408] data_data_0_split -> data_data_0_split_6
I1118 18:36:41.490559  3240 net.cpp:150] Setting up data_data_0_split
I1118 18:36:41.490566  3240 net.cpp:157] Top shape: 1 3 500 500 (750000)
I1118 18:36:41.490569  3240 net.cpp:157] Top shape: 1 3 500 500 (750000)
I1118 18:36:41.490572  3240 net.cpp:157] Top shape: 1 3 500 500 (750000)
I1118 18:36:41.490576  3240 net.cpp:157] Top shape: 1 3 500 500 (750000)
I1118 18:36:41.490578  3240 net.cpp:157] Top shape: 1 3 500 500 (750000)
I1118 18:36:41.490581  3240 net.cpp:157] Top shape: 1 3 500 500 (750000)
I1118 18:36:41.490584  3240 net.cpp:157] Top shape: 1 3 500 500 (750000)
I1118 18:36:41.490586  3240 net.cpp:165] Memory required for data: 25000000
I1118 18:36:41.490588  3240 layer_factory.hpp:77] Creating layer label_data_1_split
I1118 18:36:41.490593  3240 net.cpp:100] Creating Layer label_data_1_split
I1118 18:36:41.490595  3240 net.cpp:434] label_data_1_split <- label
I1118 18:36:41.490600  3240 net.cpp:408] label_data_1_split -> label_data_1_split_0
I1118 18:36:41.490604  3240 net.cpp:408] label_data_1_split -> label_data_1_split_1
I1118 18:36:41.490609  3240 net.cpp:408] label_data_1_split -> label_data_1_split_2
I1118 18:36:41.490613  3240 net.cpp:408] label_data_1_split -> label_data_1_split_3
I1118 18:36:41.490618  3240 net.cpp:408] label_data_1_split -> label_data_1_split_4
I1118 18:36:41.490622  3240 net.cpp:408] label_data_1_split -> label_data_1_split_5
I1118 18:36:41.490700  3240 net.cpp:150] Setting up label_data_1_split
I1118 18:36:41.490705  3240 net.cpp:157] Top shape: 1 1 500 500 (250000)
I1118 18:36:41.490707  3240 net.cpp:157] Top shape: 1 1 500 500 (250000)
I1118 18:36:41.490710  3240 net.cpp:157] Top shape: 1 1 500 500 (250000)
I1118 18:36:41.490713  3240 net.cpp:157] Top shape: 1 1 500 500 (250000)
I1118 18:36:41.490716  3240 net.cpp:157] Top shape: 1 1 500 500 (250000)
I1118 18:36:41.490720  3240 net.cpp:157] Top shape: 1 1 500 500 (250000)
I1118 18:36:41.490721  3240 net.cpp:165] Memory required for data: 31000000
I1118 18:36:41.490723  3240 layer_factory.hpp:77] Creating layer conv1_1
I1118 18:36:41.490731  3240 net.cpp:100] Creating Layer conv1_1
I1118 18:36:41.490732  3240 net.cpp:434] conv1_1 <- data_data_0_split_0
I1118 18:36:41.490737  3240 net.cpp:408] conv1_1 -> conv1_1
I1118 18:36:41.491770  3240 net.cpp:150] Setting up conv1_1
I1118 18:36:41.491781  3240 net.cpp:157] Top shape: 1 64 500 500 (16000000)
I1118 18:36:41.491799  3240 net.cpp:165] Memory required for data: 95000000
I1118 18:36:41.491808  3240 layer_factory.hpp:77] Creating layer relu1_1
I1118 18:36:41.491814  3240 net.cpp:100] Creating Layer relu1_1
I1118 18:36:41.491817  3240 net.cpp:434] relu1_1 <- conv1_1
I1118 18:36:41.491822  3240 net.cpp:395] relu1_1 -> conv1_1 (in-place)
I1118 18:36:41.491971  3240 net.cpp:150] Setting up relu1_1
I1118 18:36:41.491979  3240 net.cpp:157] Top shape: 1 64 500 500 (16000000)
I1118 18:36:41.491981  3240 net.cpp:165] Memory required for data: 159000000
I1118 18:36:41.492000  3240 layer_factory.hpp:77] Creating layer conv1_2
I1118 18:36:41.492007  3240 net.cpp:100] Creating Layer conv1_2
I1118 18:36:41.492009  3240 net.cpp:434] conv1_2 <- conv1_1
I1118 18:36:41.492014  3240 net.cpp:408] conv1_2 -> conv1_2
I1118 18:36:41.493497  3240 net.cpp:150] Setting up conv1_2
I1118 18:36:41.493507  3240 net.cpp:157] Top shape: 1 64 500 500 (16000000)
I1118 18:36:41.493526  3240 net.cpp:165] Memory required for data: 223000000
I1118 18:36:41.493532  3240 layer_factory.hpp:77] Creating layer relu1_2
I1118 18:36:41.493537  3240 net.cpp:100] Creating Layer relu1_2
I1118 18:36:41.493539  3240 net.cpp:434] relu1_2 <- conv1_2
I1118 18:36:41.493544  3240 net.cpp:395] relu1_2 -> conv1_2 (in-place)
I1118 18:36:41.493609  3240 net.cpp:150] Setting up relu1_2
I1118 18:36:41.493616  3240 net.cpp:157] Top shape: 1 64 500 500 (16000000)
I1118 18:36:41.493618  3240 net.cpp:165] Memory required for data: 287000000
I1118 18:36:41.493623  3240 layer_factory.hpp:77] Creating layer conv1_2_relu1_2_0_split
I1118 18:36:41.493626  3240 net.cpp:100] Creating Layer conv1_2_relu1_2_0_split
I1118 18:36:41.493628  3240 net.cpp:434] conv1_2_relu1_2_0_split <- conv1_2
I1118 18:36:41.493633  3240 net.cpp:408] conv1_2_relu1_2_0_split -> conv1_2_relu1_2_0_split_0
I1118 18:36:41.493638  3240 net.cpp:408] conv1_2_relu1_2_0_split -> conv1_2_relu1_2_0_split_1
I1118 18:36:41.493669  3240 net.cpp:150] Setting up conv1_2_relu1_2_0_split
I1118 18:36:41.493675  3240 net.cpp:157] Top shape: 1 64 500 500 (16000000)
I1118 18:36:41.493679  3240 net.cpp:157] Top shape: 1 64 500 500 (16000000)
I1118 18:36:41.493680  3240 net.cpp:165] Memory required for data: 415000000
I1118 18:36:41.493683  3240 layer_factory.hpp:77] Creating layer pool1
I1118 18:36:41.493690  3240 net.cpp:100] Creating Layer pool1
I1118 18:36:41.493691  3240 net.cpp:434] pool1 <- conv1_2_relu1_2_0_split_0
I1118 18:36:41.493696  3240 net.cpp:408] pool1 -> pool1
I1118 18:36:41.493724  3240 net.cpp:150] Setting up pool1
I1118 18:36:41.493744  3240 net.cpp:157] Top shape: 1 64 250 250 (4000000)
I1118 18:36:41.493747  3240 net.cpp:165] Memory required for data: 431000000
I1118 18:36:41.493749  3240 layer_factory.hpp:77] Creating layer conv2_1
I1118 18:36:41.493755  3240 net.cpp:100] Creating Layer conv2_1
I1118 18:36:41.493758  3240 net.cpp:434] conv2_1 <- pool1
I1118 18:36:41.493762  3240 net.cpp:408] conv2_1 -> conv2_1
I1118 18:36:41.494439  3240 net.cpp:150] Setting up conv2_1
I1118 18:36:41.494449  3240 net.cpp:157] Top shape: 1 128 250 250 (8000000)
I1118 18:36:41.494467  3240 net.cpp:165] Memory required for data: 463000000
I1118 18:36:41.494474  3240 layer_factory.hpp:77] Creating layer relu2_1
I1118 18:36:41.494479  3240 net.cpp:100] Creating Layer relu2_1
I1118 18:36:41.494482  3240 net.cpp:434] relu2_1 <- conv2_1
I1118 18:36:41.494487  3240 net.cpp:395] relu2_1 -> conv2_1 (in-place)
I1118 18:36:41.494549  3240 net.cpp:150] Setting up relu2_1
I1118 18:36:41.494556  3240 net.cpp:157] Top shape: 1 128 250 250 (8000000)
I1118 18:36:41.494558  3240 net.cpp:165] Memory required for data: 495000000
I1118 18:36:41.494560  3240 layer_factory.hpp:77] Creating layer conv2_2
I1118 18:36:41.494566  3240 net.cpp:100] Creating Layer conv2_2
I1118 18:36:41.494570  3240 net.cpp:434] conv2_2 <- conv2_1
I1118 18:36:41.494573  3240 net.cpp:408] conv2_2 -> conv2_2
I1118 18:36:41.497292  3240 net.cpp:150] Setting up conv2_2
I1118 18:36:41.497323  3240 net.cpp:157] Top shape: 1 128 250 250 (8000000)
I1118 18:36:41.497326  3240 net.cpp:165] Memory required for data: 527000000
I1118 18:36:41.497332  3240 layer_factory.hpp:77] Creating layer relu2_2
I1118 18:36:41.497336  3240 net.cpp:100] Creating Layer relu2_2
I1118 18:36:41.497339  3240 net.cpp:434] relu2_2 <- conv2_2
I1118 18:36:41.497344  3240 net.cpp:395] relu2_2 -> conv2_2 (in-place)
I1118 18:36:41.497407  3240 net.cpp:150] Setting up relu2_2
I1118 18:36:41.497414  3240 net.cpp:157] Top shape: 1 128 250 250 (8000000)
I1118 18:36:41.497416  3240 net.cpp:165] Memory required for data: 559000000
I1118 18:36:41.497419  3240 layer_factory.hpp:77] Creating layer conv2_2_relu2_2_0_split
I1118 18:36:41.497424  3240 net.cpp:100] Creating Layer conv2_2_relu2_2_0_split
I1118 18:36:41.497426  3240 net.cpp:434] conv2_2_relu2_2_0_split <- conv2_2
I1118 18:36:41.497431  3240 net.cpp:408] conv2_2_relu2_2_0_split -> conv2_2_relu2_2_0_split_0
I1118 18:36:41.497437  3240 net.cpp:408] conv2_2_relu2_2_0_split -> conv2_2_relu2_2_0_split_1
I1118 18:36:41.497442  3240 net.cpp:408] conv2_2_relu2_2_0_split -> conv2_2_relu2_2_0_split_2
I1118 18:36:41.497481  3240 net.cpp:150] Setting up conv2_2_relu2_2_0_split
I1118 18:36:41.497486  3240 net.cpp:157] Top shape: 1 128 250 250 (8000000)
I1118 18:36:41.497489  3240 net.cpp:157] Top shape: 1 128 250 250 (8000000)
I1118 18:36:41.497493  3240 net.cpp:157] Top shape: 1 128 250 250 (8000000)
I1118 18:36:41.497494  3240 net.cpp:165] Memory required for data: 655000000
I1118 18:36:41.497496  3240 layer_factory.hpp:77] Creating layer pool2
I1118 18:36:41.497501  3240 net.cpp:100] Creating Layer pool2
I1118 18:36:41.497504  3240 net.cpp:434] pool2 <- conv2_2_relu2_2_0_split_0
I1118 18:36:41.497509  3240 net.cpp:408] pool2 -> pool2
I1118 18:36:41.497551  3240 net.cpp:150] Setting up pool2
I1118 18:36:41.497556  3240 net.cpp:157] Top shape: 1 128 125 125 (2000000)
I1118 18:36:41.497558  3240 net.cpp:165] Memory required for data: 663000000
I1118 18:36:41.497560  3240 layer_factory.hpp:77] Creating layer conv3_1
I1118 18:36:41.497566  3240 net.cpp:100] Creating Layer conv3_1
I1118 18:36:41.497570  3240 net.cpp:434] conv3_1 <- pool2
I1118 18:36:41.497573  3240 net.cpp:408] conv3_1 -> conv3_1
I1118 18:36:41.498363  3240 net.cpp:150] Setting up conv3_1
I1118 18:36:41.498373  3240 net.cpp:157] Top shape: 1 256 125 125 (4000000)
I1118 18:36:41.498376  3240 net.cpp:165] Memory required for data: 679000000
I1118 18:36:41.498385  3240 layer_factory.hpp:77] Creating layer relu3_1
I1118 18:36:41.498392  3240 net.cpp:100] Creating Layer relu3_1
I1118 18:36:41.498395  3240 net.cpp:434] relu3_1 <- conv3_1
I1118 18:36:41.498400  3240 net.cpp:395] relu3_1 -> conv3_1 (in-place)
I1118 18:36:41.498544  3240 net.cpp:150] Setting up relu3_1
I1118 18:36:41.498553  3240 net.cpp:157] Top shape: 1 256 125 125 (4000000)
I1118 18:36:41.498555  3240 net.cpp:165] Memory required for data: 695000000
I1118 18:36:41.498558  3240 layer_factory.hpp:77] Creating layer conv3_2
I1118 18:36:41.498565  3240 net.cpp:100] Creating Layer conv3_2
I1118 18:36:41.498569  3240 net.cpp:434] conv3_2 <- conv3_1
I1118 18:36:41.498574  3240 net.cpp:408] conv3_2 -> conv3_2
I1118 18:36:41.500319  3240 net.cpp:150] Setting up conv3_2
I1118 18:36:41.500330  3240 net.cpp:157] Top shape: 1 256 125 125 (4000000)
I1118 18:36:41.500344  3240 net.cpp:165] Memory required for data: 711000000
I1118 18:36:41.500349  3240 layer_factory.hpp:77] Creating layer relu3_2
I1118 18:36:41.500355  3240 net.cpp:100] Creating Layer relu3_2
I1118 18:36:41.500357  3240 net.cpp:434] relu3_2 <- conv3_2
I1118 18:36:41.500362  3240 net.cpp:395] relu3_2 -> conv3_2 (in-place)
I1118 18:36:41.500521  3240 net.cpp:150] Setting up relu3_2
I1118 18:36:41.500531  3240 net.cpp:157] Top shape: 1 256 125 125 (4000000)
I1118 18:36:41.500533  3240 net.cpp:165] Memory required for data: 727000000
I1118 18:36:41.500536  3240 layer_factory.hpp:77] Creating layer conv3_3
I1118 18:36:41.500543  3240 net.cpp:100] Creating Layer conv3_3
I1118 18:36:41.500546  3240 net.cpp:434] conv3_3 <- conv3_2
I1118 18:36:41.500552  3240 net.cpp:408] conv3_3 -> conv3_3
I1118 18:36:41.502315  3240 net.cpp:150] Setting up conv3_3
I1118 18:36:41.502326  3240 net.cpp:157] Top shape: 1 256 125 125 (4000000)
I1118 18:36:41.502328  3240 net.cpp:165] Memory required for data: 743000000
I1118 18:36:41.502333  3240 layer_factory.hpp:77] Creating layer relu3_3
I1118 18:36:41.502338  3240 net.cpp:100] Creating Layer relu3_3
I1118 18:36:41.502341  3240 net.cpp:434] relu3_3 <- conv3_3
I1118 18:36:41.502346  3240 net.cpp:395] relu3_3 -> conv3_3 (in-place)
I1118 18:36:41.502503  3240 net.cpp:150] Setting up relu3_3
I1118 18:36:41.502512  3240 net.cpp:157] Top shape: 1 256 125 125 (4000000)
I1118 18:36:41.502514  3240 net.cpp:165] Memory required for data: 759000000
I1118 18:36:41.502517  3240 layer_factory.hpp:77] Creating layer conv3_3_relu3_3_0_split
I1118 18:36:41.502523  3240 net.cpp:100] Creating Layer conv3_3_relu3_3_0_split
I1118 18:36:41.502526  3240 net.cpp:434] conv3_3_relu3_3_0_split <- conv3_3
I1118 18:36:41.502532  3240 net.cpp:408] conv3_3_relu3_3_0_split -> conv3_3_relu3_3_0_split_0
I1118 18:36:41.502537  3240 net.cpp:408] conv3_3_relu3_3_0_split -> conv3_3_relu3_3_0_split_1
I1118 18:36:41.502542  3240 net.cpp:408] conv3_3_relu3_3_0_split -> conv3_3_relu3_3_0_split_2
I1118 18:36:41.502585  3240 net.cpp:150] Setting up conv3_3_relu3_3_0_split
I1118 18:36:41.502590  3240 net.cpp:157] Top shape: 1 256 125 125 (4000000)
I1118 18:36:41.502593  3240 net.cpp:157] Top shape: 1 256 125 125 (4000000)
I1118 18:36:41.502596  3240 net.cpp:157] Top shape: 1 256 125 125 (4000000)
I1118 18:36:41.502599  3240 net.cpp:165] Memory required for data: 807000000
I1118 18:36:41.502600  3240 layer_factory.hpp:77] Creating layer pool3
I1118 18:36:41.502605  3240 net.cpp:100] Creating Layer pool3
I1118 18:36:41.502609  3240 net.cpp:434] pool3 <- conv3_3_relu3_3_0_split_0
I1118 18:36:41.502612  3240 net.cpp:408] pool3 -> pool3
I1118 18:36:41.502643  3240 net.cpp:150] Setting up pool3
I1118 18:36:41.502650  3240 net.cpp:157] Top shape: 1 256 63 63 (1016064)
I1118 18:36:41.502651  3240 net.cpp:165] Memory required for data: 811064256
I1118 18:36:41.502655  3240 layer_factory.hpp:77] Creating layer conv4_1
I1118 18:36:41.502660  3240 net.cpp:100] Creating Layer conv4_1
I1118 18:36:41.502663  3240 net.cpp:434] conv4_1 <- pool3
I1118 18:36:41.502668  3240 net.cpp:408] conv4_1 -> conv4_1
I1118 18:36:41.507236  3240 net.cpp:150] Setting up conv4_1
I1118 18:36:41.507248  3240 net.cpp:157] Top shape: 1 512 63 63 (2032128)
I1118 18:36:41.507266  3240 net.cpp:165] Memory required for data: 819192768
I1118 18:36:41.507272  3240 layer_factory.hpp:77] Creating layer relu4_1
I1118 18:36:41.507277  3240 net.cpp:100] Creating Layer relu4_1
I1118 18:36:41.507280  3240 net.cpp:434] relu4_1 <- conv4_1
I1118 18:36:41.507285  3240 net.cpp:395] relu4_1 -> conv4_1 (in-place)
I1118 18:36:41.507369  3240 net.cpp:150] Setting up relu4_1
I1118 18:36:41.507392  3240 net.cpp:157] Top shape: 1 512 63 63 (2032128)
I1118 18:36:41.507395  3240 net.cpp:165] Memory required for data: 827321280
I1118 18:36:41.507397  3240 layer_factory.hpp:77] Creating layer conv4_2
I1118 18:36:41.507405  3240 net.cpp:100] Creating Layer conv4_2
I1118 18:36:41.507406  3240 net.cpp:434] conv4_2 <- conv4_1
I1118 18:36:41.507412  3240 net.cpp:408] conv4_2 -> conv4_2
I1118 18:36:41.512532  3240 net.cpp:150] Setting up conv4_2
I1118 18:36:41.512543  3240 net.cpp:157] Top shape: 1 512 63 63 (2032128)
I1118 18:36:41.512562  3240 net.cpp:165] Memory required for data: 835449792
I1118 18:36:41.512570  3240 layer_factory.hpp:77] Creating layer relu4_2
I1118 18:36:41.512576  3240 net.cpp:100] Creating Layer relu4_2
I1118 18:36:41.512579  3240 net.cpp:434] relu4_2 <- conv4_2
I1118 18:36:41.512584  3240 net.cpp:395] relu4_2 -> conv4_2 (in-place)
I1118 18:36:41.512650  3240 net.cpp:150] Setting up relu4_2
I1118 18:36:41.512657  3240 net.cpp:157] Top shape: 1 512 63 63 (2032128)
I1118 18:36:41.512660  3240 net.cpp:165] Memory required for data: 843578304
I1118 18:36:41.512662  3240 layer_factory.hpp:77] Creating layer conv4_3
I1118 18:36:41.512683  3240 net.cpp:100] Creating Layer conv4_3
I1118 18:36:41.512686  3240 net.cpp:434] conv4_3 <- conv4_2
I1118 18:36:41.512691  3240 net.cpp:408] conv4_3 -> conv4_3
I1118 18:36:41.518016  3240 net.cpp:150] Setting up conv4_3
I1118 18:36:41.518047  3240 net.cpp:157] Top shape: 1 512 63 63 (2032128)
I1118 18:36:41.518050  3240 net.cpp:165] Memory required for data: 851706816
I1118 18:36:41.518056  3240 layer_factory.hpp:77] Creating layer relu4_3
I1118 18:36:41.518062  3240 net.cpp:100] Creating Layer relu4_3
I1118 18:36:41.518065  3240 net.cpp:434] relu4_3 <- conv4_3
I1118 18:36:41.518071  3240 net.cpp:395] relu4_3 -> conv4_3 (in-place)
I1118 18:36:41.518241  3240 net.cpp:150] Setting up relu4_3
I1118 18:36:41.518251  3240 net.cpp:157] Top shape: 1 512 63 63 (2032128)
I1118 18:36:41.518254  3240 net.cpp:165] Memory required for data: 859835328
I1118 18:36:41.518256  3240 layer_factory.hpp:77] Creating layer conv4_3_relu4_3_0_split
I1118 18:36:41.518263  3240 net.cpp:100] Creating Layer conv4_3_relu4_3_0_split
I1118 18:36:41.518266  3240 net.cpp:434] conv4_3_relu4_3_0_split <- conv4_3
I1118 18:36:41.518271  3240 net.cpp:408] conv4_3_relu4_3_0_split -> conv4_3_relu4_3_0_split_0
I1118 18:36:41.518278  3240 net.cpp:408] conv4_3_relu4_3_0_split -> conv4_3_relu4_3_0_split_1
I1118 18:36:41.518283  3240 net.cpp:408] conv4_3_relu4_3_0_split -> conv4_3_relu4_3_0_split_2
I1118 18:36:41.518355  3240 net.cpp:150] Setting up conv4_3_relu4_3_0_split
I1118 18:36:41.518362  3240 net.cpp:157] Top shape: 1 512 63 63 (2032128)
I1118 18:36:41.518364  3240 net.cpp:157] Top shape: 1 512 63 63 (2032128)
I1118 18:36:41.518368  3240 net.cpp:157] Top shape: 1 512 63 63 (2032128)
I1118 18:36:41.518369  3240 net.cpp:165] Memory required for data: 884220864
I1118 18:36:41.518373  3240 layer_factory.hpp:77] Creating layer pool4
I1118 18:36:41.518379  3240 net.cpp:100] Creating Layer pool4
I1118 18:36:41.518383  3240 net.cpp:434] pool4 <- conv4_3_relu4_3_0_split_0
I1118 18:36:41.518388  3240 net.cpp:408] pool4 -> pool4
I1118 18:36:41.518435  3240 net.cpp:150] Setting up pool4
I1118 18:36:41.518441  3240 net.cpp:157] Top shape: 1 512 32 32 (524288)
I1118 18:36:41.518443  3240 net.cpp:165] Memory required for data: 886318016
I1118 18:36:41.518445  3240 layer_factory.hpp:77] Creating layer conv5_1
I1118 18:36:41.518452  3240 net.cpp:100] Creating Layer conv5_1
I1118 18:36:41.518456  3240 net.cpp:434] conv5_1 <- pool4
I1118 18:36:41.518461  3240 net.cpp:408] conv5_1 -> conv5_1
I1118 18:36:41.523442  3240 net.cpp:150] Setting up conv5_1
I1118 18:36:41.523452  3240 net.cpp:157] Top shape: 1 512 32 32 (524288)
I1118 18:36:41.523454  3240 net.cpp:165] Memory required for data: 888415168
I1118 18:36:41.523460  3240 layer_factory.hpp:77] Creating layer relu5_1
I1118 18:36:41.523473  3240 net.cpp:100] Creating Layer relu5_1
I1118 18:36:41.523476  3240 net.cpp:434] relu5_1 <- conv5_1
I1118 18:36:41.523480  3240 net.cpp:395] relu5_1 -> conv5_1 (in-place)
I1118 18:36:41.525018  3240 net.cpp:150] Setting up relu5_1
I1118 18:36:41.525029  3240 net.cpp:157] Top shape: 1 512 32 32 (524288)
I1118 18:36:41.525048  3240 net.cpp:165] Memory required for data: 890512320
I1118 18:36:41.525050  3240 layer_factory.hpp:77] Creating layer conv5_2
I1118 18:36:41.525060  3240 net.cpp:100] Creating Layer conv5_2
I1118 18:36:41.525063  3240 net.cpp:434] conv5_2 <- conv5_1
I1118 18:36:41.525068  3240 net.cpp:408] conv5_2 -> conv5_2
I1118 18:36:41.529989  3240 net.cpp:150] Setting up conv5_2
I1118 18:36:41.530000  3240 net.cpp:157] Top shape: 1 512 32 32 (524288)
I1118 18:36:41.530002  3240 net.cpp:165] Memory required for data: 892609472
I1118 18:36:41.530007  3240 layer_factory.hpp:77] Creating layer relu5_2
I1118 18:36:41.530012  3240 net.cpp:100] Creating Layer relu5_2
I1118 18:36:41.530015  3240 net.cpp:434] relu5_2 <- conv5_2
I1118 18:36:41.530020  3240 net.cpp:395] relu5_2 -> conv5_2 (in-place)
I1118 18:36:41.530191  3240 net.cpp:150] Setting up relu5_2
I1118 18:36:41.530202  3240 net.cpp:157] Top shape: 1 512 32 32 (524288)
I1118 18:36:41.530205  3240 net.cpp:165] Memory required for data: 894706624
I1118 18:36:41.530208  3240 layer_factory.hpp:77] Creating layer conv5_3
I1118 18:36:41.530215  3240 net.cpp:100] Creating Layer conv5_3
I1118 18:36:41.530218  3240 net.cpp:434] conv5_3 <- conv5_2
I1118 18:36:41.530225  3240 net.cpp:408] conv5_3 -> conv5_3
I1118 18:36:41.535398  3240 net.cpp:150] Setting up conv5_3
I1118 18:36:41.535424  3240 net.cpp:157] Top shape: 1 512 32 32 (524288)
I1118 18:36:41.535428  3240 net.cpp:165] Memory required for data: 896803776
I1118 18:36:41.535432  3240 layer_factory.hpp:77] Creating layer relu5_3
I1118 18:36:41.535437  3240 net.cpp:100] Creating Layer relu5_3
I1118 18:36:41.535440  3240 net.cpp:434] relu5_3 <- conv5_3
I1118 18:36:41.535446  3240 net.cpp:395] relu5_3 -> conv5_3 (in-place)
I1118 18:36:41.535521  3240 net.cpp:150] Setting up relu5_3
I1118 18:36:41.535528  3240 net.cpp:157] Top shape: 1 512 32 32 (524288)
I1118 18:36:41.535531  3240 net.cpp:165] Memory required for data: 898900928
I1118 18:36:41.535533  3240 layer_factory.hpp:77] Creating layer conv5_3_relu5_3_0_split
I1118 18:36:41.535539  3240 net.cpp:100] Creating Layer conv5_3_relu5_3_0_split
I1118 18:36:41.535542  3240 net.cpp:434] conv5_3_relu5_3_0_split <- conv5_3
I1118 18:36:41.535547  3240 net.cpp:408] conv5_3_relu5_3_0_split -> conv5_3_relu5_3_0_split_0
I1118 18:36:41.535553  3240 net.cpp:408] conv5_3_relu5_3_0_split -> conv5_3_relu5_3_0_split_1
I1118 18:36:41.535558  3240 net.cpp:408] conv5_3_relu5_3_0_split -> conv5_3_relu5_3_0_split_2
I1118 18:36:41.535594  3240 net.cpp:150] Setting up conv5_3_relu5_3_0_split
I1118 18:36:41.535600  3240 net.cpp:157] Top shape: 1 512 32 32 (524288)
I1118 18:36:41.535604  3240 net.cpp:157] Top shape: 1 512 32 32 (524288)
I1118 18:36:41.535605  3240 net.cpp:157] Top shape: 1 512 32 32 (524288)
I1118 18:36:41.535607  3240 net.cpp:165] Memory required for data: 905192384
I1118 18:36:41.535609  3240 layer_factory.hpp:77] Creating layer pool5
I1118 18:36:41.535615  3240 net.cpp:100] Creating Layer pool5
I1118 18:36:41.535619  3240 net.cpp:434] pool5 <- conv5_3_relu5_3_0_split_0
I1118 18:36:41.535640  3240 net.cpp:408] pool5 -> pool5
I1118 18:36:41.535670  3240 net.cpp:150] Setting up pool5
…
I1118 18:36:41.591441  3240 net.cpp:165] Memory required for data: 907559872
I1118 18:36:41.591455  3240 layer_factory.hpp:77] Creating layer relu3-dsn6
I1118 18:36:41.591462  3240 net.cpp:100] Creating Layer relu3-dsn6
I1118 18:36:41.591464  3240 net.cpp:434] relu3-dsn6 <- conv4-dsn6
I1118 18:36:41.591468  3240 net.cpp:395] relu3-dsn6 -> conv4-dsn6 (in-place)
I1118 18:36:41.591548  3240 net.cpp:150] Setting up relu3-dsn6
I1118 18:36:41.591557  3240 net.cpp:157] Top shape: 1 256 17 17 (73984)
I1118 18:36:41.591558  3240 net.cpp:165] Memory required for data: 907855808
I1118 18:36:41.591560  3240 layer_factory.hpp:77] Creating layer conv5-dsn6
I1118 18:36:41.591572  3240 net.cpp:100] Creating Layer conv5-dsn6
I1118 18:36:41.591574  3240 net.cpp:434] conv5-dsn6 <- conv4-dsn6
I1118 18:36:41.591580  3240 net.cpp:408] conv5-dsn6 -> conv5-dsn6
I1118 18:36:41.592185  3240 net.cpp:150] Setting up conv5-dsn6
I1118 18:36:41.592195  3240 net.cpp:157] Top shape: 1 1 17 17 (289)
I1118 18:36:41.592197  3240 net.cpp:165] Memory required for data: 907856964
I1118 18:36:41.592203  3240 layer_factory.hpp:77] Creating layer conv5-dsn6_conv5-dsn6_0_split
I1118 18:36:41.592227  3240 net.cpp:100] Creating Layer conv5-dsn6_conv5-dsn6_0_split
I1118 18:36:41.592231  3240 net.cpp:434] conv5-dsn6_conv5-dsn6_0_split <- conv5-dsn6
I1118 18:36:41.592238  3240 net.cpp:408] conv5-dsn6_conv5-dsn6_0_split -> conv5-dsn6_conv5-dsn6_0_split_0
I1118 18:36:41.592244  3240 net.cpp:408] conv5-dsn6_conv5-dsn6_0_split -> conv5-dsn6_conv5-dsn6_0_split_1
I1118 18:36:41.592276  3240 net.cpp:150] Setting up conv5-dsn6_conv5-dsn6_0_split
I1118 18:36:41.592280  3240 net.cpp:157] Top shape: 1 1 17 17 (289)
I1118 18:36:41.592283  3240 net.cpp:157] Top shape: 1 1 17 17 (289)
I1118 18:36:41.592284  3240 net.cpp:165] Memory required for data: 907859276
I1118 18:36:41.592286  3240 layer_factory.hpp:77] Creating layer upsample32_dsn6
I1118 18:36:41.592309  3240 net.cpp:100] Creating Layer upsample32_dsn6
I1118 18:36:41.592332  3240 net.cpp:434] upsample32_dsn6 <- conv5-dsn6_conv5-dsn6_0_split_0
I1118 18:36:41.592346  3240 net.cpp:408] upsample32_dsn6 -> conv5-dsn6-up
I1118 18:36:41.592932  3240 net.cpp:150] Setting up upsample32_dsn6
I1118 18:36:41.592939  3240 net.cpp:157] Top shape: 1 1 576 576 (331776)
I1118 18:36:41.592941  3240 net.cpp:165] Memory required for data: 909186380
I1118 18:36:41.592945  3240 layer_factory.hpp:77] Creating layer crop-dsn6
I1118 18:36:41.592950  3240 net.cpp:100] Creating Layer crop-dsn6
I1118 18:36:41.592953  3240 net.cpp:434] crop-dsn6 <- conv5-dsn6-up
I1118 18:36:41.592957  3240 net.cpp:434] crop-dsn6 <- data_data_0_split_1
I1118 18:36:41.592960  3240 net.cpp:408] crop-dsn6 -> upscore-dsn6
I1118 18:36:41.592981  3240 net.cpp:150] Setting up crop-dsn6
I1118 18:36:41.592985  3240 net.cpp:157] Top shape: 1 1 500 500 (250000)
I1118 18:36:41.592988  3240 net.cpp:165] Memory required for data: 910186380
I1118 18:36:41.592990  3240 layer_factory.hpp:77] Creating layer loss6-score
I1118 18:36:41.593008  3240 net.cpp:100] Creating Layer loss6-score
I1118 18:36:41.593010  3240 net.cpp:434] loss6-score <- upscore-dsn6
I1118 18:36:41.593014  3240 net.cpp:434] loss6-score <- label_data_1_split_0
I1118 18:36:41.593017  3240 net.cpp:408] loss6-score -> loss6-score
I1118 18:36:41.594043  3240 net.cpp:150] Setting up loss6-score
I1118 18:36:41.594053  3240 net.cpp:157] Top shape: (1)
I1118 18:36:41.594054  3240 net.cpp:160]     with loss weight 1
I1118 18:36:41.594087  3240 net.cpp:165] Memory required for data: 910186384
I1118 18:36:41.594090  3240 layer_factory.hpp:77] Creating layer upsample2_dsn5
I1118 18:36:41.594112  3240 net.cpp:100] Creating Layer upsample2_dsn5
I1118 18:36:41.594116  3240 net.cpp:434] upsample2_dsn5 <- conv5-dsn6_conv5-dsn6_0_split_1
I1118 18:36:41.594123  3240 net.cpp:408] upsample2_dsn5 -> conv5-dsn6-5
I1118 18:36:41.594383  3240 net.cpp:150] Setting up upsample2_dsn5
I1118 18:36:41.594391  3240 net.cpp:157] Top shape: 1 1 36 36 (1296)
I1118 18:36:41.594393  3240 net.cpp:165] Memory required for data: 910191568
I1118 18:36:41.594398  3240 layer_factory.hpp:77] Creating layer crop1-dsn5
I1118 18:36:41.594403  3240 net.cpp:100] Creating Layer crop1-dsn5
I1118 18:36:41.594406  3240 net.cpp:434] crop1-dsn5 <- conv5-dsn6-5
I1118 18:36:41.594410  3240 net.cpp:434] crop1-dsn5 <- conv5_3_relu5_3_0_split_1
I1118 18:36:41.594414  3240 net.cpp:408] crop1-dsn5 -> weight-dsn6-5
I1118 18:36:41.594435  3240 net.cpp:150] Setting up crop1-dsn5
I1118 18:36:41.594439  3240 net.cpp:157] Top shape: 1 1 32 32 (1024)
I1118 18:36:41.594441  3240 net.cpp:165] Memory required for data: 910195664
I1118 18:36:41.594444  3240 layer_factory.hpp:77] Creating layer weight-dsn6-5_crop1-dsn5_0_split
I1118 18:36:41.594449  3240 net.cpp:100] Creating Layer weight-dsn6-5_crop1-dsn5_0_split
I1118 18:36:41.594451  3240 net.cpp:434] weight-dsn6-5_crop1-dsn5_0_split <- weight-dsn6-5
I1118 18:36:41.594456  3240 net.cpp:408] weight-dsn6-5_crop1-dsn5_0_split -> weight-dsn6-5_crop1-dsn5_0_split_0
I1118 18:36:41.594461  3240 net.cpp:408] weight-dsn6-5_crop1-dsn5_0_split -> weight-dsn6-5_crop1-dsn5_0_split_1
I1118 18:36:41.594491  3240 net.cpp:150] Setting up weight-dsn6-5_crop1-dsn5_0_split
I1118 18:36:41.594496  3240 net.cpp:157] Top shape: 1 1 32 32 (1024)
I1118 18:36:41.594498  3240 net.cpp:157] Top shape: 1 1 32 32 (1024)
I1118 18:36:41.594501  3240 net.cpp:165] Memory required for data: 910203856
I1118 18:36:41.594503  3240 layer_factory.hpp:77] Creating layer sigmoid-dsn5
I1118 18:36:41.594508  3240 net.cpp:100] Creating Layer sigmoid-dsn5
I1118 18:36:41.594511  3240 net.cpp:434] sigmoid-dsn5 <- weight-dsn6-5_crop1-dsn5_0_split_0
I1118 18:36:41.594516  3240 net.cpp:408] sigmoid-dsn5 -> sigmoid-dsn5
I1118 18:36:41.594723  3240 net.cpp:150] Setting up sigmoid-dsn5
I1118 18:36:41.594733  3240 net.cpp:157] Top shape: 1 1 32 32 (1024)
I1118 18:36:41.594736  3240 net.cpp:165] Memory required for data: 910207952
I1118 18:36:41.594739  3240 layer_factory.hpp:77] Creating layer rev-dsn5
I1118 18:36:41.594745  3240 net.cpp:100] Creating Layer rev-dsn5
I1118 18:36:41.594748  3240 net.cpp:434] rev-dsn5 <- sigmoid-dsn5
I1118 18:36:41.594754  3240 net.cpp:408] rev-dsn5 -> rev-dsn5
I1118 18:36:41.594775  3240 net.cpp:150] Setting up rev-dsn5
I1118 18:36:41.594786  3240 net.cpp:157] Top shape: 1 1 32 32 (1024)
I1118 18:36:41.594789  3240 net.cpp:165] Memory required for data: 910212048
I1118 18:36:41.594792  3240 layer_factory.hpp:77] Creating layer tile-dsn5
I1118 18:36:41.594797  3240 net.cpp:100] Creating Layer tile-dsn5
I1118 18:36:41.594799  3240 net.cpp:434] tile-dsn5 <- rev-dsn5
I1118 18:36:41.594805  3240 net.cpp:408] tile-dsn5 -> weight-dsn5
I1118 18:36:41.594821  3240 net.cpp:150] Setting up tile-dsn5
I1118 18:36:41.594827  3240 net.cpp:157] Top shape: 1 512 32 32 (524288)
I1118 18:36:41.594830  3240 net.cpp:165] Memory required for data: 912309200
I1118 18:36:41.594832  3240 layer_factory.hpp:77] Creating layer prod1-dsn5
I1118 18:36:41.594837  3240 net.cpp:100] Creating Layer prod1-dsn5
I1118 18:36:41.594841  3240 net.cpp:434] prod1-dsn5 <- conv5_3_relu5_3_0_split_2
I1118 18:36:41.594843  3240 net.cpp:434] prod1-dsn5 <- weight-dsn5
I1118 18:36:41.594847  3240 net.cpp:408] prod1-dsn5 -> prod1-dsn5
I1118 18:36:41.594879  3240 net.cpp:150] Setting up prod1-dsn5
I1118 18:36:41.594885  3240 net.cpp:157] Top shape: 1 512 32 32 (524288)
I1118 18:36:41.594887  3240 net.cpp:165] Memory required for data: 914406352
I1118 18:36:41.594890  3240 layer_factory.hpp:77] Creating layer conv1-dsn5
I1118 18:36:41.594897  3240 net.cpp:100] Creating Layer conv1-dsn5
I1118 18:36:41.594899  3240 net.cpp:434] conv1-dsn5 <- prod1-dsn5
I1118 18:36:41.594905  3240 net.cpp:408] conv1-dsn5 -> conv1-dsn5
I1118 18:36:41.597523  3240 net.cpp:150] Setting up conv1-dsn5
I1118 18:36:41.597535  3240 net.cpp:157] Top shape: 1 64 32 32 (65536)
I1118 18:36:41.597553  3240 net.cpp:165] Memory required for data: 914668496
I1118 18:36:41.597558  3240 layer_factory.hpp:77] Creating layer conv2-dsn5
I1118 18:36:41.597569  3240 net.cpp:100] Creating Layer conv2-dsn5
I1118 18:36:41.597573  3240 net.cpp:434] conv2-dsn5 <- conv1-dsn5
I1118 18:36:41.597579  3240 net.cpp:408] conv2-dsn5 -> conv2-dsn5
I1118 18:36:41.598701  3240 net.cpp:150] Setting up conv2-dsn5
I1118 18:36:41.598711  3240 net.cpp:157] Top shape: 1 64 32 32 (65536)
I1118 18:36:41.598728  3240 net.cpp:165] Memory required for data: 914930640
I1118 18:36:41.598736  3240 layer_factory.hpp:77] Creating layer relu1-dsn5
I1118 18:36:41.598740  3240 net.cpp:100] Creating Layer relu1-dsn5
I1118 18:36:41.598743  3240 net.cpp:434] relu1-dsn5 <- conv2-dsn5
I1118 18:36:41.598749  3240 net.cpp:395] relu1-dsn5 -> conv2-dsn5 (in-place)
I1118 18:36:41.598815  3240 net.cpp:150] Setting up relu1-dsn5
I1118 18:36:41.598821  3240 net.cpp:157] Top shape: 1 64 32 32 (65536)
I1118 18:36:41.598824  3240 net.cpp:165] Memory required for data: 915192784
I1118 18:36:41.598827  3240 layer_factory.hpp:77] Creating layer conv3-dsn5
I1118 18:36:41.598846  3240 net.cpp:100] Creating Layer conv3-dsn5
I1118 18:36:41.598850  3240 net.cpp:434] conv3-dsn5 <- conv2-dsn5
I1118 18:36:41.598855  3240 net.cpp:408] conv3-dsn5 -> conv3-dsn5
I1118 18:36:41.599814  3240 net.cpp:150] Setting up conv3-dsn5
I1118 18:36:41.599825  3240 net.cpp:157] Top shape: 1 64 32 32 (65536)
I1118 18:36:41.599828  3240 net.cpp:165] Memory required for data: 915454928
I1118 18:36:41.599833  3240 layer_factory.hpp:77] Creating layer relu2-dsn5
I1118 18:36:41.599839  3240 net.cpp:100] Creating Layer relu2-dsn5
I1118 18:36:41.599843  3240 net.cpp:434] relu2-dsn5 <- conv3-dsn5
I1118 18:36:41.599846  3240 net.cpp:395] relu2-dsn5 -> conv3-dsn5 (in-place)
I1118 18:36:41.600009  3240 net.cpp:150] Setting up relu2-dsn5
I1118 18:36:41.600018  3240 net.cpp:157] Top shape: 1 64 32 32 (65536)
I1118 18:36:41.600020  3240 net.cpp:165] Memory required for data: 915717072
I1118 18:36:41.600023  3240 layer_factory.hpp:77] Creating layer conv4-dsn5
I1118 18:36:41.600034  3240 net.cpp:100] Creating Layer conv4-dsn5
I1118 18:36:41.600037  3240 net.cpp:434] conv4-dsn5 <- conv3-dsn5
I1118 18:36:41.600044  3240 net.cpp:408] conv4-dsn5 -> conv4-dsn5
I1118 18:36:41.600562  3240 net.cpp:150] Setting up conv4-dsn5
I1118 18:36:41.600572  3240 net.cpp:157] Top shape: 1 1 32 32 (1024)
I1118 18:36:41.600574  3240 net.cpp:165] Memory required for data: 915721168
I1118 18:36:41.600580  3240 layer_factory.hpp:77] Creating layer sum-dsn5
I1118 18:36:41.600597  3240 net.cpp:100] Creating Layer sum-dsn5
I1118 18:36:41.600600  3240 net.cpp:434] sum-dsn5 <- conv4-dsn5
I1118 18:36:41.600605  3240 net.cpp:434] sum-dsn5 <- weight-dsn6-5_crop1-dsn5_0_split_1
I1118 18:36:41.600608  3240 net.cpp:408] sum-dsn5 -> sum-dsn5
I1118 18:36:41.600625  3240 net.cpp:150] Setting up sum-dsn5
I1118 18:36:41.600630  3240 net.cpp:157] Top shape: 1 1 32 32 (1024)
I1118 18:36:41.600630  3240 net.cpp:165] Memory required for data: 915725264
I1118 18:36:41.600633  3240 layer_factory.hpp:77] Creating layer sum-dsn5_sum-dsn5_0_split
I1118 18:36:41.600637  3240 net.cpp:100] Creating Layer sum-dsn5_sum-dsn5_0_split
I1118 18:36:41.600639  3240 net.cpp:434] sum-dsn5_sum-dsn5_0_split <- sum-dsn5
I1118 18:36:41.600646  3240 net.cpp:408] sum-dsn5_sum-dsn5_0_split -> sum-dsn5_sum-dsn5_0_split_0
I1118 18:36:41.600649  3240 net.cpp:408] sum-dsn5_sum-dsn5_0_split -> sum-dsn5_sum-dsn5_0_split_1
I1118 18:36:41.600694  3240 net.cpp:150] Setting up sum-dsn5_sum-dsn5_0_split
I1118 18:36:41.600699  3240 net.cpp:157] Top shape: 1 1 32 32 (1024)
I1118 18:36:41.600703  3240 net.cpp:157] Top shape: 1 1 32 32 (1024)
I1118 18:36:41.600704  3240 net.cpp:165] Memory required for data: 915733456
I1118 18:36:41.600706  3240 layer_factory.hpp:77] Creating layer upsample16_dsn5
I1118 18:36:41.600713  3240 net.cpp:100] Creating Layer upsample16_dsn5
I1118 18:36:41.600715  3240 net.cpp:434] upsample16_dsn5 <- sum-dsn5_sum-dsn5_0_split_0
I1118 18:36:41.600719  3240 net.cpp:408] upsample16_dsn5 -> sum-dsn5-up
I1118 18:36:41.601867  3240 net.cpp:150] Setting up upsample16_dsn5
I1118 18:36:41.601877  3240 net.cpp:157] Top shape: 1 1 528 528 (278784)
I1118 18:36:41.601878  3240 net.cpp:165] Memory required for data: 916848592
I1118 18:36:41.601884  3240 layer_factory.hpp:77] Creating layer crop2-dsn5
I1118 18:36:41.601889  3240 net.cpp:100] Creating Layer crop2-dsn5
I1118 18:36:41.601892  3240 net.cpp:434] crop2-dsn5 <- sum-dsn5-up
I1118 18:36:41.601896  3240 net.cpp:434] crop2-dsn5 <- data_data_0_split_2
I1118 18:36:41.601902  3240 net.cpp:408] crop2-dsn5 -> upscore-dsn5
I1118 18:36:41.601924  3240 net.cpp:150] Setting up crop2-dsn5
I1118 18:36:41.601928  3240 net.cpp:157] Top shape: 1 1 500 500 (250000)
I1118 18:36:41.601930  3240 net.cpp:165] Memory required for data: 917848592
I1118 18:36:41.601933  3240 layer_factory.hpp:77] Creating layer loss5-score
I1118 18:36:41.601941  3240 net.cpp:100] Creating Layer loss5-score
I1118 18:36:41.601943  3240 net.cpp:434] loss5-score <- upscore-dsn5
I1118 18:36:41.601946  3240 net.cpp:434] loss5-score <- label_data_1_split_1
I1118 18:36:41.601949  3240 net.cpp:408] loss5-score -> loss5-score
I1118 18:36:41.602159  3240 net.cpp:150] Setting up loss5-score
I1118 18:36:41.602165  3240 net.cpp:157] Top shape: (1)
I1118 18:36:41.602167  3240 net.cpp:160]     with loss weight 1
I1118 18:36:41.602177  3240 net.cpp:165] Memory required for data: 917848596
I1118 18:36:41.602180  3240 layer_factory.hpp:77] Creating layer upsample2_dsn4
I1118 18:36:41.602187  3240 net.cpp:100] Creating Layer upsample2_dsn4
I1118 18:36:41.602190  3240 net.cpp:434] upsample2_dsn4 <- sum-dsn5_sum-dsn5_0_split_1
I1118 18:36:41.602196  3240 net.cpp:408] upsample2_dsn4 -> sum-dsn5-4
I1118 18:36:41.602391  3240 net.cpp:150] Setting up upsample2_dsn4
I1118 18:36:41.602398  3240 net.cpp:157] Top shape: 1 1 66 66 (4356)
I1118 18:36:41.602401  3240 net.cpp:165] Memory required for data: 917866020
I1118 18:36:41.602406  3240 layer_factory.hpp:77] Creating layer crop1-dsn4
I1118 18:36:41.602412  3240 net.cpp:100] Creating Layer crop1-dsn4
I1118 18:36:41.602416  3240 net.cpp:434] crop1-dsn4 <- sum-dsn5-4
I1118 18:36:41.602418  3240 net.cpp:434] crop1-dsn4 <- conv4_3_relu4_3_0_split_1
I1118 18:36:41.602422  3240 net.cpp:408] crop1-dsn4 -> weight-dsn5-4
I1118 18:36:41.602442  3240 net.cpp:150] Setting up crop1-dsn4
I1118 18:36:41.602447  3240 net.cpp:157] Top shape: 1 1 63 63 (3969)
I1118 18:36:41.602449  3240 net.cpp:165] Memory required for data: 917881896
I1118 18:36:41.602452  3240 layer_factory.hpp:77] Creating layer weight-dsn5-4_crop1-dsn4_0_split
I1118 18:36:41.602455  3240 net.cpp:100] Creating Layer weight-dsn5-4_crop1-dsn4_0_split
I1118 18:36:41.602458  3240 net.cpp:434] weight-dsn5-4_crop1-dsn4_0_split <- weight-dsn5-4
I1118 18:36:41.602464  3240 net.cpp:408] weight-dsn5-4_crop1-dsn4_0_split -> weight-dsn5-4_crop1-dsn4_0_split_0
I1118 18:36:41.602469  3240 net.cpp:408] weight-dsn5-4_crop1-dsn4_0_split -> weight-dsn5-4_crop1-dsn4_0_split_1
I1118 18:36:41.602497  3240 net.cpp:150] Setting up weight-dsn5-4_crop1-dsn4_0_split
I1118 18:36:41.602502  3240 net.cpp:157] Top shape: 1 1 63 63 (3969)
I1118 18:36:41.602505  3240 net.cpp:157] Top shape: 1 1 63 63 (3969)
I1118 18:36:41.602507  3240 net.cpp:165] Memory required for data: 917913648
I1118 18:36:41.602509  3240 layer_factory.hpp:77] Creating layer sigmoid-dsn4
I1118 18:36:41.602514  3240 net.cpp:100] Creating Layer sigmoid-dsn4
I1118 18:36:41.602516  3240 net.cpp:434] sigmoid-dsn4 <- weight-dsn5-4_crop1-dsn4_0_split_0
I1118 18:36:41.602521  3240 net.cpp:408] sigmoid-dsn4 -> sigmoid-dsn4
I1118 18:36:41.602720  3240 net.cpp:150] Setting up sigmoid-dsn4
I1118 18:36:41.602730  3240 net.cpp:157] Top shape: 1 1 63 63 (3969)
I1118 18:36:41.602732  3240 net.cpp:165] Memory required for data: 917929524
I1118 18:36:41.602735  3240 layer_factory.hpp:77] Creating layer rev-dsn4
I1118 18:36:41.602741  3240 net.cpp:100] Creating Layer rev-dsn4
I1118 18:36:41.602744  3240 net.cpp:434] rev-dsn4 <- sigmoid-dsn4
I1118 18:36:41.602748  3240 net.cpp:408] rev-dsn4 -> rev-dsn4
I1118 18:36:41.602768  3240 net.cpp:150] Setting up rev-dsn4
I1118 18:36:41.602773  3240 net.cpp:157] Top shape: 1 1 63 63 (3969)
I1118 18:36:41.602777  3240 net.cpp:165] Memory required for data: 917945400
I1118 18:36:41.602780  3240 layer_factory.hpp:77] Creating layer tile-dsn4
I1118 18:36:41.602785  3240 net.cpp:100] Creating Layer tile-dsn4
I1118 18:36:41.602789  3240 net.cpp:434] tile-dsn4 <- rev-dsn4
I1118 18:36:41.602792  3240 net.cpp:408] tile-dsn4 -> weight-dsn4
I1118 18:36:41.602810  3240 net.cpp:150] Setting up tile-dsn4
I1118 18:36:41.602814  3240 net.cpp:157] Top shape: 1 512 63 63 (2032128)
I1118 18:36:41.602816  3240 net.cpp:165] Memory required for data: 926073912
I1118 18:36:41.602819  3240 layer_factory.hpp:77] Creating layer prod1-dsn4
I1118 18:36:41.602823  3240 net.cpp:100] Creating Layer prod1-dsn4
I1118 18:36:41.602826  3240 net.cpp:434] prod1-dsn4 <- conv4_3_relu4_3_0_split_2
I1118 18:36:41.602829  3240 net.cpp:434] prod1-dsn4 <- weight-dsn4
I1118 18:36:41.602835  3240 net.cpp:408] prod1-dsn4 -> prod1-dsn4
I1118 18:36:41.602850  3240 net.cpp:150] Setting up prod1-dsn4
I1118 18:36:41.602854  3240 net.cpp:157] Top shape: 1 512 63 63 (2032128)
I1118 18:36:41.602856  3240 net.cpp:165] Memory required for data: 934202424
I1118 18:36:41.602859  3240 layer_factory.hpp:77] Creating layer conv1-dsn4
I1118 18:36:41.602869  3240 net.cpp:100] Creating Layer conv1-dsn4
I1118 18:36:41.602871  3240 net.cpp:434] conv1-dsn4 <- prod1-dsn4
I1118 18:36:41.602876  3240 net.cpp:408] conv1-dsn4 -> conv1-dsn4
I1118 18:36:41.605494  3240 net.cpp:150] Setting up conv1-dsn4
I1118 18:36:41.605505  3240 net.cpp:157] Top shape: 1 64 63 63 (254016)
I1118 18:36:41.605507  3240 net.cpp:165] Memory required for data: 935218488
I1118 18:36:41.605512  3240 layer_factory.hpp:77] Creating layer conv2-dsn4
I1118 18:36:41.605522  3240 net.cpp:100] Creating Layer conv2-dsn4
I1118 18:36:41.605525  3240 net.cpp:434] conv2-dsn4 <- conv1-dsn4
I1118 18:36:41.605531  3240 net.cpp:408] conv2-dsn4 -> conv2-dsn4
I1118 18:36:41.606490  3240 net.cpp:150] Setting up conv2-dsn4
I1118 18:36:41.606501  3240 net.cpp:157] Top shape: 1 64 63 63 (254016)
I1118 18:36:41.606503  3240 net.cpp:165] Memory required for data: 936234552
I1118 18:36:41.606508  3240 layer_factory.hpp:77] Creating layer relu1-dsn4
I1118 18:36:41.606514  3240 net.cpp:100] Creating Layer relu1-dsn4
I1118 18:36:41.606518  3240 net.cpp:434] relu1-dsn4 <- conv2-dsn4
I1118 18:36:41.606521  3240 net.cpp:395] relu1-dsn4 -> conv2-dsn4 (in-place)
I1118 18:36:41.606685  3240 net.cpp:150] Setting up relu1-dsn4
I1118 18:36:41.606694  3240 net.cpp:157] Top shape: 1 64 63 63 (254016)
I1118 18:36:41.606696  3240 net.cpp:165] Memory required for data: 937250616
I1118 18:36:41.606699  3240 layer_factory.hpp:77] Creating layer conv3-dsn4
I1118 18:36:41.606710  3240 net.cpp:100] Creating Layer conv3-dsn4
I1118 18:36:41.606714  3240 net.cpp:434] conv3-dsn4 <- conv2-dsn4
I1118 18:36:41.606719  3240 net.cpp:408] conv3-dsn4 -> conv3-dsn4
I1118 18:36:41.607527  3240 net.cpp:150] Setting up conv3-dsn4
I1118 18:36:41.607537  3240 net.cpp:157] Top shape: 1 64 63 63 (254016)
I1118 18:36:41.607539  3240 net.cpp:165] Memory required for data: 938266680
I1118 18:36:41.607543  3240 layer_factory.hpp:77] Creating layer relu2-dsn4
I1118 18:36:41.607548  3240 net.cpp:100] Creating Layer relu2-dsn4
I1118 18:36:41.607551  3240 net.cpp:434] relu2-dsn4 <- conv3-dsn4
I1118 18:36:41.607556  3240 net.cpp:395] relu2-dsn4 -> conv3-dsn4 (in-place)
I1118 18:36:41.607720  3240 net.cpp:150] Setting up relu2-dsn4
I1118 18:36:41.607729  3240 net.cpp:157] Top shape: 1 64 63 63 (254016)
I1118 18:36:41.607731  3240 net.cpp:165] Memory required for data: 939282744
I1118 18:36:41.607734  3240 layer_factory.hpp:77] Creating layer conv4-dsn4
I1118 18:36:41.607744  3240 net.cpp:100] Creating Layer conv4-dsn4
I1118 18:36:41.607746  3240 net.cpp:434] conv4-dsn4 <- conv3-dsn4
I1118 18:36:41.607753  3240 net.cpp:408] conv4-dsn4 -> conv4-dsn4
I1118 18:36:41.608369  3240 net.cpp:150] Setting up conv4-dsn4
I1118 18:36:41.608379  3240 net.cpp:157] Top shape: 1 1 63 63 (3969)
I1118 18:36:41.608381  3240 net.cpp:165] Memory required for data: 939298620
I1118 18:36:41.608386  3240 layer_factory.hpp:77] Creating layer sum-dsn4
I1118 18:36:41.608392  3240 net.cpp:100] Creating Layer sum-dsn4
I1118 18:36:41.608394  3240 net.cpp:434] sum-dsn4 <- conv4-dsn4
I1118 18:36:41.608398  3240 net.cpp:434] sum-dsn4 <- weight-dsn5-4_crop1-dsn4_0_split_1
I1118 18:36:41.608404  3240 net.cpp:408] sum-dsn4 -> sum-dsn4
I1118 18:36:41.608425  3240 net.cpp:150] Setting up sum-dsn4
I1118 18:36:41.608429  3240 net.cpp:157] Top shape: 1 1 63 63 (3969)
I1118 18:36:41.608431  3240 net.cpp:165] Memory required for data: 939314496
I1118 18:36:41.608433  3240 layer_factory.hpp:77] Creating layer sum-dsn4_sum-dsn4_0_split
I1118 18:36:41.608438  3240 net.cpp:100] Creating Layer sum-dsn4_sum-dsn4_0_split
I1118 18:36:41.608440  3240 net.cpp:434] sum-dsn4_sum-dsn4_0_split <- sum-dsn4
I1118 18:36:41.608445  3240 net.cpp:408] sum-dsn4_sum-dsn4_0_split -> sum-dsn4_sum-dsn4_0_split_0
I1118 18:36:41.608465  3240 net.cpp:408] sum-dsn4_sum-dsn4_0_split -> sum-dsn4_sum-dsn4_0_split_1
I1118 18:36:41.608495  3240 net.cpp:150] Setting up sum-dsn4_sum-dsn4_0_split
I1118 18:36:41.608500  3240 net.cpp:157] Top shape: 1 1 63 63 (3969)
I1118 18:36:41.608503  3240 net.cpp:157] Top shape: 1 1 63 63 (3969)
I1118 18:36:41.608505  3240 net.cpp:165] Memory required for data: 939346248
I1118 18:36:41.608507  3240 layer_factory.hpp:77] Creating layer upsample8_dsn4
I1118 18:36:41.608517  3240 net.cpp:100] Creating Layer upsample8_dsn4
I1118 18:36:41.608520  3240 net.cpp:434] upsample8_dsn4 <- sum-dsn4_sum-dsn4_0_split_0
I1118 18:36:41.608523  3240 net.cpp:408] upsample8_dsn4 -> sum-dsn4-up
I1118 18:36:41.609658  3240 net.cpp:150] Setting up upsample8_dsn4
I1118 18:36:41.609668  3240 net.cpp:157] Top shape: 1 1 512 512 (262144)
I1118 18:36:41.609669  3240 net.cpp:165] Memory required for data: 940394824
I1118 18:36:41.609674  3240 layer_factory.hpp:77] Creating layer crop2-dsn4
I1118 18:36:41.609679  3240 net.cpp:100] Creating Layer crop2-dsn4
I1118 18:36:41.609683  3240 net.cpp:434] crop2-dsn4 <- sum-dsn4-up
I1118 18:36:41.609685  3240 net.cpp:434] crop2-dsn4 <- data_data_0_split_3
I1118 18:36:41.609691  3240 net.cpp:408] crop2-dsn4 -> upscore-dsn4
I1118 18:36:41.609714  3240 net.cpp:150] Setting up crop2-dsn4
I1118 18:36:41.609719  3240 net.cpp:157] Top shape: 1 1 500 500 (250000)
I1118 18:36:41.609720  3240 net.cpp:165] Memory required for data: 941394824
I1118 18:36:41.609722  3240 layer_factory.hpp:77] Creating layer loss4-score
I1118 18:36:41.609730  3240 net.cpp:100] Creating Layer loss4-score
I1118 18:36:41.609733  3240 net.cpp:434] loss4-score <- upscore-dsn4
I1118 18:36:41.609751  3240 net.cpp:434] loss4-score <- label_data_1_split_2
I1118 18:36:41.609755  3240 net.cpp:408] loss4-score -> loss4-score
I1118 18:36:41.609944  3240 net.cpp:150] Setting up loss4-score
I1118 18:36:41.609951  3240 net.cpp:157] Top shape: (1)
I1118 18:36:41.609953  3240 net.cpp:160]     with loss weight 1
I1118 18:36:41.609959  3240 net.cpp:165] Memory required for data: 941394828
I1118 18:36:41.609961  3240 layer_factory.hpp:77] Creating layer upsample2_dsn3
I1118 18:36:41.609977  3240 net.cpp:100] Creating Layer upsample2_dsn3
I1118 18:36:41.609980  3240 net.cpp:434] upsample2_dsn3 <- sum-dsn4_sum-dsn4_0_split_1
I1118 18:36:41.609985  3240 net.cpp:408] upsample2_dsn3 -> sum-dsn4-3
I1118 18:36:41.610178  3240 net.cpp:150] Setting up upsample2_dsn3
I1118 18:36:41.610185  3240 net.cpp:157] Top shape: 1 1 128 128 (16384)
I1118 18:36:41.610188  3240 net.cpp:165] Memory required for data: 941460364
I1118 18:36:41.610193  3240 layer_factory.hpp:77] Creating layer crop1-dsn3
I1118 18:36:41.610196  3240 net.cpp:100] Creating Layer crop1-dsn3
I1118 18:36:41.610199  3240 net.cpp:434] crop1-dsn3 <- sum-dsn4-3
I1118 18:36:41.610203  3240 net.cpp:434] crop1-dsn3 <- conv3_3_relu3_3_0_split_1
I1118 18:36:41.610208  3240 net.cpp:408] crop1-dsn3 -> weight-dsn4-3
I1118 18:36:41.610227  3240 net.cpp:150] Setting up crop1-dsn3
I1118 18:36:41.610234  3240 net.cpp:157] Top shape: 1 1 125 125 (15625)
I1118 18:36:41.610235  3240 net.cpp:165] Memory required for data: 941522864
I1118 18:36:41.610237  3240 layer_factory.hpp:77] Creating layer weight-dsn4-3_crop1-dsn3_0_split
I1118 18:36:41.610241  3240 net.cpp:100] Creating Layer weight-dsn4-3_crop1-dsn3_0_split
I1118 18:36:41.610244  3240 net.cpp:434] weight-dsn4-3_crop1-dsn3_0_split <- weight-dsn4-3
I1118 18:36:41.610249  3240 net.cpp:408] weight-dsn4-3_crop1-dsn3_0_split -> weight-dsn4-3_crop1-dsn3_0_split_0
I1118 18:36:41.610255  3240 net.cpp:408] weight-dsn4-3_crop1-dsn3_0_split -> weight-dsn4-3_crop1-dsn3_0_split_1
I1118 18:36:41.610281  3240 net.cpp:150] Setting up weight-dsn4-3_crop1-dsn3_0_split
I1118 18:36:41.610286  3240 net.cpp:157] Top shape: 1 1 125 125 (15625)
I1118 18:36:41.610289  3240 net.cpp:157] Top shape: 1 1 125 125 (15625)
I1118 18:36:41.610291  3240 net.cpp:165] Memory required for data: 941647864
I1118 18:36:41.610293  3240 layer_factory.hpp:77] Creating layer sigmoid-dsn3
I1118 18:36:41.610303  3240 net.cpp:100] Creating Layer sigmoid-dsn3
I1118 18:36:41.610306  3240 net.cpp:434] sigmoid-dsn3 <- weight-dsn4-3_crop1-dsn3_0_split_0
I1118 18:36:41.610325  3240 net.cpp:408] sigmoid-dsn3 -> sigmoid-dsn3
I1118 18:36:41.610443  3240 net.cpp:150] Setting up sigmoid-dsn3
I1118 18:36:41.610451  3240 net.cpp:157] Top shape: 1 1 125 125 (15625)
I1118 18:36:41.610453  3240 net.cpp:165] Memory required for data: 941710364
I1118 18:36:41.610456  3240 layer_factory.hpp:77] Creating layer rev-dsn3
I1118 18:36:41.610461  3240 net.cpp:100] Creating Layer rev-dsn3
I1118 18:36:41.610466  3240 net.cpp:434] rev-dsn3 <- sigmoid-dsn3
I1118 18:36:41.610468  3240 net.cpp:408] rev-dsn3 -> rev-dsn3
I1118 18:36:41.610488  3240 net.cpp:150] Setting up rev-dsn3
I1118 18:36:41.610492  3240 net.cpp:157] Top shape: 1 1 125 125 (15625)
I1118 18:36:41.610494  3240 net.cpp:165] Memory required for data: 941772864
I1118 18:36:41.610497  3240 layer_factory.hpp:77] Creating layer tile-dsn3
I1118 18:36:41.610502  3240 net.cpp:100] Creating Layer tile-dsn3
I1118 18:36:41.610503  3240 net.cpp:434] tile-dsn3 <- rev-dsn3
I1118 18:36:41.610507  3240 net.cpp:408] tile-dsn3 -> weight-dsn3
I1118 18:36:41.610523  3240 net.cpp:150] Setting up tile-dsn3
I1118 18:36:41.610527  3240 net.cpp:157] Top shape: 1 256 125 125 (4000000)
I1118 18:36:41.610528  3240 net.cpp:165] Memory required for data: 957772864
I1118 18:36:41.610532  3240 layer_factory.hpp:77] Creating layer prod1-dsn3
I1118 18:36:41.610538  3240 net.cpp:100] Creating Layer prod1-dsn3
I1118 18:36:41.610540  3240 net.cpp:434] prod1-dsn3 <- conv3_3_relu3_3_0_split_2
I1118 18:36:41.610543  3240 net.cpp:434] prod1-dsn3 <- weight-dsn3
I1118 18:36:41.610548  3240 net.cpp:408] prod1-dsn3 -> prod1-dsn3
I1118 18:36:41.610565  3240 net.cpp:150] Setting up prod1-dsn3
I1118 18:36:41.610569  3240 net.cpp:157] Top shape: 1 256 125 125 (4000000)
I1118 18:36:41.610571  3240 net.cpp:165] Memory required for data: 973772864
I1118 18:36:41.610574  3240 layer_factory.hpp:77] Creating layer conv1-dsn3
I1118 18:36:41.610582  3240 net.cpp:100] Creating Layer conv1-dsn3
I1118 18:36:41.610585  3240 net.cpp:434] conv1-dsn3 <- prod1-dsn3
I1118 18:36:41.610591  3240 net.cpp:408] conv1-dsn3 -> conv1-dsn3
I1118 18:36:41.612581  3240 net.cpp:150] Setting up conv1-dsn3
I1118 18:36:41.612591  3240 net.cpp:157] Top shape: 1 64 125 125 (1000000)
I1118 18:36:41.612594  3240 net.cpp:165] Memory required for data: 977772864
I1118 18:36:41.612612  3240 layer_factory.hpp:77] Creating layer conv2-dsn3
I1118 18:36:41.612622  3240 net.cpp:100] Creating Layer conv2-dsn3
I1118 18:36:41.612624  3240 net.cpp:434] conv2-dsn3 <- conv1-dsn3
I1118 18:36:41.612630  3240 net.cpp:408] conv2-dsn3 -> conv2-dsn3
I1118 18:36:41.613477  3240 net.cpp:150] Setting up conv2-dsn3
I1118 18:36:41.613488  3240 net.cpp:157] Top shape: 1 64 125 125 (1000000)
I1118 18:36:41.613490  3240 net.cpp:165] Memory required for data: 981772864
I1118 18:36:41.613495  3240 layer_factory.hpp:77] Creating layer relu1-dsn3
I1118 18:36:41.613500  3240 net.cpp:100] Creating Layer relu1-dsn3
I1118 18:36:41.613502  3240 net.cpp:434] relu1-dsn3 <- conv2-dsn3
I1118 18:36:41.613508  3240 net.cpp:395] relu1-dsn3 -> conv2-dsn3 (in-place)
I1118 18:36:41.613672  3240 net.cpp:150] Setting up relu1-dsn3
I1118 18:36:41.613680  3240 net.cpp:157] Top shape: 1 64 125 125 (1000000)
I1118 18:36:41.613683  3240 net.cpp:165] Memory required for data: 985772864
I1118 18:36:41.613687  3240 layer_factory.hpp:77] Creating layer conv3-dsn3
I1118 18:36:41.613694  3240 net.cpp:100] Creating Layer conv3-dsn3
I1118 18:36:41.613698  3240 net.cpp:434] conv3-dsn3 <- conv2-dsn3
I1118 18:36:41.613704  3240 net.cpp:408] conv3-dsn3 -> conv3-dsn3
I1118 18:36:41.614629  3240 net.cpp:150] Setting up conv3-dsn3
I1118 18:36:41.614639  3240 net.cpp:157] Top shape: 1 64 125 125 (1000000)
I1118 18:36:41.614657  3240 net.cpp:165] Memory required for data: 989772864
I1118 18:36:41.614663  3240 layer_factory.hpp:77] Creating layer relu2-dsn3
I1118 18:36:41.614670  3240 net.cpp:100] Creating Layer relu2-dsn3
I1118 18:36:41.614672  3240 net.cpp:434] relu2-dsn3 <- conv3-dsn3
I1118 18:36:41.614677  3240 net.cpp:395] relu2-dsn3 -> conv3-dsn3 (in-place)
I1118 18:36:41.614747  3240 net.cpp:150] Setting up relu2-dsn3
I1118 18:36:41.614753  3240 net.cpp:157] Top shape: 1 64 125 125 (1000000)
I1118 18:36:41.614755  3240 net.cpp:165] Memory required for data: 993772864
I1118 18:36:41.614758  3240 layer_factory.hpp:77] Creating layer conv4-dsn3
I1118 18:36:41.614768  3240 net.cpp:100] Creating Layer conv4-dsn3
I1118 18:36:41.614770  3240 net.cpp:434] conv4-dsn3 <- conv3-dsn3
I1118 18:36:41.614774  3240 net.cpp:408] conv4-dsn3 -> conv4-dsn3
I1118 18:36:41.615437  3240 net.cpp:150] Setting up conv4-dsn3
I1118 18:36:41.615448  3240 net.cpp:157] Top shape: 1 1 125 125 (15625)
I1118 18:36:41.615450  3240 net.cpp:165] Memory required for data: 993835364
I1118 18:36:41.615455  3240 layer_factory.hpp:77] Creating layer sum-dsn3
I1118 18:36:41.615461  3240 net.cpp:100] Creating Layer sum-dsn3
I1118 18:36:41.615464  3240 net.cpp:434] sum-dsn3 <- conv4-dsn3
I1118 18:36:41.615468  3240 net.cpp:434] sum-dsn3 <- weight-dsn4-3_crop1-dsn3_0_split_1
I1118 18:36:41.615473  3240 net.cpp:408] sum-dsn3 -> sum-dsn3
I1118 18:36:41.615496  3240 net.cpp:150] Setting up sum-dsn3
I1118 18:36:41.615500  3240 net.cpp:157] Top shape: 1 1 125 125 (15625)
I1118 18:36:41.615502  3240 net.cpp:165] Memory required for data: 993897864
I1118 18:36:41.615504  3240 layer_factory.hpp:77] Creating layer sum-dsn3_sum-dsn3_0_split
I1118 18:36:41.615509  3240 net.cpp:100] Creating Layer sum-dsn3_sum-dsn3_0_split
I1118 18:36:41.615511  3240 net.cpp:434] sum-dsn3_sum-dsn3_0_split <- sum-dsn3
I1118 18:36:41.615519  3240 net.cpp:408] sum-dsn3_sum-dsn3_0_split -> sum-dsn3_sum-dsn3_0_split_0
I1118 18:36:41.615523  3240 net.cpp:408] sum-dsn3_sum-dsn3_0_split -> sum-dsn3_sum-dsn3_0_split_1
I1118 18:36:41.615569  3240 net.cpp:150] Setting up sum-dsn3_sum-dsn3_0_split
I1118 18:36:41.615574  3240 net.cpp:157] Top shape: 1 1 125 125 (15625)
I1118 18:36:41.615577  3240 net.cpp:157] Top shape: 1 1 125 125 (15625)
I1118 18:36:41.615579  3240 net.cpp:165] Memory required for data: 994022864
I1118 18:36:41.615583  3240 layer_factory.hpp:77] Creating layer upsample4_dsn3
I1118 18:36:41.615590  3240 net.cpp:100] Creating Layer upsample4_dsn3
I1118 18:36:41.615592  3240 net.cpp:434] upsample4_dsn3 <- sum-dsn3_sum-dsn3_0_split_0
I1118 18:36:41.615597  3240 net.cpp:408] upsample4_dsn3 -> sum-dsn3-up
I1118 18:36:41.616714  3240 net.cpp:150] Setting up upsample4_dsn3
I1118 18:36:41.616724  3240 net.cpp:157] Top shape: 1 1 504 504 (254016)
I1118 18:36:41.616726  3240 net.cpp:165] Memory required for data: 995038928
I1118 18:36:41.616731  3240 layer_factory.hpp:77] Creating layer crop2-dsn3
I1118 18:36:41.616735  3240 net.cpp:100] Creating Layer crop2-dsn3
I1118 18:36:41.616739  3240 net.cpp:434] crop2-dsn3 <- sum-dsn3-up
I1118 18:36:41.616742  3240 net.cpp:434] crop2-dsn3 <- data_data_0_split_4
I1118 18:36:41.616746  3240 net.cpp:408] crop2-dsn3 -> upscore-dsn3
I1118 18:36:41.616770  3240 net.cpp:150] Setting up crop2-dsn3
I1118 18:36:41.616775  3240 net.cpp:157] Top shape: 1 1 500 500 (250000)
I1118 18:36:41.616776  3240 net.cpp:165] Memory required for data: 996038928
I1118 18:36:41.616778  3240 layer_factory.hpp:77] Creating layer loss3-score
I1118 18:36:41.616784  3240 net.cpp:100] Creating Layer loss3-score
I1118 18:36:41.616787  3240 net.cpp:434] loss3-score <- upscore-dsn3
I1118 18:36:41.616791  3240 net.cpp:434] loss3-score <- label_data_1_split_3
I1118 18:36:41.616811  3240 net.cpp:408] loss3-score -> loss3-score
I1118 18:36:41.617005  3240 net.cpp:150] Setting up loss3-score
I1118 18:36:41.617012  3240 net.cpp:157] Top shape: (1)
I1118 18:36:41.617013  3240 net.cpp:160]     with loss weight 1
I1118 18:36:41.617018  3240 net.cpp:165] Memory required for data: 996038932
I1118 18:36:41.617022  3240 layer_factory.hpp:77] Creating layer upsample2_1-dsn2
I1118 18:36:41.617030  3240 net.cpp:100] Creating Layer upsample2_1-dsn2
I1118 18:36:41.617033  3240 net.cpp:434] upsample2_1-dsn2 <- sum-dsn3_sum-dsn3_0_split_1
I1118 18:36:41.617038  3240 net.cpp:408] upsample2_1-dsn2 -> sum-dsn3-2
I1118 18:36:41.618054  3240 net.cpp:150] Setting up upsample2_1-dsn2
I1118 18:36:41.618063  3240 net.cpp:157] Top shape: 1 1 252 252 (63504)
I1118 18:36:41.618065  3240 net.cpp:165] Memory required for data: 996292948
I1118 18:36:41.618070  3240 layer_factory.hpp:77] Creating layer crop1-dsn2
I1118 18:36:41.618074  3240 net.cpp:100] Creating Layer crop1-dsn2
I1118 18:36:41.618077  3240 net.cpp:434] crop1-dsn2 <- sum-dsn3-2
I1118 18:36:41.618082  3240 net.cpp:434] crop1-dsn2 <- conv2_2_relu2_2_0_split_1
I1118 18:36:41.618088  3240 net.cpp:408] crop1-dsn2 -> weight-dsn3-2
I1118 18:36:41.618111  3240 net.cpp:150] Setting up crop1-dsn2
I1118 18:36:41.618116  3240 net.cpp:157] Top shape: 1 1 250 250 (62500)
I1118 18:36:41.618118  3240 net.cpp:165] Memory required for data: 996542948
I1118 18:36:41.618119  3240 layer_factory.hpp:77] Creating layer weight-dsn3-2_crop1-dsn2_0_split
I1118 18:36:41.618124  3240 net.cpp:100] Creating Layer weight-dsn3-2_crop1-dsn2_0_split
I1118 18:36:41.618126  3240 net.cpp:434] weight-dsn3-2_crop1-dsn2_0_split <- weight-dsn3-2
I1118 18:36:41.618146  3240 net.cpp:408] weight-dsn3-2_crop1-dsn2_0_split -> weight-dsn3-2_crop1-dsn2_0_split_0
I1118 18:36:41.618151  3240 net.cpp:408] weight-dsn3-2_crop1-dsn2_0_split -> weight-dsn3-2_crop1-dsn2_0_split_1
I1118 18:36:41.618180  3240 net.cpp:150] Setting up weight-dsn3-2_crop1-dsn2_0_split
I1118 18:36:41.618185  3240 net.cpp:157] Top shape: 1 1 250 250 (62500)
I1118 18:36:41.618187  3240 net.cpp:157] Top shape: 1 1 250 250 (62500)
I1118 18:36:41.618189  3240 net.cpp:165] Memory required for data: 997042948
I1118 18:36:41.618191  3240 layer_factory.hpp:77] Creating layer sigmoid-dsn2
I1118 18:36:41.618198  3240 net.cpp:100] Creating Layer sigmoid-dsn2
I1118 18:36:41.618201  3240 net.cpp:434] sigmoid-dsn2 <- weight-dsn3-2_crop1-dsn2_0_split_0
I1118 18:36:41.618204  3240 net.cpp:408] sigmoid-dsn2 -> sigmoid-dsn2
I1118 18:36:41.618309  3240 net.cpp:150] Setting up sigmoid-dsn2
I1118 18:36:41.618316  3240 net.cpp:157] Top shape: 1 1 250 250 (62500)
I1118 18:36:41.618319  3240 net.cpp:165] Memory required for data: 997292948
I1118 18:36:41.618322  3240 layer_factory.hpp:77] Creating layer rev-dsn2
I1118 18:36:41.618326  3240 net.cpp:100] Creating Layer rev-dsn2
I1118 18:36:41.618330  3240 net.cpp:434] rev-dsn2 <- sigmoid-dsn2
I1118 18:36:41.618333  3240 net.cpp:408] rev-dsn2 -> rev-dsn2
I1118 18:36:41.618353  3240 net.cpp:150] Setting up rev-dsn2
I1118 18:36:41.618356  3240 net.cpp:157] Top shape: 1 1 250 250 (62500)
I1118 18:36:41.618360  3240 net.cpp:165] Memory required for data: 997542948
I1118 18:36:41.618361  3240 layer_factory.hpp:77] Creating layer tile-dsn2
I1118 18:36:41.618366  3240 net.cpp:100] Creating Layer tile-dsn2
I1118 18:36:41.618367  3240 net.cpp:434] tile-dsn2 <- rev-dsn2
I1118 18:36:41.618371  3240 net.cpp:408] tile-dsn2 -> weight-dsn2
I1118 18:36:41.618386  3240 net.cpp:150] Setting up tile-dsn2
I1118 18:36:41.618391  3240 net.cpp:157] Top shape: 1 128 250 250 (8000000)
I1118 18:36:41.618392  3240 net.cpp:165] Memory required for data: 1029542948
I1118 18:36:41.618394  3240 layer_factory.hpp:77] Creating layer prod1-dsn2
I1118 18:36:41.618400  3240 net.cpp:100] Creating Layer prod1-dsn2
I1118 18:36:41.618403  3240 net.cpp:434] prod1-dsn2 <- conv2_2_relu2_2_0_split_2
I1118 18:36:41.618407  3240 net.cpp:434] prod1-dsn2 <- weight-dsn2
I1118 18:36:41.618412  3240 net.cpp:408] prod1-dsn2 -> prod1-dsn2
I1118 18:36:41.618427  3240 net.cpp:150] Setting up prod1-dsn2
I1118 18:36:41.618432  3240 net.cpp:157] Top shape: 1 128 250 250 (8000000)
I1118 18:36:41.618433  3240 net.cpp:165] Memory required for data: 1061542948
I1118 18:36:41.618435  3240 layer_factory.hpp:77] Creating layer conv1-dsn2
I1118 18:36:41.618445  3240 net.cpp:100] Creating Layer conv1-dsn2
I1118 18:36:41.618448  3240 net.cpp:434] conv1-dsn2 <- prod1-dsn2
I1118 18:36:41.618453  3240 net.cpp:408] conv1-dsn2 -> conv1-dsn2
I1118 18:36:41.620267  3240 net.cpp:150] Setting up conv1-dsn2
I1118 18:36:41.620277  3240 net.cpp:157] Top shape: 1 64 250 250 (4000000)
I1118 18:36:41.620280  3240 net.cpp:165] Memory required for data: 1077542948
I1118 18:36:41.620285  3240 layer_factory.hpp:77] Creating layer conv2-dsn2
I1118 18:36:41.620296  3240 net.cpp:100] Creating Layer conv2-dsn2
I1118 18:36:41.620297  3240 net.cpp:434] conv2-dsn2 <- conv1-dsn2
I1118 18:36:41.620307  3240 net.cpp:408] conv2-dsn2 -> conv2-dsn2
I1118 18:36:41.621285  3240 net.cpp:150] Setting up conv2-dsn2
I1118 18:36:41.621295  3240 net.cpp:157] Top shape: 1 64 250 250 (4000000)
I1118 18:36:41.621299  3240 net.cpp:165] Memory required for data: 1093542948
I1118 18:36:41.621307  3240 layer_factory.hpp:77] Creating layer relu1-dsn2
I1118 18:36:41.621311  3240 net.cpp:100] Creating Layer relu1-dsn2
I1118 18:36:41.621315  3240 net.cpp:434] relu1-dsn2 <- conv2-dsn2
I1118 18:36:41.621320  3240 net.cpp:395] relu1-dsn2 -> conv2-dsn2 (in-place)
I1118 18:36:41.621387  3240 net.cpp:150] Setting up relu1-dsn2
I1118 18:36:41.621409  3240 net.cpp:157] Top shape: 1 64 250 250 (4000000)
I1118 18:36:41.621412  3240 net.cpp:165] Memory required for data: 1109542948
I1118 18:36:41.621415  3240 layer_factory.hpp:77] Creating layer conv3-dsn2
I1118 18:36:41.621425  3240 net.cpp:100] Creating Layer conv3-dsn2
I1118 18:36:41.621428  3240 net.cpp:434] conv3-dsn2 <- conv2-dsn2
I1118 18:36:41.621433  3240 net.cpp:408] conv3-dsn2 -> conv3-dsn2
I1118 18:36:41.622351  3240 net.cpp:150] Setting up conv3-dsn2
I1118 18:36:41.622360  3240 net.cpp:157] Top shape: 1 64 250 250 (4000000)
I1118 18:36:41.622364  3240 net.cpp:165] Memory required for data: 1125542948
I1118 18:36:41.622368  3240 layer_factory.hpp:77] Creating layer relu2-dsn2
I1118 18:36:41.622375  3240 net.cpp:100] Creating Layer relu2-dsn2
I1118 18:36:41.622376  3240 net.cpp:434] relu2-dsn2 <- conv3-dsn2
I1118 18:36:41.622380  3240 net.cpp:395] relu2-dsn2 -> conv3-dsn2 (in-place)
I1118 18:36:41.622448  3240 net.cpp:150] Setting up relu2-dsn2
I1118 18:36:41.622455  3240 net.cpp:157] Top shape: 1 64 250 250 (4000000)
I1118 18:36:41.622473  3240 net.cpp:165] Memory required for data: 1141542948
I1118 18:36:41.622475  3240 layer_factory.hpp:77] Creating layer conv4-dsn2
I1118 18:36:41.622484  3240 net.cpp:100] Creating Layer conv4-dsn2
I1118 18:36:41.622486  3240 net.cpp:434] conv4-dsn2 <- conv3-dsn2
I1118 18:36:41.622491  3240 net.cpp:408] conv4-dsn2 -> conv4-dsn2
I1118 18:36:41.623102  3240 net.cpp:150] Setting up conv4-dsn2
I1118 18:36:41.623112  3240 net.cpp:157] Top shape: 1 1 250 250 (62500)
I1118 18:36:41.623114  3240 net.cpp:165] Memory required for data: 1141792948
I1118 18:36:41.623119  3240 layer_factory.hpp:77] Creating layer sum-dsn2
I1118 18:36:41.623127  3240 net.cpp:100] Creating Layer sum-dsn2
I1118 18:36:41.623131  3240 net.cpp:434] sum-dsn2 <- conv4-dsn2
I1118 18:36:41.623134  3240 net.cpp:434] sum-dsn2 <- weight-dsn3-2_crop1-dsn2_0_split_1
I1118 18:36:41.623139  3240 net.cpp:408] sum-dsn2 -> sum-dsn2
I1118 18:36:41.623159  3240 net.cpp:150] Setting up sum-dsn2
I1118 18:36:41.623164  3240 net.cpp:157] Top shape: 1 1 250 250 (62500)
I1118 18:36:41.623167  3240 net.cpp:165] Memory required for data: 1142042948
I1118 18:36:41.623168  3240 layer_factory.hpp:77] Creating layer upsample2_2-dsn2
I1118 18:36:41.623174  3240 net.cpp:100] Creating Layer upsample2_2-dsn2
I1118 18:36:41.623178  3240 net.cpp:434] upsample2_2-dsn2 <- sum-dsn2
I1118 18:36:41.623183  3240 net.cpp:408] upsample2_2-dsn2 -> sum-dsn2-up
I1118 18:36:41.624347  3240 net.cpp:150] Setting up upsample2_2-dsn2
I1118 18:36:41.624358  3240 net.cpp:157] Top shape: 1 1 502 502 (252004)
I1118 18:36:41.624361  3240 net.cpp:165] Memory required for data: 1143050964
I1118 18:36:41.624367  3240 layer_factory.hpp:77] Creating layer crop2-dsn2
I1118 18:36:41.624372  3240 net.cpp:100] Creating Layer crop2-dsn2
I1118 18:36:41.624374  3240 net.cpp:434] crop2-dsn2 <- sum-dsn2-up
I1118 18:36:41.624378  3240 net.cpp:434] crop2-dsn2 <- data_data_0_split_5
I1118 18:36:41.624382  3240 net.cpp:408] crop2-dsn2 -> upscore-dsn2
I1118 18:36:41.624405  3240 net.cpp:150] Setting up crop2-dsn2
I1118 18:36:41.624409  3240 net.cpp:157] Top shape: 1 1 500 500 (250000)
I1118 18:36:41.624411  3240 net.cpp:165] Memory required for data: 1144050964
I1118 18:36:41.624414  3240 layer_factory.hpp:77] Creating layer upscore-dsn2_crop2-dsn2_0_split
I1118 18:36:41.624420  3240 net.cpp:100] Creating Layer upscore-dsn2_crop2-dsn2_0_split
I1118 18:36:41.624423  3240 net.cpp:434] upscore-dsn2_crop2-dsn2_0_split <- upscore-dsn2
I1118 18:36:41.624426  3240 net.cpp:408] upscore-dsn2_crop2-dsn2_0_split -> upscore-dsn2_crop2-dsn2_0_split_0
I1118 18:36:41.624430  3240 net.cpp:408] upscore-dsn2_crop2-dsn2_0_split -> upscore-dsn2_crop2-dsn2_0_split_1
I1118 18:36:41.624436  3240 net.cpp:408] upscore-dsn2_crop2-dsn2_0_split -> upscore-dsn2_crop2-dsn2_0_split_2
I1118 18:36:41.624506  3240 net.cpp:150] Setting up upscore-dsn2_crop2-dsn2_0_split
I1118 18:36:41.624512  3240 net.cpp:157] Top shape: 1 1 500 500 (250000)
I1118 18:36:41.624516  3240 net.cpp:157] Top shape: 1 1 500 500 (250000)
I1118 18:36:41.624519  3240 net.cpp:157] Top shape: 1 1 500 500 (250000)
I1118 18:36:41.624521  3240 net.cpp:165] Memory required for data: 1147050964
I1118 18:36:41.624523  3240 layer_factory.hpp:77] Creating layer loss2-score
I1118 18:36:41.624531  3240 net.cpp:100] Creating Layer loss2-score
I1118 18:36:41.624533  3240 net.cpp:434] loss2-score <- upscore-dsn2_crop2-dsn2_0_split_0
I1118 18:36:41.624536  3240 net.cpp:434] loss2-score <- label_data_1_split_4
I1118 18:36:41.624541  3240 net.cpp:408] loss2-score -> loss2-score
I1118 18:36:41.624732  3240 net.cpp:150] Setting up loss2-score
I1118 18:36:41.624738  3240 net.cpp:157] Top shape: (1)
I1118 18:36:41.624740  3240 net.cpp:160]     with loss weight 1
I1118 18:36:41.624745  3240 net.cpp:165] Memory required for data: 1147050968
I1118 18:36:41.624747  3240 layer_factory.hpp:77] Creating layer sigmoid-dsn1
I1118 18:36:41.624753  3240 net.cpp:100] Creating Layer sigmoid-dsn1
I1118 18:36:41.624756  3240 net.cpp:434] sigmoid-dsn1 <- upscore-dsn2_crop2-dsn2_0_split_1
I1118 18:36:41.624760  3240 net.cpp:408] sigmoid-dsn1 -> sigmoid-dsn1
I1118 18:36:41.626024  3240 net.cpp:150] Setting up sigmoid-dsn1
I1118 18:36:41.626034  3240 net.cpp:157] Top shape: 1 1 500 500 (250000)
I1118 18:36:41.626049  3240 net.cpp:165] Memory required for data: 1148050968
I1118 18:36:41.626052  3240 layer_factory.hpp:77] Creating layer rev-dsn1
I1118 18:36:41.626057  3240 net.cpp:100] Creating Layer rev-dsn1
I1118 18:36:41.626060  3240 net.cpp:434] rev-dsn1 <- sigmoid-dsn1
I1118 18:36:41.626066  3240 net.cpp:408] rev-dsn1 -> rev-dsn1
I1118 18:36:41.626088  3240 net.cpp:150] Setting up rev-dsn1
I1118 18:36:41.626093  3240 net.cpp:157] Top shape: 1 1 500 500 (250000)
I1118 18:36:41.626096  3240 net.cpp:165] Memory required for data: 1149050968
I1118 18:36:41.626097  3240 layer_factory.hpp:77] Creating layer tile-dsn1
I1118 18:36:41.626101  3240 net.cpp:100] Creating Layer tile-dsn1
I1118 18:36:41.626103  3240 net.cpp:434] tile-dsn1 <- rev-dsn1
I1118 18:36:41.626107  3240 net.cpp:408] tile-dsn1 -> weight-dsn1
I1118 18:36:41.626124  3240 net.cpp:150] Setting up tile-dsn1
I1118 18:36:41.626128  3240 net.cpp:157] Top shape: 1 64 500 500 (16000000)
I1118 18:36:41.626130  3240 net.cpp:165] Memory required for data: 1213050968
I1118 18:36:41.626132  3240 layer_factory.hpp:77] Creating layer prod1-dsn1
I1118 18:36:41.626138  3240 net.cpp:100] Creating Layer prod1-dsn1
I1118 18:36:41.626142  3240 net.cpp:434] prod1-dsn1 <- conv1_2_relu1_2_0_split_1
I1118 18:36:41.626145  3240 net.cpp:434] prod1-dsn1 <- weight-dsn1
I1118 18:36:41.626148  3240 net.cpp:408] prod1-dsn1 -> prod1-dsn1
I1118 18:36:41.626165  3240 net.cpp:150] Setting up prod1-dsn1
I1118 18:36:41.626169  3240 net.cpp:157] Top shape: 1 64 500 500 (16000000)
I1118 18:36:41.626171  3240 net.cpp:165] Memory required for data: 1277050968
I1118 18:36:41.626173  3240 layer_factory.hpp:77] Creating layer conv1-dsn1
I1118 18:36:41.626183  3240 net.cpp:100] Creating Layer conv1-dsn1
I1118 18:36:41.626185  3240 net.cpp:434] conv1-dsn1 <- prod1-dsn1
I1118 18:36:41.626191  3240 net.cpp:408] conv1-dsn1 -> conv1-dsn1
I1118 18:36:41.627696  3240 net.cpp:150] Setting up conv1-dsn1
I1118 18:36:41.627707  3240 net.cpp:157] Top shape: 1 64 500 500 (16000000)
I1118 18:36:41.627709  3240 net.cpp:165] Memory required for data: 1341050968
I1118 18:36:41.627714  3240 layer_factory.hpp:77] Creating layer conv2-dsn1
I1118 18:36:41.627739  3240 net.cpp:100] Creating Layer conv2-dsn1
I1118 18:36:41.627743  3240 net.cpp:434] conv2-dsn1 <- conv1-dsn1
I1118 18:36:41.627748  3240 net.cpp:408] conv2-dsn1 -> conv2-dsn1
I1118 18:36:41.628865  3240 net.cpp:150] Setting up conv2-dsn1
I1118 18:36:41.628876  3240 net.cpp:157] Top shape: 1 64 500 500 (16000000)
I1118 18:36:41.628895  3240 net.cpp:165] Memory required for data: 1405050968
I1118 18:36:41.628901  3240 layer_factory.hpp:77] Creating layer relu1-dsn1
I1118 18:36:41.628906  3240 net.cpp:100] Creating Layer relu1-dsn1
I1118 18:36:41.628907  3240 net.cpp:434] relu1-dsn1 <- conv2-dsn1
I1118 18:36:41.628913  3240 net.cpp:395] relu1-dsn1 -> conv2-dsn1 (in-place)
I1118 18:36:41.628985  3240 net.cpp:150] Setting up relu1-dsn1
I1118 18:36:41.628993  3240 net.cpp:157] Top shape: 1 64 500 500 (16000000)
I1118 18:36:41.628994  3240 net.cpp:165] Memory required for data: 1469050968
I1118 18:36:41.628996  3240 layer_factory.hpp:77] Creating layer conv3-dsn1
I1118 18:36:41.629004  3240 net.cpp:100] Creating Layer conv3-dsn1
I1118 18:36:41.629007  3240 net.cpp:434] conv3-dsn1 <- conv2-dsn1
I1118 18:36:41.629012  3240 net.cpp:408] conv3-dsn1 -> conv3-dsn1
I1118 18:36:41.630805  3240 net.cpp:150] Setting up conv3-dsn1
I1118 18:36:41.630815  3240 net.cpp:157] Top shape: 1 64 500 500 (16000000)
I1118 18:36:41.630817  3240 net.cpp:165] Memory required for data: 1533050968
I1118 18:36:41.630822  3240 layer_factory.hpp:77] Creating layer relu2-dsn1
I1118 18:36:41.630826  3240 net.cpp:100] Creating Layer relu2-dsn1
I1118 18:36:41.630829  3240 net.cpp:434] relu2-dsn1 <- conv3-dsn1
I1118 18:36:41.630834  3240 net.cpp:395] relu2-dsn1 -> conv3-dsn1 (in-place)
I1118 18:36:41.631022  3240 net.cpp:150] Setting up relu2-dsn1
I1118 18:36:41.631031  3240 net.cpp:157] Top shape: 1 64 500 500 (16000000)
I1118 18:36:41.631034  3240 net.cpp:165] Memory required for data: 1597050968
I1118 18:36:41.631037  3240 layer_factory.hpp:77] Creating layer conv4-dsn1
I1118 18:36:41.631047  3240 net.cpp:100] Creating Layer conv4-dsn1
I1118 18:36:41.631049  3240 net.cpp:434] conv4-dsn1 <- conv3-dsn1
I1118 18:36:41.631057  3240 net.cpp:408] conv4-dsn1 -> conv4-dsn1
I1118 18:36:41.631772  3240 net.cpp:150] Setting up conv4-dsn1
I1118 18:36:41.631784  3240 net.cpp:157] Top shape: 1 1 500 500 (250000)
I1118 18:36:41.631788  3240 net.cpp:165] Memory required for data: 1598050968
I1118 18:36:41.631793  3240 layer_factory.hpp:77] Creating layer sum-dsn1
I1118 18:36:41.631798  3240 net.cpp:100] Creating Layer sum-dsn1
I1118 18:36:41.631799  3240 net.cpp:434] sum-dsn1 <- conv4-dsn1
I1118 18:36:41.631803  3240 net.cpp:434] sum-dsn1 <- upscore-dsn2_crop2-dsn2_0_split_2
I1118 18:36:41.631808  3240 net.cpp:408] sum-dsn1 -> sum-dsn1
I1118 18:36:41.631830  3240 net.cpp:150] Setting up sum-dsn1
I1118 18:36:41.631835  3240 net.cpp:157] Top shape: 1 1 500 500 (250000)
I1118 18:36:41.631837  3240 net.cpp:165] Memory required for data: 1599050968
I1118 18:36:41.631840  3240 layer_factory.hpp:77] Creating layer crop2-dsn1
I1118 18:36:41.631844  3240 net.cpp:100] Creating Layer crop2-dsn1
I1118 18:36:41.631845  3240 net.cpp:434] crop2-dsn1 <- sum-dsn1
I1118 18:36:41.631848  3240 net.cpp:434] crop2-dsn1 <- data_data_0_split_6
I1118 18:36:41.631852  3240 net.cpp:408] crop2-dsn1 -> upscore-dsn1
I1118 18:36:41.631870  3240 net.cpp:150] Setting up crop2-dsn1
I1118 18:36:41.631873  3240 net.cpp:157] Top shape: 1 1 500 500 (250000)
I1118 18:36:41.631875  3240 net.cpp:165] Memory required for data: 1600050968
I1118 18:36:41.631878  3240 layer_factory.hpp:77] Creating layer loss1-score
I1118 18:36:41.631899  3240 net.cpp:100] Creating Layer loss1-score
I1118 18:36:41.631906  3240 net.cpp:434] loss1-score <- upscore-dsn1
I1118 18:36:41.631908  3240 net.cpp:434] loss1-score <- label_data_1_split_5
I1118 18:36:41.631914  3240 net.cpp:408] loss1-score -> loss1-score
…
