…
I1125 12:06:13.080119 25992 net.cpp:58] Initializing net from parameters: 
name: "RAS"
state {
  phase: TRAIN
}
layer {
  name: "data"
  type: "ImageLabelmapData"
  top: "data_unaugmented"
  top: "label_unaugmented"
  include {
    phase: TRAIN
  }
  transform_param {
    mean_value: 104.00699
    mean_value: 116.66877
    mean_value: 122.67892
  }
  image_data_param {
    source: "/media/compute/homes/galberding/FleckDetect/Datasets/train.txt"
    batch_size: 1
    shuffle: true
    new_height: 500
    new_width: 500
    root_folder: "/media/compute/homes/galberding/FleckDetect/Datasets/"
    normalize: true
  }
}
layer {
  name: "augmentation"
  type: "Python"
  bottom: "data_unaugmented"
  bottom: "label_unaugmented"
  top: "data"
  top: "label"
  include {
    phase: TRAIN
  }
  python_param {
    module: "data_augmentation"
    layer: "DataAugmentation"
  }
}
layer {
  name: "conv1_1"
  type: "Convolution"
  bottom: "data"
  top: "conv1_1"
  param {
    lr_mult: 1
    decay_mult: 1
  }
  param {
    lr_mult: 2
    decay_mult: 0
  }
  convolution_param {
    num_output: 64
    pad: 1
    kernel_size: 3
    engine: CUDNN
  }
}
layer {
  name: "relu1_1"
  type: "ReLU"
  bottom: "conv1_1"
  top: "conv1_1"
}
layer {
  name: "conv1_2"
  type: "Convolution"
  bottom: "conv1_1"
  top: "conv1_2"
  param {
    lr_mult: 1
    decay_mult: 1
  }
  param {
    lr_mult: 2
    decay_mult: 0
  }
  convolution_param {
    num_output: 64
    pad: 1
    kernel_size: 3
    engine: CUDNN
  }
}
layer {
  name: "relu1_2"
  type: "ReLU"
  bottom: "conv1_2"
  top: "conv1_2"
}
layer {
  name: "pool1"
  type: "Pooling"
  bottom: "conv1_2"
  top: "pool1"
  pooling_param {
    pool: MAX
    kernel_size: 2
    stride: 2
  }
}
layer {
  name: "conv2_1"
  type: "Convolution"
  bottom: "pool1"
  top: "conv2_1"
  param {
    lr_mult: 1
    decay_mult: 1
  }
  param {
    lr_mult: 2
    decay_mult: 0
  }
  convolution_param {
    num_output: 128
    pad: 1
    kernel_size: 3
    engine: CUDNN
  }
}
layer {
  name: "relu2_1"
  type: "ReLU"
  bottom: "conv2_1"
  top: "conv2_1"
}
layer {
  name: "conv2_2"
  type: "Convolution"
  bottom: "conv2_1"
  top: "conv2_2"
  param {
    lr_mult: 1
    decay_mult: 1
  }
  param {
    lr_mult: 2
    decay_mult: 0
  }
  convolution_param {
    num_output: 128
    pad: 1
    kernel_size: 3
    engine: CUDNN
  }
}
layer {
  name: "relu2_2"
  type: "ReLU"
  bottom: "conv2_2"
  top: "conv2_2"
}
layer {
  name: "pool2"
  type: "Pooling"
  bottom: "conv2_2"
  top: "pool2"
  pooling_param {
    pool: MAX
    kernel_size: 2
    stride: 2
  }
}
layer {
  name: "conv3_1"
  type: "Convolution"
  bottom: "pool2"
  top: "conv3_1"
  param {
    lr_mult: 1
    decay_mult: 1
  }
  param {
    lr_mult: 2
    decay_mult: 0
  }
  convolution_param {
    num_output: 256
    pad: 1
    kernel_size: 3
    engine: CUDNN
  }
}
layer {
  name: "relu3_1"
  type: "ReLU"
  bottom: "conv3_1"
  top: "conv3_1"
}
layer {
  name: "conv3_2"
  type: "Convolution"
  bottom: "conv3_1"
  top: "conv3_2"
  param {
    lr_mult: 1
    decay_mult: 1
  }
  param {
    lr_mult: 2
    decay_mult: 0
  }
  convolution_param {
    num_output: 256
    pad: 1
    kernel_size: 3
    engine: CUDNN
  }
}
layer {
  name: "relu3_2"
  type: "ReLU"
  bottom: "conv3_2"
  top: "conv3_2"
}
layer {
  name: "conv3_3"
  type: "Convolution"
  bottom: "conv3_2"
  top: "conv3_3"
  param {
    lr_mult: 1
    decay_mult: 1
  }
  param {
    lr_mult: 2
    decay_mult: 0
  }
  convolution_param {
    num_output: 256
    pad: 1
    kernel_size: 3
    engine: CUDNN
  }
}
layer {
  name: "relu3_3"
  type: "ReLU"
  bottom: "conv3_3"
  top: "conv3_3"
}
layer {
  name: "pool3"
  type: "Pooling"
  bottom: "conv3_3"
  top: "pool3"
  pooling_param {
    pool: MAX
    kernel_size: 2
    stride: 2
  }
}
layer {
  name: "conv4_1"
  type: "Convolution"
  bottom: "pool3"
  top: "conv4_1"
  param {
    lr_mult: 1
    decay_mult: 1
  }
  param {
    lr_mult: 2
    decay_mult: 0
  }
  convolution_param {
    num_output: 512
    pad: 1
    kernel_size: 3
    engine: CUDNN
  }
}
layer {
  name: "relu4_1"
  type: "ReLU"
  bottom: "conv4_1"
  top: "conv4_1"
}
layer {
  name: "conv4_2"
  type: "Convolution"
  bottom: "conv4_1"
  top: "conv4_2"
  param {
    lr_mult: 1
    decay_mult: 1
  }
  param {
    lr_mult: 2
    decay_mult: 0
  }
  convolution_param {
    num_output: 512
    pad: 1
    kernel_size: 3
    engine: CUDNN
  }
}
layer {
  name: "relu4_2"
  type: "ReLU"
  bottom: "conv4_2"
  top: "conv4_2"
}
layer {
  name: "conv4_3"
  type: "Convolution"
  bottom: "conv4_2"
  top: "conv4_3"
  param {
    lr_mult: 1
    decay_mult: 1
  }
  param {
    lr_mult: 2
    decay_mult: 0
  }
  convolution_param {
    num_output: 512
    pad: 1
    kernel_size: 3
    engine: CUDNN
  }
}
layer {
  name: "relu4_3"
  type: "ReLU"
  bottom: "conv4_3"
  top: "conv4_3"
}
layer {
  name: "pool4"
  type: "Pooling"
  bottom: "conv4_3"
  top: "pool4"
  pooling_param {
    pool: MAX
    kernel_size: 3
    stride: 2
    pad: 1
  }
}
layer {
  name: "conv5_1"
  type: "Convolution"
  bottom: "pool4"
  top: "conv5_1"
  param {
    lr_mult: 1
    decay_mult: 1
  }
  param {
    lr_mult: 2
    decay_mult: 0
  }
  convolution_param {
    num_output: 512
    pad: 1
    kernel_size: 3
    engine: CUDNN
  }
}
layer {
  name: "relu5_1"
  type: "ReLU"
  bottom: "conv5_1"
  top: "conv5_1"
}
layer {
  name: "conv5_2"
  type: "Convolution"
  bottom: "conv5_1"
  top: "conv5_2"
  param {
    lr_mult: 1
    decay_mult: 1
  }
  param {
    lr_mult: 2
    decay_mult: 0
  }
  convolution_param {
    num_output: 512
    pad: 1
    kernel_size: 3
    engine: CUDNN
  }
}
layer {
  name: "relu5_2"
  type: "ReLU"
  bottom: "conv5_2"
  top: "conv5_2"
}
layer {
  name: "conv5_3"
  type: "Convolution"
  bottom: "conv5_2"
  top: "conv5_3"
  param {
    lr_mult: 1
    decay_mult: 1
  }
  param {
    lr_mult: 2
    decay_mult: 0
  }
  convolution_param {
    num_output: 512
    pad: 1
    kernel_size: 3
    engine: CUDNN
  }
}
layer {
  name: "relu5_3"
  type: "ReLU"
  bottom: "conv5_3"
  top: "conv5_3"
}
layer {
  name: "pool5"
  type: "Pooling"
  bottom: "conv5_3"
  top: "pool5"
  pooling_param {
    pool: MAX
    kernel_size: 3
    stride: 2
    pad: 1
  }
}
layer {
  name: "conv1-dsn6"
  type: "Convolution"
  bottom: "pool5"
  top: "conv1-dsn6"
  param {
    lr_mult: 1
    decay_mult: 1
  }
  param {
    lr_mult: 2
    decay_mult: 0
  }
  convolution_param {
    num_output: 256
    kernel_size: 1
    weight_filler {
      type: "gaussian"
      std: 0.01
    }
    bias_filler {
      type: "constant"
      value: 0
    }
    engine: CUDNN
  }
}
layer {
  name: "conv2-dsn6"
  type: "Convolution"
  bottom: "conv1-dsn6"
  top: "conv2-dsn6"
  param {
    lr_mult: 1
    decay_mult: 1
  }
  param {
    lr_mult: 2
    decay_mult: 0
  }
  convolution_param {
    num_output: 256
    pad: 2
    kernel_size: 5
    weight_filler {
      type: "gaussian"
      std: 0.01
    }
    bias_filler {
      type: "constant"
      value: 0
    }
    engine: CUDNN
  }
}
layer {
  name: "relu1-dsn6"
  type: "ReLU"
  bottom: "conv2-dsn6"
  top: "conv2-dsn6"
}
layer {
  name: "conv3-dsn6"
  type: "Convolution"
  bottom: "conv2-dsn6"
  top: "conv3-dsn6"
  param {
    lr_mult: 1
    decay_mult: 1
  }
  param {
    lr_mult: 2
    decay_mult: 0
  }
  convolution_param {
    num_output: 256
    pad: 2
    kernel_size: 5
    weight_filler {
      type: "gaussian"
      std: 0.01
    }
    bias_filler {
      type: "constant"
      value: 0
    }
    engine: CUDNN
  }
}
layer {
  name: "relu2-dsn6"
  type: "ReLU"
  bottom: "conv3-dsn6"
  top: "conv3-dsn6"
}
layer {
  name: "conv4-dsn6"
  type: "Convolution"
  bottom: "conv3-dsn6"
  top: "conv4-dsn6"
  param {
    lr_mult: 1
    decay_mult: 1
  }
  param {
    lr_mult: 2
    decay_mult: 0
  }
  convolution_param {
    num_output: 256
    pad: 2
    kernel_size: 5
    weight_filler {
      type: "gaussian"
      std: 0.01
    }
    bias_filler {
      type: "constant"
      value: 0
    }
    engine: CUDNN
  }
}
layer {
  name: "relu3-dsn6"
  type: "ReLU"
  bottom: "conv4-dsn6"
  top: "conv4-dsn6"
}
layer {
  name: "conv5-dsn6"
  type: "Convolution"
  bottom: "conv4-dsn6"
  top: "conv5-dsn6"
  param {
    lr_mult: 0.1
    decay_mult: 1
  }
  param {
    lr_mult: 0.2
    decay_mult: 0
  }
  convolution_param {
    num_output: 1
    kernel_size: 1
    weight_filler {
      type: "gaussian"
      std: 0.01
    }
    bias_filler {
      type: "constant"
      value: 0
    }
    engine: CUDNN
  }
}
layer {
  name: "upsample32_dsn6"
  type: "Deconvolution"
  bottom: "conv5-dsn6"
  top: "conv5-dsn6-up"
  param {
    lr_mult: 0
    decay_mult: 1
  }
  param {
    lr_mult: 0
    decay_mult: 0
  }
  convolution_param {
    num_output: 1
    kernel_size: 64
    stride: 32
  }
}
layer {
  name: "crop-dsn6"
  type: "Crop"
  bottom: "conv5-dsn6-up"
  bottom: "data"
  top: "upscore-dsn6"
}
layer {
  name: "loss6-score"
  type: "SigmoidCrossEntropyLoss"
  bottom: "upscore-dsn6"
  bottom: "label"
  top: "loss6-score"
  loss_weight: 1
}
layer {
  name: "upsample2_dsn5"
  type: "Deconvolution"
  bottom: "conv5-dsn6"
  top: "conv5-dsn6-5"
  param {
    lr_mult: 0
    decay_mult: 1
  }
  param {
    lr_mult: 0
    decay_mult: 0
  }
  convolution_param {
    num_output: 1
    kernel_size: 4
    stride: 2
  }
}
layer {
  name: "crop1-dsn5"
  type: "Crop"
  bottom: "conv5-dsn6-5"
  bottom: "conv5_3"
  top: "weight-dsn6-5"
}
layer {
  name: "sigmoid-dsn5"
  type: "Sigmoid"
  bottom: "weight-dsn6-5"
  top: "sigmoid-dsn5"
}
layer {
  name: "rev-dsn5"
  type: "Power"
  bottom: "sigmoid-dsn5"
  top: "rev-dsn5"
  power_param {
    power: 1
    scale: -1
    shift: 1
  }
}
layer {
  name: "tile-dsn5"
  type: "Tile"
  bottom: "rev-dsn5"
  top: "weight-dsn5"
  tile_param {
    tiles: 512
  }
}
layer {
  name: "prod1-dsn5"
  type: "Eltwise"
  bottom: "conv5_3"
  bottom: "weight-dsn5"
  top: "prod1-dsn5"
  eltwise_param {
    operation: PROD
  }
}
layer {
  name: "conv1-dsn5"
  type: "Convolution"
  bottom: "prod1-dsn5"
  top: "conv1-dsn5"
  param {
    lr_mult: 1
    decay_mult: 1
  }
  param {
    lr_mult: 2
    decay_mult: 0
  }
  convolution_param {
    num_output: 64
    kernel_size: 1
    weight_filler {
      type: "gaussian"
      std: 0.01
    }
    bias_filler {
      type: "constant"
      value: 0
    }
    engine: CUDNN
  }
}
layer {
  name: "conv2-dsn5"
  type: "Convolution"
  bottom: "conv1-dsn5"
  top: "conv2-dsn5"
  param {
    lr_mult: 1
    decay_mult: 1
  }
  param {
    lr_mult: 2
    decay_mult: 0
  }
  convolution_param {
    num_output: 64
    pad: 1
    kernel_size: 3
    weight_filler {
      type: "gaussian"
      std: 0.01
    }
    bias_filler {
      type: "constant"
      value: 0
    }
    engine: CUDNN
  }
}
layer {
  name: "relu1-dsn5"
  type: "ReLU"
  bottom: "conv2-dsn5"
  top: "conv2-dsn5"
}
layer {
  name: "conv3-dsn5"
  type: "Convolution"
  bottom: "conv2-dsn5"
  top: "conv3-dsn5"
  param {
    lr_mult: 1
    decay_mult: 1
  }
  param {
    lr_mult: 2
    decay_mult: 0
  }
  convolution_param {
    num_output: 64
    pad: 1
    kernel_size: 3
    weight_filler {
      type: "gaussian"
      std: 0.01
    }
    bias_filler {
      type: "constant"
      value: 0
    }
    engine: CUDNN
  }
}
layer {
  name: "relu2-dsn5"
  type: "ReLU"
  bottom: "conv3-dsn5"
  top: "conv3-dsn5"
}
layer {
  name: "conv4-dsn5"
  type: "Convolution"
  bottom: "conv3-dsn5"
  top: "conv4-dsn5"
  param {
    lr_mult: 1
    decay_mult: 1
  }
  param {
    lr_mult: 2
    decay_mult: 0
  }
  convolution_param {
    num_output: 1
    pad: 1
    kernel_size: 3
    weight_filler {
      type: "gaussian"
      std: 0.01
    }
    bias_filler {
      type: "constant"
      value: 0
    }
    engine: CUDNN
  }
}
layer {
  name: "sum-dsn5"
  type: "Eltwise"
  bottom: "conv4-dsn5"
  bottom: "weight-dsn6-5"
  top: "sum-dsn5"
  eltwise_param {
    operation: SUM
  }
}
layer {
  name: "upsample16_dsn5"
  type: "Deconvolution"
  bottom: "sum-dsn5"
  top: "sum-dsn5-up"
  param {
    lr_mult: 0
    decay_mult: 1
  }
  param {
    lr_mult: 0
    decay_mult: 0
  }
  convolution_param {
    num_output: 1
    kernel_size: 32
    stride: 16
  }
}
layer {
  name: "crop2-dsn5"
  type: "Crop"
  bottom: "sum-dsn5-up"
  bottom: "data"
  top: "upscore-dsn5"
}
layer {
  name: "loss5-score"
  type: "SigmoidCrossEntropyLoss"
  bottom: "upscore-dsn5"
  bottom: "label"
  top: "loss5-score"
  loss_weight: 1
}
layer {
  name: "upsample2_dsn4"
  type: "Deconvolution"
  bottom: "sum-dsn5"
  top: "sum-dsn5-4"
  param {
    lr_mult: 0
    decay_mult: 1
  }
  param {
    lr_mult: 0
    decay_mult: 0
  }
  convolution_param {
    num_output: 1
    kernel_size: 4
    stride: 2
  }
}
layer {
  name: "crop1-dsn4"
  type: "Crop"
  bottom: "sum-dsn5-4"
  bottom: "conv4_3"
  top: "weight-dsn5-4"
}
layer {
  name: "sigmoid-dsn4"
  type: "Sigmoid"
  bottom: "weight-dsn5-4"
  top: "sigmoid-dsn4"
}
layer {
  name: "rev-dsn4"
  type: "Power"
  bottom: "sigmoid-dsn4"
  top: "rev-dsn4"
  power_param {
    power: 1
    scale: -1
    shift: 1
  }
}
layer {
  name: "tile-dsn4"
  type: "Tile"
  bottom: "rev-dsn4"
  top: "weight-dsn4"
  tile_param {
    tiles: 512
  }
}
layer {
  name: "prod1-dsn4"
  type: "Eltwise"
  bottom: "conv4_3"
  bottom: "weight-dsn4"
  top: "prod1-dsn4"
  eltwise_param {
    operation: PROD
  }
}
layer {
  name: "conv1-dsn4"
  type: "Convolution"
  bottom: "prod1-dsn4"
  top: "conv1-dsn4"
  param {
    lr_mult: 1
    decay_mult: 1
  }
  param {
    lr_mult: 2
    decay_mult: 0
  }
  convolution_param {
    num_output: 64
    kernel_size: 1
    weight_filler {
      type: "gaussian"
      std: 0.01
    }
    bias_filler {
      type: "constant"
      value: 0
    }
    engine: CUDNN
  }
}
layer {
  name: "conv2-dsn4"
  type: "Convolution"
  bottom: "conv1-dsn4"
  top: "conv2-dsn4"
  param {
    lr_mult: 1
    decay_mult: 1
  }
  param {
    lr_mult: 2
    decay_mult: 0
  }
  convolution_param {
    num_output: 64
    pad: 1
    kernel_size: 3
    weight_filler {
      type: "gaussian"
      std: 0.01
    }
    bias_filler {
      type: "constant"
      value: 0
    }
    engine: CUDNN
  }
}
layer {
  name: "relu1-dsn4"
  type: "ReLU"
  bottom: "conv2-dsn4"
  top: "conv2-dsn4"
}
layer {
  name: "conv3-dsn4"
  type: "Convolution"
  bottom: "conv2-dsn4"
  top: "conv3-dsn4"
  param {
    lr_mult: 1
    decay_mult: 1
  }
  param {
    lr_mult: 2
    decay_mult: 0
  }
  convolution_param {
    num_output: 64
    pad: 1
    kernel_size: 3
    weight_filler {
      type: "gaussian"
      std: 0.01
    }
    bias_filler {
      type: "constant"
      value: 0
    }
    engine: CUDNN
  }
}
layer {
  name: "relu2-dsn4"
  type: "ReLU"
  bottom: "conv3-dsn4"
  top: "conv3-dsn4"
}
layer {
  name: "conv4-dsn4"
  type: "Convolution"
  bottom: "conv3-dsn4"
  top: "conv4-dsn4"
  param {
    lr_mult: 1
    decay_mult: 1
  }
  param {
    lr_mult: 2
    decay_mult: 0
  }
  convolution_param {
    num_output: 1
    pad: 1
    kernel_size: 3
    weight_filler {
      type: "gaussian"
      std: 0.01
    }
    bias_filler {
      type: "constant"
      value: 0
    }
    engine: CUDNN
  }
}
layer {
  name: "sum-dsn4"
  type: "Eltwise"
  bottom: "conv4-dsn4"
  bottom: "weight-dsn5-4"
  top: "sum-dsn4"
  eltwise_param {
    operation: SUM
  }
}
layer {
  name: "upsample8_dsn4"
  type: "Deconvolution"
  bottom: "sum-dsn4"
  top: "sum-dsn4-up"
  param {
    lr_mult: 0
    decay_mult: 1
  }
  param {
    lr_mult: 0
    decay_mult: 0
  }
  convolution_param {
    num_output: 1
    kernel_size: 16
    stride: 8
  }
}
layer {
  name: "crop2-dsn4"
  type: "Crop"
  bottom: "sum-dsn4-up"
  bottom: "data"
  top: "upscore-dsn4"
}
layer {
  name: "loss4-score"
  type: "SigmoidCrossEntropyLoss"
  bottom: "upscore-dsn4"
  bottom: "label"
  top: "loss4-score"
  loss_weight: 1
}
layer {
  name: "upsample2_dsn3"
  type: "Deconvolution"
  bottom: "sum-dsn4"
  top: "sum-dsn4-3"
  param {
    lr_mult: 0
    decay_mult: 1
  }
  param {
    lr_mult: 0
    decay_mult: 0
  }
  convolution_param {
    num_output: 1
    kernel_size: 4
    stride: 2
  }
}
layer {
  name: "crop1-dsn3"
  type: "Crop"
  bottom: "sum-dsn4-3"
  bottom: "conv3_3"
  top: "weight-dsn4-3"
}
layer {
  name: "sigmoid-dsn3"
  type: "Sigmoid"
  bottom: "weight-dsn4-3"
  top: "sigmoid-dsn3"
}
layer {
  name: "rev-dsn3"
  type: "Power"
  bottom: "sigmoid-dsn3"
  top: "rev-dsn3"
  power_param {
    power: 1
    scale: -1
    shift: 1
  }
}
layer {
  name: "tile-dsn3"
  type: "Tile"
  bottom: "rev-dsn3"
  top: "weight-dsn3"
  tile_param {
    tiles: 256
  }
}
layer {
  name: "prod1-dsn3"
  type: "Eltwise"
  bottom: "conv3_3"
  bottom: "weight-dsn3"
  top: "prod1-dsn3"
  eltwise_param {
    operation: PROD
  }
}
layer {
  name: "conv1-dsn3"
  type: "Convolution"
  bottom: "prod1-dsn3"
  top: "conv1-dsn3"
  param {
    lr_mult: 1
    decay_mult: 1
  }
  param {
    lr_mult: 2
    decay_mult: 0
  }
  convolution_param {
    num_output: 64
    kernel_size: 1
    weight_filler {
      type: "gaussian"
      std: 0.01
    }
    bias_filler {
      type: "constant"
      value: 0
    }
    engine: CUDNN
  }
}
layer {
  name: "conv2-dsn3"
  type: "Convolution"
  bottom: "conv1-dsn3"
  top: "conv2-dsn3"
  param {
    lr_mult: 1
    decay_mult: 1
  }
  param {
    lr_mult: 2
    decay_mult: 0
  }
  convolution_param {
    num_output: 64
    pad: 1
    kernel_size: 3
    weight_filler {
      type: "gaussian"
      std: 0.01
    }
    bias_filler {
      type: "constant"
      value: 0
    }
    engine: CUDNN
  }
}
layer {
  name: "relu1-dsn3"
  type: "ReLU"
  bottom: "conv2-dsn3"
  top: "conv2-dsn3"
}
layer {
  name: "conv3-dsn3"
  type: "Convolution"
  bottom: "conv2-dsn3"
  top: "conv3-dsn3"
  param {
    lr_mult: 1
    decay_mult: 1
  }
  param {
    lr_mult: 2
    decay_mult: 0
  }
  convolution_param {
    num_output: 64
    pad: 1
    kernel_size: 3
    weight_filler {
      type: "gaussian"
      std: 0.01
    }
    bias_filler {
      type: "constant"
      value: 0
    }
    engine: CUDNN
  }
}
layer {
  name: "relu2-dsn3"
  type: "ReLU"
  bottom: "conv3-dsn3"
  top: "conv3-dsn3"
}
layer {
  name: "conv4-dsn3"
  type: "Convolution"
  bottom: "conv3-dsn3"
  top: "conv4-dsn3"
  param {
    lr_mult: 1
    decay_mult: 1
  }
  param {
    lr_mult: 2
    decay_mult: 0
  }
  convolution_param {
    num_output: 1
    pad: 1
    kernel_size: 3
    weight_filler {
      type: "gaussian"
      std: 0.01
    }
    bias_filler {
      type: "constant"
      value: 0
    }
    engine: CUDNN
  }
}
layer {
  name: "sum-dsn3"
  type: "Eltwise"
  bottom: "conv4-dsn3"
  bottom: "weight-dsn4-3"
  top: "sum-dsn3"
  eltwise_param {
    operation: SUM
  }
}
layer {
  name: "upsample4_dsn3"
  type: "Deconvolution"
  bottom: "sum-dsn3"
  top: "sum-dsn3-up"
  param {
    lr_mult: 0
    decay_mult: 1
  }
  param {
    lr_mult: 0
    decay_mult: 0
  }
  convolution_param {
    num_output: 1
    kernel_size: 8
    stride: 4
  }
}
layer {
  name: "crop2-dsn3"
  type: "Crop"
  bottom: "sum-dsn3-up"
  bottom: "data"
  top: "upscore-dsn3"
}
layer {
  name: "loss3-score"
  type: "SigmoidCrossEntropyLoss"
  bottom: "upscore-dsn3"
  bottom: "label"
  top: "loss3-score"
  loss_weight: 1
}
layer {
  name: "upsample2_1-dsn2"
  type: "Deconvolution"
  bottom: "sum-dsn3"
  top: "sum-dsn3-2"
  param {
    lr_mult: 0
    decay_mult: 1
  }
  param {
    lr_mult: 0
    decay_mult: 0
  }
  convolution_param {
    num_output: 1
    kernel_size: 4
    stride: 2
  }
}
layer {
  name: "crop1-dsn2"
  type: "Crop"
  bottom: "sum-dsn3-2"
  bottom: "conv2_2"
  top: "weight-dsn3-2"
}
layer {
  name: "sigmoid-dsn2"
  type: "Sigmoid"
  bottom: "weight-dsn3-2"
  top: "sigmoid-dsn2"
}
layer {
  name: "rev-dsn2"
  type: "Power"
  bottom: "sigmoid-dsn2"
  top: "rev-dsn2"
  power_param {
    power: 1
    scale: -1
    shift: 1
  }
}
layer {
  name: "tile-dsn2"
  type: "Tile"
  bottom: "rev-dsn2"
  top: "weight-dsn2"
  tile_param {
    tiles: 128
  }
}
layer {
  name: "prod1-dsn2"
  type: "Eltwise"
  bottom: "conv2_2"
  bottom: "weight-dsn2"
  top: "prod1-dsn2"
  eltwise_param {
    operation: PROD
  }
}
layer {
  name: "conv1-dsn2"
  type: "Convolution"
  bottom: "prod1-dsn2"
  top: "conv1-dsn2"
  param {
    lr_mult: 1
    decay_mult: 1
  }
  param {
    lr_mult: 2
    decay_mult: 0
  }
  convolution_param {
    num_output: 64
    kernel_size: 1
    weight_filler {
      type: "gaussian"
      std: 0.01
    }
    bias_filler {
      type: "constant"
      value: 0
    }
    engine: CUDNN
  }
}
layer {
  name: "conv2-dsn2"
  type: "Convolution"
  bottom: "conv1-dsn2"
  top: "conv2-dsn2"
  param {
    lr_mult: 1
    decay_mult: 1
  }
  param {
    lr_mult: 2
    decay_mult: 0
  }
  convolution_param {
    num_output: 64
    pad: 1
    kernel_size: 3
    weight_filler {
      type: "gaussian"
      std: 0.01
    }
    bias_filler {
      type: "constant"
      value: 0
    }
    engine: CUDNN
  }
}
layer {
  name: "relu1-dsn2"
  type: "ReLU"
  bottom: "conv2-dsn2"
  top: "conv2-dsn2"
}
layer {
  name: "conv3-dsn2"
  type: "Convolution"
  bottom: "conv2-dsn2"
  top: "conv3-dsn2"
  param {
    lr_mult: 1
    decay_mult: 1
  }
  param {
    lr_mult: 2
    decay_mult: 0
  }
  convolution_param {
    num_output: 64
    pad: 1
    kernel_size: 3
    weight_filler {
      type: "gaussian"
      std: 0.01
    }
    bias_filler {
      type: "constant"
      value: 0
    }
    engine: CUDNN
  }
}
layer {
  name: "relu2-dsn2"
  type: "ReLU"
  bottom: "conv3-dsn2"
  top: "conv3-dsn2"
}
layer {
  name: "conv4-dsn2"
  type: "Convolution"
  bottom: "conv3-dsn2"
  top: "conv4-dsn2"
  param {
    lr_mult: 1
    decay_mult: 1
  }
  param {
    lr_mult: 2
    decay_mult: 0
  }
  convolution_param {
    num_output: 1
    pad: 1
    kernel_size: 3
    weight_filler {
      type: "gaussian"
      std: 0.01
    }
    bias_filler {
      type: "constant"
      value: 0
    }
    engine: CUDNN
  }
}
layer {
  name: "sum-dsn2"
  type: "Eltwise"
  bottom: "conv4-dsn2"
  bottom: "weight-dsn3-2"
  top: "sum-dsn2"
  eltwise_param {
    operation: SUM
  }
}
layer {
  name: "upsample2_2-dsn2"
  type: "Deconvolution"
  bottom: "sum-dsn2"
  top: "sum-dsn2-up"
  param {
    lr_mult: 0
    decay_mult: 1
  }
  param {
    lr_mult: 0
    decay_mult: 0
  }
  convolution_param {
    num_output: 1
    kernel_size: 4
    stride: 2
  }
}
layer {
  name: "crop2-dsn2"
  type: "Crop"
  bottom: "sum-dsn2-up"
  bottom: "data"
  top: "upscore-dsn2"
}
layer {
  name: "loss2-score"
  type: "SigmoidCrossEntropyLoss"
  bottom: "upscore-dsn2"
  bottom: "label"
  top: "loss2-score"
  loss_weight: 1
}
layer {
  name: "sigmoid-dsn1"
  type: "Sigmoid"
  bottom: "upscore-dsn2"
  top: "sigmoid-dsn1"
}
layer {
  name: "rev-dsn1"
  type: "Power"
  bottom: "sigmoid-dsn1"
  top: "rev-dsn1"
  power_param {
    power: 1
    scale: -1
    shift: 1
  }
}
layer {
  name: "tile-dsn1"
  type: "Tile"
  bottom: "rev-dsn1"
  top: "weight-dsn1"
  tile_param {
    tiles: 64
  }
}
layer {
  name: "prod1-dsn1"
  type: "Eltwise"
  bottom: "conv1_2"
  bottom: "weight-dsn1"
  top: "prod1-dsn1"
  eltwise_param {
    operation: PROD
  }
}
layer {
  name: "conv1-dsn1"
  type: "Convolution"
  bottom: "prod1-dsn1"
  top: "conv1-dsn1"
  param {
    lr_mult: 1
    decay_mult: 1
  }
  param {
    lr_mult: 2
    decay_mult: 0
  }
  convolution_param {
    num_output: 64
    kernel_size: 1
    weight_filler {
      type: "gaussian"
      std: 0.01
    }
    bias_filler {
      type: "constant"
      value: 0
    }
    engine: CUDNN
  }
}
layer {
  name: "conv2-dsn1"
  type: "Convolution"
  bottom: "conv1-dsn1"
  top: "conv2-dsn1"
  param {
    lr_mult: 1
    decay_mult: 1
  }
  param {
    lr_mult: 2
    decay_mult: 0
  }
  convolution_param {
    num_output: 64
    pad: 1
    kernel_size: 3
    weight_filler {
      type: "gaussian"
      std: 0.01
    }
    bias_filler {
      type: "constant"
      value: 0
    }
    engine: CUDNN
  }
}
layer {
  name: "relu1-dsn1"
  type: "ReLU"
  bottom: "conv2-dsn1"
  top: "conv2-dsn1"
}
layer {
  name: "conv3-dsn1"
  type: "Convolution"
  bottom: "conv2-dsn1"
  top: "conv3-dsn1"
  param {
    lr_mult: 1
    decay_mult: 1
  }
  param {
    lr_mult: 2
    decay_mult: 0
  }
  convolution_param {
    num_output: 64
    pad: 1
    kernel_size: 3
    weight_filler {
      type: "gaussian"
      std: 0.01
    }
    bias_filler {
      type: "constant"
      value: 0
    }
    engine: CUDNN
  }
}
layer {
  name: "relu2-dsn1"
  type: "ReLU"
  bottom: "conv3-dsn1"
  top: "conv3-dsn1"
}
layer {
  name: "conv4-dsn1"
  type: "Convolution"
  bottom: "conv3-dsn1"
  top: "conv4-dsn1"
  param {
    lr_mult: 1
    decay_mult: 1
  }
  param {
    lr_mult: 2
    decay_mult: 0
  }
  convolution_param {
    num_output: 1
    pad: 1
    kernel_size: 3
    weight_filler {
      type: "gaussian"
      std: 0.01
    }
    bias_filler {
      type: "constant"
      value: 0
    }
    engine: CUDNN
  }
}
layer {
  name: "sum-dsn1"
  type: "Eltwise"
  bottom: "conv4-dsn1"
  bottom: "upscore-dsn2"
  top: "sum-dsn1"
  eltwise_param {
    operation: SUM
  }
}
layer {
  name: "crop2-dsn1"
  type: "Crop"
  bottom: "sum-dsn1"
  bottom: "data"
  top: "upscore-dsn1"
}
layer {
  name: "loss1-score"
  type: "SigmoidCrossEntropyLoss"
  bottom: "upscore-dsn1"
  bottom: "label"
  top: "loss1-score"
  loss_weight: 1
}
I1125 12:06:13.080724 25992 layer_factory.hpp:77] Creating layer data
I1125 12:06:13.080749 25992 net.cpp:100] Creating Layer data
I1125 12:06:13.080755 25992 net.cpp:408] data -> data_unaugmented
I1125 12:06:13.080776 25992 net.cpp:408] data -> label_unaugmented
I1125 12:06:13.080794 25992 image_labelmap_data_layer.cpp:41] Opening file /media/compute/homes/galberding/FleckDetect/Datasets/train.txt
I1125 12:06:13.085892 25992 image_labelmap_data_layer.cpp:51] Shuffling data
I1125 12:06:13.087011 25992 image_labelmap_data_layer.cpp:56] A total of 3600 images.
I1125 12:06:13.404570 25992 image_labelmap_data_layer.cpp:110] output data size: 1,3,500,500
I1125 12:06:13.404592 25992 image_labelmap_data_layer.cpp:113] output label size: 1,1,500,500
I1125 12:06:13.415727 25992 net.cpp:150] Setting up data
I1125 12:06:13.415769 25992 net.cpp:157] Top shape: 1 3 500 500 (750000)
I1125 12:06:13.415774 25992 net.cpp:157] Top shape: 1 1 500 500 (250000)
I1125 12:06:13.415777 25992 net.cpp:165] Memory required for data: 4000000
I1125 12:06:13.415786 25992 layer_factory.hpp:77] Creating layer augmentation
I1125 12:06:13.425331 25992 net.cpp:100] Creating Layer augmentation
I1125 12:06:13.425384 25992 net.cpp:434] augmentation <- data_unaugmented
I1125 12:06:13.425396 25992 net.cpp:434] augmentation <- label_unaugmented
I1125 12:06:13.425405 25992 net.cpp:408] augmentation -> data
I1125 12:06:13.425415 25992 net.cpp:408] augmentation -> label
I1125 12:06:13.427287 25992 net.cpp:150] Setting up augmentation
I1125 12:06:13.427301 25992 net.cpp:157] Top shape: 1 3 500 500 (750000)
I1125 12:06:13.427305 25992 net.cpp:157] Top shape: 1 1 500 500 (250000)
I1125 12:06:13.427309 25992 net.cpp:165] Memory required for data: 8000000
I1125 12:06:13.427311 25992 layer_factory.hpp:77] Creating layer data_augmentation_0_split
I1125 12:06:13.427321 25992 net.cpp:100] Creating Layer data_augmentation_0_split
I1125 12:06:13.427325 25992 net.cpp:434] data_augmentation_0_split <- data
I1125 12:06:13.427331 25992 net.cpp:408] data_augmentation_0_split -> data_augmentation_0_split_0
I1125 12:06:13.427340 25992 net.cpp:408] data_augmentation_0_split -> data_augmentation_0_split_1
I1125 12:06:13.427347 25992 net.cpp:408] data_augmentation_0_split -> data_augmentation_0_split_2
I1125 12:06:13.427353 25992 net.cpp:408] data_augmentation_0_split -> data_augmentation_0_split_3
I1125 12:06:13.427358 25992 net.cpp:408] data_augmentation_0_split -> data_augmentation_0_split_4
I1125 12:06:13.427366 25992 net.cpp:408] data_augmentation_0_split -> data_augmentation_0_split_5
I1125 12:06:13.427372 25992 net.cpp:408] data_augmentation_0_split -> data_augmentation_0_split_6
I1125 12:06:13.427471 25992 net.cpp:150] Setting up data_augmentation_0_split
I1125 12:06:13.427479 25992 net.cpp:157] Top shape: 1 3 500 500 (750000)
I1125 12:06:13.427482 25992 net.cpp:157] Top shape: 1 3 500 500 (750000)
I1125 12:06:13.427485 25992 net.cpp:157] Top shape: 1 3 500 500 (750000)
I1125 12:06:13.427489 25992 net.cpp:157] Top shape: 1 3 500 500 (750000)
I1125 12:06:13.427492 25992 net.cpp:157] Top shape: 1 3 500 500 (750000)
I1125 12:06:13.427495 25992 net.cpp:157] Top shape: 1 3 500 500 (750000)
I1125 12:06:13.427498 25992 net.cpp:157] Top shape: 1 3 500 500 (750000)
I1125 12:06:13.427501 25992 net.cpp:165] Memory required for data: 29000000
I1125 12:06:13.427505 25992 layer_factory.hpp:77] Creating layer label_augmentation_1_split
I1125 12:06:13.427510 25992 net.cpp:100] Creating Layer label_augmentation_1_split
I1125 12:06:13.427513 25992 net.cpp:434] label_augmentation_1_split <- label
I1125 12:06:13.427518 25992 net.cpp:408] label_augmentation_1_split -> label_augmentation_1_split_0
I1125 12:06:13.427525 25992 net.cpp:408] label_augmentation_1_split -> label_augmentation_1_split_1
I1125 12:06:13.427531 25992 net.cpp:408] label_augmentation_1_split -> label_augmentation_1_split_2
I1125 12:06:13.427536 25992 net.cpp:408] label_augmentation_1_split -> label_augmentation_1_split_3
I1125 12:06:13.427541 25992 net.cpp:408] label_augmentation_1_split -> label_augmentation_1_split_4
I1125 12:06:13.427547 25992 net.cpp:408] label_augmentation_1_split -> label_augmentation_1_split_5
I1125 12:06:13.427613 25992 net.cpp:150] Setting up label_augmentation_1_split
I1125 12:06:13.427618 25992 net.cpp:157] Top shape: 1 1 500 500 (250000)
I1125 12:06:13.427623 25992 net.cpp:157] Top shape: 1 1 500 500 (250000)
I1125 12:06:13.427626 25992 net.cpp:157] Top shape: 1 1 500 500 (250000)
I1125 12:06:13.427629 25992 net.cpp:157] Top shape: 1 1 500 500 (250000)
I1125 12:06:13.427633 25992 net.cpp:157] Top shape: 1 1 500 500 (250000)
I1125 12:06:13.427635 25992 net.cpp:157] Top shape: 1 1 500 500 (250000)
I1125 12:06:13.427639 25992 net.cpp:165] Memory required for data: 35000000
I1125 12:06:13.427640 25992 layer_factory.hpp:77] Creating layer conv1_1
I1125 12:06:13.427654 25992 net.cpp:100] Creating Layer conv1_1
I1125 12:06:13.427656 25992 net.cpp:434] conv1_1 <- data_augmentation_0_split_0
I1125 12:06:13.427662 25992 net.cpp:408] conv1_1 -> conv1_1
I1125 12:06:13.714097 25992 net.cpp:150] Setting up conv1_1
I1125 12:06:13.714138 25992 net.cpp:157] Top shape: 1 64 500 500 (16000000)
I1125 12:06:13.714141 25992 net.cpp:165] Memory required for data: 99000000
I1125 12:06:13.714165 25992 layer_factory.hpp:77] Creating layer relu1_1
I1125 12:06:13.714179 25992 net.cpp:100] Creating Layer relu1_1
I1125 12:06:13.714184 25992 net.cpp:434] relu1_1 <- conv1_1
I1125 12:06:13.714192 25992 net.cpp:395] relu1_1 -> conv1_1 (in-place)
I1125 12:06:13.714367 25992 net.cpp:150] Setting up relu1_1
I1125 12:06:13.714377 25992 net.cpp:157] Top shape: 1 64 500 500 (16000000)
I1125 12:06:13.714381 25992 net.cpp:165] Memory required for data: 163000000
I1125 12:06:13.714385 25992 layer_factory.hpp:77] Creating layer conv1_2
I1125 12:06:13.714401 25992 net.cpp:100] Creating Layer conv1_2
I1125 12:06:13.714406 25992 net.cpp:434] conv1_2 <- conv1_1
I1125 12:06:13.714416 25992 net.cpp:408] conv1_2 -> conv1_2
I1125 12:06:13.716651 25992 net.cpp:150] Setting up conv1_2
I1125 12:06:13.716665 25992 net.cpp:157] Top shape: 1 64 500 500 (16000000)
I1125 12:06:13.716670 25992 net.cpp:165] Memory required for data: 227000000
I1125 12:06:13.716681 25992 layer_factory.hpp:77] Creating layer relu1_2
I1125 12:06:13.716689 25992 net.cpp:100] Creating Layer relu1_2
I1125 12:06:13.716694 25992 net.cpp:434] relu1_2 <- conv1_2
I1125 12:06:13.716701 25992 net.cpp:395] relu1_2 -> conv1_2 (in-place)
I1125 12:06:13.716853 25992 net.cpp:150] Setting up relu1_2
I1125 12:06:13.716862 25992 net.cpp:157] Top shape: 1 64 500 500 (16000000)
I1125 12:06:13.716866 25992 net.cpp:165] Memory required for data: 291000000
I1125 12:06:13.716871 25992 layer_factory.hpp:77] Creating layer conv1_2_relu1_2_0_split
I1125 12:06:13.716882 25992 net.cpp:100] Creating Layer conv1_2_relu1_2_0_split
I1125 12:06:13.716886 25992 net.cpp:434] conv1_2_relu1_2_0_split <- conv1_2
I1125 12:06:13.716894 25992 net.cpp:408] conv1_2_relu1_2_0_split -> conv1_2_relu1_2_0_split_0
I1125 12:06:13.716903 25992 net.cpp:408] conv1_2_relu1_2_0_split -> conv1_2_relu1_2_0_split_1
I1125 12:06:13.716944 25992 net.cpp:150] Setting up conv1_2_relu1_2_0_split
I1125 12:06:13.716951 25992 net.cpp:157] Top shape: 1 64 500 500 (16000000)
I1125 12:06:13.716958 25992 net.cpp:157] Top shape: 1 64 500 500 (16000000)
I1125 12:06:13.716961 25992 net.cpp:165] Memory required for data: 419000000
I1125 12:06:13.716965 25992 layer_factory.hpp:77] Creating layer pool1
I1125 12:06:13.716974 25992 net.cpp:100] Creating Layer pool1
I1125 12:06:13.716979 25992 net.cpp:434] pool1 <- conv1_2_relu1_2_0_split_0
I1125 12:06:13.716984 25992 net.cpp:408] pool1 -> pool1
I1125 12:06:13.717027 25992 net.cpp:150] Setting up pool1
I1125 12:06:13.717034 25992 net.cpp:157] Top shape: 1 64 250 250 (4000000)
I1125 12:06:13.717038 25992 net.cpp:165] Memory required for data: 435000000
I1125 12:06:13.717042 25992 layer_factory.hpp:77] Creating layer conv2_1
I1125 12:06:13.717052 25992 net.cpp:100] Creating Layer conv2_1
I1125 12:06:13.717056 25992 net.cpp:434] conv2_1 <- pool1
I1125 12:06:13.717064 25992 net.cpp:408] conv2_1 -> conv2_1
I1125 12:06:13.719453 25992 net.cpp:150] Setting up conv2_1
I1125 12:06:13.719468 25992 net.cpp:157] Top shape: 1 128 250 250 (8000000)
I1125 12:06:13.719472 25992 net.cpp:165] Memory required for data: 467000000
I1125 12:06:13.719485 25992 layer_factory.hpp:77] Creating layer relu2_1
I1125 12:06:13.719491 25992 net.cpp:100] Creating Layer relu2_1
I1125 12:06:13.719496 25992 net.cpp:434] relu2_1 <- conv2_1
I1125 12:06:13.719503 25992 net.cpp:395] relu2_1 -> conv2_1 (in-place)
I1125 12:06:13.719667 25992 net.cpp:150] Setting up relu2_1
I1125 12:06:13.719676 25992 net.cpp:157] Top shape: 1 128 250 250 (8000000)
I1125 12:06:13.719681 25992 net.cpp:165] Memory required for data: 499000000
I1125 12:06:13.719684 25992 layer_factory.hpp:77] Creating layer conv2_2
I1125 12:06:13.719696 25992 net.cpp:100] Creating Layer conv2_2
I1125 12:06:13.719699 25992 net.cpp:434] conv2_2 <- conv2_1
I1125 12:06:13.719708 25992 net.cpp:408] conv2_2 -> conv2_2
I1125 12:06:13.721103 25992 net.cpp:150] Setting up conv2_2
I1125 12:06:13.721117 25992 net.cpp:157] Top shape: 1 128 250 250 (8000000)
I1125 12:06:13.721122 25992 net.cpp:165] Memory required for data: 531000000
I1125 12:06:13.721137 25992 layer_factory.hpp:77] Creating layer relu2_2
I1125 12:06:13.721144 25992 net.cpp:100] Creating Layer relu2_2
I1125 12:06:13.721149 25992 net.cpp:434] relu2_2 <- conv2_2
I1125 12:06:13.721156 25992 net.cpp:395] relu2_2 -> conv2_2 (in-place)
I1125 12:06:13.721323 25992 net.cpp:150] Setting up relu2_2
I1125 12:06:13.721333 25992 net.cpp:157] Top shape: 1 128 250 250 (8000000)
I1125 12:06:13.721338 25992 net.cpp:165] Memory required for data: 563000000
I1125 12:06:13.721341 25992 layer_factory.hpp:77] Creating layer conv2_2_relu2_2_0_split
I1125 12:06:13.721349 25992 net.cpp:100] Creating Layer conv2_2_relu2_2_0_split
I1125 12:06:13.721354 25992 net.cpp:434] conv2_2_relu2_2_0_split <- conv2_2
I1125 12:06:13.721360 25992 net.cpp:408] conv2_2_relu2_2_0_split -> conv2_2_relu2_2_0_split_0
I1125 12:06:13.721369 25992 net.cpp:408] conv2_2_relu2_2_0_split -> conv2_2_relu2_2_0_split_1
I1125 12:06:13.721377 25992 net.cpp:408] conv2_2_relu2_2_0_split -> conv2_2_relu2_2_0_split_2
I1125 12:06:13.721432 25992 net.cpp:150] Setting up conv2_2_relu2_2_0_split
I1125 12:06:13.721441 25992 net.cpp:157] Top shape: 1 128 250 250 (8000000)
I1125 12:06:13.721446 25992 net.cpp:157] Top shape: 1 128 250 250 (8000000)
I1125 12:06:13.721451 25992 net.cpp:157] Top shape: 1 128 250 250 (8000000)
I1125 12:06:13.721454 25992 net.cpp:165] Memory required for data: 659000000
I1125 12:06:13.721458 25992 layer_factory.hpp:77] Creating layer pool2
I1125 12:06:13.721467 25992 net.cpp:100] Creating Layer pool2
I1125 12:06:13.721470 25992 net.cpp:434] pool2 <- conv2_2_relu2_2_0_split_0
I1125 12:06:13.721477 25992 net.cpp:408] pool2 -> pool2
I1125 12:06:13.721518 25992 net.cpp:150] Setting up pool2
I1125 12:06:13.721524 25992 net.cpp:157] Top shape: 1 128 125 125 (2000000)
I1125 12:06:13.721529 25992 net.cpp:165] Memory required for data: 667000000
I1125 12:06:13.721532 25992 layer_factory.hpp:77] Creating layer conv3_1
I1125 12:06:13.721546 25992 net.cpp:100] Creating Layer conv3_1
I1125 12:06:13.721551 25992 net.cpp:434] conv3_1 <- pool2
I1125 12:06:13.721560 25992 net.cpp:408] conv3_1 -> conv3_1
I1125 12:06:13.724087 25992 net.cpp:150] Setting up conv3_1
I1125 12:06:13.724102 25992 net.cpp:157] Top shape: 1 256 125 125 (4000000)
I1125 12:06:13.724107 25992 net.cpp:165] Memory required for data: 683000000
I1125 12:06:13.724119 25992 layer_factory.hpp:77] Creating layer relu3_1
I1125 12:06:13.724131 25992 net.cpp:100] Creating Layer relu3_1
I1125 12:06:13.724138 25992 net.cpp:434] relu3_1 <- conv3_1
I1125 12:06:13.724144 25992 net.cpp:395] relu3_1 -> conv3_1 (in-place)
I1125 12:06:13.724603 25992 net.cpp:150] Setting up relu3_1
I1125 12:06:13.724617 25992 net.cpp:157] Top shape: 1 256 125 125 (4000000)
I1125 12:06:13.724620 25992 net.cpp:165] Memory required for data: 699000000
I1125 12:06:13.724624 25992 layer_factory.hpp:77] Creating layer conv3_2
I1125 12:06:13.724635 25992 net.cpp:100] Creating Layer conv3_2
I1125 12:06:13.724640 25992 net.cpp:434] conv3_2 <- conv3_1
I1125 12:06:13.724650 25992 net.cpp:408] conv3_2 -> conv3_2
I1125 12:06:13.727257 25992 net.cpp:150] Setting up conv3_2
I1125 12:06:13.727277 25992 net.cpp:157] Top shape: 1 256 125 125 (4000000)
I1125 12:06:13.727282 25992 net.cpp:165] Memory required for data: 715000000
I1125 12:06:13.727291 25992 layer_factory.hpp:77] Creating layer relu3_2
I1125 12:06:13.727298 25992 net.cpp:100] Creating Layer relu3_2
I1125 12:06:13.727303 25992 net.cpp:434] relu3_2 <- conv3_2
I1125 12:06:13.727313 25992 net.cpp:395] relu3_2 -> conv3_2 (in-place)
I1125 12:06:13.727766 25992 net.cpp:150] Setting up relu3_2
I1125 12:06:13.727777 25992 net.cpp:157] Top shape: 1 256 125 125 (4000000)
I1125 12:06:13.727780 25992 net.cpp:165] Memory required for data: 731000000
I1125 12:06:13.727785 25992 layer_factory.hpp:77] Creating layer conv3_3
I1125 12:06:13.727797 25992 net.cpp:100] Creating Layer conv3_3
I1125 12:06:13.727802 25992 net.cpp:434] conv3_3 <- conv3_2
I1125 12:06:13.727813 25992 net.cpp:408] conv3_3 -> conv3_3
I1125 12:06:13.730727 25992 net.cpp:150] Setting up conv3_3
I1125 12:06:13.730741 25992 net.cpp:157] Top shape: 1 256 125 125 (4000000)
I1125 12:06:13.730746 25992 net.cpp:165] Memory required for data: 747000000
I1125 12:06:13.730754 25992 layer_factory.hpp:77] Creating layer relu3_3
I1125 12:06:13.730763 25992 net.cpp:100] Creating Layer relu3_3
I1125 12:06:13.730769 25992 net.cpp:434] relu3_3 <- conv3_3
I1125 12:06:13.730775 25992 net.cpp:395] relu3_3 -> conv3_3 (in-place)
I1125 12:06:13.730963 25992 net.cpp:150] Setting up relu3_3
I1125 12:06:13.730973 25992 net.cpp:157] Top shape: 1 256 125 125 (4000000)
I1125 12:06:13.730978 25992 net.cpp:165] Memory required for data: 763000000
I1125 12:06:13.730981 25992 layer_factory.hpp:77] Creating layer conv3_3_relu3_3_0_split
I1125 12:06:13.730990 25992 net.cpp:100] Creating Layer conv3_3_relu3_3_0_split
I1125 12:06:13.730995 25992 net.cpp:434] conv3_3_relu3_3_0_split <- conv3_3
I1125 12:06:13.731003 25992 net.cpp:408] conv3_3_relu3_3_0_split -> conv3_3_relu3_3_0_split_0
I1125 12:06:13.731015 25992 net.cpp:408] conv3_3_relu3_3_0_split -> conv3_3_relu3_3_0_split_1
I1125 12:06:13.731032 25992 net.cpp:408] conv3_3_relu3_3_0_split -> conv3_3_relu3_3_0_split_2
I1125 12:06:13.731093 25992 net.cpp:150] Setting up conv3_3_relu3_3_0_split
I1125 12:06:13.731101 25992 net.cpp:157] Top shape: 1 256 125 125 (4000000)
I1125 12:06:13.731106 25992 net.cpp:157] Top shape: 1 256 125 125 (4000000)
I1125 12:06:13.731112 25992 net.cpp:157] Top shape: 1 256 125 125 (4000000)
I1125 12:06:13.731115 25992 net.cpp:165] Memory required for data: 811000000
I1125 12:06:13.731119 25992 layer_factory.hpp:77] Creating layer pool3
I1125 12:06:13.731134 25992 net.cpp:100] Creating Layer pool3
I1125 12:06:13.731139 25992 net.cpp:434] pool3 <- conv3_3_relu3_3_0_split_0
I1125 12:06:13.731146 25992 net.cpp:408] pool3 -> pool3
I1125 12:06:13.731190 25992 net.cpp:150] Setting up pool3
I1125 12:06:13.731197 25992 net.cpp:157] Top shape: 1 256 63 63 (1016064)
I1125 12:06:13.731200 25992 net.cpp:165] Memory required for data: 815064256
I1125 12:06:13.731204 25992 layer_factory.hpp:77] Creating layer conv4_1
I1125 12:06:13.731215 25992 net.cpp:100] Creating Layer conv4_1
I1125 12:06:13.731220 25992 net.cpp:434] conv4_1 <- pool3
I1125 12:06:13.731228 25992 net.cpp:408] conv4_1 -> conv4_1
I1125 12:06:13.736475 25992 net.cpp:150] Setting up conv4_1
I1125 12:06:13.736490 25992 net.cpp:157] Top shape: 1 512 63 63 (2032128)
I1125 12:06:13.736495 25992 net.cpp:165] Memory required for data: 823192768
I1125 12:06:13.736503 25992 layer_factory.hpp:77] Creating layer relu4_1
I1125 12:06:13.736510 25992 net.cpp:100] Creating Layer relu4_1
I1125 12:06:13.736515 25992 net.cpp:434] relu4_1 <- conv4_1
I1125 12:06:13.736524 25992 net.cpp:395] relu4_1 -> conv4_1 (in-place)
I1125 12:06:13.736716 25992 net.cpp:150] Setting up relu4_1
I1125 12:06:13.736726 25992 net.cpp:157] Top shape: 1 512 63 63 (2032128)
I1125 12:06:13.736729 25992 net.cpp:165] Memory required for data: 831321280
I1125 12:06:13.736733 25992 layer_factory.hpp:77] Creating layer conv4_2
I1125 12:06:13.736747 25992 net.cpp:100] Creating Layer conv4_2
I1125 12:06:13.736752 25992 net.cpp:434] conv4_2 <- conv4_1
I1125 12:06:13.736759 25992 net.cpp:408] conv4_2 -> conv4_2
I1125 12:06:13.743481 25992 net.cpp:150] Setting up conv4_2
I1125 12:06:13.743496 25992 net.cpp:157] Top shape: 1 512 63 63 (2032128)
I1125 12:06:13.743500 25992 net.cpp:165] Memory required for data: 839449792
I1125 12:06:13.743518 25992 layer_factory.hpp:77] Creating layer relu4_2
I1125 12:06:13.743526 25992 net.cpp:100] Creating Layer relu4_2
I1125 12:06:13.743530 25992 net.cpp:434] relu4_2 <- conv4_2
I1125 12:06:13.743541 25992 net.cpp:395] relu4_2 -> conv4_2 (in-place)
I1125 12:06:13.743727 25992 net.cpp:150] Setting up relu4_2
I1125 12:06:13.743736 25992 net.cpp:157] Top shape: 1 512 63 63 (2032128)
I1125 12:06:13.743741 25992 net.cpp:165] Memory required for data: 847578304
I1125 12:06:13.743744 25992 layer_factory.hpp:77] Creating layer conv4_3
I1125 12:06:13.743755 25992 net.cpp:100] Creating Layer conv4_3
I1125 12:06:13.743760 25992 net.cpp:434] conv4_3 <- conv4_2
I1125 12:06:13.743768 25992 net.cpp:408] conv4_3 -> conv4_3
I1125 12:06:13.750113 25992 net.cpp:150] Setting up conv4_3
I1125 12:06:13.750133 25992 net.cpp:157] Top shape: 1 512 63 63 (2032128)
I1125 12:06:13.750138 25992 net.cpp:165] Memory required for data: 855706816
I1125 12:06:13.750145 25992 layer_factory.hpp:77] Creating layer relu4_3
I1125 12:06:13.750154 25992 net.cpp:100] Creating Layer relu4_3
I1125 12:06:13.750157 25992 net.cpp:434] relu4_3 <- conv4_3
I1125 12:06:13.750167 25992 net.cpp:395] relu4_3 -> conv4_3 (in-place)
I1125 12:06:13.750347 25992 net.cpp:150] Setting up relu4_3
I1125 12:06:13.750357 25992 net.cpp:157] Top shape: 1 512 63 63 (2032128)
I1125 12:06:13.750361 25992 net.cpp:165] Memory required for data: 863835328
I1125 12:06:13.750365 25992 layer_factory.hpp:77] Creating layer conv4_3_relu4_3_0_split
I1125 12:06:13.750373 25992 net.cpp:100] Creating Layer conv4_3_relu4_3_0_split
I1125 12:06:13.750377 25992 net.cpp:434] conv4_3_relu4_3_0_split <- conv4_3
I1125 12:06:13.750388 25992 net.cpp:408] conv4_3_relu4_3_0_split -> conv4_3_relu4_3_0_split_0
I1125 12:06:13.750397 25992 net.cpp:408] conv4_3_relu4_3_0_split -> conv4_3_relu4_3_0_split_1
I1125 12:06:13.750406 25992 net.cpp:408] conv4_3_relu4_3_0_split -> conv4_3_relu4_3_0_split_2
I1125 12:06:13.750468 25992 net.cpp:150] Setting up conv4_3_relu4_3_0_split
I1125 12:06:13.750474 25992 net.cpp:157] Top shape: 1 512 63 63 (2032128)
I1125 12:06:13.750479 25992 net.cpp:157] Top shape: 1 512 63 63 (2032128)
I1125 12:06:13.750484 25992 net.cpp:157] Top shape: 1 512 63 63 (2032128)
I1125 12:06:13.750488 25992 net.cpp:165] Memory required for data: 888220864
I1125 12:06:13.750492 25992 layer_factory.hpp:77] Creating layer pool4
I1125 12:06:13.750499 25992 net.cpp:100] Creating Layer pool4
I1125 12:06:13.750504 25992 net.cpp:434] pool4 <- conv4_3_relu4_3_0_split_0
I1125 12:06:13.750514 25992 net.cpp:408] pool4 -> pool4
I1125 12:06:13.750560 25992 net.cpp:150] Setting up pool4
I1125 12:06:13.750566 25992 net.cpp:157] Top shape: 1 512 32 32 (524288)
I1125 12:06:13.750571 25992 net.cpp:165] Memory required for data: 890318016
I1125 12:06:13.750573 25992 layer_factory.hpp:77] Creating layer conv5_1
I1125 12:06:13.750598 25992 net.cpp:100] Creating Layer conv5_1
I1125 12:06:13.750603 25992 net.cpp:434] conv5_1 <- pool4
I1125 12:06:13.750610 25992 net.cpp:408] conv5_1 -> conv5_1
I1125 12:06:13.756942 25992 net.cpp:150] Setting up conv5_1
I1125 12:06:13.756958 25992 net.cpp:157] Top shape: 1 512 32 32 (524288)
I1125 12:06:13.756961 25992 net.cpp:165] Memory required for data: 892415168
I1125 12:06:13.756969 25992 layer_factory.hpp:77] Creating layer relu5_1
I1125 12:06:13.756978 25992 net.cpp:100] Creating Layer relu5_1
I1125 12:06:13.756983 25992 net.cpp:434] relu5_1 <- conv5_1
I1125 12:06:13.756991 25992 net.cpp:395] relu5_1 -> conv5_1 (in-place)
I1125 12:06:13.757486 25992 net.cpp:150] Setting up relu5_1
I1125 12:06:13.757499 25992 net.cpp:157] Top shape: 1 512 32 32 (524288)
I1125 12:06:13.757503 25992 net.cpp:165] Memory required for data: 894512320
I1125 12:06:13.757508 25992 layer_factory.hpp:77] Creating layer conv5_2
I1125 12:06:13.757519 25992 net.cpp:100] Creating Layer conv5_2
I1125 12:06:13.757525 25992 net.cpp:434] conv5_2 <- conv5_1
I1125 12:06:13.757534 25992 net.cpp:408] conv5_2 -> conv5_2
I1125 12:06:13.763622 25992 net.cpp:150] Setting up conv5_2
I1125 12:06:13.763636 25992 net.cpp:157] Top shape: 1 512 32 32 (524288)
I1125 12:06:13.763640 25992 net.cpp:165] Memory required for data: 896609472
I1125 12:06:13.763650 25992 layer_factory.hpp:77] Creating layer relu5_2
I1125 12:06:13.763659 25992 net.cpp:100] Creating Layer relu5_2
I1125 12:06:13.763664 25992 net.cpp:434] relu5_2 <- conv5_2
I1125 12:06:13.763671 25992 net.cpp:395] relu5_2 -> conv5_2 (in-place)
I1125 12:06:13.764173 25992 net.cpp:150] Setting up relu5_2
I1125 12:06:13.764186 25992 net.cpp:157] Top shape: 1 512 32 32 (524288)
I1125 12:06:13.764190 25992 net.cpp:165] Memory required for data: 898706624
I1125 12:06:13.764195 25992 layer_factory.hpp:77] Creating layer conv5_3
I1125 12:06:13.764205 25992 net.cpp:100] Creating Layer conv5_3
I1125 12:06:13.764210 25992 net.cpp:434] conv5_3 <- conv5_2
I1125 12:06:13.764220 25992 net.cpp:408] conv5_3 -> conv5_3
I1125 12:06:13.770629 25992 net.cpp:150] Setting up conv5_3
I1125 12:06:13.770645 25992 net.cpp:157] Top shape: 1 512 32 32 (524288)
I1125 12:06:13.770649 25992 net.cpp:165] Memory required for data: 900803776
I1125 12:06:13.770658 25992 layer_factory.hpp:77] Creating layer relu5_3
I1125 12:06:13.770664 25992 net.cpp:100] Creating Layer relu5_3
I1125 12:06:13.770669 25992 net.cpp:434] relu5_3 <- conv5_3
I1125 12:06:13.770680 25992 net.cpp:395] relu5_3 -> conv5_3 (in-place)
I1125 12:06:13.770869 25992 net.cpp:150] Setting up relu5_3
I1125 12:06:13.770879 25992 net.cpp:157] Top shape: 1 512 32 32 (524288)
I1125 12:06:13.770882 25992 net.cpp:165] Memory required for data: 902900928
I1125 12:06:13.770886 25992 layer_factory.hpp:77] Creating layer conv5_3_relu5_3_0_split
I1125 12:06:13.770895 25992 net.cpp:100] Creating Layer conv5_3_relu5_3_0_split
I1125 12:06:13.770898 25992 net.cpp:434] conv5_3_relu5_3_0_split <- conv5_3
I1125 12:06:13.770908 25992 net.cpp:408] conv5_3_relu5_3_0_split -> conv5_3_relu5_3_0_split_0
I1125 12:06:13.770918 25992 net.cpp:408] conv5_3_relu5_3_0_split -> conv5_3_relu5_3_0_split_1
I1125 12:06:13.770928 25992 net.cpp:408] conv5_3_relu5_3_0_split -> conv5_3_relu5_3_0_split_2
I1125 12:06:13.770989 25992 net.cpp:150] Setting up conv5_3_relu5_3_0_split
I1125 12:06:13.770998 25992 net.cpp:157] Top shape: 1 512 32 32 (524288)
I1125 12:06:13.771003 25992 net.cpp:157] Top shape: 1 512 32 32 (524288)
I1125 12:06:13.771008 25992 net.cpp:157] Top shape: 1 512 32 32 (524288)
I1125 12:06:13.771010 25992 net.cpp:165] Memory required for data: 909192384
I1125 12:06:13.771014 25992 layer_factory.hpp:77] Creating layer pool5
I1125 12:06:13.771025 25992 net.cpp:100] Creating Layer pool5
I1125 12:06:13.771030 25992 net.cpp:434] pool5 <- conv5_3_relu5_3_0_split_0
I1125 12:06:13.771036 25992 net.cpp:408] pool5 -> pool5
I1125 12:06:13.771085 25992 net.cpp:150] Setting up pool5
I1125 12:06:13.771092 25992 net.cpp:157] Top shape: 1 512 17 17 (147968)
I1125 12:06:13.771095 25992 net.cpp:165] Memory required for data: 909784256
I1125 12:06:13.771100 25992 layer_factory.hpp:77] Creating layer conv1-dsn6
I1125 12:06:13.771112 25992 net.cpp:100] Creating Layer conv1-dsn6
I1125 12:06:13.771116 25992 net.cpp:434] conv1-dsn6 <- pool5
I1125 12:06:13.771132 25992 net.cpp:408] conv1-dsn6 -> conv1-dsn6
I1125 12:06:13.774869 25992 net.cpp:150] Setting up conv1-dsn6
I1125 12:06:13.774884 25992 net.cpp:157] Top shape: 1 256 17 17 (73984)
I1125 12:06:13.774888 25992 net.cpp:165] Memory required for data: 910080192
I1125 12:06:13.774896 25992 layer_factory.hpp:77] Creating layer conv2-dsn6
I1125 12:06:13.774912 25992 net.cpp:100] Creating Layer conv2-dsn6
I1125 12:06:13.774919 25992 net.cpp:434] conv2-dsn6 <- conv1-dsn6
I1125 12:06:13.774930 25992 net.cpp:408] conv2-dsn6 -> conv2-dsn6
I1125 12:06:13.793994 25992 net.cpp:150] Setting up conv2-dsn6
I1125 12:06:13.794011 25992 net.cpp:157] Top shape: 1 256 17 17 (73984)
I1125 12:06:13.794015 25992 net.cpp:165] Memory required for data: 910376128
I1125 12:06:13.794024 25992 layer_factory.hpp:77] Creating layer relu1-dsn6
I1125 12:06:13.794031 25992 net.cpp:100] Creating Layer relu1-dsn6
I1125 12:06:13.794036 25992 net.cpp:434] relu1-dsn6 <- conv2-dsn6
I1125 12:06:13.794044 25992 net.cpp:395] relu1-dsn6 -> conv2-dsn6 (in-place)
I1125 12:06:13.794243 25992 net.cpp:150] Setting up relu1-dsn6
I1125 12:06:13.794253 25992 net.cpp:157] Top shape: 1 256 17 17 (73984)
I1125 12:06:13.794257 25992 net.cpp:165] Memory required for data: 910672064
I1125 12:06:13.794261 25992 layer_factory.hpp:77] Creating layer conv3-dsn6
I1125 12:06:13.794275 25992 net.cpp:100] Creating Layer conv3-dsn6
I1125 12:06:13.794281 25992 net.cpp:434] conv3-dsn6 <- conv2-dsn6
I1125 12:06:13.794291 25992 net.cpp:408] conv3-dsn6 -> conv3-dsn6
I1125 12:06:13.813582 25992 net.cpp:150] Setting up conv3-dsn6
I1125 12:06:13.813596 25992 net.cpp:157] Top shape: 1 256 17 17 (73984)
I1125 12:06:13.813601 25992 net.cpp:165] Memory required for data: 910968000
I1125 12:06:13.813608 25992 layer_factory.hpp:77] Creating layer relu2-dsn6
I1125 12:06:13.813616 25992 net.cpp:100] Creating Layer relu2-dsn6
I1125 12:06:13.813621 25992 net.cpp:434] relu2-dsn6 <- conv3-dsn6
I1125 12:06:13.813630 25992 net.cpp:395] relu2-dsn6 -> conv3-dsn6 (in-place)
I1125 12:06:13.813820 25992 net.cpp:150] Setting up relu2-dsn6
I1125 12:06:13.813830 25992 net.cpp:157] Top shape: 1 256 17 17 (73984)
I1125 12:06:13.813834 25992 net.cpp:165] Memory required for data: 911263936
I1125 12:06:13.813838 25992 layer_factory.hpp:77] Creating layer conv4-dsn6
I1125 12:06:13.813851 25992 net.cpp:100] Creating Layer conv4-dsn6
I1125 12:06:13.813856 25992 net.cpp:434] conv4-dsn6 <- conv3-dsn6
I1125 12:06:13.813866 25992 net.cpp:408] conv4-dsn6 -> conv4-dsn6
I1125 12:06:13.832854 25992 net.cpp:150] Setting up conv4-dsn6
I1125 12:06:13.832870 25992 net.cpp:157] Top shape: 1 256 17 17 (73984)
I1125 12:06:13.832875 25992 net.cpp:165] Memory required for data: 911559872
I1125 12:06:13.832895 25992 layer_factory.hpp:77] Creating layer relu3-dsn6
I1125 12:06:13.832903 25992 net.cpp:100] Creating Layer relu3-dsn6
I1125 12:06:13.832908 25992 net.cpp:434] relu3-dsn6 <- conv4-dsn6
I1125 12:06:13.832918 25992 net.cpp:395] relu3-dsn6 -> conv4-dsn6 (in-place)
I1125 12:06:13.833104 25992 net.cpp:150] Setting up relu3-dsn6
I1125 12:06:13.833113 25992 net.cpp:157] Top shape: 1 256 17 17 (73984)
I1125 12:06:13.833117 25992 net.cpp:165] Memory required for data: 911855808
I1125 12:06:13.833122 25992 layer_factory.hpp:77] Creating layer conv5-dsn6
I1125 12:06:13.833142 25992 net.cpp:100] Creating Layer conv5-dsn6
I1125 12:06:13.833148 25992 net.cpp:434] conv5-dsn6 <- conv4-dsn6
I1125 12:06:13.833158 25992 net.cpp:408] conv5-dsn6 -> conv5-dsn6
I1125 12:06:13.834275 25992 net.cpp:150] Setting up conv5-dsn6
I1125 12:06:13.834287 25992 net.cpp:157] Top shape: 1 1 17 17 (289)
I1125 12:06:13.834291 25992 net.cpp:165] Memory required for data: 911856964
I1125 12:06:13.834300 25992 layer_factory.hpp:77] Creating layer conv5-dsn6_conv5-dsn6_0_split
I1125 12:06:13.834311 25992 net.cpp:100] Creating Layer conv5-dsn6_conv5-dsn6_0_split
I1125 12:06:13.834316 25992 net.cpp:434] conv5-dsn6_conv5-dsn6_0_split <- conv5-dsn6
I1125 12:06:13.834323 25992 net.cpp:408] conv5-dsn6_conv5-dsn6_0_split -> conv5-dsn6_conv5-dsn6_0_split_0
I1125 12:06:13.834336 25992 net.cpp:408] conv5-dsn6_conv5-dsn6_0_split -> conv5-dsn6_conv5-dsn6_0_split_1
I1125 12:06:13.834383 25992 net.cpp:150] Setting up conv5-dsn6_conv5-dsn6_0_split
I1125 12:06:13.834391 25992 net.cpp:157] Top shape: 1 1 17 17 (289)
I1125 12:06:13.834395 25992 net.cpp:157] Top shape: 1 1 17 17 (289)
I1125 12:06:13.834398 25992 net.cpp:165] Memory required for data: 911859276
I1125 12:06:13.834403 25992 layer_factory.hpp:77] Creating layer upsample32_dsn6
I1125 12:06:13.834414 25992 net.cpp:100] Creating Layer upsample32_dsn6
I1125 12:06:13.834420 25992 net.cpp:434] upsample32_dsn6 <- conv5-dsn6_conv5-dsn6_0_split_0
I1125 12:06:13.834429 25992 net.cpp:408] upsample32_dsn6 -> conv5-dsn6-up
I1125 12:06:13.834985 25992 net.cpp:150] Setting up upsample32_dsn6
I1125 12:06:13.834995 25992 net.cpp:157] Top shape: 1 1 576 576 (331776)
I1125 12:06:13.834998 25992 net.cpp:165] Memory required for data: 913186380
I1125 12:06:13.835005 25992 layer_factory.hpp:77] Creating layer crop-dsn6
I1125 12:06:13.835013 25992 net.cpp:100] Creating Layer crop-dsn6
I1125 12:06:13.835018 25992 net.cpp:434] crop-dsn6 <- conv5-dsn6-up
I1125 12:06:13.835023 25992 net.cpp:434] crop-dsn6 <- data_augmentation_0_split_1
I1125 12:06:13.835033 25992 net.cpp:408] crop-dsn6 -> upscore-dsn6
I1125 12:06:13.835069 25992 net.cpp:150] Setting up crop-dsn6
I1125 12:06:13.835077 25992 net.cpp:157] Top shape: 1 1 500 500 (250000)
I1125 12:06:13.835079 25992 net.cpp:165] Memory required for data: 914186380
I1125 12:06:13.835083 25992 layer_factory.hpp:77] Creating layer loss6-score
I1125 12:06:13.835095 25992 net.cpp:100] Creating Layer loss6-score
I1125 12:06:13.835099 25992 net.cpp:434] loss6-score <- upscore-dsn6
I1125 12:06:13.835104 25992 net.cpp:434] loss6-score <- label_augmentation_1_split_0
I1125 12:06:13.835112 25992 net.cpp:408] loss6-score -> loss6-score
I1125 12:06:13.836448 25992 net.cpp:150] Setting up loss6-score
I1125 12:06:13.836460 25992 net.cpp:157] Top shape: (1)
I1125 12:06:13.836464 25992 net.cpp:160]     with loss weight 1
I1125 12:06:13.836479 25992 net.cpp:165] Memory required for data: 914186384
I1125 12:06:13.836484 25992 layer_factory.hpp:77] Creating layer upsample2_dsn5
I1125 12:06:13.836496 25992 net.cpp:100] Creating Layer upsample2_dsn5
I1125 12:06:13.836501 25992 net.cpp:434] upsample2_dsn5 <- conv5-dsn6_conv5-dsn6_0_split_1
I1125 12:06:13.836509 25992 net.cpp:408] upsample2_dsn5 -> conv5-dsn6-5
I1125 12:06:13.836760 25992 net.cpp:150] Setting up upsample2_dsn5
I1125 12:06:13.836768 25992 net.cpp:157] Top shape: 1 1 36 36 (1296)
I1125 12:06:13.836771 25992 net.cpp:165] Memory required for data: 914191568
I1125 12:06:13.836779 25992 layer_factory.hpp:77] Creating layer crop1-dsn5
I1125 12:06:13.836786 25992 net.cpp:100] Creating Layer crop1-dsn5
I1125 12:06:13.836791 25992 net.cpp:434] crop1-dsn5 <- conv5-dsn6-5
I1125 12:06:13.836796 25992 net.cpp:434] crop1-dsn5 <- conv5_3_relu5_3_0_split_1
I1125 12:06:13.836802 25992 net.cpp:408] crop1-dsn5 -> weight-dsn6-5
I1125 12:06:13.836835 25992 net.cpp:150] Setting up crop1-dsn5
I1125 12:06:13.836843 25992 net.cpp:157] Top shape: 1 1 32 32 (1024)
I1125 12:06:13.836845 25992 net.cpp:165] Memory required for data: 914195664
I1125 12:06:13.836849 25992 layer_factory.hpp:77] Creating layer weight-dsn6-5_crop1-dsn5_0_split
I1125 12:06:13.836858 25992 net.cpp:100] Creating Layer weight-dsn6-5_crop1-dsn5_0_split
I1125 12:06:13.836863 25992 net.cpp:434] weight-dsn6-5_crop1-dsn5_0_split <- weight-dsn6-5
I1125 12:06:13.836869 25992 net.cpp:408] weight-dsn6-5_crop1-dsn5_0_split -> weight-dsn6-5_crop1-dsn5_0_split_0
I1125 12:06:13.836877 25992 net.cpp:408] weight-dsn6-5_crop1-dsn5_0_split -> weight-dsn6-5_crop1-dsn5_0_split_1
I1125 12:06:13.836922 25992 net.cpp:150] Setting up weight-dsn6-5_crop1-dsn5_0_split
I1125 12:06:13.836930 25992 net.cpp:157] Top shape: 1 1 32 32 (1024)
I1125 12:06:13.836935 25992 net.cpp:157] Top shape: 1 1 32 32 (1024)
I1125 12:06:13.836937 25992 net.cpp:165] Memory required for data: 914203856
I1125 12:06:13.836941 25992 layer_factory.hpp:77] Creating layer sigmoid-dsn5
I1125 12:06:13.836948 25992 net.cpp:100] Creating Layer sigmoid-dsn5
I1125 12:06:13.836952 25992 net.cpp:434] sigmoid-dsn5 <- weight-dsn6-5_crop1-dsn5_0_split_0
I1125 12:06:13.836961 25992 net.cpp:408] sigmoid-dsn5 -> sigmoid-dsn5
I1125 12:06:13.837177 25992 net.cpp:150] Setting up sigmoid-dsn5
I1125 12:06:13.837186 25992 net.cpp:157] Top shape: 1 1 32 32 (1024)
I1125 12:06:13.837190 25992 net.cpp:165] Memory required for data: 914207952
I1125 12:06:13.837194 25992 layer_factory.hpp:77] Creating layer rev-dsn5
I1125 12:06:13.837203 25992 net.cpp:100] Creating Layer rev-dsn5
I1125 12:06:13.837208 25992 net.cpp:434] rev-dsn5 <- sigmoid-dsn5
I1125 12:06:13.837216 25992 net.cpp:408] rev-dsn5 -> rev-dsn5
I1125 12:06:13.837262 25992 net.cpp:150] Setting up rev-dsn5
I1125 12:06:13.837270 25992 net.cpp:157] Top shape: 1 1 32 32 (1024)
I1125 12:06:13.837273 25992 net.cpp:165] Memory required for data: 914212048
I1125 12:06:13.837277 25992 layer_factory.hpp:77] Creating layer tile-dsn5
I1125 12:06:13.837285 25992 net.cpp:100] Creating Layer tile-dsn5
I1125 12:06:13.837289 25992 net.cpp:434] tile-dsn5 <- rev-dsn5
I1125 12:06:13.837298 25992 net.cpp:408] tile-dsn5 -> weight-dsn5
I1125 12:06:13.837327 25992 net.cpp:150] Setting up tile-dsn5
I1125 12:06:13.837334 25992 net.cpp:157] Top shape: 1 512 32 32 (524288)
I1125 12:06:13.837338 25992 net.cpp:165] Memory required for data: 916309200
I1125 12:06:13.837342 25992 layer_factory.hpp:77] Creating layer prod1-dsn5
I1125 12:06:13.837352 25992 net.cpp:100] Creating Layer prod1-dsn5
I1125 12:06:13.837357 25992 net.cpp:434] prod1-dsn5 <- conv5_3_relu5_3_0_split_2
I1125 12:06:13.837363 25992 net.cpp:434] prod1-dsn5 <- weight-dsn5
I1125 12:06:13.837369 25992 net.cpp:408] prod1-dsn5 -> prod1-dsn5
I1125 12:06:13.837400 25992 net.cpp:150] Setting up prod1-dsn5
I1125 12:06:13.837407 25992 net.cpp:157] Top shape: 1 512 32 32 (524288)
I1125 12:06:13.837410 25992 net.cpp:165] Memory required for data: 918406352
I1125 12:06:13.837414 25992 layer_factory.hpp:77] Creating layer conv1-dsn5
I1125 12:06:13.837427 25992 net.cpp:100] Creating Layer conv1-dsn5
I1125 12:06:13.837431 25992 net.cpp:434] conv1-dsn5 <- prod1-dsn5
I1125 12:06:13.837441 25992 net.cpp:408] conv1-dsn5 -> conv1-dsn5
I1125 12:06:13.838886 25992 net.cpp:150] Setting up conv1-dsn5
I1125 12:06:13.838899 25992 net.cpp:157] Top shape: 1 64 32 32 (65536)
I1125 12:06:13.838903 25992 net.cpp:165] Memory required for data: 918668496
I1125 12:06:13.838912 25992 layer_factory.hpp:77] Creating layer conv2-dsn5
I1125 12:06:13.838927 25992 net.cpp:100] Creating Layer conv2-dsn5
I1125 12:06:13.838932 25992 net.cpp:434] conv2-dsn5 <- conv1-dsn5
I1125 12:06:13.838943 25992 net.cpp:408] conv2-dsn5 -> conv2-dsn5
I1125 12:06:13.840457 25992 net.cpp:150] Setting up conv2-dsn5
I1125 12:06:13.840471 25992 net.cpp:157] Top shape: 1 64 32 32 (65536)
I1125 12:06:13.840474 25992 net.cpp:165] Memory required for data: 918930640
I1125 12:06:13.840482 25992 layer_factory.hpp:77] Creating layer relu1-dsn5
I1125 12:06:13.840490 25992 net.cpp:100] Creating Layer relu1-dsn5
I1125 12:06:13.840494 25992 net.cpp:434] relu1-dsn5 <- conv2-dsn5
I1125 12:06:13.840504 25992 net.cpp:395] relu1-dsn5 -> conv2-dsn5 (in-place)
I1125 12:06:13.841011 25992 net.cpp:150] Setting up relu1-dsn5
I1125 12:06:13.841022 25992 net.cpp:157] Top shape: 1 64 32 32 (65536)
I1125 12:06:13.841027 25992 net.cpp:165] Memory required for data: 919192784
I1125 12:06:13.841030 25992 layer_factory.hpp:77] Creating layer conv3-dsn5
I1125 12:06:13.841044 25992 net.cpp:100] Creating Layer conv3-dsn5
I1125 12:06:13.841050 25992 net.cpp:434] conv3-dsn5 <- conv2-dsn5
I1125 12:06:13.841061 25992 net.cpp:408] conv3-dsn5 -> conv3-dsn5
I1125 12:06:13.842231 25992 net.cpp:150] Setting up conv3-dsn5
I1125 12:06:13.842244 25992 net.cpp:157] Top shape: 1 64 32 32 (65536)
I1125 12:06:13.842248 25992 net.cpp:165] Memory required for data: 919454928
I1125 12:06:13.842257 25992 layer_factory.hpp:77] Creating layer relu2-dsn5
I1125 12:06:13.842262 25992 net.cpp:100] Creating Layer relu2-dsn5
I1125 12:06:13.842267 25992 net.cpp:434] relu2-dsn5 <- conv3-dsn5
I1125 12:06:13.842273 25992 net.cpp:395] relu2-dsn5 -> conv3-dsn5 (in-place)
I1125 12:06:13.842772 25992 net.cpp:150] Setting up relu2-dsn5
I1125 12:06:13.842784 25992 net.cpp:157] Top shape: 1 64 32 32 (65536)
I1125 12:06:13.842788 25992 net.cpp:165] Memory required for data: 919717072
I1125 12:06:13.842793 25992 layer_factory.hpp:77] Creating layer conv4-dsn5
I1125 12:06:13.842823 25992 net.cpp:100] Creating Layer conv4-dsn5
I1125 12:06:13.842831 25992 net.cpp:434] conv4-dsn5 <- conv3-dsn5
I1125 12:06:13.842840 25992 net.cpp:408] conv4-dsn5 -> conv4-dsn5
I1125 12:06:13.843982 25992 net.cpp:150] Setting up conv4-dsn5
I1125 12:06:13.843998 25992 net.cpp:157] Top shape: 1 1 32 32 (1024)
I1125 12:06:13.844002 25992 net.cpp:165] Memory required for data: 919721168
I1125 12:06:13.844012 25992 layer_factory.hpp:77] Creating layer sum-dsn5
I1125 12:06:13.844019 25992 net.cpp:100] Creating Layer sum-dsn5
I1125 12:06:13.844024 25992 net.cpp:434] sum-dsn5 <- conv4-dsn5
I1125 12:06:13.844029 25992 net.cpp:434] sum-dsn5 <- weight-dsn6-5_crop1-dsn5_0_split_1
I1125 12:06:13.844039 25992 net.cpp:408] sum-dsn5 -> sum-dsn5
I1125 12:06:13.844072 25992 net.cpp:150] Setting up sum-dsn5
I1125 12:06:13.844080 25992 net.cpp:157] Top shape: 1 1 32 32 (1024)
I1125 12:06:13.844084 25992 net.cpp:165] Memory required for data: 919725264
I1125 12:06:13.844087 25992 layer_factory.hpp:77] Creating layer sum-dsn5_sum-dsn5_0_split
I1125 12:06:13.844099 25992 net.cpp:100] Creating Layer sum-dsn5_sum-dsn5_0_split
I1125 12:06:13.844102 25992 net.cpp:434] sum-dsn5_sum-dsn5_0_split <- sum-dsn5
I1125 12:06:13.844110 25992 net.cpp:408] sum-dsn5_sum-dsn5_0_split -> sum-dsn5_sum-dsn5_0_split_0
I1125 12:06:13.844120 25992 net.cpp:408] sum-dsn5_sum-dsn5_0_split -> sum-dsn5_sum-dsn5_0_split_1
I1125 12:06:13.844190 25992 net.cpp:150] Setting up sum-dsn5_sum-dsn5_0_split
I1125 12:06:13.844200 25992 net.cpp:157] Top shape: 1 1 32 32 (1024)
I1125 12:06:13.844206 25992 net.cpp:157] Top shape: 1 1 32 32 (1024)
I1125 12:06:13.844209 25992 net.cpp:165] Memory required for data: 919733456
I1125 12:06:13.844214 25992 layer_factory.hpp:77] Creating layer upsample16_dsn5
I1125 12:06:13.844223 25992 net.cpp:100] Creating Layer upsample16_dsn5
I1125 12:06:13.844228 25992 net.cpp:434] upsample16_dsn5 <- sum-dsn5_sum-dsn5_0_split_0
I1125 12:06:13.844236 25992 net.cpp:408] upsample16_dsn5 -> sum-dsn5-up
I1125 12:06:13.845778 25992 net.cpp:150] Setting up upsample16_dsn5
I1125 12:06:13.845791 25992 net.cpp:157] Top shape: 1 1 528 528 (278784)
I1125 12:06:13.845795 25992 net.cpp:165] Memory required for data: 920848592
I1125 12:06:13.845803 25992 layer_factory.hpp:77] Creating layer crop2-dsn5
I1125 12:06:13.845814 25992 net.cpp:100] Creating Layer crop2-dsn5
I1125 12:06:13.845819 25992 net.cpp:434] crop2-dsn5 <- sum-dsn5-up
I1125 12:06:13.845825 25992 net.cpp:434] crop2-dsn5 <- data_augmentation_0_split_2
I1125 12:06:13.845831 25992 net.cpp:408] crop2-dsn5 -> upscore-dsn5
I1125 12:06:13.845872 25992 net.cpp:150] Setting up crop2-dsn5
I1125 12:06:13.845880 25992 net.cpp:157] Top shape: 1 1 500 500 (250000)
I1125 12:06:13.845883 25992 net.cpp:165] Memory required for data: 921848592
I1125 12:06:13.845886 25992 layer_factory.hpp:77] Creating layer loss5-score
I1125 12:06:13.845897 25992 net.cpp:100] Creating Layer loss5-score
I1125 12:06:13.845901 25992 net.cpp:434] loss5-score <- upscore-dsn5
I1125 12:06:13.845907 25992 net.cpp:434] loss5-score <- label_augmentation_1_split_1
I1125 12:06:13.845913 25992 net.cpp:408] loss5-score -> loss5-score
I1125 12:06:13.846135 25992 net.cpp:150] Setting up loss5-score
I1125 12:06:13.846143 25992 net.cpp:157] Top shape: (1)
I1125 12:06:13.846145 25992 net.cpp:160]     with loss weight 1
I1125 12:06:13.846153 25992 net.cpp:165] Memory required for data: 921848596
I1125 12:06:13.846158 25992 layer_factory.hpp:77] Creating layer upsample2_dsn4
I1125 12:06:13.846168 25992 net.cpp:100] Creating Layer upsample2_dsn4
I1125 12:06:13.846172 25992 net.cpp:434] upsample2_dsn4 <- sum-dsn5_sum-dsn5_0_split_1
I1125 12:06:13.846181 25992 net.cpp:408] upsample2_dsn4 -> sum-dsn5-4
I1125 12:06:13.846441 25992 net.cpp:150] Setting up upsample2_dsn4
I1125 12:06:13.846449 25992 net.cpp:157] Top shape: 1 1 66 66 (4356)
I1125 12:06:13.846453 25992 net.cpp:165] Memory required for data: 921866020
I1125 12:06:13.846460 25992 layer_factory.hpp:77] Creating layer crop1-dsn4
I1125 12:06:13.846467 25992 net.cpp:100] Creating Layer crop1-dsn4
I1125 12:06:13.846472 25992 net.cpp:434] crop1-dsn4 <- sum-dsn5-4
I1125 12:06:13.846477 25992 net.cpp:434] crop1-dsn4 <- conv4_3_relu4_3_0_split_1
I1125 12:06:13.846487 25992 net.cpp:408] crop1-dsn4 -> weight-dsn5-4
I1125 12:06:13.846519 25992 net.cpp:150] Setting up crop1-dsn4
I1125 12:06:13.846526 25992 net.cpp:157] Top shape: 1 1 63 63 (3969)
I1125 12:06:13.846530 25992 net.cpp:165] Memory required for data: 921881896
I1125 12:06:13.846534 25992 layer_factory.hpp:77] Creating layer weight-dsn5-4_crop1-dsn4_0_split
I1125 12:06:13.846540 25992 net.cpp:100] Creating Layer weight-dsn5-4_crop1-dsn4_0_split
I1125 12:06:13.846545 25992 net.cpp:434] weight-dsn5-4_crop1-dsn4_0_split <- weight-dsn5-4
I1125 12:06:13.846554 25992 net.cpp:408] weight-dsn5-4_crop1-dsn4_0_split -> weight-dsn5-4_crop1-dsn4_0_split_0
I1125 12:06:13.846562 25992 net.cpp:408] weight-dsn5-4_crop1-dsn4_0_split -> weight-dsn5-4_crop1-dsn4_0_split_1
I1125 12:06:13.846607 25992 net.cpp:150] Setting up weight-dsn5-4_crop1-dsn4_0_split
I1125 12:06:13.846614 25992 net.cpp:157] Top shape: 1 1 63 63 (3969)
I1125 12:06:13.846619 25992 net.cpp:157] Top shape: 1 1 63 63 (3969)
I1125 12:06:13.846622 25992 net.cpp:165] Memory required for data: 921913648
I1125 12:06:13.846626 25992 layer_factory.hpp:77] Creating layer sigmoid-dsn4
I1125 12:06:13.846633 25992 net.cpp:100] Creating Layer sigmoid-dsn4
I1125 12:06:13.846637 25992 net.cpp:434] sigmoid-dsn4 <- weight-dsn5-4_crop1-dsn4_0_split_0
I1125 12:06:13.846647 25992 net.cpp:408] sigmoid-dsn4 -> sigmoid-dsn4
I1125 12:06:13.846850 25992 net.cpp:150] Setting up sigmoid-dsn4
I1125 12:06:13.846861 25992 net.cpp:157] Top shape: 1 1 63 63 (3969)
I1125 12:06:13.846865 25992 net.cpp:165] Memory required for data: 921929524
I1125 12:06:13.846869 25992 layer_factory.hpp:77] Creating layer rev-dsn4
I1125 12:06:13.846877 25992 net.cpp:100] Creating Layer rev-dsn4
I1125 12:06:13.846881 25992 net.cpp:434] rev-dsn4 <- sigmoid-dsn4
I1125 12:06:13.846890 25992 net.cpp:408] rev-dsn4 -> rev-dsn4
I1125 12:06:13.846920 25992 net.cpp:150] Setting up rev-dsn4
I1125 12:06:13.846926 25992 net.cpp:157] Top shape: 1 1 63 63 (3969)
I1125 12:06:13.846930 25992 net.cpp:165] Memory required for data: 921945400
I1125 12:06:13.846933 25992 layer_factory.hpp:77] Creating layer tile-dsn4
I1125 12:06:13.846942 25992 net.cpp:100] Creating Layer tile-dsn4
I1125 12:06:13.846947 25992 net.cpp:434] tile-dsn4 <- rev-dsn4
I1125 12:06:13.846953 25992 net.cpp:408] tile-dsn4 -> weight-dsn4
I1125 12:06:13.846984 25992 net.cpp:150] Setting up tile-dsn4
I1125 12:06:13.846990 25992 net.cpp:157] Top shape: 1 512 63 63 (2032128)
I1125 12:06:13.846994 25992 net.cpp:165] Memory required for data: 930073912
I1125 12:06:13.846998 25992 layer_factory.hpp:77] Creating layer prod1-dsn4
I1125 12:06:13.847005 25992 net.cpp:100] Creating Layer prod1-dsn4
I1125 12:06:13.847009 25992 net.cpp:434] prod1-dsn4 <- conv4_3_relu4_3_0_split_2
I1125 12:06:13.847015 25992 net.cpp:434] prod1-dsn4 <- weight-dsn4
I1125 12:06:13.847023 25992 net.cpp:408] prod1-dsn4 -> prod1-dsn4
I1125 12:06:13.847056 25992 net.cpp:150] Setting up prod1-dsn4
I1125 12:06:13.847064 25992 net.cpp:157] Top shape: 1 512 63 63 (2032128)
I1125 12:06:13.847067 25992 net.cpp:165] Memory required for data: 938202424
I1125 12:06:13.847071 25992 layer_factory.hpp:77] Creating layer conv1-dsn4
I1125 12:06:13.847084 25992 net.cpp:100] Creating Layer conv1-dsn4
I1125 12:06:13.847088 25992 net.cpp:434] conv1-dsn4 <- prod1-dsn4
I1125 12:06:13.847098 25992 net.cpp:408] conv1-dsn4 -> conv1-dsn4
I1125 12:06:13.853479 25992 net.cpp:150] Setting up conv1-dsn4
I1125 12:06:13.853493 25992 net.cpp:157] Top shape: 1 64 63 63 (254016)
I1125 12:06:13.853497 25992 net.cpp:165] Memory required for data: 939218488
I1125 12:06:13.853507 25992 layer_factory.hpp:77] Creating layer conv2-dsn4
I1125 12:06:13.853520 25992 net.cpp:100] Creating Layer conv2-dsn4
I1125 12:06:13.853525 25992 net.cpp:434] conv2-dsn4 <- conv1-dsn4
I1125 12:06:13.853536 25992 net.cpp:408] conv2-dsn4 -> conv2-dsn4
I1125 12:06:13.855387 25992 net.cpp:150] Setting up conv2-dsn4
I1125 12:06:13.855401 25992 net.cpp:157] Top shape: 1 64 63 63 (254016)
I1125 12:06:13.855406 25992 net.cpp:165] Memory required for data: 940234552
I1125 12:06:13.855414 25992 layer_factory.hpp:77] Creating layer relu1-dsn4
I1125 12:06:13.855422 25992 net.cpp:100] Creating Layer relu1-dsn4
I1125 12:06:13.855427 25992 net.cpp:434] relu1-dsn4 <- conv2-dsn4
I1125 12:06:13.855437 25992 net.cpp:395] relu1-dsn4 -> conv2-dsn4 (in-place)
I1125 12:06:13.855648 25992 net.cpp:150] Setting up relu1-dsn4
I1125 12:06:13.855657 25992 net.cpp:157] Top shape: 1 64 63 63 (254016)
I1125 12:06:13.855661 25992 net.cpp:165] Memory required for data: 941250616
I1125 12:06:13.855665 25992 layer_factory.hpp:77] Creating layer conv3-dsn4
I1125 12:06:13.855679 25992 net.cpp:100] Creating Layer conv3-dsn4
I1125 12:06:13.855684 25992 net.cpp:434] conv3-dsn4 <- conv2-dsn4
I1125 12:06:13.855695 25992 net.cpp:408] conv3-dsn4 -> conv3-dsn4
I1125 12:06:13.857246 25992 net.cpp:150] Setting up conv3-dsn4
I1125 12:06:13.857259 25992 net.cpp:157] Top shape: 1 64 63 63 (254016)
I1125 12:06:13.857264 25992 net.cpp:165] Memory required for data: 942266680
I1125 12:06:13.857272 25992 layer_factory.hpp:77] Creating layer relu2-dsn4
I1125 12:06:13.857280 25992 net.cpp:100] Creating Layer relu2-dsn4
I1125 12:06:13.857283 25992 net.cpp:434] relu2-dsn4 <- conv3-dsn4
I1125 12:06:13.857293 25992 net.cpp:395] relu2-dsn4 -> conv3-dsn4 (in-place)
I1125 12:06:13.857479 25992 net.cpp:150] Setting up relu2-dsn4
I1125 12:06:13.857489 25992 net.cpp:157] Top shape: 1 64 63 63 (254016)
I1125 12:06:13.857492 25992 net.cpp:165] Memory required for data: 943282744
I1125 12:06:13.857497 25992 layer_factory.hpp:77] Creating layer conv4-dsn4
I1125 12:06:13.857514 25992 net.cpp:100] Creating Layer conv4-dsn4
I1125 12:06:13.857520 25992 net.cpp:434] conv4-dsn4 <- conv3-dsn4
I1125 12:06:13.857532 25992 net.cpp:408] conv4-dsn4 -> conv4-dsn4
I1125 12:06:13.858685 25992 net.cpp:150] Setting up conv4-dsn4
I1125 12:06:13.858701 25992 net.cpp:157] Top shape: 1 1 63 63 (3969)
I1125 12:06:13.858705 25992 net.cpp:165] Memory required for data: 943298620
I1125 12:06:13.858714 25992 layer_factory.hpp:77] Creating layer sum-dsn4
I1125 12:06:13.858722 25992 net.cpp:100] Creating Layer sum-dsn4
I1125 12:06:13.858726 25992 net.cpp:434] sum-dsn4 <- conv4-dsn4
I1125 12:06:13.858733 25992 net.cpp:434] sum-dsn4 <- weight-dsn5-4_crop1-dsn4_0_split_1
I1125 12:06:13.858742 25992 net.cpp:408] sum-dsn4 -> sum-dsn4
I1125 12:06:13.858777 25992 net.cpp:150] Setting up sum-dsn4
I1125 12:06:13.858785 25992 net.cpp:157] Top shape: 1 1 63 63 (3969)
I1125 12:06:13.858788 25992 net.cpp:165] Memory required for data: 943314496
I1125 12:06:13.858793 25992 layer_factory.hpp:77] Creating layer sum-dsn4_sum-dsn4_0_split
I1125 12:06:13.858803 25992 net.cpp:100] Creating Layer sum-dsn4_sum-dsn4_0_split
I1125 12:06:13.858806 25992 net.cpp:434] sum-dsn4_sum-dsn4_0_split <- sum-dsn4
I1125 12:06:13.858815 25992 net.cpp:408] sum-dsn4_sum-dsn4_0_split -> sum-dsn4_sum-dsn4_0_split_0
I1125 12:06:13.858824 25992 net.cpp:408] sum-dsn4_sum-dsn4_0_split -> sum-dsn4_sum-dsn4_0_split_1
I1125 12:06:13.858870 25992 net.cpp:150] Setting up sum-dsn4_sum-dsn4_0_split
I1125 12:06:13.858880 25992 net.cpp:157] Top shape: 1 1 63 63 (3969)
I1125 12:06:13.858886 25992 net.cpp:157] Top shape: 1 1 63 63 (3969)
I1125 12:06:13.858888 25992 net.cpp:165] Memory required for data: 943346248
I1125 12:06:13.858892 25992 layer_factory.hpp:77] Creating layer upsample8_dsn4
I1125 12:06:13.858901 25992 net.cpp:100] Creating Layer upsample8_dsn4
I1125 12:06:13.858904 25992 net.cpp:434] upsample8_dsn4 <- sum-dsn4_sum-dsn4_0_split_0
I1125 12:06:13.858913 25992 net.cpp:408] upsample8_dsn4 -> sum-dsn4-up
I1125 12:06:13.860524 25992 net.cpp:150] Setting up upsample8_dsn4
I1125 12:06:13.860538 25992 net.cpp:157] Top shape: 1 1 512 512 (262144)
I1125 12:06:13.860540 25992 net.cpp:165] Memory required for data: 944394824
I1125 12:06:13.860549 25992 layer_factory.hpp:77] Creating layer crop2-dsn4
I1125 12:06:13.860559 25992 net.cpp:100] Creating Layer crop2-dsn4
I1125 12:06:13.860564 25992 net.cpp:434] crop2-dsn4 <- sum-dsn4-up
I1125 12:06:13.860570 25992 net.cpp:434] crop2-dsn4 <- data_augmentation_0_split_3
I1125 12:06:13.860577 25992 net.cpp:408] crop2-dsn4 -> upscore-dsn4
I1125 12:06:13.860618 25992 net.cpp:150] Setting up crop2-dsn4
I1125 12:06:13.860626 25992 net.cpp:157] Top shape: 1 1 500 500 (250000)
I1125 12:06:13.860630 25992 net.cpp:165] Memory required for data: 945394824
I1125 12:06:13.860635 25992 layer_factory.hpp:77] Creating layer loss4-score
I1125 12:06:13.860644 25992 net.cpp:100] Creating Layer loss4-score
I1125 12:06:13.860649 25992 net.cpp:434] loss4-score <- upscore-dsn4
I1125 12:06:13.860654 25992 net.cpp:434] loss4-score <- label_augmentation_1_split_2
I1125 12:06:13.860661 25992 net.cpp:408] loss4-score -> loss4-score
I1125 12:06:13.860872 25992 net.cpp:150] Setting up loss4-score
I1125 12:06:13.860879 25992 net.cpp:157] Top shape: (1)
I1125 12:06:13.860882 25992 net.cpp:160]     with loss weight 1
I1125 12:06:13.860889 25992 net.cpp:165] Memory required for data: 945394828
I1125 12:06:13.860893 25992 layer_factory.hpp:77] Creating layer upsample2_dsn3
I1125 12:06:13.860906 25992 net.cpp:100] Creating Layer upsample2_dsn3
I1125 12:06:13.860910 25992 net.cpp:434] upsample2_dsn3 <- sum-dsn4_sum-dsn4_0_split_1
I1125 12:06:13.860918 25992 net.cpp:408] upsample2_dsn3 -> sum-dsn4-3
I1125 12:06:13.861199 25992 net.cpp:150] Setting up upsample2_dsn3
I1125 12:06:13.861208 25992 net.cpp:157] Top shape: 1 1 128 128 (16384)
I1125 12:06:13.861212 25992 net.cpp:165] Memory required for data: 945460364
I1125 12:06:13.861219 25992 layer_factory.hpp:77] Creating layer crop1-dsn3
I1125 12:06:13.861227 25992 net.cpp:100] Creating Layer crop1-dsn3
I1125 12:06:13.861230 25992 net.cpp:434] crop1-dsn3 <- sum-dsn4-3
I1125 12:06:13.861236 25992 net.cpp:434] crop1-dsn3 <- conv3_3_relu3_3_0_split_1
I1125 12:06:13.861245 25992 net.cpp:408] crop1-dsn3 -> weight-dsn4-3
I1125 12:06:13.861279 25992 net.cpp:150] Setting up crop1-dsn3
I1125 12:06:13.861287 25992 net.cpp:157] Top shape: 1 1 125 125 (15625)
I1125 12:06:13.861291 25992 net.cpp:165] Memory required for data: 945522864
I1125 12:06:13.861295 25992 layer_factory.hpp:77] Creating layer weight-dsn4-3_crop1-dsn3_0_split
I1125 12:06:13.861302 25992 net.cpp:100] Creating Layer weight-dsn4-3_crop1-dsn3_0_split
I1125 12:06:13.861306 25992 net.cpp:434] weight-dsn4-3_crop1-dsn3_0_split <- weight-dsn4-3
I1125 12:06:13.861313 25992 net.cpp:408] weight-dsn4-3_crop1-dsn3_0_split -> weight-dsn4-3_crop1-dsn3_0_split_0
I1125 12:06:13.861325 25992 net.cpp:408] weight-dsn4-3_crop1-dsn3_0_split -> weight-dsn4-3_crop1-dsn3_0_split_1
I1125 12:06:13.861369 25992 net.cpp:150] Setting up weight-dsn4-3_crop1-dsn3_0_split
I1125 12:06:13.861377 25992 net.cpp:157] Top shape: 1 1 125 125 (15625)
I1125 12:06:13.861382 25992 net.cpp:157] Top shape: 1 1 125 125 (15625)
I1125 12:06:13.861385 25992 net.cpp:165] Memory required for data: 945647864
I1125 12:06:13.861389 25992 layer_factory.hpp:77] Creating layer sigmoid-dsn3
I1125 12:06:13.861397 25992 net.cpp:100] Creating Layer sigmoid-dsn3
I1125 12:06:13.861402 25992 net.cpp:434] sigmoid-dsn3 <- weight-dsn4-3_crop1-dsn3_0_split_0
I1125 12:06:13.861408 25992 net.cpp:408] sigmoid-dsn3 -> sigmoid-dsn3
I1125 12:06:13.861624 25992 net.cpp:150] Setting up sigmoid-dsn3
I1125 12:06:13.861634 25992 net.cpp:157] Top shape: 1 1 125 125 (15625)
I1125 12:06:13.861636 25992 net.cpp:165] Memory required for data: 945710364
I1125 12:06:13.861640 25992 layer_factory.hpp:77] Creating layer rev-dsn3
I1125 12:06:13.861650 25992 net.cpp:100] Creating Layer rev-dsn3
I1125 12:06:13.861654 25992 net.cpp:434] rev-dsn3 <- sigmoid-dsn3
I1125 12:06:13.861661 25992 net.cpp:408] rev-dsn3 -> rev-dsn3
I1125 12:06:13.861694 25992 net.cpp:150] Setting up rev-dsn3
I1125 12:06:13.861701 25992 net.cpp:157] Top shape: 1 1 125 125 (15625)
I1125 12:06:13.861704 25992 net.cpp:165] Memory required for data: 945772864
I1125 12:06:13.861708 25992 layer_factory.hpp:77] Creating layer tile-dsn3
I1125 12:06:13.861716 25992 net.cpp:100] Creating Layer tile-dsn3
I1125 12:06:13.861719 25992 net.cpp:434] tile-dsn3 <- rev-dsn3
I1125 12:06:13.861728 25992 net.cpp:408] tile-dsn3 -> weight-dsn3
I1125 12:06:13.861760 25992 net.cpp:150] Setting up tile-dsn3
I1125 12:06:13.861766 25992 net.cpp:157] Top shape: 1 256 125 125 (4000000)
I1125 12:06:13.861770 25992 net.cpp:165] Memory required for data: 961772864
I1125 12:06:13.861773 25992 layer_factory.hpp:77] Creating layer prod1-dsn3
I1125 12:06:13.861780 25992 net.cpp:100] Creating Layer prod1-dsn3
I1125 12:06:13.861785 25992 net.cpp:434] prod1-dsn3 <- conv3_3_relu3_3_0_split_2
I1125 12:06:13.861790 25992 net.cpp:434] prod1-dsn3 <- weight-dsn3
I1125 12:06:13.861804 25992 net.cpp:408] prod1-dsn3 -> prod1-dsn3
I1125 12:06:13.861833 25992 net.cpp:150] Setting up prod1-dsn3
I1125 12:06:13.861843 25992 net.cpp:157] Top shape: 1 256 125 125 (4000000)
I1125 12:06:13.861847 25992 net.cpp:165] Memory required for data: 977772864
I1125 12:06:13.861850 25992 layer_factory.hpp:77] Creating layer conv1-dsn3
I1125 12:06:13.861862 25992 net.cpp:100] Creating Layer conv1-dsn3
I1125 12:06:13.861867 25992 net.cpp:434] conv1-dsn3 <- prod1-dsn3
I1125 12:06:13.861876 25992 net.cpp:408] conv1-dsn3 -> conv1-dsn3
I1125 12:06:13.863520 25992 net.cpp:150] Setting up conv1-dsn3
I1125 12:06:13.863534 25992 net.cpp:157] Top shape: 1 64 125 125 (1000000)
I1125 12:06:13.863538 25992 net.cpp:165] Memory required for data: 981772864
I1125 12:06:13.863560 25992 layer_factory.hpp:77] Creating layer conv2-dsn3
I1125 12:06:13.863576 25992 net.cpp:100] Creating Layer conv2-dsn3
I1125 12:06:13.863581 25992 net.cpp:434] conv2-dsn3 <- conv1-dsn3
I1125 12:06:13.863591 25992 net.cpp:408] conv2-dsn3 -> conv2-dsn3
I1125 12:06:13.865193 25992 net.cpp:150] Setting up conv2-dsn3
I1125 12:06:13.865206 25992 net.cpp:157] Top shape: 1 64 125 125 (1000000)
I1125 12:06:13.865211 25992 net.cpp:165] Memory required for data: 985772864
I1125 12:06:13.865219 25992 layer_factory.hpp:77] Creating layer relu1-dsn3
I1125 12:06:13.865226 25992 net.cpp:100] Creating Layer relu1-dsn3
I1125 12:06:13.865231 25992 net.cpp:434] relu1-dsn3 <- conv2-dsn3
I1125 12:06:13.865240 25992 net.cpp:395] relu1-dsn3 -> conv2-dsn3 (in-place)
I1125 12:06:13.865425 25992 net.cpp:150] Setting up relu1-dsn3
I1125 12:06:13.865435 25992 net.cpp:157] Top shape: 1 64 125 125 (1000000)
I1125 12:06:13.865439 25992 net.cpp:165] Memory required for data: 989772864
I1125 12:06:13.865443 25992 layer_factory.hpp:77] Creating layer conv3-dsn3
I1125 12:06:13.865458 25992 net.cpp:100] Creating Layer conv3-dsn3
I1125 12:06:13.865463 25992 net.cpp:434] conv3-dsn3 <- conv2-dsn3
I1125 12:06:13.865474 25992 net.cpp:408] conv3-dsn3 -> conv3-dsn3
I1125 12:06:13.867012 25992 net.cpp:150] Setting up conv3-dsn3
I1125 12:06:13.867027 25992 net.cpp:157] Top shape: 1 64 125 125 (1000000)
I1125 12:06:13.867033 25992 net.cpp:165] Memory required for data: 993772864
I1125 12:06:13.867041 25992 layer_factory.hpp:77] Creating layer relu2-dsn3
I1125 12:06:13.867048 25992 net.cpp:100] Creating Layer relu2-dsn3
I1125 12:06:13.867053 25992 net.cpp:434] relu2-dsn3 <- conv3-dsn3
I1125 12:06:13.867063 25992 net.cpp:395] relu2-dsn3 -> conv3-dsn3 (in-place)
I1125 12:06:13.867624 25992 net.cpp:150] Setting up relu2-dsn3
I1125 12:06:13.867638 25992 net.cpp:157] Top shape: 1 64 125 125 (1000000)
I1125 12:06:13.867642 25992 net.cpp:165] Memory required for data: 997772864
I1125 12:06:13.867647 25992 layer_factory.hpp:77] Creating layer conv4-dsn3
I1125 12:06:13.867661 25992 net.cpp:100] Creating Layer conv4-dsn3
I1125 12:06:13.867666 25992 net.cpp:434] conv4-dsn3 <- conv3-dsn3
I1125 12:06:13.867676 25992 net.cpp:408] conv4-dsn3 -> conv4-dsn3
I1125 12:06:13.873916 25992 net.cpp:150] Setting up conv4-dsn3
I1125 12:06:13.873931 25992 net.cpp:157] Top shape: 1 1 125 125 (15625)
I1125 12:06:13.873935 25992 net.cpp:165] Memory required for data: 997835364
I1125 12:06:13.873944 25992 layer_factory.hpp:77] Creating layer sum-dsn3
I1125 12:06:13.873953 25992 net.cpp:100] Creating Layer sum-dsn3
I1125 12:06:13.873958 25992 net.cpp:434] sum-dsn3 <- conv4-dsn3
I1125 12:06:13.873965 25992 net.cpp:434] sum-dsn3 <- weight-dsn4-3_crop1-dsn3_0_split_1
I1125 12:06:13.873975 25992 net.cpp:408] sum-dsn3 -> sum-dsn3
I1125 12:06:13.874019 25992 net.cpp:150] Setting up sum-dsn3
I1125 12:06:13.874027 25992 net.cpp:157] Top shape: 1 1 125 125 (15625)
I1125 12:06:13.874030 25992 net.cpp:165] Memory required for data: 997897864
I1125 12:06:13.874034 25992 layer_factory.hpp:77] Creating layer sum-dsn3_sum-dsn3_0_split
I1125 12:06:13.874042 25992 net.cpp:100] Creating Layer sum-dsn3_sum-dsn3_0_split
I1125 12:06:13.874047 25992 net.cpp:434] sum-dsn3_sum-dsn3_0_split <- sum-dsn3
I1125 12:06:13.874055 25992 net.cpp:408] sum-dsn3_sum-dsn3_0_split -> sum-dsn3_sum-dsn3_0_split_0
I1125 12:06:13.874064 25992 net.cpp:408] sum-dsn3_sum-dsn3_0_split -> sum-dsn3_sum-dsn3_0_split_1
I1125 12:06:13.874115 25992 net.cpp:150] Setting up sum-dsn3_sum-dsn3_0_split
I1125 12:06:13.874122 25992 net.cpp:157] Top shape: 1 1 125 125 (15625)
I1125 12:06:13.874132 25992 net.cpp:157] Top shape: 1 1 125 125 (15625)
I1125 12:06:13.874135 25992 net.cpp:165] Memory required for data: 998022864
I1125 12:06:13.874140 25992 layer_factory.hpp:77] Creating layer upsample4_dsn3
I1125 12:06:13.874167 25992 net.cpp:100] Creating Layer upsample4_dsn3
I1125 12:06:13.874174 25992 net.cpp:434] upsample4_dsn3 <- sum-dsn3_sum-dsn3_0_split_0
I1125 12:06:13.874181 25992 net.cpp:408] upsample4_dsn3 -> sum-dsn3-up
I1125 12:06:13.875785 25992 net.cpp:150] Setting up upsample4_dsn3
I1125 12:06:13.875802 25992 net.cpp:157] Top shape: 1 1 504 504 (254016)
I1125 12:06:13.875805 25992 net.cpp:165] Memory required for data: 999038928
I1125 12:06:13.875814 25992 layer_factory.hpp:77] Creating layer crop2-dsn3
I1125 12:06:13.875821 25992 net.cpp:100] Creating Layer crop2-dsn3
I1125 12:06:13.875826 25992 net.cpp:434] crop2-dsn3 <- sum-dsn3-up
I1125 12:06:13.875833 25992 net.cpp:434] crop2-dsn3 <- data_augmentation_0_split_4
I1125 12:06:13.875841 25992 net.cpp:408] crop2-dsn3 -> upscore-dsn3
I1125 12:06:13.875881 25992 net.cpp:150] Setting up crop2-dsn3
I1125 12:06:13.875890 25992 net.cpp:157] Top shape: 1 1 500 500 (250000)
I1125 12:06:13.875892 25992 net.cpp:165] Memory required for data: 1000038928
I1125 12:06:13.875896 25992 layer_factory.hpp:77] Creating layer loss3-score
I1125 12:06:13.875910 25992 net.cpp:100] Creating Layer loss3-score
I1125 12:06:13.875914 25992 net.cpp:434] loss3-score <- upscore-dsn3
I1125 12:06:13.875919 25992 net.cpp:434] loss3-score <- label_augmentation_1_split_3
I1125 12:06:13.875926 25992 net.cpp:408] loss3-score -> loss3-score
I1125 12:06:13.876148 25992 net.cpp:150] Setting up loss3-score
I1125 12:06:13.876155 25992 net.cpp:157] Top shape: (1)
I1125 12:06:13.876158 25992 net.cpp:160]     with loss weight 1
I1125 12:06:13.876165 25992 net.cpp:165] Memory required for data: 1000038932
I1125 12:06:13.876170 25992 layer_factory.hpp:77] Creating layer upsample2_1-dsn2
I1125 12:06:13.876183 25992 net.cpp:100] Creating Layer upsample2_1-dsn2
I1125 12:06:13.876189 25992 net.cpp:434] upsample2_1-dsn2 <- sum-dsn3_sum-dsn3_0_split_1
I1125 12:06:13.876197 25992 net.cpp:408] upsample2_1-dsn2 -> sum-dsn3-2
I1125 12:06:13.876523 25992 net.cpp:150] Setting up upsample2_1-dsn2
I1125 12:06:13.876533 25992 net.cpp:157] Top shape: 1 1 252 252 (63504)
I1125 12:06:13.876536 25992 net.cpp:165] Memory required for data: 1000292948
I1125 12:06:13.876544 25992 layer_factory.hpp:77] Creating layer crop1-dsn2
I1125 12:06:13.876551 25992 net.cpp:100] Creating Layer crop1-dsn2
I1125 12:06:13.876555 25992 net.cpp:434] crop1-dsn2 <- sum-dsn3-2
I1125 12:06:13.876561 25992 net.cpp:434] crop1-dsn2 <- conv2_2_relu2_2_0_split_1
I1125 12:06:13.876567 25992 net.cpp:408] crop1-dsn2 -> weight-dsn3-2
I1125 12:06:13.876602 25992 net.cpp:150] Setting up crop1-dsn2
I1125 12:06:13.876610 25992 net.cpp:157] Top shape: 1 1 250 250 (62500)
I1125 12:06:13.876612 25992 net.cpp:165] Memory required for data: 1000542948
I1125 12:06:13.876616 25992 layer_factory.hpp:77] Creating layer weight-dsn3-2_crop1-dsn2_0_split
I1125 12:06:13.876626 25992 net.cpp:100] Creating Layer weight-dsn3-2_crop1-dsn2_0_split
I1125 12:06:13.876629 25992 net.cpp:434] weight-dsn3-2_crop1-dsn2_0_split <- weight-dsn3-2
I1125 12:06:13.876636 25992 net.cpp:408] weight-dsn3-2_crop1-dsn2_0_split -> weight-dsn3-2_crop1-dsn2_0_split_0
I1125 12:06:13.876644 25992 net.cpp:408] weight-dsn3-2_crop1-dsn2_0_split -> weight-dsn3-2_crop1-dsn2_0_split_1
I1125 12:06:13.876695 25992 net.cpp:150] Setting up weight-dsn3-2_crop1-dsn2_0_split
I1125 12:06:13.876701 25992 net.cpp:157] Top shape: 1 1 250 250 (62500)
I1125 12:06:13.876708 25992 net.cpp:157] Top shape: 1 1 250 250 (62500)
I1125 12:06:13.876710 25992 net.cpp:165] Memory required for data: 1001042948
I1125 12:06:13.876714 25992 layer_factory.hpp:77] Creating layer sigmoid-dsn2
I1125 12:06:13.876721 25992 net.cpp:100] Creating Layer sigmoid-dsn2
I1125 12:06:13.876725 25992 net.cpp:434] sigmoid-dsn2 <- weight-dsn3-2_crop1-dsn2_0_split_0
I1125 12:06:13.876734 25992 net.cpp:408] sigmoid-dsn2 -> sigmoid-dsn2
I1125 12:06:13.877331 25992 net.cpp:150] Setting up sigmoid-dsn2
I1125 12:06:13.877346 25992 net.cpp:157] Top shape: 1 1 250 250 (62500)
I1125 12:06:13.877349 25992 net.cpp:165] Memory required for data: 1001292948
I1125 12:06:13.877354 25992 layer_factory.hpp:77] Creating layer rev-dsn2
I1125 12:06:13.877362 25992 net.cpp:100] Creating Layer rev-dsn2
I1125 12:06:13.877367 25992 net.cpp:434] rev-dsn2 <- sigmoid-dsn2
I1125 12:06:13.877373 25992 net.cpp:408] rev-dsn2 -> rev-dsn2
I1125 12:06:13.877408 25992 net.cpp:150] Setting up rev-dsn2
I1125 12:06:13.877416 25992 net.cpp:157] Top shape: 1 1 250 250 (62500)
I1125 12:06:13.877419 25992 net.cpp:165] Memory required for data: 1001542948
I1125 12:06:13.877424 25992 layer_factory.hpp:77] Creating layer tile-dsn2
I1125 12:06:13.877429 25992 net.cpp:100] Creating Layer tile-dsn2
I1125 12:06:13.877434 25992 net.cpp:434] tile-dsn2 <- rev-dsn2
I1125 12:06:13.877440 25992 net.cpp:408] tile-dsn2 -> weight-dsn2
I1125 12:06:13.877471 25992 net.cpp:150] Setting up tile-dsn2
I1125 12:06:13.877477 25992 net.cpp:157] Top shape: 1 128 250 250 (8000000)
I1125 12:06:13.877481 25992 net.cpp:165] Memory required for data: 1033542948
I1125 12:06:13.877485 25992 layer_factory.hpp:77] Creating layer prod1-dsn2
I1125 12:06:13.877492 25992 net.cpp:100] Creating Layer prod1-dsn2
I1125 12:06:13.877496 25992 net.cpp:434] prod1-dsn2 <- conv2_2_relu2_2_0_split_2
I1125 12:06:13.877502 25992 net.cpp:434] prod1-dsn2 <- weight-dsn2
I1125 12:06:13.877508 25992 net.cpp:408] prod1-dsn2 -> prod1-dsn2
I1125 12:06:13.877538 25992 net.cpp:150] Setting up prod1-dsn2
I1125 12:06:13.877544 25992 net.cpp:157] Top shape: 1 128 250 250 (8000000)
I1125 12:06:13.877548 25992 net.cpp:165] Memory required for data: 1065542948
I1125 12:06:13.877552 25992 layer_factory.hpp:77] Creating layer conv1-dsn2
I1125 12:06:13.877562 25992 net.cpp:100] Creating Layer conv1-dsn2
I1125 12:06:13.877566 25992 net.cpp:434] conv1-dsn2 <- prod1-dsn2
I1125 12:06:13.877574 25992 net.cpp:408] conv1-dsn2 -> conv1-dsn2
I1125 12:06:13.880182 25992 net.cpp:150] Setting up conv1-dsn2
I1125 12:06:13.880198 25992 net.cpp:157] Top shape: 1 64 250 250 (4000000)
I1125 12:06:13.880203 25992 net.cpp:165] Memory required for data: 1081542948
I1125 12:06:13.880213 25992 layer_factory.hpp:77] Creating layer conv2-dsn2
I1125 12:06:13.880228 25992 net.cpp:100] Creating Layer conv2-dsn2
I1125 12:06:13.880236 25992 net.cpp:434] conv2-dsn2 <- conv1-dsn2
I1125 12:06:13.880246 25992 net.cpp:408] conv2-dsn2 -> conv2-dsn2
I1125 12:06:13.882436 25992 net.cpp:150] Setting up conv2-dsn2
I1125 12:06:13.882454 25992 net.cpp:157] Top shape: 1 64 250 250 (4000000)
I1125 12:06:13.882459 25992 net.cpp:165] Memory required for data: 1097542948
I1125 12:06:13.882469 25992 layer_factory.hpp:77] Creating layer relu1-dsn2
I1125 12:06:13.882478 25992 net.cpp:100] Creating Layer relu1-dsn2
I1125 12:06:13.882483 25992 net.cpp:434] relu1-dsn2 <- conv2-dsn2
I1125 12:06:13.882490 25992 net.cpp:395] relu1-dsn2 -> conv2-dsn2 (in-place)
I1125 12:06:13.883059 25992 net.cpp:150] Setting up relu1-dsn2
I1125 12:06:13.883072 25992 net.cpp:157] Top shape: 1 64 250 250 (4000000)
I1125 12:06:13.883077 25992 net.cpp:165] Memory required for data: 1113542948
I1125 12:06:13.883082 25992 layer_factory.hpp:77] Creating layer conv3-dsn2
I1125 12:06:13.883100 25992 net.cpp:100] Creating Layer conv3-dsn2
I1125 12:06:13.883106 25992 net.cpp:434] conv3-dsn2 <- conv2-dsn2
I1125 12:06:13.883116 25992 net.cpp:408] conv3-dsn2 -> conv3-dsn2
I1125 12:06:13.884920 25992 net.cpp:150] Setting up conv3-dsn2
I1125 12:06:13.884935 25992 net.cpp:157] Top shape: 1 64 250 250 (4000000)
I1125 12:06:13.884940 25992 net.cpp:165] Memory required for data: 1129542948
I1125 12:06:13.884950 25992 layer_factory.hpp:77] Creating layer relu2-dsn2
I1125 12:06:13.884960 25992 net.cpp:100] Creating Layer relu2-dsn2
I1125 12:06:13.884966 25992 net.cpp:434] relu2-dsn2 <- conv3-dsn2
I1125 12:06:13.884974 25992 net.cpp:395] relu2-dsn2 -> conv3-dsn2 (in-place)
I1125 12:06:13.885192 25992 net.cpp:150] Setting up relu2-dsn2
I1125 12:06:13.885203 25992 net.cpp:157] Top shape: 1 64 250 250 (4000000)
I1125 12:06:13.885208 25992 net.cpp:165] Memory required for data: 1145542948
I1125 12:06:13.885213 25992 layer_factory.hpp:77] Creating layer conv4-dsn2
I1125 12:06:13.885228 25992 net.cpp:100] Creating Layer conv4-dsn2
I1125 12:06:13.885233 25992 net.cpp:434] conv4-dsn2 <- conv3-dsn2
I1125 12:06:13.885246 25992 net.cpp:408] conv4-dsn2 -> conv4-dsn2
I1125 12:06:13.886637 25992 net.cpp:150] Setting up conv4-dsn2
I1125 12:06:13.886654 25992 net.cpp:157] Top shape: 1 1 250 250 (62500)
I1125 12:06:13.886659 25992 net.cpp:165] Memory required for data: 1145792948
I1125 12:06:13.886669 25992 layer_factory.hpp:77] Creating layer sum-dsn2
I1125 12:06:13.886678 25992 net.cpp:100] Creating Layer sum-dsn2
I1125 12:06:13.886684 25992 net.cpp:434] sum-dsn2 <- conv4-dsn2
I1125 12:06:13.886692 25992 net.cpp:434] sum-dsn2 <- weight-dsn3-2_crop1-dsn2_0_split_1
I1125 12:06:13.886699 25992 net.cpp:408] sum-dsn2 -> sum-dsn2
I1125 12:06:13.886742 25992 net.cpp:150] Setting up sum-dsn2
I1125 12:06:13.886751 25992 net.cpp:157] Top shape: 1 1 250 250 (62500)
I1125 12:06:13.886755 25992 net.cpp:165] Memory required for data: 1146042948
I1125 12:06:13.886759 25992 layer_factory.hpp:77] Creating layer upsample2_2-dsn2
I1125 12:06:13.886772 25992 net.cpp:100] Creating Layer upsample2_2-dsn2
I1125 12:06:13.886777 25992 net.cpp:434] upsample2_2-dsn2 <- sum-dsn2
I1125 12:06:13.886787 25992 net.cpp:408] upsample2_2-dsn2 -> sum-dsn2-up
I1125 12:06:13.888499 25992 net.cpp:150] Setting up upsample2_2-dsn2
I1125 12:06:13.888515 25992 net.cpp:157] Top shape: 1 1 502 502 (252004)
I1125 12:06:13.888520 25992 net.cpp:165] Memory required for data: 1147050964
I1125 12:06:13.888530 25992 layer_factory.hpp:77] Creating layer crop2-dsn2
I1125 12:06:13.888540 25992 net.cpp:100] Creating Layer crop2-dsn2
I1125 12:06:13.888546 25992 net.cpp:434] crop2-dsn2 <- sum-dsn2-up
I1125 12:06:13.888553 25992 net.cpp:434] crop2-dsn2 <- data_augmentation_0_split_5
I1125 12:06:13.888562 25992 net.cpp:408] crop2-dsn2 -> upscore-dsn2
I1125 12:06:13.888609 25992 net.cpp:150] Setting up crop2-dsn2
I1125 12:06:13.888618 25992 net.cpp:157] Top shape: 1 1 500 500 (250000)
I1125 12:06:13.888622 25992 net.cpp:165] Memory required for data: 1148050964
I1125 12:06:13.888628 25992 layer_factory.hpp:77] Creating layer upscore-dsn2_crop2-dsn2_0_split
I1125 12:06:13.888635 25992 net.cpp:100] Creating Layer upscore-dsn2_crop2-dsn2_0_split
I1125 12:06:13.888640 25992 net.cpp:434] upscore-dsn2_crop2-dsn2_0_split <- upscore-dsn2
I1125 12:06:13.888651 25992 net.cpp:408] upscore-dsn2_crop2-dsn2_0_split -> upscore-dsn2_crop2-dsn2_0_split_0
I1125 12:06:13.888686 25992 net.cpp:408] upscore-dsn2_crop2-dsn2_0_split -> upscore-dsn2_crop2-dsn2_0_split_1
I1125 12:06:13.888696 25992 net.cpp:408] upscore-dsn2_crop2-dsn2_0_split -> upscore-dsn2_crop2-dsn2_0_split_2
I1125 12:06:13.888767 25992 net.cpp:150] Setting up upscore-dsn2_crop2-dsn2_0_split
I1125 12:06:13.888779 25992 net.cpp:157] Top shape: 1 1 500 500 (250000)
I1125 12:06:13.888785 25992 net.cpp:157] Top shape: 1 1 500 500 (250000)
I1125 12:06:13.888792 25992 net.cpp:157] Top shape: 1 1 500 500 (250000)
I1125 12:06:13.888795 25992 net.cpp:165] Memory required for data: 1151050964
I1125 12:06:13.888808 25992 layer_factory.hpp:77] Creating layer loss2-score
I1125 12:06:13.888819 25992 net.cpp:100] Creating Layer loss2-score
I1125 12:06:13.888824 25992 net.cpp:434] loss2-score <- upscore-dsn2_crop2-dsn2_0_split_0
I1125 12:06:13.888831 25992 net.cpp:434] loss2-score <- label_augmentation_1_split_4
I1125 12:06:13.888839 25992 net.cpp:408] loss2-score -> loss2-score
I1125 12:06:13.889089 25992 net.cpp:150] Setting up loss2-score
I1125 12:06:13.889097 25992 net.cpp:157] Top shape: (1)
I1125 12:06:13.889101 25992 net.cpp:160]     with loss weight 1
I1125 12:06:13.889109 25992 net.cpp:165] Memory required for data: 1151050968
I1125 12:06:13.889114 25992 layer_factory.hpp:77] Creating layer sigmoid-dsn1
I1125 12:06:13.889124 25992 net.cpp:100] Creating Layer sigmoid-dsn1
I1125 12:06:13.889137 25992 net.cpp:434] sigmoid-dsn1 <- upscore-dsn2_crop2-dsn2_0_split_1
I1125 12:06:13.889144 25992 net.cpp:408] sigmoid-dsn1 -> sigmoid-dsn1
I1125 12:06:13.889390 25992 net.cpp:150] Setting up sigmoid-dsn1
I1125 12:06:13.889405 25992 net.cpp:157] Top shape: 1 1 500 500 (250000)
I1125 12:06:13.889410 25992 net.cpp:165] Memory required for data: 1152050968
I1125 12:06:13.889413 25992 layer_factory.hpp:77] Creating layer rev-dsn1
I1125 12:06:13.889421 25992 net.cpp:100] Creating Layer rev-dsn1
I1125 12:06:13.889426 25992 net.cpp:434] rev-dsn1 <- sigmoid-dsn1
I1125 12:06:13.889434 25992 net.cpp:408] rev-dsn1 -> rev-dsn1
I1125 12:06:13.889475 25992 net.cpp:150] Setting up rev-dsn1
I1125 12:06:13.889483 25992 net.cpp:157] Top shape: 1 1 500 500 (250000)
I1125 12:06:13.889487 25992 net.cpp:165] Memory required for data: 1153050968
I1125 12:06:13.889492 25992 layer_factory.hpp:77] Creating layer tile-dsn1
I1125 12:06:13.889513 25992 net.cpp:100] Creating Layer tile-dsn1
I1125 12:06:13.889516 25992 net.cpp:434] tile-dsn1 <- rev-dsn1
I1125 12:06:13.889525 25992 net.cpp:408] tile-dsn1 -> weight-dsn1
I1125 12:06:13.889559 25992 net.cpp:150] Setting up tile-dsn1
I1125 12:06:13.889565 25992 net.cpp:157] Top shape: 1 64 500 500 (16000000)
I1125 12:06:13.889569 25992 net.cpp:165] Memory required for data: 1217050968
I1125 12:06:13.889572 25992 layer_factory.hpp:77] Creating layer prod1-dsn1
I1125 12:06:13.889580 25992 net.cpp:100] Creating Layer prod1-dsn1
I1125 12:06:13.889585 25992 net.cpp:434] prod1-dsn1 <- conv1_2_relu1_2_0_split_1
I1125 12:06:13.889590 25992 net.cpp:434] prod1-dsn1 <- weight-dsn1
I1125 12:06:13.889598 25992 net.cpp:408] prod1-dsn1 -> prod1-dsn1
I1125 12:06:13.889631 25992 net.cpp:150] Setting up prod1-dsn1
I1125 12:06:13.889637 25992 net.cpp:157] Top shape: 1 64 500 500 (16000000)
I1125 12:06:13.889657 25992 net.cpp:165] Memory required for data: 1281050968
I1125 12:06:13.889660 25992 layer_factory.hpp:77] Creating layer conv1-dsn1
I1125 12:06:13.889690 25992 net.cpp:100] Creating Layer conv1-dsn1
I1125 12:06:13.889695 25992 net.cpp:434] conv1-dsn1 <- prod1-dsn1
I1125 12:06:13.889703 25992 net.cpp:408] conv1-dsn1 -> conv1-dsn1
I1125 12:06:13.893224 25992 net.cpp:150] Setting up conv1-dsn1
I1125 12:06:13.893239 25992 net.cpp:157] Top shape: 1 64 500 500 (16000000)
I1125 12:06:13.893242 25992 net.cpp:165] Memory required for data: 1345050968
I1125 12:06:13.893252 25992 layer_factory.hpp:77] Creating layer conv2-dsn1
I1125 12:06:13.893267 25992 net.cpp:100] Creating Layer conv2-dsn1
I1125 12:06:13.893273 25992 net.cpp:434] conv2-dsn1 <- conv1-dsn1
I1125 12:06:13.893285 25992 net.cpp:408] conv2-dsn1 -> conv2-dsn1
I1125 12:06:13.895048 25992 net.cpp:150] Setting up conv2-dsn1
I1125 12:06:13.895064 25992 net.cpp:157] Top shape: 1 64 500 500 (16000000)
I1125 12:06:13.895069 25992 net.cpp:165] Memory required for data: 1409050968
I1125 12:06:13.895078 25992 layer_factory.hpp:77] Creating layer relu1-dsn1
I1125 12:06:13.895085 25992 net.cpp:100] Creating Layer relu1-dsn1
I1125 12:06:13.895090 25992 net.cpp:434] relu1-dsn1 <- conv2-dsn1
I1125 12:06:13.895097 25992 net.cpp:395] relu1-dsn1 -> conv2-dsn1 (in-place)
I1125 12:06:13.895320 25992 net.cpp:150] Setting up relu1-dsn1
I1125 12:06:13.895330 25992 net.cpp:157] Top shape: 1 64 500 500 (16000000)
I1125 12:06:13.895334 25992 net.cpp:165] Memory required for data: 1473050968
I1125 12:06:13.895339 25992 layer_factory.hpp:77] Creating layer conv3-dsn1
I1125 12:06:13.895355 25992 net.cpp:100] Creating Layer conv3-dsn1
I1125 12:06:13.895360 25992 net.cpp:434] conv3-dsn1 <- conv2-dsn1
I1125 12:06:13.895370 25992 net.cpp:408] conv3-dsn1 -> conv3-dsn1
I1125 12:06:13.898275 25992 net.cpp:150] Setting up conv3-dsn1
I1125 12:06:13.898289 25992 net.cpp:157] Top shape: 1 64 500 500 (16000000)
I1125 12:06:13.898293 25992 net.cpp:165] Memory required for data: 1537050968
I1125 12:06:13.898303 25992 layer_factory.hpp:77] Creating layer relu2-dsn1
I1125 12:06:13.898310 25992 net.cpp:100] Creating Layer relu2-dsn1
I1125 12:06:13.898315 25992 net.cpp:434] relu2-dsn1 <- conv3-dsn1
I1125 12:06:13.898325 25992 net.cpp:395] relu2-dsn1 -> conv3-dsn1 (in-place)
I1125 12:06:13.898550 25992 net.cpp:150] Setting up relu2-dsn1
I1125 12:06:13.898560 25992 net.cpp:157] Top shape: 1 64 500 500 (16000000)
I1125 12:06:13.898563 25992 net.cpp:165] Memory required for data: 1601050968
I1125 12:06:13.898567 25992 layer_factory.hpp:77] Creating layer conv4-dsn1
I1125 12:06:13.898581 25992 net.cpp:100] Creating Layer conv4-dsn1
I1125 12:06:13.898586 25992 net.cpp:434] conv4-dsn1 <- conv3-dsn1
I1125 12:06:13.898597 25992 net.cpp:408] conv4-dsn1 -> conv4-dsn1
I1125 12:06:13.900050 25992 net.cpp:150] Setting up conv4-dsn1
I1125 12:06:13.900064 25992 net.cpp:157] Top shape: 1 1 500 500 (250000)
I1125 12:06:13.900068 25992 net.cpp:165] Memory required for data: 1602050968
I1125 12:06:13.900077 25992 layer_factory.hpp:77] Creating layer sum-dsn1
I1125 12:06:13.900087 25992 net.cpp:100] Creating Layer sum-dsn1
I1125 12:06:13.900092 25992 net.cpp:434] sum-dsn1 <- conv4-dsn1
I1125 12:06:13.900099 25992 net.cpp:434] sum-dsn1 <- upscore-dsn2_crop2-dsn2_0_split_2
I1125 12:06:13.900107 25992 net.cpp:408] sum-dsn1 -> sum-dsn1
I1125 12:06:13.900154 25992 net.cpp:150] Setting up sum-dsn1
I1125 12:06:13.900163 25992 net.cpp:157] Top shape: 1 1 500 500 (250000)
I1125 12:06:13.900167 25992 net.cpp:165] Memory required for data: 1603050968
I1125 12:06:13.900171 25992 layer_factory.hpp:77] Creating layer crop2-dsn1
I1125 12:06:13.900180 25992 net.cpp:100] Creating Layer crop2-dsn1
I1125 12:06:13.900185 25992 net.cpp:434] crop2-dsn1 <- sum-dsn1
I1125 12:06:13.900192 25992 net.cpp:434] crop2-dsn1 <- data_augmentation_0_split_6
I1125 12:06:13.900198 25992 net.cpp:408] crop2-dsn1 -> upscore-dsn1
I1125 12:06:13.900235 25992 net.cpp:150] Setting up crop2-dsn1
I1125 12:06:13.900243 25992 net.cpp:157] Top shape: 1 1 500 500 (250000)
I1125 12:06:13.900246 25992 net.cpp:165] Memory required for data: 1604050968
I1125 12:06:13.900250 25992 layer_factory.hpp:77] Creating layer loss1-score
I1125 12:06:13.900261 25992 net.cpp:100] Creating Layer loss1-score
I1125 12:06:13.900265 25992 net.cpp:434] loss1-score <- upscore-dsn1
I1125 12:06:13.900271 25992 net.cpp:434] loss1-score <- label_augmentation_1_split_5
I1125 12:06:13.900280 25992 net.cpp:408] loss1-score -> loss1-score
…
I1125 12:06:13.905541 25992 net.cpp:58] Initializing net from parameters: 
name: "RAS"
state {
  phase: TEST
}
layer {
  name: "data"
  type: "ImageLabelmapData"
  top: "data"
  top: "label"
  include {
    phase: TEST
  }
  transform_param {
    mean_value: 104.00699
    mean_value: 116.66877
    mean_value: 122.67892
  }
  image_data_param {
    source: "/media/compute/homes/galberding/FleckDetect/Datasets/val.txt"
    batch_size: 1
    new_height: 500
    new_width: 500
    root_folder: "/media/compute/homes/galberding/FleckDetect/Datasets/"
    normalize: true
  }
}
layer {
  name: "conv1_1"
  type: "Convolution"
  bottom: "data"
  top: "conv1_1"
  param {
    lr_mult: 1
    decay_mult: 1
  }
  param {
    lr_mult: 2
    decay_mult: 0
  }
  convolution_param {
    num_output: 64
    pad: 1
    kernel_size: 3
    engine: CUDNN
  }
}
layer {
  name: "relu1_1"
  type: "ReLU"
  bottom: "conv1_1"
  top: "conv1_1"
}
layer {
  name: "conv1_2"
  type: "Convolution"
  bottom: "conv1_1"
  top: "conv1_2"
  param {
    lr_mult: 1
    decay_mult: 1
  }
  param {
    lr_mult: 2
    decay_mult: 0
  }
  convolution_param {
    num_output: 64
    pad: 1
    kernel_size: 3
    engine: CUDNN
  }
}
layer {
  name: "relu1_2"
  type: "ReLU"
  bottom: "conv1_2"
  top: "conv1_2"
}
layer {
  name: "pool1"
  type: "Pooling"
  bottom: "conv1_2"
  top: "pool1"
  pooling_param {
    pool: MAX
    kernel_size: 2
    stride: 2
  }
}
layer {
  name: "conv2_1"
  type: "Convolution"
  bottom: "pool1"
  top: "conv2_1"
  param {
    lr_mult: 1
    decay_mult: 1
  }
  param {
    lr_mult: 2
    decay_mult: 0
  }
  convolution_param {
    num_output: 128
    pad: 1
    kernel_size: 3
    engine: CUDNN
  }
}
layer {
  name: "relu2_1"
  type: "ReLU"
  bottom: "conv2_1"
  top: "conv2_1"
}
layer {
  name: "conv2_2"
  type: "Convolution"
  bottom: "conv2_1"
  top: "conv2_2"
  param {
    lr_mult: 1
    decay_mult: 1
  }
  param {
    lr_mult: 2
    decay_mult: 0
  }
  convolution_param {
    num_output: 128
    pad: 1
    kernel_size: 3
    engine: CUDNN
  }
}
layer {
  name: "relu2_2"
  type: "ReLU"
  bottom: "conv2_2"
  top: "conv2_2"
}
layer {
  name: "pool2"
  type: "Pooling"
  bottom: "conv2_2"
  top: "pool2"
  pooling_param {
    pool: MAX
    kernel_size: 2
    stride: 2
  }
}
layer {
  name: "conv3_1"
  type: "Convolution"
  bottom: "pool2"
  top: "conv3_1"
  param {
    lr_mult: 1
    decay_mult: 1
  }
  param {
    lr_mult: 2
    decay_mult: 0
  }
  convolution_param {
    num_output: 256
    pad: 1
    kernel_size: 3
    engine: CUDNN
  }
}
layer {
  name: "relu3_1"
  type: "ReLU"
  bottom: "conv3_1"
  top: "conv3_1"
}
layer {
  name: "conv3_2"
  type: "Convolution"
  bottom: "conv3_1"
  top: "conv3_2"
  param {
    lr_mult: 1
    decay_mult: 1
  }
  param {
    lr_mult: 2
    decay_mult: 0
  }
  convolution_param {
    num_output: 256
    pad: 1
    kernel_size: 3
    engine: CUDNN
  }
}
layer {
  name: "relu3_2"
  type: "ReLU"
  bottom: "conv3_2"
  top: "conv3_2"
}
layer {
  name: "conv3_3"
  type: "Convolution"
  bottom: "conv3_2"
  top: "conv3_3"
  param {
    lr_mult: 1
    decay_mult: 1
  }
  param {
    lr_mult: 2
    decay_mult: 0
  }
  convolution_param {
    num_output: 256
    pad: 1
    kernel_size: 3
    engine: CUDNN
  }
}
layer {
  name: "relu3_3"
  type: "ReLU"
  bottom: "conv3_3"
  top: "conv3_3"
}
layer {
  name: "pool3"
  type: "Pooling"
  bottom: "conv3_3"
  top: "pool3"
  pooling_param {
    pool: MAX
    kernel_size: 2
    stride: 2
  }
}
layer {
  name: "conv4_1"
  type: "Convolution"
  bottom: "pool3"
  top: "conv4_1"
  param {
    lr_mult: 1
    decay_mult: 1
  }
  param {
    lr_mult: 2
    decay_mult: 0
  }
  convolution_param {
    num_output: 512
    pad: 1
    kernel_size: 3
    engine: CUDNN
  }
}
layer {
  name: "relu4_1"
  type: "ReLU"
  bottom: "conv4_1"
  top: "conv4_1"
}
layer {
  name: "conv4_2"
  type: "Convolution"
  bottom: "conv4_1"
  top: "conv4_2"
  param {
    lr_mult: 1
    decay_mult: 1
  }
  param {
    lr_mult: 2
    decay_mult: 0
  }
  convolution_param {
    num_output: 512
    pad: 1
    kernel_size: 3
    engine: CUDNN
  }
}
layer {
  name: "relu4_2"
  type: "ReLU"
  bottom: "conv4_2"
  top: "conv4_2"
}
layer {
  name: "conv4_3"
  type: "Convolution"
  bottom: "conv4_2"
  top: "conv4_3"
  param {
    lr_mult: 1
    decay_mult: 1
  }
  param {
    lr_mult: 2
    decay_mult: 0
  }
  convolution_param {
    num_output: 512
    pad: 1
    kernel_size: 3
    engine: CUDNN
  }
}
layer {
  name: "relu4_3"
  type: "ReLU"
  bottom: "conv4_3"
  top: "conv4_3"
}
layer {
  name: "pool4"
  type: "Pooling"
  bottom: "conv4_3"
  top: "pool4"
  pooling_param {
    pool: MAX
    kernel_size: 3
    stride: 2
    pad: 1
  }
}
layer {
  name: "conv5_1"
  type: "Convolution"
  bottom: "pool4"
  top: "conv5_1"
  param {
    lr_mult: 1
    decay_mult: 1
  }
  param {
    lr_mult: 2
    decay_mult: 0
  }
  convolution_param {
    num_output: 512
    pad: 1
    kernel_size: 3
    engine: CUDNN
  }
}
layer {
  name: "relu5_1"
  type: "ReLU"
  bottom: "conv5_1"
  top: "conv5_1"
}
layer {
  name: "conv5_2"
  type: "Convolution"
  bottom: "conv5_1"
  top: "conv5_2"
  param {
    lr_mult: 1
    decay_mult: 1
  }
  param {
    lr_mult: 2
    decay_mult: 0
  }
  convolution_param {
    num_output: 512
    pad: 1
    kernel_size: 3
    engine: CUDNN
  }
}
layer {
  name: "relu5_2"
  type: "ReLU"
  bottom: "conv5_2"
  top: "conv5_2"
}
layer {
  name: "conv5_3"
  type: "Convolution"
  bottom: "conv5_2"
  top: "conv5_3"
  param {
    lr_mult: 1
    decay_mult: 1
  }
  param {
    lr_mult: 2
    decay_mult: 0
  }
  convolution_param {
    num_output: 512
    pad: 1
    kernel_size: 3
    engine: CUDNN
  }
}
layer {
  name: "relu5_3"
  type: "ReLU"
  bottom: "conv5_3"
  top: "conv5_3"
}
layer {
  name: "pool5"
  type: "Pooling"
  bottom: "conv5_3"
  top: "pool5"
  pooling_param {
    pool: MAX
    kernel_size: 3
    stride: 2
    pad: 1
  }
}
layer {
  name: "conv1-dsn6"
  type: "Convolution"
  bottom: "pool5"
  top: "conv1-dsn6"
  param {
    lr_mult: 1
    decay_mult: 1
  }
  param {
    lr_mult: 2
    decay_mult: 0
  }
  convolution_param {
    num_output: 256
    kernel_size: 1
    weight_filler {
      type: "gaussian"
      std: 0.01
    }
    bias_filler {
      type: "constant"
      value: 0
    }
    engine: CUDNN
  }
}
layer {
  name: "conv2-dsn6"
  type: "Convolution"
  bottom: "conv1-dsn6"
  top: "conv2-dsn6"
  param {
    lr_mult: 1
    decay_mult: 1
  }
  param {
    lr_mult: 2
    decay_mult: 0
  }
  convolution_param {
    num_output: 256
    pad: 2
    kernel_size: 5
    weight_filler {
      type: "gaussian"
      std: 0.01
    }
    bias_filler {
      type: "constant"
      value: 0
    }
    engine: CUDNN
  }
}
layer {
  name: "relu1-dsn6"
  type: "ReLU"
  bottom: "conv2-dsn6"
  top: "conv2-dsn6"
}
layer {
  name: "conv3-dsn6"
  type: "Convolution"
  bottom: "conv2-dsn6"
  top: "conv3-dsn6"
  param {
    lr_mult: 1
    decay_mult: 1
  }
  param {
    lr_mult: 2
    decay_mult: 0
  }
  convolution_param {
    num_output: 256
    pad: 2
    kernel_size: 5
    weight_filler {
      type: "gaussian"
      std: 0.01
    }
    bias_filler {
      type: "constant"
      value: 0
    }
    engine: CUDNN
  }
}
layer {
  name: "relu2-dsn6"
  type: "ReLU"
  bottom: "conv3-dsn6"
  top: "conv3-dsn6"
}
layer {
  name: "conv4-dsn6"
  type: "Convolution"
  bottom: "conv3-dsn6"
  top: "conv4-dsn6"
  param {
    lr_mult: 1
    decay_mult: 1
  }
  param {
    lr_mult: 2
    decay_mult: 0
  }
  convolution_param {
    num_output: 256
    pad: 2
    kernel_size: 5
    weight_filler {
      type: "gaussian"
      std: 0.01
    }
    bias_filler {
      type: "constant"
      value: 0
    }
    engine: CUDNN
  }
}
layer {
  name: "relu3-dsn6"
  type: "ReLU"
  bottom: "conv4-dsn6"
  top: "conv4-dsn6"
}
layer {
  name: "conv5-dsn6"
  type: "Convolution"
  bottom: "conv4-dsn6"
  top: "conv5-dsn6"
  param {
    lr_mult: 0.1
    decay_mult: 1
  }
  param {
    lr_mult: 0.2
    decay_mult: 0
  }
  convolution_param {
    num_output: 1
    kernel_size: 1
    weight_filler {
      type: "gaussian"
      std: 0.01
    }
    bias_filler {
      type: "constant"
      value: 0
    }
    engine: CUDNN
  }
}
layer {
  name: "upsample32_dsn6"
  type: "Deconvolution"
  bottom: "conv5-dsn6"
  top: "conv5-dsn6-up"
  param {
    lr_mult: 0
    decay_mult: 1
  }
  param {
    lr_mult: 0
    decay_mult: 0
  }
  convolution_param {
    num_output: 1
    kernel_size: 64
    stride: 32
  }
}
layer {
  name: "crop-dsn6"
  type: "Crop"
  bottom: "conv5-dsn6-up"
  bottom: "data"
  top: "upscore-dsn6"
}
layer {
  name: "loss6-score"
  type: "SigmoidCrossEntropyLoss"
  bottom: "upscore-dsn6"
  bottom: "label"
  top: "loss6-score"
  loss_weight: 1
}
layer {
  name: "upsample2_dsn5"
  type: "Deconvolution"
  bottom: "conv5-dsn6"
  top: "conv5-dsn6-5"
  param {
    lr_mult: 0
    decay_mult: 1
  }
  param {
    lr_mult: 0
    decay_mult: 0
  }
  convolution_param {
    num_output: 1
    kernel_size: 4
    stride: 2
  }
}
layer {
  name: "crop1-dsn5"
  type: "Crop"
  bottom: "conv5-dsn6-5"
  bottom: "conv5_3"
  top: "weight-dsn6-5"
}
layer {
  name: "sigmoid-dsn5"
  type: "Sigmoid"
  bottom: "weight-dsn6-5"
  top: "sigmoid-dsn5"
}
layer {
  name: "rev-dsn5"
  type: "Power"
  bottom: "sigmoid-dsn5"
  top: "rev-dsn5"
  power_param {
    power: 1
    scale: -1
    shift: 1
  }
}
layer {
  name: "tile-dsn5"
  type: "Tile"
  bottom: "rev-dsn5"
  top: "weight-dsn5"
  tile_param {
    tiles: 512
  }
}
layer {
  name: "prod1-dsn5"
  type: "Eltwise"
  bottom: "conv5_3"
  bottom: "weight-dsn5"
  top: "prod1-dsn5"
  eltwise_param {
    operation: PROD
  }
}
layer {
  name: "conv1-dsn5"
  type: "Convolution"
  bottom: "prod1-dsn5"
  top: "conv1-dsn5"
  param {
    lr_mult: 1
    decay_mult: 1
  }
  param {
    lr_mult: 2
    decay_mult: 0
  }
  convolution_param {
    num_output: 64
    kernel_size: 1
    weight_filler {
      type: "gaussian"
      std: 0.01
    }
    bias_filler {
      type: "constant"
      value: 0
    }
    engine: CUDNN
  }
}
layer {
  name: "conv2-dsn5"
  type: "Convolution"
  bottom: "conv1-dsn5"
  top: "conv2-dsn5"
  param {
    lr_mult: 1
    decay_mult: 1
  }
  param {
    lr_mult: 2
    decay_mult: 0
  }
  convolution_param {
    num_output: 64
    pad: 1
    kernel_size: 3
    weight_filler {
      type: "gaussian"
      std: 0.01
    }
    bias_filler {
      type: "constant"
      value: 0
    }
    engine: CUDNN
  }
}
layer {
  name: "relu1-dsn5"
  type: "ReLU"
  bottom: "conv2-dsn5"
  top: "conv2-dsn5"
}
layer {
  name: "conv3-dsn5"
  type: "Convolution"
  bottom: "conv2-dsn5"
  top: "conv3-dsn5"
  param {
    lr_mult: 1
    decay_mult: 1
  }
  param {
    lr_mult: 2
    decay_mult: 0
  }
  convolution_param {
    num_output: 64
    pad: 1
    kernel_size: 3
    weight_filler {
      type: "gaussian"
      std: 0.01
    }
    bias_filler {
      type: "constant"
      value: 0
    }
    engine: CUDNN
  }
}
layer {
  name: "relu2-dsn5"
  type: "ReLU"
  bottom: "conv3-dsn5"
  top: "conv3-dsn5"
}
layer {
  name: "conv4-dsn5"
  type: "Convolution"
  bottom: "conv3-dsn5"
  top: "conv4-dsn5"
  param {
    lr_mult: 1
    decay_mult: 1
  }
  param {
    lr_mult: 2
    decay_mult: 0
  }
  convolution_param {
    num_output: 1
    pad: 1
    kernel_size: 3
    weight_filler {
      type: "gaussian"
      std: 0.01
    }
    bias_filler {
      type: "constant"
      value: 0
    }
    engine: CUDNN
  }
}
layer {
  name: "sum-dsn5"
  type: "Eltwise"
  bottom: "conv4-dsn5"
  bottom: "weight-dsn6-5"
  top: "sum-dsn5"
  eltwise_param {
    operation: SUM
  }
}
layer {
  name: "upsample16_dsn5"
  type: "Deconvolution"
  bottom: "sum-dsn5"
  top: "sum-dsn5-up"
  param {
    lr_mult: 0
    decay_mult: 1
  }
  param {
    lr_mult: 0
    decay_mult: 0
  }
  convolution_param {
    num_output: 1
    kernel_size: 32
    stride: 16
  }
}
layer {
  name: "crop2-dsn5"
  type: "Crop"
  bottom: "sum-dsn5-up"
  bottom: "data"
  top: "upscore-dsn5"
}
layer {
  name: "loss5-score"
  type: "SigmoidCrossEntropyLoss"
  bottom: "upscore-dsn5"
  bottom: "label"
  top: "loss5-score"
  loss_weight: 1
}
layer {
  name: "upsample2_dsn4"
  type: "Deconvolution"
  bottom: "sum-dsn5"
  top: "sum-dsn5-4"
  param {
    lr_mult: 0
    decay_mult: 1
  }
  param {
    lr_mult: 0
    decay_mult: 0
  }
  convolution_param {
    num_output: 1
    kernel_size: 4
    stride: 2
  }
}
layer {
  name: "crop1-dsn4"
  type: "Crop"
  bottom: "sum-dsn5-4"
  bottom: "conv4_3"
  top: "weight-dsn5-4"
}
layer {
  name: "sigmoid-dsn4"
  type: "Sigmoid"
  bottom: "weight-dsn5-4"
  top: "sigmoid-dsn4"
}
layer {
  name: "rev-dsn4"
  type: "Power"
  bottom: "sigmoid-dsn4"
  top: "rev-dsn4"
  power_param {
    power: 1
    scale: -1
    shift: 1
  }
}
layer {
  name: "tile-dsn4"
  type: "Tile"
  bottom: "rev-dsn4"
  top: "weight-dsn4"
  tile_param {
    tiles: 512
  }
}
layer {
  name: "prod1-dsn4"
  type: "Eltwise"
  bottom: "conv4_3"
  bottom: "weight-dsn4"
  top: "prod1-dsn4"
  eltwise_param {
    operation: PROD
  }
}
layer {
  name: "conv1-dsn4"
  type: "Convolution"
  bottom: "prod1-dsn4"
  top: "conv1-dsn4"
  param {
    lr_mult: 1
    decay_mult: 1
  }
  param {
    lr_mult: 2
    decay_mult: 0
  }
  convolution_param {
    num_output: 64
    kernel_size: 1
    weight_filler {
      type: "gaussian"
      std: 0.01
    }
    bias_filler {
      type: "constant"
      value: 0
    }
    engine: CUDNN
  }
}
layer {
  name: "conv2-dsn4"
  type: "Convolution"
  bottom: "conv1-dsn4"
  top: "conv2-dsn4"
  param {
    lr_mult: 1
    decay_mult: 1
  }
  param {
    lr_mult: 2
    decay_mult: 0
  }
  convolution_param {
    num_output: 64
    pad: 1
    kernel_size: 3
    weight_filler {
      type: "gaussian"
      std: 0.01
    }
    bias_filler {
      type: "constant"
      value: 0
    }
    engine: CUDNN
  }
}
layer {
  name: "relu1-dsn4"
  type: "ReLU"
  bottom: "conv2-dsn4"
  top: "conv2-dsn4"
}
layer {
  name: "conv3-dsn4"
  type: "Convolution"
  bottom: "conv2-dsn4"
  top: "conv3-dsn4"
  param {
    lr_mult: 1
    decay_mult: 1
  }
  param {
    lr_mult: 2
    decay_mult: 0
  }
  convolution_param {
    num_output: 64
    pad: 1
    kernel_size: 3
    weight_filler {
      type: "gaussian"
      std: 0.01
    }
    bias_filler {
      type: "constant"
      value: 0
    }
    engine: CUDNN
  }
}
layer {
  name: "relu2-dsn4"
  type: "ReLU"
  bottom: "conv3-dsn4"
  top: "conv3-dsn4"
}
layer {
  name: "conv4-dsn4"
  type: "Convolution"
  bottom: "conv3-dsn4"
  top: "conv4-dsn4"
  param {
    lr_mult: 1
    decay_mult: 1
  }
  param {
    lr_mult: 2
    decay_mult: 0
  }
  convolution_param {
    num_output: 1
    pad: 1
    kernel_size: 3
    weight_filler {
      type: "gaussian"
      std: 0.01
    }
    bias_filler {
      type: "constant"
      value: 0
    }
    engine: CUDNN
  }
}
layer {
  name: "sum-dsn4"
  type: "Eltwise"
  bottom: "conv4-dsn4"
  bottom: "weight-dsn5-4"
  top: "sum-dsn4"
  eltwise_param {
    operation: SUM
  }
}
layer {
  name: "upsample8_dsn4"
  type: "Deconvolution"
  bottom: "sum-dsn4"
  top: "sum-dsn4-up"
  param {
    lr_mult: 0
    decay_mult: 1
  }
  param {
    lr_mult: 0
    decay_mult: 0
  }
  convolution_param {
    num_output: 1
    kernel_size: 16
    stride: 8
  }
}
layer {
  name: "crop2-dsn4"
  type: "Crop"
  bottom: "sum-dsn4-up"
  bottom: "data"
  top: "upscore-dsn4"
}
layer {
  name: "loss4-score"
  type: "SigmoidCrossEntropyLoss"
  bottom: "upscore-dsn4"
  bottom: "label"
  top: "loss4-score"
  loss_weight: 1
}
layer {
  name: "upsample2_dsn3"
  type: "Deconvolution"
  bottom: "sum-dsn4"
  top: "sum-dsn4-3"
  param {
    lr_mult: 0
    decay_mult: 1
  }
  param {
    lr_mult: 0
    decay_mult: 0
  }
  convolution_param {
    num_output: 1
    kernel_size: 4
    stride: 2
  }
}
layer {
  name: "crop1-dsn3"
  type: "Crop"
  bottom: "sum-dsn4-3"
  bottom: "conv3_3"
  top: "weight-dsn4-3"
}
layer {
  name: "sigmoid-dsn3"
  type: "Sigmoid"
  bottom: "weight-dsn4-3"
  top: "sigmoid-dsn3"
}
layer {
  name: "rev-dsn3"
  type: "Power"
  bottom: "sigmoid-dsn3"
  top: "rev-dsn3"
  power_param {
    power: 1
    scale: -1
    shift: 1
  }
}
layer {
  name: "tile-dsn3"
  type: "Tile"
  bottom: "rev-dsn3"
  top: "weight-dsn3"
  tile_param {
    tiles: 256
  }
}
layer {
  name: "prod1-dsn3"
  type: "Eltwise"
  bottom: "conv3_3"
  bottom: "weight-dsn3"
  top: "prod1-dsn3"
  eltwise_param {
    operation: PROD
  }
}
layer {
  name: "conv1-dsn3"
  type: "Convolution"
  bottom: "prod1-dsn3"
  top: "conv1-dsn3"
  param {
    lr_mult: 1
    decay_mult: 1
  }
  param {
    lr_mult: 2
    decay_mult: 0
  }
  convolution_param {
    num_output: 64
    kernel_size: 1
    weight_filler {
      type: "gaussian"
      std: 0.01
    }
    bias_filler {
      type: "constant"
      value: 0
    }
    engine: CUDNN
  }
}
layer {
  name: "conv2-dsn3"
  type: "Convolution"
  bottom: "conv1-dsn3"
  top: "conv2-dsn3"
  param {
    lr_mult: 1
    decay_mult: 1
  }
  param {
    lr_mult: 2
    decay_mult: 0
  }
  convolution_param {
    num_output: 64
    pad: 1
    kernel_size: 3
    weight_filler {
      type: "gaussian"
      std: 0.01
    }
    bias_filler {
      type: "constant"
      value: 0
    }
    engine: CUDNN
  }
}
layer {
  name: "relu1-dsn3"
  type: "ReLU"
  bottom: "conv2-dsn3"
  top: "conv2-dsn3"
}
layer {
  name: "conv3-dsn3"
  type: "Convolution"
  bottom: "conv2-dsn3"
  top: "conv3-dsn3"
  param {
    lr_mult: 1
    decay_mult: 1
  }
  param {
    lr_mult: 2
    decay_mult: 0
  }
  convolution_param {
    num_output: 64
    pad: 1
    kernel_size: 3
    weight_filler {
      type: "gaussian"
      std: 0.01
    }
    bias_filler {
      type: "constant"
      value: 0
    }
    engine: CUDNN
  }
}
layer {
  name: "relu2-dsn3"
  type: "ReLU"
  bottom: "conv3-dsn3"
  top: "conv3-dsn3"
}
layer {
  name: "conv4-dsn3"
  type: "Convolution"
  bottom: "conv3-dsn3"
  top: "conv4-dsn3"
  param {
    lr_mult: 1
    decay_mult: 1
  }
  param {
    lr_mult: 2
    decay_mult: 0
  }
  convolution_param {
    num_output: 1
    pad: 1
    kernel_size: 3
    weight_filler {
      type: "gaussian"
      std: 0.01
    }
    bias_filler {
      type: "constant"
      value: 0
    }
    engine: CUDNN
  }
}
layer {
  name: "sum-dsn3"
  type: "Eltwise"
  bottom: "conv4-dsn3"
  bottom: "weight-dsn4-3"
  top: "sum-dsn3"
  eltwise_param {
    operation: SUM
  }
}
layer {
  name: "upsample4_dsn3"
  type: "Deconvolution"
  bottom: "sum-dsn3"
  top: "sum-dsn3-up"
  param {
    lr_mult: 0
    decay_mult: 1
  }
  param {
    lr_mult: 0
    decay_mult: 0
  }
  convolution_param {
    num_output: 1
    kernel_size: 8
    stride: 4
  }
}
layer {
  name: "crop2-dsn3"
  type: "Crop"
  bottom: "sum-dsn3-up"
  bottom: "data"
  top: "upscore-dsn3"
}
layer {
  name: "loss3-score"
  type: "SigmoidCrossEntropyLoss"
  bottom: "upscore-dsn3"
  bottom: "label"
  top: "loss3-score"
  loss_weight: 1
}
layer {
  name: "upsample2_1-dsn2"
  type: "Deconvolution"
  bottom: "sum-dsn3"
  top: "sum-dsn3-2"
  param {
    lr_mult: 0
    decay_mult: 1
  }
  param {
    lr_mult: 0
    decay_mult: 0
  }
  convolution_param {
    num_output: 1
    kernel_size: 4
    stride: 2
  }
}
layer {
  name: "crop1-dsn2"
  type: "Crop"
  bottom: "sum-dsn3-2"
  bottom: "conv2_2"
  top: "weight-dsn3-2"
}
layer {
  name: "sigmoid-dsn2"
  type: "Sigmoid"
  bottom: "weight-dsn3-2"
  top: "sigmoid-dsn2"
}
layer {
  name: "rev-dsn2"
  type: "Power"
  bottom: "sigmoid-dsn2"
  top: "rev-dsn2"
  power_param {
    power: 1
    scale: -1
    shift: 1
  }
}
layer {
  name: "tile-dsn2"
  type: "Tile"
  bottom: "rev-dsn2"
  top: "weight-dsn2"
  tile_param {
    tiles: 128
  }
}
layer {
  name: "prod1-dsn2"
  type: "Eltwise"
  bottom: "conv2_2"
  bottom: "weight-dsn2"
  top: "prod1-dsn2"
  eltwise_param {
    operation: PROD
  }
}
layer {
  name: "conv1-dsn2"
  type: "Convolution"
  bottom: "prod1-dsn2"
  top: "conv1-dsn2"
  param {
    lr_mult: 1
    decay_mult: 1
  }
  param {
    lr_mult: 2
    decay_mult: 0
  }
  convolution_param {
    num_output: 64
    kernel_size: 1
    weight_filler {
      type: "gaussian"
      std: 0.01
    }
    bias_filler {
      type: "constant"
      value: 0
    }
    engine: CUDNN
  }
}
layer {
  name: "conv2-dsn2"
  type: "Convolution"
  bottom: "conv1-dsn2"
  top: "conv2-dsn2"
  param {
    lr_mult: 1
    decay_mult: 1
  }
  param {
    lr_mult: 2
    decay_mult: 0
  }
  convolution_param {
    num_output: 64
    pad: 1
    kernel_size: 3
    weight_filler {
      type: "gaussian"
      std: 0.01
    }
    bias_filler {
      type: "constant"
      value: 0
    }
    engine: CUDNN
  }
}
layer {
  name: "relu1-dsn2"
  type: "ReLU"
  bottom: "conv2-dsn2"
  top: "conv2-dsn2"
}
layer {
  name: "conv3-dsn2"
  type: "Convolution"
  bottom: "conv2-dsn2"
  top: "conv3-dsn2"
  param {
    lr_mult: 1
    decay_mult: 1
  }
  param {
    lr_mult: 2
    decay_mult: 0
  }
  convolution_param {
    num_output: 64
    pad: 1
    kernel_size: 3
    weight_filler {
      type: "gaussian"
      std: 0.01
    }
    bias_filler {
      type: "constant"
      value: 0
    }
    engine: CUDNN
  }
}
layer {
  name: "relu2-dsn2"
  type: "ReLU"
  bottom: "conv3-dsn2"
  top: "conv3-dsn2"
}
layer {
  name: "conv4-dsn2"
  type: "Convolution"
  bottom: "conv3-dsn2"
  top: "conv4-dsn2"
  param {
    lr_mult: 1
    decay_mult: 1
  }
  param {
    lr_mult: 2
    decay_mult: 0
  }
  convolution_param {
    num_output: 1
    pad: 1
    kernel_size: 3
    weight_filler {
      type: "gaussian"
      std: 0.01
    }
    bias_filler {
      type: "constant"
      value: 0
    }
    engine: CUDNN
  }
}
layer {
  name: "sum-dsn2"
  type: "Eltwise"
  bottom: "conv4-dsn2"
  bottom: "weight-dsn3-2"
  top: "sum-dsn2"
  eltwise_param {
    operation: SUM
  }
}
layer {
  name: "upsample2_2-dsn2"
  type: "Deconvolution"
  bottom: "sum-dsn2"
  top: "sum-dsn2-up"
  param {
    lr_mult: 0
    decay_mult: 1
  }
  param {
    lr_mult: 0
    decay_mult: 0
  }
  convolution_param {
    num_output: 1
    kernel_size: 4
    stride: 2
  }
}
layer {
  name: "crop2-dsn2"
  type: "Crop"
  bottom: "sum-dsn2-up"
  bottom: "data"
  top: "upscore-dsn2"
}
layer {
  name: "loss2-score"
  type: "SigmoidCrossEntropyLoss"
  bottom: "upscore-dsn2"
  bottom: "label"
  top: "loss2-score"
  loss_weight: 1
}
layer {
  name: "sigmoid-dsn1"
  type: "Sigmoid"
  bottom: "upscore-dsn2"
  top: "sigmoid-dsn1"
}
layer {
  name: "rev-dsn1"
  type: "Power"
  bottom: "sigmoid-dsn1"
  top: "rev-dsn1"
  power_param {
    power: 1
    scale: -1
    shift: 1
  }
}
layer {
  name: "tile-dsn1"
  type: "Tile"
  bottom: "rev-dsn1"
  top: "weight-dsn1"
  tile_param {
    tiles: 64
  }
}
layer {
  name: "prod1-dsn1"
  type: "Eltwise"
  bottom: "conv1_2"
  bottom: "weight-dsn1"
  top: "prod1-dsn1"
  eltwise_param {
    operation: PROD
  }
}
layer {
  name: "conv1-dsn1"
  type: "Convolution"
  bottom: "prod1-dsn1"
  top: "conv1-dsn1"
  param {
    lr_mult: 1
    decay_mult: 1
  }
  param {
    lr_mult: 2
    decay_mult: 0
  }
  convolution_param {
    num_output: 64
    kernel_size: 1
    weight_filler {
      type: "gaussian"
      std: 0.01
    }
    bias_filler {
      type: "constant"
      value: 0
    }
    engine: CUDNN
  }
}
layer {
  name: "conv2-dsn1"
  type: "Convolution"
  bottom: "conv1-dsn1"
  top: "conv2-dsn1"
  param {
    lr_mult: 1
    decay_mult: 1
  }
  param {
    lr_mult: 2
    decay_mult: 0
  }
  convolution_param {
    num_output: 64
    pad: 1
    kernel_size: 3
    weight_filler {
      type: "gaussian"
      std: 0.01
    }
    bias_filler {
      type: "constant"
      value: 0
    }
    engine: CUDNN
  }
}
layer {
  name: "relu1-dsn1"
  type: "ReLU"
  bottom: "conv2-dsn1"
  top: "conv2-dsn1"
}
layer {
  name: "conv3-dsn1"
  type: "Convolution"
  bottom: "conv2-dsn1"
  top: "conv3-dsn1"
  param {
    lr_mult: 1
    decay_mult: 1
  }
  param {
    lr_mult: 2
    decay_mult: 0
  }
  convolution_param {
    num_output: 64
    pad: 1
    kernel_size: 3
    weight_filler {
      type: "gaussian"
      std: 0.01
    }
    bias_filler {
      type: "constant"
      value: 0
    }
    engine: CUDNN
  }
}
layer {
  name: "relu2-dsn1"
  type: "ReLU"
  bottom: "conv3-dsn1"
  top: "conv3-dsn1"
}
layer {
  name: "conv4-dsn1"
  type: "Convolution"
  bottom: "conv3-dsn1"
  top: "conv4-dsn1"
  param {
    lr_mult: 1
    decay_mult: 1
  }
  param {
    lr_mult: 2
    decay_mult: 0
  }
  convolution_param {
    num_output: 1
    pad: 1
    kernel_size: 3
    weight_filler {
      type: "gaussian"
      std: 0.01
    }
    bias_filler {
      type: "constant"
      value: 0
    }
    engine: CUDNN
  }
}
layer {
  name: "sum-dsn1"
  type: "Eltwise"
  bottom: "conv4-dsn1"
  bottom: "upscore-dsn2"
  top: "sum-dsn1"
  eltwise_param {
    operation: SUM
  }
}
layer {
  name: "crop2-dsn1"
  type: "Crop"
  bottom: "sum-dsn1"
  bottom: "data"
  top: "upscore-dsn1"
}
layer {
  name: "loss1-score"
  type: "SigmoidCrossEntropyLoss"
  bottom: "upscore-dsn1"
  bottom: "label"
  top: "loss1-score"
  loss_weight: 1
}
I1125 12:06:13.906044 25992 layer_factory.hpp:77] Creating layer data
I1125 12:06:13.906064 25992 net.cpp:100] Creating Layer data
I1125 12:06:13.906070 25992 net.cpp:408] data -> data
I1125 12:06:13.906082 25992 net.cpp:408] data -> label
I1125 12:06:13.906097 25992 image_labelmap_data_layer.cpp:41] Opening file /media/compute/homes/galberding/FleckDetect/Datasets/val.txt
I1125 12:06:13.908368 25992 image_labelmap_data_layer.cpp:56] A total of 1200 images.
I1125 12:06:13.922832 25992 image_labelmap_data_layer.cpp:110] output data size: 1,3,500,500
I1125 12:06:13.922843 25992 image_labelmap_data_layer.cpp:113] output label size: 1,1,500,500
I1125 12:06:13.932662 25992 net.cpp:150] Setting up data
I1125 12:06:13.932678 25992 net.cpp:157] Top shape: 1 3 500 500 (750000)
I1125 12:06:13.932685 25992 net.cpp:157] Top shape: 1 1 500 500 (250000)
I1125 12:06:13.932689 25992 net.cpp:165] Memory required for data: 4000000
I1125 12:06:13.932696 25992 layer_factory.hpp:77] Creating layer data_data_0_split
I1125 12:06:13.932708 25992 net.cpp:100] Creating Layer data_data_0_split
I1125 12:06:13.932713 25992 net.cpp:434] data_data_0_split <- data
I1125 12:06:13.932723 25992 net.cpp:408] data_data_0_split -> data_data_0_split_0
I1125 12:06:13.932736 25992 net.cpp:408] data_data_0_split -> data_data_0_split_1
I1125 12:06:13.932749 25992 net.cpp:408] data_data_0_split -> data_data_0_split_2
I1125 12:06:13.932759 25992 net.cpp:408] data_data_0_split -> data_data_0_split_3
I1125 12:06:13.932766 25992 net.cpp:408] data_data_0_split -> data_data_0_split_4
I1125 12:06:13.932775 25992 net.cpp:408] data_data_0_split -> data_data_0_split_5
I1125 12:06:13.932783 25992 net.cpp:408] data_data_0_split -> data_data_0_split_6
I1125 12:06:13.933075 25992 net.cpp:150] Setting up data_data_0_split
I1125 12:06:13.933085 25992 net.cpp:157] Top shape: 1 3 500 500 (750000)
I1125 12:06:13.933091 25992 net.cpp:157] Top shape: 1 3 500 500 (750000)
I1125 12:06:13.933096 25992 net.cpp:157] Top shape: 1 3 500 500 (750000)
I1125 12:06:13.933102 25992 net.cpp:157] Top shape: 1 3 500 500 (750000)
I1125 12:06:13.933107 25992 net.cpp:157] Top shape: 1 3 500 500 (750000)
I1125 12:06:13.933115 25992 net.cpp:157] Top shape: 1 3 500 500 (750000)
I1125 12:06:13.933120 25992 net.cpp:157] Top shape: 1 3 500 500 (750000)
I1125 12:06:13.933123 25992 net.cpp:165] Memory required for data: 25000000
I1125 12:06:13.933135 25992 layer_factory.hpp:77] Creating layer label_data_1_split
I1125 12:06:13.933145 25992 net.cpp:100] Creating Layer label_data_1_split
I1125 12:06:13.933148 25992 net.cpp:434] label_data_1_split <- label
I1125 12:06:13.933156 25992 net.cpp:408] label_data_1_split -> label_data_1_split_0
I1125 12:06:13.933166 25992 net.cpp:408] label_data_1_split -> label_data_1_split_1
I1125 12:06:13.933174 25992 net.cpp:408] label_data_1_split -> label_data_1_split_2
I1125 12:06:13.933183 25992 net.cpp:408] label_data_1_split -> label_data_1_split_3
I1125 12:06:13.933190 25992 net.cpp:408] label_data_1_split -> label_data_1_split_4
I1125 12:06:13.933199 25992 net.cpp:408] label_data_1_split -> label_data_1_split_5
I1125 12:06:13.933305 25992 net.cpp:150] Setting up label_data_1_split
I1125 12:06:13.933313 25992 net.cpp:157] Top shape: 1 1 500 500 (250000)
I1125 12:06:13.933318 25992 net.cpp:157] Top shape: 1 1 500 500 (250000)
I1125 12:06:13.933324 25992 net.cpp:157] Top shape: 1 1 500 500 (250000)
I1125 12:06:13.933329 25992 net.cpp:157] Top shape: 1 1 500 500 (250000)
I1125 12:06:13.933334 25992 net.cpp:157] Top shape: 1 1 500 500 (250000)
I1125 12:06:13.933339 25992 net.cpp:157] Top shape: 1 1 500 500 (250000)
I1125 12:06:13.933343 25992 net.cpp:165] Memory required for data: 31000000
I1125 12:06:13.933347 25992 layer_factory.hpp:77] Creating layer conv1_1
I1125 12:06:13.933358 25992 net.cpp:100] Creating Layer conv1_1
I1125 12:06:13.933363 25992 net.cpp:434] conv1_1 <- data_data_0_split_0
I1125 12:06:13.933370 25992 net.cpp:408] conv1_1 -> conv1_1
I1125 12:06:13.936430 25992 net.cpp:150] Setting up conv1_1
I1125 12:06:13.936446 25992 net.cpp:157] Top shape: 1 64 500 500 (16000000)
I1125 12:06:13.936450 25992 net.cpp:165] Memory required for data: 95000000
I1125 12:06:13.936465 25992 layer_factory.hpp:77] Creating layer relu1_1
I1125 12:06:13.936476 25992 net.cpp:100] Creating Layer relu1_1
I1125 12:06:13.936481 25992 net.cpp:434] relu1_1 <- conv1_1
I1125 12:06:13.936488 25992 net.cpp:395] relu1_1 -> conv1_1 (in-place)
I1125 12:06:13.936689 25992 net.cpp:150] Setting up relu1_1
I1125 12:06:13.936699 25992 net.cpp:157] Top shape: 1 64 500 500 (16000000)
I1125 12:06:13.936703 25992 net.cpp:165] Memory required for data: 159000000
I1125 12:06:13.936708 25992 layer_factory.hpp:77] Creating layer conv1_2
I1125 12:06:13.936718 25992 net.cpp:100] Creating Layer conv1_2
I1125 12:06:13.936723 25992 net.cpp:434] conv1_2 <- conv1_1
I1125 12:06:13.936730 25992 net.cpp:408] conv1_2 -> conv1_2
I1125 12:06:13.938208 25992 net.cpp:150] Setting up conv1_2
I1125 12:06:13.938225 25992 net.cpp:157] Top shape: 1 64 500 500 (16000000)
I1125 12:06:13.938230 25992 net.cpp:165] Memory required for data: 223000000
I1125 12:06:13.938242 25992 layer_factory.hpp:77] Creating layer relu1_2
I1125 12:06:13.938249 25992 net.cpp:100] Creating Layer relu1_2
I1125 12:06:13.938254 25992 net.cpp:434] relu1_2 <- conv1_2
I1125 12:06:13.938264 25992 net.cpp:395] relu1_2 -> conv1_2 (in-place)
I1125 12:06:13.938838 25992 net.cpp:150] Setting up relu1_2
I1125 12:06:13.938853 25992 net.cpp:157] Top shape: 1 64 500 500 (16000000)
I1125 12:06:13.938858 25992 net.cpp:165] Memory required for data: 287000000
I1125 12:06:13.938863 25992 layer_factory.hpp:77] Creating layer conv1_2_relu1_2_0_split
I1125 12:06:13.938869 25992 net.cpp:100] Creating Layer conv1_2_relu1_2_0_split
I1125 12:06:13.938874 25992 net.cpp:434] conv1_2_relu1_2_0_split <- conv1_2
I1125 12:06:13.938884 25992 net.cpp:408] conv1_2_relu1_2_0_split -> conv1_2_relu1_2_0_split_0
I1125 12:06:13.938895 25992 net.cpp:408] conv1_2_relu1_2_0_split -> conv1_2_relu1_2_0_split_1
I1125 12:06:13.938956 25992 net.cpp:150] Setting up conv1_2_relu1_2_0_split
I1125 12:06:13.938966 25992 net.cpp:157] Top shape: 1 64 500 500 (16000000)
I1125 12:06:13.938972 25992 net.cpp:157] Top shape: 1 64 500 500 (16000000)
I1125 12:06:13.938977 25992 net.cpp:165] Memory required for data: 415000000
I1125 12:06:13.938980 25992 layer_factory.hpp:77] Creating layer pool1
I1125 12:06:13.938998 25992 net.cpp:100] Creating Layer pool1
I1125 12:06:13.939003 25992 net.cpp:434] pool1 <- conv1_2_relu1_2_0_split_0
I1125 12:06:13.939011 25992 net.cpp:408] pool1 -> pool1
I1125 12:06:13.939065 25992 net.cpp:150] Setting up pool1
I1125 12:06:13.939075 25992 net.cpp:157] Top shape: 1 64 250 250 (4000000)
I1125 12:06:13.939079 25992 net.cpp:165] Memory required for data: 431000000
I1125 12:06:13.939083 25992 layer_factory.hpp:77] Creating layer conv2_1
I1125 12:06:13.939092 25992 net.cpp:100] Creating Layer conv2_1
I1125 12:06:13.939096 25992 net.cpp:434] conv2_1 <- pool1
I1125 12:06:13.939107 25992 net.cpp:408] conv2_1 -> conv2_1
I1125 12:06:13.940484 25992 net.cpp:150] Setting up conv2_1
I1125 12:06:13.940497 25992 net.cpp:157] Top shape: 1 128 250 250 (8000000)
I1125 12:06:13.940501 25992 net.cpp:165] Memory required for data: 463000000
I1125 12:06:13.940515 25992 layer_factory.hpp:77] Creating layer relu2_1
I1125 12:06:13.940522 25992 net.cpp:100] Creating Layer relu2_1
I1125 12:06:13.940526 25992 net.cpp:434] relu2_1 <- conv2_1
I1125 12:06:13.940536 25992 net.cpp:395] relu2_1 -> conv2_1 (in-place)
I1125 12:06:13.941077 25992 net.cpp:150] Setting up relu2_1
I1125 12:06:13.941090 25992 net.cpp:157] Top shape: 1 128 250 250 (8000000)
I1125 12:06:13.941094 25992 net.cpp:165] Memory required for data: 495000000
I1125 12:06:13.941098 25992 layer_factory.hpp:77] Creating layer conv2_2
I1125 12:06:13.941112 25992 net.cpp:100] Creating Layer conv2_2
I1125 12:06:13.941116 25992 net.cpp:434] conv2_2 <- conv2_1
I1125 12:06:13.941133 25992 net.cpp:408] conv2_2 -> conv2_2
I1125 12:06:13.944134 25992 net.cpp:150] Setting up conv2_2
I1125 12:06:13.944165 25992 net.cpp:157] Top shape: 1 128 250 250 (8000000)
I1125 12:06:13.944170 25992 net.cpp:165] Memory required for data: 527000000
I1125 12:06:13.944180 25992 layer_factory.hpp:77] Creating layer relu2_2
I1125 12:06:13.944188 25992 net.cpp:100] Creating Layer relu2_2
I1125 12:06:13.944192 25992 net.cpp:434] relu2_2 <- conv2_2
I1125 12:06:13.944202 25992 net.cpp:395] relu2_2 -> conv2_2 (in-place)
I1125 12:06:13.944423 25992 net.cpp:150] Setting up relu2_2
I1125 12:06:13.944433 25992 net.cpp:157] Top shape: 1 128 250 250 (8000000)
I1125 12:06:13.944437 25992 net.cpp:165] Memory required for data: 559000000
I1125 12:06:13.944442 25992 layer_factory.hpp:77] Creating layer conv2_2_relu2_2_0_split
I1125 12:06:13.944465 25992 net.cpp:100] Creating Layer conv2_2_relu2_2_0_split
I1125 12:06:13.944469 25992 net.cpp:434] conv2_2_relu2_2_0_split <- conv2_2
I1125 12:06:13.944478 25992 net.cpp:408] conv2_2_relu2_2_0_split -> conv2_2_relu2_2_0_split_0
I1125 12:06:13.944489 25992 net.cpp:408] conv2_2_relu2_2_0_split -> conv2_2_relu2_2_0_split_1
I1125 12:06:13.944496 25992 net.cpp:408] conv2_2_relu2_2_0_split -> conv2_2_relu2_2_0_split_2
I1125 12:06:13.944569 25992 net.cpp:150] Setting up conv2_2_relu2_2_0_split
I1125 12:06:13.944578 25992 net.cpp:157] Top shape: 1 128 250 250 (8000000)
I1125 12:06:13.944584 25992 net.cpp:157] Top shape: 1 128 250 250 (8000000)
I1125 12:06:13.944589 25992 net.cpp:157] Top shape: 1 128 250 250 (8000000)
I1125 12:06:13.944593 25992 net.cpp:165] Memory required for data: 655000000
I1125 12:06:13.944597 25992 layer_factory.hpp:77] Creating layer pool2
I1125 12:06:13.944605 25992 net.cpp:100] Creating Layer pool2
I1125 12:06:13.944609 25992 net.cpp:434] pool2 <- conv2_2_relu2_2_0_split_0
I1125 12:06:13.944617 25992 net.cpp:408] pool2 -> pool2
I1125 12:06:13.944667 25992 net.cpp:150] Setting up pool2
I1125 12:06:13.944675 25992 net.cpp:157] Top shape: 1 128 125 125 (2000000)
I1125 12:06:13.944679 25992 net.cpp:165] Memory required for data: 663000000
I1125 12:06:13.944682 25992 layer_factory.hpp:77] Creating layer conv3_1
I1125 12:06:13.944692 25992 net.cpp:100] Creating Layer conv3_1
I1125 12:06:13.944697 25992 net.cpp:434] conv3_1 <- pool2
I1125 12:06:13.944705 25992 net.cpp:408] conv3_1 -> conv3_1
I1125 12:06:13.948015 25992 net.cpp:150] Setting up conv3_1
I1125 12:06:13.948030 25992 net.cpp:157] Top shape: 1 256 125 125 (4000000)
I1125 12:06:13.948035 25992 net.cpp:165] Memory required for data: 679000000
I1125 12:06:13.948048 25992 layer_factory.hpp:77] Creating layer relu3_1
I1125 12:06:13.948060 25992 net.cpp:100] Creating Layer relu3_1
I1125 12:06:13.948065 25992 net.cpp:434] relu3_1 <- conv3_1
I1125 12:06:13.948072 25992 net.cpp:395] relu3_1 -> conv3_1 (in-place)
I1125 12:06:13.948279 25992 net.cpp:150] Setting up relu3_1
I1125 12:06:13.948289 25992 net.cpp:157] Top shape: 1 256 125 125 (4000000)
I1125 12:06:13.948292 25992 net.cpp:165] Memory required for data: 695000000
I1125 12:06:13.948297 25992 layer_factory.hpp:77] Creating layer conv3_2
I1125 12:06:13.948308 25992 net.cpp:100] Creating Layer conv3_2
I1125 12:06:13.948313 25992 net.cpp:434] conv3_2 <- conv3_1
I1125 12:06:13.948321 25992 net.cpp:408] conv3_2 -> conv3_2
I1125 12:06:13.952495 25992 net.cpp:150] Setting up conv3_2
I1125 12:06:13.952510 25992 net.cpp:157] Top shape: 1 256 125 125 (4000000)
I1125 12:06:13.952515 25992 net.cpp:165] Memory required for data: 711000000
I1125 12:06:13.952524 25992 layer_factory.hpp:77] Creating layer relu3_2
I1125 12:06:13.952533 25992 net.cpp:100] Creating Layer relu3_2
I1125 12:06:13.952538 25992 net.cpp:434] relu3_2 <- conv3_2
I1125 12:06:13.952545 25992 net.cpp:395] relu3_2 -> conv3_2 (in-place)
I1125 12:06:13.952739 25992 net.cpp:150] Setting up relu3_2
I1125 12:06:13.952750 25992 net.cpp:157] Top shape: 1 256 125 125 (4000000)
I1125 12:06:13.952754 25992 net.cpp:165] Memory required for data: 727000000
I1125 12:06:13.952759 25992 layer_factory.hpp:77] Creating layer conv3_3
I1125 12:06:13.952769 25992 net.cpp:100] Creating Layer conv3_3
I1125 12:06:13.952775 25992 net.cpp:434] conv3_3 <- conv3_2
I1125 12:06:13.952782 25992 net.cpp:408] conv3_3 -> conv3_3
I1125 12:06:13.956060 25992 net.cpp:150] Setting up conv3_3
I1125 12:06:13.956075 25992 net.cpp:157] Top shape: 1 256 125 125 (4000000)
I1125 12:06:13.956079 25992 net.cpp:165] Memory required for data: 743000000
I1125 12:06:13.956089 25992 layer_factory.hpp:77] Creating layer relu3_3
I1125 12:06:13.956096 25992 net.cpp:100] Creating Layer relu3_3
I1125 12:06:13.956101 25992 net.cpp:434] relu3_3 <- conv3_3
I1125 12:06:13.956110 25992 net.cpp:395] relu3_3 -> conv3_3 (in-place)
I1125 12:06:13.956310 25992 net.cpp:150] Setting up relu3_3
I1125 12:06:13.956321 25992 net.cpp:157] Top shape: 1 256 125 125 (4000000)
I1125 12:06:13.956324 25992 net.cpp:165] Memory required for data: 759000000
I1125 12:06:13.956329 25992 layer_factory.hpp:77] Creating layer conv3_3_relu3_3_0_split
I1125 12:06:13.956337 25992 net.cpp:100] Creating Layer conv3_3_relu3_3_0_split
I1125 12:06:13.956341 25992 net.cpp:434] conv3_3_relu3_3_0_split <- conv3_3
I1125 12:06:13.956349 25992 net.cpp:408] conv3_3_relu3_3_0_split -> conv3_3_relu3_3_0_split_0
I1125 12:06:13.956359 25992 net.cpp:408] conv3_3_relu3_3_0_split -> conv3_3_relu3_3_0_split_1
I1125 12:06:13.956367 25992 net.cpp:408] conv3_3_relu3_3_0_split -> conv3_3_relu3_3_0_split_2
I1125 12:06:13.956441 25992 net.cpp:150] Setting up conv3_3_relu3_3_0_split
I1125 12:06:13.956450 25992 net.cpp:157] Top shape: 1 256 125 125 (4000000)
I1125 12:06:13.956456 25992 net.cpp:157] Top shape: 1 256 125 125 (4000000)
I1125 12:06:13.956461 25992 net.cpp:157] Top shape: 1 256 125 125 (4000000)
I1125 12:06:13.956465 25992 net.cpp:165] Memory required for data: 807000000
I1125 12:06:13.956468 25992 layer_factory.hpp:77] Creating layer pool3
I1125 12:06:13.956476 25992 net.cpp:100] Creating Layer pool3
I1125 12:06:13.956481 25992 net.cpp:434] pool3 <- conv3_3_relu3_3_0_split_0
I1125 12:06:13.956488 25992 net.cpp:408] pool3 -> pool3
I1125 12:06:13.956544 25992 net.cpp:150] Setting up pool3
I1125 12:06:13.956552 25992 net.cpp:157] Top shape: 1 256 63 63 (1016064)
I1125 12:06:13.956557 25992 net.cpp:165] Memory required for data: 811064256
I1125 12:06:13.956560 25992 layer_factory.hpp:77] Creating layer conv4_1
I1125 12:06:13.956570 25992 net.cpp:100] Creating Layer conv4_1
I1125 12:06:13.956575 25992 net.cpp:434] conv4_1 <- pool3
I1125 12:06:13.956583 25992 net.cpp:408] conv4_1 -> conv4_1
I1125 12:06:13.961086 25992 net.cpp:150] Setting up conv4_1
I1125 12:06:13.961100 25992 net.cpp:157] Top shape: 1 512 63 63 (2032128)
I1125 12:06:13.961105 25992 net.cpp:165] Memory required for data: 819192768
I1125 12:06:13.961115 25992 layer_factory.hpp:77] Creating layer relu4_1
I1125 12:06:13.961123 25992 net.cpp:100] Creating Layer relu4_1
I1125 12:06:13.961141 25992 net.cpp:434] relu4_1 <- conv4_1
I1125 12:06:13.961165 25992 net.cpp:395] relu4_1 -> conv4_1 (in-place)
I1125 12:06:13.961750 25992 net.cpp:150] Setting up relu4_1
I1125 12:06:13.961762 25992 net.cpp:157] Top shape: 1 512 63 63 (2032128)
I1125 12:06:13.961766 25992 net.cpp:165] Memory required for data: 827321280
I1125 12:06:13.961771 25992 layer_factory.hpp:77] Creating layer conv4_2
I1125 12:06:13.961782 25992 net.cpp:100] Creating Layer conv4_2
I1125 12:06:13.961787 25992 net.cpp:434] conv4_2 <- conv4_1
I1125 12:06:13.961796 25992 net.cpp:408] conv4_2 -> conv4_2
I1125 12:06:13.968302 25992 net.cpp:150] Setting up conv4_2
I1125 12:06:13.968320 25992 net.cpp:157] Top shape: 1 512 63 63 (2032128)
I1125 12:06:13.968324 25992 net.cpp:165] Memory required for data: 835449792
I1125 12:06:13.968338 25992 layer_factory.hpp:77] Creating layer relu4_2
I1125 12:06:13.968348 25992 net.cpp:100] Creating Layer relu4_2
I1125 12:06:13.968353 25992 net.cpp:434] relu4_2 <- conv4_2
I1125 12:06:13.968358 25992 net.cpp:395] relu4_2 -> conv4_2 (in-place)
I1125 12:06:13.972357 25992 net.cpp:150] Setting up relu4_2
I1125 12:06:13.972369 25992 net.cpp:157] Top shape: 1 512 63 63 (2032128)
I1125 12:06:13.972373 25992 net.cpp:165] Memory required for data: 843578304
I1125 12:06:13.972374 25992 layer_factory.hpp:77] Creating layer conv4_3
I1125 12:06:13.972383 25992 net.cpp:100] Creating Layer conv4_3
I1125 12:06:13.972388 25992 net.cpp:434] conv4_3 <- conv4_2
I1125 12:06:13.972393 25992 net.cpp:408] conv4_3 -> conv4_3
I1125 12:06:13.978574 25992 net.cpp:150] Setting up conv4_3
I1125 12:06:13.978585 25992 net.cpp:157] Top shape: 1 512 63 63 (2032128)
I1125 12:06:13.978588 25992 net.cpp:165] Memory required for data: 851706816
I1125 12:06:13.978593 25992 layer_factory.hpp:77] Creating layer relu4_3
I1125 12:06:13.978598 25992 net.cpp:100] Creating Layer relu4_3
I1125 12:06:13.978602 25992 net.cpp:434] relu4_3 <- conv4_3
I1125 12:06:13.978606 25992 net.cpp:395] relu4_3 -> conv4_3 (in-place)
I1125 12:06:13.978777 25992 net.cpp:150] Setting up relu4_3
I1125 12:06:13.978785 25992 net.cpp:157] Top shape: 1 512 63 63 (2032128)
I1125 12:06:13.978786 25992 net.cpp:165] Memory required for data: 859835328
I1125 12:06:13.978790 25992 layer_factory.hpp:77] Creating layer conv4_3_relu4_3_0_split
I1125 12:06:13.978794 25992 net.cpp:100] Creating Layer conv4_3_relu4_3_0_split
I1125 12:06:13.978796 25992 net.cpp:434] conv4_3_relu4_3_0_split <- conv4_3
I1125 12:06:13.978802 25992 net.cpp:408] conv4_3_relu4_3_0_split -> conv4_3_relu4_3_0_split_0
I1125 12:06:13.978808 25992 net.cpp:408] conv4_3_relu4_3_0_split -> conv4_3_relu4_3_0_split_1
I1125 12:06:13.978812 25992 net.cpp:408] conv4_3_relu4_3_0_split -> conv4_3_relu4_3_0_split_2
I1125 12:06:13.978868 25992 net.cpp:150] Setting up conv4_3_relu4_3_0_split
I1125 12:06:13.978873 25992 net.cpp:157] Top shape: 1 512 63 63 (2032128)
I1125 12:06:13.978876 25992 net.cpp:157] Top shape: 1 512 63 63 (2032128)
I1125 12:06:13.978879 25992 net.cpp:157] Top shape: 1 512 63 63 (2032128)
I1125 12:06:13.978880 25992 net.cpp:165] Memory required for data: 884220864
I1125 12:06:13.978883 25992 layer_factory.hpp:77] Creating layer pool4
I1125 12:06:13.978889 25992 net.cpp:100] Creating Layer pool4
I1125 12:06:13.978891 25992 net.cpp:434] pool4 <- conv4_3_relu4_3_0_split_0
I1125 12:06:13.978897 25992 net.cpp:408] pool4 -> pool4
I1125 12:06:13.978935 25992 net.cpp:150] Setting up pool4
I1125 12:06:13.978940 25992 net.cpp:157] Top shape: 1 512 32 32 (524288)
I1125 12:06:13.978941 25992 net.cpp:165] Memory required for data: 886318016
I1125 12:06:13.978943 25992 layer_factory.hpp:77] Creating layer conv5_1
I1125 12:06:13.978956 25992 net.cpp:100] Creating Layer conv5_1
I1125 12:06:13.978960 25992 net.cpp:434] conv5_1 <- pool4
I1125 12:06:13.978963 25992 net.cpp:408] conv5_1 -> conv5_1
I1125 12:06:13.985210 25992 net.cpp:150] Setting up conv5_1
I1125 12:06:13.985222 25992 net.cpp:157] Top shape: 1 512 32 32 (524288)
I1125 12:06:13.985242 25992 net.cpp:165] Memory required for data: 888415168
I1125 12:06:13.985247 25992 layer_factory.hpp:77] Creating layer relu5_1
I1125 12:06:13.985258 25992 net.cpp:100] Creating Layer relu5_1
I1125 12:06:13.985262 25992 net.cpp:434] relu5_1 <- conv5_1
I1125 12:06:13.985266 25992 net.cpp:395] relu5_1 -> conv5_1 (in-place)
I1125 12:06:13.985476 25992 net.cpp:150] Setting up relu5_1
I1125 12:06:13.985482 25992 net.cpp:157] Top shape: 1 512 32 32 (524288)
I1125 12:06:13.985484 25992 net.cpp:165] Memory required for data: 890512320
I1125 12:06:13.985487 25992 layer_factory.hpp:77] Creating layer conv5_2
I1125 12:06:13.985493 25992 net.cpp:100] Creating Layer conv5_2
I1125 12:06:13.985496 25992 net.cpp:434] conv5_2 <- conv5_1
I1125 12:06:13.985500 25992 net.cpp:408] conv5_2 -> conv5_2
I1125 12:06:13.992667 25992 net.cpp:150] Setting up conv5_2
I1125 12:06:13.992681 25992 net.cpp:157] Top shape: 1 512 32 32 (524288)
I1125 12:06:13.992683 25992 net.cpp:165] Memory required for data: 892609472
I1125 12:06:13.992688 25992 layer_factory.hpp:77] Creating layer relu5_2
I1125 12:06:13.992694 25992 net.cpp:100] Creating Layer relu5_2
I1125 12:06:13.992698 25992 net.cpp:434] relu5_2 <- conv5_2
I1125 12:06:13.992703 25992 net.cpp:395] relu5_2 -> conv5_2 (in-place)
I1125 12:06:13.992861 25992 net.cpp:150] Setting up relu5_2
I1125 12:06:13.992868 25992 net.cpp:157] Top shape: 1 512 32 32 (524288)
I1125 12:06:13.992871 25992 net.cpp:165] Memory required for data: 894706624
I1125 12:06:13.992872 25992 layer_factory.hpp:77] Creating layer conv5_3
I1125 12:06:13.992879 25992 net.cpp:100] Creating Layer conv5_3
I1125 12:06:13.992882 25992 net.cpp:434] conv5_3 <- conv5_2
I1125 12:06:13.992888 25992 net.cpp:408] conv5_3 -> conv5_3
I1125 12:06:13.998790 25992 net.cpp:150] Setting up conv5_3
I1125 12:06:13.998803 25992 net.cpp:157] Top shape: 1 512 32 32 (524288)
I1125 12:06:13.998806 25992 net.cpp:165] Memory required for data: 896803776
I1125 12:06:13.998812 25992 layer_factory.hpp:77] Creating layer relu5_3
I1125 12:06:13.998817 25992 net.cpp:100] Creating Layer relu5_3
I1125 12:06:13.998821 25992 net.cpp:434] relu5_3 <- conv5_3
I1125 12:06:13.998826 25992 net.cpp:395] relu5_3 -> conv5_3 (in-place)
I1125 12:06:13.998986 25992 net.cpp:150] Setting up relu5_3
I1125 12:06:13.998992 25992 net.cpp:157] Top shape: 1 512 32 32 (524288)
I1125 12:06:13.998994 25992 net.cpp:165] Memory required for data: 898900928
I1125 12:06:13.998996 25992 layer_factory.hpp:77] Creating layer conv5_3_relu5_3_0_split
I1125 12:06:13.999002 25992 net.cpp:100] Creating Layer conv5_3_relu5_3_0_split
I1125 12:06:13.999006 25992 net.cpp:434] conv5_3_relu5_3_0_split <- conv5_3
I1125 12:06:13.999011 25992 net.cpp:408] conv5_3_relu5_3_0_split -> conv5_3_relu5_3_0_split_0
I1125 12:06:13.999017 25992 net.cpp:408] conv5_3_relu5_3_0_split -> conv5_3_relu5_3_0_split_1
I1125 12:06:13.999022 25992 net.cpp:408] conv5_3_relu5_3_0_split -> conv5_3_relu5_3_0_split_2
I1125 12:06:13.999076 25992 net.cpp:150] Setting up conv5_3_relu5_3_0_split
I1125 12:06:13.999081 25992 net.cpp:157] Top shape: 1 512 32 32 (524288)
I1125 12:06:13.999084 25992 net.cpp:157] Top shape: 1 512 32 32 (524288)
I1125 12:06:13.999087 25992 net.cpp:157] Top shape: 1 512 32 32 (524288)
I1125 12:06:13.999089 25992 net.cpp:165] Memory required for data: 905192384
I1125 12:06:13.999091 25992 layer_factory.hpp:77] Creating layer pool5
I1125 12:06:13.999097 25992 net.cpp:100] Creating Layer pool5
I1125 12:06:13.999100 25992 net.cpp:434] pool5 <- conv5_3_relu5_3_0_split_0
I1125 12:06:13.999104 25992 net.cpp:408] pool5 -> pool5
I1125 12:06:13.999173 25992 net.cpp:150] Setting up pool5
…
I1125 12:06:14.056331 25992 net.cpp:165] Memory required for data: 907559872
I1125 12:06:14.056344 25992 layer_factory.hpp:77] Creating layer relu3-dsn6
I1125 12:06:14.056349 25992 net.cpp:100] Creating Layer relu3-dsn6
I1125 12:06:14.056352 25992 net.cpp:434] relu3-dsn6 <- conv4-dsn6
I1125 12:06:14.056357 25992 net.cpp:395] relu3-dsn6 -> conv4-dsn6 (in-place)
I1125 12:06:14.056522 25992 net.cpp:150] Setting up relu3-dsn6
I1125 12:06:14.056529 25992 net.cpp:157] Top shape: 1 256 17 17 (73984)
I1125 12:06:14.056531 25992 net.cpp:165] Memory required for data: 907855808
I1125 12:06:14.056533 25992 layer_factory.hpp:77] Creating layer conv5-dsn6
I1125 12:06:14.056542 25992 net.cpp:100] Creating Layer conv5-dsn6
I1125 12:06:14.056545 25992 net.cpp:434] conv5-dsn6 <- conv4-dsn6
I1125 12:06:14.056551 25992 net.cpp:408] conv5-dsn6 -> conv5-dsn6
I1125 12:06:14.057648 25992 net.cpp:150] Setting up conv5-dsn6
I1125 12:06:14.057659 25992 net.cpp:157] Top shape: 1 1 17 17 (289)
I1125 12:06:14.057662 25992 net.cpp:165] Memory required for data: 907856964
I1125 12:06:14.057667 25992 layer_factory.hpp:77] Creating layer conv5-dsn6_conv5-dsn6_0_split
I1125 12:06:14.057672 25992 net.cpp:100] Creating Layer conv5-dsn6_conv5-dsn6_0_split
I1125 12:06:14.057675 25992 net.cpp:434] conv5-dsn6_conv5-dsn6_0_split <- conv5-dsn6
I1125 12:06:14.057682 25992 net.cpp:408] conv5-dsn6_conv5-dsn6_0_split -> conv5-dsn6_conv5-dsn6_0_split_0
I1125 12:06:14.057687 25992 net.cpp:408] conv5-dsn6_conv5-dsn6_0_split -> conv5-dsn6_conv5-dsn6_0_split_1
I1125 12:06:14.057731 25992 net.cpp:150] Setting up conv5-dsn6_conv5-dsn6_0_split
I1125 12:06:14.057740 25992 net.cpp:157] Top shape: 1 1 17 17 (289)
I1125 12:06:14.057744 25992 net.cpp:157] Top shape: 1 1 17 17 (289)
I1125 12:06:14.057745 25992 net.cpp:165] Memory required for data: 907859276
I1125 12:06:14.057747 25992 layer_factory.hpp:77] Creating layer upsample32_dsn6
I1125 12:06:14.057755 25992 net.cpp:100] Creating Layer upsample32_dsn6
I1125 12:06:14.057759 25992 net.cpp:434] upsample32_dsn6 <- conv5-dsn6_conv5-dsn6_0_split_0
I1125 12:06:14.057762 25992 net.cpp:408] upsample32_dsn6 -> conv5-dsn6-up
I1125 12:06:14.059250 25992 net.cpp:150] Setting up upsample32_dsn6
I1125 12:06:14.059262 25992 net.cpp:157] Top shape: 1 1 576 576 (331776)
I1125 12:06:14.059263 25992 net.cpp:165] Memory required for data: 909186380
I1125 12:06:14.059268 25992 layer_factory.hpp:77] Creating layer crop-dsn6
I1125 12:06:14.059273 25992 net.cpp:100] Creating Layer crop-dsn6
I1125 12:06:14.059276 25992 net.cpp:434] crop-dsn6 <- conv5-dsn6-up
I1125 12:06:14.059280 25992 net.cpp:434] crop-dsn6 <- data_data_0_split_1
I1125 12:06:14.059286 25992 net.cpp:408] crop-dsn6 -> upscore-dsn6
I1125 12:06:14.059320 25992 net.cpp:150] Setting up crop-dsn6
I1125 12:06:14.059325 25992 net.cpp:157] Top shape: 1 1 500 500 (250000)
I1125 12:06:14.059327 25992 net.cpp:165] Memory required for data: 910186380
I1125 12:06:14.059329 25992 layer_factory.hpp:77] Creating layer loss6-score
I1125 12:06:14.059339 25992 net.cpp:100] Creating Layer loss6-score
I1125 12:06:14.059341 25992 net.cpp:434] loss6-score <- upscore-dsn6
I1125 12:06:14.059345 25992 net.cpp:434] loss6-score <- label_data_1_split_0
I1125 12:06:14.059348 25992 net.cpp:408] loss6-score -> loss6-score
I1125 12:06:14.060590 25992 net.cpp:150] Setting up loss6-score
I1125 12:06:14.060600 25992 net.cpp:157] Top shape: (1)
I1125 12:06:14.060602 25992 net.cpp:160]     with loss weight 1
I1125 12:06:14.060612 25992 net.cpp:165] Memory required for data: 910186384
I1125 12:06:14.060616 25992 layer_factory.hpp:77] Creating layer upsample2_dsn5
I1125 12:06:14.060623 25992 net.cpp:100] Creating Layer upsample2_dsn5
I1125 12:06:14.060626 25992 net.cpp:434] upsample2_dsn5 <- conv5-dsn6_conv5-dsn6_0_split_1
I1125 12:06:14.060631 25992 net.cpp:408] upsample2_dsn5 -> conv5-dsn6-5
I1125 12:06:14.060885 25992 net.cpp:150] Setting up upsample2_dsn5
I1125 12:06:14.060892 25992 net.cpp:157] Top shape: 1 1 36 36 (1296)
I1125 12:06:14.060894 25992 net.cpp:165] Memory required for data: 910191568
I1125 12:06:14.060899 25992 layer_factory.hpp:77] Creating layer crop1-dsn5
I1125 12:06:14.060904 25992 net.cpp:100] Creating Layer crop1-dsn5
I1125 12:06:14.060907 25992 net.cpp:434] crop1-dsn5 <- conv5-dsn6-5
I1125 12:06:14.060910 25992 net.cpp:434] crop1-dsn5 <- conv5_3_relu5_3_0_split_1
I1125 12:06:14.060914 25992 net.cpp:408] crop1-dsn5 -> weight-dsn6-5
I1125 12:06:14.060938 25992 net.cpp:150] Setting up crop1-dsn5
I1125 12:06:14.060945 25992 net.cpp:157] Top shape: 1 1 32 32 (1024)
I1125 12:06:14.060946 25992 net.cpp:165] Memory required for data: 910195664
I1125 12:06:14.060950 25992 layer_factory.hpp:77] Creating layer weight-dsn6-5_crop1-dsn5_0_split
I1125 12:06:14.060957 25992 net.cpp:100] Creating Layer weight-dsn6-5_crop1-dsn5_0_split
I1125 12:06:14.060961 25992 net.cpp:434] weight-dsn6-5_crop1-dsn5_0_split <- weight-dsn6-5
I1125 12:06:14.060963 25992 net.cpp:408] weight-dsn6-5_crop1-dsn5_0_split -> weight-dsn6-5_crop1-dsn5_0_split_0
I1125 12:06:14.060968 25992 net.cpp:408] weight-dsn6-5_crop1-dsn5_0_split -> weight-dsn6-5_crop1-dsn5_0_split_1
I1125 12:06:14.061005 25992 net.cpp:150] Setting up weight-dsn6-5_crop1-dsn5_0_split
I1125 12:06:14.061010 25992 net.cpp:157] Top shape: 1 1 32 32 (1024)
I1125 12:06:14.061013 25992 net.cpp:157] Top shape: 1 1 32 32 (1024)
I1125 12:06:14.061015 25992 net.cpp:165] Memory required for data: 910203856
I1125 12:06:14.061017 25992 layer_factory.hpp:77] Creating layer sigmoid-dsn5
I1125 12:06:14.061024 25992 net.cpp:100] Creating Layer sigmoid-dsn5
I1125 12:06:14.061026 25992 net.cpp:434] sigmoid-dsn5 <- weight-dsn6-5_crop1-dsn5_0_split_0
I1125 12:06:14.061029 25992 net.cpp:408] sigmoid-dsn5 -> sigmoid-dsn5
I1125 12:06:14.061234 25992 net.cpp:150] Setting up sigmoid-dsn5
I1125 12:06:14.061242 25992 net.cpp:157] Top shape: 1 1 32 32 (1024)
I1125 12:06:14.061244 25992 net.cpp:165] Memory required for data: 910207952
I1125 12:06:14.061247 25992 layer_factory.hpp:77] Creating layer rev-dsn5
I1125 12:06:14.061252 25992 net.cpp:100] Creating Layer rev-dsn5
I1125 12:06:14.061259 25992 net.cpp:434] rev-dsn5 <- sigmoid-dsn5
I1125 12:06:14.061262 25992 net.cpp:408] rev-dsn5 -> rev-dsn5
I1125 12:06:14.061288 25992 net.cpp:150] Setting up rev-dsn5
I1125 12:06:14.061292 25992 net.cpp:157] Top shape: 1 1 32 32 (1024)
I1125 12:06:14.061295 25992 net.cpp:165] Memory required for data: 910212048
I1125 12:06:14.061296 25992 layer_factory.hpp:77] Creating layer tile-dsn5
I1125 12:06:14.061301 25992 net.cpp:100] Creating Layer tile-dsn5
I1125 12:06:14.061303 25992 net.cpp:434] tile-dsn5 <- rev-dsn5
I1125 12:06:14.061309 25992 net.cpp:408] tile-dsn5 -> weight-dsn5
I1125 12:06:14.061331 25992 net.cpp:150] Setting up tile-dsn5
I1125 12:06:14.061336 25992 net.cpp:157] Top shape: 1 512 32 32 (524288)
I1125 12:06:14.061337 25992 net.cpp:165] Memory required for data: 912309200
I1125 12:06:14.061341 25992 layer_factory.hpp:77] Creating layer prod1-dsn5
I1125 12:06:14.061348 25992 net.cpp:100] Creating Layer prod1-dsn5
I1125 12:06:14.061352 25992 net.cpp:434] prod1-dsn5 <- conv5_3_relu5_3_0_split_2
I1125 12:06:14.061354 25992 net.cpp:434] prod1-dsn5 <- weight-dsn5
I1125 12:06:14.061359 25992 net.cpp:408] prod1-dsn5 -> prod1-dsn5
I1125 12:06:14.061398 25992 net.cpp:150] Setting up prod1-dsn5
I1125 12:06:14.061403 25992 net.cpp:157] Top shape: 1 512 32 32 (524288)
I1125 12:06:14.061405 25992 net.cpp:165] Memory required for data: 914406352
I1125 12:06:14.061408 25992 layer_factory.hpp:77] Creating layer conv1-dsn5
I1125 12:06:14.061414 25992 net.cpp:100] Creating Layer conv1-dsn5
I1125 12:06:14.061419 25992 net.cpp:434] conv1-dsn5 <- prod1-dsn5
I1125 12:06:14.061424 25992 net.cpp:408] conv1-dsn5 -> conv1-dsn5
I1125 12:06:14.062815 25992 net.cpp:150] Setting up conv1-dsn5
I1125 12:06:14.062826 25992 net.cpp:157] Top shape: 1 64 32 32 (65536)
I1125 12:06:14.062829 25992 net.cpp:165] Memory required for data: 914668496
I1125 12:06:14.062834 25992 layer_factory.hpp:77] Creating layer conv2-dsn5
I1125 12:06:14.062844 25992 net.cpp:100] Creating Layer conv2-dsn5
I1125 12:06:14.062846 25992 net.cpp:434] conv2-dsn5 <- conv1-dsn5
I1125 12:06:14.062852 25992 net.cpp:408] conv2-dsn5 -> conv2-dsn5
I1125 12:06:14.064265 25992 net.cpp:150] Setting up conv2-dsn5
I1125 12:06:14.064276 25992 net.cpp:157] Top shape: 1 64 32 32 (65536)
I1125 12:06:14.064278 25992 net.cpp:165] Memory required for data: 914930640
I1125 12:06:14.064283 25992 layer_factory.hpp:77] Creating layer relu1-dsn5
I1125 12:06:14.064288 25992 net.cpp:100] Creating Layer relu1-dsn5
I1125 12:06:14.064291 25992 net.cpp:434] relu1-dsn5 <- conv2-dsn5
I1125 12:06:14.064296 25992 net.cpp:395] relu1-dsn5 -> conv2-dsn5 (in-place)
I1125 12:06:14.064461 25992 net.cpp:150] Setting up relu1-dsn5
I1125 12:06:14.064469 25992 net.cpp:157] Top shape: 1 64 32 32 (65536)
I1125 12:06:14.064471 25992 net.cpp:165] Memory required for data: 915192784
I1125 12:06:14.064473 25992 layer_factory.hpp:77] Creating layer conv3-dsn5
I1125 12:06:14.064482 25992 net.cpp:100] Creating Layer conv3-dsn5
I1125 12:06:14.064486 25992 net.cpp:434] conv3-dsn5 <- conv2-dsn5
I1125 12:06:14.064491 25992 net.cpp:408] conv3-dsn5 -> conv3-dsn5
I1125 12:06:14.065891 25992 net.cpp:150] Setting up conv3-dsn5
I1125 12:06:14.065903 25992 net.cpp:157] Top shape: 1 64 32 32 (65536)
I1125 12:06:14.065906 25992 net.cpp:165] Memory required for data: 915454928
I1125 12:06:14.065910 25992 layer_factory.hpp:77] Creating layer relu2-dsn5
I1125 12:06:14.065915 25992 net.cpp:100] Creating Layer relu2-dsn5
I1125 12:06:14.065918 25992 net.cpp:434] relu2-dsn5 <- conv3-dsn5
I1125 12:06:14.065922 25992 net.cpp:395] relu2-dsn5 -> conv3-dsn5 (in-place)
I1125 12:06:14.066087 25992 net.cpp:150] Setting up relu2-dsn5
I1125 12:06:14.066093 25992 net.cpp:157] Top shape: 1 64 32 32 (65536)
I1125 12:06:14.066095 25992 net.cpp:165] Memory required for data: 915717072
I1125 12:06:14.066098 25992 layer_factory.hpp:77] Creating layer conv4-dsn5
I1125 12:06:14.066109 25992 net.cpp:100] Creating Layer conv4-dsn5
I1125 12:06:14.066112 25992 net.cpp:434] conv4-dsn5 <- conv3-dsn5
I1125 12:06:14.066116 25992 net.cpp:408] conv4-dsn5 -> conv4-dsn5
I1125 12:06:14.067275 25992 net.cpp:150] Setting up conv4-dsn5
I1125 12:06:14.067286 25992 net.cpp:157] Top shape: 1 1 32 32 (1024)
I1125 12:06:14.067287 25992 net.cpp:165] Memory required for data: 915721168
I1125 12:06:14.067292 25992 layer_factory.hpp:77] Creating layer sum-dsn5
I1125 12:06:14.067310 25992 net.cpp:100] Creating Layer sum-dsn5
I1125 12:06:14.067313 25992 net.cpp:434] sum-dsn5 <- conv4-dsn5
I1125 12:06:14.067317 25992 net.cpp:434] sum-dsn5 <- weight-dsn6-5_crop1-dsn5_0_split_1
I1125 12:06:14.067322 25992 net.cpp:408] sum-dsn5 -> sum-dsn5
I1125 12:06:14.067350 25992 net.cpp:150] Setting up sum-dsn5
I1125 12:06:14.067355 25992 net.cpp:157] Top shape: 1 1 32 32 (1024)
I1125 12:06:14.067356 25992 net.cpp:165] Memory required for data: 915725264
I1125 12:06:14.067359 25992 layer_factory.hpp:77] Creating layer sum-dsn5_sum-dsn5_0_split
I1125 12:06:14.067363 25992 net.cpp:100] Creating Layer sum-dsn5_sum-dsn5_0_split
I1125 12:06:14.067365 25992 net.cpp:434] sum-dsn5_sum-dsn5_0_split <- sum-dsn5
I1125 12:06:14.067371 25992 net.cpp:408] sum-dsn5_sum-dsn5_0_split -> sum-dsn5_sum-dsn5_0_split_0
I1125 12:06:14.067376 25992 net.cpp:408] sum-dsn5_sum-dsn5_0_split -> sum-dsn5_sum-dsn5_0_split_1
I1125 12:06:14.067414 25992 net.cpp:150] Setting up sum-dsn5_sum-dsn5_0_split
I1125 12:06:14.067420 25992 net.cpp:157] Top shape: 1 1 32 32 (1024)
I1125 12:06:14.067422 25992 net.cpp:157] Top shape: 1 1 32 32 (1024)
I1125 12:06:14.067425 25992 net.cpp:165] Memory required for data: 915733456
I1125 12:06:14.067426 25992 layer_factory.hpp:77] Creating layer upsample16_dsn5
I1125 12:06:14.067431 25992 net.cpp:100] Creating Layer upsample16_dsn5
I1125 12:06:14.067435 25992 net.cpp:434] upsample16_dsn5 <- sum-dsn5_sum-dsn5_0_split_0
I1125 12:06:14.067440 25992 net.cpp:408] upsample16_dsn5 -> sum-dsn5-up
I1125 12:06:14.068868 25992 net.cpp:150] Setting up upsample16_dsn5
I1125 12:06:14.068879 25992 net.cpp:157] Top shape: 1 1 528 528 (278784)
I1125 12:06:14.068881 25992 net.cpp:165] Memory required for data: 916848592
I1125 12:06:14.068886 25992 layer_factory.hpp:77] Creating layer crop2-dsn5
I1125 12:06:14.068893 25992 net.cpp:100] Creating Layer crop2-dsn5
I1125 12:06:14.068895 25992 net.cpp:434] crop2-dsn5 <- sum-dsn5-up
I1125 12:06:14.068899 25992 net.cpp:434] crop2-dsn5 <- data_data_0_split_2
I1125 12:06:14.068903 25992 net.cpp:408] crop2-dsn5 -> upscore-dsn5
I1125 12:06:14.068938 25992 net.cpp:150] Setting up crop2-dsn5
I1125 12:06:14.068943 25992 net.cpp:157] Top shape: 1 1 500 500 (250000)
I1125 12:06:14.068944 25992 net.cpp:165] Memory required for data: 917848592
I1125 12:06:14.068946 25992 layer_factory.hpp:77] Creating layer loss5-score
I1125 12:06:14.068955 25992 net.cpp:100] Creating Layer loss5-score
I1125 12:06:14.068958 25992 net.cpp:434] loss5-score <- upscore-dsn5
I1125 12:06:14.068960 25992 net.cpp:434] loss5-score <- label_data_1_split_1
I1125 12:06:14.068965 25992 net.cpp:408] loss5-score -> loss5-score
I1125 12:06:14.069159 25992 net.cpp:150] Setting up loss5-score
I1125 12:06:14.069164 25992 net.cpp:157] Top shape: (1)
I1125 12:06:14.069166 25992 net.cpp:160]     with loss weight 1
I1125 12:06:14.069171 25992 net.cpp:165] Memory required for data: 917848596
I1125 12:06:14.069173 25992 layer_factory.hpp:77] Creating layer upsample2_dsn4
I1125 12:06:14.069180 25992 net.cpp:100] Creating Layer upsample2_dsn4
I1125 12:06:14.069182 25992 net.cpp:434] upsample2_dsn4 <- sum-dsn5_sum-dsn5_0_split_1
I1125 12:06:14.069188 25992 net.cpp:408] upsample2_dsn4 -> sum-dsn5-4
I1125 12:06:14.069452 25992 net.cpp:150] Setting up upsample2_dsn4
I1125 12:06:14.069458 25992 net.cpp:157] Top shape: 1 1 66 66 (4356)
I1125 12:06:14.069459 25992 net.cpp:165] Memory required for data: 917866020
I1125 12:06:14.069463 25992 layer_factory.hpp:77] Creating layer crop1-dsn4
I1125 12:06:14.069468 25992 net.cpp:100] Creating Layer crop1-dsn4
I1125 12:06:14.069471 25992 net.cpp:434] crop1-dsn4 <- sum-dsn5-4
I1125 12:06:14.069474 25992 net.cpp:434] crop1-dsn4 <- conv4_3_relu4_3_0_split_1
I1125 12:06:14.069478 25992 net.cpp:408] crop1-dsn4 -> weight-dsn5-4
I1125 12:06:14.069504 25992 net.cpp:150] Setting up crop1-dsn4
I1125 12:06:14.069507 25992 net.cpp:157] Top shape: 1 1 63 63 (3969)
I1125 12:06:14.069509 25992 net.cpp:165] Memory required for data: 917881896
I1125 12:06:14.069510 25992 layer_factory.hpp:77] Creating layer weight-dsn5-4_crop1-dsn4_0_split
I1125 12:06:14.069514 25992 net.cpp:100] Creating Layer weight-dsn5-4_crop1-dsn4_0_split
I1125 12:06:14.069517 25992 net.cpp:434] weight-dsn5-4_crop1-dsn4_0_split <- weight-dsn5-4
I1125 12:06:14.069522 25992 net.cpp:408] weight-dsn5-4_crop1-dsn4_0_split -> weight-dsn5-4_crop1-dsn4_0_split_0
I1125 12:06:14.069527 25992 net.cpp:408] weight-dsn5-4_crop1-dsn4_0_split -> weight-dsn5-4_crop1-dsn4_0_split_1
I1125 12:06:14.069564 25992 net.cpp:150] Setting up weight-dsn5-4_crop1-dsn4_0_split
I1125 12:06:14.069569 25992 net.cpp:157] Top shape: 1 1 63 63 (3969)
I1125 12:06:14.069572 25992 net.cpp:157] Top shape: 1 1 63 63 (3969)
I1125 12:06:14.069574 25992 net.cpp:165] Memory required for data: 917913648
I1125 12:06:14.069576 25992 layer_factory.hpp:77] Creating layer sigmoid-dsn4
I1125 12:06:14.069581 25992 net.cpp:100] Creating Layer sigmoid-dsn4
I1125 12:06:14.069582 25992 net.cpp:434] sigmoid-dsn4 <- weight-dsn5-4_crop1-dsn4_0_split_0
I1125 12:06:14.069587 25992 net.cpp:408] sigmoid-dsn4 -> sigmoid-dsn4
I1125 12:06:14.069772 25992 net.cpp:150] Setting up sigmoid-dsn4
I1125 12:06:14.069780 25992 net.cpp:157] Top shape: 1 1 63 63 (3969)
I1125 12:06:14.069782 25992 net.cpp:165] Memory required for data: 917929524
I1125 12:06:14.069784 25992 layer_factory.hpp:77] Creating layer rev-dsn4
I1125 12:06:14.069788 25992 net.cpp:100] Creating Layer rev-dsn4
I1125 12:06:14.069792 25992 net.cpp:434] rev-dsn4 <- sigmoid-dsn4
I1125 12:06:14.069797 25992 net.cpp:408] rev-dsn4 -> rev-dsn4
I1125 12:06:14.069820 25992 net.cpp:150] Setting up rev-dsn4
I1125 12:06:14.069824 25992 net.cpp:157] Top shape: 1 1 63 63 (3969)
I1125 12:06:14.069826 25992 net.cpp:165] Memory required for data: 917945400
I1125 12:06:14.069828 25992 layer_factory.hpp:77] Creating layer tile-dsn4
I1125 12:06:14.069834 25992 net.cpp:100] Creating Layer tile-dsn4
I1125 12:06:14.069838 25992 net.cpp:434] tile-dsn4 <- rev-dsn4
I1125 12:06:14.069840 25992 net.cpp:408] tile-dsn4 -> weight-dsn4
I1125 12:06:14.069864 25992 net.cpp:150] Setting up tile-dsn4
I1125 12:06:14.069867 25992 net.cpp:157] Top shape: 1 512 63 63 (2032128)
I1125 12:06:14.069869 25992 net.cpp:165] Memory required for data: 926073912
I1125 12:06:14.069872 25992 layer_factory.hpp:77] Creating layer prod1-dsn4
I1125 12:06:14.069877 25992 net.cpp:100] Creating Layer prod1-dsn4
I1125 12:06:14.069880 25992 net.cpp:434] prod1-dsn4 <- conv4_3_relu4_3_0_split_2
I1125 12:06:14.069882 25992 net.cpp:434] prod1-dsn4 <- weight-dsn4
I1125 12:06:14.069886 25992 net.cpp:408] prod1-dsn4 -> prod1-dsn4
I1125 12:06:14.069909 25992 net.cpp:150] Setting up prod1-dsn4
I1125 12:06:14.069914 25992 net.cpp:157] Top shape: 1 512 63 63 (2032128)
I1125 12:06:14.069916 25992 net.cpp:165] Memory required for data: 934202424
I1125 12:06:14.069918 25992 layer_factory.hpp:77] Creating layer conv1-dsn4
I1125 12:06:14.069926 25992 net.cpp:100] Creating Layer conv1-dsn4
I1125 12:06:14.069928 25992 net.cpp:434] conv1-dsn4 <- prod1-dsn4
I1125 12:06:14.069934 25992 net.cpp:408] conv1-dsn4 -> conv1-dsn4
I1125 12:06:14.071483 25992 net.cpp:150] Setting up conv1-dsn4
I1125 12:06:14.071494 25992 net.cpp:157] Top shape: 1 64 63 63 (254016)
I1125 12:06:14.071496 25992 net.cpp:165] Memory required for data: 935218488
I1125 12:06:14.071501 25992 layer_factory.hpp:77] Creating layer conv2-dsn4
I1125 12:06:14.071511 25992 net.cpp:100] Creating Layer conv2-dsn4
I1125 12:06:14.071512 25992 net.cpp:434] conv2-dsn4 <- conv1-dsn4
I1125 12:06:14.071519 25992 net.cpp:408] conv2-dsn4 -> conv2-dsn4
I1125 12:06:14.073235 25992 net.cpp:150] Setting up conv2-dsn4
I1125 12:06:14.073246 25992 net.cpp:157] Top shape: 1 64 63 63 (254016)
I1125 12:06:14.073248 25992 net.cpp:165] Memory required for data: 936234552
I1125 12:06:14.073253 25992 layer_factory.hpp:77] Creating layer relu1-dsn4
I1125 12:06:14.073257 25992 net.cpp:100] Creating Layer relu1-dsn4
I1125 12:06:14.073261 25992 net.cpp:434] relu1-dsn4 <- conv2-dsn4
I1125 12:06:14.073266 25992 net.cpp:395] relu1-dsn4 -> conv2-dsn4 (in-place)
I1125 12:06:14.073439 25992 net.cpp:150] Setting up relu1-dsn4
I1125 12:06:14.073446 25992 net.cpp:157] Top shape: 1 64 63 63 (254016)
I1125 12:06:14.073448 25992 net.cpp:165] Memory required for data: 937250616
I1125 12:06:14.073451 25992 layer_factory.hpp:77] Creating layer conv3-dsn4
I1125 12:06:14.073459 25992 net.cpp:100] Creating Layer conv3-dsn4
I1125 12:06:14.073462 25992 net.cpp:434] conv3-dsn4 <- conv2-dsn4
I1125 12:06:14.073468 25992 net.cpp:408] conv3-dsn4 -> conv3-dsn4
I1125 12:06:14.074878 25992 net.cpp:150] Setting up conv3-dsn4
I1125 12:06:14.074888 25992 net.cpp:157] Top shape: 1 64 63 63 (254016)
I1125 12:06:14.074890 25992 net.cpp:165] Memory required for data: 938266680
I1125 12:06:14.074895 25992 layer_factory.hpp:77] Creating layer relu2-dsn4
I1125 12:06:14.074899 25992 net.cpp:100] Creating Layer relu2-dsn4
I1125 12:06:14.074903 25992 net.cpp:434] relu2-dsn4 <- conv3-dsn4
I1125 12:06:14.074908 25992 net.cpp:395] relu2-dsn4 -> conv3-dsn4 (in-place)
I1125 12:06:14.075729 25992 net.cpp:150] Setting up relu2-dsn4
I1125 12:06:14.075739 25992 net.cpp:157] Top shape: 1 64 63 63 (254016)
I1125 12:06:14.075742 25992 net.cpp:165] Memory required for data: 939282744
I1125 12:06:14.075743 25992 layer_factory.hpp:77] Creating layer conv4-dsn4
I1125 12:06:14.075752 25992 net.cpp:100] Creating Layer conv4-dsn4
I1125 12:06:14.075755 25992 net.cpp:434] conv4-dsn4 <- conv3-dsn4
I1125 12:06:14.075762 25992 net.cpp:408] conv4-dsn4 -> conv4-dsn4
I1125 12:06:14.076913 25992 net.cpp:150] Setting up conv4-dsn4
I1125 12:06:14.076925 25992 net.cpp:157] Top shape: 1 1 63 63 (3969)
I1125 12:06:14.076926 25992 net.cpp:165] Memory required for data: 939298620
I1125 12:06:14.076930 25992 layer_factory.hpp:77] Creating layer sum-dsn4
I1125 12:06:14.076936 25992 net.cpp:100] Creating Layer sum-dsn4
I1125 12:06:14.076938 25992 net.cpp:434] sum-dsn4 <- conv4-dsn4
I1125 12:06:14.076942 25992 net.cpp:434] sum-dsn4 <- weight-dsn5-4_crop1-dsn4_0_split_1
I1125 12:06:14.076948 25992 net.cpp:408] sum-dsn4 -> sum-dsn4
I1125 12:06:14.076977 25992 net.cpp:150] Setting up sum-dsn4
I1125 12:06:14.076982 25992 net.cpp:157] Top shape: 1 1 63 63 (3969)
I1125 12:06:14.076983 25992 net.cpp:165] Memory required for data: 939314496
I1125 12:06:14.076985 25992 layer_factory.hpp:77] Creating layer sum-dsn4_sum-dsn4_0_split
I1125 12:06:14.076990 25992 net.cpp:100] Creating Layer sum-dsn4_sum-dsn4_0_split
I1125 12:06:14.076993 25992 net.cpp:434] sum-dsn4_sum-dsn4_0_split <- sum-dsn4
I1125 12:06:14.076998 25992 net.cpp:408] sum-dsn4_sum-dsn4_0_split -> sum-dsn4_sum-dsn4_0_split_0
I1125 12:06:14.077003 25992 net.cpp:408] sum-dsn4_sum-dsn4_0_split -> sum-dsn4_sum-dsn4_0_split_1
I1125 12:06:14.077039 25992 net.cpp:150] Setting up sum-dsn4_sum-dsn4_0_split
I1125 12:06:14.077046 25992 net.cpp:157] Top shape: 1 1 63 63 (3969)
I1125 12:06:14.077049 25992 net.cpp:157] Top shape: 1 1 63 63 (3969)
I1125 12:06:14.077050 25992 net.cpp:165] Memory required for data: 939346248
I1125 12:06:14.077052 25992 layer_factory.hpp:77] Creating layer upsample8_dsn4
I1125 12:06:14.077057 25992 net.cpp:100] Creating Layer upsample8_dsn4
I1125 12:06:14.077059 25992 net.cpp:434] upsample8_dsn4 <- sum-dsn4_sum-dsn4_0_split_0
I1125 12:06:14.077065 25992 net.cpp:408] upsample8_dsn4 -> sum-dsn4-up
I1125 12:06:14.078490 25992 net.cpp:150] Setting up upsample8_dsn4
I1125 12:06:14.078501 25992 net.cpp:157] Top shape: 1 1 512 512 (262144)
I1125 12:06:14.078503 25992 net.cpp:165] Memory required for data: 940394824
I1125 12:06:14.078508 25992 layer_factory.hpp:77] Creating layer crop2-dsn4
I1125 12:06:14.078514 25992 net.cpp:100] Creating Layer crop2-dsn4
I1125 12:06:14.078517 25992 net.cpp:434] crop2-dsn4 <- sum-dsn4-up
I1125 12:06:14.078521 25992 net.cpp:434] crop2-dsn4 <- data_data_0_split_3
I1125 12:06:14.078526 25992 net.cpp:408] crop2-dsn4 -> upscore-dsn4
I1125 12:06:14.078560 25992 net.cpp:150] Setting up crop2-dsn4
I1125 12:06:14.078564 25992 net.cpp:157] Top shape: 1 1 500 500 (250000)
I1125 12:06:14.078572 25992 net.cpp:165] Memory required for data: 941394824
I1125 12:06:14.078573 25992 layer_factory.hpp:77] Creating layer loss4-score
I1125 12:06:14.078579 25992 net.cpp:100] Creating Layer loss4-score
I1125 12:06:14.078583 25992 net.cpp:434] loss4-score <- upscore-dsn4
I1125 12:06:14.078585 25992 net.cpp:434] loss4-score <- label_data_1_split_2
I1125 12:06:14.078590 25992 net.cpp:408] loss4-score -> loss4-score
I1125 12:06:14.078770 25992 net.cpp:150] Setting up loss4-score
I1125 12:06:14.078776 25992 net.cpp:157] Top shape: (1)
I1125 12:06:14.078778 25992 net.cpp:160]     with loss weight 1
I1125 12:06:14.078783 25992 net.cpp:165] Memory required for data: 941394828
I1125 12:06:14.078785 25992 layer_factory.hpp:77] Creating layer upsample2_dsn3
I1125 12:06:14.078791 25992 net.cpp:100] Creating Layer upsample2_dsn3
I1125 12:06:14.078794 25992 net.cpp:434] upsample2_dsn3 <- sum-dsn4_sum-dsn4_0_split_1
I1125 12:06:14.078799 25992 net.cpp:408] upsample2_dsn3 -> sum-dsn4-3
I1125 12:06:14.079069 25992 net.cpp:150] Setting up upsample2_dsn3
I1125 12:06:14.079075 25992 net.cpp:157] Top shape: 1 1 128 128 (16384)
I1125 12:06:14.079077 25992 net.cpp:165] Memory required for data: 941460364
I1125 12:06:14.079082 25992 layer_factory.hpp:77] Creating layer crop1-dsn3
I1125 12:06:14.079084 25992 net.cpp:100] Creating Layer crop1-dsn3
I1125 12:06:14.079094 25992 net.cpp:434] crop1-dsn3 <- sum-dsn4-3
I1125 12:06:14.079097 25992 net.cpp:434] crop1-dsn3 <- conv3_3_relu3_3_0_split_1
I1125 12:06:14.079103 25992 net.cpp:408] crop1-dsn3 -> weight-dsn4-3
I1125 12:06:14.079154 25992 net.cpp:150] Setting up crop1-dsn3
I1125 12:06:14.079159 25992 net.cpp:157] Top shape: 1 1 125 125 (15625)
I1125 12:06:14.079161 25992 net.cpp:165] Memory required for data: 941522864
I1125 12:06:14.079164 25992 layer_factory.hpp:77] Creating layer weight-dsn4-3_crop1-dsn3_0_split
I1125 12:06:14.079169 25992 net.cpp:100] Creating Layer weight-dsn4-3_crop1-dsn3_0_split
I1125 12:06:14.079171 25992 net.cpp:434] weight-dsn4-3_crop1-dsn3_0_split <- weight-dsn4-3
I1125 12:06:14.079176 25992 net.cpp:408] weight-dsn4-3_crop1-dsn3_0_split -> weight-dsn4-3_crop1-dsn3_0_split_0
I1125 12:06:14.079181 25992 net.cpp:408] weight-dsn4-3_crop1-dsn3_0_split -> weight-dsn4-3_crop1-dsn3_0_split_1
I1125 12:06:14.079221 25992 net.cpp:150] Setting up weight-dsn4-3_crop1-dsn3_0_split
I1125 12:06:14.079227 25992 net.cpp:157] Top shape: 1 1 125 125 (15625)
I1125 12:06:14.079231 25992 net.cpp:157] Top shape: 1 1 125 125 (15625)
I1125 12:06:14.079231 25992 net.cpp:165] Memory required for data: 941647864
I1125 12:06:14.079233 25992 layer_factory.hpp:77] Creating layer sigmoid-dsn3
I1125 12:06:14.079239 25992 net.cpp:100] Creating Layer sigmoid-dsn3
I1125 12:06:14.079242 25992 net.cpp:434] sigmoid-dsn3 <- weight-dsn4-3_crop1-dsn3_0_split_0
I1125 12:06:14.079246 25992 net.cpp:408] sigmoid-dsn3 -> sigmoid-dsn3
I1125 12:06:14.079459 25992 net.cpp:150] Setting up sigmoid-dsn3
I1125 12:06:14.079468 25992 net.cpp:157] Top shape: 1 1 125 125 (15625)
I1125 12:06:14.079469 25992 net.cpp:165] Memory required for data: 941710364
I1125 12:06:14.079473 25992 layer_factory.hpp:77] Creating layer rev-dsn3
I1125 12:06:14.079476 25992 net.cpp:100] Creating Layer rev-dsn3
I1125 12:06:14.079479 25992 net.cpp:434] rev-dsn3 <- sigmoid-dsn3
I1125 12:06:14.079483 25992 net.cpp:408] rev-dsn3 -> rev-dsn3
I1125 12:06:14.079509 25992 net.cpp:150] Setting up rev-dsn3
I1125 12:06:14.079514 25992 net.cpp:157] Top shape: 1 1 125 125 (15625)
I1125 12:06:14.079515 25992 net.cpp:165] Memory required for data: 941772864
I1125 12:06:14.079517 25992 layer_factory.hpp:77] Creating layer tile-dsn3
I1125 12:06:14.079521 25992 net.cpp:100] Creating Layer tile-dsn3
I1125 12:06:14.079524 25992 net.cpp:434] tile-dsn3 <- rev-dsn3
I1125 12:06:14.079530 25992 net.cpp:408] tile-dsn3 -> weight-dsn3
I1125 12:06:14.079552 25992 net.cpp:150] Setting up tile-dsn3
I1125 12:06:14.079556 25992 net.cpp:157] Top shape: 1 256 125 125 (4000000)
I1125 12:06:14.079558 25992 net.cpp:165] Memory required for data: 957772864
I1125 12:06:14.079561 25992 layer_factory.hpp:77] Creating layer prod1-dsn3
I1125 12:06:14.079566 25992 net.cpp:100] Creating Layer prod1-dsn3
I1125 12:06:14.079567 25992 net.cpp:434] prod1-dsn3 <- conv3_3_relu3_3_0_split_2
I1125 12:06:14.079571 25992 net.cpp:434] prod1-dsn3 <- weight-dsn3
I1125 12:06:14.079576 25992 net.cpp:408] prod1-dsn3 -> prod1-dsn3
I1125 12:06:14.079603 25992 net.cpp:150] Setting up prod1-dsn3
I1125 12:06:14.079607 25992 net.cpp:157] Top shape: 1 256 125 125 (4000000)
I1125 12:06:14.079609 25992 net.cpp:165] Memory required for data: 973772864
I1125 12:06:14.079612 25992 layer_factory.hpp:77] Creating layer conv1-dsn3
I1125 12:06:14.079618 25992 net.cpp:100] Creating Layer conv1-dsn3
I1125 12:06:14.079622 25992 net.cpp:434] conv1-dsn3 <- prod1-dsn3
I1125 12:06:14.079627 25992 net.cpp:408] conv1-dsn3 -> conv1-dsn3
I1125 12:06:14.081210 25992 net.cpp:150] Setting up conv1-dsn3
I1125 12:06:14.081223 25992 net.cpp:157] Top shape: 1 64 125 125 (1000000)
I1125 12:06:14.081224 25992 net.cpp:165] Memory required for data: 977772864
I1125 12:06:14.081240 25992 layer_factory.hpp:77] Creating layer conv2-dsn3
I1125 12:06:14.081249 25992 net.cpp:100] Creating Layer conv2-dsn3
I1125 12:06:14.081252 25992 net.cpp:434] conv2-dsn3 <- conv1-dsn3
I1125 12:06:14.081259 25992 net.cpp:408] conv2-dsn3 -> conv2-dsn3
I1125 12:06:14.082717 25992 net.cpp:150] Setting up conv2-dsn3
I1125 12:06:14.082729 25992 net.cpp:157] Top shape: 1 64 125 125 (1000000)
I1125 12:06:14.082731 25992 net.cpp:165] Memory required for data: 981772864
I1125 12:06:14.082736 25992 layer_factory.hpp:77] Creating layer relu1-dsn3
I1125 12:06:14.082741 25992 net.cpp:100] Creating Layer relu1-dsn3
I1125 12:06:14.082743 25992 net.cpp:434] relu1-dsn3 <- conv2-dsn3
I1125 12:06:14.082748 25992 net.cpp:395] relu1-dsn3 -> conv2-dsn3 (in-place)
I1125 12:06:14.082908 25992 net.cpp:150] Setting up relu1-dsn3
I1125 12:06:14.082916 25992 net.cpp:157] Top shape: 1 64 125 125 (1000000)
I1125 12:06:14.082917 25992 net.cpp:165] Memory required for data: 985772864
I1125 12:06:14.082919 25992 layer_factory.hpp:77] Creating layer conv3-dsn3
I1125 12:06:14.082927 25992 net.cpp:100] Creating Layer conv3-dsn3
I1125 12:06:14.082931 25992 net.cpp:434] conv3-dsn3 <- conv2-dsn3
I1125 12:06:14.082937 25992 net.cpp:408] conv3-dsn3 -> conv3-dsn3
I1125 12:06:14.084405 25992 net.cpp:150] Setting up conv3-dsn3
I1125 12:06:14.084415 25992 net.cpp:157] Top shape: 1 64 125 125 (1000000)
I1125 12:06:14.084432 25992 net.cpp:165] Memory required for data: 989772864
I1125 12:06:14.084437 25992 layer_factory.hpp:77] Creating layer relu2-dsn3
I1125 12:06:14.084456 25992 net.cpp:100] Creating Layer relu2-dsn3
I1125 12:06:14.084460 25992 net.cpp:434] relu2-dsn3 <- conv3-dsn3
I1125 12:06:14.084465 25992 net.cpp:395] relu2-dsn3 -> conv3-dsn3 (in-place)
I1125 12:06:14.084625 25992 net.cpp:150] Setting up relu2-dsn3
I1125 12:06:14.084632 25992 net.cpp:157] Top shape: 1 64 125 125 (1000000)
I1125 12:06:14.084635 25992 net.cpp:165] Memory required for data: 993772864
I1125 12:06:14.084636 25992 layer_factory.hpp:77] Creating layer conv4-dsn3
I1125 12:06:14.084645 25992 net.cpp:100] Creating Layer conv4-dsn3
I1125 12:06:14.084648 25992 net.cpp:434] conv4-dsn3 <- conv3-dsn3
I1125 12:06:14.084653 25992 net.cpp:408] conv4-dsn3 -> conv4-dsn3
I1125 12:06:14.086112 25992 net.cpp:150] Setting up conv4-dsn3
I1125 12:06:14.086123 25992 net.cpp:157] Top shape: 1 1 125 125 (15625)
I1125 12:06:14.086129 25992 net.cpp:165] Memory required for data: 993835364
I1125 12:06:14.086134 25992 layer_factory.hpp:77] Creating layer sum-dsn3
I1125 12:06:14.086141 25992 net.cpp:100] Creating Layer sum-dsn3
I1125 12:06:14.086144 25992 net.cpp:434] sum-dsn3 <- conv4-dsn3
I1125 12:06:14.086148 25992 net.cpp:434] sum-dsn3 <- weight-dsn4-3_crop1-dsn3_0_split_1
I1125 12:06:14.086151 25992 net.cpp:408] sum-dsn3 -> sum-dsn3
I1125 12:06:14.086185 25992 net.cpp:150] Setting up sum-dsn3
I1125 12:06:14.086190 25992 net.cpp:157] Top shape: 1 1 125 125 (15625)
I1125 12:06:14.086192 25992 net.cpp:165] Memory required for data: 993897864
I1125 12:06:14.086194 25992 layer_factory.hpp:77] Creating layer sum-dsn3_sum-dsn3_0_split
I1125 12:06:14.086199 25992 net.cpp:100] Creating Layer sum-dsn3_sum-dsn3_0_split
I1125 12:06:14.086200 25992 net.cpp:434] sum-dsn3_sum-dsn3_0_split <- sum-dsn3
I1125 12:06:14.086205 25992 net.cpp:408] sum-dsn3_sum-dsn3_0_split -> sum-dsn3_sum-dsn3_0_split_0
I1125 12:06:14.086210 25992 net.cpp:408] sum-dsn3_sum-dsn3_0_split -> sum-dsn3_sum-dsn3_0_split_1
I1125 12:06:14.086251 25992 net.cpp:150] Setting up sum-dsn3_sum-dsn3_0_split
I1125 12:06:14.086256 25992 net.cpp:157] Top shape: 1 1 125 125 (15625)
I1125 12:06:14.086259 25992 net.cpp:157] Top shape: 1 1 125 125 (15625)
I1125 12:06:14.086261 25992 net.cpp:165] Memory required for data: 994022864
I1125 12:06:14.086263 25992 layer_factory.hpp:77] Creating layer upsample4_dsn3
I1125 12:06:14.086269 25992 net.cpp:100] Creating Layer upsample4_dsn3
I1125 12:06:14.086272 25992 net.cpp:434] upsample4_dsn3 <- sum-dsn3_sum-dsn3_0_split_0
I1125 12:06:14.086275 25992 net.cpp:408] upsample4_dsn3 -> sum-dsn3-up
I1125 12:06:14.087711 25992 net.cpp:150] Setting up upsample4_dsn3
I1125 12:06:14.087723 25992 net.cpp:157] Top shape: 1 1 504 504 (254016)
I1125 12:06:14.087724 25992 net.cpp:165] Memory required for data: 995038928
I1125 12:06:14.087729 25992 layer_factory.hpp:77] Creating layer crop2-dsn3
I1125 12:06:14.087733 25992 net.cpp:100] Creating Layer crop2-dsn3
I1125 12:06:14.087736 25992 net.cpp:434] crop2-dsn3 <- sum-dsn3-up
I1125 12:06:14.087740 25992 net.cpp:434] crop2-dsn3 <- data_data_0_split_4
I1125 12:06:14.087745 25992 net.cpp:408] crop2-dsn3 -> upscore-dsn3
I1125 12:06:14.087779 25992 net.cpp:150] Setting up crop2-dsn3
I1125 12:06:14.087783 25992 net.cpp:157] Top shape: 1 1 500 500 (250000)
I1125 12:06:14.087785 25992 net.cpp:165] Memory required for data: 996038928
I1125 12:06:14.087787 25992 layer_factory.hpp:77] Creating layer loss3-score
I1125 12:06:14.087795 25992 net.cpp:100] Creating Layer loss3-score
I1125 12:06:14.087797 25992 net.cpp:434] loss3-score <- upscore-dsn3
I1125 12:06:14.087800 25992 net.cpp:434] loss3-score <- label_data_1_split_3
I1125 12:06:14.087803 25992 net.cpp:408] loss3-score -> loss3-score
I1125 12:06:14.087988 25992 net.cpp:150] Setting up loss3-score
I1125 12:06:14.087994 25992 net.cpp:157] Top shape: (1)
I1125 12:06:14.087996 25992 net.cpp:160]     with loss weight 1
I1125 12:06:14.088001 25992 net.cpp:165] Memory required for data: 996038932
I1125 12:06:14.088003 25992 layer_factory.hpp:77] Creating layer upsample2_1-dsn2
I1125 12:06:14.088011 25992 net.cpp:100] Creating Layer upsample2_1-dsn2
I1125 12:06:14.088012 25992 net.cpp:434] upsample2_1-dsn2 <- sum-dsn3_sum-dsn3_0_split_1
I1125 12:06:14.088016 25992 net.cpp:408] upsample2_1-dsn2 -> sum-dsn3-2
I1125 12:06:14.088371 25992 net.cpp:150] Setting up upsample2_1-dsn2
I1125 12:06:14.088376 25992 net.cpp:157] Top shape: 1 1 252 252 (63504)
I1125 12:06:14.088378 25992 net.cpp:165] Memory required for data: 996292948
I1125 12:06:14.088397 25992 layer_factory.hpp:77] Creating layer crop1-dsn2
I1125 12:06:14.088402 25992 net.cpp:100] Creating Layer crop1-dsn2
I1125 12:06:14.088404 25992 net.cpp:434] crop1-dsn2 <- sum-dsn3-2
I1125 12:06:14.088407 25992 net.cpp:434] crop1-dsn2 <- conv2_2_relu2_2_0_split_1
I1125 12:06:14.088412 25992 net.cpp:408] crop1-dsn2 -> weight-dsn3-2
I1125 12:06:14.088441 25992 net.cpp:150] Setting up crop1-dsn2
I1125 12:06:14.088446 25992 net.cpp:157] Top shape: 1 1 250 250 (62500)
I1125 12:06:14.088448 25992 net.cpp:165] Memory required for data: 996542948
I1125 12:06:14.088450 25992 layer_factory.hpp:77] Creating layer weight-dsn3-2_crop1-dsn2_0_split
I1125 12:06:14.088469 25992 net.cpp:100] Creating Layer weight-dsn3-2_crop1-dsn2_0_split
I1125 12:06:14.088472 25992 net.cpp:434] weight-dsn3-2_crop1-dsn2_0_split <- weight-dsn3-2
I1125 12:06:14.088475 25992 net.cpp:408] weight-dsn3-2_crop1-dsn2_0_split -> weight-dsn3-2_crop1-dsn2_0_split_0
I1125 12:06:14.088480 25992 net.cpp:408] weight-dsn3-2_crop1-dsn2_0_split -> weight-dsn3-2_crop1-dsn2_0_split_1
I1125 12:06:14.088517 25992 net.cpp:150] Setting up weight-dsn3-2_crop1-dsn2_0_split
I1125 12:06:14.088523 25992 net.cpp:157] Top shape: 1 1 250 250 (62500)
I1125 12:06:14.088526 25992 net.cpp:157] Top shape: 1 1 250 250 (62500)
I1125 12:06:14.088527 25992 net.cpp:165] Memory required for data: 997042948
I1125 12:06:14.088529 25992 layer_factory.hpp:77] Creating layer sigmoid-dsn2
I1125 12:06:14.088536 25992 net.cpp:100] Creating Layer sigmoid-dsn2
I1125 12:06:14.088537 25992 net.cpp:434] sigmoid-dsn2 <- weight-dsn3-2_crop1-dsn2_0_split_0
I1125 12:06:14.088541 25992 net.cpp:408] sigmoid-dsn2 -> sigmoid-dsn2
I1125 12:06:14.088739 25992 net.cpp:150] Setting up sigmoid-dsn2
I1125 12:06:14.088747 25992 net.cpp:157] Top shape: 1 1 250 250 (62500)
I1125 12:06:14.088747 25992 net.cpp:165] Memory required for data: 997292948
I1125 12:06:14.088750 25992 layer_factory.hpp:77] Creating layer rev-dsn2
I1125 12:06:14.088754 25992 net.cpp:100] Creating Layer rev-dsn2
I1125 12:06:14.088757 25992 net.cpp:434] rev-dsn2 <- sigmoid-dsn2
I1125 12:06:14.088762 25992 net.cpp:408] rev-dsn2 -> rev-dsn2
I1125 12:06:14.088788 25992 net.cpp:150] Setting up rev-dsn2
I1125 12:06:14.088793 25992 net.cpp:157] Top shape: 1 1 250 250 (62500)
I1125 12:06:14.088795 25992 net.cpp:165] Memory required for data: 997542948
I1125 12:06:14.088798 25992 layer_factory.hpp:77] Creating layer tile-dsn2
I1125 12:06:14.088801 25992 net.cpp:100] Creating Layer tile-dsn2
I1125 12:06:14.088804 25992 net.cpp:434] tile-dsn2 <- rev-dsn2
I1125 12:06:14.088809 25992 net.cpp:408] tile-dsn2 -> weight-dsn2
I1125 12:06:14.088831 25992 net.cpp:150] Setting up tile-dsn2
I1125 12:06:14.088836 25992 net.cpp:157] Top shape: 1 128 250 250 (8000000)
I1125 12:06:14.088838 25992 net.cpp:165] Memory required for data: 1029542948
I1125 12:06:14.088840 25992 layer_factory.hpp:77] Creating layer prod1-dsn2
I1125 12:06:14.088845 25992 net.cpp:100] Creating Layer prod1-dsn2
I1125 12:06:14.088846 25992 net.cpp:434] prod1-dsn2 <- conv2_2_relu2_2_0_split_2
I1125 12:06:14.088850 25992 net.cpp:434] prod1-dsn2 <- weight-dsn2
I1125 12:06:14.088853 25992 net.cpp:408] prod1-dsn2 -> prod1-dsn2
I1125 12:06:14.088877 25992 net.cpp:150] Setting up prod1-dsn2
I1125 12:06:14.088881 25992 net.cpp:157] Top shape: 1 128 250 250 (8000000)
I1125 12:06:14.088883 25992 net.cpp:165] Memory required for data: 1061542948
I1125 12:06:14.088886 25992 layer_factory.hpp:77] Creating layer conv1-dsn2
I1125 12:06:14.088894 25992 net.cpp:100] Creating Layer conv1-dsn2
I1125 12:06:14.088896 25992 net.cpp:434] conv1-dsn2 <- prod1-dsn2
I1125 12:06:14.088902 25992 net.cpp:408] conv1-dsn2 -> conv1-dsn2
I1125 12:06:14.091400 25992 net.cpp:150] Setting up conv1-dsn2
I1125 12:06:14.091414 25992 net.cpp:157] Top shape: 1 64 250 250 (4000000)
I1125 12:06:14.091416 25992 net.cpp:165] Memory required for data: 1077542948
I1125 12:06:14.091423 25992 layer_factory.hpp:77] Creating layer conv2-dsn2
I1125 12:06:14.091431 25992 net.cpp:100] Creating Layer conv2-dsn2
I1125 12:06:14.091434 25992 net.cpp:434] conv2-dsn2 <- conv1-dsn2
I1125 12:06:14.091439 25992 net.cpp:408] conv2-dsn2 -> conv2-dsn2
I1125 12:06:14.094293 25992 net.cpp:150] Setting up conv2-dsn2
I1125 12:06:14.094305 25992 net.cpp:157] Top shape: 1 64 250 250 (4000000)
I1125 12:06:14.094307 25992 net.cpp:165] Memory required for data: 1093542948
I1125 12:06:14.094312 25992 layer_factory.hpp:77] Creating layer relu1-dsn2
I1125 12:06:14.094317 25992 net.cpp:100] Creating Layer relu1-dsn2
I1125 12:06:14.094319 25992 net.cpp:434] relu1-dsn2 <- conv2-dsn2
I1125 12:06:14.094326 25992 net.cpp:395] relu1-dsn2 -> conv2-dsn2 (in-place)
I1125 12:06:14.094502 25992 net.cpp:150] Setting up relu1-dsn2
I1125 12:06:14.094509 25992 net.cpp:157] Top shape: 1 64 250 250 (4000000)
I1125 12:06:14.094511 25992 net.cpp:165] Memory required for data: 1109542948
I1125 12:06:14.094513 25992 layer_factory.hpp:77] Creating layer conv3-dsn2
I1125 12:06:14.094524 25992 net.cpp:100] Creating Layer conv3-dsn2
I1125 12:06:14.094527 25992 net.cpp:434] conv3-dsn2 <- conv2-dsn2
I1125 12:06:14.094532 25992 net.cpp:408] conv3-dsn2 -> conv3-dsn2
I1125 12:06:14.095973 25992 net.cpp:150] Setting up conv3-dsn2
I1125 12:06:14.095984 25992 net.cpp:157] Top shape: 1 64 250 250 (4000000)
I1125 12:06:14.095986 25992 net.cpp:165] Memory required for data: 1125542948
I1125 12:06:14.095991 25992 layer_factory.hpp:77] Creating layer relu2-dsn2
I1125 12:06:14.095995 25992 net.cpp:100] Creating Layer relu2-dsn2
I1125 12:06:14.095999 25992 net.cpp:434] relu2-dsn2 <- conv3-dsn2
I1125 12:06:14.096001 25992 net.cpp:395] relu2-dsn2 -> conv3-dsn2 (in-place)
I1125 12:06:14.096177 25992 net.cpp:150] Setting up relu2-dsn2
I1125 12:06:14.096184 25992 net.cpp:157] Top shape: 1 64 250 250 (4000000)
I1125 12:06:14.096186 25992 net.cpp:165] Memory required for data: 1141542948
I1125 12:06:14.096189 25992 layer_factory.hpp:77] Creating layer conv4-dsn2
I1125 12:06:14.096199 25992 net.cpp:100] Creating Layer conv4-dsn2
I1125 12:06:14.096202 25992 net.cpp:434] conv4-dsn2 <- conv3-dsn2
I1125 12:06:14.096206 25992 net.cpp:408] conv4-dsn2 -> conv4-dsn2
I1125 12:06:14.097378 25992 net.cpp:150] Setting up conv4-dsn2
I1125 12:06:14.097388 25992 net.cpp:157] Top shape: 1 1 250 250 (62500)
I1125 12:06:14.097405 25992 net.cpp:165] Memory required for data: 1141792948
I1125 12:06:14.097411 25992 layer_factory.hpp:77] Creating layer sum-dsn2
I1125 12:06:14.097416 25992 net.cpp:100] Creating Layer sum-dsn2
I1125 12:06:14.097419 25992 net.cpp:434] sum-dsn2 <- conv4-dsn2
I1125 12:06:14.097424 25992 net.cpp:434] sum-dsn2 <- weight-dsn3-2_crop1-dsn2_0_split_1
I1125 12:06:14.097429 25992 net.cpp:408] sum-dsn2 -> sum-dsn2
I1125 12:06:14.097474 25992 net.cpp:150] Setting up sum-dsn2
I1125 12:06:14.097481 25992 net.cpp:157] Top shape: 1 1 250 250 (62500)
I1125 12:06:14.097482 25992 net.cpp:165] Memory required for data: 1142042948
I1125 12:06:14.097484 25992 layer_factory.hpp:77] Creating layer upsample2_2-dsn2
I1125 12:06:14.097489 25992 net.cpp:100] Creating Layer upsample2_2-dsn2
I1125 12:06:14.097491 25992 net.cpp:434] upsample2_2-dsn2 <- sum-dsn2
I1125 12:06:14.097496 25992 net.cpp:408] upsample2_2-dsn2 -> sum-dsn2-up
I1125 12:06:14.098953 25992 net.cpp:150] Setting up upsample2_2-dsn2
I1125 12:06:14.098965 25992 net.cpp:157] Top shape: 1 1 502 502 (252004)
I1125 12:06:14.098968 25992 net.cpp:165] Memory required for data: 1143050964
I1125 12:06:14.098973 25992 layer_factory.hpp:77] Creating layer crop2-dsn2
I1125 12:06:14.098978 25992 net.cpp:100] Creating Layer crop2-dsn2
I1125 12:06:14.098981 25992 net.cpp:434] crop2-dsn2 <- sum-dsn2-up
I1125 12:06:14.098984 25992 net.cpp:434] crop2-dsn2 <- data_data_0_split_5
I1125 12:06:14.098989 25992 net.cpp:408] crop2-dsn2 -> upscore-dsn2
I1125 12:06:14.099023 25992 net.cpp:150] Setting up crop2-dsn2
I1125 12:06:14.099027 25992 net.cpp:157] Top shape: 1 1 500 500 (250000)
I1125 12:06:14.099030 25992 net.cpp:165] Memory required for data: 1144050964
I1125 12:06:14.099031 25992 layer_factory.hpp:77] Creating layer upscore-dsn2_crop2-dsn2_0_split
I1125 12:06:14.099037 25992 net.cpp:100] Creating Layer upscore-dsn2_crop2-dsn2_0_split
I1125 12:06:14.099040 25992 net.cpp:434] upscore-dsn2_crop2-dsn2_0_split <- upscore-dsn2
I1125 12:06:14.099045 25992 net.cpp:408] upscore-dsn2_crop2-dsn2_0_split -> upscore-dsn2_crop2-dsn2_0_split_0
I1125 12:06:14.099050 25992 net.cpp:408] upscore-dsn2_crop2-dsn2_0_split -> upscore-dsn2_crop2-dsn2_0_split_1
I1125 12:06:14.099053 25992 net.cpp:408] upscore-dsn2_crop2-dsn2_0_split -> upscore-dsn2_crop2-dsn2_0_split_2
I1125 12:06:14.099123 25992 net.cpp:150] Setting up upscore-dsn2_crop2-dsn2_0_split
I1125 12:06:14.099133 25992 net.cpp:157] Top shape: 1 1 500 500 (250000)
I1125 12:06:14.099135 25992 net.cpp:157] Top shape: 1 1 500 500 (250000)
I1125 12:06:14.099139 25992 net.cpp:157] Top shape: 1 1 500 500 (250000)
I1125 12:06:14.099141 25992 net.cpp:165] Memory required for data: 1147050964
I1125 12:06:14.099143 25992 layer_factory.hpp:77] Creating layer loss2-score
I1125 12:06:14.099148 25992 net.cpp:100] Creating Layer loss2-score
I1125 12:06:14.099151 25992 net.cpp:434] loss2-score <- upscore-dsn2_crop2-dsn2_0_split_0
I1125 12:06:14.099154 25992 net.cpp:434] loss2-score <- label_data_1_split_4
I1125 12:06:14.099157 25992 net.cpp:408] loss2-score -> loss2-score
I1125 12:06:14.099344 25992 net.cpp:150] Setting up loss2-score
I1125 12:06:14.099350 25992 net.cpp:157] Top shape: (1)
I1125 12:06:14.099351 25992 net.cpp:160]     with loss weight 1
I1125 12:06:14.099356 25992 net.cpp:165] Memory required for data: 1147050968
I1125 12:06:14.099359 25992 layer_factory.hpp:77] Creating layer sigmoid-dsn1
I1125 12:06:14.099364 25992 net.cpp:100] Creating Layer sigmoid-dsn1
I1125 12:06:14.099365 25992 net.cpp:434] sigmoid-dsn1 <- upscore-dsn2_crop2-dsn2_0_split_1
I1125 12:06:14.099371 25992 net.cpp:408] sigmoid-dsn1 -> sigmoid-dsn1
I1125 12:06:14.099898 25992 net.cpp:150] Setting up sigmoid-dsn1
I1125 12:06:14.099908 25992 net.cpp:157] Top shape: 1 1 500 500 (250000)
I1125 12:06:14.099910 25992 net.cpp:165] Memory required for data: 1148050968
I1125 12:06:14.099913 25992 layer_factory.hpp:77] Creating layer rev-dsn1
I1125 12:06:14.099917 25992 net.cpp:100] Creating Layer rev-dsn1
I1125 12:06:14.099920 25992 net.cpp:434] rev-dsn1 <- sigmoid-dsn1
I1125 12:06:14.099927 25992 net.cpp:408] rev-dsn1 -> rev-dsn1
I1125 12:06:14.099956 25992 net.cpp:150] Setting up rev-dsn1
I1125 12:06:14.099961 25992 net.cpp:157] Top shape: 1 1 500 500 (250000)
I1125 12:06:14.099962 25992 net.cpp:165] Memory required for data: 1149050968
I1125 12:06:14.099964 25992 layer_factory.hpp:77] Creating layer tile-dsn1
I1125 12:06:14.099969 25992 net.cpp:100] Creating Layer tile-dsn1
I1125 12:06:14.099972 25992 net.cpp:434] tile-dsn1 <- rev-dsn1
I1125 12:06:14.099974 25992 net.cpp:408] tile-dsn1 -> weight-dsn1
I1125 12:06:14.099998 25992 net.cpp:150] Setting up tile-dsn1
I1125 12:06:14.100003 25992 net.cpp:157] Top shape: 1 64 500 500 (16000000)
I1125 12:06:14.100004 25992 net.cpp:165] Memory required for data: 1213050968
I1125 12:06:14.100006 25992 layer_factory.hpp:77] Creating layer prod1-dsn1
I1125 12:06:14.100013 25992 net.cpp:100] Creating Layer prod1-dsn1
I1125 12:06:14.100014 25992 net.cpp:434] prod1-dsn1 <- conv1_2_relu1_2_0_split_1
I1125 12:06:14.100018 25992 net.cpp:434] prod1-dsn1 <- weight-dsn1
I1125 12:06:14.100021 25992 net.cpp:408] prod1-dsn1 -> prod1-dsn1
I1125 12:06:14.100045 25992 net.cpp:150] Setting up prod1-dsn1
I1125 12:06:14.100052 25992 net.cpp:157] Top shape: 1 64 500 500 (16000000)
I1125 12:06:14.100054 25992 net.cpp:165] Memory required for data: 1277050968
I1125 12:06:14.100057 25992 layer_factory.hpp:77] Creating layer conv1-dsn1
I1125 12:06:14.100065 25992 net.cpp:100] Creating Layer conv1-dsn1
I1125 12:06:14.100067 25992 net.cpp:434] conv1-dsn1 <- prod1-dsn1
I1125 12:06:14.100073 25992 net.cpp:408] conv1-dsn1 -> conv1-dsn1
I1125 12:06:14.102403 25992 net.cpp:150] Setting up conv1-dsn1
I1125 12:06:14.102414 25992 net.cpp:157] Top shape: 1 64 500 500 (16000000)
I1125 12:06:14.102432 25992 net.cpp:165] Memory required for data: 1341050968
I1125 12:06:14.102437 25992 layer_factory.hpp:77] Creating layer conv2-dsn1
I1125 12:06:14.102476 25992 net.cpp:100] Creating Layer conv2-dsn1
I1125 12:06:14.102480 25992 net.cpp:434] conv2-dsn1 <- conv1-dsn1
I1125 12:06:14.102485 25992 net.cpp:408] conv2-dsn1 -> conv2-dsn1
I1125 12:06:14.104027 25992 net.cpp:150] Setting up conv2-dsn1
I1125 12:06:14.104038 25992 net.cpp:157] Top shape: 1 64 500 500 (16000000)
I1125 12:06:14.104040 25992 net.cpp:165] Memory required for data: 1405050968
I1125 12:06:14.104045 25992 layer_factory.hpp:77] Creating layer relu1-dsn1
I1125 12:06:14.104050 25992 net.cpp:100] Creating Layer relu1-dsn1
I1125 12:06:14.104053 25992 net.cpp:434] relu1-dsn1 <- conv2-dsn1
I1125 12:06:14.104056 25992 net.cpp:395] relu1-dsn1 -> conv2-dsn1 (in-place)
I1125 12:06:14.104565 25992 net.cpp:150] Setting up relu1-dsn1
I1125 12:06:14.104578 25992 net.cpp:157] Top shape: 1 64 500 500 (16000000)
I1125 12:06:14.104579 25992 net.cpp:165] Memory required for data: 1469050968
I1125 12:06:14.104581 25992 layer_factory.hpp:77] Creating layer conv3-dsn1
I1125 12:06:14.104591 25992 net.cpp:100] Creating Layer conv3-dsn1
I1125 12:06:14.104593 25992 net.cpp:434] conv3-dsn1 <- conv2-dsn1
I1125 12:06:14.104600 25992 net.cpp:408] conv3-dsn1 -> conv3-dsn1
I1125 12:06:14.107205 25992 net.cpp:150] Setting up conv3-dsn1
I1125 12:06:14.107221 25992 net.cpp:157] Top shape: 1 64 500 500 (16000000)
I1125 12:06:14.107239 25992 net.cpp:165] Memory required for data: 1533050968
I1125 12:06:14.107244 25992 layer_factory.hpp:77] Creating layer relu2-dsn1
I1125 12:06:14.107249 25992 net.cpp:100] Creating Layer relu2-dsn1
I1125 12:06:14.107252 25992 net.cpp:434] relu2-dsn1 <- conv3-dsn1
I1125 12:06:14.107256 25992 net.cpp:395] relu2-dsn1 -> conv3-dsn1 (in-place)
I1125 12:06:14.107458 25992 net.cpp:150] Setting up relu2-dsn1
I1125 12:06:14.107465 25992 net.cpp:157] Top shape: 1 64 500 500 (16000000)
I1125 12:06:14.107467 25992 net.cpp:165] Memory required for data: 1597050968
I1125 12:06:14.107470 25992 layer_factory.hpp:77] Creating layer conv4-dsn1
I1125 12:06:14.107479 25992 net.cpp:100] Creating Layer conv4-dsn1
I1125 12:06:14.107482 25992 net.cpp:434] conv4-dsn1 <- conv3-dsn1
I1125 12:06:14.107486 25992 net.cpp:408] conv4-dsn1 -> conv4-dsn1
I1125 12:06:14.108778 25992 net.cpp:150] Setting up conv4-dsn1
I1125 12:06:14.108789 25992 net.cpp:157] Top shape: 1 1 500 500 (250000)
I1125 12:06:14.108791 25992 net.cpp:165] Memory required for data: 1598050968
I1125 12:06:14.108796 25992 layer_factory.hpp:77] Creating layer sum-dsn1
I1125 12:06:14.108801 25992 net.cpp:100] Creating Layer sum-dsn1
I1125 12:06:14.108803 25992 net.cpp:434] sum-dsn1 <- conv4-dsn1
I1125 12:06:14.108808 25992 net.cpp:434] sum-dsn1 <- upscore-dsn2_crop2-dsn2_0_split_2
I1125 12:06:14.108814 25992 net.cpp:408] sum-dsn1 -> sum-dsn1
I1125 12:06:14.108844 25992 net.cpp:150] Setting up sum-dsn1
I1125 12:06:14.108850 25992 net.cpp:157] Top shape: 1 1 500 500 (250000)
I1125 12:06:14.108851 25992 net.cpp:165] Memory required for data: 1599050968
I1125 12:06:14.108855 25992 layer_factory.hpp:77] Creating layer crop2-dsn1
I1125 12:06:14.108865 25992 net.cpp:100] Creating Layer crop2-dsn1
I1125 12:06:14.108867 25992 net.cpp:434] crop2-dsn1 <- sum-dsn1
I1125 12:06:14.108870 25992 net.cpp:434] crop2-dsn1 <- data_data_0_split_6
I1125 12:06:14.108875 25992 net.cpp:408] crop2-dsn1 -> upscore-dsn1
I1125 12:06:14.108901 25992 net.cpp:150] Setting up crop2-dsn1
I1125 12:06:14.108906 25992 net.cpp:157] Top shape: 1 1 500 500 (250000)
I1125 12:06:14.108907 25992 net.cpp:165] Memory required for data: 1600050968
I1125 12:06:14.108909 25992 layer_factory.hpp:77] Creating layer loss1-score
I1125 12:06:14.108916 25992 net.cpp:100] Creating Layer loss1-score
I1125 12:06:14.108918 25992 net.cpp:434] loss1-score <- upscore-dsn1
I1125 12:06:14.108920 25992 net.cpp:434] loss1-score <- label_data_1_split_5
I1125 12:06:14.108925 25992 net.cpp:408] loss1-score -> loss1-score
…
