…
I1125 10:28:16.183784 17335 net.cpp:58] Initializing net from parameters: 
name: "RAS"
state {
  phase: TRAIN
}
layer {
  name: "data"
  type: "ImageLabelmapData"
  top: "data_unaugmented"
  top: "label_unaugmented"
  include {
    phase: TRAIN
  }
  transform_param {
    mean_value: 104.00699
    mean_value: 116.66877
    mean_value: 122.67892
  }
  image_data_param {
    source: "/media/compute/homes/galberding/FleckDetect/Datasets/train.txt"
    batch_size: 1
    shuffle: true
    new_height: 500
    new_width: 500
    root_folder: "/media/compute/homes/galberding/FleckDetect/Datasets/"
    normalize: true
  }
}
layer {
  name: "augmentation"
  type: "Python"
  bottom: "data_unaugmented"
  bottom: "label_unaugmented"
  top: "data"
  top: "label"
  include {
    phase: TRAIN
  }
  python_param {
    module: "data_augmentation"
    layer: "DataAugmentation"
  }
}
layer {
  name: "conv1_1"
  type: "Convolution"
  bottom: "data"
  top: "conv1_1"
  param {
    lr_mult: 1
    decay_mult: 1
  }
  param {
    lr_mult: 2
    decay_mult: 0
  }
  convolution_param {
    num_output: 64
    pad: 1
    kernel_size: 3
    engine: CUDNN
  }
}
layer {
  name: "relu1_1"
  type: "ReLU"
  bottom: "conv1_1"
  top: "conv1_1"
}
layer {
  name: "conv1_2"
  type: "Convolution"
  bottom: "conv1_1"
  top: "conv1_2"
  param {
    lr_mult: 1
    decay_mult: 1
  }
  param {
    lr_mult: 2
    decay_mult: 0
  }
  convolution_param {
    num_output: 64
    pad: 1
    kernel_size: 3
    engine: CUDNN
  }
}
layer {
  name: "relu1_2"
  type: "ReLU"
  bottom: "conv1_2"
  top: "conv1_2"
}
layer {
  name: "pool1"
  type: "Pooling"
  bottom: "conv1_2"
  top: "pool1"
  pooling_param {
    pool: MAX
    kernel_size: 2
    stride: 2
  }
}
layer {
  name: "conv2_1"
  type: "Convolution"
  bottom: "pool1"
  top: "conv2_1"
  param {
    lr_mult: 1
    decay_mult: 1
  }
  param {
    lr_mult: 2
    decay_mult: 0
  }
  convolution_param {
    num_output: 128
    pad: 1
    kernel_size: 3
    engine: CUDNN
  }
}
layer {
  name: "relu2_1"
  type: "ReLU"
  bottom: "conv2_1"
  top: "conv2_1"
}
layer {
  name: "conv2_2"
  type: "Convolution"
  bottom: "conv2_1"
  top: "conv2_2"
  param {
    lr_mult: 1
    decay_mult: 1
  }
  param {
    lr_mult: 2
    decay_mult: 0
  }
  convolution_param {
    num_output: 128
    pad: 1
    kernel_size: 3
    engine: CUDNN
  }
}
layer {
  name: "relu2_2"
  type: "ReLU"
  bottom: "conv2_2"
  top: "conv2_2"
}
layer {
  name: "pool2"
  type: "Pooling"
  bottom: "conv2_2"
  top: "pool2"
  pooling_param {
    pool: MAX
    kernel_size: 2
    stride: 2
  }
}
layer {
  name: "conv3_1"
  type: "Convolution"
  bottom: "pool2"
  top: "conv3_1"
  param {
    lr_mult: 1
    decay_mult: 1
  }
  param {
    lr_mult: 2
    decay_mult: 0
  }
  convolution_param {
    num_output: 256
    pad: 1
    kernel_size: 3
    engine: CUDNN
  }
}
layer {
  name: "relu3_1"
  type: "ReLU"
  bottom: "conv3_1"
  top: "conv3_1"
}
layer {
  name: "conv3_2"
  type: "Convolution"
  bottom: "conv3_1"
  top: "conv3_2"
  param {
    lr_mult: 1
    decay_mult: 1
  }
  param {
    lr_mult: 2
    decay_mult: 0
  }
  convolution_param {
    num_output: 256
    pad: 1
    kernel_size: 3
    engine: CUDNN
  }
}
layer {
  name: "relu3_2"
  type: "ReLU"
  bottom: "conv3_2"
  top: "conv3_2"
}
layer {
  name: "conv3_3"
  type: "Convolution"
  bottom: "conv3_2"
  top: "conv3_3"
  param {
    lr_mult: 1
    decay_mult: 1
  }
  param {
    lr_mult: 2
    decay_mult: 0
  }
  convolution_param {
    num_output: 256
    pad: 1
    kernel_size: 3
    engine: CUDNN
  }
}
layer {
  name: "relu3_3"
  type: "ReLU"
  bottom: "conv3_3"
  top: "conv3_3"
}
layer {
  name: "pool3"
  type: "Pooling"
  bottom: "conv3_3"
  top: "pool3"
  pooling_param {
    pool: MAX
    kernel_size: 2
    stride: 2
  }
}
layer {
  name: "conv4_1"
  type: "Convolution"
  bottom: "pool3"
  top: "conv4_1"
  param {
    lr_mult: 1
    decay_mult: 1
  }
  param {
    lr_mult: 2
    decay_mult: 0
  }
  convolution_param {
    num_output: 512
    pad: 1
    kernel_size: 3
    engine: CUDNN
  }
}
layer {
  name: "relu4_1"
  type: "ReLU"
  bottom: "conv4_1"
  top: "conv4_1"
}
layer {
  name: "conv4_2"
  type: "Convolution"
  bottom: "conv4_1"
  top: "conv4_2"
  param {
    lr_mult: 1
    decay_mult: 1
  }
  param {
    lr_mult: 2
    decay_mult: 0
  }
  convolution_param {
    num_output: 512
    pad: 1
    kernel_size: 3
    engine: CUDNN
  }
}
layer {
  name: "relu4_2"
  type: "ReLU"
  bottom: "conv4_2"
  top: "conv4_2"
}
layer {
  name: "conv4_3"
  type: "Convolution"
  bottom: "conv4_2"
  top: "conv4_3"
  param {
    lr_mult: 1
    decay_mult: 1
  }
  param {
    lr_mult: 2
    decay_mult: 0
  }
  convolution_param {
    num_output: 512
    pad: 1
    kernel_size: 3
    engine: CUDNN
  }
}
layer {
  name: "relu4_3"
  type: "ReLU"
  bottom: "conv4_3"
  top: "conv4_3"
}
layer {
  name: "pool4"
  type: "Pooling"
  bottom: "conv4_3"
  top: "pool4"
  pooling_param {
    pool: MAX
    kernel_size: 3
    stride: 2
    pad: 1
  }
}
layer {
  name: "conv5_1"
  type: "Convolution"
  bottom: "pool4"
  top: "conv5_1"
  param {
    lr_mult: 1
    decay_mult: 1
  }
  param {
    lr_mult: 2
    decay_mult: 0
  }
  convolution_param {
    num_output: 512
    pad: 1
    kernel_size: 3
    engine: CUDNN
  }
}
layer {
  name: "relu5_1"
  type: "ReLU"
  bottom: "conv5_1"
  top: "conv5_1"
}
layer {
  name: "conv5_2"
  type: "Convolution"
  bottom: "conv5_1"
  top: "conv5_2"
  param {
    lr_mult: 1
    decay_mult: 1
  }
  param {
    lr_mult: 2
    decay_mult: 0
  }
  convolution_param {
    num_output: 512
    pad: 1
    kernel_size: 3
    engine: CUDNN
  }
}
layer {
  name: "relu5_2"
  type: "ReLU"
  bottom: "conv5_2"
  top: "conv5_2"
}
layer {
  name: "conv5_3"
  type: "Convolution"
  bottom: "conv5_2"
  top: "conv5_3"
  param {
    lr_mult: 1
    decay_mult: 1
  }
  param {
    lr_mult: 2
    decay_mult: 0
  }
  convolution_param {
    num_output: 512
    pad: 1
    kernel_size: 3
    engine: CUDNN
  }
}
layer {
  name: "relu5_3"
  type: "ReLU"
  bottom: "conv5_3"
  top: "conv5_3"
}
layer {
  name: "pool5"
  type: "Pooling"
  bottom: "conv5_3"
  top: "pool5"
  pooling_param {
    pool: MAX
    kernel_size: 3
    stride: 2
    pad: 1
  }
}
layer {
  name: "conv1-dsn6"
  type: "Convolution"
  bottom: "pool5"
  top: "conv1-dsn6"
  param {
    lr_mult: 1
    decay_mult: 1
  }
  param {
    lr_mult: 2
    decay_mult: 0
  }
  convolution_param {
    num_output: 256
    kernel_size: 1
    weight_filler {
      type: "gaussian"
      std: 0.01
    }
    bias_filler {
      type: "constant"
      value: 0
    }
    engine: CUDNN
  }
}
layer {
  name: "conv2-dsn6"
  type: "Convolution"
  bottom: "conv1-dsn6"
  top: "conv2-dsn6"
  param {
    lr_mult: 1
    decay_mult: 1
  }
  param {
    lr_mult: 2
    decay_mult: 0
  }
  convolution_param {
    num_output: 256
    pad: 2
    kernel_size: 5
    weight_filler {
      type: "gaussian"
      std: 0.01
    }
    bias_filler {
      type: "constant"
      value: 0
    }
    engine: CUDNN
  }
}
layer {
  name: "relu1-dsn6"
  type: "ReLU"
  bottom: "conv2-dsn6"
  top: "conv2-dsn6"
}
layer {
  name: "conv3-dsn6"
  type: "Convolution"
  bottom: "conv2-dsn6"
  top: "conv3-dsn6"
  param {
    lr_mult: 1
    decay_mult: 1
  }
  param {
    lr_mult: 2
    decay_mult: 0
  }
  convolution_param {
    num_output: 256
    pad: 2
    kernel_size: 5
    weight_filler {
      type: "gaussian"
      std: 0.01
    }
    bias_filler {
      type: "constant"
      value: 0
    }
    engine: CUDNN
  }
}
layer {
  name: "relu2-dsn6"
  type: "ReLU"
  bottom: "conv3-dsn6"
  top: "conv3-dsn6"
}
layer {
  name: "conv4-dsn6"
  type: "Convolution"
  bottom: "conv3-dsn6"
  top: "conv4-dsn6"
  param {
    lr_mult: 1
    decay_mult: 1
  }
  param {
    lr_mult: 2
    decay_mult: 0
  }
  convolution_param {
    num_output: 256
    pad: 2
    kernel_size: 5
    weight_filler {
      type: "gaussian"
      std: 0.01
    }
    bias_filler {
      type: "constant"
      value: 0
    }
    engine: CUDNN
  }
}
layer {
  name: "relu3-dsn6"
  type: "ReLU"
  bottom: "conv4-dsn6"
  top: "conv4-dsn6"
}
layer {
  name: "conv5-dsn6"
  type: "Convolution"
  bottom: "conv4-dsn6"
  top: "conv5-dsn6"
  param {
    lr_mult: 0.1
    decay_mult: 1
  }
  param {
    lr_mult: 0.2
    decay_mult: 0
  }
  convolution_param {
    num_output: 1
    kernel_size: 1
    weight_filler {
      type: "gaussian"
      std: 0.01
    }
    bias_filler {
      type: "constant"
      value: 0
    }
    engine: CUDNN
  }
}
layer {
  name: "upsample32_dsn6"
  type: "Deconvolution"
  bottom: "conv5-dsn6"
  top: "conv5-dsn6-up"
  param {
    lr_mult: 0
    decay_mult: 1
  }
  param {
    lr_mult: 0
    decay_mult: 0
  }
  convolution_param {
    num_output: 1
    kernel_size: 64
    stride: 32
  }
}
layer {
  name: "crop-dsn6"
  type: "Crop"
  bottom: "conv5-dsn6-up"
  bottom: "data"
  top: "upscore-dsn6"
}
layer {
  name: "loss6-score"
  type: "SigmoidCrossEntropyLoss"
  bottom: "upscore-dsn6"
  bottom: "label"
  top: "loss6-score"
  loss_weight: 1
}
layer {
  name: "upsample2_dsn5"
  type: "Deconvolution"
  bottom: "conv5-dsn6"
  top: "conv5-dsn6-5"
  param {
    lr_mult: 0
    decay_mult: 1
  }
  param {
    lr_mult: 0
    decay_mult: 0
  }
  convolution_param {
    num_output: 1
    kernel_size: 4
    stride: 2
  }
}
layer {
  name: "crop1-dsn5"
  type: "Crop"
  bottom: "conv5-dsn6-5"
  bottom: "conv5_3"
  top: "weight-dsn6-5"
}
layer {
  name: "sigmoid-dsn5"
  type: "Sigmoid"
  bottom: "weight-dsn6-5"
  top: "sigmoid-dsn5"
}
layer {
  name: "rev-dsn5"
  type: "Power"
  bottom: "sigmoid-dsn5"
  top: "rev-dsn5"
  power_param {
    power: 1
    scale: -1
    shift: 1
  }
}
layer {
  name: "tile-dsn5"
  type: "Tile"
  bottom: "rev-dsn5"
  top: "weight-dsn5"
  tile_param {
    tiles: 512
  }
}
layer {
  name: "prod1-dsn5"
  type: "Eltwise"
  bottom: "conv5_3"
  bottom: "weight-dsn5"
  top: "prod1-dsn5"
  eltwise_param {
    operation: PROD
  }
}
layer {
  name: "conv1-dsn5"
  type: "Convolution"
  bottom: "prod1-dsn5"
  top: "conv1-dsn5"
  param {
    lr_mult: 1
    decay_mult: 1
  }
  param {
    lr_mult: 2
    decay_mult: 0
  }
  convolution_param {
    num_output: 64
    kernel_size: 1
    weight_filler {
      type: "gaussian"
      std: 0.01
    }
    bias_filler {
      type: "constant"
      value: 0
    }
    engine: CUDNN
  }
}
layer {
  name: "conv2-dsn5"
  type: "Convolution"
  bottom: "conv1-dsn5"
  top: "conv2-dsn5"
  param {
    lr_mult: 1
    decay_mult: 1
  }
  param {
    lr_mult: 2
    decay_mult: 0
  }
  convolution_param {
    num_output: 64
    pad: 1
    kernel_size: 3
    weight_filler {
      type: "gaussian"
      std: 0.01
    }
    bias_filler {
      type: "constant"
      value: 0
    }
    engine: CUDNN
  }
}
layer {
  name: "relu1-dsn5"
  type: "ReLU"
  bottom: "conv2-dsn5"
  top: "conv2-dsn5"
}
layer {
  name: "conv3-dsn5"
  type: "Convolution"
  bottom: "conv2-dsn5"
  top: "conv3-dsn5"
  param {
    lr_mult: 1
    decay_mult: 1
  }
  param {
    lr_mult: 2
    decay_mult: 0
  }
  convolution_param {
    num_output: 64
    pad: 1
    kernel_size: 3
    weight_filler {
      type: "gaussian"
      std: 0.01
    }
    bias_filler {
      type: "constant"
      value: 0
    }
    engine: CUDNN
  }
}
layer {
  name: "relu2-dsn5"
  type: "ReLU"
  bottom: "conv3-dsn5"
  top: "conv3-dsn5"
}
layer {
  name: "conv4-dsn5"
  type: "Convolution"
  bottom: "conv3-dsn5"
  top: "conv4-dsn5"
  param {
    lr_mult: 1
    decay_mult: 1
  }
  param {
    lr_mult: 2
    decay_mult: 0
  }
  convolution_param {
    num_output: 1
    pad: 1
    kernel_size: 3
    weight_filler {
      type: "gaussian"
      std: 0.01
    }
    bias_filler {
      type: "constant"
      value: 0
    }
    engine: CUDNN
  }
}
layer {
  name: "sum-dsn5"
  type: "Eltwise"
  bottom: "conv4-dsn5"
  bottom: "weight-dsn6-5"
  top: "sum-dsn5"
  eltwise_param {
    operation: SUM
  }
}
layer {
  name: "upsample16_dsn5"
  type: "Deconvolution"
  bottom: "sum-dsn5"
  top: "sum-dsn5-up"
  param {
    lr_mult: 0
    decay_mult: 1
  }
  param {
    lr_mult: 0
    decay_mult: 0
  }
  convolution_param {
    num_output: 1
    kernel_size: 32
    stride: 16
  }
}
layer {
  name: "crop2-dsn5"
  type: "Crop"
  bottom: "sum-dsn5-up"
  bottom: "data"
  top: "upscore-dsn5"
}
layer {
  name: "loss5-score"
  type: "SigmoidCrossEntropyLoss"
  bottom: "upscore-dsn5"
  bottom: "label"
  top: "loss5-score"
  loss_weight: 1
}
layer {
  name: "upsample2_dsn4"
  type: "Deconvolution"
  bottom: "sum-dsn5"
  top: "sum-dsn5-4"
  param {
    lr_mult: 0
    decay_mult: 1
  }
  param {
    lr_mult: 0
    decay_mult: 0
  }
  convolution_param {
    num_output: 1
    kernel_size: 4
    stride: 2
  }
}
layer {
  name: "crop1-dsn4"
  type: "Crop"
  bottom: "sum-dsn5-4"
  bottom: "conv4_3"
  top: "weight-dsn5-4"
}
layer {
  name: "sigmoid-dsn4"
  type: "Sigmoid"
  bottom: "weight-dsn5-4"
  top: "sigmoid-dsn4"
}
layer {
  name: "rev-dsn4"
  type: "Power"
  bottom: "sigmoid-dsn4"
  top: "rev-dsn4"
  power_param {
    power: 1
    scale: -1
    shift: 1
  }
}
layer {
  name: "tile-dsn4"
  type: "Tile"
  bottom: "rev-dsn4"
  top: "weight-dsn4"
  tile_param {
    tiles: 512
  }
}
layer {
  name: "prod1-dsn4"
  type: "Eltwise"
  bottom: "conv4_3"
  bottom: "weight-dsn4"
  top: "prod1-dsn4"
  eltwise_param {
    operation: PROD
  }
}
layer {
  name: "conv1-dsn4"
  type: "Convolution"
  bottom: "prod1-dsn4"
  top: "conv1-dsn4"
  param {
    lr_mult: 1
    decay_mult: 1
  }
  param {
    lr_mult: 2
    decay_mult: 0
  }
  convolution_param {
    num_output: 64
    kernel_size: 1
    weight_filler {
      type: "gaussian"
      std: 0.01
    }
    bias_filler {
      type: "constant"
      value: 0
    }
    engine: CUDNN
  }
}
layer {
  name: "conv2-dsn4"
  type: "Convolution"
  bottom: "conv1-dsn4"
  top: "conv2-dsn4"
  param {
    lr_mult: 1
    decay_mult: 1
  }
  param {
    lr_mult: 2
    decay_mult: 0
  }
  convolution_param {
    num_output: 64
    pad: 1
    kernel_size: 3
    weight_filler {
      type: "gaussian"
      std: 0.01
    }
    bias_filler {
      type: "constant"
      value: 0
    }
    engine: CUDNN
  }
}
layer {
  name: "relu1-dsn4"
  type: "ReLU"
  bottom: "conv2-dsn4"
  top: "conv2-dsn4"
}
layer {
  name: "conv3-dsn4"
  type: "Convolution"
  bottom: "conv2-dsn4"
  top: "conv3-dsn4"
  param {
    lr_mult: 1
    decay_mult: 1
  }
  param {
    lr_mult: 2
    decay_mult: 0
  }
  convolution_param {
    num_output: 64
    pad: 1
    kernel_size: 3
    weight_filler {
      type: "gaussian"
      std: 0.01
    }
    bias_filler {
      type: "constant"
      value: 0
    }
    engine: CUDNN
  }
}
layer {
  name: "relu2-dsn4"
  type: "ReLU"
  bottom: "conv3-dsn4"
  top: "conv3-dsn4"
}
layer {
  name: "conv4-dsn4"
  type: "Convolution"
  bottom: "conv3-dsn4"
  top: "conv4-dsn4"
  param {
    lr_mult: 1
    decay_mult: 1
  }
  param {
    lr_mult: 2
    decay_mult: 0
  }
  convolution_param {
    num_output: 1
    pad: 1
    kernel_size: 3
    weight_filler {
      type: "gaussian"
      std: 0.01
    }
    bias_filler {
      type: "constant"
      value: 0
    }
    engine: CUDNN
  }
}
layer {
  name: "sum-dsn4"
  type: "Eltwise"
  bottom: "conv4-dsn4"
  bottom: "weight-dsn5-4"
  top: "sum-dsn4"
  eltwise_param {
    operation: SUM
  }
}
layer {
  name: "upsample8_dsn4"
  type: "Deconvolution"
  bottom: "sum-dsn4"
  top: "sum-dsn4-up"
  param {
    lr_mult: 0
    decay_mult: 1
  }
  param {
    lr_mult: 0
    decay_mult: 0
  }
  convolution_param {
    num_output: 1
    kernel_size: 16
    stride: 8
  }
}
layer {
  name: "crop2-dsn4"
  type: "Crop"
  bottom: "sum-dsn4-up"
  bottom: "data"
  top: "upscore-dsn4"
}
layer {
  name: "loss4-score"
  type: "SigmoidCrossEntropyLoss"
  bottom: "upscore-dsn4"
  bottom: "label"
  top: "loss4-score"
  loss_weight: 1
}
layer {
  name: "upsample2_dsn3"
  type: "Deconvolution"
  bottom: "sum-dsn4"
  top: "sum-dsn4-3"
  param {
    lr_mult: 0
    decay_mult: 1
  }
  param {
    lr_mult: 0
    decay_mult: 0
  }
  convolution_param {
    num_output: 1
    kernel_size: 4
    stride: 2
  }
}
layer {
  name: "crop1-dsn3"
  type: "Crop"
  bottom: "sum-dsn4-3"
  bottom: "conv3_3"
  top: "weight-dsn4-3"
}
layer {
  name: "sigmoid-dsn3"
  type: "Sigmoid"
  bottom: "weight-dsn4-3"
  top: "sigmoid-dsn3"
}
layer {
  name: "rev-dsn3"
  type: "Power"
  bottom: "sigmoid-dsn3"
  top: "rev-dsn3"
  power_param {
    power: 1
    scale: -1
    shift: 1
  }
}
layer {
  name: "tile-dsn3"
  type: "Tile"
  bottom: "rev-dsn3"
  top: "weight-dsn3"
  tile_param {
    tiles: 256
  }
}
layer {
  name: "prod1-dsn3"
  type: "Eltwise"
  bottom: "conv3_3"
  bottom: "weight-dsn3"
  top: "prod1-dsn3"
  eltwise_param {
    operation: PROD
  }
}
layer {
  name: "conv1-dsn3"
  type: "Convolution"
  bottom: "prod1-dsn3"
  top: "conv1-dsn3"
  param {
    lr_mult: 1
    decay_mult: 1
  }
  param {
    lr_mult: 2
    decay_mult: 0
  }
  convolution_param {
    num_output: 64
    kernel_size: 1
    weight_filler {
      type: "gaussian"
      std: 0.01
    }
    bias_filler {
      type: "constant"
      value: 0
    }
    engine: CUDNN
  }
}
layer {
  name: "conv2-dsn3"
  type: "Convolution"
  bottom: "conv1-dsn3"
  top: "conv2-dsn3"
  param {
    lr_mult: 1
    decay_mult: 1
  }
  param {
    lr_mult: 2
    decay_mult: 0
  }
  convolution_param {
    num_output: 64
    pad: 1
    kernel_size: 3
    weight_filler {
      type: "gaussian"
      std: 0.01
    }
    bias_filler {
      type: "constant"
      value: 0
    }
    engine: CUDNN
  }
}
layer {
  name: "relu1-dsn3"
  type: "ReLU"
  bottom: "conv2-dsn3"
  top: "conv2-dsn3"
}
layer {
  name: "conv3-dsn3"
  type: "Convolution"
  bottom: "conv2-dsn3"
  top: "conv3-dsn3"
  param {
    lr_mult: 1
    decay_mult: 1
  }
  param {
    lr_mult: 2
    decay_mult: 0
  }
  convolution_param {
    num_output: 64
    pad: 1
    kernel_size: 3
    weight_filler {
      type: "gaussian"
      std: 0.01
    }
    bias_filler {
      type: "constant"
      value: 0
    }
    engine: CUDNN
  }
}
layer {
  name: "relu2-dsn3"
  type: "ReLU"
  bottom: "conv3-dsn3"
  top: "conv3-dsn3"
}
layer {
  name: "conv4-dsn3"
  type: "Convolution"
  bottom: "conv3-dsn3"
  top: "conv4-dsn3"
  param {
    lr_mult: 1
    decay_mult: 1
  }
  param {
    lr_mult: 2
    decay_mult: 0
  }
  convolution_param {
    num_output: 1
    pad: 1
    kernel_size: 3
    weight_filler {
      type: "gaussian"
      std: 0.01
    }
    bias_filler {
      type: "constant"
      value: 0
    }
    engine: CUDNN
  }
}
layer {
  name: "sum-dsn3"
  type: "Eltwise"
  bottom: "conv4-dsn3"
  bottom: "weight-dsn4-3"
  top: "sum-dsn3"
  eltwise_param {
    operation: SUM
  }
}
layer {
  name: "upsample4_dsn3"
  type: "Deconvolution"
  bottom: "sum-dsn3"
  top: "sum-dsn3-up"
  param {
    lr_mult: 0
    decay_mult: 1
  }
  param {
    lr_mult: 0
    decay_mult: 0
  }
  convolution_param {
    num_output: 1
    kernel_size: 8
    stride: 4
  }
}
layer {
  name: "crop2-dsn3"
  type: "Crop"
  bottom: "sum-dsn3-up"
  bottom: "data"
  top: "upscore-dsn3"
}
layer {
  name: "loss3-score"
  type: "SigmoidCrossEntropyLoss"
  bottom: "upscore-dsn3"
  bottom: "label"
  top: "loss3-score"
  loss_weight: 1
}
layer {
  name: "upsample2_1-dsn2"
  type: "Deconvolution"
  bottom: "sum-dsn3"
  top: "sum-dsn3-2"
  param {
    lr_mult: 0
    decay_mult: 1
  }
  param {
    lr_mult: 0
    decay_mult: 0
  }
  convolution_param {
    num_output: 1
    kernel_size: 4
    stride: 2
  }
}
layer {
  name: "crop1-dsn2"
  type: "Crop"
  bottom: "sum-dsn3-2"
  bottom: "conv2_2"
  top: "weight-dsn3-2"
}
layer {
  name: "sigmoid-dsn2"
  type: "Sigmoid"
  bottom: "weight-dsn3-2"
  top: "sigmoid-dsn2"
}
layer {
  name: "rev-dsn2"
  type: "Power"
  bottom: "sigmoid-dsn2"
  top: "rev-dsn2"
  power_param {
    power: 1
    scale: -1
    shift: 1
  }
}
layer {
  name: "tile-dsn2"
  type: "Tile"
  bottom: "rev-dsn2"
  top: "weight-dsn2"
  tile_param {
    tiles: 128
  }
}
layer {
  name: "prod1-dsn2"
  type: "Eltwise"
  bottom: "conv2_2"
  bottom: "weight-dsn2"
  top: "prod1-dsn2"
  eltwise_param {
    operation: PROD
  }
}
layer {
  name: "conv1-dsn2"
  type: "Convolution"
  bottom: "prod1-dsn2"
  top: "conv1-dsn2"
  param {
    lr_mult: 1
    decay_mult: 1
  }
  param {
    lr_mult: 2
    decay_mult: 0
  }
  convolution_param {
    num_output: 64
    kernel_size: 1
    weight_filler {
      type: "gaussian"
      std: 0.01
    }
    bias_filler {
      type: "constant"
      value: 0
    }
    engine: CUDNN
  }
}
layer {
  name: "conv2-dsn2"
  type: "Convolution"
  bottom: "conv1-dsn2"
  top: "conv2-dsn2"
  param {
    lr_mult: 1
    decay_mult: 1
  }
  param {
    lr_mult: 2
    decay_mult: 0
  }
  convolution_param {
    num_output: 64
    pad: 1
    kernel_size: 3
    weight_filler {
      type: "gaussian"
      std: 0.01
    }
    bias_filler {
      type: "constant"
      value: 0
    }
    engine: CUDNN
  }
}
layer {
  name: "relu1-dsn2"
  type: "ReLU"
  bottom: "conv2-dsn2"
  top: "conv2-dsn2"
}
layer {
  name: "conv3-dsn2"
  type: "Convolution"
  bottom: "conv2-dsn2"
  top: "conv3-dsn2"
  param {
    lr_mult: 1
    decay_mult: 1
  }
  param {
    lr_mult: 2
    decay_mult: 0
  }
  convolution_param {
    num_output: 64
    pad: 1
    kernel_size: 3
    weight_filler {
      type: "gaussian"
      std: 0.01
    }
    bias_filler {
      type: "constant"
      value: 0
    }
    engine: CUDNN
  }
}
layer {
  name: "relu2-dsn2"
  type: "ReLU"
  bottom: "conv3-dsn2"
  top: "conv3-dsn2"
}
layer {
  name: "conv4-dsn2"
  type: "Convolution"
  bottom: "conv3-dsn2"
  top: "conv4-dsn2"
  param {
    lr_mult: 1
    decay_mult: 1
  }
  param {
    lr_mult: 2
    decay_mult: 0
  }
  convolution_param {
    num_output: 1
    pad: 1
    kernel_size: 3
    weight_filler {
      type: "gaussian"
      std: 0.01
    }
    bias_filler {
      type: "constant"
      value: 0
    }
    engine: CUDNN
  }
}
layer {
  name: "sum-dsn2"
  type: "Eltwise"
  bottom: "conv4-dsn2"
  bottom: "weight-dsn3-2"
  top: "sum-dsn2"
  eltwise_param {
    operation: SUM
  }
}
layer {
  name: "upsample2_2-dsn2"
  type: "Deconvolution"
  bottom: "sum-dsn2"
  top: "sum-dsn2-up"
  param {
    lr_mult: 0
    decay_mult: 1
  }
  param {
    lr_mult: 0
    decay_mult: 0
  }
  convolution_param {
    num_output: 1
    kernel_size: 4
    stride: 2
  }
}
layer {
  name: "crop2-dsn2"
  type: "Crop"
  bottom: "sum-dsn2-up"
  bottom: "data"
  top: "upscore-dsn2"
}
layer {
  name: "loss2-score"
  type: "SigmoidCrossEntropyLoss"
  bottom: "upscore-dsn2"
  bottom: "label"
  top: "loss2-score"
  loss_weight: 1
}
layer {
  name: "sigmoid-dsn1"
  type: "Sigmoid"
  bottom: "upscore-dsn2"
  top: "sigmoid-dsn1"
}
layer {
  name: "rev-dsn1"
  type: "Power"
  bottom: "sigmoid-dsn1"
  top: "rev-dsn1"
  power_param {
    power: 1
    scale: -1
    shift: 1
  }
}
layer {
  name: "tile-dsn1"
  type: "Tile"
  bottom: "rev-dsn1"
  top: "weight-dsn1"
  tile_param {
    tiles: 64
  }
}
layer {
  name: "prod1-dsn1"
  type: "Eltwise"
  bottom: "conv1_2"
  bottom: "weight-dsn1"
  top: "prod1-dsn1"
  eltwise_param {
    operation: PROD
  }
}
layer {
  name: "conv1-dsn1"
  type: "Convolution"
  bottom: "prod1-dsn1"
  top: "conv1-dsn1"
  param {
    lr_mult: 1
    decay_mult: 1
  }
  param {
    lr_mult: 2
    decay_mult: 0
  }
  convolution_param {
    num_output: 64
    kernel_size: 1
    weight_filler {
      type: "gaussian"
      std: 0.01
    }
    bias_filler {
      type: "constant"
      value: 0
    }
    engine: CUDNN
  }
}
layer {
  name: "conv2-dsn1"
  type: "Convolution"
  bottom: "conv1-dsn1"
  top: "conv2-dsn1"
  param {
    lr_mult: 1
    decay_mult: 1
  }
  param {
    lr_mult: 2
    decay_mult: 0
  }
  convolution_param {
    num_output: 64
    pad: 1
    kernel_size: 3
    weight_filler {
      type: "gaussian"
      std: 0.01
    }
    bias_filler {
      type: "constant"
      value: 0
    }
    engine: CUDNN
  }
}
layer {
  name: "relu1-dsn1"
  type: "ReLU"
  bottom: "conv2-dsn1"
  top: "conv2-dsn1"
}
layer {
  name: "conv3-dsn1"
  type: "Convolution"
  bottom: "conv2-dsn1"
  top: "conv3-dsn1"
  param {
    lr_mult: 1
    decay_mult: 1
  }
  param {
    lr_mult: 2
    decay_mult: 0
  }
  convolution_param {
    num_output: 64
    pad: 1
    kernel_size: 3
    weight_filler {
      type: "gaussian"
      std: 0.01
    }
    bias_filler {
      type: "constant"
      value: 0
    }
    engine: CUDNN
  }
}
layer {
  name: "relu2-dsn1"
  type: "ReLU"
  bottom: "conv3-dsn1"
  top: "conv3-dsn1"
}
layer {
  name: "conv4-dsn1"
  type: "Convolution"
  bottom: "conv3-dsn1"
  top: "conv4-dsn1"
  param {
    lr_mult: 1
    decay_mult: 1
  }
  param {
    lr_mult: 2
    decay_mult: 0
  }
  convolution_param {
    num_output: 1
    pad: 1
    kernel_size: 3
    weight_filler {
      type: "gaussian"
      std: 0.01
    }
    bias_filler {
      type: "constant"
      value: 0
    }
    engine: CUDNN
  }
}
layer {
  name: "sum-dsn1"
  type: "Eltwise"
  bottom: "conv4-dsn1"
  bottom: "upscore-dsn2"
  top: "sum-dsn1"
  eltwise_param {
    operation: SUM
  }
}
layer {
  name: "crop2-dsn1"
  type: "Crop"
  bottom: "sum-dsn1"
  bottom: "data"
  top: "upscore-dsn1"
}
layer {
  name: "loss1-score"
  type: "SigmoidCrossEntropyLoss"
  bottom: "upscore-dsn1"
  bottom: "label"
  top: "loss1-score"
  loss_weight: 1
}
I1125 10:28:16.184346 17335 layer_factory.hpp:77] Creating layer data
I1125 10:28:16.184396 17335 net.cpp:100] Creating Layer data
I1125 10:28:16.184404 17335 net.cpp:408] data -> data_unaugmented
I1125 10:28:16.184417 17335 net.cpp:408] data -> label_unaugmented
I1125 10:28:16.184428 17335 image_labelmap_data_layer.cpp:41] Opening file /media/compute/homes/galberding/FleckDetect/Datasets/train.txt
I1125 10:28:16.189395 17335 image_labelmap_data_layer.cpp:51] Shuffling data
I1125 10:28:16.193673 17335 image_labelmap_data_layer.cpp:56] A total of 3600 images.
I1125 10:28:16.513372 17335 image_labelmap_data_layer.cpp:110] output data size: 1,3,500,500
I1125 10:28:16.513402 17335 image_labelmap_data_layer.cpp:113] output label size: 1,1,500,500
I1125 10:28:16.526152 17335 net.cpp:150] Setting up data
I1125 10:28:16.526185 17335 net.cpp:157] Top shape: 1 3 500 500 (750000)
I1125 10:28:16.526191 17335 net.cpp:157] Top shape: 1 1 500 500 (250000)
I1125 10:28:16.526194 17335 net.cpp:165] Memory required for data: 4000000
I1125 10:28:16.526226 17335 layer_factory.hpp:77] Creating layer augmentation
I1125 10:28:16.531606 17335 net.cpp:100] Creating Layer augmentation
I1125 10:28:16.531623 17335 net.cpp:434] augmentation <- data_unaugmented
I1125 10:28:16.531635 17335 net.cpp:434] augmentation <- label_unaugmented
I1125 10:28:16.531643 17335 net.cpp:408] augmentation -> data
I1125 10:28:16.531656 17335 net.cpp:408] augmentation -> label
I1125 10:28:16.534207 17335 net.cpp:150] Setting up augmentation
I1125 10:28:16.534226 17335 net.cpp:157] Top shape: 1 3 500 500 (750000)
I1125 10:28:16.534231 17335 net.cpp:157] Top shape: 1 1 500 500 (250000)
I1125 10:28:16.534235 17335 net.cpp:165] Memory required for data: 8000000
I1125 10:28:16.534238 17335 layer_factory.hpp:77] Creating layer data_augmentation_0_split
I1125 10:28:16.534255 17335 net.cpp:100] Creating Layer data_augmentation_0_split
I1125 10:28:16.534257 17335 net.cpp:434] data_augmentation_0_split <- data
I1125 10:28:16.534267 17335 net.cpp:408] data_augmentation_0_split -> data_augmentation_0_split_0
I1125 10:28:16.534278 17335 net.cpp:408] data_augmentation_0_split -> data_augmentation_0_split_1
I1125 10:28:16.534286 17335 net.cpp:408] data_augmentation_0_split -> data_augmentation_0_split_2
I1125 10:28:16.534292 17335 net.cpp:408] data_augmentation_0_split -> data_augmentation_0_split_3
I1125 10:28:16.534298 17335 net.cpp:408] data_augmentation_0_split -> data_augmentation_0_split_4
I1125 10:28:16.534307 17335 net.cpp:408] data_augmentation_0_split -> data_augmentation_0_split_5
I1125 10:28:16.534312 17335 net.cpp:408] data_augmentation_0_split -> data_augmentation_0_split_6
I1125 10:28:16.534423 17335 net.cpp:150] Setting up data_augmentation_0_split
I1125 10:28:16.534433 17335 net.cpp:157] Top shape: 1 3 500 500 (750000)
I1125 10:28:16.534436 17335 net.cpp:157] Top shape: 1 3 500 500 (750000)
I1125 10:28:16.534440 17335 net.cpp:157] Top shape: 1 3 500 500 (750000)
I1125 10:28:16.534445 17335 net.cpp:157] Top shape: 1 3 500 500 (750000)
I1125 10:28:16.534448 17335 net.cpp:157] Top shape: 1 3 500 500 (750000)
I1125 10:28:16.534452 17335 net.cpp:157] Top shape: 1 3 500 500 (750000)
I1125 10:28:16.534456 17335 net.cpp:157] Top shape: 1 3 500 500 (750000)
I1125 10:28:16.534458 17335 net.cpp:165] Memory required for data: 29000000
I1125 10:28:16.534462 17335 layer_factory.hpp:77] Creating layer label_augmentation_1_split
I1125 10:28:16.534469 17335 net.cpp:100] Creating Layer label_augmentation_1_split
I1125 10:28:16.534472 17335 net.cpp:434] label_augmentation_1_split <- label
I1125 10:28:16.534482 17335 net.cpp:408] label_augmentation_1_split -> label_augmentation_1_split_0
I1125 10:28:16.534488 17335 net.cpp:408] label_augmentation_1_split -> label_augmentation_1_split_1
I1125 10:28:16.534494 17335 net.cpp:408] label_augmentation_1_split -> label_augmentation_1_split_2
I1125 10:28:16.534502 17335 net.cpp:408] label_augmentation_1_split -> label_augmentation_1_split_3
I1125 10:28:16.534507 17335 net.cpp:408] label_augmentation_1_split -> label_augmentation_1_split_4
I1125 10:28:16.534512 17335 net.cpp:408] label_augmentation_1_split -> label_augmentation_1_split_5
I1125 10:28:16.534592 17335 net.cpp:150] Setting up label_augmentation_1_split
I1125 10:28:16.534600 17335 net.cpp:157] Top shape: 1 1 500 500 (250000)
I1125 10:28:16.534603 17335 net.cpp:157] Top shape: 1 1 500 500 (250000)
I1125 10:28:16.534607 17335 net.cpp:157] Top shape: 1 1 500 500 (250000)
I1125 10:28:16.534610 17335 net.cpp:157] Top shape: 1 1 500 500 (250000)
I1125 10:28:16.534615 17335 net.cpp:157] Top shape: 1 1 500 500 (250000)
I1125 10:28:16.534617 17335 net.cpp:157] Top shape: 1 1 500 500 (250000)
I1125 10:28:16.534621 17335 net.cpp:165] Memory required for data: 35000000
I1125 10:28:16.534626 17335 layer_factory.hpp:77] Creating layer conv1_1
I1125 10:28:16.534641 17335 net.cpp:100] Creating Layer conv1_1
I1125 10:28:16.534647 17335 net.cpp:434] conv1_1 <- data_augmentation_0_split_0
I1125 10:28:16.534656 17335 net.cpp:408] conv1_1 -> conv1_1
I1125 10:28:16.824313 17335 net.cpp:150] Setting up conv1_1
I1125 10:28:16.824345 17335 net.cpp:157] Top shape: 1 64 500 500 (16000000)
I1125 10:28:16.824348 17335 net.cpp:165] Memory required for data: 99000000
I1125 10:28:16.824368 17335 layer_factory.hpp:77] Creating layer relu1_1
I1125 10:28:16.824381 17335 net.cpp:100] Creating Layer relu1_1
I1125 10:28:16.824384 17335 net.cpp:434] relu1_1 <- conv1_1
I1125 10:28:16.824404 17335 net.cpp:395] relu1_1 -> conv1_1 (in-place)
I1125 10:28:16.824553 17335 net.cpp:150] Setting up relu1_1
I1125 10:28:16.824559 17335 net.cpp:157] Top shape: 1 64 500 500 (16000000)
I1125 10:28:16.824563 17335 net.cpp:165] Memory required for data: 163000000
I1125 10:28:16.824564 17335 layer_factory.hpp:77] Creating layer conv1_2
I1125 10:28:16.824574 17335 net.cpp:100] Creating Layer conv1_2
I1125 10:28:16.824576 17335 net.cpp:434] conv1_2 <- conv1_1
I1125 10:28:16.824582 17335 net.cpp:408] conv1_2 -> conv1_2
I1125 10:28:16.826534 17335 net.cpp:150] Setting up conv1_2
I1125 10:28:16.826545 17335 net.cpp:157] Top shape: 1 64 500 500 (16000000)
I1125 10:28:16.826548 17335 net.cpp:165] Memory required for data: 227000000
I1125 10:28:16.826555 17335 layer_factory.hpp:77] Creating layer relu1_2
I1125 10:28:16.826562 17335 net.cpp:100] Creating Layer relu1_2
I1125 10:28:16.826565 17335 net.cpp:434] relu1_2 <- conv1_2
I1125 10:28:16.826568 17335 net.cpp:395] relu1_2 -> conv1_2 (in-place)
I1125 10:28:16.826706 17335 net.cpp:150] Setting up relu1_2
I1125 10:28:16.826714 17335 net.cpp:157] Top shape: 1 64 500 500 (16000000)
I1125 10:28:16.826715 17335 net.cpp:165] Memory required for data: 291000000
I1125 10:28:16.826717 17335 layer_factory.hpp:77] Creating layer conv1_2_relu1_2_0_split
I1125 10:28:16.826725 17335 net.cpp:100] Creating Layer conv1_2_relu1_2_0_split
I1125 10:28:16.826727 17335 net.cpp:434] conv1_2_relu1_2_0_split <- conv1_2
I1125 10:28:16.826731 17335 net.cpp:408] conv1_2_relu1_2_0_split -> conv1_2_relu1_2_0_split_0
I1125 10:28:16.826736 17335 net.cpp:408] conv1_2_relu1_2_0_split -> conv1_2_relu1_2_0_split_1
I1125 10:28:16.826766 17335 net.cpp:150] Setting up conv1_2_relu1_2_0_split
I1125 10:28:16.826771 17335 net.cpp:157] Top shape: 1 64 500 500 (16000000)
I1125 10:28:16.826774 17335 net.cpp:157] Top shape: 1 64 500 500 (16000000)
I1125 10:28:16.826776 17335 net.cpp:165] Memory required for data: 419000000
I1125 10:28:16.826778 17335 layer_factory.hpp:77] Creating layer pool1
I1125 10:28:16.826784 17335 net.cpp:100] Creating Layer pool1
I1125 10:28:16.826787 17335 net.cpp:434] pool1 <- conv1_2_relu1_2_0_split_0
I1125 10:28:16.826792 17335 net.cpp:408] pool1 -> pool1
I1125 10:28:16.826818 17335 net.cpp:150] Setting up pool1
I1125 10:28:16.826822 17335 net.cpp:157] Top shape: 1 64 250 250 (4000000)
I1125 10:28:16.826825 17335 net.cpp:165] Memory required for data: 435000000
I1125 10:28:16.826828 17335 layer_factory.hpp:77] Creating layer conv2_1
I1125 10:28:16.826833 17335 net.cpp:100] Creating Layer conv2_1
I1125 10:28:16.826835 17335 net.cpp:434] conv2_1 <- pool1
I1125 10:28:16.826841 17335 net.cpp:408] conv2_1 -> conv2_1
I1125 10:28:16.828953 17335 net.cpp:150] Setting up conv2_1
I1125 10:28:16.828964 17335 net.cpp:157] Top shape: 1 128 250 250 (8000000)
I1125 10:28:16.828966 17335 net.cpp:165] Memory required for data: 467000000
I1125 10:28:16.828976 17335 layer_factory.hpp:77] Creating layer relu2_1
I1125 10:28:16.828981 17335 net.cpp:100] Creating Layer relu2_1
I1125 10:28:16.828984 17335 net.cpp:434] relu2_1 <- conv2_1
I1125 10:28:16.828987 17335 net.cpp:395] relu2_1 -> conv2_1 (in-place)
I1125 10:28:16.829120 17335 net.cpp:150] Setting up relu2_1
I1125 10:28:16.829133 17335 net.cpp:157] Top shape: 1 128 250 250 (8000000)
I1125 10:28:16.829135 17335 net.cpp:165] Memory required for data: 499000000
I1125 10:28:16.829138 17335 layer_factory.hpp:77] Creating layer conv2_2
I1125 10:28:16.829144 17335 net.cpp:100] Creating Layer conv2_2
I1125 10:28:16.829145 17335 net.cpp:434] conv2_2 <- conv2_1
I1125 10:28:16.829149 17335 net.cpp:408] conv2_2 -> conv2_2
I1125 10:28:16.830269 17335 net.cpp:150] Setting up conv2_2
I1125 10:28:16.830281 17335 net.cpp:157] Top shape: 1 128 250 250 (8000000)
I1125 10:28:16.830282 17335 net.cpp:165] Memory required for data: 531000000
I1125 10:28:16.830287 17335 layer_factory.hpp:77] Creating layer relu2_2
I1125 10:28:16.830291 17335 net.cpp:100] Creating Layer relu2_2
I1125 10:28:16.830294 17335 net.cpp:434] relu2_2 <- conv2_2
I1125 10:28:16.830298 17335 net.cpp:395] relu2_2 -> conv2_2 (in-place)
I1125 10:28:16.830427 17335 net.cpp:150] Setting up relu2_2
I1125 10:28:16.830433 17335 net.cpp:157] Top shape: 1 128 250 250 (8000000)
I1125 10:28:16.830436 17335 net.cpp:165] Memory required for data: 563000000
I1125 10:28:16.830438 17335 layer_factory.hpp:77] Creating layer conv2_2_relu2_2_0_split
I1125 10:28:16.830442 17335 net.cpp:100] Creating Layer conv2_2_relu2_2_0_split
I1125 10:28:16.830444 17335 net.cpp:434] conv2_2_relu2_2_0_split <- conv2_2
I1125 10:28:16.830451 17335 net.cpp:408] conv2_2_relu2_2_0_split -> conv2_2_relu2_2_0_split_0
I1125 10:28:16.830456 17335 net.cpp:408] conv2_2_relu2_2_0_split -> conv2_2_relu2_2_0_split_1
I1125 10:28:16.830461 17335 net.cpp:408] conv2_2_relu2_2_0_split -> conv2_2_relu2_2_0_split_2
I1125 10:28:16.830499 17335 net.cpp:150] Setting up conv2_2_relu2_2_0_split
I1125 10:28:16.830504 17335 net.cpp:157] Top shape: 1 128 250 250 (8000000)
I1125 10:28:16.830507 17335 net.cpp:157] Top shape: 1 128 250 250 (8000000)
I1125 10:28:16.830510 17335 net.cpp:157] Top shape: 1 128 250 250 (8000000)
I1125 10:28:16.830513 17335 net.cpp:165] Memory required for data: 659000000
I1125 10:28:16.830515 17335 layer_factory.hpp:77] Creating layer pool2
I1125 10:28:16.830520 17335 net.cpp:100] Creating Layer pool2
I1125 10:28:16.830523 17335 net.cpp:434] pool2 <- conv2_2_relu2_2_0_split_0
I1125 10:28:16.830526 17335 net.cpp:408] pool2 -> pool2
I1125 10:28:16.830551 17335 net.cpp:150] Setting up pool2
I1125 10:28:16.830556 17335 net.cpp:157] Top shape: 1 128 125 125 (2000000)
I1125 10:28:16.830559 17335 net.cpp:165] Memory required for data: 667000000
I1125 10:28:16.830560 17335 layer_factory.hpp:77] Creating layer conv3_1
I1125 10:28:16.830569 17335 net.cpp:100] Creating Layer conv3_1
I1125 10:28:16.830571 17335 net.cpp:434] conv3_1 <- pool2
I1125 10:28:16.830575 17335 net.cpp:408] conv3_1 -> conv3_1
I1125 10:28:16.832789 17335 net.cpp:150] Setting up conv3_1
I1125 10:28:16.832800 17335 net.cpp:157] Top shape: 1 256 125 125 (4000000)
I1125 10:28:16.832803 17335 net.cpp:165] Memory required for data: 683000000
I1125 10:28:16.832811 17335 layer_factory.hpp:77] Creating layer relu3_1
I1125 10:28:16.832816 17335 net.cpp:100] Creating Layer relu3_1
I1125 10:28:16.832819 17335 net.cpp:434] relu3_1 <- conv3_1
I1125 10:28:16.832823 17335 net.cpp:395] relu3_1 -> conv3_1 (in-place)
I1125 10:28:16.833209 17335 net.cpp:150] Setting up relu3_1
I1125 10:28:16.833220 17335 net.cpp:157] Top shape: 1 256 125 125 (4000000)
I1125 10:28:16.833237 17335 net.cpp:165] Memory required for data: 699000000
I1125 10:28:16.833240 17335 layer_factory.hpp:77] Creating layer conv3_2
I1125 10:28:16.833246 17335 net.cpp:100] Creating Layer conv3_2
I1125 10:28:16.833250 17335 net.cpp:434] conv3_2 <- conv3_1
I1125 10:28:16.833256 17335 net.cpp:408] conv3_2 -> conv3_2
I1125 10:28:16.835490 17335 net.cpp:150] Setting up conv3_2
I1125 10:28:16.835501 17335 net.cpp:157] Top shape: 1 256 125 125 (4000000)
I1125 10:28:16.835503 17335 net.cpp:165] Memory required for data: 715000000
I1125 10:28:16.835510 17335 layer_factory.hpp:77] Creating layer relu3_2
I1125 10:28:16.835515 17335 net.cpp:100] Creating Layer relu3_2
I1125 10:28:16.835517 17335 net.cpp:434] relu3_2 <- conv3_2
I1125 10:28:16.835520 17335 net.cpp:395] relu3_2 -> conv3_2 (in-place)
I1125 10:28:16.835875 17335 net.cpp:150] Setting up relu3_2
I1125 10:28:16.835885 17335 net.cpp:157] Top shape: 1 256 125 125 (4000000)
I1125 10:28:16.835887 17335 net.cpp:165] Memory required for data: 731000000
I1125 10:28:16.835889 17335 layer_factory.hpp:77] Creating layer conv3_3
I1125 10:28:16.835896 17335 net.cpp:100] Creating Layer conv3_3
I1125 10:28:16.835898 17335 net.cpp:434] conv3_3 <- conv3_2
I1125 10:28:16.835903 17335 net.cpp:408] conv3_3 -> conv3_3
I1125 10:28:16.838351 17335 net.cpp:150] Setting up conv3_3
I1125 10:28:16.838362 17335 net.cpp:157] Top shape: 1 256 125 125 (4000000)
I1125 10:28:16.838382 17335 net.cpp:165] Memory required for data: 747000000
I1125 10:28:16.838387 17335 layer_factory.hpp:77] Creating layer relu3_3
I1125 10:28:16.838392 17335 net.cpp:100] Creating Layer relu3_3
I1125 10:28:16.838394 17335 net.cpp:434] relu3_3 <- conv3_3
I1125 10:28:16.838399 17335 net.cpp:395] relu3_3 -> conv3_3 (in-place)
I1125 10:28:16.838553 17335 net.cpp:150] Setting up relu3_3
I1125 10:28:16.838562 17335 net.cpp:157] Top shape: 1 256 125 125 (4000000)
I1125 10:28:16.838563 17335 net.cpp:165] Memory required for data: 763000000
I1125 10:28:16.838568 17335 layer_factory.hpp:77] Creating layer conv3_3_relu3_3_0_split
I1125 10:28:16.838572 17335 net.cpp:100] Creating Layer conv3_3_relu3_3_0_split
I1125 10:28:16.838575 17335 net.cpp:434] conv3_3_relu3_3_0_split <- conv3_3
I1125 10:28:16.838582 17335 net.cpp:408] conv3_3_relu3_3_0_split -> conv3_3_relu3_3_0_split_0
I1125 10:28:16.838587 17335 net.cpp:408] conv3_3_relu3_3_0_split -> conv3_3_relu3_3_0_split_1
I1125 10:28:16.838596 17335 net.cpp:408] conv3_3_relu3_3_0_split -> conv3_3_relu3_3_0_split_2
I1125 10:28:16.838639 17335 net.cpp:150] Setting up conv3_3_relu3_3_0_split
I1125 10:28:16.838645 17335 net.cpp:157] Top shape: 1 256 125 125 (4000000)
I1125 10:28:16.838649 17335 net.cpp:157] Top shape: 1 256 125 125 (4000000)
I1125 10:28:16.838651 17335 net.cpp:157] Top shape: 1 256 125 125 (4000000)
I1125 10:28:16.838654 17335 net.cpp:165] Memory required for data: 811000000
I1125 10:28:16.838655 17335 layer_factory.hpp:77] Creating layer pool3
I1125 10:28:16.838660 17335 net.cpp:100] Creating Layer pool3
I1125 10:28:16.838663 17335 net.cpp:434] pool3 <- conv3_3_relu3_3_0_split_0
I1125 10:28:16.838667 17335 net.cpp:408] pool3 -> pool3
I1125 10:28:16.838693 17335 net.cpp:150] Setting up pool3
I1125 10:28:16.838698 17335 net.cpp:157] Top shape: 1 256 63 63 (1016064)
I1125 10:28:16.838701 17335 net.cpp:165] Memory required for data: 815064256
I1125 10:28:16.838703 17335 layer_factory.hpp:77] Creating layer conv4_1
I1125 10:28:16.838709 17335 net.cpp:100] Creating Layer conv4_1
I1125 10:28:16.838711 17335 net.cpp:434] conv4_1 <- pool3
I1125 10:28:16.838716 17335 net.cpp:408] conv4_1 -> conv4_1
I1125 10:28:16.843283 17335 net.cpp:150] Setting up conv4_1
I1125 10:28:16.843310 17335 net.cpp:157] Top shape: 1 512 63 63 (2032128)
I1125 10:28:16.843312 17335 net.cpp:165] Memory required for data: 823192768
I1125 10:28:16.843318 17335 layer_factory.hpp:77] Creating layer relu4_1
I1125 10:28:16.843323 17335 net.cpp:100] Creating Layer relu4_1
I1125 10:28:16.843327 17335 net.cpp:434] relu4_1 <- conv4_1
I1125 10:28:16.843331 17335 net.cpp:395] relu4_1 -> conv4_1 (in-place)
I1125 10:28:16.843510 17335 net.cpp:150] Setting up relu4_1
I1125 10:28:16.843518 17335 net.cpp:157] Top shape: 1 512 63 63 (2032128)
I1125 10:28:16.843519 17335 net.cpp:165] Memory required for data: 831321280
I1125 10:28:16.843524 17335 layer_factory.hpp:77] Creating layer conv4_2
I1125 10:28:16.843530 17335 net.cpp:100] Creating Layer conv4_2
I1125 10:28:16.843533 17335 net.cpp:434] conv4_2 <- conv4_1
I1125 10:28:16.843538 17335 net.cpp:408] conv4_2 -> conv4_2
I1125 10:28:16.849390 17335 net.cpp:150] Setting up conv4_2
I1125 10:28:16.849401 17335 net.cpp:157] Top shape: 1 512 63 63 (2032128)
I1125 10:28:16.849404 17335 net.cpp:165] Memory required for data: 839449792
I1125 10:28:16.849414 17335 layer_factory.hpp:77] Creating layer relu4_2
I1125 10:28:16.849419 17335 net.cpp:100] Creating Layer relu4_2
I1125 10:28:16.849422 17335 net.cpp:434] relu4_2 <- conv4_2
I1125 10:28:16.849427 17335 net.cpp:395] relu4_2 -> conv4_2 (in-place)
I1125 10:28:16.849570 17335 net.cpp:150] Setting up relu4_2
I1125 10:28:16.849577 17335 net.cpp:157] Top shape: 1 512 63 63 (2032128)
I1125 10:28:16.849579 17335 net.cpp:165] Memory required for data: 847578304
I1125 10:28:16.849581 17335 layer_factory.hpp:77] Creating layer conv4_3
I1125 10:28:16.849588 17335 net.cpp:100] Creating Layer conv4_3
I1125 10:28:16.849591 17335 net.cpp:434] conv4_3 <- conv4_2
I1125 10:28:16.849596 17335 net.cpp:408] conv4_3 -> conv4_3
I1125 10:28:16.855146 17335 net.cpp:150] Setting up conv4_3
I1125 10:28:16.855159 17335 net.cpp:157] Top shape: 1 512 63 63 (2032128)
I1125 10:28:16.855161 17335 net.cpp:165] Memory required for data: 855706816
I1125 10:28:16.855166 17335 layer_factory.hpp:77] Creating layer relu4_3
I1125 10:28:16.855175 17335 net.cpp:100] Creating Layer relu4_3
I1125 10:28:16.855177 17335 net.cpp:434] relu4_3 <- conv4_3
I1125 10:28:16.855182 17335 net.cpp:395] relu4_3 -> conv4_3 (in-place)
I1125 10:28:16.855319 17335 net.cpp:150] Setting up relu4_3
I1125 10:28:16.855325 17335 net.cpp:157] Top shape: 1 512 63 63 (2032128)
I1125 10:28:16.855327 17335 net.cpp:165] Memory required for data: 863835328
I1125 10:28:16.855329 17335 layer_factory.hpp:77] Creating layer conv4_3_relu4_3_0_split
I1125 10:28:16.855334 17335 net.cpp:100] Creating Layer conv4_3_relu4_3_0_split
I1125 10:28:16.855336 17335 net.cpp:434] conv4_3_relu4_3_0_split <- conv4_3
I1125 10:28:16.855342 17335 net.cpp:408] conv4_3_relu4_3_0_split -> conv4_3_relu4_3_0_split_0
I1125 10:28:16.855347 17335 net.cpp:408] conv4_3_relu4_3_0_split -> conv4_3_relu4_3_0_split_1
I1125 10:28:16.855352 17335 net.cpp:408] conv4_3_relu4_3_0_split -> conv4_3_relu4_3_0_split_2
I1125 10:28:16.855394 17335 net.cpp:150] Setting up conv4_3_relu4_3_0_split
I1125 10:28:16.855401 17335 net.cpp:157] Top shape: 1 512 63 63 (2032128)
I1125 10:28:16.855403 17335 net.cpp:157] Top shape: 1 512 63 63 (2032128)
I1125 10:28:16.855406 17335 net.cpp:157] Top shape: 1 512 63 63 (2032128)
I1125 10:28:16.855408 17335 net.cpp:165] Memory required for data: 888220864
I1125 10:28:16.855410 17335 layer_factory.hpp:77] Creating layer pool4
I1125 10:28:16.855417 17335 net.cpp:100] Creating Layer pool4
I1125 10:28:16.855419 17335 net.cpp:434] pool4 <- conv4_3_relu4_3_0_split_0
I1125 10:28:16.855423 17335 net.cpp:408] pool4 -> pool4
I1125 10:28:16.855454 17335 net.cpp:150] Setting up pool4
I1125 10:28:16.855458 17335 net.cpp:157] Top shape: 1 512 32 32 (524288)
I1125 10:28:16.855460 17335 net.cpp:165] Memory required for data: 890318016
I1125 10:28:16.855463 17335 layer_factory.hpp:77] Creating layer conv5_1
I1125 10:28:16.855474 17335 net.cpp:100] Creating Layer conv5_1
I1125 10:28:16.855476 17335 net.cpp:434] conv5_1 <- pool4
I1125 10:28:16.855480 17335 net.cpp:408] conv5_1 -> conv5_1
I1125 10:28:16.861039 17335 net.cpp:150] Setting up conv5_1
I1125 10:28:16.861052 17335 net.cpp:157] Top shape: 1 512 32 32 (524288)
I1125 10:28:16.861054 17335 net.cpp:165] Memory required for data: 892415168
I1125 10:28:16.861059 17335 layer_factory.hpp:77] Creating layer relu5_1
I1125 10:28:16.861068 17335 net.cpp:100] Creating Layer relu5_1
I1125 10:28:16.861070 17335 net.cpp:434] relu5_1 <- conv5_1
I1125 10:28:16.861074 17335 net.cpp:395] relu5_1 -> conv5_1 (in-place)
I1125 10:28:16.861480 17335 net.cpp:150] Setting up relu5_1
I1125 10:28:16.861491 17335 net.cpp:157] Top shape: 1 512 32 32 (524288)
I1125 10:28:16.861493 17335 net.cpp:165] Memory required for data: 894512320
I1125 10:28:16.861496 17335 layer_factory.hpp:77] Creating layer conv5_2
I1125 10:28:16.861503 17335 net.cpp:100] Creating Layer conv5_2
I1125 10:28:16.861505 17335 net.cpp:434] conv5_2 <- conv5_1
I1125 10:28:16.861511 17335 net.cpp:408] conv5_2 -> conv5_2
I1125 10:28:16.866847 17335 net.cpp:150] Setting up conv5_2
I1125 10:28:16.866859 17335 net.cpp:157] Top shape: 1 512 32 32 (524288)
I1125 10:28:16.866861 17335 net.cpp:165] Memory required for data: 896609472
I1125 10:28:16.866868 17335 layer_factory.hpp:77] Creating layer relu5_2
I1125 10:28:16.866871 17335 net.cpp:100] Creating Layer relu5_2
I1125 10:28:16.866874 17335 net.cpp:434] relu5_2 <- conv5_2
I1125 10:28:16.866879 17335 net.cpp:395] relu5_2 -> conv5_2 (in-place)
I1125 10:28:16.867311 17335 net.cpp:150] Setting up relu5_2
I1125 10:28:16.867321 17335 net.cpp:157] Top shape: 1 512 32 32 (524288)
I1125 10:28:16.867338 17335 net.cpp:165] Memory required for data: 898706624
I1125 10:28:16.867341 17335 layer_factory.hpp:77] Creating layer conv5_3
I1125 10:28:16.867352 17335 net.cpp:100] Creating Layer conv5_3
I1125 10:28:16.867354 17335 net.cpp:434] conv5_3 <- conv5_2
I1125 10:28:16.867360 17335 net.cpp:408] conv5_3 -> conv5_3
I1125 10:28:16.872978 17335 net.cpp:150] Setting up conv5_3
I1125 10:28:16.872990 17335 net.cpp:157] Top shape: 1 512 32 32 (524288)
I1125 10:28:16.872992 17335 net.cpp:165] Memory required for data: 900803776
I1125 10:28:16.872997 17335 layer_factory.hpp:77] Creating layer relu5_3
I1125 10:28:16.873003 17335 net.cpp:100] Creating Layer relu5_3
I1125 10:28:16.873005 17335 net.cpp:434] relu5_3 <- conv5_3
I1125 10:28:16.873009 17335 net.cpp:395] relu5_3 -> conv5_3 (in-place)
I1125 10:28:16.873191 17335 net.cpp:150] Setting up relu5_3
I1125 10:28:16.873198 17335 net.cpp:157] Top shape: 1 512 32 32 (524288)
I1125 10:28:16.873201 17335 net.cpp:165] Memory required for data: 902900928
I1125 10:28:16.873204 17335 layer_factory.hpp:77] Creating layer conv5_3_relu5_3_0_split
I1125 10:28:16.873209 17335 net.cpp:100] Creating Layer conv5_3_relu5_3_0_split
I1125 10:28:16.873211 17335 net.cpp:434] conv5_3_relu5_3_0_split <- conv5_3
I1125 10:28:16.873219 17335 net.cpp:408] conv5_3_relu5_3_0_split -> conv5_3_relu5_3_0_split_0
I1125 10:28:16.873224 17335 net.cpp:408] conv5_3_relu5_3_0_split -> conv5_3_relu5_3_0_split_1
I1125 10:28:16.873229 17335 net.cpp:408] conv5_3_relu5_3_0_split -> conv5_3_relu5_3_0_split_2
I1125 10:28:16.873275 17335 net.cpp:150] Setting up conv5_3_relu5_3_0_split
I1125 10:28:16.873281 17335 net.cpp:157] Top shape: 1 512 32 32 (524288)
I1125 10:28:16.873284 17335 net.cpp:157] Top shape: 1 512 32 32 (524288)
I1125 10:28:16.873286 17335 net.cpp:157] Top shape: 1 512 32 32 (524288)
I1125 10:28:16.873288 17335 net.cpp:165] Memory required for data: 909192384
I1125 10:28:16.873291 17335 layer_factory.hpp:77] Creating layer pool5
I1125 10:28:16.873298 17335 net.cpp:100] Creating Layer pool5
I1125 10:28:16.873303 17335 net.cpp:434] pool5 <- conv5_3_relu5_3_0_split_0
I1125 10:28:16.873306 17335 net.cpp:408] pool5 -> pool5
I1125 10:28:16.873342 17335 net.cpp:150] Setting up pool5
I1125 10:28:16.873347 17335 net.cpp:157] Top shape: 1 512 17 17 (147968)
I1125 10:28:16.873348 17335 net.cpp:165] Memory required for data: 909784256
I1125 10:28:16.873350 17335 layer_factory.hpp:77] Creating layer conv1-dsn6
I1125 10:28:16.873360 17335 net.cpp:100] Creating Layer conv1-dsn6
I1125 10:28:16.873363 17335 net.cpp:434] conv1-dsn6 <- pool5
I1125 10:28:16.873368 17335 net.cpp:408] conv1-dsn6 -> conv1-dsn6
I1125 10:28:16.876556 17335 net.cpp:150] Setting up conv1-dsn6
I1125 10:28:16.876566 17335 net.cpp:157] Top shape: 1 256 17 17 (73984)
I1125 10:28:16.876569 17335 net.cpp:165] Memory required for data: 910080192
I1125 10:28:16.876574 17335 layer_factory.hpp:77] Creating layer conv2-dsn6
I1125 10:28:16.876585 17335 net.cpp:100] Creating Layer conv2-dsn6
I1125 10:28:16.876588 17335 net.cpp:434] conv2-dsn6 <- conv1-dsn6
I1125 10:28:16.876592 17335 net.cpp:408] conv2-dsn6 -> conv2-dsn6
I1125 10:28:16.892593 17335 net.cpp:150] Setting up conv2-dsn6
I1125 10:28:16.892604 17335 net.cpp:157] Top shape: 1 256 17 17 (73984)
I1125 10:28:16.892606 17335 net.cpp:165] Memory required for data: 910376128
I1125 10:28:16.892612 17335 layer_factory.hpp:77] Creating layer relu1-dsn6
I1125 10:28:16.892616 17335 net.cpp:100] Creating Layer relu1-dsn6
I1125 10:28:16.892619 17335 net.cpp:434] relu1-dsn6 <- conv2-dsn6
I1125 10:28:16.892622 17335 net.cpp:395] relu1-dsn6 -> conv2-dsn6 (in-place)
I1125 10:28:16.892773 17335 net.cpp:150] Setting up relu1-dsn6
I1125 10:28:16.892781 17335 net.cpp:157] Top shape: 1 256 17 17 (73984)
I1125 10:28:16.892783 17335 net.cpp:165] Memory required for data: 910672064
I1125 10:28:16.892787 17335 layer_factory.hpp:77] Creating layer conv3-dsn6
I1125 10:28:16.892796 17335 net.cpp:100] Creating Layer conv3-dsn6
I1125 10:28:16.892798 17335 net.cpp:434] conv3-dsn6 <- conv2-dsn6
I1125 10:28:16.892803 17335 net.cpp:408] conv3-dsn6 -> conv3-dsn6
I1125 10:28:16.908949 17335 net.cpp:150] Setting up conv3-dsn6
I1125 10:28:16.908962 17335 net.cpp:157] Top shape: 1 256 17 17 (73984)
I1125 10:28:16.908964 17335 net.cpp:165] Memory required for data: 910968000
I1125 10:28:16.908969 17335 layer_factory.hpp:77] Creating layer relu2-dsn6
I1125 10:28:16.908974 17335 net.cpp:100] Creating Layer relu2-dsn6
I1125 10:28:16.908977 17335 net.cpp:434] relu2-dsn6 <- conv3-dsn6
I1125 10:28:16.908980 17335 net.cpp:395] relu2-dsn6 -> conv3-dsn6 (in-place)
I1125 10:28:16.909138 17335 net.cpp:150] Setting up relu2-dsn6
I1125 10:28:16.909162 17335 net.cpp:157] Top shape: 1 256 17 17 (73984)
I1125 10:28:16.909163 17335 net.cpp:165] Memory required for data: 911263936
I1125 10:28:16.909166 17335 layer_factory.hpp:77] Creating layer conv4-dsn6
I1125 10:28:16.909174 17335 net.cpp:100] Creating Layer conv4-dsn6
I1125 10:28:16.909178 17335 net.cpp:434] conv4-dsn6 <- conv3-dsn6
I1125 10:28:16.909183 17335 net.cpp:408] conv4-dsn6 -> conv4-dsn6
I1125 10:28:16.925086 17335 net.cpp:150] Setting up conv4-dsn6
I1125 10:28:16.925098 17335 net.cpp:157] Top shape: 1 256 17 17 (73984)
I1125 10:28:16.925101 17335 net.cpp:165] Memory required for data: 911559872
I1125 10:28:16.925113 17335 layer_factory.hpp:77] Creating layer relu3-dsn6
I1125 10:28:16.925120 17335 net.cpp:100] Creating Layer relu3-dsn6
I1125 10:28:16.925123 17335 net.cpp:434] relu3-dsn6 <- conv4-dsn6
I1125 10:28:16.925151 17335 net.cpp:395] relu3-dsn6 -> conv4-dsn6 (in-place)
I1125 10:28:16.925307 17335 net.cpp:150] Setting up relu3-dsn6
I1125 10:28:16.925315 17335 net.cpp:157] Top shape: 1 256 17 17 (73984)
I1125 10:28:16.925318 17335 net.cpp:165] Memory required for data: 911855808
I1125 10:28:16.925320 17335 layer_factory.hpp:77] Creating layer conv5-dsn6
I1125 10:28:16.925328 17335 net.cpp:100] Creating Layer conv5-dsn6
I1125 10:28:16.925331 17335 net.cpp:434] conv5-dsn6 <- conv4-dsn6
I1125 10:28:16.925338 17335 net.cpp:408] conv5-dsn6 -> conv5-dsn6
I1125 10:28:16.926282 17335 net.cpp:150] Setting up conv5-dsn6
I1125 10:28:16.926292 17335 net.cpp:157] Top shape: 1 1 17 17 (289)
I1125 10:28:16.926295 17335 net.cpp:165] Memory required for data: 911856964
I1125 10:28:16.926299 17335 layer_factory.hpp:77] Creating layer conv5-dsn6_conv5-dsn6_0_split
I1125 10:28:16.926304 17335 net.cpp:100] Creating Layer conv5-dsn6_conv5-dsn6_0_split
I1125 10:28:16.926307 17335 net.cpp:434] conv5-dsn6_conv5-dsn6_0_split <- conv5-dsn6
I1125 10:28:16.926313 17335 net.cpp:408] conv5-dsn6_conv5-dsn6_0_split -> conv5-dsn6_conv5-dsn6_0_split_0
I1125 10:28:16.926319 17335 net.cpp:408] conv5-dsn6_conv5-dsn6_0_split -> conv5-dsn6_conv5-dsn6_0_split_1
I1125 10:28:16.926355 17335 net.cpp:150] Setting up conv5-dsn6_conv5-dsn6_0_split
I1125 10:28:16.926359 17335 net.cpp:157] Top shape: 1 1 17 17 (289)
I1125 10:28:16.926362 17335 net.cpp:157] Top shape: 1 1 17 17 (289)
I1125 10:28:16.926363 17335 net.cpp:165] Memory required for data: 911859276
I1125 10:28:16.926365 17335 layer_factory.hpp:77] Creating layer upsample32_dsn6
I1125 10:28:16.926373 17335 net.cpp:100] Creating Layer upsample32_dsn6
I1125 10:28:16.926375 17335 net.cpp:434] upsample32_dsn6 <- conv5-dsn6_conv5-dsn6_0_split_0
I1125 10:28:16.926380 17335 net.cpp:408] upsample32_dsn6 -> conv5-dsn6-up
I1125 10:28:16.926836 17335 net.cpp:150] Setting up upsample32_dsn6
I1125 10:28:16.926843 17335 net.cpp:157] Top shape: 1 1 576 576 (331776)
I1125 10:28:16.926846 17335 net.cpp:165] Memory required for data: 913186380
I1125 10:28:16.926849 17335 layer_factory.hpp:77] Creating layer crop-dsn6
I1125 10:28:16.926856 17335 net.cpp:100] Creating Layer crop-dsn6
I1125 10:28:16.926857 17335 net.cpp:434] crop-dsn6 <- conv5-dsn6-up
I1125 10:28:16.926862 17335 net.cpp:434] crop-dsn6 <- data_augmentation_0_split_1
I1125 10:28:16.926867 17335 net.cpp:408] crop-dsn6 -> upscore-dsn6
I1125 10:28:16.926892 17335 net.cpp:150] Setting up crop-dsn6
I1125 10:28:16.926895 17335 net.cpp:157] Top shape: 1 1 500 500 (250000)
I1125 10:28:16.926898 17335 net.cpp:165] Memory required for data: 914186380
I1125 10:28:16.926899 17335 layer_factory.hpp:77] Creating layer loss6-score
I1125 10:28:16.926908 17335 net.cpp:100] Creating Layer loss6-score
I1125 10:28:16.926910 17335 net.cpp:434] loss6-score <- upscore-dsn6
I1125 10:28:16.926913 17335 net.cpp:434] loss6-score <- label_augmentation_1_split_0
I1125 10:28:16.926916 17335 net.cpp:408] loss6-score -> loss6-score
I1125 10:28:16.928082 17335 net.cpp:150] Setting up loss6-score
I1125 10:28:16.928093 17335 net.cpp:157] Top shape: (1)
I1125 10:28:16.928095 17335 net.cpp:160]     with loss weight 1
I1125 10:28:16.928109 17335 net.cpp:165] Memory required for data: 914186384
I1125 10:28:16.928112 17335 layer_factory.hpp:77] Creating layer upsample2_dsn5
I1125 10:28:16.928117 17335 net.cpp:100] Creating Layer upsample2_dsn5
I1125 10:28:16.928120 17335 net.cpp:434] upsample2_dsn5 <- conv5-dsn6_conv5-dsn6_0_split_1
I1125 10:28:16.928130 17335 net.cpp:408] upsample2_dsn5 -> conv5-dsn6-5
I1125 10:28:16.928334 17335 net.cpp:150] Setting up upsample2_dsn5
I1125 10:28:16.928341 17335 net.cpp:157] Top shape: 1 1 36 36 (1296)
I1125 10:28:16.928344 17335 net.cpp:165] Memory required for data: 914191568
I1125 10:28:16.928347 17335 layer_factory.hpp:77] Creating layer crop1-dsn5
I1125 10:28:16.928355 17335 net.cpp:100] Creating Layer crop1-dsn5
I1125 10:28:16.928357 17335 net.cpp:434] crop1-dsn5 <- conv5-dsn6-5
I1125 10:28:16.928360 17335 net.cpp:434] crop1-dsn5 <- conv5_3_relu5_3_0_split_1
I1125 10:28:16.928364 17335 net.cpp:408] crop1-dsn5 -> weight-dsn6-5
I1125 10:28:16.928385 17335 net.cpp:150] Setting up crop1-dsn5
I1125 10:28:16.928390 17335 net.cpp:157] Top shape: 1 1 32 32 (1024)
I1125 10:28:16.928391 17335 net.cpp:165] Memory required for data: 914195664
I1125 10:28:16.928393 17335 layer_factory.hpp:77] Creating layer weight-dsn6-5_crop1-dsn5_0_split
I1125 10:28:16.928397 17335 net.cpp:100] Creating Layer weight-dsn6-5_crop1-dsn5_0_split
I1125 10:28:16.928400 17335 net.cpp:434] weight-dsn6-5_crop1-dsn5_0_split <- weight-dsn6-5
I1125 10:28:16.928406 17335 net.cpp:408] weight-dsn6-5_crop1-dsn5_0_split -> weight-dsn6-5_crop1-dsn5_0_split_0
I1125 10:28:16.928409 17335 net.cpp:408] weight-dsn6-5_crop1-dsn5_0_split -> weight-dsn6-5_crop1-dsn5_0_split_1
I1125 10:28:16.928441 17335 net.cpp:150] Setting up weight-dsn6-5_crop1-dsn5_0_split
I1125 10:28:16.928444 17335 net.cpp:157] Top shape: 1 1 32 32 (1024)
I1125 10:28:16.928447 17335 net.cpp:157] Top shape: 1 1 32 32 (1024)
I1125 10:28:16.928449 17335 net.cpp:165] Memory required for data: 914203856
I1125 10:28:16.928452 17335 layer_factory.hpp:77] Creating layer sigmoid-dsn5
I1125 10:28:16.928455 17335 net.cpp:100] Creating Layer sigmoid-dsn5
I1125 10:28:16.928457 17335 net.cpp:434] sigmoid-dsn5 <- weight-dsn6-5_crop1-dsn5_0_split_0
I1125 10:28:16.928463 17335 net.cpp:408] sigmoid-dsn5 -> sigmoid-dsn5
I1125 10:28:16.928632 17335 net.cpp:150] Setting up sigmoid-dsn5
I1125 10:28:16.928638 17335 net.cpp:157] Top shape: 1 1 32 32 (1024)
I1125 10:28:16.928640 17335 net.cpp:165] Memory required for data: 914207952
I1125 10:28:16.928642 17335 layer_factory.hpp:77] Creating layer rev-dsn5
I1125 10:28:16.928648 17335 net.cpp:100] Creating Layer rev-dsn5
I1125 10:28:16.928650 17335 net.cpp:434] rev-dsn5 <- sigmoid-dsn5
I1125 10:28:16.928655 17335 net.cpp:408] rev-dsn5 -> rev-dsn5
I1125 10:28:16.928687 17335 net.cpp:150] Setting up rev-dsn5
I1125 10:28:16.928692 17335 net.cpp:157] Top shape: 1 1 32 32 (1024)
I1125 10:28:16.928694 17335 net.cpp:165] Memory required for data: 914212048
I1125 10:28:16.928697 17335 layer_factory.hpp:77] Creating layer tile-dsn5
I1125 10:28:16.928704 17335 net.cpp:100] Creating Layer tile-dsn5
I1125 10:28:16.928705 17335 net.cpp:434] tile-dsn5 <- rev-dsn5
I1125 10:28:16.928709 17335 net.cpp:408] tile-dsn5 -> weight-dsn5
I1125 10:28:16.928730 17335 net.cpp:150] Setting up tile-dsn5
I1125 10:28:16.928735 17335 net.cpp:157] Top shape: 1 512 32 32 (524288)
I1125 10:28:16.928736 17335 net.cpp:165] Memory required for data: 916309200
I1125 10:28:16.928738 17335 layer_factory.hpp:77] Creating layer prod1-dsn5
I1125 10:28:16.928742 17335 net.cpp:100] Creating Layer prod1-dsn5
I1125 10:28:16.928745 17335 net.cpp:434] prod1-dsn5 <- conv5_3_relu5_3_0_split_2
I1125 10:28:16.928748 17335 net.cpp:434] prod1-dsn5 <- weight-dsn5
I1125 10:28:16.928753 17335 net.cpp:408] prod1-dsn5 -> prod1-dsn5
I1125 10:28:16.928774 17335 net.cpp:150] Setting up prod1-dsn5
I1125 10:28:16.928777 17335 net.cpp:157] Top shape: 1 512 32 32 (524288)
I1125 10:28:16.928779 17335 net.cpp:165] Memory required for data: 918406352
I1125 10:28:16.928781 17335 layer_factory.hpp:77] Creating layer conv1-dsn5
I1125 10:28:16.928791 17335 net.cpp:100] Creating Layer conv1-dsn5
I1125 10:28:16.928793 17335 net.cpp:434] conv1-dsn5 <- prod1-dsn5
I1125 10:28:16.928799 17335 net.cpp:408] conv1-dsn5 -> conv1-dsn5
I1125 10:28:16.930007 17335 net.cpp:150] Setting up conv1-dsn5
I1125 10:28:16.930017 17335 net.cpp:157] Top shape: 1 64 32 32 (65536)
I1125 10:28:16.930019 17335 net.cpp:165] Memory required for data: 918668496
I1125 10:28:16.930024 17335 layer_factory.hpp:77] Creating layer conv2-dsn5
I1125 10:28:16.930035 17335 net.cpp:100] Creating Layer conv2-dsn5
I1125 10:28:16.930037 17335 net.cpp:434] conv2-dsn5 <- conv1-dsn5
I1125 10:28:16.930044 17335 net.cpp:408] conv2-dsn5 -> conv2-dsn5
I1125 10:28:16.931344 17335 net.cpp:150] Setting up conv2-dsn5
I1125 10:28:16.931355 17335 net.cpp:157] Top shape: 1 64 32 32 (65536)
I1125 10:28:16.931358 17335 net.cpp:165] Memory required for data: 918930640
I1125 10:28:16.931362 17335 layer_factory.hpp:77] Creating layer relu1-dsn5
I1125 10:28:16.931367 17335 net.cpp:100] Creating Layer relu1-dsn5
I1125 10:28:16.931370 17335 net.cpp:434] relu1-dsn5 <- conv2-dsn5
I1125 10:28:16.931373 17335 net.cpp:395] relu1-dsn5 -> conv2-dsn5 (in-place)
I1125 10:28:16.931780 17335 net.cpp:150] Setting up relu1-dsn5
I1125 10:28:16.931792 17335 net.cpp:157] Top shape: 1 64 32 32 (65536)
I1125 10:28:16.931793 17335 net.cpp:165] Memory required for data: 919192784
I1125 10:28:16.931797 17335 layer_factory.hpp:77] Creating layer conv3-dsn5
I1125 10:28:16.931804 17335 net.cpp:100] Creating Layer conv3-dsn5
I1125 10:28:16.931807 17335 net.cpp:434] conv3-dsn5 <- conv2-dsn5
I1125 10:28:16.931811 17335 net.cpp:408] conv3-dsn5 -> conv3-dsn5
I1125 10:28:16.932777 17335 net.cpp:150] Setting up conv3-dsn5
I1125 10:28:16.932786 17335 net.cpp:157] Top shape: 1 64 32 32 (65536)
I1125 10:28:16.932788 17335 net.cpp:165] Memory required for data: 919454928
I1125 10:28:16.932792 17335 layer_factory.hpp:77] Creating layer relu2-dsn5
I1125 10:28:16.932798 17335 net.cpp:100] Creating Layer relu2-dsn5
I1125 10:28:16.932801 17335 net.cpp:434] relu2-dsn5 <- conv3-dsn5
I1125 10:28:16.932804 17335 net.cpp:395] relu2-dsn5 -> conv3-dsn5 (in-place)
I1125 10:28:16.933218 17335 net.cpp:150] Setting up relu2-dsn5
I1125 10:28:16.933228 17335 net.cpp:157] Top shape: 1 64 32 32 (65536)
I1125 10:28:16.933229 17335 net.cpp:165] Memory required for data: 919717072
I1125 10:28:16.933233 17335 layer_factory.hpp:77] Creating layer conv4-dsn5
I1125 10:28:16.933254 17335 net.cpp:100] Creating Layer conv4-dsn5
I1125 10:28:16.933256 17335 net.cpp:434] conv4-dsn5 <- conv3-dsn5
I1125 10:28:16.933262 17335 net.cpp:408] conv4-dsn5 -> conv4-dsn5
I1125 10:28:16.934211 17335 net.cpp:150] Setting up conv4-dsn5
I1125 10:28:16.934237 17335 net.cpp:157] Top shape: 1 1 32 32 (1024)
I1125 10:28:16.934239 17335 net.cpp:165] Memory required for data: 919721168
I1125 10:28:16.934245 17335 layer_factory.hpp:77] Creating layer sum-dsn5
I1125 10:28:16.934252 17335 net.cpp:100] Creating Layer sum-dsn5
I1125 10:28:16.934253 17335 net.cpp:434] sum-dsn5 <- conv4-dsn5
I1125 10:28:16.934257 17335 net.cpp:434] sum-dsn5 <- weight-dsn6-5_crop1-dsn5_0_split_1
I1125 10:28:16.934262 17335 net.cpp:408] sum-dsn5 -> sum-dsn5
I1125 10:28:16.934288 17335 net.cpp:150] Setting up sum-dsn5
I1125 10:28:16.934291 17335 net.cpp:157] Top shape: 1 1 32 32 (1024)
I1125 10:28:16.934293 17335 net.cpp:165] Memory required for data: 919725264
I1125 10:28:16.934295 17335 layer_factory.hpp:77] Creating layer sum-dsn5_sum-dsn5_0_split
I1125 10:28:16.934300 17335 net.cpp:100] Creating Layer sum-dsn5_sum-dsn5_0_split
I1125 10:28:16.934303 17335 net.cpp:434] sum-dsn5_sum-dsn5_0_split <- sum-dsn5
I1125 10:28:16.934306 17335 net.cpp:408] sum-dsn5_sum-dsn5_0_split -> sum-dsn5_sum-dsn5_0_split_0
I1125 10:28:16.934310 17335 net.cpp:408] sum-dsn5_sum-dsn5_0_split -> sum-dsn5_sum-dsn5_0_split_1
I1125 10:28:16.934345 17335 net.cpp:150] Setting up sum-dsn5_sum-dsn5_0_split
I1125 10:28:16.934350 17335 net.cpp:157] Top shape: 1 1 32 32 (1024)
I1125 10:28:16.934352 17335 net.cpp:157] Top shape: 1 1 32 32 (1024)
I1125 10:28:16.934355 17335 net.cpp:165] Memory required for data: 919733456
I1125 10:28:16.934356 17335 layer_factory.hpp:77] Creating layer upsample16_dsn5
I1125 10:28:16.934365 17335 net.cpp:100] Creating Layer upsample16_dsn5
I1125 10:28:16.934367 17335 net.cpp:434] upsample16_dsn5 <- sum-dsn5_sum-dsn5_0_split_0
I1125 10:28:16.934372 17335 net.cpp:408] upsample16_dsn5 -> sum-dsn5-up
I1125 10:28:16.935716 17335 net.cpp:150] Setting up upsample16_dsn5
I1125 10:28:16.935726 17335 net.cpp:157] Top shape: 1 1 528 528 (278784)
I1125 10:28:16.935729 17335 net.cpp:165] Memory required for data: 920848592
I1125 10:28:16.935734 17335 layer_factory.hpp:77] Creating layer crop2-dsn5
I1125 10:28:16.935737 17335 net.cpp:100] Creating Layer crop2-dsn5
I1125 10:28:16.935740 17335 net.cpp:434] crop2-dsn5 <- sum-dsn5-up
I1125 10:28:16.935744 17335 net.cpp:434] crop2-dsn5 <- data_augmentation_0_split_2
I1125 10:28:16.935748 17335 net.cpp:408] crop2-dsn5 -> upscore-dsn5
I1125 10:28:16.935775 17335 net.cpp:150] Setting up crop2-dsn5
I1125 10:28:16.935781 17335 net.cpp:157] Top shape: 1 1 500 500 (250000)
I1125 10:28:16.935783 17335 net.cpp:165] Memory required for data: 921848592
I1125 10:28:16.935786 17335 layer_factory.hpp:77] Creating layer loss5-score
I1125 10:28:16.935791 17335 net.cpp:100] Creating Layer loss5-score
I1125 10:28:16.935794 17335 net.cpp:434] loss5-score <- upscore-dsn5
I1125 10:28:16.935796 17335 net.cpp:434] loss5-score <- label_augmentation_1_split_1
I1125 10:28:16.935801 17335 net.cpp:408] loss5-score -> loss5-score
I1125 10:28:16.935976 17335 net.cpp:150] Setting up loss5-score
I1125 10:28:16.935982 17335 net.cpp:157] Top shape: (1)
I1125 10:28:16.935983 17335 net.cpp:160]     with loss weight 1
I1125 10:28:16.935989 17335 net.cpp:165] Memory required for data: 921848596
I1125 10:28:16.935992 17335 layer_factory.hpp:77] Creating layer upsample2_dsn4
I1125 10:28:16.935998 17335 net.cpp:100] Creating Layer upsample2_dsn4
I1125 10:28:16.936000 17335 net.cpp:434] upsample2_dsn4 <- sum-dsn5_sum-dsn5_0_split_1
I1125 10:28:16.936004 17335 net.cpp:408] upsample2_dsn4 -> sum-dsn5-4
I1125 10:28:16.936219 17335 net.cpp:150] Setting up upsample2_dsn4
I1125 10:28:16.936226 17335 net.cpp:157] Top shape: 1 1 66 66 (4356)
I1125 10:28:16.936228 17335 net.cpp:165] Memory required for data: 921866020
I1125 10:28:16.936234 17335 layer_factory.hpp:77] Creating layer crop1-dsn4
I1125 10:28:16.936239 17335 net.cpp:100] Creating Layer crop1-dsn4
I1125 10:28:16.936240 17335 net.cpp:434] crop1-dsn4 <- sum-dsn5-4
I1125 10:28:16.936244 17335 net.cpp:434] crop1-dsn4 <- conv4_3_relu4_3_0_split_1
I1125 10:28:16.936249 17335 net.cpp:408] crop1-dsn4 -> weight-dsn5-4
I1125 10:28:16.936269 17335 net.cpp:150] Setting up crop1-dsn4
I1125 10:28:16.936272 17335 net.cpp:157] Top shape: 1 1 63 63 (3969)
I1125 10:28:16.936275 17335 net.cpp:165] Memory required for data: 921881896
I1125 10:28:16.936276 17335 layer_factory.hpp:77] Creating layer weight-dsn5-4_crop1-dsn4_0_split
I1125 10:28:16.936282 17335 net.cpp:100] Creating Layer weight-dsn5-4_crop1-dsn4_0_split
I1125 10:28:16.936285 17335 net.cpp:434] weight-dsn5-4_crop1-dsn4_0_split <- weight-dsn5-4
I1125 10:28:16.936290 17335 net.cpp:408] weight-dsn5-4_crop1-dsn4_0_split -> weight-dsn5-4_crop1-dsn4_0_split_0
I1125 10:28:16.936293 17335 net.cpp:408] weight-dsn5-4_crop1-dsn4_0_split -> weight-dsn5-4_crop1-dsn4_0_split_1
I1125 10:28:16.936322 17335 net.cpp:150] Setting up weight-dsn5-4_crop1-dsn4_0_split
I1125 10:28:16.936328 17335 net.cpp:157] Top shape: 1 1 63 63 (3969)
I1125 10:28:16.936331 17335 net.cpp:157] Top shape: 1 1 63 63 (3969)
I1125 10:28:16.936333 17335 net.cpp:165] Memory required for data: 921913648
I1125 10:28:16.936336 17335 layer_factory.hpp:77] Creating layer sigmoid-dsn4
I1125 10:28:16.936338 17335 net.cpp:100] Creating Layer sigmoid-dsn4
I1125 10:28:16.936342 17335 net.cpp:434] sigmoid-dsn4 <- weight-dsn5-4_crop1-dsn4_0_split_0
I1125 10:28:16.936344 17335 net.cpp:408] sigmoid-dsn4 -> sigmoid-dsn4
I1125 10:28:16.936511 17335 net.cpp:150] Setting up sigmoid-dsn4
I1125 10:28:16.936518 17335 net.cpp:157] Top shape: 1 1 63 63 (3969)
I1125 10:28:16.936522 17335 net.cpp:165] Memory required for data: 921929524
I1125 10:28:16.936525 17335 layer_factory.hpp:77] Creating layer rev-dsn4
I1125 10:28:16.936529 17335 net.cpp:100] Creating Layer rev-dsn4
I1125 10:28:16.936532 17335 net.cpp:434] rev-dsn4 <- sigmoid-dsn4
I1125 10:28:16.936535 17335 net.cpp:408] rev-dsn4 -> rev-dsn4
I1125 10:28:16.936556 17335 net.cpp:150] Setting up rev-dsn4
I1125 10:28:16.936563 17335 net.cpp:157] Top shape: 1 1 63 63 (3969)
I1125 10:28:16.936564 17335 net.cpp:165] Memory required for data: 921945400
I1125 10:28:16.936566 17335 layer_factory.hpp:77] Creating layer tile-dsn4
I1125 10:28:16.936569 17335 net.cpp:100] Creating Layer tile-dsn4
I1125 10:28:16.936573 17335 net.cpp:434] tile-dsn4 <- rev-dsn4
I1125 10:28:16.936578 17335 net.cpp:408] tile-dsn4 -> weight-dsn4
I1125 10:28:16.936597 17335 net.cpp:150] Setting up tile-dsn4
I1125 10:28:16.936600 17335 net.cpp:157] Top shape: 1 512 63 63 (2032128)
I1125 10:28:16.936602 17335 net.cpp:165] Memory required for data: 930073912
I1125 10:28:16.936604 17335 layer_factory.hpp:77] Creating layer prod1-dsn4
I1125 10:28:16.936609 17335 net.cpp:100] Creating Layer prod1-dsn4
I1125 10:28:16.936610 17335 net.cpp:434] prod1-dsn4 <- conv4_3_relu4_3_0_split_2
I1125 10:28:16.936614 17335 net.cpp:434] prod1-dsn4 <- weight-dsn4
I1125 10:28:16.936619 17335 net.cpp:408] prod1-dsn4 -> prod1-dsn4
I1125 10:28:16.936635 17335 net.cpp:150] Setting up prod1-dsn4
I1125 10:28:16.936640 17335 net.cpp:157] Top shape: 1 512 63 63 (2032128)
I1125 10:28:16.936641 17335 net.cpp:165] Memory required for data: 938202424
I1125 10:28:16.936643 17335 layer_factory.hpp:77] Creating layer conv1-dsn4
I1125 10:28:16.936652 17335 net.cpp:100] Creating Layer conv1-dsn4
I1125 10:28:16.936655 17335 net.cpp:434] conv1-dsn4 <- prod1-dsn4
I1125 10:28:16.936658 17335 net.cpp:408] conv1-dsn4 -> conv1-dsn4
I1125 10:28:16.937885 17335 net.cpp:150] Setting up conv1-dsn4
I1125 10:28:16.937896 17335 net.cpp:157] Top shape: 1 64 63 63 (254016)
I1125 10:28:16.937898 17335 net.cpp:165] Memory required for data: 939218488
I1125 10:28:16.937904 17335 layer_factory.hpp:77] Creating layer conv2-dsn4
I1125 10:28:16.937912 17335 net.cpp:100] Creating Layer conv2-dsn4
I1125 10:28:16.937916 17335 net.cpp:434] conv2-dsn4 <- conv1-dsn4
I1125 10:28:16.937922 17335 net.cpp:408] conv2-dsn4 -> conv2-dsn4
I1125 10:28:16.939433 17335 net.cpp:150] Setting up conv2-dsn4
I1125 10:28:16.939443 17335 net.cpp:157] Top shape: 1 64 63 63 (254016)
I1125 10:28:16.939445 17335 net.cpp:165] Memory required for data: 940234552
I1125 10:28:16.939450 17335 layer_factory.hpp:77] Creating layer relu1-dsn4
I1125 10:28:16.939455 17335 net.cpp:100] Creating Layer relu1-dsn4
I1125 10:28:16.939456 17335 net.cpp:434] relu1-dsn4 <- conv2-dsn4
I1125 10:28:16.939462 17335 net.cpp:395] relu1-dsn4 -> conv2-dsn4 (in-place)
I1125 10:28:16.939620 17335 net.cpp:150] Setting up relu1-dsn4
I1125 10:28:16.939628 17335 net.cpp:157] Top shape: 1 64 63 63 (254016)
I1125 10:28:16.939630 17335 net.cpp:165] Memory required for data: 941250616
I1125 10:28:16.939632 17335 layer_factory.hpp:77] Creating layer conv3-dsn4
I1125 10:28:16.939641 17335 net.cpp:100] Creating Layer conv3-dsn4
I1125 10:28:16.939644 17335 net.cpp:434] conv3-dsn4 <- conv2-dsn4
I1125 10:28:16.939649 17335 net.cpp:408] conv3-dsn4 -> conv3-dsn4
I1125 10:28:16.940927 17335 net.cpp:150] Setting up conv3-dsn4
I1125 10:28:16.940937 17335 net.cpp:157] Top shape: 1 64 63 63 (254016)
I1125 10:28:16.940940 17335 net.cpp:165] Memory required for data: 942266680
I1125 10:28:16.940945 17335 layer_factory.hpp:77] Creating layer relu2-dsn4
I1125 10:28:16.940949 17335 net.cpp:100] Creating Layer relu2-dsn4
I1125 10:28:16.940951 17335 net.cpp:434] relu2-dsn4 <- conv3-dsn4
I1125 10:28:16.940955 17335 net.cpp:395] relu2-dsn4 -> conv3-dsn4 (in-place)
I1125 10:28:16.941104 17335 net.cpp:150] Setting up relu2-dsn4
I1125 10:28:16.941112 17335 net.cpp:157] Top shape: 1 64 63 63 (254016)
I1125 10:28:16.941113 17335 net.cpp:165] Memory required for data: 943282744
I1125 10:28:16.941118 17335 layer_factory.hpp:77] Creating layer conv4-dsn4
I1125 10:28:16.941131 17335 net.cpp:100] Creating Layer conv4-dsn4
I1125 10:28:16.941134 17335 net.cpp:434] conv4-dsn4 <- conv3-dsn4
I1125 10:28:16.941139 17335 net.cpp:408] conv4-dsn4 -> conv4-dsn4
I1125 10:28:16.942087 17335 net.cpp:150] Setting up conv4-dsn4
I1125 10:28:16.942097 17335 net.cpp:157] Top shape: 1 1 63 63 (3969)
I1125 10:28:16.942101 17335 net.cpp:165] Memory required for data: 943298620
I1125 10:28:16.942106 17335 layer_factory.hpp:77] Creating layer sum-dsn4
I1125 10:28:16.942111 17335 net.cpp:100] Creating Layer sum-dsn4
I1125 10:28:16.942113 17335 net.cpp:434] sum-dsn4 <- conv4-dsn4
I1125 10:28:16.942116 17335 net.cpp:434] sum-dsn4 <- weight-dsn5-4_crop1-dsn4_0_split_1
I1125 10:28:16.942121 17335 net.cpp:408] sum-dsn4 -> sum-dsn4
I1125 10:28:16.942152 17335 net.cpp:150] Setting up sum-dsn4
I1125 10:28:16.942157 17335 net.cpp:157] Top shape: 1 1 63 63 (3969)
I1125 10:28:16.942157 17335 net.cpp:165] Memory required for data: 943314496
I1125 10:28:16.942160 17335 layer_factory.hpp:77] Creating layer sum-dsn4_sum-dsn4_0_split
I1125 10:28:16.942167 17335 net.cpp:100] Creating Layer sum-dsn4_sum-dsn4_0_split
I1125 10:28:16.942168 17335 net.cpp:434] sum-dsn4_sum-dsn4_0_split <- sum-dsn4
I1125 10:28:16.942171 17335 net.cpp:408] sum-dsn4_sum-dsn4_0_split -> sum-dsn4_sum-dsn4_0_split_0
I1125 10:28:16.942176 17335 net.cpp:408] sum-dsn4_sum-dsn4_0_split -> sum-dsn4_sum-dsn4_0_split_1
I1125 10:28:16.942210 17335 net.cpp:150] Setting up sum-dsn4_sum-dsn4_0_split
I1125 10:28:16.942214 17335 net.cpp:157] Top shape: 1 1 63 63 (3969)
I1125 10:28:16.942217 17335 net.cpp:157] Top shape: 1 1 63 63 (3969)
I1125 10:28:16.942219 17335 net.cpp:165] Memory required for data: 943346248
I1125 10:28:16.942222 17335 layer_factory.hpp:77] Creating layer upsample8_dsn4
I1125 10:28:16.942229 17335 net.cpp:100] Creating Layer upsample8_dsn4
I1125 10:28:16.942230 17335 net.cpp:434] upsample8_dsn4 <- sum-dsn4_sum-dsn4_0_split_0
I1125 10:28:16.942235 17335 net.cpp:408] upsample8_dsn4 -> sum-dsn4-up
I1125 10:28:16.943553 17335 net.cpp:150] Setting up upsample8_dsn4
I1125 10:28:16.943564 17335 net.cpp:157] Top shape: 1 1 512 512 (262144)
I1125 10:28:16.943567 17335 net.cpp:165] Memory required for data: 944394824
I1125 10:28:16.943572 17335 layer_factory.hpp:77] Creating layer crop2-dsn4
I1125 10:28:16.943575 17335 net.cpp:100] Creating Layer crop2-dsn4
I1125 10:28:16.943578 17335 net.cpp:434] crop2-dsn4 <- sum-dsn4-up
I1125 10:28:16.943581 17335 net.cpp:434] crop2-dsn4 <- data_augmentation_0_split_3
I1125 10:28:16.943588 17335 net.cpp:408] crop2-dsn4 -> upscore-dsn4
I1125 10:28:16.943614 17335 net.cpp:150] Setting up crop2-dsn4
I1125 10:28:16.943620 17335 net.cpp:157] Top shape: 1 1 500 500 (250000)
I1125 10:28:16.943622 17335 net.cpp:165] Memory required for data: 945394824
I1125 10:28:16.943624 17335 layer_factory.hpp:77] Creating layer loss4-score
I1125 10:28:16.943630 17335 net.cpp:100] Creating Layer loss4-score
I1125 10:28:16.943632 17335 net.cpp:434] loss4-score <- upscore-dsn4
I1125 10:28:16.943635 17335 net.cpp:434] loss4-score <- label_augmentation_1_split_2
I1125 10:28:16.943639 17335 net.cpp:408] loss4-score -> loss4-score
I1125 10:28:16.943807 17335 net.cpp:150] Setting up loss4-score
I1125 10:28:16.943814 17335 net.cpp:157] Top shape: (1)
I1125 10:28:16.943816 17335 net.cpp:160]     with loss weight 1
I1125 10:28:16.943820 17335 net.cpp:165] Memory required for data: 945394828
I1125 10:28:16.943825 17335 layer_factory.hpp:77] Creating layer upsample2_dsn3
I1125 10:28:16.943830 17335 net.cpp:100] Creating Layer upsample2_dsn3
I1125 10:28:16.943832 17335 net.cpp:434] upsample2_dsn3 <- sum-dsn4_sum-dsn4_0_split_1
I1125 10:28:16.943840 17335 net.cpp:408] upsample2_dsn3 -> sum-dsn4-3
I1125 10:28:16.944058 17335 net.cpp:150] Setting up upsample2_dsn3
I1125 10:28:16.944064 17335 net.cpp:157] Top shape: 1 1 128 128 (16384)
I1125 10:28:16.944067 17335 net.cpp:165] Memory required for data: 945460364
I1125 10:28:16.944072 17335 layer_factory.hpp:77] Creating layer crop1-dsn3
I1125 10:28:16.944077 17335 net.cpp:100] Creating Layer crop1-dsn3
I1125 10:28:16.944079 17335 net.cpp:434] crop1-dsn3 <- sum-dsn4-3
I1125 10:28:16.944082 17335 net.cpp:434] crop1-dsn3 <- conv3_3_relu3_3_0_split_1
I1125 10:28:16.944085 17335 net.cpp:408] crop1-dsn3 -> weight-dsn4-3
I1125 10:28:16.944109 17335 net.cpp:150] Setting up crop1-dsn3
I1125 10:28:16.944113 17335 net.cpp:157] Top shape: 1 1 125 125 (15625)
I1125 10:28:16.944114 17335 net.cpp:165] Memory required for data: 945522864
I1125 10:28:16.944118 17335 layer_factory.hpp:77] Creating layer weight-dsn4-3_crop1-dsn3_0_split
I1125 10:28:16.944121 17335 net.cpp:100] Creating Layer weight-dsn4-3_crop1-dsn3_0_split
I1125 10:28:16.944123 17335 net.cpp:434] weight-dsn4-3_crop1-dsn3_0_split <- weight-dsn4-3
I1125 10:28:16.944149 17335 net.cpp:408] weight-dsn4-3_crop1-dsn3_0_split -> weight-dsn4-3_crop1-dsn3_0_split_0
I1125 10:28:16.944154 17335 net.cpp:408] weight-dsn4-3_crop1-dsn3_0_split -> weight-dsn4-3_crop1-dsn3_0_split_1
I1125 10:28:16.944188 17335 net.cpp:150] Setting up weight-dsn4-3_crop1-dsn3_0_split
I1125 10:28:16.944193 17335 net.cpp:157] Top shape: 1 1 125 125 (15625)
I1125 10:28:16.944196 17335 net.cpp:157] Top shape: 1 1 125 125 (15625)
I1125 10:28:16.944198 17335 net.cpp:165] Memory required for data: 945647864
I1125 10:28:16.944201 17335 layer_factory.hpp:77] Creating layer sigmoid-dsn3
I1125 10:28:16.944205 17335 net.cpp:100] Creating Layer sigmoid-dsn3
I1125 10:28:16.944208 17335 net.cpp:434] sigmoid-dsn3 <- weight-dsn4-3_crop1-dsn3_0_split_0
I1125 10:28:16.944212 17335 net.cpp:408] sigmoid-dsn3 -> sigmoid-dsn3
I1125 10:28:16.944393 17335 net.cpp:150] Setting up sigmoid-dsn3
I1125 10:28:16.944401 17335 net.cpp:157] Top shape: 1 1 125 125 (15625)
I1125 10:28:16.944402 17335 net.cpp:165] Memory required for data: 945710364
I1125 10:28:16.944406 17335 layer_factory.hpp:77] Creating layer rev-dsn3
I1125 10:28:16.944411 17335 net.cpp:100] Creating Layer rev-dsn3
I1125 10:28:16.944413 17335 net.cpp:434] rev-dsn3 <- sigmoid-dsn3
I1125 10:28:16.944418 17335 net.cpp:408] rev-dsn3 -> rev-dsn3
I1125 10:28:16.944453 17335 net.cpp:150] Setting up rev-dsn3
I1125 10:28:16.944458 17335 net.cpp:157] Top shape: 1 1 125 125 (15625)
I1125 10:28:16.944460 17335 net.cpp:165] Memory required for data: 945772864
I1125 10:28:16.944463 17335 layer_factory.hpp:77] Creating layer tile-dsn3
I1125 10:28:16.944468 17335 net.cpp:100] Creating Layer tile-dsn3
I1125 10:28:16.944470 17335 net.cpp:434] tile-dsn3 <- rev-dsn3
I1125 10:28:16.944475 17335 net.cpp:408] tile-dsn3 -> weight-dsn3
I1125 10:28:16.944492 17335 net.cpp:150] Setting up tile-dsn3
I1125 10:28:16.944496 17335 net.cpp:157] Top shape: 1 256 125 125 (4000000)
I1125 10:28:16.944499 17335 net.cpp:165] Memory required for data: 961772864
I1125 10:28:16.944500 17335 layer_factory.hpp:77] Creating layer prod1-dsn3
I1125 10:28:16.944505 17335 net.cpp:100] Creating Layer prod1-dsn3
I1125 10:28:16.944509 17335 net.cpp:434] prod1-dsn3 <- conv3_3_relu3_3_0_split_2
I1125 10:28:16.944511 17335 net.cpp:434] prod1-dsn3 <- weight-dsn3
I1125 10:28:16.944514 17335 net.cpp:408] prod1-dsn3 -> prod1-dsn3
I1125 10:28:16.944533 17335 net.cpp:150] Setting up prod1-dsn3
I1125 10:28:16.944537 17335 net.cpp:157] Top shape: 1 256 125 125 (4000000)
I1125 10:28:16.944540 17335 net.cpp:165] Memory required for data: 977772864
I1125 10:28:16.944541 17335 layer_factory.hpp:77] Creating layer conv1-dsn3
I1125 10:28:16.944550 17335 net.cpp:100] Creating Layer conv1-dsn3
I1125 10:28:16.944552 17335 net.cpp:434] conv1-dsn3 <- prod1-dsn3
I1125 10:28:16.944557 17335 net.cpp:408] conv1-dsn3 -> conv1-dsn3
I1125 10:28:16.945914 17335 net.cpp:150] Setting up conv1-dsn3
I1125 10:28:16.945924 17335 net.cpp:157] Top shape: 1 64 125 125 (1000000)
I1125 10:28:16.945926 17335 net.cpp:165] Memory required for data: 981772864
I1125 10:28:16.945940 17335 layer_factory.hpp:77] Creating layer conv2-dsn3
I1125 10:28:16.945951 17335 net.cpp:100] Creating Layer conv2-dsn3
I1125 10:28:16.945955 17335 net.cpp:434] conv2-dsn3 <- conv1-dsn3
I1125 10:28:16.945958 17335 net.cpp:408] conv2-dsn3 -> conv2-dsn3
I1125 10:28:16.947254 17335 net.cpp:150] Setting up conv2-dsn3
I1125 10:28:16.947266 17335 net.cpp:157] Top shape: 1 64 125 125 (1000000)
I1125 10:28:16.947268 17335 net.cpp:165] Memory required for data: 985772864
I1125 10:28:16.947273 17335 layer_factory.hpp:77] Creating layer relu1-dsn3
I1125 10:28:16.947278 17335 net.cpp:100] Creating Layer relu1-dsn3
I1125 10:28:16.947280 17335 net.cpp:434] relu1-dsn3 <- conv2-dsn3
I1125 10:28:16.947284 17335 net.cpp:395] relu1-dsn3 -> conv2-dsn3 (in-place)
I1125 10:28:16.947429 17335 net.cpp:150] Setting up relu1-dsn3
I1125 10:28:16.947436 17335 net.cpp:157] Top shape: 1 64 125 125 (1000000)
I1125 10:28:16.947438 17335 net.cpp:165] Memory required for data: 989772864
I1125 10:28:16.947440 17335 layer_factory.hpp:77] Creating layer conv3-dsn3
I1125 10:28:16.947450 17335 net.cpp:100] Creating Layer conv3-dsn3
I1125 10:28:16.947453 17335 net.cpp:434] conv3-dsn3 <- conv2-dsn3
I1125 10:28:16.947458 17335 net.cpp:408] conv3-dsn3 -> conv3-dsn3
I1125 10:28:16.948721 17335 net.cpp:150] Setting up conv3-dsn3
I1125 10:28:16.948734 17335 net.cpp:157] Top shape: 1 64 125 125 (1000000)
I1125 10:28:16.948735 17335 net.cpp:165] Memory required for data: 993772864
I1125 10:28:16.948742 17335 layer_factory.hpp:77] Creating layer relu2-dsn3
I1125 10:28:16.948746 17335 net.cpp:100] Creating Layer relu2-dsn3
I1125 10:28:16.948748 17335 net.cpp:434] relu2-dsn3 <- conv3-dsn3
I1125 10:28:16.948752 17335 net.cpp:395] relu2-dsn3 -> conv3-dsn3 (in-place)
I1125 10:28:16.949174 17335 net.cpp:150] Setting up relu2-dsn3
I1125 10:28:16.949183 17335 net.cpp:157] Top shape: 1 64 125 125 (1000000)
I1125 10:28:16.949200 17335 net.cpp:165] Memory required for data: 997772864
I1125 10:28:16.949203 17335 layer_factory.hpp:77] Creating layer conv4-dsn3
I1125 10:28:16.949213 17335 net.cpp:100] Creating Layer conv4-dsn3
I1125 10:28:16.949215 17335 net.cpp:434] conv4-dsn3 <- conv3-dsn3
I1125 10:28:16.949221 17335 net.cpp:408] conv4-dsn3 -> conv4-dsn3
I1125 10:28:16.950224 17335 net.cpp:150] Setting up conv4-dsn3
I1125 10:28:16.950251 17335 net.cpp:157] Top shape: 1 1 125 125 (15625)
I1125 10:28:16.950253 17335 net.cpp:165] Memory required for data: 997835364
I1125 10:28:16.950258 17335 layer_factory.hpp:77] Creating layer sum-dsn3
I1125 10:28:16.950264 17335 net.cpp:100] Creating Layer sum-dsn3
I1125 10:28:16.950268 17335 net.cpp:434] sum-dsn3 <- conv4-dsn3
I1125 10:28:16.950271 17335 net.cpp:434] sum-dsn3 <- weight-dsn4-3_crop1-dsn3_0_split_1
I1125 10:28:16.950276 17335 net.cpp:408] sum-dsn3 -> sum-dsn3
I1125 10:28:16.950304 17335 net.cpp:150] Setting up sum-dsn3
I1125 10:28:16.950309 17335 net.cpp:157] Top shape: 1 1 125 125 (15625)
I1125 10:28:16.950310 17335 net.cpp:165] Memory required for data: 997897864
I1125 10:28:16.950314 17335 layer_factory.hpp:77] Creating layer sum-dsn3_sum-dsn3_0_split
I1125 10:28:16.950320 17335 net.cpp:100] Creating Layer sum-dsn3_sum-dsn3_0_split
I1125 10:28:16.950322 17335 net.cpp:434] sum-dsn3_sum-dsn3_0_split <- sum-dsn3
I1125 10:28:16.950326 17335 net.cpp:408] sum-dsn3_sum-dsn3_0_split -> sum-dsn3_sum-dsn3_0_split_0
I1125 10:28:16.950332 17335 net.cpp:408] sum-dsn3_sum-dsn3_0_split -> sum-dsn3_sum-dsn3_0_split_1
I1125 10:28:16.950366 17335 net.cpp:150] Setting up sum-dsn3_sum-dsn3_0_split
I1125 10:28:16.950373 17335 net.cpp:157] Top shape: 1 1 125 125 (15625)
I1125 10:28:16.950376 17335 net.cpp:157] Top shape: 1 1 125 125 (15625)
I1125 10:28:16.950378 17335 net.cpp:165] Memory required for data: 998022864
I1125 10:28:16.950381 17335 layer_factory.hpp:77] Creating layer upsample4_dsn3
I1125 10:28:16.950386 17335 net.cpp:100] Creating Layer upsample4_dsn3
I1125 10:28:16.950387 17335 net.cpp:434] upsample4_dsn3 <- sum-dsn3_sum-dsn3_0_split_0
I1125 10:28:16.950392 17335 net.cpp:408] upsample4_dsn3 -> sum-dsn3-up
I1125 10:28:16.951727 17335 net.cpp:150] Setting up upsample4_dsn3
I1125 10:28:16.951756 17335 net.cpp:157] Top shape: 1 1 504 504 (254016)
I1125 10:28:16.951757 17335 net.cpp:165] Memory required for data: 999038928
I1125 10:28:16.951762 17335 layer_factory.hpp:77] Creating layer crop2-dsn3
I1125 10:28:16.951767 17335 net.cpp:100] Creating Layer crop2-dsn3
I1125 10:28:16.951771 17335 net.cpp:434] crop2-dsn3 <- sum-dsn3-up
I1125 10:28:16.951774 17335 net.cpp:434] crop2-dsn3 <- data_augmentation_0_split_4
I1125 10:28:16.951778 17335 net.cpp:408] crop2-dsn3 -> upscore-dsn3
I1125 10:28:16.951809 17335 net.cpp:150] Setting up crop2-dsn3
I1125 10:28:16.951813 17335 net.cpp:157] Top shape: 1 1 500 500 (250000)
I1125 10:28:16.951815 17335 net.cpp:165] Memory required for data: 1000038928
I1125 10:28:16.951817 17335 layer_factory.hpp:77] Creating layer loss3-score
I1125 10:28:16.951825 17335 net.cpp:100] Creating Layer loss3-score
I1125 10:28:16.951828 17335 net.cpp:434] loss3-score <- upscore-dsn3
I1125 10:28:16.951831 17335 net.cpp:434] loss3-score <- label_augmentation_1_split_3
I1125 10:28:16.951836 17335 net.cpp:408] loss3-score -> loss3-score
I1125 10:28:16.952031 17335 net.cpp:150] Setting up loss3-score
I1125 10:28:16.952037 17335 net.cpp:157] Top shape: (1)
I1125 10:28:16.952039 17335 net.cpp:160]     with loss weight 1
I1125 10:28:16.952044 17335 net.cpp:165] Memory required for data: 1000038932
I1125 10:28:16.952046 17335 layer_factory.hpp:77] Creating layer upsample2_1-dsn2
I1125 10:28:16.952052 17335 net.cpp:100] Creating Layer upsample2_1-dsn2
I1125 10:28:16.952055 17335 net.cpp:434] upsample2_1-dsn2 <- sum-dsn3_sum-dsn3_0_split_1
I1125 10:28:16.952060 17335 net.cpp:408] upsample2_1-dsn2 -> sum-dsn3-2
I1125 10:28:16.952335 17335 net.cpp:150] Setting up upsample2_1-dsn2
I1125 10:28:16.952342 17335 net.cpp:157] Top shape: 1 1 252 252 (63504)
I1125 10:28:16.952343 17335 net.cpp:165] Memory required for data: 1000292948
I1125 10:28:16.952347 17335 layer_factory.hpp:77] Creating layer crop1-dsn2
I1125 10:28:16.952352 17335 net.cpp:100] Creating Layer crop1-dsn2
I1125 10:28:16.952353 17335 net.cpp:434] crop1-dsn2 <- sum-dsn3-2
I1125 10:28:16.952356 17335 net.cpp:434] crop1-dsn2 <- conv2_2_relu2_2_0_split_1
I1125 10:28:16.952361 17335 net.cpp:408] crop1-dsn2 -> weight-dsn3-2
I1125 10:28:16.952385 17335 net.cpp:150] Setting up crop1-dsn2
I1125 10:28:16.952389 17335 net.cpp:157] Top shape: 1 1 250 250 (62500)
I1125 10:28:16.952391 17335 net.cpp:165] Memory required for data: 1000542948
I1125 10:28:16.952394 17335 layer_factory.hpp:77] Creating layer weight-dsn3-2_crop1-dsn2_0_split
I1125 10:28:16.952397 17335 net.cpp:100] Creating Layer weight-dsn3-2_crop1-dsn2_0_split
I1125 10:28:16.952399 17335 net.cpp:434] weight-dsn3-2_crop1-dsn2_0_split <- weight-dsn3-2
I1125 10:28:16.952404 17335 net.cpp:408] weight-dsn3-2_crop1-dsn2_0_split -> weight-dsn3-2_crop1-dsn2_0_split_0
I1125 10:28:16.952409 17335 net.cpp:408] weight-dsn3-2_crop1-dsn2_0_split -> weight-dsn3-2_crop1-dsn2_0_split_1
I1125 10:28:16.952440 17335 net.cpp:150] Setting up weight-dsn3-2_crop1-dsn2_0_split
I1125 10:28:16.952445 17335 net.cpp:157] Top shape: 1 1 250 250 (62500)
I1125 10:28:16.952447 17335 net.cpp:157] Top shape: 1 1 250 250 (62500)
I1125 10:28:16.952450 17335 net.cpp:165] Memory required for data: 1001042948
I1125 10:28:16.952451 17335 layer_factory.hpp:77] Creating layer sigmoid-dsn2
I1125 10:28:16.952455 17335 net.cpp:100] Creating Layer sigmoid-dsn2
I1125 10:28:16.952458 17335 net.cpp:434] sigmoid-dsn2 <- weight-dsn3-2_crop1-dsn2_0_split_0
I1125 10:28:16.952462 17335 net.cpp:408] sigmoid-dsn2 -> sigmoid-dsn2
I1125 10:28:16.952944 17335 net.cpp:150] Setting up sigmoid-dsn2
I1125 10:28:16.952953 17335 net.cpp:157] Top shape: 1 1 250 250 (62500)
I1125 10:28:16.952955 17335 net.cpp:165] Memory required for data: 1001292948
I1125 10:28:16.952957 17335 layer_factory.hpp:77] Creating layer rev-dsn2
I1125 10:28:16.952962 17335 net.cpp:100] Creating Layer rev-dsn2
I1125 10:28:16.952965 17335 net.cpp:434] rev-dsn2 <- sigmoid-dsn2
I1125 10:28:16.952970 17335 net.cpp:408] rev-dsn2 -> rev-dsn2
I1125 10:28:16.952991 17335 net.cpp:150] Setting up rev-dsn2
I1125 10:28:16.952996 17335 net.cpp:157] Top shape: 1 1 250 250 (62500)
I1125 10:28:16.952996 17335 net.cpp:165] Memory required for data: 1001542948
I1125 10:28:16.952998 17335 layer_factory.hpp:77] Creating layer tile-dsn2
I1125 10:28:16.953002 17335 net.cpp:100] Creating Layer tile-dsn2
I1125 10:28:16.953004 17335 net.cpp:434] tile-dsn2 <- rev-dsn2
I1125 10:28:16.953007 17335 net.cpp:408] tile-dsn2 -> weight-dsn2
I1125 10:28:16.953025 17335 net.cpp:150] Setting up tile-dsn2
I1125 10:28:16.953028 17335 net.cpp:157] Top shape: 1 128 250 250 (8000000)
I1125 10:28:16.953030 17335 net.cpp:165] Memory required for data: 1033542948
I1125 10:28:16.953032 17335 layer_factory.hpp:77] Creating layer prod1-dsn2
I1125 10:28:16.953035 17335 net.cpp:100] Creating Layer prod1-dsn2
I1125 10:28:16.953038 17335 net.cpp:434] prod1-dsn2 <- conv2_2_relu2_2_0_split_2
I1125 10:28:16.953042 17335 net.cpp:434] prod1-dsn2 <- weight-dsn2
I1125 10:28:16.953044 17335 net.cpp:408] prod1-dsn2 -> prod1-dsn2
I1125 10:28:16.953061 17335 net.cpp:150] Setting up prod1-dsn2
I1125 10:28:16.953064 17335 net.cpp:157] Top shape: 1 128 250 250 (8000000)
I1125 10:28:16.953068 17335 net.cpp:165] Memory required for data: 1065542948
I1125 10:28:16.953070 17335 layer_factory.hpp:77] Creating layer conv1-dsn2
I1125 10:28:16.953078 17335 net.cpp:100] Creating Layer conv1-dsn2
I1125 10:28:16.953079 17335 net.cpp:434] conv1-dsn2 <- prod1-dsn2
I1125 10:28:16.953083 17335 net.cpp:408] conv1-dsn2 -> conv1-dsn2
I1125 10:28:16.955168 17335 net.cpp:150] Setting up conv1-dsn2
I1125 10:28:16.955178 17335 net.cpp:157] Top shape: 1 64 250 250 (4000000)
I1125 10:28:16.955195 17335 net.cpp:165] Memory required for data: 1081542948
I1125 10:28:16.955201 17335 layer_factory.hpp:77] Creating layer conv2-dsn2
I1125 10:28:16.955210 17335 net.cpp:100] Creating Layer conv2-dsn2
I1125 10:28:16.955214 17335 net.cpp:434] conv2-dsn2 <- conv1-dsn2
I1125 10:28:16.955220 17335 net.cpp:408] conv2-dsn2 -> conv2-dsn2
I1125 10:28:16.956810 17335 net.cpp:150] Setting up conv2-dsn2
I1125 10:28:16.956820 17335 net.cpp:157] Top shape: 1 64 250 250 (4000000)
I1125 10:28:16.956822 17335 net.cpp:165] Memory required for data: 1097542948
I1125 10:28:16.956827 17335 layer_factory.hpp:77] Creating layer relu1-dsn2
I1125 10:28:16.956833 17335 net.cpp:100] Creating Layer relu1-dsn2
I1125 10:28:16.956835 17335 net.cpp:434] relu1-dsn2 <- conv2-dsn2
I1125 10:28:16.956840 17335 net.cpp:395] relu1-dsn2 -> conv2-dsn2 (in-place)
I1125 10:28:16.957247 17335 net.cpp:150] Setting up relu1-dsn2
I1125 10:28:16.957257 17335 net.cpp:157] Top shape: 1 64 250 250 (4000000)
I1125 10:28:16.957258 17335 net.cpp:165] Memory required for data: 1113542948
I1125 10:28:16.957262 17335 layer_factory.hpp:77] Creating layer conv3-dsn2
I1125 10:28:16.957270 17335 net.cpp:100] Creating Layer conv3-dsn2
I1125 10:28:16.957273 17335 net.cpp:434] conv3-dsn2 <- conv2-dsn2
I1125 10:28:16.957279 17335 net.cpp:408] conv3-dsn2 -> conv3-dsn2
I1125 10:28:16.958560 17335 net.cpp:150] Setting up conv3-dsn2
I1125 10:28:16.958570 17335 net.cpp:157] Top shape: 1 64 250 250 (4000000)
I1125 10:28:16.958572 17335 net.cpp:165] Memory required for data: 1129542948
I1125 10:28:16.958577 17335 layer_factory.hpp:77] Creating layer relu2-dsn2
I1125 10:28:16.958582 17335 net.cpp:100] Creating Layer relu2-dsn2
I1125 10:28:16.958585 17335 net.cpp:434] relu2-dsn2 <- conv3-dsn2
I1125 10:28:16.958592 17335 net.cpp:395] relu2-dsn2 -> conv3-dsn2 (in-place)
I1125 10:28:16.958740 17335 net.cpp:150] Setting up relu2-dsn2
I1125 10:28:16.958747 17335 net.cpp:157] Top shape: 1 64 250 250 (4000000)
I1125 10:28:16.958750 17335 net.cpp:165] Memory required for data: 1145542948
I1125 10:28:16.958751 17335 layer_factory.hpp:77] Creating layer conv4-dsn2
I1125 10:28:16.958760 17335 net.cpp:100] Creating Layer conv4-dsn2
I1125 10:28:16.958761 17335 net.cpp:434] conv4-dsn2 <- conv3-dsn2
I1125 10:28:16.958767 17335 net.cpp:408] conv4-dsn2 -> conv4-dsn2
I1125 10:28:16.959770 17335 net.cpp:150] Setting up conv4-dsn2
I1125 10:28:16.959780 17335 net.cpp:157] Top shape: 1 1 250 250 (62500)
I1125 10:28:16.959782 17335 net.cpp:165] Memory required for data: 1145792948
I1125 10:28:16.959787 17335 layer_factory.hpp:77] Creating layer sum-dsn2
I1125 10:28:16.959792 17335 net.cpp:100] Creating Layer sum-dsn2
I1125 10:28:16.959794 17335 net.cpp:434] sum-dsn2 <- conv4-dsn2
I1125 10:28:16.959800 17335 net.cpp:434] sum-dsn2 <- weight-dsn3-2_crop1-dsn2_0_split_1
I1125 10:28:16.959803 17335 net.cpp:408] sum-dsn2 -> sum-dsn2
I1125 10:28:16.959830 17335 net.cpp:150] Setting up sum-dsn2
I1125 10:28:16.959834 17335 net.cpp:157] Top shape: 1 1 250 250 (62500)
I1125 10:28:16.959836 17335 net.cpp:165] Memory required for data: 1146042948
I1125 10:28:16.959838 17335 layer_factory.hpp:77] Creating layer upsample2_2-dsn2
I1125 10:28:16.959844 17335 net.cpp:100] Creating Layer upsample2_2-dsn2
I1125 10:28:16.959847 17335 net.cpp:434] upsample2_2-dsn2 <- sum-dsn2
I1125 10:28:16.959851 17335 net.cpp:408] upsample2_2-dsn2 -> sum-dsn2-up
I1125 10:28:16.961221 17335 net.cpp:150] Setting up upsample2_2-dsn2
I1125 10:28:16.961232 17335 net.cpp:157] Top shape: 1 1 502 502 (252004)
I1125 10:28:16.961235 17335 net.cpp:165] Memory required for data: 1147050964
I1125 10:28:16.961239 17335 layer_factory.hpp:77] Creating layer crop2-dsn2
I1125 10:28:16.961244 17335 net.cpp:100] Creating Layer crop2-dsn2
I1125 10:28:16.961247 17335 net.cpp:434] crop2-dsn2 <- sum-dsn2-up
I1125 10:28:16.961251 17335 net.cpp:434] crop2-dsn2 <- data_augmentation_0_split_5
I1125 10:28:16.961254 17335 net.cpp:408] crop2-dsn2 -> upscore-dsn2
I1125 10:28:16.961284 17335 net.cpp:150] Setting up crop2-dsn2
I1125 10:28:16.961288 17335 net.cpp:157] Top shape: 1 1 500 500 (250000)
I1125 10:28:16.961290 17335 net.cpp:165] Memory required for data: 1148050964
I1125 10:28:16.961292 17335 layer_factory.hpp:77] Creating layer upscore-dsn2_crop2-dsn2_0_split
I1125 10:28:16.961297 17335 net.cpp:100] Creating Layer upscore-dsn2_crop2-dsn2_0_split
I1125 10:28:16.961299 17335 net.cpp:434] upscore-dsn2_crop2-dsn2_0_split <- upscore-dsn2
I1125 10:28:16.961302 17335 net.cpp:408] upscore-dsn2_crop2-dsn2_0_split -> upscore-dsn2_crop2-dsn2_0_split_0
I1125 10:28:16.961323 17335 net.cpp:408] upscore-dsn2_crop2-dsn2_0_split -> upscore-dsn2_crop2-dsn2_0_split_1
I1125 10:28:16.961328 17335 net.cpp:408] upscore-dsn2_crop2-dsn2_0_split -> upscore-dsn2_crop2-dsn2_0_split_2
I1125 10:28:16.961369 17335 net.cpp:150] Setting up upscore-dsn2_crop2-dsn2_0_split
I1125 10:28:16.961374 17335 net.cpp:157] Top shape: 1 1 500 500 (250000)
I1125 10:28:16.961376 17335 net.cpp:157] Top shape: 1 1 500 500 (250000)
I1125 10:28:16.961380 17335 net.cpp:157] Top shape: 1 1 500 500 (250000)
I1125 10:28:16.961381 17335 net.cpp:165] Memory required for data: 1151050964
I1125 10:28:16.961383 17335 layer_factory.hpp:77] Creating layer loss2-score
I1125 10:28:16.961390 17335 net.cpp:100] Creating Layer loss2-score
I1125 10:28:16.961391 17335 net.cpp:434] loss2-score <- upscore-dsn2_crop2-dsn2_0_split_0
I1125 10:28:16.961395 17335 net.cpp:434] loss2-score <- label_augmentation_1_split_4
I1125 10:28:16.961398 17335 net.cpp:408] loss2-score -> loss2-score
I1125 10:28:16.961568 17335 net.cpp:150] Setting up loss2-score
I1125 10:28:16.961573 17335 net.cpp:157] Top shape: (1)
I1125 10:28:16.961575 17335 net.cpp:160]     with loss weight 1
I1125 10:28:16.961580 17335 net.cpp:165] Memory required for data: 1151050968
I1125 10:28:16.961582 17335 layer_factory.hpp:77] Creating layer sigmoid-dsn1
I1125 10:28:16.961586 17335 net.cpp:100] Creating Layer sigmoid-dsn1
I1125 10:28:16.961588 17335 net.cpp:434] sigmoid-dsn1 <- upscore-dsn2_crop2-dsn2_0_split_1
I1125 10:28:16.961592 17335 net.cpp:408] sigmoid-dsn1 -> sigmoid-dsn1
I1125 10:28:16.961771 17335 net.cpp:150] Setting up sigmoid-dsn1
I1125 10:28:16.961777 17335 net.cpp:157] Top shape: 1 1 500 500 (250000)
I1125 10:28:16.961779 17335 net.cpp:165] Memory required for data: 1152050968
I1125 10:28:16.961781 17335 layer_factory.hpp:77] Creating layer rev-dsn1
I1125 10:28:16.961786 17335 net.cpp:100] Creating Layer rev-dsn1
I1125 10:28:16.961789 17335 net.cpp:434] rev-dsn1 <- sigmoid-dsn1
I1125 10:28:16.961793 17335 net.cpp:408] rev-dsn1 -> rev-dsn1
I1125 10:28:16.961817 17335 net.cpp:150] Setting up rev-dsn1
I1125 10:28:16.961820 17335 net.cpp:157] Top shape: 1 1 500 500 (250000)
I1125 10:28:16.961822 17335 net.cpp:165] Memory required for data: 1153050968
I1125 10:28:16.961824 17335 layer_factory.hpp:77] Creating layer tile-dsn1
I1125 10:28:16.961829 17335 net.cpp:100] Creating Layer tile-dsn1
I1125 10:28:16.961833 17335 net.cpp:434] tile-dsn1 <- rev-dsn1
I1125 10:28:16.961836 17335 net.cpp:408] tile-dsn1 -> weight-dsn1
I1125 10:28:16.961856 17335 net.cpp:150] Setting up tile-dsn1
I1125 10:28:16.961859 17335 net.cpp:157] Top shape: 1 64 500 500 (16000000)
I1125 10:28:16.961861 17335 net.cpp:165] Memory required for data: 1217050968
I1125 10:28:16.961863 17335 layer_factory.hpp:77] Creating layer prod1-dsn1
I1125 10:28:16.961871 17335 net.cpp:100] Creating Layer prod1-dsn1
I1125 10:28:16.961874 17335 net.cpp:434] prod1-dsn1 <- conv1_2_relu1_2_0_split_1
I1125 10:28:16.961877 17335 net.cpp:434] prod1-dsn1 <- weight-dsn1
I1125 10:28:16.961882 17335 net.cpp:408] prod1-dsn1 -> prod1-dsn1
I1125 10:28:16.961901 17335 net.cpp:150] Setting up prod1-dsn1
I1125 10:28:16.961905 17335 net.cpp:157] Top shape: 1 64 500 500 (16000000)
I1125 10:28:16.961906 17335 net.cpp:165] Memory required for data: 1281050968
I1125 10:28:16.961908 17335 layer_factory.hpp:77] Creating layer conv1-dsn1
I1125 10:28:16.961931 17335 net.cpp:100] Creating Layer conv1-dsn1
I1125 10:28:16.961933 17335 net.cpp:434] conv1-dsn1 <- prod1-dsn1
I1125 10:28:16.961937 17335 net.cpp:408] conv1-dsn1 -> conv1-dsn1
I1125 10:28:16.964315 17335 net.cpp:150] Setting up conv1-dsn1
I1125 10:28:16.964344 17335 net.cpp:157] Top shape: 1 64 500 500 (16000000)
I1125 10:28:16.964345 17335 net.cpp:165] Memory required for data: 1345050968
I1125 10:28:16.964351 17335 layer_factory.hpp:77] Creating layer conv2-dsn1
I1125 10:28:16.964361 17335 net.cpp:100] Creating Layer conv2-dsn1
I1125 10:28:16.964365 17335 net.cpp:434] conv2-dsn1 <- conv1-dsn1
I1125 10:28:16.964370 17335 net.cpp:408] conv2-dsn1 -> conv2-dsn1
I1125 10:28:16.965804 17335 net.cpp:150] Setting up conv2-dsn1
I1125 10:28:16.965814 17335 net.cpp:157] Top shape: 1 64 500 500 (16000000)
I1125 10:28:16.965817 17335 net.cpp:165] Memory required for data: 1409050968
I1125 10:28:16.965821 17335 layer_factory.hpp:77] Creating layer relu1-dsn1
I1125 10:28:16.965826 17335 net.cpp:100] Creating Layer relu1-dsn1
I1125 10:28:16.965828 17335 net.cpp:434] relu1-dsn1 <- conv2-dsn1
I1125 10:28:16.965834 17335 net.cpp:395] relu1-dsn1 -> conv2-dsn1 (in-place)
I1125 10:28:16.965984 17335 net.cpp:150] Setting up relu1-dsn1
I1125 10:28:16.965991 17335 net.cpp:157] Top shape: 1 64 500 500 (16000000)
I1125 10:28:16.965992 17335 net.cpp:165] Memory required for data: 1473050968
I1125 10:28:16.965996 17335 layer_factory.hpp:77] Creating layer conv3-dsn1
I1125 10:28:16.966003 17335 net.cpp:100] Creating Layer conv3-dsn1
I1125 10:28:16.966006 17335 net.cpp:434] conv3-dsn1 <- conv2-dsn1
I1125 10:28:16.966012 17335 net.cpp:408] conv3-dsn1 -> conv3-dsn1
I1125 10:28:16.968390 17335 net.cpp:150] Setting up conv3-dsn1
I1125 10:28:16.968401 17335 net.cpp:157] Top shape: 1 64 500 500 (16000000)
I1125 10:28:16.968403 17335 net.cpp:165] Memory required for data: 1537050968
I1125 10:28:16.968408 17335 layer_factory.hpp:77] Creating layer relu2-dsn1
I1125 10:28:16.968412 17335 net.cpp:100] Creating Layer relu2-dsn1
I1125 10:28:16.968415 17335 net.cpp:434] relu2-dsn1 <- conv3-dsn1
I1125 10:28:16.968420 17335 net.cpp:395] relu2-dsn1 -> conv3-dsn1 (in-place)
I1125 10:28:16.968580 17335 net.cpp:150] Setting up relu2-dsn1
I1125 10:28:16.968586 17335 net.cpp:157] Top shape: 1 64 500 500 (16000000)
I1125 10:28:16.968588 17335 net.cpp:165] Memory required for data: 1601050968
I1125 10:28:16.968592 17335 layer_factory.hpp:77] Creating layer conv4-dsn1
I1125 10:28:16.968600 17335 net.cpp:100] Creating Layer conv4-dsn1
I1125 10:28:16.968602 17335 net.cpp:434] conv4-dsn1 <- conv3-dsn1
I1125 10:28:16.968608 17335 net.cpp:408] conv4-dsn1 -> conv4-dsn1
I1125 10:28:16.969736 17335 net.cpp:150] Setting up conv4-dsn1
I1125 10:28:16.969748 17335 net.cpp:157] Top shape: 1 1 500 500 (250000)
I1125 10:28:16.969749 17335 net.cpp:165] Memory required for data: 1602050968
I1125 10:28:16.969754 17335 layer_factory.hpp:77] Creating layer sum-dsn1
I1125 10:28:16.969760 17335 net.cpp:100] Creating Layer sum-dsn1
I1125 10:28:16.969763 17335 net.cpp:434] sum-dsn1 <- conv4-dsn1
I1125 10:28:16.969768 17335 net.cpp:434] sum-dsn1 <- upscore-dsn2_crop2-dsn2_0_split_2
I1125 10:28:16.969771 17335 net.cpp:408] sum-dsn1 -> sum-dsn1
I1125 10:28:16.969799 17335 net.cpp:150] Setting up sum-dsn1
I1125 10:28:16.969802 17335 net.cpp:157] Top shape: 1 1 500 500 (250000)
I1125 10:28:16.969805 17335 net.cpp:165] Memory required for data: 1603050968
I1125 10:28:16.969806 17335 layer_factory.hpp:77] Creating layer crop2-dsn1
I1125 10:28:16.969810 17335 net.cpp:100] Creating Layer crop2-dsn1
I1125 10:28:16.969812 17335 net.cpp:434] crop2-dsn1 <- sum-dsn1
I1125 10:28:16.969815 17335 net.cpp:434] crop2-dsn1 <- data_augmentation_0_split_6
I1125 10:28:16.969820 17335 net.cpp:408] crop2-dsn1 -> upscore-dsn1
I1125 10:28:16.969841 17335 net.cpp:150] Setting up crop2-dsn1
I1125 10:28:16.969848 17335 net.cpp:157] Top shape: 1 1 500 500 (250000)
I1125 10:28:16.969851 17335 net.cpp:165] Memory required for data: 1604050968
I1125 10:28:16.969852 17335 layer_factory.hpp:77] Creating layer loss1-score
I1125 10:28:16.969861 17335 net.cpp:100] Creating Layer loss1-score
I1125 10:28:16.969862 17335 net.cpp:434] loss1-score <- upscore-dsn1
I1125 10:28:16.969866 17335 net.cpp:434] loss1-score <- label_augmentation_1_split_5
I1125 10:28:16.969869 17335 net.cpp:408] loss1-score -> loss1-score
…
I1125 10:28:16.974654 17335 net.cpp:58] Initializing net from parameters: 
name: "RAS"
state {
  phase: TEST
}
layer {
  name: "data"
  type: "ImageLabelmapData"
  top: "data"
  top: "label"
  include {
    phase: TEST
  }
  transform_param {
    mean_value: 104.00699
    mean_value: 116.66877
    mean_value: 122.67892
  }
  image_data_param {
    source: "/media/compute/homes/galberding/FleckDetect/Datasets/val.txt"
    batch_size: 1
    new_height: 500
    new_width: 500
    root_folder: "/media/compute/homes/galberding/FleckDetect/Datasets/"
    normalize: true
  }
}
layer {
  name: "conv1_1"
  type: "Convolution"
  bottom: "data"
  top: "conv1_1"
  param {
    lr_mult: 1
    decay_mult: 1
  }
  param {
    lr_mult: 2
    decay_mult: 0
  }
  convolution_param {
    num_output: 64
    pad: 1
    kernel_size: 3
    engine: CUDNN
  }
}
layer {
  name: "relu1_1"
  type: "ReLU"
  bottom: "conv1_1"
  top: "conv1_1"
}
layer {
  name: "conv1_2"
  type: "Convolution"
  bottom: "conv1_1"
  top: "conv1_2"
  param {
    lr_mult: 1
    decay_mult: 1
  }
  param {
    lr_mult: 2
    decay_mult: 0
  }
  convolution_param {
    num_output: 64
    pad: 1
    kernel_size: 3
    engine: CUDNN
  }
}
layer {
  name: "relu1_2"
  type: "ReLU"
  bottom: "conv1_2"
  top: "conv1_2"
}
layer {
  name: "pool1"
  type: "Pooling"
  bottom: "conv1_2"
  top: "pool1"
  pooling_param {
    pool: MAX
    kernel_size: 2
    stride: 2
  }
}
layer {
  name: "conv2_1"
  type: "Convolution"
  bottom: "pool1"
  top: "conv2_1"
  param {
    lr_mult: 1
    decay_mult: 1
  }
  param {
    lr_mult: 2
    decay_mult: 0
  }
  convolution_param {
    num_output: 128
    pad: 1
    kernel_size: 3
    engine: CUDNN
  }
}
layer {
  name: "relu2_1"
  type: "ReLU"
  bottom: "conv2_1"
  top: "conv2_1"
}
layer {
  name: "conv2_2"
  type: "Convolution"
  bottom: "conv2_1"
  top: "conv2_2"
  param {
    lr_mult: 1
    decay_mult: 1
  }
  param {
    lr_mult: 2
    decay_mult: 0
  }
  convolution_param {
    num_output: 128
    pad: 1
    kernel_size: 3
    engine: CUDNN
  }
}
layer {
  name: "relu2_2"
  type: "ReLU"
  bottom: "conv2_2"
  top: "conv2_2"
}
layer {
  name: "pool2"
  type: "Pooling"
  bottom: "conv2_2"
  top: "pool2"
  pooling_param {
    pool: MAX
    kernel_size: 2
    stride: 2
  }
}
layer {
  name: "conv3_1"
  type: "Convolution"
  bottom: "pool2"
  top: "conv3_1"
  param {
    lr_mult: 1
    decay_mult: 1
  }
  param {
    lr_mult: 2
    decay_mult: 0
  }
  convolution_param {
    num_output: 256
    pad: 1
    kernel_size: 3
    engine: CUDNN
  }
}
layer {
  name: "relu3_1"
  type: "ReLU"
  bottom: "conv3_1"
  top: "conv3_1"
}
layer {
  name: "conv3_2"
  type: "Convolution"
  bottom: "conv3_1"
  top: "conv3_2"
  param {
    lr_mult: 1
    decay_mult: 1
  }
  param {
    lr_mult: 2
    decay_mult: 0
  }
  convolution_param {
    num_output: 256
    pad: 1
    kernel_size: 3
    engine: CUDNN
  }
}
layer {
  name: "relu3_2"
  type: "ReLU"
  bottom: "conv3_2"
  top: "conv3_2"
}
layer {
  name: "conv3_3"
  type: "Convolution"
  bottom: "conv3_2"
  top: "conv3_3"
  param {
    lr_mult: 1
    decay_mult: 1
  }
  param {
    lr_mult: 2
    decay_mult: 0
  }
  convolution_param {
    num_output: 256
    pad: 1
    kernel_size: 3
    engine: CUDNN
  }
}
layer {
  name: "relu3_3"
  type: "ReLU"
  bottom: "conv3_3"
  top: "conv3_3"
}
layer {
  name: "pool3"
  type: "Pooling"
  bottom: "conv3_3"
  top: "pool3"
  pooling_param {
    pool: MAX
    kernel_size: 2
    stride: 2
  }
}
layer {
  name: "conv4_1"
  type: "Convolution"
  bottom: "pool3"
  top: "conv4_1"
  param {
    lr_mult: 1
    decay_mult: 1
  }
  param {
    lr_mult: 2
    decay_mult: 0
  }
  convolution_param {
    num_output: 512
    pad: 1
    kernel_size: 3
    engine: CUDNN
  }
}
layer {
  name: "relu4_1"
  type: "ReLU"
  bottom: "conv4_1"
  top: "conv4_1"
}
layer {
  name: "conv4_2"
  type: "Convolution"
  bottom: "conv4_1"
  top: "conv4_2"
  param {
    lr_mult: 1
    decay_mult: 1
  }
  param {
    lr_mult: 2
    decay_mult: 0
  }
  convolution_param {
    num_output: 512
    pad: 1
    kernel_size: 3
    engine: CUDNN
  }
}
layer {
  name: "relu4_2"
  type: "ReLU"
  bottom: "conv4_2"
  top: "conv4_2"
}
layer {
  name: "conv4_3"
  type: "Convolution"
  bottom: "conv4_2"
  top: "conv4_3"
  param {
    lr_mult: 1
    decay_mult: 1
  }
  param {
    lr_mult: 2
    decay_mult: 0
  }
  convolution_param {
    num_output: 512
    pad: 1
    kernel_size: 3
    engine: CUDNN
  }
}
layer {
  name: "relu4_3"
  type: "ReLU"
  bottom: "conv4_3"
  top: "conv4_3"
}
layer {
  name: "pool4"
  type: "Pooling"
  bottom: "conv4_3"
  top: "pool4"
  pooling_param {
    pool: MAX
    kernel_size: 3
    stride: 2
    pad: 1
  }
}
layer {
  name: "conv5_1"
  type: "Convolution"
  bottom: "pool4"
  top: "conv5_1"
  param {
    lr_mult: 1
    decay_mult: 1
  }
  param {
    lr_mult: 2
    decay_mult: 0
  }
  convolution_param {
    num_output: 512
    pad: 1
    kernel_size: 3
    engine: CUDNN
  }
}
layer {
  name: "relu5_1"
  type: "ReLU"
  bottom: "conv5_1"
  top: "conv5_1"
}
layer {
  name: "conv5_2"
  type: "Convolution"
  bottom: "conv5_1"
  top: "conv5_2"
  param {
    lr_mult: 1
    decay_mult: 1
  }
  param {
    lr_mult: 2
    decay_mult: 0
  }
  convolution_param {
    num_output: 512
    pad: 1
    kernel_size: 3
    engine: CUDNN
  }
}
layer {
  name: "relu5_2"
  type: "ReLU"
  bottom: "conv5_2"
  top: "conv5_2"
}
layer {
  name: "conv5_3"
  type: "Convolution"
  bottom: "conv5_2"
  top: "conv5_3"
  param {
    lr_mult: 1
    decay_mult: 1
  }
  param {
    lr_mult: 2
    decay_mult: 0
  }
  convolution_param {
    num_output: 512
    pad: 1
    kernel_size: 3
    engine: CUDNN
  }
}
layer {
  name: "relu5_3"
  type: "ReLU"
  bottom: "conv5_3"
  top: "conv5_3"
}
layer {
  name: "pool5"
  type: "Pooling"
  bottom: "conv5_3"
  top: "pool5"
  pooling_param {
    pool: MAX
    kernel_size: 3
    stride: 2
    pad: 1
  }
}
layer {
  name: "conv1-dsn6"
  type: "Convolution"
  bottom: "pool5"
  top: "conv1-dsn6"
  param {
    lr_mult: 1
    decay_mult: 1
  }
  param {
    lr_mult: 2
    decay_mult: 0
  }
  convolution_param {
    num_output: 256
    kernel_size: 1
    weight_filler {
      type: "gaussian"
      std: 0.01
    }
    bias_filler {
      type: "constant"
      value: 0
    }
    engine: CUDNN
  }
}
layer {
  name: "conv2-dsn6"
  type: "Convolution"
  bottom: "conv1-dsn6"
  top: "conv2-dsn6"
  param {
    lr_mult: 1
    decay_mult: 1
  }
  param {
    lr_mult: 2
    decay_mult: 0
  }
  convolution_param {
    num_output: 256
    pad: 2
    kernel_size: 5
    weight_filler {
      type: "gaussian"
      std: 0.01
    }
    bias_filler {
      type: "constant"
      value: 0
    }
    engine: CUDNN
  }
}
layer {
  name: "relu1-dsn6"
  type: "ReLU"
  bottom: "conv2-dsn6"
  top: "conv2-dsn6"
}
layer {
  name: "conv3-dsn6"
  type: "Convolution"
  bottom: "conv2-dsn6"
  top: "conv3-dsn6"
  param {
    lr_mult: 1
    decay_mult: 1
  }
  param {
    lr_mult: 2
    decay_mult: 0
  }
  convolution_param {
    num_output: 256
    pad: 2
    kernel_size: 5
    weight_filler {
      type: "gaussian"
      std: 0.01
    }
    bias_filler {
      type: "constant"
      value: 0
    }
    engine: CUDNN
  }
}
layer {
  name: "relu2-dsn6"
  type: "ReLU"
  bottom: "conv3-dsn6"
  top: "conv3-dsn6"
}
layer {
  name: "conv4-dsn6"
  type: "Convolution"
  bottom: "conv3-dsn6"
  top: "conv4-dsn6"
  param {
    lr_mult: 1
    decay_mult: 1
  }
  param {
    lr_mult: 2
    decay_mult: 0
  }
  convolution_param {
    num_output: 256
    pad: 2
    kernel_size: 5
    weight_filler {
      type: "gaussian"
      std: 0.01
    }
    bias_filler {
      type: "constant"
      value: 0
    }
    engine: CUDNN
  }
}
layer {
  name: "relu3-dsn6"
  type: "ReLU"
  bottom: "conv4-dsn6"
  top: "conv4-dsn6"
}
layer {
  name: "conv5-dsn6"
  type: "Convolution"
  bottom: "conv4-dsn6"
  top: "conv5-dsn6"
  param {
    lr_mult: 0.1
    decay_mult: 1
  }
  param {
    lr_mult: 0.2
    decay_mult: 0
  }
  convolution_param {
    num_output: 1
    kernel_size: 1
    weight_filler {
      type: "gaussian"
      std: 0.01
    }
    bias_filler {
      type: "constant"
      value: 0
    }
    engine: CUDNN
  }
}
layer {
  name: "upsample32_dsn6"
  type: "Deconvolution"
  bottom: "conv5-dsn6"
  top: "conv5-dsn6-up"
  param {
    lr_mult: 0
    decay_mult: 1
  }
  param {
    lr_mult: 0
    decay_mult: 0
  }
  convolution_param {
    num_output: 1
    kernel_size: 64
    stride: 32
  }
}
layer {
  name: "crop-dsn6"
  type: "Crop"
  bottom: "conv5-dsn6-up"
  bottom: "data"
  top: "upscore-dsn6"
}
layer {
  name: "loss6-score"
  type: "SigmoidCrossEntropyLoss"
  bottom: "upscore-dsn6"
  bottom: "label"
  top: "loss6-score"
  loss_weight: 1
}
layer {
  name: "upsample2_dsn5"
  type: "Deconvolution"
  bottom: "conv5-dsn6"
  top: "conv5-dsn6-5"
  param {
    lr_mult: 0
    decay_mult: 1
  }
  param {
    lr_mult: 0
    decay_mult: 0
  }
  convolution_param {
    num_output: 1
    kernel_size: 4
    stride: 2
  }
}
layer {
  name: "crop1-dsn5"
  type: "Crop"
  bottom: "conv5-dsn6-5"
  bottom: "conv5_3"
  top: "weight-dsn6-5"
}
layer {
  name: "sigmoid-dsn5"
  type: "Sigmoid"
  bottom: "weight-dsn6-5"
  top: "sigmoid-dsn5"
}
layer {
  name: "rev-dsn5"
  type: "Power"
  bottom: "sigmoid-dsn5"
  top: "rev-dsn5"
  power_param {
    power: 1
    scale: -1
    shift: 1
  }
}
layer {
  name: "tile-dsn5"
  type: "Tile"
  bottom: "rev-dsn5"
  top: "weight-dsn5"
  tile_param {
    tiles: 512
  }
}
layer {
  name: "prod1-dsn5"
  type: "Eltwise"
  bottom: "conv5_3"
  bottom: "weight-dsn5"
  top: "prod1-dsn5"
  eltwise_param {
    operation: PROD
  }
}
layer {
  name: "conv1-dsn5"
  type: "Convolution"
  bottom: "prod1-dsn5"
  top: "conv1-dsn5"
  param {
    lr_mult: 1
    decay_mult: 1
  }
  param {
    lr_mult: 2
    decay_mult: 0
  }
  convolution_param {
    num_output: 64
    kernel_size: 1
    weight_filler {
      type: "gaussian"
      std: 0.01
    }
    bias_filler {
      type: "constant"
      value: 0
    }
    engine: CUDNN
  }
}
layer {
  name: "conv2-dsn5"
  type: "Convolution"
  bottom: "conv1-dsn5"
  top: "conv2-dsn5"
  param {
    lr_mult: 1
    decay_mult: 1
  }
  param {
    lr_mult: 2
    decay_mult: 0
  }
  convolution_param {
    num_output: 64
    pad: 1
    kernel_size: 3
    weight_filler {
      type: "gaussian"
      std: 0.01
    }
    bias_filler {
      type: "constant"
      value: 0
    }
    engine: CUDNN
  }
}
layer {
  name: "relu1-dsn5"
  type: "ReLU"
  bottom: "conv2-dsn5"
  top: "conv2-dsn5"
}
layer {
  name: "conv3-dsn5"
  type: "Convolution"
  bottom: "conv2-dsn5"
  top: "conv3-dsn5"
  param {
    lr_mult: 1
    decay_mult: 1
  }
  param {
    lr_mult: 2
    decay_mult: 0
  }
  convolution_param {
    num_output: 64
    pad: 1
    kernel_size: 3
    weight_filler {
      type: "gaussian"
      std: 0.01
    }
    bias_filler {
      type: "constant"
      value: 0
    }
    engine: CUDNN
  }
}
layer {
  name: "relu2-dsn5"
  type: "ReLU"
  bottom: "conv3-dsn5"
  top: "conv3-dsn5"
}
layer {
  name: "conv4-dsn5"
  type: "Convolution"
  bottom: "conv3-dsn5"
  top: "conv4-dsn5"
  param {
    lr_mult: 1
    decay_mult: 1
  }
  param {
    lr_mult: 2
    decay_mult: 0
  }
  convolution_param {
    num_output: 1
    pad: 1
    kernel_size: 3
    weight_filler {
      type: "gaussian"
      std: 0.01
    }
    bias_filler {
      type: "constant"
      value: 0
    }
    engine: CUDNN
  }
}
layer {
  name: "sum-dsn5"
  type: "Eltwise"
  bottom: "conv4-dsn5"
  bottom: "weight-dsn6-5"
  top: "sum-dsn5"
  eltwise_param {
    operation: SUM
  }
}
layer {
  name: "upsample16_dsn5"
  type: "Deconvolution"
  bottom: "sum-dsn5"
  top: "sum-dsn5-up"
  param {
    lr_mult: 0
    decay_mult: 1
  }
  param {
    lr_mult: 0
    decay_mult: 0
  }
  convolution_param {
    num_output: 1
    kernel_size: 32
    stride: 16
  }
}
layer {
  name: "crop2-dsn5"
  type: "Crop"
  bottom: "sum-dsn5-up"
  bottom: "data"
  top: "upscore-dsn5"
}
layer {
  name: "loss5-score"
  type: "SigmoidCrossEntropyLoss"
  bottom: "upscore-dsn5"
  bottom: "label"
  top: "loss5-score"
  loss_weight: 1
}
layer {
  name: "upsample2_dsn4"
  type: "Deconvolution"
  bottom: "sum-dsn5"
  top: "sum-dsn5-4"
  param {
    lr_mult: 0
    decay_mult: 1
  }
  param {
    lr_mult: 0
    decay_mult: 0
  }
  convolution_param {
    num_output: 1
    kernel_size: 4
    stride: 2
  }
}
layer {
  name: "crop1-dsn4"
  type: "Crop"
  bottom: "sum-dsn5-4"
  bottom: "conv4_3"
  top: "weight-dsn5-4"
}
layer {
  name: "sigmoid-dsn4"
  type: "Sigmoid"
  bottom: "weight-dsn5-4"
  top: "sigmoid-dsn4"
}
layer {
  name: "rev-dsn4"
  type: "Power"
  bottom: "sigmoid-dsn4"
  top: "rev-dsn4"
  power_param {
    power: 1
    scale: -1
    shift: 1
  }
}
layer {
  name: "tile-dsn4"
  type: "Tile"
  bottom: "rev-dsn4"
  top: "weight-dsn4"
  tile_param {
    tiles: 512
  }
}
layer {
  name: "prod1-dsn4"
  type: "Eltwise"
  bottom: "conv4_3"
  bottom: "weight-dsn4"
  top: "prod1-dsn4"
  eltwise_param {
    operation: PROD
  }
}
layer {
  name: "conv1-dsn4"
  type: "Convolution"
  bottom: "prod1-dsn4"
  top: "conv1-dsn4"
  param {
    lr_mult: 1
    decay_mult: 1
  }
  param {
    lr_mult: 2
    decay_mult: 0
  }
  convolution_param {
    num_output: 64
    kernel_size: 1
    weight_filler {
      type: "gaussian"
      std: 0.01
    }
    bias_filler {
      type: "constant"
      value: 0
    }
    engine: CUDNN
  }
}
layer {
  name: "conv2-dsn4"
  type: "Convolution"
  bottom: "conv1-dsn4"
  top: "conv2-dsn4"
  param {
    lr_mult: 1
    decay_mult: 1
  }
  param {
    lr_mult: 2
    decay_mult: 0
  }
  convolution_param {
    num_output: 64
    pad: 1
    kernel_size: 3
    weight_filler {
      type: "gaussian"
      std: 0.01
    }
    bias_filler {
      type: "constant"
      value: 0
    }
    engine: CUDNN
  }
}
layer {
  name: "relu1-dsn4"
  type: "ReLU"
  bottom: "conv2-dsn4"
  top: "conv2-dsn4"
}
layer {
  name: "conv3-dsn4"
  type: "Convolution"
  bottom: "conv2-dsn4"
  top: "conv3-dsn4"
  param {
    lr_mult: 1
    decay_mult: 1
  }
  param {
    lr_mult: 2
    decay_mult: 0
  }
  convolution_param {
    num_output: 64
    pad: 1
    kernel_size: 3
    weight_filler {
      type: "gaussian"
      std: 0.01
    }
    bias_filler {
      type: "constant"
      value: 0
    }
    engine: CUDNN
  }
}
layer {
  name: "relu2-dsn4"
  type: "ReLU"
  bottom: "conv3-dsn4"
  top: "conv3-dsn4"
}
layer {
  name: "conv4-dsn4"
  type: "Convolution"
  bottom: "conv3-dsn4"
  top: "conv4-dsn4"
  param {
    lr_mult: 1
    decay_mult: 1
  }
  param {
    lr_mult: 2
    decay_mult: 0
  }
  convolution_param {
    num_output: 1
    pad: 1
    kernel_size: 3
    weight_filler {
      type: "gaussian"
      std: 0.01
    }
    bias_filler {
      type: "constant"
      value: 0
    }
    engine: CUDNN
  }
}
layer {
  name: "sum-dsn4"
  type: "Eltwise"
  bottom: "conv4-dsn4"
  bottom: "weight-dsn5-4"
  top: "sum-dsn4"
  eltwise_param {
    operation: SUM
  }
}
layer {
  name: "upsample8_dsn4"
  type: "Deconvolution"
  bottom: "sum-dsn4"
  top: "sum-dsn4-up"
  param {
    lr_mult: 0
    decay_mult: 1
  }
  param {
    lr_mult: 0
    decay_mult: 0
  }
  convolution_param {
    num_output: 1
    kernel_size: 16
    stride: 8
  }
}
layer {
  name: "crop2-dsn4"
  type: "Crop"
  bottom: "sum-dsn4-up"
  bottom: "data"
  top: "upscore-dsn4"
}
layer {
  name: "loss4-score"
  type: "SigmoidCrossEntropyLoss"
  bottom: "upscore-dsn4"
  bottom: "label"
  top: "loss4-score"
  loss_weight: 1
}
layer {
  name: "upsample2_dsn3"
  type: "Deconvolution"
  bottom: "sum-dsn4"
  top: "sum-dsn4-3"
  param {
    lr_mult: 0
    decay_mult: 1
  }
  param {
    lr_mult: 0
    decay_mult: 0
  }
  convolution_param {
    num_output: 1
    kernel_size: 4
    stride: 2
  }
}
layer {
  name: "crop1-dsn3"
  type: "Crop"
  bottom: "sum-dsn4-3"
  bottom: "conv3_3"
  top: "weight-dsn4-3"
}
layer {
  name: "sigmoid-dsn3"
  type: "Sigmoid"
  bottom: "weight-dsn4-3"
  top: "sigmoid-dsn3"
}
layer {
  name: "rev-dsn3"
  type: "Power"
  bottom: "sigmoid-dsn3"
  top: "rev-dsn3"
  power_param {
    power: 1
    scale: -1
    shift: 1
  }
}
layer {
  name: "tile-dsn3"
  type: "Tile"
  bottom: "rev-dsn3"
  top: "weight-dsn3"
  tile_param {
    tiles: 256
  }
}
layer {
  name: "prod1-dsn3"
  type: "Eltwise"
  bottom: "conv3_3"
  bottom: "weight-dsn3"
  top: "prod1-dsn3"
  eltwise_param {
    operation: PROD
  }
}
layer {
  name: "conv1-dsn3"
  type: "Convolution"
  bottom: "prod1-dsn3"
  top: "conv1-dsn3"
  param {
    lr_mult: 1
    decay_mult: 1
  }
  param {
    lr_mult: 2
    decay_mult: 0
  }
  convolution_param {
    num_output: 64
    kernel_size: 1
    weight_filler {
      type: "gaussian"
      std: 0.01
    }
    bias_filler {
      type: "constant"
      value: 0
    }
    engine: CUDNN
  }
}
layer {
  name: "conv2-dsn3"
  type: "Convolution"
  bottom: "conv1-dsn3"
  top: "conv2-dsn3"
  param {
    lr_mult: 1
    decay_mult: 1
  }
  param {
    lr_mult: 2
    decay_mult: 0
  }
  convolution_param {
    num_output: 64
    pad: 1
    kernel_size: 3
    weight_filler {
      type: "gaussian"
      std: 0.01
    }
    bias_filler {
      type: "constant"
      value: 0
    }
    engine: CUDNN
  }
}
layer {
  name: "relu1-dsn3"
  type: "ReLU"
  bottom: "conv2-dsn3"
  top: "conv2-dsn3"
}
layer {
  name: "conv3-dsn3"
  type: "Convolution"
  bottom: "conv2-dsn3"
  top: "conv3-dsn3"
  param {
    lr_mult: 1
    decay_mult: 1
  }
  param {
    lr_mult: 2
    decay_mult: 0
  }
  convolution_param {
    num_output: 64
    pad: 1
    kernel_size: 3
    weight_filler {
      type: "gaussian"
      std: 0.01
    }
    bias_filler {
      type: "constant"
      value: 0
    }
    engine: CUDNN
  }
}
layer {
  name: "relu2-dsn3"
  type: "ReLU"
  bottom: "conv3-dsn3"
  top: "conv3-dsn3"
}
layer {
  name: "conv4-dsn3"
  type: "Convolution"
  bottom: "conv3-dsn3"
  top: "conv4-dsn3"
  param {
    lr_mult: 1
    decay_mult: 1
  }
  param {
    lr_mult: 2
    decay_mult: 0
  }
  convolution_param {
    num_output: 1
    pad: 1
    kernel_size: 3
    weight_filler {
      type: "gaussian"
      std: 0.01
    }
    bias_filler {
      type: "constant"
      value: 0
    }
    engine: CUDNN
  }
}
layer {
  name: "sum-dsn3"
  type: "Eltwise"
  bottom: "conv4-dsn3"
  bottom: "weight-dsn4-3"
  top: "sum-dsn3"
  eltwise_param {
    operation: SUM
  }
}
layer {
  name: "upsample4_dsn3"
  type: "Deconvolution"
  bottom: "sum-dsn3"
  top: "sum-dsn3-up"
  param {
    lr_mult: 0
    decay_mult: 1
  }
  param {
    lr_mult: 0
    decay_mult: 0
  }
  convolution_param {
    num_output: 1
    kernel_size: 8
    stride: 4
  }
}
layer {
  name: "crop2-dsn3"
  type: "Crop"
  bottom: "sum-dsn3-up"
  bottom: "data"
  top: "upscore-dsn3"
}
layer {
  name: "loss3-score"
  type: "SigmoidCrossEntropyLoss"
  bottom: "upscore-dsn3"
  bottom: "label"
  top: "loss3-score"
  loss_weight: 1
}
layer {
  name: "upsample2_1-dsn2"
  type: "Deconvolution"
  bottom: "sum-dsn3"
  top: "sum-dsn3-2"
  param {
    lr_mult: 0
    decay_mult: 1
  }
  param {
    lr_mult: 0
    decay_mult: 0
  }
  convolution_param {
    num_output: 1
    kernel_size: 4
    stride: 2
  }
}
layer {
  name: "crop1-dsn2"
  type: "Crop"
  bottom: "sum-dsn3-2"
  bottom: "conv2_2"
  top: "weight-dsn3-2"
}
layer {
  name: "sigmoid-dsn2"
  type: "Sigmoid"
  bottom: "weight-dsn3-2"
  top: "sigmoid-dsn2"
}
layer {
  name: "rev-dsn2"
  type: "Power"
  bottom: "sigmoid-dsn2"
  top: "rev-dsn2"
  power_param {
    power: 1
    scale: -1
    shift: 1
  }
}
layer {
  name: "tile-dsn2"
  type: "Tile"
  bottom: "rev-dsn2"
  top: "weight-dsn2"
  tile_param {
    tiles: 128
  }
}
layer {
  name: "prod1-dsn2"
  type: "Eltwise"
  bottom: "conv2_2"
  bottom: "weight-dsn2"
  top: "prod1-dsn2"
  eltwise_param {
    operation: PROD
  }
}
layer {
  name: "conv1-dsn2"
  type: "Convolution"
  bottom: "prod1-dsn2"
  top: "conv1-dsn2"
  param {
    lr_mult: 1
    decay_mult: 1
  }
  param {
    lr_mult: 2
    decay_mult: 0
  }
  convolution_param {
    num_output: 64
    kernel_size: 1
    weight_filler {
      type: "gaussian"
      std: 0.01
    }
    bias_filler {
      type: "constant"
      value: 0
    }
    engine: CUDNN
  }
}
layer {
  name: "conv2-dsn2"
  type: "Convolution"
  bottom: "conv1-dsn2"
  top: "conv2-dsn2"
  param {
    lr_mult: 1
    decay_mult: 1
  }
  param {
    lr_mult: 2
    decay_mult: 0
  }
  convolution_param {
    num_output: 64
    pad: 1
    kernel_size: 3
    weight_filler {
      type: "gaussian"
      std: 0.01
    }
    bias_filler {
      type: "constant"
      value: 0
    }
    engine: CUDNN
  }
}
layer {
  name: "relu1-dsn2"
  type: "ReLU"
  bottom: "conv2-dsn2"
  top: "conv2-dsn2"
}
layer {
  name: "conv3-dsn2"
  type: "Convolution"
  bottom: "conv2-dsn2"
  top: "conv3-dsn2"
  param {
    lr_mult: 1
    decay_mult: 1
  }
  param {
    lr_mult: 2
    decay_mult: 0
  }
  convolution_param {
    num_output: 64
    pad: 1
    kernel_size: 3
    weight_filler {
      type: "gaussian"
      std: 0.01
    }
    bias_filler {
      type: "constant"
      value: 0
    }
    engine: CUDNN
  }
}
layer {
  name: "relu2-dsn2"
  type: "ReLU"
  bottom: "conv3-dsn2"
  top: "conv3-dsn2"
}
layer {
  name: "conv4-dsn2"
  type: "Convolution"
  bottom: "conv3-dsn2"
  top: "conv4-dsn2"
  param {
    lr_mult: 1
    decay_mult: 1
  }
  param {
    lr_mult: 2
    decay_mult: 0
  }
  convolution_param {
    num_output: 1
    pad: 1
    kernel_size: 3
    weight_filler {
      type: "gaussian"
      std: 0.01
    }
    bias_filler {
      type: "constant"
      value: 0
    }
    engine: CUDNN
  }
}
layer {
  name: "sum-dsn2"
  type: "Eltwise"
  bottom: "conv4-dsn2"
  bottom: "weight-dsn3-2"
  top: "sum-dsn2"
  eltwise_param {
    operation: SUM
  }
}
layer {
  name: "upsample2_2-dsn2"
  type: "Deconvolution"
  bottom: "sum-dsn2"
  top: "sum-dsn2-up"
  param {
    lr_mult: 0
    decay_mult: 1
  }
  param {
    lr_mult: 0
    decay_mult: 0
  }
  convolution_param {
    num_output: 1
    kernel_size: 4
    stride: 2
  }
}
layer {
  name: "crop2-dsn2"
  type: "Crop"
  bottom: "sum-dsn2-up"
  bottom: "data"
  top: "upscore-dsn2"
}
layer {
  name: "loss2-score"
  type: "SigmoidCrossEntropyLoss"
  bottom: "upscore-dsn2"
  bottom: "label"
  top: "loss2-score"
  loss_weight: 1
}
layer {
  name: "sigmoid-dsn1"
  type: "Sigmoid"
  bottom: "upscore-dsn2"
  top: "sigmoid-dsn1"
}
layer {
  name: "rev-dsn1"
  type: "Power"
  bottom: "sigmoid-dsn1"
  top: "rev-dsn1"
  power_param {
    power: 1
    scale: -1
    shift: 1
  }
}
layer {
  name: "tile-dsn1"
  type: "Tile"
  bottom: "rev-dsn1"
  top: "weight-dsn1"
  tile_param {
    tiles: 64
  }
}
layer {
  name: "prod1-dsn1"
  type: "Eltwise"
  bottom: "conv1_2"
  bottom: "weight-dsn1"
  top: "prod1-dsn1"
  eltwise_param {
    operation: PROD
  }
}
layer {
  name: "conv1-dsn1"
  type: "Convolution"
  bottom: "prod1-dsn1"
  top: "conv1-dsn1"
  param {
    lr_mult: 1
    decay_mult: 1
  }
  param {
    lr_mult: 2
    decay_mult: 0
  }
  convolution_param {
    num_output: 64
    kernel_size: 1
    weight_filler {
      type: "gaussian"
      std: 0.01
    }
    bias_filler {
      type: "constant"
      value: 0
    }
    engine: CUDNN
  }
}
layer {
  name: "conv2-dsn1"
  type: "Convolution"
  bottom: "conv1-dsn1"
  top: "conv2-dsn1"
  param {
    lr_mult: 1
    decay_mult: 1
  }
  param {
    lr_mult: 2
    decay_mult: 0
  }
  convolution_param {
    num_output: 64
    pad: 1
    kernel_size: 3
    weight_filler {
      type: "gaussian"
      std: 0.01
    }
    bias_filler {
      type: "constant"
      value: 0
    }
    engine: CUDNN
  }
}
layer {
  name: "relu1-dsn1"
  type: "ReLU"
  bottom: "conv2-dsn1"
  top: "conv2-dsn1"
}
layer {
  name: "conv3-dsn1"
  type: "Convolution"
  bottom: "conv2-dsn1"
  top: "conv3-dsn1"
  param {
    lr_mult: 1
    decay_mult: 1
  }
  param {
    lr_mult: 2
    decay_mult: 0
  }
  convolution_param {
    num_output: 64
    pad: 1
    kernel_size: 3
    weight_filler {
      type: "gaussian"
      std: 0.01
    }
    bias_filler {
      type: "constant"
      value: 0
    }
    engine: CUDNN
  }
}
layer {
  name: "relu2-dsn1"
  type: "ReLU"
  bottom: "conv3-dsn1"
  top: "conv3-dsn1"
}
layer {
  name: "conv4-dsn1"
  type: "Convolution"
  bottom: "conv3-dsn1"
  top: "conv4-dsn1"
  param {
    lr_mult: 1
    decay_mult: 1
  }
  param {
    lr_mult: 2
    decay_mult: 0
  }
  convolution_param {
    num_output: 1
    pad: 1
    kernel_size: 3
    weight_filler {
      type: "gaussian"
      std: 0.01
    }
    bias_filler {
      type: "constant"
      value: 0
    }
    engine: CUDNN
  }
}
layer {
  name: "sum-dsn1"
  type: "Eltwise"
  bottom: "conv4-dsn1"
  bottom: "upscore-dsn2"
  top: "sum-dsn1"
  eltwise_param {
    operation: SUM
  }
}
layer {
  name: "crop2-dsn1"
  type: "Crop"
  bottom: "sum-dsn1"
  bottom: "data"
  top: "upscore-dsn1"
}
layer {
  name: "loss1-score"
  type: "SigmoidCrossEntropyLoss"
  bottom: "upscore-dsn1"
  bottom: "label"
  top: "loss1-score"
  loss_weight: 1
}
I1125 10:28:16.974990 17335 layer_factory.hpp:77] Creating layer data
I1125 10:28:16.975003 17335 net.cpp:100] Creating Layer data
I1125 10:28:16.975005 17335 net.cpp:408] data -> data
I1125 10:28:16.975013 17335 net.cpp:408] data -> label
I1125 10:28:16.975019 17335 image_labelmap_data_layer.cpp:41] Opening file /media/compute/homes/galberding/FleckDetect/Datasets/val.txt
I1125 10:28:16.976845 17335 image_labelmap_data_layer.cpp:56] A total of 1200 images.
I1125 10:28:16.992338 17335 image_labelmap_data_layer.cpp:110] output data size: 1,3,500,500
I1125 10:28:16.992347 17335 image_labelmap_data_layer.cpp:113] output label size: 1,1,500,500
I1125 10:28:17.000241 17335 net.cpp:150] Setting up data
I1125 10:28:17.000252 17335 net.cpp:157] Top shape: 1 3 500 500 (750000)
I1125 10:28:17.000272 17335 net.cpp:157] Top shape: 1 1 500 500 (250000)
I1125 10:28:17.000273 17335 net.cpp:165] Memory required for data: 4000000
I1125 10:28:17.000277 17335 layer_factory.hpp:77] Creating layer data_data_0_split
I1125 10:28:17.000284 17335 net.cpp:100] Creating Layer data_data_0_split
I1125 10:28:17.000286 17335 net.cpp:434] data_data_0_split <- data
I1125 10:28:17.000293 17335 net.cpp:408] data_data_0_split -> data_data_0_split_0
I1125 10:28:17.000299 17335 net.cpp:408] data_data_0_split -> data_data_0_split_1
I1125 10:28:17.000305 17335 net.cpp:408] data_data_0_split -> data_data_0_split_2
I1125 10:28:17.000310 17335 net.cpp:408] data_data_0_split -> data_data_0_split_3
I1125 10:28:17.000314 17335 net.cpp:408] data_data_0_split -> data_data_0_split_4
I1125 10:28:17.000319 17335 net.cpp:408] data_data_0_split -> data_data_0_split_5
I1125 10:28:17.000324 17335 net.cpp:408] data_data_0_split -> data_data_0_split_6
I1125 10:28:17.000439 17335 net.cpp:150] Setting up data_data_0_split
I1125 10:28:17.000445 17335 net.cpp:157] Top shape: 1 3 500 500 (750000)
I1125 10:28:17.000448 17335 net.cpp:157] Top shape: 1 3 500 500 (750000)
I1125 10:28:17.000452 17335 net.cpp:157] Top shape: 1 3 500 500 (750000)
I1125 10:28:17.000454 17335 net.cpp:157] Top shape: 1 3 500 500 (750000)
I1125 10:28:17.000456 17335 net.cpp:157] Top shape: 1 3 500 500 (750000)
I1125 10:28:17.000459 17335 net.cpp:157] Top shape: 1 3 500 500 (750000)
I1125 10:28:17.000463 17335 net.cpp:157] Top shape: 1 3 500 500 (750000)
I1125 10:28:17.000464 17335 net.cpp:165] Memory required for data: 25000000
I1125 10:28:17.000466 17335 layer_factory.hpp:77] Creating layer label_data_1_split
I1125 10:28:17.000471 17335 net.cpp:100] Creating Layer label_data_1_split
I1125 10:28:17.000473 17335 net.cpp:434] label_data_1_split <- label
I1125 10:28:17.000478 17335 net.cpp:408] label_data_1_split -> label_data_1_split_0
I1125 10:28:17.000481 17335 net.cpp:408] label_data_1_split -> label_data_1_split_1
I1125 10:28:17.000486 17335 net.cpp:408] label_data_1_split -> label_data_1_split_2
I1125 10:28:17.000490 17335 net.cpp:408] label_data_1_split -> label_data_1_split_3
I1125 10:28:17.000494 17335 net.cpp:408] label_data_1_split -> label_data_1_split_4
I1125 10:28:17.000499 17335 net.cpp:408] label_data_1_split -> label_data_1_split_5
I1125 10:28:17.000600 17335 net.cpp:150] Setting up label_data_1_split
I1125 10:28:17.000607 17335 net.cpp:157] Top shape: 1 1 500 500 (250000)
I1125 10:28:17.000609 17335 net.cpp:157] Top shape: 1 1 500 500 (250000)
I1125 10:28:17.000612 17335 net.cpp:157] Top shape: 1 1 500 500 (250000)
I1125 10:28:17.000614 17335 net.cpp:157] Top shape: 1 1 500 500 (250000)
I1125 10:28:17.000617 17335 net.cpp:157] Top shape: 1 1 500 500 (250000)
I1125 10:28:17.000620 17335 net.cpp:157] Top shape: 1 1 500 500 (250000)
I1125 10:28:17.000622 17335 net.cpp:165] Memory required for data: 31000000
I1125 10:28:17.000624 17335 layer_factory.hpp:77] Creating layer conv1_1
I1125 10:28:17.000630 17335 net.cpp:100] Creating Layer conv1_1
I1125 10:28:17.000633 17335 net.cpp:434] conv1_1 <- data_data_0_split_0
I1125 10:28:17.000636 17335 net.cpp:408] conv1_1 -> conv1_1
I1125 10:28:17.003424 17335 net.cpp:150] Setting up conv1_1
I1125 10:28:17.003434 17335 net.cpp:157] Top shape: 1 64 500 500 (16000000)
I1125 10:28:17.003453 17335 net.cpp:165] Memory required for data: 95000000
I1125 10:28:17.003460 17335 layer_factory.hpp:77] Creating layer relu1_1
I1125 10:28:17.003468 17335 net.cpp:100] Creating Layer relu1_1
I1125 10:28:17.003469 17335 net.cpp:434] relu1_1 <- conv1_1
I1125 10:28:17.003473 17335 net.cpp:395] relu1_1 -> conv1_1 (in-place)
I1125 10:28:17.003640 17335 net.cpp:150] Setting up relu1_1
I1125 10:28:17.003648 17335 net.cpp:157] Top shape: 1 64 500 500 (16000000)
I1125 10:28:17.003649 17335 net.cpp:165] Memory required for data: 159000000
I1125 10:28:17.003652 17335 layer_factory.hpp:77] Creating layer conv1_2
I1125 10:28:17.003659 17335 net.cpp:100] Creating Layer conv1_2
I1125 10:28:17.003660 17335 net.cpp:434] conv1_2 <- conv1_1
I1125 10:28:17.003665 17335 net.cpp:408] conv1_2 -> conv1_2
I1125 10:28:17.004859 17335 net.cpp:150] Setting up conv1_2
I1125 10:28:17.004871 17335 net.cpp:157] Top shape: 1 64 500 500 (16000000)
I1125 10:28:17.004889 17335 net.cpp:165] Memory required for data: 223000000
I1125 10:28:17.004896 17335 layer_factory.hpp:77] Creating layer relu1_2
I1125 10:28:17.004901 17335 net.cpp:100] Creating Layer relu1_2
I1125 10:28:17.004904 17335 net.cpp:434] relu1_2 <- conv1_2
I1125 10:28:17.004909 17335 net.cpp:395] relu1_2 -> conv1_2 (in-place)
I1125 10:28:17.005374 17335 net.cpp:150] Setting up relu1_2
I1125 10:28:17.005385 17335 net.cpp:157] Top shape: 1 64 500 500 (16000000)
I1125 10:28:17.005403 17335 net.cpp:165] Memory required for data: 287000000
I1125 10:28:17.005405 17335 layer_factory.hpp:77] Creating layer conv1_2_relu1_2_0_split
I1125 10:28:17.005411 17335 net.cpp:100] Creating Layer conv1_2_relu1_2_0_split
I1125 10:28:17.005414 17335 net.cpp:434] conv1_2_relu1_2_0_split <- conv1_2
I1125 10:28:17.005419 17335 net.cpp:408] conv1_2_relu1_2_0_split -> conv1_2_relu1_2_0_split_0
I1125 10:28:17.005425 17335 net.cpp:408] conv1_2_relu1_2_0_split -> conv1_2_relu1_2_0_split_1
I1125 10:28:17.005470 17335 net.cpp:150] Setting up conv1_2_relu1_2_0_split
I1125 10:28:17.005475 17335 net.cpp:157] Top shape: 1 64 500 500 (16000000)
I1125 10:28:17.005477 17335 net.cpp:157] Top shape: 1 64 500 500 (16000000)
I1125 10:28:17.005479 17335 net.cpp:165] Memory required for data: 415000000
I1125 10:28:17.005482 17335 layer_factory.hpp:77] Creating layer pool1
I1125 10:28:17.005489 17335 net.cpp:100] Creating Layer pool1
I1125 10:28:17.005492 17335 net.cpp:434] pool1 <- conv1_2_relu1_2_0_split_0
I1125 10:28:17.005496 17335 net.cpp:408] pool1 -> pool1
I1125 10:28:17.005534 17335 net.cpp:150] Setting up pool1
I1125 10:28:17.005540 17335 net.cpp:157] Top shape: 1 64 250 250 (4000000)
I1125 10:28:17.005542 17335 net.cpp:165] Memory required for data: 431000000
I1125 10:28:17.005544 17335 layer_factory.hpp:77] Creating layer conv2_1
I1125 10:28:17.005563 17335 net.cpp:100] Creating Layer conv2_1
I1125 10:28:17.005564 17335 net.cpp:434] conv2_1 <- pool1
I1125 10:28:17.005569 17335 net.cpp:408] conv2_1 -> conv2_1
I1125 10:28:17.006723 17335 net.cpp:150] Setting up conv2_1
I1125 10:28:17.006734 17335 net.cpp:157] Top shape: 1 128 250 250 (8000000)
I1125 10:28:17.006752 17335 net.cpp:165] Memory required for data: 463000000
I1125 10:28:17.006760 17335 layer_factory.hpp:77] Creating layer relu2_1
I1125 10:28:17.006765 17335 net.cpp:100] Creating Layer relu2_1
I1125 10:28:17.006768 17335 net.cpp:434] relu2_1 <- conv2_1
I1125 10:28:17.006773 17335 net.cpp:395] relu2_1 -> conv2_1 (in-place)
I1125 10:28:17.007249 17335 net.cpp:150] Setting up relu2_1
I1125 10:28:17.007274 17335 net.cpp:157] Top shape: 1 128 250 250 (8000000)
I1125 10:28:17.007277 17335 net.cpp:165] Memory required for data: 495000000
I1125 10:28:17.007280 17335 layer_factory.hpp:77] Creating layer conv2_2
I1125 10:28:17.007287 17335 net.cpp:100] Creating Layer conv2_2
I1125 10:28:17.007290 17335 net.cpp:434] conv2_2 <- conv2_1
I1125 10:28:17.007297 17335 net.cpp:408] conv2_2 -> conv2_2
I1125 10:28:17.009786 17335 net.cpp:150] Setting up conv2_2
I1125 10:28:17.009797 17335 net.cpp:157] Top shape: 1 128 250 250 (8000000)
I1125 10:28:17.009815 17335 net.cpp:165] Memory required for data: 527000000
I1125 10:28:17.009821 17335 layer_factory.hpp:77] Creating layer relu2_2
I1125 10:28:17.009826 17335 net.cpp:100] Creating Layer relu2_2
I1125 10:28:17.009829 17335 net.cpp:434] relu2_2 <- conv2_2
I1125 10:28:17.009835 17335 net.cpp:395] relu2_2 -> conv2_2 (in-place)
I1125 10:28:17.010004 17335 net.cpp:150] Setting up relu2_2
I1125 10:28:17.010011 17335 net.cpp:157] Top shape: 1 128 250 250 (8000000)
I1125 10:28:17.010015 17335 net.cpp:165] Memory required for data: 559000000
I1125 10:28:17.010016 17335 layer_factory.hpp:77] Creating layer conv2_2_relu2_2_0_split
I1125 10:28:17.010021 17335 net.cpp:100] Creating Layer conv2_2_relu2_2_0_split
I1125 10:28:17.010023 17335 net.cpp:434] conv2_2_relu2_2_0_split <- conv2_2
I1125 10:28:17.010028 17335 net.cpp:408] conv2_2_relu2_2_0_split -> conv2_2_relu2_2_0_split_0
I1125 10:28:17.010035 17335 net.cpp:408] conv2_2_relu2_2_0_split -> conv2_2_relu2_2_0_split_1
I1125 10:28:17.010040 17335 net.cpp:408] conv2_2_relu2_2_0_split -> conv2_2_relu2_2_0_split_2
I1125 10:28:17.010097 17335 net.cpp:150] Setting up conv2_2_relu2_2_0_split
I1125 10:28:17.010102 17335 net.cpp:157] Top shape: 1 128 250 250 (8000000)
I1125 10:28:17.010104 17335 net.cpp:157] Top shape: 1 128 250 250 (8000000)
I1125 10:28:17.010107 17335 net.cpp:157] Top shape: 1 128 250 250 (8000000)
I1125 10:28:17.010109 17335 net.cpp:165] Memory required for data: 655000000
I1125 10:28:17.010112 17335 layer_factory.hpp:77] Creating layer pool2
I1125 10:28:17.010118 17335 net.cpp:100] Creating Layer pool2
I1125 10:28:17.010120 17335 net.cpp:434] pool2 <- conv2_2_relu2_2_0_split_0
I1125 10:28:17.010129 17335 net.cpp:408] pool2 -> pool2
I1125 10:28:17.010167 17335 net.cpp:150] Setting up pool2
I1125 10:28:17.010174 17335 net.cpp:157] Top shape: 1 128 125 125 (2000000)
I1125 10:28:17.010175 17335 net.cpp:165] Memory required for data: 663000000
I1125 10:28:17.010177 17335 layer_factory.hpp:77] Creating layer conv3_1
I1125 10:28:17.010185 17335 net.cpp:100] Creating Layer conv3_1
I1125 10:28:17.010186 17335 net.cpp:434] conv3_1 <- pool2
I1125 10:28:17.010191 17335 net.cpp:408] conv3_1 -> conv3_1
I1125 10:28:17.012768 17335 net.cpp:150] Setting up conv3_1
I1125 10:28:17.012780 17335 net.cpp:157] Top shape: 1 256 125 125 (4000000)
I1125 10:28:17.012799 17335 net.cpp:165] Memory required for data: 679000000
I1125 10:28:17.012807 17335 layer_factory.hpp:77] Creating layer relu3_1
I1125 10:28:17.012814 17335 net.cpp:100] Creating Layer relu3_1
I1125 10:28:17.012817 17335 net.cpp:434] relu3_1 <- conv3_1
I1125 10:28:17.012822 17335 net.cpp:395] relu3_1 -> conv3_1 (in-place)
I1125 10:28:17.012992 17335 net.cpp:150] Setting up relu3_1
I1125 10:28:17.013000 17335 net.cpp:157] Top shape: 1 256 125 125 (4000000)
I1125 10:28:17.013002 17335 net.cpp:165] Memory required for data: 695000000
I1125 10:28:17.013005 17335 layer_factory.hpp:77] Creating layer conv3_2
I1125 10:28:17.013012 17335 net.cpp:100] Creating Layer conv3_2
I1125 10:28:17.013015 17335 net.cpp:434] conv3_2 <- conv3_1
I1125 10:28:17.013020 17335 net.cpp:408] conv3_2 -> conv3_2
I1125 10:28:17.015877 17335 net.cpp:150] Setting up conv3_2
I1125 10:28:17.015889 17335 net.cpp:157] Top shape: 1 256 125 125 (4000000)
I1125 10:28:17.015908 17335 net.cpp:165] Memory required for data: 711000000
I1125 10:28:17.015913 17335 layer_factory.hpp:77] Creating layer relu3_2
I1125 10:28:17.015918 17335 net.cpp:100] Creating Layer relu3_2
I1125 10:28:17.015921 17335 net.cpp:434] relu3_2 <- conv3_2
I1125 10:28:17.015925 17335 net.cpp:395] relu3_2 -> conv3_2 (in-place)
I1125 10:28:17.016103 17335 net.cpp:150] Setting up relu3_2
I1125 10:28:17.016113 17335 net.cpp:157] Top shape: 1 256 125 125 (4000000)
I1125 10:28:17.016115 17335 net.cpp:165] Memory required for data: 727000000
I1125 10:28:17.016117 17335 layer_factory.hpp:77] Creating layer conv3_3
I1125 10:28:17.016129 17335 net.cpp:100] Creating Layer conv3_3
I1125 10:28:17.016149 17335 net.cpp:434] conv3_3 <- conv3_2
I1125 10:28:17.016153 17335 net.cpp:408] conv3_3 -> conv3_3
I1125 10:28:17.018965 17335 net.cpp:150] Setting up conv3_3
I1125 10:28:17.018976 17335 net.cpp:157] Top shape: 1 256 125 125 (4000000)
I1125 10:28:17.018995 17335 net.cpp:165] Memory required for data: 743000000
I1125 10:28:17.019001 17335 layer_factory.hpp:77] Creating layer relu3_3
I1125 10:28:17.019006 17335 net.cpp:100] Creating Layer relu3_3
I1125 10:28:17.019009 17335 net.cpp:434] relu3_3 <- conv3_3
I1125 10:28:17.019013 17335 net.cpp:395] relu3_3 -> conv3_3 (in-place)
I1125 10:28:17.019196 17335 net.cpp:150] Setting up relu3_3
I1125 10:28:17.019204 17335 net.cpp:157] Top shape: 1 256 125 125 (4000000)
I1125 10:28:17.019207 17335 net.cpp:165] Memory required for data: 759000000
I1125 10:28:17.019209 17335 layer_factory.hpp:77] Creating layer conv3_3_relu3_3_0_split
I1125 10:28:17.019215 17335 net.cpp:100] Creating Layer conv3_3_relu3_3_0_split
I1125 10:28:17.019218 17335 net.cpp:434] conv3_3_relu3_3_0_split <- conv3_3
I1125 10:28:17.019222 17335 net.cpp:408] conv3_3_relu3_3_0_split -> conv3_3_relu3_3_0_split_0
I1125 10:28:17.019229 17335 net.cpp:408] conv3_3_relu3_3_0_split -> conv3_3_relu3_3_0_split_1
I1125 10:28:17.019234 17335 net.cpp:408] conv3_3_relu3_3_0_split -> conv3_3_relu3_3_0_split_2
I1125 10:28:17.019292 17335 net.cpp:150] Setting up conv3_3_relu3_3_0_split
I1125 10:28:17.019299 17335 net.cpp:157] Top shape: 1 256 125 125 (4000000)
I1125 10:28:17.019301 17335 net.cpp:157] Top shape: 1 256 125 125 (4000000)
I1125 10:28:17.019304 17335 net.cpp:157] Top shape: 1 256 125 125 (4000000)
I1125 10:28:17.019306 17335 net.cpp:165] Memory required for data: 807000000
I1125 10:28:17.019309 17335 layer_factory.hpp:77] Creating layer pool3
I1125 10:28:17.019315 17335 net.cpp:100] Creating Layer pool3
I1125 10:28:17.019317 17335 net.cpp:434] pool3 <- conv3_3_relu3_3_0_split_0
I1125 10:28:17.019321 17335 net.cpp:408] pool3 -> pool3
I1125 10:28:17.019366 17335 net.cpp:150] Setting up pool3
I1125 10:28:17.019371 17335 net.cpp:157] Top shape: 1 256 63 63 (1016064)
I1125 10:28:17.019373 17335 net.cpp:165] Memory required for data: 811064256
I1125 10:28:17.019376 17335 layer_factory.hpp:77] Creating layer conv4_1
I1125 10:28:17.019383 17335 net.cpp:100] Creating Layer conv4_1
I1125 10:28:17.019385 17335 net.cpp:434] conv4_1 <- pool3
I1125 10:28:17.019392 17335 net.cpp:408] conv4_1 -> conv4_1
I1125 10:28:17.023437 17335 net.cpp:150] Setting up conv4_1
I1125 10:28:17.023466 17335 net.cpp:157] Top shape: 1 512 63 63 (2032128)
I1125 10:28:17.023468 17335 net.cpp:165] Memory required for data: 819192768
I1125 10:28:17.023474 17335 layer_factory.hpp:77] Creating layer relu4_1
I1125 10:28:17.023479 17335 net.cpp:100] Creating Layer relu4_1
I1125 10:28:17.023483 17335 net.cpp:434] relu4_1 <- conv4_1
I1125 10:28:17.023488 17335 net.cpp:395] relu4_1 -> conv4_1 (in-place)
I1125 10:28:17.023952 17335 net.cpp:150] Setting up relu4_1
I1125 10:28:17.023962 17335 net.cpp:157] Top shape: 1 512 63 63 (2032128)
I1125 10:28:17.023979 17335 net.cpp:165] Memory required for data: 827321280
I1125 10:28:17.023981 17335 layer_factory.hpp:77] Creating layer conv4_2
I1125 10:28:17.023990 17335 net.cpp:100] Creating Layer conv4_2
I1125 10:28:17.023993 17335 net.cpp:434] conv4_2 <- conv4_1
I1125 10:28:17.023999 17335 net.cpp:408] conv4_2 -> conv4_2
I1125 10:28:17.029633 17335 net.cpp:150] Setting up conv4_2
I1125 10:28:17.029645 17335 net.cpp:157] Top shape: 1 512 63 63 (2032128)
I1125 10:28:17.029664 17335 net.cpp:165] Memory required for data: 835449792
I1125 10:28:17.029675 17335 layer_factory.hpp:77] Creating layer relu4_2
I1125 10:28:17.029680 17335 net.cpp:100] Creating Layer relu4_2
I1125 10:28:17.029683 17335 net.cpp:434] relu4_2 <- conv4_2
I1125 10:28:17.029690 17335 net.cpp:395] relu4_2 -> conv4_2 (in-place)
I1125 10:28:17.030230 17335 net.cpp:150] Setting up relu4_2
I1125 10:28:17.030239 17335 net.cpp:157] Top shape: 1 512 63 63 (2032128)
I1125 10:28:17.030257 17335 net.cpp:165] Memory required for data: 843578304
I1125 10:28:17.030261 17335 layer_factory.hpp:77] Creating layer conv4_3
I1125 10:28:17.030268 17335 net.cpp:100] Creating Layer conv4_3
I1125 10:28:17.030272 17335 net.cpp:434] conv4_3 <- conv4_2
I1125 10:28:17.030277 17335 net.cpp:408] conv4_3 -> conv4_3
I1125 10:28:17.036528 17335 net.cpp:150] Setting up conv4_3
I1125 10:28:17.036558 17335 net.cpp:157] Top shape: 1 512 63 63 (2032128)
I1125 10:28:17.036561 17335 net.cpp:165] Memory required for data: 851706816
I1125 10:28:17.036567 17335 layer_factory.hpp:77] Creating layer relu4_3
I1125 10:28:17.036571 17335 net.cpp:100] Creating Layer relu4_3
I1125 10:28:17.036574 17335 net.cpp:434] relu4_3 <- conv4_3
I1125 10:28:17.036578 17335 net.cpp:395] relu4_3 -> conv4_3 (in-place)
I1125 10:28:17.036754 17335 net.cpp:150] Setting up relu4_3
I1125 10:28:17.036762 17335 net.cpp:157] Top shape: 1 512 63 63 (2032128)
I1125 10:28:17.036764 17335 net.cpp:165] Memory required for data: 859835328
I1125 10:28:17.036767 17335 layer_factory.hpp:77] Creating layer conv4_3_relu4_3_0_split
I1125 10:28:17.036772 17335 net.cpp:100] Creating Layer conv4_3_relu4_3_0_split
I1125 10:28:17.036775 17335 net.cpp:434] conv4_3_relu4_3_0_split <- conv4_3
I1125 10:28:17.036780 17335 net.cpp:408] conv4_3_relu4_3_0_split -> conv4_3_relu4_3_0_split_0
I1125 10:28:17.036787 17335 net.cpp:408] conv4_3_relu4_3_0_split -> conv4_3_relu4_3_0_split_1
I1125 10:28:17.036790 17335 net.cpp:408] conv4_3_relu4_3_0_split -> conv4_3_relu4_3_0_split_2
I1125 10:28:17.036849 17335 net.cpp:150] Setting up conv4_3_relu4_3_0_split
I1125 10:28:17.036854 17335 net.cpp:157] Top shape: 1 512 63 63 (2032128)
I1125 10:28:17.036856 17335 net.cpp:157] Top shape: 1 512 63 63 (2032128)
I1125 10:28:17.036859 17335 net.cpp:157] Top shape: 1 512 63 63 (2032128)
I1125 10:28:17.036861 17335 net.cpp:165] Memory required for data: 884220864
I1125 10:28:17.036864 17335 layer_factory.hpp:77] Creating layer pool4
I1125 10:28:17.036868 17335 net.cpp:100] Creating Layer pool4
I1125 10:28:17.036871 17335 net.cpp:434] pool4 <- conv4_3_relu4_3_0_split_0
I1125 10:28:17.036876 17335 net.cpp:408] pool4 -> pool4
I1125 10:28:17.036916 17335 net.cpp:150] Setting up pool4
I1125 10:28:17.036921 17335 net.cpp:157] Top shape: 1 512 32 32 (524288)
I1125 10:28:17.036922 17335 net.cpp:165] Memory required for data: 886318016
I1125 10:28:17.036926 17335 layer_factory.hpp:77] Creating layer conv5_1
I1125 10:28:17.036931 17335 net.cpp:100] Creating Layer conv5_1
I1125 10:28:17.036934 17335 net.cpp:434] conv5_1 <- pool4
I1125 10:28:17.036939 17335 net.cpp:408] conv5_1 -> conv5_1
I1125 10:28:17.042974 17335 net.cpp:150] Setting up conv5_1
I1125 10:28:17.042989 17335 net.cpp:157] Top shape: 1 512 32 32 (524288)
I1125 10:28:17.042990 17335 net.cpp:165] Memory required for data: 888415168
I1125 10:28:17.042996 17335 layer_factory.hpp:77] Creating layer relu5_1
I1125 10:28:17.043009 17335 net.cpp:100] Creating Layer relu5_1
I1125 10:28:17.043011 17335 net.cpp:434] relu5_1 <- conv5_1
I1125 10:28:17.043015 17335 net.cpp:395] relu5_1 -> conv5_1 (in-place)
I1125 10:28:17.043215 17335 net.cpp:150] Setting up relu5_1
I1125 10:28:17.043222 17335 net.cpp:157] Top shape: 1 512 32 32 (524288)
I1125 10:28:17.043226 17335 net.cpp:165] Memory required for data: 890512320
I1125 10:28:17.043227 17335 layer_factory.hpp:77] Creating layer conv5_2
I1125 10:28:17.043236 17335 net.cpp:100] Creating Layer conv5_2
I1125 10:28:17.043238 17335 net.cpp:434] conv5_2 <- conv5_1
I1125 10:28:17.043246 17335 net.cpp:408] conv5_2 -> conv5_2
I1125 10:28:17.049226 17335 net.cpp:150] Setting up conv5_2
I1125 10:28:17.049238 17335 net.cpp:157] Top shape: 1 512 32 32 (524288)
I1125 10:28:17.049242 17335 net.cpp:165] Memory required for data: 892609472
I1125 10:28:17.049247 17335 layer_factory.hpp:77] Creating layer relu5_2
I1125 10:28:17.049253 17335 net.cpp:100] Creating Layer relu5_2
I1125 10:28:17.049257 17335 net.cpp:434] relu5_2 <- conv5_2
I1125 10:28:17.049263 17335 net.cpp:395] relu5_2 -> conv5_2 (in-place)
I1125 10:28:17.049427 17335 net.cpp:150] Setting up relu5_2
I1125 10:28:17.049432 17335 net.cpp:157] Top shape: 1 512 32 32 (524288)
I1125 10:28:17.049435 17335 net.cpp:165] Memory required for data: 894706624
I1125 10:28:17.049437 17335 layer_factory.hpp:77] Creating layer conv5_3
I1125 10:28:17.049444 17335 net.cpp:100] Creating Layer conv5_3
I1125 10:28:17.049448 17335 net.cpp:434] conv5_3 <- conv5_2
I1125 10:28:17.049453 17335 net.cpp:408] conv5_3 -> conv5_3
I1125 10:28:17.055415 17335 net.cpp:150] Setting up conv5_3
I1125 10:28:17.055428 17335 net.cpp:157] Top shape: 1 512 32 32 (524288)
I1125 10:28:17.055445 17335 net.cpp:165] Memory required for data: 896803776
I1125 10:28:17.055451 17335 layer_factory.hpp:77] Creating layer relu5_3
I1125 10:28:17.055457 17335 net.cpp:100] Creating Layer relu5_3
I1125 10:28:17.055460 17335 net.cpp:434] relu5_3 <- conv5_3
I1125 10:28:17.055465 17335 net.cpp:395] relu5_3 -> conv5_3 (in-place)
I1125 10:28:17.055627 17335 net.cpp:150] Setting up relu5_3
I1125 10:28:17.055634 17335 net.cpp:157] Top shape: 1 512 32 32 (524288)
I1125 10:28:17.055636 17335 net.cpp:165] Memory required for data: 898900928
I1125 10:28:17.055639 17335 layer_factory.hpp:77] Creating layer conv5_3_relu5_3_0_split
I1125 10:28:17.055645 17335 net.cpp:100] Creating Layer conv5_3_relu5_3_0_split
I1125 10:28:17.055647 17335 net.cpp:434] conv5_3_relu5_3_0_split <- conv5_3
I1125 10:28:17.055653 17335 net.cpp:408] conv5_3_relu5_3_0_split -> conv5_3_relu5_3_0_split_0
I1125 10:28:17.055660 17335 net.cpp:408] conv5_3_relu5_3_0_split -> conv5_3_relu5_3_0_split_1
I1125 10:28:17.055665 17335 net.cpp:408] conv5_3_relu5_3_0_split -> conv5_3_relu5_3_0_split_2
I1125 10:28:17.055724 17335 net.cpp:150] Setting up conv5_3_relu5_3_0_split
I1125 10:28:17.055729 17335 net.cpp:157] Top shape: 1 512 32 32 (524288)
I1125 10:28:17.055732 17335 net.cpp:157] Top shape: 1 512 32 32 (524288)
I1125 10:28:17.055735 17335 net.cpp:157] Top shape: 1 512 32 32 (524288)
I1125 10:28:17.055737 17335 net.cpp:165] Memory required for data: 905192384
I1125 10:28:17.055754 17335 layer_factory.hpp:77] Creating layer pool5
I1125 10:28:17.055763 17335 net.cpp:100] Creating Layer pool5
I1125 10:28:17.055765 17335 net.cpp:434] pool5 <- conv5_3_relu5_3_0_split_0
I1125 10:28:17.055770 17335 net.cpp:408] pool5 -> pool5
I1125 10:28:17.055809 17335 net.cpp:150] Setting up pool5
…
I1125 10:28:17.108732 17335 net.cpp:165] Memory required for data: 907559872
I1125 10:28:17.108745 17335 layer_factory.hpp:77] Creating layer relu3-dsn6
I1125 10:28:17.108752 17335 net.cpp:100] Creating Layer relu3-dsn6
I1125 10:28:17.108755 17335 net.cpp:434] relu3-dsn6 <- conv4-dsn6
I1125 10:28:17.108759 17335 net.cpp:395] relu3-dsn6 -> conv4-dsn6 (in-place)
I1125 10:28:17.108922 17335 net.cpp:150] Setting up relu3-dsn6
I1125 10:28:17.108930 17335 net.cpp:157] Top shape: 1 256 17 17 (73984)
I1125 10:28:17.108932 17335 net.cpp:165] Memory required for data: 907855808
I1125 10:28:17.108935 17335 layer_factory.hpp:77] Creating layer conv5-dsn6
I1125 10:28:17.108943 17335 net.cpp:100] Creating Layer conv5-dsn6
I1125 10:28:17.108947 17335 net.cpp:434] conv5-dsn6 <- conv4-dsn6
I1125 10:28:17.108952 17335 net.cpp:408] conv5-dsn6 -> conv5-dsn6
I1125 10:28:17.110085 17335 net.cpp:150] Setting up conv5-dsn6
I1125 10:28:17.110095 17335 net.cpp:157] Top shape: 1 1 17 17 (289)
I1125 10:28:17.110096 17335 net.cpp:165] Memory required for data: 907856964
I1125 10:28:17.110101 17335 layer_factory.hpp:77] Creating layer conv5-dsn6_conv5-dsn6_0_split
I1125 10:28:17.110108 17335 net.cpp:100] Creating Layer conv5-dsn6_conv5-dsn6_0_split
I1125 10:28:17.110110 17335 net.cpp:434] conv5-dsn6_conv5-dsn6_0_split <- conv5-dsn6
I1125 10:28:17.110116 17335 net.cpp:408] conv5-dsn6_conv5-dsn6_0_split -> conv5-dsn6_conv5-dsn6_0_split_0
I1125 10:28:17.110122 17335 net.cpp:408] conv5-dsn6_conv5-dsn6_0_split -> conv5-dsn6_conv5-dsn6_0_split_1
I1125 10:28:17.110170 17335 net.cpp:150] Setting up conv5-dsn6_conv5-dsn6_0_split
I1125 10:28:17.110177 17335 net.cpp:157] Top shape: 1 1 17 17 (289)
I1125 10:28:17.110179 17335 net.cpp:157] Top shape: 1 1 17 17 (289)
I1125 10:28:17.110182 17335 net.cpp:165] Memory required for data: 907859276
I1125 10:28:17.110183 17335 layer_factory.hpp:77] Creating layer upsample32_dsn6
I1125 10:28:17.110190 17335 net.cpp:100] Creating Layer upsample32_dsn6
I1125 10:28:17.110193 17335 net.cpp:434] upsample32_dsn6 <- conv5-dsn6_conv5-dsn6_0_split_0
I1125 10:28:17.110198 17335 net.cpp:408] upsample32_dsn6 -> conv5-dsn6-up
I1125 10:28:17.111654 17335 net.cpp:150] Setting up upsample32_dsn6
I1125 10:28:17.111666 17335 net.cpp:157] Top shape: 1 1 576 576 (331776)
I1125 10:28:17.111668 17335 net.cpp:165] Memory required for data: 909186380
I1125 10:28:17.111673 17335 layer_factory.hpp:77] Creating layer crop-dsn6
I1125 10:28:17.111678 17335 net.cpp:100] Creating Layer crop-dsn6
I1125 10:28:17.111681 17335 net.cpp:434] crop-dsn6 <- conv5-dsn6-up
I1125 10:28:17.111685 17335 net.cpp:434] crop-dsn6 <- data_data_0_split_1
I1125 10:28:17.111690 17335 net.cpp:408] crop-dsn6 -> upscore-dsn6
I1125 10:28:17.111726 17335 net.cpp:150] Setting up crop-dsn6
I1125 10:28:17.111729 17335 net.cpp:157] Top shape: 1 1 500 500 (250000)
I1125 10:28:17.111732 17335 net.cpp:165] Memory required for data: 910186380
I1125 10:28:17.111733 17335 layer_factory.hpp:77] Creating layer loss6-score
I1125 10:28:17.111740 17335 net.cpp:100] Creating Layer loss6-score
I1125 10:28:17.111742 17335 net.cpp:434] loss6-score <- upscore-dsn6
I1125 10:28:17.111747 17335 net.cpp:434] loss6-score <- label_data_1_split_0
I1125 10:28:17.111752 17335 net.cpp:408] loss6-score -> loss6-score
I1125 10:28:17.112972 17335 net.cpp:150] Setting up loss6-score
I1125 10:28:17.112980 17335 net.cpp:157] Top shape: (1)
I1125 10:28:17.112983 17335 net.cpp:160]     with loss weight 1
I1125 10:28:17.112993 17335 net.cpp:165] Memory required for data: 910186384
I1125 10:28:17.112996 17335 layer_factory.hpp:77] Creating layer upsample2_dsn5
I1125 10:28:17.113003 17335 net.cpp:100] Creating Layer upsample2_dsn5
I1125 10:28:17.113006 17335 net.cpp:434] upsample2_dsn5 <- conv5-dsn6_conv5-dsn6_0_split_1
I1125 10:28:17.113013 17335 net.cpp:408] upsample2_dsn5 -> conv5-dsn6-5
I1125 10:28:17.113299 17335 net.cpp:150] Setting up upsample2_dsn5
I1125 10:28:17.113306 17335 net.cpp:157] Top shape: 1 1 36 36 (1296)
I1125 10:28:17.113309 17335 net.cpp:165] Memory required for data: 910191568
I1125 10:28:17.113314 17335 layer_factory.hpp:77] Creating layer crop1-dsn5
I1125 10:28:17.113319 17335 net.cpp:100] Creating Layer crop1-dsn5
I1125 10:28:17.113322 17335 net.cpp:434] crop1-dsn5 <- conv5-dsn6-5
I1125 10:28:17.113327 17335 net.cpp:434] crop1-dsn5 <- conv5_3_relu5_3_0_split_1
I1125 10:28:17.113329 17335 net.cpp:408] crop1-dsn5 -> weight-dsn6-5
I1125 10:28:17.113356 17335 net.cpp:150] Setting up crop1-dsn5
I1125 10:28:17.113360 17335 net.cpp:157] Top shape: 1 1 32 32 (1024)
I1125 10:28:17.113363 17335 net.cpp:165] Memory required for data: 910195664
I1125 10:28:17.113364 17335 layer_factory.hpp:77] Creating layer weight-dsn6-5_crop1-dsn5_0_split
I1125 10:28:17.113368 17335 net.cpp:100] Creating Layer weight-dsn6-5_crop1-dsn5_0_split
I1125 10:28:17.113370 17335 net.cpp:434] weight-dsn6-5_crop1-dsn5_0_split <- weight-dsn6-5
I1125 10:28:17.113376 17335 net.cpp:408] weight-dsn6-5_crop1-dsn5_0_split -> weight-dsn6-5_crop1-dsn5_0_split_0
I1125 10:28:17.113380 17335 net.cpp:408] weight-dsn6-5_crop1-dsn5_0_split -> weight-dsn6-5_crop1-dsn5_0_split_1
I1125 10:28:17.113418 17335 net.cpp:150] Setting up weight-dsn6-5_crop1-dsn5_0_split
I1125 10:28:17.113425 17335 net.cpp:157] Top shape: 1 1 32 32 (1024)
I1125 10:28:17.113427 17335 net.cpp:157] Top shape: 1 1 32 32 (1024)
I1125 10:28:17.113430 17335 net.cpp:165] Memory required for data: 910203856
I1125 10:28:17.113431 17335 layer_factory.hpp:77] Creating layer sigmoid-dsn5
I1125 10:28:17.113435 17335 net.cpp:100] Creating Layer sigmoid-dsn5
I1125 10:28:17.113452 17335 net.cpp:434] sigmoid-dsn5 <- weight-dsn6-5_crop1-dsn5_0_split_0
I1125 10:28:17.113457 17335 net.cpp:408] sigmoid-dsn5 -> sigmoid-dsn5
I1125 10:28:17.113647 17335 net.cpp:150] Setting up sigmoid-dsn5
I1125 10:28:17.113657 17335 net.cpp:157] Top shape: 1 1 32 32 (1024)
I1125 10:28:17.113659 17335 net.cpp:165] Memory required for data: 910207952
I1125 10:28:17.113662 17335 layer_factory.hpp:77] Creating layer rev-dsn5
I1125 10:28:17.113667 17335 net.cpp:100] Creating Layer rev-dsn5
I1125 10:28:17.113669 17335 net.cpp:434] rev-dsn5 <- sigmoid-dsn5
I1125 10:28:17.113672 17335 net.cpp:408] rev-dsn5 -> rev-dsn5
I1125 10:28:17.113700 17335 net.cpp:150] Setting up rev-dsn5
I1125 10:28:17.113705 17335 net.cpp:157] Top shape: 1 1 32 32 (1024)
I1125 10:28:17.113708 17335 net.cpp:165] Memory required for data: 910212048
I1125 10:28:17.113711 17335 layer_factory.hpp:77] Creating layer tile-dsn5
I1125 10:28:17.113718 17335 net.cpp:100] Creating Layer tile-dsn5
I1125 10:28:17.113720 17335 net.cpp:434] tile-dsn5 <- rev-dsn5
I1125 10:28:17.113723 17335 net.cpp:408] tile-dsn5 -> weight-dsn5
I1125 10:28:17.113749 17335 net.cpp:150] Setting up tile-dsn5
I1125 10:28:17.113752 17335 net.cpp:157] Top shape: 1 512 32 32 (524288)
I1125 10:28:17.113754 17335 net.cpp:165] Memory required for data: 912309200
I1125 10:28:17.113756 17335 layer_factory.hpp:77] Creating layer prod1-dsn5
I1125 10:28:17.113762 17335 net.cpp:100] Creating Layer prod1-dsn5
I1125 10:28:17.113765 17335 net.cpp:434] prod1-dsn5 <- conv5_3_relu5_3_0_split_2
I1125 10:28:17.113768 17335 net.cpp:434] prod1-dsn5 <- weight-dsn5
I1125 10:28:17.113771 17335 net.cpp:408] prod1-dsn5 -> prod1-dsn5
I1125 10:28:17.113808 17335 net.cpp:150] Setting up prod1-dsn5
I1125 10:28:17.113813 17335 net.cpp:157] Top shape: 1 512 32 32 (524288)
I1125 10:28:17.113816 17335 net.cpp:165] Memory required for data: 914406352
I1125 10:28:17.113817 17335 layer_factory.hpp:77] Creating layer conv1-dsn5
I1125 10:28:17.113826 17335 net.cpp:100] Creating Layer conv1-dsn5
I1125 10:28:17.113828 17335 net.cpp:434] conv1-dsn5 <- prod1-dsn5
I1125 10:28:17.113832 17335 net.cpp:408] conv1-dsn5 -> conv1-dsn5
I1125 10:28:17.115218 17335 net.cpp:150] Setting up conv1-dsn5
I1125 10:28:17.115231 17335 net.cpp:157] Top shape: 1 64 32 32 (65536)
I1125 10:28:17.115233 17335 net.cpp:165] Memory required for data: 914668496
I1125 10:28:17.115238 17335 layer_factory.hpp:77] Creating layer conv2-dsn5
I1125 10:28:17.115247 17335 net.cpp:100] Creating Layer conv2-dsn5
I1125 10:28:17.115250 17335 net.cpp:434] conv2-dsn5 <- conv1-dsn5
I1125 10:28:17.115257 17335 net.cpp:408] conv2-dsn5 -> conv2-dsn5
I1125 10:28:17.116631 17335 net.cpp:150] Setting up conv2-dsn5
I1125 10:28:17.116643 17335 net.cpp:157] Top shape: 1 64 32 32 (65536)
I1125 10:28:17.116647 17335 net.cpp:165] Memory required for data: 914930640
I1125 10:28:17.116650 17335 layer_factory.hpp:77] Creating layer relu1-dsn5
I1125 10:28:17.116655 17335 net.cpp:100] Creating Layer relu1-dsn5
I1125 10:28:17.116657 17335 net.cpp:434] relu1-dsn5 <- conv2-dsn5
I1125 10:28:17.116662 17335 net.cpp:395] relu1-dsn5 -> conv2-dsn5 (in-place)
I1125 10:28:17.116818 17335 net.cpp:150] Setting up relu1-dsn5
I1125 10:28:17.116827 17335 net.cpp:157] Top shape: 1 64 32 32 (65536)
I1125 10:28:17.116829 17335 net.cpp:165] Memory required for data: 915192784
I1125 10:28:17.116832 17335 layer_factory.hpp:77] Creating layer conv3-dsn5
I1125 10:28:17.116839 17335 net.cpp:100] Creating Layer conv3-dsn5
I1125 10:28:17.116842 17335 net.cpp:434] conv3-dsn5 <- conv2-dsn5
I1125 10:28:17.116847 17335 net.cpp:408] conv3-dsn5 -> conv3-dsn5
I1125 10:28:17.118284 17335 net.cpp:150] Setting up conv3-dsn5
I1125 10:28:17.118294 17335 net.cpp:157] Top shape: 1 64 32 32 (65536)
I1125 10:28:17.118311 17335 net.cpp:165] Memory required for data: 915454928
I1125 10:28:17.118316 17335 layer_factory.hpp:77] Creating layer relu2-dsn5
I1125 10:28:17.118321 17335 net.cpp:100] Creating Layer relu2-dsn5
I1125 10:28:17.118324 17335 net.cpp:434] relu2-dsn5 <- conv3-dsn5
I1125 10:28:17.118330 17335 net.cpp:395] relu2-dsn5 -> conv3-dsn5 (in-place)
I1125 10:28:17.118507 17335 net.cpp:150] Setting up relu2-dsn5
I1125 10:28:17.118515 17335 net.cpp:157] Top shape: 1 64 32 32 (65536)
I1125 10:28:17.118516 17335 net.cpp:165] Memory required for data: 915717072
I1125 10:28:17.118520 17335 layer_factory.hpp:77] Creating layer conv4-dsn5
I1125 10:28:17.118527 17335 net.cpp:100] Creating Layer conv4-dsn5
I1125 10:28:17.118530 17335 net.cpp:434] conv4-dsn5 <- conv3-dsn5
I1125 10:28:17.118536 17335 net.cpp:408] conv4-dsn5 -> conv4-dsn5
I1125 10:28:17.119621 17335 net.cpp:150] Setting up conv4-dsn5
I1125 10:28:17.119630 17335 net.cpp:157] Top shape: 1 1 32 32 (1024)
I1125 10:28:17.119633 17335 net.cpp:165] Memory required for data: 915721168
I1125 10:28:17.119638 17335 layer_factory.hpp:77] Creating layer sum-dsn5
I1125 10:28:17.119653 17335 net.cpp:100] Creating Layer sum-dsn5
I1125 10:28:17.119657 17335 net.cpp:434] sum-dsn5 <- conv4-dsn5
I1125 10:28:17.119660 17335 net.cpp:434] sum-dsn5 <- weight-dsn6-5_crop1-dsn5_0_split_1
I1125 10:28:17.119664 17335 net.cpp:408] sum-dsn5 -> sum-dsn5
I1125 10:28:17.119693 17335 net.cpp:150] Setting up sum-dsn5
I1125 10:28:17.119699 17335 net.cpp:157] Top shape: 1 1 32 32 (1024)
I1125 10:28:17.119700 17335 net.cpp:165] Memory required for data: 915725264
I1125 10:28:17.119704 17335 layer_factory.hpp:77] Creating layer sum-dsn5_sum-dsn5_0_split
I1125 10:28:17.119707 17335 net.cpp:100] Creating Layer sum-dsn5_sum-dsn5_0_split
I1125 10:28:17.119709 17335 net.cpp:434] sum-dsn5_sum-dsn5_0_split <- sum-dsn5
I1125 10:28:17.119714 17335 net.cpp:408] sum-dsn5_sum-dsn5_0_split -> sum-dsn5_sum-dsn5_0_split_0
I1125 10:28:17.119719 17335 net.cpp:408] sum-dsn5_sum-dsn5_0_split -> sum-dsn5_sum-dsn5_0_split_1
I1125 10:28:17.119758 17335 net.cpp:150] Setting up sum-dsn5_sum-dsn5_0_split
I1125 10:28:17.119763 17335 net.cpp:157] Top shape: 1 1 32 32 (1024)
I1125 10:28:17.119766 17335 net.cpp:157] Top shape: 1 1 32 32 (1024)
I1125 10:28:17.119768 17335 net.cpp:165] Memory required for data: 915733456
I1125 10:28:17.119771 17335 layer_factory.hpp:77] Creating layer upsample16_dsn5
I1125 10:28:17.119777 17335 net.cpp:100] Creating Layer upsample16_dsn5
I1125 10:28:17.119779 17335 net.cpp:434] upsample16_dsn5 <- sum-dsn5_sum-dsn5_0_split_0
I1125 10:28:17.119784 17335 net.cpp:408] upsample16_dsn5 -> sum-dsn5-up
I1125 10:28:17.121207 17335 net.cpp:150] Setting up upsample16_dsn5
I1125 10:28:17.121217 17335 net.cpp:157] Top shape: 1 1 528 528 (278784)
I1125 10:28:17.121219 17335 net.cpp:165] Memory required for data: 916848592
I1125 10:28:17.121224 17335 layer_factory.hpp:77] Creating layer crop2-dsn5
I1125 10:28:17.121229 17335 net.cpp:100] Creating Layer crop2-dsn5
I1125 10:28:17.121232 17335 net.cpp:434] crop2-dsn5 <- sum-dsn5-up
I1125 10:28:17.121235 17335 net.cpp:434] crop2-dsn5 <- data_data_0_split_2
I1125 10:28:17.121240 17335 net.cpp:408] crop2-dsn5 -> upscore-dsn5
I1125 10:28:17.121273 17335 net.cpp:150] Setting up crop2-dsn5
I1125 10:28:17.121279 17335 net.cpp:157] Top shape: 1 1 500 500 (250000)
I1125 10:28:17.121281 17335 net.cpp:165] Memory required for data: 917848592
I1125 10:28:17.121284 17335 layer_factory.hpp:77] Creating layer loss5-score
I1125 10:28:17.121290 17335 net.cpp:100] Creating Layer loss5-score
I1125 10:28:17.121292 17335 net.cpp:434] loss5-score <- upscore-dsn5
I1125 10:28:17.121295 17335 net.cpp:434] loss5-score <- label_data_1_split_1
I1125 10:28:17.121299 17335 net.cpp:408] loss5-score -> loss5-score
I1125 10:28:17.121490 17335 net.cpp:150] Setting up loss5-score
I1125 10:28:17.121496 17335 net.cpp:157] Top shape: (1)
I1125 10:28:17.121498 17335 net.cpp:160]     with loss weight 1
I1125 10:28:17.121505 17335 net.cpp:165] Memory required for data: 917848596
I1125 10:28:17.121507 17335 layer_factory.hpp:77] Creating layer upsample2_dsn4
I1125 10:28:17.121512 17335 net.cpp:100] Creating Layer upsample2_dsn4
I1125 10:28:17.121515 17335 net.cpp:434] upsample2_dsn4 <- sum-dsn5_sum-dsn5_0_split_1
I1125 10:28:17.121520 17335 net.cpp:408] upsample2_dsn4 -> sum-dsn5-4
I1125 10:28:17.121788 17335 net.cpp:150] Setting up upsample2_dsn4
I1125 10:28:17.121793 17335 net.cpp:157] Top shape: 1 1 66 66 (4356)
I1125 10:28:17.121795 17335 net.cpp:165] Memory required for data: 917866020
I1125 10:28:17.121799 17335 layer_factory.hpp:77] Creating layer crop1-dsn4
I1125 10:28:17.121803 17335 net.cpp:100] Creating Layer crop1-dsn4
I1125 10:28:17.121805 17335 net.cpp:434] crop1-dsn4 <- sum-dsn5-4
I1125 10:28:17.121809 17335 net.cpp:434] crop1-dsn4 <- conv4_3_relu4_3_0_split_1
I1125 10:28:17.121815 17335 net.cpp:408] crop1-dsn4 -> weight-dsn5-4
I1125 10:28:17.121840 17335 net.cpp:150] Setting up crop1-dsn4
I1125 10:28:17.121845 17335 net.cpp:157] Top shape: 1 1 63 63 (3969)
I1125 10:28:17.121846 17335 net.cpp:165] Memory required for data: 917881896
I1125 10:28:17.121848 17335 layer_factory.hpp:77] Creating layer weight-dsn5-4_crop1-dsn4_0_split
I1125 10:28:17.121855 17335 net.cpp:100] Creating Layer weight-dsn5-4_crop1-dsn4_0_split
I1125 10:28:17.121856 17335 net.cpp:434] weight-dsn5-4_crop1-dsn4_0_split <- weight-dsn5-4
I1125 10:28:17.121860 17335 net.cpp:408] weight-dsn5-4_crop1-dsn4_0_split -> weight-dsn5-4_crop1-dsn4_0_split_0
I1125 10:28:17.121865 17335 net.cpp:408] weight-dsn5-4_crop1-dsn4_0_split -> weight-dsn5-4_crop1-dsn4_0_split_1
I1125 10:28:17.121901 17335 net.cpp:150] Setting up weight-dsn5-4_crop1-dsn4_0_split
I1125 10:28:17.121907 17335 net.cpp:157] Top shape: 1 1 63 63 (3969)
I1125 10:28:17.121909 17335 net.cpp:157] Top shape: 1 1 63 63 (3969)
I1125 10:28:17.121912 17335 net.cpp:165] Memory required for data: 917913648
I1125 10:28:17.121913 17335 layer_factory.hpp:77] Creating layer sigmoid-dsn4
I1125 10:28:17.121917 17335 net.cpp:100] Creating Layer sigmoid-dsn4
I1125 10:28:17.121919 17335 net.cpp:434] sigmoid-dsn4 <- weight-dsn5-4_crop1-dsn4_0_split_0
I1125 10:28:17.121922 17335 net.cpp:408] sigmoid-dsn4 -> sigmoid-dsn4
I1125 10:28:17.122107 17335 net.cpp:150] Setting up sigmoid-dsn4
I1125 10:28:17.122114 17335 net.cpp:157] Top shape: 1 1 63 63 (3969)
I1125 10:28:17.122117 17335 net.cpp:165] Memory required for data: 917929524
I1125 10:28:17.122119 17335 layer_factory.hpp:77] Creating layer rev-dsn4
I1125 10:28:17.122129 17335 net.cpp:100] Creating Layer rev-dsn4
I1125 10:28:17.122148 17335 net.cpp:434] rev-dsn4 <- sigmoid-dsn4
I1125 10:28:17.122151 17335 net.cpp:408] rev-dsn4 -> rev-dsn4
I1125 10:28:17.122180 17335 net.cpp:150] Setting up rev-dsn4
I1125 10:28:17.122184 17335 net.cpp:157] Top shape: 1 1 63 63 (3969)
I1125 10:28:17.122185 17335 net.cpp:165] Memory required for data: 917945400
I1125 10:28:17.122189 17335 layer_factory.hpp:77] Creating layer tile-dsn4
I1125 10:28:17.122192 17335 net.cpp:100] Creating Layer tile-dsn4
I1125 10:28:17.122195 17335 net.cpp:434] tile-dsn4 <- rev-dsn4
I1125 10:28:17.122207 17335 net.cpp:408] tile-dsn4 -> weight-dsn4
I1125 10:28:17.122231 17335 net.cpp:150] Setting up tile-dsn4
I1125 10:28:17.122236 17335 net.cpp:157] Top shape: 1 512 63 63 (2032128)
I1125 10:28:17.122237 17335 net.cpp:165] Memory required for data: 926073912
I1125 10:28:17.122241 17335 layer_factory.hpp:77] Creating layer prod1-dsn4
I1125 10:28:17.122246 17335 net.cpp:100] Creating Layer prod1-dsn4
I1125 10:28:17.122249 17335 net.cpp:434] prod1-dsn4 <- conv4_3_relu4_3_0_split_2
I1125 10:28:17.122252 17335 net.cpp:434] prod1-dsn4 <- weight-dsn4
I1125 10:28:17.122257 17335 net.cpp:408] prod1-dsn4 -> prod1-dsn4
I1125 10:28:17.122280 17335 net.cpp:150] Setting up prod1-dsn4
I1125 10:28:17.122285 17335 net.cpp:157] Top shape: 1 512 63 63 (2032128)
I1125 10:28:17.122287 17335 net.cpp:165] Memory required for data: 934202424
I1125 10:28:17.122290 17335 layer_factory.hpp:77] Creating layer conv1-dsn4
I1125 10:28:17.122299 17335 net.cpp:100] Creating Layer conv1-dsn4
I1125 10:28:17.122303 17335 net.cpp:434] conv1-dsn4 <- prod1-dsn4
I1125 10:28:17.122306 17335 net.cpp:408] conv1-dsn4 -> conv1-dsn4
I1125 10:28:17.123744 17335 net.cpp:150] Setting up conv1-dsn4
I1125 10:28:17.123756 17335 net.cpp:157] Top shape: 1 64 63 63 (254016)
I1125 10:28:17.123759 17335 net.cpp:165] Memory required for data: 935218488
I1125 10:28:17.123764 17335 layer_factory.hpp:77] Creating layer conv2-dsn4
I1125 10:28:17.123771 17335 net.cpp:100] Creating Layer conv2-dsn4
I1125 10:28:17.123775 17335 net.cpp:434] conv2-dsn4 <- conv1-dsn4
I1125 10:28:17.123780 17335 net.cpp:408] conv2-dsn4 -> conv2-dsn4
I1125 10:28:17.125473 17335 net.cpp:150] Setting up conv2-dsn4
I1125 10:28:17.125484 17335 net.cpp:157] Top shape: 1 64 63 63 (254016)
I1125 10:28:17.125488 17335 net.cpp:165] Memory required for data: 936234552
I1125 10:28:17.125492 17335 layer_factory.hpp:77] Creating layer relu1-dsn4
I1125 10:28:17.125496 17335 net.cpp:100] Creating Layer relu1-dsn4
I1125 10:28:17.125499 17335 net.cpp:434] relu1-dsn4 <- conv2-dsn4
I1125 10:28:17.125502 17335 net.cpp:395] relu1-dsn4 -> conv2-dsn4 (in-place)
I1125 10:28:17.125674 17335 net.cpp:150] Setting up relu1-dsn4
I1125 10:28:17.125682 17335 net.cpp:157] Top shape: 1 64 63 63 (254016)
I1125 10:28:17.125684 17335 net.cpp:165] Memory required for data: 937250616
I1125 10:28:17.125686 17335 layer_factory.hpp:77] Creating layer conv3-dsn4
I1125 10:28:17.125696 17335 net.cpp:100] Creating Layer conv3-dsn4
I1125 10:28:17.125699 17335 net.cpp:434] conv3-dsn4 <- conv2-dsn4
I1125 10:28:17.125702 17335 net.cpp:408] conv3-dsn4 -> conv3-dsn4
I1125 10:28:17.127110 17335 net.cpp:150] Setting up conv3-dsn4
I1125 10:28:17.127121 17335 net.cpp:157] Top shape: 1 64 63 63 (254016)
I1125 10:28:17.127123 17335 net.cpp:165] Memory required for data: 938266680
I1125 10:28:17.127136 17335 layer_factory.hpp:77] Creating layer relu2-dsn4
I1125 10:28:17.127156 17335 net.cpp:100] Creating Layer relu2-dsn4
I1125 10:28:17.127159 17335 net.cpp:434] relu2-dsn4 <- conv3-dsn4
I1125 10:28:17.127163 17335 net.cpp:395] relu2-dsn4 -> conv3-dsn4 (in-place)
I1125 10:28:17.127948 17335 net.cpp:150] Setting up relu2-dsn4
I1125 10:28:17.127959 17335 net.cpp:157] Top shape: 1 64 63 63 (254016)
I1125 10:28:17.127961 17335 net.cpp:165] Memory required for data: 939282744
I1125 10:28:17.127964 17335 layer_factory.hpp:77] Creating layer conv4-dsn4
I1125 10:28:17.127972 17335 net.cpp:100] Creating Layer conv4-dsn4
I1125 10:28:17.127974 17335 net.cpp:434] conv4-dsn4 <- conv3-dsn4
I1125 10:28:17.127980 17335 net.cpp:408] conv4-dsn4 -> conv4-dsn4
I1125 10:28:17.129115 17335 net.cpp:150] Setting up conv4-dsn4
I1125 10:28:17.129132 17335 net.cpp:157] Top shape: 1 1 63 63 (3969)
I1125 10:28:17.129134 17335 net.cpp:165] Memory required for data: 939298620
I1125 10:28:17.129139 17335 layer_factory.hpp:77] Creating layer sum-dsn4
I1125 10:28:17.129144 17335 net.cpp:100] Creating Layer sum-dsn4
I1125 10:28:17.129148 17335 net.cpp:434] sum-dsn4 <- conv4-dsn4
I1125 10:28:17.129150 17335 net.cpp:434] sum-dsn4 <- weight-dsn5-4_crop1-dsn4_0_split_1
I1125 10:28:17.129154 17335 net.cpp:408] sum-dsn4 -> sum-dsn4
I1125 10:28:17.129185 17335 net.cpp:150] Setting up sum-dsn4
I1125 10:28:17.129189 17335 net.cpp:157] Top shape: 1 1 63 63 (3969)
I1125 10:28:17.129191 17335 net.cpp:165] Memory required for data: 939314496
I1125 10:28:17.129194 17335 layer_factory.hpp:77] Creating layer sum-dsn4_sum-dsn4_0_split
I1125 10:28:17.129199 17335 net.cpp:100] Creating Layer sum-dsn4_sum-dsn4_0_split
I1125 10:28:17.129201 17335 net.cpp:434] sum-dsn4_sum-dsn4_0_split <- sum-dsn4
I1125 10:28:17.129205 17335 net.cpp:408] sum-dsn4_sum-dsn4_0_split -> sum-dsn4_sum-dsn4_0_split_0
I1125 10:28:17.129209 17335 net.cpp:408] sum-dsn4_sum-dsn4_0_split -> sum-dsn4_sum-dsn4_0_split_1
I1125 10:28:17.129251 17335 net.cpp:150] Setting up sum-dsn4_sum-dsn4_0_split
I1125 10:28:17.129256 17335 net.cpp:157] Top shape: 1 1 63 63 (3969)
I1125 10:28:17.129257 17335 net.cpp:157] Top shape: 1 1 63 63 (3969)
I1125 10:28:17.129259 17335 net.cpp:165] Memory required for data: 939346248
I1125 10:28:17.129261 17335 layer_factory.hpp:77] Creating layer upsample8_dsn4
I1125 10:28:17.129268 17335 net.cpp:100] Creating Layer upsample8_dsn4
I1125 10:28:17.129271 17335 net.cpp:434] upsample8_dsn4 <- sum-dsn4_sum-dsn4_0_split_0
I1125 10:28:17.129276 17335 net.cpp:408] upsample8_dsn4 -> sum-dsn4-up
I1125 10:28:17.130684 17335 net.cpp:150] Setting up upsample8_dsn4
I1125 10:28:17.130695 17335 net.cpp:157] Top shape: 1 1 512 512 (262144)
I1125 10:28:17.130697 17335 net.cpp:165] Memory required for data: 940394824
I1125 10:28:17.130702 17335 layer_factory.hpp:77] Creating layer crop2-dsn4
I1125 10:28:17.130707 17335 net.cpp:100] Creating Layer crop2-dsn4
I1125 10:28:17.130709 17335 net.cpp:434] crop2-dsn4 <- sum-dsn4-up
I1125 10:28:17.130712 17335 net.cpp:434] crop2-dsn4 <- data_data_0_split_3
I1125 10:28:17.130718 17335 net.cpp:408] crop2-dsn4 -> upscore-dsn4
I1125 10:28:17.130751 17335 net.cpp:150] Setting up crop2-dsn4
I1125 10:28:17.130758 17335 net.cpp:157] Top shape: 1 1 500 500 (250000)
I1125 10:28:17.130759 17335 net.cpp:165] Memory required for data: 941394824
I1125 10:28:17.130761 17335 layer_factory.hpp:77] Creating layer loss4-score
I1125 10:28:17.130767 17335 net.cpp:100] Creating Layer loss4-score
I1125 10:28:17.130769 17335 net.cpp:434] loss4-score <- upscore-dsn4
I1125 10:28:17.130772 17335 net.cpp:434] loss4-score <- label_data_1_split_2
I1125 10:28:17.130776 17335 net.cpp:408] loss4-score -> loss4-score
I1125 10:28:17.130955 17335 net.cpp:150] Setting up loss4-score
I1125 10:28:17.130962 17335 net.cpp:157] Top shape: (1)
I1125 10:28:17.130964 17335 net.cpp:160]     with loss weight 1
I1125 10:28:17.130970 17335 net.cpp:165] Memory required for data: 941394828
I1125 10:28:17.130971 17335 layer_factory.hpp:77] Creating layer upsample2_dsn3
I1125 10:28:17.130976 17335 net.cpp:100] Creating Layer upsample2_dsn3
I1125 10:28:17.130978 17335 net.cpp:434] upsample2_dsn3 <- sum-dsn4_sum-dsn4_0_split_1
I1125 10:28:17.130985 17335 net.cpp:408] upsample2_dsn3 -> sum-dsn4-3
I1125 10:28:17.131301 17335 net.cpp:150] Setting up upsample2_dsn3
I1125 10:28:17.131307 17335 net.cpp:157] Top shape: 1 1 128 128 (16384)
I1125 10:28:17.131309 17335 net.cpp:165] Memory required for data: 941460364
I1125 10:28:17.131330 17335 layer_factory.hpp:77] Creating layer crop1-dsn3
I1125 10:28:17.131335 17335 net.cpp:100] Creating Layer crop1-dsn3
I1125 10:28:17.131337 17335 net.cpp:434] crop1-dsn3 <- sum-dsn4-3
I1125 10:28:17.131340 17335 net.cpp:434] crop1-dsn3 <- conv3_3_relu3_3_0_split_1
I1125 10:28:17.131345 17335 net.cpp:408] crop1-dsn3 -> weight-dsn4-3
I1125 10:28:17.131374 17335 net.cpp:150] Setting up crop1-dsn3
I1125 10:28:17.131378 17335 net.cpp:157] Top shape: 1 1 125 125 (15625)
I1125 10:28:17.131381 17335 net.cpp:165] Memory required for data: 941522864
I1125 10:28:17.131382 17335 layer_factory.hpp:77] Creating layer weight-dsn4-3_crop1-dsn3_0_split
I1125 10:28:17.131388 17335 net.cpp:100] Creating Layer weight-dsn4-3_crop1-dsn3_0_split
I1125 10:28:17.131390 17335 net.cpp:434] weight-dsn4-3_crop1-dsn3_0_split <- weight-dsn4-3
I1125 10:28:17.131394 17335 net.cpp:408] weight-dsn4-3_crop1-dsn3_0_split -> weight-dsn4-3_crop1-dsn3_0_split_0
I1125 10:28:17.131399 17335 net.cpp:408] weight-dsn4-3_crop1-dsn3_0_split -> weight-dsn4-3_crop1-dsn3_0_split_1
I1125 10:28:17.131456 17335 net.cpp:150] Setting up weight-dsn4-3_crop1-dsn3_0_split
I1125 10:28:17.131461 17335 net.cpp:157] Top shape: 1 1 125 125 (15625)
I1125 10:28:17.131464 17335 net.cpp:157] Top shape: 1 1 125 125 (15625)
I1125 10:28:17.131465 17335 net.cpp:165] Memory required for data: 941647864
I1125 10:28:17.131467 17335 layer_factory.hpp:77] Creating layer sigmoid-dsn3
I1125 10:28:17.131472 17335 net.cpp:100] Creating Layer sigmoid-dsn3
I1125 10:28:17.131474 17335 net.cpp:434] sigmoid-dsn3 <- weight-dsn4-3_crop1-dsn3_0_split_0
I1125 10:28:17.131479 17335 net.cpp:408] sigmoid-dsn3 -> sigmoid-dsn3
I1125 10:28:17.131669 17335 net.cpp:150] Setting up sigmoid-dsn3
I1125 10:28:17.131675 17335 net.cpp:157] Top shape: 1 1 125 125 (15625)
I1125 10:28:17.131677 17335 net.cpp:165] Memory required for data: 941710364
I1125 10:28:17.131680 17335 layer_factory.hpp:77] Creating layer rev-dsn3
I1125 10:28:17.131685 17335 net.cpp:100] Creating Layer rev-dsn3
I1125 10:28:17.131687 17335 net.cpp:434] rev-dsn3 <- sigmoid-dsn3
I1125 10:28:17.131692 17335 net.cpp:408] rev-dsn3 -> rev-dsn3
I1125 10:28:17.131719 17335 net.cpp:150] Setting up rev-dsn3
I1125 10:28:17.131724 17335 net.cpp:157] Top shape: 1 1 125 125 (15625)
I1125 10:28:17.131726 17335 net.cpp:165] Memory required for data: 941772864
I1125 10:28:17.131729 17335 layer_factory.hpp:77] Creating layer tile-dsn3
I1125 10:28:17.131732 17335 net.cpp:100] Creating Layer tile-dsn3
I1125 10:28:17.131734 17335 net.cpp:434] tile-dsn3 <- rev-dsn3
I1125 10:28:17.131739 17335 net.cpp:408] tile-dsn3 -> weight-dsn3
I1125 10:28:17.131762 17335 net.cpp:150] Setting up tile-dsn3
I1125 10:28:17.131765 17335 net.cpp:157] Top shape: 1 256 125 125 (4000000)
I1125 10:28:17.131767 17335 net.cpp:165] Memory required for data: 957772864
I1125 10:28:17.131768 17335 layer_factory.hpp:77] Creating layer prod1-dsn3
I1125 10:28:17.131775 17335 net.cpp:100] Creating Layer prod1-dsn3
I1125 10:28:17.131778 17335 net.cpp:434] prod1-dsn3 <- conv3_3_relu3_3_0_split_2
I1125 10:28:17.131780 17335 net.cpp:434] prod1-dsn3 <- weight-dsn3
I1125 10:28:17.131784 17335 net.cpp:408] prod1-dsn3 -> prod1-dsn3
I1125 10:28:17.131808 17335 net.cpp:150] Setting up prod1-dsn3
I1125 10:28:17.131812 17335 net.cpp:157] Top shape: 1 256 125 125 (4000000)
I1125 10:28:17.131814 17335 net.cpp:165] Memory required for data: 973772864
I1125 10:28:17.131816 17335 layer_factory.hpp:77] Creating layer conv1-dsn3
I1125 10:28:17.131824 17335 net.cpp:100] Creating Layer conv1-dsn3
I1125 10:28:17.131826 17335 net.cpp:434] conv1-dsn3 <- prod1-dsn3
I1125 10:28:17.131831 17335 net.cpp:408] conv1-dsn3 -> conv1-dsn3
I1125 10:28:17.133404 17335 net.cpp:150] Setting up conv1-dsn3
I1125 10:28:17.133414 17335 net.cpp:157] Top shape: 1 64 125 125 (1000000)
I1125 10:28:17.133415 17335 net.cpp:165] Memory required for data: 977772864
I1125 10:28:17.133430 17335 layer_factory.hpp:77] Creating layer conv2-dsn3
I1125 10:28:17.133438 17335 net.cpp:100] Creating Layer conv2-dsn3
I1125 10:28:17.133441 17335 net.cpp:434] conv2-dsn3 <- conv1-dsn3
I1125 10:28:17.133446 17335 net.cpp:408] conv2-dsn3 -> conv2-dsn3
I1125 10:28:17.134896 17335 net.cpp:150] Setting up conv2-dsn3
I1125 10:28:17.134908 17335 net.cpp:157] Top shape: 1 64 125 125 (1000000)
I1125 10:28:17.134910 17335 net.cpp:165] Memory required for data: 981772864
I1125 10:28:17.134915 17335 layer_factory.hpp:77] Creating layer relu1-dsn3
I1125 10:28:17.134920 17335 net.cpp:100] Creating Layer relu1-dsn3
I1125 10:28:17.134922 17335 net.cpp:434] relu1-dsn3 <- conv2-dsn3
I1125 10:28:17.134927 17335 net.cpp:395] relu1-dsn3 -> conv2-dsn3 (in-place)
I1125 10:28:17.135088 17335 net.cpp:150] Setting up relu1-dsn3
I1125 10:28:17.135095 17335 net.cpp:157] Top shape: 1 64 125 125 (1000000)
I1125 10:28:17.135097 17335 net.cpp:165] Memory required for data: 985772864
I1125 10:28:17.135099 17335 layer_factory.hpp:77] Creating layer conv3-dsn3
I1125 10:28:17.135110 17335 net.cpp:100] Creating Layer conv3-dsn3
I1125 10:28:17.135113 17335 net.cpp:434] conv3-dsn3 <- conv2-dsn3
I1125 10:28:17.135118 17335 net.cpp:408] conv3-dsn3 -> conv3-dsn3
I1125 10:28:17.136540 17335 net.cpp:150] Setting up conv3-dsn3
I1125 10:28:17.136552 17335 net.cpp:157] Top shape: 1 64 125 125 (1000000)
I1125 10:28:17.136554 17335 net.cpp:165] Memory required for data: 989772864
I1125 10:28:17.136559 17335 layer_factory.hpp:77] Creating layer relu2-dsn3
I1125 10:28:17.136564 17335 net.cpp:100] Creating Layer relu2-dsn3
I1125 10:28:17.136566 17335 net.cpp:434] relu2-dsn3 <- conv3-dsn3
I1125 10:28:17.136570 17335 net.cpp:395] relu2-dsn3 -> conv3-dsn3 (in-place)
I1125 10:28:17.136729 17335 net.cpp:150] Setting up relu2-dsn3
I1125 10:28:17.136734 17335 net.cpp:157] Top shape: 1 64 125 125 (1000000)
I1125 10:28:17.136737 17335 net.cpp:165] Memory required for data: 993772864
I1125 10:28:17.136739 17335 layer_factory.hpp:77] Creating layer conv4-dsn3
I1125 10:28:17.136749 17335 net.cpp:100] Creating Layer conv4-dsn3
I1125 10:28:17.136751 17335 net.cpp:434] conv4-dsn3 <- conv3-dsn3
I1125 10:28:17.136755 17335 net.cpp:408] conv4-dsn3 -> conv4-dsn3
I1125 10:28:17.138196 17335 net.cpp:150] Setting up conv4-dsn3
I1125 10:28:17.138208 17335 net.cpp:157] Top shape: 1 1 125 125 (15625)
I1125 10:28:17.138211 17335 net.cpp:165] Memory required for data: 993835364
I1125 10:28:17.138216 17335 layer_factory.hpp:77] Creating layer sum-dsn3
I1125 10:28:17.138221 17335 net.cpp:100] Creating Layer sum-dsn3
I1125 10:28:17.138222 17335 net.cpp:434] sum-dsn3 <- conv4-dsn3
I1125 10:28:17.138226 17335 net.cpp:434] sum-dsn3 <- weight-dsn4-3_crop1-dsn3_0_split_1
I1125 10:28:17.138232 17335 net.cpp:408] sum-dsn3 -> sum-dsn3
I1125 10:28:17.138264 17335 net.cpp:150] Setting up sum-dsn3
I1125 10:28:17.138268 17335 net.cpp:157] Top shape: 1 1 125 125 (15625)
I1125 10:28:17.138270 17335 net.cpp:165] Memory required for data: 993897864
I1125 10:28:17.138273 17335 layer_factory.hpp:77] Creating layer sum-dsn3_sum-dsn3_0_split
I1125 10:28:17.138278 17335 net.cpp:100] Creating Layer sum-dsn3_sum-dsn3_0_split
I1125 10:28:17.138280 17335 net.cpp:434] sum-dsn3_sum-dsn3_0_split <- sum-dsn3
I1125 10:28:17.138285 17335 net.cpp:408] sum-dsn3_sum-dsn3_0_split -> sum-dsn3_sum-dsn3_0_split_0
I1125 10:28:17.138290 17335 net.cpp:408] sum-dsn3_sum-dsn3_0_split -> sum-dsn3_sum-dsn3_0_split_1
I1125 10:28:17.138329 17335 net.cpp:150] Setting up sum-dsn3_sum-dsn3_0_split
I1125 10:28:17.138336 17335 net.cpp:157] Top shape: 1 1 125 125 (15625)
I1125 10:28:17.138339 17335 net.cpp:157] Top shape: 1 1 125 125 (15625)
I1125 10:28:17.138341 17335 net.cpp:165] Memory required for data: 994022864
I1125 10:28:17.138343 17335 layer_factory.hpp:77] Creating layer upsample4_dsn3
I1125 10:28:17.138347 17335 net.cpp:100] Creating Layer upsample4_dsn3
I1125 10:28:17.138350 17335 net.cpp:434] upsample4_dsn3 <- sum-dsn3_sum-dsn3_0_split_0
I1125 10:28:17.138355 17335 net.cpp:408] upsample4_dsn3 -> sum-dsn3-up
I1125 10:28:17.139763 17335 net.cpp:150] Setting up upsample4_dsn3
I1125 10:28:17.139775 17335 net.cpp:157] Top shape: 1 1 504 504 (254016)
I1125 10:28:17.139777 17335 net.cpp:165] Memory required for data: 995038928
I1125 10:28:17.139782 17335 layer_factory.hpp:77] Creating layer crop2-dsn3
I1125 10:28:17.139786 17335 net.cpp:100] Creating Layer crop2-dsn3
I1125 10:28:17.139789 17335 net.cpp:434] crop2-dsn3 <- sum-dsn3-up
I1125 10:28:17.139792 17335 net.cpp:434] crop2-dsn3 <- data_data_0_split_4
I1125 10:28:17.139796 17335 net.cpp:408] crop2-dsn3 -> upscore-dsn3
I1125 10:28:17.139832 17335 net.cpp:150] Setting up crop2-dsn3
I1125 10:28:17.139835 17335 net.cpp:157] Top shape: 1 1 500 500 (250000)
I1125 10:28:17.139837 17335 net.cpp:165] Memory required for data: 996038928
I1125 10:28:17.139839 17335 layer_factory.hpp:77] Creating layer loss3-score
I1125 10:28:17.139848 17335 net.cpp:100] Creating Layer loss3-score
I1125 10:28:17.139850 17335 net.cpp:434] loss3-score <- upscore-dsn3
I1125 10:28:17.139853 17335 net.cpp:434] loss3-score <- label_data_1_split_3
I1125 10:28:17.139858 17335 net.cpp:408] loss3-score -> loss3-score
I1125 10:28:17.140043 17335 net.cpp:150] Setting up loss3-score
I1125 10:28:17.140049 17335 net.cpp:157] Top shape: (1)
I1125 10:28:17.140050 17335 net.cpp:160]     with loss weight 1
I1125 10:28:17.140055 17335 net.cpp:165] Memory required for data: 996038932
I1125 10:28:17.140058 17335 layer_factory.hpp:77] Creating layer upsample2_1-dsn2
I1125 10:28:17.140064 17335 net.cpp:100] Creating Layer upsample2_1-dsn2
I1125 10:28:17.140066 17335 net.cpp:434] upsample2_1-dsn2 <- sum-dsn3_sum-dsn3_0_split_1
I1125 10:28:17.140072 17335 net.cpp:408] upsample2_1-dsn2 -> sum-dsn3-2
I1125 10:28:17.140394 17335 net.cpp:150] Setting up upsample2_1-dsn2
I1125 10:28:17.140401 17335 net.cpp:157] Top shape: 1 1 252 252 (63504)
I1125 10:28:17.140403 17335 net.cpp:165] Memory required for data: 996292948
I1125 10:28:17.140408 17335 layer_factory.hpp:77] Creating layer crop1-dsn2
I1125 10:28:17.140410 17335 net.cpp:100] Creating Layer crop1-dsn2
I1125 10:28:17.140413 17335 net.cpp:434] crop1-dsn2 <- sum-dsn3-2
I1125 10:28:17.140416 17335 net.cpp:434] crop1-dsn2 <- conv2_2_relu2_2_0_split_1
I1125 10:28:17.140421 17335 net.cpp:408] crop1-dsn2 -> weight-dsn3-2
I1125 10:28:17.140451 17335 net.cpp:150] Setting up crop1-dsn2
I1125 10:28:17.140456 17335 net.cpp:157] Top shape: 1 1 250 250 (62500)
I1125 10:28:17.140457 17335 net.cpp:165] Memory required for data: 996542948
I1125 10:28:17.140460 17335 layer_factory.hpp:77] Creating layer weight-dsn3-2_crop1-dsn2_0_split
I1125 10:28:17.140463 17335 net.cpp:100] Creating Layer weight-dsn3-2_crop1-dsn2_0_split
I1125 10:28:17.140465 17335 net.cpp:434] weight-dsn3-2_crop1-dsn2_0_split <- weight-dsn3-2
I1125 10:28:17.140470 17335 net.cpp:408] weight-dsn3-2_crop1-dsn2_0_split -> weight-dsn3-2_crop1-dsn2_0_split_0
I1125 10:28:17.140475 17335 net.cpp:408] weight-dsn3-2_crop1-dsn2_0_split -> weight-dsn3-2_crop1-dsn2_0_split_1
I1125 10:28:17.140514 17335 net.cpp:150] Setting up weight-dsn3-2_crop1-dsn2_0_split
I1125 10:28:17.140518 17335 net.cpp:157] Top shape: 1 1 250 250 (62500)
I1125 10:28:17.140522 17335 net.cpp:157] Top shape: 1 1 250 250 (62500)
I1125 10:28:17.140523 17335 net.cpp:165] Memory required for data: 997042948
I1125 10:28:17.140525 17335 layer_factory.hpp:77] Creating layer sigmoid-dsn2
I1125 10:28:17.140528 17335 net.cpp:100] Creating Layer sigmoid-dsn2
I1125 10:28:17.140532 17335 net.cpp:434] sigmoid-dsn2 <- weight-dsn3-2_crop1-dsn2_0_split_0
I1125 10:28:17.140537 17335 net.cpp:408] sigmoid-dsn2 -> sigmoid-dsn2
I1125 10:28:17.140730 17335 net.cpp:150] Setting up sigmoid-dsn2
I1125 10:28:17.140738 17335 net.cpp:157] Top shape: 1 1 250 250 (62500)
I1125 10:28:17.140740 17335 net.cpp:165] Memory required for data: 997292948
I1125 10:28:17.140743 17335 layer_factory.hpp:77] Creating layer rev-dsn2
I1125 10:28:17.140746 17335 net.cpp:100] Creating Layer rev-dsn2
I1125 10:28:17.140749 17335 net.cpp:434] rev-dsn2 <- sigmoid-dsn2
I1125 10:28:17.140754 17335 net.cpp:408] rev-dsn2 -> rev-dsn2
I1125 10:28:17.140779 17335 net.cpp:150] Setting up rev-dsn2
I1125 10:28:17.140784 17335 net.cpp:157] Top shape: 1 1 250 250 (62500)
I1125 10:28:17.140785 17335 net.cpp:165] Memory required for data: 997542948
I1125 10:28:17.140787 17335 layer_factory.hpp:77] Creating layer tile-dsn2
I1125 10:28:17.140792 17335 net.cpp:100] Creating Layer tile-dsn2
I1125 10:28:17.140795 17335 net.cpp:434] tile-dsn2 <- rev-dsn2
I1125 10:28:17.140799 17335 net.cpp:408] tile-dsn2 -> weight-dsn2
I1125 10:28:17.140822 17335 net.cpp:150] Setting up tile-dsn2
I1125 10:28:17.140826 17335 net.cpp:157] Top shape: 1 128 250 250 (8000000)
I1125 10:28:17.140828 17335 net.cpp:165] Memory required for data: 1029542948
I1125 10:28:17.140830 17335 layer_factory.hpp:77] Creating layer prod1-dsn2
I1125 10:28:17.140835 17335 net.cpp:100] Creating Layer prod1-dsn2
I1125 10:28:17.140837 17335 net.cpp:434] prod1-dsn2 <- conv2_2_relu2_2_0_split_2
I1125 10:28:17.140842 17335 net.cpp:434] prod1-dsn2 <- weight-dsn2
I1125 10:28:17.140846 17335 net.cpp:408] prod1-dsn2 -> prod1-dsn2
I1125 10:28:17.140869 17335 net.cpp:150] Setting up prod1-dsn2
I1125 10:28:17.140874 17335 net.cpp:157] Top shape: 1 128 250 250 (8000000)
I1125 10:28:17.140877 17335 net.cpp:165] Memory required for data: 1061542948
I1125 10:28:17.140879 17335 layer_factory.hpp:77] Creating layer conv1-dsn2
I1125 10:28:17.140887 17335 net.cpp:100] Creating Layer conv1-dsn2
I1125 10:28:17.140889 17335 net.cpp:434] conv1-dsn2 <- prod1-dsn2
I1125 10:28:17.140894 17335 net.cpp:408] conv1-dsn2 -> conv1-dsn2
I1125 10:28:17.142171 17335 net.cpp:150] Setting up conv1-dsn2
I1125 10:28:17.142181 17335 net.cpp:157] Top shape: 1 64 250 250 (4000000)
I1125 10:28:17.142194 17335 net.cpp:165] Memory required for data: 1077542948
I1125 10:28:17.142200 17335 layer_factory.hpp:77] Creating layer conv2-dsn2
I1125 10:28:17.142208 17335 net.cpp:100] Creating Layer conv2-dsn2
I1125 10:28:17.142212 17335 net.cpp:434] conv2-dsn2 <- conv1-dsn2
I1125 10:28:17.142218 17335 net.cpp:408] conv2-dsn2 -> conv2-dsn2
I1125 10:28:17.145017 17335 net.cpp:150] Setting up conv2-dsn2
I1125 10:28:17.145028 17335 net.cpp:157] Top shape: 1 64 250 250 (4000000)
I1125 10:28:17.145030 17335 net.cpp:165] Memory required for data: 1093542948
I1125 10:28:17.145035 17335 layer_factory.hpp:77] Creating layer relu1-dsn2
I1125 10:28:17.145041 17335 net.cpp:100] Creating Layer relu1-dsn2
I1125 10:28:17.145045 17335 net.cpp:434] relu1-dsn2 <- conv2-dsn2
I1125 10:28:17.145048 17335 net.cpp:395] relu1-dsn2 -> conv2-dsn2 (in-place)
I1125 10:28:17.145231 17335 net.cpp:150] Setting up relu1-dsn2
I1125 10:28:17.145239 17335 net.cpp:157] Top shape: 1 64 250 250 (4000000)
I1125 10:28:17.145241 17335 net.cpp:165] Memory required for data: 1109542948
I1125 10:28:17.145244 17335 layer_factory.hpp:77] Creating layer conv3-dsn2
I1125 10:28:17.145252 17335 net.cpp:100] Creating Layer conv3-dsn2
I1125 10:28:17.145254 17335 net.cpp:434] conv3-dsn2 <- conv2-dsn2
I1125 10:28:17.145262 17335 net.cpp:408] conv3-dsn2 -> conv3-dsn2
I1125 10:28:17.146692 17335 net.cpp:150] Setting up conv3-dsn2
I1125 10:28:17.146703 17335 net.cpp:157] Top shape: 1 64 250 250 (4000000)
I1125 10:28:17.146705 17335 net.cpp:165] Memory required for data: 1125542948
I1125 10:28:17.146709 17335 layer_factory.hpp:77] Creating layer relu2-dsn2
I1125 10:28:17.146713 17335 net.cpp:100] Creating Layer relu2-dsn2
I1125 10:28:17.146716 17335 net.cpp:434] relu2-dsn2 <- conv3-dsn2
I1125 10:28:17.146721 17335 net.cpp:395] relu2-dsn2 -> conv3-dsn2 (in-place)
I1125 10:28:17.146880 17335 net.cpp:150] Setting up relu2-dsn2
I1125 10:28:17.146888 17335 net.cpp:157] Top shape: 1 64 250 250 (4000000)
I1125 10:28:17.146889 17335 net.cpp:165] Memory required for data: 1141542948
I1125 10:28:17.146893 17335 layer_factory.hpp:77] Creating layer conv4-dsn2
I1125 10:28:17.146899 17335 net.cpp:100] Creating Layer conv4-dsn2
I1125 10:28:17.146903 17335 net.cpp:434] conv4-dsn2 <- conv3-dsn2
I1125 10:28:17.146908 17335 net.cpp:408] conv4-dsn2 -> conv4-dsn2
I1125 10:28:17.148083 17335 net.cpp:150] Setting up conv4-dsn2
I1125 10:28:17.148093 17335 net.cpp:157] Top shape: 1 1 250 250 (62500)
I1125 10:28:17.148095 17335 net.cpp:165] Memory required for data: 1141792948
I1125 10:28:17.148102 17335 layer_factory.hpp:77] Creating layer sum-dsn2
I1125 10:28:17.148109 17335 net.cpp:100] Creating Layer sum-dsn2
I1125 10:28:17.148113 17335 net.cpp:434] sum-dsn2 <- conv4-dsn2
I1125 10:28:17.148115 17335 net.cpp:434] sum-dsn2 <- weight-dsn3-2_crop1-dsn2_0_split_1
I1125 10:28:17.148119 17335 net.cpp:408] sum-dsn2 -> sum-dsn2
I1125 10:28:17.148156 17335 net.cpp:150] Setting up sum-dsn2
I1125 10:28:17.148161 17335 net.cpp:157] Top shape: 1 1 250 250 (62500)
I1125 10:28:17.148164 17335 net.cpp:165] Memory required for data: 1142042948
I1125 10:28:17.148165 17335 layer_factory.hpp:77] Creating layer upsample2_2-dsn2
I1125 10:28:17.148171 17335 net.cpp:100] Creating Layer upsample2_2-dsn2
I1125 10:28:17.148175 17335 net.cpp:434] upsample2_2-dsn2 <- sum-dsn2
I1125 10:28:17.148180 17335 net.cpp:408] upsample2_2-dsn2 -> sum-dsn2-up
I1125 10:28:17.149605 17335 net.cpp:150] Setting up upsample2_2-dsn2
I1125 10:28:17.149616 17335 net.cpp:157] Top shape: 1 1 502 502 (252004)
I1125 10:28:17.149618 17335 net.cpp:165] Memory required for data: 1143050964
I1125 10:28:17.149623 17335 layer_factory.hpp:77] Creating layer crop2-dsn2
I1125 10:28:17.149627 17335 net.cpp:100] Creating Layer crop2-dsn2
I1125 10:28:17.149631 17335 net.cpp:434] crop2-dsn2 <- sum-dsn2-up
I1125 10:28:17.149633 17335 net.cpp:434] crop2-dsn2 <- data_data_0_split_5
I1125 10:28:17.149639 17335 net.cpp:408] crop2-dsn2 -> upscore-dsn2
I1125 10:28:17.149675 17335 net.cpp:150] Setting up crop2-dsn2
I1125 10:28:17.149679 17335 net.cpp:157] Top shape: 1 1 500 500 (250000)
I1125 10:28:17.149682 17335 net.cpp:165] Memory required for data: 1144050964
I1125 10:28:17.149683 17335 layer_factory.hpp:77] Creating layer upscore-dsn2_crop2-dsn2_0_split
I1125 10:28:17.149688 17335 net.cpp:100] Creating Layer upscore-dsn2_crop2-dsn2_0_split
I1125 10:28:17.149690 17335 net.cpp:434] upscore-dsn2_crop2-dsn2_0_split <- upscore-dsn2
I1125 10:28:17.149695 17335 net.cpp:408] upscore-dsn2_crop2-dsn2_0_split -> upscore-dsn2_crop2-dsn2_0_split_0
I1125 10:28:17.149699 17335 net.cpp:408] upscore-dsn2_crop2-dsn2_0_split -> upscore-dsn2_crop2-dsn2_0_split_1
I1125 10:28:17.149704 17335 net.cpp:408] upscore-dsn2_crop2-dsn2_0_split -> upscore-dsn2_crop2-dsn2_0_split_2
I1125 10:28:17.149776 17335 net.cpp:150] Setting up upscore-dsn2_crop2-dsn2_0_split
I1125 10:28:17.149782 17335 net.cpp:157] Top shape: 1 1 500 500 (250000)
I1125 10:28:17.149785 17335 net.cpp:157] Top shape: 1 1 500 500 (250000)
I1125 10:28:17.149788 17335 net.cpp:157] Top shape: 1 1 500 500 (250000)
I1125 10:28:17.149791 17335 net.cpp:165] Memory required for data: 1147050964
I1125 10:28:17.149792 17335 layer_factory.hpp:77] Creating layer loss2-score
I1125 10:28:17.149798 17335 net.cpp:100] Creating Layer loss2-score
I1125 10:28:17.149801 17335 net.cpp:434] loss2-score <- upscore-dsn2_crop2-dsn2_0_split_0
I1125 10:28:17.149803 17335 net.cpp:434] loss2-score <- label_data_1_split_4
I1125 10:28:17.149807 17335 net.cpp:408] loss2-score -> loss2-score
I1125 10:28:17.149991 17335 net.cpp:150] Setting up loss2-score
I1125 10:28:17.149997 17335 net.cpp:157] Top shape: (1)
I1125 10:28:17.149999 17335 net.cpp:160]     with loss weight 1
I1125 10:28:17.150003 17335 net.cpp:165] Memory required for data: 1147050968
I1125 10:28:17.150005 17335 layer_factory.hpp:77] Creating layer sigmoid-dsn1
I1125 10:28:17.150009 17335 net.cpp:100] Creating Layer sigmoid-dsn1
I1125 10:28:17.150012 17335 net.cpp:434] sigmoid-dsn1 <- upscore-dsn2_crop2-dsn2_0_split_1
I1125 10:28:17.150015 17335 net.cpp:408] sigmoid-dsn1 -> sigmoid-dsn1
I1125 10:28:17.150542 17335 net.cpp:150] Setting up sigmoid-dsn1
I1125 10:28:17.150553 17335 net.cpp:157] Top shape: 1 1 500 500 (250000)
I1125 10:28:17.150555 17335 net.cpp:165] Memory required for data: 1148050968
I1125 10:28:17.150557 17335 layer_factory.hpp:77] Creating layer rev-dsn1
I1125 10:28:17.150563 17335 net.cpp:100] Creating Layer rev-dsn1
I1125 10:28:17.150565 17335 net.cpp:434] rev-dsn1 <- sigmoid-dsn1
I1125 10:28:17.150569 17335 net.cpp:408] rev-dsn1 -> rev-dsn1
I1125 10:28:17.150600 17335 net.cpp:150] Setting up rev-dsn1
I1125 10:28:17.150604 17335 net.cpp:157] Top shape: 1 1 500 500 (250000)
I1125 10:28:17.150606 17335 net.cpp:165] Memory required for data: 1149050968
I1125 10:28:17.150609 17335 layer_factory.hpp:77] Creating layer tile-dsn1
I1125 10:28:17.150611 17335 net.cpp:100] Creating Layer tile-dsn1
I1125 10:28:17.150614 17335 net.cpp:434] tile-dsn1 <- rev-dsn1
I1125 10:28:17.150617 17335 net.cpp:408] tile-dsn1 -> weight-dsn1
I1125 10:28:17.150642 17335 net.cpp:150] Setting up tile-dsn1
I1125 10:28:17.150646 17335 net.cpp:157] Top shape: 1 64 500 500 (16000000)
I1125 10:28:17.150648 17335 net.cpp:165] Memory required for data: 1213050968
I1125 10:28:17.150650 17335 layer_factory.hpp:77] Creating layer prod1-dsn1
I1125 10:28:17.150655 17335 net.cpp:100] Creating Layer prod1-dsn1
I1125 10:28:17.150656 17335 net.cpp:434] prod1-dsn1 <- conv1_2_relu1_2_0_split_1
I1125 10:28:17.150660 17335 net.cpp:434] prod1-dsn1 <- weight-dsn1
I1125 10:28:17.150662 17335 net.cpp:408] prod1-dsn1 -> prod1-dsn1
I1125 10:28:17.150686 17335 net.cpp:150] Setting up prod1-dsn1
I1125 10:28:17.150691 17335 net.cpp:157] Top shape: 1 64 500 500 (16000000)
I1125 10:28:17.150693 17335 net.cpp:165] Memory required for data: 1277050968
I1125 10:28:17.150696 17335 layer_factory.hpp:77] Creating layer conv1-dsn1
I1125 10:28:17.150701 17335 net.cpp:100] Creating Layer conv1-dsn1
I1125 10:28:17.150703 17335 net.cpp:434] conv1-dsn1 <- prod1-dsn1
I1125 10:28:17.150707 17335 net.cpp:408] conv1-dsn1 -> conv1-dsn1
I1125 10:28:17.153028 17335 net.cpp:150] Setting up conv1-dsn1
I1125 10:28:17.153038 17335 net.cpp:157] Top shape: 1 64 500 500 (16000000)
I1125 10:28:17.153040 17335 net.cpp:165] Memory required for data: 1341050968
I1125 10:28:17.153045 17335 layer_factory.hpp:77] Creating layer conv2-dsn1
I1125 10:28:17.153069 17335 net.cpp:100] Creating Layer conv2-dsn1
I1125 10:28:17.153072 17335 net.cpp:434] conv2-dsn1 <- conv1-dsn1
I1125 10:28:17.153079 17335 net.cpp:408] conv2-dsn1 -> conv2-dsn1
I1125 10:28:17.154611 17335 net.cpp:150] Setting up conv2-dsn1
I1125 10:28:17.154623 17335 net.cpp:157] Top shape: 1 64 500 500 (16000000)
I1125 10:28:17.154625 17335 net.cpp:165] Memory required for data: 1405050968
I1125 10:28:17.154630 17335 layer_factory.hpp:77] Creating layer relu1-dsn1
I1125 10:28:17.154636 17335 net.cpp:100] Creating Layer relu1-dsn1
I1125 10:28:17.154639 17335 net.cpp:434] relu1-dsn1 <- conv2-dsn1
I1125 10:28:17.154642 17335 net.cpp:395] relu1-dsn1 -> conv2-dsn1 (in-place)
I1125 10:28:17.155129 17335 net.cpp:150] Setting up relu1-dsn1
I1125 10:28:17.155139 17335 net.cpp:157] Top shape: 1 64 500 500 (16000000)
I1125 10:28:17.155141 17335 net.cpp:165] Memory required for data: 1469050968
I1125 10:28:17.155143 17335 layer_factory.hpp:77] Creating layer conv3-dsn1
I1125 10:28:17.155153 17335 net.cpp:100] Creating Layer conv3-dsn1
I1125 10:28:17.155155 17335 net.cpp:434] conv3-dsn1 <- conv2-dsn1
I1125 10:28:17.155161 17335 net.cpp:408] conv3-dsn1 -> conv3-dsn1
I1125 10:28:17.157729 17335 net.cpp:150] Setting up conv3-dsn1
I1125 10:28:17.157739 17335 net.cpp:157] Top shape: 1 64 500 500 (16000000)
I1125 10:28:17.157742 17335 net.cpp:165] Memory required for data: 1533050968
I1125 10:28:17.157747 17335 layer_factory.hpp:77] Creating layer relu2-dsn1
I1125 10:28:17.157752 17335 net.cpp:100] Creating Layer relu2-dsn1
I1125 10:28:17.157753 17335 net.cpp:434] relu2-dsn1 <- conv3-dsn1
I1125 10:28:17.157759 17335 net.cpp:395] relu2-dsn1 -> conv3-dsn1 (in-place)
I1125 10:28:17.157938 17335 net.cpp:150] Setting up relu2-dsn1
I1125 10:28:17.157944 17335 net.cpp:157] Top shape: 1 64 500 500 (16000000)
I1125 10:28:17.157946 17335 net.cpp:165] Memory required for data: 1597050968
I1125 10:28:17.157948 17335 layer_factory.hpp:77] Creating layer conv4-dsn1
I1125 10:28:17.157959 17335 net.cpp:100] Creating Layer conv4-dsn1
I1125 10:28:17.157961 17335 net.cpp:434] conv4-dsn1 <- conv3-dsn1
I1125 10:28:17.157968 17335 net.cpp:408] conv4-dsn1 -> conv4-dsn1
I1125 10:28:17.159255 17335 net.cpp:150] Setting up conv4-dsn1
I1125 10:28:17.159265 17335 net.cpp:157] Top shape: 1 1 500 500 (250000)
I1125 10:28:17.159267 17335 net.cpp:165] Memory required for data: 1598050968
I1125 10:28:17.159272 17335 layer_factory.hpp:77] Creating layer sum-dsn1
I1125 10:28:17.159279 17335 net.cpp:100] Creating Layer sum-dsn1
I1125 10:28:17.159281 17335 net.cpp:434] sum-dsn1 <- conv4-dsn1
I1125 10:28:17.159286 17335 net.cpp:434] sum-dsn1 <- upscore-dsn2_crop2-dsn2_0_split_2
I1125 10:28:17.159289 17335 net.cpp:408] sum-dsn1 -> sum-dsn1
I1125 10:28:17.159322 17335 net.cpp:150] Setting up sum-dsn1
I1125 10:28:17.159327 17335 net.cpp:157] Top shape: 1 1 500 500 (250000)
I1125 10:28:17.159328 17335 net.cpp:165] Memory required for data: 1599050968
I1125 10:28:17.159330 17335 layer_factory.hpp:77] Creating layer crop2-dsn1
I1125 10:28:17.159333 17335 net.cpp:100] Creating Layer crop2-dsn1
I1125 10:28:17.159337 17335 net.cpp:434] crop2-dsn1 <- sum-dsn1
I1125 10:28:17.159338 17335 net.cpp:434] crop2-dsn1 <- data_data_0_split_6
I1125 10:28:17.159343 17335 net.cpp:408] crop2-dsn1 -> upscore-dsn1
I1125 10:28:17.159370 17335 net.cpp:150] Setting up crop2-dsn1
I1125 10:28:17.159379 17335 net.cpp:157] Top shape: 1 1 500 500 (250000)
I1125 10:28:17.159380 17335 net.cpp:165] Memory required for data: 1600050968
I1125 10:28:17.159384 17335 layer_factory.hpp:77] Creating layer loss1-score
I1125 10:28:17.159389 17335 net.cpp:100] Creating Layer loss1-score
I1125 10:28:17.159391 17335 net.cpp:434] loss1-score <- upscore-dsn1
I1125 10:28:17.159394 17335 net.cpp:434] loss1-score <- label_data_1_split_5
I1125 10:28:17.159397 17335 net.cpp:408] loss1-score -> loss1-score
…
