…
  name: "data"
  type: "ImageLabelmapData"
  top: "data_unaugmented"
  top: "label_unaugmented"
  include {
    phase: TRAIN
  }
  transform_param {
    mean_value: 104.00699
    mean_value: 116.66877
    mean_value: 122.67892
  }
  image_data_param {
    source: "/media/compute/homes/galberding/FleckDetect/Datasets/FleckDataSet/train/image_to_label_map.txt"
    batch_size: 1
    shuffle: true
    new_height: 500
    new_width: 500
    root_folder: "/media/compute/homes/galberding/FleckDetect/Datasets/FleckDataSet/train/"
    normalize: true
  }
}
layer {
  name: "augmentation"
  type: "Python"
  bottom: "data_unaugmented"
  bottom: "label_unaugmented"
  top: "data"
  top: "label"
  include {
    phase: TRAIN
  }
  python_param {
    module: "data_augmentation"
    layer: "DataAugmentation"
  }
}
layer {
  name: "conv1_1"
  type: "Convolution"
  bottom: "data"
  top: "conv1_1"
  param {
    lr_mult: 1
    decay_mult: 1
  }
  param {
    lr_mult: 2
    decay_mult: 0
  }
  convolution_param {
    num_output: 64
    pad: 1
    kernel_size: 3
    engine: CUDNN
  }
}
layer {
  name: "relu1_1"
  type: "ReLU"
  bottom: "conv1_1"
  top: "conv1_1"
}
layer {
  name: "conv1_2"
  type: "Convolution"
  bottom: "conv1_1"
  top: "conv1_2"
  param {
    lr_mult: 1
    decay_mult: 1
  }
  param {
    lr_mult: 2
    decay_mult: 0
  }
  convolution_param {
    num_output: 64
    pad: 1
    kernel_size: 3
    engine: CUDNN
  }
}
layer {
  name: "relu1_2"
  type: "ReLU"
  bottom: "conv1_2"
  top: "conv1_2"
}
layer {
  name: "pool1"
  type: "Pooling"
  bottom: "conv1_2"
  top: "pool1"
  pooling_param {
    pool: MAX
    kernel_size: 2
    stride: 2
  }
}
layer {
  name: "conv2_1"
  type: "Convolution"
  bottom: "pool1"
  top: "conv2_1"
  param {
    lr_mult: 1
    decay_mult: 1
  }
  param {
    lr_mult: 2
    decay_mult: 0
  }
  convolution_param {
    num_output: 128
    pad: 1
    kernel_size: 3
    engine: CUDNN
  }
}
layer {
  name: "relu2_1"
  type: "ReLU"
  bottom: "conv2_1"
  top: "conv2_1"
}
layer {
  name: "conv2_2"
  type: "Convolution"
  bottom: "conv2_1"
  top: "conv2_2"
  param {
    lr_mult: 1
    decay_mult: 1
  }
  param {
    lr_mult: 2
    decay_mult: 0
  }
  convolution_param {
    num_output: 128
    pad: 1
    kernel_size: 3
    engine: CUDNN
  }
}
layer {
  name: "relu2_2"
  type: "ReLU"
  bottom: "conv2_2"
  top: "conv2_2"
}
layer {
  name: "pool2"
  type: "Pooling"
  bottom: "conv2_2"
  top: "pool2"
  pooling_param {
    pool: MAX
    kernel_size: 2
    stride: 2
  }
}
layer {
  name: "conv3_1"
  type: "Convolution"
  bottom: "pool2"
  top: "conv3_1"
  param {
    lr_mult: 1
    decay_mult: 1
  }
  param {
    lr_mult: 2
    decay_mult: 0
  }
  convolution_param {
    num_output: 256
    pad: 1
    kernel_size: 3
    engine: CUDNN
  }
}
layer {
  name: "relu3_1"
  type: "ReLU"
  bottom: "conv3_1"
  top: "conv3_1"
}
layer {
  name: "conv3_2"
  type: "Convolution"
  bottom: "conv3_1"
  top: "conv3_2"
  param {
    lr_mult: 1
    decay_mult: 1
  }
  param {
    lr_mult: 2
    decay_mult: 0
  }
  convolution_param {
    num_output: 256
    pad: 1
    kernel_size: 3
    engine: CUDNN
  }
}
layer {
  name: "relu3_2"
  type: "ReLU"
  bottom: "conv3_2"
  top: "conv3_2"
}
layer {
  name: "conv3_3"
  type: "Convolution"
  bottom: "conv3_2"
  top: "conv3_3"
  param {
    lr_mult: 1
    decay_mult: 1
  }
  param {
    lr_mult: 2
    decay_mult: 0
  }
  convolution_param {
    num_output: 256
    pad: 1
    kernel_size: 3
    engine: CUDNN
  }
}
layer {
  name: "relu3_3"
  type: "ReLU"
  bottom: "conv3_3"
  top: "conv3_3"
}
layer {
  name: "pool3"
  type: "Pooling"
  bottom: "conv3_3"
  top: "pool3"
  pooling_param {
    pool: MAX
    kernel_size: 2
    stride: 2
  }
}
layer {
  name: "conv4_1"
  type: "Convolution"
  bottom: "pool3"
  top: "conv4_1"
  param {
    lr_mult: 1
    decay_mult: 1
  }
  param {
    lr_mult: 2
    decay_mult: 0
  }
  convolution_param {
    num_output: 512
    pad: 1
    kernel_size: 3
    engine: CUDNN
  }
}
layer {
  name: "relu4_1"
  type: "ReLU"
  bottom: "conv4_1"
  top: "conv4_1"
}
layer {
  name: "conv4_2"
  type: "Convolution"
  bottom: "conv4_1"
  top: "conv4_2"
  param {
    lr_mult: 1
    decay_mult: 1
  }
  param {
    lr_mult: 2
    decay_mult: 0
  }
  convolution_param {
    num_output: 512
    pad: 1
    kernel_size: 3
    engine: CUDNN
  }
}
layer {
  name: "relu4_2"
  type: "ReLU"
  bottom: "conv4_2"
  top: "conv4_2"
}
layer {
  name: "conv4_3"
  type: "Convolution"
  bottom: "conv4_2"
  top: "conv4_3"
  param {
    lr_mult: 1
    decay_mult: 1
  }
  param {
    lr_mult: 2
    decay_mult: 0
  }
  convolution_param {
    num_output: 512
    pad: 1
    kernel_size: 3
    engine: CUDNN
  }
}
layer {
  name: "relu4_3"
  type: "ReLU"
  bottom: "conv4_3"
  top: "conv4_3"
}
layer {
  name: "pool4"
  type: "Pooling"
  bottom: "conv4_3"
  top: "pool4"
  pooling_param {
    pool: MAX
    kernel_size: 3
    stride: 2
    pad: 1
  }
}
layer {
  name: "conv5_1"
  type: "Convolution"
  bottom: "pool4"
  top: "conv5_1"
  param {
    lr_mult: 1
    decay_mult: 1
  }
  param {
    lr_mult: 2
    decay_mult: 0
  }
  convolution_param {
    num_output: 512
    pad: 1
    kernel_size: 3
    engine: CUDNN
  }
}
layer {
  name: "relu5_1"
  type: "ReLU"
  bottom: "conv5_1"
  top: "conv5_1"
}
layer {
  name: "conv5_2"
  type: "Convolution"
  bottom: "conv5_1"
  top: "conv5_2"
  param {
    lr_mult: 1
    decay_mult: 1
  }
  param {
    lr_mult: 2
    decay_mult: 0
  }
  convolution_param {
    num_output: 512
    pad: 1
    kernel_size: 3
    engine: CUDNN
  }
}
layer {
  name: "relu5_2"
  type: "ReLU"
  bottom: "conv5_2"
  top: "conv5_2"
}
layer {
  name: "conv5_3"
  type: "Convolution"
  bottom: "conv5_2"
  top: "conv5_3"
  param {
    lr_mult: 1
    decay_mult: 1
  }
  param {
    lr_mult: 2
    decay_mult: 0
  }
  convolution_param {
    num_output: 512
    pad: 1
    kernel_size: 3
    engine: CUDNN
  }
}
layer {
  name: "relu5_3"
  type: "ReLU"
  bottom: "conv5_3"
  top: "conv5_3"
}
layer {
  name: "pool5"
  type: "Pooling"
  bottom: "conv5_3"
  top: "pool5"
  pooling_param {
    pool: MAX
    kernel_size: 3
    stride: 2
    pad: 1
  }
}
layer {
  name: "conv1-dsn6"
  type: "Convolution"
  bottom: "pool5"
  top: "conv1-dsn6"
  param {
    lr_mult: 1
    decay_mult: 1
  }
  param {
    lr_mult: 2
    decay_mult: 0
  }
  convolution_param {
    num_output: 256
    kernel_size: 1
    weight_filler {
      type: "gaussian"
      std: 0.01
    }
    bias_filler {
      type: "constant"
      value: 0
    }
    engine: CUDNN
  }
}
layer {
  name: "conv2-dsn6"
  type: "Convolution"
  bottom: "conv1-dsn6"
  top: "conv2-dsn6"
  param {
    lr_mult: 1
    decay_mult: 1
  }
  param {
    lr_mult: 2
    decay_mult: 0
  }
  convolution_param {
    num_output: 256
    pad: 2
    kernel_size: 5
    weight_filler {
      type: "gaussian"
      std: 0.01
    }
    bias_filler {
      type: "constant"
      value: 0
    }
    engine: CUDNN
  }
}
layer {
  name: "relu1-dsn6"
  type: "ReLU"
  bottom: "conv2-dsn6"
  top: "conv2-dsn6"
}
layer {
  name: "conv3-dsn6"
  type: "Convolution"
  bottom: "conv2-dsn6"
  top: "conv3-dsn6"
  param {
    lr_mult: 1
    decay_mult: 1
  }
  param {
    lr_mult: 2
    decay_mult: 0
  }
  convolution_param {
    num_output: 256
    pad: 2
    kernel_size: 5
    weight_filler {
      type: "gaussian"
      std: 0.01
    }
    bias_filler {
      type: "constant"
      value: 0
    }
    engine: CUDNN
  }
}
layer {
  name: "relu2-dsn6"
  type: "ReLU"
  bottom: "conv3-dsn6"
  top: "conv3-dsn6"
}
layer {
  name: "conv4-dsn6"
  type: "Convolution"
  bottom: "conv3-dsn6"
  top: "conv4-dsn6"
  param {
    lr_mult: 1
    decay_mult: 1
  }
  param {
    lr_mult: 2
    decay_mult: 0
  }
  convolution_param {
    num_output: 256
    pad: 2
    kernel_size: 5
    weight_filler {
      type: "gaussian"
      std: 0.01
    }
    bias_filler {
      type: "constant"
      value: 0
    }
    engine: CUDNN
  }
}
layer {
  name: "relu3-dsn6"
  type: "ReLU"
  bottom: "conv4-dsn6"
  top: "conv4-dsn6"
}
layer {
  name: "conv5-dsn6"
  type: "Convolution"
  bottom: "conv4-dsn6"
  top: "conv5-dsn6"
  param {
    lr_mult: 0.1
    decay_mult: 1
  }
  param {
    lr_mult: 0.2
    decay_mult: 0
  }
  convolution_param {
    num_output: 1
    kernel_size: 1
    weight_filler {
      type: "gaussian"
      std: 0.01
    }
    bias_filler {
      type: "constant"
      value: 0
    }
    engine: CUDNN
  }
}
layer {
  name: "upsample32_dsn6"
  type: "Deconvolution"
  bottom: "conv5-dsn6"
  top: "conv5-dsn6-up"
  param {
    lr_mult: 0
    decay_mult: 1
  }
  param {
    lr_mult: 0
    decay_mult: 0
  }
  convolution_param {
    num_output: 1
    kernel_size: 64
    stride: 32
  }
}
layer {
  name: "crop-dsn6"
  type: "Crop"
  bottom: "conv5-dsn6-up"
  bottom: "data"
  top: "upscore-dsn6"
}
layer {
  name: "loss6-score"
  type: "SigmoidCrossEntropyLoss"
  bottom: "upscore-dsn6"
  bottom: "label"
  top: "loss6-score"
  loss_weight: 1
}
layer {
  name: "upsample2_dsn5"
  type: "Deconvolution"
  bottom: "conv5-dsn6"
  top: "conv5-dsn6-5"
  param {
    lr_mult: 0
    decay_mult: 1
  }
  param {
    lr_mult: 0
    decay_mult: 0
  }
  convolution_param {
    num_output: 1
    kernel_size: 4
    stride: 2
  }
}
layer {
  name: "crop1-dsn5"
  type: "Crop"
  bottom: "conv5-dsn6-5"
  bottom: "conv5_3"
  top: "weight-dsn6-5"
}
layer {
  name: "sigmoid-dsn5"
  type: "Sigmoid"
  bottom: "weight-dsn6-5"
  top: "sigmoid-dsn5"
}
layer {
  name: "rev-dsn5"
  type: "Power"
  bottom: "sigmoid-dsn5"
  top: "rev-dsn5"
  power_param {
    power: 1
    scale: -1
    shift: 1
  }
}
layer {
  name: "tile-dsn5"
  type: "Tile"
  bottom: "rev-dsn5"
  top: "weight-dsn5"
  tile_param {
    tiles: 512
  }
}
layer {
  name: "prod1-dsn5"
  type: "Eltwise"
  bottom: "conv5_3"
  bottom: "weight-dsn5"
  top: "prod1-dsn5"
  eltwise_param {
    operation: PROD
  }
}
layer {
  name: "conv1-dsn5"
  type: "Convolution"
  bottom: "prod1-dsn5"
  top: "conv1-dsn5"
  param {
    lr_mult: 1
    decay_mult: 1
  }
  param {
    lr_mult: 2
    decay_mult: 0
  }
  convolution_param {
    num_output: 64
    kernel_size: 1
    weight_filler {
      type: "gaussian"
      std: 0.01
    }
    bias_filler {
      type: "constant"
      value: 0
    }
    engine: CUDNN
  }
}
layer {
  name: "conv2-dsn5"
  type: "Convolution"
  bottom: "conv1-dsn5"
  top: "conv2-dsn5"
  param {
    lr_mult: 1
    decay_mult: 1
  }
  param {
    lr_mult: 2
    decay_mult: 0
  }
  convolution_param {
    num_output: 64
    pad: 1
    kernel_size: 3
    weight_filler {
      type: "gaussian"
      std: 0.01
    }
    bias_filler {
      type: "constant"
      value: 0
    }
    engine: CUDNN
  }
}
layer {
  name: "relu1-dsn5"
  type: "ReLU"
  bottom: "conv2-dsn5"
  top: "conv2-dsn5"
}
layer {
  name: "conv3-dsn5"
  type: "Convolution"
  bottom: "conv2-dsn5"
  top: "conv3-dsn5"
  param {
    lr_mult: 1
    decay_mult: 1
  }
  param {
    lr_mult: 2
    decay_mult: 0
  }
  convolution_param {
    num_output: 64
    pad: 1
    kernel_size: 3
    weight_filler {
      type: "gaussian"
      std: 0.01
    }
    bias_filler {
      type: "constant"
      value: 0
    }
    engine: CUDNN
  }
}
layer {
  name: "relu2-dsn5"
  type: "ReLU"
  bottom: "conv3-dsn5"
  top: "conv3-dsn5"
}
layer {
  name: "conv4-dsn5"
  type: "Convolution"
  bottom: "conv3-dsn5"
  top: "conv4-dsn5"
  param {
    lr_mult: 1
    decay_mult: 1
  }
  param {
    lr_mult: 2
    decay_mult: 0
  }
  convolution_param {
    num_output: 1
    pad: 1
    kernel_size: 3
    weight_filler {
      type: "gaussian"
      std: 0.01
    }
    bias_filler {
      type: "constant"
      value: 0
    }
    engine: CUDNN
  }
}
layer {
  name: "sum-dsn5"
  type: "Eltwise"
  bottom: "conv4-dsn5"
  bottom: "weight-dsn6-5"
  top: "sum-dsn5"
  eltwise_param {
    operation: SUM
  }
}
layer {
  name: "upsample16_dsn5"
  type: "Deconvolution"
  bottom: "sum-dsn5"
  top: "sum-dsn5-up"
  param {
    lr_mult: 0
    decay_mult: 1
  }
  param {
    lr_mult: 0
    decay_mult: 0
  }
  convolution_param {
    num_output: 1
    kernel_size: 32
    stride: 16
  }
}
layer {
  name: "crop2-dsn5"
  type: "Crop"
  bottom: "sum-dsn5-up"
  bottom: "data"
  top: "upscore-dsn5"
}
layer {
  name: "loss5-score"
  type: "SigmoidCrossEntropyLoss"
  bottom: "upscore-dsn5"
  bottom: "label"
  top: "loss5-score"
  loss_weight: 1
}
layer {
  name: "upsample2_dsn4"
  type: "Deconvolution"
  bottom: "sum-dsn5"
  top: "sum-dsn5-4"
  param {
    lr_mult: 0
    decay_mult: 1
  }
  param {
    lr_mult: 0
    decay_mult: 0
  }
  convolution_param {
    num_output: 1
    kernel_size: 4
    stride: 2
  }
}
layer {
  name: "crop1-dsn4"
  type: "Crop"
  bottom: "sum-dsn5-4"
  bottom: "conv4_3"
  top: "weight-dsn5-4"
}
layer {
  name: "sigmoid-dsn4"
  type: "Sigmoid"
  bottom: "weight-dsn5-4"
  top: "sigmoid-dsn4"
}
layer {
  name: "rev-dsn4"
  type: "Power"
  bottom: "sigmoid-dsn4"
  top: "rev-dsn4"
  power_param {
    power: 1
    scale: -1
    shift: 1
  }
}
layer {
  name: "tile-dsn4"
  type: "Tile"
  bottom: "rev-dsn4"
  top: "weight-dsn4"
  tile_param {
    tiles: 512
  }
}
layer {
  name: "prod1-dsn4"
  type: "Eltwise"
  bottom: "conv4_3"
  bottom: "weight-dsn4"
  top: "prod1-dsn4"
  eltwise_param {
    operation: PROD
  }
}
layer {
  name: "conv1-dsn4"
  type: "Convolution"
  bottom: "prod1-dsn4"
  top: "conv1-dsn4"
  param {
    lr_mult: 1
    decay_mult: 1
  }
  param {
    lr_mult: 2
    decay_mult: 0
  }
  convolution_param {
    num_output: 64
    kernel_size: 1
    weight_filler {
      type: "gaussian"
      std: 0.01
    }
    bias_filler {
      type: "constant"
      value: 0
    }
    engine: CUDNN
  }
}
layer {
  name: "conv2-dsn4"
  type: "Convolution"
  bottom: "conv1-dsn4"
  top: "conv2-dsn4"
  param {
    lr_mult: 1
    decay_mult: 1
  }
  param {
    lr_mult: 2
    decay_mult: 0
  }
  convolution_param {
    num_output: 64
    pad: 1
    kernel_size: 3
    weight_filler {
      type: "gaussian"
      std: 0.01
    }
    bias_filler {
      type: "constant"
      value: 0
    }
    engine: CUDNN
  }
}
layer {
  name: "relu1-dsn4"
  type: "ReLU"
  bottom: "conv2-dsn4"
  top: "conv2-dsn4"
}
layer {
  name: "conv3-dsn4"
  type: "Convolution"
  bottom: "conv2-dsn4"
  top: "conv3-dsn4"
  param {
    lr_mult: 1
    decay_mult: 1
  }
  param {
    lr_mult: 2
    decay_mult: 0
  }
  convolution_param {
    num_output: 64
    pad: 1
    kernel_size: 3
    weight_filler {
      type: "gaussian"
      std: 0.01
    }
    bias_filler {
      type: "constant"
      value: 0
    }
    engine: CUDNN
  }
}
layer {
  name: "relu2-dsn4"
  type: "ReLU"
  bottom: "conv3-dsn4"
  top: "conv3-dsn4"
}
layer {
  name: "conv4-dsn4"
  type: "Convolution"
  bottom: "conv3-dsn4"
  top: "conv4-dsn4"
  param {
    lr_mult: 1
    decay_mult: 1
  }
  param {
    lr_mult: 2
    decay_mult: 0
  }
  convolution_param {
    num_output: 1
    pad: 1
    kernel_size: 3
    weight_filler {
      type: "gaussian"
      std: 0.01
    }
    bias_filler {
      type: "constant"
      value: 0
    }
    engine: CUDNN
  }
}
layer {
  name: "sum-dsn4"
  type: "Eltwise"
  bottom: "conv4-dsn4"
  bottom: "weight-dsn5-4"
  top: "sum-dsn4"
  eltwise_param {
    operation: SUM
  }
}
layer {
  name: "upsample8_dsn4"
  type: "Deconvolution"
  bottom: "sum-dsn4"
  top: "sum-dsn4-up"
  param {
    lr_mult: 0
    decay_mult: 1
  }
  param {
    lr_mult: 0
    decay_mult: 0
  }
  convolution_param {
    num_output: 1
    kernel_size: 16
    stride: 8
  }
}
layer {
  name: "crop2-dsn4"
  type: "Crop"
  bottom: "sum-dsn4-up"
  bottom: "data"
  top: "upscore-dsn4"
}
layer {
  name: "loss4-score"
  type: "SigmoidCrossEntropyLoss"
  bottom: "upscore-dsn4"
  bottom: "label"
  top: "loss4-score"
  loss_weight: 1
}
layer {
  name: "upsample2_dsn3"
  type: "Deconvolution"
  bottom: "sum-dsn4"
  top: "sum-dsn4-3"
  param {
    lr_mult: 0
    decay_mult: 1
  }
  param {
    lr_mult: 0
    decay_mult: 0
  }
  convolution_param {
    num_output: 1
    kernel_size: 4
    stride: 2
  }
}
layer {
  name: "crop1-dsn3"
  type: "Crop"
  bottom: "sum-dsn4-3"
  bottom: "conv3_3"
  top: "weight-dsn4-3"
}
layer {
  name: "sigmoid-dsn3"
  type: "Sigmoid"
  bottom: "weight-dsn4-3"
  top: "sigmoid-dsn3"
}
layer {
  name: "rev-dsn3"
  type: "Power"
  bottom: "sigmoid-dsn3"
  top: "rev-dsn3"
  power_param {
    power: 1
    scale: -1
    shift: 1
  }
}
layer {
  name: "tile-dsn3"
  type: "Tile"
  bottom: "rev-dsn3"
  top: "weight-dsn3"
  tile_param {
    tiles: 256
  }
}
layer {
  name: "prod1-dsn3"
  type: "Eltwise"
  bottom: "conv3_3"
  bottom: "weight-dsn3"
  top: "prod1-dsn3"
  eltwise_param {
    operation: PROD
  }
}
layer {
  name: "conv1-dsn3"
  type: "Convolution"
  bottom: "prod1-dsn3"
  top: "conv1-dsn3"
  param {
    lr_mult: 1
    decay_mult: 1
  }
  param {
    lr_mult: 2
    decay_mult: 0
  }
  convolution_param {
    num_output: 64
    kernel_size: 1
    weight_filler {
      type: "gaussian"
      std: 0.01
    }
    bias_filler {
      type: "constant"
      value: 0
    }
    engine: CUDNN
  }
}
layer {
  name: "conv2-dsn3"
  type: "Convolution"
  bottom: "conv1-dsn3"
  top: "conv2-dsn3"
  param {
    lr_mult: 1
    decay_mult: 1
  }
  param {
    lr_mult: 2
    decay_mult: 0
  }
  convolution_param {
    num_output: 64
    pad: 1
    kernel_size: 3
    weight_filler {
      type: "gaussian"
      std: 0.01
    }
    bias_filler {
      type: "constant"
      value: 0
    }
    engine: CUDNN
  }
}
layer {
  name: "relu1-dsn3"
  type: "ReLU"
  bottom: "conv2-dsn3"
  top: "conv2-dsn3"
}
layer {
  name: "conv3-dsn3"
  type: "Convolution"
  bottom: "conv2-dsn3"
  top: "conv3-dsn3"
  param {
    lr_mult: 1
    decay_mult: 1
  }
  param {
    lr_mult: 2
    decay_mult: 0
  }
  convolution_param {
    num_output: 64
    pad: 1
    kernel_size: 3
    weight_filler {
      type: "gaussian"
      std: 0.01
    }
    bias_filler {
      type: "constant"
      value: 0
    }
    engine: CUDNN
  }
}
layer {
  name: "relu2-dsn3"
  type: "ReLU"
  bottom: "conv3-dsn3"
  top: "conv3-dsn3"
}
layer {
  name: "conv4-dsn3"
  type: "Convolution"
  bottom: "conv3-dsn3"
  top: "conv4-dsn3"
  param {
    lr_mult: 1
    decay_mult: 1
  }
  param {
    lr_mult: 2
    decay_mult: 0
  }
  convolution_param {
    num_output: 1
    pad: 1
    kernel_size: 3
    weight_filler {
      type: "gaussian"
      std: 0.01
    }
    bias_filler {
      type: "constant"
      value: 0
    }
    engine: CUDNN
  }
}
layer {
  name: "sum-dsn3"
  type: "Eltwise"
  bottom: "conv4-dsn3"
  bottom: "weight-dsn4-3"
  top: "sum-dsn3"
  eltwise_param {
    operation: SUM
  }
}
layer {
  name: "upsample4_dsn3"
  type: "Deconvolution"
  bottom: "sum-dsn3"
  top: "sum-dsn3-up"
  param {
    lr_mult: 0
    decay_mult: 1
  }
  param {
    lr_mult: 0
    decay_mult: 0
  }
  convolution_param {
    num_output: 1
    kernel_size: 8
    stride: 4
  }
}
layer {
  name: "crop2-dsn3"
  type: "Crop"
  bottom: "sum-dsn3-up"
  bottom: "data"
  top: "upscore-dsn3"
}
layer {
  name: "loss3-score"
  type: "SigmoidCrossEntropyLoss"
  bottom: "upscore-dsn3"
  bottom: "label"
  top: "loss3-score"
  loss_weight: 1
}
layer {
  name: "upsample2_1-dsn2"
  type: "Deconvolution"
  bottom: "sum-dsn3"
  top: "sum-dsn3-2"
  param {
    lr_mult: 0
    decay_mult: 1
  }
  param {
    lr_mult: 0
    decay_mult: 0
  }
  convolution_param {
    num_output: 1
    kernel_size: 4
    stride: 2
  }
}
layer {
  name: "crop1-dsn2"
  type: "Crop"
  bottom: "sum-dsn3-2"
  bottom: "conv2_2"
  top: "weight-dsn3-2"
}
layer {
  name: "sigmoid-dsn2"
  type: "Sigmoid"
  bottom: "weight-dsn3-2"
  top: "sigmoid-dsn2"
}
layer {
  name: "rev-dsn2"
  type: "Power"
  bottom: "sigmoid-dsn2"
  top: "rev-dsn2"
  power_param {
    power: 1
    scale: -1
    shift: 1
  }
}
layer {
  name: "tile-dsn2"
  type: "Tile"
  bottom: "rev-dsn2"
  top: "weight-dsn2"
  tile_param {
    tiles: 128
  }
}
layer {
  name: "prod1-dsn2"
  type: "Eltwise"
  bottom: "conv2_2"
  bottom: "weight-dsn2"
  top: "prod1-dsn2"
  eltwise_param {
    operation: PROD
  }
}
layer {
  name: "conv1-dsn2"
  type: "Convolution"
  bottom: "prod1-dsn2"
  top: "conv1-dsn2"
  param {
    lr_mult: 1
    decay_mult: 1
  }
  param {
    lr_mult: 2
    decay_mult: 0
  }
  convolution_param {
    num_output: 64
    kernel_size: 1
    weight_filler {
      type: "gaussian"
      std: 0.01
    }
    bias_filler {
      type: "constant"
      value: 0
    }
    engine: CUDNN
  }
}
layer {
  name: "conv2-dsn2"
  type: "Convolution"
  bottom: "conv1-dsn2"
  top: "conv2-dsn2"
  param {
    lr_mult: 1
    decay_mult: 1
  }
  param {
    lr_mult: 2
    decay_mult: 0
  }
  convolution_param {
    num_output: 64
    pad: 1
    kernel_size: 3
    weight_filler {
      type: "gaussian"
      std: 0.01
    }
    bias_filler {
      type: "constant"
      value: 0
    }
    engine: CUDNN
  }
}
layer {
  name: "relu1-dsn2"
  type: "ReLU"
  bottom: "conv2-dsn2"
  top: "conv2-dsn2"
}
layer {
  name: "conv3-dsn2"
  type: "Convolution"
  bottom: "conv2-dsn2"
  top: "conv3-dsn2"
  param {
    lr_mult: 1
    decay_mult: 1
  }
  param {
    lr_mult: 2
    decay_mult: 0
  }
  convolution_param {
    num_output: 64
    pad: 1
    kernel_size: 3
    weight_filler {
      type: "gaussian"
      std: 0.01
    }
    bias_filler {
      type: "constant"
      value: 0
    }
    engine: CUDNN
  }
}
layer {
  name: "relu2-dsn2"
  type: "ReLU"
  bottom: "conv3-dsn2"
  top: "conv3-dsn2"
}
layer {
  name: "conv4-dsn2"
  type: "Convolution"
  bottom: "conv3-dsn2"
  top: "conv4-dsn2"
  param {
    lr_mult: 1
    decay_mult: 1
  }
  param {
    lr_mult: 2
    decay_mult: 0
  }
  convolution_param {
    num_output: 1
    pad: 1
    kernel_size: 3
    weight_filler {
      type: "gaussian"
      std: 0.01
    }
    bias_filler {
      type: "constant"
      value: 0
    }
    engine: CUDNN
  }
}
layer {
  name: "sum-dsn2"
  type: "Eltwise"
  bottom: "conv4-dsn2"
  bottom: "weight-dsn3-2"
  top: "sum-dsn2"
  eltwise_param {
    operation: SUM
  }
}
layer {
  name: "upsample2_2-dsn2"
  type: "Deconvolution"
  bottom: "sum-dsn2"
  top: "sum-dsn2-up"
  param {
    lr_mult: 0
    decay_mult: 1
  }
  param {
    lr_mult: 0
    decay_mult: 0
  }
  convolution_param {
    num_output: 1
    kernel_size: 4
    stride: 2
  }
}
layer {
  name: "crop2-dsn2"
  type: "Crop"
  bottom: "sum-dsn2-up"
  bottom: "data"
  top: "upscore-dsn2"
}
layer {
  name: "loss2-score"
  type: "SigmoidCrossEntropyLoss"
  bottom: "upscore-dsn2"
  bottom: "label"
  top: "loss2-score"
  loss_weight: 1
}
layer {
  name: "sigmoid-dsn1"
  type: "Sigmoid"
  bottom: "upscore-dsn2"
  top: "sigmoid-dsn1"
}
layer {
  name: "rev-dsn1"
  type: "Power"
  bottom: "sigmoid-dsn1"
  top: "rev-dsn1"
  power_param {
    power: 1
    scale: -1
    shift: 1
  }
}
layer {
  name: "tile-dsn1"
  type: "Tile"
  bottom: "rev-dsn1"
  top: "weight-dsn1"
  tile_param {
    tiles: 64
  }
}
layer {
  name: "prod1-dsn1"
  type: "Eltwise"
  bottom: "conv1_2"
  bottom: "weight-dsn1"
  top: "prod1-dsn1"
  eltwise_param {
    operation: PROD
  }
}
layer {
  name: "conv1-dsn1"
  type: "Convolution"
  bottom: "prod1-dsn1"
  top: "conv1-dsn1"
  param {
    lr_mult: 1
    decay_mult: 1
  }
  param {
    lr_mult: 2
    decay_mult: 0
  }
  convolution_param {
    num_output: 64
    kernel_size: 1
    weight_filler {
      type: "gaussian"
      std: 0.01
    }
    bias_filler {
      type: "constant"
      value: 0
    }
    engine: CUDNN
  }
}
layer {
  name: "conv2-dsn1"
  type: "Convolution"
  bottom: "conv1-dsn1"
  top: "conv2-dsn1"
  param {
    lr_mult: 1
    decay_mult: 1
  }
  param {
    lr_mult: 2
    decay_mult: 0
  }
  convolution_param {
    num_output: 64
    pad: 1
    kernel_size: 3
    weight_filler {
      type: "gaussian"
      std: 0.01
    }
    bias_filler {
      type: "constant"
      value: 0
    }
    engine: CUDNN
  }
}
layer {
  name: "relu1-dsn1"
  type: "ReLU"
  bottom: "conv2-dsn1"
  top: "conv2-dsn1"
}
layer {
  name: "conv3-dsn1"
  type: "Convolution"
  bottom: "conv2-dsn1"
  top: "conv3-dsn1"
  param {
    lr_mult: 1
    decay_mult: 1
  }
  param {
    lr_mult: 2
    decay_mult: 0
  }
  convolution_param {
    num_output: 64
    pad: 1
    kernel_size: 3
    weight_filler {
      type: "gaussian"
      std: 0.01
    }
    bias_filler {
      type: "constant"
      value: 0
    }
    engine: CUDNN
  }
}
layer {
  name: "relu2-dsn1"
  type: "ReLU"
  bottom: "conv3-dsn1"
  top: "conv3-dsn1"
}
layer {
  name: "conv4-dsn1"
  type: "Convolution"
  bottom: "conv3-dsn1"
  top: "conv4-dsn1"
  param {
    lr_mult: 1
    decay_mult: 1
  }
  param {
    lr_mult: 2
    decay_mult: 0
  }
  convolution_param {
    num_output: 1
    pad: 1
    kernel_size: 3
    weight_filler {
      type: "gaussian"
      std: 0.01
    }
    bias_filler {
      type: "constant"
      value: 0
    }
    engine: CUDNN
  }
}
layer {
  name: "sum-dsn1"
  type: "Eltwise"
  bottom: "conv4-dsn1"
  bottom: "upscore-dsn2"
  top: "sum-dsn1"
  eltwise_param {
    operation: SUM
  }
}
layer {
  name: "crop2-dsn1"
  type: "Crop"
  bottom: "sum-dsn1"
  bottom: "data"
  top: "upscore-dsn1"
}
layer {
  name: "loss1-score"
  type: "SigmoidCrossEntropyLoss"
  bottom: "upscore-dsn1"
  bottom: "label"
  top: "loss1-score"
  loss_weight: 1
}
I1118 18:09:42.008364  2303 layer_factory.hpp:77] Creating layer data
I1118 18:09:42.008389  2303 net.cpp:100] Creating Layer data
I1118 18:09:42.008396  2303 net.cpp:408] data -> data_unaugmented
I1118 18:09:42.008410  2303 net.cpp:408] data -> label_unaugmented
I1118 18:09:42.008425  2303 image_labelmap_data_layer.cpp:41] Opening file /media/compute/homes/galberding/FleckDetect/Datasets/FleckDataSet/train/image_to_label_map.txt
I1118 18:09:42.016520  2303 image_labelmap_data_layer.cpp:51] Shuffling data
I1118 18:09:42.016786  2303 image_labelmap_data_layer.cpp:56] A total of 294 images.
I1118 18:09:42.977558  2303 image_labelmap_data_layer.cpp:110] output data size: 1,3,500,500
I1118 18:09:42.977599  2303 image_labelmap_data_layer.cpp:113] output label size: 1,1,500,500
I1118 18:09:42.987772  2303 net.cpp:150] Setting up data
I1118 18:09:42.987802  2303 net.cpp:157] Top shape: 1 3 500 500 (750000)
I1118 18:09:42.987808  2303 net.cpp:157] Top shape: 1 1 500 500 (250000)
I1118 18:09:42.987812  2303 net.cpp:165] Memory required for data: 4000000
I1118 18:09:42.987823  2303 layer_factory.hpp:77] Creating layer augmentation
I1118 18:09:43.010639  2303 net.cpp:100] Creating Layer augmentation
I1118 18:09:43.010668  2303 net.cpp:434] augmentation <- data_unaugmented
I1118 18:09:43.010681  2303 net.cpp:434] augmentation <- label_unaugmented
I1118 18:09:43.010695  2303 net.cpp:408] augmentation -> data
I1118 18:09:43.010715  2303 net.cpp:408] augmentation -> label
I1118 18:09:43.013826  2303 net.cpp:150] Setting up augmentation
I1118 18:09:43.013855  2303 net.cpp:157] Top shape: 1 3 500 500 (750000)
I1118 18:09:43.013864  2303 net.cpp:157] Top shape: 1 1 500 500 (250000)
I1118 18:09:43.013871  2303 net.cpp:165] Memory required for data: 8000000
I1118 18:09:43.013878  2303 layer_factory.hpp:77] Creating layer data_augmentation_0_split
I1118 18:09:43.013897  2303 net.cpp:100] Creating Layer data_augmentation_0_split
I1118 18:09:43.013904  2303 net.cpp:434] data_augmentation_0_split <- data
I1118 18:09:43.013917  2303 net.cpp:408] data_augmentation_0_split -> data_augmentation_0_split_0
I1118 18:09:43.013936  2303 net.cpp:408] data_augmentation_0_split -> data_augmentation_0_split_1
I1118 18:09:43.013949  2303 net.cpp:408] data_augmentation_0_split -> data_augmentation_0_split_2
I1118 18:09:43.013962  2303 net.cpp:408] data_augmentation_0_split -> data_augmentation_0_split_3
I1118 18:09:43.013974  2303 net.cpp:408] data_augmentation_0_split -> data_augmentation_0_split_4
I1118 18:09:43.013994  2303 net.cpp:408] data_augmentation_0_split -> data_augmentation_0_split_5
I1118 18:09:43.014006  2303 net.cpp:408] data_augmentation_0_split -> data_augmentation_0_split_6
I1118 18:09:43.014160  2303 net.cpp:150] Setting up data_augmentation_0_split
I1118 18:09:43.014176  2303 net.cpp:157] Top shape: 1 3 500 500 (750000)
I1118 18:09:43.014184  2303 net.cpp:157] Top shape: 1 3 500 500 (750000)
I1118 18:09:43.014191  2303 net.cpp:157] Top shape: 1 3 500 500 (750000)
I1118 18:09:43.014199  2303 net.cpp:157] Top shape: 1 3 500 500 (750000)
I1118 18:09:43.014207  2303 net.cpp:157] Top shape: 1 3 500 500 (750000)
I1118 18:09:43.014214  2303 net.cpp:157] Top shape: 1 3 500 500 (750000)
I1118 18:09:43.014222  2303 net.cpp:157] Top shape: 1 3 500 500 (750000)
I1118 18:09:43.014227  2303 net.cpp:165] Memory required for data: 29000000
I1118 18:09:43.014235  2303 layer_factory.hpp:77] Creating layer label_augmentation_1_split
I1118 18:09:43.014245  2303 net.cpp:100] Creating Layer label_augmentation_1_split
I1118 18:09:43.014251  2303 net.cpp:434] label_augmentation_1_split <- label
I1118 18:09:43.014262  2303 net.cpp:408] label_augmentation_1_split -> label_augmentation_1_split_0
I1118 18:09:43.014276  2303 net.cpp:408] label_augmentation_1_split -> label_augmentation_1_split_1
I1118 18:09:43.014288  2303 net.cpp:408] label_augmentation_1_split -> label_augmentation_1_split_2
I1118 18:09:43.014313  2303 net.cpp:408] label_augmentation_1_split -> label_augmentation_1_split_3
I1118 18:09:43.014333  2303 net.cpp:408] label_augmentation_1_split -> label_augmentation_1_split_4
I1118 18:09:43.014355  2303 net.cpp:408] label_augmentation_1_split -> label_augmentation_1_split_5
I1118 18:09:43.014533  2303 net.cpp:150] Setting up label_augmentation_1_split
I1118 18:09:43.014545  2303 net.cpp:157] Top shape: 1 1 500 500 (250000)
I1118 18:09:43.014554  2303 net.cpp:157] Top shape: 1 1 500 500 (250000)
I1118 18:09:43.014561  2303 net.cpp:157] Top shape: 1 1 500 500 (250000)
I1118 18:09:43.014569  2303 net.cpp:157] Top shape: 1 1 500 500 (250000)
I1118 18:09:43.014576  2303 net.cpp:157] Top shape: 1 1 500 500 (250000)
I1118 18:09:43.014585  2303 net.cpp:157] Top shape: 1 1 500 500 (250000)
I1118 18:09:43.014590  2303 net.cpp:165] Memory required for data: 35000000
I1118 18:09:43.014596  2303 layer_factory.hpp:77] Creating layer conv1_1
I1118 18:09:43.014618  2303 net.cpp:100] Creating Layer conv1_1
I1118 18:09:43.014626  2303 net.cpp:434] conv1_1 <- data_augmentation_0_split_0
I1118 18:09:43.014639  2303 net.cpp:408] conv1_1 -> conv1_1
I1118 18:09:43.545930  2303 net.cpp:150] Setting up conv1_1
I1118 18:09:43.545966  2303 net.cpp:157] Top shape: 1 64 500 500 (16000000)
I1118 18:09:43.545969  2303 net.cpp:165] Memory required for data: 99000000
I1118 18:09:43.545989  2303 layer_factory.hpp:77] Creating layer relu1_1
I1118 18:09:43.546000  2303 net.cpp:100] Creating Layer relu1_1
I1118 18:09:43.546003  2303 net.cpp:434] relu1_1 <- conv1_1
I1118 18:09:43.546010  2303 net.cpp:395] relu1_1 -> conv1_1 (in-place)
I1118 18:09:43.546075  2303 net.cpp:150] Setting up relu1_1
I1118 18:09:43.546082  2303 net.cpp:157] Top shape: 1 64 500 500 (16000000)
I1118 18:09:43.546083  2303 net.cpp:165] Memory required for data: 163000000
I1118 18:09:43.546085  2303 layer_factory.hpp:77] Creating layer conv1_2
I1118 18:09:43.546095  2303 net.cpp:100] Creating Layer conv1_2
I1118 18:09:43.546097  2303 net.cpp:434] conv1_2 <- conv1_1
I1118 18:09:43.546103  2303 net.cpp:408] conv1_2 -> conv1_2
I1118 18:09:43.547638  2303 net.cpp:150] Setting up conv1_2
I1118 18:09:43.547649  2303 net.cpp:157] Top shape: 1 64 500 500 (16000000)
I1118 18:09:43.547652  2303 net.cpp:165] Memory required for data: 227000000
I1118 18:09:43.547659  2303 layer_factory.hpp:77] Creating layer relu1_2
I1118 18:09:43.547664  2303 net.cpp:100] Creating Layer relu1_2
I1118 18:09:43.547667  2303 net.cpp:434] relu1_2 <- conv1_2
I1118 18:09:43.547672  2303 net.cpp:395] relu1_2 -> conv1_2 (in-place)
I1118 18:09:43.547729  2303 net.cpp:150] Setting up relu1_2
I1118 18:09:43.547739  2303 net.cpp:157] Top shape: 1 64 500 500 (16000000)
I1118 18:09:43.547741  2303 net.cpp:165] Memory required for data: 291000000
I1118 18:09:43.547744  2303 layer_factory.hpp:77] Creating layer conv1_2_relu1_2_0_split
I1118 18:09:43.547766  2303 net.cpp:100] Creating Layer conv1_2_relu1_2_0_split
I1118 18:09:43.547770  2303 net.cpp:434] conv1_2_relu1_2_0_split <- conv1_2
I1118 18:09:43.547775  2303 net.cpp:408] conv1_2_relu1_2_0_split -> conv1_2_relu1_2_0_split_0
I1118 18:09:43.547780  2303 net.cpp:408] conv1_2_relu1_2_0_split -> conv1_2_relu1_2_0_split_1
I1118 18:09:43.547808  2303 net.cpp:150] Setting up conv1_2_relu1_2_0_split
I1118 18:09:43.547828  2303 net.cpp:157] Top shape: 1 64 500 500 (16000000)
I1118 18:09:43.547832  2303 net.cpp:157] Top shape: 1 64 500 500 (16000000)
I1118 18:09:43.547833  2303 net.cpp:165] Memory required for data: 419000000
I1118 18:09:43.547837  2303 layer_factory.hpp:77] Creating layer pool1
I1118 18:09:43.547842  2303 net.cpp:100] Creating Layer pool1
I1118 18:09:43.547844  2303 net.cpp:434] pool1 <- conv1_2_relu1_2_0_split_0
I1118 18:09:43.547849  2303 net.cpp:408] pool1 -> pool1
I1118 18:09:43.547876  2303 net.cpp:150] Setting up pool1
I1118 18:09:43.547879  2303 net.cpp:157] Top shape: 1 64 250 250 (4000000)
I1118 18:09:43.547881  2303 net.cpp:165] Memory required for data: 435000000
I1118 18:09:43.547899  2303 layer_factory.hpp:77] Creating layer conv2_1
I1118 18:09:43.547906  2303 net.cpp:100] Creating Layer conv2_1
I1118 18:09:43.547909  2303 net.cpp:434] conv2_1 <- pool1
I1118 18:09:43.547914  2303 net.cpp:408] conv2_1 -> conv2_1
I1118 18:09:43.548557  2303 net.cpp:150] Setting up conv2_1
I1118 18:09:43.548568  2303 net.cpp:157] Top shape: 1 128 250 250 (8000000)
I1118 18:09:43.548569  2303 net.cpp:165] Memory required for data: 467000000
I1118 18:09:43.548576  2303 layer_factory.hpp:77] Creating layer relu2_1
I1118 18:09:43.548581  2303 net.cpp:100] Creating Layer relu2_1
I1118 18:09:43.548583  2303 net.cpp:434] relu2_1 <- conv2_1
I1118 18:09:43.548588  2303 net.cpp:395] relu2_1 -> conv2_1 (in-place)
I1118 18:09:43.548748  2303 net.cpp:150] Setting up relu2_1
I1118 18:09:43.548756  2303 net.cpp:157] Top shape: 1 128 250 250 (8000000)
I1118 18:09:43.548758  2303 net.cpp:165] Memory required for data: 499000000
I1118 18:09:43.548761  2303 layer_factory.hpp:77] Creating layer conv2_2
I1118 18:09:43.548768  2303 net.cpp:100] Creating Layer conv2_2
I1118 18:09:43.548770  2303 net.cpp:434] conv2_2 <- conv2_1
I1118 18:09:43.548775  2303 net.cpp:408] conv2_2 -> conv2_2
I1118 18:09:43.550396  2303 net.cpp:150] Setting up conv2_2
I1118 18:09:43.550407  2303 net.cpp:157] Top shape: 1 128 250 250 (8000000)
I1118 18:09:43.550410  2303 net.cpp:165] Memory required for data: 531000000
I1118 18:09:43.550415  2303 layer_factory.hpp:77] Creating layer relu2_2
I1118 18:09:43.550420  2303 net.cpp:100] Creating Layer relu2_2
I1118 18:09:43.550422  2303 net.cpp:434] relu2_2 <- conv2_2
I1118 18:09:43.550426  2303 net.cpp:395] relu2_2 -> conv2_2 (in-place)
I1118 18:09:43.550583  2303 net.cpp:150] Setting up relu2_2
I1118 18:09:43.550592  2303 net.cpp:157] Top shape: 1 128 250 250 (8000000)
I1118 18:09:43.550595  2303 net.cpp:165] Memory required for data: 563000000
I1118 18:09:43.550598  2303 layer_factory.hpp:77] Creating layer conv2_2_relu2_2_0_split
I1118 18:09:43.550603  2303 net.cpp:100] Creating Layer conv2_2_relu2_2_0_split
I1118 18:09:43.550606  2303 net.cpp:434] conv2_2_relu2_2_0_split <- conv2_2
I1118 18:09:43.550611  2303 net.cpp:408] conv2_2_relu2_2_0_split -> conv2_2_relu2_2_0_split_0
I1118 18:09:43.550616  2303 net.cpp:408] conv2_2_relu2_2_0_split -> conv2_2_relu2_2_0_split_1
I1118 18:09:43.550621  2303 net.cpp:408] conv2_2_relu2_2_0_split -> conv2_2_relu2_2_0_split_2
I1118 18:09:43.550658  2303 net.cpp:150] Setting up conv2_2_relu2_2_0_split
I1118 18:09:43.550664  2303 net.cpp:157] Top shape: 1 128 250 250 (8000000)
I1118 18:09:43.550668  2303 net.cpp:157] Top shape: 1 128 250 250 (8000000)
I1118 18:09:43.550670  2303 net.cpp:157] Top shape: 1 128 250 250 (8000000)
I1118 18:09:43.550673  2303 net.cpp:165] Memory required for data: 659000000
I1118 18:09:43.550675  2303 layer_factory.hpp:77] Creating layer pool2
I1118 18:09:43.550680  2303 net.cpp:100] Creating Layer pool2
I1118 18:09:43.550683  2303 net.cpp:434] pool2 <- conv2_2_relu2_2_0_split_0
I1118 18:09:43.550686  2303 net.cpp:408] pool2 -> pool2
I1118 18:09:43.550710  2303 net.cpp:150] Setting up pool2
I1118 18:09:43.550714  2303 net.cpp:157] Top shape: 1 128 125 125 (2000000)
I1118 18:09:43.550717  2303 net.cpp:165] Memory required for data: 667000000
I1118 18:09:43.550719  2303 layer_factory.hpp:77] Creating layer conv3_1
I1118 18:09:43.550727  2303 net.cpp:100] Creating Layer conv3_1
I1118 18:09:43.550730  2303 net.cpp:434] conv3_1 <- pool2
I1118 18:09:43.550734  2303 net.cpp:408] conv3_1 -> conv3_1
I1118 18:09:43.552211  2303 net.cpp:150] Setting up conv3_1
I1118 18:09:43.552222  2303 net.cpp:157] Top shape: 1 256 125 125 (4000000)
I1118 18:09:43.552223  2303 net.cpp:165] Memory required for data: 683000000
I1118 18:09:43.552247  2303 layer_factory.hpp:77] Creating layer relu3_1
I1118 18:09:43.552251  2303 net.cpp:100] Creating Layer relu3_1
I1118 18:09:43.552254  2303 net.cpp:434] relu3_1 <- conv3_1
I1118 18:09:43.552259  2303 net.cpp:395] relu3_1 -> conv3_1 (in-place)
I1118 18:09:43.552459  2303 net.cpp:150] Setting up relu3_1
I1118 18:09:43.552471  2303 net.cpp:157] Top shape: 1 256 125 125 (4000000)
I1118 18:09:43.552474  2303 net.cpp:165] Memory required for data: 699000000
I1118 18:09:43.552477  2303 layer_factory.hpp:77] Creating layer conv3_2
I1118 18:09:43.552484  2303 net.cpp:100] Creating Layer conv3_2
I1118 18:09:43.552487  2303 net.cpp:434] conv3_2 <- conv3_1
I1118 18:09:43.552492  2303 net.cpp:408] conv3_2 -> conv3_2
I1118 18:09:43.554255  2303 net.cpp:150] Setting up conv3_2
I1118 18:09:43.554265  2303 net.cpp:157] Top shape: 1 256 125 125 (4000000)
I1118 18:09:43.554267  2303 net.cpp:165] Memory required for data: 715000000
I1118 18:09:43.554273  2303 layer_factory.hpp:77] Creating layer relu3_2
I1118 18:09:43.554278  2303 net.cpp:100] Creating Layer relu3_2
I1118 18:09:43.554280  2303 net.cpp:434] relu3_2 <- conv3_2
I1118 18:09:43.554284  2303 net.cpp:395] relu3_2 -> conv3_2 (in-place)
I1118 18:09:43.554345  2303 net.cpp:150] Setting up relu3_2
I1118 18:09:43.554352  2303 net.cpp:157] Top shape: 1 256 125 125 (4000000)
I1118 18:09:43.554354  2303 net.cpp:165] Memory required for data: 731000000
I1118 18:09:43.554358  2303 layer_factory.hpp:77] Creating layer conv3_3
I1118 18:09:43.554364  2303 net.cpp:100] Creating Layer conv3_3
I1118 18:09:43.554381  2303 net.cpp:434] conv3_3 <- conv3_2
I1118 18:09:43.554386  2303 net.cpp:408] conv3_3 -> conv3_3
I1118 18:09:43.556244  2303 net.cpp:150] Setting up conv3_3
I1118 18:09:43.556255  2303 net.cpp:157] Top shape: 1 256 125 125 (4000000)
I1118 18:09:43.556257  2303 net.cpp:165] Memory required for data: 747000000
I1118 18:09:43.556263  2303 layer_factory.hpp:77] Creating layer relu3_3
I1118 18:09:43.556268  2303 net.cpp:100] Creating Layer relu3_3
I1118 18:09:43.556272  2303 net.cpp:434] relu3_3 <- conv3_3
I1118 18:09:43.556275  2303 net.cpp:395] relu3_3 -> conv3_3 (in-place)
I1118 18:09:43.556349  2303 net.cpp:150] Setting up relu3_3
I1118 18:09:43.556373  2303 net.cpp:157] Top shape: 1 256 125 125 (4000000)
I1118 18:09:43.556375  2303 net.cpp:165] Memory required for data: 763000000
I1118 18:09:43.556378  2303 layer_factory.hpp:77] Creating layer conv3_3_relu3_3_0_split
I1118 18:09:43.556385  2303 net.cpp:100] Creating Layer conv3_3_relu3_3_0_split
I1118 18:09:43.556386  2303 net.cpp:434] conv3_3_relu3_3_0_split <- conv3_3
I1118 18:09:43.556391  2303 net.cpp:408] conv3_3_relu3_3_0_split -> conv3_3_relu3_3_0_split_0
I1118 18:09:43.556397  2303 net.cpp:408] conv3_3_relu3_3_0_split -> conv3_3_relu3_3_0_split_1
I1118 18:09:43.556407  2303 net.cpp:408] conv3_3_relu3_3_0_split -> conv3_3_relu3_3_0_split_2
I1118 18:09:43.556444  2303 net.cpp:150] Setting up conv3_3_relu3_3_0_split
I1118 18:09:43.556465  2303 net.cpp:157] Top shape: 1 256 125 125 (4000000)
I1118 18:09:43.556468  2303 net.cpp:157] Top shape: 1 256 125 125 (4000000)
I1118 18:09:43.556471  2303 net.cpp:157] Top shape: 1 256 125 125 (4000000)
I1118 18:09:43.556474  2303 net.cpp:165] Memory required for data: 811000000
I1118 18:09:43.556476  2303 layer_factory.hpp:77] Creating layer pool3
I1118 18:09:43.556483  2303 net.cpp:100] Creating Layer pool3
I1118 18:09:43.556484  2303 net.cpp:434] pool3 <- conv3_3_relu3_3_0_split_0
I1118 18:09:43.556488  2303 net.cpp:408] pool3 -> pool3
I1118 18:09:43.556514  2303 net.cpp:150] Setting up pool3
I1118 18:09:43.556517  2303 net.cpp:157] Top shape: 1 256 63 63 (1016064)
I1118 18:09:43.556519  2303 net.cpp:165] Memory required for data: 815064256
I1118 18:09:43.556537  2303 layer_factory.hpp:77] Creating layer conv4_1
I1118 18:09:43.556545  2303 net.cpp:100] Creating Layer conv4_1
I1118 18:09:43.556547  2303 net.cpp:434] conv4_1 <- pool3
I1118 18:09:43.556551  2303 net.cpp:408] conv4_1 -> conv4_1
I1118 18:09:43.560439  2303 net.cpp:150] Setting up conv4_1
I1118 18:09:43.560451  2303 net.cpp:157] Top shape: 1 512 63 63 (2032128)
I1118 18:09:43.560453  2303 net.cpp:165] Memory required for data: 823192768
I1118 18:09:43.560459  2303 layer_factory.hpp:77] Creating layer relu4_1
I1118 18:09:43.560464  2303 net.cpp:100] Creating Layer relu4_1
I1118 18:09:43.560467  2303 net.cpp:434] relu4_1 <- conv4_1
I1118 18:09:43.560472  2303 net.cpp:395] relu4_1 -> conv4_1 (in-place)
I1118 18:09:43.560531  2303 net.cpp:150] Setting up relu4_1
I1118 18:09:43.560539  2303 net.cpp:157] Top shape: 1 512 63 63 (2032128)
I1118 18:09:43.560556  2303 net.cpp:165] Memory required for data: 831321280
I1118 18:09:43.560559  2303 layer_factory.hpp:77] Creating layer conv4_2
I1118 18:09:43.560566  2303 net.cpp:100] Creating Layer conv4_2
I1118 18:09:43.560570  2303 net.cpp:434] conv4_2 <- conv4_1
I1118 18:09:43.560575  2303 net.cpp:408] conv4_2 -> conv4_2
I1118 18:09:43.565621  2303 net.cpp:150] Setting up conv4_2
I1118 18:09:43.565634  2303 net.cpp:157] Top shape: 1 512 63 63 (2032128)
I1118 18:09:43.565636  2303 net.cpp:165] Memory required for data: 839449792
I1118 18:09:43.565645  2303 layer_factory.hpp:77] Creating layer relu4_2
I1118 18:09:43.565651  2303 net.cpp:100] Creating Layer relu4_2
I1118 18:09:43.565654  2303 net.cpp:434] relu4_2 <- conv4_2
I1118 18:09:43.565659  2303 net.cpp:395] relu4_2 -> conv4_2 (in-place)
I1118 18:09:43.565836  2303 net.cpp:150] Setting up relu4_2
I1118 18:09:43.565845  2303 net.cpp:157] Top shape: 1 512 63 63 (2032128)
I1118 18:09:43.565848  2303 net.cpp:165] Memory required for data: 847578304
I1118 18:09:43.565850  2303 layer_factory.hpp:77] Creating layer conv4_3
I1118 18:09:43.565858  2303 net.cpp:100] Creating Layer conv4_3
I1118 18:09:43.565862  2303 net.cpp:434] conv4_3 <- conv4_2
I1118 18:09:43.565868  2303 net.cpp:408] conv4_3 -> conv4_3
I1118 18:09:43.570782  2303 net.cpp:150] Setting up conv4_3
I1118 18:09:43.570794  2303 net.cpp:157] Top shape: 1 512 63 63 (2032128)
I1118 18:09:43.570796  2303 net.cpp:165] Memory required for data: 855706816
I1118 18:09:43.570801  2303 layer_factory.hpp:77] Creating layer relu4_3
I1118 18:09:43.570807  2303 net.cpp:100] Creating Layer relu4_3
I1118 18:09:43.570811  2303 net.cpp:434] relu4_3 <- conv4_3
I1118 18:09:43.570814  2303 net.cpp:395] relu4_3 -> conv4_3 (in-place)
I1118 18:09:43.570969  2303 net.cpp:150] Setting up relu4_3
I1118 18:09:43.570979  2303 net.cpp:157] Top shape: 1 512 63 63 (2032128)
I1118 18:09:43.570981  2303 net.cpp:165] Memory required for data: 863835328
I1118 18:09:43.570999  2303 layer_factory.hpp:77] Creating layer conv4_3_relu4_3_0_split
I1118 18:09:43.571005  2303 net.cpp:100] Creating Layer conv4_3_relu4_3_0_split
I1118 18:09:43.571008  2303 net.cpp:434] conv4_3_relu4_3_0_split <- conv4_3
I1118 18:09:43.571014  2303 net.cpp:408] conv4_3_relu4_3_0_split -> conv4_3_relu4_3_0_split_0
I1118 18:09:43.571020  2303 net.cpp:408] conv4_3_relu4_3_0_split -> conv4_3_relu4_3_0_split_1
I1118 18:09:43.571027  2303 net.cpp:408] conv4_3_relu4_3_0_split -> conv4_3_relu4_3_0_split_2
I1118 18:09:43.571082  2303 net.cpp:150] Setting up conv4_3_relu4_3_0_split
I1118 18:09:43.571089  2303 net.cpp:157] Top shape: 1 512 63 63 (2032128)
I1118 18:09:43.571091  2303 net.cpp:157] Top shape: 1 512 63 63 (2032128)
I1118 18:09:43.571094  2303 net.cpp:157] Top shape: 1 512 63 63 (2032128)
I1118 18:09:43.571096  2303 net.cpp:165] Memory required for data: 888220864
I1118 18:09:43.571099  2303 layer_factory.hpp:77] Creating layer pool4
I1118 18:09:43.571105  2303 net.cpp:100] Creating Layer pool4
I1118 18:09:43.571108  2303 net.cpp:434] pool4 <- conv4_3_relu4_3_0_split_0
I1118 18:09:43.571112  2303 net.cpp:408] pool4 -> pool4
I1118 18:09:43.571141  2303 net.cpp:150] Setting up pool4
I1118 18:09:43.571146  2303 net.cpp:157] Top shape: 1 512 32 32 (524288)
I1118 18:09:43.571147  2303 net.cpp:165] Memory required for data: 890318016
I1118 18:09:43.571151  2303 layer_factory.hpp:77] Creating layer conv5_1
I1118 18:09:43.571162  2303 net.cpp:100] Creating Layer conv5_1
I1118 18:09:43.571166  2303 net.cpp:434] conv5_1 <- pool4
I1118 18:09:43.571169  2303 net.cpp:408] conv5_1 -> conv5_1
I1118 18:09:43.577236  2303 net.cpp:150] Setting up conv5_1
I1118 18:09:43.577267  2303 net.cpp:157] Top shape: 1 512 32 32 (524288)
I1118 18:09:43.577270  2303 net.cpp:165] Memory required for data: 892415168
I1118 18:09:43.577276  2303 layer_factory.hpp:77] Creating layer relu5_1
I1118 18:09:43.577281  2303 net.cpp:100] Creating Layer relu5_1
I1118 18:09:43.577286  2303 net.cpp:434] relu5_1 <- conv5_1
I1118 18:09:43.577291  2303 net.cpp:395] relu5_1 -> conv5_1 (in-place)
I1118 18:09:43.577394  2303 net.cpp:150] Setting up relu5_1
I1118 18:09:43.577405  2303 net.cpp:157] Top shape: 1 512 32 32 (524288)
I1118 18:09:43.577409  2303 net.cpp:165] Memory required for data: 894512320
I1118 18:09:43.577412  2303 layer_factory.hpp:77] Creating layer conv5_2
I1118 18:09:43.577421  2303 net.cpp:100] Creating Layer conv5_2
I1118 18:09:43.577425  2303 net.cpp:434] conv5_2 <- conv5_1
I1118 18:09:43.577430  2303 net.cpp:408] conv5_2 -> conv5_2
I1118 18:09:43.582437  2303 net.cpp:150] Setting up conv5_2
I1118 18:09:43.582449  2303 net.cpp:157] Top shape: 1 512 32 32 (524288)
I1118 18:09:43.582468  2303 net.cpp:165] Memory required for data: 896609472
I1118 18:09:43.582473  2303 layer_factory.hpp:77] Creating layer relu5_2
I1118 18:09:43.582479  2303 net.cpp:100] Creating Layer relu5_2
I1118 18:09:43.582481  2303 net.cpp:434] relu5_2 <- conv5_2
I1118 18:09:43.582486  2303 net.cpp:395] relu5_2 -> conv5_2 (in-place)
I1118 18:09:43.582548  2303 net.cpp:150] Setting up relu5_2
I1118 18:09:43.582571  2303 net.cpp:157] Top shape: 1 512 32 32 (524288)
I1118 18:09:43.582573  2303 net.cpp:165] Memory required for data: 898706624
I1118 18:09:43.582576  2303 layer_factory.hpp:77] Creating layer conv5_3
I1118 18:09:43.582583  2303 net.cpp:100] Creating Layer conv5_3
I1118 18:09:43.582587  2303 net.cpp:434] conv5_3 <- conv5_2
I1118 18:09:43.582592  2303 net.cpp:408] conv5_3 -> conv5_3
I1118 18:09:43.587558  2303 net.cpp:150] Setting up conv5_3
I1118 18:09:43.587569  2303 net.cpp:157] Top shape: 1 512 32 32 (524288)
I1118 18:09:43.587587  2303 net.cpp:165] Memory required for data: 900803776
I1118 18:09:43.587592  2303 layer_factory.hpp:77] Creating layer relu5_3
I1118 18:09:43.587597  2303 net.cpp:100] Creating Layer relu5_3
I1118 18:09:43.587600  2303 net.cpp:434] relu5_3 <- conv5_3
I1118 18:09:43.587605  2303 net.cpp:395] relu5_3 -> conv5_3 (in-place)
I1118 18:09:43.587666  2303 net.cpp:150] Setting up relu5_3
I1118 18:09:43.587689  2303 net.cpp:157] Top shape: 1 512 32 32 (524288)
I1118 18:09:43.587692  2303 net.cpp:165] Memory required for data: 902900928
I1118 18:09:43.587694  2303 layer_factory.hpp:77] Creating layer conv5_3_relu5_3_0_split
I1118 18:09:43.587700  2303 net.cpp:100] Creating Layer conv5_3_relu5_3_0_split
I1118 18:09:43.587703  2303 net.cpp:434] conv5_3_relu5_3_0_split <- conv5_3
I1118 18:09:43.587709  2303 net.cpp:408] conv5_3_relu5_3_0_split -> conv5_3_relu5_3_0_split_0
I1118 18:09:43.587715  2303 net.cpp:408] conv5_3_relu5_3_0_split -> conv5_3_relu5_3_0_split_1
I1118 18:09:43.587720  2303 net.cpp:408] conv5_3_relu5_3_0_split -> conv5_3_relu5_3_0_split_2
I1118 18:09:43.587757  2303 net.cpp:150] Setting up conv5_3_relu5_3_0_split
I1118 18:09:43.587762  2303 net.cpp:157] Top shape: 1 512 32 32 (524288)
I1118 18:09:43.587766  2303 net.cpp:157] Top shape: 1 512 32 32 (524288)
I1118 18:09:43.587769  2303 net.cpp:157] Top shape: 1 512 32 32 (524288)
I1118 18:09:43.587770  2303 net.cpp:165] Memory required for data: 909192384
I1118 18:09:43.587774  2303 layer_factory.hpp:77] Creating layer pool5
I1118 18:09:43.587780  2303 net.cpp:100] Creating Layer pool5
I1118 18:09:43.587782  2303 net.cpp:434] pool5 <- conv5_3_relu5_3_0_split_0
I1118 18:09:43.587803  2303 net.cpp:408] pool5 -> pool5
I1118 18:09:43.587831  2303 net.cpp:150] Setting up pool5
I1118 18:09:43.587836  2303 net.cpp:157] Top shape: 1 512 17 17 (147968)
I1118 18:09:43.587838  2303 net.cpp:165] Memory required for data: 909784256
I1118 18:09:43.587841  2303 layer_factory.hpp:77] Creating layer conv1-dsn6
I1118 18:09:43.587849  2303 net.cpp:100] Creating Layer conv1-dsn6
I1118 18:09:43.587852  2303 net.cpp:434] conv1-dsn6 <- pool5
I1118 18:09:43.587864  2303 net.cpp:408] conv1-dsn6 -> conv1-dsn6
I1118 18:09:43.589540  2303 net.cpp:150] Setting up conv1-dsn6
I1118 18:09:43.589551  2303 net.cpp:157] Top shape: 1 256 17 17 (73984)
I1118 18:09:43.589570  2303 net.cpp:165] Memory required for data: 910080192
I1118 18:09:43.589574  2303 layer_factory.hpp:77] Creating layer conv2-dsn6
I1118 18:09:43.589586  2303 net.cpp:100] Creating Layer conv2-dsn6
I1118 18:09:43.589588  2303 net.cpp:434] conv2-dsn6 <- conv1-dsn6
I1118 18:09:43.589596  2303 net.cpp:408] conv2-dsn6 -> conv2-dsn6
I1118 18:09:43.606937  2303 net.cpp:150] Setting up conv2-dsn6
I1118 18:09:43.606950  2303 net.cpp:157] Top shape: 1 256 17 17 (73984)
I1118 18:09:43.606967  2303 net.cpp:165] Memory required for data: 910376128
I1118 18:09:43.606973  2303 layer_factory.hpp:77] Creating layer relu1-dsn6
I1118 18:09:43.606978  2303 net.cpp:100] Creating Layer relu1-dsn6
I1118 18:09:43.606981  2303 net.cpp:434] relu1-dsn6 <- conv2-dsn6
I1118 18:09:43.606987  2303 net.cpp:395] relu1-dsn6 -> conv2-dsn6 (in-place)
I1118 18:09:43.607072  2303 net.cpp:150] Setting up relu1-dsn6
I1118 18:09:43.607080  2303 net.cpp:157] Top shape: 1 256 17 17 (73984)
I1118 18:09:43.607082  2303 net.cpp:165] Memory required for data: 910672064
I1118 18:09:43.607085  2303 layer_factory.hpp:77] Creating layer conv3-dsn6
I1118 18:09:43.607095  2303 net.cpp:100] Creating Layer conv3-dsn6
I1118 18:09:43.607097  2303 net.cpp:434] conv3-dsn6 <- conv2-dsn6
I1118 18:09:43.607102  2303 net.cpp:408] conv3-dsn6 -> conv3-dsn6
I1118 18:09:43.623261  2303 net.cpp:150] Setting up conv3-dsn6
I1118 18:09:43.623272  2303 net.cpp:157] Top shape: 1 256 17 17 (73984)
I1118 18:09:43.623291  2303 net.cpp:165] Memory required for data: 910968000
I1118 18:09:43.623296  2303 layer_factory.hpp:77] Creating layer relu2-dsn6
I1118 18:09:43.623306  2303 net.cpp:100] Creating Layer relu2-dsn6
I1118 18:09:43.623308  2303 net.cpp:434] relu2-dsn6 <- conv3-dsn6
I1118 18:09:43.623312  2303 net.cpp:395] relu2-dsn6 -> conv3-dsn6 (in-place)
I1118 18:09:43.623399  2303 net.cpp:150] Setting up relu2-dsn6
I1118 18:09:43.623406  2303 net.cpp:157] Top shape: 1 256 17 17 (73984)
I1118 18:09:43.623409  2303 net.cpp:165] Memory required for data: 911263936
I1118 18:09:43.623411  2303 layer_factory.hpp:77] Creating layer conv4-dsn6
I1118 18:09:43.623420  2303 net.cpp:100] Creating Layer conv4-dsn6
I1118 18:09:43.623423  2303 net.cpp:434] conv4-dsn6 <- conv3-dsn6
I1118 18:09:43.623428  2303 net.cpp:408] conv4-dsn6 -> conv4-dsn6
I1118 18:09:43.638723  2303 net.cpp:150] Setting up conv4-dsn6
I1118 18:09:43.638734  2303 net.cpp:157] Top shape: 1 256 17 17 (73984)
I1118 18:09:43.638737  2303 net.cpp:165] Memory required for data: 911559872
I1118 18:09:43.638752  2303 layer_factory.hpp:77] Creating layer relu3-dsn6
I1118 18:09:43.638757  2303 net.cpp:100] Creating Layer relu3-dsn6
I1118 18:09:43.638759  2303 net.cpp:434] relu3-dsn6 <- conv4-dsn6
I1118 18:09:43.638764  2303 net.cpp:395] relu3-dsn6 -> conv4-dsn6 (in-place)
I1118 18:09:43.638921  2303 net.cpp:150] Setting up relu3-dsn6
I1118 18:09:43.638929  2303 net.cpp:157] Top shape: 1 256 17 17 (73984)
I1118 18:09:43.638931  2303 net.cpp:165] Memory required for data: 911855808
I1118 18:09:43.638950  2303 layer_factory.hpp:77] Creating layer conv5-dsn6
I1118 18:09:43.638960  2303 net.cpp:100] Creating Layer conv5-dsn6
I1118 18:09:43.638963  2303 net.cpp:434] conv5-dsn6 <- conv4-dsn6
I1118 18:09:43.638970  2303 net.cpp:408] conv5-dsn6 -> conv5-dsn6
I1118 18:09:43.639480  2303 net.cpp:150] Setting up conv5-dsn6
I1118 18:09:43.639489  2303 net.cpp:157] Top shape: 1 1 17 17 (289)
I1118 18:09:43.639508  2303 net.cpp:165] Memory required for data: 911856964
I1118 18:09:43.639513  2303 layer_factory.hpp:77] Creating layer conv5-dsn6_conv5-dsn6_0_split
I1118 18:09:43.639534  2303 net.cpp:100] Creating Layer conv5-dsn6_conv5-dsn6_0_split
I1118 18:09:43.639537  2303 net.cpp:434] conv5-dsn6_conv5-dsn6_0_split <- conv5-dsn6
I1118 18:09:43.639544  2303 net.cpp:408] conv5-dsn6_conv5-dsn6_0_split -> conv5-dsn6_conv5-dsn6_0_split_0
I1118 18:09:43.639551  2303 net.cpp:408] conv5-dsn6_conv5-dsn6_0_split -> conv5-dsn6_conv5-dsn6_0_split_1
I1118 18:09:43.639580  2303 net.cpp:150] Setting up conv5-dsn6_conv5-dsn6_0_split
I1118 18:09:43.639585  2303 net.cpp:157] Top shape: 1 1 17 17 (289)
I1118 18:09:43.639587  2303 net.cpp:157] Top shape: 1 1 17 17 (289)
I1118 18:09:43.639590  2303 net.cpp:165] Memory required for data: 911859276
I1118 18:09:43.639592  2303 layer_factory.hpp:77] Creating layer upsample32_dsn6
I1118 18:09:43.639597  2303 net.cpp:100] Creating Layer upsample32_dsn6
I1118 18:09:43.639600  2303 net.cpp:434] upsample32_dsn6 <- conv5-dsn6_conv5-dsn6_0_split_0
I1118 18:09:43.639623  2303 net.cpp:408] upsample32_dsn6 -> conv5-dsn6-up
I1118 18:09:43.640808  2303 net.cpp:150] Setting up upsample32_dsn6
I1118 18:09:43.640818  2303 net.cpp:157] Top shape: 1 1 576 576 (331776)
I1118 18:09:43.640820  2303 net.cpp:165] Memory required for data: 913186380
I1118 18:09:43.640825  2303 layer_factory.hpp:77] Creating layer crop-dsn6
I1118 18:09:43.640830  2303 net.cpp:100] Creating Layer crop-dsn6
I1118 18:09:43.640832  2303 net.cpp:434] crop-dsn6 <- conv5-dsn6-up
I1118 18:09:43.640836  2303 net.cpp:434] crop-dsn6 <- data_augmentation_0_split_1
I1118 18:09:43.640841  2303 net.cpp:408] crop-dsn6 -> upscore-dsn6
I1118 18:09:43.640867  2303 net.cpp:150] Setting up crop-dsn6
I1118 18:09:43.640872  2303 net.cpp:157] Top shape: 1 1 500 500 (250000)
I1118 18:09:43.640873  2303 net.cpp:165] Memory required for data: 914186380
I1118 18:09:43.640875  2303 layer_factory.hpp:77] Creating layer loss6-score
I1118 18:09:43.640883  2303 net.cpp:100] Creating Layer loss6-score
I1118 18:09:43.640885  2303 net.cpp:434] loss6-score <- upscore-dsn6
I1118 18:09:43.640888  2303 net.cpp:434] loss6-score <- label_augmentation_1_split_0
I1118 18:09:43.640894  2303 net.cpp:408] loss6-score -> loss6-score
I1118 18:09:43.641940  2303 net.cpp:150] Setting up loss6-score
I1118 18:09:43.641949  2303 net.cpp:157] Top shape: (1)
I1118 18:09:43.641952  2303 net.cpp:160]     with loss weight 1
I1118 18:09:43.641965  2303 net.cpp:165] Memory required for data: 914186384
I1118 18:09:43.641968  2303 layer_factory.hpp:77] Creating layer upsample2_dsn5
I1118 18:09:43.641976  2303 net.cpp:100] Creating Layer upsample2_dsn5
I1118 18:09:43.641979  2303 net.cpp:434] upsample2_dsn5 <- conv5-dsn6_conv5-dsn6_0_split_1
I1118 18:09:43.641985  2303 net.cpp:408] upsample2_dsn5 -> conv5-dsn6-5
I1118 18:09:43.642191  2303 net.cpp:150] Setting up upsample2_dsn5
I1118 18:09:43.642197  2303 net.cpp:157] Top shape: 1 1 36 36 (1296)
I1118 18:09:43.642200  2303 net.cpp:165] Memory required for data: 914191568
I1118 18:09:43.642220  2303 layer_factory.hpp:77] Creating layer crop1-dsn5
I1118 18:09:43.642225  2303 net.cpp:100] Creating Layer crop1-dsn5
I1118 18:09:43.642228  2303 net.cpp:434] crop1-dsn5 <- conv5-dsn6-5
I1118 18:09:43.642231  2303 net.cpp:434] crop1-dsn5 <- conv5_3_relu5_3_0_split_1
I1118 18:09:43.642237  2303 net.cpp:408] crop1-dsn5 -> weight-dsn6-5
I1118 18:09:43.642256  2303 net.cpp:150] Setting up crop1-dsn5
I1118 18:09:43.642261  2303 net.cpp:157] Top shape: 1 1 32 32 (1024)
I1118 18:09:43.642262  2303 net.cpp:165] Memory required for data: 914195664
I1118 18:09:43.642266  2303 layer_factory.hpp:77] Creating layer weight-dsn6-5_crop1-dsn5_0_split
I1118 18:09:43.642269  2303 net.cpp:100] Creating Layer weight-dsn6-5_crop1-dsn5_0_split
I1118 18:09:43.642272  2303 net.cpp:434] weight-dsn6-5_crop1-dsn5_0_split <- weight-dsn6-5
I1118 18:09:43.642278  2303 net.cpp:408] weight-dsn6-5_crop1-dsn5_0_split -> weight-dsn6-5_crop1-dsn5_0_split_0
I1118 18:09:43.642283  2303 net.cpp:408] weight-dsn6-5_crop1-dsn5_0_split -> weight-dsn6-5_crop1-dsn5_0_split_1
I1118 18:09:43.642318  2303 net.cpp:150] Setting up weight-dsn6-5_crop1-dsn5_0_split
I1118 18:09:43.642325  2303 net.cpp:157] Top shape: 1 1 32 32 (1024)
I1118 18:09:43.642330  2303 net.cpp:157] Top shape: 1 1 32 32 (1024)
I1118 18:09:43.642333  2303 net.cpp:165] Memory required for data: 914203856
I1118 18:09:43.642338  2303 layer_factory.hpp:77] Creating layer sigmoid-dsn5
I1118 18:09:43.642346  2303 net.cpp:100] Creating Layer sigmoid-dsn5
I1118 18:09:43.642364  2303 net.cpp:434] sigmoid-dsn5 <- weight-dsn6-5_crop1-dsn5_0_split_0
I1118 18:09:43.642369  2303 net.cpp:408] sigmoid-dsn5 -> sigmoid-dsn5
I1118 18:09:43.642562  2303 net.cpp:150] Setting up sigmoid-dsn5
I1118 18:09:43.642571  2303 net.cpp:157] Top shape: 1 1 32 32 (1024)
I1118 18:09:43.642575  2303 net.cpp:165] Memory required for data: 914207952
I1118 18:09:43.642576  2303 layer_factory.hpp:77] Creating layer rev-dsn5
I1118 18:09:43.642585  2303 net.cpp:100] Creating Layer rev-dsn5
I1118 18:09:43.642587  2303 net.cpp:434] rev-dsn5 <- sigmoid-dsn5
I1118 18:09:43.642591  2303 net.cpp:408] rev-dsn5 -> rev-dsn5
I1118 18:09:43.642626  2303 net.cpp:150] Setting up rev-dsn5
I1118 18:09:43.642632  2303 net.cpp:157] Top shape: 1 1 32 32 (1024)
I1118 18:09:43.642633  2303 net.cpp:165] Memory required for data: 914212048
I1118 18:09:43.642635  2303 layer_factory.hpp:77] Creating layer tile-dsn5
I1118 18:09:43.642640  2303 net.cpp:100] Creating Layer tile-dsn5
I1118 18:09:43.642643  2303 net.cpp:434] tile-dsn5 <- rev-dsn5
I1118 18:09:43.642648  2303 net.cpp:408] tile-dsn5 -> weight-dsn5
I1118 18:09:43.642664  2303 net.cpp:150] Setting up tile-dsn5
I1118 18:09:43.642668  2303 net.cpp:157] Top shape: 1 512 32 32 (524288)
I1118 18:09:43.642670  2303 net.cpp:165] Memory required for data: 916309200
I1118 18:09:43.642673  2303 layer_factory.hpp:77] Creating layer prod1-dsn5
I1118 18:09:43.642678  2303 net.cpp:100] Creating Layer prod1-dsn5
I1118 18:09:43.642680  2303 net.cpp:434] prod1-dsn5 <- conv5_3_relu5_3_0_split_2
I1118 18:09:43.642686  2303 net.cpp:434] prod1-dsn5 <- weight-dsn5
I1118 18:09:43.642690  2303 net.cpp:408] prod1-dsn5 -> prod1-dsn5
I1118 18:09:43.642707  2303 net.cpp:150] Setting up prod1-dsn5
I1118 18:09:43.642714  2303 net.cpp:157] Top shape: 1 512 32 32 (524288)
I1118 18:09:43.642715  2303 net.cpp:165] Memory required for data: 918406352
I1118 18:09:43.642719  2303 layer_factory.hpp:77] Creating layer conv1-dsn5
I1118 18:09:43.642726  2303 net.cpp:100] Creating Layer conv1-dsn5
I1118 18:09:43.642729  2303 net.cpp:434] conv1-dsn5 <- prod1-dsn5
I1118 18:09:43.642735  2303 net.cpp:408] conv1-dsn5 -> conv1-dsn5
I1118 18:09:43.644702  2303 net.cpp:150] Setting up conv1-dsn5
I1118 18:09:43.644714  2303 net.cpp:157] Top shape: 1 64 32 32 (65536)
I1118 18:09:43.644716  2303 net.cpp:165] Memory required for data: 918668496
I1118 18:09:43.644722  2303 layer_factory.hpp:77] Creating layer conv2-dsn5
I1118 18:09:43.644731  2303 net.cpp:100] Creating Layer conv2-dsn5
I1118 18:09:43.644733  2303 net.cpp:434] conv2-dsn5 <- conv1-dsn5
I1118 18:09:43.644738  2303 net.cpp:408] conv2-dsn5 -> conv2-dsn5
I1118 18:09:43.645617  2303 net.cpp:150] Setting up conv2-dsn5
I1118 18:09:43.645627  2303 net.cpp:157] Top shape: 1 64 32 32 (65536)
I1118 18:09:43.645629  2303 net.cpp:165] Memory required for data: 918930640
I1118 18:09:43.645634  2303 layer_factory.hpp:77] Creating layer relu1-dsn5
I1118 18:09:43.645638  2303 net.cpp:100] Creating Layer relu1-dsn5
I1118 18:09:43.645642  2303 net.cpp:434] relu1-dsn5 <- conv2-dsn5
I1118 18:09:43.645644  2303 net.cpp:395] relu1-dsn5 -> conv2-dsn5 (in-place)
I1118 18:09:43.645805  2303 net.cpp:150] Setting up relu1-dsn5
I1118 18:09:43.645815  2303 net.cpp:157] Top shape: 1 64 32 32 (65536)
I1118 18:09:43.645817  2303 net.cpp:165] Memory required for data: 919192784
I1118 18:09:43.645820  2303 layer_factory.hpp:77] Creating layer conv3-dsn5
I1118 18:09:43.645844  2303 net.cpp:100] Creating Layer conv3-dsn5
I1118 18:09:43.645848  2303 net.cpp:434] conv3-dsn5 <- conv2-dsn5
I1118 18:09:43.645853  2303 net.cpp:408] conv3-dsn5 -> conv3-dsn5
I1118 18:09:43.646678  2303 net.cpp:150] Setting up conv3-dsn5
I1118 18:09:43.646688  2303 net.cpp:157] Top shape: 1 64 32 32 (65536)
I1118 18:09:43.646706  2303 net.cpp:165] Memory required for data: 919454928
I1118 18:09:43.646711  2303 layer_factory.hpp:77] Creating layer relu2-dsn5
I1118 18:09:43.646715  2303 net.cpp:100] Creating Layer relu2-dsn5
I1118 18:09:43.646718  2303 net.cpp:434] relu2-dsn5 <- conv3-dsn5
I1118 18:09:43.646724  2303 net.cpp:395] relu2-dsn5 -> conv3-dsn5 (in-place)
I1118 18:09:43.646888  2303 net.cpp:150] Setting up relu2-dsn5
I1118 18:09:43.646898  2303 net.cpp:157] Top shape: 1 64 32 32 (65536)
I1118 18:09:43.646899  2303 net.cpp:165] Memory required for data: 919717072
I1118 18:09:43.646903  2303 layer_factory.hpp:77] Creating layer conv4-dsn5
I1118 18:09:43.646922  2303 net.cpp:100] Creating Layer conv4-dsn5
I1118 18:09:43.646925  2303 net.cpp:434] conv4-dsn5 <- conv3-dsn5
I1118 18:09:43.646930  2303 net.cpp:408] conv4-dsn5 -> conv4-dsn5
I1118 18:09:43.647575  2303 net.cpp:150] Setting up conv4-dsn5
I1118 18:09:43.647584  2303 net.cpp:157] Top shape: 1 1 32 32 (1024)
I1118 18:09:43.647588  2303 net.cpp:165] Memory required for data: 919721168
I1118 18:09:43.647593  2303 layer_factory.hpp:77] Creating layer sum-dsn5
I1118 18:09:43.647598  2303 net.cpp:100] Creating Layer sum-dsn5
I1118 18:09:43.647600  2303 net.cpp:434] sum-dsn5 <- conv4-dsn5
I1118 18:09:43.647603  2303 net.cpp:434] sum-dsn5 <- weight-dsn6-5_crop1-dsn5_0_split_1
I1118 18:09:43.647609  2303 net.cpp:408] sum-dsn5 -> sum-dsn5
I1118 18:09:43.647625  2303 net.cpp:150] Setting up sum-dsn5
I1118 18:09:43.647630  2303 net.cpp:157] Top shape: 1 1 32 32 (1024)
I1118 18:09:43.647632  2303 net.cpp:165] Memory required for data: 919725264
I1118 18:09:43.647634  2303 layer_factory.hpp:77] Creating layer sum-dsn5_sum-dsn5_0_split
I1118 18:09:43.647639  2303 net.cpp:100] Creating Layer sum-dsn5_sum-dsn5_0_split
I1118 18:09:43.647641  2303 net.cpp:434] sum-dsn5_sum-dsn5_0_split <- sum-dsn5
I1118 18:09:43.647644  2303 net.cpp:408] sum-dsn5_sum-dsn5_0_split -> sum-dsn5_sum-dsn5_0_split_0
I1118 18:09:43.647650  2303 net.cpp:408] sum-dsn5_sum-dsn5_0_split -> sum-dsn5_sum-dsn5_0_split_1
I1118 18:09:43.647673  2303 net.cpp:150] Setting up sum-dsn5_sum-dsn5_0_split
I1118 18:09:43.647676  2303 net.cpp:157] Top shape: 1 1 32 32 (1024)
I1118 18:09:43.647680  2303 net.cpp:157] Top shape: 1 1 32 32 (1024)
I1118 18:09:43.647681  2303 net.cpp:165] Memory required for data: 919733456
I1118 18:09:43.647683  2303 layer_factory.hpp:77] Creating layer upsample16_dsn5
I1118 18:09:43.647706  2303 net.cpp:100] Creating Layer upsample16_dsn5
I1118 18:09:43.647707  2303 net.cpp:434] upsample16_dsn5 <- sum-dsn5_sum-dsn5_0_split_0
I1118 18:09:43.647712  2303 net.cpp:408] upsample16_dsn5 -> sum-dsn5-up
I1118 18:09:43.648870  2303 net.cpp:150] Setting up upsample16_dsn5
I1118 18:09:43.648880  2303 net.cpp:157] Top shape: 1 1 528 528 (278784)
I1118 18:09:43.648881  2303 net.cpp:165] Memory required for data: 920848592
I1118 18:09:43.648886  2303 layer_factory.hpp:77] Creating layer crop2-dsn5
I1118 18:09:43.648891  2303 net.cpp:100] Creating Layer crop2-dsn5
I1118 18:09:43.648893  2303 net.cpp:434] crop2-dsn5 <- sum-dsn5-up
I1118 18:09:43.648897  2303 net.cpp:434] crop2-dsn5 <- data_augmentation_0_split_2
I1118 18:09:43.648902  2303 net.cpp:408] crop2-dsn5 -> upscore-dsn5
I1118 18:09:43.648922  2303 net.cpp:150] Setting up crop2-dsn5
I1118 18:09:43.648926  2303 net.cpp:157] Top shape: 1 1 500 500 (250000)
I1118 18:09:43.648928  2303 net.cpp:165] Memory required for data: 921848592
I1118 18:09:43.648931  2303 layer_factory.hpp:77] Creating layer loss5-score
I1118 18:09:43.648939  2303 net.cpp:100] Creating Layer loss5-score
I1118 18:09:43.648941  2303 net.cpp:434] loss5-score <- upscore-dsn5
I1118 18:09:43.648944  2303 net.cpp:434] loss5-score <- label_augmentation_1_split_1
I1118 18:09:43.648947  2303 net.cpp:408] loss5-score -> loss5-score
I1118 18:09:43.649170  2303 net.cpp:150] Setting up loss5-score
I1118 18:09:43.649176  2303 net.cpp:157] Top shape: (1)
I1118 18:09:43.649178  2303 net.cpp:160]     with loss weight 1
I1118 18:09:43.649188  2303 net.cpp:165] Memory required for data: 921848596
I1118 18:09:43.649190  2303 layer_factory.hpp:77] Creating layer upsample2_dsn4
I1118 18:09:43.649199  2303 net.cpp:100] Creating Layer upsample2_dsn4
I1118 18:09:43.649201  2303 net.cpp:434] upsample2_dsn4 <- sum-dsn5_sum-dsn5_0_split_1
I1118 18:09:43.649207  2303 net.cpp:408] upsample2_dsn4 -> sum-dsn5-4
I1118 18:09:43.649406  2303 net.cpp:150] Setting up upsample2_dsn4
I1118 18:09:43.649412  2303 net.cpp:157] Top shape: 1 1 66 66 (4356)
I1118 18:09:43.649415  2303 net.cpp:165] Memory required for data: 921866020
I1118 18:09:43.649420  2303 layer_factory.hpp:77] Creating layer crop1-dsn4
I1118 18:09:43.649425  2303 net.cpp:100] Creating Layer crop1-dsn4
I1118 18:09:43.649428  2303 net.cpp:434] crop1-dsn4 <- sum-dsn5-4
I1118 18:09:43.649431  2303 net.cpp:434] crop1-dsn4 <- conv4_3_relu4_3_0_split_1
I1118 18:09:43.649435  2303 net.cpp:408] crop1-dsn4 -> weight-dsn5-4
I1118 18:09:43.649453  2303 net.cpp:150] Setting up crop1-dsn4
I1118 18:09:43.649456  2303 net.cpp:157] Top shape: 1 1 63 63 (3969)
I1118 18:09:43.649458  2303 net.cpp:165] Memory required for data: 921881896
I1118 18:09:43.649477  2303 layer_factory.hpp:77] Creating layer weight-dsn5-4_crop1-dsn4_0_split
I1118 18:09:43.649482  2303 net.cpp:100] Creating Layer weight-dsn5-4_crop1-dsn4_0_split
I1118 18:09:43.649483  2303 net.cpp:434] weight-dsn5-4_crop1-dsn4_0_split <- weight-dsn5-4
I1118 18:09:43.649489  2303 net.cpp:408] weight-dsn5-4_crop1-dsn4_0_split -> weight-dsn5-4_crop1-dsn4_0_split_0
I1118 18:09:43.649494  2303 net.cpp:408] weight-dsn5-4_crop1-dsn4_0_split -> weight-dsn5-4_crop1-dsn4_0_split_1
I1118 18:09:43.649520  2303 net.cpp:150] Setting up weight-dsn5-4_crop1-dsn4_0_split
I1118 18:09:43.649524  2303 net.cpp:157] Top shape: 1 1 63 63 (3969)
I1118 18:09:43.649528  2303 net.cpp:157] Top shape: 1 1 63 63 (3969)
I1118 18:09:43.649529  2303 net.cpp:165] Memory required for data: 921913648
I1118 18:09:43.649533  2303 layer_factory.hpp:77] Creating layer sigmoid-dsn4
I1118 18:09:43.649536  2303 net.cpp:100] Creating Layer sigmoid-dsn4
I1118 18:09:43.649539  2303 net.cpp:434] sigmoid-dsn4 <- weight-dsn5-4_crop1-dsn4_0_split_0
I1118 18:09:43.649544  2303 net.cpp:408] sigmoid-dsn4 -> sigmoid-dsn4
I1118 18:09:43.649624  2303 net.cpp:150] Setting up sigmoid-dsn4
I1118 18:09:43.649632  2303 net.cpp:157] Top shape: 1 1 63 63 (3969)
I1118 18:09:43.649634  2303 net.cpp:165] Memory required for data: 921929524
I1118 18:09:43.649636  2303 layer_factory.hpp:77] Creating layer rev-dsn4
I1118 18:09:43.649642  2303 net.cpp:100] Creating Layer rev-dsn4
I1118 18:09:43.649644  2303 net.cpp:434] rev-dsn4 <- sigmoid-dsn4
I1118 18:09:43.649648  2303 net.cpp:408] rev-dsn4 -> rev-dsn4
I1118 18:09:43.649667  2303 net.cpp:150] Setting up rev-dsn4
I1118 18:09:43.649672  2303 net.cpp:157] Top shape: 1 1 63 63 (3969)
I1118 18:09:43.649674  2303 net.cpp:165] Memory required for data: 921945400
I1118 18:09:43.649677  2303 layer_factory.hpp:77] Creating layer tile-dsn4
I1118 18:09:43.649680  2303 net.cpp:100] Creating Layer tile-dsn4
I1118 18:09:43.649683  2303 net.cpp:434] tile-dsn4 <- rev-dsn4
I1118 18:09:43.649686  2303 net.cpp:408] tile-dsn4 -> weight-dsn4
I1118 18:09:43.649703  2303 net.cpp:150] Setting up tile-dsn4
I1118 18:09:43.649706  2303 net.cpp:157] Top shape: 1 512 63 63 (2032128)
I1118 18:09:43.649709  2303 net.cpp:165] Memory required for data: 930073912
I1118 18:09:43.649711  2303 layer_factory.hpp:77] Creating layer prod1-dsn4
I1118 18:09:43.649715  2303 net.cpp:100] Creating Layer prod1-dsn4
I1118 18:09:43.649718  2303 net.cpp:434] prod1-dsn4 <- conv4_3_relu4_3_0_split_2
I1118 18:09:43.649721  2303 net.cpp:434] prod1-dsn4 <- weight-dsn4
I1118 18:09:43.649726  2303 net.cpp:408] prod1-dsn4 -> prod1-dsn4
I1118 18:09:43.649741  2303 net.cpp:150] Setting up prod1-dsn4
I1118 18:09:43.649745  2303 net.cpp:157] Top shape: 1 512 63 63 (2032128)
I1118 18:09:43.649747  2303 net.cpp:165] Memory required for data: 938202424
I1118 18:09:43.649749  2303 layer_factory.hpp:77] Creating layer conv1-dsn4
I1118 18:09:43.649760  2303 net.cpp:100] Creating Layer conv1-dsn4
I1118 18:09:43.649762  2303 net.cpp:434] conv1-dsn4 <- prod1-dsn4
I1118 18:09:43.649766  2303 net.cpp:408] conv1-dsn4 -> conv1-dsn4
I1118 18:09:43.651659  2303 net.cpp:150] Setting up conv1-dsn4
I1118 18:09:43.651670  2303 net.cpp:157] Top shape: 1 64 63 63 (254016)
I1118 18:09:43.651688  2303 net.cpp:165] Memory required for data: 939218488
I1118 18:09:43.651693  2303 layer_factory.hpp:77] Creating layer conv2-dsn4
I1118 18:09:43.651702  2303 net.cpp:100] Creating Layer conv2-dsn4
I1118 18:09:43.651705  2303 net.cpp:434] conv2-dsn4 <- conv1-dsn4
I1118 18:09:43.651712  2303 net.cpp:408] conv2-dsn4 -> conv2-dsn4
I1118 18:09:43.652535  2303 net.cpp:150] Setting up conv2-dsn4
I1118 18:09:43.652544  2303 net.cpp:157] Top shape: 1 64 63 63 (254016)
I1118 18:09:43.652562  2303 net.cpp:165] Memory required for data: 940234552
I1118 18:09:43.652567  2303 layer_factory.hpp:77] Creating layer relu1-dsn4
I1118 18:09:43.652575  2303 net.cpp:100] Creating Layer relu1-dsn4
I1118 18:09:43.652576  2303 net.cpp:434] relu1-dsn4 <- conv2-dsn4
I1118 18:09:43.652580  2303 net.cpp:395] relu1-dsn4 -> conv2-dsn4 (in-place)
I1118 18:09:43.652745  2303 net.cpp:150] Setting up relu1-dsn4
I1118 18:09:43.652755  2303 net.cpp:157] Top shape: 1 64 63 63 (254016)
I1118 18:09:43.652756  2303 net.cpp:165] Memory required for data: 941250616
I1118 18:09:43.652760  2303 layer_factory.hpp:77] Creating layer conv3-dsn4
I1118 18:09:43.652768  2303 net.cpp:100] Creating Layer conv3-dsn4
I1118 18:09:43.652771  2303 net.cpp:434] conv3-dsn4 <- conv2-dsn4
I1118 18:09:43.652777  2303 net.cpp:408] conv3-dsn4 -> conv3-dsn4
I1118 18:09:43.653723  2303 net.cpp:150] Setting up conv3-dsn4
I1118 18:09:43.653733  2303 net.cpp:157] Top shape: 1 64 63 63 (254016)
I1118 18:09:43.653736  2303 net.cpp:165] Memory required for data: 942266680
I1118 18:09:43.653741  2303 layer_factory.hpp:77] Creating layer relu2-dsn4
I1118 18:09:43.653745  2303 net.cpp:100] Creating Layer relu2-dsn4
I1118 18:09:43.653748  2303 net.cpp:434] relu2-dsn4 <- conv3-dsn4
I1118 18:09:43.653753  2303 net.cpp:395] relu2-dsn4 -> conv3-dsn4 (in-place)
I1118 18:09:43.653818  2303 net.cpp:150] Setting up relu2-dsn4
I1118 18:09:43.653825  2303 net.cpp:157] Top shape: 1 64 63 63 (254016)
I1118 18:09:43.653843  2303 net.cpp:165] Memory required for data: 943282744
I1118 18:09:43.653846  2303 layer_factory.hpp:77] Creating layer conv4-dsn4
I1118 18:09:43.653854  2303 net.cpp:100] Creating Layer conv4-dsn4
I1118 18:09:43.653857  2303 net.cpp:434] conv4-dsn4 <- conv3-dsn4
I1118 18:09:43.653862  2303 net.cpp:408] conv4-dsn4 -> conv4-dsn4
I1118 18:09:43.654460  2303 net.cpp:150] Setting up conv4-dsn4
I1118 18:09:43.654470  2303 net.cpp:157] Top shape: 1 1 63 63 (3969)
I1118 18:09:43.654474  2303 net.cpp:165] Memory required for data: 943298620
I1118 18:09:43.654477  2303 layer_factory.hpp:77] Creating layer sum-dsn4
I1118 18:09:43.654482  2303 net.cpp:100] Creating Layer sum-dsn4
I1118 18:09:43.654485  2303 net.cpp:434] sum-dsn4 <- conv4-dsn4
I1118 18:09:43.654489  2303 net.cpp:434] sum-dsn4 <- weight-dsn5-4_crop1-dsn4_0_split_1
I1118 18:09:43.654495  2303 net.cpp:408] sum-dsn4 -> sum-dsn4
I1118 18:09:43.654513  2303 net.cpp:150] Setting up sum-dsn4
I1118 18:09:43.654518  2303 net.cpp:157] Top shape: 1 1 63 63 (3969)
I1118 18:09:43.654520  2303 net.cpp:165] Memory required for data: 943314496
I1118 18:09:43.654522  2303 layer_factory.hpp:77] Creating layer sum-dsn4_sum-dsn4_0_split
I1118 18:09:43.654526  2303 net.cpp:100] Creating Layer sum-dsn4_sum-dsn4_0_split
I1118 18:09:43.654528  2303 net.cpp:434] sum-dsn4_sum-dsn4_0_split <- sum-dsn4
I1118 18:09:43.654532  2303 net.cpp:408] sum-dsn4_sum-dsn4_0_split -> sum-dsn4_sum-dsn4_0_split_0
I1118 18:09:43.654556  2303 net.cpp:408] sum-dsn4_sum-dsn4_0_split -> sum-dsn4_sum-dsn4_0_split_1
I1118 18:09:43.654583  2303 net.cpp:150] Setting up sum-dsn4_sum-dsn4_0_split
I1118 18:09:43.654588  2303 net.cpp:157] Top shape: 1 1 63 63 (3969)
I1118 18:09:43.654592  2303 net.cpp:157] Top shape: 1 1 63 63 (3969)
I1118 18:09:43.654593  2303 net.cpp:165] Memory required for data: 943346248
I1118 18:09:43.654595  2303 layer_factory.hpp:77] Creating layer upsample8_dsn4
I1118 18:09:43.654601  2303 net.cpp:100] Creating Layer upsample8_dsn4
I1118 18:09:43.654604  2303 net.cpp:434] upsample8_dsn4 <- sum-dsn4_sum-dsn4_0_split_0
I1118 18:09:43.654609  2303 net.cpp:408] upsample8_dsn4 -> sum-dsn4-up
I1118 18:09:43.655746  2303 net.cpp:150] Setting up upsample8_dsn4
I1118 18:09:43.655756  2303 net.cpp:157] Top shape: 1 1 512 512 (262144)
I1118 18:09:43.655758  2303 net.cpp:165] Memory required for data: 944394824
I1118 18:09:43.655763  2303 layer_factory.hpp:77] Creating layer crop2-dsn4
I1118 18:09:43.655769  2303 net.cpp:100] Creating Layer crop2-dsn4
I1118 18:09:43.655772  2303 net.cpp:434] crop2-dsn4 <- sum-dsn4-up
I1118 18:09:43.655776  2303 net.cpp:434] crop2-dsn4 <- data_augmentation_0_split_3
I1118 18:09:43.655779  2303 net.cpp:408] crop2-dsn4 -> upscore-dsn4
I1118 18:09:43.655802  2303 net.cpp:150] Setting up crop2-dsn4
I1118 18:09:43.655807  2303 net.cpp:157] Top shape: 1 1 500 500 (250000)
I1118 18:09:43.655808  2303 net.cpp:165] Memory required for data: 945394824
I1118 18:09:43.655810  2303 layer_factory.hpp:77] Creating layer loss4-score
I1118 18:09:43.655817  2303 net.cpp:100] Creating Layer loss4-score
I1118 18:09:43.655819  2303 net.cpp:434] loss4-score <- upscore-dsn4
I1118 18:09:43.655838  2303 net.cpp:434] loss4-score <- label_augmentation_1_split_2
I1118 18:09:43.655844  2303 net.cpp:408] loss4-score -> loss4-score
I1118 18:09:43.656041  2303 net.cpp:150] Setting up loss4-score
I1118 18:09:43.656046  2303 net.cpp:157] Top shape: (1)
I1118 18:09:43.656049  2303 net.cpp:160]     with loss weight 1
I1118 18:09:43.656054  2303 net.cpp:165] Memory required for data: 945394828
I1118 18:09:43.656057  2303 layer_factory.hpp:77] Creating layer upsample2_dsn3
I1118 18:09:43.656064  2303 net.cpp:100] Creating Layer upsample2_dsn3
I1118 18:09:43.656066  2303 net.cpp:434] upsample2_dsn3 <- sum-dsn4_sum-dsn4_0_split_1
I1118 18:09:43.656071  2303 net.cpp:408] upsample2_dsn3 -> sum-dsn4-3
I1118 18:09:43.656273  2303 net.cpp:150] Setting up upsample2_dsn3
I1118 18:09:43.656280  2303 net.cpp:157] Top shape: 1 1 128 128 (16384)
I1118 18:09:43.656282  2303 net.cpp:165] Memory required for data: 945460364
I1118 18:09:43.656286  2303 layer_factory.hpp:77] Creating layer crop1-dsn3
I1118 18:09:43.656291  2303 net.cpp:100] Creating Layer crop1-dsn3
I1118 18:09:43.656293  2303 net.cpp:434] crop1-dsn3 <- sum-dsn4-3
I1118 18:09:43.656296  2303 net.cpp:434] crop1-dsn3 <- conv3_3_relu3_3_0_split_1
I1118 18:09:43.656307  2303 net.cpp:408] crop1-dsn3 -> weight-dsn4-3
I1118 18:09:43.656327  2303 net.cpp:150] Setting up crop1-dsn3
I1118 18:09:43.656333  2303 net.cpp:157] Top shape: 1 1 125 125 (15625)
I1118 18:09:43.656352  2303 net.cpp:165] Memory required for data: 945522864
I1118 18:09:43.656354  2303 layer_factory.hpp:77] Creating layer weight-dsn4-3_crop1-dsn3_0_split
I1118 18:09:43.656363  2303 net.cpp:100] Creating Layer weight-dsn4-3_crop1-dsn3_0_split
I1118 18:09:43.656368  2303 net.cpp:434] weight-dsn4-3_crop1-dsn3_0_split <- weight-dsn4-3
I1118 18:09:43.656373  2303 net.cpp:408] weight-dsn4-3_crop1-dsn3_0_split -> weight-dsn4-3_crop1-dsn3_0_split_0
I1118 18:09:43.656380  2303 net.cpp:408] weight-dsn4-3_crop1-dsn3_0_split -> weight-dsn4-3_crop1-dsn3_0_split_1
I1118 18:09:43.656411  2303 net.cpp:150] Setting up weight-dsn4-3_crop1-dsn3_0_split
I1118 18:09:43.656417  2303 net.cpp:157] Top shape: 1 1 125 125 (15625)
I1118 18:09:43.656420  2303 net.cpp:157] Top shape: 1 1 125 125 (15625)
I1118 18:09:43.656422  2303 net.cpp:165] Memory required for data: 945647864
I1118 18:09:43.656425  2303 layer_factory.hpp:77] Creating layer sigmoid-dsn3
I1118 18:09:43.656430  2303 net.cpp:100] Creating Layer sigmoid-dsn3
I1118 18:09:43.656432  2303 net.cpp:434] sigmoid-dsn3 <- weight-dsn4-3_crop1-dsn3_0_split_0
I1118 18:09:43.656437  2303 net.cpp:408] sigmoid-dsn3 -> sigmoid-dsn3
I1118 18:09:43.656520  2303 net.cpp:150] Setting up sigmoid-dsn3
I1118 18:09:43.656528  2303 net.cpp:157] Top shape: 1 1 125 125 (15625)
I1118 18:09:43.656530  2303 net.cpp:165] Memory required for data: 945710364
I1118 18:09:43.656533  2303 layer_factory.hpp:77] Creating layer rev-dsn3
I1118 18:09:43.656539  2303 net.cpp:100] Creating Layer rev-dsn3
I1118 18:09:43.656543  2303 net.cpp:434] rev-dsn3 <- sigmoid-dsn3
I1118 18:09:43.656546  2303 net.cpp:408] rev-dsn3 -> rev-dsn3
I1118 18:09:43.656563  2303 net.cpp:150] Setting up rev-dsn3
I1118 18:09:43.656566  2303 net.cpp:157] Top shape: 1 1 125 125 (15625)
I1118 18:09:43.656569  2303 net.cpp:165] Memory required for data: 945772864
I1118 18:09:43.656571  2303 layer_factory.hpp:77] Creating layer tile-dsn3
I1118 18:09:43.656579  2303 net.cpp:100] Creating Layer tile-dsn3
I1118 18:09:43.656582  2303 net.cpp:434] tile-dsn3 <- rev-dsn3
I1118 18:09:43.656585  2303 net.cpp:408] tile-dsn3 -> weight-dsn3
I1118 18:09:43.656599  2303 net.cpp:150] Setting up tile-dsn3
I1118 18:09:43.656603  2303 net.cpp:157] Top shape: 1 256 125 125 (4000000)
I1118 18:09:43.656605  2303 net.cpp:165] Memory required for data: 961772864
I1118 18:09:43.656608  2303 layer_factory.hpp:77] Creating layer prod1-dsn3
I1118 18:09:43.656612  2303 net.cpp:100] Creating Layer prod1-dsn3
I1118 18:09:43.656615  2303 net.cpp:434] prod1-dsn3 <- conv3_3_relu3_3_0_split_2
I1118 18:09:43.656618  2303 net.cpp:434] prod1-dsn3 <- weight-dsn3
I1118 18:09:43.656625  2303 net.cpp:408] prod1-dsn3 -> prod1-dsn3
I1118 18:09:43.656654  2303 net.cpp:150] Setting up prod1-dsn3
I1118 18:09:43.656659  2303 net.cpp:157] Top shape: 1 256 125 125 (4000000)
I1118 18:09:43.656661  2303 net.cpp:165] Memory required for data: 977772864
I1118 18:09:43.656664  2303 layer_factory.hpp:77] Creating layer conv1-dsn3
I1118 18:09:43.656672  2303 net.cpp:100] Creating Layer conv1-dsn3
I1118 18:09:43.656674  2303 net.cpp:434] conv1-dsn3 <- prod1-dsn3
I1118 18:09:43.656680  2303 net.cpp:408] conv1-dsn3 -> conv1-dsn3
I1118 18:09:43.658375  2303 net.cpp:150] Setting up conv1-dsn3
I1118 18:09:43.658390  2303 net.cpp:157] Top shape: 1 64 125 125 (1000000)
I1118 18:09:43.658391  2303 net.cpp:165] Memory required for data: 981772864
I1118 18:09:43.658406  2303 layer_factory.hpp:77] Creating layer conv2-dsn3
I1118 18:09:43.658416  2303 net.cpp:100] Creating Layer conv2-dsn3
I1118 18:09:43.658418  2303 net.cpp:434] conv2-dsn3 <- conv1-dsn3
I1118 18:09:43.658424  2303 net.cpp:408] conv2-dsn3 -> conv2-dsn3
I1118 18:09:43.659337  2303 net.cpp:150] Setting up conv2-dsn3
I1118 18:09:43.659348  2303 net.cpp:157] Top shape: 1 64 125 125 (1000000)
I1118 18:09:43.659349  2303 net.cpp:165] Memory required for data: 985772864
I1118 18:09:43.659354  2303 layer_factory.hpp:77] Creating layer relu1-dsn3
I1118 18:09:43.659359  2303 net.cpp:100] Creating Layer relu1-dsn3
I1118 18:09:43.659363  2303 net.cpp:434] relu1-dsn3 <- conv2-dsn3
I1118 18:09:43.659368  2303 net.cpp:395] relu1-dsn3 -> conv2-dsn3 (in-place)
I1118 18:09:43.659446  2303 net.cpp:150] Setting up relu1-dsn3
I1118 18:09:43.659453  2303 net.cpp:157] Top shape: 1 64 125 125 (1000000)
I1118 18:09:43.659456  2303 net.cpp:165] Memory required for data: 989772864
I1118 18:09:43.659458  2303 layer_factory.hpp:77] Creating layer conv3-dsn3
I1118 18:09:43.659466  2303 net.cpp:100] Creating Layer conv3-dsn3
I1118 18:09:43.659469  2303 net.cpp:434] conv3-dsn3 <- conv2-dsn3
I1118 18:09:43.659473  2303 net.cpp:408] conv3-dsn3 -> conv3-dsn3
I1118 18:09:43.660434  2303 net.cpp:150] Setting up conv3-dsn3
I1118 18:09:43.660444  2303 net.cpp:157] Top shape: 1 64 125 125 (1000000)
I1118 18:09:43.660446  2303 net.cpp:165] Memory required for data: 993772864
I1118 18:09:43.660451  2303 layer_factory.hpp:77] Creating layer relu2-dsn3
I1118 18:09:43.660455  2303 net.cpp:100] Creating Layer relu2-dsn3
I1118 18:09:43.660459  2303 net.cpp:434] relu2-dsn3 <- conv3-dsn3
I1118 18:09:43.660463  2303 net.cpp:395] relu2-dsn3 -> conv3-dsn3 (in-place)
I1118 18:09:43.660547  2303 net.cpp:150] Setting up relu2-dsn3
I1118 18:09:43.660554  2303 net.cpp:157] Top shape: 1 64 125 125 (1000000)
I1118 18:09:43.660557  2303 net.cpp:165] Memory required for data: 997772864
I1118 18:09:43.660559  2303 layer_factory.hpp:77] Creating layer conv4-dsn3
I1118 18:09:43.660567  2303 net.cpp:100] Creating Layer conv4-dsn3
I1118 18:09:43.660570  2303 net.cpp:434] conv4-dsn3 <- conv3-dsn3
I1118 18:09:43.660574  2303 net.cpp:408] conv4-dsn3 -> conv4-dsn3
I1118 18:09:43.661201  2303 net.cpp:150] Setting up conv4-dsn3
I1118 18:09:43.661211  2303 net.cpp:157] Top shape: 1 1 125 125 (15625)
I1118 18:09:43.661212  2303 net.cpp:165] Memory required for data: 997835364
I1118 18:09:43.661217  2303 layer_factory.hpp:77] Creating layer sum-dsn3
I1118 18:09:43.661222  2303 net.cpp:100] Creating Layer sum-dsn3
I1118 18:09:43.661226  2303 net.cpp:434] sum-dsn3 <- conv4-dsn3
I1118 18:09:43.661231  2303 net.cpp:434] sum-dsn3 <- weight-dsn4-3_crop1-dsn3_0_split_1
I1118 18:09:43.661234  2303 net.cpp:408] sum-dsn3 -> sum-dsn3
I1118 18:09:43.661254  2303 net.cpp:150] Setting up sum-dsn3
I1118 18:09:43.661258  2303 net.cpp:157] Top shape: 1 1 125 125 (15625)
I1118 18:09:43.661260  2303 net.cpp:165] Memory required for data: 997897864
I1118 18:09:43.661262  2303 layer_factory.hpp:77] Creating layer sum-dsn3_sum-dsn3_0_split
I1118 18:09:43.661267  2303 net.cpp:100] Creating Layer sum-dsn3_sum-dsn3_0_split
I1118 18:09:43.661269  2303 net.cpp:434] sum-dsn3_sum-dsn3_0_split <- sum-dsn3
I1118 18:09:43.661275  2303 net.cpp:408] sum-dsn3_sum-dsn3_0_split -> sum-dsn3_sum-dsn3_0_split_0
I1118 18:09:43.661296  2303 net.cpp:408] sum-dsn3_sum-dsn3_0_split -> sum-dsn3_sum-dsn3_0_split_1
I1118 18:09:43.661339  2303 net.cpp:150] Setting up sum-dsn3_sum-dsn3_0_split
I1118 18:09:43.661356  2303 net.cpp:157] Top shape: 1 1 125 125 (15625)
I1118 18:09:43.661360  2303 net.cpp:157] Top shape: 1 1 125 125 (15625)
I1118 18:09:43.661361  2303 net.cpp:165] Memory required for data: 998022864
I1118 18:09:43.661363  2303 layer_factory.hpp:77] Creating layer upsample4_dsn3
I1118 18:09:43.661370  2303 net.cpp:100] Creating Layer upsample4_dsn3
I1118 18:09:43.661371  2303 net.cpp:434] upsample4_dsn3 <- sum-dsn3_sum-dsn3_0_split_0
I1118 18:09:43.661377  2303 net.cpp:408] upsample4_dsn3 -> sum-dsn3-up
I1118 18:09:43.662518  2303 net.cpp:150] Setting up upsample4_dsn3
I1118 18:09:43.662528  2303 net.cpp:157] Top shape: 1 1 504 504 (254016)
I1118 18:09:43.662529  2303 net.cpp:165] Memory required for data: 999038928
I1118 18:09:43.662534  2303 layer_factory.hpp:77] Creating layer crop2-dsn3
I1118 18:09:43.662539  2303 net.cpp:100] Creating Layer crop2-dsn3
I1118 18:09:43.662542  2303 net.cpp:434] crop2-dsn3 <- sum-dsn3-up
I1118 18:09:43.662545  2303 net.cpp:434] crop2-dsn3 <- data_augmentation_0_split_4
I1118 18:09:43.662550  2303 net.cpp:408] crop2-dsn3 -> upscore-dsn3
I1118 18:09:43.662575  2303 net.cpp:150] Setting up crop2-dsn3
I1118 18:09:43.662578  2303 net.cpp:157] Top shape: 1 1 500 500 (250000)
I1118 18:09:43.662580  2303 net.cpp:165] Memory required for data: 1000038928
I1118 18:09:43.662583  2303 layer_factory.hpp:77] Creating layer loss3-score
I1118 18:09:43.662590  2303 net.cpp:100] Creating Layer loss3-score
I1118 18:09:43.662591  2303 net.cpp:434] loss3-score <- upscore-dsn3
I1118 18:09:43.662609  2303 net.cpp:434] loss3-score <- label_augmentation_1_split_3
I1118 18:09:43.662613  2303 net.cpp:408] loss3-score -> loss3-score
I1118 18:09:43.662822  2303 net.cpp:150] Setting up loss3-score
I1118 18:09:43.662828  2303 net.cpp:157] Top shape: (1)
I1118 18:09:43.662830  2303 net.cpp:160]     with loss weight 1
I1118 18:09:43.662835  2303 net.cpp:165] Memory required for data: 1000038932
I1118 18:09:43.662838  2303 layer_factory.hpp:77] Creating layer upsample2_1-dsn2
I1118 18:09:43.662845  2303 net.cpp:100] Creating Layer upsample2_1-dsn2
I1118 18:09:43.662848  2303 net.cpp:434] upsample2_1-dsn2 <- sum-dsn3_sum-dsn3_0_split_1
I1118 18:09:43.662853  2303 net.cpp:408] upsample2_1-dsn2 -> sum-dsn3-2
I1118 18:09:43.663067  2303 net.cpp:150] Setting up upsample2_1-dsn2
I1118 18:09:43.663074  2303 net.cpp:157] Top shape: 1 1 252 252 (63504)
I1118 18:09:43.663077  2303 net.cpp:165] Memory required for data: 1000292948
I1118 18:09:43.663081  2303 layer_factory.hpp:77] Creating layer crop1-dsn2
I1118 18:09:43.663085  2303 net.cpp:100] Creating Layer crop1-dsn2
I1118 18:09:43.663089  2303 net.cpp:434] crop1-dsn2 <- sum-dsn3-2
I1118 18:09:43.663091  2303 net.cpp:434] crop1-dsn2 <- conv2_2_relu2_2_0_split_1
I1118 18:09:43.663095  2303 net.cpp:408] crop1-dsn2 -> weight-dsn3-2
I1118 18:09:43.663115  2303 net.cpp:150] Setting up crop1-dsn2
I1118 18:09:43.663134  2303 net.cpp:157] Top shape: 1 1 250 250 (62500)
I1118 18:09:43.663137  2303 net.cpp:165] Memory required for data: 1000542948
I1118 18:09:43.663139  2303 layer_factory.hpp:77] Creating layer weight-dsn3-2_crop1-dsn2_0_split
I1118 18:09:43.663143  2303 net.cpp:100] Creating Layer weight-dsn3-2_crop1-dsn2_0_split
I1118 18:09:43.663146  2303 net.cpp:434] weight-dsn3-2_crop1-dsn2_0_split <- weight-dsn3-2
I1118 18:09:43.663151  2303 net.cpp:408] weight-dsn3-2_crop1-dsn2_0_split -> weight-dsn3-2_crop1-dsn2_0_split_0
I1118 18:09:43.663156  2303 net.cpp:408] weight-dsn3-2_crop1-dsn2_0_split -> weight-dsn3-2_crop1-dsn2_0_split_1
I1118 18:09:43.663183  2303 net.cpp:150] Setting up weight-dsn3-2_crop1-dsn2_0_split
I1118 18:09:43.663188  2303 net.cpp:157] Top shape: 1 1 250 250 (62500)
I1118 18:09:43.663192  2303 net.cpp:157] Top shape: 1 1 250 250 (62500)
I1118 18:09:43.663193  2303 net.cpp:165] Memory required for data: 1001042948
I1118 18:09:43.663195  2303 layer_factory.hpp:77] Creating layer sigmoid-dsn2
I1118 18:09:43.663199  2303 net.cpp:100] Creating Layer sigmoid-dsn2
I1118 18:09:43.663203  2303 net.cpp:434] sigmoid-dsn2 <- weight-dsn3-2_crop1-dsn2_0_split_0
I1118 18:09:43.663208  2303 net.cpp:408] sigmoid-dsn2 -> sigmoid-dsn2
I1118 18:09:43.664449  2303 net.cpp:150] Setting up sigmoid-dsn2
I1118 18:09:43.664460  2303 net.cpp:157] Top shape: 1 1 250 250 (62500)
I1118 18:09:43.664463  2303 net.cpp:165] Memory required for data: 1001292948
I1118 18:09:43.664465  2303 layer_factory.hpp:77] Creating layer rev-dsn2
I1118 18:09:43.664470  2303 net.cpp:100] Creating Layer rev-dsn2
I1118 18:09:43.664474  2303 net.cpp:434] rev-dsn2 <- sigmoid-dsn2
I1118 18:09:43.664477  2303 net.cpp:408] rev-dsn2 -> rev-dsn2
I1118 18:09:43.664494  2303 net.cpp:150] Setting up rev-dsn2
I1118 18:09:43.664499  2303 net.cpp:157] Top shape: 1 1 250 250 (62500)
I1118 18:09:43.664501  2303 net.cpp:165] Memory required for data: 1001542948
I1118 18:09:43.664503  2303 layer_factory.hpp:77] Creating layer tile-dsn2
I1118 18:09:43.664506  2303 net.cpp:100] Creating Layer tile-dsn2
I1118 18:09:43.664510  2303 net.cpp:434] tile-dsn2 <- rev-dsn2
I1118 18:09:43.664512  2303 net.cpp:408] tile-dsn2 -> weight-dsn2
I1118 18:09:43.664526  2303 net.cpp:150] Setting up tile-dsn2
I1118 18:09:43.664530  2303 net.cpp:157] Top shape: 1 128 250 250 (8000000)
I1118 18:09:43.664531  2303 net.cpp:165] Memory required for data: 1033542948
I1118 18:09:43.664533  2303 layer_factory.hpp:77] Creating layer prod1-dsn2
I1118 18:09:43.664537  2303 net.cpp:100] Creating Layer prod1-dsn2
I1118 18:09:43.664539  2303 net.cpp:434] prod1-dsn2 <- conv2_2_relu2_2_0_split_2
I1118 18:09:43.664542  2303 net.cpp:434] prod1-dsn2 <- weight-dsn2
I1118 18:09:43.664546  2303 net.cpp:408] prod1-dsn2 -> prod1-dsn2
I1118 18:09:43.664577  2303 net.cpp:150] Setting up prod1-dsn2
I1118 18:09:43.664582  2303 net.cpp:157] Top shape: 1 128 250 250 (8000000)
I1118 18:09:43.664584  2303 net.cpp:165] Memory required for data: 1065542948
I1118 18:09:43.664587  2303 layer_factory.hpp:77] Creating layer conv1-dsn2
I1118 18:09:43.664594  2303 net.cpp:100] Creating Layer conv1-dsn2
I1118 18:09:43.664597  2303 net.cpp:434] conv1-dsn2 <- prod1-dsn2
I1118 18:09:43.664602  2303 net.cpp:408] conv1-dsn2 -> conv1-dsn2
I1118 18:09:43.665253  2303 net.cpp:150] Setting up conv1-dsn2
I1118 18:09:43.665263  2303 net.cpp:157] Top shape: 1 64 250 250 (4000000)
I1118 18:09:43.665266  2303 net.cpp:165] Memory required for data: 1081542948
I1118 18:09:43.665271  2303 layer_factory.hpp:77] Creating layer conv2-dsn2
I1118 18:09:43.665280  2303 net.cpp:100] Creating Layer conv2-dsn2
I1118 18:09:43.665283  2303 net.cpp:434] conv2-dsn2 <- conv1-dsn2
I1118 18:09:43.665288  2303 net.cpp:408] conv2-dsn2 -> conv2-dsn2
I1118 18:09:43.666967  2303 net.cpp:150] Setting up conv2-dsn2
I1118 18:09:43.666977  2303 net.cpp:157] Top shape: 1 64 250 250 (4000000)
I1118 18:09:43.666980  2303 net.cpp:165] Memory required for data: 1097542948
I1118 18:09:43.666985  2303 layer_factory.hpp:77] Creating layer relu1-dsn2
I1118 18:09:43.666991  2303 net.cpp:100] Creating Layer relu1-dsn2
I1118 18:09:43.666993  2303 net.cpp:434] relu1-dsn2 <- conv2-dsn2
I1118 18:09:43.666997  2303 net.cpp:395] relu1-dsn2 -> conv2-dsn2 (in-place)
I1118 18:09:43.667068  2303 net.cpp:150] Setting up relu1-dsn2
I1118 18:09:43.667090  2303 net.cpp:157] Top shape: 1 64 250 250 (4000000)
I1118 18:09:43.667093  2303 net.cpp:165] Memory required for data: 1113542948
I1118 18:09:43.667094  2303 layer_factory.hpp:77] Creating layer conv3-dsn2
I1118 18:09:43.667104  2303 net.cpp:100] Creating Layer conv3-dsn2
I1118 18:09:43.667106  2303 net.cpp:434] conv3-dsn2 <- conv2-dsn2
I1118 18:09:43.667111  2303 net.cpp:408] conv3-dsn2 -> conv3-dsn2
I1118 18:09:43.668099  2303 net.cpp:150] Setting up conv3-dsn2
I1118 18:09:43.668109  2303 net.cpp:157] Top shape: 1 64 250 250 (4000000)
I1118 18:09:43.668112  2303 net.cpp:165] Memory required for data: 1129542948
I1118 18:09:43.668117  2303 layer_factory.hpp:77] Creating layer relu2-dsn2
I1118 18:09:43.668121  2303 net.cpp:100] Creating Layer relu2-dsn2
I1118 18:09:43.668123  2303 net.cpp:434] relu2-dsn2 <- conv3-dsn2
I1118 18:09:43.668129  2303 net.cpp:395] relu2-dsn2 -> conv3-dsn2 (in-place)
I1118 18:09:43.668282  2303 net.cpp:150] Setting up relu2-dsn2
I1118 18:09:43.668290  2303 net.cpp:157] Top shape: 1 64 250 250 (4000000)
I1118 18:09:43.668315  2303 net.cpp:165] Memory required for data: 1145542948
I1118 18:09:43.668321  2303 layer_factory.hpp:77] Creating layer conv4-dsn2
I1118 18:09:43.668330  2303 net.cpp:100] Creating Layer conv4-dsn2
I1118 18:09:43.668334  2303 net.cpp:434] conv4-dsn2 <- conv3-dsn2
I1118 18:09:43.668340  2303 net.cpp:408] conv4-dsn2 -> conv4-dsn2
I1118 18:09:43.668879  2303 net.cpp:150] Setting up conv4-dsn2
I1118 18:09:43.668889  2303 net.cpp:157] Top shape: 1 1 250 250 (62500)
I1118 18:09:43.668891  2303 net.cpp:165] Memory required for data: 1145792948
I1118 18:09:43.668896  2303 layer_factory.hpp:77] Creating layer sum-dsn2
I1118 18:09:43.668901  2303 net.cpp:100] Creating Layer sum-dsn2
I1118 18:09:43.668903  2303 net.cpp:434] sum-dsn2 <- conv4-dsn2
I1118 18:09:43.668907  2303 net.cpp:434] sum-dsn2 <- weight-dsn3-2_crop1-dsn2_0_split_1
I1118 18:09:43.668912  2303 net.cpp:408] sum-dsn2 -> sum-dsn2
I1118 18:09:43.668931  2303 net.cpp:150] Setting up sum-dsn2
I1118 18:09:43.668936  2303 net.cpp:157] Top shape: 1 1 250 250 (62500)
I1118 18:09:43.668936  2303 net.cpp:165] Memory required for data: 1146042948
I1118 18:09:43.668938  2303 layer_factory.hpp:77] Creating layer upsample2_2-dsn2
I1118 18:09:43.668946  2303 net.cpp:100] Creating Layer upsample2_2-dsn2
I1118 18:09:43.668947  2303 net.cpp:434] upsample2_2-dsn2 <- sum-dsn2
I1118 18:09:43.668953  2303 net.cpp:408] upsample2_2-dsn2 -> sum-dsn2-up
I1118 18:09:43.669329  2303 net.cpp:150] Setting up upsample2_2-dsn2
I1118 18:09:43.669337  2303 net.cpp:157] Top shape: 1 1 502 502 (252004)
I1118 18:09:43.669353  2303 net.cpp:165] Memory required for data: 1147050964
I1118 18:09:43.669358  2303 layer_factory.hpp:77] Creating layer crop2-dsn2
I1118 18:09:43.669364  2303 net.cpp:100] Creating Layer crop2-dsn2
I1118 18:09:43.669368  2303 net.cpp:434] crop2-dsn2 <- sum-dsn2-up
I1118 18:09:43.669370  2303 net.cpp:434] crop2-dsn2 <- data_augmentation_0_split_5
I1118 18:09:43.669374  2303 net.cpp:408] crop2-dsn2 -> upscore-dsn2
I1118 18:09:43.669396  2303 net.cpp:150] Setting up crop2-dsn2
I1118 18:09:43.669400  2303 net.cpp:157] Top shape: 1 1 500 500 (250000)
I1118 18:09:43.669402  2303 net.cpp:165] Memory required for data: 1148050964
I1118 18:09:43.669405  2303 layer_factory.hpp:77] Creating layer upscore-dsn2_crop2-dsn2_0_split
I1118 18:09:43.669409  2303 net.cpp:100] Creating Layer upscore-dsn2_crop2-dsn2_0_split
I1118 18:09:43.669412  2303 net.cpp:434] upscore-dsn2_crop2-dsn2_0_split <- upscore-dsn2
I1118 18:09:43.669417  2303 net.cpp:408] upscore-dsn2_crop2-dsn2_0_split -> upscore-dsn2_crop2-dsn2_0_split_0
I1118 18:09:43.669456  2303 net.cpp:408] upscore-dsn2_crop2-dsn2_0_split -> upscore-dsn2_crop2-dsn2_0_split_1
I1118 18:09:43.669476  2303 net.cpp:408] upscore-dsn2_crop2-dsn2_0_split -> upscore-dsn2_crop2-dsn2_0_split_2
I1118 18:09:43.669509  2303 net.cpp:150] Setting up upscore-dsn2_crop2-dsn2_0_split
I1118 18:09:43.669530  2303 net.cpp:157] Top shape: 1 1 500 500 (250000)
I1118 18:09:43.669533  2303 net.cpp:157] Top shape: 1 1 500 500 (250000)
I1118 18:09:43.669536  2303 net.cpp:157] Top shape: 1 1 500 500 (250000)
I1118 18:09:43.669553  2303 net.cpp:165] Memory required for data: 1151050964
I1118 18:09:43.669555  2303 layer_factory.hpp:77] Creating layer loss2-score
I1118 18:09:43.669562  2303 net.cpp:100] Creating Layer loss2-score
I1118 18:09:43.669565  2303 net.cpp:434] loss2-score <- upscore-dsn2_crop2-dsn2_0_split_0
I1118 18:09:43.669569  2303 net.cpp:434] loss2-score <- label_augmentation_1_split_4
I1118 18:09:43.669572  2303 net.cpp:408] loss2-score -> loss2-score
I1118 18:09:43.670588  2303 net.cpp:150] Setting up loss2-score
I1118 18:09:43.670595  2303 net.cpp:157] Top shape: (1)
I1118 18:09:43.670598  2303 net.cpp:160]     with loss weight 1
I1118 18:09:43.670603  2303 net.cpp:165] Memory required for data: 1151050968
I1118 18:09:43.670605  2303 layer_factory.hpp:77] Creating layer sigmoid-dsn1
I1118 18:09:43.670609  2303 net.cpp:100] Creating Layer sigmoid-dsn1
I1118 18:09:43.670612  2303 net.cpp:434] sigmoid-dsn1 <- upscore-dsn2_crop2-dsn2_0_split_1
I1118 18:09:43.670617  2303 net.cpp:408] sigmoid-dsn1 -> sigmoid-dsn1
I1118 18:09:43.671849  2303 net.cpp:150] Setting up sigmoid-dsn1
I1118 18:09:43.671859  2303 net.cpp:157] Top shape: 1 1 500 500 (250000)
I1118 18:09:43.671861  2303 net.cpp:165] Memory required for data: 1152050968
I1118 18:09:43.671864  2303 layer_factory.hpp:77] Creating layer rev-dsn1
I1118 18:09:43.671869  2303 net.cpp:100] Creating Layer rev-dsn1
I1118 18:09:43.671871  2303 net.cpp:434] rev-dsn1 <- sigmoid-dsn1
I1118 18:09:43.671877  2303 net.cpp:408] rev-dsn1 -> rev-dsn1
I1118 18:09:43.671896  2303 net.cpp:150] Setting up rev-dsn1
I1118 18:09:43.671900  2303 net.cpp:157] Top shape: 1 1 500 500 (250000)
I1118 18:09:43.671901  2303 net.cpp:165] Memory required for data: 1153050968
I1118 18:09:43.671905  2303 layer_factory.hpp:77] Creating layer tile-dsn1
I1118 18:09:43.671910  2303 net.cpp:100] Creating Layer tile-dsn1
I1118 18:09:43.671912  2303 net.cpp:434] tile-dsn1 <- rev-dsn1
I1118 18:09:43.671916  2303 net.cpp:408] tile-dsn1 -> weight-dsn1
I1118 18:09:43.671947  2303 net.cpp:150] Setting up tile-dsn1
I1118 18:09:43.671952  2303 net.cpp:157] Top shape: 1 64 500 500 (16000000)
I1118 18:09:43.671954  2303 net.cpp:165] Memory required for data: 1217050968
I1118 18:09:43.671957  2303 layer_factory.hpp:77] Creating layer prod1-dsn1
I1118 18:09:43.671963  2303 net.cpp:100] Creating Layer prod1-dsn1
I1118 18:09:43.671965  2303 net.cpp:434] prod1-dsn1 <- conv1_2_relu1_2_0_split_1
I1118 18:09:43.671969  2303 net.cpp:434] prod1-dsn1 <- weight-dsn1
I1118 18:09:43.671972  2303 net.cpp:408] prod1-dsn1 -> prod1-dsn1
I1118 18:09:43.671989  2303 net.cpp:150] Setting up prod1-dsn1
I1118 18:09:43.671993  2303 net.cpp:157] Top shape: 1 64 500 500 (16000000)
I1118 18:09:43.671995  2303 net.cpp:165] Memory required for data: 1281050968
I1118 18:09:43.671998  2303 layer_factory.hpp:77] Creating layer conv1-dsn1
I1118 18:09:43.672022  2303 net.cpp:100] Creating Layer conv1-dsn1
I1118 18:09:43.672025  2303 net.cpp:434] conv1-dsn1 <- prod1-dsn1
I1118 18:09:43.672040  2303 net.cpp:408] conv1-dsn1 -> conv1-dsn1
I1118 18:09:43.672889  2303 net.cpp:150] Setting up conv1-dsn1
I1118 18:09:43.672900  2303 net.cpp:157] Top shape: 1 64 500 500 (16000000)
I1118 18:09:43.672902  2303 net.cpp:165] Memory required for data: 1345050968
I1118 18:09:43.672909  2303 layer_factory.hpp:77] Creating layer conv2-dsn1
I1118 18:09:43.672919  2303 net.cpp:100] Creating Layer conv2-dsn1
I1118 18:09:43.672921  2303 net.cpp:434] conv2-dsn1 <- conv1-dsn1
I1118 18:09:43.672925  2303 net.cpp:408] conv2-dsn1 -> conv2-dsn1
I1118 18:09:43.674641  2303 net.cpp:150] Setting up conv2-dsn1
I1118 18:09:43.674651  2303 net.cpp:157] Top shape: 1 64 500 500 (16000000)
I1118 18:09:43.674654  2303 net.cpp:165] Memory required for data: 1409050968
I1118 18:09:43.674659  2303 layer_factory.hpp:77] Creating layer relu1-dsn1
I1118 18:09:43.674664  2303 net.cpp:100] Creating Layer relu1-dsn1
I1118 18:09:43.674666  2303 net.cpp:434] relu1-dsn1 <- conv2-dsn1
I1118 18:09:43.674672  2303 net.cpp:395] relu1-dsn1 -> conv2-dsn1 (in-place)
I1118 18:09:43.674854  2303 net.cpp:150] Setting up relu1-dsn1
I1118 18:09:43.674863  2303 net.cpp:157] Top shape: 1 64 500 500 (16000000)
I1118 18:09:43.674865  2303 net.cpp:165] Memory required for data: 1473050968
I1118 18:09:43.674868  2303 layer_factory.hpp:77] Creating layer conv3-dsn1
I1118 18:09:43.674880  2303 net.cpp:100] Creating Layer conv3-dsn1
I1118 18:09:43.674882  2303 net.cpp:434] conv3-dsn1 <- conv2-dsn1
I1118 18:09:43.674887  2303 net.cpp:408] conv3-dsn1 -> conv3-dsn1
I1118 18:09:43.675885  2303 net.cpp:150] Setting up conv3-dsn1
I1118 18:09:43.675895  2303 net.cpp:157] Top shape: 1 64 500 500 (16000000)
I1118 18:09:43.675897  2303 net.cpp:165] Memory required for data: 1537050968
I1118 18:09:43.675902  2303 layer_factory.hpp:77] Creating layer relu2-dsn1
I1118 18:09:43.675907  2303 net.cpp:100] Creating Layer relu2-dsn1
I1118 18:09:43.675909  2303 net.cpp:434] relu2-dsn1 <- conv3-dsn1
I1118 18:09:43.675915  2303 net.cpp:395] relu2-dsn1 -> conv3-dsn1 (in-place)
I1118 18:09:43.676071  2303 net.cpp:150] Setting up relu2-dsn1
I1118 18:09:43.676098  2303 net.cpp:157] Top shape: 1 64 500 500 (16000000)
I1118 18:09:43.676101  2303 net.cpp:165] Memory required for data: 1601050968
I1118 18:09:43.676103  2303 layer_factory.hpp:77] Creating layer conv4-dsn1
I1118 18:09:43.676113  2303 net.cpp:100] Creating Layer conv4-dsn1
I1118 18:09:43.676116  2303 net.cpp:434] conv4-dsn1 <- conv3-dsn1
I1118 18:09:43.676121  2303 net.cpp:408] conv4-dsn1 -> conv4-dsn1
I1118 18:09:43.678611  2303 net.cpp:150] Setting up conv4-dsn1
I1118 18:09:43.678622  2303 net.cpp:157] Top shape: 1 1 500 500 (250000)
I1118 18:09:43.678623  2303 net.cpp:165] Memory required for data: 1602050968
I1118 18:09:43.678628  2303 layer_factory.hpp:77] Creating layer sum-dsn1
I1118 18:09:43.678635  2303 net.cpp:100] Creating Layer sum-dsn1
I1118 18:09:43.678638  2303 net.cpp:434] sum-dsn1 <- conv4-dsn1
I1118 18:09:43.678642  2303 net.cpp:434] sum-dsn1 <- upscore-dsn2_crop2-dsn2_0_split_2
I1118 18:09:43.678645  2303 net.cpp:408] sum-dsn1 -> sum-dsn1
I1118 18:09:43.678668  2303 net.cpp:150] Setting up sum-dsn1
I1118 18:09:43.678673  2303 net.cpp:157] Top shape: 1 1 500 500 (250000)
I1118 18:09:43.678674  2303 net.cpp:165] Memory required for data: 1603050968
I1118 18:09:43.678676  2303 layer_factory.hpp:77] Creating layer crop2-dsn1
I1118 18:09:43.678680  2303 net.cpp:100] Creating Layer crop2-dsn1
I1118 18:09:43.678683  2303 net.cpp:434] crop2-dsn1 <- sum-dsn1
I1118 18:09:43.678686  2303 net.cpp:434] crop2-dsn1 <- data_augmentation_0_split_6
I1118 18:09:43.678691  2303 net.cpp:408] crop2-dsn1 -> upscore-dsn1
I1118 18:09:43.678709  2303 net.cpp:150] Setting up crop2-dsn1
I1118 18:09:43.678714  2303 net.cpp:157] Top shape: 1 1 500 500 (250000)
I1118 18:09:43.678715  2303 net.cpp:165] Memory required for data: 1604050968
I1118 18:09:43.678717  2303 layer_factory.hpp:77] Creating layer loss1-score
I1118 18:09:43.678738  2303 net.cpp:100] Creating Layer loss1-score
I1118 18:09:43.678741  2303 net.cpp:434] loss1-score <- upscore-dsn1
I1118 18:09:43.678745  2303 net.cpp:434] loss1-score <- label_augmentation_1_split_5
I1118 18:09:43.678748  2303 net.cpp:408] loss1-score -> loss1-score
…
I1118 18:09:43.682839  2303 net.cpp:58] Initializing net from parameters: 
name: "RAS"
state {
  phase: TEST
}
layer {
  name: "data"
  type: "ImageLabelmapData"
  top: "data"
  top: "label"
  include {
    phase: TEST
  }
  transform_param {
    mean_value: 104.00699
    mean_value: 116.66877
    mean_value: 122.67892
  }
  image_data_param {
    source: "/media/compute/homes/galberding/FleckDetect/Datasets/FleckDataSet/val/image_to_label_map.txt"
    batch_size: 1
    new_height: 500
    new_width: 500
    root_folder: "/media/compute/homes/galberding/FleckDetect/Datasets/FleckDataSet/val/"
    normalize: true
  }
}
layer {
  name: "conv1_1"
  type: "Convolution"
  bottom: "data"
  top: "conv1_1"
  param {
    lr_mult: 1
    decay_mult: 1
  }
  param {
    lr_mult: 2
    decay_mult: 0
  }
  convolution_param {
    num_output: 64
    pad: 1
    kernel_size: 3
    engine: CUDNN
  }
}
layer {
  name: "relu1_1"
  type: "ReLU"
  bottom: "conv1_1"
  top: "conv1_1"
}
layer {
  name: "conv1_2"
  type: "Convolution"
  bottom: "conv1_1"
  top: "conv1_2"
  param {
    lr_mult: 1
    decay_mult: 1
  }
  param {
    lr_mult: 2
    decay_mult: 0
  }
  convolution_param {
    num_output: 64
    pad: 1
    kernel_size: 3
    engine: CUDNN
  }
}
layer {
  name: "relu1_2"
  type: "ReLU"
  bottom: "conv1_2"
  top: "conv1_2"
}
layer {
  name: "pool1"
  type: "Pooling"
  bottom: "conv1_2"
  top: "pool1"
  pooling_param {
    pool: MAX
    kernel_size: 2
    stride: 2
  }
}
layer {
  name: "conv2_1"
  type: "Convolution"
  bottom: "pool1"
  top: "conv2_1"
  param {
    lr_mult: 1
    decay_mult: 1
  }
  param {
    lr_mult: 2
    decay_mult: 0
  }
  convolution_param {
    num_output: 128
    pad: 1
    kernel_size: 3
    engine: CUDNN
  }
}
layer {
  name: "relu2_1"
  type: "ReLU"
  bottom: "conv2_1"
  top: "conv2_1"
}
layer {
  name: "conv2_2"
  type: "Convolution"
  bottom: "conv2_1"
  top: "conv2_2"
  param {
    lr_mult: 1
    decay_mult: 1
  }
  param {
    lr_mult: 2
    decay_mult: 0
  }
  convolution_param {
    num_output: 128
    pad: 1
    kernel_size: 3
    engine: CUDNN
  }
}
layer {
  name: "relu2_2"
  type: "ReLU"
  bottom: "conv2_2"
  top: "conv2_2"
}
layer {
  name: "pool2"
  type: "Pooling"
  bottom: "conv2_2"
  top: "pool2"
  pooling_param {
    pool: MAX
    kernel_size: 2
    stride: 2
  }
}
layer {
  name: "conv3_1"
  type: "Convolution"
  bottom: "pool2"
  top: "conv3_1"
  param {
    lr_mult: 1
    decay_mult: 1
  }
  param {
    lr_mult: 2
    decay_mult: 0
  }
  convolution_param {
    num_output: 256
    pad: 1
    kernel_size: 3
    engine: CUDNN
  }
}
layer {
  name: "relu3_1"
  type: "ReLU"
  bottom: "conv3_1"
  top: "conv3_1"
}
layer {
  name: "conv3_2"
  type: "Convolution"
  bottom: "conv3_1"
  top: "conv3_2"
  param {
    lr_mult: 1
    decay_mult: 1
  }
  param {
    lr_mult: 2
    decay_mult: 0
  }
  convolution_param {
    num_output: 256
    pad: 1
    kernel_size: 3
    engine: CUDNN
  }
}
layer {
  name: "relu3_2"
  type: "ReLU"
  bottom: "conv3_2"
  top: "conv3_2"
}
layer {
  name: "conv3_3"
  type: "Convolution"
  bottom: "conv3_2"
  top: "conv3_3"
  param {
    lr_mult: 1
    decay_mult: 1
  }
  param {
    lr_mult: 2
    decay_mult: 0
  }
  convolution_param {
    num_output: 256
    pad: 1
    kernel_size: 3
    engine: CUDNN
  }
}
layer {
  name: "relu3_3"
  type: "ReLU"
  bottom: "conv3_3"
  top: "conv3_3"
}
layer {
  name: "pool3"
  type: "Pooling"
  bottom: "conv3_3"
  top: "pool3"
  pooling_param {
    pool: MAX
    kernel_size: 2
    stride: 2
  }
}
layer {
  name: "conv4_1"
  type: "Convolution"
  bottom: "pool3"
  top: "conv4_1"
  param {
    lr_mult: 1
    decay_mult: 1
  }
  param {
    lr_mult: 2
    decay_mult: 0
  }
  convolution_param {
    num_output: 512
    pad: 1
    kernel_size: 3
    engine: CUDNN
  }
}
layer {
  name: "relu4_1"
  type: "ReLU"
  bottom: "conv4_1"
  top: "conv4_1"
}
layer {
  name: "conv4_2"
  type: "Convolution"
  bottom: "conv4_1"
  top: "conv4_2"
  param {
    lr_mult: 1
    decay_mult: 1
  }
  param {
    lr_mult: 2
    decay_mult: 0
  }
  convolution_param {
    num_output: 512
    pad: 1
    kernel_size: 3
    engine: CUDNN
  }
}
layer {
  name: "relu4_2"
  type: "ReLU"
  bottom: "conv4_2"
  top: "conv4_2"
}
layer {
  name: "conv4_3"
  type: "Convolution"
  bottom: "conv4_2"
  top: "conv4_3"
  param {
    lr_mult: 1
    decay_mult: 1
  }
  param {
    lr_mult: 2
    decay_mult: 0
  }
  convolution_param {
    num_output: 512
    pad: 1
    kernel_size: 3
    engine: CUDNN
  }
}
layer {
  name: "relu4_3"
  type: "ReLU"
  bottom: "conv4_3"
  top: "conv4_3"
}
layer {
  name: "pool4"
  type: "Pooling"
  bottom: "conv4_3"
  top: "pool4"
  pooling_param {
    pool: MAX
    kernel_size: 3
    stride: 2
    pad: 1
  }
}
layer {
  name: "conv5_1"
  type: "Convolution"
  bottom: "pool4"
  top: "conv5_1"
  param {
    lr_mult: 1
    decay_mult: 1
  }
  param {
    lr_mult: 2
    decay_mult: 0
  }
  convolution_param {
    num_output: 512
    pad: 1
    kernel_size: 3
    engine: CUDNN
  }
}
layer {
  name: "relu5_1"
  type: "ReLU"
  bottom: "conv5_1"
  top: "conv5_1"
}
layer {
  name: "conv5_2"
  type: "Convolution"
  bottom: "conv5_1"
  top: "conv5_2"
  param {
    lr_mult: 1
    decay_mult: 1
  }
  param {
    lr_mult: 2
    decay_mult: 0
  }
  convolution_param {
    num_output: 512
    pad: 1
    kernel_size: 3
    engine: CUDNN
  }
}
layer {
  name: "relu5_2"
  type: "ReLU"
  bottom: "conv5_2"
  top: "conv5_2"
}
layer {
  name: "conv5_3"
  type: "Convolution"
  bottom: "conv5_2"
  top: "conv5_3"
  param {
    lr_mult: 1
    decay_mult: 1
  }
  param {
    lr_mult: 2
    decay_mult: 0
  }
  convolution_param {
    num_output: 512
    pad: 1
    kernel_size: 3
    engine: CUDNN
  }
}
layer {
  name: "relu5_3"
  type: "ReLU"
  bottom: "conv5_3"
  top: "conv5_3"
}
layer {
  name: "pool5"
  type: "Pooling"
  bottom: "conv5_3"
  top: "pool5"
  pooling_param {
    pool: MAX
    kernel_size: 3
    stride: 2
    pad: 1
  }
}
layer {
  name: "conv1-dsn6"
  type: "Convolution"
  bottom: "pool5"
  top: "conv1-dsn6"
  param {
    lr_mult: 1
    decay_mult: 1
  }
  param {
    lr_mult: 2
    decay_mult: 0
  }
  convolution_param {
    num_output: 256
    kernel_size: 1
    weight_filler {
      type: "gaussian"
      std: 0.01
    }
    bias_filler {
      type: "constant"
      value: 0
    }
    engine: CUDNN
  }
}
layer {
  name: "conv2-dsn6"
  type: "Convolution"
  bottom: "conv1-dsn6"
  top: "conv2-dsn6"
  param {
    lr_mult: 1
    decay_mult: 1
  }
  param {
    lr_mult: 2
    decay_mult: 0
  }
  convolution_param {
    num_output: 256
    pad: 2
    kernel_size: 5
    weight_filler {
      type: "gaussian"
      std: 0.01
    }
    bias_filler {
      type: "constant"
      value: 0
    }
    engine: CUDNN
  }
}
layer {
  name: "relu1-dsn6"
  type: "ReLU"
  bottom: "conv2-dsn6"
  top: "conv2-dsn6"
}
layer {
  name: "conv3-dsn6"
  type: "Convolution"
  bottom: "conv2-dsn6"
  top: "conv3-dsn6"
  param {
    lr_mult: 1
    decay_mult: 1
  }
  param {
    lr_mult: 2
    decay_mult: 0
  }
  convolution_param {
    num_output: 256
    pad: 2
    kernel_size: 5
    weight_filler {
      type: "gaussian"
      std: 0.01
    }
    bias_filler {
      type: "constant"
      value: 0
    }
    engine: CUDNN
  }
}
layer {
  name: "relu2-dsn6"
  type: "ReLU"
  bottom: "conv3-dsn6"
  top: "conv3-dsn6"
}
layer {
  name: "conv4-dsn6"
  type: "Convolution"
  bottom: "conv3-dsn6"
  top: "conv4-dsn6"
  param {
    lr_mult: 1
    decay_mult: 1
  }
  param {
    lr_mult: 2
    decay_mult: 0
  }
  convolution_param {
    num_output: 256
    pad: 2
    kernel_size: 5
    weight_filler {
      type: "gaussian"
      std: 0.01
    }
    bias_filler {
      type: "constant"
      value: 0
    }
    engine: CUDNN
  }
}
layer {
  name: "relu3-dsn6"
  type: "ReLU"
  bottom: "conv4-dsn6"
  top: "conv4-dsn6"
}
layer {
  name: "conv5-dsn6"
  type: "Convolution"
  bottom: "conv4-dsn6"
  top: "conv5-dsn6"
  param {
    lr_mult: 0.1
    decay_mult: 1
  }
  param {
    lr_mult: 0.2
    decay_mult: 0
  }
  convolution_param {
    num_output: 1
    kernel_size: 1
    weight_filler {
      type: "gaussian"
      std: 0.01
    }
    bias_filler {
      type: "constant"
      value: 0
    }
    engine: CUDNN
  }
}
layer {
  name: "upsample32_dsn6"
  type: "Deconvolution"
  bottom: "conv5-dsn6"
  top: "conv5-dsn6-up"
  param {
    lr_mult: 0
    decay_mult: 1
  }
  param {
    lr_mult: 0
    decay_mult: 0
  }
  convolution_param {
    num_output: 1
    kernel_size: 64
    stride: 32
  }
}
layer {
  name: "crop-dsn6"
  type: "Crop"
  bottom: "conv5-dsn6-up"
  bottom: "data"
  top: "upscore-dsn6"
}
layer {
  name: "loss6-score"
  type: "SigmoidCrossEntropyLoss"
  bottom: "upscore-dsn6"
  bottom: "label"
  top: "loss6-score"
  loss_weight: 1
}
layer {
  name: "upsample2_dsn5"
  type: "Deconvolution"
  bottom: "conv5-dsn6"
  top: "conv5-dsn6-5"
  param {
    lr_mult: 0
    decay_mult: 1
  }
  param {
    lr_mult: 0
    decay_mult: 0
  }
  convolution_param {
    num_output: 1
    kernel_size: 4
    stride: 2
  }
}
layer {
  name: "crop1-dsn5"
  type: "Crop"
  bottom: "conv5-dsn6-5"
  bottom: "conv5_3"
  top: "weight-dsn6-5"
}
layer {
  name: "sigmoid-dsn5"
  type: "Sigmoid"
  bottom: "weight-dsn6-5"
  top: "sigmoid-dsn5"
}
layer {
  name: "rev-dsn5"
  type: "Power"
  bottom: "sigmoid-dsn5"
  top: "rev-dsn5"
  power_param {
    power: 1
    scale: -1
    shift: 1
  }
}
layer {
  name: "tile-dsn5"
  type: "Tile"
  bottom: "rev-dsn5"
  top: "weight-dsn5"
  tile_param {
    tiles: 512
  }
}
layer {
  name: "prod1-dsn5"
  type: "Eltwise"
  bottom: "conv5_3"
  bottom: "weight-dsn5"
  top: "prod1-dsn5"
  eltwise_param {
    operation: PROD
  }
}
layer {
  name: "conv1-dsn5"
  type: "Convolution"
  bottom: "prod1-dsn5"
  top: "conv1-dsn5"
  param {
    lr_mult: 1
    decay_mult: 1
  }
  param {
    lr_mult: 2
    decay_mult: 0
  }
  convolution_param {
    num_output: 64
    kernel_size: 1
    weight_filler {
      type: "gaussian"
      std: 0.01
    }
    bias_filler {
      type: "constant"
      value: 0
    }
    engine: CUDNN
  }
}
layer {
  name: "conv2-dsn5"
  type: "Convolution"
  bottom: "conv1-dsn5"
  top: "conv2-dsn5"
  param {
    lr_mult: 1
    decay_mult: 1
  }
  param {
    lr_mult: 2
    decay_mult: 0
  }
  convolution_param {
    num_output: 64
    pad: 1
    kernel_size: 3
    weight_filler {
      type: "gaussian"
      std: 0.01
    }
    bias_filler {
      type: "constant"
      value: 0
    }
    engine: CUDNN
  }
}
layer {
  name: "relu1-dsn5"
  type: "ReLU"
  bottom: "conv2-dsn5"
  top: "conv2-dsn5"
}
layer {
  name: "conv3-dsn5"
  type: "Convolution"
  bottom: "conv2-dsn5"
  top: "conv3-dsn5"
  param {
    lr_mult: 1
    decay_mult: 1
  }
  param {
    lr_mult: 2
    decay_mult: 0
  }
  convolution_param {
    num_output: 64
    pad: 1
    kernel_size: 3
    weight_filler {
      type: "gaussian"
      std: 0.01
    }
    bias_filler {
      type: "constant"
      value: 0
    }
    engine: CUDNN
  }
}
layer {
  name: "relu2-dsn5"
  type: "ReLU"
  bottom: "conv3-dsn5"
  top: "conv3-dsn5"
}
layer {
  name: "conv4-dsn5"
  type: "Convolution"
  bottom: "conv3-dsn5"
  top: "conv4-dsn5"
  param {
    lr_mult: 1
    decay_mult: 1
  }
  param {
    lr_mult: 2
    decay_mult: 0
  }
  convolution_param {
    num_output: 1
    pad: 1
    kernel_size: 3
    weight_filler {
      type: "gaussian"
      std: 0.01
    }
    bias_filler {
      type: "constant"
      value: 0
    }
    engine: CUDNN
  }
}
layer {
  name: "sum-dsn5"
  type: "Eltwise"
  bottom: "conv4-dsn5"
  bottom: "weight-dsn6-5"
  top: "sum-dsn5"
  eltwise_param {
    operation: SUM
  }
}
layer {
  name: "upsample16_dsn5"
  type: "Deconvolution"
  bottom: "sum-dsn5"
  top: "sum-dsn5-up"
  param {
    lr_mult: 0
    decay_mult: 1
  }
  param {
    lr_mult: 0
    decay_mult: 0
  }
  convolution_param {
    num_output: 1
    kernel_size: 32
    stride: 16
  }
}
layer {
  name: "crop2-dsn5"
  type: "Crop"
  bottom: "sum-dsn5-up"
  bottom: "data"
  top: "upscore-dsn5"
}
layer {
  name: "loss5-score"
  type: "SigmoidCrossEntropyLoss"
  bottom: "upscore-dsn5"
  bottom: "label"
  top: "loss5-score"
  loss_weight: 1
}
layer {
  name: "upsample2_dsn4"
  type: "Deconvolution"
  bottom: "sum-dsn5"
  top: "sum-dsn5-4"
  param {
    lr_mult: 0
    decay_mult: 1
  }
  param {
    lr_mult: 0
    decay_mult: 0
  }
  convolution_param {
    num_output: 1
    kernel_size: 4
    stride: 2
  }
}
layer {
  name: "crop1-dsn4"
  type: "Crop"
  bottom: "sum-dsn5-4"
  bottom: "conv4_3"
  top: "weight-dsn5-4"
}
layer {
  name: "sigmoid-dsn4"
  type: "Sigmoid"
  bottom: "weight-dsn5-4"
  top: "sigmoid-dsn4"
}
layer {
  name: "rev-dsn4"
  type: "Power"
  bottom: "sigmoid-dsn4"
  top: "rev-dsn4"
  power_param {
    power: 1
    scale: -1
    shift: 1
  }
}
layer {
  name: "tile-dsn4"
  type: "Tile"
  bottom: "rev-dsn4"
  top: "weight-dsn4"
  tile_param {
    tiles: 512
  }
}
layer {
  name: "prod1-dsn4"
  type: "Eltwise"
  bottom: "conv4_3"
  bottom: "weight-dsn4"
  top: "prod1-dsn4"
  eltwise_param {
    operation: PROD
  }
}
layer {
  name: "conv1-dsn4"
  type: "Convolution"
  bottom: "prod1-dsn4"
  top: "conv1-dsn4"
  param {
    lr_mult: 1
    decay_mult: 1
  }
  param {
    lr_mult: 2
    decay_mult: 0
  }
  convolution_param {
    num_output: 64
    kernel_size: 1
    weight_filler {
      type: "gaussian"
      std: 0.01
    }
    bias_filler {
      type: "constant"
      value: 0
    }
    engine: CUDNN
  }
}
layer {
  name: "conv2-dsn4"
  type: "Convolution"
  bottom: "conv1-dsn4"
  top: "conv2-dsn4"
  param {
    lr_mult: 1
    decay_mult: 1
  }
  param {
    lr_mult: 2
    decay_mult: 0
  }
  convolution_param {
    num_output: 64
    pad: 1
    kernel_size: 3
    weight_filler {
      type: "gaussian"
      std: 0.01
    }
    bias_filler {
      type: "constant"
      value: 0
    }
    engine: CUDNN
  }
}
layer {
  name: "relu1-dsn4"
  type: "ReLU"
  bottom: "conv2-dsn4"
  top: "conv2-dsn4"
}
layer {
  name: "conv3-dsn4"
  type: "Convolution"
  bottom: "conv2-dsn4"
  top: "conv3-dsn4"
  param {
    lr_mult: 1
    decay_mult: 1
  }
  param {
    lr_mult: 2
    decay_mult: 0
  }
  convolution_param {
    num_output: 64
    pad: 1
    kernel_size: 3
    weight_filler {
      type: "gaussian"
      std: 0.01
    }
    bias_filler {
      type: "constant"
      value: 0
    }
    engine: CUDNN
  }
}
layer {
  name: "relu2-dsn4"
  type: "ReLU"
  bottom: "conv3-dsn4"
  top: "conv3-dsn4"
}
layer {
  name: "conv4-dsn4"
  type: "Convolution"
  bottom: "conv3-dsn4"
  top: "conv4-dsn4"
  param {
    lr_mult: 1
    decay_mult: 1
  }
  param {
    lr_mult: 2
    decay_mult: 0
  }
  convolution_param {
    num_output: 1
    pad: 1
    kernel_size: 3
    weight_filler {
      type: "gaussian"
      std: 0.01
    }
    bias_filler {
      type: "constant"
      value: 0
    }
    engine: CUDNN
  }
}
layer {
  name: "sum-dsn4"
  type: "Eltwise"
  bottom: "conv4-dsn4"
  bottom: "weight-dsn5-4"
  top: "sum-dsn4"
  eltwise_param {
    operation: SUM
  }
}
layer {
  name: "upsample8_dsn4"
  type: "Deconvolution"
  bottom: "sum-dsn4"
  top: "sum-dsn4-up"
  param {
    lr_mult: 0
    decay_mult: 1
  }
  param {
    lr_mult: 0
    decay_mult: 0
  }
  convolution_param {
    num_output: 1
    kernel_size: 16
    stride: 8
  }
}
layer {
  name: "crop2-dsn4"
  type: "Crop"
  bottom: "sum-dsn4-up"
  bottom: "data"
  top: "upscore-dsn4"
}
layer {
  name: "loss4-score"
  type: "SigmoidCrossEntropyLoss"
  bottom: "upscore-dsn4"
  bottom: "label"
  top: "loss4-score"
  loss_weight: 1
}
layer {
  name: "upsample2_dsn3"
  type: "Deconvolution"
  bottom: "sum-dsn4"
  top: "sum-dsn4-3"
  param {
    lr_mult: 0
    decay_mult: 1
  }
  param {
    lr_mult: 0
    decay_mult: 0
  }
  convolution_param {
    num_output: 1
    kernel_size: 4
    stride: 2
  }
}
layer {
  name: "crop1-dsn3"
  type: "Crop"
  bottom: "sum-dsn4-3"
  bottom: "conv3_3"
  top: "weight-dsn4-3"
}
layer {
  name: "sigmoid-dsn3"
  type: "Sigmoid"
  bottom: "weight-dsn4-3"
  top: "sigmoid-dsn3"
}
layer {
  name: "rev-dsn3"
  type: "Power"
  bottom: "sigmoid-dsn3"
  top: "rev-dsn3"
  power_param {
    power: 1
    scale: -1
    shift: 1
  }
}
layer {
  name: "tile-dsn3"
  type: "Tile"
  bottom: "rev-dsn3"
  top: "weight-dsn3"
  tile_param {
    tiles: 256
  }
}
layer {
  name: "prod1-dsn3"
  type: "Eltwise"
  bottom: "conv3_3"
  bottom: "weight-dsn3"
  top: "prod1-dsn3"
  eltwise_param {
    operation: PROD
  }
}
layer {
  name: "conv1-dsn3"
  type: "Convolution"
  bottom: "prod1-dsn3"
  top: "conv1-dsn3"
  param {
    lr_mult: 1
    decay_mult: 1
  }
  param {
    lr_mult: 2
    decay_mult: 0
  }
  convolution_param {
    num_output: 64
    kernel_size: 1
    weight_filler {
      type: "gaussian"
      std: 0.01
    }
    bias_filler {
      type: "constant"
      value: 0
    }
    engine: CUDNN
  }
}
layer {
  name: "conv2-dsn3"
  type: "Convolution"
  bottom: "conv1-dsn3"
  top: "conv2-dsn3"
  param {
    lr_mult: 1
    decay_mult: 1
  }
  param {
    lr_mult: 2
    decay_mult: 0
  }
  convolution_param {
    num_output: 64
    pad: 1
    kernel_size: 3
    weight_filler {
      type: "gaussian"
      std: 0.01
    }
    bias_filler {
      type: "constant"
      value: 0
    }
    engine: CUDNN
  }
}
layer {
  name: "relu1-dsn3"
  type: "ReLU"
  bottom: "conv2-dsn3"
  top: "conv2-dsn3"
}
layer {
  name: "conv3-dsn3"
  type: "Convolution"
  bottom: "conv2-dsn3"
  top: "conv3-dsn3"
  param {
    lr_mult: 1
    decay_mult: 1
  }
  param {
    lr_mult: 2
    decay_mult: 0
  }
  convolution_param {
    num_output: 64
    pad: 1
    kernel_size: 3
    weight_filler {
      type: "gaussian"
      std: 0.01
    }
    bias_filler {
      type: "constant"
      value: 0
    }
    engine: CUDNN
  }
}
layer {
  name: "relu2-dsn3"
  type: "ReLU"
  bottom: "conv3-dsn3"
  top: "conv3-dsn3"
}
layer {
  name: "conv4-dsn3"
  type: "Convolution"
  bottom: "conv3-dsn3"
  top: "conv4-dsn3"
  param {
    lr_mult: 1
    decay_mult: 1
  }
  param {
    lr_mult: 2
    decay_mult: 0
  }
  convolution_param {
    num_output: 1
    pad: 1
    kernel_size: 3
    weight_filler {
      type: "gaussian"
      std: 0.01
    }
    bias_filler {
      type: "constant"
      value: 0
    }
    engine: CUDNN
  }
}
layer {
  name: "sum-dsn3"
  type: "Eltwise"
  bottom: "conv4-dsn3"
  bottom: "weight-dsn4-3"
  top: "sum-dsn3"
  eltwise_param {
    operation: SUM
  }
}
layer {
  name: "upsample4_dsn3"
  type: "Deconvolution"
  bottom: "sum-dsn3"
  top: "sum-dsn3-up"
  param {
    lr_mult: 0
    decay_mult: 1
  }
  param {
    lr_mult: 0
    decay_mult: 0
  }
  convolution_param {
    num_output: 1
    kernel_size: 8
    stride: 4
  }
}
layer {
  name: "crop2-dsn3"
  type: "Crop"
  bottom: "sum-dsn3-up"
  bottom: "data"
  top: "upscore-dsn3"
}
layer {
  name: "loss3-score"
  type: "SigmoidCrossEntropyLoss"
  bottom: "upscore-dsn3"
  bottom: "label"
  top: "loss3-score"
  loss_weight: 1
}
layer {
  name: "upsample2_1-dsn2"
  type: "Deconvolution"
  bottom: "sum-dsn3"
  top: "sum-dsn3-2"
  param {
    lr_mult: 0
    decay_mult: 1
  }
  param {
    lr_mult: 0
    decay_mult: 0
  }
  convolution_param {
    num_output: 1
    kernel_size: 4
    stride: 2
  }
}
layer {
  name: "crop1-dsn2"
  type: "Crop"
  bottom: "sum-dsn3-2"
  bottom: "conv2_2"
  top: "weight-dsn3-2"
}
layer {
  name: "sigmoid-dsn2"
  type: "Sigmoid"
  bottom: "weight-dsn3-2"
  top: "sigmoid-dsn2"
}
layer {
  name: "rev-dsn2"
  type: "Power"
  bottom: "sigmoid-dsn2"
  top: "rev-dsn2"
  power_param {
    power: 1
    scale: -1
    shift: 1
  }
}
layer {
  name: "tile-dsn2"
  type: "Tile"
  bottom: "rev-dsn2"
  top: "weight-dsn2"
  tile_param {
    tiles: 128
  }
}
layer {
  name: "prod1-dsn2"
  type: "Eltwise"
  bottom: "conv2_2"
  bottom: "weight-dsn2"
  top: "prod1-dsn2"
  eltwise_param {
    operation: PROD
  }
}
layer {
  name: "conv1-dsn2"
  type: "Convolution"
  bottom: "prod1-dsn2"
  top: "conv1-dsn2"
  param {
    lr_mult: 1
    decay_mult: 1
  }
  param {
    lr_mult: 2
    decay_mult: 0
  }
  convolution_param {
    num_output: 64
    kernel_size: 1
    weight_filler {
      type: "gaussian"
      std: 0.01
    }
    bias_filler {
      type: "constant"
      value: 0
    }
    engine: CUDNN
  }
}
layer {
  name: "conv2-dsn2"
  type: "Convolution"
  bottom: "conv1-dsn2"
  top: "conv2-dsn2"
  param {
    lr_mult: 1
    decay_mult: 1
  }
  param {
    lr_mult: 2
    decay_mult: 0
  }
  convolution_param {
    num_output: 64
    pad: 1
    kernel_size: 3
    weight_filler {
      type: "gaussian"
      std: 0.01
    }
    bias_filler {
      type: "constant"
      value: 0
    }
    engine: CUDNN
  }
}
layer {
  name: "relu1-dsn2"
  type: "ReLU"
  bottom: "conv2-dsn2"
  top: "conv2-dsn2"
}
layer {
  name: "conv3-dsn2"
  type: "Convolution"
  bottom: "conv2-dsn2"
  top: "conv3-dsn2"
  param {
    lr_mult: 1
    decay_mult: 1
  }
  param {
    lr_mult: 2
    decay_mult: 0
  }
  convolution_param {
    num_output: 64
    pad: 1
    kernel_size: 3
    weight_filler {
      type: "gaussian"
      std: 0.01
    }
    bias_filler {
      type: "constant"
      value: 0
    }
    engine: CUDNN
  }
}
layer {
  name: "relu2-dsn2"
  type: "ReLU"
  bottom: "conv3-dsn2"
  top: "conv3-dsn2"
}
layer {
  name: "conv4-dsn2"
  type: "Convolution"
  bottom: "conv3-dsn2"
  top: "conv4-dsn2"
  param {
    lr_mult: 1
    decay_mult: 1
  }
  param {
    lr_mult: 2
    decay_mult: 0
  }
  convolution_param {
    num_output: 1
    pad: 1
    kernel_size: 3
    weight_filler {
      type: "gaussian"
      std: 0.01
    }
    bias_filler {
      type: "constant"
      value: 0
    }
    engine: CUDNN
  }
}
layer {
  name: "sum-dsn2"
  type: "Eltwise"
  bottom: "conv4-dsn2"
  bottom: "weight-dsn3-2"
  top: "sum-dsn2"
  eltwise_param {
    operation: SUM
  }
}
layer {
  name: "upsample2_2-dsn2"
  type: "Deconvolution"
  bottom: "sum-dsn2"
  top: "sum-dsn2-up"
  param {
    lr_mult: 0
    decay_mult: 1
  }
  param {
    lr_mult: 0
    decay_mult: 0
  }
  convolution_param {
    num_output: 1
    kernel_size: 4
    stride: 2
  }
}
layer {
  name: "crop2-dsn2"
  type: "Crop"
  bottom: "sum-dsn2-up"
  bottom: "data"
  top: "upscore-dsn2"
}
layer {
  name: "loss2-score"
  type: "SigmoidCrossEntropyLoss"
  bottom: "upscore-dsn2"
  bottom: "label"
  top: "loss2-score"
  loss_weight: 1
}
layer {
  name: "sigmoid-dsn1"
  type: "Sigmoid"
  bottom: "upscore-dsn2"
  top: "sigmoid-dsn1"
}
layer {
  name: "rev-dsn1"
  type: "Power"
  bottom: "sigmoid-dsn1"
  top: "rev-dsn1"
  power_param {
    power: 1
    scale: -1
    shift: 1
  }
}
layer {
  name: "tile-dsn1"
  type: "Tile"
  bottom: "rev-dsn1"
  top: "weight-dsn1"
  tile_param {
    tiles: 64
  }
}
layer {
  name: "prod1-dsn1"
  type: "Eltwise"
  bottom: "conv1_2"
  bottom: "weight-dsn1"
  top: "prod1-dsn1"
  eltwise_param {
    operation: PROD
  }
}
layer {
  name: "conv1-dsn1"
  type: "Convolution"
  bottom: "prod1-dsn1"
  top: "conv1-dsn1"
  param {
    lr_mult: 1
    decay_mult: 1
  }
  param {
    lr_mult: 2
    decay_mult: 0
  }
  convolution_param {
    num_output: 64
    kernel_size: 1
    weight_filler {
      type: "gaussian"
      std: 0.01
    }
    bias_filler {
      type: "constant"
      value: 0
    }
    engine: CUDNN
  }
}
layer {
  name: "conv2-dsn1"
  type: "Convolution"
  bottom: "conv1-dsn1"
  top: "conv2-dsn1"
  param {
    lr_mult: 1
    decay_mult: 1
  }
  param {
    lr_mult: 2
    decay_mult: 0
  }
  convolution_param {
    num_output: 64
    pad: 1
    kernel_size: 3
    weight_filler {
      type: "gaussian"
      std: 0.01
    }
    bias_filler {
      type: "constant"
      value: 0
    }
    engine: CUDNN
  }
}
layer {
  name: "relu1-dsn1"
  type: "ReLU"
  bottom: "conv2-dsn1"
  top: "conv2-dsn1"
}
layer {
  name: "conv3-dsn1"
  type: "Convolution"
  bottom: "conv2-dsn1"
  top: "conv3-dsn1"
  param {
    lr_mult: 1
    decay_mult: 1
  }
  param {
    lr_mult: 2
    decay_mult: 0
  }
  convolution_param {
    num_output: 64
    pad: 1
    kernel_size: 3
    weight_filler {
      type: "gaussian"
      std: 0.01
    }
    bias_filler {
      type: "constant"
      value: 0
    }
    engine: CUDNN
  }
}
layer {
  name: "relu2-dsn1"
  type: "ReLU"
  bottom: "conv3-dsn1"
  top: "conv3-dsn1"
}
layer {
  name: "conv4-dsn1"
  type: "Convolution"
  bottom: "conv3-dsn1"
  top: "conv4-dsn1"
  param {
    lr_mult: 1
    decay_mult: 1
  }
  param {
    lr_mult: 2
    decay_mult: 0
  }
  convolution_param {
    num_output: 1
    pad: 1
    kernel_size: 3
    weight_filler {
      type: "gaussian"
      std: 0.01
    }
    bias_filler {
      type: "constant"
      value: 0
    }
    engine: CUDNN
  }
}
layer {
  name: "sum-dsn1"
  type: "Eltwise"
  bottom: "conv4-dsn1"
  bottom: "upscore-dsn2"
  top: "sum-dsn1"
  eltwise_param {
    operation: SUM
  }
}
layer {
  name: "crop2-dsn1"
  type: "Crop"
  bottom: "sum-dsn1"
  bottom: "data"
  top: "upscore-dsn1"
}
layer {
  name: "loss1-score"
  type: "SigmoidCrossEntropyLoss"
  bottom: "upscore-dsn1"
  bottom: "label"
  top: "loss1-score"
  loss_weight: 1
}
I1118 18:09:43.683226  2303 layer_factory.hpp:77] Creating layer data
I1118 18:09:43.683239  2303 net.cpp:100] Creating Layer data
I1118 18:09:43.683243  2303 net.cpp:408] data -> data
I1118 18:09:43.683250  2303 net.cpp:408] data -> label
I1118 18:09:43.683259  2303 image_labelmap_data_layer.cpp:41] Opening file /media/compute/homes/galberding/FleckDetect/Datasets/FleckDataSet/val/image_to_label_map.txt
I1118 18:09:43.687458  2303 image_labelmap_data_layer.cpp:56] A total of 54 images.
I1118 18:09:43.759519  2303 image_labelmap_data_layer.cpp:110] output data size: 1,3,500,500
I1118 18:09:43.759541  2303 image_labelmap_data_layer.cpp:113] output label size: 1,1,500,500
I1118 18:09:43.767663  2303 net.cpp:150] Setting up data
I1118 18:09:43.767681  2303 net.cpp:157] Top shape: 1 3 500 500 (750000)
I1118 18:09:43.767685  2303 net.cpp:157] Top shape: 1 1 500 500 (250000)
I1118 18:09:43.767688  2303 net.cpp:165] Memory required for data: 4000000
I1118 18:09:43.767699  2303 layer_factory.hpp:77] Creating layer data_data_0_split
I1118 18:09:43.767740  2303 net.cpp:100] Creating Layer data_data_0_split
I1118 18:09:43.767743  2303 net.cpp:434] data_data_0_split <- data
I1118 18:09:43.767760  2303 net.cpp:408] data_data_0_split -> data_data_0_split_0
I1118 18:09:43.767771  2303 net.cpp:408] data_data_0_split -> data_data_0_split_1
I1118 18:09:43.767776  2303 net.cpp:408] data_data_0_split -> data_data_0_split_2
I1118 18:09:43.767798  2303 net.cpp:408] data_data_0_split -> data_data_0_split_3
I1118 18:09:43.767803  2303 net.cpp:408] data_data_0_split -> data_data_0_split_4
I1118 18:09:43.767807  2303 net.cpp:408] data_data_0_split -> data_data_0_split_5
I1118 18:09:43.767812  2303 net.cpp:408] data_data_0_split -> data_data_0_split_6
I1118 18:09:43.767923  2303 net.cpp:150] Setting up data_data_0_split
I1118 18:09:43.767930  2303 net.cpp:157] Top shape: 1 3 500 500 (750000)
I1118 18:09:43.767949  2303 net.cpp:157] Top shape: 1 3 500 500 (750000)
I1118 18:09:43.767952  2303 net.cpp:157] Top shape: 1 3 500 500 (750000)
I1118 18:09:43.767956  2303 net.cpp:157] Top shape: 1 3 500 500 (750000)
I1118 18:09:43.767959  2303 net.cpp:157] Top shape: 1 3 500 500 (750000)
I1118 18:09:43.767962  2303 net.cpp:157] Top shape: 1 3 500 500 (750000)
I1118 18:09:43.767966  2303 net.cpp:157] Top shape: 1 3 500 500 (750000)
I1118 18:09:43.767967  2303 net.cpp:165] Memory required for data: 25000000
I1118 18:09:43.767971  2303 layer_factory.hpp:77] Creating layer label_data_1_split
I1118 18:09:43.767978  2303 net.cpp:100] Creating Layer label_data_1_split
I1118 18:09:43.767982  2303 net.cpp:434] label_data_1_split <- label
I1118 18:09:43.767987  2303 net.cpp:408] label_data_1_split -> label_data_1_split_0
I1118 18:09:43.767992  2303 net.cpp:408] label_data_1_split -> label_data_1_split_1
I1118 18:09:43.767997  2303 net.cpp:408] label_data_1_split -> label_data_1_split_2
I1118 18:09:43.768002  2303 net.cpp:408] label_data_1_split -> label_data_1_split_3
I1118 18:09:43.768007  2303 net.cpp:408] label_data_1_split -> label_data_1_split_4
I1118 18:09:43.768012  2303 net.cpp:408] label_data_1_split -> label_data_1_split_5
I1118 18:09:43.768101  2303 net.cpp:150] Setting up label_data_1_split
I1118 18:09:43.768107  2303 net.cpp:157] Top shape: 1 1 500 500 (250000)
I1118 18:09:43.768110  2303 net.cpp:157] Top shape: 1 1 500 500 (250000)
I1118 18:09:43.768113  2303 net.cpp:157] Top shape: 1 1 500 500 (250000)
I1118 18:09:43.768116  2303 net.cpp:157] Top shape: 1 1 500 500 (250000)
I1118 18:09:43.768119  2303 net.cpp:157] Top shape: 1 1 500 500 (250000)
I1118 18:09:43.768123  2303 net.cpp:157] Top shape: 1 1 500 500 (250000)
I1118 18:09:43.768126  2303 net.cpp:165] Memory required for data: 31000000
I1118 18:09:43.768128  2303 layer_factory.hpp:77] Creating layer conv1_1
I1118 18:09:43.768143  2303 net.cpp:100] Creating Layer conv1_1
I1118 18:09:43.768146  2303 net.cpp:434] conv1_1 <- data_data_0_split_0
I1118 18:09:43.768151  2303 net.cpp:408] conv1_1 -> conv1_1
I1118 18:09:43.769182  2303 net.cpp:150] Setting up conv1_1
I1118 18:09:43.769193  2303 net.cpp:157] Top shape: 1 64 500 500 (16000000)
I1118 18:09:43.769212  2303 net.cpp:165] Memory required for data: 95000000
I1118 18:09:43.769225  2303 layer_factory.hpp:77] Creating layer relu1_1
I1118 18:09:43.769234  2303 net.cpp:100] Creating Layer relu1_1
I1118 18:09:43.769237  2303 net.cpp:434] relu1_1 <- conv1_1
I1118 18:09:43.769243  2303 net.cpp:395] relu1_1 -> conv1_1 (in-place)
I1118 18:09:43.769451  2303 net.cpp:150] Setting up relu1_1
I1118 18:09:43.769462  2303 net.cpp:157] Top shape: 1 64 500 500 (16000000)
I1118 18:09:43.769464  2303 net.cpp:165] Memory required for data: 159000000
I1118 18:09:43.769467  2303 layer_factory.hpp:77] Creating layer conv1_2
I1118 18:09:43.769479  2303 net.cpp:100] Creating Layer conv1_2
I1118 18:09:43.769481  2303 net.cpp:434] conv1_2 <- conv1_1
I1118 18:09:43.769486  2303 net.cpp:408] conv1_2 -> conv1_2
I1118 18:09:43.771131  2303 net.cpp:150] Setting up conv1_2
I1118 18:09:43.771158  2303 net.cpp:157] Top shape: 1 64 500 500 (16000000)
I1118 18:09:43.771162  2303 net.cpp:165] Memory required for data: 223000000
I1118 18:09:43.771169  2303 layer_factory.hpp:77] Creating layer relu1_2
I1118 18:09:43.771174  2303 net.cpp:100] Creating Layer relu1_2
I1118 18:09:43.771178  2303 net.cpp:434] relu1_2 <- conv1_2
I1118 18:09:43.771184  2303 net.cpp:395] relu1_2 -> conv1_2 (in-place)
I1118 18:09:43.771273  2303 net.cpp:150] Setting up relu1_2
I1118 18:09:43.771281  2303 net.cpp:157] Top shape: 1 64 500 500 (16000000)
I1118 18:09:43.771283  2303 net.cpp:165] Memory required for data: 287000000
I1118 18:09:43.771286  2303 layer_factory.hpp:77] Creating layer conv1_2_relu1_2_0_split
I1118 18:09:43.771291  2303 net.cpp:100] Creating Layer conv1_2_relu1_2_0_split
I1118 18:09:43.771294  2303 net.cpp:434] conv1_2_relu1_2_0_split <- conv1_2
I1118 18:09:43.771306  2303 net.cpp:408] conv1_2_relu1_2_0_split -> conv1_2_relu1_2_0_split_0
I1118 18:09:43.771315  2303 net.cpp:408] conv1_2_relu1_2_0_split -> conv1_2_relu1_2_0_split_1
I1118 18:09:43.771358  2303 net.cpp:150] Setting up conv1_2_relu1_2_0_split
I1118 18:09:43.771365  2303 net.cpp:157] Top shape: 1 64 500 500 (16000000)
I1118 18:09:43.771370  2303 net.cpp:157] Top shape: 1 64 500 500 (16000000)
I1118 18:09:43.771374  2303 net.cpp:165] Memory required for data: 415000000
I1118 18:09:43.771379  2303 layer_factory.hpp:77] Creating layer pool1
I1118 18:09:43.771389  2303 net.cpp:100] Creating Layer pool1
I1118 18:09:43.771391  2303 net.cpp:434] pool1 <- conv1_2_relu1_2_0_split_0
I1118 18:09:43.771399  2303 net.cpp:408] pool1 -> pool1
I1118 18:09:43.771430  2303 net.cpp:150] Setting up pool1
I1118 18:09:43.771435  2303 net.cpp:157] Top shape: 1 64 250 250 (4000000)
I1118 18:09:43.771437  2303 net.cpp:165] Memory required for data: 431000000
I1118 18:09:43.771440  2303 layer_factory.hpp:77] Creating layer conv2_1
I1118 18:09:43.771447  2303 net.cpp:100] Creating Layer conv2_1
I1118 18:09:43.771450  2303 net.cpp:434] conv2_1 <- pool1
I1118 18:09:43.771454  2303 net.cpp:408] conv2_1 -> conv2_1
I1118 18:09:43.772166  2303 net.cpp:150] Setting up conv2_1
I1118 18:09:43.772176  2303 net.cpp:157] Top shape: 1 128 250 250 (8000000)
I1118 18:09:43.772179  2303 net.cpp:165] Memory required for data: 463000000
I1118 18:09:43.772187  2303 layer_factory.hpp:77] Creating layer relu2_1
I1118 18:09:43.772193  2303 net.cpp:100] Creating Layer relu2_1
I1118 18:09:43.772197  2303 net.cpp:434] relu2_1 <- conv2_1
I1118 18:09:43.772203  2303 net.cpp:395] relu2_1 -> conv2_1 (in-place)
I1118 18:09:43.772305  2303 net.cpp:150] Setting up relu2_1
I1118 18:09:43.772312  2303 net.cpp:157] Top shape: 1 128 250 250 (8000000)
I1118 18:09:43.772315  2303 net.cpp:165] Memory required for data: 495000000
I1118 18:09:43.772317  2303 layer_factory.hpp:77] Creating layer conv2_2
I1118 18:09:43.772325  2303 net.cpp:100] Creating Layer conv2_2
I1118 18:09:43.772330  2303 net.cpp:434] conv2_2 <- conv2_1
I1118 18:09:43.772334  2303 net.cpp:408] conv2_2 -> conv2_2
I1118 18:09:43.775132  2303 net.cpp:150] Setting up conv2_2
I1118 18:09:43.775143  2303 net.cpp:157] Top shape: 1 128 250 250 (8000000)
I1118 18:09:43.775162  2303 net.cpp:165] Memory required for data: 527000000
I1118 18:09:43.775167  2303 layer_factory.hpp:77] Creating layer relu2_2
I1118 18:09:43.775173  2303 net.cpp:100] Creating Layer relu2_2
I1118 18:09:43.775177  2303 net.cpp:434] relu2_2 <- conv2_2
I1118 18:09:43.775182  2303 net.cpp:395] relu2_2 -> conv2_2 (in-place)
I1118 18:09:43.775262  2303 net.cpp:150] Setting up relu2_2
I1118 18:09:43.775270  2303 net.cpp:157] Top shape: 1 128 250 250 (8000000)
I1118 18:09:43.775272  2303 net.cpp:165] Memory required for data: 559000000
I1118 18:09:43.775275  2303 layer_factory.hpp:77] Creating layer conv2_2_relu2_2_0_split
I1118 18:09:43.775280  2303 net.cpp:100] Creating Layer conv2_2_relu2_2_0_split
I1118 18:09:43.775283  2303 net.cpp:434] conv2_2_relu2_2_0_split <- conv2_2
I1118 18:09:43.775288  2303 net.cpp:408] conv2_2_relu2_2_0_split -> conv2_2_relu2_2_0_split_0
I1118 18:09:43.775295  2303 net.cpp:408] conv2_2_relu2_2_0_split -> conv2_2_relu2_2_0_split_1
I1118 18:09:43.775305  2303 net.cpp:408] conv2_2_relu2_2_0_split -> conv2_2_relu2_2_0_split_2
I1118 18:09:43.775374  2303 net.cpp:150] Setting up conv2_2_relu2_2_0_split
I1118 18:09:43.775380  2303 net.cpp:157] Top shape: 1 128 250 250 (8000000)
I1118 18:09:43.775383  2303 net.cpp:157] Top shape: 1 128 250 250 (8000000)
I1118 18:09:43.775386  2303 net.cpp:157] Top shape: 1 128 250 250 (8000000)
I1118 18:09:43.775388  2303 net.cpp:165] Memory required for data: 655000000
I1118 18:09:43.775391  2303 layer_factory.hpp:77] Creating layer pool2
I1118 18:09:43.775398  2303 net.cpp:100] Creating Layer pool2
I1118 18:09:43.775400  2303 net.cpp:434] pool2 <- conv2_2_relu2_2_0_split_0
I1118 18:09:43.775405  2303 net.cpp:408] pool2 -> pool2
I1118 18:09:43.775434  2303 net.cpp:150] Setting up pool2
I1118 18:09:43.775439  2303 net.cpp:157] Top shape: 1 128 125 125 (2000000)
I1118 18:09:43.775442  2303 net.cpp:165] Memory required for data: 663000000
I1118 18:09:43.775446  2303 layer_factory.hpp:77] Creating layer conv3_1
I1118 18:09:43.775454  2303 net.cpp:100] Creating Layer conv3_1
I1118 18:09:43.775456  2303 net.cpp:434] conv3_1 <- pool2
I1118 18:09:43.775461  2303 net.cpp:408] conv3_1 -> conv3_1
I1118 18:09:43.776435  2303 net.cpp:150] Setting up conv3_1
I1118 18:09:43.776446  2303 net.cpp:157] Top shape: 1 256 125 125 (4000000)
I1118 18:09:43.776449  2303 net.cpp:165] Memory required for data: 679000000
I1118 18:09:43.776458  2303 layer_factory.hpp:77] Creating layer relu3_1
I1118 18:09:43.776464  2303 net.cpp:100] Creating Layer relu3_1
I1118 18:09:43.776468  2303 net.cpp:434] relu3_1 <- conv3_1
I1118 18:09:43.776471  2303 net.cpp:395] relu3_1 -> conv3_1 (in-place)
I1118 18:09:43.776643  2303 net.cpp:150] Setting up relu3_1
I1118 18:09:43.776654  2303 net.cpp:157] Top shape: 1 256 125 125 (4000000)
I1118 18:09:43.776655  2303 net.cpp:165] Memory required for data: 695000000
I1118 18:09:43.776659  2303 layer_factory.hpp:77] Creating layer conv3_2
I1118 18:09:43.776684  2303 net.cpp:100] Creating Layer conv3_2
I1118 18:09:43.776688  2303 net.cpp:434] conv3_2 <- conv3_1
I1118 18:09:43.776693  2303 net.cpp:408] conv3_2 -> conv3_2
I1118 18:09:43.778447  2303 net.cpp:150] Setting up conv3_2
I1118 18:09:43.778458  2303 net.cpp:157] Top shape: 1 256 125 125 (4000000)
I1118 18:09:43.778476  2303 net.cpp:165] Memory required for data: 711000000
I1118 18:09:43.778481  2303 layer_factory.hpp:77] Creating layer relu3_2
I1118 18:09:43.778487  2303 net.cpp:100] Creating Layer relu3_2
I1118 18:09:43.778491  2303 net.cpp:434] relu3_2 <- conv3_2
I1118 18:09:43.778498  2303 net.cpp:395] relu3_2 -> conv3_2 (in-place)
I1118 18:09:43.778658  2303 net.cpp:150] Setting up relu3_2
I1118 18:09:43.778668  2303 net.cpp:157] Top shape: 1 256 125 125 (4000000)
I1118 18:09:43.778671  2303 net.cpp:165] Memory required for data: 727000000
I1118 18:09:43.778690  2303 layer_factory.hpp:77] Creating layer conv3_3
I1118 18:09:43.778698  2303 net.cpp:100] Creating Layer conv3_3
I1118 18:09:43.778702  2303 net.cpp:434] conv3_3 <- conv3_2
I1118 18:09:43.778707  2303 net.cpp:408] conv3_3 -> conv3_3
I1118 18:09:43.780521  2303 net.cpp:150] Setting up conv3_3
I1118 18:09:43.780534  2303 net.cpp:157] Top shape: 1 256 125 125 (4000000)
I1118 18:09:43.780535  2303 net.cpp:165] Memory required for data: 743000000
I1118 18:09:43.780541  2303 layer_factory.hpp:77] Creating layer relu3_3
I1118 18:09:43.780546  2303 net.cpp:100] Creating Layer relu3_3
I1118 18:09:43.780550  2303 net.cpp:434] relu3_3 <- conv3_3
I1118 18:09:43.780557  2303 net.cpp:395] relu3_3 -> conv3_3 (in-place)
I1118 18:09:43.780731  2303 net.cpp:150] Setting up relu3_3
I1118 18:09:43.780741  2303 net.cpp:157] Top shape: 1 256 125 125 (4000000)
I1118 18:09:43.780743  2303 net.cpp:165] Memory required for data: 759000000
I1118 18:09:43.780746  2303 layer_factory.hpp:77] Creating layer conv3_3_relu3_3_0_split
I1118 18:09:43.780753  2303 net.cpp:100] Creating Layer conv3_3_relu3_3_0_split
I1118 18:09:43.780756  2303 net.cpp:434] conv3_3_relu3_3_0_split <- conv3_3
I1118 18:09:43.780762  2303 net.cpp:408] conv3_3_relu3_3_0_split -> conv3_3_relu3_3_0_split_0
I1118 18:09:43.780769  2303 net.cpp:408] conv3_3_relu3_3_0_split -> conv3_3_relu3_3_0_split_1
I1118 18:09:43.780774  2303 net.cpp:408] conv3_3_relu3_3_0_split -> conv3_3_relu3_3_0_split_2
I1118 18:09:43.780817  2303 net.cpp:150] Setting up conv3_3_relu3_3_0_split
I1118 18:09:43.780822  2303 net.cpp:157] Top shape: 1 256 125 125 (4000000)
I1118 18:09:43.780825  2303 net.cpp:157] Top shape: 1 256 125 125 (4000000)
I1118 18:09:43.780828  2303 net.cpp:157] Top shape: 1 256 125 125 (4000000)
I1118 18:09:43.780830  2303 net.cpp:165] Memory required for data: 807000000
I1118 18:09:43.780833  2303 layer_factory.hpp:77] Creating layer pool3
I1118 18:09:43.780839  2303 net.cpp:100] Creating Layer pool3
I1118 18:09:43.780841  2303 net.cpp:434] pool3 <- conv3_3_relu3_3_0_split_0
I1118 18:09:43.780846  2303 net.cpp:408] pool3 -> pool3
I1118 18:09:43.780879  2303 net.cpp:150] Setting up pool3
I1118 18:09:43.780899  2303 net.cpp:157] Top shape: 1 256 63 63 (1016064)
I1118 18:09:43.780901  2303 net.cpp:165] Memory required for data: 811064256
I1118 18:09:43.780903  2303 layer_factory.hpp:77] Creating layer conv4_1
I1118 18:09:43.780910  2303 net.cpp:100] Creating Layer conv4_1
I1118 18:09:43.780913  2303 net.cpp:434] conv4_1 <- pool3
I1118 18:09:43.780917  2303 net.cpp:408] conv4_1 -> conv4_1
I1118 18:09:43.785220  2303 net.cpp:150] Setting up conv4_1
I1118 18:09:43.785231  2303 net.cpp:157] Top shape: 1 512 63 63 (2032128)
I1118 18:09:43.785249  2303 net.cpp:165] Memory required for data: 819192768
I1118 18:09:43.785255  2303 layer_factory.hpp:77] Creating layer relu4_1
I1118 18:09:43.785260  2303 net.cpp:100] Creating Layer relu4_1
I1118 18:09:43.785264  2303 net.cpp:434] relu4_1 <- conv4_1
I1118 18:09:43.785271  2303 net.cpp:395] relu4_1 -> conv4_1 (in-place)
I1118 18:09:43.785370  2303 net.cpp:150] Setting up relu4_1
I1118 18:09:43.785380  2303 net.cpp:157] Top shape: 1 512 63 63 (2032128)
I1118 18:09:43.785383  2303 net.cpp:165] Memory required for data: 827321280
I1118 18:09:43.785388  2303 layer_factory.hpp:77] Creating layer conv4_2
I1118 18:09:43.785395  2303 net.cpp:100] Creating Layer conv4_2
I1118 18:09:43.785398  2303 net.cpp:434] conv4_2 <- conv4_1
I1118 18:09:43.785403  2303 net.cpp:408] conv4_2 -> conv4_2
I1118 18:09:43.791007  2303 net.cpp:150] Setting up conv4_2
I1118 18:09:43.791034  2303 net.cpp:157] Top shape: 1 512 63 63 (2032128)
I1118 18:09:43.791038  2303 net.cpp:165] Memory required for data: 835449792
I1118 18:09:43.791065  2303 layer_factory.hpp:77] Creating layer relu4_2
I1118 18:09:43.791072  2303 net.cpp:100] Creating Layer relu4_2
I1118 18:09:43.791075  2303 net.cpp:434] relu4_2 <- conv4_2
I1118 18:09:43.791080  2303 net.cpp:395] relu4_2 -> conv4_2 (in-place)
I1118 18:09:43.791175  2303 net.cpp:150] Setting up relu4_2
I1118 18:09:43.791183  2303 net.cpp:157] Top shape: 1 512 63 63 (2032128)
I1118 18:09:43.791187  2303 net.cpp:165] Memory required for data: 843578304
I1118 18:09:43.791188  2303 layer_factory.hpp:77] Creating layer conv4_3
I1118 18:09:43.791195  2303 net.cpp:100] Creating Layer conv4_3
I1118 18:09:43.791199  2303 net.cpp:434] conv4_3 <- conv4_2
I1118 18:09:43.791204  2303 net.cpp:408] conv4_3 -> conv4_3
I1118 18:09:43.796279  2303 net.cpp:150] Setting up conv4_3
I1118 18:09:43.796291  2303 net.cpp:157] Top shape: 1 512 63 63 (2032128)
I1118 18:09:43.796294  2303 net.cpp:165] Memory required for data: 851706816
I1118 18:09:43.796303  2303 layer_factory.hpp:77] Creating layer relu4_3
I1118 18:09:43.796309  2303 net.cpp:100] Creating Layer relu4_3
I1118 18:09:43.796311  2303 net.cpp:434] relu4_3 <- conv4_3
I1118 18:09:43.796316  2303 net.cpp:395] relu4_3 -> conv4_3 (in-place)
I1118 18:09:43.796494  2303 net.cpp:150] Setting up relu4_3
I1118 18:09:43.796504  2303 net.cpp:157] Top shape: 1 512 63 63 (2032128)
I1118 18:09:43.796506  2303 net.cpp:165] Memory required for data: 859835328
I1118 18:09:43.796509  2303 layer_factory.hpp:77] Creating layer conv4_3_relu4_3_0_split
I1118 18:09:43.796515  2303 net.cpp:100] Creating Layer conv4_3_relu4_3_0_split
I1118 18:09:43.796519  2303 net.cpp:434] conv4_3_relu4_3_0_split <- conv4_3
I1118 18:09:43.796525  2303 net.cpp:408] conv4_3_relu4_3_0_split -> conv4_3_relu4_3_0_split_0
I1118 18:09:43.796530  2303 net.cpp:408] conv4_3_relu4_3_0_split -> conv4_3_relu4_3_0_split_1
I1118 18:09:43.796535  2303 net.cpp:408] conv4_3_relu4_3_0_split -> conv4_3_relu4_3_0_split_2
I1118 18:09:43.796582  2303 net.cpp:150] Setting up conv4_3_relu4_3_0_split
I1118 18:09:43.796588  2303 net.cpp:157] Top shape: 1 512 63 63 (2032128)
I1118 18:09:43.796591  2303 net.cpp:157] Top shape: 1 512 63 63 (2032128)
I1118 18:09:43.796594  2303 net.cpp:157] Top shape: 1 512 63 63 (2032128)
I1118 18:09:43.796597  2303 net.cpp:165] Memory required for data: 884220864
I1118 18:09:43.796602  2303 layer_factory.hpp:77] Creating layer pool4
I1118 18:09:43.796607  2303 net.cpp:100] Creating Layer pool4
I1118 18:09:43.796610  2303 net.cpp:434] pool4 <- conv4_3_relu4_3_0_split_0
I1118 18:09:43.796615  2303 net.cpp:408] pool4 -> pool4
I1118 18:09:43.796672  2303 net.cpp:150] Setting up pool4
I1118 18:09:43.796679  2303 net.cpp:157] Top shape: 1 512 32 32 (524288)
I1118 18:09:43.796680  2303 net.cpp:165] Memory required for data: 886318016
I1118 18:09:43.796682  2303 layer_factory.hpp:77] Creating layer conv5_1
I1118 18:09:43.796690  2303 net.cpp:100] Creating Layer conv5_1
I1118 18:09:43.796694  2303 net.cpp:434] conv5_1 <- pool4
I1118 18:09:43.796699  2303 net.cpp:408] conv5_1 -> conv5_1
I1118 18:09:43.801714  2303 net.cpp:150] Setting up conv5_1
I1118 18:09:43.801728  2303 net.cpp:157] Top shape: 1 512 32 32 (524288)
I1118 18:09:43.801730  2303 net.cpp:165] Memory required for data: 888415168
I1118 18:09:43.801735  2303 layer_factory.hpp:77] Creating layer relu5_1
I1118 18:09:43.801746  2303 net.cpp:100] Creating Layer relu5_1
I1118 18:09:43.801749  2303 net.cpp:434] relu5_1 <- conv5_1
I1118 18:09:43.801754  2303 net.cpp:395] relu5_1 -> conv5_1 (in-place)
I1118 18:09:43.803148  2303 net.cpp:150] Setting up relu5_1
I1118 18:09:43.803158  2303 net.cpp:157] Top shape: 1 512 32 32 (524288)
I1118 18:09:43.803160  2303 net.cpp:165] Memory required for data: 890512320
I1118 18:09:43.803166  2303 layer_factory.hpp:77] Creating layer conv5_2
I1118 18:09:43.803174  2303 net.cpp:100] Creating Layer conv5_2
I1118 18:09:43.803177  2303 net.cpp:434] conv5_2 <- conv5_1
I1118 18:09:43.803184  2303 net.cpp:408] conv5_2 -> conv5_2
I1118 18:09:43.808137  2303 net.cpp:150] Setting up conv5_2
I1118 18:09:43.808148  2303 net.cpp:157] Top shape: 1 512 32 32 (524288)
I1118 18:09:43.808151  2303 net.cpp:165] Memory required for data: 892609472
I1118 18:09:43.808156  2303 layer_factory.hpp:77] Creating layer relu5_2
I1118 18:09:43.808161  2303 net.cpp:100] Creating Layer relu5_2
I1118 18:09:43.808163  2303 net.cpp:434] relu5_2 <- conv5_2
I1118 18:09:43.808168  2303 net.cpp:395] relu5_2 -> conv5_2 (in-place)
I1118 18:09:43.808337  2303 net.cpp:150] Setting up relu5_2
I1118 18:09:43.808362  2303 net.cpp:157] Top shape: 1 512 32 32 (524288)
I1118 18:09:43.808364  2303 net.cpp:165] Memory required for data: 894706624
I1118 18:09:43.808367  2303 layer_factory.hpp:77] Creating layer conv5_3
I1118 18:09:43.808374  2303 net.cpp:100] Creating Layer conv5_3
I1118 18:09:43.808377  2303 net.cpp:434] conv5_3 <- conv5_2
I1118 18:09:43.808383  2303 net.cpp:408] conv5_3 -> conv5_3
I1118 18:09:43.813485  2303 net.cpp:150] Setting up conv5_3
I1118 18:09:43.813498  2303 net.cpp:157] Top shape: 1 512 32 32 (524288)
I1118 18:09:43.813500  2303 net.cpp:165] Memory required for data: 896803776
I1118 18:09:43.813506  2303 layer_factory.hpp:77] Creating layer relu5_3
I1118 18:09:43.813513  2303 net.cpp:100] Creating Layer relu5_3
I1118 18:09:43.813515  2303 net.cpp:434] relu5_3 <- conv5_3
I1118 18:09:43.813520  2303 net.cpp:395] relu5_3 -> conv5_3 (in-place)
I1118 18:09:43.813582  2303 net.cpp:150] Setting up relu5_3
I1118 18:09:43.813589  2303 net.cpp:157] Top shape: 1 512 32 32 (524288)
I1118 18:09:43.813591  2303 net.cpp:165] Memory required for data: 898900928
I1118 18:09:43.813609  2303 layer_factory.hpp:77] Creating layer conv5_3_relu5_3_0_split
I1118 18:09:43.813616  2303 net.cpp:100] Creating Layer conv5_3_relu5_3_0_split
I1118 18:09:43.813619  2303 net.cpp:434] conv5_3_relu5_3_0_split <- conv5_3
I1118 18:09:43.813624  2303 net.cpp:408] conv5_3_relu5_3_0_split -> conv5_3_relu5_3_0_split_0
I1118 18:09:43.813630  2303 net.cpp:408] conv5_3_relu5_3_0_split -> conv5_3_relu5_3_0_split_1
I1118 18:09:43.813635  2303 net.cpp:408] conv5_3_relu5_3_0_split -> conv5_3_relu5_3_0_split_2
I1118 18:09:43.813669  2303 net.cpp:150] Setting up conv5_3_relu5_3_0_split
I1118 18:09:43.813674  2303 net.cpp:157] Top shape: 1 512 32 32 (524288)
I1118 18:09:43.813678  2303 net.cpp:157] Top shape: 1 512 32 32 (524288)
I1118 18:09:43.813680  2303 net.cpp:157] Top shape: 1 512 32 32 (524288)
I1118 18:09:43.813683  2303 net.cpp:165] Memory required for data: 905192384
I1118 18:09:43.813684  2303 layer_factory.hpp:77] Creating layer pool5
I1118 18:09:43.813707  2303 net.cpp:100] Creating Layer pool5
I1118 18:09:43.813709  2303 net.cpp:434] pool5 <- conv5_3_relu5_3_0_split_0
I1118 18:09:43.813715  2303 net.cpp:408] pool5 -> pool5
I1118 18:09:43.813745  2303 net.cpp:150] Setting up pool5
…
I1118 18:09:43.864161  2303 net.cpp:165] Memory required for data: 907559872
I1118 18:09:43.864174  2303 layer_factory.hpp:77] Creating layer relu3-dsn6
I1118 18:09:43.864179  2303 net.cpp:100] Creating Layer relu3-dsn6
I1118 18:09:43.864182  2303 net.cpp:434] relu3-dsn6 <- conv4-dsn6
I1118 18:09:43.864187  2303 net.cpp:395] relu3-dsn6 -> conv4-dsn6 (in-place)
I1118 18:09:43.864246  2303 net.cpp:150] Setting up relu3-dsn6
I1118 18:09:43.864253  2303 net.cpp:157] Top shape: 1 256 17 17 (73984)
I1118 18:09:43.864270  2303 net.cpp:165] Memory required for data: 907855808
I1118 18:09:43.864274  2303 layer_factory.hpp:77] Creating layer conv5-dsn6
I1118 18:09:43.864281  2303 net.cpp:100] Creating Layer conv5-dsn6
I1118 18:09:43.864284  2303 net.cpp:434] conv5-dsn6 <- conv4-dsn6
I1118 18:09:43.864289  2303 net.cpp:408] conv5-dsn6 -> conv5-dsn6
I1118 18:09:43.864907  2303 net.cpp:150] Setting up conv5-dsn6
I1118 18:09:43.864917  2303 net.cpp:157] Top shape: 1 1 17 17 (289)
I1118 18:09:43.864919  2303 net.cpp:165] Memory required for data: 907856964
I1118 18:09:43.864926  2303 layer_factory.hpp:77] Creating layer conv5-dsn6_conv5-dsn6_0_split
I1118 18:09:43.864933  2303 net.cpp:100] Creating Layer conv5-dsn6_conv5-dsn6_0_split
I1118 18:09:43.864936  2303 net.cpp:434] conv5-dsn6_conv5-dsn6_0_split <- conv5-dsn6
I1118 18:09:43.864941  2303 net.cpp:408] conv5-dsn6_conv5-dsn6_0_split -> conv5-dsn6_conv5-dsn6_0_split_0
I1118 18:09:43.864948  2303 net.cpp:408] conv5-dsn6_conv5-dsn6_0_split -> conv5-dsn6_conv5-dsn6_0_split_1
I1118 18:09:43.864977  2303 net.cpp:150] Setting up conv5-dsn6_conv5-dsn6_0_split
I1118 18:09:43.864981  2303 net.cpp:157] Top shape: 1 1 17 17 (289)
I1118 18:09:43.864984  2303 net.cpp:157] Top shape: 1 1 17 17 (289)
I1118 18:09:43.864985  2303 net.cpp:165] Memory required for data: 907859276
I1118 18:09:43.864987  2303 layer_factory.hpp:77] Creating layer upsample32_dsn6
I1118 18:09:43.864995  2303 net.cpp:100] Creating Layer upsample32_dsn6
I1118 18:09:43.864996  2303 net.cpp:434] upsample32_dsn6 <- conv5-dsn6_conv5-dsn6_0_split_0
I1118 18:09:43.865001  2303 net.cpp:408] upsample32_dsn6 -> conv5-dsn6-up
I1118 18:09:43.865576  2303 net.cpp:150] Setting up upsample32_dsn6
I1118 18:09:43.865582  2303 net.cpp:157] Top shape: 1 1 576 576 (331776)
I1118 18:09:43.865584  2303 net.cpp:165] Memory required for data: 909186380
I1118 18:09:43.865588  2303 layer_factory.hpp:77] Creating layer crop-dsn6
I1118 18:09:43.865592  2303 net.cpp:100] Creating Layer crop-dsn6
I1118 18:09:43.865595  2303 net.cpp:434] crop-dsn6 <- conv5-dsn6-up
I1118 18:09:43.865599  2303 net.cpp:434] crop-dsn6 <- data_data_0_split_1
I1118 18:09:43.865603  2303 net.cpp:408] crop-dsn6 -> upscore-dsn6
I1118 18:09:43.865625  2303 net.cpp:150] Setting up crop-dsn6
I1118 18:09:43.865629  2303 net.cpp:157] Top shape: 1 1 500 500 (250000)
I1118 18:09:43.865631  2303 net.cpp:165] Memory required for data: 910186380
I1118 18:09:43.865633  2303 layer_factory.hpp:77] Creating layer loss6-score
I1118 18:09:43.865640  2303 net.cpp:100] Creating Layer loss6-score
I1118 18:09:43.865643  2303 net.cpp:434] loss6-score <- upscore-dsn6
I1118 18:09:43.865646  2303 net.cpp:434] loss6-score <- label_data_1_split_0
I1118 18:09:43.865651  2303 net.cpp:408] loss6-score -> loss6-score
I1118 18:09:43.866703  2303 net.cpp:150] Setting up loss6-score
I1118 18:09:43.866714  2303 net.cpp:157] Top shape: (1)
I1118 18:09:43.866715  2303 net.cpp:160]     with loss weight 1
I1118 18:09:43.866731  2303 net.cpp:165] Memory required for data: 910186384
I1118 18:09:43.866734  2303 layer_factory.hpp:77] Creating layer upsample2_dsn5
I1118 18:09:43.866741  2303 net.cpp:100] Creating Layer upsample2_dsn5
I1118 18:09:43.866744  2303 net.cpp:434] upsample2_dsn5 <- conv5-dsn6_conv5-dsn6_0_split_1
I1118 18:09:43.866750  2303 net.cpp:408] upsample2_dsn5 -> conv5-dsn6-5
I1118 18:09:43.866961  2303 net.cpp:150] Setting up upsample2_dsn5
I1118 18:09:43.866967  2303 net.cpp:157] Top shape: 1 1 36 36 (1296)
I1118 18:09:43.866969  2303 net.cpp:165] Memory required for data: 910191568
I1118 18:09:43.866991  2303 layer_factory.hpp:77] Creating layer crop1-dsn5
I1118 18:09:43.866995  2303 net.cpp:100] Creating Layer crop1-dsn5
I1118 18:09:43.866998  2303 net.cpp:434] crop1-dsn5 <- conv5-dsn6-5
I1118 18:09:43.867002  2303 net.cpp:434] crop1-dsn5 <- conv5_3_relu5_3_0_split_1
I1118 18:09:43.867007  2303 net.cpp:408] crop1-dsn5 -> weight-dsn6-5
I1118 18:09:43.867027  2303 net.cpp:150] Setting up crop1-dsn5
I1118 18:09:43.867030  2303 net.cpp:157] Top shape: 1 1 32 32 (1024)
I1118 18:09:43.867033  2303 net.cpp:165] Memory required for data: 910195664
I1118 18:09:43.867034  2303 layer_factory.hpp:77] Creating layer weight-dsn6-5_crop1-dsn5_0_split
I1118 18:09:43.867039  2303 net.cpp:100] Creating Layer weight-dsn6-5_crop1-dsn5_0_split
I1118 18:09:43.867043  2303 net.cpp:434] weight-dsn6-5_crop1-dsn5_0_split <- weight-dsn6-5
I1118 18:09:43.867048  2303 net.cpp:408] weight-dsn6-5_crop1-dsn5_0_split -> weight-dsn6-5_crop1-dsn5_0_split_0
I1118 18:09:43.867053  2303 net.cpp:408] weight-dsn6-5_crop1-dsn5_0_split -> weight-dsn6-5_crop1-dsn5_0_split_1
I1118 18:09:43.867079  2303 net.cpp:150] Setting up weight-dsn6-5_crop1-dsn5_0_split
I1118 18:09:43.867082  2303 net.cpp:157] Top shape: 1 1 32 32 (1024)
I1118 18:09:43.867085  2303 net.cpp:157] Top shape: 1 1 32 32 (1024)
I1118 18:09:43.867087  2303 net.cpp:165] Memory required for data: 910203856
I1118 18:09:43.867090  2303 layer_factory.hpp:77] Creating layer sigmoid-dsn5
I1118 18:09:43.867096  2303 net.cpp:100] Creating Layer sigmoid-dsn5
I1118 18:09:43.867100  2303 net.cpp:434] sigmoid-dsn5 <- weight-dsn6-5_crop1-dsn5_0_split_0
I1118 18:09:43.867105  2303 net.cpp:408] sigmoid-dsn5 -> sigmoid-dsn5
I1118 18:09:43.867296  2303 net.cpp:150] Setting up sigmoid-dsn5
I1118 18:09:43.867311  2303 net.cpp:157] Top shape: 1 1 32 32 (1024)
I1118 18:09:43.867313  2303 net.cpp:165] Memory required for data: 910207952
I1118 18:09:43.867318  2303 layer_factory.hpp:77] Creating layer rev-dsn5
I1118 18:09:43.867324  2303 net.cpp:100] Creating Layer rev-dsn5
I1118 18:09:43.867328  2303 net.cpp:434] rev-dsn5 <- sigmoid-dsn5
I1118 18:09:43.867333  2303 net.cpp:408] rev-dsn5 -> rev-dsn5
I1118 18:09:43.867352  2303 net.cpp:150] Setting up rev-dsn5
I1118 18:09:43.867357  2303 net.cpp:157] Top shape: 1 1 32 32 (1024)
I1118 18:09:43.867359  2303 net.cpp:165] Memory required for data: 910212048
I1118 18:09:43.867362  2303 layer_factory.hpp:77] Creating layer tile-dsn5
I1118 18:09:43.867368  2303 net.cpp:100] Creating Layer tile-dsn5
I1118 18:09:43.867370  2303 net.cpp:434] tile-dsn5 <- rev-dsn5
I1118 18:09:43.867375  2303 net.cpp:408] tile-dsn5 -> weight-dsn5
I1118 18:09:43.867391  2303 net.cpp:150] Setting up tile-dsn5
I1118 18:09:43.867395  2303 net.cpp:157] Top shape: 1 512 32 32 (524288)
I1118 18:09:43.867398  2303 net.cpp:165] Memory required for data: 912309200
I1118 18:09:43.867399  2303 layer_factory.hpp:77] Creating layer prod1-dsn5
I1118 18:09:43.867405  2303 net.cpp:100] Creating Layer prod1-dsn5
I1118 18:09:43.867408  2303 net.cpp:434] prod1-dsn5 <- conv5_3_relu5_3_0_split_2
I1118 18:09:43.867413  2303 net.cpp:434] prod1-dsn5 <- weight-dsn5
I1118 18:09:43.867417  2303 net.cpp:408] prod1-dsn5 -> prod1-dsn5
I1118 18:09:43.867441  2303 net.cpp:150] Setting up prod1-dsn5
I1118 18:09:43.867447  2303 net.cpp:157] Top shape: 1 512 32 32 (524288)
I1118 18:09:43.867449  2303 net.cpp:165] Memory required for data: 914406352
I1118 18:09:43.867451  2303 layer_factory.hpp:77] Creating layer conv1-dsn5
I1118 18:09:43.867475  2303 net.cpp:100] Creating Layer conv1-dsn5
I1118 18:09:43.867478  2303 net.cpp:434] conv1-dsn5 <- prod1-dsn5
I1118 18:09:43.867483  2303 net.cpp:408] conv1-dsn5 -> conv1-dsn5
I1118 18:09:43.869454  2303 net.cpp:150] Setting up conv1-dsn5
I1118 18:09:43.869465  2303 net.cpp:157] Top shape: 1 64 32 32 (65536)
I1118 18:09:43.869467  2303 net.cpp:165] Memory required for data: 914668496
I1118 18:09:43.869475  2303 layer_factory.hpp:77] Creating layer conv2-dsn5
I1118 18:09:43.869484  2303 net.cpp:100] Creating Layer conv2-dsn5
I1118 18:09:43.869487  2303 net.cpp:434] conv2-dsn5 <- conv1-dsn5
I1118 18:09:43.869493  2303 net.cpp:408] conv2-dsn5 -> conv2-dsn5
I1118 18:09:43.870363  2303 net.cpp:150] Setting up conv2-dsn5
I1118 18:09:43.870373  2303 net.cpp:157] Top shape: 1 64 32 32 (65536)
I1118 18:09:43.870375  2303 net.cpp:165] Memory required for data: 914930640
I1118 18:09:43.870380  2303 layer_factory.hpp:77] Creating layer relu1-dsn5
I1118 18:09:43.870385  2303 net.cpp:100] Creating Layer relu1-dsn5
I1118 18:09:43.870388  2303 net.cpp:434] relu1-dsn5 <- conv2-dsn5
I1118 18:09:43.870393  2303 net.cpp:395] relu1-dsn5 -> conv2-dsn5 (in-place)
I1118 18:09:43.870447  2303 net.cpp:150] Setting up relu1-dsn5
I1118 18:09:43.870452  2303 net.cpp:157] Top shape: 1 64 32 32 (65536)
I1118 18:09:43.870455  2303 net.cpp:165] Memory required for data: 915192784
I1118 18:09:43.870457  2303 layer_factory.hpp:77] Creating layer conv3-dsn5
I1118 18:09:43.870465  2303 net.cpp:100] Creating Layer conv3-dsn5
I1118 18:09:43.870466  2303 net.cpp:434] conv3-dsn5 <- conv2-dsn5
I1118 18:09:43.870487  2303 net.cpp:408] conv3-dsn5 -> conv3-dsn5
I1118 18:09:43.871429  2303 net.cpp:150] Setting up conv3-dsn5
I1118 18:09:43.871439  2303 net.cpp:157] Top shape: 1 64 32 32 (65536)
I1118 18:09:43.871441  2303 net.cpp:165] Memory required for data: 915454928
I1118 18:09:43.871446  2303 layer_factory.hpp:77] Creating layer relu2-dsn5
I1118 18:09:43.871451  2303 net.cpp:100] Creating Layer relu2-dsn5
I1118 18:09:43.871454  2303 net.cpp:434] relu2-dsn5 <- conv3-dsn5
I1118 18:09:43.871459  2303 net.cpp:395] relu2-dsn5 -> conv3-dsn5 (in-place)
I1118 18:09:43.871628  2303 net.cpp:150] Setting up relu2-dsn5
I1118 18:09:43.871639  2303 net.cpp:157] Top shape: 1 64 32 32 (65536)
I1118 18:09:43.871640  2303 net.cpp:165] Memory required for data: 915717072
I1118 18:09:43.871645  2303 layer_factory.hpp:77] Creating layer conv4-dsn5
I1118 18:09:43.871654  2303 net.cpp:100] Creating Layer conv4-dsn5
I1118 18:09:43.871657  2303 net.cpp:434] conv4-dsn5 <- conv3-dsn5
I1118 18:09:43.871677  2303 net.cpp:408] conv4-dsn5 -> conv4-dsn5
I1118 18:09:43.872148  2303 net.cpp:150] Setting up conv4-dsn5
I1118 18:09:43.872159  2303 net.cpp:157] Top shape: 1 1 32 32 (1024)
I1118 18:09:43.872160  2303 net.cpp:165] Memory required for data: 915721168
I1118 18:09:43.872164  2303 layer_factory.hpp:77] Creating layer sum-dsn5
I1118 18:09:43.872179  2303 net.cpp:100] Creating Layer sum-dsn5
I1118 18:09:43.872181  2303 net.cpp:434] sum-dsn5 <- conv4-dsn5
I1118 18:09:43.872185  2303 net.cpp:434] sum-dsn5 <- weight-dsn6-5_crop1-dsn5_0_split_1
I1118 18:09:43.872189  2303 net.cpp:408] sum-dsn5 -> sum-dsn5
I1118 18:09:43.872203  2303 net.cpp:150] Setting up sum-dsn5
I1118 18:09:43.872208  2303 net.cpp:157] Top shape: 1 1 32 32 (1024)
I1118 18:09:43.872210  2303 net.cpp:165] Memory required for data: 915725264
I1118 18:09:43.872212  2303 layer_factory.hpp:77] Creating layer sum-dsn5_sum-dsn5_0_split
I1118 18:09:43.872216  2303 net.cpp:100] Creating Layer sum-dsn5_sum-dsn5_0_split
I1118 18:09:43.872218  2303 net.cpp:434] sum-dsn5_sum-dsn5_0_split <- sum-dsn5
I1118 18:09:43.872222  2303 net.cpp:408] sum-dsn5_sum-dsn5_0_split -> sum-dsn5_sum-dsn5_0_split_0
I1118 18:09:43.872227  2303 net.cpp:408] sum-dsn5_sum-dsn5_0_split -> sum-dsn5_sum-dsn5_0_split_1
I1118 18:09:43.872251  2303 net.cpp:150] Setting up sum-dsn5_sum-dsn5_0_split
I1118 18:09:43.872254  2303 net.cpp:157] Top shape: 1 1 32 32 (1024)
I1118 18:09:43.872272  2303 net.cpp:157] Top shape: 1 1 32 32 (1024)
I1118 18:09:43.872274  2303 net.cpp:165] Memory required for data: 915733456
I1118 18:09:43.872278  2303 layer_factory.hpp:77] Creating layer upsample16_dsn5
I1118 18:09:43.872285  2303 net.cpp:100] Creating Layer upsample16_dsn5
I1118 18:09:43.872287  2303 net.cpp:434] upsample16_dsn5 <- sum-dsn5_sum-dsn5_0_split_0
I1118 18:09:43.872292  2303 net.cpp:408] upsample16_dsn5 -> sum-dsn5-up
I1118 18:09:43.873488  2303 net.cpp:150] Setting up upsample16_dsn5
I1118 18:09:43.873498  2303 net.cpp:157] Top shape: 1 1 528 528 (278784)
I1118 18:09:43.873500  2303 net.cpp:165] Memory required for data: 916848592
I1118 18:09:43.873505  2303 layer_factory.hpp:77] Creating layer crop2-dsn5
I1118 18:09:43.873510  2303 net.cpp:100] Creating Layer crop2-dsn5
I1118 18:09:43.873513  2303 net.cpp:434] crop2-dsn5 <- sum-dsn5-up
I1118 18:09:43.873517  2303 net.cpp:434] crop2-dsn5 <- data_data_0_split_2
I1118 18:09:43.873522  2303 net.cpp:408] crop2-dsn5 -> upscore-dsn5
I1118 18:09:43.873543  2303 net.cpp:150] Setting up crop2-dsn5
I1118 18:09:43.873548  2303 net.cpp:157] Top shape: 1 1 500 500 (250000)
I1118 18:09:43.873549  2303 net.cpp:165] Memory required for data: 917848592
I1118 18:09:43.873551  2303 layer_factory.hpp:77] Creating layer loss5-score
I1118 18:09:43.873558  2303 net.cpp:100] Creating Layer loss5-score
I1118 18:09:43.873560  2303 net.cpp:434] loss5-score <- upscore-dsn5
I1118 18:09:43.873564  2303 net.cpp:434] loss5-score <- label_data_1_split_1
I1118 18:09:43.873566  2303 net.cpp:408] loss5-score -> loss5-score
I1118 18:09:43.873786  2303 net.cpp:150] Setting up loss5-score
I1118 18:09:43.873793  2303 net.cpp:157] Top shape: (1)
I1118 18:09:43.873795  2303 net.cpp:160]     with loss weight 1
I1118 18:09:43.873805  2303 net.cpp:165] Memory required for data: 917848596
I1118 18:09:43.873809  2303 layer_factory.hpp:77] Creating layer upsample2_dsn4
I1118 18:09:43.873823  2303 net.cpp:100] Creating Layer upsample2_dsn4
I1118 18:09:43.873826  2303 net.cpp:434] upsample2_dsn4 <- sum-dsn5_sum-dsn5_0_split_1
I1118 18:09:43.873831  2303 net.cpp:408] upsample2_dsn4 -> sum-dsn5-4
I1118 18:09:43.874019  2303 net.cpp:150] Setting up upsample2_dsn4
I1118 18:09:43.874027  2303 net.cpp:157] Top shape: 1 1 66 66 (4356)
I1118 18:09:43.874028  2303 net.cpp:165] Memory required for data: 917866020
I1118 18:09:43.874032  2303 layer_factory.hpp:77] Creating layer crop1-dsn4
I1118 18:09:43.874037  2303 net.cpp:100] Creating Layer crop1-dsn4
I1118 18:09:43.874040  2303 net.cpp:434] crop1-dsn4 <- sum-dsn5-4
I1118 18:09:43.874043  2303 net.cpp:434] crop1-dsn4 <- conv4_3_relu4_3_0_split_1
I1118 18:09:43.874047  2303 net.cpp:408] crop1-dsn4 -> weight-dsn5-4
I1118 18:09:43.874064  2303 net.cpp:150] Setting up crop1-dsn4
I1118 18:09:43.874068  2303 net.cpp:157] Top shape: 1 1 63 63 (3969)
I1118 18:09:43.874085  2303 net.cpp:165] Memory required for data: 917881896
I1118 18:09:43.874089  2303 layer_factory.hpp:77] Creating layer weight-dsn5-4_crop1-dsn4_0_split
I1118 18:09:43.874094  2303 net.cpp:100] Creating Layer weight-dsn5-4_crop1-dsn4_0_split
I1118 18:09:43.874097  2303 net.cpp:434] weight-dsn5-4_crop1-dsn4_0_split <- weight-dsn5-4
I1118 18:09:43.874101  2303 net.cpp:408] weight-dsn5-4_crop1-dsn4_0_split -> weight-dsn5-4_crop1-dsn4_0_split_0
I1118 18:09:43.874106  2303 net.cpp:408] weight-dsn5-4_crop1-dsn4_0_split -> weight-dsn5-4_crop1-dsn4_0_split_1
I1118 18:09:43.874132  2303 net.cpp:150] Setting up weight-dsn5-4_crop1-dsn4_0_split
I1118 18:09:43.874140  2303 net.cpp:157] Top shape: 1 1 63 63 (3969)
I1118 18:09:43.874141  2303 net.cpp:157] Top shape: 1 1 63 63 (3969)
I1118 18:09:43.874145  2303 net.cpp:165] Memory required for data: 917913648
I1118 18:09:43.874146  2303 layer_factory.hpp:77] Creating layer sigmoid-dsn4
I1118 18:09:43.874151  2303 net.cpp:100] Creating Layer sigmoid-dsn4
I1118 18:09:43.874155  2303 net.cpp:434] sigmoid-dsn4 <- weight-dsn5-4_crop1-dsn4_0_split_0
I1118 18:09:43.874158  2303 net.cpp:408] sigmoid-dsn4 -> sigmoid-dsn4
I1118 18:09:43.874357  2303 net.cpp:150] Setting up sigmoid-dsn4
I1118 18:09:43.874367  2303 net.cpp:157] Top shape: 1 1 63 63 (3969)
I1118 18:09:43.874383  2303 net.cpp:165] Memory required for data: 917929524
I1118 18:09:43.874389  2303 layer_factory.hpp:77] Creating layer rev-dsn4
I1118 18:09:43.874395  2303 net.cpp:100] Creating Layer rev-dsn4
I1118 18:09:43.874398  2303 net.cpp:434] rev-dsn4 <- sigmoid-dsn4
I1118 18:09:43.874403  2303 net.cpp:408] rev-dsn4 -> rev-dsn4
I1118 18:09:43.874423  2303 net.cpp:150] Setting up rev-dsn4
I1118 18:09:43.874428  2303 net.cpp:157] Top shape: 1 1 63 63 (3969)
I1118 18:09:43.874429  2303 net.cpp:165] Memory required for data: 917945400
I1118 18:09:43.874433  2303 layer_factory.hpp:77] Creating layer tile-dsn4
I1118 18:09:43.874438  2303 net.cpp:100] Creating Layer tile-dsn4
I1118 18:09:43.874439  2303 net.cpp:434] tile-dsn4 <- rev-dsn4
I1118 18:09:43.874444  2303 net.cpp:408] tile-dsn4 -> weight-dsn4
I1118 18:09:43.874459  2303 net.cpp:150] Setting up tile-dsn4
I1118 18:09:43.874464  2303 net.cpp:157] Top shape: 1 512 63 63 (2032128)
I1118 18:09:43.874465  2303 net.cpp:165] Memory required for data: 926073912
I1118 18:09:43.874467  2303 layer_factory.hpp:77] Creating layer prod1-dsn4
I1118 18:09:43.874472  2303 net.cpp:100] Creating Layer prod1-dsn4
I1118 18:09:43.874475  2303 net.cpp:434] prod1-dsn4 <- conv4_3_relu4_3_0_split_2
I1118 18:09:43.874478  2303 net.cpp:434] prod1-dsn4 <- weight-dsn4
I1118 18:09:43.874483  2303 net.cpp:408] prod1-dsn4 -> prod1-dsn4
I1118 18:09:43.874497  2303 net.cpp:150] Setting up prod1-dsn4
I1118 18:09:43.874501  2303 net.cpp:157] Top shape: 1 512 63 63 (2032128)
I1118 18:09:43.874502  2303 net.cpp:165] Memory required for data: 934202424
I1118 18:09:43.874506  2303 layer_factory.hpp:77] Creating layer conv1-dsn4
I1118 18:09:43.874514  2303 net.cpp:100] Creating Layer conv1-dsn4
I1118 18:09:43.874516  2303 net.cpp:434] conv1-dsn4 <- prod1-dsn4
I1118 18:09:43.874522  2303 net.cpp:408] conv1-dsn4 -> conv1-dsn4
I1118 18:09:43.876906  2303 net.cpp:150] Setting up conv1-dsn4
I1118 18:09:43.876917  2303 net.cpp:157] Top shape: 1 64 63 63 (254016)
I1118 18:09:43.876935  2303 net.cpp:165] Memory required for data: 935218488
I1118 18:09:43.876940  2303 layer_factory.hpp:77] Creating layer conv2-dsn4
I1118 18:09:43.876950  2303 net.cpp:100] Creating Layer conv2-dsn4
I1118 18:09:43.876952  2303 net.cpp:434] conv2-dsn4 <- conv1-dsn4
I1118 18:09:43.876958  2303 net.cpp:408] conv2-dsn4 -> conv2-dsn4
I1118 18:09:43.877964  2303 net.cpp:150] Setting up conv2-dsn4
I1118 18:09:43.877975  2303 net.cpp:157] Top shape: 1 64 63 63 (254016)
I1118 18:09:43.877977  2303 net.cpp:165] Memory required for data: 936234552
I1118 18:09:43.877982  2303 layer_factory.hpp:77] Creating layer relu1-dsn4
I1118 18:09:43.877987  2303 net.cpp:100] Creating Layer relu1-dsn4
I1118 18:09:43.877990  2303 net.cpp:434] relu1-dsn4 <- conv2-dsn4
I1118 18:09:43.877995  2303 net.cpp:395] relu1-dsn4 -> conv2-dsn4 (in-place)
I1118 18:09:43.878147  2303 net.cpp:150] Setting up relu1-dsn4
I1118 18:09:43.878156  2303 net.cpp:157] Top shape: 1 64 63 63 (254016)
I1118 18:09:43.878159  2303 net.cpp:165] Memory required for data: 937250616
I1118 18:09:43.878161  2303 layer_factory.hpp:77] Creating layer conv3-dsn4
I1118 18:09:43.878168  2303 net.cpp:100] Creating Layer conv3-dsn4
I1118 18:09:43.878172  2303 net.cpp:434] conv3-dsn4 <- conv2-dsn4
I1118 18:09:43.878177  2303 net.cpp:408] conv3-dsn4 -> conv3-dsn4
I1118 18:09:43.878978  2303 net.cpp:150] Setting up conv3-dsn4
I1118 18:09:43.878988  2303 net.cpp:157] Top shape: 1 64 63 63 (254016)
I1118 18:09:43.878989  2303 net.cpp:165] Memory required for data: 938266680
I1118 18:09:43.878994  2303 layer_factory.hpp:77] Creating layer relu2-dsn4
I1118 18:09:43.879001  2303 net.cpp:100] Creating Layer relu2-dsn4
I1118 18:09:43.879004  2303 net.cpp:434] relu2-dsn4 <- conv3-dsn4
I1118 18:09:43.879009  2303 net.cpp:395] relu2-dsn4 -> conv3-dsn4 (in-place)
I1118 18:09:43.879161  2303 net.cpp:150] Setting up relu2-dsn4
I1118 18:09:43.879170  2303 net.cpp:157] Top shape: 1 64 63 63 (254016)
I1118 18:09:43.879173  2303 net.cpp:165] Memory required for data: 939282744
I1118 18:09:43.879175  2303 layer_factory.hpp:77] Creating layer conv4-dsn4
I1118 18:09:43.879199  2303 net.cpp:100] Creating Layer conv4-dsn4
I1118 18:09:43.879202  2303 net.cpp:434] conv4-dsn4 <- conv3-dsn4
I1118 18:09:43.879222  2303 net.cpp:408] conv4-dsn4 -> conv4-dsn4
I1118 18:09:43.879824  2303 net.cpp:150] Setting up conv4-dsn4
I1118 18:09:43.879834  2303 net.cpp:157] Top shape: 1 1 63 63 (3969)
I1118 18:09:43.879837  2303 net.cpp:165] Memory required for data: 939298620
I1118 18:09:43.879842  2303 layer_factory.hpp:77] Creating layer sum-dsn4
I1118 18:09:43.879846  2303 net.cpp:100] Creating Layer sum-dsn4
I1118 18:09:43.879849  2303 net.cpp:434] sum-dsn4 <- conv4-dsn4
I1118 18:09:43.879853  2303 net.cpp:434] sum-dsn4 <- weight-dsn5-4_crop1-dsn4_0_split_1
I1118 18:09:43.879858  2303 net.cpp:408] sum-dsn4 -> sum-dsn4
I1118 18:09:43.879875  2303 net.cpp:150] Setting up sum-dsn4
I1118 18:09:43.879879  2303 net.cpp:157] Top shape: 1 1 63 63 (3969)
I1118 18:09:43.879881  2303 net.cpp:165] Memory required for data: 939314496
I1118 18:09:43.879884  2303 layer_factory.hpp:77] Creating layer sum-dsn4_sum-dsn4_0_split
I1118 18:09:43.879889  2303 net.cpp:100] Creating Layer sum-dsn4_sum-dsn4_0_split
I1118 18:09:43.879892  2303 net.cpp:434] sum-dsn4_sum-dsn4_0_split <- sum-dsn4
I1118 18:09:43.879897  2303 net.cpp:408] sum-dsn4_sum-dsn4_0_split -> sum-dsn4_sum-dsn4_0_split_0
I1118 18:09:43.879902  2303 net.cpp:408] sum-dsn4_sum-dsn4_0_split -> sum-dsn4_sum-dsn4_0_split_1
I1118 18:09:43.879925  2303 net.cpp:150] Setting up sum-dsn4_sum-dsn4_0_split
I1118 18:09:43.879927  2303 net.cpp:157] Top shape: 1 1 63 63 (3969)
I1118 18:09:43.879930  2303 net.cpp:157] Top shape: 1 1 63 63 (3969)
I1118 18:09:43.879932  2303 net.cpp:165] Memory required for data: 939346248
I1118 18:09:43.879950  2303 layer_factory.hpp:77] Creating layer upsample8_dsn4
I1118 18:09:43.879956  2303 net.cpp:100] Creating Layer upsample8_dsn4
I1118 18:09:43.879958  2303 net.cpp:434] upsample8_dsn4 <- sum-dsn4_sum-dsn4_0_split_0
I1118 18:09:43.879962  2303 net.cpp:408] upsample8_dsn4 -> sum-dsn4-up
I1118 18:09:43.881131  2303 net.cpp:150] Setting up upsample8_dsn4
I1118 18:09:43.881141  2303 net.cpp:157] Top shape: 1 1 512 512 (262144)
I1118 18:09:43.881144  2303 net.cpp:165] Memory required for data: 940394824
I1118 18:09:43.881148  2303 layer_factory.hpp:77] Creating layer crop2-dsn4
I1118 18:09:43.881155  2303 net.cpp:100] Creating Layer crop2-dsn4
I1118 18:09:43.881156  2303 net.cpp:434] crop2-dsn4 <- sum-dsn4-up
I1118 18:09:43.881160  2303 net.cpp:434] crop2-dsn4 <- data_data_0_split_3
I1118 18:09:43.881165  2303 net.cpp:408] crop2-dsn4 -> upscore-dsn4
I1118 18:09:43.881187  2303 net.cpp:150] Setting up crop2-dsn4
I1118 18:09:43.881191  2303 net.cpp:157] Top shape: 1 1 500 500 (250000)
I1118 18:09:43.881193  2303 net.cpp:165] Memory required for data: 941394824
I1118 18:09:43.881196  2303 layer_factory.hpp:77] Creating layer loss4-score
I1118 18:09:43.881201  2303 net.cpp:100] Creating Layer loss4-score
I1118 18:09:43.881204  2303 net.cpp:434] loss4-score <- upscore-dsn4
I1118 18:09:43.881207  2303 net.cpp:434] loss4-score <- label_data_1_split_2
I1118 18:09:43.881211  2303 net.cpp:408] loss4-score -> loss4-score
I1118 18:09:43.881431  2303 net.cpp:150] Setting up loss4-score
I1118 18:09:43.881438  2303 net.cpp:157] Top shape: (1)
I1118 18:09:43.881440  2303 net.cpp:160]     with loss weight 1
I1118 18:09:43.881446  2303 net.cpp:165] Memory required for data: 941394828
I1118 18:09:43.881451  2303 layer_factory.hpp:77] Creating layer upsample2_dsn3
I1118 18:09:43.881458  2303 net.cpp:100] Creating Layer upsample2_dsn3
I1118 18:09:43.881461  2303 net.cpp:434] upsample2_dsn3 <- sum-dsn4_sum-dsn4_0_split_1
I1118 18:09:43.881466  2303 net.cpp:408] upsample2_dsn3 -> sum-dsn4-3
I1118 18:09:43.881659  2303 net.cpp:150] Setting up upsample2_dsn3
I1118 18:09:43.881665  2303 net.cpp:157] Top shape: 1 1 128 128 (16384)
I1118 18:09:43.881669  2303 net.cpp:165] Memory required for data: 941460364
I1118 18:09:43.881672  2303 layer_factory.hpp:77] Creating layer crop1-dsn3
I1118 18:09:43.881677  2303 net.cpp:100] Creating Layer crop1-dsn3
I1118 18:09:43.881680  2303 net.cpp:434] crop1-dsn3 <- sum-dsn4-3
I1118 18:09:43.881683  2303 net.cpp:434] crop1-dsn3 <- conv3_3_relu3_3_0_split_1
I1118 18:09:43.881687  2303 net.cpp:408] crop1-dsn3 -> weight-dsn4-3
I1118 18:09:43.881706  2303 net.cpp:150] Setting up crop1-dsn3
I1118 18:09:43.881711  2303 net.cpp:157] Top shape: 1 1 125 125 (15625)
I1118 18:09:43.881727  2303 net.cpp:165] Memory required for data: 941522864
I1118 18:09:43.881731  2303 layer_factory.hpp:77] Creating layer weight-dsn4-3_crop1-dsn3_0_split
I1118 18:09:43.881736  2303 net.cpp:100] Creating Layer weight-dsn4-3_crop1-dsn3_0_split
I1118 18:09:43.881738  2303 net.cpp:434] weight-dsn4-3_crop1-dsn3_0_split <- weight-dsn4-3
I1118 18:09:43.881743  2303 net.cpp:408] weight-dsn4-3_crop1-dsn3_0_split -> weight-dsn4-3_crop1-dsn3_0_split_0
I1118 18:09:43.881749  2303 net.cpp:408] weight-dsn4-3_crop1-dsn3_0_split -> weight-dsn4-3_crop1-dsn3_0_split_1
I1118 18:09:43.881773  2303 net.cpp:150] Setting up weight-dsn4-3_crop1-dsn3_0_split
I1118 18:09:43.881779  2303 net.cpp:157] Top shape: 1 1 125 125 (15625)
I1118 18:09:43.881783  2303 net.cpp:157] Top shape: 1 1 125 125 (15625)
I1118 18:09:43.881784  2303 net.cpp:165] Memory required for data: 941647864
I1118 18:09:43.881788  2303 layer_factory.hpp:77] Creating layer sigmoid-dsn3
I1118 18:09:43.881793  2303 net.cpp:100] Creating Layer sigmoid-dsn3
I1118 18:09:43.881796  2303 net.cpp:434] sigmoid-dsn3 <- weight-dsn4-3_crop1-dsn3_0_split_0
I1118 18:09:43.881801  2303 net.cpp:408] sigmoid-dsn3 -> sigmoid-dsn3
I1118 18:09:43.881880  2303 net.cpp:150] Setting up sigmoid-dsn3
I1118 18:09:43.881887  2303 net.cpp:157] Top shape: 1 1 125 125 (15625)
I1118 18:09:43.881891  2303 net.cpp:165] Memory required for data: 941710364
I1118 18:09:43.881892  2303 layer_factory.hpp:77] Creating layer rev-dsn3
I1118 18:09:43.881897  2303 net.cpp:100] Creating Layer rev-dsn3
I1118 18:09:43.881901  2303 net.cpp:434] rev-dsn3 <- sigmoid-dsn3
I1118 18:09:43.881906  2303 net.cpp:408] rev-dsn3 -> rev-dsn3
I1118 18:09:43.881923  2303 net.cpp:150] Setting up rev-dsn3
I1118 18:09:43.881927  2303 net.cpp:157] Top shape: 1 1 125 125 (15625)
I1118 18:09:43.881929  2303 net.cpp:165] Memory required for data: 941772864
I1118 18:09:43.881932  2303 layer_factory.hpp:77] Creating layer tile-dsn3
I1118 18:09:43.881937  2303 net.cpp:100] Creating Layer tile-dsn3
I1118 18:09:43.881939  2303 net.cpp:434] tile-dsn3 <- rev-dsn3
I1118 18:09:43.881943  2303 net.cpp:408] tile-dsn3 -> weight-dsn3
I1118 18:09:43.881958  2303 net.cpp:150] Setting up tile-dsn3
I1118 18:09:43.881963  2303 net.cpp:157] Top shape: 1 256 125 125 (4000000)
I1118 18:09:43.881964  2303 net.cpp:165] Memory required for data: 957772864
I1118 18:09:43.881966  2303 layer_factory.hpp:77] Creating layer prod1-dsn3
I1118 18:09:43.881971  2303 net.cpp:100] Creating Layer prod1-dsn3
I1118 18:09:43.881974  2303 net.cpp:434] prod1-dsn3 <- conv3_3_relu3_3_0_split_2
I1118 18:09:43.881978  2303 net.cpp:434] prod1-dsn3 <- weight-dsn3
I1118 18:09:43.881983  2303 net.cpp:408] prod1-dsn3 -> prod1-dsn3
I1118 18:09:43.881999  2303 net.cpp:150] Setting up prod1-dsn3
I1118 18:09:43.882002  2303 net.cpp:157] Top shape: 1 256 125 125 (4000000)
I1118 18:09:43.882004  2303 net.cpp:165] Memory required for data: 973772864
I1118 18:09:43.882009  2303 layer_factory.hpp:77] Creating layer conv1-dsn3
I1118 18:09:43.882016  2303 net.cpp:100] Creating Layer conv1-dsn3
I1118 18:09:43.882019  2303 net.cpp:434] conv1-dsn3 <- prod1-dsn3
I1118 18:09:43.882025  2303 net.cpp:408] conv1-dsn3 -> conv1-dsn3
I1118 18:09:43.883761  2303 net.cpp:150] Setting up conv1-dsn3
I1118 18:09:43.883772  2303 net.cpp:157] Top shape: 1 64 125 125 (1000000)
I1118 18:09:43.883774  2303 net.cpp:165] Memory required for data: 977772864
I1118 18:09:43.883788  2303 layer_factory.hpp:77] Creating layer conv2-dsn3
I1118 18:09:43.883796  2303 net.cpp:100] Creating Layer conv2-dsn3
I1118 18:09:43.883800  2303 net.cpp:434] conv2-dsn3 <- conv1-dsn3
I1118 18:09:43.883805  2303 net.cpp:408] conv2-dsn3 -> conv2-dsn3
I1118 18:09:43.884613  2303 net.cpp:150] Setting up conv2-dsn3
I1118 18:09:43.884624  2303 net.cpp:157] Top shape: 1 64 125 125 (1000000)
I1118 18:09:43.884625  2303 net.cpp:165] Memory required for data: 981772864
I1118 18:09:43.884630  2303 layer_factory.hpp:77] Creating layer relu1-dsn3
I1118 18:09:43.884635  2303 net.cpp:100] Creating Layer relu1-dsn3
I1118 18:09:43.884637  2303 net.cpp:434] relu1-dsn3 <- conv2-dsn3
I1118 18:09:43.884642  2303 net.cpp:395] relu1-dsn3 -> conv2-dsn3 (in-place)
I1118 18:09:43.884793  2303 net.cpp:150] Setting up relu1-dsn3
I1118 18:09:43.884801  2303 net.cpp:157] Top shape: 1 64 125 125 (1000000)
I1118 18:09:43.884804  2303 net.cpp:165] Memory required for data: 985772864
I1118 18:09:43.884806  2303 layer_factory.hpp:77] Creating layer conv3-dsn3
I1118 18:09:43.884816  2303 net.cpp:100] Creating Layer conv3-dsn3
I1118 18:09:43.884835  2303 net.cpp:434] conv3-dsn3 <- conv2-dsn3
I1118 18:09:43.884841  2303 net.cpp:408] conv3-dsn3 -> conv3-dsn3
I1118 18:09:43.885741  2303 net.cpp:150] Setting up conv3-dsn3
I1118 18:09:43.885751  2303 net.cpp:157] Top shape: 1 64 125 125 (1000000)
I1118 18:09:43.885754  2303 net.cpp:165] Memory required for data: 989772864
I1118 18:09:43.885759  2303 layer_factory.hpp:77] Creating layer relu2-dsn3
I1118 18:09:43.885763  2303 net.cpp:100] Creating Layer relu2-dsn3
I1118 18:09:43.885766  2303 net.cpp:434] relu2-dsn3 <- conv3-dsn3
I1118 18:09:43.885771  2303 net.cpp:395] relu2-dsn3 -> conv3-dsn3 (in-place)
I1118 18:09:43.885824  2303 net.cpp:150] Setting up relu2-dsn3
I1118 18:09:43.885829  2303 net.cpp:157] Top shape: 1 64 125 125 (1000000)
I1118 18:09:43.885831  2303 net.cpp:165] Memory required for data: 993772864
I1118 18:09:43.885834  2303 layer_factory.hpp:77] Creating layer conv4-dsn3
I1118 18:09:43.885843  2303 net.cpp:100] Creating Layer conv4-dsn3
I1118 18:09:43.885844  2303 net.cpp:434] conv4-dsn3 <- conv3-dsn3
I1118 18:09:43.885865  2303 net.cpp:408] conv4-dsn3 -> conv4-dsn3
I1118 18:09:43.886517  2303 net.cpp:150] Setting up conv4-dsn3
I1118 18:09:43.886528  2303 net.cpp:157] Top shape: 1 1 125 125 (15625)
I1118 18:09:43.886529  2303 net.cpp:165] Memory required for data: 993835364
I1118 18:09:43.886534  2303 layer_factory.hpp:77] Creating layer sum-dsn3
I1118 18:09:43.886539  2303 net.cpp:100] Creating Layer sum-dsn3
I1118 18:09:43.886543  2303 net.cpp:434] sum-dsn3 <- conv4-dsn3
I1118 18:09:43.886546  2303 net.cpp:434] sum-dsn3 <- weight-dsn4-3_crop1-dsn3_0_split_1
I1118 18:09:43.886550  2303 net.cpp:408] sum-dsn3 -> sum-dsn3
I1118 18:09:43.886572  2303 net.cpp:150] Setting up sum-dsn3
I1118 18:09:43.886576  2303 net.cpp:157] Top shape: 1 1 125 125 (15625)
I1118 18:09:43.886579  2303 net.cpp:165] Memory required for data: 993897864
I1118 18:09:43.886581  2303 layer_factory.hpp:77] Creating layer sum-dsn3_sum-dsn3_0_split
I1118 18:09:43.886586  2303 net.cpp:100] Creating Layer sum-dsn3_sum-dsn3_0_split
I1118 18:09:43.886590  2303 net.cpp:434] sum-dsn3_sum-dsn3_0_split <- sum-dsn3
I1118 18:09:43.886593  2303 net.cpp:408] sum-dsn3_sum-dsn3_0_split -> sum-dsn3_sum-dsn3_0_split_0
I1118 18:09:43.886598  2303 net.cpp:408] sum-dsn3_sum-dsn3_0_split -> sum-dsn3_sum-dsn3_0_split_1
I1118 18:09:43.886624  2303 net.cpp:150] Setting up sum-dsn3_sum-dsn3_0_split
I1118 18:09:43.886643  2303 net.cpp:157] Top shape: 1 1 125 125 (15625)
I1118 18:09:43.886646  2303 net.cpp:157] Top shape: 1 1 125 125 (15625)
I1118 18:09:43.886648  2303 net.cpp:165] Memory required for data: 994022864
I1118 18:09:43.886651  2303 layer_factory.hpp:77] Creating layer upsample4_dsn3
I1118 18:09:43.886656  2303 net.cpp:100] Creating Layer upsample4_dsn3
I1118 18:09:43.886659  2303 net.cpp:434] upsample4_dsn3 <- sum-dsn3_sum-dsn3_0_split_0
I1118 18:09:43.886663  2303 net.cpp:408] upsample4_dsn3 -> sum-dsn3-up
I1118 18:09:43.887794  2303 net.cpp:150] Setting up upsample4_dsn3
I1118 18:09:43.887804  2303 net.cpp:157] Top shape: 1 1 504 504 (254016)
I1118 18:09:43.887806  2303 net.cpp:165] Memory required for data: 995038928
I1118 18:09:43.887811  2303 layer_factory.hpp:77] Creating layer crop2-dsn3
I1118 18:09:43.887816  2303 net.cpp:100] Creating Layer crop2-dsn3
I1118 18:09:43.887820  2303 net.cpp:434] crop2-dsn3 <- sum-dsn3-up
I1118 18:09:43.887822  2303 net.cpp:434] crop2-dsn3 <- data_data_0_split_4
I1118 18:09:43.887827  2303 net.cpp:408] crop2-dsn3 -> upscore-dsn3
I1118 18:09:43.887850  2303 net.cpp:150] Setting up crop2-dsn3
I1118 18:09:43.887853  2303 net.cpp:157] Top shape: 1 1 500 500 (250000)
I1118 18:09:43.887856  2303 net.cpp:165] Memory required for data: 996038928
I1118 18:09:43.887859  2303 layer_factory.hpp:77] Creating layer loss3-score
I1118 18:09:43.887866  2303 net.cpp:100] Creating Layer loss3-score
I1118 18:09:43.887868  2303 net.cpp:434] loss3-score <- upscore-dsn3
I1118 18:09:43.887871  2303 net.cpp:434] loss3-score <- label_data_1_split_3
I1118 18:09:43.887876  2303 net.cpp:408] loss3-score -> loss3-score
I1118 18:09:43.888084  2303 net.cpp:150] Setting up loss3-score
I1118 18:09:43.888090  2303 net.cpp:157] Top shape: (1)
I1118 18:09:43.888092  2303 net.cpp:160]     with loss weight 1
I1118 18:09:43.888098  2303 net.cpp:165] Memory required for data: 996038932
I1118 18:09:43.888100  2303 layer_factory.hpp:77] Creating layer upsample2_1-dsn2
I1118 18:09:43.888108  2303 net.cpp:100] Creating Layer upsample2_1-dsn2
I1118 18:09:43.888110  2303 net.cpp:434] upsample2_1-dsn2 <- sum-dsn3_sum-dsn3_0_split_1
I1118 18:09:43.888123  2303 net.cpp:408] upsample2_1-dsn2 -> sum-dsn3-2
I1118 18:09:43.889147  2303 net.cpp:150] Setting up upsample2_1-dsn2
I1118 18:09:43.889155  2303 net.cpp:157] Top shape: 1 1 252 252 (63504)
I1118 18:09:43.889158  2303 net.cpp:165] Memory required for data: 996292948
I1118 18:09:43.889163  2303 layer_factory.hpp:77] Creating layer crop1-dsn2
I1118 18:09:43.889168  2303 net.cpp:100] Creating Layer crop1-dsn2
I1118 18:09:43.889170  2303 net.cpp:434] crop1-dsn2 <- sum-dsn3-2
I1118 18:09:43.889174  2303 net.cpp:434] crop1-dsn2 <- conv2_2_relu2_2_0_split_1
I1118 18:09:43.889179  2303 net.cpp:408] crop1-dsn2 -> weight-dsn3-2
I1118 18:09:43.889201  2303 net.cpp:150] Setting up crop1-dsn2
I1118 18:09:43.889205  2303 net.cpp:157] Top shape: 1 1 250 250 (62500)
I1118 18:09:43.889207  2303 net.cpp:165] Memory required for data: 996542948
I1118 18:09:43.889209  2303 layer_factory.hpp:77] Creating layer weight-dsn3-2_crop1-dsn2_0_split
I1118 18:09:43.889214  2303 net.cpp:100] Creating Layer weight-dsn3-2_crop1-dsn2_0_split
I1118 18:09:43.889216  2303 net.cpp:434] weight-dsn3-2_crop1-dsn2_0_split <- weight-dsn3-2
I1118 18:09:43.889220  2303 net.cpp:408] weight-dsn3-2_crop1-dsn2_0_split -> weight-dsn3-2_crop1-dsn2_0_split_0
I1118 18:09:43.889225  2303 net.cpp:408] weight-dsn3-2_crop1-dsn2_0_split -> weight-dsn3-2_crop1-dsn2_0_split_1
I1118 18:09:43.889248  2303 net.cpp:150] Setting up weight-dsn3-2_crop1-dsn2_0_split
I1118 18:09:43.889252  2303 net.cpp:157] Top shape: 1 1 250 250 (62500)
I1118 18:09:43.889256  2303 net.cpp:157] Top shape: 1 1 250 250 (62500)
I1118 18:09:43.889257  2303 net.cpp:165] Memory required for data: 997042948
I1118 18:09:43.889277  2303 layer_factory.hpp:77] Creating layer sigmoid-dsn2
I1118 18:09:43.889282  2303 net.cpp:100] Creating Layer sigmoid-dsn2
I1118 18:09:43.889284  2303 net.cpp:434] sigmoid-dsn2 <- weight-dsn3-2_crop1-dsn2_0_split_0
I1118 18:09:43.889289  2303 net.cpp:408] sigmoid-dsn2 -> sigmoid-dsn2
I1118 18:09:43.889386  2303 net.cpp:150] Setting up sigmoid-dsn2
I1118 18:09:43.889395  2303 net.cpp:157] Top shape: 1 1 250 250 (62500)
I1118 18:09:43.889397  2303 net.cpp:165] Memory required for data: 997292948
I1118 18:09:43.889400  2303 layer_factory.hpp:77] Creating layer rev-dsn2
I1118 18:09:43.889405  2303 net.cpp:100] Creating Layer rev-dsn2
I1118 18:09:43.889420  2303 net.cpp:434] rev-dsn2 <- sigmoid-dsn2
I1118 18:09:43.889425  2303 net.cpp:408] rev-dsn2 -> rev-dsn2
I1118 18:09:43.889441  2303 net.cpp:150] Setting up rev-dsn2
I1118 18:09:43.889446  2303 net.cpp:157] Top shape: 1 1 250 250 (62500)
I1118 18:09:43.889448  2303 net.cpp:165] Memory required for data: 997542948
I1118 18:09:43.889451  2303 layer_factory.hpp:77] Creating layer tile-dsn2
I1118 18:09:43.889456  2303 net.cpp:100] Creating Layer tile-dsn2
I1118 18:09:43.889457  2303 net.cpp:434] tile-dsn2 <- rev-dsn2
I1118 18:09:43.889462  2303 net.cpp:408] tile-dsn2 -> weight-dsn2
I1118 18:09:43.889477  2303 net.cpp:150] Setting up tile-dsn2
I1118 18:09:43.889480  2303 net.cpp:157] Top shape: 1 128 250 250 (8000000)
I1118 18:09:43.889482  2303 net.cpp:165] Memory required for data: 1029542948
I1118 18:09:43.889485  2303 layer_factory.hpp:77] Creating layer prod1-dsn2
I1118 18:09:43.889490  2303 net.cpp:100] Creating Layer prod1-dsn2
I1118 18:09:43.889492  2303 net.cpp:434] prod1-dsn2 <- conv2_2_relu2_2_0_split_2
I1118 18:09:43.889497  2303 net.cpp:434] prod1-dsn2 <- weight-dsn2
I1118 18:09:43.889501  2303 net.cpp:408] prod1-dsn2 -> prod1-dsn2
I1118 18:09:43.889518  2303 net.cpp:150] Setting up prod1-dsn2
I1118 18:09:43.889521  2303 net.cpp:157] Top shape: 1 128 250 250 (8000000)
I1118 18:09:43.889523  2303 net.cpp:165] Memory required for data: 1061542948
I1118 18:09:43.889528  2303 layer_factory.hpp:77] Creating layer conv1-dsn2
I1118 18:09:43.889535  2303 net.cpp:100] Creating Layer conv1-dsn2
I1118 18:09:43.889537  2303 net.cpp:434] conv1-dsn2 <- prod1-dsn2
I1118 18:09:43.889542  2303 net.cpp:408] conv1-dsn2 -> conv1-dsn2
I1118 18:09:43.891167  2303 net.cpp:150] Setting up conv1-dsn2
I1118 18:09:43.891178  2303 net.cpp:157] Top shape: 1 64 250 250 (4000000)
I1118 18:09:43.891180  2303 net.cpp:165] Memory required for data: 1077542948
I1118 18:09:43.891185  2303 layer_factory.hpp:77] Creating layer conv2-dsn2
I1118 18:09:43.891193  2303 net.cpp:100] Creating Layer conv2-dsn2
I1118 18:09:43.891196  2303 net.cpp:434] conv2-dsn2 <- conv1-dsn2
I1118 18:09:43.891202  2303 net.cpp:408] conv2-dsn2 -> conv2-dsn2
I1118 18:09:43.892166  2303 net.cpp:150] Setting up conv2-dsn2
I1118 18:09:43.892177  2303 net.cpp:157] Top shape: 1 64 250 250 (4000000)
I1118 18:09:43.892179  2303 net.cpp:165] Memory required for data: 1093542948
I1118 18:09:43.892184  2303 layer_factory.hpp:77] Creating layer relu1-dsn2
I1118 18:09:43.892189  2303 net.cpp:100] Creating Layer relu1-dsn2
I1118 18:09:43.892192  2303 net.cpp:434] relu1-dsn2 <- conv2-dsn2
I1118 18:09:43.892197  2303 net.cpp:395] relu1-dsn2 -> conv2-dsn2 (in-place)
I1118 18:09:43.892257  2303 net.cpp:150] Setting up relu1-dsn2
I1118 18:09:43.892264  2303 net.cpp:157] Top shape: 1 64 250 250 (4000000)
I1118 18:09:43.892266  2303 net.cpp:165] Memory required for data: 1109542948
I1118 18:09:43.892271  2303 layer_factory.hpp:77] Creating layer conv3-dsn2
I1118 18:09:43.892294  2303 net.cpp:100] Creating Layer conv3-dsn2
I1118 18:09:43.892297  2303 net.cpp:434] conv3-dsn2 <- conv2-dsn2
I1118 18:09:43.892311  2303 net.cpp:408] conv3-dsn2 -> conv3-dsn2
I1118 18:09:43.893216  2303 net.cpp:150] Setting up conv3-dsn2
I1118 18:09:43.893225  2303 net.cpp:157] Top shape: 1 64 250 250 (4000000)
I1118 18:09:43.893229  2303 net.cpp:165] Memory required for data: 1125542948
I1118 18:09:43.893234  2303 layer_factory.hpp:77] Creating layer relu2-dsn2
I1118 18:09:43.893239  2303 net.cpp:100] Creating Layer relu2-dsn2
I1118 18:09:43.893240  2303 net.cpp:434] relu2-dsn2 <- conv3-dsn2
I1118 18:09:43.893245  2303 net.cpp:395] relu2-dsn2 -> conv3-dsn2 (in-place)
I1118 18:09:43.893307  2303 net.cpp:150] Setting up relu2-dsn2
I1118 18:09:43.893316  2303 net.cpp:157] Top shape: 1 64 250 250 (4000000)
I1118 18:09:43.893318  2303 net.cpp:165] Memory required for data: 1141542948
I1118 18:09:43.893337  2303 layer_factory.hpp:77] Creating layer conv4-dsn2
I1118 18:09:43.893344  2303 net.cpp:100] Creating Layer conv4-dsn2
I1118 18:09:43.893347  2303 net.cpp:434] conv4-dsn2 <- conv3-dsn2
I1118 18:09:43.893352  2303 net.cpp:408] conv4-dsn2 -> conv4-dsn2
I1118 18:09:43.893951  2303 net.cpp:150] Setting up conv4-dsn2
I1118 18:09:43.893961  2303 net.cpp:157] Top shape: 1 1 250 250 (62500)
I1118 18:09:43.893963  2303 net.cpp:165] Memory required for data: 1141792948
I1118 18:09:43.893968  2303 layer_factory.hpp:77] Creating layer sum-dsn2
I1118 18:09:43.893973  2303 net.cpp:100] Creating Layer sum-dsn2
I1118 18:09:43.893976  2303 net.cpp:434] sum-dsn2 <- conv4-dsn2
I1118 18:09:43.893980  2303 net.cpp:434] sum-dsn2 <- weight-dsn3-2_crop1-dsn2_0_split_1
I1118 18:09:43.893985  2303 net.cpp:408] sum-dsn2 -> sum-dsn2
I1118 18:09:43.894003  2303 net.cpp:150] Setting up sum-dsn2
I1118 18:09:43.894007  2303 net.cpp:157] Top shape: 1 1 250 250 (62500)
I1118 18:09:43.894009  2303 net.cpp:165] Memory required for data: 1142042948
I1118 18:09:43.894011  2303 layer_factory.hpp:77] Creating layer upsample2_2-dsn2
I1118 18:09:43.894017  2303 net.cpp:100] Creating Layer upsample2_2-dsn2
I1118 18:09:43.894019  2303 net.cpp:434] upsample2_2-dsn2 <- sum-dsn2
I1118 18:09:43.894023  2303 net.cpp:408] upsample2_2-dsn2 -> sum-dsn2-up
I1118 18:09:43.895202  2303 net.cpp:150] Setting up upsample2_2-dsn2
I1118 18:09:43.895212  2303 net.cpp:157] Top shape: 1 1 502 502 (252004)
I1118 18:09:43.895215  2303 net.cpp:165] Memory required for data: 1143050964
I1118 18:09:43.895220  2303 layer_factory.hpp:77] Creating layer crop2-dsn2
I1118 18:09:43.895224  2303 net.cpp:100] Creating Layer crop2-dsn2
I1118 18:09:43.895227  2303 net.cpp:434] crop2-dsn2 <- sum-dsn2-up
I1118 18:09:43.895231  2303 net.cpp:434] crop2-dsn2 <- data_data_0_split_5
I1118 18:09:43.895236  2303 net.cpp:408] crop2-dsn2 -> upscore-dsn2
I1118 18:09:43.895256  2303 net.cpp:150] Setting up crop2-dsn2
I1118 18:09:43.895260  2303 net.cpp:157] Top shape: 1 1 500 500 (250000)
I1118 18:09:43.895262  2303 net.cpp:165] Memory required for data: 1144050964
I1118 18:09:43.895265  2303 layer_factory.hpp:77] Creating layer upscore-dsn2_crop2-dsn2_0_split
I1118 18:09:43.895270  2303 net.cpp:100] Creating Layer upscore-dsn2_crop2-dsn2_0_split
I1118 18:09:43.895272  2303 net.cpp:434] upscore-dsn2_crop2-dsn2_0_split <- upscore-dsn2
I1118 18:09:43.895277  2303 net.cpp:408] upscore-dsn2_crop2-dsn2_0_split -> upscore-dsn2_crop2-dsn2_0_split_0
I1118 18:09:43.895282  2303 net.cpp:408] upscore-dsn2_crop2-dsn2_0_split -> upscore-dsn2_crop2-dsn2_0_split_1
I1118 18:09:43.895287  2303 net.cpp:408] upscore-dsn2_crop2-dsn2_0_split -> upscore-dsn2_crop2-dsn2_0_split_2
I1118 18:09:43.895352  2303 net.cpp:150] Setting up upscore-dsn2_crop2-dsn2_0_split
I1118 18:09:43.895359  2303 net.cpp:157] Top shape: 1 1 500 500 (250000)
I1118 18:09:43.895361  2303 net.cpp:157] Top shape: 1 1 500 500 (250000)
I1118 18:09:43.895365  2303 net.cpp:157] Top shape: 1 1 500 500 (250000)
I1118 18:09:43.895367  2303 net.cpp:165] Memory required for data: 1147050964
I1118 18:09:43.895370  2303 layer_factory.hpp:77] Creating layer loss2-score
I1118 18:09:43.895376  2303 net.cpp:100] Creating Layer loss2-score
I1118 18:09:43.895378  2303 net.cpp:434] loss2-score <- upscore-dsn2_crop2-dsn2_0_split_0
I1118 18:09:43.895382  2303 net.cpp:434] loss2-score <- label_data_1_split_4
I1118 18:09:43.895386  2303 net.cpp:408] loss2-score -> loss2-score
I1118 18:09:43.895592  2303 net.cpp:150] Setting up loss2-score
I1118 18:09:43.895598  2303 net.cpp:157] Top shape: (1)
I1118 18:09:43.895601  2303 net.cpp:160]     with loss weight 1
I1118 18:09:43.895606  2303 net.cpp:165] Memory required for data: 1147050968
I1118 18:09:43.895612  2303 layer_factory.hpp:77] Creating layer sigmoid-dsn1
I1118 18:09:43.895617  2303 net.cpp:100] Creating Layer sigmoid-dsn1
I1118 18:09:43.895619  2303 net.cpp:434] sigmoid-dsn1 <- upscore-dsn2_crop2-dsn2_0_split_1
I1118 18:09:43.895624  2303 net.cpp:408] sigmoid-dsn1 -> sigmoid-dsn1
I1118 18:09:43.896791  2303 net.cpp:150] Setting up sigmoid-dsn1
I1118 18:09:43.896802  2303 net.cpp:157] Top shape: 1 1 500 500 (250000)
I1118 18:09:43.896804  2303 net.cpp:165] Memory required for data: 1148050968
I1118 18:09:43.896807  2303 layer_factory.hpp:77] Creating layer rev-dsn1
I1118 18:09:43.896812  2303 net.cpp:100] Creating Layer rev-dsn1
I1118 18:09:43.896816  2303 net.cpp:434] rev-dsn1 <- sigmoid-dsn1
I1118 18:09:43.896821  2303 net.cpp:408] rev-dsn1 -> rev-dsn1
I1118 18:09:43.896838  2303 net.cpp:150] Setting up rev-dsn1
I1118 18:09:43.896842  2303 net.cpp:157] Top shape: 1 1 500 500 (250000)
I1118 18:09:43.896844  2303 net.cpp:165] Memory required for data: 1149050968
I1118 18:09:43.896847  2303 layer_factory.hpp:77] Creating layer tile-dsn1
I1118 18:09:43.896850  2303 net.cpp:100] Creating Layer tile-dsn1
I1118 18:09:43.896853  2303 net.cpp:434] tile-dsn1 <- rev-dsn1
I1118 18:09:43.896857  2303 net.cpp:408] tile-dsn1 -> weight-dsn1
I1118 18:09:43.896870  2303 net.cpp:150] Setting up tile-dsn1
I1118 18:09:43.896874  2303 net.cpp:157] Top shape: 1 64 500 500 (16000000)
I1118 18:09:43.896876  2303 net.cpp:165] Memory required for data: 1213050968
I1118 18:09:43.896878  2303 layer_factory.hpp:77] Creating layer prod1-dsn1
I1118 18:09:43.896883  2303 net.cpp:100] Creating Layer prod1-dsn1
I1118 18:09:43.896885  2303 net.cpp:434] prod1-dsn1 <- conv1_2_relu1_2_0_split_1
I1118 18:09:43.896888  2303 net.cpp:434] prod1-dsn1 <- weight-dsn1
I1118 18:09:43.896893  2303 net.cpp:408] prod1-dsn1 -> prod1-dsn1
I1118 18:09:43.896921  2303 net.cpp:150] Setting up prod1-dsn1
I1118 18:09:43.896926  2303 net.cpp:157] Top shape: 1 64 500 500 (16000000)
I1118 18:09:43.896929  2303 net.cpp:165] Memory required for data: 1277050968
I1118 18:09:43.896934  2303 layer_factory.hpp:77] Creating layer conv1-dsn1
I1118 18:09:43.896940  2303 net.cpp:100] Creating Layer conv1-dsn1
I1118 18:09:43.896944  2303 net.cpp:434] conv1-dsn1 <- prod1-dsn1
I1118 18:09:43.896948  2303 net.cpp:408] conv1-dsn1 -> conv1-dsn1
I1118 18:09:43.898422  2303 net.cpp:150] Setting up conv1-dsn1
I1118 18:09:43.898432  2303 net.cpp:157] Top shape: 1 64 500 500 (16000000)
I1118 18:09:43.898450  2303 net.cpp:165] Memory required for data: 1341050968
I1118 18:09:43.898456  2303 layer_factory.hpp:77] Creating layer conv2-dsn1
I1118 18:09:43.898478  2303 net.cpp:100] Creating Layer conv2-dsn1
I1118 18:09:43.898480  2303 net.cpp:434] conv2-dsn1 <- conv1-dsn1
I1118 18:09:43.898485  2303 net.cpp:408] conv2-dsn1 -> conv2-dsn1
I1118 18:09:43.899566  2303 net.cpp:150] Setting up conv2-dsn1
I1118 18:09:43.899576  2303 net.cpp:157] Top shape: 1 64 500 500 (16000000)
I1118 18:09:43.899595  2303 net.cpp:165] Memory required for data: 1405050968
I1118 18:09:43.899600  2303 layer_factory.hpp:77] Creating layer relu1-dsn1
I1118 18:09:43.899605  2303 net.cpp:100] Creating Layer relu1-dsn1
I1118 18:09:43.899608  2303 net.cpp:434] relu1-dsn1 <- conv2-dsn1
I1118 18:09:43.899612  2303 net.cpp:395] relu1-dsn1 -> conv2-dsn1 (in-place)
I1118 18:09:43.899674  2303 net.cpp:150] Setting up relu1-dsn1
I1118 18:09:43.899682  2303 net.cpp:157] Top shape: 1 64 500 500 (16000000)
I1118 18:09:43.899683  2303 net.cpp:165] Memory required for data: 1469050968
I1118 18:09:43.899688  2303 layer_factory.hpp:77] Creating layer conv3-dsn1
I1118 18:09:43.899696  2303 net.cpp:100] Creating Layer conv3-dsn1
I1118 18:09:43.899699  2303 net.cpp:434] conv3-dsn1 <- conv2-dsn1
I1118 18:09:43.899704  2303 net.cpp:408] conv3-dsn1 -> conv3-dsn1
I1118 18:09:43.901510  2303 net.cpp:150] Setting up conv3-dsn1
I1118 18:09:43.901520  2303 net.cpp:157] Top shape: 1 64 500 500 (16000000)
I1118 18:09:43.901522  2303 net.cpp:165] Memory required for data: 1533050968
I1118 18:09:43.901527  2303 layer_factory.hpp:77] Creating layer relu2-dsn1
I1118 18:09:43.901532  2303 net.cpp:100] Creating Layer relu2-dsn1
I1118 18:09:43.901535  2303 net.cpp:434] relu2-dsn1 <- conv3-dsn1
I1118 18:09:43.901540  2303 net.cpp:395] relu2-dsn1 -> conv3-dsn1 (in-place)
I1118 18:09:43.901732  2303 net.cpp:150] Setting up relu2-dsn1
I1118 18:09:43.901742  2303 net.cpp:157] Top shape: 1 64 500 500 (16000000)
I1118 18:09:43.901744  2303 net.cpp:165] Memory required for data: 1597050968
I1118 18:09:43.901747  2303 layer_factory.hpp:77] Creating layer conv4-dsn1
I1118 18:09:43.901757  2303 net.cpp:100] Creating Layer conv4-dsn1
I1118 18:09:43.901759  2303 net.cpp:434] conv4-dsn1 <- conv3-dsn1
I1118 18:09:43.901765  2303 net.cpp:408] conv4-dsn1 -> conv4-dsn1
I1118 18:09:43.902462  2303 net.cpp:150] Setting up conv4-dsn1
I1118 18:09:43.902472  2303 net.cpp:157] Top shape: 1 1 500 500 (250000)
I1118 18:09:43.902473  2303 net.cpp:165] Memory required for data: 1598050968
I1118 18:09:43.902478  2303 layer_factory.hpp:77] Creating layer sum-dsn1
I1118 18:09:43.902484  2303 net.cpp:100] Creating Layer sum-dsn1
I1118 18:09:43.902487  2303 net.cpp:434] sum-dsn1 <- conv4-dsn1
I1118 18:09:43.902490  2303 net.cpp:434] sum-dsn1 <- upscore-dsn2_crop2-dsn2_0_split_2
I1118 18:09:43.902495  2303 net.cpp:408] sum-dsn1 -> sum-dsn1
I1118 18:09:43.902515  2303 net.cpp:150] Setting up sum-dsn1
I1118 18:09:43.902519  2303 net.cpp:157] Top shape: 1 1 500 500 (250000)
I1118 18:09:43.902521  2303 net.cpp:165] Memory required for data: 1599050968
I1118 18:09:43.902524  2303 layer_factory.hpp:77] Creating layer crop2-dsn1
I1118 18:09:43.902529  2303 net.cpp:100] Creating Layer crop2-dsn1
I1118 18:09:43.902530  2303 net.cpp:434] crop2-dsn1 <- sum-dsn1
I1118 18:09:43.902534  2303 net.cpp:434] crop2-dsn1 <- data_data_0_split_6
I1118 18:09:43.902537  2303 net.cpp:408] crop2-dsn1 -> upscore-dsn1
I1118 18:09:43.902552  2303 net.cpp:150] Setting up crop2-dsn1
I1118 18:09:43.902556  2303 net.cpp:157] Top shape: 1 1 500 500 (250000)
I1118 18:09:43.902559  2303 net.cpp:165] Memory required for data: 1600050968
I1118 18:09:43.902560  2303 layer_factory.hpp:77] Creating layer loss1-score
I1118 18:09:43.902565  2303 net.cpp:100] Creating Layer loss1-score
I1118 18:09:43.902567  2303 net.cpp:434] loss1-score <- upscore-dsn1
I1118 18:09:43.902570  2303 net.cpp:434] loss1-score <- label_data_1_split_5
I1118 18:09:43.902595  2303 net.cpp:408] loss1-score -> loss1-score
…
